…
    downsample_rate: 16
    downsample_rate: 32
    downsample_rate: 32
    downsample_rate: 64
    coord_num: 4
    field_h: 46
    field_h: 84
    field_h: 128
    field_h: 190
    field_h: 266
    field_h: 366
    field_h: 582
    field_w: 52
    field_w: 94
    field_w: 143
    field_w: 205
    field_w: 282
    field_w: 374
    field_w: 539
    fg_threshold: 0.5
    resize_width: 1344
    resize_height: 768
    crop_width: 768
    crop_height: 768
    do_multiple_scale: true
    min_scale: 46
    max_scale: 582
    min_gt_height: 25
    shuffle: true
  }
}
layer {
  name: "slice"
  type: "Slice"
  bottom: "data"
  top: "data123"
  top: "ch4"
  slice_param {
    slice_point: 3
    axis: 1
  }
}
layer {
  name: "conv1_1"
  type: "Convolution"
  bottom: "data123"
  top: "conv1_1"
  convolution_param {
    num_output: 64
    pad: 1
    kernel_size: 3
  }
}
layer {
  name: "relu1_1"
  type: "ReLU"
  bottom: "conv1_1"
  top: "conv1_1"
}
layer {
  name: "conv1_2"
  type: "Convolution"
  bottom: "conv1_1"
  top: "conv1_2"
  convolution_param {
    num_output: 64
    pad: 1
    kernel_size: 3
  }
}
layer {
  name: "relu1_2"
  type: "ReLU"
  bottom: "conv1_2"
  top: "conv1_2"
}
layer {
  name: "pool1"
  type: "Pooling"
  bottom: "conv1_2"
  top: "pool1"
  pooling_param {
    pool: MAX
    kernel_size: 2
    stride: 2
  }
}
layer {
  name: "conv2_1"
  type: "Convolution"
  bottom: "pool1"
  top: "conv2_1"
  convolution_param {
    num_output: 128
    pad: 1
    kernel_size: 3
  }
}
layer {
  name: "relu2_1"
  type: "ReLU"
  bottom: "conv2_1"
  top: "conv2_1"
}
layer {
  name: "conv2_2"
  type: "Convolution"
  bottom: "conv2_1"
  top: "conv2_2"
  convolution_param {
    num_output: 128
    pad: 1
    kernel_size: 3
  }
}
layer {
  name: "relu2_2"
  type: "ReLU"
  bottom: "conv2_2"
  top: "conv2_2"
}
layer {
  name: "pool2"
  type: "Pooling"
  bottom: "conv2_2"
  top: "pool2"
  pooling_param {
    pool: MAX
    kernel_size: 2
    stride: 2
  }
}
layer {
  name: "conv3_1"
  type: "Convolution"
  bottom: "pool2"
  top: "conv3_1"
  convolution_param {
    num_output: 256
    pad: 1
    kernel_size: 3
  }
}
layer {
  name: "relu3_1"
  type: "ReLU"
  bottom: "conv3_1"
  top: "conv3_1"
}
layer {
  name: "conv3_2"
  type: "Convolution"
  bottom: "conv3_1"
  top: "conv3_2"
  convolution_param {
    num_output: 256
    pad: 1
    kernel_size: 3
  }
}
layer {
  name: "relu3_2"
  type: "ReLU"
  bottom: "conv3_2"
  top: "conv3_2"
}
layer {
  name: "conv3_3"
  type: "Convolution"
  bottom: "conv3_2"
  top: "conv3_3"
  convolution_param {
    num_output: 256
    pad: 1
    kernel_size: 3
  }
}
layer {
  name: "relu3_3"
  type: "ReLU"
  bottom: "conv3_3"
  top: "conv3_3"
}
layer {
  name: "pool3"
  type: "Pooling"
  bottom: "conv3_3"
  top: "pool3"
  pooling_param {
    pool: MAX
    kernel_size: 2
    stride: 2
  }
}
layer {
  name: "conv4_1"
  type: "Convolution"
  bottom: "pool3"
  top: "conv4_1"
  convolution_param {
    num_output: 512
    pad: 1
    kernel_size: 3
  }
}
layer {
  name: "relu4_1"
  type: "ReLU"
  bottom: "conv4_1"
  top: "conv4_1"
}
layer {
  name: "conv4_2"
  type: "Convolution"
  bottom: "conv4_1"
  top: "conv4_2"
  convolution_param {
    num_output: 512
    pad: 1
    kernel_size: 3
  }
}
layer {
  name: "relu4_2"
  type: "ReLU"
  bottom: "conv4_2"
  top: "conv4_2"
}
layer {
  name: "conv4_3"
  type: "Convolution"
  bottom: "conv4_2"
  top: "conv4_3"
  convolution_param {
    num_output: 512
    pad: 1
    kernel_size: 3
  }
}
layer {
  name: "relu4_3"
  type: "ReLU"
  bottom: "conv4_3"
  top: "conv4_3"
}
layer {
  name: "buffer"
  type: "Convolution"
  bottom: "conv4_3"
  top: "buffer"
  param {
    lr_mult: 1
    decay_mult: 1
  }
  param {
    lr_mult: 2
    decay_mult: 0
  }
  propagate_down: false
  convolution_param {
    num_output: 512
    pad: 1
    kernel_size: 3
    weight_filler {
      type: "gaussian"
      std: 0.01
    }
    bias_filler {
      type: "constant"
    }
  }
}
layer {
  name: "relu_buffer"
  type: "ReLU"
  bottom: "buffer"
  top: "buffer"
}
layer {
  name: "attention"
  type: "Convolution"
  bottom: "buffer"
  top: "attention"
  param {
    lr_mult: 1
    decay_mult: 1
  }
  param {
    lr_mult: 2
    decay_mult: 0
  }
  convolution_param {
    num_output: 3
    pad: 1
    kernel_size: 3
    weight_filler {
      type: "gaussian"
      std: 0.01
    }
    bias_filler {
      type: "constant"
    }
  }
}
layer {
  name: "ch4_pool"
  type: "Pooling"
  bottom: "ch4"
  top: "ch4_pool"
  pooling_param {
    pool: MAX
    kernel_size: 8
    stride: 8
  }
}
layer {
  name: "loss_attention"
  type: "SoftmaxWithLoss"
  bottom: "attention"
  bottom: "ch4_pool"
  top: "loss_attention"
  loss_weight: 1
  propagate_down: true
  propagate_down: false
}
layer {
  name: "loss1_conv1"
  type: "Convolution"
  bottom: "conv4_3"
  top: "loss1_conv1"
  param {
    lr_mult: 1
    decay_mult: 1
  }
  param {
    lr_mult: 2
    decay_mult: 0
  }
  convolution_param {
    num_output: 512
    pad: 1
    kernel_size: 3
    weight_filler {
      type: "gaussian"
      std: 0.01
    }
    bias_filler {
      type: "constant"
    }
  }
}
layer {
  name: "loss_relu1"
  type: "ReLU"
  bottom: "loss1_conv1"
  top: "loss1_conv1"
}
layer {
  name: "LFCN_1_5x5"
  type: "Convolution"
  bottom: "loss1_conv1"
  top: "LFCN_1_5x5"
  param {
    lr_mult: 1
    decay_mult: 1
  }
  param {
    lr_mult: 2
    decay_mult: 0
  }
  convolution_param {
    num_output: 9
    pad: 2
    kernel_size: 5
    weight_filler {
      type: "gaussian"
      std: 0.001
    }
    bias_filler {
      type: "constant"
    }
  }
}
layer {
  name: "detection_loss_1_5x5"
  type: "DetectionLoss"
  bottom: "LFCN_1_5x5"
  bottom: "label_1_5x5"
  top: "loss_1_5x5"
  loss_weight: 0.9
  detection_loss_param {
    cls_num: 5
    coord_num: 4
    lambda: 0.05
    field_h: 46
    field_w: 52
    downsample_rate: 8
    bb_smooth: true
    field_whr: 2
    field_xyr: 2
    bg_threshold: 0.2
    bg_multiple: 2
    sample_mode: "random"
    pos_neg_weighted: true
  }
}
layer {
  name: "detection_accuracy_1_5x5"
  type: "DetectionAccuracy"
  bottom: "LFCN_1_5x5"
  bottom: "label_1_5x5"
  top: "accuracy_1_5x5"
  top: "boxiou_1_5x5"
  detection_accuracy_param {
    cls_num: 5
    coord_num: 4
    field_h: 46
    field_w: 52
    downsample_rate: 8
    field_whr: 2
    field_xyr: 2
  }
}
layer {
  name: "LFCN_1_7x7"
  type: "Convolution"
  bottom: "loss1_conv1"
  top: "LFCN_1_7x7"
  param {
    lr_mult: 1
    decay_mult: 1
  }
  param {
    lr_mult: 2
    decay_mult: 0
  }
  convolution_param {
    num_output: 9
    pad: 3
    kernel_size: 7
    weight_filler {
      type: "gaussian"
      std: 0.001
    }
    bias_filler {
      type: "constant"
    }
  }
}
layer {
  name: "detection_loss_1_7x7"
  type: "DetectionLoss"
  bottom: "LFCN_1_7x7"
  bottom: "label_1_7x7"
  top: "loss_1_7x7"
  loss_weight: 0.9
  detection_loss_param {
    cls_num: 5
    coord_num: 4
    lambda: 0.05
    field_h: 84
    field_w: 94
    downsample_rate: 8
    bb_smooth: true
    field_whr: 2
    field_xyr: 2
    bg_threshold: 0.2
    bg_multiple: 2
    sample_mode: "random"
    pos_neg_weighted: true
  }
}
layer {
  name: "detection_accuracy_1_7x7"
  type: "DetectionAccuracy"
  bottom: "LFCN_1_7x7"
  bottom: "label_1_7x7"
  top: "accuracy_1_7x7"
  top: "boxiou_1_7x7"
  detection_accuracy_param {
    cls_num: 5
    coord_num: 4
    field_h: 84
    field_w: 94
    downsample_rate: 8
    field_whr: 2
    field_xyr: 2
  }
}
layer {
  name: "pool4"
  type: "Pooling"
  bottom: "conv4_3"
  top: "pool4"
  pooling_param {
    pool: MAX
    kernel_size: 2
    stride: 2
  }
}
layer {
  name: "conv5_1"
  type: "Convolution"
  bottom: "pool4"
  top: "conv5_1"
  convolution_param {
    num_output: 512
    pad: 1
    kernel_size: 3
  }
}
layer {
  name: "relu5_1"
  type: "ReLU"
  bottom: "conv5_1"
  top: "conv5_1"
}
layer {
  name: "conv5_2"
  type: "Convolution"
  bottom: "conv5_1"
  top: "conv5_2"
  convolution_param {
    num_output: 512
    pad: 1
    kernel_size: 3
  }
}
layer {
  name: "relu5_2"
  type: "ReLU"
  bottom: "conv5_2"
  top: "conv5_2"
}
layer {
  name: "conv5_3"
  type: "Convolution"
  bottom: "conv5_2"
  top: "conv5_3"
  convolution_param {
    num_output: 512
    pad: 1
    kernel_size: 3
  }
}
layer {
  name: "relu5_3"
  type: "ReLU"
  bottom: "conv5_3"
  top: "conv5_3"
}
layer {
  name: "LFCN_2_5x5"
  type: "Convolution"
  bottom: "conv5_3"
  top: "LFCN_2_5x5"
  param {
    lr_mult: 1
    decay_mult: 1
  }
  param {
    lr_mult: 2
    decay_mult: 0
  }
  convolution_param {
    num_output: 9
    pad: 2
    kernel_size: 5
    weight_filler {
      type: "gaussian"
      std: 0.001
    }
    bias_filler {
      type: "constant"
    }
  }
}
layer {
  name: "detection_loss_2_5x5"
  type: "DetectionLoss"
  bottom: "LFCN_2_5x5"
  bottom: "label_2_5x5"
  top: "loss_2_5x5"
  detection_loss_param {
    cls_num: 5
    coord_num: 4
    lambda: 0.05
    field_h: 128
    field_w: 143
    downsample_rate: 16
    bb_smooth: true
    field_whr: 2
    field_xyr: 2
    bg_threshold: 0.2
    bg_multiple: 2
    sample_mode: "random"
    pos_neg_weighted: true
  }
}
layer {
  name: "detection_accuracy_2_5x5"
  type: "DetectionAccuracy"
  bottom: "LFCN_2_5x5"
  bottom: "label_2_5x5"
  top: "accuracy_2_5x5"
  top: "boxiou_2_5x5"
  detection_accuracy_param {
    cls_num: 5
    coord_num: 4
    field_h: 128
    field_w: 143
    downsample_rate: 16
    field_whr: 2
    field_xyr: 2
  }
}
layer {
  name: "LFCN_2_7x7"
  type: "Convolution"
  bottom: "conv5_3"
  top: "LFCN_2_7x7"
  param {
    lr_mult: 1
    decay_mult: 1
  }
  param {
    lr_mult: 2
    decay_mult: 0
  }
  convolution_param {
    num_output: 9
    pad: 3
    kernel_size: 7
    weight_filler {
      type: "gaussian"
      std: 0.001
    }
    bias_filler {
      type: "constant"
    }
  }
}
layer {
  name: "detection_loss_2_7x7"
  type: "DetectionLoss"
  bottom: "LFCN_2_7x7"
  bottom: "label_2_7x7"
  top: "loss_2_7x7"
  detection_loss_param {
    cls_num: 5
    coord_num: 4
    lambda: 0.05
    field_h: 190
    field_w: 205
    downsample_rate: 16
    bb_smooth: true
    field_whr: 2
    field_xyr: 2
    bg_threshold: 0.2
    bg_multiple: 2
    sample_mode: "random"
    pos_neg_weighted: true
  }
}
layer {
  name: "detection_accuracy_2_7x7"
  type: "DetectionAccuracy"
  bottom: "LFCN_2_7x7"
  bottom: "label_2_7x7"
  top: "accuracy_2_7x7"
  top: "boxiou_2_7x7"
  detection_accuracy_param {
    cls_num: 5
    coord_num: 4
    field_h: 190
    field_w: 205
    downsample_rate: 16
    field_whr: 2
    field_xyr: 2
  }
}
layer {
  name: "pool5"
  type: "Pooling"
  bottom: "conv5_3"
  top: "pool5"
  pooling_param {
    pool: MAX
    kernel_size: 2
    stride: 2
  }
}
layer {
  name: "conv6_1"
  type: "Convolution"
  bottom: "pool5"
  top: "conv6_1"
  param {
    lr_mult: 1
    decay_mult: 1
  }
  param {
    lr_mult: 2
    decay_mult: 0
  }
  convolution_param {
    num_output: 512
    pad: 1
    kernel_size: 3
    weight_filler {
      type: "gaussian"
      std: 0.01
    }
    bias_filler {
      type: "constant"
    }
  }
}
layer {
  name: "relu6_1"
  type: "ReLU"
  bottom: "conv6_1"
  top: "conv6_1"
}
layer {
  name: "LFCN_3_5x5"
  type: "Convolution"
  bottom: "conv6_1"
  top: "LFCN_3_5x5"
  param {
    lr_mult: 1
    decay_mult: 1
  }
  param {
    lr_mult: 2
    decay_mult: 0
  }
  convolution_param {
    num_output: 9
    pad: 2
    kernel_size: 5
    weight_filler {
      type: "gaussian"
      std: 0.001
    }
    bias_filler {
      type: "constant"
    }
  }
}
layer {
  name: "detection_loss_3_5x5"
  type: "DetectionLoss"
  bottom: "LFCN_3_5x5"
  bottom: "label_3_5x5"
  top: "loss_3_5x5"
  detection_loss_param {
    cls_num: 5
    coord_num: 4
    lambda: 0.05
    field_h: 266
    field_w: 282
    downsample_rate: 32
    bb_smooth: true
    field_whr: 2
    field_xyr: 2
    bg_threshold: 0.2
    bg_multiple: 2
    sample_mode: "random"
    pos_neg_weighted: true
  }
}
layer {
  name: "detection_accuracy_3_5x5"
  type: "DetectionAccuracy"
  bottom: "LFCN_3_5x5"
  bottom: "label_3_5x5"
  top: "accuracy_3_5x5"
  top: "boxiou_3_5x5"
  detection_accuracy_param {
    cls_num: 5
    coord_num: 4
    field_h: 266
    field_w: 282
    downsample_rate: 32
    field_whr: 2
    field_xyr: 2
  }
}
layer {
  name: "LFCN_3_7x7"
  type: "Convolution"
  bottom: "conv6_1"
  top: "LFCN_3_7x7"
  param {
    lr_mult: 1
    decay_mult: 1
  }
  param {
    lr_mult: 2
    decay_mult: 0
  }
  convolution_param {
    num_output: 9
    pad: 3
    kernel_size: 7
    weight_filler {
      type: "gaussian"
      std: 0.001
    }
    bias_filler {
      type: "constant"
    }
  }
}
layer {
  name: "detection_loss_3_7x7"
  type: "DetectionLoss"
  bottom: "LFCN_3_7x7"
  bottom: "label_3_7x7"
  top: "loss_3_7x7"
  detection_loss_param {
    cls_num: 5
    coord_num: 4
    lambda: 0.05
    field_h: 366
    field_w: 374
    downsample_rate: 32
    bb_smooth: true
    field_whr: 2
    field_xyr: 2
    bg_threshold: 0.2
    bg_multiple: 2
    sample_mode: "random"
    pos_neg_weighted: true
  }
}
layer {
  name: "detection_accuracy_3_7x7"
  type: "DetectionAccuracy"
  bottom: "LFCN_3_7x7"
  bottom: "label_3_7x7"
  top: "accuracy_3_7x7"
  top: "boxiou_3_7x7"
  detection_accuracy_param {
    cls_num: 5
    coord_num: 4
    field_h: 366
    field_w: 374
    downsample_rate: 32
    field_whr: 2
    field_xyr: 2
  }
}
layer {
  name: "pool6"
  type: "Pooling"
  bottom: "conv6_1"
  top: "pool6"
  pooling_param {
    pool: MAX
    kernel_size: 2
    stride: 2
  }
}
layer {
  name: "LFCN_4_5x5"
  type: "Convolution"
  bottom: "pool6"
  top: "LFCN_4_5x5"
  param {
    lr_mult: 1
    decay_mult: 1
  }
  param {
    lr_mult: 2
    decay_mult: 0
  }
  convolution_param {
    num_output: 9
    pad: 2
    kernel_size: 5
    weight_filler {
      type: "gaussian"
      std: 0.001
    }
    bias_filler {
      type: "constant"
    }
  }
}
layer {
  name: "detection_loss_4_5x5"
  type: "DetectionLoss"
  bottom: "LFCN_4_5x5"
  bottom: "label_4_5x5"
  top: "loss_4_5x5"
  detection_loss_param {
    cls_num: 5
    coord_num: 4
    lambda: 0.05
    field_h: 582
    field_w: 539
    downsample_rate: 64
    bb_smooth: true
    field_whr: 2
    field_xyr: 2
    bg_threshold: 0.2
    bg_multiple: 2
    sample_mode: "random"
    pos_neg_weighted: true
  }
}
layer {
  name: "detection_accuracy_4_5x5"
  type: "DetectionAccuracy"
  bottom: "LFCN_4_5x5"
  bottom: "label_4_5x5"
  top: "accuracy_4_5x5"
  top: "boxiou_4_5x5"
  detection_accuracy_param {
    cls_num: 5
    coord_num: 4
    field_h: 582
    field_w: 539
    downsample_rate: 64
    field_whr: 2
    field_xyr: 2
  }
}
I1119 21:06:32.437477  8814 layer_factory.hpp:77] Creating layer data
I1119 21:06:32.437515  8814 net.cpp:100] Creating Layer data
I1119 21:06:32.437522  8814 net.cpp:408] data -> data
…
I1119 21:06:32.462525  8814 image_gt_data_layer.cpp:235] output label size 1 : 3,6,96,96
I1119 21:06:32.462563  8814 image_gt_data_layer.cpp:235] output label size 2 : 3,6,48,48
I1119 21:06:32.462600  8814 image_gt_data_layer.cpp:235] output label size 3 : 3,6,48,48
I1119 21:06:32.462646  8814 image_gt_data_layer.cpp:235] output label size 4 : 3,6,24,24
I1119 21:06:32.462692  8814 image_gt_data_layer.cpp:235] output label size 5 : 3,6,24,24
I1119 21:06:32.462738  8814 image_gt_data_layer.cpp:235] output label size 6 : 3,6,12,12
I1119 21:06:32.513399  8814 net.cpp:150] Setting up data
I1119 21:06:32.513432  8814 net.cpp:157] Top shape: 3 4 768 768 (7077888)
I1119 21:06:32.513438  8814 net.cpp:157] Top shape: 3 6 96 96 (165888)
I1119 21:06:32.513443  8814 net.cpp:157] Top shape: 3 6 96 96 (165888)
I1119 21:06:32.513447  8814 net.cpp:157] Top shape: 3 6 48 48 (41472)
I1119 21:06:32.513451  8814 net.cpp:157] Top shape: 3 6 48 48 (41472)
I1119 21:06:32.513456  8814 net.cpp:157] Top shape: 3 6 24 24 (10368)
I1119 21:06:32.513460  8814 net.cpp:157] Top shape: 3 6 24 24 (10368)
I1119 21:06:32.513464  8814 net.cpp:157] Top shape: 3 6 12 12 (2592)
I1119 21:06:32.513468  8814 net.cpp:165] Memory required for data: 30063744
I1119 21:06:32.513478  8814 layer_factory.hpp:77] Creating layer label_1_5x5_data_1_split
I1119 21:06:32.513494  8814 net.cpp:100] Creating Layer label_1_5x5_data_1_split
I1119 21:06:32.513499  8814 net.cpp:434] label_1_5x5_data_1_split <- label_1_5x5
I1119 21:06:32.513514  8814 net.cpp:408] label_1_5x5_data_1_split -> label_1_5x5_data_1_split_0
I1119 21:06:32.513523  8814 net.cpp:408] label_1_5x5_data_1_split -> label_1_5x5_data_1_split_1
I1119 21:06:32.513777  8814 net.cpp:150] Setting up label_1_5x5_data_1_split
I1119 21:06:32.513828  8814 net.cpp:157] Top shape: 3 6 96 96 (165888)
I1119 21:06:32.513839  8814 net.cpp:157] Top shape: 3 6 96 96 (165888)
I1119 21:06:32.513846  8814 net.cpp:165] Memory required for data: 31390848
I1119 21:06:32.513859  8814 layer_factory.hpp:77] Creating layer label_1_7x7_data_2_split
I1119 21:06:32.513880  8814 net.cpp:100] Creating Layer label_1_7x7_data_2_split
I1119 21:06:32.513890  8814 net.cpp:434] label_1_7x7_data_2_split <- label_1_7x7
I1119 21:06:32.513905  8814 net.cpp:408] label_1_7x7_data_2_split -> label_1_7x7_data_2_split_0
I1119 21:06:32.513924  8814 net.cpp:408] label_1_7x7_data_2_split -> label_1_7x7_data_2_split_1
I1119 21:06:32.513993  8814 net.cpp:150] Setting up label_1_7x7_data_2_split
I1119 21:06:32.514006  8814 net.cpp:157] Top shape: 3 6 96 96 (165888)
I1119 21:06:32.514015  8814 net.cpp:157] Top shape: 3 6 96 96 (165888)
I1119 21:06:32.514022  8814 net.cpp:165] Memory required for data: 32717952
I1119 21:06:32.514029  8814 layer_factory.hpp:77] Creating layer label_2_5x5_data_3_split
I1119 21:06:32.514041  8814 net.cpp:100] Creating Layer label_2_5x5_data_3_split
I1119 21:06:32.514050  8814 net.cpp:434] label_2_5x5_data_3_split <- label_2_5x5
I1119 21:06:32.514060  8814 net.cpp:408] label_2_5x5_data_3_split -> label_2_5x5_data_3_split_0
I1119 21:06:32.514072  8814 net.cpp:408] label_2_5x5_data_3_split -> label_2_5x5_data_3_split_1
I1119 21:06:32.514133  8814 net.cpp:150] Setting up label_2_5x5_data_3_split
I1119 21:06:32.514147  8814 net.cpp:157] Top shape: 3 6 48 48 (41472)
I1119 21:06:32.514155  8814 net.cpp:157] Top shape: 3 6 48 48 (41472)
I1119 21:06:32.514163  8814 net.cpp:165] Memory required for data: 33049728
I1119 21:06:32.514169  8814 layer_factory.hpp:77] Creating layer label_2_7x7_data_4_split
I1119 21:06:32.514181  8814 net.cpp:100] Creating Layer label_2_7x7_data_4_split
I1119 21:06:32.514189  8814 net.cpp:434] label_2_7x7_data_4_split <- label_2_7x7
I1119 21:06:32.514199  8814 net.cpp:408] label_2_7x7_data_4_split -> label_2_7x7_data_4_split_0
I1119 21:06:32.514210  8814 net.cpp:408] label_2_7x7_data_4_split -> label_2_7x7_data_4_split_1
I1119 21:06:32.514269  8814 net.cpp:150] Setting up label_2_7x7_data_4_split
I1119 21:06:32.514281  8814 net.cpp:157] Top shape: 3 6 48 48 (41472)
I1119 21:06:32.514292  8814 net.cpp:157] Top shape: 3 6 48 48 (41472)
I1119 21:06:32.514297  8814 net.cpp:165] Memory required for data: 33381504
I1119 21:06:32.514304  8814 layer_factory.hpp:77] Creating layer label_3_5x5_data_5_split
I1119 21:06:32.514317  8814 net.cpp:100] Creating Layer label_3_5x5_data_5_split
I1119 21:06:32.514323  8814 net.cpp:434] label_3_5x5_data_5_split <- label_3_5x5
I1119 21:06:32.514338  8814 net.cpp:408] label_3_5x5_data_5_split -> label_3_5x5_data_5_split_0
I1119 21:06:32.514353  8814 net.cpp:408] label_3_5x5_data_5_split -> label_3_5x5_data_5_split_1
I1119 21:06:32.514413  8814 net.cpp:150] Setting up label_3_5x5_data_5_split
I1119 21:06:32.514430  8814 net.cpp:157] Top shape: 3 6 24 24 (10368)
I1119 21:06:32.514441  8814 net.cpp:157] Top shape: 3 6 24 24 (10368)
I1119 21:06:32.514447  8814 net.cpp:165] Memory required for data: 33464448
I1119 21:06:32.514454  8814 layer_factory.hpp:77] Creating layer label_3_7x7_data_6_split
I1119 21:06:32.514464  8814 net.cpp:100] Creating Layer label_3_7x7_data_6_split
I1119 21:06:32.514472  8814 net.cpp:434] label_3_7x7_data_6_split <- label_3_7x7
I1119 21:06:32.514482  8814 net.cpp:408] label_3_7x7_data_6_split -> label_3_7x7_data_6_split_0
I1119 21:06:32.514492  8814 net.cpp:408] label_3_7x7_data_6_split -> label_3_7x7_data_6_split_1
I1119 21:06:32.514549  8814 net.cpp:150] Setting up label_3_7x7_data_6_split
I1119 21:06:32.514561  8814 net.cpp:157] Top shape: 3 6 24 24 (10368)
I1119 21:06:32.514570  8814 net.cpp:157] Top shape: 3 6 24 24 (10368)
I1119 21:06:32.514577  8814 net.cpp:165] Memory required for data: 33547392
I1119 21:06:32.514583  8814 layer_factory.hpp:77] Creating layer label_4_5x5_data_7_split
I1119 21:06:32.514592  8814 net.cpp:100] Creating Layer label_4_5x5_data_7_split
I1119 21:06:32.514600  8814 net.cpp:434] label_4_5x5_data_7_split <- label_4_5x5
I1119 21:06:32.514609  8814 net.cpp:408] label_4_5x5_data_7_split -> label_4_5x5_data_7_split_0
I1119 21:06:32.514619  8814 net.cpp:408] label_4_5x5_data_7_split -> label_4_5x5_data_7_split_1
I1119 21:06:32.514674  8814 net.cpp:150] Setting up label_4_5x5_data_7_split
I1119 21:06:32.514686  8814 net.cpp:157] Top shape: 3 6 12 12 (2592)
I1119 21:06:32.514695  8814 net.cpp:157] Top shape: 3 6 12 12 (2592)
I1119 21:06:32.514703  8814 net.cpp:165] Memory required for data: 33568128
I1119 21:06:32.514709  8814 layer_factory.hpp:77] Creating layer slice
I1119 21:06:32.514732  8814 net.cpp:100] Creating Layer slice
I1119 21:06:32.514741  8814 net.cpp:434] slice <- data
I1119 21:06:32.514752  8814 net.cpp:408] slice -> data123
I1119 21:06:32.514767  8814 net.cpp:408] slice -> ch4
I1119 21:06:32.514829  8814 net.cpp:150] Setting up slice
I1119 21:06:32.514842  8814 net.cpp:157] Top shape: 3 3 768 768 (5308416)
I1119 21:06:32.514852  8814 net.cpp:157] Top shape: 3 1 768 768 (1769472)
I1119 21:06:32.514858  8814 net.cpp:165] Memory required for data: 61879680
I1119 21:06:32.514864  8814 layer_factory.hpp:77] Creating layer conv1_1
I1119 21:06:32.514883  8814 net.cpp:100] Creating Layer conv1_1
I1119 21:06:32.514892  8814 net.cpp:434] conv1_1 <- data123
I1119 21:06:32.514901  8814 net.cpp:408] conv1_1 -> conv1_1
I1119 21:06:32.794257  8814 net.cpp:150] Setting up conv1_1
I1119 21:06:32.794714  8814 net.cpp:157] Top shape: 3 64 768 768 (113246208)
I1119 21:06:32.794898  8814 net.cpp:165] Memory required for data: 514864512
I1119 21:06:32.795480  8814 layer_factory.hpp:77] Creating layer relu1_1
I1119 21:06:32.796103  8814 net.cpp:100] Creating Layer relu1_1
I1119 21:06:32.796432  8814 net.cpp:434] relu1_1 <- conv1_1
I1119 21:06:32.796643  8814 net.cpp:395] relu1_1 -> conv1_1 (in-place)
I1119 21:06:32.797438  8814 net.cpp:150] Setting up relu1_1
I1119 21:06:32.797483  8814 net.cpp:157] Top shape: 3 64 768 768 (113246208)
I1119 21:06:32.797502  8814 net.cpp:165] Memory required for data: 967849344
I1119 21:06:32.797523  8814 layer_factory.hpp:77] Creating layer conv1_2
I1119 21:06:32.797557  8814 net.cpp:100] Creating Layer conv1_2
I1119 21:06:32.797574  8814 net.cpp:434] conv1_2 <- conv1_1
I1119 21:06:32.797595  8814 net.cpp:408] conv1_2 -> conv1_2
I1119 21:06:32.801060  8814 net.cpp:150] Setting up conv1_2
I1119 21:06:32.801089  8814 net.cpp:157] Top shape: 3 64 768 768 (113246208)
I1119 21:06:32.801093  8814 net.cpp:165] Memory required for data: 1420834176
I1119 21:06:32.801107  8814 layer_factory.hpp:77] Creating layer relu1_2
I1119 21:06:32.801117  8814 net.cpp:100] Creating Layer relu1_2
I1119 21:06:32.801121  8814 net.cpp:434] relu1_2 <- conv1_2
I1119 21:06:32.801126  8814 net.cpp:395] relu1_2 -> conv1_2 (in-place)
I1119 21:06:32.801291  8814 net.cpp:150] Setting up relu1_2
I1119 21:06:32.801301  8814 net.cpp:157] Top shape: 3 64 768 768 (113246208)
I1119 21:06:32.801303  8814 net.cpp:165] Memory required for data: 1873819008
I1119 21:06:32.801307  8814 layer_factory.hpp:77] Creating layer pool1
I1119 21:06:32.801316  8814 net.cpp:100] Creating Layer pool1
I1119 21:06:32.801321  8814 net.cpp:434] pool1 <- conv1_2
I1119 21:06:32.801328  8814 net.cpp:408] pool1 -> pool1
I1119 21:06:32.801381  8814 net.cpp:150] Setting up pool1
I1119 21:06:32.801389  8814 net.cpp:157] Top shape: 3 64 384 384 (28311552)
I1119 21:06:32.801393  8814 net.cpp:165] Memory required for data: 1987065216
I1119 21:06:32.801395  8814 layer_factory.hpp:77] Creating layer conv2_1
I1119 21:06:32.801405  8814 net.cpp:100] Creating Layer conv2_1
I1119 21:06:32.801409  8814 net.cpp:434] conv2_1 <- pool1
I1119 21:06:32.801414  8814 net.cpp:408] conv2_1 -> conv2_1
I1119 21:06:32.803552  8814 net.cpp:150] Setting up conv2_1
I1119 21:06:32.803568  8814 net.cpp:157] Top shape: 3 128 384 384 (56623104)
I1119 21:06:32.803572  8814 net.cpp:165] Memory required for data: 2213557632
I1119 21:06:32.803582  8814 layer_factory.hpp:77] Creating layer relu2_1
I1119 21:06:32.803588  8814 net.cpp:100] Creating Layer relu2_1
I1119 21:06:32.803592  8814 net.cpp:434] relu2_1 <- conv2_1
I1119 21:06:32.803597  8814 net.cpp:395] relu2_1 -> conv2_1 (in-place)
I1119 21:06:32.804409  8814 net.cpp:150] Setting up relu2_1
I1119 21:06:32.804654  8814 net.cpp:157] Top shape: 3 128 384 384 (56623104)
I1119 21:06:32.804669  8814 net.cpp:165] Memory required for data: 2440050048
I1119 21:06:32.804682  8814 layer_factory.hpp:77] Creating layer conv2_2
I1119 21:06:32.804729  8814 net.cpp:100] Creating Layer conv2_2
I1119 21:06:32.804739  8814 net.cpp:434] conv2_2 <- conv2_1
I1119 21:06:32.804754  8814 net.cpp:408] conv2_2 -> conv2_2
I1119 21:06:32.807160  8814 net.cpp:150] Setting up conv2_2
I1119 21:06:32.807174  8814 net.cpp:157] Top shape: 3 128 384 384 (56623104)
I1119 21:06:32.807178  8814 net.cpp:165] Memory required for data: 2666542464
I1119 21:06:32.807185  8814 layer_factory.hpp:77] Creating layer relu2_2
I1119 21:06:32.807193  8814 net.cpp:100] Creating Layer relu2_2
I1119 21:06:32.807196  8814 net.cpp:434] relu2_2 <- conv2_2
I1119 21:06:32.807202  8814 net.cpp:395] relu2_2 -> conv2_2 (in-place)
I1119 21:06:32.807356  8814 net.cpp:150] Setting up relu2_2
I1119 21:06:32.807365  8814 net.cpp:157] Top shape: 3 128 384 384 (56623104)
I1119 21:06:32.807368  8814 net.cpp:165] Memory required for data: 2893034880
I1119 21:06:32.807371  8814 layer_factory.hpp:77] Creating layer pool2
I1119 21:06:32.807379  8814 net.cpp:100] Creating Layer pool2
I1119 21:06:32.807384  8814 net.cpp:434] pool2 <- conv2_2
I1119 21:06:32.807389  8814 net.cpp:408] pool2 -> pool2
I1119 21:06:32.807425  8814 net.cpp:150] Setting up pool2
I1119 21:06:32.807430  8814 net.cpp:157] Top shape: 3 128 192 192 (14155776)
I1119 21:06:32.807433  8814 net.cpp:165] Memory required for data: 2949657984
I1119 21:06:32.807437  8814 layer_factory.hpp:77] Creating layer conv3_1
I1119 21:06:32.807443  8814 net.cpp:100] Creating Layer conv3_1
I1119 21:06:32.807446  8814 net.cpp:434] conv3_1 <- pool2
I1119 21:06:32.807451  8814 net.cpp:408] conv3_1 -> conv3_1
I1119 21:06:32.812527  8814 net.cpp:150] Setting up conv3_1
I1119 21:06:32.812582  8814 net.cpp:157] Top shape: 3 256 192 192 (28311552)
I1119 21:06:32.812598  8814 net.cpp:165] Memory required for data: 3062904192
I1119 21:06:32.812636  8814 layer_factory.hpp:77] Creating layer relu3_1
I1119 21:06:32.812674  8814 net.cpp:100] Creating Layer relu3_1
I1119 21:06:32.812695  8814 net.cpp:434] relu3_1 <- conv3_1
I1119 21:06:32.812717  8814 net.cpp:395] relu3_1 -> conv3_1 (in-place)
I1119 21:06:32.814014  8814 net.cpp:150] Setting up relu3_1
I1119 21:06:32.814044  8814 net.cpp:157] Top shape: 3 256 192 192 (28311552)
I1119 21:06:32.814055  8814 net.cpp:165] Memory required for data: 3176150400
I1119 21:06:32.814066  8814 layer_factory.hpp:77] Creating layer conv3_2
I1119 21:06:32.814087  8814 net.cpp:100] Creating Layer conv3_2
I1119 21:06:32.814098  8814 net.cpp:434] conv3_2 <- conv3_1
I1119 21:06:32.814115  8814 net.cpp:408] conv3_2 -> conv3_2
I1119 21:06:32.820466  8814 net.cpp:150] Setting up conv3_2
I1119 21:06:32.820500  8814 net.cpp:157] Top shape: 3 256 192 192 (28311552)
I1119 21:06:32.820504  8814 net.cpp:165] Memory required for data: 3289396608
I1119 21:06:32.820516  8814 layer_factory.hpp:77] Creating layer relu3_2
I1119 21:06:32.820530  8814 net.cpp:100] Creating Layer relu3_2
I1119 21:06:32.820538  8814 net.cpp:434] relu3_2 <- conv3_2
I1119 21:06:32.820545  8814 net.cpp:395] relu3_2 -> conv3_2 (in-place)
I1119 21:06:32.821213  8814 net.cpp:150] Setting up relu3_2
I1119 21:06:32.821238  8814 net.cpp:157] Top shape: 3 256 192 192 (28311552)
I1119 21:06:32.821243  8814 net.cpp:165] Memory required for data: 3402642816
I1119 21:06:32.821247  8814 layer_factory.hpp:77] Creating layer conv3_3
I1119 21:06:32.821274  8814 net.cpp:100] Creating Layer conv3_3
I1119 21:06:32.821280  8814 net.cpp:434] conv3_3 <- conv3_2
I1119 21:06:32.821290  8814 net.cpp:408] conv3_3 -> conv3_3
I1119 21:06:32.825253  8814 net.cpp:150] Setting up conv3_3
I1119 21:06:32.825278  8814 net.cpp:157] Top shape: 3 256 192 192 (28311552)
I1119 21:06:32.825282  8814 net.cpp:165] Memory required for data: 3515889024
I1119 21:06:32.825290  8814 layer_factory.hpp:77] Creating layer relu3_3
I1119 21:06:32.825302  8814 net.cpp:100] Creating Layer relu3_3
I1119 21:06:32.825309  8814 net.cpp:434] relu3_3 <- conv3_3
I1119 21:06:32.825314  8814 net.cpp:395] relu3_3 -> conv3_3 (in-place)
I1119 21:06:32.825484  8814 net.cpp:150] Setting up relu3_3
I1119 21:06:32.825492  8814 net.cpp:157] Top shape: 3 256 192 192 (28311552)
I1119 21:06:32.825496  8814 net.cpp:165] Memory required for data: 3629135232
I1119 21:06:32.825500  8814 layer_factory.hpp:77] Creating layer pool3
I1119 21:06:32.825508  8814 net.cpp:100] Creating Layer pool3
I1119 21:06:32.825512  8814 net.cpp:434] pool3 <- conv3_3
I1119 21:06:32.825517  8814 net.cpp:408] pool3 -> pool3
I1119 21:06:32.825556  8814 net.cpp:150] Setting up pool3
I1119 21:06:32.825562  8814 net.cpp:157] Top shape: 3 256 96 96 (7077888)
I1119 21:06:32.825567  8814 net.cpp:165] Memory required for data: 3657446784
I1119 21:06:32.825570  8814 layer_factory.hpp:77] Creating layer conv4_1
I1119 21:06:32.825579  8814 net.cpp:100] Creating Layer conv4_1
I1119 21:06:32.825583  8814 net.cpp:434] conv4_1 <- pool3
I1119 21:06:32.825588  8814 net.cpp:408] conv4_1 -> conv4_1
I1119 21:06:32.833684  8814 net.cpp:150] Setting up conv4_1
I1119 21:06:32.833709  8814 net.cpp:157] Top shape: 3 512 96 96 (14155776)
I1119 21:06:32.833712  8814 net.cpp:165] Memory required for data: 3714069888
I1119 21:06:32.833722  8814 layer_factory.hpp:77] Creating layer relu4_1
I1119 21:06:32.833732  8814 net.cpp:100] Creating Layer relu4_1
I1119 21:06:32.833740  8814 net.cpp:434] relu4_1 <- conv4_1
I1119 21:06:32.833747  8814 net.cpp:395] relu4_1 -> conv4_1 (in-place)
I1119 21:06:32.833914  8814 net.cpp:150] Setting up relu4_1
I1119 21:06:32.833922  8814 net.cpp:157] Top shape: 3 512 96 96 (14155776)
I1119 21:06:32.833926  8814 net.cpp:165] Memory required for data: 3770692992
I1119 21:06:32.833930  8814 layer_factory.hpp:77] Creating layer conv4_2
I1119 21:06:32.833938  8814 net.cpp:100] Creating Layer conv4_2
I1119 21:06:32.833942  8814 net.cpp:434] conv4_2 <- conv4_1
I1119 21:06:32.833948  8814 net.cpp:408] conv4_2 -> conv4_2
I1119 21:06:32.839540  8814 net.cpp:150] Setting up conv4_2
I1119 21:06:32.839568  8814 net.cpp:157] Top shape: 3 512 96 96 (14155776)
I1119 21:06:32.839573  8814 net.cpp:165] Memory required for data: 3827316096
I1119 21:06:32.839586  8814 layer_factory.hpp:77] Creating layer relu4_2
I1119 21:06:32.839596  8814 net.cpp:100] Creating Layer relu4_2
I1119 21:06:32.839601  8814 net.cpp:434] relu4_2 <- conv4_2
I1119 21:06:32.839607  8814 net.cpp:395] relu4_2 -> conv4_2 (in-place)
I1119 21:06:32.839757  8814 net.cpp:150] Setting up relu4_2
I1119 21:06:32.839767  8814 net.cpp:157] Top shape: 3 512 96 96 (14155776)
I1119 21:06:32.839771  8814 net.cpp:165] Memory required for data: 3883939200
I1119 21:06:32.839774  8814 layer_factory.hpp:77] Creating layer conv4_3
I1119 21:06:32.839783  8814 net.cpp:100] Creating Layer conv4_3
I1119 21:06:32.839787  8814 net.cpp:434] conv4_3 <- conv4_2
I1119 21:06:32.839792  8814 net.cpp:408] conv4_3 -> conv4_3
I1119 21:06:32.845554  8814 net.cpp:150] Setting up conv4_3
I1119 21:06:32.845584  8814 net.cpp:157] Top shape: 3 512 96 96 (14155776)
I1119 21:06:32.845588  8814 net.cpp:165] Memory required for data: 3940562304
I1119 21:06:32.845597  8814 layer_factory.hpp:77] Creating layer relu4_3
I1119 21:06:32.845610  8814 net.cpp:100] Creating Layer relu4_3
I1119 21:06:32.845615  8814 net.cpp:434] relu4_3 <- conv4_3
I1119 21:06:32.845621  8814 net.cpp:395] relu4_3 -> conv4_3 (in-place)
I1119 21:06:32.845773  8814 net.cpp:150] Setting up relu4_3
I1119 21:06:32.845782  8814 net.cpp:157] Top shape: 3 512 96 96 (14155776)
I1119 21:06:32.845785  8814 net.cpp:165] Memory required for data: 3997185408
I1119 21:06:32.845789  8814 layer_factory.hpp:77] Creating layer conv4_3_relu4_3_0_split
I1119 21:06:32.845799  8814 net.cpp:100] Creating Layer conv4_3_relu4_3_0_split
I1119 21:06:32.845803  8814 net.cpp:434] conv4_3_relu4_3_0_split <- conv4_3
I1119 21:06:32.845808  8814 net.cpp:408] conv4_3_relu4_3_0_split -> conv4_3_relu4_3_0_split_0
I1119 21:06:32.845815  8814 net.cpp:408] conv4_3_relu4_3_0_split -> conv4_3_relu4_3_0_split_1
I1119 21:06:32.845820  8814 net.cpp:408] conv4_3_relu4_3_0_split -> conv4_3_relu4_3_0_split_2
I1119 21:06:32.845866  8814 net.cpp:150] Setting up conv4_3_relu4_3_0_split
I1119 21:06:32.845873  8814 net.cpp:157] Top shape: 3 512 96 96 (14155776)
I1119 21:06:32.845877  8814 net.cpp:157] Top shape: 3 512 96 96 (14155776)
I1119 21:06:32.845881  8814 net.cpp:157] Top shape: 3 512 96 96 (14155776)
I1119 21:06:32.845885  8814 net.cpp:165] Memory required for data: 4167054720
I1119 21:06:32.845888  8814 layer_factory.hpp:77] Creating layer buffer
I1119 21:06:32.845898  8814 net.cpp:100] Creating Layer buffer
I1119 21:06:32.845902  8814 net.cpp:434] buffer <- conv4_3_relu4_3_0_split_0
I1119 21:06:32.845907  8814 net.cpp:408] buffer -> buffer
I1119 21:06:32.910884  8814 net.cpp:150] Setting up buffer
I1119 21:06:32.910938  8814 net.cpp:157] Top shape: 3 512 96 96 (14155776)
I1119 21:06:32.910943  8814 net.cpp:165] Memory required for data: 4223677824
I1119 21:06:32.910956  8814 layer_factory.hpp:77] Creating layer relu_buffer
I1119 21:06:32.910984  8814 net.cpp:100] Creating Layer relu_buffer
I1119 21:06:32.910992  8814 net.cpp:434] relu_buffer <- buffer
I1119 21:06:32.911000  8814 net.cpp:395] relu_buffer -> buffer (in-place)
I1119 21:06:32.911736  8814 net.cpp:150] Setting up relu_buffer
I1119 21:06:32.911751  8814 net.cpp:157] Top shape: 3 512 96 96 (14155776)
I1119 21:06:32.911753  8814 net.cpp:165] Memory required for data: 4280300928
I1119 21:06:32.911758  8814 layer_factory.hpp:77] Creating layer attention
I1119 21:06:32.911774  8814 net.cpp:100] Creating Layer attention
I1119 21:06:32.911779  8814 net.cpp:434] attention <- buffer
I1119 21:06:32.911787  8814 net.cpp:408] attention -> attention
I1119 21:06:32.913239  8814 net.cpp:150] Setting up attention
I1119 21:06:32.913251  8814 net.cpp:157] Top shape: 3 3 96 96 (82944)
I1119 21:06:32.913255  8814 net.cpp:165] Memory required for data: 4280632704
I1119 21:06:32.913261  8814 layer_factory.hpp:77] Creating layer ch4_pool
I1119 21:06:32.913270  8814 net.cpp:100] Creating Layer ch4_pool
I1119 21:06:32.913275  8814 net.cpp:434] ch4_pool <- ch4
I1119 21:06:32.913280  8814 net.cpp:408] ch4_pool -> ch4_pool
I1119 21:06:32.913345  8814 net.cpp:150] Setting up ch4_pool
I1119 21:06:32.913352  8814 net.cpp:157] Top shape: 3 1 96 96 (27648)
I1119 21:06:32.913355  8814 net.cpp:165] Memory required for data: 4280743296
I1119 21:06:32.913359  8814 layer_factory.hpp:77] Creating layer loss_attention
I1119 21:06:32.913367  8814 net.cpp:100] Creating Layer loss_attention
I1119 21:06:32.913370  8814 net.cpp:434] loss_attention <- attention
I1119 21:06:32.913374  8814 net.cpp:434] loss_attention <- ch4_pool
I1119 21:06:32.913380  8814 net.cpp:408] loss_attention -> loss_attention
I1119 21:06:32.913390  8814 layer_factory.hpp:77] Creating layer loss_attention
I1119 21:06:32.913969  8814 net.cpp:150] Setting up loss_attention
I1119 21:06:32.913980  8814 net.cpp:157] Top shape: (1)
I1119 21:06:32.913985  8814 net.cpp:160]     with loss weight 1
I1119 21:06:32.914003  8814 net.cpp:165] Memory required for data: 4280743300
I1119 21:06:32.914006  8814 layer_factory.hpp:77] Creating layer loss1_conv1
I1119 21:06:32.914017  8814 net.cpp:100] Creating Layer loss1_conv1
I1119 21:06:32.914021  8814 net.cpp:434] loss1_conv1 <- conv4_3_relu4_3_0_split_1
I1119 21:06:32.914027  8814 net.cpp:408] loss1_conv1 -> loss1_conv1
I1119 21:06:32.977835  8814 net.cpp:150] Setting up loss1_conv1
I1119 21:06:32.977862  8814 net.cpp:157] Top shape: 3 512 96 96 (14155776)
I1119 21:06:32.977866  8814 net.cpp:165] Memory required for data: 4337366404
I1119 21:06:32.977875  8814 layer_factory.hpp:77] Creating layer loss_relu1
I1119 21:06:32.977887  8814 net.cpp:100] Creating Layer loss_relu1
I1119 21:06:32.977892  8814 net.cpp:434] loss_relu1 <- loss1_conv1
I1119 21:06:32.977898  8814 net.cpp:395] loss_relu1 -> loss1_conv1 (in-place)
I1119 21:06:32.978055  8814 net.cpp:150] Setting up loss_relu1
I1119 21:06:32.978063  8814 net.cpp:157] Top shape: 3 512 96 96 (14155776)
I1119 21:06:32.978066  8814 net.cpp:165] Memory required for data: 4393989508
I1119 21:06:32.978070  8814 layer_factory.hpp:77] Creating layer loss1_conv1_loss_relu1_0_split
I1119 21:06:32.978077  8814 net.cpp:100] Creating Layer loss1_conv1_loss_relu1_0_split
I1119 21:06:32.978080  8814 net.cpp:434] loss1_conv1_loss_relu1_0_split <- loss1_conv1
I1119 21:06:32.978085  8814 net.cpp:408] loss1_conv1_loss_relu1_0_split -> loss1_conv1_loss_relu1_0_split_0
I1119 21:06:32.978091  8814 net.cpp:408] loss1_conv1_loss_relu1_0_split -> loss1_conv1_loss_relu1_0_split_1
I1119 21:06:32.978127  8814 net.cpp:150] Setting up loss1_conv1_loss_relu1_0_split
I1119 21:06:32.978133  8814 net.cpp:157] Top shape: 3 512 96 96 (14155776)
I1119 21:06:32.978138  8814 net.cpp:157] Top shape: 3 512 96 96 (14155776)
I1119 21:06:32.978142  8814 net.cpp:165] Memory required for data: 4507235716
I1119 21:06:32.978144  8814 layer_factory.hpp:77] Creating layer LFCN_1_5x5
I1119 21:06:32.978154  8814 net.cpp:100] Creating Layer LFCN_1_5x5
I1119 21:06:32.978157  8814 net.cpp:434] LFCN_1_5x5 <- loss1_conv1_loss_relu1_0_split_0
I1119 21:06:32.978164  8814 net.cpp:408] LFCN_1_5x5 -> LFCN_1_5x5
I1119 21:06:32.983825  8814 net.cpp:150] Setting up LFCN_1_5x5
I1119 21:06:32.983857  8814 net.cpp:157] Top shape: 3 9 96 96 (248832)
I1119 21:06:32.983866  8814 net.cpp:165] Memory required for data: 4508231044
I1119 21:06:32.983880  8814 layer_factory.hpp:77] Creating layer LFCN_1_5x5_LFCN_1_5x5_0_split
I1119 21:06:32.983893  8814 net.cpp:100] Creating Layer LFCN_1_5x5_LFCN_1_5x5_0_split
I1119 21:06:32.983902  8814 net.cpp:434] LFCN_1_5x5_LFCN_1_5x5_0_split <- LFCN_1_5x5
I1119 21:06:32.983916  8814 net.cpp:408] LFCN_1_5x5_LFCN_1_5x5_0_split -> LFCN_1_5x5_LFCN_1_5x5_0_split_0
I1119 21:06:32.983932  8814 net.cpp:408] LFCN_1_5x5_LFCN_1_5x5_0_split -> LFCN_1_5x5_LFCN_1_5x5_0_split_1
I1119 21:06:32.984016  8814 net.cpp:150] Setting up LFCN_1_5x5_LFCN_1_5x5_0_split
I1119 21:06:32.984031  8814 net.cpp:157] Top shape: 3 9 96 96 (248832)
I1119 21:06:32.984042  8814 net.cpp:157] Top shape: 3 9 96 96 (248832)
I1119 21:06:32.984050  8814 net.cpp:165] Memory required for data: 4510221700
I1119 21:06:32.984057  8814 layer_factory.hpp:77] Creating layer detection_loss_1_5x5
I1119 21:06:32.984081  8814 net.cpp:100] Creating Layer detection_loss_1_5x5
I1119 21:06:32.984091  8814 net.cpp:434] detection_loss_1_5x5 <- LFCN_1_5x5_LFCN_1_5x5_0_split_0
I1119 21:06:32.984102  8814 net.cpp:434] detection_loss_1_5x5 <- label_1_5x5_data_1_split_0
I1119 21:06:32.984115  8814 net.cpp:408] detection_loss_1_5x5 -> loss_1_5x5
I1119 21:06:32.984139  8814 layer_factory.hpp:77] Creating layer detection_loss_1_5x5
I1119 21:06:32.986780  8814 net.cpp:150] Setting up detection_loss_1_5x5
I1119 21:06:32.986814  8814 net.cpp:157] Top shape: 1 1 1 2 (2)
I1119 21:06:32.986821  8814 net.cpp:160]     with loss weight 0.9
I1119 21:06:32.986845  8814 net.cpp:165] Memory required for data: 4510221708
I1119 21:06:32.986853  8814 layer_factory.hpp:77] Creating layer detection_accuracy_1_5x5
I1119 21:06:32.986871  8814 net.cpp:100] Creating Layer detection_accuracy_1_5x5
I1119 21:06:32.986883  8814 net.cpp:434] detection_accuracy_1_5x5 <- LFCN_1_5x5_LFCN_1_5x5_0_split_1
I1119 21:06:32.986894  8814 net.cpp:434] detection_accuracy_1_5x5 <- label_1_5x5_data_1_split_1
I1119 21:06:32.986909  8814 net.cpp:408] detection_accuracy_1_5x5 -> accuracy_1_5x5
I1119 21:06:32.986939  8814 net.cpp:408] detection_accuracy_1_5x5 -> boxiou_1_5x5
I1119 21:06:32.987059  8814 net.cpp:150] Setting up detection_accuracy_1_5x5
I1119 21:06:32.987080  8814 net.cpp:157] Top shape: 1 1 1 2 (2)
I1119 21:06:32.987095  8814 net.cpp:157] Top shape: 1 1 1 1 (1)
I1119 21:06:32.987105  8814 net.cpp:165] Memory required for data: 4510221720
I1119 21:06:32.987118  8814 layer_factory.hpp:77] Creating layer LFCN_1_7x7
I1119 21:06:32.987148  8814 net.cpp:100] Creating Layer LFCN_1_7x7
I1119 21:06:32.987161  8814 net.cpp:434] LFCN_1_7x7 <- loss1_conv1_loss_relu1_0_split_1
I1119 21:06:32.987184  8814 net.cpp:408] LFCN_1_7x7 -> LFCN_1_7x7
I1119 21:06:33.001749  8814 net.cpp:150] Setting up LFCN_1_7x7
I1119 21:06:33.001796  8814 net.cpp:157] Top shape: 3 9 96 96 (248832)
I1119 21:06:33.001801  8814 net.cpp:165] Memory required for data: 4511217048
I1119 21:06:33.001811  8814 layer_factory.hpp:77] Creating layer LFCN_1_7x7_LFCN_1_7x7_0_split
I1119 21:06:33.001823  8814 net.cpp:100] Creating Layer LFCN_1_7x7_LFCN_1_7x7_0_split
I1119 21:06:33.001829  8814 net.cpp:434] LFCN_1_7x7_LFCN_1_7x7_0_split <- LFCN_1_7x7
I1119 21:06:33.001837  8814 net.cpp:408] LFCN_1_7x7_LFCN_1_7x7_0_split -> LFCN_1_7x7_LFCN_1_7x7_0_split_0
I1119 21:06:33.001847  8814 net.cpp:408] LFCN_1_7x7_LFCN_1_7x7_0_split -> LFCN_1_7x7_LFCN_1_7x7_0_split_1
I1119 21:06:33.001883  8814 net.cpp:150] Setting up LFCN_1_7x7_LFCN_1_7x7_0_split
I1119 21:06:33.001889  8814 net.cpp:157] Top shape: 3 9 96 96 (248832)
I1119 21:06:33.001893  8814 net.cpp:157] Top shape: 3 9 96 96 (248832)
I1119 21:06:33.001896  8814 net.cpp:165] Memory required for data: 4513207704
I1119 21:06:33.001899  8814 layer_factory.hpp:77] Creating layer detection_loss_1_7x7
I1119 21:06:33.001909  8814 net.cpp:100] Creating Layer detection_loss_1_7x7
I1119 21:06:33.001912  8814 net.cpp:434] detection_loss_1_7x7 <- LFCN_1_7x7_LFCN_1_7x7_0_split_0
I1119 21:06:33.001919  8814 net.cpp:434] detection_loss_1_7x7 <- label_1_7x7_data_2_split_0
I1119 21:06:33.001924  8814 net.cpp:408] detection_loss_1_7x7 -> loss_1_7x7
I1119 21:06:33.001932  8814 layer_factory.hpp:77] Creating layer detection_loss_1_7x7
I1119 21:06:33.002322  8814 net.cpp:150] Setting up detection_loss_1_7x7
I1119 21:06:33.002332  8814 net.cpp:157] Top shape: 1 1 1 2 (2)
I1119 21:06:33.002336  8814 net.cpp:160]     with loss weight 0.9
I1119 21:06:33.002347  8814 net.cpp:165] Memory required for data: 4513207712
I1119 21:06:33.002351  8814 layer_factory.hpp:77] Creating layer detection_accuracy_1_7x7
I1119 21:06:33.002359  8814 net.cpp:100] Creating Layer detection_accuracy_1_7x7
I1119 21:06:33.002363  8814 net.cpp:434] detection_accuracy_1_7x7 <- LFCN_1_7x7_LFCN_1_7x7_0_split_1
I1119 21:06:33.002367  8814 net.cpp:434] detection_accuracy_1_7x7 <- label_1_7x7_data_2_split_1
I1119 21:06:33.002372  8814 net.cpp:408] detection_accuracy_1_7x7 -> accuracy_1_7x7
I1119 21:06:33.002378  8814 net.cpp:408] detection_accuracy_1_7x7 -> boxiou_1_7x7
I1119 21:06:33.002421  8814 net.cpp:150] Setting up detection_accuracy_1_7x7
I1119 21:06:33.002429  8814 net.cpp:157] Top shape: 1 1 1 2 (2)
I1119 21:06:33.002432  8814 net.cpp:157] Top shape: 1 1 1 1 (1)
I1119 21:06:33.002435  8814 net.cpp:165] Memory required for data: 4513207724
I1119 21:06:33.002439  8814 layer_factory.hpp:77] Creating layer pool4
I1119 21:06:33.002445  8814 net.cpp:100] Creating Layer pool4
I1119 21:06:33.002449  8814 net.cpp:434] pool4 <- conv4_3_relu4_3_0_split_2
I1119 21:06:33.002454  8814 net.cpp:408] pool4 -> pool4
I1119 21:06:33.002488  8814 net.cpp:150] Setting up pool4
I1119 21:06:33.002494  8814 net.cpp:157] Top shape: 3 512 48 48 (3538944)
I1119 21:06:33.002497  8814 net.cpp:165] Memory required for data: 4527363500
I1119 21:06:33.002501  8814 layer_factory.hpp:77] Creating layer conv5_1
I1119 21:06:33.002509  8814 net.cpp:100] Creating Layer conv5_1
I1119 21:06:33.002513  8814 net.cpp:434] conv5_1 <- pool4
I1119 21:06:33.002517  8814 net.cpp:408] conv5_1 -> conv5_1
I1119 21:06:33.009873  8814 net.cpp:150] Setting up conv5_1
I1119 21:06:33.009918  8814 net.cpp:157] Top shape: 3 512 48 48 (3538944)
I1119 21:06:33.009928  8814 net.cpp:165] Memory required for data: 4541519276
I1119 21:06:33.009946  8814 layer_factory.hpp:77] Creating layer relu5_1
I1119 21:06:33.009971  8814 net.cpp:100] Creating Layer relu5_1
I1119 21:06:33.010000  8814 net.cpp:434] relu5_1 <- conv5_1
I1119 21:06:33.010022  8814 net.cpp:395] relu5_1 -> conv5_1 (in-place)
I1119 21:06:33.010418  8814 net.cpp:150] Setting up relu5_1
I1119 21:06:33.010444  8814 net.cpp:157] Top shape: 3 512 48 48 (3538944)
I1119 21:06:33.010459  8814 net.cpp:165] Memory required for data: 4555675052
I1119 21:06:33.010470  8814 layer_factory.hpp:77] Creating layer conv5_2
I1119 21:06:33.010499  8814 net.cpp:100] Creating Layer conv5_2
I1119 21:06:33.010514  8814 net.cpp:434] conv5_2 <- conv5_1
I1119 21:06:33.010538  8814 net.cpp:408] conv5_2 -> conv5_2
I1119 21:06:33.019227  8814 net.cpp:150] Setting up conv5_2
I1119 21:06:33.019263  8814 net.cpp:157] Top shape: 3 512 48 48 (3538944)
I1119 21:06:33.019268  8814 net.cpp:165] Memory required for data: 4569830828
I1119 21:06:33.019289  8814 layer_factory.hpp:77] Creating layer relu5_2
I1119 21:06:33.019301  8814 net.cpp:100] Creating Layer relu5_2
I1119 21:06:33.019310  8814 net.cpp:434] relu5_2 <- conv5_2
I1119 21:06:33.019317  8814 net.cpp:395] relu5_2 -> conv5_2 (in-place)
I1119 21:06:33.019953  8814 net.cpp:150] Setting up relu5_2
I1119 21:06:33.019971  8814 net.cpp:157] Top shape: 3 512 48 48 (3538944)
I1119 21:06:33.019976  8814 net.cpp:165] Memory required for data: 4583986604
I1119 21:06:33.019982  8814 layer_factory.hpp:77] Creating layer conv5_3
I1119 21:06:33.019997  8814 net.cpp:100] Creating Layer conv5_3
I1119 21:06:33.020006  8814 net.cpp:434] conv5_3 <- conv5_2
I1119 21:06:33.020015  8814 net.cpp:408] conv5_3 -> conv5_3
I1119 21:06:33.028302  8814 net.cpp:150] Setting up conv5_3
I1119 21:06:33.028348  8814 net.cpp:157] Top shape: 3 512 48 48 (3538944)
I1119 21:06:33.028353  8814 net.cpp:165] Memory required for data: 4598142380
I1119 21:06:33.028363  8814 layer_factory.hpp:77] Creating layer relu5_3
I1119 21:06:33.028378  8814 net.cpp:100] Creating Layer relu5_3
I1119 21:06:33.028385  8814 net.cpp:434] relu5_3 <- conv5_3
I1119 21:06:33.028393  8814 net.cpp:395] relu5_3 -> conv5_3 (in-place)
I1119 21:06:33.029074  8814 net.cpp:150] Setting up relu5_3
I1119 21:06:33.029106  8814 net.cpp:157] Top shape: 3 512 48 48 (3538944)
I1119 21:06:33.029111  8814 net.cpp:165] Memory required for data: 4612298156
I1119 21:06:33.029116  8814 layer_factory.hpp:77] Creating layer conv5_3_relu5_3_0_split
I1119 21:06:33.029124  8814 net.cpp:100] Creating Layer conv5_3_relu5_3_0_split
I1119 21:06:33.029129  8814 net.cpp:434] conv5_3_relu5_3_0_split <- conv5_3
I1119 21:06:33.029134  8814 net.cpp:408] conv5_3_relu5_3_0_split -> conv5_3_relu5_3_0_split_0
I1119 21:06:33.029142  8814 net.cpp:408] conv5_3_relu5_3_0_split -> conv5_3_relu5_3_0_split_1
I1119 21:06:33.029158  8814 net.cpp:408] conv5_3_relu5_3_0_split -> conv5_3_relu5_3_0_split_2
I1119 21:06:33.029224  8814 net.cpp:150] Setting up conv5_3_relu5_3_0_split
I1119 21:06:33.029233  8814 net.cpp:157] Top shape: 3 512 48 48 (3538944)
I1119 21:06:33.029238  8814 net.cpp:157] Top shape: 3 512 48 48 (3538944)
I1119 21:06:33.029243  8814 net.cpp:157] Top shape: 3 512 48 48 (3538944)
I1119 21:06:33.029247  8814 net.cpp:165] Memory required for data: 4654765484
I1119 21:06:33.029253  8814 layer_factory.hpp:77] Creating layer LFCN_2_5x5
I1119 21:06:33.029268  8814 net.cpp:100] Creating Layer LFCN_2_5x5
I1119 21:06:33.029275  8814 net.cpp:434] LFCN_2_5x5 <- conv5_3_relu5_3_0_split_0
I1119 21:06:33.029284  8814 net.cpp:408] LFCN_2_5x5 -> LFCN_2_5x5
I1119 21:06:33.034829  8814 net.cpp:150] Setting up LFCN_2_5x5
I1119 21:06:33.034845  8814 net.cpp:157] Top shape: 3 9 48 48 (62208)
I1119 21:06:33.034850  8814 net.cpp:165] Memory required for data: 4655014316
I1119 21:06:33.034857  8814 layer_factory.hpp:77] Creating layer LFCN_2_5x5_LFCN_2_5x5_0_split
I1119 21:06:33.034863  8814 net.cpp:100] Creating Layer LFCN_2_5x5_LFCN_2_5x5_0_split
I1119 21:06:33.034868  8814 net.cpp:434] LFCN_2_5x5_LFCN_2_5x5_0_split <- LFCN_2_5x5
I1119 21:06:33.034875  8814 net.cpp:408] LFCN_2_5x5_LFCN_2_5x5_0_split -> LFCN_2_5x5_LFCN_2_5x5_0_split_0
I1119 21:06:33.034883  8814 net.cpp:408] LFCN_2_5x5_LFCN_2_5x5_0_split -> LFCN_2_5x5_LFCN_2_5x5_0_split_1
I1119 21:06:33.034924  8814 net.cpp:150] Setting up LFCN_2_5x5_LFCN_2_5x5_0_split
I1119 21:06:33.034932  8814 net.cpp:157] Top shape: 3 9 48 48 (62208)
I1119 21:06:33.034937  8814 net.cpp:157] Top shape: 3 9 48 48 (62208)
I1119 21:06:33.034940  8814 net.cpp:165] Memory required for data: 4655511980
I1119 21:06:33.034945  8814 layer_factory.hpp:77] Creating layer detection_loss_2_5x5
I1119 21:06:33.034953  8814 net.cpp:100] Creating Layer detection_loss_2_5x5
I1119 21:06:33.034958  8814 net.cpp:434] detection_loss_2_5x5 <- LFCN_2_5x5_LFCN_2_5x5_0_split_0
I1119 21:06:33.034963  8814 net.cpp:434] detection_loss_2_5x5 <- label_2_5x5_data_3_split_0
I1119 21:06:33.034971  8814 net.cpp:408] detection_loss_2_5x5 -> loss_2_5x5
I1119 21:06:33.034981  8814 layer_factory.hpp:77] Creating layer detection_loss_2_5x5
I1119 21:06:33.035358  8814 net.cpp:150] Setting up detection_loss_2_5x5
I1119 21:06:33.035369  8814 net.cpp:157] Top shape: 1 1 1 2 (2)
I1119 21:06:33.035372  8814 net.cpp:160]     with loss weight 1
I1119 21:06:33.035384  8814 net.cpp:165] Memory required for data: 4655511988
I1119 21:06:33.035388  8814 layer_factory.hpp:77] Creating layer detection_accuracy_2_5x5
I1119 21:06:33.035398  8814 net.cpp:100] Creating Layer detection_accuracy_2_5x5
I1119 21:06:33.035403  8814 net.cpp:434] detection_accuracy_2_5x5 <- LFCN_2_5x5_LFCN_2_5x5_0_split_1
I1119 21:06:33.035409  8814 net.cpp:434] detection_accuracy_2_5x5 <- label_2_5x5_data_3_split_1
I1119 21:06:33.035414  8814 net.cpp:408] detection_accuracy_2_5x5 -> accuracy_2_5x5
I1119 21:06:33.035423  8814 net.cpp:408] detection_accuracy_2_5x5 -> boxiou_2_5x5
I1119 21:06:33.035462  8814 net.cpp:150] Setting up detection_accuracy_2_5x5
I1119 21:06:33.035470  8814 net.cpp:157] Top shape: 1 1 1 2 (2)
I1119 21:06:33.035475  8814 net.cpp:157] Top shape: 1 1 1 1 (1)
I1119 21:06:33.035478  8814 net.cpp:165] Memory required for data: 4655512000
I1119 21:06:33.035482  8814 layer_factory.hpp:77] Creating layer LFCN_2_7x7
I1119 21:06:33.035491  8814 net.cpp:100] Creating Layer LFCN_2_7x7
I1119 21:06:33.035496  8814 net.cpp:434] LFCN_2_7x7 <- conv5_3_relu5_3_0_split_1
I1119 21:06:33.035503  8814 net.cpp:408] LFCN_2_7x7 -> LFCN_2_7x7
I1119 21:06:33.043308  8814 net.cpp:150] Setting up LFCN_2_7x7
I1119 21:06:33.043352  8814 net.cpp:157] Top shape: 3 9 48 48 (62208)
I1119 21:06:33.043357  8814 net.cpp:165] Memory required for data: 4655760832
I1119 21:06:33.043371  8814 layer_factory.hpp:77] Creating layer LFCN_2_7x7_LFCN_2_7x7_0_split
I1119 21:06:33.043387  8814 net.cpp:100] Creating Layer LFCN_2_7x7_LFCN_2_7x7_0_split
I1119 21:06:33.043396  8814 net.cpp:434] LFCN_2_7x7_LFCN_2_7x7_0_split <- LFCN_2_7x7
I1119 21:06:33.043403  8814 net.cpp:408] LFCN_2_7x7_LFCN_2_7x7_0_split -> LFCN_2_7x7_LFCN_2_7x7_0_split_0
I1119 21:06:33.043423  8814 net.cpp:408] LFCN_2_7x7_LFCN_2_7x7_0_split -> LFCN_2_7x7_LFCN_2_7x7_0_split_1
I1119 21:06:33.043467  8814 net.cpp:150] Setting up LFCN_2_7x7_LFCN_2_7x7_0_split
I1119 21:06:33.043474  8814 net.cpp:157] Top shape: 3 9 48 48 (62208)
I1119 21:06:33.043478  8814 net.cpp:157] Top shape: 3 9 48 48 (62208)
I1119 21:06:33.043483  8814 net.cpp:165] Memory required for data: 4656258496
I1119 21:06:33.043486  8814 layer_factory.hpp:77] Creating layer detection_loss_2_7x7
I1119 21:06:33.043499  8814 net.cpp:100] Creating Layer detection_loss_2_7x7
I1119 21:06:33.043503  8814 net.cpp:434] detection_loss_2_7x7 <- LFCN_2_7x7_LFCN_2_7x7_0_split_0
I1119 21:06:33.043509  8814 net.cpp:434] detection_loss_2_7x7 <- label_2_7x7_data_4_split_0
I1119 21:06:33.043519  8814 net.cpp:408] detection_loss_2_7x7 -> loss_2_7x7
I1119 21:06:33.043530  8814 layer_factory.hpp:77] Creating layer detection_loss_2_7x7
I1119 21:06:33.044119  8814 net.cpp:150] Setting up detection_loss_2_7x7
I1119 21:06:33.044137  8814 net.cpp:157] Top shape: 1 1 1 2 (2)
I1119 21:06:33.044140  8814 net.cpp:160]     with loss weight 1
I1119 21:06:33.044170  8814 net.cpp:165] Memory required for data: 4656258504
I1119 21:06:33.044174  8814 layer_factory.hpp:77] Creating layer detection_accuracy_2_7x7
I1119 21:06:33.044196  8814 net.cpp:100] Creating Layer detection_accuracy_2_7x7
I1119 21:06:33.044201  8814 net.cpp:434] detection_accuracy_2_7x7 <- LFCN_2_7x7_LFCN_2_7x7_0_split_1
I1119 21:06:33.044206  8814 net.cpp:434] detection_accuracy_2_7x7 <- label_2_7x7_data_4_split_1
I1119 21:06:33.044214  8814 net.cpp:408] detection_accuracy_2_7x7 -> accuracy_2_7x7
I1119 21:06:33.044221  8814 net.cpp:408] detection_accuracy_2_7x7 -> boxiou_2_7x7
I1119 21:06:33.044267  8814 net.cpp:150] Setting up detection_accuracy_2_7x7
I1119 21:06:33.044275  8814 net.cpp:157] Top shape: 1 1 1 2 (2)
I1119 21:06:33.044278  8814 net.cpp:157] Top shape: 1 1 1 1 (1)
I1119 21:06:33.044281  8814 net.cpp:165] Memory required for data: 4656258516
I1119 21:06:33.044286  8814 layer_factory.hpp:77] Creating layer pool5
I1119 21:06:33.044294  8814 net.cpp:100] Creating Layer pool5
I1119 21:06:33.044301  8814 net.cpp:434] pool5 <- conv5_3_relu5_3_0_split_2
I1119 21:06:33.044306  8814 net.cpp:408] pool5 -> pool5
I1119 21:06:33.044342  8814 net.cpp:150] Setting up pool5
I1119 21:06:33.044351  8814 net.cpp:157] Top shape: 3 512 24 24 (884736)
I1119 21:06:33.044354  8814 net.cpp:165] Memory required for data: 4659797460
I1119 21:06:33.044359  8814 layer_factory.hpp:77] Creating layer conv6_1
I1119 21:06:33.044381  8814 net.cpp:100] Creating Layer conv6_1
I1119 21:06:33.044386  8814 net.cpp:434] conv6_1 <- pool5
I1119 21:06:33.044392  8814 net.cpp:408] conv6_1 -> conv6_1
I1119 21:06:33.109516  8814 net.cpp:150] Setting up conv6_1
I1119 21:06:33.109563  8814 net.cpp:157] Top shape: 3 512 24 24 (884736)
I1119 21:06:33.109568  8814 net.cpp:165] Memory required for data: 4663336404
I1119 21:06:33.109580  8814 layer_factory.hpp:77] Creating layer relu6_1
I1119 21:06:33.109603  8814 net.cpp:100] Creating Layer relu6_1
I1119 21:06:33.109612  8814 net.cpp:434] relu6_1 <- conv6_1
I1119 21:06:33.109621  8814 net.cpp:395] relu6_1 -> conv6_1 (in-place)
I1119 21:06:33.109794  8814 net.cpp:150] Setting up relu6_1
I1119 21:06:33.109803  8814 net.cpp:157] Top shape: 3 512 24 24 (884736)
I1119 21:06:33.109807  8814 net.cpp:165] Memory required for data: 4666875348
I1119 21:06:33.109809  8814 layer_factory.hpp:77] Creating layer conv6_1_relu6_1_0_split
I1119 21:06:33.109817  8814 net.cpp:100] Creating Layer conv6_1_relu6_1_0_split
I1119 21:06:33.109819  8814 net.cpp:434] conv6_1_relu6_1_0_split <- conv6_1
I1119 21:06:33.109825  8814 net.cpp:408] conv6_1_relu6_1_0_split -> conv6_1_relu6_1_0_split_0
I1119 21:06:33.109833  8814 net.cpp:408] conv6_1_relu6_1_0_split -> conv6_1_relu6_1_0_split_1
I1119 21:06:33.109838  8814 net.cpp:408] conv6_1_relu6_1_0_split -> conv6_1_relu6_1_0_split_2
I1119 21:06:33.109926  8814 net.cpp:150] Setting up conv6_1_relu6_1_0_split
I1119 21:06:33.109941  8814 net.cpp:157] Top shape: 3 512 24 24 (884736)
I1119 21:06:33.109947  8814 net.cpp:157] Top shape: 3 512 24 24 (884736)
I1119 21:06:33.109952  8814 net.cpp:157] Top shape: 3 512 24 24 (884736)
I1119 21:06:33.109957  8814 net.cpp:165] Memory required for data: 4677492180
I1119 21:06:33.109963  8814 layer_factory.hpp:77] Creating layer LFCN_3_5x5
I1119 21:06:33.109993  8814 net.cpp:100] Creating Layer LFCN_3_5x5
I1119 21:06:33.110002  8814 net.cpp:434] LFCN_3_5x5 <- conv6_1_relu6_1_0_split_0
I1119 21:06:33.110016  8814 net.cpp:408] LFCN_3_5x5 -> LFCN_3_5x5
I1119 21:06:33.114711  8814 net.cpp:150] Setting up LFCN_3_5x5
I1119 21:06:33.114740  8814 net.cpp:157] Top shape: 3 9 24 24 (15552)
I1119 21:06:33.114744  8814 net.cpp:165] Memory required for data: 4677554388
I1119 21:06:33.114753  8814 layer_factory.hpp:77] Creating layer LFCN_3_5x5_LFCN_3_5x5_0_split
I1119 21:06:33.114763  8814 net.cpp:100] Creating Layer LFCN_3_5x5_LFCN_3_5x5_0_split
I1119 21:06:33.114768  8814 net.cpp:434] LFCN_3_5x5_LFCN_3_5x5_0_split <- LFCN_3_5x5
I1119 21:06:33.114775  8814 net.cpp:408] LFCN_3_5x5_LFCN_3_5x5_0_split -> LFCN_3_5x5_LFCN_3_5x5_0_split_0
I1119 21:06:33.114784  8814 net.cpp:408] LFCN_3_5x5_LFCN_3_5x5_0_split -> LFCN_3_5x5_LFCN_3_5x5_0_split_1
I1119 21:06:33.114821  8814 net.cpp:150] Setting up LFCN_3_5x5_LFCN_3_5x5_0_split
I1119 21:06:33.114827  8814 net.cpp:157] Top shape: 3 9 24 24 (15552)
I1119 21:06:33.114831  8814 net.cpp:157] Top shape: 3 9 24 24 (15552)
I1119 21:06:33.114835  8814 net.cpp:165] Memory required for data: 4677678804
I1119 21:06:33.114837  8814 layer_factory.hpp:77] Creating layer detection_loss_3_5x5
I1119 21:06:33.114845  8814 net.cpp:100] Creating Layer detection_loss_3_5x5
I1119 21:06:33.114851  8814 net.cpp:434] detection_loss_3_5x5 <- LFCN_3_5x5_LFCN_3_5x5_0_split_0
I1119 21:06:33.114857  8814 net.cpp:434] detection_loss_3_5x5 <- label_3_5x5_data_5_split_0
I1119 21:06:33.114864  8814 net.cpp:408] detection_loss_3_5x5 -> loss_3_5x5
I1119 21:06:33.114874  8814 layer_factory.hpp:77] Creating layer detection_loss_3_5x5
I1119 21:06:33.115233  8814 net.cpp:150] Setting up detection_loss_3_5x5
I1119 21:06:33.115242  8814 net.cpp:157] Top shape: 1 1 1 2 (2)
I1119 21:06:33.115245  8814 net.cpp:160]     with loss weight 1
I1119 21:06:33.115257  8814 net.cpp:165] Memory required for data: 4677678812
I1119 21:06:33.115259  8814 layer_factory.hpp:77] Creating layer detection_accuracy_3_5x5
I1119 21:06:33.115267  8814 net.cpp:100] Creating Layer detection_accuracy_3_5x5
I1119 21:06:33.115270  8814 net.cpp:434] detection_accuracy_3_5x5 <- LFCN_3_5x5_LFCN_3_5x5_0_split_1
I1119 21:06:33.115275  8814 net.cpp:434] detection_accuracy_3_5x5 <- label_3_5x5_data_5_split_1
I1119 21:06:33.115280  8814 net.cpp:408] detection_accuracy_3_5x5 -> accuracy_3_5x5
I1119 21:06:33.115286  8814 net.cpp:408] detection_accuracy_3_5x5 -> boxiou_3_5x5
I1119 21:06:33.115324  8814 net.cpp:150] Setting up detection_accuracy_3_5x5
I1119 21:06:33.115330  8814 net.cpp:157] Top shape: 1 1 1 2 (2)
I1119 21:06:33.115334  8814 net.cpp:157] Top shape: 1 1 1 1 (1)
I1119 21:06:33.115337  8814 net.cpp:165] Memory required for data: 4677678824
I1119 21:06:33.115340  8814 layer_factory.hpp:77] Creating layer LFCN_3_7x7
I1119 21:06:33.115350  8814 net.cpp:100] Creating Layer LFCN_3_7x7
I1119 21:06:33.115355  8814 net.cpp:434] LFCN_3_7x7 <- conv6_1_relu6_1_0_split_1
I1119 21:06:33.115360  8814 net.cpp:408] LFCN_3_7x7 -> LFCN_3_7x7
I1119 21:06:33.122987  8814 net.cpp:150] Setting up LFCN_3_7x7
I1119 21:06:33.123008  8814 net.cpp:157] Top shape: 3 9 24 24 (15552)
I1119 21:06:33.123011  8814 net.cpp:165] Memory required for data: 4677741032
I1119 21:06:33.123019  8814 layer_factory.hpp:77] Creating layer LFCN_3_7x7_LFCN_3_7x7_0_split
I1119 21:06:33.123031  8814 net.cpp:100] Creating Layer LFCN_3_7x7_LFCN_3_7x7_0_split
I1119 21:06:33.123035  8814 net.cpp:434] LFCN_3_7x7_LFCN_3_7x7_0_split <- LFCN_3_7x7
I1119 21:06:33.123042  8814 net.cpp:408] LFCN_3_7x7_LFCN_3_7x7_0_split -> LFCN_3_7x7_LFCN_3_7x7_0_split_0
I1119 21:06:33.123050  8814 net.cpp:408] LFCN_3_7x7_LFCN_3_7x7_0_split -> LFCN_3_7x7_LFCN_3_7x7_0_split_1
I1119 21:06:33.123087  8814 net.cpp:150] Setting up LFCN_3_7x7_LFCN_3_7x7_0_split
I1119 21:06:33.123095  8814 net.cpp:157] Top shape: 3 9 24 24 (15552)
I1119 21:06:33.123098  8814 net.cpp:157] Top shape: 3 9 24 24 (15552)
I1119 21:06:33.123101  8814 net.cpp:165] Memory required for data: 4677865448
I1119 21:06:33.123105  8814 layer_factory.hpp:77] Creating layer detection_loss_3_7x7
I1119 21:06:33.123111  8814 net.cpp:100] Creating Layer detection_loss_3_7x7
I1119 21:06:33.123116  8814 net.cpp:434] detection_loss_3_7x7 <- LFCN_3_7x7_LFCN_3_7x7_0_split_0
I1119 21:06:33.123119  8814 net.cpp:434] detection_loss_3_7x7 <- label_3_7x7_data_6_split_0
I1119 21:06:33.123126  8814 net.cpp:408] detection_loss_3_7x7 -> loss_3_7x7
I1119 21:06:33.123134  8814 layer_factory.hpp:77] Creating layer detection_loss_3_7x7
I1119 21:06:33.125828  8814 net.cpp:150] Setting up detection_loss_3_7x7
I1119 21:06:33.125846  8814 net.cpp:157] Top shape: 1 1 1 2 (2)
I1119 21:06:33.125850  8814 net.cpp:160]     with loss weight 1
I1119 21:06:33.125861  8814 net.cpp:165] Memory required for data: 4677865456
I1119 21:06:33.125866  8814 layer_factory.hpp:77] Creating layer detection_accuracy_3_7x7
I1119 21:06:33.125877  8814 net.cpp:100] Creating Layer detection_accuracy_3_7x7
I1119 21:06:33.125882  8814 net.cpp:434] detection_accuracy_3_7x7 <- LFCN_3_7x7_LFCN_3_7x7_0_split_1
I1119 21:06:33.125890  8814 net.cpp:434] detection_accuracy_3_7x7 <- label_3_7x7_data_6_split_1
I1119 21:06:33.125898  8814 net.cpp:408] detection_accuracy_3_7x7 -> accuracy_3_7x7
I1119 21:06:33.125907  8814 net.cpp:408] detection_accuracy_3_7x7 -> boxiou_3_7x7
I1119 21:06:33.125953  8814 net.cpp:150] Setting up detection_accuracy_3_7x7
I1119 21:06:33.125960  8814 net.cpp:157] Top shape: 1 1 1 2 (2)
I1119 21:06:33.125964  8814 net.cpp:157] Top shape: 1 1 1 1 (1)
I1119 21:06:33.125967  8814 net.cpp:165] Memory required for data: 4677865468
I1119 21:06:33.125970  8814 layer_factory.hpp:77] Creating layer pool6
I1119 21:06:33.125977  8814 net.cpp:100] Creating Layer pool6
I1119 21:06:33.125983  8814 net.cpp:434] pool6 <- conv6_1_relu6_1_0_split_2
I1119 21:06:33.125991  8814 net.cpp:408] pool6 -> pool6
I1119 21:06:33.126031  8814 net.cpp:150] Setting up pool6
I1119 21:06:33.126039  8814 net.cpp:157] Top shape: 3 512 12 12 (221184)
I1119 21:06:33.126041  8814 net.cpp:165] Memory required for data: 4678750204
I1119 21:06:33.126045  8814 layer_factory.hpp:77] Creating layer LFCN_4_5x5
I1119 21:06:33.126062  8814 net.cpp:100] Creating Layer LFCN_4_5x5
I1119 21:06:33.126067  8814 net.cpp:434] LFCN_4_5x5 <- pool6
I1119 21:06:33.126073  8814 net.cpp:408] LFCN_4_5x5 -> LFCN_4_5x5
I1119 21:06:33.129432  8814 net.cpp:150] Setting up LFCN_4_5x5
I1119 21:06:33.129444  8814 net.cpp:157] Top shape: 3 9 12 12 (3888)
I1119 21:06:33.129448  8814 net.cpp:165] Memory required for data: 4678765756
I1119 21:06:33.129454  8814 layer_factory.hpp:77] Creating layer LFCN_4_5x5_LFCN_4_5x5_0_split
I1119 21:06:33.129463  8814 net.cpp:100] Creating Layer LFCN_4_5x5_LFCN_4_5x5_0_split
I1119 21:06:33.129467  8814 net.cpp:434] LFCN_4_5x5_LFCN_4_5x5_0_split <- LFCN_4_5x5
I1119 21:06:33.129473  8814 net.cpp:408] LFCN_4_5x5_LFCN_4_5x5_0_split -> LFCN_4_5x5_LFCN_4_5x5_0_split_0
I1119 21:06:33.129482  8814 net.cpp:408] LFCN_4_5x5_LFCN_4_5x5_0_split -> LFCN_4_5x5_LFCN_4_5x5_0_split_1
I1119 21:06:33.129520  8814 net.cpp:150] Setting up LFCN_4_5x5_LFCN_4_5x5_0_split
I1119 21:06:33.129528  8814 net.cpp:157] Top shape: 3 9 12 12 (3888)
I1119 21:06:33.129532  8814 net.cpp:157] Top shape: 3 9 12 12 (3888)
I1119 21:06:33.129535  8814 net.cpp:165] Memory required for data: 4678796860
I1119 21:06:33.129539  8814 layer_factory.hpp:77] Creating layer detection_loss_4_5x5
I1119 21:06:33.129545  8814 net.cpp:100] Creating Layer detection_loss_4_5x5
I1119 21:06:33.129550  8814 net.cpp:434] detection_loss_4_5x5 <- LFCN_4_5x5_LFCN_4_5x5_0_split_0
I1119 21:06:33.129555  8814 net.cpp:434] detection_loss_4_5x5 <- label_4_5x5_data_7_split_0
I1119 21:06:33.129562  8814 net.cpp:408] detection_loss_4_5x5 -> loss_4_5x5
I1119 21:06:33.129570  8814 layer_factory.hpp:77] Creating layer detection_loss_4_5x5
I1119 21:06:33.130370  8814 net.cpp:150] Setting up detection_loss_4_5x5
I1119 21:06:33.130386  8814 net.cpp:157] Top shape: 1 1 1 2 (2)
I1119 21:06:33.130391  8814 net.cpp:160]     with loss weight 1
I1119 21:06:33.130398  8814 net.cpp:165] Memory required for data: 4678796868
I1119 21:06:33.130403  8814 layer_factory.hpp:77] Creating layer detection_accuracy_4_5x5
I1119 21:06:33.130411  8814 net.cpp:100] Creating Layer detection_accuracy_4_5x5
I1119 21:06:33.130417  8814 net.cpp:434] detection_accuracy_4_5x5 <- LFCN_4_5x5_LFCN_4_5x5_0_split_1
I1119 21:06:33.130424  8814 net.cpp:434] detection_accuracy_4_5x5 <- label_4_5x5_data_7_split_1
I1119 21:06:33.130432  8814 net.cpp:408] detection_accuracy_4_5x5 -> accuracy_4_5x5
I1119 21:06:33.130441  8814 net.cpp:408] detection_accuracy_4_5x5 -> boxiou_4_5x5
I1119 21:06:33.130487  8814 net.cpp:150] Setting up detection_accuracy_4_5x5
I1119 21:06:33.130497  8814 net.cpp:157] Top shape: 1 1 1 2 (2)
I1119 21:06:33.130502  8814 net.cpp:157] Top shape: 1 1 1 1 (1)
I1119 21:06:33.130506  8814 net.cpp:165] Memory required for data: 4678796880
I1119 21:06:33.130512  8814 net.cpp:228] detection_accuracy_4_5x5 does not need backward computation.
I1119 21:06:33.130518  8814 net.cpp:226] detection_loss_4_5x5 needs backward computation.
I1119 21:06:33.130523  8814 net.cpp:226] LFCN_4_5x5_LFCN_4_5x5_0_split needs backward computation.
I1119 21:06:33.130528  8814 net.cpp:226] LFCN_4_5x5 needs backward computation.
…
I1119 21:06:33.144376  8814 image_gt_data_layer.cpp:235] output label size 1 : 2,6,96,96
I1119 21:06:33.144426  8814 image_gt_data_layer.cpp:235] output label size 2 : 2,6,48,48
I1119 21:06:33.144475  8814 image_gt_data_layer.cpp:235] output label size 3 : 2,6,48,48
I1119 21:06:33.144515  8814 image_gt_data_layer.cpp:235] output label size 4 : 2,6,24,24
I1119 21:06:33.144554  8814 image_gt_data_layer.cpp:235] output label size 5 : 2,6,24,24
I1119 21:06:33.144593  8814 image_gt_data_layer.cpp:235] output label size 6 : 2,6,12,12
I1119 21:06:33.180444  8814 net.cpp:150] Setting up data
I1119 21:06:33.180471  8814 net.cpp:157] Top shape: 2 4 768 768 (4718592)
I1119 21:06:33.180478  8814 net.cpp:157] Top shape: 2 6 96 96 (110592)
I1119 21:06:33.180485  8814 net.cpp:157] Top shape: 2 6 96 96 (110592)
I1119 21:06:33.180490  8814 net.cpp:157] Top shape: 2 6 48 48 (27648)
I1119 21:06:33.180495  8814 net.cpp:157] Top shape: 2 6 48 48 (27648)
I1119 21:06:33.180500  8814 net.cpp:157] Top shape: 2 6 24 24 (6912)
I1119 21:06:33.180506  8814 net.cpp:157] Top shape: 2 6 24 24 (6912)
I1119 21:06:33.180513  8814 net.cpp:157] Top shape: 2 6 12 12 (1728)
I1119 21:06:33.180517  8814 net.cpp:165] Memory required for data: 20042496
I1119 21:06:33.180526  8814 layer_factory.hpp:77] Creating layer label_1_5x5_data_1_split
I1119 21:06:33.180541  8814 net.cpp:100] Creating Layer label_1_5x5_data_1_split
I1119 21:06:33.180547  8814 net.cpp:434] label_1_5x5_data_1_split <- label_1_5x5
I1119 21:06:33.180557  8814 net.cpp:408] label_1_5x5_data_1_split -> label_1_5x5_data_1_split_0
I1119 21:06:33.180569  8814 net.cpp:408] label_1_5x5_data_1_split -> label_1_5x5_data_1_split_1
I1119 21:06:33.180898  8814 net.cpp:150] Setting up label_1_5x5_data_1_split
I1119 21:06:33.180948  8814 net.cpp:157] Top shape: 2 6 96 96 (110592)
I1119 21:06:33.180958  8814 net.cpp:157] Top shape: 2 6 96 96 (110592)
I1119 21:06:33.180966  8814 net.cpp:165] Memory required for data: 20927232
I1119 21:06:33.180977  8814 layer_factory.hpp:77] Creating layer label_1_7x7_data_2_split
I1119 21:06:33.180999  8814 net.cpp:100] Creating Layer label_1_7x7_data_2_split
I1119 21:06:33.181008  8814 net.cpp:434] label_1_7x7_data_2_split <- label_1_7x7
I1119 21:06:33.181021  8814 net.cpp:408] label_1_7x7_data_2_split -> label_1_7x7_data_2_split_0
I1119 21:06:33.181037  8814 net.cpp:408] label_1_7x7_data_2_split -> label_1_7x7_data_2_split_1
I1119 21:06:33.181154  8814 net.cpp:150] Setting up label_1_7x7_data_2_split
I1119 21:06:33.181170  8814 net.cpp:157] Top shape: 2 6 96 96 (110592)
I1119 21:06:33.181180  8814 net.cpp:157] Top shape: 2 6 96 96 (110592)
I1119 21:06:33.181187  8814 net.cpp:165] Memory required for data: 21811968
I1119 21:06:33.181205  8814 layer_factory.hpp:77] Creating layer label_2_5x5_data_3_split
I1119 21:06:33.181216  8814 net.cpp:100] Creating Layer label_2_5x5_data_3_split
I1119 21:06:33.181229  8814 net.cpp:434] label_2_5x5_data_3_split <- label_2_5x5
I1119 21:06:33.181241  8814 net.cpp:408] label_2_5x5_data_3_split -> label_2_5x5_data_3_split_0
I1119 21:06:33.181257  8814 net.cpp:408] label_2_5x5_data_3_split -> label_2_5x5_data_3_split_1
I1119 21:06:33.181339  8814 net.cpp:150] Setting up label_2_5x5_data_3_split
I1119 21:06:33.181354  8814 net.cpp:157] Top shape: 2 6 48 48 (27648)
I1119 21:06:33.181362  8814 net.cpp:157] Top shape: 2 6 48 48 (27648)
I1119 21:06:33.181371  8814 net.cpp:165] Memory required for data: 22033152
I1119 21:06:33.181378  8814 layer_factory.hpp:77] Creating layer label_2_7x7_data_4_split
I1119 21:06:33.181392  8814 net.cpp:100] Creating Layer label_2_7x7_data_4_split
I1119 21:06:33.181401  8814 net.cpp:434] label_2_7x7_data_4_split <- label_2_7x7
I1119 21:06:33.181411  8814 net.cpp:408] label_2_7x7_data_4_split -> label_2_7x7_data_4_split_0
I1119 21:06:33.181423  8814 net.cpp:408] label_2_7x7_data_4_split -> label_2_7x7_data_4_split_1
I1119 21:06:33.181502  8814 net.cpp:150] Setting up label_2_7x7_data_4_split
I1119 21:06:33.181515  8814 net.cpp:157] Top shape: 2 6 48 48 (27648)
I1119 21:06:33.181524  8814 net.cpp:157] Top shape: 2 6 48 48 (27648)
I1119 21:06:33.181532  8814 net.cpp:165] Memory required for data: 22254336
I1119 21:06:33.181540  8814 layer_factory.hpp:77] Creating layer label_3_5x5_data_5_split
I1119 21:06:33.181550  8814 net.cpp:100] Creating Layer label_3_5x5_data_5_split
I1119 21:06:33.181557  8814 net.cpp:434] label_3_5x5_data_5_split <- label_3_5x5
I1119 21:06:33.181568  8814 net.cpp:408] label_3_5x5_data_5_split -> label_3_5x5_data_5_split_0
I1119 21:06:33.181584  8814 net.cpp:408] label_3_5x5_data_5_split -> label_3_5x5_data_5_split_1
I1119 21:06:33.181661  8814 net.cpp:150] Setting up label_3_5x5_data_5_split
I1119 21:06:33.181674  8814 net.cpp:157] Top shape: 2 6 24 24 (6912)
I1119 21:06:33.181685  8814 net.cpp:157] Top shape: 2 6 24 24 (6912)
I1119 21:06:33.181694  8814 net.cpp:165] Memory required for data: 22309632
I1119 21:06:33.181700  8814 layer_factory.hpp:77] Creating layer label_3_7x7_data_6_split
I1119 21:06:33.181710  8814 net.cpp:100] Creating Layer label_3_7x7_data_6_split
I1119 21:06:33.181718  8814 net.cpp:434] label_3_7x7_data_6_split <- label_3_7x7
I1119 21:06:33.181730  8814 net.cpp:408] label_3_7x7_data_6_split -> label_3_7x7_data_6_split_0
I1119 21:06:33.181743  8814 net.cpp:408] label_3_7x7_data_6_split -> label_3_7x7_data_6_split_1
I1119 21:06:33.181816  8814 net.cpp:150] Setting up label_3_7x7_data_6_split
I1119 21:06:33.181830  8814 net.cpp:157] Top shape: 2 6 24 24 (6912)
I1119 21:06:33.181839  8814 net.cpp:157] Top shape: 2 6 24 24 (6912)
I1119 21:06:33.181849  8814 net.cpp:165] Memory required for data: 22364928
I1119 21:06:33.181855  8814 layer_factory.hpp:77] Creating layer label_4_5x5_data_7_split
I1119 21:06:33.181864  8814 net.cpp:100] Creating Layer label_4_5x5_data_7_split
I1119 21:06:33.181874  8814 net.cpp:434] label_4_5x5_data_7_split <- label_4_5x5
I1119 21:06:33.181882  8814 net.cpp:408] label_4_5x5_data_7_split -> label_4_5x5_data_7_split_0
I1119 21:06:33.181897  8814 net.cpp:408] label_4_5x5_data_7_split -> label_4_5x5_data_7_split_1
I1119 21:06:33.181970  8814 net.cpp:150] Setting up label_4_5x5_data_7_split
I1119 21:06:33.181982  8814 net.cpp:157] Top shape: 2 6 12 12 (1728)
I1119 21:06:33.181993  8814 net.cpp:157] Top shape: 2 6 12 12 (1728)
I1119 21:06:33.182001  8814 net.cpp:165] Memory required for data: 22378752
I1119 21:06:33.182008  8814 layer_factory.hpp:77] Creating layer slice
I1119 21:06:33.182025  8814 net.cpp:100] Creating Layer slice
I1119 21:06:33.182034  8814 net.cpp:434] slice <- data
I1119 21:06:33.182044  8814 net.cpp:408] slice -> data123
I1119 21:06:33.182058  8814 net.cpp:408] slice -> ch4
I1119 21:06:33.182137  8814 net.cpp:150] Setting up slice
I1119 21:06:33.182149  8814 net.cpp:157] Top shape: 2 3 768 768 (3538944)
I1119 21:06:33.182159  8814 net.cpp:157] Top shape: 2 1 768 768 (1179648)
I1119 21:06:33.182168  8814 net.cpp:165] Memory required for data: 41253120
I1119 21:06:33.182174  8814 layer_factory.hpp:77] Creating layer conv1_1
I1119 21:06:33.182189  8814 net.cpp:100] Creating Layer conv1_1
I1119 21:06:33.182199  8814 net.cpp:434] conv1_1 <- data123
I1119 21:06:33.182211  8814 net.cpp:408] conv1_1 -> conv1_1
I1119 21:06:33.192641  8814 net.cpp:150] Setting up conv1_1
I1119 21:06:33.192682  8814 net.cpp:157] Top shape: 2 64 768 768 (75497472)
I1119 21:06:33.192692  8814 net.cpp:165] Memory required for data: 343243008
I1119 21:06:33.192714  8814 layer_factory.hpp:77] Creating layer relu1_1
I1119 21:06:33.192734  8814 net.cpp:100] Creating Layer relu1_1
I1119 21:06:33.192745  8814 net.cpp:434] relu1_1 <- conv1_1
I1119 21:06:33.192755  8814 net.cpp:395] relu1_1 -> conv1_1 (in-place)
I1119 21:06:33.193179  8814 net.cpp:150] Setting up relu1_1
I1119 21:06:33.193199  8814 net.cpp:157] Top shape: 2 64 768 768 (75497472)
I1119 21:06:33.193207  8814 net.cpp:165] Memory required for data: 645232896
I1119 21:06:33.193213  8814 layer_factory.hpp:77] Creating layer conv1_2
I1119 21:06:33.193229  8814 net.cpp:100] Creating Layer conv1_2
I1119 21:06:33.193238  8814 net.cpp:434] conv1_2 <- conv1_1
I1119 21:06:33.193250  8814 net.cpp:408] conv1_2 -> conv1_2
I1119 21:06:33.196323  8814 net.cpp:150] Setting up conv1_2
I1119 21:06:33.196341  8814 net.cpp:157] Top shape: 2 64 768 768 (75497472)
I1119 21:06:33.196344  8814 net.cpp:165] Memory required for data: 947222784
I1119 21:06:33.196357  8814 layer_factory.hpp:77] Creating layer relu1_2
I1119 21:06:33.196363  8814 net.cpp:100] Creating Layer relu1_2
I1119 21:06:33.196370  8814 net.cpp:434] relu1_2 <- conv1_2
I1119 21:06:33.196377  8814 net.cpp:395] relu1_2 -> conv1_2 (in-place)
I1119 21:06:33.196959  8814 net.cpp:150] Setting up relu1_2
I1119 21:06:33.196972  8814 net.cpp:157] Top shape: 2 64 768 768 (75497472)
I1119 21:06:33.196977  8814 net.cpp:165] Memory required for data: 1249212672
I1119 21:06:33.196982  8814 layer_factory.hpp:77] Creating layer pool1
I1119 21:06:33.196991  8814 net.cpp:100] Creating Layer pool1
I1119 21:06:33.196997  8814 net.cpp:434] pool1 <- conv1_2
I1119 21:06:33.197003  8814 net.cpp:408] pool1 -> pool1
I1119 21:06:33.197062  8814 net.cpp:150] Setting up pool1
I1119 21:06:33.197068  8814 net.cpp:157] Top shape: 2 64 384 384 (18874368)
I1119 21:06:33.197073  8814 net.cpp:165] Memory required for data: 1324710144
I1119 21:06:33.197083  8814 layer_factory.hpp:77] Creating layer conv2_1
I1119 21:06:33.197093  8814 net.cpp:100] Creating Layer conv2_1
I1119 21:06:33.197096  8814 net.cpp:434] conv2_1 <- pool1
I1119 21:06:33.197103  8814 net.cpp:408] conv2_1 -> conv2_1
I1119 21:06:33.198822  8814 net.cpp:150] Setting up conv2_1
I1119 21:06:33.198837  8814 net.cpp:157] Top shape: 2 128 384 384 (37748736)
I1119 21:06:33.198843  8814 net.cpp:165] Memory required for data: 1475705088
I1119 21:06:33.198853  8814 layer_factory.hpp:77] Creating layer relu2_1
I1119 21:06:33.198860  8814 net.cpp:100] Creating Layer relu2_1
I1119 21:06:33.198864  8814 net.cpp:434] relu2_1 <- conv2_1
I1119 21:06:33.198869  8814 net.cpp:395] relu2_1 -> conv2_1 (in-place)
I1119 21:06:33.199061  8814 net.cpp:150] Setting up relu2_1
I1119 21:06:33.199071  8814 net.cpp:157] Top shape: 2 128 384 384 (37748736)
I1119 21:06:33.199075  8814 net.cpp:165] Memory required for data: 1626700032
I1119 21:06:33.199079  8814 layer_factory.hpp:77] Creating layer conv2_2
I1119 21:06:33.199090  8814 net.cpp:100] Creating Layer conv2_2
I1119 21:06:33.199095  8814 net.cpp:434] conv2_2 <- conv2_1
I1119 21:06:33.199102  8814 net.cpp:408] conv2_2 -> conv2_2
I1119 21:06:33.201759  8814 net.cpp:150] Setting up conv2_2
I1119 21:06:33.201776  8814 net.cpp:157] Top shape: 2 128 384 384 (37748736)
I1119 21:06:33.201781  8814 net.cpp:165] Memory required for data: 1777694976
I1119 21:06:33.201788  8814 layer_factory.hpp:77] Creating layer relu2_2
I1119 21:06:33.201795  8814 net.cpp:100] Creating Layer relu2_2
I1119 21:06:33.201800  8814 net.cpp:434] relu2_2 <- conv2_2
I1119 21:06:33.201807  8814 net.cpp:395] relu2_2 -> conv2_2 (in-place)
I1119 21:06:33.202014  8814 net.cpp:150] Setting up relu2_2
I1119 21:06:33.202025  8814 net.cpp:157] Top shape: 2 128 384 384 (37748736)
I1119 21:06:33.202029  8814 net.cpp:165] Memory required for data: 1928689920
I1119 21:06:33.202033  8814 layer_factory.hpp:77] Creating layer pool2
I1119 21:06:33.202040  8814 net.cpp:100] Creating Layer pool2
I1119 21:06:33.202045  8814 net.cpp:434] pool2 <- conv2_2
I1119 21:06:33.202052  8814 net.cpp:408] pool2 -> pool2
I1119 21:06:33.202106  8814 net.cpp:150] Setting up pool2
I1119 21:06:33.202113  8814 net.cpp:157] Top shape: 2 128 192 192 (9437184)
I1119 21:06:33.202117  8814 net.cpp:165] Memory required for data: 1966438656
I1119 21:06:33.202122  8814 layer_factory.hpp:77] Creating layer conv3_1
I1119 21:06:33.202132  8814 net.cpp:100] Creating Layer conv3_1
I1119 21:06:33.202137  8814 net.cpp:434] conv3_1 <- pool2
I1119 21:06:33.202142  8814 net.cpp:408] conv3_1 -> conv3_1
I1119 21:06:33.205584  8814 net.cpp:150] Setting up conv3_1
I1119 21:06:33.205621  8814 net.cpp:157] Top shape: 2 256 192 192 (18874368)
I1119 21:06:33.205627  8814 net.cpp:165] Memory required for data: 2041936128
I1119 21:06:33.205647  8814 layer_factory.hpp:77] Creating layer relu3_1
I1119 21:06:33.205660  8814 net.cpp:100] Creating Layer relu3_1
I1119 21:06:33.205670  8814 net.cpp:434] relu3_1 <- conv3_1
I1119 21:06:33.205679  8814 net.cpp:395] relu3_1 -> conv3_1 (in-place)
I1119 21:06:33.206476  8814 net.cpp:150] Setting up relu3_1
I1119 21:06:33.206491  8814 net.cpp:157] Top shape: 2 256 192 192 (18874368)
I1119 21:06:33.206496  8814 net.cpp:165] Memory required for data: 2117433600
I1119 21:06:33.206499  8814 layer_factory.hpp:77] Creating layer conv3_2
I1119 21:06:33.206511  8814 net.cpp:100] Creating Layer conv3_2
I1119 21:06:33.206516  8814 net.cpp:434] conv3_2 <- conv3_1
I1119 21:06:33.206522  8814 net.cpp:408] conv3_2 -> conv3_2
I1119 21:06:33.209741  8814 net.cpp:150] Setting up conv3_2
I1119 21:06:33.209769  8814 net.cpp:157] Top shape: 2 256 192 192 (18874368)
I1119 21:06:33.209774  8814 net.cpp:165] Memory required for data: 2192931072
I1119 21:06:33.209784  8814 layer_factory.hpp:77] Creating layer relu3_2
I1119 21:06:33.209795  8814 net.cpp:100] Creating Layer relu3_2
I1119 21:06:33.209801  8814 net.cpp:434] relu3_2 <- conv3_2
I1119 21:06:33.209808  8814 net.cpp:395] relu3_2 -> conv3_2 (in-place)
I1119 21:06:33.210011  8814 net.cpp:150] Setting up relu3_2
I1119 21:06:33.210021  8814 net.cpp:157] Top shape: 2 256 192 192 (18874368)
I1119 21:06:33.210024  8814 net.cpp:165] Memory required for data: 2268428544
I1119 21:06:33.210028  8814 layer_factory.hpp:77] Creating layer conv3_3
I1119 21:06:33.210038  8814 net.cpp:100] Creating Layer conv3_3
I1119 21:06:33.210043  8814 net.cpp:434] conv3_3 <- conv3_2
I1119 21:06:33.210050  8814 net.cpp:408] conv3_3 -> conv3_3
I1119 21:06:33.213021  8814 net.cpp:150] Setting up conv3_3
I1119 21:06:33.213037  8814 net.cpp:157] Top shape: 2 256 192 192 (18874368)
I1119 21:06:33.213042  8814 net.cpp:165] Memory required for data: 2343926016
I1119 21:06:33.213049  8814 layer_factory.hpp:77] Creating layer relu3_3
I1119 21:06:33.213057  8814 net.cpp:100] Creating Layer relu3_3
I1119 21:06:33.213062  8814 net.cpp:434] relu3_3 <- conv3_3
I1119 21:06:33.213068  8814 net.cpp:395] relu3_3 -> conv3_3 (in-place)
I1119 21:06:33.213279  8814 net.cpp:150] Setting up relu3_3
I1119 21:06:33.213290  8814 net.cpp:157] Top shape: 2 256 192 192 (18874368)
I1119 21:06:33.213294  8814 net.cpp:165] Memory required for data: 2419423488
I1119 21:06:33.213299  8814 layer_factory.hpp:77] Creating layer pool3
I1119 21:06:33.213305  8814 net.cpp:100] Creating Layer pool3
I1119 21:06:33.213310  8814 net.cpp:434] pool3 <- conv3_3
I1119 21:06:33.213316  8814 net.cpp:408] pool3 -> pool3
I1119 21:06:33.213364  8814 net.cpp:150] Setting up pool3
I1119 21:06:33.213373  8814 net.cpp:157] Top shape: 2 256 96 96 (4718592)
I1119 21:06:33.213377  8814 net.cpp:165] Memory required for data: 2438297856
I1119 21:06:33.213382  8814 layer_factory.hpp:77] Creating layer conv4_1
I1119 21:06:33.213389  8814 net.cpp:100] Creating Layer conv4_1
I1119 21:06:33.213392  8814 net.cpp:434] conv4_1 <- pool3
I1119 21:06:33.213399  8814 net.cpp:408] conv4_1 -> conv4_1
I1119 21:06:33.217530  8814 net.cpp:150] Setting up conv4_1
I1119 21:06:33.217557  8814 net.cpp:157] Top shape: 2 512 96 96 (9437184)
I1119 21:06:33.217561  8814 net.cpp:165] Memory required for data: 2476046592
I1119 21:06:33.217571  8814 layer_factory.hpp:77] Creating layer relu4_1
I1119 21:06:33.217581  8814 net.cpp:100] Creating Layer relu4_1
I1119 21:06:33.217587  8814 net.cpp:434] relu4_1 <- conv4_1
I1119 21:06:33.217595  8814 net.cpp:395] relu4_1 -> conv4_1 (in-place)
I1119 21:06:33.217795  8814 net.cpp:150] Setting up relu4_1
I1119 21:06:33.217808  8814 net.cpp:157] Top shape: 2 512 96 96 (9437184)
I1119 21:06:33.217810  8814 net.cpp:165] Memory required for data: 2513795328
I1119 21:06:33.217814  8814 layer_factory.hpp:77] Creating layer conv4_2
I1119 21:06:33.217824  8814 net.cpp:100] Creating Layer conv4_2
I1119 21:06:33.217829  8814 net.cpp:434] conv4_2 <- conv4_1
I1119 21:06:33.217834  8814 net.cpp:408] conv4_2 -> conv4_2
I1119 21:06:33.223815  8814 net.cpp:150] Setting up conv4_2
I1119 21:06:33.223846  8814 net.cpp:157] Top shape: 2 512 96 96 (9437184)
I1119 21:06:33.223850  8814 net.cpp:165] Memory required for data: 2551544064
I1119 21:06:33.223865  8814 layer_factory.hpp:77] Creating layer relu4_2
I1119 21:06:33.223877  8814 net.cpp:100] Creating Layer relu4_2
I1119 21:06:33.223882  8814 net.cpp:434] relu4_2 <- conv4_2
I1119 21:06:33.223889  8814 net.cpp:395] relu4_2 -> conv4_2 (in-place)
I1119 21:06:33.224048  8814 net.cpp:150] Setting up relu4_2
I1119 21:06:33.224057  8814 net.cpp:157] Top shape: 2 512 96 96 (9437184)
I1119 21:06:33.224061  8814 net.cpp:165] Memory required for data: 2589292800
I1119 21:06:33.224064  8814 layer_factory.hpp:77] Creating layer conv4_3
I1119 21:06:33.224071  8814 net.cpp:100] Creating Layer conv4_3
I1119 21:06:33.224076  8814 net.cpp:434] conv4_3 <- conv4_2
I1119 21:06:33.224081  8814 net.cpp:408] conv4_3 -> conv4_3
I1119 21:06:33.232103  8814 net.cpp:150] Setting up conv4_3
I1119 21:06:33.232151  8814 net.cpp:157] Top shape: 2 512 96 96 (9437184)
I1119 21:06:33.232157  8814 net.cpp:165] Memory required for data: 2627041536
I1119 21:06:33.232172  8814 layer_factory.hpp:77] Creating layer relu4_3
I1119 21:06:33.232190  8814 net.cpp:100] Creating Layer relu4_3
I1119 21:06:33.232197  8814 net.cpp:434] relu4_3 <- conv4_3
I1119 21:06:33.232205  8814 net.cpp:395] relu4_3 -> conv4_3 (in-place)
I1119 21:06:33.232429  8814 net.cpp:150] Setting up relu4_3
I1119 21:06:33.232440  8814 net.cpp:157] Top shape: 2 512 96 96 (9437184)
I1119 21:06:33.232445  8814 net.cpp:165] Memory required for data: 2664790272
I1119 21:06:33.232447  8814 layer_factory.hpp:77] Creating layer conv4_3_relu4_3_0_split
I1119 21:06:33.232460  8814 net.cpp:100] Creating Layer conv4_3_relu4_3_0_split
I1119 21:06:33.232465  8814 net.cpp:434] conv4_3_relu4_3_0_split <- conv4_3
I1119 21:06:33.232470  8814 net.cpp:408] conv4_3_relu4_3_0_split -> conv4_3_relu4_3_0_split_0
I1119 21:06:33.232476  8814 net.cpp:408] conv4_3_relu4_3_0_split -> conv4_3_relu4_3_0_split_1
I1119 21:06:33.232482  8814 net.cpp:408] conv4_3_relu4_3_0_split -> conv4_3_relu4_3_0_split_2
I1119 21:06:33.232540  8814 net.cpp:150] Setting up conv4_3_relu4_3_0_split
I1119 21:06:33.232547  8814 net.cpp:157] Top shape: 2 512 96 96 (9437184)
I1119 21:06:33.232551  8814 net.cpp:157] Top shape: 2 512 96 96 (9437184)
I1119 21:06:33.232555  8814 net.cpp:157] Top shape: 2 512 96 96 (9437184)
I1119 21:06:33.232558  8814 net.cpp:165] Memory required for data: 2778036480
I1119 21:06:33.232561  8814 layer_factory.hpp:77] Creating layer buffer
I1119 21:06:33.232573  8814 net.cpp:100] Creating Layer buffer
I1119 21:06:33.232578  8814 net.cpp:434] buffer <- conv4_3_relu4_3_0_split_0
I1119 21:06:33.232584  8814 net.cpp:408] buffer -> buffer
I1119 21:06:33.296339  8814 net.cpp:150] Setting up buffer
I1119 21:06:33.296363  8814 net.cpp:157] Top shape: 2 512 96 96 (9437184)
I1119 21:06:33.296367  8814 net.cpp:165] Memory required for data: 2815785216
I1119 21:06:33.296375  8814 layer_factory.hpp:77] Creating layer relu_buffer
I1119 21:06:33.296384  8814 net.cpp:100] Creating Layer relu_buffer
I1119 21:06:33.296389  8814 net.cpp:434] relu_buffer <- buffer
I1119 21:06:33.296396  8814 net.cpp:395] relu_buffer -> buffer (in-place)
I1119 21:06:33.296865  8814 net.cpp:150] Setting up relu_buffer
I1119 21:06:33.296878  8814 net.cpp:157] Top shape: 2 512 96 96 (9437184)
I1119 21:06:33.296881  8814 net.cpp:165] Memory required for data: 2853533952
I1119 21:06:33.296885  8814 layer_factory.hpp:77] Creating layer attention
I1119 21:06:33.296896  8814 net.cpp:100] Creating Layer attention
I1119 21:06:33.296900  8814 net.cpp:434] attention <- buffer
I1119 21:06:33.296907  8814 net.cpp:408] attention -> attention
I1119 21:06:33.298643  8814 net.cpp:150] Setting up attention
I1119 21:06:33.298658  8814 net.cpp:157] Top shape: 2 3 96 96 (55296)
I1119 21:06:33.298661  8814 net.cpp:165] Memory required for data: 2853755136
I1119 21:06:33.298668  8814 layer_factory.hpp:77] Creating layer ch4_pool
I1119 21:06:33.298676  8814 net.cpp:100] Creating Layer ch4_pool
I1119 21:06:33.298679  8814 net.cpp:434] ch4_pool <- ch4
I1119 21:06:33.298686  8814 net.cpp:408] ch4_pool -> ch4_pool
I1119 21:06:33.298729  8814 net.cpp:150] Setting up ch4_pool
I1119 21:06:33.298737  8814 net.cpp:157] Top shape: 2 1 96 96 (18432)
I1119 21:06:33.298740  8814 net.cpp:165] Memory required for data: 2853828864
I1119 21:06:33.298744  8814 layer_factory.hpp:77] Creating layer loss_attention
I1119 21:06:33.298751  8814 net.cpp:100] Creating Layer loss_attention
I1119 21:06:33.298754  8814 net.cpp:434] loss_attention <- attention
I1119 21:06:33.298759  8814 net.cpp:434] loss_attention <- ch4_pool
I1119 21:06:33.298764  8814 net.cpp:408] loss_attention -> loss_attention
I1119 21:06:33.298771  8814 layer_factory.hpp:77] Creating layer loss_attention
I1119 21:06:33.299049  8814 net.cpp:150] Setting up loss_attention
I1119 21:06:33.299058  8814 net.cpp:157] Top shape: (1)
I1119 21:06:33.299062  8814 net.cpp:160]     with loss weight 1
I1119 21:06:33.299072  8814 net.cpp:165] Memory required for data: 2853828868
I1119 21:06:33.299075  8814 layer_factory.hpp:77] Creating layer loss1_conv1
I1119 21:06:33.299084  8814 net.cpp:100] Creating Layer loss1_conv1
I1119 21:06:33.299088  8814 net.cpp:434] loss1_conv1 <- conv4_3_relu4_3_0_split_1
I1119 21:06:33.299094  8814 net.cpp:408] loss1_conv1 -> loss1_conv1
I1119 21:06:33.362062  8814 net.cpp:150] Setting up loss1_conv1
I1119 21:06:33.362087  8814 net.cpp:157] Top shape: 2 512 96 96 (9437184)
I1119 21:06:33.362089  8814 net.cpp:165] Memory required for data: 2891577604
I1119 21:06:33.362097  8814 layer_factory.hpp:77] Creating layer loss_relu1
I1119 21:06:33.362107  8814 net.cpp:100] Creating Layer loss_relu1
I1119 21:06:33.362115  8814 net.cpp:434] loss_relu1 <- loss1_conv1
I1119 21:06:33.362120  8814 net.cpp:395] loss_relu1 -> loss1_conv1 (in-place)
I1119 21:06:33.362267  8814 net.cpp:150] Setting up loss_relu1
I1119 21:06:33.362277  8814 net.cpp:157] Top shape: 2 512 96 96 (9437184)
I1119 21:06:33.362279  8814 net.cpp:165] Memory required for data: 2929326340
I1119 21:06:33.362283  8814 layer_factory.hpp:77] Creating layer loss1_conv1_loss_relu1_0_split
I1119 21:06:33.362288  8814 net.cpp:100] Creating Layer loss1_conv1_loss_relu1_0_split
I1119 21:06:33.362293  8814 net.cpp:434] loss1_conv1_loss_relu1_0_split <- loss1_conv1
I1119 21:06:33.362298  8814 net.cpp:408] loss1_conv1_loss_relu1_0_split -> loss1_conv1_loss_relu1_0_split_0
I1119 21:06:33.362304  8814 net.cpp:408] loss1_conv1_loss_relu1_0_split -> loss1_conv1_loss_relu1_0_split_1
I1119 21:06:33.362344  8814 net.cpp:150] Setting up loss1_conv1_loss_relu1_0_split
I1119 21:06:33.362349  8814 net.cpp:157] Top shape: 2 512 96 96 (9437184)
I1119 21:06:33.362354  8814 net.cpp:157] Top shape: 2 512 96 96 (9437184)
I1119 21:06:33.362356  8814 net.cpp:165] Memory required for data: 3004823812
I1119 21:06:33.362360  8814 layer_factory.hpp:77] Creating layer LFCN_1_5x5
I1119 21:06:33.362371  8814 net.cpp:100] Creating Layer LFCN_1_5x5
I1119 21:06:33.362375  8814 net.cpp:434] LFCN_1_5x5 <- loss1_conv1_loss_relu1_0_split_0
I1119 21:06:33.362381  8814 net.cpp:408] LFCN_1_5x5 -> LFCN_1_5x5
I1119 21:06:33.367333  8814 net.cpp:150] Setting up LFCN_1_5x5
I1119 21:06:33.367347  8814 net.cpp:157] Top shape: 2 9 96 96 (165888)
I1119 21:06:33.367349  8814 net.cpp:165] Memory required for data: 3005487364
I1119 21:06:33.367354  8814 layer_factory.hpp:77] Creating layer LFCN_1_5x5_LFCN_1_5x5_0_split
I1119 21:06:33.367362  8814 net.cpp:100] Creating Layer LFCN_1_5x5_LFCN_1_5x5_0_split
I1119 21:06:33.367364  8814 net.cpp:434] LFCN_1_5x5_LFCN_1_5x5_0_split <- LFCN_1_5x5
I1119 21:06:33.367370  8814 net.cpp:408] LFCN_1_5x5_LFCN_1_5x5_0_split -> LFCN_1_5x5_LFCN_1_5x5_0_split_0
I1119 21:06:33.367375  8814 net.cpp:408] LFCN_1_5x5_LFCN_1_5x5_0_split -> LFCN_1_5x5_LFCN_1_5x5_0_split_1
I1119 21:06:33.367408  8814 net.cpp:150] Setting up LFCN_1_5x5_LFCN_1_5x5_0_split
I1119 21:06:33.367411  8814 net.cpp:157] Top shape: 2 9 96 96 (165888)
I1119 21:06:33.367416  8814 net.cpp:157] Top shape: 2 9 96 96 (165888)
I1119 21:06:33.367419  8814 net.cpp:165] Memory required for data: 3006814468
I1119 21:06:33.367422  8814 layer_factory.hpp:77] Creating layer detection_loss_1_5x5
I1119 21:06:33.367427  8814 net.cpp:100] Creating Layer detection_loss_1_5x5
I1119 21:06:33.367430  8814 net.cpp:434] detection_loss_1_5x5 <- LFCN_1_5x5_LFCN_1_5x5_0_split_0
I1119 21:06:33.367434  8814 net.cpp:434] detection_loss_1_5x5 <- label_1_5x5_data_1_split_0
I1119 21:06:33.367439  8814 net.cpp:408] detection_loss_1_5x5 -> loss_1_5x5
I1119 21:06:33.367446  8814 layer_factory.hpp:77] Creating layer detection_loss_1_5x5
I1119 21:06:33.367808  8814 net.cpp:150] Setting up detection_loss_1_5x5
I1119 21:06:33.367818  8814 net.cpp:157] Top shape: 1 1 1 2 (2)
I1119 21:06:33.367821  8814 net.cpp:160]     with loss weight 0.9
I1119 21:06:33.367832  8814 net.cpp:165] Memory required for data: 3006814476
I1119 21:06:33.367835  8814 layer_factory.hpp:77] Creating layer detection_accuracy_1_5x5
I1119 21:06:33.367842  8814 net.cpp:100] Creating Layer detection_accuracy_1_5x5
I1119 21:06:33.367846  8814 net.cpp:434] detection_accuracy_1_5x5 <- LFCN_1_5x5_LFCN_1_5x5_0_split_1
I1119 21:06:33.367851  8814 net.cpp:434] detection_accuracy_1_5x5 <- label_1_5x5_data_1_split_1
I1119 21:06:33.367856  8814 net.cpp:408] detection_accuracy_1_5x5 -> accuracy_1_5x5
I1119 21:06:33.367862  8814 net.cpp:408] detection_accuracy_1_5x5 -> boxiou_1_5x5
I1119 21:06:33.367900  8814 net.cpp:150] Setting up detection_accuracy_1_5x5
I1119 21:06:33.367908  8814 net.cpp:157] Top shape: 1 1 1 2 (2)
I1119 21:06:33.367911  8814 net.cpp:157] Top shape: 1 1 1 1 (1)
I1119 21:06:33.367914  8814 net.cpp:165] Memory required for data: 3006814488
I1119 21:06:33.367918  8814 layer_factory.hpp:77] Creating layer LFCN_1_7x7
I1119 21:06:33.367928  8814 net.cpp:100] Creating Layer LFCN_1_7x7
I1119 21:06:33.367931  8814 net.cpp:434] LFCN_1_7x7 <- loss1_conv1_loss_relu1_0_split_1
I1119 21:06:33.367936  8814 net.cpp:408] LFCN_1_7x7 -> LFCN_1_7x7
I1119 21:06:33.375231  8814 net.cpp:150] Setting up LFCN_1_7x7
I1119 21:06:33.375257  8814 net.cpp:157] Top shape: 2 9 96 96 (165888)
I1119 21:06:33.375260  8814 net.cpp:165] Memory required for data: 3007478040
I1119 21:06:33.375267  8814 layer_factory.hpp:77] Creating layer LFCN_1_7x7_LFCN_1_7x7_0_split
I1119 21:06:33.375277  8814 net.cpp:100] Creating Layer LFCN_1_7x7_LFCN_1_7x7_0_split
I1119 21:06:33.375284  8814 net.cpp:434] LFCN_1_7x7_LFCN_1_7x7_0_split <- LFCN_1_7x7
I1119 21:06:33.375290  8814 net.cpp:408] LFCN_1_7x7_LFCN_1_7x7_0_split -> LFCN_1_7x7_LFCN_1_7x7_0_split_0
I1119 21:06:33.375296  8814 net.cpp:408] LFCN_1_7x7_LFCN_1_7x7_0_split -> LFCN_1_7x7_LFCN_1_7x7_0_split_1
I1119 21:06:33.375331  8814 net.cpp:150] Setting up LFCN_1_7x7_LFCN_1_7x7_0_split
I1119 21:06:33.375335  8814 net.cpp:157] Top shape: 2 9 96 96 (165888)
I1119 21:06:33.375339  8814 net.cpp:157] Top shape: 2 9 96 96 (165888)
I1119 21:06:33.375341  8814 net.cpp:165] Memory required for data: 3008805144
I1119 21:06:33.375344  8814 layer_factory.hpp:77] Creating layer detection_loss_1_7x7
I1119 21:06:33.375351  8814 net.cpp:100] Creating Layer detection_loss_1_7x7
I1119 21:06:33.375355  8814 net.cpp:434] detection_loss_1_7x7 <- LFCN_1_7x7_LFCN_1_7x7_0_split_0
I1119 21:06:33.375358  8814 net.cpp:434] detection_loss_1_7x7 <- label_1_7x7_data_2_split_0
I1119 21:06:33.375365  8814 net.cpp:408] detection_loss_1_7x7 -> loss_1_7x7
I1119 21:06:33.375371  8814 layer_factory.hpp:77] Creating layer detection_loss_1_7x7
I1119 21:06:33.376641  8814 net.cpp:150] Setting up detection_loss_1_7x7
I1119 21:06:33.376657  8814 net.cpp:157] Top shape: 1 1 1 2 (2)
I1119 21:06:33.376660  8814 net.cpp:160]     with loss weight 0.9
I1119 21:06:33.376673  8814 net.cpp:165] Memory required for data: 3008805152
I1119 21:06:33.376677  8814 layer_factory.hpp:77] Creating layer detection_accuracy_1_7x7
I1119 21:06:33.376684  8814 net.cpp:100] Creating Layer detection_accuracy_1_7x7
I1119 21:06:33.376690  8814 net.cpp:434] detection_accuracy_1_7x7 <- LFCN_1_7x7_LFCN_1_7x7_0_split_1
I1119 21:06:33.376695  8814 net.cpp:434] detection_accuracy_1_7x7 <- label_1_7x7_data_2_split_1
I1119 21:06:33.376701  8814 net.cpp:408] detection_accuracy_1_7x7 -> accuracy_1_7x7
I1119 21:06:33.376708  8814 net.cpp:408] detection_accuracy_1_7x7 -> boxiou_1_7x7
I1119 21:06:33.376749  8814 net.cpp:150] Setting up detection_accuracy_1_7x7
I1119 21:06:33.376756  8814 net.cpp:157] Top shape: 1 1 1 2 (2)
I1119 21:06:33.376760  8814 net.cpp:157] Top shape: 1 1 1 1 (1)
I1119 21:06:33.376762  8814 net.cpp:165] Memory required for data: 3008805164
I1119 21:06:33.376766  8814 layer_factory.hpp:77] Creating layer pool4
I1119 21:06:33.376772  8814 net.cpp:100] Creating Layer pool4
I1119 21:06:33.376776  8814 net.cpp:434] pool4 <- conv4_3_relu4_3_0_split_2
I1119 21:06:33.376782  8814 net.cpp:408] pool4 -> pool4
I1119 21:06:33.376818  8814 net.cpp:150] Setting up pool4
I1119 21:06:33.376827  8814 net.cpp:157] Top shape: 2 512 48 48 (2359296)
I1119 21:06:33.376829  8814 net.cpp:165] Memory required for data: 3018242348
I1119 21:06:33.376832  8814 layer_factory.hpp:77] Creating layer conv5_1
I1119 21:06:33.376839  8814 net.cpp:100] Creating Layer conv5_1
I1119 21:06:33.376843  8814 net.cpp:434] conv5_1 <- pool4
I1119 21:06:33.376848  8814 net.cpp:408] conv5_1 -> conv5_1
I1119 21:06:33.382720  8814 net.cpp:150] Setting up conv5_1
I1119 21:06:33.382751  8814 net.cpp:157] Top shape: 2 512 48 48 (2359296)
I1119 21:06:33.382755  8814 net.cpp:165] Memory required for data: 3027679532
I1119 21:06:33.382764  8814 layer_factory.hpp:77] Creating layer relu5_1
I1119 21:06:33.382776  8814 net.cpp:100] Creating Layer relu5_1
I1119 21:06:33.382783  8814 net.cpp:434] relu5_1 <- conv5_1
I1119 21:06:33.382789  8814 net.cpp:395] relu5_1 -> conv5_1 (in-place)
I1119 21:06:33.382957  8814 net.cpp:150] Setting up relu5_1
I1119 21:06:33.382966  8814 net.cpp:157] Top shape: 2 512 48 48 (2359296)
I1119 21:06:33.382971  8814 net.cpp:165] Memory required for data: 3037116716
I1119 21:06:33.382973  8814 layer_factory.hpp:77] Creating layer conv5_2
I1119 21:06:33.382982  8814 net.cpp:100] Creating Layer conv5_2
I1119 21:06:33.382987  8814 net.cpp:434] conv5_2 <- conv5_1
I1119 21:06:33.382992  8814 net.cpp:408] conv5_2 -> conv5_2
I1119 21:06:33.389123  8814 net.cpp:150] Setting up conv5_2
I1119 21:06:33.389155  8814 net.cpp:157] Top shape: 2 512 48 48 (2359296)
I1119 21:06:33.389160  8814 net.cpp:165] Memory required for data: 3046553900
I1119 21:06:33.389175  8814 layer_factory.hpp:77] Creating layer relu5_2
I1119 21:06:33.389187  8814 net.cpp:100] Creating Layer relu5_2
I1119 21:06:33.389194  8814 net.cpp:434] relu5_2 <- conv5_2
I1119 21:06:33.389199  8814 net.cpp:395] relu5_2 -> conv5_2 (in-place)
I1119 21:06:33.389705  8814 net.cpp:150] Setting up relu5_2
I1119 21:06:33.389719  8814 net.cpp:157] Top shape: 2 512 48 48 (2359296)
I1119 21:06:33.389721  8814 net.cpp:165] Memory required for data: 3055991084
I1119 21:06:33.389725  8814 layer_factory.hpp:77] Creating layer conv5_3
I1119 21:06:33.389735  8814 net.cpp:100] Creating Layer conv5_3
I1119 21:06:33.389739  8814 net.cpp:434] conv5_3 <- conv5_2
I1119 21:06:33.389744  8814 net.cpp:408] conv5_3 -> conv5_3
I1119 21:06:33.396251  8814 net.cpp:150] Setting up conv5_3
I1119 21:06:33.396279  8814 net.cpp:157] Top shape: 2 512 48 48 (2359296)
I1119 21:06:33.396282  8814 net.cpp:165] Memory required for data: 3065428268
I1119 21:06:33.396291  8814 layer_factory.hpp:77] Creating layer relu5_3
I1119 21:06:33.396301  8814 net.cpp:100] Creating Layer relu5_3
I1119 21:06:33.396307  8814 net.cpp:434] relu5_3 <- conv5_3
I1119 21:06:33.396312  8814 net.cpp:395] relu5_3 -> conv5_3 (in-place)
I1119 21:06:33.396461  8814 net.cpp:150] Setting up relu5_3
I1119 21:06:33.396469  8814 net.cpp:157] Top shape: 2 512 48 48 (2359296)
I1119 21:06:33.396472  8814 net.cpp:165] Memory required for data: 3074865452
I1119 21:06:33.396476  8814 layer_factory.hpp:77] Creating layer conv5_3_relu5_3_0_split
I1119 21:06:33.396482  8814 net.cpp:100] Creating Layer conv5_3_relu5_3_0_split
I1119 21:06:33.396486  8814 net.cpp:434] conv5_3_relu5_3_0_split <- conv5_3
I1119 21:06:33.396492  8814 net.cpp:408] conv5_3_relu5_3_0_split -> conv5_3_relu5_3_0_split_0
I1119 21:06:33.396497  8814 net.cpp:408] conv5_3_relu5_3_0_split -> conv5_3_relu5_3_0_split_1
I1119 21:06:33.396509  8814 net.cpp:408] conv5_3_relu5_3_0_split -> conv5_3_relu5_3_0_split_2
I1119 21:06:33.396566  8814 net.cpp:150] Setting up conv5_3_relu5_3_0_split
I1119 21:06:33.396574  8814 net.cpp:157] Top shape: 2 512 48 48 (2359296)
I1119 21:06:33.396577  8814 net.cpp:157] Top shape: 2 512 48 48 (2359296)
I1119 21:06:33.396581  8814 net.cpp:157] Top shape: 2 512 48 48 (2359296)
I1119 21:06:33.396584  8814 net.cpp:165] Memory required for data: 3103177004
I1119 21:06:33.396589  8814 layer_factory.hpp:77] Creating layer LFCN_2_5x5
I1119 21:06:33.396600  8814 net.cpp:100] Creating Layer LFCN_2_5x5
I1119 21:06:33.396602  8814 net.cpp:434] LFCN_2_5x5 <- conv5_3_relu5_3_0_split_0
I1119 21:06:33.396610  8814 net.cpp:408] LFCN_2_5x5 -> LFCN_2_5x5
I1119 21:06:33.400439  8814 net.cpp:150] Setting up LFCN_2_5x5
I1119 21:06:33.400450  8814 net.cpp:157] Top shape: 2 9 48 48 (41472)
I1119 21:06:33.400454  8814 net.cpp:165] Memory required for data: 3103342892
I1119 21:06:33.400458  8814 layer_factory.hpp:77] Creating layer LFCN_2_5x5_LFCN_2_5x5_0_split
I1119 21:06:33.400462  8814 net.cpp:100] Creating Layer LFCN_2_5x5_LFCN_2_5x5_0_split
I1119 21:06:33.400466  8814 net.cpp:434] LFCN_2_5x5_LFCN_2_5x5_0_split <- LFCN_2_5x5
I1119 21:06:33.400470  8814 net.cpp:408] LFCN_2_5x5_LFCN_2_5x5_0_split -> LFCN_2_5x5_LFCN_2_5x5_0_split_0
I1119 21:06:33.400475  8814 net.cpp:408] LFCN_2_5x5_LFCN_2_5x5_0_split -> LFCN_2_5x5_LFCN_2_5x5_0_split_1
I1119 21:06:33.400508  8814 net.cpp:150] Setting up LFCN_2_5x5_LFCN_2_5x5_0_split
I1119 21:06:33.400512  8814 net.cpp:157] Top shape: 2 9 48 48 (41472)
I1119 21:06:33.400516  8814 net.cpp:157] Top shape: 2 9 48 48 (41472)
I1119 21:06:33.400518  8814 net.cpp:165] Memory required for data: 3103674668
I1119 21:06:33.400521  8814 layer_factory.hpp:77] Creating layer detection_loss_2_5x5
I1119 21:06:33.400527  8814 net.cpp:100] Creating Layer detection_loss_2_5x5
I1119 21:06:33.400532  8814 net.cpp:434] detection_loss_2_5x5 <- LFCN_2_5x5_LFCN_2_5x5_0_split_0
I1119 21:06:33.400535  8814 net.cpp:434] detection_loss_2_5x5 <- label_2_5x5_data_3_split_0
I1119 21:06:33.400540  8814 net.cpp:408] detection_loss_2_5x5 -> loss_2_5x5
I1119 21:06:33.400547  8814 layer_factory.hpp:77] Creating layer detection_loss_2_5x5
I1119 21:06:33.400884  8814 net.cpp:150] Setting up detection_loss_2_5x5
I1119 21:06:33.400894  8814 net.cpp:157] Top shape: 1 1 1 2 (2)
I1119 21:06:33.400897  8814 net.cpp:160]     with loss weight 1
I1119 21:06:33.400907  8814 net.cpp:165] Memory required for data: 3103674676
I1119 21:06:33.400910  8814 layer_factory.hpp:77] Creating layer detection_accuracy_2_5x5
I1119 21:06:33.400918  8814 net.cpp:100] Creating Layer detection_accuracy_2_5x5
I1119 21:06:33.400923  8814 net.cpp:434] detection_accuracy_2_5x5 <- LFCN_2_5x5_LFCN_2_5x5_0_split_1
I1119 21:06:33.400926  8814 net.cpp:434] detection_accuracy_2_5x5 <- label_2_5x5_data_3_split_1
I1119 21:06:33.400931  8814 net.cpp:408] detection_accuracy_2_5x5 -> accuracy_2_5x5
I1119 21:06:33.400938  8814 net.cpp:408] detection_accuracy_2_5x5 -> boxiou_2_5x5
I1119 21:06:33.400975  8814 net.cpp:150] Setting up detection_accuracy_2_5x5
I1119 21:06:33.400982  8814 net.cpp:157] Top shape: 1 1 1 2 (2)
I1119 21:06:33.400986  8814 net.cpp:157] Top shape: 1 1 1 1 (1)
I1119 21:06:33.400990  8814 net.cpp:165] Memory required for data: 3103674688
I1119 21:06:33.400992  8814 layer_factory.hpp:77] Creating layer LFCN_2_7x7
I1119 21:06:33.401001  8814 net.cpp:100] Creating Layer LFCN_2_7x7
I1119 21:06:33.401005  8814 net.cpp:434] LFCN_2_7x7 <- conv5_3_relu5_3_0_split_1
I1119 21:06:33.401010  8814 net.cpp:408] LFCN_2_7x7 -> LFCN_2_7x7
I1119 21:06:33.407775  8814 net.cpp:150] Setting up LFCN_2_7x7
I1119 21:06:33.407786  8814 net.cpp:157] Top shape: 2 9 48 48 (41472)
I1119 21:06:33.407789  8814 net.cpp:165] Memory required for data: 3103840576
I1119 21:06:33.407794  8814 layer_factory.hpp:77] Creating layer LFCN_2_7x7_LFCN_2_7x7_0_split
I1119 21:06:33.407800  8814 net.cpp:100] Creating Layer LFCN_2_7x7_LFCN_2_7x7_0_split
I1119 21:06:33.407804  8814 net.cpp:434] LFCN_2_7x7_LFCN_2_7x7_0_split <- LFCN_2_7x7
I1119 21:06:33.407807  8814 net.cpp:408] LFCN_2_7x7_LFCN_2_7x7_0_split -> LFCN_2_7x7_LFCN_2_7x7_0_split_0
I1119 21:06:33.407814  8814 net.cpp:408] LFCN_2_7x7_LFCN_2_7x7_0_split -> LFCN_2_7x7_LFCN_2_7x7_0_split_1
I1119 21:06:33.407845  8814 net.cpp:150] Setting up LFCN_2_7x7_LFCN_2_7x7_0_split
I1119 21:06:33.407850  8814 net.cpp:157] Top shape: 2 9 48 48 (41472)
I1119 21:06:33.407853  8814 net.cpp:157] Top shape: 2 9 48 48 (41472)
I1119 21:06:33.407855  8814 net.cpp:165] Memory required for data: 3104172352
I1119 21:06:33.407858  8814 layer_factory.hpp:77] Creating layer detection_loss_2_7x7
I1119 21:06:33.407863  8814 net.cpp:100] Creating Layer detection_loss_2_7x7
I1119 21:06:33.407866  8814 net.cpp:434] detection_loss_2_7x7 <- LFCN_2_7x7_LFCN_2_7x7_0_split_0
I1119 21:06:33.407871  8814 net.cpp:434] detection_loss_2_7x7 <- label_2_7x7_data_4_split_0
I1119 21:06:33.407874  8814 net.cpp:408] detection_loss_2_7x7 -> loss_2_7x7
I1119 21:06:33.407881  8814 layer_factory.hpp:77] Creating layer detection_loss_2_7x7
I1119 21:06:33.408210  8814 net.cpp:150] Setting up detection_loss_2_7x7
I1119 21:06:33.408221  8814 net.cpp:157] Top shape: 1 1 1 2 (2)
I1119 21:06:33.408223  8814 net.cpp:160]     with loss weight 1
I1119 21:06:33.408229  8814 net.cpp:165] Memory required for data: 3104172360
I1119 21:06:33.408232  8814 layer_factory.hpp:77] Creating layer detection_accuracy_2_7x7
I1119 21:06:33.408243  8814 net.cpp:100] Creating Layer detection_accuracy_2_7x7
I1119 21:06:33.408247  8814 net.cpp:434] detection_accuracy_2_7x7 <- LFCN_2_7x7_LFCN_2_7x7_0_split_1
I1119 21:06:33.408252  8814 net.cpp:434] detection_accuracy_2_7x7 <- label_2_7x7_data_4_split_1
I1119 21:06:33.408258  8814 net.cpp:408] detection_accuracy_2_7x7 -> accuracy_2_7x7
I1119 21:06:33.408264  8814 net.cpp:408] detection_accuracy_2_7x7 -> boxiou_2_7x7
I1119 21:06:33.408303  8814 net.cpp:150] Setting up detection_accuracy_2_7x7
I1119 21:06:33.408309  8814 net.cpp:157] Top shape: 1 1 1 2 (2)
I1119 21:06:33.408313  8814 net.cpp:157] Top shape: 1 1 1 1 (1)
I1119 21:06:33.408316  8814 net.cpp:165] Memory required for data: 3104172372
I1119 21:06:33.408320  8814 layer_factory.hpp:77] Creating layer pool5
I1119 21:06:33.408326  8814 net.cpp:100] Creating Layer pool5
I1119 21:06:33.408329  8814 net.cpp:434] pool5 <- conv5_3_relu5_3_0_split_2
I1119 21:06:33.408334  8814 net.cpp:408] pool5 -> pool5
I1119 21:06:33.408371  8814 net.cpp:150] Setting up pool5
I1119 21:06:33.408377  8814 net.cpp:157] Top shape: 2 512 24 24 (589824)
I1119 21:06:33.408380  8814 net.cpp:165] Memory required for data: 3106531668
I1119 21:06:33.408383  8814 layer_factory.hpp:77] Creating layer conv6_1
I1119 21:06:33.408392  8814 net.cpp:100] Creating Layer conv6_1
I1119 21:06:33.408396  8814 net.cpp:434] conv6_1 <- pool5
I1119 21:06:33.408402  8814 net.cpp:408] conv6_1 -> conv6_1
I1119 21:06:33.472167  8814 net.cpp:150] Setting up conv6_1
I1119 21:06:33.472193  8814 net.cpp:157] Top shape: 2 512 24 24 (589824)
I1119 21:06:33.472196  8814 net.cpp:165] Memory required for data: 3108890964
I1119 21:06:33.472204  8814 layer_factory.hpp:77] Creating layer relu6_1
I1119 21:06:33.472213  8814 net.cpp:100] Creating Layer relu6_1
I1119 21:06:33.472221  8814 net.cpp:434] relu6_1 <- conv6_1
I1119 21:06:33.472227  8814 net.cpp:395] relu6_1 -> conv6_1 (in-place)
I1119 21:06:33.472368  8814 net.cpp:150] Setting up relu6_1
I1119 21:06:33.472378  8814 net.cpp:157] Top shape: 2 512 24 24 (589824)
I1119 21:06:33.472381  8814 net.cpp:165] Memory required for data: 3111250260
I1119 21:06:33.472384  8814 layer_factory.hpp:77] Creating layer conv6_1_relu6_1_0_split
I1119 21:06:33.472390  8814 net.cpp:100] Creating Layer conv6_1_relu6_1_0_split
I1119 21:06:33.472394  8814 net.cpp:434] conv6_1_relu6_1_0_split <- conv6_1
I1119 21:06:33.472400  8814 net.cpp:408] conv6_1_relu6_1_0_split -> conv6_1_relu6_1_0_split_0
I1119 21:06:33.472407  8814 net.cpp:408] conv6_1_relu6_1_0_split -> conv6_1_relu6_1_0_split_1
I1119 21:06:33.472412  8814 net.cpp:408] conv6_1_relu6_1_0_split -> conv6_1_relu6_1_0_split_2
I1119 21:06:33.472465  8814 net.cpp:150] Setting up conv6_1_relu6_1_0_split
I1119 21:06:33.472471  8814 net.cpp:157] Top shape: 2 512 24 24 (589824)
I1119 21:06:33.472476  8814 net.cpp:157] Top shape: 2 512 24 24 (589824)
I1119 21:06:33.472481  8814 net.cpp:157] Top shape: 2 512 24 24 (589824)
I1119 21:06:33.472482  8814 net.cpp:165] Memory required for data: 3118328148
I1119 21:06:33.472486  8814 layer_factory.hpp:77] Creating layer LFCN_3_5x5
I1119 21:06:33.472496  8814 net.cpp:100] Creating Layer LFCN_3_5x5
I1119 21:06:33.472501  8814 net.cpp:434] LFCN_3_5x5 <- conv6_1_relu6_1_0_split_0
I1119 21:06:33.472507  8814 net.cpp:408] LFCN_3_5x5 -> LFCN_3_5x5
I1119 21:06:33.477133  8814 net.cpp:150] Setting up LFCN_3_5x5
I1119 21:06:33.477144  8814 net.cpp:157] Top shape: 2 9 24 24 (10368)
I1119 21:06:33.477146  8814 net.cpp:165] Memory required for data: 3118369620
I1119 21:06:33.477152  8814 layer_factory.hpp:77] Creating layer LFCN_3_5x5_LFCN_3_5x5_0_split
I1119 21:06:33.477159  8814 net.cpp:100] Creating Layer LFCN_3_5x5_LFCN_3_5x5_0_split
I1119 21:06:33.477164  8814 net.cpp:434] LFCN_3_5x5_LFCN_3_5x5_0_split <- LFCN_3_5x5
I1119 21:06:33.477169  8814 net.cpp:408] LFCN_3_5x5_LFCN_3_5x5_0_split -> LFCN_3_5x5_LFCN_3_5x5_0_split_0
I1119 21:06:33.477175  8814 net.cpp:408] LFCN_3_5x5_LFCN_3_5x5_0_split -> LFCN_3_5x5_LFCN_3_5x5_0_split_1
I1119 21:06:33.477214  8814 net.cpp:150] Setting up LFCN_3_5x5_LFCN_3_5x5_0_split
I1119 21:06:33.477219  8814 net.cpp:157] Top shape: 2 9 24 24 (10368)
I1119 21:06:33.477223  8814 net.cpp:157] Top shape: 2 9 24 24 (10368)
I1119 21:06:33.477226  8814 net.cpp:165] Memory required for data: 3118452564
I1119 21:06:33.477229  8814 layer_factory.hpp:77] Creating layer detection_loss_3_5x5
I1119 21:06:33.477236  8814 net.cpp:100] Creating Layer detection_loss_3_5x5
I1119 21:06:33.477238  8814 net.cpp:434] detection_loss_3_5x5 <- LFCN_3_5x5_LFCN_3_5x5_0_split_0
I1119 21:06:33.477243  8814 net.cpp:434] detection_loss_3_5x5 <- label_3_5x5_data_5_split_0
I1119 21:06:33.477250  8814 net.cpp:408] detection_loss_3_5x5 -> loss_3_5x5
I1119 21:06:33.477257  8814 layer_factory.hpp:77] Creating layer detection_loss_3_5x5
I1119 21:06:33.477586  8814 net.cpp:150] Setting up detection_loss_3_5x5
I1119 21:06:33.477594  8814 net.cpp:157] Top shape: 1 1 1 2 (2)
I1119 21:06:33.477598  8814 net.cpp:160]     with loss weight 1
I1119 21:06:33.477609  8814 net.cpp:165] Memory required for data: 3118452572
I1119 21:06:33.477613  8814 layer_factory.hpp:77] Creating layer detection_accuracy_3_5x5
I1119 21:06:33.477620  8814 net.cpp:100] Creating Layer detection_accuracy_3_5x5
I1119 21:06:33.477623  8814 net.cpp:434] detection_accuracy_3_5x5 <- LFCN_3_5x5_LFCN_3_5x5_0_split_1
I1119 21:06:33.477628  8814 net.cpp:434] detection_accuracy_3_5x5 <- label_3_5x5_data_5_split_1
I1119 21:06:33.477633  8814 net.cpp:408] detection_accuracy_3_5x5 -> accuracy_3_5x5
I1119 21:06:33.477639  8814 net.cpp:408] detection_accuracy_3_5x5 -> boxiou_3_5x5
I1119 21:06:33.477679  8814 net.cpp:150] Setting up detection_accuracy_3_5x5
I1119 21:06:33.477685  8814 net.cpp:157] Top shape: 1 1 1 2 (2)
I1119 21:06:33.477690  8814 net.cpp:157] Top shape: 1 1 1 1 (1)
I1119 21:06:33.477694  8814 net.cpp:165] Memory required for data: 3118452584
I1119 21:06:33.477696  8814 layer_factory.hpp:77] Creating layer LFCN_3_7x7
I1119 21:06:33.477705  8814 net.cpp:100] Creating Layer LFCN_3_7x7
I1119 21:06:33.477707  8814 net.cpp:434] LFCN_3_7x7 <- conv6_1_relu6_1_0_split_1
I1119 21:06:33.477715  8814 net.cpp:408] LFCN_3_7x7 -> LFCN_3_7x7
I1119 21:06:33.484553  8814 net.cpp:150] Setting up LFCN_3_7x7
I1119 21:06:33.484566  8814 net.cpp:157] Top shape: 2 9 24 24 (10368)
I1119 21:06:33.484571  8814 net.cpp:165] Memory required for data: 3118494056
I1119 21:06:33.484578  8814 layer_factory.hpp:77] Creating layer LFCN_3_7x7_LFCN_3_7x7_0_split
I1119 21:06:33.484583  8814 net.cpp:100] Creating Layer LFCN_3_7x7_LFCN_3_7x7_0_split
I1119 21:06:33.484587  8814 net.cpp:434] LFCN_3_7x7_LFCN_3_7x7_0_split <- LFCN_3_7x7
I1119 21:06:33.484593  8814 net.cpp:408] LFCN_3_7x7_LFCN_3_7x7_0_split -> LFCN_3_7x7_LFCN_3_7x7_0_split_0
I1119 21:06:33.484601  8814 net.cpp:408] LFCN_3_7x7_LFCN_3_7x7_0_split -> LFCN_3_7x7_LFCN_3_7x7_0_split_1
I1119 21:06:33.484638  8814 net.cpp:150] Setting up LFCN_3_7x7_LFCN_3_7x7_0_split
I1119 21:06:33.484644  8814 net.cpp:157] Top shape: 2 9 24 24 (10368)
I1119 21:06:33.484648  8814 net.cpp:157] Top shape: 2 9 24 24 (10368)
I1119 21:06:33.484652  8814 net.cpp:165] Memory required for data: 3118577000
I1119 21:06:33.484654  8814 layer_factory.hpp:77] Creating layer detection_loss_3_7x7
I1119 21:06:33.484661  8814 net.cpp:100] Creating Layer detection_loss_3_7x7
I1119 21:06:33.484664  8814 net.cpp:434] detection_loss_3_7x7 <- LFCN_3_7x7_LFCN_3_7x7_0_split_0
I1119 21:06:33.484669  8814 net.cpp:434] detection_loss_3_7x7 <- label_3_7x7_data_6_split_0
I1119 21:06:33.484673  8814 net.cpp:408] detection_loss_3_7x7 -> loss_3_7x7
I1119 21:06:33.484680  8814 layer_factory.hpp:77] Creating layer detection_loss_3_7x7
I1119 21:06:33.485375  8814 net.cpp:150] Setting up detection_loss_3_7x7
I1119 21:06:33.485388  8814 net.cpp:157] Top shape: 1 1 1 2 (2)
I1119 21:06:33.485391  8814 net.cpp:160]     with loss weight 1
I1119 21:06:33.485396  8814 net.cpp:165] Memory required for data: 3118577008
I1119 21:06:33.485399  8814 layer_factory.hpp:77] Creating layer detection_accuracy_3_7x7
I1119 21:06:33.485406  8814 net.cpp:100] Creating Layer detection_accuracy_3_7x7
I1119 21:06:33.485410  8814 net.cpp:434] detection_accuracy_3_7x7 <- LFCN_3_7x7_LFCN_3_7x7_0_split_1
I1119 21:06:33.485415  8814 net.cpp:434] detection_accuracy_3_7x7 <- label_3_7x7_data_6_split_1
I1119 21:06:33.485420  8814 net.cpp:408] detection_accuracy_3_7x7 -> accuracy_3_7x7
I1119 21:06:33.485427  8814 net.cpp:408] detection_accuracy_3_7x7 -> boxiou_3_7x7
I1119 21:06:33.485464  8814 net.cpp:150] Setting up detection_accuracy_3_7x7
I1119 21:06:33.485471  8814 net.cpp:157] Top shape: 1 1 1 2 (2)
I1119 21:06:33.485474  8814 net.cpp:157] Top shape: 1 1 1 1 (1)
I1119 21:06:33.485477  8814 net.cpp:165] Memory required for data: 3118577020
I1119 21:06:33.485481  8814 layer_factory.hpp:77] Creating layer pool6
I1119 21:06:33.485487  8814 net.cpp:100] Creating Layer pool6
I1119 21:06:33.485491  8814 net.cpp:434] pool6 <- conv6_1_relu6_1_0_split_2
I1119 21:06:33.485496  8814 net.cpp:408] pool6 -> pool6
I1119 21:06:33.485533  8814 net.cpp:150] Setting up pool6
I1119 21:06:33.485539  8814 net.cpp:157] Top shape: 2 512 12 12 (147456)
I1119 21:06:33.485543  8814 net.cpp:165] Memory required for data: 3119166844
I1119 21:06:33.485545  8814 layer_factory.hpp:77] Creating layer LFCN_4_5x5
I1119 21:06:33.485553  8814 net.cpp:100] Creating Layer LFCN_4_5x5
I1119 21:06:33.485558  8814 net.cpp:434] LFCN_4_5x5 <- pool6
I1119 21:06:33.485563  8814 net.cpp:408] LFCN_4_5x5 -> LFCN_4_5x5
I1119 21:06:33.489217  8814 net.cpp:150] Setting up LFCN_4_5x5
I1119 21:06:33.489229  8814 net.cpp:157] Top shape: 2 9 12 12 (2592)
I1119 21:06:33.489233  8814 net.cpp:165] Memory required for data: 3119177212
I1119 21:06:33.489238  8814 layer_factory.hpp:77] Creating layer LFCN_4_5x5_LFCN_4_5x5_0_split
I1119 21:06:33.489245  8814 net.cpp:100] Creating Layer LFCN_4_5x5_LFCN_4_5x5_0_split
I1119 21:06:33.489248  8814 net.cpp:434] LFCN_4_5x5_LFCN_4_5x5_0_split <- LFCN_4_5x5
I1119 21:06:33.489254  8814 net.cpp:408] LFCN_4_5x5_LFCN_4_5x5_0_split -> LFCN_4_5x5_LFCN_4_5x5_0_split_0
I1119 21:06:33.489260  8814 net.cpp:408] LFCN_4_5x5_LFCN_4_5x5_0_split -> LFCN_4_5x5_LFCN_4_5x5_0_split_1
I1119 21:06:33.489300  8814 net.cpp:150] Setting up LFCN_4_5x5_LFCN_4_5x5_0_split
I1119 21:06:33.489306  8814 net.cpp:157] Top shape: 2 9 12 12 (2592)
I1119 21:06:33.489310  8814 net.cpp:157] Top shape: 2 9 12 12 (2592)
I1119 21:06:33.489313  8814 net.cpp:165] Memory required for data: 3119197948
I1119 21:06:33.489316  8814 layer_factory.hpp:77] Creating layer detection_loss_4_5x5
I1119 21:06:33.489321  8814 net.cpp:100] Creating Layer detection_loss_4_5x5
I1119 21:06:33.489325  8814 net.cpp:434] detection_loss_4_5x5 <- LFCN_4_5x5_LFCN_4_5x5_0_split_0
I1119 21:06:33.489329  8814 net.cpp:434] detection_loss_4_5x5 <- label_4_5x5_data_7_split_0
I1119 21:06:33.489334  8814 net.cpp:408] detection_loss_4_5x5 -> loss_4_5x5
I1119 21:06:33.489341  8814 layer_factory.hpp:77] Creating layer detection_loss_4_5x5
I1119 21:06:33.489665  8814 net.cpp:150] Setting up detection_loss_4_5x5
I1119 21:06:33.489673  8814 net.cpp:157] Top shape: 1 1 1 2 (2)
I1119 21:06:33.489676  8814 net.cpp:160]     with loss weight 1
I1119 21:06:33.489682  8814 net.cpp:165] Memory required for data: 3119197956
I1119 21:06:33.489686  8814 layer_factory.hpp:77] Creating layer detection_accuracy_4_5x5
I1119 21:06:33.489692  8814 net.cpp:100] Creating Layer detection_accuracy_4_5x5
I1119 21:06:33.489696  8814 net.cpp:434] detection_accuracy_4_5x5 <- LFCN_4_5x5_LFCN_4_5x5_0_split_1
I1119 21:06:33.489701  8814 net.cpp:434] detection_accuracy_4_5x5 <- label_4_5x5_data_7_split_1
I1119 21:06:33.489706  8814 net.cpp:408] detection_accuracy_4_5x5 -> accuracy_4_5x5
I1119 21:06:33.489711  8814 net.cpp:408] detection_accuracy_4_5x5 -> boxiou_4_5x5
I1119 21:06:33.489748  8814 net.cpp:150] Setting up detection_accuracy_4_5x5
I1119 21:06:33.489754  8814 net.cpp:157] Top shape: 1 1 1 2 (2)
I1119 21:06:33.489758  8814 net.cpp:157] Top shape: 1 1 1 1 (1)
I1119 21:06:33.489761  8814 net.cpp:165] Memory required for data: 3119197968
I1119 21:06:33.489765  8814 net.cpp:228] detection_accuracy_4_5x5 does not need backward computation.
I1119 21:06:33.489768  8814 net.cpp:226] detection_loss_4_5x5 needs backward computation.
I1119 21:06:33.489773  8814 net.cpp:226] LFCN_4_5x5_LFCN_4_5x5_0_split needs backward computation.
I1119 21:06:33.489775  8814 net.cpp:226] LFCN_4_5x5 needs backward computation.
…
