…
    downsample_rate: 32
    downsample_rate: 32
    downsample_rate: 64
    coord_num: 4
    field_h: 46
    field_h: 84
    field_h: 128
    field_h: 190
    field_h: 266
    field_h: 366
    field_h: 582
    field_w: 52
    field_w: 94
    field_w: 143
    field_w: 205
    field_w: 282
    field_w: 374
    field_w: 539
    fg_threshold: 0.5
    resize_width: 1344
    resize_height: 768
    crop_width: 768
    crop_height: 768
    do_multiple_scale: true
    min_scale: 46
    max_scale: 582
    min_gt_height: 25
    shuffle: true
    output_gt_boxes: true
  }
}
layer {
  name: "slice"
  type: "Slice"
  bottom: "data"
  top: "data123"
  top: "ch4"
  slice_param {
    slice_point: 3
    axis: 1
  }
}
layer {
  name: "conv1_1"
  type: "Convolution"
  bottom: "data123"
  top: "conv1_1"
  param {
    lr_mult: 0
    decay_mult: 0
  }
  param {
    lr_mult: 0
    decay_mult: 0
  }
  convolution_param {
    num_output: 64
    pad: 1
    kernel_size: 3
  }
}
layer {
  name: "relu1_1"
  type: "ReLU"
  bottom: "conv1_1"
  top: "conv1_1"
}
layer {
  name: "conv1_2"
  type: "Convolution"
  bottom: "conv1_1"
  top: "conv1_2"
  param {
    lr_mult: 0
    decay_mult: 0
  }
  param {
    lr_mult: 0
    decay_mult: 0
  }
  convolution_param {
    num_output: 64
    pad: 1
    kernel_size: 3
  }
}
layer {
  name: "relu1_2"
  type: "ReLU"
  bottom: "conv1_2"
  top: "conv1_2"
}
layer {
  name: "pool1"
  type: "Pooling"
  bottom: "conv1_2"
  top: "pool1"
  pooling_param {
    pool: MAX
    kernel_size: 2
    stride: 2
  }
}
layer {
  name: "conv2_1"
  type: "Convolution"
  bottom: "pool1"
  top: "conv2_1"
  param {
    lr_mult: 0
    decay_mult: 0
  }
  param {
    lr_mult: 0
    decay_mult: 0
  }
  convolution_param {
    num_output: 128
    pad: 1
    kernel_size: 3
  }
}
layer {
  name: "relu2_1"
  type: "ReLU"
  bottom: "conv2_1"
  top: "conv2_1"
}
layer {
  name: "conv2_2"
  type: "Convolution"
  bottom: "conv2_1"
  top: "conv2_2"
  param {
    lr_mult: 0
    decay_mult: 0
  }
  param {
    lr_mult: 0
    decay_mult: 0
  }
  convolution_param {
    num_output: 128
    pad: 1
    kernel_size: 3
  }
}
layer {
  name: "relu2_2"
  type: "ReLU"
  bottom: "conv2_2"
  top: "conv2_2"
}
layer {
  name: "pool2"
  type: "Pooling"
  bottom: "conv2_2"
  top: "pool2"
  pooling_param {
    pool: MAX
    kernel_size: 2
    stride: 2
  }
}
layer {
  name: "conv3_1"
  type: "Convolution"
  bottom: "pool2"
  top: "conv3_1"
  convolution_param {
    num_output: 256
    pad: 1
    kernel_size: 3
  }
}
layer {
  name: "relu3_1"
  type: "ReLU"
  bottom: "conv3_1"
  top: "conv3_1"
}
layer {
  name: "conv3_2"
  type: "Convolution"
  bottom: "conv3_1"
  top: "conv3_2"
  convolution_param {
    num_output: 256
    pad: 1
    kernel_size: 3
  }
}
layer {
  name: "relu3_2"
  type: "ReLU"
  bottom: "conv3_2"
  top: "conv3_2"
}
layer {
  name: "conv3_3"
  type: "Convolution"
  bottom: "conv3_2"
  top: "conv3_3"
  convolution_param {
    num_output: 256
    pad: 1
    kernel_size: 3
  }
}
layer {
  name: "relu3_3"
  type: "ReLU"
  bottom: "conv3_3"
  top: "conv3_3"
}
layer {
  name: "pool3"
  type: "Pooling"
  bottom: "conv3_3"
  top: "pool3"
  pooling_param {
    pool: MAX
    kernel_size: 2
    stride: 2
  }
}
layer {
  name: "conv4_1"
  type: "Convolution"
  bottom: "pool3"
  top: "conv4_1"
  convolution_param {
    num_output: 512
    pad: 1
    kernel_size: 3
  }
}
layer {
  name: "relu4_1"
  type: "ReLU"
  bottom: "conv4_1"
  top: "conv4_1"
}
layer {
  name: "conv4_2"
  type: "Convolution"
  bottom: "conv4_1"
  top: "conv4_2"
  convolution_param {
    num_output: 512
    pad: 1
    kernel_size: 3
  }
}
layer {
  name: "relu4_2"
  type: "ReLU"
  bottom: "conv4_2"
  top: "conv4_2"
}
layer {
  name: "conv4_3"
  type: "Convolution"
  bottom: "conv4_2"
  top: "conv4_3"
  convolution_param {
    num_output: 512
    pad: 1
    kernel_size: 3
  }
}
layer {
  name: "relu4_3"
  type: "ReLU"
  bottom: "conv4_3"
  top: "conv4_3"
}
layer {
  name: "buffer"
  type: "Convolution"
  bottom: "conv4_3"
  top: "buffer"
  param {
    lr_mult: 1
    decay_mult: 1
  }
  param {
    lr_mult: 2
    decay_mult: 0
  }
  propagate_down: false
  convolution_param {
    num_output: 512
    pad: 1
    kernel_size: 3
    weight_filler {
      type: "gaussian"
      std: 0.01
    }
    bias_filler {
      type: "constant"
    }
  }
}
layer {
  name: "relu_buffer"
  type: "ReLU"
  bottom: "buffer"
  top: "buffer"
}
layer {
  name: "attention"
  type: "Convolution"
  bottom: "buffer"
  top: "attention"
  param {
    lr_mult: 1
    decay_mult: 1
  }
  param {
    lr_mult: 2
    decay_mult: 0
  }
  convolution_param {
    num_output: 3
    pad: 1
    kernel_size: 3
  }
}
layer {
  name: "ch4_pool"
  type: "Pooling"
  bottom: "ch4"
  top: "ch4_pool"
  pooling_param {
    pool: MAX
    kernel_size: 8
    stride: 8
  }
}
layer {
  name: "loss_attention"
  type: "SoftmaxWithLoss"
  bottom: "attention"
  bottom: "ch4_pool"
  top: "loss_attention"
  loss_weight: 1
  propagate_down: true
  propagate_down: false
}
layer {
  name: "loss1_conv1"
  type: "Convolution"
  bottom: "conv4_3"
  top: "loss1_conv1"
  param {
    lr_mult: 1
    decay_mult: 1
  }
  param {
    lr_mult: 2
    decay_mult: 0
  }
  convolution_param {
    num_output: 512
    pad: 1
    kernel_size: 3
    weight_filler {
      type: "gaussian"
      std: 0.01
    }
    bias_filler {
      type: "constant"
    }
  }
}
layer {
  name: "loss_relu1"
  type: "ReLU"
  bottom: "loss1_conv1"
  top: "loss1_conv1"
}
layer {
  name: "LFCN_1_5x5"
  type: "Convolution"
  bottom: "loss1_conv1"
  top: "LFCN_1_5x5"
  param {
    lr_mult: 1
    decay_mult: 1
  }
  param {
    lr_mult: 2
    decay_mult: 0
  }
  convolution_param {
    num_output: 9
    pad: 2
    kernel_size: 5
    weight_filler {
      type: "gaussian"
      std: 0.001
    }
    bias_filler {
      type: "constant"
    }
  }
}
layer {
  name: "detection_loss_1_5x5"
  type: "DetectionLoss"
  bottom: "LFCN_1_5x5"
  bottom: "label_1_5x5"
  top: "loss_1_5x5"
  loss_weight: 0.9
  detection_loss_param {
    cls_num: 5
    coord_num: 4
    lambda: 1
    field_h: 46
    field_w: 52
    downsample_rate: 8
    bb_smooth: true
    field_whr: 2
    field_xyr: 2
    bg_threshold: 0.2
    bg_multiple: 2
    sample_mode: "bootstrap"
    pos_neg_weighted: true
  }
}
layer {
  name: "detection_accuracy_1_5x5"
  type: "DetectionAccuracy"
  bottom: "LFCN_1_5x5"
  bottom: "label_1_5x5"
  top: "accuracy_1_5x5"
  top: "boxiou_1_5x5"
  detection_accuracy_param {
    cls_num: 5
    coord_num: 4
    field_h: 46
    field_w: 52
    downsample_rate: 8
    field_whr: 2
    field_xyr: 2
  }
}
layer {
  name: "LFCN_1_7x7"
  type: "Convolution"
  bottom: "loss1_conv1"
  top: "LFCN_1_7x7"
  param {
    lr_mult: 1
    decay_mult: 1
  }
  param {
    lr_mult: 2
    decay_mult: 0
  }
  convolution_param {
    num_output: 9
    pad: 3
    kernel_size: 7
    weight_filler {
      type: "gaussian"
      std: 0.001
    }
    bias_filler {
      type: "constant"
    }
  }
}
layer {
  name: "detection_loss_1_7x7"
  type: "DetectionLoss"
  bottom: "LFCN_1_7x7"
  bottom: "label_1_7x7"
  top: "loss_1_7x7"
  loss_weight: 0.9
  detection_loss_param {
    cls_num: 5
    coord_num: 4
    lambda: 1
    field_h: 84
    field_w: 94
    downsample_rate: 8
    bb_smooth: true
    field_whr: 2
    field_xyr: 2
    bg_threshold: 0.2
    bg_multiple: 2
    sample_mode: "bootstrap"
    pos_neg_weighted: true
  }
}
layer {
  name: "detection_accuracy_1_7x7"
  type: "DetectionAccuracy"
  bottom: "LFCN_1_7x7"
  bottom: "label_1_7x7"
  top: "accuracy_1_7x7"
  top: "boxiou_1_7x7"
  detection_accuracy_param {
    cls_num: 5
    coord_num: 4
    field_h: 84
    field_w: 94
    downsample_rate: 8
    field_whr: 2
    field_xyr: 2
  }
}
layer {
  name: "pool4"
  type: "Pooling"
  bottom: "conv4_3"
  top: "pool4"
  pooling_param {
    pool: MAX
    kernel_size: 2
    stride: 2
  }
}
layer {
  name: "conv5_1"
  type: "Convolution"
  bottom: "pool4"
  top: "conv5_1"
  convolution_param {
    num_output: 512
    pad: 1
    kernel_size: 3
  }
}
layer {
  name: "relu5_1"
  type: "ReLU"
  bottom: "conv5_1"
  top: "conv5_1"
}
layer {
  name: "conv5_2"
  type: "Convolution"
  bottom: "conv5_1"
  top: "conv5_2"
  convolution_param {
    num_output: 512
    pad: 1
    kernel_size: 3
  }
}
layer {
  name: "relu5_2"
  type: "ReLU"
  bottom: "conv5_2"
  top: "conv5_2"
}
layer {
  name: "conv5_3"
  type: "Convolution"
  bottom: "conv5_2"
  top: "conv5_3"
  convolution_param {
    num_output: 512
    pad: 1
    kernel_size: 3
  }
}
layer {
  name: "relu5_3"
  type: "ReLU"
  bottom: "conv5_3"
  top: "conv5_3"
}
layer {
  name: "LFCN_2_5x5"
  type: "Convolution"
  bottom: "conv5_3"
  top: "LFCN_2_5x5"
  param {
    lr_mult: 1
    decay_mult: 1
  }
  param {
    lr_mult: 2
    decay_mult: 0
  }
  convolution_param {
    num_output: 9
    pad: 2
    kernel_size: 5
    weight_filler {
      type: "gaussian"
      std: 0.001
    }
    bias_filler {
      type: "constant"
    }
  }
}
layer {
  name: "detection_loss_2_5x5"
  type: "DetectionLoss"
  bottom: "LFCN_2_5x5"
  bottom: "label_2_5x5"
  top: "loss_2_5x5"
  detection_loss_param {
    cls_num: 5
    coord_num: 4
    lambda: 1
    field_h: 128
    field_w: 143
    downsample_rate: 16
    bb_smooth: true
    field_whr: 2
    field_xyr: 2
    bg_threshold: 0.2
    bg_multiple: 2
    sample_mode: "bootstrap"
    pos_neg_weighted: true
  }
}
layer {
  name: "detection_accuracy_2_5x5"
  type: "DetectionAccuracy"
  bottom: "LFCN_2_5x5"
  bottom: "label_2_5x5"
  top: "accuracy_2_5x5"
  top: "boxiou_2_5x5"
  detection_accuracy_param {
    cls_num: 5
    coord_num: 4
    field_h: 128
    field_w: 143
    downsample_rate: 16
    field_whr: 2
    field_xyr: 2
  }
}
layer {
  name: "LFCN_2_7x7"
  type: "Convolution"
  bottom: "conv5_3"
  top: "LFCN_2_7x7"
  param {
    lr_mult: 1
    decay_mult: 1
  }
  param {
    lr_mult: 2
    decay_mult: 0
  }
  convolution_param {
    num_output: 9
    pad: 3
    kernel_size: 7
    weight_filler {
      type: "gaussian"
      std: 0.001
    }
    bias_filler {
      type: "constant"
    }
  }
}
layer {
  name: "detection_loss_2_7x7"
  type: "DetectionLoss"
  bottom: "LFCN_2_7x7"
  bottom: "label_2_7x7"
  top: "loss_2_7x7"
  detection_loss_param {
    cls_num: 5
    coord_num: 4
    lambda: 1
    field_h: 190
    field_w: 205
    downsample_rate: 16
    bb_smooth: true
    field_whr: 2
    field_xyr: 2
    bg_threshold: 0.2
    bg_multiple: 2
    sample_mode: "bootstrap"
    pos_neg_weighted: true
  }
}
layer {
  name: "detection_accuracy_2_7x7"
  type: "DetectionAccuracy"
  bottom: "LFCN_2_7x7"
  bottom: "label_2_7x7"
  top: "accuracy_2_7x7"
  top: "boxiou_2_7x7"
  detection_accuracy_param {
    cls_num: 5
    coord_num: 4
    field_h: 190
    field_w: 205
    downsample_rate: 16
    field_whr: 2
    field_xyr: 2
  }
}
layer {
  name: "pool5"
  type: "Pooling"
  bottom: "conv5_3"
  top: "pool5"
  pooling_param {
    pool: MAX
    kernel_size: 2
    stride: 2
  }
}
layer {
  name: "conv6_1"
  type: "Convolution"
  bottom: "pool5"
  top: "conv6_1"
  param {
    lr_mult: 1
    decay_mult: 1
  }
  param {
    lr_mult: 2
    decay_mult: 0
  }
  convolution_param {
    num_output: 512
    pad: 1
    kernel_size: 3
    weight_filler {
      type: "gaussian"
      std: 0.01
    }
    bias_filler {
      type: "constant"
    }
  }
}
layer {
  name: "relu6_1"
  type: "ReLU"
  bottom: "conv6_1"
  top: "conv6_1"
}
layer {
  name: "LFCN_3_5x5"
  type: "Convolution"
  bottom: "conv6_1"
  top: "LFCN_3_5x5"
  param {
    lr_mult: 1
    decay_mult: 1
  }
  param {
    lr_mult: 2
    decay_mult: 0
  }
  convolution_param {
    num_output: 9
    pad: 2
    kernel_size: 5
    weight_filler {
      type: "gaussian"
      std: 0.001
    }
    bias_filler {
      type: "constant"
    }
  }
}
layer {
  name: "detection_loss_3_5x5"
  type: "DetectionLoss"
  bottom: "LFCN_3_5x5"
  bottom: "label_3_5x5"
  top: "loss_3_5x5"
  detection_loss_param {
    cls_num: 5
    coord_num: 4
    lambda: 1
    field_h: 266
    field_w: 282
    downsample_rate: 32
    bb_smooth: true
    field_whr: 2
    field_xyr: 2
    bg_threshold: 0.2
    bg_multiple: 2
    sample_mode: "bootstrap"
    pos_neg_weighted: true
  }
}
layer {
  name: "detection_accuracy_3_5x5"
  type: "DetectionAccuracy"
  bottom: "LFCN_3_5x5"
  bottom: "label_3_5x5"
  top: "accuracy_3_5x5"
  top: "boxiou_3_5x5"
  detection_accuracy_param {
    cls_num: 5
    coord_num: 4
    field_h: 266
    field_w: 282
    downsample_rate: 32
    field_whr: 2
    field_xyr: 2
  }
}
layer {
  name: "LFCN_3_7x7"
  type: "Convolution"
  bottom: "conv6_1"
  top: "LFCN_3_7x7"
  param {
    lr_mult: 1
    decay_mult: 1
  }
  param {
    lr_mult: 2
    decay_mult: 0
  }
  convolution_param {
    num_output: 9
    pad: 3
    kernel_size: 7
    weight_filler {
      type: "gaussian"
      std: 0.001
    }
    bias_filler {
      type: "constant"
    }
  }
}
layer {
  name: "detection_loss_3_7x7"
  type: "DetectionLoss"
  bottom: "LFCN_3_7x7"
  bottom: "label_3_7x7"
  top: "loss_3_7x7"
  detection_loss_param {
    cls_num: 5
    coord_num: 4
    lambda: 1
    field_h: 366
    field_w: 374
    downsample_rate: 32
    bb_smooth: true
    field_whr: 2
    field_xyr: 2
    bg_threshold: 0.2
    bg_multiple: 2
    sample_mode: "bootstrap"
    pos_neg_weighted: true
  }
}
layer {
  name: "detection_accuracy_3_7x7"
  type: "DetectionAccuracy"
  bottom: "LFCN_3_7x7"
  bottom: "label_3_7x7"
  top: "accuracy_3_7x7"
  top: "boxiou_3_7x7"
  detection_accuracy_param {
    cls_num: 5
    coord_num: 4
    field_h: 366
    field_w: 374
    downsample_rate: 32
    field_whr: 2
    field_xyr: 2
  }
}
layer {
  name: "pool6"
  type: "Pooling"
  bottom: "conv6_1"
  top: "pool6"
  pooling_param {
    pool: MAX
    kernel_size: 2
    stride: 2
  }
}
layer {
  name: "LFCN_4_5x5"
  type: "Convolution"
  bottom: "pool6"
  top: "LFCN_4_5x5"
  param {
    lr_mult: 1
    decay_mult: 1
  }
  param {
    lr_mult: 2
    decay_mult: 0
  }
  convolution_param {
    num_output: 9
    pad: 2
    kernel_size: 5
    weight_filler {
      type: "gaussian"
      std: 0.001
    }
    bias_filler {
      type: "constant"
    }
  }
}
layer {
  name: "detection_loss_4_5x5"
  type: "DetectionLoss"
  bottom: "LFCN_4_5x5"
  bottom: "label_4_5x5"
  top: "loss_4_5x5"
  detection_loss_param {
    cls_num: 5
    coord_num: 4
    lambda: 1
    field_h: 582
    field_w: 539
    downsample_rate: 64
    bb_smooth: true
    field_whr: 2
    field_xyr: 2
    bg_threshold: 0.2
    bg_multiple: 2
    sample_mode: "bootstrap"
    pos_neg_weighted: true
  }
}
layer {
  name: "detection_accuracy_4_5x5"
  type: "DetectionAccuracy"
  bottom: "LFCN_4_5x5"
  bottom: "label_4_5x5"
  top: "accuracy_4_5x5"
  top: "boxiou_4_5x5"
  detection_accuracy_param {
    cls_num: 5
    coord_num: 4
    field_h: 582
    field_w: 539
    downsample_rate: 64
    field_whr: 2
    field_xyr: 2
  }
}
layer {
  name: "proposals"
  type: "BoxOutput"
  bottom: "LFCN_1_5x5"
  bottom: "LFCN_1_7x7"
  bottom: "LFCN_2_5x5"
  bottom: "LFCN_2_7x7"
  bottom: "LFCN_3_5x5"
  bottom: "LFCN_3_7x7"
  bottom: "LFCN_4_5x5"
  top: "proposals"
  propagate_down: false
  propagate_down: false
  propagate_down: false
  propagate_down: false
  propagate_down: false
  propagate_down: false
  propagate_down: false
  box_output_param {
    fg_thr: -8
    iou_thr: 0.65
    nms_type: "IOU"
    field_h: 46
    field_h: 84
    field_h: 128
    field_h: 190
    field_h: 266
    field_h: 366
    field_h: 582
    field_w: 52
    field_w: 94
    field_w: 143
    field_w: 205
    field_w: 282
    field_w: 374
    field_w: 539
    downsample_rate: 8
    downsample_rate: 8
    downsample_rate: 16
    downsample_rate: 16
    downsample_rate: 32
    downsample_rate: 32
    downsample_rate: 64
    field_whr: 2
    field_xyr: 2
    max_nms_num: 3000
  }
}
layer {
  name: "proposal_info"
  type: "ProposalTarget"
  bottom: "proposals"
  bottom: "gt_boxes"
  top: "rois"
  top: "proposal_labels"
  top: "proposal_targets"
  top: "box_inside_weights"
  top: "box_outside_weights"
  top: "match_gt_boxes"
  include {
    phase: TRAIN
  }
  propagate_down: false
  propagate_down: false
  proposal_target_param {
    cls_num: 5
    batch_size: 256
    fg_fraction: 0.25
    num_img_per_batch: 4
    fg_thr: 0.5
    bg_thr_hg: 0.49
    bg_thr_lw: 0.1
    img_width: 768
    img_height: 576
  }
  bbox_reg_param {
    bbox_mean: 0
    bbox_mean: 0
    bbox_mean: 0
    bbox_mean: 0
    bbox_std: 0.1
    bbox_std: 0.1
    bbox_std: 0.2
    bbox_std: 0.2
  }
}
layer {
  name: "softmax"
  type: "Softmax"
  bottom: "attention"
  top: "softmax_attention"
}
layer {
  name: "slice1"
  type: "Slice"
  bottom: "softmax_attention"
  top: "bg"
  top: "attention1"
  slice_param {
    slice_point: 1
    axis: 1
  }
}
layer {
  name: "silence"
  type: "Silence"
  bottom: "bg"
}
layer {
  name: "conv4_3_new"
  type: "Concat"
  bottom: "conv4_3"
  bottom: "attention1"
  top: "conv4_3_new"
}
layer {
  name: "conv4_3_2x"
  type: "Deconvolution"
  bottom: "conv4_3_new"
  top: "conv4_3_2x"
  param {
    lr_mult: 0
    decay_mult: 0
  }
  convolution_param {
    num_output: 514
    bias_term: false
    pad: 1
    kernel_size: 4
    group: 514
    stride: 2
    weight_filler {
      type: "bilinear"
    }
  }
}
layer {
  name: "roi_pool_org"
  type: "ROIPooling"
  bottom: "conv4_3_2x"
  bottom: "rois"
  top: "roi_pool_org"
  roi_pooling_param {
    pooled_h: 7
    pooled_w: 7
    spatial_scale: 0.25
    pad_ratio: 0
  }
}
layer {
  name: "roi_pool_ctx"
  type: "ROIPooling"
  bottom: "conv4_3_2x"
  bottom: "rois"
  top: "roi_pool_ctx"
  roi_pooling_param {
    pooled_h: 7
    pooled_w: 7
    spatial_scale: 0.25
    pad_ratio: 0.25
  }
}
layer {
  name: "roi_pool"
  type: "Concat"
  bottom: "roi_pool_org"
  bottom: "roi_pool_ctx"
  top: "roi_pool"
}
layer {
  name: "roi_c1"
  type: "Convolution"
  bottom: "roi_pool"
  top: "roi_c1"
  param {
    lr_mult: 1
    decay_mult: 1
  }
  param {
    lr_mult: 2
    decay_mult: 0
  }
  convolution_param {
    num_output: 512
    kernel_size: 3
    weight_filler {
      type: "gaussian"
      std: 0.01
    }
    bias_filler {
      type: "constant"
    }
  }
}
layer {
  name: "roi_c1_relu"
  type: "ReLU"
  bottom: "roi_c1"
  top: "roi_c1"
}
layer {
  name: "fc6"
  type: "InnerProduct"
  bottom: "roi_c1"
  top: "fc6"
  param {
    lr_mult: 1
  }
  param {
    lr_mult: 2
  }
  inner_product_param {
    num_output: 4096
    weight_filler {
      type: "gaussian"
      std: 0.001
    }
    bias_filler {
      type: "constant"
      value: 0
    }
  }
}
layer {
  name: "relu6"
  type: "ReLU"
  bottom: "fc6"
  top: "fc6"
}
layer {
  name: "drop6"
  type: "Dropout"
  bottom: "fc6"
  top: "fc6"
  dropout_param {
    dropout_ratio: 0.5
  }
}
layer {
  name: "cls_pred"
  type: "InnerProduct"
  bottom: "fc6"
  top: "cls_pred"
  param {
    lr_mult: 1
  }
  param {
    lr_mult: 2
  }
  inner_product_param {
    num_output: 5
    weight_filler {
      type: "gaussian"
      std: 0.01
    }
    bias_filler {
      type: "constant"
      value: 0
    }
  }
}
layer {
  name: "bbox_pred"
  type: "InnerProduct"
  bottom: "fc6"
  top: "bbox_pred"
  param {
    lr_mult: 1
  }
  param {
    lr_mult: 2
  }
  inner_product_param {
    num_output: 20
    weight_filler {
      type: "gaussian"
      std: 0.001
    }
    bias_filler {
      type: "constant"
      value: 0
    }
  }
}
layer {
  name: "loss_cls"
  type: "SoftmaxWithLoss"
  bottom: "cls_pred"
  bottom: "proposal_labels"
  top: "loss_cls"
  loss_weight: 1
  propagate_down: true
  propagate_down: false
}
layer {
  name: "cls_accuracy"
  type: "Accuracy"
  bottom: "cls_pred"
  bottom: "proposal_labels"
  top: "cls_accuracy"
}
layer {
  name: "loss_bbox"
  type: "SmoothL1Loss"
  bottom: "bbox_pred"
  bottom: "proposal_targets"
  bottom: "box_inside_weights"
  bottom: "box_outside_weights"
  top: "loss_bbox"
  loss_weight: 1
}
layer {
  name: "bbox_iou"
  type: "BboxAccuracy"
  bottom: "bbox_pred"
  bottom: "rois"
  bottom: "match_gt_boxes"
  top: "bbox_iou"
  top: "bbox_iou_pre"
  bbox_reg_param {
    bbox_mean: 0
    bbox_mean: 0
    bbox_mean: 0
    bbox_mean: 0
    bbox_std: 0.1
    bbox_std: 0.1
    bbox_std: 0.2
    bbox_std: 0.2
  }
}
I1119 23:06:43.303977 12775 layer_factory.hpp:77] Creating layer data
I1119 23:06:43.304011 12775 net.cpp:100] Creating Layer data
I1119 23:06:43.304018 12775 net.cpp:408] data -> data
…
I1119 23:06:43.327350 12775 image_gt_data_layer.cpp:235] output label size 2 : 3,6,48,48
I1119 23:06:43.327391 12775 image_gt_data_layer.cpp:235] output label size 3 : 3,6,48,48
I1119 23:06:43.327430 12775 image_gt_data_layer.cpp:235] output label size 4 : 3,6,24,24
I1119 23:06:43.327469 12775 image_gt_data_layer.cpp:235] output label size 5 : 3,6,24,24
I1119 23:06:43.327507 12775 image_gt_data_layer.cpp:235] output label size 6 : 3,6,12,12
I1119 23:06:43.327544 12775 image_gt_data_layer.cpp:250] output gt boxes size: 1,7,1,1
I1119 23:06:43.375509 12775 net.cpp:150] Setting up data
I1119 23:06:43.375543 12775 net.cpp:157] Top shape: 3 4 768 768 (7077888)
I1119 23:06:43.375550 12775 net.cpp:157] Top shape: 3 6 96 96 (165888)
I1119 23:06:43.375553 12775 net.cpp:157] Top shape: 3 6 96 96 (165888)
I1119 23:06:43.375556 12775 net.cpp:157] Top shape: 3 6 48 48 (41472)
I1119 23:06:43.375560 12775 net.cpp:157] Top shape: 3 6 48 48 (41472)
I1119 23:06:43.375563 12775 net.cpp:157] Top shape: 3 6 24 24 (10368)
I1119 23:06:43.375567 12775 net.cpp:157] Top shape: 3 6 24 24 (10368)
I1119 23:06:43.375571 12775 net.cpp:157] Top shape: 3 6 12 12 (2592)
I1119 23:06:43.375576 12775 net.cpp:157] Top shape: 1 7 1 1 (7)
I1119 23:06:43.375577 12775 net.cpp:165] Memory required for data: 30063772
I1119 23:06:43.375586 12775 layer_factory.hpp:77] Creating layer label_1_5x5_data_1_split
I1119 23:06:43.375603 12775 net.cpp:100] Creating Layer label_1_5x5_data_1_split
I1119 23:06:43.375608 12775 net.cpp:434] label_1_5x5_data_1_split <- label_1_5x5
I1119 23:06:43.375620 12775 net.cpp:408] label_1_5x5_data_1_split -> label_1_5x5_data_1_split_0
I1119 23:06:43.375627 12775 net.cpp:408] label_1_5x5_data_1_split -> label_1_5x5_data_1_split_1
I1119 23:06:43.375860 12775 net.cpp:150] Setting up label_1_5x5_data_1_split
I1119 23:06:43.375890 12775 net.cpp:157] Top shape: 3 6 96 96 (165888)
I1119 23:06:43.375898 12775 net.cpp:157] Top shape: 3 6 96 96 (165888)
I1119 23:06:43.375903 12775 net.cpp:165] Memory required for data: 31390876
I1119 23:06:43.375910 12775 layer_factory.hpp:77] Creating layer label_1_7x7_data_2_split
I1119 23:06:43.375926 12775 net.cpp:100] Creating Layer label_1_7x7_data_2_split
I1119 23:06:43.375932 12775 net.cpp:434] label_1_7x7_data_2_split <- label_1_7x7
I1119 23:06:43.375943 12775 net.cpp:408] label_1_7x7_data_2_split -> label_1_7x7_data_2_split_0
I1119 23:06:43.375955 12775 net.cpp:408] label_1_7x7_data_2_split -> label_1_7x7_data_2_split_1
I1119 23:06:43.375995 12775 net.cpp:150] Setting up label_1_7x7_data_2_split
I1119 23:06:43.376004 12775 net.cpp:157] Top shape: 3 6 96 96 (165888)
I1119 23:06:43.376011 12775 net.cpp:157] Top shape: 3 6 96 96 (165888)
I1119 23:06:43.376015 12775 net.cpp:165] Memory required for data: 32717980
I1119 23:06:43.376021 12775 layer_factory.hpp:77] Creating layer label_2_5x5_data_3_split
I1119 23:06:43.376027 12775 net.cpp:100] Creating Layer label_2_5x5_data_3_split
I1119 23:06:43.376034 12775 net.cpp:434] label_2_5x5_data_3_split <- label_2_5x5
I1119 23:06:43.376041 12775 net.cpp:408] label_2_5x5_data_3_split -> label_2_5x5_data_3_split_0
I1119 23:06:43.376049 12775 net.cpp:408] label_2_5x5_data_3_split -> label_2_5x5_data_3_split_1
I1119 23:06:43.376085 12775 net.cpp:150] Setting up label_2_5x5_data_3_split
I1119 23:06:43.376094 12775 net.cpp:157] Top shape: 3 6 48 48 (41472)
I1119 23:06:43.376101 12775 net.cpp:157] Top shape: 3 6 48 48 (41472)
I1119 23:06:43.376106 12775 net.cpp:165] Memory required for data: 33049756
I1119 23:06:43.376111 12775 layer_factory.hpp:77] Creating layer label_2_7x7_data_4_split
I1119 23:06:43.376118 12775 net.cpp:100] Creating Layer label_2_7x7_data_4_split
I1119 23:06:43.376123 12775 net.cpp:434] label_2_7x7_data_4_split <- label_2_7x7
I1119 23:06:43.376129 12775 net.cpp:408] label_2_7x7_data_4_split -> label_2_7x7_data_4_split_0
I1119 23:06:43.376137 12775 net.cpp:408] label_2_7x7_data_4_split -> label_2_7x7_data_4_split_1
I1119 23:06:43.376173 12775 net.cpp:150] Setting up label_2_7x7_data_4_split
I1119 23:06:43.376181 12775 net.cpp:157] Top shape: 3 6 48 48 (41472)
I1119 23:06:43.376189 12775 net.cpp:157] Top shape: 3 6 48 48 (41472)
I1119 23:06:43.376194 12775 net.cpp:165] Memory required for data: 33381532
I1119 23:06:43.376199 12775 layer_factory.hpp:77] Creating layer label_3_5x5_data_5_split
I1119 23:06:43.376209 12775 net.cpp:100] Creating Layer label_3_5x5_data_5_split
I1119 23:06:43.376215 12775 net.cpp:434] label_3_5x5_data_5_split <- label_3_5x5
I1119 23:06:43.376221 12775 net.cpp:408] label_3_5x5_data_5_split -> label_3_5x5_data_5_split_0
I1119 23:06:43.376230 12775 net.cpp:408] label_3_5x5_data_5_split -> label_3_5x5_data_5_split_1
I1119 23:06:43.376266 12775 net.cpp:150] Setting up label_3_5x5_data_5_split
I1119 23:06:43.376274 12775 net.cpp:157] Top shape: 3 6 24 24 (10368)
I1119 23:06:43.376281 12775 net.cpp:157] Top shape: 3 6 24 24 (10368)
I1119 23:06:43.376286 12775 net.cpp:165] Memory required for data: 33464476
I1119 23:06:43.376291 12775 layer_factory.hpp:77] Creating layer label_3_7x7_data_6_split
I1119 23:06:43.376296 12775 net.cpp:100] Creating Layer label_3_7x7_data_6_split
I1119 23:06:43.376302 12775 net.cpp:434] label_3_7x7_data_6_split <- label_3_7x7
I1119 23:06:43.376307 12775 net.cpp:408] label_3_7x7_data_6_split -> label_3_7x7_data_6_split_0
I1119 23:06:43.376314 12775 net.cpp:408] label_3_7x7_data_6_split -> label_3_7x7_data_6_split_1
I1119 23:06:43.376345 12775 net.cpp:150] Setting up label_3_7x7_data_6_split
I1119 23:06:43.376353 12775 net.cpp:157] Top shape: 3 6 24 24 (10368)
I1119 23:06:43.376358 12775 net.cpp:157] Top shape: 3 6 24 24 (10368)
I1119 23:06:43.376363 12775 net.cpp:165] Memory required for data: 33547420
I1119 23:06:43.376366 12775 layer_factory.hpp:77] Creating layer label_4_5x5_data_7_split
I1119 23:06:43.376371 12775 net.cpp:100] Creating Layer label_4_5x5_data_7_split
I1119 23:06:43.376375 12775 net.cpp:434] label_4_5x5_data_7_split <- label_4_5x5
I1119 23:06:43.376381 12775 net.cpp:408] label_4_5x5_data_7_split -> label_4_5x5_data_7_split_0
I1119 23:06:43.376387 12775 net.cpp:408] label_4_5x5_data_7_split -> label_4_5x5_data_7_split_1
I1119 23:06:43.376415 12775 net.cpp:150] Setting up label_4_5x5_data_7_split
I1119 23:06:43.376421 12775 net.cpp:157] Top shape: 3 6 12 12 (2592)
I1119 23:06:43.376427 12775 net.cpp:157] Top shape: 3 6 12 12 (2592)
I1119 23:06:43.376430 12775 net.cpp:165] Memory required for data: 33568156
I1119 23:06:43.376435 12775 layer_factory.hpp:77] Creating layer slice
I1119 23:06:43.376444 12775 net.cpp:100] Creating Layer slice
I1119 23:06:43.376449 12775 net.cpp:434] slice <- data
I1119 23:06:43.376454 12775 net.cpp:408] slice -> data123
I1119 23:06:43.376463 12775 net.cpp:408] slice -> ch4
I1119 23:06:43.376494 12775 net.cpp:150] Setting up slice
I1119 23:06:43.376502 12775 net.cpp:157] Top shape: 3 3 768 768 (5308416)
I1119 23:06:43.376507 12775 net.cpp:157] Top shape: 3 1 768 768 (1769472)
I1119 23:06:43.376510 12775 net.cpp:165] Memory required for data: 61879708
I1119 23:06:43.376513 12775 layer_factory.hpp:77] Creating layer conv1_1
I1119 23:06:43.376525 12775 net.cpp:100] Creating Layer conv1_1
I1119 23:06:43.376530 12775 net.cpp:434] conv1_1 <- data123
I1119 23:06:43.376538 12775 net.cpp:408] conv1_1 -> conv1_1
I1119 23:06:43.614512 12775 net.cpp:150] Setting up conv1_1
I1119 23:06:43.614547 12775 net.cpp:157] Top shape: 3 64 768 768 (113246208)
I1119 23:06:43.614553 12775 net.cpp:165] Memory required for data: 514864540
I1119 23:06:43.614574 12775 layer_factory.hpp:77] Creating layer relu1_1
I1119 23:06:43.614589 12775 net.cpp:100] Creating Layer relu1_1
I1119 23:06:43.614596 12775 net.cpp:434] relu1_1 <- conv1_1
I1119 23:06:43.614604 12775 net.cpp:395] relu1_1 -> conv1_1 (in-place)
I1119 23:06:43.614859 12775 net.cpp:150] Setting up relu1_1
I1119 23:06:43.614871 12775 net.cpp:157] Top shape: 3 64 768 768 (113246208)
I1119 23:06:43.614876 12775 net.cpp:165] Memory required for data: 967849372
I1119 23:06:43.614881 12775 layer_factory.hpp:77] Creating layer conv1_2
I1119 23:06:43.614893 12775 net.cpp:100] Creating Layer conv1_2
I1119 23:06:43.614900 12775 net.cpp:434] conv1_2 <- conv1_1
I1119 23:06:43.614908 12775 net.cpp:408] conv1_2 -> conv1_2
I1119 23:06:43.617846 12775 net.cpp:150] Setting up conv1_2
I1119 23:06:43.617882 12775 net.cpp:157] Top shape: 3 64 768 768 (113246208)
I1119 23:06:43.617887 12775 net.cpp:165] Memory required for data: 1420834204
I1119 23:06:43.617905 12775 layer_factory.hpp:77] Creating layer relu1_2
I1119 23:06:43.617919 12775 net.cpp:100] Creating Layer relu1_2
I1119 23:06:43.617926 12775 net.cpp:434] relu1_2 <- conv1_2
I1119 23:06:43.617934 12775 net.cpp:395] relu1_2 -> conv1_2 (in-place)
I1119 23:06:43.618182 12775 net.cpp:150] Setting up relu1_2
I1119 23:06:43.618193 12775 net.cpp:157] Top shape: 3 64 768 768 (113246208)
I1119 23:06:43.618198 12775 net.cpp:165] Memory required for data: 1873819036
I1119 23:06:43.618203 12775 layer_factory.hpp:77] Creating layer pool1
I1119 23:06:43.618212 12775 net.cpp:100] Creating Layer pool1
I1119 23:06:43.618216 12775 net.cpp:434] pool1 <- conv1_2
I1119 23:06:43.618223 12775 net.cpp:408] pool1 -> pool1
I1119 23:06:43.618300 12775 net.cpp:150] Setting up pool1
I1119 23:06:43.618309 12775 net.cpp:157] Top shape: 3 64 384 384 (28311552)
I1119 23:06:43.618314 12775 net.cpp:165] Memory required for data: 1987065244
I1119 23:06:43.618319 12775 layer_factory.hpp:77] Creating layer conv2_1
I1119 23:06:43.618330 12775 net.cpp:100] Creating Layer conv2_1
I1119 23:06:43.618335 12775 net.cpp:434] conv2_1 <- pool1
I1119 23:06:43.618343 12775 net.cpp:408] conv2_1 -> conv2_1
I1119 23:06:43.621062 12775 net.cpp:150] Setting up conv2_1
I1119 23:06:43.621084 12775 net.cpp:157] Top shape: 3 128 384 384 (56623104)
I1119 23:06:43.621089 12775 net.cpp:165] Memory required for data: 2213557660
I1119 23:06:43.621100 12775 layer_factory.hpp:77] Creating layer relu2_1
I1119 23:06:43.621107 12775 net.cpp:100] Creating Layer relu2_1
I1119 23:06:43.621112 12775 net.cpp:434] relu2_1 <- conv2_1
I1119 23:06:43.621119 12775 net.cpp:395] relu2_1 -> conv2_1 (in-place)
I1119 23:06:43.621299 12775 net.cpp:150] Setting up relu2_1
I1119 23:06:43.621311 12775 net.cpp:157] Top shape: 3 128 384 384 (56623104)
I1119 23:06:43.621315 12775 net.cpp:165] Memory required for data: 2440050076
I1119 23:06:43.621320 12775 layer_factory.hpp:77] Creating layer conv2_2
I1119 23:06:43.621333 12775 net.cpp:100] Creating Layer conv2_2
I1119 23:06:43.621337 12775 net.cpp:434] conv2_2 <- conv2_1
I1119 23:06:43.621346 12775 net.cpp:408] conv2_2 -> conv2_2
I1119 23:06:43.623152 12775 net.cpp:150] Setting up conv2_2
I1119 23:06:43.623168 12775 net.cpp:157] Top shape: 3 128 384 384 (56623104)
I1119 23:06:43.623173 12775 net.cpp:165] Memory required for data: 2666542492
I1119 23:06:43.623183 12775 layer_factory.hpp:77] Creating layer relu2_2
I1119 23:06:43.623191 12775 net.cpp:100] Creating Layer relu2_2
I1119 23:06:43.623196 12775 net.cpp:434] relu2_2 <- conv2_2
I1119 23:06:43.623204 12775 net.cpp:395] relu2_2 -> conv2_2 (in-place)
I1119 23:06:43.623394 12775 net.cpp:150] Setting up relu2_2
I1119 23:06:43.623406 12775 net.cpp:157] Top shape: 3 128 384 384 (56623104)
I1119 23:06:43.623411 12775 net.cpp:165] Memory required for data: 2893034908
I1119 23:06:43.623415 12775 layer_factory.hpp:77] Creating layer pool2
I1119 23:06:43.623425 12775 net.cpp:100] Creating Layer pool2
I1119 23:06:43.623430 12775 net.cpp:434] pool2 <- conv2_2
I1119 23:06:43.623436 12775 net.cpp:408] pool2 -> pool2
I1119 23:06:43.623481 12775 net.cpp:150] Setting up pool2
I1119 23:06:43.623489 12775 net.cpp:157] Top shape: 3 128 192 192 (14155776)
I1119 23:06:43.623494 12775 net.cpp:165] Memory required for data: 2949658012
I1119 23:06:43.623498 12775 layer_factory.hpp:77] Creating layer conv3_1
I1119 23:06:43.623508 12775 net.cpp:100] Creating Layer conv3_1
I1119 23:06:43.623513 12775 net.cpp:434] conv3_1 <- pool2
I1119 23:06:43.623520 12775 net.cpp:408] conv3_1 -> conv3_1
I1119 23:06:43.626452 12775 net.cpp:150] Setting up conv3_1
I1119 23:06:43.626472 12775 net.cpp:157] Top shape: 3 256 192 192 (28311552)
I1119 23:06:43.626477 12775 net.cpp:165] Memory required for data: 3062904220
I1119 23:06:43.626492 12775 layer_factory.hpp:77] Creating layer relu3_1
I1119 23:06:43.626502 12775 net.cpp:100] Creating Layer relu3_1
I1119 23:06:43.626507 12775 net.cpp:434] relu3_1 <- conv3_1
I1119 23:06:43.626515 12775 net.cpp:395] relu3_1 -> conv3_1 (in-place)
I1119 23:06:43.627050 12775 net.cpp:150] Setting up relu3_1
I1119 23:06:43.627064 12775 net.cpp:157] Top shape: 3 256 192 192 (28311552)
I1119 23:06:43.627069 12775 net.cpp:165] Memory required for data: 3176150428
I1119 23:06:43.627074 12775 layer_factory.hpp:77] Creating layer conv3_2
I1119 23:06:43.627084 12775 net.cpp:100] Creating Layer conv3_2
I1119 23:06:43.627089 12775 net.cpp:434] conv3_2 <- conv3_1
I1119 23:06:43.627095 12775 net.cpp:408] conv3_2 -> conv3_2
I1119 23:06:43.630069 12775 net.cpp:150] Setting up conv3_2
I1119 23:06:43.630089 12775 net.cpp:157] Top shape: 3 256 192 192 (28311552)
I1119 23:06:43.630095 12775 net.cpp:165] Memory required for data: 3289396636
I1119 23:06:43.630105 12775 layer_factory.hpp:77] Creating layer relu3_2
I1119 23:06:43.630113 12775 net.cpp:100] Creating Layer relu3_2
I1119 23:06:43.630118 12775 net.cpp:434] relu3_2 <- conv3_2
I1119 23:06:43.630125 12775 net.cpp:395] relu3_2 -> conv3_2 (in-place)
I1119 23:06:43.630687 12775 net.cpp:150] Setting up relu3_2
I1119 23:06:43.630702 12775 net.cpp:157] Top shape: 3 256 192 192 (28311552)
I1119 23:06:43.630707 12775 net.cpp:165] Memory required for data: 3402642844
I1119 23:06:43.630712 12775 layer_factory.hpp:77] Creating layer conv3_3
I1119 23:06:43.630722 12775 net.cpp:100] Creating Layer conv3_3
I1119 23:06:43.630728 12775 net.cpp:434] conv3_3 <- conv3_2
I1119 23:06:43.630735 12775 net.cpp:408] conv3_3 -> conv3_3
I1119 23:06:43.633932 12775 net.cpp:150] Setting up conv3_3
I1119 23:06:43.633951 12775 net.cpp:157] Top shape: 3 256 192 192 (28311552)
I1119 23:06:43.633956 12775 net.cpp:165] Memory required for data: 3515889052
I1119 23:06:43.633965 12775 layer_factory.hpp:77] Creating layer relu3_3
I1119 23:06:43.633975 12775 net.cpp:100] Creating Layer relu3_3
I1119 23:06:43.633981 12775 net.cpp:434] relu3_3 <- conv3_3
I1119 23:06:43.633987 12775 net.cpp:395] relu3_3 -> conv3_3 (in-place)
I1119 23:06:43.634188 12775 net.cpp:150] Setting up relu3_3
I1119 23:06:43.634200 12775 net.cpp:157] Top shape: 3 256 192 192 (28311552)
I1119 23:06:43.634204 12775 net.cpp:165] Memory required for data: 3629135260
I1119 23:06:43.634209 12775 layer_factory.hpp:77] Creating layer pool3
I1119 23:06:43.634218 12775 net.cpp:100] Creating Layer pool3
I1119 23:06:43.634222 12775 net.cpp:434] pool3 <- conv3_3
I1119 23:06:43.634229 12775 net.cpp:408] pool3 -> pool3
I1119 23:06:43.634274 12775 net.cpp:150] Setting up pool3
I1119 23:06:43.634284 12775 net.cpp:157] Top shape: 3 256 96 96 (7077888)
I1119 23:06:43.634289 12775 net.cpp:165] Memory required for data: 3657446812
I1119 23:06:43.634292 12775 layer_factory.hpp:77] Creating layer conv4_1
I1119 23:06:43.634300 12775 net.cpp:100] Creating Layer conv4_1
I1119 23:06:43.634305 12775 net.cpp:434] conv4_1 <- pool3
I1119 23:06:43.634311 12775 net.cpp:408] conv4_1 -> conv4_1
I1119 23:06:43.639906 12775 net.cpp:150] Setting up conv4_1
I1119 23:06:43.639935 12775 net.cpp:157] Top shape: 3 512 96 96 (14155776)
I1119 23:06:43.639940 12775 net.cpp:165] Memory required for data: 3714069916
I1119 23:06:43.639950 12775 layer_factory.hpp:77] Creating layer relu4_1
I1119 23:06:43.639962 12775 net.cpp:100] Creating Layer relu4_1
I1119 23:06:43.639968 12775 net.cpp:434] relu4_1 <- conv4_1
I1119 23:06:43.639976 12775 net.cpp:395] relu4_1 -> conv4_1 (in-place)
I1119 23:06:43.640151 12775 net.cpp:150] Setting up relu4_1
I1119 23:06:43.640162 12775 net.cpp:157] Top shape: 3 512 96 96 (14155776)
I1119 23:06:43.640166 12775 net.cpp:165] Memory required for data: 3770693020
I1119 23:06:43.640172 12775 layer_factory.hpp:77] Creating layer conv4_2
I1119 23:06:43.640182 12775 net.cpp:100] Creating Layer conv4_2
I1119 23:06:43.640185 12775 net.cpp:434] conv4_2 <- conv4_1
I1119 23:06:43.640192 12775 net.cpp:408] conv4_2 -> conv4_2
I1119 23:06:43.651582 12775 net.cpp:150] Setting up conv4_2
I1119 23:06:43.651623 12775 net.cpp:157] Top shape: 3 512 96 96 (14155776)
I1119 23:06:43.651628 12775 net.cpp:165] Memory required for data: 3827316124
I1119 23:06:43.651648 12775 layer_factory.hpp:77] Creating layer relu4_2
I1119 23:06:43.651661 12775 net.cpp:100] Creating Layer relu4_2
I1119 23:06:43.651669 12775 net.cpp:434] relu4_2 <- conv4_2
I1119 23:06:43.651677 12775 net.cpp:395] relu4_2 -> conv4_2 (in-place)
I1119 23:06:43.651875 12775 net.cpp:150] Setting up relu4_2
I1119 23:06:43.651886 12775 net.cpp:157] Top shape: 3 512 96 96 (14155776)
I1119 23:06:43.651890 12775 net.cpp:165] Memory required for data: 3883939228
I1119 23:06:43.651895 12775 layer_factory.hpp:77] Creating layer conv4_3
I1119 23:06:43.651906 12775 net.cpp:100] Creating Layer conv4_3
I1119 23:06:43.651912 12775 net.cpp:434] conv4_3 <- conv4_2
I1119 23:06:43.651919 12775 net.cpp:408] conv4_3 -> conv4_3
I1119 23:06:43.659518 12775 net.cpp:150] Setting up conv4_3
I1119 23:06:43.659552 12775 net.cpp:157] Top shape: 3 512 96 96 (14155776)
I1119 23:06:43.659557 12775 net.cpp:165] Memory required for data: 3940562332
I1119 23:06:43.659567 12775 layer_factory.hpp:77] Creating layer relu4_3
I1119 23:06:43.659580 12775 net.cpp:100] Creating Layer relu4_3
I1119 23:06:43.659587 12775 net.cpp:434] relu4_3 <- conv4_3
I1119 23:06:43.659595 12775 net.cpp:395] relu4_3 -> conv4_3 (in-place)
I1119 23:06:43.659775 12775 net.cpp:150] Setting up relu4_3
I1119 23:06:43.659787 12775 net.cpp:157] Top shape: 3 512 96 96 (14155776)
I1119 23:06:43.659792 12775 net.cpp:165] Memory required for data: 3997185436
I1119 23:06:43.659797 12775 layer_factory.hpp:77] Creating layer conv4_3_relu4_3_0_split
I1119 23:06:43.659809 12775 net.cpp:100] Creating Layer conv4_3_relu4_3_0_split
I1119 23:06:43.659816 12775 net.cpp:434] conv4_3_relu4_3_0_split <- conv4_3
I1119 23:06:43.659823 12775 net.cpp:408] conv4_3_relu4_3_0_split -> conv4_3_relu4_3_0_split_0
I1119 23:06:43.659832 12775 net.cpp:408] conv4_3_relu4_3_0_split -> conv4_3_relu4_3_0_split_1
I1119 23:06:43.659839 12775 net.cpp:408] conv4_3_relu4_3_0_split -> conv4_3_relu4_3_0_split_2
I1119 23:06:43.659847 12775 net.cpp:408] conv4_3_relu4_3_0_split -> conv4_3_relu4_3_0_split_3
I1119 23:06:43.659919 12775 net.cpp:150] Setting up conv4_3_relu4_3_0_split
I1119 23:06:43.659930 12775 net.cpp:157] Top shape: 3 512 96 96 (14155776)
I1119 23:06:43.659935 12775 net.cpp:157] Top shape: 3 512 96 96 (14155776)
I1119 23:06:43.659941 12775 net.cpp:157] Top shape: 3 512 96 96 (14155776)
I1119 23:06:43.659947 12775 net.cpp:157] Top shape: 3 512 96 96 (14155776)
I1119 23:06:43.659951 12775 net.cpp:165] Memory required for data: 4223677852
I1119 23:06:43.659956 12775 layer_factory.hpp:77] Creating layer buffer
I1119 23:06:43.659968 12775 net.cpp:100] Creating Layer buffer
I1119 23:06:43.659974 12775 net.cpp:434] buffer <- conv4_3_relu4_3_0_split_0
I1119 23:06:43.659982 12775 net.cpp:408] buffer -> buffer
I1119 23:06:43.722569 12775 net.cpp:150] Setting up buffer
I1119 23:06:43.722596 12775 net.cpp:157] Top shape: 3 512 96 96 (14155776)
I1119 23:06:43.722601 12775 net.cpp:165] Memory required for data: 4280300956
I1119 23:06:43.722610 12775 layer_factory.hpp:77] Creating layer relu_buffer
I1119 23:06:43.722621 12775 net.cpp:100] Creating Layer relu_buffer
I1119 23:06:43.722627 12775 net.cpp:434] relu_buffer <- buffer
I1119 23:06:43.722633 12775 net.cpp:395] relu_buffer -> buffer (in-place)
I1119 23:06:43.723075 12775 net.cpp:150] Setting up relu_buffer
I1119 23:06:43.723088 12775 net.cpp:157] Top shape: 3 512 96 96 (14155776)
I1119 23:06:43.723093 12775 net.cpp:165] Memory required for data: 4336924060
I1119 23:06:43.723096 12775 layer_factory.hpp:77] Creating layer attention
I1119 23:06:43.723105 12775 net.cpp:100] Creating Layer attention
I1119 23:06:43.723109 12775 net.cpp:434] attention <- buffer
I1119 23:06:43.723114 12775 net.cpp:408] attention -> attention
I1119 23:06:43.724125 12775 net.cpp:150] Setting up attention
I1119 23:06:43.724138 12775 net.cpp:157] Top shape: 3 3 96 96 (82944)
I1119 23:06:43.724141 12775 net.cpp:165] Memory required for data: 4337255836
I1119 23:06:43.724148 12775 layer_factory.hpp:77] Creating layer attention_attention_0_split
I1119 23:06:43.724154 12775 net.cpp:100] Creating Layer attention_attention_0_split
I1119 23:06:43.724158 12775 net.cpp:434] attention_attention_0_split <- attention
I1119 23:06:43.724164 12775 net.cpp:408] attention_attention_0_split -> attention_attention_0_split_0
I1119 23:06:43.724170 12775 net.cpp:408] attention_attention_0_split -> attention_attention_0_split_1
I1119 23:06:43.724208 12775 net.cpp:150] Setting up attention_attention_0_split
I1119 23:06:43.724215 12775 net.cpp:157] Top shape: 3 3 96 96 (82944)
I1119 23:06:43.724220 12775 net.cpp:157] Top shape: 3 3 96 96 (82944)
I1119 23:06:43.724222 12775 net.cpp:165] Memory required for data: 4337919388
I1119 23:06:43.724225 12775 layer_factory.hpp:77] Creating layer ch4_pool
I1119 23:06:43.724232 12775 net.cpp:100] Creating Layer ch4_pool
I1119 23:06:43.724236 12775 net.cpp:434] ch4_pool <- ch4
I1119 23:06:43.724241 12775 net.cpp:408] ch4_pool -> ch4_pool
I1119 23:06:43.724273 12775 net.cpp:150] Setting up ch4_pool
I1119 23:06:43.724279 12775 net.cpp:157] Top shape: 3 1 96 96 (27648)
I1119 23:06:43.724283 12775 net.cpp:165] Memory required for data: 4338029980
I1119 23:06:43.724287 12775 layer_factory.hpp:77] Creating layer loss_attention
I1119 23:06:43.724292 12775 net.cpp:100] Creating Layer loss_attention
I1119 23:06:43.724295 12775 net.cpp:434] loss_attention <- attention_attention_0_split_0
I1119 23:06:43.724299 12775 net.cpp:434] loss_attention <- ch4_pool
I1119 23:06:43.724304 12775 net.cpp:408] loss_attention -> loss_attention
I1119 23:06:43.724314 12775 layer_factory.hpp:77] Creating layer loss_attention
I1119 23:06:43.724876 12775 net.cpp:150] Setting up loss_attention
I1119 23:06:43.724889 12775 net.cpp:157] Top shape: (1)
I1119 23:06:43.724892 12775 net.cpp:160]     with loss weight 1
I1119 23:06:43.724911 12775 net.cpp:165] Memory required for data: 4338029984
I1119 23:06:43.724916 12775 layer_factory.hpp:77] Creating layer loss1_conv1
I1119 23:06:43.724926 12775 net.cpp:100] Creating Layer loss1_conv1
I1119 23:06:43.724931 12775 net.cpp:434] loss1_conv1 <- conv4_3_relu4_3_0_split_1
I1119 23:06:43.724937 12775 net.cpp:408] loss1_conv1 -> loss1_conv1
I1119 23:06:43.783627 12775 net.cpp:150] Setting up loss1_conv1
I1119 23:06:43.783656 12775 net.cpp:157] Top shape: 3 512 96 96 (14155776)
I1119 23:06:43.783659 12775 net.cpp:165] Memory required for data: 4394653088
I1119 23:06:43.783668 12775 layer_factory.hpp:77] Creating layer loss_relu1
I1119 23:06:43.783679 12775 net.cpp:100] Creating Layer loss_relu1
I1119 23:06:43.783684 12775 net.cpp:434] loss_relu1 <- loss1_conv1
I1119 23:06:43.783689 12775 net.cpp:395] loss_relu1 -> loss1_conv1 (in-place)
I1119 23:06:43.783826 12775 net.cpp:150] Setting up loss_relu1
I1119 23:06:43.783833 12775 net.cpp:157] Top shape: 3 512 96 96 (14155776)
I1119 23:06:43.783836 12775 net.cpp:165] Memory required for data: 4451276192
I1119 23:06:43.783840 12775 layer_factory.hpp:77] Creating layer loss1_conv1_loss_relu1_0_split
I1119 23:06:43.783846 12775 net.cpp:100] Creating Layer loss1_conv1_loss_relu1_0_split
I1119 23:06:43.783850 12775 net.cpp:434] loss1_conv1_loss_relu1_0_split <- loss1_conv1
I1119 23:06:43.783855 12775 net.cpp:408] loss1_conv1_loss_relu1_0_split -> loss1_conv1_loss_relu1_0_split_0
I1119 23:06:43.783861 12775 net.cpp:408] loss1_conv1_loss_relu1_0_split -> loss1_conv1_loss_relu1_0_split_1
I1119 23:06:43.783896 12775 net.cpp:150] Setting up loss1_conv1_loss_relu1_0_split
I1119 23:06:43.783903 12775 net.cpp:157] Top shape: 3 512 96 96 (14155776)
I1119 23:06:43.783907 12775 net.cpp:157] Top shape: 3 512 96 96 (14155776)
I1119 23:06:43.783910 12775 net.cpp:165] Memory required for data: 4564522400
I1119 23:06:43.783913 12775 layer_factory.hpp:77] Creating layer LFCN_1_5x5
I1119 23:06:43.783923 12775 net.cpp:100] Creating Layer LFCN_1_5x5
I1119 23:06:43.783926 12775 net.cpp:434] LFCN_1_5x5 <- loss1_conv1_loss_relu1_0_split_0
I1119 23:06:43.783933 12775 net.cpp:408] LFCN_1_5x5 -> LFCN_1_5x5
I1119 23:06:43.787890 12775 net.cpp:150] Setting up LFCN_1_5x5
I1119 23:06:43.787902 12775 net.cpp:157] Top shape: 3 9 96 96 (248832)
I1119 23:06:43.787905 12775 net.cpp:165] Memory required for data: 4565517728
I1119 23:06:43.787910 12775 layer_factory.hpp:77] Creating layer LFCN_1_5x5_LFCN_1_5x5_0_split
I1119 23:06:43.787915 12775 net.cpp:100] Creating Layer LFCN_1_5x5_LFCN_1_5x5_0_split
I1119 23:06:43.787919 12775 net.cpp:434] LFCN_1_5x5_LFCN_1_5x5_0_split <- LFCN_1_5x5
I1119 23:06:43.787923 12775 net.cpp:408] LFCN_1_5x5_LFCN_1_5x5_0_split -> LFCN_1_5x5_LFCN_1_5x5_0_split_0
I1119 23:06:43.787928 12775 net.cpp:408] LFCN_1_5x5_LFCN_1_5x5_0_split -> LFCN_1_5x5_LFCN_1_5x5_0_split_1
I1119 23:06:43.787933 12775 net.cpp:408] LFCN_1_5x5_LFCN_1_5x5_0_split -> LFCN_1_5x5_LFCN_1_5x5_0_split_2
I1119 23:06:43.787969 12775 net.cpp:150] Setting up LFCN_1_5x5_LFCN_1_5x5_0_split
I1119 23:06:43.787976 12775 net.cpp:157] Top shape: 3 9 96 96 (248832)
I1119 23:06:43.787978 12775 net.cpp:157] Top shape: 3 9 96 96 (248832)
I1119 23:06:43.787982 12775 net.cpp:157] Top shape: 3 9 96 96 (248832)
I1119 23:06:43.787986 12775 net.cpp:165] Memory required for data: 4568503712
I1119 23:06:43.787988 12775 layer_factory.hpp:77] Creating layer detection_loss_1_5x5
I1119 23:06:43.787995 12775 net.cpp:100] Creating Layer detection_loss_1_5x5
I1119 23:06:43.787998 12775 net.cpp:434] detection_loss_1_5x5 <- LFCN_1_5x5_LFCN_1_5x5_0_split_0
I1119 23:06:43.788002 12775 net.cpp:434] detection_loss_1_5x5 <- label_1_5x5_data_1_split_0
I1119 23:06:43.788007 12775 net.cpp:408] detection_loss_1_5x5 -> loss_1_5x5
I1119 23:06:43.788017 12775 layer_factory.hpp:77] Creating layer detection_loss_1_5x5
I1119 23:06:43.789178 12775 net.cpp:150] Setting up detection_loss_1_5x5
I1119 23:06:43.789192 12775 net.cpp:157] Top shape: 1 1 1 2 (2)
I1119 23:06:43.789196 12775 net.cpp:160]     with loss weight 0.9
I1119 23:06:43.789208 12775 net.cpp:165] Memory required for data: 4568503720
I1119 23:06:43.789211 12775 layer_factory.hpp:77] Creating layer detection_accuracy_1_5x5
I1119 23:06:43.789218 12775 net.cpp:100] Creating Layer detection_accuracy_1_5x5
I1119 23:06:43.789222 12775 net.cpp:434] detection_accuracy_1_5x5 <- LFCN_1_5x5_LFCN_1_5x5_0_split_1
I1119 23:06:43.789227 12775 net.cpp:434] detection_accuracy_1_5x5 <- label_1_5x5_data_1_split_1
I1119 23:06:43.789232 12775 net.cpp:408] detection_accuracy_1_5x5 -> accuracy_1_5x5
I1119 23:06:43.789242 12775 net.cpp:408] detection_accuracy_1_5x5 -> boxiou_1_5x5
I1119 23:06:43.789275 12775 net.cpp:150] Setting up detection_accuracy_1_5x5
I1119 23:06:43.789283 12775 net.cpp:157] Top shape: 1 1 1 2 (2)
I1119 23:06:43.789286 12775 net.cpp:157] Top shape: 1 1 1 1 (1)
I1119 23:06:43.789289 12775 net.cpp:165] Memory required for data: 4568503732
I1119 23:06:43.789292 12775 layer_factory.hpp:77] Creating layer LFCN_1_7x7
I1119 23:06:43.789301 12775 net.cpp:100] Creating Layer LFCN_1_7x7
I1119 23:06:43.789305 12775 net.cpp:434] LFCN_1_7x7 <- loss1_conv1_loss_relu1_0_split_1
I1119 23:06:43.789310 12775 net.cpp:408] LFCN_1_7x7 -> LFCN_1_7x7
I1119 23:06:43.796243 12775 net.cpp:150] Setting up LFCN_1_7x7
I1119 23:06:43.796267 12775 net.cpp:157] Top shape: 3 9 96 96 (248832)
I1119 23:06:43.796272 12775 net.cpp:165] Memory required for data: 4569499060
I1119 23:06:43.796280 12775 layer_factory.hpp:77] Creating layer LFCN_1_7x7_LFCN_1_7x7_0_split
I1119 23:06:43.796289 12775 net.cpp:100] Creating Layer LFCN_1_7x7_LFCN_1_7x7_0_split
I1119 23:06:43.796294 12775 net.cpp:434] LFCN_1_7x7_LFCN_1_7x7_0_split <- LFCN_1_7x7
I1119 23:06:43.796301 12775 net.cpp:408] LFCN_1_7x7_LFCN_1_7x7_0_split -> LFCN_1_7x7_LFCN_1_7x7_0_split_0
I1119 23:06:43.796308 12775 net.cpp:408] LFCN_1_7x7_LFCN_1_7x7_0_split -> LFCN_1_7x7_LFCN_1_7x7_0_split_1
I1119 23:06:43.796314 12775 net.cpp:408] LFCN_1_7x7_LFCN_1_7x7_0_split -> LFCN_1_7x7_LFCN_1_7x7_0_split_2
I1119 23:06:43.796358 12775 net.cpp:150] Setting up LFCN_1_7x7_LFCN_1_7x7_0_split
I1119 23:06:43.796363 12775 net.cpp:157] Top shape: 3 9 96 96 (248832)
I1119 23:06:43.796367 12775 net.cpp:157] Top shape: 3 9 96 96 (248832)
I1119 23:06:43.796371 12775 net.cpp:157] Top shape: 3 9 96 96 (248832)
I1119 23:06:43.796375 12775 net.cpp:165] Memory required for data: 4572485044
I1119 23:06:43.796378 12775 layer_factory.hpp:77] Creating layer detection_loss_1_7x7
I1119 23:06:43.796386 12775 net.cpp:100] Creating Layer detection_loss_1_7x7
I1119 23:06:43.796389 12775 net.cpp:434] detection_loss_1_7x7 <- LFCN_1_7x7_LFCN_1_7x7_0_split_0
I1119 23:06:43.796394 12775 net.cpp:434] detection_loss_1_7x7 <- label_1_7x7_data_2_split_0
I1119 23:06:43.796399 12775 net.cpp:408] detection_loss_1_7x7 -> loss_1_7x7
I1119 23:06:43.796407 12775 layer_factory.hpp:77] Creating layer detection_loss_1_7x7
I1119 23:06:43.796766 12775 net.cpp:150] Setting up detection_loss_1_7x7
I1119 23:06:43.796773 12775 net.cpp:157] Top shape: 1 1 1 2 (2)
I1119 23:06:43.796777 12775 net.cpp:160]     with loss weight 0.9
I1119 23:06:43.796787 12775 net.cpp:165] Memory required for data: 4572485052
I1119 23:06:43.796792 12775 layer_factory.hpp:77] Creating layer detection_accuracy_1_7x7
I1119 23:06:43.796797 12775 net.cpp:100] Creating Layer detection_accuracy_1_7x7
I1119 23:06:43.796802 12775 net.cpp:434] detection_accuracy_1_7x7 <- LFCN_1_7x7_LFCN_1_7x7_0_split_1
I1119 23:06:43.796805 12775 net.cpp:434] detection_accuracy_1_7x7 <- label_1_7x7_data_2_split_1
I1119 23:06:43.796810 12775 net.cpp:408] detection_accuracy_1_7x7 -> accuracy_1_7x7
I1119 23:06:43.796816 12775 net.cpp:408] detection_accuracy_1_7x7 -> boxiou_1_7x7
I1119 23:06:43.796855 12775 net.cpp:150] Setting up detection_accuracy_1_7x7
I1119 23:06:43.796860 12775 net.cpp:157] Top shape: 1 1 1 2 (2)
I1119 23:06:43.796865 12775 net.cpp:157] Top shape: 1 1 1 1 (1)
I1119 23:06:43.796869 12775 net.cpp:165] Memory required for data: 4572485064
I1119 23:06:43.796871 12775 layer_factory.hpp:77] Creating layer pool4
I1119 23:06:43.796878 12775 net.cpp:100] Creating Layer pool4
I1119 23:06:43.796881 12775 net.cpp:434] pool4 <- conv4_3_relu4_3_0_split_2
I1119 23:06:43.796886 12775 net.cpp:408] pool4 -> pool4
I1119 23:06:43.796917 12775 net.cpp:150] Setting up pool4
I1119 23:06:43.796922 12775 net.cpp:157] Top shape: 3 512 48 48 (3538944)
I1119 23:06:43.796926 12775 net.cpp:165] Memory required for data: 4586640840
I1119 23:06:43.796928 12775 layer_factory.hpp:77] Creating layer conv5_1
I1119 23:06:43.796936 12775 net.cpp:100] Creating Layer conv5_1
I1119 23:06:43.796939 12775 net.cpp:434] conv5_1 <- pool4
I1119 23:06:43.796947 12775 net.cpp:408] conv5_1 -> conv5_1
I1119 23:06:43.803181 12775 net.cpp:150] Setting up conv5_1
I1119 23:06:43.803215 12775 net.cpp:157] Top shape: 3 512 48 48 (3538944)
I1119 23:06:43.803220 12775 net.cpp:165] Memory required for data: 4600796616
I1119 23:06:43.803231 12775 layer_factory.hpp:77] Creating layer relu5_1
I1119 23:06:43.803243 12775 net.cpp:100] Creating Layer relu5_1
I1119 23:06:43.803251 12775 net.cpp:434] relu5_1 <- conv5_1
I1119 23:06:43.803258 12775 net.cpp:395] relu5_1 -> conv5_1 (in-place)
I1119 23:06:43.803408 12775 net.cpp:150] Setting up relu5_1
I1119 23:06:43.803417 12775 net.cpp:157] Top shape: 3 512 48 48 (3538944)
I1119 23:06:43.803421 12775 net.cpp:165] Memory required for data: 4614952392
I1119 23:06:43.803426 12775 layer_factory.hpp:77] Creating layer conv5_2
I1119 23:06:43.803434 12775 net.cpp:100] Creating Layer conv5_2
I1119 23:06:43.803438 12775 net.cpp:434] conv5_2 <- conv5_1
I1119 23:06:43.803444 12775 net.cpp:408] conv5_2 -> conv5_2
I1119 23:06:43.809160 12775 net.cpp:150] Setting up conv5_2
I1119 23:06:43.809193 12775 net.cpp:157] Top shape: 3 512 48 48 (3538944)
I1119 23:06:43.809198 12775 net.cpp:165] Memory required for data: 4629108168
I1119 23:06:43.809214 12775 layer_factory.hpp:77] Creating layer relu5_2
I1119 23:06:43.809226 12775 net.cpp:100] Creating Layer relu5_2
I1119 23:06:43.809232 12775 net.cpp:434] relu5_2 <- conv5_2
I1119 23:06:43.809238 12775 net.cpp:395] relu5_2 -> conv5_2 (in-place)
I1119 23:06:43.809679 12775 net.cpp:150] Setting up relu5_2
I1119 23:06:43.809693 12775 net.cpp:157] Top shape: 3 512 48 48 (3538944)
I1119 23:06:43.809697 12775 net.cpp:165] Memory required for data: 4643263944
I1119 23:06:43.809701 12775 layer_factory.hpp:77] Creating layer conv5_3
I1119 23:06:43.809710 12775 net.cpp:100] Creating Layer conv5_3
I1119 23:06:43.809715 12775 net.cpp:434] conv5_3 <- conv5_2
I1119 23:06:43.809720 12775 net.cpp:408] conv5_3 -> conv5_3
I1119 23:06:43.815099 12775 net.cpp:150] Setting up conv5_3
I1119 23:06:43.815140 12775 net.cpp:157] Top shape: 3 512 48 48 (3538944)
I1119 23:06:43.815145 12775 net.cpp:165] Memory required for data: 4657419720
I1119 23:06:43.815153 12775 layer_factory.hpp:77] Creating layer relu5_3
I1119 23:06:43.815165 12775 net.cpp:100] Creating Layer relu5_3
I1119 23:06:43.815171 12775 net.cpp:434] relu5_3 <- conv5_3
I1119 23:06:43.815176 12775 net.cpp:395] relu5_3 -> conv5_3 (in-place)
I1119 23:06:43.815788 12775 net.cpp:150] Setting up relu5_3
I1119 23:06:43.815800 12775 net.cpp:157] Top shape: 3 512 48 48 (3538944)
I1119 23:06:43.815804 12775 net.cpp:165] Memory required for data: 4671575496
I1119 23:06:43.815807 12775 layer_factory.hpp:77] Creating layer conv5_3_relu5_3_0_split
I1119 23:06:43.815815 12775 net.cpp:100] Creating Layer conv5_3_relu5_3_0_split
I1119 23:06:43.815819 12775 net.cpp:434] conv5_3_relu5_3_0_split <- conv5_3
I1119 23:06:43.815824 12775 net.cpp:408] conv5_3_relu5_3_0_split -> conv5_3_relu5_3_0_split_0
I1119 23:06:43.815832 12775 net.cpp:408] conv5_3_relu5_3_0_split -> conv5_3_relu5_3_0_split_1
I1119 23:06:43.815838 12775 net.cpp:408] conv5_3_relu5_3_0_split -> conv5_3_relu5_3_0_split_2
I1119 23:06:43.815884 12775 net.cpp:150] Setting up conv5_3_relu5_3_0_split
I1119 23:06:43.815891 12775 net.cpp:157] Top shape: 3 512 48 48 (3538944)
I1119 23:06:43.815896 12775 net.cpp:157] Top shape: 3 512 48 48 (3538944)
I1119 23:06:43.815899 12775 net.cpp:157] Top shape: 3 512 48 48 (3538944)
I1119 23:06:43.815902 12775 net.cpp:165] Memory required for data: 4714042824
I1119 23:06:43.815907 12775 layer_factory.hpp:77] Creating layer LFCN_2_5x5
I1119 23:06:43.815917 12775 net.cpp:100] Creating Layer LFCN_2_5x5
I1119 23:06:43.815922 12775 net.cpp:434] LFCN_2_5x5 <- conv5_3_relu5_3_0_split_0
I1119 23:06:43.815927 12775 net.cpp:408] LFCN_2_5x5 -> LFCN_2_5x5
I1119 23:06:43.820506 12775 net.cpp:150] Setting up LFCN_2_5x5
I1119 23:06:43.820518 12775 net.cpp:157] Top shape: 3 9 48 48 (62208)
I1119 23:06:43.820520 12775 net.cpp:165] Memory required for data: 4714291656
I1119 23:06:43.820525 12775 layer_factory.hpp:77] Creating layer LFCN_2_5x5_LFCN_2_5x5_0_split
I1119 23:06:43.820530 12775 net.cpp:100] Creating Layer LFCN_2_5x5_LFCN_2_5x5_0_split
I1119 23:06:43.820534 12775 net.cpp:434] LFCN_2_5x5_LFCN_2_5x5_0_split <- LFCN_2_5x5
I1119 23:06:43.820538 12775 net.cpp:408] LFCN_2_5x5_LFCN_2_5x5_0_split -> LFCN_2_5x5_LFCN_2_5x5_0_split_0
I1119 23:06:43.820544 12775 net.cpp:408] LFCN_2_5x5_LFCN_2_5x5_0_split -> LFCN_2_5x5_LFCN_2_5x5_0_split_1
I1119 23:06:43.820549 12775 net.cpp:408] LFCN_2_5x5_LFCN_2_5x5_0_split -> LFCN_2_5x5_LFCN_2_5x5_0_split_2
I1119 23:06:43.820587 12775 net.cpp:150] Setting up LFCN_2_5x5_LFCN_2_5x5_0_split
I1119 23:06:43.820593 12775 net.cpp:157] Top shape: 3 9 48 48 (62208)
I1119 23:06:43.820596 12775 net.cpp:157] Top shape: 3 9 48 48 (62208)
I1119 23:06:43.820600 12775 net.cpp:157] Top shape: 3 9 48 48 (62208)
I1119 23:06:43.820602 12775 net.cpp:165] Memory required for data: 4715038152
I1119 23:06:43.820605 12775 layer_factory.hpp:77] Creating layer detection_loss_2_5x5
I1119 23:06:43.820611 12775 net.cpp:100] Creating Layer detection_loss_2_5x5
I1119 23:06:43.820616 12775 net.cpp:434] detection_loss_2_5x5 <- LFCN_2_5x5_LFCN_2_5x5_0_split_0
I1119 23:06:43.820618 12775 net.cpp:434] detection_loss_2_5x5 <- label_2_5x5_data_3_split_0
I1119 23:06:43.820623 12775 net.cpp:408] detection_loss_2_5x5 -> loss_2_5x5
I1119 23:06:43.820631 12775 layer_factory.hpp:77] Creating layer detection_loss_2_5x5
I1119 23:06:43.820936 12775 net.cpp:150] Setting up detection_loss_2_5x5
I1119 23:06:43.820945 12775 net.cpp:157] Top shape: 1 1 1 2 (2)
I1119 23:06:43.820950 12775 net.cpp:160]     with loss weight 1
I1119 23:06:43.820960 12775 net.cpp:165] Memory required for data: 4715038160
I1119 23:06:43.820963 12775 layer_factory.hpp:77] Creating layer detection_accuracy_2_5x5
I1119 23:06:43.820969 12775 net.cpp:100] Creating Layer detection_accuracy_2_5x5
I1119 23:06:43.820973 12775 net.cpp:434] detection_accuracy_2_5x5 <- LFCN_2_5x5_LFCN_2_5x5_0_split_1
I1119 23:06:43.820978 12775 net.cpp:434] detection_accuracy_2_5x5 <- label_2_5x5_data_3_split_1
I1119 23:06:43.820983 12775 net.cpp:408] detection_accuracy_2_5x5 -> accuracy_2_5x5
I1119 23:06:43.820991 12775 net.cpp:408] detection_accuracy_2_5x5 -> boxiou_2_5x5
I1119 23:06:43.821023 12775 net.cpp:150] Setting up detection_accuracy_2_5x5
I1119 23:06:43.821029 12775 net.cpp:157] Top shape: 1 1 1 2 (2)
I1119 23:06:43.821034 12775 net.cpp:157] Top shape: 1 1 1 1 (1)
I1119 23:06:43.821038 12775 net.cpp:165] Memory required for data: 4715038172
I1119 23:06:43.821040 12775 layer_factory.hpp:77] Creating layer LFCN_2_7x7
I1119 23:06:43.821048 12775 net.cpp:100] Creating Layer LFCN_2_7x7
I1119 23:06:43.821053 12775 net.cpp:434] LFCN_2_7x7 <- conv5_3_relu5_3_0_split_1
I1119 23:06:43.821058 12775 net.cpp:408] LFCN_2_7x7 -> LFCN_2_7x7
I1119 23:06:43.827425 12775 net.cpp:150] Setting up LFCN_2_7x7
I1119 23:06:43.827440 12775 net.cpp:157] Top shape: 3 9 48 48 (62208)
I1119 23:06:43.827443 12775 net.cpp:165] Memory required for data: 4715287004
I1119 23:06:43.827450 12775 layer_factory.hpp:77] Creating layer LFCN_2_7x7_LFCN_2_7x7_0_split
I1119 23:06:43.827455 12775 net.cpp:100] Creating Layer LFCN_2_7x7_LFCN_2_7x7_0_split
I1119 23:06:43.827459 12775 net.cpp:434] LFCN_2_7x7_LFCN_2_7x7_0_split <- LFCN_2_7x7
I1119 23:06:43.827466 12775 net.cpp:408] LFCN_2_7x7_LFCN_2_7x7_0_split -> LFCN_2_7x7_LFCN_2_7x7_0_split_0
I1119 23:06:43.827472 12775 net.cpp:408] LFCN_2_7x7_LFCN_2_7x7_0_split -> LFCN_2_7x7_LFCN_2_7x7_0_split_1
I1119 23:06:43.827478 12775 net.cpp:408] LFCN_2_7x7_LFCN_2_7x7_0_split -> LFCN_2_7x7_LFCN_2_7x7_0_split_2
I1119 23:06:43.827523 12775 net.cpp:150] Setting up LFCN_2_7x7_LFCN_2_7x7_0_split
I1119 23:06:43.827530 12775 net.cpp:157] Top shape: 3 9 48 48 (62208)
I1119 23:06:43.827535 12775 net.cpp:157] Top shape: 3 9 48 48 (62208)
I1119 23:06:43.827539 12775 net.cpp:157] Top shape: 3 9 48 48 (62208)
I1119 23:06:43.827543 12775 net.cpp:165] Memory required for data: 4716033500
I1119 23:06:43.827546 12775 layer_factory.hpp:77] Creating layer detection_loss_2_7x7
I1119 23:06:43.827558 12775 net.cpp:100] Creating Layer detection_loss_2_7x7
I1119 23:06:43.827564 12775 net.cpp:434] detection_loss_2_7x7 <- LFCN_2_7x7_LFCN_2_7x7_0_split_0
I1119 23:06:43.827569 12775 net.cpp:434] detection_loss_2_7x7 <- label_2_7x7_data_4_split_0
I1119 23:06:43.827574 12775 net.cpp:408] detection_loss_2_7x7 -> loss_2_7x7
I1119 23:06:43.827580 12775 layer_factory.hpp:77] Creating layer detection_loss_2_7x7
I1119 23:06:43.827880 12775 net.cpp:150] Setting up detection_loss_2_7x7
I1119 23:06:43.827890 12775 net.cpp:157] Top shape: 1 1 1 2 (2)
I1119 23:06:43.827893 12775 net.cpp:160]     with loss weight 1
I1119 23:06:43.827899 12775 net.cpp:165] Memory required for data: 4716033508
I1119 23:06:43.827903 12775 layer_factory.hpp:77] Creating layer detection_accuracy_2_7x7
I1119 23:06:43.827909 12775 net.cpp:100] Creating Layer detection_accuracy_2_7x7
I1119 23:06:43.827913 12775 net.cpp:434] detection_accuracy_2_7x7 <- LFCN_2_7x7_LFCN_2_7x7_0_split_1
I1119 23:06:43.827917 12775 net.cpp:434] detection_accuracy_2_7x7 <- label_2_7x7_data_4_split_1
I1119 23:06:43.827924 12775 net.cpp:408] detection_accuracy_2_7x7 -> accuracy_2_7x7
I1119 23:06:43.827929 12775 net.cpp:408] detection_accuracy_2_7x7 -> boxiou_2_7x7
I1119 23:06:43.827960 12775 net.cpp:150] Setting up detection_accuracy_2_7x7
I1119 23:06:43.827967 12775 net.cpp:157] Top shape: 1 1 1 2 (2)
I1119 23:06:43.827972 12775 net.cpp:157] Top shape: 1 1 1 1 (1)
I1119 23:06:43.827975 12775 net.cpp:165] Memory required for data: 4716033520
I1119 23:06:43.827978 12775 layer_factory.hpp:77] Creating layer pool5
I1119 23:06:43.827986 12775 net.cpp:100] Creating Layer pool5
I1119 23:06:43.827989 12775 net.cpp:434] pool5 <- conv5_3_relu5_3_0_split_2
I1119 23:06:43.827994 12775 net.cpp:408] pool5 -> pool5
I1119 23:06:43.828027 12775 net.cpp:150] Setting up pool5
I1119 23:06:43.828032 12775 net.cpp:157] Top shape: 3 512 24 24 (884736)
I1119 23:06:43.828037 12775 net.cpp:165] Memory required for data: 4719572464
I1119 23:06:43.828039 12775 layer_factory.hpp:77] Creating layer conv6_1
I1119 23:06:43.828047 12775 net.cpp:100] Creating Layer conv6_1
I1119 23:06:43.828050 12775 net.cpp:434] conv6_1 <- pool5
I1119 23:06:43.828056 12775 net.cpp:408] conv6_1 -> conv6_1
I1119 23:06:43.887079 12775 net.cpp:150] Setting up conv6_1
I1119 23:06:43.887109 12775 net.cpp:157] Top shape: 3 512 24 24 (884736)
I1119 23:06:43.887115 12775 net.cpp:165] Memory required for data: 4723111408
I1119 23:06:43.887123 12775 layer_factory.hpp:77] Creating layer relu6_1
I1119 23:06:43.887135 12775 net.cpp:100] Creating Layer relu6_1
I1119 23:06:43.887140 12775 net.cpp:434] relu6_1 <- conv6_1
I1119 23:06:43.887146 12775 net.cpp:395] relu6_1 -> conv6_1 (in-place)
I1119 23:06:43.887296 12775 net.cpp:150] Setting up relu6_1
I1119 23:06:43.887305 12775 net.cpp:157] Top shape: 3 512 24 24 (884736)
I1119 23:06:43.887310 12775 net.cpp:165] Memory required for data: 4726650352
I1119 23:06:43.887312 12775 layer_factory.hpp:77] Creating layer conv6_1_relu6_1_0_split
I1119 23:06:43.887320 12775 net.cpp:100] Creating Layer conv6_1_relu6_1_0_split
I1119 23:06:43.887322 12775 net.cpp:434] conv6_1_relu6_1_0_split <- conv6_1
I1119 23:06:43.887327 12775 net.cpp:408] conv6_1_relu6_1_0_split -> conv6_1_relu6_1_0_split_0
I1119 23:06:43.887334 12775 net.cpp:408] conv6_1_relu6_1_0_split -> conv6_1_relu6_1_0_split_1
I1119 23:06:43.887341 12775 net.cpp:408] conv6_1_relu6_1_0_split -> conv6_1_relu6_1_0_split_2
I1119 23:06:43.887387 12775 net.cpp:150] Setting up conv6_1_relu6_1_0_split
I1119 23:06:43.887393 12775 net.cpp:157] Top shape: 3 512 24 24 (884736)
I1119 23:06:43.887398 12775 net.cpp:157] Top shape: 3 512 24 24 (884736)
I1119 23:06:43.887401 12775 net.cpp:157] Top shape: 3 512 24 24 (884736)
I1119 23:06:43.887404 12775 net.cpp:165] Memory required for data: 4737267184
I1119 23:06:43.887408 12775 layer_factory.hpp:77] Creating layer LFCN_3_5x5
I1119 23:06:43.887418 12775 net.cpp:100] Creating Layer LFCN_3_5x5
I1119 23:06:43.887420 12775 net.cpp:434] LFCN_3_5x5 <- conv6_1_relu6_1_0_split_0
I1119 23:06:43.887426 12775 net.cpp:408] LFCN_3_5x5 -> LFCN_3_5x5
I1119 23:06:43.891357 12775 net.cpp:150] Setting up LFCN_3_5x5
I1119 23:06:43.891368 12775 net.cpp:157] Top shape: 3 9 24 24 (15552)
I1119 23:06:43.891371 12775 net.cpp:165] Memory required for data: 4737329392
I1119 23:06:43.891377 12775 layer_factory.hpp:77] Creating layer LFCN_3_5x5_LFCN_3_5x5_0_split
I1119 23:06:43.891382 12775 net.cpp:100] Creating Layer LFCN_3_5x5_LFCN_3_5x5_0_split
I1119 23:06:43.891386 12775 net.cpp:434] LFCN_3_5x5_LFCN_3_5x5_0_split <- LFCN_3_5x5
I1119 23:06:43.891389 12775 net.cpp:408] LFCN_3_5x5_LFCN_3_5x5_0_split -> LFCN_3_5x5_LFCN_3_5x5_0_split_0
I1119 23:06:43.891396 12775 net.cpp:408] LFCN_3_5x5_LFCN_3_5x5_0_split -> LFCN_3_5x5_LFCN_3_5x5_0_split_1
I1119 23:06:43.891400 12775 net.cpp:408] LFCN_3_5x5_LFCN_3_5x5_0_split -> LFCN_3_5x5_LFCN_3_5x5_0_split_2
I1119 23:06:43.891440 12775 net.cpp:150] Setting up LFCN_3_5x5_LFCN_3_5x5_0_split
I1119 23:06:43.891446 12775 net.cpp:157] Top shape: 3 9 24 24 (15552)
I1119 23:06:43.891450 12775 net.cpp:157] Top shape: 3 9 24 24 (15552)
I1119 23:06:43.891453 12775 net.cpp:157] Top shape: 3 9 24 24 (15552)
I1119 23:06:43.891456 12775 net.cpp:165] Memory required for data: 4737516016
I1119 23:06:43.891459 12775 layer_factory.hpp:77] Creating layer detection_loss_3_5x5
I1119 23:06:43.891464 12775 net.cpp:100] Creating Layer detection_loss_3_5x5
I1119 23:06:43.891469 12775 net.cpp:434] detection_loss_3_5x5 <- LFCN_3_5x5_LFCN_3_5x5_0_split_0
I1119 23:06:43.891472 12775 net.cpp:434] detection_loss_3_5x5 <- label_3_5x5_data_5_split_0
I1119 23:06:43.891477 12775 net.cpp:408] detection_loss_3_5x5 -> loss_3_5x5
I1119 23:06:43.891485 12775 layer_factory.hpp:77] Creating layer detection_loss_3_5x5
I1119 23:06:43.891794 12775 net.cpp:150] Setting up detection_loss_3_5x5
I1119 23:06:43.891803 12775 net.cpp:157] Top shape: 1 1 1 2 (2)
I1119 23:06:43.891806 12775 net.cpp:160]     with loss weight 1
I1119 23:06:43.891819 12775 net.cpp:165] Memory required for data: 4737516024
I1119 23:06:43.891821 12775 layer_factory.hpp:77] Creating layer detection_accuracy_3_5x5
I1119 23:06:43.891827 12775 net.cpp:100] Creating Layer detection_accuracy_3_5x5
I1119 23:06:43.891831 12775 net.cpp:434] detection_accuracy_3_5x5 <- LFCN_3_5x5_LFCN_3_5x5_0_split_1
I1119 23:06:43.891836 12775 net.cpp:434] detection_accuracy_3_5x5 <- label_3_5x5_data_5_split_1
I1119 23:06:43.891842 12775 net.cpp:408] detection_accuracy_3_5x5 -> accuracy_3_5x5
I1119 23:06:43.891849 12775 net.cpp:408] detection_accuracy_3_5x5 -> boxiou_3_5x5
I1119 23:06:43.891882 12775 net.cpp:150] Setting up detection_accuracy_3_5x5
I1119 23:06:43.891890 12775 net.cpp:157] Top shape: 1 1 1 2 (2)
I1119 23:06:43.891894 12775 net.cpp:157] Top shape: 1 1 1 1 (1)
I1119 23:06:43.891897 12775 net.cpp:165] Memory required for data: 4737516036
I1119 23:06:43.891901 12775 layer_factory.hpp:77] Creating layer LFCN_3_7x7
I1119 23:06:43.891908 12775 net.cpp:100] Creating Layer LFCN_3_7x7
I1119 23:06:43.891912 12775 net.cpp:434] LFCN_3_7x7 <- conv6_1_relu6_1_0_split_1
I1119 23:06:43.891917 12775 net.cpp:408] LFCN_3_7x7 -> LFCN_3_7x7
I1119 23:06:43.899085 12775 net.cpp:150] Setting up LFCN_3_7x7
I1119 23:06:43.899101 12775 net.cpp:157] Top shape: 3 9 24 24 (15552)
I1119 23:06:43.899103 12775 net.cpp:165] Memory required for data: 4737578244
I1119 23:06:43.899111 12775 layer_factory.hpp:77] Creating layer LFCN_3_7x7_LFCN_3_7x7_0_split
I1119 23:06:43.899117 12775 net.cpp:100] Creating Layer LFCN_3_7x7_LFCN_3_7x7_0_split
I1119 23:06:43.899121 12775 net.cpp:434] LFCN_3_7x7_LFCN_3_7x7_0_split <- LFCN_3_7x7
I1119 23:06:43.899127 12775 net.cpp:408] LFCN_3_7x7_LFCN_3_7x7_0_split -> LFCN_3_7x7_LFCN_3_7x7_0_split_0
I1119 23:06:43.899134 12775 net.cpp:408] LFCN_3_7x7_LFCN_3_7x7_0_split -> LFCN_3_7x7_LFCN_3_7x7_0_split_1
I1119 23:06:43.899140 12775 net.cpp:408] LFCN_3_7x7_LFCN_3_7x7_0_split -> LFCN_3_7x7_LFCN_3_7x7_0_split_2
I1119 23:06:43.899188 12775 net.cpp:150] Setting up LFCN_3_7x7_LFCN_3_7x7_0_split
I1119 23:06:43.899195 12775 net.cpp:157] Top shape: 3 9 24 24 (15552)
I1119 23:06:43.899200 12775 net.cpp:157] Top shape: 3 9 24 24 (15552)
I1119 23:06:43.899204 12775 net.cpp:157] Top shape: 3 9 24 24 (15552)
I1119 23:06:43.899207 12775 net.cpp:165] Memory required for data: 4737764868
I1119 23:06:43.899211 12775 layer_factory.hpp:77] Creating layer detection_loss_3_7x7
I1119 23:06:43.899216 12775 net.cpp:100] Creating Layer detection_loss_3_7x7
I1119 23:06:43.899221 12775 net.cpp:434] detection_loss_3_7x7 <- LFCN_3_7x7_LFCN_3_7x7_0_split_0
I1119 23:06:43.899225 12775 net.cpp:434] detection_loss_3_7x7 <- label_3_7x7_data_6_split_0
I1119 23:06:43.899230 12775 net.cpp:408] detection_loss_3_7x7 -> loss_3_7x7
I1119 23:06:43.899237 12775 layer_factory.hpp:77] Creating layer detection_loss_3_7x7
I1119 23:06:43.899834 12775 net.cpp:150] Setting up detection_loss_3_7x7
I1119 23:06:43.899847 12775 net.cpp:157] Top shape: 1 1 1 2 (2)
I1119 23:06:43.899850 12775 net.cpp:160]     with loss weight 1
I1119 23:06:43.899857 12775 net.cpp:165] Memory required for data: 4737764876
I1119 23:06:43.899861 12775 layer_factory.hpp:77] Creating layer detection_accuracy_3_7x7
I1119 23:06:43.899868 12775 net.cpp:100] Creating Layer detection_accuracy_3_7x7
I1119 23:06:43.899871 12775 net.cpp:434] detection_accuracy_3_7x7 <- LFCN_3_7x7_LFCN_3_7x7_0_split_1
I1119 23:06:43.899876 12775 net.cpp:434] detection_accuracy_3_7x7 <- label_3_7x7_data_6_split_1
I1119 23:06:43.899881 12775 net.cpp:408] detection_accuracy_3_7x7 -> accuracy_3_7x7
I1119 23:06:43.899888 12775 net.cpp:408] detection_accuracy_3_7x7 -> boxiou_3_7x7
I1119 23:06:43.899921 12775 net.cpp:150] Setting up detection_accuracy_3_7x7
I1119 23:06:43.899929 12775 net.cpp:157] Top shape: 1 1 1 2 (2)
I1119 23:06:43.899932 12775 net.cpp:157] Top shape: 1 1 1 1 (1)
I1119 23:06:43.899936 12775 net.cpp:165] Memory required for data: 4737764888
I1119 23:06:43.899940 12775 layer_factory.hpp:77] Creating layer pool6
I1119 23:06:43.899945 12775 net.cpp:100] Creating Layer pool6
I1119 23:06:43.899950 12775 net.cpp:434] pool6 <- conv6_1_relu6_1_0_split_2
I1119 23:06:43.899955 12775 net.cpp:408] pool6 -> pool6
I1119 23:06:43.899991 12775 net.cpp:150] Setting up pool6
I1119 23:06:43.899997 12775 net.cpp:157] Top shape: 3 512 12 12 (221184)
I1119 23:06:43.900002 12775 net.cpp:165] Memory required for data: 4738649624
I1119 23:06:43.900004 12775 layer_factory.hpp:77] Creating layer LFCN_4_5x5
I1119 23:06:43.900012 12775 net.cpp:100] Creating Layer LFCN_4_5x5
I1119 23:06:43.900015 12775 net.cpp:434] LFCN_4_5x5 <- pool6
I1119 23:06:43.900020 12775 net.cpp:408] LFCN_4_5x5 -> LFCN_4_5x5
I1119 23:06:43.903601 12775 net.cpp:150] Setting up LFCN_4_5x5
I1119 23:06:43.903612 12775 net.cpp:157] Top shape: 3 9 12 12 (3888)
I1119 23:06:43.903616 12775 net.cpp:165] Memory required for data: 4738665176
I1119 23:06:43.903622 12775 layer_factory.hpp:77] Creating layer LFCN_4_5x5_LFCN_4_5x5_0_split
I1119 23:06:43.903628 12775 net.cpp:100] Creating Layer LFCN_4_5x5_LFCN_4_5x5_0_split
I1119 23:06:43.903632 12775 net.cpp:434] LFCN_4_5x5_LFCN_4_5x5_0_split <- LFCN_4_5x5
I1119 23:06:43.903637 12775 net.cpp:408] LFCN_4_5x5_LFCN_4_5x5_0_split -> LFCN_4_5x5_LFCN_4_5x5_0_split_0
I1119 23:06:43.903645 12775 net.cpp:408] LFCN_4_5x5_LFCN_4_5x5_0_split -> LFCN_4_5x5_LFCN_4_5x5_0_split_1
I1119 23:06:43.903650 12775 net.cpp:408] LFCN_4_5x5_LFCN_4_5x5_0_split -> LFCN_4_5x5_LFCN_4_5x5_0_split_2
I1119 23:06:43.903697 12775 net.cpp:150] Setting up LFCN_4_5x5_LFCN_4_5x5_0_split
I1119 23:06:43.903704 12775 net.cpp:157] Top shape: 3 9 12 12 (3888)
I1119 23:06:43.903709 12775 net.cpp:157] Top shape: 3 9 12 12 (3888)
I1119 23:06:43.903712 12775 net.cpp:157] Top shape: 3 9 12 12 (3888)
I1119 23:06:43.903715 12775 net.cpp:165] Memory required for data: 4738711832
I1119 23:06:43.903718 12775 layer_factory.hpp:77] Creating layer detection_loss_4_5x5
I1119 23:06:43.903723 12775 net.cpp:100] Creating Layer detection_loss_4_5x5
I1119 23:06:43.903726 12775 net.cpp:434] detection_loss_4_5x5 <- LFCN_4_5x5_LFCN_4_5x5_0_split_0
I1119 23:06:43.903730 12775 net.cpp:434] detection_loss_4_5x5 <- label_4_5x5_data_7_split_0
I1119 23:06:43.903734 12775 net.cpp:408] detection_loss_4_5x5 -> loss_4_5x5
I1119 23:06:43.903741 12775 layer_factory.hpp:77] Creating layer detection_loss_4_5x5
I1119 23:06:43.904330 12775 net.cpp:150] Setting up detection_loss_4_5x5
I1119 23:06:43.904342 12775 net.cpp:157] Top shape: 1 1 1 2 (2)
I1119 23:06:43.904345 12775 net.cpp:160]     with loss weight 1
I1119 23:06:43.904351 12775 net.cpp:165] Memory required for data: 4738711840
I1119 23:06:43.904355 12775 layer_factory.hpp:77] Creating layer detection_accuracy_4_5x5
I1119 23:06:43.904361 12775 net.cpp:100] Creating Layer detection_accuracy_4_5x5
I1119 23:06:43.904364 12775 net.cpp:434] detection_accuracy_4_5x5 <- LFCN_4_5x5_LFCN_4_5x5_0_split_1
I1119 23:06:43.904369 12775 net.cpp:434] detection_accuracy_4_5x5 <- label_4_5x5_data_7_split_1
I1119 23:06:43.904374 12775 net.cpp:408] detection_accuracy_4_5x5 -> accuracy_4_5x5
I1119 23:06:43.904381 12775 net.cpp:408] detection_accuracy_4_5x5 -> boxiou_4_5x5
I1119 23:06:43.904413 12775 net.cpp:150] Setting up detection_accuracy_4_5x5
I1119 23:06:43.904420 12775 net.cpp:157] Top shape: 1 1 1 2 (2)
I1119 23:06:43.904425 12775 net.cpp:157] Top shape: 1 1 1 1 (1)
I1119 23:06:43.904428 12775 net.cpp:165] Memory required for data: 4738711852
I1119 23:06:43.904431 12775 layer_factory.hpp:77] Creating layer proposals
I1119 23:06:43.904444 12775 net.cpp:100] Creating Layer proposals
I1119 23:06:43.904448 12775 net.cpp:434] proposals <- LFCN_1_5x5_LFCN_1_5x5_0_split_2
I1119 23:06:43.904453 12775 net.cpp:434] proposals <- LFCN_1_7x7_LFCN_1_7x7_0_split_2
I1119 23:06:43.904458 12775 net.cpp:434] proposals <- LFCN_2_5x5_LFCN_2_5x5_0_split_2
I1119 23:06:43.904461 12775 net.cpp:434] proposals <- LFCN_2_7x7_LFCN_2_7x7_0_split_2
I1119 23:06:43.904466 12775 net.cpp:434] proposals <- LFCN_3_5x5_LFCN_3_5x5_0_split_2
I1119 23:06:43.904470 12775 net.cpp:434] proposals <- LFCN_3_7x7_LFCN_3_7x7_0_split_2
I1119 23:06:43.904474 12775 net.cpp:434] proposals <- LFCN_4_5x5_LFCN_4_5x5_0_split_2
I1119 23:06:43.904479 12775 net.cpp:408] proposals -> proposals
I1119 23:06:43.904503 12775 net.cpp:150] Setting up proposals
I1119 23:06:43.904510 12775 net.cpp:157] Top shape: 1 5 1 1 (5)
I1119 23:06:43.904515 12775 net.cpp:165] Memory required for data: 4738711872
I1119 23:06:43.904517 12775 layer_factory.hpp:77] Creating layer proposal_info
I1119 23:06:43.904525 12775 net.cpp:100] Creating Layer proposal_info
I1119 23:06:43.904527 12775 net.cpp:434] proposal_info <- proposals
I1119 23:06:43.904532 12775 net.cpp:434] proposal_info <- gt_boxes
I1119 23:06:43.904536 12775 net.cpp:408] proposal_info -> rois
I1119 23:06:43.904546 12775 net.cpp:408] proposal_info -> proposal_labels
I1119 23:06:43.904553 12775 net.cpp:408] proposal_info -> proposal_targets
I1119 23:06:43.904559 12775 net.cpp:408] proposal_info -> box_inside_weights
I1119 23:06:43.904565 12775 net.cpp:408] proposal_info -> box_outside_weights
I1119 23:06:43.904572 12775 net.cpp:408] proposal_info -> match_gt_boxes
I1119 23:06:43.904650 12775 net.cpp:150] Setting up proposal_info
I1119 23:06:43.904657 12775 net.cpp:157] Top shape: 256 5 1 1 (1280)
I1119 23:06:43.904662 12775 net.cpp:157] Top shape: 256 1 1 1 (256)
I1119 23:06:43.904666 12775 net.cpp:157] Top shape: 256 20 1 1 (5120)
I1119 23:06:43.904670 12775 net.cpp:157] Top shape: 256 20 1 1 (5120)
I1119 23:06:43.904675 12775 net.cpp:157] Top shape: 256 20 1 1 (5120)
I1119 23:06:43.904678 12775 net.cpp:157] Top shape: 256 6 1 1 (1536)
I1119 23:06:43.904681 12775 net.cpp:165] Memory required for data: 4738785600
I1119 23:06:43.904685 12775 layer_factory.hpp:77] Creating layer rois_proposal_info_0_split
I1119 23:06:43.904690 12775 net.cpp:100] Creating Layer rois_proposal_info_0_split
I1119 23:06:43.904693 12775 net.cpp:434] rois_proposal_info_0_split <- rois
I1119 23:06:43.904697 12775 net.cpp:408] rois_proposal_info_0_split -> rois_proposal_info_0_split_0
I1119 23:06:43.904703 12775 net.cpp:408] rois_proposal_info_0_split -> rois_proposal_info_0_split_1
I1119 23:06:43.904708 12775 net.cpp:408] rois_proposal_info_0_split -> rois_proposal_info_0_split_2
I1119 23:06:43.904749 12775 net.cpp:150] Setting up rois_proposal_info_0_split
I1119 23:06:43.904755 12775 net.cpp:157] Top shape: 256 5 1 1 (1280)
I1119 23:06:43.904760 12775 net.cpp:157] Top shape: 256 5 1 1 (1280)
I1119 23:06:43.904763 12775 net.cpp:157] Top shape: 256 5 1 1 (1280)
I1119 23:06:43.904767 12775 net.cpp:165] Memory required for data: 4738800960
I1119 23:06:43.904770 12775 layer_factory.hpp:77] Creating layer proposal_labels_proposal_info_1_split
I1119 23:06:43.904774 12775 net.cpp:100] Creating Layer proposal_labels_proposal_info_1_split
I1119 23:06:43.904778 12775 net.cpp:434] proposal_labels_proposal_info_1_split <- proposal_labels
I1119 23:06:43.904783 12775 net.cpp:408] proposal_labels_proposal_info_1_split -> proposal_labels_proposal_info_1_split_0
I1119 23:06:43.904788 12775 net.cpp:408] proposal_labels_proposal_info_1_split -> proposal_labels_proposal_info_1_split_1
I1119 23:06:43.904817 12775 net.cpp:150] Setting up proposal_labels_proposal_info_1_split
I1119 23:06:43.904824 12775 net.cpp:157] Top shape: 256 1 1 1 (256)
I1119 23:06:43.904827 12775 net.cpp:157] Top shape: 256 1 1 1 (256)
I1119 23:06:43.904830 12775 net.cpp:165] Memory required for data: 4738803008
I1119 23:06:43.904834 12775 layer_factory.hpp:77] Creating layer softmax
I1119 23:06:43.904839 12775 net.cpp:100] Creating Layer softmax
I1119 23:06:43.904842 12775 net.cpp:434] softmax <- attention_attention_0_split_1
I1119 23:06:43.904847 12775 net.cpp:408] softmax -> softmax_attention
I1119 23:06:43.905074 12775 net.cpp:150] Setting up softmax
I1119 23:06:43.905103 12775 net.cpp:157] Top shape: 3 3 96 96 (82944)
I1119 23:06:43.905107 12775 net.cpp:165] Memory required for data: 4739134784
I1119 23:06:43.905112 12775 layer_factory.hpp:77] Creating layer slice1
I1119 23:06:43.905119 12775 net.cpp:100] Creating Layer slice1
I1119 23:06:43.905123 12775 net.cpp:434] slice1 <- softmax_attention
I1119 23:06:43.905130 12775 net.cpp:408] slice1 -> bg
I1119 23:06:43.905138 12775 net.cpp:408] slice1 -> attention1
I1119 23:06:43.905180 12775 net.cpp:150] Setting up slice1
I1119 23:06:43.905189 12775 net.cpp:157] Top shape: 3 1 96 96 (27648)
I1119 23:06:43.905194 12775 net.cpp:157] Top shape: 3 2 96 96 (55296)
I1119 23:06:43.905197 12775 net.cpp:165] Memory required for data: 4739466560
I1119 23:06:43.905201 12775 layer_factory.hpp:77] Creating layer silence
I1119 23:06:43.905211 12775 net.cpp:100] Creating Layer silence
I1119 23:06:43.905216 12775 net.cpp:434] silence <- bg
I1119 23:06:43.905220 12775 net.cpp:150] Setting up silence
I1119 23:06:43.905223 12775 net.cpp:165] Memory required for data: 4739466560
I1119 23:06:43.905226 12775 layer_factory.hpp:77] Creating layer conv4_3_new
I1119 23:06:43.905231 12775 net.cpp:100] Creating Layer conv4_3_new
I1119 23:06:43.905236 12775 net.cpp:434] conv4_3_new <- conv4_3_relu4_3_0_split_3
I1119 23:06:43.905239 12775 net.cpp:434] conv4_3_new <- attention1
I1119 23:06:43.905244 12775 net.cpp:408] conv4_3_new -> conv4_3_new
I1119 23:06:43.905275 12775 net.cpp:150] Setting up conv4_3_new
I1119 23:06:43.905282 12775 net.cpp:157] Top shape: 3 514 96 96 (14211072)
I1119 23:06:43.905287 12775 net.cpp:165] Memory required for data: 4796310848
I1119 23:06:43.905289 12775 layer_factory.hpp:77] Creating layer conv4_3_2x
I1119 23:06:43.905297 12775 net.cpp:100] Creating Layer conv4_3_2x
I1119 23:06:43.905300 12775 net.cpp:434] conv4_3_2x <- conv4_3_new
I1119 23:06:43.905305 12775 net.cpp:408] conv4_3_2x -> conv4_3_2x
I1119 23:06:43.905779 12775 net.cpp:150] Setting up conv4_3_2x
I1119 23:06:43.905787 12775 net.cpp:157] Top shape: 3 514 192 192 (56844288)
I1119 23:06:43.905791 12775 net.cpp:165] Memory required for data: 5023688000
I1119 23:06:43.905795 12775 layer_factory.hpp:77] Creating layer conv4_3_2x_conv4_3_2x_0_split
I1119 23:06:43.905799 12775 net.cpp:100] Creating Layer conv4_3_2x_conv4_3_2x_0_split
I1119 23:06:43.905803 12775 net.cpp:434] conv4_3_2x_conv4_3_2x_0_split <- conv4_3_2x
I1119 23:06:43.905808 12775 net.cpp:408] conv4_3_2x_conv4_3_2x_0_split -> conv4_3_2x_conv4_3_2x_0_split_0
I1119 23:06:43.905814 12775 net.cpp:408] conv4_3_2x_conv4_3_2x_0_split -> conv4_3_2x_conv4_3_2x_0_split_1
I1119 23:06:43.905845 12775 net.cpp:150] Setting up conv4_3_2x_conv4_3_2x_0_split
I1119 23:06:43.905851 12775 net.cpp:157] Top shape: 3 514 192 192 (56844288)
I1119 23:06:43.905855 12775 net.cpp:157] Top shape: 3 514 192 192 (56844288)
I1119 23:06:43.905859 12775 net.cpp:165] Memory required for data: 5478442304
I1119 23:06:43.905863 12775 layer_factory.hpp:77] Creating layer roi_pool_org
I1119 23:06:43.905867 12775 net.cpp:100] Creating Layer roi_pool_org
I1119 23:06:43.905871 12775 net.cpp:434] roi_pool_org <- conv4_3_2x_conv4_3_2x_0_split_0
I1119 23:06:43.905875 12775 net.cpp:434] roi_pool_org <- rois_proposal_info_0_split_0
I1119 23:06:43.905880 12775 net.cpp:408] roi_pool_org -> roi_pool_org
I1119 23:06:43.905889 12775 roi_pooling_layer.cpp:33] Spatial scale: 0.25
I1119 23:06:43.905922 12775 net.cpp:150] Setting up roi_pool_org
I1119 23:06:43.905928 12775 net.cpp:157] Top shape: 256 514 7 7 (6447616)
I1119 23:06:43.905931 12775 net.cpp:165] Memory required for data: 5504232768
I1119 23:06:43.905935 12775 layer_factory.hpp:77] Creating layer roi_pool_ctx
I1119 23:06:43.905939 12775 net.cpp:100] Creating Layer roi_pool_ctx
I1119 23:06:43.905943 12775 net.cpp:434] roi_pool_ctx <- conv4_3_2x_conv4_3_2x_0_split_1
I1119 23:06:43.905947 12775 net.cpp:434] roi_pool_ctx <- rois_proposal_info_0_split_1
I1119 23:06:43.905952 12775 net.cpp:408] roi_pool_ctx -> roi_pool_ctx
I1119 23:06:43.905957 12775 roi_pooling_layer.cpp:33] Spatial scale: 0.25
I1119 23:06:43.905988 12775 net.cpp:150] Setting up roi_pool_ctx
I1119 23:06:43.905994 12775 net.cpp:157] Top shape: 256 514 7 7 (6447616)
I1119 23:06:43.905997 12775 net.cpp:165] Memory required for data: 5530023232
I1119 23:06:43.906000 12775 layer_factory.hpp:77] Creating layer roi_pool
I1119 23:06:43.906006 12775 net.cpp:100] Creating Layer roi_pool
I1119 23:06:43.906009 12775 net.cpp:434] roi_pool <- roi_pool_org
I1119 23:06:43.906013 12775 net.cpp:434] roi_pool <- roi_pool_ctx
I1119 23:06:43.906018 12775 net.cpp:408] roi_pool -> roi_pool
I1119 23:06:43.906038 12775 net.cpp:150] Setting up roi_pool
I1119 23:06:43.906044 12775 net.cpp:157] Top shape: 256 1028 7 7 (12895232)
I1119 23:06:43.906046 12775 net.cpp:165] Memory required for data: 5581604160
I1119 23:06:43.906049 12775 layer_factory.hpp:77] Creating layer roi_c1
I1119 23:06:43.906056 12775 net.cpp:100] Creating Layer roi_c1
I1119 23:06:43.906060 12775 net.cpp:434] roi_c1 <- roi_pool
I1119 23:06:43.906065 12775 net.cpp:408] roi_c1 -> roi_c1
I1119 23:06:44.022503 12775 net.cpp:150] Setting up roi_c1
I1119 23:06:44.022534 12775 net.cpp:157] Top shape: 256 512 5 5 (3276800)
I1119 23:06:44.022538 12775 net.cpp:165] Memory required for data: 5594711360
I1119 23:06:44.022548 12775 layer_factory.hpp:77] Creating layer roi_c1_relu
I1119 23:06:44.022559 12775 net.cpp:100] Creating Layer roi_c1_relu
I1119 23:06:44.022567 12775 net.cpp:434] roi_c1_relu <- roi_c1
I1119 23:06:44.022572 12775 net.cpp:395] roi_c1_relu -> roi_c1 (in-place)
I1119 23:06:44.022718 12775 net.cpp:150] Setting up roi_c1_relu
I1119 23:06:44.022727 12775 net.cpp:157] Top shape: 256 512 5 5 (3276800)
I1119 23:06:44.022732 12775 net.cpp:165] Memory required for data: 5607818560
I1119 23:06:44.022735 12775 layer_factory.hpp:77] Creating layer fc6
I1119 23:06:44.022742 12775 net.cpp:100] Creating Layer fc6
I1119 23:06:44.022747 12775 net.cpp:434] fc6 <- roi_c1
I1119 23:06:44.022753 12775 net.cpp:408] fc6 -> fc6
I1119 23:06:45.235008 12775 net.cpp:150] Setting up fc6
I1119 23:06:45.235046 12775 net.cpp:157] Top shape: 256 4096 (1048576)
I1119 23:06:45.235050 12775 net.cpp:165] Memory required for data: 5612012864
I1119 23:06:45.235061 12775 layer_factory.hpp:77] Creating layer relu6
I1119 23:06:45.235075 12775 net.cpp:100] Creating Layer relu6
I1119 23:06:45.235081 12775 net.cpp:434] relu6 <- fc6
I1119 23:06:45.235088 12775 net.cpp:395] relu6 -> fc6 (in-place)
I1119 23:06:45.235308 12775 net.cpp:150] Setting up relu6
I1119 23:06:45.235318 12775 net.cpp:157] Top shape: 256 4096 (1048576)
I1119 23:06:45.235322 12775 net.cpp:165] Memory required for data: 5616207168
I1119 23:06:45.235325 12775 layer_factory.hpp:77] Creating layer drop6
I1119 23:06:45.235344 12775 net.cpp:100] Creating Layer drop6
I1119 23:06:45.235347 12775 net.cpp:434] drop6 <- fc6
I1119 23:06:45.235352 12775 net.cpp:395] drop6 -> fc6 (in-place)
I1119 23:06:45.235376 12775 net.cpp:150] Setting up drop6
I1119 23:06:45.235383 12775 net.cpp:157] Top shape: 256 4096 (1048576)
I1119 23:06:45.235385 12775 net.cpp:165] Memory required for data: 5620401472
I1119 23:06:45.235389 12775 layer_factory.hpp:77] Creating layer fc6_drop6_0_split
I1119 23:06:45.235394 12775 net.cpp:100] Creating Layer fc6_drop6_0_split
I1119 23:06:45.235397 12775 net.cpp:434] fc6_drop6_0_split <- fc6
I1119 23:06:45.235402 12775 net.cpp:408] fc6_drop6_0_split -> fc6_drop6_0_split_0
I1119 23:06:45.235409 12775 net.cpp:408] fc6_drop6_0_split -> fc6_drop6_0_split_1
I1119 23:06:45.235442 12775 net.cpp:150] Setting up fc6_drop6_0_split
I1119 23:06:45.235448 12775 net.cpp:157] Top shape: 256 4096 (1048576)
I1119 23:06:45.235452 12775 net.cpp:157] Top shape: 256 4096 (1048576)
I1119 23:06:45.235455 12775 net.cpp:165] Memory required for data: 5628790080
I1119 23:06:45.235458 12775 layer_factory.hpp:77] Creating layer cls_pred
I1119 23:06:45.235466 12775 net.cpp:100] Creating Layer cls_pred
I1119 23:06:45.235469 12775 net.cpp:434] cls_pred <- fc6_drop6_0_split_0
I1119 23:06:45.235476 12775 net.cpp:408] cls_pred -> cls_pred
I1119 23:06:45.236088 12775 net.cpp:150] Setting up cls_pred
I1119 23:06:45.236094 12775 net.cpp:157] Top shape: 256 5 (1280)
I1119 23:06:45.236099 12775 net.cpp:165] Memory required for data: 5628795200
I1119 23:06:45.236104 12775 layer_factory.hpp:77] Creating layer cls_pred_cls_pred_0_split
I1119 23:06:45.236109 12775 net.cpp:100] Creating Layer cls_pred_cls_pred_0_split
I1119 23:06:45.236112 12775 net.cpp:434] cls_pred_cls_pred_0_split <- cls_pred
I1119 23:06:45.236116 12775 net.cpp:408] cls_pred_cls_pred_0_split -> cls_pred_cls_pred_0_split_0
I1119 23:06:45.236122 12775 net.cpp:408] cls_pred_cls_pred_0_split -> cls_pred_cls_pred_0_split_1
I1119 23:06:45.236158 12775 net.cpp:150] Setting up cls_pred_cls_pred_0_split
I1119 23:06:45.236165 12775 net.cpp:157] Top shape: 256 5 (1280)
I1119 23:06:45.236168 12775 net.cpp:157] Top shape: 256 5 (1280)
I1119 23:06:45.236171 12775 net.cpp:165] Memory required for data: 5628805440
I1119 23:06:45.236174 12775 layer_factory.hpp:77] Creating layer bbox_pred
I1119 23:06:45.236181 12775 net.cpp:100] Creating Layer bbox_pred
I1119 23:06:45.236184 12775 net.cpp:434] bbox_pred <- fc6_drop6_0_split_1
I1119 23:06:45.236189 12775 net.cpp:408] bbox_pred -> bbox_pred
I1119 23:06:45.238404 12775 net.cpp:150] Setting up bbox_pred
I1119 23:06:45.238412 12775 net.cpp:157] Top shape: 256 20 (5120)
I1119 23:06:45.238416 12775 net.cpp:165] Memory required for data: 5628825920
I1119 23:06:45.238422 12775 layer_factory.hpp:77] Creating layer bbox_pred_bbox_pred_0_split
I1119 23:06:45.238427 12775 net.cpp:100] Creating Layer bbox_pred_bbox_pred_0_split
I1119 23:06:45.238431 12775 net.cpp:434] bbox_pred_bbox_pred_0_split <- bbox_pred
I1119 23:06:45.238436 12775 net.cpp:408] bbox_pred_bbox_pred_0_split -> bbox_pred_bbox_pred_0_split_0
I1119 23:06:45.238443 12775 net.cpp:408] bbox_pred_bbox_pred_0_split -> bbox_pred_bbox_pred_0_split_1
I1119 23:06:45.238472 12775 net.cpp:150] Setting up bbox_pred_bbox_pred_0_split
I1119 23:06:45.238478 12775 net.cpp:157] Top shape: 256 20 (5120)
I1119 23:06:45.238482 12775 net.cpp:157] Top shape: 256 20 (5120)
I1119 23:06:45.238485 12775 net.cpp:165] Memory required for data: 5628866880
I1119 23:06:45.238489 12775 layer_factory.hpp:77] Creating layer loss_cls
I1119 23:06:45.238495 12775 net.cpp:100] Creating Layer loss_cls
I1119 23:06:45.238499 12775 net.cpp:434] loss_cls <- cls_pred_cls_pred_0_split_0
I1119 23:06:45.238504 12775 net.cpp:434] loss_cls <- proposal_labels_proposal_info_1_split_0
…
I1119 23:06:45.251446 12775 image_gt_data_layer.cpp:235] output label size 2 : 1,6,48,48
I1119 23:06:45.251493 12775 image_gt_data_layer.cpp:235] output label size 3 : 1,6,48,48
I1119 23:06:45.251540 12775 image_gt_data_layer.cpp:235] output label size 4 : 1,6,24,24
I1119 23:06:45.251587 12775 image_gt_data_layer.cpp:235] output label size 5 : 1,6,24,24
I1119 23:06:45.251634 12775 image_gt_data_layer.cpp:235] output label size 6 : 1,6,12,12
I1119 23:06:45.251682 12775 image_gt_data_layer.cpp:250] output gt boxes size: 1,7,1,1
I1119 23:06:45.270337 12775 net.cpp:150] Setting up data
I1119 23:06:45.270365 12775 net.cpp:157] Top shape: 1 4 768 768 (2359296)
I1119 23:06:45.270371 12775 net.cpp:157] Top shape: 1 6 96 96 (55296)
I1119 23:06:45.270375 12775 net.cpp:157] Top shape: 1 6 96 96 (55296)
I1119 23:06:45.270380 12775 net.cpp:157] Top shape: 1 6 48 48 (13824)
I1119 23:06:45.270385 12775 net.cpp:157] Top shape: 1 6 48 48 (13824)
I1119 23:06:45.270390 12775 net.cpp:157] Top shape: 1 6 24 24 (3456)
I1119 23:06:45.270393 12775 net.cpp:157] Top shape: 1 6 24 24 (3456)
I1119 23:06:45.270398 12775 net.cpp:157] Top shape: 1 6 12 12 (864)
I1119 23:06:45.270403 12775 net.cpp:157] Top shape: 1 7 1 1 (7)
I1119 23:06:45.270407 12775 net.cpp:165] Memory required for data: 10021276
I1119 23:06:45.270414 12775 layer_factory.hpp:77] Creating layer label_1_5x5_data_1_split
I1119 23:06:45.270428 12775 net.cpp:100] Creating Layer label_1_5x5_data_1_split
I1119 23:06:45.270434 12775 net.cpp:434] label_1_5x5_data_1_split <- label_1_5x5
I1119 23:06:45.270442 12775 net.cpp:408] label_1_5x5_data_1_split -> label_1_5x5_data_1_split_0
I1119 23:06:45.270450 12775 net.cpp:408] label_1_5x5_data_1_split -> label_1_5x5_data_1_split_1
I1119 23:06:45.270974 12775 net.cpp:150] Setting up label_1_5x5_data_1_split
I1119 23:06:45.271018 12775 net.cpp:157] Top shape: 1 6 96 96 (55296)
I1119 23:06:45.271028 12775 net.cpp:157] Top shape: 1 6 96 96 (55296)
I1119 23:06:45.271036 12775 net.cpp:165] Memory required for data: 10463644
I1119 23:06:45.271049 12775 layer_factory.hpp:77] Creating layer label_1_7x7_data_2_split
I1119 23:06:45.271070 12775 net.cpp:100] Creating Layer label_1_7x7_data_2_split
I1119 23:06:45.271080 12775 net.cpp:434] label_1_7x7_data_2_split <- label_1_7x7
I1119 23:06:45.271092 12775 net.cpp:408] label_1_7x7_data_2_split -> label_1_7x7_data_2_split_0
I1119 23:06:45.271111 12775 net.cpp:408] label_1_7x7_data_2_split -> label_1_7x7_data_2_split_1
I1119 23:06:45.271188 12775 net.cpp:150] Setting up label_1_7x7_data_2_split
I1119 23:06:45.271199 12775 net.cpp:157] Top shape: 1 6 96 96 (55296)
I1119 23:06:45.271209 12775 net.cpp:157] Top shape: 1 6 96 96 (55296)
I1119 23:06:45.271215 12775 net.cpp:165] Memory required for data: 10906012
I1119 23:06:45.271224 12775 layer_factory.hpp:77] Creating layer label_2_5x5_data_3_split
I1119 23:06:45.271234 12775 net.cpp:100] Creating Layer label_2_5x5_data_3_split
I1119 23:06:45.271240 12775 net.cpp:434] label_2_5x5_data_3_split <- label_2_5x5
I1119 23:06:45.271251 12775 net.cpp:408] label_2_5x5_data_3_split -> label_2_5x5_data_3_split_0
I1119 23:06:45.271263 12775 net.cpp:408] label_2_5x5_data_3_split -> label_2_5x5_data_3_split_1
I1119 23:06:45.271333 12775 net.cpp:150] Setting up label_2_5x5_data_3_split
I1119 23:06:45.271344 12775 net.cpp:157] Top shape: 1 6 48 48 (13824)
I1119 23:06:45.271353 12775 net.cpp:157] Top shape: 1 6 48 48 (13824)
I1119 23:06:45.271360 12775 net.cpp:165] Memory required for data: 11016604
I1119 23:06:45.271368 12775 layer_factory.hpp:77] Creating layer label_2_7x7_data_4_split
I1119 23:06:45.271378 12775 net.cpp:100] Creating Layer label_2_7x7_data_4_split
I1119 23:06:45.271385 12775 net.cpp:434] label_2_7x7_data_4_split <- label_2_7x7
I1119 23:06:45.271395 12775 net.cpp:408] label_2_7x7_data_4_split -> label_2_7x7_data_4_split_0
I1119 23:06:45.271407 12775 net.cpp:408] label_2_7x7_data_4_split -> label_2_7x7_data_4_split_1
I1119 23:06:45.271477 12775 net.cpp:150] Setting up label_2_7x7_data_4_split
I1119 23:06:45.271488 12775 net.cpp:157] Top shape: 1 6 48 48 (13824)
I1119 23:06:45.271498 12775 net.cpp:157] Top shape: 1 6 48 48 (13824)
I1119 23:06:45.271505 12775 net.cpp:165] Memory required for data: 11127196
I1119 23:06:45.271512 12775 layer_factory.hpp:77] Creating layer label_3_5x5_data_5_split
I1119 23:06:45.271522 12775 net.cpp:100] Creating Layer label_3_5x5_data_5_split
I1119 23:06:45.271529 12775 net.cpp:434] label_3_5x5_data_5_split <- label_3_5x5
I1119 23:06:45.271539 12775 net.cpp:408] label_3_5x5_data_5_split -> label_3_5x5_data_5_split_0
I1119 23:06:45.271550 12775 net.cpp:408] label_3_5x5_data_5_split -> label_3_5x5_data_5_split_1
I1119 23:06:45.271617 12775 net.cpp:150] Setting up label_3_5x5_data_5_split
I1119 23:06:45.271628 12775 net.cpp:157] Top shape: 1 6 24 24 (3456)
I1119 23:06:45.271637 12775 net.cpp:157] Top shape: 1 6 24 24 (3456)
I1119 23:06:45.271644 12775 net.cpp:165] Memory required for data: 11154844
I1119 23:06:45.271651 12775 layer_factory.hpp:77] Creating layer label_3_7x7_data_6_split
I1119 23:06:45.271661 12775 net.cpp:100] Creating Layer label_3_7x7_data_6_split
I1119 23:06:45.271667 12775 net.cpp:434] label_3_7x7_data_6_split <- label_3_7x7
I1119 23:06:45.271677 12775 net.cpp:408] label_3_7x7_data_6_split -> label_3_7x7_data_6_split_0
I1119 23:06:45.271688 12775 net.cpp:408] label_3_7x7_data_6_split -> label_3_7x7_data_6_split_1
I1119 23:06:45.271757 12775 net.cpp:150] Setting up label_3_7x7_data_6_split
I1119 23:06:45.271769 12775 net.cpp:157] Top shape: 1 6 24 24 (3456)
I1119 23:06:45.271777 12775 net.cpp:157] Top shape: 1 6 24 24 (3456)
I1119 23:06:45.271785 12775 net.cpp:165] Memory required for data: 11182492
I1119 23:06:45.271791 12775 layer_factory.hpp:77] Creating layer label_4_5x5_data_7_split
I1119 23:06:45.271801 12775 net.cpp:100] Creating Layer label_4_5x5_data_7_split
I1119 23:06:45.271809 12775 net.cpp:434] label_4_5x5_data_7_split <- label_4_5x5
I1119 23:06:45.271818 12775 net.cpp:408] label_4_5x5_data_7_split -> label_4_5x5_data_7_split_0
I1119 23:06:45.271831 12775 net.cpp:408] label_4_5x5_data_7_split -> label_4_5x5_data_7_split_1
I1119 23:06:45.271898 12775 net.cpp:150] Setting up label_4_5x5_data_7_split
I1119 23:06:45.271908 12775 net.cpp:157] Top shape: 1 6 12 12 (864)
I1119 23:06:45.271919 12775 net.cpp:157] Top shape: 1 6 12 12 (864)
I1119 23:06:45.271925 12775 net.cpp:165] Memory required for data: 11189404
I1119 23:06:45.271932 12775 layer_factory.hpp:77] Creating layer slice
I1119 23:06:45.271947 12775 net.cpp:100] Creating Layer slice
I1119 23:06:45.271955 12775 net.cpp:434] slice <- data
I1119 23:06:45.271965 12775 net.cpp:408] slice -> data123
I1119 23:06:45.271977 12775 net.cpp:408] slice -> ch4
I1119 23:06:45.272047 12775 net.cpp:150] Setting up slice
I1119 23:06:45.272058 12775 net.cpp:157] Top shape: 1 3 768 768 (1769472)
I1119 23:06:45.272068 12775 net.cpp:157] Top shape: 1 1 768 768 (589824)
I1119 23:06:45.272073 12775 net.cpp:165] Memory required for data: 20626588
I1119 23:06:45.272081 12775 layer_factory.hpp:77] Creating layer conv1_1
I1119 23:06:45.272097 12775 net.cpp:100] Creating Layer conv1_1
I1119 23:06:45.272105 12775 net.cpp:434] conv1_1 <- data123
I1119 23:06:45.272115 12775 net.cpp:408] conv1_1 -> conv1_1
I1119 23:06:45.279312 12775 net.cpp:150] Setting up conv1_1
I1119 23:06:45.279350 12775 net.cpp:157] Top shape: 1 64 768 768 (37748736)
I1119 23:06:45.279358 12775 net.cpp:165] Memory required for data: 171621532
I1119 23:06:45.279384 12775 layer_factory.hpp:77] Creating layer relu1_1
I1119 23:06:45.279403 12775 net.cpp:100] Creating Layer relu1_1
I1119 23:06:45.279414 12775 net.cpp:434] relu1_1 <- conv1_1
I1119 23:06:45.279426 12775 net.cpp:395] relu1_1 -> conv1_1 (in-place)
I1119 23:06:45.279789 12775 net.cpp:150] Setting up relu1_1
I1119 23:06:45.279806 12775 net.cpp:157] Top shape: 1 64 768 768 (37748736)
I1119 23:06:45.279814 12775 net.cpp:165] Memory required for data: 322616476
I1119 23:06:45.279821 12775 layer_factory.hpp:77] Creating layer conv1_2
I1119 23:06:45.279839 12775 net.cpp:100] Creating Layer conv1_2
I1119 23:06:45.279847 12775 net.cpp:434] conv1_2 <- conv1_1
I1119 23:06:45.279860 12775 net.cpp:408] conv1_2 -> conv1_2
I1119 23:06:45.284137 12775 net.cpp:150] Setting up conv1_2
I1119 23:06:45.284165 12775 net.cpp:157] Top shape: 1 64 768 768 (37748736)
I1119 23:06:45.284173 12775 net.cpp:165] Memory required for data: 473611420
I1119 23:06:45.284191 12775 layer_factory.hpp:77] Creating layer relu1_2
I1119 23:06:45.284204 12775 net.cpp:100] Creating Layer relu1_2
I1119 23:06:45.284214 12775 net.cpp:434] relu1_2 <- conv1_2
I1119 23:06:45.284222 12775 net.cpp:395] relu1_2 -> conv1_2 (in-place)
I1119 23:06:45.284552 12775 net.cpp:150] Setting up relu1_2
I1119 23:06:45.284566 12775 net.cpp:157] Top shape: 1 64 768 768 (37748736)
I1119 23:06:45.284572 12775 net.cpp:165] Memory required for data: 624606364
I1119 23:06:45.284579 12775 layer_factory.hpp:77] Creating layer pool1
I1119 23:06:45.284592 12775 net.cpp:100] Creating Layer pool1
I1119 23:06:45.284600 12775 net.cpp:434] pool1 <- conv1_2
I1119 23:06:45.284610 12775 net.cpp:408] pool1 -> pool1
I1119 23:06:45.284692 12775 net.cpp:150] Setting up pool1
I1119 23:06:45.284701 12775 net.cpp:157] Top shape: 1 64 384 384 (9437184)
I1119 23:06:45.284708 12775 net.cpp:165] Memory required for data: 662355100
I1119 23:06:45.284714 12775 layer_factory.hpp:77] Creating layer conv2_1
I1119 23:06:45.284729 12775 net.cpp:100] Creating Layer conv2_1
I1119 23:06:45.284735 12775 net.cpp:434] conv2_1 <- pool1
I1119 23:06:45.284744 12775 net.cpp:408] conv2_1 -> conv2_1
I1119 23:06:45.289029 12775 net.cpp:150] Setting up conv2_1
I1119 23:06:45.289053 12775 net.cpp:157] Top shape: 1 128 384 384 (18874368)
I1119 23:06:45.289062 12775 net.cpp:165] Memory required for data: 737852572
I1119 23:06:45.289119 12775 layer_factory.hpp:77] Creating layer relu2_1
I1119 23:06:45.289134 12775 net.cpp:100] Creating Layer relu2_1
I1119 23:06:45.289141 12775 net.cpp:434] relu2_1 <- conv2_1
I1119 23:06:45.289150 12775 net.cpp:395] relu2_1 -> conv2_1 (in-place)
I1119 23:06:45.289472 12775 net.cpp:150] Setting up relu2_1
I1119 23:06:45.289487 12775 net.cpp:157] Top shape: 1 128 384 384 (18874368)
I1119 23:06:45.289494 12775 net.cpp:165] Memory required for data: 813350044
I1119 23:06:45.289501 12775 layer_factory.hpp:77] Creating layer conv2_2
I1119 23:06:45.289520 12775 net.cpp:100] Creating Layer conv2_2
I1119 23:06:45.289526 12775 net.cpp:434] conv2_2 <- conv2_1
I1119 23:06:45.289537 12775 net.cpp:408] conv2_2 -> conv2_2
I1119 23:06:45.291843 12775 net.cpp:150] Setting up conv2_2
I1119 23:06:45.291855 12775 net.cpp:157] Top shape: 1 128 384 384 (18874368)
I1119 23:06:45.291859 12775 net.cpp:165] Memory required for data: 888847516
I1119 23:06:45.291867 12775 layer_factory.hpp:77] Creating layer relu2_2
I1119 23:06:45.291874 12775 net.cpp:100] Creating Layer relu2_2
I1119 23:06:45.291879 12775 net.cpp:434] relu2_2 <- conv2_2
I1119 23:06:45.291885 12775 net.cpp:395] relu2_2 -> conv2_2 (in-place)
I1119 23:06:45.292063 12775 net.cpp:150] Setting up relu2_2
I1119 23:06:45.292071 12775 net.cpp:157] Top shape: 1 128 384 384 (18874368)
I1119 23:06:45.292075 12775 net.cpp:165] Memory required for data: 964344988
I1119 23:06:45.292079 12775 layer_factory.hpp:77] Creating layer pool2
I1119 23:06:45.292088 12775 net.cpp:100] Creating Layer pool2
I1119 23:06:45.292093 12775 net.cpp:434] pool2 <- conv2_2
I1119 23:06:45.292098 12775 net.cpp:408] pool2 -> pool2
I1119 23:06:45.292141 12775 net.cpp:150] Setting up pool2
I1119 23:06:45.292147 12775 net.cpp:157] Top shape: 1 128 192 192 (4718592)
I1119 23:06:45.292151 12775 net.cpp:165] Memory required for data: 983219356
I1119 23:06:45.292155 12775 layer_factory.hpp:77] Creating layer conv3_1
I1119 23:06:45.292162 12775 net.cpp:100] Creating Layer conv3_1
I1119 23:06:45.292166 12775 net.cpp:434] conv3_1 <- pool2
I1119 23:06:45.292172 12775 net.cpp:408] conv3_1 -> conv3_1
I1119 23:06:45.297863 12775 net.cpp:150] Setting up conv3_1
I1119 23:06:45.297891 12775 net.cpp:157] Top shape: 1 256 192 192 (9437184)
I1119 23:06:45.297901 12775 net.cpp:165] Memory required for data: 1020968092
I1119 23:06:45.297924 12775 layer_factory.hpp:77] Creating layer relu3_1
I1119 23:06:45.297940 12775 net.cpp:100] Creating Layer relu3_1
I1119 23:06:45.297950 12775 net.cpp:434] relu3_1 <- conv3_1
I1119 23:06:45.297960 12775 net.cpp:395] relu3_1 -> conv3_1 (in-place)
I1119 23:06:45.299376 12775 net.cpp:150] Setting up relu3_1
I1119 23:06:45.299401 12775 net.cpp:157] Top shape: 1 256 192 192 (9437184)
I1119 23:06:45.299410 12775 net.cpp:165] Memory required for data: 1058716828
I1119 23:06:45.299419 12775 layer_factory.hpp:77] Creating layer conv3_2
I1119 23:06:45.299437 12775 net.cpp:100] Creating Layer conv3_2
I1119 23:06:45.299448 12775 net.cpp:434] conv3_2 <- conv3_1
I1119 23:06:45.299459 12775 net.cpp:408] conv3_2 -> conv3_2
I1119 23:06:45.304416 12775 net.cpp:150] Setting up conv3_2
I1119 23:06:45.304467 12775 net.cpp:157] Top shape: 1 256 192 192 (9437184)
I1119 23:06:45.304476 12775 net.cpp:165] Memory required for data: 1096465564
I1119 23:06:45.304494 12775 layer_factory.hpp:77] Creating layer relu3_2
I1119 23:06:45.304512 12775 net.cpp:100] Creating Layer relu3_2
I1119 23:06:45.304522 12775 net.cpp:434] relu3_2 <- conv3_2
I1119 23:06:45.304535 12775 net.cpp:395] relu3_2 -> conv3_2 (in-place)
I1119 23:06:45.305532 12775 net.cpp:150] Setting up relu3_2
I1119 23:06:45.305562 12775 net.cpp:157] Top shape: 1 256 192 192 (9437184)
I1119 23:06:45.305569 12775 net.cpp:165] Memory required for data: 1134214300
I1119 23:06:45.305577 12775 layer_factory.hpp:77] Creating layer conv3_3
I1119 23:06:45.305598 12775 net.cpp:100] Creating Layer conv3_3
I1119 23:06:45.305605 12775 net.cpp:434] conv3_3 <- conv3_2
I1119 23:06:45.305618 12775 net.cpp:408] conv3_3 -> conv3_3
I1119 23:06:45.310473 12775 net.cpp:150] Setting up conv3_3
I1119 23:06:45.310503 12775 net.cpp:157] Top shape: 1 256 192 192 (9437184)
I1119 23:06:45.310510 12775 net.cpp:165] Memory required for data: 1171963036
I1119 23:06:45.310525 12775 layer_factory.hpp:77] Creating layer relu3_3
I1119 23:06:45.310540 12775 net.cpp:100] Creating Layer relu3_3
I1119 23:06:45.310549 12775 net.cpp:434] relu3_3 <- conv3_3
I1119 23:06:45.310559 12775 net.cpp:395] relu3_3 -> conv3_3 (in-place)
I1119 23:06:45.310895 12775 net.cpp:150] Setting up relu3_3
I1119 23:06:45.310914 12775 net.cpp:157] Top shape: 1 256 192 192 (9437184)
I1119 23:06:45.310920 12775 net.cpp:165] Memory required for data: 1209711772
I1119 23:06:45.310927 12775 layer_factory.hpp:77] Creating layer pool3
I1119 23:06:45.310940 12775 net.cpp:100] Creating Layer pool3
I1119 23:06:45.310950 12775 net.cpp:434] pool3 <- conv3_3
I1119 23:06:45.310961 12775 net.cpp:408] pool3 -> pool3
I1119 23:06:45.311044 12775 net.cpp:150] Setting up pool3
I1119 23:06:45.311058 12775 net.cpp:157] Top shape: 1 256 96 96 (2359296)
I1119 23:06:45.311064 12775 net.cpp:165] Memory required for data: 1219148956
I1119 23:06:45.311070 12775 layer_factory.hpp:77] Creating layer conv4_1
I1119 23:06:45.311085 12775 net.cpp:100] Creating Layer conv4_1
I1119 23:06:45.311094 12775 net.cpp:434] conv4_1 <- pool3
I1119 23:06:45.311105 12775 net.cpp:408] conv4_1 -> conv4_1
I1119 23:06:45.316262 12775 net.cpp:150] Setting up conv4_1
I1119 23:06:45.316284 12775 net.cpp:157] Top shape: 1 512 96 96 (4718592)
I1119 23:06:45.316287 12775 net.cpp:165] Memory required for data: 1238023324
I1119 23:06:45.316296 12775 layer_factory.hpp:77] Creating layer relu4_1
I1119 23:06:45.316306 12775 net.cpp:100] Creating Layer relu4_1
I1119 23:06:45.316311 12775 net.cpp:434] relu4_1 <- conv4_1
I1119 23:06:45.316318 12775 net.cpp:395] relu4_1 -> conv4_1 (in-place)
I1119 23:06:45.316479 12775 net.cpp:150] Setting up relu4_1
I1119 23:06:45.316486 12775 net.cpp:157] Top shape: 1 512 96 96 (4718592)
I1119 23:06:45.316489 12775 net.cpp:165] Memory required for data: 1256897692
I1119 23:06:45.316493 12775 layer_factory.hpp:77] Creating layer conv4_2
I1119 23:06:45.316504 12775 net.cpp:100] Creating Layer conv4_2
I1119 23:06:45.316506 12775 net.cpp:434] conv4_2 <- conv4_1
I1119 23:06:45.316514 12775 net.cpp:408] conv4_2 -> conv4_2
I1119 23:06:45.324045 12775 net.cpp:150] Setting up conv4_2
I1119 23:06:45.324071 12775 net.cpp:157] Top shape: 1 512 96 96 (4718592)
I1119 23:06:45.324074 12775 net.cpp:165] Memory required for data: 1275772060
I1119 23:06:45.324090 12775 layer_factory.hpp:77] Creating layer relu4_2
I1119 23:06:45.324100 12775 net.cpp:100] Creating Layer relu4_2
I1119 23:06:45.324105 12775 net.cpp:434] relu4_2 <- conv4_2
I1119 23:06:45.324110 12775 net.cpp:395] relu4_2 -> conv4_2 (in-place)
I1119 23:06:45.324265 12775 net.cpp:150] Setting up relu4_2
I1119 23:06:45.324276 12775 net.cpp:157] Top shape: 1 512 96 96 (4718592)
I1119 23:06:45.324280 12775 net.cpp:165] Memory required for data: 1294646428
I1119 23:06:45.324282 12775 layer_factory.hpp:77] Creating layer conv4_3
I1119 23:06:45.324292 12775 net.cpp:100] Creating Layer conv4_3
I1119 23:06:45.324296 12775 net.cpp:434] conv4_3 <- conv4_2
I1119 23:06:45.324302 12775 net.cpp:408] conv4_3 -> conv4_3
I1119 23:06:45.330619 12775 net.cpp:150] Setting up conv4_3
I1119 23:06:45.330651 12775 net.cpp:157] Top shape: 1 512 96 96 (4718592)
I1119 23:06:45.330655 12775 net.cpp:165] Memory required for data: 1313520796
I1119 23:06:45.330664 12775 layer_factory.hpp:77] Creating layer relu4_3
I1119 23:06:45.330675 12775 net.cpp:100] Creating Layer relu4_3
I1119 23:06:45.330682 12775 net.cpp:434] relu4_3 <- conv4_3
I1119 23:06:45.330689 12775 net.cpp:395] relu4_3 -> conv4_3 (in-place)
I1119 23:06:45.330849 12775 net.cpp:150] Setting up relu4_3
I1119 23:06:45.330858 12775 net.cpp:157] Top shape: 1 512 96 96 (4718592)
I1119 23:06:45.330862 12775 net.cpp:165] Memory required for data: 1332395164
I1119 23:06:45.330865 12775 layer_factory.hpp:77] Creating layer conv4_3_relu4_3_0_split
I1119 23:06:45.330876 12775 net.cpp:100] Creating Layer conv4_3_relu4_3_0_split
I1119 23:06:45.330880 12775 net.cpp:434] conv4_3_relu4_3_0_split <- conv4_3
I1119 23:06:45.330885 12775 net.cpp:408] conv4_3_relu4_3_0_split -> conv4_3_relu4_3_0_split_0
I1119 23:06:45.330891 12775 net.cpp:408] conv4_3_relu4_3_0_split -> conv4_3_relu4_3_0_split_1
I1119 23:06:45.330898 12775 net.cpp:408] conv4_3_relu4_3_0_split -> conv4_3_relu4_3_0_split_2
I1119 23:06:45.330902 12775 net.cpp:408] conv4_3_relu4_3_0_split -> conv4_3_relu4_3_0_split_3
I1119 23:06:45.330966 12775 net.cpp:150] Setting up conv4_3_relu4_3_0_split
I1119 23:06:45.330973 12775 net.cpp:157] Top shape: 1 512 96 96 (4718592)
I1119 23:06:45.330978 12775 net.cpp:157] Top shape: 1 512 96 96 (4718592)
I1119 23:06:45.330982 12775 net.cpp:157] Top shape: 1 512 96 96 (4718592)
I1119 23:06:45.330986 12775 net.cpp:157] Top shape: 1 512 96 96 (4718592)
I1119 23:06:45.330988 12775 net.cpp:165] Memory required for data: 1407892636
I1119 23:06:45.330992 12775 layer_factory.hpp:77] Creating layer buffer
I1119 23:06:45.331003 12775 net.cpp:100] Creating Layer buffer
I1119 23:06:45.331007 12775 net.cpp:434] buffer <- conv4_3_relu4_3_0_split_0
I1119 23:06:45.331013 12775 net.cpp:408] buffer -> buffer
I1119 23:06:45.393095 12775 net.cpp:150] Setting up buffer
I1119 23:06:45.393121 12775 net.cpp:157] Top shape: 1 512 96 96 (4718592)
I1119 23:06:45.393124 12775 net.cpp:165] Memory required for data: 1426767004
I1119 23:06:45.393133 12775 layer_factory.hpp:77] Creating layer relu_buffer
I1119 23:06:45.393146 12775 net.cpp:100] Creating Layer relu_buffer
I1119 23:06:45.393153 12775 net.cpp:434] relu_buffer <- buffer
I1119 23:06:45.393159 12775 net.cpp:395] relu_buffer -> buffer (in-place)
I1119 23:06:45.393667 12775 net.cpp:150] Setting up relu_buffer
I1119 23:06:45.393681 12775 net.cpp:157] Top shape: 1 512 96 96 (4718592)
I1119 23:06:45.393684 12775 net.cpp:165] Memory required for data: 1445641372
I1119 23:06:45.393688 12775 layer_factory.hpp:77] Creating layer attention
I1119 23:06:45.393702 12775 net.cpp:100] Creating Layer attention
I1119 23:06:45.393707 12775 net.cpp:434] attention <- buffer
I1119 23:06:45.393713 12775 net.cpp:408] attention -> attention
I1119 23:06:45.394850 12775 net.cpp:150] Setting up attention
I1119 23:06:45.394865 12775 net.cpp:157] Top shape: 1 3 96 96 (27648)
I1119 23:06:45.394867 12775 net.cpp:165] Memory required for data: 1445751964
I1119 23:06:45.394874 12775 layer_factory.hpp:77] Creating layer attention_attention_0_split
I1119 23:06:45.394882 12775 net.cpp:100] Creating Layer attention_attention_0_split
I1119 23:06:45.394886 12775 net.cpp:434] attention_attention_0_split <- attention
I1119 23:06:45.394891 12775 net.cpp:408] attention_attention_0_split -> attention_attention_0_split_0
I1119 23:06:45.394898 12775 net.cpp:408] attention_attention_0_split -> attention_attention_0_split_1
I1119 23:06:45.394939 12775 net.cpp:150] Setting up attention_attention_0_split
I1119 23:06:45.394946 12775 net.cpp:157] Top shape: 1 3 96 96 (27648)
I1119 23:06:45.394951 12775 net.cpp:157] Top shape: 1 3 96 96 (27648)
I1119 23:06:45.394954 12775 net.cpp:165] Memory required for data: 1445973148
I1119 23:06:45.394958 12775 layer_factory.hpp:77] Creating layer ch4_pool
I1119 23:06:45.394964 12775 net.cpp:100] Creating Layer ch4_pool
I1119 23:06:45.394969 12775 net.cpp:434] ch4_pool <- ch4
I1119 23:06:45.394975 12775 net.cpp:408] ch4_pool -> ch4_pool
I1119 23:06:45.395012 12775 net.cpp:150] Setting up ch4_pool
I1119 23:06:45.395020 12775 net.cpp:157] Top shape: 1 1 96 96 (9216)
I1119 23:06:45.395022 12775 net.cpp:165] Memory required for data: 1446010012
I1119 23:06:45.395025 12775 layer_factory.hpp:77] Creating layer loss_attention
I1119 23:06:45.395032 12775 net.cpp:100] Creating Layer loss_attention
I1119 23:06:45.395035 12775 net.cpp:434] loss_attention <- attention_attention_0_split_0
I1119 23:06:45.395040 12775 net.cpp:434] loss_attention <- ch4_pool
I1119 23:06:45.395046 12775 net.cpp:408] loss_attention -> loss_attention
I1119 23:06:45.395053 12775 layer_factory.hpp:77] Creating layer loss_attention
I1119 23:06:45.395627 12775 net.cpp:150] Setting up loss_attention
I1119 23:06:45.395640 12775 net.cpp:157] Top shape: (1)
I1119 23:06:45.395643 12775 net.cpp:160]     with loss weight 1
I1119 23:06:45.395654 12775 net.cpp:165] Memory required for data: 1446010016
I1119 23:06:45.395658 12775 layer_factory.hpp:77] Creating layer loss1_conv1
I1119 23:06:45.395668 12775 net.cpp:100] Creating Layer loss1_conv1
I1119 23:06:45.395674 12775 net.cpp:434] loss1_conv1 <- conv4_3_relu4_3_0_split_1
I1119 23:06:45.395680 12775 net.cpp:408] loss1_conv1 -> loss1_conv1
I1119 23:06:45.454728 12775 net.cpp:150] Setting up loss1_conv1
I1119 23:06:45.454756 12775 net.cpp:157] Top shape: 1 512 96 96 (4718592)
I1119 23:06:45.454761 12775 net.cpp:165] Memory required for data: 1464884384
I1119 23:06:45.454769 12775 layer_factory.hpp:77] Creating layer loss_relu1
I1119 23:06:45.454782 12775 net.cpp:100] Creating Layer loss_relu1
I1119 23:06:45.454788 12775 net.cpp:434] loss_relu1 <- loss1_conv1
I1119 23:06:45.454794 12775 net.cpp:395] loss_relu1 -> loss1_conv1 (in-place)
I1119 23:06:45.454970 12775 net.cpp:150] Setting up loss_relu1
I1119 23:06:45.454979 12775 net.cpp:157] Top shape: 1 512 96 96 (4718592)
I1119 23:06:45.454982 12775 net.cpp:165] Memory required for data: 1483758752
I1119 23:06:45.454987 12775 layer_factory.hpp:77] Creating layer loss1_conv1_loss_relu1_0_split
I1119 23:06:45.454991 12775 net.cpp:100] Creating Layer loss1_conv1_loss_relu1_0_split
I1119 23:06:45.454995 12775 net.cpp:434] loss1_conv1_loss_relu1_0_split <- loss1_conv1
I1119 23:06:45.455001 12775 net.cpp:408] loss1_conv1_loss_relu1_0_split -> loss1_conv1_loss_relu1_0_split_0
I1119 23:06:45.455008 12775 net.cpp:408] loss1_conv1_loss_relu1_0_split -> loss1_conv1_loss_relu1_0_split_1
I1119 23:06:45.455049 12775 net.cpp:150] Setting up loss1_conv1_loss_relu1_0_split
I1119 23:06:45.455054 12775 net.cpp:157] Top shape: 1 512 96 96 (4718592)
I1119 23:06:45.455060 12775 net.cpp:157] Top shape: 1 512 96 96 (4718592)
I1119 23:06:45.455062 12775 net.cpp:165] Memory required for data: 1521507488
I1119 23:06:45.455065 12775 layer_factory.hpp:77] Creating layer LFCN_1_5x5
I1119 23:06:45.455078 12775 net.cpp:100] Creating Layer LFCN_1_5x5
I1119 23:06:45.455082 12775 net.cpp:434] LFCN_1_5x5 <- loss1_conv1_loss_relu1_0_split_0
I1119 23:06:45.455088 12775 net.cpp:408] LFCN_1_5x5 -> LFCN_1_5x5
I1119 23:06:45.459149 12775 net.cpp:150] Setting up LFCN_1_5x5
I1119 23:06:45.459164 12775 net.cpp:157] Top shape: 1 9 96 96 (82944)
I1119 23:06:45.459169 12775 net.cpp:165] Memory required for data: 1521839264
I1119 23:06:45.459175 12775 layer_factory.hpp:77] Creating layer LFCN_1_5x5_LFCN_1_5x5_0_split
I1119 23:06:45.459182 12775 net.cpp:100] Creating Layer LFCN_1_5x5_LFCN_1_5x5_0_split
I1119 23:06:45.459185 12775 net.cpp:434] LFCN_1_5x5_LFCN_1_5x5_0_split <- LFCN_1_5x5
I1119 23:06:45.459190 12775 net.cpp:408] LFCN_1_5x5_LFCN_1_5x5_0_split -> LFCN_1_5x5_LFCN_1_5x5_0_split_0
I1119 23:06:45.459197 12775 net.cpp:408] LFCN_1_5x5_LFCN_1_5x5_0_split -> LFCN_1_5x5_LFCN_1_5x5_0_split_1
I1119 23:06:45.459203 12775 net.cpp:408] LFCN_1_5x5_LFCN_1_5x5_0_split -> LFCN_1_5x5_LFCN_1_5x5_0_split_2
I1119 23:06:45.459254 12775 net.cpp:150] Setting up LFCN_1_5x5_LFCN_1_5x5_0_split
I1119 23:06:45.459260 12775 net.cpp:157] Top shape: 1 9 96 96 (82944)
I1119 23:06:45.459264 12775 net.cpp:157] Top shape: 1 9 96 96 (82944)
I1119 23:06:45.459269 12775 net.cpp:157] Top shape: 1 9 96 96 (82944)
I1119 23:06:45.459271 12775 net.cpp:165] Memory required for data: 1522834592
I1119 23:06:45.459275 12775 layer_factory.hpp:77] Creating layer detection_loss_1_5x5
I1119 23:06:45.459282 12775 net.cpp:100] Creating Layer detection_loss_1_5x5
I1119 23:06:45.459285 12775 net.cpp:434] detection_loss_1_5x5 <- LFCN_1_5x5_LFCN_1_5x5_0_split_0
I1119 23:06:45.459290 12775 net.cpp:434] detection_loss_1_5x5 <- label_1_5x5_data_1_split_0
I1119 23:06:45.459296 12775 net.cpp:408] detection_loss_1_5x5 -> loss_1_5x5
I1119 23:06:45.459305 12775 layer_factory.hpp:77] Creating layer detection_loss_1_5x5
I1119 23:06:45.460494 12775 net.cpp:150] Setting up detection_loss_1_5x5
I1119 23:06:45.460505 12775 net.cpp:157] Top shape: 1 1 1 2 (2)
I1119 23:06:45.460510 12775 net.cpp:160]     with loss weight 0.9
I1119 23:06:45.460520 12775 net.cpp:165] Memory required for data: 1522834600
I1119 23:06:45.460525 12775 layer_factory.hpp:77] Creating layer detection_accuracy_1_5x5
I1119 23:06:45.460532 12775 net.cpp:100] Creating Layer detection_accuracy_1_5x5
I1119 23:06:45.460536 12775 net.cpp:434] detection_accuracy_1_5x5 <- LFCN_1_5x5_LFCN_1_5x5_0_split_1
I1119 23:06:45.460541 12775 net.cpp:434] detection_accuracy_1_5x5 <- label_1_5x5_data_1_split_1
I1119 23:06:45.460546 12775 net.cpp:408] detection_accuracy_1_5x5 -> accuracy_1_5x5
I1119 23:06:45.460551 12775 net.cpp:408] detection_accuracy_1_5x5 -> boxiou_1_5x5
I1119 23:06:45.460590 12775 net.cpp:150] Setting up detection_accuracy_1_5x5
I1119 23:06:45.460605 12775 net.cpp:157] Top shape: 1 1 1 2 (2)
I1119 23:06:45.460610 12775 net.cpp:157] Top shape: 1 1 1 1 (1)
I1119 23:06:45.460613 12775 net.cpp:165] Memory required for data: 1522834612
I1119 23:06:45.460616 12775 layer_factory.hpp:77] Creating layer LFCN_1_7x7
I1119 23:06:45.460626 12775 net.cpp:100] Creating Layer LFCN_1_7x7
I1119 23:06:45.460629 12775 net.cpp:434] LFCN_1_7x7 <- loss1_conv1_loss_relu1_0_split_1
I1119 23:06:45.460636 12775 net.cpp:408] LFCN_1_7x7 -> LFCN_1_7x7
I1119 23:06:45.468226 12775 net.cpp:150] Setting up LFCN_1_7x7
I1119 23:06:45.468246 12775 net.cpp:157] Top shape: 1 9 96 96 (82944)
I1119 23:06:45.468250 12775 net.cpp:165] Memory required for data: 1523166388
I1119 23:06:45.468258 12775 layer_factory.hpp:77] Creating layer LFCN_1_7x7_LFCN_1_7x7_0_split
I1119 23:06:45.468267 12775 net.cpp:100] Creating Layer LFCN_1_7x7_LFCN_1_7x7_0_split
I1119 23:06:45.468272 12775 net.cpp:434] LFCN_1_7x7_LFCN_1_7x7_0_split <- LFCN_1_7x7
I1119 23:06:45.468278 12775 net.cpp:408] LFCN_1_7x7_LFCN_1_7x7_0_split -> LFCN_1_7x7_LFCN_1_7x7_0_split_0
I1119 23:06:45.468286 12775 net.cpp:408] LFCN_1_7x7_LFCN_1_7x7_0_split -> LFCN_1_7x7_LFCN_1_7x7_0_split_1
I1119 23:06:45.468291 12775 net.cpp:408] LFCN_1_7x7_LFCN_1_7x7_0_split -> LFCN_1_7x7_LFCN_1_7x7_0_split_2
I1119 23:06:45.468345 12775 net.cpp:150] Setting up LFCN_1_7x7_LFCN_1_7x7_0_split
I1119 23:06:45.468353 12775 net.cpp:157] Top shape: 1 9 96 96 (82944)
I1119 23:06:45.468356 12775 net.cpp:157] Top shape: 1 9 96 96 (82944)
I1119 23:06:45.468360 12775 net.cpp:157] Top shape: 1 9 96 96 (82944)
I1119 23:06:45.468364 12775 net.cpp:165] Memory required for data: 1524161716
I1119 23:06:45.468366 12775 layer_factory.hpp:77] Creating layer detection_loss_1_7x7
I1119 23:06:45.468374 12775 net.cpp:100] Creating Layer detection_loss_1_7x7
I1119 23:06:45.468377 12775 net.cpp:434] detection_loss_1_7x7 <- LFCN_1_7x7_LFCN_1_7x7_0_split_0
I1119 23:06:45.468382 12775 net.cpp:434] detection_loss_1_7x7 <- label_1_7x7_data_2_split_0
I1119 23:06:45.468387 12775 net.cpp:408] detection_loss_1_7x7 -> loss_1_7x7
I1119 23:06:45.468395 12775 layer_factory.hpp:77] Creating layer detection_loss_1_7x7
I1119 23:06:45.468760 12775 net.cpp:150] Setting up detection_loss_1_7x7
I1119 23:06:45.468770 12775 net.cpp:157] Top shape: 1 1 1 2 (2)
I1119 23:06:45.468773 12775 net.cpp:160]     with loss weight 0.9
I1119 23:06:45.468782 12775 net.cpp:165] Memory required for data: 1524161724
I1119 23:06:45.468786 12775 layer_factory.hpp:77] Creating layer detection_accuracy_1_7x7
I1119 23:06:45.468792 12775 net.cpp:100] Creating Layer detection_accuracy_1_7x7
I1119 23:06:45.468796 12775 net.cpp:434] detection_accuracy_1_7x7 <- LFCN_1_7x7_LFCN_1_7x7_0_split_1
I1119 23:06:45.468801 12775 net.cpp:434] detection_accuracy_1_7x7 <- label_1_7x7_data_2_split_1
I1119 23:06:45.468806 12775 net.cpp:408] detection_accuracy_1_7x7 -> accuracy_1_7x7
I1119 23:06:45.468818 12775 net.cpp:408] detection_accuracy_1_7x7 -> boxiou_1_7x7
I1119 23:06:45.468871 12775 net.cpp:150] Setting up detection_accuracy_1_7x7
I1119 23:06:45.468878 12775 net.cpp:157] Top shape: 1 1 1 2 (2)
I1119 23:06:45.468883 12775 net.cpp:157] Top shape: 1 1 1 1 (1)
I1119 23:06:45.468886 12775 net.cpp:165] Memory required for data: 1524161736
I1119 23:06:45.468889 12775 layer_factory.hpp:77] Creating layer pool4
I1119 23:06:45.468896 12775 net.cpp:100] Creating Layer pool4
I1119 23:06:45.468900 12775 net.cpp:434] pool4 <- conv4_3_relu4_3_0_split_2
I1119 23:06:45.468905 12775 net.cpp:408] pool4 -> pool4
I1119 23:06:45.468945 12775 net.cpp:150] Setting up pool4
I1119 23:06:45.468950 12775 net.cpp:157] Top shape: 1 512 48 48 (1179648)
I1119 23:06:45.468955 12775 net.cpp:165] Memory required for data: 1528880328
I1119 23:06:45.468957 12775 layer_factory.hpp:77] Creating layer conv5_1
I1119 23:06:45.468966 12775 net.cpp:100] Creating Layer conv5_1
I1119 23:06:45.468968 12775 net.cpp:434] conv5_1 <- pool4
I1119 23:06:45.468973 12775 net.cpp:408] conv5_1 -> conv5_1
I1119 23:06:45.474937 12775 net.cpp:150] Setting up conv5_1
I1119 23:06:45.474972 12775 net.cpp:157] Top shape: 1 512 48 48 (1179648)
I1119 23:06:45.474977 12775 net.cpp:165] Memory required for data: 1533598920
I1119 23:06:45.474987 12775 layer_factory.hpp:77] Creating layer relu5_1
I1119 23:06:45.474998 12775 net.cpp:100] Creating Layer relu5_1
I1119 23:06:45.475004 12775 net.cpp:434] relu5_1 <- conv5_1
I1119 23:06:45.475010 12775 net.cpp:395] relu5_1 -> conv5_1 (in-place)
I1119 23:06:45.475183 12775 net.cpp:150] Setting up relu5_1
I1119 23:06:45.475191 12775 net.cpp:157] Top shape: 1 512 48 48 (1179648)
I1119 23:06:45.475195 12775 net.cpp:165] Memory required for data: 1538317512
I1119 23:06:45.475199 12775 layer_factory.hpp:77] Creating layer conv5_2
I1119 23:06:45.475209 12775 net.cpp:100] Creating Layer conv5_2
I1119 23:06:45.475214 12775 net.cpp:434] conv5_2 <- conv5_1
I1119 23:06:45.475219 12775 net.cpp:408] conv5_2 -> conv5_2
I1119 23:06:45.481154 12775 net.cpp:150] Setting up conv5_2
I1119 23:06:45.481184 12775 net.cpp:157] Top shape: 1 512 48 48 (1179648)
I1119 23:06:45.481187 12775 net.cpp:165] Memory required for data: 1543036104
I1119 23:06:45.481201 12775 layer_factory.hpp:77] Creating layer relu5_2
I1119 23:06:45.481212 12775 net.cpp:100] Creating Layer relu5_2
I1119 23:06:45.481217 12775 net.cpp:434] relu5_2 <- conv5_2
I1119 23:06:45.481223 12775 net.cpp:395] relu5_2 -> conv5_2 (in-place)
I1119 23:06:45.481725 12775 net.cpp:150] Setting up relu5_2
I1119 23:06:45.481737 12775 net.cpp:157] Top shape: 1 512 48 48 (1179648)
I1119 23:06:45.481741 12775 net.cpp:165] Memory required for data: 1547754696
I1119 23:06:45.481745 12775 layer_factory.hpp:77] Creating layer conv5_3
I1119 23:06:45.481755 12775 net.cpp:100] Creating Layer conv5_3
I1119 23:06:45.481758 12775 net.cpp:434] conv5_3 <- conv5_2
I1119 23:06:45.481763 12775 net.cpp:408] conv5_3 -> conv5_3
I1119 23:06:45.487390 12775 net.cpp:150] Setting up conv5_3
I1119 23:06:45.487432 12775 net.cpp:157] Top shape: 1 512 48 48 (1179648)
I1119 23:06:45.487437 12775 net.cpp:165] Memory required for data: 1552473288
I1119 23:06:45.487445 12775 layer_factory.hpp:77] Creating layer relu5_3
I1119 23:06:45.487459 12775 net.cpp:100] Creating Layer relu5_3
I1119 23:06:45.487465 12775 net.cpp:434] relu5_3 <- conv5_3
I1119 23:06:45.487471 12775 net.cpp:395] relu5_3 -> conv5_3 (in-place)
I1119 23:06:45.488207 12775 net.cpp:150] Setting up relu5_3
I1119 23:06:45.488221 12775 net.cpp:157] Top shape: 1 512 48 48 (1179648)
I1119 23:06:45.488224 12775 net.cpp:165] Memory required for data: 1557191880
I1119 23:06:45.488229 12775 layer_factory.hpp:77] Creating layer conv5_3_relu5_3_0_split
I1119 23:06:45.488235 12775 net.cpp:100] Creating Layer conv5_3_relu5_3_0_split
I1119 23:06:45.488238 12775 net.cpp:434] conv5_3_relu5_3_0_split <- conv5_3
I1119 23:06:45.488243 12775 net.cpp:408] conv5_3_relu5_3_0_split -> conv5_3_relu5_3_0_split_0
I1119 23:06:45.488250 12775 net.cpp:408] conv5_3_relu5_3_0_split -> conv5_3_relu5_3_0_split_1
I1119 23:06:45.488263 12775 net.cpp:408] conv5_3_relu5_3_0_split -> conv5_3_relu5_3_0_split_2
I1119 23:06:45.488322 12775 net.cpp:150] Setting up conv5_3_relu5_3_0_split
I1119 23:06:45.488329 12775 net.cpp:157] Top shape: 1 512 48 48 (1179648)
I1119 23:06:45.488333 12775 net.cpp:157] Top shape: 1 512 48 48 (1179648)
I1119 23:06:45.488337 12775 net.cpp:157] Top shape: 1 512 48 48 (1179648)
I1119 23:06:45.488342 12775 net.cpp:165] Memory required for data: 1571347656
I1119 23:06:45.488344 12775 layer_factory.hpp:77] Creating layer LFCN_2_5x5
I1119 23:06:45.488356 12775 net.cpp:100] Creating Layer LFCN_2_5x5
I1119 23:06:45.488363 12775 net.cpp:434] LFCN_2_5x5 <- conv5_3_relu5_3_0_split_0
I1119 23:06:45.488368 12775 net.cpp:408] LFCN_2_5x5 -> LFCN_2_5x5
I1119 23:06:45.492287 12775 net.cpp:150] Setting up LFCN_2_5x5
I1119 23:06:45.492298 12775 net.cpp:157] Top shape: 1 9 48 48 (20736)
I1119 23:06:45.492301 12775 net.cpp:165] Memory required for data: 1571430600
I1119 23:06:45.492307 12775 layer_factory.hpp:77] Creating layer LFCN_2_5x5_LFCN_2_5x5_0_split
I1119 23:06:45.492311 12775 net.cpp:100] Creating Layer LFCN_2_5x5_LFCN_2_5x5_0_split
I1119 23:06:45.492316 12775 net.cpp:434] LFCN_2_5x5_LFCN_2_5x5_0_split <- LFCN_2_5x5
I1119 23:06:45.492321 12775 net.cpp:408] LFCN_2_5x5_LFCN_2_5x5_0_split -> LFCN_2_5x5_LFCN_2_5x5_0_split_0
I1119 23:06:45.492326 12775 net.cpp:408] LFCN_2_5x5_LFCN_2_5x5_0_split -> LFCN_2_5x5_LFCN_2_5x5_0_split_1
I1119 23:06:45.492331 12775 net.cpp:408] LFCN_2_5x5_LFCN_2_5x5_0_split -> LFCN_2_5x5_LFCN_2_5x5_0_split_2
I1119 23:06:45.492378 12775 net.cpp:150] Setting up LFCN_2_5x5_LFCN_2_5x5_0_split
I1119 23:06:45.492384 12775 net.cpp:157] Top shape: 1 9 48 48 (20736)
I1119 23:06:45.492388 12775 net.cpp:157] Top shape: 1 9 48 48 (20736)
I1119 23:06:45.492391 12775 net.cpp:157] Top shape: 1 9 48 48 (20736)
I1119 23:06:45.492393 12775 net.cpp:165] Memory required for data: 1571679432
I1119 23:06:45.492396 12775 layer_factory.hpp:77] Creating layer detection_loss_2_5x5
I1119 23:06:45.492403 12775 net.cpp:100] Creating Layer detection_loss_2_5x5
I1119 23:06:45.492405 12775 net.cpp:434] detection_loss_2_5x5 <- LFCN_2_5x5_LFCN_2_5x5_0_split_0
I1119 23:06:45.492409 12775 net.cpp:434] detection_loss_2_5x5 <- label_2_5x5_data_3_split_0
I1119 23:06:45.492417 12775 net.cpp:408] detection_loss_2_5x5 -> loss_2_5x5
I1119 23:06:45.492426 12775 layer_factory.hpp:77] Creating layer detection_loss_2_5x5
I1119 23:06:45.492764 12775 net.cpp:150] Setting up detection_loss_2_5x5
I1119 23:06:45.492774 12775 net.cpp:157] Top shape: 1 1 1 2 (2)
I1119 23:06:45.492777 12775 net.cpp:160]     with loss weight 1
I1119 23:06:45.492789 12775 net.cpp:165] Memory required for data: 1571679440
I1119 23:06:45.492791 12775 layer_factory.hpp:77] Creating layer detection_accuracy_2_5x5
I1119 23:06:45.492800 12775 net.cpp:100] Creating Layer detection_accuracy_2_5x5
I1119 23:06:45.492803 12775 net.cpp:434] detection_accuracy_2_5x5 <- LFCN_2_5x5_LFCN_2_5x5_0_split_1
I1119 23:06:45.492808 12775 net.cpp:434] detection_accuracy_2_5x5 <- label_2_5x5_data_3_split_1
I1119 23:06:45.492813 12775 net.cpp:408] detection_accuracy_2_5x5 -> accuracy_2_5x5
I1119 23:06:45.492820 12775 net.cpp:408] detection_accuracy_2_5x5 -> boxiou_2_5x5
I1119 23:06:45.492861 12775 net.cpp:150] Setting up detection_accuracy_2_5x5
I1119 23:06:45.492867 12775 net.cpp:157] Top shape: 1 1 1 2 (2)
I1119 23:06:45.492872 12775 net.cpp:157] Top shape: 1 1 1 1 (1)
I1119 23:06:45.492875 12775 net.cpp:165] Memory required for data: 1571679452
I1119 23:06:45.492878 12775 layer_factory.hpp:77] Creating layer LFCN_2_7x7
I1119 23:06:45.492887 12775 net.cpp:100] Creating Layer LFCN_2_7x7
I1119 23:06:45.492890 12775 net.cpp:434] LFCN_2_7x7 <- conv5_3_relu5_3_0_split_1
I1119 23:06:45.492897 12775 net.cpp:408] LFCN_2_7x7 -> LFCN_2_7x7
I1119 23:06:45.500174 12775 net.cpp:150] Setting up LFCN_2_7x7
I1119 23:06:45.500188 12775 net.cpp:157] Top shape: 1 9 48 48 (20736)
I1119 23:06:45.500192 12775 net.cpp:165] Memory required for data: 1571762396
I1119 23:06:45.500198 12775 layer_factory.hpp:77] Creating layer LFCN_2_7x7_LFCN_2_7x7_0_split
I1119 23:06:45.500206 12775 net.cpp:100] Creating Layer LFCN_2_7x7_LFCN_2_7x7_0_split
I1119 23:06:45.500211 12775 net.cpp:434] LFCN_2_7x7_LFCN_2_7x7_0_split <- LFCN_2_7x7
I1119 23:06:45.500216 12775 net.cpp:408] LFCN_2_7x7_LFCN_2_7x7_0_split -> LFCN_2_7x7_LFCN_2_7x7_0_split_0
I1119 23:06:45.500223 12775 net.cpp:408] LFCN_2_7x7_LFCN_2_7x7_0_split -> LFCN_2_7x7_LFCN_2_7x7_0_split_1
I1119 23:06:45.500228 12775 net.cpp:408] LFCN_2_7x7_LFCN_2_7x7_0_split -> LFCN_2_7x7_LFCN_2_7x7_0_split_2
I1119 23:06:45.500285 12775 net.cpp:150] Setting up LFCN_2_7x7_LFCN_2_7x7_0_split
I1119 23:06:45.500293 12775 net.cpp:157] Top shape: 1 9 48 48 (20736)
I1119 23:06:45.500298 12775 net.cpp:157] Top shape: 1 9 48 48 (20736)
I1119 23:06:45.500301 12775 net.cpp:157] Top shape: 1 9 48 48 (20736)
I1119 23:06:45.500305 12775 net.cpp:165] Memory required for data: 1572011228
I1119 23:06:45.500308 12775 layer_factory.hpp:77] Creating layer detection_loss_2_7x7
I1119 23:06:45.500320 12775 net.cpp:100] Creating Layer detection_loss_2_7x7
I1119 23:06:45.500324 12775 net.cpp:434] detection_loss_2_7x7 <- LFCN_2_7x7_LFCN_2_7x7_0_split_0
I1119 23:06:45.500329 12775 net.cpp:434] detection_loss_2_7x7 <- label_2_7x7_data_4_split_0
I1119 23:06:45.500335 12775 net.cpp:408] detection_loss_2_7x7 -> loss_2_7x7
I1119 23:06:45.500344 12775 layer_factory.hpp:77] Creating layer detection_loss_2_7x7
I1119 23:06:45.500681 12775 net.cpp:150] Setting up detection_loss_2_7x7
I1119 23:06:45.500691 12775 net.cpp:157] Top shape: 1 1 1 2 (2)
I1119 23:06:45.500694 12775 net.cpp:160]     with loss weight 1
I1119 23:06:45.500701 12775 net.cpp:165] Memory required for data: 1572011236
I1119 23:06:45.500705 12775 layer_factory.hpp:77] Creating layer detection_accuracy_2_7x7
I1119 23:06:45.500712 12775 net.cpp:100] Creating Layer detection_accuracy_2_7x7
I1119 23:06:45.500716 12775 net.cpp:434] detection_accuracy_2_7x7 <- LFCN_2_7x7_LFCN_2_7x7_0_split_1
I1119 23:06:45.500720 12775 net.cpp:434] detection_accuracy_2_7x7 <- label_2_7x7_data_4_split_1
I1119 23:06:45.500725 12775 net.cpp:408] detection_accuracy_2_7x7 -> accuracy_2_7x7
I1119 23:06:45.500731 12775 net.cpp:408] detection_accuracy_2_7x7 -> boxiou_2_7x7
I1119 23:06:45.500772 12775 net.cpp:150] Setting up detection_accuracy_2_7x7
I1119 23:06:45.500779 12775 net.cpp:157] Top shape: 1 1 1 2 (2)
I1119 23:06:45.500783 12775 net.cpp:157] Top shape: 1 1 1 1 (1)
I1119 23:06:45.500787 12775 net.cpp:165] Memory required for data: 1572011248
I1119 23:06:45.500789 12775 layer_factory.hpp:77] Creating layer pool5
I1119 23:06:45.500795 12775 net.cpp:100] Creating Layer pool5
I1119 23:06:45.500800 12775 net.cpp:434] pool5 <- conv5_3_relu5_3_0_split_2
I1119 23:06:45.500804 12775 net.cpp:408] pool5 -> pool5
I1119 23:06:45.500844 12775 net.cpp:150] Setting up pool5
I1119 23:06:45.500849 12775 net.cpp:157] Top shape: 1 512 24 24 (294912)
I1119 23:06:45.500854 12775 net.cpp:165] Memory required for data: 1573190896
I1119 23:06:45.500856 12775 layer_factory.hpp:77] Creating layer conv6_1
I1119 23:06:45.500865 12775 net.cpp:100] Creating Layer conv6_1
I1119 23:06:45.500869 12775 net.cpp:434] conv6_1 <- pool5
I1119 23:06:45.500875 12775 net.cpp:408] conv6_1 -> conv6_1
I1119 23:06:45.560359 12775 net.cpp:150] Setting up conv6_1
I1119 23:06:45.560387 12775 net.cpp:157] Top shape: 1 512 24 24 (294912)
I1119 23:06:45.560391 12775 net.cpp:165] Memory required for data: 1574370544
I1119 23:06:45.560400 12775 layer_factory.hpp:77] Creating layer relu6_1
I1119 23:06:45.560412 12775 net.cpp:100] Creating Layer relu6_1
I1119 23:06:45.560418 12775 net.cpp:434] relu6_1 <- conv6_1
I1119 23:06:45.560425 12775 net.cpp:395] relu6_1 -> conv6_1 (in-place)
I1119 23:06:45.560591 12775 net.cpp:150] Setting up relu6_1
I1119 23:06:45.560600 12775 net.cpp:157] Top shape: 1 512 24 24 (294912)
I1119 23:06:45.560605 12775 net.cpp:165] Memory required for data: 1575550192
I1119 23:06:45.560608 12775 layer_factory.hpp:77] Creating layer conv6_1_relu6_1_0_split
I1119 23:06:45.560616 12775 net.cpp:100] Creating Layer conv6_1_relu6_1_0_split
I1119 23:06:45.560619 12775 net.cpp:434] conv6_1_relu6_1_0_split <- conv6_1
I1119 23:06:45.560624 12775 net.cpp:408] conv6_1_relu6_1_0_split -> conv6_1_relu6_1_0_split_0
I1119 23:06:45.560631 12775 net.cpp:408] conv6_1_relu6_1_0_split -> conv6_1_relu6_1_0_split_1
I1119 23:06:45.560636 12775 net.cpp:408] conv6_1_relu6_1_0_split -> conv6_1_relu6_1_0_split_2
I1119 23:06:45.560691 12775 net.cpp:150] Setting up conv6_1_relu6_1_0_split
I1119 23:06:45.560698 12775 net.cpp:157] Top shape: 1 512 24 24 (294912)
I1119 23:06:45.560703 12775 net.cpp:157] Top shape: 1 512 24 24 (294912)
I1119 23:06:45.560706 12775 net.cpp:157] Top shape: 1 512 24 24 (294912)
I1119 23:06:45.560709 12775 net.cpp:165] Memory required for data: 1579089136
I1119 23:06:45.560712 12775 layer_factory.hpp:77] Creating layer LFCN_3_5x5
I1119 23:06:45.560724 12775 net.cpp:100] Creating Layer LFCN_3_5x5
I1119 23:06:45.560726 12775 net.cpp:434] LFCN_3_5x5 <- conv6_1_relu6_1_0_split_0
I1119 23:06:45.560734 12775 net.cpp:408] LFCN_3_5x5 -> LFCN_3_5x5
I1119 23:06:45.564528 12775 net.cpp:150] Setting up LFCN_3_5x5
I1119 23:06:45.564539 12775 net.cpp:157] Top shape: 1 9 24 24 (5184)
I1119 23:06:45.564543 12775 net.cpp:165] Memory required for data: 1579109872
I1119 23:06:45.564548 12775 layer_factory.hpp:77] Creating layer LFCN_3_5x5_LFCN_3_5x5_0_split
I1119 23:06:45.564554 12775 net.cpp:100] Creating Layer LFCN_3_5x5_LFCN_3_5x5_0_split
I1119 23:06:45.564558 12775 net.cpp:434] LFCN_3_5x5_LFCN_3_5x5_0_split <- LFCN_3_5x5
I1119 23:06:45.564563 12775 net.cpp:408] LFCN_3_5x5_LFCN_3_5x5_0_split -> LFCN_3_5x5_LFCN_3_5x5_0_split_0
I1119 23:06:45.564568 12775 net.cpp:408] LFCN_3_5x5_LFCN_3_5x5_0_split -> LFCN_3_5x5_LFCN_3_5x5_0_split_1
I1119 23:06:45.564571 12775 net.cpp:408] LFCN_3_5x5_LFCN_3_5x5_0_split -> LFCN_3_5x5_LFCN_3_5x5_0_split_2
I1119 23:06:45.564618 12775 net.cpp:150] Setting up LFCN_3_5x5_LFCN_3_5x5_0_split
I1119 23:06:45.564625 12775 net.cpp:157] Top shape: 1 9 24 24 (5184)
I1119 23:06:45.564628 12775 net.cpp:157] Top shape: 1 9 24 24 (5184)
I1119 23:06:45.564631 12775 net.cpp:157] Top shape: 1 9 24 24 (5184)
I1119 23:06:45.564635 12775 net.cpp:165] Memory required for data: 1579172080
I1119 23:06:45.564636 12775 layer_factory.hpp:77] Creating layer detection_loss_3_5x5
I1119 23:06:45.564642 12775 net.cpp:100] Creating Layer detection_loss_3_5x5
I1119 23:06:45.564646 12775 net.cpp:434] detection_loss_3_5x5 <- LFCN_3_5x5_LFCN_3_5x5_0_split_0
I1119 23:06:45.564651 12775 net.cpp:434] detection_loss_3_5x5 <- label_3_5x5_data_5_split_0
I1119 23:06:45.564656 12775 net.cpp:408] detection_loss_3_5x5 -> loss_3_5x5
I1119 23:06:45.564663 12775 layer_factory.hpp:77] Creating layer detection_loss_3_5x5
I1119 23:06:45.565003 12775 net.cpp:150] Setting up detection_loss_3_5x5
I1119 23:06:45.565013 12775 net.cpp:157] Top shape: 1 1 1 2 (2)
I1119 23:06:45.565017 12775 net.cpp:160]     with loss weight 1
I1119 23:06:45.565027 12775 net.cpp:165] Memory required for data: 1579172088
I1119 23:06:45.565030 12775 layer_factory.hpp:77] Creating layer detection_accuracy_3_5x5
I1119 23:06:45.565037 12775 net.cpp:100] Creating Layer detection_accuracy_3_5x5
I1119 23:06:45.565042 12775 net.cpp:434] detection_accuracy_3_5x5 <- LFCN_3_5x5_LFCN_3_5x5_0_split_1
I1119 23:06:45.565045 12775 net.cpp:434] detection_accuracy_3_5x5 <- label_3_5x5_data_5_split_1
I1119 23:06:45.565050 12775 net.cpp:408] detection_accuracy_3_5x5 -> accuracy_3_5x5
I1119 23:06:45.565058 12775 net.cpp:408] detection_accuracy_3_5x5 -> boxiou_3_5x5
I1119 23:06:45.565105 12775 net.cpp:150] Setting up detection_accuracy_3_5x5
I1119 23:06:45.565114 12775 net.cpp:157] Top shape: 1 1 1 2 (2)
I1119 23:06:45.565117 12775 net.cpp:157] Top shape: 1 1 1 1 (1)
I1119 23:06:45.565120 12775 net.cpp:165] Memory required for data: 1579172100
I1119 23:06:45.565124 12775 layer_factory.hpp:77] Creating layer LFCN_3_7x7
I1119 23:06:45.565134 12775 net.cpp:100] Creating Layer LFCN_3_7x7
I1119 23:06:45.565137 12775 net.cpp:434] LFCN_3_7x7 <- conv6_1_relu6_1_0_split_1
I1119 23:06:45.565143 12775 net.cpp:408] LFCN_3_7x7 -> LFCN_3_7x7
I1119 23:06:45.572250 12775 net.cpp:150] Setting up LFCN_3_7x7
I1119 23:06:45.572264 12775 net.cpp:157] Top shape: 1 9 24 24 (5184)
I1119 23:06:45.572268 12775 net.cpp:165] Memory required for data: 1579192836
I1119 23:06:45.572273 12775 layer_factory.hpp:77] Creating layer LFCN_3_7x7_LFCN_3_7x7_0_split
I1119 23:06:45.572280 12775 net.cpp:100] Creating Layer LFCN_3_7x7_LFCN_3_7x7_0_split
I1119 23:06:45.572283 12775 net.cpp:434] LFCN_3_7x7_LFCN_3_7x7_0_split <- LFCN_3_7x7
I1119 23:06:45.572289 12775 net.cpp:408] LFCN_3_7x7_LFCN_3_7x7_0_split -> LFCN_3_7x7_LFCN_3_7x7_0_split_0
I1119 23:06:45.572296 12775 net.cpp:408] LFCN_3_7x7_LFCN_3_7x7_0_split -> LFCN_3_7x7_LFCN_3_7x7_0_split_1
I1119 23:06:45.572300 12775 net.cpp:408] LFCN_3_7x7_LFCN_3_7x7_0_split -> LFCN_3_7x7_LFCN_3_7x7_0_split_2
I1119 23:06:45.572346 12775 net.cpp:150] Setting up LFCN_3_7x7_LFCN_3_7x7_0_split
I1119 23:06:45.572352 12775 net.cpp:157] Top shape: 1 9 24 24 (5184)
I1119 23:06:45.572356 12775 net.cpp:157] Top shape: 1 9 24 24 (5184)
I1119 23:06:45.572360 12775 net.cpp:157] Top shape: 1 9 24 24 (5184)
I1119 23:06:45.572362 12775 net.cpp:165] Memory required for data: 1579255044
I1119 23:06:45.572365 12775 layer_factory.hpp:77] Creating layer detection_loss_3_7x7
I1119 23:06:45.572371 12775 net.cpp:100] Creating Layer detection_loss_3_7x7
I1119 23:06:45.572374 12775 net.cpp:434] detection_loss_3_7x7 <- LFCN_3_7x7_LFCN_3_7x7_0_split_0
I1119 23:06:45.572379 12775 net.cpp:434] detection_loss_3_7x7 <- label_3_7x7_data_6_split_0
I1119 23:06:45.572386 12775 net.cpp:408] detection_loss_3_7x7 -> loss_3_7x7
I1119 23:06:45.572392 12775 layer_factory.hpp:77] Creating layer detection_loss_3_7x7
I1119 23:06:45.573096 12775 net.cpp:150] Setting up detection_loss_3_7x7
I1119 23:06:45.573107 12775 net.cpp:157] Top shape: 1 1 1 2 (2)
I1119 23:06:45.573110 12775 net.cpp:160]     with loss weight 1
I1119 23:06:45.573117 12775 net.cpp:165] Memory required for data: 1579255052
I1119 23:06:45.573122 12775 layer_factory.hpp:77] Creating layer detection_accuracy_3_7x7
I1119 23:06:45.573129 12775 net.cpp:100] Creating Layer detection_accuracy_3_7x7
I1119 23:06:45.573133 12775 net.cpp:434] detection_accuracy_3_7x7 <- LFCN_3_7x7_LFCN_3_7x7_0_split_1
I1119 23:06:45.573138 12775 net.cpp:434] detection_accuracy_3_7x7 <- label_3_7x7_data_6_split_1
I1119 23:06:45.573143 12775 net.cpp:408] detection_accuracy_3_7x7 -> accuracy_3_7x7
I1119 23:06:45.573149 12775 net.cpp:408] detection_accuracy_3_7x7 -> boxiou_3_7x7
I1119 23:06:45.573191 12775 net.cpp:150] Setting up detection_accuracy_3_7x7
I1119 23:06:45.573199 12775 net.cpp:157] Top shape: 1 1 1 2 (2)
I1119 23:06:45.573204 12775 net.cpp:157] Top shape: 1 1 1 1 (1)
I1119 23:06:45.573206 12775 net.cpp:165] Memory required for data: 1579255064
I1119 23:06:45.573210 12775 layer_factory.hpp:77] Creating layer pool6
I1119 23:06:45.573216 12775 net.cpp:100] Creating Layer pool6
I1119 23:06:45.573220 12775 net.cpp:434] pool6 <- conv6_1_relu6_1_0_split_2
I1119 23:06:45.573225 12775 net.cpp:408] pool6 -> pool6
I1119 23:06:45.573266 12775 net.cpp:150] Setting up pool6
I1119 23:06:45.573271 12775 net.cpp:157] Top shape: 1 512 12 12 (73728)
I1119 23:06:45.573276 12775 net.cpp:165] Memory required for data: 1579549976
I1119 23:06:45.573278 12775 layer_factory.hpp:77] Creating layer LFCN_4_5x5
I1119 23:06:45.573287 12775 net.cpp:100] Creating Layer LFCN_4_5x5
I1119 23:06:45.573290 12775 net.cpp:434] LFCN_4_5x5 <- pool6
I1119 23:06:45.573297 12775 net.cpp:408] LFCN_4_5x5 -> LFCN_4_5x5
I1119 23:06:45.576943 12775 net.cpp:150] Setting up LFCN_4_5x5
I1119 23:06:45.576954 12775 net.cpp:157] Top shape: 1 9 12 12 (1296)
I1119 23:06:45.576957 12775 net.cpp:165] Memory required for data: 1579555160
I1119 23:06:45.576963 12775 layer_factory.hpp:77] Creating layer LFCN_4_5x5_LFCN_4_5x5_0_split
I1119 23:06:45.576968 12775 net.cpp:100] Creating Layer LFCN_4_5x5_LFCN_4_5x5_0_split
I1119 23:06:45.576972 12775 net.cpp:434] LFCN_4_5x5_LFCN_4_5x5_0_split <- LFCN_4_5x5
I1119 23:06:45.576977 12775 net.cpp:408] LFCN_4_5x5_LFCN_4_5x5_0_split -> LFCN_4_5x5_LFCN_4_5x5_0_split_0
I1119 23:06:45.576984 12775 net.cpp:408] LFCN_4_5x5_LFCN_4_5x5_0_split -> LFCN_4_5x5_LFCN_4_5x5_0_split_1
I1119 23:06:45.576989 12775 net.cpp:408] LFCN_4_5x5_LFCN_4_5x5_0_split -> LFCN_4_5x5_LFCN_4_5x5_0_split_2
I1119 23:06:45.577042 12775 net.cpp:150] Setting up LFCN_4_5x5_LFCN_4_5x5_0_split
I1119 23:06:45.577050 12775 net.cpp:157] Top shape: 1 9 12 12 (1296)
I1119 23:06:45.577056 12775 net.cpp:157] Top shape: 1 9 12 12 (1296)
I1119 23:06:45.577060 12775 net.cpp:157] Top shape: 1 9 12 12 (1296)
I1119 23:06:45.577064 12775 net.cpp:165] Memory required for data: 1579570712
I1119 23:06:45.577069 12775 layer_factory.hpp:77] Creating layer detection_loss_4_5x5
I1119 23:06:45.577080 12775 net.cpp:100] Creating Layer detection_loss_4_5x5
I1119 23:06:45.577085 12775 net.cpp:434] detection_loss_4_5x5 <- LFCN_4_5x5_LFCN_4_5x5_0_split_0
I1119 23:06:45.577091 12775 net.cpp:434] detection_loss_4_5x5 <- label_4_5x5_data_7_split_0
I1119 23:06:45.577098 12775 net.cpp:408] detection_loss_4_5x5 -> loss_4_5x5
I1119 23:06:45.577107 12775 layer_factory.hpp:77] Creating layer detection_loss_4_5x5
I1119 23:06:45.577855 12775 net.cpp:150] Setting up detection_loss_4_5x5
I1119 23:06:45.577869 12775 net.cpp:157] Top shape: 1 1 1 2 (2)
I1119 23:06:45.577872 12775 net.cpp:160]     with loss weight 1
I1119 23:06:45.577878 12775 net.cpp:165] Memory required for data: 1579570720
I1119 23:06:45.577881 12775 layer_factory.hpp:77] Creating layer detection_accuracy_4_5x5
I1119 23:06:45.577888 12775 net.cpp:100] Creating Layer detection_accuracy_4_5x5
I1119 23:06:45.577893 12775 net.cpp:434] detection_accuracy_4_5x5 <- LFCN_4_5x5_LFCN_4_5x5_0_split_1
I1119 23:06:45.577898 12775 net.cpp:434] detection_accuracy_4_5x5 <- label_4_5x5_data_7_split_1
I1119 23:06:45.577903 12775 net.cpp:408] detection_accuracy_4_5x5 -> accuracy_4_5x5
I1119 23:06:45.577909 12775 net.cpp:408] detection_accuracy_4_5x5 -> boxiou_4_5x5
I1119 23:06:45.577950 12775 net.cpp:150] Setting up detection_accuracy_4_5x5
I1119 23:06:45.577955 12775 net.cpp:157] Top shape: 1 1 1 2 (2)
I1119 23:06:45.577960 12775 net.cpp:157] Top shape: 1 1 1 1 (1)
I1119 23:06:45.577962 12775 net.cpp:165] Memory required for data: 1579570732
I1119 23:06:45.577966 12775 layer_factory.hpp:77] Creating layer proposals
I1119 23:06:45.577975 12775 net.cpp:100] Creating Layer proposals
I1119 23:06:45.577977 12775 net.cpp:434] proposals <- LFCN_1_5x5_LFCN_1_5x5_0_split_2
I1119 23:06:45.577982 12775 net.cpp:434] proposals <- LFCN_1_7x7_LFCN_1_7x7_0_split_2
I1119 23:06:45.577986 12775 net.cpp:434] proposals <- LFCN_2_5x5_LFCN_2_5x5_0_split_2
I1119 23:06:45.577991 12775 net.cpp:434] proposals <- LFCN_2_7x7_LFCN_2_7x7_0_split_2
I1119 23:06:45.577993 12775 net.cpp:434] proposals <- LFCN_3_5x5_LFCN_3_5x5_0_split_2
I1119 23:06:45.577997 12775 net.cpp:434] proposals <- LFCN_3_7x7_LFCN_3_7x7_0_split_2
I1119 23:06:45.578001 12775 net.cpp:434] proposals <- LFCN_4_5x5_LFCN_4_5x5_0_split_2
I1119 23:06:45.578006 12775 net.cpp:408] proposals -> proposals
I1119 23:06:45.578030 12775 net.cpp:150] Setting up proposals
I1119 23:06:45.578037 12775 net.cpp:157] Top shape: 1 5 1 1 (5)
I1119 23:06:45.578040 12775 net.cpp:165] Memory required for data: 1579570752
I1119 23:06:45.578043 12775 layer_factory.hpp:77] Creating layer proposal_info
I1119 23:06:45.578053 12775 net.cpp:100] Creating Layer proposal_info
I1119 23:06:45.578058 12775 net.cpp:434] proposal_info <- proposals
I1119 23:06:45.578061 12775 net.cpp:434] proposal_info <- gt_boxes
I1119 23:06:45.578066 12775 net.cpp:408] proposal_info -> rois
I1119 23:06:45.578074 12775 net.cpp:408] proposal_info -> proposal_labels
I1119 23:06:45.578080 12775 net.cpp:408] proposal_info -> proposal_targets
I1119 23:06:45.578086 12775 net.cpp:408] proposal_info -> box_inside_weights
I1119 23:06:45.578092 12775 net.cpp:408] proposal_info -> box_outside_weights
I1119 23:06:45.578099 12775 net.cpp:408] proposal_info -> match_gt_boxes
I1119 23:06:45.578193 12775 net.cpp:150] Setting up proposal_info
I1119 23:06:45.578202 12775 net.cpp:157] Top shape: 128 5 1 1 (640)
I1119 23:06:45.578205 12775 net.cpp:157] Top shape: 128 1 1 1 (128)
I1119 23:06:45.578209 12775 net.cpp:157] Top shape: 128 20 1 1 (2560)
I1119 23:06:45.578214 12775 net.cpp:157] Top shape: 128 20 1 1 (2560)
I1119 23:06:45.578218 12775 net.cpp:157] Top shape: 128 20 1 1 (2560)
I1119 23:06:45.578222 12775 net.cpp:157] Top shape: 128 6 1 1 (768)
I1119 23:06:45.578225 12775 net.cpp:165] Memory required for data: 1579607616
I1119 23:06:45.578228 12775 layer_factory.hpp:77] Creating layer rois_proposal_info_0_split
I1119 23:06:45.578234 12775 net.cpp:100] Creating Layer rois_proposal_info_0_split
I1119 23:06:45.578238 12775 net.cpp:434] rois_proposal_info_0_split <- rois
I1119 23:06:45.578243 12775 net.cpp:408] rois_proposal_info_0_split -> rois_proposal_info_0_split_0
I1119 23:06:45.578248 12775 net.cpp:408] rois_proposal_info_0_split -> rois_proposal_info_0_split_1
I1119 23:06:45.578253 12775 net.cpp:408] rois_proposal_info_0_split -> rois_proposal_info_0_split_2
I1119 23:06:45.578301 12775 net.cpp:150] Setting up rois_proposal_info_0_split
I1119 23:06:45.578308 12775 net.cpp:157] Top shape: 128 5 1 1 (640)
I1119 23:06:45.578312 12775 net.cpp:157] Top shape: 128 5 1 1 (640)
I1119 23:06:45.578316 12775 net.cpp:157] Top shape: 128 5 1 1 (640)
I1119 23:06:45.578320 12775 net.cpp:165] Memory required for data: 1579615296
I1119 23:06:45.578322 12775 layer_factory.hpp:77] Creating layer proposal_labels_proposal_info_1_split
I1119 23:06:45.578328 12775 net.cpp:100] Creating Layer proposal_labels_proposal_info_1_split
I1119 23:06:45.578331 12775 net.cpp:434] proposal_labels_proposal_info_1_split <- proposal_labels
I1119 23:06:45.578336 12775 net.cpp:408] proposal_labels_proposal_info_1_split -> proposal_labels_proposal_info_1_split_0
I1119 23:06:45.578341 12775 net.cpp:408] proposal_labels_proposal_info_1_split -> proposal_labels_proposal_info_1_split_1
I1119 23:06:45.578377 12775 net.cpp:150] Setting up proposal_labels_proposal_info_1_split
I1119 23:06:45.578383 12775 net.cpp:157] Top shape: 128 1 1 1 (128)
I1119 23:06:45.578387 12775 net.cpp:157] Top shape: 128 1 1 1 (128)
I1119 23:06:45.578390 12775 net.cpp:165] Memory required for data: 1579616320
I1119 23:06:45.578393 12775 layer_factory.hpp:77] Creating layer softmax
I1119 23:06:45.578398 12775 net.cpp:100] Creating Layer softmax
I1119 23:06:45.578402 12775 net.cpp:434] softmax <- attention_attention_0_split_1
I1119 23:06:45.578407 12775 net.cpp:408] softmax -> softmax_attention
I1119 23:06:45.578619 12775 net.cpp:150] Setting up softmax
I1119 23:06:45.578629 12775 net.cpp:157] Top shape: 1 3 96 96 (27648)
I1119 23:06:45.578632 12775 net.cpp:165] Memory required for data: 1579726912
I1119 23:06:45.578636 12775 layer_factory.hpp:77] Creating layer slice1
I1119 23:06:45.578642 12775 net.cpp:100] Creating Layer slice1
I1119 23:06:45.578645 12775 net.cpp:434] slice1 <- softmax_attention
I1119 23:06:45.578650 12775 net.cpp:408] slice1 -> bg
I1119 23:06:45.578658 12775 net.cpp:408] slice1 -> attention1
I1119 23:06:45.578696 12775 net.cpp:150] Setting up slice1
I1119 23:06:45.578706 12775 net.cpp:157] Top shape: 1 1 96 96 (9216)
I1119 23:06:45.578711 12775 net.cpp:157] Top shape: 1 2 96 96 (18432)
I1119 23:06:45.578714 12775 net.cpp:165] Memory required for data: 1579837504
I1119 23:06:45.578719 12775 layer_factory.hpp:77] Creating layer silence
I1119 23:06:45.578727 12775 net.cpp:100] Creating Layer silence
I1119 23:06:45.578733 12775 net.cpp:434] silence <- bg
I1119 23:06:45.578739 12775 net.cpp:150] Setting up silence
I1119 23:06:45.578745 12775 net.cpp:165] Memory required for data: 1579837504
I1119 23:06:45.578750 12775 layer_factory.hpp:77] Creating layer conv4_3_new
I1119 23:06:45.578757 12775 net.cpp:100] Creating Layer conv4_3_new
I1119 23:06:45.578761 12775 net.cpp:434] conv4_3_new <- conv4_3_relu4_3_0_split_3
I1119 23:06:45.578768 12775 net.cpp:434] conv4_3_new <- attention1
I1119 23:06:45.578778 12775 net.cpp:408] conv4_3_new -> conv4_3_new
I1119 23:06:45.578819 12775 net.cpp:150] Setting up conv4_3_new
I1119 23:06:45.578830 12775 net.cpp:157] Top shape: 1 514 96 96 (4737024)
I1119 23:06:45.578833 12775 net.cpp:165] Memory required for data: 1598785600
I1119 23:06:45.578838 12775 layer_factory.hpp:77] Creating layer conv4_3_2x
I1119 23:06:45.578848 12775 net.cpp:100] Creating Layer conv4_3_2x
I1119 23:06:45.578855 12775 net.cpp:434] conv4_3_2x <- conv4_3_new
I1119 23:06:45.578863 12775 net.cpp:408] conv4_3_2x -> conv4_3_2x
I1119 23:06:45.579368 12775 net.cpp:150] Setting up conv4_3_2x
I1119 23:06:45.579378 12775 net.cpp:157] Top shape: 1 514 192 192 (18948096)
I1119 23:06:45.579383 12775 net.cpp:165] Memory required for data: 1674577984
I1119 23:06:45.579390 12775 layer_factory.hpp:77] Creating layer conv4_3_2x_conv4_3_2x_0_split
I1119 23:06:45.579397 12775 net.cpp:100] Creating Layer conv4_3_2x_conv4_3_2x_0_split
I1119 23:06:45.579402 12775 net.cpp:434] conv4_3_2x_conv4_3_2x_0_split <- conv4_3_2x
I1119 23:06:45.579408 12775 net.cpp:408] conv4_3_2x_conv4_3_2x_0_split -> conv4_3_2x_conv4_3_2x_0_split_0
I1119 23:06:45.579417 12775 net.cpp:408] conv4_3_2x_conv4_3_2x_0_split -> conv4_3_2x_conv4_3_2x_0_split_1
I1119 23:06:45.579463 12775 net.cpp:150] Setting up conv4_3_2x_conv4_3_2x_0_split
I1119 23:06:45.579473 12775 net.cpp:157] Top shape: 1 514 192 192 (18948096)
I1119 23:06:45.579478 12775 net.cpp:157] Top shape: 1 514 192 192 (18948096)
I1119 23:06:45.579483 12775 net.cpp:165] Memory required for data: 1826162752
I1119 23:06:45.579486 12775 layer_factory.hpp:77] Creating layer roi_pool_org
I1119 23:06:45.579496 12775 net.cpp:100] Creating Layer roi_pool_org
I1119 23:06:45.579502 12775 net.cpp:434] roi_pool_org <- conv4_3_2x_conv4_3_2x_0_split_0
I1119 23:06:45.579509 12775 net.cpp:434] roi_pool_org <- rois_proposal_info_0_split_0
I1119 23:06:45.579515 12775 net.cpp:408] roi_pool_org -> roi_pool_org
I1119 23:06:45.579525 12775 roi_pooling_layer.cpp:33] Spatial scale: 0.25
I1119 23:06:45.579576 12775 net.cpp:150] Setting up roi_pool_org
I1119 23:06:45.579586 12775 net.cpp:157] Top shape: 128 514 7 7 (3223808)
I1119 23:06:45.579589 12775 net.cpp:165] Memory required for data: 1839057984
I1119 23:06:45.579594 12775 layer_factory.hpp:77] Creating layer roi_pool_ctx
I1119 23:06:45.579602 12775 net.cpp:100] Creating Layer roi_pool_ctx
I1119 23:06:45.579607 12775 net.cpp:434] roi_pool_ctx <- conv4_3_2x_conv4_3_2x_0_split_1
I1119 23:06:45.579612 12775 net.cpp:434] roi_pool_ctx <- rois_proposal_info_0_split_1
I1119 23:06:45.579622 12775 net.cpp:408] roi_pool_ctx -> roi_pool_ctx
I1119 23:06:45.579630 12775 roi_pooling_layer.cpp:33] Spatial scale: 0.25
I1119 23:06:45.579676 12775 net.cpp:150] Setting up roi_pool_ctx
I1119 23:06:45.579687 12775 net.cpp:157] Top shape: 128 514 7 7 (3223808)
I1119 23:06:45.579692 12775 net.cpp:165] Memory required for data: 1851953216
I1119 23:06:45.579697 12775 layer_factory.hpp:77] Creating layer roi_pool
I1119 23:06:45.579704 12775 net.cpp:100] Creating Layer roi_pool
I1119 23:06:45.579708 12775 net.cpp:434] roi_pool <- roi_pool_org
I1119 23:06:45.579715 12775 net.cpp:434] roi_pool <- roi_pool_ctx
I1119 23:06:45.579722 12775 net.cpp:408] roi_pool -> roi_pool
I1119 23:06:45.579752 12775 net.cpp:150] Setting up roi_pool
I1119 23:06:45.579761 12775 net.cpp:157] Top shape: 128 1028 7 7 (6447616)
I1119 23:06:45.579766 12775 net.cpp:165] Memory required for data: 1877743680
I1119 23:06:45.579771 12775 layer_factory.hpp:77] Creating layer roi_c1
I1119 23:06:45.579782 12775 net.cpp:100] Creating Layer roi_c1
I1119 23:06:45.579788 12775 net.cpp:434] roi_c1 <- roi_pool
I1119 23:06:45.579797 12775 net.cpp:408] roi_c1 -> roi_c1
I1119 23:06:45.697495 12775 net.cpp:150] Setting up roi_c1
I1119 23:06:45.697525 12775 net.cpp:157] Top shape: 128 512 5 5 (1638400)
I1119 23:06:45.697531 12775 net.cpp:165] Memory required for data: 1884297280
I1119 23:06:45.697543 12775 layer_factory.hpp:77] Creating layer roi_c1_relu
I1119 23:06:45.697559 12775 net.cpp:100] Creating Layer roi_c1_relu
I1119 23:06:45.697568 12775 net.cpp:434] roi_c1_relu <- roi_c1
I1119 23:06:45.697576 12775 net.cpp:395] roi_c1_relu -> roi_c1 (in-place)
I1119 23:06:45.697746 12775 net.cpp:150] Setting up roi_c1_relu
I1119 23:06:45.697758 12775 net.cpp:157] Top shape: 128 512 5 5 (1638400)
I1119 23:06:45.697762 12775 net.cpp:165] Memory required for data: 1890850880
I1119 23:06:45.697767 12775 layer_factory.hpp:77] Creating layer fc6
I1119 23:06:45.697779 12775 net.cpp:100] Creating Layer fc6
I1119 23:06:45.697787 12775 net.cpp:434] fc6 <- roi_c1
I1119 23:06:45.697796 12775 net.cpp:408] fc6 -> fc6
I1119 23:06:46.913161 12775 net.cpp:150] Setting up fc6
I1119 23:06:46.913204 12775 net.cpp:157] Top shape: 128 4096 (524288)
I1119 23:06:46.913209 12775 net.cpp:165] Memory required for data: 1892948032
I1119 23:06:46.913223 12775 layer_factory.hpp:77] Creating layer relu6
I1119 23:06:46.913239 12775 net.cpp:100] Creating Layer relu6
I1119 23:06:46.913247 12775 net.cpp:434] relu6 <- fc6
I1119 23:06:46.913256 12775 net.cpp:395] relu6 -> fc6 (in-place)
I1119 23:06:46.913512 12775 net.cpp:150] Setting up relu6
I1119 23:06:46.913523 12775 net.cpp:157] Top shape: 128 4096 (524288)
I1119 23:06:46.913528 12775 net.cpp:165] Memory required for data: 1895045184
I1119 23:06:46.913533 12775 layer_factory.hpp:77] Creating layer drop6
I1119 23:06:46.913543 12775 net.cpp:100] Creating Layer drop6
I1119 23:06:46.913550 12775 net.cpp:434] drop6 <- fc6
I1119 23:06:46.913556 12775 net.cpp:395] drop6 -> fc6 (in-place)
I1119 23:06:46.913583 12775 net.cpp:150] Setting up drop6
I1119 23:06:46.913591 12775 net.cpp:157] Top shape: 128 4096 (524288)
I1119 23:06:46.913596 12775 net.cpp:165] Memory required for data: 1897142336
I1119 23:06:46.913600 12775 layer_factory.hpp:77] Creating layer fc6_drop6_0_split
I1119 23:06:46.913611 12775 net.cpp:100] Creating Layer fc6_drop6_0_split
I1119 23:06:46.913619 12775 net.cpp:434] fc6_drop6_0_split <- fc6
I1119 23:06:46.913626 12775 net.cpp:408] fc6_drop6_0_split -> fc6_drop6_0_split_0
I1119 23:06:46.913637 12775 net.cpp:408] fc6_drop6_0_split -> fc6_drop6_0_split_1
I1119 23:06:46.913686 12775 net.cpp:150] Setting up fc6_drop6_0_split
I1119 23:06:46.913694 12775 net.cpp:157] Top shape: 128 4096 (524288)
I1119 23:06:46.913702 12775 net.cpp:157] Top shape: 128 4096 (524288)
I1119 23:06:46.913707 12775 net.cpp:165] Memory required for data: 1901336640
I1119 23:06:46.913712 12775 layer_factory.hpp:77] Creating layer cls_pred
I1119 23:06:46.913720 12775 net.cpp:100] Creating Layer cls_pred
I1119 23:06:46.913727 12775 net.cpp:434] cls_pred <- fc6_drop6_0_split_0
I1119 23:06:46.913738 12775 net.cpp:408] cls_pred -> cls_pred
I1119 23:06:46.914376 12775 net.cpp:150] Setting up cls_pred
I1119 23:06:46.914386 12775 net.cpp:157] Top shape: 128 5 (640)
I1119 23:06:46.914389 12775 net.cpp:165] Memory required for data: 1901339200
I1119 23:06:46.914397 12775 layer_factory.hpp:77] Creating layer cls_pred_cls_pred_0_split
I1119 23:06:46.914407 12775 net.cpp:100] Creating Layer cls_pred_cls_pred_0_split
I1119 23:06:46.914414 12775 net.cpp:434] cls_pred_cls_pred_0_split <- cls_pred
I1119 23:06:46.914422 12775 net.cpp:408] cls_pred_cls_pred_0_split -> cls_pred_cls_pred_0_split_0
I1119 23:06:46.914429 12775 net.cpp:408] cls_pred_cls_pred_0_split -> cls_pred_cls_pred_0_split_1
I1119 23:06:46.914474 12775 net.cpp:150] Setting up cls_pred_cls_pred_0_split
I1119 23:06:46.914482 12775 net.cpp:157] Top shape: 128 5 (640)
I1119 23:06:46.914487 12775 net.cpp:157] Top shape: 128 5 (640)
I1119 23:06:46.914492 12775 net.cpp:165] Memory required for data: 1901344320
I1119 23:06:46.914496 12775 layer_factory.hpp:77] Creating layer bbox_pred
I1119 23:06:46.914503 12775 net.cpp:100] Creating Layer bbox_pred
I1119 23:06:46.914510 12775 net.cpp:434] bbox_pred <- fc6_drop6_0_split_1
I1119 23:06:46.914518 12775 net.cpp:408] bbox_pred -> bbox_pred
I1119 23:06:46.916697 12775 net.cpp:150] Setting up bbox_pred
I1119 23:06:46.916707 12775 net.cpp:157] Top shape: 128 20 (2560)
I1119 23:06:46.916709 12775 net.cpp:165] Memory required for data: 1901354560
I1119 23:06:46.916716 12775 layer_factory.hpp:77] Creating layer bbox_pred_bbox_pred_0_split
I1119 23:06:46.916723 12775 net.cpp:100] Creating Layer bbox_pred_bbox_pred_0_split
I1119 23:06:46.916728 12775 net.cpp:434] bbox_pred_bbox_pred_0_split <- bbox_pred
I1119 23:06:46.916738 12775 net.cpp:408] bbox_pred_bbox_pred_0_split -> bbox_pred_bbox_pred_0_split_0
I1119 23:06:46.916745 12775 net.cpp:408] bbox_pred_bbox_pred_0_split -> bbox_pred_bbox_pred_0_split_1
I1119 23:06:46.916780 12775 net.cpp:150] Setting up bbox_pred_bbox_pred_0_split
I1119 23:06:46.916787 12775 net.cpp:157] Top shape: 128 20 (2560)
I1119 23:06:46.916792 12775 net.cpp:157] Top shape: 128 20 (2560)
I1119 23:06:46.916796 12775 net.cpp:165] Memory required for data: 1901375040
I1119 23:06:46.916800 12775 layer_factory.hpp:77] Creating layer loss_cls
I1119 23:06:46.916808 12775 net.cpp:100] Creating Layer loss_cls
I1119 23:06:46.916813 12775 net.cpp:434] loss_cls <- cls_pred_cls_pred_0_split_0
I1119 23:06:46.916821 12775 net.cpp:434] loss_cls <- proposal_labels_proposal_info_1_split_0
…
