…
    downsample_rate: 16
    downsample_rate: 32
    downsample_rate: 32
    downsample_rate: 64
    coord_num: 4
    field_h: 60
    field_h: 84
    field_h: 120
    field_h: 168
    field_h: 240
    field_h: 336
    field_h: 480
    field_w: 60
    field_w: 84
    field_w: 120
    field_w: 168
    field_w: 240
    field_w: 336
    field_w: 480
    fg_threshold: 0.5
    resize_width: 1344
    resize_height: 768
    crop_width: 768
    crop_height: 768
    do_multiple_scale: true
    min_scale: 60
    max_scale: 480
    min_gt_height: 25
    shuffle: true
  }
}
layer {
  name: "slice"
  type: "Slice"
  bottom: "data"
  top: "data123"
  top: "ch4"
  slice_param {
    slice_point: 3
    axis: 1
  }
}
layer {
  name: "conv1_1"
  type: "Convolution"
  bottom: "data123"
  top: "conv1_1"
  convolution_param {
    num_output: 64
    pad: 1
    kernel_size: 3
  }
}
layer {
  name: "relu1_1"
  type: "ReLU"
  bottom: "conv1_1"
  top: "conv1_1"
}
layer {
  name: "conv1_2"
  type: "Convolution"
  bottom: "conv1_1"
  top: "conv1_2"
  convolution_param {
    num_output: 64
    pad: 1
    kernel_size: 3
  }
}
layer {
  name: "relu1_2"
  type: "ReLU"
  bottom: "conv1_2"
  top: "conv1_2"
}
layer {
  name: "pool1"
  type: "Pooling"
  bottom: "conv1_2"
  top: "pool1"
  pooling_param {
    pool: MAX
    kernel_size: 2
    stride: 2
  }
}
layer {
  name: "conv2_1"
  type: "Convolution"
  bottom: "pool1"
  top: "conv2_1"
  convolution_param {
    num_output: 128
    pad: 1
    kernel_size: 3
  }
}
layer {
  name: "relu2_1"
  type: "ReLU"
  bottom: "conv2_1"
  top: "conv2_1"
}
layer {
  name: "conv2_2"
  type: "Convolution"
  bottom: "conv2_1"
  top: "conv2_2"
  convolution_param {
    num_output: 128
    pad: 1
    kernel_size: 3
  }
}
layer {
  name: "relu2_2"
  type: "ReLU"
  bottom: "conv2_2"
  top: "conv2_2"
}
layer {
  name: "pool2"
  type: "Pooling"
  bottom: "conv2_2"
  top: "pool2"
  pooling_param {
    pool: MAX
    kernel_size: 2
    stride: 2
  }
}
layer {
  name: "ch4_pool2"
  type: "Pooling"
  bottom: "ch4"
  top: "ch4_pool2"
  pooling_param {
    pool: MAX
    kernel_size: 4
    stride: 4
  }
}
layer {
  name: "pool2_concat"
  type: "Concat"
  bottom: "pool2"
  bottom: "ch4_pool2"
  top: "pool2_new"
}
layer {
  name: "conv3_1_new"
  type: "Convolution"
  bottom: "pool2_new"
  top: "conv3_1"
  convolution_param {
    num_output: 256
    pad: 1
    kernel_size: 3
  }
}
layer {
  name: "relu3_1"
  type: "ReLU"
  bottom: "conv3_1"
  top: "conv3_1"
}
layer {
  name: "conv3_2"
  type: "Convolution"
  bottom: "conv3_1"
  top: "conv3_2"
  convolution_param {
    num_output: 256
    pad: 1
    kernel_size: 3
  }
}
layer {
  name: "relu3_2"
  type: "ReLU"
  bottom: "conv3_2"
  top: "conv3_2"
}
layer {
  name: "conv3_3"
  type: "Convolution"
  bottom: "conv3_2"
  top: "conv3_3"
  convolution_param {
    num_output: 256
    pad: 1
    kernel_size: 3
  }
}
layer {
  name: "relu3_3"
  type: "ReLU"
  bottom: "conv3_3"
  top: "conv3_3"
}
layer {
  name: "pool3"
  type: "Pooling"
  bottom: "conv3_3"
  top: "pool3"
  pooling_param {
    pool: MAX
    kernel_size: 2
    stride: 2
  }
}
layer {
  name: "conv4_1"
  type: "Convolution"
  bottom: "pool3"
  top: "conv4_1"
  convolution_param {
    num_output: 512
    pad: 1
    kernel_size: 3
  }
}
layer {
  name: "relu4_1"
  type: "ReLU"
  bottom: "conv4_1"
  top: "conv4_1"
}
layer {
  name: "conv4_2"
  type: "Convolution"
  bottom: "conv4_1"
  top: "conv4_2"
  convolution_param {
    num_output: 512
    pad: 1
    kernel_size: 3
  }
}
layer {
  name: "relu4_2"
  type: "ReLU"
  bottom: "conv4_2"
  top: "conv4_2"
}
layer {
  name: "conv4_3"
  type: "Convolution"
  bottom: "conv4_2"
  top: "conv4_3"
  convolution_param {
    num_output: 512
    pad: 1
    kernel_size: 3
  }
}
layer {
  name: "relu4_3"
  type: "ReLU"
  bottom: "conv4_3"
  top: "conv4_3"
}
layer {
  name: "loss1_conv1"
  type: "Convolution"
  bottom: "conv4_3"
  top: "loss1_conv1"
  param {
    lr_mult: 1
    decay_mult: 1
  }
  param {
    lr_mult: 2
    decay_mult: 0
  }
  convolution_param {
    num_output: 512
    pad: 1
    kernel_size: 3
    weight_filler {
      type: "gaussian"
      std: 0.01
    }
    bias_filler {
      type: "constant"
    }
  }
}
layer {
  name: "loss_relu1"
  type: "ReLU"
  bottom: "loss1_conv1"
  top: "loss1_conv1"
}
layer {
  name: "LFCN_1_5x5"
  type: "Convolution"
  bottom: "loss1_conv1"
  top: "LFCN_1_5x5"
  param {
    lr_mult: 1
    decay_mult: 1
  }
  param {
    lr_mult: 2
    decay_mult: 0
  }
  convolution_param {
    num_output: 9
    pad: 2
    kernel_size: 5
    weight_filler {
      type: "gaussian"
      std: 0.001
    }
    bias_filler {
      type: "constant"
    }
  }
}
layer {
  name: "detection_loss_1_5x5"
  type: "DetectionLoss"
  bottom: "LFCN_1_5x5"
  bottom: "label_1_5x5"
  top: "loss_1_5x5"
  loss_weight: 0.9
  detection_loss_param {
    cls_num: 5
    coord_num: 4
    lambda: 0.05
    field_h: 60
    field_w: 60
    downsample_rate: 8
    bb_smooth: true
    field_whr: 2
    field_xyr: 2
    bg_threshold: 0.2
    bg_multiple: 2
    sample_mode: "random"
    pos_neg_weighted: true
  }
}
layer {
  name: "detection_accuracy_1_5x5"
  type: "DetectionAccuracy"
  bottom: "LFCN_1_5x5"
  bottom: "label_1_5x5"
  top: "accuracy_1_5x5"
  top: "boxiou_1_5x5"
  detection_accuracy_param {
    cls_num: 5
    coord_num: 4
    field_h: 60
    field_w: 60
    downsample_rate: 8
    field_whr: 2
    field_xyr: 2
  }
}
layer {
  name: "LFCN_1_7x7"
  type: "Convolution"
  bottom: "loss1_conv1"
  top: "LFCN_1_7x7"
  param {
    lr_mult: 1
    decay_mult: 1
  }
  param {
    lr_mult: 2
    decay_mult: 0
  }
  convolution_param {
    num_output: 9
    pad: 3
    kernel_size: 7
    weight_filler {
      type: "gaussian"
      std: 0.001
    }
    bias_filler {
      type: "constant"
    }
  }
}
layer {
  name: "detection_loss_1_7x7"
  type: "DetectionLoss"
  bottom: "LFCN_1_7x7"
  bottom: "label_1_7x7"
  top: "loss_1_7x7"
  loss_weight: 0.9
  detection_loss_param {
    cls_num: 5
    coord_num: 4
    lambda: 0.05
    field_h: 84
    field_w: 84
    downsample_rate: 8
    bb_smooth: true
    field_whr: 2
    field_xyr: 2
    bg_threshold: 0.2
    bg_multiple: 2
    sample_mode: "random"
    pos_neg_weighted: true
  }
}
layer {
  name: "detection_accuracy_1_7x7"
  type: "DetectionAccuracy"
  bottom: "LFCN_1_7x7"
  bottom: "label_1_7x7"
  top: "accuracy_1_7x7"
  top: "boxiou_1_7x7"
  detection_accuracy_param {
    cls_num: 5
    coord_num: 4
    field_h: 84
    field_w: 84
    downsample_rate: 8
    field_whr: 2
    field_xyr: 2
  }
}
layer {
  name: "pool4"
  type: "Pooling"
  bottom: "conv4_3"
  top: "pool4"
  pooling_param {
    pool: MAX
    kernel_size: 2
    stride: 2
  }
}
layer {
  name: "conv5_1"
  type: "Convolution"
  bottom: "pool4"
  top: "conv5_1"
  convolution_param {
    num_output: 512
    pad: 1
    kernel_size: 3
  }
}
layer {
  name: "relu5_1"
  type: "ReLU"
  bottom: "conv5_1"
  top: "conv5_1"
}
layer {
  name: "conv5_2"
  type: "Convolution"
  bottom: "conv5_1"
  top: "conv5_2"
  convolution_param {
    num_output: 512
    pad: 1
    kernel_size: 3
  }
}
layer {
  name: "relu5_2"
  type: "ReLU"
  bottom: "conv5_2"
  top: "conv5_2"
}
layer {
  name: "conv5_3"
  type: "Convolution"
  bottom: "conv5_2"
  top: "conv5_3"
  convolution_param {
    num_output: 512
    pad: 1
    kernel_size: 3
  }
}
layer {
  name: "relu5_3"
  type: "ReLU"
  bottom: "conv5_3"
  top: "conv5_3"
}
layer {
  name: "LFCN_2_5x5"
  type: "Convolution"
  bottom: "conv5_3"
  top: "LFCN_2_5x5"
  param {
    lr_mult: 1
    decay_mult: 1
  }
  param {
    lr_mult: 2
    decay_mult: 0
  }
  convolution_param {
    num_output: 9
    pad: 2
    kernel_size: 5
    weight_filler {
      type: "gaussian"
      std: 0.001
    }
    bias_filler {
      type: "constant"
    }
  }
}
layer {
  name: "detection_loss_2_5x5"
  type: "DetectionLoss"
  bottom: "LFCN_2_5x5"
  bottom: "label_2_5x5"
  top: "loss_2_5x5"
  detection_loss_param {
    cls_num: 5
    coord_num: 4
    lambda: 0.05
    field_h: 120
    field_w: 120
    downsample_rate: 16
    bb_smooth: true
    field_whr: 2
    field_xyr: 2
    bg_threshold: 0.2
    bg_multiple: 2
    sample_mode: "random"
    pos_neg_weighted: true
  }
}
layer {
  name: "detection_accuracy_2_5x5"
  type: "DetectionAccuracy"
  bottom: "LFCN_2_5x5"
  bottom: "label_2_5x5"
  top: "accuracy_2_5x5"
  top: "boxiou_2_5x5"
  detection_accuracy_param {
    cls_num: 5
    coord_num: 4
    field_h: 120
    field_w: 120
    downsample_rate: 16
    field_whr: 2
    field_xyr: 2
  }
}
layer {
  name: "LFCN_2_7x7"
  type: "Convolution"
  bottom: "conv5_3"
  top: "LFCN_2_7x7"
  param {
    lr_mult: 1
    decay_mult: 1
  }
  param {
    lr_mult: 2
    decay_mult: 0
  }
  convolution_param {
    num_output: 9
    pad: 3
    kernel_size: 7
    weight_filler {
      type: "gaussian"
      std: 0.001
    }
    bias_filler {
      type: "constant"
    }
  }
}
layer {
  name: "detection_loss_2_7x7"
  type: "DetectionLoss"
  bottom: "LFCN_2_7x7"
  bottom: "label_2_7x7"
  top: "loss_2_7x7"
  detection_loss_param {
    cls_num: 5
    coord_num: 4
    lambda: 0.05
    field_h: 168
    field_w: 168
    downsample_rate: 16
    bb_smooth: true
    field_whr: 2
    field_xyr: 2
    bg_threshold: 0.2
    bg_multiple: 2
    sample_mode: "random"
    pos_neg_weighted: true
  }
}
layer {
  name: "detection_accuracy_2_7x7"
  type: "DetectionAccuracy"
  bottom: "LFCN_2_7x7"
  bottom: "label_2_7x7"
  top: "accuracy_2_7x7"
  top: "boxiou_2_7x7"
  detection_accuracy_param {
    cls_num: 5
    coord_num: 4
    field_h: 168
    field_w: 168
    downsample_rate: 16
    field_whr: 2
    field_xyr: 2
  }
}
layer {
  name: "pool5"
  type: "Pooling"
  bottom: "conv5_3"
  top: "pool5"
  pooling_param {
    pool: MAX
    kernel_size: 2
    stride: 2
  }
}
layer {
  name: "conv6_1"
  type: "Convolution"
  bottom: "pool5"
  top: "conv6_1"
  param {
    lr_mult: 1
    decay_mult: 1
  }
  param {
    lr_mult: 2
    decay_mult: 0
  }
  convolution_param {
    num_output: 512
    pad: 1
    kernel_size: 3
    weight_filler {
      type: "gaussian"
      std: 0.01
    }
    bias_filler {
      type: "constant"
    }
  }
}
layer {
  name: "relu6_1"
  type: "ReLU"
  bottom: "conv6_1"
  top: "conv6_1"
}
layer {
  name: "LFCN_3_5x5"
  type: "Convolution"
  bottom: "conv6_1"
  top: "LFCN_3_5x5"
  param {
    lr_mult: 1
    decay_mult: 1
  }
  param {
    lr_mult: 2
    decay_mult: 0
  }
  convolution_param {
    num_output: 9
    pad: 2
    kernel_size: 5
    weight_filler {
      type: "gaussian"
      std: 0.001
    }
    bias_filler {
      type: "constant"
    }
  }
}
layer {
  name: "detection_loss_3_5x5"
  type: "DetectionLoss"
  bottom: "LFCN_3_5x5"
  bottom: "label_3_5x5"
  top: "loss_3_5x5"
  detection_loss_param {
    cls_num: 5
    coord_num: 4
    lambda: 0.05
    field_h: 240
    field_w: 240
    downsample_rate: 32
    bb_smooth: true
    field_whr: 2
    field_xyr: 2
    bg_threshold: 0.2
    bg_multiple: 2
    sample_mode: "random"
    pos_neg_weighted: true
  }
}
layer {
  name: "detection_accuracy_3_5x5"
  type: "DetectionAccuracy"
  bottom: "LFCN_3_5x5"
  bottom: "label_3_5x5"
  top: "accuracy_3_5x5"
  top: "boxiou_3_5x5"
  detection_accuracy_param {
    cls_num: 5
    coord_num: 4
    field_h: 240
    field_w: 240
    downsample_rate: 32
    field_whr: 2
    field_xyr: 2
  }
}
layer {
  name: "LFCN_3_7x7"
  type: "Convolution"
  bottom: "conv6_1"
  top: "LFCN_3_7x7"
  param {
    lr_mult: 1
    decay_mult: 1
  }
  param {
    lr_mult: 2
    decay_mult: 0
  }
  convolution_param {
    num_output: 9
    pad: 3
    kernel_size: 7
    weight_filler {
      type: "gaussian"
      std: 0.001
    }
    bias_filler {
      type: "constant"
    }
  }
}
layer {
  name: "detection_loss_3_7x7"
  type: "DetectionLoss"
  bottom: "LFCN_3_7x7"
  bottom: "label_3_7x7"
  top: "loss_3_7x7"
  detection_loss_param {
    cls_num: 5
    coord_num: 4
    lambda: 0.05
    field_h: 336
    field_w: 336
    downsample_rate: 32
    bb_smooth: true
    field_whr: 2
    field_xyr: 2
    bg_threshold: 0.2
    bg_multiple: 2
    sample_mode: "random"
    pos_neg_weighted: true
  }
}
layer {
  name: "detection_accuracy_3_7x7"
  type: "DetectionAccuracy"
  bottom: "LFCN_3_7x7"
  bottom: "label_3_7x7"
  top: "accuracy_3_7x7"
  top: "boxiou_3_7x7"
  detection_accuracy_param {
    cls_num: 5
    coord_num: 4
    field_h: 336
    field_w: 336
    downsample_rate: 32
    field_whr: 2
    field_xyr: 2
  }
}
layer {
  name: "pool6"
  type: "Pooling"
  bottom: "conv6_1"
  top: "pool6"
  pooling_param {
    pool: MAX
    kernel_size: 2
    stride: 2
  }
}
layer {
  name: "LFCN_4_5x5"
  type: "Convolution"
  bottom: "pool6"
  top: "LFCN_4_5x5"
  param {
    lr_mult: 1
    decay_mult: 1
  }
  param {
    lr_mult: 2
    decay_mult: 0
  }
  convolution_param {
    num_output: 9
    pad: 2
    kernel_size: 5
    weight_filler {
      type: "gaussian"
      std: 0.001
    }
    bias_filler {
      type: "constant"
    }
  }
}
layer {
  name: "detection_loss_4_5x5"
  type: "DetectionLoss"
  bottom: "LFCN_4_5x5"
  bottom: "label_4_5x5"
  top: "loss_4_5x5"
  detection_loss_param {
    cls_num: 5
    coord_num: 4
    lambda: 0.05
    field_h: 480
    field_w: 480
    downsample_rate: 64
    bb_smooth: true
    field_whr: 2
    field_xyr: 2
    bg_threshold: 0.2
    bg_multiple: 2
    sample_mode: "random"
    pos_neg_weighted: true
  }
}
layer {
  name: "detection_accuracy_4_5x5"
  type: "DetectionAccuracy"
  bottom: "LFCN_4_5x5"
  bottom: "label_4_5x5"
  top: "accuracy_4_5x5"
  top: "boxiou_4_5x5"
  detection_accuracy_param {
    cls_num: 5
    coord_num: 4
    field_h: 480
    field_w: 480
    downsample_rate: 64
    field_whr: 2
    field_xyr: 2
  }
}
I0510 15:51:18.692307  8393 layer_factory.hpp:77] Creating layer data
I0510 15:51:18.692384  8393 net.cpp:100] Creating Layer data
I0510 15:51:18.692402  8393 net.cpp:408] data -> data
…
I0510 15:51:18.724902  8393 image_gt_data_layer.cpp:235] output label size 1 : 4,6,96,96
I0510 15:51:18.724973  8393 image_gt_data_layer.cpp:235] output label size 2 : 4,6,48,48
I0510 15:51:18.725028  8393 image_gt_data_layer.cpp:235] output label size 3 : 4,6,48,48
I0510 15:51:18.725080  8393 image_gt_data_layer.cpp:235] output label size 4 : 4,6,24,24
I0510 15:51:18.725138  8393 image_gt_data_layer.cpp:235] output label size 5 : 4,6,24,24
I0510 15:51:18.725189  8393 image_gt_data_layer.cpp:235] output label size 6 : 4,6,12,12
I0510 15:51:18.797509  8393 net.cpp:150] Setting up data
I0510 15:51:18.797545  8393 net.cpp:157] Top shape: 4 4 768 768 (9437184)
I0510 15:51:18.797551  8393 net.cpp:157] Top shape: 4 6 96 96 (221184)
I0510 15:51:18.797556  8393 net.cpp:157] Top shape: 4 6 96 96 (221184)
I0510 15:51:18.797560  8393 net.cpp:157] Top shape: 4 6 48 48 (55296)
I0510 15:51:18.797565  8393 net.cpp:157] Top shape: 4 6 48 48 (55296)
I0510 15:51:18.797570  8393 net.cpp:157] Top shape: 4 6 24 24 (13824)
I0510 15:51:18.797574  8393 net.cpp:157] Top shape: 4 6 24 24 (13824)
I0510 15:51:18.797580  8393 net.cpp:157] Top shape: 4 6 12 12 (3456)
I0510 15:51:18.797583  8393 net.cpp:165] Memory required for data: 40084992
I0510 15:51:18.797592  8393 layer_factory.hpp:77] Creating layer label_1_5x5_data_1_split
I0510 15:51:18.797611  8393 net.cpp:100] Creating Layer label_1_5x5_data_1_split
I0510 15:51:18.797617  8393 net.cpp:434] label_1_5x5_data_1_split <- label_1_5x5
I0510 15:51:18.797628  8393 net.cpp:408] label_1_5x5_data_1_split -> label_1_5x5_data_1_split_0
I0510 15:51:18.797638  8393 net.cpp:408] label_1_5x5_data_1_split -> label_1_5x5_data_1_split_1
I0510 15:51:18.797881  8393 net.cpp:150] Setting up label_1_5x5_data_1_split
I0510 15:51:18.797925  8393 net.cpp:157] Top shape: 4 6 96 96 (221184)
I0510 15:51:18.797940  8393 net.cpp:157] Top shape: 4 6 96 96 (221184)
I0510 15:51:18.797948  8393 net.cpp:165] Memory required for data: 41854464
I0510 15:51:18.797960  8393 layer_factory.hpp:77] Creating layer label_1_7x7_data_2_split
I0510 15:51:18.797983  8393 net.cpp:100] Creating Layer label_1_7x7_data_2_split
I0510 15:51:18.797994  8393 net.cpp:434] label_1_7x7_data_2_split <- label_1_7x7
I0510 15:51:18.798009  8393 net.cpp:408] label_1_7x7_data_2_split -> label_1_7x7_data_2_split_0
I0510 15:51:18.798027  8393 net.cpp:408] label_1_7x7_data_2_split -> label_1_7x7_data_2_split_1
I0510 15:51:18.798096  8393 net.cpp:150] Setting up label_1_7x7_data_2_split
I0510 15:51:18.798110  8393 net.cpp:157] Top shape: 4 6 96 96 (221184)
I0510 15:51:18.798120  8393 net.cpp:157] Top shape: 4 6 96 96 (221184)
I0510 15:51:18.798127  8393 net.cpp:165] Memory required for data: 43623936
I0510 15:51:18.798135  8393 layer_factory.hpp:77] Creating layer label_2_5x5_data_3_split
I0510 15:51:18.798146  8393 net.cpp:100] Creating Layer label_2_5x5_data_3_split
I0510 15:51:18.798156  8393 net.cpp:434] label_2_5x5_data_3_split <- label_2_5x5
I0510 15:51:18.798166  8393 net.cpp:408] label_2_5x5_data_3_split -> label_2_5x5_data_3_split_0
I0510 15:51:18.798178  8393 net.cpp:408] label_2_5x5_data_3_split -> label_2_5x5_data_3_split_1
I0510 15:51:18.798241  8393 net.cpp:150] Setting up label_2_5x5_data_3_split
I0510 15:51:18.798254  8393 net.cpp:157] Top shape: 4 6 48 48 (55296)
I0510 15:51:18.798264  8393 net.cpp:157] Top shape: 4 6 48 48 (55296)
I0510 15:51:18.798274  8393 net.cpp:165] Memory required for data: 44066304
I0510 15:51:18.798280  8393 layer_factory.hpp:77] Creating layer label_2_7x7_data_4_split
I0510 15:51:18.798292  8393 net.cpp:100] Creating Layer label_2_7x7_data_4_split
I0510 15:51:18.798301  8393 net.cpp:434] label_2_7x7_data_4_split <- label_2_7x7
I0510 15:51:18.798315  8393 net.cpp:408] label_2_7x7_data_4_split -> label_2_7x7_data_4_split_0
I0510 15:51:18.798327  8393 net.cpp:408] label_2_7x7_data_4_split -> label_2_7x7_data_4_split_1
I0510 15:51:18.798385  8393 net.cpp:150] Setting up label_2_7x7_data_4_split
I0510 15:51:18.798398  8393 net.cpp:157] Top shape: 4 6 48 48 (55296)
I0510 15:51:18.798408  8393 net.cpp:157] Top shape: 4 6 48 48 (55296)
I0510 15:51:18.798418  8393 net.cpp:165] Memory required for data: 44508672
I0510 15:51:18.798425  8393 layer_factory.hpp:77] Creating layer label_3_5x5_data_5_split
I0510 15:51:18.798439  8393 net.cpp:100] Creating Layer label_3_5x5_data_5_split
I0510 15:51:18.798447  8393 net.cpp:434] label_3_5x5_data_5_split <- label_3_5x5
I0510 15:51:18.798458  8393 net.cpp:408] label_3_5x5_data_5_split -> label_3_5x5_data_5_split_0
I0510 15:51:18.798475  8393 net.cpp:408] label_3_5x5_data_5_split -> label_3_5x5_data_5_split_1
I0510 15:51:18.798532  8393 net.cpp:150] Setting up label_3_5x5_data_5_split
I0510 15:51:18.798547  8393 net.cpp:157] Top shape: 4 6 24 24 (13824)
I0510 15:51:18.798555  8393 net.cpp:157] Top shape: 4 6 24 24 (13824)
I0510 15:51:18.798563  8393 net.cpp:165] Memory required for data: 44619264
I0510 15:51:18.798571  8393 layer_factory.hpp:77] Creating layer label_3_7x7_data_6_split
I0510 15:51:18.798580  8393 net.cpp:100] Creating Layer label_3_7x7_data_6_split
I0510 15:51:18.798589  8393 net.cpp:434] label_3_7x7_data_6_split <- label_3_7x7
I0510 15:51:18.798601  8393 net.cpp:408] label_3_7x7_data_6_split -> label_3_7x7_data_6_split_0
I0510 15:51:18.798616  8393 net.cpp:408] label_3_7x7_data_6_split -> label_3_7x7_data_6_split_1
I0510 15:51:18.798671  8393 net.cpp:150] Setting up label_3_7x7_data_6_split
I0510 15:51:18.798682  8393 net.cpp:157] Top shape: 4 6 24 24 (13824)
I0510 15:51:18.798693  8393 net.cpp:157] Top shape: 4 6 24 24 (13824)
I0510 15:51:18.798702  8393 net.cpp:165] Memory required for data: 44729856
I0510 15:51:18.798710  8393 layer_factory.hpp:77] Creating layer label_4_5x5_data_7_split
I0510 15:51:18.798722  8393 net.cpp:100] Creating Layer label_4_5x5_data_7_split
I0510 15:51:18.798732  8393 net.cpp:434] label_4_5x5_data_7_split <- label_4_5x5
I0510 15:51:18.798743  8393 net.cpp:408] label_4_5x5_data_7_split -> label_4_5x5_data_7_split_0
I0510 15:51:18.798756  8393 net.cpp:408] label_4_5x5_data_7_split -> label_4_5x5_data_7_split_1
I0510 15:51:18.798837  8393 net.cpp:150] Setting up label_4_5x5_data_7_split
I0510 15:51:18.798853  8393 net.cpp:157] Top shape: 4 6 12 12 (3456)
I0510 15:51:18.798862  8393 net.cpp:157] Top shape: 4 6 12 12 (3456)
I0510 15:51:18.798869  8393 net.cpp:165] Memory required for data: 44757504
I0510 15:51:18.798877  8393 layer_factory.hpp:77] Creating layer slice
I0510 15:51:18.798897  8393 net.cpp:100] Creating Layer slice
I0510 15:51:18.798907  8393 net.cpp:434] slice <- data
I0510 15:51:18.798918  8393 net.cpp:408] slice -> data123
I0510 15:51:18.798934  8393 net.cpp:408] slice -> ch4
I0510 15:51:18.799005  8393 net.cpp:150] Setting up slice
I0510 15:51:18.799018  8393 net.cpp:157] Top shape: 4 3 768 768 (7077888)
I0510 15:51:18.799028  8393 net.cpp:157] Top shape: 4 1 768 768 (2359296)
I0510 15:51:18.799037  8393 net.cpp:165] Memory required for data: 82506240
I0510 15:51:18.799046  8393 layer_factory.hpp:77] Creating layer conv1_1
I0510 15:51:18.799068  8393 net.cpp:100] Creating Layer conv1_1
I0510 15:51:18.799077  8393 net.cpp:434] conv1_1 <- data123
I0510 15:51:18.799089  8393 net.cpp:408] conv1_1 -> conv1_1
I0510 15:51:19.061146  8393 net.cpp:150] Setting up conv1_1
I0510 15:51:19.061180  8393 net.cpp:157] Top shape: 4 64 768 768 (150994944)
I0510 15:51:19.061187  8393 net.cpp:165] Memory required for data: 686486016
I0510 15:51:19.061208  8393 layer_factory.hpp:77] Creating layer relu1_1
I0510 15:51:19.061223  8393 net.cpp:100] Creating Layer relu1_1
I0510 15:51:19.061229  8393 net.cpp:434] relu1_1 <- conv1_1
I0510 15:51:19.061237  8393 net.cpp:395] relu1_1 -> conv1_1 (in-place)
I0510 15:51:19.061496  8393 net.cpp:150] Setting up relu1_1
I0510 15:51:19.061508  8393 net.cpp:157] Top shape: 4 64 768 768 (150994944)
I0510 15:51:19.061513  8393 net.cpp:165] Memory required for data: 1290465792
I0510 15:51:19.061520  8393 layer_factory.hpp:77] Creating layer conv1_2
I0510 15:51:19.061532  8393 net.cpp:100] Creating Layer conv1_2
I0510 15:51:19.061538  8393 net.cpp:434] conv1_2 <- conv1_1
I0510 15:51:19.061547  8393 net.cpp:408] conv1_2 -> conv1_2
I0510 15:51:19.064234  8393 net.cpp:150] Setting up conv1_2
I0510 15:51:19.064254  8393 net.cpp:157] Top shape: 4 64 768 768 (150994944)
I0510 15:51:19.064258  8393 net.cpp:165] Memory required for data: 1894445568
I0510 15:51:19.064271  8393 layer_factory.hpp:77] Creating layer relu1_2
I0510 15:51:19.064280  8393 net.cpp:100] Creating Layer relu1_2
I0510 15:51:19.064283  8393 net.cpp:434] relu1_2 <- conv1_2
I0510 15:51:19.064291  8393 net.cpp:395] relu1_2 -> conv1_2 (in-place)
I0510 15:51:19.064486  8393 net.cpp:150] Setting up relu1_2
I0510 15:51:19.064496  8393 net.cpp:157] Top shape: 4 64 768 768 (150994944)
I0510 15:51:19.064498  8393 net.cpp:165] Memory required for data: 2498425344
I0510 15:51:19.064502  8393 layer_factory.hpp:77] Creating layer pool1
I0510 15:51:19.064508  8393 net.cpp:100] Creating Layer pool1
I0510 15:51:19.064512  8393 net.cpp:434] pool1 <- conv1_2
I0510 15:51:19.064518  8393 net.cpp:408] pool1 -> pool1
I0510 15:51:19.064569  8393 net.cpp:150] Setting up pool1
I0510 15:51:19.064576  8393 net.cpp:157] Top shape: 4 64 384 384 (37748736)
I0510 15:51:19.064579  8393 net.cpp:165] Memory required for data: 2649420288
I0510 15:51:19.064584  8393 layer_factory.hpp:77] Creating layer conv2_1
I0510 15:51:19.064590  8393 net.cpp:100] Creating Layer conv2_1
I0510 15:51:19.064594  8393 net.cpp:434] conv2_1 <- pool1
I0510 15:51:19.064600  8393 net.cpp:408] conv2_1 -> conv2_1
I0510 15:51:19.066658  8393 net.cpp:150] Setting up conv2_1
I0510 15:51:19.066671  8393 net.cpp:157] Top shape: 4 128 384 384 (75497472)
I0510 15:51:19.066674  8393 net.cpp:165] Memory required for data: 2951410176
I0510 15:51:19.066682  8393 layer_factory.hpp:77] Creating layer relu2_1
I0510 15:51:19.066689  8393 net.cpp:100] Creating Layer relu2_1
I0510 15:51:19.066691  8393 net.cpp:434] relu2_1 <- conv2_1
I0510 15:51:19.066695  8393 net.cpp:395] relu2_1 -> conv2_1 (in-place)
I0510 15:51:19.066845  8393 net.cpp:150] Setting up relu2_1
I0510 15:51:19.066854  8393 net.cpp:157] Top shape: 4 128 384 384 (75497472)
I0510 15:51:19.066856  8393 net.cpp:165] Memory required for data: 3253400064
I0510 15:51:19.066859  8393 layer_factory.hpp:77] Creating layer conv2_2
I0510 15:51:19.066869  8393 net.cpp:100] Creating Layer conv2_2
I0510 15:51:19.066872  8393 net.cpp:434] conv2_2 <- conv2_1
I0510 15:51:19.066879  8393 net.cpp:408] conv2_2 -> conv2_2
I0510 15:51:19.069368  8393 net.cpp:150] Setting up conv2_2
I0510 15:51:19.069396  8393 net.cpp:157] Top shape: 4 128 384 384 (75497472)
I0510 15:51:19.069399  8393 net.cpp:165] Memory required for data: 3555389952
I0510 15:51:19.069409  8393 layer_factory.hpp:77] Creating layer relu2_2
I0510 15:51:19.069422  8393 net.cpp:100] Creating Layer relu2_2
I0510 15:51:19.069427  8393 net.cpp:434] relu2_2 <- conv2_2
I0510 15:51:19.069433  8393 net.cpp:395] relu2_2 -> conv2_2 (in-place)
I0510 15:51:19.069600  8393 net.cpp:150] Setting up relu2_2
I0510 15:51:19.069610  8393 net.cpp:157] Top shape: 4 128 384 384 (75497472)
I0510 15:51:19.069613  8393 net.cpp:165] Memory required for data: 3857379840
I0510 15:51:19.069617  8393 layer_factory.hpp:77] Creating layer pool2
I0510 15:51:19.069625  8393 net.cpp:100] Creating Layer pool2
I0510 15:51:19.069629  8393 net.cpp:434] pool2 <- conv2_2
I0510 15:51:19.069636  8393 net.cpp:408] pool2 -> pool2
I0510 15:51:19.069674  8393 net.cpp:150] Setting up pool2
I0510 15:51:19.069680  8393 net.cpp:157] Top shape: 4 128 192 192 (18874368)
I0510 15:51:19.069684  8393 net.cpp:165] Memory required for data: 3932877312
I0510 15:51:19.069686  8393 layer_factory.hpp:77] Creating layer ch4_pool2
I0510 15:51:19.069692  8393 net.cpp:100] Creating Layer ch4_pool2
I0510 15:51:19.069696  8393 net.cpp:434] ch4_pool2 <- ch4
I0510 15:51:19.069701  8393 net.cpp:408] ch4_pool2 -> ch4_pool2
I0510 15:51:19.069731  8393 net.cpp:150] Setting up ch4_pool2
I0510 15:51:19.069737  8393 net.cpp:157] Top shape: 4 1 192 192 (147456)
I0510 15:51:19.069741  8393 net.cpp:165] Memory required for data: 3933467136
I0510 15:51:19.069744  8393 layer_factory.hpp:77] Creating layer pool2_concat
I0510 15:51:19.069749  8393 net.cpp:100] Creating Layer pool2_concat
I0510 15:51:19.069753  8393 net.cpp:434] pool2_concat <- pool2
I0510 15:51:19.069757  8393 net.cpp:434] pool2_concat <- ch4_pool2
I0510 15:51:19.069763  8393 net.cpp:408] pool2_concat -> pool2_new
I0510 15:51:19.069783  8393 net.cpp:150] Setting up pool2_concat
I0510 15:51:19.069798  8393 net.cpp:157] Top shape: 4 129 192 192 (19021824)
I0510 15:51:19.069802  8393 net.cpp:165] Memory required for data: 4009554432
I0510 15:51:19.069805  8393 layer_factory.hpp:77] Creating layer conv3_1_new
I0510 15:51:19.069813  8393 net.cpp:100] Creating Layer conv3_1_new
I0510 15:51:19.069816  8393 net.cpp:434] conv3_1_new <- pool2_new
I0510 15:51:19.069826  8393 net.cpp:408] conv3_1_new -> conv3_1
I0510 15:51:19.072084  8393 net.cpp:150] Setting up conv3_1_new
I0510 15:51:19.072100  8393 net.cpp:157] Top shape: 4 256 192 192 (37748736)
I0510 15:51:19.072103  8393 net.cpp:165] Memory required for data: 4160549376
I0510 15:51:19.072115  8393 layer_factory.hpp:77] Creating layer relu3_1
I0510 15:51:19.072121  8393 net.cpp:100] Creating Layer relu3_1
I0510 15:51:19.072125  8393 net.cpp:434] relu3_1 <- conv3_1
I0510 15:51:19.072130  8393 net.cpp:395] relu3_1 -> conv3_1 (in-place)
I0510 15:51:19.072569  8393 net.cpp:150] Setting up relu3_1
I0510 15:51:19.072582  8393 net.cpp:157] Top shape: 4 256 192 192 (37748736)
I0510 15:51:19.072587  8393 net.cpp:165] Memory required for data: 4311544320
I0510 15:51:19.072590  8393 layer_factory.hpp:77] Creating layer conv3_2
I0510 15:51:19.072598  8393 net.cpp:100] Creating Layer conv3_2
I0510 15:51:19.072603  8393 net.cpp:434] conv3_2 <- conv3_1
I0510 15:51:19.072608  8393 net.cpp:408] conv3_2 -> conv3_2
I0510 15:51:19.074967  8393 net.cpp:150] Setting up conv3_2
I0510 15:51:19.074992  8393 net.cpp:157] Top shape: 4 256 192 192 (37748736)
I0510 15:51:19.074997  8393 net.cpp:165] Memory required for data: 4462539264
I0510 15:51:19.075007  8393 layer_factory.hpp:77] Creating layer relu3_2
I0510 15:51:19.075019  8393 net.cpp:100] Creating Layer relu3_2
I0510 15:51:19.075027  8393 net.cpp:434] relu3_2 <- conv3_2
I0510 15:51:19.075034  8393 net.cpp:395] relu3_2 -> conv3_2 (in-place)
I0510 15:51:19.075515  8393 net.cpp:150] Setting up relu3_2
I0510 15:51:19.075528  8393 net.cpp:157] Top shape: 4 256 192 192 (37748736)
I0510 15:51:19.075532  8393 net.cpp:165] Memory required for data: 4613534208
I0510 15:51:19.075536  8393 layer_factory.hpp:77] Creating layer conv3_3
I0510 15:51:19.075548  8393 net.cpp:100] Creating Layer conv3_3
I0510 15:51:19.075553  8393 net.cpp:434] conv3_3 <- conv3_2
I0510 15:51:19.075561  8393 net.cpp:408] conv3_3 -> conv3_3
I0510 15:51:19.078171  8393 net.cpp:150] Setting up conv3_3
I0510 15:51:19.078194  8393 net.cpp:157] Top shape: 4 256 192 192 (37748736)
I0510 15:51:19.078199  8393 net.cpp:165] Memory required for data: 4764529152
I0510 15:51:19.078210  8393 layer_factory.hpp:77] Creating layer relu3_3
I0510 15:51:19.078220  8393 net.cpp:100] Creating Layer relu3_3
I0510 15:51:19.078227  8393 net.cpp:434] relu3_3 <- conv3_3
I0510 15:51:19.078233  8393 net.cpp:395] relu3_3 -> conv3_3 (in-place)
I0510 15:51:19.078429  8393 net.cpp:150] Setting up relu3_3
I0510 15:51:19.078439  8393 net.cpp:157] Top shape: 4 256 192 192 (37748736)
I0510 15:51:19.078444  8393 net.cpp:165] Memory required for data: 4915524096
I0510 15:51:19.078447  8393 layer_factory.hpp:77] Creating layer pool3
I0510 15:51:19.078457  8393 net.cpp:100] Creating Layer pool3
I0510 15:51:19.078461  8393 net.cpp:434] pool3 <- conv3_3
I0510 15:51:19.078469  8393 net.cpp:408] pool3 -> pool3
I0510 15:51:19.078514  8393 net.cpp:150] Setting up pool3
I0510 15:51:19.078521  8393 net.cpp:157] Top shape: 4 256 96 96 (9437184)
I0510 15:51:19.078526  8393 net.cpp:165] Memory required for data: 4953272832
I0510 15:51:19.078528  8393 layer_factory.hpp:77] Creating layer conv4_1
I0510 15:51:19.078539  8393 net.cpp:100] Creating Layer conv4_1
I0510 15:51:19.078543  8393 net.cpp:434] conv4_1 <- pool3
I0510 15:51:19.078552  8393 net.cpp:408] conv4_1 -> conv4_1
I0510 15:51:19.083434  8393 net.cpp:150] Setting up conv4_1
I0510 15:51:19.083473  8393 net.cpp:157] Top shape: 4 512 96 96 (18874368)
I0510 15:51:19.083477  8393 net.cpp:165] Memory required for data: 5028770304
I0510 15:51:19.083490  8393 layer_factory.hpp:77] Creating layer relu4_1
I0510 15:51:19.083508  8393 net.cpp:100] Creating Layer relu4_1
I0510 15:51:19.083515  8393 net.cpp:434] relu4_1 <- conv4_1
I0510 15:51:19.083521  8393 net.cpp:395] relu4_1 -> conv4_1 (in-place)
I0510 15:51:19.083699  8393 net.cpp:150] Setting up relu4_1
I0510 15:51:19.083709  8393 net.cpp:157] Top shape: 4 512 96 96 (18874368)
I0510 15:51:19.083711  8393 net.cpp:165] Memory required for data: 5104267776
I0510 15:51:19.083715  8393 layer_factory.hpp:77] Creating layer conv4_2
I0510 15:51:19.083727  8393 net.cpp:100] Creating Layer conv4_2
I0510 15:51:19.083736  8393 net.cpp:434] conv4_2 <- conv4_1
I0510 15:51:19.083744  8393 net.cpp:408] conv4_2 -> conv4_2
I0510 15:51:19.097252  8393 net.cpp:150] Setting up conv4_2
I0510 15:51:19.097321  8393 net.cpp:157] Top shape: 4 512 96 96 (18874368)
I0510 15:51:19.097327  8393 net.cpp:165] Memory required for data: 5179765248
I0510 15:51:19.097358  8393 layer_factory.hpp:77] Creating layer relu4_2
I0510 15:51:19.097385  8393 net.cpp:100] Creating Layer relu4_2
I0510 15:51:19.097395  8393 net.cpp:434] relu4_2 <- conv4_2
I0510 15:51:19.097424  8393 net.cpp:395] relu4_2 -> conv4_2 (in-place)
I0510 15:51:19.097635  8393 net.cpp:150] Setting up relu4_2
I0510 15:51:19.097647  8393 net.cpp:157] Top shape: 4 512 96 96 (18874368)
I0510 15:51:19.097652  8393 net.cpp:165] Memory required for data: 5255262720
I0510 15:51:19.097657  8393 layer_factory.hpp:77] Creating layer conv4_3
I0510 15:51:19.097674  8393 net.cpp:100] Creating Layer conv4_3
I0510 15:51:19.097681  8393 net.cpp:434] conv4_3 <- conv4_2
I0510 15:51:19.097690  8393 net.cpp:408] conv4_3 -> conv4_3
I0510 15:51:19.104269  8393 net.cpp:150] Setting up conv4_3
I0510 15:51:19.104301  8393 net.cpp:157] Top shape: 4 512 96 96 (18874368)
I0510 15:51:19.104307  8393 net.cpp:165] Memory required for data: 5330760192
I0510 15:51:19.104318  8393 layer_factory.hpp:77] Creating layer relu4_3
I0510 15:51:19.104336  8393 net.cpp:100] Creating Layer relu4_3
I0510 15:51:19.104343  8393 net.cpp:434] relu4_3 <- conv4_3
I0510 15:51:19.104353  8393 net.cpp:395] relu4_3 -> conv4_3 (in-place)
I0510 15:51:19.104519  8393 net.cpp:150] Setting up relu4_3
I0510 15:51:19.104529  8393 net.cpp:157] Top shape: 4 512 96 96 (18874368)
I0510 15:51:19.104534  8393 net.cpp:165] Memory required for data: 5406257664
I0510 15:51:19.104539  8393 layer_factory.hpp:77] Creating layer conv4_3_relu4_3_0_split
I0510 15:51:19.104547  8393 net.cpp:100] Creating Layer conv4_3_relu4_3_0_split
I0510 15:51:19.104552  8393 net.cpp:434] conv4_3_relu4_3_0_split <- conv4_3
I0510 15:51:19.104559  8393 net.cpp:408] conv4_3_relu4_3_0_split -> conv4_3_relu4_3_0_split_0
I0510 15:51:19.104571  8393 net.cpp:408] conv4_3_relu4_3_0_split -> conv4_3_relu4_3_0_split_1
I0510 15:51:19.104612  8393 net.cpp:150] Setting up conv4_3_relu4_3_0_split
I0510 15:51:19.104621  8393 net.cpp:157] Top shape: 4 512 96 96 (18874368)
I0510 15:51:19.104627  8393 net.cpp:157] Top shape: 4 512 96 96 (18874368)
I0510 15:51:19.104631  8393 net.cpp:165] Memory required for data: 5557252608
I0510 15:51:19.104636  8393 layer_factory.hpp:77] Creating layer loss1_conv1
I0510 15:51:19.104653  8393 net.cpp:100] Creating Layer loss1_conv1
I0510 15:51:19.104660  8393 net.cpp:434] loss1_conv1 <- conv4_3_relu4_3_0_split_0
I0510 15:51:19.104667  8393 net.cpp:408] loss1_conv1 -> loss1_conv1
I0510 15:51:19.171124  8393 net.cpp:150] Setting up loss1_conv1
I0510 15:51:19.171166  8393 net.cpp:157] Top shape: 4 512 96 96 (18874368)
I0510 15:51:19.171172  8393 net.cpp:165] Memory required for data: 5632750080
I0510 15:51:19.171186  8393 layer_factory.hpp:77] Creating layer loss_relu1
I0510 15:51:19.171205  8393 net.cpp:100] Creating Layer loss_relu1
I0510 15:51:19.171213  8393 net.cpp:434] loss_relu1 <- loss1_conv1
I0510 15:51:19.171221  8393 net.cpp:395] loss_relu1 -> loss1_conv1 (in-place)
I0510 15:51:19.172482  8393 net.cpp:150] Setting up loss_relu1
I0510 15:51:19.172497  8393 net.cpp:157] Top shape: 4 512 96 96 (18874368)
I0510 15:51:19.172502  8393 net.cpp:165] Memory required for data: 5708247552
I0510 15:51:19.172505  8393 layer_factory.hpp:77] Creating layer loss1_conv1_loss_relu1_0_split
I0510 15:51:19.172513  8393 net.cpp:100] Creating Layer loss1_conv1_loss_relu1_0_split
I0510 15:51:19.172520  8393 net.cpp:434] loss1_conv1_loss_relu1_0_split <- loss1_conv1
I0510 15:51:19.172529  8393 net.cpp:408] loss1_conv1_loss_relu1_0_split -> loss1_conv1_loss_relu1_0_split_0
I0510 15:51:19.172541  8393 net.cpp:408] loss1_conv1_loss_relu1_0_split -> loss1_conv1_loss_relu1_0_split_1
I0510 15:51:19.172586  8393 net.cpp:150] Setting up loss1_conv1_loss_relu1_0_split
I0510 15:51:19.172595  8393 net.cpp:157] Top shape: 4 512 96 96 (18874368)
I0510 15:51:19.172601  8393 net.cpp:157] Top shape: 4 512 96 96 (18874368)
I0510 15:51:19.172606  8393 net.cpp:165] Memory required for data: 5859242496
I0510 15:51:19.172610  8393 layer_factory.hpp:77] Creating layer LFCN_1_5x5
I0510 15:51:19.172624  8393 net.cpp:100] Creating Layer LFCN_1_5x5
I0510 15:51:19.172631  8393 net.cpp:434] LFCN_1_5x5 <- loss1_conv1_loss_relu1_0_split_0
I0510 15:51:19.172641  8393 net.cpp:408] LFCN_1_5x5 -> LFCN_1_5x5
I0510 15:51:19.176228  8393 net.cpp:150] Setting up LFCN_1_5x5
I0510 15:51:19.176241  8393 net.cpp:157] Top shape: 4 9 96 96 (331776)
I0510 15:51:19.176247  8393 net.cpp:165] Memory required for data: 5860569600
I0510 15:51:19.176257  8393 layer_factory.hpp:77] Creating layer LFCN_1_5x5_LFCN_1_5x5_0_split
I0510 15:51:19.176266  8393 net.cpp:100] Creating Layer LFCN_1_5x5_LFCN_1_5x5_0_split
I0510 15:51:19.176272  8393 net.cpp:434] LFCN_1_5x5_LFCN_1_5x5_0_split <- LFCN_1_5x5
I0510 15:51:19.176281  8393 net.cpp:408] LFCN_1_5x5_LFCN_1_5x5_0_split -> LFCN_1_5x5_LFCN_1_5x5_0_split_0
I0510 15:51:19.176293  8393 net.cpp:408] LFCN_1_5x5_LFCN_1_5x5_0_split -> LFCN_1_5x5_LFCN_1_5x5_0_split_1
I0510 15:51:19.176334  8393 net.cpp:150] Setting up LFCN_1_5x5_LFCN_1_5x5_0_split
I0510 15:51:19.176344  8393 net.cpp:157] Top shape: 4 9 96 96 (331776)
I0510 15:51:19.176352  8393 net.cpp:157] Top shape: 4 9 96 96 (331776)
I0510 15:51:19.176355  8393 net.cpp:165] Memory required for data: 5863223808
I0510 15:51:19.176359  8393 layer_factory.hpp:77] Creating layer detection_loss_1_5x5
I0510 15:51:19.176367  8393 net.cpp:100] Creating Layer detection_loss_1_5x5
I0510 15:51:19.176373  8393 net.cpp:434] detection_loss_1_5x5 <- LFCN_1_5x5_LFCN_1_5x5_0_split_0
I0510 15:51:19.176379  8393 net.cpp:434] detection_loss_1_5x5 <- label_1_5x5_data_1_split_0
I0510 15:51:19.176388  8393 net.cpp:408] detection_loss_1_5x5 -> loss_1_5x5
I0510 15:51:19.176405  8393 layer_factory.hpp:77] Creating layer detection_loss_1_5x5
I0510 15:51:19.177935  8393 net.cpp:150] Setting up detection_loss_1_5x5
I0510 15:51:19.177951  8393 net.cpp:157] Top shape: 1 1 1 2 (2)
I0510 15:51:19.177956  8393 net.cpp:160]     with loss weight 0.9
I0510 15:51:19.177983  8393 net.cpp:165] Memory required for data: 5863223816
I0510 15:51:19.177990  8393 layer_factory.hpp:77] Creating layer detection_accuracy_1_5x5
I0510 15:51:19.178004  8393 net.cpp:100] Creating Layer detection_accuracy_1_5x5
I0510 15:51:19.178012  8393 net.cpp:434] detection_accuracy_1_5x5 <- LFCN_1_5x5_LFCN_1_5x5_0_split_1
I0510 15:51:19.178021  8393 net.cpp:434] detection_accuracy_1_5x5 <- label_1_5x5_data_1_split_1
I0510 15:51:19.178032  8393 net.cpp:408] detection_accuracy_1_5x5 -> accuracy_1_5x5
I0510 15:51:19.178048  8393 net.cpp:408] detection_accuracy_1_5x5 -> boxiou_1_5x5
I0510 15:51:19.178103  8393 net.cpp:150] Setting up detection_accuracy_1_5x5
I0510 15:51:19.178115  8393 net.cpp:157] Top shape: 1 1 1 2 (2)
I0510 15:51:19.178122  8393 net.cpp:157] Top shape: 1 1 1 1 (1)
I0510 15:51:19.178130  8393 net.cpp:165] Memory required for data: 5863223828
I0510 15:51:19.178136  8393 layer_factory.hpp:77] Creating layer LFCN_1_7x7
I0510 15:51:19.178153  8393 net.cpp:100] Creating Layer LFCN_1_7x7
I0510 15:51:19.178160  8393 net.cpp:434] LFCN_1_7x7 <- loss1_conv1_loss_relu1_0_split_1
I0510 15:51:19.178172  8393 net.cpp:408] LFCN_1_7x7 -> LFCN_1_7x7
I0510 15:51:19.185346  8393 net.cpp:150] Setting up LFCN_1_7x7
I0510 15:51:19.185372  8393 net.cpp:157] Top shape: 4 9 96 96 (331776)
I0510 15:51:19.185377  8393 net.cpp:165] Memory required for data: 5864550932
I0510 15:51:19.185389  8393 layer_factory.hpp:77] Creating layer LFCN_1_7x7_LFCN_1_7x7_0_split
I0510 15:51:19.185400  8393 net.cpp:100] Creating Layer LFCN_1_7x7_LFCN_1_7x7_0_split
I0510 15:51:19.185407  8393 net.cpp:434] LFCN_1_7x7_LFCN_1_7x7_0_split <- LFCN_1_7x7
I0510 15:51:19.185420  8393 net.cpp:408] LFCN_1_7x7_LFCN_1_7x7_0_split -> LFCN_1_7x7_LFCN_1_7x7_0_split_0
I0510 15:51:19.185462  8393 net.cpp:408] LFCN_1_7x7_LFCN_1_7x7_0_split -> LFCN_1_7x7_LFCN_1_7x7_0_split_1
I0510 15:51:19.185526  8393 net.cpp:150] Setting up LFCN_1_7x7_LFCN_1_7x7_0_split
I0510 15:51:19.185537  8393 net.cpp:157] Top shape: 4 9 96 96 (331776)
I0510 15:51:19.185541  8393 net.cpp:157] Top shape: 4 9 96 96 (331776)
I0510 15:51:19.185544  8393 net.cpp:165] Memory required for data: 5867205140
I0510 15:51:19.185549  8393 layer_factory.hpp:77] Creating layer detection_loss_1_7x7
I0510 15:51:19.185557  8393 net.cpp:100] Creating Layer detection_loss_1_7x7
I0510 15:51:19.185562  8393 net.cpp:434] detection_loss_1_7x7 <- LFCN_1_7x7_LFCN_1_7x7_0_split_0
I0510 15:51:19.185569  8393 net.cpp:434] detection_loss_1_7x7 <- label_1_7x7_data_2_split_0
I0510 15:51:19.185580  8393 net.cpp:408] detection_loss_1_7x7 -> loss_1_7x7
I0510 15:51:19.185591  8393 layer_factory.hpp:77] Creating layer detection_loss_1_7x7
I0510 15:51:19.187129  8393 net.cpp:150] Setting up detection_loss_1_7x7
I0510 15:51:19.187149  8393 net.cpp:157] Top shape: 1 1 1 2 (2)
I0510 15:51:19.187151  8393 net.cpp:160]     with loss weight 0.9
I0510 15:51:19.187163  8393 net.cpp:165] Memory required for data: 5867205148
I0510 15:51:19.187167  8393 layer_factory.hpp:77] Creating layer detection_accuracy_1_7x7
I0510 15:51:19.187176  8393 net.cpp:100] Creating Layer detection_accuracy_1_7x7
I0510 15:51:19.187181  8393 net.cpp:434] detection_accuracy_1_7x7 <- LFCN_1_7x7_LFCN_1_7x7_0_split_1
I0510 15:51:19.187186  8393 net.cpp:434] detection_accuracy_1_7x7 <- label_1_7x7_data_2_split_1
I0510 15:51:19.187193  8393 net.cpp:408] detection_accuracy_1_7x7 -> accuracy_1_7x7
I0510 15:51:19.187203  8393 net.cpp:408] detection_accuracy_1_7x7 -> boxiou_1_7x7
I0510 15:51:19.187252  8393 net.cpp:150] Setting up detection_accuracy_1_7x7
I0510 15:51:19.187261  8393 net.cpp:157] Top shape: 1 1 1 2 (2)
I0510 15:51:19.187266  8393 net.cpp:157] Top shape: 1 1 1 1 (1)
I0510 15:51:19.187269  8393 net.cpp:165] Memory required for data: 5867205160
I0510 15:51:19.187273  8393 layer_factory.hpp:77] Creating layer pool4
I0510 15:51:19.187283  8393 net.cpp:100] Creating Layer pool4
I0510 15:51:19.187288  8393 net.cpp:434] pool4 <- conv4_3_relu4_3_0_split_1
I0510 15:51:19.187294  8393 net.cpp:408] pool4 -> pool4
I0510 15:51:19.187341  8393 net.cpp:150] Setting up pool4
I0510 15:51:19.187350  8393 net.cpp:157] Top shape: 4 512 48 48 (4718592)
I0510 15:51:19.187353  8393 net.cpp:165] Memory required for data: 5886079528
I0510 15:51:19.187356  8393 layer_factory.hpp:77] Creating layer conv5_1
I0510 15:51:19.187366  8393 net.cpp:100] Creating Layer conv5_1
I0510 15:51:19.187372  8393 net.cpp:434] conv5_1 <- pool4
I0510 15:51:19.187381  8393 net.cpp:408] conv5_1 -> conv5_1
I0510 15:51:19.193400  8393 net.cpp:150] Setting up conv5_1
I0510 15:51:19.193430  8393 net.cpp:157] Top shape: 4 512 48 48 (4718592)
I0510 15:51:19.193435  8393 net.cpp:165] Memory required for data: 5904953896
I0510 15:51:19.193444  8393 layer_factory.hpp:77] Creating layer relu5_1
I0510 15:51:19.193454  8393 net.cpp:100] Creating Layer relu5_1
I0510 15:51:19.193460  8393 net.cpp:434] relu5_1 <- conv5_1
I0510 15:51:19.193465  8393 net.cpp:395] relu5_1 -> conv5_1 (in-place)
I0510 15:51:19.193650  8393 net.cpp:150] Setting up relu5_1
I0510 15:51:19.193662  8393 net.cpp:157] Top shape: 4 512 48 48 (4718592)
I0510 15:51:19.193665  8393 net.cpp:165] Memory required for data: 5923828264
I0510 15:51:19.193670  8393 layer_factory.hpp:77] Creating layer conv5_2
I0510 15:51:19.193681  8393 net.cpp:100] Creating Layer conv5_2
I0510 15:51:19.193686  8393 net.cpp:434] conv5_2 <- conv5_1
I0510 15:51:19.193693  8393 net.cpp:408] conv5_2 -> conv5_2
I0510 15:51:19.199862  8393 net.cpp:150] Setting up conv5_2
I0510 15:51:19.199903  8393 net.cpp:157] Top shape: 4 512 48 48 (4718592)
I0510 15:51:19.199909  8393 net.cpp:165] Memory required for data: 5942702632
I0510 15:51:19.199920  8393 layer_factory.hpp:77] Creating layer relu5_2
I0510 15:51:19.199936  8393 net.cpp:100] Creating Layer relu5_2
I0510 15:51:19.199944  8393 net.cpp:434] relu5_2 <- conv5_2
I0510 15:51:19.199951  8393 net.cpp:395] relu5_2 -> conv5_2 (in-place)
I0510 15:51:19.200201  8393 net.cpp:150] Setting up relu5_2
I0510 15:51:19.200217  8393 net.cpp:157] Top shape: 4 512 48 48 (4718592)
I0510 15:51:19.200222  8393 net.cpp:165] Memory required for data: 5961577000
I0510 15:51:19.200225  8393 layer_factory.hpp:77] Creating layer conv5_3
I0510 15:51:19.200238  8393 net.cpp:100] Creating Layer conv5_3
I0510 15:51:19.200242  8393 net.cpp:434] conv5_3 <- conv5_2
I0510 15:51:19.200250  8393 net.cpp:408] conv5_3 -> conv5_3
I0510 15:51:19.207932  8393 net.cpp:150] Setting up conv5_3
I0510 15:51:19.207988  8393 net.cpp:157] Top shape: 4 512 48 48 (4718592)
I0510 15:51:19.207993  8393 net.cpp:165] Memory required for data: 5980451368
I0510 15:51:19.208009  8393 layer_factory.hpp:77] Creating layer relu5_3
I0510 15:51:19.208030  8393 net.cpp:100] Creating Layer relu5_3
I0510 15:51:19.208039  8393 net.cpp:434] relu5_3 <- conv5_3
I0510 15:51:19.208050  8393 net.cpp:395] relu5_3 -> conv5_3 (in-place)
I0510 15:51:19.208271  8393 net.cpp:150] Setting up relu5_3
I0510 15:51:19.208284  8393 net.cpp:157] Top shape: 4 512 48 48 (4718592)
I0510 15:51:19.208288  8393 net.cpp:165] Memory required for data: 5999325736
I0510 15:51:19.208292  8393 layer_factory.hpp:77] Creating layer conv5_3_relu5_3_0_split
I0510 15:51:19.208302  8393 net.cpp:100] Creating Layer conv5_3_relu5_3_0_split
I0510 15:51:19.208307  8393 net.cpp:434] conv5_3_relu5_3_0_split <- conv5_3
I0510 15:51:19.208317  8393 net.cpp:408] conv5_3_relu5_3_0_split -> conv5_3_relu5_3_0_split_0
I0510 15:51:19.208328  8393 net.cpp:408] conv5_3_relu5_3_0_split -> conv5_3_relu5_3_0_split_1
I0510 15:51:19.208350  8393 net.cpp:408] conv5_3_relu5_3_0_split -> conv5_3_relu5_3_0_split_2
I0510 15:51:19.208410  8393 net.cpp:150] Setting up conv5_3_relu5_3_0_split
I0510 15:51:19.208418  8393 net.cpp:157] Top shape: 4 512 48 48 (4718592)
I0510 15:51:19.208422  8393 net.cpp:157] Top shape: 4 512 48 48 (4718592)
I0510 15:51:19.208426  8393 net.cpp:157] Top shape: 4 512 48 48 (4718592)
I0510 15:51:19.208429  8393 net.cpp:165] Memory required for data: 6055948840
I0510 15:51:19.208432  8393 layer_factory.hpp:77] Creating layer LFCN_2_5x5
I0510 15:51:19.208451  8393 net.cpp:100] Creating Layer LFCN_2_5x5
I0510 15:51:19.208456  8393 net.cpp:434] LFCN_2_5x5 <- conv5_3_relu5_3_0_split_0
I0510 15:51:19.208462  8393 net.cpp:408] LFCN_2_5x5 -> LFCN_2_5x5
I0510 15:51:19.213644  8393 net.cpp:150] Setting up LFCN_2_5x5
I0510 15:51:19.213671  8393 net.cpp:157] Top shape: 4 9 48 48 (82944)
I0510 15:51:19.213675  8393 net.cpp:165] Memory required for data: 6056280616
I0510 15:51:19.213690  8393 layer_factory.hpp:77] Creating layer LFCN_2_5x5_LFCN_2_5x5_0_split
I0510 15:51:19.213702  8393 net.cpp:100] Creating Layer LFCN_2_5x5_LFCN_2_5x5_0_split
I0510 15:51:19.213708  8393 net.cpp:434] LFCN_2_5x5_LFCN_2_5x5_0_split <- LFCN_2_5x5
I0510 15:51:19.213714  8393 net.cpp:408] LFCN_2_5x5_LFCN_2_5x5_0_split -> LFCN_2_5x5_LFCN_2_5x5_0_split_0
I0510 15:51:19.213732  8393 net.cpp:408] LFCN_2_5x5_LFCN_2_5x5_0_split -> LFCN_2_5x5_LFCN_2_5x5_0_split_1
I0510 15:51:19.213771  8393 net.cpp:150] Setting up LFCN_2_5x5_LFCN_2_5x5_0_split
I0510 15:51:19.213779  8393 net.cpp:157] Top shape: 4 9 48 48 (82944)
I0510 15:51:19.213784  8393 net.cpp:157] Top shape: 4 9 48 48 (82944)
I0510 15:51:19.213786  8393 net.cpp:165] Memory required for data: 6056944168
I0510 15:51:19.213790  8393 layer_factory.hpp:77] Creating layer detection_loss_2_5x5
I0510 15:51:19.213799  8393 net.cpp:100] Creating Layer detection_loss_2_5x5
I0510 15:51:19.213804  8393 net.cpp:434] detection_loss_2_5x5 <- LFCN_2_5x5_LFCN_2_5x5_0_split_0
I0510 15:51:19.213809  8393 net.cpp:434] detection_loss_2_5x5 <- label_2_5x5_data_3_split_0
I0510 15:51:19.213816  8393 net.cpp:408] detection_loss_2_5x5 -> loss_2_5x5
I0510 15:51:19.213826  8393 layer_factory.hpp:77] Creating layer detection_loss_2_5x5
I0510 15:51:19.215225  8393 net.cpp:150] Setting up detection_loss_2_5x5
I0510 15:51:19.215240  8393 net.cpp:157] Top shape: 1 1 1 2 (2)
I0510 15:51:19.215242  8393 net.cpp:160]     with loss weight 1
I0510 15:51:19.215253  8393 net.cpp:165] Memory required for data: 6056944176
I0510 15:51:19.215257  8393 layer_factory.hpp:77] Creating layer detection_accuracy_2_5x5
I0510 15:51:19.215266  8393 net.cpp:100] Creating Layer detection_accuracy_2_5x5
I0510 15:51:19.215271  8393 net.cpp:434] detection_accuracy_2_5x5 <- LFCN_2_5x5_LFCN_2_5x5_0_split_1
I0510 15:51:19.215276  8393 net.cpp:434] detection_accuracy_2_5x5 <- label_2_5x5_data_3_split_1
I0510 15:51:19.215283  8393 net.cpp:408] detection_accuracy_2_5x5 -> accuracy_2_5x5
I0510 15:51:19.215293  8393 net.cpp:408] detection_accuracy_2_5x5 -> boxiou_2_5x5
I0510 15:51:19.215334  8393 net.cpp:150] Setting up detection_accuracy_2_5x5
I0510 15:51:19.215342  8393 net.cpp:157] Top shape: 1 1 1 2 (2)
I0510 15:51:19.215346  8393 net.cpp:157] Top shape: 1 1 1 1 (1)
I0510 15:51:19.215350  8393 net.cpp:165] Memory required for data: 6056944188
I0510 15:51:19.215354  8393 layer_factory.hpp:77] Creating layer LFCN_2_7x7
I0510 15:51:19.215368  8393 net.cpp:100] Creating Layer LFCN_2_7x7
I0510 15:51:19.215374  8393 net.cpp:434] LFCN_2_7x7 <- conv5_3_relu5_3_0_split_1
I0510 15:51:19.215380  8393 net.cpp:408] LFCN_2_7x7 -> LFCN_2_7x7
I0510 15:51:19.222685  8393 net.cpp:150] Setting up LFCN_2_7x7
I0510 15:51:19.222707  8393 net.cpp:157] Top shape: 4 9 48 48 (82944)
I0510 15:51:19.222712  8393 net.cpp:165] Memory required for data: 6057275964
I0510 15:51:19.222718  8393 layer_factory.hpp:77] Creating layer LFCN_2_7x7_LFCN_2_7x7_0_split
I0510 15:51:19.222728  8393 net.cpp:100] Creating Layer LFCN_2_7x7_LFCN_2_7x7_0_split
I0510 15:51:19.222733  8393 net.cpp:434] LFCN_2_7x7_LFCN_2_7x7_0_split <- LFCN_2_7x7
I0510 15:51:19.222738  8393 net.cpp:408] LFCN_2_7x7_LFCN_2_7x7_0_split -> LFCN_2_7x7_LFCN_2_7x7_0_split_0
I0510 15:51:19.222748  8393 net.cpp:408] LFCN_2_7x7_LFCN_2_7x7_0_split -> LFCN_2_7x7_LFCN_2_7x7_0_split_1
I0510 15:51:19.222789  8393 net.cpp:150] Setting up LFCN_2_7x7_LFCN_2_7x7_0_split
I0510 15:51:19.222795  8393 net.cpp:157] Top shape: 4 9 48 48 (82944)
I0510 15:51:19.222807  8393 net.cpp:157] Top shape: 4 9 48 48 (82944)
I0510 15:51:19.222811  8393 net.cpp:165] Memory required for data: 6057939516
I0510 15:51:19.222815  8393 layer_factory.hpp:77] Creating layer detection_loss_2_7x7
I0510 15:51:19.222822  8393 net.cpp:100] Creating Layer detection_loss_2_7x7
I0510 15:51:19.222826  8393 net.cpp:434] detection_loss_2_7x7 <- LFCN_2_7x7_LFCN_2_7x7_0_split_0
I0510 15:51:19.222831  8393 net.cpp:434] detection_loss_2_7x7 <- label_2_7x7_data_4_split_0
I0510 15:51:19.222836  8393 net.cpp:408] detection_loss_2_7x7 -> loss_2_7x7
I0510 15:51:19.222844  8393 layer_factory.hpp:77] Creating layer detection_loss_2_7x7
I0510 15:51:19.223537  8393 net.cpp:150] Setting up detection_loss_2_7x7
I0510 15:51:19.223556  8393 net.cpp:157] Top shape: 1 1 1 2 (2)
I0510 15:51:19.223559  8393 net.cpp:160]     with loss weight 1
I0510 15:51:19.223570  8393 net.cpp:165] Memory required for data: 6057939524
I0510 15:51:19.223574  8393 layer_factory.hpp:77] Creating layer detection_accuracy_2_7x7
I0510 15:51:19.223580  8393 net.cpp:100] Creating Layer detection_accuracy_2_7x7
I0510 15:51:19.223584  8393 net.cpp:434] detection_accuracy_2_7x7 <- LFCN_2_7x7_LFCN_2_7x7_0_split_1
I0510 15:51:19.223588  8393 net.cpp:434] detection_accuracy_2_7x7 <- label_2_7x7_data_4_split_1
I0510 15:51:19.223598  8393 net.cpp:408] detection_accuracy_2_7x7 -> accuracy_2_7x7
I0510 15:51:19.223605  8393 net.cpp:408] detection_accuracy_2_7x7 -> boxiou_2_7x7
I0510 15:51:19.223647  8393 net.cpp:150] Setting up detection_accuracy_2_7x7
I0510 15:51:19.223655  8393 net.cpp:157] Top shape: 1 1 1 2 (2)
I0510 15:51:19.223659  8393 net.cpp:157] Top shape: 1 1 1 1 (1)
I0510 15:51:19.223664  8393 net.cpp:165] Memory required for data: 6057939536
I0510 15:51:19.223668  8393 layer_factory.hpp:77] Creating layer pool5
I0510 15:51:19.223678  8393 net.cpp:100] Creating Layer pool5
I0510 15:51:19.223685  8393 net.cpp:434] pool5 <- conv5_3_relu5_3_0_split_2
I0510 15:51:19.223695  8393 net.cpp:408] pool5 -> pool5
I0510 15:51:19.223732  8393 net.cpp:150] Setting up pool5
I0510 15:51:19.223739  8393 net.cpp:157] Top shape: 4 512 24 24 (1179648)
I0510 15:51:19.223743  8393 net.cpp:165] Memory required for data: 6062658128
I0510 15:51:19.223747  8393 layer_factory.hpp:77] Creating layer conv6_1
I0510 15:51:19.223759  8393 net.cpp:100] Creating Layer conv6_1
I0510 15:51:19.223764  8393 net.cpp:434] conv6_1 <- pool5
I0510 15:51:19.223773  8393 net.cpp:408] conv6_1 -> conv6_1
I0510 15:51:19.287596  8393 net.cpp:150] Setting up conv6_1
I0510 15:51:19.287781  8393 net.cpp:157] Top shape: 4 512 24 24 (1179648)
I0510 15:51:19.287796  8393 net.cpp:165] Memory required for data: 6067376720
I0510 15:51:19.287833  8393 layer_factory.hpp:77] Creating layer relu6_1
I0510 15:51:19.287945  8393 net.cpp:100] Creating Layer relu6_1
I0510 15:51:19.287976  8393 net.cpp:434] relu6_1 <- conv6_1
I0510 15:51:19.288000  8393 net.cpp:395] relu6_1 -> conv6_1 (in-place)
I0510 15:51:19.288619  8393 net.cpp:150] Setting up relu6_1
I0510 15:51:19.288666  8393 net.cpp:157] Top shape: 4 512 24 24 (1179648)
I0510 15:51:19.288671  8393 net.cpp:165] Memory required for data: 6072095312
I0510 15:51:19.288681  8393 layer_factory.hpp:77] Creating layer conv6_1_relu6_1_0_split
I0510 15:51:19.288705  8393 net.cpp:100] Creating Layer conv6_1_relu6_1_0_split
I0510 15:51:19.288719  8393 net.cpp:434] conv6_1_relu6_1_0_split <- conv6_1
I0510 15:51:19.288738  8393 net.cpp:408] conv6_1_relu6_1_0_split -> conv6_1_relu6_1_0_split_0
I0510 15:51:19.288750  8393 net.cpp:408] conv6_1_relu6_1_0_split -> conv6_1_relu6_1_0_split_1
I0510 15:51:19.288760  8393 net.cpp:408] conv6_1_relu6_1_0_split -> conv6_1_relu6_1_0_split_2
I0510 15:51:19.288898  8393 net.cpp:150] Setting up conv6_1_relu6_1_0_split
I0510 15:51:19.288909  8393 net.cpp:157] Top shape: 4 512 24 24 (1179648)
I0510 15:51:19.288913  8393 net.cpp:157] Top shape: 4 512 24 24 (1179648)
I0510 15:51:19.288918  8393 net.cpp:157] Top shape: 4 512 24 24 (1179648)
I0510 15:51:19.288923  8393 net.cpp:165] Memory required for data: 6086251088
I0510 15:51:19.288928  8393 layer_factory.hpp:77] Creating layer LFCN_3_5x5
I0510 15:51:19.288950  8393 net.cpp:100] Creating Layer LFCN_3_5x5
I0510 15:51:19.288959  8393 net.cpp:434] LFCN_3_5x5 <- conv6_1_relu6_1_0_split_0
I0510 15:51:19.288967  8393 net.cpp:408] LFCN_3_5x5 -> LFCN_3_5x5
I0510 15:51:19.293381  8393 net.cpp:150] Setting up LFCN_3_5x5
I0510 15:51:19.293414  8393 net.cpp:157] Top shape: 4 9 24 24 (20736)
I0510 15:51:19.293419  8393 net.cpp:165] Memory required for data: 6086334032
I0510 15:51:19.293431  8393 layer_factory.hpp:77] Creating layer LFCN_3_5x5_LFCN_3_5x5_0_split
I0510 15:51:19.293442  8393 net.cpp:100] Creating Layer LFCN_3_5x5_LFCN_3_5x5_0_split
I0510 15:51:19.293449  8393 net.cpp:434] LFCN_3_5x5_LFCN_3_5x5_0_split <- LFCN_3_5x5
I0510 15:51:19.293458  8393 net.cpp:408] LFCN_3_5x5_LFCN_3_5x5_0_split -> LFCN_3_5x5_LFCN_3_5x5_0_split_0
I0510 15:51:19.293471  8393 net.cpp:408] LFCN_3_5x5_LFCN_3_5x5_0_split -> LFCN_3_5x5_LFCN_3_5x5_0_split_1
I0510 15:51:19.293525  8393 net.cpp:150] Setting up LFCN_3_5x5_LFCN_3_5x5_0_split
I0510 15:51:19.293536  8393 net.cpp:157] Top shape: 4 9 24 24 (20736)
I0510 15:51:19.293542  8393 net.cpp:157] Top shape: 4 9 24 24 (20736)
I0510 15:51:19.293546  8393 net.cpp:165] Memory required for data: 6086499920
I0510 15:51:19.293550  8393 layer_factory.hpp:77] Creating layer detection_loss_3_5x5
I0510 15:51:19.293560  8393 net.cpp:100] Creating Layer detection_loss_3_5x5
I0510 15:51:19.293565  8393 net.cpp:434] detection_loss_3_5x5 <- LFCN_3_5x5_LFCN_3_5x5_0_split_0
I0510 15:51:19.293571  8393 net.cpp:434] detection_loss_3_5x5 <- label_3_5x5_data_5_split_0
I0510 15:51:19.293581  8393 net.cpp:408] detection_loss_3_5x5 -> loss_3_5x5
I0510 15:51:19.293593  8393 layer_factory.hpp:77] Creating layer detection_loss_3_5x5
I0510 15:51:19.293958  8393 net.cpp:150] Setting up detection_loss_3_5x5
I0510 15:51:19.293972  8393 net.cpp:157] Top shape: 1 1 1 2 (2)
I0510 15:51:19.293974  8393 net.cpp:160]     with loss weight 1
I0510 15:51:19.293985  8393 net.cpp:165] Memory required for data: 6086499928
I0510 15:51:19.293988  8393 layer_factory.hpp:77] Creating layer detection_accuracy_3_5x5
I0510 15:51:19.293995  8393 net.cpp:100] Creating Layer detection_accuracy_3_5x5
I0510 15:51:19.294000  8393 net.cpp:434] detection_accuracy_3_5x5 <- LFCN_3_5x5_LFCN_3_5x5_0_split_1
I0510 15:51:19.294004  8393 net.cpp:434] detection_accuracy_3_5x5 <- label_3_5x5_data_5_split_1
I0510 15:51:19.294013  8393 net.cpp:408] detection_accuracy_3_5x5 -> accuracy_3_5x5
I0510 15:51:19.294023  8393 net.cpp:408] detection_accuracy_3_5x5 -> boxiou_3_5x5
I0510 15:51:19.294060  8393 net.cpp:150] Setting up detection_accuracy_3_5x5
I0510 15:51:19.294066  8393 net.cpp:157] Top shape: 1 1 1 2 (2)
I0510 15:51:19.294071  8393 net.cpp:157] Top shape: 1 1 1 1 (1)
I0510 15:51:19.294075  8393 net.cpp:165] Memory required for data: 6086499940
I0510 15:51:19.294077  8393 layer_factory.hpp:77] Creating layer LFCN_3_7x7
I0510 15:51:19.294087  8393 net.cpp:100] Creating Layer LFCN_3_7x7
I0510 15:51:19.294092  8393 net.cpp:434] LFCN_3_7x7 <- conv6_1_relu6_1_0_split_1
I0510 15:51:19.294098  8393 net.cpp:408] LFCN_3_7x7 -> LFCN_3_7x7
I0510 15:51:19.303587  8393 net.cpp:150] Setting up LFCN_3_7x7
I0510 15:51:19.303614  8393 net.cpp:157] Top shape: 4 9 24 24 (20736)
I0510 15:51:19.303619  8393 net.cpp:165] Memory required for data: 6086582884
I0510 15:51:19.303628  8393 layer_factory.hpp:77] Creating layer LFCN_3_7x7_LFCN_3_7x7_0_split
I0510 15:51:19.303638  8393 net.cpp:100] Creating Layer LFCN_3_7x7_LFCN_3_7x7_0_split
I0510 15:51:19.303644  8393 net.cpp:434] LFCN_3_7x7_LFCN_3_7x7_0_split <- LFCN_3_7x7
I0510 15:51:19.303653  8393 net.cpp:408] LFCN_3_7x7_LFCN_3_7x7_0_split -> LFCN_3_7x7_LFCN_3_7x7_0_split_0
I0510 15:51:19.303661  8393 net.cpp:408] LFCN_3_7x7_LFCN_3_7x7_0_split -> LFCN_3_7x7_LFCN_3_7x7_0_split_1
I0510 15:51:19.303709  8393 net.cpp:150] Setting up LFCN_3_7x7_LFCN_3_7x7_0_split
I0510 15:51:19.303716  8393 net.cpp:157] Top shape: 4 9 24 24 (20736)
I0510 15:51:19.303722  8393 net.cpp:157] Top shape: 4 9 24 24 (20736)
I0510 15:51:19.303726  8393 net.cpp:165] Memory required for data: 6086748772
I0510 15:51:19.303731  8393 layer_factory.hpp:77] Creating layer detection_loss_3_7x7
I0510 15:51:19.303742  8393 net.cpp:100] Creating Layer detection_loss_3_7x7
I0510 15:51:19.303750  8393 net.cpp:434] detection_loss_3_7x7 <- LFCN_3_7x7_LFCN_3_7x7_0_split_0
I0510 15:51:19.303757  8393 net.cpp:434] detection_loss_3_7x7 <- label_3_7x7_data_6_split_0
I0510 15:51:19.303764  8393 net.cpp:408] detection_loss_3_7x7 -> loss_3_7x7
I0510 15:51:19.303776  8393 layer_factory.hpp:77] Creating layer detection_loss_3_7x7
I0510 15:51:19.304100  8393 net.cpp:150] Setting up detection_loss_3_7x7
I0510 15:51:19.304111  8393 net.cpp:157] Top shape: 1 1 1 2 (2)
I0510 15:51:19.304114  8393 net.cpp:160]     with loss weight 1
I0510 15:51:19.304124  8393 net.cpp:165] Memory required for data: 6086748780
I0510 15:51:19.304128  8393 layer_factory.hpp:77] Creating layer detection_accuracy_3_7x7
I0510 15:51:19.304136  8393 net.cpp:100] Creating Layer detection_accuracy_3_7x7
I0510 15:51:19.304139  8393 net.cpp:434] detection_accuracy_3_7x7 <- LFCN_3_7x7_LFCN_3_7x7_0_split_1
I0510 15:51:19.304144  8393 net.cpp:434] detection_accuracy_3_7x7 <- label_3_7x7_data_6_split_1
I0510 15:51:19.304149  8393 net.cpp:408] detection_accuracy_3_7x7 -> accuracy_3_7x7
I0510 15:51:19.304157  8393 net.cpp:408] detection_accuracy_3_7x7 -> boxiou_3_7x7
I0510 15:51:19.304196  8393 net.cpp:150] Setting up detection_accuracy_3_7x7
I0510 15:51:19.304205  8393 net.cpp:157] Top shape: 1 1 1 2 (2)
I0510 15:51:19.304211  8393 net.cpp:157] Top shape: 1 1 1 1 (1)
I0510 15:51:19.304215  8393 net.cpp:165] Memory required for data: 6086748792
I0510 15:51:19.304220  8393 layer_factory.hpp:77] Creating layer pool6
I0510 15:51:19.304227  8393 net.cpp:100] Creating Layer pool6
I0510 15:51:19.304234  8393 net.cpp:434] pool6 <- conv6_1_relu6_1_0_split_2
I0510 15:51:19.304241  8393 net.cpp:408] pool6 -> pool6
I0510 15:51:19.304286  8393 net.cpp:150] Setting up pool6
I0510 15:51:19.304296  8393 net.cpp:157] Top shape: 4 512 12 12 (294912)
I0510 15:51:19.304299  8393 net.cpp:165] Memory required for data: 6087928440
I0510 15:51:19.304303  8393 layer_factory.hpp:77] Creating layer LFCN_4_5x5
I0510 15:51:19.304319  8393 net.cpp:100] Creating Layer LFCN_4_5x5
I0510 15:51:19.304327  8393 net.cpp:434] LFCN_4_5x5 <- pool6
I0510 15:51:19.304334  8393 net.cpp:408] LFCN_4_5x5 -> LFCN_4_5x5
I0510 15:51:19.309345  8393 net.cpp:150] Setting up LFCN_4_5x5
I0510 15:51:19.309370  8393 net.cpp:157] Top shape: 4 9 12 12 (5184)
I0510 15:51:19.309373  8393 net.cpp:165] Memory required for data: 6087949176
I0510 15:51:19.309382  8393 layer_factory.hpp:77] Creating layer LFCN_4_5x5_LFCN_4_5x5_0_split
I0510 15:51:19.309392  8393 net.cpp:100] Creating Layer LFCN_4_5x5_LFCN_4_5x5_0_split
I0510 15:51:19.309397  8393 net.cpp:434] LFCN_4_5x5_LFCN_4_5x5_0_split <- LFCN_4_5x5
I0510 15:51:19.309404  8393 net.cpp:408] LFCN_4_5x5_LFCN_4_5x5_0_split -> LFCN_4_5x5_LFCN_4_5x5_0_split_0
I0510 15:51:19.309413  8393 net.cpp:408] LFCN_4_5x5_LFCN_4_5x5_0_split -> LFCN_4_5x5_LFCN_4_5x5_0_split_1
I0510 15:51:19.309456  8393 net.cpp:150] Setting up LFCN_4_5x5_LFCN_4_5x5_0_split
I0510 15:51:19.309463  8393 net.cpp:157] Top shape: 4 9 12 12 (5184)
I0510 15:51:19.309468  8393 net.cpp:157] Top shape: 4 9 12 12 (5184)
I0510 15:51:19.309470  8393 net.cpp:165] Memory required for data: 6087990648
I0510 15:51:19.309474  8393 layer_factory.hpp:77] Creating layer detection_loss_4_5x5
I0510 15:51:19.309481  8393 net.cpp:100] Creating Layer detection_loss_4_5x5
I0510 15:51:19.309485  8393 net.cpp:434] detection_loss_4_5x5 <- LFCN_4_5x5_LFCN_4_5x5_0_split_0
I0510 15:51:19.309491  8393 net.cpp:434] detection_loss_4_5x5 <- label_4_5x5_data_7_split_0
I0510 15:51:19.309499  8393 net.cpp:408] detection_loss_4_5x5 -> loss_4_5x5
I0510 15:51:19.309507  8393 layer_factory.hpp:77] Creating layer detection_loss_4_5x5
I0510 15:51:19.309872  8393 net.cpp:150] Setting up detection_loss_4_5x5
I0510 15:51:19.309883  8393 net.cpp:157] Top shape: 1 1 1 2 (2)
I0510 15:51:19.309887  8393 net.cpp:160]     with loss weight 1
I0510 15:51:19.309898  8393 net.cpp:165] Memory required for data: 6087990656
I0510 15:51:19.309901  8393 layer_factory.hpp:77] Creating layer detection_accuracy_4_5x5
I0510 15:51:19.309911  8393 net.cpp:100] Creating Layer detection_accuracy_4_5x5
I0510 15:51:19.309916  8393 net.cpp:434] detection_accuracy_4_5x5 <- LFCN_4_5x5_LFCN_4_5x5_0_split_1
I0510 15:51:19.309921  8393 net.cpp:434] detection_accuracy_4_5x5 <- label_4_5x5_data_7_split_1
I0510 15:51:19.309927  8393 net.cpp:408] detection_accuracy_4_5x5 -> accuracy_4_5x5
I0510 15:51:19.309934  8393 net.cpp:408] detection_accuracy_4_5x5 -> boxiou_4_5x5
I0510 15:51:19.309976  8393 net.cpp:150] Setting up detection_accuracy_4_5x5
I0510 15:51:19.309984  8393 net.cpp:157] Top shape: 1 1 1 2 (2)
I0510 15:51:19.309988  8393 net.cpp:157] Top shape: 1 1 1 1 (1)
I0510 15:51:19.309993  8393 net.cpp:165] Memory required for data: 6087990668
I0510 15:51:19.309996  8393 net.cpp:228] detection_accuracy_4_5x5 does not need backward computation.
I0510 15:51:19.310000  8393 net.cpp:226] detection_loss_4_5x5 needs backward computation.
I0510 15:51:19.310004  8393 net.cpp:226] LFCN_4_5x5_LFCN_4_5x5_0_split needs backward computation.
I0510 15:51:19.310009  8393 net.cpp:226] LFCN_4_5x5 needs backward computation.
…
I0510 15:51:19.324419  8393 image_gt_data_layer.cpp:235] output label size 1 : 2,6,96,96
I0510 15:51:19.324468  8393 image_gt_data_layer.cpp:235] output label size 2 : 2,6,48,48
I0510 15:51:19.324517  8393 image_gt_data_layer.cpp:235] output label size 3 : 2,6,48,48
I0510 15:51:19.324564  8393 image_gt_data_layer.cpp:235] output label size 4 : 2,6,24,24
I0510 15:51:19.324611  8393 image_gt_data_layer.cpp:235] output label size 5 : 2,6,24,24
I0510 15:51:19.324659  8393 image_gt_data_layer.cpp:235] output label size 6 : 2,6,12,12
I0510 15:51:19.359407  8393 net.cpp:150] Setting up data
I0510 15:51:19.359439  8393 net.cpp:157] Top shape: 2 4 768 768 (4718592)
I0510 15:51:19.359444  8393 net.cpp:157] Top shape: 2 6 96 96 (110592)
I0510 15:51:19.359448  8393 net.cpp:157] Top shape: 2 6 96 96 (110592)
I0510 15:51:19.359453  8393 net.cpp:157] Top shape: 2 6 48 48 (27648)
I0510 15:51:19.359457  8393 net.cpp:157] Top shape: 2 6 48 48 (27648)
I0510 15:51:19.359460  8393 net.cpp:157] Top shape: 2 6 24 24 (6912)
I0510 15:51:19.359464  8393 net.cpp:157] Top shape: 2 6 24 24 (6912)
I0510 15:51:19.359468  8393 net.cpp:157] Top shape: 2 6 12 12 (1728)
I0510 15:51:19.359472  8393 net.cpp:165] Memory required for data: 20042496
I0510 15:51:19.359478  8393 layer_factory.hpp:77] Creating layer label_1_5x5_data_1_split
I0510 15:51:19.359493  8393 net.cpp:100] Creating Layer label_1_5x5_data_1_split
I0510 15:51:19.359498  8393 net.cpp:434] label_1_5x5_data_1_split <- label_1_5x5
I0510 15:51:19.359505  8393 net.cpp:408] label_1_5x5_data_1_split -> label_1_5x5_data_1_split_0
I0510 15:51:19.359514  8393 net.cpp:408] label_1_5x5_data_1_split -> label_1_5x5_data_1_split_1
I0510 15:51:19.359581  8393 net.cpp:150] Setting up label_1_5x5_data_1_split
I0510 15:51:19.359591  8393 net.cpp:157] Top shape: 2 6 96 96 (110592)
I0510 15:51:19.359596  8393 net.cpp:157] Top shape: 2 6 96 96 (110592)
I0510 15:51:19.359598  8393 net.cpp:165] Memory required for data: 20927232
I0510 15:51:19.359601  8393 layer_factory.hpp:77] Creating layer label_1_7x7_data_2_split
I0510 15:51:19.359607  8393 net.cpp:100] Creating Layer label_1_7x7_data_2_split
I0510 15:51:19.359611  8393 net.cpp:434] label_1_7x7_data_2_split <- label_1_7x7
I0510 15:51:19.359616  8393 net.cpp:408] label_1_7x7_data_2_split -> label_1_7x7_data_2_split_0
I0510 15:51:19.359621  8393 net.cpp:408] label_1_7x7_data_2_split -> label_1_7x7_data_2_split_1
I0510 15:51:19.359653  8393 net.cpp:150] Setting up label_1_7x7_data_2_split
I0510 15:51:19.359659  8393 net.cpp:157] Top shape: 2 6 96 96 (110592)
I0510 15:51:19.359664  8393 net.cpp:157] Top shape: 2 6 96 96 (110592)
I0510 15:51:19.359668  8393 net.cpp:165] Memory required for data: 21811968
I0510 15:51:19.359670  8393 layer_factory.hpp:77] Creating layer label_2_5x5_data_3_split
I0510 15:51:19.359676  8393 net.cpp:100] Creating Layer label_2_5x5_data_3_split
I0510 15:51:19.359679  8393 net.cpp:434] label_2_5x5_data_3_split <- label_2_5x5
I0510 15:51:19.359683  8393 net.cpp:408] label_2_5x5_data_3_split -> label_2_5x5_data_3_split_0
I0510 15:51:19.359688  8393 net.cpp:408] label_2_5x5_data_3_split -> label_2_5x5_data_3_split_1
I0510 15:51:19.359720  8393 net.cpp:150] Setting up label_2_5x5_data_3_split
I0510 15:51:19.359726  8393 net.cpp:157] Top shape: 2 6 48 48 (27648)
I0510 15:51:19.359730  8393 net.cpp:157] Top shape: 2 6 48 48 (27648)
I0510 15:51:19.359733  8393 net.cpp:165] Memory required for data: 22033152
I0510 15:51:19.359736  8393 layer_factory.hpp:77] Creating layer label_2_7x7_data_4_split
I0510 15:51:19.359741  8393 net.cpp:100] Creating Layer label_2_7x7_data_4_split
I0510 15:51:19.359745  8393 net.cpp:434] label_2_7x7_data_4_split <- label_2_7x7
I0510 15:51:19.359750  8393 net.cpp:408] label_2_7x7_data_4_split -> label_2_7x7_data_4_split_0
I0510 15:51:19.359755  8393 net.cpp:408] label_2_7x7_data_4_split -> label_2_7x7_data_4_split_1
I0510 15:51:19.359786  8393 net.cpp:150] Setting up label_2_7x7_data_4_split
I0510 15:51:19.359792  8393 net.cpp:157] Top shape: 2 6 48 48 (27648)
I0510 15:51:19.359797  8393 net.cpp:157] Top shape: 2 6 48 48 (27648)
I0510 15:51:19.359799  8393 net.cpp:165] Memory required for data: 22254336
I0510 15:51:19.359802  8393 layer_factory.hpp:77] Creating layer label_3_5x5_data_5_split
I0510 15:51:19.359808  8393 net.cpp:100] Creating Layer label_3_5x5_data_5_split
I0510 15:51:19.359812  8393 net.cpp:434] label_3_5x5_data_5_split <- label_3_5x5
I0510 15:51:19.359815  8393 net.cpp:408] label_3_5x5_data_5_split -> label_3_5x5_data_5_split_0
I0510 15:51:19.359822  8393 net.cpp:408] label_3_5x5_data_5_split -> label_3_5x5_data_5_split_1
I0510 15:51:19.359853  8393 net.cpp:150] Setting up label_3_5x5_data_5_split
I0510 15:51:19.359859  8393 net.cpp:157] Top shape: 2 6 24 24 (6912)
I0510 15:51:19.359864  8393 net.cpp:157] Top shape: 2 6 24 24 (6912)
I0510 15:51:19.359866  8393 net.cpp:165] Memory required for data: 22309632
I0510 15:51:19.359870  8393 layer_factory.hpp:77] Creating layer label_3_7x7_data_6_split
I0510 15:51:19.359874  8393 net.cpp:100] Creating Layer label_3_7x7_data_6_split
I0510 15:51:19.359877  8393 net.cpp:434] label_3_7x7_data_6_split <- label_3_7x7
I0510 15:51:19.359882  8393 net.cpp:408] label_3_7x7_data_6_split -> label_3_7x7_data_6_split_0
I0510 15:51:19.359886  8393 net.cpp:408] label_3_7x7_data_6_split -> label_3_7x7_data_6_split_1
I0510 15:51:19.359916  8393 net.cpp:150] Setting up label_3_7x7_data_6_split
I0510 15:51:19.359922  8393 net.cpp:157] Top shape: 2 6 24 24 (6912)
I0510 15:51:19.359927  8393 net.cpp:157] Top shape: 2 6 24 24 (6912)
I0510 15:51:19.359930  8393 net.cpp:165] Memory required for data: 22364928
I0510 15:51:19.359933  8393 layer_factory.hpp:77] Creating layer label_4_5x5_data_7_split
I0510 15:51:19.359937  8393 net.cpp:100] Creating Layer label_4_5x5_data_7_split
I0510 15:51:19.359941  8393 net.cpp:434] label_4_5x5_data_7_split <- label_4_5x5
I0510 15:51:19.359946  8393 net.cpp:408] label_4_5x5_data_7_split -> label_4_5x5_data_7_split_0
I0510 15:51:19.359951  8393 net.cpp:408] label_4_5x5_data_7_split -> label_4_5x5_data_7_split_1
I0510 15:51:19.359979  8393 net.cpp:150] Setting up label_4_5x5_data_7_split
I0510 15:51:19.359985  8393 net.cpp:157] Top shape: 2 6 12 12 (1728)
I0510 15:51:19.359989  8393 net.cpp:157] Top shape: 2 6 12 12 (1728)
I0510 15:51:19.359992  8393 net.cpp:165] Memory required for data: 22378752
I0510 15:51:19.359997  8393 layer_factory.hpp:77] Creating layer slice
I0510 15:51:19.360004  8393 net.cpp:100] Creating Layer slice
I0510 15:51:19.360008  8393 net.cpp:434] slice <- data
I0510 15:51:19.360013  8393 net.cpp:408] slice -> data123
I0510 15:51:19.360018  8393 net.cpp:408] slice -> ch4
I0510 15:51:19.360049  8393 net.cpp:150] Setting up slice
I0510 15:51:19.360055  8393 net.cpp:157] Top shape: 2 3 768 768 (3538944)
I0510 15:51:19.360059  8393 net.cpp:157] Top shape: 2 1 768 768 (1179648)
I0510 15:51:19.360062  8393 net.cpp:165] Memory required for data: 41253120
I0510 15:51:19.360065  8393 layer_factory.hpp:77] Creating layer conv1_1
I0510 15:51:19.360077  8393 net.cpp:100] Creating Layer conv1_1
I0510 15:51:19.360080  8393 net.cpp:434] conv1_1 <- data123
I0510 15:51:19.360085  8393 net.cpp:408] conv1_1 -> conv1_1
I0510 15:51:19.365334  8393 net.cpp:150] Setting up conv1_1
I0510 15:51:19.365427  8393 net.cpp:157] Top shape: 2 64 768 768 (75497472)
I0510 15:51:19.365435  8393 net.cpp:165] Memory required for data: 343243008
I0510 15:51:19.365478  8393 layer_factory.hpp:77] Creating layer relu1_1
I0510 15:51:19.365502  8393 net.cpp:100] Creating Layer relu1_1
I0510 15:51:19.365514  8393 net.cpp:434] relu1_1 <- conv1_1
I0510 15:51:19.365523  8393 net.cpp:395] relu1_1 -> conv1_1 (in-place)
I0510 15:51:19.366705  8393 net.cpp:150] Setting up relu1_1
I0510 15:51:19.366729  8393 net.cpp:157] Top shape: 2 64 768 768 (75497472)
I0510 15:51:19.366735  8393 net.cpp:165] Memory required for data: 645232896
I0510 15:51:19.366741  8393 layer_factory.hpp:77] Creating layer conv1_2
I0510 15:51:19.366760  8393 net.cpp:100] Creating Layer conv1_2
I0510 15:51:19.366766  8393 net.cpp:434] conv1_2 <- conv1_1
I0510 15:51:19.366776  8393 net.cpp:408] conv1_2 -> conv1_2
I0510 15:51:19.374506  8393 net.cpp:150] Setting up conv1_2
I0510 15:51:19.374541  8393 net.cpp:157] Top shape: 2 64 768 768 (75497472)
I0510 15:51:19.374547  8393 net.cpp:165] Memory required for data: 947222784
I0510 15:51:19.374567  8393 layer_factory.hpp:77] Creating layer relu1_2
I0510 15:51:19.374583  8393 net.cpp:100] Creating Layer relu1_2
I0510 15:51:19.374590  8393 net.cpp:434] relu1_2 <- conv1_2
I0510 15:51:19.374598  8393 net.cpp:395] relu1_2 -> conv1_2 (in-place)
I0510 15:51:19.374951  8393 net.cpp:150] Setting up relu1_2
I0510 15:51:19.374965  8393 net.cpp:157] Top shape: 2 64 768 768 (75497472)
I0510 15:51:19.374969  8393 net.cpp:165] Memory required for data: 1249212672
I0510 15:51:19.374974  8393 layer_factory.hpp:77] Creating layer pool1
I0510 15:51:19.374982  8393 net.cpp:100] Creating Layer pool1
I0510 15:51:19.374987  8393 net.cpp:434] pool1 <- conv1_2
I0510 15:51:19.374994  8393 net.cpp:408] pool1 -> pool1
I0510 15:51:19.375079  8393 net.cpp:150] Setting up pool1
I0510 15:51:19.375087  8393 net.cpp:157] Top shape: 2 64 384 384 (18874368)
I0510 15:51:19.375092  8393 net.cpp:165] Memory required for data: 1324710144
I0510 15:51:19.375095  8393 layer_factory.hpp:77] Creating layer conv2_1
I0510 15:51:19.375108  8393 net.cpp:100] Creating Layer conv2_1
I0510 15:51:19.375113  8393 net.cpp:434] conv2_1 <- pool1
I0510 15:51:19.375118  8393 net.cpp:408] conv2_1 -> conv2_1
I0510 15:51:19.384560  8393 net.cpp:150] Setting up conv2_1
I0510 15:51:19.384608  8393 net.cpp:157] Top shape: 2 128 384 384 (37748736)
I0510 15:51:19.384614  8393 net.cpp:165] Memory required for data: 1475705088
I0510 15:51:19.384639  8393 layer_factory.hpp:77] Creating layer relu2_1
I0510 15:51:19.384658  8393 net.cpp:100] Creating Layer relu2_1
I0510 15:51:19.384667  8393 net.cpp:434] relu2_1 <- conv2_1
I0510 15:51:19.384676  8393 net.cpp:395] relu2_1 -> conv2_1 (in-place)
I0510 15:51:19.385008  8393 net.cpp:150] Setting up relu2_1
I0510 15:51:19.385020  8393 net.cpp:157] Top shape: 2 128 384 384 (37748736)
I0510 15:51:19.385025  8393 net.cpp:165] Memory required for data: 1626700032
I0510 15:51:19.385028  8393 layer_factory.hpp:77] Creating layer conv2_2
I0510 15:51:19.385048  8393 net.cpp:100] Creating Layer conv2_2
I0510 15:51:19.385054  8393 net.cpp:434] conv2_2 <- conv2_1
I0510 15:51:19.385062  8393 net.cpp:408] conv2_2 -> conv2_2
I0510 15:51:19.387958  8393 net.cpp:150] Setting up conv2_2
I0510 15:51:19.387986  8393 net.cpp:157] Top shape: 2 128 384 384 (37748736)
I0510 15:51:19.387990  8393 net.cpp:165] Memory required for data: 1777694976
I0510 15:51:19.388002  8393 layer_factory.hpp:77] Creating layer relu2_2
I0510 15:51:19.388016  8393 net.cpp:100] Creating Layer relu2_2
I0510 15:51:19.388023  8393 net.cpp:434] relu2_2 <- conv2_2
I0510 15:51:19.388031  8393 net.cpp:395] relu2_2 -> conv2_2 (in-place)
I0510 15:51:19.388214  8393 net.cpp:150] Setting up relu2_2
I0510 15:51:19.388224  8393 net.cpp:157] Top shape: 2 128 384 384 (37748736)
I0510 15:51:19.388227  8393 net.cpp:165] Memory required for data: 1928689920
I0510 15:51:19.388231  8393 layer_factory.hpp:77] Creating layer pool2
I0510 15:51:19.388238  8393 net.cpp:100] Creating Layer pool2
I0510 15:51:19.388242  8393 net.cpp:434] pool2 <- conv2_2
I0510 15:51:19.388248  8393 net.cpp:408] pool2 -> pool2
I0510 15:51:19.388289  8393 net.cpp:150] Setting up pool2
I0510 15:51:19.388296  8393 net.cpp:157] Top shape: 2 128 192 192 (9437184)
I0510 15:51:19.388299  8393 net.cpp:165] Memory required for data: 1966438656
I0510 15:51:19.388303  8393 layer_factory.hpp:77] Creating layer ch4_pool2
I0510 15:51:19.388309  8393 net.cpp:100] Creating Layer ch4_pool2
I0510 15:51:19.388314  8393 net.cpp:434] ch4_pool2 <- ch4
I0510 15:51:19.388317  8393 net.cpp:408] ch4_pool2 -> ch4_pool2
I0510 15:51:19.388353  8393 net.cpp:150] Setting up ch4_pool2
I0510 15:51:19.388360  8393 net.cpp:157] Top shape: 2 1 192 192 (73728)
I0510 15:51:19.388363  8393 net.cpp:165] Memory required for data: 1966733568
I0510 15:51:19.388367  8393 layer_factory.hpp:77] Creating layer pool2_concat
I0510 15:51:19.388373  8393 net.cpp:100] Creating Layer pool2_concat
I0510 15:51:19.388378  8393 net.cpp:434] pool2_concat <- pool2
I0510 15:51:19.388383  8393 net.cpp:434] pool2_concat <- ch4_pool2
I0510 15:51:19.388389  8393 net.cpp:408] pool2_concat -> pool2_new
I0510 15:51:19.388415  8393 net.cpp:150] Setting up pool2_concat
I0510 15:51:19.388423  8393 net.cpp:157] Top shape: 2 129 192 192 (9510912)
I0510 15:51:19.388453  8393 net.cpp:165] Memory required for data: 2004777216
I0510 15:51:19.388459  8393 layer_factory.hpp:77] Creating layer conv3_1_new
I0510 15:51:19.388475  8393 net.cpp:100] Creating Layer conv3_1_new
I0510 15:51:19.388483  8393 net.cpp:434] conv3_1_new <- pool2_new
I0510 15:51:19.388490  8393 net.cpp:408] conv3_1_new -> conv3_1
I0510 15:51:19.391439  8393 net.cpp:150] Setting up conv3_1_new
I0510 15:51:19.391485  8393 net.cpp:157] Top shape: 2 256 192 192 (18874368)
I0510 15:51:19.391495  8393 net.cpp:165] Memory required for data: 2080274688
I0510 15:51:19.391520  8393 layer_factory.hpp:77] Creating layer relu3_1
I0510 15:51:19.391541  8393 net.cpp:100] Creating Layer relu3_1
I0510 15:51:19.391552  8393 net.cpp:434] relu3_1 <- conv3_1
I0510 15:51:19.391566  8393 net.cpp:395] relu3_1 -> conv3_1 (in-place)
I0510 15:51:19.391948  8393 net.cpp:150] Setting up relu3_1
I0510 15:51:19.391968  8393 net.cpp:157] Top shape: 2 256 192 192 (18874368)
I0510 15:51:19.391978  8393 net.cpp:165] Memory required for data: 2155772160
I0510 15:51:19.391985  8393 layer_factory.hpp:77] Creating layer conv3_2
I0510 15:51:19.392005  8393 net.cpp:100] Creating Layer conv3_2
I0510 15:51:19.392015  8393 net.cpp:434] conv3_2 <- conv3_1
I0510 15:51:19.392026  8393 net.cpp:408] conv3_2 -> conv3_2
I0510 15:51:19.397645  8393 net.cpp:150] Setting up conv3_2
I0510 15:51:19.397688  8393 net.cpp:157] Top shape: 2 256 192 192 (18874368)
I0510 15:51:19.397697  8393 net.cpp:165] Memory required for data: 2231269632
I0510 15:51:19.397718  8393 layer_factory.hpp:77] Creating layer relu3_2
I0510 15:51:19.397737  8393 net.cpp:100] Creating Layer relu3_2
I0510 15:51:19.397748  8393 net.cpp:434] relu3_2 <- conv3_2
I0510 15:51:19.397759  8393 net.cpp:395] relu3_2 -> conv3_2 (in-place)
I0510 15:51:19.398156  8393 net.cpp:150] Setting up relu3_2
I0510 15:51:19.398176  8393 net.cpp:157] Top shape: 2 256 192 192 (18874368)
I0510 15:51:19.398185  8393 net.cpp:165] Memory required for data: 2306767104
I0510 15:51:19.398195  8393 layer_factory.hpp:77] Creating layer conv3_3
I0510 15:51:19.398211  8393 net.cpp:100] Creating Layer conv3_3
I0510 15:51:19.398221  8393 net.cpp:434] conv3_3 <- conv3_2
I0510 15:51:19.398233  8393 net.cpp:408] conv3_3 -> conv3_3
I0510 15:51:19.402539  8393 net.cpp:150] Setting up conv3_3
I0510 15:51:19.402578  8393 net.cpp:157] Top shape: 2 256 192 192 (18874368)
I0510 15:51:19.402583  8393 net.cpp:165] Memory required for data: 2382264576
I0510 15:51:19.402595  8393 layer_factory.hpp:77] Creating layer relu3_3
I0510 15:51:19.402609  8393 net.cpp:100] Creating Layer relu3_3
I0510 15:51:19.402616  8393 net.cpp:434] relu3_3 <- conv3_3
I0510 15:51:19.402622  8393 net.cpp:395] relu3_3 -> conv3_3 (in-place)
I0510 15:51:19.403167  8393 net.cpp:150] Setting up relu3_3
I0510 15:51:19.403179  8393 net.cpp:157] Top shape: 2 256 192 192 (18874368)
I0510 15:51:19.403183  8393 net.cpp:165] Memory required for data: 2457762048
I0510 15:51:19.403187  8393 layer_factory.hpp:77] Creating layer pool3
I0510 15:51:19.403195  8393 net.cpp:100] Creating Layer pool3
I0510 15:51:19.403199  8393 net.cpp:434] pool3 <- conv3_3
I0510 15:51:19.403206  8393 net.cpp:408] pool3 -> pool3
I0510 15:51:19.403251  8393 net.cpp:150] Setting up pool3
I0510 15:51:19.403259  8393 net.cpp:157] Top shape: 2 256 96 96 (4718592)
I0510 15:51:19.403261  8393 net.cpp:165] Memory required for data: 2476636416
I0510 15:51:19.403265  8393 layer_factory.hpp:77] Creating layer conv4_1
I0510 15:51:19.403276  8393 net.cpp:100] Creating Layer conv4_1
I0510 15:51:19.403280  8393 net.cpp:434] conv4_1 <- pool3
I0510 15:51:19.403285  8393 net.cpp:408] conv4_1 -> conv4_1
I0510 15:51:19.411097  8393 net.cpp:150] Setting up conv4_1
I0510 15:51:19.411129  8393 net.cpp:157] Top shape: 2 512 96 96 (9437184)
I0510 15:51:19.411134  8393 net.cpp:165] Memory required for data: 2514385152
I0510 15:51:19.411144  8393 layer_factory.hpp:77] Creating layer relu4_1
I0510 15:51:19.411157  8393 net.cpp:100] Creating Layer relu4_1
I0510 15:51:19.411164  8393 net.cpp:434] relu4_1 <- conv4_1
I0510 15:51:19.411168  8393 net.cpp:395] relu4_1 -> conv4_1 (in-place)
I0510 15:51:19.411345  8393 net.cpp:150] Setting up relu4_1
I0510 15:51:19.411355  8393 net.cpp:157] Top shape: 2 512 96 96 (9437184)
I0510 15:51:19.411357  8393 net.cpp:165] Memory required for data: 2552133888
I0510 15:51:19.411361  8393 layer_factory.hpp:77] Creating layer conv4_2
I0510 15:51:19.411370  8393 net.cpp:100] Creating Layer conv4_2
I0510 15:51:19.411375  8393 net.cpp:434] conv4_2 <- conv4_1
I0510 15:51:19.411381  8393 net.cpp:408] conv4_2 -> conv4_2
I0510 15:51:19.418100  8393 net.cpp:150] Setting up conv4_2
I0510 15:51:19.418131  8393 net.cpp:157] Top shape: 2 512 96 96 (9437184)
I0510 15:51:19.418136  8393 net.cpp:165] Memory required for data: 2589882624
I0510 15:51:19.418153  8393 layer_factory.hpp:77] Creating layer relu4_2
I0510 15:51:19.418165  8393 net.cpp:100] Creating Layer relu4_2
I0510 15:51:19.418172  8393 net.cpp:434] relu4_2 <- conv4_2
I0510 15:51:19.418189  8393 net.cpp:395] relu4_2 -> conv4_2 (in-place)
I0510 15:51:19.418413  8393 net.cpp:150] Setting up relu4_2
I0510 15:51:19.418426  8393 net.cpp:157] Top shape: 2 512 96 96 (9437184)
I0510 15:51:19.418429  8393 net.cpp:165] Memory required for data: 2627631360
I0510 15:51:19.418434  8393 layer_factory.hpp:77] Creating layer conv4_3
I0510 15:51:19.418452  8393 net.cpp:100] Creating Layer conv4_3
I0510 15:51:19.418462  8393 net.cpp:434] conv4_3 <- conv4_2
I0510 15:51:19.418470  8393 net.cpp:408] conv4_3 -> conv4_3
I0510 15:51:19.427990  8393 net.cpp:150] Setting up conv4_3
I0510 15:51:19.428020  8393 net.cpp:157] Top shape: 2 512 96 96 (9437184)
I0510 15:51:19.428023  8393 net.cpp:165] Memory required for data: 2665380096
I0510 15:51:19.428035  8393 layer_factory.hpp:77] Creating layer relu4_3
I0510 15:51:19.428047  8393 net.cpp:100] Creating Layer relu4_3
I0510 15:51:19.428055  8393 net.cpp:434] relu4_3 <- conv4_3
I0510 15:51:19.428064  8393 net.cpp:395] relu4_3 -> conv4_3 (in-place)
I0510 15:51:19.428227  8393 net.cpp:150] Setting up relu4_3
I0510 15:51:19.428237  8393 net.cpp:157] Top shape: 2 512 96 96 (9437184)
I0510 15:51:19.428242  8393 net.cpp:165] Memory required for data: 2703128832
I0510 15:51:19.428248  8393 layer_factory.hpp:77] Creating layer conv4_3_relu4_3_0_split
I0510 15:51:19.428256  8393 net.cpp:100] Creating Layer conv4_3_relu4_3_0_split
I0510 15:51:19.428261  8393 net.cpp:434] conv4_3_relu4_3_0_split <- conv4_3
I0510 15:51:19.428268  8393 net.cpp:408] conv4_3_relu4_3_0_split -> conv4_3_relu4_3_0_split_0
I0510 15:51:19.428277  8393 net.cpp:408] conv4_3_relu4_3_0_split -> conv4_3_relu4_3_0_split_1
I0510 15:51:19.428318  8393 net.cpp:150] Setting up conv4_3_relu4_3_0_split
I0510 15:51:19.428325  8393 net.cpp:157] Top shape: 2 512 96 96 (9437184)
I0510 15:51:19.428329  8393 net.cpp:157] Top shape: 2 512 96 96 (9437184)
I0510 15:51:19.428334  8393 net.cpp:165] Memory required for data: 2778626304
I0510 15:51:19.428339  8393 layer_factory.hpp:77] Creating layer loss1_conv1
I0510 15:51:19.428355  8393 net.cpp:100] Creating Layer loss1_conv1
I0510 15:51:19.428360  8393 net.cpp:434] loss1_conv1 <- conv4_3_relu4_3_0_split_0
I0510 15:51:19.428369  8393 net.cpp:408] loss1_conv1 -> loss1_conv1
I0510 15:51:19.493376  8393 net.cpp:150] Setting up loss1_conv1
I0510 15:51:19.493403  8393 net.cpp:157] Top shape: 2 512 96 96 (9437184)
I0510 15:51:19.493408  8393 net.cpp:165] Memory required for data: 2816375040
I0510 15:51:19.493417  8393 layer_factory.hpp:77] Creating layer loss_relu1
I0510 15:51:19.493427  8393 net.cpp:100] Creating Layer loss_relu1
I0510 15:51:19.493432  8393 net.cpp:434] loss_relu1 <- loss1_conv1
I0510 15:51:19.493436  8393 net.cpp:395] loss_relu1 -> loss1_conv1 (in-place)
I0510 15:51:19.493585  8393 net.cpp:150] Setting up loss_relu1
I0510 15:51:19.493594  8393 net.cpp:157] Top shape: 2 512 96 96 (9437184)
I0510 15:51:19.493597  8393 net.cpp:165] Memory required for data: 2854123776
I0510 15:51:19.493602  8393 layer_factory.hpp:77] Creating layer loss1_conv1_loss_relu1_0_split
I0510 15:51:19.493610  8393 net.cpp:100] Creating Layer loss1_conv1_loss_relu1_0_split
I0510 15:51:19.493614  8393 net.cpp:434] loss1_conv1_loss_relu1_0_split <- loss1_conv1
I0510 15:51:19.493620  8393 net.cpp:408] loss1_conv1_loss_relu1_0_split -> loss1_conv1_loss_relu1_0_split_0
I0510 15:51:19.493628  8393 net.cpp:408] loss1_conv1_loss_relu1_0_split -> loss1_conv1_loss_relu1_0_split_1
I0510 15:51:19.493680  8393 net.cpp:150] Setting up loss1_conv1_loss_relu1_0_split
I0510 15:51:19.493687  8393 net.cpp:157] Top shape: 2 512 96 96 (9437184)
I0510 15:51:19.493691  8393 net.cpp:157] Top shape: 2 512 96 96 (9437184)
I0510 15:51:19.493695  8393 net.cpp:165] Memory required for data: 2929621248
I0510 15:51:19.493697  8393 layer_factory.hpp:77] Creating layer LFCN_1_5x5
I0510 15:51:19.493708  8393 net.cpp:100] Creating Layer LFCN_1_5x5
I0510 15:51:19.493713  8393 net.cpp:434] LFCN_1_5x5 <- loss1_conv1_loss_relu1_0_split_0
I0510 15:51:19.493721  8393 net.cpp:408] LFCN_1_5x5 -> LFCN_1_5x5
I0510 15:51:19.498322  8393 net.cpp:150] Setting up LFCN_1_5x5
I0510 15:51:19.498337  8393 net.cpp:157] Top shape: 2 9 96 96 (165888)
I0510 15:51:19.498340  8393 net.cpp:165] Memory required for data: 2930284800
I0510 15:51:19.498347  8393 layer_factory.hpp:77] Creating layer LFCN_1_5x5_LFCN_1_5x5_0_split
I0510 15:51:19.498353  8393 net.cpp:100] Creating Layer LFCN_1_5x5_LFCN_1_5x5_0_split
I0510 15:51:19.498356  8393 net.cpp:434] LFCN_1_5x5_LFCN_1_5x5_0_split <- LFCN_1_5x5
I0510 15:51:19.498363  8393 net.cpp:408] LFCN_1_5x5_LFCN_1_5x5_0_split -> LFCN_1_5x5_LFCN_1_5x5_0_split_0
I0510 15:51:19.498368  8393 net.cpp:408] LFCN_1_5x5_LFCN_1_5x5_0_split -> LFCN_1_5x5_LFCN_1_5x5_0_split_1
I0510 15:51:19.498404  8393 net.cpp:150] Setting up LFCN_1_5x5_LFCN_1_5x5_0_split
I0510 15:51:19.498411  8393 net.cpp:157] Top shape: 2 9 96 96 (165888)
I0510 15:51:19.498415  8393 net.cpp:157] Top shape: 2 9 96 96 (165888)
I0510 15:51:19.498419  8393 net.cpp:165] Memory required for data: 2931611904
I0510 15:51:19.498421  8393 layer_factory.hpp:77] Creating layer detection_loss_1_5x5
I0510 15:51:19.498430  8393 net.cpp:100] Creating Layer detection_loss_1_5x5
I0510 15:51:19.498437  8393 net.cpp:434] detection_loss_1_5x5 <- LFCN_1_5x5_LFCN_1_5x5_0_split_0
I0510 15:51:19.498443  8393 net.cpp:434] detection_loss_1_5x5 <- label_1_5x5_data_1_split_0
I0510 15:51:19.498451  8393 net.cpp:408] detection_loss_1_5x5 -> loss_1_5x5
I0510 15:51:19.498461  8393 layer_factory.hpp:77] Creating layer detection_loss_1_5x5
I0510 15:51:19.498845  8393 net.cpp:150] Setting up detection_loss_1_5x5
I0510 15:51:19.498855  8393 net.cpp:157] Top shape: 1 1 1 2 (2)
I0510 15:51:19.498858  8393 net.cpp:160]     with loss weight 0.9
I0510 15:51:19.498875  8393 net.cpp:165] Memory required for data: 2931611912
I0510 15:51:19.498879  8393 layer_factory.hpp:77] Creating layer detection_accuracy_1_5x5
I0510 15:51:19.498888  8393 net.cpp:100] Creating Layer detection_accuracy_1_5x5
I0510 15:51:19.498891  8393 net.cpp:434] detection_accuracy_1_5x5 <- LFCN_1_5x5_LFCN_1_5x5_0_split_1
I0510 15:51:19.498896  8393 net.cpp:434] detection_accuracy_1_5x5 <- label_1_5x5_data_1_split_1
I0510 15:51:19.498904  8393 net.cpp:408] detection_accuracy_1_5x5 -> accuracy_1_5x5
I0510 15:51:19.498913  8393 net.cpp:408] detection_accuracy_1_5x5 -> boxiou_1_5x5
I0510 15:51:19.498950  8393 net.cpp:150] Setting up detection_accuracy_1_5x5
I0510 15:51:19.498957  8393 net.cpp:157] Top shape: 1 1 1 2 (2)
I0510 15:51:19.498961  8393 net.cpp:157] Top shape: 1 1 1 1 (1)
I0510 15:51:19.498965  8393 net.cpp:165] Memory required for data: 2931611924
I0510 15:51:19.498967  8393 layer_factory.hpp:77] Creating layer LFCN_1_7x7
I0510 15:51:19.498976  8393 net.cpp:100] Creating Layer LFCN_1_7x7
I0510 15:51:19.498981  8393 net.cpp:434] LFCN_1_7x7 <- loss1_conv1_loss_relu1_0_split_1
I0510 15:51:19.498987  8393 net.cpp:408] LFCN_1_7x7 -> LFCN_1_7x7
I0510 15:51:19.507302  8393 net.cpp:150] Setting up LFCN_1_7x7
I0510 15:51:19.507328  8393 net.cpp:157] Top shape: 2 9 96 96 (165888)
I0510 15:51:19.507333  8393 net.cpp:165] Memory required for data: 2932275476
I0510 15:51:19.507340  8393 layer_factory.hpp:77] Creating layer LFCN_1_7x7_LFCN_1_7x7_0_split
I0510 15:51:19.507351  8393 net.cpp:100] Creating Layer LFCN_1_7x7_LFCN_1_7x7_0_split
I0510 15:51:19.507356  8393 net.cpp:434] LFCN_1_7x7_LFCN_1_7x7_0_split <- LFCN_1_7x7
I0510 15:51:19.507365  8393 net.cpp:408] LFCN_1_7x7_LFCN_1_7x7_0_split -> LFCN_1_7x7_LFCN_1_7x7_0_split_0
I0510 15:51:19.507376  8393 net.cpp:408] LFCN_1_7x7_LFCN_1_7x7_0_split -> LFCN_1_7x7_LFCN_1_7x7_0_split_1
I0510 15:51:19.507416  8393 net.cpp:150] Setting up LFCN_1_7x7_LFCN_1_7x7_0_split
I0510 15:51:19.507423  8393 net.cpp:157] Top shape: 2 9 96 96 (165888)
I0510 15:51:19.507428  8393 net.cpp:157] Top shape: 2 9 96 96 (165888)
I0510 15:51:19.507431  8393 net.cpp:165] Memory required for data: 2933602580
I0510 15:51:19.507434  8393 layer_factory.hpp:77] Creating layer detection_loss_1_7x7
I0510 15:51:19.507441  8393 net.cpp:100] Creating Layer detection_loss_1_7x7
I0510 15:51:19.507444  8393 net.cpp:434] detection_loss_1_7x7 <- LFCN_1_7x7_LFCN_1_7x7_0_split_0
I0510 15:51:19.507452  8393 net.cpp:434] detection_loss_1_7x7 <- label_1_7x7_data_2_split_0
I0510 15:51:19.507463  8393 net.cpp:408] detection_loss_1_7x7 -> loss_1_7x7
I0510 15:51:19.507475  8393 layer_factory.hpp:77] Creating layer detection_loss_1_7x7
I0510 15:51:19.508227  8393 net.cpp:150] Setting up detection_loss_1_7x7
I0510 15:51:19.508240  8393 net.cpp:157] Top shape: 1 1 1 2 (2)
I0510 15:51:19.508244  8393 net.cpp:160]     with loss weight 0.9
I0510 15:51:19.508255  8393 net.cpp:165] Memory required for data: 2933602588
I0510 15:51:19.508258  8393 layer_factory.hpp:77] Creating layer detection_accuracy_1_7x7
I0510 15:51:19.508268  8393 net.cpp:100] Creating Layer detection_accuracy_1_7x7
I0510 15:51:19.508275  8393 net.cpp:434] detection_accuracy_1_7x7 <- LFCN_1_7x7_LFCN_1_7x7_0_split_1
I0510 15:51:19.508280  8393 net.cpp:434] detection_accuracy_1_7x7 <- label_1_7x7_data_2_split_1
I0510 15:51:19.508291  8393 net.cpp:408] detection_accuracy_1_7x7 -> accuracy_1_7x7
I0510 15:51:19.508301  8393 net.cpp:408] detection_accuracy_1_7x7 -> boxiou_1_7x7
I0510 15:51:19.508368  8393 net.cpp:150] Setting up detection_accuracy_1_7x7
I0510 15:51:19.508378  8393 net.cpp:157] Top shape: 1 1 1 2 (2)
I0510 15:51:19.508381  8393 net.cpp:157] Top shape: 1 1 1 1 (1)
I0510 15:51:19.508385  8393 net.cpp:165] Memory required for data: 2933602600
I0510 15:51:19.508390  8393 layer_factory.hpp:77] Creating layer pool4
I0510 15:51:19.508399  8393 net.cpp:100] Creating Layer pool4
I0510 15:51:19.508405  8393 net.cpp:434] pool4 <- conv4_3_relu4_3_0_split_1
I0510 15:51:19.508415  8393 net.cpp:408] pool4 -> pool4
I0510 15:51:19.508471  8393 net.cpp:150] Setting up pool4
I0510 15:51:19.508479  8393 net.cpp:157] Top shape: 2 512 48 48 (2359296)
I0510 15:51:19.508484  8393 net.cpp:165] Memory required for data: 2943039784
I0510 15:51:19.508488  8393 layer_factory.hpp:77] Creating layer conv5_1
I0510 15:51:19.508502  8393 net.cpp:100] Creating Layer conv5_1
I0510 15:51:19.508509  8393 net.cpp:434] conv5_1 <- pool4
I0510 15:51:19.508517  8393 net.cpp:408] conv5_1 -> conv5_1
I0510 15:51:19.515713  8393 net.cpp:150] Setting up conv5_1
I0510 15:51:19.515738  8393 net.cpp:157] Top shape: 2 512 48 48 (2359296)
I0510 15:51:19.515741  8393 net.cpp:165] Memory required for data: 2952476968
I0510 15:51:19.515753  8393 layer_factory.hpp:77] Creating layer relu5_1
I0510 15:51:19.515767  8393 net.cpp:100] Creating Layer relu5_1
I0510 15:51:19.515774  8393 net.cpp:434] relu5_1 <- conv5_1
I0510 15:51:19.515784  8393 net.cpp:395] relu5_1 -> conv5_1 (in-place)
I0510 15:51:19.515961  8393 net.cpp:150] Setting up relu5_1
I0510 15:51:19.515972  8393 net.cpp:157] Top shape: 2 512 48 48 (2359296)
I0510 15:51:19.515978  8393 net.cpp:165] Memory required for data: 2961914152
I0510 15:51:19.515985  8393 layer_factory.hpp:77] Creating layer conv5_2
I0510 15:51:19.515995  8393 net.cpp:100] Creating Layer conv5_2
I0510 15:51:19.516000  8393 net.cpp:434] conv5_2 <- conv5_1
I0510 15:51:19.516007  8393 net.cpp:408] conv5_2 -> conv5_2
I0510 15:51:19.522210  8393 net.cpp:150] Setting up conv5_2
I0510 15:51:19.522249  8393 net.cpp:157] Top shape: 2 512 48 48 (2359296)
I0510 15:51:19.522255  8393 net.cpp:165] Memory required for data: 2971351336
I0510 15:51:19.522266  8393 layer_factory.hpp:77] Creating layer relu5_2
I0510 15:51:19.522281  8393 net.cpp:100] Creating Layer relu5_2
I0510 15:51:19.522290  8393 net.cpp:434] relu5_2 <- conv5_2
I0510 15:51:19.522300  8393 net.cpp:395] relu5_2 -> conv5_2 (in-place)
I0510 15:51:19.522480  8393 net.cpp:150] Setting up relu5_2
I0510 15:51:19.522490  8393 net.cpp:157] Top shape: 2 512 48 48 (2359296)
I0510 15:51:19.522495  8393 net.cpp:165] Memory required for data: 2980788520
I0510 15:51:19.522500  8393 layer_factory.hpp:77] Creating layer conv5_3
I0510 15:51:19.522511  8393 net.cpp:100] Creating Layer conv5_3
I0510 15:51:19.522518  8393 net.cpp:434] conv5_3 <- conv5_2
I0510 15:51:19.522526  8393 net.cpp:408] conv5_3 -> conv5_3
I0510 15:51:19.528995  8393 net.cpp:150] Setting up conv5_3
I0510 15:51:19.529026  8393 net.cpp:157] Top shape: 2 512 48 48 (2359296)
I0510 15:51:19.529031  8393 net.cpp:165] Memory required for data: 2990225704
I0510 15:51:19.529042  8393 layer_factory.hpp:77] Creating layer relu5_3
I0510 15:51:19.529057  8393 net.cpp:100] Creating Layer relu5_3
I0510 15:51:19.529067  8393 net.cpp:434] relu5_3 <- conv5_3
I0510 15:51:19.529075  8393 net.cpp:395] relu5_3 -> conv5_3 (in-place)
I0510 15:51:19.529253  8393 net.cpp:150] Setting up relu5_3
I0510 15:51:19.529263  8393 net.cpp:157] Top shape: 2 512 48 48 (2359296)
I0510 15:51:19.529268  8393 net.cpp:165] Memory required for data: 2999662888
I0510 15:51:19.529273  8393 layer_factory.hpp:77] Creating layer conv5_3_relu5_3_0_split
I0510 15:51:19.529283  8393 net.cpp:100] Creating Layer conv5_3_relu5_3_0_split
I0510 15:51:19.529289  8393 net.cpp:434] conv5_3_relu5_3_0_split <- conv5_3
I0510 15:51:19.529296  8393 net.cpp:408] conv5_3_relu5_3_0_split -> conv5_3_relu5_3_0_split_0
I0510 15:51:19.529306  8393 net.cpp:408] conv5_3_relu5_3_0_split -> conv5_3_relu5_3_0_split_1
I0510 15:51:19.529317  8393 net.cpp:408] conv5_3_relu5_3_0_split -> conv5_3_relu5_3_0_split_2
I0510 15:51:19.529377  8393 net.cpp:150] Setting up conv5_3_relu5_3_0_split
I0510 15:51:19.529386  8393 net.cpp:157] Top shape: 2 512 48 48 (2359296)
I0510 15:51:19.529392  8393 net.cpp:157] Top shape: 2 512 48 48 (2359296)
I0510 15:51:19.529398  8393 net.cpp:157] Top shape: 2 512 48 48 (2359296)
I0510 15:51:19.529402  8393 net.cpp:165] Memory required for data: 3027974440
I0510 15:51:19.529407  8393 layer_factory.hpp:77] Creating layer LFCN_2_5x5
I0510 15:51:19.529420  8393 net.cpp:100] Creating Layer LFCN_2_5x5
I0510 15:51:19.529428  8393 net.cpp:434] LFCN_2_5x5 <- conv5_3_relu5_3_0_split_0
I0510 15:51:19.529438  8393 net.cpp:408] LFCN_2_5x5 -> LFCN_2_5x5
I0510 15:51:19.533834  8393 net.cpp:150] Setting up LFCN_2_5x5
I0510 15:51:19.533869  8393 net.cpp:157] Top shape: 2 9 48 48 (41472)
I0510 15:51:19.533875  8393 net.cpp:165] Memory required for data: 3028140328
I0510 15:51:19.533908  8393 layer_factory.hpp:77] Creating layer LFCN_2_5x5_LFCN_2_5x5_0_split
I0510 15:51:19.533926  8393 net.cpp:100] Creating Layer LFCN_2_5x5_LFCN_2_5x5_0_split
I0510 15:51:19.533937  8393 net.cpp:434] LFCN_2_5x5_LFCN_2_5x5_0_split <- LFCN_2_5x5
I0510 15:51:19.533949  8393 net.cpp:408] LFCN_2_5x5_LFCN_2_5x5_0_split -> LFCN_2_5x5_LFCN_2_5x5_0_split_0
I0510 15:51:19.533977  8393 net.cpp:408] LFCN_2_5x5_LFCN_2_5x5_0_split -> LFCN_2_5x5_LFCN_2_5x5_0_split_1
I0510 15:51:19.534029  8393 net.cpp:150] Setting up LFCN_2_5x5_LFCN_2_5x5_0_split
I0510 15:51:19.534037  8393 net.cpp:157] Top shape: 2 9 48 48 (41472)
I0510 15:51:19.534044  8393 net.cpp:157] Top shape: 2 9 48 48 (41472)
I0510 15:51:19.534047  8393 net.cpp:165] Memory required for data: 3028472104
I0510 15:51:19.534052  8393 layer_factory.hpp:77] Creating layer detection_loss_2_5x5
I0510 15:51:19.534067  8393 net.cpp:100] Creating Layer detection_loss_2_5x5
I0510 15:51:19.534075  8393 net.cpp:434] detection_loss_2_5x5 <- LFCN_2_5x5_LFCN_2_5x5_0_split_0
I0510 15:51:19.534081  8393 net.cpp:434] detection_loss_2_5x5 <- label_2_5x5_data_3_split_0
I0510 15:51:19.534088  8393 net.cpp:408] detection_loss_2_5x5 -> loss_2_5x5
I0510 15:51:19.534102  8393 layer_factory.hpp:77] Creating layer detection_loss_2_5x5
I0510 15:51:19.534485  8393 net.cpp:150] Setting up detection_loss_2_5x5
I0510 15:51:19.534497  8393 net.cpp:157] Top shape: 1 1 1 2 (2)
I0510 15:51:19.534502  8393 net.cpp:160]     with loss weight 1
I0510 15:51:19.534525  8393 net.cpp:165] Memory required for data: 3028472112
I0510 15:51:19.534530  8393 layer_factory.hpp:77] Creating layer detection_accuracy_2_5x5
I0510 15:51:19.534540  8393 net.cpp:100] Creating Layer detection_accuracy_2_5x5
I0510 15:51:19.534548  8393 net.cpp:434] detection_accuracy_2_5x5 <- LFCN_2_5x5_LFCN_2_5x5_0_split_1
I0510 15:51:19.534554  8393 net.cpp:434] detection_accuracy_2_5x5 <- label_2_5x5_data_3_split_1
I0510 15:51:19.534564  8393 net.cpp:408] detection_accuracy_2_5x5 -> accuracy_2_5x5
I0510 15:51:19.534574  8393 net.cpp:408] detection_accuracy_2_5x5 -> boxiou_2_5x5
I0510 15:51:19.534631  8393 net.cpp:150] Setting up detection_accuracy_2_5x5
I0510 15:51:19.534639  8393 net.cpp:157] Top shape: 1 1 1 2 (2)
I0510 15:51:19.534646  8393 net.cpp:157] Top shape: 1 1 1 1 (1)
I0510 15:51:19.534651  8393 net.cpp:165] Memory required for data: 3028472124
I0510 15:51:19.534656  8393 layer_factory.hpp:77] Creating layer LFCN_2_7x7
I0510 15:51:19.534672  8393 net.cpp:100] Creating Layer LFCN_2_7x7
I0510 15:51:19.534680  8393 net.cpp:434] LFCN_2_7x7 <- conv5_3_relu5_3_0_split_1
I0510 15:51:19.534689  8393 net.cpp:408] LFCN_2_7x7 -> LFCN_2_7x7
I0510 15:51:19.549583  8393 net.cpp:150] Setting up LFCN_2_7x7
I0510 15:51:19.549643  8393 net.cpp:157] Top shape: 2 9 48 48 (41472)
I0510 15:51:19.549649  8393 net.cpp:165] Memory required for data: 3028638012
I0510 15:51:19.549669  8393 layer_factory.hpp:77] Creating layer LFCN_2_7x7_LFCN_2_7x7_0_split
I0510 15:51:19.549690  8393 net.cpp:100] Creating Layer LFCN_2_7x7_LFCN_2_7x7_0_split
I0510 15:51:19.549701  8393 net.cpp:434] LFCN_2_7x7_LFCN_2_7x7_0_split <- LFCN_2_7x7
I0510 15:51:19.549723  8393 net.cpp:408] LFCN_2_7x7_LFCN_2_7x7_0_split -> LFCN_2_7x7_LFCN_2_7x7_0_split_0
I0510 15:51:19.549741  8393 net.cpp:408] LFCN_2_7x7_LFCN_2_7x7_0_split -> LFCN_2_7x7_LFCN_2_7x7_0_split_1
I0510 15:51:19.549805  8393 net.cpp:150] Setting up LFCN_2_7x7_LFCN_2_7x7_0_split
I0510 15:51:19.549816  8393 net.cpp:157] Top shape: 2 9 48 48 (41472)
I0510 15:51:19.549823  8393 net.cpp:157] Top shape: 2 9 48 48 (41472)
I0510 15:51:19.549829  8393 net.cpp:165] Memory required for data: 3028969788
I0510 15:51:19.549835  8393 layer_factory.hpp:77] Creating layer detection_loss_2_7x7
I0510 15:51:19.549851  8393 net.cpp:100] Creating Layer detection_loss_2_7x7
I0510 15:51:19.549859  8393 net.cpp:434] detection_loss_2_7x7 <- LFCN_2_7x7_LFCN_2_7x7_0_split_0
I0510 15:51:19.549868  8393 net.cpp:434] detection_loss_2_7x7 <- label_2_7x7_data_4_split_0
I0510 15:51:19.549882  8393 net.cpp:408] detection_loss_2_7x7 -> loss_2_7x7
I0510 15:51:19.549901  8393 layer_factory.hpp:77] Creating layer detection_loss_2_7x7
I0510 15:51:19.550626  8393 net.cpp:150] Setting up detection_loss_2_7x7
I0510 15:51:19.550637  8393 net.cpp:157] Top shape: 1 1 1 2 (2)
I0510 15:51:19.550642  8393 net.cpp:160]     with loss weight 1
I0510 15:51:19.550659  8393 net.cpp:165] Memory required for data: 3028969796
I0510 15:51:19.550665  8393 layer_factory.hpp:77] Creating layer detection_accuracy_2_7x7
I0510 15:51:19.550678  8393 net.cpp:100] Creating Layer detection_accuracy_2_7x7
I0510 15:51:19.550684  8393 net.cpp:434] detection_accuracy_2_7x7 <- LFCN_2_7x7_LFCN_2_7x7_0_split_1
I0510 15:51:19.550691  8393 net.cpp:434] detection_accuracy_2_7x7 <- label_2_7x7_data_4_split_1
I0510 15:51:19.550698  8393 net.cpp:408] detection_accuracy_2_7x7 -> accuracy_2_7x7
I0510 15:51:19.550709  8393 net.cpp:408] detection_accuracy_2_7x7 -> boxiou_2_7x7
I0510 15:51:19.550762  8393 net.cpp:150] Setting up detection_accuracy_2_7x7
I0510 15:51:19.550771  8393 net.cpp:157] Top shape: 1 1 1 2 (2)
I0510 15:51:19.550777  8393 net.cpp:157] Top shape: 1 1 1 1 (1)
I0510 15:51:19.550781  8393 net.cpp:165] Memory required for data: 3028969808
I0510 15:51:19.550786  8393 layer_factory.hpp:77] Creating layer pool5
I0510 15:51:19.550794  8393 net.cpp:100] Creating Layer pool5
I0510 15:51:19.550829  8393 net.cpp:434] pool5 <- conv5_3_relu5_3_0_split_2
I0510 15:51:19.550842  8393 net.cpp:408] pool5 -> pool5
I0510 15:51:19.550899  8393 net.cpp:150] Setting up pool5
I0510 15:51:19.550909  8393 net.cpp:157] Top shape: 2 512 24 24 (589824)
I0510 15:51:19.550914  8393 net.cpp:165] Memory required for data: 3031329104
I0510 15:51:19.550917  8393 layer_factory.hpp:77] Creating layer conv6_1
I0510 15:51:19.550932  8393 net.cpp:100] Creating Layer conv6_1
I0510 15:51:19.550940  8393 net.cpp:434] conv6_1 <- pool5
I0510 15:51:19.550951  8393 net.cpp:408] conv6_1 -> conv6_1
I0510 15:51:19.618144  8393 net.cpp:150] Setting up conv6_1
I0510 15:51:19.618171  8393 net.cpp:157] Top shape: 2 512 24 24 (589824)
I0510 15:51:19.618176  8393 net.cpp:165] Memory required for data: 3033688400
I0510 15:51:19.618187  8393 layer_factory.hpp:77] Creating layer relu6_1
I0510 15:51:19.618213  8393 net.cpp:100] Creating Layer relu6_1
I0510 15:51:19.618222  8393 net.cpp:434] relu6_1 <- conv6_1
I0510 15:51:19.618232  8393 net.cpp:395] relu6_1 -> conv6_1 (in-place)
I0510 15:51:19.619149  8393 net.cpp:150] Setting up relu6_1
I0510 15:51:19.619179  8393 net.cpp:157] Top shape: 2 512 24 24 (589824)
I0510 15:51:19.619187  8393 net.cpp:165] Memory required for data: 3036047696
I0510 15:51:19.619199  8393 layer_factory.hpp:77] Creating layer conv6_1_relu6_1_0_split
I0510 15:51:19.619215  8393 net.cpp:100] Creating Layer conv6_1_relu6_1_0_split
I0510 15:51:19.619225  8393 net.cpp:434] conv6_1_relu6_1_0_split <- conv6_1
I0510 15:51:19.619235  8393 net.cpp:408] conv6_1_relu6_1_0_split -> conv6_1_relu6_1_0_split_0
I0510 15:51:19.619251  8393 net.cpp:408] conv6_1_relu6_1_0_split -> conv6_1_relu6_1_0_split_1
I0510 15:51:19.619262  8393 net.cpp:408] conv6_1_relu6_1_0_split -> conv6_1_relu6_1_0_split_2
I0510 15:51:19.619374  8393 net.cpp:150] Setting up conv6_1_relu6_1_0_split
I0510 15:51:19.619382  8393 net.cpp:157] Top shape: 2 512 24 24 (589824)
I0510 15:51:19.619390  8393 net.cpp:157] Top shape: 2 512 24 24 (589824)
I0510 15:51:19.619396  8393 net.cpp:157] Top shape: 2 512 24 24 (589824)
I0510 15:51:19.619400  8393 net.cpp:165] Memory required for data: 3043125584
I0510 15:51:19.619405  8393 layer_factory.hpp:77] Creating layer LFCN_3_5x5
I0510 15:51:19.619421  8393 net.cpp:100] Creating Layer LFCN_3_5x5
I0510 15:51:19.619427  8393 net.cpp:434] LFCN_3_5x5 <- conv6_1_relu6_1_0_split_0
I0510 15:51:19.619438  8393 net.cpp:408] LFCN_3_5x5 -> LFCN_3_5x5
I0510 15:51:19.626047  8393 net.cpp:150] Setting up LFCN_3_5x5
I0510 15:51:19.626082  8393 net.cpp:157] Top shape: 2 9 24 24 (10368)
I0510 15:51:19.626091  8393 net.cpp:165] Memory required for data: 3043167056
I0510 15:51:19.626108  8393 layer_factory.hpp:77] Creating layer LFCN_3_5x5_LFCN_3_5x5_0_split
I0510 15:51:19.626124  8393 net.cpp:100] Creating Layer LFCN_3_5x5_LFCN_3_5x5_0_split
I0510 15:51:19.626137  8393 net.cpp:434] LFCN_3_5x5_LFCN_3_5x5_0_split <- LFCN_3_5x5
I0510 15:51:19.626153  8393 net.cpp:408] LFCN_3_5x5_LFCN_3_5x5_0_split -> LFCN_3_5x5_LFCN_3_5x5_0_split_0
I0510 15:51:19.626171  8393 net.cpp:408] LFCN_3_5x5_LFCN_3_5x5_0_split -> LFCN_3_5x5_LFCN_3_5x5_0_split_1
I0510 15:51:19.626294  8393 net.cpp:150] Setting up LFCN_3_5x5_LFCN_3_5x5_0_split
I0510 15:51:19.626317  8393 net.cpp:157] Top shape: 2 9 24 24 (10368)
I0510 15:51:19.626333  8393 net.cpp:157] Top shape: 2 9 24 24 (10368)
I0510 15:51:19.626345  8393 net.cpp:165] Memory required for data: 3043250000
I0510 15:51:19.626358  8393 layer_factory.hpp:77] Creating layer detection_loss_3_5x5
I0510 15:51:19.626374  8393 net.cpp:100] Creating Layer detection_loss_3_5x5
I0510 15:51:19.626384  8393 net.cpp:434] detection_loss_3_5x5 <- LFCN_3_5x5_LFCN_3_5x5_0_split_0
I0510 15:51:19.626397  8393 net.cpp:434] detection_loss_3_5x5 <- label_3_5x5_data_5_split_0
I0510 15:51:19.626411  8393 net.cpp:408] detection_loss_3_5x5 -> loss_3_5x5
I0510 15:51:19.626432  8393 layer_factory.hpp:77] Creating layer detection_loss_3_5x5
I0510 15:51:19.627279  8393 net.cpp:150] Setting up detection_loss_3_5x5
I0510 15:51:19.627303  8393 net.cpp:157] Top shape: 1 1 1 2 (2)
I0510 15:51:19.627312  8393 net.cpp:160]     with loss weight 1
I0510 15:51:19.627331  8393 net.cpp:165] Memory required for data: 3043250008
I0510 15:51:19.627341  8393 layer_factory.hpp:77] Creating layer detection_accuracy_3_5x5
I0510 15:51:19.627355  8393 net.cpp:100] Creating Layer detection_accuracy_3_5x5
I0510 15:51:19.627365  8393 net.cpp:434] detection_accuracy_3_5x5 <- LFCN_3_5x5_LFCN_3_5x5_0_split_1
I0510 15:51:19.627377  8393 net.cpp:434] detection_accuracy_3_5x5 <- label_3_5x5_data_5_split_1
I0510 15:51:19.627390  8393 net.cpp:408] detection_accuracy_3_5x5 -> accuracy_3_5x5
I0510 15:51:19.627406  8393 net.cpp:408] detection_accuracy_3_5x5 -> boxiou_3_5x5
I0510 15:51:19.627502  8393 net.cpp:150] Setting up detection_accuracy_3_5x5
I0510 15:51:19.627521  8393 net.cpp:157] Top shape: 1 1 1 2 (2)
I0510 15:51:19.627532  8393 net.cpp:157] Top shape: 1 1 1 1 (1)
I0510 15:51:19.627539  8393 net.cpp:165] Memory required for data: 3043250020
I0510 15:51:19.627548  8393 layer_factory.hpp:77] Creating layer LFCN_3_7x7
I0510 15:51:19.627569  8393 net.cpp:100] Creating Layer LFCN_3_7x7
I0510 15:51:19.627580  8393 net.cpp:434] LFCN_3_7x7 <- conv6_1_relu6_1_0_split_1
I0510 15:51:19.627598  8393 net.cpp:408] LFCN_3_7x7 -> LFCN_3_7x7
I0510 15:51:19.636900  8393 net.cpp:150] Setting up LFCN_3_7x7
I0510 15:51:19.636919  8393 net.cpp:157] Top shape: 2 9 24 24 (10368)
I0510 15:51:19.636924  8393 net.cpp:165] Memory required for data: 3043291492
I0510 15:51:19.636931  8393 layer_factory.hpp:77] Creating layer LFCN_3_7x7_LFCN_3_7x7_0_split
I0510 15:51:19.636940  8393 net.cpp:100] Creating Layer LFCN_3_7x7_LFCN_3_7x7_0_split
I0510 15:51:19.636945  8393 net.cpp:434] LFCN_3_7x7_LFCN_3_7x7_0_split <- LFCN_3_7x7
I0510 15:51:19.636953  8393 net.cpp:408] LFCN_3_7x7_LFCN_3_7x7_0_split -> LFCN_3_7x7_LFCN_3_7x7_0_split_0
I0510 15:51:19.636962  8393 net.cpp:408] LFCN_3_7x7_LFCN_3_7x7_0_split -> LFCN_3_7x7_LFCN_3_7x7_0_split_1
I0510 15:51:19.637008  8393 net.cpp:150] Setting up LFCN_3_7x7_LFCN_3_7x7_0_split
I0510 15:51:19.637017  8393 net.cpp:157] Top shape: 2 9 24 24 (10368)
I0510 15:51:19.637022  8393 net.cpp:157] Top shape: 2 9 24 24 (10368)
I0510 15:51:19.637025  8393 net.cpp:165] Memory required for data: 3043374436
I0510 15:51:19.637029  8393 layer_factory.hpp:77] Creating layer detection_loss_3_7x7
I0510 15:51:19.637037  8393 net.cpp:100] Creating Layer detection_loss_3_7x7
I0510 15:51:19.637042  8393 net.cpp:434] detection_loss_3_7x7 <- LFCN_3_7x7_LFCN_3_7x7_0_split_0
I0510 15:51:19.637046  8393 net.cpp:434] detection_loss_3_7x7 <- label_3_7x7_data_6_split_0
I0510 15:51:19.637053  8393 net.cpp:408] detection_loss_3_7x7 -> loss_3_7x7
I0510 15:51:19.637063  8393 layer_factory.hpp:77] Creating layer detection_loss_3_7x7
I0510 15:51:19.637447  8393 net.cpp:150] Setting up detection_loss_3_7x7
I0510 15:51:19.637459  8393 net.cpp:157] Top shape: 1 1 1 2 (2)
I0510 15:51:19.637462  8393 net.cpp:160]     with loss weight 1
I0510 15:51:19.637471  8393 net.cpp:165] Memory required for data: 3043374444
I0510 15:51:19.637476  8393 layer_factory.hpp:77] Creating layer detection_accuracy_3_7x7
I0510 15:51:19.637483  8393 net.cpp:100] Creating Layer detection_accuracy_3_7x7
I0510 15:51:19.637488  8393 net.cpp:434] detection_accuracy_3_7x7 <- LFCN_3_7x7_LFCN_3_7x7_0_split_1
I0510 15:51:19.637493  8393 net.cpp:434] detection_accuracy_3_7x7 <- label_3_7x7_data_6_split_1
I0510 15:51:19.637503  8393 net.cpp:408] detection_accuracy_3_7x7 -> accuracy_3_7x7
I0510 15:51:19.637511  8393 net.cpp:408] detection_accuracy_3_7x7 -> boxiou_3_7x7
I0510 15:51:19.637555  8393 net.cpp:150] Setting up detection_accuracy_3_7x7
I0510 15:51:19.637563  8393 net.cpp:157] Top shape: 1 1 1 2 (2)
I0510 15:51:19.637568  8393 net.cpp:157] Top shape: 1 1 1 1 (1)
I0510 15:51:19.637572  8393 net.cpp:165] Memory required for data: 3043374456
I0510 15:51:19.637575  8393 layer_factory.hpp:77] Creating layer pool6
I0510 15:51:19.637584  8393 net.cpp:100] Creating Layer pool6
I0510 15:51:19.637589  8393 net.cpp:434] pool6 <- conv6_1_relu6_1_0_split_2
I0510 15:51:19.637596  8393 net.cpp:408] pool6 -> pool6
I0510 15:51:19.637639  8393 net.cpp:150] Setting up pool6
I0510 15:51:19.637646  8393 net.cpp:157] Top shape: 2 512 12 12 (147456)
I0510 15:51:19.637650  8393 net.cpp:165] Memory required for data: 3043964280
I0510 15:51:19.637655  8393 layer_factory.hpp:77] Creating layer LFCN_4_5x5
I0510 15:51:19.637665  8393 net.cpp:100] Creating Layer LFCN_4_5x5
I0510 15:51:19.637670  8393 net.cpp:434] LFCN_4_5x5 <- pool6
I0510 15:51:19.637679  8393 net.cpp:408] LFCN_4_5x5 -> LFCN_4_5x5
I0510 15:51:19.642400  8393 net.cpp:150] Setting up LFCN_4_5x5
I0510 15:51:19.642415  8393 net.cpp:157] Top shape: 2 9 12 12 (2592)
I0510 15:51:19.642418  8393 net.cpp:165] Memory required for data: 3043974648
I0510 15:51:19.642426  8393 layer_factory.hpp:77] Creating layer LFCN_4_5x5_LFCN_4_5x5_0_split
I0510 15:51:19.642432  8393 net.cpp:100] Creating Layer LFCN_4_5x5_LFCN_4_5x5_0_split
I0510 15:51:19.642437  8393 net.cpp:434] LFCN_4_5x5_LFCN_4_5x5_0_split <- LFCN_4_5x5
I0510 15:51:19.642444  8393 net.cpp:408] LFCN_4_5x5_LFCN_4_5x5_0_split -> LFCN_4_5x5_LFCN_4_5x5_0_split_0
I0510 15:51:19.642452  8393 net.cpp:408] LFCN_4_5x5_LFCN_4_5x5_0_split -> LFCN_4_5x5_LFCN_4_5x5_0_split_1
I0510 15:51:19.642499  8393 net.cpp:150] Setting up LFCN_4_5x5_LFCN_4_5x5_0_split
I0510 15:51:19.642506  8393 net.cpp:157] Top shape: 2 9 12 12 (2592)
I0510 15:51:19.642511  8393 net.cpp:157] Top shape: 2 9 12 12 (2592)
I0510 15:51:19.642515  8393 net.cpp:165] Memory required for data: 3043995384
I0510 15:51:19.642520  8393 layer_factory.hpp:77] Creating layer detection_loss_4_5x5
I0510 15:51:19.642527  8393 net.cpp:100] Creating Layer detection_loss_4_5x5
I0510 15:51:19.642532  8393 net.cpp:434] detection_loss_4_5x5 <- LFCN_4_5x5_LFCN_4_5x5_0_split_0
I0510 15:51:19.642539  8393 net.cpp:434] detection_loss_4_5x5 <- label_4_5x5_data_7_split_0
I0510 15:51:19.642544  8393 net.cpp:408] detection_loss_4_5x5 -> loss_4_5x5
I0510 15:51:19.642552  8393 layer_factory.hpp:77] Creating layer detection_loss_4_5x5
I0510 15:51:19.642974  8393 net.cpp:150] Setting up detection_loss_4_5x5
I0510 15:51:19.642987  8393 net.cpp:157] Top shape: 1 1 1 2 (2)
I0510 15:51:19.642992  8393 net.cpp:160]     with loss weight 1
I0510 15:51:19.642998  8393 net.cpp:165] Memory required for data: 3043995392
I0510 15:51:19.643003  8393 layer_factory.hpp:77] Creating layer detection_accuracy_4_5x5
I0510 15:51:19.643010  8393 net.cpp:100] Creating Layer detection_accuracy_4_5x5
I0510 15:51:19.643015  8393 net.cpp:434] detection_accuracy_4_5x5 <- LFCN_4_5x5_LFCN_4_5x5_0_split_1
I0510 15:51:19.643021  8393 net.cpp:434] detection_accuracy_4_5x5 <- label_4_5x5_data_7_split_1
I0510 15:51:19.643026  8393 net.cpp:408] detection_accuracy_4_5x5 -> accuracy_4_5x5
I0510 15:51:19.643035  8393 net.cpp:408] detection_accuracy_4_5x5 -> boxiou_4_5x5
I0510 15:51:19.643079  8393 net.cpp:150] Setting up detection_accuracy_4_5x5
I0510 15:51:19.643087  8393 net.cpp:157] Top shape: 1 1 1 2 (2)
I0510 15:51:19.643092  8393 net.cpp:157] Top shape: 1 1 1 1 (1)
I0510 15:51:19.643095  8393 net.cpp:165] Memory required for data: 3043995404
I0510 15:51:19.643100  8393 net.cpp:228] detection_accuracy_4_5x5 does not need backward computation.
I0510 15:51:19.643105  8393 net.cpp:226] detection_loss_4_5x5 needs backward computation.
I0510 15:51:19.643110  8393 net.cpp:226] LFCN_4_5x5_LFCN_4_5x5_0_split needs backward computation.
I0510 15:51:19.643113  8393 net.cpp:226] LFCN_4_5x5 needs backward computation.
…
