…
    downsample_rate: 16
    downsample_rate: 32
    downsample_rate: 32
    downsample_rate: 64
    coord_num: 4
    field_h: 60
    field_h: 84
    field_h: 120
    field_h: 168
    field_h: 240
    field_h: 336
    field_h: 480
    field_w: 60
    field_w: 84
    field_w: 120
    field_w: 168
    field_w: 240
    field_w: 336
    field_w: 480
    fg_threshold: 0.5
    resize_width: 1344
    resize_height: 768
    crop_width: 768
    crop_height: 768
    do_multiple_scale: true
    min_scale: 60
    max_scale: 480
    min_gt_height: 25
    shuffle: true
  }
}
layer {
  name: "slice"
  type: "Slice"
  bottom: "data"
  top: "data123"
  top: "ch4"
  slice_param {
    slice_point: 3
    axis: 1
  }
}
layer {
  name: "conv1_1"
  type: "Convolution"
  bottom: "data123"
  top: "conv1_1"
  convolution_param {
    num_output: 64
    pad: 1
    kernel_size: 3
  }
}
layer {
  name: "relu1_1"
  type: "ReLU"
  bottom: "conv1_1"
  top: "conv1_1"
}
layer {
  name: "conv1_2"
  type: "Convolution"
  bottom: "conv1_1"
  top: "conv1_2"
  convolution_param {
    num_output: 64
    pad: 1
    kernel_size: 3
  }
}
layer {
  name: "relu1_2"
  type: "ReLU"
  bottom: "conv1_2"
  top: "conv1_2"
}
layer {
  name: "pool1"
  type: "Pooling"
  bottom: "conv1_2"
  top: "pool1"
  pooling_param {
    pool: MAX
    kernel_size: 2
    stride: 2
  }
}
layer {
  name: "conv2_1"
  type: "Convolution"
  bottom: "pool1"
  top: "conv2_1"
  convolution_param {
    num_output: 128
    pad: 1
    kernel_size: 3
  }
}
layer {
  name: "relu2_1"
  type: "ReLU"
  bottom: "conv2_1"
  top: "conv2_1"
}
layer {
  name: "conv2_2"
  type: "Convolution"
  bottom: "conv2_1"
  top: "conv2_2"
  convolution_param {
    num_output: 128
    pad: 1
    kernel_size: 3
  }
}
layer {
  name: "relu2_2"
  type: "ReLU"
  bottom: "conv2_2"
  top: "conv2_2"
}
layer {
  name: "pool2"
  type: "Pooling"
  bottom: "conv2_2"
  top: "pool2"
  pooling_param {
    pool: MAX
    kernel_size: 2
    stride: 2
  }
}
layer {
  name: "conv3_1"
  type: "Convolution"
  bottom: "pool2"
  top: "conv3_1"
  convolution_param {
    num_output: 256
    pad: 1
    kernel_size: 3
  }
}
layer {
  name: "relu3_1"
  type: "ReLU"
  bottom: "conv3_1"
  top: "conv3_1"
}
layer {
  name: "conv3_2"
  type: "Convolution"
  bottom: "conv3_1"
  top: "conv3_2"
  convolution_param {
    num_output: 256
    pad: 1
    kernel_size: 3
  }
}
layer {
  name: "relu3_2"
  type: "ReLU"
  bottom: "conv3_2"
  top: "conv3_2"
}
layer {
  name: "conv3_3"
  type: "Convolution"
  bottom: "conv3_2"
  top: "conv3_3"
  convolution_param {
    num_output: 256
    pad: 1
    kernel_size: 3
  }
}
layer {
  name: "relu3_3"
  type: "ReLU"
  bottom: "conv3_3"
  top: "conv3_3"
}
layer {
  name: "pool3"
  type: "Pooling"
  bottom: "conv3_3"
  top: "pool3"
  pooling_param {
    pool: MAX
    kernel_size: 2
    stride: 2
  }
}
layer {
  name: "ch4_pool3"
  type: "Pooling"
  bottom: "ch4"
  top: "ch4_pool3"
  pooling_param {
    pool: MAX
    kernel_size: 8
    stride: 8
  }
}
layer {
  name: "pool3_concat"
  type: "Concat"
  bottom: "pool3"
  bottom: "ch4_pool3"
  top: "pool3_new"
}
layer {
  name: "conv4_1_new"
  type: "Convolution"
  bottom: "pool3_new"
  top: "conv4_1"
  convolution_param {
    num_output: 512
    pad: 1
    kernel_size: 3
  }
}
layer {
  name: "relu4_1"
  type: "ReLU"
  bottom: "conv4_1"
  top: "conv4_1"
}
layer {
  name: "conv4_2"
  type: "Convolution"
  bottom: "conv4_1"
  top: "conv4_2"
  convolution_param {
    num_output: 512
    pad: 1
    kernel_size: 3
  }
}
layer {
  name: "relu4_2"
  type: "ReLU"
  bottom: "conv4_2"
  top: "conv4_2"
}
layer {
  name: "conv4_3"
  type: "Convolution"
  bottom: "conv4_2"
  top: "conv4_3"
  convolution_param {
    num_output: 512
    pad: 1
    kernel_size: 3
  }
}
layer {
  name: "relu4_3"
  type: "ReLU"
  bottom: "conv4_3"
  top: "conv4_3"
}
layer {
  name: "loss1_conv1"
  type: "Convolution"
  bottom: "conv4_3"
  top: "loss1_conv1"
  param {
    lr_mult: 1
    decay_mult: 1
  }
  param {
    lr_mult: 2
    decay_mult: 0
  }
  convolution_param {
    num_output: 512
    pad: 1
    kernel_size: 3
    weight_filler {
      type: "gaussian"
      std: 0.01
    }
    bias_filler {
      type: "constant"
    }
  }
}
layer {
  name: "loss_relu1"
  type: "ReLU"
  bottom: "loss1_conv1"
  top: "loss1_conv1"
}
layer {
  name: "LFCN_1_5x5"
  type: "Convolution"
  bottom: "loss1_conv1"
  top: "LFCN_1_5x5"
  param {
    lr_mult: 1
    decay_mult: 1
  }
  param {
    lr_mult: 2
    decay_mult: 0
  }
  convolution_param {
    num_output: 9
    pad: 2
    kernel_size: 5
    weight_filler {
      type: "gaussian"
      std: 0.001
    }
    bias_filler {
      type: "constant"
    }
  }
}
layer {
  name: "detection_loss_1_5x5"
  type: "DetectionLoss"
  bottom: "LFCN_1_5x5"
  bottom: "label_1_5x5"
  top: "loss_1_5x5"
  loss_weight: 0.9
  detection_loss_param {
    cls_num: 5
    coord_num: 4
    lambda: 0.05
    field_h: 60
    field_w: 60
    downsample_rate: 8
    bb_smooth: true
    field_whr: 2
    field_xyr: 2
    bg_threshold: 0.2
    bg_multiple: 2
    sample_mode: "random"
    pos_neg_weighted: true
  }
}
layer {
  name: "detection_accuracy_1_5x5"
  type: "DetectionAccuracy"
  bottom: "LFCN_1_5x5"
  bottom: "label_1_5x5"
  top: "accuracy_1_5x5"
  top: "boxiou_1_5x5"
  detection_accuracy_param {
    cls_num: 5
    coord_num: 4
    field_h: 60
    field_w: 60
    downsample_rate: 8
    field_whr: 2
    field_xyr: 2
  }
}
layer {
  name: "LFCN_1_7x7"
  type: "Convolution"
  bottom: "loss1_conv1"
  top: "LFCN_1_7x7"
  param {
    lr_mult: 1
    decay_mult: 1
  }
  param {
    lr_mult: 2
    decay_mult: 0
  }
  convolution_param {
    num_output: 9
    pad: 3
    kernel_size: 7
    weight_filler {
      type: "gaussian"
      std: 0.001
    }
    bias_filler {
      type: "constant"
    }
  }
}
layer {
  name: "detection_loss_1_7x7"
  type: "DetectionLoss"
  bottom: "LFCN_1_7x7"
  bottom: "label_1_7x7"
  top: "loss_1_7x7"
  loss_weight: 0.9
  detection_loss_param {
    cls_num: 5
    coord_num: 4
    lambda: 0.05
    field_h: 84
    field_w: 84
    downsample_rate: 8
    bb_smooth: true
    field_whr: 2
    field_xyr: 2
    bg_threshold: 0.2
    bg_multiple: 2
    sample_mode: "random"
    pos_neg_weighted: true
  }
}
layer {
  name: "detection_accuracy_1_7x7"
  type: "DetectionAccuracy"
  bottom: "LFCN_1_7x7"
  bottom: "label_1_7x7"
  top: "accuracy_1_7x7"
  top: "boxiou_1_7x7"
  detection_accuracy_param {
    cls_num: 5
    coord_num: 4
    field_h: 84
    field_w: 84
    downsample_rate: 8
    field_whr: 2
    field_xyr: 2
  }
}
layer {
  name: "pool4"
  type: "Pooling"
  bottom: "conv4_3"
  top: "pool4"
  pooling_param {
    pool: MAX
    kernel_size: 2
    stride: 2
  }
}
layer {
  name: "conv5_1"
  type: "Convolution"
  bottom: "pool4"
  top: "conv5_1"
  convolution_param {
    num_output: 512
    pad: 1
    kernel_size: 3
  }
}
layer {
  name: "relu5_1"
  type: "ReLU"
  bottom: "conv5_1"
  top: "conv5_1"
}
layer {
  name: "conv5_2"
  type: "Convolution"
  bottom: "conv5_1"
  top: "conv5_2"
  convolution_param {
    num_output: 512
    pad: 1
    kernel_size: 3
  }
}
layer {
  name: "relu5_2"
  type: "ReLU"
  bottom: "conv5_2"
  top: "conv5_2"
}
layer {
  name: "conv5_3"
  type: "Convolution"
  bottom: "conv5_2"
  top: "conv5_3"
  convolution_param {
    num_output: 512
    pad: 1
    kernel_size: 3
  }
}
layer {
  name: "relu5_3"
  type: "ReLU"
  bottom: "conv5_3"
  top: "conv5_3"
}
layer {
  name: "LFCN_2_5x5"
  type: "Convolution"
  bottom: "conv5_3"
  top: "LFCN_2_5x5"
  param {
    lr_mult: 1
    decay_mult: 1
  }
  param {
    lr_mult: 2
    decay_mult: 0
  }
  convolution_param {
    num_output: 9
    pad: 2
    kernel_size: 5
    weight_filler {
      type: "gaussian"
      std: 0.001
    }
    bias_filler {
      type: "constant"
    }
  }
}
layer {
  name: "detection_loss_2_5x5"
  type: "DetectionLoss"
  bottom: "LFCN_2_5x5"
  bottom: "label_2_5x5"
  top: "loss_2_5x5"
  detection_loss_param {
    cls_num: 5
    coord_num: 4
    lambda: 0.05
    field_h: 120
    field_w: 120
    downsample_rate: 16
    bb_smooth: true
    field_whr: 2
    field_xyr: 2
    bg_threshold: 0.2
    bg_multiple: 2
    sample_mode: "random"
    pos_neg_weighted: true
  }
}
layer {
  name: "detection_accuracy_2_5x5"
  type: "DetectionAccuracy"
  bottom: "LFCN_2_5x5"
  bottom: "label_2_5x5"
  top: "accuracy_2_5x5"
  top: "boxiou_2_5x5"
  detection_accuracy_param {
    cls_num: 5
    coord_num: 4
    field_h: 120
    field_w: 120
    downsample_rate: 16
    field_whr: 2
    field_xyr: 2
  }
}
layer {
  name: "LFCN_2_7x7"
  type: "Convolution"
  bottom: "conv5_3"
  top: "LFCN_2_7x7"
  param {
    lr_mult: 1
    decay_mult: 1
  }
  param {
    lr_mult: 2
    decay_mult: 0
  }
  convolution_param {
    num_output: 9
    pad: 3
    kernel_size: 7
    weight_filler {
      type: "gaussian"
      std: 0.001
    }
    bias_filler {
      type: "constant"
    }
  }
}
layer {
  name: "detection_loss_2_7x7"
  type: "DetectionLoss"
  bottom: "LFCN_2_7x7"
  bottom: "label_2_7x7"
  top: "loss_2_7x7"
  detection_loss_param {
    cls_num: 5
    coord_num: 4
    lambda: 0.05
    field_h: 168
    field_w: 168
    downsample_rate: 16
    bb_smooth: true
    field_whr: 2
    field_xyr: 2
    bg_threshold: 0.2
    bg_multiple: 2
    sample_mode: "random"
    pos_neg_weighted: true
  }
}
layer {
  name: "detection_accuracy_2_7x7"
  type: "DetectionAccuracy"
  bottom: "LFCN_2_7x7"
  bottom: "label_2_7x7"
  top: "accuracy_2_7x7"
  top: "boxiou_2_7x7"
  detection_accuracy_param {
    cls_num: 5
    coord_num: 4
    field_h: 168
    field_w: 168
    downsample_rate: 16
    field_whr: 2
    field_xyr: 2
  }
}
layer {
  name: "pool5"
  type: "Pooling"
  bottom: "conv5_3"
  top: "pool5"
  pooling_param {
    pool: MAX
    kernel_size: 2
    stride: 2
  }
}
layer {
  name: "conv6_1"
  type: "Convolution"
  bottom: "pool5"
  top: "conv6_1"
  param {
    lr_mult: 1
    decay_mult: 1
  }
  param {
    lr_mult: 2
    decay_mult: 0
  }
  convolution_param {
    num_output: 512
    pad: 1
    kernel_size: 3
    weight_filler {
      type: "gaussian"
      std: 0.01
    }
    bias_filler {
      type: "constant"
    }
  }
}
layer {
  name: "relu6_1"
  type: "ReLU"
  bottom: "conv6_1"
  top: "conv6_1"
}
layer {
  name: "LFCN_3_5x5"
  type: "Convolution"
  bottom: "conv6_1"
  top: "LFCN_3_5x5"
  param {
    lr_mult: 1
    decay_mult: 1
  }
  param {
    lr_mult: 2
    decay_mult: 0
  }
  convolution_param {
    num_output: 9
    pad: 2
    kernel_size: 5
    weight_filler {
      type: "gaussian"
      std: 0.001
    }
    bias_filler {
      type: "constant"
    }
  }
}
layer {
  name: "detection_loss_3_5x5"
  type: "DetectionLoss"
  bottom: "LFCN_3_5x5"
  bottom: "label_3_5x5"
  top: "loss_3_5x5"
  detection_loss_param {
    cls_num: 5
    coord_num: 4
    lambda: 0.05
    field_h: 240
    field_w: 240
    downsample_rate: 32
    bb_smooth: true
    field_whr: 2
    field_xyr: 2
    bg_threshold: 0.2
    bg_multiple: 2
    sample_mode: "random"
    pos_neg_weighted: true
  }
}
layer {
  name: "detection_accuracy_3_5x5"
  type: "DetectionAccuracy"
  bottom: "LFCN_3_5x5"
  bottom: "label_3_5x5"
  top: "accuracy_3_5x5"
  top: "boxiou_3_5x5"
  detection_accuracy_param {
    cls_num: 5
    coord_num: 4
    field_h: 240
    field_w: 240
    downsample_rate: 32
    field_whr: 2
    field_xyr: 2
  }
}
layer {
  name: "LFCN_3_7x7"
  type: "Convolution"
  bottom: "conv6_1"
  top: "LFCN_3_7x7"
  param {
    lr_mult: 1
    decay_mult: 1
  }
  param {
    lr_mult: 2
    decay_mult: 0
  }
  convolution_param {
    num_output: 9
    pad: 3
    kernel_size: 7
    weight_filler {
      type: "gaussian"
      std: 0.001
    }
    bias_filler {
      type: "constant"
    }
  }
}
layer {
  name: "detection_loss_3_7x7"
  type: "DetectionLoss"
  bottom: "LFCN_3_7x7"
  bottom: "label_3_7x7"
  top: "loss_3_7x7"
  detection_loss_param {
    cls_num: 5
    coord_num: 4
    lambda: 0.05
    field_h: 336
    field_w: 336
    downsample_rate: 32
    bb_smooth: true
    field_whr: 2
    field_xyr: 2
    bg_threshold: 0.2
    bg_multiple: 2
    sample_mode: "random"
    pos_neg_weighted: true
  }
}
layer {
  name: "detection_accuracy_3_7x7"
  type: "DetectionAccuracy"
  bottom: "LFCN_3_7x7"
  bottom: "label_3_7x7"
  top: "accuracy_3_7x7"
  top: "boxiou_3_7x7"
  detection_accuracy_param {
    cls_num: 5
    coord_num: 4
    field_h: 336
    field_w: 336
    downsample_rate: 32
    field_whr: 2
    field_xyr: 2
  }
}
layer {
  name: "pool6"
  type: "Pooling"
  bottom: "conv6_1"
  top: "pool6"
  pooling_param {
    pool: MAX
    kernel_size: 2
    stride: 2
  }
}
layer {
  name: "LFCN_4_5x5"
  type: "Convolution"
  bottom: "pool6"
  top: "LFCN_4_5x5"
  param {
    lr_mult: 1
    decay_mult: 1
  }
  param {
    lr_mult: 2
    decay_mult: 0
  }
  convolution_param {
    num_output: 9
    pad: 2
    kernel_size: 5
    weight_filler {
      type: "gaussian"
      std: 0.001
    }
    bias_filler {
      type: "constant"
    }
  }
}
layer {
  name: "detection_loss_4_5x5"
  type: "DetectionLoss"
  bottom: "LFCN_4_5x5"
  bottom: "label_4_5x5"
  top: "loss_4_5x5"
  detection_loss_param {
    cls_num: 5
    coord_num: 4
    lambda: 0.05
    field_h: 480
    field_w: 480
    downsample_rate: 64
    bb_smooth: true
    field_whr: 2
    field_xyr: 2
    bg_threshold: 0.2
    bg_multiple: 2
    sample_mode: "random"
    pos_neg_weighted: true
  }
}
layer {
  name: "detection_accuracy_4_5x5"
  type: "DetectionAccuracy"
  bottom: "LFCN_4_5x5"
  bottom: "label_4_5x5"
  top: "accuracy_4_5x5"
  top: "boxiou_4_5x5"
  detection_accuracy_param {
    cls_num: 5
    coord_num: 4
    field_h: 480
    field_w: 480
    downsample_rate: 64
    field_whr: 2
    field_xyr: 2
  }
}
I0227 23:39:41.113023 23345 layer_factory.hpp:77] Creating layer data
I0227 23:39:41.113062 23345 net.cpp:100] Creating Layer data
I0227 23:39:41.113070 23345 net.cpp:408] data -> data
…
I0227 23:39:41.139978 23345 image_gt_data_layer.cpp:235] output label size 1 : 4,6,96,96
I0227 23:39:41.140064 23345 image_gt_data_layer.cpp:235] output label size 2 : 4,6,48,48
I0227 23:39:41.140152 23345 image_gt_data_layer.cpp:235] output label size 3 : 4,6,48,48
I0227 23:39:41.140242 23345 image_gt_data_layer.cpp:235] output label size 4 : 4,6,24,24
I0227 23:39:41.140331 23345 image_gt_data_layer.cpp:235] output label size 5 : 4,6,24,24
I0227 23:39:41.140414 23345 image_gt_data_layer.cpp:235] output label size 6 : 4,6,12,12
I0227 23:39:41.209353 23345 net.cpp:150] Setting up data
I0227 23:39:41.209389 23345 net.cpp:157] Top shape: 4 4 768 768 (9437184)
I0227 23:39:41.209395 23345 net.cpp:157] Top shape: 4 6 96 96 (221184)
I0227 23:39:41.209399 23345 net.cpp:157] Top shape: 4 6 96 96 (221184)
I0227 23:39:41.209404 23345 net.cpp:157] Top shape: 4 6 48 48 (55296)
I0227 23:39:41.209409 23345 net.cpp:157] Top shape: 4 6 48 48 (55296)
I0227 23:39:41.209414 23345 net.cpp:157] Top shape: 4 6 24 24 (13824)
I0227 23:39:41.209417 23345 net.cpp:157] Top shape: 4 6 24 24 (13824)
I0227 23:39:41.209421 23345 net.cpp:157] Top shape: 4 6 12 12 (3456)
I0227 23:39:41.209424 23345 net.cpp:165] Memory required for data: 40084992
I0227 23:39:41.209434 23345 layer_factory.hpp:77] Creating layer label_1_5x5_data_1_split
I0227 23:39:41.209452 23345 net.cpp:100] Creating Layer label_1_5x5_data_1_split
I0227 23:39:41.209460 23345 net.cpp:434] label_1_5x5_data_1_split <- label_1_5x5
I0227 23:39:41.209470 23345 net.cpp:408] label_1_5x5_data_1_split -> label_1_5x5_data_1_split_0
I0227 23:39:41.209481 23345 net.cpp:408] label_1_5x5_data_1_split -> label_1_5x5_data_1_split_1
I0227 23:39:41.209702 23345 net.cpp:150] Setting up label_1_5x5_data_1_split
I0227 23:39:41.209753 23345 net.cpp:157] Top shape: 4 6 96 96 (221184)
I0227 23:39:41.209765 23345 net.cpp:157] Top shape: 4 6 96 96 (221184)
I0227 23:39:41.209774 23345 net.cpp:165] Memory required for data: 41854464
I0227 23:39:41.209784 23345 layer_factory.hpp:77] Creating layer label_1_7x7_data_2_split
I0227 23:39:41.209806 23345 net.cpp:100] Creating Layer label_1_7x7_data_2_split
I0227 23:39:41.209816 23345 net.cpp:434] label_1_7x7_data_2_split <- label_1_7x7
I0227 23:39:41.209831 23345 net.cpp:408] label_1_7x7_data_2_split -> label_1_7x7_data_2_split_0
I0227 23:39:41.209851 23345 net.cpp:408] label_1_7x7_data_2_split -> label_1_7x7_data_2_split_1
I0227 23:39:41.209919 23345 net.cpp:150] Setting up label_1_7x7_data_2_split
I0227 23:39:41.209933 23345 net.cpp:157] Top shape: 4 6 96 96 (221184)
I0227 23:39:41.209941 23345 net.cpp:157] Top shape: 4 6 96 96 (221184)
I0227 23:39:41.209949 23345 net.cpp:165] Memory required for data: 43623936
I0227 23:39:41.209957 23345 layer_factory.hpp:77] Creating layer label_2_5x5_data_3_split
I0227 23:39:41.209966 23345 net.cpp:100] Creating Layer label_2_5x5_data_3_split
I0227 23:39:41.209975 23345 net.cpp:434] label_2_5x5_data_3_split <- label_2_5x5
I0227 23:39:41.209986 23345 net.cpp:408] label_2_5x5_data_3_split -> label_2_5x5_data_3_split_0
I0227 23:39:41.209998 23345 net.cpp:408] label_2_5x5_data_3_split -> label_2_5x5_data_3_split_1
I0227 23:39:41.210084 23345 net.cpp:150] Setting up label_2_5x5_data_3_split
I0227 23:39:41.210103 23345 net.cpp:157] Top shape: 4 6 48 48 (55296)
I0227 23:39:41.210111 23345 net.cpp:157] Top shape: 4 6 48 48 (55296)
I0227 23:39:41.210119 23345 net.cpp:165] Memory required for data: 44066304
I0227 23:39:41.210126 23345 layer_factory.hpp:77] Creating layer label_2_7x7_data_4_split
I0227 23:39:41.210137 23345 net.cpp:100] Creating Layer label_2_7x7_data_4_split
I0227 23:39:41.210144 23345 net.cpp:434] label_2_7x7_data_4_split <- label_2_7x7
I0227 23:39:41.210155 23345 net.cpp:408] label_2_7x7_data_4_split -> label_2_7x7_data_4_split_0
I0227 23:39:41.210166 23345 net.cpp:408] label_2_7x7_data_4_split -> label_2_7x7_data_4_split_1
I0227 23:39:41.210238 23345 net.cpp:150] Setting up label_2_7x7_data_4_split
I0227 23:39:41.210258 23345 net.cpp:157] Top shape: 4 6 48 48 (55296)
I0227 23:39:41.210274 23345 net.cpp:157] Top shape: 4 6 48 48 (55296)
I0227 23:39:41.210288 23345 net.cpp:165] Memory required for data: 44508672
I0227 23:39:41.210297 23345 layer_factory.hpp:77] Creating layer label_3_5x5_data_5_split
I0227 23:39:41.210322 23345 net.cpp:100] Creating Layer label_3_5x5_data_5_split
I0227 23:39:41.210336 23345 net.cpp:434] label_3_5x5_data_5_split <- label_3_5x5
I0227 23:39:41.210351 23345 net.cpp:408] label_3_5x5_data_5_split -> label_3_5x5_data_5_split_0
I0227 23:39:41.210376 23345 net.cpp:408] label_3_5x5_data_5_split -> label_3_5x5_data_5_split_1
I0227 23:39:41.210470 23345 net.cpp:150] Setting up label_3_5x5_data_5_split
I0227 23:39:41.210491 23345 net.cpp:157] Top shape: 4 6 24 24 (13824)
I0227 23:39:41.210507 23345 net.cpp:157] Top shape: 4 6 24 24 (13824)
I0227 23:39:41.210520 23345 net.cpp:165] Memory required for data: 44619264
I0227 23:39:41.210530 23345 layer_factory.hpp:77] Creating layer label_3_7x7_data_6_split
I0227 23:39:41.210546 23345 net.cpp:100] Creating Layer label_3_7x7_data_6_split
I0227 23:39:41.210559 23345 net.cpp:434] label_3_7x7_data_6_split <- label_3_7x7
I0227 23:39:41.210575 23345 net.cpp:408] label_3_7x7_data_6_split -> label_3_7x7_data_6_split_0
I0227 23:39:41.210594 23345 net.cpp:408] label_3_7x7_data_6_split -> label_3_7x7_data_6_split_1
I0227 23:39:41.210681 23345 net.cpp:150] Setting up label_3_7x7_data_6_split
I0227 23:39:41.210701 23345 net.cpp:157] Top shape: 4 6 24 24 (13824)
I0227 23:39:41.210717 23345 net.cpp:157] Top shape: 4 6 24 24 (13824)
I0227 23:39:41.210729 23345 net.cpp:165] Memory required for data: 44729856
I0227 23:39:41.210741 23345 layer_factory.hpp:77] Creating layer label_4_5x5_data_7_split
I0227 23:39:41.210755 23345 net.cpp:100] Creating Layer label_4_5x5_data_7_split
I0227 23:39:41.210768 23345 net.cpp:434] label_4_5x5_data_7_split <- label_4_5x5
I0227 23:39:41.210785 23345 net.cpp:408] label_4_5x5_data_7_split -> label_4_5x5_data_7_split_0
I0227 23:39:41.210804 23345 net.cpp:408] label_4_5x5_data_7_split -> label_4_5x5_data_7_split_1
I0227 23:39:41.210883 23345 net.cpp:150] Setting up label_4_5x5_data_7_split
I0227 23:39:41.210907 23345 net.cpp:157] Top shape: 4 6 12 12 (3456)
I0227 23:39:41.210924 23345 net.cpp:157] Top shape: 4 6 12 12 (3456)
I0227 23:39:41.210937 23345 net.cpp:165] Memory required for data: 44757504
I0227 23:39:41.210947 23345 layer_factory.hpp:77] Creating layer slice
I0227 23:39:41.210985 23345 net.cpp:100] Creating Layer slice
I0227 23:39:41.211000 23345 net.cpp:434] slice <- data
I0227 23:39:41.211017 23345 net.cpp:408] slice -> data123
I0227 23:39:41.211052 23345 net.cpp:408] slice -> ch4
I0227 23:39:41.211122 23345 net.cpp:150] Setting up slice
I0227 23:39:41.211135 23345 net.cpp:157] Top shape: 4 3 768 768 (7077888)
I0227 23:39:41.211145 23345 net.cpp:157] Top shape: 4 1 768 768 (2359296)
I0227 23:39:41.211154 23345 net.cpp:165] Memory required for data: 82506240
I0227 23:39:41.211161 23345 layer_factory.hpp:77] Creating layer conv1_1
I0227 23:39:41.211179 23345 net.cpp:100] Creating Layer conv1_1
I0227 23:39:41.211189 23345 net.cpp:434] conv1_1 <- data123
I0227 23:39:41.211202 23345 net.cpp:408] conv1_1 -> conv1_1
I0227 23:39:41.465617 23345 net.cpp:150] Setting up conv1_1
I0227 23:39:41.465649 23345 net.cpp:157] Top shape: 4 64 768 768 (150994944)
I0227 23:39:41.465656 23345 net.cpp:165] Memory required for data: 686486016
I0227 23:39:41.465677 23345 layer_factory.hpp:77] Creating layer relu1_1
I0227 23:39:41.465697 23345 net.cpp:100] Creating Layer relu1_1
I0227 23:39:41.465705 23345 net.cpp:434] relu1_1 <- conv1_1
I0227 23:39:41.465718 23345 net.cpp:395] relu1_1 -> conv1_1 (in-place)
I0227 23:39:41.466434 23345 net.cpp:150] Setting up relu1_1
I0227 23:39:41.466552 23345 net.cpp:157] Top shape: 4 64 768 768 (150994944)
I0227 23:39:41.466573 23345 net.cpp:165] Memory required for data: 1290465792
I0227 23:39:41.466585 23345 layer_factory.hpp:77] Creating layer conv1_2
I0227 23:39:41.466639 23345 net.cpp:100] Creating Layer conv1_2
I0227 23:39:41.466660 23345 net.cpp:434] conv1_2 <- conv1_1
I0227 23:39:41.466677 23345 net.cpp:408] conv1_2 -> conv1_2
I0227 23:39:41.470276 23345 net.cpp:150] Setting up conv1_2
I0227 23:39:41.470311 23345 net.cpp:157] Top shape: 4 64 768 768 (150994944)
I0227 23:39:41.470315 23345 net.cpp:165] Memory required for data: 1894445568
I0227 23:39:41.470332 23345 layer_factory.hpp:77] Creating layer relu1_2
I0227 23:39:41.470348 23345 net.cpp:100] Creating Layer relu1_2
I0227 23:39:41.470355 23345 net.cpp:434] relu1_2 <- conv1_2
I0227 23:39:41.470362 23345 net.cpp:395] relu1_2 -> conv1_2 (in-place)
I0227 23:39:41.472617 23345 net.cpp:150] Setting up relu1_2
I0227 23:39:41.472656 23345 net.cpp:157] Top shape: 4 64 768 768 (150994944)
I0227 23:39:41.472661 23345 net.cpp:165] Memory required for data: 2498425344
I0227 23:39:41.472666 23345 layer_factory.hpp:77] Creating layer pool1
I0227 23:39:41.472683 23345 net.cpp:100] Creating Layer pool1
I0227 23:39:41.472690 23345 net.cpp:434] pool1 <- conv1_2
I0227 23:39:41.472707 23345 net.cpp:408] pool1 -> pool1
I0227 23:39:41.472805 23345 net.cpp:150] Setting up pool1
I0227 23:39:41.472815 23345 net.cpp:157] Top shape: 4 64 384 384 (37748736)
I0227 23:39:41.472818 23345 net.cpp:165] Memory required for data: 2649420288
I0227 23:39:41.472822 23345 layer_factory.hpp:77] Creating layer conv2_1
I0227 23:39:41.472833 23345 net.cpp:100] Creating Layer conv2_1
I0227 23:39:41.472836 23345 net.cpp:434] conv2_1 <- pool1
I0227 23:39:41.472844 23345 net.cpp:408] conv2_1 -> conv2_1
I0227 23:39:41.477412 23345 net.cpp:150] Setting up conv2_1
I0227 23:39:41.477449 23345 net.cpp:157] Top shape: 4 128 384 384 (75497472)
I0227 23:39:41.477454 23345 net.cpp:165] Memory required for data: 2951410176
I0227 23:39:41.477473 23345 layer_factory.hpp:77] Creating layer relu2_1
I0227 23:39:41.477488 23345 net.cpp:100] Creating Layer relu2_1
I0227 23:39:41.477494 23345 net.cpp:434] relu2_1 <- conv2_1
I0227 23:39:41.477501 23345 net.cpp:395] relu2_1 -> conv2_1 (in-place)
I0227 23:39:41.477747 23345 net.cpp:150] Setting up relu2_1
I0227 23:39:41.477757 23345 net.cpp:157] Top shape: 4 128 384 384 (75497472)
I0227 23:39:41.477761 23345 net.cpp:165] Memory required for data: 3253400064
I0227 23:39:41.477764 23345 layer_factory.hpp:77] Creating layer conv2_2
I0227 23:39:41.477780 23345 net.cpp:100] Creating Layer conv2_2
I0227 23:39:41.477785 23345 net.cpp:434] conv2_2 <- conv2_1
I0227 23:39:41.477793 23345 net.cpp:408] conv2_2 -> conv2_2
I0227 23:39:41.479418 23345 net.cpp:150] Setting up conv2_2
I0227 23:39:41.479436 23345 net.cpp:157] Top shape: 4 128 384 384 (75497472)
I0227 23:39:41.479440 23345 net.cpp:165] Memory required for data: 3555389952
I0227 23:39:41.479451 23345 layer_factory.hpp:77] Creating layer relu2_2
I0227 23:39:41.479461 23345 net.cpp:100] Creating Layer relu2_2
I0227 23:39:41.479466 23345 net.cpp:434] relu2_2 <- conv2_2
I0227 23:39:41.479473 23345 net.cpp:395] relu2_2 -> conv2_2 (in-place)
I0227 23:39:41.481590 23345 net.cpp:150] Setting up relu2_2
I0227 23:39:41.481638 23345 net.cpp:157] Top shape: 4 128 384 384 (75497472)
I0227 23:39:41.481643 23345 net.cpp:165] Memory required for data: 3857379840
I0227 23:39:41.481663 23345 layer_factory.hpp:77] Creating layer pool2
I0227 23:39:41.481686 23345 net.cpp:100] Creating Layer pool2
I0227 23:39:41.481695 23345 net.cpp:434] pool2 <- conv2_2
I0227 23:39:41.481705 23345 net.cpp:408] pool2 -> pool2
I0227 23:39:41.481799 23345 net.cpp:150] Setting up pool2
I0227 23:39:41.481806 23345 net.cpp:157] Top shape: 4 128 192 192 (18874368)
I0227 23:39:41.481809 23345 net.cpp:165] Memory required for data: 3932877312
I0227 23:39:41.481813 23345 layer_factory.hpp:77] Creating layer conv3_1
I0227 23:39:41.481827 23345 net.cpp:100] Creating Layer conv3_1
I0227 23:39:41.481832 23345 net.cpp:434] conv3_1 <- pool2
I0227 23:39:41.481837 23345 net.cpp:408] conv3_1 -> conv3_1
I0227 23:39:41.485780 23345 net.cpp:150] Setting up conv3_1
I0227 23:39:41.485815 23345 net.cpp:157] Top shape: 4 256 192 192 (37748736)
I0227 23:39:41.485821 23345 net.cpp:165] Memory required for data: 4083872256
I0227 23:39:41.485846 23345 layer_factory.hpp:77] Creating layer relu3_1
I0227 23:39:41.485867 23345 net.cpp:100] Creating Layer relu3_1
I0227 23:39:41.485877 23345 net.cpp:434] relu3_1 <- conv3_1
I0227 23:39:41.485890 23345 net.cpp:395] relu3_1 -> conv3_1 (in-place)
I0227 23:39:41.486547 23345 net.cpp:150] Setting up relu3_1
I0227 23:39:41.486562 23345 net.cpp:157] Top shape: 4 256 192 192 (37748736)
I0227 23:39:41.486567 23345 net.cpp:165] Memory required for data: 4234867200
I0227 23:39:41.486570 23345 layer_factory.hpp:77] Creating layer conv3_2
I0227 23:39:41.486582 23345 net.cpp:100] Creating Layer conv3_2
I0227 23:39:41.486588 23345 net.cpp:434] conv3_2 <- conv3_1
I0227 23:39:41.486593 23345 net.cpp:408] conv3_2 -> conv3_2
I0227 23:39:41.489209 23345 net.cpp:150] Setting up conv3_2
I0227 23:39:41.489228 23345 net.cpp:157] Top shape: 4 256 192 192 (37748736)
I0227 23:39:41.489233 23345 net.cpp:165] Memory required for data: 4385862144
I0227 23:39:41.489241 23345 layer_factory.hpp:77] Creating layer relu3_2
I0227 23:39:41.489249 23345 net.cpp:100] Creating Layer relu3_2
I0227 23:39:41.489254 23345 net.cpp:434] relu3_2 <- conv3_2
I0227 23:39:41.489262 23345 net.cpp:395] relu3_2 -> conv3_2 (in-place)
I0227 23:39:41.490850 23345 net.cpp:150] Setting up relu3_2
I0227 23:39:41.490885 23345 net.cpp:157] Top shape: 4 256 192 192 (37748736)
I0227 23:39:41.490890 23345 net.cpp:165] Memory required for data: 4536857088
I0227 23:39:41.490897 23345 layer_factory.hpp:77] Creating layer conv3_3
I0227 23:39:41.490916 23345 net.cpp:100] Creating Layer conv3_3
I0227 23:39:41.490926 23345 net.cpp:434] conv3_3 <- conv3_2
I0227 23:39:41.490934 23345 net.cpp:408] conv3_3 -> conv3_3
I0227 23:39:41.497959 23345 net.cpp:150] Setting up conv3_3
I0227 23:39:41.498035 23345 net.cpp:157] Top shape: 4 256 192 192 (37748736)
I0227 23:39:41.498041 23345 net.cpp:165] Memory required for data: 4687852032
I0227 23:39:41.498103 23345 layer_factory.hpp:77] Creating layer relu3_3
I0227 23:39:41.498126 23345 net.cpp:100] Creating Layer relu3_3
I0227 23:39:41.498137 23345 net.cpp:434] relu3_3 <- conv3_3
I0227 23:39:41.498150 23345 net.cpp:395] relu3_3 -> conv3_3 (in-place)
I0227 23:39:41.498383 23345 net.cpp:150] Setting up relu3_3
I0227 23:39:41.498397 23345 net.cpp:157] Top shape: 4 256 192 192 (37748736)
I0227 23:39:41.498401 23345 net.cpp:165] Memory required for data: 4838846976
I0227 23:39:41.498406 23345 layer_factory.hpp:77] Creating layer pool3
I0227 23:39:41.498416 23345 net.cpp:100] Creating Layer pool3
I0227 23:39:41.498421 23345 net.cpp:434] pool3 <- conv3_3
I0227 23:39:41.498431 23345 net.cpp:408] pool3 -> pool3
I0227 23:39:41.498497 23345 net.cpp:150] Setting up pool3
I0227 23:39:41.498504 23345 net.cpp:157] Top shape: 4 256 96 96 (9437184)
I0227 23:39:41.498507 23345 net.cpp:165] Memory required for data: 4876595712
I0227 23:39:41.498512 23345 layer_factory.hpp:77] Creating layer ch4_pool3
I0227 23:39:41.498522 23345 net.cpp:100] Creating Layer ch4_pool3
I0227 23:39:41.498525 23345 net.cpp:434] ch4_pool3 <- ch4
I0227 23:39:41.498533 23345 net.cpp:408] ch4_pool3 -> ch4_pool3
I0227 23:39:41.498570 23345 net.cpp:150] Setting up ch4_pool3
I0227 23:39:41.498579 23345 net.cpp:157] Top shape: 4 1 96 96 (36864)
I0227 23:39:41.498582 23345 net.cpp:165] Memory required for data: 4876743168
I0227 23:39:41.498586 23345 layer_factory.hpp:77] Creating layer pool3_concat
I0227 23:39:41.498594 23345 net.cpp:100] Creating Layer pool3_concat
I0227 23:39:41.498601 23345 net.cpp:434] pool3_concat <- pool3
I0227 23:39:41.498606 23345 net.cpp:434] pool3_concat <- ch4_pool3
I0227 23:39:41.498611 23345 net.cpp:408] pool3_concat -> pool3_new
I0227 23:39:41.498634 23345 net.cpp:150] Setting up pool3_concat
I0227 23:39:41.498641 23345 net.cpp:157] Top shape: 4 257 96 96 (9474048)
I0227 23:39:41.498646 23345 net.cpp:165] Memory required for data: 4914639360
I0227 23:39:41.498649 23345 layer_factory.hpp:77] Creating layer conv4_1_new
I0227 23:39:41.498667 23345 net.cpp:100] Creating Layer conv4_1_new
I0227 23:39:41.498672 23345 net.cpp:434] conv4_1_new <- pool3_new
I0227 23:39:41.498678 23345 net.cpp:408] conv4_1_new -> conv4_1
I0227 23:39:41.515219 23345 net.cpp:150] Setting up conv4_1_new
I0227 23:39:41.515254 23345 net.cpp:157] Top shape: 4 512 96 96 (18874368)
I0227 23:39:41.515259 23345 net.cpp:165] Memory required for data: 4990136832
I0227 23:39:41.515270 23345 layer_factory.hpp:77] Creating layer relu4_1
I0227 23:39:41.515286 23345 net.cpp:100] Creating Layer relu4_1
I0227 23:39:41.515295 23345 net.cpp:434] relu4_1 <- conv4_1
I0227 23:39:41.515301 23345 net.cpp:395] relu4_1 -> conv4_1 (in-place)
I0227 23:39:41.515457 23345 net.cpp:150] Setting up relu4_1
I0227 23:39:41.515466 23345 net.cpp:157] Top shape: 4 512 96 96 (18874368)
I0227 23:39:41.515470 23345 net.cpp:165] Memory required for data: 5065634304
I0227 23:39:41.515472 23345 layer_factory.hpp:77] Creating layer conv4_2
I0227 23:39:41.515486 23345 net.cpp:100] Creating Layer conv4_2
I0227 23:39:41.515488 23345 net.cpp:434] conv4_2 <- conv4_1
I0227 23:39:41.515496 23345 net.cpp:408] conv4_2 -> conv4_2
I0227 23:39:41.522014 23345 net.cpp:150] Setting up conv4_2
I0227 23:39:41.522047 23345 net.cpp:157] Top shape: 4 512 96 96 (18874368)
I0227 23:39:41.522080 23345 net.cpp:165] Memory required for data: 5141131776
I0227 23:39:41.522094 23345 layer_factory.hpp:77] Creating layer relu4_2
I0227 23:39:41.522104 23345 net.cpp:100] Creating Layer relu4_2
I0227 23:39:41.522109 23345 net.cpp:434] relu4_2 <- conv4_2
I0227 23:39:41.522115 23345 net.cpp:395] relu4_2 -> conv4_2 (in-place)
I0227 23:39:41.522272 23345 net.cpp:150] Setting up relu4_2
I0227 23:39:41.522281 23345 net.cpp:157] Top shape: 4 512 96 96 (18874368)
I0227 23:39:41.522285 23345 net.cpp:165] Memory required for data: 5216629248
I0227 23:39:41.522289 23345 layer_factory.hpp:77] Creating layer conv4_3
I0227 23:39:41.522301 23345 net.cpp:100] Creating Layer conv4_3
I0227 23:39:41.522305 23345 net.cpp:434] conv4_3 <- conv4_2
I0227 23:39:41.522312 23345 net.cpp:408] conv4_3 -> conv4_3
I0227 23:39:41.530340 23345 net.cpp:150] Setting up conv4_3
I0227 23:39:41.530375 23345 net.cpp:157] Top shape: 4 512 96 96 (18874368)
I0227 23:39:41.530380 23345 net.cpp:165] Memory required for data: 5292126720
I0227 23:39:41.530391 23345 layer_factory.hpp:77] Creating layer relu4_3
I0227 23:39:41.530406 23345 net.cpp:100] Creating Layer relu4_3
I0227 23:39:41.530412 23345 net.cpp:434] relu4_3 <- conv4_3
I0227 23:39:41.530419 23345 net.cpp:395] relu4_3 -> conv4_3 (in-place)
I0227 23:39:41.530611 23345 net.cpp:150] Setting up relu4_3
I0227 23:39:41.530620 23345 net.cpp:157] Top shape: 4 512 96 96 (18874368)
I0227 23:39:41.530624 23345 net.cpp:165] Memory required for data: 5367624192
I0227 23:39:41.530629 23345 layer_factory.hpp:77] Creating layer conv4_3_relu4_3_0_split
I0227 23:39:41.530635 23345 net.cpp:100] Creating Layer conv4_3_relu4_3_0_split
I0227 23:39:41.530640 23345 net.cpp:434] conv4_3_relu4_3_0_split <- conv4_3
I0227 23:39:41.530647 23345 net.cpp:408] conv4_3_relu4_3_0_split -> conv4_3_relu4_3_0_split_0
I0227 23:39:41.530654 23345 net.cpp:408] conv4_3_relu4_3_0_split -> conv4_3_relu4_3_0_split_1
I0227 23:39:41.530695 23345 net.cpp:150] Setting up conv4_3_relu4_3_0_split
I0227 23:39:41.530702 23345 net.cpp:157] Top shape: 4 512 96 96 (18874368)
I0227 23:39:41.530709 23345 net.cpp:157] Top shape: 4 512 96 96 (18874368)
I0227 23:39:41.530711 23345 net.cpp:165] Memory required for data: 5518619136
I0227 23:39:41.530715 23345 layer_factory.hpp:77] Creating layer loss1_conv1
I0227 23:39:41.530730 23345 net.cpp:100] Creating Layer loss1_conv1
I0227 23:39:41.530736 23345 net.cpp:434] loss1_conv1 <- conv4_3_relu4_3_0_split_0
I0227 23:39:41.530745 23345 net.cpp:408] loss1_conv1 -> loss1_conv1
I0227 23:39:41.598584 23345 net.cpp:150] Setting up loss1_conv1
I0227 23:39:41.598613 23345 net.cpp:157] Top shape: 4 512 96 96 (18874368)
I0227 23:39:41.598616 23345 net.cpp:165] Memory required for data: 5594116608
I0227 23:39:41.598624 23345 layer_factory.hpp:77] Creating layer loss_relu1
I0227 23:39:41.598636 23345 net.cpp:100] Creating Layer loss_relu1
I0227 23:39:41.598642 23345 net.cpp:434] loss_relu1 <- loss1_conv1
I0227 23:39:41.598649 23345 net.cpp:395] loss_relu1 -> loss1_conv1 (in-place)
I0227 23:39:41.599097 23345 net.cpp:150] Setting up loss_relu1
I0227 23:39:41.599109 23345 net.cpp:157] Top shape: 4 512 96 96 (18874368)
I0227 23:39:41.599113 23345 net.cpp:165] Memory required for data: 5669614080
I0227 23:39:41.599117 23345 layer_factory.hpp:77] Creating layer loss1_conv1_loss_relu1_0_split
I0227 23:39:41.599123 23345 net.cpp:100] Creating Layer loss1_conv1_loss_relu1_0_split
I0227 23:39:41.599128 23345 net.cpp:434] loss1_conv1_loss_relu1_0_split <- loss1_conv1
I0227 23:39:41.599133 23345 net.cpp:408] loss1_conv1_loss_relu1_0_split -> loss1_conv1_loss_relu1_0_split_0
I0227 23:39:41.599138 23345 net.cpp:408] loss1_conv1_loss_relu1_0_split -> loss1_conv1_loss_relu1_0_split_1
I0227 23:39:41.599174 23345 net.cpp:150] Setting up loss1_conv1_loss_relu1_0_split
I0227 23:39:41.599180 23345 net.cpp:157] Top shape: 4 512 96 96 (18874368)
I0227 23:39:41.599184 23345 net.cpp:157] Top shape: 4 512 96 96 (18874368)
I0227 23:39:41.599187 23345 net.cpp:165] Memory required for data: 5820609024
I0227 23:39:41.599190 23345 layer_factory.hpp:77] Creating layer LFCN_1_5x5
I0227 23:39:41.599200 23345 net.cpp:100] Creating Layer LFCN_1_5x5
I0227 23:39:41.599205 23345 net.cpp:434] LFCN_1_5x5 <- loss1_conv1_loss_relu1_0_split_0
I0227 23:39:41.599210 23345 net.cpp:408] LFCN_1_5x5 -> LFCN_1_5x5
I0227 23:39:41.603154 23345 net.cpp:150] Setting up LFCN_1_5x5
I0227 23:39:41.603179 23345 net.cpp:157] Top shape: 4 9 96 96 (331776)
I0227 23:39:41.603184 23345 net.cpp:165] Memory required for data: 5821936128
I0227 23:39:41.603194 23345 layer_factory.hpp:77] Creating layer LFCN_1_5x5_LFCN_1_5x5_0_split
I0227 23:39:41.603202 23345 net.cpp:100] Creating Layer LFCN_1_5x5_LFCN_1_5x5_0_split
I0227 23:39:41.603209 23345 net.cpp:434] LFCN_1_5x5_LFCN_1_5x5_0_split <- LFCN_1_5x5
I0227 23:39:41.603217 23345 net.cpp:408] LFCN_1_5x5_LFCN_1_5x5_0_split -> LFCN_1_5x5_LFCN_1_5x5_0_split_0
I0227 23:39:41.603225 23345 net.cpp:408] LFCN_1_5x5_LFCN_1_5x5_0_split -> LFCN_1_5x5_LFCN_1_5x5_0_split_1
I0227 23:39:41.603292 23345 net.cpp:150] Setting up LFCN_1_5x5_LFCN_1_5x5_0_split
I0227 23:39:41.603304 23345 net.cpp:157] Top shape: 4 9 96 96 (331776)
I0227 23:39:41.603310 23345 net.cpp:157] Top shape: 4 9 96 96 (331776)
I0227 23:39:41.603313 23345 net.cpp:165] Memory required for data: 5824590336
I0227 23:39:41.603318 23345 layer_factory.hpp:77] Creating layer detection_loss_1_5x5
I0227 23:39:41.603333 23345 net.cpp:100] Creating Layer detection_loss_1_5x5
I0227 23:39:41.603338 23345 net.cpp:434] detection_loss_1_5x5 <- LFCN_1_5x5_LFCN_1_5x5_0_split_0
I0227 23:39:41.603344 23345 net.cpp:434] detection_loss_1_5x5 <- label_1_5x5_data_1_split_0
I0227 23:39:41.603355 23345 net.cpp:408] detection_loss_1_5x5 -> loss_1_5x5
I0227 23:39:41.603384 23345 layer_factory.hpp:77] Creating layer detection_loss_1_5x5
I0227 23:39:41.606596 23345 net.cpp:150] Setting up detection_loss_1_5x5
I0227 23:39:41.606681 23345 net.cpp:157] Top shape: 1 1 1 2 (2)
I0227 23:39:41.606700 23345 net.cpp:160]     with loss weight 0.9
I0227 23:39:41.606745 23345 net.cpp:165] Memory required for data: 5824590344
I0227 23:39:41.606763 23345 layer_factory.hpp:77] Creating layer detection_accuracy_1_5x5
I0227 23:39:41.606792 23345 net.cpp:100] Creating Layer detection_accuracy_1_5x5
I0227 23:39:41.606812 23345 net.cpp:434] detection_accuracy_1_5x5 <- LFCN_1_5x5_LFCN_1_5x5_0_split_1
I0227 23:39:41.606832 23345 net.cpp:434] detection_accuracy_1_5x5 <- label_1_5x5_data_1_split_1
I0227 23:39:41.606850 23345 net.cpp:408] detection_accuracy_1_5x5 -> accuracy_1_5x5
I0227 23:39:41.606876 23345 net.cpp:408] detection_accuracy_1_5x5 -> boxiou_1_5x5
I0227 23:39:41.606956 23345 net.cpp:150] Setting up detection_accuracy_1_5x5
I0227 23:39:41.606978 23345 net.cpp:157] Top shape: 1 1 1 2 (2)
I0227 23:39:41.606995 23345 net.cpp:157] Top shape: 1 1 1 1 (1)
I0227 23:39:41.607009 23345 net.cpp:165] Memory required for data: 5824590356
I0227 23:39:41.607024 23345 layer_factory.hpp:77] Creating layer LFCN_1_7x7
I0227 23:39:41.607050 23345 net.cpp:100] Creating Layer LFCN_1_7x7
I0227 23:39:41.607069 23345 net.cpp:434] LFCN_1_7x7 <- loss1_conv1_loss_relu1_0_split_1
I0227 23:39:41.607090 23345 net.cpp:408] LFCN_1_7x7 -> LFCN_1_7x7
I0227 23:39:41.614395 23345 net.cpp:150] Setting up LFCN_1_7x7
I0227 23:39:41.614423 23345 net.cpp:157] Top shape: 4 9 96 96 (331776)
I0227 23:39:41.614426 23345 net.cpp:165] Memory required for data: 5825917460
I0227 23:39:41.614436 23345 layer_factory.hpp:77] Creating layer LFCN_1_7x7_LFCN_1_7x7_0_split
I0227 23:39:41.614446 23345 net.cpp:100] Creating Layer LFCN_1_7x7_LFCN_1_7x7_0_split
I0227 23:39:41.614452 23345 net.cpp:434] LFCN_1_7x7_LFCN_1_7x7_0_split <- LFCN_1_7x7
I0227 23:39:41.614462 23345 net.cpp:408] LFCN_1_7x7_LFCN_1_7x7_0_split -> LFCN_1_7x7_LFCN_1_7x7_0_split_0
I0227 23:39:41.614475 23345 net.cpp:408] LFCN_1_7x7_LFCN_1_7x7_0_split -> LFCN_1_7x7_LFCN_1_7x7_0_split_1
I0227 23:39:41.614519 23345 net.cpp:150] Setting up LFCN_1_7x7_LFCN_1_7x7_0_split
I0227 23:39:41.614528 23345 net.cpp:157] Top shape: 4 9 96 96 (331776)
I0227 23:39:41.614537 23345 net.cpp:157] Top shape: 4 9 96 96 (331776)
I0227 23:39:41.614542 23345 net.cpp:165] Memory required for data: 5828571668
I0227 23:39:41.614547 23345 layer_factory.hpp:77] Creating layer detection_loss_1_7x7
I0227 23:39:41.614559 23345 net.cpp:100] Creating Layer detection_loss_1_7x7
I0227 23:39:41.614567 23345 net.cpp:434] detection_loss_1_7x7 <- LFCN_1_7x7_LFCN_1_7x7_0_split_0
I0227 23:39:41.614575 23345 net.cpp:434] detection_loss_1_7x7 <- label_1_7x7_data_2_split_0
I0227 23:39:41.614590 23345 net.cpp:408] detection_loss_1_7x7 -> loss_1_7x7
I0227 23:39:41.614608 23345 layer_factory.hpp:77] Creating layer detection_loss_1_7x7
I0227 23:39:41.621301 23345 net.cpp:150] Setting up detection_loss_1_7x7
I0227 23:39:41.621354 23345 net.cpp:157] Top shape: 1 1 1 2 (2)
I0227 23:39:41.621361 23345 net.cpp:160]     with loss weight 0.9
I0227 23:39:41.621387 23345 net.cpp:165] Memory required for data: 5828571676
I0227 23:39:41.621397 23345 layer_factory.hpp:77] Creating layer detection_accuracy_1_7x7
I0227 23:39:41.621421 23345 net.cpp:100] Creating Layer detection_accuracy_1_7x7
I0227 23:39:41.621435 23345 net.cpp:434] detection_accuracy_1_7x7 <- LFCN_1_7x7_LFCN_1_7x7_0_split_1
I0227 23:39:41.621448 23345 net.cpp:434] detection_accuracy_1_7x7 <- label_1_7x7_data_2_split_1
I0227 23:39:41.621462 23345 net.cpp:408] detection_accuracy_1_7x7 -> accuracy_1_7x7
I0227 23:39:41.621477 23345 net.cpp:408] detection_accuracy_1_7x7 -> boxiou_1_7x7
I0227 23:39:41.621539 23345 net.cpp:150] Setting up detection_accuracy_1_7x7
I0227 23:39:41.621552 23345 net.cpp:157] Top shape: 1 1 1 2 (2)
I0227 23:39:41.621559 23345 net.cpp:157] Top shape: 1 1 1 1 (1)
I0227 23:39:41.621567 23345 net.cpp:165] Memory required for data: 5828571688
I0227 23:39:41.621573 23345 layer_factory.hpp:77] Creating layer pool4
I0227 23:39:41.621585 23345 net.cpp:100] Creating Layer pool4
I0227 23:39:41.621594 23345 net.cpp:434] pool4 <- conv4_3_relu4_3_0_split_1
I0227 23:39:41.621603 23345 net.cpp:408] pool4 -> pool4
I0227 23:39:41.621657 23345 net.cpp:150] Setting up pool4
I0227 23:39:41.621667 23345 net.cpp:157] Top shape: 4 512 48 48 (4718592)
I0227 23:39:41.621672 23345 net.cpp:165] Memory required for data: 5847446056
I0227 23:39:41.621678 23345 layer_factory.hpp:77] Creating layer conv5_1
I0227 23:39:41.621692 23345 net.cpp:100] Creating Layer conv5_1
I0227 23:39:41.621701 23345 net.cpp:434] conv5_1 <- pool4
I0227 23:39:41.621711 23345 net.cpp:408] conv5_1 -> conv5_1
I0227 23:39:41.633558 23345 net.cpp:150] Setting up conv5_1
I0227 23:39:41.633625 23345 net.cpp:157] Top shape: 4 512 48 48 (4718592)
I0227 23:39:41.633632 23345 net.cpp:165] Memory required for data: 5866320424
I0227 23:39:41.633653 23345 layer_factory.hpp:77] Creating layer relu5_1
I0227 23:39:41.633678 23345 net.cpp:100] Creating Layer relu5_1
I0227 23:39:41.633689 23345 net.cpp:434] relu5_1 <- conv5_1
I0227 23:39:41.633707 23345 net.cpp:395] relu5_1 -> conv5_1 (in-place)
I0227 23:39:41.633910 23345 net.cpp:150] Setting up relu5_1
I0227 23:39:41.633921 23345 net.cpp:157] Top shape: 4 512 48 48 (4718592)
I0227 23:39:41.633926 23345 net.cpp:165] Memory required for data: 5885194792
I0227 23:39:41.633931 23345 layer_factory.hpp:77] Creating layer conv5_2
I0227 23:39:41.633951 23345 net.cpp:100] Creating Layer conv5_2
I0227 23:39:41.633957 23345 net.cpp:434] conv5_2 <- conv5_1
I0227 23:39:41.633965 23345 net.cpp:408] conv5_2 -> conv5_2
I0227 23:39:41.642925 23345 net.cpp:150] Setting up conv5_2
I0227 23:39:41.642987 23345 net.cpp:157] Top shape: 4 512 48 48 (4718592)
I0227 23:39:41.642994 23345 net.cpp:165] Memory required for data: 5904069160
I0227 23:39:41.643014 23345 layer_factory.hpp:77] Creating layer relu5_2
I0227 23:39:41.643039 23345 net.cpp:100] Creating Layer relu5_2
I0227 23:39:41.643049 23345 net.cpp:434] relu5_2 <- conv5_2
I0227 23:39:41.643059 23345 net.cpp:395] relu5_2 -> conv5_2 (in-place)
I0227 23:39:41.643247 23345 net.cpp:150] Setting up relu5_2
I0227 23:39:41.643260 23345 net.cpp:157] Top shape: 4 512 48 48 (4718592)
I0227 23:39:41.643265 23345 net.cpp:165] Memory required for data: 5922943528
I0227 23:39:41.643270 23345 layer_factory.hpp:77] Creating layer conv5_3
I0227 23:39:41.643287 23345 net.cpp:100] Creating Layer conv5_3
I0227 23:39:41.643293 23345 net.cpp:434] conv5_3 <- conv5_2
I0227 23:39:41.643303 23345 net.cpp:408] conv5_3 -> conv5_3
I0227 23:39:41.651216 23345 net.cpp:150] Setting up conv5_3
I0227 23:39:41.651252 23345 net.cpp:157] Top shape: 4 512 48 48 (4718592)
I0227 23:39:41.651258 23345 net.cpp:165] Memory required for data: 5941817896
I0227 23:39:41.651273 23345 layer_factory.hpp:77] Creating layer relu5_3
I0227 23:39:41.651288 23345 net.cpp:100] Creating Layer relu5_3
I0227 23:39:41.651298 23345 net.cpp:434] relu5_3 <- conv5_3
I0227 23:39:41.651307 23345 net.cpp:395] relu5_3 -> conv5_3 (in-place)
I0227 23:39:41.651473 23345 net.cpp:150] Setting up relu5_3
I0227 23:39:41.651484 23345 net.cpp:157] Top shape: 4 512 48 48 (4718592)
I0227 23:39:41.651489 23345 net.cpp:165] Memory required for data: 5960692264
I0227 23:39:41.651494 23345 layer_factory.hpp:77] Creating layer conv5_3_relu5_3_0_split
I0227 23:39:41.651501 23345 net.cpp:100] Creating Layer conv5_3_relu5_3_0_split
I0227 23:39:41.651507 23345 net.cpp:434] conv5_3_relu5_3_0_split <- conv5_3
I0227 23:39:41.651516 23345 net.cpp:408] conv5_3_relu5_3_0_split -> conv5_3_relu5_3_0_split_0
I0227 23:39:41.651527 23345 net.cpp:408] conv5_3_relu5_3_0_split -> conv5_3_relu5_3_0_split_1
I0227 23:39:41.651536 23345 net.cpp:408] conv5_3_relu5_3_0_split -> conv5_3_relu5_3_0_split_2
I0227 23:39:41.651590 23345 net.cpp:150] Setting up conv5_3_relu5_3_0_split
I0227 23:39:41.651599 23345 net.cpp:157] Top shape: 4 512 48 48 (4718592)
I0227 23:39:41.651605 23345 net.cpp:157] Top shape: 4 512 48 48 (4718592)
I0227 23:39:41.651612 23345 net.cpp:157] Top shape: 4 512 48 48 (4718592)
I0227 23:39:41.651615 23345 net.cpp:165] Memory required for data: 6017315368
I0227 23:39:41.651620 23345 layer_factory.hpp:77] Creating layer LFCN_2_5x5
I0227 23:39:41.651635 23345 net.cpp:100] Creating Layer LFCN_2_5x5
I0227 23:39:41.651641 23345 net.cpp:434] LFCN_2_5x5 <- conv5_3_relu5_3_0_split_0
I0227 23:39:41.651654 23345 net.cpp:408] LFCN_2_5x5 -> LFCN_2_5x5
I0227 23:39:41.656622 23345 net.cpp:150] Setting up LFCN_2_5x5
I0227 23:39:41.656638 23345 net.cpp:157] Top shape: 4 9 48 48 (82944)
I0227 23:39:41.656643 23345 net.cpp:165] Memory required for data: 6017647144
I0227 23:39:41.656661 23345 layer_factory.hpp:77] Creating layer LFCN_2_5x5_LFCN_2_5x5_0_split
I0227 23:39:41.656672 23345 net.cpp:100] Creating Layer LFCN_2_5x5_LFCN_2_5x5_0_split
I0227 23:39:41.656677 23345 net.cpp:434] LFCN_2_5x5_LFCN_2_5x5_0_split <- LFCN_2_5x5
I0227 23:39:41.656684 23345 net.cpp:408] LFCN_2_5x5_LFCN_2_5x5_0_split -> LFCN_2_5x5_LFCN_2_5x5_0_split_0
I0227 23:39:41.656702 23345 net.cpp:408] LFCN_2_5x5_LFCN_2_5x5_0_split -> LFCN_2_5x5_LFCN_2_5x5_0_split_1
I0227 23:39:41.656744 23345 net.cpp:150] Setting up LFCN_2_5x5_LFCN_2_5x5_0_split
I0227 23:39:41.656754 23345 net.cpp:157] Top shape: 4 9 48 48 (82944)
I0227 23:39:41.656759 23345 net.cpp:157] Top shape: 4 9 48 48 (82944)
I0227 23:39:41.656764 23345 net.cpp:165] Memory required for data: 6018310696
I0227 23:39:41.656769 23345 layer_factory.hpp:77] Creating layer detection_loss_2_5x5
I0227 23:39:41.656781 23345 net.cpp:100] Creating Layer detection_loss_2_5x5
I0227 23:39:41.656790 23345 net.cpp:434] detection_loss_2_5x5 <- LFCN_2_5x5_LFCN_2_5x5_0_split_0
I0227 23:39:41.656796 23345 net.cpp:434] detection_loss_2_5x5 <- label_2_5x5_data_3_split_0
I0227 23:39:41.656803 23345 net.cpp:408] detection_loss_2_5x5 -> loss_2_5x5
I0227 23:39:41.656817 23345 layer_factory.hpp:77] Creating layer detection_loss_2_5x5
I0227 23:39:41.658257 23345 net.cpp:150] Setting up detection_loss_2_5x5
I0227 23:39:41.658273 23345 net.cpp:157] Top shape: 1 1 1 2 (2)
I0227 23:39:41.658278 23345 net.cpp:160]     with loss weight 1
I0227 23:39:41.658293 23345 net.cpp:165] Memory required for data: 6018310704
I0227 23:39:41.658299 23345 layer_factory.hpp:77] Creating layer detection_accuracy_2_5x5
I0227 23:39:41.658308 23345 net.cpp:100] Creating Layer detection_accuracy_2_5x5
I0227 23:39:41.658316 23345 net.cpp:434] detection_accuracy_2_5x5 <- LFCN_2_5x5_LFCN_2_5x5_0_split_1
I0227 23:39:41.658323 23345 net.cpp:434] detection_accuracy_2_5x5 <- label_2_5x5_data_3_split_1
I0227 23:39:41.658334 23345 net.cpp:408] detection_accuracy_2_5x5 -> accuracy_2_5x5
I0227 23:39:41.658345 23345 net.cpp:408] detection_accuracy_2_5x5 -> boxiou_2_5x5
I0227 23:39:41.658388 23345 net.cpp:150] Setting up detection_accuracy_2_5x5
I0227 23:39:41.658397 23345 net.cpp:157] Top shape: 1 1 1 2 (2)
I0227 23:39:41.658403 23345 net.cpp:157] Top shape: 1 1 1 1 (1)
I0227 23:39:41.658408 23345 net.cpp:165] Memory required for data: 6018310716
I0227 23:39:41.658413 23345 layer_factory.hpp:77] Creating layer LFCN_2_7x7
I0227 23:39:41.658428 23345 net.cpp:100] Creating Layer LFCN_2_7x7
I0227 23:39:41.658435 23345 net.cpp:434] LFCN_2_7x7 <- conv5_3_relu5_3_0_split_1
I0227 23:39:41.658443 23345 net.cpp:408] LFCN_2_7x7 -> LFCN_2_7x7
I0227 23:39:41.665699 23345 net.cpp:150] Setting up LFCN_2_7x7
I0227 23:39:41.665729 23345 net.cpp:157] Top shape: 4 9 48 48 (82944)
I0227 23:39:41.665737 23345 net.cpp:165] Memory required for data: 6018642492
I0227 23:39:41.665747 23345 layer_factory.hpp:77] Creating layer LFCN_2_7x7_LFCN_2_7x7_0_split
I0227 23:39:41.665760 23345 net.cpp:100] Creating Layer LFCN_2_7x7_LFCN_2_7x7_0_split
I0227 23:39:41.665768 23345 net.cpp:434] LFCN_2_7x7_LFCN_2_7x7_0_split <- LFCN_2_7x7
I0227 23:39:41.665776 23345 net.cpp:408] LFCN_2_7x7_LFCN_2_7x7_0_split -> LFCN_2_7x7_LFCN_2_7x7_0_split_0
I0227 23:39:41.665789 23345 net.cpp:408] LFCN_2_7x7_LFCN_2_7x7_0_split -> LFCN_2_7x7_LFCN_2_7x7_0_split_1
I0227 23:39:41.665833 23345 net.cpp:150] Setting up LFCN_2_7x7_LFCN_2_7x7_0_split
I0227 23:39:41.665843 23345 net.cpp:157] Top shape: 4 9 48 48 (82944)
I0227 23:39:41.665849 23345 net.cpp:157] Top shape: 4 9 48 48 (82944)
I0227 23:39:41.665853 23345 net.cpp:165] Memory required for data: 6019306044
I0227 23:39:41.665858 23345 layer_factory.hpp:77] Creating layer detection_loss_2_7x7
I0227 23:39:41.665869 23345 net.cpp:100] Creating Layer detection_loss_2_7x7
I0227 23:39:41.665875 23345 net.cpp:434] detection_loss_2_7x7 <- LFCN_2_7x7_LFCN_2_7x7_0_split_0
I0227 23:39:41.665882 23345 net.cpp:434] detection_loss_2_7x7 <- label_2_7x7_data_4_split_0
I0227 23:39:41.665892 23345 net.cpp:408] detection_loss_2_7x7 -> loss_2_7x7
I0227 23:39:41.665906 23345 layer_factory.hpp:77] Creating layer detection_loss_2_7x7
I0227 23:39:41.666653 23345 net.cpp:150] Setting up detection_loss_2_7x7
I0227 23:39:41.666667 23345 net.cpp:157] Top shape: 1 1 1 2 (2)
I0227 23:39:41.666672 23345 net.cpp:160]     with loss weight 1
I0227 23:39:41.666685 23345 net.cpp:165] Memory required for data: 6019306052
I0227 23:39:41.666692 23345 layer_factory.hpp:77] Creating layer detection_accuracy_2_7x7
I0227 23:39:41.666702 23345 net.cpp:100] Creating Layer detection_accuracy_2_7x7
I0227 23:39:41.666708 23345 net.cpp:434] detection_accuracy_2_7x7 <- LFCN_2_7x7_LFCN_2_7x7_0_split_1
I0227 23:39:41.666715 23345 net.cpp:434] detection_accuracy_2_7x7 <- label_2_7x7_data_4_split_1
I0227 23:39:41.666724 23345 net.cpp:408] detection_accuracy_2_7x7 -> accuracy_2_7x7
I0227 23:39:41.666735 23345 net.cpp:408] detection_accuracy_2_7x7 -> boxiou_2_7x7
I0227 23:39:41.666779 23345 net.cpp:150] Setting up detection_accuracy_2_7x7
I0227 23:39:41.666790 23345 net.cpp:157] Top shape: 1 1 1 2 (2)
I0227 23:39:41.666795 23345 net.cpp:157] Top shape: 1 1 1 1 (1)
I0227 23:39:41.666800 23345 net.cpp:165] Memory required for data: 6019306064
I0227 23:39:41.666805 23345 layer_factory.hpp:77] Creating layer pool5
I0227 23:39:41.666816 23345 net.cpp:100] Creating Layer pool5
I0227 23:39:41.666824 23345 net.cpp:434] pool5 <- conv5_3_relu5_3_0_split_2
I0227 23:39:41.666833 23345 net.cpp:408] pool5 -> pool5
I0227 23:39:41.666875 23345 net.cpp:150] Setting up pool5
I0227 23:39:41.666884 23345 net.cpp:157] Top shape: 4 512 24 24 (1179648)
I0227 23:39:41.666888 23345 net.cpp:165] Memory required for data: 6024024656
I0227 23:39:41.666893 23345 layer_factory.hpp:77] Creating layer conv6_1
I0227 23:39:41.666905 23345 net.cpp:100] Creating Layer conv6_1
I0227 23:39:41.666913 23345 net.cpp:434] conv6_1 <- pool5
I0227 23:39:41.666921 23345 net.cpp:408] conv6_1 -> conv6_1
I0227 23:39:41.730260 23345 net.cpp:150] Setting up conv6_1
I0227 23:39:41.730290 23345 net.cpp:157] Top shape: 4 512 24 24 (1179648)
I0227 23:39:41.730295 23345 net.cpp:165] Memory required for data: 6028743248
I0227 23:39:41.730306 23345 layer_factory.hpp:77] Creating layer relu6_1
I0227 23:39:41.730330 23345 net.cpp:100] Creating Layer relu6_1
I0227 23:39:41.730340 23345 net.cpp:434] relu6_1 <- conv6_1
I0227 23:39:41.730350 23345 net.cpp:395] relu6_1 -> conv6_1 (in-place)
I0227 23:39:41.730517 23345 net.cpp:150] Setting up relu6_1
I0227 23:39:41.730528 23345 net.cpp:157] Top shape: 4 512 24 24 (1179648)
I0227 23:39:41.730533 23345 net.cpp:165] Memory required for data: 6033461840
I0227 23:39:41.730538 23345 layer_factory.hpp:77] Creating layer conv6_1_relu6_1_0_split
I0227 23:39:41.730547 23345 net.cpp:100] Creating Layer conv6_1_relu6_1_0_split
I0227 23:39:41.730553 23345 net.cpp:434] conv6_1_relu6_1_0_split <- conv6_1
I0227 23:39:41.730562 23345 net.cpp:408] conv6_1_relu6_1_0_split -> conv6_1_relu6_1_0_split_0
I0227 23:39:41.730573 23345 net.cpp:408] conv6_1_relu6_1_0_split -> conv6_1_relu6_1_0_split_1
I0227 23:39:41.730583 23345 net.cpp:408] conv6_1_relu6_1_0_split -> conv6_1_relu6_1_0_split_2
I0227 23:39:41.730636 23345 net.cpp:150] Setting up conv6_1_relu6_1_0_split
I0227 23:39:41.730645 23345 net.cpp:157] Top shape: 4 512 24 24 (1179648)
I0227 23:39:41.730651 23345 net.cpp:157] Top shape: 4 512 24 24 (1179648)
I0227 23:39:41.730657 23345 net.cpp:157] Top shape: 4 512 24 24 (1179648)
I0227 23:39:41.730661 23345 net.cpp:165] Memory required for data: 6047617616
I0227 23:39:41.730666 23345 layer_factory.hpp:77] Creating layer LFCN_3_5x5
I0227 23:39:41.730681 23345 net.cpp:100] Creating Layer LFCN_3_5x5
I0227 23:39:41.730689 23345 net.cpp:434] LFCN_3_5x5 <- conv6_1_relu6_1_0_split_0
I0227 23:39:41.730697 23345 net.cpp:408] LFCN_3_5x5 -> LFCN_3_5x5
I0227 23:39:41.734597 23345 net.cpp:150] Setting up LFCN_3_5x5
I0227 23:39:41.734613 23345 net.cpp:157] Top shape: 4 9 24 24 (20736)
I0227 23:39:41.734619 23345 net.cpp:165] Memory required for data: 6047700560
I0227 23:39:41.734628 23345 layer_factory.hpp:77] Creating layer LFCN_3_5x5_LFCN_3_5x5_0_split
I0227 23:39:41.734637 23345 net.cpp:100] Creating Layer LFCN_3_5x5_LFCN_3_5x5_0_split
I0227 23:39:41.734643 23345 net.cpp:434] LFCN_3_5x5_LFCN_3_5x5_0_split <- LFCN_3_5x5
I0227 23:39:41.734650 23345 net.cpp:408] LFCN_3_5x5_LFCN_3_5x5_0_split -> LFCN_3_5x5_LFCN_3_5x5_0_split_0
I0227 23:39:41.734663 23345 net.cpp:408] LFCN_3_5x5_LFCN_3_5x5_0_split -> LFCN_3_5x5_LFCN_3_5x5_0_split_1
I0227 23:39:41.734704 23345 net.cpp:150] Setting up LFCN_3_5x5_LFCN_3_5x5_0_split
I0227 23:39:41.734714 23345 net.cpp:157] Top shape: 4 9 24 24 (20736)
I0227 23:39:41.734719 23345 net.cpp:157] Top shape: 4 9 24 24 (20736)
I0227 23:39:41.734724 23345 net.cpp:165] Memory required for data: 6047866448
I0227 23:39:41.734728 23345 layer_factory.hpp:77] Creating layer detection_loss_3_5x5
I0227 23:39:41.734737 23345 net.cpp:100] Creating Layer detection_loss_3_5x5
I0227 23:39:41.734743 23345 net.cpp:434] detection_loss_3_5x5 <- LFCN_3_5x5_LFCN_3_5x5_0_split_0
I0227 23:39:41.734750 23345 net.cpp:434] detection_loss_3_5x5 <- label_3_5x5_data_5_split_0
I0227 23:39:41.734761 23345 net.cpp:408] detection_loss_3_5x5 -> loss_3_5x5
I0227 23:39:41.734776 23345 layer_factory.hpp:77] Creating layer detection_loss_3_5x5
I0227 23:39:41.735093 23345 net.cpp:150] Setting up detection_loss_3_5x5
I0227 23:39:41.735105 23345 net.cpp:157] Top shape: 1 1 1 2 (2)
I0227 23:39:41.735110 23345 net.cpp:160]     with loss weight 1
I0227 23:39:41.735124 23345 net.cpp:165] Memory required for data: 6047866456
I0227 23:39:41.735129 23345 layer_factory.hpp:77] Creating layer detection_accuracy_3_5x5
I0227 23:39:41.735137 23345 net.cpp:100] Creating Layer detection_accuracy_3_5x5
I0227 23:39:41.735143 23345 net.cpp:434] detection_accuracy_3_5x5 <- LFCN_3_5x5_LFCN_3_5x5_0_split_1
I0227 23:39:41.735150 23345 net.cpp:434] detection_accuracy_3_5x5 <- label_3_5x5_data_5_split_1
I0227 23:39:41.735162 23345 net.cpp:408] detection_accuracy_3_5x5 -> accuracy_3_5x5
I0227 23:39:41.735172 23345 net.cpp:408] detection_accuracy_3_5x5 -> boxiou_3_5x5
I0227 23:39:41.735214 23345 net.cpp:150] Setting up detection_accuracy_3_5x5
I0227 23:39:41.735224 23345 net.cpp:157] Top shape: 1 1 1 2 (2)
I0227 23:39:41.735229 23345 net.cpp:157] Top shape: 1 1 1 1 (1)
I0227 23:39:41.735234 23345 net.cpp:165] Memory required for data: 6047866468
I0227 23:39:41.735239 23345 layer_factory.hpp:77] Creating layer LFCN_3_7x7
I0227 23:39:41.735250 23345 net.cpp:100] Creating Layer LFCN_3_7x7
I0227 23:39:41.735257 23345 net.cpp:434] LFCN_3_7x7 <- conv6_1_relu6_1_0_split_1
I0227 23:39:41.735266 23345 net.cpp:408] LFCN_3_7x7 -> LFCN_3_7x7
I0227 23:39:41.744434 23345 net.cpp:150] Setting up LFCN_3_7x7
I0227 23:39:41.744465 23345 net.cpp:157] Top shape: 4 9 24 24 (20736)
I0227 23:39:41.744472 23345 net.cpp:165] Memory required for data: 6047949412
I0227 23:39:41.744483 23345 layer_factory.hpp:77] Creating layer LFCN_3_7x7_LFCN_3_7x7_0_split
I0227 23:39:41.744495 23345 net.cpp:100] Creating Layer LFCN_3_7x7_LFCN_3_7x7_0_split
I0227 23:39:41.744503 23345 net.cpp:434] LFCN_3_7x7_LFCN_3_7x7_0_split <- LFCN_3_7x7
I0227 23:39:41.744514 23345 net.cpp:408] LFCN_3_7x7_LFCN_3_7x7_0_split -> LFCN_3_7x7_LFCN_3_7x7_0_split_0
I0227 23:39:41.744527 23345 net.cpp:408] LFCN_3_7x7_LFCN_3_7x7_0_split -> LFCN_3_7x7_LFCN_3_7x7_0_split_1
I0227 23:39:41.744572 23345 net.cpp:150] Setting up LFCN_3_7x7_LFCN_3_7x7_0_split
I0227 23:39:41.744583 23345 net.cpp:157] Top shape: 4 9 24 24 (20736)
I0227 23:39:41.744590 23345 net.cpp:157] Top shape: 4 9 24 24 (20736)
I0227 23:39:41.744594 23345 net.cpp:165] Memory required for data: 6048115300
I0227 23:39:41.744599 23345 layer_factory.hpp:77] Creating layer detection_loss_3_7x7
I0227 23:39:41.744609 23345 net.cpp:100] Creating Layer detection_loss_3_7x7
I0227 23:39:41.744614 23345 net.cpp:434] detection_loss_3_7x7 <- LFCN_3_7x7_LFCN_3_7x7_0_split_0
I0227 23:39:41.744621 23345 net.cpp:434] detection_loss_3_7x7 <- label_3_7x7_data_6_split_0
I0227 23:39:41.744630 23345 net.cpp:408] detection_loss_3_7x7 -> loss_3_7x7
I0227 23:39:41.744644 23345 layer_factory.hpp:77] Creating layer detection_loss_3_7x7
I0227 23:39:41.744961 23345 net.cpp:150] Setting up detection_loss_3_7x7
I0227 23:39:41.744972 23345 net.cpp:157] Top shape: 1 1 1 2 (2)
I0227 23:39:41.744977 23345 net.cpp:160]     with loss weight 1
I0227 23:39:41.744992 23345 net.cpp:165] Memory required for data: 6048115308
I0227 23:39:41.744997 23345 layer_factory.hpp:77] Creating layer detection_accuracy_3_7x7
I0227 23:39:41.745008 23345 net.cpp:100] Creating Layer detection_accuracy_3_7x7
I0227 23:39:41.745015 23345 net.cpp:434] detection_accuracy_3_7x7 <- LFCN_3_7x7_LFCN_3_7x7_0_split_1
I0227 23:39:41.745021 23345 net.cpp:434] detection_accuracy_3_7x7 <- label_3_7x7_data_6_split_1
I0227 23:39:41.745029 23345 net.cpp:408] detection_accuracy_3_7x7 -> accuracy_3_7x7
I0227 23:39:41.745039 23345 net.cpp:408] detection_accuracy_3_7x7 -> boxiou_3_7x7
I0227 23:39:41.745085 23345 net.cpp:150] Setting up detection_accuracy_3_7x7
I0227 23:39:41.745093 23345 net.cpp:157] Top shape: 1 1 1 2 (2)
I0227 23:39:41.745100 23345 net.cpp:157] Top shape: 1 1 1 1 (1)
I0227 23:39:41.745103 23345 net.cpp:165] Memory required for data: 6048115320
I0227 23:39:41.745107 23345 layer_factory.hpp:77] Creating layer pool6
I0227 23:39:41.745116 23345 net.cpp:100] Creating Layer pool6
I0227 23:39:41.745123 23345 net.cpp:434] pool6 <- conv6_1_relu6_1_0_split_2
I0227 23:39:41.745132 23345 net.cpp:408] pool6 -> pool6
I0227 23:39:41.745174 23345 net.cpp:150] Setting up pool6
I0227 23:39:41.745183 23345 net.cpp:157] Top shape: 4 512 12 12 (294912)
I0227 23:39:41.745188 23345 net.cpp:165] Memory required for data: 6049294968
I0227 23:39:41.745193 23345 layer_factory.hpp:77] Creating layer LFCN_4_5x5
I0227 23:39:41.745206 23345 net.cpp:100] Creating Layer LFCN_4_5x5
I0227 23:39:41.745211 23345 net.cpp:434] LFCN_4_5x5 <- pool6
I0227 23:39:41.745221 23345 net.cpp:408] LFCN_4_5x5 -> LFCN_4_5x5
I0227 23:39:41.749203 23345 net.cpp:150] Setting up LFCN_4_5x5
I0227 23:39:41.749219 23345 net.cpp:157] Top shape: 4 9 12 12 (5184)
I0227 23:39:41.749223 23345 net.cpp:165] Memory required for data: 6049315704
I0227 23:39:41.749233 23345 layer_factory.hpp:77] Creating layer LFCN_4_5x5_LFCN_4_5x5_0_split
I0227 23:39:41.749240 23345 net.cpp:100] Creating Layer LFCN_4_5x5_LFCN_4_5x5_0_split
I0227 23:39:41.749248 23345 net.cpp:434] LFCN_4_5x5_LFCN_4_5x5_0_split <- LFCN_4_5x5
I0227 23:39:41.749253 23345 net.cpp:408] LFCN_4_5x5_LFCN_4_5x5_0_split -> LFCN_4_5x5_LFCN_4_5x5_0_split_0
I0227 23:39:41.749264 23345 net.cpp:408] LFCN_4_5x5_LFCN_4_5x5_0_split -> LFCN_4_5x5_LFCN_4_5x5_0_split_1
I0227 23:39:41.749303 23345 net.cpp:150] Setting up LFCN_4_5x5_LFCN_4_5x5_0_split
I0227 23:39:41.749312 23345 net.cpp:157] Top shape: 4 9 12 12 (5184)
I0227 23:39:41.749318 23345 net.cpp:157] Top shape: 4 9 12 12 (5184)
I0227 23:39:41.749325 23345 net.cpp:165] Memory required for data: 6049357176
I0227 23:39:41.749328 23345 layer_factory.hpp:77] Creating layer detection_loss_4_5x5
I0227 23:39:41.749339 23345 net.cpp:100] Creating Layer detection_loss_4_5x5
I0227 23:39:41.749346 23345 net.cpp:434] detection_loss_4_5x5 <- LFCN_4_5x5_LFCN_4_5x5_0_split_0
I0227 23:39:41.749352 23345 net.cpp:434] detection_loss_4_5x5 <- label_4_5x5_data_7_split_0
I0227 23:39:41.749363 23345 net.cpp:408] detection_loss_4_5x5 -> loss_4_5x5
I0227 23:39:41.749377 23345 layer_factory.hpp:77] Creating layer detection_loss_4_5x5
I0227 23:39:41.749693 23345 net.cpp:150] Setting up detection_loss_4_5x5
I0227 23:39:41.749706 23345 net.cpp:157] Top shape: 1 1 1 2 (2)
I0227 23:39:41.749711 23345 net.cpp:160]     with loss weight 1
I0227 23:39:41.749722 23345 net.cpp:165] Memory required for data: 6049357184
I0227 23:39:41.749727 23345 layer_factory.hpp:77] Creating layer detection_accuracy_4_5x5
I0227 23:39:41.749737 23345 net.cpp:100] Creating Layer detection_accuracy_4_5x5
I0227 23:39:41.749742 23345 net.cpp:434] detection_accuracy_4_5x5 <- LFCN_4_5x5_LFCN_4_5x5_0_split_1
I0227 23:39:41.749747 23345 net.cpp:434] detection_accuracy_4_5x5 <- label_4_5x5_data_7_split_1
I0227 23:39:41.749756 23345 net.cpp:408] detection_accuracy_4_5x5 -> accuracy_4_5x5
I0227 23:39:41.749768 23345 net.cpp:408] detection_accuracy_4_5x5 -> boxiou_4_5x5
I0227 23:39:41.749811 23345 net.cpp:150] Setting up detection_accuracy_4_5x5
I0227 23:39:41.749820 23345 net.cpp:157] Top shape: 1 1 1 2 (2)
I0227 23:39:41.749826 23345 net.cpp:157] Top shape: 1 1 1 1 (1)
I0227 23:39:41.749830 23345 net.cpp:165] Memory required for data: 6049357196
I0227 23:39:41.749835 23345 net.cpp:228] detection_accuracy_4_5x5 does not need backward computation.
I0227 23:39:41.749840 23345 net.cpp:226] detection_loss_4_5x5 needs backward computation.
I0227 23:39:41.749845 23345 net.cpp:226] LFCN_4_5x5_LFCN_4_5x5_0_split needs backward computation.
I0227 23:39:41.749852 23345 net.cpp:226] LFCN_4_5x5 needs backward computation.
…
I0227 23:39:41.762537 23345 image_gt_data_layer.cpp:235] output label size 1 : 2,6,96,96
I0227 23:39:41.762588 23345 image_gt_data_layer.cpp:235] output label size 2 : 2,6,48,48
I0227 23:39:41.762636 23345 image_gt_data_layer.cpp:235] output label size 3 : 2,6,48,48
I0227 23:39:41.762686 23345 image_gt_data_layer.cpp:235] output label size 4 : 2,6,24,24
I0227 23:39:41.762734 23345 image_gt_data_layer.cpp:235] output label size 5 : 2,6,24,24
I0227 23:39:41.762785 23345 image_gt_data_layer.cpp:235] output label size 6 : 2,6,12,12
I0227 23:39:41.800467 23345 net.cpp:150] Setting up data
I0227 23:39:41.800498 23345 net.cpp:157] Top shape: 2 4 768 768 (4718592)
I0227 23:39:41.800505 23345 net.cpp:157] Top shape: 2 6 96 96 (110592)
I0227 23:39:41.800511 23345 net.cpp:157] Top shape: 2 6 96 96 (110592)
I0227 23:39:41.800518 23345 net.cpp:157] Top shape: 2 6 48 48 (27648)
I0227 23:39:41.800525 23345 net.cpp:157] Top shape: 2 6 48 48 (27648)
I0227 23:39:41.800531 23345 net.cpp:157] Top shape: 2 6 24 24 (6912)
I0227 23:39:41.800539 23345 net.cpp:157] Top shape: 2 6 24 24 (6912)
I0227 23:39:41.800545 23345 net.cpp:157] Top shape: 2 6 12 12 (1728)
I0227 23:39:41.800551 23345 net.cpp:165] Memory required for data: 20042496
I0227 23:39:41.800560 23345 layer_factory.hpp:77] Creating layer label_1_5x5_data_1_split
I0227 23:39:41.800577 23345 net.cpp:100] Creating Layer label_1_5x5_data_1_split
I0227 23:39:41.800585 23345 net.cpp:434] label_1_5x5_data_1_split <- label_1_5x5
I0227 23:39:41.800592 23345 net.cpp:408] label_1_5x5_data_1_split -> label_1_5x5_data_1_split_0
I0227 23:39:41.800607 23345 net.cpp:408] label_1_5x5_data_1_split -> label_1_5x5_data_1_split_1
I0227 23:39:41.800912 23345 net.cpp:150] Setting up label_1_5x5_data_1_split
I0227 23:39:41.800962 23345 net.cpp:157] Top shape: 2 6 96 96 (110592)
I0227 23:39:41.800976 23345 net.cpp:157] Top shape: 2 6 96 96 (110592)
I0227 23:39:41.800984 23345 net.cpp:165] Memory required for data: 20927232
I0227 23:39:41.800998 23345 layer_factory.hpp:77] Creating layer label_1_7x7_data_2_split
I0227 23:39:41.801019 23345 net.cpp:100] Creating Layer label_1_7x7_data_2_split
I0227 23:39:41.801030 23345 net.cpp:434] label_1_7x7_data_2_split <- label_1_7x7
I0227 23:39:41.801043 23345 net.cpp:408] label_1_7x7_data_2_split -> label_1_7x7_data_2_split_0
I0227 23:39:41.801062 23345 net.cpp:408] label_1_7x7_data_2_split -> label_1_7x7_data_2_split_1
I0227 23:39:41.801141 23345 net.cpp:150] Setting up label_1_7x7_data_2_split
I0227 23:39:41.801154 23345 net.cpp:157] Top shape: 2 6 96 96 (110592)
I0227 23:39:41.801164 23345 net.cpp:157] Top shape: 2 6 96 96 (110592)
I0227 23:39:41.801173 23345 net.cpp:165] Memory required for data: 21811968
I0227 23:39:41.801182 23345 layer_factory.hpp:77] Creating layer label_2_5x5_data_3_split
I0227 23:39:41.801193 23345 net.cpp:100] Creating Layer label_2_5x5_data_3_split
I0227 23:39:41.801203 23345 net.cpp:434] label_2_5x5_data_3_split <- label_2_5x5
I0227 23:39:41.801215 23345 net.cpp:408] label_2_5x5_data_3_split -> label_2_5x5_data_3_split_0
I0227 23:39:41.801229 23345 net.cpp:408] label_2_5x5_data_3_split -> label_2_5x5_data_3_split_1
I0227 23:39:41.801298 23345 net.cpp:150] Setting up label_2_5x5_data_3_split
I0227 23:39:41.801311 23345 net.cpp:157] Top shape: 2 6 48 48 (27648)
I0227 23:39:41.801321 23345 net.cpp:157] Top shape: 2 6 48 48 (27648)
I0227 23:39:41.801329 23345 net.cpp:165] Memory required for data: 22033152
I0227 23:39:41.801338 23345 layer_factory.hpp:77] Creating layer label_2_7x7_data_4_split
I0227 23:39:41.801352 23345 net.cpp:100] Creating Layer label_2_7x7_data_4_split
I0227 23:39:41.801360 23345 net.cpp:434] label_2_7x7_data_4_split <- label_2_7x7
I0227 23:39:41.801373 23345 net.cpp:408] label_2_7x7_data_4_split -> label_2_7x7_data_4_split_0
I0227 23:39:41.801386 23345 net.cpp:408] label_2_7x7_data_4_split -> label_2_7x7_data_4_split_1
I0227 23:39:41.801453 23345 net.cpp:150] Setting up label_2_7x7_data_4_split
I0227 23:39:41.801466 23345 net.cpp:157] Top shape: 2 6 48 48 (27648)
I0227 23:39:41.801476 23345 net.cpp:157] Top shape: 2 6 48 48 (27648)
I0227 23:39:41.801486 23345 net.cpp:165] Memory required for data: 22254336
I0227 23:39:41.801494 23345 layer_factory.hpp:77] Creating layer label_3_5x5_data_5_split
I0227 23:39:41.801506 23345 net.cpp:100] Creating Layer label_3_5x5_data_5_split
I0227 23:39:41.801514 23345 net.cpp:434] label_3_5x5_data_5_split <- label_3_5x5
I0227 23:39:41.801525 23345 net.cpp:408] label_3_5x5_data_5_split -> label_3_5x5_data_5_split_0
I0227 23:39:41.801542 23345 net.cpp:408] label_3_5x5_data_5_split -> label_3_5x5_data_5_split_1
I0227 23:39:41.801618 23345 net.cpp:150] Setting up label_3_5x5_data_5_split
I0227 23:39:41.801633 23345 net.cpp:157] Top shape: 2 6 24 24 (6912)
I0227 23:39:41.801645 23345 net.cpp:157] Top shape: 2 6 24 24 (6912)
I0227 23:39:41.801652 23345 net.cpp:165] Memory required for data: 22309632
I0227 23:39:41.801661 23345 layer_factory.hpp:77] Creating layer label_3_7x7_data_6_split
I0227 23:39:41.801672 23345 net.cpp:100] Creating Layer label_3_7x7_data_6_split
I0227 23:39:41.801681 23345 net.cpp:434] label_3_7x7_data_6_split <- label_3_7x7
I0227 23:39:41.801693 23345 net.cpp:408] label_3_7x7_data_6_split -> label_3_7x7_data_6_split_0
I0227 23:39:41.801709 23345 net.cpp:408] label_3_7x7_data_6_split -> label_3_7x7_data_6_split_1
I0227 23:39:41.801786 23345 net.cpp:150] Setting up label_3_7x7_data_6_split
I0227 23:39:41.801800 23345 net.cpp:157] Top shape: 2 6 24 24 (6912)
I0227 23:39:41.801811 23345 net.cpp:157] Top shape: 2 6 24 24 (6912)
I0227 23:39:41.801820 23345 net.cpp:165] Memory required for data: 22364928
I0227 23:39:41.801827 23345 layer_factory.hpp:77] Creating layer label_4_5x5_data_7_split
I0227 23:39:41.801838 23345 net.cpp:100] Creating Layer label_4_5x5_data_7_split
I0227 23:39:41.801847 23345 net.cpp:434] label_4_5x5_data_7_split <- label_4_5x5
I0227 23:39:41.801859 23345 net.cpp:408] label_4_5x5_data_7_split -> label_4_5x5_data_7_split_0
I0227 23:39:41.801873 23345 net.cpp:408] label_4_5x5_data_7_split -> label_4_5x5_data_7_split_1
I0227 23:39:41.801946 23345 net.cpp:150] Setting up label_4_5x5_data_7_split
I0227 23:39:41.801959 23345 net.cpp:157] Top shape: 2 6 12 12 (1728)
I0227 23:39:41.801970 23345 net.cpp:157] Top shape: 2 6 12 12 (1728)
I0227 23:39:41.801977 23345 net.cpp:165] Memory required for data: 22378752
I0227 23:39:41.801986 23345 layer_factory.hpp:77] Creating layer slice
I0227 23:39:41.802001 23345 net.cpp:100] Creating Layer slice
I0227 23:39:41.802011 23345 net.cpp:434] slice <- data
I0227 23:39:41.802024 23345 net.cpp:408] slice -> data123
I0227 23:39:41.802038 23345 net.cpp:408] slice -> ch4
I0227 23:39:41.802131 23345 net.cpp:150] Setting up slice
I0227 23:39:41.802146 23345 net.cpp:157] Top shape: 2 3 768 768 (3538944)
I0227 23:39:41.802157 23345 net.cpp:157] Top shape: 2 1 768 768 (1179648)
I0227 23:39:41.802165 23345 net.cpp:165] Memory required for data: 41253120
I0227 23:39:41.802173 23345 layer_factory.hpp:77] Creating layer conv1_1
I0227 23:39:41.802194 23345 net.cpp:100] Creating Layer conv1_1
I0227 23:39:41.802203 23345 net.cpp:434] conv1_1 <- data123
I0227 23:39:41.802215 23345 net.cpp:408] conv1_1 -> conv1_1
I0227 23:39:41.811051 23345 net.cpp:150] Setting up conv1_1
I0227 23:39:41.811090 23345 net.cpp:157] Top shape: 2 64 768 768 (75497472)
I0227 23:39:41.811100 23345 net.cpp:165] Memory required for data: 343243008
I0227 23:39:41.811125 23345 layer_factory.hpp:77] Creating layer relu1_1
I0227 23:39:41.811144 23345 net.cpp:100] Creating Layer relu1_1
I0227 23:39:41.811156 23345 net.cpp:434] relu1_1 <- conv1_1
I0227 23:39:41.811172 23345 net.cpp:395] relu1_1 -> conv1_1 (in-place)
I0227 23:39:41.812219 23345 net.cpp:150] Setting up relu1_1
I0227 23:39:41.812245 23345 net.cpp:157] Top shape: 2 64 768 768 (75497472)
I0227 23:39:41.812254 23345 net.cpp:165] Memory required for data: 645232896
I0227 23:39:41.812263 23345 layer_factory.hpp:77] Creating layer conv1_2
I0227 23:39:41.812281 23345 net.cpp:100] Creating Layer conv1_2
I0227 23:39:41.812290 23345 net.cpp:434] conv1_2 <- conv1_1
I0227 23:39:41.812302 23345 net.cpp:408] conv1_2 -> conv1_2
I0227 23:39:41.816725 23345 net.cpp:150] Setting up conv1_2
I0227 23:39:41.816746 23345 net.cpp:157] Top shape: 2 64 768 768 (75497472)
I0227 23:39:41.816751 23345 net.cpp:165] Memory required for data: 947222784
I0227 23:39:41.816762 23345 layer_factory.hpp:77] Creating layer relu1_2
I0227 23:39:41.816771 23345 net.cpp:100] Creating Layer relu1_2
I0227 23:39:41.816776 23345 net.cpp:434] relu1_2 <- conv1_2
I0227 23:39:41.816783 23345 net.cpp:395] relu1_2 -> conv1_2 (in-place)
I0227 23:39:41.816988 23345 net.cpp:150] Setting up relu1_2
I0227 23:39:41.816998 23345 net.cpp:157] Top shape: 2 64 768 768 (75497472)
I0227 23:39:41.817003 23345 net.cpp:165] Memory required for data: 1249212672
I0227 23:39:41.817006 23345 layer_factory.hpp:77] Creating layer pool1
I0227 23:39:41.817014 23345 net.cpp:100] Creating Layer pool1
I0227 23:39:41.817019 23345 net.cpp:434] pool1 <- conv1_2
I0227 23:39:41.817026 23345 net.cpp:408] pool1 -> pool1
I0227 23:39:41.817077 23345 net.cpp:150] Setting up pool1
I0227 23:39:41.817085 23345 net.cpp:157] Top shape: 2 64 384 384 (18874368)
I0227 23:39:41.817088 23345 net.cpp:165] Memory required for data: 1324710144
I0227 23:39:41.817092 23345 layer_factory.hpp:77] Creating layer conv2_1
I0227 23:39:41.817101 23345 net.cpp:100] Creating Layer conv2_1
I0227 23:39:41.817106 23345 net.cpp:434] conv2_1 <- pool1
I0227 23:39:41.817111 23345 net.cpp:408] conv2_1 -> conv2_1
I0227 23:39:41.819391 23345 net.cpp:150] Setting up conv2_1
I0227 23:39:41.819408 23345 net.cpp:157] Top shape: 2 128 384 384 (37748736)
I0227 23:39:41.819413 23345 net.cpp:165] Memory required for data: 1475705088
I0227 23:39:41.819425 23345 layer_factory.hpp:77] Creating layer relu2_1
I0227 23:39:41.819433 23345 net.cpp:100] Creating Layer relu2_1
I0227 23:39:41.819437 23345 net.cpp:434] relu2_1 <- conv2_1
I0227 23:39:41.819444 23345 net.cpp:395] relu2_1 -> conv2_1 (in-place)
I0227 23:39:41.819644 23345 net.cpp:150] Setting up relu2_1
I0227 23:39:41.819654 23345 net.cpp:157] Top shape: 2 128 384 384 (37748736)
I0227 23:39:41.819659 23345 net.cpp:165] Memory required for data: 1626700032
I0227 23:39:41.819664 23345 layer_factory.hpp:77] Creating layer conv2_2
I0227 23:39:41.819674 23345 net.cpp:100] Creating Layer conv2_2
I0227 23:39:41.819679 23345 net.cpp:434] conv2_2 <- conv2_1
I0227 23:39:41.819684 23345 net.cpp:408] conv2_2 -> conv2_2
I0227 23:39:41.823312 23345 net.cpp:150] Setting up conv2_2
I0227 23:39:41.823352 23345 net.cpp:157] Top shape: 2 128 384 384 (37748736)
I0227 23:39:41.823359 23345 net.cpp:165] Memory required for data: 1777694976
I0227 23:39:41.823379 23345 layer_factory.hpp:77] Creating layer relu2_2
I0227 23:39:41.823398 23345 net.cpp:100] Creating Layer relu2_2
I0227 23:39:41.823410 23345 net.cpp:434] relu2_2 <- conv2_2
I0227 23:39:41.823421 23345 net.cpp:395] relu2_2 -> conv2_2 (in-place)
I0227 23:39:41.823757 23345 net.cpp:150] Setting up relu2_2
I0227 23:39:41.823771 23345 net.cpp:157] Top shape: 2 128 384 384 (37748736)
I0227 23:39:41.823776 23345 net.cpp:165] Memory required for data: 1928689920
I0227 23:39:41.823783 23345 layer_factory.hpp:77] Creating layer pool2
I0227 23:39:41.823797 23345 net.cpp:100] Creating Layer pool2
I0227 23:39:41.823806 23345 net.cpp:434] pool2 <- conv2_2
I0227 23:39:41.823815 23345 net.cpp:408] pool2 -> pool2
I0227 23:39:41.823894 23345 net.cpp:150] Setting up pool2
I0227 23:39:41.823904 23345 net.cpp:157] Top shape: 2 128 192 192 (9437184)
I0227 23:39:41.823907 23345 net.cpp:165] Memory required for data: 1966438656
I0227 23:39:41.823912 23345 layer_factory.hpp:77] Creating layer conv3_1
I0227 23:39:41.823925 23345 net.cpp:100] Creating Layer conv3_1
I0227 23:39:41.823932 23345 net.cpp:434] conv3_1 <- pool2
I0227 23:39:41.823941 23345 net.cpp:408] conv3_1 -> conv3_1
I0227 23:39:41.829463 23345 net.cpp:150] Setting up conv3_1
I0227 23:39:41.829525 23345 net.cpp:157] Top shape: 2 256 192 192 (18874368)
I0227 23:39:41.829531 23345 net.cpp:165] Memory required for data: 2041936128
I0227 23:39:41.829560 23345 layer_factory.hpp:77] Creating layer relu3_1
I0227 23:39:41.829602 23345 net.cpp:100] Creating Layer relu3_1
I0227 23:39:41.829610 23345 net.cpp:434] relu3_1 <- conv3_1
I0227 23:39:41.829623 23345 net.cpp:395] relu3_1 -> conv3_1 (in-place)
I0227 23:39:41.829879 23345 net.cpp:150] Setting up relu3_1
I0227 23:39:41.829896 23345 net.cpp:157] Top shape: 2 256 192 192 (18874368)
I0227 23:39:41.829900 23345 net.cpp:165] Memory required for data: 2117433600
I0227 23:39:41.829905 23345 layer_factory.hpp:77] Creating layer conv3_2
I0227 23:39:41.829926 23345 net.cpp:100] Creating Layer conv3_2
I0227 23:39:41.829931 23345 net.cpp:434] conv3_2 <- conv3_1
I0227 23:39:41.829941 23345 net.cpp:408] conv3_2 -> conv3_2
I0227 23:39:41.833827 23345 net.cpp:150] Setting up conv3_2
I0227 23:39:41.833854 23345 net.cpp:157] Top shape: 2 256 192 192 (18874368)
I0227 23:39:41.833858 23345 net.cpp:165] Memory required for data: 2192931072
I0227 23:39:41.833873 23345 layer_factory.hpp:77] Creating layer relu3_2
I0227 23:39:41.833884 23345 net.cpp:100] Creating Layer relu3_2
I0227 23:39:41.833892 23345 net.cpp:434] relu3_2 <- conv3_2
I0227 23:39:41.833907 23345 net.cpp:395] relu3_2 -> conv3_2 (in-place)
I0227 23:39:41.834161 23345 net.cpp:150] Setting up relu3_2
I0227 23:39:41.834182 23345 net.cpp:157] Top shape: 2 256 192 192 (18874368)
I0227 23:39:41.834187 23345 net.cpp:165] Memory required for data: 2268428544
I0227 23:39:41.834192 23345 layer_factory.hpp:77] Creating layer conv3_3
I0227 23:39:41.834210 23345 net.cpp:100] Creating Layer conv3_3
I0227 23:39:41.834234 23345 net.cpp:434] conv3_3 <- conv3_2
I0227 23:39:41.834244 23345 net.cpp:408] conv3_3 -> conv3_3
I0227 23:39:41.839166 23345 net.cpp:150] Setting up conv3_3
I0227 23:39:41.839220 23345 net.cpp:157] Top shape: 2 256 192 192 (18874368)
I0227 23:39:41.839224 23345 net.cpp:165] Memory required for data: 2343926016
I0227 23:39:41.839238 23345 layer_factory.hpp:77] Creating layer relu3_3
I0227 23:39:41.839258 23345 net.cpp:100] Creating Layer relu3_3
I0227 23:39:41.839267 23345 net.cpp:434] relu3_3 <- conv3_3
I0227 23:39:41.839274 23345 net.cpp:395] relu3_3 -> conv3_3 (in-place)
I0227 23:39:41.839857 23345 net.cpp:150] Setting up relu3_3
I0227 23:39:41.839869 23345 net.cpp:157] Top shape: 2 256 192 192 (18874368)
I0227 23:39:41.839874 23345 net.cpp:165] Memory required for data: 2419423488
I0227 23:39:41.839876 23345 layer_factory.hpp:77] Creating layer pool3
I0227 23:39:41.839886 23345 net.cpp:100] Creating Layer pool3
I0227 23:39:41.839890 23345 net.cpp:434] pool3 <- conv3_3
I0227 23:39:41.839896 23345 net.cpp:408] pool3 -> pool3
I0227 23:39:41.839973 23345 net.cpp:150] Setting up pool3
I0227 23:39:41.839979 23345 net.cpp:157] Top shape: 2 256 96 96 (4718592)
I0227 23:39:41.839982 23345 net.cpp:165] Memory required for data: 2438297856
I0227 23:39:41.839987 23345 layer_factory.hpp:77] Creating layer ch4_pool3
I0227 23:39:41.839992 23345 net.cpp:100] Creating Layer ch4_pool3
I0227 23:39:41.839995 23345 net.cpp:434] ch4_pool3 <- ch4
I0227 23:39:41.840001 23345 net.cpp:408] ch4_pool3 -> ch4_pool3
I0227 23:39:41.840036 23345 net.cpp:150] Setting up ch4_pool3
I0227 23:39:41.840042 23345 net.cpp:157] Top shape: 2 1 96 96 (18432)
I0227 23:39:41.840045 23345 net.cpp:165] Memory required for data: 2438371584
I0227 23:39:41.840049 23345 layer_factory.hpp:77] Creating layer pool3_concat
I0227 23:39:41.840056 23345 net.cpp:100] Creating Layer pool3_concat
I0227 23:39:41.840059 23345 net.cpp:434] pool3_concat <- pool3
I0227 23:39:41.840064 23345 net.cpp:434] pool3_concat <- ch4_pool3
I0227 23:39:41.840070 23345 net.cpp:408] pool3_concat -> pool3_new
I0227 23:39:41.840091 23345 net.cpp:150] Setting up pool3_concat
I0227 23:39:41.840097 23345 net.cpp:157] Top shape: 2 257 96 96 (4737024)
I0227 23:39:41.840101 23345 net.cpp:165] Memory required for data: 2457319680
I0227 23:39:41.840103 23345 layer_factory.hpp:77] Creating layer conv4_1_new
I0227 23:39:41.840114 23345 net.cpp:100] Creating Layer conv4_1_new
I0227 23:39:41.840117 23345 net.cpp:434] conv4_1_new <- pool3_new
I0227 23:39:41.840123 23345 net.cpp:408] conv4_1_new -> conv4_1
I0227 23:39:41.844743 23345 net.cpp:150] Setting up conv4_1_new
I0227 23:39:41.844775 23345 net.cpp:157] Top shape: 2 512 96 96 (9437184)
I0227 23:39:41.844779 23345 net.cpp:165] Memory required for data: 2495068416
I0227 23:39:41.844789 23345 layer_factory.hpp:77] Creating layer relu4_1
I0227 23:39:41.844801 23345 net.cpp:100] Creating Layer relu4_1
I0227 23:39:41.844807 23345 net.cpp:434] relu4_1 <- conv4_1
I0227 23:39:41.844813 23345 net.cpp:395] relu4_1 -> conv4_1 (in-place)
I0227 23:39:41.844977 23345 net.cpp:150] Setting up relu4_1
I0227 23:39:41.844986 23345 net.cpp:157] Top shape: 2 512 96 96 (9437184)
I0227 23:39:41.844990 23345 net.cpp:165] Memory required for data: 2532817152
I0227 23:39:41.844993 23345 layer_factory.hpp:77] Creating layer conv4_2
I0227 23:39:41.845002 23345 net.cpp:100] Creating Layer conv4_2
I0227 23:39:41.845007 23345 net.cpp:434] conv4_2 <- conv4_1
I0227 23:39:41.845012 23345 net.cpp:408] conv4_2 -> conv4_2
I0227 23:39:41.853628 23345 net.cpp:150] Setting up conv4_2
I0227 23:39:41.853665 23345 net.cpp:157] Top shape: 2 512 96 96 (9437184)
I0227 23:39:41.853669 23345 net.cpp:165] Memory required for data: 2570565888
I0227 23:39:41.853687 23345 layer_factory.hpp:77] Creating layer relu4_2
I0227 23:39:41.853701 23345 net.cpp:100] Creating Layer relu4_2
I0227 23:39:41.853709 23345 net.cpp:434] relu4_2 <- conv4_2
I0227 23:39:41.853714 23345 net.cpp:395] relu4_2 -> conv4_2 (in-place)
I0227 23:39:41.853881 23345 net.cpp:150] Setting up relu4_2
I0227 23:39:41.853890 23345 net.cpp:157] Top shape: 2 512 96 96 (9437184)
I0227 23:39:41.853893 23345 net.cpp:165] Memory required for data: 2608314624
I0227 23:39:41.853896 23345 layer_factory.hpp:77] Creating layer conv4_3
I0227 23:39:41.853911 23345 net.cpp:100] Creating Layer conv4_3
I0227 23:39:41.853915 23345 net.cpp:434] conv4_3 <- conv4_2
I0227 23:39:41.853922 23345 net.cpp:408] conv4_3 -> conv4_3
I0227 23:39:41.863749 23345 net.cpp:150] Setting up conv4_3
I0227 23:39:41.863785 23345 net.cpp:157] Top shape: 2 512 96 96 (9437184)
I0227 23:39:41.863788 23345 net.cpp:165] Memory required for data: 2646063360
I0227 23:39:41.863800 23345 layer_factory.hpp:77] Creating layer relu4_3
I0227 23:39:41.863813 23345 net.cpp:100] Creating Layer relu4_3
I0227 23:39:41.863819 23345 net.cpp:434] relu4_3 <- conv4_3
I0227 23:39:41.863828 23345 net.cpp:395] relu4_3 -> conv4_3 (in-place)
I0227 23:39:41.864003 23345 net.cpp:150] Setting up relu4_3
I0227 23:39:41.864012 23345 net.cpp:157] Top shape: 2 512 96 96 (9437184)
I0227 23:39:41.864017 23345 net.cpp:165] Memory required for data: 2683812096
I0227 23:39:41.864020 23345 layer_factory.hpp:77] Creating layer conv4_3_relu4_3_0_split
I0227 23:39:41.864032 23345 net.cpp:100] Creating Layer conv4_3_relu4_3_0_split
I0227 23:39:41.864037 23345 net.cpp:434] conv4_3_relu4_3_0_split <- conv4_3
I0227 23:39:41.864045 23345 net.cpp:408] conv4_3_relu4_3_0_split -> conv4_3_relu4_3_0_split_0
I0227 23:39:41.864054 23345 net.cpp:408] conv4_3_relu4_3_0_split -> conv4_3_relu4_3_0_split_1
I0227 23:39:41.864094 23345 net.cpp:150] Setting up conv4_3_relu4_3_0_split
I0227 23:39:41.864100 23345 net.cpp:157] Top shape: 2 512 96 96 (9437184)
I0227 23:39:41.864105 23345 net.cpp:157] Top shape: 2 512 96 96 (9437184)
I0227 23:39:41.864109 23345 net.cpp:165] Memory required for data: 2759309568
I0227 23:39:41.864112 23345 layer_factory.hpp:77] Creating layer loss1_conv1
I0227 23:39:41.864128 23345 net.cpp:100] Creating Layer loss1_conv1
I0227 23:39:41.864133 23345 net.cpp:434] loss1_conv1 <- conv4_3_relu4_3_0_split_0
I0227 23:39:41.864140 23345 net.cpp:408] loss1_conv1 -> loss1_conv1
I0227 23:39:41.931813 23345 net.cpp:150] Setting up loss1_conv1
I0227 23:39:41.931840 23345 net.cpp:157] Top shape: 2 512 96 96 (9437184)
I0227 23:39:41.931844 23345 net.cpp:165] Memory required for data: 2797058304
I0227 23:39:41.931854 23345 layer_factory.hpp:77] Creating layer loss_relu1
I0227 23:39:41.931865 23345 net.cpp:100] Creating Layer loss_relu1
I0227 23:39:41.931872 23345 net.cpp:434] loss_relu1 <- loss1_conv1
I0227 23:39:41.931877 23345 net.cpp:395] loss_relu1 -> loss1_conv1 (in-place)
I0227 23:39:41.932072 23345 net.cpp:150] Setting up loss_relu1
I0227 23:39:41.932083 23345 net.cpp:157] Top shape: 2 512 96 96 (9437184)
I0227 23:39:41.932087 23345 net.cpp:165] Memory required for data: 2834807040
I0227 23:39:41.932091 23345 layer_factory.hpp:77] Creating layer loss1_conv1_loss_relu1_0_split
I0227 23:39:41.932101 23345 net.cpp:100] Creating Layer loss1_conv1_loss_relu1_0_split
I0227 23:39:41.932114 23345 net.cpp:434] loss1_conv1_loss_relu1_0_split <- loss1_conv1
I0227 23:39:41.932123 23345 net.cpp:408] loss1_conv1_loss_relu1_0_split -> loss1_conv1_loss_relu1_0_split_0
I0227 23:39:41.932132 23345 net.cpp:408] loss1_conv1_loss_relu1_0_split -> loss1_conv1_loss_relu1_0_split_1
I0227 23:39:41.932178 23345 net.cpp:150] Setting up loss1_conv1_loss_relu1_0_split
I0227 23:39:41.932185 23345 net.cpp:157] Top shape: 2 512 96 96 (9437184)
I0227 23:39:41.932189 23345 net.cpp:157] Top shape: 2 512 96 96 (9437184)
I0227 23:39:41.932193 23345 net.cpp:165] Memory required for data: 2910304512
I0227 23:39:41.932196 23345 layer_factory.hpp:77] Creating layer LFCN_1_5x5
I0227 23:39:41.932209 23345 net.cpp:100] Creating Layer LFCN_1_5x5
I0227 23:39:41.932214 23345 net.cpp:434] LFCN_1_5x5 <- loss1_conv1_loss_relu1_0_split_0
I0227 23:39:41.932220 23345 net.cpp:408] LFCN_1_5x5 -> LFCN_1_5x5
I0227 23:39:41.936233 23345 net.cpp:150] Setting up LFCN_1_5x5
I0227 23:39:41.936246 23345 net.cpp:157] Top shape: 2 9 96 96 (165888)
I0227 23:39:41.936249 23345 net.cpp:165] Memory required for data: 2910968064
I0227 23:39:41.936255 23345 layer_factory.hpp:77] Creating layer LFCN_1_5x5_LFCN_1_5x5_0_split
I0227 23:39:41.936261 23345 net.cpp:100] Creating Layer LFCN_1_5x5_LFCN_1_5x5_0_split
I0227 23:39:41.936265 23345 net.cpp:434] LFCN_1_5x5_LFCN_1_5x5_0_split <- LFCN_1_5x5
I0227 23:39:41.936271 23345 net.cpp:408] LFCN_1_5x5_LFCN_1_5x5_0_split -> LFCN_1_5x5_LFCN_1_5x5_0_split_0
I0227 23:39:41.936282 23345 net.cpp:408] LFCN_1_5x5_LFCN_1_5x5_0_split -> LFCN_1_5x5_LFCN_1_5x5_0_split_1
I0227 23:39:41.936324 23345 net.cpp:150] Setting up LFCN_1_5x5_LFCN_1_5x5_0_split
I0227 23:39:41.936332 23345 net.cpp:157] Top shape: 2 9 96 96 (165888)
I0227 23:39:41.936336 23345 net.cpp:157] Top shape: 2 9 96 96 (165888)
I0227 23:39:41.936341 23345 net.cpp:165] Memory required for data: 2912295168
I0227 23:39:41.936345 23345 layer_factory.hpp:77] Creating layer detection_loss_1_5x5
I0227 23:39:41.936355 23345 net.cpp:100] Creating Layer detection_loss_1_5x5
I0227 23:39:41.936360 23345 net.cpp:434] detection_loss_1_5x5 <- LFCN_1_5x5_LFCN_1_5x5_0_split_0
I0227 23:39:41.936365 23345 net.cpp:434] detection_loss_1_5x5 <- label_1_5x5_data_1_split_0
I0227 23:39:41.936374 23345 net.cpp:408] detection_loss_1_5x5 -> loss_1_5x5
I0227 23:39:41.936385 23345 layer_factory.hpp:77] Creating layer detection_loss_1_5x5
I0227 23:39:41.936761 23345 net.cpp:150] Setting up detection_loss_1_5x5
I0227 23:39:41.936771 23345 net.cpp:157] Top shape: 1 1 1 2 (2)
I0227 23:39:41.936775 23345 net.cpp:160]     with loss weight 0.9
I0227 23:39:41.936789 23345 net.cpp:165] Memory required for data: 2912295176
I0227 23:39:41.936794 23345 layer_factory.hpp:77] Creating layer detection_accuracy_1_5x5
I0227 23:39:41.936800 23345 net.cpp:100] Creating Layer detection_accuracy_1_5x5
I0227 23:39:41.936803 23345 net.cpp:434] detection_accuracy_1_5x5 <- LFCN_1_5x5_LFCN_1_5x5_0_split_1
I0227 23:39:41.936810 23345 net.cpp:434] detection_accuracy_1_5x5 <- label_1_5x5_data_1_split_1
I0227 23:39:41.936820 23345 net.cpp:408] detection_accuracy_1_5x5 -> accuracy_1_5x5
I0227 23:39:41.936830 23345 net.cpp:408] detection_accuracy_1_5x5 -> boxiou_1_5x5
I0227 23:39:41.936870 23345 net.cpp:150] Setting up detection_accuracy_1_5x5
I0227 23:39:41.936877 23345 net.cpp:157] Top shape: 1 1 1 2 (2)
I0227 23:39:41.936883 23345 net.cpp:157] Top shape: 1 1 1 1 (1)
I0227 23:39:41.936887 23345 net.cpp:165] Memory required for data: 2912295188
I0227 23:39:41.936892 23345 layer_factory.hpp:77] Creating layer LFCN_1_7x7
I0227 23:39:41.936904 23345 net.cpp:100] Creating Layer LFCN_1_7x7
I0227 23:39:41.936909 23345 net.cpp:434] LFCN_1_7x7 <- loss1_conv1_loss_relu1_0_split_1
I0227 23:39:41.936918 23345 net.cpp:408] LFCN_1_7x7 -> LFCN_1_7x7
I0227 23:39:41.945974 23345 net.cpp:150] Setting up LFCN_1_7x7
I0227 23:39:41.946002 23345 net.cpp:157] Top shape: 2 9 96 96 (165888)
I0227 23:39:41.946005 23345 net.cpp:165] Memory required for data: 2912958740
I0227 23:39:41.946019 23345 layer_factory.hpp:77] Creating layer LFCN_1_7x7_LFCN_1_7x7_0_split
I0227 23:39:41.946033 23345 net.cpp:100] Creating Layer LFCN_1_7x7_LFCN_1_7x7_0_split
I0227 23:39:41.946040 23345 net.cpp:434] LFCN_1_7x7_LFCN_1_7x7_0_split <- LFCN_1_7x7
I0227 23:39:41.946056 23345 net.cpp:408] LFCN_1_7x7_LFCN_1_7x7_0_split -> LFCN_1_7x7_LFCN_1_7x7_0_split_0
I0227 23:39:41.946068 23345 net.cpp:408] LFCN_1_7x7_LFCN_1_7x7_0_split -> LFCN_1_7x7_LFCN_1_7x7_0_split_1
I0227 23:39:41.946112 23345 net.cpp:150] Setting up LFCN_1_7x7_LFCN_1_7x7_0_split
I0227 23:39:41.946120 23345 net.cpp:157] Top shape: 2 9 96 96 (165888)
I0227 23:39:41.946125 23345 net.cpp:157] Top shape: 2 9 96 96 (165888)
I0227 23:39:41.946128 23345 net.cpp:165] Memory required for data: 2914285844
I0227 23:39:41.946131 23345 layer_factory.hpp:77] Creating layer detection_loss_1_7x7
I0227 23:39:41.946139 23345 net.cpp:100] Creating Layer detection_loss_1_7x7
I0227 23:39:41.946143 23345 net.cpp:434] detection_loss_1_7x7 <- LFCN_1_7x7_LFCN_1_7x7_0_split_0
I0227 23:39:41.946148 23345 net.cpp:434] detection_loss_1_7x7 <- label_1_7x7_data_2_split_0
I0227 23:39:41.946156 23345 net.cpp:408] detection_loss_1_7x7 -> loss_1_7x7
I0227 23:39:41.946171 23345 layer_factory.hpp:77] Creating layer detection_loss_1_7x7
I0227 23:39:41.946929 23345 net.cpp:150] Setting up detection_loss_1_7x7
I0227 23:39:41.946941 23345 net.cpp:157] Top shape: 1 1 1 2 (2)
I0227 23:39:41.946945 23345 net.cpp:160]     with loss weight 0.9
I0227 23:39:41.946959 23345 net.cpp:165] Memory required for data: 2914285852
I0227 23:39:41.946964 23345 layer_factory.hpp:77] Creating layer detection_accuracy_1_7x7
I0227 23:39:41.946974 23345 net.cpp:100] Creating Layer detection_accuracy_1_7x7
I0227 23:39:41.946980 23345 net.cpp:434] detection_accuracy_1_7x7 <- LFCN_1_7x7_LFCN_1_7x7_0_split_1
I0227 23:39:41.946987 23345 net.cpp:434] detection_accuracy_1_7x7 <- label_1_7x7_data_2_split_1
I0227 23:39:41.946995 23345 net.cpp:408] detection_accuracy_1_7x7 -> accuracy_1_7x7
I0227 23:39:41.947002 23345 net.cpp:408] detection_accuracy_1_7x7 -> boxiou_1_7x7
I0227 23:39:41.947051 23345 net.cpp:150] Setting up detection_accuracy_1_7x7
I0227 23:39:41.947057 23345 net.cpp:157] Top shape: 1 1 1 2 (2)
I0227 23:39:41.947063 23345 net.cpp:157] Top shape: 1 1 1 1 (1)
I0227 23:39:41.947068 23345 net.cpp:165] Memory required for data: 2914285864
I0227 23:39:41.947072 23345 layer_factory.hpp:77] Creating layer pool4
I0227 23:39:41.947079 23345 net.cpp:100] Creating Layer pool4
I0227 23:39:41.947084 23345 net.cpp:434] pool4 <- conv4_3_relu4_3_0_split_1
I0227 23:39:41.947093 23345 net.cpp:408] pool4 -> pool4
I0227 23:39:41.947135 23345 net.cpp:150] Setting up pool4
I0227 23:39:41.947142 23345 net.cpp:157] Top shape: 2 512 48 48 (2359296)
I0227 23:39:41.947145 23345 net.cpp:165] Memory required for data: 2923723048
I0227 23:39:41.947149 23345 layer_factory.hpp:77] Creating layer conv5_1
I0227 23:39:41.947160 23345 net.cpp:100] Creating Layer conv5_1
I0227 23:39:41.947165 23345 net.cpp:434] conv5_1 <- pool4
I0227 23:39:41.947170 23345 net.cpp:408] conv5_1 -> conv5_1
I0227 23:39:41.953249 23345 net.cpp:150] Setting up conv5_1
I0227 23:39:41.953279 23345 net.cpp:157] Top shape: 2 512 48 48 (2359296)
I0227 23:39:41.953284 23345 net.cpp:165] Memory required for data: 2933160232
I0227 23:39:41.953291 23345 layer_factory.hpp:77] Creating layer relu5_1
I0227 23:39:41.953306 23345 net.cpp:100] Creating Layer relu5_1
I0227 23:39:41.953315 23345 net.cpp:434] relu5_1 <- conv5_1
I0227 23:39:41.953328 23345 net.cpp:395] relu5_1 -> conv5_1 (in-place)
I0227 23:39:41.953506 23345 net.cpp:150] Setting up relu5_1
I0227 23:39:41.953516 23345 net.cpp:157] Top shape: 2 512 48 48 (2359296)
I0227 23:39:41.953521 23345 net.cpp:165] Memory required for data: 2942597416
I0227 23:39:41.953526 23345 layer_factory.hpp:77] Creating layer conv5_2
I0227 23:39:41.953536 23345 net.cpp:100] Creating Layer conv5_2
I0227 23:39:41.953541 23345 net.cpp:434] conv5_2 <- conv5_1
I0227 23:39:41.953547 23345 net.cpp:408] conv5_2 -> conv5_2
I0227 23:39:41.963400 23345 net.cpp:150] Setting up conv5_2
I0227 23:39:41.963480 23345 net.cpp:157] Top shape: 2 512 48 48 (2359296)
I0227 23:39:41.963485 23345 net.cpp:165] Memory required for data: 2952034600
I0227 23:39:41.963506 23345 layer_factory.hpp:77] Creating layer relu5_2
I0227 23:39:41.963529 23345 net.cpp:100] Creating Layer relu5_2
I0227 23:39:41.963541 23345 net.cpp:434] relu5_2 <- conv5_2
I0227 23:39:41.963551 23345 net.cpp:395] relu5_2 -> conv5_2 (in-place)
I0227 23:39:41.963778 23345 net.cpp:150] Setting up relu5_2
I0227 23:39:41.963791 23345 net.cpp:157] Top shape: 2 512 48 48 (2359296)
I0227 23:39:41.963794 23345 net.cpp:165] Memory required for data: 2961471784
I0227 23:39:41.963798 23345 layer_factory.hpp:77] Creating layer conv5_3
I0227 23:39:41.963814 23345 net.cpp:100] Creating Layer conv5_3
I0227 23:39:41.963822 23345 net.cpp:434] conv5_3 <- conv5_2
I0227 23:39:41.963829 23345 net.cpp:408] conv5_3 -> conv5_3
I0227 23:39:41.975354 23345 net.cpp:150] Setting up conv5_3
I0227 23:39:41.975383 23345 net.cpp:157] Top shape: 2 512 48 48 (2359296)
I0227 23:39:41.975386 23345 net.cpp:165] Memory required for data: 2970908968
I0227 23:39:41.975394 23345 layer_factory.hpp:77] Creating layer relu5_3
I0227 23:39:41.975407 23345 net.cpp:100] Creating Layer relu5_3
I0227 23:39:41.975415 23345 net.cpp:434] relu5_3 <- conv5_3
I0227 23:39:41.975422 23345 net.cpp:395] relu5_3 -> conv5_3 (in-place)
I0227 23:39:41.975594 23345 net.cpp:150] Setting up relu5_3
I0227 23:39:41.975603 23345 net.cpp:157] Top shape: 2 512 48 48 (2359296)
I0227 23:39:41.975607 23345 net.cpp:165] Memory required for data: 2980346152
I0227 23:39:41.975612 23345 layer_factory.hpp:77] Creating layer conv5_3_relu5_3_0_split
I0227 23:39:41.975620 23345 net.cpp:100] Creating Layer conv5_3_relu5_3_0_split
I0227 23:39:41.975626 23345 net.cpp:434] conv5_3_relu5_3_0_split <- conv5_3
I0227 23:39:41.975634 23345 net.cpp:408] conv5_3_relu5_3_0_split -> conv5_3_relu5_3_0_split_0
I0227 23:39:41.975642 23345 net.cpp:408] conv5_3_relu5_3_0_split -> conv5_3_relu5_3_0_split_1
I0227 23:39:41.975651 23345 net.cpp:408] conv5_3_relu5_3_0_split -> conv5_3_relu5_3_0_split_2
I0227 23:39:41.975708 23345 net.cpp:150] Setting up conv5_3_relu5_3_0_split
I0227 23:39:41.975714 23345 net.cpp:157] Top shape: 2 512 48 48 (2359296)
I0227 23:39:41.975719 23345 net.cpp:157] Top shape: 2 512 48 48 (2359296)
I0227 23:39:41.975725 23345 net.cpp:157] Top shape: 2 512 48 48 (2359296)
I0227 23:39:41.975730 23345 net.cpp:165] Memory required for data: 3008657704
I0227 23:39:41.975733 23345 layer_factory.hpp:77] Creating layer LFCN_2_5x5
I0227 23:39:41.975745 23345 net.cpp:100] Creating Layer LFCN_2_5x5
I0227 23:39:41.975750 23345 net.cpp:434] LFCN_2_5x5 <- conv5_3_relu5_3_0_split_0
I0227 23:39:41.975759 23345 net.cpp:408] LFCN_2_5x5 -> LFCN_2_5x5
I0227 23:39:41.981257 23345 net.cpp:150] Setting up LFCN_2_5x5
I0227 23:39:41.981307 23345 net.cpp:157] Top shape: 2 9 48 48 (41472)
I0227 23:39:41.981312 23345 net.cpp:165] Memory required for data: 3008823592
I0227 23:39:41.981336 23345 layer_factory.hpp:77] Creating layer LFCN_2_5x5_LFCN_2_5x5_0_split
I0227 23:39:41.981354 23345 net.cpp:100] Creating Layer LFCN_2_5x5_LFCN_2_5x5_0_split
I0227 23:39:41.981366 23345 net.cpp:434] LFCN_2_5x5_LFCN_2_5x5_0_split <- LFCN_2_5x5
I0227 23:39:41.981375 23345 net.cpp:408] LFCN_2_5x5_LFCN_2_5x5_0_split -> LFCN_2_5x5_LFCN_2_5x5_0_split_0
I0227 23:39:41.981398 23345 net.cpp:408] LFCN_2_5x5_LFCN_2_5x5_0_split -> LFCN_2_5x5_LFCN_2_5x5_0_split_1
I0227 23:39:41.981446 23345 net.cpp:150] Setting up LFCN_2_5x5_LFCN_2_5x5_0_split
I0227 23:39:41.981454 23345 net.cpp:157] Top shape: 2 9 48 48 (41472)
I0227 23:39:41.981458 23345 net.cpp:157] Top shape: 2 9 48 48 (41472)
I0227 23:39:41.981462 23345 net.cpp:165] Memory required for data: 3009155368
I0227 23:39:41.981464 23345 layer_factory.hpp:77] Creating layer detection_loss_2_5x5
I0227 23:39:41.981477 23345 net.cpp:100] Creating Layer detection_loss_2_5x5
I0227 23:39:41.981480 23345 net.cpp:434] detection_loss_2_5x5 <- LFCN_2_5x5_LFCN_2_5x5_0_split_0
I0227 23:39:41.981487 23345 net.cpp:434] detection_loss_2_5x5 <- label_2_5x5_data_3_split_0
I0227 23:39:41.981492 23345 net.cpp:408] detection_loss_2_5x5 -> loss_2_5x5
I0227 23:39:41.981506 23345 layer_factory.hpp:77] Creating layer detection_loss_2_5x5
I0227 23:39:41.981889 23345 net.cpp:150] Setting up detection_loss_2_5x5
I0227 23:39:41.981902 23345 net.cpp:157] Top shape: 1 1 1 2 (2)
I0227 23:39:41.981906 23345 net.cpp:160]     with loss weight 1
I0227 23:39:41.981926 23345 net.cpp:165] Memory required for data: 3009155376
I0227 23:39:41.981930 23345 layer_factory.hpp:77] Creating layer detection_accuracy_2_5x5
I0227 23:39:41.981940 23345 net.cpp:100] Creating Layer detection_accuracy_2_5x5
I0227 23:39:41.981945 23345 net.cpp:434] detection_accuracy_2_5x5 <- LFCN_2_5x5_LFCN_2_5x5_0_split_1
I0227 23:39:41.981951 23345 net.cpp:434] detection_accuracy_2_5x5 <- label_2_5x5_data_3_split_1
I0227 23:39:41.981962 23345 net.cpp:408] detection_accuracy_2_5x5 -> accuracy_2_5x5
I0227 23:39:41.981972 23345 net.cpp:408] detection_accuracy_2_5x5 -> boxiou_2_5x5
I0227 23:39:41.982023 23345 net.cpp:150] Setting up detection_accuracy_2_5x5
I0227 23:39:41.982029 23345 net.cpp:157] Top shape: 1 1 1 2 (2)
I0227 23:39:41.982035 23345 net.cpp:157] Top shape: 1 1 1 1 (1)
I0227 23:39:41.982040 23345 net.cpp:165] Memory required for data: 3009155388
I0227 23:39:41.982044 23345 layer_factory.hpp:77] Creating layer LFCN_2_7x7
I0227 23:39:41.982091 23345 net.cpp:100] Creating Layer LFCN_2_7x7
I0227 23:39:41.982098 23345 net.cpp:434] LFCN_2_7x7 <- conv5_3_relu5_3_0_split_1
I0227 23:39:41.982106 23345 net.cpp:408] LFCN_2_7x7 -> LFCN_2_7x7
I0227 23:39:41.992033 23345 net.cpp:150] Setting up LFCN_2_7x7
I0227 23:39:41.992063 23345 net.cpp:157] Top shape: 2 9 48 48 (41472)
I0227 23:39:41.992067 23345 net.cpp:165] Memory required for data: 3009321276
I0227 23:39:41.992075 23345 layer_factory.hpp:77] Creating layer LFCN_2_7x7_LFCN_2_7x7_0_split
I0227 23:39:41.992085 23345 net.cpp:100] Creating Layer LFCN_2_7x7_LFCN_2_7x7_0_split
I0227 23:39:41.992090 23345 net.cpp:434] LFCN_2_7x7_LFCN_2_7x7_0_split <- LFCN_2_7x7
I0227 23:39:41.992096 23345 net.cpp:408] LFCN_2_7x7_LFCN_2_7x7_0_split -> LFCN_2_7x7_LFCN_2_7x7_0_split_0
I0227 23:39:41.992108 23345 net.cpp:408] LFCN_2_7x7_LFCN_2_7x7_0_split -> LFCN_2_7x7_LFCN_2_7x7_0_split_1
I0227 23:39:41.992152 23345 net.cpp:150] Setting up LFCN_2_7x7_LFCN_2_7x7_0_split
I0227 23:39:41.992158 23345 net.cpp:157] Top shape: 2 9 48 48 (41472)
I0227 23:39:41.992162 23345 net.cpp:157] Top shape: 2 9 48 48 (41472)
I0227 23:39:41.992166 23345 net.cpp:165] Memory required for data: 3009653052
I0227 23:39:41.992169 23345 layer_factory.hpp:77] Creating layer detection_loss_2_7x7
I0227 23:39:41.992177 23345 net.cpp:100] Creating Layer detection_loss_2_7x7
I0227 23:39:41.992180 23345 net.cpp:434] detection_loss_2_7x7 <- LFCN_2_7x7_LFCN_2_7x7_0_split_0
I0227 23:39:41.992187 23345 net.cpp:434] detection_loss_2_7x7 <- label_2_7x7_data_4_split_0
I0227 23:39:41.992195 23345 net.cpp:408] detection_loss_2_7x7 -> loss_2_7x7
I0227 23:39:41.992208 23345 layer_factory.hpp:77] Creating layer detection_loss_2_7x7
I0227 23:39:41.992573 23345 net.cpp:150] Setting up detection_loss_2_7x7
I0227 23:39:41.992583 23345 net.cpp:157] Top shape: 1 1 1 2 (2)
I0227 23:39:41.992588 23345 net.cpp:160]     with loss weight 1
I0227 23:39:41.992601 23345 net.cpp:165] Memory required for data: 3009653060
I0227 23:39:41.992605 23345 layer_factory.hpp:77] Creating layer detection_accuracy_2_7x7
I0227 23:39:41.992615 23345 net.cpp:100] Creating Layer detection_accuracy_2_7x7
I0227 23:39:41.992621 23345 net.cpp:434] detection_accuracy_2_7x7 <- LFCN_2_7x7_LFCN_2_7x7_0_split_1
I0227 23:39:41.992626 23345 net.cpp:434] detection_accuracy_2_7x7 <- label_2_7x7_data_4_split_1
I0227 23:39:41.992633 23345 net.cpp:408] detection_accuracy_2_7x7 -> accuracy_2_7x7
I0227 23:39:41.992642 23345 net.cpp:408] detection_accuracy_2_7x7 -> boxiou_2_7x7
I0227 23:39:41.992688 23345 net.cpp:150] Setting up detection_accuracy_2_7x7
I0227 23:39:41.992696 23345 net.cpp:157] Top shape: 1 1 1 2 (2)
I0227 23:39:41.992700 23345 net.cpp:157] Top shape: 1 1 1 1 (1)
I0227 23:39:41.992704 23345 net.cpp:165] Memory required for data: 3009653072
I0227 23:39:41.992709 23345 layer_factory.hpp:77] Creating layer pool5
I0227 23:39:41.992717 23345 net.cpp:100] Creating Layer pool5
I0227 23:39:41.992722 23345 net.cpp:434] pool5 <- conv5_3_relu5_3_0_split_2
I0227 23:39:41.992730 23345 net.cpp:408] pool5 -> pool5
I0227 23:39:41.992772 23345 net.cpp:150] Setting up pool5
I0227 23:39:41.992779 23345 net.cpp:157] Top shape: 2 512 24 24 (589824)
I0227 23:39:41.992782 23345 net.cpp:165] Memory required for data: 3012012368
I0227 23:39:41.992787 23345 layer_factory.hpp:77] Creating layer conv6_1
I0227 23:39:41.992801 23345 net.cpp:100] Creating Layer conv6_1
I0227 23:39:41.992806 23345 net.cpp:434] conv6_1 <- pool5
I0227 23:39:41.992813 23345 net.cpp:408] conv6_1 -> conv6_1
I0227 23:39:42.065732 23345 net.cpp:150] Setting up conv6_1
I0227 23:39:42.065762 23345 net.cpp:157] Top shape: 2 512 24 24 (589824)
I0227 23:39:42.065767 23345 net.cpp:165] Memory required for data: 3014371664
I0227 23:39:42.065774 23345 layer_factory.hpp:77] Creating layer relu6_1
I0227 23:39:42.065793 23345 net.cpp:100] Creating Layer relu6_1
I0227 23:39:42.065801 23345 net.cpp:434] relu6_1 <- conv6_1
I0227 23:39:42.065809 23345 net.cpp:395] relu6_1 -> conv6_1 (in-place)
I0227 23:39:42.066346 23345 net.cpp:150] Setting up relu6_1
I0227 23:39:42.066360 23345 net.cpp:157] Top shape: 2 512 24 24 (589824)
I0227 23:39:42.066364 23345 net.cpp:165] Memory required for data: 3016730960
I0227 23:39:42.066368 23345 layer_factory.hpp:77] Creating layer conv6_1_relu6_1_0_split
I0227 23:39:42.066376 23345 net.cpp:100] Creating Layer conv6_1_relu6_1_0_split
I0227 23:39:42.066383 23345 net.cpp:434] conv6_1_relu6_1_0_split <- conv6_1
I0227 23:39:42.066390 23345 net.cpp:408] conv6_1_relu6_1_0_split -> conv6_1_relu6_1_0_split_0
I0227 23:39:42.066399 23345 net.cpp:408] conv6_1_relu6_1_0_split -> conv6_1_relu6_1_0_split_1
I0227 23:39:42.066406 23345 net.cpp:408] conv6_1_relu6_1_0_split -> conv6_1_relu6_1_0_split_2
I0227 23:39:42.066468 23345 net.cpp:150] Setting up conv6_1_relu6_1_0_split
I0227 23:39:42.066475 23345 net.cpp:157] Top shape: 2 512 24 24 (589824)
I0227 23:39:42.066480 23345 net.cpp:157] Top shape: 2 512 24 24 (589824)
I0227 23:39:42.066486 23345 net.cpp:157] Top shape: 2 512 24 24 (589824)
I0227 23:39:42.066490 23345 net.cpp:165] Memory required for data: 3023808848
I0227 23:39:42.066494 23345 layer_factory.hpp:77] Creating layer LFCN_3_5x5
I0227 23:39:42.066507 23345 net.cpp:100] Creating Layer LFCN_3_5x5
I0227 23:39:42.066514 23345 net.cpp:434] LFCN_3_5x5 <- conv6_1_relu6_1_0_split_0
I0227 23:39:42.066524 23345 net.cpp:408] LFCN_3_5x5 -> LFCN_3_5x5
I0227 23:39:42.070505 23345 net.cpp:150] Setting up LFCN_3_5x5
I0227 23:39:42.070519 23345 net.cpp:157] Top shape: 2 9 24 24 (10368)
I0227 23:39:42.070523 23345 net.cpp:165] Memory required for data: 3023850320
I0227 23:39:42.070529 23345 layer_factory.hpp:77] Creating layer LFCN_3_5x5_LFCN_3_5x5_0_split
I0227 23:39:42.070534 23345 net.cpp:100] Creating Layer LFCN_3_5x5_LFCN_3_5x5_0_split
I0227 23:39:42.070538 23345 net.cpp:434] LFCN_3_5x5_LFCN_3_5x5_0_split <- LFCN_3_5x5
I0227 23:39:42.070544 23345 net.cpp:408] LFCN_3_5x5_LFCN_3_5x5_0_split -> LFCN_3_5x5_LFCN_3_5x5_0_split_0
I0227 23:39:42.070550 23345 net.cpp:408] LFCN_3_5x5_LFCN_3_5x5_0_split -> LFCN_3_5x5_LFCN_3_5x5_0_split_1
I0227 23:39:42.070596 23345 net.cpp:150] Setting up LFCN_3_5x5_LFCN_3_5x5_0_split
I0227 23:39:42.070603 23345 net.cpp:157] Top shape: 2 9 24 24 (10368)
I0227 23:39:42.070608 23345 net.cpp:157] Top shape: 2 9 24 24 (10368)
I0227 23:39:42.070611 23345 net.cpp:165] Memory required for data: 3023933264
I0227 23:39:42.070614 23345 layer_factory.hpp:77] Creating layer detection_loss_3_5x5
I0227 23:39:42.070623 23345 net.cpp:100] Creating Layer detection_loss_3_5x5
I0227 23:39:42.070628 23345 net.cpp:434] detection_loss_3_5x5 <- LFCN_3_5x5_LFCN_3_5x5_0_split_0
I0227 23:39:42.070636 23345 net.cpp:434] detection_loss_3_5x5 <- label_3_5x5_data_5_split_0
I0227 23:39:42.070644 23345 net.cpp:408] detection_loss_3_5x5 -> loss_3_5x5
I0227 23:39:42.070657 23345 layer_factory.hpp:77] Creating layer detection_loss_3_5x5
I0227 23:39:42.070994 23345 net.cpp:150] Setting up detection_loss_3_5x5
I0227 23:39:42.071004 23345 net.cpp:157] Top shape: 1 1 1 2 (2)
I0227 23:39:42.071007 23345 net.cpp:160]     with loss weight 1
I0227 23:39:42.071020 23345 net.cpp:165] Memory required for data: 3023933272
I0227 23:39:42.071025 23345 layer_factory.hpp:77] Creating layer detection_accuracy_3_5x5
I0227 23:39:42.071035 23345 net.cpp:100] Creating Layer detection_accuracy_3_5x5
I0227 23:39:42.071041 23345 net.cpp:434] detection_accuracy_3_5x5 <- LFCN_3_5x5_LFCN_3_5x5_0_split_1
I0227 23:39:42.071048 23345 net.cpp:434] detection_accuracy_3_5x5 <- label_3_5x5_data_5_split_1
I0227 23:39:42.071055 23345 net.cpp:408] detection_accuracy_3_5x5 -> accuracy_3_5x5
I0227 23:39:42.071065 23345 net.cpp:408] detection_accuracy_3_5x5 -> boxiou_3_5x5
I0227 23:39:42.071110 23345 net.cpp:150] Setting up detection_accuracy_3_5x5
I0227 23:39:42.071117 23345 net.cpp:157] Top shape: 1 1 1 2 (2)
I0227 23:39:42.071121 23345 net.cpp:157] Top shape: 1 1 1 1 (1)
I0227 23:39:42.071126 23345 net.cpp:165] Memory required for data: 3023933284
I0227 23:39:42.071130 23345 layer_factory.hpp:77] Creating layer LFCN_3_7x7
I0227 23:39:42.071141 23345 net.cpp:100] Creating Layer LFCN_3_7x7
I0227 23:39:42.071147 23345 net.cpp:434] LFCN_3_7x7 <- conv6_1_relu6_1_0_split_1
I0227 23:39:42.071156 23345 net.cpp:408] LFCN_3_7x7 -> LFCN_3_7x7
I0227 23:39:42.079226 23345 net.cpp:150] Setting up LFCN_3_7x7
I0227 23:39:42.079253 23345 net.cpp:157] Top shape: 2 9 24 24 (10368)
I0227 23:39:42.079257 23345 net.cpp:165] Memory required for data: 3023974756
I0227 23:39:42.079267 23345 layer_factory.hpp:77] Creating layer LFCN_3_7x7_LFCN_3_7x7_0_split
I0227 23:39:42.079277 23345 net.cpp:100] Creating Layer LFCN_3_7x7_LFCN_3_7x7_0_split
I0227 23:39:42.079283 23345 net.cpp:434] LFCN_3_7x7_LFCN_3_7x7_0_split <- LFCN_3_7x7
I0227 23:39:42.079290 23345 net.cpp:408] LFCN_3_7x7_LFCN_3_7x7_0_split -> LFCN_3_7x7_LFCN_3_7x7_0_split_0
I0227 23:39:42.079301 23345 net.cpp:408] LFCN_3_7x7_LFCN_3_7x7_0_split -> LFCN_3_7x7_LFCN_3_7x7_0_split_1
I0227 23:39:42.079360 23345 net.cpp:150] Setting up LFCN_3_7x7_LFCN_3_7x7_0_split
I0227 23:39:42.079365 23345 net.cpp:157] Top shape: 2 9 24 24 (10368)
I0227 23:39:42.079370 23345 net.cpp:157] Top shape: 2 9 24 24 (10368)
I0227 23:39:42.079372 23345 net.cpp:165] Memory required for data: 3024057700
I0227 23:39:42.079375 23345 layer_factory.hpp:77] Creating layer detection_loss_3_7x7
I0227 23:39:42.079383 23345 net.cpp:100] Creating Layer detection_loss_3_7x7
I0227 23:39:42.079386 23345 net.cpp:434] detection_loss_3_7x7 <- LFCN_3_7x7_LFCN_3_7x7_0_split_0
I0227 23:39:42.079392 23345 net.cpp:434] detection_loss_3_7x7 <- label_3_7x7_data_6_split_0
I0227 23:39:42.079397 23345 net.cpp:408] detection_loss_3_7x7 -> loss_3_7x7
I0227 23:39:42.079407 23345 layer_factory.hpp:77] Creating layer detection_loss_3_7x7
I0227 23:39:42.079833 23345 net.cpp:150] Setting up detection_loss_3_7x7
I0227 23:39:42.079846 23345 net.cpp:157] Top shape: 1 1 1 2 (2)
I0227 23:39:42.079851 23345 net.cpp:160]     with loss weight 1
I0227 23:39:42.079864 23345 net.cpp:165] Memory required for data: 3024057708
I0227 23:39:42.079869 23345 layer_factory.hpp:77] Creating layer detection_accuracy_3_7x7
I0227 23:39:42.079876 23345 net.cpp:100] Creating Layer detection_accuracy_3_7x7
I0227 23:39:42.079881 23345 net.cpp:434] detection_accuracy_3_7x7 <- LFCN_3_7x7_LFCN_3_7x7_0_split_1
I0227 23:39:42.079887 23345 net.cpp:434] detection_accuracy_3_7x7 <- label_3_7x7_data_6_split_1
I0227 23:39:42.079895 23345 net.cpp:408] detection_accuracy_3_7x7 -> accuracy_3_7x7
I0227 23:39:42.079905 23345 net.cpp:408] detection_accuracy_3_7x7 -> boxiou_3_7x7
I0227 23:39:42.079951 23345 net.cpp:150] Setting up detection_accuracy_3_7x7
I0227 23:39:42.079957 23345 net.cpp:157] Top shape: 1 1 1 2 (2)
I0227 23:39:42.079962 23345 net.cpp:157] Top shape: 1 1 1 1 (1)
I0227 23:39:42.079965 23345 net.cpp:165] Memory required for data: 3024057720
I0227 23:39:42.079969 23345 layer_factory.hpp:77] Creating layer pool6
I0227 23:39:42.079978 23345 net.cpp:100] Creating Layer pool6
I0227 23:39:42.079996 23345 net.cpp:434] pool6 <- conv6_1_relu6_1_0_split_2
I0227 23:39:42.080003 23345 net.cpp:408] pool6 -> pool6
I0227 23:39:42.080047 23345 net.cpp:150] Setting up pool6
I0227 23:39:42.080055 23345 net.cpp:157] Top shape: 2 512 12 12 (147456)
I0227 23:39:42.080058 23345 net.cpp:165] Memory required for data: 3024647544
I0227 23:39:42.080062 23345 layer_factory.hpp:77] Creating layer LFCN_4_5x5
I0227 23:39:42.080075 23345 net.cpp:100] Creating Layer LFCN_4_5x5
I0227 23:39:42.080080 23345 net.cpp:434] LFCN_4_5x5 <- pool6
I0227 23:39:42.080087 23345 net.cpp:408] LFCN_4_5x5 -> LFCN_4_5x5
I0227 23:39:42.084292 23345 net.cpp:150] Setting up LFCN_4_5x5
I0227 23:39:42.084306 23345 net.cpp:157] Top shape: 2 9 12 12 (2592)
I0227 23:39:42.084311 23345 net.cpp:165] Memory required for data: 3024657912
I0227 23:39:42.084316 23345 layer_factory.hpp:77] Creating layer LFCN_4_5x5_LFCN_4_5x5_0_split
I0227 23:39:42.084322 23345 net.cpp:100] Creating Layer LFCN_4_5x5_LFCN_4_5x5_0_split
I0227 23:39:42.084326 23345 net.cpp:434] LFCN_4_5x5_LFCN_4_5x5_0_split <- LFCN_4_5x5
I0227 23:39:42.084333 23345 net.cpp:408] LFCN_4_5x5_LFCN_4_5x5_0_split -> LFCN_4_5x5_LFCN_4_5x5_0_split_0
I0227 23:39:42.084341 23345 net.cpp:408] LFCN_4_5x5_LFCN_4_5x5_0_split -> LFCN_4_5x5_LFCN_4_5x5_0_split_1
I0227 23:39:42.084385 23345 net.cpp:150] Setting up LFCN_4_5x5_LFCN_4_5x5_0_split
I0227 23:39:42.084393 23345 net.cpp:157] Top shape: 2 9 12 12 (2592)
I0227 23:39:42.084398 23345 net.cpp:157] Top shape: 2 9 12 12 (2592)
I0227 23:39:42.084403 23345 net.cpp:165] Memory required for data: 3024678648
I0227 23:39:42.084408 23345 layer_factory.hpp:77] Creating layer detection_loss_4_5x5
I0227 23:39:42.084416 23345 net.cpp:100] Creating Layer detection_loss_4_5x5
I0227 23:39:42.084421 23345 net.cpp:434] detection_loss_4_5x5 <- LFCN_4_5x5_LFCN_4_5x5_0_split_0
I0227 23:39:42.084429 23345 net.cpp:434] detection_loss_4_5x5 <- label_4_5x5_data_7_split_0
I0227 23:39:42.084434 23345 net.cpp:408] detection_loss_4_5x5 -> loss_4_5x5
I0227 23:39:42.084444 23345 layer_factory.hpp:77] Creating layer detection_loss_4_5x5
I0227 23:39:42.084784 23345 net.cpp:150] Setting up detection_loss_4_5x5
I0227 23:39:42.084795 23345 net.cpp:157] Top shape: 1 1 1 2 (2)
I0227 23:39:42.084798 23345 net.cpp:160]     with loss weight 1
I0227 23:39:42.084805 23345 net.cpp:165] Memory required for data: 3024678656
I0227 23:39:42.084810 23345 layer_factory.hpp:77] Creating layer detection_accuracy_4_5x5
I0227 23:39:42.084815 23345 net.cpp:100] Creating Layer detection_accuracy_4_5x5
I0227 23:39:42.084818 23345 net.cpp:434] detection_accuracy_4_5x5 <- LFCN_4_5x5_LFCN_4_5x5_0_split_1
I0227 23:39:42.084823 23345 net.cpp:434] detection_accuracy_4_5x5 <- label_4_5x5_data_7_split_1
I0227 23:39:42.084831 23345 net.cpp:408] detection_accuracy_4_5x5 -> accuracy_4_5x5
I0227 23:39:42.084841 23345 net.cpp:408] detection_accuracy_4_5x5 -> boxiou_4_5x5
I0227 23:39:42.084880 23345 net.cpp:150] Setting up detection_accuracy_4_5x5
I0227 23:39:42.084887 23345 net.cpp:157] Top shape: 1 1 1 2 (2)
I0227 23:39:42.084892 23345 net.cpp:157] Top shape: 1 1 1 1 (1)
I0227 23:39:42.084894 23345 net.cpp:165] Memory required for data: 3024678668
I0227 23:39:42.084897 23345 net.cpp:228] detection_accuracy_4_5x5 does not need backward computation.
I0227 23:39:42.084902 23345 net.cpp:226] detection_loss_4_5x5 needs backward computation.
I0227 23:39:42.084905 23345 net.cpp:226] LFCN_4_5x5_LFCN_4_5x5_0_split needs backward computation.
I0227 23:39:42.084908 23345 net.cpp:226] LFCN_4_5x5 needs backward computation.
…
