…
    downsample_rate: 16
    downsample_rate: 32
    downsample_rate: 32
    downsample_rate: 64
    coord_num: 4
    field_h: 60
    field_h: 84
    field_h: 120
    field_h: 168
    field_h: 240
    field_h: 336
    field_h: 480
    field_w: 60
    field_w: 84
    field_w: 120
    field_w: 168
    field_w: 240
    field_w: 336
    field_w: 480
    fg_threshold: 0.5
    resize_width: 1344
    resize_height: 768
    crop_width: 768
    crop_height: 768
    do_multiple_scale: true
    min_scale: 60
    max_scale: 480
    min_gt_height: 25
    shuffle: true
  }
}
layer {
  name: "slice"
  type: "Slice"
  bottom: "data"
  top: "data123"
  top: "ch4"
  slice_param {
    slice_point: 3
    axis: 1
  }
}
layer {
  name: "conv1_1"
  type: "Convolution"
  bottom: "data123"
  top: "conv1_1"
  convolution_param {
    num_output: 64
    pad: 1
    kernel_size: 3
  }
}
layer {
  name: "relu1_1"
  type: "ReLU"
  bottom: "conv1_1"
  top: "conv1_1"
}
layer {
  name: "conv1_2"
  type: "Convolution"
  bottom: "conv1_1"
  top: "conv1_2"
  convolution_param {
    num_output: 64
    pad: 1
    kernel_size: 3
  }
}
layer {
  name: "relu1_2"
  type: "ReLU"
  bottom: "conv1_2"
  top: "conv1_2"
}
layer {
  name: "pool1"
  type: "Pooling"
  bottom: "conv1_2"
  top: "pool1"
  pooling_param {
    pool: MAX
    kernel_size: 2
    stride: 2
  }
}
layer {
  name: "ch4_pool1"
  type: "Pooling"
  bottom: "ch4"
  top: "ch4_pool1"
  pooling_param {
    pool: MAX
    kernel_size: 2
    stride: 2
  }
}
layer {
  name: "pool1_concat"
  type: "Concat"
  bottom: "pool1"
  bottom: "ch4_pool1"
  top: "pool1_new"
}
layer {
  name: "conv2_1_new"
  type: "Convolution"
  bottom: "pool1_new"
  top: "conv2_1"
  convolution_param {
    num_output: 128
    pad: 1
    kernel_size: 3
  }
}
layer {
  name: "relu2_1"
  type: "ReLU"
  bottom: "conv2_1"
  top: "conv2_1"
}
layer {
  name: "conv2_2"
  type: "Convolution"
  bottom: "conv2_1"
  top: "conv2_2"
  convolution_param {
    num_output: 128
    pad: 1
    kernel_size: 3
  }
}
layer {
  name: "relu2_2"
  type: "ReLU"
  bottom: "conv2_2"
  top: "conv2_2"
}
layer {
  name: "pool2"
  type: "Pooling"
  bottom: "conv2_2"
  top: "pool2"
  pooling_param {
    pool: MAX
    kernel_size: 2
    stride: 2
  }
}
layer {
  name: "ch4_pool2"
  type: "Pooling"
  bottom: "ch4_pool1"
  top: "ch4_pool2"
  pooling_param {
    pool: MAX
    kernel_size: 2
    stride: 2
  }
}
layer {
  name: "pool2_concat"
  type: "Concat"
  bottom: "pool2"
  bottom: "ch4_pool2"
  top: "pool2_new"
}
layer {
  name: "conv3_1_new"
  type: "Convolution"
  bottom: "pool2_new"
  top: "conv3_1"
  convolution_param {
    num_output: 256
    pad: 1
    kernel_size: 3
  }
}
layer {
  name: "relu3_1"
  type: "ReLU"
  bottom: "conv3_1"
  top: "conv3_1"
}
layer {
  name: "conv3_2"
  type: "Convolution"
  bottom: "conv3_1"
  top: "conv3_2"
  convolution_param {
    num_output: 256
    pad: 1
    kernel_size: 3
  }
}
layer {
  name: "relu3_2"
  type: "ReLU"
  bottom: "conv3_2"
  top: "conv3_2"
}
layer {
  name: "conv3_3"
  type: "Convolution"
  bottom: "conv3_2"
  top: "conv3_3"
  convolution_param {
    num_output: 256
    pad: 1
    kernel_size: 3
  }
}
layer {
  name: "relu3_3"
  type: "ReLU"
  bottom: "conv3_3"
  top: "conv3_3"
}
layer {
  name: "pool3"
  type: "Pooling"
  bottom: "conv3_3"
  top: "pool3"
  pooling_param {
    pool: MAX
    kernel_size: 2
    stride: 2
  }
}
layer {
  name: "ch4_pool3"
  type: "Pooling"
  bottom: "ch4_pool2"
  top: "ch4_pool3"
  pooling_param {
    pool: MAX
    kernel_size: 2
    stride: 2
  }
}
layer {
  name: "pool3_concat"
  type: "Concat"
  bottom: "pool3"
  bottom: "ch4_pool3"
  top: "pool3_new"
}
layer {
  name: "conv4_1_new"
  type: "Convolution"
  bottom: "pool3_new"
  top: "conv4_1"
  convolution_param {
    num_output: 512
    pad: 1
    kernel_size: 3
  }
}
layer {
  name: "relu4_1"
  type: "ReLU"
  bottom: "conv4_1"
  top: "conv4_1"
}
layer {
  name: "conv4_2"
  type: "Convolution"
  bottom: "conv4_1"
  top: "conv4_2"
  convolution_param {
    num_output: 512
    pad: 1
    kernel_size: 3
  }
}
layer {
  name: "relu4_2"
  type: "ReLU"
  bottom: "conv4_2"
  top: "conv4_2"
}
layer {
  name: "conv4_3"
  type: "Convolution"
  bottom: "conv4_2"
  top: "conv4_3"
  convolution_param {
    num_output: 512
    pad: 1
    kernel_size: 3
  }
}
layer {
  name: "relu4_3"
  type: "ReLU"
  bottom: "conv4_3"
  top: "conv4_3"
}
layer {
  name: "loss1_conv1"
  type: "Convolution"
  bottom: "conv4_3"
  top: "loss1_conv1"
  param {
    lr_mult: 1
    decay_mult: 1
  }
  param {
    lr_mult: 2
    decay_mult: 0
  }
  convolution_param {
    num_output: 512
    pad: 1
    kernel_size: 3
    weight_filler {
      type: "gaussian"
      std: 0.01
    }
    bias_filler {
      type: "constant"
    }
  }
}
layer {
  name: "loss_relu1"
  type: "ReLU"
  bottom: "loss1_conv1"
  top: "loss1_conv1"
}
layer {
  name: "LFCN_1_5x5"
  type: "Convolution"
  bottom: "loss1_conv1"
  top: "LFCN_1_5x5"
  param {
    lr_mult: 1
    decay_mult: 1
  }
  param {
    lr_mult: 2
    decay_mult: 0
  }
  convolution_param {
    num_output: 9
    pad: 2
    kernel_size: 5
    weight_filler {
      type: "gaussian"
      std: 0.001
    }
    bias_filler {
      type: "constant"
    }
  }
}
layer {
  name: "detection_loss_1_5x5"
  type: "DetectionLoss"
  bottom: "LFCN_1_5x5"
  bottom: "label_1_5x5"
  top: "loss_1_5x5"
  loss_weight: 0.9
  detection_loss_param {
    cls_num: 5
    coord_num: 4
    lambda: 0.05
    field_h: 60
    field_w: 60
    downsample_rate: 8
    bb_smooth: true
    field_whr: 2
    field_xyr: 2
    bg_threshold: 0.2
    bg_multiple: 2
    sample_mode: "random"
    pos_neg_weighted: true
  }
}
layer {
  name: "detection_accuracy_1_5x5"
  type: "DetectionAccuracy"
  bottom: "LFCN_1_5x5"
  bottom: "label_1_5x5"
  top: "accuracy_1_5x5"
  top: "boxiou_1_5x5"
  detection_accuracy_param {
    cls_num: 5
    coord_num: 4
    field_h: 60
    field_w: 60
    downsample_rate: 8
    field_whr: 2
    field_xyr: 2
  }
}
layer {
  name: "LFCN_1_7x7"
  type: "Convolution"
  bottom: "loss1_conv1"
  top: "LFCN_1_7x7"
  param {
    lr_mult: 1
    decay_mult: 1
  }
  param {
    lr_mult: 2
    decay_mult: 0
  }
  convolution_param {
    num_output: 9
    pad: 3
    kernel_size: 7
    weight_filler {
      type: "gaussian"
      std: 0.001
    }
    bias_filler {
      type: "constant"
    }
  }
}
layer {
  name: "detection_loss_1_7x7"
  type: "DetectionLoss"
  bottom: "LFCN_1_7x7"
  bottom: "label_1_7x7"
  top: "loss_1_7x7"
  loss_weight: 0.9
  detection_loss_param {
    cls_num: 5
    coord_num: 4
    lambda: 0.05
    field_h: 84
    field_w: 84
    downsample_rate: 8
    bb_smooth: true
    field_whr: 2
    field_xyr: 2
    bg_threshold: 0.2
    bg_multiple: 2
    sample_mode: "random"
    pos_neg_weighted: true
  }
}
layer {
  name: "detection_accuracy_1_7x7"
  type: "DetectionAccuracy"
  bottom: "LFCN_1_7x7"
  bottom: "label_1_7x7"
  top: "accuracy_1_7x7"
  top: "boxiou_1_7x7"
  detection_accuracy_param {
    cls_num: 5
    coord_num: 4
    field_h: 84
    field_w: 84
    downsample_rate: 8
    field_whr: 2
    field_xyr: 2
  }
}
layer {
  name: "pool4"
  type: "Pooling"
  bottom: "conv4_3"
  top: "pool4"
  pooling_param {
    pool: MAX
    kernel_size: 2
    stride: 2
  }
}
layer {
  name: "conv5_1"
  type: "Convolution"
  bottom: "pool4"
  top: "conv5_1"
  convolution_param {
    num_output: 512
    pad: 1
    kernel_size: 3
  }
}
layer {
  name: "relu5_1"
  type: "ReLU"
  bottom: "conv5_1"
  top: "conv5_1"
}
layer {
  name: "conv5_2"
  type: "Convolution"
  bottom: "conv5_1"
  top: "conv5_2"
  convolution_param {
    num_output: 512
    pad: 1
    kernel_size: 3
  }
}
layer {
  name: "relu5_2"
  type: "ReLU"
  bottom: "conv5_2"
  top: "conv5_2"
}
layer {
  name: "conv5_3"
  type: "Convolution"
  bottom: "conv5_2"
  top: "conv5_3"
  convolution_param {
    num_output: 512
    pad: 1
    kernel_size: 3
  }
}
layer {
  name: "relu5_3"
  type: "ReLU"
  bottom: "conv5_3"
  top: "conv5_3"
}
layer {
  name: "LFCN_2_5x5"
  type: "Convolution"
  bottom: "conv5_3"
  top: "LFCN_2_5x5"
  param {
    lr_mult: 1
    decay_mult: 1
  }
  param {
    lr_mult: 2
    decay_mult: 0
  }
  convolution_param {
    num_output: 9
    pad: 2
    kernel_size: 5
    weight_filler {
      type: "gaussian"
      std: 0.001
    }
    bias_filler {
      type: "constant"
    }
  }
}
layer {
  name: "detection_loss_2_5x5"
  type: "DetectionLoss"
  bottom: "LFCN_2_5x5"
  bottom: "label_2_5x5"
  top: "loss_2_5x5"
  detection_loss_param {
    cls_num: 5
    coord_num: 4
    lambda: 0.05
    field_h: 120
    field_w: 120
    downsample_rate: 16
    bb_smooth: true
    field_whr: 2
    field_xyr: 2
    bg_threshold: 0.2
    bg_multiple: 2
    sample_mode: "random"
    pos_neg_weighted: true
  }
}
layer {
  name: "detection_accuracy_2_5x5"
  type: "DetectionAccuracy"
  bottom: "LFCN_2_5x5"
  bottom: "label_2_5x5"
  top: "accuracy_2_5x5"
  top: "boxiou_2_5x5"
  detection_accuracy_param {
    cls_num: 5
    coord_num: 4
    field_h: 120
    field_w: 120
    downsample_rate: 16
    field_whr: 2
    field_xyr: 2
  }
}
layer {
  name: "LFCN_2_7x7"
  type: "Convolution"
  bottom: "conv5_3"
  top: "LFCN_2_7x7"
  param {
    lr_mult: 1
    decay_mult: 1
  }
  param {
    lr_mult: 2
    decay_mult: 0
  }
  convolution_param {
    num_output: 9
    pad: 3
    kernel_size: 7
    weight_filler {
      type: "gaussian"
      std: 0.001
    }
    bias_filler {
      type: "constant"
    }
  }
}
layer {
  name: "detection_loss_2_7x7"
  type: "DetectionLoss"
  bottom: "LFCN_2_7x7"
  bottom: "label_2_7x7"
  top: "loss_2_7x7"
  detection_loss_param {
    cls_num: 5
    coord_num: 4
    lambda: 0.05
    field_h: 168
    field_w: 168
    downsample_rate: 16
    bb_smooth: true
    field_whr: 2
    field_xyr: 2
    bg_threshold: 0.2
    bg_multiple: 2
    sample_mode: "random"
    pos_neg_weighted: true
  }
}
layer {
  name: "detection_accuracy_2_7x7"
  type: "DetectionAccuracy"
  bottom: "LFCN_2_7x7"
  bottom: "label_2_7x7"
  top: "accuracy_2_7x7"
  top: "boxiou_2_7x7"
  detection_accuracy_param {
    cls_num: 5
    coord_num: 4
    field_h: 168
    field_w: 168
    downsample_rate: 16
    field_whr: 2
    field_xyr: 2
  }
}
layer {
  name: "pool5"
  type: "Pooling"
  bottom: "conv5_3"
  top: "pool5"
  pooling_param {
    pool: MAX
    kernel_size: 2
    stride: 2
  }
}
layer {
  name: "conv6_1"
  type: "Convolution"
  bottom: "pool5"
  top: "conv6_1"
  param {
    lr_mult: 1
    decay_mult: 1
  }
  param {
    lr_mult: 2
    decay_mult: 0
  }
  convolution_param {
    num_output: 512
    pad: 1
    kernel_size: 3
    weight_filler {
      type: "gaussian"
      std: 0.01
    }
    bias_filler {
      type: "constant"
    }
  }
}
layer {
  name: "relu6_1"
  type: "ReLU"
  bottom: "conv6_1"
  top: "conv6_1"
}
layer {
  name: "LFCN_3_5x5"
  type: "Convolution"
  bottom: "conv6_1"
  top: "LFCN_3_5x5"
  param {
    lr_mult: 1
    decay_mult: 1
  }
  param {
    lr_mult: 2
    decay_mult: 0
  }
  convolution_param {
    num_output: 9
    pad: 2
    kernel_size: 5
    weight_filler {
      type: "gaussian"
      std: 0.001
    }
    bias_filler {
      type: "constant"
    }
  }
}
layer {
  name: "detection_loss_3_5x5"
  type: "DetectionLoss"
  bottom: "LFCN_3_5x5"
  bottom: "label_3_5x5"
  top: "loss_3_5x5"
  detection_loss_param {
    cls_num: 5
    coord_num: 4
    lambda: 0.05
    field_h: 240
    field_w: 240
    downsample_rate: 32
    bb_smooth: true
    field_whr: 2
    field_xyr: 2
    bg_threshold: 0.2
    bg_multiple: 2
    sample_mode: "random"
    pos_neg_weighted: true
  }
}
layer {
  name: "detection_accuracy_3_5x5"
  type: "DetectionAccuracy"
  bottom: "LFCN_3_5x5"
  bottom: "label_3_5x5"
  top: "accuracy_3_5x5"
  top: "boxiou_3_5x5"
  detection_accuracy_param {
    cls_num: 5
    coord_num: 4
    field_h: 240
    field_w: 240
    downsample_rate: 32
    field_whr: 2
    field_xyr: 2
  }
}
layer {
  name: "LFCN_3_7x7"
  type: "Convolution"
  bottom: "conv6_1"
  top: "LFCN_3_7x7"
  param {
    lr_mult: 1
    decay_mult: 1
  }
  param {
    lr_mult: 2
    decay_mult: 0
  }
  convolution_param {
    num_output: 9
    pad: 3
    kernel_size: 7
    weight_filler {
      type: "gaussian"
      std: 0.001
    }
    bias_filler {
      type: "constant"
    }
  }
}
layer {
  name: "detection_loss_3_7x7"
  type: "DetectionLoss"
  bottom: "LFCN_3_7x7"
  bottom: "label_3_7x7"
  top: "loss_3_7x7"
  detection_loss_param {
    cls_num: 5
    coord_num: 4
    lambda: 0.05
    field_h: 336
    field_w: 336
    downsample_rate: 32
    bb_smooth: true
    field_whr: 2
    field_xyr: 2
    bg_threshold: 0.2
    bg_multiple: 2
    sample_mode: "random"
    pos_neg_weighted: true
  }
}
layer {
  name: "detection_accuracy_3_7x7"
  type: "DetectionAccuracy"
  bottom: "LFCN_3_7x7"
  bottom: "label_3_7x7"
  top: "accuracy_3_7x7"
  top: "boxiou_3_7x7"
  detection_accuracy_param {
    cls_num: 5
    coord_num: 4
    field_h: 336
    field_w: 336
    downsample_rate: 32
    field_whr: 2
    field_xyr: 2
  }
}
layer {
  name: "pool6"
  type: "Pooling"
  bottom: "conv6_1"
  top: "pool6"
  pooling_param {
    pool: MAX
    kernel_size: 2
    stride: 2
  }
}
layer {
  name: "LFCN_4_5x5"
  type: "Convolution"
  bottom: "pool6"
  top: "LFCN_4_5x5"
  param {
    lr_mult: 1
    decay_mult: 1
  }
  param {
    lr_mult: 2
    decay_mult: 0
  }
  convolution_param {
    num_output: 9
    pad: 2
    kernel_size: 5
    weight_filler {
      type: "gaussian"
      std: 0.001
    }
    bias_filler {
      type: "constant"
    }
  }
}
layer {
  name: "detection_loss_4_5x5"
  type: "DetectionLoss"
  bottom: "LFCN_4_5x5"
  bottom: "label_4_5x5"
  top: "loss_4_5x5"
  detection_loss_param {
    cls_num: 5
    coord_num: 4
    lambda: 0.05
    field_h: 480
    field_w: 480
    downsample_rate: 64
    bb_smooth: true
    field_whr: 2
    field_xyr: 2
    bg_threshold: 0.2
    bg_multiple: 2
    sample_mode: "random"
    pos_neg_weighted: true
  }
}
layer {
  name: "detection_accuracy_4_5x5"
  type: "DetectionAccuracy"
  bottom: "LFCN_4_5x5"
  bottom: "label_4_5x5"
  top: "accuracy_4_5x5"
  top: "boxiou_4_5x5"
  detection_accuracy_param {
    cls_num: 5
    coord_num: 4
    field_h: 480
    field_w: 480
    downsample_rate: 64
    field_whr: 2
    field_xyr: 2
  }
}
I0419 03:03:48.578440 22690 layer_factory.hpp:77] Creating layer data
I0419 03:03:48.578478 22690 net.cpp:100] Creating Layer data
I0419 03:03:48.578485 22690 net.cpp:408] data -> data
…
I0419 03:03:48.622195 22690 image_gt_data_layer.cpp:235] output label size 1 : 4,6,96,96
I0419 03:03:48.622239 22690 image_gt_data_layer.cpp:235] output label size 2 : 4,6,48,48
I0419 03:03:48.622284 22690 image_gt_data_layer.cpp:235] output label size 3 : 4,6,48,48
I0419 03:03:48.622328 22690 image_gt_data_layer.cpp:235] output label size 4 : 4,6,24,24
I0419 03:03:48.622373 22690 image_gt_data_layer.cpp:235] output label size 5 : 4,6,24,24
I0419 03:03:48.622416 22690 image_gt_data_layer.cpp:235] output label size 6 : 4,6,12,12
I0419 03:03:48.683732 22690 net.cpp:150] Setting up data
I0419 03:03:48.683768 22690 net.cpp:157] Top shape: 4 4 768 768 (9437184)
I0419 03:03:48.683776 22690 net.cpp:157] Top shape: 4 6 96 96 (221184)
I0419 03:03:48.683781 22690 net.cpp:157] Top shape: 4 6 96 96 (221184)
I0419 03:03:48.683787 22690 net.cpp:157] Top shape: 4 6 48 48 (55296)
I0419 03:03:48.683792 22690 net.cpp:157] Top shape: 4 6 48 48 (55296)
I0419 03:03:48.683799 22690 net.cpp:157] Top shape: 4 6 24 24 (13824)
I0419 03:03:48.683805 22690 net.cpp:157] Top shape: 4 6 24 24 (13824)
I0419 03:03:48.683812 22690 net.cpp:157] Top shape: 4 6 12 12 (3456)
I0419 03:03:48.683818 22690 net.cpp:165] Memory required for data: 40084992
I0419 03:03:48.683828 22690 layer_factory.hpp:77] Creating layer label_1_5x5_data_1_split
I0419 03:03:48.683848 22690 net.cpp:100] Creating Layer label_1_5x5_data_1_split
I0419 03:03:48.683858 22690 net.cpp:434] label_1_5x5_data_1_split <- label_1_5x5
I0419 03:03:48.683881 22690 net.cpp:408] label_1_5x5_data_1_split -> label_1_5x5_data_1_split_0
I0419 03:03:48.683909 22690 net.cpp:408] label_1_5x5_data_1_split -> label_1_5x5_data_1_split_1
I0419 03:03:48.683964 22690 net.cpp:150] Setting up label_1_5x5_data_1_split
I0419 03:03:48.683974 22690 net.cpp:157] Top shape: 4 6 96 96 (221184)
I0419 03:03:48.683980 22690 net.cpp:157] Top shape: 4 6 96 96 (221184)
I0419 03:03:48.683985 22690 net.cpp:165] Memory required for data: 41854464
I0419 03:03:48.683990 22690 layer_factory.hpp:77] Creating layer label_1_7x7_data_2_split
I0419 03:03:48.683998 22690 net.cpp:100] Creating Layer label_1_7x7_data_2_split
I0419 03:03:48.684003 22690 net.cpp:434] label_1_7x7_data_2_split <- label_1_7x7
I0419 03:03:48.684010 22690 net.cpp:408] label_1_7x7_data_2_split -> label_1_7x7_data_2_split_0
I0419 03:03:48.684021 22690 net.cpp:408] label_1_7x7_data_2_split -> label_1_7x7_data_2_split_1
I0419 03:03:48.684067 22690 net.cpp:150] Setting up label_1_7x7_data_2_split
I0419 03:03:48.684075 22690 net.cpp:157] Top shape: 4 6 96 96 (221184)
I0419 03:03:48.684082 22690 net.cpp:157] Top shape: 4 6 96 96 (221184)
I0419 03:03:48.684087 22690 net.cpp:165] Memory required for data: 43623936
I0419 03:03:48.684092 22690 layer_factory.hpp:77] Creating layer label_2_5x5_data_3_split
I0419 03:03:48.684098 22690 net.cpp:100] Creating Layer label_2_5x5_data_3_split
I0419 03:03:48.684104 22690 net.cpp:434] label_2_5x5_data_3_split <- label_2_5x5
I0419 03:03:48.684111 22690 net.cpp:408] label_2_5x5_data_3_split -> label_2_5x5_data_3_split_0
I0419 03:03:48.684123 22690 net.cpp:408] label_2_5x5_data_3_split -> label_2_5x5_data_3_split_1
I0419 03:03:48.684280 22690 net.cpp:150] Setting up label_2_5x5_data_3_split
I0419 03:03:48.684345 22690 net.cpp:157] Top shape: 4 6 48 48 (55296)
I0419 03:03:48.684360 22690 net.cpp:157] Top shape: 4 6 48 48 (55296)
I0419 03:03:48.684370 22690 net.cpp:165] Memory required for data: 44066304
I0419 03:03:48.684383 22690 layer_factory.hpp:77] Creating layer label_2_7x7_data_4_split
I0419 03:03:48.684406 22690 net.cpp:100] Creating Layer label_2_7x7_data_4_split
I0419 03:03:48.684417 22690 net.cpp:434] label_2_7x7_data_4_split <- label_2_7x7
I0419 03:03:48.684432 22690 net.cpp:408] label_2_7x7_data_4_split -> label_2_7x7_data_4_split_0
I0419 03:03:48.684451 22690 net.cpp:408] label_2_7x7_data_4_split -> label_2_7x7_data_4_split_1
I0419 03:03:48.684517 22690 net.cpp:150] Setting up label_2_7x7_data_4_split
I0419 03:03:48.684530 22690 net.cpp:157] Top shape: 4 6 48 48 (55296)
I0419 03:03:48.684541 22690 net.cpp:157] Top shape: 4 6 48 48 (55296)
I0419 03:03:48.684551 22690 net.cpp:165] Memory required for data: 44508672
I0419 03:03:48.684561 22690 layer_factory.hpp:77] Creating layer label_3_5x5_data_5_split
I0419 03:03:48.684572 22690 net.cpp:100] Creating Layer label_3_5x5_data_5_split
I0419 03:03:48.684582 22690 net.cpp:434] label_3_5x5_data_5_split <- label_3_5x5
I0419 03:03:48.684594 22690 net.cpp:408] label_3_5x5_data_5_split -> label_3_5x5_data_5_split_0
I0419 03:03:48.684610 22690 net.cpp:408] label_3_5x5_data_5_split -> label_3_5x5_data_5_split_1
I0419 03:03:48.684667 22690 net.cpp:150] Setting up label_3_5x5_data_5_split
I0419 03:03:48.684680 22690 net.cpp:157] Top shape: 4 6 24 24 (13824)
I0419 03:03:48.684691 22690 net.cpp:157] Top shape: 4 6 24 24 (13824)
I0419 03:03:48.684700 22690 net.cpp:165] Memory required for data: 44619264
I0419 03:03:48.684710 22690 layer_factory.hpp:77] Creating layer label_3_7x7_data_6_split
I0419 03:03:48.684721 22690 net.cpp:100] Creating Layer label_3_7x7_data_6_split
I0419 03:03:48.684731 22690 net.cpp:434] label_3_7x7_data_6_split <- label_3_7x7
I0419 03:03:48.684742 22690 net.cpp:408] label_3_7x7_data_6_split -> label_3_7x7_data_6_split_0
I0419 03:03:48.684756 22690 net.cpp:408] label_3_7x7_data_6_split -> label_3_7x7_data_6_split_1
I0419 03:03:48.684813 22690 net.cpp:150] Setting up label_3_7x7_data_6_split
I0419 03:03:48.684825 22690 net.cpp:157] Top shape: 4 6 24 24 (13824)
I0419 03:03:48.684836 22690 net.cpp:157] Top shape: 4 6 24 24 (13824)
I0419 03:03:48.684845 22690 net.cpp:165] Memory required for data: 44729856
I0419 03:03:48.684852 22690 layer_factory.hpp:77] Creating layer label_4_5x5_data_7_split
I0419 03:03:48.684864 22690 net.cpp:100] Creating Layer label_4_5x5_data_7_split
I0419 03:03:48.684872 22690 net.cpp:434] label_4_5x5_data_7_split <- label_4_5x5
I0419 03:03:48.684883 22690 net.cpp:408] label_4_5x5_data_7_split -> label_4_5x5_data_7_split_0
I0419 03:03:48.684896 22690 net.cpp:408] label_4_5x5_data_7_split -> label_4_5x5_data_7_split_1
I0419 03:03:48.684953 22690 net.cpp:150] Setting up label_4_5x5_data_7_split
I0419 03:03:48.684967 22690 net.cpp:157] Top shape: 4 6 12 12 (3456)
I0419 03:03:48.684978 22690 net.cpp:157] Top shape: 4 6 12 12 (3456)
I0419 03:03:48.684986 22690 net.cpp:165] Memory required for data: 44757504
I0419 03:03:48.684994 22690 layer_factory.hpp:77] Creating layer slice
I0419 03:03:48.685020 22690 net.cpp:100] Creating Layer slice
I0419 03:03:48.685029 22690 net.cpp:434] slice <- data
I0419 03:03:48.685044 22690 net.cpp:408] slice -> data123
I0419 03:03:48.685061 22690 net.cpp:408] slice -> ch4
I0419 03:03:48.685122 22690 net.cpp:150] Setting up slice
I0419 03:03:48.685135 22690 net.cpp:157] Top shape: 4 3 768 768 (7077888)
I0419 03:03:48.685147 22690 net.cpp:157] Top shape: 4 1 768 768 (2359296)
I0419 03:03:48.685154 22690 net.cpp:165] Memory required for data: 82506240
I0419 03:03:48.685164 22690 layer_factory.hpp:77] Creating layer conv1_1
I0419 03:03:48.685184 22690 net.cpp:100] Creating Layer conv1_1
I0419 03:03:48.685194 22690 net.cpp:434] conv1_1 <- data123
I0419 03:03:48.685205 22690 net.cpp:408] conv1_1 -> conv1_1
I0419 03:03:48.903753 22690 net.cpp:150] Setting up conv1_1
I0419 03:03:48.903784 22690 net.cpp:157] Top shape: 4 64 768 768 (150994944)
I0419 03:03:48.903787 22690 net.cpp:165] Memory required for data: 686486016
I0419 03:03:48.903802 22690 layer_factory.hpp:77] Creating layer relu1_1
I0419 03:03:48.903813 22690 net.cpp:100] Creating Layer relu1_1
I0419 03:03:48.903818 22690 net.cpp:434] relu1_1 <- conv1_1
I0419 03:03:48.903825 22690 net.cpp:395] relu1_1 -> conv1_1 (in-place)
I0419 03:03:48.903975 22690 net.cpp:150] Setting up relu1_1
I0419 03:03:48.903985 22690 net.cpp:157] Top shape: 4 64 768 768 (150994944)
I0419 03:03:48.903988 22690 net.cpp:165] Memory required for data: 1290465792
I0419 03:03:48.903992 22690 layer_factory.hpp:77] Creating layer conv1_2
I0419 03:03:48.904000 22690 net.cpp:100] Creating Layer conv1_2
I0419 03:03:48.904004 22690 net.cpp:434] conv1_2 <- conv1_1
I0419 03:03:48.904009 22690 net.cpp:408] conv1_2 -> conv1_2
I0419 03:03:48.906028 22690 net.cpp:150] Setting up conv1_2
I0419 03:03:48.906041 22690 net.cpp:157] Top shape: 4 64 768 768 (150994944)
I0419 03:03:48.906045 22690 net.cpp:165] Memory required for data: 1894445568
I0419 03:03:48.906055 22690 layer_factory.hpp:77] Creating layer relu1_2
I0419 03:03:48.906061 22690 net.cpp:100] Creating Layer relu1_2
I0419 03:03:48.906064 22690 net.cpp:434] relu1_2 <- conv1_2
I0419 03:03:48.906069 22690 net.cpp:395] relu1_2 -> conv1_2 (in-place)
I0419 03:03:48.906213 22690 net.cpp:150] Setting up relu1_2
I0419 03:03:48.906222 22690 net.cpp:157] Top shape: 4 64 768 768 (150994944)
I0419 03:03:48.906226 22690 net.cpp:165] Memory required for data: 2498425344
I0419 03:03:48.906229 22690 layer_factory.hpp:77] Creating layer pool1
I0419 03:03:48.906235 22690 net.cpp:100] Creating Layer pool1
I0419 03:03:48.906239 22690 net.cpp:434] pool1 <- conv1_2
I0419 03:03:48.906251 22690 net.cpp:408] pool1 -> pool1
I0419 03:03:48.906303 22690 net.cpp:150] Setting up pool1
I0419 03:03:48.906311 22690 net.cpp:157] Top shape: 4 64 384 384 (37748736)
I0419 03:03:48.906313 22690 net.cpp:165] Memory required for data: 2649420288
I0419 03:03:48.906317 22690 layer_factory.hpp:77] Creating layer ch4_pool1
I0419 03:03:48.906322 22690 net.cpp:100] Creating Layer ch4_pool1
I0419 03:03:48.906325 22690 net.cpp:434] ch4_pool1 <- ch4
I0419 03:03:48.906332 22690 net.cpp:408] ch4_pool1 -> ch4_pool1
I0419 03:03:48.906359 22690 net.cpp:150] Setting up ch4_pool1
I0419 03:03:48.906364 22690 net.cpp:157] Top shape: 4 1 384 384 (589824)
I0419 03:03:48.906368 22690 net.cpp:165] Memory required for data: 2651779584
I0419 03:03:48.906370 22690 layer_factory.hpp:77] Creating layer ch4_pool1_ch4_pool1_0_split
I0419 03:03:48.906376 22690 net.cpp:100] Creating Layer ch4_pool1_ch4_pool1_0_split
I0419 03:03:48.906380 22690 net.cpp:434] ch4_pool1_ch4_pool1_0_split <- ch4_pool1
I0419 03:03:48.906384 22690 net.cpp:408] ch4_pool1_ch4_pool1_0_split -> ch4_pool1_ch4_pool1_0_split_0
I0419 03:03:48.906389 22690 net.cpp:408] ch4_pool1_ch4_pool1_0_split -> ch4_pool1_ch4_pool1_0_split_1
I0419 03:03:48.906417 22690 net.cpp:150] Setting up ch4_pool1_ch4_pool1_0_split
I0419 03:03:48.906422 22690 net.cpp:157] Top shape: 4 1 384 384 (589824)
I0419 03:03:48.906426 22690 net.cpp:157] Top shape: 4 1 384 384 (589824)
I0419 03:03:48.906430 22690 net.cpp:165] Memory required for data: 2656498176
I0419 03:03:48.906432 22690 layer_factory.hpp:77] Creating layer pool1_concat
I0419 03:03:48.906440 22690 net.cpp:100] Creating Layer pool1_concat
I0419 03:03:48.906443 22690 net.cpp:434] pool1_concat <- pool1
I0419 03:03:48.906447 22690 net.cpp:434] pool1_concat <- ch4_pool1_ch4_pool1_0_split_0
I0419 03:03:48.906451 22690 net.cpp:408] pool1_concat -> pool1_new
I0419 03:03:48.906471 22690 net.cpp:150] Setting up pool1_concat
I0419 03:03:48.906474 22690 net.cpp:157] Top shape: 4 65 384 384 (38338560)
I0419 03:03:48.906478 22690 net.cpp:165] Memory required for data: 2809852416
I0419 03:03:48.906481 22690 layer_factory.hpp:77] Creating layer conv2_1_new
I0419 03:03:48.906487 22690 net.cpp:100] Creating Layer conv2_1_new
I0419 03:03:48.906491 22690 net.cpp:434] conv2_1_new <- pool1_new
I0419 03:03:48.906496 22690 net.cpp:408] conv2_1_new -> conv2_1
I0419 03:03:48.908619 22690 net.cpp:150] Setting up conv2_1_new
I0419 03:03:48.908638 22690 net.cpp:157] Top shape: 4 128 384 384 (75497472)
I0419 03:03:48.908643 22690 net.cpp:165] Memory required for data: 3111842304
I0419 03:03:48.908655 22690 layer_factory.hpp:77] Creating layer relu2_1
I0419 03:03:48.908665 22690 net.cpp:100] Creating Layer relu2_1
I0419 03:03:48.908670 22690 net.cpp:434] relu2_1 <- conv2_1
I0419 03:03:48.908674 22690 net.cpp:395] relu2_1 -> conv2_1 (in-place)
I0419 03:03:48.908836 22690 net.cpp:150] Setting up relu2_1
I0419 03:03:48.908845 22690 net.cpp:157] Top shape: 4 128 384 384 (75497472)
I0419 03:03:48.908849 22690 net.cpp:165] Memory required for data: 3413832192
I0419 03:03:48.908852 22690 layer_factory.hpp:77] Creating layer conv2_2
I0419 03:03:48.908861 22690 net.cpp:100] Creating Layer conv2_2
I0419 03:03:48.908864 22690 net.cpp:434] conv2_2 <- conv2_1
I0419 03:03:48.908870 22690 net.cpp:408] conv2_2 -> conv2_2
I0419 03:03:48.910193 22690 net.cpp:150] Setting up conv2_2
I0419 03:03:48.910207 22690 net.cpp:157] Top shape: 4 128 384 384 (75497472)
I0419 03:03:48.910210 22690 net.cpp:165] Memory required for data: 3715822080
I0419 03:03:48.910217 22690 layer_factory.hpp:77] Creating layer relu2_2
I0419 03:03:48.910223 22690 net.cpp:100] Creating Layer relu2_2
I0419 03:03:48.910228 22690 net.cpp:434] relu2_2 <- conv2_2
I0419 03:03:48.910231 22690 net.cpp:395] relu2_2 -> conv2_2 (in-place)
I0419 03:03:48.910382 22690 net.cpp:150] Setting up relu2_2
I0419 03:03:48.910392 22690 net.cpp:157] Top shape: 4 128 384 384 (75497472)
I0419 03:03:48.910394 22690 net.cpp:165] Memory required for data: 4017811968
I0419 03:03:48.910398 22690 layer_factory.hpp:77] Creating layer pool2
I0419 03:03:48.910403 22690 net.cpp:100] Creating Layer pool2
I0419 03:03:48.910408 22690 net.cpp:434] pool2 <- conv2_2
I0419 03:03:48.910413 22690 net.cpp:408] pool2 -> pool2
I0419 03:03:48.910447 22690 net.cpp:150] Setting up pool2
I0419 03:03:48.910454 22690 net.cpp:157] Top shape: 4 128 192 192 (18874368)
I0419 03:03:48.910457 22690 net.cpp:165] Memory required for data: 4093309440
I0419 03:03:48.910460 22690 layer_factory.hpp:77] Creating layer ch4_pool2
I0419 03:03:48.910466 22690 net.cpp:100] Creating Layer ch4_pool2
I0419 03:03:48.910470 22690 net.cpp:434] ch4_pool2 <- ch4_pool1_ch4_pool1_0_split_1
I0419 03:03:48.910476 22690 net.cpp:408] ch4_pool2 -> ch4_pool2
I0419 03:03:48.910506 22690 net.cpp:150] Setting up ch4_pool2
I0419 03:03:48.910513 22690 net.cpp:157] Top shape: 4 1 192 192 (147456)
I0419 03:03:48.910516 22690 net.cpp:165] Memory required for data: 4093899264
I0419 03:03:48.910519 22690 layer_factory.hpp:77] Creating layer ch4_pool2_ch4_pool2_0_split
I0419 03:03:48.910524 22690 net.cpp:100] Creating Layer ch4_pool2_ch4_pool2_0_split
I0419 03:03:48.910527 22690 net.cpp:434] ch4_pool2_ch4_pool2_0_split <- ch4_pool2
I0419 03:03:48.910531 22690 net.cpp:408] ch4_pool2_ch4_pool2_0_split -> ch4_pool2_ch4_pool2_0_split_0
I0419 03:03:48.910537 22690 net.cpp:408] ch4_pool2_ch4_pool2_0_split -> ch4_pool2_ch4_pool2_0_split_1
I0419 03:03:48.910565 22690 net.cpp:150] Setting up ch4_pool2_ch4_pool2_0_split
I0419 03:03:48.910571 22690 net.cpp:157] Top shape: 4 1 192 192 (147456)
I0419 03:03:48.910575 22690 net.cpp:157] Top shape: 4 1 192 192 (147456)
I0419 03:03:48.910579 22690 net.cpp:165] Memory required for data: 4095078912
I0419 03:03:48.910583 22690 layer_factory.hpp:77] Creating layer pool2_concat
I0419 03:03:48.910588 22690 net.cpp:100] Creating Layer pool2_concat
I0419 03:03:48.910590 22690 net.cpp:434] pool2_concat <- pool2
I0419 03:03:48.910594 22690 net.cpp:434] pool2_concat <- ch4_pool2_ch4_pool2_0_split_0
I0419 03:03:48.910599 22690 net.cpp:408] pool2_concat -> pool2_new
I0419 03:03:48.910619 22690 net.cpp:150] Setting up pool2_concat
I0419 03:03:48.910625 22690 net.cpp:157] Top shape: 4 129 192 192 (19021824)
I0419 03:03:48.910629 22690 net.cpp:165] Memory required for data: 4171166208
I0419 03:03:48.910632 22690 layer_factory.hpp:77] Creating layer conv3_1_new
I0419 03:03:48.910640 22690 net.cpp:100] Creating Layer conv3_1_new
I0419 03:03:48.910643 22690 net.cpp:434] conv3_1_new <- pool2_new
I0419 03:03:48.910647 22690 net.cpp:408] conv3_1_new -> conv3_1
I0419 03:03:48.912786 22690 net.cpp:150] Setting up conv3_1_new
I0419 03:03:48.912799 22690 net.cpp:157] Top shape: 4 256 192 192 (37748736)
I0419 03:03:48.912803 22690 net.cpp:165] Memory required for data: 4322161152
I0419 03:03:48.912813 22690 layer_factory.hpp:77] Creating layer relu3_1
I0419 03:03:48.912820 22690 net.cpp:100] Creating Layer relu3_1
I0419 03:03:48.912824 22690 net.cpp:434] relu3_1 <- conv3_1
I0419 03:03:48.912830 22690 net.cpp:395] relu3_1 -> conv3_1 (in-place)
I0419 03:03:48.913251 22690 net.cpp:150] Setting up relu3_1
I0419 03:03:48.913264 22690 net.cpp:157] Top shape: 4 256 192 192 (37748736)
I0419 03:03:48.913267 22690 net.cpp:165] Memory required for data: 4473156096
I0419 03:03:48.913270 22690 layer_factory.hpp:77] Creating layer conv3_2
I0419 03:03:48.913278 22690 net.cpp:100] Creating Layer conv3_2
I0419 03:03:48.913282 22690 net.cpp:434] conv3_2 <- conv3_1
I0419 03:03:48.913287 22690 net.cpp:408] conv3_2 -> conv3_2
I0419 03:03:48.915369 22690 net.cpp:150] Setting up conv3_2
I0419 03:03:48.915382 22690 net.cpp:157] Top shape: 4 256 192 192 (37748736)
I0419 03:03:48.915386 22690 net.cpp:165] Memory required for data: 4624151040
I0419 03:03:48.915393 22690 layer_factory.hpp:77] Creating layer relu3_2
I0419 03:03:48.915400 22690 net.cpp:100] Creating Layer relu3_2
I0419 03:03:48.915403 22690 net.cpp:434] relu3_2 <- conv3_2
I0419 03:03:48.915410 22690 net.cpp:395] relu3_2 -> conv3_2 (in-place)
I0419 03:03:48.915822 22690 net.cpp:150] Setting up relu3_2
I0419 03:03:48.915833 22690 net.cpp:157] Top shape: 4 256 192 192 (37748736)
I0419 03:03:48.915838 22690 net.cpp:165] Memory required for data: 4775145984
I0419 03:03:48.915840 22690 layer_factory.hpp:77] Creating layer conv3_3
I0419 03:03:48.915848 22690 net.cpp:100] Creating Layer conv3_3
I0419 03:03:48.915851 22690 net.cpp:434] conv3_3 <- conv3_2
I0419 03:03:48.915858 22690 net.cpp:408] conv3_3 -> conv3_3
I0419 03:03:48.918522 22690 net.cpp:150] Setting up conv3_3
I0419 03:03:48.918548 22690 net.cpp:157] Top shape: 4 256 192 192 (37748736)
I0419 03:03:48.918552 22690 net.cpp:165] Memory required for data: 4926140928
I0419 03:03:48.918561 22690 layer_factory.hpp:77] Creating layer relu3_3
I0419 03:03:48.918571 22690 net.cpp:100] Creating Layer relu3_3
I0419 03:03:48.918576 22690 net.cpp:434] relu3_3 <- conv3_3
I0419 03:03:48.918583 22690 net.cpp:395] relu3_3 -> conv3_3 (in-place)
I0419 03:03:48.918746 22690 net.cpp:150] Setting up relu3_3
I0419 03:03:48.918756 22690 net.cpp:157] Top shape: 4 256 192 192 (37748736)
I0419 03:03:48.918758 22690 net.cpp:165] Memory required for data: 5077135872
I0419 03:03:48.918762 22690 layer_factory.hpp:77] Creating layer pool3
I0419 03:03:48.918771 22690 net.cpp:100] Creating Layer pool3
I0419 03:03:48.918773 22690 net.cpp:434] pool3 <- conv3_3
I0419 03:03:48.918779 22690 net.cpp:408] pool3 -> pool3
I0419 03:03:48.918817 22690 net.cpp:150] Setting up pool3
I0419 03:03:48.918824 22690 net.cpp:157] Top shape: 4 256 96 96 (9437184)
I0419 03:03:48.918828 22690 net.cpp:165] Memory required for data: 5114884608
I0419 03:03:48.918831 22690 layer_factory.hpp:77] Creating layer ch4_pool3
I0419 03:03:48.918840 22690 net.cpp:100] Creating Layer ch4_pool3
I0419 03:03:48.918844 22690 net.cpp:434] ch4_pool3 <- ch4_pool2_ch4_pool2_0_split_1
I0419 03:03:48.918849 22690 net.cpp:408] ch4_pool3 -> ch4_pool3
I0419 03:03:48.918879 22690 net.cpp:150] Setting up ch4_pool3
I0419 03:03:48.918886 22690 net.cpp:157] Top shape: 4 1 96 96 (36864)
I0419 03:03:48.918889 22690 net.cpp:165] Memory required for data: 5115032064
I0419 03:03:48.918892 22690 layer_factory.hpp:77] Creating layer pool3_concat
I0419 03:03:48.918898 22690 net.cpp:100] Creating Layer pool3_concat
I0419 03:03:48.918902 22690 net.cpp:434] pool3_concat <- pool3
I0419 03:03:48.918906 22690 net.cpp:434] pool3_concat <- ch4_pool3
I0419 03:03:48.918910 22690 net.cpp:408] pool3_concat -> pool3_new
I0419 03:03:48.918929 22690 net.cpp:150] Setting up pool3_concat
I0419 03:03:48.918936 22690 net.cpp:157] Top shape: 4 257 96 96 (9474048)
I0419 03:03:48.918938 22690 net.cpp:165] Memory required for data: 5152928256
I0419 03:03:48.918942 22690 layer_factory.hpp:77] Creating layer conv4_1_new
I0419 03:03:48.918951 22690 net.cpp:100] Creating Layer conv4_1_new
I0419 03:03:48.918954 22690 net.cpp:434] conv4_1_new <- pool3_new
I0419 03:03:48.918959 22690 net.cpp:408] conv4_1_new -> conv4_1
I0419 03:03:48.923199 22690 net.cpp:150] Setting up conv4_1_new
I0419 03:03:48.923228 22690 net.cpp:157] Top shape: 4 512 96 96 (18874368)
I0419 03:03:48.923231 22690 net.cpp:165] Memory required for data: 5228425728
I0419 03:03:48.923240 22690 layer_factory.hpp:77] Creating layer relu4_1
I0419 03:03:48.923254 22690 net.cpp:100] Creating Layer relu4_1
I0419 03:03:48.923259 22690 net.cpp:434] relu4_1 <- conv4_1
I0419 03:03:48.923264 22690 net.cpp:395] relu4_1 -> conv4_1 (in-place)
I0419 03:03:48.923418 22690 net.cpp:150] Setting up relu4_1
I0419 03:03:48.923427 22690 net.cpp:157] Top shape: 4 512 96 96 (18874368)
I0419 03:03:48.923430 22690 net.cpp:165] Memory required for data: 5303923200
I0419 03:03:48.923434 22690 layer_factory.hpp:77] Creating layer conv4_2
I0419 03:03:48.923444 22690 net.cpp:100] Creating Layer conv4_2
I0419 03:03:48.923447 22690 net.cpp:434] conv4_2 <- conv4_1
I0419 03:03:48.923452 22690 net.cpp:408] conv4_2 -> conv4_2
I0419 03:03:48.931246 22690 net.cpp:150] Setting up conv4_2
I0419 03:03:48.931283 22690 net.cpp:157] Top shape: 4 512 96 96 (18874368)
I0419 03:03:48.931289 22690 net.cpp:165] Memory required for data: 5379420672
I0419 03:03:48.931303 22690 layer_factory.hpp:77] Creating layer relu4_2
I0419 03:03:48.931316 22690 net.cpp:100] Creating Layer relu4_2
I0419 03:03:48.931322 22690 net.cpp:434] relu4_2 <- conv4_2
I0419 03:03:48.931329 22690 net.cpp:395] relu4_2 -> conv4_2 (in-place)
I0419 03:03:48.931484 22690 net.cpp:150] Setting up relu4_2
I0419 03:03:48.931493 22690 net.cpp:157] Top shape: 4 512 96 96 (18874368)
I0419 03:03:48.931497 22690 net.cpp:165] Memory required for data: 5454918144
I0419 03:03:48.931501 22690 layer_factory.hpp:77] Creating layer conv4_3
I0419 03:03:48.931511 22690 net.cpp:100] Creating Layer conv4_3
I0419 03:03:48.931515 22690 net.cpp:434] conv4_3 <- conv4_2
I0419 03:03:48.931520 22690 net.cpp:408] conv4_3 -> conv4_3
I0419 03:03:48.937865 22690 net.cpp:150] Setting up conv4_3
I0419 03:03:48.937896 22690 net.cpp:157] Top shape: 4 512 96 96 (18874368)
I0419 03:03:48.937901 22690 net.cpp:165] Memory required for data: 5530415616
I0419 03:03:48.937911 22690 layer_factory.hpp:77] Creating layer relu4_3
I0419 03:03:48.937925 22690 net.cpp:100] Creating Layer relu4_3
I0419 03:03:48.937932 22690 net.cpp:434] relu4_3 <- conv4_3
I0419 03:03:48.937942 22690 net.cpp:395] relu4_3 -> conv4_3 (in-place)
I0419 03:03:48.938129 22690 net.cpp:150] Setting up relu4_3
I0419 03:03:48.938138 22690 net.cpp:157] Top shape: 4 512 96 96 (18874368)
I0419 03:03:48.938143 22690 net.cpp:165] Memory required for data: 5605913088
I0419 03:03:48.938146 22690 layer_factory.hpp:77] Creating layer conv4_3_relu4_3_0_split
I0419 03:03:48.938155 22690 net.cpp:100] Creating Layer conv4_3_relu4_3_0_split
I0419 03:03:48.938158 22690 net.cpp:434] conv4_3_relu4_3_0_split <- conv4_3
I0419 03:03:48.938165 22690 net.cpp:408] conv4_3_relu4_3_0_split -> conv4_3_relu4_3_0_split_0
I0419 03:03:48.938174 22690 net.cpp:408] conv4_3_relu4_3_0_split -> conv4_3_relu4_3_0_split_1
I0419 03:03:48.938215 22690 net.cpp:150] Setting up conv4_3_relu4_3_0_split
I0419 03:03:48.938222 22690 net.cpp:157] Top shape: 4 512 96 96 (18874368)
I0419 03:03:48.938227 22690 net.cpp:157] Top shape: 4 512 96 96 (18874368)
I0419 03:03:48.938231 22690 net.cpp:165] Memory required for data: 5756908032
I0419 03:03:48.938235 22690 layer_factory.hpp:77] Creating layer loss1_conv1
I0419 03:03:48.938248 22690 net.cpp:100] Creating Layer loss1_conv1
I0419 03:03:48.938252 22690 net.cpp:434] loss1_conv1 <- conv4_3_relu4_3_0_split_0
I0419 03:03:48.938262 22690 net.cpp:408] loss1_conv1 -> loss1_conv1
I0419 03:03:49.001487 22690 net.cpp:150] Setting up loss1_conv1
I0419 03:03:49.001518 22690 net.cpp:157] Top shape: 4 512 96 96 (18874368)
I0419 03:03:49.001523 22690 net.cpp:165] Memory required for data: 5832405504
I0419 03:03:49.001533 22690 layer_factory.hpp:77] Creating layer loss_relu1
I0419 03:03:49.001543 22690 net.cpp:100] Creating Layer loss_relu1
I0419 03:03:49.001549 22690 net.cpp:434] loss_relu1 <- loss1_conv1
I0419 03:03:49.001559 22690 net.cpp:395] loss_relu1 -> loss1_conv1 (in-place)
I0419 03:03:49.002039 22690 net.cpp:150] Setting up loss_relu1
I0419 03:03:49.002053 22690 net.cpp:157] Top shape: 4 512 96 96 (18874368)
I0419 03:03:49.002056 22690 net.cpp:165] Memory required for data: 5907902976
I0419 03:03:49.002060 22690 layer_factory.hpp:77] Creating layer loss1_conv1_loss_relu1_0_split
I0419 03:03:49.002068 22690 net.cpp:100] Creating Layer loss1_conv1_loss_relu1_0_split
I0419 03:03:49.002073 22690 net.cpp:434] loss1_conv1_loss_relu1_0_split <- loss1_conv1
I0419 03:03:49.002079 22690 net.cpp:408] loss1_conv1_loss_relu1_0_split -> loss1_conv1_loss_relu1_0_split_0
I0419 03:03:49.002091 22690 net.cpp:408] loss1_conv1_loss_relu1_0_split -> loss1_conv1_loss_relu1_0_split_1
I0419 03:03:49.002131 22690 net.cpp:150] Setting up loss1_conv1_loss_relu1_0_split
I0419 03:03:49.002138 22690 net.cpp:157] Top shape: 4 512 96 96 (18874368)
I0419 03:03:49.002143 22690 net.cpp:157] Top shape: 4 512 96 96 (18874368)
I0419 03:03:49.002147 22690 net.cpp:165] Memory required for data: 6058897920
I0419 03:03:49.002151 22690 layer_factory.hpp:77] Creating layer LFCN_1_5x5
I0419 03:03:49.002166 22690 net.cpp:100] Creating Layer LFCN_1_5x5
I0419 03:03:49.002169 22690 net.cpp:434] LFCN_1_5x5 <- loss1_conv1_loss_relu1_0_split_0
I0419 03:03:49.002177 22690 net.cpp:408] LFCN_1_5x5 -> LFCN_1_5x5
I0419 03:03:49.006173 22690 net.cpp:150] Setting up LFCN_1_5x5
I0419 03:03:49.006186 22690 net.cpp:157] Top shape: 4 9 96 96 (331776)
I0419 03:03:49.006191 22690 net.cpp:165] Memory required for data: 6060225024
I0419 03:03:49.006199 22690 layer_factory.hpp:77] Creating layer LFCN_1_5x5_LFCN_1_5x5_0_split
I0419 03:03:49.006207 22690 net.cpp:100] Creating Layer LFCN_1_5x5_LFCN_1_5x5_0_split
I0419 03:03:49.006211 22690 net.cpp:434] LFCN_1_5x5_LFCN_1_5x5_0_split <- LFCN_1_5x5
I0419 03:03:49.006217 22690 net.cpp:408] LFCN_1_5x5_LFCN_1_5x5_0_split -> LFCN_1_5x5_LFCN_1_5x5_0_split_0
I0419 03:03:49.006227 22690 net.cpp:408] LFCN_1_5x5_LFCN_1_5x5_0_split -> LFCN_1_5x5_LFCN_1_5x5_0_split_1
I0419 03:03:49.006268 22690 net.cpp:150] Setting up LFCN_1_5x5_LFCN_1_5x5_0_split
I0419 03:03:49.006274 22690 net.cpp:157] Top shape: 4 9 96 96 (331776)
I0419 03:03:49.006279 22690 net.cpp:157] Top shape: 4 9 96 96 (331776)
I0419 03:03:49.006283 22690 net.cpp:165] Memory required for data: 6062879232
I0419 03:03:49.006287 22690 layer_factory.hpp:77] Creating layer detection_loss_1_5x5
I0419 03:03:49.006296 22690 net.cpp:100] Creating Layer detection_loss_1_5x5
I0419 03:03:49.006300 22690 net.cpp:434] detection_loss_1_5x5 <- LFCN_1_5x5_LFCN_1_5x5_0_split_0
I0419 03:03:49.006305 22690 net.cpp:434] detection_loss_1_5x5 <- label_1_5x5_data_1_split_0
I0419 03:03:49.006314 22690 net.cpp:408] detection_loss_1_5x5 -> loss_1_5x5
I0419 03:03:49.006330 22690 layer_factory.hpp:77] Creating layer detection_loss_1_5x5
I0419 03:03:49.008000 22690 net.cpp:150] Setting up detection_loss_1_5x5
I0419 03:03:49.008014 22690 net.cpp:157] Top shape: 1 1 1 2 (2)
I0419 03:03:49.008018 22690 net.cpp:160]     with loss weight 0.9
I0419 03:03:49.008036 22690 net.cpp:165] Memory required for data: 6062879240
I0419 03:03:49.008040 22690 layer_factory.hpp:77] Creating layer detection_accuracy_1_5x5
I0419 03:03:49.008047 22690 net.cpp:100] Creating Layer detection_accuracy_1_5x5
I0419 03:03:49.008051 22690 net.cpp:434] detection_accuracy_1_5x5 <- LFCN_1_5x5_LFCN_1_5x5_0_split_1
I0419 03:03:49.008056 22690 net.cpp:434] detection_accuracy_1_5x5 <- label_1_5x5_data_1_split_1
I0419 03:03:49.008062 22690 net.cpp:408] detection_accuracy_1_5x5 -> accuracy_1_5x5
I0419 03:03:49.008070 22690 net.cpp:408] detection_accuracy_1_5x5 -> boxiou_1_5x5
I0419 03:03:49.008105 22690 net.cpp:150] Setting up detection_accuracy_1_5x5
I0419 03:03:49.008111 22690 net.cpp:157] Top shape: 1 1 1 2 (2)
I0419 03:03:49.008116 22690 net.cpp:157] Top shape: 1 1 1 1 (1)
I0419 03:03:49.008119 22690 net.cpp:165] Memory required for data: 6062879252
I0419 03:03:49.008122 22690 layer_factory.hpp:77] Creating layer LFCN_1_7x7
I0419 03:03:49.008131 22690 net.cpp:100] Creating Layer LFCN_1_7x7
I0419 03:03:49.008136 22690 net.cpp:434] LFCN_1_7x7 <- loss1_conv1_loss_relu1_0_split_1
I0419 03:03:49.008141 22690 net.cpp:408] LFCN_1_7x7 -> LFCN_1_7x7
I0419 03:03:49.015810 22690 net.cpp:150] Setting up LFCN_1_7x7
I0419 03:03:49.015836 22690 net.cpp:157] Top shape: 4 9 96 96 (331776)
I0419 03:03:49.015841 22690 net.cpp:165] Memory required for data: 6064206356
I0419 03:03:49.015849 22690 layer_factory.hpp:77] Creating layer LFCN_1_7x7_LFCN_1_7x7_0_split
I0419 03:03:49.015859 22690 net.cpp:100] Creating Layer LFCN_1_7x7_LFCN_1_7x7_0_split
I0419 03:03:49.015866 22690 net.cpp:434] LFCN_1_7x7_LFCN_1_7x7_0_split <- LFCN_1_7x7
I0419 03:03:49.015872 22690 net.cpp:408] LFCN_1_7x7_LFCN_1_7x7_0_split -> LFCN_1_7x7_LFCN_1_7x7_0_split_0
I0419 03:03:49.015880 22690 net.cpp:408] LFCN_1_7x7_LFCN_1_7x7_0_split -> LFCN_1_7x7_LFCN_1_7x7_0_split_1
I0419 03:03:49.015918 22690 net.cpp:150] Setting up LFCN_1_7x7_LFCN_1_7x7_0_split
I0419 03:03:49.015923 22690 net.cpp:157] Top shape: 4 9 96 96 (331776)
I0419 03:03:49.015926 22690 net.cpp:157] Top shape: 4 9 96 96 (331776)
I0419 03:03:49.015929 22690 net.cpp:165] Memory required for data: 6066860564
I0419 03:03:49.015933 22690 layer_factory.hpp:77] Creating layer detection_loss_1_7x7
I0419 03:03:49.015941 22690 net.cpp:100] Creating Layer detection_loss_1_7x7
I0419 03:03:49.015945 22690 net.cpp:434] detection_loss_1_7x7 <- LFCN_1_7x7_LFCN_1_7x7_0_split_0
I0419 03:03:49.015949 22690 net.cpp:434] detection_loss_1_7x7 <- label_1_7x7_data_2_split_0
I0419 03:03:49.015955 22690 net.cpp:408] detection_loss_1_7x7 -> loss_1_7x7
I0419 03:03:49.015964 22690 layer_factory.hpp:77] Creating layer detection_loss_1_7x7
I0419 03:03:49.019054 22690 net.cpp:150] Setting up detection_loss_1_7x7
I0419 03:03:49.019096 22690 net.cpp:157] Top shape: 1 1 1 2 (2)
I0419 03:03:49.019105 22690 net.cpp:160]     with loss weight 0.9
I0419 03:03:49.019124 22690 net.cpp:165] Memory required for data: 6066860572
I0419 03:03:49.019134 22690 layer_factory.hpp:77] Creating layer detection_accuracy_1_7x7
I0419 03:03:49.019153 22690 net.cpp:100] Creating Layer detection_accuracy_1_7x7
I0419 03:03:49.019165 22690 net.cpp:434] detection_accuracy_1_7x7 <- LFCN_1_7x7_LFCN_1_7x7_0_split_1
I0419 03:03:49.019178 22690 net.cpp:434] detection_accuracy_1_7x7 <- label_1_7x7_data_2_split_1
I0419 03:03:49.019192 22690 net.cpp:408] detection_accuracy_1_7x7 -> accuracy_1_7x7
I0419 03:03:49.019208 22690 net.cpp:408] detection_accuracy_1_7x7 -> boxiou_1_7x7
I0419 03:03:49.019292 22690 net.cpp:150] Setting up detection_accuracy_1_7x7
I0419 03:03:49.019304 22690 net.cpp:157] Top shape: 1 1 1 2 (2)
I0419 03:03:49.019315 22690 net.cpp:157] Top shape: 1 1 1 1 (1)
I0419 03:03:49.019321 22690 net.cpp:165] Memory required for data: 6066860584
I0419 03:03:49.019328 22690 layer_factory.hpp:77] Creating layer pool4
I0419 03:03:49.019341 22690 net.cpp:100] Creating Layer pool4
I0419 03:03:49.019351 22690 net.cpp:434] pool4 <- conv4_3_relu4_3_0_split_1
I0419 03:03:49.019364 22690 net.cpp:408] pool4 -> pool4
I0419 03:03:49.019449 22690 net.cpp:150] Setting up pool4
I0419 03:03:49.019464 22690 net.cpp:157] Top shape: 4 512 48 48 (4718592)
I0419 03:03:49.019472 22690 net.cpp:165] Memory required for data: 6085734952
I0419 03:03:49.019481 22690 layer_factory.hpp:77] Creating layer conv5_1
I0419 03:03:49.019498 22690 net.cpp:100] Creating Layer conv5_1
I0419 03:03:49.019508 22690 net.cpp:434] conv5_1 <- pool4
I0419 03:03:49.019521 22690 net.cpp:408] conv5_1 -> conv5_1
I0419 03:03:49.029342 22690 net.cpp:150] Setting up conv5_1
I0419 03:03:49.029373 22690 net.cpp:157] Top shape: 4 512 48 48 (4718592)
I0419 03:03:49.029378 22690 net.cpp:165] Memory required for data: 6104609320
I0419 03:03:49.029389 22690 layer_factory.hpp:77] Creating layer relu5_1
I0419 03:03:49.029402 22690 net.cpp:100] Creating Layer relu5_1
I0419 03:03:49.029408 22690 net.cpp:434] relu5_1 <- conv5_1
I0419 03:03:49.029417 22690 net.cpp:395] relu5_1 -> conv5_1 (in-place)
I0419 03:03:49.029615 22690 net.cpp:150] Setting up relu5_1
I0419 03:03:49.029626 22690 net.cpp:157] Top shape: 4 512 48 48 (4718592)
I0419 03:03:49.029630 22690 net.cpp:165] Memory required for data: 6123483688
I0419 03:03:49.029635 22690 layer_factory.hpp:77] Creating layer conv5_2
I0419 03:03:49.029645 22690 net.cpp:100] Creating Layer conv5_2
I0419 03:03:49.029652 22690 net.cpp:434] conv5_2 <- conv5_1
I0419 03:03:49.029659 22690 net.cpp:408] conv5_2 -> conv5_2
I0419 03:03:49.038869 22690 net.cpp:150] Setting up conv5_2
I0419 03:03:49.038905 22690 net.cpp:157] Top shape: 4 512 48 48 (4718592)
I0419 03:03:49.038909 22690 net.cpp:165] Memory required for data: 6142358056
I0419 03:03:49.038919 22690 layer_factory.hpp:77] Creating layer relu5_2
I0419 03:03:49.038934 22690 net.cpp:100] Creating Layer relu5_2
I0419 03:03:49.038942 22690 net.cpp:434] relu5_2 <- conv5_2
I0419 03:03:49.038949 22690 net.cpp:395] relu5_2 -> conv5_2 (in-place)
I0419 03:03:49.039115 22690 net.cpp:150] Setting up relu5_2
I0419 03:03:49.039125 22690 net.cpp:157] Top shape: 4 512 48 48 (4718592)
I0419 03:03:49.039129 22690 net.cpp:165] Memory required for data: 6161232424
I0419 03:03:49.039134 22690 layer_factory.hpp:77] Creating layer conv5_3
I0419 03:03:49.039142 22690 net.cpp:100] Creating Layer conv5_3
I0419 03:03:49.039146 22690 net.cpp:434] conv5_3 <- conv5_2
I0419 03:03:49.039153 22690 net.cpp:408] conv5_3 -> conv5_3
I0419 03:03:49.045367 22690 net.cpp:150] Setting up conv5_3
I0419 03:03:49.045393 22690 net.cpp:157] Top shape: 4 512 48 48 (4718592)
I0419 03:03:49.045397 22690 net.cpp:165] Memory required for data: 6180106792
I0419 03:03:49.045406 22690 layer_factory.hpp:77] Creating layer relu5_3
I0419 03:03:49.045419 22690 net.cpp:100] Creating Layer relu5_3
I0419 03:03:49.045426 22690 net.cpp:434] relu5_3 <- conv5_3
I0419 03:03:49.045433 22690 net.cpp:395] relu5_3 -> conv5_3 (in-place)
I0419 03:03:49.045601 22690 net.cpp:150] Setting up relu5_3
I0419 03:03:49.045610 22690 net.cpp:157] Top shape: 4 512 48 48 (4718592)
I0419 03:03:49.045614 22690 net.cpp:165] Memory required for data: 6198981160
I0419 03:03:49.045619 22690 layer_factory.hpp:77] Creating layer conv5_3_relu5_3_0_split
I0419 03:03:49.045625 22690 net.cpp:100] Creating Layer conv5_3_relu5_3_0_split
I0419 03:03:49.045629 22690 net.cpp:434] conv5_3_relu5_3_0_split <- conv5_3
I0419 03:03:49.045635 22690 net.cpp:408] conv5_3_relu5_3_0_split -> conv5_3_relu5_3_0_split_0
I0419 03:03:49.045644 22690 net.cpp:408] conv5_3_relu5_3_0_split -> conv5_3_relu5_3_0_split_1
I0419 03:03:49.045650 22690 net.cpp:408] conv5_3_relu5_3_0_split -> conv5_3_relu5_3_0_split_2
I0419 03:03:49.045699 22690 net.cpp:150] Setting up conv5_3_relu5_3_0_split
I0419 03:03:49.045706 22690 net.cpp:157] Top shape: 4 512 48 48 (4718592)
I0419 03:03:49.045711 22690 net.cpp:157] Top shape: 4 512 48 48 (4718592)
I0419 03:03:49.045716 22690 net.cpp:157] Top shape: 4 512 48 48 (4718592)
I0419 03:03:49.045718 22690 net.cpp:165] Memory required for data: 6255604264
I0419 03:03:49.045722 22690 layer_factory.hpp:77] Creating layer LFCN_2_5x5
I0419 03:03:49.045734 22690 net.cpp:100] Creating Layer LFCN_2_5x5
I0419 03:03:49.045738 22690 net.cpp:434] LFCN_2_5x5 <- conv5_3_relu5_3_0_split_0
I0419 03:03:49.045747 22690 net.cpp:408] LFCN_2_5x5 -> LFCN_2_5x5
I0419 03:03:49.051017 22690 net.cpp:150] Setting up LFCN_2_5x5
I0419 03:03:49.051028 22690 net.cpp:157] Top shape: 4 9 48 48 (82944)
I0419 03:03:49.051030 22690 net.cpp:165] Memory required for data: 6255936040
I0419 03:03:49.051043 22690 layer_factory.hpp:77] Creating layer LFCN_2_5x5_LFCN_2_5x5_0_split
I0419 03:03:49.051048 22690 net.cpp:100] Creating Layer LFCN_2_5x5_LFCN_2_5x5_0_split
I0419 03:03:49.051050 22690 net.cpp:434] LFCN_2_5x5_LFCN_2_5x5_0_split <- LFCN_2_5x5
I0419 03:03:49.051054 22690 net.cpp:408] LFCN_2_5x5_LFCN_2_5x5_0_split -> LFCN_2_5x5_LFCN_2_5x5_0_split_0
I0419 03:03:49.051060 22690 net.cpp:408] LFCN_2_5x5_LFCN_2_5x5_0_split -> LFCN_2_5x5_LFCN_2_5x5_0_split_1
I0419 03:03:49.051090 22690 net.cpp:150] Setting up LFCN_2_5x5_LFCN_2_5x5_0_split
I0419 03:03:49.051093 22690 net.cpp:157] Top shape: 4 9 48 48 (82944)
I0419 03:03:49.051097 22690 net.cpp:157] Top shape: 4 9 48 48 (82944)
I0419 03:03:49.051100 22690 net.cpp:165] Memory required for data: 6256599592
I0419 03:03:49.051103 22690 layer_factory.hpp:77] Creating layer detection_loss_2_5x5
I0419 03:03:49.051110 22690 net.cpp:100] Creating Layer detection_loss_2_5x5
I0419 03:03:49.051112 22690 net.cpp:434] detection_loss_2_5x5 <- LFCN_2_5x5_LFCN_2_5x5_0_split_0
I0419 03:03:49.051116 22690 net.cpp:434] detection_loss_2_5x5 <- label_2_5x5_data_3_split_0
I0419 03:03:49.051122 22690 net.cpp:408] detection_loss_2_5x5 -> loss_2_5x5
I0419 03:03:49.051131 22690 layer_factory.hpp:77] Creating layer detection_loss_2_5x5
I0419 03:03:49.059495 22690 net.cpp:150] Setting up detection_loss_2_5x5
I0419 03:03:49.059562 22690 net.cpp:157] Top shape: 1 1 1 2 (2)
I0419 03:03:49.059568 22690 net.cpp:160]     with loss weight 1
I0419 03:03:49.059588 22690 net.cpp:165] Memory required for data: 6256599600
I0419 03:03:49.059597 22690 layer_factory.hpp:77] Creating layer detection_accuracy_2_5x5
I0419 03:03:49.059617 22690 net.cpp:100] Creating Layer detection_accuracy_2_5x5
I0419 03:03:49.059628 22690 net.cpp:434] detection_accuracy_2_5x5 <- LFCN_2_5x5_LFCN_2_5x5_0_split_1
I0419 03:03:49.059639 22690 net.cpp:434] detection_accuracy_2_5x5 <- label_2_5x5_data_3_split_1
I0419 03:03:49.059648 22690 net.cpp:408] detection_accuracy_2_5x5 -> accuracy_2_5x5
I0419 03:03:49.059659 22690 net.cpp:408] detection_accuracy_2_5x5 -> boxiou_2_5x5
I0419 03:03:49.059712 22690 net.cpp:150] Setting up detection_accuracy_2_5x5
I0419 03:03:49.059720 22690 net.cpp:157] Top shape: 1 1 1 2 (2)
I0419 03:03:49.059725 22690 net.cpp:157] Top shape: 1 1 1 1 (1)
I0419 03:03:49.059728 22690 net.cpp:165] Memory required for data: 6256599612
I0419 03:03:49.059731 22690 layer_factory.hpp:77] Creating layer LFCN_2_7x7
I0419 03:03:49.059761 22690 net.cpp:100] Creating Layer LFCN_2_7x7
I0419 03:03:49.059768 22690 net.cpp:434] LFCN_2_7x7 <- conv5_3_relu5_3_0_split_1
I0419 03:03:49.059775 22690 net.cpp:408] LFCN_2_7x7 -> LFCN_2_7x7
I0419 03:03:49.069511 22690 net.cpp:150] Setting up LFCN_2_7x7
I0419 03:03:49.069542 22690 net.cpp:157] Top shape: 4 9 48 48 (82944)
I0419 03:03:49.069550 22690 net.cpp:165] Memory required for data: 6256931388
I0419 03:03:49.069561 22690 layer_factory.hpp:77] Creating layer LFCN_2_7x7_LFCN_2_7x7_0_split
I0419 03:03:49.069573 22690 net.cpp:100] Creating Layer LFCN_2_7x7_LFCN_2_7x7_0_split
I0419 03:03:49.069581 22690 net.cpp:434] LFCN_2_7x7_LFCN_2_7x7_0_split <- LFCN_2_7x7
I0419 03:03:49.069589 22690 net.cpp:408] LFCN_2_7x7_LFCN_2_7x7_0_split -> LFCN_2_7x7_LFCN_2_7x7_0_split_0
I0419 03:03:49.069600 22690 net.cpp:408] LFCN_2_7x7_LFCN_2_7x7_0_split -> LFCN_2_7x7_LFCN_2_7x7_0_split_1
I0419 03:03:49.069653 22690 net.cpp:150] Setting up LFCN_2_7x7_LFCN_2_7x7_0_split
I0419 03:03:49.069664 22690 net.cpp:157] Top shape: 4 9 48 48 (82944)
I0419 03:03:49.069671 22690 net.cpp:157] Top shape: 4 9 48 48 (82944)
I0419 03:03:49.069676 22690 net.cpp:165] Memory required for data: 6257594940
I0419 03:03:49.069681 22690 layer_factory.hpp:77] Creating layer detection_loss_2_7x7
I0419 03:03:49.069694 22690 net.cpp:100] Creating Layer detection_loss_2_7x7
I0419 03:03:49.069700 22690 net.cpp:434] detection_loss_2_7x7 <- LFCN_2_7x7_LFCN_2_7x7_0_split_0
I0419 03:03:49.069707 22690 net.cpp:434] detection_loss_2_7x7 <- label_2_7x7_data_4_split_0
I0419 03:03:49.069718 22690 net.cpp:408] detection_loss_2_7x7 -> loss_2_7x7
I0419 03:03:49.069732 22690 layer_factory.hpp:77] Creating layer detection_loss_2_7x7
I0419 03:03:49.070690 22690 net.cpp:150] Setting up detection_loss_2_7x7
I0419 03:03:49.070705 22690 net.cpp:157] Top shape: 1 1 1 2 (2)
I0419 03:03:49.070709 22690 net.cpp:160]     with loss weight 1
I0419 03:03:49.070721 22690 net.cpp:165] Memory required for data: 6257594948
I0419 03:03:49.070725 22690 layer_factory.hpp:77] Creating layer detection_accuracy_2_7x7
I0419 03:03:49.070734 22690 net.cpp:100] Creating Layer detection_accuracy_2_7x7
I0419 03:03:49.070739 22690 net.cpp:434] detection_accuracy_2_7x7 <- LFCN_2_7x7_LFCN_2_7x7_0_split_1
I0419 03:03:49.070745 22690 net.cpp:434] detection_accuracy_2_7x7 <- label_2_7x7_data_4_split_1
I0419 03:03:49.070753 22690 net.cpp:408] detection_accuracy_2_7x7 -> accuracy_2_7x7
I0419 03:03:49.070761 22690 net.cpp:408] detection_accuracy_2_7x7 -> boxiou_2_7x7
I0419 03:03:49.070807 22690 net.cpp:150] Setting up detection_accuracy_2_7x7
I0419 03:03:49.070816 22690 net.cpp:157] Top shape: 1 1 1 2 (2)
I0419 03:03:49.070822 22690 net.cpp:157] Top shape: 1 1 1 1 (1)
I0419 03:03:49.070825 22690 net.cpp:165] Memory required for data: 6257594960
I0419 03:03:49.070829 22690 layer_factory.hpp:77] Creating layer pool5
I0419 03:03:49.070837 22690 net.cpp:100] Creating Layer pool5
I0419 03:03:49.070842 22690 net.cpp:434] pool5 <- conv5_3_relu5_3_0_split_2
I0419 03:03:49.070850 22690 net.cpp:408] pool5 -> pool5
I0419 03:03:49.070890 22690 net.cpp:150] Setting up pool5
I0419 03:03:49.070900 22690 net.cpp:157] Top shape: 4 512 24 24 (1179648)
I0419 03:03:49.070904 22690 net.cpp:165] Memory required for data: 6262313552
I0419 03:03:49.070909 22690 layer_factory.hpp:77] Creating layer conv6_1
I0419 03:03:49.070919 22690 net.cpp:100] Creating Layer conv6_1
I0419 03:03:49.070924 22690 net.cpp:434] conv6_1 <- pool5
I0419 03:03:49.070930 22690 net.cpp:408] conv6_1 -> conv6_1
I0419 03:03:49.133816 22690 net.cpp:150] Setting up conv6_1
I0419 03:03:49.133841 22690 net.cpp:157] Top shape: 4 512 24 24 (1179648)
I0419 03:03:49.133846 22690 net.cpp:165] Memory required for data: 6267032144
I0419 03:03:49.133853 22690 layer_factory.hpp:77] Creating layer relu6_1
I0419 03:03:49.133865 22690 net.cpp:100] Creating Layer relu6_1
I0419 03:03:49.133872 22690 net.cpp:434] relu6_1 <- conv6_1
I0419 03:03:49.133877 22690 net.cpp:395] relu6_1 -> conv6_1 (in-place)
I0419 03:03:49.134039 22690 net.cpp:150] Setting up relu6_1
I0419 03:03:49.134049 22690 net.cpp:157] Top shape: 4 512 24 24 (1179648)
I0419 03:03:49.134053 22690 net.cpp:165] Memory required for data: 6271750736
I0419 03:03:49.134057 22690 layer_factory.hpp:77] Creating layer conv6_1_relu6_1_0_split
I0419 03:03:49.134063 22690 net.cpp:100] Creating Layer conv6_1_relu6_1_0_split
I0419 03:03:49.134066 22690 net.cpp:434] conv6_1_relu6_1_0_split <- conv6_1
I0419 03:03:49.134073 22690 net.cpp:408] conv6_1_relu6_1_0_split -> conv6_1_relu6_1_0_split_0
I0419 03:03:49.134078 22690 net.cpp:408] conv6_1_relu6_1_0_split -> conv6_1_relu6_1_0_split_1
I0419 03:03:49.134084 22690 net.cpp:408] conv6_1_relu6_1_0_split -> conv6_1_relu6_1_0_split_2
I0419 03:03:49.134131 22690 net.cpp:150] Setting up conv6_1_relu6_1_0_split
I0419 03:03:49.134138 22690 net.cpp:157] Top shape: 4 512 24 24 (1179648)
I0419 03:03:49.134142 22690 net.cpp:157] Top shape: 4 512 24 24 (1179648)
I0419 03:03:49.134146 22690 net.cpp:157] Top shape: 4 512 24 24 (1179648)
I0419 03:03:49.134150 22690 net.cpp:165] Memory required for data: 6285906512
I0419 03:03:49.134153 22690 layer_factory.hpp:77] Creating layer LFCN_3_5x5
I0419 03:03:49.134163 22690 net.cpp:100] Creating Layer LFCN_3_5x5
I0419 03:03:49.134168 22690 net.cpp:434] LFCN_3_5x5 <- conv6_1_relu6_1_0_split_0
I0419 03:03:49.134176 22690 net.cpp:408] LFCN_3_5x5 -> LFCN_3_5x5
I0419 03:03:49.138192 22690 net.cpp:150] Setting up LFCN_3_5x5
I0419 03:03:49.138207 22690 net.cpp:157] Top shape: 4 9 24 24 (20736)
I0419 03:03:49.138211 22690 net.cpp:165] Memory required for data: 6285989456
I0419 03:03:49.138216 22690 layer_factory.hpp:77] Creating layer LFCN_3_5x5_LFCN_3_5x5_0_split
I0419 03:03:49.138223 22690 net.cpp:100] Creating Layer LFCN_3_5x5_LFCN_3_5x5_0_split
I0419 03:03:49.138227 22690 net.cpp:434] LFCN_3_5x5_LFCN_3_5x5_0_split <- LFCN_3_5x5
I0419 03:03:49.138233 22690 net.cpp:408] LFCN_3_5x5_LFCN_3_5x5_0_split -> LFCN_3_5x5_LFCN_3_5x5_0_split_0
I0419 03:03:49.138240 22690 net.cpp:408] LFCN_3_5x5_LFCN_3_5x5_0_split -> LFCN_3_5x5_LFCN_3_5x5_0_split_1
I0419 03:03:49.138274 22690 net.cpp:150] Setting up LFCN_3_5x5_LFCN_3_5x5_0_split
I0419 03:03:49.138280 22690 net.cpp:157] Top shape: 4 9 24 24 (20736)
I0419 03:03:49.138285 22690 net.cpp:157] Top shape: 4 9 24 24 (20736)
I0419 03:03:49.138288 22690 net.cpp:165] Memory required for data: 6286155344
I0419 03:03:49.138291 22690 layer_factory.hpp:77] Creating layer detection_loss_3_5x5
I0419 03:03:49.138298 22690 net.cpp:100] Creating Layer detection_loss_3_5x5
I0419 03:03:49.138301 22690 net.cpp:434] detection_loss_3_5x5 <- LFCN_3_5x5_LFCN_3_5x5_0_split_0
I0419 03:03:49.138306 22690 net.cpp:434] detection_loss_3_5x5 <- label_3_5x5_data_5_split_0
I0419 03:03:49.138314 22690 net.cpp:408] detection_loss_3_5x5 -> loss_3_5x5
I0419 03:03:49.138321 22690 layer_factory.hpp:77] Creating layer detection_loss_3_5x5
I0419 03:03:49.138626 22690 net.cpp:150] Setting up detection_loss_3_5x5
I0419 03:03:49.138636 22690 net.cpp:157] Top shape: 1 1 1 2 (2)
I0419 03:03:49.138639 22690 net.cpp:160]     with loss weight 1
I0419 03:03:49.138650 22690 net.cpp:165] Memory required for data: 6286155352
I0419 03:03:49.138653 22690 layer_factory.hpp:77] Creating layer detection_accuracy_3_5x5
I0419 03:03:49.138660 22690 net.cpp:100] Creating Layer detection_accuracy_3_5x5
I0419 03:03:49.138664 22690 net.cpp:434] detection_accuracy_3_5x5 <- LFCN_3_5x5_LFCN_3_5x5_0_split_1
I0419 03:03:49.138669 22690 net.cpp:434] detection_accuracy_3_5x5 <- label_3_5x5_data_5_split_1
I0419 03:03:49.138674 22690 net.cpp:408] detection_accuracy_3_5x5 -> accuracy_3_5x5
I0419 03:03:49.138680 22690 net.cpp:408] detection_accuracy_3_5x5 -> boxiou_3_5x5
I0419 03:03:49.138715 22690 net.cpp:150] Setting up detection_accuracy_3_5x5
I0419 03:03:49.138721 22690 net.cpp:157] Top shape: 1 1 1 2 (2)
I0419 03:03:49.138726 22690 net.cpp:157] Top shape: 1 1 1 1 (1)
I0419 03:03:49.138730 22690 net.cpp:165] Memory required for data: 6286155364
I0419 03:03:49.138732 22690 layer_factory.hpp:77] Creating layer LFCN_3_7x7
I0419 03:03:49.138743 22690 net.cpp:100] Creating Layer LFCN_3_7x7
I0419 03:03:49.138746 22690 net.cpp:434] LFCN_3_7x7 <- conv6_1_relu6_1_0_split_1
I0419 03:03:49.138753 22690 net.cpp:408] LFCN_3_7x7 -> LFCN_3_7x7
I0419 03:03:49.146260 22690 net.cpp:150] Setting up LFCN_3_7x7
I0419 03:03:49.146276 22690 net.cpp:157] Top shape: 4 9 24 24 (20736)
I0419 03:03:49.146281 22690 net.cpp:165] Memory required for data: 6286238308
I0419 03:03:49.146287 22690 layer_factory.hpp:77] Creating layer LFCN_3_7x7_LFCN_3_7x7_0_split
I0419 03:03:49.146293 22690 net.cpp:100] Creating Layer LFCN_3_7x7_LFCN_3_7x7_0_split
I0419 03:03:49.146297 22690 net.cpp:434] LFCN_3_7x7_LFCN_3_7x7_0_split <- LFCN_3_7x7
I0419 03:03:49.146303 22690 net.cpp:408] LFCN_3_7x7_LFCN_3_7x7_0_split -> LFCN_3_7x7_LFCN_3_7x7_0_split_0
I0419 03:03:49.146311 22690 net.cpp:408] LFCN_3_7x7_LFCN_3_7x7_0_split -> LFCN_3_7x7_LFCN_3_7x7_0_split_1
I0419 03:03:49.146345 22690 net.cpp:150] Setting up LFCN_3_7x7_LFCN_3_7x7_0_split
I0419 03:03:49.146350 22690 net.cpp:157] Top shape: 4 9 24 24 (20736)
I0419 03:03:49.146354 22690 net.cpp:157] Top shape: 4 9 24 24 (20736)
I0419 03:03:49.146358 22690 net.cpp:165] Memory required for data: 6286404196
I0419 03:03:49.146361 22690 layer_factory.hpp:77] Creating layer detection_loss_3_7x7
I0419 03:03:49.146368 22690 net.cpp:100] Creating Layer detection_loss_3_7x7
I0419 03:03:49.146371 22690 net.cpp:434] detection_loss_3_7x7 <- LFCN_3_7x7_LFCN_3_7x7_0_split_0
I0419 03:03:49.146376 22690 net.cpp:434] detection_loss_3_7x7 <- label_3_7x7_data_6_split_0
I0419 03:03:49.146381 22690 net.cpp:408] detection_loss_3_7x7 -> loss_3_7x7
I0419 03:03:49.146390 22690 layer_factory.hpp:77] Creating layer detection_loss_3_7x7
I0419 03:03:49.146693 22690 net.cpp:150] Setting up detection_loss_3_7x7
I0419 03:03:49.146703 22690 net.cpp:157] Top shape: 1 1 1 2 (2)
I0419 03:03:49.146706 22690 net.cpp:160]     with loss weight 1
I0419 03:03:49.146714 22690 net.cpp:165] Memory required for data: 6286404204
I0419 03:03:49.146718 22690 layer_factory.hpp:77] Creating layer detection_accuracy_3_7x7
I0419 03:03:49.146724 22690 net.cpp:100] Creating Layer detection_accuracy_3_7x7
I0419 03:03:49.146728 22690 net.cpp:434] detection_accuracy_3_7x7 <- LFCN_3_7x7_LFCN_3_7x7_0_split_1
I0419 03:03:49.146733 22690 net.cpp:434] detection_accuracy_3_7x7 <- label_3_7x7_data_6_split_1
I0419 03:03:49.146739 22690 net.cpp:408] detection_accuracy_3_7x7 -> accuracy_3_7x7
I0419 03:03:49.146745 22690 net.cpp:408] detection_accuracy_3_7x7 -> boxiou_3_7x7
I0419 03:03:49.146780 22690 net.cpp:150] Setting up detection_accuracy_3_7x7
I0419 03:03:49.146787 22690 net.cpp:157] Top shape: 1 1 1 2 (2)
I0419 03:03:49.146791 22690 net.cpp:157] Top shape: 1 1 1 1 (1)
I0419 03:03:49.146795 22690 net.cpp:165] Memory required for data: 6286404216
I0419 03:03:49.146797 22690 layer_factory.hpp:77] Creating layer pool6
I0419 03:03:49.146803 22690 net.cpp:100] Creating Layer pool6
I0419 03:03:49.146806 22690 net.cpp:434] pool6 <- conv6_1_relu6_1_0_split_2
I0419 03:03:49.146811 22690 net.cpp:408] pool6 -> pool6
I0419 03:03:49.146847 22690 net.cpp:150] Setting up pool6
I0419 03:03:49.146852 22690 net.cpp:157] Top shape: 4 512 12 12 (294912)
I0419 03:03:49.146857 22690 net.cpp:165] Memory required for data: 6287583864
I0419 03:03:49.146859 22690 layer_factory.hpp:77] Creating layer LFCN_4_5x5
I0419 03:03:49.146869 22690 net.cpp:100] Creating Layer LFCN_4_5x5
I0419 03:03:49.146875 22690 net.cpp:434] LFCN_4_5x5 <- pool6
I0419 03:03:49.146880 22690 net.cpp:408] LFCN_4_5x5 -> LFCN_4_5x5
I0419 03:03:49.150993 22690 net.cpp:150] Setting up LFCN_4_5x5
I0419 03:03:49.151013 22690 net.cpp:157] Top shape: 4 9 12 12 (5184)
I0419 03:03:49.151017 22690 net.cpp:165] Memory required for data: 6287604600
I0419 03:03:49.151026 22690 layer_factory.hpp:77] Creating layer LFCN_4_5x5_LFCN_4_5x5_0_split
I0419 03:03:49.151033 22690 net.cpp:100] Creating Layer LFCN_4_5x5_LFCN_4_5x5_0_split
I0419 03:03:49.151039 22690 net.cpp:434] LFCN_4_5x5_LFCN_4_5x5_0_split <- LFCN_4_5x5
I0419 03:03:49.151046 22690 net.cpp:408] LFCN_4_5x5_LFCN_4_5x5_0_split -> LFCN_4_5x5_LFCN_4_5x5_0_split_0
I0419 03:03:49.151052 22690 net.cpp:408] LFCN_4_5x5_LFCN_4_5x5_0_split -> LFCN_4_5x5_LFCN_4_5x5_0_split_1
I0419 03:03:49.151088 22690 net.cpp:150] Setting up LFCN_4_5x5_LFCN_4_5x5_0_split
I0419 03:03:49.151094 22690 net.cpp:157] Top shape: 4 9 12 12 (5184)
I0419 03:03:49.151098 22690 net.cpp:157] Top shape: 4 9 12 12 (5184)
I0419 03:03:49.151101 22690 net.cpp:165] Memory required for data: 6287646072
I0419 03:03:49.151105 22690 layer_factory.hpp:77] Creating layer detection_loss_4_5x5
I0419 03:03:49.151111 22690 net.cpp:100] Creating Layer detection_loss_4_5x5
I0419 03:03:49.151115 22690 net.cpp:434] detection_loss_4_5x5 <- LFCN_4_5x5_LFCN_4_5x5_0_split_0
I0419 03:03:49.151120 22690 net.cpp:434] detection_loss_4_5x5 <- label_4_5x5_data_7_split_0
I0419 03:03:49.151126 22690 net.cpp:408] detection_loss_4_5x5 -> loss_4_5x5
I0419 03:03:49.151134 22690 layer_factory.hpp:77] Creating layer detection_loss_4_5x5
I0419 03:03:49.151441 22690 net.cpp:150] Setting up detection_loss_4_5x5
I0419 03:03:49.151450 22690 net.cpp:157] Top shape: 1 1 1 2 (2)
I0419 03:03:49.151453 22690 net.cpp:160]     with loss weight 1
I0419 03:03:49.151463 22690 net.cpp:165] Memory required for data: 6287646080
I0419 03:03:49.151466 22690 layer_factory.hpp:77] Creating layer detection_accuracy_4_5x5
I0419 03:03:49.151474 22690 net.cpp:100] Creating Layer detection_accuracy_4_5x5
I0419 03:03:49.151479 22690 net.cpp:434] detection_accuracy_4_5x5 <- LFCN_4_5x5_LFCN_4_5x5_0_split_1
I0419 03:03:49.151482 22690 net.cpp:434] detection_accuracy_4_5x5 <- label_4_5x5_data_7_split_1
I0419 03:03:49.151489 22690 net.cpp:408] detection_accuracy_4_5x5 -> accuracy_4_5x5
I0419 03:03:49.151495 22690 net.cpp:408] detection_accuracy_4_5x5 -> boxiou_4_5x5
I0419 03:03:49.151530 22690 net.cpp:150] Setting up detection_accuracy_4_5x5
I0419 03:03:49.151535 22690 net.cpp:157] Top shape: 1 1 1 2 (2)
I0419 03:03:49.151540 22690 net.cpp:157] Top shape: 1 1 1 1 (1)
I0419 03:03:49.151542 22690 net.cpp:165] Memory required for data: 6287646092
I0419 03:03:49.151546 22690 net.cpp:228] detection_accuracy_4_5x5 does not need backward computation.
I0419 03:03:49.151549 22690 net.cpp:226] detection_loss_4_5x5 needs backward computation.
I0419 03:03:49.151553 22690 net.cpp:226] LFCN_4_5x5_LFCN_4_5x5_0_split needs backward computation.
I0419 03:03:49.151556 22690 net.cpp:226] LFCN_4_5x5 needs backward computation.
…
I0419 03:03:49.163736 22690 image_gt_data_layer.cpp:235] output label size 1 : 2,6,96,96
I0419 03:03:49.163785 22690 image_gt_data_layer.cpp:235] output label size 2 : 2,6,48,48
I0419 03:03:49.163836 22690 image_gt_data_layer.cpp:235] output label size 3 : 2,6,48,48
I0419 03:03:49.163887 22690 image_gt_data_layer.cpp:235] output label size 4 : 2,6,24,24
I0419 03:03:49.163936 22690 image_gt_data_layer.cpp:235] output label size 5 : 2,6,24,24
I0419 03:03:49.163985 22690 image_gt_data_layer.cpp:235] output label size 6 : 2,6,12,12
I0419 03:03:49.195802 22690 net.cpp:150] Setting up data
I0419 03:03:49.195837 22690 net.cpp:157] Top shape: 2 4 768 768 (4718592)
I0419 03:03:49.195847 22690 net.cpp:157] Top shape: 2 6 96 96 (110592)
I0419 03:03:49.195855 22690 net.cpp:157] Top shape: 2 6 96 96 (110592)
I0419 03:03:49.195863 22690 net.cpp:157] Top shape: 2 6 48 48 (27648)
I0419 03:03:49.195871 22690 net.cpp:157] Top shape: 2 6 48 48 (27648)
I0419 03:03:49.195878 22690 net.cpp:157] Top shape: 2 6 24 24 (6912)
I0419 03:03:49.195888 22690 net.cpp:157] Top shape: 2 6 24 24 (6912)
I0419 03:03:49.195894 22690 net.cpp:157] Top shape: 2 6 12 12 (1728)
I0419 03:03:49.195899 22690 net.cpp:165] Memory required for data: 20042496
I0419 03:03:49.195906 22690 layer_factory.hpp:77] Creating layer label_1_5x5_data_1_split
I0419 03:03:49.195922 22690 net.cpp:100] Creating Layer label_1_5x5_data_1_split
I0419 03:03:49.195930 22690 net.cpp:434] label_1_5x5_data_1_split <- label_1_5x5
I0419 03:03:49.195938 22690 net.cpp:408] label_1_5x5_data_1_split -> label_1_5x5_data_1_split_0
I0419 03:03:49.195951 22690 net.cpp:408] label_1_5x5_data_1_split -> label_1_5x5_data_1_split_1
I0419 03:03:49.196027 22690 net.cpp:150] Setting up label_1_5x5_data_1_split
I0419 03:03:49.196038 22690 net.cpp:157] Top shape: 2 6 96 96 (110592)
I0419 03:03:49.196043 22690 net.cpp:157] Top shape: 2 6 96 96 (110592)
I0419 03:03:49.196048 22690 net.cpp:165] Memory required for data: 20927232
I0419 03:03:49.196050 22690 layer_factory.hpp:77] Creating layer label_1_7x7_data_2_split
I0419 03:03:49.196056 22690 net.cpp:100] Creating Layer label_1_7x7_data_2_split
I0419 03:03:49.196060 22690 net.cpp:434] label_1_7x7_data_2_split <- label_1_7x7
I0419 03:03:49.196065 22690 net.cpp:408] label_1_7x7_data_2_split -> label_1_7x7_data_2_split_0
I0419 03:03:49.196070 22690 net.cpp:408] label_1_7x7_data_2_split -> label_1_7x7_data_2_split_1
I0419 03:03:49.196105 22690 net.cpp:150] Setting up label_1_7x7_data_2_split
I0419 03:03:49.196111 22690 net.cpp:157] Top shape: 2 6 96 96 (110592)
I0419 03:03:49.196116 22690 net.cpp:157] Top shape: 2 6 96 96 (110592)
I0419 03:03:49.196120 22690 net.cpp:165] Memory required for data: 21811968
I0419 03:03:49.196123 22690 layer_factory.hpp:77] Creating layer label_2_5x5_data_3_split
I0419 03:03:49.196128 22690 net.cpp:100] Creating Layer label_2_5x5_data_3_split
I0419 03:03:49.196132 22690 net.cpp:434] label_2_5x5_data_3_split <- label_2_5x5
I0419 03:03:49.196137 22690 net.cpp:408] label_2_5x5_data_3_split -> label_2_5x5_data_3_split_0
I0419 03:03:49.196142 22690 net.cpp:408] label_2_5x5_data_3_split -> label_2_5x5_data_3_split_1
I0419 03:03:49.196173 22690 net.cpp:150] Setting up label_2_5x5_data_3_split
I0419 03:03:49.196180 22690 net.cpp:157] Top shape: 2 6 48 48 (27648)
I0419 03:03:49.196184 22690 net.cpp:157] Top shape: 2 6 48 48 (27648)
I0419 03:03:49.196188 22690 net.cpp:165] Memory required for data: 22033152
I0419 03:03:49.196192 22690 layer_factory.hpp:77] Creating layer label_2_7x7_data_4_split
I0419 03:03:49.196197 22690 net.cpp:100] Creating Layer label_2_7x7_data_4_split
I0419 03:03:49.196200 22690 net.cpp:434] label_2_7x7_data_4_split <- label_2_7x7
I0419 03:03:49.196205 22690 net.cpp:408] label_2_7x7_data_4_split -> label_2_7x7_data_4_split_0
I0419 03:03:49.196210 22690 net.cpp:408] label_2_7x7_data_4_split -> label_2_7x7_data_4_split_1
I0419 03:03:49.196240 22690 net.cpp:150] Setting up label_2_7x7_data_4_split
I0419 03:03:49.196245 22690 net.cpp:157] Top shape: 2 6 48 48 (27648)
I0419 03:03:49.196250 22690 net.cpp:157] Top shape: 2 6 48 48 (27648)
I0419 03:03:49.196254 22690 net.cpp:165] Memory required for data: 22254336
I0419 03:03:49.196256 22690 layer_factory.hpp:77] Creating layer label_3_5x5_data_5_split
I0419 03:03:49.196261 22690 net.cpp:100] Creating Layer label_3_5x5_data_5_split
I0419 03:03:49.196264 22690 net.cpp:434] label_3_5x5_data_5_split <- label_3_5x5
I0419 03:03:49.196271 22690 net.cpp:408] label_3_5x5_data_5_split -> label_3_5x5_data_5_split_0
I0419 03:03:49.196277 22690 net.cpp:408] label_3_5x5_data_5_split -> label_3_5x5_data_5_split_1
I0419 03:03:49.196310 22690 net.cpp:150] Setting up label_3_5x5_data_5_split
I0419 03:03:49.196316 22690 net.cpp:157] Top shape: 2 6 24 24 (6912)
I0419 03:03:49.196319 22690 net.cpp:157] Top shape: 2 6 24 24 (6912)
I0419 03:03:49.196322 22690 net.cpp:165] Memory required for data: 22309632
I0419 03:03:49.196336 22690 layer_factory.hpp:77] Creating layer label_3_7x7_data_6_split
I0419 03:03:49.196341 22690 net.cpp:100] Creating Layer label_3_7x7_data_6_split
I0419 03:03:49.196344 22690 net.cpp:434] label_3_7x7_data_6_split <- label_3_7x7
I0419 03:03:49.196350 22690 net.cpp:408] label_3_7x7_data_6_split -> label_3_7x7_data_6_split_0
I0419 03:03:49.196355 22690 net.cpp:408] label_3_7x7_data_6_split -> label_3_7x7_data_6_split_1
I0419 03:03:49.196388 22690 net.cpp:150] Setting up label_3_7x7_data_6_split
I0419 03:03:49.196393 22690 net.cpp:157] Top shape: 2 6 24 24 (6912)
I0419 03:03:49.196396 22690 net.cpp:157] Top shape: 2 6 24 24 (6912)
I0419 03:03:49.196399 22690 net.cpp:165] Memory required for data: 22364928
I0419 03:03:49.196403 22690 layer_factory.hpp:77] Creating layer label_4_5x5_data_7_split
I0419 03:03:49.196406 22690 net.cpp:100] Creating Layer label_4_5x5_data_7_split
I0419 03:03:49.196409 22690 net.cpp:434] label_4_5x5_data_7_split <- label_4_5x5
I0419 03:03:49.196413 22690 net.cpp:408] label_4_5x5_data_7_split -> label_4_5x5_data_7_split_0
I0419 03:03:49.196419 22690 net.cpp:408] label_4_5x5_data_7_split -> label_4_5x5_data_7_split_1
I0419 03:03:49.196487 22690 net.cpp:150] Setting up label_4_5x5_data_7_split
I0419 03:03:49.196493 22690 net.cpp:157] Top shape: 2 6 12 12 (1728)
I0419 03:03:49.196497 22690 net.cpp:157] Top shape: 2 6 12 12 (1728)
I0419 03:03:49.196501 22690 net.cpp:165] Memory required for data: 22378752
I0419 03:03:49.196503 22690 layer_factory.hpp:77] Creating layer slice
I0419 03:03:49.196542 22690 net.cpp:100] Creating Layer slice
I0419 03:03:49.196547 22690 net.cpp:434] slice <- data
I0419 03:03:49.196552 22690 net.cpp:408] slice -> data123
I0419 03:03:49.196588 22690 net.cpp:408] slice -> ch4
I0419 03:03:49.196657 22690 net.cpp:150] Setting up slice
I0419 03:03:49.196663 22690 net.cpp:157] Top shape: 2 3 768 768 (3538944)
I0419 03:03:49.196667 22690 net.cpp:157] Top shape: 2 1 768 768 (1179648)
I0419 03:03:49.196671 22690 net.cpp:165] Memory required for data: 41253120
I0419 03:03:49.196673 22690 layer_factory.hpp:77] Creating layer conv1_1
I0419 03:03:49.196682 22690 net.cpp:100] Creating Layer conv1_1
I0419 03:03:49.196686 22690 net.cpp:434] conv1_1 <- data123
I0419 03:03:49.196691 22690 net.cpp:408] conv1_1 -> conv1_1
I0419 03:03:49.205886 22690 net.cpp:150] Setting up conv1_1
I0419 03:03:49.205955 22690 net.cpp:157] Top shape: 2 64 768 768 (75497472)
I0419 03:03:49.205974 22690 net.cpp:165] Memory required for data: 343243008
I0419 03:03:49.206027 22690 layer_factory.hpp:77] Creating layer relu1_1
I0419 03:03:49.206063 22690 net.cpp:100] Creating Layer relu1_1
I0419 03:03:49.206082 22690 net.cpp:434] relu1_1 <- conv1_1
I0419 03:03:49.206101 22690 net.cpp:395] relu1_1 -> conv1_1 (in-place)
I0419 03:03:49.208112 22690 net.cpp:150] Setting up relu1_1
I0419 03:03:49.208155 22690 net.cpp:157] Top shape: 2 64 768 768 (75497472)
I0419 03:03:49.208169 22690 net.cpp:165] Memory required for data: 645232896
I0419 03:03:49.208183 22690 layer_factory.hpp:77] Creating layer conv1_2
I0419 03:03:49.208223 22690 net.cpp:100] Creating Layer conv1_2
I0419 03:03:49.208243 22690 net.cpp:434] conv1_2 <- conv1_1
I0419 03:03:49.208267 22690 net.cpp:408] conv1_2 -> conv1_2
I0419 03:03:49.213071 22690 net.cpp:150] Setting up conv1_2
I0419 03:03:49.213102 22690 net.cpp:157] Top shape: 2 64 768 768 (75497472)
I0419 03:03:49.213107 22690 net.cpp:165] Memory required for data: 947222784
I0419 03:03:49.213124 22690 layer_factory.hpp:77] Creating layer relu1_2
I0419 03:03:49.213136 22690 net.cpp:100] Creating Layer relu1_2
I0419 03:03:49.213143 22690 net.cpp:434] relu1_2 <- conv1_2
I0419 03:03:49.213151 22690 net.cpp:395] relu1_2 -> conv1_2 (in-place)
I0419 03:03:49.213430 22690 net.cpp:150] Setting up relu1_2
I0419 03:03:49.213441 22690 net.cpp:157] Top shape: 2 64 768 768 (75497472)
I0419 03:03:49.213445 22690 net.cpp:165] Memory required for data: 1249212672
I0419 03:03:49.213449 22690 layer_factory.hpp:77] Creating layer pool1
I0419 03:03:49.213456 22690 net.cpp:100] Creating Layer pool1
I0419 03:03:49.213460 22690 net.cpp:434] pool1 <- conv1_2
I0419 03:03:49.213469 22690 net.cpp:408] pool1 -> pool1
I0419 03:03:49.213539 22690 net.cpp:150] Setting up pool1
I0419 03:03:49.213546 22690 net.cpp:157] Top shape: 2 64 384 384 (18874368)
I0419 03:03:49.213551 22690 net.cpp:165] Memory required for data: 1324710144
I0419 03:03:49.213554 22690 layer_factory.hpp:77] Creating layer ch4_pool1
I0419 03:03:49.213559 22690 net.cpp:100] Creating Layer ch4_pool1
I0419 03:03:49.213563 22690 net.cpp:434] ch4_pool1 <- ch4
I0419 03:03:49.213570 22690 net.cpp:408] ch4_pool1 -> ch4_pool1
I0419 03:03:49.213610 22690 net.cpp:150] Setting up ch4_pool1
I0419 03:03:49.213618 22690 net.cpp:157] Top shape: 2 1 384 384 (294912)
I0419 03:03:49.213621 22690 net.cpp:165] Memory required for data: 1325889792
I0419 03:03:49.213625 22690 layer_factory.hpp:77] Creating layer ch4_pool1_ch4_pool1_0_split
I0419 03:03:49.213644 22690 net.cpp:100] Creating Layer ch4_pool1_ch4_pool1_0_split
I0419 03:03:49.213651 22690 net.cpp:434] ch4_pool1_ch4_pool1_0_split <- ch4_pool1
I0419 03:03:49.213660 22690 net.cpp:408] ch4_pool1_ch4_pool1_0_split -> ch4_pool1_ch4_pool1_0_split_0
I0419 03:03:49.213668 22690 net.cpp:408] ch4_pool1_ch4_pool1_0_split -> ch4_pool1_ch4_pool1_0_split_1
I0419 03:03:49.213714 22690 net.cpp:150] Setting up ch4_pool1_ch4_pool1_0_split
I0419 03:03:49.213723 22690 net.cpp:157] Top shape: 2 1 384 384 (294912)
I0419 03:03:49.213729 22690 net.cpp:157] Top shape: 2 1 384 384 (294912)
I0419 03:03:49.213733 22690 net.cpp:165] Memory required for data: 1328249088
I0419 03:03:49.213738 22690 layer_factory.hpp:77] Creating layer pool1_concat
I0419 03:03:49.213749 22690 net.cpp:100] Creating Layer pool1_concat
I0419 03:03:49.213755 22690 net.cpp:434] pool1_concat <- pool1
I0419 03:03:49.213762 22690 net.cpp:434] pool1_concat <- ch4_pool1_ch4_pool1_0_split_0
I0419 03:03:49.213768 22690 net.cpp:408] pool1_concat -> pool1_new
I0419 03:03:49.213796 22690 net.cpp:150] Setting up pool1_concat
I0419 03:03:49.213804 22690 net.cpp:157] Top shape: 2 65 384 384 (19169280)
I0419 03:03:49.213809 22690 net.cpp:165] Memory required for data: 1404926208
I0419 03:03:49.213814 22690 layer_factory.hpp:77] Creating layer conv2_1_new
I0419 03:03:49.213825 22690 net.cpp:100] Creating Layer conv2_1_new
I0419 03:03:49.213831 22690 net.cpp:434] conv2_1_new <- pool1_new
I0419 03:03:49.213837 22690 net.cpp:408] conv2_1_new -> conv2_1
I0419 03:03:49.219868 22690 net.cpp:150] Setting up conv2_1_new
I0419 03:03:49.219918 22690 net.cpp:157] Top shape: 2 128 384 384 (37748736)
I0419 03:03:49.219933 22690 net.cpp:165] Memory required for data: 1555921152
I0419 03:03:49.219969 22690 layer_factory.hpp:77] Creating layer relu2_1
I0419 03:03:49.219995 22690 net.cpp:100] Creating Layer relu2_1
I0419 03:03:49.220012 22690 net.cpp:434] relu2_1 <- conv2_1
I0419 03:03:49.220029 22690 net.cpp:395] relu2_1 -> conv2_1 (in-place)
I0419 03:03:49.220525 22690 net.cpp:150] Setting up relu2_1
I0419 03:03:49.220551 22690 net.cpp:157] Top shape: 2 128 384 384 (37748736)
I0419 03:03:49.220563 22690 net.cpp:165] Memory required for data: 1706916096
I0419 03:03:49.220577 22690 layer_factory.hpp:77] Creating layer conv2_2
I0419 03:03:49.220604 22690 net.cpp:100] Creating Layer conv2_2
I0419 03:03:49.220616 22690 net.cpp:434] conv2_2 <- conv2_1
I0419 03:03:49.220638 22690 net.cpp:408] conv2_2 -> conv2_2
I0419 03:03:49.224783 22690 net.cpp:150] Setting up conv2_2
I0419 03:03:49.224818 22690 net.cpp:157] Top shape: 2 128 384 384 (37748736)
I0419 03:03:49.224835 22690 net.cpp:165] Memory required for data: 1857911040
I0419 03:03:49.224860 22690 layer_factory.hpp:77] Creating layer relu2_2
I0419 03:03:49.224880 22690 net.cpp:100] Creating Layer relu2_2
I0419 03:03:49.224895 22690 net.cpp:434] relu2_2 <- conv2_2
I0419 03:03:49.224915 22690 net.cpp:395] relu2_2 -> conv2_2 (in-place)
I0419 03:03:49.225369 22690 net.cpp:150] Setting up relu2_2
I0419 03:03:49.225394 22690 net.cpp:157] Top shape: 2 128 384 384 (37748736)
I0419 03:03:49.225407 22690 net.cpp:165] Memory required for data: 2008905984
I0419 03:03:49.225421 22690 layer_factory.hpp:77] Creating layer pool2
I0419 03:03:49.225445 22690 net.cpp:100] Creating Layer pool2
I0419 03:03:49.225458 22690 net.cpp:434] pool2 <- conv2_2
I0419 03:03:49.225482 22690 net.cpp:408] pool2 -> pool2
I0419 03:03:49.225589 22690 net.cpp:150] Setting up pool2
I0419 03:03:49.225608 22690 net.cpp:157] Top shape: 2 128 192 192 (9437184)
I0419 03:03:49.225621 22690 net.cpp:165] Memory required for data: 2046654720
I0419 03:03:49.225634 22690 layer_factory.hpp:77] Creating layer ch4_pool2
I0419 03:03:49.225657 22690 net.cpp:100] Creating Layer ch4_pool2
I0419 03:03:49.225670 22690 net.cpp:434] ch4_pool2 <- ch4_pool1_ch4_pool1_0_split_1
I0419 03:03:49.225690 22690 net.cpp:408] ch4_pool2 -> ch4_pool2
I0419 03:03:49.225788 22690 net.cpp:150] Setting up ch4_pool2
I0419 03:03:49.225806 22690 net.cpp:157] Top shape: 2 1 192 192 (73728)
I0419 03:03:49.225818 22690 net.cpp:165] Memory required for data: 2046949632
I0419 03:03:49.225832 22690 layer_factory.hpp:77] Creating layer ch4_pool2_ch4_pool2_0_split
I0419 03:03:49.225852 22690 net.cpp:100] Creating Layer ch4_pool2_ch4_pool2_0_split
I0419 03:03:49.225864 22690 net.cpp:434] ch4_pool2_ch4_pool2_0_split <- ch4_pool2
I0419 03:03:49.225888 22690 net.cpp:408] ch4_pool2_ch4_pool2_0_split -> ch4_pool2_ch4_pool2_0_split_0
I0419 03:03:49.225911 22690 net.cpp:408] ch4_pool2_ch4_pool2_0_split -> ch4_pool2_ch4_pool2_0_split_1
I0419 03:03:49.226006 22690 net.cpp:150] Setting up ch4_pool2_ch4_pool2_0_split
I0419 03:03:49.226023 22690 net.cpp:157] Top shape: 2 1 192 192 (73728)
I0419 03:03:49.226040 22690 net.cpp:157] Top shape: 2 1 192 192 (73728)
I0419 03:03:49.226052 22690 net.cpp:165] Memory required for data: 2047539456
I0419 03:03:49.226065 22690 layer_factory.hpp:77] Creating layer pool2_concat
I0419 03:03:49.226088 22690 net.cpp:100] Creating Layer pool2_concat
I0419 03:03:49.226099 22690 net.cpp:434] pool2_concat <- pool2
I0419 03:03:49.226116 22690 net.cpp:434] pool2_concat <- ch4_pool2_ch4_pool2_0_split_0
I0419 03:03:49.226136 22690 net.cpp:408] pool2_concat -> pool2_new
I0419 03:03:49.226199 22690 net.cpp:150] Setting up pool2_concat
I0419 03:03:49.226217 22690 net.cpp:157] Top shape: 2 129 192 192 (9510912)
I0419 03:03:49.226229 22690 net.cpp:165] Memory required for data: 2085583104
I0419 03:03:49.226243 22690 layer_factory.hpp:77] Creating layer conv3_1_new
I0419 03:03:49.226269 22690 net.cpp:100] Creating Layer conv3_1_new
I0419 03:03:49.226280 22690 net.cpp:434] conv3_1_new <- pool2_new
I0419 03:03:49.226303 22690 net.cpp:408] conv3_1_new -> conv3_1
I0419 03:03:49.231339 22690 net.cpp:150] Setting up conv3_1_new
I0419 03:03:49.231375 22690 net.cpp:157] Top shape: 2 256 192 192 (18874368)
I0419 03:03:49.231384 22690 net.cpp:165] Memory required for data: 2161080576
I0419 03:03:49.231421 22690 layer_factory.hpp:77] Creating layer relu3_1
I0419 03:03:49.231443 22690 net.cpp:100] Creating Layer relu3_1
I0419 03:03:49.231457 22690 net.cpp:434] relu3_1 <- conv3_1
I0419 03:03:49.231477 22690 net.cpp:395] relu3_1 -> conv3_1 (in-place)
I0419 03:03:49.231868 22690 net.cpp:150] Setting up relu3_1
I0419 03:03:49.231890 22690 net.cpp:157] Top shape: 2 256 192 192 (18874368)
I0419 03:03:49.231904 22690 net.cpp:165] Memory required for data: 2236578048
I0419 03:03:49.231917 22690 layer_factory.hpp:77] Creating layer conv3_2
I0419 03:03:49.231941 22690 net.cpp:100] Creating Layer conv3_2
I0419 03:03:49.231953 22690 net.cpp:434] conv3_2 <- conv3_1
I0419 03:03:49.231971 22690 net.cpp:408] conv3_2 -> conv3_2
I0419 03:03:49.235491 22690 net.cpp:150] Setting up conv3_2
I0419 03:03:49.235503 22690 net.cpp:157] Top shape: 2 256 192 192 (18874368)
I0419 03:03:49.235507 22690 net.cpp:165] Memory required for data: 2312075520
I0419 03:03:49.235513 22690 layer_factory.hpp:77] Creating layer relu3_2
I0419 03:03:49.235535 22690 net.cpp:100] Creating Layer relu3_2
I0419 03:03:49.235551 22690 net.cpp:434] relu3_2 <- conv3_2
I0419 03:03:49.235558 22690 net.cpp:395] relu3_2 -> conv3_2 (in-place)
I0419 03:03:49.235730 22690 net.cpp:150] Setting up relu3_2
I0419 03:03:49.235743 22690 net.cpp:157] Top shape: 2 256 192 192 (18874368)
I0419 03:03:49.235747 22690 net.cpp:165] Memory required for data: 2387572992
I0419 03:03:49.235752 22690 layer_factory.hpp:77] Creating layer conv3_3
I0419 03:03:49.235764 22690 net.cpp:100] Creating Layer conv3_3
I0419 03:03:49.235769 22690 net.cpp:434] conv3_3 <- conv3_2
I0419 03:03:49.235777 22690 net.cpp:408] conv3_3 -> conv3_3
I0419 03:03:49.239895 22690 net.cpp:150] Setting up conv3_3
I0419 03:03:49.239925 22690 net.cpp:157] Top shape: 2 256 192 192 (18874368)
I0419 03:03:49.239930 22690 net.cpp:165] Memory required for data: 2463070464
I0419 03:03:49.239939 22690 layer_factory.hpp:77] Creating layer relu3_3
I0419 03:03:49.239950 22690 net.cpp:100] Creating Layer relu3_3
I0419 03:03:49.239956 22690 net.cpp:434] relu3_3 <- conv3_3
I0419 03:03:49.239962 22690 net.cpp:395] relu3_3 -> conv3_3 (in-place)
I0419 03:03:49.240463 22690 net.cpp:150] Setting up relu3_3
I0419 03:03:49.240476 22690 net.cpp:157] Top shape: 2 256 192 192 (18874368)
I0419 03:03:49.240479 22690 net.cpp:165] Memory required for data: 2538567936
I0419 03:03:49.240483 22690 layer_factory.hpp:77] Creating layer pool3
I0419 03:03:49.240491 22690 net.cpp:100] Creating Layer pool3
I0419 03:03:49.240495 22690 net.cpp:434] pool3 <- conv3_3
I0419 03:03:49.240500 22690 net.cpp:408] pool3 -> pool3
I0419 03:03:49.240545 22690 net.cpp:150] Setting up pool3
I0419 03:03:49.240551 22690 net.cpp:157] Top shape: 2 256 96 96 (4718592)
I0419 03:03:49.240555 22690 net.cpp:165] Memory required for data: 2557442304
I0419 03:03:49.240558 22690 layer_factory.hpp:77] Creating layer ch4_pool3
I0419 03:03:49.240568 22690 net.cpp:100] Creating Layer ch4_pool3
I0419 03:03:49.240572 22690 net.cpp:434] ch4_pool3 <- ch4_pool2_ch4_pool2_0_split_1
I0419 03:03:49.240577 22690 net.cpp:408] ch4_pool3 -> ch4_pool3
I0419 03:03:49.240614 22690 net.cpp:150] Setting up ch4_pool3
I0419 03:03:49.240620 22690 net.cpp:157] Top shape: 2 1 96 96 (18432)
I0419 03:03:49.240623 22690 net.cpp:165] Memory required for data: 2557516032
I0419 03:03:49.240626 22690 layer_factory.hpp:77] Creating layer pool3_concat
I0419 03:03:49.240633 22690 net.cpp:100] Creating Layer pool3_concat
I0419 03:03:49.240636 22690 net.cpp:434] pool3_concat <- pool3
I0419 03:03:49.240640 22690 net.cpp:434] pool3_concat <- ch4_pool3
I0419 03:03:49.240645 22690 net.cpp:408] pool3_concat -> pool3_new
I0419 03:03:49.240665 22690 net.cpp:150] Setting up pool3_concat
I0419 03:03:49.240679 22690 net.cpp:157] Top shape: 2 257 96 96 (4737024)
I0419 03:03:49.240684 22690 net.cpp:165] Memory required for data: 2576464128
I0419 03:03:49.240687 22690 layer_factory.hpp:77] Creating layer conv4_1_new
I0419 03:03:49.240697 22690 net.cpp:100] Creating Layer conv4_1_new
I0419 03:03:49.240703 22690 net.cpp:434] conv4_1_new <- pool3_new
I0419 03:03:49.240708 22690 net.cpp:408] conv4_1_new -> conv4_1
I0419 03:03:49.244199 22690 net.cpp:150] Setting up conv4_1_new
I0419 03:03:49.244222 22690 net.cpp:157] Top shape: 2 512 96 96 (9437184)
I0419 03:03:49.244226 22690 net.cpp:165] Memory required for data: 2614212864
I0419 03:03:49.244235 22690 layer_factory.hpp:77] Creating layer relu4_1
I0419 03:03:49.244246 22690 net.cpp:100] Creating Layer relu4_1
I0419 03:03:49.244251 22690 net.cpp:434] relu4_1 <- conv4_1
I0419 03:03:49.244257 22690 net.cpp:395] relu4_1 -> conv4_1 (in-place)
I0419 03:03:49.244482 22690 net.cpp:150] Setting up relu4_1
I0419 03:03:49.244494 22690 net.cpp:157] Top shape: 2 512 96 96 (9437184)
I0419 03:03:49.244498 22690 net.cpp:165] Memory required for data: 2651961600
I0419 03:03:49.244500 22690 layer_factory.hpp:77] Creating layer conv4_2
I0419 03:03:49.244510 22690 net.cpp:100] Creating Layer conv4_2
I0419 03:03:49.244513 22690 net.cpp:434] conv4_2 <- conv4_1
I0419 03:03:49.244523 22690 net.cpp:408] conv4_2 -> conv4_2
I0419 03:03:49.253612 22690 net.cpp:150] Setting up conv4_2
I0419 03:03:49.253654 22690 net.cpp:157] Top shape: 2 512 96 96 (9437184)
I0419 03:03:49.253659 22690 net.cpp:165] Memory required for data: 2689710336
I0419 03:03:49.253676 22690 layer_factory.hpp:77] Creating layer relu4_2
I0419 03:03:49.253693 22690 net.cpp:100] Creating Layer relu4_2
I0419 03:03:49.253700 22690 net.cpp:434] relu4_2 <- conv4_2
I0419 03:03:49.253706 22690 net.cpp:395] relu4_2 -> conv4_2 (in-place)
I0419 03:03:49.253932 22690 net.cpp:150] Setting up relu4_2
I0419 03:03:49.253942 22690 net.cpp:157] Top shape: 2 512 96 96 (9437184)
I0419 03:03:49.253947 22690 net.cpp:165] Memory required for data: 2727459072
I0419 03:03:49.253952 22690 layer_factory.hpp:77] Creating layer conv4_3
I0419 03:03:49.253970 22690 net.cpp:100] Creating Layer conv4_3
I0419 03:03:49.253978 22690 net.cpp:434] conv4_3 <- conv4_2
I0419 03:03:49.253988 22690 net.cpp:408] conv4_3 -> conv4_3
I0419 03:03:49.261338 22690 net.cpp:150] Setting up conv4_3
I0419 03:03:49.261373 22690 net.cpp:157] Top shape: 2 512 96 96 (9437184)
I0419 03:03:49.261379 22690 net.cpp:165] Memory required for data: 2765207808
I0419 03:03:49.261389 22690 layer_factory.hpp:77] Creating layer relu4_3
I0419 03:03:49.261400 22690 net.cpp:100] Creating Layer relu4_3
I0419 03:03:49.261407 22690 net.cpp:434] relu4_3 <- conv4_3
I0419 03:03:49.261415 22690 net.cpp:395] relu4_3 -> conv4_3 (in-place)
I0419 03:03:49.261602 22690 net.cpp:150] Setting up relu4_3
I0419 03:03:49.261612 22690 net.cpp:157] Top shape: 2 512 96 96 (9437184)
I0419 03:03:49.261616 22690 net.cpp:165] Memory required for data: 2802956544
I0419 03:03:49.261620 22690 layer_factory.hpp:77] Creating layer conv4_3_relu4_3_0_split
I0419 03:03:49.261628 22690 net.cpp:100] Creating Layer conv4_3_relu4_3_0_split
I0419 03:03:49.261632 22690 net.cpp:434] conv4_3_relu4_3_0_split <- conv4_3
I0419 03:03:49.261639 22690 net.cpp:408] conv4_3_relu4_3_0_split -> conv4_3_relu4_3_0_split_0
I0419 03:03:49.261646 22690 net.cpp:408] conv4_3_relu4_3_0_split -> conv4_3_relu4_3_0_split_1
I0419 03:03:49.261692 22690 net.cpp:150] Setting up conv4_3_relu4_3_0_split
I0419 03:03:49.261700 22690 net.cpp:157] Top shape: 2 512 96 96 (9437184)
I0419 03:03:49.261705 22690 net.cpp:157] Top shape: 2 512 96 96 (9437184)
I0419 03:03:49.261708 22690 net.cpp:165] Memory required for data: 2878454016
I0419 03:03:49.261713 22690 layer_factory.hpp:77] Creating layer loss1_conv1
I0419 03:03:49.261725 22690 net.cpp:100] Creating Layer loss1_conv1
I0419 03:03:49.261730 22690 net.cpp:434] loss1_conv1 <- conv4_3_relu4_3_0_split_0
I0419 03:03:49.261739 22690 net.cpp:408] loss1_conv1 -> loss1_conv1
I0419 03:03:49.325505 22690 net.cpp:150] Setting up loss1_conv1
I0419 03:03:49.325533 22690 net.cpp:157] Top shape: 2 512 96 96 (9437184)
I0419 03:03:49.325538 22690 net.cpp:165] Memory required for data: 2916202752
I0419 03:03:49.325548 22690 layer_factory.hpp:77] Creating layer loss_relu1
I0419 03:03:49.325563 22690 net.cpp:100] Creating Layer loss_relu1
I0419 03:03:49.325569 22690 net.cpp:434] loss_relu1 <- loss1_conv1
I0419 03:03:49.325577 22690 net.cpp:395] loss_relu1 -> loss1_conv1 (in-place)
I0419 03:03:49.325778 22690 net.cpp:150] Setting up loss_relu1
I0419 03:03:49.325789 22690 net.cpp:157] Top shape: 2 512 96 96 (9437184)
I0419 03:03:49.325793 22690 net.cpp:165] Memory required for data: 2953951488
I0419 03:03:49.325798 22690 layer_factory.hpp:77] Creating layer loss1_conv1_loss_relu1_0_split
I0419 03:03:49.325808 22690 net.cpp:100] Creating Layer loss1_conv1_loss_relu1_0_split
I0419 03:03:49.325811 22690 net.cpp:434] loss1_conv1_loss_relu1_0_split <- loss1_conv1
I0419 03:03:49.325822 22690 net.cpp:408] loss1_conv1_loss_relu1_0_split -> loss1_conv1_loss_relu1_0_split_0
I0419 03:03:49.325834 22690 net.cpp:408] loss1_conv1_loss_relu1_0_split -> loss1_conv1_loss_relu1_0_split_1
I0419 03:03:49.325894 22690 net.cpp:150] Setting up loss1_conv1_loss_relu1_0_split
I0419 03:03:49.325903 22690 net.cpp:157] Top shape: 2 512 96 96 (9437184)
I0419 03:03:49.325911 22690 net.cpp:157] Top shape: 2 512 96 96 (9437184)
I0419 03:03:49.325917 22690 net.cpp:165] Memory required for data: 3029448960
I0419 03:03:49.325922 22690 layer_factory.hpp:77] Creating layer LFCN_1_5x5
I0419 03:03:49.325940 22690 net.cpp:100] Creating Layer LFCN_1_5x5
I0419 03:03:49.325947 22690 net.cpp:434] LFCN_1_5x5 <- loss1_conv1_loss_relu1_0_split_0
I0419 03:03:49.325963 22690 net.cpp:408] LFCN_1_5x5 -> LFCN_1_5x5
I0419 03:03:49.329892 22690 net.cpp:150] Setting up LFCN_1_5x5
I0419 03:03:49.329906 22690 net.cpp:157] Top shape: 2 9 96 96 (165888)
I0419 03:03:49.329910 22690 net.cpp:165] Memory required for data: 3030112512
I0419 03:03:49.329916 22690 layer_factory.hpp:77] Creating layer LFCN_1_5x5_LFCN_1_5x5_0_split
I0419 03:03:49.329922 22690 net.cpp:100] Creating Layer LFCN_1_5x5_LFCN_1_5x5_0_split
I0419 03:03:49.329926 22690 net.cpp:434] LFCN_1_5x5_LFCN_1_5x5_0_split <- LFCN_1_5x5
I0419 03:03:49.329931 22690 net.cpp:408] LFCN_1_5x5_LFCN_1_5x5_0_split -> LFCN_1_5x5_LFCN_1_5x5_0_split_0
I0419 03:03:49.329939 22690 net.cpp:408] LFCN_1_5x5_LFCN_1_5x5_0_split -> LFCN_1_5x5_LFCN_1_5x5_0_split_1
I0419 03:03:49.329977 22690 net.cpp:150] Setting up LFCN_1_5x5_LFCN_1_5x5_0_split
I0419 03:03:49.329982 22690 net.cpp:157] Top shape: 2 9 96 96 (165888)
I0419 03:03:49.329987 22690 net.cpp:157] Top shape: 2 9 96 96 (165888)
I0419 03:03:49.329990 22690 net.cpp:165] Memory required for data: 3031439616
I0419 03:03:49.329993 22690 layer_factory.hpp:77] Creating layer detection_loss_1_5x5
I0419 03:03:49.330001 22690 net.cpp:100] Creating Layer detection_loss_1_5x5
I0419 03:03:49.330005 22690 net.cpp:434] detection_loss_1_5x5 <- LFCN_1_5x5_LFCN_1_5x5_0_split_0
I0419 03:03:49.330009 22690 net.cpp:434] detection_loss_1_5x5 <- label_1_5x5_data_1_split_0
I0419 03:03:49.330018 22690 net.cpp:408] detection_loss_1_5x5 -> loss_1_5x5
I0419 03:03:49.330027 22690 layer_factory.hpp:77] Creating layer detection_loss_1_5x5
I0419 03:03:49.330415 22690 net.cpp:150] Setting up detection_loss_1_5x5
I0419 03:03:49.330426 22690 net.cpp:157] Top shape: 1 1 1 2 (2)
I0419 03:03:49.330430 22690 net.cpp:160]     with loss weight 0.9
I0419 03:03:49.330442 22690 net.cpp:165] Memory required for data: 3031439624
I0419 03:03:49.330447 22690 layer_factory.hpp:77] Creating layer detection_accuracy_1_5x5
I0419 03:03:49.330456 22690 net.cpp:100] Creating Layer detection_accuracy_1_5x5
I0419 03:03:49.330459 22690 net.cpp:434] detection_accuracy_1_5x5 <- LFCN_1_5x5_LFCN_1_5x5_0_split_1
I0419 03:03:49.330464 22690 net.cpp:434] detection_accuracy_1_5x5 <- label_1_5x5_data_1_split_1
I0419 03:03:49.330471 22690 net.cpp:408] detection_accuracy_1_5x5 -> accuracy_1_5x5
I0419 03:03:49.330480 22690 net.cpp:408] detection_accuracy_1_5x5 -> boxiou_1_5x5
I0419 03:03:49.330521 22690 net.cpp:150] Setting up detection_accuracy_1_5x5
I0419 03:03:49.330528 22690 net.cpp:157] Top shape: 1 1 1 2 (2)
I0419 03:03:49.330533 22690 net.cpp:157] Top shape: 1 1 1 1 (1)
I0419 03:03:49.330538 22690 net.cpp:165] Memory required for data: 3031439636
I0419 03:03:49.330543 22690 layer_factory.hpp:77] Creating layer LFCN_1_7x7
I0419 03:03:49.330552 22690 net.cpp:100] Creating Layer LFCN_1_7x7
I0419 03:03:49.330557 22690 net.cpp:434] LFCN_1_7x7 <- loss1_conv1_loss_relu1_0_split_1
I0419 03:03:49.330565 22690 net.cpp:408] LFCN_1_7x7 -> LFCN_1_7x7
I0419 03:03:49.339005 22690 net.cpp:150] Setting up LFCN_1_7x7
I0419 03:03:49.339041 22690 net.cpp:157] Top shape: 2 9 96 96 (165888)
I0419 03:03:49.339046 22690 net.cpp:165] Memory required for data: 3032103188
I0419 03:03:49.339062 22690 layer_factory.hpp:77] Creating layer LFCN_1_7x7_LFCN_1_7x7_0_split
I0419 03:03:49.339077 22690 net.cpp:100] Creating Layer LFCN_1_7x7_LFCN_1_7x7_0_split
I0419 03:03:49.339087 22690 net.cpp:434] LFCN_1_7x7_LFCN_1_7x7_0_split <- LFCN_1_7x7
I0419 03:03:49.339098 22690 net.cpp:408] LFCN_1_7x7_LFCN_1_7x7_0_split -> LFCN_1_7x7_LFCN_1_7x7_0_split_0
I0419 03:03:49.339112 22690 net.cpp:408] LFCN_1_7x7_LFCN_1_7x7_0_split -> LFCN_1_7x7_LFCN_1_7x7_0_split_1
I0419 03:03:49.339160 22690 net.cpp:150] Setting up LFCN_1_7x7_LFCN_1_7x7_0_split
I0419 03:03:49.339170 22690 net.cpp:157] Top shape: 2 9 96 96 (165888)
I0419 03:03:49.339176 22690 net.cpp:157] Top shape: 2 9 96 96 (165888)
I0419 03:03:49.339180 22690 net.cpp:165] Memory required for data: 3033430292
I0419 03:03:49.339185 22690 layer_factory.hpp:77] Creating layer detection_loss_1_7x7
I0419 03:03:49.339196 22690 net.cpp:100] Creating Layer detection_loss_1_7x7
I0419 03:03:49.339217 22690 net.cpp:434] detection_loss_1_7x7 <- LFCN_1_7x7_LFCN_1_7x7_0_split_0
I0419 03:03:49.339224 22690 net.cpp:434] detection_loss_1_7x7 <- label_1_7x7_data_2_split_0
I0419 03:03:49.339236 22690 net.cpp:408] detection_loss_1_7x7 -> loss_1_7x7
I0419 03:03:49.339249 22690 layer_factory.hpp:77] Creating layer detection_loss_1_7x7
I0419 03:03:49.340044 22690 net.cpp:150] Setting up detection_loss_1_7x7
I0419 03:03:49.340060 22690 net.cpp:157] Top shape: 1 1 1 2 (2)
I0419 03:03:49.340068 22690 net.cpp:160]     with loss weight 0.9
I0419 03:03:49.340086 22690 net.cpp:165] Memory required for data: 3033430300
I0419 03:03:49.340093 22690 layer_factory.hpp:77] Creating layer detection_accuracy_1_7x7
I0419 03:03:49.340107 22690 net.cpp:100] Creating Layer detection_accuracy_1_7x7
I0419 03:03:49.340116 22690 net.cpp:434] detection_accuracy_1_7x7 <- LFCN_1_7x7_LFCN_1_7x7_0_split_1
I0419 03:03:49.340123 22690 net.cpp:434] detection_accuracy_1_7x7 <- label_1_7x7_data_2_split_1
I0419 03:03:49.340135 22690 net.cpp:408] detection_accuracy_1_7x7 -> accuracy_1_7x7
I0419 03:03:49.340152 22690 net.cpp:408] detection_accuracy_1_7x7 -> boxiou_1_7x7
I0419 03:03:49.340206 22690 net.cpp:150] Setting up detection_accuracy_1_7x7
I0419 03:03:49.340217 22690 net.cpp:157] Top shape: 1 1 1 2 (2)
I0419 03:03:49.340225 22690 net.cpp:157] Top shape: 1 1 1 1 (1)
I0419 03:03:49.340231 22690 net.cpp:165] Memory required for data: 3033430312
I0419 03:03:49.340236 22690 layer_factory.hpp:77] Creating layer pool4
I0419 03:03:49.340248 22690 net.cpp:100] Creating Layer pool4
I0419 03:03:49.340255 22690 net.cpp:434] pool4 <- conv4_3_relu4_3_0_split_1
I0419 03:03:49.340267 22690 net.cpp:408] pool4 -> pool4
I0419 03:03:49.340339 22690 net.cpp:150] Setting up pool4
I0419 03:03:49.340353 22690 net.cpp:157] Top shape: 2 512 48 48 (2359296)
I0419 03:03:49.340360 22690 net.cpp:165] Memory required for data: 3042867496
I0419 03:03:49.340368 22690 layer_factory.hpp:77] Creating layer conv5_1
I0419 03:03:49.340380 22690 net.cpp:100] Creating Layer conv5_1
I0419 03:03:49.340387 22690 net.cpp:434] conv5_1 <- pool4
I0419 03:03:49.340399 22690 net.cpp:408] conv5_1 -> conv5_1
I0419 03:03:49.346732 22690 net.cpp:150] Setting up conv5_1
I0419 03:03:49.346768 22690 net.cpp:157] Top shape: 2 512 48 48 (2359296)
I0419 03:03:49.346773 22690 net.cpp:165] Memory required for data: 3052304680
I0419 03:03:49.346783 22690 layer_factory.hpp:77] Creating layer relu5_1
I0419 03:03:49.346797 22690 net.cpp:100] Creating Layer relu5_1
I0419 03:03:49.346804 22690 net.cpp:434] relu5_1 <- conv5_1
I0419 03:03:49.346814 22690 net.cpp:395] relu5_1 -> conv5_1 (in-place)
I0419 03:03:49.346981 22690 net.cpp:150] Setting up relu5_1
I0419 03:03:49.346992 22690 net.cpp:157] Top shape: 2 512 48 48 (2359296)
I0419 03:03:49.346997 22690 net.cpp:165] Memory required for data: 3061741864
I0419 03:03:49.347002 22690 layer_factory.hpp:77] Creating layer conv5_2
I0419 03:03:49.347013 22690 net.cpp:100] Creating Layer conv5_2
I0419 03:03:49.347019 22690 net.cpp:434] conv5_2 <- conv5_1
I0419 03:03:49.347028 22690 net.cpp:408] conv5_2 -> conv5_2
I0419 03:03:49.353008 22690 net.cpp:150] Setting up conv5_2
I0419 03:03:49.353041 22690 net.cpp:157] Top shape: 2 512 48 48 (2359296)
I0419 03:03:49.353047 22690 net.cpp:165] Memory required for data: 3071179048
I0419 03:03:49.353060 22690 layer_factory.hpp:77] Creating layer relu5_2
I0419 03:03:49.353076 22690 net.cpp:100] Creating Layer relu5_2
I0419 03:03:49.353085 22690 net.cpp:434] relu5_2 <- conv5_2
I0419 03:03:49.353092 22690 net.cpp:395] relu5_2 -> conv5_2 (in-place)
I0419 03:03:49.353276 22690 net.cpp:150] Setting up relu5_2
I0419 03:03:49.353286 22690 net.cpp:157] Top shape: 2 512 48 48 (2359296)
I0419 03:03:49.353291 22690 net.cpp:165] Memory required for data: 3080616232
I0419 03:03:49.353296 22690 layer_factory.hpp:77] Creating layer conv5_3
I0419 03:03:49.353309 22690 net.cpp:100] Creating Layer conv5_3
I0419 03:03:49.353314 22690 net.cpp:434] conv5_3 <- conv5_2
I0419 03:03:49.353320 22690 net.cpp:408] conv5_3 -> conv5_3
I0419 03:03:49.359639 22690 net.cpp:150] Setting up conv5_3
I0419 03:03:49.359671 22690 net.cpp:157] Top shape: 2 512 48 48 (2359296)
I0419 03:03:49.359678 22690 net.cpp:165] Memory required for data: 3090053416
I0419 03:03:49.359689 22690 layer_factory.hpp:77] Creating layer relu5_3
I0419 03:03:49.359702 22690 net.cpp:100] Creating Layer relu5_3
I0419 03:03:49.359710 22690 net.cpp:434] relu5_3 <- conv5_3
I0419 03:03:49.359720 22690 net.cpp:395] relu5_3 -> conv5_3 (in-place)
I0419 03:03:49.359894 22690 net.cpp:150] Setting up relu5_3
I0419 03:03:49.359905 22690 net.cpp:157] Top shape: 2 512 48 48 (2359296)
I0419 03:03:49.359910 22690 net.cpp:165] Memory required for data: 3099490600
I0419 03:03:49.359915 22690 layer_factory.hpp:77] Creating layer conv5_3_relu5_3_0_split
I0419 03:03:49.359923 22690 net.cpp:100] Creating Layer conv5_3_relu5_3_0_split
I0419 03:03:49.359930 22690 net.cpp:434] conv5_3_relu5_3_0_split <- conv5_3
I0419 03:03:49.359938 22690 net.cpp:408] conv5_3_relu5_3_0_split -> conv5_3_relu5_3_0_split_0
I0419 03:03:49.359947 22690 net.cpp:408] conv5_3_relu5_3_0_split -> conv5_3_relu5_3_0_split_1
I0419 03:03:49.359957 22690 net.cpp:408] conv5_3_relu5_3_0_split -> conv5_3_relu5_3_0_split_2
I0419 03:03:49.360015 22690 net.cpp:150] Setting up conv5_3_relu5_3_0_split
I0419 03:03:49.360024 22690 net.cpp:157] Top shape: 2 512 48 48 (2359296)
I0419 03:03:49.360030 22690 net.cpp:157] Top shape: 2 512 48 48 (2359296)
I0419 03:03:49.360036 22690 net.cpp:157] Top shape: 2 512 48 48 (2359296)
I0419 03:03:49.360040 22690 net.cpp:165] Memory required for data: 3127802152
I0419 03:03:49.360044 22690 layer_factory.hpp:77] Creating layer LFCN_2_5x5
I0419 03:03:49.360059 22690 net.cpp:100] Creating Layer LFCN_2_5x5
I0419 03:03:49.360065 22690 net.cpp:434] LFCN_2_5x5 <- conv5_3_relu5_3_0_split_0
I0419 03:03:49.360075 22690 net.cpp:408] LFCN_2_5x5 -> LFCN_2_5x5
I0419 03:03:49.363960 22690 net.cpp:150] Setting up LFCN_2_5x5
I0419 03:03:49.363976 22690 net.cpp:157] Top shape: 2 9 48 48 (41472)
I0419 03:03:49.363981 22690 net.cpp:165] Memory required for data: 3127968040
I0419 03:03:49.363996 22690 layer_factory.hpp:77] Creating layer LFCN_2_5x5_LFCN_2_5x5_0_split
I0419 03:03:49.364006 22690 net.cpp:100] Creating Layer LFCN_2_5x5_LFCN_2_5x5_0_split
I0419 03:03:49.364012 22690 net.cpp:434] LFCN_2_5x5_LFCN_2_5x5_0_split <- LFCN_2_5x5
I0419 03:03:49.364019 22690 net.cpp:408] LFCN_2_5x5_LFCN_2_5x5_0_split -> LFCN_2_5x5_LFCN_2_5x5_0_split_0
I0419 03:03:49.364032 22690 net.cpp:408] LFCN_2_5x5_LFCN_2_5x5_0_split -> LFCN_2_5x5_LFCN_2_5x5_0_split_1
I0419 03:03:49.364076 22690 net.cpp:150] Setting up LFCN_2_5x5_LFCN_2_5x5_0_split
I0419 03:03:49.364085 22690 net.cpp:157] Top shape: 2 9 48 48 (41472)
I0419 03:03:49.364091 22690 net.cpp:157] Top shape: 2 9 48 48 (41472)
I0419 03:03:49.364096 22690 net.cpp:165] Memory required for data: 3128299816
I0419 03:03:49.364100 22690 layer_factory.hpp:77] Creating layer detection_loss_2_5x5
I0419 03:03:49.364110 22690 net.cpp:100] Creating Layer detection_loss_2_5x5
I0419 03:03:49.364115 22690 net.cpp:434] detection_loss_2_5x5 <- LFCN_2_5x5_LFCN_2_5x5_0_split_0
I0419 03:03:49.364122 22690 net.cpp:434] detection_loss_2_5x5 <- label_2_5x5_data_3_split_0
I0419 03:03:49.364130 22690 net.cpp:408] detection_loss_2_5x5 -> loss_2_5x5
I0419 03:03:49.364142 22690 layer_factory.hpp:77] Creating layer detection_loss_2_5x5
I0419 03:03:49.364511 22690 net.cpp:150] Setting up detection_loss_2_5x5
I0419 03:03:49.364522 22690 net.cpp:157] Top shape: 1 1 1 2 (2)
I0419 03:03:49.364527 22690 net.cpp:160]     with loss weight 1
I0419 03:03:49.364542 22690 net.cpp:165] Memory required for data: 3128299824
I0419 03:03:49.364547 22690 layer_factory.hpp:77] Creating layer detection_accuracy_2_5x5
I0419 03:03:49.364557 22690 net.cpp:100] Creating Layer detection_accuracy_2_5x5
I0419 03:03:49.364562 22690 net.cpp:434] detection_accuracy_2_5x5 <- LFCN_2_5x5_LFCN_2_5x5_0_split_1
I0419 03:03:49.364569 22690 net.cpp:434] detection_accuracy_2_5x5 <- label_2_5x5_data_3_split_1
I0419 03:03:49.364578 22690 net.cpp:408] detection_accuracy_2_5x5 -> accuracy_2_5x5
I0419 03:03:49.364589 22690 net.cpp:408] detection_accuracy_2_5x5 -> boxiou_2_5x5
I0419 03:03:49.364634 22690 net.cpp:150] Setting up detection_accuracy_2_5x5
I0419 03:03:49.364643 22690 net.cpp:157] Top shape: 1 1 1 2 (2)
I0419 03:03:49.364650 22690 net.cpp:157] Top shape: 1 1 1 1 (1)
I0419 03:03:49.364653 22690 net.cpp:165] Memory required for data: 3128299836
I0419 03:03:49.364660 22690 layer_factory.hpp:77] Creating layer LFCN_2_7x7
I0419 03:03:49.364682 22690 net.cpp:100] Creating Layer LFCN_2_7x7
I0419 03:03:49.364689 22690 net.cpp:434] LFCN_2_7x7 <- conv5_3_relu5_3_0_split_1
I0419 03:03:49.364697 22690 net.cpp:408] LFCN_2_7x7 -> LFCN_2_7x7
I0419 03:03:49.372191 22690 net.cpp:150] Setting up LFCN_2_7x7
I0419 03:03:49.372205 22690 net.cpp:157] Top shape: 2 9 48 48 (41472)
I0419 03:03:49.372210 22690 net.cpp:165] Memory required for data: 3128465724
I0419 03:03:49.372217 22690 layer_factory.hpp:77] Creating layer LFCN_2_7x7_LFCN_2_7x7_0_split
I0419 03:03:49.372226 22690 net.cpp:100] Creating Layer LFCN_2_7x7_LFCN_2_7x7_0_split
I0419 03:03:49.372232 22690 net.cpp:434] LFCN_2_7x7_LFCN_2_7x7_0_split <- LFCN_2_7x7
I0419 03:03:49.372239 22690 net.cpp:408] LFCN_2_7x7_LFCN_2_7x7_0_split -> LFCN_2_7x7_LFCN_2_7x7_0_split_0
I0419 03:03:49.372249 22690 net.cpp:408] LFCN_2_7x7_LFCN_2_7x7_0_split -> LFCN_2_7x7_LFCN_2_7x7_0_split_1
I0419 03:03:49.372288 22690 net.cpp:150] Setting up LFCN_2_7x7_LFCN_2_7x7_0_split
I0419 03:03:49.372297 22690 net.cpp:157] Top shape: 2 9 48 48 (41472)
I0419 03:03:49.372301 22690 net.cpp:157] Top shape: 2 9 48 48 (41472)
I0419 03:03:49.372305 22690 net.cpp:165] Memory required for data: 3128797500
I0419 03:03:49.372309 22690 layer_factory.hpp:77] Creating layer detection_loss_2_7x7
I0419 03:03:49.372318 22690 net.cpp:100] Creating Layer detection_loss_2_7x7
I0419 03:03:49.372323 22690 net.cpp:434] detection_loss_2_7x7 <- LFCN_2_7x7_LFCN_2_7x7_0_split_0
I0419 03:03:49.372346 22690 net.cpp:434] detection_loss_2_7x7 <- label_2_7x7_data_4_split_0
I0419 03:03:49.372354 22690 net.cpp:408] detection_loss_2_7x7 -> loss_2_7x7
I0419 03:03:49.372367 22690 layer_factory.hpp:77] Creating layer detection_loss_2_7x7
I0419 03:03:49.372721 22690 net.cpp:150] Setting up detection_loss_2_7x7
I0419 03:03:49.372733 22690 net.cpp:157] Top shape: 1 1 1 2 (2)
I0419 03:03:49.372738 22690 net.cpp:160]     with loss weight 1
I0419 03:03:49.372746 22690 net.cpp:165] Memory required for data: 3128797508
I0419 03:03:49.372751 22690 layer_factory.hpp:77] Creating layer detection_accuracy_2_7x7
I0419 03:03:49.372759 22690 net.cpp:100] Creating Layer detection_accuracy_2_7x7
I0419 03:03:49.372766 22690 net.cpp:434] detection_accuracy_2_7x7 <- LFCN_2_7x7_LFCN_2_7x7_0_split_1
I0419 03:03:49.372771 22690 net.cpp:434] detection_accuracy_2_7x7 <- label_2_7x7_data_4_split_1
I0419 03:03:49.372781 22690 net.cpp:408] detection_accuracy_2_7x7 -> accuracy_2_7x7
I0419 03:03:49.372792 22690 net.cpp:408] detection_accuracy_2_7x7 -> boxiou_2_7x7
I0419 03:03:49.372836 22690 net.cpp:150] Setting up detection_accuracy_2_7x7
I0419 03:03:49.372845 22690 net.cpp:157] Top shape: 1 1 1 2 (2)
I0419 03:03:49.372851 22690 net.cpp:157] Top shape: 1 1 1 1 (1)
I0419 03:03:49.372855 22690 net.cpp:165] Memory required for data: 3128797520
I0419 03:03:49.372860 22690 layer_factory.hpp:77] Creating layer pool5
I0419 03:03:49.372870 22690 net.cpp:100] Creating Layer pool5
I0419 03:03:49.372877 22690 net.cpp:434] pool5 <- conv5_3_relu5_3_0_split_2
I0419 03:03:49.372887 22690 net.cpp:408] pool5 -> pool5
I0419 03:03:49.372931 22690 net.cpp:150] Setting up pool5
I0419 03:03:49.372941 22690 net.cpp:157] Top shape: 2 512 24 24 (589824)
I0419 03:03:49.372944 22690 net.cpp:165] Memory required for data: 3131156816
I0419 03:03:49.372949 22690 layer_factory.hpp:77] Creating layer conv6_1
I0419 03:03:49.372961 22690 net.cpp:100] Creating Layer conv6_1
I0419 03:03:49.372967 22690 net.cpp:434] conv6_1 <- pool5
I0419 03:03:49.372975 22690 net.cpp:408] conv6_1 -> conv6_1
I0419 03:03:49.433794 22690 net.cpp:150] Setting up conv6_1
I0419 03:03:49.433823 22690 net.cpp:157] Top shape: 2 512 24 24 (589824)
I0419 03:03:49.433828 22690 net.cpp:165] Memory required for data: 3133516112
I0419 03:03:49.433840 22690 layer_factory.hpp:77] Creating layer relu6_1
I0419 03:03:49.433854 22690 net.cpp:100] Creating Layer relu6_1
I0419 03:03:49.433862 22690 net.cpp:434] relu6_1 <- conv6_1
I0419 03:03:49.433871 22690 net.cpp:395] relu6_1 -> conv6_1 (in-place)
I0419 03:03:49.434427 22690 net.cpp:150] Setting up relu6_1
I0419 03:03:49.434442 22690 net.cpp:157] Top shape: 2 512 24 24 (589824)
I0419 03:03:49.434447 22690 net.cpp:165] Memory required for data: 3135875408
I0419 03:03:49.434451 22690 layer_factory.hpp:77] Creating layer conv6_1_relu6_1_0_split
I0419 03:03:49.434460 22690 net.cpp:100] Creating Layer conv6_1_relu6_1_0_split
I0419 03:03:49.434466 22690 net.cpp:434] conv6_1_relu6_1_0_split <- conv6_1
I0419 03:03:49.434474 22690 net.cpp:408] conv6_1_relu6_1_0_split -> conv6_1_relu6_1_0_split_0
I0419 03:03:49.434484 22690 net.cpp:408] conv6_1_relu6_1_0_split -> conv6_1_relu6_1_0_split_1
I0419 03:03:49.434492 22690 net.cpp:408] conv6_1_relu6_1_0_split -> conv6_1_relu6_1_0_split_2
I0419 03:03:49.434552 22690 net.cpp:150] Setting up conv6_1_relu6_1_0_split
I0419 03:03:49.434561 22690 net.cpp:157] Top shape: 2 512 24 24 (589824)
I0419 03:03:49.434567 22690 net.cpp:157] Top shape: 2 512 24 24 (589824)
I0419 03:03:49.434574 22690 net.cpp:157] Top shape: 2 512 24 24 (589824)
I0419 03:03:49.434579 22690 net.cpp:165] Memory required for data: 3142953296
I0419 03:03:49.434583 22690 layer_factory.hpp:77] Creating layer LFCN_3_5x5
I0419 03:03:49.434597 22690 net.cpp:100] Creating Layer LFCN_3_5x5
I0419 03:03:49.434603 22690 net.cpp:434] LFCN_3_5x5 <- conv6_1_relu6_1_0_split_0
I0419 03:03:49.434614 22690 net.cpp:408] LFCN_3_5x5 -> LFCN_3_5x5
I0419 03:03:49.438357 22690 net.cpp:150] Setting up LFCN_3_5x5
I0419 03:03:49.438370 22690 net.cpp:157] Top shape: 2 9 24 24 (10368)
I0419 03:03:49.438374 22690 net.cpp:165] Memory required for data: 3142994768
I0419 03:03:49.438382 22690 layer_factory.hpp:77] Creating layer LFCN_3_5x5_LFCN_3_5x5_0_split
I0419 03:03:49.438390 22690 net.cpp:100] Creating Layer LFCN_3_5x5_LFCN_3_5x5_0_split
I0419 03:03:49.438395 22690 net.cpp:434] LFCN_3_5x5_LFCN_3_5x5_0_split <- LFCN_3_5x5
I0419 03:03:49.438403 22690 net.cpp:408] LFCN_3_5x5_LFCN_3_5x5_0_split -> LFCN_3_5x5_LFCN_3_5x5_0_split_0
I0419 03:03:49.438412 22690 net.cpp:408] LFCN_3_5x5_LFCN_3_5x5_0_split -> LFCN_3_5x5_LFCN_3_5x5_0_split_1
I0419 03:03:49.438450 22690 net.cpp:150] Setting up LFCN_3_5x5_LFCN_3_5x5_0_split
I0419 03:03:49.438458 22690 net.cpp:157] Top shape: 2 9 24 24 (10368)
I0419 03:03:49.438463 22690 net.cpp:157] Top shape: 2 9 24 24 (10368)
I0419 03:03:49.438467 22690 net.cpp:165] Memory required for data: 3143077712
I0419 03:03:49.438470 22690 layer_factory.hpp:77] Creating layer detection_loss_3_5x5
I0419 03:03:49.438480 22690 net.cpp:100] Creating Layer detection_loss_3_5x5
I0419 03:03:49.438485 22690 net.cpp:434] detection_loss_3_5x5 <- LFCN_3_5x5_LFCN_3_5x5_0_split_0
I0419 03:03:49.438491 22690 net.cpp:434] detection_loss_3_5x5 <- label_3_5x5_data_5_split_0
I0419 03:03:49.438500 22690 net.cpp:408] detection_loss_3_5x5 -> loss_3_5x5
I0419 03:03:49.438510 22690 layer_factory.hpp:77] Creating layer detection_loss_3_5x5
I0419 03:03:49.438843 22690 net.cpp:150] Setting up detection_loss_3_5x5
I0419 03:03:49.438854 22690 net.cpp:157] Top shape: 1 1 1 2 (2)
I0419 03:03:49.438859 22690 net.cpp:160]     with loss weight 1
I0419 03:03:49.438872 22690 net.cpp:165] Memory required for data: 3143077720
I0419 03:03:49.438877 22690 layer_factory.hpp:77] Creating layer detection_accuracy_3_5x5
I0419 03:03:49.438887 22690 net.cpp:100] Creating Layer detection_accuracy_3_5x5
I0419 03:03:49.438894 22690 net.cpp:434] detection_accuracy_3_5x5 <- LFCN_3_5x5_LFCN_3_5x5_0_split_1
I0419 03:03:49.438900 22690 net.cpp:434] detection_accuracy_3_5x5 <- label_3_5x5_data_5_split_1
I0419 03:03:49.438908 22690 net.cpp:408] detection_accuracy_3_5x5 -> accuracy_3_5x5
I0419 03:03:49.438920 22690 net.cpp:408] detection_accuracy_3_5x5 -> boxiou_3_5x5
I0419 03:03:49.438966 22690 net.cpp:150] Setting up detection_accuracy_3_5x5
I0419 03:03:49.438974 22690 net.cpp:157] Top shape: 1 1 1 2 (2)
I0419 03:03:49.438979 22690 net.cpp:157] Top shape: 1 1 1 1 (1)
I0419 03:03:49.438984 22690 net.cpp:165] Memory required for data: 3143077732
I0419 03:03:49.438988 22690 layer_factory.hpp:77] Creating layer LFCN_3_7x7
I0419 03:03:49.439000 22690 net.cpp:100] Creating Layer LFCN_3_7x7
I0419 03:03:49.439007 22690 net.cpp:434] LFCN_3_7x7 <- conv6_1_relu6_1_0_split_1
I0419 03:03:49.439016 22690 net.cpp:408] LFCN_3_7x7 -> LFCN_3_7x7
I0419 03:03:49.446620 22690 net.cpp:150] Setting up LFCN_3_7x7
I0419 03:03:49.446635 22690 net.cpp:157] Top shape: 2 9 24 24 (10368)
I0419 03:03:49.446640 22690 net.cpp:165] Memory required for data: 3143119204
I0419 03:03:49.446647 22690 layer_factory.hpp:77] Creating layer LFCN_3_7x7_LFCN_3_7x7_0_split
I0419 03:03:49.446655 22690 net.cpp:100] Creating Layer LFCN_3_7x7_LFCN_3_7x7_0_split
I0419 03:03:49.446661 22690 net.cpp:434] LFCN_3_7x7_LFCN_3_7x7_0_split <- LFCN_3_7x7
I0419 03:03:49.446667 22690 net.cpp:408] LFCN_3_7x7_LFCN_3_7x7_0_split -> LFCN_3_7x7_LFCN_3_7x7_0_split_0
I0419 03:03:49.446676 22690 net.cpp:408] LFCN_3_7x7_LFCN_3_7x7_0_split -> LFCN_3_7x7_LFCN_3_7x7_0_split_1
I0419 03:03:49.446718 22690 net.cpp:150] Setting up LFCN_3_7x7_LFCN_3_7x7_0_split
I0419 03:03:49.446727 22690 net.cpp:157] Top shape: 2 9 24 24 (10368)
I0419 03:03:49.446732 22690 net.cpp:157] Top shape: 2 9 24 24 (10368)
I0419 03:03:49.446735 22690 net.cpp:165] Memory required for data: 3143202148
I0419 03:03:49.446739 22690 layer_factory.hpp:77] Creating layer detection_loss_3_7x7
I0419 03:03:49.446748 22690 net.cpp:100] Creating Layer detection_loss_3_7x7
I0419 03:03:49.446755 22690 net.cpp:434] detection_loss_3_7x7 <- LFCN_3_7x7_LFCN_3_7x7_0_split_0
I0419 03:03:49.446761 22690 net.cpp:434] detection_loss_3_7x7 <- label_3_7x7_data_6_split_0
I0419 03:03:49.446770 22690 net.cpp:408] detection_loss_3_7x7 -> loss_3_7x7
I0419 03:03:49.446782 22690 layer_factory.hpp:77] Creating layer detection_loss_3_7x7
I0419 03:03:49.447118 22690 net.cpp:150] Setting up detection_loss_3_7x7
I0419 03:03:49.447129 22690 net.cpp:157] Top shape: 1 1 1 2 (2)
I0419 03:03:49.447134 22690 net.cpp:160]     with loss weight 1
I0419 03:03:49.447142 22690 net.cpp:165] Memory required for data: 3143202156
I0419 03:03:49.447147 22690 layer_factory.hpp:77] Creating layer detection_accuracy_3_7x7
I0419 03:03:49.447155 22690 net.cpp:100] Creating Layer detection_accuracy_3_7x7
I0419 03:03:49.447162 22690 net.cpp:434] detection_accuracy_3_7x7 <- LFCN_3_7x7_LFCN_3_7x7_0_split_1
I0419 03:03:49.447168 22690 net.cpp:434] detection_accuracy_3_7x7 <- label_3_7x7_data_6_split_1
I0419 03:03:49.447176 22690 net.cpp:408] detection_accuracy_3_7x7 -> accuracy_3_7x7
I0419 03:03:49.447188 22690 net.cpp:408] detection_accuracy_3_7x7 -> boxiou_3_7x7
I0419 03:03:49.447237 22690 net.cpp:150] Setting up detection_accuracy_3_7x7
I0419 03:03:49.447247 22690 net.cpp:157] Top shape: 1 1 1 2 (2)
I0419 03:03:49.447252 22690 net.cpp:157] Top shape: 1 1 1 1 (1)
I0419 03:03:49.447257 22690 net.cpp:165] Memory required for data: 3143202168
I0419 03:03:49.447262 22690 layer_factory.hpp:77] Creating layer pool6
I0419 03:03:49.447270 22690 net.cpp:100] Creating Layer pool6
I0419 03:03:49.447278 22690 net.cpp:434] pool6 <- conv6_1_relu6_1_0_split_2
I0419 03:03:49.447285 22690 net.cpp:408] pool6 -> pool6
I0419 03:03:49.447330 22690 net.cpp:150] Setting up pool6
I0419 03:03:49.447340 22690 net.cpp:157] Top shape: 2 512 12 12 (147456)
I0419 03:03:49.447343 22690 net.cpp:165] Memory required for data: 3143791992
I0419 03:03:49.447348 22690 layer_factory.hpp:77] Creating layer LFCN_4_5x5
I0419 03:03:49.447360 22690 net.cpp:100] Creating Layer LFCN_4_5x5
I0419 03:03:49.447366 22690 net.cpp:434] LFCN_4_5x5 <- pool6
I0419 03:03:49.447376 22690 net.cpp:408] LFCN_4_5x5 -> LFCN_4_5x5
I0419 03:03:49.451526 22690 net.cpp:150] Setting up LFCN_4_5x5
I0419 03:03:49.451546 22690 net.cpp:157] Top shape: 2 9 12 12 (2592)
I0419 03:03:49.451551 22690 net.cpp:165] Memory required for data: 3143802360
I0419 03:03:49.451561 22690 layer_factory.hpp:77] Creating layer LFCN_4_5x5_LFCN_4_5x5_0_split
I0419 03:03:49.451572 22690 net.cpp:100] Creating Layer LFCN_4_5x5_LFCN_4_5x5_0_split
I0419 03:03:49.451581 22690 net.cpp:434] LFCN_4_5x5_LFCN_4_5x5_0_split <- LFCN_4_5x5
I0419 03:03:49.451591 22690 net.cpp:408] LFCN_4_5x5_LFCN_4_5x5_0_split -> LFCN_4_5x5_LFCN_4_5x5_0_split_0
I0419 03:03:49.451601 22690 net.cpp:408] LFCN_4_5x5_LFCN_4_5x5_0_split -> LFCN_4_5x5_LFCN_4_5x5_0_split_1
I0419 03:03:49.451661 22690 net.cpp:150] Setting up LFCN_4_5x5_LFCN_4_5x5_0_split
I0419 03:03:49.451673 22690 net.cpp:157] Top shape: 2 9 12 12 (2592)
I0419 03:03:49.451678 22690 net.cpp:157] Top shape: 2 9 12 12 (2592)
I0419 03:03:49.451683 22690 net.cpp:165] Memory required for data: 3143823096
I0419 03:03:49.451687 22690 layer_factory.hpp:77] Creating layer detection_loss_4_5x5
I0419 03:03:49.451697 22690 net.cpp:100] Creating Layer detection_loss_4_5x5
I0419 03:03:49.451704 22690 net.cpp:434] detection_loss_4_5x5 <- LFCN_4_5x5_LFCN_4_5x5_0_split_0
I0419 03:03:49.451711 22690 net.cpp:434] detection_loss_4_5x5 <- label_4_5x5_data_7_split_0
I0419 03:03:49.451719 22690 net.cpp:408] detection_loss_4_5x5 -> loss_4_5x5
I0419 03:03:49.451731 22690 layer_factory.hpp:77] Creating layer detection_loss_4_5x5
I0419 03:03:49.452077 22690 net.cpp:150] Setting up detection_loss_4_5x5
I0419 03:03:49.452090 22690 net.cpp:157] Top shape: 1 1 1 2 (2)
I0419 03:03:49.452095 22690 net.cpp:160]     with loss weight 1
I0419 03:03:49.452108 22690 net.cpp:165] Memory required for data: 3143823104
I0419 03:03:49.452114 22690 layer_factory.hpp:77] Creating layer detection_accuracy_4_5x5
I0419 03:03:49.452122 22690 net.cpp:100] Creating Layer detection_accuracy_4_5x5
I0419 03:03:49.452131 22690 net.cpp:434] detection_accuracy_4_5x5 <- LFCN_4_5x5_LFCN_4_5x5_0_split_1
I0419 03:03:49.452136 22690 net.cpp:434] detection_accuracy_4_5x5 <- label_4_5x5_data_7_split_1
I0419 03:03:49.452144 22690 net.cpp:408] detection_accuracy_4_5x5 -> accuracy_4_5x5
I0419 03:03:49.452157 22690 net.cpp:408] detection_accuracy_4_5x5 -> boxiou_4_5x5
I0419 03:03:49.452203 22690 net.cpp:150] Setting up detection_accuracy_4_5x5
I0419 03:03:49.452213 22690 net.cpp:157] Top shape: 1 1 1 2 (2)
I0419 03:03:49.452219 22690 net.cpp:157] Top shape: 1 1 1 1 (1)
I0419 03:03:49.452222 22690 net.cpp:165] Memory required for data: 3143823116
I0419 03:03:49.452226 22690 net.cpp:228] detection_accuracy_4_5x5 does not need backward computation.
I0419 03:03:49.452232 22690 net.cpp:226] detection_loss_4_5x5 needs backward computation.
I0419 03:03:49.452237 22690 net.cpp:226] LFCN_4_5x5_LFCN_4_5x5_0_split needs backward computation.
I0419 03:03:49.452241 22690 net.cpp:226] LFCN_4_5x5 needs backward computation.
…
