…
    downsample_rate: 16
    downsample_rate: 32
    downsample_rate: 32
    downsample_rate: 64
    coord_num: 4
    field_h: 60
    field_h: 84
    field_h: 120
    field_h: 168
    field_h: 240
    field_h: 336
    field_h: 480
    field_w: 60
    field_w: 84
    field_w: 120
    field_w: 168
    field_w: 240
    field_w: 336
    field_w: 480
    fg_threshold: 0.5
    resize_width: 1344
    resize_height: 768
    crop_width: 768
    crop_height: 768
    do_multiple_scale: true
    min_scale: 60
    max_scale: 480
    min_gt_height: 25
    shuffle: true
  }
}
layer {
  name: "slice"
  type: "Slice"
  bottom: "data"
  top: "data123"
  top: "ch4"
  slice_param {
    slice_point: 3
    axis: 1
  }
}
layer {
  name: "conv1_1"
  type: "Convolution"
  bottom: "data123"
  top: "conv1_1"
  convolution_param {
    num_output: 64
    pad: 1
    kernel_size: 3
  }
}
layer {
  name: "relu1_1"
  type: "ReLU"
  bottom: "conv1_1"
  top: "conv1_1"
}
layer {
  name: "conv1_2"
  type: "Convolution"
  bottom: "conv1_1"
  top: "conv1_2"
  convolution_param {
    num_output: 64
    pad: 1
    kernel_size: 3
  }
}
layer {
  name: "relu1_2"
  type: "ReLU"
  bottom: "conv1_2"
  top: "conv1_2"
}
layer {
  name: "pool1"
  type: "Pooling"
  bottom: "conv1_2"
  top: "pool1"
  pooling_param {
    pool: MAX
    kernel_size: 2
    stride: 2
  }
}
layer {
  name: "ch4_pool1"
  type: "Pooling"
  bottom: "ch4"
  top: "ch4_pool1"
  pooling_param {
    pool: MAX
    kernel_size: 2
    stride: 2
  }
}
layer {
  name: "pool1_concat"
  type: "Concat"
  bottom: "pool1"
  bottom: "ch4_pool1"
  top: "pool1_new"
}
layer {
  name: "conv2_1_new"
  type: "Convolution"
  bottom: "pool1_new"
  top: "conv2_1"
  convolution_param {
    num_output: 128
    pad: 1
    kernel_size: 3
  }
}
layer {
  name: "relu2_1"
  type: "ReLU"
  bottom: "conv2_1"
  top: "conv2_1"
}
layer {
  name: "conv2_2"
  type: "Convolution"
  bottom: "conv2_1"
  top: "conv2_2"
  convolution_param {
    num_output: 128
    pad: 1
    kernel_size: 3
  }
}
layer {
  name: "relu2_2"
  type: "ReLU"
  bottom: "conv2_2"
  top: "conv2_2"
}
layer {
  name: "pool2"
  type: "Pooling"
  bottom: "conv2_2"
  top: "pool2"
  pooling_param {
    pool: MAX
    kernel_size: 2
    stride: 2
  }
}
layer {
  name: "ch4_pool2"
  type: "Pooling"
  bottom: "ch4_pool1"
  top: "ch4_pool2"
  pooling_param {
    pool: MAX
    kernel_size: 2
    stride: 2
  }
}
layer {
  name: "pool2_concat"
  type: "Concat"
  bottom: "pool2"
  bottom: "ch4_pool2"
  top: "pool2_new"
}
layer {
  name: "conv3_1_new"
  type: "Convolution"
  bottom: "pool2_new"
  top: "conv3_1"
  convolution_param {
    num_output: 256
    pad: 1
    kernel_size: 3
  }
}
layer {
  name: "relu3_1"
  type: "ReLU"
  bottom: "conv3_1"
  top: "conv3_1"
}
layer {
  name: "conv3_2"
  type: "Convolution"
  bottom: "conv3_1"
  top: "conv3_2"
  convolution_param {
    num_output: 256
    pad: 1
    kernel_size: 3
  }
}
layer {
  name: "relu3_2"
  type: "ReLU"
  bottom: "conv3_2"
  top: "conv3_2"
}
layer {
  name: "conv3_3"
  type: "Convolution"
  bottom: "conv3_2"
  top: "conv3_3"
  convolution_param {
    num_output: 256
    pad: 1
    kernel_size: 3
  }
}
layer {
  name: "relu3_3"
  type: "ReLU"
  bottom: "conv3_3"
  top: "conv3_3"
}
layer {
  name: "pool3"
  type: "Pooling"
  bottom: "conv3_3"
  top: "pool3"
  pooling_param {
    pool: MAX
    kernel_size: 2
    stride: 2
  }
}
layer {
  name: "ch4_pool3"
  type: "Pooling"
  bottom: "ch4_pool2"
  top: "ch4_pool3"
  pooling_param {
    pool: MAX
    kernel_size: 2
    stride: 2
  }
}
layer {
  name: "pool3_concat"
  type: "Concat"
  bottom: "pool3"
  bottom: "ch4_pool3"
  top: "pool3_new"
}
layer {
  name: "conv4_1_new"
  type: "Convolution"
  bottom: "pool3_new"
  top: "conv4_1"
  convolution_param {
    num_output: 512
    pad: 1
    kernel_size: 3
  }
}
layer {
  name: "relu4_1"
  type: "ReLU"
  bottom: "conv4_1"
  top: "conv4_1"
}
layer {
  name: "conv4_2"
  type: "Convolution"
  bottom: "conv4_1"
  top: "conv4_2"
  convolution_param {
    num_output: 512
    pad: 1
    kernel_size: 3
  }
}
layer {
  name: "relu4_2"
  type: "ReLU"
  bottom: "conv4_2"
  top: "conv4_2"
}
layer {
  name: "conv4_3"
  type: "Convolution"
  bottom: "conv4_2"
  top: "conv4_3"
  convolution_param {
    num_output: 512
    pad: 1
    kernel_size: 3
  }
}
layer {
  name: "relu4_3"
  type: "ReLU"
  bottom: "conv4_3"
  top: "conv4_3"
}
layer {
  name: "loss1_conv1"
  type: "Convolution"
  bottom: "conv4_3"
  top: "loss1_conv1"
  param {
    lr_mult: 1
    decay_mult: 1
  }
  param {
    lr_mult: 2
    decay_mult: 0
  }
  convolution_param {
    num_output: 512
    pad: 1
    kernel_size: 3
    weight_filler {
      type: "gaussian"
      std: 0.01
    }
    bias_filler {
      type: "constant"
    }
  }
}
layer {
  name: "loss_relu1"
  type: "ReLU"
  bottom: "loss1_conv1"
  top: "loss1_conv1"
}
layer {
  name: "LFCN_1_5x5"
  type: "Convolution"
  bottom: "loss1_conv1"
  top: "LFCN_1_5x5"
  param {
    lr_mult: 1
    decay_mult: 1
  }
  param {
    lr_mult: 2
    decay_mult: 0
  }
  convolution_param {
    num_output: 9
    pad: 2
    kernel_size: 5
    weight_filler {
      type: "gaussian"
      std: 0.001
    }
    bias_filler {
      type: "constant"
    }
  }
}
layer {
  name: "detection_loss_1_5x5"
  type: "DetectionLoss"
  bottom: "LFCN_1_5x5"
  bottom: "label_1_5x5"
  top: "loss_1_5x5"
  loss_weight: 0.9
  detection_loss_param {
    cls_num: 5
    coord_num: 4
    lambda: 0.05
    field_h: 60
    field_w: 60
    downsample_rate: 8
    bb_smooth: true
    field_whr: 2
    field_xyr: 2
    bg_threshold: 0.2
    bg_multiple: 2
    sample_mode: "random"
    pos_neg_weighted: true
  }
}
layer {
  name: "detection_accuracy_1_5x5"
  type: "DetectionAccuracy"
  bottom: "LFCN_1_5x5"
  bottom: "label_1_5x5"
  top: "accuracy_1_5x5"
  top: "boxiou_1_5x5"
  detection_accuracy_param {
    cls_num: 5
    coord_num: 4
    field_h: 60
    field_w: 60
    downsample_rate: 8
    field_whr: 2
    field_xyr: 2
  }
}
layer {
  name: "LFCN_1_7x7"
  type: "Convolution"
  bottom: "loss1_conv1"
  top: "LFCN_1_7x7"
  param {
    lr_mult: 1
    decay_mult: 1
  }
  param {
    lr_mult: 2
    decay_mult: 0
  }
  convolution_param {
    num_output: 9
    pad: 3
    kernel_size: 7
    weight_filler {
      type: "gaussian"
      std: 0.001
    }
    bias_filler {
      type: "constant"
    }
  }
}
layer {
  name: "detection_loss_1_7x7"
  type: "DetectionLoss"
  bottom: "LFCN_1_7x7"
  bottom: "label_1_7x7"
  top: "loss_1_7x7"
  loss_weight: 0.9
  detection_loss_param {
    cls_num: 5
    coord_num: 4
    lambda: 0.05
    field_h: 84
    field_w: 84
    downsample_rate: 8
    bb_smooth: true
    field_whr: 2
    field_xyr: 2
    bg_threshold: 0.2
    bg_multiple: 2
    sample_mode: "random"
    pos_neg_weighted: true
  }
}
layer {
  name: "detection_accuracy_1_7x7"
  type: "DetectionAccuracy"
  bottom: "LFCN_1_7x7"
  bottom: "label_1_7x7"
  top: "accuracy_1_7x7"
  top: "boxiou_1_7x7"
  detection_accuracy_param {
    cls_num: 5
    coord_num: 4
    field_h: 84
    field_w: 84
    downsample_rate: 8
    field_whr: 2
    field_xyr: 2
  }
}
layer {
  name: "pool4"
  type: "Pooling"
  bottom: "conv4_3"
  top: "pool4"
  pooling_param {
    pool: MAX
    kernel_size: 2
    stride: 2
  }
}
layer {
  name: "conv5_1"
  type: "Convolution"
  bottom: "pool4"
  top: "conv5_1"
  convolution_param {
    num_output: 512
    pad: 1
    kernel_size: 3
  }
}
layer {
  name: "relu5_1"
  type: "ReLU"
  bottom: "conv5_1"
  top: "conv5_1"
}
layer {
  name: "conv5_2"
  type: "Convolution"
  bottom: "conv5_1"
  top: "conv5_2"
  convolution_param {
    num_output: 512
    pad: 1
    kernel_size: 3
  }
}
layer {
  name: "relu5_2"
  type: "ReLU"
  bottom: "conv5_2"
  top: "conv5_2"
}
layer {
  name: "conv5_3"
  type: "Convolution"
  bottom: "conv5_2"
  top: "conv5_3"
  convolution_param {
    num_output: 512
    pad: 1
    kernel_size: 3
  }
}
layer {
  name: "relu5_3"
  type: "ReLU"
  bottom: "conv5_3"
  top: "conv5_3"
}
layer {
  name: "LFCN_2_5x5"
  type: "Convolution"
  bottom: "conv5_3"
  top: "LFCN_2_5x5"
  param {
    lr_mult: 1
    decay_mult: 1
  }
  param {
    lr_mult: 2
    decay_mult: 0
  }
  convolution_param {
    num_output: 9
    pad: 2
    kernel_size: 5
    weight_filler {
      type: "gaussian"
      std: 0.001
    }
    bias_filler {
      type: "constant"
    }
  }
}
layer {
  name: "detection_loss_2_5x5"
  type: "DetectionLoss"
  bottom: "LFCN_2_5x5"
  bottom: "label_2_5x5"
  top: "loss_2_5x5"
  detection_loss_param {
    cls_num: 5
    coord_num: 4
    lambda: 0.05
    field_h: 120
    field_w: 120
    downsample_rate: 16
    bb_smooth: true
    field_whr: 2
    field_xyr: 2
    bg_threshold: 0.2
    bg_multiple: 2
    sample_mode: "random"
    pos_neg_weighted: true
  }
}
layer {
  name: "detection_accuracy_2_5x5"
  type: "DetectionAccuracy"
  bottom: "LFCN_2_5x5"
  bottom: "label_2_5x5"
  top: "accuracy_2_5x5"
  top: "boxiou_2_5x5"
  detection_accuracy_param {
    cls_num: 5
    coord_num: 4
    field_h: 120
    field_w: 120
    downsample_rate: 16
    field_whr: 2
    field_xyr: 2
  }
}
layer {
  name: "LFCN_2_7x7"
  type: "Convolution"
  bottom: "conv5_3"
  top: "LFCN_2_7x7"
  param {
    lr_mult: 1
    decay_mult: 1
  }
  param {
    lr_mult: 2
    decay_mult: 0
  }
  convolution_param {
    num_output: 9
    pad: 3
    kernel_size: 7
    weight_filler {
      type: "gaussian"
      std: 0.001
    }
    bias_filler {
      type: "constant"
    }
  }
}
layer {
  name: "detection_loss_2_7x7"
  type: "DetectionLoss"
  bottom: "LFCN_2_7x7"
  bottom: "label_2_7x7"
  top: "loss_2_7x7"
  detection_loss_param {
    cls_num: 5
    coord_num: 4
    lambda: 0.05
    field_h: 168
    field_w: 168
    downsample_rate: 16
    bb_smooth: true
    field_whr: 2
    field_xyr: 2
    bg_threshold: 0.2
    bg_multiple: 2
    sample_mode: "random"
    pos_neg_weighted: true
  }
}
layer {
  name: "detection_accuracy_2_7x7"
  type: "DetectionAccuracy"
  bottom: "LFCN_2_7x7"
  bottom: "label_2_7x7"
  top: "accuracy_2_7x7"
  top: "boxiou_2_7x7"
  detection_accuracy_param {
    cls_num: 5
    coord_num: 4
    field_h: 168
    field_w: 168
    downsample_rate: 16
    field_whr: 2
    field_xyr: 2
  }
}
layer {
  name: "pool5"
  type: "Pooling"
  bottom: "conv5_3"
  top: "pool5"
  pooling_param {
    pool: MAX
    kernel_size: 2
    stride: 2
  }
}
layer {
  name: "conv6_1"
  type: "Convolution"
  bottom: "pool5"
  top: "conv6_1"
  param {
    lr_mult: 1
    decay_mult: 1
  }
  param {
    lr_mult: 2
    decay_mult: 0
  }
  convolution_param {
    num_output: 512
    pad: 1
    kernel_size: 3
    weight_filler {
      type: "gaussian"
      std: 0.01
    }
    bias_filler {
      type: "constant"
    }
  }
}
layer {
  name: "relu6_1"
  type: "ReLU"
  bottom: "conv6_1"
  top: "conv6_1"
}
layer {
  name: "LFCN_3_5x5"
  type: "Convolution"
  bottom: "conv6_1"
  top: "LFCN_3_5x5"
  param {
    lr_mult: 1
    decay_mult: 1
  }
  param {
    lr_mult: 2
    decay_mult: 0
  }
  convolution_param {
    num_output: 9
    pad: 2
    kernel_size: 5
    weight_filler {
      type: "gaussian"
      std: 0.001
    }
    bias_filler {
      type: "constant"
    }
  }
}
layer {
  name: "detection_loss_3_5x5"
  type: "DetectionLoss"
  bottom: "LFCN_3_5x5"
  bottom: "label_3_5x5"
  top: "loss_3_5x5"
  detection_loss_param {
    cls_num: 5
    coord_num: 4
    lambda: 0.05
    field_h: 240
    field_w: 240
    downsample_rate: 32
    bb_smooth: true
    field_whr: 2
    field_xyr: 2
    bg_threshold: 0.2
    bg_multiple: 2
    sample_mode: "random"
    pos_neg_weighted: true
  }
}
layer {
  name: "detection_accuracy_3_5x5"
  type: "DetectionAccuracy"
  bottom: "LFCN_3_5x5"
  bottom: "label_3_5x5"
  top: "accuracy_3_5x5"
  top: "boxiou_3_5x5"
  detection_accuracy_param {
    cls_num: 5
    coord_num: 4
    field_h: 240
    field_w: 240
    downsample_rate: 32
    field_whr: 2
    field_xyr: 2
  }
}
layer {
  name: "LFCN_3_7x7"
  type: "Convolution"
  bottom: "conv6_1"
  top: "LFCN_3_7x7"
  param {
    lr_mult: 1
    decay_mult: 1
  }
  param {
    lr_mult: 2
    decay_mult: 0
  }
  convolution_param {
    num_output: 9
    pad: 3
    kernel_size: 7
    weight_filler {
      type: "gaussian"
      std: 0.001
    }
    bias_filler {
      type: "constant"
    }
  }
}
layer {
  name: "detection_loss_3_7x7"
  type: "DetectionLoss"
  bottom: "LFCN_3_7x7"
  bottom: "label_3_7x7"
  top: "loss_3_7x7"
  detection_loss_param {
    cls_num: 5
    coord_num: 4
    lambda: 0.05
    field_h: 336
    field_w: 336
    downsample_rate: 32
    bb_smooth: true
    field_whr: 2
    field_xyr: 2
    bg_threshold: 0.2
    bg_multiple: 2
    sample_mode: "random"
    pos_neg_weighted: true
  }
}
layer {
  name: "detection_accuracy_3_7x7"
  type: "DetectionAccuracy"
  bottom: "LFCN_3_7x7"
  bottom: "label_3_7x7"
  top: "accuracy_3_7x7"
  top: "boxiou_3_7x7"
  detection_accuracy_param {
    cls_num: 5
    coord_num: 4
    field_h: 336
    field_w: 336
    downsample_rate: 32
    field_whr: 2
    field_xyr: 2
  }
}
layer {
  name: "pool6"
  type: "Pooling"
  bottom: "conv6_1"
  top: "pool6"
  pooling_param {
    pool: MAX
    kernel_size: 2
    stride: 2
  }
}
layer {
  name: "LFCN_4_5x5"
  type: "Convolution"
  bottom: "pool6"
  top: "LFCN_4_5x5"
  param {
    lr_mult: 1
    decay_mult: 1
  }
  param {
    lr_mult: 2
    decay_mult: 0
  }
  convolution_param {
    num_output: 9
    pad: 2
    kernel_size: 5
    weight_filler {
      type: "gaussian"
      std: 0.001
    }
    bias_filler {
      type: "constant"
    }
  }
}
layer {
  name: "detection_loss_4_5x5"
  type: "DetectionLoss"
  bottom: "LFCN_4_5x5"
  bottom: "label_4_5x5"
  top: "loss_4_5x5"
  detection_loss_param {
    cls_num: 5
    coord_num: 4
    lambda: 0.05
    field_h: 480
    field_w: 480
    downsample_rate: 64
    bb_smooth: true
    field_whr: 2
    field_xyr: 2
    bg_threshold: 0.2
    bg_multiple: 2
    sample_mode: "random"
    pos_neg_weighted: true
  }
}
layer {
  name: "detection_accuracy_4_5x5"
  type: "DetectionAccuracy"
  bottom: "LFCN_4_5x5"
  bottom: "label_4_5x5"
  top: "accuracy_4_5x5"
  top: "boxiou_4_5x5"
  detection_accuracy_param {
    cls_num: 5
    coord_num: 4
    field_h: 480
    field_w: 480
    downsample_rate: 64
    field_whr: 2
    field_xyr: 2
  }
}
I0914 21:59:17.932179  5599 layer_factory.hpp:77] Creating layer data
I0914 21:59:17.932224  5599 net.cpp:100] Creating Layer data
I0914 21:59:17.932232  5599 net.cpp:408] data -> data
…
I0914 21:59:17.955277  5599 image_gt_data_layer.cpp:235] output label size 1 : 4,6,96,96
I0914 21:59:17.955317  5599 image_gt_data_layer.cpp:235] output label size 2 : 4,6,48,48
I0914 21:59:17.955358  5599 image_gt_data_layer.cpp:235] output label size 3 : 4,6,48,48
I0914 21:59:17.955397  5599 image_gt_data_layer.cpp:235] output label size 4 : 4,6,24,24
I0914 21:59:17.955435  5599 image_gt_data_layer.cpp:235] output label size 5 : 4,6,24,24
I0914 21:59:17.955472  5599 image_gt_data_layer.cpp:235] output label size 6 : 4,6,12,12
I0914 21:59:18.027251  5599 net.cpp:150] Setting up data
I0914 21:59:18.027283  5599 net.cpp:157] Top shape: 4 4 768 768 (9437184)
I0914 21:59:18.027289  5599 net.cpp:157] Top shape: 4 6 96 96 (221184)
I0914 21:59:18.027294  5599 net.cpp:157] Top shape: 4 6 96 96 (221184)
I0914 21:59:18.027298  5599 net.cpp:157] Top shape: 4 6 48 48 (55296)
I0914 21:59:18.027303  5599 net.cpp:157] Top shape: 4 6 48 48 (55296)
I0914 21:59:18.027307  5599 net.cpp:157] Top shape: 4 6 24 24 (13824)
I0914 21:59:18.027312  5599 net.cpp:157] Top shape: 4 6 24 24 (13824)
I0914 21:59:18.027315  5599 net.cpp:157] Top shape: 4 6 12 12 (3456)
I0914 21:59:18.027319  5599 net.cpp:165] Memory required for data: 40084992
I0914 21:59:18.027328  5599 layer_factory.hpp:77] Creating layer label_1_5x5_data_1_split
I0914 21:59:18.027348  5599 net.cpp:100] Creating Layer label_1_5x5_data_1_split
I0914 21:59:18.027359  5599 net.cpp:434] label_1_5x5_data_1_split <- label_1_5x5
I0914 21:59:18.027371  5599 net.cpp:408] label_1_5x5_data_1_split -> label_1_5x5_data_1_split_0
I0914 21:59:18.027382  5599 net.cpp:408] label_1_5x5_data_1_split -> label_1_5x5_data_1_split_1
I0914 21:59:18.027434  5599 net.cpp:150] Setting up label_1_5x5_data_1_split
I0914 21:59:18.027441  5599 net.cpp:157] Top shape: 4 6 96 96 (221184)
I0914 21:59:18.027444  5599 net.cpp:157] Top shape: 4 6 96 96 (221184)
I0914 21:59:18.027447  5599 net.cpp:165] Memory required for data: 41854464
I0914 21:59:18.027451  5599 layer_factory.hpp:77] Creating layer label_1_7x7_data_2_split
I0914 21:59:18.027457  5599 net.cpp:100] Creating Layer label_1_7x7_data_2_split
I0914 21:59:18.027462  5599 net.cpp:434] label_1_7x7_data_2_split <- label_1_7x7
I0914 21:59:18.027467  5599 net.cpp:408] label_1_7x7_data_2_split -> label_1_7x7_data_2_split_0
I0914 21:59:18.027472  5599 net.cpp:408] label_1_7x7_data_2_split -> label_1_7x7_data_2_split_1
I0914 21:59:18.027618  5599 net.cpp:150] Setting up label_1_7x7_data_2_split
I0914 21:59:18.027654  5599 net.cpp:157] Top shape: 4 6 96 96 (221184)
I0914 21:59:18.027662  5599 net.cpp:157] Top shape: 4 6 96 96 (221184)
I0914 21:59:18.027667  5599 net.cpp:165] Memory required for data: 43623936
I0914 21:59:18.027674  5599 layer_factory.hpp:77] Creating layer label_2_5x5_data_3_split
I0914 21:59:18.027686  5599 net.cpp:100] Creating Layer label_2_5x5_data_3_split
I0914 21:59:18.027693  5599 net.cpp:434] label_2_5x5_data_3_split <- label_2_5x5
I0914 21:59:18.027701  5599 net.cpp:408] label_2_5x5_data_3_split -> label_2_5x5_data_3_split_0
I0914 21:59:18.027714  5599 net.cpp:408] label_2_5x5_data_3_split -> label_2_5x5_data_3_split_1
I0914 21:59:18.027751  5599 net.cpp:150] Setting up label_2_5x5_data_3_split
I0914 21:59:18.027758  5599 net.cpp:157] Top shape: 4 6 48 48 (55296)
I0914 21:59:18.027765  5599 net.cpp:157] Top shape: 4 6 48 48 (55296)
I0914 21:59:18.027768  5599 net.cpp:165] Memory required for data: 44066304
I0914 21:59:18.027772  5599 layer_factory.hpp:77] Creating layer label_2_7x7_data_4_split
I0914 21:59:18.027781  5599 net.cpp:100] Creating Layer label_2_7x7_data_4_split
I0914 21:59:18.027784  5599 net.cpp:434] label_2_7x7_data_4_split <- label_2_7x7
I0914 21:59:18.027792  5599 net.cpp:408] label_2_7x7_data_4_split -> label_2_7x7_data_4_split_0
I0914 21:59:18.027799  5599 net.cpp:408] label_2_7x7_data_4_split -> label_2_7x7_data_4_split_1
I0914 21:59:18.027832  5599 net.cpp:150] Setting up label_2_7x7_data_4_split
I0914 21:59:18.027840  5599 net.cpp:157] Top shape: 4 6 48 48 (55296)
I0914 21:59:18.027845  5599 net.cpp:157] Top shape: 4 6 48 48 (55296)
I0914 21:59:18.027849  5599 net.cpp:165] Memory required for data: 44508672
I0914 21:59:18.027853  5599 layer_factory.hpp:77] Creating layer label_3_5x5_data_5_split
I0914 21:59:18.027859  5599 net.cpp:100] Creating Layer label_3_5x5_data_5_split
I0914 21:59:18.027864  5599 net.cpp:434] label_3_5x5_data_5_split <- label_3_5x5
I0914 21:59:18.027870  5599 net.cpp:408] label_3_5x5_data_5_split -> label_3_5x5_data_5_split_0
I0914 21:59:18.027878  5599 net.cpp:408] label_3_5x5_data_5_split -> label_3_5x5_data_5_split_1
I0914 21:59:18.027909  5599 net.cpp:150] Setting up label_3_5x5_data_5_split
I0914 21:59:18.027917  5599 net.cpp:157] Top shape: 4 6 24 24 (13824)
I0914 21:59:18.027922  5599 net.cpp:157] Top shape: 4 6 24 24 (13824)
I0914 21:59:18.027926  5599 net.cpp:165] Memory required for data: 44619264
I0914 21:59:18.027930  5599 layer_factory.hpp:77] Creating layer label_3_7x7_data_6_split
I0914 21:59:18.027935  5599 net.cpp:100] Creating Layer label_3_7x7_data_6_split
I0914 21:59:18.027940  5599 net.cpp:434] label_3_7x7_data_6_split <- label_3_7x7
I0914 21:59:18.027946  5599 net.cpp:408] label_3_7x7_data_6_split -> label_3_7x7_data_6_split_0
I0914 21:59:18.027952  5599 net.cpp:408] label_3_7x7_data_6_split -> label_3_7x7_data_6_split_1
I0914 21:59:18.027982  5599 net.cpp:150] Setting up label_3_7x7_data_6_split
I0914 21:59:18.027989  5599 net.cpp:157] Top shape: 4 6 24 24 (13824)
I0914 21:59:18.027995  5599 net.cpp:157] Top shape: 4 6 24 24 (13824)
I0914 21:59:18.027998  5599 net.cpp:165] Memory required for data: 44729856
I0914 21:59:18.028002  5599 layer_factory.hpp:77] Creating layer label_4_5x5_data_7_split
I0914 21:59:18.028009  5599 net.cpp:100] Creating Layer label_4_5x5_data_7_split
I0914 21:59:18.028013  5599 net.cpp:434] label_4_5x5_data_7_split <- label_4_5x5
I0914 21:59:18.028019  5599 net.cpp:408] label_4_5x5_data_7_split -> label_4_5x5_data_7_split_0
I0914 21:59:18.028025  5599 net.cpp:408] label_4_5x5_data_7_split -> label_4_5x5_data_7_split_1
I0914 21:59:18.028057  5599 net.cpp:150] Setting up label_4_5x5_data_7_split
I0914 21:59:18.028064  5599 net.cpp:157] Top shape: 4 6 12 12 (3456)
I0914 21:59:18.028069  5599 net.cpp:157] Top shape: 4 6 12 12 (3456)
I0914 21:59:18.028074  5599 net.cpp:165] Memory required for data: 44757504
I0914 21:59:18.028077  5599 layer_factory.hpp:77] Creating layer slice
I0914 21:59:18.028092  5599 net.cpp:100] Creating Layer slice
I0914 21:59:18.028098  5599 net.cpp:434] slice <- data
I0914 21:59:18.028103  5599 net.cpp:408] slice -> data123
I0914 21:59:18.028113  5599 net.cpp:408] slice -> ch4
I0914 21:59:18.028148  5599 net.cpp:150] Setting up slice
I0914 21:59:18.028156  5599 net.cpp:157] Top shape: 4 3 768 768 (7077888)
I0914 21:59:18.028161  5599 net.cpp:157] Top shape: 4 1 768 768 (2359296)
I0914 21:59:18.028164  5599 net.cpp:165] Memory required for data: 82506240
I0914 21:59:18.028168  5599 layer_factory.hpp:77] Creating layer conv1_1
I0914 21:59:18.028182  5599 net.cpp:100] Creating Layer conv1_1
I0914 21:59:18.028187  5599 net.cpp:434] conv1_1 <- data123
I0914 21:59:18.028192  5599 net.cpp:408] conv1_1 -> conv1_1
I0914 21:59:18.295444  5599 net.cpp:150] Setting up conv1_1
I0914 21:59:18.295482  5599 net.cpp:157] Top shape: 4 64 768 768 (150994944)
I0914 21:59:18.295487  5599 net.cpp:165] Memory required for data: 686486016
I0914 21:59:18.295507  5599 layer_factory.hpp:77] Creating layer relu1_1
I0914 21:59:18.295521  5599 net.cpp:100] Creating Layer relu1_1
I0914 21:59:18.295528  5599 net.cpp:434] relu1_1 <- conv1_1
I0914 21:59:18.295534  5599 net.cpp:395] relu1_1 -> conv1_1 (in-place)
I0914 21:59:18.295766  5599 net.cpp:150] Setting up relu1_1
I0914 21:59:18.295775  5599 net.cpp:157] Top shape: 4 64 768 768 (150994944)
I0914 21:59:18.295779  5599 net.cpp:165] Memory required for data: 1290465792
I0914 21:59:18.295783  5599 layer_factory.hpp:77] Creating layer conv1_2
I0914 21:59:18.295795  5599 net.cpp:100] Creating Layer conv1_2
I0914 21:59:18.295799  5599 net.cpp:434] conv1_2 <- conv1_1
I0914 21:59:18.295805  5599 net.cpp:408] conv1_2 -> conv1_2
I0914 21:59:18.297971  5599 net.cpp:150] Setting up conv1_2
I0914 21:59:18.297983  5599 net.cpp:157] Top shape: 4 64 768 768 (150994944)
I0914 21:59:18.297987  5599 net.cpp:165] Memory required for data: 1894445568
I0914 21:59:18.297996  5599 layer_factory.hpp:77] Creating layer relu1_2
I0914 21:59:18.298003  5599 net.cpp:100] Creating Layer relu1_2
I0914 21:59:18.298007  5599 net.cpp:434] relu1_2 <- conv1_2
I0914 21:59:18.298013  5599 net.cpp:395] relu1_2 -> conv1_2 (in-place)
I0914 21:59:18.298192  5599 net.cpp:150] Setting up relu1_2
I0914 21:59:18.298202  5599 net.cpp:157] Top shape: 4 64 768 768 (150994944)
I0914 21:59:18.298205  5599 net.cpp:165] Memory required for data: 2498425344
I0914 21:59:18.298209  5599 layer_factory.hpp:77] Creating layer pool1
I0914 21:59:18.298215  5599 net.cpp:100] Creating Layer pool1
I0914 21:59:18.298218  5599 net.cpp:434] pool1 <- conv1_2
I0914 21:59:18.298225  5599 net.cpp:408] pool1 -> pool1
I0914 21:59:18.298279  5599 net.cpp:150] Setting up pool1
I0914 21:59:18.298285  5599 net.cpp:157] Top shape: 4 64 384 384 (37748736)
I0914 21:59:18.298288  5599 net.cpp:165] Memory required for data: 2649420288
I0914 21:59:18.298291  5599 layer_factory.hpp:77] Creating layer ch4_pool1
I0914 21:59:18.298296  5599 net.cpp:100] Creating Layer ch4_pool1
I0914 21:59:18.298300  5599 net.cpp:434] ch4_pool1 <- ch4
I0914 21:59:18.298305  5599 net.cpp:408] ch4_pool1 -> ch4_pool1
I0914 21:59:18.298336  5599 net.cpp:150] Setting up ch4_pool1
I0914 21:59:18.298342  5599 net.cpp:157] Top shape: 4 1 384 384 (589824)
I0914 21:59:18.298346  5599 net.cpp:165] Memory required for data: 2651779584
I0914 21:59:18.298348  5599 layer_factory.hpp:77] Creating layer ch4_pool1_ch4_pool1_0_split
I0914 21:59:18.298354  5599 net.cpp:100] Creating Layer ch4_pool1_ch4_pool1_0_split
I0914 21:59:18.298357  5599 net.cpp:434] ch4_pool1_ch4_pool1_0_split <- ch4_pool1
I0914 21:59:18.298362  5599 net.cpp:408] ch4_pool1_ch4_pool1_0_split -> ch4_pool1_ch4_pool1_0_split_0
I0914 21:59:18.298368  5599 net.cpp:408] ch4_pool1_ch4_pool1_0_split -> ch4_pool1_ch4_pool1_0_split_1
I0914 21:59:18.298399  5599 net.cpp:150] Setting up ch4_pool1_ch4_pool1_0_split
I0914 21:59:18.298405  5599 net.cpp:157] Top shape: 4 1 384 384 (589824)
I0914 21:59:18.298409  5599 net.cpp:157] Top shape: 4 1 384 384 (589824)
I0914 21:59:18.298413  5599 net.cpp:165] Memory required for data: 2656498176
I0914 21:59:18.298416  5599 layer_factory.hpp:77] Creating layer pool1_concat
I0914 21:59:18.298424  5599 net.cpp:100] Creating Layer pool1_concat
I0914 21:59:18.298427  5599 net.cpp:434] pool1_concat <- pool1
I0914 21:59:18.298431  5599 net.cpp:434] pool1_concat <- ch4_pool1_ch4_pool1_0_split_0
I0914 21:59:18.298435  5599 net.cpp:408] pool1_concat -> pool1_new
I0914 21:59:18.298456  5599 net.cpp:150] Setting up pool1_concat
I0914 21:59:18.298461  5599 net.cpp:157] Top shape: 4 65 384 384 (38338560)
I0914 21:59:18.298465  5599 net.cpp:165] Memory required for data: 2809852416
I0914 21:59:18.298467  5599 layer_factory.hpp:77] Creating layer conv2_1_new
I0914 21:59:18.298475  5599 net.cpp:100] Creating Layer conv2_1_new
I0914 21:59:18.298478  5599 net.cpp:434] conv2_1_new <- pool1_new
I0914 21:59:18.298482  5599 net.cpp:408] conv2_1_new -> conv2_1
I0914 21:59:18.300606  5599 net.cpp:150] Setting up conv2_1_new
I0914 21:59:18.300622  5599 net.cpp:157] Top shape: 4 128 384 384 (75497472)
I0914 21:59:18.300627  5599 net.cpp:165] Memory required for data: 3111842304
I0914 21:59:18.300637  5599 layer_factory.hpp:77] Creating layer relu2_1
I0914 21:59:18.300643  5599 net.cpp:100] Creating Layer relu2_1
I0914 21:59:18.300647  5599 net.cpp:434] relu2_1 <- conv2_1
I0914 21:59:18.300652  5599 net.cpp:395] relu2_1 -> conv2_1 (in-place)
I0914 21:59:18.300817  5599 net.cpp:150] Setting up relu2_1
I0914 21:59:18.300827  5599 net.cpp:157] Top shape: 4 128 384 384 (75497472)
I0914 21:59:18.300829  5599 net.cpp:165] Memory required for data: 3413832192
I0914 21:59:18.300832  5599 layer_factory.hpp:77] Creating layer conv2_2
I0914 21:59:18.300840  5599 net.cpp:100] Creating Layer conv2_2
I0914 21:59:18.300844  5599 net.cpp:434] conv2_2 <- conv2_1
I0914 21:59:18.300849  5599 net.cpp:408] conv2_2 -> conv2_2
I0914 21:59:18.302206  5599 net.cpp:150] Setting up conv2_2
I0914 21:59:18.302218  5599 net.cpp:157] Top shape: 4 128 384 384 (75497472)
I0914 21:59:18.302222  5599 net.cpp:165] Memory required for data: 3715822080
I0914 21:59:18.302228  5599 layer_factory.hpp:77] Creating layer relu2_2
I0914 21:59:18.302235  5599 net.cpp:100] Creating Layer relu2_2
I0914 21:59:18.302239  5599 net.cpp:434] relu2_2 <- conv2_2
I0914 21:59:18.302243  5599 net.cpp:395] relu2_2 -> conv2_2 (in-place)
I0914 21:59:18.302403  5599 net.cpp:150] Setting up relu2_2
I0914 21:59:18.302412  5599 net.cpp:157] Top shape: 4 128 384 384 (75497472)
I0914 21:59:18.302415  5599 net.cpp:165] Memory required for data: 4017811968
I0914 21:59:18.302418  5599 layer_factory.hpp:77] Creating layer pool2
I0914 21:59:18.302425  5599 net.cpp:100] Creating Layer pool2
I0914 21:59:18.302429  5599 net.cpp:434] pool2 <- conv2_2
I0914 21:59:18.302434  5599 net.cpp:408] pool2 -> pool2
I0914 21:59:18.302470  5599 net.cpp:150] Setting up pool2
I0914 21:59:18.302476  5599 net.cpp:157] Top shape: 4 128 192 192 (18874368)
I0914 21:59:18.302479  5599 net.cpp:165] Memory required for data: 4093309440
I0914 21:59:18.302482  5599 layer_factory.hpp:77] Creating layer ch4_pool2
I0914 21:59:18.302487  5599 net.cpp:100] Creating Layer ch4_pool2
I0914 21:59:18.302491  5599 net.cpp:434] ch4_pool2 <- ch4_pool1_ch4_pool1_0_split_1
I0914 21:59:18.302497  5599 net.cpp:408] ch4_pool2 -> ch4_pool2
I0914 21:59:18.302527  5599 net.cpp:150] Setting up ch4_pool2
I0914 21:59:18.302533  5599 net.cpp:157] Top shape: 4 1 192 192 (147456)
I0914 21:59:18.302536  5599 net.cpp:165] Memory required for data: 4093899264
I0914 21:59:18.302539  5599 layer_factory.hpp:77] Creating layer ch4_pool2_ch4_pool2_0_split
I0914 21:59:18.302546  5599 net.cpp:100] Creating Layer ch4_pool2_ch4_pool2_0_split
I0914 21:59:18.302549  5599 net.cpp:434] ch4_pool2_ch4_pool2_0_split <- ch4_pool2
I0914 21:59:18.302553  5599 net.cpp:408] ch4_pool2_ch4_pool2_0_split -> ch4_pool2_ch4_pool2_0_split_0
I0914 21:59:18.302559  5599 net.cpp:408] ch4_pool2_ch4_pool2_0_split -> ch4_pool2_ch4_pool2_0_split_1
I0914 21:59:18.302589  5599 net.cpp:150] Setting up ch4_pool2_ch4_pool2_0_split
I0914 21:59:18.302594  5599 net.cpp:157] Top shape: 4 1 192 192 (147456)
I0914 21:59:18.302598  5599 net.cpp:157] Top shape: 4 1 192 192 (147456)
I0914 21:59:18.302601  5599 net.cpp:165] Memory required for data: 4095078912
I0914 21:59:18.302605  5599 layer_factory.hpp:77] Creating layer pool2_concat
I0914 21:59:18.302611  5599 net.cpp:100] Creating Layer pool2_concat
I0914 21:59:18.302614  5599 net.cpp:434] pool2_concat <- pool2
I0914 21:59:18.302618  5599 net.cpp:434] pool2_concat <- ch4_pool2_ch4_pool2_0_split_0
I0914 21:59:18.302623  5599 net.cpp:408] pool2_concat -> pool2_new
I0914 21:59:18.302642  5599 net.cpp:150] Setting up pool2_concat
I0914 21:59:18.302649  5599 net.cpp:157] Top shape: 4 129 192 192 (19021824)
I0914 21:59:18.302651  5599 net.cpp:165] Memory required for data: 4171166208
I0914 21:59:18.302654  5599 layer_factory.hpp:77] Creating layer conv3_1_new
I0914 21:59:18.302660  5599 net.cpp:100] Creating Layer conv3_1_new
I0914 21:59:18.302664  5599 net.cpp:434] conv3_1_new <- pool2_new
I0914 21:59:18.302669  5599 net.cpp:408] conv3_1_new -> conv3_1
I0914 21:59:18.306048  5599 net.cpp:150] Setting up conv3_1_new
I0914 21:59:18.306064  5599 net.cpp:157] Top shape: 4 256 192 192 (37748736)
I0914 21:59:18.306067  5599 net.cpp:165] Memory required for data: 4322161152
I0914 21:59:18.306077  5599 layer_factory.hpp:77] Creating layer relu3_1
I0914 21:59:18.306083  5599 net.cpp:100] Creating Layer relu3_1
I0914 21:59:18.306087  5599 net.cpp:434] relu3_1 <- conv3_1
I0914 21:59:18.306092  5599 net.cpp:395] relu3_1 -> conv3_1 (in-place)
I0914 21:59:18.306535  5599 net.cpp:150] Setting up relu3_1
I0914 21:59:18.306546  5599 net.cpp:157] Top shape: 4 256 192 192 (37748736)
I0914 21:59:18.306550  5599 net.cpp:165] Memory required for data: 4473156096
I0914 21:59:18.306553  5599 layer_factory.hpp:77] Creating layer conv3_2
I0914 21:59:18.306561  5599 net.cpp:100] Creating Layer conv3_2
I0914 21:59:18.306565  5599 net.cpp:434] conv3_2 <- conv3_1
I0914 21:59:18.306571  5599 net.cpp:408] conv3_2 -> conv3_2
I0914 21:59:18.308732  5599 net.cpp:150] Setting up conv3_2
I0914 21:59:18.308748  5599 net.cpp:157] Top shape: 4 256 192 192 (37748736)
I0914 21:59:18.308751  5599 net.cpp:165] Memory required for data: 4624151040
I0914 21:59:18.308758  5599 layer_factory.hpp:77] Creating layer relu3_2
I0914 21:59:18.308766  5599 net.cpp:100] Creating Layer relu3_2
I0914 21:59:18.308770  5599 net.cpp:434] relu3_2 <- conv3_2
I0914 21:59:18.308775  5599 net.cpp:395] relu3_2 -> conv3_2 (in-place)
I0914 21:59:18.309260  5599 net.cpp:150] Setting up relu3_2
I0914 21:59:18.309273  5599 net.cpp:157] Top shape: 4 256 192 192 (37748736)
I0914 21:59:18.309276  5599 net.cpp:165] Memory required for data: 4775145984
I0914 21:59:18.309279  5599 layer_factory.hpp:77] Creating layer conv3_3
I0914 21:59:18.309290  5599 net.cpp:100] Creating Layer conv3_3
I0914 21:59:18.309293  5599 net.cpp:434] conv3_3 <- conv3_2
I0914 21:59:18.309299  5599 net.cpp:408] conv3_3 -> conv3_3
I0914 21:59:18.311875  5599 net.cpp:150] Setting up conv3_3
I0914 21:59:18.311903  5599 net.cpp:157] Top shape: 4 256 192 192 (37748736)
I0914 21:59:18.311908  5599 net.cpp:165] Memory required for data: 4926140928
I0914 21:59:18.311923  5599 layer_factory.hpp:77] Creating layer relu3_3
I0914 21:59:18.311935  5599 net.cpp:100] Creating Layer relu3_3
I0914 21:59:18.311942  5599 net.cpp:434] relu3_3 <- conv3_3
I0914 21:59:18.311951  5599 net.cpp:395] relu3_3 -> conv3_3 (in-place)
I0914 21:59:18.312142  5599 net.cpp:150] Setting up relu3_3
I0914 21:59:18.312153  5599 net.cpp:157] Top shape: 4 256 192 192 (37748736)
I0914 21:59:18.312158  5599 net.cpp:165] Memory required for data: 5077135872
I0914 21:59:18.312163  5599 layer_factory.hpp:77] Creating layer pool3
I0914 21:59:18.312173  5599 net.cpp:100] Creating Layer pool3
I0914 21:59:18.312178  5599 net.cpp:434] pool3 <- conv3_3
I0914 21:59:18.312186  5599 net.cpp:408] pool3 -> pool3
I0914 21:59:18.312233  5599 net.cpp:150] Setting up pool3
I0914 21:59:18.312242  5599 net.cpp:157] Top shape: 4 256 96 96 (9437184)
I0914 21:59:18.312247  5599 net.cpp:165] Memory required for data: 5114884608
I0914 21:59:18.312250  5599 layer_factory.hpp:77] Creating layer ch4_pool3
I0914 21:59:18.312266  5599 net.cpp:100] Creating Layer ch4_pool3
I0914 21:59:18.312273  5599 net.cpp:434] ch4_pool3 <- ch4_pool2_ch4_pool2_0_split_1
I0914 21:59:18.312280  5599 net.cpp:408] ch4_pool3 -> ch4_pool3
I0914 21:59:18.312325  5599 net.cpp:150] Setting up ch4_pool3
I0914 21:59:18.312333  5599 net.cpp:157] Top shape: 4 1 96 96 (36864)
I0914 21:59:18.312337  5599 net.cpp:165] Memory required for data: 5115032064
I0914 21:59:18.312342  5599 layer_factory.hpp:77] Creating layer pool3_concat
I0914 21:59:18.312351  5599 net.cpp:100] Creating Layer pool3_concat
I0914 21:59:18.312357  5599 net.cpp:434] pool3_concat <- pool3
I0914 21:59:18.312362  5599 net.cpp:434] pool3_concat <- ch4_pool3
I0914 21:59:18.312372  5599 net.cpp:408] pool3_concat -> pool3_new
I0914 21:59:18.312404  5599 net.cpp:150] Setting up pool3_concat
I0914 21:59:18.312417  5599 net.cpp:157] Top shape: 4 257 96 96 (9474048)
I0914 21:59:18.312422  5599 net.cpp:165] Memory required for data: 5152928256
I0914 21:59:18.312425  5599 layer_factory.hpp:77] Creating layer conv4_1_new
I0914 21:59:18.312436  5599 net.cpp:100] Creating Layer conv4_1_new
I0914 21:59:18.312443  5599 net.cpp:434] conv4_1_new <- pool3_new
I0914 21:59:18.312450  5599 net.cpp:408] conv4_1_new -> conv4_1
I0914 21:59:18.320956  5599 net.cpp:150] Setting up conv4_1_new
I0914 21:59:18.320986  5599 net.cpp:157] Top shape: 4 512 96 96 (18874368)
I0914 21:59:18.320991  5599 net.cpp:165] Memory required for data: 5228425728
I0914 21:59:18.321002  5599 layer_factory.hpp:77] Creating layer relu4_1
I0914 21:59:18.321017  5599 net.cpp:100] Creating Layer relu4_1
I0914 21:59:18.321023  5599 net.cpp:434] relu4_1 <- conv4_1
I0914 21:59:18.321034  5599 net.cpp:395] relu4_1 -> conv4_1 (in-place)
I0914 21:59:18.321210  5599 net.cpp:150] Setting up relu4_1
I0914 21:59:18.321221  5599 net.cpp:157] Top shape: 4 512 96 96 (18874368)
I0914 21:59:18.321226  5599 net.cpp:165] Memory required for data: 5303923200
I0914 21:59:18.321231  5599 layer_factory.hpp:77] Creating layer conv4_2
I0914 21:59:18.321244  5599 net.cpp:100] Creating Layer conv4_2
I0914 21:59:18.321249  5599 net.cpp:434] conv4_2 <- conv4_1
I0914 21:59:18.321259  5599 net.cpp:408] conv4_2 -> conv4_2
I0914 21:59:18.331087  5599 net.cpp:150] Setting up conv4_2
I0914 21:59:18.331116  5599 net.cpp:157] Top shape: 4 512 96 96 (18874368)
I0914 21:59:18.331121  5599 net.cpp:165] Memory required for data: 5379420672
I0914 21:59:18.331142  5599 layer_factory.hpp:77] Creating layer relu4_2
I0914 21:59:18.331158  5599 net.cpp:100] Creating Layer relu4_2
I0914 21:59:18.331167  5599 net.cpp:434] relu4_2 <- conv4_2
I0914 21:59:18.331176  5599 net.cpp:395] relu4_2 -> conv4_2 (in-place)
I0914 21:59:18.331354  5599 net.cpp:150] Setting up relu4_2
I0914 21:59:18.331367  5599 net.cpp:157] Top shape: 4 512 96 96 (18874368)
I0914 21:59:18.331372  5599 net.cpp:165] Memory required for data: 5454918144
I0914 21:59:18.331377  5599 layer_factory.hpp:77] Creating layer conv4_3
I0914 21:59:18.331389  5599 net.cpp:100] Creating Layer conv4_3
I0914 21:59:18.331395  5599 net.cpp:434] conv4_3 <- conv4_2
I0914 21:59:18.331403  5599 net.cpp:408] conv4_3 -> conv4_3
I0914 21:59:18.337141  5599 net.cpp:150] Setting up conv4_3
I0914 21:59:18.337177  5599 net.cpp:157] Top shape: 4 512 96 96 (18874368)
I0914 21:59:18.337180  5599 net.cpp:165] Memory required for data: 5530415616
I0914 21:59:18.337193  5599 layer_factory.hpp:77] Creating layer relu4_3
I0914 21:59:18.337206  5599 net.cpp:100] Creating Layer relu4_3
I0914 21:59:18.337214  5599 net.cpp:434] relu4_3 <- conv4_3
I0914 21:59:18.337222  5599 net.cpp:395] relu4_3 -> conv4_3 (in-place)
I0914 21:59:18.337388  5599 net.cpp:150] Setting up relu4_3
I0914 21:59:18.337399  5599 net.cpp:157] Top shape: 4 512 96 96 (18874368)
I0914 21:59:18.337404  5599 net.cpp:165] Memory required for data: 5605913088
I0914 21:59:18.337409  5599 layer_factory.hpp:77] Creating layer conv4_3_relu4_3_0_split
I0914 21:59:18.337419  5599 net.cpp:100] Creating Layer conv4_3_relu4_3_0_split
I0914 21:59:18.337425  5599 net.cpp:434] conv4_3_relu4_3_0_split <- conv4_3
I0914 21:59:18.337433  5599 net.cpp:408] conv4_3_relu4_3_0_split -> conv4_3_relu4_3_0_split_0
I0914 21:59:18.337445  5599 net.cpp:408] conv4_3_relu4_3_0_split -> conv4_3_relu4_3_0_split_1
I0914 21:59:18.337488  5599 net.cpp:150] Setting up conv4_3_relu4_3_0_split
I0914 21:59:18.337496  5599 net.cpp:157] Top shape: 4 512 96 96 (18874368)
I0914 21:59:18.337502  5599 net.cpp:157] Top shape: 4 512 96 96 (18874368)
I0914 21:59:18.337507  5599 net.cpp:165] Memory required for data: 5756908032
I0914 21:59:18.337512  5599 layer_factory.hpp:77] Creating layer loss1_conv1
I0914 21:59:18.337527  5599 net.cpp:100] Creating Layer loss1_conv1
I0914 21:59:18.337532  5599 net.cpp:434] loss1_conv1 <- conv4_3_relu4_3_0_split_0
I0914 21:59:18.337543  5599 net.cpp:408] loss1_conv1 -> loss1_conv1
I0914 21:59:18.402010  5599 net.cpp:150] Setting up loss1_conv1
I0914 21:59:18.402045  5599 net.cpp:157] Top shape: 4 512 96 96 (18874368)
I0914 21:59:18.402048  5599 net.cpp:165] Memory required for data: 5832405504
I0914 21:59:18.402056  5599 layer_factory.hpp:77] Creating layer loss_relu1
I0914 21:59:18.402065  5599 net.cpp:100] Creating Layer loss_relu1
I0914 21:59:18.402070  5599 net.cpp:434] loss_relu1 <- loss1_conv1
I0914 21:59:18.402077  5599 net.cpp:395] loss_relu1 -> loss1_conv1 (in-place)
I0914 21:59:18.402510  5599 net.cpp:150] Setting up loss_relu1
I0914 21:59:18.402523  5599 net.cpp:157] Top shape: 4 512 96 96 (18874368)
I0914 21:59:18.402526  5599 net.cpp:165] Memory required for data: 5907902976
I0914 21:59:18.402529  5599 layer_factory.hpp:77] Creating layer loss1_conv1_loss_relu1_0_split
I0914 21:59:18.402535  5599 net.cpp:100] Creating Layer loss1_conv1_loss_relu1_0_split
I0914 21:59:18.402539  5599 net.cpp:434] loss1_conv1_loss_relu1_0_split <- loss1_conv1
I0914 21:59:18.402549  5599 net.cpp:408] loss1_conv1_loss_relu1_0_split -> loss1_conv1_loss_relu1_0_split_0
I0914 21:59:18.402557  5599 net.cpp:408] loss1_conv1_loss_relu1_0_split -> loss1_conv1_loss_relu1_0_split_1
I0914 21:59:18.402598  5599 net.cpp:150] Setting up loss1_conv1_loss_relu1_0_split
I0914 21:59:18.402606  5599 net.cpp:157] Top shape: 4 512 96 96 (18874368)
I0914 21:59:18.402611  5599 net.cpp:157] Top shape: 4 512 96 96 (18874368)
I0914 21:59:18.402613  5599 net.cpp:165] Memory required for data: 6058897920
I0914 21:59:18.402616  5599 layer_factory.hpp:77] Creating layer LFCN_1_5x5
I0914 21:59:18.402628  5599 net.cpp:100] Creating Layer LFCN_1_5x5
I0914 21:59:18.402633  5599 net.cpp:434] LFCN_1_5x5 <- loss1_conv1_loss_relu1_0_split_0
I0914 21:59:18.402640  5599 net.cpp:408] LFCN_1_5x5 -> LFCN_1_5x5
I0914 21:59:18.406697  5599 net.cpp:150] Setting up LFCN_1_5x5
I0914 21:59:18.406709  5599 net.cpp:157] Top shape: 4 9 96 96 (331776)
I0914 21:59:18.406713  5599 net.cpp:165] Memory required for data: 6060225024
I0914 21:59:18.406718  5599 layer_factory.hpp:77] Creating layer LFCN_1_5x5_LFCN_1_5x5_0_split
I0914 21:59:18.406726  5599 net.cpp:100] Creating Layer LFCN_1_5x5_LFCN_1_5x5_0_split
I0914 21:59:18.406731  5599 net.cpp:434] LFCN_1_5x5_LFCN_1_5x5_0_split <- LFCN_1_5x5
I0914 21:59:18.406738  5599 net.cpp:408] LFCN_1_5x5_LFCN_1_5x5_0_split -> LFCN_1_5x5_LFCN_1_5x5_0_split_0
I0914 21:59:18.406744  5599 net.cpp:408] LFCN_1_5x5_LFCN_1_5x5_0_split -> LFCN_1_5x5_LFCN_1_5x5_0_split_1
I0914 21:59:18.406790  5599 net.cpp:150] Setting up LFCN_1_5x5_LFCN_1_5x5_0_split
I0914 21:59:18.406796  5599 net.cpp:157] Top shape: 4 9 96 96 (331776)
I0914 21:59:18.406801  5599 net.cpp:157] Top shape: 4 9 96 96 (331776)
I0914 21:59:18.406805  5599 net.cpp:165] Memory required for data: 6062879232
I0914 21:59:18.406810  5599 layer_factory.hpp:77] Creating layer detection_loss_1_5x5
I0914 21:59:18.406821  5599 net.cpp:100] Creating Layer detection_loss_1_5x5
I0914 21:59:18.406824  5599 net.cpp:434] detection_loss_1_5x5 <- LFCN_1_5x5_LFCN_1_5x5_0_split_0
I0914 21:59:18.406828  5599 net.cpp:434] detection_loss_1_5x5 <- label_1_5x5_data_1_split_0
I0914 21:59:18.406833  5599 net.cpp:408] detection_loss_1_5x5 -> loss_1_5x5
I0914 21:59:18.406847  5599 layer_factory.hpp:77] Creating layer detection_loss_1_5x5
I0914 21:59:18.408428  5599 net.cpp:150] Setting up detection_loss_1_5x5
I0914 21:59:18.408442  5599 net.cpp:157] Top shape: 1 1 1 2 (2)
I0914 21:59:18.408447  5599 net.cpp:160]     with loss weight 0.9
I0914 21:59:18.408463  5599 net.cpp:165] Memory required for data: 6062879240
I0914 21:59:18.408468  5599 layer_factory.hpp:77] Creating layer detection_accuracy_1_5x5
I0914 21:59:18.408473  5599 net.cpp:100] Creating Layer detection_accuracy_1_5x5
I0914 21:59:18.408478  5599 net.cpp:434] detection_accuracy_1_5x5 <- LFCN_1_5x5_LFCN_1_5x5_0_split_1
I0914 21:59:18.408483  5599 net.cpp:434] detection_accuracy_1_5x5 <- label_1_5x5_data_1_split_1
I0914 21:59:18.408488  5599 net.cpp:408] detection_accuracy_1_5x5 -> accuracy_1_5x5
I0914 21:59:18.408496  5599 net.cpp:408] detection_accuracy_1_5x5 -> boxiou_1_5x5
I0914 21:59:18.408535  5599 net.cpp:150] Setting up detection_accuracy_1_5x5
I0914 21:59:18.408540  5599 net.cpp:157] Top shape: 1 1 1 2 (2)
I0914 21:59:18.408545  5599 net.cpp:157] Top shape: 1 1 1 1 (1)
I0914 21:59:18.408547  5599 net.cpp:165] Memory required for data: 6062879252
I0914 21:59:18.408550  5599 layer_factory.hpp:77] Creating layer LFCN_1_7x7
I0914 21:59:18.408560  5599 net.cpp:100] Creating Layer LFCN_1_7x7
I0914 21:59:18.408565  5599 net.cpp:434] LFCN_1_7x7 <- loss1_conv1_loss_relu1_0_split_1
I0914 21:59:18.408571  5599 net.cpp:408] LFCN_1_7x7 -> LFCN_1_7x7
I0914 21:59:18.415448  5599 net.cpp:150] Setting up LFCN_1_7x7
I0914 21:59:18.415470  5599 net.cpp:157] Top shape: 4 9 96 96 (331776)
I0914 21:59:18.415473  5599 net.cpp:165] Memory required for data: 6064206356
I0914 21:59:18.415482  5599 layer_factory.hpp:77] Creating layer LFCN_1_7x7_LFCN_1_7x7_0_split
I0914 21:59:18.415490  5599 net.cpp:100] Creating Layer LFCN_1_7x7_LFCN_1_7x7_0_split
I0914 21:59:18.415494  5599 net.cpp:434] LFCN_1_7x7_LFCN_1_7x7_0_split <- LFCN_1_7x7
I0914 21:59:18.415500  5599 net.cpp:408] LFCN_1_7x7_LFCN_1_7x7_0_split -> LFCN_1_7x7_LFCN_1_7x7_0_split_0
I0914 21:59:18.415508  5599 net.cpp:408] LFCN_1_7x7_LFCN_1_7x7_0_split -> LFCN_1_7x7_LFCN_1_7x7_0_split_1
I0914 21:59:18.415549  5599 net.cpp:150] Setting up LFCN_1_7x7_LFCN_1_7x7_0_split
I0914 21:59:18.415556  5599 net.cpp:157] Top shape: 4 9 96 96 (331776)
I0914 21:59:18.415561  5599 net.cpp:157] Top shape: 4 9 96 96 (331776)
I0914 21:59:18.415565  5599 net.cpp:165] Memory required for data: 6066860564
I0914 21:59:18.415570  5599 layer_factory.hpp:77] Creating layer detection_loss_1_7x7
I0914 21:59:18.415580  5599 net.cpp:100] Creating Layer detection_loss_1_7x7
I0914 21:59:18.415582  5599 net.cpp:434] detection_loss_1_7x7 <- LFCN_1_7x7_LFCN_1_7x7_0_split_0
I0914 21:59:18.415588  5599 net.cpp:434] detection_loss_1_7x7 <- label_1_7x7_data_2_split_0
I0914 21:59:18.415598  5599 net.cpp:408] detection_loss_1_7x7 -> loss_1_7x7
I0914 21:59:18.415608  5599 layer_factory.hpp:77] Creating layer detection_loss_1_7x7
I0914 21:59:18.417161  5599 net.cpp:150] Setting up detection_loss_1_7x7
I0914 21:59:18.417177  5599 net.cpp:157] Top shape: 1 1 1 2 (2)
I0914 21:59:18.417181  5599 net.cpp:160]     with loss weight 0.9
I0914 21:59:18.417191  5599 net.cpp:165] Memory required for data: 6066860572
I0914 21:59:18.417194  5599 layer_factory.hpp:77] Creating layer detection_accuracy_1_7x7
I0914 21:59:18.417203  5599 net.cpp:100] Creating Layer detection_accuracy_1_7x7
I0914 21:59:18.417208  5599 net.cpp:434] detection_accuracy_1_7x7 <- LFCN_1_7x7_LFCN_1_7x7_0_split_1
I0914 21:59:18.417213  5599 net.cpp:434] detection_accuracy_1_7x7 <- label_1_7x7_data_2_split_1
I0914 21:59:18.417220  5599 net.cpp:408] detection_accuracy_1_7x7 -> accuracy_1_7x7
I0914 21:59:18.417229  5599 net.cpp:408] detection_accuracy_1_7x7 -> boxiou_1_7x7
I0914 21:59:18.417271  5599 net.cpp:150] Setting up detection_accuracy_1_7x7
I0914 21:59:18.417279  5599 net.cpp:157] Top shape: 1 1 1 2 (2)
I0914 21:59:18.417282  5599 net.cpp:157] Top shape: 1 1 1 1 (1)
I0914 21:59:18.417285  5599 net.cpp:165] Memory required for data: 6066860584
I0914 21:59:18.417289  5599 layer_factory.hpp:77] Creating layer pool4
I0914 21:59:18.417294  5599 net.cpp:100] Creating Layer pool4
I0914 21:59:18.417299  5599 net.cpp:434] pool4 <- conv4_3_relu4_3_0_split_1
I0914 21:59:18.417304  5599 net.cpp:408] pool4 -> pool4
I0914 21:59:18.417346  5599 net.cpp:150] Setting up pool4
I0914 21:59:18.417354  5599 net.cpp:157] Top shape: 4 512 48 48 (4718592)
I0914 21:59:18.417357  5599 net.cpp:165] Memory required for data: 6085734952
I0914 21:59:18.417361  5599 layer_factory.hpp:77] Creating layer conv5_1
I0914 21:59:18.417371  5599 net.cpp:100] Creating Layer conv5_1
I0914 21:59:18.417373  5599 net.cpp:434] conv5_1 <- pool4
I0914 21:59:18.417381  5599 net.cpp:408] conv5_1 -> conv5_1
I0914 21:59:18.423295  5599 net.cpp:150] Setting up conv5_1
I0914 21:59:18.423341  5599 net.cpp:157] Top shape: 4 512 48 48 (4718592)
I0914 21:59:18.423346  5599 net.cpp:165] Memory required for data: 6104609320
I0914 21:59:18.423365  5599 layer_factory.hpp:77] Creating layer relu5_1
I0914 21:59:18.423389  5599 net.cpp:100] Creating Layer relu5_1
I0914 21:59:18.423396  5599 net.cpp:434] relu5_1 <- conv5_1
I0914 21:59:18.423404  5599 net.cpp:395] relu5_1 -> conv5_1 (in-place)
I0914 21:59:18.423620  5599 net.cpp:150] Setting up relu5_1
I0914 21:59:18.423631  5599 net.cpp:157] Top shape: 4 512 48 48 (4718592)
I0914 21:59:18.423635  5599 net.cpp:165] Memory required for data: 6123483688
I0914 21:59:18.423640  5599 layer_factory.hpp:77] Creating layer conv5_2
I0914 21:59:18.423655  5599 net.cpp:100] Creating Layer conv5_2
I0914 21:59:18.423662  5599 net.cpp:434] conv5_2 <- conv5_1
I0914 21:59:18.423671  5599 net.cpp:408] conv5_2 -> conv5_2
I0914 21:59:18.435266  5599 net.cpp:150] Setting up conv5_2
I0914 21:59:18.435317  5599 net.cpp:157] Top shape: 4 512 48 48 (4718592)
I0914 21:59:18.435322  5599 net.cpp:165] Memory required for data: 6142358056
I0914 21:59:18.435335  5599 layer_factory.hpp:77] Creating layer relu5_2
I0914 21:59:18.435353  5599 net.cpp:100] Creating Layer relu5_2
I0914 21:59:18.435364  5599 net.cpp:434] relu5_2 <- conv5_2
I0914 21:59:18.435372  5599 net.cpp:395] relu5_2 -> conv5_2 (in-place)
I0914 21:59:18.435559  5599 net.cpp:150] Setting up relu5_2
I0914 21:59:18.435570  5599 net.cpp:157] Top shape: 4 512 48 48 (4718592)
I0914 21:59:18.435572  5599 net.cpp:165] Memory required for data: 6161232424
I0914 21:59:18.435575  5599 layer_factory.hpp:77] Creating layer conv5_3
I0914 21:59:18.435590  5599 net.cpp:100] Creating Layer conv5_3
I0914 21:59:18.435595  5599 net.cpp:434] conv5_3 <- conv5_2
I0914 21:59:18.435600  5599 net.cpp:408] conv5_3 -> conv5_3
I0914 21:59:18.442232  5599 net.cpp:150] Setting up conv5_3
I0914 21:59:18.442260  5599 net.cpp:157] Top shape: 4 512 48 48 (4718592)
I0914 21:59:18.442265  5599 net.cpp:165] Memory required for data: 6180106792
I0914 21:59:18.442273  5599 layer_factory.hpp:77] Creating layer relu5_3
I0914 21:59:18.442289  5599 net.cpp:100] Creating Layer relu5_3
I0914 21:59:18.442296  5599 net.cpp:434] relu5_3 <- conv5_3
I0914 21:59:18.442306  5599 net.cpp:395] relu5_3 -> conv5_3 (in-place)
I0914 21:59:18.442486  5599 net.cpp:150] Setting up relu5_3
I0914 21:59:18.442495  5599 net.cpp:157] Top shape: 4 512 48 48 (4718592)
I0914 21:59:18.442498  5599 net.cpp:165] Memory required for data: 6198981160
I0914 21:59:18.442502  5599 layer_factory.hpp:77] Creating layer conv5_3_relu5_3_0_split
I0914 21:59:18.442510  5599 net.cpp:100] Creating Layer conv5_3_relu5_3_0_split
I0914 21:59:18.442515  5599 net.cpp:434] conv5_3_relu5_3_0_split <- conv5_3
I0914 21:59:18.442522  5599 net.cpp:408] conv5_3_relu5_3_0_split -> conv5_3_relu5_3_0_split_0
I0914 21:59:18.442530  5599 net.cpp:408] conv5_3_relu5_3_0_split -> conv5_3_relu5_3_0_split_1
I0914 21:59:18.442538  5599 net.cpp:408] conv5_3_relu5_3_0_split -> conv5_3_relu5_3_0_split_2
I0914 21:59:18.442600  5599 net.cpp:150] Setting up conv5_3_relu5_3_0_split
I0914 21:59:18.442610  5599 net.cpp:157] Top shape: 4 512 48 48 (4718592)
I0914 21:59:18.442613  5599 net.cpp:157] Top shape: 4 512 48 48 (4718592)
I0914 21:59:18.442617  5599 net.cpp:157] Top shape: 4 512 48 48 (4718592)
I0914 21:59:18.442621  5599 net.cpp:165] Memory required for data: 6255604264
I0914 21:59:18.442625  5599 layer_factory.hpp:77] Creating layer LFCN_2_5x5
I0914 21:59:18.442639  5599 net.cpp:100] Creating Layer LFCN_2_5x5
I0914 21:59:18.442646  5599 net.cpp:434] LFCN_2_5x5 <- conv5_3_relu5_3_0_split_0
I0914 21:59:18.442656  5599 net.cpp:408] LFCN_2_5x5 -> LFCN_2_5x5
I0914 21:59:18.447522  5599 net.cpp:150] Setting up LFCN_2_5x5
I0914 21:59:18.447551  5599 net.cpp:157] Top shape: 4 9 48 48 (82944)
I0914 21:59:18.447556  5599 net.cpp:165] Memory required for data: 6255936040
I0914 21:59:18.447569  5599 layer_factory.hpp:77] Creating layer LFCN_2_5x5_LFCN_2_5x5_0_split
I0914 21:59:18.447582  5599 net.cpp:100] Creating Layer LFCN_2_5x5_LFCN_2_5x5_0_split
I0914 21:59:18.447588  5599 net.cpp:434] LFCN_2_5x5_LFCN_2_5x5_0_split <- LFCN_2_5x5
I0914 21:59:18.447595  5599 net.cpp:408] LFCN_2_5x5_LFCN_2_5x5_0_split -> LFCN_2_5x5_LFCN_2_5x5_0_split_0
I0914 21:59:18.447607  5599 net.cpp:408] LFCN_2_5x5_LFCN_2_5x5_0_split -> LFCN_2_5x5_LFCN_2_5x5_0_split_1
I0914 21:59:18.447655  5599 net.cpp:150] Setting up LFCN_2_5x5_LFCN_2_5x5_0_split
I0914 21:59:18.447665  5599 net.cpp:157] Top shape: 4 9 48 48 (82944)
I0914 21:59:18.447672  5599 net.cpp:157] Top shape: 4 9 48 48 (82944)
I0914 21:59:18.447677  5599 net.cpp:165] Memory required for data: 6256599592
I0914 21:59:18.447682  5599 layer_factory.hpp:77] Creating layer detection_loss_2_5x5
I0914 21:59:18.447692  5599 net.cpp:100] Creating Layer detection_loss_2_5x5
I0914 21:59:18.447700  5599 net.cpp:434] detection_loss_2_5x5 <- LFCN_2_5x5_LFCN_2_5x5_0_split_0
I0914 21:59:18.447706  5599 net.cpp:434] detection_loss_2_5x5 <- label_2_5x5_data_3_split_0
I0914 21:59:18.447715  5599 net.cpp:408] detection_loss_2_5x5 -> loss_2_5x5
I0914 21:59:18.447726  5599 layer_factory.hpp:77] Creating layer detection_loss_2_5x5
I0914 21:59:18.449126  5599 net.cpp:150] Setting up detection_loss_2_5x5
I0914 21:59:18.449138  5599 net.cpp:157] Top shape: 1 1 1 2 (2)
I0914 21:59:18.449142  5599 net.cpp:160]     with loss weight 1
I0914 21:59:18.449151  5599 net.cpp:165] Memory required for data: 6256599600
I0914 21:59:18.449156  5599 layer_factory.hpp:77] Creating layer detection_accuracy_2_5x5
I0914 21:59:18.449163  5599 net.cpp:100] Creating Layer detection_accuracy_2_5x5
I0914 21:59:18.449167  5599 net.cpp:434] detection_accuracy_2_5x5 <- LFCN_2_5x5_LFCN_2_5x5_0_split_1
I0914 21:59:18.449172  5599 net.cpp:434] detection_accuracy_2_5x5 <- label_2_5x5_data_3_split_1
I0914 21:59:18.449177  5599 net.cpp:408] detection_accuracy_2_5x5 -> accuracy_2_5x5
I0914 21:59:18.449183  5599 net.cpp:408] detection_accuracy_2_5x5 -> boxiou_2_5x5
I0914 21:59:18.449221  5599 net.cpp:150] Setting up detection_accuracy_2_5x5
I0914 21:59:18.449228  5599 net.cpp:157] Top shape: 1 1 1 2 (2)
I0914 21:59:18.449231  5599 net.cpp:157] Top shape: 1 1 1 1 (1)
I0914 21:59:18.449234  5599 net.cpp:165] Memory required for data: 6256599612
I0914 21:59:18.449237  5599 layer_factory.hpp:77] Creating layer LFCN_2_7x7
I0914 21:59:18.449254  5599 net.cpp:100] Creating Layer LFCN_2_7x7
I0914 21:59:18.449259  5599 net.cpp:434] LFCN_2_7x7 <- conv5_3_relu5_3_0_split_1
I0914 21:59:18.449265  5599 net.cpp:408] LFCN_2_7x7 -> LFCN_2_7x7
I0914 21:59:18.456362  5599 net.cpp:150] Setting up LFCN_2_7x7
I0914 21:59:18.456375  5599 net.cpp:157] Top shape: 4 9 48 48 (82944)
I0914 21:59:18.456379  5599 net.cpp:165] Memory required for data: 6256931388
I0914 21:59:18.456385  5599 layer_factory.hpp:77] Creating layer LFCN_2_7x7_LFCN_2_7x7_0_split
I0914 21:59:18.456393  5599 net.cpp:100] Creating Layer LFCN_2_7x7_LFCN_2_7x7_0_split
I0914 21:59:18.456398  5599 net.cpp:434] LFCN_2_7x7_LFCN_2_7x7_0_split <- LFCN_2_7x7
I0914 21:59:18.456403  5599 net.cpp:408] LFCN_2_7x7_LFCN_2_7x7_0_split -> LFCN_2_7x7_LFCN_2_7x7_0_split_0
I0914 21:59:18.456409  5599 net.cpp:408] LFCN_2_7x7_LFCN_2_7x7_0_split -> LFCN_2_7x7_LFCN_2_7x7_0_split_1
I0914 21:59:18.456444  5599 net.cpp:150] Setting up LFCN_2_7x7_LFCN_2_7x7_0_split
I0914 21:59:18.456451  5599 net.cpp:157] Top shape: 4 9 48 48 (82944)
I0914 21:59:18.456455  5599 net.cpp:157] Top shape: 4 9 48 48 (82944)
I0914 21:59:18.456459  5599 net.cpp:165] Memory required for data: 6257594940
I0914 21:59:18.456461  5599 layer_factory.hpp:77] Creating layer detection_loss_2_7x7
I0914 21:59:18.456467  5599 net.cpp:100] Creating Layer detection_loss_2_7x7
I0914 21:59:18.456471  5599 net.cpp:434] detection_loss_2_7x7 <- LFCN_2_7x7_LFCN_2_7x7_0_split_0
I0914 21:59:18.456476  5599 net.cpp:434] detection_loss_2_7x7 <- label_2_7x7_data_4_split_0
I0914 21:59:18.456485  5599 net.cpp:408] detection_loss_2_7x7 -> loss_2_7x7
I0914 21:59:18.456492  5599 layer_factory.hpp:77] Creating layer detection_loss_2_7x7
I0914 21:59:18.457252  5599 net.cpp:150] Setting up detection_loss_2_7x7
I0914 21:59:18.457267  5599 net.cpp:157] Top shape: 1 1 1 2 (2)
I0914 21:59:18.457270  5599 net.cpp:160]     with loss weight 1
I0914 21:59:18.457285  5599 net.cpp:165] Memory required for data: 6257594948
I0914 21:59:18.457289  5599 layer_factory.hpp:77] Creating layer detection_accuracy_2_7x7
I0914 21:59:18.457299  5599 net.cpp:100] Creating Layer detection_accuracy_2_7x7
I0914 21:59:18.457304  5599 net.cpp:434] detection_accuracy_2_7x7 <- LFCN_2_7x7_LFCN_2_7x7_0_split_1
I0914 21:59:18.457310  5599 net.cpp:434] detection_accuracy_2_7x7 <- label_2_7x7_data_4_split_1
I0914 21:59:18.457315  5599 net.cpp:408] detection_accuracy_2_7x7 -> accuracy_2_7x7
I0914 21:59:18.457324  5599 net.cpp:408] detection_accuracy_2_7x7 -> boxiou_2_7x7
I0914 21:59:18.457365  5599 net.cpp:150] Setting up detection_accuracy_2_7x7
I0914 21:59:18.457371  5599 net.cpp:157] Top shape: 1 1 1 2 (2)
I0914 21:59:18.457376  5599 net.cpp:157] Top shape: 1 1 1 1 (1)
I0914 21:59:18.457378  5599 net.cpp:165] Memory required for data: 6257594960
I0914 21:59:18.457381  5599 layer_factory.hpp:77] Creating layer pool5
I0914 21:59:18.457391  5599 net.cpp:100] Creating Layer pool5
I0914 21:59:18.457396  5599 net.cpp:434] pool5 <- conv5_3_relu5_3_0_split_2
I0914 21:59:18.457401  5599 net.cpp:408] pool5 -> pool5
I0914 21:59:18.457440  5599 net.cpp:150] Setting up pool5
I0914 21:59:18.457445  5599 net.cpp:157] Top shape: 4 512 24 24 (1179648)
I0914 21:59:18.457448  5599 net.cpp:165] Memory required for data: 6262313552
I0914 21:59:18.457453  5599 layer_factory.hpp:77] Creating layer conv6_1
I0914 21:59:18.457468  5599 net.cpp:100] Creating Layer conv6_1
I0914 21:59:18.457473  5599 net.cpp:434] conv6_1 <- pool5
I0914 21:59:18.457478  5599 net.cpp:408] conv6_1 -> conv6_1
I0914 21:59:18.522742  5599 net.cpp:150] Setting up conv6_1
I0914 21:59:18.522781  5599 net.cpp:157] Top shape: 4 512 24 24 (1179648)
I0914 21:59:18.522785  5599 net.cpp:165] Memory required for data: 6267032144
I0914 21:59:18.522797  5599 layer_factory.hpp:77] Creating layer relu6_1
I0914 21:59:18.522814  5599 net.cpp:100] Creating Layer relu6_1
I0914 21:59:18.522824  5599 net.cpp:434] relu6_1 <- conv6_1
I0914 21:59:18.522833  5599 net.cpp:395] relu6_1 -> conv6_1 (in-place)
I0914 21:59:18.523021  5599 net.cpp:150] Setting up relu6_1
I0914 21:59:18.523032  5599 net.cpp:157] Top shape: 4 512 24 24 (1179648)
I0914 21:59:18.523036  5599 net.cpp:165] Memory required for data: 6271750736
I0914 21:59:18.523038  5599 layer_factory.hpp:77] Creating layer conv6_1_relu6_1_0_split
I0914 21:59:18.523048  5599 net.cpp:100] Creating Layer conv6_1_relu6_1_0_split
I0914 21:59:18.523052  5599 net.cpp:434] conv6_1_relu6_1_0_split <- conv6_1
I0914 21:59:18.523059  5599 net.cpp:408] conv6_1_relu6_1_0_split -> conv6_1_relu6_1_0_split_0
I0914 21:59:18.523067  5599 net.cpp:408] conv6_1_relu6_1_0_split -> conv6_1_relu6_1_0_split_1
I0914 21:59:18.523074  5599 net.cpp:408] conv6_1_relu6_1_0_split -> conv6_1_relu6_1_0_split_2
I0914 21:59:18.523134  5599 net.cpp:150] Setting up conv6_1_relu6_1_0_split
I0914 21:59:18.523142  5599 net.cpp:157] Top shape: 4 512 24 24 (1179648)
I0914 21:59:18.523146  5599 net.cpp:157] Top shape: 4 512 24 24 (1179648)
I0914 21:59:18.523150  5599 net.cpp:157] Top shape: 4 512 24 24 (1179648)
I0914 21:59:18.523154  5599 net.cpp:165] Memory required for data: 6285906512
I0914 21:59:18.523159  5599 layer_factory.hpp:77] Creating layer LFCN_3_5x5
I0914 21:59:18.523175  5599 net.cpp:100] Creating Layer LFCN_3_5x5
I0914 21:59:18.523182  5599 net.cpp:434] LFCN_3_5x5 <- conv6_1_relu6_1_0_split_0
I0914 21:59:18.523193  5599 net.cpp:408] LFCN_3_5x5 -> LFCN_3_5x5
I0914 21:59:18.529014  5599 net.cpp:150] Setting up LFCN_3_5x5
I0914 21:59:18.529044  5599 net.cpp:157] Top shape: 4 9 24 24 (20736)
I0914 21:59:18.529048  5599 net.cpp:165] Memory required for data: 6285989456
I0914 21:59:18.529058  5599 layer_factory.hpp:77] Creating layer LFCN_3_5x5_LFCN_3_5x5_0_split
I0914 21:59:18.529070  5599 net.cpp:100] Creating Layer LFCN_3_5x5_LFCN_3_5x5_0_split
I0914 21:59:18.529076  5599 net.cpp:434] LFCN_3_5x5_LFCN_3_5x5_0_split <- LFCN_3_5x5
I0914 21:59:18.529083  5599 net.cpp:408] LFCN_3_5x5_LFCN_3_5x5_0_split -> LFCN_3_5x5_LFCN_3_5x5_0_split_0
I0914 21:59:18.529091  5599 net.cpp:408] LFCN_3_5x5_LFCN_3_5x5_0_split -> LFCN_3_5x5_LFCN_3_5x5_0_split_1
I0914 21:59:18.529140  5599 net.cpp:150] Setting up LFCN_3_5x5_LFCN_3_5x5_0_split
I0914 21:59:18.529150  5599 net.cpp:157] Top shape: 4 9 24 24 (20736)
I0914 21:59:18.529155  5599 net.cpp:157] Top shape: 4 9 24 24 (20736)
I0914 21:59:18.529160  5599 net.cpp:165] Memory required for data: 6286155344
I0914 21:59:18.529163  5599 layer_factory.hpp:77] Creating layer detection_loss_3_5x5
I0914 21:59:18.529173  5599 net.cpp:100] Creating Layer detection_loss_3_5x5
I0914 21:59:18.529178  5599 net.cpp:434] detection_loss_3_5x5 <- LFCN_3_5x5_LFCN_3_5x5_0_split_0
I0914 21:59:18.529184  5599 net.cpp:434] detection_loss_3_5x5 <- label_3_5x5_data_5_split_0
I0914 21:59:18.529192  5599 net.cpp:408] detection_loss_3_5x5 -> loss_3_5x5
I0914 21:59:18.529204  5599 layer_factory.hpp:77] Creating layer detection_loss_3_5x5
I0914 21:59:18.529639  5599 net.cpp:150] Setting up detection_loss_3_5x5
I0914 21:59:18.529656  5599 net.cpp:157] Top shape: 1 1 1 2 (2)
I0914 21:59:18.529660  5599 net.cpp:160]     with loss weight 1
I0914 21:59:18.529675  5599 net.cpp:165] Memory required for data: 6286155352
I0914 21:59:18.529681  5599 layer_factory.hpp:77] Creating layer detection_accuracy_3_5x5
I0914 21:59:18.529691  5599 net.cpp:100] Creating Layer detection_accuracy_3_5x5
I0914 21:59:18.529696  5599 net.cpp:434] detection_accuracy_3_5x5 <- LFCN_3_5x5_LFCN_3_5x5_0_split_1
I0914 21:59:18.529703  5599 net.cpp:434] detection_accuracy_3_5x5 <- label_3_5x5_data_5_split_1
I0914 21:59:18.529711  5599 net.cpp:408] detection_accuracy_3_5x5 -> accuracy_3_5x5
I0914 21:59:18.529721  5599 net.cpp:408] detection_accuracy_3_5x5 -> boxiou_3_5x5
I0914 21:59:18.529775  5599 net.cpp:150] Setting up detection_accuracy_3_5x5
I0914 21:59:18.529786  5599 net.cpp:157] Top shape: 1 1 1 2 (2)
I0914 21:59:18.529793  5599 net.cpp:157] Top shape: 1 1 1 1 (1)
I0914 21:59:18.529796  5599 net.cpp:165] Memory required for data: 6286155364
I0914 21:59:18.529800  5599 layer_factory.hpp:77] Creating layer LFCN_3_7x7
I0914 21:59:18.529815  5599 net.cpp:100] Creating Layer LFCN_3_7x7
I0914 21:59:18.529822  5599 net.cpp:434] LFCN_3_7x7 <- conv6_1_relu6_1_0_split_1
I0914 21:59:18.529830  5599 net.cpp:408] LFCN_3_7x7 -> LFCN_3_7x7
I0914 21:59:18.537844  5599 net.cpp:150] Setting up LFCN_3_7x7
I0914 21:59:18.537869  5599 net.cpp:157] Top shape: 4 9 24 24 (20736)
I0914 21:59:18.537873  5599 net.cpp:165] Memory required for data: 6286238308
I0914 21:59:18.537880  5599 layer_factory.hpp:77] Creating layer LFCN_3_7x7_LFCN_3_7x7_0_split
I0914 21:59:18.537890  5599 net.cpp:100] Creating Layer LFCN_3_7x7_LFCN_3_7x7_0_split
I0914 21:59:18.537895  5599 net.cpp:434] LFCN_3_7x7_LFCN_3_7x7_0_split <- LFCN_3_7x7
I0914 21:59:18.537902  5599 net.cpp:408] LFCN_3_7x7_LFCN_3_7x7_0_split -> LFCN_3_7x7_LFCN_3_7x7_0_split_0
I0914 21:59:18.537909  5599 net.cpp:408] LFCN_3_7x7_LFCN_3_7x7_0_split -> LFCN_3_7x7_LFCN_3_7x7_0_split_1
I0914 21:59:18.537942  5599 net.cpp:150] Setting up LFCN_3_7x7_LFCN_3_7x7_0_split
I0914 21:59:18.537947  5599 net.cpp:157] Top shape: 4 9 24 24 (20736)
I0914 21:59:18.537951  5599 net.cpp:157] Top shape: 4 9 24 24 (20736)
I0914 21:59:18.537953  5599 net.cpp:165] Memory required for data: 6286404196
I0914 21:59:18.537957  5599 layer_factory.hpp:77] Creating layer detection_loss_3_7x7
I0914 21:59:18.537964  5599 net.cpp:100] Creating Layer detection_loss_3_7x7
I0914 21:59:18.537968  5599 net.cpp:434] detection_loss_3_7x7 <- LFCN_3_7x7_LFCN_3_7x7_0_split_0
I0914 21:59:18.537973  5599 net.cpp:434] detection_loss_3_7x7 <- label_3_7x7_data_6_split_0
I0914 21:59:18.537979  5599 net.cpp:408] detection_loss_3_7x7 -> loss_3_7x7
I0914 21:59:18.537988  5599 layer_factory.hpp:77] Creating layer detection_loss_3_7x7
I0914 21:59:18.538341  5599 net.cpp:150] Setting up detection_loss_3_7x7
I0914 21:59:18.538353  5599 net.cpp:157] Top shape: 1 1 1 2 (2)
I0914 21:59:18.538357  5599 net.cpp:160]     with loss weight 1
I0914 21:59:18.538367  5599 net.cpp:165] Memory required for data: 6286404204
I0914 21:59:18.538370  5599 layer_factory.hpp:77] Creating layer detection_accuracy_3_7x7
I0914 21:59:18.538375  5599 net.cpp:100] Creating Layer detection_accuracy_3_7x7
I0914 21:59:18.538379  5599 net.cpp:434] detection_accuracy_3_7x7 <- LFCN_3_7x7_LFCN_3_7x7_0_split_1
I0914 21:59:18.538384  5599 net.cpp:434] detection_accuracy_3_7x7 <- label_3_7x7_data_6_split_1
I0914 21:59:18.538390  5599 net.cpp:408] detection_accuracy_3_7x7 -> accuracy_3_7x7
I0914 21:59:18.538398  5599 net.cpp:408] detection_accuracy_3_7x7 -> boxiou_3_7x7
I0914 21:59:18.538434  5599 net.cpp:150] Setting up detection_accuracy_3_7x7
I0914 21:59:18.538440  5599 net.cpp:157] Top shape: 1 1 1 2 (2)
I0914 21:59:18.538444  5599 net.cpp:157] Top shape: 1 1 1 1 (1)
I0914 21:59:18.538447  5599 net.cpp:165] Memory required for data: 6286404216
I0914 21:59:18.538450  5599 layer_factory.hpp:77] Creating layer pool6
I0914 21:59:18.538458  5599 net.cpp:100] Creating Layer pool6
I0914 21:59:18.538462  5599 net.cpp:434] pool6 <- conv6_1_relu6_1_0_split_2
I0914 21:59:18.538470  5599 net.cpp:408] pool6 -> pool6
I0914 21:59:18.538502  5599 net.cpp:150] Setting up pool6
I0914 21:59:18.538509  5599 net.cpp:157] Top shape: 4 512 12 12 (294912)
I0914 21:59:18.538512  5599 net.cpp:165] Memory required for data: 6287583864
I0914 21:59:18.538516  5599 layer_factory.hpp:77] Creating layer LFCN_4_5x5
I0914 21:59:18.538524  5599 net.cpp:100] Creating Layer LFCN_4_5x5
I0914 21:59:18.538528  5599 net.cpp:434] LFCN_4_5x5 <- pool6
I0914 21:59:18.538534  5599 net.cpp:408] LFCN_4_5x5 -> LFCN_4_5x5
I0914 21:59:18.543274  5599 net.cpp:150] Setting up LFCN_4_5x5
I0914 21:59:18.543310  5599 net.cpp:157] Top shape: 4 9 12 12 (5184)
I0914 21:59:18.543315  5599 net.cpp:165] Memory required for data: 6287604600
I0914 21:59:18.543325  5599 layer_factory.hpp:77] Creating layer LFCN_4_5x5_LFCN_4_5x5_0_split
I0914 21:59:18.543340  5599 net.cpp:100] Creating Layer LFCN_4_5x5_LFCN_4_5x5_0_split
I0914 21:59:18.543354  5599 net.cpp:434] LFCN_4_5x5_LFCN_4_5x5_0_split <- LFCN_4_5x5
I0914 21:59:18.543380  5599 net.cpp:408] LFCN_4_5x5_LFCN_4_5x5_0_split -> LFCN_4_5x5_LFCN_4_5x5_0_split_0
I0914 21:59:18.543408  5599 net.cpp:408] LFCN_4_5x5_LFCN_4_5x5_0_split -> LFCN_4_5x5_LFCN_4_5x5_0_split_1
I0914 21:59:18.543783  5599 net.cpp:150] Setting up LFCN_4_5x5_LFCN_4_5x5_0_split
I0914 21:59:18.543887  5599 net.cpp:157] Top shape: 4 9 12 12 (5184)
I0914 21:59:18.543915  5599 net.cpp:157] Top shape: 4 9 12 12 (5184)
I0914 21:59:18.543921  5599 net.cpp:165] Memory required for data: 6287646072
I0914 21:59:18.543933  5599 layer_factory.hpp:77] Creating layer detection_loss_4_5x5
I0914 21:59:18.543982  5599 net.cpp:100] Creating Layer detection_loss_4_5x5
I0914 21:59:18.544003  5599 net.cpp:434] detection_loss_4_5x5 <- LFCN_4_5x5_LFCN_4_5x5_0_split_0
I0914 21:59:18.544021  5599 net.cpp:434] detection_loss_4_5x5 <- label_4_5x5_data_7_split_0
I0914 21:59:18.544040  5599 net.cpp:408] detection_loss_4_5x5 -> loss_4_5x5
I0914 21:59:18.544080  5599 layer_factory.hpp:77] Creating layer detection_loss_4_5x5
I0914 21:59:18.545231  5599 net.cpp:150] Setting up detection_loss_4_5x5
I0914 21:59:18.545262  5599 net.cpp:157] Top shape: 1 1 1 2 (2)
I0914 21:59:18.545267  5599 net.cpp:160]     with loss weight 1
I0914 21:59:18.545282  5599 net.cpp:165] Memory required for data: 6287646080
I0914 21:59:18.545289  5599 layer_factory.hpp:77] Creating layer detection_accuracy_4_5x5
I0914 21:59:18.545302  5599 net.cpp:100] Creating Layer detection_accuracy_4_5x5
I0914 21:59:18.545311  5599 net.cpp:434] detection_accuracy_4_5x5 <- LFCN_4_5x5_LFCN_4_5x5_0_split_1
I0914 21:59:18.545320  5599 net.cpp:434] detection_accuracy_4_5x5 <- label_4_5x5_data_7_split_1
I0914 21:59:18.545332  5599 net.cpp:408] detection_accuracy_4_5x5 -> accuracy_4_5x5
I0914 21:59:18.545346  5599 net.cpp:408] detection_accuracy_4_5x5 -> boxiou_4_5x5
I0914 21:59:18.545393  5599 net.cpp:150] Setting up detection_accuracy_4_5x5
I0914 21:59:18.545401  5599 net.cpp:157] Top shape: 1 1 1 2 (2)
I0914 21:59:18.545408  5599 net.cpp:157] Top shape: 1 1 1 1 (1)
I0914 21:59:18.545411  5599 net.cpp:165] Memory required for data: 6287646092
I0914 21:59:18.545416  5599 net.cpp:228] detection_accuracy_4_5x5 does not need backward computation.
I0914 21:59:18.545421  5599 net.cpp:226] detection_loss_4_5x5 needs backward computation.
I0914 21:59:18.545426  5599 net.cpp:226] LFCN_4_5x5_LFCN_4_5x5_0_split needs backward computation.
I0914 21:59:18.545433  5599 net.cpp:226] LFCN_4_5x5 needs backward computation.
…
I0914 21:59:18.558230  5599 image_gt_data_layer.cpp:235] output label size 1 : 2,6,96,96
I0914 21:59:18.558281  5599 image_gt_data_layer.cpp:235] output label size 2 : 2,6,48,48
I0914 21:59:18.558334  5599 image_gt_data_layer.cpp:235] output label size 3 : 2,6,48,48
I0914 21:59:18.558387  5599 image_gt_data_layer.cpp:235] output label size 4 : 2,6,24,24
I0914 21:59:18.558439  5599 image_gt_data_layer.cpp:235] output label size 5 : 2,6,24,24
I0914 21:59:18.558490  5599 image_gt_data_layer.cpp:235] output label size 6 : 2,6,12,12
I0914 21:59:18.597285  5599 net.cpp:150] Setting up data
I0914 21:59:18.597326  5599 net.cpp:157] Top shape: 2 4 768 768 (4718592)
I0914 21:59:18.597332  5599 net.cpp:157] Top shape: 2 6 96 96 (110592)
I0914 21:59:18.597337  5599 net.cpp:157] Top shape: 2 6 96 96 (110592)
I0914 21:59:18.597344  5599 net.cpp:157] Top shape: 2 6 48 48 (27648)
I0914 21:59:18.597349  5599 net.cpp:157] Top shape: 2 6 48 48 (27648)
I0914 21:59:18.597354  5599 net.cpp:157] Top shape: 2 6 24 24 (6912)
I0914 21:59:18.597358  5599 net.cpp:157] Top shape: 2 6 24 24 (6912)
I0914 21:59:18.597363  5599 net.cpp:157] Top shape: 2 6 12 12 (1728)
I0914 21:59:18.597368  5599 net.cpp:165] Memory required for data: 20042496
I0914 21:59:18.597374  5599 layer_factory.hpp:77] Creating layer label_1_5x5_data_1_split
I0914 21:59:18.597393  5599 net.cpp:100] Creating Layer label_1_5x5_data_1_split
I0914 21:59:18.597398  5599 net.cpp:434] label_1_5x5_data_1_split <- label_1_5x5
I0914 21:59:18.597405  5599 net.cpp:408] label_1_5x5_data_1_split -> label_1_5x5_data_1_split_0
I0914 21:59:18.597416  5599 net.cpp:408] label_1_5x5_data_1_split -> label_1_5x5_data_1_split_1
I0914 21:59:18.597672  5599 net.cpp:150] Setting up label_1_5x5_data_1_split
I0914 21:59:18.597704  5599 net.cpp:157] Top shape: 2 6 96 96 (110592)
I0914 21:59:18.597710  5599 net.cpp:157] Top shape: 2 6 96 96 (110592)
I0914 21:59:18.597714  5599 net.cpp:165] Memory required for data: 20927232
I0914 21:59:18.597723  5599 layer_factory.hpp:77] Creating layer label_1_7x7_data_2_split
I0914 21:59:18.597738  5599 net.cpp:100] Creating Layer label_1_7x7_data_2_split
I0914 21:59:18.597748  5599 net.cpp:434] label_1_7x7_data_2_split <- label_1_7x7
I0914 21:59:18.597755  5599 net.cpp:408] label_1_7x7_data_2_split -> label_1_7x7_data_2_split_0
I0914 21:59:18.597766  5599 net.cpp:408] label_1_7x7_data_2_split -> label_1_7x7_data_2_split_1
I0914 21:59:18.597815  5599 net.cpp:150] Setting up label_1_7x7_data_2_split
I0914 21:59:18.597822  5599 net.cpp:157] Top shape: 2 6 96 96 (110592)
I0914 21:59:18.597827  5599 net.cpp:157] Top shape: 2 6 96 96 (110592)
I0914 21:59:18.597831  5599 net.cpp:165] Memory required for data: 21811968
I0914 21:59:18.597836  5599 layer_factory.hpp:77] Creating layer label_2_5x5_data_3_split
I0914 21:59:18.597841  5599 net.cpp:100] Creating Layer label_2_5x5_data_3_split
I0914 21:59:18.597846  5599 net.cpp:434] label_2_5x5_data_3_split <- label_2_5x5
I0914 21:59:18.597851  5599 net.cpp:408] label_2_5x5_data_3_split -> label_2_5x5_data_3_split_0
I0914 21:59:18.597857  5599 net.cpp:408] label_2_5x5_data_3_split -> label_2_5x5_data_3_split_1
I0914 21:59:18.597899  5599 net.cpp:150] Setting up label_2_5x5_data_3_split
I0914 21:59:18.597908  5599 net.cpp:157] Top shape: 2 6 48 48 (27648)
I0914 21:59:18.597911  5599 net.cpp:157] Top shape: 2 6 48 48 (27648)
I0914 21:59:18.597915  5599 net.cpp:165] Memory required for data: 22033152
I0914 21:59:18.597919  5599 layer_factory.hpp:77] Creating layer label_2_7x7_data_4_split
I0914 21:59:18.597925  5599 net.cpp:100] Creating Layer label_2_7x7_data_4_split
I0914 21:59:18.597929  5599 net.cpp:434] label_2_7x7_data_4_split <- label_2_7x7
I0914 21:59:18.597936  5599 net.cpp:408] label_2_7x7_data_4_split -> label_2_7x7_data_4_split_0
I0914 21:59:18.597942  5599 net.cpp:408] label_2_7x7_data_4_split -> label_2_7x7_data_4_split_1
I0914 21:59:18.597982  5599 net.cpp:150] Setting up label_2_7x7_data_4_split
I0914 21:59:18.597990  5599 net.cpp:157] Top shape: 2 6 48 48 (27648)
I0914 21:59:18.597995  5599 net.cpp:157] Top shape: 2 6 48 48 (27648)
I0914 21:59:18.597998  5599 net.cpp:165] Memory required for data: 22254336
I0914 21:59:18.598002  5599 layer_factory.hpp:77] Creating layer label_3_5x5_data_5_split
I0914 21:59:18.598009  5599 net.cpp:100] Creating Layer label_3_5x5_data_5_split
I0914 21:59:18.598013  5599 net.cpp:434] label_3_5x5_data_5_split <- label_3_5x5
I0914 21:59:18.598021  5599 net.cpp:408] label_3_5x5_data_5_split -> label_3_5x5_data_5_split_0
I0914 21:59:18.598038  5599 net.cpp:408] label_3_5x5_data_5_split -> label_3_5x5_data_5_split_1
I0914 21:59:18.598083  5599 net.cpp:150] Setting up label_3_5x5_data_5_split
I0914 21:59:18.598089  5599 net.cpp:157] Top shape: 2 6 24 24 (6912)
I0914 21:59:18.598094  5599 net.cpp:157] Top shape: 2 6 24 24 (6912)
I0914 21:59:18.598098  5599 net.cpp:165] Memory required for data: 22309632
I0914 21:59:18.598103  5599 layer_factory.hpp:77] Creating layer label_3_7x7_data_6_split
I0914 21:59:18.598107  5599 net.cpp:100] Creating Layer label_3_7x7_data_6_split
I0914 21:59:18.598111  5599 net.cpp:434] label_3_7x7_data_6_split <- label_3_7x7
I0914 21:59:18.598116  5599 net.cpp:408] label_3_7x7_data_6_split -> label_3_7x7_data_6_split_0
I0914 21:59:18.598124  5599 net.cpp:408] label_3_7x7_data_6_split -> label_3_7x7_data_6_split_1
I0914 21:59:18.598162  5599 net.cpp:150] Setting up label_3_7x7_data_6_split
I0914 21:59:18.598170  5599 net.cpp:157] Top shape: 2 6 24 24 (6912)
I0914 21:59:18.598176  5599 net.cpp:157] Top shape: 2 6 24 24 (6912)
I0914 21:59:18.598178  5599 net.cpp:165] Memory required for data: 22364928
I0914 21:59:18.598182  5599 layer_factory.hpp:77] Creating layer label_4_5x5_data_7_split
I0914 21:59:18.598188  5599 net.cpp:100] Creating Layer label_4_5x5_data_7_split
I0914 21:59:18.598192  5599 net.cpp:434] label_4_5x5_data_7_split <- label_4_5x5
I0914 21:59:18.598197  5599 net.cpp:408] label_4_5x5_data_7_split -> label_4_5x5_data_7_split_0
I0914 21:59:18.598203  5599 net.cpp:408] label_4_5x5_data_7_split -> label_4_5x5_data_7_split_1
I0914 21:59:18.598242  5599 net.cpp:150] Setting up label_4_5x5_data_7_split
I0914 21:59:18.598248  5599 net.cpp:157] Top shape: 2 6 12 12 (1728)
I0914 21:59:18.598251  5599 net.cpp:157] Top shape: 2 6 12 12 (1728)
I0914 21:59:18.598254  5599 net.cpp:165] Memory required for data: 22378752
I0914 21:59:18.598258  5599 layer_factory.hpp:77] Creating layer slice
I0914 21:59:18.598265  5599 net.cpp:100] Creating Layer slice
I0914 21:59:18.598268  5599 net.cpp:434] slice <- data
I0914 21:59:18.598273  5599 net.cpp:408] slice -> data123
I0914 21:59:18.598278  5599 net.cpp:408] slice -> ch4
I0914 21:59:18.598312  5599 net.cpp:150] Setting up slice
I0914 21:59:18.598318  5599 net.cpp:157] Top shape: 2 3 768 768 (3538944)
I0914 21:59:18.598322  5599 net.cpp:157] Top shape: 2 1 768 768 (1179648)
I0914 21:59:18.598325  5599 net.cpp:165] Memory required for data: 41253120
I0914 21:59:18.598328  5599 layer_factory.hpp:77] Creating layer conv1_1
I0914 21:59:18.598336  5599 net.cpp:100] Creating Layer conv1_1
I0914 21:59:18.598340  5599 net.cpp:434] conv1_1 <- data123
I0914 21:59:18.598345  5599 net.cpp:408] conv1_1 -> conv1_1
E0914 21:59:18.607918  5623 image_gt_data_layer.cpp:371] Could not open or find file /media/b3-542/LIBRARY/moz/result/AllHaveLight/blob_jan30_xgt_train/000006.png
I0914 21:59:18.608925  5599 net.cpp:150] Setting up conv1_1
I0914 21:59:18.608964  5599 net.cpp:157] Top shape: 2 64 768 768 (75497472)
I0914 21:59:18.608974  5599 net.cpp:165] Memory required for data: 343243008
I0914 21:59:18.609006  5599 layer_factory.hpp:77] Creating layer relu1_1
I0914 21:59:18.609032  5599 net.cpp:100] Creating Layer relu1_1
I0914 21:59:18.609050  5599 net.cpp:434] relu1_1 <- conv1_1
I0914 21:59:18.609062  5599 net.cpp:395] relu1_1 -> conv1_1 (in-place)
I0914 21:59:18.613251  5599 net.cpp:150] Setting up relu1_1
I0914 21:59:18.613317  5599 net.cpp:157] Top shape: 2 64 768 768 (75497472)
I0914 21:59:18.613328  5599 net.cpp:165] Memory required for data: 645232896
I0914 21:59:18.613344  5599 layer_factory.hpp:77] Creating layer conv1_2
I0914 21:59:18.613379  5599 net.cpp:100] Creating Layer conv1_2
I0914 21:59:18.613411  5599 net.cpp:434] conv1_2 <- conv1_1
I0914 21:59:18.613433  5599 net.cpp:408] conv1_2 -> conv1_2
E0914 21:59:18.623528  5623 image_gt_data_layer.cpp:371] Could not open or find file /media/b3-542/LIBRARY/moz/result/AllHaveLight/blob_jan30_xgt_train/000006.png
I0914 21:59:18.624558  5599 net.cpp:150] Setting up conv1_2
I0914 21:59:18.624735  5599 net.cpp:157] Top shape: 2 64 768 768 (75497472)
I0914 21:59:18.624758  5599 net.cpp:165] Memory required for data: 947222784
I0914 21:59:18.624871  5599 layer_factory.hpp:77] Creating layer relu1_2
I0914 21:59:18.624954  5599 net.cpp:100] Creating Layer relu1_2
I0914 21:59:18.624999  5599 net.cpp:434] relu1_2 <- conv1_2
I0914 21:59:18.625035  5599 net.cpp:395] relu1_2 -> conv1_2 (in-place)
I0914 21:59:18.625995  5599 net.cpp:150] Setting up relu1_2
I0914 21:59:18.626086  5599 net.cpp:157] Top shape: 2 64 768 768 (75497472)
I0914 21:59:18.626104  5599 net.cpp:165] Memory required for data: 1249212672
I0914 21:59:18.626117  5599 layer_factory.hpp:77] Creating layer pool1
I0914 21:59:18.626139  5599 net.cpp:100] Creating Layer pool1
I0914 21:59:18.626155  5599 net.cpp:434] pool1 <- conv1_2
I0914 21:59:18.626183  5599 net.cpp:408] pool1 -> pool1
I0914 21:59:18.626351  5599 net.cpp:150] Setting up pool1
I0914 21:59:18.626372  5599 net.cpp:157] Top shape: 2 64 384 384 (18874368)
I0914 21:59:18.626384  5599 net.cpp:165] Memory required for data: 1324710144
I0914 21:59:18.626397  5599 layer_factory.hpp:77] Creating layer ch4_pool1
I0914 21:59:18.626417  5599 net.cpp:100] Creating Layer ch4_pool1
I0914 21:59:18.626430  5599 net.cpp:434] ch4_pool1 <- ch4
I0914 21:59:18.626447  5599 net.cpp:408] ch4_pool1 -> ch4_pool1
I0914 21:59:18.626572  5599 net.cpp:150] Setting up ch4_pool1
I0914 21:59:18.626595  5599 net.cpp:157] Top shape: 2 1 384 384 (294912)
I0914 21:59:18.626606  5599 net.cpp:165] Memory required for data: 1325889792
I0914 21:59:18.626618  5599 layer_factory.hpp:77] Creating layer ch4_pool1_ch4_pool1_0_split
I0914 21:59:18.626637  5599 net.cpp:100] Creating Layer ch4_pool1_ch4_pool1_0_split
I0914 21:59:18.626651  5599 net.cpp:434] ch4_pool1_ch4_pool1_0_split <- ch4_pool1
I0914 21:59:18.626669  5599 net.cpp:408] ch4_pool1_ch4_pool1_0_split -> ch4_pool1_ch4_pool1_0_split_0
I0914 21:59:18.626689  5599 net.cpp:408] ch4_pool1_ch4_pool1_0_split -> ch4_pool1_ch4_pool1_0_split_1
I0914 21:59:18.629619  5599 net.cpp:150] Setting up ch4_pool1_ch4_pool1_0_split
I0914 21:59:18.629660  5599 net.cpp:157] Top shape: 2 1 384 384 (294912)
I0914 21:59:18.629671  5599 net.cpp:157] Top shape: 2 1 384 384 (294912)
I0914 21:59:18.629679  5599 net.cpp:165] Memory required for data: 1328249088
I0914 21:59:18.629693  5599 layer_factory.hpp:77] Creating layer pool1_concat
I0914 21:59:18.629715  5599 net.cpp:100] Creating Layer pool1_concat
I0914 21:59:18.629726  5599 net.cpp:434] pool1_concat <- pool1
I0914 21:59:18.629740  5599 net.cpp:434] pool1_concat <- ch4_pool1_ch4_pool1_0_split_0
I0914 21:59:18.629755  5599 net.cpp:408] pool1_concat -> pool1_new
I0914 21:59:18.629815  5599 net.cpp:150] Setting up pool1_concat
I0914 21:59:18.629830  5599 net.cpp:157] Top shape: 2 65 384 384 (19169280)
I0914 21:59:18.629839  5599 net.cpp:165] Memory required for data: 1404926208
I0914 21:59:18.629846  5599 layer_factory.hpp:77] Creating layer conv2_1_new
I0914 21:59:18.629863  5599 net.cpp:100] Creating Layer conv2_1_new
I0914 21:59:18.629873  5599 net.cpp:434] conv2_1_new <- pool1_new
I0914 21:59:18.629885  5599 net.cpp:408] conv2_1_new -> conv2_1
E0914 21:59:18.634716  5623 image_gt_data_layer.cpp:371] Could not open or find file /media/b3-542/LIBRARY/moz/result/AllHaveLight/blob_jan30_xgt_train/000006.png
I0914 21:59:18.635385  5599 net.cpp:150] Setting up conv2_1_new
I0914 21:59:18.635416  5599 net.cpp:157] Top shape: 2 128 384 384 (37748736)
I0914 21:59:18.635426  5599 net.cpp:165] Memory required for data: 1555921152
I0914 21:59:18.635449  5599 layer_factory.hpp:77] Creating layer relu2_1
I0914 21:59:18.635471  5599 net.cpp:100] Creating Layer relu2_1
I0914 21:59:18.635483  5599 net.cpp:434] relu2_1 <- conv2_1
I0914 21:59:18.635496  5599 net.cpp:395] relu2_1 -> conv2_1 (in-place)
I0914 21:59:18.635915  5599 net.cpp:150] Setting up relu2_1
I0914 21:59:18.635933  5599 net.cpp:157] Top shape: 2 128 384 384 (37748736)
I0914 21:59:18.635942  5599 net.cpp:165] Memory required for data: 1706916096
I0914 21:59:18.635951  5599 layer_factory.hpp:77] Creating layer conv2_2
I0914 21:59:18.635972  5599 net.cpp:100] Creating Layer conv2_2
I0914 21:59:18.635982  5599 net.cpp:434] conv2_2 <- conv2_1
I0914 21:59:18.635996  5599 net.cpp:408] conv2_2 -> conv2_2
I0914 21:59:18.640691  5599 net.cpp:150] Setting up conv2_2
I0914 21:59:18.640720  5599 net.cpp:157] Top shape: 2 128 384 384 (37748736)
I0914 21:59:18.640729  5599 net.cpp:165] Memory required for data: 1857911040
I0914 21:59:18.640743  5599 layer_factory.hpp:77] Creating layer relu2_2
I0914 21:59:18.640758  5599 net.cpp:100] Creating Layer relu2_2
I0914 21:59:18.640767  5599 net.cpp:434] relu2_2 <- conv2_2
I0914 21:59:18.640777  5599 net.cpp:395] relu2_2 -> conv2_2 (in-place)
I0914 21:59:18.641165  5599 net.cpp:150] Setting up relu2_2
I0914 21:59:18.641183  5599 net.cpp:157] Top shape: 2 128 384 384 (37748736)
I0914 21:59:18.641191  5599 net.cpp:165] Memory required for data: 2008905984
I0914 21:59:18.641199  5599 layer_factory.hpp:77] Creating layer pool2
I0914 21:59:18.641216  5599 net.cpp:100] Creating Layer pool2
I0914 21:59:18.641227  5599 net.cpp:434] pool2 <- conv2_2
I0914 21:59:18.641237  5599 net.cpp:408] pool2 -> pool2
I0914 21:59:18.641330  5599 net.cpp:150] Setting up pool2
I0914 21:59:18.641345  5599 net.cpp:157] Top shape: 2 128 192 192 (9437184)
I0914 21:59:18.641351  5599 net.cpp:165] Memory required for data: 2046654720
I0914 21:59:18.641360  5599 layer_factory.hpp:77] Creating layer ch4_pool2
I0914 21:59:18.641371  5599 net.cpp:100] Creating Layer ch4_pool2
I0914 21:59:18.641379  5599 net.cpp:434] ch4_pool2 <- ch4_pool1_ch4_pool1_0_split_1
I0914 21:59:18.641394  5599 net.cpp:408] ch4_pool2 -> ch4_pool2
I0914 21:59:18.641474  5599 net.cpp:150] Setting up ch4_pool2
I0914 21:59:18.641487  5599 net.cpp:157] Top shape: 2 1 192 192 (73728)
I0914 21:59:18.641494  5599 net.cpp:165] Memory required for data: 2046949632
I0914 21:59:18.641501  5599 layer_factory.hpp:77] Creating layer ch4_pool2_ch4_pool2_0_split
I0914 21:59:18.641515  5599 net.cpp:100] Creating Layer ch4_pool2_ch4_pool2_0_split
I0914 21:59:18.641525  5599 net.cpp:434] ch4_pool2_ch4_pool2_0_split <- ch4_pool2
I0914 21:59:18.641535  5599 net.cpp:408] ch4_pool2_ch4_pool2_0_split -> ch4_pool2_ch4_pool2_0_split_0
I0914 21:59:18.641551  5599 net.cpp:408] ch4_pool2_ch4_pool2_0_split -> ch4_pool2_ch4_pool2_0_split_1
I0914 21:59:18.641628  5599 net.cpp:150] Setting up ch4_pool2_ch4_pool2_0_split
I0914 21:59:18.641641  5599 net.cpp:157] Top shape: 2 1 192 192 (73728)
I0914 21:59:18.641651  5599 net.cpp:157] Top shape: 2 1 192 192 (73728)
I0914 21:59:18.641659  5599 net.cpp:165] Memory required for data: 2047539456
I0914 21:59:18.641667  5599 layer_factory.hpp:77] Creating layer pool2_concat
I0914 21:59:18.641681  5599 net.cpp:100] Creating Layer pool2_concat
I0914 21:59:18.641690  5599 net.cpp:434] pool2_concat <- pool2
I0914 21:59:18.641700  5599 net.cpp:434] pool2_concat <- ch4_pool2_ch4_pool2_0_split_0
I0914 21:59:18.641710  5599 net.cpp:408] pool2_concat -> pool2_new
I0914 21:59:18.641760  5599 net.cpp:150] Setting up pool2_concat
I0914 21:59:18.641773  5599 net.cpp:157] Top shape: 2 129 192 192 (9510912)
I0914 21:59:18.641780  5599 net.cpp:165] Memory required for data: 2085583104
I0914 21:59:18.641788  5599 layer_factory.hpp:77] Creating layer conv3_1_new
I0914 21:59:18.641805  5599 net.cpp:100] Creating Layer conv3_1_new
I0914 21:59:18.641814  5599 net.cpp:434] conv3_1_new <- pool2_new
I0914 21:59:18.641824  5599 net.cpp:408] conv3_1_new -> conv3_1
I0914 21:59:18.649163  5599 net.cpp:150] Setting up conv3_1_new
I0914 21:59:18.649212  5599 net.cpp:157] Top shape: 2 256 192 192 (18874368)
I0914 21:59:18.649222  5599 net.cpp:165] Memory required for data: 2161080576
I0914 21:59:18.649248  5599 layer_factory.hpp:77] Creating layer relu3_1
I0914 21:59:18.649266  5599 net.cpp:100] Creating Layer relu3_1
I0914 21:59:18.649277  5599 net.cpp:434] relu3_1 <- conv3_1
I0914 21:59:18.649289  5599 net.cpp:395] relu3_1 -> conv3_1 (in-place)
I0914 21:59:18.649716  5599 net.cpp:150] Setting up relu3_1
I0914 21:59:18.649740  5599 net.cpp:157] Top shape: 2 256 192 192 (18874368)
I0914 21:59:18.649749  5599 net.cpp:165] Memory required for data: 2236578048
I0914 21:59:18.649757  5599 layer_factory.hpp:77] Creating layer conv3_2
I0914 21:59:18.649778  5599 net.cpp:100] Creating Layer conv3_2
I0914 21:59:18.649788  5599 net.cpp:434] conv3_2 <- conv3_1
I0914 21:59:18.649801  5599 net.cpp:408] conv3_2 -> conv3_2
I0914 21:59:18.653278  5599 net.cpp:150] Setting up conv3_2
I0914 21:59:18.653295  5599 net.cpp:157] Top shape: 2 256 192 192 (18874368)
I0914 21:59:18.653300  5599 net.cpp:165] Memory required for data: 2312075520
I0914 21:59:18.653307  5599 layer_factory.hpp:77] Creating layer relu3_2
I0914 21:59:18.653316  5599 net.cpp:100] Creating Layer relu3_2
I0914 21:59:18.653321  5599 net.cpp:434] relu3_2 <- conv3_2
I0914 21:59:18.653326  5599 net.cpp:395] relu3_2 -> conv3_2 (in-place)
I0914 21:59:18.653528  5599 net.cpp:150] Setting up relu3_2
I0914 21:59:18.653538  5599 net.cpp:157] Top shape: 2 256 192 192 (18874368)
I0914 21:59:18.653542  5599 net.cpp:165] Memory required for data: 2387572992
I0914 21:59:18.653547  5599 layer_factory.hpp:77] Creating layer conv3_3
I0914 21:59:18.653555  5599 net.cpp:100] Creating Layer conv3_3
I0914 21:59:18.653559  5599 net.cpp:434] conv3_3 <- conv3_2
I0914 21:59:18.653566  5599 net.cpp:408] conv3_3 -> conv3_3
I0914 21:59:18.656549  5599 net.cpp:150] Setting up conv3_3
I0914 21:59:18.656569  5599 net.cpp:157] Top shape: 2 256 192 192 (18874368)
I0914 21:59:18.656574  5599 net.cpp:165] Memory required for data: 2463070464
I0914 21:59:18.656584  5599 layer_factory.hpp:77] Creating layer relu3_3
I0914 21:59:18.656594  5599 net.cpp:100] Creating Layer relu3_3
I0914 21:59:18.656599  5599 net.cpp:434] relu3_3 <- conv3_3
I0914 21:59:18.656605  5599 net.cpp:395] relu3_3 -> conv3_3 (in-place)
I0914 21:59:18.657162  5599 net.cpp:150] Setting up relu3_3
I0914 21:59:18.657177  5599 net.cpp:157] Top shape: 2 256 192 192 (18874368)
I0914 21:59:18.657181  5599 net.cpp:165] Memory required for data: 2538567936
I0914 21:59:18.657186  5599 layer_factory.hpp:77] Creating layer pool3
I0914 21:59:18.657194  5599 net.cpp:100] Creating Layer pool3
I0914 21:59:18.657198  5599 net.cpp:434] pool3 <- conv3_3
I0914 21:59:18.657207  5599 net.cpp:408] pool3 -> pool3
I0914 21:59:18.657256  5599 net.cpp:150] Setting up pool3
I0914 21:59:18.657264  5599 net.cpp:157] Top shape: 2 256 96 96 (4718592)
I0914 21:59:18.657268  5599 net.cpp:165] Memory required for data: 2557442304
I0914 21:59:18.657271  5599 layer_factory.hpp:77] Creating layer ch4_pool3
I0914 21:59:18.657284  5599 net.cpp:100] Creating Layer ch4_pool3
I0914 21:59:18.657289  5599 net.cpp:434] ch4_pool3 <- ch4_pool2_ch4_pool2_0_split_1
I0914 21:59:18.657294  5599 net.cpp:408] ch4_pool3 -> ch4_pool3
I0914 21:59:18.657337  5599 net.cpp:150] Setting up ch4_pool3
I0914 21:59:18.657344  5599 net.cpp:157] Top shape: 2 1 96 96 (18432)
I0914 21:59:18.657347  5599 net.cpp:165] Memory required for data: 2557516032
I0914 21:59:18.657351  5599 layer_factory.hpp:77] Creating layer pool3_concat
I0914 21:59:18.657357  5599 net.cpp:100] Creating Layer pool3_concat
I0914 21:59:18.657361  5599 net.cpp:434] pool3_concat <- pool3
I0914 21:59:18.657366  5599 net.cpp:434] pool3_concat <- ch4_pool3
I0914 21:59:18.657373  5599 net.cpp:408] pool3_concat -> pool3_new
I0914 21:59:18.657397  5599 net.cpp:150] Setting up pool3_concat
I0914 21:59:18.657407  5599 net.cpp:157] Top shape: 2 257 96 96 (4737024)
I0914 21:59:18.657409  5599 net.cpp:165] Memory required for data: 2576464128
I0914 21:59:18.657413  5599 layer_factory.hpp:77] Creating layer conv4_1_new
I0914 21:59:18.657420  5599 net.cpp:100] Creating Layer conv4_1_new
I0914 21:59:18.657424  5599 net.cpp:434] conv4_1_new <- pool3_new
I0914 21:59:18.657431  5599 net.cpp:408] conv4_1_new -> conv4_1
I0914 21:59:18.661520  5599 net.cpp:150] Setting up conv4_1_new
I0914 21:59:18.661550  5599 net.cpp:157] Top shape: 2 512 96 96 (9437184)
I0914 21:59:18.661556  5599 net.cpp:165] Memory required for data: 2614212864
I0914 21:59:18.661564  5599 layer_factory.hpp:77] Creating layer relu4_1
I0914 21:59:18.661578  5599 net.cpp:100] Creating Layer relu4_1
I0914 21:59:18.661584  5599 net.cpp:434] relu4_1 <- conv4_1
I0914 21:59:18.661590  5599 net.cpp:395] relu4_1 -> conv4_1 (in-place)
I0914 21:59:18.661784  5599 net.cpp:150] Setting up relu4_1
I0914 21:59:18.661793  5599 net.cpp:157] Top shape: 2 512 96 96 (9437184)
I0914 21:59:18.661797  5599 net.cpp:165] Memory required for data: 2651961600
I0914 21:59:18.661801  5599 layer_factory.hpp:77] Creating layer conv4_2
I0914 21:59:18.661813  5599 net.cpp:100] Creating Layer conv4_2
I0914 21:59:18.661818  5599 net.cpp:434] conv4_2 <- conv4_1
I0914 21:59:18.661826  5599 net.cpp:408] conv4_2 -> conv4_2
I0914 21:59:18.668337  5599 net.cpp:150] Setting up conv4_2
I0914 21:59:18.668367  5599 net.cpp:157] Top shape: 2 512 96 96 (9437184)
I0914 21:59:18.668371  5599 net.cpp:165] Memory required for data: 2689710336
I0914 21:59:18.668385  5599 layer_factory.hpp:77] Creating layer relu4_2
I0914 21:59:18.668397  5599 net.cpp:100] Creating Layer relu4_2
I0914 21:59:18.668403  5599 net.cpp:434] relu4_2 <- conv4_2
I0914 21:59:18.668411  5599 net.cpp:395] relu4_2 -> conv4_2 (in-place)
I0914 21:59:18.668588  5599 net.cpp:150] Setting up relu4_2
I0914 21:59:18.668597  5599 net.cpp:157] Top shape: 2 512 96 96 (9437184)
I0914 21:59:18.668601  5599 net.cpp:165] Memory required for data: 2727459072
I0914 21:59:18.668604  5599 layer_factory.hpp:77] Creating layer conv4_3
I0914 21:59:18.668614  5599 net.cpp:100] Creating Layer conv4_3
I0914 21:59:18.668617  5599 net.cpp:434] conv4_3 <- conv4_2
I0914 21:59:18.668622  5599 net.cpp:408] conv4_3 -> conv4_3
I0914 21:59:18.675209  5599 net.cpp:150] Setting up conv4_3
I0914 21:59:18.675259  5599 net.cpp:157] Top shape: 2 512 96 96 (9437184)
I0914 21:59:18.675264  5599 net.cpp:165] Memory required for data: 2765207808
I0914 21:59:18.675277  5599 layer_factory.hpp:77] Creating layer relu4_3
I0914 21:59:18.675298  5599 net.cpp:100] Creating Layer relu4_3
I0914 21:59:18.675307  5599 net.cpp:434] relu4_3 <- conv4_3
I0914 21:59:18.675315  5599 net.cpp:395] relu4_3 -> conv4_3 (in-place)
I0914 21:59:18.675524  5599 net.cpp:150] Setting up relu4_3
I0914 21:59:18.675536  5599 net.cpp:157] Top shape: 2 512 96 96 (9437184)
I0914 21:59:18.675539  5599 net.cpp:165] Memory required for data: 2802956544
I0914 21:59:18.675544  5599 layer_factory.hpp:77] Creating layer conv4_3_relu4_3_0_split
I0914 21:59:18.675550  5599 net.cpp:100] Creating Layer conv4_3_relu4_3_0_split
I0914 21:59:18.675554  5599 net.cpp:434] conv4_3_relu4_3_0_split <- conv4_3
I0914 21:59:18.675559  5599 net.cpp:408] conv4_3_relu4_3_0_split -> conv4_3_relu4_3_0_split_0
I0914 21:59:18.675566  5599 net.cpp:408] conv4_3_relu4_3_0_split -> conv4_3_relu4_3_0_split_1
I0914 21:59:18.675609  5599 net.cpp:150] Setting up conv4_3_relu4_3_0_split
I0914 21:59:18.675616  5599 net.cpp:157] Top shape: 2 512 96 96 (9437184)
I0914 21:59:18.675619  5599 net.cpp:157] Top shape: 2 512 96 96 (9437184)
I0914 21:59:18.675622  5599 net.cpp:165] Memory required for data: 2878454016
I0914 21:59:18.675626  5599 layer_factory.hpp:77] Creating layer loss1_conv1
I0914 21:59:18.675640  5599 net.cpp:100] Creating Layer loss1_conv1
I0914 21:59:18.675645  5599 net.cpp:434] loss1_conv1 <- conv4_3_relu4_3_0_split_0
I0914 21:59:18.675653  5599 net.cpp:408] loss1_conv1 -> loss1_conv1
I0914 21:59:18.741950  5599 net.cpp:150] Setting up loss1_conv1
I0914 21:59:18.741977  5599 net.cpp:157] Top shape: 2 512 96 96 (9437184)
I0914 21:59:18.741981  5599 net.cpp:165] Memory required for data: 2916202752
I0914 21:59:18.741989  5599 layer_factory.hpp:77] Creating layer loss_relu1
I0914 21:59:18.741998  5599 net.cpp:100] Creating Layer loss_relu1
I0914 21:59:18.742003  5599 net.cpp:434] loss_relu1 <- loss1_conv1
I0914 21:59:18.742009  5599 net.cpp:395] loss_relu1 -> loss1_conv1 (in-place)
I0914 21:59:18.742183  5599 net.cpp:150] Setting up loss_relu1
I0914 21:59:18.742195  5599 net.cpp:157] Top shape: 2 512 96 96 (9437184)
I0914 21:59:18.742199  5599 net.cpp:165] Memory required for data: 2953951488
I0914 21:59:18.742203  5599 layer_factory.hpp:77] Creating layer loss1_conv1_loss_relu1_0_split
I0914 21:59:18.742209  5599 net.cpp:100] Creating Layer loss1_conv1_loss_relu1_0_split
I0914 21:59:18.742213  5599 net.cpp:434] loss1_conv1_loss_relu1_0_split <- loss1_conv1
I0914 21:59:18.742218  5599 net.cpp:408] loss1_conv1_loss_relu1_0_split -> loss1_conv1_loss_relu1_0_split_0
I0914 21:59:18.742224  5599 net.cpp:408] loss1_conv1_loss_relu1_0_split -> loss1_conv1_loss_relu1_0_split_1
I0914 21:59:18.742264  5599 net.cpp:150] Setting up loss1_conv1_loss_relu1_0_split
I0914 21:59:18.742271  5599 net.cpp:157] Top shape: 2 512 96 96 (9437184)
I0914 21:59:18.742275  5599 net.cpp:157] Top shape: 2 512 96 96 (9437184)
I0914 21:59:18.742278  5599 net.cpp:165] Memory required for data: 3029448960
I0914 21:59:18.742281  5599 layer_factory.hpp:77] Creating layer LFCN_1_5x5
I0914 21:59:18.742292  5599 net.cpp:100] Creating Layer LFCN_1_5x5
I0914 21:59:18.742295  5599 net.cpp:434] LFCN_1_5x5 <- loss1_conv1_loss_relu1_0_split_0
I0914 21:59:18.742301  5599 net.cpp:408] LFCN_1_5x5 -> LFCN_1_5x5
I0914 21:59:18.747992  5599 net.cpp:150] Setting up LFCN_1_5x5
I0914 21:59:18.748008  5599 net.cpp:157] Top shape: 2 9 96 96 (165888)
I0914 21:59:18.748011  5599 net.cpp:165] Memory required for data: 3030112512
I0914 21:59:18.748016  5599 layer_factory.hpp:77] Creating layer LFCN_1_5x5_LFCN_1_5x5_0_split
I0914 21:59:18.748023  5599 net.cpp:100] Creating Layer LFCN_1_5x5_LFCN_1_5x5_0_split
I0914 21:59:18.748025  5599 net.cpp:434] LFCN_1_5x5_LFCN_1_5x5_0_split <- LFCN_1_5x5
I0914 21:59:18.748029  5599 net.cpp:408] LFCN_1_5x5_LFCN_1_5x5_0_split -> LFCN_1_5x5_LFCN_1_5x5_0_split_0
I0914 21:59:18.748034  5599 net.cpp:408] LFCN_1_5x5_LFCN_1_5x5_0_split -> LFCN_1_5x5_LFCN_1_5x5_0_split_1
I0914 21:59:18.748069  5599 net.cpp:150] Setting up LFCN_1_5x5_LFCN_1_5x5_0_split
I0914 21:59:18.748075  5599 net.cpp:157] Top shape: 2 9 96 96 (165888)
I0914 21:59:18.748077  5599 net.cpp:157] Top shape: 2 9 96 96 (165888)
I0914 21:59:18.748080  5599 net.cpp:165] Memory required for data: 3031439616
I0914 21:59:18.748083  5599 layer_factory.hpp:77] Creating layer detection_loss_1_5x5
I0914 21:59:18.748090  5599 net.cpp:100] Creating Layer detection_loss_1_5x5
I0914 21:59:18.748093  5599 net.cpp:434] detection_loss_1_5x5 <- LFCN_1_5x5_LFCN_1_5x5_0_split_0
I0914 21:59:18.748097  5599 net.cpp:434] detection_loss_1_5x5 <- label_1_5x5_data_1_split_0
I0914 21:59:18.748101  5599 net.cpp:408] detection_loss_1_5x5 -> loss_1_5x5
I0914 21:59:18.748108  5599 layer_factory.hpp:77] Creating layer detection_loss_1_5x5
I0914 21:59:18.748484  5599 net.cpp:150] Setting up detection_loss_1_5x5
I0914 21:59:18.748494  5599 net.cpp:157] Top shape: 1 1 1 2 (2)
I0914 21:59:18.748497  5599 net.cpp:160]     with loss weight 0.9
I0914 21:59:18.748508  5599 net.cpp:165] Memory required for data: 3031439624
I0914 21:59:18.748512  5599 layer_factory.hpp:77] Creating layer detection_accuracy_1_5x5
I0914 21:59:18.748518  5599 net.cpp:100] Creating Layer detection_accuracy_1_5x5
I0914 21:59:18.748522  5599 net.cpp:434] detection_accuracy_1_5x5 <- LFCN_1_5x5_LFCN_1_5x5_0_split_1
I0914 21:59:18.748526  5599 net.cpp:434] detection_accuracy_1_5x5 <- label_1_5x5_data_1_split_1
I0914 21:59:18.748533  5599 net.cpp:408] detection_accuracy_1_5x5 -> accuracy_1_5x5
I0914 21:59:18.748538  5599 net.cpp:408] detection_accuracy_1_5x5 -> boxiou_1_5x5
I0914 21:59:18.748575  5599 net.cpp:150] Setting up detection_accuracy_1_5x5
I0914 21:59:18.748582  5599 net.cpp:157] Top shape: 1 1 1 2 (2)
I0914 21:59:18.748586  5599 net.cpp:157] Top shape: 1 1 1 1 (1)
I0914 21:59:18.748589  5599 net.cpp:165] Memory required for data: 3031439636
I0914 21:59:18.748592  5599 layer_factory.hpp:77] Creating layer LFCN_1_7x7
I0914 21:59:18.748601  5599 net.cpp:100] Creating Layer LFCN_1_7x7
I0914 21:59:18.748605  5599 net.cpp:434] LFCN_1_7x7 <- loss1_conv1_loss_relu1_0_split_1
I0914 21:59:18.748611  5599 net.cpp:408] LFCN_1_7x7 -> LFCN_1_7x7
I0914 21:59:18.756788  5599 net.cpp:150] Setting up LFCN_1_7x7
I0914 21:59:18.756817  5599 net.cpp:157] Top shape: 2 9 96 96 (165888)
I0914 21:59:18.756821  5599 net.cpp:165] Memory required for data: 3032103188
I0914 21:59:18.756830  5599 layer_factory.hpp:77] Creating layer LFCN_1_7x7_LFCN_1_7x7_0_split
I0914 21:59:18.756841  5599 net.cpp:100] Creating Layer LFCN_1_7x7_LFCN_1_7x7_0_split
I0914 21:59:18.756848  5599 net.cpp:434] LFCN_1_7x7_LFCN_1_7x7_0_split <- LFCN_1_7x7
I0914 21:59:18.756857  5599 net.cpp:408] LFCN_1_7x7_LFCN_1_7x7_0_split -> LFCN_1_7x7_LFCN_1_7x7_0_split_0
I0914 21:59:18.756867  5599 net.cpp:408] LFCN_1_7x7_LFCN_1_7x7_0_split -> LFCN_1_7x7_LFCN_1_7x7_0_split_1
I0914 21:59:18.756914  5599 net.cpp:150] Setting up LFCN_1_7x7_LFCN_1_7x7_0_split
I0914 21:59:18.756922  5599 net.cpp:157] Top shape: 2 9 96 96 (165888)
I0914 21:59:18.756925  5599 net.cpp:157] Top shape: 2 9 96 96 (165888)
I0914 21:59:18.756928  5599 net.cpp:165] Memory required for data: 3033430292
I0914 21:59:18.756932  5599 layer_factory.hpp:77] Creating layer detection_loss_1_7x7
I0914 21:59:18.756940  5599 net.cpp:100] Creating Layer detection_loss_1_7x7
I0914 21:59:18.756943  5599 net.cpp:434] detection_loss_1_7x7 <- LFCN_1_7x7_LFCN_1_7x7_0_split_0
I0914 21:59:18.756948  5599 net.cpp:434] detection_loss_1_7x7 <- label_1_7x7_data_2_split_0
I0914 21:59:18.756955  5599 net.cpp:408] detection_loss_1_7x7 -> loss_1_7x7
I0914 21:59:18.756963  5599 layer_factory.hpp:77] Creating layer detection_loss_1_7x7
I0914 21:59:18.757697  5599 net.cpp:150] Setting up detection_loss_1_7x7
I0914 21:59:18.757709  5599 net.cpp:157] Top shape: 1 1 1 2 (2)
I0914 21:59:18.757712  5599 net.cpp:160]     with loss weight 0.9
I0914 21:59:18.757725  5599 net.cpp:165] Memory required for data: 3033430300
I0914 21:59:18.757728  5599 layer_factory.hpp:77] Creating layer detection_accuracy_1_7x7
I0914 21:59:18.757736  5599 net.cpp:100] Creating Layer detection_accuracy_1_7x7
I0914 21:59:18.757740  5599 net.cpp:434] detection_accuracy_1_7x7 <- LFCN_1_7x7_LFCN_1_7x7_0_split_1
I0914 21:59:18.757745  5599 net.cpp:434] detection_accuracy_1_7x7 <- label_1_7x7_data_2_split_1
I0914 21:59:18.757751  5599 net.cpp:408] detection_accuracy_1_7x7 -> accuracy_1_7x7
I0914 21:59:18.757758  5599 net.cpp:408] detection_accuracy_1_7x7 -> boxiou_1_7x7
I0914 21:59:18.757800  5599 net.cpp:150] Setting up detection_accuracy_1_7x7
I0914 21:59:18.757807  5599 net.cpp:157] Top shape: 1 1 1 2 (2)
I0914 21:59:18.757810  5599 net.cpp:157] Top shape: 1 1 1 1 (1)
I0914 21:59:18.757813  5599 net.cpp:165] Memory required for data: 3033430312
I0914 21:59:18.757817  5599 layer_factory.hpp:77] Creating layer pool4
I0914 21:59:18.757823  5599 net.cpp:100] Creating Layer pool4
I0914 21:59:18.757827  5599 net.cpp:434] pool4 <- conv4_3_relu4_3_0_split_1
I0914 21:59:18.757833  5599 net.cpp:408] pool4 -> pool4
I0914 21:59:18.757882  5599 net.cpp:150] Setting up pool4
I0914 21:59:18.757890  5599 net.cpp:157] Top shape: 2 512 48 48 (2359296)
I0914 21:59:18.757894  5599 net.cpp:165] Memory required for data: 3042867496
I0914 21:59:18.757896  5599 layer_factory.hpp:77] Creating layer conv5_1
I0914 21:59:18.757905  5599 net.cpp:100] Creating Layer conv5_1
I0914 21:59:18.757907  5599 net.cpp:434] conv5_1 <- pool4
I0914 21:59:18.757913  5599 net.cpp:408] conv5_1 -> conv5_1
I0914 21:59:18.764446  5599 net.cpp:150] Setting up conv5_1
I0914 21:59:18.764482  5599 net.cpp:157] Top shape: 2 512 48 48 (2359296)
I0914 21:59:18.764487  5599 net.cpp:165] Memory required for data: 3052304680
I0914 21:59:18.764497  5599 layer_factory.hpp:77] Creating layer relu5_1
I0914 21:59:18.764509  5599 net.cpp:100] Creating Layer relu5_1
I0914 21:59:18.764515  5599 net.cpp:434] relu5_1 <- conv5_1
I0914 21:59:18.764523  5599 net.cpp:395] relu5_1 -> conv5_1 (in-place)
I0914 21:59:18.764729  5599 net.cpp:150] Setting up relu5_1
I0914 21:59:18.764740  5599 net.cpp:157] Top shape: 2 512 48 48 (2359296)
I0914 21:59:18.764744  5599 net.cpp:165] Memory required for data: 3061741864
I0914 21:59:18.764747  5599 layer_factory.hpp:77] Creating layer conv5_2
I0914 21:59:18.764760  5599 net.cpp:100] Creating Layer conv5_2
I0914 21:59:18.764763  5599 net.cpp:434] conv5_2 <- conv5_1
I0914 21:59:18.764768  5599 net.cpp:408] conv5_2 -> conv5_2
I0914 21:59:18.772336  5599 net.cpp:150] Setting up conv5_2
I0914 21:59:18.772367  5599 net.cpp:157] Top shape: 2 512 48 48 (2359296)
I0914 21:59:18.772372  5599 net.cpp:165] Memory required for data: 3071179048
I0914 21:59:18.772380  5599 layer_factory.hpp:77] Creating layer relu5_2
I0914 21:59:18.772393  5599 net.cpp:100] Creating Layer relu5_2
I0914 21:59:18.772399  5599 net.cpp:434] relu5_2 <- conv5_2
I0914 21:59:18.772406  5599 net.cpp:395] relu5_2 -> conv5_2 (in-place)
I0914 21:59:18.772593  5599 net.cpp:150] Setting up relu5_2
I0914 21:59:18.772603  5599 net.cpp:157] Top shape: 2 512 48 48 (2359296)
I0914 21:59:18.772606  5599 net.cpp:165] Memory required for data: 3080616232
I0914 21:59:18.772610  5599 layer_factory.hpp:77] Creating layer conv5_3
I0914 21:59:18.772620  5599 net.cpp:100] Creating Layer conv5_3
I0914 21:59:18.772624  5599 net.cpp:434] conv5_3 <- conv5_2
I0914 21:59:18.772630  5599 net.cpp:408] conv5_3 -> conv5_3
I0914 21:59:18.784901  5599 net.cpp:150] Setting up conv5_3
I0914 21:59:18.784948  5599 net.cpp:157] Top shape: 2 512 48 48 (2359296)
I0914 21:59:18.784953  5599 net.cpp:165] Memory required for data: 3090053416
I0914 21:59:18.784968  5599 layer_factory.hpp:77] Creating layer relu5_3
I0914 21:59:18.784988  5599 net.cpp:100] Creating Layer relu5_3
I0914 21:59:18.784998  5599 net.cpp:434] relu5_3 <- conv5_3
I0914 21:59:18.785008  5599 net.cpp:395] relu5_3 -> conv5_3 (in-place)
I0914 21:59:18.785202  5599 net.cpp:150] Setting up relu5_3
I0914 21:59:18.785212  5599 net.cpp:157] Top shape: 2 512 48 48 (2359296)
I0914 21:59:18.785214  5599 net.cpp:165] Memory required for data: 3099490600
I0914 21:59:18.785218  5599 layer_factory.hpp:77] Creating layer conv5_3_relu5_3_0_split
I0914 21:59:18.785225  5599 net.cpp:100] Creating Layer conv5_3_relu5_3_0_split
I0914 21:59:18.785230  5599 net.cpp:434] conv5_3_relu5_3_0_split <- conv5_3
I0914 21:59:18.785238  5599 net.cpp:408] conv5_3_relu5_3_0_split -> conv5_3_relu5_3_0_split_0
I0914 21:59:18.785245  5599 net.cpp:408] conv5_3_relu5_3_0_split -> conv5_3_relu5_3_0_split_1
I0914 21:59:18.785253  5599 net.cpp:408] conv5_3_relu5_3_0_split -> conv5_3_relu5_3_0_split_2
I0914 21:59:18.785307  5599 net.cpp:150] Setting up conv5_3_relu5_3_0_split
I0914 21:59:18.785315  5599 net.cpp:157] Top shape: 2 512 48 48 (2359296)
I0914 21:59:18.785320  5599 net.cpp:157] Top shape: 2 512 48 48 (2359296)
I0914 21:59:18.785323  5599 net.cpp:157] Top shape: 2 512 48 48 (2359296)
I0914 21:59:18.785326  5599 net.cpp:165] Memory required for data: 3127802152
I0914 21:59:18.785329  5599 layer_factory.hpp:77] Creating layer LFCN_2_5x5
I0914 21:59:18.785344  5599 net.cpp:100] Creating Layer LFCN_2_5x5
I0914 21:59:18.785348  5599 net.cpp:434] LFCN_2_5x5 <- conv5_3_relu5_3_0_split_0
I0914 21:59:18.785357  5599 net.cpp:408] LFCN_2_5x5 -> LFCN_2_5x5
I0914 21:59:18.789379  5599 net.cpp:150] Setting up LFCN_2_5x5
I0914 21:59:18.789393  5599 net.cpp:157] Top shape: 2 9 48 48 (41472)
I0914 21:59:18.789397  5599 net.cpp:165] Memory required for data: 3127968040
I0914 21:59:18.789408  5599 layer_factory.hpp:77] Creating layer LFCN_2_5x5_LFCN_2_5x5_0_split
I0914 21:59:18.789415  5599 net.cpp:100] Creating Layer LFCN_2_5x5_LFCN_2_5x5_0_split
I0914 21:59:18.789419  5599 net.cpp:434] LFCN_2_5x5_LFCN_2_5x5_0_split <- LFCN_2_5x5
I0914 21:59:18.789423  5599 net.cpp:408] LFCN_2_5x5_LFCN_2_5x5_0_split -> LFCN_2_5x5_LFCN_2_5x5_0_split_0
I0914 21:59:18.789429  5599 net.cpp:408] LFCN_2_5x5_LFCN_2_5x5_0_split -> LFCN_2_5x5_LFCN_2_5x5_0_split_1
I0914 21:59:18.789469  5599 net.cpp:150] Setting up LFCN_2_5x5_LFCN_2_5x5_0_split
I0914 21:59:18.789475  5599 net.cpp:157] Top shape: 2 9 48 48 (41472)
I0914 21:59:18.789479  5599 net.cpp:157] Top shape: 2 9 48 48 (41472)
I0914 21:59:18.789482  5599 net.cpp:165] Memory required for data: 3128299816
I0914 21:59:18.789485  5599 layer_factory.hpp:77] Creating layer detection_loss_2_5x5
I0914 21:59:18.789491  5599 net.cpp:100] Creating Layer detection_loss_2_5x5
I0914 21:59:18.789495  5599 net.cpp:434] detection_loss_2_5x5 <- LFCN_2_5x5_LFCN_2_5x5_0_split_0
I0914 21:59:18.789499  5599 net.cpp:434] detection_loss_2_5x5 <- label_2_5x5_data_3_split_0
I0914 21:59:18.789506  5599 net.cpp:408] detection_loss_2_5x5 -> loss_2_5x5
I0914 21:59:18.789515  5599 layer_factory.hpp:77] Creating layer detection_loss_2_5x5
I0914 21:59:18.789860  5599 net.cpp:150] Setting up detection_loss_2_5x5
I0914 21:59:18.789870  5599 net.cpp:157] Top shape: 1 1 1 2 (2)
I0914 21:59:18.789873  5599 net.cpp:160]     with loss weight 1
I0914 21:59:18.789885  5599 net.cpp:165] Memory required for data: 3128299824
I0914 21:59:18.789887  5599 layer_factory.hpp:77] Creating layer detection_accuracy_2_5x5
I0914 21:59:18.789896  5599 net.cpp:100] Creating Layer detection_accuracy_2_5x5
I0914 21:59:18.789899  5599 net.cpp:434] detection_accuracy_2_5x5 <- LFCN_2_5x5_LFCN_2_5x5_0_split_1
I0914 21:59:18.789904  5599 net.cpp:434] detection_accuracy_2_5x5 <- label_2_5x5_data_3_split_1
I0914 21:59:18.789911  5599 net.cpp:408] detection_accuracy_2_5x5 -> accuracy_2_5x5
I0914 21:59:18.789916  5599 net.cpp:408] detection_accuracy_2_5x5 -> boxiou_2_5x5
I0914 21:59:18.789954  5599 net.cpp:150] Setting up detection_accuracy_2_5x5
I0914 21:59:18.789960  5599 net.cpp:157] Top shape: 1 1 1 2 (2)
I0914 21:59:18.789964  5599 net.cpp:157] Top shape: 1 1 1 1 (1)
I0914 21:59:18.789968  5599 net.cpp:165] Memory required for data: 3128299836
I0914 21:59:18.789973  5599 layer_factory.hpp:77] Creating layer LFCN_2_7x7
I0914 21:59:18.789995  5599 net.cpp:100] Creating Layer LFCN_2_7x7
I0914 21:59:18.790004  5599 net.cpp:434] LFCN_2_7x7 <- conv5_3_relu5_3_0_split_1
I0914 21:59:18.790010  5599 net.cpp:408] LFCN_2_7x7 -> LFCN_2_7x7
I0914 21:59:18.798050  5599 net.cpp:150] Setting up LFCN_2_7x7
I0914 21:59:18.798068  5599 net.cpp:157] Top shape: 2 9 48 48 (41472)
I0914 21:59:18.798071  5599 net.cpp:165] Memory required for data: 3128465724
I0914 21:59:18.798079  5599 layer_factory.hpp:77] Creating layer LFCN_2_7x7_LFCN_2_7x7_0_split
I0914 21:59:18.798086  5599 net.cpp:100] Creating Layer LFCN_2_7x7_LFCN_2_7x7_0_split
I0914 21:59:18.798090  5599 net.cpp:434] LFCN_2_7x7_LFCN_2_7x7_0_split <- LFCN_2_7x7
I0914 21:59:18.798095  5599 net.cpp:408] LFCN_2_7x7_LFCN_2_7x7_0_split -> LFCN_2_7x7_LFCN_2_7x7_0_split_0
I0914 21:59:18.798104  5599 net.cpp:408] LFCN_2_7x7_LFCN_2_7x7_0_split -> LFCN_2_7x7_LFCN_2_7x7_0_split_1
I0914 21:59:18.798151  5599 net.cpp:150] Setting up LFCN_2_7x7_LFCN_2_7x7_0_split
I0914 21:59:18.798158  5599 net.cpp:157] Top shape: 2 9 48 48 (41472)
I0914 21:59:18.798161  5599 net.cpp:157] Top shape: 2 9 48 48 (41472)
I0914 21:59:18.798166  5599 net.cpp:165] Memory required for data: 3128797500
I0914 21:59:18.798168  5599 layer_factory.hpp:77] Creating layer detection_loss_2_7x7
I0914 21:59:18.798174  5599 net.cpp:100] Creating Layer detection_loss_2_7x7
I0914 21:59:18.798177  5599 net.cpp:434] detection_loss_2_7x7 <- LFCN_2_7x7_LFCN_2_7x7_0_split_0
I0914 21:59:18.798184  5599 net.cpp:434] detection_loss_2_7x7 <- label_2_7x7_data_4_split_0
I0914 21:59:18.798190  5599 net.cpp:408] detection_loss_2_7x7 -> loss_2_7x7
I0914 21:59:18.798198  5599 layer_factory.hpp:77] Creating layer detection_loss_2_7x7
I0914 21:59:18.798573  5599 net.cpp:150] Setting up detection_loss_2_7x7
I0914 21:59:18.798581  5599 net.cpp:157] Top shape: 1 1 1 2 (2)
I0914 21:59:18.798584  5599 net.cpp:160]     with loss weight 1
I0914 21:59:18.798594  5599 net.cpp:165] Memory required for data: 3128797508
I0914 21:59:18.798597  5599 layer_factory.hpp:77] Creating layer detection_accuracy_2_7x7
I0914 21:59:18.798604  5599 net.cpp:100] Creating Layer detection_accuracy_2_7x7
I0914 21:59:18.798609  5599 net.cpp:434] detection_accuracy_2_7x7 <- LFCN_2_7x7_LFCN_2_7x7_0_split_1
I0914 21:59:18.798614  5599 net.cpp:434] detection_accuracy_2_7x7 <- label_2_7x7_data_4_split_1
I0914 21:59:18.798619  5599 net.cpp:408] detection_accuracy_2_7x7 -> accuracy_2_7x7
I0914 21:59:18.798625  5599 net.cpp:408] detection_accuracy_2_7x7 -> boxiou_2_7x7
I0914 21:59:18.798665  5599 net.cpp:150] Setting up detection_accuracy_2_7x7
I0914 21:59:18.798671  5599 net.cpp:157] Top shape: 1 1 1 2 (2)
I0914 21:59:18.798674  5599 net.cpp:157] Top shape: 1 1 1 1 (1)
I0914 21:59:18.798677  5599 net.cpp:165] Memory required for data: 3128797520
I0914 21:59:18.798681  5599 layer_factory.hpp:77] Creating layer pool5
I0914 21:59:18.798687  5599 net.cpp:100] Creating Layer pool5
I0914 21:59:18.798692  5599 net.cpp:434] pool5 <- conv5_3_relu5_3_0_split_2
I0914 21:59:18.798696  5599 net.cpp:408] pool5 -> pool5
I0914 21:59:18.798735  5599 net.cpp:150] Setting up pool5
I0914 21:59:18.798741  5599 net.cpp:157] Top shape: 2 512 24 24 (589824)
I0914 21:59:18.798743  5599 net.cpp:165] Memory required for data: 3131156816
I0914 21:59:18.798746  5599 layer_factory.hpp:77] Creating layer conv6_1
I0914 21:59:18.798756  5599 net.cpp:100] Creating Layer conv6_1
I0914 21:59:18.798761  5599 net.cpp:434] conv6_1 <- pool5
I0914 21:59:18.798768  5599 net.cpp:408] conv6_1 -> conv6_1
I0914 21:59:18.867890  5599 net.cpp:150] Setting up conv6_1
I0914 21:59:18.867915  5599 net.cpp:157] Top shape: 2 512 24 24 (589824)
I0914 21:59:18.867919  5599 net.cpp:165] Memory required for data: 3133516112
I0914 21:59:18.867926  5599 layer_factory.hpp:77] Creating layer relu6_1
I0914 21:59:18.867935  5599 net.cpp:100] Creating Layer relu6_1
I0914 21:59:18.867941  5599 net.cpp:434] relu6_1 <- conv6_1
I0914 21:59:18.867946  5599 net.cpp:395] relu6_1 -> conv6_1 (in-place)
I0914 21:59:18.868444  5599 net.cpp:150] Setting up relu6_1
I0914 21:59:18.868458  5599 net.cpp:157] Top shape: 2 512 24 24 (589824)
I0914 21:59:18.868460  5599 net.cpp:165] Memory required for data: 3135875408
I0914 21:59:18.868464  5599 layer_factory.hpp:77] Creating layer conv6_1_relu6_1_0_split
I0914 21:59:18.868470  5599 net.cpp:100] Creating Layer conv6_1_relu6_1_0_split
I0914 21:59:18.868474  5599 net.cpp:434] conv6_1_relu6_1_0_split <- conv6_1
I0914 21:59:18.868480  5599 net.cpp:408] conv6_1_relu6_1_0_split -> conv6_1_relu6_1_0_split_0
I0914 21:59:18.868489  5599 net.cpp:408] conv6_1_relu6_1_0_split -> conv6_1_relu6_1_0_split_1
I0914 21:59:18.868494  5599 net.cpp:408] conv6_1_relu6_1_0_split -> conv6_1_relu6_1_0_split_2
I0914 21:59:18.868549  5599 net.cpp:150] Setting up conv6_1_relu6_1_0_split
I0914 21:59:18.868556  5599 net.cpp:157] Top shape: 2 512 24 24 (589824)
I0914 21:59:18.868561  5599 net.cpp:157] Top shape: 2 512 24 24 (589824)
I0914 21:59:18.868564  5599 net.cpp:157] Top shape: 2 512 24 24 (589824)
I0914 21:59:18.868567  5599 net.cpp:165] Memory required for data: 3142953296
I0914 21:59:18.868571  5599 layer_factory.hpp:77] Creating layer LFCN_3_5x5
I0914 21:59:18.868582  5599 net.cpp:100] Creating Layer LFCN_3_5x5
I0914 21:59:18.868585  5599 net.cpp:434] LFCN_3_5x5 <- conv6_1_relu6_1_0_split_0
I0914 21:59:18.868592  5599 net.cpp:408] LFCN_3_5x5 -> LFCN_3_5x5
I0914 21:59:18.872598  5599 net.cpp:150] Setting up LFCN_3_5x5
I0914 21:59:18.872608  5599 net.cpp:157] Top shape: 2 9 24 24 (10368)
I0914 21:59:18.872611  5599 net.cpp:165] Memory required for data: 3142994768
I0914 21:59:18.872617  5599 layer_factory.hpp:77] Creating layer LFCN_3_5x5_LFCN_3_5x5_0_split
I0914 21:59:18.872622  5599 net.cpp:100] Creating Layer LFCN_3_5x5_LFCN_3_5x5_0_split
I0914 21:59:18.872625  5599 net.cpp:434] LFCN_3_5x5_LFCN_3_5x5_0_split <- LFCN_3_5x5
I0914 21:59:18.872630  5599 net.cpp:408] LFCN_3_5x5_LFCN_3_5x5_0_split -> LFCN_3_5x5_LFCN_3_5x5_0_split_0
I0914 21:59:18.872635  5599 net.cpp:408] LFCN_3_5x5_LFCN_3_5x5_0_split -> LFCN_3_5x5_LFCN_3_5x5_0_split_1
I0914 21:59:18.872670  5599 net.cpp:150] Setting up LFCN_3_5x5_LFCN_3_5x5_0_split
I0914 21:59:18.872674  5599 net.cpp:157] Top shape: 2 9 24 24 (10368)
I0914 21:59:18.872678  5599 net.cpp:157] Top shape: 2 9 24 24 (10368)
I0914 21:59:18.872681  5599 net.cpp:165] Memory required for data: 3143077712
I0914 21:59:18.872684  5599 layer_factory.hpp:77] Creating layer detection_loss_3_5x5
I0914 21:59:18.872690  5599 net.cpp:100] Creating Layer detection_loss_3_5x5
I0914 21:59:18.872694  5599 net.cpp:434] detection_loss_3_5x5 <- LFCN_3_5x5_LFCN_3_5x5_0_split_0
I0914 21:59:18.872699  5599 net.cpp:434] detection_loss_3_5x5 <- label_3_5x5_data_5_split_0
I0914 21:59:18.872705  5599 net.cpp:408] detection_loss_3_5x5 -> loss_3_5x5
I0914 21:59:18.872714  5599 layer_factory.hpp:77] Creating layer detection_loss_3_5x5
I0914 21:59:18.873054  5599 net.cpp:150] Setting up detection_loss_3_5x5
I0914 21:59:18.873064  5599 net.cpp:157] Top shape: 1 1 1 2 (2)
I0914 21:59:18.873067  5599 net.cpp:160]     with loss weight 1
I0914 21:59:18.873081  5599 net.cpp:165] Memory required for data: 3143077720
I0914 21:59:18.873085  5599 layer_factory.hpp:77] Creating layer detection_accuracy_3_5x5
I0914 21:59:18.873091  5599 net.cpp:100] Creating Layer detection_accuracy_3_5x5
I0914 21:59:18.873095  5599 net.cpp:434] detection_accuracy_3_5x5 <- LFCN_3_5x5_LFCN_3_5x5_0_split_1
I0914 21:59:18.873100  5599 net.cpp:434] detection_accuracy_3_5x5 <- label_3_5x5_data_5_split_1
I0914 21:59:18.873106  5599 net.cpp:408] detection_accuracy_3_5x5 -> accuracy_3_5x5
I0914 21:59:18.873114  5599 net.cpp:408] detection_accuracy_3_5x5 -> boxiou_3_5x5
I0914 21:59:18.873153  5599 net.cpp:150] Setting up detection_accuracy_3_5x5
I0914 21:59:18.873159  5599 net.cpp:157] Top shape: 1 1 1 2 (2)
I0914 21:59:18.873163  5599 net.cpp:157] Top shape: 1 1 1 1 (1)
I0914 21:59:18.873167  5599 net.cpp:165] Memory required for data: 3143077732
I0914 21:59:18.873169  5599 layer_factory.hpp:77] Creating layer LFCN_3_7x7
I0914 21:59:18.873179  5599 net.cpp:100] Creating Layer LFCN_3_7x7
I0914 21:59:18.873184  5599 net.cpp:434] LFCN_3_7x7 <- conv6_1_relu6_1_0_split_1
I0914 21:59:18.873189  5599 net.cpp:408] LFCN_3_7x7 -> LFCN_3_7x7
I0914 21:59:18.883080  5599 net.cpp:150] Setting up LFCN_3_7x7
I0914 21:59:18.883128  5599 net.cpp:157] Top shape: 2 9 24 24 (10368)
I0914 21:59:18.883134  5599 net.cpp:165] Memory required for data: 3143119204
I0914 21:59:18.883158  5599 layer_factory.hpp:77] Creating layer LFCN_3_7x7_LFCN_3_7x7_0_split
I0914 21:59:18.883174  5599 net.cpp:100] Creating Layer LFCN_3_7x7_LFCN_3_7x7_0_split
I0914 21:59:18.883184  5599 net.cpp:434] LFCN_3_7x7_LFCN_3_7x7_0_split <- LFCN_3_7x7
I0914 21:59:18.883196  5599 net.cpp:408] LFCN_3_7x7_LFCN_3_7x7_0_split -> LFCN_3_7x7_LFCN_3_7x7_0_split_0
I0914 21:59:18.883209  5599 net.cpp:408] LFCN_3_7x7_LFCN_3_7x7_0_split -> LFCN_3_7x7_LFCN_3_7x7_0_split_1
I0914 21:59:18.883266  5599 net.cpp:150] Setting up LFCN_3_7x7_LFCN_3_7x7_0_split
I0914 21:59:18.883275  5599 net.cpp:157] Top shape: 2 9 24 24 (10368)
I0914 21:59:18.883278  5599 net.cpp:157] Top shape: 2 9 24 24 (10368)
I0914 21:59:18.883281  5599 net.cpp:165] Memory required for data: 3143202148
I0914 21:59:18.883285  5599 layer_factory.hpp:77] Creating layer detection_loss_3_7x7
I0914 21:59:18.883294  5599 net.cpp:100] Creating Layer detection_loss_3_7x7
I0914 21:59:18.883299  5599 net.cpp:434] detection_loss_3_7x7 <- LFCN_3_7x7_LFCN_3_7x7_0_split_0
I0914 21:59:18.883306  5599 net.cpp:434] detection_loss_3_7x7 <- label_3_7x7_data_6_split_0
I0914 21:59:18.883314  5599 net.cpp:408] detection_loss_3_7x7 -> loss_3_7x7
I0914 21:59:18.883327  5599 layer_factory.hpp:77] Creating layer detection_loss_3_7x7
I0914 21:59:18.883697  5599 net.cpp:150] Setting up detection_loss_3_7x7
I0914 21:59:18.883707  5599 net.cpp:157] Top shape: 1 1 1 2 (2)
I0914 21:59:18.883709  5599 net.cpp:160]     with loss weight 1
I0914 21:59:18.883728  5599 net.cpp:165] Memory required for data: 3143202156
I0914 21:59:18.883733  5599 layer_factory.hpp:77] Creating layer detection_accuracy_3_7x7
I0914 21:59:18.883741  5599 net.cpp:100] Creating Layer detection_accuracy_3_7x7
I0914 21:59:18.883746  5599 net.cpp:434] detection_accuracy_3_7x7 <- LFCN_3_7x7_LFCN_3_7x7_0_split_1
I0914 21:59:18.883750  5599 net.cpp:434] detection_accuracy_3_7x7 <- label_3_7x7_data_6_split_1
I0914 21:59:18.883756  5599 net.cpp:408] detection_accuracy_3_7x7 -> accuracy_3_7x7
I0914 21:59:18.883764  5599 net.cpp:408] detection_accuracy_3_7x7 -> boxiou_3_7x7
I0914 21:59:18.883813  5599 net.cpp:150] Setting up detection_accuracy_3_7x7
I0914 21:59:18.883819  5599 net.cpp:157] Top shape: 1 1 1 2 (2)
I0914 21:59:18.883823  5599 net.cpp:157] Top shape: 1 1 1 1 (1)
I0914 21:59:18.883826  5599 net.cpp:165] Memory required for data: 3143202168
I0914 21:59:18.883831  5599 layer_factory.hpp:77] Creating layer pool6
I0914 21:59:18.883838  5599 net.cpp:100] Creating Layer pool6
I0914 21:59:18.883843  5599 net.cpp:434] pool6 <- conv6_1_relu6_1_0_split_2
I0914 21:59:18.883848  5599 net.cpp:408] pool6 -> pool6
I0914 21:59:18.883888  5599 net.cpp:150] Setting up pool6
I0914 21:59:18.883894  5599 net.cpp:157] Top shape: 2 512 12 12 (147456)
I0914 21:59:18.883898  5599 net.cpp:165] Memory required for data: 3143791992
I0914 21:59:18.883900  5599 layer_factory.hpp:77] Creating layer LFCN_4_5x5
I0914 21:59:18.883916  5599 net.cpp:100] Creating Layer LFCN_4_5x5
I0914 21:59:18.883920  5599 net.cpp:434] LFCN_4_5x5 <- pool6
I0914 21:59:18.883927  5599 net.cpp:408] LFCN_4_5x5 -> LFCN_4_5x5
I0914 21:59:18.888376  5599 net.cpp:150] Setting up LFCN_4_5x5
I0914 21:59:18.888391  5599 net.cpp:157] Top shape: 2 9 12 12 (2592)
I0914 21:59:18.888394  5599 net.cpp:165] Memory required for data: 3143802360
I0914 21:59:18.888401  5599 layer_factory.hpp:77] Creating layer LFCN_4_5x5_LFCN_4_5x5_0_split
I0914 21:59:18.888408  5599 net.cpp:100] Creating Layer LFCN_4_5x5_LFCN_4_5x5_0_split
I0914 21:59:18.888412  5599 net.cpp:434] LFCN_4_5x5_LFCN_4_5x5_0_split <- LFCN_4_5x5
I0914 21:59:18.888418  5599 net.cpp:408] LFCN_4_5x5_LFCN_4_5x5_0_split -> LFCN_4_5x5_LFCN_4_5x5_0_split_0
I0914 21:59:18.888425  5599 net.cpp:408] LFCN_4_5x5_LFCN_4_5x5_0_split -> LFCN_4_5x5_LFCN_4_5x5_0_split_1
I0914 21:59:18.888465  5599 net.cpp:150] Setting up LFCN_4_5x5_LFCN_4_5x5_0_split
I0914 21:59:18.888473  5599 net.cpp:157] Top shape: 2 9 12 12 (2592)
I0914 21:59:18.888478  5599 net.cpp:157] Top shape: 2 9 12 12 (2592)
I0914 21:59:18.888480  5599 net.cpp:165] Memory required for data: 3143823096
I0914 21:59:18.888484  5599 layer_factory.hpp:77] Creating layer detection_loss_4_5x5
I0914 21:59:18.888489  5599 net.cpp:100] Creating Layer detection_loss_4_5x5
I0914 21:59:18.888492  5599 net.cpp:434] detection_loss_4_5x5 <- LFCN_4_5x5_LFCN_4_5x5_0_split_0
I0914 21:59:18.888497  5599 net.cpp:434] detection_loss_4_5x5 <- label_4_5x5_data_7_split_0
I0914 21:59:18.888504  5599 net.cpp:408] detection_loss_4_5x5 -> loss_4_5x5
I0914 21:59:18.888511  5599 layer_factory.hpp:77] Creating layer detection_loss_4_5x5
I0914 21:59:18.888856  5599 net.cpp:150] Setting up detection_loss_4_5x5
I0914 21:59:18.888864  5599 net.cpp:157] Top shape: 1 1 1 2 (2)
I0914 21:59:18.888867  5599 net.cpp:160]     with loss weight 1
I0914 21:59:18.888875  5599 net.cpp:165] Memory required for data: 3143823104
I0914 21:59:18.888878  5599 layer_factory.hpp:77] Creating layer detection_accuracy_4_5x5
I0914 21:59:18.888885  5599 net.cpp:100] Creating Layer detection_accuracy_4_5x5
I0914 21:59:18.888888  5599 net.cpp:434] detection_accuracy_4_5x5 <- LFCN_4_5x5_LFCN_4_5x5_0_split_1
I0914 21:59:18.888893  5599 net.cpp:434] detection_accuracy_4_5x5 <- label_4_5x5_data_7_split_1
I0914 21:59:18.888898  5599 net.cpp:408] detection_accuracy_4_5x5 -> accuracy_4_5x5
I0914 21:59:18.888905  5599 net.cpp:408] detection_accuracy_4_5x5 -> boxiou_4_5x5
I0914 21:59:18.888945  5599 net.cpp:150] Setting up detection_accuracy_4_5x5
I0914 21:59:18.888952  5599 net.cpp:157] Top shape: 1 1 1 2 (2)
I0914 21:59:18.888954  5599 net.cpp:157] Top shape: 1 1 1 1 (1)
I0914 21:59:18.888958  5599 net.cpp:165] Memory required for data: 3143823116
I0914 21:59:18.888962  5599 net.cpp:228] detection_accuracy_4_5x5 does not need backward computation.
I0914 21:59:18.888965  5599 net.cpp:226] detection_loss_4_5x5 needs backward computation.
I0914 21:59:18.888969  5599 net.cpp:226] LFCN_4_5x5_LFCN_4_5x5_0_split needs backward computation.
I0914 21:59:18.888972  5599 net.cpp:226] LFCN_4_5x5 needs backward computation.
…
