…
    downsample_rate: 32
    downsample_rate: 32
    downsample_rate: 64
    coord_num: 4
    field_h: 60
    field_h: 84
    field_h: 120
    field_h: 168
    field_h: 240
    field_h: 336
    field_h: 480
    field_w: 60
    field_w: 84
    field_w: 120
    field_w: 168
    field_w: 240
    field_w: 336
    field_w: 480
    fg_threshold: 0.5
    resize_width: 1344
    resize_height: 768
    crop_width: 768
    crop_height: 768
    do_multiple_scale: true
    min_scale: 60
    max_scale: 480
    min_gt_height: 25
    shuffle: true
    output_gt_boxes: true
  }
}
layer {
  name: "slice"
  type: "Slice"
  bottom: "data"
  top: "data123"
  top: "ch4"
  slice_param {
    slice_point: 3
    axis: 1
  }
}
layer {
  name: "conv1_1"
  type: "Convolution"
  bottom: "data123"
  top: "conv1_1"
  param {
    lr_mult: 0
    decay_mult: 0
  }
  param {
    lr_mult: 0
    decay_mult: 0
  }
  convolution_param {
    num_output: 64
    pad: 1
    kernel_size: 3
  }
}
layer {
  name: "relu1_1"
  type: "ReLU"
  bottom: "conv1_1"
  top: "conv1_1"
}
layer {
  name: "conv1_2"
  type: "Convolution"
  bottom: "conv1_1"
  top: "conv1_2"
  param {
    lr_mult: 0
    decay_mult: 0
  }
  param {
    lr_mult: 0
    decay_mult: 0
  }
  convolution_param {
    num_output: 64
    pad: 1
    kernel_size: 3
  }
}
layer {
  name: "relu1_2"
  type: "ReLU"
  bottom: "conv1_2"
  top: "conv1_2"
}
layer {
  name: "pool1"
  type: "Pooling"
  bottom: "conv1_2"
  top: "pool1"
  pooling_param {
    pool: MAX
    kernel_size: 2
    stride: 2
  }
}
layer {
  name: "ch4_pool1"
  type: "Pooling"
  bottom: "ch4"
  top: "ch4_pool1"
  pooling_param {
    pool: MAX
    kernel_size: 2
    stride: 2
  }
}
layer {
  name: "pool1_concat"
  type: "Concat"
  bottom: "pool1"
  bottom: "ch4_pool1"
  top: "pool1_new"
}
layer {
  name: "conv2_1_new"
  type: "Convolution"
  bottom: "pool1_new"
  top: "conv2_1"
  param {
    lr_mult: 0
    decay_mult: 0
  }
  param {
    lr_mult: 0
    decay_mult: 0
  }
  convolution_param {
    num_output: 128
    pad: 1
    kernel_size: 3
  }
}
layer {
  name: "relu2_1"
  type: "ReLU"
  bottom: "conv2_1"
  top: "conv2_1"
}
layer {
  name: "conv2_2"
  type: "Convolution"
  bottom: "conv2_1"
  top: "conv2_2"
  param {
    lr_mult: 0
    decay_mult: 0
  }
  param {
    lr_mult: 0
    decay_mult: 0
  }
  convolution_param {
    num_output: 128
    pad: 1
    kernel_size: 3
  }
}
layer {
  name: "relu2_2"
  type: "ReLU"
  bottom: "conv2_2"
  top: "conv2_2"
}
layer {
  name: "pool2"
  type: "Pooling"
  bottom: "conv2_2"
  top: "pool2"
  pooling_param {
    pool: MAX
    kernel_size: 2
    stride: 2
  }
}
layer {
  name: "ch4_pool2"
  type: "Pooling"
  bottom: "ch4_pool1"
  top: "ch4_pool2"
  pooling_param {
    pool: MAX
    kernel_size: 2
    stride: 2
  }
}
layer {
  name: "pool2_concat"
  type: "Concat"
  bottom: "pool2"
  bottom: "ch4_pool2"
  top: "pool2_new"
}
layer {
  name: "conv3_1_new"
  type: "Convolution"
  bottom: "pool2_new"
  top: "conv3_1"
  convolution_param {
    num_output: 256
    pad: 1
    kernel_size: 3
  }
}
layer {
  name: "relu3_1"
  type: "ReLU"
  bottom: "conv3_1"
  top: "conv3_1"
}
layer {
  name: "conv3_2"
  type: "Convolution"
  bottom: "conv3_1"
  top: "conv3_2"
  convolution_param {
    num_output: 256
    pad: 1
    kernel_size: 3
  }
}
layer {
  name: "relu3_2"
  type: "ReLU"
  bottom: "conv3_2"
  top: "conv3_2"
}
layer {
  name: "conv3_3"
  type: "Convolution"
  bottom: "conv3_2"
  top: "conv3_3"
  convolution_param {
    num_output: 256
    pad: 1
    kernel_size: 3
  }
}
layer {
  name: "relu3_3"
  type: "ReLU"
  bottom: "conv3_3"
  top: "conv3_3"
}
layer {
  name: "pool3"
  type: "Pooling"
  bottom: "conv3_3"
  top: "pool3"
  pooling_param {
    pool: MAX
    kernel_size: 2
    stride: 2
  }
}
layer {
  name: "ch4_pool3"
  type: "Pooling"
  bottom: "ch4_pool2"
  top: "ch4_pool3"
  pooling_param {
    pool: MAX
    kernel_size: 2
    stride: 2
  }
}
layer {
  name: "pool3_concat"
  type: "Concat"
  bottom: "pool3"
  bottom: "ch4_pool3"
  top: "pool3_new"
}
layer {
  name: "conv4_1_new"
  type: "Convolution"
  bottom: "pool3_new"
  top: "conv4_1"
  convolution_param {
    num_output: 512
    pad: 1
    kernel_size: 3
  }
}
layer {
  name: "relu4_1"
  type: "ReLU"
  bottom: "conv4_1"
  top: "conv4_1"
}
layer {
  name: "conv4_2"
  type: "Convolution"
  bottom: "conv4_1"
  top: "conv4_2"
  convolution_param {
    num_output: 512
    pad: 1
    kernel_size: 3
  }
}
layer {
  name: "relu4_2"
  type: "ReLU"
  bottom: "conv4_2"
  top: "conv4_2"
}
layer {
  name: "conv4_3"
  type: "Convolution"
  bottom: "conv4_2"
  top: "conv4_3"
  convolution_param {
    num_output: 512
    pad: 1
    kernel_size: 3
  }
}
layer {
  name: "relu4_3"
  type: "ReLU"
  bottom: "conv4_3"
  top: "conv4_3"
}
layer {
  name: "loss1_conv1"
  type: "Convolution"
  bottom: "conv4_3"
  top: "loss1_conv1"
  param {
    lr_mult: 1
    decay_mult: 1
  }
  param {
    lr_mult: 2
    decay_mult: 0
  }
  convolution_param {
    num_output: 512
    pad: 1
    kernel_size: 3
    weight_filler {
      type: "gaussian"
      std: 0.01
    }
    bias_filler {
      type: "constant"
    }
  }
}
layer {
  name: "loss_relu1"
  type: "ReLU"
  bottom: "loss1_conv1"
  top: "loss1_conv1"
}
layer {
  name: "LFCN_1_5x5"
  type: "Convolution"
  bottom: "loss1_conv1"
  top: "LFCN_1_5x5"
  param {
    lr_mult: 1
    decay_mult: 1
  }
  param {
    lr_mult: 2
    decay_mult: 0
  }
  convolution_param {
    num_output: 9
    pad: 2
    kernel_size: 5
    weight_filler {
      type: "gaussian"
      std: 0.001
    }
    bias_filler {
      type: "constant"
    }
  }
}
layer {
  name: "detection_loss_1_5x5"
  type: "DetectionLoss"
  bottom: "LFCN_1_5x5"
  bottom: "label_1_5x5"
  top: "loss_1_5x5"
  loss_weight: 0.9
  detection_loss_param {
    cls_num: 5
    coord_num: 4
    lambda: 1
    field_h: 60
    field_w: 60
    downsample_rate: 8
    bb_smooth: true
    field_whr: 2
    field_xyr: 2
    bg_threshold: 0.2
    bg_multiple: 2
    sample_mode: "bootstrap"
    pos_neg_weighted: true
  }
}
layer {
  name: "detection_accuracy_1_5x5"
  type: "DetectionAccuracy"
  bottom: "LFCN_1_5x5"
  bottom: "label_1_5x5"
  top: "accuracy_1_5x5"
  top: "boxiou_1_5x5"
  detection_accuracy_param {
    cls_num: 5
    coord_num: 4
    field_h: 60
    field_w: 60
    downsample_rate: 8
    field_whr: 2
    field_xyr: 2
  }
}
layer {
  name: "LFCN_1_7x7"
  type: "Convolution"
  bottom: "loss1_conv1"
  top: "LFCN_1_7x7"
  param {
    lr_mult: 1
    decay_mult: 1
  }
  param {
    lr_mult: 2
    decay_mult: 0
  }
  convolution_param {
    num_output: 9
    pad: 3
    kernel_size: 7
    weight_filler {
      type: "gaussian"
      std: 0.001
    }
    bias_filler {
      type: "constant"
    }
  }
}
layer {
  name: "detection_loss_1_7x7"
  type: "DetectionLoss"
  bottom: "LFCN_1_7x7"
  bottom: "label_1_7x7"
  top: "loss_1_7x7"
  loss_weight: 0.9
  detection_loss_param {
    cls_num: 5
    coord_num: 4
    lambda: 1
    field_h: 84
    field_w: 84
    downsample_rate: 8
    bb_smooth: true
    field_whr: 2
    field_xyr: 2
    bg_threshold: 0.2
    bg_multiple: 2
    sample_mode: "bootstrap"
    pos_neg_weighted: true
  }
}
layer {
  name: "detection_accuracy_1_7x7"
  type: "DetectionAccuracy"
  bottom: "LFCN_1_7x7"
  bottom: "label_1_7x7"
  top: "accuracy_1_7x7"
  top: "boxiou_1_7x7"
  detection_accuracy_param {
    cls_num: 5
    coord_num: 4
    field_h: 84
    field_w: 84
    downsample_rate: 8
    field_whr: 2
    field_xyr: 2
  }
}
layer {
  name: "pool4"
  type: "Pooling"
  bottom: "conv4_3"
  top: "pool4"
  pooling_param {
    pool: MAX
    kernel_size: 2
    stride: 2
  }
}
layer {
  name: "conv5_1"
  type: "Convolution"
  bottom: "pool4"
  top: "conv5_1"
  convolution_param {
    num_output: 512
    pad: 1
    kernel_size: 3
  }
}
layer {
  name: "relu5_1"
  type: "ReLU"
  bottom: "conv5_1"
  top: "conv5_1"
}
layer {
  name: "conv5_2"
  type: "Convolution"
  bottom: "conv5_1"
  top: "conv5_2"
  convolution_param {
    num_output: 512
    pad: 1
    kernel_size: 3
  }
}
layer {
  name: "relu5_2"
  type: "ReLU"
  bottom: "conv5_2"
  top: "conv5_2"
}
layer {
  name: "conv5_3"
  type: "Convolution"
  bottom: "conv5_2"
  top: "conv5_3"
  convolution_param {
    num_output: 512
    pad: 1
    kernel_size: 3
  }
}
layer {
  name: "relu5_3"
  type: "ReLU"
  bottom: "conv5_3"
  top: "conv5_3"
}
layer {
  name: "LFCN_2_5x5"
  type: "Convolution"
  bottom: "conv5_3"
  top: "LFCN_2_5x5"
  param {
    lr_mult: 1
    decay_mult: 1
  }
  param {
    lr_mult: 2
    decay_mult: 0
  }
  convolution_param {
    num_output: 9
    pad: 2
    kernel_size: 5
    weight_filler {
      type: "gaussian"
      std: 0.001
    }
    bias_filler {
      type: "constant"
    }
  }
}
layer {
  name: "detection_loss_2_5x5"
  type: "DetectionLoss"
  bottom: "LFCN_2_5x5"
  bottom: "label_2_5x5"
  top: "loss_2_5x5"
  detection_loss_param {
    cls_num: 5
    coord_num: 4
    lambda: 1
    field_h: 120
    field_w: 120
    downsample_rate: 16
    bb_smooth: true
    field_whr: 2
    field_xyr: 2
    bg_threshold: 0.2
    bg_multiple: 2
    sample_mode: "bootstrap"
    pos_neg_weighted: true
  }
}
layer {
  name: "detection_accuracy_2_5x5"
  type: "DetectionAccuracy"
  bottom: "LFCN_2_5x5"
  bottom: "label_2_5x5"
  top: "accuracy_2_5x5"
  top: "boxiou_2_5x5"
  detection_accuracy_param {
    cls_num: 5
    coord_num: 4
    field_h: 120
    field_w: 120
    downsample_rate: 16
    field_whr: 2
    field_xyr: 2
  }
}
layer {
  name: "LFCN_2_7x7"
  type: "Convolution"
  bottom: "conv5_3"
  top: "LFCN_2_7x7"
  param {
    lr_mult: 1
    decay_mult: 1
  }
  param {
    lr_mult: 2
    decay_mult: 0
  }
  convolution_param {
    num_output: 9
    pad: 3
    kernel_size: 7
    weight_filler {
      type: "gaussian"
      std: 0.001
    }
    bias_filler {
      type: "constant"
    }
  }
}
layer {
  name: "detection_loss_2_7x7"
  type: "DetectionLoss"
  bottom: "LFCN_2_7x7"
  bottom: "label_2_7x7"
  top: "loss_2_7x7"
  detection_loss_param {
    cls_num: 5
    coord_num: 4
    lambda: 1
    field_h: 168
    field_w: 168
    downsample_rate: 16
    bb_smooth: true
    field_whr: 2
    field_xyr: 2
    bg_threshold: 0.2
    bg_multiple: 2
    sample_mode: "bootstrap"
    pos_neg_weighted: true
  }
}
layer {
  name: "detection_accuracy_2_7x7"
  type: "DetectionAccuracy"
  bottom: "LFCN_2_7x7"
  bottom: "label_2_7x7"
  top: "accuracy_2_7x7"
  top: "boxiou_2_7x7"
  detection_accuracy_param {
    cls_num: 5
    coord_num: 4
    field_h: 168
    field_w: 168
    downsample_rate: 16
    field_whr: 2
    field_xyr: 2
  }
}
layer {
  name: "pool5"
  type: "Pooling"
  bottom: "conv5_3"
  top: "pool5"
  pooling_param {
    pool: MAX
    kernel_size: 2
    stride: 2
  }
}
layer {
  name: "conv6_1"
  type: "Convolution"
  bottom: "pool5"
  top: "conv6_1"
  param {
    lr_mult: 1
    decay_mult: 1
  }
  param {
    lr_mult: 2
    decay_mult: 0
  }
  convolution_param {
    num_output: 512
    pad: 1
    kernel_size: 3
    weight_filler {
      type: "gaussian"
      std: 0.01
    }
    bias_filler {
      type: "constant"
    }
  }
}
layer {
  name: "relu6_1"
  type: "ReLU"
  bottom: "conv6_1"
  top: "conv6_1"
}
layer {
  name: "LFCN_3_5x5"
  type: "Convolution"
  bottom: "conv6_1"
  top: "LFCN_3_5x5"
  param {
    lr_mult: 1
    decay_mult: 1
  }
  param {
    lr_mult: 2
    decay_mult: 0
  }
  convolution_param {
    num_output: 9
    pad: 2
    kernel_size: 5
    weight_filler {
      type: "gaussian"
      std: 0.001
    }
    bias_filler {
      type: "constant"
    }
  }
}
layer {
  name: "detection_loss_3_5x5"
  type: "DetectionLoss"
  bottom: "LFCN_3_5x5"
  bottom: "label_3_5x5"
  top: "loss_3_5x5"
  detection_loss_param {
    cls_num: 5
    coord_num: 4
    lambda: 1
    field_h: 240
    field_w: 240
    downsample_rate: 32
    bb_smooth: true
    field_whr: 2
    field_xyr: 2
    bg_threshold: 0.2
    bg_multiple: 2
    sample_mode: "bootstrap"
    pos_neg_weighted: true
  }
}
layer {
  name: "detection_accuracy_3_5x5"
  type: "DetectionAccuracy"
  bottom: "LFCN_3_5x5"
  bottom: "label_3_5x5"
  top: "accuracy_3_5x5"
  top: "boxiou_3_5x5"
  detection_accuracy_param {
    cls_num: 5
    coord_num: 4
    field_h: 240
    field_w: 240
    downsample_rate: 32
    field_whr: 2
    field_xyr: 2
  }
}
layer {
  name: "LFCN_3_7x7"
  type: "Convolution"
  bottom: "conv6_1"
  top: "LFCN_3_7x7"
  param {
    lr_mult: 1
    decay_mult: 1
  }
  param {
    lr_mult: 2
    decay_mult: 0
  }
  convolution_param {
    num_output: 9
    pad: 3
    kernel_size: 7
    weight_filler {
      type: "gaussian"
      std: 0.001
    }
    bias_filler {
      type: "constant"
    }
  }
}
layer {
  name: "detection_loss_3_7x7"
  type: "DetectionLoss"
  bottom: "LFCN_3_7x7"
  bottom: "label_3_7x7"
  top: "loss_3_7x7"
  detection_loss_param {
    cls_num: 5
    coord_num: 4
    lambda: 1
    field_h: 336
    field_w: 336
    downsample_rate: 32
    bb_smooth: true
    field_whr: 2
    field_xyr: 2
    bg_threshold: 0.2
    bg_multiple: 2
    sample_mode: "bootstrap"
    pos_neg_weighted: true
  }
}
layer {
  name: "detection_accuracy_3_7x7"
  type: "DetectionAccuracy"
  bottom: "LFCN_3_7x7"
  bottom: "label_3_7x7"
  top: "accuracy_3_7x7"
  top: "boxiou_3_7x7"
  detection_accuracy_param {
    cls_num: 5
    coord_num: 4
    field_h: 336
    field_w: 336
    downsample_rate: 32
    field_whr: 2
    field_xyr: 2
  }
}
layer {
  name: "pool6"
  type: "Pooling"
  bottom: "conv6_1"
  top: "pool6"
  pooling_param {
    pool: MAX
    kernel_size: 2
    stride: 2
  }
}
layer {
  name: "LFCN_4_5x5"
  type: "Convolution"
  bottom: "pool6"
  top: "LFCN_4_5x5"
  param {
    lr_mult: 1
    decay_mult: 1
  }
  param {
    lr_mult: 2
    decay_mult: 0
  }
  convolution_param {
    num_output: 9
    pad: 2
    kernel_size: 5
    weight_filler {
      type: "gaussian"
      std: 0.001
    }
    bias_filler {
      type: "constant"
    }
  }
}
layer {
  name: "detection_loss_4_5x5"
  type: "DetectionLoss"
  bottom: "LFCN_4_5x5"
  bottom: "label_4_5x5"
  top: "loss_4_5x5"
  detection_loss_param {
    cls_num: 5
    coord_num: 4
    lambda: 1
    field_h: 480
    field_w: 480
    downsample_rate: 64
    bb_smooth: true
    field_whr: 2
    field_xyr: 2
    bg_threshold: 0.2
    bg_multiple: 2
    sample_mode: "bootstrap"
    pos_neg_weighted: true
  }
}
layer {
  name: "detection_accuracy_4_5x5"
  type: "DetectionAccuracy"
  bottom: "LFCN_4_5x5"
  bottom: "label_4_5x5"
  top: "accuracy_4_5x5"
  top: "boxiou_4_5x5"
  detection_accuracy_param {
    cls_num: 5
    coord_num: 4
    field_h: 480
    field_w: 480
    downsample_rate: 64
    field_whr: 2
    field_xyr: 2
  }
}
layer {
  name: "proposals"
  type: "BoxOutput"
  bottom: "LFCN_1_5x5"
  bottom: "LFCN_1_7x7"
  bottom: "LFCN_2_5x5"
  bottom: "LFCN_2_7x7"
  bottom: "LFCN_3_5x5"
  bottom: "LFCN_3_7x7"
  bottom: "LFCN_4_5x5"
  top: "proposals"
  propagate_down: false
  propagate_down: false
  propagate_down: false
  propagate_down: false
  propagate_down: false
  propagate_down: false
  propagate_down: false
  box_output_param {
    fg_thr: -8
    iou_thr: 0.65
    nms_type: "IOU"
    field_h: 60
    field_h: 84
    field_h: 120
    field_h: 168
    field_h: 240
    field_h: 336
    field_h: 480
    field_w: 60
    field_w: 84
    field_w: 120
    field_w: 168
    field_w: 240
    field_w: 336
    field_w: 480
    downsample_rate: 8
    downsample_rate: 8
    downsample_rate: 16
    downsample_rate: 16
    downsample_rate: 32
    downsample_rate: 32
    downsample_rate: 64
    field_whr: 2
    field_xyr: 2
    max_nms_num: 3000
  }
}
layer {
  name: "proposal_info"
  type: "ProposalTarget"
  bottom: "proposals"
  bottom: "gt_boxes"
  top: "rois"
  top: "proposal_labels"
  top: "proposal_targets"
  top: "box_inside_weights"
  top: "box_outside_weights"
  top: "match_gt_boxes"
  include {
    phase: TRAIN
  }
  propagate_down: false
  propagate_down: false
  proposal_target_param {
    cls_num: 5
    batch_size: 256
    fg_fraction: 0.25
    num_img_per_batch: 4
    fg_thr: 0.5
    bg_thr_hg: 0.49
    bg_thr_lw: 0.1
    img_width: 768
    img_height: 576
  }
  bbox_reg_param {
    bbox_mean: 0
    bbox_mean: 0
    bbox_mean: 0
    bbox_mean: 0
    bbox_std: 0.1
    bbox_std: 0.1
    bbox_std: 0.2
    bbox_std: 0.2
  }
}
layer {
  name: "conv4_3_2x"
  type: "Deconvolution"
  bottom: "conv4_3"
  top: "conv4_3_2x"
  param {
    lr_mult: 0
    decay_mult: 0
  }
  convolution_param {
    num_output: 512
    bias_term: false
    pad: 1
    kernel_size: 4
    group: 512
    stride: 2
    weight_filler {
      type: "bilinear"
    }
  }
}
layer {
  name: "conv4_3_2x_new"
  type: "Concat"
  bottom: "conv4_3_2x"
  bottom: "ch4_pool2"
  top: "conv4_3_2x_new"
}
layer {
  name: "roi_pool_org"
  type: "ROIPooling"
  bottom: "conv4_3_2x_new"
  bottom: "rois"
  top: "roi_pool_org"
  roi_pooling_param {
    pooled_h: 7
    pooled_w: 7
    spatial_scale: 0.25
    pad_ratio: 0
  }
}
layer {
  name: "roi_pool_ctx"
  type: "ROIPooling"
  bottom: "conv4_3_2x_new"
  bottom: "rois"
  top: "roi_pool_ctx"
  roi_pooling_param {
    pooled_h: 7
    pooled_w: 7
    spatial_scale: 0.25
    pad_ratio: 0.25
  }
}
layer {
  name: "roi_pool"
  type: "Concat"
  bottom: "roi_pool_org"
  bottom: "roi_pool_ctx"
  top: "roi_pool"
}
layer {
  name: "roi_c1"
  type: "Convolution"
  bottom: "roi_pool"
  top: "roi_c1"
  param {
    lr_mult: 1
    decay_mult: 1
  }
  param {
    lr_mult: 2
    decay_mult: 0
  }
  convolution_param {
    num_output: 512
    kernel_size: 3
    weight_filler {
      type: "gaussian"
      std: 0.01
    }
    bias_filler {
      type: "constant"
    }
  }
}
layer {
  name: "roi_c1_relu"
  type: "ReLU"
  bottom: "roi_c1"
  top: "roi_c1"
}
layer {
  name: "fc6"
  type: "InnerProduct"
  bottom: "roi_c1"
  top: "fc6"
  param {
    lr_mult: 1
  }
  param {
    lr_mult: 2
  }
  inner_product_param {
    num_output: 4096
    weight_filler {
      type: "gaussian"
      std: 0.001
    }
    bias_filler {
      type: "constant"
      value: 0
    }
  }
}
layer {
  name: "relu6"
  type: "ReLU"
  bottom: "fc6"
  top: "fc6"
}
layer {
  name: "drop6"
  type: "Dropout"
  bottom: "fc6"
  top: "fc6"
  dropout_param {
    dropout_ratio: 0.5
  }
}
layer {
  name: "cls_pred"
  type: "InnerProduct"
  bottom: "fc6"
  top: "cls_pred"
  param {
    lr_mult: 1
  }
  param {
    lr_mult: 2
  }
  inner_product_param {
    num_output: 5
    weight_filler {
      type: "gaussian"
      std: 0.01
    }
    bias_filler {
      type: "constant"
      value: 0
    }
  }
}
layer {
  name: "bbox_pred"
  type: "InnerProduct"
  bottom: "fc6"
  top: "bbox_pred"
  param {
    lr_mult: 1
  }
  param {
    lr_mult: 2
  }
  inner_product_param {
    num_output: 20
    weight_filler {
      type: "gaussian"
      std: 0.001
    }
    bias_filler {
      type: "constant"
      value: 0
    }
  }
}
layer {
  name: "loss_cls"
  type: "SoftmaxWithLoss"
  bottom: "cls_pred"
  bottom: "proposal_labels"
  top: "loss_cls"
  loss_weight: 1
  propagate_down: true
  propagate_down: false
}
layer {
  name: "cls_accuracy"
  type: "Accuracy"
  bottom: "cls_pred"
  bottom: "proposal_labels"
  top: "cls_accuracy"
}
layer {
  name: "loss_bbox"
  type: "SmoothL1Loss"
  bottom: "bbox_pred"
  bottom: "proposal_targets"
  bottom: "box_inside_weights"
  bottom: "box_outside_weights"
  top: "loss_bbox"
  loss_weight: 1
}
layer {
  name: "bbox_iou"
  type: "BboxAccuracy"
  bottom: "bbox_pred"
  bottom: "rois"
  bottom: "match_gt_boxes"
  top: "bbox_iou"
  top: "bbox_iou_pre"
  bbox_reg_param {
    bbox_mean: 0
    bbox_mean: 0
    bbox_mean: 0
    bbox_mean: 0
    bbox_std: 0.1
    bbox_std: 0.1
    bbox_std: 0.2
    bbox_std: 0.2
  }
}
I0918 11:15:02.347585  4514 layer_factory.hpp:77] Creating layer data
I0918 11:15:02.348683  4514 net.cpp:100] Creating Layer data
I0918 11:15:02.348713  4514 net.cpp:408] data -> data
…
I0918 11:15:02.463465  4514 image_gt_data_layer.cpp:235] output label size 2 : 3,6,48,48
I0918 11:15:02.463510  4514 image_gt_data_layer.cpp:235] output label size 3 : 3,6,48,48
I0918 11:15:02.463554  4514 image_gt_data_layer.cpp:235] output label size 4 : 3,6,24,24
I0918 11:15:02.463598  4514 image_gt_data_layer.cpp:235] output label size 5 : 3,6,24,24
I0918 11:15:02.463641  4514 image_gt_data_layer.cpp:235] output label size 6 : 3,6,12,12
I0918 11:15:02.463685  4514 image_gt_data_layer.cpp:250] output gt boxes size: 1,7,1,1
I0918 11:15:02.519948  4514 net.cpp:150] Setting up data
I0918 11:15:02.519982  4514 net.cpp:157] Top shape: 3 4 768 768 (7077888)
I0918 11:15:02.519987  4514 net.cpp:157] Top shape: 3 6 96 96 (165888)
I0918 11:15:02.519991  4514 net.cpp:157] Top shape: 3 6 96 96 (165888)
I0918 11:15:02.519995  4514 net.cpp:157] Top shape: 3 6 48 48 (41472)
I0918 11:15:02.519999  4514 net.cpp:157] Top shape: 3 6 48 48 (41472)
I0918 11:15:02.520002  4514 net.cpp:157] Top shape: 3 6 24 24 (10368)
I0918 11:15:02.520005  4514 net.cpp:157] Top shape: 3 6 24 24 (10368)
I0918 11:15:02.520009  4514 net.cpp:157] Top shape: 3 6 12 12 (2592)
I0918 11:15:02.520014  4514 net.cpp:157] Top shape: 1 7 1 1 (7)
I0918 11:15:02.520016  4514 net.cpp:165] Memory required for data: 30063772
I0918 11:15:02.520025  4514 layer_factory.hpp:77] Creating layer label_1_5x5_data_1_split
I0918 11:15:02.535974  4514 net.cpp:100] Creating Layer label_1_5x5_data_1_split
I0918 11:15:02.536033  4514 net.cpp:434] label_1_5x5_data_1_split <- label_1_5x5
I0918 11:15:02.536061  4514 net.cpp:408] label_1_5x5_data_1_split -> label_1_5x5_data_1_split_0
I0918 11:15:02.536089  4514 net.cpp:408] label_1_5x5_data_1_split -> label_1_5x5_data_1_split_1
I0918 11:15:02.536218  4514 net.cpp:150] Setting up label_1_5x5_data_1_split
I0918 11:15:02.536236  4514 net.cpp:157] Top shape: 3 6 96 96 (165888)
I0918 11:15:02.536242  4514 net.cpp:157] Top shape: 3 6 96 96 (165888)
I0918 11:15:02.536247  4514 net.cpp:165] Memory required for data: 31390876
I0918 11:15:02.536254  4514 layer_factory.hpp:77] Creating layer label_1_7x7_data_2_split
I0918 11:15:02.536265  4514 net.cpp:100] Creating Layer label_1_7x7_data_2_split
I0918 11:15:02.536270  4514 net.cpp:434] label_1_7x7_data_2_split <- label_1_7x7
I0918 11:15:02.536276  4514 net.cpp:408] label_1_7x7_data_2_split -> label_1_7x7_data_2_split_0
I0918 11:15:02.536284  4514 net.cpp:408] label_1_7x7_data_2_split -> label_1_7x7_data_2_split_1
I0918 11:15:02.536322  4514 net.cpp:150] Setting up label_1_7x7_data_2_split
I0918 11:15:02.536331  4514 net.cpp:157] Top shape: 3 6 96 96 (165888)
I0918 11:15:02.536337  4514 net.cpp:157] Top shape: 3 6 96 96 (165888)
I0918 11:15:02.536341  4514 net.cpp:165] Memory required for data: 32717980
I0918 11:15:02.536346  4514 layer_factory.hpp:77] Creating layer label_2_5x5_data_3_split
I0918 11:15:02.536352  4514 net.cpp:100] Creating Layer label_2_5x5_data_3_split
I0918 11:15:02.536356  4514 net.cpp:434] label_2_5x5_data_3_split <- label_2_5x5
I0918 11:15:02.536365  4514 net.cpp:408] label_2_5x5_data_3_split -> label_2_5x5_data_3_split_0
I0918 11:15:02.536370  4514 net.cpp:408] label_2_5x5_data_3_split -> label_2_5x5_data_3_split_1
I0918 11:15:02.536401  4514 net.cpp:150] Setting up label_2_5x5_data_3_split
I0918 11:15:02.536407  4514 net.cpp:157] Top shape: 3 6 48 48 (41472)
I0918 11:15:02.536412  4514 net.cpp:157] Top shape: 3 6 48 48 (41472)
I0918 11:15:02.536417  4514 net.cpp:165] Memory required for data: 33049756
I0918 11:15:02.536420  4514 layer_factory.hpp:77] Creating layer label_2_7x7_data_4_split
I0918 11:15:02.536428  4514 net.cpp:100] Creating Layer label_2_7x7_data_4_split
I0918 11:15:02.536432  4514 net.cpp:434] label_2_7x7_data_4_split <- label_2_7x7
I0918 11:15:02.536437  4514 net.cpp:408] label_2_7x7_data_4_split -> label_2_7x7_data_4_split_0
I0918 11:15:02.536443  4514 net.cpp:408] label_2_7x7_data_4_split -> label_2_7x7_data_4_split_1
I0918 11:15:02.536475  4514 net.cpp:150] Setting up label_2_7x7_data_4_split
I0918 11:15:02.536483  4514 net.cpp:157] Top shape: 3 6 48 48 (41472)
I0918 11:15:02.536489  4514 net.cpp:157] Top shape: 3 6 48 48 (41472)
I0918 11:15:02.536491  4514 net.cpp:165] Memory required for data: 33381532
I0918 11:15:02.536495  4514 layer_factory.hpp:77] Creating layer label_3_5x5_data_5_split
I0918 11:15:02.536500  4514 net.cpp:100] Creating Layer label_3_5x5_data_5_split
I0918 11:15:02.536504  4514 net.cpp:434] label_3_5x5_data_5_split <- label_3_5x5
I0918 11:15:02.536509  4514 net.cpp:408] label_3_5x5_data_5_split -> label_3_5x5_data_5_split_0
I0918 11:15:02.536516  4514 net.cpp:408] label_3_5x5_data_5_split -> label_3_5x5_data_5_split_1
I0918 11:15:02.536545  4514 net.cpp:150] Setting up label_3_5x5_data_5_split
I0918 11:15:02.536551  4514 net.cpp:157] Top shape: 3 6 24 24 (10368)
I0918 11:15:02.536556  4514 net.cpp:157] Top shape: 3 6 24 24 (10368)
I0918 11:15:02.536559  4514 net.cpp:165] Memory required for data: 33464476
I0918 11:15:02.536562  4514 layer_factory.hpp:77] Creating layer label_3_7x7_data_6_split
I0918 11:15:02.536571  4514 net.cpp:100] Creating Layer label_3_7x7_data_6_split
I0918 11:15:02.536574  4514 net.cpp:434] label_3_7x7_data_6_split <- label_3_7x7
I0918 11:15:02.536579  4514 net.cpp:408] label_3_7x7_data_6_split -> label_3_7x7_data_6_split_0
I0918 11:15:02.536586  4514 net.cpp:408] label_3_7x7_data_6_split -> label_3_7x7_data_6_split_1
I0918 11:15:02.536613  4514 net.cpp:150] Setting up label_3_7x7_data_6_split
I0918 11:15:02.536620  4514 net.cpp:157] Top shape: 3 6 24 24 (10368)
I0918 11:15:02.536625  4514 net.cpp:157] Top shape: 3 6 24 24 (10368)
I0918 11:15:02.536629  4514 net.cpp:165] Memory required for data: 33547420
I0918 11:15:02.536633  4514 layer_factory.hpp:77] Creating layer label_4_5x5_data_7_split
I0918 11:15:02.536638  4514 net.cpp:100] Creating Layer label_4_5x5_data_7_split
I0918 11:15:02.536641  4514 net.cpp:434] label_4_5x5_data_7_split <- label_4_5x5
I0918 11:15:02.536646  4514 net.cpp:408] label_4_5x5_data_7_split -> label_4_5x5_data_7_split_0
I0918 11:15:02.536651  4514 net.cpp:408] label_4_5x5_data_7_split -> label_4_5x5_data_7_split_1
I0918 11:15:02.536679  4514 net.cpp:150] Setting up label_4_5x5_data_7_split
I0918 11:15:02.536686  4514 net.cpp:157] Top shape: 3 6 12 12 (2592)
I0918 11:15:02.536691  4514 net.cpp:157] Top shape: 3 6 12 12 (2592)
I0918 11:15:02.536695  4514 net.cpp:165] Memory required for data: 33568156
I0918 11:15:02.536698  4514 layer_factory.hpp:77] Creating layer slice
I0918 11:15:02.536710  4514 net.cpp:100] Creating Layer slice
I0918 11:15:02.536715  4514 net.cpp:434] slice <- data
I0918 11:15:02.536720  4514 net.cpp:408] slice -> data123
I0918 11:15:02.536729  4514 net.cpp:408] slice -> ch4
I0918 11:15:02.536759  4514 net.cpp:150] Setting up slice
I0918 11:15:02.536767  4514 net.cpp:157] Top shape: 3 3 768 768 (5308416)
I0918 11:15:02.536770  4514 net.cpp:157] Top shape: 3 1 768 768 (1769472)
I0918 11:15:02.536774  4514 net.cpp:165] Memory required for data: 61879708
I0918 11:15:02.536777  4514 layer_factory.hpp:77] Creating layer conv1_1
I0918 11:15:02.536790  4514 net.cpp:100] Creating Layer conv1_1
I0918 11:15:02.536794  4514 net.cpp:434] conv1_1 <- data123
I0918 11:15:02.536799  4514 net.cpp:408] conv1_1 -> conv1_1
I0918 11:15:02.932533  4514 net.cpp:150] Setting up conv1_1
I0918 11:15:02.932562  4514 net.cpp:157] Top shape: 3 64 768 768 (113246208)
I0918 11:15:02.932567  4514 net.cpp:165] Memory required for data: 514864540
I0918 11:15:02.932587  4514 layer_factory.hpp:77] Creating layer relu1_1
I0918 11:15:02.932600  4514 net.cpp:100] Creating Layer relu1_1
I0918 11:15:02.932606  4514 net.cpp:434] relu1_1 <- conv1_1
I0918 11:15:02.932613  4514 net.cpp:395] relu1_1 -> conv1_1 (in-place)
I0918 11:15:02.932850  4514 net.cpp:150] Setting up relu1_1
I0918 11:15:02.932862  4514 net.cpp:157] Top shape: 3 64 768 768 (113246208)
I0918 11:15:02.932865  4514 net.cpp:165] Memory required for data: 967849372
I0918 11:15:02.932870  4514 layer_factory.hpp:77] Creating layer conv1_2
I0918 11:15:02.932880  4514 net.cpp:100] Creating Layer conv1_2
I0918 11:15:02.932885  4514 net.cpp:434] conv1_2 <- conv1_1
I0918 11:15:02.932891  4514 net.cpp:408] conv1_2 -> conv1_2
I0918 11:15:02.935420  4514 net.cpp:150] Setting up conv1_2
I0918 11:15:02.935437  4514 net.cpp:157] Top shape: 3 64 768 768 (113246208)
I0918 11:15:02.935442  4514 net.cpp:165] Memory required for data: 1420834204
I0918 11:15:02.935453  4514 layer_factory.hpp:77] Creating layer relu1_2
I0918 11:15:02.935461  4514 net.cpp:100] Creating Layer relu1_2
I0918 11:15:02.935465  4514 net.cpp:434] relu1_2 <- conv1_2
I0918 11:15:02.935472  4514 net.cpp:395] relu1_2 -> conv1_2 (in-place)
I0918 11:15:02.935648  4514 net.cpp:150] Setting up relu1_2
I0918 11:15:02.935658  4514 net.cpp:157] Top shape: 3 64 768 768 (113246208)
I0918 11:15:02.935662  4514 net.cpp:165] Memory required for data: 1873819036
I0918 11:15:02.935667  4514 layer_factory.hpp:77] Creating layer pool1
I0918 11:15:02.935674  4514 net.cpp:100] Creating Layer pool1
I0918 11:15:02.935678  4514 net.cpp:434] pool1 <- conv1_2
I0918 11:15:02.935685  4514 net.cpp:408] pool1 -> pool1
I0918 11:15:02.935734  4514 net.cpp:150] Setting up pool1
I0918 11:15:02.935741  4514 net.cpp:157] Top shape: 3 64 384 384 (28311552)
I0918 11:15:02.935745  4514 net.cpp:165] Memory required for data: 1987065244
I0918 11:15:02.935750  4514 layer_factory.hpp:77] Creating layer ch4_pool1
I0918 11:15:02.935755  4514 net.cpp:100] Creating Layer ch4_pool1
I0918 11:15:02.935760  4514 net.cpp:434] ch4_pool1 <- ch4
I0918 11:15:02.935765  4514 net.cpp:408] ch4_pool1 -> ch4_pool1
I0918 11:15:02.935796  4514 net.cpp:150] Setting up ch4_pool1
I0918 11:15:02.935803  4514 net.cpp:157] Top shape: 3 1 384 384 (442368)
I0918 11:15:02.935806  4514 net.cpp:165] Memory required for data: 1988834716
I0918 11:15:02.935811  4514 layer_factory.hpp:77] Creating layer ch4_pool1_ch4_pool1_0_split
I0918 11:15:02.935817  4514 net.cpp:100] Creating Layer ch4_pool1_ch4_pool1_0_split
I0918 11:15:02.935822  4514 net.cpp:434] ch4_pool1_ch4_pool1_0_split <- ch4_pool1
I0918 11:15:02.935827  4514 net.cpp:408] ch4_pool1_ch4_pool1_0_split -> ch4_pool1_ch4_pool1_0_split_0
I0918 11:15:02.935833  4514 net.cpp:408] ch4_pool1_ch4_pool1_0_split -> ch4_pool1_ch4_pool1_0_split_1
I0918 11:15:02.935865  4514 net.cpp:150] Setting up ch4_pool1_ch4_pool1_0_split
I0918 11:15:02.935873  4514 net.cpp:157] Top shape: 3 1 384 384 (442368)
I0918 11:15:02.935876  4514 net.cpp:157] Top shape: 3 1 384 384 (442368)
I0918 11:15:02.935880  4514 net.cpp:165] Memory required for data: 1992373660
I0918 11:15:02.935884  4514 layer_factory.hpp:77] Creating layer pool1_concat
I0918 11:15:02.935896  4514 net.cpp:100] Creating Layer pool1_concat
I0918 11:15:02.935901  4514 net.cpp:434] pool1_concat <- pool1
I0918 11:15:02.935906  4514 net.cpp:434] pool1_concat <- ch4_pool1_ch4_pool1_0_split_0
I0918 11:15:02.935912  4514 net.cpp:408] pool1_concat -> pool1_new
I0918 11:15:02.936385  4514 net.cpp:150] Setting up pool1_concat
I0918 11:15:02.936395  4514 net.cpp:157] Top shape: 3 65 384 384 (28753920)
I0918 11:15:02.936399  4514 net.cpp:165] Memory required for data: 2107389340
I0918 11:15:02.936403  4514 layer_factory.hpp:77] Creating layer conv2_1_new
I0918 11:15:02.936412  4514 net.cpp:100] Creating Layer conv2_1_new
I0918 11:15:02.936416  4514 net.cpp:434] conv2_1_new <- pool1_new
I0918 11:15:02.936422  4514 net.cpp:408] conv2_1_new -> conv2_1
I0918 11:15:02.938787  4514 net.cpp:150] Setting up conv2_1_new
I0918 11:15:02.938804  4514 net.cpp:157] Top shape: 3 128 384 384 (56623104)
I0918 11:15:02.938809  4514 net.cpp:165] Memory required for data: 2333881756
I0918 11:15:02.938819  4514 layer_factory.hpp:77] Creating layer relu2_1
I0918 11:15:02.938828  4514 net.cpp:100] Creating Layer relu2_1
I0918 11:15:02.938833  4514 net.cpp:434] relu2_1 <- conv2_1
I0918 11:15:02.938838  4514 net.cpp:395] relu2_1 -> conv2_1 (in-place)
I0918 11:15:02.939008  4514 net.cpp:150] Setting up relu2_1
I0918 11:15:02.939018  4514 net.cpp:157] Top shape: 3 128 384 384 (56623104)
I0918 11:15:02.939023  4514 net.cpp:165] Memory required for data: 2560374172
I0918 11:15:02.939028  4514 layer_factory.hpp:77] Creating layer conv2_2
I0918 11:15:02.939035  4514 net.cpp:100] Creating Layer conv2_2
I0918 11:15:02.939040  4514 net.cpp:434] conv2_2 <- conv2_1
I0918 11:15:02.939046  4514 net.cpp:408] conv2_2 -> conv2_2
I0918 11:15:02.940577  4514 net.cpp:150] Setting up conv2_2
I0918 11:15:02.940591  4514 net.cpp:157] Top shape: 3 128 384 384 (56623104)
I0918 11:15:02.940595  4514 net.cpp:165] Memory required for data: 2786866588
I0918 11:15:02.940603  4514 layer_factory.hpp:77] Creating layer relu2_2
I0918 11:15:02.940609  4514 net.cpp:100] Creating Layer relu2_2
I0918 11:15:02.940613  4514 net.cpp:434] relu2_2 <- conv2_2
I0918 11:15:02.940620  4514 net.cpp:395] relu2_2 -> conv2_2 (in-place)
I0918 11:15:02.940800  4514 net.cpp:150] Setting up relu2_2
I0918 11:15:02.940810  4514 net.cpp:157] Top shape: 3 128 384 384 (56623104)
I0918 11:15:02.940814  4514 net.cpp:165] Memory required for data: 3013359004
I0918 11:15:02.940819  4514 layer_factory.hpp:77] Creating layer pool2
I0918 11:15:02.940825  4514 net.cpp:100] Creating Layer pool2
I0918 11:15:02.940829  4514 net.cpp:434] pool2 <- conv2_2
I0918 11:15:02.940835  4514 net.cpp:408] pool2 -> pool2
I0918 11:15:02.940874  4514 net.cpp:150] Setting up pool2
I0918 11:15:02.940882  4514 net.cpp:157] Top shape: 3 128 192 192 (14155776)
I0918 11:15:02.940886  4514 net.cpp:165] Memory required for data: 3069982108
I0918 11:15:02.940889  4514 layer_factory.hpp:77] Creating layer ch4_pool2
I0918 11:15:02.940896  4514 net.cpp:100] Creating Layer ch4_pool2
I0918 11:15:02.940901  4514 net.cpp:434] ch4_pool2 <- ch4_pool1_ch4_pool1_0_split_1
I0918 11:15:02.940907  4514 net.cpp:408] ch4_pool2 -> ch4_pool2
I0918 11:15:02.940943  4514 net.cpp:150] Setting up ch4_pool2
I0918 11:15:02.940950  4514 net.cpp:157] Top shape: 3 1 192 192 (110592)
I0918 11:15:02.940953  4514 net.cpp:165] Memory required for data: 3070424476
I0918 11:15:02.940958  4514 layer_factory.hpp:77] Creating layer ch4_pool2_ch4_pool2_0_split
I0918 11:15:02.940963  4514 net.cpp:100] Creating Layer ch4_pool2_ch4_pool2_0_split
I0918 11:15:02.940968  4514 net.cpp:434] ch4_pool2_ch4_pool2_0_split <- ch4_pool2
I0918 11:15:02.940973  4514 net.cpp:408] ch4_pool2_ch4_pool2_0_split -> ch4_pool2_ch4_pool2_0_split_0
I0918 11:15:02.940979  4514 net.cpp:408] ch4_pool2_ch4_pool2_0_split -> ch4_pool2_ch4_pool2_0_split_1
I0918 11:15:02.940985  4514 net.cpp:408] ch4_pool2_ch4_pool2_0_split -> ch4_pool2_ch4_pool2_0_split_2
I0918 11:15:02.941032  4514 net.cpp:150] Setting up ch4_pool2_ch4_pool2_0_split
I0918 11:15:02.941040  4514 net.cpp:157] Top shape: 3 1 192 192 (110592)
I0918 11:15:02.941045  4514 net.cpp:157] Top shape: 3 1 192 192 (110592)
I0918 11:15:02.941049  4514 net.cpp:157] Top shape: 3 1 192 192 (110592)
I0918 11:15:02.941053  4514 net.cpp:165] Memory required for data: 3071751580
I0918 11:15:02.941057  4514 layer_factory.hpp:77] Creating layer pool2_concat
I0918 11:15:02.941062  4514 net.cpp:100] Creating Layer pool2_concat
I0918 11:15:02.941066  4514 net.cpp:434] pool2_concat <- pool2
I0918 11:15:02.941071  4514 net.cpp:434] pool2_concat <- ch4_pool2_ch4_pool2_0_split_0
I0918 11:15:02.941077  4514 net.cpp:408] pool2_concat -> pool2_new
I0918 11:15:02.941098  4514 net.cpp:150] Setting up pool2_concat
I0918 11:15:02.941105  4514 net.cpp:157] Top shape: 3 129 192 192 (14266368)
I0918 11:15:02.941108  4514 net.cpp:165] Memory required for data: 3128817052
I0918 11:15:02.941112  4514 layer_factory.hpp:77] Creating layer conv3_1_new
I0918 11:15:02.941121  4514 net.cpp:100] Creating Layer conv3_1_new
I0918 11:15:02.941125  4514 net.cpp:434] conv3_1_new <- pool2_new
I0918 11:15:02.941131  4514 net.cpp:408] conv3_1_new -> conv3_1
I0918 11:15:02.943815  4514 net.cpp:150] Setting up conv3_1_new
I0918 11:15:02.943832  4514 net.cpp:157] Top shape: 3 256 192 192 (28311552)
I0918 11:15:02.943836  4514 net.cpp:165] Memory required for data: 3242063260
I0918 11:15:02.943850  4514 layer_factory.hpp:77] Creating layer relu3_1
I0918 11:15:02.943857  4514 net.cpp:100] Creating Layer relu3_1
I0918 11:15:02.943862  4514 net.cpp:434] relu3_1 <- conv3_1
I0918 11:15:02.943867  4514 net.cpp:395] relu3_1 -> conv3_1 (in-place)
I0918 11:15:02.944362  4514 net.cpp:150] Setting up relu3_1
I0918 11:15:02.944377  4514 net.cpp:157] Top shape: 3 256 192 192 (28311552)
I0918 11:15:02.944381  4514 net.cpp:165] Memory required for data: 3355309468
I0918 11:15:02.944386  4514 layer_factory.hpp:77] Creating layer conv3_2
I0918 11:15:02.944396  4514 net.cpp:100] Creating Layer conv3_2
I0918 11:15:02.944399  4514 net.cpp:434] conv3_2 <- conv3_1
I0918 11:15:02.944406  4514 net.cpp:408] conv3_2 -> conv3_2
I0918 11:15:02.948684  4514 net.cpp:150] Setting up conv3_2
I0918 11:15:02.948731  4514 net.cpp:157] Top shape: 3 256 192 192 (28311552)
I0918 11:15:02.948741  4514 net.cpp:165] Memory required for data: 3468555676
I0918 11:15:02.948762  4514 layer_factory.hpp:77] Creating layer relu3_2
I0918 11:15:02.948783  4514 net.cpp:100] Creating Layer relu3_2
I0918 11:15:02.948796  4514 net.cpp:434] relu3_2 <- conv3_2
I0918 11:15:02.948813  4514 net.cpp:395] relu3_2 -> conv3_2 (in-place)
I0918 11:15:02.949818  4514 net.cpp:150] Setting up relu3_2
I0918 11:15:02.949838  4514 net.cpp:157] Top shape: 3 256 192 192 (28311552)
I0918 11:15:02.949844  4514 net.cpp:165] Memory required for data: 3581801884
I0918 11:15:02.949851  4514 layer_factory.hpp:77] Creating layer conv3_3
I0918 11:15:02.949862  4514 net.cpp:100] Creating Layer conv3_3
I0918 11:15:02.949868  4514 net.cpp:434] conv3_3 <- conv3_2
I0918 11:15:02.949875  4514 net.cpp:408] conv3_3 -> conv3_3
I0918 11:15:02.952811  4514 net.cpp:150] Setting up conv3_3
I0918 11:15:02.952827  4514 net.cpp:157] Top shape: 3 256 192 192 (28311552)
I0918 11:15:02.952832  4514 net.cpp:165] Memory required for data: 3695048092
I0918 11:15:02.952842  4514 layer_factory.hpp:77] Creating layer relu3_3
I0918 11:15:02.952852  4514 net.cpp:100] Creating Layer relu3_3
I0918 11:15:02.952859  4514 net.cpp:434] relu3_3 <- conv3_3
I0918 11:15:02.952867  4514 net.cpp:395] relu3_3 -> conv3_3 (in-place)
I0918 11:15:02.953084  4514 net.cpp:150] Setting up relu3_3
I0918 11:15:02.953096  4514 net.cpp:157] Top shape: 3 256 192 192 (28311552)
I0918 11:15:02.953101  4514 net.cpp:165] Memory required for data: 3808294300
I0918 11:15:02.953106  4514 layer_factory.hpp:77] Creating layer pool3
I0918 11:15:02.953116  4514 net.cpp:100] Creating Layer pool3
I0918 11:15:02.953122  4514 net.cpp:434] pool3 <- conv3_3
I0918 11:15:02.953133  4514 net.cpp:408] pool3 -> pool3
I0918 11:15:02.953189  4514 net.cpp:150] Setting up pool3
I0918 11:15:02.953199  4514 net.cpp:157] Top shape: 3 256 96 96 (7077888)
I0918 11:15:02.953203  4514 net.cpp:165] Memory required for data: 3836605852
I0918 11:15:02.953208  4514 layer_factory.hpp:77] Creating layer ch4_pool3
I0918 11:15:02.953223  4514 net.cpp:100] Creating Layer ch4_pool3
I0918 11:15:02.953230  4514 net.cpp:434] ch4_pool3 <- ch4_pool2_ch4_pool2_0_split_1
I0918 11:15:02.953239  4514 net.cpp:408] ch4_pool3 -> ch4_pool3
I0918 11:15:02.953289  4514 net.cpp:150] Setting up ch4_pool3
I0918 11:15:02.953299  4514 net.cpp:157] Top shape: 3 1 96 96 (27648)
I0918 11:15:02.953305  4514 net.cpp:165] Memory required for data: 3836716444
I0918 11:15:02.953308  4514 layer_factory.hpp:77] Creating layer pool3_concat
I0918 11:15:02.953316  4514 net.cpp:100] Creating Layer pool3_concat
I0918 11:15:02.953321  4514 net.cpp:434] pool3_concat <- pool3
I0918 11:15:02.953327  4514 net.cpp:434] pool3_concat <- ch4_pool3
I0918 11:15:02.953335  4514 net.cpp:408] pool3_concat -> pool3_new
I0918 11:15:02.953362  4514 net.cpp:150] Setting up pool3_concat
I0918 11:15:02.953371  4514 net.cpp:157] Top shape: 3 257 96 96 (7105536)
I0918 11:15:02.953375  4514 net.cpp:165] Memory required for data: 3865138588
I0918 11:15:02.953379  4514 layer_factory.hpp:77] Creating layer conv4_1_new
I0918 11:15:02.953388  4514 net.cpp:100] Creating Layer conv4_1_new
I0918 11:15:02.953392  4514 net.cpp:434] conv4_1_new <- pool3_new
I0918 11:15:02.953400  4514 net.cpp:408] conv4_1_new -> conv4_1
I0918 11:15:02.960959  4514 net.cpp:150] Setting up conv4_1_new
I0918 11:15:02.960989  4514 net.cpp:157] Top shape: 3 512 96 96 (14155776)
I0918 11:15:02.960994  4514 net.cpp:165] Memory required for data: 3921761692
I0918 11:15:02.961004  4514 layer_factory.hpp:77] Creating layer relu4_1
I0918 11:15:02.961019  4514 net.cpp:100] Creating Layer relu4_1
I0918 11:15:02.961025  4514 net.cpp:434] relu4_1 <- conv4_1
I0918 11:15:02.961033  4514 net.cpp:395] relu4_1 -> conv4_1 (in-place)
I0918 11:15:02.961231  4514 net.cpp:150] Setting up relu4_1
I0918 11:15:02.961244  4514 net.cpp:157] Top shape: 3 512 96 96 (14155776)
I0918 11:15:02.961249  4514 net.cpp:165] Memory required for data: 3978384796
I0918 11:15:02.961254  4514 layer_factory.hpp:77] Creating layer conv4_2
I0918 11:15:02.961266  4514 net.cpp:100] Creating Layer conv4_2
I0918 11:15:02.961272  4514 net.cpp:434] conv4_2 <- conv4_1
I0918 11:15:02.961279  4514 net.cpp:408] conv4_2 -> conv4_2
I0918 11:15:02.971858  4514 net.cpp:150] Setting up conv4_2
I0918 11:15:02.971915  4514 net.cpp:157] Top shape: 3 512 96 96 (14155776)
I0918 11:15:02.971920  4514 net.cpp:165] Memory required for data: 4035007900
I0918 11:15:02.971949  4514 layer_factory.hpp:77] Creating layer relu4_2
I0918 11:15:02.971971  4514 net.cpp:100] Creating Layer relu4_2
I0918 11:15:02.971982  4514 net.cpp:434] relu4_2 <- conv4_2
I0918 11:15:02.971990  4514 net.cpp:395] relu4_2 -> conv4_2 (in-place)
I0918 11:15:02.972187  4514 net.cpp:150] Setting up relu4_2
I0918 11:15:02.972196  4514 net.cpp:157] Top shape: 3 512 96 96 (14155776)
I0918 11:15:02.972200  4514 net.cpp:165] Memory required for data: 4091631004
I0918 11:15:02.972204  4514 layer_factory.hpp:77] Creating layer conv4_3
I0918 11:15:02.972218  4514 net.cpp:100] Creating Layer conv4_3
I0918 11:15:02.972221  4514 net.cpp:434] conv4_3 <- conv4_2
I0918 11:15:02.972229  4514 net.cpp:408] conv4_3 -> conv4_3
I0918 11:15:02.979444  4514 net.cpp:150] Setting up conv4_3
I0918 11:15:02.979475  4514 net.cpp:157] Top shape: 3 512 96 96 (14155776)
I0918 11:15:02.979480  4514 net.cpp:165] Memory required for data: 4148254108
I0918 11:15:02.979488  4514 layer_factory.hpp:77] Creating layer relu4_3
I0918 11:15:02.979501  4514 net.cpp:100] Creating Layer relu4_3
I0918 11:15:02.979507  4514 net.cpp:434] relu4_3 <- conv4_3
I0918 11:15:02.979514  4514 net.cpp:395] relu4_3 -> conv4_3 (in-place)
I0918 11:15:02.979667  4514 net.cpp:150] Setting up relu4_3
I0918 11:15:02.979676  4514 net.cpp:157] Top shape: 3 512 96 96 (14155776)
I0918 11:15:02.979679  4514 net.cpp:165] Memory required for data: 4204877212
I0918 11:15:02.979682  4514 layer_factory.hpp:77] Creating layer conv4_3_relu4_3_0_split
I0918 11:15:02.979688  4514 net.cpp:100] Creating Layer conv4_3_relu4_3_0_split
I0918 11:15:02.979692  4514 net.cpp:434] conv4_3_relu4_3_0_split <- conv4_3
I0918 11:15:02.979698  4514 net.cpp:408] conv4_3_relu4_3_0_split -> conv4_3_relu4_3_0_split_0
I0918 11:15:02.979704  4514 net.cpp:408] conv4_3_relu4_3_0_split -> conv4_3_relu4_3_0_split_1
I0918 11:15:02.979709  4514 net.cpp:408] conv4_3_relu4_3_0_split -> conv4_3_relu4_3_0_split_2
I0918 11:15:02.979754  4514 net.cpp:150] Setting up conv4_3_relu4_3_0_split
I0918 11:15:02.979761  4514 net.cpp:157] Top shape: 3 512 96 96 (14155776)
I0918 11:15:02.979765  4514 net.cpp:157] Top shape: 3 512 96 96 (14155776)
I0918 11:15:02.979769  4514 net.cpp:157] Top shape: 3 512 96 96 (14155776)
I0918 11:15:02.979773  4514 net.cpp:165] Memory required for data: 4374746524
I0918 11:15:02.979775  4514 layer_factory.hpp:77] Creating layer loss1_conv1
I0918 11:15:02.979787  4514 net.cpp:100] Creating Layer loss1_conv1
I0918 11:15:02.979791  4514 net.cpp:434] loss1_conv1 <- conv4_3_relu4_3_0_split_0
I0918 11:15:02.979797  4514 net.cpp:408] loss1_conv1 -> loss1_conv1
I0918 11:15:03.043439  4514 net.cpp:150] Setting up loss1_conv1
I0918 11:15:03.043464  4514 net.cpp:157] Top shape: 3 512 96 96 (14155776)
I0918 11:15:03.043468  4514 net.cpp:165] Memory required for data: 4431369628
I0918 11:15:03.043475  4514 layer_factory.hpp:77] Creating layer loss_relu1
I0918 11:15:03.043488  4514 net.cpp:100] Creating Layer loss_relu1
I0918 11:15:03.043493  4514 net.cpp:434] loss_relu1 <- loss1_conv1
I0918 11:15:03.043498  4514 net.cpp:395] loss_relu1 -> loss1_conv1 (in-place)
I0918 11:15:03.043927  4514 net.cpp:150] Setting up loss_relu1
I0918 11:15:03.043939  4514 net.cpp:157] Top shape: 3 512 96 96 (14155776)
I0918 11:15:03.043943  4514 net.cpp:165] Memory required for data: 4487992732
I0918 11:15:03.043946  4514 layer_factory.hpp:77] Creating layer loss1_conv1_loss_relu1_0_split
I0918 11:15:03.043954  4514 net.cpp:100] Creating Layer loss1_conv1_loss_relu1_0_split
I0918 11:15:03.043957  4514 net.cpp:434] loss1_conv1_loss_relu1_0_split <- loss1_conv1
I0918 11:15:03.043962  4514 net.cpp:408] loss1_conv1_loss_relu1_0_split -> loss1_conv1_loss_relu1_0_split_0
I0918 11:15:03.043969  4514 net.cpp:408] loss1_conv1_loss_relu1_0_split -> loss1_conv1_loss_relu1_0_split_1
I0918 11:15:03.044004  4514 net.cpp:150] Setting up loss1_conv1_loss_relu1_0_split
I0918 11:15:03.044011  4514 net.cpp:157] Top shape: 3 512 96 96 (14155776)
I0918 11:15:03.044015  4514 net.cpp:157] Top shape: 3 512 96 96 (14155776)
I0918 11:15:03.044018  4514 net.cpp:165] Memory required for data: 4601238940
I0918 11:15:03.044021  4514 layer_factory.hpp:77] Creating layer LFCN_1_5x5
I0918 11:15:03.044031  4514 net.cpp:100] Creating Layer LFCN_1_5x5
I0918 11:15:03.044034  4514 net.cpp:434] LFCN_1_5x5 <- loss1_conv1_loss_relu1_0_split_0
I0918 11:15:03.044041  4514 net.cpp:408] LFCN_1_5x5 -> LFCN_1_5x5
I0918 11:15:03.047699  4514 net.cpp:150] Setting up LFCN_1_5x5
I0918 11:15:03.047711  4514 net.cpp:157] Top shape: 3 9 96 96 (248832)
I0918 11:15:03.047715  4514 net.cpp:165] Memory required for data: 4602234268
I0918 11:15:03.047722  4514 layer_factory.hpp:77] Creating layer LFCN_1_5x5_LFCN_1_5x5_0_split
I0918 11:15:03.047729  4514 net.cpp:100] Creating Layer LFCN_1_5x5_LFCN_1_5x5_0_split
I0918 11:15:03.047732  4514 net.cpp:434] LFCN_1_5x5_LFCN_1_5x5_0_split <- LFCN_1_5x5
I0918 11:15:03.047739  4514 net.cpp:408] LFCN_1_5x5_LFCN_1_5x5_0_split -> LFCN_1_5x5_LFCN_1_5x5_0_split_0
I0918 11:15:03.047744  4514 net.cpp:408] LFCN_1_5x5_LFCN_1_5x5_0_split -> LFCN_1_5x5_LFCN_1_5x5_0_split_1
I0918 11:15:03.047750  4514 net.cpp:408] LFCN_1_5x5_LFCN_1_5x5_0_split -> LFCN_1_5x5_LFCN_1_5x5_0_split_2
I0918 11:15:03.047796  4514 net.cpp:150] Setting up LFCN_1_5x5_LFCN_1_5x5_0_split
I0918 11:15:03.047801  4514 net.cpp:157] Top shape: 3 9 96 96 (248832)
I0918 11:15:03.047806  4514 net.cpp:157] Top shape: 3 9 96 96 (248832)
I0918 11:15:03.047809  4514 net.cpp:157] Top shape: 3 9 96 96 (248832)
I0918 11:15:03.047812  4514 net.cpp:165] Memory required for data: 4605220252
I0918 11:15:03.047816  4514 layer_factory.hpp:77] Creating layer detection_loss_1_5x5
I0918 11:15:03.048302  4514 net.cpp:100] Creating Layer detection_loss_1_5x5
I0918 11:15:03.048310  4514 net.cpp:434] detection_loss_1_5x5 <- LFCN_1_5x5_LFCN_1_5x5_0_split_0
I0918 11:15:03.048316  4514 net.cpp:434] detection_loss_1_5x5 <- label_1_5x5_data_1_split_0
I0918 11:15:03.048321  4514 net.cpp:408] detection_loss_1_5x5 -> loss_1_5x5
I0918 11:15:03.048336  4514 layer_factory.hpp:77] Creating layer detection_loss_1_5x5
I0918 11:15:03.051235  4514 net.cpp:150] Setting up detection_loss_1_5x5
I0918 11:15:03.051293  4514 net.cpp:157] Top shape: 1 1 1 2 (2)
I0918 11:15:03.051297  4514 net.cpp:160]     with loss weight 0.9
I0918 11:15:03.051328  4514 net.cpp:165] Memory required for data: 4605220260
I0918 11:15:03.051334  4514 layer_factory.hpp:77] Creating layer detection_accuracy_1_5x5
I0918 11:15:03.051353  4514 net.cpp:100] Creating Layer detection_accuracy_1_5x5
I0918 11:15:03.051360  4514 net.cpp:434] detection_accuracy_1_5x5 <- LFCN_1_5x5_LFCN_1_5x5_0_split_1
I0918 11:15:03.051368  4514 net.cpp:434] detection_accuracy_1_5x5 <- label_1_5x5_data_1_split_1
I0918 11:15:03.051375  4514 net.cpp:408] detection_accuracy_1_5x5 -> accuracy_1_5x5
I0918 11:15:03.051390  4514 net.cpp:408] detection_accuracy_1_5x5 -> boxiou_1_5x5
I0918 11:15:03.051440  4514 net.cpp:150] Setting up detection_accuracy_1_5x5
I0918 11:15:03.051447  4514 net.cpp:157] Top shape: 1 1 1 2 (2)
I0918 11:15:03.051451  4514 net.cpp:157] Top shape: 1 1 1 1 (1)
I0918 11:15:03.051455  4514 net.cpp:165] Memory required for data: 4605220272
I0918 11:15:03.051457  4514 layer_factory.hpp:77] Creating layer LFCN_1_7x7
I0918 11:15:03.051475  4514 net.cpp:100] Creating Layer LFCN_1_7x7
I0918 11:15:03.051482  4514 net.cpp:434] LFCN_1_7x7 <- loss1_conv1_loss_relu1_0_split_1
I0918 11:15:03.051488  4514 net.cpp:408] LFCN_1_7x7 -> LFCN_1_7x7
I0918 11:15:03.058401  4514 net.cpp:150] Setting up LFCN_1_7x7
I0918 11:15:03.058416  4514 net.cpp:157] Top shape: 3 9 96 96 (248832)
I0918 11:15:03.058420  4514 net.cpp:165] Memory required for data: 4606215600
I0918 11:15:03.058429  4514 layer_factory.hpp:77] Creating layer LFCN_1_7x7_LFCN_1_7x7_0_split
I0918 11:15:03.058437  4514 net.cpp:100] Creating Layer LFCN_1_7x7_LFCN_1_7x7_0_split
I0918 11:15:03.058441  4514 net.cpp:434] LFCN_1_7x7_LFCN_1_7x7_0_split <- LFCN_1_7x7
I0918 11:15:03.058446  4514 net.cpp:408] LFCN_1_7x7_LFCN_1_7x7_0_split -> LFCN_1_7x7_LFCN_1_7x7_0_split_0
I0918 11:15:03.058454  4514 net.cpp:408] LFCN_1_7x7_LFCN_1_7x7_0_split -> LFCN_1_7x7_LFCN_1_7x7_0_split_1
I0918 11:15:03.058465  4514 net.cpp:408] LFCN_1_7x7_LFCN_1_7x7_0_split -> LFCN_1_7x7_LFCN_1_7x7_0_split_2
I0918 11:15:03.058511  4514 net.cpp:150] Setting up LFCN_1_7x7_LFCN_1_7x7_0_split
I0918 11:15:03.058516  4514 net.cpp:157] Top shape: 3 9 96 96 (248832)
I0918 11:15:03.058519  4514 net.cpp:157] Top shape: 3 9 96 96 (248832)
I0918 11:15:03.058523  4514 net.cpp:157] Top shape: 3 9 96 96 (248832)
I0918 11:15:03.058526  4514 net.cpp:165] Memory required for data: 4609201584
I0918 11:15:03.058531  4514 layer_factory.hpp:77] Creating layer detection_loss_1_7x7
I0918 11:15:03.058537  4514 net.cpp:100] Creating Layer detection_loss_1_7x7
I0918 11:15:03.058540  4514 net.cpp:434] detection_loss_1_7x7 <- LFCN_1_7x7_LFCN_1_7x7_0_split_0
I0918 11:15:03.058545  4514 net.cpp:434] detection_loss_1_7x7 <- label_1_7x7_data_2_split_0
I0918 11:15:03.058552  4514 net.cpp:408] detection_loss_1_7x7 -> loss_1_7x7
I0918 11:15:03.058559  4514 layer_factory.hpp:77] Creating layer detection_loss_1_7x7
I0918 11:15:03.058929  4514 net.cpp:150] Setting up detection_loss_1_7x7
I0918 11:15:03.058939  4514 net.cpp:157] Top shape: 1 1 1 2 (2)
I0918 11:15:03.058943  4514 net.cpp:160]     with loss weight 0.9
I0918 11:15:03.058951  4514 net.cpp:165] Memory required for data: 4609201592
I0918 11:15:03.058955  4514 layer_factory.hpp:77] Creating layer detection_accuracy_1_7x7
I0918 11:15:03.058964  4514 net.cpp:100] Creating Layer detection_accuracy_1_7x7
I0918 11:15:03.058966  4514 net.cpp:434] detection_accuracy_1_7x7 <- LFCN_1_7x7_LFCN_1_7x7_0_split_1
I0918 11:15:03.058971  4514 net.cpp:434] detection_accuracy_1_7x7 <- label_1_7x7_data_2_split_1
I0918 11:15:03.058975  4514 net.cpp:408] detection_accuracy_1_7x7 -> accuracy_1_7x7
I0918 11:15:03.058984  4514 net.cpp:408] detection_accuracy_1_7x7 -> boxiou_1_7x7
I0918 11:15:03.059017  4514 net.cpp:150] Setting up detection_accuracy_1_7x7
I0918 11:15:03.059023  4514 net.cpp:157] Top shape: 1 1 1 2 (2)
I0918 11:15:03.059027  4514 net.cpp:157] Top shape: 1 1 1 1 (1)
I0918 11:15:03.059031  4514 net.cpp:165] Memory required for data: 4609201604
I0918 11:15:03.059033  4514 layer_factory.hpp:77] Creating layer pool4
I0918 11:15:03.059041  4514 net.cpp:100] Creating Layer pool4
I0918 11:15:03.059044  4514 net.cpp:434] pool4 <- conv4_3_relu4_3_0_split_1
I0918 11:15:03.059049  4514 net.cpp:408] pool4 -> pool4
I0918 11:15:03.059082  4514 net.cpp:150] Setting up pool4
I0918 11:15:03.059087  4514 net.cpp:157] Top shape: 3 512 48 48 (3538944)
I0918 11:15:03.059090  4514 net.cpp:165] Memory required for data: 4623357380
I0918 11:15:03.059093  4514 layer_factory.hpp:77] Creating layer conv5_1
I0918 11:15:03.059103  4514 net.cpp:100] Creating Layer conv5_1
I0918 11:15:03.059105  4514 net.cpp:434] conv5_1 <- pool4
I0918 11:15:03.059110  4514 net.cpp:408] conv5_1 -> conv5_1
I0918 11:15:03.068527  4514 net.cpp:150] Setting up conv5_1
I0918 11:15:03.068572  4514 net.cpp:157] Top shape: 3 512 48 48 (3538944)
I0918 11:15:03.068576  4514 net.cpp:165] Memory required for data: 4637513156
I0918 11:15:03.068589  4514 layer_factory.hpp:77] Creating layer relu5_1
I0918 11:15:03.068608  4514 net.cpp:100] Creating Layer relu5_1
I0918 11:15:03.068614  4514 net.cpp:434] relu5_1 <- conv5_1
I0918 11:15:03.068622  4514 net.cpp:395] relu5_1 -> conv5_1 (in-place)
I0918 11:15:03.068847  4514 net.cpp:150] Setting up relu5_1
I0918 11:15:03.068858  4514 net.cpp:157] Top shape: 3 512 48 48 (3538944)
I0918 11:15:03.068861  4514 net.cpp:165] Memory required for data: 4651668932
I0918 11:15:03.068866  4514 layer_factory.hpp:77] Creating layer conv5_2
I0918 11:15:03.068874  4514 net.cpp:100] Creating Layer conv5_2
I0918 11:15:03.068878  4514 net.cpp:434] conv5_2 <- conv5_1
I0918 11:15:03.068883  4514 net.cpp:408] conv5_2 -> conv5_2
I0918 11:15:03.074870  4514 net.cpp:150] Setting up conv5_2
I0918 11:15:03.074898  4514 net.cpp:157] Top shape: 3 512 48 48 (3538944)
I0918 11:15:03.074903  4514 net.cpp:165] Memory required for data: 4665824708
I0918 11:15:03.074911  4514 layer_factory.hpp:77] Creating layer relu5_2
I0918 11:15:03.074924  4514 net.cpp:100] Creating Layer relu5_2
I0918 11:15:03.074931  4514 net.cpp:434] relu5_2 <- conv5_2
I0918 11:15:03.074937  4514 net.cpp:395] relu5_2 -> conv5_2 (in-place)
I0918 11:15:03.075098  4514 net.cpp:150] Setting up relu5_2
I0918 11:15:03.075105  4514 net.cpp:157] Top shape: 3 512 48 48 (3538944)
I0918 11:15:03.075109  4514 net.cpp:165] Memory required for data: 4679980484
I0918 11:15:03.075112  4514 layer_factory.hpp:77] Creating layer conv5_3
I0918 11:15:03.075122  4514 net.cpp:100] Creating Layer conv5_3
I0918 11:15:03.075126  4514 net.cpp:434] conv5_3 <- conv5_2
I0918 11:15:03.075132  4514 net.cpp:408] conv5_3 -> conv5_3
I0918 11:15:03.081918  4514 net.cpp:150] Setting up conv5_3
I0918 11:15:03.081966  4514 net.cpp:157] Top shape: 3 512 48 48 (3538944)
I0918 11:15:03.081971  4514 net.cpp:165] Memory required for data: 4694136260
I0918 11:15:03.081984  4514 layer_factory.hpp:77] Creating layer relu5_3
I0918 11:15:03.082001  4514 net.cpp:100] Creating Layer relu5_3
I0918 11:15:03.082010  4514 net.cpp:434] relu5_3 <- conv5_3
I0918 11:15:03.082016  4514 net.cpp:395] relu5_3 -> conv5_3 (in-place)
I0918 11:15:03.082195  4514 net.cpp:150] Setting up relu5_3
I0918 11:15:03.082206  4514 net.cpp:157] Top shape: 3 512 48 48 (3538944)
I0918 11:15:03.082211  4514 net.cpp:165] Memory required for data: 4708292036
I0918 11:15:03.082213  4514 layer_factory.hpp:77] Creating layer conv5_3_relu5_3_0_split
I0918 11:15:03.082221  4514 net.cpp:100] Creating Layer conv5_3_relu5_3_0_split
I0918 11:15:03.082224  4514 net.cpp:434] conv5_3_relu5_3_0_split <- conv5_3
I0918 11:15:03.082232  4514 net.cpp:408] conv5_3_relu5_3_0_split -> conv5_3_relu5_3_0_split_0
I0918 11:15:03.082238  4514 net.cpp:408] conv5_3_relu5_3_0_split -> conv5_3_relu5_3_0_split_1
I0918 11:15:03.082243  4514 net.cpp:408] conv5_3_relu5_3_0_split -> conv5_3_relu5_3_0_split_2
I0918 11:15:03.082290  4514 net.cpp:150] Setting up conv5_3_relu5_3_0_split
I0918 11:15:03.082296  4514 net.cpp:157] Top shape: 3 512 48 48 (3538944)
I0918 11:15:03.082300  4514 net.cpp:157] Top shape: 3 512 48 48 (3538944)
I0918 11:15:03.082304  4514 net.cpp:157] Top shape: 3 512 48 48 (3538944)
I0918 11:15:03.082307  4514 net.cpp:165] Memory required for data: 4750759364
I0918 11:15:03.082311  4514 layer_factory.hpp:77] Creating layer LFCN_2_5x5
I0918 11:15:03.082327  4514 net.cpp:100] Creating Layer LFCN_2_5x5
I0918 11:15:03.082331  4514 net.cpp:434] LFCN_2_5x5 <- conv5_3_relu5_3_0_split_0
I0918 11:15:03.082337  4514 net.cpp:408] LFCN_2_5x5 -> LFCN_2_5x5
I0918 11:15:03.089620  4514 net.cpp:150] Setting up LFCN_2_5x5
I0918 11:15:03.089670  4514 net.cpp:157] Top shape: 3 9 48 48 (62208)
I0918 11:15:03.089675  4514 net.cpp:165] Memory required for data: 4751008196
I0918 11:15:03.089700  4514 layer_factory.hpp:77] Creating layer LFCN_2_5x5_LFCN_2_5x5_0_split
I0918 11:15:03.089718  4514 net.cpp:100] Creating Layer LFCN_2_5x5_LFCN_2_5x5_0_split
I0918 11:15:03.089726  4514 net.cpp:434] LFCN_2_5x5_LFCN_2_5x5_0_split <- LFCN_2_5x5
I0918 11:15:03.089733  4514 net.cpp:408] LFCN_2_5x5_LFCN_2_5x5_0_split -> LFCN_2_5x5_LFCN_2_5x5_0_split_0
I0918 11:15:03.089745  4514 net.cpp:408] LFCN_2_5x5_LFCN_2_5x5_0_split -> LFCN_2_5x5_LFCN_2_5x5_0_split_1
I0918 11:15:03.089751  4514 net.cpp:408] LFCN_2_5x5_LFCN_2_5x5_0_split -> LFCN_2_5x5_LFCN_2_5x5_0_split_2
I0918 11:15:03.089799  4514 net.cpp:150] Setting up LFCN_2_5x5_LFCN_2_5x5_0_split
I0918 11:15:03.089807  4514 net.cpp:157] Top shape: 3 9 48 48 (62208)
I0918 11:15:03.089810  4514 net.cpp:157] Top shape: 3 9 48 48 (62208)
I0918 11:15:03.089814  4514 net.cpp:157] Top shape: 3 9 48 48 (62208)
I0918 11:15:03.089818  4514 net.cpp:165] Memory required for data: 4751754692
I0918 11:15:03.089820  4514 layer_factory.hpp:77] Creating layer detection_loss_2_5x5
I0918 11:15:03.089831  4514 net.cpp:100] Creating Layer detection_loss_2_5x5
I0918 11:15:03.089834  4514 net.cpp:434] detection_loss_2_5x5 <- LFCN_2_5x5_LFCN_2_5x5_0_split_0
I0918 11:15:03.089840  4514 net.cpp:434] detection_loss_2_5x5 <- label_2_5x5_data_3_split_0
I0918 11:15:03.089846  4514 net.cpp:408] detection_loss_2_5x5 -> loss_2_5x5
I0918 11:15:03.089857  4514 layer_factory.hpp:77] Creating layer detection_loss_2_5x5
I0918 11:15:03.090698  4514 net.cpp:150] Setting up detection_loss_2_5x5
I0918 11:15:03.090711  4514 net.cpp:157] Top shape: 1 1 1 2 (2)
I0918 11:15:03.090714  4514 net.cpp:160]     with loss weight 1
I0918 11:15:03.090726  4514 net.cpp:165] Memory required for data: 4751754700
I0918 11:15:03.090729  4514 layer_factory.hpp:77] Creating layer detection_accuracy_2_5x5
I0918 11:15:03.090736  4514 net.cpp:100] Creating Layer detection_accuracy_2_5x5
I0918 11:15:03.090740  4514 net.cpp:434] detection_accuracy_2_5x5 <- LFCN_2_5x5_LFCN_2_5x5_0_split_1
I0918 11:15:03.090745  4514 net.cpp:434] detection_accuracy_2_5x5 <- label_2_5x5_data_3_split_1
I0918 11:15:03.090751  4514 net.cpp:408] detection_accuracy_2_5x5 -> accuracy_2_5x5
I0918 11:15:03.090759  4514 net.cpp:408] detection_accuracy_2_5x5 -> boxiou_2_5x5
I0918 11:15:03.090796  4514 net.cpp:150] Setting up detection_accuracy_2_5x5
I0918 11:15:03.090803  4514 net.cpp:157] Top shape: 1 1 1 2 (2)
I0918 11:15:03.090807  4514 net.cpp:157] Top shape: 1 1 1 1 (1)
I0918 11:15:03.090811  4514 net.cpp:165] Memory required for data: 4751754712
I0918 11:15:03.090813  4514 layer_factory.hpp:77] Creating layer LFCN_2_7x7
I0918 11:15:03.090831  4514 net.cpp:100] Creating Layer LFCN_2_7x7
I0918 11:15:03.090837  4514 net.cpp:434] LFCN_2_7x7 <- conv5_3_relu5_3_0_split_1
I0918 11:15:03.090842  4514 net.cpp:408] LFCN_2_7x7 -> LFCN_2_7x7
I0918 11:15:03.097236  4514 net.cpp:150] Setting up LFCN_2_7x7
I0918 11:15:03.097250  4514 net.cpp:157] Top shape: 3 9 48 48 (62208)
I0918 11:15:03.097254  4514 net.cpp:165] Memory required for data: 4752003544
I0918 11:15:03.097262  4514 layer_factory.hpp:77] Creating layer LFCN_2_7x7_LFCN_2_7x7_0_split
I0918 11:15:03.097270  4514 net.cpp:100] Creating Layer LFCN_2_7x7_LFCN_2_7x7_0_split
I0918 11:15:03.097272  4514 net.cpp:434] LFCN_2_7x7_LFCN_2_7x7_0_split <- LFCN_2_7x7
I0918 11:15:03.097280  4514 net.cpp:408] LFCN_2_7x7_LFCN_2_7x7_0_split -> LFCN_2_7x7_LFCN_2_7x7_0_split_0
I0918 11:15:03.097285  4514 net.cpp:408] LFCN_2_7x7_LFCN_2_7x7_0_split -> LFCN_2_7x7_LFCN_2_7x7_0_split_1
I0918 11:15:03.097290  4514 net.cpp:408] LFCN_2_7x7_LFCN_2_7x7_0_split -> LFCN_2_7x7_LFCN_2_7x7_0_split_2
I0918 11:15:03.097334  4514 net.cpp:150] Setting up LFCN_2_7x7_LFCN_2_7x7_0_split
I0918 11:15:03.097342  4514 net.cpp:157] Top shape: 3 9 48 48 (62208)
I0918 11:15:03.097345  4514 net.cpp:157] Top shape: 3 9 48 48 (62208)
I0918 11:15:03.097349  4514 net.cpp:157] Top shape: 3 9 48 48 (62208)
I0918 11:15:03.097352  4514 net.cpp:165] Memory required for data: 4752750040
I0918 11:15:03.097355  4514 layer_factory.hpp:77] Creating layer detection_loss_2_7x7
I0918 11:15:03.097362  4514 net.cpp:100] Creating Layer detection_loss_2_7x7
I0918 11:15:03.097365  4514 net.cpp:434] detection_loss_2_7x7 <- LFCN_2_7x7_LFCN_2_7x7_0_split_0
I0918 11:15:03.097369  4514 net.cpp:434] detection_loss_2_7x7 <- label_2_7x7_data_4_split_0
I0918 11:15:03.097376  4514 net.cpp:408] detection_loss_2_7x7 -> loss_2_7x7
I0918 11:15:03.097384  4514 layer_factory.hpp:77] Creating layer detection_loss_2_7x7
I0918 11:15:03.098064  4514 net.cpp:150] Setting up detection_loss_2_7x7
I0918 11:15:03.098085  4514 net.cpp:157] Top shape: 1 1 1 2 (2)
I0918 11:15:03.098093  4514 net.cpp:160]     with loss weight 1
I0918 11:15:03.098098  4514 net.cpp:165] Memory required for data: 4752750048
I0918 11:15:03.098103  4514 layer_factory.hpp:77] Creating layer detection_accuracy_2_7x7
I0918 11:15:03.098109  4514 net.cpp:100] Creating Layer detection_accuracy_2_7x7
I0918 11:15:03.098112  4514 net.cpp:434] detection_accuracy_2_7x7 <- LFCN_2_7x7_LFCN_2_7x7_0_split_1
I0918 11:15:03.098117  4514 net.cpp:434] detection_accuracy_2_7x7 <- label_2_7x7_data_4_split_1
I0918 11:15:03.098122  4514 net.cpp:408] detection_accuracy_2_7x7 -> accuracy_2_7x7
I0918 11:15:03.098129  4514 net.cpp:408] detection_accuracy_2_7x7 -> boxiou_2_7x7
I0918 11:15:03.098165  4514 net.cpp:150] Setting up detection_accuracy_2_7x7
I0918 11:15:03.098171  4514 net.cpp:157] Top shape: 1 1 1 2 (2)
I0918 11:15:03.098176  4514 net.cpp:157] Top shape: 1 1 1 1 (1)
I0918 11:15:03.098178  4514 net.cpp:165] Memory required for data: 4752750060
I0918 11:15:03.098181  4514 layer_factory.hpp:77] Creating layer pool5
I0918 11:15:03.098188  4514 net.cpp:100] Creating Layer pool5
I0918 11:15:03.098192  4514 net.cpp:434] pool5 <- conv5_3_relu5_3_0_split_2
I0918 11:15:03.098197  4514 net.cpp:408] pool5 -> pool5
I0918 11:15:03.098230  4514 net.cpp:150] Setting up pool5
I0918 11:15:03.098237  4514 net.cpp:157] Top shape: 3 512 24 24 (884736)
I0918 11:15:03.098240  4514 net.cpp:165] Memory required for data: 4756289004
I0918 11:15:03.098243  4514 layer_factory.hpp:77] Creating layer conv6_1
I0918 11:15:03.098253  4514 net.cpp:100] Creating Layer conv6_1
I0918 11:15:03.098255  4514 net.cpp:434] conv6_1 <- pool5
I0918 11:15:03.098261  4514 net.cpp:408] conv6_1 -> conv6_1
I0918 11:15:03.162374  4514 net.cpp:150] Setting up conv6_1
I0918 11:15:03.162405  4514 net.cpp:157] Top shape: 3 512 24 24 (884736)
I0918 11:15:03.162410  4514 net.cpp:165] Memory required for data: 4759827948
I0918 11:15:03.162418  4514 layer_factory.hpp:77] Creating layer relu6_1
I0918 11:15:03.162432  4514 net.cpp:100] Creating Layer relu6_1
I0918 11:15:03.162439  4514 net.cpp:434] relu6_1 <- conv6_1
I0918 11:15:03.162446  4514 net.cpp:395] relu6_1 -> conv6_1 (in-place)
I0918 11:15:03.162628  4514 net.cpp:150] Setting up relu6_1
I0918 11:15:03.162641  4514 net.cpp:157] Top shape: 3 512 24 24 (884736)
I0918 11:15:03.162644  4514 net.cpp:165] Memory required for data: 4763366892
I0918 11:15:03.162648  4514 layer_factory.hpp:77] Creating layer conv6_1_relu6_1_0_split
I0918 11:15:03.162655  4514 net.cpp:100] Creating Layer conv6_1_relu6_1_0_split
I0918 11:15:03.162660  4514 net.cpp:434] conv6_1_relu6_1_0_split <- conv6_1
I0918 11:15:03.162667  4514 net.cpp:408] conv6_1_relu6_1_0_split -> conv6_1_relu6_1_0_split_0
I0918 11:15:03.162675  4514 net.cpp:408] conv6_1_relu6_1_0_split -> conv6_1_relu6_1_0_split_1
I0918 11:15:03.162681  4514 net.cpp:408] conv6_1_relu6_1_0_split -> conv6_1_relu6_1_0_split_2
I0918 11:15:03.162739  4514 net.cpp:150] Setting up conv6_1_relu6_1_0_split
I0918 11:15:03.162746  4514 net.cpp:157] Top shape: 3 512 24 24 (884736)
I0918 11:15:03.162751  4514 net.cpp:157] Top shape: 3 512 24 24 (884736)
I0918 11:15:03.162756  4514 net.cpp:157] Top shape: 3 512 24 24 (884736)
I0918 11:15:03.162760  4514 net.cpp:165] Memory required for data: 4773983724
I0918 11:15:03.162765  4514 layer_factory.hpp:77] Creating layer LFCN_3_5x5
I0918 11:15:03.162776  4514 net.cpp:100] Creating Layer LFCN_3_5x5
I0918 11:15:03.162782  4514 net.cpp:434] LFCN_3_5x5 <- conv6_1_relu6_1_0_split_0
I0918 11:15:03.162791  4514 net.cpp:408] LFCN_3_5x5 -> LFCN_3_5x5
I0918 11:15:03.169791  4514 net.cpp:150] Setting up LFCN_3_5x5
I0918 11:15:03.169821  4514 net.cpp:157] Top shape: 3 9 24 24 (15552)
I0918 11:15:03.169826  4514 net.cpp:165] Memory required for data: 4774045932
I0918 11:15:03.169840  4514 layer_factory.hpp:77] Creating layer LFCN_3_5x5_LFCN_3_5x5_0_split
I0918 11:15:03.169857  4514 net.cpp:100] Creating Layer LFCN_3_5x5_LFCN_3_5x5_0_split
I0918 11:15:03.169867  4514 net.cpp:434] LFCN_3_5x5_LFCN_3_5x5_0_split <- LFCN_3_5x5
I0918 11:15:03.169879  4514 net.cpp:408] LFCN_3_5x5_LFCN_3_5x5_0_split -> LFCN_3_5x5_LFCN_3_5x5_0_split_0
I0918 11:15:03.169895  4514 net.cpp:408] LFCN_3_5x5_LFCN_3_5x5_0_split -> LFCN_3_5x5_LFCN_3_5x5_0_split_1
I0918 11:15:03.169909  4514 net.cpp:408] LFCN_3_5x5_LFCN_3_5x5_0_split -> LFCN_3_5x5_LFCN_3_5x5_0_split_2
I0918 11:15:03.169986  4514 net.cpp:150] Setting up LFCN_3_5x5_LFCN_3_5x5_0_split
I0918 11:15:03.169996  4514 net.cpp:157] Top shape: 3 9 24 24 (15552)
I0918 11:15:03.170002  4514 net.cpp:157] Top shape: 3 9 24 24 (15552)
I0918 11:15:03.170011  4514 net.cpp:157] Top shape: 3 9 24 24 (15552)
I0918 11:15:03.170018  4514 net.cpp:165] Memory required for data: 4774232556
I0918 11:15:03.170024  4514 layer_factory.hpp:77] Creating layer detection_loss_3_5x5
I0918 11:15:03.170037  4514 net.cpp:100] Creating Layer detection_loss_3_5x5
I0918 11:15:03.170045  4514 net.cpp:434] detection_loss_3_5x5 <- LFCN_3_5x5_LFCN_3_5x5_0_split_0
I0918 11:15:03.170054  4514 net.cpp:434] detection_loss_3_5x5 <- label_3_5x5_data_5_split_0
I0918 11:15:03.170065  4514 net.cpp:408] detection_loss_3_5x5 -> loss_3_5x5
I0918 11:15:03.170081  4514 layer_factory.hpp:77] Creating layer detection_loss_3_5x5
I0918 11:15:03.170506  4514 net.cpp:150] Setting up detection_loss_3_5x5
I0918 11:15:03.170519  4514 net.cpp:157] Top shape: 1 1 1 2 (2)
I0918 11:15:03.170526  4514 net.cpp:160]     with loss weight 1
I0918 11:15:03.170543  4514 net.cpp:165] Memory required for data: 4774232564
I0918 11:15:03.170553  4514 layer_factory.hpp:77] Creating layer detection_accuracy_3_5x5
I0918 11:15:03.170563  4514 net.cpp:100] Creating Layer detection_accuracy_3_5x5
I0918 11:15:03.170572  4514 net.cpp:434] detection_accuracy_3_5x5 <- LFCN_3_5x5_LFCN_3_5x5_0_split_1
I0918 11:15:03.170581  4514 net.cpp:434] detection_accuracy_3_5x5 <- label_3_5x5_data_5_split_1
I0918 11:15:03.170595  4514 net.cpp:408] detection_accuracy_3_5x5 -> accuracy_3_5x5
I0918 11:15:03.170610  4514 net.cpp:408] detection_accuracy_3_5x5 -> boxiou_3_5x5
I0918 11:15:03.170671  4514 net.cpp:150] Setting up detection_accuracy_3_5x5
I0918 11:15:03.170681  4514 net.cpp:157] Top shape: 1 1 1 2 (2)
I0918 11:15:03.170688  4514 net.cpp:157] Top shape: 1 1 1 1 (1)
I0918 11:15:03.170696  4514 net.cpp:165] Memory required for data: 4774232576
I0918 11:15:03.170703  4514 layer_factory.hpp:77] Creating layer LFCN_3_7x7
I0918 11:15:03.170722  4514 net.cpp:100] Creating Layer LFCN_3_7x7
I0918 11:15:03.170732  4514 net.cpp:434] LFCN_3_7x7 <- conv6_1_relu6_1_0_split_1
I0918 11:15:03.170743  4514 net.cpp:408] LFCN_3_7x7 -> LFCN_3_7x7
I0918 11:15:03.180642  4514 net.cpp:150] Setting up LFCN_3_7x7
I0918 11:15:03.180694  4514 net.cpp:157] Top shape: 3 9 24 24 (15552)
I0918 11:15:03.180701  4514 net.cpp:165] Memory required for data: 4774294784
I0918 11:15:03.180714  4514 layer_factory.hpp:77] Creating layer LFCN_3_7x7_LFCN_3_7x7_0_split
I0918 11:15:03.180732  4514 net.cpp:100] Creating Layer LFCN_3_7x7_LFCN_3_7x7_0_split
I0918 11:15:03.180742  4514 net.cpp:434] LFCN_3_7x7_LFCN_3_7x7_0_split <- LFCN_3_7x7
I0918 11:15:03.180752  4514 net.cpp:408] LFCN_3_7x7_LFCN_3_7x7_0_split -> LFCN_3_7x7_LFCN_3_7x7_0_split_0
I0918 11:15:03.180765  4514 net.cpp:408] LFCN_3_7x7_LFCN_3_7x7_0_split -> LFCN_3_7x7_LFCN_3_7x7_0_split_1
I0918 11:15:03.180771  4514 net.cpp:408] LFCN_3_7x7_LFCN_3_7x7_0_split -> LFCN_3_7x7_LFCN_3_7x7_0_split_2
I0918 11:15:03.180835  4514 net.cpp:150] Setting up LFCN_3_7x7_LFCN_3_7x7_0_split
I0918 11:15:03.180841  4514 net.cpp:157] Top shape: 3 9 24 24 (15552)
I0918 11:15:03.180846  4514 net.cpp:157] Top shape: 3 9 24 24 (15552)
I0918 11:15:03.180850  4514 net.cpp:157] Top shape: 3 9 24 24 (15552)
I0918 11:15:03.180855  4514 net.cpp:165] Memory required for data: 4774481408
I0918 11:15:03.180858  4514 layer_factory.hpp:77] Creating layer detection_loss_3_7x7
I0918 11:15:03.180873  4514 net.cpp:100] Creating Layer detection_loss_3_7x7
I0918 11:15:03.180881  4514 net.cpp:434] detection_loss_3_7x7 <- LFCN_3_7x7_LFCN_3_7x7_0_split_0
I0918 11:15:03.180891  4514 net.cpp:434] detection_loss_3_7x7 <- label_3_7x7_data_6_split_0
I0918 11:15:03.180899  4514 net.cpp:408] detection_loss_3_7x7 -> loss_3_7x7
I0918 11:15:03.180913  4514 layer_factory.hpp:77] Creating layer detection_loss_3_7x7
I0918 11:15:03.181322  4514 net.cpp:150] Setting up detection_loss_3_7x7
I0918 11:15:03.181339  4514 net.cpp:157] Top shape: 1 1 1 2 (2)
I0918 11:15:03.181342  4514 net.cpp:160]     with loss weight 1
I0918 11:15:03.181360  4514 net.cpp:165] Memory required for data: 4774481416
I0918 11:15:03.181365  4514 layer_factory.hpp:77] Creating layer detection_accuracy_3_7x7
I0918 11:15:03.181373  4514 net.cpp:100] Creating Layer detection_accuracy_3_7x7
I0918 11:15:03.181378  4514 net.cpp:434] detection_accuracy_3_7x7 <- LFCN_3_7x7_LFCN_3_7x7_0_split_1
I0918 11:15:03.181383  4514 net.cpp:434] detection_accuracy_3_7x7 <- label_3_7x7_data_6_split_1
I0918 11:15:03.181391  4514 net.cpp:408] detection_accuracy_3_7x7 -> accuracy_3_7x7
I0918 11:15:03.181401  4514 net.cpp:408] detection_accuracy_3_7x7 -> boxiou_3_7x7
I0918 11:15:03.181452  4514 net.cpp:150] Setting up detection_accuracy_3_7x7
I0918 11:15:03.181469  4514 net.cpp:157] Top shape: 1 1 1 2 (2)
I0918 11:15:03.181474  4514 net.cpp:157] Top shape: 1 1 1 1 (1)
I0918 11:15:03.181478  4514 net.cpp:165] Memory required for data: 4774481428
I0918 11:15:03.181483  4514 layer_factory.hpp:77] Creating layer pool6
I0918 11:15:03.181493  4514 net.cpp:100] Creating Layer pool6
I0918 11:15:03.181499  4514 net.cpp:434] pool6 <- conv6_1_relu6_1_0_split_2
I0918 11:15:03.181504  4514 net.cpp:408] pool6 -> pool6
I0918 11:15:03.181547  4514 net.cpp:150] Setting up pool6
I0918 11:15:03.181555  4514 net.cpp:157] Top shape: 3 512 12 12 (221184)
I0918 11:15:03.181558  4514 net.cpp:165] Memory required for data: 4775366164
I0918 11:15:03.181561  4514 layer_factory.hpp:77] Creating layer LFCN_4_5x5
I0918 11:15:03.181578  4514 net.cpp:100] Creating Layer LFCN_4_5x5
I0918 11:15:03.181583  4514 net.cpp:434] LFCN_4_5x5 <- pool6
I0918 11:15:03.181591  4514 net.cpp:408] LFCN_4_5x5 -> LFCN_4_5x5
I0918 11:15:03.188360  4514 net.cpp:150] Setting up LFCN_4_5x5
I0918 11:15:03.188388  4514 net.cpp:157] Top shape: 3 9 12 12 (3888)
I0918 11:15:03.188392  4514 net.cpp:165] Memory required for data: 4775381716
I0918 11:15:03.188400  4514 layer_factory.hpp:77] Creating layer LFCN_4_5x5_LFCN_4_5x5_0_split
I0918 11:15:03.188410  4514 net.cpp:100] Creating Layer LFCN_4_5x5_LFCN_4_5x5_0_split
I0918 11:15:03.188416  4514 net.cpp:434] LFCN_4_5x5_LFCN_4_5x5_0_split <- LFCN_4_5x5
I0918 11:15:03.188423  4514 net.cpp:408] LFCN_4_5x5_LFCN_4_5x5_0_split -> LFCN_4_5x5_LFCN_4_5x5_0_split_0
I0918 11:15:03.188431  4514 net.cpp:408] LFCN_4_5x5_LFCN_4_5x5_0_split -> LFCN_4_5x5_LFCN_4_5x5_0_split_1
I0918 11:15:03.188436  4514 net.cpp:408] LFCN_4_5x5_LFCN_4_5x5_0_split -> LFCN_4_5x5_LFCN_4_5x5_0_split_2
I0918 11:15:03.188477  4514 net.cpp:150] Setting up LFCN_4_5x5_LFCN_4_5x5_0_split
I0918 11:15:03.188483  4514 net.cpp:157] Top shape: 3 9 12 12 (3888)
I0918 11:15:03.188488  4514 net.cpp:157] Top shape: 3 9 12 12 (3888)
I0918 11:15:03.188490  4514 net.cpp:157] Top shape: 3 9 12 12 (3888)
I0918 11:15:03.188493  4514 net.cpp:165] Memory required for data: 4775428372
I0918 11:15:03.188496  4514 layer_factory.hpp:77] Creating layer detection_loss_4_5x5
I0918 11:15:03.188503  4514 net.cpp:100] Creating Layer detection_loss_4_5x5
I0918 11:15:03.188506  4514 net.cpp:434] detection_loss_4_5x5 <- LFCN_4_5x5_LFCN_4_5x5_0_split_0
I0918 11:15:03.188511  4514 net.cpp:434] detection_loss_4_5x5 <- label_4_5x5_data_7_split_0
I0918 11:15:03.188519  4514 net.cpp:408] detection_loss_4_5x5 -> loss_4_5x5
I0918 11:15:03.188527  4514 layer_factory.hpp:77] Creating layer detection_loss_4_5x5
I0918 11:15:03.188839  4514 net.cpp:150] Setting up detection_loss_4_5x5
I0918 11:15:03.188848  4514 net.cpp:157] Top shape: 1 1 1 2 (2)
I0918 11:15:03.188851  4514 net.cpp:160]     with loss weight 1
I0918 11:15:03.188863  4514 net.cpp:165] Memory required for data: 4775428380
I0918 11:15:03.188866  4514 layer_factory.hpp:77] Creating layer detection_accuracy_4_5x5
I0918 11:15:03.188874  4514 net.cpp:100] Creating Layer detection_accuracy_4_5x5
I0918 11:15:03.188879  4514 net.cpp:434] detection_accuracy_4_5x5 <- LFCN_4_5x5_LFCN_4_5x5_0_split_1
I0918 11:15:03.188884  4514 net.cpp:434] detection_accuracy_4_5x5 <- label_4_5x5_data_7_split_1
I0918 11:15:03.188889  4514 net.cpp:408] detection_accuracy_4_5x5 -> accuracy_4_5x5
I0918 11:15:03.188896  4514 net.cpp:408] detection_accuracy_4_5x5 -> boxiou_4_5x5
I0918 11:15:03.188933  4514 net.cpp:150] Setting up detection_accuracy_4_5x5
I0918 11:15:03.188941  4514 net.cpp:157] Top shape: 1 1 1 2 (2)
I0918 11:15:03.188944  4514 net.cpp:157] Top shape: 1 1 1 1 (1)
I0918 11:15:03.188947  4514 net.cpp:165] Memory required for data: 4775428392
I0918 11:15:03.188951  4514 layer_factory.hpp:77] Creating layer proposals
I0918 11:15:03.188958  4514 net.cpp:100] Creating Layer proposals
I0918 11:15:03.188962  4514 net.cpp:434] proposals <- LFCN_1_5x5_LFCN_1_5x5_0_split_2
I0918 11:15:03.188967  4514 net.cpp:434] proposals <- LFCN_1_7x7_LFCN_1_7x7_0_split_2
I0918 11:15:03.188971  4514 net.cpp:434] proposals <- LFCN_2_5x5_LFCN_2_5x5_0_split_2
I0918 11:15:03.188976  4514 net.cpp:434] proposals <- LFCN_2_7x7_LFCN_2_7x7_0_split_2
I0918 11:15:03.188979  4514 net.cpp:434] proposals <- LFCN_3_5x5_LFCN_3_5x5_0_split_2
I0918 11:15:03.188982  4514 net.cpp:434] proposals <- LFCN_3_7x7_LFCN_3_7x7_0_split_2
I0918 11:15:03.188987  4514 net.cpp:434] proposals <- LFCN_4_5x5_LFCN_4_5x5_0_split_2
I0918 11:15:03.188992  4514 net.cpp:408] proposals -> proposals
I0918 11:15:03.189019  4514 net.cpp:150] Setting up proposals
I0918 11:15:03.189025  4514 net.cpp:157] Top shape: 1 5 1 1 (5)
I0918 11:15:03.189028  4514 net.cpp:165] Memory required for data: 4775428412
I0918 11:15:03.189031  4514 layer_factory.hpp:77] Creating layer proposal_info
I0918 11:15:03.189040  4514 net.cpp:100] Creating Layer proposal_info
I0918 11:15:03.189044  4514 net.cpp:434] proposal_info <- proposals
I0918 11:15:03.189049  4514 net.cpp:434] proposal_info <- gt_boxes
I0918 11:15:03.189054  4514 net.cpp:408] proposal_info -> rois
I0918 11:15:03.189064  4514 net.cpp:408] proposal_info -> proposal_labels
I0918 11:15:03.189072  4514 net.cpp:408] proposal_info -> proposal_targets
I0918 11:15:03.189079  4514 net.cpp:408] proposal_info -> box_inside_weights
I0918 11:15:03.189085  4514 net.cpp:408] proposal_info -> box_outside_weights
I0918 11:15:03.189092  4514 net.cpp:408] proposal_info -> match_gt_boxes
I0918 11:15:03.189175  4514 net.cpp:150] Setting up proposal_info
I0918 11:15:03.189182  4514 net.cpp:157] Top shape: 256 5 1 1 (1280)
I0918 11:15:03.189186  4514 net.cpp:157] Top shape: 256 1 1 1 (256)
I0918 11:15:03.189190  4514 net.cpp:157] Top shape: 256 20 1 1 (5120)
I0918 11:15:03.189194  4514 net.cpp:157] Top shape: 256 20 1 1 (5120)
I0918 11:15:03.189198  4514 net.cpp:157] Top shape: 256 20 1 1 (5120)
I0918 11:15:03.189203  4514 net.cpp:157] Top shape: 256 6 1 1 (1536)
I0918 11:15:03.189205  4514 net.cpp:165] Memory required for data: 4775502140
I0918 11:15:03.189208  4514 layer_factory.hpp:77] Creating layer rois_proposal_info_0_split
I0918 11:15:03.189213  4514 net.cpp:100] Creating Layer rois_proposal_info_0_split
I0918 11:15:03.189216  4514 net.cpp:434] rois_proposal_info_0_split <- rois
I0918 11:15:03.189221  4514 net.cpp:408] rois_proposal_info_0_split -> rois_proposal_info_0_split_0
I0918 11:15:03.189227  4514 net.cpp:408] rois_proposal_info_0_split -> rois_proposal_info_0_split_1
I0918 11:15:03.189234  4514 net.cpp:408] rois_proposal_info_0_split -> rois_proposal_info_0_split_2
I0918 11:15:03.189276  4514 net.cpp:150] Setting up rois_proposal_info_0_split
I0918 11:15:03.189282  4514 net.cpp:157] Top shape: 256 5 1 1 (1280)
I0918 11:15:03.189286  4514 net.cpp:157] Top shape: 256 5 1 1 (1280)
I0918 11:15:03.189290  4514 net.cpp:157] Top shape: 256 5 1 1 (1280)
I0918 11:15:03.189292  4514 net.cpp:165] Memory required for data: 4775517500
I0918 11:15:03.189296  4514 layer_factory.hpp:77] Creating layer proposal_labels_proposal_info_1_split
I0918 11:15:03.189301  4514 net.cpp:100] Creating Layer proposal_labels_proposal_info_1_split
I0918 11:15:03.189303  4514 net.cpp:434] proposal_labels_proposal_info_1_split <- proposal_labels
I0918 11:15:03.189308  4514 net.cpp:408] proposal_labels_proposal_info_1_split -> proposal_labels_proposal_info_1_split_0
I0918 11:15:03.189313  4514 net.cpp:408] proposal_labels_proposal_info_1_split -> proposal_labels_proposal_info_1_split_1
I0918 11:15:03.189352  4514 net.cpp:150] Setting up proposal_labels_proposal_info_1_split
I0918 11:15:03.189358  4514 net.cpp:157] Top shape: 256 1 1 1 (256)
I0918 11:15:03.189363  4514 net.cpp:157] Top shape: 256 1 1 1 (256)
I0918 11:15:03.189365  4514 net.cpp:165] Memory required for data: 4775519548
I0918 11:15:03.189368  4514 layer_factory.hpp:77] Creating layer conv4_3_2x
I0918 11:15:03.189381  4514 net.cpp:100] Creating Layer conv4_3_2x
I0918 11:15:03.189386  4514 net.cpp:434] conv4_3_2x <- conv4_3_relu4_3_0_split_2
I0918 11:15:03.189391  4514 net.cpp:408] conv4_3_2x -> conv4_3_2x
I0918 11:15:03.189951  4514 net.cpp:150] Setting up conv4_3_2x
I0918 11:15:03.189960  4514 net.cpp:157] Top shape: 3 512 192 192 (56623104)
I0918 11:15:03.189962  4514 net.cpp:165] Memory required for data: 5002011964
I0918 11:15:03.189967  4514 layer_factory.hpp:77] Creating layer conv4_3_2x_new
I0918 11:15:03.189975  4514 net.cpp:100] Creating Layer conv4_3_2x_new
I0918 11:15:03.189978  4514 net.cpp:434] conv4_3_2x_new <- conv4_3_2x
I0918 11:15:03.189983  4514 net.cpp:434] conv4_3_2x_new <- ch4_pool2_ch4_pool2_0_split_2
I0918 11:15:03.189987  4514 net.cpp:408] conv4_3_2x_new -> conv4_3_2x_new
I0918 11:15:03.190009  4514 net.cpp:150] Setting up conv4_3_2x_new
I0918 11:15:03.190016  4514 net.cpp:157] Top shape: 3 513 192 192 (56733696)
I0918 11:15:03.190018  4514 net.cpp:165] Memory required for data: 5228946748
I0918 11:15:03.190022  4514 layer_factory.hpp:77] Creating layer conv4_3_2x_new_conv4_3_2x_new_0_split
I0918 11:15:03.190026  4514 net.cpp:100] Creating Layer conv4_3_2x_new_conv4_3_2x_new_0_split
I0918 11:15:03.190029  4514 net.cpp:434] conv4_3_2x_new_conv4_3_2x_new_0_split <- conv4_3_2x_new
I0918 11:15:03.190033  4514 net.cpp:408] conv4_3_2x_new_conv4_3_2x_new_0_split -> conv4_3_2x_new_conv4_3_2x_new_0_split_0
I0918 11:15:03.190038  4514 net.cpp:408] conv4_3_2x_new_conv4_3_2x_new_0_split -> conv4_3_2x_new_conv4_3_2x_new_0_split_1
I0918 11:15:03.190069  4514 net.cpp:150] Setting up conv4_3_2x_new_conv4_3_2x_new_0_split
I0918 11:15:03.190075  4514 net.cpp:157] Top shape: 3 513 192 192 (56733696)
I0918 11:15:03.190079  4514 net.cpp:157] Top shape: 3 513 192 192 (56733696)
I0918 11:15:03.190083  4514 net.cpp:165] Memory required for data: 5682816316
I0918 11:15:03.190085  4514 layer_factory.hpp:77] Creating layer roi_pool_org
I0918 11:15:03.190091  4514 net.cpp:100] Creating Layer roi_pool_org
I0918 11:15:03.190095  4514 net.cpp:434] roi_pool_org <- conv4_3_2x_new_conv4_3_2x_new_0_split_0
I0918 11:15:03.190099  4514 net.cpp:434] roi_pool_org <- rois_proposal_info_0_split_0
I0918 11:15:03.190104  4514 net.cpp:408] roi_pool_org -> roi_pool_org
I0918 11:15:03.190112  4514 roi_pooling_layer.cpp:33] Spatial scale: 0.25
I0918 11:15:03.190148  4514 net.cpp:150] Setting up roi_pool_org
I0918 11:15:03.190155  4514 net.cpp:157] Top shape: 256 513 7 7 (6435072)
I0918 11:15:03.190157  4514 net.cpp:165] Memory required for data: 5708556604
I0918 11:15:03.190160  4514 layer_factory.hpp:77] Creating layer roi_pool_ctx
I0918 11:15:03.190166  4514 net.cpp:100] Creating Layer roi_pool_ctx
I0918 11:15:03.190169  4514 net.cpp:434] roi_pool_ctx <- conv4_3_2x_new_conv4_3_2x_new_0_split_1
I0918 11:15:03.190173  4514 net.cpp:434] roi_pool_ctx <- rois_proposal_info_0_split_1
I0918 11:15:03.190178  4514 net.cpp:408] roi_pool_ctx -> roi_pool_ctx
I0918 11:15:03.190184  4514 roi_pooling_layer.cpp:33] Spatial scale: 0.25
I0918 11:15:03.190217  4514 net.cpp:150] Setting up roi_pool_ctx
I0918 11:15:03.190223  4514 net.cpp:157] Top shape: 256 513 7 7 (6435072)
I0918 11:15:03.190227  4514 net.cpp:165] Memory required for data: 5734296892
I0918 11:15:03.190229  4514 layer_factory.hpp:77] Creating layer roi_pool
I0918 11:15:03.190233  4514 net.cpp:100] Creating Layer roi_pool
I0918 11:15:03.190237  4514 net.cpp:434] roi_pool <- roi_pool_org
I0918 11:15:03.190241  4514 net.cpp:434] roi_pool <- roi_pool_ctx
I0918 11:15:03.190246  4514 net.cpp:408] roi_pool -> roi_pool
I0918 11:15:03.190264  4514 net.cpp:150] Setting up roi_pool
I0918 11:15:03.190270  4514 net.cpp:157] Top shape: 256 1026 7 7 (12870144)
I0918 11:15:03.190274  4514 net.cpp:165] Memory required for data: 5785777468
I0918 11:15:03.190276  4514 layer_factory.hpp:77] Creating layer roi_c1
I0918 11:15:03.190285  4514 net.cpp:100] Creating Layer roi_c1
I0918 11:15:03.190289  4514 net.cpp:434] roi_c1 <- roi_pool
I0918 11:15:03.190294  4514 net.cpp:408] roi_c1 -> roi_c1
I0918 11:15:03.313230  4514 net.cpp:150] Setting up roi_c1
I0918 11:15:03.313274  4514 net.cpp:157] Top shape: 256 512 5 5 (3276800)
I0918 11:15:03.313279  4514 net.cpp:165] Memory required for data: 5798884668
I0918 11:15:03.313292  4514 layer_factory.hpp:77] Creating layer roi_c1_relu
I0918 11:15:03.313307  4514 net.cpp:100] Creating Layer roi_c1_relu
I0918 11:15:03.313314  4514 net.cpp:434] roi_c1_relu <- roi_c1
I0918 11:15:03.313324  4514 net.cpp:395] roi_c1_relu -> roi_c1 (in-place)
I0918 11:15:03.313990  4514 net.cpp:150] Setting up roi_c1_relu
I0918 11:15:03.314007  4514 net.cpp:157] Top shape: 256 512 5 5 (3276800)
I0918 11:15:03.314011  4514 net.cpp:165] Memory required for data: 5811991868
I0918 11:15:03.314018  4514 layer_factory.hpp:77] Creating layer fc6
I0918 11:15:03.314559  4514 net.cpp:100] Creating Layer fc6
I0918 11:15:03.314589  4514 net.cpp:434] fc6 <- roi_c1
I0918 11:15:03.314615  4514 net.cpp:408] fc6 -> fc6
I0918 11:15:04.586302  4514 net.cpp:150] Setting up fc6
I0918 11:15:04.586333  4514 net.cpp:157] Top shape: 256 4096 (1048576)
I0918 11:15:04.586336  4514 net.cpp:165] Memory required for data: 5816186172
I0918 11:15:04.586344  4514 layer_factory.hpp:77] Creating layer relu6
I0918 11:15:04.586354  4514 net.cpp:100] Creating Layer relu6
I0918 11:15:04.586361  4514 net.cpp:434] relu6 <- fc6
I0918 11:15:04.586367  4514 net.cpp:395] relu6 -> fc6 (in-place)
I0918 11:15:04.586596  4514 net.cpp:150] Setting up relu6
I0918 11:15:04.586606  4514 net.cpp:157] Top shape: 256 4096 (1048576)
I0918 11:15:04.586611  4514 net.cpp:165] Memory required for data: 5820380476
I0918 11:15:04.586614  4514 layer_factory.hpp:77] Creating layer drop6
I0918 11:15:04.587113  4514 net.cpp:100] Creating Layer drop6
I0918 11:15:04.587121  4514 net.cpp:434] drop6 <- fc6
I0918 11:15:04.587129  4514 net.cpp:395] drop6 -> fc6 (in-place)
I0918 11:15:04.587157  4514 net.cpp:150] Setting up drop6
I0918 11:15:04.587164  4514 net.cpp:157] Top shape: 256 4096 (1048576)
I0918 11:15:04.587168  4514 net.cpp:165] Memory required for data: 5824574780
I0918 11:15:04.587172  4514 layer_factory.hpp:77] Creating layer fc6_drop6_0_split
I0918 11:15:04.587182  4514 net.cpp:100] Creating Layer fc6_drop6_0_split
I0918 11:15:04.587186  4514 net.cpp:434] fc6_drop6_0_split <- fc6
I0918 11:15:04.587193  4514 net.cpp:408] fc6_drop6_0_split -> fc6_drop6_0_split_0
I0918 11:15:04.587201  4514 net.cpp:408] fc6_drop6_0_split -> fc6_drop6_0_split_1
I0918 11:15:04.587244  4514 net.cpp:150] Setting up fc6_drop6_0_split
I0918 11:15:04.587251  4514 net.cpp:157] Top shape: 256 4096 (1048576)
I0918 11:15:04.587255  4514 net.cpp:157] Top shape: 256 4096 (1048576)
I0918 11:15:04.587260  4514 net.cpp:165] Memory required for data: 5832963388
I0918 11:15:04.587265  4514 layer_factory.hpp:77] Creating layer cls_pred
I0918 11:15:04.587273  4514 net.cpp:100] Creating Layer cls_pred
I0918 11:15:04.587280  4514 net.cpp:434] cls_pred <- fc6_drop6_0_split_0
I0918 11:15:04.587288  4514 net.cpp:408] cls_pred -> cls_pred
I0918 11:15:04.587911  4514 net.cpp:150] Setting up cls_pred
I0918 11:15:04.587920  4514 net.cpp:157] Top shape: 256 5 (1280)
I0918 11:15:04.587924  4514 net.cpp:165] Memory required for data: 5832968508
I0918 11:15:04.587931  4514 layer_factory.hpp:77] Creating layer cls_pred_cls_pred_0_split
I0918 11:15:04.587937  4514 net.cpp:100] Creating Layer cls_pred_cls_pred_0_split
I0918 11:15:04.587942  4514 net.cpp:434] cls_pred_cls_pred_0_split <- cls_pred
I0918 11:15:04.587951  4514 net.cpp:408] cls_pred_cls_pred_0_split -> cls_pred_cls_pred_0_split_0
I0918 11:15:04.587960  4514 net.cpp:408] cls_pred_cls_pred_0_split -> cls_pred_cls_pred_0_split_1
I0918 11:15:04.587992  4514 net.cpp:150] Setting up cls_pred_cls_pred_0_split
I0918 11:15:04.587999  4514 net.cpp:157] Top shape: 256 5 (1280)
I0918 11:15:04.588004  4514 net.cpp:157] Top shape: 256 5 (1280)
I0918 11:15:04.588008  4514 net.cpp:165] Memory required for data: 5832978748
I0918 11:15:04.588013  4514 layer_factory.hpp:77] Creating layer bbox_pred
I0918 11:15:04.588021  4514 net.cpp:100] Creating Layer bbox_pred
I0918 11:15:04.588026  4514 net.cpp:434] bbox_pred <- fc6_drop6_0_split_1
I0918 11:15:04.588035  4514 net.cpp:408] bbox_pred -> bbox_pred
I0918 11:15:04.590221  4514 net.cpp:150] Setting up bbox_pred
I0918 11:15:04.590229  4514 net.cpp:157] Top shape: 256 20 (5120)
I0918 11:15:04.590231  4514 net.cpp:165] Memory required for data: 5832999228
I0918 11:15:04.590236  4514 layer_factory.hpp:77] Creating layer bbox_pred_bbox_pred_0_split
I0918 11:15:04.590241  4514 net.cpp:100] Creating Layer bbox_pred_bbox_pred_0_split
I0918 11:15:04.590245  4514 net.cpp:434] bbox_pred_bbox_pred_0_split <- bbox_pred
I0918 11:15:04.590248  4514 net.cpp:408] bbox_pred_bbox_pred_0_split -> bbox_pred_bbox_pred_0_split_0
I0918 11:15:04.590255  4514 net.cpp:408] bbox_pred_bbox_pred_0_split -> bbox_pred_bbox_pred_0_split_1
I0918 11:15:04.590286  4514 net.cpp:150] Setting up bbox_pred_bbox_pred_0_split
I0918 11:15:04.590291  4514 net.cpp:157] Top shape: 256 20 (5120)
I0918 11:15:04.590294  4514 net.cpp:157] Top shape: 256 20 (5120)
I0918 11:15:04.590298  4514 net.cpp:165] Memory required for data: 5833040188
I0918 11:15:04.590301  4514 layer_factory.hpp:77] Creating layer loss_cls
I0918 11:15:04.590307  4514 net.cpp:100] Creating Layer loss_cls
I0918 11:15:04.590312  4514 net.cpp:434] loss_cls <- cls_pred_cls_pred_0_split_0
I0918 11:15:04.590317  4514 net.cpp:434] loss_cls <- proposal_labels_proposal_info_1_split_0
…
I0918 11:15:04.603448  4514 image_gt_data_layer.cpp:235] output label size 2 : 2,6,48,48
I0918 11:15:04.603498  4514 image_gt_data_layer.cpp:235] output label size 3 : 2,6,48,48
I0918 11:15:04.603549  4514 image_gt_data_layer.cpp:235] output label size 4 : 2,6,24,24
I0918 11:15:04.603597  4514 image_gt_data_layer.cpp:235] output label size 5 : 2,6,24,24
I0918 11:15:04.603646  4514 image_gt_data_layer.cpp:235] output label size 6 : 2,6,12,12
I0918 11:15:04.603694  4514 image_gt_data_layer.cpp:250] output gt boxes size: 1,7,1,1
I0918 11:15:04.644258  4514 net.cpp:150] Setting up data
I0918 11:15:04.644287  4514 net.cpp:157] Top shape: 2 4 768 768 (4718592)
I0918 11:15:04.644292  4514 net.cpp:157] Top shape: 2 6 96 96 (110592)
I0918 11:15:04.644296  4514 net.cpp:157] Top shape: 2 6 96 96 (110592)
I0918 11:15:04.644300  4514 net.cpp:157] Top shape: 2 6 48 48 (27648)
I0918 11:15:04.644304  4514 net.cpp:157] Top shape: 2 6 48 48 (27648)
I0918 11:15:04.644307  4514 net.cpp:157] Top shape: 2 6 24 24 (6912)
I0918 11:15:04.644311  4514 net.cpp:157] Top shape: 2 6 24 24 (6912)
I0918 11:15:04.644315  4514 net.cpp:157] Top shape: 2 6 12 12 (1728)
I0918 11:15:04.644318  4514 net.cpp:157] Top shape: 1 7 1 1 (7)
I0918 11:15:04.644321  4514 net.cpp:165] Memory required for data: 20042524
I0918 11:15:04.644327  4514 layer_factory.hpp:77] Creating layer label_1_5x5_data_1_split
I0918 11:15:04.644341  4514 net.cpp:100] Creating Layer label_1_5x5_data_1_split
I0918 11:15:04.644346  4514 net.cpp:434] label_1_5x5_data_1_split <- label_1_5x5
I0918 11:15:04.644353  4514 net.cpp:408] label_1_5x5_data_1_split -> label_1_5x5_data_1_split_0
I0918 11:15:04.644363  4514 net.cpp:408] label_1_5x5_data_1_split -> label_1_5x5_data_1_split_1
I0918 11:15:04.644474  4514 net.cpp:150] Setting up label_1_5x5_data_1_split
I0918 11:15:04.644527  4514 net.cpp:157] Top shape: 2 6 96 96 (110592)
I0918 11:15:04.644541  4514 net.cpp:157] Top shape: 2 6 96 96 (110592)
I0918 11:15:04.644551  4514 net.cpp:165] Memory required for data: 20927260
I0918 11:15:04.644563  4514 layer_factory.hpp:77] Creating layer label_1_7x7_data_2_split
I0918 11:15:04.644592  4514 net.cpp:100] Creating Layer label_1_7x7_data_2_split
I0918 11:15:04.644603  4514 net.cpp:434] label_1_7x7_data_2_split <- label_1_7x7
I0918 11:15:04.644618  4514 net.cpp:408] label_1_7x7_data_2_split -> label_1_7x7_data_2_split_0
I0918 11:15:04.644634  4514 net.cpp:408] label_1_7x7_data_2_split -> label_1_7x7_data_2_split_1
I0918 11:15:04.644831  4514 net.cpp:150] Setting up label_1_7x7_data_2_split
I0918 11:15:04.644846  4514 net.cpp:157] Top shape: 2 6 96 96 (110592)
I0918 11:15:04.644855  4514 net.cpp:157] Top shape: 2 6 96 96 (110592)
I0918 11:15:04.644868  4514 net.cpp:165] Memory required for data: 21811996
I0918 11:15:04.644876  4514 layer_factory.hpp:77] Creating layer label_2_5x5_data_3_split
I0918 11:15:04.644886  4514 net.cpp:100] Creating Layer label_2_5x5_data_3_split
I0918 11:15:04.644893  4514 net.cpp:434] label_2_5x5_data_3_split <- label_2_5x5
I0918 11:15:04.644906  4514 net.cpp:408] label_2_5x5_data_3_split -> label_2_5x5_data_3_split_0
I0918 11:15:04.644922  4514 net.cpp:408] label_2_5x5_data_3_split -> label_2_5x5_data_3_split_1
I0918 11:15:04.645002  4514 net.cpp:150] Setting up label_2_5x5_data_3_split
I0918 11:15:04.645014  4514 net.cpp:157] Top shape: 2 6 48 48 (27648)
I0918 11:15:04.645022  4514 net.cpp:157] Top shape: 2 6 48 48 (27648)
I0918 11:15:04.645030  4514 net.cpp:165] Memory required for data: 22033180
I0918 11:15:04.645036  4514 layer_factory.hpp:77] Creating layer label_2_7x7_data_4_split
I0918 11:15:04.645050  4514 net.cpp:100] Creating Layer label_2_7x7_data_4_split
I0918 11:15:04.645056  4514 net.cpp:434] label_2_7x7_data_4_split <- label_2_7x7
I0918 11:15:04.645068  4514 net.cpp:408] label_2_7x7_data_4_split -> label_2_7x7_data_4_split_0
I0918 11:15:04.645088  4514 net.cpp:408] label_2_7x7_data_4_split -> label_2_7x7_data_4_split_1
I0918 11:15:04.645166  4514 net.cpp:150] Setting up label_2_7x7_data_4_split
I0918 11:15:04.645177  4514 net.cpp:157] Top shape: 2 6 48 48 (27648)
I0918 11:15:04.645187  4514 net.cpp:157] Top shape: 2 6 48 48 (27648)
I0918 11:15:04.645195  4514 net.cpp:165] Memory required for data: 22254364
I0918 11:15:04.645202  4514 layer_factory.hpp:77] Creating layer label_3_5x5_data_5_split
I0918 11:15:04.645211  4514 net.cpp:100] Creating Layer label_3_5x5_data_5_split
I0918 11:15:04.645218  4514 net.cpp:434] label_3_5x5_data_5_split <- label_3_5x5
I0918 11:15:04.645228  4514 net.cpp:408] label_3_5x5_data_5_split -> label_3_5x5_data_5_split_0
I0918 11:15:04.645251  4514 net.cpp:408] label_3_5x5_data_5_split -> label_3_5x5_data_5_split_1
I0918 11:15:04.645321  4514 net.cpp:150] Setting up label_3_5x5_data_5_split
I0918 11:15:04.645332  4514 net.cpp:157] Top shape: 2 6 24 24 (6912)
I0918 11:15:04.645341  4514 net.cpp:157] Top shape: 2 6 24 24 (6912)
I0918 11:15:04.645347  4514 net.cpp:165] Memory required for data: 22309660
I0918 11:15:04.645354  4514 layer_factory.hpp:77] Creating layer label_3_7x7_data_6_split
I0918 11:15:04.645366  4514 net.cpp:100] Creating Layer label_3_7x7_data_6_split
I0918 11:15:04.645373  4514 net.cpp:434] label_3_7x7_data_6_split <- label_3_7x7
I0918 11:15:04.645383  4514 net.cpp:408] label_3_7x7_data_6_split -> label_3_7x7_data_6_split_0
I0918 11:15:04.645401  4514 net.cpp:408] label_3_7x7_data_6_split -> label_3_7x7_data_6_split_1
I0918 11:15:04.645498  4514 net.cpp:150] Setting up label_3_7x7_data_6_split
I0918 11:15:04.645522  4514 net.cpp:157] Top shape: 2 6 24 24 (6912)
I0918 11:15:04.645542  4514 net.cpp:157] Top shape: 2 6 24 24 (6912)
I0918 11:15:04.645572  4514 net.cpp:165] Memory required for data: 22364956
I0918 11:15:04.645583  4514 layer_factory.hpp:77] Creating layer label_4_5x5_data_7_split
I0918 11:15:04.645596  4514 net.cpp:100] Creating Layer label_4_5x5_data_7_split
I0918 11:15:04.645602  4514 net.cpp:434] label_4_5x5_data_7_split <- label_4_5x5
I0918 11:15:04.645612  4514 net.cpp:408] label_4_5x5_data_7_split -> label_4_5x5_data_7_split_0
I0918 11:15:04.645623  4514 net.cpp:408] label_4_5x5_data_7_split -> label_4_5x5_data_7_split_1
I0918 11:15:04.645699  4514 net.cpp:150] Setting up label_4_5x5_data_7_split
I0918 11:15:04.645716  4514 net.cpp:157] Top shape: 2 6 12 12 (1728)
I0918 11:15:04.645725  4514 net.cpp:157] Top shape: 2 6 12 12 (1728)
I0918 11:15:04.645732  4514 net.cpp:165] Memory required for data: 22378780
I0918 11:15:04.645740  4514 layer_factory.hpp:77] Creating layer slice
I0918 11:15:04.645754  4514 net.cpp:100] Creating Layer slice
I0918 11:15:04.645762  4514 net.cpp:434] slice <- data
I0918 11:15:04.645778  4514 net.cpp:408] slice -> data123
I0918 11:15:04.645790  4514 net.cpp:408] slice -> ch4
I0918 11:15:04.645870  4514 net.cpp:150] Setting up slice
I0918 11:15:04.645881  4514 net.cpp:157] Top shape: 2 3 768 768 (3538944)
I0918 11:15:04.645890  4514 net.cpp:157] Top shape: 2 1 768 768 (1179648)
I0918 11:15:04.645896  4514 net.cpp:165] Memory required for data: 41253148
I0918 11:15:04.645905  4514 layer_factory.hpp:77] Creating layer conv1_1
I0918 11:15:04.645922  4514 net.cpp:100] Creating Layer conv1_1
I0918 11:15:04.645929  4514 net.cpp:434] conv1_1 <- data123
I0918 11:15:04.645941  4514 net.cpp:408] conv1_1 -> conv1_1
I0918 11:15:04.654892  4514 net.cpp:150] Setting up conv1_1
I0918 11:15:04.654935  4514 net.cpp:157] Top shape: 2 64 768 768 (75497472)
I0918 11:15:04.654947  4514 net.cpp:165] Memory required for data: 343243036
I0918 11:15:04.654973  4514 layer_factory.hpp:77] Creating layer relu1_1
I0918 11:15:04.654994  4514 net.cpp:100] Creating Layer relu1_1
I0918 11:15:04.655006  4514 net.cpp:434] relu1_1 <- conv1_1
I0918 11:15:04.655021  4514 net.cpp:395] relu1_1 -> conv1_1 (in-place)
I0918 11:15:04.655449  4514 net.cpp:150] Setting up relu1_1
I0918 11:15:04.655469  4514 net.cpp:157] Top shape: 2 64 768 768 (75497472)
I0918 11:15:04.655478  4514 net.cpp:165] Memory required for data: 645232924
I0918 11:15:04.655486  4514 layer_factory.hpp:77] Creating layer conv1_2
I0918 11:15:04.655509  4514 net.cpp:100] Creating Layer conv1_2
I0918 11:15:04.655519  4514 net.cpp:434] conv1_2 <- conv1_1
I0918 11:15:04.655532  4514 net.cpp:408] conv1_2 -> conv1_2
I0918 11:15:04.660688  4514 net.cpp:150] Setting up conv1_2
I0918 11:15:04.660728  4514 net.cpp:157] Top shape: 2 64 768 768 (75497472)
I0918 11:15:04.660733  4514 net.cpp:165] Memory required for data: 947222812
I0918 11:15:04.660754  4514 layer_factory.hpp:77] Creating layer relu1_2
I0918 11:15:04.660770  4514 net.cpp:100] Creating Layer relu1_2
I0918 11:15:04.660779  4514 net.cpp:434] relu1_2 <- conv1_2
I0918 11:15:04.660791  4514 net.cpp:395] relu1_2 -> conv1_2 (in-place)
I0918 11:15:04.661065  4514 net.cpp:150] Setting up relu1_2
I0918 11:15:04.661080  4514 net.cpp:157] Top shape: 2 64 768 768 (75497472)
I0918 11:15:04.661087  4514 net.cpp:165] Memory required for data: 1249212700
I0918 11:15:04.661092  4514 layer_factory.hpp:77] Creating layer pool1
I0918 11:15:04.661103  4514 net.cpp:100] Creating Layer pool1
I0918 11:15:04.661108  4514 net.cpp:434] pool1 <- conv1_2
I0918 11:15:04.661118  4514 net.cpp:408] pool1 -> pool1
I0918 11:15:04.661196  4514 net.cpp:150] Setting up pool1
I0918 11:15:04.661204  4514 net.cpp:157] Top shape: 2 64 384 384 (18874368)
I0918 11:15:04.661209  4514 net.cpp:165] Memory required for data: 1324710172
I0918 11:15:04.661214  4514 layer_factory.hpp:77] Creating layer ch4_pool1
I0918 11:15:04.661226  4514 net.cpp:100] Creating Layer ch4_pool1
I0918 11:15:04.661232  4514 net.cpp:434] ch4_pool1 <- ch4
I0918 11:15:04.661240  4514 net.cpp:408] ch4_pool1 -> ch4_pool1
I0918 11:15:04.661289  4514 net.cpp:150] Setting up ch4_pool1
I0918 11:15:04.661298  4514 net.cpp:157] Top shape: 2 1 384 384 (294912)
I0918 11:15:04.661304  4514 net.cpp:165] Memory required for data: 1325889820
I0918 11:15:04.661309  4514 layer_factory.hpp:77] Creating layer ch4_pool1_ch4_pool1_0_split
I0918 11:15:04.661319  4514 net.cpp:100] Creating Layer ch4_pool1_ch4_pool1_0_split
I0918 11:15:04.661325  4514 net.cpp:434] ch4_pool1_ch4_pool1_0_split <- ch4_pool1
I0918 11:15:04.661334  4514 net.cpp:408] ch4_pool1_ch4_pool1_0_split -> ch4_pool1_ch4_pool1_0_split_0
I0918 11:15:04.661343  4514 net.cpp:408] ch4_pool1_ch4_pool1_0_split -> ch4_pool1_ch4_pool1_0_split_1
I0918 11:15:04.661389  4514 net.cpp:150] Setting up ch4_pool1_ch4_pool1_0_split
I0918 11:15:04.661397  4514 net.cpp:157] Top shape: 2 1 384 384 (294912)
I0918 11:15:04.661406  4514 net.cpp:157] Top shape: 2 1 384 384 (294912)
I0918 11:15:04.661412  4514 net.cpp:165] Memory required for data: 1328249116
I0918 11:15:04.661417  4514 layer_factory.hpp:77] Creating layer pool1_concat
I0918 11:15:04.661429  4514 net.cpp:100] Creating Layer pool1_concat
I0918 11:15:04.661435  4514 net.cpp:434] pool1_concat <- pool1
I0918 11:15:04.661442  4514 net.cpp:434] pool1_concat <- ch4_pool1_ch4_pool1_0_split_0
I0918 11:15:04.661451  4514 net.cpp:408] pool1_concat -> pool1_new
I0918 11:15:04.661502  4514 net.cpp:150] Setting up pool1_concat
I0918 11:15:04.661515  4514 net.cpp:157] Top shape: 2 65 384 384 (19169280)
I0918 11:15:04.661522  4514 net.cpp:165] Memory required for data: 1404926236
I0918 11:15:04.661527  4514 layer_factory.hpp:77] Creating layer conv2_1_new
I0918 11:15:04.661540  4514 net.cpp:100] Creating Layer conv2_1_new
I0918 11:15:04.661545  4514 net.cpp:434] conv2_1_new <- pool1_new
I0918 11:15:04.661556  4514 net.cpp:408] conv2_1_new -> conv2_1
I0918 11:15:04.665489  4514 net.cpp:150] Setting up conv2_1_new
I0918 11:15:04.665556  4514 net.cpp:157] Top shape: 2 128 384 384 (37748736)
I0918 11:15:04.665567  4514 net.cpp:165] Memory required for data: 1555921180
I0918 11:15:04.665626  4514 layer_factory.hpp:77] Creating layer relu2_1
I0918 11:15:04.665660  4514 net.cpp:100] Creating Layer relu2_1
I0918 11:15:04.665679  4514 net.cpp:434] relu2_1 <- conv2_1
I0918 11:15:04.665701  4514 net.cpp:395] relu2_1 -> conv2_1 (in-place)
I0918 11:15:04.668268  4514 net.cpp:150] Setting up relu2_1
I0918 11:15:04.668319  4514 net.cpp:157] Top shape: 2 128 384 384 (37748736)
I0918 11:15:04.668330  4514 net.cpp:165] Memory required for data: 1706916124
I0918 11:15:04.668346  4514 layer_factory.hpp:77] Creating layer conv2_2
I0918 11:15:04.668375  4514 net.cpp:100] Creating Layer conv2_2
I0918 11:15:04.668387  4514 net.cpp:434] conv2_2 <- conv2_1
I0918 11:15:04.668413  4514 net.cpp:408] conv2_2 -> conv2_2
I0918 11:15:04.674479  4514 net.cpp:150] Setting up conv2_2
I0918 11:15:04.674499  4514 net.cpp:157] Top shape: 2 128 384 384 (37748736)
I0918 11:15:04.674504  4514 net.cpp:165] Memory required for data: 1857911068
I0918 11:15:04.674515  4514 layer_factory.hpp:77] Creating layer relu2_2
I0918 11:15:04.674525  4514 net.cpp:100] Creating Layer relu2_2
I0918 11:15:04.674530  4514 net.cpp:434] relu2_2 <- conv2_2
I0918 11:15:04.674537  4514 net.cpp:395] relu2_2 -> conv2_2 (in-place)
I0918 11:15:04.674744  4514 net.cpp:150] Setting up relu2_2
I0918 11:15:04.674755  4514 net.cpp:157] Top shape: 2 128 384 384 (37748736)
I0918 11:15:04.674759  4514 net.cpp:165] Memory required for data: 2008906012
I0918 11:15:04.674763  4514 layer_factory.hpp:77] Creating layer pool2
I0918 11:15:04.674773  4514 net.cpp:100] Creating Layer pool2
I0918 11:15:04.674779  4514 net.cpp:434] pool2 <- conv2_2
I0918 11:15:04.674784  4514 net.cpp:408] pool2 -> pool2
I0918 11:15:04.674830  4514 net.cpp:150] Setting up pool2
I0918 11:15:04.674836  4514 net.cpp:157] Top shape: 2 128 192 192 (9437184)
I0918 11:15:04.674839  4514 net.cpp:165] Memory required for data: 2046654748
I0918 11:15:04.674842  4514 layer_factory.hpp:77] Creating layer ch4_pool2
I0918 11:15:04.674847  4514 net.cpp:100] Creating Layer ch4_pool2
I0918 11:15:04.674851  4514 net.cpp:434] ch4_pool2 <- ch4_pool1_ch4_pool1_0_split_1
I0918 11:15:04.674857  4514 net.cpp:408] ch4_pool2 -> ch4_pool2
I0918 11:15:04.674893  4514 net.cpp:150] Setting up ch4_pool2
I0918 11:15:04.674899  4514 net.cpp:157] Top shape: 2 1 192 192 (73728)
I0918 11:15:04.674902  4514 net.cpp:165] Memory required for data: 2046949660
I0918 11:15:04.674906  4514 layer_factory.hpp:77] Creating layer ch4_pool2_ch4_pool2_0_split
I0918 11:15:04.674911  4514 net.cpp:100] Creating Layer ch4_pool2_ch4_pool2_0_split
I0918 11:15:04.674914  4514 net.cpp:434] ch4_pool2_ch4_pool2_0_split <- ch4_pool2
I0918 11:15:04.674918  4514 net.cpp:408] ch4_pool2_ch4_pool2_0_split -> ch4_pool2_ch4_pool2_0_split_0
I0918 11:15:04.674926  4514 net.cpp:408] ch4_pool2_ch4_pool2_0_split -> ch4_pool2_ch4_pool2_0_split_1
I0918 11:15:04.674932  4514 net.cpp:408] ch4_pool2_ch4_pool2_0_split -> ch4_pool2_ch4_pool2_0_split_2
I0918 11:15:04.674978  4514 net.cpp:150] Setting up ch4_pool2_ch4_pool2_0_split
I0918 11:15:04.674984  4514 net.cpp:157] Top shape: 2 1 192 192 (73728)
I0918 11:15:04.674989  4514 net.cpp:157] Top shape: 2 1 192 192 (73728)
I0918 11:15:04.674993  4514 net.cpp:157] Top shape: 2 1 192 192 (73728)
I0918 11:15:04.674996  4514 net.cpp:165] Memory required for data: 2047834396
I0918 11:15:04.674999  4514 layer_factory.hpp:77] Creating layer pool2_concat
I0918 11:15:04.675005  4514 net.cpp:100] Creating Layer pool2_concat
I0918 11:15:04.675009  4514 net.cpp:434] pool2_concat <- pool2
I0918 11:15:04.675014  4514 net.cpp:434] pool2_concat <- ch4_pool2_ch4_pool2_0_split_0
I0918 11:15:04.675019  4514 net.cpp:408] pool2_concat -> pool2_new
I0918 11:15:04.675041  4514 net.cpp:150] Setting up pool2_concat
I0918 11:15:04.675047  4514 net.cpp:157] Top shape: 2 129 192 192 (9510912)
I0918 11:15:04.675050  4514 net.cpp:165] Memory required for data: 2085878044
I0918 11:15:04.675053  4514 layer_factory.hpp:77] Creating layer conv3_1_new
I0918 11:15:04.675060  4514 net.cpp:100] Creating Layer conv3_1_new
I0918 11:15:04.675065  4514 net.cpp:434] conv3_1_new <- pool2_new
I0918 11:15:04.675070  4514 net.cpp:408] conv3_1_new -> conv3_1
I0918 11:15:04.676581  4514 net.cpp:150] Setting up conv3_1_new
I0918 11:15:04.676594  4514 net.cpp:157] Top shape: 2 256 192 192 (18874368)
I0918 11:15:04.676597  4514 net.cpp:165] Memory required for data: 2161375516
I0918 11:15:04.676609  4514 layer_factory.hpp:77] Creating layer relu3_1
I0918 11:15:04.676616  4514 net.cpp:100] Creating Layer relu3_1
I0918 11:15:04.676620  4514 net.cpp:434] relu3_1 <- conv3_1
I0918 11:15:04.676625  4514 net.cpp:395] relu3_1 -> conv3_1 (in-place)
I0918 11:15:04.676785  4514 net.cpp:150] Setting up relu3_1
I0918 11:15:04.676795  4514 net.cpp:157] Top shape: 2 256 192 192 (18874368)
I0918 11:15:04.676798  4514 net.cpp:165] Memory required for data: 2236872988
I0918 11:15:04.676802  4514 layer_factory.hpp:77] Creating layer conv3_2
I0918 11:15:04.676810  4514 net.cpp:100] Creating Layer conv3_2
I0918 11:15:04.676812  4514 net.cpp:434] conv3_2 <- conv3_1
I0918 11:15:04.676818  4514 net.cpp:408] conv3_2 -> conv3_2
I0918 11:15:04.681053  4514 net.cpp:150] Setting up conv3_2
I0918 11:15:04.681097  4514 net.cpp:157] Top shape: 2 256 192 192 (18874368)
I0918 11:15:04.681107  4514 net.cpp:165] Memory required for data: 2312370460
I0918 11:15:04.681126  4514 layer_factory.hpp:77] Creating layer relu3_2
I0918 11:15:04.681147  4514 net.cpp:100] Creating Layer relu3_2
I0918 11:15:04.681160  4514 net.cpp:434] relu3_2 <- conv3_2
I0918 11:15:04.681176  4514 net.cpp:395] relu3_2 -> conv3_2 (in-place)
I0918 11:15:04.681619  4514 net.cpp:150] Setting up relu3_2
I0918 11:15:04.681640  4514 net.cpp:157] Top shape: 2 256 192 192 (18874368)
I0918 11:15:04.681648  4514 net.cpp:165] Memory required for data: 2387867932
I0918 11:15:04.681658  4514 layer_factory.hpp:77] Creating layer conv3_3
I0918 11:15:04.681679  4514 net.cpp:100] Creating Layer conv3_3
I0918 11:15:04.681689  4514 net.cpp:434] conv3_3 <- conv3_2
I0918 11:15:04.681704  4514 net.cpp:408] conv3_3 -> conv3_3
I0918 11:15:04.687059  4514 net.cpp:150] Setting up conv3_3
I0918 11:15:04.687093  4514 net.cpp:157] Top shape: 2 256 192 192 (18874368)
I0918 11:15:04.687103  4514 net.cpp:165] Memory required for data: 2463365404
I0918 11:15:04.687119  4514 layer_factory.hpp:77] Creating layer relu3_3
I0918 11:15:04.687141  4514 net.cpp:100] Creating Layer relu3_3
I0918 11:15:04.687151  4514 net.cpp:434] relu3_3 <- conv3_3
I0918 11:15:04.687163  4514 net.cpp:395] relu3_3 -> conv3_3 (in-place)
I0918 11:15:04.687569  4514 net.cpp:150] Setting up relu3_3
I0918 11:15:04.687589  4514 net.cpp:157] Top shape: 2 256 192 192 (18874368)
I0918 11:15:04.687598  4514 net.cpp:165] Memory required for data: 2538862876
I0918 11:15:04.687606  4514 layer_factory.hpp:77] Creating layer pool3
I0918 11:15:04.687621  4514 net.cpp:100] Creating Layer pool3
I0918 11:15:04.687630  4514 net.cpp:434] pool3 <- conv3_3
I0918 11:15:04.687644  4514 net.cpp:408] pool3 -> pool3
I0918 11:15:04.687739  4514 net.cpp:150] Setting up pool3
I0918 11:15:04.687752  4514 net.cpp:157] Top shape: 2 256 96 96 (4718592)
I0918 11:15:04.687760  4514 net.cpp:165] Memory required for data: 2557737244
I0918 11:15:04.687768  4514 layer_factory.hpp:77] Creating layer ch4_pool3
I0918 11:15:04.687788  4514 net.cpp:100] Creating Layer ch4_pool3
I0918 11:15:04.687799  4514 net.cpp:434] ch4_pool3 <- ch4_pool2_ch4_pool2_0_split_1
I0918 11:15:04.687813  4514 net.cpp:408] ch4_pool3 -> ch4_pool3
I0918 11:15:04.687909  4514 net.cpp:150] Setting up ch4_pool3
I0918 11:15:04.687923  4514 net.cpp:157] Top shape: 2 1 96 96 (18432)
I0918 11:15:04.687932  4514 net.cpp:165] Memory required for data: 2557810972
I0918 11:15:04.687939  4514 layer_factory.hpp:77] Creating layer pool3_concat
I0918 11:15:04.687952  4514 net.cpp:100] Creating Layer pool3_concat
I0918 11:15:04.687960  4514 net.cpp:434] pool3_concat <- pool3
I0918 11:15:04.687970  4514 net.cpp:434] pool3_concat <- ch4_pool3
I0918 11:15:04.687985  4514 net.cpp:408] pool3_concat -> pool3_new
I0918 11:15:04.688035  4514 net.cpp:150] Setting up pool3_concat
I0918 11:15:04.688050  4514 net.cpp:157] Top shape: 2 257 96 96 (4737024)
I0918 11:15:04.688060  4514 net.cpp:165] Memory required for data: 2576759068
I0918 11:15:04.688066  4514 layer_factory.hpp:77] Creating layer conv4_1_new
I0918 11:15:04.688082  4514 net.cpp:100] Creating Layer conv4_1_new
I0918 11:15:04.688091  4514 net.cpp:434] conv4_1_new <- pool3_new
I0918 11:15:04.688105  4514 net.cpp:408] conv4_1_new -> conv4_1
I0918 11:15:04.692554  4514 net.cpp:150] Setting up conv4_1_new
I0918 11:15:04.692580  4514 net.cpp:157] Top shape: 2 512 96 96 (9437184)
I0918 11:15:04.692584  4514 net.cpp:165] Memory required for data: 2614507804
I0918 11:15:04.692593  4514 layer_factory.hpp:77] Creating layer relu4_1
I0918 11:15:04.692605  4514 net.cpp:100] Creating Layer relu4_1
I0918 11:15:04.692611  4514 net.cpp:434] relu4_1 <- conv4_1
I0918 11:15:04.692617  4514 net.cpp:395] relu4_1 -> conv4_1 (in-place)
I0918 11:15:04.692782  4514 net.cpp:150] Setting up relu4_1
I0918 11:15:04.692792  4514 net.cpp:157] Top shape: 2 512 96 96 (9437184)
I0918 11:15:04.692796  4514 net.cpp:165] Memory required for data: 2652256540
I0918 11:15:04.692800  4514 layer_factory.hpp:77] Creating layer conv4_2
I0918 11:15:04.692809  4514 net.cpp:100] Creating Layer conv4_2
I0918 11:15:04.692813  4514 net.cpp:434] conv4_2 <- conv4_1
I0918 11:15:04.692818  4514 net.cpp:408] conv4_2 -> conv4_2
I0918 11:15:04.703649  4514 net.cpp:150] Setting up conv4_2
I0918 11:15:04.703703  4514 net.cpp:157] Top shape: 2 512 96 96 (9437184)
I0918 11:15:04.703709  4514 net.cpp:165] Memory required for data: 2690005276
I0918 11:15:04.703732  4514 layer_factory.hpp:77] Creating layer relu4_2
I0918 11:15:04.703749  4514 net.cpp:100] Creating Layer relu4_2
I0918 11:15:04.703758  4514 net.cpp:434] relu4_2 <- conv4_2
I0918 11:15:04.703768  4514 net.cpp:395] relu4_2 -> conv4_2 (in-place)
I0918 11:15:04.705631  4514 net.cpp:150] Setting up relu4_2
I0918 11:15:04.705703  4514 net.cpp:157] Top shape: 2 512 96 96 (9437184)
I0918 11:15:04.705711  4514 net.cpp:165] Memory required for data: 2727754012
I0918 11:15:04.705726  4514 layer_factory.hpp:77] Creating layer conv4_3
I0918 11:15:04.705756  4514 net.cpp:100] Creating Layer conv4_3
I0918 11:15:04.705777  4514 net.cpp:434] conv4_3 <- conv4_2
I0918 11:15:04.705806  4514 net.cpp:408] conv4_3 -> conv4_3
I0918 11:15:04.719003  4514 net.cpp:150] Setting up conv4_3
I0918 11:15:04.719038  4514 net.cpp:157] Top shape: 2 512 96 96 (9437184)
I0918 11:15:04.719043  4514 net.cpp:165] Memory required for data: 2765502748
I0918 11:15:04.719053  4514 layer_factory.hpp:77] Creating layer relu4_3
I0918 11:15:04.719066  4514 net.cpp:100] Creating Layer relu4_3
I0918 11:15:04.719074  4514 net.cpp:434] relu4_3 <- conv4_3
I0918 11:15:04.719079  4514 net.cpp:395] relu4_3 -> conv4_3 (in-place)
I0918 11:15:04.719270  4514 net.cpp:150] Setting up relu4_3
I0918 11:15:04.719281  4514 net.cpp:157] Top shape: 2 512 96 96 (9437184)
I0918 11:15:04.719285  4514 net.cpp:165] Memory required for data: 2803251484
I0918 11:15:04.719288  4514 layer_factory.hpp:77] Creating layer conv4_3_relu4_3_0_split
I0918 11:15:04.719296  4514 net.cpp:100] Creating Layer conv4_3_relu4_3_0_split
I0918 11:15:04.719300  4514 net.cpp:434] conv4_3_relu4_3_0_split <- conv4_3
I0918 11:15:04.719305  4514 net.cpp:408] conv4_3_relu4_3_0_split -> conv4_3_relu4_3_0_split_0
I0918 11:15:04.719312  4514 net.cpp:408] conv4_3_relu4_3_0_split -> conv4_3_relu4_3_0_split_1
I0918 11:15:04.719317  4514 net.cpp:408] conv4_3_relu4_3_0_split -> conv4_3_relu4_3_0_split_2
I0918 11:15:04.719372  4514 net.cpp:150] Setting up conv4_3_relu4_3_0_split
I0918 11:15:04.719379  4514 net.cpp:157] Top shape: 2 512 96 96 (9437184)
I0918 11:15:04.719383  4514 net.cpp:157] Top shape: 2 512 96 96 (9437184)
I0918 11:15:04.719388  4514 net.cpp:157] Top shape: 2 512 96 96 (9437184)
I0918 11:15:04.719390  4514 net.cpp:165] Memory required for data: 2916497692
I0918 11:15:04.719394  4514 layer_factory.hpp:77] Creating layer loss1_conv1
I0918 11:15:04.719411  4514 net.cpp:100] Creating Layer loss1_conv1
I0918 11:15:04.719414  4514 net.cpp:434] loss1_conv1 <- conv4_3_relu4_3_0_split_0
I0918 11:15:04.719420  4514 net.cpp:408] loss1_conv1 -> loss1_conv1
I0918 11:15:04.792579  4514 net.cpp:150] Setting up loss1_conv1
I0918 11:15:04.792605  4514 net.cpp:157] Top shape: 2 512 96 96 (9437184)
I0918 11:15:04.792609  4514 net.cpp:165] Memory required for data: 2954246428
I0918 11:15:04.792618  4514 layer_factory.hpp:77] Creating layer loss_relu1
I0918 11:15:04.792629  4514 net.cpp:100] Creating Layer loss_relu1
I0918 11:15:04.792634  4514 net.cpp:434] loss_relu1 <- loss1_conv1
I0918 11:15:04.792639  4514 net.cpp:395] loss_relu1 -> loss1_conv1 (in-place)
I0918 11:15:04.792793  4514 net.cpp:150] Setting up loss_relu1
I0918 11:15:04.792799  4514 net.cpp:157] Top shape: 2 512 96 96 (9437184)
I0918 11:15:04.792804  4514 net.cpp:165] Memory required for data: 2991995164
I0918 11:15:04.792807  4514 layer_factory.hpp:77] Creating layer loss1_conv1_loss_relu1_0_split
I0918 11:15:04.792815  4514 net.cpp:100] Creating Layer loss1_conv1_loss_relu1_0_split
I0918 11:15:04.792819  4514 net.cpp:434] loss1_conv1_loss_relu1_0_split <- loss1_conv1
I0918 11:15:04.792825  4514 net.cpp:408] loss1_conv1_loss_relu1_0_split -> loss1_conv1_loss_relu1_0_split_0
I0918 11:15:04.792834  4514 net.cpp:408] loss1_conv1_loss_relu1_0_split -> loss1_conv1_loss_relu1_0_split_1
I0918 11:15:04.792876  4514 net.cpp:150] Setting up loss1_conv1_loss_relu1_0_split
I0918 11:15:04.792884  4514 net.cpp:157] Top shape: 2 512 96 96 (9437184)
I0918 11:15:04.792888  4514 net.cpp:157] Top shape: 2 512 96 96 (9437184)
I0918 11:15:04.792891  4514 net.cpp:165] Memory required for data: 3067492636
I0918 11:15:04.792894  4514 layer_factory.hpp:77] Creating layer LFCN_1_5x5
I0918 11:15:04.792910  4514 net.cpp:100] Creating Layer LFCN_1_5x5
I0918 11:15:04.792913  4514 net.cpp:434] LFCN_1_5x5 <- loss1_conv1_loss_relu1_0_split_0
I0918 11:15:04.792919  4514 net.cpp:408] LFCN_1_5x5 -> LFCN_1_5x5
I0918 11:15:04.798465  4514 net.cpp:150] Setting up LFCN_1_5x5
I0918 11:15:04.798482  4514 net.cpp:157] Top shape: 2 9 96 96 (165888)
I0918 11:15:04.798486  4514 net.cpp:165] Memory required for data: 3068156188
I0918 11:15:04.798493  4514 layer_factory.hpp:77] Creating layer LFCN_1_5x5_LFCN_1_5x5_0_split
I0918 11:15:04.798502  4514 net.cpp:100] Creating Layer LFCN_1_5x5_LFCN_1_5x5_0_split
I0918 11:15:04.798507  4514 net.cpp:434] LFCN_1_5x5_LFCN_1_5x5_0_split <- LFCN_1_5x5
I0918 11:15:04.798513  4514 net.cpp:408] LFCN_1_5x5_LFCN_1_5x5_0_split -> LFCN_1_5x5_LFCN_1_5x5_0_split_0
I0918 11:15:04.798521  4514 net.cpp:408] LFCN_1_5x5_LFCN_1_5x5_0_split -> LFCN_1_5x5_LFCN_1_5x5_0_split_1
I0918 11:15:04.798529  4514 net.cpp:408] LFCN_1_5x5_LFCN_1_5x5_0_split -> LFCN_1_5x5_LFCN_1_5x5_0_split_2
I0918 11:15:04.798588  4514 net.cpp:150] Setting up LFCN_1_5x5_LFCN_1_5x5_0_split
I0918 11:15:04.798596  4514 net.cpp:157] Top shape: 2 9 96 96 (165888)
I0918 11:15:04.798602  4514 net.cpp:157] Top shape: 2 9 96 96 (165888)
I0918 11:15:04.798609  4514 net.cpp:157] Top shape: 2 9 96 96 (165888)
I0918 11:15:04.798612  4514 net.cpp:165] Memory required for data: 3070146844
I0918 11:15:04.798617  4514 layer_factory.hpp:77] Creating layer detection_loss_1_5x5
I0918 11:15:04.798627  4514 net.cpp:100] Creating Layer detection_loss_1_5x5
I0918 11:15:04.798632  4514 net.cpp:434] detection_loss_1_5x5 <- LFCN_1_5x5_LFCN_1_5x5_0_split_0
I0918 11:15:04.798638  4514 net.cpp:434] detection_loss_1_5x5 <- label_1_5x5_data_1_split_0
I0918 11:15:04.798647  4514 net.cpp:408] detection_loss_1_5x5 -> loss_1_5x5
I0918 11:15:04.798658  4514 layer_factory.hpp:77] Creating layer detection_loss_1_5x5
I0918 11:15:04.799100  4514 net.cpp:150] Setting up detection_loss_1_5x5
I0918 11:15:04.799111  4514 net.cpp:157] Top shape: 1 1 1 2 (2)
I0918 11:15:04.799115  4514 net.cpp:160]     with loss weight 0.9
I0918 11:15:04.799129  4514 net.cpp:165] Memory required for data: 3070146852
I0918 11:15:04.799134  4514 layer_factory.hpp:77] Creating layer detection_accuracy_1_5x5
I0918 11:15:04.799140  4514 net.cpp:100] Creating Layer detection_accuracy_1_5x5
I0918 11:15:04.799144  4514 net.cpp:434] detection_accuracy_1_5x5 <- LFCN_1_5x5_LFCN_1_5x5_0_split_1
I0918 11:15:04.799149  4514 net.cpp:434] detection_accuracy_1_5x5 <- label_1_5x5_data_1_split_1
I0918 11:15:04.799156  4514 net.cpp:408] detection_accuracy_1_5x5 -> accuracy_1_5x5
I0918 11:15:04.799165  4514 net.cpp:408] detection_accuracy_1_5x5 -> boxiou_1_5x5
I0918 11:15:04.799208  4514 net.cpp:150] Setting up detection_accuracy_1_5x5
I0918 11:15:04.799217  4514 net.cpp:157] Top shape: 1 1 1 2 (2)
I0918 11:15:04.799221  4514 net.cpp:157] Top shape: 1 1 1 1 (1)
I0918 11:15:04.799226  4514 net.cpp:165] Memory required for data: 3070146864
I0918 11:15:04.799229  4514 layer_factory.hpp:77] Creating layer LFCN_1_7x7
I0918 11:15:04.799238  4514 net.cpp:100] Creating Layer LFCN_1_7x7
I0918 11:15:04.799242  4514 net.cpp:434] LFCN_1_7x7 <- loss1_conv1_loss_relu1_0_split_1
I0918 11:15:04.799249  4514 net.cpp:408] LFCN_1_7x7 -> LFCN_1_7x7
I0918 11:15:04.807335  4514 net.cpp:150] Setting up LFCN_1_7x7
I0918 11:15:04.807359  4514 net.cpp:157] Top shape: 2 9 96 96 (165888)
I0918 11:15:04.807363  4514 net.cpp:165] Memory required for data: 3070810416
I0918 11:15:04.807371  4514 layer_factory.hpp:77] Creating layer LFCN_1_7x7_LFCN_1_7x7_0_split
I0918 11:15:04.807382  4514 net.cpp:100] Creating Layer LFCN_1_7x7_LFCN_1_7x7_0_split
I0918 11:15:04.807387  4514 net.cpp:434] LFCN_1_7x7_LFCN_1_7x7_0_split <- LFCN_1_7x7
I0918 11:15:04.807394  4514 net.cpp:408] LFCN_1_7x7_LFCN_1_7x7_0_split -> LFCN_1_7x7_LFCN_1_7x7_0_split_0
I0918 11:15:04.807401  4514 net.cpp:408] LFCN_1_7x7_LFCN_1_7x7_0_split -> LFCN_1_7x7_LFCN_1_7x7_0_split_1
I0918 11:15:04.807413  4514 net.cpp:408] LFCN_1_7x7_LFCN_1_7x7_0_split -> LFCN_1_7x7_LFCN_1_7x7_0_split_2
I0918 11:15:04.807484  4514 net.cpp:150] Setting up LFCN_1_7x7_LFCN_1_7x7_0_split
I0918 11:15:04.807494  4514 net.cpp:157] Top shape: 2 9 96 96 (165888)
I0918 11:15:04.807500  4514 net.cpp:157] Top shape: 2 9 96 96 (165888)
I0918 11:15:04.807507  4514 net.cpp:157] Top shape: 2 9 96 96 (165888)
I0918 11:15:04.807510  4514 net.cpp:165] Memory required for data: 3072801072
I0918 11:15:04.807515  4514 layer_factory.hpp:77] Creating layer detection_loss_1_7x7
I0918 11:15:04.807528  4514 net.cpp:100] Creating Layer detection_loss_1_7x7
I0918 11:15:04.807535  4514 net.cpp:434] detection_loss_1_7x7 <- LFCN_1_7x7_LFCN_1_7x7_0_split_0
I0918 11:15:04.807543  4514 net.cpp:434] detection_loss_1_7x7 <- label_1_7x7_data_2_split_0
I0918 11:15:04.807554  4514 net.cpp:408] detection_loss_1_7x7 -> loss_1_7x7
I0918 11:15:04.807569  4514 layer_factory.hpp:77] Creating layer detection_loss_1_7x7
I0918 11:15:04.808584  4514 net.cpp:150] Setting up detection_loss_1_7x7
I0918 11:15:04.808621  4514 net.cpp:157] Top shape: 1 1 1 2 (2)
I0918 11:15:04.808635  4514 net.cpp:160]     with loss weight 0.9
I0918 11:15:04.808660  4514 net.cpp:165] Memory required for data: 3072801080
I0918 11:15:04.808673  4514 layer_factory.hpp:77] Creating layer detection_accuracy_1_7x7
I0918 11:15:04.808696  4514 net.cpp:100] Creating Layer detection_accuracy_1_7x7
I0918 11:15:04.808710  4514 net.cpp:434] detection_accuracy_1_7x7 <- LFCN_1_7x7_LFCN_1_7x7_0_split_1
I0918 11:15:04.808728  4514 net.cpp:434] detection_accuracy_1_7x7 <- label_1_7x7_data_2_split_1
I0918 11:15:04.808748  4514 net.cpp:408] detection_accuracy_1_7x7 -> accuracy_1_7x7
I0918 11:15:04.808774  4514 net.cpp:408] detection_accuracy_1_7x7 -> boxiou_1_7x7
I0918 11:15:04.808902  4514 net.cpp:150] Setting up detection_accuracy_1_7x7
I0918 11:15:04.808921  4514 net.cpp:157] Top shape: 1 1 1 2 (2)
I0918 11:15:04.808938  4514 net.cpp:157] Top shape: 1 1 1 1 (1)
I0918 11:15:04.808948  4514 net.cpp:165] Memory required for data: 3072801092
I0918 11:15:04.808961  4514 layer_factory.hpp:77] Creating layer pool4
I0918 11:15:04.808984  4514 net.cpp:100] Creating Layer pool4
I0918 11:15:04.808998  4514 net.cpp:434] pool4 <- conv4_3_relu4_3_0_split_1
I0918 11:15:04.809016  4514 net.cpp:408] pool4 -> pool4
I0918 11:15:04.809140  4514 net.cpp:150] Setting up pool4
I0918 11:15:04.809157  4514 net.cpp:157] Top shape: 2 512 48 48 (2359296)
I0918 11:15:04.809166  4514 net.cpp:165] Memory required for data: 3082238276
I0918 11:15:04.809175  4514 layer_factory.hpp:77] Creating layer conv5_1
I0918 11:15:04.809195  4514 net.cpp:100] Creating Layer conv5_1
I0918 11:15:04.809204  4514 net.cpp:434] conv5_1 <- pool4
I0918 11:15:04.809218  4514 net.cpp:408] conv5_1 -> conv5_1
I0918 11:15:04.823717  4514 net.cpp:150] Setting up conv5_1
I0918 11:15:04.823748  4514 net.cpp:157] Top shape: 2 512 48 48 (2359296)
I0918 11:15:04.823755  4514 net.cpp:165] Memory required for data: 3091675460
I0918 11:15:04.823765  4514 layer_factory.hpp:77] Creating layer relu5_1
I0918 11:15:04.823781  4514 net.cpp:100] Creating Layer relu5_1
I0918 11:15:04.823787  4514 net.cpp:434] relu5_1 <- conv5_1
I0918 11:15:04.823802  4514 net.cpp:395] relu5_1 -> conv5_1 (in-place)
I0918 11:15:04.824054  4514 net.cpp:150] Setting up relu5_1
I0918 11:15:04.824066  4514 net.cpp:157] Top shape: 2 512 48 48 (2359296)
I0918 11:15:04.824071  4514 net.cpp:165] Memory required for data: 3101112644
I0918 11:15:04.824075  4514 layer_factory.hpp:77] Creating layer conv5_2
I0918 11:15:04.824088  4514 net.cpp:100] Creating Layer conv5_2
I0918 11:15:04.824092  4514 net.cpp:434] conv5_2 <- conv5_1
I0918 11:15:04.824101  4514 net.cpp:408] conv5_2 -> conv5_2
I0918 11:15:04.832340  4514 net.cpp:150] Setting up conv5_2
I0918 11:15:04.832396  4514 net.cpp:157] Top shape: 2 512 48 48 (2359296)
I0918 11:15:04.832401  4514 net.cpp:165] Memory required for data: 3110549828
I0918 11:15:04.832417  4514 layer_factory.hpp:77] Creating layer relu5_2
I0918 11:15:04.832437  4514 net.cpp:100] Creating Layer relu5_2
I0918 11:15:04.832445  4514 net.cpp:434] relu5_2 <- conv5_2
I0918 11:15:04.832451  4514 net.cpp:395] relu5_2 -> conv5_2 (in-place)
I0918 11:15:04.833410  4514 net.cpp:150] Setting up relu5_2
I0918 11:15:04.833506  4514 net.cpp:157] Top shape: 2 512 48 48 (2359296)
I0918 11:15:04.833513  4514 net.cpp:165] Memory required for data: 3119987012
I0918 11:15:04.833523  4514 layer_factory.hpp:77] Creating layer conv5_3
I0918 11:15:04.833564  4514 net.cpp:100] Creating Layer conv5_3
I0918 11:15:04.833577  4514 net.cpp:434] conv5_3 <- conv5_2
I0918 11:15:04.833595  4514 net.cpp:408] conv5_3 -> conv5_3
I0918 11:15:04.843753  4514 net.cpp:150] Setting up conv5_3
I0918 11:15:04.843782  4514 net.cpp:157] Top shape: 2 512 48 48 (2359296)
I0918 11:15:04.843786  4514 net.cpp:165] Memory required for data: 3129424196
I0918 11:15:04.843796  4514 layer_factory.hpp:77] Creating layer relu5_3
I0918 11:15:04.843807  4514 net.cpp:100] Creating Layer relu5_3
I0918 11:15:04.843814  4514 net.cpp:434] relu5_3 <- conv5_3
I0918 11:15:04.843822  4514 net.cpp:395] relu5_3 -> conv5_3 (in-place)
I0918 11:15:04.844003  4514 net.cpp:150] Setting up relu5_3
I0918 11:15:04.844014  4514 net.cpp:157] Top shape: 2 512 48 48 (2359296)
I0918 11:15:04.844018  4514 net.cpp:165] Memory required for data: 3138861380
I0918 11:15:04.844022  4514 layer_factory.hpp:77] Creating layer conv5_3_relu5_3_0_split
I0918 11:15:04.844028  4514 net.cpp:100] Creating Layer conv5_3_relu5_3_0_split
I0918 11:15:04.844033  4514 net.cpp:434] conv5_3_relu5_3_0_split <- conv5_3
I0918 11:15:04.844038  4514 net.cpp:408] conv5_3_relu5_3_0_split -> conv5_3_relu5_3_0_split_0
I0918 11:15:04.844045  4514 net.cpp:408] conv5_3_relu5_3_0_split -> conv5_3_relu5_3_0_split_1
I0918 11:15:04.844050  4514 net.cpp:408] conv5_3_relu5_3_0_split -> conv5_3_relu5_3_0_split_2
I0918 11:15:04.844105  4514 net.cpp:150] Setting up conv5_3_relu5_3_0_split
I0918 11:15:04.844111  4514 net.cpp:157] Top shape: 2 512 48 48 (2359296)
I0918 11:15:04.844116  4514 net.cpp:157] Top shape: 2 512 48 48 (2359296)
I0918 11:15:04.844120  4514 net.cpp:157] Top shape: 2 512 48 48 (2359296)
I0918 11:15:04.844123  4514 net.cpp:165] Memory required for data: 3167172932
I0918 11:15:04.844126  4514 layer_factory.hpp:77] Creating layer LFCN_2_5x5
I0918 11:15:04.844137  4514 net.cpp:100] Creating Layer LFCN_2_5x5
I0918 11:15:04.844141  4514 net.cpp:434] LFCN_2_5x5 <- conv5_3_relu5_3_0_split_0
I0918 11:15:04.844147  4514 net.cpp:408] LFCN_2_5x5 -> LFCN_2_5x5
I0918 11:15:04.849324  4514 net.cpp:150] Setting up LFCN_2_5x5
I0918 11:15:04.849345  4514 net.cpp:157] Top shape: 2 9 48 48 (41472)
I0918 11:15:04.849350  4514 net.cpp:165] Memory required for data: 3167338820
I0918 11:15:04.849364  4514 layer_factory.hpp:77] Creating layer LFCN_2_5x5_LFCN_2_5x5_0_split
I0918 11:15:04.849373  4514 net.cpp:100] Creating Layer LFCN_2_5x5_LFCN_2_5x5_0_split
I0918 11:15:04.849378  4514 net.cpp:434] LFCN_2_5x5_LFCN_2_5x5_0_split <- LFCN_2_5x5
I0918 11:15:04.849385  4514 net.cpp:408] LFCN_2_5x5_LFCN_2_5x5_0_split -> LFCN_2_5x5_LFCN_2_5x5_0_split_0
I0918 11:15:04.849392  4514 net.cpp:408] LFCN_2_5x5_LFCN_2_5x5_0_split -> LFCN_2_5x5_LFCN_2_5x5_0_split_1
I0918 11:15:04.849398  4514 net.cpp:408] LFCN_2_5x5_LFCN_2_5x5_0_split -> LFCN_2_5x5_LFCN_2_5x5_0_split_2
I0918 11:15:04.849452  4514 net.cpp:150] Setting up LFCN_2_5x5_LFCN_2_5x5_0_split
I0918 11:15:04.849472  4514 net.cpp:157] Top shape: 2 9 48 48 (41472)
I0918 11:15:04.849478  4514 net.cpp:157] Top shape: 2 9 48 48 (41472)
I0918 11:15:04.849483  4514 net.cpp:157] Top shape: 2 9 48 48 (41472)
I0918 11:15:04.849486  4514 net.cpp:165] Memory required for data: 3167836484
I0918 11:15:04.849491  4514 layer_factory.hpp:77] Creating layer detection_loss_2_5x5
I0918 11:15:04.849504  4514 net.cpp:100] Creating Layer detection_loss_2_5x5
I0918 11:15:04.849510  4514 net.cpp:434] detection_loss_2_5x5 <- LFCN_2_5x5_LFCN_2_5x5_0_split_0
I0918 11:15:04.849517  4514 net.cpp:434] detection_loss_2_5x5 <- label_2_5x5_data_3_split_0
I0918 11:15:04.849524  4514 net.cpp:408] detection_loss_2_5x5 -> loss_2_5x5
I0918 11:15:04.849537  4514 layer_factory.hpp:77] Creating layer detection_loss_2_5x5
I0918 11:15:04.852233  4514 net.cpp:150] Setting up detection_loss_2_5x5
I0918 11:15:04.852272  4514 net.cpp:157] Top shape: 1 1 1 2 (2)
I0918 11:15:04.852275  4514 net.cpp:160]     with loss weight 1
I0918 11:15:04.852286  4514 net.cpp:165] Memory required for data: 3167836492
I0918 11:15:04.852291  4514 layer_factory.hpp:77] Creating layer detection_accuracy_2_5x5
I0918 11:15:04.852304  4514 net.cpp:100] Creating Layer detection_accuracy_2_5x5
I0918 11:15:04.852310  4514 net.cpp:434] detection_accuracy_2_5x5 <- LFCN_2_5x5_LFCN_2_5x5_0_split_1
I0918 11:15:04.852318  4514 net.cpp:434] detection_accuracy_2_5x5 <- label_2_5x5_data_3_split_1
I0918 11:15:04.852324  4514 net.cpp:408] detection_accuracy_2_5x5 -> accuracy_2_5x5
I0918 11:15:04.852334  4514 net.cpp:408] detection_accuracy_2_5x5 -> boxiou_2_5x5
I0918 11:15:04.852383  4514 net.cpp:150] Setting up detection_accuracy_2_5x5
I0918 11:15:04.852392  4514 net.cpp:157] Top shape: 1 1 1 2 (2)
I0918 11:15:04.852396  4514 net.cpp:157] Top shape: 1 1 1 1 (1)
I0918 11:15:04.852399  4514 net.cpp:165] Memory required for data: 3167836504
I0918 11:15:04.852402  4514 layer_factory.hpp:77] Creating layer LFCN_2_7x7
I0918 11:15:04.852421  4514 net.cpp:100] Creating Layer LFCN_2_7x7
I0918 11:15:04.852425  4514 net.cpp:434] LFCN_2_7x7 <- conv5_3_relu5_3_0_split_1
I0918 11:15:04.852432  4514 net.cpp:408] LFCN_2_7x7 -> LFCN_2_7x7
I0918 11:15:04.859634  4514 net.cpp:150] Setting up LFCN_2_7x7
I0918 11:15:04.859659  4514 net.cpp:157] Top shape: 2 9 48 48 (41472)
I0918 11:15:04.859668  4514 net.cpp:165] Memory required for data: 3168002392
I0918 11:15:04.859683  4514 layer_factory.hpp:77] Creating layer LFCN_2_7x7_LFCN_2_7x7_0_split
I0918 11:15:04.859699  4514 net.cpp:100] Creating Layer LFCN_2_7x7_LFCN_2_7x7_0_split
I0918 11:15:04.859706  4514 net.cpp:434] LFCN_2_7x7_LFCN_2_7x7_0_split <- LFCN_2_7x7
I0918 11:15:04.859719  4514 net.cpp:408] LFCN_2_7x7_LFCN_2_7x7_0_split -> LFCN_2_7x7_LFCN_2_7x7_0_split_0
I0918 11:15:04.859736  4514 net.cpp:408] LFCN_2_7x7_LFCN_2_7x7_0_split -> LFCN_2_7x7_LFCN_2_7x7_0_split_1
I0918 11:15:04.859751  4514 net.cpp:408] LFCN_2_7x7_LFCN_2_7x7_0_split -> LFCN_2_7x7_LFCN_2_7x7_0_split_2
I0918 11:15:04.859825  4514 net.cpp:150] Setting up LFCN_2_7x7_LFCN_2_7x7_0_split
I0918 11:15:04.859835  4514 net.cpp:157] Top shape: 2 9 48 48 (41472)
I0918 11:15:04.859840  4514 net.cpp:157] Top shape: 2 9 48 48 (41472)
I0918 11:15:04.859845  4514 net.cpp:157] Top shape: 2 9 48 48 (41472)
I0918 11:15:04.859849  4514 net.cpp:165] Memory required for data: 3168500056
I0918 11:15:04.859853  4514 layer_factory.hpp:77] Creating layer detection_loss_2_7x7
I0918 11:15:04.859863  4514 net.cpp:100] Creating Layer detection_loss_2_7x7
I0918 11:15:04.859868  4514 net.cpp:434] detection_loss_2_7x7 <- LFCN_2_7x7_LFCN_2_7x7_0_split_0
I0918 11:15:04.859874  4514 net.cpp:434] detection_loss_2_7x7 <- label_2_7x7_data_4_split_0
I0918 11:15:04.859882  4514 net.cpp:408] detection_loss_2_7x7 -> loss_2_7x7
I0918 11:15:04.859895  4514 layer_factory.hpp:77] Creating layer detection_loss_2_7x7
I0918 11:15:04.860321  4514 net.cpp:150] Setting up detection_loss_2_7x7
I0918 11:15:04.860330  4514 net.cpp:157] Top shape: 1 1 1 2 (2)
I0918 11:15:04.860334  4514 net.cpp:160]     with loss weight 1
I0918 11:15:04.860344  4514 net.cpp:165] Memory required for data: 3168500064
I0918 11:15:04.860348  4514 layer_factory.hpp:77] Creating layer detection_accuracy_2_7x7
I0918 11:15:04.860357  4514 net.cpp:100] Creating Layer detection_accuracy_2_7x7
I0918 11:15:04.860361  4514 net.cpp:434] detection_accuracy_2_7x7 <- LFCN_2_7x7_LFCN_2_7x7_0_split_1
I0918 11:15:04.860368  4514 net.cpp:434] detection_accuracy_2_7x7 <- label_2_7x7_data_4_split_1
I0918 11:15:04.860376  4514 net.cpp:408] detection_accuracy_2_7x7 -> accuracy_2_7x7
I0918 11:15:04.860386  4514 net.cpp:408] detection_accuracy_2_7x7 -> boxiou_2_7x7
I0918 11:15:04.860437  4514 net.cpp:150] Setting up detection_accuracy_2_7x7
I0918 11:15:04.860445  4514 net.cpp:157] Top shape: 1 1 1 2 (2)
I0918 11:15:04.860450  4514 net.cpp:157] Top shape: 1 1 1 1 (1)
I0918 11:15:04.860453  4514 net.cpp:165] Memory required for data: 3168500076
I0918 11:15:04.860457  4514 layer_factory.hpp:77] Creating layer pool5
I0918 11:15:04.860466  4514 net.cpp:100] Creating Layer pool5
I0918 11:15:04.860469  4514 net.cpp:434] pool5 <- conv5_3_relu5_3_0_split_2
I0918 11:15:04.860476  4514 net.cpp:408] pool5 -> pool5
I0918 11:15:04.860522  4514 net.cpp:150] Setting up pool5
I0918 11:15:04.860528  4514 net.cpp:157] Top shape: 2 512 24 24 (589824)
I0918 11:15:04.860532  4514 net.cpp:165] Memory required for data: 3170859372
I0918 11:15:04.860536  4514 layer_factory.hpp:77] Creating layer conv6_1
I0918 11:15:04.860551  4514 net.cpp:100] Creating Layer conv6_1
I0918 11:15:04.860556  4514 net.cpp:434] conv6_1 <- pool5
I0918 11:15:04.860565  4514 net.cpp:408] conv6_1 -> conv6_1
I0918 11:15:04.924244  4514 net.cpp:150] Setting up conv6_1
I0918 11:15:04.924271  4514 net.cpp:157] Top shape: 2 512 24 24 (589824)
I0918 11:15:04.924275  4514 net.cpp:165] Memory required for data: 3173218668
I0918 11:15:04.924283  4514 layer_factory.hpp:77] Creating layer relu6_1
I0918 11:15:04.924293  4514 net.cpp:100] Creating Layer relu6_1
I0918 11:15:04.924299  4514 net.cpp:434] relu6_1 <- conv6_1
I0918 11:15:04.924305  4514 net.cpp:395] relu6_1 -> conv6_1 (in-place)
I0918 11:15:04.924473  4514 net.cpp:150] Setting up relu6_1
I0918 11:15:04.924484  4514 net.cpp:157] Top shape: 2 512 24 24 (589824)
I0918 11:15:04.924487  4514 net.cpp:165] Memory required for data: 3175577964
I0918 11:15:04.924490  4514 layer_factory.hpp:77] Creating layer conv6_1_relu6_1_0_split
I0918 11:15:04.924497  4514 net.cpp:100] Creating Layer conv6_1_relu6_1_0_split
I0918 11:15:04.924500  4514 net.cpp:434] conv6_1_relu6_1_0_split <- conv6_1
I0918 11:15:04.924505  4514 net.cpp:408] conv6_1_relu6_1_0_split -> conv6_1_relu6_1_0_split_0
I0918 11:15:04.924512  4514 net.cpp:408] conv6_1_relu6_1_0_split -> conv6_1_relu6_1_0_split_1
I0918 11:15:04.924517  4514 net.cpp:408] conv6_1_relu6_1_0_split -> conv6_1_relu6_1_0_split_2
I0918 11:15:04.924572  4514 net.cpp:150] Setting up conv6_1_relu6_1_0_split
I0918 11:15:04.924579  4514 net.cpp:157] Top shape: 2 512 24 24 (589824)
I0918 11:15:04.924583  4514 net.cpp:157] Top shape: 2 512 24 24 (589824)
I0918 11:15:04.924587  4514 net.cpp:157] Top shape: 2 512 24 24 (589824)
I0918 11:15:04.924590  4514 net.cpp:165] Memory required for data: 3182655852
I0918 11:15:04.924594  4514 layer_factory.hpp:77] Creating layer LFCN_3_5x5
I0918 11:15:04.924604  4514 net.cpp:100] Creating Layer LFCN_3_5x5
I0918 11:15:04.924609  4514 net.cpp:434] LFCN_3_5x5 <- conv6_1_relu6_1_0_split_0
I0918 11:15:04.924618  4514 net.cpp:408] LFCN_3_5x5 -> LFCN_3_5x5
I0918 11:15:04.928529  4514 net.cpp:150] Setting up LFCN_3_5x5
I0918 11:15:04.928539  4514 net.cpp:157] Top shape: 2 9 24 24 (10368)
I0918 11:15:04.928544  4514 net.cpp:165] Memory required for data: 3182697324
I0918 11:15:04.928548  4514 layer_factory.hpp:77] Creating layer LFCN_3_5x5_LFCN_3_5x5_0_split
I0918 11:15:04.928553  4514 net.cpp:100] Creating Layer LFCN_3_5x5_LFCN_3_5x5_0_split
I0918 11:15:04.928557  4514 net.cpp:434] LFCN_3_5x5_LFCN_3_5x5_0_split <- LFCN_3_5x5
I0918 11:15:04.928561  4514 net.cpp:408] LFCN_3_5x5_LFCN_3_5x5_0_split -> LFCN_3_5x5_LFCN_3_5x5_0_split_0
I0918 11:15:04.928567  4514 net.cpp:408] LFCN_3_5x5_LFCN_3_5x5_0_split -> LFCN_3_5x5_LFCN_3_5x5_0_split_1
I0918 11:15:04.928572  4514 net.cpp:408] LFCN_3_5x5_LFCN_3_5x5_0_split -> LFCN_3_5x5_LFCN_3_5x5_0_split_2
I0918 11:15:04.928617  4514 net.cpp:150] Setting up LFCN_3_5x5_LFCN_3_5x5_0_split
I0918 11:15:04.928623  4514 net.cpp:157] Top shape: 2 9 24 24 (10368)
I0918 11:15:04.928627  4514 net.cpp:157] Top shape: 2 9 24 24 (10368)
I0918 11:15:04.928630  4514 net.cpp:157] Top shape: 2 9 24 24 (10368)
I0918 11:15:04.928633  4514 net.cpp:165] Memory required for data: 3182821740
I0918 11:15:04.928637  4514 layer_factory.hpp:77] Creating layer detection_loss_3_5x5
I0918 11:15:04.928642  4514 net.cpp:100] Creating Layer detection_loss_3_5x5
I0918 11:15:04.928645  4514 net.cpp:434] detection_loss_3_5x5 <- LFCN_3_5x5_LFCN_3_5x5_0_split_0
I0918 11:15:04.928649  4514 net.cpp:434] detection_loss_3_5x5 <- label_3_5x5_data_5_split_0
I0918 11:15:04.928654  4514 net.cpp:408] detection_loss_3_5x5 -> loss_3_5x5
I0918 11:15:04.928661  4514 layer_factory.hpp:77] Creating layer detection_loss_3_5x5
I0918 11:15:04.928995  4514 net.cpp:150] Setting up detection_loss_3_5x5
I0918 11:15:04.929005  4514 net.cpp:157] Top shape: 1 1 1 2 (2)
I0918 11:15:04.929008  4514 net.cpp:160]     with loss weight 1
I0918 11:15:04.929018  4514 net.cpp:165] Memory required for data: 3182821748
I0918 11:15:04.929023  4514 layer_factory.hpp:77] Creating layer detection_accuracy_3_5x5
I0918 11:15:04.929029  4514 net.cpp:100] Creating Layer detection_accuracy_3_5x5
I0918 11:15:04.929033  4514 net.cpp:434] detection_accuracy_3_5x5 <- LFCN_3_5x5_LFCN_3_5x5_0_split_1
I0918 11:15:04.929039  4514 net.cpp:434] detection_accuracy_3_5x5 <- label_3_5x5_data_5_split_1
I0918 11:15:04.929044  4514 net.cpp:408] detection_accuracy_3_5x5 -> accuracy_3_5x5
I0918 11:15:04.929051  4514 net.cpp:408] detection_accuracy_3_5x5 -> boxiou_3_5x5
I0918 11:15:04.929090  4514 net.cpp:150] Setting up detection_accuracy_3_5x5
I0918 11:15:04.929097  4514 net.cpp:157] Top shape: 1 1 1 2 (2)
I0918 11:15:04.929101  4514 net.cpp:157] Top shape: 1 1 1 1 (1)
I0918 11:15:04.929105  4514 net.cpp:165] Memory required for data: 3182821760
I0918 11:15:04.929107  4514 layer_factory.hpp:77] Creating layer LFCN_3_7x7
I0918 11:15:04.929116  4514 net.cpp:100] Creating Layer LFCN_3_7x7
I0918 11:15:04.929121  4514 net.cpp:434] LFCN_3_7x7 <- conv6_1_relu6_1_0_split_1
I0918 11:15:04.929126  4514 net.cpp:408] LFCN_3_7x7 -> LFCN_3_7x7
I0918 11:15:04.937523  4514 net.cpp:150] Setting up LFCN_3_7x7
I0918 11:15:04.937544  4514 net.cpp:157] Top shape: 2 9 24 24 (10368)
I0918 11:15:04.937547  4514 net.cpp:165] Memory required for data: 3182863232
I0918 11:15:04.937561  4514 layer_factory.hpp:77] Creating layer LFCN_3_7x7_LFCN_3_7x7_0_split
I0918 11:15:04.937571  4514 net.cpp:100] Creating Layer LFCN_3_7x7_LFCN_3_7x7_0_split
I0918 11:15:04.937575  4514 net.cpp:434] LFCN_3_7x7_LFCN_3_7x7_0_split <- LFCN_3_7x7
I0918 11:15:04.937585  4514 net.cpp:408] LFCN_3_7x7_LFCN_3_7x7_0_split -> LFCN_3_7x7_LFCN_3_7x7_0_split_0
I0918 11:15:04.937597  4514 net.cpp:408] LFCN_3_7x7_LFCN_3_7x7_0_split -> LFCN_3_7x7_LFCN_3_7x7_0_split_1
I0918 11:15:04.937603  4514 net.cpp:408] LFCN_3_7x7_LFCN_3_7x7_0_split -> LFCN_3_7x7_LFCN_3_7x7_0_split_2
I0918 11:15:04.937661  4514 net.cpp:150] Setting up LFCN_3_7x7_LFCN_3_7x7_0_split
I0918 11:15:04.937669  4514 net.cpp:157] Top shape: 2 9 24 24 (10368)
I0918 11:15:04.937674  4514 net.cpp:157] Top shape: 2 9 24 24 (10368)
I0918 11:15:04.937677  4514 net.cpp:157] Top shape: 2 9 24 24 (10368)
I0918 11:15:04.937680  4514 net.cpp:165] Memory required for data: 3182987648
I0918 11:15:04.937683  4514 layer_factory.hpp:77] Creating layer detection_loss_3_7x7
I0918 11:15:04.937690  4514 net.cpp:100] Creating Layer detection_loss_3_7x7
I0918 11:15:04.937693  4514 net.cpp:434] detection_loss_3_7x7 <- LFCN_3_7x7_LFCN_3_7x7_0_split_0
I0918 11:15:04.937698  4514 net.cpp:434] detection_loss_3_7x7 <- label_3_7x7_data_6_split_0
I0918 11:15:04.937705  4514 net.cpp:408] detection_loss_3_7x7 -> loss_3_7x7
I0918 11:15:04.937714  4514 layer_factory.hpp:77] Creating layer detection_loss_3_7x7
I0918 11:15:04.938509  4514 net.cpp:150] Setting up detection_loss_3_7x7
I0918 11:15:04.938521  4514 net.cpp:157] Top shape: 1 1 1 2 (2)
I0918 11:15:04.938524  4514 net.cpp:160]     with loss weight 1
I0918 11:15:04.938534  4514 net.cpp:165] Memory required for data: 3182987656
I0918 11:15:04.938539  4514 layer_factory.hpp:77] Creating layer detection_accuracy_3_7x7
I0918 11:15:04.938546  4514 net.cpp:100] Creating Layer detection_accuracy_3_7x7
I0918 11:15:04.938550  4514 net.cpp:434] detection_accuracy_3_7x7 <- LFCN_3_7x7_LFCN_3_7x7_0_split_1
I0918 11:15:04.938555  4514 net.cpp:434] detection_accuracy_3_7x7 <- label_3_7x7_data_6_split_1
I0918 11:15:04.938561  4514 net.cpp:408] detection_accuracy_3_7x7 -> accuracy_3_7x7
I0918 11:15:04.938570  4514 net.cpp:408] detection_accuracy_3_7x7 -> boxiou_3_7x7
I0918 11:15:04.938612  4514 net.cpp:150] Setting up detection_accuracy_3_7x7
I0918 11:15:04.938618  4514 net.cpp:157] Top shape: 1 1 1 2 (2)
I0918 11:15:04.938622  4514 net.cpp:157] Top shape: 1 1 1 1 (1)
I0918 11:15:04.938625  4514 net.cpp:165] Memory required for data: 3182987668
I0918 11:15:04.938628  4514 layer_factory.hpp:77] Creating layer pool6
I0918 11:15:04.938634  4514 net.cpp:100] Creating Layer pool6
I0918 11:15:04.938638  4514 net.cpp:434] pool6 <- conv6_1_relu6_1_0_split_2
I0918 11:15:04.938644  4514 net.cpp:408] pool6 -> pool6
I0918 11:15:04.938683  4514 net.cpp:150] Setting up pool6
I0918 11:15:04.938688  4514 net.cpp:157] Top shape: 2 512 12 12 (147456)
I0918 11:15:04.938691  4514 net.cpp:165] Memory required for data: 3183577492
I0918 11:15:04.938695  4514 layer_factory.hpp:77] Creating layer LFCN_4_5x5
I0918 11:15:04.938706  4514 net.cpp:100] Creating Layer LFCN_4_5x5
I0918 11:15:04.938710  4514 net.cpp:434] LFCN_4_5x5 <- pool6
I0918 11:15:04.938715  4514 net.cpp:408] LFCN_4_5x5 -> LFCN_4_5x5
I0918 11:15:04.942775  4514 net.cpp:150] Setting up LFCN_4_5x5
I0918 11:15:04.942792  4514 net.cpp:157] Top shape: 2 9 12 12 (2592)
I0918 11:15:04.942795  4514 net.cpp:165] Memory required for data: 3183587860
I0918 11:15:04.942802  4514 layer_factory.hpp:77] Creating layer LFCN_4_5x5_LFCN_4_5x5_0_split
I0918 11:15:04.942808  4514 net.cpp:100] Creating Layer LFCN_4_5x5_LFCN_4_5x5_0_split
I0918 11:15:04.942813  4514 net.cpp:434] LFCN_4_5x5_LFCN_4_5x5_0_split <- LFCN_4_5x5
I0918 11:15:04.942818  4514 net.cpp:408] LFCN_4_5x5_LFCN_4_5x5_0_split -> LFCN_4_5x5_LFCN_4_5x5_0_split_0
I0918 11:15:04.942826  4514 net.cpp:408] LFCN_4_5x5_LFCN_4_5x5_0_split -> LFCN_4_5x5_LFCN_4_5x5_0_split_1
I0918 11:15:04.942831  4514 net.cpp:408] LFCN_4_5x5_LFCN_4_5x5_0_split -> LFCN_4_5x5_LFCN_4_5x5_0_split_2
I0918 11:15:04.942885  4514 net.cpp:150] Setting up LFCN_4_5x5_LFCN_4_5x5_0_split
I0918 11:15:04.942893  4514 net.cpp:157] Top shape: 2 9 12 12 (2592)
I0918 11:15:04.942898  4514 net.cpp:157] Top shape: 2 9 12 12 (2592)
I0918 11:15:04.942901  4514 net.cpp:157] Top shape: 2 9 12 12 (2592)
I0918 11:15:04.942904  4514 net.cpp:165] Memory required for data: 3183618964
I0918 11:15:04.942909  4514 layer_factory.hpp:77] Creating layer detection_loss_4_5x5
I0918 11:15:04.942916  4514 net.cpp:100] Creating Layer detection_loss_4_5x5
I0918 11:15:04.942921  4514 net.cpp:434] detection_loss_4_5x5 <- LFCN_4_5x5_LFCN_4_5x5_0_split_0
I0918 11:15:04.942927  4514 net.cpp:434] detection_loss_4_5x5 <- label_4_5x5_data_7_split_0
I0918 11:15:04.942932  4514 net.cpp:408] detection_loss_4_5x5 -> loss_4_5x5
I0918 11:15:04.942940  4514 layer_factory.hpp:77] Creating layer detection_loss_4_5x5
I0918 11:15:04.943286  4514 net.cpp:150] Setting up detection_loss_4_5x5
I0918 11:15:04.943295  4514 net.cpp:157] Top shape: 1 1 1 2 (2)
I0918 11:15:04.943300  4514 net.cpp:160]     with loss weight 1
I0918 11:15:04.943305  4514 net.cpp:165] Memory required for data: 3183618972
I0918 11:15:04.943310  4514 layer_factory.hpp:77] Creating layer detection_accuracy_4_5x5
I0918 11:15:04.943315  4514 net.cpp:100] Creating Layer detection_accuracy_4_5x5
I0918 11:15:04.943320  4514 net.cpp:434] detection_accuracy_4_5x5 <- LFCN_4_5x5_LFCN_4_5x5_0_split_1
I0918 11:15:04.943323  4514 net.cpp:434] detection_accuracy_4_5x5 <- label_4_5x5_data_7_split_1
I0918 11:15:04.943331  4514 net.cpp:408] detection_accuracy_4_5x5 -> accuracy_4_5x5
I0918 11:15:04.943336  4514 net.cpp:408] detection_accuracy_4_5x5 -> boxiou_4_5x5
I0918 11:15:04.943378  4514 net.cpp:150] Setting up detection_accuracy_4_5x5
I0918 11:15:04.943385  4514 net.cpp:157] Top shape: 1 1 1 2 (2)
I0918 11:15:04.943389  4514 net.cpp:157] Top shape: 1 1 1 1 (1)
I0918 11:15:04.943392  4514 net.cpp:165] Memory required for data: 3183618984
I0918 11:15:04.943397  4514 layer_factory.hpp:77] Creating layer proposals
I0918 11:15:04.943403  4514 net.cpp:100] Creating Layer proposals
I0918 11:15:04.943408  4514 net.cpp:434] proposals <- LFCN_1_5x5_LFCN_1_5x5_0_split_2
I0918 11:15:04.943414  4514 net.cpp:434] proposals <- LFCN_1_7x7_LFCN_1_7x7_0_split_2
I0918 11:15:04.943418  4514 net.cpp:434] proposals <- LFCN_2_5x5_LFCN_2_5x5_0_split_2
I0918 11:15:04.943423  4514 net.cpp:434] proposals <- LFCN_2_7x7_LFCN_2_7x7_0_split_2
I0918 11:15:04.943425  4514 net.cpp:434] proposals <- LFCN_3_5x5_LFCN_3_5x5_0_split_2
I0918 11:15:04.943429  4514 net.cpp:434] proposals <- LFCN_3_7x7_LFCN_3_7x7_0_split_2
I0918 11:15:04.943434  4514 net.cpp:434] proposals <- LFCN_4_5x5_LFCN_4_5x5_0_split_2
I0918 11:15:04.943439  4514 net.cpp:408] proposals -> proposals
I0918 11:15:04.943464  4514 net.cpp:150] Setting up proposals
I0918 11:15:04.943470  4514 net.cpp:157] Top shape: 1 5 1 1 (5)
I0918 11:15:04.943472  4514 net.cpp:165] Memory required for data: 3183619004
I0918 11:15:04.943475  4514 layer_factory.hpp:77] Creating layer proposal_info
I0918 11:15:04.943483  4514 net.cpp:100] Creating Layer proposal_info
I0918 11:15:04.943486  4514 net.cpp:434] proposal_info <- proposals
I0918 11:15:04.943491  4514 net.cpp:434] proposal_info <- gt_boxes
I0918 11:15:04.943497  4514 net.cpp:408] proposal_info -> rois
I0918 11:15:04.943505  4514 net.cpp:408] proposal_info -> proposal_labels
I0918 11:15:04.943511  4514 net.cpp:408] proposal_info -> proposal_targets
I0918 11:15:04.943516  4514 net.cpp:408] proposal_info -> box_inside_weights
I0918 11:15:04.943522  4514 net.cpp:408] proposal_info -> box_outside_weights
I0918 11:15:04.943529  4514 net.cpp:408] proposal_info -> match_gt_boxes
I0918 11:15:04.943622  4514 net.cpp:150] Setting up proposal_info
I0918 11:15:04.943629  4514 net.cpp:157] Top shape: 128 5 1 1 (640)
I0918 11:15:04.943634  4514 net.cpp:157] Top shape: 128 1 1 1 (128)
I0918 11:15:04.943637  4514 net.cpp:157] Top shape: 128 20 1 1 (2560)
I0918 11:15:04.943641  4514 net.cpp:157] Top shape: 128 20 1 1 (2560)
I0918 11:15:04.943645  4514 net.cpp:157] Top shape: 128 20 1 1 (2560)
I0918 11:15:04.943650  4514 net.cpp:157] Top shape: 128 6 1 1 (768)
I0918 11:15:04.943652  4514 net.cpp:165] Memory required for data: 3183655868
I0918 11:15:04.943655  4514 layer_factory.hpp:77] Creating layer rois_proposal_info_0_split
I0918 11:15:04.943660  4514 net.cpp:100] Creating Layer rois_proposal_info_0_split
I0918 11:15:04.943663  4514 net.cpp:434] rois_proposal_info_0_split <- rois
I0918 11:15:04.943668  4514 net.cpp:408] rois_proposal_info_0_split -> rois_proposal_info_0_split_0
I0918 11:15:04.943673  4514 net.cpp:408] rois_proposal_info_0_split -> rois_proposal_info_0_split_1
I0918 11:15:04.943678  4514 net.cpp:408] rois_proposal_info_0_split -> rois_proposal_info_0_split_2
I0918 11:15:04.943727  4514 net.cpp:150] Setting up rois_proposal_info_0_split
I0918 11:15:04.943732  4514 net.cpp:157] Top shape: 128 5 1 1 (640)
I0918 11:15:04.943737  4514 net.cpp:157] Top shape: 128 5 1 1 (640)
I0918 11:15:04.943740  4514 net.cpp:157] Top shape: 128 5 1 1 (640)
I0918 11:15:04.943743  4514 net.cpp:165] Memory required for data: 3183663548
I0918 11:15:04.943747  4514 layer_factory.hpp:77] Creating layer proposal_labels_proposal_info_1_split
I0918 11:15:04.943751  4514 net.cpp:100] Creating Layer proposal_labels_proposal_info_1_split
I0918 11:15:04.943754  4514 net.cpp:434] proposal_labels_proposal_info_1_split <- proposal_labels
I0918 11:15:04.943759  4514 net.cpp:408] proposal_labels_proposal_info_1_split -> proposal_labels_proposal_info_1_split_0
I0918 11:15:04.943764  4514 net.cpp:408] proposal_labels_proposal_info_1_split -> proposal_labels_proposal_info_1_split_1
I0918 11:15:04.943812  4514 net.cpp:150] Setting up proposal_labels_proposal_info_1_split
I0918 11:15:04.943819  4514 net.cpp:157] Top shape: 128 1 1 1 (128)
I0918 11:15:04.943825  4514 net.cpp:157] Top shape: 128 1 1 1 (128)
I0918 11:15:04.943827  4514 net.cpp:165] Memory required for data: 3183664572
I0918 11:15:04.943831  4514 layer_factory.hpp:77] Creating layer conv4_3_2x
I0918 11:15:04.943838  4514 net.cpp:100] Creating Layer conv4_3_2x
I0918 11:15:04.943842  4514 net.cpp:434] conv4_3_2x <- conv4_3_relu4_3_0_split_2
I0918 11:15:04.943850  4514 net.cpp:408] conv4_3_2x -> conv4_3_2x
I0918 11:15:04.944408  4514 net.cpp:150] Setting up conv4_3_2x
I0918 11:15:04.944416  4514 net.cpp:157] Top shape: 2 512 192 192 (37748736)
I0918 11:15:04.944419  4514 net.cpp:165] Memory required for data: 3334659516
I0918 11:15:04.944424  4514 layer_factory.hpp:77] Creating layer conv4_3_2x_new
I0918 11:15:04.944430  4514 net.cpp:100] Creating Layer conv4_3_2x_new
I0918 11:15:04.944434  4514 net.cpp:434] conv4_3_2x_new <- conv4_3_2x
I0918 11:15:04.944439  4514 net.cpp:434] conv4_3_2x_new <- ch4_pool2_ch4_pool2_0_split_2
I0918 11:15:04.944444  4514 net.cpp:408] conv4_3_2x_new -> conv4_3_2x_new
I0918 11:15:04.944469  4514 net.cpp:150] Setting up conv4_3_2x_new
I0918 11:15:04.944475  4514 net.cpp:157] Top shape: 2 513 192 192 (37822464)
I0918 11:15:04.944478  4514 net.cpp:165] Memory required for data: 3485949372
I0918 11:15:04.944483  4514 layer_factory.hpp:77] Creating layer conv4_3_2x_new_conv4_3_2x_new_0_split
I0918 11:15:04.944488  4514 net.cpp:100] Creating Layer conv4_3_2x_new_conv4_3_2x_new_0_split
I0918 11:15:04.944491  4514 net.cpp:434] conv4_3_2x_new_conv4_3_2x_new_0_split <- conv4_3_2x_new
I0918 11:15:04.944496  4514 net.cpp:408] conv4_3_2x_new_conv4_3_2x_new_0_split -> conv4_3_2x_new_conv4_3_2x_new_0_split_0
I0918 11:15:04.944501  4514 net.cpp:408] conv4_3_2x_new_conv4_3_2x_new_0_split -> conv4_3_2x_new_conv4_3_2x_new_0_split_1
I0918 11:15:04.944540  4514 net.cpp:150] Setting up conv4_3_2x_new_conv4_3_2x_new_0_split
I0918 11:15:04.944546  4514 net.cpp:157] Top shape: 2 513 192 192 (37822464)
I0918 11:15:04.944550  4514 net.cpp:157] Top shape: 2 513 192 192 (37822464)
I0918 11:15:04.944553  4514 net.cpp:165] Memory required for data: 3788529084
I0918 11:15:04.944556  4514 layer_factory.hpp:77] Creating layer roi_pool_org
I0918 11:15:04.944561  4514 net.cpp:100] Creating Layer roi_pool_org
I0918 11:15:04.944566  4514 net.cpp:434] roi_pool_org <- conv4_3_2x_new_conv4_3_2x_new_0_split_0
I0918 11:15:04.944571  4514 net.cpp:434] roi_pool_org <- rois_proposal_info_0_split_0
I0918 11:15:04.944574  4514 net.cpp:408] roi_pool_org -> roi_pool_org
I0918 11:15:04.944581  4514 roi_pooling_layer.cpp:33] Spatial scale: 0.25
I0918 11:15:04.944618  4514 net.cpp:150] Setting up roi_pool_org
I0918 11:15:04.944625  4514 net.cpp:157] Top shape: 128 513 7 7 (3217536)
I0918 11:15:04.944628  4514 net.cpp:165] Memory required for data: 3801399228
I0918 11:15:04.944631  4514 layer_factory.hpp:77] Creating layer roi_pool_ctx
I0918 11:15:04.944635  4514 net.cpp:100] Creating Layer roi_pool_ctx
I0918 11:15:04.944639  4514 net.cpp:434] roi_pool_ctx <- conv4_3_2x_new_conv4_3_2x_new_0_split_1
I0918 11:15:04.944643  4514 net.cpp:434] roi_pool_ctx <- rois_proposal_info_0_split_1
I0918 11:15:04.944648  4514 net.cpp:408] roi_pool_ctx -> roi_pool_ctx
I0918 11:15:04.944653  4514 roi_pooling_layer.cpp:33] Spatial scale: 0.25
I0918 11:15:04.944690  4514 net.cpp:150] Setting up roi_pool_ctx
I0918 11:15:04.944696  4514 net.cpp:157] Top shape: 128 513 7 7 (3217536)
I0918 11:15:04.944700  4514 net.cpp:165] Memory required for data: 3814269372
I0918 11:15:04.944702  4514 layer_factory.hpp:77] Creating layer roi_pool
I0918 11:15:04.944708  4514 net.cpp:100] Creating Layer roi_pool
I0918 11:15:04.944712  4514 net.cpp:434] roi_pool <- roi_pool_org
I0918 11:15:04.944716  4514 net.cpp:434] roi_pool <- roi_pool_ctx
I0918 11:15:04.944720  4514 net.cpp:408] roi_pool -> roi_pool
I0918 11:15:04.944742  4514 net.cpp:150] Setting up roi_pool
I0918 11:15:04.944748  4514 net.cpp:157] Top shape: 128 1026 7 7 (6435072)
I0918 11:15:04.944751  4514 net.cpp:165] Memory required for data: 3840009660
I0918 11:15:04.944756  4514 layer_factory.hpp:77] Creating layer roi_c1
I0918 11:15:04.944763  4514 net.cpp:100] Creating Layer roi_c1
I0918 11:15:04.944767  4514 net.cpp:434] roi_c1 <- roi_pool
I0918 11:15:04.944772  4514 net.cpp:408] roi_c1 -> roi_c1
I0918 11:15:05.067729  4514 net.cpp:150] Setting up roi_c1
I0918 11:15:05.067757  4514 net.cpp:157] Top shape: 128 512 5 5 (1638400)
I0918 11:15:05.067761  4514 net.cpp:165] Memory required for data: 3846563260
I0918 11:15:05.067770  4514 layer_factory.hpp:77] Creating layer roi_c1_relu
I0918 11:15:05.067782  4514 net.cpp:100] Creating Layer roi_c1_relu
I0918 11:15:05.067788  4514 net.cpp:434] roi_c1_relu <- roi_c1
I0918 11:15:05.067795  4514 net.cpp:395] roi_c1_relu -> roi_c1 (in-place)
I0918 11:15:05.067965  4514 net.cpp:150] Setting up roi_c1_relu
I0918 11:15:05.067977  4514 net.cpp:157] Top shape: 128 512 5 5 (1638400)
I0918 11:15:05.067982  4514 net.cpp:165] Memory required for data: 3853116860
I0918 11:15:05.067986  4514 layer_factory.hpp:77] Creating layer fc6
I0918 11:15:05.067996  4514 net.cpp:100] Creating Layer fc6
I0918 11:15:05.068001  4514 net.cpp:434] fc6 <- roi_c1
I0918 11:15:05.068011  4514 net.cpp:408] fc6 -> fc6
I0918 11:15:06.326469  4514 net.cpp:150] Setting up fc6
I0918 11:15:06.326503  4514 net.cpp:157] Top shape: 128 4096 (524288)
I0918 11:15:06.326506  4514 net.cpp:165] Memory required for data: 3855214012
I0918 11:15:06.326515  4514 layer_factory.hpp:77] Creating layer relu6
I0918 11:15:06.326525  4514 net.cpp:100] Creating Layer relu6
I0918 11:15:06.326531  4514 net.cpp:434] relu6 <- fc6
I0918 11:15:06.326536  4514 net.cpp:395] relu6 -> fc6 (in-place)
I0918 11:15:06.326787  4514 net.cpp:150] Setting up relu6
I0918 11:15:06.326797  4514 net.cpp:157] Top shape: 128 4096 (524288)
I0918 11:15:06.326802  4514 net.cpp:165] Memory required for data: 3857311164
I0918 11:15:06.326804  4514 layer_factory.hpp:77] Creating layer drop6
I0918 11:15:06.326812  4514 net.cpp:100] Creating Layer drop6
I0918 11:15:06.326815  4514 net.cpp:434] drop6 <- fc6
I0918 11:15:06.326822  4514 net.cpp:395] drop6 -> fc6 (in-place)
I0918 11:15:06.326844  4514 net.cpp:150] Setting up drop6
I0918 11:15:06.326850  4514 net.cpp:157] Top shape: 128 4096 (524288)
I0918 11:15:06.326853  4514 net.cpp:165] Memory required for data: 3859408316
I0918 11:15:06.326856  4514 layer_factory.hpp:77] Creating layer fc6_drop6_0_split
I0918 11:15:06.326861  4514 net.cpp:100] Creating Layer fc6_drop6_0_split
I0918 11:15:06.326864  4514 net.cpp:434] fc6_drop6_0_split <- fc6
I0918 11:15:06.326869  4514 net.cpp:408] fc6_drop6_0_split -> fc6_drop6_0_split_0
I0918 11:15:06.326875  4514 net.cpp:408] fc6_drop6_0_split -> fc6_drop6_0_split_1
I0918 11:15:06.326915  4514 net.cpp:150] Setting up fc6_drop6_0_split
I0918 11:15:06.326920  4514 net.cpp:157] Top shape: 128 4096 (524288)
I0918 11:15:06.326923  4514 net.cpp:157] Top shape: 128 4096 (524288)
I0918 11:15:06.326926  4514 net.cpp:165] Memory required for data: 3863602620
I0918 11:15:06.326930  4514 layer_factory.hpp:77] Creating layer cls_pred
I0918 11:15:06.326936  4514 net.cpp:100] Creating Layer cls_pred
I0918 11:15:06.326941  4514 net.cpp:434] cls_pred <- fc6_drop6_0_split_0
I0918 11:15:06.326946  4514 net.cpp:408] cls_pred -> cls_pred
I0918 11:15:06.327571  4514 net.cpp:150] Setting up cls_pred
I0918 11:15:06.327579  4514 net.cpp:157] Top shape: 128 5 (640)
I0918 11:15:06.327581  4514 net.cpp:165] Memory required for data: 3863605180
I0918 11:15:06.327587  4514 layer_factory.hpp:77] Creating layer cls_pred_cls_pred_0_split
I0918 11:15:06.327594  4514 net.cpp:100] Creating Layer cls_pred_cls_pred_0_split
I0918 11:15:06.327597  4514 net.cpp:434] cls_pred_cls_pred_0_split <- cls_pred
I0918 11:15:06.327602  4514 net.cpp:408] cls_pred_cls_pred_0_split -> cls_pred_cls_pred_0_split_0
I0918 11:15:06.327608  4514 net.cpp:408] cls_pred_cls_pred_0_split -> cls_pred_cls_pred_0_split_1
I0918 11:15:06.327642  4514 net.cpp:150] Setting up cls_pred_cls_pred_0_split
I0918 11:15:06.327648  4514 net.cpp:157] Top shape: 128 5 (640)
I0918 11:15:06.327652  4514 net.cpp:157] Top shape: 128 5 (640)
I0918 11:15:06.327656  4514 net.cpp:165] Memory required for data: 3863610300
I0918 11:15:06.327658  4514 layer_factory.hpp:77] Creating layer bbox_pred
I0918 11:15:06.327663  4514 net.cpp:100] Creating Layer bbox_pred
I0918 11:15:06.327666  4514 net.cpp:434] bbox_pred <- fc6_drop6_0_split_1
I0918 11:15:06.327673  4514 net.cpp:408] bbox_pred -> bbox_pred
I0918 11:15:06.329799  4514 net.cpp:150] Setting up bbox_pred
I0918 11:15:06.329807  4514 net.cpp:157] Top shape: 128 20 (2560)
I0918 11:15:06.329809  4514 net.cpp:165] Memory required for data: 3863620540
I0918 11:15:06.329814  4514 layer_factory.hpp:77] Creating layer bbox_pred_bbox_pred_0_split
I0918 11:15:06.329818  4514 net.cpp:100] Creating Layer bbox_pred_bbox_pred_0_split
I0918 11:15:06.329821  4514 net.cpp:434] bbox_pred_bbox_pred_0_split <- bbox_pred
I0918 11:15:06.329828  4514 net.cpp:408] bbox_pred_bbox_pred_0_split -> bbox_pred_bbox_pred_0_split_0
I0918 11:15:06.329835  4514 net.cpp:408] bbox_pred_bbox_pred_0_split -> bbox_pred_bbox_pred_0_split_1
I0918 11:15:06.329865  4514 net.cpp:150] Setting up bbox_pred_bbox_pred_0_split
I0918 11:15:06.329870  4514 net.cpp:157] Top shape: 128 20 (2560)
I0918 11:15:06.329874  4514 net.cpp:157] Top shape: 128 20 (2560)
I0918 11:15:06.329876  4514 net.cpp:165] Memory required for data: 3863641020
I0918 11:15:06.329879  4514 layer_factory.hpp:77] Creating layer loss_cls
I0918 11:15:06.329885  4514 net.cpp:100] Creating Layer loss_cls
I0918 11:15:06.329888  4514 net.cpp:434] loss_cls <- cls_pred_cls_pred_0_split_0
I0918 11:15:06.329893  4514 net.cpp:434] loss_cls <- proposal_labels_proposal_info_1_split_0
…
