…
    downsample_rate: 32
    downsample_rate: 32
    downsample_rate: 64
    coord_num: 4
    field_h: 60
    field_h: 84
    field_h: 120
    field_h: 168
    field_h: 240
    field_h: 336
    field_h: 480
    field_w: 60
    field_w: 84
    field_w: 120
    field_w: 168
    field_w: 240
    field_w: 336
    field_w: 480
    fg_threshold: 0.5
    resize_width: 1344
    resize_height: 768
    crop_width: 768
    crop_height: 768
    do_multiple_scale: true
    min_scale: 60
    max_scale: 480
    min_gt_height: 25
    shuffle: true
    output_gt_boxes: true
  }
}
layer {
  name: "slice"
  type: "Slice"
  bottom: "data"
  top: "data123"
  top: "ch4"
  slice_param {
    slice_point: 3
    axis: 1
  }
}
layer {
  name: "conv1_1"
  type: "Convolution"
  bottom: "data123"
  top: "conv1_1"
  param {
    lr_mult: 0
    decay_mult: 0
  }
  param {
    lr_mult: 0
    decay_mult: 0
  }
  convolution_param {
    num_output: 64
    pad: 1
    kernel_size: 3
  }
}
layer {
  name: "relu1_1"
  type: "ReLU"
  bottom: "conv1_1"
  top: "conv1_1"
}
layer {
  name: "conv1_2"
  type: "Convolution"
  bottom: "conv1_1"
  top: "conv1_2"
  param {
    lr_mult: 0
    decay_mult: 0
  }
  param {
    lr_mult: 0
    decay_mult: 0
  }
  convolution_param {
    num_output: 64
    pad: 1
    kernel_size: 3
  }
}
layer {
  name: "relu1_2"
  type: "ReLU"
  bottom: "conv1_2"
  top: "conv1_2"
}
layer {
  name: "pool1"
  type: "Pooling"
  bottom: "conv1_2"
  top: "pool1"
  pooling_param {
    pool: MAX
    kernel_size: 2
    stride: 2
  }
}
layer {
  name: "ch4_pool1"
  type: "Pooling"
  bottom: "ch4"
  top: "ch4_pool1"
  pooling_param {
    pool: MAX
    kernel_size: 2
    stride: 2
  }
}
layer {
  name: "pool1_concat"
  type: "Concat"
  bottom: "pool1"
  bottom: "ch4_pool1"
  top: "pool1_new"
}
layer {
  name: "conv2_1_new"
  type: "Convolution"
  bottom: "pool1_new"
  top: "conv2_1"
  param {
    lr_mult: 0
    decay_mult: 0
  }
  param {
    lr_mult: 0
    decay_mult: 0
  }
  convolution_param {
    num_output: 128
    pad: 1
    kernel_size: 3
  }
}
layer {
  name: "relu2_1"
  type: "ReLU"
  bottom: "conv2_1"
  top: "conv2_1"
}
layer {
  name: "conv2_2"
  type: "Convolution"
  bottom: "conv2_1"
  top: "conv2_2"
  param {
    lr_mult: 0
    decay_mult: 0
  }
  param {
    lr_mult: 0
    decay_mult: 0
  }
  convolution_param {
    num_output: 128
    pad: 1
    kernel_size: 3
  }
}
layer {
  name: "relu2_2"
  type: "ReLU"
  bottom: "conv2_2"
  top: "conv2_2"
}
layer {
  name: "pool2"
  type: "Pooling"
  bottom: "conv2_2"
  top: "pool2"
  pooling_param {
    pool: MAX
    kernel_size: 2
    stride: 2
  }
}
layer {
  name: "ch4_pool2"
  type: "Pooling"
  bottom: "ch4_pool1"
  top: "ch4_pool2"
  pooling_param {
    pool: MAX
    kernel_size: 2
    stride: 2
  }
}
layer {
  name: "pool2_concat"
  type: "Concat"
  bottom: "pool2"
  bottom: "ch4_pool2"
  top: "pool2_new"
}
layer {
  name: "conv3_1_new"
  type: "Convolution"
  bottom: "pool2_new"
  top: "conv3_1"
  convolution_param {
    num_output: 256
    pad: 1
    kernel_size: 3
  }
}
layer {
  name: "relu3_1"
  type: "ReLU"
  bottom: "conv3_1"
  top: "conv3_1"
}
layer {
  name: "conv3_2"
  type: "Convolution"
  bottom: "conv3_1"
  top: "conv3_2"
  convolution_param {
    num_output: 256
    pad: 1
    kernel_size: 3
  }
}
layer {
  name: "relu3_2"
  type: "ReLU"
  bottom: "conv3_2"
  top: "conv3_2"
}
layer {
  name: "conv3_3"
  type: "Convolution"
  bottom: "conv3_2"
  top: "conv3_3"
  convolution_param {
    num_output: 256
    pad: 1
    kernel_size: 3
  }
}
layer {
  name: "relu3_3"
  type: "ReLU"
  bottom: "conv3_3"
  top: "conv3_3"
}
layer {
  name: "pool3"
  type: "Pooling"
  bottom: "conv3_3"
  top: "pool3"
  pooling_param {
    pool: MAX
    kernel_size: 2
    stride: 2
  }
}
layer {
  name: "ch4_pool3"
  type: "Pooling"
  bottom: "ch4_pool2"
  top: "ch4_pool3"
  pooling_param {
    pool: MAX
    kernel_size: 2
    stride: 2
  }
}
layer {
  name: "pool3_concat"
  type: "Concat"
  bottom: "pool3"
  bottom: "ch4_pool3"
  top: "pool3_new"
}
layer {
  name: "conv4_1_new"
  type: "Convolution"
  bottom: "pool3_new"
  top: "conv4_1"
  convolution_param {
    num_output: 512
    pad: 1
    kernel_size: 3
  }
}
layer {
  name: "relu4_1"
  type: "ReLU"
  bottom: "conv4_1"
  top: "conv4_1"
}
layer {
  name: "conv4_2"
  type: "Convolution"
  bottom: "conv4_1"
  top: "conv4_2"
  convolution_param {
    num_output: 512
    pad: 1
    kernel_size: 3
  }
}
layer {
  name: "relu4_2"
  type: "ReLU"
  bottom: "conv4_2"
  top: "conv4_2"
}
layer {
  name: "conv4_3"
  type: "Convolution"
  bottom: "conv4_2"
  top: "conv4_3"
  convolution_param {
    num_output: 512
    pad: 1
    kernel_size: 3
  }
}
layer {
  name: "relu4_3"
  type: "ReLU"
  bottom: "conv4_3"
  top: "conv4_3"
}
layer {
  name: "loss1_conv1"
  type: "Convolution"
  bottom: "conv4_3"
  top: "loss1_conv1"
  param {
    lr_mult: 1
    decay_mult: 1
  }
  param {
    lr_mult: 2
    decay_mult: 0
  }
  convolution_param {
    num_output: 512
    pad: 1
    kernel_size: 3
    weight_filler {
      type: "gaussian"
      std: 0.01
    }
    bias_filler {
      type: "constant"
    }
  }
}
layer {
  name: "loss_relu1"
  type: "ReLU"
  bottom: "loss1_conv1"
  top: "loss1_conv1"
}
layer {
  name: "LFCN_1_5x5"
  type: "Convolution"
  bottom: "loss1_conv1"
  top: "LFCN_1_5x5"
  param {
    lr_mult: 1
    decay_mult: 1
  }
  param {
    lr_mult: 2
    decay_mult: 0
  }
  convolution_param {
    num_output: 9
    pad: 2
    kernel_size: 5
    weight_filler {
      type: "gaussian"
      std: 0.001
    }
    bias_filler {
      type: "constant"
    }
  }
}
layer {
  name: "detection_loss_1_5x5"
  type: "DetectionLoss"
  bottom: "LFCN_1_5x5"
  bottom: "label_1_5x5"
  top: "loss_1_5x5"
  loss_weight: 0.9
  detection_loss_param {
    cls_num: 5
    coord_num: 4
    lambda: 1
    field_h: 60
    field_w: 60
    downsample_rate: 8
    bb_smooth: true
    field_whr: 2
    field_xyr: 2
    bg_threshold: 0.2
    bg_multiple: 2
    sample_mode: "bootstrap"
    pos_neg_weighted: true
  }
}
layer {
  name: "detection_accuracy_1_5x5"
  type: "DetectionAccuracy"
  bottom: "LFCN_1_5x5"
  bottom: "label_1_5x5"
  top: "accuracy_1_5x5"
  top: "boxiou_1_5x5"
  detection_accuracy_param {
    cls_num: 5
    coord_num: 4
    field_h: 60
    field_w: 60
    downsample_rate: 8
    field_whr: 2
    field_xyr: 2
  }
}
layer {
  name: "LFCN_1_7x7"
  type: "Convolution"
  bottom: "loss1_conv1"
  top: "LFCN_1_7x7"
  param {
    lr_mult: 1
    decay_mult: 1
  }
  param {
    lr_mult: 2
    decay_mult: 0
  }
  convolution_param {
    num_output: 9
    pad: 3
    kernel_size: 7
    weight_filler {
      type: "gaussian"
      std: 0.001
    }
    bias_filler {
      type: "constant"
    }
  }
}
layer {
  name: "detection_loss_1_7x7"
  type: "DetectionLoss"
  bottom: "LFCN_1_7x7"
  bottom: "label_1_7x7"
  top: "loss_1_7x7"
  loss_weight: 0.9
  detection_loss_param {
    cls_num: 5
    coord_num: 4
    lambda: 1
    field_h: 84
    field_w: 84
    downsample_rate: 8
    bb_smooth: true
    field_whr: 2
    field_xyr: 2
    bg_threshold: 0.2
    bg_multiple: 2
    sample_mode: "bootstrap"
    pos_neg_weighted: true
  }
}
layer {
  name: "detection_accuracy_1_7x7"
  type: "DetectionAccuracy"
  bottom: "LFCN_1_7x7"
  bottom: "label_1_7x7"
  top: "accuracy_1_7x7"
  top: "boxiou_1_7x7"
  detection_accuracy_param {
    cls_num: 5
    coord_num: 4
    field_h: 84
    field_w: 84
    downsample_rate: 8
    field_whr: 2
    field_xyr: 2
  }
}
layer {
  name: "pool4"
  type: "Pooling"
  bottom: "conv4_3"
  top: "pool4"
  pooling_param {
    pool: MAX
    kernel_size: 2
    stride: 2
  }
}
layer {
  name: "conv5_1"
  type: "Convolution"
  bottom: "pool4"
  top: "conv5_1"
  convolution_param {
    num_output: 512
    pad: 1
    kernel_size: 3
  }
}
layer {
  name: "relu5_1"
  type: "ReLU"
  bottom: "conv5_1"
  top: "conv5_1"
}
layer {
  name: "conv5_2"
  type: "Convolution"
  bottom: "conv5_1"
  top: "conv5_2"
  convolution_param {
    num_output: 512
    pad: 1
    kernel_size: 3
  }
}
layer {
  name: "relu5_2"
  type: "ReLU"
  bottom: "conv5_2"
  top: "conv5_2"
}
layer {
  name: "conv5_3"
  type: "Convolution"
  bottom: "conv5_2"
  top: "conv5_3"
  convolution_param {
    num_output: 512
    pad: 1
    kernel_size: 3
  }
}
layer {
  name: "relu5_3"
  type: "ReLU"
  bottom: "conv5_3"
  top: "conv5_3"
}
layer {
  name: "LFCN_2_5x5"
  type: "Convolution"
  bottom: "conv5_3"
  top: "LFCN_2_5x5"
  param {
    lr_mult: 1
    decay_mult: 1
  }
  param {
    lr_mult: 2
    decay_mult: 0
  }
  convolution_param {
    num_output: 9
    pad: 2
    kernel_size: 5
    weight_filler {
      type: "gaussian"
      std: 0.001
    }
    bias_filler {
      type: "constant"
    }
  }
}
layer {
  name: "detection_loss_2_5x5"
  type: "DetectionLoss"
  bottom: "LFCN_2_5x5"
  bottom: "label_2_5x5"
  top: "loss_2_5x5"
  detection_loss_param {
    cls_num: 5
    coord_num: 4
    lambda: 1
    field_h: 120
    field_w: 120
    downsample_rate: 16
    bb_smooth: true
    field_whr: 2
    field_xyr: 2
    bg_threshold: 0.2
    bg_multiple: 2
    sample_mode: "bootstrap"
    pos_neg_weighted: true
  }
}
layer {
  name: "detection_accuracy_2_5x5"
  type: "DetectionAccuracy"
  bottom: "LFCN_2_5x5"
  bottom: "label_2_5x5"
  top: "accuracy_2_5x5"
  top: "boxiou_2_5x5"
  detection_accuracy_param {
    cls_num: 5
    coord_num: 4
    field_h: 120
    field_w: 120
    downsample_rate: 16
    field_whr: 2
    field_xyr: 2
  }
}
layer {
  name: "LFCN_2_7x7"
  type: "Convolution"
  bottom: "conv5_3"
  top: "LFCN_2_7x7"
  param {
    lr_mult: 1
    decay_mult: 1
  }
  param {
    lr_mult: 2
    decay_mult: 0
  }
  convolution_param {
    num_output: 9
    pad: 3
    kernel_size: 7
    weight_filler {
      type: "gaussian"
      std: 0.001
    }
    bias_filler {
      type: "constant"
    }
  }
}
layer {
  name: "detection_loss_2_7x7"
  type: "DetectionLoss"
  bottom: "LFCN_2_7x7"
  bottom: "label_2_7x7"
  top: "loss_2_7x7"
  detection_loss_param {
    cls_num: 5
    coord_num: 4
    lambda: 1
    field_h: 168
    field_w: 168
    downsample_rate: 16
    bb_smooth: true
    field_whr: 2
    field_xyr: 2
    bg_threshold: 0.2
    bg_multiple: 2
    sample_mode: "bootstrap"
    pos_neg_weighted: true
  }
}
layer {
  name: "detection_accuracy_2_7x7"
  type: "DetectionAccuracy"
  bottom: "LFCN_2_7x7"
  bottom: "label_2_7x7"
  top: "accuracy_2_7x7"
  top: "boxiou_2_7x7"
  detection_accuracy_param {
    cls_num: 5
    coord_num: 4
    field_h: 168
    field_w: 168
    downsample_rate: 16
    field_whr: 2
    field_xyr: 2
  }
}
layer {
  name: "pool5"
  type: "Pooling"
  bottom: "conv5_3"
  top: "pool5"
  pooling_param {
    pool: MAX
    kernel_size: 2
    stride: 2
  }
}
layer {
  name: "conv6_1"
  type: "Convolution"
  bottom: "pool5"
  top: "conv6_1"
  param {
    lr_mult: 1
    decay_mult: 1
  }
  param {
    lr_mult: 2
    decay_mult: 0
  }
  convolution_param {
    num_output: 512
    pad: 1
    kernel_size: 3
    weight_filler {
      type: "gaussian"
      std: 0.01
    }
    bias_filler {
      type: "constant"
    }
  }
}
layer {
  name: "relu6_1"
  type: "ReLU"
  bottom: "conv6_1"
  top: "conv6_1"
}
layer {
  name: "LFCN_3_5x5"
  type: "Convolution"
  bottom: "conv6_1"
  top: "LFCN_3_5x5"
  param {
    lr_mult: 1
    decay_mult: 1
  }
  param {
    lr_mult: 2
    decay_mult: 0
  }
  convolution_param {
    num_output: 9
    pad: 2
    kernel_size: 5
    weight_filler {
      type: "gaussian"
      std: 0.001
    }
    bias_filler {
      type: "constant"
    }
  }
}
layer {
  name: "detection_loss_3_5x5"
  type: "DetectionLoss"
  bottom: "LFCN_3_5x5"
  bottom: "label_3_5x5"
  top: "loss_3_5x5"
  detection_loss_param {
    cls_num: 5
    coord_num: 4
    lambda: 1
    field_h: 240
    field_w: 240
    downsample_rate: 32
    bb_smooth: true
    field_whr: 2
    field_xyr: 2
    bg_threshold: 0.2
    bg_multiple: 2
    sample_mode: "bootstrap"
    pos_neg_weighted: true
  }
}
layer {
  name: "detection_accuracy_3_5x5"
  type: "DetectionAccuracy"
  bottom: "LFCN_3_5x5"
  bottom: "label_3_5x5"
  top: "accuracy_3_5x5"
  top: "boxiou_3_5x5"
  detection_accuracy_param {
    cls_num: 5
    coord_num: 4
    field_h: 240
    field_w: 240
    downsample_rate: 32
    field_whr: 2
    field_xyr: 2
  }
}
layer {
  name: "LFCN_3_7x7"
  type: "Convolution"
  bottom: "conv6_1"
  top: "LFCN_3_7x7"
  param {
    lr_mult: 1
    decay_mult: 1
  }
  param {
    lr_mult: 2
    decay_mult: 0
  }
  convolution_param {
    num_output: 9
    pad: 3
    kernel_size: 7
    weight_filler {
      type: "gaussian"
      std: 0.001
    }
    bias_filler {
      type: "constant"
    }
  }
}
layer {
  name: "detection_loss_3_7x7"
  type: "DetectionLoss"
  bottom: "LFCN_3_7x7"
  bottom: "label_3_7x7"
  top: "loss_3_7x7"
  detection_loss_param {
    cls_num: 5
    coord_num: 4
    lambda: 1
    field_h: 336
    field_w: 336
    downsample_rate: 32
    bb_smooth: true
    field_whr: 2
    field_xyr: 2
    bg_threshold: 0.2
    bg_multiple: 2
    sample_mode: "bootstrap"
    pos_neg_weighted: true
  }
}
layer {
  name: "detection_accuracy_3_7x7"
  type: "DetectionAccuracy"
  bottom: "LFCN_3_7x7"
  bottom: "label_3_7x7"
  top: "accuracy_3_7x7"
  top: "boxiou_3_7x7"
  detection_accuracy_param {
    cls_num: 5
    coord_num: 4
    field_h: 336
    field_w: 336
    downsample_rate: 32
    field_whr: 2
    field_xyr: 2
  }
}
layer {
  name: "pool6"
  type: "Pooling"
  bottom: "conv6_1"
  top: "pool6"
  pooling_param {
    pool: MAX
    kernel_size: 2
    stride: 2
  }
}
layer {
  name: "LFCN_4_5x5"
  type: "Convolution"
  bottom: "pool6"
  top: "LFCN_4_5x5"
  param {
    lr_mult: 1
    decay_mult: 1
  }
  param {
    lr_mult: 2
    decay_mult: 0
  }
  convolution_param {
    num_output: 9
    pad: 2
    kernel_size: 5
    weight_filler {
      type: "gaussian"
      std: 0.001
    }
    bias_filler {
      type: "constant"
    }
  }
}
layer {
  name: "detection_loss_4_5x5"
  type: "DetectionLoss"
  bottom: "LFCN_4_5x5"
  bottom: "label_4_5x5"
  top: "loss_4_5x5"
  detection_loss_param {
    cls_num: 5
    coord_num: 4
    lambda: 1
    field_h: 480
    field_w: 480
    downsample_rate: 64
    bb_smooth: true
    field_whr: 2
    field_xyr: 2
    bg_threshold: 0.2
    bg_multiple: 2
    sample_mode: "bootstrap"
    pos_neg_weighted: true
  }
}
layer {
  name: "detection_accuracy_4_5x5"
  type: "DetectionAccuracy"
  bottom: "LFCN_4_5x5"
  bottom: "label_4_5x5"
  top: "accuracy_4_5x5"
  top: "boxiou_4_5x5"
  detection_accuracy_param {
    cls_num: 5
    coord_num: 4
    field_h: 480
    field_w: 480
    downsample_rate: 64
    field_whr: 2
    field_xyr: 2
  }
}
layer {
  name: "proposals"
  type: "BoxOutput"
  bottom: "LFCN_1_5x5"
  bottom: "LFCN_1_7x7"
  bottom: "LFCN_2_5x5"
  bottom: "LFCN_2_7x7"
  bottom: "LFCN_3_5x5"
  bottom: "LFCN_3_7x7"
  bottom: "LFCN_4_5x5"
  top: "proposals"
  propagate_down: false
  propagate_down: false
  propagate_down: false
  propagate_down: false
  propagate_down: false
  propagate_down: false
  propagate_down: false
  box_output_param {
    fg_thr: -8
    iou_thr: 0.65
    nms_type: "IOU"
    field_h: 60
    field_h: 84
    field_h: 120
    field_h: 168
    field_h: 240
    field_h: 336
    field_h: 480
    field_w: 60
    field_w: 84
    field_w: 120
    field_w: 168
    field_w: 240
    field_w: 336
    field_w: 480
    downsample_rate: 8
    downsample_rate: 8
    downsample_rate: 16
    downsample_rate: 16
    downsample_rate: 32
    downsample_rate: 32
    downsample_rate: 64
    field_whr: 2
    field_xyr: 2
    max_nms_num: 3000
  }
}
layer {
  name: "proposal_info"
  type: "ProposalTarget"
  bottom: "proposals"
  bottom: "gt_boxes"
  top: "rois"
  top: "proposal_labels"
  top: "proposal_targets"
  top: "box_inside_weights"
  top: "box_outside_weights"
  top: "match_gt_boxes"
  include {
    phase: TRAIN
  }
  propagate_down: false
  propagate_down: false
  proposal_target_param {
    cls_num: 5
    batch_size: 256
    fg_fraction: 0.25
    num_img_per_batch: 4
    fg_thr: 0.5
    bg_thr_hg: 0.49
    bg_thr_lw: 0.1
    img_width: 768
    img_height: 576
  }
  bbox_reg_param {
    bbox_mean: 0
    bbox_mean: 0
    bbox_mean: 0
    bbox_mean: 0
    bbox_std: 0.1
    bbox_std: 0.1
    bbox_std: 0.2
    bbox_std: 0.2
  }
}
layer {
  name: "conv4_3_2x"
  type: "Deconvolution"
  bottom: "conv4_3"
  top: "conv4_3_2x"
  param {
    lr_mult: 0
    decay_mult: 0
  }
  convolution_param {
    num_output: 512
    bias_term: false
    pad: 1
    kernel_size: 4
    group: 512
    stride: 2
    weight_filler {
      type: "bilinear"
    }
  }
}
layer {
  name: "conv4_3_2x_new"
  type: "Concat"
  bottom: "conv4_3_2x"
  bottom: "ch4_pool2"
  top: "conv4_3_2x_new"
}
layer {
  name: "roi_pool_org"
  type: "ROIPooling"
  bottom: "conv4_3_2x_new"
  bottom: "rois"
  top: "roi_pool_org"
  roi_pooling_param {
    pooled_h: 7
    pooled_w: 7
    spatial_scale: 0.25
    pad_ratio: 0
  }
}
layer {
  name: "roi_pool_ctx"
  type: "ROIPooling"
  bottom: "conv4_3_2x_new"
  bottom: "rois"
  top: "roi_pool_ctx"
  roi_pooling_param {
    pooled_h: 7
    pooled_w: 7
    spatial_scale: 0.25
    pad_ratio: 0.25
  }
}
layer {
  name: "roi_pool"
  type: "Concat"
  bottom: "roi_pool_org"
  bottom: "roi_pool_ctx"
  top: "roi_pool"
}
layer {
  name: "roi_c1"
  type: "Convolution"
  bottom: "roi_pool"
  top: "roi_c1"
  param {
    lr_mult: 1
    decay_mult: 1
  }
  param {
    lr_mult: 2
    decay_mult: 0
  }
  convolution_param {
    num_output: 512
    kernel_size: 3
    weight_filler {
      type: "gaussian"
      std: 0.01
    }
    bias_filler {
      type: "constant"
    }
  }
}
layer {
  name: "roi_c1_relu"
  type: "ReLU"
  bottom: "roi_c1"
  top: "roi_c1"
}
layer {
  name: "fc6"
  type: "InnerProduct"
  bottom: "roi_c1"
  top: "fc6"
  param {
    lr_mult: 1
  }
  param {
    lr_mult: 2
  }
  inner_product_param {
    num_output: 4096
    weight_filler {
      type: "gaussian"
      std: 0.001
    }
    bias_filler {
      type: "constant"
      value: 0
    }
  }
}
layer {
  name: "relu6"
  type: "ReLU"
  bottom: "fc6"
  top: "fc6"
}
layer {
  name: "drop6"
  type: "Dropout"
  bottom: "fc6"
  top: "fc6"
  dropout_param {
    dropout_ratio: 0.5
  }
}
layer {
  name: "cls_pred"
  type: "InnerProduct"
  bottom: "fc6"
  top: "cls_pred"
  param {
    lr_mult: 1
  }
  param {
    lr_mult: 2
  }
  inner_product_param {
    num_output: 5
    weight_filler {
      type: "gaussian"
      std: 0.01
    }
    bias_filler {
      type: "constant"
      value: 0
    }
  }
}
layer {
  name: "bbox_pred"
  type: "InnerProduct"
  bottom: "fc6"
  top: "bbox_pred"
  param {
    lr_mult: 1
  }
  param {
    lr_mult: 2
  }
  inner_product_param {
    num_output: 20
    weight_filler {
      type: "gaussian"
      std: 0.001
    }
    bias_filler {
      type: "constant"
      value: 0
    }
  }
}
layer {
  name: "loss_cls"
  type: "SoftmaxWithLoss"
  bottom: "cls_pred"
  bottom: "proposal_labels"
  top: "loss_cls"
  loss_weight: 1
  propagate_down: true
  propagate_down: false
}
layer {
  name: "cls_accuracy"
  type: "Accuracy"
  bottom: "cls_pred"
  bottom: "proposal_labels"
  top: "cls_accuracy"
}
layer {
  name: "loss_bbox"
  type: "SmoothL1Loss"
  bottom: "bbox_pred"
  bottom: "proposal_targets"
  bottom: "box_inside_weights"
  bottom: "box_outside_weights"
  top: "loss_bbox"
  loss_weight: 1
}
layer {
  name: "bbox_iou"
  type: "BboxAccuracy"
  bottom: "bbox_pred"
  bottom: "rois"
  bottom: "match_gt_boxes"
  top: "bbox_iou"
  top: "bbox_iou_pre"
  bbox_reg_param {
    bbox_mean: 0
    bbox_mean: 0
    bbox_mean: 0
    bbox_mean: 0
    bbox_std: 0.1
    bbox_std: 0.1
    bbox_std: 0.2
    bbox_std: 0.2
  }
}
I0419 05:37:23.784559 26406 layer_factory.hpp:77] Creating layer data
I0419 05:37:23.784597 26406 net.cpp:100] Creating Layer data
I0419 05:37:23.784603 26406 net.cpp:408] data -> data
…
I0419 05:37:23.807974 26406 image_gt_data_layer.cpp:235] output label size 2 : 3,6,48,48
I0419 05:37:23.808007 26406 image_gt_data_layer.cpp:235] output label size 3 : 3,6,48,48
I0419 05:37:23.808039 26406 image_gt_data_layer.cpp:235] output label size 4 : 3,6,24,24
I0419 05:37:23.808073 26406 image_gt_data_layer.cpp:235] output label size 5 : 3,6,24,24
I0419 05:37:23.808105 26406 image_gt_data_layer.cpp:235] output label size 6 : 3,6,12,12
I0419 05:37:23.808137 26406 image_gt_data_layer.cpp:250] output gt boxes size: 1,7,1,1
I0419 05:37:23.856117 26406 net.cpp:150] Setting up data
I0419 05:37:23.856150 26406 net.cpp:157] Top shape: 3 4 768 768 (7077888)
I0419 05:37:23.856156 26406 net.cpp:157] Top shape: 3 6 96 96 (165888)
I0419 05:37:23.856159 26406 net.cpp:157] Top shape: 3 6 96 96 (165888)
I0419 05:37:23.856163 26406 net.cpp:157] Top shape: 3 6 48 48 (41472)
I0419 05:37:23.856166 26406 net.cpp:157] Top shape: 3 6 48 48 (41472)
I0419 05:37:23.856170 26406 net.cpp:157] Top shape: 3 6 24 24 (10368)
I0419 05:37:23.856173 26406 net.cpp:157] Top shape: 3 6 24 24 (10368)
I0419 05:37:23.856178 26406 net.cpp:157] Top shape: 3 6 12 12 (2592)
I0419 05:37:23.856182 26406 net.cpp:157] Top shape: 1 7 1 1 (7)
I0419 05:37:23.856184 26406 net.cpp:165] Memory required for data: 30063772
I0419 05:37:23.856192 26406 layer_factory.hpp:77] Creating layer label_1_5x5_data_1_split
I0419 05:37:23.856207 26406 net.cpp:100] Creating Layer label_1_5x5_data_1_split
I0419 05:37:23.856214 26406 net.cpp:434] label_1_5x5_data_1_split <- label_1_5x5
I0419 05:37:23.856225 26406 net.cpp:408] label_1_5x5_data_1_split -> label_1_5x5_data_1_split_0
I0419 05:37:23.856233 26406 net.cpp:408] label_1_5x5_data_1_split -> label_1_5x5_data_1_split_1
I0419 05:37:23.856492 26406 net.cpp:150] Setting up label_1_5x5_data_1_split
I0419 05:37:23.856536 26406 net.cpp:157] Top shape: 3 6 96 96 (165888)
I0419 05:37:23.856547 26406 net.cpp:157] Top shape: 3 6 96 96 (165888)
I0419 05:37:23.856555 26406 net.cpp:165] Memory required for data: 31390876
I0419 05:37:23.856566 26406 layer_factory.hpp:77] Creating layer label_1_7x7_data_2_split
I0419 05:37:23.856590 26406 net.cpp:100] Creating Layer label_1_7x7_data_2_split
I0419 05:37:23.856600 26406 net.cpp:434] label_1_7x7_data_2_split <- label_1_7x7
I0419 05:37:23.856613 26406 net.cpp:408] label_1_7x7_data_2_split -> label_1_7x7_data_2_split_0
I0419 05:37:23.856647 26406 net.cpp:408] label_1_7x7_data_2_split -> label_1_7x7_data_2_split_1
I0419 05:37:23.856712 26406 net.cpp:150] Setting up label_1_7x7_data_2_split
I0419 05:37:23.856726 26406 net.cpp:157] Top shape: 3 6 96 96 (165888)
I0419 05:37:23.856736 26406 net.cpp:157] Top shape: 3 6 96 96 (165888)
I0419 05:37:23.856743 26406 net.cpp:165] Memory required for data: 32717980
I0419 05:37:23.856750 26406 layer_factory.hpp:77] Creating layer label_2_5x5_data_3_split
I0419 05:37:23.856763 26406 net.cpp:100] Creating Layer label_2_5x5_data_3_split
I0419 05:37:23.856770 26406 net.cpp:434] label_2_5x5_data_3_split <- label_2_5x5
I0419 05:37:23.856781 26406 net.cpp:408] label_2_5x5_data_3_split -> label_2_5x5_data_3_split_0
I0419 05:37:23.856792 26406 net.cpp:408] label_2_5x5_data_3_split -> label_2_5x5_data_3_split_1
I0419 05:37:23.856850 26406 net.cpp:150] Setting up label_2_5x5_data_3_split
I0419 05:37:23.856864 26406 net.cpp:157] Top shape: 3 6 48 48 (41472)
I0419 05:37:23.856873 26406 net.cpp:157] Top shape: 3 6 48 48 (41472)
I0419 05:37:23.856880 26406 net.cpp:165] Memory required for data: 33049756
I0419 05:37:23.856887 26406 layer_factory.hpp:77] Creating layer label_2_7x7_data_4_split
I0419 05:37:23.856899 26406 net.cpp:100] Creating Layer label_2_7x7_data_4_split
I0419 05:37:23.856906 26406 net.cpp:434] label_2_7x7_data_4_split <- label_2_7x7
I0419 05:37:23.856919 26406 net.cpp:408] label_2_7x7_data_4_split -> label_2_7x7_data_4_split_0
I0419 05:37:23.856932 26406 net.cpp:408] label_2_7x7_data_4_split -> label_2_7x7_data_4_split_1
I0419 05:37:23.856993 26406 net.cpp:150] Setting up label_2_7x7_data_4_split
I0419 05:37:23.857005 26406 net.cpp:157] Top shape: 3 6 48 48 (41472)
I0419 05:37:23.857017 26406 net.cpp:157] Top shape: 3 6 48 48 (41472)
I0419 05:37:23.857023 26406 net.cpp:165] Memory required for data: 33381532
I0419 05:37:23.857030 26406 layer_factory.hpp:77] Creating layer label_3_5x5_data_5_split
I0419 05:37:23.857040 26406 net.cpp:100] Creating Layer label_3_5x5_data_5_split
I0419 05:37:23.857048 26406 net.cpp:434] label_3_5x5_data_5_split <- label_3_5x5
I0419 05:37:23.857069 26406 net.cpp:408] label_3_5x5_data_5_split -> label_3_5x5_data_5_split_0
I0419 05:37:23.857084 26406 net.cpp:408] label_3_5x5_data_5_split -> label_3_5x5_data_5_split_1
I0419 05:37:23.857141 26406 net.cpp:150] Setting up label_3_5x5_data_5_split
I0419 05:37:23.857156 26406 net.cpp:157] Top shape: 3 6 24 24 (10368)
I0419 05:37:23.857164 26406 net.cpp:157] Top shape: 3 6 24 24 (10368)
I0419 05:37:23.857172 26406 net.cpp:165] Memory required for data: 33464476
I0419 05:37:23.857180 26406 layer_factory.hpp:77] Creating layer label_3_7x7_data_6_split
I0419 05:37:23.857188 26406 net.cpp:100] Creating Layer label_3_7x7_data_6_split
I0419 05:37:23.857197 26406 net.cpp:434] label_3_7x7_data_6_split <- label_3_7x7
I0419 05:37:23.857208 26406 net.cpp:408] label_3_7x7_data_6_split -> label_3_7x7_data_6_split_0
I0419 05:37:23.857221 26406 net.cpp:408] label_3_7x7_data_6_split -> label_3_7x7_data_6_split_1
I0419 05:37:23.857278 26406 net.cpp:150] Setting up label_3_7x7_data_6_split
I0419 05:37:23.857291 26406 net.cpp:157] Top shape: 3 6 24 24 (10368)
I0419 05:37:23.857300 26406 net.cpp:157] Top shape: 3 6 24 24 (10368)
I0419 05:37:23.857309 26406 net.cpp:165] Memory required for data: 33547420
I0419 05:37:23.857316 26406 layer_factory.hpp:77] Creating layer label_4_5x5_data_7_split
I0419 05:37:23.857326 26406 net.cpp:100] Creating Layer label_4_5x5_data_7_split
I0419 05:37:23.857333 26406 net.cpp:434] label_4_5x5_data_7_split <- label_4_5x5
I0419 05:37:23.857345 26406 net.cpp:408] label_4_5x5_data_7_split -> label_4_5x5_data_7_split_0
I0419 05:37:23.857359 26406 net.cpp:408] label_4_5x5_data_7_split -> label_4_5x5_data_7_split_1
I0419 05:37:23.857417 26406 net.cpp:150] Setting up label_4_5x5_data_7_split
I0419 05:37:23.857429 26406 net.cpp:157] Top shape: 3 6 12 12 (2592)
I0419 05:37:23.857439 26406 net.cpp:157] Top shape: 3 6 12 12 (2592)
I0419 05:37:23.857447 26406 net.cpp:165] Memory required for data: 33568156
I0419 05:37:23.857455 26406 layer_factory.hpp:77] Creating layer slice
I0419 05:37:23.857476 26406 net.cpp:100] Creating Layer slice
I0419 05:37:23.857486 26406 net.cpp:434] slice <- data
I0419 05:37:23.857496 26406 net.cpp:408] slice -> data123
I0419 05:37:23.857514 26406 net.cpp:408] slice -> ch4
I0419 05:37:23.857581 26406 net.cpp:150] Setting up slice
I0419 05:37:23.857595 26406 net.cpp:157] Top shape: 3 3 768 768 (5308416)
I0419 05:37:23.857606 26406 net.cpp:157] Top shape: 3 1 768 768 (1769472)
I0419 05:37:23.857615 26406 net.cpp:165] Memory required for data: 61879708
I0419 05:37:23.857622 26406 layer_factory.hpp:77] Creating layer conv1_1
I0419 05:37:23.857645 26406 net.cpp:100] Creating Layer conv1_1
I0419 05:37:23.857655 26406 net.cpp:434] conv1_1 <- data123
I0419 05:37:23.857666 26406 net.cpp:408] conv1_1 -> conv1_1
I0419 05:37:24.093070 26406 net.cpp:150] Setting up conv1_1
I0419 05:37:24.093101 26406 net.cpp:157] Top shape: 3 64 768 768 (113246208)
I0419 05:37:24.093106 26406 net.cpp:165] Memory required for data: 514864540
I0419 05:37:24.093128 26406 layer_factory.hpp:77] Creating layer relu1_1
I0419 05:37:24.093144 26406 net.cpp:100] Creating Layer relu1_1
I0419 05:37:24.093152 26406 net.cpp:434] relu1_1 <- conv1_1
I0419 05:37:24.093160 26406 net.cpp:395] relu1_1 -> conv1_1 (in-place)
I0419 05:37:24.093399 26406 net.cpp:150] Setting up relu1_1
I0419 05:37:24.093408 26406 net.cpp:157] Top shape: 3 64 768 768 (113246208)
I0419 05:37:24.093412 26406 net.cpp:165] Memory required for data: 967849372
I0419 05:37:24.093417 26406 layer_factory.hpp:77] Creating layer conv1_2
I0419 05:37:24.093430 26406 net.cpp:100] Creating Layer conv1_2
I0419 05:37:24.093438 26406 net.cpp:434] conv1_2 <- conv1_1
I0419 05:37:24.093446 26406 net.cpp:408] conv1_2 -> conv1_2
I0419 05:37:24.095582 26406 net.cpp:150] Setting up conv1_2
I0419 05:37:24.095593 26406 net.cpp:157] Top shape: 3 64 768 768 (113246208)
I0419 05:37:24.095597 26406 net.cpp:165] Memory required for data: 1420834204
I0419 05:37:24.095605 26406 layer_factory.hpp:77] Creating layer relu1_2
I0419 05:37:24.095613 26406 net.cpp:100] Creating Layer relu1_2
I0419 05:37:24.095616 26406 net.cpp:434] relu1_2 <- conv1_2
I0419 05:37:24.095620 26406 net.cpp:395] relu1_2 -> conv1_2 (in-place)
I0419 05:37:24.095753 26406 net.cpp:150] Setting up relu1_2
I0419 05:37:24.095760 26406 net.cpp:157] Top shape: 3 64 768 768 (113246208)
I0419 05:37:24.095764 26406 net.cpp:165] Memory required for data: 1873819036
I0419 05:37:24.095767 26406 layer_factory.hpp:77] Creating layer pool1
I0419 05:37:24.095774 26406 net.cpp:100] Creating Layer pool1
I0419 05:37:24.095778 26406 net.cpp:434] pool1 <- conv1_2
I0419 05:37:24.095784 26406 net.cpp:408] pool1 -> pool1
I0419 05:37:24.095841 26406 net.cpp:150] Setting up pool1
I0419 05:37:24.095847 26406 net.cpp:157] Top shape: 3 64 384 384 (28311552)
I0419 05:37:24.095851 26406 net.cpp:165] Memory required for data: 1987065244
I0419 05:37:24.095855 26406 layer_factory.hpp:77] Creating layer ch4_pool1
I0419 05:37:24.095860 26406 net.cpp:100] Creating Layer ch4_pool1
I0419 05:37:24.095865 26406 net.cpp:434] ch4_pool1 <- ch4
I0419 05:37:24.095870 26406 net.cpp:408] ch4_pool1 -> ch4_pool1
I0419 05:37:24.095897 26406 net.cpp:150] Setting up ch4_pool1
I0419 05:37:24.095904 26406 net.cpp:157] Top shape: 3 1 384 384 (442368)
I0419 05:37:24.095908 26406 net.cpp:165] Memory required for data: 1988834716
I0419 05:37:24.095911 26406 layer_factory.hpp:77] Creating layer ch4_pool1_ch4_pool1_0_split
I0419 05:37:24.095917 26406 net.cpp:100] Creating Layer ch4_pool1_ch4_pool1_0_split
I0419 05:37:24.095921 26406 net.cpp:434] ch4_pool1_ch4_pool1_0_split <- ch4_pool1
I0419 05:37:24.095926 26406 net.cpp:408] ch4_pool1_ch4_pool1_0_split -> ch4_pool1_ch4_pool1_0_split_0
I0419 05:37:24.095932 26406 net.cpp:408] ch4_pool1_ch4_pool1_0_split -> ch4_pool1_ch4_pool1_0_split_1
I0419 05:37:24.095959 26406 net.cpp:150] Setting up ch4_pool1_ch4_pool1_0_split
I0419 05:37:24.095965 26406 net.cpp:157] Top shape: 3 1 384 384 (442368)
I0419 05:37:24.095969 26406 net.cpp:157] Top shape: 3 1 384 384 (442368)
I0419 05:37:24.095973 26406 net.cpp:165] Memory required for data: 1992373660
I0419 05:37:24.095976 26406 layer_factory.hpp:77] Creating layer pool1_concat
I0419 05:37:24.095984 26406 net.cpp:100] Creating Layer pool1_concat
I0419 05:37:24.095988 26406 net.cpp:434] pool1_concat <- pool1
I0419 05:37:24.095993 26406 net.cpp:434] pool1_concat <- ch4_pool1_ch4_pool1_0_split_0
I0419 05:37:24.096000 26406 net.cpp:408] pool1_concat -> pool1_new
I0419 05:37:24.096024 26406 net.cpp:150] Setting up pool1_concat
I0419 05:37:24.096030 26406 net.cpp:157] Top shape: 3 65 384 384 (28753920)
I0419 05:37:24.096035 26406 net.cpp:165] Memory required for data: 2107389340
I0419 05:37:24.096040 26406 layer_factory.hpp:77] Creating layer conv2_1_new
I0419 05:37:24.096048 26406 net.cpp:100] Creating Layer conv2_1_new
I0419 05:37:24.096053 26406 net.cpp:434] conv2_1_new <- pool1_new
I0419 05:37:24.096061 26406 net.cpp:408] conv2_1_new -> conv2_1
I0419 05:37:24.098340 26406 net.cpp:150] Setting up conv2_1_new
I0419 05:37:24.098358 26406 net.cpp:157] Top shape: 3 128 384 384 (56623104)
I0419 05:37:24.098363 26406 net.cpp:165] Memory required for data: 2333881756
I0419 05:37:24.098374 26406 layer_factory.hpp:77] Creating layer relu2_1
I0419 05:37:24.098382 26406 net.cpp:100] Creating Layer relu2_1
I0419 05:37:24.098387 26406 net.cpp:434] relu2_1 <- conv2_1
I0419 05:37:24.098394 26406 net.cpp:395] relu2_1 -> conv2_1 (in-place)
I0419 05:37:24.098582 26406 net.cpp:150] Setting up relu2_1
I0419 05:37:24.098592 26406 net.cpp:157] Top shape: 3 128 384 384 (56623104)
I0419 05:37:24.098598 26406 net.cpp:165] Memory required for data: 2560374172
I0419 05:37:24.098601 26406 layer_factory.hpp:77] Creating layer conv2_2
I0419 05:37:24.098611 26406 net.cpp:100] Creating Layer conv2_2
I0419 05:37:24.098618 26406 net.cpp:434] conv2_2 <- conv2_1
I0419 05:37:24.098628 26406 net.cpp:408] conv2_2 -> conv2_2
I0419 05:37:24.100077 26406 net.cpp:150] Setting up conv2_2
I0419 05:37:24.100090 26406 net.cpp:157] Top shape: 3 128 384 384 (56623104)
I0419 05:37:24.100095 26406 net.cpp:165] Memory required for data: 2786866588
I0419 05:37:24.100101 26406 layer_factory.hpp:77] Creating layer relu2_2
I0419 05:37:24.100107 26406 net.cpp:100] Creating Layer relu2_2
I0419 05:37:24.100112 26406 net.cpp:434] relu2_2 <- conv2_2
I0419 05:37:24.100117 26406 net.cpp:395] relu2_2 -> conv2_2 (in-place)
I0419 05:37:24.100272 26406 net.cpp:150] Setting up relu2_2
I0419 05:37:24.100280 26406 net.cpp:157] Top shape: 3 128 384 384 (56623104)
I0419 05:37:24.100283 26406 net.cpp:165] Memory required for data: 3013359004
I0419 05:37:24.100288 26406 layer_factory.hpp:77] Creating layer pool2
I0419 05:37:24.100296 26406 net.cpp:100] Creating Layer pool2
I0419 05:37:24.100301 26406 net.cpp:434] pool2 <- conv2_2
I0419 05:37:24.100307 26406 net.cpp:408] pool2 -> pool2
I0419 05:37:24.100375 26406 net.cpp:150] Setting up pool2
I0419 05:37:24.100384 26406 net.cpp:157] Top shape: 3 128 192 192 (14155776)
I0419 05:37:24.100388 26406 net.cpp:165] Memory required for data: 3069982108
I0419 05:37:24.100392 26406 layer_factory.hpp:77] Creating layer ch4_pool2
I0419 05:37:24.100400 26406 net.cpp:100] Creating Layer ch4_pool2
I0419 05:37:24.100405 26406 net.cpp:434] ch4_pool2 <- ch4_pool1_ch4_pool1_0_split_1
I0419 05:37:24.100412 26406 net.cpp:408] ch4_pool2 -> ch4_pool2
I0419 05:37:24.100445 26406 net.cpp:150] Setting up ch4_pool2
I0419 05:37:24.100452 26406 net.cpp:157] Top shape: 3 1 192 192 (110592)
I0419 05:37:24.100456 26406 net.cpp:165] Memory required for data: 3070424476
I0419 05:37:24.100461 26406 layer_factory.hpp:77] Creating layer ch4_pool2_ch4_pool2_0_split
I0419 05:37:24.100467 26406 net.cpp:100] Creating Layer ch4_pool2_ch4_pool2_0_split
I0419 05:37:24.100471 26406 net.cpp:434] ch4_pool2_ch4_pool2_0_split <- ch4_pool2
I0419 05:37:24.100477 26406 net.cpp:408] ch4_pool2_ch4_pool2_0_split -> ch4_pool2_ch4_pool2_0_split_0
I0419 05:37:24.100484 26406 net.cpp:408] ch4_pool2_ch4_pool2_0_split -> ch4_pool2_ch4_pool2_0_split_1
I0419 05:37:24.100492 26406 net.cpp:408] ch4_pool2_ch4_pool2_0_split -> ch4_pool2_ch4_pool2_0_split_2
I0419 05:37:24.100533 26406 net.cpp:150] Setting up ch4_pool2_ch4_pool2_0_split
I0419 05:37:24.100539 26406 net.cpp:157] Top shape: 3 1 192 192 (110592)
I0419 05:37:24.100545 26406 net.cpp:157] Top shape: 3 1 192 192 (110592)
I0419 05:37:24.100550 26406 net.cpp:157] Top shape: 3 1 192 192 (110592)
I0419 05:37:24.100554 26406 net.cpp:165] Memory required for data: 3071751580
I0419 05:37:24.100559 26406 layer_factory.hpp:77] Creating layer pool2_concat
I0419 05:37:24.100565 26406 net.cpp:100] Creating Layer pool2_concat
I0419 05:37:24.100570 26406 net.cpp:434] pool2_concat <- pool2
I0419 05:37:24.100575 26406 net.cpp:434] pool2_concat <- ch4_pool2_ch4_pool2_0_split_0
I0419 05:37:24.100582 26406 net.cpp:408] pool2_concat -> pool2_new
I0419 05:37:24.100605 26406 net.cpp:150] Setting up pool2_concat
I0419 05:37:24.100611 26406 net.cpp:157] Top shape: 3 129 192 192 (14266368)
I0419 05:37:24.100615 26406 net.cpp:165] Memory required for data: 3128817052
I0419 05:37:24.100620 26406 layer_factory.hpp:77] Creating layer conv3_1_new
I0419 05:37:24.100627 26406 net.cpp:100] Creating Layer conv3_1_new
I0419 05:37:24.100632 26406 net.cpp:434] conv3_1_new <- pool2_new
I0419 05:37:24.100638 26406 net.cpp:408] conv3_1_new -> conv3_1
I0419 05:37:24.102830 26406 net.cpp:150] Setting up conv3_1_new
I0419 05:37:24.102843 26406 net.cpp:157] Top shape: 3 256 192 192 (28311552)
I0419 05:37:24.102845 26406 net.cpp:165] Memory required for data: 3242063260
I0419 05:37:24.102854 26406 layer_factory.hpp:77] Creating layer relu3_1
I0419 05:37:24.102860 26406 net.cpp:100] Creating Layer relu3_1
I0419 05:37:24.102864 26406 net.cpp:434] relu3_1 <- conv3_1
I0419 05:37:24.102867 26406 net.cpp:395] relu3_1 -> conv3_1 (in-place)
I0419 05:37:24.103305 26406 net.cpp:150] Setting up relu3_1
I0419 05:37:24.103317 26406 net.cpp:157] Top shape: 3 256 192 192 (28311552)
I0419 05:37:24.103322 26406 net.cpp:165] Memory required for data: 3355309468
I0419 05:37:24.103327 26406 layer_factory.hpp:77] Creating layer conv3_2
I0419 05:37:24.103335 26406 net.cpp:100] Creating Layer conv3_2
I0419 05:37:24.103339 26406 net.cpp:434] conv3_2 <- conv3_1
I0419 05:37:24.103345 26406 net.cpp:408] conv3_2 -> conv3_2
I0419 05:37:24.105543 26406 net.cpp:150] Setting up conv3_2
I0419 05:37:24.105561 26406 net.cpp:157] Top shape: 3 256 192 192 (28311552)
I0419 05:37:24.105564 26406 net.cpp:165] Memory required for data: 3468555676
I0419 05:37:24.105572 26406 layer_factory.hpp:77] Creating layer relu3_2
I0419 05:37:24.105578 26406 net.cpp:100] Creating Layer relu3_2
I0419 05:37:24.105583 26406 net.cpp:434] relu3_2 <- conv3_2
I0419 05:37:24.105589 26406 net.cpp:395] relu3_2 -> conv3_2 (in-place)
I0419 05:37:24.106012 26406 net.cpp:150] Setting up relu3_2
I0419 05:37:24.106024 26406 net.cpp:157] Top shape: 3 256 192 192 (28311552)
I0419 05:37:24.106027 26406 net.cpp:165] Memory required for data: 3581801884
I0419 05:37:24.106031 26406 layer_factory.hpp:77] Creating layer conv3_3
I0419 05:37:24.106040 26406 net.cpp:100] Creating Layer conv3_3
I0419 05:37:24.106045 26406 net.cpp:434] conv3_3 <- conv3_2
I0419 05:37:24.106050 26406 net.cpp:408] conv3_3 -> conv3_3
I0419 05:37:24.108544 26406 net.cpp:150] Setting up conv3_3
I0419 05:37:24.108561 26406 net.cpp:157] Top shape: 3 256 192 192 (28311552)
I0419 05:37:24.108564 26406 net.cpp:165] Memory required for data: 3695048092
I0419 05:37:24.108572 26406 layer_factory.hpp:77] Creating layer relu3_3
I0419 05:37:24.108580 26406 net.cpp:100] Creating Layer relu3_3
I0419 05:37:24.108585 26406 net.cpp:434] relu3_3 <- conv3_3
I0419 05:37:24.108590 26406 net.cpp:395] relu3_3 -> conv3_3 (in-place)
I0419 05:37:24.108785 26406 net.cpp:150] Setting up relu3_3
I0419 05:37:24.108830 26406 net.cpp:157] Top shape: 3 256 192 192 (28311552)
I0419 05:37:24.108851 26406 net.cpp:165] Memory required for data: 3808294300
I0419 05:37:24.108875 26406 layer_factory.hpp:77] Creating layer pool3
I0419 05:37:24.108906 26406 net.cpp:100] Creating Layer pool3
I0419 05:37:24.108927 26406 net.cpp:434] pool3 <- conv3_3
I0419 05:37:24.108955 26406 net.cpp:408] pool3 -> pool3
I0419 05:37:24.109076 26406 net.cpp:150] Setting up pool3
I0419 05:37:24.109122 26406 net.cpp:157] Top shape: 3 256 96 96 (7077888)
I0419 05:37:24.109145 26406 net.cpp:165] Memory required for data: 3836605852
I0419 05:37:24.109171 26406 layer_factory.hpp:77] Creating layer ch4_pool3
I0419 05:37:24.109232 26406 net.cpp:100] Creating Layer ch4_pool3
I0419 05:37:24.109300 26406 net.cpp:434] ch4_pool3 <- ch4_pool2_ch4_pool2_0_split_1
I0419 05:37:24.109351 26406 net.cpp:408] ch4_pool3 -> ch4_pool3
I0419 05:37:24.109567 26406 net.cpp:150] Setting up ch4_pool3
I0419 05:37:24.109701 26406 net.cpp:157] Top shape: 3 1 96 96 (27648)
I0419 05:37:24.109760 26406 net.cpp:165] Memory required for data: 3836716444
I0419 05:37:24.109796 26406 layer_factory.hpp:77] Creating layer pool3_concat
I0419 05:37:24.109820 26406 net.cpp:100] Creating Layer pool3_concat
I0419 05:37:24.109851 26406 net.cpp:434] pool3_concat <- pool3
I0419 05:37:24.109868 26406 net.cpp:434] pool3_concat <- ch4_pool3
I0419 05:37:24.109894 26406 net.cpp:408] pool3_concat -> pool3_new
I0419 05:37:24.109939 26406 net.cpp:150] Setting up pool3_concat
I0419 05:37:24.109959 26406 net.cpp:157] Top shape: 3 257 96 96 (7105536)
I0419 05:37:24.109975 26406 net.cpp:165] Memory required for data: 3865138588
I0419 05:37:24.109990 26406 layer_factory.hpp:77] Creating layer conv4_1_new
I0419 05:37:24.110016 26406 net.cpp:100] Creating Layer conv4_1_new
I0419 05:37:24.110031 26406 net.cpp:434] conv4_1_new <- pool3_new
I0419 05:37:24.110049 26406 net.cpp:408] conv4_1_new -> conv4_1
I0419 05:37:24.114527 26406 net.cpp:150] Setting up conv4_1_new
I0419 05:37:24.114558 26406 net.cpp:157] Top shape: 3 512 96 96 (14155776)
I0419 05:37:24.114563 26406 net.cpp:165] Memory required for data: 3921761692
I0419 05:37:24.114574 26406 layer_factory.hpp:77] Creating layer relu4_1
I0419 05:37:24.114586 26406 net.cpp:100] Creating Layer relu4_1
I0419 05:37:24.114593 26406 net.cpp:434] relu4_1 <- conv4_1
I0419 05:37:24.114598 26406 net.cpp:395] relu4_1 -> conv4_1 (in-place)
I0419 05:37:24.114761 26406 net.cpp:150] Setting up relu4_1
I0419 05:37:24.114773 26406 net.cpp:157] Top shape: 3 512 96 96 (14155776)
I0419 05:37:24.114775 26406 net.cpp:165] Memory required for data: 3978384796
I0419 05:37:24.114779 26406 layer_factory.hpp:77] Creating layer conv4_2
I0419 05:37:24.114789 26406 net.cpp:100] Creating Layer conv4_2
I0419 05:37:24.114792 26406 net.cpp:434] conv4_2 <- conv4_1
I0419 05:37:24.114797 26406 net.cpp:408] conv4_2 -> conv4_2
I0419 05:37:24.120805 26406 net.cpp:150] Setting up conv4_2
I0419 05:37:24.120836 26406 net.cpp:157] Top shape: 3 512 96 96 (14155776)
I0419 05:37:24.120839 26406 net.cpp:165] Memory required for data: 4035007900
I0419 05:37:24.120856 26406 layer_factory.hpp:77] Creating layer relu4_2
I0419 05:37:24.120867 26406 net.cpp:100] Creating Layer relu4_2
I0419 05:37:24.120873 26406 net.cpp:434] relu4_2 <- conv4_2
I0419 05:37:24.120882 26406 net.cpp:395] relu4_2 -> conv4_2 (in-place)
I0419 05:37:24.121124 26406 net.cpp:150] Setting up relu4_2
I0419 05:37:24.121136 26406 net.cpp:157] Top shape: 3 512 96 96 (14155776)
I0419 05:37:24.121141 26406 net.cpp:165] Memory required for data: 4091631004
I0419 05:37:24.121146 26406 layer_factory.hpp:77] Creating layer conv4_3
I0419 05:37:24.121160 26406 net.cpp:100] Creating Layer conv4_3
I0419 05:37:24.121165 26406 net.cpp:434] conv4_3 <- conv4_2
I0419 05:37:24.121172 26406 net.cpp:408] conv4_3 -> conv4_3
I0419 05:37:24.128909 26406 net.cpp:150] Setting up conv4_3
I0419 05:37:24.128937 26406 net.cpp:157] Top shape: 3 512 96 96 (14155776)
I0419 05:37:24.128942 26406 net.cpp:165] Memory required for data: 4148254108
I0419 05:37:24.128950 26406 layer_factory.hpp:77] Creating layer relu4_3
I0419 05:37:24.128962 26406 net.cpp:100] Creating Layer relu4_3
I0419 05:37:24.128968 26406 net.cpp:434] relu4_3 <- conv4_3
I0419 05:37:24.128973 26406 net.cpp:395] relu4_3 -> conv4_3 (in-place)
I0419 05:37:24.129143 26406 net.cpp:150] Setting up relu4_3
I0419 05:37:24.129154 26406 net.cpp:157] Top shape: 3 512 96 96 (14155776)
I0419 05:37:24.129158 26406 net.cpp:165] Memory required for data: 4204877212
I0419 05:37:24.129161 26406 layer_factory.hpp:77] Creating layer conv4_3_relu4_3_0_split
I0419 05:37:24.129168 26406 net.cpp:100] Creating Layer conv4_3_relu4_3_0_split
I0419 05:37:24.129171 26406 net.cpp:434] conv4_3_relu4_3_0_split <- conv4_3
I0419 05:37:24.129178 26406 net.cpp:408] conv4_3_relu4_3_0_split -> conv4_3_relu4_3_0_split_0
I0419 05:37:24.129184 26406 net.cpp:408] conv4_3_relu4_3_0_split -> conv4_3_relu4_3_0_split_1
I0419 05:37:24.129189 26406 net.cpp:408] conv4_3_relu4_3_0_split -> conv4_3_relu4_3_0_split_2
I0419 05:37:24.129237 26406 net.cpp:150] Setting up conv4_3_relu4_3_0_split
I0419 05:37:24.129245 26406 net.cpp:157] Top shape: 3 512 96 96 (14155776)
I0419 05:37:24.129250 26406 net.cpp:157] Top shape: 3 512 96 96 (14155776)
I0419 05:37:24.129253 26406 net.cpp:157] Top shape: 3 512 96 96 (14155776)
I0419 05:37:24.129256 26406 net.cpp:165] Memory required for data: 4374746524
I0419 05:37:24.129259 26406 layer_factory.hpp:77] Creating layer loss1_conv1
I0419 05:37:24.129271 26406 net.cpp:100] Creating Layer loss1_conv1
I0419 05:37:24.129273 26406 net.cpp:434] loss1_conv1 <- conv4_3_relu4_3_0_split_0
I0419 05:37:24.129281 26406 net.cpp:408] loss1_conv1 -> loss1_conv1
I0419 05:37:24.188756 26406 net.cpp:150] Setting up loss1_conv1
I0419 05:37:24.188783 26406 net.cpp:157] Top shape: 3 512 96 96 (14155776)
I0419 05:37:24.188786 26406 net.cpp:165] Memory required for data: 4431369628
I0419 05:37:24.188794 26406 layer_factory.hpp:77] Creating layer loss_relu1
I0419 05:37:24.188804 26406 net.cpp:100] Creating Layer loss_relu1
I0419 05:37:24.188809 26406 net.cpp:434] loss_relu1 <- loss1_conv1
I0419 05:37:24.188814 26406 net.cpp:395] loss_relu1 -> loss1_conv1 (in-place)
I0419 05:37:24.189260 26406 net.cpp:150] Setting up loss_relu1
I0419 05:37:24.189273 26406 net.cpp:157] Top shape: 3 512 96 96 (14155776)
I0419 05:37:24.189277 26406 net.cpp:165] Memory required for data: 4487992732
I0419 05:37:24.189281 26406 layer_factory.hpp:77] Creating layer loss1_conv1_loss_relu1_0_split
I0419 05:37:24.189287 26406 net.cpp:100] Creating Layer loss1_conv1_loss_relu1_0_split
I0419 05:37:24.189291 26406 net.cpp:434] loss1_conv1_loss_relu1_0_split <- loss1_conv1
I0419 05:37:24.189296 26406 net.cpp:408] loss1_conv1_loss_relu1_0_split -> loss1_conv1_loss_relu1_0_split_0
I0419 05:37:24.189302 26406 net.cpp:408] loss1_conv1_loss_relu1_0_split -> loss1_conv1_loss_relu1_0_split_1
I0419 05:37:24.189337 26406 net.cpp:150] Setting up loss1_conv1_loss_relu1_0_split
I0419 05:37:24.189344 26406 net.cpp:157] Top shape: 3 512 96 96 (14155776)
I0419 05:37:24.189348 26406 net.cpp:157] Top shape: 3 512 96 96 (14155776)
I0419 05:37:24.189352 26406 net.cpp:165] Memory required for data: 4601238940
I0419 05:37:24.189354 26406 layer_factory.hpp:77] Creating layer LFCN_1_5x5
I0419 05:37:24.189366 26406 net.cpp:100] Creating Layer LFCN_1_5x5
I0419 05:37:24.189370 26406 net.cpp:434] LFCN_1_5x5 <- loss1_conv1_loss_relu1_0_split_0
I0419 05:37:24.189375 26406 net.cpp:408] LFCN_1_5x5 -> LFCN_1_5x5
I0419 05:37:24.192914 26406 net.cpp:150] Setting up LFCN_1_5x5
I0419 05:37:24.192924 26406 net.cpp:157] Top shape: 3 9 96 96 (248832)
I0419 05:37:24.192927 26406 net.cpp:165] Memory required for data: 4602234268
I0419 05:37:24.192934 26406 layer_factory.hpp:77] Creating layer LFCN_1_5x5_LFCN_1_5x5_0_split
I0419 05:37:24.192939 26406 net.cpp:100] Creating Layer LFCN_1_5x5_LFCN_1_5x5_0_split
I0419 05:37:24.192942 26406 net.cpp:434] LFCN_1_5x5_LFCN_1_5x5_0_split <- LFCN_1_5x5
I0419 05:37:24.192948 26406 net.cpp:408] LFCN_1_5x5_LFCN_1_5x5_0_split -> LFCN_1_5x5_LFCN_1_5x5_0_split_0
I0419 05:37:24.192955 26406 net.cpp:408] LFCN_1_5x5_LFCN_1_5x5_0_split -> LFCN_1_5x5_LFCN_1_5x5_0_split_1
I0419 05:37:24.192960 26406 net.cpp:408] LFCN_1_5x5_LFCN_1_5x5_0_split -> LFCN_1_5x5_LFCN_1_5x5_0_split_2
I0419 05:37:24.193002 26406 net.cpp:150] Setting up LFCN_1_5x5_LFCN_1_5x5_0_split
I0419 05:37:24.193008 26406 net.cpp:157] Top shape: 3 9 96 96 (248832)
I0419 05:37:24.193013 26406 net.cpp:157] Top shape: 3 9 96 96 (248832)
I0419 05:37:24.193017 26406 net.cpp:157] Top shape: 3 9 96 96 (248832)
I0419 05:37:24.193019 26406 net.cpp:165] Memory required for data: 4605220252
I0419 05:37:24.193023 26406 layer_factory.hpp:77] Creating layer detection_loss_1_5x5
I0419 05:37:24.193030 26406 net.cpp:100] Creating Layer detection_loss_1_5x5
I0419 05:37:24.193034 26406 net.cpp:434] detection_loss_1_5x5 <- LFCN_1_5x5_LFCN_1_5x5_0_split_0
I0419 05:37:24.193038 26406 net.cpp:434] detection_loss_1_5x5 <- label_1_5x5_data_1_split_0
I0419 05:37:24.193043 26406 net.cpp:408] detection_loss_1_5x5 -> loss_1_5x5
I0419 05:37:24.193056 26406 layer_factory.hpp:77] Creating layer detection_loss_1_5x5
I0419 05:37:24.194501 26406 net.cpp:150] Setting up detection_loss_1_5x5
I0419 05:37:24.194514 26406 net.cpp:157] Top shape: 1 1 1 2 (2)
I0419 05:37:24.194519 26406 net.cpp:160]     with loss weight 0.9
I0419 05:37:24.194536 26406 net.cpp:165] Memory required for data: 4605220260
I0419 05:37:24.194540 26406 layer_factory.hpp:77] Creating layer detection_accuracy_1_5x5
I0419 05:37:24.194550 26406 net.cpp:100] Creating Layer detection_accuracy_1_5x5
I0419 05:37:24.194553 26406 net.cpp:434] detection_accuracy_1_5x5 <- LFCN_1_5x5_LFCN_1_5x5_0_split_1
I0419 05:37:24.194558 26406 net.cpp:434] detection_accuracy_1_5x5 <- label_1_5x5_data_1_split_1
I0419 05:37:24.194564 26406 net.cpp:408] detection_accuracy_1_5x5 -> accuracy_1_5x5
I0419 05:37:24.194573 26406 net.cpp:408] detection_accuracy_1_5x5 -> boxiou_1_5x5
I0419 05:37:24.194610 26406 net.cpp:150] Setting up detection_accuracy_1_5x5
I0419 05:37:24.194619 26406 net.cpp:157] Top shape: 1 1 1 2 (2)
I0419 05:37:24.194623 26406 net.cpp:157] Top shape: 1 1 1 1 (1)
I0419 05:37:24.194628 26406 net.cpp:165] Memory required for data: 4605220272
I0419 05:37:24.194630 26406 layer_factory.hpp:77] Creating layer LFCN_1_7x7
I0419 05:37:24.194640 26406 net.cpp:100] Creating Layer LFCN_1_7x7
I0419 05:37:24.194645 26406 net.cpp:434] LFCN_1_7x7 <- loss1_conv1_loss_relu1_0_split_1
I0419 05:37:24.194650 26406 net.cpp:408] LFCN_1_7x7 -> LFCN_1_7x7
I0419 05:37:24.201195 26406 net.cpp:150] Setting up LFCN_1_7x7
I0419 05:37:24.201208 26406 net.cpp:157] Top shape: 3 9 96 96 (248832)
I0419 05:37:24.201211 26406 net.cpp:165] Memory required for data: 4606215600
I0419 05:37:24.201218 26406 layer_factory.hpp:77] Creating layer LFCN_1_7x7_LFCN_1_7x7_0_split
I0419 05:37:24.201225 26406 net.cpp:100] Creating Layer LFCN_1_7x7_LFCN_1_7x7_0_split
I0419 05:37:24.201228 26406 net.cpp:434] LFCN_1_7x7_LFCN_1_7x7_0_split <- LFCN_1_7x7
I0419 05:37:24.201234 26406 net.cpp:408] LFCN_1_7x7_LFCN_1_7x7_0_split -> LFCN_1_7x7_LFCN_1_7x7_0_split_0
I0419 05:37:24.201241 26406 net.cpp:408] LFCN_1_7x7_LFCN_1_7x7_0_split -> LFCN_1_7x7_LFCN_1_7x7_0_split_1
I0419 05:37:24.201251 26406 net.cpp:408] LFCN_1_7x7_LFCN_1_7x7_0_split -> LFCN_1_7x7_LFCN_1_7x7_0_split_2
I0419 05:37:24.201304 26406 net.cpp:150] Setting up LFCN_1_7x7_LFCN_1_7x7_0_split
I0419 05:37:24.201313 26406 net.cpp:157] Top shape: 3 9 96 96 (248832)
I0419 05:37:24.201318 26406 net.cpp:157] Top shape: 3 9 96 96 (248832)
I0419 05:37:24.201321 26406 net.cpp:157] Top shape: 3 9 96 96 (248832)
I0419 05:37:24.201324 26406 net.cpp:165] Memory required for data: 4609201584
I0419 05:37:24.201328 26406 layer_factory.hpp:77] Creating layer detection_loss_1_7x7
I0419 05:37:24.201334 26406 net.cpp:100] Creating Layer detection_loss_1_7x7
I0419 05:37:24.201339 26406 net.cpp:434] detection_loss_1_7x7 <- LFCN_1_7x7_LFCN_1_7x7_0_split_0
I0419 05:37:24.201344 26406 net.cpp:434] detection_loss_1_7x7 <- label_1_7x7_data_2_split_0
I0419 05:37:24.201349 26406 net.cpp:408] detection_loss_1_7x7 -> loss_1_7x7
I0419 05:37:24.201355 26406 layer_factory.hpp:77] Creating layer detection_loss_1_7x7
I0419 05:37:24.201720 26406 net.cpp:150] Setting up detection_loss_1_7x7
I0419 05:37:24.201730 26406 net.cpp:157] Top shape: 1 1 1 2 (2)
I0419 05:37:24.201733 26406 net.cpp:160]     with loss weight 0.9
I0419 05:37:24.201740 26406 net.cpp:165] Memory required for data: 4609201592
I0419 05:37:24.201745 26406 layer_factory.hpp:77] Creating layer detection_accuracy_1_7x7
I0419 05:37:24.201750 26406 net.cpp:100] Creating Layer detection_accuracy_1_7x7
I0419 05:37:24.201753 26406 net.cpp:434] detection_accuracy_1_7x7 <- LFCN_1_7x7_LFCN_1_7x7_0_split_1
I0419 05:37:24.201758 26406 net.cpp:434] detection_accuracy_1_7x7 <- label_1_7x7_data_2_split_1
I0419 05:37:24.201763 26406 net.cpp:408] detection_accuracy_1_7x7 -> accuracy_1_7x7
I0419 05:37:24.201771 26406 net.cpp:408] detection_accuracy_1_7x7 -> boxiou_1_7x7
I0419 05:37:24.201802 26406 net.cpp:150] Setting up detection_accuracy_1_7x7
I0419 05:37:24.201808 26406 net.cpp:157] Top shape: 1 1 1 2 (2)
I0419 05:37:24.201812 26406 net.cpp:157] Top shape: 1 1 1 1 (1)
I0419 05:37:24.201817 26406 net.cpp:165] Memory required for data: 4609201604
I0419 05:37:24.201820 26406 layer_factory.hpp:77] Creating layer pool4
I0419 05:37:24.201827 26406 net.cpp:100] Creating Layer pool4
I0419 05:37:24.201830 26406 net.cpp:434] pool4 <- conv4_3_relu4_3_0_split_1
I0419 05:37:24.201835 26406 net.cpp:408] pool4 -> pool4
I0419 05:37:24.201867 26406 net.cpp:150] Setting up pool4
I0419 05:37:24.201874 26406 net.cpp:157] Top shape: 3 512 48 48 (3538944)
I0419 05:37:24.201877 26406 net.cpp:165] Memory required for data: 4623357380
I0419 05:37:24.201881 26406 layer_factory.hpp:77] Creating layer conv5_1
I0419 05:37:24.201889 26406 net.cpp:100] Creating Layer conv5_1
I0419 05:37:24.201891 26406 net.cpp:434] conv5_1 <- pool4
I0419 05:37:24.201896 26406 net.cpp:408] conv5_1 -> conv5_1
I0419 05:37:24.207908 26406 net.cpp:150] Setting up conv5_1
I0419 05:37:24.207940 26406 net.cpp:157] Top shape: 3 512 48 48 (3538944)
I0419 05:37:24.207944 26406 net.cpp:165] Memory required for data: 4637513156
I0419 05:37:24.207952 26406 layer_factory.hpp:77] Creating layer relu5_1
I0419 05:37:24.207962 26406 net.cpp:100] Creating Layer relu5_1
I0419 05:37:24.207967 26406 net.cpp:434] relu5_1 <- conv5_1
I0419 05:37:24.207973 26406 net.cpp:395] relu5_1 -> conv5_1 (in-place)
I0419 05:37:24.208122 26406 net.cpp:150] Setting up relu5_1
I0419 05:37:24.208130 26406 net.cpp:157] Top shape: 3 512 48 48 (3538944)
I0419 05:37:24.208134 26406 net.cpp:165] Memory required for data: 4651668932
I0419 05:37:24.208137 26406 layer_factory.hpp:77] Creating layer conv5_2
I0419 05:37:24.208147 26406 net.cpp:100] Creating Layer conv5_2
I0419 05:37:24.208151 26406 net.cpp:434] conv5_2 <- conv5_1
I0419 05:37:24.208156 26406 net.cpp:408] conv5_2 -> conv5_2
I0419 05:37:24.214184 26406 net.cpp:150] Setting up conv5_2
I0419 05:37:24.214216 26406 net.cpp:157] Top shape: 3 512 48 48 (3538944)
I0419 05:37:24.214221 26406 net.cpp:165] Memory required for data: 4665824708
I0419 05:37:24.214231 26406 layer_factory.hpp:77] Creating layer relu5_2
I0419 05:37:24.214242 26406 net.cpp:100] Creating Layer relu5_2
I0419 05:37:24.214249 26406 net.cpp:434] relu5_2 <- conv5_2
I0419 05:37:24.214256 26406 net.cpp:395] relu5_2 -> conv5_2 (in-place)
I0419 05:37:24.214432 26406 net.cpp:150] Setting up relu5_2
I0419 05:37:24.214442 26406 net.cpp:157] Top shape: 3 512 48 48 (3538944)
I0419 05:37:24.214447 26406 net.cpp:165] Memory required for data: 4679980484
I0419 05:37:24.214450 26406 layer_factory.hpp:77] Creating layer conv5_3
I0419 05:37:24.214458 26406 net.cpp:100] Creating Layer conv5_3
I0419 05:37:24.214462 26406 net.cpp:434] conv5_3 <- conv5_2
I0419 05:37:24.214469 26406 net.cpp:408] conv5_3 -> conv5_3
I0419 05:37:24.220618 26406 net.cpp:150] Setting up conv5_3
I0419 05:37:24.220647 26406 net.cpp:157] Top shape: 3 512 48 48 (3538944)
I0419 05:37:24.220651 26406 net.cpp:165] Memory required for data: 4694136260
I0419 05:37:24.220661 26406 layer_factory.hpp:77] Creating layer relu5_3
I0419 05:37:24.220671 26406 net.cpp:100] Creating Layer relu5_3
I0419 05:37:24.220677 26406 net.cpp:434] relu5_3 <- conv5_3
I0419 05:37:24.220685 26406 net.cpp:395] relu5_3 -> conv5_3 (in-place)
I0419 05:37:24.220844 26406 net.cpp:150] Setting up relu5_3
I0419 05:37:24.220854 26406 net.cpp:157] Top shape: 3 512 48 48 (3538944)
I0419 05:37:24.220857 26406 net.cpp:165] Memory required for data: 4708292036
I0419 05:37:24.220860 26406 layer_factory.hpp:77] Creating layer conv5_3_relu5_3_0_split
I0419 05:37:24.220866 26406 net.cpp:100] Creating Layer conv5_3_relu5_3_0_split
I0419 05:37:24.220870 26406 net.cpp:434] conv5_3_relu5_3_0_split <- conv5_3
I0419 05:37:24.220877 26406 net.cpp:408] conv5_3_relu5_3_0_split -> conv5_3_relu5_3_0_split_0
I0419 05:37:24.220883 26406 net.cpp:408] conv5_3_relu5_3_0_split -> conv5_3_relu5_3_0_split_1
I0419 05:37:24.220890 26406 net.cpp:408] conv5_3_relu5_3_0_split -> conv5_3_relu5_3_0_split_2
I0419 05:37:24.220937 26406 net.cpp:150] Setting up conv5_3_relu5_3_0_split
I0419 05:37:24.220943 26406 net.cpp:157] Top shape: 3 512 48 48 (3538944)
I0419 05:37:24.220948 26406 net.cpp:157] Top shape: 3 512 48 48 (3538944)
I0419 05:37:24.220952 26406 net.cpp:157] Top shape: 3 512 48 48 (3538944)
I0419 05:37:24.220955 26406 net.cpp:165] Memory required for data: 4750759364
I0419 05:37:24.220958 26406 layer_factory.hpp:77] Creating layer LFCN_2_5x5
I0419 05:37:24.220969 26406 net.cpp:100] Creating Layer LFCN_2_5x5
I0419 05:37:24.220974 26406 net.cpp:434] LFCN_2_5x5 <- conv5_3_relu5_3_0_split_0
I0419 05:37:24.220981 26406 net.cpp:408] LFCN_2_5x5 -> LFCN_2_5x5
I0419 05:37:24.225738 26406 net.cpp:150] Setting up LFCN_2_5x5
I0419 05:37:24.225751 26406 net.cpp:157] Top shape: 3 9 48 48 (62208)
I0419 05:37:24.225755 26406 net.cpp:165] Memory required for data: 4751008196
I0419 05:37:24.225766 26406 layer_factory.hpp:77] Creating layer LFCN_2_5x5_LFCN_2_5x5_0_split
I0419 05:37:24.225774 26406 net.cpp:100] Creating Layer LFCN_2_5x5_LFCN_2_5x5_0_split
I0419 05:37:24.225777 26406 net.cpp:434] LFCN_2_5x5_LFCN_2_5x5_0_split <- LFCN_2_5x5
I0419 05:37:24.225781 26406 net.cpp:408] LFCN_2_5x5_LFCN_2_5x5_0_split -> LFCN_2_5x5_LFCN_2_5x5_0_split_0
I0419 05:37:24.225790 26406 net.cpp:408] LFCN_2_5x5_LFCN_2_5x5_0_split -> LFCN_2_5x5_LFCN_2_5x5_0_split_1
I0419 05:37:24.225795 26406 net.cpp:408] LFCN_2_5x5_LFCN_2_5x5_0_split -> LFCN_2_5x5_LFCN_2_5x5_0_split_2
I0419 05:37:24.225862 26406 net.cpp:150] Setting up LFCN_2_5x5_LFCN_2_5x5_0_split
I0419 05:37:24.225873 26406 net.cpp:157] Top shape: 3 9 48 48 (62208)
I0419 05:37:24.225879 26406 net.cpp:157] Top shape: 3 9 48 48 (62208)
I0419 05:37:24.225885 26406 net.cpp:157] Top shape: 3 9 48 48 (62208)
I0419 05:37:24.225888 26406 net.cpp:165] Memory required for data: 4751754692
I0419 05:37:24.225893 26406 layer_factory.hpp:77] Creating layer detection_loss_2_5x5
I0419 05:37:24.225903 26406 net.cpp:100] Creating Layer detection_loss_2_5x5
I0419 05:37:24.225908 26406 net.cpp:434] detection_loss_2_5x5 <- LFCN_2_5x5_LFCN_2_5x5_0_split_0
I0419 05:37:24.225915 26406 net.cpp:434] detection_loss_2_5x5 <- label_2_5x5_data_3_split_0
I0419 05:37:24.225925 26406 net.cpp:408] detection_loss_2_5x5 -> loss_2_5x5
I0419 05:37:24.225939 26406 layer_factory.hpp:77] Creating layer detection_loss_2_5x5
I0419 05:37:24.226640 26406 net.cpp:150] Setting up detection_loss_2_5x5
I0419 05:37:24.226652 26406 net.cpp:157] Top shape: 1 1 1 2 (2)
I0419 05:37:24.226656 26406 net.cpp:160]     with loss weight 1
I0419 05:37:24.226666 26406 net.cpp:165] Memory required for data: 4751754700
I0419 05:37:24.226671 26406 layer_factory.hpp:77] Creating layer detection_accuracy_2_5x5
I0419 05:37:24.226677 26406 net.cpp:100] Creating Layer detection_accuracy_2_5x5
I0419 05:37:24.226681 26406 net.cpp:434] detection_accuracy_2_5x5 <- LFCN_2_5x5_LFCN_2_5x5_0_split_1
I0419 05:37:24.226686 26406 net.cpp:434] detection_accuracy_2_5x5 <- label_2_5x5_data_3_split_1
I0419 05:37:24.226693 26406 net.cpp:408] detection_accuracy_2_5x5 -> accuracy_2_5x5
I0419 05:37:24.226701 26406 net.cpp:408] detection_accuracy_2_5x5 -> boxiou_2_5x5
I0419 05:37:24.226744 26406 net.cpp:150] Setting up detection_accuracy_2_5x5
I0419 05:37:24.226754 26406 net.cpp:157] Top shape: 1 1 1 2 (2)
I0419 05:37:24.226760 26406 net.cpp:157] Top shape: 1 1 1 1 (1)
I0419 05:37:24.226763 26406 net.cpp:165] Memory required for data: 4751754712
I0419 05:37:24.226766 26406 layer_factory.hpp:77] Creating layer LFCN_2_7x7
I0419 05:37:24.226781 26406 net.cpp:100] Creating Layer LFCN_2_7x7
I0419 05:37:24.226786 26406 net.cpp:434] LFCN_2_7x7 <- conv5_3_relu5_3_0_split_1
I0419 05:37:24.226792 26406 net.cpp:408] LFCN_2_7x7 -> LFCN_2_7x7
I0419 05:37:24.232937 26406 net.cpp:150] Setting up LFCN_2_7x7
I0419 05:37:24.232949 26406 net.cpp:157] Top shape: 3 9 48 48 (62208)
I0419 05:37:24.232954 26406 net.cpp:165] Memory required for data: 4752003544
I0419 05:37:24.232959 26406 layer_factory.hpp:77] Creating layer LFCN_2_7x7_LFCN_2_7x7_0_split
I0419 05:37:24.232965 26406 net.cpp:100] Creating Layer LFCN_2_7x7_LFCN_2_7x7_0_split
I0419 05:37:24.232969 26406 net.cpp:434] LFCN_2_7x7_LFCN_2_7x7_0_split <- LFCN_2_7x7
I0419 05:37:24.232975 26406 net.cpp:408] LFCN_2_7x7_LFCN_2_7x7_0_split -> LFCN_2_7x7_LFCN_2_7x7_0_split_0
I0419 05:37:24.232981 26406 net.cpp:408] LFCN_2_7x7_LFCN_2_7x7_0_split -> LFCN_2_7x7_LFCN_2_7x7_0_split_1
I0419 05:37:24.232986 26406 net.cpp:408] LFCN_2_7x7_LFCN_2_7x7_0_split -> LFCN_2_7x7_LFCN_2_7x7_0_split_2
I0419 05:37:24.233031 26406 net.cpp:150] Setting up LFCN_2_7x7_LFCN_2_7x7_0_split
I0419 05:37:24.233037 26406 net.cpp:157] Top shape: 3 9 48 48 (62208)
I0419 05:37:24.233042 26406 net.cpp:157] Top shape: 3 9 48 48 (62208)
I0419 05:37:24.233045 26406 net.cpp:157] Top shape: 3 9 48 48 (62208)
I0419 05:37:24.233048 26406 net.cpp:165] Memory required for data: 4752750040
I0419 05:37:24.233052 26406 layer_factory.hpp:77] Creating layer detection_loss_2_7x7
I0419 05:37:24.233058 26406 net.cpp:100] Creating Layer detection_loss_2_7x7
I0419 05:37:24.233062 26406 net.cpp:434] detection_loss_2_7x7 <- LFCN_2_7x7_LFCN_2_7x7_0_split_0
I0419 05:37:24.233067 26406 net.cpp:434] detection_loss_2_7x7 <- label_2_7x7_data_4_split_0
I0419 05:37:24.233072 26406 net.cpp:408] detection_loss_2_7x7 -> loss_2_7x7
I0419 05:37:24.233079 26406 layer_factory.hpp:77] Creating layer detection_loss_2_7x7
I0419 05:37:24.233685 26406 net.cpp:150] Setting up detection_loss_2_7x7
I0419 05:37:24.233698 26406 net.cpp:157] Top shape: 1 1 1 2 (2)
I0419 05:37:24.233701 26406 net.cpp:160]     with loss weight 1
I0419 05:37:24.233706 26406 net.cpp:165] Memory required for data: 4752750048
I0419 05:37:24.233711 26406 layer_factory.hpp:77] Creating layer detection_accuracy_2_7x7
I0419 05:37:24.233717 26406 net.cpp:100] Creating Layer detection_accuracy_2_7x7
I0419 05:37:24.233721 26406 net.cpp:434] detection_accuracy_2_7x7 <- LFCN_2_7x7_LFCN_2_7x7_0_split_1
I0419 05:37:24.233726 26406 net.cpp:434] detection_accuracy_2_7x7 <- label_2_7x7_data_4_split_1
I0419 05:37:24.233732 26406 net.cpp:408] detection_accuracy_2_7x7 -> accuracy_2_7x7
I0419 05:37:24.233739 26406 net.cpp:408] detection_accuracy_2_7x7 -> boxiou_2_7x7
I0419 05:37:24.233773 26406 net.cpp:150] Setting up detection_accuracy_2_7x7
I0419 05:37:24.233780 26406 net.cpp:157] Top shape: 1 1 1 2 (2)
I0419 05:37:24.233784 26406 net.cpp:157] Top shape: 1 1 1 1 (1)
I0419 05:37:24.233788 26406 net.cpp:165] Memory required for data: 4752750060
I0419 05:37:24.233790 26406 layer_factory.hpp:77] Creating layer pool5
I0419 05:37:24.233796 26406 net.cpp:100] Creating Layer pool5
I0419 05:37:24.233800 26406 net.cpp:434] pool5 <- conv5_3_relu5_3_0_split_2
I0419 05:37:24.233805 26406 net.cpp:408] pool5 -> pool5
I0419 05:37:24.233839 26406 net.cpp:150] Setting up pool5
I0419 05:37:24.233845 26406 net.cpp:157] Top shape: 3 512 24 24 (884736)
I0419 05:37:24.233849 26406 net.cpp:165] Memory required for data: 4756289004
I0419 05:37:24.233852 26406 layer_factory.hpp:77] Creating layer conv6_1
I0419 05:37:24.233860 26406 net.cpp:100] Creating Layer conv6_1
I0419 05:37:24.233863 26406 net.cpp:434] conv6_1 <- pool5
I0419 05:37:24.233870 26406 net.cpp:408] conv6_1 -> conv6_1
I0419 05:37:24.295058 26406 net.cpp:150] Setting up conv6_1
I0419 05:37:24.295084 26406 net.cpp:157] Top shape: 3 512 24 24 (884736)
I0419 05:37:24.295089 26406 net.cpp:165] Memory required for data: 4759827948
I0419 05:37:24.295096 26406 layer_factory.hpp:77] Creating layer relu6_1
I0419 05:37:24.295105 26406 net.cpp:100] Creating Layer relu6_1
I0419 05:37:24.295111 26406 net.cpp:434] relu6_1 <- conv6_1
I0419 05:37:24.295116 26406 net.cpp:395] relu6_1 -> conv6_1 (in-place)
I0419 05:37:24.295274 26406 net.cpp:150] Setting up relu6_1
I0419 05:37:24.295287 26406 net.cpp:157] Top shape: 3 512 24 24 (884736)
I0419 05:37:24.295290 26406 net.cpp:165] Memory required for data: 4763366892
I0419 05:37:24.295295 26406 layer_factory.hpp:77] Creating layer conv6_1_relu6_1_0_split
I0419 05:37:24.295300 26406 net.cpp:100] Creating Layer conv6_1_relu6_1_0_split
I0419 05:37:24.295305 26406 net.cpp:434] conv6_1_relu6_1_0_split <- conv6_1
I0419 05:37:24.295310 26406 net.cpp:408] conv6_1_relu6_1_0_split -> conv6_1_relu6_1_0_split_0
I0419 05:37:24.295316 26406 net.cpp:408] conv6_1_relu6_1_0_split -> conv6_1_relu6_1_0_split_1
I0419 05:37:24.295322 26406 net.cpp:408] conv6_1_relu6_1_0_split -> conv6_1_relu6_1_0_split_2
I0419 05:37:24.295370 26406 net.cpp:150] Setting up conv6_1_relu6_1_0_split
I0419 05:37:24.295377 26406 net.cpp:157] Top shape: 3 512 24 24 (884736)
I0419 05:37:24.295382 26406 net.cpp:157] Top shape: 3 512 24 24 (884736)
I0419 05:37:24.295385 26406 net.cpp:157] Top shape: 3 512 24 24 (884736)
I0419 05:37:24.295388 26406 net.cpp:165] Memory required for data: 4773983724
I0419 05:37:24.295392 26406 layer_factory.hpp:77] Creating layer LFCN_3_5x5
I0419 05:37:24.295403 26406 net.cpp:100] Creating Layer LFCN_3_5x5
I0419 05:37:24.295406 26406 net.cpp:434] LFCN_3_5x5 <- conv6_1_relu6_1_0_split_0
I0419 05:37:24.295413 26406 net.cpp:408] LFCN_3_5x5 -> LFCN_3_5x5
I0419 05:37:24.299420 26406 net.cpp:150] Setting up LFCN_3_5x5
I0419 05:37:24.299432 26406 net.cpp:157] Top shape: 3 9 24 24 (15552)
I0419 05:37:24.299434 26406 net.cpp:165] Memory required for data: 4774045932
I0419 05:37:24.299441 26406 layer_factory.hpp:77] Creating layer LFCN_3_5x5_LFCN_3_5x5_0_split
I0419 05:37:24.299446 26406 net.cpp:100] Creating Layer LFCN_3_5x5_LFCN_3_5x5_0_split
I0419 05:37:24.299449 26406 net.cpp:434] LFCN_3_5x5_LFCN_3_5x5_0_split <- LFCN_3_5x5
I0419 05:37:24.299454 26406 net.cpp:408] LFCN_3_5x5_LFCN_3_5x5_0_split -> LFCN_3_5x5_LFCN_3_5x5_0_split_0
I0419 05:37:24.299460 26406 net.cpp:408] LFCN_3_5x5_LFCN_3_5x5_0_split -> LFCN_3_5x5_LFCN_3_5x5_0_split_1
I0419 05:37:24.299464 26406 net.cpp:408] LFCN_3_5x5_LFCN_3_5x5_0_split -> LFCN_3_5x5_LFCN_3_5x5_0_split_2
I0419 05:37:24.299505 26406 net.cpp:150] Setting up LFCN_3_5x5_LFCN_3_5x5_0_split
I0419 05:37:24.299511 26406 net.cpp:157] Top shape: 3 9 24 24 (15552)
I0419 05:37:24.299515 26406 net.cpp:157] Top shape: 3 9 24 24 (15552)
I0419 05:37:24.299518 26406 net.cpp:157] Top shape: 3 9 24 24 (15552)
I0419 05:37:24.299521 26406 net.cpp:165] Memory required for data: 4774232556
I0419 05:37:24.299523 26406 layer_factory.hpp:77] Creating layer detection_loss_3_5x5
I0419 05:37:24.299530 26406 net.cpp:100] Creating Layer detection_loss_3_5x5
I0419 05:37:24.299533 26406 net.cpp:434] detection_loss_3_5x5 <- LFCN_3_5x5_LFCN_3_5x5_0_split_0
I0419 05:37:24.299536 26406 net.cpp:434] detection_loss_3_5x5 <- label_3_5x5_data_5_split_0
I0419 05:37:24.299543 26406 net.cpp:408] detection_loss_3_5x5 -> loss_3_5x5
I0419 05:37:24.299551 26406 layer_factory.hpp:77] Creating layer detection_loss_3_5x5
I0419 05:37:24.299863 26406 net.cpp:150] Setting up detection_loss_3_5x5
I0419 05:37:24.299872 26406 net.cpp:157] Top shape: 1 1 1 2 (2)
I0419 05:37:24.299876 26406 net.cpp:160]     with loss weight 1
I0419 05:37:24.299888 26406 net.cpp:165] Memory required for data: 4774232564
I0419 05:37:24.299892 26406 layer_factory.hpp:77] Creating layer detection_accuracy_3_5x5
I0419 05:37:24.299898 26406 net.cpp:100] Creating Layer detection_accuracy_3_5x5
I0419 05:37:24.299902 26406 net.cpp:434] detection_accuracy_3_5x5 <- LFCN_3_5x5_LFCN_3_5x5_0_split_1
I0419 05:37:24.299908 26406 net.cpp:434] detection_accuracy_3_5x5 <- label_3_5x5_data_5_split_1
I0419 05:37:24.299913 26406 net.cpp:408] detection_accuracy_3_5x5 -> accuracy_3_5x5
I0419 05:37:24.299919 26406 net.cpp:408] detection_accuracy_3_5x5 -> boxiou_3_5x5
I0419 05:37:24.299954 26406 net.cpp:150] Setting up detection_accuracy_3_5x5
I0419 05:37:24.299960 26406 net.cpp:157] Top shape: 1 1 1 2 (2)
I0419 05:37:24.299964 26406 net.cpp:157] Top shape: 1 1 1 1 (1)
I0419 05:37:24.299968 26406 net.cpp:165] Memory required for data: 4774232576
I0419 05:37:24.299971 26406 layer_factory.hpp:77] Creating layer LFCN_3_7x7
I0419 05:37:24.299979 26406 net.cpp:100] Creating Layer LFCN_3_7x7
I0419 05:37:24.299983 26406 net.cpp:434] LFCN_3_7x7 <- conv6_1_relu6_1_0_split_1
I0419 05:37:24.299989 26406 net.cpp:408] LFCN_3_7x7 -> LFCN_3_7x7
I0419 05:37:24.306712 26406 net.cpp:150] Setting up LFCN_3_7x7
I0419 05:37:24.306725 26406 net.cpp:157] Top shape: 3 9 24 24 (15552)
I0419 05:37:24.306728 26406 net.cpp:165] Memory required for data: 4774294784
I0419 05:37:24.306735 26406 layer_factory.hpp:77] Creating layer LFCN_3_7x7_LFCN_3_7x7_0_split
I0419 05:37:24.306738 26406 net.cpp:100] Creating Layer LFCN_3_7x7_LFCN_3_7x7_0_split
I0419 05:37:24.306742 26406 net.cpp:434] LFCN_3_7x7_LFCN_3_7x7_0_split <- LFCN_3_7x7
I0419 05:37:24.306747 26406 net.cpp:408] LFCN_3_7x7_LFCN_3_7x7_0_split -> LFCN_3_7x7_LFCN_3_7x7_0_split_0
I0419 05:37:24.306753 26406 net.cpp:408] LFCN_3_7x7_LFCN_3_7x7_0_split -> LFCN_3_7x7_LFCN_3_7x7_0_split_1
I0419 05:37:24.306758 26406 net.cpp:408] LFCN_3_7x7_LFCN_3_7x7_0_split -> LFCN_3_7x7_LFCN_3_7x7_0_split_2
I0419 05:37:24.306805 26406 net.cpp:150] Setting up LFCN_3_7x7_LFCN_3_7x7_0_split
I0419 05:37:24.306813 26406 net.cpp:157] Top shape: 3 9 24 24 (15552)
I0419 05:37:24.306816 26406 net.cpp:157] Top shape: 3 9 24 24 (15552)
I0419 05:37:24.306820 26406 net.cpp:157] Top shape: 3 9 24 24 (15552)
I0419 05:37:24.306823 26406 net.cpp:165] Memory required for data: 4774481408
I0419 05:37:24.306825 26406 layer_factory.hpp:77] Creating layer detection_loss_3_7x7
I0419 05:37:24.306831 26406 net.cpp:100] Creating Layer detection_loss_3_7x7
I0419 05:37:24.306834 26406 net.cpp:434] detection_loss_3_7x7 <- LFCN_3_7x7_LFCN_3_7x7_0_split_0
I0419 05:37:24.306838 26406 net.cpp:434] detection_loss_3_7x7 <- label_3_7x7_data_6_split_0
I0419 05:37:24.306843 26406 net.cpp:408] detection_loss_3_7x7 -> loss_3_7x7
I0419 05:37:24.306849 26406 layer_factory.hpp:77] Creating layer detection_loss_3_7x7
I0419 05:37:24.307157 26406 net.cpp:150] Setting up detection_loss_3_7x7
I0419 05:37:24.307168 26406 net.cpp:157] Top shape: 1 1 1 2 (2)
I0419 05:37:24.307170 26406 net.cpp:160]     with loss weight 1
I0419 05:37:24.307178 26406 net.cpp:165] Memory required for data: 4774481416
I0419 05:37:24.307180 26406 layer_factory.hpp:77] Creating layer detection_accuracy_3_7x7
I0419 05:37:24.307186 26406 net.cpp:100] Creating Layer detection_accuracy_3_7x7
I0419 05:37:24.307190 26406 net.cpp:434] detection_accuracy_3_7x7 <- LFCN_3_7x7_LFCN_3_7x7_0_split_1
I0419 05:37:24.307194 26406 net.cpp:434] detection_accuracy_3_7x7 <- label_3_7x7_data_6_split_1
I0419 05:37:24.307200 26406 net.cpp:408] detection_accuracy_3_7x7 -> accuracy_3_7x7
I0419 05:37:24.307207 26406 net.cpp:408] detection_accuracy_3_7x7 -> boxiou_3_7x7
I0419 05:37:24.307241 26406 net.cpp:150] Setting up detection_accuracy_3_7x7
I0419 05:37:24.307250 26406 net.cpp:157] Top shape: 1 1 1 2 (2)
I0419 05:37:24.307253 26406 net.cpp:157] Top shape: 1 1 1 1 (1)
I0419 05:37:24.307255 26406 net.cpp:165] Memory required for data: 4774481428
I0419 05:37:24.307260 26406 layer_factory.hpp:77] Creating layer pool6
I0419 05:37:24.307265 26406 net.cpp:100] Creating Layer pool6
I0419 05:37:24.307270 26406 net.cpp:434] pool6 <- conv6_1_relu6_1_0_split_2
I0419 05:37:24.307273 26406 net.cpp:408] pool6 -> pool6
I0419 05:37:24.307308 26406 net.cpp:150] Setting up pool6
I0419 05:37:24.307314 26406 net.cpp:157] Top shape: 3 512 12 12 (221184)
I0419 05:37:24.307318 26406 net.cpp:165] Memory required for data: 4775366164
I0419 05:37:24.307322 26406 layer_factory.hpp:77] Creating layer LFCN_4_5x5
I0419 05:37:24.307329 26406 net.cpp:100] Creating Layer LFCN_4_5x5
I0419 05:37:24.307333 26406 net.cpp:434] LFCN_4_5x5 <- pool6
I0419 05:37:24.307338 26406 net.cpp:408] LFCN_4_5x5 -> LFCN_4_5x5
I0419 05:37:24.310940 26406 net.cpp:150] Setting up LFCN_4_5x5
I0419 05:37:24.310951 26406 net.cpp:157] Top shape: 3 9 12 12 (3888)
I0419 05:37:24.310955 26406 net.cpp:165] Memory required for data: 4775381716
I0419 05:37:24.310959 26406 layer_factory.hpp:77] Creating layer LFCN_4_5x5_LFCN_4_5x5_0_split
I0419 05:37:24.310966 26406 net.cpp:100] Creating Layer LFCN_4_5x5_LFCN_4_5x5_0_split
I0419 05:37:24.310968 26406 net.cpp:434] LFCN_4_5x5_LFCN_4_5x5_0_split <- LFCN_4_5x5
I0419 05:37:24.310973 26406 net.cpp:408] LFCN_4_5x5_LFCN_4_5x5_0_split -> LFCN_4_5x5_LFCN_4_5x5_0_split_0
I0419 05:37:24.310978 26406 net.cpp:408] LFCN_4_5x5_LFCN_4_5x5_0_split -> LFCN_4_5x5_LFCN_4_5x5_0_split_1
I0419 05:37:24.310982 26406 net.cpp:408] LFCN_4_5x5_LFCN_4_5x5_0_split -> LFCN_4_5x5_LFCN_4_5x5_0_split_2
I0419 05:37:24.311022 26406 net.cpp:150] Setting up LFCN_4_5x5_LFCN_4_5x5_0_split
I0419 05:37:24.311028 26406 net.cpp:157] Top shape: 3 9 12 12 (3888)
I0419 05:37:24.311030 26406 net.cpp:157] Top shape: 3 9 12 12 (3888)
I0419 05:37:24.311034 26406 net.cpp:157] Top shape: 3 9 12 12 (3888)
I0419 05:37:24.311036 26406 net.cpp:165] Memory required for data: 4775428372
I0419 05:37:24.311039 26406 layer_factory.hpp:77] Creating layer detection_loss_4_5x5
I0419 05:37:24.311044 26406 net.cpp:100] Creating Layer detection_loss_4_5x5
I0419 05:37:24.311048 26406 net.cpp:434] detection_loss_4_5x5 <- LFCN_4_5x5_LFCN_4_5x5_0_split_0
I0419 05:37:24.311053 26406 net.cpp:434] detection_loss_4_5x5 <- label_4_5x5_data_7_split_0
I0419 05:37:24.311055 26406 net.cpp:408] detection_loss_4_5x5 -> loss_4_5x5
I0419 05:37:24.311062 26406 layer_factory.hpp:77] Creating layer detection_loss_4_5x5
I0419 05:37:24.311350 26406 net.cpp:150] Setting up detection_loss_4_5x5
I0419 05:37:24.311360 26406 net.cpp:157] Top shape: 1 1 1 2 (2)
I0419 05:37:24.311363 26406 net.cpp:160]     with loss weight 1
I0419 05:37:24.311368 26406 net.cpp:165] Memory required for data: 4775428380
I0419 05:37:24.311372 26406 layer_factory.hpp:77] Creating layer detection_accuracy_4_5x5
I0419 05:37:24.311378 26406 net.cpp:100] Creating Layer detection_accuracy_4_5x5
I0419 05:37:24.311381 26406 net.cpp:434] detection_accuracy_4_5x5 <- LFCN_4_5x5_LFCN_4_5x5_0_split_1
I0419 05:37:24.311385 26406 net.cpp:434] detection_accuracy_4_5x5 <- label_4_5x5_data_7_split_1
I0419 05:37:24.311390 26406 net.cpp:408] detection_accuracy_4_5x5 -> accuracy_4_5x5
I0419 05:37:24.311398 26406 net.cpp:408] detection_accuracy_4_5x5 -> boxiou_4_5x5
I0419 05:37:24.311430 26406 net.cpp:150] Setting up detection_accuracy_4_5x5
I0419 05:37:24.311437 26406 net.cpp:157] Top shape: 1 1 1 2 (2)
I0419 05:37:24.311441 26406 net.cpp:157] Top shape: 1 1 1 1 (1)
I0419 05:37:24.311444 26406 net.cpp:165] Memory required for data: 4775428392
I0419 05:37:24.311447 26406 layer_factory.hpp:77] Creating layer proposals
I0419 05:37:24.311460 26406 net.cpp:100] Creating Layer proposals
I0419 05:37:24.311462 26406 net.cpp:434] proposals <- LFCN_1_5x5_LFCN_1_5x5_0_split_2
I0419 05:37:24.311467 26406 net.cpp:434] proposals <- LFCN_1_7x7_LFCN_1_7x7_0_split_2
I0419 05:37:24.311471 26406 net.cpp:434] proposals <- LFCN_2_5x5_LFCN_2_5x5_0_split_2
I0419 05:37:24.311475 26406 net.cpp:434] proposals <- LFCN_2_7x7_LFCN_2_7x7_0_split_2
I0419 05:37:24.311480 26406 net.cpp:434] proposals <- LFCN_3_5x5_LFCN_3_5x5_0_split_2
I0419 05:37:24.311484 26406 net.cpp:434] proposals <- LFCN_3_7x7_LFCN_3_7x7_0_split_2
I0419 05:37:24.311487 26406 net.cpp:434] proposals <- LFCN_4_5x5_LFCN_4_5x5_0_split_2
I0419 05:37:24.311493 26406 net.cpp:408] proposals -> proposals
I0419 05:37:24.311518 26406 net.cpp:150] Setting up proposals
I0419 05:37:24.311524 26406 net.cpp:157] Top shape: 1 5 1 1 (5)
I0419 05:37:24.311527 26406 net.cpp:165] Memory required for data: 4775428412
I0419 05:37:24.311530 26406 layer_factory.hpp:77] Creating layer proposal_info
I0419 05:37:24.311539 26406 net.cpp:100] Creating Layer proposal_info
I0419 05:37:24.311542 26406 net.cpp:434] proposal_info <- proposals
I0419 05:37:24.311547 26406 net.cpp:434] proposal_info <- gt_boxes
I0419 05:37:24.311553 26406 net.cpp:408] proposal_info -> rois
I0419 05:37:24.311563 26406 net.cpp:408] proposal_info -> proposal_labels
I0419 05:37:24.311568 26406 net.cpp:408] proposal_info -> proposal_targets
I0419 05:37:24.311575 26406 net.cpp:408] proposal_info -> box_inside_weights
I0419 05:37:24.311580 26406 net.cpp:408] proposal_info -> box_outside_weights
I0419 05:37:24.311586 26406 net.cpp:408] proposal_info -> match_gt_boxes
I0419 05:37:24.311667 26406 net.cpp:150] Setting up proposal_info
I0419 05:37:24.311674 26406 net.cpp:157] Top shape: 256 5 1 1 (1280)
I0419 05:37:24.311679 26406 net.cpp:157] Top shape: 256 1 1 1 (256)
I0419 05:37:24.311683 26406 net.cpp:157] Top shape: 256 20 1 1 (5120)
I0419 05:37:24.311687 26406 net.cpp:157] Top shape: 256 20 1 1 (5120)
I0419 05:37:24.311691 26406 net.cpp:157] Top shape: 256 20 1 1 (5120)
I0419 05:37:24.311694 26406 net.cpp:157] Top shape: 256 6 1 1 (1536)
I0419 05:37:24.311697 26406 net.cpp:165] Memory required for data: 4775502140
I0419 05:37:24.311700 26406 layer_factory.hpp:77] Creating layer rois_proposal_info_0_split
I0419 05:37:24.311707 26406 net.cpp:100] Creating Layer rois_proposal_info_0_split
I0419 05:37:24.311709 26406 net.cpp:434] rois_proposal_info_0_split <- rois
I0419 05:37:24.311714 26406 net.cpp:408] rois_proposal_info_0_split -> rois_proposal_info_0_split_0
I0419 05:37:24.311719 26406 net.cpp:408] rois_proposal_info_0_split -> rois_proposal_info_0_split_1
I0419 05:37:24.311724 26406 net.cpp:408] rois_proposal_info_0_split -> rois_proposal_info_0_split_2
I0419 05:37:24.311765 26406 net.cpp:150] Setting up rois_proposal_info_0_split
I0419 05:37:24.311771 26406 net.cpp:157] Top shape: 256 5 1 1 (1280)
I0419 05:37:24.311775 26406 net.cpp:157] Top shape: 256 5 1 1 (1280)
I0419 05:37:24.311779 26406 net.cpp:157] Top shape: 256 5 1 1 (1280)
I0419 05:37:24.311782 26406 net.cpp:165] Memory required for data: 4775517500
I0419 05:37:24.311785 26406 layer_factory.hpp:77] Creating layer proposal_labels_proposal_info_1_split
I0419 05:37:24.311795 26406 net.cpp:100] Creating Layer proposal_labels_proposal_info_1_split
I0419 05:37:24.311800 26406 net.cpp:434] proposal_labels_proposal_info_1_split <- proposal_labels
I0419 05:37:24.311805 26406 net.cpp:408] proposal_labels_proposal_info_1_split -> proposal_labels_proposal_info_1_split_0
I0419 05:37:24.311810 26406 net.cpp:408] proposal_labels_proposal_info_1_split -> proposal_labels_proposal_info_1_split_1
I0419 05:37:24.311846 26406 net.cpp:150] Setting up proposal_labels_proposal_info_1_split
I0419 05:37:24.311853 26406 net.cpp:157] Top shape: 256 1 1 1 (256)
I0419 05:37:24.311858 26406 net.cpp:157] Top shape: 256 1 1 1 (256)
I0419 05:37:24.311861 26406 net.cpp:165] Memory required for data: 4775519548
I0419 05:37:24.311864 26406 layer_factory.hpp:77] Creating layer conv4_3_2x
I0419 05:37:24.311872 26406 net.cpp:100] Creating Layer conv4_3_2x
I0419 05:37:24.311877 26406 net.cpp:434] conv4_3_2x <- conv4_3_relu4_3_0_split_2
I0419 05:37:24.311882 26406 net.cpp:408] conv4_3_2x -> conv4_3_2x
I0419 05:37:24.312250 26406 net.cpp:150] Setting up conv4_3_2x
I0419 05:37:24.312258 26406 net.cpp:157] Top shape: 3 512 192 192 (56623104)
I0419 05:37:24.312261 26406 net.cpp:165] Memory required for data: 5002011964
I0419 05:37:24.312266 26406 layer_factory.hpp:77] Creating layer conv4_3_2x_new
I0419 05:37:24.312274 26406 net.cpp:100] Creating Layer conv4_3_2x_new
I0419 05:37:24.312278 26406 net.cpp:434] conv4_3_2x_new <- conv4_3_2x
I0419 05:37:24.312284 26406 net.cpp:434] conv4_3_2x_new <- ch4_pool2_ch4_pool2_0_split_2
I0419 05:37:24.312289 26406 net.cpp:408] conv4_3_2x_new -> conv4_3_2x_new
I0419 05:37:24.312315 26406 net.cpp:150] Setting up conv4_3_2x_new
I0419 05:37:24.312324 26406 net.cpp:157] Top shape: 3 513 192 192 (56733696)
I0419 05:37:24.312333 26406 net.cpp:165] Memory required for data: 5228946748
I0419 05:37:24.312337 26406 layer_factory.hpp:77] Creating layer conv4_3_2x_new_conv4_3_2x_new_0_split
I0419 05:37:24.312342 26406 net.cpp:100] Creating Layer conv4_3_2x_new_conv4_3_2x_new_0_split
I0419 05:37:24.312347 26406 net.cpp:434] conv4_3_2x_new_conv4_3_2x_new_0_split <- conv4_3_2x_new
I0419 05:37:24.312355 26406 net.cpp:408] conv4_3_2x_new_conv4_3_2x_new_0_split -> conv4_3_2x_new_conv4_3_2x_new_0_split_0
I0419 05:37:24.312361 26406 net.cpp:408] conv4_3_2x_new_conv4_3_2x_new_0_split -> conv4_3_2x_new_conv4_3_2x_new_0_split_1
I0419 05:37:24.312400 26406 net.cpp:150] Setting up conv4_3_2x_new_conv4_3_2x_new_0_split
I0419 05:37:24.312408 26406 net.cpp:157] Top shape: 3 513 192 192 (56733696)
I0419 05:37:24.312414 26406 net.cpp:157] Top shape: 3 513 192 192 (56733696)
I0419 05:37:24.312418 26406 net.cpp:165] Memory required for data: 5682816316
I0419 05:37:24.312422 26406 layer_factory.hpp:77] Creating layer roi_pool_org
I0419 05:37:24.312427 26406 net.cpp:100] Creating Layer roi_pool_org
I0419 05:37:24.312433 26406 net.cpp:434] roi_pool_org <- conv4_3_2x_new_conv4_3_2x_new_0_split_0
I0419 05:37:24.312438 26406 net.cpp:434] roi_pool_org <- rois_proposal_info_0_split_0
I0419 05:37:24.312444 26406 net.cpp:408] roi_pool_org -> roi_pool_org
I0419 05:37:24.312455 26406 roi_pooling_layer.cpp:33] Spatial scale: 0.25
I0419 05:37:24.312496 26406 net.cpp:150] Setting up roi_pool_org
I0419 05:37:24.312505 26406 net.cpp:157] Top shape: 256 513 7 7 (6435072)
I0419 05:37:24.312510 26406 net.cpp:165] Memory required for data: 5708556604
I0419 05:37:24.312513 26406 layer_factory.hpp:77] Creating layer roi_pool_ctx
I0419 05:37:24.312518 26406 net.cpp:100] Creating Layer roi_pool_ctx
I0419 05:37:24.312523 26406 net.cpp:434] roi_pool_ctx <- conv4_3_2x_new_conv4_3_2x_new_0_split_1
I0419 05:37:24.312528 26406 net.cpp:434] roi_pool_ctx <- rois_proposal_info_0_split_1
I0419 05:37:24.312533 26406 net.cpp:408] roi_pool_ctx -> roi_pool_ctx
I0419 05:37:24.312541 26406 roi_pooling_layer.cpp:33] Spatial scale: 0.25
I0419 05:37:24.312582 26406 net.cpp:150] Setting up roi_pool_ctx
I0419 05:37:24.312589 26406 net.cpp:157] Top shape: 256 513 7 7 (6435072)
I0419 05:37:24.312593 26406 net.cpp:165] Memory required for data: 5734296892
I0419 05:37:24.312597 26406 layer_factory.hpp:77] Creating layer roi_pool
I0419 05:37:24.312602 26406 net.cpp:100] Creating Layer roi_pool
I0419 05:37:24.312605 26406 net.cpp:434] roi_pool <- roi_pool_org
I0419 05:37:24.312609 26406 net.cpp:434] roi_pool <- roi_pool_ctx
I0419 05:37:24.312614 26406 net.cpp:408] roi_pool -> roi_pool
I0419 05:37:24.312633 26406 net.cpp:150] Setting up roi_pool
I0419 05:37:24.312638 26406 net.cpp:157] Top shape: 256 1026 7 7 (12870144)
I0419 05:37:24.312641 26406 net.cpp:165] Memory required for data: 5785777468
I0419 05:37:24.312644 26406 layer_factory.hpp:77] Creating layer roi_c1
I0419 05:37:24.312651 26406 net.cpp:100] Creating Layer roi_c1
I0419 05:37:24.312655 26406 net.cpp:434] roi_c1 <- roi_pool
I0419 05:37:24.312660 26406 net.cpp:408] roi_c1 -> roi_c1
I0419 05:37:24.437114 26406 net.cpp:150] Setting up roi_c1
I0419 05:37:24.437140 26406 net.cpp:157] Top shape: 256 512 5 5 (3276800)
I0419 05:37:24.437145 26406 net.cpp:165] Memory required for data: 5798884668
I0419 05:37:24.437155 26406 layer_factory.hpp:77] Creating layer roi_c1_relu
I0419 05:37:24.437165 26406 net.cpp:100] Creating Layer roi_c1_relu
I0419 05:37:24.437171 26406 net.cpp:434] roi_c1_relu <- roi_c1
I0419 05:37:24.437180 26406 net.cpp:395] roi_c1_relu -> roi_c1 (in-place)
I0419 05:37:24.437670 26406 net.cpp:150] Setting up roi_c1_relu
I0419 05:37:24.437685 26406 net.cpp:157] Top shape: 256 512 5 5 (3276800)
I0419 05:37:24.437690 26406 net.cpp:165] Memory required for data: 5811991868
I0419 05:37:24.437695 26406 layer_factory.hpp:77] Creating layer fc6
I0419 05:37:24.437706 26406 net.cpp:100] Creating Layer fc6
I0419 05:37:24.437712 26406 net.cpp:434] fc6 <- roi_c1
I0419 05:37:24.437721 26406 net.cpp:408] fc6 -> fc6
I0419 05:37:25.664918 26406 net.cpp:150] Setting up fc6
I0419 05:37:25.664950 26406 net.cpp:157] Top shape: 256 4096 (1048576)
I0419 05:37:25.664954 26406 net.cpp:165] Memory required for data: 5816186172
I0419 05:37:25.664963 26406 layer_factory.hpp:77] Creating layer relu6
I0419 05:37:25.664973 26406 net.cpp:100] Creating Layer relu6
I0419 05:37:25.664979 26406 net.cpp:434] relu6 <- fc6
I0419 05:37:25.664985 26406 net.cpp:395] relu6 -> fc6 (in-place)
I0419 05:37:25.665210 26406 net.cpp:150] Setting up relu6
I0419 05:37:25.665220 26406 net.cpp:157] Top shape: 256 4096 (1048576)
I0419 05:37:25.665225 26406 net.cpp:165] Memory required for data: 5820380476
I0419 05:37:25.665227 26406 layer_factory.hpp:77] Creating layer drop6
I0419 05:37:25.665235 26406 net.cpp:100] Creating Layer drop6
I0419 05:37:25.665240 26406 net.cpp:434] drop6 <- fc6
I0419 05:37:25.665243 26406 net.cpp:395] drop6 -> fc6 (in-place)
I0419 05:37:25.665267 26406 net.cpp:150] Setting up drop6
I0419 05:37:25.665273 26406 net.cpp:157] Top shape: 256 4096 (1048576)
I0419 05:37:25.665277 26406 net.cpp:165] Memory required for data: 5824574780
I0419 05:37:25.665280 26406 layer_factory.hpp:77] Creating layer fc6_drop6_0_split
I0419 05:37:25.665288 26406 net.cpp:100] Creating Layer fc6_drop6_0_split
I0419 05:37:25.665292 26406 net.cpp:434] fc6_drop6_0_split <- fc6
I0419 05:37:25.665297 26406 net.cpp:408] fc6_drop6_0_split -> fc6_drop6_0_split_0
I0419 05:37:25.665302 26406 net.cpp:408] fc6_drop6_0_split -> fc6_drop6_0_split_1
I0419 05:37:25.665338 26406 net.cpp:150] Setting up fc6_drop6_0_split
I0419 05:37:25.665344 26406 net.cpp:157] Top shape: 256 4096 (1048576)
I0419 05:37:25.665349 26406 net.cpp:157] Top shape: 256 4096 (1048576)
I0419 05:37:25.665352 26406 net.cpp:165] Memory required for data: 5832963388
I0419 05:37:25.665355 26406 layer_factory.hpp:77] Creating layer cls_pred
I0419 05:37:25.665364 26406 net.cpp:100] Creating Layer cls_pred
I0419 05:37:25.665366 26406 net.cpp:434] cls_pred <- fc6_drop6_0_split_0
I0419 05:37:25.665372 26406 net.cpp:408] cls_pred -> cls_pred
I0419 05:37:25.665987 26406 net.cpp:150] Setting up cls_pred
I0419 05:37:25.665995 26406 net.cpp:157] Top shape: 256 5 (1280)
I0419 05:37:25.665999 26406 net.cpp:165] Memory required for data: 5832968508
I0419 05:37:25.666005 26406 layer_factory.hpp:77] Creating layer cls_pred_cls_pred_0_split
I0419 05:37:25.666012 26406 net.cpp:100] Creating Layer cls_pred_cls_pred_0_split
I0419 05:37:25.666015 26406 net.cpp:434] cls_pred_cls_pred_0_split <- cls_pred
I0419 05:37:25.666021 26406 net.cpp:408] cls_pred_cls_pred_0_split -> cls_pred_cls_pred_0_split_0
I0419 05:37:25.666028 26406 net.cpp:408] cls_pred_cls_pred_0_split -> cls_pred_cls_pred_0_split_1
I0419 05:37:25.666055 26406 net.cpp:150] Setting up cls_pred_cls_pred_0_split
I0419 05:37:25.666061 26406 net.cpp:157] Top shape: 256 5 (1280)
I0419 05:37:25.666065 26406 net.cpp:157] Top shape: 256 5 (1280)
I0419 05:37:25.666069 26406 net.cpp:165] Memory required for data: 5832978748
I0419 05:37:25.666071 26406 layer_factory.hpp:77] Creating layer bbox_pred
I0419 05:37:25.666077 26406 net.cpp:100] Creating Layer bbox_pred
I0419 05:37:25.666081 26406 net.cpp:434] bbox_pred <- fc6_drop6_0_split_1
I0419 05:37:25.666087 26406 net.cpp:408] bbox_pred -> bbox_pred
I0419 05:37:25.668329 26406 net.cpp:150] Setting up bbox_pred
I0419 05:37:25.668345 26406 net.cpp:157] Top shape: 256 20 (5120)
I0419 05:37:25.668350 26406 net.cpp:165] Memory required for data: 5832999228
I0419 05:37:25.668359 26406 layer_factory.hpp:77] Creating layer bbox_pred_bbox_pred_0_split
I0419 05:37:25.668364 26406 net.cpp:100] Creating Layer bbox_pred_bbox_pred_0_split
I0419 05:37:25.668367 26406 net.cpp:434] bbox_pred_bbox_pred_0_split <- bbox_pred
I0419 05:37:25.668372 26406 net.cpp:408] bbox_pred_bbox_pred_0_split -> bbox_pred_bbox_pred_0_split_0
I0419 05:37:25.668380 26406 net.cpp:408] bbox_pred_bbox_pred_0_split -> bbox_pred_bbox_pred_0_split_1
I0419 05:37:25.668416 26406 net.cpp:150] Setting up bbox_pred_bbox_pred_0_split
I0419 05:37:25.668422 26406 net.cpp:157] Top shape: 256 20 (5120)
I0419 05:37:25.668427 26406 net.cpp:157] Top shape: 256 20 (5120)
I0419 05:37:25.668431 26406 net.cpp:165] Memory required for data: 5833040188
I0419 05:37:25.668435 26406 layer_factory.hpp:77] Creating layer loss_cls
I0419 05:37:25.668442 26406 net.cpp:100] Creating Layer loss_cls
I0419 05:37:25.668445 26406 net.cpp:434] loss_cls <- cls_pred_cls_pred_0_split_0
I0419 05:37:25.668452 26406 net.cpp:434] loss_cls <- proposal_labels_proposal_info_1_split_0
…
I0419 05:37:25.681486 26406 image_gt_data_layer.cpp:235] output label size 2 : 2,6,48,48
I0419 05:37:25.681535 26406 image_gt_data_layer.cpp:235] output label size 3 : 2,6,48,48
I0419 05:37:25.681581 26406 image_gt_data_layer.cpp:235] output label size 4 : 2,6,24,24
I0419 05:37:25.681627 26406 image_gt_data_layer.cpp:235] output label size 5 : 2,6,24,24
I0419 05:37:25.681674 26406 image_gt_data_layer.cpp:235] output label size 6 : 2,6,12,12
I0419 05:37:25.681721 26406 image_gt_data_layer.cpp:250] output gt boxes size: 1,7,1,1
I0419 05:37:25.715073 26406 net.cpp:150] Setting up data
I0419 05:37:25.715101 26406 net.cpp:157] Top shape: 2 4 768 768 (4718592)
I0419 05:37:25.715106 26406 net.cpp:157] Top shape: 2 6 96 96 (110592)
I0419 05:37:25.715111 26406 net.cpp:157] Top shape: 2 6 96 96 (110592)
I0419 05:37:25.715114 26406 net.cpp:157] Top shape: 2 6 48 48 (27648)
I0419 05:37:25.715118 26406 net.cpp:157] Top shape: 2 6 48 48 (27648)
I0419 05:37:25.715121 26406 net.cpp:157] Top shape: 2 6 24 24 (6912)
I0419 05:37:25.715126 26406 net.cpp:157] Top shape: 2 6 24 24 (6912)
I0419 05:37:25.715129 26406 net.cpp:157] Top shape: 2 6 12 12 (1728)
I0419 05:37:25.715132 26406 net.cpp:157] Top shape: 1 7 1 1 (7)
I0419 05:37:25.715135 26406 net.cpp:165] Memory required for data: 20042524
I0419 05:37:25.715142 26406 layer_factory.hpp:77] Creating layer label_1_5x5_data_1_split
I0419 05:37:25.715153 26406 net.cpp:100] Creating Layer label_1_5x5_data_1_split
I0419 05:37:25.715157 26406 net.cpp:434] label_1_5x5_data_1_split <- label_1_5x5
I0419 05:37:25.715164 26406 net.cpp:408] label_1_5x5_data_1_split -> label_1_5x5_data_1_split_0
I0419 05:37:25.715174 26406 net.cpp:408] label_1_5x5_data_1_split -> label_1_5x5_data_1_split_1
I0419 05:37:25.715324 26406 net.cpp:150] Setting up label_1_5x5_data_1_split
I0419 05:37:25.715332 26406 net.cpp:157] Top shape: 2 6 96 96 (110592)
I0419 05:37:25.715337 26406 net.cpp:157] Top shape: 2 6 96 96 (110592)
I0419 05:37:25.715339 26406 net.cpp:165] Memory required for data: 20927260
I0419 05:37:25.715343 26406 layer_factory.hpp:77] Creating layer label_1_7x7_data_2_split
I0419 05:37:25.715349 26406 net.cpp:100] Creating Layer label_1_7x7_data_2_split
I0419 05:37:25.715353 26406 net.cpp:434] label_1_7x7_data_2_split <- label_1_7x7
I0419 05:37:25.715358 26406 net.cpp:408] label_1_7x7_data_2_split -> label_1_7x7_data_2_split_0
I0419 05:37:25.715363 26406 net.cpp:408] label_1_7x7_data_2_split -> label_1_7x7_data_2_split_1
I0419 05:37:25.715487 26406 net.cpp:150] Setting up label_1_7x7_data_2_split
I0419 05:37:25.715492 26406 net.cpp:157] Top shape: 2 6 96 96 (110592)
I0419 05:37:25.715497 26406 net.cpp:157] Top shape: 2 6 96 96 (110592)
I0419 05:37:25.715500 26406 net.cpp:165] Memory required for data: 21811996
I0419 05:37:25.715504 26406 layer_factory.hpp:77] Creating layer label_2_5x5_data_3_split
I0419 05:37:25.715508 26406 net.cpp:100] Creating Layer label_2_5x5_data_3_split
I0419 05:37:25.715512 26406 net.cpp:434] label_2_5x5_data_3_split <- label_2_5x5
I0419 05:37:25.715517 26406 net.cpp:408] label_2_5x5_data_3_split -> label_2_5x5_data_3_split_0
I0419 05:37:25.715523 26406 net.cpp:408] label_2_5x5_data_3_split -> label_2_5x5_data_3_split_1
I0419 05:37:25.715553 26406 net.cpp:150] Setting up label_2_5x5_data_3_split
I0419 05:37:25.715559 26406 net.cpp:157] Top shape: 2 6 48 48 (27648)
I0419 05:37:25.715562 26406 net.cpp:157] Top shape: 2 6 48 48 (27648)
I0419 05:37:25.715565 26406 net.cpp:165] Memory required for data: 22033180
I0419 05:37:25.715569 26406 layer_factory.hpp:77] Creating layer label_2_7x7_data_4_split
I0419 05:37:25.715574 26406 net.cpp:100] Creating Layer label_2_7x7_data_4_split
I0419 05:37:25.715577 26406 net.cpp:434] label_2_7x7_data_4_split <- label_2_7x7
I0419 05:37:25.715582 26406 net.cpp:408] label_2_7x7_data_4_split -> label_2_7x7_data_4_split_0
I0419 05:37:25.715589 26406 net.cpp:408] label_2_7x7_data_4_split -> label_2_7x7_data_4_split_1
I0419 05:37:25.715618 26406 net.cpp:150] Setting up label_2_7x7_data_4_split
I0419 05:37:25.715623 26406 net.cpp:157] Top shape: 2 6 48 48 (27648)
I0419 05:37:25.715628 26406 net.cpp:157] Top shape: 2 6 48 48 (27648)
I0419 05:37:25.715631 26406 net.cpp:165] Memory required for data: 22254364
I0419 05:37:25.715634 26406 layer_factory.hpp:77] Creating layer label_3_5x5_data_5_split
I0419 05:37:25.715639 26406 net.cpp:100] Creating Layer label_3_5x5_data_5_split
I0419 05:37:25.715642 26406 net.cpp:434] label_3_5x5_data_5_split <- label_3_5x5
I0419 05:37:25.715647 26406 net.cpp:408] label_3_5x5_data_5_split -> label_3_5x5_data_5_split_0
I0419 05:37:25.715652 26406 net.cpp:408] label_3_5x5_data_5_split -> label_3_5x5_data_5_split_1
I0419 05:37:25.715682 26406 net.cpp:150] Setting up label_3_5x5_data_5_split
I0419 05:37:25.715685 26406 net.cpp:157] Top shape: 2 6 24 24 (6912)
I0419 05:37:25.715689 26406 net.cpp:157] Top shape: 2 6 24 24 (6912)
I0419 05:37:25.715692 26406 net.cpp:165] Memory required for data: 22309660
I0419 05:37:25.715695 26406 layer_factory.hpp:77] Creating layer label_3_7x7_data_6_split
I0419 05:37:25.715699 26406 net.cpp:100] Creating Layer label_3_7x7_data_6_split
I0419 05:37:25.715703 26406 net.cpp:434] label_3_7x7_data_6_split <- label_3_7x7
I0419 05:37:25.715708 26406 net.cpp:408] label_3_7x7_data_6_split -> label_3_7x7_data_6_split_0
I0419 05:37:25.715713 26406 net.cpp:408] label_3_7x7_data_6_split -> label_3_7x7_data_6_split_1
I0419 05:37:25.715744 26406 net.cpp:150] Setting up label_3_7x7_data_6_split
I0419 05:37:25.715747 26406 net.cpp:157] Top shape: 2 6 24 24 (6912)
I0419 05:37:25.715751 26406 net.cpp:157] Top shape: 2 6 24 24 (6912)
I0419 05:37:25.715754 26406 net.cpp:165] Memory required for data: 22364956
I0419 05:37:25.715757 26406 layer_factory.hpp:77] Creating layer label_4_5x5_data_7_split
I0419 05:37:25.715762 26406 net.cpp:100] Creating Layer label_4_5x5_data_7_split
I0419 05:37:25.715765 26406 net.cpp:434] label_4_5x5_data_7_split <- label_4_5x5
I0419 05:37:25.715770 26406 net.cpp:408] label_4_5x5_data_7_split -> label_4_5x5_data_7_split_0
I0419 05:37:25.715775 26406 net.cpp:408] label_4_5x5_data_7_split -> label_4_5x5_data_7_split_1
I0419 05:37:25.715804 26406 net.cpp:150] Setting up label_4_5x5_data_7_split
I0419 05:37:25.715808 26406 net.cpp:157] Top shape: 2 6 12 12 (1728)
I0419 05:37:25.715812 26406 net.cpp:157] Top shape: 2 6 12 12 (1728)
I0419 05:37:25.715816 26406 net.cpp:165] Memory required for data: 22378780
I0419 05:37:25.715818 26406 layer_factory.hpp:77] Creating layer slice
I0419 05:37:25.715826 26406 net.cpp:100] Creating Layer slice
I0419 05:37:25.715829 26406 net.cpp:434] slice <- data
I0419 05:37:25.715834 26406 net.cpp:408] slice -> data123
I0419 05:37:25.715839 26406 net.cpp:408] slice -> ch4
I0419 05:37:25.715872 26406 net.cpp:150] Setting up slice
I0419 05:37:25.715876 26406 net.cpp:157] Top shape: 2 3 768 768 (3538944)
I0419 05:37:25.715880 26406 net.cpp:157] Top shape: 2 1 768 768 (1179648)
I0419 05:37:25.715883 26406 net.cpp:165] Memory required for data: 41253148
I0419 05:37:25.715886 26406 layer_factory.hpp:77] Creating layer conv1_1
I0419 05:37:25.715895 26406 net.cpp:100] Creating Layer conv1_1
I0419 05:37:25.715899 26406 net.cpp:434] conv1_1 <- data123
I0419 05:37:25.715904 26406 net.cpp:408] conv1_1 -> conv1_1
I0419 05:37:25.721264 26406 net.cpp:150] Setting up conv1_1
I0419 05:37:25.721282 26406 net.cpp:157] Top shape: 2 64 768 768 (75497472)
I0419 05:37:25.721288 26406 net.cpp:165] Memory required for data: 343243036
I0419 05:37:25.721302 26406 layer_factory.hpp:77] Creating layer relu1_1
I0419 05:37:25.721313 26406 net.cpp:100] Creating Layer relu1_1
I0419 05:37:25.721319 26406 net.cpp:434] relu1_1 <- conv1_1
I0419 05:37:25.721325 26406 net.cpp:395] relu1_1 -> conv1_1 (in-place)
I0419 05:37:25.721578 26406 net.cpp:150] Setting up relu1_1
I0419 05:37:25.721587 26406 net.cpp:157] Top shape: 2 64 768 768 (75497472)
I0419 05:37:25.721592 26406 net.cpp:165] Memory required for data: 645232924
I0419 05:37:25.721597 26406 layer_factory.hpp:77] Creating layer conv1_2
I0419 05:37:25.721609 26406 net.cpp:100] Creating Layer conv1_2
I0419 05:37:25.721614 26406 net.cpp:434] conv1_2 <- conv1_1
I0419 05:37:25.721622 26406 net.cpp:408] conv1_2 -> conv1_2
I0419 05:37:25.724444 26406 net.cpp:150] Setting up conv1_2
I0419 05:37:25.724459 26406 net.cpp:157] Top shape: 2 64 768 768 (75497472)
I0419 05:37:25.724464 26406 net.cpp:165] Memory required for data: 947222812
I0419 05:37:25.724474 26406 layer_factory.hpp:77] Creating layer relu1_2
I0419 05:37:25.724481 26406 net.cpp:100] Creating Layer relu1_2
I0419 05:37:25.724486 26406 net.cpp:434] relu1_2 <- conv1_2
I0419 05:37:25.724514 26406 net.cpp:395] relu1_2 -> conv1_2 (in-place)
I0419 05:37:25.724726 26406 net.cpp:150] Setting up relu1_2
I0419 05:37:25.724735 26406 net.cpp:157] Top shape: 2 64 768 768 (75497472)
I0419 05:37:25.724740 26406 net.cpp:165] Memory required for data: 1249212700
I0419 05:37:25.724743 26406 layer_factory.hpp:77] Creating layer pool1
I0419 05:37:25.724750 26406 net.cpp:100] Creating Layer pool1
I0419 05:37:25.724756 26406 net.cpp:434] pool1 <- conv1_2
I0419 05:37:25.724763 26406 net.cpp:408] pool1 -> pool1
I0419 05:37:25.724817 26406 net.cpp:150] Setting up pool1
I0419 05:37:25.724822 26406 net.cpp:157] Top shape: 2 64 384 384 (18874368)
I0419 05:37:25.724825 26406 net.cpp:165] Memory required for data: 1324710172
I0419 05:37:25.724829 26406 layer_factory.hpp:77] Creating layer ch4_pool1
I0419 05:37:25.724835 26406 net.cpp:100] Creating Layer ch4_pool1
I0419 05:37:25.724839 26406 net.cpp:434] ch4_pool1 <- ch4
I0419 05:37:25.724845 26406 net.cpp:408] ch4_pool1 -> ch4_pool1
I0419 05:37:25.724889 26406 net.cpp:150] Setting up ch4_pool1
I0419 05:37:25.724895 26406 net.cpp:157] Top shape: 2 1 384 384 (294912)
I0419 05:37:25.724898 26406 net.cpp:165] Memory required for data: 1325889820
I0419 05:37:25.724902 26406 layer_factory.hpp:77] Creating layer ch4_pool1_ch4_pool1_0_split
I0419 05:37:25.724910 26406 net.cpp:100] Creating Layer ch4_pool1_ch4_pool1_0_split
I0419 05:37:25.724913 26406 net.cpp:434] ch4_pool1_ch4_pool1_0_split <- ch4_pool1
I0419 05:37:25.724918 26406 net.cpp:408] ch4_pool1_ch4_pool1_0_split -> ch4_pool1_ch4_pool1_0_split_0
I0419 05:37:25.724925 26406 net.cpp:408] ch4_pool1_ch4_pool1_0_split -> ch4_pool1_ch4_pool1_0_split_1
I0419 05:37:25.724964 26406 net.cpp:150] Setting up ch4_pool1_ch4_pool1_0_split
I0419 05:37:25.724970 26406 net.cpp:157] Top shape: 2 1 384 384 (294912)
I0419 05:37:25.724975 26406 net.cpp:157] Top shape: 2 1 384 384 (294912)
I0419 05:37:25.724978 26406 net.cpp:165] Memory required for data: 1328249116
I0419 05:37:25.724982 26406 layer_factory.hpp:77] Creating layer pool1_concat
I0419 05:37:25.724990 26406 net.cpp:100] Creating Layer pool1_concat
I0419 05:37:25.724994 26406 net.cpp:434] pool1_concat <- pool1
I0419 05:37:25.724999 26406 net.cpp:434] pool1_concat <- ch4_pool1_ch4_pool1_0_split_0
I0419 05:37:25.725004 26406 net.cpp:408] pool1_concat -> pool1_new
I0419 05:37:25.725030 26406 net.cpp:150] Setting up pool1_concat
I0419 05:37:25.725035 26406 net.cpp:157] Top shape: 2 65 384 384 (19169280)
I0419 05:37:25.725039 26406 net.cpp:165] Memory required for data: 1404926236
I0419 05:37:25.725044 26406 layer_factory.hpp:77] Creating layer conv2_1_new
I0419 05:37:25.725052 26406 net.cpp:100] Creating Layer conv2_1_new
I0419 05:37:25.725056 26406 net.cpp:434] conv2_1_new <- pool1_new
I0419 05:37:25.725061 26406 net.cpp:408] conv2_1_new -> conv2_1
I0419 05:37:25.727165 26406 net.cpp:150] Setting up conv2_1_new
I0419 05:37:25.727178 26406 net.cpp:157] Top shape: 2 128 384 384 (37748736)
I0419 05:37:25.727182 26406 net.cpp:165] Memory required for data: 1555921180
I0419 05:37:25.727192 26406 layer_factory.hpp:77] Creating layer relu2_1
I0419 05:37:25.727200 26406 net.cpp:100] Creating Layer relu2_1
I0419 05:37:25.727205 26406 net.cpp:434] relu2_1 <- conv2_1
I0419 05:37:25.727211 26406 net.cpp:395] relu2_1 -> conv2_1 (in-place)
I0419 05:37:25.727766 26406 net.cpp:150] Setting up relu2_1
I0419 05:37:25.727777 26406 net.cpp:157] Top shape: 2 128 384 384 (37748736)
I0419 05:37:25.727782 26406 net.cpp:165] Memory required for data: 1706916124
I0419 05:37:25.727787 26406 layer_factory.hpp:77] Creating layer conv2_2
I0419 05:37:25.727795 26406 net.cpp:100] Creating Layer conv2_2
I0419 05:37:25.727800 26406 net.cpp:434] conv2_2 <- conv2_1
I0419 05:37:25.727807 26406 net.cpp:408] conv2_2 -> conv2_2
I0419 05:37:25.730487 26406 net.cpp:150] Setting up conv2_2
I0419 05:37:25.730504 26406 net.cpp:157] Top shape: 2 128 384 384 (37748736)
I0419 05:37:25.730507 26406 net.cpp:165] Memory required for data: 1857911068
I0419 05:37:25.730515 26406 layer_factory.hpp:77] Creating layer relu2_2
I0419 05:37:25.730525 26406 net.cpp:100] Creating Layer relu2_2
I0419 05:37:25.730530 26406 net.cpp:434] relu2_2 <- conv2_2
I0419 05:37:25.730535 26406 net.cpp:395] relu2_2 -> conv2_2 (in-place)
I0419 05:37:25.730732 26406 net.cpp:150] Setting up relu2_2
I0419 05:37:25.730742 26406 net.cpp:157] Top shape: 2 128 384 384 (37748736)
I0419 05:37:25.730746 26406 net.cpp:165] Memory required for data: 2008906012
I0419 05:37:25.730749 26406 layer_factory.hpp:77] Creating layer pool2
I0419 05:37:25.730756 26406 net.cpp:100] Creating Layer pool2
I0419 05:37:25.730760 26406 net.cpp:434] pool2 <- conv2_2
I0419 05:37:25.730767 26406 net.cpp:408] pool2 -> pool2
I0419 05:37:25.730816 26406 net.cpp:150] Setting up pool2
I0419 05:37:25.730823 26406 net.cpp:157] Top shape: 2 128 192 192 (9437184)
I0419 05:37:25.730825 26406 net.cpp:165] Memory required for data: 2046654748
I0419 05:37:25.730829 26406 layer_factory.hpp:77] Creating layer ch4_pool2
I0419 05:37:25.730836 26406 net.cpp:100] Creating Layer ch4_pool2
I0419 05:37:25.730840 26406 net.cpp:434] ch4_pool2 <- ch4_pool1_ch4_pool1_0_split_1
I0419 05:37:25.730846 26406 net.cpp:408] ch4_pool2 -> ch4_pool2
I0419 05:37:25.730886 26406 net.cpp:150] Setting up ch4_pool2
I0419 05:37:25.730892 26406 net.cpp:157] Top shape: 2 1 192 192 (73728)
I0419 05:37:25.730895 26406 net.cpp:165] Memory required for data: 2046949660
I0419 05:37:25.730900 26406 layer_factory.hpp:77] Creating layer ch4_pool2_ch4_pool2_0_split
I0419 05:37:25.730906 26406 net.cpp:100] Creating Layer ch4_pool2_ch4_pool2_0_split
I0419 05:37:25.730909 26406 net.cpp:434] ch4_pool2_ch4_pool2_0_split <- ch4_pool2
I0419 05:37:25.730916 26406 net.cpp:408] ch4_pool2_ch4_pool2_0_split -> ch4_pool2_ch4_pool2_0_split_0
I0419 05:37:25.730922 26406 net.cpp:408] ch4_pool2_ch4_pool2_0_split -> ch4_pool2_ch4_pool2_0_split_1
I0419 05:37:25.730928 26406 net.cpp:408] ch4_pool2_ch4_pool2_0_split -> ch4_pool2_ch4_pool2_0_split_2
I0419 05:37:25.730985 26406 net.cpp:150] Setting up ch4_pool2_ch4_pool2_0_split
I0419 05:37:25.730991 26406 net.cpp:157] Top shape: 2 1 192 192 (73728)
I0419 05:37:25.730996 26406 net.cpp:157] Top shape: 2 1 192 192 (73728)
I0419 05:37:25.731000 26406 net.cpp:157] Top shape: 2 1 192 192 (73728)
I0419 05:37:25.731004 26406 net.cpp:165] Memory required for data: 2047834396
I0419 05:37:25.731007 26406 layer_factory.hpp:77] Creating layer pool2_concat
I0419 05:37:25.731015 26406 net.cpp:100] Creating Layer pool2_concat
I0419 05:37:25.731019 26406 net.cpp:434] pool2_concat <- pool2
I0419 05:37:25.731024 26406 net.cpp:434] pool2_concat <- ch4_pool2_ch4_pool2_0_split_0
I0419 05:37:25.731030 26406 net.cpp:408] pool2_concat -> pool2_new
I0419 05:37:25.731055 26406 net.cpp:150] Setting up pool2_concat
I0419 05:37:25.731060 26406 net.cpp:157] Top shape: 2 129 192 192 (9510912)
I0419 05:37:25.731063 26406 net.cpp:165] Memory required for data: 2085878044
I0419 05:37:25.731066 26406 layer_factory.hpp:77] Creating layer conv3_1_new
I0419 05:37:25.731075 26406 net.cpp:100] Creating Layer conv3_1_new
I0419 05:37:25.731078 26406 net.cpp:434] conv3_1_new <- pool2_new
I0419 05:37:25.731084 26406 net.cpp:408] conv3_1_new -> conv3_1
I0419 05:37:25.739508 26406 net.cpp:150] Setting up conv3_1_new
I0419 05:37:25.739562 26406 net.cpp:157] Top shape: 2 256 192 192 (18874368)
I0419 05:37:25.739575 26406 net.cpp:165] Memory required for data: 2161375516
I0419 05:37:25.739610 26406 layer_factory.hpp:77] Creating layer relu3_1
I0419 05:37:25.739639 26406 net.cpp:100] Creating Layer relu3_1
I0419 05:37:25.739657 26406 net.cpp:434] relu3_1 <- conv3_1
I0419 05:37:25.739679 26406 net.cpp:395] relu3_1 -> conv3_1 (in-place)
I0419 05:37:25.740108 26406 net.cpp:150] Setting up relu3_1
I0419 05:37:25.740139 26406 net.cpp:157] Top shape: 2 256 192 192 (18874368)
I0419 05:37:25.740150 26406 net.cpp:165] Memory required for data: 2236872988
I0419 05:37:25.740167 26406 layer_factory.hpp:77] Creating layer conv3_2
I0419 05:37:25.740195 26406 net.cpp:100] Creating Layer conv3_2
I0419 05:37:25.740211 26406 net.cpp:434] conv3_2 <- conv3_1
I0419 05:37:25.740228 26406 net.cpp:408] conv3_2 -> conv3_2
I0419 05:37:25.745906 26406 net.cpp:150] Setting up conv3_2
I0419 05:37:25.745956 26406 net.cpp:157] Top shape: 2 256 192 192 (18874368)
I0419 05:37:25.745970 26406 net.cpp:165] Memory required for data: 2312370460
I0419 05:37:25.745995 26406 layer_factory.hpp:77] Creating layer relu3_2
I0419 05:37:25.746021 26406 net.cpp:100] Creating Layer relu3_2
I0419 05:37:25.746042 26406 net.cpp:434] relu3_2 <- conv3_2
I0419 05:37:25.746062 26406 net.cpp:395] relu3_2 -> conv3_2 (in-place)
I0419 05:37:25.746454 26406 net.cpp:150] Setting up relu3_2
I0419 05:37:25.746481 26406 net.cpp:157] Top shape: 2 256 192 192 (18874368)
I0419 05:37:25.746493 26406 net.cpp:165] Memory required for data: 2387867932
I0419 05:37:25.746505 26406 layer_factory.hpp:77] Creating layer conv3_3
I0419 05:37:25.746526 26406 net.cpp:100] Creating Layer conv3_3
I0419 05:37:25.746541 26406 net.cpp:434] conv3_3 <- conv3_2
I0419 05:37:25.746558 26406 net.cpp:408] conv3_3 -> conv3_3
I0419 05:37:25.750541 26406 net.cpp:150] Setting up conv3_3
I0419 05:37:25.750560 26406 net.cpp:157] Top shape: 2 256 192 192 (18874368)
I0419 05:37:25.750566 26406 net.cpp:165] Memory required for data: 2463365404
I0419 05:37:25.750576 26406 layer_factory.hpp:77] Creating layer relu3_3
I0419 05:37:25.750588 26406 net.cpp:100] Creating Layer relu3_3
I0419 05:37:25.750596 26406 net.cpp:434] relu3_3 <- conv3_3
I0419 05:37:25.750603 26406 net.cpp:395] relu3_3 -> conv3_3 (in-place)
I0419 05:37:25.750780 26406 net.cpp:150] Setting up relu3_3
I0419 05:37:25.750792 26406 net.cpp:157] Top shape: 2 256 192 192 (18874368)
I0419 05:37:25.750797 26406 net.cpp:165] Memory required for data: 2538862876
I0419 05:37:25.750802 26406 layer_factory.hpp:77] Creating layer pool3
I0419 05:37:25.750811 26406 net.cpp:100] Creating Layer pool3
I0419 05:37:25.750818 26406 net.cpp:434] pool3 <- conv3_3
I0419 05:37:25.750826 26406 net.cpp:408] pool3 -> pool3
I0419 05:37:25.750877 26406 net.cpp:150] Setting up pool3
I0419 05:37:25.750886 26406 net.cpp:157] Top shape: 2 256 96 96 (4718592)
I0419 05:37:25.750890 26406 net.cpp:165] Memory required for data: 2557737244
I0419 05:37:25.750895 26406 layer_factory.hpp:77] Creating layer ch4_pool3
I0419 05:37:25.750910 26406 net.cpp:100] Creating Layer ch4_pool3
I0419 05:37:25.750919 26406 net.cpp:434] ch4_pool3 <- ch4_pool2_ch4_pool2_0_split_1
I0419 05:37:25.750929 26406 net.cpp:408] ch4_pool3 -> ch4_pool3
I0419 05:37:25.750979 26406 net.cpp:150] Setting up ch4_pool3
I0419 05:37:25.750988 26406 net.cpp:157] Top shape: 2 1 96 96 (18432)
I0419 05:37:25.750993 26406 net.cpp:165] Memory required for data: 2557810972
I0419 05:37:25.750999 26406 layer_factory.hpp:77] Creating layer pool3_concat
I0419 05:37:25.751008 26406 net.cpp:100] Creating Layer pool3_concat
I0419 05:37:25.751011 26406 net.cpp:434] pool3_concat <- pool3
I0419 05:37:25.751016 26406 net.cpp:434] pool3_concat <- ch4_pool3
I0419 05:37:25.751020 26406 net.cpp:408] pool3_concat -> pool3_new
I0419 05:37:25.751044 26406 net.cpp:150] Setting up pool3_concat
I0419 05:37:25.751050 26406 net.cpp:157] Top shape: 2 257 96 96 (4737024)
I0419 05:37:25.751054 26406 net.cpp:165] Memory required for data: 2576759068
I0419 05:37:25.751056 26406 layer_factory.hpp:77] Creating layer conv4_1_new
I0419 05:37:25.751065 26406 net.cpp:100] Creating Layer conv4_1_new
I0419 05:37:25.751067 26406 net.cpp:434] conv4_1_new <- pool3_new
I0419 05:37:25.751072 26406 net.cpp:408] conv4_1_new -> conv4_1
I0419 05:37:25.754403 26406 net.cpp:150] Setting up conv4_1_new
I0419 05:37:25.754427 26406 net.cpp:157] Top shape: 2 512 96 96 (9437184)
I0419 05:37:25.754431 26406 net.cpp:165] Memory required for data: 2614507804
I0419 05:37:25.754441 26406 layer_factory.hpp:77] Creating layer relu4_1
I0419 05:37:25.754451 26406 net.cpp:100] Creating Layer relu4_1
I0419 05:37:25.754456 26406 net.cpp:434] relu4_1 <- conv4_1
I0419 05:37:25.754463 26406 net.cpp:395] relu4_1 -> conv4_1 (in-place)
I0419 05:37:25.754621 26406 net.cpp:150] Setting up relu4_1
I0419 05:37:25.754627 26406 net.cpp:157] Top shape: 2 512 96 96 (9437184)
I0419 05:37:25.754631 26406 net.cpp:165] Memory required for data: 2652256540
I0419 05:37:25.754633 26406 layer_factory.hpp:77] Creating layer conv4_2
I0419 05:37:25.754640 26406 net.cpp:100] Creating Layer conv4_2
I0419 05:37:25.754644 26406 net.cpp:434] conv4_2 <- conv4_1
I0419 05:37:25.754648 26406 net.cpp:408] conv4_2 -> conv4_2
I0419 05:37:25.762010 26406 net.cpp:150] Setting up conv4_2
I0419 05:37:25.762045 26406 net.cpp:157] Top shape: 2 512 96 96 (9437184)
I0419 05:37:25.762049 26406 net.cpp:165] Memory required for data: 2690005276
I0419 05:37:25.762065 26406 layer_factory.hpp:77] Creating layer relu4_2
I0419 05:37:25.762080 26406 net.cpp:100] Creating Layer relu4_2
I0419 05:37:25.762086 26406 net.cpp:434] relu4_2 <- conv4_2
I0419 05:37:25.762092 26406 net.cpp:395] relu4_2 -> conv4_2 (in-place)
I0419 05:37:25.762632 26406 net.cpp:150] Setting up relu4_2
I0419 05:37:25.762645 26406 net.cpp:157] Top shape: 2 512 96 96 (9437184)
I0419 05:37:25.762648 26406 net.cpp:165] Memory required for data: 2727754012
I0419 05:37:25.762652 26406 layer_factory.hpp:77] Creating layer conv4_3
I0419 05:37:25.762663 26406 net.cpp:100] Creating Layer conv4_3
I0419 05:37:25.762668 26406 net.cpp:434] conv4_3 <- conv4_2
I0419 05:37:25.762673 26406 net.cpp:408] conv4_3 -> conv4_3
I0419 05:37:25.769161 26406 net.cpp:150] Setting up conv4_3
I0419 05:37:25.769189 26406 net.cpp:157] Top shape: 2 512 96 96 (9437184)
I0419 05:37:25.769193 26406 net.cpp:165] Memory required for data: 2765502748
I0419 05:37:25.769202 26406 layer_factory.hpp:77] Creating layer relu4_3
I0419 05:37:25.769213 26406 net.cpp:100] Creating Layer relu4_3
I0419 05:37:25.769219 26406 net.cpp:434] relu4_3 <- conv4_3
I0419 05:37:25.769225 26406 net.cpp:395] relu4_3 -> conv4_3 (in-place)
I0419 05:37:25.769393 26406 net.cpp:150] Setting up relu4_3
I0419 05:37:25.769402 26406 net.cpp:157] Top shape: 2 512 96 96 (9437184)
I0419 05:37:25.769405 26406 net.cpp:165] Memory required for data: 2803251484
I0419 05:37:25.769409 26406 layer_factory.hpp:77] Creating layer conv4_3_relu4_3_0_split
I0419 05:37:25.769418 26406 net.cpp:100] Creating Layer conv4_3_relu4_3_0_split
I0419 05:37:25.769423 26406 net.cpp:434] conv4_3_relu4_3_0_split <- conv4_3
I0419 05:37:25.769428 26406 net.cpp:408] conv4_3_relu4_3_0_split -> conv4_3_relu4_3_0_split_0
I0419 05:37:25.769434 26406 net.cpp:408] conv4_3_relu4_3_0_split -> conv4_3_relu4_3_0_split_1
I0419 05:37:25.769440 26406 net.cpp:408] conv4_3_relu4_3_0_split -> conv4_3_relu4_3_0_split_2
I0419 05:37:25.769495 26406 net.cpp:150] Setting up conv4_3_relu4_3_0_split
I0419 05:37:25.769500 26406 net.cpp:157] Top shape: 2 512 96 96 (9437184)
I0419 05:37:25.769505 26406 net.cpp:157] Top shape: 2 512 96 96 (9437184)
I0419 05:37:25.769510 26406 net.cpp:157] Top shape: 2 512 96 96 (9437184)
I0419 05:37:25.769512 26406 net.cpp:165] Memory required for data: 2916497692
I0419 05:37:25.769515 26406 layer_factory.hpp:77] Creating layer loss1_conv1
I0419 05:37:25.769527 26406 net.cpp:100] Creating Layer loss1_conv1
I0419 05:37:25.769531 26406 net.cpp:434] loss1_conv1 <- conv4_3_relu4_3_0_split_0
I0419 05:37:25.769538 26406 net.cpp:408] loss1_conv1 -> loss1_conv1
I0419 05:37:25.833070 26406 net.cpp:150] Setting up loss1_conv1
I0419 05:37:25.833096 26406 net.cpp:157] Top shape: 2 512 96 96 (9437184)
I0419 05:37:25.833101 26406 net.cpp:165] Memory required for data: 2954246428
I0419 05:37:25.833111 26406 layer_factory.hpp:77] Creating layer loss_relu1
I0419 05:37:25.833120 26406 net.cpp:100] Creating Layer loss_relu1
I0419 05:37:25.833127 26406 net.cpp:434] loss_relu1 <- loss1_conv1
I0419 05:37:25.833132 26406 net.cpp:395] loss_relu1 -> loss1_conv1 (in-place)
I0419 05:37:25.833310 26406 net.cpp:150] Setting up loss_relu1
I0419 05:37:25.833317 26406 net.cpp:157] Top shape: 2 512 96 96 (9437184)
I0419 05:37:25.833320 26406 net.cpp:165] Memory required for data: 2991995164
I0419 05:37:25.833323 26406 layer_factory.hpp:77] Creating layer loss1_conv1_loss_relu1_0_split
I0419 05:37:25.833329 26406 net.cpp:100] Creating Layer loss1_conv1_loss_relu1_0_split
I0419 05:37:25.833333 26406 net.cpp:434] loss1_conv1_loss_relu1_0_split <- loss1_conv1
I0419 05:37:25.833338 26406 net.cpp:408] loss1_conv1_loss_relu1_0_split -> loss1_conv1_loss_relu1_0_split_0
I0419 05:37:25.833344 26406 net.cpp:408] loss1_conv1_loss_relu1_0_split -> loss1_conv1_loss_relu1_0_split_1
I0419 05:37:25.833384 26406 net.cpp:150] Setting up loss1_conv1_loss_relu1_0_split
I0419 05:37:25.833390 26406 net.cpp:157] Top shape: 2 512 96 96 (9437184)
I0419 05:37:25.833395 26406 net.cpp:157] Top shape: 2 512 96 96 (9437184)
I0419 05:37:25.833397 26406 net.cpp:165] Memory required for data: 3067492636
I0419 05:37:25.833401 26406 layer_factory.hpp:77] Creating layer LFCN_1_5x5
I0419 05:37:25.833412 26406 net.cpp:100] Creating Layer LFCN_1_5x5
I0419 05:37:25.833416 26406 net.cpp:434] LFCN_1_5x5 <- loss1_conv1_loss_relu1_0_split_0
I0419 05:37:25.833422 26406 net.cpp:408] LFCN_1_5x5 -> LFCN_1_5x5
I0419 05:37:25.839689 26406 net.cpp:150] Setting up LFCN_1_5x5
I0419 05:37:25.839702 26406 net.cpp:157] Top shape: 2 9 96 96 (165888)
I0419 05:37:25.839705 26406 net.cpp:165] Memory required for data: 3068156188
I0419 05:37:25.839710 26406 layer_factory.hpp:77] Creating layer LFCN_1_5x5_LFCN_1_5x5_0_split
I0419 05:37:25.839715 26406 net.cpp:100] Creating Layer LFCN_1_5x5_LFCN_1_5x5_0_split
I0419 05:37:25.839720 26406 net.cpp:434] LFCN_1_5x5_LFCN_1_5x5_0_split <- LFCN_1_5x5
I0419 05:37:25.839725 26406 net.cpp:408] LFCN_1_5x5_LFCN_1_5x5_0_split -> LFCN_1_5x5_LFCN_1_5x5_0_split_0
I0419 05:37:25.839731 26406 net.cpp:408] LFCN_1_5x5_LFCN_1_5x5_0_split -> LFCN_1_5x5_LFCN_1_5x5_0_split_1
I0419 05:37:25.839735 26406 net.cpp:408] LFCN_1_5x5_LFCN_1_5x5_0_split -> LFCN_1_5x5_LFCN_1_5x5_0_split_2
I0419 05:37:25.839781 26406 net.cpp:150] Setting up LFCN_1_5x5_LFCN_1_5x5_0_split
I0419 05:37:25.839787 26406 net.cpp:157] Top shape: 2 9 96 96 (165888)
I0419 05:37:25.839790 26406 net.cpp:157] Top shape: 2 9 96 96 (165888)
I0419 05:37:25.839794 26406 net.cpp:157] Top shape: 2 9 96 96 (165888)
I0419 05:37:25.839797 26406 net.cpp:165] Memory required for data: 3070146844
I0419 05:37:25.839800 26406 layer_factory.hpp:77] Creating layer detection_loss_1_5x5
I0419 05:37:25.839807 26406 net.cpp:100] Creating Layer detection_loss_1_5x5
I0419 05:37:25.839812 26406 net.cpp:434] detection_loss_1_5x5 <- LFCN_1_5x5_LFCN_1_5x5_0_split_0
I0419 05:37:25.839817 26406 net.cpp:434] detection_loss_1_5x5 <- label_1_5x5_data_1_split_0
I0419 05:37:25.839823 26406 net.cpp:408] detection_loss_1_5x5 -> loss_1_5x5
I0419 05:37:25.839830 26406 layer_factory.hpp:77] Creating layer detection_loss_1_5x5
I0419 05:37:25.840204 26406 net.cpp:150] Setting up detection_loss_1_5x5
I0419 05:37:25.840214 26406 net.cpp:157] Top shape: 1 1 1 2 (2)
I0419 05:37:25.840219 26406 net.cpp:160]     with loss weight 0.9
I0419 05:37:25.840234 26406 net.cpp:165] Memory required for data: 3070146852
I0419 05:37:25.840237 26406 layer_factory.hpp:77] Creating layer detection_accuracy_1_5x5
I0419 05:37:25.840245 26406 net.cpp:100] Creating Layer detection_accuracy_1_5x5
I0419 05:37:25.840248 26406 net.cpp:434] detection_accuracy_1_5x5 <- LFCN_1_5x5_LFCN_1_5x5_0_split_1
I0419 05:37:25.840252 26406 net.cpp:434] detection_accuracy_1_5x5 <- label_1_5x5_data_1_split_1
I0419 05:37:25.840260 26406 net.cpp:408] detection_accuracy_1_5x5 -> accuracy_1_5x5
I0419 05:37:25.840266 26406 net.cpp:408] detection_accuracy_1_5x5 -> boxiou_1_5x5
I0419 05:37:25.840306 26406 net.cpp:150] Setting up detection_accuracy_1_5x5
I0419 05:37:25.840312 26406 net.cpp:157] Top shape: 1 1 1 2 (2)
I0419 05:37:25.840317 26406 net.cpp:157] Top shape: 1 1 1 1 (1)
I0419 05:37:25.840319 26406 net.cpp:165] Memory required for data: 3070146864
I0419 05:37:25.840322 26406 layer_factory.hpp:77] Creating layer LFCN_1_7x7
I0419 05:37:25.840350 26406 net.cpp:100] Creating Layer LFCN_1_7x7
I0419 05:37:25.840355 26406 net.cpp:434] LFCN_1_7x7 <- loss1_conv1_loss_relu1_0_split_1
I0419 05:37:25.840363 26406 net.cpp:408] LFCN_1_7x7 -> LFCN_1_7x7
I0419 05:37:25.847170 26406 net.cpp:150] Setting up LFCN_1_7x7
I0419 05:37:25.847189 26406 net.cpp:157] Top shape: 2 9 96 96 (165888)
I0419 05:37:25.847194 26406 net.cpp:165] Memory required for data: 3070810416
I0419 05:37:25.847201 26406 layer_factory.hpp:77] Creating layer LFCN_1_7x7_LFCN_1_7x7_0_split
I0419 05:37:25.847208 26406 net.cpp:100] Creating Layer LFCN_1_7x7_LFCN_1_7x7_0_split
I0419 05:37:25.847213 26406 net.cpp:434] LFCN_1_7x7_LFCN_1_7x7_0_split <- LFCN_1_7x7
I0419 05:37:25.847218 26406 net.cpp:408] LFCN_1_7x7_LFCN_1_7x7_0_split -> LFCN_1_7x7_LFCN_1_7x7_0_split_0
I0419 05:37:25.847226 26406 net.cpp:408] LFCN_1_7x7_LFCN_1_7x7_0_split -> LFCN_1_7x7_LFCN_1_7x7_0_split_1
I0419 05:37:25.847237 26406 net.cpp:408] LFCN_1_7x7_LFCN_1_7x7_0_split -> LFCN_1_7x7_LFCN_1_7x7_0_split_2
I0419 05:37:25.847290 26406 net.cpp:150] Setting up LFCN_1_7x7_LFCN_1_7x7_0_split
I0419 05:37:25.847296 26406 net.cpp:157] Top shape: 2 9 96 96 (165888)
I0419 05:37:25.847301 26406 net.cpp:157] Top shape: 2 9 96 96 (165888)
I0419 05:37:25.847306 26406 net.cpp:157] Top shape: 2 9 96 96 (165888)
I0419 05:37:25.847308 26406 net.cpp:165] Memory required for data: 3072801072
I0419 05:37:25.847311 26406 layer_factory.hpp:77] Creating layer detection_loss_1_7x7
I0419 05:37:25.847319 26406 net.cpp:100] Creating Layer detection_loss_1_7x7
I0419 05:37:25.847322 26406 net.cpp:434] detection_loss_1_7x7 <- LFCN_1_7x7_LFCN_1_7x7_0_split_0
I0419 05:37:25.847327 26406 net.cpp:434] detection_loss_1_7x7 <- label_1_7x7_data_2_split_0
I0419 05:37:25.847333 26406 net.cpp:408] detection_loss_1_7x7 -> loss_1_7x7
I0419 05:37:25.847342 26406 layer_factory.hpp:77] Creating layer detection_loss_1_7x7
I0419 05:37:25.848001 26406 net.cpp:150] Setting up detection_loss_1_7x7
I0419 05:37:25.848067 26406 net.cpp:157] Top shape: 1 1 1 2 (2)
I0419 05:37:25.848090 26406 net.cpp:160]     with loss weight 0.9
I0419 05:37:25.848150 26406 net.cpp:165] Memory required for data: 3072801080
I0419 05:37:25.848166 26406 layer_factory.hpp:77] Creating layer detection_accuracy_1_7x7
I0419 05:37:25.848194 26406 net.cpp:100] Creating Layer detection_accuracy_1_7x7
I0419 05:37:25.848213 26406 net.cpp:434] detection_accuracy_1_7x7 <- LFCN_1_7x7_LFCN_1_7x7_0_split_1
I0419 05:37:25.848237 26406 net.cpp:434] detection_accuracy_1_7x7 <- label_1_7x7_data_2_split_1
I0419 05:37:25.848268 26406 net.cpp:408] detection_accuracy_1_7x7 -> accuracy_1_7x7
I0419 05:37:25.848302 26406 net.cpp:408] detection_accuracy_1_7x7 -> boxiou_1_7x7
I0419 05:37:25.848474 26406 net.cpp:150] Setting up detection_accuracy_1_7x7
I0419 05:37:25.848505 26406 net.cpp:157] Top shape: 1 1 1 2 (2)
I0419 05:37:25.848523 26406 net.cpp:157] Top shape: 1 1 1 1 (1)
I0419 05:37:25.848542 26406 net.cpp:165] Memory required for data: 3072801092
I0419 05:37:25.848561 26406 layer_factory.hpp:77] Creating layer pool4
I0419 05:37:25.848589 26406 net.cpp:100] Creating Layer pool4
I0419 05:37:25.848608 26406 net.cpp:434] pool4 <- conv4_3_relu4_3_0_split_1
I0419 05:37:25.848631 26406 net.cpp:408] pool4 -> pool4
I0419 05:37:25.848716 26406 net.cpp:150] Setting up pool4
I0419 05:37:25.848737 26406 net.cpp:157] Top shape: 2 512 48 48 (2359296)
I0419 05:37:25.848752 26406 net.cpp:165] Memory required for data: 3082238276
I0419 05:37:25.848768 26406 layer_factory.hpp:77] Creating layer conv5_1
I0419 05:37:25.848794 26406 net.cpp:100] Creating Layer conv5_1
I0419 05:37:25.848810 26406 net.cpp:434] conv5_1 <- pool4
I0419 05:37:25.848829 26406 net.cpp:408] conv5_1 -> conv5_1
I0419 05:37:25.856043 26406 net.cpp:150] Setting up conv5_1
I0419 05:37:25.856076 26406 net.cpp:157] Top shape: 2 512 48 48 (2359296)
I0419 05:37:25.856081 26406 net.cpp:165] Memory required for data: 3091675460
I0419 05:37:25.856091 26406 layer_factory.hpp:77] Creating layer relu5_1
I0419 05:37:25.856101 26406 net.cpp:100] Creating Layer relu5_1
I0419 05:37:25.856108 26406 net.cpp:434] relu5_1 <- conv5_1
I0419 05:37:25.856117 26406 net.cpp:395] relu5_1 -> conv5_1 (in-place)
I0419 05:37:25.856365 26406 net.cpp:150] Setting up relu5_1
I0419 05:37:25.856376 26406 net.cpp:157] Top shape: 2 512 48 48 (2359296)
I0419 05:37:25.856381 26406 net.cpp:165] Memory required for data: 3101112644
I0419 05:37:25.856386 26406 layer_factory.hpp:77] Creating layer conv5_2
I0419 05:37:25.856400 26406 net.cpp:100] Creating Layer conv5_2
I0419 05:37:25.856405 26406 net.cpp:434] conv5_2 <- conv5_1
I0419 05:37:25.856413 26406 net.cpp:408] conv5_2 -> conv5_2
I0419 05:37:25.862653 26406 net.cpp:150] Setting up conv5_2
I0419 05:37:25.862684 26406 net.cpp:157] Top shape: 2 512 48 48 (2359296)
I0419 05:37:25.862689 26406 net.cpp:165] Memory required for data: 3110549828
I0419 05:37:25.862699 26406 layer_factory.hpp:77] Creating layer relu5_2
I0419 05:37:25.862712 26406 net.cpp:100] Creating Layer relu5_2
I0419 05:37:25.862720 26406 net.cpp:434] relu5_2 <- conv5_2
I0419 05:37:25.862725 26406 net.cpp:395] relu5_2 -> conv5_2 (in-place)
I0419 05:37:25.863239 26406 net.cpp:150] Setting up relu5_2
I0419 05:37:25.863250 26406 net.cpp:157] Top shape: 2 512 48 48 (2359296)
I0419 05:37:25.863253 26406 net.cpp:165] Memory required for data: 3119987012
I0419 05:37:25.863257 26406 layer_factory.hpp:77] Creating layer conv5_3
I0419 05:37:25.863268 26406 net.cpp:100] Creating Layer conv5_3
I0419 05:37:25.863272 26406 net.cpp:434] conv5_3 <- conv5_2
I0419 05:37:25.863277 26406 net.cpp:408] conv5_3 -> conv5_3
I0419 05:37:25.871246 26406 net.cpp:150] Setting up conv5_3
I0419 05:37:25.871282 26406 net.cpp:157] Top shape: 2 512 48 48 (2359296)
I0419 05:37:25.871286 26406 net.cpp:165] Memory required for data: 3129424196
I0419 05:37:25.871296 26406 layer_factory.hpp:77] Creating layer relu5_3
I0419 05:37:25.871309 26406 net.cpp:100] Creating Layer relu5_3
I0419 05:37:25.871316 26406 net.cpp:434] relu5_3 <- conv5_3
I0419 05:37:25.871325 26406 net.cpp:395] relu5_3 -> conv5_3 (in-place)
I0419 05:37:25.871498 26406 net.cpp:150] Setting up relu5_3
I0419 05:37:25.871506 26406 net.cpp:157] Top shape: 2 512 48 48 (2359296)
I0419 05:37:25.871510 26406 net.cpp:165] Memory required for data: 3138861380
I0419 05:37:25.871515 26406 layer_factory.hpp:77] Creating layer conv5_3_relu5_3_0_split
I0419 05:37:25.871520 26406 net.cpp:100] Creating Layer conv5_3_relu5_3_0_split
I0419 05:37:25.871526 26406 net.cpp:434] conv5_3_relu5_3_0_split <- conv5_3
I0419 05:37:25.871531 26406 net.cpp:408] conv5_3_relu5_3_0_split -> conv5_3_relu5_3_0_split_0
I0419 05:37:25.871536 26406 net.cpp:408] conv5_3_relu5_3_0_split -> conv5_3_relu5_3_0_split_1
I0419 05:37:25.871542 26406 net.cpp:408] conv5_3_relu5_3_0_split -> conv5_3_relu5_3_0_split_2
I0419 05:37:25.871595 26406 net.cpp:150] Setting up conv5_3_relu5_3_0_split
I0419 05:37:25.871603 26406 net.cpp:157] Top shape: 2 512 48 48 (2359296)
I0419 05:37:25.871608 26406 net.cpp:157] Top shape: 2 512 48 48 (2359296)
I0419 05:37:25.871611 26406 net.cpp:157] Top shape: 2 512 48 48 (2359296)
I0419 05:37:25.871614 26406 net.cpp:165] Memory required for data: 3167172932
I0419 05:37:25.871618 26406 layer_factory.hpp:77] Creating layer LFCN_2_5x5
I0419 05:37:25.871630 26406 net.cpp:100] Creating Layer LFCN_2_5x5
I0419 05:37:25.871636 26406 net.cpp:434] LFCN_2_5x5 <- conv5_3_relu5_3_0_split_0
I0419 05:37:25.871644 26406 net.cpp:408] LFCN_2_5x5 -> LFCN_2_5x5
I0419 05:37:25.876554 26406 net.cpp:150] Setting up LFCN_2_5x5
I0419 05:37:25.876569 26406 net.cpp:157] Top shape: 2 9 48 48 (41472)
I0419 05:37:25.876572 26406 net.cpp:165] Memory required for data: 3167338820
I0419 05:37:25.876588 26406 layer_factory.hpp:77] Creating layer LFCN_2_5x5_LFCN_2_5x5_0_split
I0419 05:37:25.876595 26406 net.cpp:100] Creating Layer LFCN_2_5x5_LFCN_2_5x5_0_split
I0419 05:37:25.876600 26406 net.cpp:434] LFCN_2_5x5_LFCN_2_5x5_0_split <- LFCN_2_5x5
I0419 05:37:25.876606 26406 net.cpp:408] LFCN_2_5x5_LFCN_2_5x5_0_split -> LFCN_2_5x5_LFCN_2_5x5_0_split_0
I0419 05:37:25.876616 26406 net.cpp:408] LFCN_2_5x5_LFCN_2_5x5_0_split -> LFCN_2_5x5_LFCN_2_5x5_0_split_1
I0419 05:37:25.876626 26406 net.cpp:408] LFCN_2_5x5_LFCN_2_5x5_0_split -> LFCN_2_5x5_LFCN_2_5x5_0_split_2
I0419 05:37:25.876688 26406 net.cpp:150] Setting up LFCN_2_5x5_LFCN_2_5x5_0_split
I0419 05:37:25.876695 26406 net.cpp:157] Top shape: 2 9 48 48 (41472)
I0419 05:37:25.876700 26406 net.cpp:157] Top shape: 2 9 48 48 (41472)
I0419 05:37:25.876705 26406 net.cpp:157] Top shape: 2 9 48 48 (41472)
I0419 05:37:25.876708 26406 net.cpp:165] Memory required for data: 3167836484
I0419 05:37:25.876713 26406 layer_factory.hpp:77] Creating layer detection_loss_2_5x5
I0419 05:37:25.876721 26406 net.cpp:100] Creating Layer detection_loss_2_5x5
I0419 05:37:25.876725 26406 net.cpp:434] detection_loss_2_5x5 <- LFCN_2_5x5_LFCN_2_5x5_0_split_0
I0419 05:37:25.876731 26406 net.cpp:434] detection_loss_2_5x5 <- label_2_5x5_data_3_split_0
I0419 05:37:25.876739 26406 net.cpp:408] detection_loss_2_5x5 -> loss_2_5x5
I0419 05:37:25.876752 26406 layer_factory.hpp:77] Creating layer detection_loss_2_5x5
I0419 05:37:25.877512 26406 net.cpp:150] Setting up detection_loss_2_5x5
I0419 05:37:25.877526 26406 net.cpp:157] Top shape: 1 1 1 2 (2)
I0419 05:37:25.877529 26406 net.cpp:160]     with loss weight 1
I0419 05:37:25.877539 26406 net.cpp:165] Memory required for data: 3167836492
I0419 05:37:25.877544 26406 layer_factory.hpp:77] Creating layer detection_accuracy_2_5x5
I0419 05:37:25.877553 26406 net.cpp:100] Creating Layer detection_accuracy_2_5x5
I0419 05:37:25.877557 26406 net.cpp:434] detection_accuracy_2_5x5 <- LFCN_2_5x5_LFCN_2_5x5_0_split_1
I0419 05:37:25.877563 26406 net.cpp:434] detection_accuracy_2_5x5 <- label_2_5x5_data_3_split_1
I0419 05:37:25.877570 26406 net.cpp:408] detection_accuracy_2_5x5 -> accuracy_2_5x5
I0419 05:37:25.877580 26406 net.cpp:408] detection_accuracy_2_5x5 -> boxiou_2_5x5
I0419 05:37:25.877629 26406 net.cpp:150] Setting up detection_accuracy_2_5x5
I0419 05:37:25.877637 26406 net.cpp:157] Top shape: 1 1 1 2 (2)
I0419 05:37:25.877642 26406 net.cpp:157] Top shape: 1 1 1 1 (1)
I0419 05:37:25.877645 26406 net.cpp:165] Memory required for data: 3167836504
I0419 05:37:25.877650 26406 layer_factory.hpp:77] Creating layer LFCN_2_7x7
I0419 05:37:25.877667 26406 net.cpp:100] Creating Layer LFCN_2_7x7
I0419 05:37:25.877672 26406 net.cpp:434] LFCN_2_7x7 <- conv5_3_relu5_3_0_split_1
I0419 05:37:25.877681 26406 net.cpp:408] LFCN_2_7x7 -> LFCN_2_7x7
I0419 05:37:25.884446 26406 net.cpp:150] Setting up LFCN_2_7x7
I0419 05:37:25.884459 26406 net.cpp:157] Top shape: 2 9 48 48 (41472)
I0419 05:37:25.884464 26406 net.cpp:165] Memory required for data: 3168002392
I0419 05:37:25.884471 26406 layer_factory.hpp:77] Creating layer LFCN_2_7x7_LFCN_2_7x7_0_split
I0419 05:37:25.884479 26406 net.cpp:100] Creating Layer LFCN_2_7x7_LFCN_2_7x7_0_split
I0419 05:37:25.884483 26406 net.cpp:434] LFCN_2_7x7_LFCN_2_7x7_0_split <- LFCN_2_7x7
I0419 05:37:25.884490 26406 net.cpp:408] LFCN_2_7x7_LFCN_2_7x7_0_split -> LFCN_2_7x7_LFCN_2_7x7_0_split_0
I0419 05:37:25.884500 26406 net.cpp:408] LFCN_2_7x7_LFCN_2_7x7_0_split -> LFCN_2_7x7_LFCN_2_7x7_0_split_1
I0419 05:37:25.884508 26406 net.cpp:408] LFCN_2_7x7_LFCN_2_7x7_0_split -> LFCN_2_7x7_LFCN_2_7x7_0_split_2
I0419 05:37:25.884567 26406 net.cpp:150] Setting up LFCN_2_7x7_LFCN_2_7x7_0_split
I0419 05:37:25.884575 26406 net.cpp:157] Top shape: 2 9 48 48 (41472)
I0419 05:37:25.884580 26406 net.cpp:157] Top shape: 2 9 48 48 (41472)
I0419 05:37:25.884585 26406 net.cpp:157] Top shape: 2 9 48 48 (41472)
I0419 05:37:25.884589 26406 net.cpp:165] Memory required for data: 3168500056
I0419 05:37:25.884593 26406 layer_factory.hpp:77] Creating layer detection_loss_2_7x7
I0419 05:37:25.884600 26406 net.cpp:100] Creating Layer detection_loss_2_7x7
I0419 05:37:25.884604 26406 net.cpp:434] detection_loss_2_7x7 <- LFCN_2_7x7_LFCN_2_7x7_0_split_0
I0419 05:37:25.884610 26406 net.cpp:434] detection_loss_2_7x7 <- label_2_7x7_data_4_split_0
I0419 05:37:25.884616 26406 net.cpp:408] detection_loss_2_7x7 -> loss_2_7x7
I0419 05:37:25.884627 26406 layer_factory.hpp:77] Creating layer detection_loss_2_7x7
I0419 05:37:25.885035 26406 net.cpp:150] Setting up detection_loss_2_7x7
I0419 05:37:25.885046 26406 net.cpp:157] Top shape: 1 1 1 2 (2)
I0419 05:37:25.885049 26406 net.cpp:160]     with loss weight 1
I0419 05:37:25.885056 26406 net.cpp:165] Memory required for data: 3168500064
I0419 05:37:25.885061 26406 layer_factory.hpp:77] Creating layer detection_accuracy_2_7x7
I0419 05:37:25.885067 26406 net.cpp:100] Creating Layer detection_accuracy_2_7x7
I0419 05:37:25.885072 26406 net.cpp:434] detection_accuracy_2_7x7 <- LFCN_2_7x7_LFCN_2_7x7_0_split_1
I0419 05:37:25.885077 26406 net.cpp:434] detection_accuracy_2_7x7 <- label_2_7x7_data_4_split_1
I0419 05:37:25.885085 26406 net.cpp:408] detection_accuracy_2_7x7 -> accuracy_2_7x7
I0419 05:37:25.885094 26406 net.cpp:408] detection_accuracy_2_7x7 -> boxiou_2_7x7
I0419 05:37:25.885139 26406 net.cpp:150] Setting up detection_accuracy_2_7x7
I0419 05:37:25.885146 26406 net.cpp:157] Top shape: 1 1 1 2 (2)
I0419 05:37:25.885151 26406 net.cpp:157] Top shape: 1 1 1 1 (1)
I0419 05:37:25.885155 26406 net.cpp:165] Memory required for data: 3168500076
I0419 05:37:25.885159 26406 layer_factory.hpp:77] Creating layer pool5
I0419 05:37:25.885167 26406 net.cpp:100] Creating Layer pool5
I0419 05:37:25.885171 26406 net.cpp:434] pool5 <- conv5_3_relu5_3_0_split_2
I0419 05:37:25.885180 26406 net.cpp:408] pool5 -> pool5
I0419 05:37:25.885224 26406 net.cpp:150] Setting up pool5
I0419 05:37:25.885231 26406 net.cpp:157] Top shape: 2 512 24 24 (589824)
I0419 05:37:25.885236 26406 net.cpp:165] Memory required for data: 3170859372
I0419 05:37:25.885238 26406 layer_factory.hpp:77] Creating layer conv6_1
I0419 05:37:25.885251 26406 net.cpp:100] Creating Layer conv6_1
I0419 05:37:25.885255 26406 net.cpp:434] conv6_1 <- pool5
I0419 05:37:25.885265 26406 net.cpp:408] conv6_1 -> conv6_1
I0419 05:37:25.944322 26406 net.cpp:150] Setting up conv6_1
I0419 05:37:25.944350 26406 net.cpp:157] Top shape: 2 512 24 24 (589824)
I0419 05:37:25.944355 26406 net.cpp:165] Memory required for data: 3173218668
I0419 05:37:25.944361 26406 layer_factory.hpp:77] Creating layer relu6_1
I0419 05:37:25.944370 26406 net.cpp:100] Creating Layer relu6_1
I0419 05:37:25.944376 26406 net.cpp:434] relu6_1 <- conv6_1
I0419 05:37:25.944381 26406 net.cpp:395] relu6_1 -> conv6_1 (in-place)
I0419 05:37:25.944548 26406 net.cpp:150] Setting up relu6_1
I0419 05:37:25.944557 26406 net.cpp:157] Top shape: 2 512 24 24 (589824)
I0419 05:37:25.944561 26406 net.cpp:165] Memory required for data: 3175577964
I0419 05:37:25.944564 26406 layer_factory.hpp:77] Creating layer conv6_1_relu6_1_0_split
I0419 05:37:25.944571 26406 net.cpp:100] Creating Layer conv6_1_relu6_1_0_split
I0419 05:37:25.944574 26406 net.cpp:434] conv6_1_relu6_1_0_split <- conv6_1
I0419 05:37:25.944581 26406 net.cpp:408] conv6_1_relu6_1_0_split -> conv6_1_relu6_1_0_split_0
I0419 05:37:25.944587 26406 net.cpp:408] conv6_1_relu6_1_0_split -> conv6_1_relu6_1_0_split_1
I0419 05:37:25.944592 26406 net.cpp:408] conv6_1_relu6_1_0_split -> conv6_1_relu6_1_0_split_2
I0419 05:37:25.944646 26406 net.cpp:150] Setting up conv6_1_relu6_1_0_split
I0419 05:37:25.944653 26406 net.cpp:157] Top shape: 2 512 24 24 (589824)
I0419 05:37:25.944658 26406 net.cpp:157] Top shape: 2 512 24 24 (589824)
I0419 05:37:25.944661 26406 net.cpp:157] Top shape: 2 512 24 24 (589824)
I0419 05:37:25.944665 26406 net.cpp:165] Memory required for data: 3182655852
I0419 05:37:25.944669 26406 layer_factory.hpp:77] Creating layer LFCN_3_5x5
I0419 05:37:25.944680 26406 net.cpp:100] Creating Layer LFCN_3_5x5
I0419 05:37:25.944686 26406 net.cpp:434] LFCN_3_5x5 <- conv6_1_relu6_1_0_split_0
I0419 05:37:25.944692 26406 net.cpp:408] LFCN_3_5x5 -> LFCN_3_5x5
I0419 05:37:25.948549 26406 net.cpp:150] Setting up LFCN_3_5x5
I0419 05:37:25.948562 26406 net.cpp:157] Top shape: 2 9 24 24 (10368)
I0419 05:37:25.948566 26406 net.cpp:165] Memory required for data: 3182697324
I0419 05:37:25.948572 26406 layer_factory.hpp:77] Creating layer LFCN_3_5x5_LFCN_3_5x5_0_split
I0419 05:37:25.948577 26406 net.cpp:100] Creating Layer LFCN_3_5x5_LFCN_3_5x5_0_split
I0419 05:37:25.948581 26406 net.cpp:434] LFCN_3_5x5_LFCN_3_5x5_0_split <- LFCN_3_5x5
I0419 05:37:25.948586 26406 net.cpp:408] LFCN_3_5x5_LFCN_3_5x5_0_split -> LFCN_3_5x5_LFCN_3_5x5_0_split_0
I0419 05:37:25.948593 26406 net.cpp:408] LFCN_3_5x5_LFCN_3_5x5_0_split -> LFCN_3_5x5_LFCN_3_5x5_0_split_1
I0419 05:37:25.948599 26406 net.cpp:408] LFCN_3_5x5_LFCN_3_5x5_0_split -> LFCN_3_5x5_LFCN_3_5x5_0_split_2
I0419 05:37:25.948652 26406 net.cpp:150] Setting up LFCN_3_5x5_LFCN_3_5x5_0_split
I0419 05:37:25.948658 26406 net.cpp:157] Top shape: 2 9 24 24 (10368)
I0419 05:37:25.948662 26406 net.cpp:157] Top shape: 2 9 24 24 (10368)
I0419 05:37:25.948667 26406 net.cpp:157] Top shape: 2 9 24 24 (10368)
I0419 05:37:25.948669 26406 net.cpp:165] Memory required for data: 3182821740
I0419 05:37:25.948673 26406 layer_factory.hpp:77] Creating layer detection_loss_3_5x5
I0419 05:37:25.948680 26406 net.cpp:100] Creating Layer detection_loss_3_5x5
I0419 05:37:25.948683 26406 net.cpp:434] detection_loss_3_5x5 <- LFCN_3_5x5_LFCN_3_5x5_0_split_0
I0419 05:37:25.948688 26406 net.cpp:434] detection_loss_3_5x5 <- label_3_5x5_data_5_split_0
I0419 05:37:25.948694 26406 net.cpp:408] detection_loss_3_5x5 -> loss_3_5x5
I0419 05:37:25.948704 26406 layer_factory.hpp:77] Creating layer detection_loss_3_5x5
I0419 05:37:25.949039 26406 net.cpp:150] Setting up detection_loss_3_5x5
I0419 05:37:25.949048 26406 net.cpp:157] Top shape: 1 1 1 2 (2)
I0419 05:37:25.949053 26406 net.cpp:160]     with loss weight 1
I0419 05:37:25.949062 26406 net.cpp:165] Memory required for data: 3182821748
I0419 05:37:25.949066 26406 layer_factory.hpp:77] Creating layer detection_accuracy_3_5x5
I0419 05:37:25.949072 26406 net.cpp:100] Creating Layer detection_accuracy_3_5x5
I0419 05:37:25.949076 26406 net.cpp:434] detection_accuracy_3_5x5 <- LFCN_3_5x5_LFCN_3_5x5_0_split_1
I0419 05:37:25.949080 26406 net.cpp:434] detection_accuracy_3_5x5 <- label_3_5x5_data_5_split_1
I0419 05:37:25.949087 26406 net.cpp:408] detection_accuracy_3_5x5 -> accuracy_3_5x5
I0419 05:37:25.949093 26406 net.cpp:408] detection_accuracy_3_5x5 -> boxiou_3_5x5
I0419 05:37:25.949131 26406 net.cpp:150] Setting up detection_accuracy_3_5x5
I0419 05:37:25.949138 26406 net.cpp:157] Top shape: 1 1 1 2 (2)
I0419 05:37:25.949142 26406 net.cpp:157] Top shape: 1 1 1 1 (1)
I0419 05:37:25.949146 26406 net.cpp:165] Memory required for data: 3182821760
I0419 05:37:25.949148 26406 layer_factory.hpp:77] Creating layer LFCN_3_7x7
I0419 05:37:25.949157 26406 net.cpp:100] Creating Layer LFCN_3_7x7
I0419 05:37:25.949162 26406 net.cpp:434] LFCN_3_7x7 <- conv6_1_relu6_1_0_split_1
I0419 05:37:25.949167 26406 net.cpp:408] LFCN_3_7x7 -> LFCN_3_7x7
I0419 05:37:25.956689 26406 net.cpp:150] Setting up LFCN_3_7x7
I0419 05:37:25.956706 26406 net.cpp:157] Top shape: 2 9 24 24 (10368)
I0419 05:37:25.956709 26406 net.cpp:165] Memory required for data: 3182863232
I0419 05:37:25.956715 26406 layer_factory.hpp:77] Creating layer LFCN_3_7x7_LFCN_3_7x7_0_split
I0419 05:37:25.956722 26406 net.cpp:100] Creating Layer LFCN_3_7x7_LFCN_3_7x7_0_split
I0419 05:37:25.956727 26406 net.cpp:434] LFCN_3_7x7_LFCN_3_7x7_0_split <- LFCN_3_7x7
I0419 05:37:25.956732 26406 net.cpp:408] LFCN_3_7x7_LFCN_3_7x7_0_split -> LFCN_3_7x7_LFCN_3_7x7_0_split_0
I0419 05:37:25.956739 26406 net.cpp:408] LFCN_3_7x7_LFCN_3_7x7_0_split -> LFCN_3_7x7_LFCN_3_7x7_0_split_1
I0419 05:37:25.956744 26406 net.cpp:408] LFCN_3_7x7_LFCN_3_7x7_0_split -> LFCN_3_7x7_LFCN_3_7x7_0_split_2
I0419 05:37:25.956799 26406 net.cpp:150] Setting up LFCN_3_7x7_LFCN_3_7x7_0_split
I0419 05:37:25.956806 26406 net.cpp:157] Top shape: 2 9 24 24 (10368)
I0419 05:37:25.956810 26406 net.cpp:157] Top shape: 2 9 24 24 (10368)
I0419 05:37:25.956815 26406 net.cpp:157] Top shape: 2 9 24 24 (10368)
I0419 05:37:25.956818 26406 net.cpp:165] Memory required for data: 3182987648
I0419 05:37:25.956821 26406 layer_factory.hpp:77] Creating layer detection_loss_3_7x7
I0419 05:37:25.956828 26406 net.cpp:100] Creating Layer detection_loss_3_7x7
I0419 05:37:25.956831 26406 net.cpp:434] detection_loss_3_7x7 <- LFCN_3_7x7_LFCN_3_7x7_0_split_0
I0419 05:37:25.956836 26406 net.cpp:434] detection_loss_3_7x7 <- label_3_7x7_data_6_split_0
I0419 05:37:25.956841 26406 net.cpp:408] detection_loss_3_7x7 -> loss_3_7x7
I0419 05:37:25.956849 26406 layer_factory.hpp:77] Creating layer detection_loss_3_7x7
I0419 05:37:25.957583 26406 net.cpp:150] Setting up detection_loss_3_7x7
I0419 05:37:25.957598 26406 net.cpp:157] Top shape: 1 1 1 2 (2)
I0419 05:37:25.957602 26406 net.cpp:160]     with loss weight 1
I0419 05:37:25.957612 26406 net.cpp:165] Memory required for data: 3182987656
I0419 05:37:25.957615 26406 layer_factory.hpp:77] Creating layer detection_accuracy_3_7x7
I0419 05:37:25.957625 26406 net.cpp:100] Creating Layer detection_accuracy_3_7x7
I0419 05:37:25.957629 26406 net.cpp:434] detection_accuracy_3_7x7 <- LFCN_3_7x7_LFCN_3_7x7_0_split_1
I0419 05:37:25.957635 26406 net.cpp:434] detection_accuracy_3_7x7 <- label_3_7x7_data_6_split_1
I0419 05:37:25.957643 26406 net.cpp:408] detection_accuracy_3_7x7 -> accuracy_3_7x7
I0419 05:37:25.957651 26406 net.cpp:408] detection_accuracy_3_7x7 -> boxiou_3_7x7
I0419 05:37:25.957700 26406 net.cpp:150] Setting up detection_accuracy_3_7x7
I0419 05:37:25.957715 26406 net.cpp:157] Top shape: 1 1 1 2 (2)
I0419 05:37:25.957720 26406 net.cpp:157] Top shape: 1 1 1 1 (1)
I0419 05:37:25.957722 26406 net.cpp:165] Memory required for data: 3182987668
I0419 05:37:25.957726 26406 layer_factory.hpp:77] Creating layer pool6
I0419 05:37:25.957732 26406 net.cpp:100] Creating Layer pool6
I0419 05:37:25.957736 26406 net.cpp:434] pool6 <- conv6_1_relu6_1_0_split_2
I0419 05:37:25.957741 26406 net.cpp:408] pool6 -> pool6
I0419 05:37:25.957779 26406 net.cpp:150] Setting up pool6
I0419 05:37:25.957787 26406 net.cpp:157] Top shape: 2 512 12 12 (147456)
I0419 05:37:25.957789 26406 net.cpp:165] Memory required for data: 3183577492
I0419 05:37:25.957792 26406 layer_factory.hpp:77] Creating layer LFCN_4_5x5
I0419 05:37:25.957801 26406 net.cpp:100] Creating Layer LFCN_4_5x5
I0419 05:37:25.957805 26406 net.cpp:434] LFCN_4_5x5 <- pool6
I0419 05:37:25.957811 26406 net.cpp:408] LFCN_4_5x5 -> LFCN_4_5x5
I0419 05:37:25.961895 26406 net.cpp:150] Setting up LFCN_4_5x5
I0419 05:37:25.961915 26406 net.cpp:157] Top shape: 2 9 12 12 (2592)
I0419 05:37:25.961917 26406 net.cpp:165] Memory required for data: 3183587860
I0419 05:37:25.961925 26406 layer_factory.hpp:77] Creating layer LFCN_4_5x5_LFCN_4_5x5_0_split
I0419 05:37:25.961932 26406 net.cpp:100] Creating Layer LFCN_4_5x5_LFCN_4_5x5_0_split
I0419 05:37:25.961937 26406 net.cpp:434] LFCN_4_5x5_LFCN_4_5x5_0_split <- LFCN_4_5x5
I0419 05:37:25.961943 26406 net.cpp:408] LFCN_4_5x5_LFCN_4_5x5_0_split -> LFCN_4_5x5_LFCN_4_5x5_0_split_0
I0419 05:37:25.961951 26406 net.cpp:408] LFCN_4_5x5_LFCN_4_5x5_0_split -> LFCN_4_5x5_LFCN_4_5x5_0_split_1
I0419 05:37:25.961956 26406 net.cpp:408] LFCN_4_5x5_LFCN_4_5x5_0_split -> LFCN_4_5x5_LFCN_4_5x5_0_split_2
I0419 05:37:25.962008 26406 net.cpp:150] Setting up LFCN_4_5x5_LFCN_4_5x5_0_split
I0419 05:37:25.962015 26406 net.cpp:157] Top shape: 2 9 12 12 (2592)
I0419 05:37:25.962020 26406 net.cpp:157] Top shape: 2 9 12 12 (2592)
I0419 05:37:25.962024 26406 net.cpp:157] Top shape: 2 9 12 12 (2592)
I0419 05:37:25.962028 26406 net.cpp:165] Memory required for data: 3183618964
I0419 05:37:25.962030 26406 layer_factory.hpp:77] Creating layer detection_loss_4_5x5
I0419 05:37:25.962038 26406 net.cpp:100] Creating Layer detection_loss_4_5x5
I0419 05:37:25.962043 26406 net.cpp:434] detection_loss_4_5x5 <- LFCN_4_5x5_LFCN_4_5x5_0_split_0
I0419 05:37:25.962047 26406 net.cpp:434] detection_loss_4_5x5 <- label_4_5x5_data_7_split_0
I0419 05:37:25.962054 26406 net.cpp:408] detection_loss_4_5x5 -> loss_4_5x5
I0419 05:37:25.962060 26406 layer_factory.hpp:77] Creating layer detection_loss_4_5x5
I0419 05:37:25.962399 26406 net.cpp:150] Setting up detection_loss_4_5x5
I0419 05:37:25.962409 26406 net.cpp:157] Top shape: 1 1 1 2 (2)
I0419 05:37:25.962412 26406 net.cpp:160]     with loss weight 1
I0419 05:37:25.962420 26406 net.cpp:165] Memory required for data: 3183618972
I0419 05:37:25.962424 26406 layer_factory.hpp:77] Creating layer detection_accuracy_4_5x5
I0419 05:37:25.962431 26406 net.cpp:100] Creating Layer detection_accuracy_4_5x5
I0419 05:37:25.962435 26406 net.cpp:434] detection_accuracy_4_5x5 <- LFCN_4_5x5_LFCN_4_5x5_0_split_1
I0419 05:37:25.962440 26406 net.cpp:434] detection_accuracy_4_5x5 <- label_4_5x5_data_7_split_1
I0419 05:37:25.962445 26406 net.cpp:408] detection_accuracy_4_5x5 -> accuracy_4_5x5
I0419 05:37:25.962452 26406 net.cpp:408] detection_accuracy_4_5x5 -> boxiou_4_5x5
I0419 05:37:25.962494 26406 net.cpp:150] Setting up detection_accuracy_4_5x5
I0419 05:37:25.962501 26406 net.cpp:157] Top shape: 1 1 1 2 (2)
I0419 05:37:25.962505 26406 net.cpp:157] Top shape: 1 1 1 1 (1)
I0419 05:37:25.962508 26406 net.cpp:165] Memory required for data: 3183618984
I0419 05:37:25.962512 26406 layer_factory.hpp:77] Creating layer proposals
I0419 05:37:25.962519 26406 net.cpp:100] Creating Layer proposals
I0419 05:37:25.962523 26406 net.cpp:434] proposals <- LFCN_1_5x5_LFCN_1_5x5_0_split_2
I0419 05:37:25.962528 26406 net.cpp:434] proposals <- LFCN_1_7x7_LFCN_1_7x7_0_split_2
I0419 05:37:25.962532 26406 net.cpp:434] proposals <- LFCN_2_5x5_LFCN_2_5x5_0_split_2
I0419 05:37:25.962536 26406 net.cpp:434] proposals <- LFCN_2_7x7_LFCN_2_7x7_0_split_2
I0419 05:37:25.962540 26406 net.cpp:434] proposals <- LFCN_3_5x5_LFCN_3_5x5_0_split_2
I0419 05:37:25.962544 26406 net.cpp:434] proposals <- LFCN_3_7x7_LFCN_3_7x7_0_split_2
I0419 05:37:25.962548 26406 net.cpp:434] proposals <- LFCN_4_5x5_LFCN_4_5x5_0_split_2
I0419 05:37:25.962553 26406 net.cpp:408] proposals -> proposals
I0419 05:37:25.962579 26406 net.cpp:150] Setting up proposals
I0419 05:37:25.962584 26406 net.cpp:157] Top shape: 1 5 1 1 (5)
I0419 05:37:25.962587 26406 net.cpp:165] Memory required for data: 3183619004
I0419 05:37:25.962590 26406 layer_factory.hpp:77] Creating layer proposal_info
I0419 05:37:25.962599 26406 net.cpp:100] Creating Layer proposal_info
I0419 05:37:25.962602 26406 net.cpp:434] proposal_info <- proposals
I0419 05:37:25.962607 26406 net.cpp:434] proposal_info <- gt_boxes
I0419 05:37:25.962613 26406 net.cpp:408] proposal_info -> rois
I0419 05:37:25.962620 26406 net.cpp:408] proposal_info -> proposal_labels
I0419 05:37:25.962627 26406 net.cpp:408] proposal_info -> proposal_targets
I0419 05:37:25.962633 26406 net.cpp:408] proposal_info -> box_inside_weights
I0419 05:37:25.962640 26406 net.cpp:408] proposal_info -> box_outside_weights
I0419 05:37:25.962646 26406 net.cpp:408] proposal_info -> match_gt_boxes
I0419 05:37:25.962736 26406 net.cpp:150] Setting up proposal_info
I0419 05:37:25.962743 26406 net.cpp:157] Top shape: 128 5 1 1 (640)
I0419 05:37:25.962749 26406 net.cpp:157] Top shape: 128 1 1 1 (128)
I0419 05:37:25.962752 26406 net.cpp:157] Top shape: 128 20 1 1 (2560)
I0419 05:37:25.962756 26406 net.cpp:157] Top shape: 128 20 1 1 (2560)
I0419 05:37:25.962760 26406 net.cpp:157] Top shape: 128 20 1 1 (2560)
I0419 05:37:25.962764 26406 net.cpp:157] Top shape: 128 6 1 1 (768)
I0419 05:37:25.962767 26406 net.cpp:165] Memory required for data: 3183655868
I0419 05:37:25.962770 26406 layer_factory.hpp:77] Creating layer rois_proposal_info_0_split
I0419 05:37:25.962776 26406 net.cpp:100] Creating Layer rois_proposal_info_0_split
I0419 05:37:25.962780 26406 net.cpp:434] rois_proposal_info_0_split <- rois
I0419 05:37:25.962785 26406 net.cpp:408] rois_proposal_info_0_split -> rois_proposal_info_0_split_0
I0419 05:37:25.962790 26406 net.cpp:408] rois_proposal_info_0_split -> rois_proposal_info_0_split_1
I0419 05:37:25.962795 26406 net.cpp:408] rois_proposal_info_0_split -> rois_proposal_info_0_split_2
I0419 05:37:25.962841 26406 net.cpp:150] Setting up rois_proposal_info_0_split
I0419 05:37:25.962848 26406 net.cpp:157] Top shape: 128 5 1 1 (640)
I0419 05:37:25.962852 26406 net.cpp:157] Top shape: 128 5 1 1 (640)
I0419 05:37:25.962857 26406 net.cpp:157] Top shape: 128 5 1 1 (640)
I0419 05:37:25.962859 26406 net.cpp:165] Memory required for data: 3183663548
I0419 05:37:25.962862 26406 layer_factory.hpp:77] Creating layer proposal_labels_proposal_info_1_split
I0419 05:37:25.962867 26406 net.cpp:100] Creating Layer proposal_labels_proposal_info_1_split
I0419 05:37:25.962870 26406 net.cpp:434] proposal_labels_proposal_info_1_split <- proposal_labels
I0419 05:37:25.962877 26406 net.cpp:408] proposal_labels_proposal_info_1_split -> proposal_labels_proposal_info_1_split_0
I0419 05:37:25.962882 26406 net.cpp:408] proposal_labels_proposal_info_1_split -> proposal_labels_proposal_info_1_split_1
I0419 05:37:25.962924 26406 net.cpp:150] Setting up proposal_labels_proposal_info_1_split
I0419 05:37:25.962930 26406 net.cpp:157] Top shape: 128 1 1 1 (128)
I0419 05:37:25.962935 26406 net.cpp:157] Top shape: 128 1 1 1 (128)
I0419 05:37:25.962939 26406 net.cpp:165] Memory required for data: 3183664572
I0419 05:37:25.962942 26406 layer_factory.hpp:77] Creating layer conv4_3_2x
I0419 05:37:25.962951 26406 net.cpp:100] Creating Layer conv4_3_2x
I0419 05:37:25.962954 26406 net.cpp:434] conv4_3_2x <- conv4_3_relu4_3_0_split_2
I0419 05:37:25.962960 26406 net.cpp:408] conv4_3_2x -> conv4_3_2x
I0419 05:37:25.963351 26406 net.cpp:150] Setting up conv4_3_2x
I0419 05:37:25.963357 26406 net.cpp:157] Top shape: 2 512 192 192 (37748736)
I0419 05:37:25.963361 26406 net.cpp:165] Memory required for data: 3334659516
I0419 05:37:25.963366 26406 layer_factory.hpp:77] Creating layer conv4_3_2x_new
I0419 05:37:25.963371 26406 net.cpp:100] Creating Layer conv4_3_2x_new
I0419 05:37:25.963374 26406 net.cpp:434] conv4_3_2x_new <- conv4_3_2x
I0419 05:37:25.963379 26406 net.cpp:434] conv4_3_2x_new <- ch4_pool2_ch4_pool2_0_split_2
I0419 05:37:25.963384 26406 net.cpp:408] conv4_3_2x_new -> conv4_3_2x_new
I0419 05:37:25.963407 26406 net.cpp:150] Setting up conv4_3_2x_new
I0419 05:37:25.963413 26406 net.cpp:157] Top shape: 2 513 192 192 (37822464)
I0419 05:37:25.963418 26406 net.cpp:165] Memory required for data: 3485949372
I0419 05:37:25.963420 26406 layer_factory.hpp:77] Creating layer conv4_3_2x_new_conv4_3_2x_new_0_split
I0419 05:37:25.963425 26406 net.cpp:100] Creating Layer conv4_3_2x_new_conv4_3_2x_new_0_split
I0419 05:37:25.963428 26406 net.cpp:434] conv4_3_2x_new_conv4_3_2x_new_0_split <- conv4_3_2x_new
I0419 05:37:25.963433 26406 net.cpp:408] conv4_3_2x_new_conv4_3_2x_new_0_split -> conv4_3_2x_new_conv4_3_2x_new_0_split_0
I0419 05:37:25.963438 26406 net.cpp:408] conv4_3_2x_new_conv4_3_2x_new_0_split -> conv4_3_2x_new_conv4_3_2x_new_0_split_1
I0419 05:37:25.963474 26406 net.cpp:150] Setting up conv4_3_2x_new_conv4_3_2x_new_0_split
I0419 05:37:25.963479 26406 net.cpp:157] Top shape: 2 513 192 192 (37822464)
I0419 05:37:25.963485 26406 net.cpp:157] Top shape: 2 513 192 192 (37822464)
I0419 05:37:25.963487 26406 net.cpp:165] Memory required for data: 3788529084
I0419 05:37:25.963490 26406 layer_factory.hpp:77] Creating layer roi_pool_org
I0419 05:37:25.963496 26406 net.cpp:100] Creating Layer roi_pool_org
I0419 05:37:25.963500 26406 net.cpp:434] roi_pool_org <- conv4_3_2x_new_conv4_3_2x_new_0_split_0
I0419 05:37:25.963505 26406 net.cpp:434] roi_pool_org <- rois_proposal_info_0_split_0
I0419 05:37:25.963508 26406 net.cpp:408] roi_pool_org -> roi_pool_org
I0419 05:37:25.963515 26406 roi_pooling_layer.cpp:33] Spatial scale: 0.25
I0419 05:37:25.963552 26406 net.cpp:150] Setting up roi_pool_org
I0419 05:37:25.963558 26406 net.cpp:157] Top shape: 128 513 7 7 (3217536)
I0419 05:37:25.963562 26406 net.cpp:165] Memory required for data: 3801399228
I0419 05:37:25.963565 26406 layer_factory.hpp:77] Creating layer roi_pool_ctx
I0419 05:37:25.963570 26406 net.cpp:100] Creating Layer roi_pool_ctx
I0419 05:37:25.963574 26406 net.cpp:434] roi_pool_ctx <- conv4_3_2x_new_conv4_3_2x_new_0_split_1
I0419 05:37:25.963578 26406 net.cpp:434] roi_pool_ctx <- rois_proposal_info_0_split_1
I0419 05:37:25.963584 26406 net.cpp:408] roi_pool_ctx -> roi_pool_ctx
I0419 05:37:25.963590 26406 roi_pooling_layer.cpp:33] Spatial scale: 0.25
I0419 05:37:25.963626 26406 net.cpp:150] Setting up roi_pool_ctx
I0419 05:37:25.963634 26406 net.cpp:157] Top shape: 128 513 7 7 (3217536)
I0419 05:37:25.963636 26406 net.cpp:165] Memory required for data: 3814269372
I0419 05:37:25.963639 26406 layer_factory.hpp:77] Creating layer roi_pool
I0419 05:37:25.963644 26406 net.cpp:100] Creating Layer roi_pool
I0419 05:37:25.963647 26406 net.cpp:434] roi_pool <- roi_pool_org
I0419 05:37:25.963651 26406 net.cpp:434] roi_pool <- roi_pool_ctx
I0419 05:37:25.963656 26406 net.cpp:408] roi_pool -> roi_pool
I0419 05:37:25.963678 26406 net.cpp:150] Setting up roi_pool
I0419 05:37:25.963685 26406 net.cpp:157] Top shape: 128 1026 7 7 (6435072)
I0419 05:37:25.963688 26406 net.cpp:165] Memory required for data: 3840009660
I0419 05:37:25.963691 26406 layer_factory.hpp:77] Creating layer roi_c1
I0419 05:37:25.963698 26406 net.cpp:100] Creating Layer roi_c1
I0419 05:37:25.963702 26406 net.cpp:434] roi_c1 <- roi_pool
I0419 05:37:25.963708 26406 net.cpp:408] roi_c1 -> roi_c1
I0419 05:37:26.078605 26406 net.cpp:150] Setting up roi_c1
I0419 05:37:26.078632 26406 net.cpp:157] Top shape: 128 512 5 5 (1638400)
I0419 05:37:26.078636 26406 net.cpp:165] Memory required for data: 3846563260
I0419 05:37:26.078644 26406 layer_factory.hpp:77] Creating layer roi_c1_relu
I0419 05:37:26.078653 26406 net.cpp:100] Creating Layer roi_c1_relu
I0419 05:37:26.078658 26406 net.cpp:434] roi_c1_relu <- roi_c1
I0419 05:37:26.078663 26406 net.cpp:395] roi_c1_relu -> roi_c1 (in-place)
I0419 05:37:26.078817 26406 net.cpp:150] Setting up roi_c1_relu
I0419 05:37:26.078826 26406 net.cpp:157] Top shape: 128 512 5 5 (1638400)
I0419 05:37:26.078830 26406 net.cpp:165] Memory required for data: 3853116860
I0419 05:37:26.078833 26406 layer_factory.hpp:77] Creating layer fc6
I0419 05:37:26.078843 26406 net.cpp:100] Creating Layer fc6
I0419 05:37:26.078847 26406 net.cpp:434] fc6 <- roi_c1
I0419 05:37:26.078855 26406 net.cpp:408] fc6 -> fc6
I0419 05:37:27.301753 26406 net.cpp:150] Setting up fc6
I0419 05:37:27.301790 26406 net.cpp:157] Top shape: 128 4096 (524288)
I0419 05:37:27.301795 26406 net.cpp:165] Memory required for data: 3855214012
I0419 05:37:27.301805 26406 layer_factory.hpp:77] Creating layer relu6
I0419 05:37:27.301815 26406 net.cpp:100] Creating Layer relu6
I0419 05:37:27.301823 26406 net.cpp:434] relu6 <- fc6
I0419 05:37:27.301828 26406 net.cpp:395] relu6 -> fc6 (in-place)
I0419 05:37:27.302068 26406 net.cpp:150] Setting up relu6
I0419 05:37:27.302078 26406 net.cpp:157] Top shape: 128 4096 (524288)
I0419 05:37:27.302081 26406 net.cpp:165] Memory required for data: 3857311164
I0419 05:37:27.302085 26406 layer_factory.hpp:77] Creating layer drop6
I0419 05:37:27.302093 26406 net.cpp:100] Creating Layer drop6
I0419 05:37:27.302096 26406 net.cpp:434] drop6 <- fc6
I0419 05:37:27.302100 26406 net.cpp:395] drop6 -> fc6 (in-place)
I0419 05:37:27.302124 26406 net.cpp:150] Setting up drop6
I0419 05:37:27.302132 26406 net.cpp:157] Top shape: 128 4096 (524288)
I0419 05:37:27.302135 26406 net.cpp:165] Memory required for data: 3859408316
I0419 05:37:27.302139 26406 layer_factory.hpp:77] Creating layer fc6_drop6_0_split
I0419 05:37:27.302143 26406 net.cpp:100] Creating Layer fc6_drop6_0_split
I0419 05:37:27.302147 26406 net.cpp:434] fc6_drop6_0_split <- fc6
I0419 05:37:27.302152 26406 net.cpp:408] fc6_drop6_0_split -> fc6_drop6_0_split_0
I0419 05:37:27.302160 26406 net.cpp:408] fc6_drop6_0_split -> fc6_drop6_0_split_1
I0419 05:37:27.302198 26406 net.cpp:150] Setting up fc6_drop6_0_split
I0419 05:37:27.302207 26406 net.cpp:157] Top shape: 128 4096 (524288)
I0419 05:37:27.302211 26406 net.cpp:157] Top shape: 128 4096 (524288)
I0419 05:37:27.302214 26406 net.cpp:165] Memory required for data: 3863602620
I0419 05:37:27.302217 26406 layer_factory.hpp:77] Creating layer cls_pred
I0419 05:37:27.302224 26406 net.cpp:100] Creating Layer cls_pred
I0419 05:37:27.302228 26406 net.cpp:434] cls_pred <- fc6_drop6_0_split_0
I0419 05:37:27.302234 26406 net.cpp:408] cls_pred -> cls_pred
I0419 05:37:27.302862 26406 net.cpp:150] Setting up cls_pred
I0419 05:37:27.302870 26406 net.cpp:157] Top shape: 128 5 (640)
I0419 05:37:27.302873 26406 net.cpp:165] Memory required for data: 3863605180
I0419 05:37:27.302880 26406 layer_factory.hpp:77] Creating layer cls_pred_cls_pred_0_split
I0419 05:37:27.302884 26406 net.cpp:100] Creating Layer cls_pred_cls_pred_0_split
I0419 05:37:27.302888 26406 net.cpp:434] cls_pred_cls_pred_0_split <- cls_pred
I0419 05:37:27.302893 26406 net.cpp:408] cls_pred_cls_pred_0_split -> cls_pred_cls_pred_0_split_0
I0419 05:37:27.302902 26406 net.cpp:408] cls_pred_cls_pred_0_split -> cls_pred_cls_pred_0_split_1
I0419 05:37:27.302940 26406 net.cpp:150] Setting up cls_pred_cls_pred_0_split
I0419 05:37:27.302947 26406 net.cpp:157] Top shape: 128 5 (640)
I0419 05:37:27.302953 26406 net.cpp:157] Top shape: 128 5 (640)
I0419 05:37:27.302956 26406 net.cpp:165] Memory required for data: 3863610300
I0419 05:37:27.302960 26406 layer_factory.hpp:77] Creating layer bbox_pred
I0419 05:37:27.302968 26406 net.cpp:100] Creating Layer bbox_pred
I0419 05:37:27.302971 26406 net.cpp:434] bbox_pred <- fc6_drop6_0_split_1
I0419 05:37:27.302978 26406 net.cpp:408] bbox_pred -> bbox_pred
I0419 05:37:27.305124 26406 net.cpp:150] Setting up bbox_pred
I0419 05:37:27.305131 26406 net.cpp:157] Top shape: 128 20 (2560)
I0419 05:37:27.305135 26406 net.cpp:165] Memory required for data: 3863620540
I0419 05:37:27.305138 26406 layer_factory.hpp:77] Creating layer bbox_pred_bbox_pred_0_split
I0419 05:37:27.305142 26406 net.cpp:100] Creating Layer bbox_pred_bbox_pred_0_split
I0419 05:37:27.305145 26406 net.cpp:434] bbox_pred_bbox_pred_0_split <- bbox_pred
I0419 05:37:27.305150 26406 net.cpp:408] bbox_pred_bbox_pred_0_split -> bbox_pred_bbox_pred_0_split_0
I0419 05:37:27.305155 26406 net.cpp:408] bbox_pred_bbox_pred_0_split -> bbox_pred_bbox_pred_0_split_1
I0419 05:37:27.305184 26406 net.cpp:150] Setting up bbox_pred_bbox_pred_0_split
I0419 05:37:27.305188 26406 net.cpp:157] Top shape: 128 20 (2560)
I0419 05:37:27.305191 26406 net.cpp:157] Top shape: 128 20 (2560)
I0419 05:37:27.305194 26406 net.cpp:165] Memory required for data: 3863641020
I0419 05:37:27.305197 26406 layer_factory.hpp:77] Creating layer loss_cls
I0419 05:37:27.305203 26406 net.cpp:100] Creating Layer loss_cls
I0419 05:37:27.305207 26406 net.cpp:434] loss_cls <- cls_pred_cls_pred_0_split_0
I0419 05:37:27.305212 26406 net.cpp:434] loss_cls <- proposal_labels_proposal_info_1_split_0
…
