…
    downsample_rate: 32
    downsample_rate: 32
    downsample_rate: 64
    coord_num: 4
    field_h: 60
    field_h: 84
    field_h: 120
    field_h: 168
    field_h: 240
    field_h: 336
    field_h: 480
    field_w: 60
    field_w: 84
    field_w: 120
    field_w: 168
    field_w: 240
    field_w: 336
    field_w: 480
    fg_threshold: 0.5
    resize_width: 1344
    resize_height: 768
    crop_width: 768
    crop_height: 768
    do_multiple_scale: true
    min_scale: 60
    max_scale: 480
    min_gt_height: 25
    shuffle: true
    output_gt_boxes: true
  }
}
layer {
  name: "conv1_1"
  type: "Convolution"
  bottom: "data"
  top: "conv1_1"
  param {
    lr_mult: 0
    decay_mult: 0
  }
  param {
    lr_mult: 0
    decay_mult: 0
  }
  convolution_param {
    num_output: 64
    pad: 1
    kernel_size: 3
  }
}
layer {
  name: "relu1_1"
  type: "ReLU"
  bottom: "conv1_1"
  top: "conv1_1"
}
layer {
  name: "conv1_2"
  type: "Convolution"
  bottom: "conv1_1"
  top: "conv1_2"
  param {
    lr_mult: 0
    decay_mult: 0
  }
  param {
    lr_mult: 0
    decay_mult: 0
  }
  convolution_param {
    num_output: 64
    pad: 1
    kernel_size: 3
  }
}
layer {
  name: "relu1_2"
  type: "ReLU"
  bottom: "conv1_2"
  top: "conv1_2"
}
layer {
  name: "pool1"
  type: "Pooling"
  bottom: "conv1_2"
  top: "pool1"
  pooling_param {
    pool: MAX
    kernel_size: 2
    stride: 2
  }
}
layer {
  name: "conv2_1"
  type: "Convolution"
  bottom: "pool1"
  top: "conv2_1"
  param {
    lr_mult: 0
    decay_mult: 0
  }
  param {
    lr_mult: 0
    decay_mult: 0
  }
  convolution_param {
    num_output: 128
    pad: 1
    kernel_size: 3
  }
}
layer {
  name: "relu2_1"
  type: "ReLU"
  bottom: "conv2_1"
  top: "conv2_1"
}
layer {
  name: "conv2_2"
  type: "Convolution"
  bottom: "conv2_1"
  top: "conv2_2"
  param {
    lr_mult: 0
    decay_mult: 0
  }
  param {
    lr_mult: 0
    decay_mult: 0
  }
  convolution_param {
    num_output: 128
    pad: 1
    kernel_size: 3
  }
}
layer {
  name: "relu2_2"
  type: "ReLU"
  bottom: "conv2_2"
  top: "conv2_2"
}
layer {
  name: "pool2"
  type: "Pooling"
  bottom: "conv2_2"
  top: "pool2"
  pooling_param {
    pool: MAX
    kernel_size: 2
    stride: 2
  }
}
layer {
  name: "conv3_1"
  type: "Convolution"
  bottom: "pool2"
  top: "conv3_1"
  convolution_param {
    num_output: 256
    pad: 1
    kernel_size: 3
  }
}
layer {
  name: "relu3_1"
  type: "ReLU"
  bottom: "conv3_1"
  top: "conv3_1"
}
layer {
  name: "conv3_2"
  type: "Convolution"
  bottom: "conv3_1"
  top: "conv3_2"
  convolution_param {
    num_output: 256
    pad: 1
    kernel_size: 3
  }
}
layer {
  name: "relu3_2"
  type: "ReLU"
  bottom: "conv3_2"
  top: "conv3_2"
}
layer {
  name: "scale3_1"
  type: "Power"
  bottom: "conv3_1"
  top: "conv3_1s"
  power_param {
    power: 1
    scale: 0.1
    shift: 0
  }
}
layer {
  name: "skip_conv3_2"
  type: "Eltwise"
  bottom: "conv3_2"
  bottom: "conv3_1s"
  top: "conv3_2_skip"
}
layer {
  name: "conv3_3"
  type: "Convolution"
  bottom: "conv3_2_skip"
  top: "conv3_3"
  convolution_param {
    num_output: 256
    pad: 1
    kernel_size: 3
  }
}
layer {
  name: "relu3_3"
  type: "ReLU"
  bottom: "conv3_3"
  top: "conv3_3"
}
layer {
  name: "pool3"
  type: "Pooling"
  bottom: "conv3_3"
  top: "pool3"
  pooling_param {
    pool: MAX
    kernel_size: 2
    stride: 2
  }
}
layer {
  name: "conv4_1"
  type: "Convolution"
  bottom: "pool3"
  top: "conv4_1"
  convolution_param {
    num_output: 512
    pad: 1
    kernel_size: 3
  }
}
layer {
  name: "relu4_1"
  type: "ReLU"
  bottom: "conv4_1"
  top: "conv4_1"
}
layer {
  name: "conv4_2"
  type: "Convolution"
  bottom: "conv4_1"
  top: "conv4_2"
  convolution_param {
    num_output: 512
    pad: 1
    kernel_size: 3
  }
}
layer {
  name: "relu4_2"
  type: "ReLU"
  bottom: "conv4_2"
  top: "conv4_2"
}
layer {
  name: "conv4_3"
  type: "Convolution"
  bottom: "conv4_2"
  top: "conv4_3"
  convolution_param {
    num_output: 512
    pad: 1
    kernel_size: 3
  }
}
layer {
  name: "relu4_3"
  type: "ReLU"
  bottom: "conv4_3"
  top: "conv4_3"
}
layer {
  name: "loss1_conv1"
  type: "Convolution"
  bottom: "conv4_3"
  top: "loss1_conv1"
  param {
    lr_mult: 1
    decay_mult: 1
  }
  param {
    lr_mult: 2
    decay_mult: 0
  }
  convolution_param {
    num_output: 512
    pad: 1
    kernel_size: 3
    weight_filler {
      type: "gaussian"
      std: 0.01
    }
    bias_filler {
      type: "constant"
    }
  }
}
layer {
  name: "loss_relu1"
  type: "ReLU"
  bottom: "loss1_conv1"
  top: "loss1_conv1"
}
layer {
  name: "LFCN_1_5x5"
  type: "Convolution"
  bottom: "loss1_conv1"
  top: "LFCN_1_5x5"
  param {
    lr_mult: 1
    decay_mult: 1
  }
  param {
    lr_mult: 2
    decay_mult: 0
  }
  convolution_param {
    num_output: 9
    pad: 2
    kernel_size: 5
    weight_filler {
      type: "gaussian"
      std: 0.001
    }
    bias_filler {
      type: "constant"
    }
  }
}
layer {
  name: "detection_loss_1_5x5"
  type: "DetectionLoss"
  bottom: "LFCN_1_5x5"
  bottom: "label_1_5x5"
  top: "loss_1_5x5"
  loss_weight: 0.9
  detection_loss_param {
    cls_num: 5
    coord_num: 4
    lambda: 1
    field_h: 60
    field_w: 60
    downsample_rate: 8
    bb_smooth: true
    field_whr: 2
    field_xyr: 2
    bg_threshold: 0.2
    bg_multiple: 2
    sample_mode: "bootstrap"
    pos_neg_weighted: true
  }
}
layer {
  name: "detection_accuracy_1_5x5"
  type: "DetectionAccuracy"
  bottom: "LFCN_1_5x5"
  bottom: "label_1_5x5"
  top: "accuracy_1_5x5"
  top: "boxiou_1_5x5"
  detection_accuracy_param {
    cls_num: 5
    coord_num: 4
    field_h: 60
    field_w: 60
    downsample_rate: 8
    field_whr: 2
    field_xyr: 2
  }
}
layer {
  name: "LFCN_1_7x7"
  type: "Convolution"
  bottom: "loss1_conv1"
  top: "LFCN_1_7x7"
  param {
    lr_mult: 1
    decay_mult: 1
  }
  param {
    lr_mult: 2
    decay_mult: 0
  }
  convolution_param {
    num_output: 9
    pad: 3
    kernel_size: 7
    weight_filler {
      type: "gaussian"
      std: 0.001
    }
    bias_filler {
      type: "constant"
    }
  }
}
layer {
  name: "detection_loss_1_7x7"
  type: "DetectionLoss"
  bottom: "LFCN_1_7x7"
  bottom: "label_1_7x7"
  top: "loss_1_7x7"
  loss_weight: 0.9
  detection_loss_param {
    cls_num: 5
    coord_num: 4
    lambda: 1
    field_h: 84
    field_w: 84
    downsample_rate: 8
    bb_smooth: true
    field_whr: 2
    field_xyr: 2
    bg_threshold: 0.2
    bg_multiple: 2
    sample_mode: "bootstrap"
    pos_neg_weighted: true
  }
}
layer {
  name: "detection_accuracy_1_7x7"
  type: "DetectionAccuracy"
  bottom: "LFCN_1_7x7"
  bottom: "label_1_7x7"
  top: "accuracy_1_7x7"
  top: "boxiou_1_7x7"
  detection_accuracy_param {
    cls_num: 5
    coord_num: 4
    field_h: 84
    field_w: 84
    downsample_rate: 8
    field_whr: 2
    field_xyr: 2
  }
}
layer {
  name: "pool4"
  type: "Pooling"
  bottom: "conv4_3"
  top: "pool4"
  pooling_param {
    pool: MAX
    kernel_size: 2
    stride: 2
  }
}
layer {
  name: "conv5_1"
  type: "Convolution"
  bottom: "pool4"
  top: "conv5_1"
  convolution_param {
    num_output: 512
    pad: 1
    kernel_size: 3
  }
}
layer {
  name: "relu5_1"
  type: "ReLU"
  bottom: "conv5_1"
  top: "conv5_1"
}
layer {
  name: "conv5_2"
  type: "Convolution"
  bottom: "conv5_1"
  top: "conv5_2"
  convolution_param {
    num_output: 512
    pad: 1
    kernel_size: 3
  }
}
layer {
  name: "relu5_2"
  type: "ReLU"
  bottom: "conv5_2"
  top: "conv5_2"
}
layer {
  name: "conv5_3"
  type: "Convolution"
  bottom: "conv5_2"
  top: "conv5_3"
  convolution_param {
    num_output: 512
    pad: 1
    kernel_size: 3
  }
}
layer {
  name: "relu5_3"
  type: "ReLU"
  bottom: "conv5_3"
  top: "conv5_3"
}
layer {
  name: "LFCN_2_5x5"
  type: "Convolution"
  bottom: "conv5_3"
  top: "LFCN_2_5x5"
  param {
    lr_mult: 1
    decay_mult: 1
  }
  param {
    lr_mult: 2
    decay_mult: 0
  }
  convolution_param {
    num_output: 9
    pad: 2
    kernel_size: 5
    weight_filler {
      type: "gaussian"
      std: 0.001
    }
    bias_filler {
      type: "constant"
    }
  }
}
layer {
  name: "detection_loss_2_5x5"
  type: "DetectionLoss"
  bottom: "LFCN_2_5x5"
  bottom: "label_2_5x5"
  top: "loss_2_5x5"
  detection_loss_param {
    cls_num: 5
    coord_num: 4
    lambda: 1
    field_h: 120
    field_w: 120
    downsample_rate: 16
    bb_smooth: true
    field_whr: 2
    field_xyr: 2
    bg_threshold: 0.2
    bg_multiple: 2
    sample_mode: "bootstrap"
    pos_neg_weighted: true
  }
}
layer {
  name: "detection_accuracy_2_5x5"
  type: "DetectionAccuracy"
  bottom: "LFCN_2_5x5"
  bottom: "label_2_5x5"
  top: "accuracy_2_5x5"
  top: "boxiou_2_5x5"
  detection_accuracy_param {
    cls_num: 5
    coord_num: 4
    field_h: 120
    field_w: 120
    downsample_rate: 16
    field_whr: 2
    field_xyr: 2
  }
}
layer {
  name: "LFCN_2_7x7"
  type: "Convolution"
  bottom: "conv5_3"
  top: "LFCN_2_7x7"
  param {
    lr_mult: 1
    decay_mult: 1
  }
  param {
    lr_mult: 2
    decay_mult: 0
  }
  convolution_param {
    num_output: 9
    pad: 3
    kernel_size: 7
    weight_filler {
      type: "gaussian"
      std: 0.001
    }
    bias_filler {
      type: "constant"
    }
  }
}
layer {
  name: "detection_loss_2_7x7"
  type: "DetectionLoss"
  bottom: "LFCN_2_7x7"
  bottom: "label_2_7x7"
  top: "loss_2_7x7"
  detection_loss_param {
    cls_num: 5
    coord_num: 4
    lambda: 1
    field_h: 168
    field_w: 168
    downsample_rate: 16
    bb_smooth: true
    field_whr: 2
    field_xyr: 2
    bg_threshold: 0.2
    bg_multiple: 2
    sample_mode: "bootstrap"
    pos_neg_weighted: true
  }
}
layer {
  name: "detection_accuracy_2_7x7"
  type: "DetectionAccuracy"
  bottom: "LFCN_2_7x7"
  bottom: "label_2_7x7"
  top: "accuracy_2_7x7"
  top: "boxiou_2_7x7"
  detection_accuracy_param {
    cls_num: 5
    coord_num: 4
    field_h: 168
    field_w: 168
    downsample_rate: 16
    field_whr: 2
    field_xyr: 2
  }
}
layer {
  name: "pool5"
  type: "Pooling"
  bottom: "conv5_3"
  top: "pool5"
  pooling_param {
    pool: MAX
    kernel_size: 2
    stride: 2
  }
}
layer {
  name: "conv6_1"
  type: "Convolution"
  bottom: "pool5"
  top: "conv6_1"
  param {
    lr_mult: 1
    decay_mult: 1
  }
  param {
    lr_mult: 2
    decay_mult: 0
  }
  convolution_param {
    num_output: 512
    pad: 1
    kernel_size: 3
    weight_filler {
      type: "gaussian"
      std: 0.01
    }
    bias_filler {
      type: "constant"
    }
  }
}
layer {
  name: "relu6_1"
  type: "ReLU"
  bottom: "conv6_1"
  top: "conv6_1"
}
layer {
  name: "LFCN_3_5x5"
  type: "Convolution"
  bottom: "conv6_1"
  top: "LFCN_3_5x5"
  param {
    lr_mult: 1
    decay_mult: 1
  }
  param {
    lr_mult: 2
    decay_mult: 0
  }
  convolution_param {
    num_output: 9
    pad: 2
    kernel_size: 5
    weight_filler {
      type: "gaussian"
      std: 0.001
    }
    bias_filler {
      type: "constant"
    }
  }
}
layer {
  name: "detection_loss_3_5x5"
  type: "DetectionLoss"
  bottom: "LFCN_3_5x5"
  bottom: "label_3_5x5"
  top: "loss_3_5x5"
  detection_loss_param {
    cls_num: 5
    coord_num: 4
    lambda: 1
    field_h: 240
    field_w: 240
    downsample_rate: 32
    bb_smooth: true
    field_whr: 2
    field_xyr: 2
    bg_threshold: 0.2
    bg_multiple: 2
    sample_mode: "bootstrap"
    pos_neg_weighted: true
  }
}
layer {
  name: "detection_accuracy_3_5x5"
  type: "DetectionAccuracy"
  bottom: "LFCN_3_5x5"
  bottom: "label_3_5x5"
  top: "accuracy_3_5x5"
  top: "boxiou_3_5x5"
  detection_accuracy_param {
    cls_num: 5
    coord_num: 4
    field_h: 240
    field_w: 240
    downsample_rate: 32
    field_whr: 2
    field_xyr: 2
  }
}
layer {
  name: "LFCN_3_7x7"
  type: "Convolution"
  bottom: "conv6_1"
  top: "LFCN_3_7x7"
  param {
    lr_mult: 1
    decay_mult: 1
  }
  param {
    lr_mult: 2
    decay_mult: 0
  }
  convolution_param {
    num_output: 9
    pad: 3
    kernel_size: 7
    weight_filler {
      type: "gaussian"
      std: 0.001
    }
    bias_filler {
      type: "constant"
    }
  }
}
layer {
  name: "detection_loss_3_7x7"
  type: "DetectionLoss"
  bottom: "LFCN_3_7x7"
  bottom: "label_3_7x7"
  top: "loss_3_7x7"
  detection_loss_param {
    cls_num: 5
    coord_num: 4
    lambda: 1
    field_h: 336
    field_w: 336
    downsample_rate: 32
    bb_smooth: true
    field_whr: 2
    field_xyr: 2
    bg_threshold: 0.2
    bg_multiple: 2
    sample_mode: "bootstrap"
    pos_neg_weighted: true
  }
}
layer {
  name: "detection_accuracy_3_7x7"
  type: "DetectionAccuracy"
  bottom: "LFCN_3_7x7"
  bottom: "label_3_7x7"
  top: "accuracy_3_7x7"
  top: "boxiou_3_7x7"
  detection_accuracy_param {
    cls_num: 5
    coord_num: 4
    field_h: 336
    field_w: 336
    downsample_rate: 32
    field_whr: 2
    field_xyr: 2
  }
}
layer {
  name: "pool6"
  type: "Pooling"
  bottom: "conv6_1"
  top: "pool6"
  pooling_param {
    pool: MAX
    kernel_size: 2
    stride: 2
  }
}
layer {
  name: "LFCN_4_5x5"
  type: "Convolution"
  bottom: "pool6"
  top: "LFCN_4_5x5"
  param {
    lr_mult: 1
    decay_mult: 1
  }
  param {
    lr_mult: 2
    decay_mult: 0
  }
  convolution_param {
    num_output: 9
    pad: 2
    kernel_size: 5
    weight_filler {
      type: "gaussian"
      std: 0.001
    }
    bias_filler {
      type: "constant"
    }
  }
}
layer {
  name: "detection_loss_4_5x5"
  type: "DetectionLoss"
  bottom: "LFCN_4_5x5"
  bottom: "label_4_5x5"
  top: "loss_4_5x5"
  detection_loss_param {
    cls_num: 5
    coord_num: 4
    lambda: 1
    field_h: 480
    field_w: 480
    downsample_rate: 64
    bb_smooth: true
    field_whr: 2
    field_xyr: 2
    bg_threshold: 0.2
    bg_multiple: 2
    sample_mode: "bootstrap"
    pos_neg_weighted: true
  }
}
layer {
  name: "detection_accuracy_4_5x5"
  type: "DetectionAccuracy"
  bottom: "LFCN_4_5x5"
  bottom: "label_4_5x5"
  top: "accuracy_4_5x5"
  top: "boxiou_4_5x5"
  detection_accuracy_param {
    cls_num: 5
    coord_num: 4
    field_h: 480
    field_w: 480
    downsample_rate: 64
    field_whr: 2
    field_xyr: 2
  }
}
layer {
  name: "proposals"
  type: "BoxOutput"
  bottom: "LFCN_1_5x5"
  bottom: "LFCN_1_7x7"
  bottom: "LFCN_2_5x5"
  bottom: "LFCN_2_7x7"
  bottom: "LFCN_3_5x5"
  bottom: "LFCN_3_7x7"
  bottom: "LFCN_4_5x5"
  top: "proposals"
  propagate_down: false
  propagate_down: false
  propagate_down: false
  propagate_down: false
  propagate_down: false
  propagate_down: false
  propagate_down: false
  box_output_param {
    fg_thr: -8
    iou_thr: 0.65
    nms_type: "IOU"
    field_h: 60
    field_h: 84
    field_h: 120
    field_h: 168
    field_h: 240
    field_h: 336
    field_h: 480
    field_w: 60
    field_w: 84
    field_w: 120
    field_w: 168
    field_w: 240
    field_w: 336
    field_w: 480
    downsample_rate: 8
    downsample_rate: 8
    downsample_rate: 16
    downsample_rate: 16
    downsample_rate: 32
    downsample_rate: 32
    downsample_rate: 64
    field_whr: 2
    field_xyr: 2
    max_nms_num: 3000
  }
}
layer {
  name: "proposal_info"
  type: "ProposalTarget"
  bottom: "proposals"
  bottom: "gt_boxes"
  top: "rois"
  top: "proposal_labels"
  top: "proposal_targets"
  top: "box_inside_weights"
  top: "box_outside_weights"
  top: "match_gt_boxes"
  include {
    phase: TRAIN
  }
  propagate_down: false
  propagate_down: false
  proposal_target_param {
    cls_num: 5
    batch_size: 256
    fg_fraction: 0.25
    num_img_per_batch: 4
    fg_thr: 0.5
    bg_thr_hg: 0.49
    bg_thr_lw: 0.1
    img_width: 768
    img_height: 576
  }
  bbox_reg_param {
    bbox_mean: 0
    bbox_mean: 0
    bbox_mean: 0
    bbox_mean: 0
    bbox_std: 0.1
    bbox_std: 0.1
    bbox_std: 0.2
    bbox_std: 0.2
  }
}
layer {
  name: "conv4_3_2x"
  type: "Deconvolution"
  bottom: "conv4_3"
  top: "conv4_3_2x"
  param {
    lr_mult: 0
    decay_mult: 0
  }
  convolution_param {
    num_output: 512
    bias_term: false
    pad: 1
    kernel_size: 4
    group: 512
    stride: 2
    weight_filler {
      type: "bilinear"
    }
  }
}
layer {
  name: "roi_pool_org"
  type: "ROIPooling"
  bottom: "conv4_3_2x"
  bottom: "rois"
  top: "roi_pool_org"
  roi_pooling_param {
    pooled_h: 7
    pooled_w: 7
    spatial_scale: 0.25
    pad_ratio: 0
  }
}
layer {
  name: "roi_pool_ctx"
  type: "ROIPooling"
  bottom: "conv4_3_2x"
  bottom: "rois"
  top: "roi_pool_ctx"
  roi_pooling_param {
    pooled_h: 7
    pooled_w: 7
    spatial_scale: 0.25
    pad_ratio: 0.25
  }
}
layer {
  name: "roi_pool"
  type: "Concat"
  bottom: "roi_pool_org"
  bottom: "roi_pool_ctx"
  top: "roi_pool"
}
layer {
  name: "roi_c1"
  type: "Convolution"
  bottom: "roi_pool"
  top: "roi_c1"
  param {
    lr_mult: 1
    decay_mult: 1
  }
  param {
    lr_mult: 2
    decay_mult: 0
  }
  convolution_param {
    num_output: 512
    kernel_size: 3
    weight_filler {
      type: "gaussian"
      std: 0.01
    }
    bias_filler {
      type: "constant"
    }
  }
}
layer {
  name: "roi_c1_relu"
  type: "ReLU"
  bottom: "roi_c1"
  top: "roi_c1"
}
layer {
  name: "fc6"
  type: "InnerProduct"
  bottom: "roi_c1"
  top: "fc6"
  param {
    lr_mult: 1
  }
  param {
    lr_mult: 2
  }
  inner_product_param {
    num_output: 4096
    weight_filler {
      type: "gaussian"
      std: 0.001
    }
    bias_filler {
      type: "constant"
      value: 0
    }
  }
}
layer {
  name: "relu6"
  type: "ReLU"
  bottom: "fc6"
  top: "fc6"
}
layer {
  name: "drop6"
  type: "Dropout"
  bottom: "fc6"
  top: "fc6"
  dropout_param {
    dropout_ratio: 0.5
  }
}
layer {
  name: "cls_pred"
  type: "InnerProduct"
  bottom: "fc6"
  top: "cls_pred"
  param {
    lr_mult: 1
  }
  param {
    lr_mult: 2
  }
  inner_product_param {
    num_output: 5
    weight_filler {
      type: "gaussian"
      std: 0.01
    }
    bias_filler {
      type: "constant"
      value: 0
    }
  }
}
layer {
  name: "bbox_pred"
  type: "InnerProduct"
  bottom: "fc6"
  top: "bbox_pred"
  param {
    lr_mult: 1
  }
  param {
    lr_mult: 2
  }
  inner_product_param {
    num_output: 20
    weight_filler {
      type: "gaussian"
      std: 0.001
    }
    bias_filler {
      type: "constant"
      value: 0
    }
  }
}
layer {
  name: "loss_cls"
  type: "SoftmaxWithLoss"
  bottom: "cls_pred"
  bottom: "proposal_labels"
  top: "loss_cls"
  loss_weight: 1
  propagate_down: true
  propagate_down: false
}
layer {
  name: "cls_accuracy"
  type: "Accuracy"
  bottom: "cls_pred"
  bottom: "proposal_labels"
  top: "cls_accuracy"
}
layer {
  name: "loss_bbox"
  type: "SmoothL1Loss"
  bottom: "bbox_pred"
  bottom: "proposal_targets"
  bottom: "box_inside_weights"
  bottom: "box_outside_weights"
  top: "loss_bbox"
  loss_weight: 1
}
layer {
  name: "bbox_iou"
  type: "BboxAccuracy"
  bottom: "bbox_pred"
  bottom: "rois"
  bottom: "match_gt_boxes"
  top: "bbox_iou"
  top: "bbox_iou_pre"
  bbox_reg_param {
    bbox_mean: 0
    bbox_mean: 0
    bbox_mean: 0
    bbox_mean: 0
    bbox_std: 0.1
    bbox_std: 0.1
    bbox_std: 0.2
    bbox_std: 0.2
  }
}
I1213 23:13:42.827391 28717 layer_factory.hpp:77] Creating layer data
I1213 23:13:42.827427 28717 net.cpp:100] Creating Layer data
I1213 23:13:42.827433 28717 net.cpp:408] data -> data
…
I1213 23:13:42.851303 28717 image_gt_data_layer.cpp:235] output label size 2 : 3,6,48,48
I1213 23:13:42.851341 28717 image_gt_data_layer.cpp:235] output label size 3 : 3,6,48,48
I1213 23:13:42.851377 28717 image_gt_data_layer.cpp:235] output label size 4 : 3,6,24,24
I1213 23:13:42.851425 28717 image_gt_data_layer.cpp:235] output label size 5 : 3,6,24,24
I1213 23:13:42.851469 28717 image_gt_data_layer.cpp:235] output label size 6 : 3,6,12,12
I1213 23:13:42.851511 28717 image_gt_data_layer.cpp:250] output gt boxes size: 1,7,1,1
I1213 23:13:42.890815 28717 net.cpp:150] Setting up data
I1213 23:13:42.890856 28717 net.cpp:157] Top shape: 3 3 768 768 (5308416)
I1213 23:13:42.890863 28717 net.cpp:157] Top shape: 3 6 96 96 (165888)
I1213 23:13:42.890869 28717 net.cpp:157] Top shape: 3 6 96 96 (165888)
I1213 23:13:42.890875 28717 net.cpp:157] Top shape: 3 6 48 48 (41472)
I1213 23:13:42.890882 28717 net.cpp:157] Top shape: 3 6 48 48 (41472)
I1213 23:13:42.890887 28717 net.cpp:157] Top shape: 3 6 24 24 (10368)
I1213 23:13:42.890893 28717 net.cpp:157] Top shape: 3 6 24 24 (10368)
I1213 23:13:42.890902 28717 net.cpp:157] Top shape: 3 6 12 12 (2592)
I1213 23:13:42.890909 28717 net.cpp:157] Top shape: 1 7 1 1 (7)
I1213 23:13:42.890915 28717 net.cpp:165] Memory required for data: 22985884
I1213 23:13:42.890928 28717 layer_factory.hpp:77] Creating layer label_1_5x5_data_1_split
I1213 23:13:42.890950 28717 net.cpp:100] Creating Layer label_1_5x5_data_1_split
I1213 23:13:42.890960 28717 net.cpp:434] label_1_5x5_data_1_split <- label_1_5x5
I1213 23:13:42.890976 28717 net.cpp:408] label_1_5x5_data_1_split -> label_1_5x5_data_1_split_0
I1213 23:13:42.890988 28717 net.cpp:408] label_1_5x5_data_1_split -> label_1_5x5_data_1_split_1
I1213 23:13:42.891142 28717 net.cpp:150] Setting up label_1_5x5_data_1_split
I1213 23:13:42.891193 28717 net.cpp:157] Top shape: 3 6 96 96 (165888)
I1213 23:13:42.891212 28717 net.cpp:157] Top shape: 3 6 96 96 (165888)
I1213 23:13:42.891227 28717 net.cpp:165] Memory required for data: 24312988
I1213 23:13:42.891245 28717 layer_factory.hpp:77] Creating layer label_1_7x7_data_2_split
I1213 23:13:42.891268 28717 net.cpp:100] Creating Layer label_1_7x7_data_2_split
I1213 23:13:42.891279 28717 net.cpp:434] label_1_7x7_data_2_split <- label_1_7x7
I1213 23:13:42.891295 28717 net.cpp:408] label_1_7x7_data_2_split -> label_1_7x7_data_2_split_0
I1213 23:13:42.891314 28717 net.cpp:408] label_1_7x7_data_2_split -> label_1_7x7_data_2_split_1
I1213 23:13:42.891384 28717 net.cpp:150] Setting up label_1_7x7_data_2_split
I1213 23:13:42.891398 28717 net.cpp:157] Top shape: 3 6 96 96 (165888)
I1213 23:13:42.891409 28717 net.cpp:157] Top shape: 3 6 96 96 (165888)
I1213 23:13:42.891419 28717 net.cpp:165] Memory required for data: 25640092
I1213 23:13:42.891428 28717 layer_factory.hpp:77] Creating layer label_2_5x5_data_3_split
I1213 23:13:42.891440 28717 net.cpp:100] Creating Layer label_2_5x5_data_3_split
I1213 23:13:42.891450 28717 net.cpp:434] label_2_5x5_data_3_split <- label_2_5x5
I1213 23:13:42.891464 28717 net.cpp:408] label_2_5x5_data_3_split -> label_2_5x5_data_3_split_0
I1213 23:13:42.891479 28717 net.cpp:408] label_2_5x5_data_3_split -> label_2_5x5_data_3_split_1
I1213 23:13:42.891536 28717 net.cpp:150] Setting up label_2_5x5_data_3_split
I1213 23:13:42.891549 28717 net.cpp:157] Top shape: 3 6 48 48 (41472)
I1213 23:13:42.891561 28717 net.cpp:157] Top shape: 3 6 48 48 (41472)
I1213 23:13:42.891569 28717 net.cpp:165] Memory required for data: 25971868
I1213 23:13:42.891579 28717 layer_factory.hpp:77] Creating layer label_2_7x7_data_4_split
I1213 23:13:42.891592 28717 net.cpp:100] Creating Layer label_2_7x7_data_4_split
I1213 23:13:42.891602 28717 net.cpp:434] label_2_7x7_data_4_split <- label_2_7x7
I1213 23:13:42.891614 28717 net.cpp:408] label_2_7x7_data_4_split -> label_2_7x7_data_4_split_0
I1213 23:13:42.891628 28717 net.cpp:408] label_2_7x7_data_4_split -> label_2_7x7_data_4_split_1
I1213 23:13:42.891690 28717 net.cpp:150] Setting up label_2_7x7_data_4_split
I1213 23:13:42.891702 28717 net.cpp:157] Top shape: 3 6 48 48 (41472)
I1213 23:13:42.891716 28717 net.cpp:157] Top shape: 3 6 48 48 (41472)
I1213 23:13:42.891724 28717 net.cpp:165] Memory required for data: 26303644
I1213 23:13:42.891733 28717 layer_factory.hpp:77] Creating layer label_3_5x5_data_5_split
I1213 23:13:42.891744 28717 net.cpp:100] Creating Layer label_3_5x5_data_5_split
I1213 23:13:42.891753 28717 net.cpp:434] label_3_5x5_data_5_split <- label_3_5x5
I1213 23:13:42.891767 28717 net.cpp:408] label_3_5x5_data_5_split -> label_3_5x5_data_5_split_0
I1213 23:13:42.891779 28717 net.cpp:408] label_3_5x5_data_5_split -> label_3_5x5_data_5_split_1
I1213 23:13:42.891836 28717 net.cpp:150] Setting up label_3_5x5_data_5_split
I1213 23:13:42.891849 28717 net.cpp:157] Top shape: 3 6 24 24 (10368)
I1213 23:13:42.891861 28717 net.cpp:157] Top shape: 3 6 24 24 (10368)
I1213 23:13:42.891870 28717 net.cpp:165] Memory required for data: 26386588
I1213 23:13:42.891880 28717 layer_factory.hpp:77] Creating layer label_3_7x7_data_6_split
I1213 23:13:42.891891 28717 net.cpp:100] Creating Layer label_3_7x7_data_6_split
I1213 23:13:42.891899 28717 net.cpp:434] label_3_7x7_data_6_split <- label_3_7x7
I1213 23:13:42.891912 28717 net.cpp:408] label_3_7x7_data_6_split -> label_3_7x7_data_6_split_0
I1213 23:13:42.891927 28717 net.cpp:408] label_3_7x7_data_6_split -> label_3_7x7_data_6_split_1
I1213 23:13:42.891985 28717 net.cpp:150] Setting up label_3_7x7_data_6_split
I1213 23:13:42.891999 28717 net.cpp:157] Top shape: 3 6 24 24 (10368)
I1213 23:13:42.892009 28717 net.cpp:157] Top shape: 3 6 24 24 (10368)
I1213 23:13:42.892019 28717 net.cpp:165] Memory required for data: 26469532
I1213 23:13:42.892029 28717 layer_factory.hpp:77] Creating layer label_4_5x5_data_7_split
I1213 23:13:42.892037 28717 net.cpp:100] Creating Layer label_4_5x5_data_7_split
I1213 23:13:42.892046 28717 net.cpp:434] label_4_5x5_data_7_split <- label_4_5x5
I1213 23:13:42.892060 28717 net.cpp:408] label_4_5x5_data_7_split -> label_4_5x5_data_7_split_0
I1213 23:13:42.892073 28717 net.cpp:408] label_4_5x5_data_7_split -> label_4_5x5_data_7_split_1
I1213 23:13:42.892130 28717 net.cpp:150] Setting up label_4_5x5_data_7_split
I1213 23:13:42.892143 28717 net.cpp:157] Top shape: 3 6 12 12 (2592)
I1213 23:13:42.892154 28717 net.cpp:157] Top shape: 3 6 12 12 (2592)
I1213 23:13:42.892163 28717 net.cpp:165] Memory required for data: 26490268
I1213 23:13:42.892172 28717 layer_factory.hpp:77] Creating layer conv1_1
I1213 23:13:42.892197 28717 net.cpp:100] Creating Layer conv1_1
I1213 23:13:42.892206 28717 net.cpp:434] conv1_1 <- data
I1213 23:13:42.892220 28717 net.cpp:408] conv1_1 -> conv1_1
I1213 23:13:43.130743 28717 net.cpp:150] Setting up conv1_1
I1213 23:13:43.130772 28717 net.cpp:157] Top shape: 3 64 768 768 (113246208)
I1213 23:13:43.130776 28717 net.cpp:165] Memory required for data: 479475100
I1213 23:13:43.130795 28717 layer_factory.hpp:77] Creating layer relu1_1
I1213 23:13:43.130805 28717 net.cpp:100] Creating Layer relu1_1
I1213 23:13:43.130811 28717 net.cpp:434] relu1_1 <- conv1_1
I1213 23:13:43.130816 28717 net.cpp:395] relu1_1 -> conv1_1 (in-place)
I1213 23:13:43.130985 28717 net.cpp:150] Setting up relu1_1
I1213 23:13:43.130992 28717 net.cpp:157] Top shape: 3 64 768 768 (113246208)
I1213 23:13:43.130996 28717 net.cpp:165] Memory required for data: 932459932
I1213 23:13:43.131000 28717 layer_factory.hpp:77] Creating layer conv1_2
I1213 23:13:43.131009 28717 net.cpp:100] Creating Layer conv1_2
I1213 23:13:43.131012 28717 net.cpp:434] conv1_2 <- conv1_1
I1213 23:13:43.131017 28717 net.cpp:408] conv1_2 -> conv1_2
I1213 23:13:43.133306 28717 net.cpp:150] Setting up conv1_2
I1213 23:13:43.133322 28717 net.cpp:157] Top shape: 3 64 768 768 (113246208)
I1213 23:13:43.133325 28717 net.cpp:165] Memory required for data: 1385444764
I1213 23:13:43.133335 28717 layer_factory.hpp:77] Creating layer relu1_2
I1213 23:13:43.133342 28717 net.cpp:100] Creating Layer relu1_2
I1213 23:13:43.133345 28717 net.cpp:434] relu1_2 <- conv1_2
I1213 23:13:43.133354 28717 net.cpp:395] relu1_2 -> conv1_2 (in-place)
I1213 23:13:43.133517 28717 net.cpp:150] Setting up relu1_2
I1213 23:13:43.133525 28717 net.cpp:157] Top shape: 3 64 768 768 (113246208)
I1213 23:13:43.133528 28717 net.cpp:165] Memory required for data: 1838429596
I1213 23:13:43.133532 28717 layer_factory.hpp:77] Creating layer pool1
I1213 23:13:43.133538 28717 net.cpp:100] Creating Layer pool1
I1213 23:13:43.133543 28717 net.cpp:434] pool1 <- conv1_2
I1213 23:13:43.133548 28717 net.cpp:408] pool1 -> pool1
I1213 23:13:43.133599 28717 net.cpp:150] Setting up pool1
I1213 23:13:43.133605 28717 net.cpp:157] Top shape: 3 64 384 384 (28311552)
I1213 23:13:43.133607 28717 net.cpp:165] Memory required for data: 1951675804
I1213 23:13:43.133610 28717 layer_factory.hpp:77] Creating layer conv2_1
I1213 23:13:43.133618 28717 net.cpp:100] Creating Layer conv2_1
I1213 23:13:43.133621 28717 net.cpp:434] conv2_1 <- pool1
I1213 23:13:43.133626 28717 net.cpp:408] conv2_1 -> conv2_1
I1213 23:13:43.135757 28717 net.cpp:150] Setting up conv2_1
I1213 23:13:43.135772 28717 net.cpp:157] Top shape: 3 128 384 384 (56623104)
I1213 23:13:43.135776 28717 net.cpp:165] Memory required for data: 2178168220
I1213 23:13:43.135783 28717 layer_factory.hpp:77] Creating layer relu2_1
I1213 23:13:43.135789 28717 net.cpp:100] Creating Layer relu2_1
I1213 23:13:43.135792 28717 net.cpp:434] relu2_1 <- conv2_1
I1213 23:13:43.135797 28717 net.cpp:395] relu2_1 -> conv2_1 (in-place)
I1213 23:13:43.135937 28717 net.cpp:150] Setting up relu2_1
I1213 23:13:43.135946 28717 net.cpp:157] Top shape: 3 128 384 384 (56623104)
I1213 23:13:43.135951 28717 net.cpp:165] Memory required for data: 2404660636
I1213 23:13:43.135953 28717 layer_factory.hpp:77] Creating layer conv2_2
I1213 23:13:43.135960 28717 net.cpp:100] Creating Layer conv2_2
I1213 23:13:43.135963 28717 net.cpp:434] conv2_2 <- conv2_1
I1213 23:13:43.135969 28717 net.cpp:408] conv2_2 -> conv2_2
I1213 23:13:43.137323 28717 net.cpp:150] Setting up conv2_2
I1213 23:13:43.137336 28717 net.cpp:157] Top shape: 3 128 384 384 (56623104)
I1213 23:13:43.137338 28717 net.cpp:165] Memory required for data: 2631153052
I1213 23:13:43.137344 28717 layer_factory.hpp:77] Creating layer relu2_2
I1213 23:13:43.137352 28717 net.cpp:100] Creating Layer relu2_2
I1213 23:13:43.137356 28717 net.cpp:434] relu2_2 <- conv2_2
I1213 23:13:43.137362 28717 net.cpp:395] relu2_2 -> conv2_2 (in-place)
I1213 23:13:43.137513 28717 net.cpp:150] Setting up relu2_2
I1213 23:13:43.137522 28717 net.cpp:157] Top shape: 3 128 384 384 (56623104)
I1213 23:13:43.137526 28717 net.cpp:165] Memory required for data: 2857645468
I1213 23:13:43.137528 28717 layer_factory.hpp:77] Creating layer pool2
I1213 23:13:43.137534 28717 net.cpp:100] Creating Layer pool2
I1213 23:13:43.137537 28717 net.cpp:434] pool2 <- conv2_2
I1213 23:13:43.137543 28717 net.cpp:408] pool2 -> pool2
I1213 23:13:43.137578 28717 net.cpp:150] Setting up pool2
I1213 23:13:43.137584 28717 net.cpp:157] Top shape: 3 128 192 192 (14155776)
I1213 23:13:43.137588 28717 net.cpp:165] Memory required for data: 2914268572
I1213 23:13:43.137590 28717 layer_factory.hpp:77] Creating layer conv3_1
I1213 23:13:43.137598 28717 net.cpp:100] Creating Layer conv3_1
I1213 23:13:43.137601 28717 net.cpp:434] conv3_1 <- pool2
I1213 23:13:43.137605 28717 net.cpp:408] conv3_1 -> conv3_1
I1213 23:13:43.139761 28717 net.cpp:150] Setting up conv3_1
I1213 23:13:43.139773 28717 net.cpp:157] Top shape: 3 256 192 192 (28311552)
I1213 23:13:43.139776 28717 net.cpp:165] Memory required for data: 3027514780
I1213 23:13:43.139786 28717 layer_factory.hpp:77] Creating layer relu3_1
I1213 23:13:43.139791 28717 net.cpp:100] Creating Layer relu3_1
I1213 23:13:43.139794 28717 net.cpp:434] relu3_1 <- conv3_1
I1213 23:13:43.139798 28717 net.cpp:395] relu3_1 -> conv3_1 (in-place)
I1213 23:13:43.140200 28717 net.cpp:150] Setting up relu3_1
I1213 23:13:43.140213 28717 net.cpp:157] Top shape: 3 256 192 192 (28311552)
I1213 23:13:43.140215 28717 net.cpp:165] Memory required for data: 3140760988
I1213 23:13:43.140219 28717 layer_factory.hpp:77] Creating layer conv3_1_relu3_1_0_split
I1213 23:13:43.140226 28717 net.cpp:100] Creating Layer conv3_1_relu3_1_0_split
I1213 23:13:43.140229 28717 net.cpp:434] conv3_1_relu3_1_0_split <- conv3_1
I1213 23:13:43.140234 28717 net.cpp:408] conv3_1_relu3_1_0_split -> conv3_1_relu3_1_0_split_0
I1213 23:13:43.140240 28717 net.cpp:408] conv3_1_relu3_1_0_split -> conv3_1_relu3_1_0_split_1
I1213 23:13:43.140275 28717 net.cpp:150] Setting up conv3_1_relu3_1_0_split
I1213 23:13:43.140280 28717 net.cpp:157] Top shape: 3 256 192 192 (28311552)
I1213 23:13:43.140285 28717 net.cpp:157] Top shape: 3 256 192 192 (28311552)
I1213 23:13:43.140287 28717 net.cpp:165] Memory required for data: 3367253404
I1213 23:13:43.140290 28717 layer_factory.hpp:77] Creating layer conv3_2
I1213 23:13:43.140297 28717 net.cpp:100] Creating Layer conv3_2
I1213 23:13:43.140300 28717 net.cpp:434] conv3_2 <- conv3_1_relu3_1_0_split_0
I1213 23:13:43.140305 28717 net.cpp:408] conv3_2 -> conv3_2
I1213 23:13:43.142418 28717 net.cpp:150] Setting up conv3_2
I1213 23:13:43.142433 28717 net.cpp:157] Top shape: 3 256 192 192 (28311552)
I1213 23:13:43.142436 28717 net.cpp:165] Memory required for data: 3480499612
I1213 23:13:43.142443 28717 layer_factory.hpp:77] Creating layer relu3_2
I1213 23:13:43.142449 28717 net.cpp:100] Creating Layer relu3_2
I1213 23:13:43.142453 28717 net.cpp:434] relu3_2 <- conv3_2
I1213 23:13:43.142458 28717 net.cpp:395] relu3_2 -> conv3_2 (in-place)
I1213 23:13:43.142916 28717 net.cpp:150] Setting up relu3_2
I1213 23:13:43.142932 28717 net.cpp:157] Top shape: 3 256 192 192 (28311552)
I1213 23:13:43.142936 28717 net.cpp:165] Memory required for data: 3593745820
I1213 23:13:43.142940 28717 layer_factory.hpp:77] Creating layer scale3_1
I1213 23:13:43.142947 28717 net.cpp:100] Creating Layer scale3_1
I1213 23:13:43.142952 28717 net.cpp:434] scale3_1 <- conv3_1_relu3_1_0_split_1
I1213 23:13:43.142958 28717 net.cpp:408] scale3_1 -> conv3_1s
I1213 23:13:43.142988 28717 net.cpp:150] Setting up scale3_1
I1213 23:13:43.142994 28717 net.cpp:157] Top shape: 3 256 192 192 (28311552)
I1213 23:13:43.142997 28717 net.cpp:165] Memory required for data: 3706992028
I1213 23:13:43.143000 28717 layer_factory.hpp:77] Creating layer skip_conv3_2
I1213 23:13:43.143012 28717 net.cpp:100] Creating Layer skip_conv3_2
I1213 23:13:43.143021 28717 net.cpp:434] skip_conv3_2 <- conv3_2
I1213 23:13:43.143025 28717 net.cpp:434] skip_conv3_2 <- conv3_1s
I1213 23:13:43.143029 28717 net.cpp:408] skip_conv3_2 -> conv3_2_skip
I1213 23:13:43.143052 28717 net.cpp:150] Setting up skip_conv3_2
I1213 23:13:43.143057 28717 net.cpp:157] Top shape: 3 256 192 192 (28311552)
I1213 23:13:43.143061 28717 net.cpp:165] Memory required for data: 3820238236
I1213 23:13:43.143064 28717 layer_factory.hpp:77] Creating layer conv3_3
I1213 23:13:43.143071 28717 net.cpp:100] Creating Layer conv3_3
I1213 23:13:43.143074 28717 net.cpp:434] conv3_3 <- conv3_2_skip
I1213 23:13:43.143079 28717 net.cpp:408] conv3_3 -> conv3_3
I1213 23:13:43.145612 28717 net.cpp:150] Setting up conv3_3
I1213 23:13:43.145633 28717 net.cpp:157] Top shape: 3 256 192 192 (28311552)
I1213 23:13:43.145638 28717 net.cpp:165] Memory required for data: 3933484444
I1213 23:13:43.145648 28717 layer_factory.hpp:77] Creating layer relu3_3
I1213 23:13:43.145658 28717 net.cpp:100] Creating Layer relu3_3
I1213 23:13:43.145663 28717 net.cpp:434] relu3_3 <- conv3_3
I1213 23:13:43.145668 28717 net.cpp:395] relu3_3 -> conv3_3 (in-place)
I1213 23:13:43.145833 28717 net.cpp:150] Setting up relu3_3
I1213 23:13:43.145841 28717 net.cpp:157] Top shape: 3 256 192 192 (28311552)
I1213 23:13:43.145844 28717 net.cpp:165] Memory required for data: 4046730652
I1213 23:13:43.145848 28717 layer_factory.hpp:77] Creating layer pool3
I1213 23:13:43.145855 28717 net.cpp:100] Creating Layer pool3
I1213 23:13:43.145859 28717 net.cpp:434] pool3 <- conv3_3
I1213 23:13:43.145864 28717 net.cpp:408] pool3 -> pool3
I1213 23:13:43.145900 28717 net.cpp:150] Setting up pool3
I1213 23:13:43.145905 28717 net.cpp:157] Top shape: 3 256 96 96 (7077888)
I1213 23:13:43.145908 28717 net.cpp:165] Memory required for data: 4075042204
I1213 23:13:43.145911 28717 layer_factory.hpp:77] Creating layer conv4_1
I1213 23:13:43.145920 28717 net.cpp:100] Creating Layer conv4_1
I1213 23:13:43.145922 28717 net.cpp:434] conv4_1 <- pool3
I1213 23:13:43.145927 28717 net.cpp:408] conv4_1 -> conv4_1
I1213 23:13:43.150539 28717 net.cpp:150] Setting up conv4_1
I1213 23:13:43.150565 28717 net.cpp:157] Top shape: 3 512 96 96 (14155776)
I1213 23:13:43.150570 28717 net.cpp:165] Memory required for data: 4131665308
I1213 23:13:43.150578 28717 layer_factory.hpp:77] Creating layer relu4_1
I1213 23:13:43.150591 28717 net.cpp:100] Creating Layer relu4_1
I1213 23:13:43.150596 28717 net.cpp:434] relu4_1 <- conv4_1
I1213 23:13:43.150604 28717 net.cpp:395] relu4_1 -> conv4_1 (in-place)
I1213 23:13:43.150764 28717 net.cpp:150] Setting up relu4_1
I1213 23:13:43.150774 28717 net.cpp:157] Top shape: 3 512 96 96 (14155776)
I1213 23:13:43.150777 28717 net.cpp:165] Memory required for data: 4188288412
I1213 23:13:43.150780 28717 layer_factory.hpp:77] Creating layer conv4_2
I1213 23:13:43.150789 28717 net.cpp:100] Creating Layer conv4_2
I1213 23:13:43.150792 28717 net.cpp:434] conv4_2 <- conv4_1
I1213 23:13:43.150799 28717 net.cpp:408] conv4_2 -> conv4_2
I1213 23:13:43.156513 28717 net.cpp:150] Setting up conv4_2
I1213 23:13:43.156543 28717 net.cpp:157] Top shape: 3 512 96 96 (14155776)
I1213 23:13:43.156548 28717 net.cpp:165] Memory required for data: 4244911516
I1213 23:13:43.156560 28717 layer_factory.hpp:77] Creating layer relu4_2
I1213 23:13:43.156571 28717 net.cpp:100] Creating Layer relu4_2
I1213 23:13:43.156576 28717 net.cpp:434] relu4_2 <- conv4_2
I1213 23:13:43.156581 28717 net.cpp:395] relu4_2 -> conv4_2 (in-place)
I1213 23:13:43.156713 28717 net.cpp:150] Setting up relu4_2
I1213 23:13:43.156721 28717 net.cpp:157] Top shape: 3 512 96 96 (14155776)
I1213 23:13:43.156724 28717 net.cpp:165] Memory required for data: 4301534620
I1213 23:13:43.156728 28717 layer_factory.hpp:77] Creating layer conv4_3
I1213 23:13:43.156739 28717 net.cpp:100] Creating Layer conv4_3
I1213 23:13:43.156744 28717 net.cpp:434] conv4_3 <- conv4_2
I1213 23:13:43.156750 28717 net.cpp:408] conv4_3 -> conv4_3
I1213 23:13:43.162896 28717 net.cpp:150] Setting up conv4_3
I1213 23:13:43.162928 28717 net.cpp:157] Top shape: 3 512 96 96 (14155776)
I1213 23:13:43.162932 28717 net.cpp:165] Memory required for data: 4358157724
I1213 23:13:43.162940 28717 layer_factory.hpp:77] Creating layer relu4_3
I1213 23:13:43.162952 28717 net.cpp:100] Creating Layer relu4_3
I1213 23:13:43.162957 28717 net.cpp:434] relu4_3 <- conv4_3
I1213 23:13:43.162966 28717 net.cpp:395] relu4_3 -> conv4_3 (in-place)
I1213 23:13:43.163118 28717 net.cpp:150] Setting up relu4_3
I1213 23:13:43.163127 28717 net.cpp:157] Top shape: 3 512 96 96 (14155776)
I1213 23:13:43.163130 28717 net.cpp:165] Memory required for data: 4414780828
I1213 23:13:43.163133 28717 layer_factory.hpp:77] Creating layer conv4_3_relu4_3_0_split
I1213 23:13:43.163141 28717 net.cpp:100] Creating Layer conv4_3_relu4_3_0_split
I1213 23:13:43.163143 28717 net.cpp:434] conv4_3_relu4_3_0_split <- conv4_3
I1213 23:13:43.163149 28717 net.cpp:408] conv4_3_relu4_3_0_split -> conv4_3_relu4_3_0_split_0
I1213 23:13:43.163156 28717 net.cpp:408] conv4_3_relu4_3_0_split -> conv4_3_relu4_3_0_split_1
I1213 23:13:43.163161 28717 net.cpp:408] conv4_3_relu4_3_0_split -> conv4_3_relu4_3_0_split_2
I1213 23:13:43.163206 28717 net.cpp:150] Setting up conv4_3_relu4_3_0_split
I1213 23:13:43.163213 28717 net.cpp:157] Top shape: 3 512 96 96 (14155776)
I1213 23:13:43.163216 28717 net.cpp:157] Top shape: 3 512 96 96 (14155776)
I1213 23:13:43.163220 28717 net.cpp:157] Top shape: 3 512 96 96 (14155776)
I1213 23:13:43.163223 28717 net.cpp:165] Memory required for data: 4584650140
I1213 23:13:43.163226 28717 layer_factory.hpp:77] Creating layer loss1_conv1
I1213 23:13:43.163239 28717 net.cpp:100] Creating Layer loss1_conv1
I1213 23:13:43.163244 28717 net.cpp:434] loss1_conv1 <- conv4_3_relu4_3_0_split_0
I1213 23:13:43.163249 28717 net.cpp:408] loss1_conv1 -> loss1_conv1
I1213 23:13:43.223255 28717 net.cpp:150] Setting up loss1_conv1
I1213 23:13:43.223281 28717 net.cpp:157] Top shape: 3 512 96 96 (14155776)
I1213 23:13:43.223285 28717 net.cpp:165] Memory required for data: 4641273244
I1213 23:13:43.223294 28717 layer_factory.hpp:77] Creating layer loss_relu1
I1213 23:13:43.223307 28717 net.cpp:100] Creating Layer loss_relu1
I1213 23:13:43.223314 28717 net.cpp:434] loss_relu1 <- loss1_conv1
I1213 23:13:43.223320 28717 net.cpp:395] loss_relu1 -> loss1_conv1 (in-place)
I1213 23:13:43.223763 28717 net.cpp:150] Setting up loss_relu1
I1213 23:13:43.223775 28717 net.cpp:157] Top shape: 3 512 96 96 (14155776)
I1213 23:13:43.223778 28717 net.cpp:165] Memory required for data: 4697896348
I1213 23:13:43.223783 28717 layer_factory.hpp:77] Creating layer loss1_conv1_loss_relu1_0_split
I1213 23:13:43.223789 28717 net.cpp:100] Creating Layer loss1_conv1_loss_relu1_0_split
I1213 23:13:43.223794 28717 net.cpp:434] loss1_conv1_loss_relu1_0_split <- loss1_conv1
I1213 23:13:43.223800 28717 net.cpp:408] loss1_conv1_loss_relu1_0_split -> loss1_conv1_loss_relu1_0_split_0
I1213 23:13:43.223809 28717 net.cpp:408] loss1_conv1_loss_relu1_0_split -> loss1_conv1_loss_relu1_0_split_1
I1213 23:13:43.223851 28717 net.cpp:150] Setting up loss1_conv1_loss_relu1_0_split
I1213 23:13:43.223860 28717 net.cpp:157] Top shape: 3 512 96 96 (14155776)
I1213 23:13:43.223865 28717 net.cpp:157] Top shape: 3 512 96 96 (14155776)
I1213 23:13:43.223868 28717 net.cpp:165] Memory required for data: 4811142556
I1213 23:13:43.223871 28717 layer_factory.hpp:77] Creating layer LFCN_1_5x5
I1213 23:13:43.223884 28717 net.cpp:100] Creating Layer LFCN_1_5x5
I1213 23:13:43.223888 28717 net.cpp:434] LFCN_1_5x5 <- loss1_conv1_loss_relu1_0_split_0
I1213 23:13:43.223897 28717 net.cpp:408] LFCN_1_5x5 -> LFCN_1_5x5
I1213 23:13:43.227504 28717 net.cpp:150] Setting up LFCN_1_5x5
I1213 23:13:43.227514 28717 net.cpp:157] Top shape: 3 9 96 96 (248832)
I1213 23:13:43.227517 28717 net.cpp:165] Memory required for data: 4812137884
I1213 23:13:43.227524 28717 layer_factory.hpp:77] Creating layer LFCN_1_5x5_LFCN_1_5x5_0_split
I1213 23:13:43.227529 28717 net.cpp:100] Creating Layer LFCN_1_5x5_LFCN_1_5x5_0_split
I1213 23:13:43.227531 28717 net.cpp:434] LFCN_1_5x5_LFCN_1_5x5_0_split <- LFCN_1_5x5
I1213 23:13:43.227537 28717 net.cpp:408] LFCN_1_5x5_LFCN_1_5x5_0_split -> LFCN_1_5x5_LFCN_1_5x5_0_split_0
I1213 23:13:43.227543 28717 net.cpp:408] LFCN_1_5x5_LFCN_1_5x5_0_split -> LFCN_1_5x5_LFCN_1_5x5_0_split_1
I1213 23:13:43.227550 28717 net.cpp:408] LFCN_1_5x5_LFCN_1_5x5_0_split -> LFCN_1_5x5_LFCN_1_5x5_0_split_2
I1213 23:13:43.227596 28717 net.cpp:150] Setting up LFCN_1_5x5_LFCN_1_5x5_0_split
I1213 23:13:43.227602 28717 net.cpp:157] Top shape: 3 9 96 96 (248832)
I1213 23:13:43.227607 28717 net.cpp:157] Top shape: 3 9 96 96 (248832)
I1213 23:13:43.227610 28717 net.cpp:157] Top shape: 3 9 96 96 (248832)
I1213 23:13:43.227613 28717 net.cpp:165] Memory required for data: 4815123868
I1213 23:13:43.227617 28717 layer_factory.hpp:77] Creating layer detection_loss_1_5x5
I1213 23:13:43.227623 28717 net.cpp:100] Creating Layer detection_loss_1_5x5
I1213 23:13:43.227628 28717 net.cpp:434] detection_loss_1_5x5 <- LFCN_1_5x5_LFCN_1_5x5_0_split_0
I1213 23:13:43.227632 28717 net.cpp:434] detection_loss_1_5x5 <- label_1_5x5_data_1_split_0
I1213 23:13:43.227638 28717 net.cpp:408] detection_loss_1_5x5 -> loss_1_5x5
I1213 23:13:43.227648 28717 layer_factory.hpp:77] Creating layer detection_loss_1_5x5
I1213 23:13:43.229164 28717 net.cpp:150] Setting up detection_loss_1_5x5
I1213 23:13:43.229178 28717 net.cpp:157] Top shape: 1 1 1 2 (2)
I1213 23:13:43.229182 28717 net.cpp:160]     with loss weight 0.9
I1213 23:13:43.229200 28717 net.cpp:165] Memory required for data: 4815123876
I1213 23:13:43.229205 28717 layer_factory.hpp:77] Creating layer detection_accuracy_1_5x5
I1213 23:13:43.229212 28717 net.cpp:100] Creating Layer detection_accuracy_1_5x5
I1213 23:13:43.229216 28717 net.cpp:434] detection_accuracy_1_5x5 <- LFCN_1_5x5_LFCN_1_5x5_0_split_1
I1213 23:13:43.229221 28717 net.cpp:434] detection_accuracy_1_5x5 <- label_1_5x5_data_1_split_1
I1213 23:13:43.229226 28717 net.cpp:408] detection_accuracy_1_5x5 -> accuracy_1_5x5
I1213 23:13:43.229235 28717 net.cpp:408] detection_accuracy_1_5x5 -> boxiou_1_5x5
I1213 23:13:43.229271 28717 net.cpp:150] Setting up detection_accuracy_1_5x5
I1213 23:13:43.229279 28717 net.cpp:157] Top shape: 1 1 1 2 (2)
I1213 23:13:43.229282 28717 net.cpp:157] Top shape: 1 1 1 1 (1)
I1213 23:13:43.229285 28717 net.cpp:165] Memory required for data: 4815123888
I1213 23:13:43.229290 28717 layer_factory.hpp:77] Creating layer LFCN_1_7x7
I1213 23:13:43.229300 28717 net.cpp:100] Creating Layer LFCN_1_7x7
I1213 23:13:43.229305 28717 net.cpp:434] LFCN_1_7x7 <- loss1_conv1_loss_relu1_0_split_1
I1213 23:13:43.229310 28717 net.cpp:408] LFCN_1_7x7 -> LFCN_1_7x7
I1213 23:13:43.235568 28717 net.cpp:150] Setting up LFCN_1_7x7
I1213 23:13:43.235580 28717 net.cpp:157] Top shape: 3 9 96 96 (248832)
I1213 23:13:43.235584 28717 net.cpp:165] Memory required for data: 4816119216
I1213 23:13:43.235589 28717 layer_factory.hpp:77] Creating layer LFCN_1_7x7_LFCN_1_7x7_0_split
I1213 23:13:43.235596 28717 net.cpp:100] Creating Layer LFCN_1_7x7_LFCN_1_7x7_0_split
I1213 23:13:43.235600 28717 net.cpp:434] LFCN_1_7x7_LFCN_1_7x7_0_split <- LFCN_1_7x7
I1213 23:13:43.235605 28717 net.cpp:408] LFCN_1_7x7_LFCN_1_7x7_0_split -> LFCN_1_7x7_LFCN_1_7x7_0_split_0
I1213 23:13:43.235611 28717 net.cpp:408] LFCN_1_7x7_LFCN_1_7x7_0_split -> LFCN_1_7x7_LFCN_1_7x7_0_split_1
I1213 23:13:43.235616 28717 net.cpp:408] LFCN_1_7x7_LFCN_1_7x7_0_split -> LFCN_1_7x7_LFCN_1_7x7_0_split_2
I1213 23:13:43.235661 28717 net.cpp:150] Setting up LFCN_1_7x7_LFCN_1_7x7_0_split
I1213 23:13:43.235666 28717 net.cpp:157] Top shape: 3 9 96 96 (248832)
I1213 23:13:43.235671 28717 net.cpp:157] Top shape: 3 9 96 96 (248832)
I1213 23:13:43.235675 28717 net.cpp:157] Top shape: 3 9 96 96 (248832)
I1213 23:13:43.235678 28717 net.cpp:165] Memory required for data: 4819105200
I1213 23:13:43.235682 28717 layer_factory.hpp:77] Creating layer detection_loss_1_7x7
I1213 23:13:43.235687 28717 net.cpp:100] Creating Layer detection_loss_1_7x7
I1213 23:13:43.235692 28717 net.cpp:434] detection_loss_1_7x7 <- LFCN_1_7x7_LFCN_1_7x7_0_split_0
I1213 23:13:43.235695 28717 net.cpp:434] detection_loss_1_7x7 <- label_1_7x7_data_2_split_0
I1213 23:13:43.235700 28717 net.cpp:408] detection_loss_1_7x7 -> loss_1_7x7
I1213 23:13:43.235707 28717 layer_factory.hpp:77] Creating layer detection_loss_1_7x7
I1213 23:13:43.236161 28717 net.cpp:150] Setting up detection_loss_1_7x7
I1213 23:13:43.236171 28717 net.cpp:157] Top shape: 1 1 1 2 (2)
I1213 23:13:43.236174 28717 net.cpp:160]     with loss weight 0.9
I1213 23:13:43.236181 28717 net.cpp:165] Memory required for data: 4819105208
I1213 23:13:43.236184 28717 layer_factory.hpp:77] Creating layer detection_accuracy_1_7x7
I1213 23:13:43.236191 28717 net.cpp:100] Creating Layer detection_accuracy_1_7x7
I1213 23:13:43.236193 28717 net.cpp:434] detection_accuracy_1_7x7 <- LFCN_1_7x7_LFCN_1_7x7_0_split_1
I1213 23:13:43.236198 28717 net.cpp:434] detection_accuracy_1_7x7 <- label_1_7x7_data_2_split_1
I1213 23:13:43.236203 28717 net.cpp:408] detection_accuracy_1_7x7 -> accuracy_1_7x7
I1213 23:13:43.236210 28717 net.cpp:408] detection_accuracy_1_7x7 -> boxiou_1_7x7
I1213 23:13:43.236244 28717 net.cpp:150] Setting up detection_accuracy_1_7x7
I1213 23:13:43.236250 28717 net.cpp:157] Top shape: 1 1 1 2 (2)
I1213 23:13:43.236254 28717 net.cpp:157] Top shape: 1 1 1 1 (1)
I1213 23:13:43.236258 28717 net.cpp:165] Memory required for data: 4819105220
I1213 23:13:43.236260 28717 layer_factory.hpp:77] Creating layer pool4
I1213 23:13:43.236268 28717 net.cpp:100] Creating Layer pool4
I1213 23:13:43.236270 28717 net.cpp:434] pool4 <- conv4_3_relu4_3_0_split_1
I1213 23:13:43.236275 28717 net.cpp:408] pool4 -> pool4
I1213 23:13:43.236308 28717 net.cpp:150] Setting up pool4
I1213 23:13:43.236315 28717 net.cpp:157] Top shape: 3 512 48 48 (3538944)
I1213 23:13:43.236317 28717 net.cpp:165] Memory required for data: 4833260996
I1213 23:13:43.236320 28717 layer_factory.hpp:77] Creating layer conv5_1
I1213 23:13:43.236326 28717 net.cpp:100] Creating Layer conv5_1
I1213 23:13:43.236330 28717 net.cpp:434] conv5_1 <- pool4
I1213 23:13:43.236335 28717 net.cpp:408] conv5_1 -> conv5_1
I1213 23:13:43.242094 28717 net.cpp:150] Setting up conv5_1
I1213 23:13:43.242122 28717 net.cpp:157] Top shape: 3 512 48 48 (3538944)
I1213 23:13:43.242125 28717 net.cpp:165] Memory required for data: 4847416772
I1213 23:13:43.242135 28717 layer_factory.hpp:77] Creating layer relu5_1
I1213 23:13:43.242146 28717 net.cpp:100] Creating Layer relu5_1
I1213 23:13:43.242152 28717 net.cpp:434] relu5_1 <- conv5_1
I1213 23:13:43.242159 28717 net.cpp:395] relu5_1 -> conv5_1 (in-place)
I1213 23:13:43.242328 28717 net.cpp:150] Setting up relu5_1
I1213 23:13:43.242337 28717 net.cpp:157] Top shape: 3 512 48 48 (3538944)
I1213 23:13:43.242341 28717 net.cpp:165] Memory required for data: 4861572548
I1213 23:13:43.242344 28717 layer_factory.hpp:77] Creating layer conv5_2
I1213 23:13:43.242352 28717 net.cpp:100] Creating Layer conv5_2
I1213 23:13:43.242357 28717 net.cpp:434] conv5_2 <- conv5_1
I1213 23:13:43.242362 28717 net.cpp:408] conv5_2 -> conv5_2
I1213 23:13:43.248168 28717 net.cpp:150] Setting up conv5_2
I1213 23:13:43.248198 28717 net.cpp:157] Top shape: 3 512 48 48 (3538944)
I1213 23:13:43.248201 28717 net.cpp:165] Memory required for data: 4875728324
I1213 23:13:43.248208 28717 layer_factory.hpp:77] Creating layer relu5_2
I1213 23:13:43.248219 28717 net.cpp:100] Creating Layer relu5_2
I1213 23:13:43.248225 28717 net.cpp:434] relu5_2 <- conv5_2
I1213 23:13:43.248231 28717 net.cpp:395] relu5_2 -> conv5_2 (in-place)
I1213 23:13:43.248375 28717 net.cpp:150] Setting up relu5_2
I1213 23:13:43.248384 28717 net.cpp:157] Top shape: 3 512 48 48 (3538944)
I1213 23:13:43.248387 28717 net.cpp:165] Memory required for data: 4889884100
I1213 23:13:43.248390 28717 layer_factory.hpp:77] Creating layer conv5_3
I1213 23:13:43.248400 28717 net.cpp:100] Creating Layer conv5_3
I1213 23:13:43.248404 28717 net.cpp:434] conv5_3 <- conv5_2
I1213 23:13:43.248409 28717 net.cpp:408] conv5_3 -> conv5_3
I1213 23:13:43.254249 28717 net.cpp:150] Setting up conv5_3
I1213 23:13:43.254279 28717 net.cpp:157] Top shape: 3 512 48 48 (3538944)
I1213 23:13:43.254283 28717 net.cpp:165] Memory required for data: 4904039876
I1213 23:13:43.254293 28717 layer_factory.hpp:77] Creating layer relu5_3
I1213 23:13:43.254307 28717 net.cpp:100] Creating Layer relu5_3
I1213 23:13:43.254314 28717 net.cpp:434] relu5_3 <- conv5_3
I1213 23:13:43.254321 28717 net.cpp:395] relu5_3 -> conv5_3 (in-place)
I1213 23:13:43.254482 28717 net.cpp:150] Setting up relu5_3
I1213 23:13:43.254492 28717 net.cpp:157] Top shape: 3 512 48 48 (3538944)
I1213 23:13:43.254494 28717 net.cpp:165] Memory required for data: 4918195652
I1213 23:13:43.254498 28717 layer_factory.hpp:77] Creating layer conv5_3_relu5_3_0_split
I1213 23:13:43.254504 28717 net.cpp:100] Creating Layer conv5_3_relu5_3_0_split
I1213 23:13:43.254508 28717 net.cpp:434] conv5_3_relu5_3_0_split <- conv5_3
I1213 23:13:43.254514 28717 net.cpp:408] conv5_3_relu5_3_0_split -> conv5_3_relu5_3_0_split_0
I1213 23:13:43.254528 28717 net.cpp:408] conv5_3_relu5_3_0_split -> conv5_3_relu5_3_0_split_1
I1213 23:13:43.254534 28717 net.cpp:408] conv5_3_relu5_3_0_split -> conv5_3_relu5_3_0_split_2
I1213 23:13:43.254581 28717 net.cpp:150] Setting up conv5_3_relu5_3_0_split
I1213 23:13:43.254587 28717 net.cpp:157] Top shape: 3 512 48 48 (3538944)
I1213 23:13:43.254591 28717 net.cpp:157] Top shape: 3 512 48 48 (3538944)
I1213 23:13:43.254595 28717 net.cpp:157] Top shape: 3 512 48 48 (3538944)
I1213 23:13:43.254598 28717 net.cpp:165] Memory required for data: 4960662980
I1213 23:13:43.254601 28717 layer_factory.hpp:77] Creating layer LFCN_2_5x5
I1213 23:13:43.254616 28717 net.cpp:100] Creating Layer LFCN_2_5x5
I1213 23:13:43.254621 28717 net.cpp:434] LFCN_2_5x5 <- conv5_3_relu5_3_0_split_0
I1213 23:13:43.254626 28717 net.cpp:408] LFCN_2_5x5 -> LFCN_2_5x5
I1213 23:13:43.259630 28717 net.cpp:150] Setting up LFCN_2_5x5
I1213 23:13:43.259652 28717 net.cpp:157] Top shape: 3 9 48 48 (62208)
I1213 23:13:43.259655 28717 net.cpp:165] Memory required for data: 4960911812
I1213 23:13:43.259670 28717 layer_factory.hpp:77] Creating layer LFCN_2_5x5_LFCN_2_5x5_0_split
I1213 23:13:43.259680 28717 net.cpp:100] Creating Layer LFCN_2_5x5_LFCN_2_5x5_0_split
I1213 23:13:43.259685 28717 net.cpp:434] LFCN_2_5x5_LFCN_2_5x5_0_split <- LFCN_2_5x5
I1213 23:13:43.259690 28717 net.cpp:408] LFCN_2_5x5_LFCN_2_5x5_0_split -> LFCN_2_5x5_LFCN_2_5x5_0_split_0
I1213 23:13:43.259698 28717 net.cpp:408] LFCN_2_5x5_LFCN_2_5x5_0_split -> LFCN_2_5x5_LFCN_2_5x5_0_split_1
I1213 23:13:43.259703 28717 net.cpp:408] LFCN_2_5x5_LFCN_2_5x5_0_split -> LFCN_2_5x5_LFCN_2_5x5_0_split_2
I1213 23:13:43.259752 28717 net.cpp:150] Setting up LFCN_2_5x5_LFCN_2_5x5_0_split
I1213 23:13:43.259757 28717 net.cpp:157] Top shape: 3 9 48 48 (62208)
I1213 23:13:43.259762 28717 net.cpp:157] Top shape: 3 9 48 48 (62208)
I1213 23:13:43.259765 28717 net.cpp:157] Top shape: 3 9 48 48 (62208)
I1213 23:13:43.259768 28717 net.cpp:165] Memory required for data: 4961658308
I1213 23:13:43.259771 28717 layer_factory.hpp:77] Creating layer detection_loss_2_5x5
I1213 23:13:43.259779 28717 net.cpp:100] Creating Layer detection_loss_2_5x5
I1213 23:13:43.259783 28717 net.cpp:434] detection_loss_2_5x5 <- LFCN_2_5x5_LFCN_2_5x5_0_split_0
I1213 23:13:43.259788 28717 net.cpp:434] detection_loss_2_5x5 <- label_2_5x5_data_3_split_0
I1213 23:13:43.259793 28717 net.cpp:408] detection_loss_2_5x5 -> loss_2_5x5
I1213 23:13:43.259801 28717 layer_factory.hpp:77] Creating layer detection_loss_2_5x5
I1213 23:13:43.260442 28717 net.cpp:150] Setting up detection_loss_2_5x5
I1213 23:13:43.260453 28717 net.cpp:157] Top shape: 1 1 1 2 (2)
I1213 23:13:43.260457 28717 net.cpp:160]     with loss weight 1
I1213 23:13:43.260466 28717 net.cpp:165] Memory required for data: 4961658316
I1213 23:13:43.260470 28717 layer_factory.hpp:77] Creating layer detection_accuracy_2_5x5
I1213 23:13:43.260478 28717 net.cpp:100] Creating Layer detection_accuracy_2_5x5
I1213 23:13:43.260484 28717 net.cpp:434] detection_accuracy_2_5x5 <- LFCN_2_5x5_LFCN_2_5x5_0_split_1
I1213 23:13:43.260489 28717 net.cpp:434] detection_accuracy_2_5x5 <- label_2_5x5_data_3_split_1
I1213 23:13:43.260495 28717 net.cpp:408] detection_accuracy_2_5x5 -> accuracy_2_5x5
I1213 23:13:43.260502 28717 net.cpp:408] detection_accuracy_2_5x5 -> boxiou_2_5x5
I1213 23:13:43.260538 28717 net.cpp:150] Setting up detection_accuracy_2_5x5
I1213 23:13:43.260545 28717 net.cpp:157] Top shape: 1 1 1 2 (2)
I1213 23:13:43.260548 28717 net.cpp:157] Top shape: 1 1 1 1 (1)
I1213 23:13:43.260551 28717 net.cpp:165] Memory required for data: 4961658328
I1213 23:13:43.260555 28717 layer_factory.hpp:77] Creating layer LFCN_2_7x7
I1213 23:13:43.260563 28717 net.cpp:100] Creating Layer LFCN_2_7x7
I1213 23:13:43.260568 28717 net.cpp:434] LFCN_2_7x7 <- conv5_3_relu5_3_0_split_1
I1213 23:13:43.260576 28717 net.cpp:408] LFCN_2_7x7 -> LFCN_2_7x7
I1213 23:13:43.266587 28717 net.cpp:150] Setting up LFCN_2_7x7
I1213 23:13:43.266598 28717 net.cpp:157] Top shape: 3 9 48 48 (62208)
I1213 23:13:43.266602 28717 net.cpp:165] Memory required for data: 4961907160
I1213 23:13:43.266607 28717 layer_factory.hpp:77] Creating layer LFCN_2_7x7_LFCN_2_7x7_0_split
I1213 23:13:43.266613 28717 net.cpp:100] Creating Layer LFCN_2_7x7_LFCN_2_7x7_0_split
I1213 23:13:43.266618 28717 net.cpp:434] LFCN_2_7x7_LFCN_2_7x7_0_split <- LFCN_2_7x7
I1213 23:13:43.266623 28717 net.cpp:408] LFCN_2_7x7_LFCN_2_7x7_0_split -> LFCN_2_7x7_LFCN_2_7x7_0_split_0
I1213 23:13:43.266628 28717 net.cpp:408] LFCN_2_7x7_LFCN_2_7x7_0_split -> LFCN_2_7x7_LFCN_2_7x7_0_split_1
I1213 23:13:43.266633 28717 net.cpp:408] LFCN_2_7x7_LFCN_2_7x7_0_split -> LFCN_2_7x7_LFCN_2_7x7_0_split_2
I1213 23:13:43.266676 28717 net.cpp:150] Setting up LFCN_2_7x7_LFCN_2_7x7_0_split
I1213 23:13:43.266682 28717 net.cpp:157] Top shape: 3 9 48 48 (62208)
I1213 23:13:43.266686 28717 net.cpp:157] Top shape: 3 9 48 48 (62208)
I1213 23:13:43.266690 28717 net.cpp:157] Top shape: 3 9 48 48 (62208)
I1213 23:13:43.266693 28717 net.cpp:165] Memory required for data: 4962653656
I1213 23:13:43.266696 28717 layer_factory.hpp:77] Creating layer detection_loss_2_7x7
I1213 23:13:43.266702 28717 net.cpp:100] Creating Layer detection_loss_2_7x7
I1213 23:13:43.266706 28717 net.cpp:434] detection_loss_2_7x7 <- LFCN_2_7x7_LFCN_2_7x7_0_split_0
I1213 23:13:43.266710 28717 net.cpp:434] detection_loss_2_7x7 <- label_2_7x7_data_4_split_0
I1213 23:13:43.266716 28717 net.cpp:408] detection_loss_2_7x7 -> loss_2_7x7
I1213 23:13:43.266721 28717 layer_factory.hpp:77] Creating layer detection_loss_2_7x7
I1213 23:13:43.267369 28717 net.cpp:150] Setting up detection_loss_2_7x7
I1213 23:13:43.267385 28717 net.cpp:157] Top shape: 1 1 1 2 (2)
I1213 23:13:43.267387 28717 net.cpp:160]     with loss weight 1
I1213 23:13:43.267393 28717 net.cpp:165] Memory required for data: 4962653664
I1213 23:13:43.267396 28717 layer_factory.hpp:77] Creating layer detection_accuracy_2_7x7
I1213 23:13:43.267402 28717 net.cpp:100] Creating Layer detection_accuracy_2_7x7
I1213 23:13:43.267406 28717 net.cpp:434] detection_accuracy_2_7x7 <- LFCN_2_7x7_LFCN_2_7x7_0_split_1
I1213 23:13:43.267411 28717 net.cpp:434] detection_accuracy_2_7x7 <- label_2_7x7_data_4_split_1
I1213 23:13:43.267417 28717 net.cpp:408] detection_accuracy_2_7x7 -> accuracy_2_7x7
I1213 23:13:43.267426 28717 net.cpp:408] detection_accuracy_2_7x7 -> boxiou_2_7x7
I1213 23:13:43.267462 28717 net.cpp:150] Setting up detection_accuracy_2_7x7
I1213 23:13:43.267470 28717 net.cpp:157] Top shape: 1 1 1 2 (2)
I1213 23:13:43.267474 28717 net.cpp:157] Top shape: 1 1 1 1 (1)
I1213 23:13:43.267477 28717 net.cpp:165] Memory required for data: 4962653676
I1213 23:13:43.267480 28717 layer_factory.hpp:77] Creating layer pool5
I1213 23:13:43.267488 28717 net.cpp:100] Creating Layer pool5
I1213 23:13:43.267491 28717 net.cpp:434] pool5 <- conv5_3_relu5_3_0_split_2
I1213 23:13:43.267495 28717 net.cpp:408] pool5 -> pool5
I1213 23:13:43.267530 28717 net.cpp:150] Setting up pool5
I1213 23:13:43.267536 28717 net.cpp:157] Top shape: 3 512 24 24 (884736)
I1213 23:13:43.267539 28717 net.cpp:165] Memory required for data: 4966192620
I1213 23:13:43.267542 28717 layer_factory.hpp:77] Creating layer conv6_1
I1213 23:13:43.267552 28717 net.cpp:100] Creating Layer conv6_1
I1213 23:13:43.267556 28717 net.cpp:434] conv6_1 <- pool5
I1213 23:13:43.267562 28717 net.cpp:408] conv6_1 -> conv6_1
I1213 23:13:43.325964 28717 net.cpp:150] Setting up conv6_1
I1213 23:13:43.325987 28717 net.cpp:157] Top shape: 3 512 24 24 (884736)
I1213 23:13:43.325991 28717 net.cpp:165] Memory required for data: 4969731564
I1213 23:13:43.325999 28717 layer_factory.hpp:77] Creating layer relu6_1
I1213 23:13:43.326014 28717 net.cpp:100] Creating Layer relu6_1
I1213 23:13:43.326020 28717 net.cpp:434] relu6_1 <- conv6_1
I1213 23:13:43.326026 28717 net.cpp:395] relu6_1 -> conv6_1 (in-place)
I1213 23:13:43.326184 28717 net.cpp:150] Setting up relu6_1
I1213 23:13:43.326194 28717 net.cpp:157] Top shape: 3 512 24 24 (884736)
I1213 23:13:43.326196 28717 net.cpp:165] Memory required for data: 4973270508
I1213 23:13:43.326200 28717 layer_factory.hpp:77] Creating layer conv6_1_relu6_1_0_split
I1213 23:13:43.326207 28717 net.cpp:100] Creating Layer conv6_1_relu6_1_0_split
I1213 23:13:43.326211 28717 net.cpp:434] conv6_1_relu6_1_0_split <- conv6_1
I1213 23:13:43.326216 28717 net.cpp:408] conv6_1_relu6_1_0_split -> conv6_1_relu6_1_0_split_0
I1213 23:13:43.326225 28717 net.cpp:408] conv6_1_relu6_1_0_split -> conv6_1_relu6_1_0_split_1
I1213 23:13:43.326231 28717 net.cpp:408] conv6_1_relu6_1_0_split -> conv6_1_relu6_1_0_split_2
I1213 23:13:43.326277 28717 net.cpp:150] Setting up conv6_1_relu6_1_0_split
I1213 23:13:43.326283 28717 net.cpp:157] Top shape: 3 512 24 24 (884736)
I1213 23:13:43.326287 28717 net.cpp:157] Top shape: 3 512 24 24 (884736)
I1213 23:13:43.326292 28717 net.cpp:157] Top shape: 3 512 24 24 (884736)
I1213 23:13:43.326294 28717 net.cpp:165] Memory required for data: 4983887340
I1213 23:13:43.326297 28717 layer_factory.hpp:77] Creating layer LFCN_3_5x5
I1213 23:13:43.326308 28717 net.cpp:100] Creating Layer LFCN_3_5x5
I1213 23:13:43.326313 28717 net.cpp:434] LFCN_3_5x5 <- conv6_1_relu6_1_0_split_0
I1213 23:13:43.326318 28717 net.cpp:408] LFCN_3_5x5 -> LFCN_3_5x5
I1213 23:13:43.330034 28717 net.cpp:150] Setting up LFCN_3_5x5
I1213 23:13:43.330045 28717 net.cpp:157] Top shape: 3 9 24 24 (15552)
I1213 23:13:43.330047 28717 net.cpp:165] Memory required for data: 4983949548
I1213 23:13:43.330061 28717 layer_factory.hpp:77] Creating layer LFCN_3_5x5_LFCN_3_5x5_0_split
I1213 23:13:43.330068 28717 net.cpp:100] Creating Layer LFCN_3_5x5_LFCN_3_5x5_0_split
I1213 23:13:43.330071 28717 net.cpp:434] LFCN_3_5x5_LFCN_3_5x5_0_split <- LFCN_3_5x5
I1213 23:13:43.330076 28717 net.cpp:408] LFCN_3_5x5_LFCN_3_5x5_0_split -> LFCN_3_5x5_LFCN_3_5x5_0_split_0
I1213 23:13:43.330081 28717 net.cpp:408] LFCN_3_5x5_LFCN_3_5x5_0_split -> LFCN_3_5x5_LFCN_3_5x5_0_split_1
I1213 23:13:43.330085 28717 net.cpp:408] LFCN_3_5x5_LFCN_3_5x5_0_split -> LFCN_3_5x5_LFCN_3_5x5_0_split_2
I1213 23:13:43.330124 28717 net.cpp:150] Setting up LFCN_3_5x5_LFCN_3_5x5_0_split
I1213 23:13:43.330130 28717 net.cpp:157] Top shape: 3 9 24 24 (15552)
I1213 23:13:43.330135 28717 net.cpp:157] Top shape: 3 9 24 24 (15552)
I1213 23:13:43.330138 28717 net.cpp:157] Top shape: 3 9 24 24 (15552)
I1213 23:13:43.330142 28717 net.cpp:165] Memory required for data: 4984136172
I1213 23:13:43.330145 28717 layer_factory.hpp:77] Creating layer detection_loss_3_5x5
I1213 23:13:43.330152 28717 net.cpp:100] Creating Layer detection_loss_3_5x5
I1213 23:13:43.330155 28717 net.cpp:434] detection_loss_3_5x5 <- LFCN_3_5x5_LFCN_3_5x5_0_split_0
I1213 23:13:43.330159 28717 net.cpp:434] detection_loss_3_5x5 <- label_3_5x5_data_5_split_0
I1213 23:13:43.330166 28717 net.cpp:408] detection_loss_3_5x5 -> loss_3_5x5
I1213 23:13:43.330174 28717 layer_factory.hpp:77] Creating layer detection_loss_3_5x5
I1213 23:13:43.330483 28717 net.cpp:150] Setting up detection_loss_3_5x5
I1213 23:13:43.330493 28717 net.cpp:157] Top shape: 1 1 1 2 (2)
I1213 23:13:43.330497 28717 net.cpp:160]     with loss weight 1
I1213 23:13:43.330507 28717 net.cpp:165] Memory required for data: 4984136180
I1213 23:13:43.330510 28717 layer_factory.hpp:77] Creating layer detection_accuracy_3_5x5
I1213 23:13:43.330516 28717 net.cpp:100] Creating Layer detection_accuracy_3_5x5
I1213 23:13:43.330521 28717 net.cpp:434] detection_accuracy_3_5x5 <- LFCN_3_5x5_LFCN_3_5x5_0_split_1
I1213 23:13:43.330525 28717 net.cpp:434] detection_accuracy_3_5x5 <- label_3_5x5_data_5_split_1
I1213 23:13:43.330531 28717 net.cpp:408] detection_accuracy_3_5x5 -> accuracy_3_5x5
I1213 23:13:43.330539 28717 net.cpp:408] detection_accuracy_3_5x5 -> boxiou_3_5x5
I1213 23:13:43.330574 28717 net.cpp:150] Setting up detection_accuracy_3_5x5
I1213 23:13:43.330580 28717 net.cpp:157] Top shape: 1 1 1 2 (2)
I1213 23:13:43.330585 28717 net.cpp:157] Top shape: 1 1 1 1 (1)
I1213 23:13:43.330586 28717 net.cpp:165] Memory required for data: 4984136192
I1213 23:13:43.330590 28717 layer_factory.hpp:77] Creating layer LFCN_3_7x7
I1213 23:13:43.330597 28717 net.cpp:100] Creating Layer LFCN_3_7x7
I1213 23:13:43.330602 28717 net.cpp:434] LFCN_3_7x7 <- conv6_1_relu6_1_0_split_1
I1213 23:13:43.330608 28717 net.cpp:408] LFCN_3_7x7 -> LFCN_3_7x7
I1213 23:13:43.337414 28717 net.cpp:150] Setting up LFCN_3_7x7
I1213 23:13:43.337429 28717 net.cpp:157] Top shape: 3 9 24 24 (15552)
I1213 23:13:43.337432 28717 net.cpp:165] Memory required for data: 4984198400
I1213 23:13:43.337438 28717 layer_factory.hpp:77] Creating layer LFCN_3_7x7_LFCN_3_7x7_0_split
I1213 23:13:43.337445 28717 net.cpp:100] Creating Layer LFCN_3_7x7_LFCN_3_7x7_0_split
I1213 23:13:43.337448 28717 net.cpp:434] LFCN_3_7x7_LFCN_3_7x7_0_split <- LFCN_3_7x7
I1213 23:13:43.337455 28717 net.cpp:408] LFCN_3_7x7_LFCN_3_7x7_0_split -> LFCN_3_7x7_LFCN_3_7x7_0_split_0
I1213 23:13:43.337461 28717 net.cpp:408] LFCN_3_7x7_LFCN_3_7x7_0_split -> LFCN_3_7x7_LFCN_3_7x7_0_split_1
I1213 23:13:43.337466 28717 net.cpp:408] LFCN_3_7x7_LFCN_3_7x7_0_split -> LFCN_3_7x7_LFCN_3_7x7_0_split_2
I1213 23:13:43.337512 28717 net.cpp:150] Setting up LFCN_3_7x7_LFCN_3_7x7_0_split
I1213 23:13:43.337517 28717 net.cpp:157] Top shape: 3 9 24 24 (15552)
I1213 23:13:43.337522 28717 net.cpp:157] Top shape: 3 9 24 24 (15552)
I1213 23:13:43.337525 28717 net.cpp:157] Top shape: 3 9 24 24 (15552)
I1213 23:13:43.337528 28717 net.cpp:165] Memory required for data: 4984385024
I1213 23:13:43.337532 28717 layer_factory.hpp:77] Creating layer detection_loss_3_7x7
I1213 23:13:43.337538 28717 net.cpp:100] Creating Layer detection_loss_3_7x7
I1213 23:13:43.337543 28717 net.cpp:434] detection_loss_3_7x7 <- LFCN_3_7x7_LFCN_3_7x7_0_split_0
I1213 23:13:43.337546 28717 net.cpp:434] detection_loss_3_7x7 <- label_3_7x7_data_6_split_0
I1213 23:13:43.337551 28717 net.cpp:408] detection_loss_3_7x7 -> loss_3_7x7
I1213 23:13:43.337558 28717 layer_factory.hpp:77] Creating layer detection_loss_3_7x7
I1213 23:13:43.337860 28717 net.cpp:150] Setting up detection_loss_3_7x7
I1213 23:13:43.337869 28717 net.cpp:157] Top shape: 1 1 1 2 (2)
I1213 23:13:43.337872 28717 net.cpp:160]     with loss weight 1
I1213 23:13:43.337879 28717 net.cpp:165] Memory required for data: 4984385032
I1213 23:13:43.337882 28717 layer_factory.hpp:77] Creating layer detection_accuracy_3_7x7
I1213 23:13:43.337888 28717 net.cpp:100] Creating Layer detection_accuracy_3_7x7
I1213 23:13:43.337893 28717 net.cpp:434] detection_accuracy_3_7x7 <- LFCN_3_7x7_LFCN_3_7x7_0_split_1
I1213 23:13:43.337896 28717 net.cpp:434] detection_accuracy_3_7x7 <- label_3_7x7_data_6_split_1
I1213 23:13:43.337903 28717 net.cpp:408] detection_accuracy_3_7x7 -> accuracy_3_7x7
I1213 23:13:43.337908 28717 net.cpp:408] detection_accuracy_3_7x7 -> boxiou_3_7x7
I1213 23:13:43.337944 28717 net.cpp:150] Setting up detection_accuracy_3_7x7
I1213 23:13:43.337950 28717 net.cpp:157] Top shape: 1 1 1 2 (2)
I1213 23:13:43.337954 28717 net.cpp:157] Top shape: 1 1 1 1 (1)
I1213 23:13:43.337957 28717 net.cpp:165] Memory required for data: 4984385044
I1213 23:13:43.337960 28717 layer_factory.hpp:77] Creating layer pool6
I1213 23:13:43.337965 28717 net.cpp:100] Creating Layer pool6
I1213 23:13:43.337970 28717 net.cpp:434] pool6 <- conv6_1_relu6_1_0_split_2
I1213 23:13:43.337975 28717 net.cpp:408] pool6 -> pool6
I1213 23:13:43.338009 28717 net.cpp:150] Setting up pool6
I1213 23:13:43.338016 28717 net.cpp:157] Top shape: 3 512 12 12 (221184)
I1213 23:13:43.338021 28717 net.cpp:165] Memory required for data: 4985269780
I1213 23:13:43.338023 28717 layer_factory.hpp:77] Creating layer LFCN_4_5x5
I1213 23:13:43.338033 28717 net.cpp:100] Creating Layer LFCN_4_5x5
I1213 23:13:43.338039 28717 net.cpp:434] LFCN_4_5x5 <- pool6
I1213 23:13:43.338045 28717 net.cpp:408] LFCN_4_5x5 -> LFCN_4_5x5
I1213 23:13:43.341668 28717 net.cpp:150] Setting up LFCN_4_5x5
I1213 23:13:43.341679 28717 net.cpp:157] Top shape: 3 9 12 12 (3888)
I1213 23:13:43.341682 28717 net.cpp:165] Memory required for data: 4985285332
I1213 23:13:43.341687 28717 layer_factory.hpp:77] Creating layer LFCN_4_5x5_LFCN_4_5x5_0_split
I1213 23:13:43.341693 28717 net.cpp:100] Creating Layer LFCN_4_5x5_LFCN_4_5x5_0_split
I1213 23:13:43.341697 28717 net.cpp:434] LFCN_4_5x5_LFCN_4_5x5_0_split <- LFCN_4_5x5
I1213 23:13:43.341702 28717 net.cpp:408] LFCN_4_5x5_LFCN_4_5x5_0_split -> LFCN_4_5x5_LFCN_4_5x5_0_split_0
I1213 23:13:43.341709 28717 net.cpp:408] LFCN_4_5x5_LFCN_4_5x5_0_split -> LFCN_4_5x5_LFCN_4_5x5_0_split_1
I1213 23:13:43.341714 28717 net.cpp:408] LFCN_4_5x5_LFCN_4_5x5_0_split -> LFCN_4_5x5_LFCN_4_5x5_0_split_2
I1213 23:13:43.341755 28717 net.cpp:150] Setting up LFCN_4_5x5_LFCN_4_5x5_0_split
I1213 23:13:43.341760 28717 net.cpp:157] Top shape: 3 9 12 12 (3888)
I1213 23:13:43.341764 28717 net.cpp:157] Top shape: 3 9 12 12 (3888)
I1213 23:13:43.341768 28717 net.cpp:157] Top shape: 3 9 12 12 (3888)
I1213 23:13:43.341770 28717 net.cpp:165] Memory required for data: 4985331988
I1213 23:13:43.341773 28717 layer_factory.hpp:77] Creating layer detection_loss_4_5x5
I1213 23:13:43.341778 28717 net.cpp:100] Creating Layer detection_loss_4_5x5
I1213 23:13:43.341780 28717 net.cpp:434] detection_loss_4_5x5 <- LFCN_4_5x5_LFCN_4_5x5_0_split_0
I1213 23:13:43.341784 28717 net.cpp:434] detection_loss_4_5x5 <- label_4_5x5_data_7_split_0
I1213 23:13:43.341789 28717 net.cpp:408] detection_loss_4_5x5 -> loss_4_5x5
I1213 23:13:43.341794 28717 layer_factory.hpp:77] Creating layer detection_loss_4_5x5
I1213 23:13:43.342092 28717 net.cpp:150] Setting up detection_loss_4_5x5
I1213 23:13:43.342101 28717 net.cpp:157] Top shape: 1 1 1 2 (2)
I1213 23:13:43.342104 28717 net.cpp:160]     with loss weight 1
I1213 23:13:43.342110 28717 net.cpp:165] Memory required for data: 4985331996
I1213 23:13:43.342114 28717 layer_factory.hpp:77] Creating layer detection_accuracy_4_5x5
I1213 23:13:43.342119 28717 net.cpp:100] Creating Layer detection_accuracy_4_5x5
I1213 23:13:43.342124 28717 net.cpp:434] detection_accuracy_4_5x5 <- LFCN_4_5x5_LFCN_4_5x5_0_split_1
I1213 23:13:43.342128 28717 net.cpp:434] detection_accuracy_4_5x5 <- label_4_5x5_data_7_split_1
I1213 23:13:43.342133 28717 net.cpp:408] detection_accuracy_4_5x5 -> accuracy_4_5x5
I1213 23:13:43.342141 28717 net.cpp:408] detection_accuracy_4_5x5 -> boxiou_4_5x5
I1213 23:13:43.342175 28717 net.cpp:150] Setting up detection_accuracy_4_5x5
I1213 23:13:43.342180 28717 net.cpp:157] Top shape: 1 1 1 2 (2)
I1213 23:13:43.342185 28717 net.cpp:157] Top shape: 1 1 1 1 (1)
I1213 23:13:43.342188 28717 net.cpp:165] Memory required for data: 4985332008
I1213 23:13:43.342191 28717 layer_factory.hpp:77] Creating layer proposals
I1213 23:13:43.342203 28717 net.cpp:100] Creating Layer proposals
I1213 23:13:43.342208 28717 net.cpp:434] proposals <- LFCN_1_5x5_LFCN_1_5x5_0_split_2
I1213 23:13:43.342212 28717 net.cpp:434] proposals <- LFCN_1_7x7_LFCN_1_7x7_0_split_2
I1213 23:13:43.342217 28717 net.cpp:434] proposals <- LFCN_2_5x5_LFCN_2_5x5_0_split_2
I1213 23:13:43.342221 28717 net.cpp:434] proposals <- LFCN_2_7x7_LFCN_2_7x7_0_split_2
I1213 23:13:43.342224 28717 net.cpp:434] proposals <- LFCN_3_5x5_LFCN_3_5x5_0_split_2
I1213 23:13:43.342228 28717 net.cpp:434] proposals <- LFCN_3_7x7_LFCN_3_7x7_0_split_2
I1213 23:13:43.342232 28717 net.cpp:434] proposals <- LFCN_4_5x5_LFCN_4_5x5_0_split_2
I1213 23:13:43.342238 28717 net.cpp:408] proposals -> proposals
I1213 23:13:43.342263 28717 net.cpp:150] Setting up proposals
I1213 23:13:43.342268 28717 net.cpp:157] Top shape: 1 5 1 1 (5)
I1213 23:13:43.342272 28717 net.cpp:165] Memory required for data: 4985332028
I1213 23:13:43.342275 28717 layer_factory.hpp:77] Creating layer proposal_info
I1213 23:13:43.342283 28717 net.cpp:100] Creating Layer proposal_info
I1213 23:13:43.342288 28717 net.cpp:434] proposal_info <- proposals
I1213 23:13:43.342291 28717 net.cpp:434] proposal_info <- gt_boxes
I1213 23:13:43.342298 28717 net.cpp:408] proposal_info -> rois
I1213 23:13:43.342308 28717 net.cpp:408] proposal_info -> proposal_labels
I1213 23:13:43.342315 28717 net.cpp:408] proposal_info -> proposal_targets
I1213 23:13:43.342322 28717 net.cpp:408] proposal_info -> box_inside_weights
I1213 23:13:43.342329 28717 net.cpp:408] proposal_info -> box_outside_weights
I1213 23:13:43.342335 28717 net.cpp:408] proposal_info -> match_gt_boxes
I1213 23:13:43.342417 28717 net.cpp:150] Setting up proposal_info
I1213 23:13:43.342424 28717 net.cpp:157] Top shape: 256 5 1 1 (1280)
I1213 23:13:43.342428 28717 net.cpp:157] Top shape: 256 1 1 1 (256)
I1213 23:13:43.342432 28717 net.cpp:157] Top shape: 256 20 1 1 (5120)
I1213 23:13:43.342437 28717 net.cpp:157] Top shape: 256 20 1 1 (5120)
I1213 23:13:43.342442 28717 net.cpp:157] Top shape: 256 20 1 1 (5120)
I1213 23:13:43.342445 28717 net.cpp:157] Top shape: 256 6 1 1 (1536)
I1213 23:13:43.342448 28717 net.cpp:165] Memory required for data: 4985405756
I1213 23:13:43.342453 28717 layer_factory.hpp:77] Creating layer rois_proposal_info_0_split
I1213 23:13:43.342458 28717 net.cpp:100] Creating Layer rois_proposal_info_0_split
I1213 23:13:43.342461 28717 net.cpp:434] rois_proposal_info_0_split <- rois
I1213 23:13:43.342465 28717 net.cpp:408] rois_proposal_info_0_split -> rois_proposal_info_0_split_0
I1213 23:13:43.342471 28717 net.cpp:408] rois_proposal_info_0_split -> rois_proposal_info_0_split_1
I1213 23:13:43.342475 28717 net.cpp:408] rois_proposal_info_0_split -> rois_proposal_info_0_split_2
I1213 23:13:43.342519 28717 net.cpp:150] Setting up rois_proposal_info_0_split
I1213 23:13:43.342525 28717 net.cpp:157] Top shape: 256 5 1 1 (1280)
I1213 23:13:43.342528 28717 net.cpp:157] Top shape: 256 5 1 1 (1280)
I1213 23:13:43.342532 28717 net.cpp:157] Top shape: 256 5 1 1 (1280)
I1213 23:13:43.342535 28717 net.cpp:165] Memory required for data: 4985421116
I1213 23:13:43.342538 28717 layer_factory.hpp:77] Creating layer proposal_labels_proposal_info_1_split
I1213 23:13:43.342543 28717 net.cpp:100] Creating Layer proposal_labels_proposal_info_1_split
I1213 23:13:43.342547 28717 net.cpp:434] proposal_labels_proposal_info_1_split <- proposal_labels
I1213 23:13:43.342551 28717 net.cpp:408] proposal_labels_proposal_info_1_split -> proposal_labels_proposal_info_1_split_0
I1213 23:13:43.342557 28717 net.cpp:408] proposal_labels_proposal_info_1_split -> proposal_labels_proposal_info_1_split_1
I1213 23:13:43.342588 28717 net.cpp:150] Setting up proposal_labels_proposal_info_1_split
I1213 23:13:43.342594 28717 net.cpp:157] Top shape: 256 1 1 1 (256)
I1213 23:13:43.342597 28717 net.cpp:157] Top shape: 256 1 1 1 (256)
I1213 23:13:43.342602 28717 net.cpp:165] Memory required for data: 4985423164
I1213 23:13:43.342604 28717 layer_factory.hpp:77] Creating layer conv4_3_2x
I1213 23:13:43.342610 28717 net.cpp:100] Creating Layer conv4_3_2x
I1213 23:13:43.342615 28717 net.cpp:434] conv4_3_2x <- conv4_3_relu4_3_0_split_2
I1213 23:13:43.342622 28717 net.cpp:408] conv4_3_2x -> conv4_3_2x
I1213 23:13:43.343122 28717 net.cpp:150] Setting up conv4_3_2x
I1213 23:13:43.343130 28717 net.cpp:157] Top shape: 3 512 192 192 (56623104)
I1213 23:13:43.343134 28717 net.cpp:165] Memory required for data: 5211915580
I1213 23:13:43.343140 28717 layer_factory.hpp:77] Creating layer conv4_3_2x_conv4_3_2x_0_split
I1213 23:13:43.343145 28717 net.cpp:100] Creating Layer conv4_3_2x_conv4_3_2x_0_split
I1213 23:13:43.343150 28717 net.cpp:434] conv4_3_2x_conv4_3_2x_0_split <- conv4_3_2x
I1213 23:13:43.343156 28717 net.cpp:408] conv4_3_2x_conv4_3_2x_0_split -> conv4_3_2x_conv4_3_2x_0_split_0
I1213 23:13:43.343164 28717 net.cpp:408] conv4_3_2x_conv4_3_2x_0_split -> conv4_3_2x_conv4_3_2x_0_split_1
I1213 23:13:43.343204 28717 net.cpp:150] Setting up conv4_3_2x_conv4_3_2x_0_split
I1213 23:13:43.343210 28717 net.cpp:157] Top shape: 3 512 192 192 (56623104)
I1213 23:13:43.343215 28717 net.cpp:157] Top shape: 3 512 192 192 (56623104)
I1213 23:13:43.343219 28717 net.cpp:165] Memory required for data: 5664900412
I1213 23:13:43.343224 28717 layer_factory.hpp:77] Creating layer roi_pool_org
I1213 23:13:43.343230 28717 net.cpp:100] Creating Layer roi_pool_org
I1213 23:13:43.343233 28717 net.cpp:434] roi_pool_org <- conv4_3_2x_conv4_3_2x_0_split_0
I1213 23:13:43.343238 28717 net.cpp:434] roi_pool_org <- rois_proposal_info_0_split_0
I1213 23:13:43.343245 28717 net.cpp:408] roi_pool_org -> roi_pool_org
I1213 23:13:43.343256 28717 roi_pooling_layer.cpp:33] Spatial scale: 0.25
I1213 23:13:43.343297 28717 net.cpp:150] Setting up roi_pool_org
I1213 23:13:43.343304 28717 net.cpp:157] Top shape: 256 512 7 7 (6422528)
I1213 23:13:43.343309 28717 net.cpp:165] Memory required for data: 5690590524
I1213 23:13:43.343312 28717 layer_factory.hpp:77] Creating layer roi_pool_ctx
I1213 23:13:43.343318 28717 net.cpp:100] Creating Layer roi_pool_ctx
I1213 23:13:43.343322 28717 net.cpp:434] roi_pool_ctx <- conv4_3_2x_conv4_3_2x_0_split_1
I1213 23:13:43.343327 28717 net.cpp:434] roi_pool_ctx <- rois_proposal_info_0_split_1
I1213 23:13:43.343333 28717 net.cpp:408] roi_pool_ctx -> roi_pool_ctx
I1213 23:13:43.343340 28717 roi_pooling_layer.cpp:33] Spatial scale: 0.25
I1213 23:13:43.343372 28717 net.cpp:150] Setting up roi_pool_ctx
I1213 23:13:43.343379 28717 net.cpp:157] Top shape: 256 512 7 7 (6422528)
I1213 23:13:43.343382 28717 net.cpp:165] Memory required for data: 5716280636
I1213 23:13:43.343385 28717 layer_factory.hpp:77] Creating layer roi_pool
I1213 23:13:43.343390 28717 net.cpp:100] Creating Layer roi_pool
I1213 23:13:43.343394 28717 net.cpp:434] roi_pool <- roi_pool_org
I1213 23:13:43.343399 28717 net.cpp:434] roi_pool <- roi_pool_ctx
I1213 23:13:43.343403 28717 net.cpp:408] roi_pool -> roi_pool
I1213 23:13:43.343422 28717 net.cpp:150] Setting up roi_pool
I1213 23:13:43.343428 28717 net.cpp:157] Top shape: 256 1024 7 7 (12845056)
I1213 23:13:43.343430 28717 net.cpp:165] Memory required for data: 5767660860
I1213 23:13:43.343433 28717 layer_factory.hpp:77] Creating layer roi_c1
I1213 23:13:43.343442 28717 net.cpp:100] Creating Layer roi_c1
I1213 23:13:43.343446 28717 net.cpp:434] roi_c1 <- roi_pool
I1213 23:13:43.343451 28717 net.cpp:408] roi_c1 -> roi_c1
I1213 23:13:43.457190 28717 net.cpp:150] Setting up roi_c1
I1213 23:13:43.457216 28717 net.cpp:157] Top shape: 256 512 5 5 (3276800)
I1213 23:13:43.457219 28717 net.cpp:165] Memory required for data: 5780768060
I1213 23:13:43.457227 28717 layer_factory.hpp:77] Creating layer roi_c1_relu
I1213 23:13:43.457238 28717 net.cpp:100] Creating Layer roi_c1_relu
I1213 23:13:43.457243 28717 net.cpp:434] roi_c1_relu <- roi_c1
I1213 23:13:43.457249 28717 net.cpp:395] roi_c1_relu -> roi_c1 (in-place)
I1213 23:13:43.457705 28717 net.cpp:150] Setting up roi_c1_relu
I1213 23:13:43.457717 28717 net.cpp:157] Top shape: 256 512 5 5 (3276800)
I1213 23:13:43.457720 28717 net.cpp:165] Memory required for data: 5793875260
I1213 23:13:43.457725 28717 layer_factory.hpp:77] Creating layer fc6
I1213 23:13:43.457732 28717 net.cpp:100] Creating Layer fc6
I1213 23:13:43.457736 28717 net.cpp:434] fc6 <- roi_c1
I1213 23:13:43.457743 28717 net.cpp:408] fc6 -> fc6
I1213 23:13:44.680202 28717 net.cpp:150] Setting up fc6
I1213 23:13:44.680235 28717 net.cpp:157] Top shape: 256 4096 (1048576)
I1213 23:13:44.680239 28717 net.cpp:165] Memory required for data: 5798069564
I1213 23:13:44.680248 28717 layer_factory.hpp:77] Creating layer relu6
I1213 23:13:44.680263 28717 net.cpp:100] Creating Layer relu6
I1213 23:13:44.680269 28717 net.cpp:434] relu6 <- fc6
I1213 23:13:44.680274 28717 net.cpp:395] relu6 -> fc6 (in-place)
I1213 23:13:44.680510 28717 net.cpp:150] Setting up relu6
I1213 23:13:44.680519 28717 net.cpp:157] Top shape: 256 4096 (1048576)
I1213 23:13:44.680523 28717 net.cpp:165] Memory required for data: 5802263868
I1213 23:13:44.680526 28717 layer_factory.hpp:77] Creating layer drop6
I1213 23:13:44.680541 28717 net.cpp:100] Creating Layer drop6
I1213 23:13:44.680546 28717 net.cpp:434] drop6 <- fc6
I1213 23:13:44.680550 28717 net.cpp:395] drop6 -> fc6 (in-place)
I1213 23:13:44.680577 28717 net.cpp:150] Setting up drop6
I1213 23:13:44.680583 28717 net.cpp:157] Top shape: 256 4096 (1048576)
I1213 23:13:44.680586 28717 net.cpp:165] Memory required for data: 5806458172
I1213 23:13:44.680589 28717 layer_factory.hpp:77] Creating layer fc6_drop6_0_split
I1213 23:13:44.680595 28717 net.cpp:100] Creating Layer fc6_drop6_0_split
I1213 23:13:44.680598 28717 net.cpp:434] fc6_drop6_0_split <- fc6
I1213 23:13:44.680604 28717 net.cpp:408] fc6_drop6_0_split -> fc6_drop6_0_split_0
I1213 23:13:44.680621 28717 net.cpp:408] fc6_drop6_0_split -> fc6_drop6_0_split_1
I1213 23:13:44.680656 28717 net.cpp:150] Setting up fc6_drop6_0_split
I1213 23:13:44.680663 28717 net.cpp:157] Top shape: 256 4096 (1048576)
I1213 23:13:44.680667 28717 net.cpp:157] Top shape: 256 4096 (1048576)
I1213 23:13:44.680670 28717 net.cpp:165] Memory required for data: 5814846780
I1213 23:13:44.680673 28717 layer_factory.hpp:77] Creating layer cls_pred
I1213 23:13:44.680680 28717 net.cpp:100] Creating Layer cls_pred
I1213 23:13:44.680685 28717 net.cpp:434] cls_pred <- fc6_drop6_0_split_0
I1213 23:13:44.680691 28717 net.cpp:408] cls_pred -> cls_pred
I1213 23:13:44.681305 28717 net.cpp:150] Setting up cls_pred
I1213 23:13:44.681313 28717 net.cpp:157] Top shape: 256 5 (1280)
I1213 23:13:44.681316 28717 net.cpp:165] Memory required for data: 5814851900
I1213 23:13:44.681322 28717 layer_factory.hpp:77] Creating layer cls_pred_cls_pred_0_split
I1213 23:13:44.681327 28717 net.cpp:100] Creating Layer cls_pred_cls_pred_0_split
I1213 23:13:44.681331 28717 net.cpp:434] cls_pred_cls_pred_0_split <- cls_pred
I1213 23:13:44.681336 28717 net.cpp:408] cls_pred_cls_pred_0_split -> cls_pred_cls_pred_0_split_0
I1213 23:13:44.681344 28717 net.cpp:408] cls_pred_cls_pred_0_split -> cls_pred_cls_pred_0_split_1
I1213 23:13:44.681370 28717 net.cpp:150] Setting up cls_pred_cls_pred_0_split
I1213 23:13:44.681376 28717 net.cpp:157] Top shape: 256 5 (1280)
I1213 23:13:44.681380 28717 net.cpp:157] Top shape: 256 5 (1280)
I1213 23:13:44.681383 28717 net.cpp:165] Memory required for data: 5814862140
I1213 23:13:44.681385 28717 layer_factory.hpp:77] Creating layer bbox_pred
I1213 23:13:44.681392 28717 net.cpp:100] Creating Layer bbox_pred
I1213 23:13:44.681396 28717 net.cpp:434] bbox_pred <- fc6_drop6_0_split_1
I1213 23:13:44.681401 28717 net.cpp:408] bbox_pred -> bbox_pred
I1213 23:13:44.683545 28717 net.cpp:150] Setting up bbox_pred
I1213 23:13:44.683552 28717 net.cpp:157] Top shape: 256 20 (5120)
I1213 23:13:44.683555 28717 net.cpp:165] Memory required for data: 5814882620
I1213 23:13:44.683560 28717 layer_factory.hpp:77] Creating layer bbox_pred_bbox_pred_0_split
I1213 23:13:44.683565 28717 net.cpp:100] Creating Layer bbox_pred_bbox_pred_0_split
I1213 23:13:44.683568 28717 net.cpp:434] bbox_pred_bbox_pred_0_split <- bbox_pred
I1213 23:13:44.683575 28717 net.cpp:408] bbox_pred_bbox_pred_0_split -> bbox_pred_bbox_pred_0_split_0
I1213 23:13:44.683581 28717 net.cpp:408] bbox_pred_bbox_pred_0_split -> bbox_pred_bbox_pred_0_split_1
I1213 23:13:44.683611 28717 net.cpp:150] Setting up bbox_pred_bbox_pred_0_split
I1213 23:13:44.683615 28717 net.cpp:157] Top shape: 256 20 (5120)
I1213 23:13:44.683619 28717 net.cpp:157] Top shape: 256 20 (5120)
I1213 23:13:44.683622 28717 net.cpp:165] Memory required for data: 5814923580
I1213 23:13:44.683626 28717 layer_factory.hpp:77] Creating layer loss_cls
I1213 23:13:44.683636 28717 net.cpp:100] Creating Layer loss_cls
I1213 23:13:44.683640 28717 net.cpp:434] loss_cls <- cls_pred_cls_pred_0_split_0
I1213 23:13:44.683645 28717 net.cpp:434] loss_cls <- proposal_labels_proposal_info_1_split_0
…
I1213 23:13:44.696066 28717 image_gt_data_layer.cpp:235] output label size 2 : 2,6,48,48
I1213 23:13:44.696113 28717 image_gt_data_layer.cpp:235] output label size 3 : 2,6,48,48
I1213 23:13:44.696161 28717 image_gt_data_layer.cpp:235] output label size 4 : 2,6,24,24
I1213 23:13:44.696207 28717 image_gt_data_layer.cpp:235] output label size 5 : 2,6,24,24
I1213 23:13:44.696252 28717 image_gt_data_layer.cpp:235] output label size 6 : 2,6,12,12
I1213 23:13:44.696298 28717 image_gt_data_layer.cpp:250] output gt boxes size: 1,7,1,1
I1213 23:13:44.723812 28717 net.cpp:150] Setting up data
I1213 23:13:44.723840 28717 net.cpp:157] Top shape: 2 3 768 768 (3538944)
I1213 23:13:44.723846 28717 net.cpp:157] Top shape: 2 6 96 96 (110592)
I1213 23:13:44.723851 28717 net.cpp:157] Top shape: 2 6 96 96 (110592)
I1213 23:13:44.723855 28717 net.cpp:157] Top shape: 2 6 48 48 (27648)
I1213 23:13:44.723860 28717 net.cpp:157] Top shape: 2 6 48 48 (27648)
I1213 23:13:44.723863 28717 net.cpp:157] Top shape: 2 6 24 24 (6912)
I1213 23:13:44.723867 28717 net.cpp:157] Top shape: 2 6 24 24 (6912)
I1213 23:13:44.723871 28717 net.cpp:157] Top shape: 2 6 12 12 (1728)
I1213 23:13:44.723876 28717 net.cpp:157] Top shape: 1 7 1 1 (7)
I1213 23:13:44.723879 28717 net.cpp:165] Memory required for data: 15323932
I1213 23:13:44.723886 28717 layer_factory.hpp:77] Creating layer label_1_5x5_data_1_split
I1213 23:13:44.723902 28717 net.cpp:100] Creating Layer label_1_5x5_data_1_split
I1213 23:13:44.723907 28717 net.cpp:434] label_1_5x5_data_1_split <- label_1_5x5
I1213 23:13:44.723915 28717 net.cpp:408] label_1_5x5_data_1_split -> label_1_5x5_data_1_split_0
I1213 23:13:44.723924 28717 net.cpp:408] label_1_5x5_data_1_split -> label_1_5x5_data_1_split_1
I1213 23:13:44.724274 28717 net.cpp:150] Setting up label_1_5x5_data_1_split
I1213 23:13:44.724315 28717 net.cpp:157] Top shape: 2 6 96 96 (110592)
I1213 23:13:44.724328 28717 net.cpp:157] Top shape: 2 6 96 96 (110592)
I1213 23:13:44.724336 28717 net.cpp:165] Memory required for data: 16208668
I1213 23:13:44.724347 28717 layer_factory.hpp:77] Creating layer label_1_7x7_data_2_split
I1213 23:13:44.724370 28717 net.cpp:100] Creating Layer label_1_7x7_data_2_split
I1213 23:13:44.724382 28717 net.cpp:434] label_1_7x7_data_2_split <- label_1_7x7
I1213 23:13:44.724398 28717 net.cpp:408] label_1_7x7_data_2_split -> label_1_7x7_data_2_split_0
I1213 23:13:44.724417 28717 net.cpp:408] label_1_7x7_data_2_split -> label_1_7x7_data_2_split_1
I1213 23:13:44.724503 28717 net.cpp:150] Setting up label_1_7x7_data_2_split
I1213 23:13:44.724516 28717 net.cpp:157] Top shape: 2 6 96 96 (110592)
I1213 23:13:44.724527 28717 net.cpp:157] Top shape: 2 6 96 96 (110592)
I1213 23:13:44.724534 28717 net.cpp:165] Memory required for data: 17093404
I1213 23:13:44.724541 28717 layer_factory.hpp:77] Creating layer label_2_5x5_data_3_split
I1213 23:13:44.724552 28717 net.cpp:100] Creating Layer label_2_5x5_data_3_split
I1213 23:13:44.724561 28717 net.cpp:434] label_2_5x5_data_3_split <- label_2_5x5
I1213 23:13:44.724571 28717 net.cpp:408] label_2_5x5_data_3_split -> label_2_5x5_data_3_split_0
I1213 23:13:44.724583 28717 net.cpp:408] label_2_5x5_data_3_split -> label_2_5x5_data_3_split_1
I1213 23:13:44.724660 28717 net.cpp:150] Setting up label_2_5x5_data_3_split
I1213 23:13:44.724673 28717 net.cpp:157] Top shape: 2 6 48 48 (27648)
I1213 23:13:44.724683 28717 net.cpp:157] Top shape: 2 6 48 48 (27648)
I1213 23:13:44.724690 28717 net.cpp:165] Memory required for data: 17314588
I1213 23:13:44.724697 28717 layer_factory.hpp:77] Creating layer label_2_7x7_data_4_split
I1213 23:13:44.724710 28717 net.cpp:100] Creating Layer label_2_7x7_data_4_split
I1213 23:13:44.724720 28717 net.cpp:434] label_2_7x7_data_4_split <- label_2_7x7
I1213 23:13:44.724730 28717 net.cpp:408] label_2_7x7_data_4_split -> label_2_7x7_data_4_split_0
I1213 23:13:44.724741 28717 net.cpp:408] label_2_7x7_data_4_split -> label_2_7x7_data_4_split_1
I1213 23:13:44.724819 28717 net.cpp:150] Setting up label_2_7x7_data_4_split
I1213 23:13:44.724834 28717 net.cpp:157] Top shape: 2 6 48 48 (27648)
I1213 23:13:44.724844 28717 net.cpp:157] Top shape: 2 6 48 48 (27648)
I1213 23:13:44.724851 28717 net.cpp:165] Memory required for data: 17535772
I1213 23:13:44.724858 28717 layer_factory.hpp:77] Creating layer label_3_5x5_data_5_split
I1213 23:13:44.724869 28717 net.cpp:100] Creating Layer label_3_5x5_data_5_split
I1213 23:13:44.724877 28717 net.cpp:434] label_3_5x5_data_5_split <- label_3_5x5
I1213 23:13:44.724886 28717 net.cpp:408] label_3_5x5_data_5_split -> label_3_5x5_data_5_split_0
I1213 23:13:44.724897 28717 net.cpp:408] label_3_5x5_data_5_split -> label_3_5x5_data_5_split_1
I1213 23:13:44.724972 28717 net.cpp:150] Setting up label_3_5x5_data_5_split
I1213 23:13:44.724982 28717 net.cpp:157] Top shape: 2 6 24 24 (6912)
I1213 23:13:44.724990 28717 net.cpp:157] Top shape: 2 6 24 24 (6912)
I1213 23:13:44.724997 28717 net.cpp:165] Memory required for data: 17591068
I1213 23:13:44.725004 28717 layer_factory.hpp:77] Creating layer label_3_7x7_data_6_split
I1213 23:13:44.725013 28717 net.cpp:100] Creating Layer label_3_7x7_data_6_split
I1213 23:13:44.725020 28717 net.cpp:434] label_3_7x7_data_6_split <- label_3_7x7
I1213 23:13:44.725031 28717 net.cpp:408] label_3_7x7_data_6_split -> label_3_7x7_data_6_split_0
I1213 23:13:44.725044 28717 net.cpp:408] label_3_7x7_data_6_split -> label_3_7x7_data_6_split_1
I1213 23:13:44.725111 28717 net.cpp:150] Setting up label_3_7x7_data_6_split
I1213 23:13:44.725121 28717 net.cpp:157] Top shape: 2 6 24 24 (6912)
I1213 23:13:44.725131 28717 net.cpp:157] Top shape: 2 6 24 24 (6912)
I1213 23:13:44.725136 28717 net.cpp:165] Memory required for data: 17646364
I1213 23:13:44.725143 28717 layer_factory.hpp:77] Creating layer label_4_5x5_data_7_split
I1213 23:13:44.725154 28717 net.cpp:100] Creating Layer label_4_5x5_data_7_split
I1213 23:13:44.725162 28717 net.cpp:434] label_4_5x5_data_7_split <- label_4_5x5
I1213 23:13:44.725170 28717 net.cpp:408] label_4_5x5_data_7_split -> label_4_5x5_data_7_split_0
I1213 23:13:44.725181 28717 net.cpp:408] label_4_5x5_data_7_split -> label_4_5x5_data_7_split_1
I1213 23:13:44.725250 28717 net.cpp:150] Setting up label_4_5x5_data_7_split
I1213 23:13:44.725260 28717 net.cpp:157] Top shape: 2 6 12 12 (1728)
I1213 23:13:44.725268 28717 net.cpp:157] Top shape: 2 6 12 12 (1728)
I1213 23:13:44.725275 28717 net.cpp:165] Memory required for data: 17660188
I1213 23:13:44.725281 28717 layer_factory.hpp:77] Creating layer conv1_1
I1213 23:13:44.725299 28717 net.cpp:100] Creating Layer conv1_1
I1213 23:13:44.725306 28717 net.cpp:434] conv1_1 <- data
I1213 23:13:44.725319 28717 net.cpp:408] conv1_1 -> conv1_1
I1213 23:13:44.733758 28717 net.cpp:150] Setting up conv1_1
I1213 23:13:44.733795 28717 net.cpp:157] Top shape: 2 64 768 768 (75497472)
I1213 23:13:44.733804 28717 net.cpp:165] Memory required for data: 319650076
I1213 23:13:44.733832 28717 layer_factory.hpp:77] Creating layer relu1_1
I1213 23:13:44.733851 28717 net.cpp:100] Creating Layer relu1_1
I1213 23:13:44.733860 28717 net.cpp:434] relu1_1 <- conv1_1
I1213 23:13:44.733875 28717 net.cpp:395] relu1_1 -> conv1_1 (in-place)
I1213 23:13:44.734321 28717 net.cpp:150] Setting up relu1_1
I1213 23:13:44.734339 28717 net.cpp:157] Top shape: 2 64 768 768 (75497472)
I1213 23:13:44.734346 28717 net.cpp:165] Memory required for data: 621639964
I1213 23:13:44.734354 28717 layer_factory.hpp:77] Creating layer conv1_2
I1213 23:13:44.734372 28717 net.cpp:100] Creating Layer conv1_2
I1213 23:13:44.734380 28717 net.cpp:434] conv1_2 <- conv1_1
I1213 23:13:44.734391 28717 net.cpp:408] conv1_2 -> conv1_2
I1213 23:13:44.739739 28717 net.cpp:150] Setting up conv1_2
I1213 23:13:44.739771 28717 net.cpp:157] Top shape: 2 64 768 768 (75497472)
I1213 23:13:44.739775 28717 net.cpp:165] Memory required for data: 923629852
I1213 23:13:44.739790 28717 layer_factory.hpp:77] Creating layer relu1_2
I1213 23:13:44.739802 28717 net.cpp:100] Creating Layer relu1_2
I1213 23:13:44.739807 28717 net.cpp:434] relu1_2 <- conv1_2
I1213 23:13:44.739814 28717 net.cpp:395] relu1_2 -> conv1_2 (in-place)
I1213 23:13:44.740084 28717 net.cpp:150] Setting up relu1_2
I1213 23:13:44.740093 28717 net.cpp:157] Top shape: 2 64 768 768 (75497472)
I1213 23:13:44.740097 28717 net.cpp:165] Memory required for data: 1225619740
I1213 23:13:44.740101 28717 layer_factory.hpp:77] Creating layer pool1
I1213 23:13:44.740110 28717 net.cpp:100] Creating Layer pool1
I1213 23:13:44.740114 28717 net.cpp:434] pool1 <- conv1_2
I1213 23:13:44.740121 28717 net.cpp:408] pool1 -> pool1
I1213 23:13:44.740192 28717 net.cpp:150] Setting up pool1
I1213 23:13:44.740197 28717 net.cpp:157] Top shape: 2 64 384 384 (18874368)
I1213 23:13:44.740201 28717 net.cpp:165] Memory required for data: 1301117212
I1213 23:13:44.740206 28717 layer_factory.hpp:77] Creating layer conv2_1
I1213 23:13:44.740216 28717 net.cpp:100] Creating Layer conv2_1
I1213 23:13:44.740221 28717 net.cpp:434] conv2_1 <- pool1
I1213 23:13:44.740227 28717 net.cpp:408] conv2_1 -> conv2_1
I1213 23:13:44.742689 28717 net.cpp:150] Setting up conv2_1
I1213 23:13:44.742712 28717 net.cpp:157] Top shape: 2 128 384 384 (37748736)
I1213 23:13:44.742717 28717 net.cpp:165] Memory required for data: 1452112156
I1213 23:13:44.742729 28717 layer_factory.hpp:77] Creating layer relu2_1
I1213 23:13:44.742743 28717 net.cpp:100] Creating Layer relu2_1
I1213 23:13:44.742748 28717 net.cpp:434] relu2_1 <- conv2_1
I1213 23:13:44.742756 28717 net.cpp:395] relu2_1 -> conv2_1 (in-place)
I1213 23:13:44.743332 28717 net.cpp:150] Setting up relu2_1
I1213 23:13:44.743347 28717 net.cpp:157] Top shape: 2 128 384 384 (37748736)
I1213 23:13:44.743351 28717 net.cpp:165] Memory required for data: 1603107100
I1213 23:13:44.743355 28717 layer_factory.hpp:77] Creating layer conv2_2
I1213 23:13:44.743368 28717 net.cpp:100] Creating Layer conv2_2
I1213 23:13:44.743373 28717 net.cpp:434] conv2_2 <- conv2_1
I1213 23:13:44.743381 28717 net.cpp:408] conv2_2 -> conv2_2
I1213 23:13:44.746173 28717 net.cpp:150] Setting up conv2_2
I1213 23:13:44.746191 28717 net.cpp:157] Top shape: 2 128 384 384 (37748736)
I1213 23:13:44.746196 28717 net.cpp:165] Memory required for data: 1754102044
I1213 23:13:44.746204 28717 layer_factory.hpp:77] Creating layer relu2_2
I1213 23:13:44.746217 28717 net.cpp:100] Creating Layer relu2_2
I1213 23:13:44.746222 28717 net.cpp:434] relu2_2 <- conv2_2
I1213 23:13:44.746229 28717 net.cpp:395] relu2_2 -> conv2_2 (in-place)
I1213 23:13:44.746448 28717 net.cpp:150] Setting up relu2_2
I1213 23:13:44.746459 28717 net.cpp:157] Top shape: 2 128 384 384 (37748736)
I1213 23:13:44.746462 28717 net.cpp:165] Memory required for data: 1905096988
I1213 23:13:44.746467 28717 layer_factory.hpp:77] Creating layer pool2
I1213 23:13:44.746475 28717 net.cpp:100] Creating Layer pool2
I1213 23:13:44.746479 28717 net.cpp:434] pool2 <- conv2_2
I1213 23:13:44.746489 28717 net.cpp:408] pool2 -> pool2
I1213 23:13:44.746542 28717 net.cpp:150] Setting up pool2
I1213 23:13:44.746551 28717 net.cpp:157] Top shape: 2 128 192 192 (9437184)
I1213 23:13:44.746553 28717 net.cpp:165] Memory required for data: 1942845724
I1213 23:13:44.746558 28717 layer_factory.hpp:77] Creating layer conv3_1
I1213 23:13:44.746568 28717 net.cpp:100] Creating Layer conv3_1
I1213 23:13:44.746574 28717 net.cpp:434] conv3_1 <- pool2
I1213 23:13:44.746582 28717 net.cpp:408] conv3_1 -> conv3_1
I1213 23:13:44.748281 28717 net.cpp:150] Setting up conv3_1
I1213 23:13:44.748296 28717 net.cpp:157] Top shape: 2 256 192 192 (18874368)
I1213 23:13:44.748299 28717 net.cpp:165] Memory required for data: 2018343196
I1213 23:13:44.748309 28717 layer_factory.hpp:77] Creating layer relu3_1
I1213 23:13:44.748315 28717 net.cpp:100] Creating Layer relu3_1
I1213 23:13:44.748319 28717 net.cpp:434] relu3_1 <- conv3_1
I1213 23:13:44.748325 28717 net.cpp:395] relu3_1 -> conv3_1 (in-place)
I1213 23:13:44.748499 28717 net.cpp:150] Setting up relu3_1
I1213 23:13:44.748509 28717 net.cpp:157] Top shape: 2 256 192 192 (18874368)
I1213 23:13:44.748512 28717 net.cpp:165] Memory required for data: 2093840668
I1213 23:13:44.748517 28717 layer_factory.hpp:77] Creating layer conv3_1_relu3_1_0_split
I1213 23:13:44.748522 28717 net.cpp:100] Creating Layer conv3_1_relu3_1_0_split
I1213 23:13:44.748526 28717 net.cpp:434] conv3_1_relu3_1_0_split <- conv3_1
I1213 23:13:44.748533 28717 net.cpp:408] conv3_1_relu3_1_0_split -> conv3_1_relu3_1_0_split_0
I1213 23:13:44.748538 28717 net.cpp:408] conv3_1_relu3_1_0_split -> conv3_1_relu3_1_0_split_1
I1213 23:13:44.748579 28717 net.cpp:150] Setting up conv3_1_relu3_1_0_split
I1213 23:13:44.748587 28717 net.cpp:157] Top shape: 2 256 192 192 (18874368)
I1213 23:13:44.748592 28717 net.cpp:157] Top shape: 2 256 192 192 (18874368)
I1213 23:13:44.748595 28717 net.cpp:165] Memory required for data: 2244835612
I1213 23:13:44.748598 28717 layer_factory.hpp:77] Creating layer conv3_2
I1213 23:13:44.748605 28717 net.cpp:100] Creating Layer conv3_2
I1213 23:13:44.748610 28717 net.cpp:434] conv3_2 <- conv3_1_relu3_1_0_split_0
I1213 23:13:44.748615 28717 net.cpp:408] conv3_2 -> conv3_2
I1213 23:13:44.751267 28717 net.cpp:150] Setting up conv3_2
I1213 23:13:44.751286 28717 net.cpp:157] Top shape: 2 256 192 192 (18874368)
I1213 23:13:44.751291 28717 net.cpp:165] Memory required for data: 2320333084
I1213 23:13:44.751297 28717 layer_factory.hpp:77] Creating layer relu3_2
I1213 23:13:44.751307 28717 net.cpp:100] Creating Layer relu3_2
I1213 23:13:44.751310 28717 net.cpp:434] relu3_2 <- conv3_2
I1213 23:13:44.751317 28717 net.cpp:395] relu3_2 -> conv3_2 (in-place)
I1213 23:13:44.751490 28717 net.cpp:150] Setting up relu3_2
I1213 23:13:44.751499 28717 net.cpp:157] Top shape: 2 256 192 192 (18874368)
I1213 23:13:44.751502 28717 net.cpp:165] Memory required for data: 2395830556
I1213 23:13:44.751507 28717 layer_factory.hpp:77] Creating layer scale3_1
I1213 23:13:44.751514 28717 net.cpp:100] Creating Layer scale3_1
I1213 23:13:44.751518 28717 net.cpp:434] scale3_1 <- conv3_1_relu3_1_0_split_1
I1213 23:13:44.751524 28717 net.cpp:408] scale3_1 -> conv3_1s
I1213 23:13:44.751551 28717 net.cpp:150] Setting up scale3_1
I1213 23:13:44.751557 28717 net.cpp:157] Top shape: 2 256 192 192 (18874368)
I1213 23:13:44.751560 28717 net.cpp:165] Memory required for data: 2471328028
I1213 23:13:44.751564 28717 layer_factory.hpp:77] Creating layer skip_conv3_2
I1213 23:13:44.751570 28717 net.cpp:100] Creating Layer skip_conv3_2
I1213 23:13:44.751574 28717 net.cpp:434] skip_conv3_2 <- conv3_2
I1213 23:13:44.751579 28717 net.cpp:434] skip_conv3_2 <- conv3_1s
I1213 23:13:44.751585 28717 net.cpp:408] skip_conv3_2 -> conv3_2_skip
I1213 23:13:44.751607 28717 net.cpp:150] Setting up skip_conv3_2
I1213 23:13:44.751615 28717 net.cpp:157] Top shape: 2 256 192 192 (18874368)
I1213 23:13:44.751617 28717 net.cpp:165] Memory required for data: 2546825500
I1213 23:13:44.751621 28717 layer_factory.hpp:77] Creating layer conv3_3
I1213 23:13:44.751631 28717 net.cpp:100] Creating Layer conv3_3
I1213 23:13:44.751636 28717 net.cpp:434] conv3_3 <- conv3_2_skip
I1213 23:13:44.751641 28717 net.cpp:408] conv3_3 -> conv3_3
I1213 23:13:44.754199 28717 net.cpp:150] Setting up conv3_3
I1213 23:13:44.754217 28717 net.cpp:157] Top shape: 2 256 192 192 (18874368)
I1213 23:13:44.754221 28717 net.cpp:165] Memory required for data: 2622322972
I1213 23:13:44.754230 28717 layer_factory.hpp:77] Creating layer relu3_3
I1213 23:13:44.754237 28717 net.cpp:100] Creating Layer relu3_3
I1213 23:13:44.754242 28717 net.cpp:434] relu3_3 <- conv3_3
I1213 23:13:44.754249 28717 net.cpp:395] relu3_3 -> conv3_3 (in-place)
I1213 23:13:44.754415 28717 net.cpp:150] Setting up relu3_3
I1213 23:13:44.754425 28717 net.cpp:157] Top shape: 2 256 192 192 (18874368)
I1213 23:13:44.754427 28717 net.cpp:165] Memory required for data: 2697820444
I1213 23:13:44.754431 28717 layer_factory.hpp:77] Creating layer pool3
I1213 23:13:44.754436 28717 net.cpp:100] Creating Layer pool3
I1213 23:13:44.754441 28717 net.cpp:434] pool3 <- conv3_3
I1213 23:13:44.754446 28717 net.cpp:408] pool3 -> pool3
I1213 23:13:44.754487 28717 net.cpp:150] Setting up pool3
I1213 23:13:44.754493 28717 net.cpp:157] Top shape: 2 256 96 96 (4718592)
I1213 23:13:44.754496 28717 net.cpp:165] Memory required for data: 2716694812
I1213 23:13:44.754499 28717 layer_factory.hpp:77] Creating layer conv4_1
I1213 23:13:44.754508 28717 net.cpp:100] Creating Layer conv4_1
I1213 23:13:44.754511 28717 net.cpp:434] conv4_1 <- pool3
I1213 23:13:44.754518 28717 net.cpp:408] conv4_1 -> conv4_1
I1213 23:13:44.759057 28717 net.cpp:150] Setting up conv4_1
I1213 23:13:44.759088 28717 net.cpp:157] Top shape: 2 512 96 96 (9437184)
I1213 23:13:44.759093 28717 net.cpp:165] Memory required for data: 2754443548
I1213 23:13:44.759105 28717 layer_factory.hpp:77] Creating layer relu4_1
I1213 23:13:44.759119 28717 net.cpp:100] Creating Layer relu4_1
I1213 23:13:44.759125 28717 net.cpp:434] relu4_1 <- conv4_1
I1213 23:13:44.759133 28717 net.cpp:395] relu4_1 -> conv4_1 (in-place)
I1213 23:13:44.759312 28717 net.cpp:150] Setting up relu4_1
I1213 23:13:44.759322 28717 net.cpp:157] Top shape: 2 512 96 96 (9437184)
I1213 23:13:44.759325 28717 net.cpp:165] Memory required for data: 2792192284
I1213 23:13:44.759328 28717 layer_factory.hpp:77] Creating layer conv4_2
I1213 23:13:44.759338 28717 net.cpp:100] Creating Layer conv4_2
I1213 23:13:44.759341 28717 net.cpp:434] conv4_2 <- conv4_1
I1213 23:13:44.759347 28717 net.cpp:408] conv4_2 -> conv4_2
I1213 23:13:44.765558 28717 net.cpp:150] Setting up conv4_2
I1213 23:13:44.765586 28717 net.cpp:157] Top shape: 2 512 96 96 (9437184)
I1213 23:13:44.765590 28717 net.cpp:165] Memory required for data: 2829941020
I1213 23:13:44.765604 28717 layer_factory.hpp:77] Creating layer relu4_2
I1213 23:13:44.765615 28717 net.cpp:100] Creating Layer relu4_2
I1213 23:13:44.765621 28717 net.cpp:434] relu4_2 <- conv4_2
I1213 23:13:44.765628 28717 net.cpp:395] relu4_2 -> conv4_2 (in-place)
I1213 23:13:44.769459 28717 net.cpp:150] Setting up relu4_2
I1213 23:13:44.769474 28717 net.cpp:157] Top shape: 2 512 96 96 (9437184)
I1213 23:13:44.769477 28717 net.cpp:165] Memory required for data: 2867689756
I1213 23:13:44.769481 28717 layer_factory.hpp:77] Creating layer conv4_3
I1213 23:13:44.769497 28717 net.cpp:100] Creating Layer conv4_3
I1213 23:13:44.769501 28717 net.cpp:434] conv4_3 <- conv4_2
I1213 23:13:44.769510 28717 net.cpp:408] conv4_3 -> conv4_3
I1213 23:13:44.777606 28717 net.cpp:150] Setting up conv4_3
I1213 23:13:44.777637 28717 net.cpp:157] Top shape: 2 512 96 96 (9437184)
I1213 23:13:44.777642 28717 net.cpp:165] Memory required for data: 2905438492
I1213 23:13:44.777653 28717 layer_factory.hpp:77] Creating layer relu4_3
I1213 23:13:44.777667 28717 net.cpp:100] Creating Layer relu4_3
I1213 23:13:44.777673 28717 net.cpp:434] relu4_3 <- conv4_3
I1213 23:13:44.777680 28717 net.cpp:395] relu4_3 -> conv4_3 (in-place)
I1213 23:13:44.777884 28717 net.cpp:150] Setting up relu4_3
I1213 23:13:44.777895 28717 net.cpp:157] Top shape: 2 512 96 96 (9437184)
I1213 23:13:44.777899 28717 net.cpp:165] Memory required for data: 2943187228
I1213 23:13:44.777904 28717 layer_factory.hpp:77] Creating layer conv4_3_relu4_3_0_split
I1213 23:13:44.777911 28717 net.cpp:100] Creating Layer conv4_3_relu4_3_0_split
I1213 23:13:44.777916 28717 net.cpp:434] conv4_3_relu4_3_0_split <- conv4_3
I1213 23:13:44.777922 28717 net.cpp:408] conv4_3_relu4_3_0_split -> conv4_3_relu4_3_0_split_0
I1213 23:13:44.777935 28717 net.cpp:408] conv4_3_relu4_3_0_split -> conv4_3_relu4_3_0_split_1
I1213 23:13:44.777941 28717 net.cpp:408] conv4_3_relu4_3_0_split -> conv4_3_relu4_3_0_split_2
I1213 23:13:44.778004 28717 net.cpp:150] Setting up conv4_3_relu4_3_0_split
I1213 23:13:44.778012 28717 net.cpp:157] Top shape: 2 512 96 96 (9437184)
I1213 23:13:44.778017 28717 net.cpp:157] Top shape: 2 512 96 96 (9437184)
I1213 23:13:44.778023 28717 net.cpp:157] Top shape: 2 512 96 96 (9437184)
I1213 23:13:44.778025 28717 net.cpp:165] Memory required for data: 3056433436
I1213 23:13:44.778029 28717 layer_factory.hpp:77] Creating layer loss1_conv1
I1213 23:13:44.778043 28717 net.cpp:100] Creating Layer loss1_conv1
I1213 23:13:44.778049 28717 net.cpp:434] loss1_conv1 <- conv4_3_relu4_3_0_split_0
I1213 23:13:44.778082 28717 net.cpp:408] loss1_conv1 -> loss1_conv1
I1213 23:13:44.842541 28717 net.cpp:150] Setting up loss1_conv1
I1213 23:13:44.842566 28717 net.cpp:157] Top shape: 2 512 96 96 (9437184)
I1213 23:13:44.842571 28717 net.cpp:165] Memory required for data: 3094182172
I1213 23:13:44.842579 28717 layer_factory.hpp:77] Creating layer loss_relu1
I1213 23:13:44.842592 28717 net.cpp:100] Creating Layer loss_relu1
I1213 23:13:44.842597 28717 net.cpp:434] loss_relu1 <- loss1_conv1
I1213 23:13:44.842607 28717 net.cpp:395] loss_relu1 -> loss1_conv1 (in-place)
I1213 23:13:44.842783 28717 net.cpp:150] Setting up loss_relu1
I1213 23:13:44.842792 28717 net.cpp:157] Top shape: 2 512 96 96 (9437184)
I1213 23:13:44.842797 28717 net.cpp:165] Memory required for data: 3131930908
I1213 23:13:44.842799 28717 layer_factory.hpp:77] Creating layer loss1_conv1_loss_relu1_0_split
I1213 23:13:44.842805 28717 net.cpp:100] Creating Layer loss1_conv1_loss_relu1_0_split
I1213 23:13:44.842808 28717 net.cpp:434] loss1_conv1_loss_relu1_0_split <- loss1_conv1
I1213 23:13:44.842814 28717 net.cpp:408] loss1_conv1_loss_relu1_0_split -> loss1_conv1_loss_relu1_0_split_0
I1213 23:13:44.842820 28717 net.cpp:408] loss1_conv1_loss_relu1_0_split -> loss1_conv1_loss_relu1_0_split_1
I1213 23:13:44.842860 28717 net.cpp:150] Setting up loss1_conv1_loss_relu1_0_split
I1213 23:13:44.842867 28717 net.cpp:157] Top shape: 2 512 96 96 (9437184)
I1213 23:13:44.842872 28717 net.cpp:157] Top shape: 2 512 96 96 (9437184)
I1213 23:13:44.842875 28717 net.cpp:165] Memory required for data: 3207428380
I1213 23:13:44.842878 28717 layer_factory.hpp:77] Creating layer LFCN_1_5x5
I1213 23:13:44.842890 28717 net.cpp:100] Creating Layer LFCN_1_5x5
I1213 23:13:44.842893 28717 net.cpp:434] LFCN_1_5x5 <- loss1_conv1_loss_relu1_0_split_0
I1213 23:13:44.842900 28717 net.cpp:408] LFCN_1_5x5 -> LFCN_1_5x5
I1213 23:13:44.847594 28717 net.cpp:150] Setting up LFCN_1_5x5
I1213 23:13:44.847610 28717 net.cpp:157] Top shape: 2 9 96 96 (165888)
I1213 23:13:44.847615 28717 net.cpp:165] Memory required for data: 3208091932
I1213 23:13:44.847620 28717 layer_factory.hpp:77] Creating layer LFCN_1_5x5_LFCN_1_5x5_0_split
I1213 23:13:44.847630 28717 net.cpp:100] Creating Layer LFCN_1_5x5_LFCN_1_5x5_0_split
I1213 23:13:44.847633 28717 net.cpp:434] LFCN_1_5x5_LFCN_1_5x5_0_split <- LFCN_1_5x5
I1213 23:13:44.847640 28717 net.cpp:408] LFCN_1_5x5_LFCN_1_5x5_0_split -> LFCN_1_5x5_LFCN_1_5x5_0_split_0
I1213 23:13:44.847646 28717 net.cpp:408] LFCN_1_5x5_LFCN_1_5x5_0_split -> LFCN_1_5x5_LFCN_1_5x5_0_split_1
I1213 23:13:44.847651 28717 net.cpp:408] LFCN_1_5x5_LFCN_1_5x5_0_split -> LFCN_1_5x5_LFCN_1_5x5_0_split_2
I1213 23:13:44.847702 28717 net.cpp:150] Setting up LFCN_1_5x5_LFCN_1_5x5_0_split
I1213 23:13:44.847708 28717 net.cpp:157] Top shape: 2 9 96 96 (165888)
I1213 23:13:44.847712 28717 net.cpp:157] Top shape: 2 9 96 96 (165888)
I1213 23:13:44.847717 28717 net.cpp:157] Top shape: 2 9 96 96 (165888)
I1213 23:13:44.847719 28717 net.cpp:165] Memory required for data: 3210082588
I1213 23:13:44.847723 28717 layer_factory.hpp:77] Creating layer detection_loss_1_5x5
I1213 23:13:44.847733 28717 net.cpp:100] Creating Layer detection_loss_1_5x5
I1213 23:13:44.847735 28717 net.cpp:434] detection_loss_1_5x5 <- LFCN_1_5x5_LFCN_1_5x5_0_split_0
I1213 23:13:44.847740 28717 net.cpp:434] detection_loss_1_5x5 <- label_1_5x5_data_1_split_0
I1213 23:13:44.847745 28717 net.cpp:408] detection_loss_1_5x5 -> loss_1_5x5
I1213 23:13:44.847753 28717 layer_factory.hpp:77] Creating layer detection_loss_1_5x5
I1213 23:13:44.848201 28717 net.cpp:150] Setting up detection_loss_1_5x5
I1213 23:13:44.848212 28717 net.cpp:157] Top shape: 1 1 1 2 (2)
I1213 23:13:44.848214 28717 net.cpp:160]     with loss weight 0.9
I1213 23:13:44.848225 28717 net.cpp:165] Memory required for data: 3210082596
I1213 23:13:44.848229 28717 layer_factory.hpp:77] Creating layer detection_accuracy_1_5x5
I1213 23:13:44.848237 28717 net.cpp:100] Creating Layer detection_accuracy_1_5x5
I1213 23:13:44.848239 28717 net.cpp:434] detection_accuracy_1_5x5 <- LFCN_1_5x5_LFCN_1_5x5_0_split_1
I1213 23:13:44.848243 28717 net.cpp:434] detection_accuracy_1_5x5 <- label_1_5x5_data_1_split_1
I1213 23:13:44.848248 28717 net.cpp:408] detection_accuracy_1_5x5 -> accuracy_1_5x5
I1213 23:13:44.848254 28717 net.cpp:408] detection_accuracy_1_5x5 -> boxiou_1_5x5
I1213 23:13:44.848294 28717 net.cpp:150] Setting up detection_accuracy_1_5x5
I1213 23:13:44.848300 28717 net.cpp:157] Top shape: 1 1 1 2 (2)
I1213 23:13:44.848304 28717 net.cpp:157] Top shape: 1 1 1 1 (1)
I1213 23:13:44.848307 28717 net.cpp:165] Memory required for data: 3210082608
I1213 23:13:44.848310 28717 layer_factory.hpp:77] Creating layer LFCN_1_7x7
I1213 23:13:44.848320 28717 net.cpp:100] Creating Layer LFCN_1_7x7
I1213 23:13:44.848323 28717 net.cpp:434] LFCN_1_7x7 <- loss1_conv1_loss_relu1_0_split_1
I1213 23:13:44.848328 28717 net.cpp:408] LFCN_1_7x7 -> LFCN_1_7x7
I1213 23:13:44.854836 28717 net.cpp:150] Setting up LFCN_1_7x7
I1213 23:13:44.854849 28717 net.cpp:157] Top shape: 2 9 96 96 (165888)
I1213 23:13:44.854853 28717 net.cpp:165] Memory required for data: 3210746160
I1213 23:13:44.854859 28717 layer_factory.hpp:77] Creating layer LFCN_1_7x7_LFCN_1_7x7_0_split
I1213 23:13:44.854866 28717 net.cpp:100] Creating Layer LFCN_1_7x7_LFCN_1_7x7_0_split
I1213 23:13:44.854871 28717 net.cpp:434] LFCN_1_7x7_LFCN_1_7x7_0_split <- LFCN_1_7x7
I1213 23:13:44.854877 28717 net.cpp:408] LFCN_1_7x7_LFCN_1_7x7_0_split -> LFCN_1_7x7_LFCN_1_7x7_0_split_0
I1213 23:13:44.854883 28717 net.cpp:408] LFCN_1_7x7_LFCN_1_7x7_0_split -> LFCN_1_7x7_LFCN_1_7x7_0_split_1
I1213 23:13:44.854888 28717 net.cpp:408] LFCN_1_7x7_LFCN_1_7x7_0_split -> LFCN_1_7x7_LFCN_1_7x7_0_split_2
I1213 23:13:44.854939 28717 net.cpp:150] Setting up LFCN_1_7x7_LFCN_1_7x7_0_split
I1213 23:13:44.854946 28717 net.cpp:157] Top shape: 2 9 96 96 (165888)
I1213 23:13:44.854950 28717 net.cpp:157] Top shape: 2 9 96 96 (165888)
I1213 23:13:44.854954 28717 net.cpp:157] Top shape: 2 9 96 96 (165888)
I1213 23:13:44.854956 28717 net.cpp:165] Memory required for data: 3212736816
I1213 23:13:44.854960 28717 layer_factory.hpp:77] Creating layer detection_loss_1_7x7
I1213 23:13:44.854966 28717 net.cpp:100] Creating Layer detection_loss_1_7x7
I1213 23:13:44.854969 28717 net.cpp:434] detection_loss_1_7x7 <- LFCN_1_7x7_LFCN_1_7x7_0_split_0
I1213 23:13:44.854974 28717 net.cpp:434] detection_loss_1_7x7 <- label_1_7x7_data_2_split_0
I1213 23:13:44.854979 28717 net.cpp:408] detection_loss_1_7x7 -> loss_1_7x7
I1213 23:13:44.854985 28717 layer_factory.hpp:77] Creating layer detection_loss_1_7x7
I1213 23:13:44.855382 28717 net.cpp:150] Setting up detection_loss_1_7x7
I1213 23:13:44.855392 28717 net.cpp:157] Top shape: 1 1 1 2 (2)
I1213 23:13:44.855396 28717 net.cpp:160]     with loss weight 0.9
I1213 23:13:44.855403 28717 net.cpp:165] Memory required for data: 3212736824
I1213 23:13:44.855406 28717 layer_factory.hpp:77] Creating layer detection_accuracy_1_7x7
I1213 23:13:44.855412 28717 net.cpp:100] Creating Layer detection_accuracy_1_7x7
I1213 23:13:44.855417 28717 net.cpp:434] detection_accuracy_1_7x7 <- LFCN_1_7x7_LFCN_1_7x7_0_split_1
I1213 23:13:44.855420 28717 net.cpp:434] detection_accuracy_1_7x7 <- label_1_7x7_data_2_split_1
I1213 23:13:44.855424 28717 net.cpp:408] detection_accuracy_1_7x7 -> accuracy_1_7x7
I1213 23:13:44.855430 28717 net.cpp:408] detection_accuracy_1_7x7 -> boxiou_1_7x7
I1213 23:13:44.855468 28717 net.cpp:150] Setting up detection_accuracy_1_7x7
I1213 23:13:44.855474 28717 net.cpp:157] Top shape: 1 1 1 2 (2)
I1213 23:13:44.855479 28717 net.cpp:157] Top shape: 1 1 1 1 (1)
I1213 23:13:44.855480 28717 net.cpp:165] Memory required for data: 3212736836
I1213 23:13:44.855484 28717 layer_factory.hpp:77] Creating layer pool4
I1213 23:13:44.855491 28717 net.cpp:100] Creating Layer pool4
I1213 23:13:44.855495 28717 net.cpp:434] pool4 <- conv4_3_relu4_3_0_split_1
I1213 23:13:44.855500 28717 net.cpp:408] pool4 -> pool4
I1213 23:13:44.855536 28717 net.cpp:150] Setting up pool4
I1213 23:13:44.855542 28717 net.cpp:157] Top shape: 2 512 48 48 (2359296)
I1213 23:13:44.855545 28717 net.cpp:165] Memory required for data: 3222174020
I1213 23:13:44.855548 28717 layer_factory.hpp:77] Creating layer conv5_1
I1213 23:13:44.855556 28717 net.cpp:100] Creating Layer conv5_1
I1213 23:13:44.855558 28717 net.cpp:434] conv5_1 <- pool4
I1213 23:13:44.855562 28717 net.cpp:408] conv5_1 -> conv5_1
I1213 23:13:44.861289 28717 net.cpp:150] Setting up conv5_1
I1213 23:13:44.861320 28717 net.cpp:157] Top shape: 2 512 48 48 (2359296)
I1213 23:13:44.861325 28717 net.cpp:165] Memory required for data: 3231611204
I1213 23:13:44.861332 28717 layer_factory.hpp:77] Creating layer relu5_1
I1213 23:13:44.861343 28717 net.cpp:100] Creating Layer relu5_1
I1213 23:13:44.861348 28717 net.cpp:434] relu5_1 <- conv5_1
I1213 23:13:44.861356 28717 net.cpp:395] relu5_1 -> conv5_1 (in-place)
I1213 23:13:44.861507 28717 net.cpp:150] Setting up relu5_1
I1213 23:13:44.861515 28717 net.cpp:157] Top shape: 2 512 48 48 (2359296)
I1213 23:13:44.861519 28717 net.cpp:165] Memory required for data: 3241048388
I1213 23:13:44.861522 28717 layer_factory.hpp:77] Creating layer conv5_2
I1213 23:13:44.861532 28717 net.cpp:100] Creating Layer conv5_2
I1213 23:13:44.861536 28717 net.cpp:434] conv5_2 <- conv5_1
I1213 23:13:44.861541 28717 net.cpp:408] conv5_2 -> conv5_2
I1213 23:13:44.867264 28717 net.cpp:150] Setting up conv5_2
I1213 23:13:44.867292 28717 net.cpp:157] Top shape: 2 512 48 48 (2359296)
I1213 23:13:44.867296 28717 net.cpp:165] Memory required for data: 3250485572
I1213 23:13:44.867303 28717 layer_factory.hpp:77] Creating layer relu5_2
I1213 23:13:44.867316 28717 net.cpp:100] Creating Layer relu5_2
I1213 23:13:44.867321 28717 net.cpp:434] relu5_2 <- conv5_2
I1213 23:13:44.867326 28717 net.cpp:395] relu5_2 -> conv5_2 (in-place)
I1213 23:13:44.867826 28717 net.cpp:150] Setting up relu5_2
I1213 23:13:44.867838 28717 net.cpp:157] Top shape: 2 512 48 48 (2359296)
I1213 23:13:44.867842 28717 net.cpp:165] Memory required for data: 3259922756
I1213 23:13:44.867846 28717 layer_factory.hpp:77] Creating layer conv5_3
I1213 23:13:44.867856 28717 net.cpp:100] Creating Layer conv5_3
I1213 23:13:44.867859 28717 net.cpp:434] conv5_3 <- conv5_2
I1213 23:13:44.867866 28717 net.cpp:408] conv5_3 -> conv5_3
I1213 23:13:44.873847 28717 net.cpp:150] Setting up conv5_3
I1213 23:13:44.873874 28717 net.cpp:157] Top shape: 2 512 48 48 (2359296)
I1213 23:13:44.873878 28717 net.cpp:165] Memory required for data: 3269359940
I1213 23:13:44.873888 28717 layer_factory.hpp:77] Creating layer relu5_3
I1213 23:13:44.873898 28717 net.cpp:100] Creating Layer relu5_3
I1213 23:13:44.873905 28717 net.cpp:434] relu5_3 <- conv5_3
I1213 23:13:44.873912 28717 net.cpp:395] relu5_3 -> conv5_3 (in-place)
I1213 23:13:44.874089 28717 net.cpp:150] Setting up relu5_3
I1213 23:13:44.874097 28717 net.cpp:157] Top shape: 2 512 48 48 (2359296)
I1213 23:13:44.874100 28717 net.cpp:165] Memory required for data: 3278797124
I1213 23:13:44.874104 28717 layer_factory.hpp:77] Creating layer conv5_3_relu5_3_0_split
I1213 23:13:44.874110 28717 net.cpp:100] Creating Layer conv5_3_relu5_3_0_split
I1213 23:13:44.874114 28717 net.cpp:434] conv5_3_relu5_3_0_split <- conv5_3
I1213 23:13:44.874119 28717 net.cpp:408] conv5_3_relu5_3_0_split -> conv5_3_relu5_3_0_split_0
I1213 23:13:44.874135 28717 net.cpp:408] conv5_3_relu5_3_0_split -> conv5_3_relu5_3_0_split_1
I1213 23:13:44.874140 28717 net.cpp:408] conv5_3_relu5_3_0_split -> conv5_3_relu5_3_0_split_2
I1213 23:13:44.874191 28717 net.cpp:150] Setting up conv5_3_relu5_3_0_split
I1213 23:13:44.874198 28717 net.cpp:157] Top shape: 2 512 48 48 (2359296)
I1213 23:13:44.874202 28717 net.cpp:157] Top shape: 2 512 48 48 (2359296)
I1213 23:13:44.874207 28717 net.cpp:157] Top shape: 2 512 48 48 (2359296)
I1213 23:13:44.874210 28717 net.cpp:165] Memory required for data: 3307108676
I1213 23:13:44.874213 28717 layer_factory.hpp:77] Creating layer LFCN_2_5x5
I1213 23:13:44.874225 28717 net.cpp:100] Creating Layer LFCN_2_5x5
I1213 23:13:44.874230 28717 net.cpp:434] LFCN_2_5x5 <- conv5_3_relu5_3_0_split_0
I1213 23:13:44.874236 28717 net.cpp:408] LFCN_2_5x5 -> LFCN_2_5x5
I1213 23:13:44.878876 28717 net.cpp:150] Setting up LFCN_2_5x5
I1213 23:13:44.878891 28717 net.cpp:157] Top shape: 2 9 48 48 (41472)
I1213 23:13:44.878896 28717 net.cpp:165] Memory required for data: 3307274564
I1213 23:13:44.878908 28717 layer_factory.hpp:77] Creating layer LFCN_2_5x5_LFCN_2_5x5_0_split
I1213 23:13:44.878916 28717 net.cpp:100] Creating Layer LFCN_2_5x5_LFCN_2_5x5_0_split
I1213 23:13:44.878921 28717 net.cpp:434] LFCN_2_5x5_LFCN_2_5x5_0_split <- LFCN_2_5x5
I1213 23:13:44.878926 28717 net.cpp:408] LFCN_2_5x5_LFCN_2_5x5_0_split -> LFCN_2_5x5_LFCN_2_5x5_0_split_0
I1213 23:13:44.878931 28717 net.cpp:408] LFCN_2_5x5_LFCN_2_5x5_0_split -> LFCN_2_5x5_LFCN_2_5x5_0_split_1
I1213 23:13:44.878937 28717 net.cpp:408] LFCN_2_5x5_LFCN_2_5x5_0_split -> LFCN_2_5x5_LFCN_2_5x5_0_split_2
I1213 23:13:44.878993 28717 net.cpp:150] Setting up LFCN_2_5x5_LFCN_2_5x5_0_split
I1213 23:13:44.878998 28717 net.cpp:157] Top shape: 2 9 48 48 (41472)
I1213 23:13:44.879004 28717 net.cpp:157] Top shape: 2 9 48 48 (41472)
I1213 23:13:44.879007 28717 net.cpp:157] Top shape: 2 9 48 48 (41472)
I1213 23:13:44.879010 28717 net.cpp:165] Memory required for data: 3307772228
I1213 23:13:44.879014 28717 layer_factory.hpp:77] Creating layer detection_loss_2_5x5
I1213 23:13:44.879022 28717 net.cpp:100] Creating Layer detection_loss_2_5x5
I1213 23:13:44.879026 28717 net.cpp:434] detection_loss_2_5x5 <- LFCN_2_5x5_LFCN_2_5x5_0_split_0
I1213 23:13:44.879031 28717 net.cpp:434] detection_loss_2_5x5 <- label_2_5x5_data_3_split_0
I1213 23:13:44.879036 28717 net.cpp:408] detection_loss_2_5x5 -> loss_2_5x5
I1213 23:13:44.879045 28717 layer_factory.hpp:77] Creating layer detection_loss_2_5x5
I1213 23:13:44.879726 28717 net.cpp:150] Setting up detection_loss_2_5x5
I1213 23:13:44.879739 28717 net.cpp:157] Top shape: 1 1 1 2 (2)
I1213 23:13:44.879742 28717 net.cpp:160]     with loss weight 1
I1213 23:13:44.879753 28717 net.cpp:165] Memory required for data: 3307772236
I1213 23:13:44.879757 28717 layer_factory.hpp:77] Creating layer detection_accuracy_2_5x5
I1213 23:13:44.879765 28717 net.cpp:100] Creating Layer detection_accuracy_2_5x5
I1213 23:13:44.879768 28717 net.cpp:434] detection_accuracy_2_5x5 <- LFCN_2_5x5_LFCN_2_5x5_0_split_1
I1213 23:13:44.879773 28717 net.cpp:434] detection_accuracy_2_5x5 <- label_2_5x5_data_3_split_1
I1213 23:13:44.879779 28717 net.cpp:408] detection_accuracy_2_5x5 -> accuracy_2_5x5
I1213 23:13:44.879786 28717 net.cpp:408] detection_accuracy_2_5x5 -> boxiou_2_5x5
I1213 23:13:44.879823 28717 net.cpp:150] Setting up detection_accuracy_2_5x5
I1213 23:13:44.879830 28717 net.cpp:157] Top shape: 1 1 1 2 (2)
I1213 23:13:44.879834 28717 net.cpp:157] Top shape: 1 1 1 1 (1)
I1213 23:13:44.879837 28717 net.cpp:165] Memory required for data: 3307772248
I1213 23:13:44.879840 28717 layer_factory.hpp:77] Creating layer LFCN_2_7x7
I1213 23:13:44.879848 28717 net.cpp:100] Creating Layer LFCN_2_7x7
I1213 23:13:44.879853 28717 net.cpp:434] LFCN_2_7x7 <- conv5_3_relu5_3_0_split_1
I1213 23:13:44.879858 28717 net.cpp:408] LFCN_2_7x7 -> LFCN_2_7x7
I1213 23:13:44.886407 28717 net.cpp:150] Setting up LFCN_2_7x7
I1213 23:13:44.886420 28717 net.cpp:157] Top shape: 2 9 48 48 (41472)
I1213 23:13:44.886425 28717 net.cpp:165] Memory required for data: 3307938136
I1213 23:13:44.886430 28717 layer_factory.hpp:77] Creating layer LFCN_2_7x7_LFCN_2_7x7_0_split
I1213 23:13:44.886436 28717 net.cpp:100] Creating Layer LFCN_2_7x7_LFCN_2_7x7_0_split
I1213 23:13:44.886440 28717 net.cpp:434] LFCN_2_7x7_LFCN_2_7x7_0_split <- LFCN_2_7x7
I1213 23:13:44.886446 28717 net.cpp:408] LFCN_2_7x7_LFCN_2_7x7_0_split -> LFCN_2_7x7_LFCN_2_7x7_0_split_0
I1213 23:13:44.886452 28717 net.cpp:408] LFCN_2_7x7_LFCN_2_7x7_0_split -> LFCN_2_7x7_LFCN_2_7x7_0_split_1
I1213 23:13:44.886457 28717 net.cpp:408] LFCN_2_7x7_LFCN_2_7x7_0_split -> LFCN_2_7x7_LFCN_2_7x7_0_split_2
I1213 23:13:44.886508 28717 net.cpp:150] Setting up LFCN_2_7x7_LFCN_2_7x7_0_split
I1213 23:13:44.886514 28717 net.cpp:157] Top shape: 2 9 48 48 (41472)
I1213 23:13:44.886519 28717 net.cpp:157] Top shape: 2 9 48 48 (41472)
I1213 23:13:44.886523 28717 net.cpp:157] Top shape: 2 9 48 48 (41472)
I1213 23:13:44.886526 28717 net.cpp:165] Memory required for data: 3308435800
I1213 23:13:44.886529 28717 layer_factory.hpp:77] Creating layer detection_loss_2_7x7
I1213 23:13:44.886534 28717 net.cpp:100] Creating Layer detection_loss_2_7x7
I1213 23:13:44.886538 28717 net.cpp:434] detection_loss_2_7x7 <- LFCN_2_7x7_LFCN_2_7x7_0_split_0
I1213 23:13:44.886543 28717 net.cpp:434] detection_loss_2_7x7 <- label_2_7x7_data_4_split_0
I1213 23:13:44.886548 28717 net.cpp:408] detection_loss_2_7x7 -> loss_2_7x7
I1213 23:13:44.886555 28717 layer_factory.hpp:77] Creating layer detection_loss_2_7x7
I1213 23:13:44.886905 28717 net.cpp:150] Setting up detection_loss_2_7x7
I1213 23:13:44.886915 28717 net.cpp:157] Top shape: 1 1 1 2 (2)
I1213 23:13:44.886919 28717 net.cpp:160]     with loss weight 1
I1213 23:13:44.886924 28717 net.cpp:165] Memory required for data: 3308435808
I1213 23:13:44.886927 28717 layer_factory.hpp:77] Creating layer detection_accuracy_2_7x7
I1213 23:13:44.886934 28717 net.cpp:100] Creating Layer detection_accuracy_2_7x7
I1213 23:13:44.886936 28717 net.cpp:434] detection_accuracy_2_7x7 <- LFCN_2_7x7_LFCN_2_7x7_0_split_1
I1213 23:13:44.886941 28717 net.cpp:434] detection_accuracy_2_7x7 <- label_2_7x7_data_4_split_1
I1213 23:13:44.886947 28717 net.cpp:408] detection_accuracy_2_7x7 -> accuracy_2_7x7
I1213 23:13:44.886955 28717 net.cpp:408] detection_accuracy_2_7x7 -> boxiou_2_7x7
I1213 23:13:44.886991 28717 net.cpp:150] Setting up detection_accuracy_2_7x7
I1213 23:13:44.886998 28717 net.cpp:157] Top shape: 1 1 1 2 (2)
I1213 23:13:44.887002 28717 net.cpp:157] Top shape: 1 1 1 1 (1)
I1213 23:13:44.887006 28717 net.cpp:165] Memory required for data: 3308435820
I1213 23:13:44.887009 28717 layer_factory.hpp:77] Creating layer pool5
I1213 23:13:44.887015 28717 net.cpp:100] Creating Layer pool5
I1213 23:13:44.887018 28717 net.cpp:434] pool5 <- conv5_3_relu5_3_0_split_2
I1213 23:13:44.887023 28717 net.cpp:408] pool5 -> pool5
I1213 23:13:44.887060 28717 net.cpp:150] Setting up pool5
I1213 23:13:44.887066 28717 net.cpp:157] Top shape: 2 512 24 24 (589824)
I1213 23:13:44.887069 28717 net.cpp:165] Memory required for data: 3310795116
I1213 23:13:44.887073 28717 layer_factory.hpp:77] Creating layer conv6_1
I1213 23:13:44.887081 28717 net.cpp:100] Creating Layer conv6_1
I1213 23:13:44.887084 28717 net.cpp:434] conv6_1 <- pool5
I1213 23:13:44.887090 28717 net.cpp:408] conv6_1 -> conv6_1
I1213 23:13:44.947417 28717 net.cpp:150] Setting up conv6_1
I1213 23:13:44.947445 28717 net.cpp:157] Top shape: 2 512 24 24 (589824)
I1213 23:13:44.947449 28717 net.cpp:165] Memory required for data: 3313154412
I1213 23:13:44.947458 28717 layer_factory.hpp:77] Creating layer relu6_1
I1213 23:13:44.947476 28717 net.cpp:100] Creating Layer relu6_1
I1213 23:13:44.947482 28717 net.cpp:434] relu6_1 <- conv6_1
I1213 23:13:44.947489 28717 net.cpp:395] relu6_1 -> conv6_1 (in-place)
I1213 23:13:44.947659 28717 net.cpp:150] Setting up relu6_1
I1213 23:13:44.947669 28717 net.cpp:157] Top shape: 2 512 24 24 (589824)
I1213 23:13:44.947672 28717 net.cpp:165] Memory required for data: 3315513708
I1213 23:13:44.947675 28717 layer_factory.hpp:77] Creating layer conv6_1_relu6_1_0_split
I1213 23:13:44.947681 28717 net.cpp:100] Creating Layer conv6_1_relu6_1_0_split
I1213 23:13:44.947685 28717 net.cpp:434] conv6_1_relu6_1_0_split <- conv6_1
I1213 23:13:44.947690 28717 net.cpp:408] conv6_1_relu6_1_0_split -> conv6_1_relu6_1_0_split_0
I1213 23:13:44.947696 28717 net.cpp:408] conv6_1_relu6_1_0_split -> conv6_1_relu6_1_0_split_1
I1213 23:13:44.947703 28717 net.cpp:408] conv6_1_relu6_1_0_split -> conv6_1_relu6_1_0_split_2
I1213 23:13:44.947755 28717 net.cpp:150] Setting up conv6_1_relu6_1_0_split
I1213 23:13:44.947762 28717 net.cpp:157] Top shape: 2 512 24 24 (589824)
I1213 23:13:44.947767 28717 net.cpp:157] Top shape: 2 512 24 24 (589824)
I1213 23:13:44.947770 28717 net.cpp:157] Top shape: 2 512 24 24 (589824)
I1213 23:13:44.947773 28717 net.cpp:165] Memory required for data: 3322591596
I1213 23:13:44.947777 28717 layer_factory.hpp:77] Creating layer LFCN_3_5x5
I1213 23:13:44.947787 28717 net.cpp:100] Creating Layer LFCN_3_5x5
I1213 23:13:44.947789 28717 net.cpp:434] LFCN_3_5x5 <- conv6_1_relu6_1_0_split_0
I1213 23:13:44.947796 28717 net.cpp:408] LFCN_3_5x5 -> LFCN_3_5x5
I1213 23:13:44.951831 28717 net.cpp:150] Setting up LFCN_3_5x5
I1213 23:13:44.951844 28717 net.cpp:157] Top shape: 2 9 24 24 (10368)
I1213 23:13:44.951848 28717 net.cpp:165] Memory required for data: 3322633068
I1213 23:13:44.951854 28717 layer_factory.hpp:77] Creating layer LFCN_3_5x5_LFCN_3_5x5_0_split
I1213 23:13:44.951861 28717 net.cpp:100] Creating Layer LFCN_3_5x5_LFCN_3_5x5_0_split
I1213 23:13:44.951865 28717 net.cpp:434] LFCN_3_5x5_LFCN_3_5x5_0_split <- LFCN_3_5x5
I1213 23:13:44.951870 28717 net.cpp:408] LFCN_3_5x5_LFCN_3_5x5_0_split -> LFCN_3_5x5_LFCN_3_5x5_0_split_0
I1213 23:13:44.951877 28717 net.cpp:408] LFCN_3_5x5_LFCN_3_5x5_0_split -> LFCN_3_5x5_LFCN_3_5x5_0_split_1
I1213 23:13:44.951884 28717 net.cpp:408] LFCN_3_5x5_LFCN_3_5x5_0_split -> LFCN_3_5x5_LFCN_3_5x5_0_split_2
I1213 23:13:44.951934 28717 net.cpp:150] Setting up LFCN_3_5x5_LFCN_3_5x5_0_split
I1213 23:13:44.951941 28717 net.cpp:157] Top shape: 2 9 24 24 (10368)
I1213 23:13:44.951943 28717 net.cpp:157] Top shape: 2 9 24 24 (10368)
I1213 23:13:44.951946 28717 net.cpp:157] Top shape: 2 9 24 24 (10368)
I1213 23:13:44.951949 28717 net.cpp:165] Memory required for data: 3322757484
I1213 23:13:44.951952 28717 layer_factory.hpp:77] Creating layer detection_loss_3_5x5
I1213 23:13:44.951959 28717 net.cpp:100] Creating Layer detection_loss_3_5x5
I1213 23:13:44.951964 28717 net.cpp:434] detection_loss_3_5x5 <- LFCN_3_5x5_LFCN_3_5x5_0_split_0
I1213 23:13:44.951968 28717 net.cpp:434] detection_loss_3_5x5 <- label_3_5x5_data_5_split_0
I1213 23:13:44.951975 28717 net.cpp:408] detection_loss_3_5x5 -> loss_3_5x5
I1213 23:13:44.951985 28717 layer_factory.hpp:77] Creating layer detection_loss_3_5x5
I1213 23:13:44.952317 28717 net.cpp:150] Setting up detection_loss_3_5x5
I1213 23:13:44.952327 28717 net.cpp:157] Top shape: 1 1 1 2 (2)
I1213 23:13:44.952330 28717 net.cpp:160]     with loss weight 1
I1213 23:13:44.952340 28717 net.cpp:165] Memory required for data: 3322757492
I1213 23:13:44.952344 28717 layer_factory.hpp:77] Creating layer detection_accuracy_3_5x5
I1213 23:13:44.952352 28717 net.cpp:100] Creating Layer detection_accuracy_3_5x5
I1213 23:13:44.952354 28717 net.cpp:434] detection_accuracy_3_5x5 <- LFCN_3_5x5_LFCN_3_5x5_0_split_1
I1213 23:13:44.952359 28717 net.cpp:434] detection_accuracy_3_5x5 <- label_3_5x5_data_5_split_1
I1213 23:13:44.952364 28717 net.cpp:408] detection_accuracy_3_5x5 -> accuracy_3_5x5
I1213 23:13:44.952371 28717 net.cpp:408] detection_accuracy_3_5x5 -> boxiou_3_5x5
I1213 23:13:44.952409 28717 net.cpp:150] Setting up detection_accuracy_3_5x5
I1213 23:13:44.952415 28717 net.cpp:157] Top shape: 1 1 1 2 (2)
I1213 23:13:44.952419 28717 net.cpp:157] Top shape: 1 1 1 1 (1)
I1213 23:13:44.952422 28717 net.cpp:165] Memory required for data: 3322757504
I1213 23:13:44.952425 28717 layer_factory.hpp:77] Creating layer LFCN_3_7x7
I1213 23:13:44.952433 28717 net.cpp:100] Creating Layer LFCN_3_7x7
I1213 23:13:44.952436 28717 net.cpp:434] LFCN_3_7x7 <- conv6_1_relu6_1_0_split_1
I1213 23:13:44.952441 28717 net.cpp:408] LFCN_3_7x7 -> LFCN_3_7x7
I1213 23:13:44.959882 28717 net.cpp:150] Setting up LFCN_3_7x7
I1213 23:13:44.959898 28717 net.cpp:157] Top shape: 2 9 24 24 (10368)
I1213 23:13:44.959903 28717 net.cpp:165] Memory required for data: 3322798976
I1213 23:13:44.959909 28717 layer_factory.hpp:77] Creating layer LFCN_3_7x7_LFCN_3_7x7_0_split
I1213 23:13:44.959918 28717 net.cpp:100] Creating Layer LFCN_3_7x7_LFCN_3_7x7_0_split
I1213 23:13:44.959923 28717 net.cpp:434] LFCN_3_7x7_LFCN_3_7x7_0_split <- LFCN_3_7x7
I1213 23:13:44.959930 28717 net.cpp:408] LFCN_3_7x7_LFCN_3_7x7_0_split -> LFCN_3_7x7_LFCN_3_7x7_0_split_0
I1213 23:13:44.959939 28717 net.cpp:408] LFCN_3_7x7_LFCN_3_7x7_0_split -> LFCN_3_7x7_LFCN_3_7x7_0_split_1
I1213 23:13:44.959944 28717 net.cpp:408] LFCN_3_7x7_LFCN_3_7x7_0_split -> LFCN_3_7x7_LFCN_3_7x7_0_split_2
I1213 23:13:44.959990 28717 net.cpp:150] Setting up LFCN_3_7x7_LFCN_3_7x7_0_split
I1213 23:13:44.959995 28717 net.cpp:157] Top shape: 2 9 24 24 (10368)
I1213 23:13:44.959998 28717 net.cpp:157] Top shape: 2 9 24 24 (10368)
I1213 23:13:44.960001 28717 net.cpp:157] Top shape: 2 9 24 24 (10368)
I1213 23:13:44.960005 28717 net.cpp:165] Memory required for data: 3322923392
I1213 23:13:44.960007 28717 layer_factory.hpp:77] Creating layer detection_loss_3_7x7
I1213 23:13:44.960013 28717 net.cpp:100] Creating Layer detection_loss_3_7x7
I1213 23:13:44.960017 28717 net.cpp:434] detection_loss_3_7x7 <- LFCN_3_7x7_LFCN_3_7x7_0_split_0
I1213 23:13:44.960022 28717 net.cpp:434] detection_loss_3_7x7 <- label_3_7x7_data_6_split_0
I1213 23:13:44.960028 28717 net.cpp:408] detection_loss_3_7x7 -> loss_3_7x7
I1213 23:13:44.960036 28717 layer_factory.hpp:77] Creating layer detection_loss_3_7x7
I1213 23:13:44.960727 28717 net.cpp:150] Setting up detection_loss_3_7x7
I1213 23:13:44.960739 28717 net.cpp:157] Top shape: 1 1 1 2 (2)
I1213 23:13:44.960743 28717 net.cpp:160]     with loss weight 1
I1213 23:13:44.960750 28717 net.cpp:165] Memory required for data: 3322923400
I1213 23:13:44.960753 28717 layer_factory.hpp:77] Creating layer detection_accuracy_3_7x7
I1213 23:13:44.960762 28717 net.cpp:100] Creating Layer detection_accuracy_3_7x7
I1213 23:13:44.960764 28717 net.cpp:434] detection_accuracy_3_7x7 <- LFCN_3_7x7_LFCN_3_7x7_0_split_1
I1213 23:13:44.960769 28717 net.cpp:434] detection_accuracy_3_7x7 <- label_3_7x7_data_6_split_1
I1213 23:13:44.960774 28717 net.cpp:408] detection_accuracy_3_7x7 -> accuracy_3_7x7
I1213 23:13:44.960780 28717 net.cpp:408] detection_accuracy_3_7x7 -> boxiou_3_7x7
I1213 23:13:44.960820 28717 net.cpp:150] Setting up detection_accuracy_3_7x7
I1213 23:13:44.960827 28717 net.cpp:157] Top shape: 1 1 1 2 (2)
I1213 23:13:44.960831 28717 net.cpp:157] Top shape: 1 1 1 1 (1)
I1213 23:13:44.960834 28717 net.cpp:165] Memory required for data: 3322923412
I1213 23:13:44.960837 28717 layer_factory.hpp:77] Creating layer pool6
I1213 23:13:44.960844 28717 net.cpp:100] Creating Layer pool6
I1213 23:13:44.960847 28717 net.cpp:434] pool6 <- conv6_1_relu6_1_0_split_2
I1213 23:13:44.960853 28717 net.cpp:408] pool6 -> pool6
I1213 23:13:44.960889 28717 net.cpp:150] Setting up pool6
I1213 23:13:44.960896 28717 net.cpp:157] Top shape: 2 512 12 12 (147456)
I1213 23:13:44.960898 28717 net.cpp:165] Memory required for data: 3323513236
I1213 23:13:44.960901 28717 layer_factory.hpp:77] Creating layer LFCN_4_5x5
I1213 23:13:44.960912 28717 net.cpp:100] Creating Layer LFCN_4_5x5
I1213 23:13:44.960916 28717 net.cpp:434] LFCN_4_5x5 <- pool6
I1213 23:13:44.960921 28717 net.cpp:408] LFCN_4_5x5 -> LFCN_4_5x5
I1213 23:13:44.964815 28717 net.cpp:150] Setting up LFCN_4_5x5
I1213 23:13:44.964829 28717 net.cpp:157] Top shape: 2 9 12 12 (2592)
I1213 23:13:44.964833 28717 net.cpp:165] Memory required for data: 3323523604
I1213 23:13:44.964839 28717 layer_factory.hpp:77] Creating layer LFCN_4_5x5_LFCN_4_5x5_0_split
I1213 23:13:44.964844 28717 net.cpp:100] Creating Layer LFCN_4_5x5_LFCN_4_5x5_0_split
I1213 23:13:44.964848 28717 net.cpp:434] LFCN_4_5x5_LFCN_4_5x5_0_split <- LFCN_4_5x5
I1213 23:13:44.964854 28717 net.cpp:408] LFCN_4_5x5_LFCN_4_5x5_0_split -> LFCN_4_5x5_LFCN_4_5x5_0_split_0
I1213 23:13:44.964860 28717 net.cpp:408] LFCN_4_5x5_LFCN_4_5x5_0_split -> LFCN_4_5x5_LFCN_4_5x5_0_split_1
I1213 23:13:44.964865 28717 net.cpp:408] LFCN_4_5x5_LFCN_4_5x5_0_split -> LFCN_4_5x5_LFCN_4_5x5_0_split_2
I1213 23:13:44.964916 28717 net.cpp:150] Setting up LFCN_4_5x5_LFCN_4_5x5_0_split
I1213 23:13:44.964923 28717 net.cpp:157] Top shape: 2 9 12 12 (2592)
I1213 23:13:44.964928 28717 net.cpp:157] Top shape: 2 9 12 12 (2592)
I1213 23:13:44.964932 28717 net.cpp:157] Top shape: 2 9 12 12 (2592)
I1213 23:13:44.964936 28717 net.cpp:165] Memory required for data: 3323554708
I1213 23:13:44.964938 28717 layer_factory.hpp:77] Creating layer detection_loss_4_5x5
I1213 23:13:44.964944 28717 net.cpp:100] Creating Layer detection_loss_4_5x5
I1213 23:13:44.964948 28717 net.cpp:434] detection_loss_4_5x5 <- LFCN_4_5x5_LFCN_4_5x5_0_split_0
I1213 23:13:44.964952 28717 net.cpp:434] detection_loss_4_5x5 <- label_4_5x5_data_7_split_0
I1213 23:13:44.964959 28717 net.cpp:408] detection_loss_4_5x5 -> loss_4_5x5
I1213 23:13:44.964967 28717 layer_factory.hpp:77] Creating layer detection_loss_4_5x5
I1213 23:13:44.965338 28717 net.cpp:150] Setting up detection_loss_4_5x5
I1213 23:13:44.965349 28717 net.cpp:157] Top shape: 1 1 1 2 (2)
I1213 23:13:44.965353 28717 net.cpp:160]     with loss weight 1
I1213 23:13:44.965359 28717 net.cpp:165] Memory required for data: 3323554716
I1213 23:13:44.965364 28717 layer_factory.hpp:77] Creating layer detection_accuracy_4_5x5
I1213 23:13:44.965371 28717 net.cpp:100] Creating Layer detection_accuracy_4_5x5
I1213 23:13:44.965375 28717 net.cpp:434] detection_accuracy_4_5x5 <- LFCN_4_5x5_LFCN_4_5x5_0_split_1
I1213 23:13:44.965382 28717 net.cpp:434] detection_accuracy_4_5x5 <- label_4_5x5_data_7_split_1
I1213 23:13:44.965387 28717 net.cpp:408] detection_accuracy_4_5x5 -> accuracy_4_5x5
I1213 23:13:44.965394 28717 net.cpp:408] detection_accuracy_4_5x5 -> boxiou_4_5x5
I1213 23:13:44.965430 28717 net.cpp:150] Setting up detection_accuracy_4_5x5
I1213 23:13:44.965437 28717 net.cpp:157] Top shape: 1 1 1 2 (2)
I1213 23:13:44.965440 28717 net.cpp:157] Top shape: 1 1 1 1 (1)
I1213 23:13:44.965443 28717 net.cpp:165] Memory required for data: 3323554728
I1213 23:13:44.965446 28717 layer_factory.hpp:77] Creating layer proposals
I1213 23:13:44.965453 28717 net.cpp:100] Creating Layer proposals
I1213 23:13:44.965457 28717 net.cpp:434] proposals <- LFCN_1_5x5_LFCN_1_5x5_0_split_2
I1213 23:13:44.965461 28717 net.cpp:434] proposals <- LFCN_1_7x7_LFCN_1_7x7_0_split_2
I1213 23:13:44.965466 28717 net.cpp:434] proposals <- LFCN_2_5x5_LFCN_2_5x5_0_split_2
I1213 23:13:44.965469 28717 net.cpp:434] proposals <- LFCN_2_7x7_LFCN_2_7x7_0_split_2
I1213 23:13:44.965472 28717 net.cpp:434] proposals <- LFCN_3_5x5_LFCN_3_5x5_0_split_2
I1213 23:13:44.965476 28717 net.cpp:434] proposals <- LFCN_3_7x7_LFCN_3_7x7_0_split_2
I1213 23:13:44.965479 28717 net.cpp:434] proposals <- LFCN_4_5x5_LFCN_4_5x5_0_split_2
I1213 23:13:44.965484 28717 net.cpp:408] proposals -> proposals
I1213 23:13:44.965508 28717 net.cpp:150] Setting up proposals
I1213 23:13:44.965514 28717 net.cpp:157] Top shape: 1 5 1 1 (5)
I1213 23:13:44.965517 28717 net.cpp:165] Memory required for data: 3323554748
I1213 23:13:44.965520 28717 layer_factory.hpp:77] Creating layer proposal_info
I1213 23:13:44.965528 28717 net.cpp:100] Creating Layer proposal_info
I1213 23:13:44.965531 28717 net.cpp:434] proposal_info <- proposals
I1213 23:13:44.965536 28717 net.cpp:434] proposal_info <- gt_boxes
I1213 23:13:44.965543 28717 net.cpp:408] proposal_info -> rois
I1213 23:13:44.965548 28717 net.cpp:408] proposal_info -> proposal_labels
I1213 23:13:44.965554 28717 net.cpp:408] proposal_info -> proposal_targets
I1213 23:13:44.965560 28717 net.cpp:408] proposal_info -> box_inside_weights
I1213 23:13:44.965567 28717 net.cpp:408] proposal_info -> box_outside_weights
I1213 23:13:44.965574 28717 net.cpp:408] proposal_info -> match_gt_boxes
I1213 23:13:44.965661 28717 net.cpp:150] Setting up proposal_info
I1213 23:13:44.965667 28717 net.cpp:157] Top shape: 128 5 1 1 (640)
I1213 23:13:44.965672 28717 net.cpp:157] Top shape: 128 1 1 1 (128)
I1213 23:13:44.965675 28717 net.cpp:157] Top shape: 128 20 1 1 (2560)
I1213 23:13:44.965679 28717 net.cpp:157] Top shape: 128 20 1 1 (2560)
I1213 23:13:44.965683 28717 net.cpp:157] Top shape: 128 20 1 1 (2560)
I1213 23:13:44.965687 28717 net.cpp:157] Top shape: 128 6 1 1 (768)
I1213 23:13:44.965689 28717 net.cpp:165] Memory required for data: 3323591612
I1213 23:13:44.965693 28717 layer_factory.hpp:77] Creating layer rois_proposal_info_0_split
I1213 23:13:44.965698 28717 net.cpp:100] Creating Layer rois_proposal_info_0_split
I1213 23:13:44.965700 28717 net.cpp:434] rois_proposal_info_0_split <- rois
I1213 23:13:44.965705 28717 net.cpp:408] rois_proposal_info_0_split -> rois_proposal_info_0_split_0
I1213 23:13:44.965710 28717 net.cpp:408] rois_proposal_info_0_split -> rois_proposal_info_0_split_1
I1213 23:13:44.965715 28717 net.cpp:408] rois_proposal_info_0_split -> rois_proposal_info_0_split_2
I1213 23:13:44.965760 28717 net.cpp:150] Setting up rois_proposal_info_0_split
I1213 23:13:44.965766 28717 net.cpp:157] Top shape: 128 5 1 1 (640)
I1213 23:13:44.965770 28717 net.cpp:157] Top shape: 128 5 1 1 (640)
I1213 23:13:44.965775 28717 net.cpp:157] Top shape: 128 5 1 1 (640)
I1213 23:13:44.965777 28717 net.cpp:165] Memory required for data: 3323599292
I1213 23:13:44.965780 28717 layer_factory.hpp:77] Creating layer proposal_labels_proposal_info_1_split
I1213 23:13:44.965785 28717 net.cpp:100] Creating Layer proposal_labels_proposal_info_1_split
I1213 23:13:44.965788 28717 net.cpp:434] proposal_labels_proposal_info_1_split <- proposal_labels
I1213 23:13:44.965792 28717 net.cpp:408] proposal_labels_proposal_info_1_split -> proposal_labels_proposal_info_1_split_0
I1213 23:13:44.965798 28717 net.cpp:408] proposal_labels_proposal_info_1_split -> proposal_labels_proposal_info_1_split_1
I1213 23:13:44.965831 28717 net.cpp:150] Setting up proposal_labels_proposal_info_1_split
I1213 23:13:44.965837 28717 net.cpp:157] Top shape: 128 1 1 1 (128)
I1213 23:13:44.965840 28717 net.cpp:157] Top shape: 128 1 1 1 (128)
I1213 23:13:44.965843 28717 net.cpp:165] Memory required for data: 3323600316
I1213 23:13:44.965847 28717 layer_factory.hpp:77] Creating layer conv4_3_2x
I1213 23:13:44.965853 28717 net.cpp:100] Creating Layer conv4_3_2x
I1213 23:13:44.965857 28717 net.cpp:434] conv4_3_2x <- conv4_3_relu4_3_0_split_2
I1213 23:13:44.965863 28717 net.cpp:408] conv4_3_2x -> conv4_3_2x
I1213 23:13:44.966356 28717 net.cpp:150] Setting up conv4_3_2x
I1213 23:13:44.966364 28717 net.cpp:157] Top shape: 2 512 192 192 (37748736)
I1213 23:13:44.966368 28717 net.cpp:165] Memory required for data: 3474595260
I1213 23:13:44.966372 28717 layer_factory.hpp:77] Creating layer conv4_3_2x_conv4_3_2x_0_split
I1213 23:13:44.966377 28717 net.cpp:100] Creating Layer conv4_3_2x_conv4_3_2x_0_split
I1213 23:13:44.966380 28717 net.cpp:434] conv4_3_2x_conv4_3_2x_0_split <- conv4_3_2x
I1213 23:13:44.966384 28717 net.cpp:408] conv4_3_2x_conv4_3_2x_0_split -> conv4_3_2x_conv4_3_2x_0_split_0
I1213 23:13:44.966390 28717 net.cpp:408] conv4_3_2x_conv4_3_2x_0_split -> conv4_3_2x_conv4_3_2x_0_split_1
I1213 23:13:44.966426 28717 net.cpp:150] Setting up conv4_3_2x_conv4_3_2x_0_split
I1213 23:13:44.966434 28717 net.cpp:157] Top shape: 2 512 192 192 (37748736)
I1213 23:13:44.966437 28717 net.cpp:157] Top shape: 2 512 192 192 (37748736)
I1213 23:13:44.966440 28717 net.cpp:165] Memory required for data: 3776585148
I1213 23:13:44.966444 28717 layer_factory.hpp:77] Creating layer roi_pool_org
I1213 23:13:44.966449 28717 net.cpp:100] Creating Layer roi_pool_org
I1213 23:13:44.966452 28717 net.cpp:434] roi_pool_org <- conv4_3_2x_conv4_3_2x_0_split_0
I1213 23:13:44.966456 28717 net.cpp:434] roi_pool_org <- rois_proposal_info_0_split_0
I1213 23:13:44.966462 28717 net.cpp:408] roi_pool_org -> roi_pool_org
I1213 23:13:44.966468 28717 roi_pooling_layer.cpp:33] Spatial scale: 0.25
I1213 23:13:44.966504 28717 net.cpp:150] Setting up roi_pool_org
I1213 23:13:44.966511 28717 net.cpp:157] Top shape: 128 512 7 7 (3211264)
I1213 23:13:44.966514 28717 net.cpp:165] Memory required for data: 3789430204
I1213 23:13:44.966517 28717 layer_factory.hpp:77] Creating layer roi_pool_ctx
I1213 23:13:44.966522 28717 net.cpp:100] Creating Layer roi_pool_ctx
I1213 23:13:44.966526 28717 net.cpp:434] roi_pool_ctx <- conv4_3_2x_conv4_3_2x_0_split_1
I1213 23:13:44.966531 28717 net.cpp:434] roi_pool_ctx <- rois_proposal_info_0_split_1
I1213 23:13:44.966534 28717 net.cpp:408] roi_pool_ctx -> roi_pool_ctx
I1213 23:13:44.966539 28717 roi_pooling_layer.cpp:33] Spatial scale: 0.25
I1213 23:13:44.966574 28717 net.cpp:150] Setting up roi_pool_ctx
I1213 23:13:44.966580 28717 net.cpp:157] Top shape: 128 512 7 7 (3211264)
I1213 23:13:44.966584 28717 net.cpp:165] Memory required for data: 3802275260
I1213 23:13:44.966586 28717 layer_factory.hpp:77] Creating layer roi_pool
I1213 23:13:44.966591 28717 net.cpp:100] Creating Layer roi_pool
I1213 23:13:44.966594 28717 net.cpp:434] roi_pool <- roi_pool_org
I1213 23:13:44.966598 28717 net.cpp:434] roi_pool <- roi_pool_ctx
I1213 23:13:44.966603 28717 net.cpp:408] roi_pool -> roi_pool
I1213 23:13:44.966625 28717 net.cpp:150] Setting up roi_pool
I1213 23:13:44.966630 28717 net.cpp:157] Top shape: 128 1024 7 7 (6422528)
I1213 23:13:44.966634 28717 net.cpp:165] Memory required for data: 3827965372
I1213 23:13:44.966636 28717 layer_factory.hpp:77] Creating layer roi_c1
I1213 23:13:44.966646 28717 net.cpp:100] Creating Layer roi_c1
I1213 23:13:44.966650 28717 net.cpp:434] roi_c1 <- roi_pool
I1213 23:13:44.966655 28717 net.cpp:408] roi_c1 -> roi_c1
I1213 23:13:45.079283 28717 net.cpp:150] Setting up roi_c1
I1213 23:13:45.079313 28717 net.cpp:157] Top shape: 128 512 5 5 (1638400)
I1213 23:13:45.079318 28717 net.cpp:165] Memory required for data: 3834518972
I1213 23:13:45.079324 28717 layer_factory.hpp:77] Creating layer roi_c1_relu
I1213 23:13:45.079336 28717 net.cpp:100] Creating Layer roi_c1_relu
I1213 23:13:45.079341 28717 net.cpp:434] roi_c1_relu <- roi_c1
I1213 23:13:45.079349 28717 net.cpp:395] roi_c1_relu -> roi_c1 (in-place)
I1213 23:13:45.079495 28717 net.cpp:150] Setting up roi_c1_relu
I1213 23:13:45.079505 28717 net.cpp:157] Top shape: 128 512 5 5 (1638400)
I1213 23:13:45.079509 28717 net.cpp:165] Memory required for data: 3841072572
I1213 23:13:45.079511 28717 layer_factory.hpp:77] Creating layer fc6
I1213 23:13:45.079519 28717 net.cpp:100] Creating Layer fc6
I1213 23:13:45.079524 28717 net.cpp:434] fc6 <- roi_c1
I1213 23:13:45.079530 28717 net.cpp:408] fc6 -> fc6
I1213 23:13:46.299791 28717 net.cpp:150] Setting up fc6
I1213 23:13:46.299827 28717 net.cpp:157] Top shape: 128 4096 (524288)
I1213 23:13:46.299830 28717 net.cpp:165] Memory required for data: 3843169724
I1213 23:13:46.299839 28717 layer_factory.hpp:77] Creating layer relu6
I1213 23:13:46.299849 28717 net.cpp:100] Creating Layer relu6
I1213 23:13:46.299855 28717 net.cpp:434] relu6 <- fc6
I1213 23:13:46.299862 28717 net.cpp:395] relu6 -> fc6 (in-place)
I1213 23:13:46.300102 28717 net.cpp:150] Setting up relu6
I1213 23:13:46.300112 28717 net.cpp:157] Top shape: 128 4096 (524288)
I1213 23:13:46.300114 28717 net.cpp:165] Memory required for data: 3845266876
I1213 23:13:46.300117 28717 layer_factory.hpp:77] Creating layer drop6
I1213 23:13:46.300125 28717 net.cpp:100] Creating Layer drop6
I1213 23:13:46.300129 28717 net.cpp:434] drop6 <- fc6
I1213 23:13:46.300137 28717 net.cpp:395] drop6 -> fc6 (in-place)
I1213 23:13:46.300158 28717 net.cpp:150] Setting up drop6
I1213 23:13:46.300163 28717 net.cpp:157] Top shape: 128 4096 (524288)
I1213 23:13:46.300166 28717 net.cpp:165] Memory required for data: 3847364028
I1213 23:13:46.300169 28717 layer_factory.hpp:77] Creating layer fc6_drop6_0_split
I1213 23:13:46.300174 28717 net.cpp:100] Creating Layer fc6_drop6_0_split
I1213 23:13:46.300177 28717 net.cpp:434] fc6_drop6_0_split <- fc6
I1213 23:13:46.300184 28717 net.cpp:408] fc6_drop6_0_split -> fc6_drop6_0_split_0
I1213 23:13:46.300201 28717 net.cpp:408] fc6_drop6_0_split -> fc6_drop6_0_split_1
I1213 23:13:46.300240 28717 net.cpp:150] Setting up fc6_drop6_0_split
I1213 23:13:46.300247 28717 net.cpp:157] Top shape: 128 4096 (524288)
I1213 23:13:46.300251 28717 net.cpp:157] Top shape: 128 4096 (524288)
I1213 23:13:46.300254 28717 net.cpp:165] Memory required for data: 3851558332
I1213 23:13:46.300257 28717 layer_factory.hpp:77] Creating layer cls_pred
I1213 23:13:46.300266 28717 net.cpp:100] Creating Layer cls_pred
I1213 23:13:46.300269 28717 net.cpp:434] cls_pred <- fc6_drop6_0_split_0
I1213 23:13:46.300276 28717 net.cpp:408] cls_pred -> cls_pred
I1213 23:13:46.300897 28717 net.cpp:150] Setting up cls_pred
I1213 23:13:46.300904 28717 net.cpp:157] Top shape: 128 5 (640)
I1213 23:13:46.300909 28717 net.cpp:165] Memory required for data: 3851560892
I1213 23:13:46.300916 28717 layer_factory.hpp:77] Creating layer cls_pred_cls_pred_0_split
I1213 23:13:46.300920 28717 net.cpp:100] Creating Layer cls_pred_cls_pred_0_split
I1213 23:13:46.300925 28717 net.cpp:434] cls_pred_cls_pred_0_split <- cls_pred
I1213 23:13:46.300930 28717 net.cpp:408] cls_pred_cls_pred_0_split -> cls_pred_cls_pred_0_split_0
I1213 23:13:46.300935 28717 net.cpp:408] cls_pred_cls_pred_0_split -> cls_pred_cls_pred_0_split_1
I1213 23:13:46.300966 28717 net.cpp:150] Setting up cls_pred_cls_pred_0_split
I1213 23:13:46.300972 28717 net.cpp:157] Top shape: 128 5 (640)
I1213 23:13:46.300976 28717 net.cpp:157] Top shape: 128 5 (640)
I1213 23:13:46.300979 28717 net.cpp:165] Memory required for data: 3851566012
I1213 23:13:46.300982 28717 layer_factory.hpp:77] Creating layer bbox_pred
I1213 23:13:46.300987 28717 net.cpp:100] Creating Layer bbox_pred
I1213 23:13:46.300990 28717 net.cpp:434] bbox_pred <- fc6_drop6_0_split_1
I1213 23:13:46.300999 28717 net.cpp:408] bbox_pred -> bbox_pred
I1213 23:13:46.303246 28717 net.cpp:150] Setting up bbox_pred
I1213 23:13:46.303252 28717 net.cpp:157] Top shape: 128 20 (2560)
I1213 23:13:46.303256 28717 net.cpp:165] Memory required for data: 3851576252
I1213 23:13:46.303259 28717 layer_factory.hpp:77] Creating layer bbox_pred_bbox_pred_0_split
I1213 23:13:46.303262 28717 net.cpp:100] Creating Layer bbox_pred_bbox_pred_0_split
I1213 23:13:46.303266 28717 net.cpp:434] bbox_pred_bbox_pred_0_split <- bbox_pred
I1213 23:13:46.303270 28717 net.cpp:408] bbox_pred_bbox_pred_0_split -> bbox_pred_bbox_pred_0_split_0
I1213 23:13:46.303275 28717 net.cpp:408] bbox_pred_bbox_pred_0_split -> bbox_pred_bbox_pred_0_split_1
I1213 23:13:46.303303 28717 net.cpp:150] Setting up bbox_pred_bbox_pred_0_split
I1213 23:13:46.303308 28717 net.cpp:157] Top shape: 128 20 (2560)
I1213 23:13:46.303310 28717 net.cpp:157] Top shape: 128 20 (2560)
I1213 23:13:46.303313 28717 net.cpp:165] Memory required for data: 3851596732
I1213 23:13:46.303315 28717 layer_factory.hpp:77] Creating layer loss_cls
I1213 23:13:46.303320 28717 net.cpp:100] Creating Layer loss_cls
I1213 23:13:46.303323 28717 net.cpp:434] loss_cls <- cls_pred_cls_pred_0_split_0
I1213 23:13:46.303328 28717 net.cpp:434] loss_cls <- proposal_labels_proposal_info_1_split_0
…
