…
    downsample_rate: 16
    downsample_rate: 32
    downsample_rate: 32
    downsample_rate: 64
    coord_num: 4
    field_h: 60
    field_h: 84
    field_h: 120
    field_h: 168
    field_h: 240
    field_h: 336
    field_h: 480
    field_w: 60
    field_w: 84
    field_w: 120
    field_w: 168
    field_w: 240
    field_w: 336
    field_w: 480
    fg_threshold: 0.5
    resize_width: 1344
    resize_height: 768
    crop_width: 768
    crop_height: 768
    do_multiple_scale: true
    min_scale: 60
    max_scale: 480
    min_gt_height: 25
    shuffle: true
  }
}
layer {
  name: "conv1_1"
  type: "Convolution"
  bottom: "data"
  top: "conv1_1"
  convolution_param {
    num_output: 64
    pad: 1
    kernel_size: 3
  }
}
layer {
  name: "relu1_1"
  type: "ReLU"
  bottom: "conv1_1"
  top: "conv1_1"
}
layer {
  name: "conv1_2"
  type: "Convolution"
  bottom: "conv1_1"
  top: "conv1_2"
  convolution_param {
    num_output: 64
    pad: 1
    kernel_size: 3
  }
}
layer {
  name: "relu1_2"
  type: "ReLU"
  bottom: "conv1_2"
  top: "conv1_2"
}
layer {
  name: "pool1"
  type: "Pooling"
  bottom: "conv1_2"
  top: "pool1"
  pooling_param {
    pool: MAX
    kernel_size: 2
    stride: 2
  }
}
layer {
  name: "conv2_1"
  type: "Convolution"
  bottom: "pool1"
  top: "conv2_1"
  convolution_param {
    num_output: 128
    pad: 1
    kernel_size: 3
  }
}
layer {
  name: "relu2_1"
  type: "ReLU"
  bottom: "conv2_1"
  top: "conv2_1"
}
layer {
  name: "conv2_2"
  type: "Convolution"
  bottom: "conv2_1"
  top: "conv2_2"
  convolution_param {
    num_output: 128
    pad: 1
    kernel_size: 3
  }
}
layer {
  name: "relu2_2"
  type: "ReLU"
  bottom: "conv2_2"
  top: "conv2_2"
}
layer {
  name: "pool2"
  type: "Pooling"
  bottom: "conv2_2"
  top: "pool2"
  pooling_param {
    pool: MAX
    kernel_size: 2
    stride: 2
  }
}
layer {
  name: "conv3_1"
  type: "Convolution"
  bottom: "pool2"
  top: "conv3_1"
  convolution_param {
    num_output: 256
    pad: 1
    kernel_size: 3
  }
}
layer {
  name: "relu3_1"
  type: "ReLU"
  bottom: "conv3_1"
  top: "conv3_1"
}
layer {
  name: "conv3_2"
  type: "Convolution"
  bottom: "conv3_1"
  top: "conv3_2"
  convolution_param {
    num_output: 256
    pad: 1
    kernel_size: 3
  }
}
layer {
  name: "relu3_2"
  type: "ReLU"
  bottom: "conv3_2"
  top: "conv3_2"
}
layer {
  name: "scale3_1"
  type: "Power"
  bottom: "conv3_1"
  top: "conv3_1s"
  power_param {
    power: 1
    scale: 0.1
    shift: 0
  }
}
layer {
  name: "skip_conv3_2"
  type: "Eltwise"
  bottom: "conv3_2"
  bottom: "conv3_1s"
  top: "conv3_2_skip"
}
layer {
  name: "conv3_3"
  type: "Convolution"
  bottom: "conv3_2_skip"
  top: "conv3_3"
  convolution_param {
    num_output: 256
    pad: 1
    kernel_size: 3
  }
}
layer {
  name: "relu3_3"
  type: "ReLU"
  bottom: "conv3_3"
  top: "conv3_3"
}
layer {
  name: "pool3"
  type: "Pooling"
  bottom: "conv3_3"
  top: "pool3"
  pooling_param {
    pool: MAX
    kernel_size: 2
    stride: 2
  }
}
layer {
  name: "conv4_1"
  type: "Convolution"
  bottom: "pool3"
  top: "conv4_1"
  convolution_param {
    num_output: 512
    pad: 1
    kernel_size: 3
  }
}
layer {
  name: "relu4_1"
  type: "ReLU"
  bottom: "conv4_1"
  top: "conv4_1"
}
layer {
  name: "conv4_2"
  type: "Convolution"
  bottom: "conv4_1"
  top: "conv4_2"
  convolution_param {
    num_output: 512
    pad: 1
    kernel_size: 3
  }
}
layer {
  name: "relu4_2"
  type: "ReLU"
  bottom: "conv4_2"
  top: "conv4_2"
}
layer {
  name: "conv4_3"
  type: "Convolution"
  bottom: "conv4_2"
  top: "conv4_3"
  convolution_param {
    num_output: 512
    pad: 1
    kernel_size: 3
  }
}
layer {
  name: "relu4_3"
  type: "ReLU"
  bottom: "conv4_3"
  top: "conv4_3"
}
layer {
  name: "loss1_conv1"
  type: "Convolution"
  bottom: "conv4_3"
  top: "loss1_conv1"
  param {
    lr_mult: 1
    decay_mult: 1
  }
  param {
    lr_mult: 2
    decay_mult: 0
  }
  convolution_param {
    num_output: 512
    pad: 1
    kernel_size: 3
    weight_filler {
      type: "gaussian"
      std: 0.01
    }
    bias_filler {
      type: "constant"
    }
  }
}
layer {
  name: "loss_relu1"
  type: "ReLU"
  bottom: "loss1_conv1"
  top: "loss1_conv1"
}
layer {
  name: "LFCN_1_5x5"
  type: "Convolution"
  bottom: "loss1_conv1"
  top: "LFCN_1_5x5"
  param {
    lr_mult: 1
    decay_mult: 1
  }
  param {
    lr_mult: 2
    decay_mult: 0
  }
  convolution_param {
    num_output: 9
    pad: 2
    kernel_size: 5
    weight_filler {
      type: "gaussian"
      std: 0.001
    }
    bias_filler {
      type: "constant"
    }
  }
}
layer {
  name: "detection_loss_1_5x5"
  type: "DetectionLoss"
  bottom: "LFCN_1_5x5"
  bottom: "label_1_5x5"
  top: "loss_1_5x5"
  loss_weight: 0.9
  detection_loss_param {
    cls_num: 5
    coord_num: 4
    lambda: 0.05
    field_h: 60
    field_w: 60
    downsample_rate: 8
    bb_smooth: true
    field_whr: 2
    field_xyr: 2
    bg_threshold: 0.2
    bg_multiple: 2
    sample_mode: "random"
    pos_neg_weighted: true
  }
}
layer {
  name: "detection_accuracy_1_5x5"
  type: "DetectionAccuracy"
  bottom: "LFCN_1_5x5"
  bottom: "label_1_5x5"
  top: "accuracy_1_5x5"
  top: "boxiou_1_5x5"
  detection_accuracy_param {
    cls_num: 5
    coord_num: 4
    field_h: 60
    field_w: 60
    downsample_rate: 8
    field_whr: 2
    field_xyr: 2
  }
}
layer {
  name: "LFCN_1_7x7"
  type: "Convolution"
  bottom: "loss1_conv1"
  top: "LFCN_1_7x7"
  param {
    lr_mult: 1
    decay_mult: 1
  }
  param {
    lr_mult: 2
    decay_mult: 0
  }
  convolution_param {
    num_output: 9
    pad: 3
    kernel_size: 7
    weight_filler {
      type: "gaussian"
      std: 0.001
    }
    bias_filler {
      type: "constant"
    }
  }
}
layer {
  name: "detection_loss_1_7x7"
  type: "DetectionLoss"
  bottom: "LFCN_1_7x7"
  bottom: "label_1_7x7"
  top: "loss_1_7x7"
  loss_weight: 0.9
  detection_loss_param {
    cls_num: 5
    coord_num: 4
    lambda: 0.05
    field_h: 84
    field_w: 84
    downsample_rate: 8
    bb_smooth: true
    field_whr: 2
    field_xyr: 2
    bg_threshold: 0.2
    bg_multiple: 2
    sample_mode: "random"
    pos_neg_weighted: true
  }
}
layer {
  name: "detection_accuracy_1_7x7"
  type: "DetectionAccuracy"
  bottom: "LFCN_1_7x7"
  bottom: "label_1_7x7"
  top: "accuracy_1_7x7"
  top: "boxiou_1_7x7"
  detection_accuracy_param {
    cls_num: 5
    coord_num: 4
    field_h: 84
    field_w: 84
    downsample_rate: 8
    field_whr: 2
    field_xyr: 2
  }
}
layer {
  name: "pool4"
  type: "Pooling"
  bottom: "conv4_3"
  top: "pool4"
  pooling_param {
    pool: MAX
    kernel_size: 2
    stride: 2
  }
}
layer {
  name: "conv5_1"
  type: "Convolution"
  bottom: "pool4"
  top: "conv5_1"
  convolution_param {
    num_output: 512
    pad: 1
    kernel_size: 3
  }
}
layer {
  name: "relu5_1"
  type: "ReLU"
  bottom: "conv5_1"
  top: "conv5_1"
}
layer {
  name: "conv5_2"
  type: "Convolution"
  bottom: "conv5_1"
  top: "conv5_2"
  convolution_param {
    num_output: 512
    pad: 1
    kernel_size: 3
  }
}
layer {
  name: "relu5_2"
  type: "ReLU"
  bottom: "conv5_2"
  top: "conv5_2"
}
layer {
  name: "conv5_3"
  type: "Convolution"
  bottom: "conv5_2"
  top: "conv5_3"
  convolution_param {
    num_output: 512
    pad: 1
    kernel_size: 3
  }
}
layer {
  name: "relu5_3"
  type: "ReLU"
  bottom: "conv5_3"
  top: "conv5_3"
}
layer {
  name: "LFCN_2_5x5"
  type: "Convolution"
  bottom: "conv5_3"
  top: "LFCN_2_5x5"
  param {
    lr_mult: 1
    decay_mult: 1
  }
  param {
    lr_mult: 2
    decay_mult: 0
  }
  convolution_param {
    num_output: 9
    pad: 2
    kernel_size: 5
    weight_filler {
      type: "gaussian"
      std: 0.001
    }
    bias_filler {
      type: "constant"
    }
  }
}
layer {
  name: "detection_loss_2_5x5"
  type: "DetectionLoss"
  bottom: "LFCN_2_5x5"
  bottom: "label_2_5x5"
  top: "loss_2_5x5"
  detection_loss_param {
    cls_num: 5
    coord_num: 4
    lambda: 0.05
    field_h: 120
    field_w: 120
    downsample_rate: 16
    bb_smooth: true
    field_whr: 2
    field_xyr: 2
    bg_threshold: 0.2
    bg_multiple: 2
    sample_mode: "random"
    pos_neg_weighted: true
  }
}
layer {
  name: "detection_accuracy_2_5x5"
  type: "DetectionAccuracy"
  bottom: "LFCN_2_5x5"
  bottom: "label_2_5x5"
  top: "accuracy_2_5x5"
  top: "boxiou_2_5x5"
  detection_accuracy_param {
    cls_num: 5
    coord_num: 4
    field_h: 120
    field_w: 120
    downsample_rate: 16
    field_whr: 2
    field_xyr: 2
  }
}
layer {
  name: "LFCN_2_7x7"
  type: "Convolution"
  bottom: "conv5_3"
  top: "LFCN_2_7x7"
  param {
    lr_mult: 1
    decay_mult: 1
  }
  param {
    lr_mult: 2
    decay_mult: 0
  }
  convolution_param {
    num_output: 9
    pad: 3
    kernel_size: 7
    weight_filler {
      type: "gaussian"
      std: 0.001
    }
    bias_filler {
      type: "constant"
    }
  }
}
layer {
  name: "detection_loss_2_7x7"
  type: "DetectionLoss"
  bottom: "LFCN_2_7x7"
  bottom: "label_2_7x7"
  top: "loss_2_7x7"
  detection_loss_param {
    cls_num: 5
    coord_num: 4
    lambda: 0.05
    field_h: 168
    field_w: 168
    downsample_rate: 16
    bb_smooth: true
    field_whr: 2
    field_xyr: 2
    bg_threshold: 0.2
    bg_multiple: 2
    sample_mode: "random"
    pos_neg_weighted: true
  }
}
layer {
  name: "detection_accuracy_2_7x7"
  type: "DetectionAccuracy"
  bottom: "LFCN_2_7x7"
  bottom: "label_2_7x7"
  top: "accuracy_2_7x7"
  top: "boxiou_2_7x7"
  detection_accuracy_param {
    cls_num: 5
    coord_num: 4
    field_h: 168
    field_w: 168
    downsample_rate: 16
    field_whr: 2
    field_xyr: 2
  }
}
layer {
  name: "pool5"
  type: "Pooling"
  bottom: "conv5_3"
  top: "pool5"
  pooling_param {
    pool: MAX
    kernel_size: 2
    stride: 2
  }
}
layer {
  name: "conv6_1"
  type: "Convolution"
  bottom: "pool5"
  top: "conv6_1"
  param {
    lr_mult: 1
    decay_mult: 1
  }
  param {
    lr_mult: 2
    decay_mult: 0
  }
  convolution_param {
    num_output: 512
    pad: 1
    kernel_size: 3
    weight_filler {
      type: "gaussian"
      std: 0.01
    }
    bias_filler {
      type: "constant"
    }
  }
}
layer {
  name: "relu6_1"
  type: "ReLU"
  bottom: "conv6_1"
  top: "conv6_1"
}
layer {
  name: "LFCN_3_5x5"
  type: "Convolution"
  bottom: "conv6_1"
  top: "LFCN_3_5x5"
  param {
    lr_mult: 1
    decay_mult: 1
  }
  param {
    lr_mult: 2
    decay_mult: 0
  }
  convolution_param {
    num_output: 9
    pad: 2
    kernel_size: 5
    weight_filler {
      type: "gaussian"
      std: 0.001
    }
    bias_filler {
      type: "constant"
    }
  }
}
layer {
  name: "detection_loss_3_5x5"
  type: "DetectionLoss"
  bottom: "LFCN_3_5x5"
  bottom: "label_3_5x5"
  top: "loss_3_5x5"
  detection_loss_param {
    cls_num: 5
    coord_num: 4
    lambda: 0.05
    field_h: 240
    field_w: 240
    downsample_rate: 32
    bb_smooth: true
    field_whr: 2
    field_xyr: 2
    bg_threshold: 0.2
    bg_multiple: 2
    sample_mode: "random"
    pos_neg_weighted: true
  }
}
layer {
  name: "detection_accuracy_3_5x5"
  type: "DetectionAccuracy"
  bottom: "LFCN_3_5x5"
  bottom: "label_3_5x5"
  top: "accuracy_3_5x5"
  top: "boxiou_3_5x5"
  detection_accuracy_param {
    cls_num: 5
    coord_num: 4
    field_h: 240
    field_w: 240
    downsample_rate: 32
    field_whr: 2
    field_xyr: 2
  }
}
layer {
  name: "LFCN_3_7x7"
  type: "Convolution"
  bottom: "conv6_1"
  top: "LFCN_3_7x7"
  param {
    lr_mult: 1
    decay_mult: 1
  }
  param {
    lr_mult: 2
    decay_mult: 0
  }
  convolution_param {
    num_output: 9
    pad: 3
    kernel_size: 7
    weight_filler {
      type: "gaussian"
      std: 0.001
    }
    bias_filler {
      type: "constant"
    }
  }
}
layer {
  name: "detection_loss_3_7x7"
  type: "DetectionLoss"
  bottom: "LFCN_3_7x7"
  bottom: "label_3_7x7"
  top: "loss_3_7x7"
  detection_loss_param {
    cls_num: 5
    coord_num: 4
    lambda: 0.05
    field_h: 336
    field_w: 336
    downsample_rate: 32
    bb_smooth: true
    field_whr: 2
    field_xyr: 2
    bg_threshold: 0.2
    bg_multiple: 2
    sample_mode: "random"
    pos_neg_weighted: true
  }
}
layer {
  name: "detection_accuracy_3_7x7"
  type: "DetectionAccuracy"
  bottom: "LFCN_3_7x7"
  bottom: "label_3_7x7"
  top: "accuracy_3_7x7"
  top: "boxiou_3_7x7"
  detection_accuracy_param {
    cls_num: 5
    coord_num: 4
    field_h: 336
    field_w: 336
    downsample_rate: 32
    field_whr: 2
    field_xyr: 2
  }
}
layer {
  name: "pool6"
  type: "Pooling"
  bottom: "conv6_1"
  top: "pool6"
  pooling_param {
    pool: MAX
    kernel_size: 2
    stride: 2
  }
}
layer {
  name: "LFCN_4_5x5"
  type: "Convolution"
  bottom: "pool6"
  top: "LFCN_4_5x5"
  param {
    lr_mult: 1
    decay_mult: 1
  }
  param {
    lr_mult: 2
    decay_mult: 0
  }
  convolution_param {
    num_output: 9
    pad: 2
    kernel_size: 5
    weight_filler {
      type: "gaussian"
      std: 0.001
    }
    bias_filler {
      type: "constant"
    }
  }
}
layer {
  name: "detection_loss_4_5x5"
  type: "DetectionLoss"
  bottom: "LFCN_4_5x5"
  bottom: "label_4_5x5"
  top: "loss_4_5x5"
  detection_loss_param {
    cls_num: 5
    coord_num: 4
    lambda: 0.05
    field_h: 480
    field_w: 480
    downsample_rate: 64
    bb_smooth: true
    field_whr: 2
    field_xyr: 2
    bg_threshold: 0.2
    bg_multiple: 2
    sample_mode: "random"
    pos_neg_weighted: true
  }
}
layer {
  name: "detection_accuracy_4_5x5"
  type: "DetectionAccuracy"
  bottom: "LFCN_4_5x5"
  bottom: "label_4_5x5"
  top: "accuracy_4_5x5"
  top: "boxiou_4_5x5"
  detection_accuracy_param {
    cls_num: 5
    coord_num: 4
    field_h: 480
    field_w: 480
    downsample_rate: 64
    field_whr: 2
    field_xyr: 2
  }
}
I1213 20:40:25.002562 13731 layer_factory.hpp:77] Creating layer data
I1213 20:40:25.002598 13731 net.cpp:100] Creating Layer data
I1213 20:40:25.002605 13731 net.cpp:408] data -> data
…
I1213 20:40:25.027834 13731 image_gt_data_layer.cpp:235] output label size 1 : 4,6,96,96
I1213 20:40:25.027870 13731 image_gt_data_layer.cpp:235] output label size 2 : 4,6,48,48
I1213 20:40:25.027906 13731 image_gt_data_layer.cpp:235] output label size 3 : 4,6,48,48
I1213 20:40:25.027943 13731 image_gt_data_layer.cpp:235] output label size 4 : 4,6,24,24
I1213 20:40:25.027981 13731 image_gt_data_layer.cpp:235] output label size 5 : 4,6,24,24
I1213 20:40:25.028017 13731 image_gt_data_layer.cpp:235] output label size 6 : 4,6,12,12
I1213 20:40:25.088640 13731 net.cpp:150] Setting up data
I1213 20:40:25.088680 13731 net.cpp:157] Top shape: 4 3 768 768 (7077888)
I1213 20:40:25.088686 13731 net.cpp:157] Top shape: 4 6 96 96 (221184)
I1213 20:40:25.088691 13731 net.cpp:157] Top shape: 4 6 96 96 (221184)
I1213 20:40:25.088696 13731 net.cpp:157] Top shape: 4 6 48 48 (55296)
I1213 20:40:25.088701 13731 net.cpp:157] Top shape: 4 6 48 48 (55296)
I1213 20:40:25.088706 13731 net.cpp:157] Top shape: 4 6 24 24 (13824)
I1213 20:40:25.088709 13731 net.cpp:157] Top shape: 4 6 24 24 (13824)
I1213 20:40:25.088713 13731 net.cpp:157] Top shape: 4 6 12 12 (3456)
I1213 20:40:25.088716 13731 net.cpp:165] Memory required for data: 30647808
I1213 20:40:25.088727 13731 layer_factory.hpp:77] Creating layer label_1_5x5_data_1_split
I1213 20:40:25.088747 13731 net.cpp:100] Creating Layer label_1_5x5_data_1_split
I1213 20:40:25.088752 13731 net.cpp:434] label_1_5x5_data_1_split <- label_1_5x5
I1213 20:40:25.088765 13731 net.cpp:408] label_1_5x5_data_1_split -> label_1_5x5_data_1_split_0
I1213 20:40:25.088778 13731 net.cpp:408] label_1_5x5_data_1_split -> label_1_5x5_data_1_split_1
I1213 20:40:25.089028 13731 net.cpp:150] Setting up label_1_5x5_data_1_split
I1213 20:40:25.089079 13731 net.cpp:157] Top shape: 4 6 96 96 (221184)
I1213 20:40:25.089107 13731 net.cpp:157] Top shape: 4 6 96 96 (221184)
I1213 20:40:25.089115 13731 net.cpp:165] Memory required for data: 32417280
I1213 20:40:25.089128 13731 layer_factory.hpp:77] Creating layer label_1_7x7_data_2_split
I1213 20:40:25.089148 13731 net.cpp:100] Creating Layer label_1_7x7_data_2_split
I1213 20:40:25.089159 13731 net.cpp:434] label_1_7x7_data_2_split <- label_1_7x7
I1213 20:40:25.089174 13731 net.cpp:408] label_1_7x7_data_2_split -> label_1_7x7_data_2_split_0
I1213 20:40:25.089192 13731 net.cpp:408] label_1_7x7_data_2_split -> label_1_7x7_data_2_split_1
I1213 20:40:25.089259 13731 net.cpp:150] Setting up label_1_7x7_data_2_split
I1213 20:40:25.089272 13731 net.cpp:157] Top shape: 4 6 96 96 (221184)
I1213 20:40:25.089282 13731 net.cpp:157] Top shape: 4 6 96 96 (221184)
I1213 20:40:25.089290 13731 net.cpp:165] Memory required for data: 34186752
I1213 20:40:25.089298 13731 layer_factory.hpp:77] Creating layer label_2_5x5_data_3_split
I1213 20:40:25.089308 13731 net.cpp:100] Creating Layer label_2_5x5_data_3_split
I1213 20:40:25.089318 13731 net.cpp:434] label_2_5x5_data_3_split <- label_2_5x5
I1213 20:40:25.089329 13731 net.cpp:408] label_2_5x5_data_3_split -> label_2_5x5_data_3_split_0
I1213 20:40:25.089342 13731 net.cpp:408] label_2_5x5_data_3_split -> label_2_5x5_data_3_split_1
I1213 20:40:25.089401 13731 net.cpp:150] Setting up label_2_5x5_data_3_split
I1213 20:40:25.089412 13731 net.cpp:157] Top shape: 4 6 48 48 (55296)
I1213 20:40:25.089423 13731 net.cpp:157] Top shape: 4 6 48 48 (55296)
I1213 20:40:25.089431 13731 net.cpp:165] Memory required for data: 34629120
I1213 20:40:25.089438 13731 layer_factory.hpp:77] Creating layer label_2_7x7_data_4_split
I1213 20:40:25.089450 13731 net.cpp:100] Creating Layer label_2_7x7_data_4_split
I1213 20:40:25.089460 13731 net.cpp:434] label_2_7x7_data_4_split <- label_2_7x7
I1213 20:40:25.089471 13731 net.cpp:408] label_2_7x7_data_4_split -> label_2_7x7_data_4_split_0
I1213 20:40:25.089484 13731 net.cpp:408] label_2_7x7_data_4_split -> label_2_7x7_data_4_split_1
I1213 20:40:25.089542 13731 net.cpp:150] Setting up label_2_7x7_data_4_split
I1213 20:40:25.089555 13731 net.cpp:157] Top shape: 4 6 48 48 (55296)
I1213 20:40:25.089565 13731 net.cpp:157] Top shape: 4 6 48 48 (55296)
I1213 20:40:25.089572 13731 net.cpp:165] Memory required for data: 35071488
I1213 20:40:25.089581 13731 layer_factory.hpp:77] Creating layer label_3_5x5_data_5_split
I1213 20:40:25.089591 13731 net.cpp:100] Creating Layer label_3_5x5_data_5_split
I1213 20:40:25.089599 13731 net.cpp:434] label_3_5x5_data_5_split <- label_3_5x5
I1213 20:40:25.089610 13731 net.cpp:408] label_3_5x5_data_5_split -> label_3_5x5_data_5_split_0
I1213 20:40:25.089627 13731 net.cpp:408] label_3_5x5_data_5_split -> label_3_5x5_data_5_split_1
I1213 20:40:25.089684 13731 net.cpp:150] Setting up label_3_5x5_data_5_split
I1213 20:40:25.089695 13731 net.cpp:157] Top shape: 4 6 24 24 (13824)
I1213 20:40:25.089706 13731 net.cpp:157] Top shape: 4 6 24 24 (13824)
I1213 20:40:25.089716 13731 net.cpp:165] Memory required for data: 35182080
I1213 20:40:25.089723 13731 layer_factory.hpp:77] Creating layer label_3_7x7_data_6_split
I1213 20:40:25.089735 13731 net.cpp:100] Creating Layer label_3_7x7_data_6_split
I1213 20:40:25.089743 13731 net.cpp:434] label_3_7x7_data_6_split <- label_3_7x7
I1213 20:40:25.089754 13731 net.cpp:408] label_3_7x7_data_6_split -> label_3_7x7_data_6_split_0
I1213 20:40:25.089767 13731 net.cpp:408] label_3_7x7_data_6_split -> label_3_7x7_data_6_split_1
I1213 20:40:25.089823 13731 net.cpp:150] Setting up label_3_7x7_data_6_split
I1213 20:40:25.089836 13731 net.cpp:157] Top shape: 4 6 24 24 (13824)
I1213 20:40:25.089846 13731 net.cpp:157] Top shape: 4 6 24 24 (13824)
I1213 20:40:25.089855 13731 net.cpp:165] Memory required for data: 35292672
I1213 20:40:25.089862 13731 layer_factory.hpp:77] Creating layer label_4_5x5_data_7_split
I1213 20:40:25.089871 13731 net.cpp:100] Creating Layer label_4_5x5_data_7_split
I1213 20:40:25.089881 13731 net.cpp:434] label_4_5x5_data_7_split <- label_4_5x5
I1213 20:40:25.089891 13731 net.cpp:408] label_4_5x5_data_7_split -> label_4_5x5_data_7_split_0
I1213 20:40:25.089905 13731 net.cpp:408] label_4_5x5_data_7_split -> label_4_5x5_data_7_split_1
I1213 20:40:25.089960 13731 net.cpp:150] Setting up label_4_5x5_data_7_split
I1213 20:40:25.089972 13731 net.cpp:157] Top shape: 4 6 12 12 (3456)
I1213 20:40:25.089982 13731 net.cpp:157] Top shape: 4 6 12 12 (3456)
I1213 20:40:25.089990 13731 net.cpp:165] Memory required for data: 35320320
I1213 20:40:25.089998 13731 layer_factory.hpp:77] Creating layer conv1_1
I1213 20:40:25.090020 13731 net.cpp:100] Creating Layer conv1_1
I1213 20:40:25.090029 13731 net.cpp:434] conv1_1 <- data
I1213 20:40:25.090040 13731 net.cpp:408] conv1_1 -> conv1_1
I1213 20:40:25.357981 13731 net.cpp:150] Setting up conv1_1
I1213 20:40:25.358007 13731 net.cpp:157] Top shape: 4 64 768 768 (150994944)
I1213 20:40:25.358012 13731 net.cpp:165] Memory required for data: 639300096
I1213 20:40:25.358028 13731 layer_factory.hpp:77] Creating layer relu1_1
I1213 20:40:25.358042 13731 net.cpp:100] Creating Layer relu1_1
I1213 20:40:25.358047 13731 net.cpp:434] relu1_1 <- conv1_1
I1213 20:40:25.358058 13731 net.cpp:395] relu1_1 -> conv1_1 (in-place)
I1213 20:40:25.358234 13731 net.cpp:150] Setting up relu1_1
I1213 20:40:25.358243 13731 net.cpp:157] Top shape: 4 64 768 768 (150994944)
I1213 20:40:25.358247 13731 net.cpp:165] Memory required for data: 1243279872
I1213 20:40:25.358250 13731 layer_factory.hpp:77] Creating layer conv1_2
I1213 20:40:25.358259 13731 net.cpp:100] Creating Layer conv1_2
I1213 20:40:25.358263 13731 net.cpp:434] conv1_2 <- conv1_1
I1213 20:40:25.358268 13731 net.cpp:408] conv1_2 -> conv1_2
I1213 20:40:25.360488 13731 net.cpp:150] Setting up conv1_2
I1213 20:40:25.360502 13731 net.cpp:157] Top shape: 4 64 768 768 (150994944)
I1213 20:40:25.360505 13731 net.cpp:165] Memory required for data: 1847259648
I1213 20:40:25.360513 13731 layer_factory.hpp:77] Creating layer relu1_2
I1213 20:40:25.360519 13731 net.cpp:100] Creating Layer relu1_2
I1213 20:40:25.360522 13731 net.cpp:434] relu1_2 <- conv1_2
I1213 20:40:25.360527 13731 net.cpp:395] relu1_2 -> conv1_2 (in-place)
I1213 20:40:25.360677 13731 net.cpp:150] Setting up relu1_2
I1213 20:40:25.360687 13731 net.cpp:157] Top shape: 4 64 768 768 (150994944)
I1213 20:40:25.360689 13731 net.cpp:165] Memory required for data: 2451239424
I1213 20:40:25.360693 13731 layer_factory.hpp:77] Creating layer pool1
I1213 20:40:25.360702 13731 net.cpp:100] Creating Layer pool1
I1213 20:40:25.360705 13731 net.cpp:434] pool1 <- conv1_2
I1213 20:40:25.360710 13731 net.cpp:408] pool1 -> pool1
I1213 20:40:25.360764 13731 net.cpp:150] Setting up pool1
I1213 20:40:25.360771 13731 net.cpp:157] Top shape: 4 64 384 384 (37748736)
I1213 20:40:25.360775 13731 net.cpp:165] Memory required for data: 2602234368
I1213 20:40:25.360779 13731 layer_factory.hpp:77] Creating layer conv2_1
I1213 20:40:25.360787 13731 net.cpp:100] Creating Layer conv2_1
I1213 20:40:25.360790 13731 net.cpp:434] conv2_1 <- pool1
I1213 20:40:25.360796 13731 net.cpp:408] conv2_1 -> conv2_1
I1213 20:40:25.363000 13731 net.cpp:150] Setting up conv2_1
I1213 20:40:25.363015 13731 net.cpp:157] Top shape: 4 128 384 384 (75497472)
I1213 20:40:25.363020 13731 net.cpp:165] Memory required for data: 2904224256
I1213 20:40:25.363029 13731 layer_factory.hpp:77] Creating layer relu2_1
I1213 20:40:25.363036 13731 net.cpp:100] Creating Layer relu2_1
I1213 20:40:25.363041 13731 net.cpp:434] relu2_1 <- conv2_1
I1213 20:40:25.363046 13731 net.cpp:395] relu2_1 -> conv2_1 (in-place)
I1213 20:40:25.363209 13731 net.cpp:150] Setting up relu2_1
I1213 20:40:25.363215 13731 net.cpp:157] Top shape: 4 128 384 384 (75497472)
I1213 20:40:25.363219 13731 net.cpp:165] Memory required for data: 3206214144
I1213 20:40:25.363222 13731 layer_factory.hpp:77] Creating layer conv2_2
I1213 20:40:25.363229 13731 net.cpp:100] Creating Layer conv2_2
I1213 20:40:25.363234 13731 net.cpp:434] conv2_2 <- conv2_1
I1213 20:40:25.363240 13731 net.cpp:408] conv2_2 -> conv2_2
I1213 20:40:25.364599 13731 net.cpp:150] Setting up conv2_2
I1213 20:40:25.364612 13731 net.cpp:157] Top shape: 4 128 384 384 (75497472)
I1213 20:40:25.364615 13731 net.cpp:165] Memory required for data: 3508204032
I1213 20:40:25.364622 13731 layer_factory.hpp:77] Creating layer relu2_2
I1213 20:40:25.364630 13731 net.cpp:100] Creating Layer relu2_2
I1213 20:40:25.364634 13731 net.cpp:434] relu2_2 <- conv2_2
I1213 20:40:25.364639 13731 net.cpp:395] relu2_2 -> conv2_2 (in-place)
I1213 20:40:25.364791 13731 net.cpp:150] Setting up relu2_2
I1213 20:40:25.364799 13731 net.cpp:157] Top shape: 4 128 384 384 (75497472)
I1213 20:40:25.364802 13731 net.cpp:165] Memory required for data: 3810193920
I1213 20:40:25.364806 13731 layer_factory.hpp:77] Creating layer pool2
I1213 20:40:25.364812 13731 net.cpp:100] Creating Layer pool2
I1213 20:40:25.364816 13731 net.cpp:434] pool2 <- conv2_2
I1213 20:40:25.364821 13731 net.cpp:408] pool2 -> pool2
I1213 20:40:25.364854 13731 net.cpp:150] Setting up pool2
I1213 20:40:25.364861 13731 net.cpp:157] Top shape: 4 128 192 192 (18874368)
I1213 20:40:25.364864 13731 net.cpp:165] Memory required for data: 3885691392
I1213 20:40:25.364867 13731 layer_factory.hpp:77] Creating layer conv3_1
I1213 20:40:25.364874 13731 net.cpp:100] Creating Layer conv3_1
I1213 20:40:25.364877 13731 net.cpp:434] conv3_1 <- pool2
I1213 20:40:25.364883 13731 net.cpp:408] conv3_1 -> conv3_1
I1213 20:40:25.367208 13731 net.cpp:150] Setting up conv3_1
I1213 20:40:25.367228 13731 net.cpp:157] Top shape: 4 256 192 192 (37748736)
I1213 20:40:25.367233 13731 net.cpp:165] Memory required for data: 4036686336
I1213 20:40:25.367244 13731 layer_factory.hpp:77] Creating layer relu3_1
I1213 20:40:25.367251 13731 net.cpp:100] Creating Layer relu3_1
I1213 20:40:25.367256 13731 net.cpp:434] relu3_1 <- conv3_1
I1213 20:40:25.367265 13731 net.cpp:395] relu3_1 -> conv3_1 (in-place)
I1213 20:40:25.367717 13731 net.cpp:150] Setting up relu3_1
I1213 20:40:25.367729 13731 net.cpp:157] Top shape: 4 256 192 192 (37748736)
I1213 20:40:25.367733 13731 net.cpp:165] Memory required for data: 4187681280
I1213 20:40:25.367736 13731 layer_factory.hpp:77] Creating layer conv3_1_relu3_1_0_split
I1213 20:40:25.367743 13731 net.cpp:100] Creating Layer conv3_1_relu3_1_0_split
I1213 20:40:25.367748 13731 net.cpp:434] conv3_1_relu3_1_0_split <- conv3_1
I1213 20:40:25.367753 13731 net.cpp:408] conv3_1_relu3_1_0_split -> conv3_1_relu3_1_0_split_0
I1213 20:40:25.367759 13731 net.cpp:408] conv3_1_relu3_1_0_split -> conv3_1_relu3_1_0_split_1
I1213 20:40:25.367794 13731 net.cpp:150] Setting up conv3_1_relu3_1_0_split
I1213 20:40:25.367801 13731 net.cpp:157] Top shape: 4 256 192 192 (37748736)
I1213 20:40:25.367806 13731 net.cpp:157] Top shape: 4 256 192 192 (37748736)
I1213 20:40:25.367810 13731 net.cpp:165] Memory required for data: 4489671168
I1213 20:40:25.367812 13731 layer_factory.hpp:77] Creating layer conv3_2
I1213 20:40:25.367820 13731 net.cpp:100] Creating Layer conv3_2
I1213 20:40:25.367823 13731 net.cpp:434] conv3_2 <- conv3_1_relu3_1_0_split_0
I1213 20:40:25.367828 13731 net.cpp:408] conv3_2 -> conv3_2
I1213 20:40:25.371574 13731 net.cpp:150] Setting up conv3_2
I1213 20:40:25.371603 13731 net.cpp:157] Top shape: 4 256 192 192 (37748736)
I1213 20:40:25.371606 13731 net.cpp:165] Memory required for data: 4640666112
I1213 20:40:25.371618 13731 layer_factory.hpp:77] Creating layer relu3_2
I1213 20:40:25.371628 13731 net.cpp:100] Creating Layer relu3_2
I1213 20:40:25.371634 13731 net.cpp:434] relu3_2 <- conv3_2
I1213 20:40:25.371640 13731 net.cpp:395] relu3_2 -> conv3_2 (in-place)
I1213 20:40:25.372066 13731 net.cpp:150] Setting up relu3_2
I1213 20:40:25.372077 13731 net.cpp:157] Top shape: 4 256 192 192 (37748736)
I1213 20:40:25.372081 13731 net.cpp:165] Memory required for data: 4791661056
I1213 20:40:25.372084 13731 layer_factory.hpp:77] Creating layer scale3_1
I1213 20:40:25.372092 13731 net.cpp:100] Creating Layer scale3_1
I1213 20:40:25.372094 13731 net.cpp:434] scale3_1 <- conv3_1_relu3_1_0_split_1
I1213 20:40:25.372100 13731 net.cpp:408] scale3_1 -> conv3_1s
I1213 20:40:25.372130 13731 net.cpp:150] Setting up scale3_1
I1213 20:40:25.372136 13731 net.cpp:157] Top shape: 4 256 192 192 (37748736)
I1213 20:40:25.372139 13731 net.cpp:165] Memory required for data: 4942656000
I1213 20:40:25.372143 13731 layer_factory.hpp:77] Creating layer skip_conv3_2
I1213 20:40:25.372154 13731 net.cpp:100] Creating Layer skip_conv3_2
I1213 20:40:25.372159 13731 net.cpp:434] skip_conv3_2 <- conv3_2
I1213 20:40:25.372162 13731 net.cpp:434] skip_conv3_2 <- conv3_1s
I1213 20:40:25.372166 13731 net.cpp:408] skip_conv3_2 -> conv3_2_skip
I1213 20:40:25.372189 13731 net.cpp:150] Setting up skip_conv3_2
I1213 20:40:25.372195 13731 net.cpp:157] Top shape: 4 256 192 192 (37748736)
I1213 20:40:25.372198 13731 net.cpp:165] Memory required for data: 5093650944
I1213 20:40:25.372201 13731 layer_factory.hpp:77] Creating layer conv3_3
I1213 20:40:25.372210 13731 net.cpp:100] Creating Layer conv3_3
I1213 20:40:25.372215 13731 net.cpp:434] conv3_3 <- conv3_2_skip
I1213 20:40:25.372220 13731 net.cpp:408] conv3_3 -> conv3_3
I1213 20:40:25.376513 13731 net.cpp:150] Setting up conv3_3
I1213 20:40:25.376533 13731 net.cpp:157] Top shape: 4 256 192 192 (37748736)
I1213 20:40:25.376536 13731 net.cpp:165] Memory required for data: 5244645888
I1213 20:40:25.376545 13731 layer_factory.hpp:77] Creating layer relu3_3
I1213 20:40:25.376554 13731 net.cpp:100] Creating Layer relu3_3
I1213 20:40:25.376559 13731 net.cpp:434] relu3_3 <- conv3_3
I1213 20:40:25.376566 13731 net.cpp:395] relu3_3 -> conv3_3 (in-place)
I1213 20:40:25.376716 13731 net.cpp:150] Setting up relu3_3
I1213 20:40:25.376724 13731 net.cpp:157] Top shape: 4 256 192 192 (37748736)
I1213 20:40:25.376727 13731 net.cpp:165] Memory required for data: 5395640832
I1213 20:40:25.376731 13731 layer_factory.hpp:77] Creating layer pool3
I1213 20:40:25.376739 13731 net.cpp:100] Creating Layer pool3
I1213 20:40:25.376741 13731 net.cpp:434] pool3 <- conv3_3
I1213 20:40:25.376747 13731 net.cpp:408] pool3 -> pool3
I1213 20:40:25.376782 13731 net.cpp:150] Setting up pool3
I1213 20:40:25.376790 13731 net.cpp:157] Top shape: 4 256 96 96 (9437184)
I1213 20:40:25.376792 13731 net.cpp:165] Memory required for data: 5433389568
I1213 20:40:25.376796 13731 layer_factory.hpp:77] Creating layer conv4_1
I1213 20:40:25.376802 13731 net.cpp:100] Creating Layer conv4_1
I1213 20:40:25.376806 13731 net.cpp:434] conv4_1 <- pool3
I1213 20:40:25.376811 13731 net.cpp:408] conv4_1 -> conv4_1
I1213 20:40:25.381335 13731 net.cpp:150] Setting up conv4_1
I1213 20:40:25.381366 13731 net.cpp:157] Top shape: 4 512 96 96 (18874368)
I1213 20:40:25.381371 13731 net.cpp:165] Memory required for data: 5508887040
I1213 20:40:25.381382 13731 layer_factory.hpp:77] Creating layer relu4_1
I1213 20:40:25.381395 13731 net.cpp:100] Creating Layer relu4_1
I1213 20:40:25.381402 13731 net.cpp:434] relu4_1 <- conv4_1
I1213 20:40:25.381415 13731 net.cpp:395] relu4_1 -> conv4_1 (in-place)
I1213 20:40:25.381613 13731 net.cpp:150] Setting up relu4_1
I1213 20:40:25.381623 13731 net.cpp:157] Top shape: 4 512 96 96 (18874368)
I1213 20:40:25.381628 13731 net.cpp:165] Memory required for data: 5584384512
I1213 20:40:25.381634 13731 layer_factory.hpp:77] Creating layer conv4_2
I1213 20:40:25.381644 13731 net.cpp:100] Creating Layer conv4_2
I1213 20:40:25.381649 13731 net.cpp:434] conv4_2 <- conv4_1
I1213 20:40:25.381655 13731 net.cpp:408] conv4_2 -> conv4_2
I1213 20:40:25.388351 13731 net.cpp:150] Setting up conv4_2
I1213 20:40:25.388384 13731 net.cpp:157] Top shape: 4 512 96 96 (18874368)
I1213 20:40:25.388389 13731 net.cpp:165] Memory required for data: 5659881984
I1213 20:40:25.388406 13731 layer_factory.hpp:77] Creating layer relu4_2
I1213 20:40:25.388419 13731 net.cpp:100] Creating Layer relu4_2
I1213 20:40:25.388427 13731 net.cpp:434] relu4_2 <- conv4_2
I1213 20:40:25.388433 13731 net.cpp:395] relu4_2 -> conv4_2 (in-place)
I1213 20:40:25.388609 13731 net.cpp:150] Setting up relu4_2
I1213 20:40:25.388619 13731 net.cpp:157] Top shape: 4 512 96 96 (18874368)
I1213 20:40:25.388623 13731 net.cpp:165] Memory required for data: 5735379456
I1213 20:40:25.388628 13731 layer_factory.hpp:77] Creating layer conv4_3
I1213 20:40:25.388641 13731 net.cpp:100] Creating Layer conv4_3
I1213 20:40:25.388646 13731 net.cpp:434] conv4_3 <- conv4_2
I1213 20:40:25.388653 13731 net.cpp:408] conv4_3 -> conv4_3
I1213 20:40:25.397222 13731 net.cpp:150] Setting up conv4_3
I1213 20:40:25.397254 13731 net.cpp:157] Top shape: 4 512 96 96 (18874368)
I1213 20:40:25.397258 13731 net.cpp:165] Memory required for data: 5810876928
I1213 20:40:25.397269 13731 layer_factory.hpp:77] Creating layer relu4_3
I1213 20:40:25.397279 13731 net.cpp:100] Creating Layer relu4_3
I1213 20:40:25.397285 13731 net.cpp:434] relu4_3 <- conv4_3
I1213 20:40:25.397291 13731 net.cpp:395] relu4_3 -> conv4_3 (in-place)
I1213 20:40:25.397435 13731 net.cpp:150] Setting up relu4_3
I1213 20:40:25.397444 13731 net.cpp:157] Top shape: 4 512 96 96 (18874368)
I1213 20:40:25.397447 13731 net.cpp:165] Memory required for data: 5886374400
I1213 20:40:25.397451 13731 layer_factory.hpp:77] Creating layer conv4_3_relu4_3_0_split
I1213 20:40:25.397457 13731 net.cpp:100] Creating Layer conv4_3_relu4_3_0_split
I1213 20:40:25.397461 13731 net.cpp:434] conv4_3_relu4_3_0_split <- conv4_3
I1213 20:40:25.397466 13731 net.cpp:408] conv4_3_relu4_3_0_split -> conv4_3_relu4_3_0_split_0
I1213 20:40:25.397472 13731 net.cpp:408] conv4_3_relu4_3_0_split -> conv4_3_relu4_3_0_split_1
I1213 20:40:25.397505 13731 net.cpp:150] Setting up conv4_3_relu4_3_0_split
I1213 20:40:25.397511 13731 net.cpp:157] Top shape: 4 512 96 96 (18874368)
I1213 20:40:25.397514 13731 net.cpp:157] Top shape: 4 512 96 96 (18874368)
I1213 20:40:25.397517 13731 net.cpp:165] Memory required for data: 6037369344
I1213 20:40:25.397521 13731 layer_factory.hpp:77] Creating layer loss1_conv1
I1213 20:40:25.397531 13731 net.cpp:100] Creating Layer loss1_conv1
I1213 20:40:25.397534 13731 net.cpp:434] loss1_conv1 <- conv4_3_relu4_3_0_split_0
I1213 20:40:25.397539 13731 net.cpp:408] loss1_conv1 -> loss1_conv1
I1213 20:40:25.464568 13731 net.cpp:150] Setting up loss1_conv1
I1213 20:40:25.464596 13731 net.cpp:157] Top shape: 4 512 96 96 (18874368)
I1213 20:40:25.464601 13731 net.cpp:165] Memory required for data: 6112866816
I1213 20:40:25.464610 13731 layer_factory.hpp:77] Creating layer loss_relu1
I1213 20:40:25.464622 13731 net.cpp:100] Creating Layer loss_relu1
I1213 20:40:25.464627 13731 net.cpp:434] loss_relu1 <- loss1_conv1
I1213 20:40:25.464635 13731 net.cpp:395] loss_relu1 -> loss1_conv1 (in-place)
I1213 20:40:25.465085 13731 net.cpp:150] Setting up loss_relu1
I1213 20:40:25.465097 13731 net.cpp:157] Top shape: 4 512 96 96 (18874368)
I1213 20:40:25.465101 13731 net.cpp:165] Memory required for data: 6188364288
I1213 20:40:25.465104 13731 layer_factory.hpp:77] Creating layer loss1_conv1_loss_relu1_0_split
I1213 20:40:25.465111 13731 net.cpp:100] Creating Layer loss1_conv1_loss_relu1_0_split
I1213 20:40:25.465114 13731 net.cpp:434] loss1_conv1_loss_relu1_0_split <- loss1_conv1
I1213 20:40:25.465119 13731 net.cpp:408] loss1_conv1_loss_relu1_0_split -> loss1_conv1_loss_relu1_0_split_0
I1213 20:40:25.465126 13731 net.cpp:408] loss1_conv1_loss_relu1_0_split -> loss1_conv1_loss_relu1_0_split_1
I1213 20:40:25.465162 13731 net.cpp:150] Setting up loss1_conv1_loss_relu1_0_split
I1213 20:40:25.465167 13731 net.cpp:157] Top shape: 4 512 96 96 (18874368)
I1213 20:40:25.465173 13731 net.cpp:157] Top shape: 4 512 96 96 (18874368)
I1213 20:40:25.465175 13731 net.cpp:165] Memory required for data: 6339359232
I1213 20:40:25.465178 13731 layer_factory.hpp:77] Creating layer LFCN_1_5x5
I1213 20:40:25.465188 13731 net.cpp:100] Creating Layer LFCN_1_5x5
I1213 20:40:25.465191 13731 net.cpp:434] LFCN_1_5x5 <- loss1_conv1_loss_relu1_0_split_0
I1213 20:40:25.465198 13731 net.cpp:408] LFCN_1_5x5 -> LFCN_1_5x5
I1213 20:40:25.468729 13731 net.cpp:150] Setting up LFCN_1_5x5
I1213 20:40:25.468739 13731 net.cpp:157] Top shape: 4 9 96 96 (331776)
I1213 20:40:25.468744 13731 net.cpp:165] Memory required for data: 6340686336
I1213 20:40:25.468749 13731 layer_factory.hpp:77] Creating layer LFCN_1_5x5_LFCN_1_5x5_0_split
I1213 20:40:25.468755 13731 net.cpp:100] Creating Layer LFCN_1_5x5_LFCN_1_5x5_0_split
I1213 20:40:25.468757 13731 net.cpp:434] LFCN_1_5x5_LFCN_1_5x5_0_split <- LFCN_1_5x5
I1213 20:40:25.468762 13731 net.cpp:408] LFCN_1_5x5_LFCN_1_5x5_0_split -> LFCN_1_5x5_LFCN_1_5x5_0_split_0
I1213 20:40:25.468768 13731 net.cpp:408] LFCN_1_5x5_LFCN_1_5x5_0_split -> LFCN_1_5x5_LFCN_1_5x5_0_split_1
I1213 20:40:25.468799 13731 net.cpp:150] Setting up LFCN_1_5x5_LFCN_1_5x5_0_split
I1213 20:40:25.468803 13731 net.cpp:157] Top shape: 4 9 96 96 (331776)
I1213 20:40:25.468807 13731 net.cpp:157] Top shape: 4 9 96 96 (331776)
I1213 20:40:25.468811 13731 net.cpp:165] Memory required for data: 6343340544
I1213 20:40:25.468814 13731 layer_factory.hpp:77] Creating layer detection_loss_1_5x5
I1213 20:40:25.468822 13731 net.cpp:100] Creating Layer detection_loss_1_5x5
I1213 20:40:25.468825 13731 net.cpp:434] detection_loss_1_5x5 <- LFCN_1_5x5_LFCN_1_5x5_0_split_0
I1213 20:40:25.468829 13731 net.cpp:434] detection_loss_1_5x5 <- label_1_5x5_data_1_split_0
I1213 20:40:25.468834 13731 net.cpp:408] detection_loss_1_5x5 -> loss_1_5x5
I1213 20:40:25.468848 13731 layer_factory.hpp:77] Creating layer detection_loss_1_5x5
I1213 20:40:25.470489 13731 net.cpp:150] Setting up detection_loss_1_5x5
I1213 20:40:25.470504 13731 net.cpp:157] Top shape: 1 1 1 2 (2)
I1213 20:40:25.470506 13731 net.cpp:160]     with loss weight 0.9
I1213 20:40:25.470525 13731 net.cpp:165] Memory required for data: 6343340552
I1213 20:40:25.470528 13731 layer_factory.hpp:77] Creating layer detection_accuracy_1_5x5
I1213 20:40:25.470536 13731 net.cpp:100] Creating Layer detection_accuracy_1_5x5
I1213 20:40:25.470541 13731 net.cpp:434] detection_accuracy_1_5x5 <- LFCN_1_5x5_LFCN_1_5x5_0_split_1
I1213 20:40:25.470546 13731 net.cpp:434] detection_accuracy_1_5x5 <- label_1_5x5_data_1_split_1
I1213 20:40:25.470551 13731 net.cpp:408] detection_accuracy_1_5x5 -> accuracy_1_5x5
I1213 20:40:25.470559 13731 net.cpp:408] detection_accuracy_1_5x5 -> boxiou_1_5x5
I1213 20:40:25.470594 13731 net.cpp:150] Setting up detection_accuracy_1_5x5
I1213 20:40:25.470599 13731 net.cpp:157] Top shape: 1 1 1 2 (2)
I1213 20:40:25.470603 13731 net.cpp:157] Top shape: 1 1 1 1 (1)
I1213 20:40:25.470607 13731 net.cpp:165] Memory required for data: 6343340564
I1213 20:40:25.470610 13731 layer_factory.hpp:77] Creating layer LFCN_1_7x7
I1213 20:40:25.470618 13731 net.cpp:100] Creating Layer LFCN_1_7x7
I1213 20:40:25.470623 13731 net.cpp:434] LFCN_1_7x7 <- loss1_conv1_loss_relu1_0_split_1
I1213 20:40:25.470628 13731 net.cpp:408] LFCN_1_7x7 -> LFCN_1_7x7
I1213 20:40:25.477562 13731 net.cpp:150] Setting up LFCN_1_7x7
I1213 20:40:25.477578 13731 net.cpp:157] Top shape: 4 9 96 96 (331776)
I1213 20:40:25.477582 13731 net.cpp:165] Memory required for data: 6344667668
I1213 20:40:25.477589 13731 layer_factory.hpp:77] Creating layer LFCN_1_7x7_LFCN_1_7x7_0_split
I1213 20:40:25.477596 13731 net.cpp:100] Creating Layer LFCN_1_7x7_LFCN_1_7x7_0_split
I1213 20:40:25.477600 13731 net.cpp:434] LFCN_1_7x7_LFCN_1_7x7_0_split <- LFCN_1_7x7
I1213 20:40:25.477605 13731 net.cpp:408] LFCN_1_7x7_LFCN_1_7x7_0_split -> LFCN_1_7x7_LFCN_1_7x7_0_split_0
I1213 20:40:25.477612 13731 net.cpp:408] LFCN_1_7x7_LFCN_1_7x7_0_split -> LFCN_1_7x7_LFCN_1_7x7_0_split_1
I1213 20:40:25.477650 13731 net.cpp:150] Setting up LFCN_1_7x7_LFCN_1_7x7_0_split
I1213 20:40:25.477658 13731 net.cpp:157] Top shape: 4 9 96 96 (331776)
I1213 20:40:25.477661 13731 net.cpp:157] Top shape: 4 9 96 96 (331776)
I1213 20:40:25.477664 13731 net.cpp:165] Memory required for data: 6347321876
I1213 20:40:25.477668 13731 layer_factory.hpp:77] Creating layer detection_loss_1_7x7
I1213 20:40:25.477674 13731 net.cpp:100] Creating Layer detection_loss_1_7x7
I1213 20:40:25.477677 13731 net.cpp:434] detection_loss_1_7x7 <- LFCN_1_7x7_LFCN_1_7x7_0_split_0
I1213 20:40:25.477682 13731 net.cpp:434] detection_loss_1_7x7 <- label_1_7x7_data_2_split_0
I1213 20:40:25.477689 13731 net.cpp:408] detection_loss_1_7x7 -> loss_1_7x7
I1213 20:40:25.477695 13731 layer_factory.hpp:77] Creating layer detection_loss_1_7x7
I1213 20:40:25.479292 13731 net.cpp:150] Setting up detection_loss_1_7x7
I1213 20:40:25.479310 13731 net.cpp:157] Top shape: 1 1 1 2 (2)
I1213 20:40:25.479313 13731 net.cpp:160]     with loss weight 0.9
I1213 20:40:25.479324 13731 net.cpp:165] Memory required for data: 6347321884
I1213 20:40:25.479328 13731 layer_factory.hpp:77] Creating layer detection_accuracy_1_7x7
I1213 20:40:25.479336 13731 net.cpp:100] Creating Layer detection_accuracy_1_7x7
I1213 20:40:25.479341 13731 net.cpp:434] detection_accuracy_1_7x7 <- LFCN_1_7x7_LFCN_1_7x7_0_split_1
I1213 20:40:25.479346 13731 net.cpp:434] detection_accuracy_1_7x7 <- label_1_7x7_data_2_split_1
I1213 20:40:25.479352 13731 net.cpp:408] detection_accuracy_1_7x7 -> accuracy_1_7x7
I1213 20:40:25.479359 13731 net.cpp:408] detection_accuracy_1_7x7 -> boxiou_1_7x7
I1213 20:40:25.479393 13731 net.cpp:150] Setting up detection_accuracy_1_7x7
I1213 20:40:25.479399 13731 net.cpp:157] Top shape: 1 1 1 2 (2)
I1213 20:40:25.479403 13731 net.cpp:157] Top shape: 1 1 1 1 (1)
I1213 20:40:25.479408 13731 net.cpp:165] Memory required for data: 6347321896
I1213 20:40:25.479410 13731 layer_factory.hpp:77] Creating layer pool4
I1213 20:40:25.479416 13731 net.cpp:100] Creating Layer pool4
I1213 20:40:25.479435 13731 net.cpp:434] pool4 <- conv4_3_relu4_3_0_split_1
I1213 20:40:25.479457 13731 net.cpp:408] pool4 -> pool4
I1213 20:40:25.479491 13731 net.cpp:150] Setting up pool4
I1213 20:40:25.479496 13731 net.cpp:157] Top shape: 4 512 48 48 (4718592)
I1213 20:40:25.479499 13731 net.cpp:165] Memory required for data: 6366196264
I1213 20:40:25.479502 13731 layer_factory.hpp:77] Creating layer conv5_1
I1213 20:40:25.479511 13731 net.cpp:100] Creating Layer conv5_1
I1213 20:40:25.479514 13731 net.cpp:434] conv5_1 <- pool4
I1213 20:40:25.479519 13731 net.cpp:408] conv5_1 -> conv5_1
I1213 20:40:25.486873 13731 net.cpp:150] Setting up conv5_1
I1213 20:40:25.486903 13731 net.cpp:157] Top shape: 4 512 48 48 (4718592)
I1213 20:40:25.486908 13731 net.cpp:165] Memory required for data: 6385070632
I1213 20:40:25.486918 13731 layer_factory.hpp:77] Creating layer relu5_1
I1213 20:40:25.486930 13731 net.cpp:100] Creating Layer relu5_1
I1213 20:40:25.486937 13731 net.cpp:434] relu5_1 <- conv5_1
I1213 20:40:25.486943 13731 net.cpp:395] relu5_1 -> conv5_1 (in-place)
I1213 20:40:25.487097 13731 net.cpp:150] Setting up relu5_1
I1213 20:40:25.487104 13731 net.cpp:157] Top shape: 4 512 48 48 (4718592)
I1213 20:40:25.487108 13731 net.cpp:165] Memory required for data: 6403945000
I1213 20:40:25.487112 13731 layer_factory.hpp:77] Creating layer conv5_2
I1213 20:40:25.487120 13731 net.cpp:100] Creating Layer conv5_2
I1213 20:40:25.487124 13731 net.cpp:434] conv5_2 <- conv5_1
I1213 20:40:25.487129 13731 net.cpp:408] conv5_2 -> conv5_2
I1213 20:40:25.497756 13731 net.cpp:150] Setting up conv5_2
I1213 20:40:25.497784 13731 net.cpp:157] Top shape: 4 512 48 48 (4718592)
I1213 20:40:25.497789 13731 net.cpp:165] Memory required for data: 6422819368
I1213 20:40:25.497799 13731 layer_factory.hpp:77] Creating layer relu5_2
I1213 20:40:25.497810 13731 net.cpp:100] Creating Layer relu5_2
I1213 20:40:25.497817 13731 net.cpp:434] relu5_2 <- conv5_2
I1213 20:40:25.497822 13731 net.cpp:395] relu5_2 -> conv5_2 (in-place)
I1213 20:40:25.497994 13731 net.cpp:150] Setting up relu5_2
I1213 20:40:25.498005 13731 net.cpp:157] Top shape: 4 512 48 48 (4718592)
I1213 20:40:25.498010 13731 net.cpp:165] Memory required for data: 6441693736
I1213 20:40:25.498015 13731 layer_factory.hpp:77] Creating layer conv5_3
I1213 20:40:25.498023 13731 net.cpp:100] Creating Layer conv5_3
I1213 20:40:25.498028 13731 net.cpp:434] conv5_3 <- conv5_2
I1213 20:40:25.498034 13731 net.cpp:408] conv5_3 -> conv5_3
I1213 20:40:25.505002 13731 net.cpp:150] Setting up conv5_3
I1213 20:40:25.505059 13731 net.cpp:157] Top shape: 4 512 48 48 (4718592)
I1213 20:40:25.505065 13731 net.cpp:165] Memory required for data: 6460568104
I1213 20:40:25.505080 13731 layer_factory.hpp:77] Creating layer relu5_3
I1213 20:40:25.505100 13731 net.cpp:100] Creating Layer relu5_3
I1213 20:40:25.505108 13731 net.cpp:434] relu5_3 <- conv5_3
I1213 20:40:25.505118 13731 net.cpp:395] relu5_3 -> conv5_3 (in-place)
I1213 20:40:25.505311 13731 net.cpp:150] Setting up relu5_3
I1213 20:40:25.505321 13731 net.cpp:157] Top shape: 4 512 48 48 (4718592)
I1213 20:40:25.505324 13731 net.cpp:165] Memory required for data: 6479442472
I1213 20:40:25.505329 13731 layer_factory.hpp:77] Creating layer conv5_3_relu5_3_0_split
I1213 20:40:25.505338 13731 net.cpp:100] Creating Layer conv5_3_relu5_3_0_split
I1213 20:40:25.505342 13731 net.cpp:434] conv5_3_relu5_3_0_split <- conv5_3
I1213 20:40:25.505349 13731 net.cpp:408] conv5_3_relu5_3_0_split -> conv5_3_relu5_3_0_split_0
I1213 20:40:25.505358 13731 net.cpp:408] conv5_3_relu5_3_0_split -> conv5_3_relu5_3_0_split_1
I1213 20:40:25.505365 13731 net.cpp:408] conv5_3_relu5_3_0_split -> conv5_3_relu5_3_0_split_2
I1213 20:40:25.505419 13731 net.cpp:150] Setting up conv5_3_relu5_3_0_split
I1213 20:40:25.505427 13731 net.cpp:157] Top shape: 4 512 48 48 (4718592)
I1213 20:40:25.505432 13731 net.cpp:157] Top shape: 4 512 48 48 (4718592)
I1213 20:40:25.505436 13731 net.cpp:157] Top shape: 4 512 48 48 (4718592)
I1213 20:40:25.505440 13731 net.cpp:165] Memory required for data: 6536065576
I1213 20:40:25.505445 13731 layer_factory.hpp:77] Creating layer LFCN_2_5x5
I1213 20:40:25.505458 13731 net.cpp:100] Creating Layer LFCN_2_5x5
I1213 20:40:25.505463 13731 net.cpp:434] LFCN_2_5x5 <- conv5_3_relu5_3_0_split_0
I1213 20:40:25.505471 13731 net.cpp:408] LFCN_2_5x5 -> LFCN_2_5x5
I1213 20:40:25.511204 13731 net.cpp:150] Setting up LFCN_2_5x5
I1213 20:40:25.511252 13731 net.cpp:157] Top shape: 4 9 48 48 (82944)
I1213 20:40:25.511257 13731 net.cpp:165] Memory required for data: 6536397352
I1213 20:40:25.511282 13731 layer_factory.hpp:77] Creating layer LFCN_2_5x5_LFCN_2_5x5_0_split
I1213 20:40:25.511299 13731 net.cpp:100] Creating Layer LFCN_2_5x5_LFCN_2_5x5_0_split
I1213 20:40:25.511307 13731 net.cpp:434] LFCN_2_5x5_LFCN_2_5x5_0_split <- LFCN_2_5x5
I1213 20:40:25.511315 13731 net.cpp:408] LFCN_2_5x5_LFCN_2_5x5_0_split -> LFCN_2_5x5_LFCN_2_5x5_0_split_0
I1213 20:40:25.511337 13731 net.cpp:408] LFCN_2_5x5_LFCN_2_5x5_0_split -> LFCN_2_5x5_LFCN_2_5x5_0_split_1
I1213 20:40:25.511377 13731 net.cpp:150] Setting up LFCN_2_5x5_LFCN_2_5x5_0_split
I1213 20:40:25.511386 13731 net.cpp:157] Top shape: 4 9 48 48 (82944)
I1213 20:40:25.511391 13731 net.cpp:157] Top shape: 4 9 48 48 (82944)
I1213 20:40:25.511394 13731 net.cpp:165] Memory required for data: 6537060904
I1213 20:40:25.511397 13731 layer_factory.hpp:77] Creating layer detection_loss_2_5x5
I1213 20:40:25.511409 13731 net.cpp:100] Creating Layer detection_loss_2_5x5
I1213 20:40:25.511412 13731 net.cpp:434] detection_loss_2_5x5 <- LFCN_2_5x5_LFCN_2_5x5_0_split_0
I1213 20:40:25.511418 13731 net.cpp:434] detection_loss_2_5x5 <- label_2_5x5_data_3_split_0
I1213 20:40:25.511425 13731 net.cpp:408] detection_loss_2_5x5 -> loss_2_5x5
I1213 20:40:25.511437 13731 layer_factory.hpp:77] Creating layer detection_loss_2_5x5
I1213 20:40:25.513190 13731 net.cpp:150] Setting up detection_loss_2_5x5
I1213 20:40:25.513202 13731 net.cpp:157] Top shape: 1 1 1 2 (2)
I1213 20:40:25.513206 13731 net.cpp:160]     with loss weight 1
I1213 20:40:25.513216 13731 net.cpp:165] Memory required for data: 6537060912
I1213 20:40:25.513221 13731 layer_factory.hpp:77] Creating layer detection_accuracy_2_5x5
I1213 20:40:25.513227 13731 net.cpp:100] Creating Layer detection_accuracy_2_5x5
I1213 20:40:25.513231 13731 net.cpp:434] detection_accuracy_2_5x5 <- LFCN_2_5x5_LFCN_2_5x5_0_split_1
I1213 20:40:25.513236 13731 net.cpp:434] detection_accuracy_2_5x5 <- label_2_5x5_data_3_split_1
I1213 20:40:25.513242 13731 net.cpp:408] detection_accuracy_2_5x5 -> accuracy_2_5x5
I1213 20:40:25.513248 13731 net.cpp:408] detection_accuracy_2_5x5 -> boxiou_2_5x5
I1213 20:40:25.513283 13731 net.cpp:150] Setting up detection_accuracy_2_5x5
I1213 20:40:25.513290 13731 net.cpp:157] Top shape: 1 1 1 2 (2)
I1213 20:40:25.513295 13731 net.cpp:157] Top shape: 1 1 1 1 (1)
I1213 20:40:25.513298 13731 net.cpp:165] Memory required for data: 6537060924
I1213 20:40:25.513301 13731 layer_factory.hpp:77] Creating layer LFCN_2_7x7
I1213 20:40:25.513312 13731 net.cpp:100] Creating Layer LFCN_2_7x7
I1213 20:40:25.513315 13731 net.cpp:434] LFCN_2_7x7 <- conv5_3_relu5_3_0_split_1
I1213 20:40:25.513321 13731 net.cpp:408] LFCN_2_7x7 -> LFCN_2_7x7
I1213 20:40:25.520606 13731 net.cpp:150] Setting up LFCN_2_7x7
I1213 20:40:25.520620 13731 net.cpp:157] Top shape: 4 9 48 48 (82944)
I1213 20:40:25.520624 13731 net.cpp:165] Memory required for data: 6537392700
I1213 20:40:25.520632 13731 layer_factory.hpp:77] Creating layer LFCN_2_7x7_LFCN_2_7x7_0_split
I1213 20:40:25.520638 13731 net.cpp:100] Creating Layer LFCN_2_7x7_LFCN_2_7x7_0_split
I1213 20:40:25.520642 13731 net.cpp:434] LFCN_2_7x7_LFCN_2_7x7_0_split <- LFCN_2_7x7
I1213 20:40:25.520648 13731 net.cpp:408] LFCN_2_7x7_LFCN_2_7x7_0_split -> LFCN_2_7x7_LFCN_2_7x7_0_split_0
I1213 20:40:25.520654 13731 net.cpp:408] LFCN_2_7x7_LFCN_2_7x7_0_split -> LFCN_2_7x7_LFCN_2_7x7_0_split_1
I1213 20:40:25.520689 13731 net.cpp:150] Setting up LFCN_2_7x7_LFCN_2_7x7_0_split
I1213 20:40:25.520696 13731 net.cpp:157] Top shape: 4 9 48 48 (82944)
I1213 20:40:25.520702 13731 net.cpp:157] Top shape: 4 9 48 48 (82944)
I1213 20:40:25.520706 13731 net.cpp:165] Memory required for data: 6538056252
I1213 20:40:25.520710 13731 layer_factory.hpp:77] Creating layer detection_loss_2_7x7
I1213 20:40:25.520717 13731 net.cpp:100] Creating Layer detection_loss_2_7x7
I1213 20:40:25.520722 13731 net.cpp:434] detection_loss_2_7x7 <- LFCN_2_7x7_LFCN_2_7x7_0_split_0
I1213 20:40:25.520727 13731 net.cpp:434] detection_loss_2_7x7 <- label_2_7x7_data_4_split_0
I1213 20:40:25.520735 13731 net.cpp:408] detection_loss_2_7x7 -> loss_2_7x7
I1213 20:40:25.520743 13731 layer_factory.hpp:77] Creating layer detection_loss_2_7x7
I1213 20:40:25.521456 13731 net.cpp:150] Setting up detection_loss_2_7x7
I1213 20:40:25.521468 13731 net.cpp:157] Top shape: 1 1 1 2 (2)
I1213 20:40:25.521471 13731 net.cpp:160]     with loss weight 1
I1213 20:40:25.521478 13731 net.cpp:165] Memory required for data: 6538056260
I1213 20:40:25.521481 13731 layer_factory.hpp:77] Creating layer detection_accuracy_2_7x7
I1213 20:40:25.521487 13731 net.cpp:100] Creating Layer detection_accuracy_2_7x7
I1213 20:40:25.521493 13731 net.cpp:434] detection_accuracy_2_7x7 <- LFCN_2_7x7_LFCN_2_7x7_0_split_1
I1213 20:40:25.521498 13731 net.cpp:434] detection_accuracy_2_7x7 <- label_2_7x7_data_4_split_1
I1213 20:40:25.521503 13731 net.cpp:408] detection_accuracy_2_7x7 -> accuracy_2_7x7
I1213 20:40:25.521509 13731 net.cpp:408] detection_accuracy_2_7x7 -> boxiou_2_7x7
I1213 20:40:25.521543 13731 net.cpp:150] Setting up detection_accuracy_2_7x7
I1213 20:40:25.521546 13731 net.cpp:157] Top shape: 1 1 1 2 (2)
I1213 20:40:25.521550 13731 net.cpp:157] Top shape: 1 1 1 1 (1)
I1213 20:40:25.521553 13731 net.cpp:165] Memory required for data: 6538056272
I1213 20:40:25.521556 13731 layer_factory.hpp:77] Creating layer pool5
I1213 20:40:25.521562 13731 net.cpp:100] Creating Layer pool5
I1213 20:40:25.521566 13731 net.cpp:434] pool5 <- conv5_3_relu5_3_0_split_2
I1213 20:40:25.521572 13731 net.cpp:408] pool5 -> pool5
I1213 20:40:25.521603 13731 net.cpp:150] Setting up pool5
I1213 20:40:25.521610 13731 net.cpp:157] Top shape: 4 512 24 24 (1179648)
I1213 20:40:25.521612 13731 net.cpp:165] Memory required for data: 6542774864
I1213 20:40:25.521616 13731 layer_factory.hpp:77] Creating layer conv6_1
I1213 20:40:25.521625 13731 net.cpp:100] Creating Layer conv6_1
I1213 20:40:25.521628 13731 net.cpp:434] conv6_1 <- pool5
I1213 20:40:25.521633 13731 net.cpp:408] conv6_1 -> conv6_1
I1213 20:40:25.585286 13731 net.cpp:150] Setting up conv6_1
I1213 20:40:25.585314 13731 net.cpp:157] Top shape: 4 512 24 24 (1179648)
I1213 20:40:25.585319 13731 net.cpp:165] Memory required for data: 6547493456
I1213 20:40:25.585327 13731 layer_factory.hpp:77] Creating layer relu6_1
I1213 20:40:25.585343 13731 net.cpp:100] Creating Layer relu6_1
I1213 20:40:25.585350 13731 net.cpp:434] relu6_1 <- conv6_1
I1213 20:40:25.585356 13731 net.cpp:395] relu6_1 -> conv6_1 (in-place)
I1213 20:40:25.585506 13731 net.cpp:150] Setting up relu6_1
I1213 20:40:25.585515 13731 net.cpp:157] Top shape: 4 512 24 24 (1179648)
I1213 20:40:25.585517 13731 net.cpp:165] Memory required for data: 6552212048
I1213 20:40:25.585521 13731 layer_factory.hpp:77] Creating layer conv6_1_relu6_1_0_split
I1213 20:40:25.585527 13731 net.cpp:100] Creating Layer conv6_1_relu6_1_0_split
I1213 20:40:25.585531 13731 net.cpp:434] conv6_1_relu6_1_0_split <- conv6_1
I1213 20:40:25.585536 13731 net.cpp:408] conv6_1_relu6_1_0_split -> conv6_1_relu6_1_0_split_0
I1213 20:40:25.585542 13731 net.cpp:408] conv6_1_relu6_1_0_split -> conv6_1_relu6_1_0_split_1
I1213 20:40:25.585548 13731 net.cpp:408] conv6_1_relu6_1_0_split -> conv6_1_relu6_1_0_split_2
I1213 20:40:25.585594 13731 net.cpp:150] Setting up conv6_1_relu6_1_0_split
I1213 20:40:25.585600 13731 net.cpp:157] Top shape: 4 512 24 24 (1179648)
I1213 20:40:25.585604 13731 net.cpp:157] Top shape: 4 512 24 24 (1179648)
I1213 20:40:25.585608 13731 net.cpp:157] Top shape: 4 512 24 24 (1179648)
I1213 20:40:25.585611 13731 net.cpp:165] Memory required for data: 6566367824
I1213 20:40:25.585614 13731 layer_factory.hpp:77] Creating layer LFCN_3_5x5
I1213 20:40:25.585625 13731 net.cpp:100] Creating Layer LFCN_3_5x5
I1213 20:40:25.585629 13731 net.cpp:434] LFCN_3_5x5 <- conv6_1_relu6_1_0_split_0
I1213 20:40:25.585634 13731 net.cpp:408] LFCN_3_5x5 -> LFCN_3_5x5
I1213 20:40:25.589488 13731 net.cpp:150] Setting up LFCN_3_5x5
I1213 20:40:25.589501 13731 net.cpp:157] Top shape: 4 9 24 24 (20736)
I1213 20:40:25.589504 13731 net.cpp:165] Memory required for data: 6566450768
I1213 20:40:25.589510 13731 layer_factory.hpp:77] Creating layer LFCN_3_5x5_LFCN_3_5x5_0_split
I1213 20:40:25.589515 13731 net.cpp:100] Creating Layer LFCN_3_5x5_LFCN_3_5x5_0_split
I1213 20:40:25.589519 13731 net.cpp:434] LFCN_3_5x5_LFCN_3_5x5_0_split <- LFCN_3_5x5
I1213 20:40:25.589524 13731 net.cpp:408] LFCN_3_5x5_LFCN_3_5x5_0_split -> LFCN_3_5x5_LFCN_3_5x5_0_split_0
I1213 20:40:25.589531 13731 net.cpp:408] LFCN_3_5x5_LFCN_3_5x5_0_split -> LFCN_3_5x5_LFCN_3_5x5_0_split_1
I1213 20:40:25.589565 13731 net.cpp:150] Setting up LFCN_3_5x5_LFCN_3_5x5_0_split
I1213 20:40:25.589570 13731 net.cpp:157] Top shape: 4 9 24 24 (20736)
I1213 20:40:25.589573 13731 net.cpp:157] Top shape: 4 9 24 24 (20736)
I1213 20:40:25.589576 13731 net.cpp:165] Memory required for data: 6566616656
I1213 20:40:25.589581 13731 layer_factory.hpp:77] Creating layer detection_loss_3_5x5
I1213 20:40:25.589587 13731 net.cpp:100] Creating Layer detection_loss_3_5x5
I1213 20:40:25.589591 13731 net.cpp:434] detection_loss_3_5x5 <- LFCN_3_5x5_LFCN_3_5x5_0_split_0
I1213 20:40:25.589596 13731 net.cpp:434] detection_loss_3_5x5 <- label_3_5x5_data_5_split_0
I1213 20:40:25.589601 13731 net.cpp:408] detection_loss_3_5x5 -> loss_3_5x5
I1213 20:40:25.589608 13731 layer_factory.hpp:77] Creating layer detection_loss_3_5x5
I1213 20:40:25.589905 13731 net.cpp:150] Setting up detection_loss_3_5x5
I1213 20:40:25.589915 13731 net.cpp:157] Top shape: 1 1 1 2 (2)
I1213 20:40:25.589917 13731 net.cpp:160]     with loss weight 1
I1213 20:40:25.589928 13731 net.cpp:165] Memory required for data: 6566616664
I1213 20:40:25.589931 13731 layer_factory.hpp:77] Creating layer detection_accuracy_3_5x5
I1213 20:40:25.589937 13731 net.cpp:100] Creating Layer detection_accuracy_3_5x5
I1213 20:40:25.589941 13731 net.cpp:434] detection_accuracy_3_5x5 <- LFCN_3_5x5_LFCN_3_5x5_0_split_1
I1213 20:40:25.589946 13731 net.cpp:434] detection_accuracy_3_5x5 <- label_3_5x5_data_5_split_1
I1213 20:40:25.589951 13731 net.cpp:408] detection_accuracy_3_5x5 -> accuracy_3_5x5
I1213 20:40:25.589958 13731 net.cpp:408] detection_accuracy_3_5x5 -> boxiou_3_5x5
I1213 20:40:25.589990 13731 net.cpp:150] Setting up detection_accuracy_3_5x5
I1213 20:40:25.589998 13731 net.cpp:157] Top shape: 1 1 1 2 (2)
I1213 20:40:25.590001 13731 net.cpp:157] Top shape: 1 1 1 1 (1)
I1213 20:40:25.590004 13731 net.cpp:165] Memory required for data: 6566616676
I1213 20:40:25.590008 13731 layer_factory.hpp:77] Creating layer LFCN_3_7x7
I1213 20:40:25.590015 13731 net.cpp:100] Creating Layer LFCN_3_7x7
I1213 20:40:25.590019 13731 net.cpp:434] LFCN_3_7x7 <- conv6_1_relu6_1_0_split_1
I1213 20:40:25.590024 13731 net.cpp:408] LFCN_3_7x7 -> LFCN_3_7x7
I1213 20:40:25.597836 13731 net.cpp:150] Setting up LFCN_3_7x7
I1213 20:40:25.597856 13731 net.cpp:157] Top shape: 4 9 24 24 (20736)
I1213 20:40:25.597859 13731 net.cpp:165] Memory required for data: 6566699620
I1213 20:40:25.597867 13731 layer_factory.hpp:77] Creating layer LFCN_3_7x7_LFCN_3_7x7_0_split
I1213 20:40:25.597877 13731 net.cpp:100] Creating Layer LFCN_3_7x7_LFCN_3_7x7_0_split
I1213 20:40:25.597882 13731 net.cpp:434] LFCN_3_7x7_LFCN_3_7x7_0_split <- LFCN_3_7x7
I1213 20:40:25.597887 13731 net.cpp:408] LFCN_3_7x7_LFCN_3_7x7_0_split -> LFCN_3_7x7_LFCN_3_7x7_0_split_0
I1213 20:40:25.597894 13731 net.cpp:408] LFCN_3_7x7_LFCN_3_7x7_0_split -> LFCN_3_7x7_LFCN_3_7x7_0_split_1
I1213 20:40:25.597929 13731 net.cpp:150] Setting up LFCN_3_7x7_LFCN_3_7x7_0_split
I1213 20:40:25.597934 13731 net.cpp:157] Top shape: 4 9 24 24 (20736)
I1213 20:40:25.597937 13731 net.cpp:157] Top shape: 4 9 24 24 (20736)
I1213 20:40:25.597940 13731 net.cpp:165] Memory required for data: 6566865508
I1213 20:40:25.597944 13731 layer_factory.hpp:77] Creating layer detection_loss_3_7x7
I1213 20:40:25.597950 13731 net.cpp:100] Creating Layer detection_loss_3_7x7
I1213 20:40:25.597954 13731 net.cpp:434] detection_loss_3_7x7 <- LFCN_3_7x7_LFCN_3_7x7_0_split_0
I1213 20:40:25.597959 13731 net.cpp:434] detection_loss_3_7x7 <- label_3_7x7_data_6_split_0
I1213 20:40:25.597965 13731 net.cpp:408] detection_loss_3_7x7 -> loss_3_7x7
I1213 20:40:25.597972 13731 layer_factory.hpp:77] Creating layer detection_loss_3_7x7
I1213 20:40:25.598276 13731 net.cpp:150] Setting up detection_loss_3_7x7
I1213 20:40:25.598286 13731 net.cpp:157] Top shape: 1 1 1 2 (2)
I1213 20:40:25.598290 13731 net.cpp:160]     with loss weight 1
I1213 20:40:25.598299 13731 net.cpp:165] Memory required for data: 6566865516
I1213 20:40:25.598304 13731 layer_factory.hpp:77] Creating layer detection_accuracy_3_7x7
I1213 20:40:25.598310 13731 net.cpp:100] Creating Layer detection_accuracy_3_7x7
I1213 20:40:25.598315 13731 net.cpp:434] detection_accuracy_3_7x7 <- LFCN_3_7x7_LFCN_3_7x7_0_split_1
I1213 20:40:25.598318 13731 net.cpp:434] detection_accuracy_3_7x7 <- label_3_7x7_data_6_split_1
I1213 20:40:25.598325 13731 net.cpp:408] detection_accuracy_3_7x7 -> accuracy_3_7x7
I1213 20:40:25.598331 13731 net.cpp:408] detection_accuracy_3_7x7 -> boxiou_3_7x7
I1213 20:40:25.598368 13731 net.cpp:150] Setting up detection_accuracy_3_7x7
I1213 20:40:25.598376 13731 net.cpp:157] Top shape: 1 1 1 2 (2)
I1213 20:40:25.598379 13731 net.cpp:157] Top shape: 1 1 1 1 (1)
I1213 20:40:25.598382 13731 net.cpp:165] Memory required for data: 6566865528
I1213 20:40:25.598387 13731 layer_factory.hpp:77] Creating layer pool6
I1213 20:40:25.598392 13731 net.cpp:100] Creating Layer pool6
I1213 20:40:25.598397 13731 net.cpp:434] pool6 <- conv6_1_relu6_1_0_split_2
I1213 20:40:25.598402 13731 net.cpp:408] pool6 -> pool6
I1213 20:40:25.598434 13731 net.cpp:150] Setting up pool6
I1213 20:40:25.598440 13731 net.cpp:157] Top shape: 4 512 12 12 (294912)
I1213 20:40:25.598444 13731 net.cpp:165] Memory required for data: 6568045176
I1213 20:40:25.598448 13731 layer_factory.hpp:77] Creating layer LFCN_4_5x5
I1213 20:40:25.598456 13731 net.cpp:100] Creating Layer LFCN_4_5x5
I1213 20:40:25.598459 13731 net.cpp:434] LFCN_4_5x5 <- pool6
I1213 20:40:25.598464 13731 net.cpp:408] LFCN_4_5x5 -> LFCN_4_5x5
I1213 20:40:25.602361 13731 net.cpp:150] Setting up LFCN_4_5x5
I1213 20:40:25.602375 13731 net.cpp:157] Top shape: 4 9 12 12 (5184)
I1213 20:40:25.602378 13731 net.cpp:165] Memory required for data: 6568065912
I1213 20:40:25.602385 13731 layer_factory.hpp:77] Creating layer LFCN_4_5x5_LFCN_4_5x5_0_split
I1213 20:40:25.602391 13731 net.cpp:100] Creating Layer LFCN_4_5x5_LFCN_4_5x5_0_split
I1213 20:40:25.602393 13731 net.cpp:434] LFCN_4_5x5_LFCN_4_5x5_0_split <- LFCN_4_5x5
I1213 20:40:25.602401 13731 net.cpp:408] LFCN_4_5x5_LFCN_4_5x5_0_split -> LFCN_4_5x5_LFCN_4_5x5_0_split_0
I1213 20:40:25.602407 13731 net.cpp:408] LFCN_4_5x5_LFCN_4_5x5_0_split -> LFCN_4_5x5_LFCN_4_5x5_0_split_1
I1213 20:40:25.602442 13731 net.cpp:150] Setting up LFCN_4_5x5_LFCN_4_5x5_0_split
I1213 20:40:25.602447 13731 net.cpp:157] Top shape: 4 9 12 12 (5184)
I1213 20:40:25.602452 13731 net.cpp:157] Top shape: 4 9 12 12 (5184)
I1213 20:40:25.602454 13731 net.cpp:165] Memory required for data: 6568107384
I1213 20:40:25.602458 13731 layer_factory.hpp:77] Creating layer detection_loss_4_5x5
I1213 20:40:25.602463 13731 net.cpp:100] Creating Layer detection_loss_4_5x5
I1213 20:40:25.602468 13731 net.cpp:434] detection_loss_4_5x5 <- LFCN_4_5x5_LFCN_4_5x5_0_split_0
I1213 20:40:25.602471 13731 net.cpp:434] detection_loss_4_5x5 <- label_4_5x5_data_7_split_0
I1213 20:40:25.602478 13731 net.cpp:408] detection_loss_4_5x5 -> loss_4_5x5
I1213 20:40:25.602484 13731 layer_factory.hpp:77] Creating layer detection_loss_4_5x5
I1213 20:40:25.602787 13731 net.cpp:150] Setting up detection_loss_4_5x5
I1213 20:40:25.602797 13731 net.cpp:157] Top shape: 1 1 1 2 (2)
I1213 20:40:25.602799 13731 net.cpp:160]     with loss weight 1
I1213 20:40:25.602804 13731 net.cpp:165] Memory required for data: 6568107392
I1213 20:40:25.602807 13731 layer_factory.hpp:77] Creating layer detection_accuracy_4_5x5
I1213 20:40:25.602814 13731 net.cpp:100] Creating Layer detection_accuracy_4_5x5
I1213 20:40:25.602818 13731 net.cpp:434] detection_accuracy_4_5x5 <- LFCN_4_5x5_LFCN_4_5x5_0_split_1
I1213 20:40:25.602823 13731 net.cpp:434] detection_accuracy_4_5x5 <- label_4_5x5_data_7_split_1
I1213 20:40:25.602828 13731 net.cpp:408] detection_accuracy_4_5x5 -> accuracy_4_5x5
I1213 20:40:25.602833 13731 net.cpp:408] detection_accuracy_4_5x5 -> boxiou_4_5x5
I1213 20:40:25.602866 13731 net.cpp:150] Setting up detection_accuracy_4_5x5
I1213 20:40:25.602872 13731 net.cpp:157] Top shape: 1 1 1 2 (2)
I1213 20:40:25.602876 13731 net.cpp:157] Top shape: 1 1 1 1 (1)
I1213 20:40:25.602880 13731 net.cpp:165] Memory required for data: 6568107404
I1213 20:40:25.602882 13731 net.cpp:228] detection_accuracy_4_5x5 does not need backward computation.
I1213 20:40:25.602886 13731 net.cpp:226] detection_loss_4_5x5 needs backward computation.
I1213 20:40:25.602890 13731 net.cpp:226] LFCN_4_5x5_LFCN_4_5x5_0_split needs backward computation.
I1213 20:40:25.602892 13731 net.cpp:226] LFCN_4_5x5 needs backward computation.
…
I1213 20:40:25.613868 13731 image_gt_data_layer.cpp:235] output label size 1 : 2,6,96,96
I1213 20:40:25.613909 13731 image_gt_data_layer.cpp:235] output label size 2 : 2,6,48,48
I1213 20:40:25.613950 13731 image_gt_data_layer.cpp:235] output label size 3 : 2,6,48,48
I1213 20:40:25.613991 13731 image_gt_data_layer.cpp:235] output label size 4 : 2,6,24,24
I1213 20:40:25.614030 13731 image_gt_data_layer.cpp:235] output label size 5 : 2,6,24,24
I1213 20:40:25.614075 13731 image_gt_data_layer.cpp:235] output label size 6 : 2,6,12,12
I1213 20:40:25.639024 13731 net.cpp:150] Setting up data
I1213 20:40:25.639070 13731 net.cpp:157] Top shape: 2 3 768 768 (3538944)
I1213 20:40:25.639076 13731 net.cpp:157] Top shape: 2 6 96 96 (110592)
I1213 20:40:25.639081 13731 net.cpp:157] Top shape: 2 6 96 96 (110592)
I1213 20:40:25.639086 13731 net.cpp:157] Top shape: 2 6 48 48 (27648)
I1213 20:40:25.639089 13731 net.cpp:157] Top shape: 2 6 48 48 (27648)
I1213 20:40:25.639093 13731 net.cpp:157] Top shape: 2 6 24 24 (6912)
I1213 20:40:25.639098 13731 net.cpp:157] Top shape: 2 6 24 24 (6912)
I1213 20:40:25.639102 13731 net.cpp:157] Top shape: 2 6 12 12 (1728)
I1213 20:40:25.639106 13731 net.cpp:165] Memory required for data: 15323904
I1213 20:40:25.639116 13731 layer_factory.hpp:77] Creating layer label_1_5x5_data_1_split
I1213 20:40:25.639139 13731 net.cpp:100] Creating Layer label_1_5x5_data_1_split
I1213 20:40:25.639147 13731 net.cpp:434] label_1_5x5_data_1_split <- label_1_5x5
I1213 20:40:25.639155 13731 net.cpp:408] label_1_5x5_data_1_split -> label_1_5x5_data_1_split_0
I1213 20:40:25.639171 13731 net.cpp:408] label_1_5x5_data_1_split -> label_1_5x5_data_1_split_1
I1213 20:40:25.639523 13731 net.cpp:150] Setting up label_1_5x5_data_1_split
I1213 20:40:25.639585 13731 net.cpp:157] Top shape: 2 6 96 96 (110592)
I1213 20:40:25.639596 13731 net.cpp:157] Top shape: 2 6 96 96 (110592)
I1213 20:40:25.639605 13731 net.cpp:165] Memory required for data: 16208640
I1213 20:40:25.639616 13731 layer_factory.hpp:77] Creating layer label_1_7x7_data_2_split
I1213 20:40:25.639641 13731 net.cpp:100] Creating Layer label_1_7x7_data_2_split
I1213 20:40:25.639650 13731 net.cpp:434] label_1_7x7_data_2_split <- label_1_7x7
I1213 20:40:25.639664 13731 net.cpp:408] label_1_7x7_data_2_split -> label_1_7x7_data_2_split_0
I1213 20:40:25.639683 13731 net.cpp:408] label_1_7x7_data_2_split -> label_1_7x7_data_2_split_1
I1213 20:40:25.639770 13731 net.cpp:150] Setting up label_1_7x7_data_2_split
I1213 20:40:25.639780 13731 net.cpp:157] Top shape: 2 6 96 96 (110592)
I1213 20:40:25.639791 13731 net.cpp:157] Top shape: 2 6 96 96 (110592)
I1213 20:40:25.639797 13731 net.cpp:165] Memory required for data: 17093376
I1213 20:40:25.639804 13731 layer_factory.hpp:77] Creating layer label_2_5x5_data_3_split
I1213 20:40:25.639816 13731 net.cpp:100] Creating Layer label_2_5x5_data_3_split
I1213 20:40:25.639823 13731 net.cpp:434] label_2_5x5_data_3_split <- label_2_5x5
I1213 20:40:25.639835 13731 net.cpp:408] label_2_5x5_data_3_split -> label_2_5x5_data_3_split_0
I1213 20:40:25.639848 13731 net.cpp:408] label_2_5x5_data_3_split -> label_2_5x5_data_3_split_1
I1213 20:40:25.639921 13731 net.cpp:150] Setting up label_2_5x5_data_3_split
I1213 20:40:25.639932 13731 net.cpp:157] Top shape: 2 6 48 48 (27648)
I1213 20:40:25.639946 13731 net.cpp:157] Top shape: 2 6 48 48 (27648)
I1213 20:40:25.639956 13731 net.cpp:165] Memory required for data: 17314560
I1213 20:40:25.639972 13731 layer_factory.hpp:77] Creating layer label_2_7x7_data_4_split
I1213 20:40:25.640028 13731 net.cpp:100] Creating Layer label_2_7x7_data_4_split
I1213 20:40:25.640064 13731 net.cpp:434] label_2_7x7_data_4_split <- label_2_7x7
I1213 20:40:25.640120 13731 net.cpp:408] label_2_7x7_data_4_split -> label_2_7x7_data_4_split_0
I1213 20:40:25.640177 13731 net.cpp:408] label_2_7x7_data_4_split -> label_2_7x7_data_4_split_1
I1213 20:40:25.640813 13731 net.cpp:150] Setting up label_2_7x7_data_4_split
I1213 20:40:25.640919 13731 net.cpp:157] Top shape: 2 6 48 48 (27648)
I1213 20:40:25.640974 13731 net.cpp:157] Top shape: 2 6 48 48 (27648)
I1213 20:40:25.640996 13731 net.cpp:165] Memory required for data: 17535744
I1213 20:40:25.641017 13731 layer_factory.hpp:77] Creating layer label_3_5x5_data_5_split
I1213 20:40:25.641067 13731 net.cpp:100] Creating Layer label_3_5x5_data_5_split
I1213 20:40:25.641096 13731 net.cpp:434] label_3_5x5_data_5_split <- label_3_5x5
I1213 20:40:25.641139 13731 net.cpp:408] label_3_5x5_data_5_split -> label_3_5x5_data_5_split_0
I1213 20:40:25.641209 13731 net.cpp:408] label_3_5x5_data_5_split -> label_3_5x5_data_5_split_1
I1213 20:40:25.641562 13731 net.cpp:150] Setting up label_3_5x5_data_5_split
I1213 20:40:25.641590 13731 net.cpp:157] Top shape: 2 6 24 24 (6912)
I1213 20:40:25.641607 13731 net.cpp:157] Top shape: 2 6 24 24 (6912)
I1213 20:40:25.641618 13731 net.cpp:165] Memory required for data: 17591040
I1213 20:40:25.641630 13731 layer_factory.hpp:77] Creating layer label_3_7x7_data_6_split
I1213 20:40:25.641650 13731 net.cpp:100] Creating Layer label_3_7x7_data_6_split
I1213 20:40:25.641669 13731 net.cpp:434] label_3_7x7_data_6_split <- label_3_7x7
I1213 20:40:25.641687 13731 net.cpp:408] label_3_7x7_data_6_split -> label_3_7x7_data_6_split_0
I1213 20:40:25.641708 13731 net.cpp:408] label_3_7x7_data_6_split -> label_3_7x7_data_6_split_1
I1213 20:40:25.641806 13731 net.cpp:150] Setting up label_3_7x7_data_6_split
I1213 20:40:25.641819 13731 net.cpp:157] Top shape: 2 6 24 24 (6912)
I1213 20:40:25.641829 13731 net.cpp:157] Top shape: 2 6 24 24 (6912)
I1213 20:40:25.641836 13731 net.cpp:165] Memory required for data: 17646336
I1213 20:40:25.641844 13731 layer_factory.hpp:77] Creating layer label_4_5x5_data_7_split
I1213 20:40:25.641854 13731 net.cpp:100] Creating Layer label_4_5x5_data_7_split
I1213 20:40:25.641861 13731 net.cpp:434] label_4_5x5_data_7_split <- label_4_5x5
I1213 20:40:25.641875 13731 net.cpp:408] label_4_5x5_data_7_split -> label_4_5x5_data_7_split_0
I1213 20:40:25.641886 13731 net.cpp:408] label_4_5x5_data_7_split -> label_4_5x5_data_7_split_1
I1213 20:40:25.641961 13731 net.cpp:150] Setting up label_4_5x5_data_7_split
I1213 20:40:25.641971 13731 net.cpp:157] Top shape: 2 6 12 12 (1728)
I1213 20:40:25.641981 13731 net.cpp:157] Top shape: 2 6 12 12 (1728)
I1213 20:40:25.641988 13731 net.cpp:165] Memory required for data: 17660160
I1213 20:40:25.641995 13731 layer_factory.hpp:77] Creating layer conv1_1
I1213 20:40:25.642019 13731 net.cpp:100] Creating Layer conv1_1
I1213 20:40:25.642026 13731 net.cpp:434] conv1_1 <- data
I1213 20:40:25.642037 13731 net.cpp:408] conv1_1 -> conv1_1
I1213 20:40:25.653916 13731 net.cpp:150] Setting up conv1_1
I1213 20:40:25.653954 13731 net.cpp:157] Top shape: 2 64 768 768 (75497472)
I1213 20:40:25.653962 13731 net.cpp:165] Memory required for data: 319650048
I1213 20:40:25.653990 13731 layer_factory.hpp:77] Creating layer relu1_1
I1213 20:40:25.654011 13731 net.cpp:100] Creating Layer relu1_1
I1213 20:40:25.654021 13731 net.cpp:434] relu1_1 <- conv1_1
I1213 20:40:25.654034 13731 net.cpp:395] relu1_1 -> conv1_1 (in-place)
I1213 20:40:25.655189 13731 net.cpp:150] Setting up relu1_1
I1213 20:40:25.655218 13731 net.cpp:157] Top shape: 2 64 768 768 (75497472)
I1213 20:40:25.655227 13731 net.cpp:165] Memory required for data: 621639936
I1213 20:40:25.655236 13731 layer_factory.hpp:77] Creating layer conv1_2
I1213 20:40:25.655256 13731 net.cpp:100] Creating Layer conv1_2
I1213 20:40:25.655267 13731 net.cpp:434] conv1_2 <- conv1_1
I1213 20:40:25.655280 13731 net.cpp:408] conv1_2 -> conv1_2
I1213 20:40:25.660404 13731 net.cpp:150] Setting up conv1_2
I1213 20:40:25.660442 13731 net.cpp:157] Top shape: 2 64 768 768 (75497472)
I1213 20:40:25.660447 13731 net.cpp:165] Memory required for data: 923629824
I1213 20:40:25.660465 13731 layer_factory.hpp:77] Creating layer relu1_2
I1213 20:40:25.660483 13731 net.cpp:100] Creating Layer relu1_2
I1213 20:40:25.660490 13731 net.cpp:434] relu1_2 <- conv1_2
I1213 20:40:25.660497 13731 net.cpp:395] relu1_2 -> conv1_2 (in-place)
I1213 20:40:25.660781 13731 net.cpp:150] Setting up relu1_2
I1213 20:40:25.660792 13731 net.cpp:157] Top shape: 2 64 768 768 (75497472)
I1213 20:40:25.660797 13731 net.cpp:165] Memory required for data: 1225619712
I1213 20:40:25.660801 13731 layer_factory.hpp:77] Creating layer pool1
I1213 20:40:25.660812 13731 net.cpp:100] Creating Layer pool1
I1213 20:40:25.660816 13731 net.cpp:434] pool1 <- conv1_2
I1213 20:40:25.660825 13731 net.cpp:408] pool1 -> pool1
I1213 20:40:25.660897 13731 net.cpp:150] Setting up pool1
I1213 20:40:25.660905 13731 net.cpp:157] Top shape: 2 64 384 384 (18874368)
I1213 20:40:25.660909 13731 net.cpp:165] Memory required for data: 1301117184
I1213 20:40:25.660913 13731 layer_factory.hpp:77] Creating layer conv2_1
I1213 20:40:25.660925 13731 net.cpp:100] Creating Layer conv2_1
I1213 20:40:25.660929 13731 net.cpp:434] conv2_1 <- pool1
I1213 20:40:25.660936 13731 net.cpp:408] conv2_1 -> conv2_1
I1213 20:40:25.664072 13731 net.cpp:150] Setting up conv2_1
I1213 20:40:25.664098 13731 net.cpp:157] Top shape: 2 128 384 384 (37748736)
I1213 20:40:25.664103 13731 net.cpp:165] Memory required for data: 1452112128
I1213 20:40:25.664119 13731 layer_factory.hpp:77] Creating layer relu2_1
I1213 20:40:25.664131 13731 net.cpp:100] Creating Layer relu2_1
I1213 20:40:25.664139 13731 net.cpp:434] relu2_1 <- conv2_1
I1213 20:40:25.664147 13731 net.cpp:395] relu2_1 -> conv2_1 (in-place)
I1213 20:40:25.664372 13731 net.cpp:150] Setting up relu2_1
I1213 20:40:25.664382 13731 net.cpp:157] Top shape: 2 128 384 384 (37748736)
I1213 20:40:25.664386 13731 net.cpp:165] Memory required for data: 1603107072
I1213 20:40:25.664391 13731 layer_factory.hpp:77] Creating layer conv2_2
I1213 20:40:25.664402 13731 net.cpp:100] Creating Layer conv2_2
I1213 20:40:25.664405 13731 net.cpp:434] conv2_2 <- conv2_1
I1213 20:40:25.664412 13731 net.cpp:408] conv2_2 -> conv2_2
I1213 20:40:25.666841 13731 net.cpp:150] Setting up conv2_2
I1213 20:40:25.666862 13731 net.cpp:157] Top shape: 2 128 384 384 (37748736)
I1213 20:40:25.666872 13731 net.cpp:165] Memory required for data: 1754102016
I1213 20:40:25.666883 13731 layer_factory.hpp:77] Creating layer relu2_2
I1213 20:40:25.666895 13731 net.cpp:100] Creating Layer relu2_2
I1213 20:40:25.666901 13731 net.cpp:434] relu2_2 <- conv2_2
I1213 20:40:25.666908 13731 net.cpp:395] relu2_2 -> conv2_2 (in-place)
I1213 20:40:25.667112 13731 net.cpp:150] Setting up relu2_2
I1213 20:40:25.667122 13731 net.cpp:157] Top shape: 2 128 384 384 (37748736)
I1213 20:40:25.667126 13731 net.cpp:165] Memory required for data: 1905096960
I1213 20:40:25.667130 13731 layer_factory.hpp:77] Creating layer pool2
I1213 20:40:25.667140 13731 net.cpp:100] Creating Layer pool2
I1213 20:40:25.667143 13731 net.cpp:434] pool2 <- conv2_2
I1213 20:40:25.667152 13731 net.cpp:408] pool2 -> pool2
I1213 20:40:25.667203 13731 net.cpp:150] Setting up pool2
I1213 20:40:25.667212 13731 net.cpp:157] Top shape: 2 128 192 192 (9437184)
I1213 20:40:25.667215 13731 net.cpp:165] Memory required for data: 1942845696
I1213 20:40:25.667219 13731 layer_factory.hpp:77] Creating layer conv3_1
I1213 20:40:25.667228 13731 net.cpp:100] Creating Layer conv3_1
I1213 20:40:25.667233 13731 net.cpp:434] conv3_1 <- pool2
I1213 20:40:25.667240 13731 net.cpp:408] conv3_1 -> conv3_1
I1213 20:40:25.671694 13731 net.cpp:150] Setting up conv3_1
I1213 20:40:25.671725 13731 net.cpp:157] Top shape: 2 256 192 192 (18874368)
I1213 20:40:25.671730 13731 net.cpp:165] Memory required for data: 2018343168
I1213 20:40:25.671746 13731 layer_factory.hpp:77] Creating layer relu3_1
I1213 20:40:25.671761 13731 net.cpp:100] Creating Layer relu3_1
I1213 20:40:25.671766 13731 net.cpp:434] relu3_1 <- conv3_1
I1213 20:40:25.671774 13731 net.cpp:395] relu3_1 -> conv3_1 (in-place)
I1213 20:40:25.671949 13731 net.cpp:150] Setting up relu3_1
I1213 20:40:25.671957 13731 net.cpp:157] Top shape: 2 256 192 192 (18874368)
I1213 20:40:25.671959 13731 net.cpp:165] Memory required for data: 2093840640
I1213 20:40:25.671962 13731 layer_factory.hpp:77] Creating layer conv3_1_relu3_1_0_split
I1213 20:40:25.671968 13731 net.cpp:100] Creating Layer conv3_1_relu3_1_0_split
I1213 20:40:25.671972 13731 net.cpp:434] conv3_1_relu3_1_0_split <- conv3_1
I1213 20:40:25.671978 13731 net.cpp:408] conv3_1_relu3_1_0_split -> conv3_1_relu3_1_0_split_0
I1213 20:40:25.671984 13731 net.cpp:408] conv3_1_relu3_1_0_split -> conv3_1_relu3_1_0_split_1
I1213 20:40:25.672024 13731 net.cpp:150] Setting up conv3_1_relu3_1_0_split
I1213 20:40:25.672031 13731 net.cpp:157] Top shape: 2 256 192 192 (18874368)
I1213 20:40:25.672035 13731 net.cpp:157] Top shape: 2 256 192 192 (18874368)
I1213 20:40:25.672039 13731 net.cpp:165] Memory required for data: 2244835584
I1213 20:40:25.672041 13731 layer_factory.hpp:77] Creating layer conv3_2
I1213 20:40:25.672050 13731 net.cpp:100] Creating Layer conv3_2
I1213 20:40:25.672055 13731 net.cpp:434] conv3_2 <- conv3_1_relu3_1_0_split_0
I1213 20:40:25.672060 13731 net.cpp:408] conv3_2 -> conv3_2
I1213 20:40:25.675094 13731 net.cpp:150] Setting up conv3_2
I1213 20:40:25.675124 13731 net.cpp:157] Top shape: 2 256 192 192 (18874368)
I1213 20:40:25.675129 13731 net.cpp:165] Memory required for data: 2320333056
I1213 20:40:25.675143 13731 layer_factory.hpp:77] Creating layer relu3_2
I1213 20:40:25.675161 13731 net.cpp:100] Creating Layer relu3_2
I1213 20:40:25.675168 13731 net.cpp:434] relu3_2 <- conv3_2
I1213 20:40:25.675175 13731 net.cpp:395] relu3_2 -> conv3_2 (in-place)
I1213 20:40:25.675354 13731 net.cpp:150] Setting up relu3_2
I1213 20:40:25.675361 13731 net.cpp:157] Top shape: 2 256 192 192 (18874368)
I1213 20:40:25.675365 13731 net.cpp:165] Memory required for data: 2395830528
I1213 20:40:25.675369 13731 layer_factory.hpp:77] Creating layer scale3_1
I1213 20:40:25.675375 13731 net.cpp:100] Creating Layer scale3_1
I1213 20:40:25.675379 13731 net.cpp:434] scale3_1 <- conv3_1_relu3_1_0_split_1
I1213 20:40:25.675384 13731 net.cpp:408] scale3_1 -> conv3_1s
I1213 20:40:25.675415 13731 net.cpp:150] Setting up scale3_1
I1213 20:40:25.675420 13731 net.cpp:157] Top shape: 2 256 192 192 (18874368)
I1213 20:40:25.675423 13731 net.cpp:165] Memory required for data: 2471328000
I1213 20:40:25.675426 13731 layer_factory.hpp:77] Creating layer skip_conv3_2
I1213 20:40:25.675432 13731 net.cpp:100] Creating Layer skip_conv3_2
I1213 20:40:25.675436 13731 net.cpp:434] skip_conv3_2 <- conv3_2
I1213 20:40:25.675441 13731 net.cpp:434] skip_conv3_2 <- conv3_1s
I1213 20:40:25.675446 13731 net.cpp:408] skip_conv3_2 -> conv3_2_skip
I1213 20:40:25.675470 13731 net.cpp:150] Setting up skip_conv3_2
I1213 20:40:25.675475 13731 net.cpp:157] Top shape: 2 256 192 192 (18874368)
I1213 20:40:25.675478 13731 net.cpp:165] Memory required for data: 2546825472
I1213 20:40:25.675482 13731 layer_factory.hpp:77] Creating layer conv3_3
I1213 20:40:25.675490 13731 net.cpp:100] Creating Layer conv3_3
I1213 20:40:25.675493 13731 net.cpp:434] conv3_3 <- conv3_2_skip
I1213 20:40:25.675498 13731 net.cpp:408] conv3_3 -> conv3_3
I1213 20:40:25.680105 13731 net.cpp:150] Setting up conv3_3
I1213 20:40:25.680142 13731 net.cpp:157] Top shape: 2 256 192 192 (18874368)
I1213 20:40:25.680148 13731 net.cpp:165] Memory required for data: 2622322944
I1213 20:40:25.680166 13731 layer_factory.hpp:77] Creating layer relu3_3
I1213 20:40:25.680184 13731 net.cpp:100] Creating Layer relu3_3
I1213 20:40:25.680192 13731 net.cpp:434] relu3_3 <- conv3_3
I1213 20:40:25.680207 13731 net.cpp:395] relu3_3 -> conv3_3 (in-place)
I1213 20:40:25.681079 13731 net.cpp:150] Setting up relu3_3
I1213 20:40:25.681100 13731 net.cpp:157] Top shape: 2 256 192 192 (18874368)
I1213 20:40:25.681105 13731 net.cpp:165] Memory required for data: 2697820416
I1213 20:40:25.681113 13731 layer_factory.hpp:77] Creating layer pool3
I1213 20:40:25.681128 13731 net.cpp:100] Creating Layer pool3
I1213 20:40:25.681136 13731 net.cpp:434] pool3 <- conv3_3
I1213 20:40:25.681149 13731 net.cpp:408] pool3 -> pool3
I1213 20:40:25.681263 13731 net.cpp:150] Setting up pool3
I1213 20:40:25.681272 13731 net.cpp:157] Top shape: 2 256 96 96 (4718592)
I1213 20:40:25.681277 13731 net.cpp:165] Memory required for data: 2716694784
I1213 20:40:25.681280 13731 layer_factory.hpp:77] Creating layer conv4_1
I1213 20:40:25.681298 13731 net.cpp:100] Creating Layer conv4_1
I1213 20:40:25.681303 13731 net.cpp:434] conv4_1 <- pool3
I1213 20:40:25.681314 13731 net.cpp:408] conv4_1 -> conv4_1
I1213 20:40:25.692445 13731 net.cpp:150] Setting up conv4_1
I1213 20:40:25.692478 13731 net.cpp:157] Top shape: 2 512 96 96 (9437184)
I1213 20:40:25.692484 13731 net.cpp:165] Memory required for data: 2754443520
I1213 20:40:25.692497 13731 layer_factory.hpp:77] Creating layer relu4_1
I1213 20:40:25.692510 13731 net.cpp:100] Creating Layer relu4_1
I1213 20:40:25.692517 13731 net.cpp:434] relu4_1 <- conv4_1
I1213 20:40:25.692528 13731 net.cpp:395] relu4_1 -> conv4_1 (in-place)
I1213 20:40:25.692864 13731 net.cpp:150] Setting up relu4_1
I1213 20:40:25.692874 13731 net.cpp:157] Top shape: 2 512 96 96 (9437184)
I1213 20:40:25.692878 13731 net.cpp:165] Memory required for data: 2792192256
I1213 20:40:25.692883 13731 layer_factory.hpp:77] Creating layer conv4_2
I1213 20:40:25.692894 13731 net.cpp:100] Creating Layer conv4_2
I1213 20:40:25.692899 13731 net.cpp:434] conv4_2 <- conv4_1
I1213 20:40:25.692906 13731 net.cpp:408] conv4_2 -> conv4_2
I1213 20:40:25.700366 13731 net.cpp:150] Setting up conv4_2
I1213 20:40:25.700407 13731 net.cpp:157] Top shape: 2 512 96 96 (9437184)
I1213 20:40:25.700412 13731 net.cpp:165] Memory required for data: 2829940992
I1213 20:40:25.700429 13731 layer_factory.hpp:77] Creating layer relu4_2
I1213 20:40:25.700444 13731 net.cpp:100] Creating Layer relu4_2
I1213 20:40:25.700450 13731 net.cpp:434] relu4_2 <- conv4_2
I1213 20:40:25.700459 13731 net.cpp:395] relu4_2 -> conv4_2 (in-place)
I1213 20:40:25.700657 13731 net.cpp:150] Setting up relu4_2
I1213 20:40:25.700670 13731 net.cpp:157] Top shape: 2 512 96 96 (9437184)
I1213 20:40:25.700673 13731 net.cpp:165] Memory required for data: 2867689728
I1213 20:40:25.700677 13731 layer_factory.hpp:77] Creating layer conv4_3
I1213 20:40:25.700692 13731 net.cpp:100] Creating Layer conv4_3
I1213 20:40:25.700698 13731 net.cpp:434] conv4_3 <- conv4_2
I1213 20:40:25.700706 13731 net.cpp:408] conv4_3 -> conv4_3
I1213 20:40:25.713459 13731 net.cpp:150] Setting up conv4_3
I1213 20:40:25.713521 13731 net.cpp:157] Top shape: 2 512 96 96 (9437184)
I1213 20:40:25.713526 13731 net.cpp:165] Memory required for data: 2905438464
I1213 20:40:25.713544 13731 layer_factory.hpp:77] Creating layer relu4_3
I1213 20:40:25.713570 13731 net.cpp:100] Creating Layer relu4_3
I1213 20:40:25.713579 13731 net.cpp:434] relu4_3 <- conv4_3
I1213 20:40:25.713590 13731 net.cpp:395] relu4_3 -> conv4_3 (in-place)
I1213 20:40:25.713786 13731 net.cpp:150] Setting up relu4_3
I1213 20:40:25.713798 13731 net.cpp:157] Top shape: 2 512 96 96 (9437184)
I1213 20:40:25.713801 13731 net.cpp:165] Memory required for data: 2943187200
I1213 20:40:25.713805 13731 layer_factory.hpp:77] Creating layer conv4_3_relu4_3_0_split
I1213 20:40:25.713816 13731 net.cpp:100] Creating Layer conv4_3_relu4_3_0_split
I1213 20:40:25.713819 13731 net.cpp:434] conv4_3_relu4_3_0_split <- conv4_3
I1213 20:40:25.713825 13731 net.cpp:408] conv4_3_relu4_3_0_split -> conv4_3_relu4_3_0_split_0
I1213 20:40:25.713832 13731 net.cpp:408] conv4_3_relu4_3_0_split -> conv4_3_relu4_3_0_split_1
I1213 20:40:25.713876 13731 net.cpp:150] Setting up conv4_3_relu4_3_0_split
I1213 20:40:25.713894 13731 net.cpp:157] Top shape: 2 512 96 96 (9437184)
I1213 20:40:25.713899 13731 net.cpp:157] Top shape: 2 512 96 96 (9437184)
I1213 20:40:25.713902 13731 net.cpp:165] Memory required for data: 3018684672
I1213 20:40:25.713905 13731 layer_factory.hpp:77] Creating layer loss1_conv1
I1213 20:40:25.713924 13731 net.cpp:100] Creating Layer loss1_conv1
I1213 20:40:25.713928 13731 net.cpp:434] loss1_conv1 <- conv4_3_relu4_3_0_split_0
I1213 20:40:25.713937 13731 net.cpp:408] loss1_conv1 -> loss1_conv1
I1213 20:40:25.780984 13731 net.cpp:150] Setting up loss1_conv1
I1213 20:40:25.781014 13731 net.cpp:157] Top shape: 2 512 96 96 (9437184)
I1213 20:40:25.781018 13731 net.cpp:165] Memory required for data: 3056433408
I1213 20:40:25.781028 13731 layer_factory.hpp:77] Creating layer loss_relu1
I1213 20:40:25.781038 13731 net.cpp:100] Creating Layer loss_relu1
I1213 20:40:25.781044 13731 net.cpp:434] loss_relu1 <- loss1_conv1
I1213 20:40:25.781052 13731 net.cpp:395] loss_relu1 -> loss1_conv1 (in-place)
I1213 20:40:25.781213 13731 net.cpp:150] Setting up loss_relu1
I1213 20:40:25.781220 13731 net.cpp:157] Top shape: 2 512 96 96 (9437184)
I1213 20:40:25.781224 13731 net.cpp:165] Memory required for data: 3094182144
I1213 20:40:25.781227 13731 layer_factory.hpp:77] Creating layer loss1_conv1_loss_relu1_0_split
I1213 20:40:25.781234 13731 net.cpp:100] Creating Layer loss1_conv1_loss_relu1_0_split
I1213 20:40:25.781236 13731 net.cpp:434] loss1_conv1_loss_relu1_0_split <- loss1_conv1
I1213 20:40:25.781244 13731 net.cpp:408] loss1_conv1_loss_relu1_0_split -> loss1_conv1_loss_relu1_0_split_0
I1213 20:40:25.781250 13731 net.cpp:408] loss1_conv1_loss_relu1_0_split -> loss1_conv1_loss_relu1_0_split_1
I1213 20:40:25.781291 13731 net.cpp:150] Setting up loss1_conv1_loss_relu1_0_split
I1213 20:40:25.781297 13731 net.cpp:157] Top shape: 2 512 96 96 (9437184)
I1213 20:40:25.781301 13731 net.cpp:157] Top shape: 2 512 96 96 (9437184)
I1213 20:40:25.781304 13731 net.cpp:165] Memory required for data: 3169679616
I1213 20:40:25.781307 13731 layer_factory.hpp:77] Creating layer LFCN_1_5x5
I1213 20:40:25.781318 13731 net.cpp:100] Creating Layer LFCN_1_5x5
I1213 20:40:25.781322 13731 net.cpp:434] LFCN_1_5x5 <- loss1_conv1_loss_relu1_0_split_0
I1213 20:40:25.781328 13731 net.cpp:408] LFCN_1_5x5 -> LFCN_1_5x5
I1213 20:40:25.785331 13731 net.cpp:150] Setting up LFCN_1_5x5
I1213 20:40:25.785344 13731 net.cpp:157] Top shape: 2 9 96 96 (165888)
I1213 20:40:25.785348 13731 net.cpp:165] Memory required for data: 3170343168
I1213 20:40:25.785354 13731 layer_factory.hpp:77] Creating layer LFCN_1_5x5_LFCN_1_5x5_0_split
I1213 20:40:25.785362 13731 net.cpp:100] Creating Layer LFCN_1_5x5_LFCN_1_5x5_0_split
I1213 20:40:25.785365 13731 net.cpp:434] LFCN_1_5x5_LFCN_1_5x5_0_split <- LFCN_1_5x5
I1213 20:40:25.785370 13731 net.cpp:408] LFCN_1_5x5_LFCN_1_5x5_0_split -> LFCN_1_5x5_LFCN_1_5x5_0_split_0
I1213 20:40:25.785377 13731 net.cpp:408] LFCN_1_5x5_LFCN_1_5x5_0_split -> LFCN_1_5x5_LFCN_1_5x5_0_split_1
I1213 20:40:25.785416 13731 net.cpp:150] Setting up LFCN_1_5x5_LFCN_1_5x5_0_split
I1213 20:40:25.785421 13731 net.cpp:157] Top shape: 2 9 96 96 (165888)
I1213 20:40:25.785425 13731 net.cpp:157] Top shape: 2 9 96 96 (165888)
I1213 20:40:25.785429 13731 net.cpp:165] Memory required for data: 3171670272
I1213 20:40:25.785431 13731 layer_factory.hpp:77] Creating layer detection_loss_1_5x5
I1213 20:40:25.785439 13731 net.cpp:100] Creating Layer detection_loss_1_5x5
I1213 20:40:25.785444 13731 net.cpp:434] detection_loss_1_5x5 <- LFCN_1_5x5_LFCN_1_5x5_0_split_0
I1213 20:40:25.785447 13731 net.cpp:434] detection_loss_1_5x5 <- label_1_5x5_data_1_split_0
I1213 20:40:25.785452 13731 net.cpp:408] detection_loss_1_5x5 -> loss_1_5x5
I1213 20:40:25.785460 13731 layer_factory.hpp:77] Creating layer detection_loss_1_5x5
I1213 20:40:25.785861 13731 net.cpp:150] Setting up detection_loss_1_5x5
I1213 20:40:25.785871 13731 net.cpp:157] Top shape: 1 1 1 2 (2)
I1213 20:40:25.785873 13731 net.cpp:160]     with loss weight 0.9
I1213 20:40:25.785884 13731 net.cpp:165] Memory required for data: 3171670280
I1213 20:40:25.785887 13731 layer_factory.hpp:77] Creating layer detection_accuracy_1_5x5
I1213 20:40:25.785895 13731 net.cpp:100] Creating Layer detection_accuracy_1_5x5
I1213 20:40:25.785898 13731 net.cpp:434] detection_accuracy_1_5x5 <- LFCN_1_5x5_LFCN_1_5x5_0_split_1
I1213 20:40:25.785903 13731 net.cpp:434] detection_accuracy_1_5x5 <- label_1_5x5_data_1_split_1
I1213 20:40:25.785908 13731 net.cpp:408] detection_accuracy_1_5x5 -> accuracy_1_5x5
I1213 20:40:25.785914 13731 net.cpp:408] detection_accuracy_1_5x5 -> boxiou_1_5x5
I1213 20:40:25.785951 13731 net.cpp:150] Setting up detection_accuracy_1_5x5
I1213 20:40:25.785957 13731 net.cpp:157] Top shape: 1 1 1 2 (2)
I1213 20:40:25.785961 13731 net.cpp:157] Top shape: 1 1 1 1 (1)
I1213 20:40:25.785964 13731 net.cpp:165] Memory required for data: 3171670292
I1213 20:40:25.785967 13731 layer_factory.hpp:77] Creating layer LFCN_1_7x7
I1213 20:40:25.785977 13731 net.cpp:100] Creating Layer LFCN_1_7x7
I1213 20:40:25.785981 13731 net.cpp:434] LFCN_1_7x7 <- loss1_conv1_loss_relu1_0_split_1
I1213 20:40:25.785986 13731 net.cpp:408] LFCN_1_7x7 -> LFCN_1_7x7
I1213 20:40:25.793931 13731 net.cpp:150] Setting up LFCN_1_7x7
I1213 20:40:25.793956 13731 net.cpp:157] Top shape: 2 9 96 96 (165888)
I1213 20:40:25.793962 13731 net.cpp:165] Memory required for data: 3172333844
I1213 20:40:25.793970 13731 layer_factory.hpp:77] Creating layer LFCN_1_7x7_LFCN_1_7x7_0_split
I1213 20:40:25.793980 13731 net.cpp:100] Creating Layer LFCN_1_7x7_LFCN_1_7x7_0_split
I1213 20:40:25.793987 13731 net.cpp:434] LFCN_1_7x7_LFCN_1_7x7_0_split <- LFCN_1_7x7
I1213 20:40:25.793993 13731 net.cpp:408] LFCN_1_7x7_LFCN_1_7x7_0_split -> LFCN_1_7x7_LFCN_1_7x7_0_split_0
I1213 20:40:25.794001 13731 net.cpp:408] LFCN_1_7x7_LFCN_1_7x7_0_split -> LFCN_1_7x7_LFCN_1_7x7_0_split_1
I1213 20:40:25.794040 13731 net.cpp:150] Setting up LFCN_1_7x7_LFCN_1_7x7_0_split
I1213 20:40:25.794047 13731 net.cpp:157] Top shape: 2 9 96 96 (165888)
I1213 20:40:25.794057 13731 net.cpp:157] Top shape: 2 9 96 96 (165888)
I1213 20:40:25.794061 13731 net.cpp:165] Memory required for data: 3173660948
I1213 20:40:25.794064 13731 layer_factory.hpp:77] Creating layer detection_loss_1_7x7
I1213 20:40:25.794072 13731 net.cpp:100] Creating Layer detection_loss_1_7x7
I1213 20:40:25.794076 13731 net.cpp:434] detection_loss_1_7x7 <- LFCN_1_7x7_LFCN_1_7x7_0_split_0
I1213 20:40:25.794081 13731 net.cpp:434] detection_loss_1_7x7 <- label_1_7x7_data_2_split_0
I1213 20:40:25.794087 13731 net.cpp:408] detection_loss_1_7x7 -> loss_1_7x7
I1213 20:40:25.794095 13731 layer_factory.hpp:77] Creating layer detection_loss_1_7x7
I1213 20:40:25.794885 13731 net.cpp:150] Setting up detection_loss_1_7x7
I1213 20:40:25.794899 13731 net.cpp:157] Top shape: 1 1 1 2 (2)
I1213 20:40:25.794903 13731 net.cpp:160]     with loss weight 0.9
I1213 20:40:25.794914 13731 net.cpp:165] Memory required for data: 3173660956
I1213 20:40:25.794919 13731 layer_factory.hpp:77] Creating layer detection_accuracy_1_7x7
I1213 20:40:25.794925 13731 net.cpp:100] Creating Layer detection_accuracy_1_7x7
I1213 20:40:25.794929 13731 net.cpp:434] detection_accuracy_1_7x7 <- LFCN_1_7x7_LFCN_1_7x7_0_split_1
I1213 20:40:25.794934 13731 net.cpp:434] detection_accuracy_1_7x7 <- label_1_7x7_data_2_split_1
I1213 20:40:25.794941 13731 net.cpp:408] detection_accuracy_1_7x7 -> accuracy_1_7x7
I1213 20:40:25.794947 13731 net.cpp:408] detection_accuracy_1_7x7 -> boxiou_1_7x7
I1213 20:40:25.794987 13731 net.cpp:150] Setting up detection_accuracy_1_7x7
I1213 20:40:25.794993 13731 net.cpp:157] Top shape: 1 1 1 2 (2)
I1213 20:40:25.794997 13731 net.cpp:157] Top shape: 1 1 1 1 (1)
I1213 20:40:25.795001 13731 net.cpp:165] Memory required for data: 3173660968
I1213 20:40:25.795003 13731 layer_factory.hpp:77] Creating layer pool4
I1213 20:40:25.795011 13731 net.cpp:100] Creating Layer pool4
I1213 20:40:25.795014 13731 net.cpp:434] pool4 <- conv4_3_relu4_3_0_split_1
I1213 20:40:25.795020 13731 net.cpp:408] pool4 -> pool4
I1213 20:40:25.795056 13731 net.cpp:150] Setting up pool4
I1213 20:40:25.795063 13731 net.cpp:157] Top shape: 2 512 48 48 (2359296)
I1213 20:40:25.795066 13731 net.cpp:165] Memory required for data: 3183098152
I1213 20:40:25.795069 13731 layer_factory.hpp:77] Creating layer conv5_1
I1213 20:40:25.795078 13731 net.cpp:100] Creating Layer conv5_1
I1213 20:40:25.795081 13731 net.cpp:434] conv5_1 <- pool4
I1213 20:40:25.795087 13731 net.cpp:408] conv5_1 -> conv5_1
I1213 20:40:25.801112 13731 net.cpp:150] Setting up conv5_1
I1213 20:40:25.801143 13731 net.cpp:157] Top shape: 2 512 48 48 (2359296)
I1213 20:40:25.801147 13731 net.cpp:165] Memory required for data: 3192535336
I1213 20:40:25.801157 13731 layer_factory.hpp:77] Creating layer relu5_1
I1213 20:40:25.801169 13731 net.cpp:100] Creating Layer relu5_1
I1213 20:40:25.801177 13731 net.cpp:434] relu5_1 <- conv5_1
I1213 20:40:25.801184 13731 net.cpp:395] relu5_1 -> conv5_1 (in-place)
I1213 20:40:25.801388 13731 net.cpp:150] Setting up relu5_1
I1213 20:40:25.801398 13731 net.cpp:157] Top shape: 2 512 48 48 (2359296)
I1213 20:40:25.801403 13731 net.cpp:165] Memory required for data: 3201972520
I1213 20:40:25.801407 13731 layer_factory.hpp:77] Creating layer conv5_2
I1213 20:40:25.801419 13731 net.cpp:100] Creating Layer conv5_2
I1213 20:40:25.801422 13731 net.cpp:434] conv5_2 <- conv5_1
I1213 20:40:25.801430 13731 net.cpp:408] conv5_2 -> conv5_2
I1213 20:40:25.808079 13731 net.cpp:150] Setting up conv5_2
I1213 20:40:25.808107 13731 net.cpp:157] Top shape: 2 512 48 48 (2359296)
I1213 20:40:25.808112 13731 net.cpp:165] Memory required for data: 3211409704
I1213 20:40:25.808121 13731 layer_factory.hpp:77] Creating layer relu5_2
I1213 20:40:25.808133 13731 net.cpp:100] Creating Layer relu5_2
I1213 20:40:25.808140 13731 net.cpp:434] relu5_2 <- conv5_2
I1213 20:40:25.808146 13731 net.cpp:395] relu5_2 -> conv5_2 (in-place)
I1213 20:40:25.808313 13731 net.cpp:150] Setting up relu5_2
I1213 20:40:25.808322 13731 net.cpp:157] Top shape: 2 512 48 48 (2359296)
I1213 20:40:25.808326 13731 net.cpp:165] Memory required for data: 3220846888
I1213 20:40:25.808329 13731 layer_factory.hpp:77] Creating layer conv5_3
I1213 20:40:25.808338 13731 net.cpp:100] Creating Layer conv5_3
I1213 20:40:25.808343 13731 net.cpp:434] conv5_3 <- conv5_2
I1213 20:40:25.808348 13731 net.cpp:408] conv5_3 -> conv5_3
I1213 20:40:25.818331 13731 net.cpp:150] Setting up conv5_3
I1213 20:40:25.818359 13731 net.cpp:157] Top shape: 2 512 48 48 (2359296)
I1213 20:40:25.818363 13731 net.cpp:165] Memory required for data: 3230284072
I1213 20:40:25.818374 13731 layer_factory.hpp:77] Creating layer relu5_3
I1213 20:40:25.818387 13731 net.cpp:100] Creating Layer relu5_3
I1213 20:40:25.818392 13731 net.cpp:434] relu5_3 <- conv5_3
I1213 20:40:25.818399 13731 net.cpp:395] relu5_3 -> conv5_3 (in-place)
I1213 20:40:25.818565 13731 net.cpp:150] Setting up relu5_3
I1213 20:40:25.818574 13731 net.cpp:157] Top shape: 2 512 48 48 (2359296)
I1213 20:40:25.818578 13731 net.cpp:165] Memory required for data: 3239721256
I1213 20:40:25.818581 13731 layer_factory.hpp:77] Creating layer conv5_3_relu5_3_0_split
I1213 20:40:25.818588 13731 net.cpp:100] Creating Layer conv5_3_relu5_3_0_split
I1213 20:40:25.818591 13731 net.cpp:434] conv5_3_relu5_3_0_split <- conv5_3
I1213 20:40:25.818598 13731 net.cpp:408] conv5_3_relu5_3_0_split -> conv5_3_relu5_3_0_split_0
I1213 20:40:25.818604 13731 net.cpp:408] conv5_3_relu5_3_0_split -> conv5_3_relu5_3_0_split_1
I1213 20:40:25.818609 13731 net.cpp:408] conv5_3_relu5_3_0_split -> conv5_3_relu5_3_0_split_2
I1213 20:40:25.818663 13731 net.cpp:150] Setting up conv5_3_relu5_3_0_split
I1213 20:40:25.818670 13731 net.cpp:157] Top shape: 2 512 48 48 (2359296)
I1213 20:40:25.818675 13731 net.cpp:157] Top shape: 2 512 48 48 (2359296)
I1213 20:40:25.818678 13731 net.cpp:157] Top shape: 2 512 48 48 (2359296)
I1213 20:40:25.818681 13731 net.cpp:165] Memory required for data: 3268032808
I1213 20:40:25.818684 13731 layer_factory.hpp:77] Creating layer LFCN_2_5x5
I1213 20:40:25.818696 13731 net.cpp:100] Creating Layer LFCN_2_5x5
I1213 20:40:25.818701 13731 net.cpp:434] LFCN_2_5x5 <- conv5_3_relu5_3_0_split_0
I1213 20:40:25.818706 13731 net.cpp:408] LFCN_2_5x5 -> LFCN_2_5x5
I1213 20:40:25.822906 13731 net.cpp:150] Setting up LFCN_2_5x5
I1213 20:40:25.822918 13731 net.cpp:157] Top shape: 2 9 48 48 (41472)
I1213 20:40:25.822923 13731 net.cpp:165] Memory required for data: 3268198696
I1213 20:40:25.822935 13731 layer_factory.hpp:77] Creating layer LFCN_2_5x5_LFCN_2_5x5_0_split
I1213 20:40:25.822942 13731 net.cpp:100] Creating Layer LFCN_2_5x5_LFCN_2_5x5_0_split
I1213 20:40:25.822947 13731 net.cpp:434] LFCN_2_5x5_LFCN_2_5x5_0_split <- LFCN_2_5x5
I1213 20:40:25.822952 13731 net.cpp:408] LFCN_2_5x5_LFCN_2_5x5_0_split -> LFCN_2_5x5_LFCN_2_5x5_0_split_0
I1213 20:40:25.822965 13731 net.cpp:408] LFCN_2_5x5_LFCN_2_5x5_0_split -> LFCN_2_5x5_LFCN_2_5x5_0_split_1
I1213 20:40:25.823004 13731 net.cpp:150] Setting up LFCN_2_5x5_LFCN_2_5x5_0_split
I1213 20:40:25.823011 13731 net.cpp:157] Top shape: 2 9 48 48 (41472)
I1213 20:40:25.823015 13731 net.cpp:157] Top shape: 2 9 48 48 (41472)
I1213 20:40:25.823019 13731 net.cpp:165] Memory required for data: 3268530472
I1213 20:40:25.823021 13731 layer_factory.hpp:77] Creating layer detection_loss_2_5x5
I1213 20:40:25.823031 13731 net.cpp:100] Creating Layer detection_loss_2_5x5
I1213 20:40:25.823035 13731 net.cpp:434] detection_loss_2_5x5 <- LFCN_2_5x5_LFCN_2_5x5_0_split_0
I1213 20:40:25.823040 13731 net.cpp:434] detection_loss_2_5x5 <- label_2_5x5_data_3_split_0
I1213 20:40:25.823045 13731 net.cpp:408] detection_loss_2_5x5 -> loss_2_5x5
I1213 20:40:25.823055 13731 layer_factory.hpp:77] Creating layer detection_loss_2_5x5
I1213 20:40:25.823493 13731 net.cpp:150] Setting up detection_loss_2_5x5
I1213 20:40:25.823508 13731 net.cpp:157] Top shape: 1 1 1 2 (2)
I1213 20:40:25.823511 13731 net.cpp:160]     with loss weight 1
I1213 20:40:25.823529 13731 net.cpp:165] Memory required for data: 3268530480
I1213 20:40:25.823534 13731 layer_factory.hpp:77] Creating layer detection_accuracy_2_5x5
I1213 20:40:25.823549 13731 net.cpp:100] Creating Layer detection_accuracy_2_5x5
I1213 20:40:25.823556 13731 net.cpp:434] detection_accuracy_2_5x5 <- LFCN_2_5x5_LFCN_2_5x5_0_split_1
I1213 20:40:25.823562 13731 net.cpp:434] detection_accuracy_2_5x5 <- label_2_5x5_data_3_split_1
I1213 20:40:25.823572 13731 net.cpp:408] detection_accuracy_2_5x5 -> accuracy_2_5x5
I1213 20:40:25.823581 13731 net.cpp:408] detection_accuracy_2_5x5 -> boxiou_2_5x5
I1213 20:40:25.823637 13731 net.cpp:150] Setting up detection_accuracy_2_5x5
I1213 20:40:25.823648 13731 net.cpp:157] Top shape: 1 1 1 2 (2)
I1213 20:40:25.823653 13731 net.cpp:157] Top shape: 1 1 1 1 (1)
I1213 20:40:25.823658 13731 net.cpp:165] Memory required for data: 3268530492
I1213 20:40:25.823663 13731 layer_factory.hpp:77] Creating layer LFCN_2_7x7
I1213 20:40:25.823675 13731 net.cpp:100] Creating Layer LFCN_2_7x7
I1213 20:40:25.823680 13731 net.cpp:434] LFCN_2_7x7 <- conv5_3_relu5_3_0_split_1
I1213 20:40:25.823688 13731 net.cpp:408] LFCN_2_7x7 -> LFCN_2_7x7
I1213 20:40:25.834736 13731 net.cpp:150] Setting up LFCN_2_7x7
I1213 20:40:25.834766 13731 net.cpp:157] Top shape: 2 9 48 48 (41472)
I1213 20:40:25.834771 13731 net.cpp:165] Memory required for data: 3268696380
I1213 20:40:25.834781 13731 layer_factory.hpp:77] Creating layer LFCN_2_7x7_LFCN_2_7x7_0_split
I1213 20:40:25.834795 13731 net.cpp:100] Creating Layer LFCN_2_7x7_LFCN_2_7x7_0_split
I1213 20:40:25.834802 13731 net.cpp:434] LFCN_2_7x7_LFCN_2_7x7_0_split <- LFCN_2_7x7
I1213 20:40:25.834810 13731 net.cpp:408] LFCN_2_7x7_LFCN_2_7x7_0_split -> LFCN_2_7x7_LFCN_2_7x7_0_split_0
I1213 20:40:25.834820 13731 net.cpp:408] LFCN_2_7x7_LFCN_2_7x7_0_split -> LFCN_2_7x7_LFCN_2_7x7_0_split_1
I1213 20:40:25.834868 13731 net.cpp:150] Setting up LFCN_2_7x7_LFCN_2_7x7_0_split
I1213 20:40:25.834875 13731 net.cpp:157] Top shape: 2 9 48 48 (41472)
I1213 20:40:25.834882 13731 net.cpp:157] Top shape: 2 9 48 48 (41472)
I1213 20:40:25.834885 13731 net.cpp:165] Memory required for data: 3269028156
I1213 20:40:25.834889 13731 layer_factory.hpp:77] Creating layer detection_loss_2_7x7
I1213 20:40:25.834899 13731 net.cpp:100] Creating Layer detection_loss_2_7x7
I1213 20:40:25.834903 13731 net.cpp:434] detection_loss_2_7x7 <- LFCN_2_7x7_LFCN_2_7x7_0_split_0
I1213 20:40:25.834909 13731 net.cpp:434] detection_loss_2_7x7 <- label_2_7x7_data_4_split_0
I1213 20:40:25.834916 13731 net.cpp:408] detection_loss_2_7x7 -> loss_2_7x7
I1213 20:40:25.834928 13731 layer_factory.hpp:77] Creating layer detection_loss_2_7x7
I1213 20:40:25.835371 13731 net.cpp:150] Setting up detection_loss_2_7x7
I1213 20:40:25.835383 13731 net.cpp:157] Top shape: 1 1 1 2 (2)
I1213 20:40:25.835387 13731 net.cpp:160]     with loss weight 1
I1213 20:40:25.835399 13731 net.cpp:165] Memory required for data: 3269028164
I1213 20:40:25.835403 13731 layer_factory.hpp:77] Creating layer detection_accuracy_2_7x7
I1213 20:40:25.835412 13731 net.cpp:100] Creating Layer detection_accuracy_2_7x7
I1213 20:40:25.835417 13731 net.cpp:434] detection_accuracy_2_7x7 <- LFCN_2_7x7_LFCN_2_7x7_0_split_1
I1213 20:40:25.835422 13731 net.cpp:434] detection_accuracy_2_7x7 <- label_2_7x7_data_4_split_1
I1213 20:40:25.835430 13731 net.cpp:408] detection_accuracy_2_7x7 -> accuracy_2_7x7
I1213 20:40:25.835438 13731 net.cpp:408] detection_accuracy_2_7x7 -> boxiou_2_7x7
I1213 20:40:25.835486 13731 net.cpp:150] Setting up detection_accuracy_2_7x7
I1213 20:40:25.835494 13731 net.cpp:157] Top shape: 1 1 1 2 (2)
I1213 20:40:25.835500 13731 net.cpp:157] Top shape: 1 1 1 1 (1)
I1213 20:40:25.835502 13731 net.cpp:165] Memory required for data: 3269028176
I1213 20:40:25.835507 13731 layer_factory.hpp:77] Creating layer pool5
I1213 20:40:25.835515 13731 net.cpp:100] Creating Layer pool5
I1213 20:40:25.835520 13731 net.cpp:434] pool5 <- conv5_3_relu5_3_0_split_2
I1213 20:40:25.835527 13731 net.cpp:408] pool5 -> pool5
I1213 20:40:25.835572 13731 net.cpp:150] Setting up pool5
I1213 20:40:25.835580 13731 net.cpp:157] Top shape: 2 512 24 24 (589824)
I1213 20:40:25.835584 13731 net.cpp:165] Memory required for data: 3271387472
I1213 20:40:25.835588 13731 layer_factory.hpp:77] Creating layer conv6_1
I1213 20:40:25.835600 13731 net.cpp:100] Creating Layer conv6_1
I1213 20:40:25.835604 13731 net.cpp:434] conv6_1 <- pool5
I1213 20:40:25.835611 13731 net.cpp:408] conv6_1 -> conv6_1
I1213 20:40:25.897953 13731 net.cpp:150] Setting up conv6_1
I1213 20:40:25.897982 13731 net.cpp:157] Top shape: 2 512 24 24 (589824)
I1213 20:40:25.897986 13731 net.cpp:165] Memory required for data: 3273746768
I1213 20:40:25.897995 13731 layer_factory.hpp:77] Creating layer relu6_1
I1213 20:40:25.898015 13731 net.cpp:100] Creating Layer relu6_1
I1213 20:40:25.898021 13731 net.cpp:434] relu6_1 <- conv6_1
I1213 20:40:25.898028 13731 net.cpp:395] relu6_1 -> conv6_1 (in-place)
I1213 20:40:25.898548 13731 net.cpp:150] Setting up relu6_1
I1213 20:40:25.898561 13731 net.cpp:157] Top shape: 2 512 24 24 (589824)
I1213 20:40:25.898564 13731 net.cpp:165] Memory required for data: 3276106064
I1213 20:40:25.898568 13731 layer_factory.hpp:77] Creating layer conv6_1_relu6_1_0_split
I1213 20:40:25.898574 13731 net.cpp:100] Creating Layer conv6_1_relu6_1_0_split
I1213 20:40:25.898578 13731 net.cpp:434] conv6_1_relu6_1_0_split <- conv6_1
I1213 20:40:25.898586 13731 net.cpp:408] conv6_1_relu6_1_0_split -> conv6_1_relu6_1_0_split_0
I1213 20:40:25.898592 13731 net.cpp:408] conv6_1_relu6_1_0_split -> conv6_1_relu6_1_0_split_1
I1213 20:40:25.898597 13731 net.cpp:408] conv6_1_relu6_1_0_split -> conv6_1_relu6_1_0_split_2
I1213 20:40:25.898653 13731 net.cpp:150] Setting up conv6_1_relu6_1_0_split
I1213 20:40:25.898660 13731 net.cpp:157] Top shape: 2 512 24 24 (589824)
I1213 20:40:25.898664 13731 net.cpp:157] Top shape: 2 512 24 24 (589824)
I1213 20:40:25.898669 13731 net.cpp:157] Top shape: 2 512 24 24 (589824)
I1213 20:40:25.898671 13731 net.cpp:165] Memory required for data: 3283183952
I1213 20:40:25.898674 13731 layer_factory.hpp:77] Creating layer LFCN_3_5x5
I1213 20:40:25.898684 13731 net.cpp:100] Creating Layer LFCN_3_5x5
I1213 20:40:25.898687 13731 net.cpp:434] LFCN_3_5x5 <- conv6_1_relu6_1_0_split_0
I1213 20:40:25.898694 13731 net.cpp:408] LFCN_3_5x5 -> LFCN_3_5x5
I1213 20:40:25.902673 13731 net.cpp:150] Setting up LFCN_3_5x5
I1213 20:40:25.902686 13731 net.cpp:157] Top shape: 2 9 24 24 (10368)
I1213 20:40:25.902690 13731 net.cpp:165] Memory required for data: 3283225424
I1213 20:40:25.902696 13731 layer_factory.hpp:77] Creating layer LFCN_3_5x5_LFCN_3_5x5_0_split
I1213 20:40:25.902701 13731 net.cpp:100] Creating Layer LFCN_3_5x5_LFCN_3_5x5_0_split
I1213 20:40:25.902705 13731 net.cpp:434] LFCN_3_5x5_LFCN_3_5x5_0_split <- LFCN_3_5x5
I1213 20:40:25.902712 13731 net.cpp:408] LFCN_3_5x5_LFCN_3_5x5_0_split -> LFCN_3_5x5_LFCN_3_5x5_0_split_0
I1213 20:40:25.902719 13731 net.cpp:408] LFCN_3_5x5_LFCN_3_5x5_0_split -> LFCN_3_5x5_LFCN_3_5x5_0_split_1
I1213 20:40:25.902757 13731 net.cpp:150] Setting up LFCN_3_5x5_LFCN_3_5x5_0_split
I1213 20:40:25.902777 13731 net.cpp:157] Top shape: 2 9 24 24 (10368)
I1213 20:40:25.902781 13731 net.cpp:157] Top shape: 2 9 24 24 (10368)
I1213 20:40:25.902784 13731 net.cpp:165] Memory required for data: 3283308368
I1213 20:40:25.902788 13731 layer_factory.hpp:77] Creating layer detection_loss_3_5x5
I1213 20:40:25.902794 13731 net.cpp:100] Creating Layer detection_loss_3_5x5
I1213 20:40:25.902797 13731 net.cpp:434] detection_loss_3_5x5 <- LFCN_3_5x5_LFCN_3_5x5_0_split_0
I1213 20:40:25.902802 13731 net.cpp:434] detection_loss_3_5x5 <- label_3_5x5_data_5_split_0
I1213 20:40:25.902809 13731 net.cpp:408] detection_loss_3_5x5 -> loss_3_5x5
I1213 20:40:25.902817 13731 layer_factory.hpp:77] Creating layer detection_loss_3_5x5
I1213 20:40:25.903148 13731 net.cpp:150] Setting up detection_loss_3_5x5
I1213 20:40:25.903158 13731 net.cpp:157] Top shape: 1 1 1 2 (2)
I1213 20:40:25.903162 13731 net.cpp:160]     with loss weight 1
I1213 20:40:25.903173 13731 net.cpp:165] Memory required for data: 3283308376
I1213 20:40:25.903177 13731 layer_factory.hpp:77] Creating layer detection_accuracy_3_5x5
I1213 20:40:25.903182 13731 net.cpp:100] Creating Layer detection_accuracy_3_5x5
I1213 20:40:25.903187 13731 net.cpp:434] detection_accuracy_3_5x5 <- LFCN_3_5x5_LFCN_3_5x5_0_split_1
I1213 20:40:25.903192 13731 net.cpp:434] detection_accuracy_3_5x5 <- label_3_5x5_data_5_split_1
I1213 20:40:25.903198 13731 net.cpp:408] detection_accuracy_3_5x5 -> accuracy_3_5x5
I1213 20:40:25.903205 13731 net.cpp:408] detection_accuracy_3_5x5 -> boxiou_3_5x5
I1213 20:40:25.903246 13731 net.cpp:150] Setting up detection_accuracy_3_5x5
I1213 20:40:25.903252 13731 net.cpp:157] Top shape: 1 1 1 2 (2)
I1213 20:40:25.903256 13731 net.cpp:157] Top shape: 1 1 1 1 (1)
I1213 20:40:25.903259 13731 net.cpp:165] Memory required for data: 3283308388
I1213 20:40:25.903262 13731 layer_factory.hpp:77] Creating layer LFCN_3_7x7
I1213 20:40:25.903271 13731 net.cpp:100] Creating Layer LFCN_3_7x7
I1213 20:40:25.903275 13731 net.cpp:434] LFCN_3_7x7 <- conv6_1_relu6_1_0_split_1
I1213 20:40:25.903280 13731 net.cpp:408] LFCN_3_7x7 -> LFCN_3_7x7
I1213 20:40:25.911207 13731 net.cpp:150] Setting up LFCN_3_7x7
I1213 20:40:25.911232 13731 net.cpp:157] Top shape: 2 9 24 24 (10368)
I1213 20:40:25.911237 13731 net.cpp:165] Memory required for data: 3283349860
I1213 20:40:25.911245 13731 layer_factory.hpp:77] Creating layer LFCN_3_7x7_LFCN_3_7x7_0_split
I1213 20:40:25.911257 13731 net.cpp:100] Creating Layer LFCN_3_7x7_LFCN_3_7x7_0_split
I1213 20:40:25.911262 13731 net.cpp:434] LFCN_3_7x7_LFCN_3_7x7_0_split <- LFCN_3_7x7
I1213 20:40:25.911268 13731 net.cpp:408] LFCN_3_7x7_LFCN_3_7x7_0_split -> LFCN_3_7x7_LFCN_3_7x7_0_split_0
I1213 20:40:25.911278 13731 net.cpp:408] LFCN_3_7x7_LFCN_3_7x7_0_split -> LFCN_3_7x7_LFCN_3_7x7_0_split_1
I1213 20:40:25.911319 13731 net.cpp:150] Setting up LFCN_3_7x7_LFCN_3_7x7_0_split
I1213 20:40:25.911322 13731 net.cpp:157] Top shape: 2 9 24 24 (10368)
I1213 20:40:25.911326 13731 net.cpp:157] Top shape: 2 9 24 24 (10368)
I1213 20:40:25.911329 13731 net.cpp:165] Memory required for data: 3283432804
I1213 20:40:25.911332 13731 layer_factory.hpp:77] Creating layer detection_loss_3_7x7
I1213 20:40:25.911341 13731 net.cpp:100] Creating Layer detection_loss_3_7x7
I1213 20:40:25.911345 13731 net.cpp:434] detection_loss_3_7x7 <- LFCN_3_7x7_LFCN_3_7x7_0_split_0
I1213 20:40:25.911350 13731 net.cpp:434] detection_loss_3_7x7 <- label_3_7x7_data_6_split_0
I1213 20:40:25.911356 13731 net.cpp:408] detection_loss_3_7x7 -> loss_3_7x7
I1213 20:40:25.911365 13731 layer_factory.hpp:77] Creating layer detection_loss_3_7x7
I1213 20:40:25.911696 13731 net.cpp:150] Setting up detection_loss_3_7x7
I1213 20:40:25.911706 13731 net.cpp:157] Top shape: 1 1 1 2 (2)
I1213 20:40:25.911710 13731 net.cpp:160]     with loss weight 1
I1213 20:40:25.911720 13731 net.cpp:165] Memory required for data: 3283432812
I1213 20:40:25.911723 13731 layer_factory.hpp:77] Creating layer detection_accuracy_3_7x7
I1213 20:40:25.911731 13731 net.cpp:100] Creating Layer detection_accuracy_3_7x7
I1213 20:40:25.911734 13731 net.cpp:434] detection_accuracy_3_7x7 <- LFCN_3_7x7_LFCN_3_7x7_0_split_1
I1213 20:40:25.911739 13731 net.cpp:434] detection_accuracy_3_7x7 <- label_3_7x7_data_6_split_1
I1213 20:40:25.911746 13731 net.cpp:408] detection_accuracy_3_7x7 -> accuracy_3_7x7
I1213 20:40:25.911752 13731 net.cpp:408] detection_accuracy_3_7x7 -> boxiou_3_7x7
I1213 20:40:25.911793 13731 net.cpp:150] Setting up detection_accuracy_3_7x7
I1213 20:40:25.911800 13731 net.cpp:157] Top shape: 1 1 1 2 (2)
I1213 20:40:25.911804 13731 net.cpp:157] Top shape: 1 1 1 1 (1)
I1213 20:40:25.911808 13731 net.cpp:165] Memory required for data: 3283432824
I1213 20:40:25.911810 13731 layer_factory.hpp:77] Creating layer pool6
I1213 20:40:25.911818 13731 net.cpp:100] Creating Layer pool6
I1213 20:40:25.911823 13731 net.cpp:434] pool6 <- conv6_1_relu6_1_0_split_2
I1213 20:40:25.911828 13731 net.cpp:408] pool6 -> pool6
I1213 20:40:25.911867 13731 net.cpp:150] Setting up pool6
I1213 20:40:25.911873 13731 net.cpp:157] Top shape: 2 512 12 12 (147456)
I1213 20:40:25.911876 13731 net.cpp:165] Memory required for data: 3284022648
I1213 20:40:25.911880 13731 layer_factory.hpp:77] Creating layer LFCN_4_5x5
I1213 20:40:25.911890 13731 net.cpp:100] Creating Layer LFCN_4_5x5
I1213 20:40:25.911893 13731 net.cpp:434] LFCN_4_5x5 <- pool6
I1213 20:40:25.911900 13731 net.cpp:408] LFCN_4_5x5 -> LFCN_4_5x5
I1213 20:40:25.915922 13731 net.cpp:150] Setting up LFCN_4_5x5
I1213 20:40:25.915943 13731 net.cpp:157] Top shape: 2 9 12 12 (2592)
I1213 20:40:25.915946 13731 net.cpp:165] Memory required for data: 3284033016
I1213 20:40:25.915952 13731 layer_factory.hpp:77] Creating layer LFCN_4_5x5_LFCN_4_5x5_0_split
I1213 20:40:25.915958 13731 net.cpp:100] Creating Layer LFCN_4_5x5_LFCN_4_5x5_0_split
I1213 20:40:25.915962 13731 net.cpp:434] LFCN_4_5x5_LFCN_4_5x5_0_split <- LFCN_4_5x5
I1213 20:40:25.915968 13731 net.cpp:408] LFCN_4_5x5_LFCN_4_5x5_0_split -> LFCN_4_5x5_LFCN_4_5x5_0_split_0
I1213 20:40:25.915974 13731 net.cpp:408] LFCN_4_5x5_LFCN_4_5x5_0_split -> LFCN_4_5x5_LFCN_4_5x5_0_split_1
I1213 20:40:25.916013 13731 net.cpp:150] Setting up LFCN_4_5x5_LFCN_4_5x5_0_split
I1213 20:40:25.916019 13731 net.cpp:157] Top shape: 2 9 12 12 (2592)
I1213 20:40:25.916023 13731 net.cpp:157] Top shape: 2 9 12 12 (2592)
I1213 20:40:25.916026 13731 net.cpp:165] Memory required for data: 3284053752
I1213 20:40:25.916029 13731 layer_factory.hpp:77] Creating layer detection_loss_4_5x5
I1213 20:40:25.916034 13731 net.cpp:100] Creating Layer detection_loss_4_5x5
I1213 20:40:25.916038 13731 net.cpp:434] detection_loss_4_5x5 <- LFCN_4_5x5_LFCN_4_5x5_0_split_0
I1213 20:40:25.916043 13731 net.cpp:434] detection_loss_4_5x5 <- label_4_5x5_data_7_split_0
I1213 20:40:25.916049 13731 net.cpp:408] detection_loss_4_5x5 -> loss_4_5x5
I1213 20:40:25.916054 13731 layer_factory.hpp:77] Creating layer detection_loss_4_5x5
I1213 20:40:25.916385 13731 net.cpp:150] Setting up detection_loss_4_5x5
I1213 20:40:25.916394 13731 net.cpp:157] Top shape: 1 1 1 2 (2)
I1213 20:40:25.916398 13731 net.cpp:160]     with loss weight 1
I1213 20:40:25.916404 13731 net.cpp:165] Memory required for data: 3284053760
I1213 20:40:25.916407 13731 layer_factory.hpp:77] Creating layer detection_accuracy_4_5x5
I1213 20:40:25.916414 13731 net.cpp:100] Creating Layer detection_accuracy_4_5x5
I1213 20:40:25.916417 13731 net.cpp:434] detection_accuracy_4_5x5 <- LFCN_4_5x5_LFCN_4_5x5_0_split_1
I1213 20:40:25.916422 13731 net.cpp:434] detection_accuracy_4_5x5 <- label_4_5x5_data_7_split_1
I1213 20:40:25.916426 13731 net.cpp:408] detection_accuracy_4_5x5 -> accuracy_4_5x5
I1213 20:40:25.916435 13731 net.cpp:408] detection_accuracy_4_5x5 -> boxiou_4_5x5
I1213 20:40:25.916471 13731 net.cpp:150] Setting up detection_accuracy_4_5x5
I1213 20:40:25.916478 13731 net.cpp:157] Top shape: 1 1 1 2 (2)
I1213 20:40:25.916482 13731 net.cpp:157] Top shape: 1 1 1 1 (1)
I1213 20:40:25.916486 13731 net.cpp:165] Memory required for data: 3284053772
I1213 20:40:25.916488 13731 net.cpp:228] detection_accuracy_4_5x5 does not need backward computation.
I1213 20:40:25.916492 13731 net.cpp:226] detection_loss_4_5x5 needs backward computation.
I1213 20:40:25.916496 13731 net.cpp:226] LFCN_4_5x5_LFCN_4_5x5_0_split needs backward computation.
I1213 20:40:25.916498 13731 net.cpp:226] LFCN_4_5x5 needs backward computation.
…
