…
    downsample_rate: 32
    downsample_rate: 32
    downsample_rate: 64
    coord_num: 4
    field_h: 24
    field_h: 47
    field_h: 73
    field_h: 106
    field_h: 160
    field_h: 201
    field_h: 309
    field_w: 28
    field_w: 54
    field_w: 83
    field_w: 119
    field_w: 156
    field_w: 198
    field_w: 280
    fg_threshold: 0.5
    resize_width: 683
    resize_height: 384
    crop_width: 384
    crop_height: 384
    do_multiple_scale: true
    min_scale: 24
    max_scale: 309
    min_gt_height: 10
    shuffle: true
    output_gt_boxes: true
  }
}
layer {
  name: "conv1"
  type: "Convolution"
  bottom: "data"
  top: "conv1"
  param {
    lr_mult: 0.1
    decay_mult: 0.1
  }
  convolution_param {
    num_output: 32
    bias_term: false
    pad: 1
    kernel_size: 3
    stride: 2
    weight_filler {
      type: "msra"
    }
  }
}
layer {
  name: "conv1/bn"
  type: "BatchNorm"
  bottom: "conv1"
  top: "conv1/bn"
  batch_norm_param {
    use_global_stats: false
    eps: 1e-05
  }
}
layer {
  name: "conv1/scale"
  type: "Scale"
  bottom: "conv1/bn"
  top: "conv1/bn"
  param {
    lr_mult: 0.1
    decay_mult: 0
  }
  param {
    lr_mult: 0.1
    decay_mult: 0
  }
  scale_param {
    bias_term: true
  }
}
layer {
  name: "relu1"
  type: "ReLU"
  bottom: "conv1/bn"
  top: "conv1/bn"
}
layer {
  name: "conv2_1/expand"
  type: "Convolution"
  bottom: "conv1/bn"
  top: "conv2_1/expand"
  param {
    lr_mult: 0.1
    decay_mult: 0.1
  }
  convolution_param {
    num_output: 32
    bias_term: false
    kernel_size: 1
    weight_filler {
      type: "msra"
    }
  }
}
layer {
  name: "conv2_1/expand/bn"
  type: "BatchNorm"
  bottom: "conv2_1/expand"
  top: "conv2_1/expand/bn"
  batch_norm_param {
    use_global_stats: false
    eps: 1e-05
  }
}
layer {
  name: "conv2_1/expand/scale"
  type: "Scale"
  bottom: "conv2_1/expand/bn"
  top: "conv2_1/expand/bn"
  param {
    lr_mult: 0.1
    decay_mult: 0
  }
  param {
    lr_mult: 0.1
    decay_mult: 0
  }
  scale_param {
    bias_term: true
  }
}
layer {
  name: "relu2_1/expand"
  type: "ReLU"
  bottom: "conv2_1/expand/bn"
  top: "conv2_1/expand/bn"
}
layer {
  name: "conv2_1/dwise"
  type: "DepthwiseConvolution"
  bottom: "conv2_1/expand/bn"
  top: "conv2_1/dwise"
  param {
    lr_mult: 0.1
    decay_mult: 0.1
  }
  convolution_param {
    num_output: 32
    bias_term: false
    pad: 1
    kernel_size: 3
    group: 32
    weight_filler {
      type: "msra"
    }
    engine: CAFFE
  }
}
layer {
  name: "conv2_1/dwise/bn"
  type: "BatchNorm"
  bottom: "conv2_1/dwise"
  top: "conv2_1/dwise/bn"
  batch_norm_param {
    use_global_stats: false
    eps: 1e-05
  }
}
layer {
  name: "conv2_1/dwise/scale"
  type: "Scale"
  bottom: "conv2_1/dwise/bn"
  top: "conv2_1/dwise/bn"
  param {
    lr_mult: 0.1
    decay_mult: 0
  }
  param {
    lr_mult: 0.1
    decay_mult: 0
  }
  scale_param {
    bias_term: true
  }
}
layer {
  name: "relu2_1/dwise"
  type: "ReLU"
  bottom: "conv2_1/dwise/bn"
  top: "conv2_1/dwise/bn"
}
layer {
  name: "conv2_1/linear"
  type: "Convolution"
  bottom: "conv2_1/dwise/bn"
  top: "conv2_1/linear"
  param {
    lr_mult: 0.1
    decay_mult: 0.1
  }
  convolution_param {
    num_output: 16
    bias_term: false
    kernel_size: 1
    weight_filler {
      type: "msra"
    }
  }
}
layer {
  name: "conv2_1/linear/bn"
  type: "BatchNorm"
  bottom: "conv2_1/linear"
  top: "conv2_1/linear/bn"
  batch_norm_param {
    use_global_stats: false
    eps: 1e-05
  }
}
layer {
  name: "conv2_1/linear/scale"
  type: "Scale"
  bottom: "conv2_1/linear/bn"
  top: "conv2_1/linear/bn"
  param {
    lr_mult: 0.1
    decay_mult: 0
  }
  param {
    lr_mult: 0.1
    decay_mult: 0
  }
  scale_param {
    bias_term: true
  }
}
layer {
  name: "conv2_2/expand"
  type: "Convolution"
  bottom: "conv2_1/linear/bn"
  top: "conv2_2/expand"
  param {
    lr_mult: 0.1
    decay_mult: 0.1
  }
  convolution_param {
    num_output: 96
    bias_term: false
    kernel_size: 1
    weight_filler {
      type: "msra"
    }
  }
}
layer {
  name: "conv2_2/expand/bn"
  type: "BatchNorm"
  bottom: "conv2_2/expand"
  top: "conv2_2/expand/bn"
  batch_norm_param {
    use_global_stats: false
    eps: 1e-05
  }
}
layer {
  name: "conv2_2/expand/scale"
  type: "Scale"
  bottom: "conv2_2/expand/bn"
  top: "conv2_2/expand/bn"
  param {
    lr_mult: 0.1
    decay_mult: 0
  }
  param {
    lr_mult: 0.1
    decay_mult: 0
  }
  scale_param {
    bias_term: true
  }
}
layer {
  name: "relu2_2/expand"
  type: "ReLU"
  bottom: "conv2_2/expand/bn"
  top: "conv2_2/expand/bn"
}
layer {
  name: "conv2_2/dwise"
  type: "DepthwiseConvolution"
  bottom: "conv2_2/expand/bn"
  top: "conv2_2/dwise"
  param {
    lr_mult: 0.1
    decay_mult: 0.1
  }
  convolution_param {
    num_output: 96
    bias_term: false
    pad: 1
    kernel_size: 3
    group: 96
    stride: 2
    weight_filler {
      type: "msra"
    }
    engine: CAFFE
  }
}
layer {
  name: "conv2_2/dwise/bn"
  type: "BatchNorm"
  bottom: "conv2_2/dwise"
  top: "conv2_2/dwise/bn"
  batch_norm_param {
    use_global_stats: false
    eps: 1e-05
  }
}
layer {
  name: "conv2_2/dwise/scale"
  type: "Scale"
  bottom: "conv2_2/dwise/bn"
  top: "conv2_2/dwise/bn"
  param {
    lr_mult: 0.1
    decay_mult: 0
  }
  param {
    lr_mult: 0.1
    decay_mult: 0
  }
  scale_param {
    bias_term: true
  }
}
layer {
  name: "relu2_2/dwise"
  type: "ReLU"
  bottom: "conv2_2/dwise/bn"
  top: "conv2_2/dwise/bn"
}
layer {
  name: "conv2_2/linear"
  type: "Convolution"
  bottom: "conv2_2/dwise/bn"
  top: "conv2_2/linear"
  param {
    lr_mult: 0.1
    decay_mult: 0.1
  }
  convolution_param {
    num_output: 24
    bias_term: false
    kernel_size: 1
    weight_filler {
      type: "msra"
    }
  }
}
layer {
  name: "conv2_2/linear/bn"
  type: "BatchNorm"
  bottom: "conv2_2/linear"
  top: "conv2_2/linear/bn"
  batch_norm_param {
    use_global_stats: false
    eps: 1e-05
  }
}
layer {
  name: "conv2_2/linear/scale"
  type: "Scale"
  bottom: "conv2_2/linear/bn"
  top: "conv2_2/linear/bn"
  param {
    lr_mult: 0.1
    decay_mult: 0
  }
  param {
    lr_mult: 0.1
    decay_mult: 0
  }
  scale_param {
    bias_term: true
  }
}
layer {
  name: "conv3_1/expand"
  type: "Convolution"
  bottom: "conv2_2/linear/bn"
  top: "conv3_1/expand"
  param {
    lr_mult: 1
    decay_mult: 1
  }
  convolution_param {
    num_output: 144
    bias_term: false
    kernel_size: 1
    weight_filler {
      type: "msra"
    }
  }
}
layer {
  name: "conv3_1/expand/bn"
  type: "BatchNorm"
  bottom: "conv3_1/expand"
  top: "conv3_1/expand/bn"
  batch_norm_param {
    use_global_stats: false
    eps: 1e-05
  }
}
layer {
  name: "conv3_1/expand/scale"
  type: "Scale"
  bottom: "conv3_1/expand/bn"
  top: "conv3_1/expand/bn"
  param {
    lr_mult: 1
    decay_mult: 0
  }
  param {
    lr_mult: 1
    decay_mult: 0
  }
  scale_param {
    bias_term: true
  }
}
layer {
  name: "relu3_1/expand"
  type: "ReLU"
  bottom: "conv3_1/expand/bn"
  top: "conv3_1/expand/bn"
}
layer {
  name: "conv3_1/dwise"
  type: "DepthwiseConvolution"
  bottom: "conv3_1/expand/bn"
  top: "conv3_1/dwise"
  param {
    lr_mult: 1
    decay_mult: 1
  }
  convolution_param {
    num_output: 144
    bias_term: false
    pad: 1
    kernel_size: 3
    group: 144
    weight_filler {
      type: "msra"
    }
    engine: CAFFE
  }
}
layer {
  name: "conv3_1/dwise/bn"
  type: "BatchNorm"
  bottom: "conv3_1/dwise"
  top: "conv3_1/dwise/bn"
  batch_norm_param {
    use_global_stats: false
    eps: 1e-05
  }
}
layer {
  name: "conv3_1/dwise/scale"
  type: "Scale"
  bottom: "conv3_1/dwise/bn"
  top: "conv3_1/dwise/bn"
  param {
    lr_mult: 1
    decay_mult: 0
  }
  param {
    lr_mult: 1
    decay_mult: 0
  }
  scale_param {
    bias_term: true
  }
}
layer {
  name: "relu3_1/dwise"
  type: "ReLU"
  bottom: "conv3_1/dwise/bn"
  top: "conv3_1/dwise/bn"
}
layer {
  name: "conv3_1/linear"
  type: "Convolution"
  bottom: "conv3_1/dwise/bn"
  top: "conv3_1/linear"
  param {
    lr_mult: 1
    decay_mult: 1
  }
  convolution_param {
    num_output: 24
    bias_term: false
    kernel_size: 1
    weight_filler {
      type: "msra"
    }
  }
}
layer {
  name: "conv3_1/linear/bn"
  type: "BatchNorm"
  bottom: "conv3_1/linear"
  top: "conv3_1/linear/bn"
  batch_norm_param {
    use_global_stats: false
    eps: 1e-05
  }
}
layer {
  name: "conv3_1/linear/scale"
  type: "Scale"
  bottom: "conv3_1/linear/bn"
  top: "conv3_1/linear/bn"
  param {
    lr_mult: 1
    decay_mult: 0
  }
  param {
    lr_mult: 1
    decay_mult: 0
  }
  scale_param {
    bias_term: true
  }
}
layer {
  name: "block_3_1"
  type: "Eltwise"
  bottom: "conv2_2/linear/bn"
  bottom: "conv3_1/linear/bn"
  top: "block_3_1"
}
layer {
  name: "conv3_2/expand"
  type: "Convolution"
  bottom: "block_3_1"
  top: "conv3_2/expand"
  param {
    lr_mult: 1
    decay_mult: 1
  }
  convolution_param {
    num_output: 144
    bias_term: false
    kernel_size: 1
    weight_filler {
      type: "msra"
    }
  }
}
layer {
  name: "conv3_2/expand/bn"
  type: "BatchNorm"
  bottom: "conv3_2/expand"
  top: "conv3_2/expand/bn"
  batch_norm_param {
    use_global_stats: false
    eps: 1e-05
  }
}
layer {
  name: "conv3_2/expand/scale"
  type: "Scale"
  bottom: "conv3_2/expand/bn"
  top: "conv3_2/expand/bn"
  param {
    lr_mult: 1
    decay_mult: 0
  }
  param {
    lr_mult: 1
    decay_mult: 0
  }
  scale_param {
    bias_term: true
  }
}
layer {
  name: "relu3_2/expand"
  type: "ReLU"
  bottom: "conv3_2/expand/bn"
  top: "conv3_2/expand/bn"
}
layer {
  name: "conv3_2/dwise"
  type: "DepthwiseConvolution"
  bottom: "conv3_2/expand/bn"
  top: "conv3_2/dwise"
  param {
    lr_mult: 1
    decay_mult: 1
  }
  convolution_param {
    num_output: 144
    bias_term: false
    pad: 1
    kernel_size: 3
    group: 144
    stride: 2
    weight_filler {
      type: "msra"
    }
    engine: CAFFE
  }
}
layer {
  name: "conv3_2/dwise/bn"
  type: "BatchNorm"
  bottom: "conv3_2/dwise"
  top: "conv3_2/dwise/bn"
  batch_norm_param {
    use_global_stats: false
    eps: 1e-05
  }
}
layer {
  name: "conv3_2/dwise/scale"
  type: "Scale"
  bottom: "conv3_2/dwise/bn"
  top: "conv3_2/dwise/bn"
  param {
    lr_mult: 1
    decay_mult: 0
  }
  param {
    lr_mult: 1
    decay_mult: 0
  }
  scale_param {
    bias_term: true
  }
}
layer {
  name: "relu3_2/dwise"
  type: "ReLU"
  bottom: "conv3_2/dwise/bn"
  top: "conv3_2/dwise/bn"
}
layer {
  name: "conv3_2/linear"
  type: "Convolution"
  bottom: "conv3_2/dwise/bn"
  top: "conv3_2/linear"
  param {
    lr_mult: 1
    decay_mult: 1
  }
  convolution_param {
    num_output: 32
    bias_term: false
    kernel_size: 1
    weight_filler {
      type: "msra"
    }
  }
}
layer {
  name: "conv3_2/linear/bn"
  type: "BatchNorm"
  bottom: "conv3_2/linear"
  top: "conv3_2/linear/bn"
  batch_norm_param {
    use_global_stats: false
    eps: 1e-05
  }
}
layer {
  name: "conv3_2/linear/scale"
  type: "Scale"
  bottom: "conv3_2/linear/bn"
  top: "conv3_2/linear/bn"
  param {
    lr_mult: 1
    decay_mult: 0
  }
  param {
    lr_mult: 1
    decay_mult: 0
  }
  scale_param {
    bias_term: true
  }
}
layer {
  name: "conv4_1/expand"
  type: "Convolution"
  bottom: "conv3_2/linear/bn"
  top: "conv4_1/expand"
  param {
    lr_mult: 1
    decay_mult: 1
  }
  convolution_param {
    num_output: 192
    bias_term: false
    kernel_size: 1
    weight_filler {
      type: "msra"
    }
  }
}
layer {
  name: "conv4_1/expand/bn"
  type: "BatchNorm"
  bottom: "conv4_1/expand"
  top: "conv4_1/expand/bn"
  batch_norm_param {
    use_global_stats: false
    eps: 1e-05
  }
}
layer {
  name: "conv4_1/expand/scale"
  type: "Scale"
  bottom: "conv4_1/expand/bn"
  top: "conv4_1/expand/bn"
  param {
    lr_mult: 1
    decay_mult: 0
  }
  param {
    lr_mult: 1
    decay_mult: 0
  }
  scale_param {
    bias_term: true
  }
}
layer {
  name: "relu4_1/expand"
  type: "ReLU"
  bottom: "conv4_1/expand/bn"
  top: "conv4_1/expand/bn"
}
layer {
  name: "conv4_1/dwise"
  type: "DepthwiseConvolution"
  bottom: "conv4_1/expand/bn"
  top: "conv4_1/dwise"
  param {
    lr_mult: 1
    decay_mult: 1
  }
  convolution_param {
    num_output: 192
    bias_term: false
    pad: 1
    kernel_size: 3
    group: 192
    weight_filler {
      type: "msra"
    }
    engine: CAFFE
  }
}
layer {
  name: "conv4_1/dwise/bn"
  type: "BatchNorm"
  bottom: "conv4_1/dwise"
  top: "conv4_1/dwise/bn"
  batch_norm_param {
    use_global_stats: false
    eps: 1e-05
  }
}
layer {
  name: "conv4_1/dwise/scale"
  type: "Scale"
  bottom: "conv4_1/dwise/bn"
  top: "conv4_1/dwise/bn"
  param {
    lr_mult: 1
    decay_mult: 0
  }
  param {
    lr_mult: 1
    decay_mult: 0
  }
  scale_param {
    bias_term: true
  }
}
layer {
  name: "relu4_1/dwise"
  type: "ReLU"
  bottom: "conv4_1/dwise/bn"
  top: "conv4_1/dwise/bn"
}
layer {
  name: "conv4_1/linear"
  type: "Convolution"
  bottom: "conv4_1/dwise/bn"
  top: "conv4_1/linear"
  param {
    lr_mult: 1
    decay_mult: 1
  }
  convolution_param {
    num_output: 32
    bias_term: false
    kernel_size: 1
    weight_filler {
      type: "msra"
    }
  }
}
layer {
  name: "conv4_1/linear/bn"
  type: "BatchNorm"
  bottom: "conv4_1/linear"
  top: "conv4_1/linear/bn"
  batch_norm_param {
    use_global_stats: false
    eps: 1e-05
  }
}
layer {
  name: "conv4_1/linear/scale"
  type: "Scale"
  bottom: "conv4_1/linear/bn"
  top: "conv4_1/linear/bn"
  param {
    lr_mult: 1
    decay_mult: 0
  }
  param {
    lr_mult: 1
    decay_mult: 0
  }
  scale_param {
    bias_term: true
  }
}
layer {
  name: "block_4_1"
  type: "Eltwise"
  bottom: "conv3_2/linear/bn"
  bottom: "conv4_1/linear/bn"
  top: "block_4_1"
}
layer {
  name: "conv4_2/expand"
  type: "Convolution"
  bottom: "block_4_1"
  top: "conv4_2/expand"
  param {
    lr_mult: 1
    decay_mult: 1
  }
  convolution_param {
    num_output: 192
    bias_term: false
    kernel_size: 1
    weight_filler {
      type: "msra"
    }
  }
}
layer {
  name: "conv4_2/expand/bn"
  type: "BatchNorm"
  bottom: "conv4_2/expand"
  top: "conv4_2/expand/bn"
  batch_norm_param {
    use_global_stats: false
    eps: 1e-05
  }
}
layer {
  name: "conv4_2/expand/scale"
  type: "Scale"
  bottom: "conv4_2/expand/bn"
  top: "conv4_2/expand/bn"
  param {
    lr_mult: 1
    decay_mult: 0
  }
  param {
    lr_mult: 1
    decay_mult: 0
  }
  scale_param {
    bias_term: true
  }
}
layer {
  name: "relu4_2/expand"
  type: "ReLU"
  bottom: "conv4_2/expand/bn"
  top: "conv4_2/expand/bn"
}
layer {
  name: "conv4_2/dwise"
  type: "DepthwiseConvolution"
  bottom: "conv4_2/expand/bn"
  top: "conv4_2/dwise"
  param {
    lr_mult: 1
    decay_mult: 1
  }
  convolution_param {
    num_output: 192
    bias_term: false
    pad: 1
    kernel_size: 3
    group: 192
    weight_filler {
      type: "msra"
    }
    engine: CAFFE
  }
}
layer {
  name: "conv4_2/dwise/bn"
  type: "BatchNorm"
  bottom: "conv4_2/dwise"
  top: "conv4_2/dwise/bn"
  batch_norm_param {
    use_global_stats: false
    eps: 1e-05
  }
}
layer {
  name: "conv4_2/dwise/scale"
  type: "Scale"
  bottom: "conv4_2/dwise/bn"
  top: "conv4_2/dwise/bn"
  param {
    lr_mult: 1
    decay_mult: 0
  }
  param {
    lr_mult: 1
    decay_mult: 0
  }
  scale_param {
    bias_term: true
  }
}
layer {
  name: "relu4_2/dwise"
  type: "ReLU"
  bottom: "conv4_2/dwise/bn"
  top: "conv4_2/dwise/bn"
}
layer {
  name: "conv4_2/linear"
  type: "Convolution"
  bottom: "conv4_2/dwise/bn"
  top: "conv4_2/linear"
  param {
    lr_mult: 1
    decay_mult: 1
  }
  convolution_param {
    num_output: 32
    bias_term: false
    kernel_size: 1
    weight_filler {
      type: "msra"
    }
  }
}
layer {
  name: "conv4_2/linear/bn"
  type: "BatchNorm"
  bottom: "conv4_2/linear"
  top: "conv4_2/linear/bn"
  batch_norm_param {
    use_global_stats: false
    eps: 1e-05
  }
}
layer {
  name: "conv4_2/linear/scale"
  type: "Scale"
  bottom: "conv4_2/linear/bn"
  top: "conv4_2/linear/bn"
  param {
    lr_mult: 1
    decay_mult: 0
  }
  param {
    lr_mult: 1
    decay_mult: 0
  }
  scale_param {
    bias_term: true
  }
}
layer {
  name: "block_4_2"
  type: "Eltwise"
  bottom: "block_4_1"
  bottom: "conv4_2/linear/bn"
  top: "block_4_2"
}
layer {
  name: "conv4_3/expand"
  type: "Convolution"
  bottom: "block_4_2"
  top: "conv4_3/expand"
  param {
    lr_mult: 1
    decay_mult: 1
  }
  convolution_param {
    num_output: 192
    bias_term: false
    kernel_size: 1
    weight_filler {
      type: "msra"
    }
  }
}
layer {
  name: "conv4_3/expand/bn"
  type: "BatchNorm"
  bottom: "conv4_3/expand"
  top: "conv4_3/expand/bn"
  batch_norm_param {
    use_global_stats: false
    eps: 1e-05
  }
}
layer {
  name: "conv4_3/expand/scale"
  type: "Scale"
  bottom: "conv4_3/expand/bn"
  top: "conv4_3/expand/bn"
  param {
    lr_mult: 1
    decay_mult: 0
  }
  param {
    lr_mult: 1
    decay_mult: 0
  }
  scale_param {
    bias_term: true
  }
}
layer {
  name: "relu4_3/expand"
  type: "ReLU"
  bottom: "conv4_3/expand/bn"
  top: "conv4_3/expand/bn"
}
layer {
  name: "conv4_3/dwise"
  type: "DepthwiseConvolution"
  bottom: "conv4_3/expand/bn"
  top: "conv4_3/dwise"
  param {
    lr_mult: 1
    decay_mult: 1
  }
  convolution_param {
    num_output: 192
    bias_term: false
    pad: 1
    kernel_size: 3
    group: 192
    weight_filler {
      type: "msra"
    }
    engine: CAFFE
  }
}
layer {
  name: "conv4_3/dwise/bn"
  type: "BatchNorm"
  bottom: "conv4_3/dwise"
  top: "conv4_3/dwise/bn"
  batch_norm_param {
    use_global_stats: false
    eps: 1e-05
  }
}
layer {
  name: "conv4_3/dwise/scale"
  type: "Scale"
  bottom: "conv4_3/dwise/bn"
  top: "conv4_3/dwise/bn"
  param {
    lr_mult: 1
    decay_mult: 0
  }
  param {
    lr_mult: 1
    decay_mult: 0
  }
  scale_param {
    bias_term: true
  }
}
layer {
  name: "relu4_3/dwise"
  type: "ReLU"
  bottom: "conv4_3/dwise/bn"
  top: "conv4_3/dwise/bn"
}
layer {
  name: "conv4_3/linear"
  type: "Convolution"
  bottom: "conv4_3/dwise/bn"
  top: "conv4_3/linear"
  param {
    lr_mult: 1
    decay_mult: 1
  }
  convolution_param {
    num_output: 64
    bias_term: false
    kernel_size: 1
    weight_filler {
      type: "msra"
    }
  }
}
layer {
  name: "conv4_3/linear/bn"
  type: "BatchNorm"
  bottom: "conv4_3/linear"
  top: "conv4_3/linear/bn"
  batch_norm_param {
    use_global_stats: false
    eps: 1e-05
  }
}
layer {
  name: "conv4_3/linear/scale"
  type: "Scale"
  bottom: "conv4_3/linear/bn"
  top: "conv4_3/linear/bn"
  param {
    lr_mult: 1
    decay_mult: 0
  }
  param {
    lr_mult: 1
    decay_mult: 0
  }
  scale_param {
    bias_term: true
  }
}
layer {
  name: "conv4_4/expand"
  type: "Convolution"
  bottom: "conv4_3/linear/bn"
  top: "conv4_4/expand"
  param {
    lr_mult: 1
    decay_mult: 1
  }
  convolution_param {
    num_output: 384
    bias_term: false
    kernel_size: 1
    weight_filler {
      type: "msra"
    }
  }
}
layer {
  name: "conv4_4/expand/bn"
  type: "BatchNorm"
  bottom: "conv4_4/expand"
  top: "conv4_4/expand/bn"
  batch_norm_param {
    use_global_stats: false
    eps: 1e-05
  }
}
layer {
  name: "conv4_4/expand/scale"
  type: "Scale"
  bottom: "conv4_4/expand/bn"
  top: "conv4_4/expand/bn"
  param {
    lr_mult: 1
    decay_mult: 0
  }
  param {
    lr_mult: 1
    decay_mult: 0
  }
  scale_param {
    bias_term: true
  }
}
layer {
  name: "relu4_4/expand"
  type: "ReLU"
  bottom: "conv4_4/expand/bn"
  top: "conv4_4/expand/bn"
}
layer {
  name: "conv4_4/dwise"
  type: "DepthwiseConvolution"
  bottom: "conv4_4/expand/bn"
  top: "conv4_4/dwise"
  param {
    lr_mult: 1
    decay_mult: 1
  }
  convolution_param {
    num_output: 384
    bias_term: false
    pad: 1
    kernel_size: 3
    group: 384
    weight_filler {
      type: "msra"
    }
    engine: CAFFE
  }
}
layer {
  name: "conv4_4/dwise/bn"
  type: "BatchNorm"
  bottom: "conv4_4/dwise"
  top: "conv4_4/dwise/bn"
  batch_norm_param {
    use_global_stats: false
    eps: 1e-05
  }
}
layer {
  name: "conv4_4/dwise/scale"
  type: "Scale"
  bottom: "conv4_4/dwise/bn"
  top: "conv4_4/dwise/bn"
  param {
    lr_mult: 1
    decay_mult: 0
  }
  param {
    lr_mult: 1
    decay_mult: 0
  }
  scale_param {
    bias_term: true
  }
}
layer {
  name: "relu4_4/dwise"
  type: "ReLU"
  bottom: "conv4_4/dwise/bn"
  top: "conv4_4/dwise/bn"
}
layer {
  name: "conv4_4/linear"
  type: "Convolution"
  bottom: "conv4_4/dwise/bn"
  top: "conv4_4/linear"
  param {
    lr_mult: 1
    decay_mult: 1
  }
  convolution_param {
    num_output: 64
    bias_term: false
    kernel_size: 1
    weight_filler {
      type: "msra"
    }
  }
}
layer {
  name: "conv4_4/linear/bn"
  type: "BatchNorm"
  bottom: "conv4_4/linear"
  top: "conv4_4/linear/bn"
  batch_norm_param {
    use_global_stats: false
    eps: 1e-05
  }
}
layer {
  name: "conv4_4/linear/scale"
  type: "Scale"
  bottom: "conv4_4/linear/bn"
  top: "conv4_4/linear/bn"
  param {
    lr_mult: 1
    decay_mult: 0
  }
  param {
    lr_mult: 1
    decay_mult: 0
  }
  scale_param {
    bias_term: true
  }
}
layer {
  name: "block_4_4"
  type: "Eltwise"
  bottom: "conv4_3/linear/bn"
  bottom: "conv4_4/linear/bn"
  top: "block_4_4"
}
layer {
  name: "conv4_5/expand"
  type: "Convolution"
  bottom: "block_4_4"
  top: "conv4_5/expand"
  param {
    lr_mult: 1
    decay_mult: 1
  }
  convolution_param {
    num_output: 384
    bias_term: false
    kernel_size: 1
    weight_filler {
      type: "msra"
    }
  }
}
layer {
  name: "conv4_5/expand/bn"
  type: "BatchNorm"
  bottom: "conv4_5/expand"
  top: "conv4_5/expand/bn"
  batch_norm_param {
    use_global_stats: false
    eps: 1e-05
  }
}
layer {
  name: "conv4_5/expand/scale"
  type: "Scale"
  bottom: "conv4_5/expand/bn"
  top: "conv4_5/expand/bn"
  param {
    lr_mult: 1
    decay_mult: 0
  }
  param {
    lr_mult: 1
    decay_mult: 0
  }
  scale_param {
    bias_term: true
  }
}
layer {
  name: "relu4_5/expand"
  type: "ReLU"
  bottom: "conv4_5/expand/bn"
  top: "conv4_5/expand/bn"
}
layer {
  name: "conv4_5/dwise"
  type: "DepthwiseConvolution"
  bottom: "conv4_5/expand/bn"
  top: "conv4_5/dwise"
  param {
    lr_mult: 1
    decay_mult: 1
  }
  convolution_param {
    num_output: 384
    bias_term: false
    pad: 1
    kernel_size: 3
    group: 384
    weight_filler {
      type: "msra"
    }
    engine: CAFFE
  }
}
layer {
  name: "conv4_5/dwise/bn"
  type: "BatchNorm"
  bottom: "conv4_5/dwise"
  top: "conv4_5/dwise/bn"
  batch_norm_param {
    use_global_stats: false
    eps: 1e-05
  }
}
layer {
  name: "conv4_5/dwise/scale"
  type: "Scale"
  bottom: "conv4_5/dwise/bn"
  top: "conv4_5/dwise/bn"
  param {
    lr_mult: 1
    decay_mult: 0
  }
  param {
    lr_mult: 1
    decay_mult: 0
  }
  scale_param {
    bias_term: true
  }
}
layer {
  name: "relu4_5/dwise"
  type: "ReLU"
  bottom: "conv4_5/dwise/bn"
  top: "conv4_5/dwise/bn"
}
layer {
  name: "conv4_5/linear"
  type: "Convolution"
  bottom: "conv4_5/dwise/bn"
  top: "conv4_5/linear"
  param {
    lr_mult: 1
    decay_mult: 1
  }
  convolution_param {
    num_output: 64
    bias_term: false
    kernel_size: 1
    weight_filler {
      type: "msra"
    }
  }
}
layer {
  name: "conv4_5/linear/bn"
  type: "BatchNorm"
  bottom: "conv4_5/linear"
  top: "conv4_5/linear/bn"
  batch_norm_param {
    use_global_stats: false
    eps: 1e-05
  }
}
layer {
  name: "conv4_5/linear/scale"
  type: "Scale"
  bottom: "conv4_5/linear/bn"
  top: "conv4_5/linear/bn"
  param {
    lr_mult: 1
    decay_mult: 0
  }
  param {
    lr_mult: 1
    decay_mult: 0
  }
  scale_param {
    bias_term: true
  }
}
layer {
  name: "block_4_5"
  type: "Eltwise"
  bottom: "block_4_4"
  bottom: "conv4_5/linear/bn"
  top: "block_4_5"
}
layer {
  name: "conv4_6/expand"
  type: "Convolution"
  bottom: "block_4_5"
  top: "conv4_6/expand"
  param {
    lr_mult: 1
    decay_mult: 1
  }
  convolution_param {
    num_output: 384
    bias_term: false
    kernel_size: 1
    weight_filler {
      type: "msra"
    }
  }
}
layer {
  name: "conv4_6/expand/bn"
  type: "BatchNorm"
  bottom: "conv4_6/expand"
  top: "conv4_6/expand/bn"
  batch_norm_param {
    use_global_stats: false
    eps: 1e-05
  }
}
layer {
  name: "conv4_6/expand/scale"
  type: "Scale"
  bottom: "conv4_6/expand/bn"
  top: "conv4_6/expand/bn"
  param {
    lr_mult: 1
    decay_mult: 0
  }
  param {
    lr_mult: 1
    decay_mult: 0
  }
  scale_param {
    bias_term: true
  }
}
layer {
  name: "relu4_6/expand"
  type: "ReLU"
  bottom: "conv4_6/expand/bn"
  top: "conv4_6/expand/bn"
}
layer {
  name: "conv4_6/dwise"
  type: "DepthwiseConvolution"
  bottom: "conv4_6/expand/bn"
  top: "conv4_6/dwise"
  param {
    lr_mult: 1
    decay_mult: 1
  }
  convolution_param {
    num_output: 384
    bias_term: false
    pad: 1
    kernel_size: 3
    group: 384
    weight_filler {
      type: "msra"
    }
    engine: CAFFE
  }
}
layer {
  name: "conv4_6/dwise/bn"
  type: "BatchNorm"
  bottom: "conv4_6/dwise"
  top: "conv4_6/dwise/bn"
  batch_norm_param {
    use_global_stats: false
    eps: 1e-05
  }
}
layer {
  name: "conv4_6/dwise/scale"
  type: "Scale"
  bottom: "conv4_6/dwise/bn"
  top: "conv4_6/dwise/bn"
  param {
    lr_mult: 1
    decay_mult: 0
  }
  param {
    lr_mult: 1
    decay_mult: 0
  }
  scale_param {
    bias_term: true
  }
}
layer {
  name: "relu4_6/dwise"
  type: "ReLU"
  bottom: "conv4_6/dwise/bn"
  top: "conv4_6/dwise/bn"
}
layer {
  name: "conv4_6/linear"
  type: "Convolution"
  bottom: "conv4_6/dwise/bn"
  top: "conv4_6/linear"
  param {
    lr_mult: 1
    decay_mult: 1
  }
  convolution_param {
    num_output: 64
    bias_term: false
    kernel_size: 1
    weight_filler {
      type: "msra"
    }
  }
}
layer {
  name: "conv4_6/linear/bn"
  type: "BatchNorm"
  bottom: "conv4_6/linear"
  top: "conv4_6/linear/bn"
  batch_norm_param {
    use_global_stats: false
    eps: 1e-05
  }
}
layer {
  name: "conv4_6/linear/scale"
  type: "Scale"
  bottom: "conv4_6/linear/bn"
  top: "conv4_6/linear/bn"
  param {
    lr_mult: 1
    decay_mult: 0
  }
  param {
    lr_mult: 1
    decay_mult: 0
  }
  scale_param {
    bias_term: true
  }
}
layer {
  name: "block_4_6"
  type: "Eltwise"
  bottom: "block_4_5"
  bottom: "conv4_6/linear/bn"
  top: "block_4_6"
}
layer {
  name: "conv4_7/expand"
  type: "Convolution"
  bottom: "block_4_6"
  top: "conv4_7/expand"
  param {
    lr_mult: 1
    decay_mult: 1
  }
  convolution_param {
    num_output: 384
    bias_term: false
    kernel_size: 1
    weight_filler {
      type: "msra"
    }
  }
}
layer {
  name: "conv4_7/expand/bn"
  type: "BatchNorm"
  bottom: "conv4_7/expand"
  top: "conv4_7/expand/bn"
  batch_norm_param {
    use_global_stats: false
    eps: 1e-05
  }
}
layer {
  name: "conv4_7/expand/scale"
  type: "Scale"
  bottom: "conv4_7/expand/bn"
  top: "conv4_7/expand/bn"
  param {
    lr_mult: 1
    decay_mult: 0
  }
  param {
    lr_mult: 1
    decay_mult: 0
  }
  scale_param {
    bias_term: true
  }
}
layer {
  name: "relu4_7/expand"
  type: "ReLU"
  bottom: "conv4_7/expand/bn"
  top: "conv4_7/expand/bn"
}
layer {
  name: "loss1_conv1"
  type: "Convolution"
  bottom: "block_4_6"
  top: "loss1_conv1"
  param {
    lr_mult: 1
    decay_mult: 1
  }
  param {
    lr_mult: 2
    decay_mult: 0
  }
  convolution_param {
    num_output: 64
    pad: 1
    kernel_size: 3
    weight_filler {
      type: "gaussian"
      std: 0.01
    }
    bias_filler {
      type: "constant"
    }
  }
}
layer {
  name: "loss_relu1"
  type: "ReLU"
  bottom: "loss1_conv1"
  top: "loss1_conv1"
}
layer {
  name: "LFCN_1_5x5"
  type: "Convolution"
  bottom: "loss1_conv1"
  top: "LFCN_1_5x5"
  param {
    lr_mult: 1
    decay_mult: 1
  }
  param {
    lr_mult: 2
    decay_mult: 0
  }
  convolution_param {
    num_output: 9
    pad: 2
    kernel_size: 5
    weight_filler {
      type: "gaussian"
      std: 0.001
    }
    bias_filler {
      type: "constant"
    }
  }
}
layer {
  name: "detection_loss_1_5x5"
  type: "DetectionLoss"
  bottom: "LFCN_1_5x5"
  bottom: "label_1_5x5"
  top: "loss_1_5x5"
  loss_weight: 0.9
  detection_loss_param {
    cls_num: 5
    coord_num: 4
    lambda: 1
    field_h: 24
    field_w: 28
    downsample_rate: 8
    bb_smooth: true
    field_whr: 2
    field_xyr: 2
    bg_threshold: 0.2
    bg_multiple: 2
    sample_mode: "bootstrap"
    pos_neg_weighted: true
  }
}
layer {
  name: "detection_accuracy_1_5x5"
  type: "DetectionAccuracy"
  bottom: "LFCN_1_5x5"
  bottom: "label_1_5x5"
  top: "accuracy_1_5x5"
  top: "boxiou_1_5x5"
  detection_accuracy_param {
    cls_num: 5
    coord_num: 4
    field_h: 24
    field_w: 28
    downsample_rate: 8
    field_whr: 2
    field_xyr: 2
  }
}
layer {
  name: "LFCN_1_7x7"
  type: "Convolution"
  bottom: "loss1_conv1"
  top: "LFCN_1_7x7"
  param {
    lr_mult: 1
    decay_mult: 1
  }
  param {
    lr_mult: 2
    decay_mult: 0
  }
  convolution_param {
    num_output: 9
    pad: 3
    kernel_size: 7
    weight_filler {
      type: "gaussian"
      std: 0.001
    }
    bias_filler {
      type: "constant"
    }
  }
}
layer {
  name: "detection_loss_1_7x7"
  type: "DetectionLoss"
  bottom: "LFCN_1_7x7"
  bottom: "label_1_7x7"
  top: "loss_1_7x7"
  loss_weight: 0.9
  detection_loss_param {
    cls_num: 5
    coord_num: 4
    lambda: 1
    field_h: 47
    field_w: 54
    downsample_rate: 8
    bb_smooth: true
    field_whr: 2
    field_xyr: 2
    bg_threshold: 0.2
    bg_multiple: 2
    sample_mode: "b
I0105 00:02:45.863173 24353 layer_factory.hpp:77] Creating layer data
I0105 00:02:45.863209 24353 net.cpp:100] Creating Layer data
…
I0105 00:02:45.886945 24353 image_gt_data_layer.cpp:235] output label size 2 : 12,6,24,24
I0105 00:02:45.887004 24353 image_gt_data_layer.cpp:235] output label size 3 : 12,6,24,24
I0105 00:02:45.887045 24353 image_gt_data_layer.cpp:235] output label size 4 : 12,6,12,12
I0105 00:02:45.887084 24353 image_gt_data_layer.cpp:235] output label size 5 : 12,6,12,12
I0105 00:02:45.887137 24353 image_gt_data_layer.cpp:235] output label size 6 : 12,6,6,6
I0105 00:02:45.887176 24353 image_gt_data_layer.cpp:250] output gt boxes size: 1,7,1,1
I0105 00:02:45.938891 24353 net.cpp:150] Setting up data
I0105 00:02:45.938927 24353 net.cpp:157] Top shape: 12 3 384 384 (5308416)
I0105 00:02:45.938935 24353 net.cpp:157] Top shape: 12 6 48 48 (165888)
I0105 00:02:45.938941 24353 net.cpp:157] Top shape: 12 6 48 48 (165888)
I0105 00:02:45.938946 24353 net.cpp:157] Top shape: 12 6 24 24 (41472)
I0105 00:02:45.938951 24353 net.cpp:157] Top shape: 12 6 24 24 (41472)
I0105 00:02:45.938957 24353 net.cpp:157] Top shape: 12 6 12 12 (10368)
I0105 00:02:45.938962 24353 net.cpp:157] Top shape: 12 6 12 12 (10368)
I0105 00:02:45.938969 24353 net.cpp:157] Top shape: 12 6 6 6 (2592)
I0105 00:02:45.938974 24353 net.cpp:157] Top shape: 1 7 1 1 (7)
I0105 00:02:45.938979 24353 net.cpp:165] Memory required for data: 22985884
I0105 00:02:45.938990 24353 layer_factory.hpp:77] Creating layer label_1_5x5_data_1_split
I0105 00:02:45.939011 24353 net.cpp:100] Creating Layer label_1_5x5_data_1_split
I0105 00:02:45.939019 24353 net.cpp:434] label_1_5x5_data_1_split <- label_1_5x5
I0105 00:02:45.939036 24353 net.cpp:408] label_1_5x5_data_1_split -> label_1_5x5_data_1_split_0
I0105 00:02:45.939049 24353 net.cpp:408] label_1_5x5_data_1_split -> label_1_5x5_data_1_split_1
I0105 00:02:45.939105 24353 net.cpp:150] Setting up label_1_5x5_data_1_split
I0105 00:02:45.939113 24353 net.cpp:157] Top shape: 12 6 48 48 (165888)
I0105 00:02:45.939119 24353 net.cpp:157] Top shape: 12 6 48 48 (165888)
I0105 00:02:45.939124 24353 net.cpp:165] Memory required for data: 24312988
I0105 00:02:45.939129 24353 layer_factory.hpp:77] Creating layer label_1_7x7_data_2_split
I0105 00:02:45.939137 24353 net.cpp:100] Creating Layer label_1_7x7_data_2_split
I0105 00:02:45.939143 24353 net.cpp:434] label_1_7x7_data_2_split <- label_1_7x7
I0105 00:02:45.939148 24353 net.cpp:408] label_1_7x7_data_2_split -> label_1_7x7_data_2_split_0
I0105 00:02:45.939157 24353 net.cpp:408] label_1_7x7_data_2_split -> label_1_7x7_data_2_split_1
I0105 00:02:45.939191 24353 net.cpp:150] Setting up label_1_7x7_data_2_split
I0105 00:02:45.939199 24353 net.cpp:157] Top shape: 12 6 48 48 (165888)
I0105 00:02:45.939204 24353 net.cpp:157] Top shape: 12 6 48 48 (165888)
I0105 00:02:45.939208 24353 net.cpp:165] Memory required for data: 25640092
I0105 00:02:45.939213 24353 layer_factory.hpp:77] Creating layer label_2_5x5_data_3_split
I0105 00:02:45.939218 24353 net.cpp:100] Creating Layer label_2_5x5_data_3_split
I0105 00:02:45.939222 24353 net.cpp:434] label_2_5x5_data_3_split <- label_2_5x5
I0105 00:02:45.939229 24353 net.cpp:408] label_2_5x5_data_3_split -> label_2_5x5_data_3_split_0
I0105 00:02:45.939235 24353 net.cpp:408] label_2_5x5_data_3_split -> label_2_5x5_data_3_split_1
I0105 00:02:45.939267 24353 net.cpp:150] Setting up label_2_5x5_data_3_split
I0105 00:02:45.939277 24353 net.cpp:157] Top shape: 12 6 24 24 (41472)
I0105 00:02:45.939282 24353 net.cpp:157] Top shape: 12 6 24 24 (41472)
I0105 00:02:45.939286 24353 net.cpp:165] Memory required for data: 25971868
I0105 00:02:45.939291 24353 layer_factory.hpp:77] Creating layer label_2_7x7_data_4_split
I0105 00:02:45.939296 24353 net.cpp:100] Creating Layer label_2_7x7_data_4_split
I0105 00:02:45.939301 24353 net.cpp:434] label_2_7x7_data_4_split <- label_2_7x7
I0105 00:02:45.939308 24353 net.cpp:408] label_2_7x7_data_4_split -> label_2_7x7_data_4_split_0
I0105 00:02:45.939314 24353 net.cpp:408] label_2_7x7_data_4_split -> label_2_7x7_data_4_split_1
I0105 00:02:45.939348 24353 net.cpp:150] Setting up label_2_7x7_data_4_split
I0105 00:02:45.939355 24353 net.cpp:157] Top shape: 12 6 24 24 (41472)
I0105 00:02:45.939360 24353 net.cpp:157] Top shape: 12 6 24 24 (41472)
I0105 00:02:45.939364 24353 net.cpp:165] Memory required for data: 26303644
I0105 00:02:45.939368 24353 layer_factory.hpp:77] Creating layer label_3_5x5_data_5_split
I0105 00:02:45.939374 24353 net.cpp:100] Creating Layer label_3_5x5_data_5_split
I0105 00:02:45.939378 24353 net.cpp:434] label_3_5x5_data_5_split <- label_3_5x5
I0105 00:02:45.939384 24353 net.cpp:408] label_3_5x5_data_5_split -> label_3_5x5_data_5_split_0
I0105 00:02:45.939390 24353 net.cpp:408] label_3_5x5_data_5_split -> label_3_5x5_data_5_split_1
I0105 00:02:45.939421 24353 net.cpp:150] Setting up label_3_5x5_data_5_split
I0105 00:02:45.939429 24353 net.cpp:157] Top shape: 12 6 12 12 (10368)
I0105 00:02:45.939433 24353 net.cpp:157] Top shape: 12 6 12 12 (10368)
I0105 00:02:45.939436 24353 net.cpp:165] Memory required for data: 26386588
I0105 00:02:45.939440 24353 layer_factory.hpp:77] Creating layer label_3_7x7_data_6_split
I0105 00:02:45.939450 24353 net.cpp:100] Creating Layer label_3_7x7_data_6_split
I0105 00:02:45.939456 24353 net.cpp:434] label_3_7x7_data_6_split <- label_3_7x7
I0105 00:02:45.939461 24353 net.cpp:408] label_3_7x7_data_6_split -> label_3_7x7_data_6_split_0
I0105 00:02:45.939467 24353 net.cpp:408] label_3_7x7_data_6_split -> label_3_7x7_data_6_split_1
I0105 00:02:45.939499 24353 net.cpp:150] Setting up label_3_7x7_data_6_split
I0105 00:02:45.939507 24353 net.cpp:157] Top shape: 12 6 12 12 (10368)
I0105 00:02:45.939512 24353 net.cpp:157] Top shape: 12 6 12 12 (10368)
I0105 00:02:45.939515 24353 net.cpp:165] Memory required for data: 26469532
I0105 00:02:45.939520 24353 layer_factory.hpp:77] Creating layer label_4_5x5_data_7_split
I0105 00:02:45.939525 24353 net.cpp:100] Creating Layer label_4_5x5_data_7_split
I0105 00:02:45.939529 24353 net.cpp:434] label_4_5x5_data_7_split <- label_4_5x5
I0105 00:02:45.939535 24353 net.cpp:408] label_4_5x5_data_7_split -> label_4_5x5_data_7_split_0
I0105 00:02:45.939541 24353 net.cpp:408] label_4_5x5_data_7_split -> label_4_5x5_data_7_split_1
I0105 00:02:45.939571 24353 net.cpp:150] Setting up label_4_5x5_data_7_split
I0105 00:02:45.939579 24353 net.cpp:157] Top shape: 12 6 6 6 (2592)
I0105 00:02:45.939584 24353 net.cpp:157] Top shape: 12 6 6 6 (2592)
I0105 00:02:45.939589 24353 net.cpp:165] Memory required for data: 26490268
I0105 00:02:45.939592 24353 layer_factory.hpp:77] Creating layer conv1
I0105 00:02:45.939610 24353 net.cpp:100] Creating Layer conv1
I0105 00:02:45.939615 24353 net.cpp:434] conv1 <- data
I0105 00:02:45.939621 24353 net.cpp:408] conv1 -> conv1
I0105 00:02:46.168305 24353 net.cpp:150] Setting up conv1
I0105 00:02:46.168336 24353 net.cpp:157] Top shape: 12 32 192 192 (14155776)
I0105 00:02:46.168341 24353 net.cpp:165] Memory required for data: 83113372
I0105 00:02:46.168359 24353 layer_factory.hpp:77] Creating layer conv1/bn
I0105 00:02:46.168380 24353 net.cpp:100] Creating Layer conv1/bn
I0105 00:02:46.168387 24353 net.cpp:434] conv1/bn <- conv1
I0105 00:02:46.168395 24353 net.cpp:408] conv1/bn -> conv1/bn
I0105 00:02:46.168658 24353 net.cpp:150] Setting up conv1/bn
I0105 00:02:46.168668 24353 net.cpp:157] Top shape: 12 32 192 192 (14155776)
I0105 00:02:46.168671 24353 net.cpp:165] Memory required for data: 139736476
I0105 00:02:46.168684 24353 layer_factory.hpp:77] Creating layer conv1/scale
I0105 00:02:46.168694 24353 net.cpp:100] Creating Layer conv1/scale
I0105 00:02:46.168699 24353 net.cpp:434] conv1/scale <- conv1/bn
I0105 00:02:46.168705 24353 net.cpp:395] conv1/scale -> conv1/bn (in-place)
I0105 00:02:46.168767 24353 layer_factory.hpp:77] Creating layer conv1/scale
I0105 00:02:46.168936 24353 net.cpp:150] Setting up conv1/scale
I0105 00:02:46.168944 24353 net.cpp:157] Top shape: 12 32 192 192 (14155776)
I0105 00:02:46.168948 24353 net.cpp:165] Memory required for data: 196359580
I0105 00:02:46.168957 24353 layer_factory.hpp:77] Creating layer relu1
I0105 00:02:46.168967 24353 net.cpp:100] Creating Layer relu1
I0105 00:02:46.168972 24353 net.cpp:434] relu1 <- conv1/bn
I0105 00:02:46.168978 24353 net.cpp:395] relu1 -> conv1/bn (in-place)
I0105 00:02:46.169178 24353 net.cpp:150] Setting up relu1
I0105 00:02:46.169188 24353 net.cpp:157] Top shape: 12 32 192 192 (14155776)
I0105 00:02:46.169193 24353 net.cpp:165] Memory required for data: 252982684
I0105 00:02:46.169198 24353 layer_factory.hpp:77] Creating layer conv2_1/expand
I0105 00:02:46.169209 24353 net.cpp:100] Creating Layer conv2_1/expand
I0105 00:02:46.169214 24353 net.cpp:434] conv2_1/expand <- conv1/bn
I0105 00:02:46.169220 24353 net.cpp:408] conv2_1/expand -> conv2_1/expand
I0105 00:02:46.170354 24353 net.cpp:150] Setting up conv2_1/expand
I0105 00:02:46.170369 24353 net.cpp:157] Top shape: 12 32 192 192 (14155776)
I0105 00:02:46.170374 24353 net.cpp:165] Memory required for data: 309605788
I0105 00:02:46.170380 24353 layer_factory.hpp:77] Creating layer conv2_1/expand/bn
I0105 00:02:46.170388 24353 net.cpp:100] Creating Layer conv2_1/expand/bn
I0105 00:02:46.170393 24353 net.cpp:434] conv2_1/expand/bn <- conv2_1/expand
I0105 00:02:46.170399 24353 net.cpp:408] conv2_1/expand/bn -> conv2_1/expand/bn
I0105 00:02:46.170621 24353 net.cpp:150] Setting up conv2_1/expand/bn
I0105 00:02:46.170629 24353 net.cpp:157] Top shape: 12 32 192 192 (14155776)
I0105 00:02:46.170634 24353 net.cpp:165] Memory required for data: 366228892
I0105 00:02:46.170645 24353 layer_factory.hpp:77] Creating layer conv2_1/expand/scale
I0105 00:02:46.170653 24353 net.cpp:100] Creating Layer conv2_1/expand/scale
I0105 00:02:46.170660 24353 net.cpp:434] conv2_1/expand/scale <- conv2_1/expand/bn
I0105 00:02:46.170665 24353 net.cpp:395] conv2_1/expand/scale -> conv2_1/expand/bn (in-place)
I0105 00:02:46.170703 24353 layer_factory.hpp:77] Creating layer conv2_1/expand/scale
I0105 00:02:46.170955 24353 net.cpp:150] Setting up conv2_1/expand/scale
I0105 00:02:46.170967 24353 net.cpp:157] Top shape: 12 32 192 192 (14155776)
I0105 00:02:46.170971 24353 net.cpp:165] Memory required for data: 422851996
I0105 00:02:46.170979 24353 layer_factory.hpp:77] Creating layer relu2_1/expand
I0105 00:02:46.170984 24353 net.cpp:100] Creating Layer relu2_1/expand
I0105 00:02:46.170989 24353 net.cpp:434] relu2_1/expand <- conv2_1/expand/bn
I0105 00:02:46.170995 24353 net.cpp:395] relu2_1/expand -> conv2_1/expand/bn (in-place)
I0105 00:02:46.171175 24353 net.cpp:150] Setting up relu2_1/expand
I0105 00:02:46.171186 24353 net.cpp:157] Top shape: 12 32 192 192 (14155776)
I0105 00:02:46.171190 24353 net.cpp:165] Memory required for data: 479475100
I0105 00:02:46.171195 24353 layer_factory.hpp:77] Creating layer conv2_1/dwise
I0105 00:02:46.171207 24353 net.cpp:100] Creating Layer conv2_1/dwise
I0105 00:02:46.171213 24353 net.cpp:434] conv2_1/dwise <- conv2_1/expand/bn
I0105 00:02:46.171219 24353 net.cpp:408] conv2_1/dwise -> conv2_1/dwise
I0105 00:02:46.171418 24353 net.cpp:150] Setting up conv2_1/dwise
I0105 00:02:46.171427 24353 net.cpp:157] Top shape: 12 32 192 192 (14155776)
I0105 00:02:46.171432 24353 net.cpp:165] Memory required for data: 536098204
I0105 00:02:46.171437 24353 layer_factory.hpp:77] Creating layer conv2_1/dwise/bn
I0105 00:02:46.171443 24353 net.cpp:100] Creating Layer conv2_1/dwise/bn
I0105 00:02:46.171448 24353 net.cpp:434] conv2_1/dwise/bn <- conv2_1/dwise
I0105 00:02:46.171454 24353 net.cpp:408] conv2_1/dwise/bn -> conv2_1/dwise/bn
I0105 00:02:46.171699 24353 net.cpp:150] Setting up conv2_1/dwise/bn
I0105 00:02:46.171707 24353 net.cpp:157] Top shape: 12 32 192 192 (14155776)
I0105 00:02:46.171711 24353 net.cpp:165] Memory required for data: 592721308
I0105 00:02:46.171720 24353 layer_factory.hpp:77] Creating layer conv2_1/dwise/scale
I0105 00:02:46.171728 24353 net.cpp:100] Creating Layer conv2_1/dwise/scale
I0105 00:02:46.171735 24353 net.cpp:434] conv2_1/dwise/scale <- conv2_1/dwise/bn
I0105 00:02:46.171741 24353 net.cpp:395] conv2_1/dwise/scale -> conv2_1/dwise/bn (in-place)
I0105 00:02:46.171779 24353 layer_factory.hpp:77] Creating layer conv2_1/dwise/scale
I0105 00:02:46.173779 24353 net.cpp:150] Setting up conv2_1/dwise/scale
I0105 00:02:46.173848 24353 net.cpp:157] Top shape: 12 32 192 192 (14155776)
I0105 00:02:46.173856 24353 net.cpp:165] Memory required for data: 649344412
I0105 00:02:46.173897 24353 layer_factory.hpp:77] Creating layer relu2_1/dwise
I0105 00:02:46.173923 24353 net.cpp:100] Creating Layer relu2_1/dwise
I0105 00:02:46.173934 24353 net.cpp:434] relu2_1/dwise <- conv2_1/dwise/bn
I0105 00:02:46.173947 24353 net.cpp:395] relu2_1/dwise -> conv2_1/dwise/bn (in-place)
I0105 00:02:46.174278 24353 net.cpp:150] Setting up relu2_1/dwise
I0105 00:02:46.174290 24353 net.cpp:157] Top shape: 12 32 192 192 (14155776)
I0105 00:02:46.174294 24353 net.cpp:165] Memory required for data: 705967516
I0105 00:02:46.174299 24353 layer_factory.hpp:77] Creating layer conv2_1/linear
I0105 00:02:46.174317 24353 net.cpp:100] Creating Layer conv2_1/linear
I0105 00:02:46.174322 24353 net.cpp:434] conv2_1/linear <- conv2_1/dwise/bn
I0105 00:02:46.174331 24353 net.cpp:408] conv2_1/linear -> conv2_1/linear
I0105 00:02:46.176077 24353 net.cpp:150] Setting up conv2_1/linear
I0105 00:02:46.176098 24353 net.cpp:157] Top shape: 12 16 192 192 (7077888)
I0105 00:02:46.176102 24353 net.cpp:165] Memory required for data: 734279068
I0105 00:02:46.176110 24353 layer_factory.hpp:77] Creating layer conv2_1/linear/bn
I0105 00:02:46.176120 24353 net.cpp:100] Creating Layer conv2_1/linear/bn
I0105 00:02:46.176124 24353 net.cpp:434] conv2_1/linear/bn <- conv2_1/linear
I0105 00:02:46.176131 24353 net.cpp:408] conv2_1/linear/bn -> conv2_1/linear/bn
I0105 00:02:46.176338 24353 net.cpp:150] Setting up conv2_1/linear/bn
I0105 00:02:46.176345 24353 net.cpp:157] Top shape: 12 16 192 192 (7077888)
I0105 00:02:46.176349 24353 net.cpp:165] Memory required for data: 762590620
I0105 00:02:46.176357 24353 layer_factory.hpp:77] Creating layer conv2_1/linear/scale
I0105 00:02:46.176364 24353 net.cpp:100] Creating Layer conv2_1/linear/scale
I0105 00:02:46.176368 24353 net.cpp:434] conv2_1/linear/scale <- conv2_1/linear/bn
I0105 00:02:46.176373 24353 net.cpp:395] conv2_1/linear/scale -> conv2_1/linear/bn (in-place)
I0105 00:02:46.176411 24353 layer_factory.hpp:77] Creating layer conv2_1/linear/scale
I0105 00:02:46.176550 24353 net.cpp:150] Setting up conv2_1/linear/scale
I0105 00:02:46.176558 24353 net.cpp:157] Top shape: 12 16 192 192 (7077888)
I0105 00:02:46.176561 24353 net.cpp:165] Memory required for data: 790902172
I0105 00:02:46.176568 24353 layer_factory.hpp:77] Creating layer conv2_2/expand
I0105 00:02:46.176576 24353 net.cpp:100] Creating Layer conv2_2/expand
I0105 00:02:46.176580 24353 net.cpp:434] conv2_2/expand <- conv2_1/linear/bn
I0105 00:02:46.176586 24353 net.cpp:408] conv2_2/expand -> conv2_2/expand
I0105 00:02:46.177767 24353 net.cpp:150] Setting up conv2_2/expand
I0105 00:02:46.177780 24353 net.cpp:157] Top shape: 12 96 192 192 (42467328)
I0105 00:02:46.177783 24353 net.cpp:165] Memory required for data: 960771484
I0105 00:02:46.177788 24353 layer_factory.hpp:77] Creating layer conv2_2/expand/bn
I0105 00:02:46.177795 24353 net.cpp:100] Creating Layer conv2_2/expand/bn
I0105 00:02:46.177799 24353 net.cpp:434] conv2_2/expand/bn <- conv2_2/expand
I0105 00:02:46.177805 24353 net.cpp:408] conv2_2/expand/bn -> conv2_2/expand/bn
I0105 00:02:46.178001 24353 net.cpp:150] Setting up conv2_2/expand/bn
I0105 00:02:46.178009 24353 net.cpp:157] Top shape: 12 96 192 192 (42467328)
I0105 00:02:46.178012 24353 net.cpp:165] Memory required for data: 1130640796
I0105 00:02:46.178019 24353 layer_factory.hpp:77] Creating layer conv2_2/expand/scale
I0105 00:02:46.178025 24353 net.cpp:100] Creating Layer conv2_2/expand/scale
I0105 00:02:46.178028 24353 net.cpp:434] conv2_2/expand/scale <- conv2_2/expand/bn
I0105 00:02:46.178033 24353 net.cpp:395] conv2_2/expand/scale -> conv2_2/expand/bn (in-place)
I0105 00:02:46.178064 24353 layer_factory.hpp:77] Creating layer conv2_2/expand/scale
I0105 00:02:46.178194 24353 net.cpp:150] Setting up conv2_2/expand/scale
I0105 00:02:46.178201 24353 net.cpp:157] Top shape: 12 96 192 192 (42467328)
I0105 00:02:46.178205 24353 net.cpp:165] Memory required for data: 1300510108
I0105 00:02:46.178210 24353 layer_factory.hpp:77] Creating layer relu2_2/expand
I0105 00:02:46.178216 24353 net.cpp:100] Creating Layer relu2_2/expand
I0105 00:02:46.178220 24353 net.cpp:434] relu2_2/expand <- conv2_2/expand/bn
I0105 00:02:46.178225 24353 net.cpp:395] relu2_2/expand -> conv2_2/expand/bn (in-place)
I0105 00:02:46.178367 24353 net.cpp:150] Setting up relu2_2/expand
I0105 00:02:46.178376 24353 net.cpp:157] Top shape: 12 96 192 192 (42467328)
I0105 00:02:46.178380 24353 net.cpp:165] Memory required for data: 1470379420
I0105 00:02:46.178383 24353 layer_factory.hpp:77] Creating layer conv2_2/dwise
I0105 00:02:46.178390 24353 net.cpp:100] Creating Layer conv2_2/dwise
I0105 00:02:46.178395 24353 net.cpp:434] conv2_2/dwise <- conv2_2/expand/bn
I0105 00:02:46.178400 24353 net.cpp:408] conv2_2/dwise -> conv2_2/dwise
I0105 00:02:46.178571 24353 net.cpp:150] Setting up conv2_2/dwise
I0105 00:02:46.178578 24353 net.cpp:157] Top shape: 12 96 96 96 (10616832)
I0105 00:02:46.178582 24353 net.cpp:165] Memory required for data: 1512846748
I0105 00:02:46.178586 24353 layer_factory.hpp:77] Creating layer conv2_2/dwise/bn
I0105 00:02:46.178591 24353 net.cpp:100] Creating Layer conv2_2/dwise/bn
I0105 00:02:46.178596 24353 net.cpp:434] conv2_2/dwise/bn <- conv2_2/dwise
I0105 00:02:46.178601 24353 net.cpp:408] conv2_2/dwise/bn -> conv2_2/dwise/bn
I0105 00:02:46.178772 24353 net.cpp:150] Setting up conv2_2/dwise/bn
I0105 00:02:46.178797 24353 net.cpp:157] Top shape: 12 96 96 96 (10616832)
I0105 00:02:46.178815 24353 net.cpp:165] Memory required for data: 1555314076
I0105 00:02:46.178851 24353 layer_factory.hpp:77] Creating layer conv2_2/dwise/scale
I0105 00:02:46.178872 24353 net.cpp:100] Creating Layer conv2_2/dwise/scale
I0105 00:02:46.178877 24353 net.cpp:434] conv2_2/dwise/scale <- conv2_2/dwise/bn
I0105 00:02:46.178881 24353 net.cpp:395] conv2_2/dwise/scale -> conv2_2/dwise/bn (in-place)
I0105 00:02:46.178916 24353 layer_factory.hpp:77] Creating layer conv2_2/dwise/scale
I0105 00:02:46.179014 24353 net.cpp:150] Setting up conv2_2/dwise/scale
I0105 00:02:46.179021 24353 net.cpp:157] Top shape: 12 96 96 96 (10616832)
I0105 00:02:46.179025 24353 net.cpp:165] Memory required for data: 1597781404
I0105 00:02:46.179033 24353 layer_factory.hpp:77] Creating layer relu2_2/dwise
I0105 00:02:46.179040 24353 net.cpp:100] Creating Layer relu2_2/dwise
I0105 00:02:46.179044 24353 net.cpp:434] relu2_2/dwise <- conv2_2/dwise/bn
I0105 00:02:46.179049 24353 net.cpp:395] relu2_2/dwise -> conv2_2/dwise/bn (in-place)
I0105 00:02:46.179488 24353 net.cpp:150] Setting up relu2_2/dwise
I0105 00:02:46.179522 24353 net.cpp:157] Top shape: 12 96 96 96 (10616832)
I0105 00:02:46.179536 24353 net.cpp:165] Memory required for data: 1640248732
I0105 00:02:46.179549 24353 layer_factory.hpp:77] Creating layer conv2_2/linear
I0105 00:02:46.179569 24353 net.cpp:100] Creating Layer conv2_2/linear
I0105 00:02:46.179582 24353 net.cpp:434] conv2_2/linear <- conv2_2/dwise/bn
I0105 00:02:46.179597 24353 net.cpp:408] conv2_2/linear -> conv2_2/linear
I0105 00:02:46.180552 24353 net.cpp:150] Setting up conv2_2/linear
I0105 00:02:46.180565 24353 net.cpp:157] Top shape: 12 24 96 96 (2654208)
I0105 00:02:46.180569 24353 net.cpp:165] Memory required for data: 1650865564
I0105 00:02:46.180577 24353 layer_factory.hpp:77] Creating layer conv2_2/linear/bn
I0105 00:02:46.180588 24353 net.cpp:100] Creating Layer conv2_2/linear/bn
I0105 00:02:46.180594 24353 net.cpp:434] conv2_2/linear/bn <- conv2_2/linear
I0105 00:02:46.180603 24353 net.cpp:408] conv2_2/linear/bn -> conv2_2/linear/bn
I0105 00:02:46.180784 24353 net.cpp:150] Setting up conv2_2/linear/bn
I0105 00:02:46.180793 24353 net.cpp:157] Top shape: 12 24 96 96 (2654208)
I0105 00:02:46.180799 24353 net.cpp:165] Memory required for data: 1661482396
I0105 00:02:46.180809 24353 layer_factory.hpp:77] Creating layer conv2_2/linear/scale
I0105 00:02:46.180816 24353 net.cpp:100] Creating Layer conv2_2/linear/scale
I0105 00:02:46.180822 24353 net.cpp:434] conv2_2/linear/scale <- conv2_2/linear/bn
I0105 00:02:46.180830 24353 net.cpp:395] conv2_2/linear/scale -> conv2_2/linear/bn (in-place)
I0105 00:02:46.180866 24353 layer_factory.hpp:77] Creating layer conv2_2/linear/scale
I0105 00:02:46.180990 24353 net.cpp:150] Setting up conv2_2/linear/scale
I0105 00:02:46.180999 24353 net.cpp:157] Top shape: 12 24 96 96 (2654208)
I0105 00:02:46.181005 24353 net.cpp:165] Memory required for data: 1672099228
I0105 00:02:46.181012 24353 layer_factory.hpp:77] Creating layer conv2_2/linear/bn_conv2_2/linear/scale_0_split
I0105 00:02:46.181020 24353 net.cpp:100] Creating Layer conv2_2/linear/bn_conv2_2/linear/scale_0_split
I0105 00:02:46.181026 24353 net.cpp:434] conv2_2/linear/bn_conv2_2/linear/scale_0_split <- conv2_2/linear/bn
I0105 00:02:46.181033 24353 net.cpp:408] conv2_2/linear/bn_conv2_2/linear/scale_0_split -> conv2_2/linear/bn_conv2_2/linear/scale_0_split_0
I0105 00:02:46.181042 24353 net.cpp:408] conv2_2/linear/bn_conv2_2/linear/scale_0_split -> conv2_2/linear/bn_conv2_2/linear/scale_0_split_1
I0105 00:02:46.181075 24353 net.cpp:150] Setting up conv2_2/linear/bn_conv2_2/linear/scale_0_split
I0105 00:02:46.181082 24353 net.cpp:157] Top shape: 12 24 96 96 (2654208)
I0105 00:02:46.181088 24353 net.cpp:157] Top shape: 12 24 96 96 (2654208)
I0105 00:02:46.181094 24353 net.cpp:165] Memory required for data: 1693332892
I0105 00:02:46.181099 24353 layer_factory.hpp:77] Creating layer conv3_1/expand
I0105 00:02:46.181111 24353 net.cpp:100] Creating Layer conv3_1/expand
I0105 00:02:46.181116 24353 net.cpp:434] conv3_1/expand <- conv2_2/linear/bn_conv2_2/linear/scale_0_split_0
I0105 00:02:46.181125 24353 net.cpp:408] conv3_1/expand -> conv3_1/expand
I0105 00:02:46.181823 24353 net.cpp:150] Setting up conv3_1/expand
I0105 00:02:46.181834 24353 net.cpp:157] Top shape: 12 144 96 96 (15925248)
I0105 00:02:46.181840 24353 net.cpp:165] Memory required for data: 1757033884
I0105 00:02:46.181849 24353 layer_factory.hpp:77] Creating layer conv3_1/expand/bn
I0105 00:02:46.181859 24353 net.cpp:100] Creating Layer conv3_1/expand/bn
I0105 00:02:46.181864 24353 net.cpp:434] conv3_1/expand/bn <- conv3_1/expand
I0105 00:02:46.181872 24353 net.cpp:408] conv3_1/expand/bn -> conv3_1/expand/bn
I0105 00:02:46.182054 24353 net.cpp:150] Setting up conv3_1/expand/bn
I0105 00:02:46.182062 24353 net.cpp:157] Top shape: 12 144 96 96 (15925248)
I0105 00:02:46.182066 24353 net.cpp:165] Memory required for data: 1820734876
I0105 00:02:46.182076 24353 layer_factory.hpp:77] Creating layer conv3_1/expand/scale
I0105 00:02:46.182085 24353 net.cpp:100] Creating Layer conv3_1/expand/scale
I0105 00:02:46.182091 24353 net.cpp:434] conv3_1/expand/scale <- conv3_1/expand/bn
I0105 00:02:46.182097 24353 net.cpp:395] conv3_1/expand/scale -> conv3_1/expand/bn (in-place)
I0105 00:02:46.182137 24353 layer_factory.hpp:77] Creating layer conv3_1/expand/scale
I0105 00:02:46.182252 24353 net.cpp:150] Setting up conv3_1/expand/scale
I0105 00:02:46.182260 24353 net.cpp:157] Top shape: 12 144 96 96 (15925248)
I0105 00:02:46.182265 24353 net.cpp:165] Memory required for data: 1884435868
I0105 00:02:46.182272 24353 layer_factory.hpp:77] Creating layer relu3_1/expand
I0105 00:02:46.182281 24353 net.cpp:100] Creating Layer relu3_1/expand
I0105 00:02:46.182286 24353 net.cpp:434] relu3_1/expand <- conv3_1/expand/bn
I0105 00:02:46.182293 24353 net.cpp:395] relu3_1/expand -> conv3_1/expand/bn (in-place)
I0105 00:02:46.182742 24353 net.cpp:150] Setting up relu3_1/expand
I0105 00:02:46.182755 24353 net.cpp:157] Top shape: 12 144 96 96 (15925248)
I0105 00:02:46.182759 24353 net.cpp:165] Memory required for data: 1948136860
I0105 00:02:46.182765 24353 layer_factory.hpp:77] Creating layer conv3_1/dwise
I0105 00:02:46.182775 24353 net.cpp:100] Creating Layer conv3_1/dwise
I0105 00:02:46.182818 24353 net.cpp:434] conv3_1/dwise <- conv3_1/expand/bn
I0105 00:02:46.182832 24353 net.cpp:408] conv3_1/dwise -> conv3_1/dwise
I0105 00:02:46.183121 24353 net.cpp:150] Setting up conv3_1/dwise
I0105 00:02:46.183136 24353 net.cpp:157] Top shape: 12 144 96 96 (15925248)
I0105 00:02:46.183149 24353 net.cpp:165] Memory required for data: 2011837852
I0105 00:02:46.183161 24353 layer_factory.hpp:77] Creating layer conv3_1/dwise/bn
I0105 00:02:46.183174 24353 net.cpp:100] Creating Layer conv3_1/dwise/bn
I0105 00:02:46.183182 24353 net.cpp:434] conv3_1/dwise/bn <- conv3_1/dwise
I0105 00:02:46.183190 24353 net.cpp:408] conv3_1/dwise/bn -> conv3_1/dwise/bn
I0105 00:02:46.183590 24353 net.cpp:150] Setting up conv3_1/dwise/bn
I0105 00:02:46.183604 24353 net.cpp:157] Top shape: 12 144 96 96 (15925248)
I0105 00:02:46.183611 24353 net.cpp:165] Memory required for data: 2075538844
I0105 00:02:46.183622 24353 layer_factory.hpp:77] Creating layer conv3_1/dwise/scale
I0105 00:02:46.183640 24353 net.cpp:100] Creating Layer conv3_1/dwise/scale
I0105 00:02:46.183648 24353 net.cpp:434] conv3_1/dwise/scale <- conv3_1/dwise/bn
I0105 00:02:46.183661 24353 net.cpp:395] conv3_1/dwise/scale -> conv3_1/dwise/bn (in-place)
I0105 00:02:46.183730 24353 layer_factory.hpp:77] Creating layer conv3_1/dwise/scale
I0105 00:02:46.183890 24353 net.cpp:150] Setting up conv3_1/dwise/scale
I0105 00:02:46.183902 24353 net.cpp:157] Top shape: 12 144 96 96 (15925248)
I0105 00:02:46.183905 24353 net.cpp:165] Memory required for data: 2139239836
I0105 00:02:46.183912 24353 layer_factory.hpp:77] Creating layer relu3_1/dwise
I0105 00:02:46.183920 24353 net.cpp:100] Creating Layer relu3_1/dwise
I0105 00:02:46.183925 24353 net.cpp:434] relu3_1/dwise <- conv3_1/dwise/bn
I0105 00:02:46.183933 24353 net.cpp:395] relu3_1/dwise -> conv3_1/dwise/bn (in-place)
I0105 00:02:46.184183 24353 net.cpp:150] Setting up relu3_1/dwise
I0105 00:02:46.184195 24353 net.cpp:157] Top shape: 12 144 96 96 (15925248)
I0105 00:02:46.184197 24353 net.cpp:165] Memory required for data: 2202940828
I0105 00:02:46.184201 24353 layer_factory.hpp:77] Creating layer conv3_1/linear
I0105 00:02:46.184212 24353 net.cpp:100] Creating Layer conv3_1/linear
I0105 00:02:46.184217 24353 net.cpp:434] conv3_1/linear <- conv3_1/dwise/bn
I0105 00:02:46.184223 24353 net.cpp:408] conv3_1/linear -> conv3_1/linear
I0105 00:02:46.185387 24353 net.cpp:150] Setting up conv3_1/linear
I0105 00:02:46.185401 24353 net.cpp:157] Top shape: 12 24 96 96 (2654208)
I0105 00:02:46.185406 24353 net.cpp:165] Memory required for data: 2213557660
I0105 00:02:46.185411 24353 layer_factory.hpp:77] Creating layer conv3_1/linear/bn
I0105 00:02:46.185420 24353 net.cpp:100] Creating Layer conv3_1/linear/bn
I0105 00:02:46.185425 24353 net.cpp:434] conv3_1/linear/bn <- conv3_1/linear
I0105 00:02:46.185429 24353 net.cpp:408] conv3_1/linear/bn -> conv3_1/linear/bn
I0105 00:02:46.185614 24353 net.cpp:150] Setting up conv3_1/linear/bn
I0105 00:02:46.185621 24353 net.cpp:157] Top shape: 12 24 96 96 (2654208)
I0105 00:02:46.185624 24353 net.cpp:165] Memory required for data: 2224174492
I0105 00:02:46.185632 24353 layer_factory.hpp:77] Creating layer conv3_1/linear/scale
I0105 00:02:46.185639 24353 net.cpp:100] Creating Layer conv3_1/linear/scale
I0105 00:02:46.185643 24353 net.cpp:434] conv3_1/linear/scale <- conv3_1/linear/bn
I0105 00:02:46.185648 24353 net.cpp:395] conv3_1/linear/scale -> conv3_1/linear/bn (in-place)
I0105 00:02:46.185684 24353 layer_factory.hpp:77] Creating layer conv3_1/linear/scale
I0105 00:02:46.185811 24353 net.cpp:150] Setting up conv3_1/linear/scale
I0105 00:02:46.185817 24353 net.cpp:157] Top shape: 12 24 96 96 (2654208)
I0105 00:02:46.185822 24353 net.cpp:165] Memory required for data: 2234791324
I0105 00:02:46.185827 24353 layer_factory.hpp:77] Creating layer block_3_1
I0105 00:02:46.185838 24353 net.cpp:100] Creating Layer block_3_1
I0105 00:02:46.185842 24353 net.cpp:434] block_3_1 <- conv2_2/linear/bn_conv2_2/linear/scale_0_split_1
I0105 00:02:46.185847 24353 net.cpp:434] block_3_1 <- conv3_1/linear/bn
I0105 00:02:46.185853 24353 net.cpp:408] block_3_1 -> block_3_1
I0105 00:02:46.185875 24353 net.cpp:150] Setting up block_3_1
I0105 00:02:46.185881 24353 net.cpp:157] Top shape: 12 24 96 96 (2654208)
I0105 00:02:46.185884 24353 net.cpp:165] Memory required for data: 2245408156
I0105 00:02:46.185887 24353 layer_factory.hpp:77] Creating layer conv3_2/expand
I0105 00:02:46.185895 24353 net.cpp:100] Creating Layer conv3_2/expand
I0105 00:02:46.185900 24353 net.cpp:434] conv3_2/expand <- block_3_1
I0105 00:02:46.185905 24353 net.cpp:408] conv3_2/expand -> conv3_2/expand
I0105 00:02:46.187330 24353 net.cpp:150] Setting up conv3_2/expand
I0105 00:02:46.187352 24353 net.cpp:157] Top shape: 12 144 96 96 (15925248)
I0105 00:02:46.187356 24353 net.cpp:165] Memory required for data: 2309109148
I0105 00:02:46.187364 24353 layer_factory.hpp:77] Creating layer conv3_2/expand/bn
I0105 00:02:46.187379 24353 net.cpp:100] Creating Layer conv3_2/expand/bn
I0105 00:02:46.187386 24353 net.cpp:434] conv3_2/expand/bn <- conv3_2/expand
I0105 00:02:46.187391 24353 net.cpp:408] conv3_2/expand/bn -> conv3_2/expand/bn
I0105 00:02:46.187595 24353 net.cpp:150] Setting up conv3_2/expand/bn
I0105 00:02:46.187602 24353 net.cpp:157] Top shape: 12 144 96 96 (15925248)
I0105 00:02:46.187605 24353 net.cpp:165] Memory required for data: 2372810140
I0105 00:02:46.187613 24353 layer_factory.hpp:77] Creating layer conv3_2/expand/scale
I0105 00:02:46.187621 24353 net.cpp:100] Creating Layer conv3_2/expand/scale
I0105 00:02:46.187624 24353 net.cpp:434] conv3_2/expand/scale <- conv3_2/expand/bn
I0105 00:02:46.187629 24353 net.cpp:395] conv3_2/expand/scale -> conv3_2/expand/bn (in-place)
I0105 00:02:46.187672 24353 layer_factory.hpp:77] Creating layer conv3_2/expand/scale
I0105 00:02:46.187808 24353 net.cpp:150] Setting up conv3_2/expand/scale
I0105 00:02:46.187815 24353 net.cpp:157] Top shape: 12 144 96 96 (15925248)
I0105 00:02:46.187819 24353 net.cpp:165] Memory required for data: 2436511132
I0105 00:02:46.187839 24353 layer_factory.hpp:77] Creating layer relu3_2/expand
I0105 00:02:46.187847 24353 net.cpp:100] Creating Layer relu3_2/expand
I0105 00:02:46.187851 24353 net.cpp:434] relu3_2/expand <- conv3_2/expand/bn
I0105 00:02:46.187856 24353 net.cpp:395] relu3_2/expand -> conv3_2/expand/bn (in-place)
I0105 00:02:46.188015 24353 net.cpp:150] Setting up relu3_2/expand
I0105 00:02:46.188024 24353 net.cpp:157] Top shape: 12 144 96 96 (15925248)
I0105 00:02:46.188027 24353 net.cpp:165] Memory required for data: 2500212124
I0105 00:02:46.188030 24353 layer_factory.hpp:77] Creating layer conv3_2/dwise
I0105 00:02:46.188042 24353 net.cpp:100] Creating Layer conv3_2/dwise
I0105 00:02:46.188046 24353 net.cpp:434] conv3_2/dwise <- conv3_2/expand/bn
I0105 00:02:46.188052 24353 net.cpp:408] conv3_2/dwise -> conv3_2/dwise
I0105 00:02:46.188264 24353 net.cpp:150] Setting up conv3_2/dwise
I0105 00:02:46.188271 24353 net.cpp:157] Top shape: 12 144 48 48 (3981312)
I0105 00:02:46.188274 24353 net.cpp:165] Memory required for data: 2516137372
I0105 00:02:46.188279 24353 layer_factory.hpp:77] Creating layer conv3_2/dwise/bn
I0105 00:02:46.188285 24353 net.cpp:100] Creating Layer conv3_2/dwise/bn
I0105 00:02:46.188288 24353 net.cpp:434] conv3_2/dwise/bn <- conv3_2/dwise
I0105 00:02:46.188293 24353 net.cpp:408] conv3_2/dwise/bn -> conv3_2/dwise/bn
I0105 00:02:46.188479 24353 net.cpp:150] Setting up conv3_2/dwise/bn
I0105 00:02:46.188486 24353 net.cpp:157] Top shape: 12 144 48 48 (3981312)
I0105 00:02:46.188489 24353 net.cpp:165] Memory required for data: 2532062620
I0105 00:02:46.188496 24353 layer_factory.hpp:77] Creating layer conv3_2/dwise/scale
I0105 00:02:46.188503 24353 net.cpp:100] Creating Layer conv3_2/dwise/scale
I0105 00:02:46.188508 24353 net.cpp:434] conv3_2/dwise/scale <- conv3_2/dwise/bn
I0105 00:02:46.188511 24353 net.cpp:395] conv3_2/dwise/scale -> conv3_2/dwise/bn (in-place)
I0105 00:02:46.188547 24353 layer_factory.hpp:77] Creating layer conv3_2/dwise/scale
I0105 00:02:46.188642 24353 net.cpp:150] Setting up conv3_2/dwise/scale
I0105 00:02:46.188648 24353 net.cpp:157] Top shape: 12 144 48 48 (3981312)
I0105 00:02:46.188652 24353 net.cpp:165] Memory required for data: 2547987868
I0105 00:02:46.188657 24353 layer_factory.hpp:77] Creating layer relu3_2/dwise
I0105 00:02:46.188665 24353 net.cpp:100] Creating Layer relu3_2/dwise
I0105 00:02:46.188669 24353 net.cpp:434] relu3_2/dwise <- conv3_2/dwise/bn
I0105 00:02:46.188673 24353 net.cpp:395] relu3_2/dwise -> conv3_2/dwise/bn (in-place)
I0105 00:02:46.188836 24353 net.cpp:150] Setting up relu3_2/dwise
I0105 00:02:46.188844 24353 net.cpp:157] Top shape: 12 144 48 48 (3981312)
I0105 00:02:46.188848 24353 net.cpp:165] Memory required for data: 2563913116
I0105 00:02:46.188853 24353 layer_factory.hpp:77] Creating layer conv3_2/linear
I0105 00:02:46.188863 24353 net.cpp:100] Creating Layer conv3_2/linear
I0105 00:02:46.188868 24353 net.cpp:434] conv3_2/linear <- conv3_2/dwise/bn
I0105 00:02:46.188874 24353 net.cpp:408] conv3_2/linear -> conv3_2/linear
I0105 00:02:46.192725 24353 net.cpp:150] Setting up conv3_2/linear
I0105 00:02:46.192792 24353 net.cpp:157] Top shape: 12 32 48 48 (884736)
I0105 00:02:46.192803 24353 net.cpp:165] Memory required for data: 2567452060
I0105 00:02:46.192821 24353 layer_factory.hpp:77] Creating layer conv3_2/linear/bn
I0105 00:02:46.192845 24353 net.cpp:100] Creating Layer conv3_2/linear/bn
I0105 00:02:46.192859 24353 net.cpp:434] conv3_2/linear/bn <- conv3_2/linear
I0105 00:02:46.192878 24353 net.cpp:408] conv3_2/linear/bn -> conv3_2/linear/bn
I0105 00:02:46.193356 24353 net.cpp:150] Setting up conv3_2/linear/bn
I0105 00:02:46.193372 24353 net.cpp:157] Top shape: 12 32 48 48 (884736)
I0105 00:02:46.193380 24353 net.cpp:165] Memory required for data: 2570991004
I0105 00:02:46.193398 24353 layer_factory.hpp:77] Creating layer conv3_2/linear/scale
I0105 00:02:46.193416 24353 net.cpp:100] Creating Layer conv3_2/linear/scale
I0105 00:02:46.193428 24353 net.cpp:434] conv3_2/linear/scale <- conv3_2/linear/bn
I0105 00:02:46.193442 24353 net.cpp:395] conv3_2/linear/scale -> conv3_2/linear/bn (in-place)
I0105 00:02:46.193536 24353 layer_factory.hpp:77] Creating layer conv3_2/linear/scale
I0105 00:02:46.193773 24353 net.cpp:150] Setting up conv3_2/linear/scale
I0105 00:02:46.193789 24353 net.cpp:157] Top shape: 12 32 48 48 (884736)
I0105 00:02:46.193797 24353 net.cpp:165] Memory required for data: 2574529948
I0105 00:02:46.193812 24353 layer_factory.hpp:77] Creating layer conv3_2/linear/bn_conv3_2/linear/scale_0_split
I0105 00:02:46.193825 24353 net.cpp:100] Creating Layer conv3_2/linear/bn_conv3_2/linear/scale_0_split
I0105 00:02:46.193835 24353 net.cpp:434] conv3_2/linear/bn_conv3_2/linear/scale_0_split <- conv3_2/linear/bn
I0105 00:02:46.193850 24353 net.cpp:408] conv3_2/linear/bn_conv3_2/linear/scale_0_split -> conv3_2/linear/bn_conv3_2/linear/scale_0_split_0
I0105 00:02:46.193867 24353 net.cpp:408] conv3_2/linear/bn_conv3_2/linear/scale_0_split -> conv3_2/linear/bn_conv3_2/linear/scale_0_split_1
I0105 00:02:46.193939 24353 net.cpp:150] Setting up conv3_2/linear/bn_conv3_2/linear/scale_0_split
I0105 00:02:46.193953 24353 net.cpp:157] Top shape: 12 32 48 48 (884736)
I0105 00:02:46.193964 24353 net.cpp:157] Top shape: 12 32 48 48 (884736)
I0105 00:02:46.193972 24353 net.cpp:165] Memory required for data: 2581607836
I0105 00:02:46.193980 24353 layer_factory.hpp:77] Creating layer conv4_1/expand
I0105 00:02:46.194000 24353 net.cpp:100] Creating Layer conv4_1/expand
I0105 00:02:46.194010 24353 net.cpp:434] conv4_1/expand <- conv3_2/linear/bn_conv3_2/linear/scale_0_split_0
I0105 00:02:46.194025 24353 net.cpp:408] conv4_1/expand -> conv4_1/expand
I0105 00:02:46.196614 24353 net.cpp:150] Setting up conv4_1/expand
I0105 00:02:46.196643 24353 net.cpp:157] Top shape: 12 192 48 48 (5308416)
I0105 00:02:46.196651 24353 net.cpp:165] Memory required for data: 2602841500
I0105 00:02:46.196663 24353 layer_factory.hpp:77] Creating layer conv4_1/expand/bn
I0105 00:02:46.196681 24353 net.cpp:100] Creating Layer conv4_1/expand/bn
I0105 00:02:46.196691 24353 net.cpp:434] conv4_1/expand/bn <- conv4_1/expand
I0105 00:02:46.196704 24353 net.cpp:408] conv4_1/expand/bn -> conv4_1/expand/bn
I0105 00:02:46.197124 24353 net.cpp:150] Setting up conv4_1/expand/bn
I0105 00:02:46.197139 24353 net.cpp:157] Top shape: 12 192 48 48 (5308416)
I0105 00:02:46.197147 24353 net.cpp:165] Memory required for data: 2624075164
I0105 00:02:46.197163 24353 layer_factory.hpp:77] Creating layer conv4_1/expand/scale
I0105 00:02:46.197180 24353 net.cpp:100] Creating Layer conv4_1/expand/scale
I0105 00:02:46.197190 24353 net.cpp:434] conv4_1/expand/scale <- conv4_1/expand/bn
I0105 00:02:46.197201 24353 net.cpp:395] conv4_1/expand/scale -> conv4_1/expand/bn (in-place)
I0105 00:02:46.197284 24353 layer_factory.hpp:77] Creating layer conv4_1/expand/scale
I0105 00:02:46.197517 24353 net.cpp:150] Setting up conv4_1/expand/scale
I0105 00:02:46.197531 24353 net.cpp:157] Top shape: 12 192 48 48 (5308416)
I0105 00:02:46.197540 24353 net.cpp:165] Memory required for data: 2645308828
I0105 00:02:46.197553 24353 layer_factory.hpp:77] Creating layer relu4_1/expand
I0105 00:02:46.197568 24353 net.cpp:100] Creating Layer relu4_1/expand
I0105 00:02:46.197578 24353 net.cpp:434] relu4_1/expand <- conv4_1/expand/bn
I0105 00:02:46.197588 24353 net.cpp:395] relu4_1/expand -> conv4_1/expand/bn (in-place)
I0105 00:02:46.197942 24353 net.cpp:150] Setting up relu4_1/expand
I0105 00:02:46.197962 24353 net.cpp:157] Top shape: 12 192 48 48 (5308416)
I0105 00:02:46.197971 24353 net.cpp:165] Memory required for data: 2666542492
I0105 00:02:46.197979 24353 layer_factory.hpp:77] Creating layer conv4_1/dwise
I0105 00:02:46.197995 24353 net.cpp:100] Creating Layer conv4_1/dwise
I0105 00:02:46.198005 24353 net.cpp:434] conv4_1/dwise <- conv4_1/expand/bn
I0105 00:02:46.198027 24353 net.cpp:408] conv4_1/dwise -> conv4_1/dwise
I0105 00:02:46.198691 24353 net.cpp:150] Setting up conv4_1/dwise
I0105 00:02:46.198714 24353 net.cpp:157] Top shape: 12 192 48 48 (5308416)
I0105 00:02:46.198725 24353 net.cpp:165] Memory required for data: 2687776156
I0105 00:02:46.198740 24353 layer_factory.hpp:77] Creating layer conv4_1/dwise/bn
I0105 00:02:46.198766 24353 net.cpp:100] Creating Layer conv4_1/dwise/bn
I0105 00:02:46.198822 24353 net.cpp:434] conv4_1/dwise/bn <- conv4_1/dwise
I0105 00:02:46.198849 24353 net.cpp:408] conv4_1/dwise/bn -> conv4_1/dwise/bn
I0105 00:02:46.199431 24353 net.cpp:150] Setting up conv4_1/dwise/bn
I0105 00:02:46.199455 24353 net.cpp:157] Top shape: 12 192 48 48 (5308416)
I0105 00:02:46.199468 24353 net.cpp:165] Memory required for data: 2709009820
I0105 00:02:46.199492 24353 layer_factory.hpp:77] Creating layer conv4_1/dwise/scale
I0105 00:02:46.199512 24353 net.cpp:100] Creating Layer conv4_1/dwise/scale
I0105 00:02:46.199527 24353 net.cpp:434] conv4_1/dwise/scale <- conv4_1/dwise/bn
I0105 00:02:46.199542 24353 net.cpp:395] conv4_1/dwise/scale -> conv4_1/dwise/bn (in-place)
I0105 00:02:46.199626 24353 layer_factory.hpp:77] Creating layer conv4_1/dwise/scale
I0105 00:02:46.199790 24353 net.cpp:150] Setting up conv4_1/dwise/scale
I0105 00:02:46.199800 24353 net.cpp:157] Top shape: 12 192 48 48 (5308416)
I0105 00:02:46.199803 24353 net.cpp:165] Memory required for data: 2730243484
I0105 00:02:46.199810 24353 layer_factory.hpp:77] Creating layer relu4_1/dwise
I0105 00:02:46.199818 24353 net.cpp:100] Creating Layer relu4_1/dwise
I0105 00:02:46.199823 24353 net.cpp:434] relu4_1/dwise <- conv4_1/dwise/bn
I0105 00:02:46.199829 24353 net.cpp:395] relu4_1/dwise -> conv4_1/dwise/bn (in-place)
I0105 00:02:46.200400 24353 net.cpp:150] Setting up relu4_1/dwise
I0105 00:02:46.200413 24353 net.cpp:157] Top shape: 12 192 48 48 (5308416)
I0105 00:02:46.200417 24353 net.cpp:165] Memory required for data: 2751477148
I0105 00:02:46.200420 24353 layer_factory.hpp:77] Creating layer conv4_1/linear
I0105 00:02:46.200430 24353 net.cpp:100] Creating Layer conv4_1/linear
I0105 00:02:46.200435 24353 net.cpp:434] conv4_1/linear <- conv4_1/dwise/bn
I0105 00:02:46.200443 24353 net.cpp:408] conv4_1/linear -> conv4_1/linear
I0105 00:02:46.201822 24353 net.cpp:150] Setting up conv4_1/linear
I0105 00:02:46.201853 24353 net.cpp:157] Top shape: 12 32 48 48 (884736)
I0105 00:02:46.201859 24353 net.cpp:165] Memory required for data: 2755016092
I0105 00:02:46.201869 24353 layer_factory.hpp:77] Creating layer conv4_1/linear/bn
I0105 00:02:46.201882 24353 net.cpp:100] Creating Layer conv4_1/linear/bn
I0105 00:02:46.201890 24353 net.cpp:434] conv4_1/linear/bn <- conv4_1/linear
I0105 00:02:46.201898 24353 net.cpp:408] conv4_1/linear/bn -> conv4_1/linear/bn
I0105 00:02:46.202141 24353 net.cpp:150] Setting up conv4_1/linear/bn
I0105 00:02:46.202148 24353 net.cpp:157] Top shape: 12 32 48 48 (884736)
I0105 00:02:46.202152 24353 net.cpp:165] Memory required for data: 2758555036
I0105 00:02:46.202162 24353 layer_factory.hpp:77] Creating layer conv4_1/linear/scale
I0105 00:02:46.202170 24353 net.cpp:100] Creating Layer conv4_1/linear/scale
I0105 00:02:46.202177 24353 net.cpp:434] conv4_1/linear/scale <- conv4_1/linear/bn
I0105 00:02:46.202184 24353 net.cpp:395] conv4_1/linear/scale -> conv4_1/linear/bn (in-place)
I0105 00:02:46.202232 24353 layer_factory.hpp:77] Creating layer conv4_1/linear/scale
I0105 00:02:46.202356 24353 net.cpp:150] Setting up conv4_1/linear/scale
I0105 00:02:46.202364 24353 net.cpp:157] Top shape: 12 32 48 48 (884736)
I0105 00:02:46.202368 24353 net.cpp:165] Memory required for data: 2762093980
I0105 00:02:46.202375 24353 layer_factory.hpp:77] Creating layer block_4_1
I0105 00:02:46.202383 24353 net.cpp:100] Creating Layer block_4_1
I0105 00:02:46.202389 24353 net.cpp:434] block_4_1 <- conv3_2/linear/bn_conv3_2/linear/scale_0_split_1
I0105 00:02:46.202394 24353 net.cpp:434] block_4_1 <- conv4_1/linear/bn
I0105 00:02:46.202404 24353 net.cpp:408] block_4_1 -> block_4_1
I0105 00:02:46.202427 24353 net.cpp:150] Setting up block_4_1
I0105 00:02:46.202436 24353 net.cpp:157] Top shape: 12 32 48 48 (884736)
I0105 00:02:46.202441 24353 net.cpp:165] Memory required for data: 2765632924
I0105 00:02:46.202445 24353 layer_factory.hpp:77] Creating layer block_4_1_block_4_1_0_split
I0105 00:02:46.202451 24353 net.cpp:100] Creating Layer block_4_1_block_4_1_0_split
I0105 00:02:46.202456 24353 net.cpp:434] block_4_1_block_4_1_0_split <- block_4_1
I0105 00:02:46.202461 24353 net.cpp:408] block_4_1_block_4_1_0_split -> block_4_1_block_4_1_0_split_0
I0105 00:02:46.202468 24353 net.cpp:408] block_4_1_block_4_1_0_split -> block_4_1_block_4_1_0_split_1
I0105 00:02:46.202505 24353 net.cpp:150] Setting up block_4_1_block_4_1_0_split
I0105 00:02:46.202512 24353 net.cpp:157] Top shape: 12 32 48 48 (884736)
I0105 00:02:46.202517 24353 net.cpp:157] Top shape: 12 32 48 48 (884736)
I0105 00:02:46.202522 24353 net.cpp:165] Memory required for data: 2772710812
I0105 00:02:46.202525 24353 layer_factory.hpp:77] Creating layer conv4_2/expand
I0105 00:02:46.202535 24353 net.cpp:100] Creating Layer conv4_2/expand
I0105 00:02:46.202541 24353 net.cpp:434] conv4_2/expand <- block_4_1_block_4_1_0_split_0
I0105 00:02:46.202548 24353 net.cpp:408] conv4_2/expand -> conv4_2/expand
I0105 00:02:46.203608 24353 net.cpp:150] Setting up conv4_2/expand
I0105 00:02:46.203624 24353 net.cpp:157] Top shape: 12 192 48 48 (5308416)
I0105 00:02:46.203627 24353 net.cpp:165] Memory required for data: 2793944476
I0105 00:02:46.203634 24353 layer_factory.hpp:77] Creating layer conv4_2/expand/bn
I0105 00:02:46.203644 24353 net.cpp:100] Creating Layer conv4_2/expand/bn
I0105 00:02:46.203647 24353 net.cpp:434] conv4_2/expand/bn <- conv4_2/expand
I0105 00:02:46.203655 24353 net.cpp:408] conv4_2/expand/bn -> conv4_2/expand/bn
I0105 00:02:46.204080 24353 net.cpp:150] Setting up conv4_2/expand/bn
I0105 00:02:46.204097 24353 net.cpp:157] Top shape: 12 192 48 48 (5308416)
I0105 00:02:46.204107 24353 net.cpp:165] Memory required for data: 2815178140
I0105 00:02:46.204123 24353 layer_factory.hpp:77] Creating layer conv4_2/expand/scale
I0105 00:02:46.204141 24353 net.cpp:100] Creating Layer conv4_2/expand/scale
I0105 00:02:46.204151 24353 net.cpp:434] conv4_2/expand/scale <- conv4_2/expand/bn
I0105 00:02:46.204164 24353 net.cpp:395] conv4_2/expand/scale -> conv4_2/expand/bn (in-place)
I0105 00:02:46.204252 24353 layer_factory.hpp:77] Creating layer conv4_2/expand/scale
I0105 00:02:46.204485 24353 net.cpp:150] Setting up conv4_2/expand/scale
I0105 00:02:46.204500 24353 net.cpp:157] Top shape: 12 192 48 48 (5308416)
I0105 00:02:46.204509 24353 net.cpp:165] Memory required for data: 2836411804
I0105 00:02:46.204524 24353 layer_factory.hpp:77] Creating layer relu4_2/expand
I0105 00:02:46.204536 24353 net.cpp:100] Creating Layer relu4_2/expand
I0105 00:02:46.204546 24353 net.cpp:434] relu4_2/expand <- conv4_2/expand/bn
I0105 00:02:46.204560 24353 net.cpp:395] relu4_2/expand -> conv4_2/expand/bn (in-place)
I0105 00:02:46.205726 24353 net.cpp:150] Setting up relu4_2/expand
I0105 00:02:46.205760 24353 net.cpp:157] Top shape: 12 192 48 48 (5308416)
I0105 00:02:46.205770 24353 net.cpp:165] Memory required for data: 2857645468
I0105 00:02:46.205780 24353 layer_factory.hpp:77] Creating layer conv4_2/dwise
I0105 00:02:46.205802 24353 net.cpp:100] Creating Layer conv4_2/dwise
I0105 00:02:46.205816 24353 net.cpp:434] conv4_2/dwise <- conv4_2/expand/bn
I0105 00:02:46.205835 24353 net.cpp:408] conv4_2/dwise -> conv4_2/dwise
I0105 00:02:46.206431 24353 net.cpp:150] Setting up conv4_2/dwise
I0105 00:02:46.206449 24353 net.cpp:157] Top shape: 12 192 48 48 (5308416)
I0105 00:02:46.206457 24353 net.cpp:165] Memory required for data: 2878879132
I0105 00:02:46.206470 24353 layer_factory.hpp:77] Creating layer conv4_2/dwise/bn
I0105 00:02:46.206488 24353 net.cpp:100] Creating Layer conv4_2/dwise/bn
I0105 00:02:46.206499 24353 net.cpp:434] conv4_2/dwise/bn <- conv4_2/dwise
I0105 00:02:46.206513 24353 net.cpp:408] conv4_2/dwise/bn -> conv4_2/dwise/bn
I0105 00:02:46.207017 24353 net.cpp:150] Setting up conv4_2/dwise/bn
I0105 00:02:46.207036 24353 net.cpp:157] Top shape: 12 192 48 48 (5308416)
I0105 00:02:46.207046 24353 net.cpp:165] Memory required for data: 2900112796
I0105 00:02:46.207064 24353 layer_factory.hpp:77] Creating layer conv4_2/dwise/scale
I0105 00:02:46.207082 24353 net.cpp:100] Creating Layer conv4_2/dwise/scale
I0105 00:02:46.207093 24353 net.cpp:434] conv4_2/dwise/scale <- conv4_2/dwise/bn
I0105 00:02:46.207108 24353 net.cpp:395] conv4_2/dwise/scale -> conv4_2/dwise/bn (in-place)
I0105 00:02:46.207206 24353 layer_factory.hpp:77] Creating layer conv4_2/dwise/scale
I0105 00:02:46.207542 24353 net.cpp:150] Setting up conv4_2/dwise/scale
I0105 00:02:46.207669 24353 net.cpp:157] Top shape: 12 192 48 48 (5308416)
I0105 00:02:46.207717 24353 net.cpp:165] Memory required for data: 2921346460
I0105 00:02:46.207772 24353 layer_factory.hpp:77] Creating layer relu4_2/dwise
I0105 00:02:46.207854 24353 net.cpp:100] Creating Layer relu4_2/dwise
I0105 00:02:46.207906 24353 net.cpp:434] relu4_2/dwise <- conv4_2/dwise/bn
I0105 00:02:46.207980 24353 net.cpp:395] relu4_2/dwise -> conv4_2/dwise/bn (in-place)
I0105 00:02:46.210223 24353 net.cpp:150] Setting up relu4_2/dwise
I0105 00:02:46.210268 24353 net.cpp:157] Top shape: 12 192 48 48 (5308416)
I0105 00:02:46.210280 24353 net.cpp:165] Memory required for data: 2942580124
I0105 00:02:46.210292 24353 layer_factory.hpp:77] Creating layer conv4_2/linear
I0105 00:02:46.210328 24353 net.cpp:100] Creating Layer conv4_2/linear
I0105 00:02:46.210345 24353 net.cpp:434] conv4_2/linear <- conv4_2/dwise/bn
I0105 00:02:46.210366 24353 net.cpp:408] conv4_2/linear -> conv4_2/linear
I0105 00:02:46.213363 24353 net.cpp:150] Setting up conv4_2/linear
I0105 00:02:46.213415 24353 net.cpp:157] Top shape: 12 32 48 48 (884736)
I0105 00:02:46.213424 24353 net.cpp:165] Memory required for data: 2946119068
I0105 00:02:46.213440 24353 layer_factory.hpp:77] Creating layer conv4_2/linear/bn
I0105 00:02:46.213461 24353 net.cpp:100] Creating Layer conv4_2/linear/bn
I0105 00:02:46.213474 24353 net.cpp:434] conv4_2/linear/bn <- conv4_2/linear
I0105 00:02:46.213485 24353 net.cpp:408] conv4_2/linear/bn -> conv4_2/linear/bn
I0105 00:02:46.213840 24353 net.cpp:150] Setting up conv4_2/linear/bn
I0105 00:02:46.213852 24353 net.cpp:157] Top shape: 12 32 48 48 (884736)
I0105 00:02:46.213858 24353 net.cpp:165] Memory required for data: 2949658012
I0105 00:02:46.213873 24353 layer_factory.hpp:77] Creating layer conv4_2/linear/scale
I0105 00:02:46.213889 24353 net.cpp:100] Creating Layer conv4_2/linear/scale
I0105 00:02:46.213897 24353 net.cpp:434] conv4_2/linear/scale <- conv4_2/linear/bn
I0105 00:02:46.213907 24353 net.cpp:395] conv4_2/linear/scale -> conv4_2/linear/bn (in-place)
I0105 00:02:46.213982 24353 layer_factory.hpp:77] Creating layer conv4_2/linear/scale
I0105 00:02:46.214152 24353 net.cpp:150] Setting up conv4_2/linear/scale
I0105 00:02:46.214167 24353 net.cpp:157] Top shape: 12 32 48 48 (884736)
I0105 00:02:46.214175 24353 net.cpp:165] Memory required for data: 2953196956
I0105 00:02:46.214185 24353 layer_factory.hpp:77] Creating layer block_4_2
I0105 00:02:46.214197 24353 net.cpp:100] Creating Layer block_4_2
I0105 00:02:46.214205 24353 net.cpp:434] block_4_2 <- block_4_1_block_4_1_0_split_1
I0105 00:02:46.214213 24353 net.cpp:434] block_4_2 <- conv4_2/linear/bn
I0105 00:02:46.214224 24353 net.cpp:408] block_4_2 -> block_4_2
I0105 00:02:46.214267 24353 net.cpp:150] Setting up block_4_2
I0105 00:02:46.214279 24353 net.cpp:157] Top shape: 12 32 48 48 (884736)
I0105 00:02:46.214284 24353 net.cpp:165] Memory required for data: 2956735900
I0105 00:02:46.214290 24353 layer_factory.hpp:77] Creating layer conv4_3/expand
I0105 00:02:46.214303 24353 net.cpp:100] Creating Layer conv4_3/expand
I0105 00:02:46.214308 24353 net.cpp:434] conv4_3/expand <- block_4_2
I0105 00:02:46.214315 24353 net.cpp:408] conv4_3/expand -> conv4_3/expand
I0105 00:02:46.215670 24353 net.cpp:150] Setting up conv4_3/expand
I0105 00:02:46.215687 24353 net.cpp:157] Top shape: 12 192 48 48 (5308416)
I0105 00:02:46.215692 24353 net.cpp:165] Memory required for data: 2977969564
I0105 00:02:46.215705 24353 layer_factory.hpp:77] Creating layer conv4_3/expand/bn
I0105 00:02:46.215719 24353 net.cpp:100] Creating Layer conv4_3/expand/bn
I0105 00:02:46.215729 24353 net.cpp:434] conv4_3/expand/bn <- conv4_3/expand
I0105 00:02:46.215739 24353 net.cpp:408] conv4_3/expand/bn -> conv4_3/expand/bn
I0105 00:02:46.216082 24353 net.cpp:150] Setting up conv4_3/expand/bn
I0105 00:02:46.216096 24353 net.cpp:157] Top shape: 12 192 48 48 (5308416)
I0105 00:02:46.216104 24353 net.cpp:165] Memory required for data: 2999203228
I0105 00:02:46.216117 24353 layer_factory.hpp:77] Creating layer conv4_3/expand/scale
I0105 00:02:46.216130 24353 net.cpp:100] Creating Layer conv4_3/expand/scale
I0105 00:02:46.216138 24353 net.cpp:434] conv4_3/expand/scale <- conv4_3/expand/bn
I0105 00:02:46.216147 24353 net.cpp:395] conv4_3/expand/scale -> conv4_3/expand/bn (in-place)
I0105 00:02:46.216215 24353 layer_factory.hpp:77] Creating layer conv4_3/expand/scale
I0105 00:02:46.216392 24353 net.cpp:150] Setting up conv4_3/expand/scale
I0105 00:02:46.216408 24353 net.cpp:157] Top shape: 12 192 48 48 (5308416)
I0105 00:02:46.216415 24353 net.cpp:165] Memory required for data: 3020436892
I0105 00:02:46.216425 24353 layer_factory.hpp:77] Creating layer relu4_3/expand
I0105 00:02:46.216436 24353 net.cpp:100] Creating Layer relu4_3/expand
I0105 00:02:46.216444 24353 net.cpp:434] relu4_3/expand <- conv4_3/expand/bn
I0105 00:02:46.216452 24353 net.cpp:395] relu4_3/expand -> conv4_3/expand/bn (in-place)
I0105 00:02:46.216702 24353 net.cpp:150] Setting up relu4_3/expand
I0105 00:02:46.216714 24353 net.cpp:157] Top shape: 12 192 48 48 (5308416)
I0105 00:02:46.216719 24353 net.cpp:165] Memory required for data: 3041670556
I0105 00:02:46.216725 24353 layer_factory.hpp:77] Creating layer conv4_3/dwise
I0105 00:02:46.216737 24353 net.cpp:100] Creating Layer conv4_3/dwise
I0105 00:02:46.216743 24353 net.cpp:434] conv4_3/dwise <- conv4_3/expand/bn
I0105 00:02:46.216750 24353 net.cpp:408] conv4_3/dwise -> conv4_3/dwise
I0105 00:02:46.217025 24353 net.cpp:150] Setting up conv4_3/dwise
I0105 00:02:46.217034 24353 net.cpp:157] Top shape: 12 192 48 48 (5308416)
I0105 00:02:46.217038 24353 net.cpp:165] Memory required for data: 3062904220
I0105 00:02:46.217044 24353 layer_factory.hpp:77] Creating layer conv4_3/dwise/bn
I0105 00:02:46.217052 24353 net.cpp:100] Creating Layer conv4_3/dwise/bn
I0105 00:02:46.217057 24353 net.cpp:434] conv4_3/dwise/bn <- conv4_3/dwise
I0105 00:02:46.217065 24353 net.cpp:408] conv4_3/dwise/bn -> conv4_3/dwise/bn
I0105 00:02:46.217305 24353 net.cpp:150] Setting up conv4_3/dwise/bn
I0105 00:02:46.217314 24353 net.cpp:157] Top shape: 12 192 48 48 (5308416)
I0105 00:02:46.217320 24353 net.cpp:165] Memory required for data: 3084137884
I0105 00:02:46.217331 24353 layer_factory.hpp:77] Creating layer conv4_3/dwise/scale
I0105 00:02:46.217340 24353 net.cpp:100] Creating Layer conv4_3/dwise/scale
I0105 00:02:46.217346 24353 net.cpp:434] conv4_3/dwise/scale <- conv4_3/dwise/bn
I0105 00:02:46.217351 24353 net.cpp:395] conv4_3/dwise/scale -> conv4_3/dwise/bn (in-place)
I0105 00:02:46.217401 24353 layer_factory.hpp:77] Creating layer conv4_3/dwise/scale
I0105 00:02:46.217522 24353 net.cpp:150] Setting up conv4_3/dwise/scale
I0105 00:02:46.217531 24353 net.cpp:157] Top shape: 12 192 48 48 (5308416)
I0105 00:02:46.217535 24353 net.cpp:165] Memory required for data: 3105371548
I0105 00:02:46.217541 24353 layer_factory.hpp:77] Creating layer relu4_3/dwise
I0105 00:02:46.217550 24353 net.cpp:100] Creating Layer relu4_3/dwise
I0105 00:02:46.217555 24353 net.cpp:434] relu4_3/dwise <- conv4_3/dwise/bn
I0105 00:02:46.217559 24353 net.cpp:395] relu4_3/dwise -> conv4_3/dwise/bn (in-place)
I0105 00:02:46.217746 24353 net.cpp:150] Setting up relu4_3/dwise
I0105 00:02:46.217756 24353 net.cpp:157] Top shape: 12 192 48 48 (5308416)
I0105 00:02:46.217761 24353 net.cpp:165] Memory required for data: 3126605212
I0105 00:02:46.217767 24353 layer_factory.hpp:77] Creating layer conv4_3/linear
I0105 00:02:46.217777 24353 net.cpp:100] Creating Layer conv4_3/linear
I0105 00:02:46.217782 24353 net.cpp:434] conv4_3/linear <- conv4_3/dwise/bn
I0105 00:02:46.217789 24353 net.cpp:408] conv4_3/linear -> conv4_3/linear
I0105 00:02:46.219326 24353 net.cpp:150] Setting up conv4_3/linear
I0105 00:02:46.219341 24353 net.cpp:157] Top shape: 12 64 48 48 (1769472)
I0105 00:02:46.219347 24353 net.cpp:165] Memory required for data: 3133683100
I0105 00:02:46.219352 24353 layer_factory.hpp:77] Creating layer conv4_3/linear/bn
I0105 00:02:46.219359 24353 net.cpp:100] Creating Layer conv4_3/linear/bn
I0105 00:02:46.219364 24353 net.cpp:434] conv4_3/linear/bn <- conv4_3/linear
I0105 00:02:46.219372 24353 net.cpp:408] conv4_3/linear/bn -> conv4_3/linear/bn
I0105 00:02:46.219609 24353 net.cpp:150] Setting up conv4_3/linear/bn
I0105 00:02:46.219617 24353 net.cpp:157] Top shape: 12 64 48 48 (1769472)
I0105 00:02:46.219622 24353 net.cpp:165] Memory required for data: 3140760988
I0105 00:02:46.219645 24353 layer_factory.hpp:77] Creating layer conv4_3/linear/scale
I0105 00:02:46.219655 24353 net.cpp:100] Creating Layer conv4_3/linear/scale
I0105 00:02:46.219660 24353 net.cpp:434] conv4_3/linear/scale <- conv4_3/linear/bn
I0105 00:02:46.219666 24353 net.cpp:395] conv4_3/linear/scale -> conv4_3/linear/bn (in-place)
I0105 00:02:46.219713 24353 layer_factory.hpp:77] Creating layer conv4_3/linear/scale
I0105 00:02:46.219847 24353 net.cpp:150] Setting up conv4_3/linear/scale
I0105 00:02:46.219859 24353 net.cpp:157] Top shape: 12 64 48 48 (1769472)
I0105 00:02:46.219864 24353 net.cpp:165] Memory required for data: 3147838876
I0105 00:02:46.219873 24353 layer_factory.hpp:77] Creating layer conv4_3/linear/bn_conv4_3/linear/scale_0_split
I0105 00:02:46.219882 24353 net.cpp:100] Creating Layer conv4_3/linear/bn_conv4_3/linear/scale_0_split
I0105 00:02:46.219888 24353 net.cpp:434] conv4_3/linear/bn_conv4_3/linear/scale_0_split <- conv4_3/linear/bn
I0105 00:02:46.219895 24353 net.cpp:408] conv4_3/linear/bn_conv4_3/linear/scale_0_split -> conv4_3/linear/bn_conv4_3/linear/scale_0_split_0
I0105 00:02:46.219905 24353 net.cpp:408] conv4_3/linear/bn_conv4_3/linear/scale_0_split -> conv4_3/linear/bn_conv4_3/linear/scale_0_split_1
I0105 00:02:46.219955 24353 net.cpp:150] Setting up conv4_3/linear/bn_conv4_3/linear/scale_0_split
I0105 00:02:46.219964 24353 net.cpp:157] Top shape: 12 64 48 48 (1769472)
I0105 00:02:46.219972 24353 net.cpp:157] Top shape: 12 64 48 48 (1769472)
I0105 00:02:46.219977 24353 net.cpp:165] Memory required for data: 3161994652
I0105 00:02:46.219982 24353 layer_factory.hpp:77] Creating layer conv4_4/expand
I0105 00:02:46.219992 24353 net.cpp:100] Creating Layer conv4_4/expand
I0105 00:02:46.219997 24353 net.cpp:434] conv4_4/expand <- conv4_3/linear/bn_conv4_3/linear/scale_0_split_0
I0105 00:02:46.220007 24353 net.cpp:408] conv4_4/expand -> conv4_4/expand
I0105 00:02:46.222065 24353 net.cpp:150] Setting up conv4_4/expand
I0105 00:02:46.222081 24353 net.cpp:157] Top shape: 12 384 48 48 (10616832)
I0105 00:02:46.222086 24353 net.cpp:165] Memory required for data: 3204461980
I0105 00:02:46.222093 24353 layer_factory.hpp:77] Creating layer conv4_4/expand/bn
I0105 00:02:46.222103 24353 net.cpp:100] Creating Layer conv4_4/expand/bn
I0105 00:02:46.222108 24353 net.cpp:434] conv4_4/expand/bn <- conv4_4/expand
I0105 00:02:46.222115 24353 net.cpp:408] conv4_4/expand/bn -> conv4_4/expand/bn
I0105 00:02:46.222360 24353 net.cpp:150] Setting up conv4_4/expand/bn
I0105 00:02:46.222368 24353 net.cpp:157] Top shape: 12 384 48 48 (10616832)
I0105 00:02:46.222371 24353 net.cpp:165] Memory required for data: 3246929308
I0105 00:02:46.222379 24353 layer_factory.hpp:77] Creating layer conv4_4/expand/scale
I0105 00:02:46.222388 24353 net.cpp:100] Creating Layer conv4_4/expand/scale
I0105 00:02:46.222393 24353 net.cpp:434] conv4_4/expand/scale <- conv4_4/expand/bn
I0105 00:02:46.222399 24353 net.cpp:395] conv4_4/expand/scale -> conv4_4/expand/bn (in-place)
I0105 00:02:46.222442 24353 layer_factory.hpp:77] Creating layer conv4_4/expand/scale
I0105 00:02:46.222568 24353 net.cpp:150] Setting up conv4_4/expand/scale
I0105 00:02:46.222576 24353 net.cpp:157] Top shape: 12 384 48 48 (10616832)
I0105 00:02:46.222580 24353 net.cpp:165] Memory required for data: 3289396636
I0105 00:02:46.222587 24353 layer_factory.hpp:77] Creating layer relu4_4/expand
I0105 00:02:46.222594 24353 net.cpp:100] Creating Layer relu4_4/expand
I0105 00:02:46.222599 24353 net.cpp:434] relu4_4/expand <- conv4_4/expand/bn
I0105 00:02:46.222604 24353 net.cpp:395] relu4_4/expand -> conv4_4/expand/bn (in-place)
I0105 00:02:46.222836 24353 net.cpp:150] Setting up relu4_4/expand
I0105 00:02:46.222846 24353 net.cpp:157] Top shape: 12 384 48 48 (10616832)
I0105 00:02:46.222851 24353 net.cpp:165] Memory required for data: 3331863964
I0105 00:02:46.222854 24353 layer_factory.hpp:77] Creating layer conv4_4/dwise
I0105 00:02:46.222865 24353 net.cpp:100] Creating Layer conv4_4/dwise
I0105 00:02:46.222870 24353 net.cpp:434] conv4_4/dwise <- conv4_4/expand/bn
I0105 00:02:46.222877 24353 net.cpp:408] conv4_4/dwise -> conv4_4/dwise
I0105 00:02:46.223201 24353 net.cpp:150] Setting up conv4_4/dwise
I0105 00:02:46.223209 24353 net.cpp:157] Top shape: 12 384 48 48 (10616832)
I0105 00:02:46.223212 24353 net.cpp:165] Memory required for data: 3374331292
I0105 00:02:46.223219 24353 layer_factory.hpp:77] Creating layer conv4_4/dwise/bn
I0105 00:02:46.223225 24353 net.cpp:100] Creating Layer conv4_4/dwise/bn
I0105 00:02:46.223229 24353 net.cpp:434] conv4_4/dwise/bn <- conv4_4/dwise
I0105 00:02:46.223240 24353 net.cpp:408] conv4_4/dwise/bn -> conv4_4/dwise/bn
I0105 00:02:46.223469 24353 net.cpp:150] Setting up conv4_4/dwise/bn
I0105 00:02:46.223482 24353 net.cpp:157] Top shape: 12 384 48 48 (10616832)
I0105 00:02:46.223486 24353 net.cpp:165] Memory required for data: 3416798620
I0105 00:02:46.223495 24353 layer_factory.hpp:77] Creating layer conv4_4/dwise/scale
I0105 00:02:46.223501 24353 net.cpp:100] Creating Layer conv4_4/dwise/scale
I0105 00:02:46.223506 24353 net.cpp:434] conv4_4/dwise/scale <- conv4_4/dwise/bn
I0105 00:02:46.223511 24353 net.cpp:395] conv4_4/dwise/scale -> conv4_4/dwise/bn (in-place)
I0105 00:02:46.223551 24353 layer_factory.hpp:77] Creating layer conv4_4/dwise/scale
I0105 00:02:46.223671 24353 net.cpp:150] Setting up conv4_4/dwise/scale
I0105 00:02:46.223678 24353 net.cpp:157] Top shape: 12 384 48 48 (10616832)
I0105 00:02:46.223682 24353 net.cpp:165] Memory required for data: 3459265948
I0105 00:02:46.223688 24353 layer_factory.hpp:77] Creating layer relu4_4/dwise
I0105 00:02:46.223693 24353 net.cpp:100] Creating Layer relu4_4/dwise
I0105 00:02:46.223698 24353 net.cpp:434] relu4_4/dwise <- conv4_4/dwise/bn
I0105 00:02:46.223704 24353 net.cpp:395] relu4_4/dwise -> conv4_4/dwise/bn (in-place)
I0105 00:02:46.224231 24353 net.cpp:150] Setting up relu4_4/dwise
I0105 00:02:46.224241 24353 net.cpp:157] Top shape: 12 384 48 48 (10616832)
I0105 00:02:46.224244 24353 net.cpp:165] Memory required for data: 3501733276
I0105 00:02:46.224247 24353 layer_factory.hpp:77] Creating layer conv4_4/linear
I0105 00:02:46.224256 24353 net.cpp:100] Creating Layer conv4_4/linear
I0105 00:02:46.224261 24353 net.cpp:434] conv4_4/linear <- conv4_4/dwise/bn
I0105 00:02:46.224267 24353 net.cpp:408] conv4_4/linear -> conv4_4/linear
I0105 00:02:46.225775 24353 net.cpp:150] Setting up conv4_4/linear
I0105 00:02:46.225786 24353 net.cpp:157] Top shape: 12 64 48 48 (1769472)
I0105 00:02:46.225790 24353 net.cpp:165] Memory required for data: 3508811164
I0105 00:02:46.225795 24353 layer_factory.hpp:77] Creating layer conv4_4/linear/bn
I0105 00:02:46.225800 24353 net.cpp:100] Creating Layer conv4_4/linear/bn
I0105 00:02:46.225805 24353 net.cpp:434] conv4_4/linear/bn <- conv4_4/linear
I0105 00:02:46.225809 24353 net.cpp:408] conv4_4/linear/bn -> conv4_4/linear/bn
I0105 00:02:46.226028 24353 net.cpp:150] Setting up conv4_4/linear/bn
I0105 00:02:46.226037 24353 net.cpp:157] Top shape: 12 64 48 48 (1769472)
I0105 00:02:46.226040 24353 net.cpp:165] Memory required for data: 3515889052
I0105 00:02:46.226049 24353 layer_factory.hpp:77] Creating layer conv4_4/linear/scale
I0105 00:02:46.226094 24353 net.cpp:100] Creating Layer conv4_4/linear/scale
I0105 00:02:46.226100 24353 net.cpp:434] conv4_4/linear/scale <- conv4_4/linear/bn
I0105 00:02:46.226107 24353 net.cpp:395] conv4_4/linear/scale -> conv4_4/linear/bn (in-place)
I0105 00:02:46.226164 24353 layer_factory.hpp:77] Creating layer conv4_4/linear/scale
I0105 00:02:46.226307 24353 net.cpp:150] Setting up conv4_4/linear/scale
I0105 00:02:46.226316 24353 net.cpp:157] Top shape: 12 64 48 48 (1769472)
I0105 00:02:46.226320 24353 net.cpp:165] Memory required for data: 3522966940
I0105 00:02:46.226328 24353 layer_factory.hpp:77] Creating layer block_4_4
I0105 00:02:46.226336 24353 net.cpp:100] Creating Layer block_4_4
I0105 00:02:46.226341 24353 net.cpp:434] block_4_4 <- conv4_3/linear/bn_conv4_3/linear/scale_0_split_1
I0105 00:02:46.226346 24353 net.cpp:434] block_4_4 <- conv4_4/linear/bn
I0105 00:02:46.226354 24353 net.cpp:408] block_4_4 -> block_4_4
I0105 00:02:46.226383 24353 net.cpp:150] Setting up block_4_4
I0105 00:02:46.226390 24353 net.cpp:157] Top shape: 12 64 48 48 (1769472)
I0105 00:02:46.226394 24353 net.cpp:165] Memory required for data: 3530044828
I0105 00:02:46.226398 24353 layer_factory.hpp:77] Creating layer block_4_4_block_4_4_0_split
I0105 00:02:46.226406 24353 net.cpp:100] Creating Layer block_4_4_block_4_4_0_split
I0105 00:02:46.226411 24353 net.cpp:434] block_4_4_block_4_4_0_split <- block_4_4
I0105 00:02:46.226418 24353 net.cpp:408] block_4_4_block_4_4_0_split -> block_4_4_block_4_4_0_split_0
I0105 00:02:46.226424 24353 net.cpp:408] block_4_4_block_4_4_0_split -> block_4_4_block_4_4_0_split_1
I0105 00:02:46.226466 24353 net.cpp:150] Setting up block_4_4_block_4_4_0_split
I0105 00:02:46.226474 24353 net.cpp:157] Top shape: 12 64 48 48 (1769472)
I0105 00:02:46.226480 24353 net.cpp:157] Top shape: 12 64 48 48 (1769472)
I0105 00:02:46.226483 24353 net.cpp:165] Memory required for data: 3544200604
I0105 00:02:46.226487 24353 layer_factory.hpp:77] Creating layer conv4_5/expand
I0105 00:02:46.226495 24353 net.cpp:100] Creating Layer conv4_5/expand
I0105 00:02:46.226500 24353 net.cpp:434] conv4_5/expand <- block_4_4_block_4_4_0_split_0
I0105 00:02:46.226510 24353 net.cpp:408] conv4_5/expand -> conv4_5/expand
I0105 00:02:46.228042 24353 net.cpp:150] Setting up conv4_5/expand
I0105 00:02:46.228056 24353 net.cpp:157] Top shape: 12 384 48 48 (10616832)
I0105 00:02:46.228060 24353 net.cpp:165] Memory required for data: 3586667932
I0105 00:02:46.228065 24353 layer_factory.hpp:77] Creating layer conv4_5/expand/bn
I0105 00:02:46.228071 24353 net.cpp:100] Creating Layer conv4_5/expand/bn
I0105 00:02:46.228075 24353 net.cpp:434] conv4_5/expand/bn <- conv4_5/expand
I0105 00:02:46.228081 24353 net.cpp:408] conv4_5/expand/bn -> conv4_5/expand/bn
I0105 00:02:46.228269 24353 net.cpp:150] Setting up conv4_5/expand/bn
I0105 00:02:46.228276 24353 net.cpp:157] Top shape: 12 384 48 48 (10616832)
I0105 00:02:46.228279 24353 net.cpp:165] Memory required for data: 3629135260
I0105 00:02:46.228287 24353 layer_factory.hpp:77] Creating layer conv4_5/expand/scale
I0105 00:02:46.228294 24353 net.cpp:100] Creating Layer conv4_5/expand/scale
I0105 00:02:46.228298 24353 net.cpp:434] conv4_5/expand/scale <- conv4_5/expand/bn
I0105 00:02:46.228302 24353 net.cpp:395] conv4_5/expand/scale -> conv4_5/expand/bn (in-place)
I0105 00:02:46.228339 24353 layer_factory.hpp:77] Creating layer conv4_5/expand/scale
I0105 00:02:46.228441 24353 net.cpp:150] Setting up conv4_5/expand/scale
I0105 00:02:46.228447 24353 net.cpp:157] Top shape: 12 384 48 48 (10616832)
I0105 00:02:46.228451 24353 net.cpp:165] Memory required for data: 3671602588
I0105 00:02:46.228456 24353 layer_factory.hpp:77] Creating layer relu4_5/expand
I0105 00:02:46.228461 24353 net.cpp:100] Creating Layer relu4_5/expand
I0105 00:02:46.228464 24353 net.cpp:434] relu4_5/expand <- conv4_5/expand/bn
I0105 00:02:46.228469 24353 net.cpp:395] relu4_5/expand -> conv4_5/expand/bn (in-place)
I0105 00:02:46.228978 24353 net.cpp:150] Setting up relu4_5/expand
I0105 00:02:46.228988 24353 net.cpp:157] Top shape: 12 384 48 48 (10616832)
I0105 00:02:46.228991 24353 net.cpp:165] Memory required for data: 3714069916
I0105 00:02:46.228996 24353 layer_factory.hpp:77] Creating layer conv4_5/dwise
I0105 00:02:46.229005 24353 net.cpp:100] Creating Layer conv4_5/dwise
I0105 00:02:46.229008 24353 net.cpp:434] conv4_5/dwise <- conv4_5/expand/bn
I0105 00:02:46.229015 24353 net.cpp:408] conv4_5/dwise -> conv4_5/dwise
I0105 00:02:46.229277 24353 net.cpp:150] Setting up conv4_5/dwise
I0105 00:02:46.229284 24353 net.cpp:157] Top shape: 12 384 48 48 (10616832)
I0105 00:02:46.229286 24353 net.cpp:165] Memory required for data: 3756537244
I0105 00:02:46.229291 24353 layer_factory.hpp:77] Creating layer conv4_5/dwise/bn
I0105 00:02:46.229296 24353 net.cpp:100] Creating Layer conv4_5/dwise/bn
I0105 00:02:46.229300 24353 net.cpp:434] conv4_5/dwise/bn <- conv4_5/dwise
I0105 00:02:46.229305 24353 net.cpp:408] conv4_5/dwise/bn -> conv4_5/dwise/bn
I0105 00:02:46.229485 24353 net.cpp:150] Setting up conv4_5/dwise/bn
I0105 00:02:46.229491 24353 net.cpp:157] Top shape: 12 384 48 48 (10616832)
I0105 00:02:46.229495 24353 net.cpp:165] Memory required for data: 3799004572
I0105 00:02:46.229501 24353 layer_factory.hpp:77] Creating layer conv4_5/dwise/scale
I0105 00:02:46.229507 24353 net.cpp:100] Creating Layer conv4_5/dwise/scale
I0105 00:02:46.229511 24353 net.cpp:434] conv4_5/dwise/scale <- conv4_5/dwise/bn
I0105 00:02:46.229516 24353 net.cpp:395] conv4_5/dwise/scale -> conv4_5/dwise/bn (in-place)
I0105 00:02:46.229548 24353 layer_factory.hpp:77] Creating layer conv4_5/dwise/scale
I0105 00:02:46.229643 24353 net.cpp:150] Setting up conv4_5/dwise/scale
I0105 00:02:46.229650 24353 net.cpp:157] Top shape: 12 384 48 48 (10616832)
I0105 00:02:46.229652 24353 net.cpp:165] Memory required for data: 3841471900
I0105 00:02:46.229657 24353 layer_factory.hpp:77] Creating layer relu4_5/dwise
I0105 00:02:46.229662 24353 net.cpp:100] Creating Layer relu4_5/dwise
I0105 00:02:46.229666 24353 net.cpp:434] relu4_5/dwise <- conv4_5/dwise/bn
I0105 00:02:46.229671 24353 net.cpp:395] relu4_5/dwise -> conv4_5/dwise/bn (in-place)
I0105 00:02:46.229830 24353 net.cpp:150] Setting up relu4_5/dwise
I0105 00:02:46.229836 24353 net.cpp:157] Top shape: 12 384 48 48 (10616832)
I0105 00:02:46.229840 24353 net.cpp:165] Memory required for data: 3883939228
I0105 00:02:46.229842 24353 layer_factory.hpp:77] Creating layer conv4_5/linear
I0105 00:02:46.229851 24353 net.cpp:100] Creating Layer conv4_5/linear
I0105 00:02:46.229856 24353 net.cpp:434] conv4_5/linear <- conv4_5/dwise/bn
I0105 00:02:46.229861 24353 net.cpp:408] conv4_5/linear -> conv4_5/linear
I0105 00:02:46.233373 24353 net.cpp:150] Setting up conv4_5/linear
I0105 00:02:46.233387 24353 net.cpp:157] Top shape: 12 64 48 48 (1769472)
I0105 00:02:46.233392 24353 net.cpp:165] Memory required for data: 3891017116
I0105 00:02:46.233397 24353 layer_factory.hpp:77] Creating layer conv4_5/linear/bn
I0105 00:02:46.233404 24353 net.cpp:100] Creating Layer conv4_5/linear/bn
I0105 00:02:46.233408 24353 net.cpp:434] conv4_5/linear/bn <- conv4_5/linear
I0105 00:02:46.233414 24353 net.cpp:408] conv4_5/linear/bn -> conv4_5/linear/bn
I0105 00:02:46.233602 24353 net.cpp:150] Setting up conv4_5/linear/bn
I0105 00:02:46.233609 24353 net.cpp:157] Top shape: 12 64 48 48 (1769472)
I0105 00:02:46.233613 24353 net.cpp:165] Memory required for data: 3898095004
I0105 00:02:46.233619 24353 layer_factory.hpp:77] Creating layer conv4_5/linear/scale
I0105 00:02:46.233626 24353 net.cpp:100] Creating Layer conv4_5/linear/scale
I0105 00:02:46.233629 24353 net.cpp:434] conv4_5/linear/scale <- conv4_5/linear/bn
I0105 00:02:46.233636 24353 net.cpp:395] conv4_5/linear/scale -> conv4_5/linear/bn (in-place)
I0105 00:02:46.233671 24353 layer_factory.hpp:77] Creating layer conv4_5/linear/scale
I0105 00:02:46.233769 24353 net.cpp:150] Setting up conv4_5/linear/scale
I0105 00:02:46.233777 24353 net.cpp:157] Top shape: 12 64 48 48 (1769472)
I0105 00:02:46.233779 24353 net.cpp:165] Memory required for data: 3905172892
I0105 00:02:46.233785 24353 layer_factory.hpp:77] Creating layer block_4_5
I0105 00:02:46.233790 24353 net.cpp:100] Creating Layer block_4_5
I0105 00:02:46.233795 24353 net.cpp:434] block_4_5 <- block_4_4_block_4_4_0_split_1
I0105 00:02:46.233799 24353 net.cpp:434] block_4_5 <- conv4_5/linear/bn
I0105 00:02:46.233805 24353 net.cpp:408] block_4_5 -> block_4_5
I0105 00:02:46.233825 24353 net.cpp:150] Setting up block_4_5
I0105 00:02:46.233834 24353 net.cpp:157] Top shape: 12 64 48 48 (1769472)
I0105 00:02:46.233836 24353 net.cpp:165] Memory required for data: 3912250780
I0105 00:02:46.233840 24353 layer_factory.hpp:77] Creating layer block_4_5_block_4_5_0_split
I0105 00:02:46.233846 24353 net.cpp:100] Creating Layer block_4_5_block_4_5_0_split
I0105 00:02:46.233850 24353 net.cpp:434] block_4_5_block_4_5_0_split <- block_4_5
I0105 00:02:46.233855 24353 net.cpp:408] block_4_5_block_4_5_0_split -> block_4_5_block_4_5_0_split_0
I0105 00:02:46.233860 24353 net.cpp:408] block_4_5_block_4_5_0_split -> block_4_5_block_4_5_0_split_1
I0105 00:02:46.233891 24353 net.cpp:150] Setting up block_4_5_block_4_5_0_split
I0105 00:02:46.233898 24353 net.cpp:157] Top shape: 12 64 48 48 (1769472)
I0105 00:02:46.233902 24353 net.cpp:157] Top shape: 12 64 48 48 (1769472)
I0105 00:02:46.233906 24353 net.cpp:165] Memory required for data: 3926406556
I0105 00:02:46.233909 24353 layer_factory.hpp:77] Creating layer conv4_6/expand
I0105 00:02:46.233917 24353 net.cpp:100] Creating Layer conv4_6/expand
I0105 00:02:46.233922 24353 net.cpp:434] conv4_6/expand <- block_4_5_block_4_5_0_split_0
I0105 00:02:46.233927 24353 net.cpp:408] conv4_6/expand -> conv4_6/expand
I0105 00:02:46.235464 24353 net.cpp:150] Setting up conv4_6/expand
I0105 00:02:46.235478 24353 net.cpp:157] Top shape: 12 384 48 48 (10616832)
I0105 00:02:46.235482 24353 net.cpp:165] Memory required for data: 3968873884
I0105 00:02:46.235487 24353 layer_factory.hpp:77] Creating layer conv4_6/expand/bn
I0105 00:02:46.235493 24353 net.cpp:100] Creating Layer conv4_6/expand/bn
I0105 00:02:46.235497 24353 net.cpp:434] conv4_6/expand/bn <- conv4_6/expand
I0105 00:02:46.235503 24353 net.cpp:408] conv4_6/expand/bn -> conv4_6/expand/bn
I0105 00:02:46.235682 24353 net.cpp:150] Setting up conv4_6/expand/bn
I0105 00:02:46.235687 24353 net.cpp:157] Top shape: 12 384 48 48 (10616832)
I0105 00:02:46.235690 24353 net.cpp:165] Memory required for data: 4011341212
I0105 00:02:46.235697 24353 layer_factory.hpp:77] Creating layer conv4_6/expand/scale
I0105 00:02:46.235705 24353 net.cpp:100] Creating Layer conv4_6/expand/scale
I0105 00:02:46.235708 24353 net.cpp:434] conv4_6/expand/scale <- conv4_6/expand/bn
I0105 00:02:46.235713 24353 net.cpp:395] conv4_6/expand/scale -> conv4_6/expand/bn (in-place)
I0105 00:02:46.235743 24353 layer_factory.hpp:77] Creating layer conv4_6/expand/scale
I0105 00:02:46.235836 24353 net.cpp:150] Setting up conv4_6/expand/scale
I0105 00:02:46.235841 24353 net.cpp:157] Top shape: 12 384 48 48 (10616832)
I0105 00:02:46.235844 24353 net.cpp:165] Memory required for data: 4053808540
I0105 00:02:46.235850 24353 layer_factory.hpp:77] Creating layer relu4_6/expand
I0105 00:02:46.235855 24353 net.cpp:100] Creating Layer relu4_6/expand
I0105 00:02:46.235858 24353 net.cpp:434] relu4_6/expand <- conv4_6/expand/bn
I0105 00:02:46.235863 24353 net.cpp:395] relu4_6/expand -> conv4_6/expand/bn (in-place)
I0105 00:02:46.236012 24353 net.cpp:150] Setting up relu4_6/expand
I0105 00:02:46.236018 24353 net.cpp:157] Top shape: 12 384 48 48 (10616832)
I0105 00:02:46.236022 24353 net.cpp:165] Memory required for data: 4096275868
I0105 00:02:46.236026 24353 layer_factory.hpp:77] Creating layer conv4_6/dwise
I0105 00:02:46.236032 24353 net.cpp:100] Creating Layer conv4_6/dwise
I0105 00:02:46.236037 24353 net.cpp:434] conv4_6/dwise <- conv4_6/expand/bn
I0105 00:02:46.236042 24353 net.cpp:408] conv4_6/dwise -> conv4_6/dwise
I0105 00:02:46.236292 24353 net.cpp:150] Setting up conv4_6/dwise
I0105 00:02:46.236299 24353 net.cpp:157] Top shape: 12 384 48 48 (10616832)
I0105 00:02:46.236301 24353 net.cpp:165] Memory required for data: 4138743196
I0105 00:02:46.236305 24353 layer_factory.hpp:77] Creating layer conv4_6/dwise/bn
I0105 00:02:46.236311 24353 net.cpp:100] Creating Layer conv4_6/dwise/bn
I0105 00:02:46.236315 24353 net.cpp:434] conv4_6/dwise/bn <- conv4_6/dwise
I0105 00:02:46.236320 24353 net.cpp:408] conv4_6/dwise/bn -> conv4_6/dwise/bn
I0105 00:02:46.236490 24353 net.cpp:150] Setting up conv4_6/dwise/bn
I0105 00:02:46.236496 24353 net.cpp:157] Top shape: 12 384 48 48 (10616832)
I0105 00:02:46.236500 24353 net.cpp:165] Memory required for data: 4181210524
I0105 00:02:46.236505 24353 layer_factory.hpp:77] Creating layer conv4_6/dwise/scale
I0105 00:02:46.236519 24353 net.cpp:100] Creating Layer conv4_6/dwise/scale
I0105 00:02:46.236523 24353 net.cpp:434] conv4_6/dwise/scale <- conv4_6/dwise/bn
I0105 00:02:46.236528 24353 net.cpp:395] conv4_6/dwise/scale -> conv4_6/dwise/bn (in-place)
I0105 00:02:46.236559 24353 layer_factory.hpp:77] Creating layer conv4_6/dwise/scale
I0105 00:02:46.236657 24353 net.cpp:150] Setting up conv4_6/dwise/scale
I0105 00:02:46.236662 24353 net.cpp:157] Top shape: 12 384 48 48 (10616832)
I0105 00:02:46.236665 24353 net.cpp:165] Memory required for data: 4223677852
I0105 00:02:46.236671 24353 layer_factory.hpp:77] Creating layer relu4_6/dwise
I0105 00:02:46.236676 24353 net.cpp:100] Creating Layer relu4_6/dwise
I0105 00:02:46.236681 24353 net.cpp:434] relu4_6/dwise <- conv4_6/dwise/bn
I0105 00:02:46.236685 24353 net.cpp:395] relu4_6/dwise -> conv4_6/dwise/bn (in-place)
I0105 00:02:46.236831 24353 net.cpp:150] Setting up relu4_6/dwise
I0105 00:02:46.236838 24353 net.cpp:157] Top shape: 12 384 48 48 (10616832)
I0105 00:02:46.236842 24353 net.cpp:165] Memory required for data: 4266145180
I0105 00:02:46.236845 24353 layer_factory.hpp:77] Creating layer conv4_6/linear
I0105 00:02:46.236852 24353 net.cpp:100] Creating Layer conv4_6/linear
I0105 00:02:46.236856 24353 net.cpp:434] conv4_6/linear <- conv4_6/dwise/bn
I0105 00:02:46.236861 24353 net.cpp:408] conv4_6/linear -> conv4_6/linear
I0105 00:02:46.238369 24353 net.cpp:150] Setting up conv4_6/linear
I0105 00:02:46.238380 24353 net.cpp:157] Top shape: 12 64 48 48 (1769472)
I0105 00:02:46.238384 24353 net.cpp:165] Memory required for data: 4273223068
I0105 00:02:46.238389 24353 layer_factory.hpp:77] Creating layer conv4_6/linear/bn
I0105 00:02:46.238395 24353 net.cpp:100] Creating Layer conv4_6/linear/bn
I0105 00:02:46.238399 24353 net.cpp:434] conv4_6/linear/bn <- conv4_6/linear
I0105 00:02:46.238405 24353 net.cpp:408] conv4_6/linear/bn -> conv4_6/linear/bn
I0105 00:02:46.238589 24353 net.cpp:150] Setting up conv4_6/linear/bn
I0105 00:02:46.238595 24353 net.cpp:157] Top shape: 12 64 48 48 (1769472)
I0105 00:02:46.238597 24353 net.cpp:165] Memory required for data: 4280300956
I0105 00:02:46.238603 24353 layer_factory.hpp:77] Creating layer conv4_6/linear/scale
I0105 00:02:46.238608 24353 net.cpp:100] Creating Layer conv4_6/linear/scale
I0105 00:02:46.238612 24353 net.cpp:434] conv4_6/linear/scale <- conv4_6/linear/bn
I0105 00:02:46.238617 24353 net.cpp:395] conv4_6/linear/scale -> conv4_6/linear/bn (in-place)
I0105 00:02:46.238652 24353 layer_factory.hpp:77] Creating layer conv4_6/linear/scale
I0105 00:02:46.238751 24353 net.cpp:150] Setting up conv4_6/linear/scale
I0105 00:02:46.238757 24353 net.cpp:157] Top shape: 12 64 48 48 (1769472)
I0105 00:02:46.238760 24353 net.cpp:165] Memory required for data: 4287378844
I0105 00:02:46.238765 24353 layer_factory.hpp:77] Creating layer block_4_6
I0105 00:02:46.238770 24353 net.cpp:100] Creating Layer block_4_6
I0105 00:02:46.238773 24353 net.cpp:434] block_4_6 <- block_4_5_block_4_5_0_split_1
I0105 00:02:46.238781 24353 net.cpp:434] block_4_6 <- conv4_6/linear/bn
I0105 00:02:46.238787 24353 net.cpp:408] block_4_6 -> block_4_6
I0105 00:02:46.238807 24353 net.cpp:150] Setting up block_4_6
I0105 00:02:46.238813 24353 net.cpp:157] Top shape: 12 64 48 48 (1769472)
I0105 00:02:46.238816 24353 net.cpp:165] Memory required for data: 4294456732
I0105 00:02:46.238819 24353 layer_factory.hpp:77] Creating layer block_4_6_block_4_6_0_split
I0105 00:02:46.238823 24353 net.cpp:100] Creating Layer block_4_6_block_4_6_0_split
I0105 00:02:46.238826 24353 net.cpp:434] block_4_6_block_4_6_0_split <- block_4_6
I0105 00:02:46.238831 24353 net.cpp:408] block_4_6_block_4_6_0_split -> block_4_6_block_4_6_0_split_0
I0105 00:02:46.238837 24353 net.cpp:408] block_4_6_block_4_6_0_split -> block_4_6_block_4_6_0_split_1
I0105 00:02:46.238842 24353 net.cpp:408] block_4_6_block_4_6_0_split -> block_4_6_block_4_6_0_split_2
I0105 00:02:46.238883 24353 net.cpp:150] Setting up block_4_6_block_4_6_0_split
I0105 00:02:46.238888 24353 net.cpp:157] Top shape: 12 64 48 48 (1769472)
I0105 00:02:46.238891 24353 net.cpp:157] Top shape: 12 64 48 48 (1769472)
I0105 00:02:46.238895 24353 net.cpp:157] Top shape: 12 64 48 48 (1769472)
I0105 00:02:46.238898 24353 net.cpp:165] Memory required for data: 4315690396
I0105 00:02:46.238900 24353 layer_factory.hpp:77] Creating layer conv4_7/expand
I0105 00:02:46.238907 24353 net.cpp:100] Creating Layer conv4_7/expand
I0105 00:02:46.238910 24353 net.cpp:434] conv4_7/expand <- block_4_6_block_4_6_0_split_0
I0105 00:02:46.238916 24353 net.cpp:408] conv4_7/expand -> conv4_7/expand
I0105 00:02:46.240417 24353 net.cpp:150] Setting up conv4_7/expand
I0105 00:02:46.240429 24353 net.cpp:157] Top shape: 12 384 48 48 (10616832)
I0105 00:02:46.240433 24353 net.cpp:165] Memory required for data: 4358157724
I0105 00:02:46.240438 24353 layer_factory.hpp:77] Creating layer conv4_7/expand/bn
I0105 00:02:46.240445 24353 net.cpp:100] Creating Layer conv4_7/expand/bn
I0105 00:02:46.240449 24353 net.cpp:434] conv4_7/expand/bn <- conv4_7/expand
I0105 00:02:46.240454 24353 net.cpp:408] conv4_7/expand/bn -> conv4_7/expand/bn
I0105 00:02:46.240633 24353 net.cpp:150] Setting up conv4_7/expand/bn
I0105 00:02:46.240638 24353 net.cpp:157] Top shape: 12 384 48 48 (10616832)
I0105 00:02:46.240641 24353 net.cpp:165] Memory required for data: 4400625052
I0105 00:02:46.240648 24353 layer_factory.hpp:77] Creating layer conv4_7/expand/scale
I0105 00:02:46.240653 24353 net.cpp:100] Creating Layer conv4_7/expand/scale
I0105 00:02:46.240656 24353 net.cpp:434] conv4_7/expand/scale <- conv4_7/expand/bn
I0105 00:02:46.240661 24353 net.cpp:395] conv4_7/expand/scale -> conv4_7/expand/bn (in-place)
I0105 00:02:46.240692 24353 layer_factory.hpp:77] Creating layer conv4_7/expand/scale
I0105 00:02:46.240792 24353 net.cpp:150] Setting up conv4_7/expand/scale
I0105 00:02:46.240797 24353 net.cpp:157] Top shape: 12 384 48 48 (10616832)
I0105 00:02:46.240799 24353 net.cpp:165] Memory required for data: 4443092380
I0105 00:02:46.240805 24353 layer_factory.hpp:77] Creating layer relu4_7/expand
I0105 00:02:46.240811 24353 net.cpp:100] Creating Layer relu4_7/expand
I0105 00:02:46.240814 24353 net.cpp:434] relu4_7/expand <- conv4_7/expand/bn
I0105 00:02:46.240819 24353 net.cpp:395] relu4_7/expand -> conv4_7/expand/bn (in-place)
I0105 00:02:46.240979 24353 net.cpp:150] Setting up relu4_7/expand
I0105 00:02:46.240986 24353 net.cpp:157] Top shape: 12 384 48 48 (10616832)
I0105 00:02:46.240990 24353 net.cpp:165] Memory required for data: 4485559708
I0105 00:02:46.240993 24353 layer_factory.hpp:77] Creating layer loss1_conv1
I0105 00:02:46.241003 24353 net.cpp:100] Creating Layer loss1_conv1
I0105 00:02:46.241008 24353 net.cpp:434] loss1_conv1 <- block_4_6_block_4_6_0_split_1
I0105 00:02:46.241014 24353 net.cpp:408] loss1_conv1 -> loss1_conv1
I0105 00:02:46.242821 24353 net.cpp:150] Setting up loss1_conv1
I0105 00:02:46.242832 24353 net.cpp:157] Top shape: 12 64 48 48 (1769472)
I0105 00:02:46.242836 24353 net.cpp:165] Memory required for data: 4492637596
I0105 00:02:46.242842 24353 layer_factory.hpp:77] Creating layer loss_relu1
I0105 00:02:46.242848 24353 net.cpp:100] Creating Layer loss_relu1
I0105 00:02:46.242852 24353 net.cpp:434] loss_relu1 <- loss1_conv1
I0105 00:02:46.242857 24353 net.cpp:395] loss_relu1 -> loss1_conv1 (in-place)
I0105 00:02:46.243273 24353 net.cpp:150] Setting up loss_relu1
I0105 00:02:46.243283 24353 net.cpp:157] Top shape: 12 64 48 48 (1769472)
I0105 00:02:46.243288 24353 net.cpp:165] Memory required for data: 4499715484
I0105 00:02:46.243290 24353 layer_factory.hpp:77] Creating layer loss1_conv1_loss_relu1_0_split
I0105 00:02:46.243295 24353 net.cpp:100] Creating Layer loss1_conv1_loss_relu1_0_split
I0105 00:02:46.243299 24353 net.cpp:434] loss1_conv1_loss_relu1_0_split <- loss1_conv1
I0105 00:02:46.243304 24353 net.cpp:408] loss1_conv1_loss_relu1_0_split -> loss1_conv1_loss_relu1_0_split_0
I0105 00:02:46.243310 24353 net.cpp:408] loss1_conv1_loss_relu1_0_split -> loss1_conv1_loss_relu1_0_split_1
I0105 00:02:46.243345 24353 net.cpp:150] Setting up loss1_conv1_loss_relu1_0_split
I0105 00:02:46.243350 24353 net.cpp:157] Top shape: 12 64 48 48 (1769472)
I0105 00:02:46.243353 24353 net.cpp:157] Top shape: 12 64 48 48 (1769472)
I0105 00:02:46.243356 24353 net.cpp:165] Memory required for data: 4513871260
I0105 00:02:46.243360 24353 layer_factory.hpp:77] Creating layer LFCN_1_5x5
I0105 00:02:46.243367 24353 net.cpp:100] Creating Layer LFCN_1_5x5
I0105 00:02:46.243371 24353 net.cpp:434] LFCN_1_5x5 <- loss1_conv1_loss_relu1_0_split_0
I0105 00:02:46.243377 24353 net.cpp:408] LFCN_1_5x5 -> LFCN_1_5x5
I0105 00:02:46.244422 24353 net.cpp:150] Setting up LFCN_1_5x5
I0105 00:02:46.244431 24353 net.cpp:157] Top shape: 12 9 48 48 (248832)
I0105 00:02:46.244434 24353 net.cpp:165] Memory required for data: 4514866588
I0105 00:02:46.244441 24353 layer_factory.hpp:77] Creating layer LFCN_1_5x5_LFCN_1_5x5_0_split
I0105 00:02:46.244446 24353 net.cpp:100] Creating Layer LFCN_1_5x5_LFCN_1_5x5_0_split
I0105 00:02:46.244449 24353 net.cpp:434] LFCN_1_5x5_LFCN_1_5x5_0_split <- LFCN_1_5x5
I0105 00:02:46.244454 24353 net.cpp:408] LFCN_1_5x5_LFCN_1_5x5_0_split -> LFCN_1_5x5_LFCN_1_5x5_0_split_0
I0105 00:02:46.244460 24353 net.cpp:408] LFCN_1_5x5_LFCN_1_5x5_0_split -> LFCN_1_5x5_LFCN_1_5x5_0_split_1
I0105 00:02:46.244465 24353 net.cpp:408] LFCN_1_5x5_LFCN_1_5x5_0_split -> LFCN_1_5x5_LFCN_1_5x5_0_split_2
I0105 00:02:46.244508 24353 net.cpp:150] Setting up LFCN_1_5x5_LFCN_1_5x5_0_split
I0105 00:02:46.244513 24353 net.cpp:157] Top shape: 12 9 48 48 (248832)
I0105 00:02:46.244516 24353 net.cpp:157] Top shape: 12 9 48 48 (248832)
I0105 00:02:46.244520 24353 net.cpp:157] Top shape: 12 9 48 48 (248832)
I0105 00:02:46.244524 24353 net.cpp:165] Memory required for data: 4517852572
I0105 00:02:46.244526 24353 layer_factory.hpp:77] Creating layer detection_loss_1_5x5
I0105 00:02:46.244539 24353 net.cpp:100] Creating Layer detection_loss_1_5x5
I0105 00:02:46.244544 24353 net.cpp:434] detection_loss_1_5x5 <- LFCN_1_5x5_LFCN_1_5x5_0_split_0
I0105 00:02:46.244547 24353 net.cpp:434] detection_loss_1_5x5 <- label_1_5x5_data_1_split_0
I0105 00:02:46.244552 24353 net.cpp:408] detection_loss_1_5x5 -> loss_1_5x5
I0105 00:02:46.244562 24353 layer_factory.hpp:77] Creating layer detection_loss_1_5x5
I0105 00:02:46.245965 24353 net.cpp:150] Setting up detection_loss_1_5x5
I0105 00:02:46.245978 24353 net.cpp:157] Top shape: 1 1 1 2 (2)
I0105 00:02:46.245982 24353 net.cpp:160]     with loss weight 0.9
I0105 00:02:46.246002 24353 net.cpp:165] Memory required for data: 4517852580
I0105 00:02:46.246007 24353 layer_factory.hpp:77] Creating layer detection_accuracy_1_5x5
I0105 00:02:46.246014 24353 net.cpp:100] Creating Layer detection_accuracy_1_5x5
I0105 00:02:46.246019 24353 net.cpp:434] detection_accuracy_1_5x5 <- LFCN_1_5x5_LFCN_1_5x5_0_split_1
I0105 00:02:46.246026 24353 net.cpp:434] detection_accuracy_1_5x5 <- label_1_5x5_data_1_split_1
I0105 00:02:46.246031 24353 net.cpp:408] detection_accuracy_1_5x5 -> accuracy_1_5x5
I0105 00:02:46.246042 24353 net.cpp:408] detection_accuracy_1_5x5 -> boxiou_1_5x5
I0105 00:02:46.246083 24353 net.cpp:150] Setting up detection_accuracy_1_5x5
I0105 00:02:46.246088 24353 net.cpp:157] Top shape: 1 1 1 2 (2)
I0105 00:02:46.246093 24353 net.cpp:157] Top shape: 1 1 1 1 (1)
I0105 00:02:46.246095 24353 net.cpp:165] Memory required for data: 4517852592
I0105 00:02:46.246099 24353 layer_factory.hpp:77] Creating layer LFCN_1_7x7
I0105 00:02:46.246109 24353 net.cpp:100] Creating Layer LFCN_1_7x7
I0105 00:02:46.246111 24353 net.cpp:434] LFCN_1_7x7 <- loss1_conv1_loss_relu1_0_split_1
I0105 00:02:46.246117 24353 net.cpp:408] LFCN_1_7x7 -> LFCN_1_7x7
I0105 00:02:46.248854 24353 net.cpp:150] Setting up LFCN_1_7x7
I0105 00:02:46.248868 24353 net.cpp:157] Top shape: 12 9 48 48 (248832)
I0105 00:02:46.248872 24353 net.cpp:165] Memory required for data: 4518847920
I0105 00:02:46.248880 24353 layer_factory.hpp:77] Creating layer LFCN_1_7x7_LFCN_1_7x7_0_split
I0105 00:02:46.248888 24353 net.cpp:100] Creating Layer LFCN_1_7x7_LFCN_1_7x7_0_split
I0105 00:02:46.248893 24353 net.cpp:434] LFCN_1_7x7_LFCN_1_7x7_0_split <- LFCN_1_7x7
I0105 00:02:46.248900 24353 net.cpp:408] LFCN_1_7x7_LFCN_1_7x7_0_split -> LFCN_1_7x7_LFCN_1_7x7_0_split_0
I0105 00:02:46.248908 24353 net.cpp:408] LFCN_1_7x7_LFCN_1_7x7_0_split -> LFCN_1_7x7_LFCN_1_7x7_0_split_1
I0105 00:02:46.248914 24353 net.cpp:408] LFCN_1_7x7_LFCN_1_7x7_0_split -> LFCN_1_7x7_LFCN_1_7x7_0_split_2
I0105 00:02:46.248971 24353 net.cpp:150] Setting up LFCN_1_7x7_LFCN_1_7x7_0_split
I0105 00:02:46.248977 24353 net.cpp:157] Top shape: 12 9 48 48 (248832)
I0105 00:02:46.248982 24353 net.cpp:157] Top shape: 12 9 48 48 (248832)
I0105 00:02:46.248986 24353 net.cpp:157] Top shape: 12 9 48 48 (248832)
I0105 00:02:46.248991 24353 net.cpp:165] Memory required for data: 4521833904
I0105 00:02:46.248996 24353 layer_factory.hpp:77] Creating layer detection_loss_1_7x7
I0105 00:02:46.249002 24353 net.cpp:100] Creating Layer detection_loss_1_7x7
I0105 00:02:46.249006 24353 net.cpp:434] detection_loss_1_7x7 <- LFCN_1_7x7_LFCN_1_7x7_0_split_0
I0105 00:02:46.249012 24353 net.cpp:434] detection_loss_1_7x7 <- label_1_7x7_data_2_split_0
I0105 00:02:46.249019 24353 net.cpp:408] detection_loss_1_7x7 -> loss_1_7x7
I0105 00:02:46.249027 24353 layer_factory.hpp:77] Creating layer detection_loss_1_7x7
I0105 00:02:46.249419 24353 net.cpp:150] Setting up detection_loss_1_7x7
I0105 00:02:46.249426 24353 net.cpp:157] Top shape: 1 1 1 2 (2)
I0105 00:02:46.249430 24353 net.cpp:160]     with loss weight 0.9
I0105 00:02:46.249436 24353 net.cpp:165] Memory required for data: 4521833912
I0105 00:02:46.249439 24353 layer_factory.hpp:77] Creating layer detection_accuracy_1_7x7
I0105 00:02:46.249445 24353 net.cpp:100] Creating Layer detection_accuracy_1_7x7
I0105 00:02:46.249449 24353 net.cpp:434] detection_accuracy_1_7x7 <- LFCN_1_7x7_LFCN_1_7x7_0_split_1
I0105 00:02:46.249454 24353 net.cpp:434] detection_accuracy_1_7x7 <- label_1_7x7_data_2_split_1
I0105 00:02:46.249459 24353 net.cpp:408] detection_accuracy_1_7x7 -> accuracy_1_7x7
I0105 00:02:46.249465 24353 net.cpp:408] detection_accuracy_1_7x7 -> boxiou_1_7x7
I0105 00:02:46.249497 24353 net.cpp:150] Setting up detection_accuracy_1_7x7
I0105 00:02:46.249501 24353 net.cpp:157] Top shape: 1 1 1 2 (2)
I0105 00:02:46.249505 24353 net.cpp:157] Top shape: 1 1 1 1 (1)
I0105 00:02:46.249508 24353 net.cpp:165] Memory required for data: 4521833924
I0105 00:02:46.249512 24353 layer_factory.hpp:77] Creating layer conv4_7/dwise
I0105 00:02:46.249519 24353 net.cpp:100] Creating Layer conv4_7/dwise
I0105 00:02:46.249523 24353 net.cpp:434] conv4_7/dwise <- conv4_7/expand/bn
I0105 00:02:46.249528 24353 net.cpp:408] conv4_7/dwise -> conv4_7/dwise
I0105 00:02:46.249780 24353 net.cpp:150] Setting up conv4_7/dwise
I0105 00:02:46.249785 24353 net.cpp:157] Top shape: 12 384 24 24 (2654208)
I0105 00:02:46.249788 24353 net.cpp:165] Memory required for data: 4532450756
I0105 00:02:46.249794 24353 layer_factory.hpp:77] Creating layer conv4_7/dwise/bn
I0105 00:02:46.249799 24353 net.cpp:100] Creating Layer conv4_7/dwise/bn
I0105 00:02:46.249804 24353 net.cpp:434] conv4_7/dwise/bn <- conv4_7/dwise
I0105 00:02:46.249809 24353 net.cpp:408] conv4_7/dwise/bn -> conv4_7/dwise/bn
I0105 00:02:46.249985 24353 net.cpp:150] Setting up conv4_7/dwise/bn
I0105 00:02:46.249990 24353 net.cpp:157] Top shape: 12 384 24 24 (2654208)
I0105 00:02:46.249994 24353 net.cpp:165] Memory required for data: 4543067588
I0105 00:02:46.250000 24353 layer_factory.hpp:77] Creating layer conv4_7/dwise/scale
I0105 00:02:46.250006 24353 net.cpp:100] Creating Layer conv4_7/dwise/scale
I0105 00:02:46.250010 24353 net.cpp:434] conv4_7/dwise/scale <- conv4_7/dwise/bn
I0105 00:02:46.250013 24353 net.cpp:395] conv4_7/dwise/scale -> conv4_7/dwise/bn (in-place)
I0105 00:02:46.250053 24353 layer_factory.hpp:77] Creating layer conv4_7/dwise/scale
I0105 00:02:46.250149 24353 net.cpp:150] Setting up conv4_7/dwise/scale
I0105 00:02:46.250154 24353 net.cpp:157] Top shape: 12 384 24 24 (2654208)
I0105 00:02:46.250157 24353 net.cpp:165] Memory required for data: 4553684420
I0105 00:02:46.250162 24353 layer_factory.hpp:77] Creating layer relu4_7/dwise
I0105 00:02:46.250169 24353 net.cpp:100] Creating Layer relu4_7/dwise
I0105 00:02:46.250171 24353 net.cpp:434] relu4_7/dwise <- conv4_7/dwise/bn
I0105 00:02:46.250175 24353 net.cpp:395] relu4_7/dwise -> conv4_7/dwise/bn (in-place)
I0105 00:02:46.250326 24353 net.cpp:150] Setting up relu4_7/dwise
I0105 00:02:46.250334 24353 net.cpp:157] Top shape: 12 384 24 24 (2654208)
I0105 00:02:46.250336 24353 net.cpp:165] Memory required for data: 4564301252
I0105 00:02:46.250339 24353 layer_factory.hpp:77] Creating layer conv4_7/linear
I0105 00:02:46.250347 24353 net.cpp:100] Creating Layer conv4_7/linear
I0105 00:02:46.250352 24353 net.cpp:434] conv4_7/linear <- conv4_7/dwise/bn
I0105 00:02:46.250357 24353 net.cpp:408] conv4_7/linear -> conv4_7/linear
I0105 00:02:46.252204 24353 net.cpp:150] Setting up conv4_7/linear
I0105 00:02:46.252215 24353 net.cpp:157] Top shape: 12 96 24 24 (663552)
I0105 00:02:46.252219 24353 net.cpp:165] Memory required for data: 4566955460
I0105 00:02:46.252223 24353 layer_factory.hpp:77] Creating layer conv4_7/linear/bn
I0105 00:02:46.252230 24353 net.cpp:100] Creating Layer conv4_7/linear/bn
I0105 00:02:46.252234 24353 net.cpp:434] conv4_7/linear/bn <- conv4_7/linear
I0105 00:02:46.252239 24353 net.cpp:408] conv4_7/linear/bn -> conv4_7/linear/bn
I0105 00:02:46.252442 24353 net.cpp:150] Setting up conv4_7/linear/bn
I0105 00:02:46.252449 24353 net.cpp:157] Top shape: 12 96 24 24 (663552)
I0105 00:02:46.252454 24353 net.cpp:165] Memory required for data: 4569609668
I0105 00:02:46.252460 24353 layer_factory.hpp:77] Creating layer conv4_7/linear/scale
I0105 00:02:46.252465 24353 net.cpp:100] Creating Layer conv4_7/linear/scale
I0105 00:02:46.252468 24353 net.cpp:434] conv4_7/linear/scale <- conv4_7/linear/bn
I0105 00:02:46.252473 24353 net.cpp:395] conv4_7/linear/scale -> conv4_7/linear/bn (in-place)
I0105 00:02:46.252507 24353 layer_factory.hpp:77] Creating layer conv4_7/linear/scale
I0105 00:02:46.252610 24353 net.cpp:150] Setting up conv4_7/linear/scale
I0105 00:02:46.252616 24353 net.cpp:157] Top shape: 12 96 24 24 (663552)
I0105 00:02:46.252619 24353 net.cpp:165] Memory required for data: 4572263876
I0105 00:02:46.252624 24353 layer_factory.hpp:77] Creating layer conv4_7/linear/bn_conv4_7/linear/scale_0_split
I0105 00:02:46.252629 24353 net.cpp:100] Creating Layer conv4_7/linear/bn_conv4_7/linear/scale_0_split
I0105 00:02:46.252632 24353 net.cpp:434] conv4_7/linear/bn_conv4_7/linear/scale_0_split <- conv4_7/linear/bn
I0105 00:02:46.252637 24353 net.cpp:408] conv4_7/linear/bn_conv4_7/linear/scale_0_split -> conv4_7/linear/bn_conv4_7/linear/scale_0_split_0
I0105 00:02:46.252643 24353 net.cpp:408] conv4_7/linear/bn_conv4_7/linear/scale_0_split -> conv4_7/linear/bn_conv4_7/linear/scale_0_split_1
I0105 00:02:46.252674 24353 net.cpp:150] Setting up conv4_7/linear/bn_conv4_7/linear/scale_0_split
I0105 00:02:46.252679 24353 net.cpp:157] Top shape: 12 96 24 24 (663552)
I0105 00:02:46.252683 24353 net.cpp:157] Top shape: 12 96 24 24 (663552)
I0105 00:02:46.252686 24353 net.cpp:165] Memory required for data: 4577572292
I0105 00:02:46.252689 24353 layer_factory.hpp:77] Creating layer conv5_1/expand
I0105 00:02:46.252696 24353 net.cpp:100] Creating Layer conv5_1/expand
I0105 00:02:46.252699 24353 net.cpp:434] conv5_1/expand <- conv4_7/linear/bn_conv4_7/linear/scale_0_split_0
I0105 00:02:46.252703 24353 net.cpp:408] conv5_1/expand -> conv5_1/expand
I0105 00:02:46.255034 24353 net.cpp:150] Setting up conv5_1/expand
I0105 00:02:46.255053 24353 net.cpp:157] Top shape: 12 576 24 24 (3981312)
I0105 00:02:46.255056 24353 net.cpp:165] Memory required for data: 4593497540
I0105 00:02:46.255061 24353 layer_factory.hpp:77] Creating layer conv5_1/expand/bn
I0105 00:02:46.255069 24353 net.cpp:100] Creating Layer conv5_1/expand/bn
I0105 00:02:46.255072 24353 net.cpp:434] conv5_1/expand/bn <- conv5_1/expand
I0105 00:02:46.255079 24353 net.cpp:408] conv5_1/expand/bn -> conv5_1/expand/bn
I0105 00:02:46.255270 24353 net.cpp:150] Setting up conv5_1/expand/bn
I0105 00:02:46.255276 24353 net.cpp:157] Top shape: 12 576 24 24 (3981312)
I0105 00:02:46.255280 24353 net.cpp:165] Memory required for data: 4609422788
I0105 00:02:46.255285 24353 layer_factory.hpp:77] Creating layer conv5_1/expand/scale
I0105 00:02:46.255291 24353 net.cpp:100] Creating Layer conv5_1/expand/scale
I0105 00:02:46.255295 24353 net.cpp:434] conv5_1/expand/scale <- conv5_1/expand/bn
I0105 00:02:46.255300 24353 net.cpp:395] conv5_1/expand/scale -> conv5_1/expand/bn (in-place)
I0105 00:02:46.255336 24353 layer_factory.hpp:77] Creating layer conv5_1/expand/scale
I0105 00:02:46.255439 24353 net.cpp:150] Setting up conv5_1/expand/scale
I0105 00:02:46.255445 24353 net.cpp:157] Top shape: 12 576 24 24 (3981312)
I0105 00:02:46.255447 24353 net.cpp:165] Memory required for data: 4625348036
I0105 00:02:46.255453 24353 layer_factory.hpp:77] Creating layer relu5_1/expand
I0105 00:02:46.255460 24353 net.cpp:100] Creating Layer relu5_1/expand
I0105 00:02:46.255462 24353 net.cpp:434] relu5_1/expand <- conv5_1/expand/bn
I0105 00:02:46.255466 24353 net.cpp:395] relu5_1/expand -> conv5_1/expand/bn (in-place)
I0105 00:02:46.255615 24353 net.cpp:150] Setting up relu5_1/expand
I0105 00:02:46.255712 24353 net.cpp:157] Top shape: 12 576 24 24 (3981312)
I0105 00:02:46.255759 24353 net.cpp:165] Memory required for data: 4641273284
I0105 00:02:46.255789 24353 layer_factory.hpp:77] Creating layer conv5_1/dwise
I0105 00:02:46.256116 24353 net.cpp:100] Creating Layer conv5_1/dwise
I0105 00:02:46.256204 24353 net.cpp:434] conv5_1/dwise <- conv5_1/expand/bn
I0105 00:02:46.256304 24353 net.cpp:408] conv5_1/dwise -> conv5_1/dwise
I0105 00:02:46.257469 24353 net.cpp:150] Setting up conv5_1/dwise
I0105 00:02:46.257493 24353 net.cpp:157] Top shape: 12 576 24 24 (3981312)
I0105 00:02:46.257496 24353 net.cpp:165] Memory required for data: 4657198532
I0105 00:02:46.257503 24353 layer_factory.hpp:77] Creating layer conv5_1/dwise/bn
I0105 00:02:46.257513 24353 net.cpp:100] Creating Layer conv5_1/dwise/bn
I0105 00:02:46.257519 24353 net.cpp:434] conv5_1/dwise/bn <- conv5_1/dwise
I0105 00:02:46.257526 24353 net.cpp:408] conv5_1/dwise/bn -> conv5_1/dwise/bn
I0105 00:02:46.257730 24353 net.cpp:150] Setting up conv5_1/dwise/bn
I0105 00:02:46.257736 24353 net.cpp:157] Top shape: 12 576 24 24 (3981312)
I0105 00:02:46.257740 24353 net.cpp:165] Memory required for data: 4673123780
I0105 00:02:46.257746 24353 layer_factory.hpp:77] Creating layer conv5_1/dwise/scale
I0105 00:02:46.257755 24353 net.cpp:100] Creating Layer conv5_1/dwise/scale
I0105 00:02:46.257758 24353 net.cpp:434] conv5_1/dwise/scale <- conv5_1/dwise/bn
I0105 00:02:46.257763 24353 net.cpp:395] conv5_1/dwise/scale -> conv5_1/dwise/bn (in-place)
I0105 00:02:46.257808 24353 layer_factory.hpp:77] Creating layer conv5_1/dwise/scale
I0105 00:02:46.257910 24353 net.cpp:150] Setting up conv5_1/dwise/scale
I0105 00:02:46.257916 24353 net.cpp:157] Top shape: 12 576 24 24 (3981312)
I0105 00:02:46.257920 24353 net.cpp:165] Memory required for data: 4689049028
I0105 00:02:46.257925 24353 layer_factory.hpp:77] Creating layer relu5_1/dwise
I0105 00:02:46.257930 24353 net.cpp:100] Creating Layer relu5_1/dwise
I0105 00:02:46.257935 24353 net.cpp:434] relu5_1/dwise <- conv5_1/dwise/bn
I0105 00:02:46.257938 24353 net.cpp:395] relu5_1/dwise -> conv5_1/dwise/bn (in-place)
I0105 00:02:46.258738 24353 net.cpp:150] Setting up relu5_1/dwise
I0105 00:02:46.258751 24353 net.cpp:157] Top shape: 12 576 24 24 (3981312)
I0105 00:02:46.258754 24353 net.cpp:165] Memory required for data: 4704974276
I0105 00:02:46.258759 24353 layer_factory.hpp:77] Creating layer conv5_1/linear
I0105 00:02:46.258774 24353 net.cpp:100] Creating Layer conv5_1/linear
I0105 00:02:46.258800 24353 net.cpp:434] conv5_1/linear <- conv5_1/dwise/bn
I0105 00:02:46.258811 24353 net.cpp:408] conv5_1/linear -> conv5_1/linear
I0105 00:02:46.261075 24353 net.cpp:150] Setting up conv5_1/linear
I0105 00:02:46.261121 24353 net.cpp:157] Top shape: 12 96 24 24 (663552)
I0105 00:02:46.261126 24353 net.cpp:165] Memory required for data: 4707628484
I0105 00:02:46.261135 24353 layer_factory.hpp:77] Creating layer conv5_1/linear/bn
I0105 00:02:46.261152 24353 net.cpp:100] Creating Layer conv5_1/linear/bn
I0105 00:02:46.261162 24353 net.cpp:434] conv5_1/linear/bn <- conv5_1/linear
I0105 00:02:46.261173 24353 net.cpp:408] conv5_1/linear/bn -> conv5_1/linear/bn
I0105 00:02:46.261413 24353 net.cpp:150] Setting up conv5_1/linear/bn
I0105 00:02:46.261422 24353 net.cpp:157] Top shape: 12 96 24 24 (663552)
I0105 00:02:46.261425 24353 net.cpp:165] Memory required for data: 4710282692
I0105 00:02:46.261433 24353 layer_factory.hpp:77] Creating layer conv5_1/linear/scale
I0105 00:02:46.261445 24353 net.cpp:100] Creating Layer conv5_1/linear/scale
I0105 00:02:46.261449 24353 net.cpp:434] conv5_1/linear/scale <- conv5_1/linear/bn
I0105 00:02:46.261454 24353 net.cpp:395] conv5_1/linear/scale -> conv5_1/linear/bn (in-place)
I0105 00:02:46.261500 24353 layer_factory.hpp:77] Creating layer conv5_1/linear/scale
I0105 00:02:46.262631 24353 net.cpp:150] Setting up conv5_1/linear/scale
I0105 00:02:46.262750 24353 net.cpp:157] Top shape: 12 96 24 24 (663552)
I0105 00:02:46.262801 24353 net.cpp:165] Memory required for data: 4712936900
I0105 00:02:46.262823 24353 layer_factory.hpp:77] Creating layer block_5_1
I0105 00:02:46.262863 24353 net.cpp:100] Creating Layer block_5_1
I0105 00:02:46.262899 24353 net.cpp:434] block_5_1 <- conv4_7/linear/bn_conv4_7/linear/scale_0_split_1
I0105 00:02:46.262917 24353 net.cpp:434] block_5_1 <- conv5_1/linear/bn
I0105 00:02:46.262953 24353 net.cpp:408] block_5_1 -> block_5_1
I0105 00:02:46.263097 24353 net.cpp:150] Setting up block_5_1
I0105 00:02:46.263108 24353 net.cpp:157] Top shape: 12 96 24 24 (663552)
I0105 00:02:46.263113 24353 net.cpp:165] Memory required for data: 4715591108
I0105 00:02:46.263123 24353 layer_factory.hpp:77] Creating layer block_5_1_block_5_1_0_split
I0105 00:02:46.263140 24353 net.cpp:100] Creating Layer block_5_1_block_5_1_0_split
I0105 00:02:46.263150 24353 net.cpp:434] block_5_1_block_5_1_0_split <- block_5_1
I0105 00:02:46.263166 24353 net.cpp:408] block_5_1_block_5_1_0_split -> block_5_1_block_5_1_0_split_0
I0105 00:02:46.263193 24353 net.cpp:408] block_5_1_block_5_1_0_split -> block_5_1_block_5_1_0_split_1
I0105 00:02:46.263345 24353 net.cpp:150] Setting up block_5_1_block_5_1_0_split
I0105 00:02:46.263367 24353 net.cpp:157] Top shape: 12 96 24 24 (663552)
I0105 00:02:46.263381 24353 net.cpp:157] Top shape: 12 96 24 24 (663552)
I0105 00:02:46.263387 24353 net.cpp:165] Memory required for data: 4720899524
I0105 00:02:46.263394 24353 layer_factory.hpp:77] Creating layer conv5_2/expand
I0105 00:02:46.263419 24353 net.cpp:100] Creating Layer conv5_2/expand
I0105 00:02:46.263427 24353 net.cpp:434] conv5_2/expand <- block_5_1_block_5_1_0_split_0
I0105 00:02:46.263435 24353 net.cpp:408] conv5_2/expand -> conv5_2/expand
I0105 00:02:46.265985 24353 net.cpp:150] Setting up conv5_2/expand
I0105 00:02:46.265998 24353 net.cpp:157] Top shape: 12 576 24 24 (3981312)
I0105 00:02:46.266002 24353 net.cpp:165] Memory required for data: 4736824772
I0105 00:02:46.266008 24353 layer_factory.hpp:77] Creating layer conv5_2/expand/bn
I0105 00:02:46.266016 24353 net.cpp:100] Creating Layer conv5_2/expand/bn
I0105 00:02:46.266019 24353 net.cpp:434] conv5_2/expand/bn <- conv5_2/expand
I0105 00:02:46.266026 24353 net.cpp:408] conv5_2/expand/bn -> conv5_2/expand/bn
I0105 00:02:46.266227 24353 net.cpp:150] Setting up conv5_2/expand/bn
I0105 00:02:46.266238 24353 net.cpp:157] Top shape: 12 576 24 24 (3981312)
I0105 00:02:46.266242 24353 net.cpp:165] Memory required for data: 4752750020
I0105 00:02:46.266248 24353 layer_factory.hpp:77] Creating layer conv5_2/expand/scale
I0105 00:02:46.266255 24353 net.cpp:100] Creating Layer conv5_2/expand/scale
I0105 00:02:46.266259 24353 net.cpp:434] conv5_2/expand/scale <- conv5_2/expand/bn
I0105 00:02:46.266264 24353 net.cpp:395] conv5_2/expand/scale -> conv5_2/expand/bn (in-place)
I0105 00:02:46.266307 24353 layer_factory.hpp:77] Creating layer conv5_2/expand/scale
I0105 00:02:46.266414 24353 net.cpp:150] Setting up conv5_2/expand/scale
I0105 00:02:46.266419 24353 net.cpp:157] Top shape: 12 576 24 24 (3981312)
I0105 00:02:46.266422 24353 net.cpp:165] Memory required for data: 4768675268
I0105 00:02:46.266427 24353 layer_factory.hpp:77] Creating layer relu5_2/expand
I0105 00:02:46.266433 24353 net.cpp:100] Creating Layer relu5_2/expand
I0105 00:02:46.266436 24353 net.cpp:434] relu5_2/expand <- conv5_2/expand/bn
I0105 00:02:46.266441 24353 net.cpp:395] relu5_2/expand -> conv5_2/expand/bn (in-place)
I0105 00:02:46.266880 24353 net.cpp:150] Setting up relu5_2/expand
I0105 00:02:46.266892 24353 net.cpp:157] Top shape: 12 576 24 24 (3981312)
I0105 00:02:46.266896 24353 net.cpp:165] Memory required for data: 4784600516
I0105 00:02:46.266899 24353 layer_factory.hpp:77] Creating layer conv5_2/dwise
I0105 00:02:46.266907 24353 net.cpp:100] Creating Layer conv5_2/dwise
I0105 00:02:46.266911 24353 net.cpp:434] conv5_2/dwise <- conv5_2/expand/bn
I0105 00:02:46.266917 24353 net.cpp:408] conv5_2/dwise -> conv5_2/dwise
I0105 00:02:46.267236 24353 net.cpp:150] Setting up conv5_2/dwise
I0105 00:02:46.267242 24353 net.cpp:157] Top shape: 12 576 24 24 (3981312)
I0105 00:02:46.267246 24353 net.cpp:165] Memory required for data: 4800525764
I0105 00:02:46.267249 24353 layer_factory.hpp:77] Creating layer conv5_2/dwise/bn
I0105 00:02:46.267254 24353 net.cpp:100] Creating Layer conv5_2/dwise/bn
I0105 00:02:46.267258 24353 net.cpp:434] conv5_2/dwise/bn <- conv5_2/dwise
I0105 00:02:46.267264 24353 net.cpp:408] conv5_2/dwise/bn -> conv5_2/dwise/bn
I0105 00:02:46.267453 24353 net.cpp:150] Setting up conv5_2/dwise/bn
I0105 00:02:46.267458 24353 net.cpp:157] Top shape: 12 576 24 24 (3981312)
I0105 00:02:46.267462 24353 net.cpp:165] Memory required for data: 4816451012
I0105 00:02:46.267468 24353 layer_factory.hpp:77] Creating layer conv5_2/dwise/scale
I0105 00:02:46.267474 24353 net.cpp:100] Creating Layer conv5_2/dwise/scale
I0105 00:02:46.267477 24353 net.cpp:434] conv5_2/dwise/scale <- conv5_2/dwise/bn
I0105 00:02:46.267482 24353 net.cpp:395] conv5_2/dwise/scale -> conv5_2/dwise/bn (in-place)
I0105 00:02:46.267524 24353 layer_factory.hpp:77] Creating layer conv5_2/dwise/scale
I0105 00:02:46.267627 24353 net.cpp:150] Setting up conv5_2/dwise/scale
I0105 00:02:46.267632 24353 net.cpp:157] Top shape: 12 576 24 24 (3981312)
I0105 00:02:46.267635 24353 net.cpp:165] Memory required for data: 4832376260
I0105 00:02:46.267640 24353 layer_factory.hpp:77] Creating layer relu5_2/dwise
I0105 00:02:46.267644 24353 net.cpp:100] Creating Layer relu5_2/dwise
I0105 00:02:46.267648 24353 net.cpp:434] relu5_2/dwise <- conv5_2/dwise/bn
I0105 00:02:46.267653 24353 net.cpp:395] relu5_2/dwise -> conv5_2/dwise/bn (in-place)
I0105 00:02:46.267823 24353 net.cpp:150] Setting up relu5_2/dwise
I0105 00:02:46.267830 24353 net.cpp:157] Top shape: 12 576 24 24 (3981312)
I0105 00:02:46.267834 24353 net.cpp:165] Memory required for data: 4848301508
I0105 00:02:46.267838 24353 layer_factory.hpp:77] Creating layer conv5_2/linear
I0105 00:02:46.267844 24353 net.cpp:100] Creating Layer conv5_2/linear
I0105 00:02:46.267848 24353 net.cpp:434] conv5_2/linear <- conv5_2/dwise/bn
I0105 00:02:46.267853 24353 net.cpp:408] conv5_2/linear -> conv5_2/linear
I0105 00:02:46.270179 24353 net.cpp:150] Setting up conv5_2/linear
I0105 00:02:46.270190 24353 net.cpp:157] Top shape: 12 96 24 24 (663552)
I0105 00:02:46.270195 24353 net.cpp:165] Memory required for data: 4850955716
I0105 00:02:46.270200 24353 layer_factory.hpp:77] Creating layer conv5_2/linear/bn
I0105 00:02:46.270205 24353 net.cpp:100] Creating Layer conv5_2/linear/bn
I0105 00:02:46.270210 24353 net.cpp:434] conv5_2/linear/bn <- conv5_2/linear
I0105 00:02:46.270217 24353 net.cpp:408] conv5_2/linear/bn -> conv5_2/linear/bn
I0105 00:02:46.270422 24353 net.cpp:150] Setting up conv5_2/linear/bn
I0105 00:02:46.270428 24353 net.cpp:157] Top shape: 12 96 24 24 (663552)
I0105 00:02:46.270431 24353 net.cpp:165] Memory required for data: 4853609924
I0105 00:02:46.270437 24353 layer_factory.hpp:77] Creating layer conv5_2/linear/scale
I0105 00:02:46.270443 24353 net.cpp:100] Creating Layer conv5_2/linear/scale
I0105 00:02:46.270447 24353 net.cpp:434] conv5_2/linear/scale <- conv5_2/linear/bn
I0105 00:02:46.270452 24353 net.cpp:395] conv5_2/linear/scale -> conv5_2/linear/bn (in-place)
I0105 00:02:46.270488 24353 layer_factory.hpp:77] Creating layer conv5_2/linear/scale
I0105 00:02:46.270592 24353 net.cpp:150] Setting up conv5_2/linear/scale
I0105 00:02:46.270597 24353 net.cpp:157] Top shape: 12 96 24 24 (663552)
I0105 00:02:46.270601 24353 net.cpp:165] Memory required for data: 4856264132
I0105 00:02:46.270606 24353 layer_factory.hpp:77] Creating layer block_5_2
I0105 00:02:46.270613 24353 net.cpp:100] Creating Layer block_5_2
I0105 00:02:46.270617 24353 net.cpp:434] block_5_2 <- block_5_1_block_5_1_0_split_1
I0105 00:02:46.270622 24353 net.cpp:434] block_5_2 <- conv5_2/linear/bn
I0105 00:02:46.270625 24353 net.cpp:408] block_5_2 -> block_5_2
I0105 00:02:46.270648 24353 net.cpp:150] Setting up block_5_2
I0105 00:02:46.270653 24353 net.cpp:157] Top shape: 12 96 24 24 (663552)
I0105 00:02:46.270654 24353 net.cpp:165] Memory required for data: 4858918340
I0105 00:02:46.270658 24353 layer_factory.hpp:77] Creating layer block_5_2_block_5_2_0_split
I0105 00:02:46.270664 24353 net.cpp:100] Creating Layer block_5_2_block_5_2_0_split
I0105 00:02:46.270668 24353 net.cpp:434] block_5_2_block_5_2_0_split <- block_5_2
I0105 00:02:46.270671 24353 net.cpp:408] block_5_2_block_5_2_0_split -> block_5_2_block_5_2_0_split_0
I0105 00:02:46.270678 24353 net.cpp:408] block_5_2_block_5_2_0_split -> block_5_2_block_5_2_0_split_1
I0105 00:02:46.270682 24353 net.cpp:408] block_5_2_block_5_2_0_split -> block_5_2_block_5_2_0_split_2
I0105 00:02:46.270723 24353 net.cpp:150] Setting up block_5_2_block_5_2_0_split
I0105 00:02:46.270728 24353 net.cpp:157] Top shape: 12 96 24 24 (663552)
I0105 00:02:46.270732 24353 net.cpp:157] Top shape: 12 96 24 24 (663552)
I0105 00:02:46.270736 24353 net.cpp:157] Top shape: 12 96 24 24 (663552)
I0105 00:02:46.270738 24353 net.cpp:165] Memory required for data: 4866880964
I0105 00:02:46.270742 24353 layer_factory.hpp:77] Creating layer conv5_3/expand
I0105 00:02:46.270750 24353 net.cpp:100] Creating Layer conv5_3/expand
I0105 00:02:46.270753 24353 net.cpp:434] conv5_3/expand <- block_5_2_block_5_2_0_split_0
I0105 00:02:46.270758 24353 net.cpp:408] conv5_3/expand -> conv5_3/expand
I0105 00:02:46.273092 24353 net.cpp:150] Setting up conv5_3/expand
I0105 00:02:46.273103 24353 net.cpp:157] Top shape: 12 576 24 24 (3981312)
I0105 00:02:46.273106 24353 net.cpp:165] Memory required for data: 4882806212
I0105 00:02:46.273110 24353 layer_factory.hpp:77] Creating layer conv5_3/expand/bn
I0105 00:02:46.273116 24353 net.cpp:100] Creating Layer conv5_3/expand/bn
I0105 00:02:46.273120 24353 net.cpp:434] conv5_3/expand/bn <- conv5_3/expand
I0105 00:02:46.273125 24353 net.cpp:408] conv5_3/expand/bn -> conv5_3/expand/bn
I0105 00:02:46.273299 24353 net.cpp:150] Setting up conv5_3/expand/bn
I0105 00:02:46.273304 24353 net.cpp:157] Top shape: 12 576 24 24 (3981312)
I0105 00:02:46.273306 24353 net.cpp:165] Memory required for data: 4898731460
I0105 00:02:46.273313 24353 layer_factory.hpp:77] Creating layer conv5_3/expand/scale
I0105 00:02:46.273319 24353 net.cpp:100] Creating Layer conv5_3/expand/scale
I0105 00:02:46.273322 24353 net.cpp:434] conv5_3/expand/scale <- conv5_3/expand/bn
I0105 00:02:46.273325 24353 net.cpp:395] conv5_3/expand/scale -> conv5_3/expand/bn (in-place)
I0105 00:02:46.273357 24353 layer_factory.hpp:77] Creating layer conv5_3/expand/scale
I0105 00:02:46.273453 24353 net.cpp:150] Setting up conv5_3/expand/scale
I0105 00:02:46.273458 24353 net.cpp:157] Top shape: 12 576 24 24 (3981312)
I0105 00:02:46.273460 24353 net.cpp:165] Memory required for data: 4914656708
I0105 00:02:46.273464 24353 layer_factory.hpp:77] Creating layer relu5_3/expand
I0105 00:02:46.273469 24353 net.cpp:100] Creating Layer relu5_3/expand
I0105 00:02:46.273473 24353 net.cpp:434] relu5_3/expand <- conv5_3/expand/bn
I0105 00:02:46.273478 24353 net.cpp:395] relu5_3/expand -> conv5_3/expand/bn (in-place)
I0105 00:02:46.273604 24353 net.cpp:150] Setting up relu5_3/expand
I0105 00:02:46.273610 24353 net.cpp:157] Top shape: 12 576 24 24 (3981312)
I0105 00:02:46.273613 24353 net.cpp:165] Memory required for data: 4930581956
I0105 00:02:46.273615 24353 layer_factory.hpp:77] Creating layer LFCN_2_5x5
I0105 00:02:46.273624 24353 net.cpp:100] Creating Layer LFCN_2_5x5
I0105 00:02:46.273628 24353 net.cpp:434] LFCN_2_5x5 <- block_5_2_block_5_2_0_split_1
I0105 00:02:46.273634 24353 net.cpp:408] LFCN_2_5x5 -> LFCN_2_5x5
I0105 00:02:46.276635 24353 net.cpp:150] Setting up LFCN_2_5x5
I0105 00:02:46.276676 24353 net.cpp:157] Top shape: 12 9 24 24 (62208)
I0105 00:02:46.276680 24353 net.cpp:165] Memory required for data: 4930830788
I0105 00:02:46.276692 24353 layer_factory.hpp:77] Creating layer LFCN_2_5x5_LFCN_2_5x5_0_split
I0105 00:02:46.276708 24353 net.cpp:100] Creating Layer LFCN_2_5x5_LFCN_2_5x5_0_split
I0105 00:02:46.276716 24353 net.cpp:434] LFCN_2_5x5_LFCN_2_5x5_0_split <- LFCN_2_5x5
I0105 00:02:46.276726 24353 net.cpp:408] LFCN_2_5x5_LFCN_2_5x5_0_split -> LFCN_2_5x5_LFCN_2_5x5_0_split_0
I0105 00:02:46.276738 24353 net.cpp:408] LFCN_2_5x5_LFCN_2_5x5_0_split -> LFCN_2_5x5_LFCN_2_5x5_0_split_1
I0105 00:02:46.276743 24353 net.cpp:408] LFCN_2_5x5_LFCN_2_5x5_0_split -> LFCN_2_5x5_LFCN_2_5x5_0_split_2
I0105 00:02:46.276793 24353 net.cpp:150] Setting up LFCN_2_5x5_LFCN_2_5x5_0_split
I0105 00:02:46.276798 24353 net.cpp:157] Top shape: 12 9 24 24 (62208)
I0105 00:02:46.276803 24353 net.cpp:157] Top shape: 12 9 24 24 (62208)
I0105 00:02:46.276808 24353 net.cpp:157] Top shape: 12 9 24 24 (62208)
I0105 00:02:46.276810 24353 net.cpp:165] Memory required for data: 4931577284
I0105 00:02:46.276813 24353 layer_factory.hpp:77] Creating layer detection_loss_2_5x5
I0105 00:02:46.276823 24353 net.cpp:100] Creating Layer detection_loss_2_5x5
I0105 00:02:46.276825 24353 net.cpp:434] detection_loss_2_5x5 <- LFCN_2_5x5_LFCN_2_5x5_0_split_0
I0105 00:02:46.276831 24353 net.cpp:434] detection_loss_2_5x5 <- label_2_5x5_data_3_split_0
I0105 00:02:46.276839 24353 net.cpp:408] detection_loss_2_5x5 -> loss_2_5x5
I0105 00:02:46.276847 24353 layer_factory.hpp:77] Creating layer detection_loss_2_5x5
I0105 00:02:46.277565 24353 net.cpp:150] Setting up detection_loss_2_5x5
I0105 00:02:46.277631 24353 net.cpp:157] Top shape: 1 1 1 2 (2)
I0105 00:02:46.277640 24353 net.cpp:160]     with loss weight 1
I0105 00:02:46.277698 24353 net.cpp:165] Memory required for data: 4931577292
I0105 00:02:46.277706 24353 layer_factory.hpp:77] Creating layer detection_accuracy_2_5x5
I0105 00:02:46.277742 24353 net.cpp:100] Creating Layer detection_accuracy_2_5x5
I0105 00:02:46.277760 24353 net.cpp:434] detection_accuracy_2_5x5 <- LFCN_2_5x5_LFCN_2_5x5_0_split_1
I0105 00:02:46.277776 24353 net.cpp:434] detection_accuracy_2_5x5 <- label_2_5x5_data_3_split_1
I0105 00:02:46.277792 24353 net.cpp:408] detection_accuracy_2_5x5 -> accuracy_2_5x5
I0105 00:02:46.277822 24353 net.cpp:408] detection_accuracy_2_5x5 -> boxiou_2_5x5
I0105 00:02:46.278043 24353 net.cpp:150] Setting up detection_accuracy_2_5x5
I0105 00:02:46.278060 24353 net.cpp:157] Top shape: 1 1 1 2 (2)
I0105 00:02:46.278070 24353 net.cpp:157] Top shape: 1 1 1 1 (1)
I0105 00:02:46.278079 24353 net.cpp:165] Memory required for data: 4931577304
I0105 00:02:46.278086 24353 layer_factory.hpp:77] Creating layer LFCN_2_7x7
I0105 00:02:46.278126 24353 net.cpp:100] Creating Layer LFCN_2_7x7
I0105 00:02:46.278137 24353 net.cpp:434] LFCN_2_7x7 <- block_5_2_block_5_2_0_split_2
I0105 00:02:46.278152 24353 net.cpp:408] LFCN_2_7x7 -> LFCN_2_7x7
I0105 00:02:46.280820 24353 net.cpp:150] Setting up LFCN_2_7x7
I0105 00:02:46.280836 24353 net.cpp:157] Top shape: 12 9 24 24 (62208)
I0105 00:02:46.280839 24353 net.cpp:165] Memory required for data: 4931826136
I0105 00:02:46.280848 24353 layer_factory.hpp:77] Creating layer LFCN_2_7x7_LFCN_2_7x7_0_split
I0105 00:02:46.280858 24353 net.cpp:100] Creating Layer LFCN_2_7x7_LFCN_2_7x7_0_split
I0105 00:02:46.280864 24353 net.cpp:434] LFCN_2_7x7_LFCN_2_7x7_0_split <- LFCN_2_7x7
I0105 00:02:46.280870 24353 net.cpp:408] LFCN_2_7x7_LFCN_2_7x7_0_split -> LFCN_2_7x7_LFCN_2_7x7_0_split_0
I0105 00:02:46.280879 24353 net.cpp:408] LFCN_2_7x7_LFCN_2_7x7_0_split -> LFCN_2_7x7_LFCN_2_7x7_0_split_1
I0105 00:02:46.280884 24353 net.cpp:408] LFCN_2_7x7_LFCN_2_7x7_0_split -> LFCN_2_7x7_LFCN_2_7x7_0_split_2
I0105 00:02:46.280933 24353 net.cpp:150] Setting up LFCN_2_7x7_LFCN_2_7x7_0_split
I0105 00:02:46.280938 24353 net.cpp:157] Top shape: 12 9 24 24 (62208)
I0105 00:02:46.280942 24353 net.cpp:157] Top shape: 12 9 24 24 (62208)
I0105 00:02:46.280946 24353 net.cpp:157] Top shape: 12 9 24 24 (62208)
I0105 00:02:46.280949 24353 net.cpp:165] Memory required for data: 4932572632
I0105 00:02:46.280953 24353 layer_factory.hpp:77] Creating layer detection_loss_2_7x7
I0105 00:02:46.280962 24353 net.cpp:100] Creating Layer detection_loss_2_7x7
I0105 00:02:46.280966 24353 net.cpp:434] detection_loss_2_7x7 <- LFCN_2_7x7_LFCN_2_7x7_0_split_0
I0105 00:02:46.280974 24353 net.cpp:434] detection_loss_2_7x7 <- label_2_7x7_data_4_split_0
I0105 00:02:46.280980 24353 net.cpp:408] detection_loss_2_7x7 -> loss_2_7x7
I0105 00:02:46.280989 24353 layer_factory.hpp:77] Creating layer detection_loss_2_7x7
I0105 00:02:46.281329 24353 net.cpp:150] Setting up detection_loss_2_7x7
I0105 00:02:46.281337 24353 net.cpp:157] Top shape: 1 1 1 2 (2)
I0105 00:02:46.281340 24353 net.cpp:160]     with loss weight 1
I0105 00:02:46.281350 24353 net.cpp:165] Memory required for data: 4932572640
I0105 00:02:46.281353 24353 layer_factory.hpp:77] Creating layer detection_accuracy_2_7x7
I0105 00:02:46.281359 24353 net.cpp:100] Creating Layer detection_accuracy_2_7x7
I0105 00:02:46.281363 24353 net.cpp:434] detection_accuracy_2_7x7 <- LFCN_2_7x7_LFCN_2_7x7_0_split_1
I0105 00:02:46.281368 24353 net.cpp:434] detection_accuracy_2_7x7 <- label_2_7x7_data_4_split_1
I0105 00:02:46.281374 24353 net.cpp:408] detection_accuracy_2_7x7 -> accuracy_2_7x7
I0105 00:02:46.281381 24353 net.cpp:408] detection_accuracy_2_7x7 -> boxiou_2_7x7
I0105 00:02:46.281415 24353 net.cpp:150] Setting up detection_accuracy_2_7x7
I0105 00:02:46.281420 24353 net.cpp:157] Top shape: 1 1 1 2 (2)
I0105 00:02:46.281424 24353 net.cpp:157] Top shape: 1 1 1 1 (1)
I0105 00:02:46.281426 24353 net.cpp:165] Memory required for data: 4932572652
I0105 00:02:46.281430 24353 layer_factory.hpp:77] Creating layer conv5_3/dwise
I0105 00:02:46.281436 24353 net.cpp:100] Creating Layer conv5_3/dwise
I0105 00:02:46.281441 24353 net.cpp:434] conv5_3/dwise <- conv5_3/expand/bn
I0105 00:02:46.281447 24353 net.cpp:408] conv5_3/dwise -> conv5_3/dwise
I0105 00:02:46.281759 24353 net.cpp:150] Setting up conv5_3/dwise
I0105 00:02:46.281764 24353 net.cpp:157] Top shape: 12 576 12 12 (995328)
I0105 00:02:46.281767 24353 net.cpp:165] Memory required for data: 4936553964
I0105 00:02:46.281795 24353 layer_factory.hpp:77] Creating layer conv5_3/dwise/bn
I0105 00:02:46.281802 24353 net.cpp:100] Creating Layer conv5_3/dwise/bn
I0105 00:02:46.281806 24353 net.cpp:434] conv5_3/dwise/bn <- conv5_3/dwise
I0105 00:02:46.281811 24353 net.cpp:408] conv5_3/dwise/bn -> conv5_3/dwise/bn
I0105 00:02:46.282011 24353 net.cpp:150] Setting up conv5_3/dwise/bn
I0105 00:02:46.282017 24353 net.cpp:157] Top shape: 12 576 12 12 (995328)
I0105 00:02:46.282021 24353 net.cpp:165] Memory required for data: 4940535276
I0105 00:02:46.282027 24353 layer_factory.hpp:77] Creating layer conv5_3/dwise/scale
I0105 00:02:46.282033 24353 net.cpp:100] Creating Layer conv5_3/dwise/scale
I0105 00:02:46.282037 24353 net.cpp:434] conv5_3/dwise/scale <- conv5_3/dwise/bn
I0105 00:02:46.282042 24353 net.cpp:395] conv5_3/dwise/scale -> conv5_3/dwise/bn (in-place)
I0105 00:02:46.282081 24353 layer_factory.hpp:77] Creating layer conv5_3/dwise/scale
I0105 00:02:46.282186 24353 net.cpp:150] Setting up conv5_3/dwise/scale
I0105 00:02:46.282191 24353 net.cpp:157] Top shape: 12 576 12 12 (995328)
I0105 00:02:46.282194 24353 net.cpp:165] Memory required for data: 4944516588
I0105 00:02:46.282199 24353 layer_factory.hpp:77] Creating layer relu5_3/dwise
I0105 00:02:46.282205 24353 net.cpp:100] Creating Layer relu5_3/dwise
I0105 00:02:46.282209 24353 net.cpp:434] relu5_3/dwise <- conv5_3/dwise/bn
…
I0105 00:02:46.720266 24353 net.cpp:408] detection_loss_2_7x7 -> loss_2_7x7
I0105 00:02:46.720275 24353 layer_factory.hpp:77] Creating layer detection_loss_2_7x7
I0105 00:02:46.720736 24353 net.cpp:150] Setting up detection_loss_2_7x7
I0105 00:02:46.720747 24353 net.cpp:157] Top shape: 1 1 1 2 (2)
I0105 00:02:46.720751 24353 net.cpp:160]     with loss weight 1
I0105 00:02:46.720762 24353 net.cpp:165] Memory required for data: 411047808
I0105 00:02:46.720765 24353 layer_factory.hpp:77] Creating layer detection_accuracy_2_7x7
I0105 00:02:46.720773 24353 net.cpp:100] Creating Layer detection_accuracy_2_7x7
I0105 00:02:46.720778 24353 net.cpp:434] detection_accuracy_2_7x7 <- LFCN_2_7x7_LFCN_2_7x7_0_split_1
I0105 00:02:46.720784 24353 net.cpp:434] detection_accuracy_2_7x7 <- label_2_7x7_data_4_split_1
I0105 00:02:46.720790 24353 net.cpp:408] detection_accuracy_2_7x7 -> accuracy_2_7x7
I0105 00:02:46.720799 24353 net.cpp:408] detection_accuracy_2_7x7 -> boxiou_2_7x7
I0105 00:02:46.720850 24353 net.cpp:150] Setting up detection_accuracy_2_7x7
I0105 00:02:46.720856 24353 net.cpp:157] Top shape: 1 1 1 2 (2)
I0105 00:02:46.720860 24353 net.cpp:157] Top shape: 1 1 1 1 (1)
I0105 00:02:46.720865 24353 net.cpp:165] Memory required for data: 411047820
I0105 00:02:46.720867 24353 layer_factory.hpp:77] Creating layer conv5_3/dwise
I0105 00:02:46.720876 24353 net.cpp:100] Creating Layer conv5_3/dwise
I0105 00:02:46.720882 24353 net.cpp:434] conv5_3/dwise <- conv5_3/expand/bn
I0105 00:02:46.720890 24353 net.cpp:408] conv5_3/dwise -> conv5_3/dwise
I0105 00:02:46.721300 24353 net.cpp:150] Setting up conv5_3/dwise
I0105 00:02:46.721307 24353 net.cpp:157] Top shape: 1 576 12 12 (82944)
I0105 00:02:46.721312 24353 net.cpp:165] Memory required for data: 411379596
I0105 00:02:46.721339 24353 layer_factory.hpp:77] Creating layer conv5_3/dwise/bn
I0105 00:02:46.721349 24353 net.cpp:100] Creating Layer conv5_3/dwise/bn
I0105 00:02:46.721354 24353 net.cpp:434] conv5_3/dwise/bn <- conv5_3/dwise
I0105 00:02:46.721360 24353 net.cpp:408] conv5_3/dwise/bn -> conv5_3/dwise/bn
I0105 00:02:46.721647 24353 net.cpp:150] Setting up conv5_3/dwise/bn
I0105 00:02:46.721654 24353 net.cpp:157] Top shape: 1 576 12 12 (82944)
I0105 00:02:46.721658 24353 net.cpp:165] Memory required for data: 411711372
I0105 00:02:46.721666 24353 layer_factory.hpp:77] Creating layer conv5_3/dwise/scale
I0105 00:02:46.721673 24353 net.cpp:100] Creating Layer conv5_3/dwise/scale
I0105 00:02:46.721678 24353 net.cpp:434] conv5_3/dwise/scale <- conv5_3/dwise/bn
I0105 00:02:46.721683 24353 net.cpp:395] conv5_3/dwise/scale -> conv5_3/dwise/bn (in-place)
I0105 00:02:46.721735 24353 layer_factory.hpp:77] Creating layer conv5_3/dwise/scale
I0105 00:02:46.721884 24353 net.cpp:150] Setting up conv5_3/dwise/scale
I0105 00:02:46.721890 24353 net.cpp:157] Top shape: 1 576 12 12 (82944)
I0105 00:02:46.721894 24353 net.cpp:165] Memory required for data: 412043148
I0105 00:02:46.721900 24353 layer_factory.hpp:77] Creating layer relu5_3/dwise
I0105 00:02:46.721906 24353 net.cpp:100] Creating Layer relu5_3/dwise
I0105 00:02:46.721911 24353 net.cpp:434] relu5_3/dwise <- conv5_3/dwise/bn
I0105 00:02:46.721916 24353 net.cpp:395] relu5_3/dwise -> conv5_3/dwise/bn (in-place)
I0105 00:02:46.722113 24353 net.cpp:150] Setting up relu5_3/dwise
I0105 00:02:46.722122 24353 net.cpp:157] Top shape: 1 576 12 12 (82944)
I0105 00:02:46.722126 24353 net.cpp:165] Memory required for data: 412374924
I0105 00:02:46.722129 24353 layer_factory.hpp:77] Creating layer conv5_3/linear
I0105 00:02:46.722139 24353 net.cpp:100] Creating Layer conv5_3/linear
I0105 00:02:46.722143 24353 net.cpp:434] conv5_3/linear <- conv5_3/dwise/bn
I0105 00:02:46.722151 24353 net.cpp:408] conv5_3/linear -> conv5_3/linear
I0105 00:02:46.727550 24353 net.cpp:150] Setting up conv5_3/linear
I0105 00:02:46.727592 24353 net.cpp:157] Top shape: 1 160 12 12 (23040)
I0105 00:02:46.727598 24353 net.cpp:165] Memory required for data: 412467084
I0105 00:02:46.727614 24353 layer_factory.hpp:77] Creating layer conv5_3/linear/bn
I0105 00:02:46.727638 24353 net.cpp:100] Creating Layer conv5_3/linear/bn
I0105 00:02:46.727649 24353 net.cpp:434] conv5_3/linear/bn <- conv5_3/linear
I0105 00:02:46.727659 24353 net.cpp:408] conv5_3/linear/bn -> conv5_3/linear/bn
I0105 00:02:46.729336 24353 net.cpp:150] Setting up conv5_3/linear/bn
I0105 00:02:46.729367 24353 net.cpp:157] Top shape: 1 160 12 12 (23040)
I0105 00:02:46.729370 24353 net.cpp:165] Memory required for data: 412559244
I0105 00:02:46.729388 24353 layer_factory.hpp:77] Creating layer conv5_3/linear/scale
I0105 00:02:46.729408 24353 net.cpp:100] Creating Layer conv5_3/linear/scale
I0105 00:02:46.729419 24353 net.cpp:434] conv5_3/linear/scale <- conv5_3/linear/bn
I0105 00:02:46.729426 24353 net.cpp:395] conv5_3/linear/scale -> conv5_3/linear/bn (in-place)
I0105 00:02:46.729478 24353 layer_factory.hpp:77] Creating layer conv5_3/linear/scale
I0105 00:02:46.729593 24353 net.cpp:150] Setting up conv5_3/linear/scale
I0105 00:02:46.729598 24353 net.cpp:157] Top shape: 1 160 12 12 (23040)
I0105 00:02:46.729601 24353 net.cpp:165] Memory required for data: 412651404
I0105 00:02:46.729606 24353 layer_factory.hpp:77] Creating layer conv5_3/linear/bn_conv5_3/linear/scale_0_split
I0105 00:02:46.729614 24353 net.cpp:100] Creating Layer conv5_3/linear/bn_conv5_3/linear/scale_0_split
I0105 00:02:46.729617 24353 net.cpp:434] conv5_3/linear/bn_conv5_3/linear/scale_0_split <- conv5_3/linear/bn
I0105 00:02:46.729622 24353 net.cpp:408] conv5_3/linear/bn_conv5_3/linear/scale_0_split -> conv5_3/linear/bn_conv5_3/linear/scale_0_split_0
I0105 00:02:46.729629 24353 net.cpp:408] conv5_3/linear/bn_conv5_3/linear/scale_0_split -> conv5_3/linear/bn_conv5_3/linear/scale_0_split_1
I0105 00:02:46.729660 24353 net.cpp:150] Setting up conv5_3/linear/bn_conv5_3/linear/scale_0_split
I0105 00:02:46.729665 24353 net.cpp:157] Top shape: 1 160 12 12 (23040)
I0105 00:02:46.729668 24353 net.cpp:157] Top shape: 1 160 12 12 (23040)
I0105 00:02:46.729671 24353 net.cpp:165] Memory required for data: 412835724
I0105 00:02:46.729674 24353 layer_factory.hpp:77] Creating layer conv6_1/expand
I0105 00:02:46.729686 24353 net.cpp:100] Creating Layer conv6_1/expand
I0105 00:02:46.729689 24353 net.cpp:434] conv6_1/expand <- conv5_3/linear/bn_conv5_3/linear/scale_0_split_0
I0105 00:02:46.729696 24353 net.cpp:408] conv6_1/expand -> conv6_1/expand
I0105 00:02:46.737792 24353 net.cpp:150] Setting up conv6_1/expand
I0105 00:02:46.737819 24353 net.cpp:157] Top shape: 1 960 12 12 (138240)
I0105 00:02:46.737823 24353 net.cpp:165] Memory required for data: 413388684
I0105 00:02:46.737831 24353 layer_factory.hpp:77] Creating layer conv6_1/expand/bn
I0105 00:02:46.737845 24353 net.cpp:100] Creating Layer conv6_1/expand/bn
I0105 00:02:46.737852 24353 net.cpp:434] conv6_1/expand/bn <- conv6_1/expand
I0105 00:02:46.737859 24353 net.cpp:408] conv6_1/expand/bn -> conv6_1/expand/bn
I0105 00:02:46.738073 24353 net.cpp:150] Setting up conv6_1/expand/bn
I0105 00:02:46.738080 24353 net.cpp:157] Top shape: 1 960 12 12 (138240)
I0105 00:02:46.738082 24353 net.cpp:165] Memory required for data: 413941644
I0105 00:02:46.738090 24353 layer_factory.hpp:77] Creating layer conv6_1/expand/scale
I0105 00:02:46.738098 24353 net.cpp:100] Creating Layer conv6_1/expand/scale
I0105 00:02:46.738102 24353 net.cpp:434] conv6_1/expand/scale <- conv6_1/expand/bn
I0105 00:02:46.738107 24353 net.cpp:395] conv6_1/expand/scale -> conv6_1/expand/bn (in-place)
I0105 00:02:46.738150 24353 layer_factory.hpp:77] Creating layer conv6_1/expand/scale
I0105 00:02:46.738252 24353 net.cpp:150] Setting up conv6_1/expand/scale
I0105 00:02:46.738257 24353 net.cpp:157] Top shape: 1 960 12 12 (138240)
I0105 00:02:46.738260 24353 net.cpp:165] Memory required for data: 414494604
I0105 00:02:46.738265 24353 layer_factory.hpp:77] Creating layer relu6_1/expand
I0105 00:02:46.738272 24353 net.cpp:100] Creating Layer relu6_1/expand
I0105 00:02:46.738276 24353 net.cpp:434] relu6_1/expand <- conv6_1/expand/bn
I0105 00:02:46.738281 24353 net.cpp:395] relu6_1/expand -> conv6_1/expand/bn (in-place)
I0105 00:02:46.738442 24353 net.cpp:150] Setting up relu6_1/expand
I0105 00:02:46.738449 24353 net.cpp:157] Top shape: 1 960 12 12 (138240)
I0105 00:02:46.738453 24353 net.cpp:165] Memory required for data: 415047564
I0105 00:02:46.738456 24353 layer_factory.hpp:77] Creating layer conv6_1/dwise
I0105 00:02:46.738466 24353 net.cpp:100] Creating Layer conv6_1/dwise
I0105 00:02:46.738469 24353 net.cpp:434] conv6_1/dwise <- conv6_1/expand/bn
I0105 00:02:46.738476 24353 net.cpp:408] conv6_1/dwise -> conv6_1/dwise
I0105 00:02:46.738903 24353 net.cpp:150] Setting up conv6_1/dwise
I0105 00:02:46.738911 24353 net.cpp:157] Top shape: 1 960 12 12 (138240)
I0105 00:02:46.738914 24353 net.cpp:165] Memory required for data: 415600524
I0105 00:02:46.738919 24353 layer_factory.hpp:77] Creating layer conv6_1/dwise/bn
I0105 00:02:46.738924 24353 net.cpp:100] Creating Layer conv6_1/dwise/bn
I0105 00:02:46.738929 24353 net.cpp:434] conv6_1/dwise/bn <- conv6_1/dwise
I0105 00:02:46.738934 24353 net.cpp:408] conv6_1/dwise/bn -> conv6_1/dwise/bn
I0105 00:02:46.739115 24353 net.cpp:150] Setting up conv6_1/dwise/bn
I0105 00:02:46.739121 24353 net.cpp:157] Top shape: 1 960 12 12 (138240)
I0105 00:02:46.739125 24353 net.cpp:165] Memory required for data: 416153484
I0105 00:02:46.739131 24353 layer_factory.hpp:77] Creating layer conv6_1/dwise/scale
I0105 00:02:46.739136 24353 net.cpp:100] Creating Layer conv6_1/dwise/scale
I0105 00:02:46.739140 24353 net.cpp:434] conv6_1/dwise/scale <- conv6_1/dwise/bn
I0105 00:02:46.739145 24353 net.cpp:395] conv6_1/dwise/scale -> conv6_1/dwise/bn (in-place)
I0105 00:02:46.739182 24353 layer_factory.hpp:77] Creating layer conv6_1/dwise/scale
I0105 00:02:46.739281 24353 net.cpp:150] Setting up conv6_1/dwise/scale
I0105 00:02:46.739287 24353 net.cpp:157] Top shape: 1 960 12 12 (138240)
I0105 00:02:46.739290 24353 net.cpp:165] Memory required for data: 416706444
I0105 00:02:46.739295 24353 layer_factory.hpp:77] Creating layer relu6_1/dwise
I0105 00:02:46.739300 24353 net.cpp:100] Creating Layer relu6_1/dwise
I0105 00:02:46.739303 24353 net.cpp:434] relu6_1/dwise <- conv6_1/dwise/bn
I0105 00:02:46.739308 24353 net.cpp:395] relu6_1/dwise -> conv6_1/dwise/bn (in-place)
I0105 00:02:46.745723 24353 net.cpp:150] Setting up relu6_1/dwise
I0105 00:02:46.745735 24353 net.cpp:157] Top shape: 1 960 12 12 (138240)
I0105 00:02:46.745740 24353 net.cpp:165] Memory required for data: 417259404
I0105 00:02:46.745745 24353 layer_factory.hpp:77] Creating layer conv6_1/linear
I0105 00:02:46.745756 24353 net.cpp:100] Creating Layer conv6_1/linear
I0105 00:02:46.745761 24353 net.cpp:434] conv6_1/linear <- conv6_1/dwise/bn
I0105 00:02:46.745769 24353 net.cpp:408] conv6_1/linear -> conv6_1/linear
I0105 00:02:46.751247 24353 net.cpp:150] Setting up conv6_1/linear
I0105 00:02:46.751271 24353 net.cpp:157] Top shape: 1 160 12 12 (23040)
I0105 00:02:46.751276 24353 net.cpp:165] Memory required for data: 417351564
I0105 00:02:46.751283 24353 layer_factory.hpp:77] Creating layer conv6_1/linear/bn
I0105 00:02:46.751297 24353 net.cpp:100] Creating Layer conv6_1/linear/bn
I0105 00:02:46.751304 24353 net.cpp:434] conv6_1/linear/bn <- conv6_1/linear
I0105 00:02:46.751312 24353 net.cpp:408] conv6_1/linear/bn -> conv6_1/linear/bn
I0105 00:02:46.751500 24353 net.cpp:150] Setting up conv6_1/linear/bn
I0105 00:02:46.751507 24353 net.cpp:157] Top shape: 1 160 12 12 (23040)
I0105 00:02:46.751509 24353 net.cpp:165] Memory required for data: 417443724
I0105 00:02:46.751516 24353 layer_factory.hpp:77] Creating layer conv6_1/linear/scale
I0105 00:02:46.751524 24353 net.cpp:100] Creating Layer conv6_1/linear/scale
I0105 00:02:46.751528 24353 net.cpp:434] conv6_1/linear/scale <- conv6_1/linear/bn
I0105 00:02:46.751533 24353 net.cpp:395] conv6_1/linear/scale -> conv6_1/linear/bn (in-place)
I0105 00:02:46.751569 24353 layer_factory.hpp:77] Creating layer conv6_1/linear/scale
I0105 00:02:46.751669 24353 net.cpp:150] Setting up conv6_1/linear/scale
I0105 00:02:46.751675 24353 net.cpp:157] Top shape: 1 160 12 12 (23040)
I0105 00:02:46.751679 24353 net.cpp:165] Memory required for data: 417535884
I0105 00:02:46.751684 24353 layer_factory.hpp:77] Creating layer block_6_1
I0105 00:02:46.751691 24353 net.cpp:100] Creating Layer block_6_1
I0105 00:02:46.751696 24353 net.cpp:434] block_6_1 <- conv5_3/linear/bn_conv5_3/linear/scale_0_split_1
I0105 00:02:46.751700 24353 net.cpp:434] block_6_1 <- conv6_1/linear/bn
I0105 00:02:46.751708 24353 net.cpp:408] block_6_1 -> block_6_1
I0105 00:02:46.751741 24353 net.cpp:150] Setting up block_6_1
I0105 00:02:46.751749 24353 net.cpp:157] Top shape: 1 160 12 12 (23040)
I0105 00:02:46.751752 24353 net.cpp:165] Memory required for data: 417628044
I0105 00:02:46.751757 24353 layer_factory.hpp:77] Creating layer block_6_1_block_6_1_0_split
I0105 00:02:46.751766 24353 net.cpp:100] Creating Layer block_6_1_block_6_1_0_split
I0105 00:02:46.751771 24353 net.cpp:434] block_6_1_block_6_1_0_split <- block_6_1
I0105 00:02:46.751777 24353 net.cpp:408] block_6_1_block_6_1_0_split -> block_6_1_block_6_1_0_split_0
I0105 00:02:46.751786 24353 net.cpp:408] block_6_1_block_6_1_0_split -> block_6_1_block_6_1_0_split_1
I0105 00:02:46.751826 24353 net.cpp:150] Setting up block_6_1_block_6_1_0_split
I0105 00:02:46.751832 24353 net.cpp:157] Top shape: 1 160 12 12 (23040)
I0105 00:02:46.751837 24353 net.cpp:157] Top shape: 1 160 12 12 (23040)
I0105 00:02:46.751842 24353 net.cpp:165] Memory required for data: 417812364
I0105 00:02:46.751847 24353 layer_factory.hpp:77] Creating layer conv6_2/expand
I0105 00:02:46.751857 24353 net.cpp:100] Creating Layer conv6_2/expand
I0105 00:02:46.751862 24353 net.cpp:434] conv6_2/expand <- block_6_1_block_6_1_0_split_0
I0105 00:02:46.751868 24353 net.cpp:408] conv6_2/expand -> conv6_2/expand
I0105 00:02:46.757840 24353 net.cpp:150] Setting up conv6_2/expand
I0105 00:02:46.757853 24353 net.cpp:157] Top shape: 1 960 12 12 (138240)
I0105 00:02:46.757858 24353 net.cpp:165] Memory required for data: 418365324
I0105 00:02:46.757863 24353 layer_factory.hpp:77] Creating layer conv6_2/expand/bn
I0105 00:02:46.757872 24353 net.cpp:100] Creating Layer conv6_2/expand/bn
I0105 00:02:46.757879 24353 net.cpp:434] conv6_2/expand/bn <- conv6_2/expand
I0105 00:02:46.757884 24353 net.cpp:408] conv6_2/expand/bn -> conv6_2/expand/bn
I0105 00:02:46.758119 24353 net.cpp:150] Setting up conv6_2/expand/bn
I0105 00:02:46.758126 24353 net.cpp:157] Top shape: 1 960 12 12 (138240)
I0105 00:02:46.758129 24353 net.cpp:165] Memory required for data: 418918284
I0105 00:02:46.758137 24353 layer_factory.hpp:77] Creating layer conv6_2/expand/scale
I0105 00:02:46.758146 24353 net.cpp:100] Creating Layer conv6_2/expand/scale
I0105 00:02:46.758149 24353 net.cpp:434] conv6_2/expand/scale <- conv6_2/expand/bn
I0105 00:02:46.758155 24353 net.cpp:395] conv6_2/expand/scale -> conv6_2/expand/bn (in-place)
I0105 00:02:46.758203 24353 layer_factory.hpp:77] Creating layer conv6_2/expand/scale
I0105 00:02:46.758322 24353 net.cpp:150] Setting up conv6_2/expand/scale
I0105 00:02:46.758328 24353 net.cpp:157] Top shape: 1 960 12 12 (138240)
I0105 00:02:46.758332 24353 net.cpp:165] Memory required for data: 419471244
I0105 00:02:46.758338 24353 layer_factory.hpp:77] Creating layer relu6_2/expand
I0105 00:02:46.758345 24353 net.cpp:100] Creating Layer relu6_2/expand
I0105 00:02:46.758349 24353 net.cpp:434] relu6_2/expand <- conv6_2/expand/bn
I0105 00:02:46.758355 24353 net.cpp:395] relu6_2/expand -> conv6_2/expand/bn (in-place)
I0105 00:02:46.758548 24353 net.cpp:150] Setting up relu6_2/expand
I0105 00:02:46.758556 24353 net.cpp:157] Top shape: 1 960 12 12 (138240)
I0105 00:02:46.758560 24353 net.cpp:165] Memory required for data: 420024204
I0105 00:02:46.758564 24353 layer_factory.hpp:77] Creating layer conv6_2/dwise
I0105 00:02:46.758574 24353 net.cpp:100] Creating Layer conv6_2/dwise
I0105 00:02:46.758577 24353 net.cpp:434] conv6_2/dwise <- conv6_2/expand/bn
I0105 00:02:46.758584 24353 net.cpp:408] conv6_2/dwise -> conv6_2/dwise
I0105 00:02:46.759061 24353 net.cpp:150] Setting up conv6_2/dwise
I0105 00:02:46.759070 24353 net.cpp:157] Top shape: 1 960 12 12 (138240)
I0105 00:02:46.759074 24353 net.cpp:165] Memory required for data: 420577164
I0105 00:02:46.759079 24353 layer_factory.hpp:77] Creating layer conv6_2/dwise/bn
I0105 00:02:46.759085 24353 net.cpp:100] Creating Layer conv6_2/dwise/bn
I0105 00:02:46.759089 24353 net.cpp:434] conv6_2/dwise/bn <- conv6_2/dwise
I0105 00:02:46.759096 24353 net.cpp:408] conv6_2/dwise/bn -> conv6_2/dwise/bn
I0105 00:02:46.759315 24353 net.cpp:150] Setting up conv6_2/dwise/bn
I0105 00:02:46.759322 24353 net.cpp:157] Top shape: 1 960 12 12 (138240)
I0105 00:02:46.759325 24353 net.cpp:165] Memory required for data: 421130124
I0105 00:02:46.759333 24353 layer_factory.hpp:77] Creating layer conv6_2/dwise/scale
I0105 00:02:46.759340 24353 net.cpp:100] Creating Layer conv6_2/dwise/scale
I0105 00:02:46.759344 24353 net.cpp:434] conv6_2/dwise/scale <- conv6_2/dwise/bn
I0105 00:02:46.759349 24353 net.cpp:395] conv6_2/dwise/scale -> conv6_2/dwise/bn (in-place)
I0105 00:02:46.759394 24353 layer_factory.hpp:77] Creating layer conv6_2/dwise/scale
I0105 00:02:46.759512 24353 net.cpp:150] Setting up conv6_2/dwise/scale
I0105 00:02:46.759518 24353 net.cpp:157] Top shape: 1 960 12 12 (138240)
I0105 00:02:46.759522 24353 net.cpp:165] Memory required for data: 421683084
I0105 00:02:46.759528 24353 layer_factory.hpp:77] Creating layer relu6_2/dwise
I0105 00:02:46.759533 24353 net.cpp:100] Creating Layer relu6_2/dwise
I0105 00:02:46.759538 24353 net.cpp:434] relu6_2/dwise <- conv6_2/dwise/bn
I0105 00:02:46.759542 24353 net.cpp:395] relu6_2/dwise -> conv6_2/dwise/bn (in-place)
I0105 00:02:46.759733 24353 net.cpp:150] Setting up relu6_2/dwise
I0105 00:02:46.759742 24353 net.cpp:157] Top shape: 1 960 12 12 (138240)
I0105 00:02:46.759745 24353 net.cpp:165] Memory required for data: 422236044
I0105 00:02:46.759749 24353 layer_factory.hpp:77] Creating layer conv6_2/linear
I0105 00:02:46.759759 24353 net.cpp:100] Creating Layer conv6_2/linear
I0105 00:02:46.759764 24353 net.cpp:434] conv6_2/linear <- conv6_2/dwise/bn
I0105 00:02:46.759769 24353 net.cpp:408] conv6_2/linear -> conv6_2/linear
I0105 00:02:46.766124 24353 net.cpp:150] Setting up conv6_2/linear
I0105 00:02:46.766140 24353 net.cpp:157] Top shape: 1 160 12 12 (23040)
I0105 00:02:46.766144 24353 net.cpp:165] Memory required for data: 422328204
I0105 00:02:46.766149 24353 layer_factory.hpp:77] Creating layer conv6_2/linear/bn
I0105 00:02:46.766158 24353 net.cpp:100] Creating Layer conv6_2/linear/bn
I0105 00:02:46.766162 24353 net.cpp:434] conv6_2/linear/bn <- conv6_2/linear
I0105 00:02:46.766168 24353 net.cpp:408] conv6_2/linear/bn -> conv6_2/linear/bn
I0105 00:02:46.766355 24353 net.cpp:150] Setting up conv6_2/linear/bn
I0105 00:02:46.766360 24353 net.cpp:157] Top shape: 1 160 12 12 (23040)
I0105 00:02:46.766364 24353 net.cpp:165] Memory required for data: 422420364
I0105 00:02:46.766371 24353 layer_factory.hpp:77] Creating layer conv6_2/linear/scale
I0105 00:02:46.766377 24353 net.cpp:100] Creating Layer conv6_2/linear/scale
I0105 00:02:46.766381 24353 net.cpp:434] conv6_2/linear/scale <- conv6_2/linear/bn
I0105 00:02:46.766386 24353 net.cpp:395] conv6_2/linear/scale -> conv6_2/linear/bn (in-place)
I0105 00:02:46.766419 24353 layer_factory.hpp:77] Creating layer conv6_2/linear/scale
I0105 00:02:46.766512 24353 net.cpp:150] Setting up conv6_2/linear/scale
I0105 00:02:46.766518 24353 net.cpp:157] Top shape: 1 160 12 12 (23040)
I0105 00:02:46.766521 24353 net.cpp:165] Memory required for data: 422512524
I0105 00:02:46.766526 24353 layer_factory.hpp:77] Creating layer block_6_2
I0105 00:02:46.766532 24353 net.cpp:100] Creating Layer block_6_2
I0105 00:02:46.766537 24353 net.cpp:434] block_6_2 <- block_6_1_block_6_1_0_split_1
I0105 00:02:46.766542 24353 net.cpp:434] block_6_2 <- conv6_2/linear/bn
I0105 00:02:46.766546 24353 net.cpp:408] block_6_2 -> block_6_2
I0105 00:02:46.766567 24353 net.cpp:150] Setting up block_6_2
I0105 00:02:46.766571 24353 net.cpp:157] Top shape: 1 160 12 12 (23040)
I0105 00:02:46.766574 24353 net.cpp:165] Memory required for data: 422604684
I0105 00:02:46.766578 24353 layer_factory.hpp:77] Creating layer block_6_2_block_6_2_0_split
I0105 00:02:46.766582 24353 net.cpp:100] Creating Layer block_6_2_block_6_2_0_split
I0105 00:02:46.766587 24353 net.cpp:434] block_6_2_block_6_2_0_split <- block_6_2
I0105 00:02:46.766590 24353 net.cpp:408] block_6_2_block_6_2_0_split -> block_6_2_block_6_2_0_split_0
I0105 00:02:46.766597 24353 net.cpp:408] block_6_2_block_6_2_0_split -> block_6_2_block_6_2_0_split_1
I0105 00:02:46.766602 24353 net.cpp:408] block_6_2_block_6_2_0_split -> block_6_2_block_6_2_0_split_2
I0105 00:02:46.766639 24353 net.cpp:150] Setting up block_6_2_block_6_2_0_split
I0105 00:02:46.766644 24353 net.cpp:157] Top shape: 1 160 12 12 (23040)
I0105 00:02:46.766649 24353 net.cpp:157] Top shape: 1 160 12 12 (23040)
I0105 00:02:46.766652 24353 net.cpp:157] Top shape: 1 160 12 12 (23040)
I0105 00:02:46.766654 24353 net.cpp:165] Memory required for data: 422881164
I0105 00:02:46.766657 24353 layer_factory.hpp:77] Creating layer conv6_3/expand
I0105 00:02:46.766664 24353 net.cpp:100] Creating Layer conv6_3/expand
I0105 00:02:46.766669 24353 net.cpp:434] conv6_3/expand <- block_6_2_block_6_2_0_split_0
I0105 00:02:46.766674 24353 net.cpp:408] conv6_3/expand -> conv6_3/expand
I0105 00:02:46.771553 24353 net.cpp:150] Setting up conv6_3/expand
I0105 00:02:46.771565 24353 net.cpp:157] Top shape: 1 960 12 12 (138240)
I0105 00:02:46.771569 24353 net.cpp:165] Memory required for data: 423434124
I0105 00:02:46.771574 24353 layer_factory.hpp:77] Creating layer conv6_3/expand/bn
I0105 00:02:46.771580 24353 net.cpp:100] Creating Layer conv6_3/expand/bn
I0105 00:02:46.771585 24353 net.cpp:434] conv6_3/expand/bn <- conv6_3/expand
I0105 00:02:46.771591 24353 net.cpp:408] conv6_3/expand/bn -> conv6_3/expand/bn
I0105 00:02:46.771795 24353 net.cpp:150] Setting up conv6_3/expand/bn
I0105 00:02:46.771801 24353 net.cpp:157] Top shape: 1 960 12 12 (138240)
I0105 00:02:46.771806 24353 net.cpp:165] Memory required for data: 423987084
I0105 00:02:46.771812 24353 layer_factory.hpp:77] Creating layer conv6_3/expand/scale
I0105 00:02:46.771821 24353 net.cpp:100] Creating Layer conv6_3/expand/scale
I0105 00:02:46.771826 24353 net.cpp:434] conv6_3/expand/scale <- conv6_3/expand/bn
I0105 00:02:46.771831 24353 net.cpp:395] conv6_3/expand/scale -> conv6_3/expand/bn (in-place)
I0105 00:02:46.771880 24353 layer_factory.hpp:77] Creating layer conv6_3/expand/scale
I0105 00:02:46.772008 24353 net.cpp:150] Setting up conv6_3/expand/scale
I0105 00:02:46.772016 24353 net.cpp:157] Top shape: 1 960 12 12 (138240)
I0105 00:02:46.772019 24353 net.cpp:165] Memory required for data: 424540044
I0105 00:02:46.772025 24353 layer_factory.hpp:77] Creating layer relu6_3/expand
I0105 00:02:46.772032 24353 net.cpp:100] Creating Layer relu6_3/expand
I0105 00:02:46.772037 24353 net.cpp:434] relu6_3/expand <- conv6_3/expand/bn
I0105 00:02:46.772042 24353 net.cpp:395] relu6_3/expand -> conv6_3/expand/bn (in-place)
I0105 00:02:46.772217 24353 net.cpp:150] Setting up relu6_3/expand
I0105 00:02:46.772224 24353 net.cpp:157] Top shape: 1 960 12 12 (138240)
I0105 00:02:46.772228 24353 net.cpp:165] Memory required for data: 425093004
I0105 00:02:46.772230 24353 layer_factory.hpp:77] Creating layer conv6_3/dwise
I0105 00:02:46.772239 24353 net.cpp:100] Creating Layer conv6_3/dwise
I0105 00:02:46.772243 24353 net.cpp:434] conv6_3/dwise <- conv6_3/expand/bn
I0105 00:02:46.772248 24353 net.cpp:408] conv6_3/dwise -> conv6_3/dwise
I0105 00:02:46.772640 24353 net.cpp:150] Setting up conv6_3/dwise
I0105 00:02:46.772646 24353 net.cpp:157] Top shape: 1 960 12 12 (138240)
I0105 00:02:46.772650 24353 net.cpp:165] Memory required for data: 425645964
I0105 00:02:46.772653 24353 layer_factory.hpp:77] Creating layer conv6_3/dwise/bn
I0105 00:02:46.772658 24353 net.cpp:100] Creating Layer conv6_3/dwise/bn
I0105 00:02:46.772662 24353 net.cpp:434] conv6_3/dwise/bn <- conv6_3/dwise
I0105 00:02:46.772667 24353 net.cpp:408] conv6_3/dwise/bn -> conv6_3/dwise/bn
I0105 00:02:46.772855 24353 net.cpp:150] Setting up conv6_3/dwise/bn
I0105 00:02:46.772862 24353 net.cpp:157] Top shape: 1 960 12 12 (138240)
I0105 00:02:46.772866 24353 net.cpp:165] Memory required for data: 426198924
I0105 00:02:46.772872 24353 layer_factory.hpp:77] Creating layer conv6_3/dwise/scale
I0105 00:02:46.772878 24353 net.cpp:100] Creating Layer conv6_3/dwise/scale
I0105 00:02:46.772882 24353 net.cpp:434] conv6_3/dwise/scale <- conv6_3/dwise/bn
I0105 00:02:46.772886 24353 net.cpp:395] conv6_3/dwise/scale -> conv6_3/dwise/bn (in-place)
I0105 00:02:46.772924 24353 layer_factory.hpp:77] Creating layer conv6_3/dwise/scale
I0105 00:02:46.773025 24353 net.cpp:150] Setting up conv6_3/dwise/scale
I0105 00:02:46.773031 24353 net.cpp:157] Top shape: 1 960 12 12 (138240)
I0105 00:02:46.773034 24353 net.cpp:165] Memory required for data: 426751884
I0105 00:02:46.773039 24353 layer_factory.hpp:77] Creating layer relu6_3/dwise
I0105 00:02:46.773043 24353 net.cpp:100] Creating Layer relu6_3/dwise
I0105 00:02:46.773047 24353 net.cpp:434] relu6_3/dwise <- conv6_3/dwise/bn
I0105 00:02:46.773051 24353 net.cpp:395] relu6_3/dwise -> conv6_3/dwise/bn (in-place)
I0105 00:02:46.773216 24353 net.cpp:150] Setting up relu6_3/dwise
I0105 00:02:46.773222 24353 net.cpp:157] Top shape: 1 960 12 12 (138240)
I0105 00:02:46.773226 24353 net.cpp:165] Memory required for data: 427304844
I0105 00:02:46.773228 24353 layer_factory.hpp:77] Creating layer conv6_3/linear
I0105 00:02:46.773236 24353 net.cpp:100] Creating Layer conv6_3/linear
I0105 00:02:46.773241 24353 net.cpp:434] conv6_3/linear <- conv6_3/dwise/bn
I0105 00:02:46.773245 24353 net.cpp:408] conv6_3/linear -> conv6_3/linear
I0105 00:02:46.783203 24353 net.cpp:150] Setting up conv6_3/linear
I0105 00:02:46.783228 24353 net.cpp:157] Top shape: 1 320 12 12 (46080)
I0105 00:02:46.783232 24353 net.cpp:165] Memory required for data: 427489164
I0105 00:02:46.783241 24353 layer_factory.hpp:77] Creating layer conv6_3/linear/bn
I0105 00:02:46.783253 24353 net.cpp:100] Creating Layer conv6_3/linear/bn
I0105 00:02:46.783265 24353 net.cpp:434] conv6_3/linear/bn <- conv6_3/linear
I0105 00:02:46.783272 24353 net.cpp:408] conv6_3/linear/bn -> conv6_3/linear/bn
I0105 00:02:46.783488 24353 net.cpp:150] Setting up conv6_3/linear/bn
I0105 00:02:46.783493 24353 net.cpp:157] Top shape: 1 320 12 12 (46080)
I0105 00:02:46.783498 24353 net.cpp:165] Memory required for data: 427673484
I0105 00:02:46.783504 24353 layer_factory.hpp:77] Creating layer conv6_3/linear/scale
I0105 00:02:46.783512 24353 net.cpp:100] Creating Layer conv6_3/linear/scale
I0105 00:02:46.783517 24353 net.cpp:434] conv6_3/linear/scale <- conv6_3/linear/bn
I0105 00:02:46.783521 24353 net.cpp:395] conv6_3/linear/scale -> conv6_3/linear/bn (in-place)
I0105 00:02:46.783571 24353 layer_factory.hpp:77] Creating layer conv6_3/linear/scale
I0105 00:02:46.783674 24353 net.cpp:150] Setting up conv6_3/linear/scale
I0105 00:02:46.783679 24353 net.cpp:157] Top shape: 1 320 12 12 (46080)
I0105 00:02:46.783682 24353 net.cpp:165] Memory required for data: 427857804
I0105 00:02:46.783689 24353 layer_factory.hpp:77] Creating layer LFCN_3_5x5
I0105 00:02:46.783697 24353 net.cpp:100] Creating Layer LFCN_3_5x5
I0105 00:02:46.783704 24353 net.cpp:434] LFCN_3_5x5 <- block_6_2_block_6_2_0_split_1
I0105 00:02:46.783710 24353 net.cpp:408] LFCN_3_5x5 -> LFCN_3_5x5
I0105 00:02:46.787114 24353 net.cpp:150] Setting up LFCN_3_5x5
I0105 00:02:46.787145 24353 net.cpp:157] Top shape: 1 9 12 12 (1296)
I0105 00:02:46.787150 24353 net.cpp:165] Memory required for data: 427862988
I0105 00:02:46.787160 24353 layer_factory.hpp:77] Creating layer LFCN_3_5x5_LFCN_3_5x5_0_split
I0105 00:02:46.787173 24353 net.cpp:100] Creating Layer LFCN_3_5x5_LFCN_3_5x5_0_split
I0105 00:02:46.787183 24353 net.cpp:434] LFCN_3_5x5_LFCN_3_5x5_0_split <- LFCN_3_5x5
I0105 00:02:46.787190 24353 net.cpp:408] LFCN_3_5x5_LFCN_3_5x5_0_split -> LFCN_3_5x5_LFCN_3_5x5_0_split_0
I0105 00:02:46.787199 24353 net.cpp:408] LFCN_3_5x5_LFCN_3_5x5_0_split -> LFCN_3_5x5_LFCN_3_5x5_0_split_1
I0105 00:02:46.787205 24353 net.cpp:408] LFCN_3_5x5_LFCN_3_5x5_0_split -> LFCN_3_5x5_LFCN_3_5x5_0_split_2
I0105 00:02:46.787256 24353 net.cpp:150] Setting up LFCN_3_5x5_LFCN_3_5x5_0_split
I0105 00:02:46.787261 24353 net.cpp:157] Top shape: 1 9 12 12 (1296)
I0105 00:02:46.787264 24353 net.cpp:157] Top shape: 1 9 12 12 (1296)
I0105 00:02:46.787268 24353 net.cpp:157] Top shape: 1 9 12 12 (1296)
I0105 00:02:46.787271 24353 net.cpp:165] Memory required for data: 427878540
I0105 00:02:46.787276 24353 layer_factory.hpp:77] Creating layer detection_loss_3_5x5
I0105 00:02:46.787286 24353 net.cpp:100] Creating Layer detection_loss_3_5x5
I0105 00:02:46.787288 24353 net.cpp:434] detection_loss_3_5x5 <- LFCN_3_5x5_LFCN_3_5x5_0_split_0
I0105 00:02:46.787297 24353 net.cpp:434] detection_loss_3_5x5 <- label_3_5x5_data_5_split_0
I0105 00:02:46.787302 24353 net.cpp:408] detection_loss_3_5x5 -> loss_3_5x5
I0105 00:02:46.787312 24353 layer_factory.hpp:77] Creating layer detection_loss_3_5x5
I0105 00:02:46.787668 24353 net.cpp:150] Setting up detection_loss_3_5x5
I0105 00:02:46.787676 24353 net.cpp:157] Top shape: 1 1 1 2 (2)
I0105 00:02:46.787679 24353 net.cpp:160]     with loss weight 1
I0105 00:02:46.787693 24353 net.cpp:165] Memory required for data: 427878548
I0105 00:02:46.787696 24353 layer_factory.hpp:77] Creating layer detection_accuracy_3_5x5
I0105 00:02:46.787703 24353 net.cpp:100] Creating Layer detection_accuracy_3_5x5
I0105 00:02:46.787708 24353 net.cpp:434] detection_accuracy_3_5x5 <- LFCN_3_5x5_LFCN_3_5x5_0_split_1
I0105 00:02:46.787712 24353 net.cpp:434] detection_accuracy_3_5x5 <- label_3_5x5_data_5_split_1
I0105 00:02:46.787719 24353 net.cpp:408] detection_accuracy_3_5x5 -> accuracy_3_5x5
I0105 00:02:46.787727 24353 net.cpp:408] detection_accuracy_3_5x5 -> boxiou_3_5x5
I0105 00:02:46.787767 24353 net.cpp:150] Setting up detection_accuracy_3_5x5
I0105 00:02:46.787772 24353 net.cpp:157] Top shape: 1 1 1 2 (2)
I0105 00:02:46.787776 24353 net.cpp:157] Top shape: 1 1 1 1 (1)
I0105 00:02:46.787778 24353 net.cpp:165] Memory required for data: 427878560
I0105 00:02:46.787782 24353 layer_factory.hpp:77] Creating layer LFCN_3_7x7
I0105 00:02:46.787796 24353 net.cpp:100] Creating Layer LFCN_3_7x7
I0105 00:02:46.787802 24353 net.cpp:434] LFCN_3_7x7 <- block_6_2_block_6_2_0_split_2
I0105 00:02:46.787808 24353 net.cpp:408] LFCN_3_7x7 -> LFCN_3_7x7
I0105 00:02:46.792132 24353 net.cpp:150] Setting up LFCN_3_7x7
I0105 00:02:46.792220 24353 net.cpp:157] Top shape: 1 9 12 12 (1296)
I0105 00:02:46.792227 24353 net.cpp:165] Memory required for data: 427883744
I0105 00:02:46.792248 24353 layer_factory.hpp:77] Creating layer LFCN_3_7x7_LFCN_3_7x7_0_split
I0105 00:02:46.792270 24353 net.cpp:100] Creating Layer LFCN_3_7x7_LFCN_3_7x7_0_split
I0105 00:02:46.792280 24353 net.cpp:434] LFCN_3_7x7_LFCN_3_7x7_0_split <- LFCN_3_7x7
I0105 00:02:46.792289 24353 net.cpp:408] LFCN_3_7x7_LFCN_3_7x7_0_split -> LFCN_3_7x7_LFCN_3_7x7_0_split_0
I0105 00:02:46.792301 24353 net.cpp:408] LFCN_3_7x7_LFCN_3_7x7_0_split -> LFCN_3_7x7_LFCN_3_7x7_0_split_1
I0105 00:02:46.792306 24353 net.cpp:408] LFCN_3_7x7_LFCN_3_7x7_0_split -> LFCN_3_7x7_LFCN_3_7x7_0_split_2
I0105 00:02:46.792371 24353 net.cpp:150] Setting up LFCN_3_7x7_LFCN_3_7x7_0_split
I0105 00:02:46.792376 24353 net.cpp:157] Top shape: 1 9 12 12 (1296)
I0105 00:02:46.792381 24353 net.cpp:157] Top shape: 1 9 12 12 (1296)
I0105 00:02:46.792384 24353 net.cpp:157] Top shape: 1 9 12 12 (1296)
I0105 00:02:46.792387 24353 net.cpp:165] Memory required for data: 427899296
I0105 00:02:46.792390 24353 layer_factory.hpp:77] Creating layer detection_loss_3_7x7
I0105 00:02:46.792400 24353 net.cpp:100] Creating Layer detection_loss_3_7x7
I0105 00:02:46.792404 24353 net.cpp:434] detection_loss_3_7x7 <- LFCN_3_7x7_LFCN_3_7x7_0_split_0
I0105 00:02:46.792412 24353 net.cpp:434] detection_loss_3_7x7 <- label_3_7x7_data_6_split_0
I0105 00:02:46.792419 24353 net.cpp:408] detection_loss_3_7x7 -> loss_3_7x7
I0105 00:02:46.792429 24353 layer_factory.hpp:77] Creating layer detection_loss_3_7x7
I0105 00:02:46.793759 24353 net.cpp:150] Setting up detection_loss_3_7x7
I0105 00:02:46.793889 24353 net.cpp:157] Top shape: 1 1 1 2 (2)
I0105 00:02:46.793895 24353 net.cpp:160]     with loss weight 1
I0105 00:02:46.793944 24353 net.cpp:165] Memory required for data: 427899304
I0105 00:02:46.793958 24353 layer_factory.hpp:77] Creating layer detection_accuracy_3_7x7
I0105 00:02:46.793998 24353 net.cpp:100] Creating Layer detection_accuracy_3_7x7
I0105 00:02:46.794018 24353 net.cpp:434] detection_accuracy_3_7x7 <- LFCN_3_7x7_LFCN_3_7x7_0_split_1
I0105 00:02:46.794037 24353 net.cpp:434] detection_accuracy_3_7x7 <- label_3_7x7_data_6_split_1
I0105 00:02:46.794052 24353 net.cpp:408] detection_accuracy_3_7x7 -> accuracy_3_7x7
I0105 00:02:46.794073 24353 net.cpp:408] detection_accuracy_3_7x7 -> boxiou_3_7x7
I0105 00:02:46.794152 24353 net.cpp:150] Setting up detection_accuracy_3_7x7
I0105 00:02:46.794157 24353 net.cpp:157] Top shape: 1 1 1 2 (2)
I0105 00:02:46.794162 24353 net.cpp:157] Top shape: 1 1 1 1 (1)
I0105 00:02:46.794164 24353 net.cpp:165] Memory required for data: 427899316
I0105 00:02:46.794168 24353 layer_factory.hpp:77] Creating layer pool6
I0105 00:02:46.794180 24353 net.cpp:100] Creating Layer pool6
I0105 00:02:46.794188 24353 net.cpp:434] pool6 <- conv6_3/linear/bn
I0105 00:02:46.794198 24353 net.cpp:408] pool6 -> pool6
I0105 00:02:46.794242 24353 net.cpp:150] Setting up pool6
I0105 00:02:46.794247 24353 net.cpp:157] Top shape: 1 320 6 6 (11520)
I0105 00:02:46.794250 24353 net.cpp:165] Memory required for data: 427945396
I0105 00:02:46.794255 24353 layer_factory.hpp:77] Creating layer LFCN_4_5x5
I0105 00:02:46.794276 24353 net.cpp:100] Creating Layer LFCN_4_5x5
I0105 00:02:46.794281 24353 net.cpp:434] LFCN_4_5x5 <- pool6
I0105 00:02:46.794286 24353 net.cpp:408] LFCN_4_5x5 -> LFCN_4_5x5
I0105 00:02:46.797886 24353 net.cpp:150] Setting up LFCN_4_5x5
I0105 00:02:46.797915 24353 net.cpp:157] Top shape: 1 9 6 6 (324)
I0105 00:02:46.797919 24353 net.cpp:165] Memory required for data: 427946692
I0105 00:02:46.797929 24353 layer_factory.hpp:77] Creating layer LFCN_4_5x5_LFCN_4_5x5_0_split
I0105 00:02:46.797940 24353 net.cpp:100] Creating Layer LFCN_4_5x5_LFCN_4_5x5_0_split
I0105 00:02:46.797948 24353 net.cpp:434] LFCN_4_5x5_LFCN_4_5x5_0_split <- LFCN_4_5x5
I0105 00:02:46.797957 24353 net.cpp:408] LFCN_4_5x5_LFCN_4_5x5_0_split -> LFCN_4_5x5_LFCN_4_5x5_0_split_0
I0105 00:02:46.797968 24353 net.cpp:408] LFCN_4_5x5_LFCN_4_5x5_0_split -> LFCN_4_5x5_LFCN_4_5x5_0_split_1
I0105 00:02:46.797973 24353 net.cpp:408] LFCN_4_5x5_LFCN_4_5x5_0_split -> LFCN_4_5x5_LFCN_4_5x5_0_split_2
I0105 00:02:46.798025 24353 net.cpp:150] Setting up LFCN_4_5x5_LFCN_4_5x5_0_split
I0105 00:02:46.798030 24353 net.cpp:157] Top shape: 1 9 6 6 (324)
I0105 00:02:46.798034 24353 net.cpp:157] Top shape: 1 9 6 6 (324)
I0105 00:02:46.798038 24353 net.cpp:157] Top shape: 1 9 6 6 (324)
I0105 00:02:46.798041 24353 net.cpp:165] Memory required for data: 427950580
I0105 00:02:46.798044 24353 layer_factory.hpp:77] Creating layer detection_loss_4_5x5
I0105 00:02:46.798051 24353 net.cpp:100] Creating Layer detection_loss_4_5x5
I0105 00:02:46.798055 24353 net.cpp:434] detection_loss_4_5x5 <- LFCN_4_5x5_LFCN_4_5x5_0_split_0
I0105 00:02:46.798061 24353 net.cpp:434] detection_loss_4_5x5 <- label_4_5x5_data_7_split_0
I0105 00:02:46.798068 24353 net.cpp:408] detection_loss_4_5x5 -> loss_4_5x5
I0105 00:02:46.798076 24353 layer_factory.hpp:77] Creating layer detection_loss_4_5x5
I0105 00:02:46.798386 24353 net.cpp:150] Setting up detection_loss_4_5x5
I0105 00:02:46.798394 24353 net.cpp:157] Top shape: 1 1 1 2 (2)
I0105 00:02:46.798398 24353 net.cpp:160]     with loss weight 1
I0105 00:02:46.798408 24353 net.cpp:165] Memory required for data: 427950588
I0105 00:02:46.798411 24353 layer_factory.hpp:77] Creating layer detection_accuracy_4_5x5
I0105 00:02:46.798419 24353 net.cpp:100] Creating Layer detection_accuracy_4_5x5
I0105 00:02:46.798422 24353 net.cpp:434] detection_accuracy_4_5x5 <- LFCN_4_5x5_LFCN_4_5x5_0_split_1
I0105 00:02:46.798427 24353 net.cpp:434] detection_accuracy_4_5x5 <- label_4_5x5_data_7_split_1
I0105 00:02:46.798434 24353 net.cpp:408] detection_accuracy_4_5x5 -> accuracy_4_5x5
I0105 00:02:46.798441 24353 net.cpp:408] detection_accuracy_4_5x5 -> boxiou_4_5x5
I0105 00:02:46.798477 24353 net.cpp:150] Setting up detection_accuracy_4_5x5
I0105 00:02:46.798482 24353 net.cpp:157] Top shape: 1 1 1 2 (2)
I0105 00:02:46.798486 24353 net.cpp:157] Top shape: 1 1 1 1 (1)
I0105 00:02:46.798488 24353 net.cpp:165] Memory required for data: 427950600
I0105 00:02:46.798491 24353 layer_factory.hpp:77] Creating layer proposals
I0105 00:02:46.798501 24353 net.cpp:100] Creating Layer proposals
I0105 00:02:46.798504 24353 net.cpp:434] proposals <- LFCN_1_5x5_LFCN_1_5x5_0_split_2
I0105 00:02:46.798508 24353 net.cpp:434] proposals <- LFCN_1_7x7_LFCN_1_7x7_0_split_2
I0105 00:02:46.798512 24353 net.cpp:434] proposals <- LFCN_2_5x5_LFCN_2_5x5_0_split_2
I0105 00:02:46.798516 24353 net.cpp:434] proposals <- LFCN_2_7x7_LFCN_2_7x7_0_split_2
I0105 00:02:46.798521 24353 net.cpp:434] proposals <- LFCN_3_5x5_LFCN_3_5x5_0_split_2
I0105 00:02:46.798524 24353 net.cpp:434] proposals <- LFCN_3_7x7_LFCN_3_7x7_0_split_2
I0105 00:02:46.798527 24353 net.cpp:434] proposals <- LFCN_4_5x5_LFCN_4_5x5_0_split_2
I0105 00:02:46.798532 24353 net.cpp:408] proposals -> proposals
I0105 00:02:46.798552 24353 net.cpp:150] Setting up proposals
I0105 00:02:46.798557 24353 net.cpp:157] Top shape: 1 5 1 1 (5)
I0105 00:02:46.798559 24353 net.cpp:165] Memory required for data: 427950620
I0105 00:02:46.798563 24353 layer_factory.hpp:77] Creating layer proposal_info
I0105 00:02:46.798571 24353 net.cpp:100] Creating Layer proposal_info
I0105 00:02:46.798575 24353 net.cpp:434] proposal_info <- proposals
I0105 00:02:46.798579 24353 net.cpp:434] proposal_info <- gt_boxes
I0105 00:02:46.798584 24353 net.cpp:408] proposal_info -> rois
I0105 00:02:46.798591 24353 net.cpp:408] proposal_info -> proposal_labels
I0105 00:02:46.798599 24353 net.cpp:408] proposal_info -> proposal_targets
I0105 00:02:46.798606 24353 net.cpp:408] proposal_info -> box_inside_weights
I0105 00:02:46.798612 24353 net.cpp:408] proposal_info -> box_outside_weights
I0105 00:02:46.798619 24353 net.cpp:408] proposal_info -> match_gt_boxes
I0105 00:02:46.798694 24353 net.cpp:150] Setting up proposal_info
I0105 00:02:46.798699 24353 net.cpp:157] Top shape: 128 5 1 1 (640)
I0105 00:02:46.798703 24353 net.cpp:157] Top shape: 128 1 1 1 (128)
I0105 00:02:46.798707 24353 net.cpp:157] Top shape: 128 20 1 1 (2560)
I0105 00:02:46.798712 24353 net.cpp:157] Top shape: 128 20 1 1 (2560)
I0105 00:02:46.798715 24353 net.cpp:157] Top shape: 128 20 1 1 (2560)
I0105 00:02:46.798718 24353 net.cpp:157] Top shape: 128 6 1 1 (768)
I0105 00:02:46.798722 24353 net.cpp:165] Memory required for data: 427987484
I0105 00:02:46.798724 24353 layer_factory.hpp:77] Creating layer rois_proposal_info_0_split
I0105 00:02:46.798748 24353 net.cpp:100] Creating Layer rois_proposal_info_0_split
I0105 00:02:46.798753 24353 net.cpp:434] rois_proposal_info_0_split <- rois
I0105 00:02:46.798758 24353 net.cpp:408] rois_proposal_info_0_split -> rois_proposal_info_0_split_0
I0105 00:02:46.798763 24353 net.cpp:408] rois_proposal_info_0_split -> rois_proposal_info_0_split_1
I0105 00:02:46.798768 24353 net.cpp:408] rois_proposal_info_0_split -> rois_proposal_info_0_split_2
I0105 00:02:46.798847 24353 net.cpp:150] Setting up rois_proposal_info_0_split
I0105 00:02:46.798854 24353 net.cpp:157] Top shape: 128 5 1 1 (640)
I0105 00:02:46.798858 24353 net.cpp:157] Top shape: 128 5 1 1 (640)
I0105 00:02:46.798862 24353 net.cpp:157] Top shape: 128 5 1 1 (640)
I0105 00:02:46.798866 24353 net.cpp:165] Memory required for data: 427995164
I0105 00:02:46.798869 24353 layer_factory.hpp:77] Creating layer proposal_labels_proposal_info_1_split
I0105 00:02:46.798876 24353 net.cpp:100] Creating Layer proposal_labels_proposal_info_1_split
I0105 00:02:46.798879 24353 net.cpp:434] proposal_labels_proposal_info_1_split <- proposal_labels
I0105 00:02:46.798884 24353 net.cpp:408] proposal_labels_proposal_info_1_split -> proposal_labels_proposal_info_1_split_0
I0105 00:02:46.798890 24353 net.cpp:408] proposal_labels_proposal_info_1_split -> proposal_labels_proposal_info_1_split_1
I0105 00:02:46.798920 24353 net.cpp:150] Setting up proposal_labels_proposal_info_1_split
I0105 00:02:46.798925 24353 net.cpp:157] Top shape: 128 1 1 1 (128)
I0105 00:02:46.798929 24353 net.cpp:157] Top shape: 128 1 1 1 (128)
I0105 00:02:46.798933 24353 net.cpp:165] Memory required for data: 427996188
I0105 00:02:46.798935 24353 layer_factory.hpp:77] Creating layer conv4_3_2x
I0105 00:02:46.798944 24353 net.cpp:100] Creating Layer conv4_3_2x
I0105 00:02:46.798949 24353 net.cpp:434] conv4_3_2x <- block_4_6_block_4_6_0_split_2
I0105 00:02:46.798956 24353 net.cpp:408] conv4_3_2x -> conv4_3_2x
I0105 00:02:46.799177 24353 net.cpp:150] Setting up conv4_3_2x
I0105 00:02:46.799185 24353 net.cpp:157] Top shape: 1 64 96 96 (589824)
I0105 00:02:46.799186 24353 net.cpp:165] Memory required for data: 430355484
I0105 00:02:46.799191 24353 layer_factory.hpp:77] Creating layer conv4_3_2x_conv4_3_2x_0_split
I0105 00:02:46.799196 24353 net.cpp:100] Creating Layer conv4_3_2x_conv4_3_2x_0_split
I0105 00:02:46.799201 24353 net.cpp:434] conv4_3_2x_conv4_3_2x_0_split <- conv4_3_2x
I0105 00:02:46.799204 24353 net.cpp:408] conv4_3_2x_conv4_3_2x_0_split -> conv4_3_2x_conv4_3_2x_0_split_0
I0105 00:02:46.799211 24353 net.cpp:408] conv4_3_2x_conv4_3_2x_0_split -> conv4_3_2x_conv4_3_2x_0_split_1
I0105 00:02:46.799239 24353 net.cpp:150] Setting up conv4_3_2x_conv4_3_2x_0_split
I0105 00:02:46.799244 24353 net.cpp:157] Top shape: 1 64 96 96 (589824)
I0105 00:02:46.799247 24353 net.cpp:157] Top shape: 1 64 96 96 (589824)
I0105 00:02:46.799250 24353 net.cpp:165] Memory required for data: 435074076
I0105 00:02:46.799254 24353 layer_factory.hpp:77] Creating layer roi_pool_org
I0105 00:02:46.799259 24353 net.cpp:100] Creating Layer roi_pool_org
I0105 00:02:46.799263 24353 net.cpp:434] roi_pool_org <- conv4_3_2x_conv4_3_2x_0_split_0
I0105 00:02:46.799268 24353 net.cpp:434] roi_pool_org <- rois_proposal_info_0_split_0
I0105 00:02:46.799271 24353 net.cpp:408] roi_pool_org -> roi_pool_org
I0105 00:02:46.799278 24353 roi_pooling_layer.cpp:33] Spatial scale: 0.25
I0105 00:02:46.799310 24353 net.cpp:150] Setting up roi_pool_org
I0105 00:02:46.799314 24353 net.cpp:157] Top shape: 128 64 7 7 (401408)
I0105 00:02:46.799317 24353 net.cpp:165] Memory required for data: 436679708
I0105 00:02:46.799320 24353 layer_factory.hpp:77] Creating layer roi_pool_ctx
I0105 00:02:46.799325 24353 net.cpp:100] Creating Layer roi_pool_ctx
I0105 00:02:46.799329 24353 net.cpp:434] roi_pool_ctx <- conv4_3_2x_conv4_3_2x_0_split_1
I0105 00:02:46.799332 24353 net.cpp:434] roi_pool_ctx <- rois_proposal_info_0_split_1
I0105 00:02:46.799338 24353 net.cpp:408] roi_pool_ctx -> roi_pool_ctx
I0105 00:02:46.799343 24353 roi_pooling_layer.cpp:33] Spatial scale: 0.25
I0105 00:02:46.799371 24353 net.cpp:150] Setting up roi_pool_ctx
I0105 00:02:46.799376 24353 net.cpp:157] Top shape: 128 64 7 7 (401408)
I0105 00:02:46.799379 24353 net.cpp:165] Memory required for data: 438285340
I0105 00:02:46.799382 24353 layer_factory.hpp:77] Creating layer roi_pool
I0105 00:02:46.799387 24353 net.cpp:100] Creating Layer roi_pool
I0105 00:02:46.799391 24353 net.cpp:434] roi_pool <- roi_pool_org
I0105 00:02:46.799396 24353 net.cpp:434] roi_pool <- roi_pool_ctx
I0105 00:02:46.799401 24353 net.cpp:408] roi_pool -> roi_pool
I0105 00:02:46.799417 24353 net.cpp:150] Setting up roi_pool
I0105 00:02:46.799422 24353 net.cpp:157] Top shape: 128 128 7 7 (802816)
I0105 00:02:46.799425 24353 net.cpp:165] Memory required for data: 441496604
I0105 00:02:46.799427 24353 layer_factory.hpp:77] Creating layer roi_c1
I0105 00:02:46.799437 24353 net.cpp:100] Creating Layer roi_c1
I0105 00:02:46.799440 24353 net.cpp:434] roi_c1 <- roi_pool
I0105 00:02:46.799445 24353 net.cpp:408] roi_c1 -> roi_c1
I0105 00:02:46.802448 24353 net.cpp:150] Setting up roi_c1
I0105 00:02:46.802459 24353 net.cpp:157] Top shape: 128 64 5 5 (204800)
I0105 00:02:46.802461 24353 net.cpp:165] Memory required for data: 442315804
I0105 00:02:46.802467 24353 layer_factory.hpp:77] Creating layer roi_c1_relu
I0105 00:02:46.802472 24353 net.cpp:100] Creating Layer roi_c1_relu
I0105 00:02:46.802476 24353 net.cpp:434] roi_c1_relu <- roi_c1
I0105 00:02:46.802481 24353 net.cpp:395] roi_c1_relu -> roi_c1 (in-place)
I0105 00:02:46.802649 24353 net.cpp:150] Setting up roi_c1_relu
I0105 00:02:46.802655 24353 net.cpp:157] Top shape: 128 64 5 5 (204800)
I0105 00:02:46.802659 24353 net.cpp:165] Memory required for data: 443135004
I0105 00:02:46.802661 24353 layer_factory.hpp:77] Creating layer fc6
I0105 00:02:46.802670 24353 net.cpp:100] Creating Layer fc6
I0105 00:02:46.802672 24353 net.cpp:434] fc6 <- roi_c1
I0105 00:02:46.802678 24353 net.cpp:408] fc6 -> fc6
I0105 00:02:46.978590 24353 net.cpp:150] Setting up fc6
I0105 00:02:46.978622 24353 net.cpp:157] Top shape: 128 4096 (524288)
I0105 00:02:46.978626 24353 net.cpp:165] Memory required for data: 445232156
I0105 00:02:46.978636 24353 layer_factory.hpp:77] Creating layer relu6
I0105 00:02:46.978646 24353 net.cpp:100] Creating Layer relu6
I0105 00:02:46.978654 24353 net.cpp:434] relu6 <- fc6
I0105 00:02:46.978660 24353 net.cpp:395] relu6 -> fc6 (in-place)
I0105 00:02:46.978924 24353 net.cpp:150] Setting up relu6
I0105 00:02:46.978933 24353 net.cpp:157] Top shape: 128 4096 (524288)
I0105 00:02:46.978936 24353 net.cpp:165] Memory required for data: 447329308
I0105 00:02:46.978940 24353 layer_factory.hpp:77] Creating layer drop6
I0105 00:02:46.978947 24353 net.cpp:100] Creating Layer drop6
I0105 00:02:46.978950 24353 net.cpp:434] drop6 <- fc6
I0105 00:02:46.978955 24353 net.cpp:395] drop6 -> fc6 (in-place)
I0105 00:02:46.978976 24353 net.cpp:150] Setting up drop6
I0105 00:02:46.978981 24353 net.cpp:157] Top shape: 128 4096 (524288)
I0105 00:02:46.978984 24353 net.cpp:165] Memory required for data: 449426460
I0105 00:02:46.978987 24353 layer_factory.hpp:77] Creating layer fc6_drop6_0_split
I0105 00:02:46.978993 24353 net.cpp:100] Creating Layer fc6_drop6_0_split
I0105 00:02:46.978996 24353 net.cpp:434] fc6_drop6_0_split <- fc6
I0105 00:02:46.979002 24353 net.cpp:408] fc6_drop6_0_split -> fc6_drop6_0_split_0
I0105 00:02:46.979008 24353 net.cpp:408] fc6_drop6_0_split -> fc6_drop6_0_split_1
I0105 00:02:46.979043 24353 net.cpp:150] Setting up fc6_drop6_0_split
I0105 00:02:46.979048 24353 net.cpp:157] Top shape: 128 4096 (524288)
I0105 00:02:46.979053 24353 net.cpp:157] Top shape: 128 4096 (524288)
I0105 00:02:46.979055 24353 net.cpp:165] Memory required for data: 453620764
I0105 00:02:46.979058 24353 layer_factory.hpp:77] Creating layer cls_pred
I0105 00:02:46.979065 24353 net.cpp:100] Creating Layer cls_pred
I0105 00:02:46.979069 24353 net.cpp:434] cls_pred <- fc6_drop6_0_split_0
I0105 00:02:46.979076 24353 net.cpp:408] cls_pred -> cls_pred
I0105 00:02:46.979698 24353 net.cpp:150] Setting up cls_pred
I0105 00:02:46.979706 24353 net.cpp:157] Top shape: 128 5 (640)
I0105 00:02:46.979709 24353 net.cpp:165] Memory required for data: 453623324
I0105 00:02:46.979714 24353 layer_factory.hpp:77] Creating layer cls_pred_cls_pred_0_split
I0105 00:02:46.979718 24353 net.cpp:100] Creating Layer cls_pred_cls_pred_0_split
I0105 00:02:46.979722 24353 net.cpp:434] cls_pred_cls_pred_0_split <- cls_pred
I0105 00:02:46.979728 24353 net.cpp:408] cls_pred_cls_pred_0_split -> cls_pred_cls_pred_0_split_0
I0105 00:02:46.979733 24353 net.cpp:408] cls_pred_cls_pred_0_split -> cls_pred_cls_pred_0_split_1
I0105 00:02:46.979759 24353 net.cpp:150] Setting up cls_pred_cls_pred_0_split
I0105 00:02:46.979765 24353 net.cpp:157] Top shape: 128 5 (640)
I0105 00:02:46.979769 24353 net.cpp:157] Top shape: 128 5 (640)
I0105 00:02:46.979773 24353 net.cpp:165] Memory required for data: 453628444
I0105 00:02:46.979775 24353 layer_factory.hpp:77] Creating layer bbox_pred
I0105 00:02:46.979781 24353 net.cpp:100] Creating Layer bbox_pred
I0105 00:02:46.979784 24353 net.cpp:434] bbox_pred <- fc6_drop6_0_split_1
I0105 00:02:46.979791 24353 net.cpp:408] bbox_pred -> bbox_pred
I0105 00:02:46.981923 24353 net.cpp:150] Setting up bbox_pred
I0105 00:02:46.981930 24353 net.cpp:157] Top shape: 128 20 (2560)
I0105 00:02:46.981933 24353 net.cpp:165] Memory required for data: 453638684
I0105 00:02:46.981938 24353 layer_factory.hpp:77] Creating layer bbox_pred_bbox_pred_0_split
I0105 00:02:46.981945 24353 net.cpp:100] Creating Layer bbox_pred_bbox_pred_0_split
I0105 00:02:46.981948 24353 net.cpp:434] bbox_pred_bbox_pred_0_split <- bbox_pred
I0105 00:02:46.981952 24353 net.cpp:408] bbox_pred_bbox_pred_0_split -> bbox_pred_bbox_pred_0_split_0
I0105 00:02:46.981959 24353 net.cpp:408] bbox_pred_bbox_pred_0_split -> bbox_pred_bbox_pred_0_split_1
I0105 00:02:46.981986 24353 net.cpp:150] Setting up bbox_pred_bbox_pred_0_split
I0105 00:02:46.981992 24353 net.cpp:157] Top shape: 128 20 (2560)
I0105 00:02:46.981994 24353 net.cpp:157] Top shape: 128 20 (2560)
I0105 00:02:46.981997 24353 net.cpp:165] Memory required for data: 453659164
I0105 00:02:46.982002 24353 layer_factory.hpp:77] Creating layer loss_cls
I0105 00:02:46.982007 24353 net.cpp:100] Creating Layer loss_cls
I0105 00:02:46.982010 24353 net.cpp:434] loss_cls <- cls_pred_cls_pred_0_split_0
I0105 00:02:46.982015 24353 net.cpp:434] loss_cls <- proposal_labels_proposal_info_1_split_0
…
