…
    downsample_rate: 16
    downsample_rate: 32
    downsample_rate: 32
    downsample_rate: 64
    coord_num: 4
    field_h: 24
    field_h: 47
    field_h: 73
    field_h: 106
    field_h: 160
    field_h: 201
    field_h: 309
    field_w: 28
    field_w: 54
    field_w: 83
    field_w: 119
    field_w: 156
    field_w: 198
    field_w: 280
    fg_threshold: 0.5
    resize_width: 683
    resize_height: 384
    crop_width: 384
    crop_height: 384
    do_multiple_scale: true
    min_scale: 24
    max_scale: 309
    min_gt_height: 10
    shuffle: true
  }
}
layer {
  name: "conv1"
  type: "Convolution"
  bottom: "data"
  top: "conv1"
  param {
    lr_mult: 1
    decay_mult: 1
  }
  convolution_param {
    num_output: 32
    bias_term: false
    pad: 1
    kernel_size: 3
    stride: 2
    weight_filler {
      type: "msra"
    }
  }
}
layer {
  name: "conv1/bn"
  type: "BatchNorm"
  bottom: "conv1"
  top: "conv1/bn"
  batch_norm_param {
    use_global_stats: false
    eps: 1e-05
  }
}
layer {
  name: "conv1/scale"
  type: "Scale"
  bottom: "conv1/bn"
  top: "conv1/bn"
  param {
    lr_mult: 1
    decay_mult: 0
  }
  param {
    lr_mult: 1
    decay_mult: 0
  }
  scale_param {
    bias_term: true
  }
}
layer {
  name: "relu1"
  type: "ReLU"
  bottom: "conv1/bn"
  top: "conv1/bn"
}
layer {
  name: "conv2_1/expand"
  type: "Convolution"
  bottom: "conv1/bn"
  top: "conv2_1/expand"
  param {
    lr_mult: 1
    decay_mult: 1
  }
  convolution_param {
    num_output: 32
    bias_term: false
    kernel_size: 1
    weight_filler {
      type: "msra"
    }
  }
}
layer {
  name: "conv2_1/expand/bn"
  type: "BatchNorm"
  bottom: "conv2_1/expand"
  top: "conv2_1/expand/bn"
  batch_norm_param {
    use_global_stats: false
    eps: 1e-05
  }
}
layer {
  name: "conv2_1/expand/scale"
  type: "Scale"
  bottom: "conv2_1/expand/bn"
  top: "conv2_1/expand/bn"
  param {
    lr_mult: 1
    decay_mult: 0
  }
  param {
    lr_mult: 1
    decay_mult: 0
  }
  scale_param {
    bias_term: true
  }
}
layer {
  name: "relu2_1/expand"
  type: "ReLU"
  bottom: "conv2_1/expand/bn"
  top: "conv2_1/expand/bn"
}
layer {
  name: "conv2_1/dwise"
  type: "DepthwiseConvolution"
  bottom: "conv2_1/expand/bn"
  top: "conv2_1/dwise"
  param {
    lr_mult: 1
    decay_mult: 1
  }
  convolution_param {
    num_output: 32
    bias_term: false
    pad: 1
    kernel_size: 3
    group: 32
    weight_filler {
      type: "msra"
    }
    engine: CAFFE
  }
}
layer {
  name: "conv2_1/dwise/bn"
  type: "BatchNorm"
  bottom: "conv2_1/dwise"
  top: "conv2_1/dwise/bn"
  batch_norm_param {
    use_global_stats: false
    eps: 1e-05
  }
}
layer {
  name: "conv2_1/dwise/scale"
  type: "Scale"
  bottom: "conv2_1/dwise/bn"
  top: "conv2_1/dwise/bn"
  param {
    lr_mult: 1
    decay_mult: 0
  }
  param {
    lr_mult: 1
    decay_mult: 0
  }
  scale_param {
    bias_term: true
  }
}
layer {
  name: "relu2_1/dwise"
  type: "ReLU"
  bottom: "conv2_1/dwise/bn"
  top: "conv2_1/dwise/bn"
}
layer {
  name: "conv2_1/linear"
  type: "Convolution"
  bottom: "conv2_1/dwise/bn"
  top: "conv2_1/linear"
  param {
    lr_mult: 1
    decay_mult: 1
  }
  convolution_param {
    num_output: 16
    bias_term: false
    kernel_size: 1
    weight_filler {
      type: "msra"
    }
  }
}
layer {
  name: "conv2_1/linear/bn"
  type: "BatchNorm"
  bottom: "conv2_1/linear"
  top: "conv2_1/linear/bn"
  batch_norm_param {
    use_global_stats: false
    eps: 1e-05
  }
}
layer {
  name: "conv2_1/linear/scale"
  type: "Scale"
  bottom: "conv2_1/linear/bn"
  top: "conv2_1/linear/bn"
  param {
    lr_mult: 1
    decay_mult: 0
  }
  param {
    lr_mult: 1
    decay_mult: 0
  }
  scale_param {
    bias_term: true
  }
}
layer {
  name: "conv2_2/expand"
  type: "Convolution"
  bottom: "conv2_1/linear/bn"
  top: "conv2_2/expand"
  param {
    lr_mult: 1
    decay_mult: 1
  }
  convolution_param {
    num_output: 96
    bias_term: false
    kernel_size: 1
    weight_filler {
      type: "msra"
    }
  }
}
layer {
  name: "conv2_2/expand/bn"
  type: "BatchNorm"
  bottom: "conv2_2/expand"
  top: "conv2_2/expand/bn"
  batch_norm_param {
    use_global_stats: false
    eps: 1e-05
  }
}
layer {
  name: "conv2_2/expand/scale"
  type: "Scale"
  bottom: "conv2_2/expand/bn"
  top: "conv2_2/expand/bn"
  param {
    lr_mult: 1
    decay_mult: 0
  }
  param {
    lr_mult: 1
    decay_mult: 0
  }
  scale_param {
    bias_term: true
  }
}
layer {
  name: "relu2_2/expand"
  type: "ReLU"
  bottom: "conv2_2/expand/bn"
  top: "conv2_2/expand/bn"
}
layer {
  name: "conv2_2/dwise"
  type: "DepthwiseConvolution"
  bottom: "conv2_2/expand/bn"
  top: "conv2_2/dwise"
  param {
    lr_mult: 1
    decay_mult: 1
  }
  convolution_param {
    num_output: 96
    bias_term: false
    pad: 1
    kernel_size: 3
    group: 96
    stride: 2
    weight_filler {
      type: "msra"
    }
    engine: CAFFE
  }
}
layer {
  name: "conv2_2/dwise/bn"
  type: "BatchNorm"
  bottom: "conv2_2/dwise"
  top: "conv2_2/dwise/bn"
  batch_norm_param {
    use_global_stats: false
    eps: 1e-05
  }
}
layer {
  name: "conv2_2/dwise/scale"
  type: "Scale"
  bottom: "conv2_2/dwise/bn"
  top: "conv2_2/dwise/bn"
  param {
    lr_mult: 1
    decay_mult: 0
  }
  param {
    lr_mult: 1
    decay_mult: 0
  }
  scale_param {
    bias_term: true
  }
}
layer {
  name: "relu2_2/dwise"
  type: "ReLU"
  bottom: "conv2_2/dwise/bn"
  top: "conv2_2/dwise/bn"
}
layer {
  name: "conv2_2/linear"
  type: "Convolution"
  bottom: "conv2_2/dwise/bn"
  top: "conv2_2/linear"
  param {
    lr_mult: 1
    decay_mult: 1
  }
  convolution_param {
    num_output: 24
    bias_term: false
    kernel_size: 1
    weight_filler {
      type: "msra"
    }
  }
}
layer {
  name: "conv2_2/linear/bn"
  type: "BatchNorm"
  bottom: "conv2_2/linear"
  top: "conv2_2/linear/bn"
  batch_norm_param {
    use_global_stats: false
    eps: 1e-05
  }
}
layer {
  name: "conv2_2/linear/scale"
  type: "Scale"
  bottom: "conv2_2/linear/bn"
  top: "conv2_2/linear/bn"
  param {
    lr_mult: 1
    decay_mult: 0
  }
  param {
    lr_mult: 1
    decay_mult: 0
  }
  scale_param {
    bias_term: true
  }
}
layer {
  name: "conv3_1/expand"
  type: "Convolution"
  bottom: "conv2_2/linear/bn"
  top: "conv3_1/expand"
  param {
    lr_mult: 1
    decay_mult: 1
  }
  convolution_param {
    num_output: 144
    bias_term: false
    kernel_size: 1
    weight_filler {
      type: "msra"
    }
  }
}
layer {
  name: "conv3_1/expand/bn"
  type: "BatchNorm"
  bottom: "conv3_1/expand"
  top: "conv3_1/expand/bn"
  batch_norm_param {
    use_global_stats: false
    eps: 1e-05
  }
}
layer {
  name: "conv3_1/expand/scale"
  type: "Scale"
  bottom: "conv3_1/expand/bn"
  top: "conv3_1/expand/bn"
  param {
    lr_mult: 1
    decay_mult: 0
  }
  param {
    lr_mult: 1
    decay_mult: 0
  }
  scale_param {
    bias_term: true
  }
}
layer {
  name: "relu3_1/expand"
  type: "ReLU"
  bottom: "conv3_1/expand/bn"
  top: "conv3_1/expand/bn"
}
layer {
  name: "conv3_1/dwise"
  type: "DepthwiseConvolution"
  bottom: "conv3_1/expand/bn"
  top: "conv3_1/dwise"
  param {
    lr_mult: 1
    decay_mult: 1
  }
  convolution_param {
    num_output: 144
    bias_term: false
    pad: 1
    kernel_size: 3
    group: 144
    weight_filler {
      type: "msra"
    }
    engine: CAFFE
  }
}
layer {
  name: "conv3_1/dwise/bn"
  type: "BatchNorm"
  bottom: "conv3_1/dwise"
  top: "conv3_1/dwise/bn"
  batch_norm_param {
    use_global_stats: false
    eps: 1e-05
  }
}
layer {
  name: "conv3_1/dwise/scale"
  type: "Scale"
  bottom: "conv3_1/dwise/bn"
  top: "conv3_1/dwise/bn"
  param {
    lr_mult: 1
    decay_mult: 0
  }
  param {
    lr_mult: 1
    decay_mult: 0
  }
  scale_param {
    bias_term: true
  }
}
layer {
  name: "relu3_1/dwise"
  type: "ReLU"
  bottom: "conv3_1/dwise/bn"
  top: "conv3_1/dwise/bn"
}
layer {
  name: "conv3_1/linear"
  type: "Convolution"
  bottom: "conv3_1/dwise/bn"
  top: "conv3_1/linear"
  param {
    lr_mult: 1
    decay_mult: 1
  }
  convolution_param {
    num_output: 24
    bias_term: false
    kernel_size: 1
    weight_filler {
      type: "msra"
    }
  }
}
layer {
  name: "conv3_1/linear/bn"
  type: "BatchNorm"
  bottom: "conv3_1/linear"
  top: "conv3_1/linear/bn"
  batch_norm_param {
    use_global_stats: false
    eps: 1e-05
  }
}
layer {
  name: "conv3_1/linear/scale"
  type: "Scale"
  bottom: "conv3_1/linear/bn"
  top: "conv3_1/linear/bn"
  param {
    lr_mult: 1
    decay_mult: 0
  }
  param {
    lr_mult: 1
    decay_mult: 0
  }
  scale_param {
    bias_term: true
  }
}
layer {
  name: "block_3_1"
  type: "Eltwise"
  bottom: "conv2_2/linear/bn"
  bottom: "conv3_1/linear/bn"
  top: "block_3_1"
}
layer {
  name: "conv3_2/expand"
  type: "Convolution"
  bottom: "block_3_1"
  top: "conv3_2/expand"
  param {
    lr_mult: 1
    decay_mult: 1
  }
  convolution_param {
    num_output: 144
    bias_term: false
    kernel_size: 1
    weight_filler {
      type: "msra"
    }
  }
}
layer {
  name: "conv3_2/expand/bn"
  type: "BatchNorm"
  bottom: "conv3_2/expand"
  top: "conv3_2/expand/bn"
  batch_norm_param {
    use_global_stats: false
    eps: 1e-05
  }
}
layer {
  name: "conv3_2/expand/scale"
  type: "Scale"
  bottom: "conv3_2/expand/bn"
  top: "conv3_2/expand/bn"
  param {
    lr_mult: 1
    decay_mult: 0
  }
  param {
    lr_mult: 1
    decay_mult: 0
  }
  scale_param {
    bias_term: true
  }
}
layer {
  name: "relu3_2/expand"
  type: "ReLU"
  bottom: "conv3_2/expand/bn"
  top: "conv3_2/expand/bn"
}
layer {
  name: "conv3_2/dwise"
  type: "DepthwiseConvolution"
  bottom: "conv3_2/expand/bn"
  top: "conv3_2/dwise"
  param {
    lr_mult: 1
    decay_mult: 1
  }
  convolution_param {
    num_output: 144
    bias_term: false
    pad: 1
    kernel_size: 3
    group: 144
    stride: 2
    weight_filler {
      type: "msra"
    }
    engine: CAFFE
  }
}
layer {
  name: "conv3_2/dwise/bn"
  type: "BatchNorm"
  bottom: "conv3_2/dwise"
  top: "conv3_2/dwise/bn"
  batch_norm_param {
    use_global_stats: false
    eps: 1e-05
  }
}
layer {
  name: "conv3_2/dwise/scale"
  type: "Scale"
  bottom: "conv3_2/dwise/bn"
  top: "conv3_2/dwise/bn"
  param {
    lr_mult: 1
    decay_mult: 0
  }
  param {
    lr_mult: 1
    decay_mult: 0
  }
  scale_param {
    bias_term: true
  }
}
layer {
  name: "relu3_2/dwise"
  type: "ReLU"
  bottom: "conv3_2/dwise/bn"
  top: "conv3_2/dwise/bn"
}
layer {
  name: "conv3_2/linear"
  type: "Convolution"
  bottom: "conv3_2/dwise/bn"
  top: "conv3_2/linear"
  param {
    lr_mult: 1
    decay_mult: 1
  }
  convolution_param {
    num_output: 32
    bias_term: false
    kernel_size: 1
    weight_filler {
      type: "msra"
    }
  }
}
layer {
  name: "conv3_2/linear/bn"
  type: "BatchNorm"
  bottom: "conv3_2/linear"
  top: "conv3_2/linear/bn"
  batch_norm_param {
    use_global_stats: false
    eps: 1e-05
  }
}
layer {
  name: "conv3_2/linear/scale"
  type: "Scale"
  bottom: "conv3_2/linear/bn"
  top: "conv3_2/linear/bn"
  param {
    lr_mult: 1
    decay_mult: 0
  }
  param {
    lr_mult: 1
    decay_mult: 0
  }
  scale_param {
    bias_term: true
  }
}
layer {
  name: "conv4_1/expand"
  type: "Convolution"
  bottom: "conv3_2/linear/bn"
  top: "conv4_1/expand"
  param {
    lr_mult: 1
    decay_mult: 1
  }
  convolution_param {
    num_output: 192
    bias_term: false
    kernel_size: 1
    weight_filler {
      type: "msra"
    }
  }
}
layer {
  name: "conv4_1/expand/bn"
  type: "BatchNorm"
  bottom: "conv4_1/expand"
  top: "conv4_1/expand/bn"
  batch_norm_param {
    use_global_stats: false
    eps: 1e-05
  }
}
layer {
  name: "conv4_1/expand/scale"
  type: "Scale"
  bottom: "conv4_1/expand/bn"
  top: "conv4_1/expand/bn"
  param {
    lr_mult: 1
    decay_mult: 0
  }
  param {
    lr_mult: 1
    decay_mult: 0
  }
  scale_param {
    bias_term: true
  }
}
layer {
  name: "relu4_1/expand"
  type: "ReLU"
  bottom: "conv4_1/expand/bn"
  top: "conv4_1/expand/bn"
}
layer {
  name: "conv4_1/dwise"
  type: "DepthwiseConvolution"
  bottom: "conv4_1/expand/bn"
  top: "conv4_1/dwise"
  param {
    lr_mult: 1
    decay_mult: 1
  }
  convolution_param {
    num_output: 192
    bias_term: false
    pad: 1
    kernel_size: 3
    group: 192
    weight_filler {
      type: "msra"
    }
    engine: CAFFE
  }
}
layer {
  name: "conv4_1/dwise/bn"
  type: "BatchNorm"
  bottom: "conv4_1/dwise"
  top: "conv4_1/dwise/bn"
  batch_norm_param {
    use_global_stats: false
    eps: 1e-05
  }
}
layer {
  name: "conv4_1/dwise/scale"
  type: "Scale"
  bottom: "conv4_1/dwise/bn"
  top: "conv4_1/dwise/bn"
  param {
    lr_mult: 1
    decay_mult: 0
  }
  param {
    lr_mult: 1
    decay_mult: 0
  }
  scale_param {
    bias_term: true
  }
}
layer {
  name: "relu4_1/dwise"
  type: "ReLU"
  bottom: "conv4_1/dwise/bn"
  top: "conv4_1/dwise/bn"
}
layer {
  name: "conv4_1/linear"
  type: "Convolution"
  bottom: "conv4_1/dwise/bn"
  top: "conv4_1/linear"
  param {
    lr_mult: 1
    decay_mult: 1
  }
  convolution_param {
    num_output: 32
    bias_term: false
    kernel_size: 1
    weight_filler {
      type: "msra"
    }
  }
}
layer {
  name: "conv4_1/linear/bn"
  type: "BatchNorm"
  bottom: "conv4_1/linear"
  top: "conv4_1/linear/bn"
  batch_norm_param {
    use_global_stats: false
    eps: 1e-05
  }
}
layer {
  name: "conv4_1/linear/scale"
  type: "Scale"
  bottom: "conv4_1/linear/bn"
  top: "conv4_1/linear/bn"
  param {
    lr_mult: 1
    decay_mult: 0
  }
  param {
    lr_mult: 1
    decay_mult: 0
  }
  scale_param {
    bias_term: true
  }
}
layer {
  name: "block_4_1"
  type: "Eltwise"
  bottom: "conv3_2/linear/bn"
  bottom: "conv4_1/linear/bn"
  top: "block_4_1"
}
layer {
  name: "conv4_2/expand"
  type: "Convolution"
  bottom: "block_4_1"
  top: "conv4_2/expand"
  param {
    lr_mult: 1
    decay_mult: 1
  }
  convolution_param {
    num_output: 192
    bias_term: false
    kernel_size: 1
    weight_filler {
      type: "msra"
    }
  }
}
layer {
  name: "conv4_2/expand/bn"
  type: "BatchNorm"
  bottom: "conv4_2/expand"
  top: "conv4_2/expand/bn"
  batch_norm_param {
    use_global_stats: false
    eps: 1e-05
  }
}
layer {
  name: "conv4_2/expand/scale"
  type: "Scale"
  bottom: "conv4_2/expand/bn"
  top: "conv4_2/expand/bn"
  param {
    lr_mult: 1
    decay_mult: 0
  }
  param {
    lr_mult: 1
    decay_mult: 0
  }
  scale_param {
    bias_term: true
  }
}
layer {
  name: "relu4_2/expand"
  type: "ReLU"
  bottom: "conv4_2/expand/bn"
  top: "conv4_2/expand/bn"
}
layer {
  name: "conv4_2/dwise"
  type: "DepthwiseConvolution"
  bottom: "conv4_2/expand/bn"
  top: "conv4_2/dwise"
  param {
    lr_mult: 1
    decay_mult: 1
  }
  convolution_param {
    num_output: 192
    bias_term: false
    pad: 1
    kernel_size: 3
    group: 192
    weight_filler {
      type: "msra"
    }
    engine: CAFFE
  }
}
layer {
  name: "conv4_2/dwise/bn"
  type: "BatchNorm"
  bottom: "conv4_2/dwise"
  top: "conv4_2/dwise/bn"
  batch_norm_param {
    use_global_stats: false
    eps: 1e-05
  }
}
layer {
  name: "conv4_2/dwise/scale"
  type: "Scale"
  bottom: "conv4_2/dwise/bn"
  top: "conv4_2/dwise/bn"
  param {
    lr_mult: 1
    decay_mult: 0
  }
  param {
    lr_mult: 1
    decay_mult: 0
  }
  scale_param {
    bias_term: true
  }
}
layer {
  name: "relu4_2/dwise"
  type: "ReLU"
  bottom: "conv4_2/dwise/bn"
  top: "conv4_2/dwise/bn"
}
layer {
  name: "conv4_2/linear"
  type: "Convolution"
  bottom: "conv4_2/dwise/bn"
  top: "conv4_2/linear"
  param {
    lr_mult: 1
    decay_mult: 1
  }
  convolution_param {
    num_output: 32
    bias_term: false
    kernel_size: 1
    weight_filler {
      type: "msra"
    }
  }
}
layer {
  name: "conv4_2/linear/bn"
  type: "BatchNorm"
  bottom: "conv4_2/linear"
  top: "conv4_2/linear/bn"
  batch_norm_param {
    use_global_stats: false
    eps: 1e-05
  }
}
layer {
  name: "conv4_2/linear/scale"
  type: "Scale"
  bottom: "conv4_2/linear/bn"
  top: "conv4_2/linear/bn"
  param {
    lr_mult: 1
    decay_mult: 0
  }
  param {
    lr_mult: 1
    decay_mult: 0
  }
  scale_param {
    bias_term: true
  }
}
layer {
  name: "block_4_2"
  type: "Eltwise"
  bottom: "block_4_1"
  bottom: "conv4_2/linear/bn"
  top: "block_4_2"
}
layer {
  name: "conv4_3/expand"
  type: "Convolution"
  bottom: "block_4_2"
  top: "conv4_3/expand"
  param {
    lr_mult: 1
    decay_mult: 1
  }
  convolution_param {
    num_output: 192
    bias_term: false
    kernel_size: 1
    weight_filler {
      type: "msra"
    }
  }
}
layer {
  name: "conv4_3/expand/bn"
  type: "BatchNorm"
  bottom: "conv4_3/expand"
  top: "conv4_3/expand/bn"
  batch_norm_param {
    use_global_stats: false
    eps: 1e-05
  }
}
layer {
  name: "conv4_3/expand/scale"
  type: "Scale"
  bottom: "conv4_3/expand/bn"
  top: "conv4_3/expand/bn"
  param {
    lr_mult: 1
    decay_mult: 0
  }
  param {
    lr_mult: 1
    decay_mult: 0
  }
  scale_param {
    bias_term: true
  }
}
layer {
  name: "relu4_3/expand"
  type: "ReLU"
  bottom: "conv4_3/expand/bn"
  top: "conv4_3/expand/bn"
}
layer {
  name: "conv4_3/dwise"
  type: "DepthwiseConvolution"
  bottom: "conv4_3/expand/bn"
  top: "conv4_3/dwise"
  param {
    lr_mult: 1
    decay_mult: 1
  }
  convolution_param {
    num_output: 192
    bias_term: false
    pad: 1
    kernel_size: 3
    group: 192
    weight_filler {
      type: "msra"
    }
    engine: CAFFE
  }
}
layer {
  name: "conv4_3/dwise/bn"
  type: "BatchNorm"
  bottom: "conv4_3/dwise"
  top: "conv4_3/dwise/bn"
  batch_norm_param {
    use_global_stats: false
    eps: 1e-05
  }
}
layer {
  name: "conv4_3/dwise/scale"
  type: "Scale"
  bottom: "conv4_3/dwise/bn"
  top: "conv4_3/dwise/bn"
  param {
    lr_mult: 1
    decay_mult: 0
  }
  param {
    lr_mult: 1
    decay_mult: 0
  }
  scale_param {
    bias_term: true
  }
}
layer {
  name: "relu4_3/dwise"
  type: "ReLU"
  bottom: "conv4_3/dwise/bn"
  top: "conv4_3/dwise/bn"
}
layer {
  name: "conv4_3/linear"
  type: "Convolution"
  bottom: "conv4_3/dwise/bn"
  top: "conv4_3/linear"
  param {
    lr_mult: 1
    decay_mult: 1
  }
  convolution_param {
    num_output: 64
    bias_term: false
    kernel_size: 1
    weight_filler {
      type: "msra"
    }
  }
}
layer {
  name: "conv4_3/linear/bn"
  type: "BatchNorm"
  bottom: "conv4_3/linear"
  top: "conv4_3/linear/bn"
  batch_norm_param {
    use_global_stats: false
    eps: 1e-05
  }
}
layer {
  name: "conv4_3/linear/scale"
  type: "Scale"
  bottom: "conv4_3/linear/bn"
  top: "conv4_3/linear/bn"
  param {
    lr_mult: 1
    decay_mult: 0
  }
  param {
    lr_mult: 1
    decay_mult: 0
  }
  scale_param {
    bias_term: true
  }
}
layer {
  name: "conv4_4/expand"
  type: "Convolution"
  bottom: "conv4_3/linear/bn"
  top: "conv4_4/expand"
  param {
    lr_mult: 1
    decay_mult: 1
  }
  convolution_param {
    num_output: 384
    bias_term: false
    kernel_size: 1
    weight_filler {
      type: "msra"
    }
  }
}
layer {
  name: "conv4_4/expand/bn"
  type: "BatchNorm"
  bottom: "conv4_4/expand"
  top: "conv4_4/expand/bn"
  batch_norm_param {
    use_global_stats: false
    eps: 1e-05
  }
}
layer {
  name: "conv4_4/expand/scale"
  type: "Scale"
  bottom: "conv4_4/expand/bn"
  top: "conv4_4/expand/bn"
  param {
    lr_mult: 1
    decay_mult: 0
  }
  param {
    lr_mult: 1
    decay_mult: 0
  }
  scale_param {
    bias_term: true
  }
}
layer {
  name: "relu4_4/expand"
  type: "ReLU"
  bottom: "conv4_4/expand/bn"
  top: "conv4_4/expand/bn"
}
layer {
  name: "conv4_4/dwise"
  type: "DepthwiseConvolution"
  bottom: "conv4_4/expand/bn"
  top: "conv4_4/dwise"
  param {
    lr_mult: 1
    decay_mult: 1
  }
  convolution_param {
    num_output: 384
    bias_term: false
    pad: 1
    kernel_size: 3
    group: 384
    weight_filler {
      type: "msra"
    }
    engine: CAFFE
  }
}
layer {
  name: "conv4_4/dwise/bn"
  type: "BatchNorm"
  bottom: "conv4_4/dwise"
  top: "conv4_4/dwise/bn"
  batch_norm_param {
    use_global_stats: false
    eps: 1e-05
  }
}
layer {
  name: "conv4_4/dwise/scale"
  type: "Scale"
  bottom: "conv4_4/dwise/bn"
  top: "conv4_4/dwise/bn"
  param {
    lr_mult: 1
    decay_mult: 0
  }
  param {
    lr_mult: 1
    decay_mult: 0
  }
  scale_param {
    bias_term: true
  }
}
layer {
  name: "relu4_4/dwise"
  type: "ReLU"
  bottom: "conv4_4/dwise/bn"
  top: "conv4_4/dwise/bn"
}
layer {
  name: "conv4_4/linear"
  type: "Convolution"
  bottom: "conv4_4/dwise/bn"
  top: "conv4_4/linear"
  param {
    lr_mult: 1
    decay_mult: 1
  }
  convolution_param {
    num_output: 64
    bias_term: false
    kernel_size: 1
    weight_filler {
      type: "msra"
    }
  }
}
layer {
  name: "conv4_4/linear/bn"
  type: "BatchNorm"
  bottom: "conv4_4/linear"
  top: "conv4_4/linear/bn"
  batch_norm_param {
    use_global_stats: false
    eps: 1e-05
  }
}
layer {
  name: "conv4_4/linear/scale"
  type: "Scale"
  bottom: "conv4_4/linear/bn"
  top: "conv4_4/linear/bn"
  param {
    lr_mult: 1
    decay_mult: 0
  }
  param {
    lr_mult: 1
    decay_mult: 0
  }
  scale_param {
    bias_term: true
  }
}
layer {
  name: "block_4_4"
  type: "Eltwise"
  bottom: "conv4_3/linear/bn"
  bottom: "conv4_4/linear/bn"
  top: "block_4_4"
}
layer {
  name: "conv4_5/expand"
  type: "Convolution"
  bottom: "block_4_4"
  top: "conv4_5/expand"
  param {
    lr_mult: 1
    decay_mult: 1
  }
  convolution_param {
    num_output: 384
    bias_term: false
    kernel_size: 1
    weight_filler {
      type: "msra"
    }
  }
}
layer {
  name: "conv4_5/expand/bn"
  type: "BatchNorm"
  bottom: "conv4_5/expand"
  top: "conv4_5/expand/bn"
  batch_norm_param {
    use_global_stats: false
    eps: 1e-05
  }
}
layer {
  name: "conv4_5/expand/scale"
  type: "Scale"
  bottom: "conv4_5/expand/bn"
  top: "conv4_5/expand/bn"
  param {
    lr_mult: 1
    decay_mult: 0
  }
  param {
    lr_mult: 1
    decay_mult: 0
  }
  scale_param {
    bias_term: true
  }
}
layer {
  name: "relu4_5/expand"
  type: "ReLU"
  bottom: "conv4_5/expand/bn"
  top: "conv4_5/expand/bn"
}
layer {
  name: "conv4_5/dwise"
  type: "DepthwiseConvolution"
  bottom: "conv4_5/expand/bn"
  top: "conv4_5/dwise"
  param {
    lr_mult: 1
    decay_mult: 1
  }
  convolution_param {
    num_output: 384
    bias_term: false
    pad: 1
    kernel_size: 3
    group: 384
    weight_filler {
      type: "msra"
    }
    engine: CAFFE
  }
}
layer {
  name: "conv4_5/dwise/bn"
  type: "BatchNorm"
  bottom: "conv4_5/dwise"
  top: "conv4_5/dwise/bn"
  batch_norm_param {
    use_global_stats: false
    eps: 1e-05
  }
}
layer {
  name: "conv4_5/dwise/scale"
  type: "Scale"
  bottom: "conv4_5/dwise/bn"
  top: "conv4_5/dwise/bn"
  param {
    lr_mult: 1
    decay_mult: 0
  }
  param {
    lr_mult: 1
    decay_mult: 0
  }
  scale_param {
    bias_term: true
  }
}
layer {
  name: "relu4_5/dwise"
  type: "ReLU"
  bottom: "conv4_5/dwise/bn"
  top: "conv4_5/dwise/bn"
}
layer {
  name: "conv4_5/linear"
  type: "Convolution"
  bottom: "conv4_5/dwise/bn"
  top: "conv4_5/linear"
  param {
    lr_mult: 1
    decay_mult: 1
  }
  convolution_param {
    num_output: 64
    bias_term: false
    kernel_size: 1
    weight_filler {
      type: "msra"
    }
  }
}
layer {
  name: "conv4_5/linear/bn"
  type: "BatchNorm"
  bottom: "conv4_5/linear"
  top: "conv4_5/linear/bn"
  batch_norm_param {
    use_global_stats: false
    eps: 1e-05
  }
}
layer {
  name: "conv4_5/linear/scale"
  type: "Scale"
  bottom: "conv4_5/linear/bn"
  top: "conv4_5/linear/bn"
  param {
    lr_mult: 1
    decay_mult: 0
  }
  param {
    lr_mult: 1
    decay_mult: 0
  }
  scale_param {
    bias_term: true
  }
}
layer {
  name: "block_4_5"
  type: "Eltwise"
  bottom: "block_4_4"
  bottom: "conv4_5/linear/bn"
  top: "block_4_5"
}
layer {
  name: "conv4_6/expand"
  type: "Convolution"
  bottom: "block_4_5"
  top: "conv4_6/expand"
  param {
    lr_mult: 1
    decay_mult: 1
  }
  convolution_param {
    num_output: 384
    bias_term: false
    kernel_size: 1
    weight_filler {
      type: "msra"
    }
  }
}
layer {
  name: "conv4_6/expand/bn"
  type: "BatchNorm"
  bottom: "conv4_6/expand"
  top: "conv4_6/expand/bn"
  batch_norm_param {
    use_global_stats: false
    eps: 1e-05
  }
}
layer {
  name: "conv4_6/expand/scale"
  type: "Scale"
  bottom: "conv4_6/expand/bn"
  top: "conv4_6/expand/bn"
  param {
    lr_mult: 1
    decay_mult: 0
  }
  param {
    lr_mult: 1
    decay_mult: 0
  }
  scale_param {
    bias_term: true
  }
}
layer {
  name: "relu4_6/expand"
  type: "ReLU"
  bottom: "conv4_6/expand/bn"
  top: "conv4_6/expand/bn"
}
layer {
  name: "conv4_6/dwise"
  type: "DepthwiseConvolution"
  bottom: "conv4_6/expand/bn"
  top: "conv4_6/dwise"
  param {
    lr_mult: 1
    decay_mult: 1
  }
  convolution_param {
    num_output: 384
    bias_term: false
    pad: 1
    kernel_size: 3
    group: 384
    weight_filler {
      type: "msra"
    }
    engine: CAFFE
  }
}
layer {
  name: "conv4_6/dwise/bn"
  type: "BatchNorm"
  bottom: "conv4_6/dwise"
  top: "conv4_6/dwise/bn"
  batch_norm_param {
    use_global_stats: false
    eps: 1e-05
  }
}
layer {
  name: "conv4_6/dwise/scale"
  type: "Scale"
  bottom: "conv4_6/dwise/bn"
  top: "conv4_6/dwise/bn"
  param {
    lr_mult: 1
    decay_mult: 0
  }
  param {
    lr_mult: 1
    decay_mult: 0
  }
  scale_param {
    bias_term: true
  }
}
layer {
  name: "relu4_6/dwise"
  type: "ReLU"
  bottom: "conv4_6/dwise/bn"
  top: "conv4_6/dwise/bn"
}
layer {
  name: "conv4_6/linear"
  type: "Convolution"
  bottom: "conv4_6/dwise/bn"
  top: "conv4_6/linear"
  param {
    lr_mult: 1
    decay_mult: 1
  }
  convolution_param {
    num_output: 64
    bias_term: false
    kernel_size: 1
    weight_filler {
      type: "msra"
    }
  }
}
layer {
  name: "conv4_6/linear/bn"
  type: "BatchNorm"
  bottom: "conv4_6/linear"
  top: "conv4_6/linear/bn"
  batch_norm_param {
    use_global_stats: false
    eps: 1e-05
  }
}
layer {
  name: "conv4_6/linear/scale"
  type: "Scale"
  bottom: "conv4_6/linear/bn"
  top: "conv4_6/linear/bn"
  param {
    lr_mult: 1
    decay_mult: 0
  }
  param {
    lr_mult: 1
    decay_mult: 0
  }
  scale_param {
    bias_term: true
  }
}
layer {
  name: "block_4_6"
  type: "Eltwise"
  bottom: "block_4_5"
  bottom: "conv4_6/linear/bn"
  top: "block_4_6"
}
layer {
  name: "conv4_7/expand"
  type: "Convolution"
  bottom: "block_4_6"
  top: "conv4_7/expand"
  param {
    lr_mult: 1
    decay_mult: 1
  }
  convolution_param {
    num_output: 384
    bias_term: false
    kernel_size: 1
    weight_filler {
      type: "msra"
    }
  }
}
layer {
  name: "conv4_7/expand/bn"
  type: "BatchNorm"
  bottom: "conv4_7/expand"
  top: "conv4_7/expand/bn"
  batch_norm_param {
    use_global_stats: false
    eps: 1e-05
  }
}
layer {
  name: "conv4_7/expand/scale"
  type: "Scale"
  bottom: "conv4_7/expand/bn"
  top: "conv4_7/expand/bn"
  param {
    lr_mult: 1
    decay_mult: 0
  }
  param {
    lr_mult: 1
    decay_mult: 0
  }
  scale_param {
    bias_term: true
  }
}
layer {
  name: "relu4_7/expand"
  type: "ReLU"
  bottom: "conv4_7/expand/bn"
  top: "conv4_7/expand/bn"
}
layer {
  name: "loss1_conv1"
  type: "Convolution"
  bottom: "block_4_6"
  top: "loss1_conv1"
  param {
    lr_mult: 1
    decay_mult: 1
  }
  param {
    lr_mult: 2
    decay_mult: 0
  }
  convolution_param {
    num_output: 64
    pad: 1
    kernel_size: 3
    weight_filler {
      type: "gaussian"
      std: 0.01
    }
    bias_filler {
      type: "constant"
    }
  }
}
layer {
  name: "loss_relu1"
  type: "ReLU"
  bottom: "loss1_conv1"
  top: "loss1_conv1"
}
layer {
  name: "LFCN_1_5x5"
  type: "Convolution"
  bottom: "loss1_conv1"
  top: "LFCN_1_5x5"
  param {
    lr_mult: 1
    decay_mult: 1
  }
  param {
    lr_mult: 2
    decay_mult: 0
  }
  convolution_param {
    num_output: 9
    pad: 2
    kernel_size: 5
    weight_filler {
      type: "gaussian"
      std: 0.001
    }
    bias_filler {
      type: "constant"
    }
  }
}
layer {
  name: "detection_loss_1_5x5"
  type: "DetectionLoss"
  bottom: "LFCN_1_5x5"
  bottom: "label_1_5x5"
  top: "loss_1_5x5"
  loss_weight: 0.9
  detection_loss_param {
    cls_num: 5
    coord_num: 4
    lambda: 0.05
    field_h: 24
    field_w: 28
    downsample_rate: 8
    bb_smooth: true
    field_whr: 2
    field_xyr: 2
    bg_threshold: 0.2
    bg_multiple: 2
    sample_mode: "random"
    pos_neg_weighted: true
  }
}
layer {
  name: "detection_accuracy_1_5x5"
  type: "DetectionAccuracy"
  bottom: "LFCN_1_5x5"
  bottom: "label_1_5x5"
  top: "accuracy_1_5x5"
  top: "boxiou_1_5x5"
  detection_accuracy_param {
    cls_num: 5
    coord_num: 4
    field_h: 24
    field_w: 28
    downsample_rate: 8
    field_whr: 2
    field_xyr: 2
  }
}
layer {
  name: "LFCN_1_7x7"
  type: "Convolution"
  bottom: "loss1_conv1"
  top: "LFCN_1_7x7"
  param {
    lr_mult: 1
    decay_mult: 1
  }
  param {
    lr_mult: 2
    decay_mult: 0
  }
  convolution_param {
    num_output: 9
    pad: 3
    kernel_size: 7
    weight_filler {
      type: "gaussian"
      std: 0.001
    }
    bias_filler {
      type: "constant"
    }
  }
}
layer {
  name: "detection_loss_1_7x7"
  type: "DetectionLoss"
  bottom: "LFCN_1_7x7"
  bottom: "label_1_7x7"
  top: "loss_1_7x7"
  loss_weight: 0.9
  detection_loss_param {
    cls_num: 5
    coord_num: 4
    lambda: 0.05
    field_h: 47
    field_w: 54
    downsample_rate: 8
    bb_smooth: true
    field_whr: 2
    field_xyr: 2
    bg_threshold: 0.2
    bg_multiple: 2
    sample_mode: "random"
    pos_neg_weighted: true
  }
}
layer {
  name: "detection_accuracy_1_7x7"
  type: "Detec
I0103 17:22:08.026538 27792 layer_factory.hpp:77] Creating layer data
…
I0103 17:22:08.051558 27792 image_gt_data_layer.cpp:235] output label size 1 : 12,6,48,48
I0103 17:22:08.051606 27792 image_gt_data_layer.cpp:235] output label size 2 : 12,6,24,24
I0103 17:22:08.051650 27792 image_gt_data_layer.cpp:235] output label size 3 : 12,6,24,24
I0103 17:22:08.051694 27792 image_gt_data_layer.cpp:235] output label size 4 : 12,6,12,12
I0103 17:22:08.051738 27792 image_gt_data_layer.cpp:235] output label size 5 : 12,6,12,12
I0103 17:22:08.051780 27792 image_gt_data_layer.cpp:235] output label size 6 : 12,6,6,6
I0103 17:22:08.092435 27792 net.cpp:150] Setting up data
I0103 17:22:08.092492 27792 net.cpp:157] Top shape: 12 3 384 384 (5308416)
I0103 17:22:08.092505 27792 net.cpp:157] Top shape: 12 6 48 48 (165888)
I0103 17:22:08.092516 27792 net.cpp:157] Top shape: 12 6 48 48 (165888)
I0103 17:22:08.092540 27792 net.cpp:157] Top shape: 12 6 24 24 (41472)
I0103 17:22:08.092552 27792 net.cpp:157] Top shape: 12 6 24 24 (41472)
I0103 17:22:08.092564 27792 net.cpp:157] Top shape: 12 6 12 12 (10368)
I0103 17:22:08.092574 27792 net.cpp:157] Top shape: 12 6 12 12 (10368)
I0103 17:22:08.092584 27792 net.cpp:157] Top shape: 12 6 6 6 (2592)
I0103 17:22:08.092594 27792 net.cpp:165] Memory required for data: 22985856
I0103 17:22:08.092612 27792 layer_factory.hpp:77] Creating layer label_1_5x5_data_1_split
I0103 17:22:08.092643 27792 net.cpp:100] Creating Layer label_1_5x5_data_1_split
I0103 17:22:08.092658 27792 net.cpp:434] label_1_5x5_data_1_split <- label_1_5x5
I0103 17:22:08.092681 27792 net.cpp:408] label_1_5x5_data_1_split -> label_1_5x5_data_1_split_0
I0103 17:22:08.092702 27792 net.cpp:408] label_1_5x5_data_1_split -> label_1_5x5_data_1_split_1
I0103 17:22:08.092797 27792 net.cpp:150] Setting up label_1_5x5_data_1_split
I0103 17:22:08.092811 27792 net.cpp:157] Top shape: 12 6 48 48 (165888)
I0103 17:22:08.092823 27792 net.cpp:157] Top shape: 12 6 48 48 (165888)
I0103 17:22:08.092831 27792 net.cpp:165] Memory required for data: 24312960
I0103 17:22:08.092840 27792 layer_factory.hpp:77] Creating layer label_1_7x7_data_2_split
I0103 17:22:08.092852 27792 net.cpp:100] Creating Layer label_1_7x7_data_2_split
I0103 17:22:08.092861 27792 net.cpp:434] label_1_7x7_data_2_split <- label_1_7x7
I0103 17:22:08.092875 27792 net.cpp:408] label_1_7x7_data_2_split -> label_1_7x7_data_2_split_0
I0103 17:22:08.092888 27792 net.cpp:408] label_1_7x7_data_2_split -> label_1_7x7_data_2_split_1
I0103 17:22:08.092952 27792 net.cpp:150] Setting up label_1_7x7_data_2_split
I0103 17:22:08.092964 27792 net.cpp:157] Top shape: 12 6 48 48 (165888)
I0103 17:22:08.092974 27792 net.cpp:157] Top shape: 12 6 48 48 (165888)
I0103 17:22:08.092983 27792 net.cpp:165] Memory required for data: 25640064
I0103 17:22:08.092993 27792 layer_factory.hpp:77] Creating layer label_2_5x5_data_3_split
I0103 17:22:08.093005 27792 net.cpp:100] Creating Layer label_2_5x5_data_3_split
I0103 17:22:08.093014 27792 net.cpp:434] label_2_5x5_data_3_split <- label_2_5x5
I0103 17:22:08.093029 27792 net.cpp:408] label_2_5x5_data_3_split -> label_2_5x5_data_3_split_0
I0103 17:22:08.093041 27792 net.cpp:408] label_2_5x5_data_3_split -> label_2_5x5_data_3_split_1
I0103 17:22:08.093103 27792 net.cpp:150] Setting up label_2_5x5_data_3_split
I0103 17:22:08.093116 27792 net.cpp:157] Top shape: 12 6 24 24 (41472)
I0103 17:22:08.093127 27792 net.cpp:157] Top shape: 12 6 24 24 (41472)
I0103 17:22:08.093135 27792 net.cpp:165] Memory required for data: 25971840
I0103 17:22:08.093144 27792 layer_factory.hpp:77] Creating layer label_2_7x7_data_4_split
I0103 17:22:08.093156 27792 net.cpp:100] Creating Layer label_2_7x7_data_4_split
I0103 17:22:08.093165 27792 net.cpp:434] label_2_7x7_data_4_split <- label_2_7x7
I0103 17:22:08.093178 27792 net.cpp:408] label_2_7x7_data_4_split -> label_2_7x7_data_4_split_0
I0103 17:22:08.093190 27792 net.cpp:408] label_2_7x7_data_4_split -> label_2_7x7_data_4_split_1
I0103 17:22:08.093252 27792 net.cpp:150] Setting up label_2_7x7_data_4_split
I0103 17:22:08.093266 27792 net.cpp:157] Top shape: 12 6 24 24 (41472)
I0103 17:22:08.093276 27792 net.cpp:157] Top shape: 12 6 24 24 (41472)
I0103 17:22:08.093284 27792 net.cpp:165] Memory required for data: 26303616
I0103 17:22:08.093292 27792 layer_factory.hpp:77] Creating layer label_3_5x5_data_5_split
I0103 17:22:08.093303 27792 net.cpp:100] Creating Layer label_3_5x5_data_5_split
I0103 17:22:08.093312 27792 net.cpp:434] label_3_5x5_data_5_split <- label_3_5x5
I0103 17:22:08.093327 27792 net.cpp:408] label_3_5x5_data_5_split -> label_3_5x5_data_5_split_0
I0103 17:22:08.093343 27792 net.cpp:408] label_3_5x5_data_5_split -> label_3_5x5_data_5_split_1
I0103 17:22:08.093405 27792 net.cpp:150] Setting up label_3_5x5_data_5_split
I0103 17:22:08.093420 27792 net.cpp:157] Top shape: 12 6 12 12 (10368)
I0103 17:22:08.093430 27792 net.cpp:157] Top shape: 12 6 12 12 (10368)
I0103 17:22:08.093438 27792 net.cpp:165] Memory required for data: 26386560
I0103 17:22:08.093446 27792 layer_factory.hpp:77] Creating layer label_3_7x7_data_6_split
I0103 17:22:08.093458 27792 net.cpp:100] Creating Layer label_3_7x7_data_6_split
I0103 17:22:08.093467 27792 net.cpp:434] label_3_7x7_data_6_split <- label_3_7x7
I0103 17:22:08.093478 27792 net.cpp:408] label_3_7x7_data_6_split -> label_3_7x7_data_6_split_0
I0103 17:22:08.093492 27792 net.cpp:408] label_3_7x7_data_6_split -> label_3_7x7_data_6_split_1
I0103 17:22:08.093552 27792 net.cpp:150] Setting up label_3_7x7_data_6_split
I0103 17:22:08.093564 27792 net.cpp:157] Top shape: 12 6 12 12 (10368)
I0103 17:22:08.093575 27792 net.cpp:157] Top shape: 12 6 12 12 (10368)
I0103 17:22:08.093583 27792 net.cpp:165] Memory required for data: 26469504
I0103 17:22:08.093591 27792 layer_factory.hpp:77] Creating layer label_4_5x5_data_7_split
I0103 17:22:08.093602 27792 net.cpp:100] Creating Layer label_4_5x5_data_7_split
I0103 17:22:08.093611 27792 net.cpp:434] label_4_5x5_data_7_split <- label_4_5x5
I0103 17:22:08.093623 27792 net.cpp:408] label_4_5x5_data_7_split -> label_4_5x5_data_7_split_0
I0103 17:22:08.093638 27792 net.cpp:408] label_4_5x5_data_7_split -> label_4_5x5_data_7_split_1
I0103 17:22:08.093694 27792 net.cpp:150] Setting up label_4_5x5_data_7_split
I0103 17:22:08.093706 27792 net.cpp:157] Top shape: 12 6 6 6 (2592)
I0103 17:22:08.093717 27792 net.cpp:157] Top shape: 12 6 6 6 (2592)
I0103 17:22:08.093725 27792 net.cpp:165] Memory required for data: 26490240
I0103 17:22:08.093734 27792 layer_factory.hpp:77] Creating layer conv1
I0103 17:22:08.093762 27792 net.cpp:100] Creating Layer conv1
I0103 17:22:08.093771 27792 net.cpp:434] conv1 <- data
I0103 17:22:08.093786 27792 net.cpp:408] conv1 -> conv1
I0103 17:22:08.318677 27792 net.cpp:150] Setting up conv1
I0103 17:22:08.318709 27792 net.cpp:157] Top shape: 12 32 192 192 (14155776)
I0103 17:22:08.318714 27792 net.cpp:165] Memory required for data: 83113344
I0103 17:22:08.318730 27792 layer_factory.hpp:77] Creating layer conv1/bn
I0103 17:22:08.318749 27792 net.cpp:100] Creating Layer conv1/bn
I0103 17:22:08.318755 27792 net.cpp:434] conv1/bn <- conv1
I0103 17:22:08.318764 27792 net.cpp:408] conv1/bn -> conv1/bn
I0103 17:22:08.319017 27792 net.cpp:150] Setting up conv1/bn
I0103 17:22:08.319026 27792 net.cpp:157] Top shape: 12 32 192 192 (14155776)
I0103 17:22:08.319031 27792 net.cpp:165] Memory required for data: 139736448
I0103 17:22:08.319044 27792 layer_factory.hpp:77] Creating layer conv1/scale
I0103 17:22:08.319059 27792 net.cpp:100] Creating Layer conv1/scale
I0103 17:22:08.319069 27792 net.cpp:434] conv1/scale <- conv1/bn
I0103 17:22:08.319077 27792 net.cpp:395] conv1/scale -> conv1/bn (in-place)
I0103 17:22:08.319123 27792 layer_factory.hpp:77] Creating layer conv1/scale
I0103 17:22:08.319283 27792 net.cpp:150] Setting up conv1/scale
I0103 17:22:08.319290 27792 net.cpp:157] Top shape: 12 32 192 192 (14155776)
I0103 17:22:08.319295 27792 net.cpp:165] Memory required for data: 196359552
I0103 17:22:08.319305 27792 layer_factory.hpp:77] Creating layer relu1
I0103 17:22:08.319314 27792 net.cpp:100] Creating Layer relu1
I0103 17:22:08.319317 27792 net.cpp:434] relu1 <- conv1/bn
I0103 17:22:08.319324 27792 net.cpp:395] relu1 -> conv1/bn (in-place)
I0103 17:22:08.319512 27792 net.cpp:150] Setting up relu1
I0103 17:22:08.319521 27792 net.cpp:157] Top shape: 12 32 192 192 (14155776)
I0103 17:22:08.319525 27792 net.cpp:165] Memory required for data: 252982656
I0103 17:22:08.319530 27792 layer_factory.hpp:77] Creating layer conv2_1/expand
I0103 17:22:08.319541 27792 net.cpp:100] Creating Layer conv2_1/expand
I0103 17:22:08.319545 27792 net.cpp:434] conv2_1/expand <- conv1/bn
I0103 17:22:08.319553 27792 net.cpp:408] conv2_1/expand -> conv2_1/expand
I0103 17:22:08.320616 27792 net.cpp:150] Setting up conv2_1/expand
I0103 17:22:08.320629 27792 net.cpp:157] Top shape: 12 32 192 192 (14155776)
I0103 17:22:08.320633 27792 net.cpp:165] Memory required for data: 309605760
I0103 17:22:08.320639 27792 layer_factory.hpp:77] Creating layer conv2_1/expand/bn
I0103 17:22:08.320647 27792 net.cpp:100] Creating Layer conv2_1/expand/bn
I0103 17:22:08.320652 27792 net.cpp:434] conv2_1/expand/bn <- conv2_1/expand
I0103 17:22:08.320659 27792 net.cpp:408] conv2_1/expand/bn -> conv2_1/expand/bn
I0103 17:22:08.320871 27792 net.cpp:150] Setting up conv2_1/expand/bn
I0103 17:22:08.320879 27792 net.cpp:157] Top shape: 12 32 192 192 (14155776)
I0103 17:22:08.320883 27792 net.cpp:165] Memory required for data: 366228864
I0103 17:22:08.320896 27792 layer_factory.hpp:77] Creating layer conv2_1/expand/scale
I0103 17:22:08.320905 27792 net.cpp:100] Creating Layer conv2_1/expand/scale
I0103 17:22:08.320910 27792 net.cpp:434] conv2_1/expand/scale <- conv2_1/expand/bn
I0103 17:22:08.320917 27792 net.cpp:395] conv2_1/expand/scale -> conv2_1/expand/bn (in-place)
I0103 17:22:08.320956 27792 layer_factory.hpp:77] Creating layer conv2_1/expand/scale
I0103 17:22:08.321105 27792 net.cpp:150] Setting up conv2_1/expand/scale
I0103 17:22:08.321112 27792 net.cpp:157] Top shape: 12 32 192 192 (14155776)
I0103 17:22:08.321116 27792 net.cpp:165] Memory required for data: 422851968
I0103 17:22:08.321123 27792 layer_factory.hpp:77] Creating layer relu2_1/expand
I0103 17:22:08.321130 27792 net.cpp:100] Creating Layer relu2_1/expand
I0103 17:22:08.321135 27792 net.cpp:434] relu2_1/expand <- conv2_1/expand/bn
I0103 17:22:08.321141 27792 net.cpp:395] relu2_1/expand -> conv2_1/expand/bn (in-place)
I0103 17:22:08.321313 27792 net.cpp:150] Setting up relu2_1/expand
I0103 17:22:08.321323 27792 net.cpp:157] Top shape: 12 32 192 192 (14155776)
I0103 17:22:08.321327 27792 net.cpp:165] Memory required for data: 479475072
I0103 17:22:08.321331 27792 layer_factory.hpp:77] Creating layer conv2_1/dwise
I0103 17:22:08.321346 27792 net.cpp:100] Creating Layer conv2_1/dwise
I0103 17:22:08.321352 27792 net.cpp:434] conv2_1/dwise <- conv2_1/expand/bn
I0103 17:22:08.321359 27792 net.cpp:408] conv2_1/dwise -> conv2_1/dwise
I0103 17:22:08.321543 27792 net.cpp:150] Setting up conv2_1/dwise
I0103 17:22:08.321552 27792 net.cpp:157] Top shape: 12 32 192 192 (14155776)
I0103 17:22:08.321557 27792 net.cpp:165] Memory required for data: 536098176
I0103 17:22:08.321561 27792 layer_factory.hpp:77] Creating layer conv2_1/dwise/bn
I0103 17:22:08.321568 27792 net.cpp:100] Creating Layer conv2_1/dwise/bn
I0103 17:22:08.321573 27792 net.cpp:434] conv2_1/dwise/bn <- conv2_1/dwise
I0103 17:22:08.321579 27792 net.cpp:408] conv2_1/dwise/bn -> conv2_1/dwise/bn
I0103 17:22:08.321789 27792 net.cpp:150] Setting up conv2_1/dwise/bn
I0103 17:22:08.321797 27792 net.cpp:157] Top shape: 12 32 192 192 (14155776)
I0103 17:22:08.321801 27792 net.cpp:165] Memory required for data: 592721280
I0103 17:22:08.321810 27792 layer_factory.hpp:77] Creating layer conv2_1/dwise/scale
I0103 17:22:08.321817 27792 net.cpp:100] Creating Layer conv2_1/dwise/scale
I0103 17:22:08.321821 27792 net.cpp:434] conv2_1/dwise/scale <- conv2_1/dwise/bn
I0103 17:22:08.321826 27792 net.cpp:395] conv2_1/dwise/scale -> conv2_1/dwise/bn (in-place)
I0103 17:22:08.321864 27792 layer_factory.hpp:77] Creating layer conv2_1/dwise/scale
I0103 17:22:08.322973 27792 net.cpp:150] Setting up conv2_1/dwise/scale
I0103 17:22:08.322985 27792 net.cpp:157] Top shape: 12 32 192 192 (14155776)
I0103 17:22:08.322989 27792 net.cpp:165] Memory required for data: 649344384
I0103 17:22:08.322998 27792 layer_factory.hpp:77] Creating layer relu2_1/dwise
I0103 17:22:08.323004 27792 net.cpp:100] Creating Layer relu2_1/dwise
I0103 17:22:08.323009 27792 net.cpp:434] relu2_1/dwise <- conv2_1/dwise/bn
I0103 17:22:08.323014 27792 net.cpp:395] relu2_1/dwise -> conv2_1/dwise/bn (in-place)
I0103 17:22:08.323161 27792 net.cpp:150] Setting up relu2_1/dwise
I0103 17:22:08.323169 27792 net.cpp:157] Top shape: 12 32 192 192 (14155776)
I0103 17:22:08.323173 27792 net.cpp:165] Memory required for data: 705967488
I0103 17:22:08.323176 27792 layer_factory.hpp:77] Creating layer conv2_1/linear
I0103 17:22:08.323184 27792 net.cpp:100] Creating Layer conv2_1/linear
I0103 17:22:08.323189 27792 net.cpp:434] conv2_1/linear <- conv2_1/dwise/bn
I0103 17:22:08.323194 27792 net.cpp:408] conv2_1/linear -> conv2_1/linear
I0103 17:22:08.324102 27792 net.cpp:150] Setting up conv2_1/linear
I0103 17:22:08.324115 27792 net.cpp:157] Top shape: 12 16 192 192 (7077888)
I0103 17:22:08.324120 27792 net.cpp:165] Memory required for data: 734279040
I0103 17:22:08.324126 27792 layer_factory.hpp:77] Creating layer conv2_1/linear/bn
I0103 17:22:08.324131 27792 net.cpp:100] Creating Layer conv2_1/linear/bn
I0103 17:22:08.324136 27792 net.cpp:434] conv2_1/linear/bn <- conv2_1/linear
I0103 17:22:08.324141 27792 net.cpp:408] conv2_1/linear/bn -> conv2_1/linear/bn
I0103 17:22:08.324321 27792 net.cpp:150] Setting up conv2_1/linear/bn
I0103 17:22:08.324328 27792 net.cpp:157] Top shape: 12 16 192 192 (7077888)
I0103 17:22:08.324331 27792 net.cpp:165] Memory required for data: 762590592
I0103 17:22:08.324338 27792 layer_factory.hpp:77] Creating layer conv2_1/linear/scale
I0103 17:22:08.324345 27792 net.cpp:100] Creating Layer conv2_1/linear/scale
I0103 17:22:08.324348 27792 net.cpp:434] conv2_1/linear/scale <- conv2_1/linear/bn
I0103 17:22:08.324353 27792 net.cpp:395] conv2_1/linear/scale -> conv2_1/linear/bn (in-place)
I0103 17:22:08.324384 27792 layer_factory.hpp:77] Creating layer conv2_1/linear/scale
I0103 17:22:08.324501 27792 net.cpp:150] Setting up conv2_1/linear/scale
I0103 17:22:08.324508 27792 net.cpp:157] Top shape: 12 16 192 192 (7077888)
I0103 17:22:08.324512 27792 net.cpp:165] Memory required for data: 790902144
I0103 17:22:08.324517 27792 layer_factory.hpp:77] Creating layer conv2_2/expand
I0103 17:22:08.324524 27792 net.cpp:100] Creating Layer conv2_2/expand
I0103 17:22:08.324528 27792 net.cpp:434] conv2_2/expand <- conv2_1/linear/bn
I0103 17:22:08.324533 27792 net.cpp:408] conv2_2/expand -> conv2_2/expand
I0103 17:22:08.325708 27792 net.cpp:150] Setting up conv2_2/expand
I0103 17:22:08.325721 27792 net.cpp:157] Top shape: 12 96 192 192 (42467328)
I0103 17:22:08.325724 27792 net.cpp:165] Memory required for data: 960771456
I0103 17:22:08.325729 27792 layer_factory.hpp:77] Creating layer conv2_2/expand/bn
I0103 17:22:08.325736 27792 net.cpp:100] Creating Layer conv2_2/expand/bn
I0103 17:22:08.325740 27792 net.cpp:434] conv2_2/expand/bn <- conv2_2/expand
I0103 17:22:08.325747 27792 net.cpp:408] conv2_2/expand/bn -> conv2_2/expand/bn
I0103 17:22:08.325927 27792 net.cpp:150] Setting up conv2_2/expand/bn
I0103 17:22:08.325934 27792 net.cpp:157] Top shape: 12 96 192 192 (42467328)
I0103 17:22:08.325937 27792 net.cpp:165] Memory required for data: 1130640768
I0103 17:22:08.325944 27792 layer_factory.hpp:77] Creating layer conv2_2/expand/scale
I0103 17:22:08.325950 27792 net.cpp:100] Creating Layer conv2_2/expand/scale
I0103 17:22:08.325954 27792 net.cpp:434] conv2_2/expand/scale <- conv2_2/expand/bn
I0103 17:22:08.325959 27792 net.cpp:395] conv2_2/expand/scale -> conv2_2/expand/bn (in-place)
I0103 17:22:08.325989 27792 layer_factory.hpp:77] Creating layer conv2_2/expand/scale
I0103 17:22:08.326115 27792 net.cpp:150] Setting up conv2_2/expand/scale
I0103 17:22:08.326122 27792 net.cpp:157] Top shape: 12 96 192 192 (42467328)
I0103 17:22:08.326125 27792 net.cpp:165] Memory required for data: 1300510080
I0103 17:22:08.326131 27792 layer_factory.hpp:77] Creating layer relu2_2/expand
I0103 17:22:08.326136 27792 net.cpp:100] Creating Layer relu2_2/expand
I0103 17:22:08.326139 27792 net.cpp:434] relu2_2/expand <- conv2_2/expand/bn
I0103 17:22:08.326144 27792 net.cpp:395] relu2_2/expand -> conv2_2/expand/bn (in-place)
I0103 17:22:08.326308 27792 net.cpp:150] Setting up relu2_2/expand
I0103 17:22:08.326323 27792 net.cpp:157] Top shape: 12 96 192 192 (42467328)
I0103 17:22:08.326328 27792 net.cpp:165] Memory required for data: 1470379392
I0103 17:22:08.326333 27792 layer_factory.hpp:77] Creating layer conv2_2/dwise
I0103 17:22:08.326341 27792 net.cpp:100] Creating Layer conv2_2/dwise
I0103 17:22:08.326346 27792 net.cpp:434] conv2_2/dwise <- conv2_2/expand/bn
I0103 17:22:08.326354 27792 net.cpp:408] conv2_2/dwise -> conv2_2/dwise
I0103 17:22:08.326558 27792 net.cpp:150] Setting up conv2_2/dwise
I0103 17:22:08.326567 27792 net.cpp:157] Top shape: 12 96 96 96 (10616832)
I0103 17:22:08.326571 27792 net.cpp:165] Memory required for data: 1512846720
I0103 17:22:08.326577 27792 layer_factory.hpp:77] Creating layer conv2_2/dwise/bn
I0103 17:22:08.326584 27792 net.cpp:100] Creating Layer conv2_2/dwise/bn
I0103 17:22:08.326588 27792 net.cpp:434] conv2_2/dwise/bn <- conv2_2/dwise
I0103 17:22:08.326596 27792 net.cpp:408] conv2_2/dwise/bn -> conv2_2/dwise/bn
I0103 17:22:08.326819 27792 net.cpp:150] Setting up conv2_2/dwise/bn
I0103 17:22:08.326828 27792 net.cpp:157] Top shape: 12 96 96 96 (10616832)
I0103 17:22:08.326833 27792 net.cpp:165] Memory required for data: 1555314048
I0103 17:22:08.326845 27792 layer_factory.hpp:77] Creating layer conv2_2/dwise/scale
I0103 17:22:08.326854 27792 net.cpp:100] Creating Layer conv2_2/dwise/scale
I0103 17:22:08.326859 27792 net.cpp:434] conv2_2/dwise/scale <- conv2_2/dwise/bn
I0103 17:22:08.326866 27792 net.cpp:395] conv2_2/dwise/scale -> conv2_2/dwise/bn (in-place)
I0103 17:22:08.326905 27792 layer_factory.hpp:77] Creating layer conv2_2/dwise/scale
I0103 17:22:08.327024 27792 net.cpp:150] Setting up conv2_2/dwise/scale
I0103 17:22:08.327031 27792 net.cpp:157] Top shape: 12 96 96 96 (10616832)
I0103 17:22:08.327035 27792 net.cpp:165] Memory required for data: 1597781376
I0103 17:22:08.327044 27792 layer_factory.hpp:77] Creating layer relu2_2/dwise
I0103 17:22:08.327050 27792 net.cpp:100] Creating Layer relu2_2/dwise
I0103 17:22:08.327054 27792 net.cpp:434] relu2_2/dwise <- conv2_2/dwise/bn
I0103 17:22:08.327060 27792 net.cpp:395] relu2_2/dwise -> conv2_2/dwise/bn (in-place)
I0103 17:22:08.327525 27792 net.cpp:150] Setting up relu2_2/dwise
I0103 17:22:08.327538 27792 net.cpp:157] Top shape: 12 96 96 96 (10616832)
I0103 17:22:08.327543 27792 net.cpp:165] Memory required for data: 1640248704
I0103 17:22:08.327548 27792 layer_factory.hpp:77] Creating layer conv2_2/linear
I0103 17:22:08.327559 27792 net.cpp:100] Creating Layer conv2_2/linear
I0103 17:22:08.327564 27792 net.cpp:434] conv2_2/linear <- conv2_2/dwise/bn
I0103 17:22:08.327571 27792 net.cpp:408] conv2_2/linear -> conv2_2/linear
I0103 17:22:08.328613 27792 net.cpp:150] Setting up conv2_2/linear
I0103 17:22:08.328626 27792 net.cpp:157] Top shape: 12 24 96 96 (2654208)
I0103 17:22:08.328630 27792 net.cpp:165] Memory required for data: 1650865536
I0103 17:22:08.328636 27792 layer_factory.hpp:77] Creating layer conv2_2/linear/bn
I0103 17:22:08.328647 27792 net.cpp:100] Creating Layer conv2_2/linear/bn
I0103 17:22:08.328652 27792 net.cpp:434] conv2_2/linear/bn <- conv2_2/linear
I0103 17:22:08.328660 27792 net.cpp:408] conv2_2/linear/bn -> conv2_2/linear/bn
I0103 17:22:08.328868 27792 net.cpp:150] Setting up conv2_2/linear/bn
I0103 17:22:08.328876 27792 net.cpp:157] Top shape: 12 24 96 96 (2654208)
I0103 17:22:08.328881 27792 net.cpp:165] Memory required for data: 1661482368
I0103 17:22:08.328889 27792 layer_factory.hpp:77] Creating layer conv2_2/linear/scale
I0103 17:22:08.328898 27792 net.cpp:100] Creating Layer conv2_2/linear/scale
I0103 17:22:08.328902 27792 net.cpp:434] conv2_2/linear/scale <- conv2_2/linear/bn
I0103 17:22:08.328909 27792 net.cpp:395] conv2_2/linear/scale -> conv2_2/linear/bn (in-place)
I0103 17:22:08.328949 27792 layer_factory.hpp:77] Creating layer conv2_2/linear/scale
I0103 17:22:08.329064 27792 net.cpp:150] Setting up conv2_2/linear/scale
I0103 17:22:08.329072 27792 net.cpp:157] Top shape: 12 24 96 96 (2654208)
I0103 17:22:08.329077 27792 net.cpp:165] Memory required for data: 1672099200
I0103 17:22:08.329084 27792 layer_factory.hpp:77] Creating layer conv2_2/linear/bn_conv2_2/linear/scale_0_split
I0103 17:22:08.329092 27792 net.cpp:100] Creating Layer conv2_2/linear/bn_conv2_2/linear/scale_0_split
I0103 17:22:08.329095 27792 net.cpp:434] conv2_2/linear/bn_conv2_2/linear/scale_0_split <- conv2_2/linear/bn
I0103 17:22:08.329102 27792 net.cpp:408] conv2_2/linear/bn_conv2_2/linear/scale_0_split -> conv2_2/linear/bn_conv2_2/linear/scale_0_split_0
I0103 17:22:08.329111 27792 net.cpp:408] conv2_2/linear/bn_conv2_2/linear/scale_0_split -> conv2_2/linear/bn_conv2_2/linear/scale_0_split_1
I0103 17:22:08.329146 27792 net.cpp:150] Setting up conv2_2/linear/bn_conv2_2/linear/scale_0_split
I0103 17:22:08.329154 27792 net.cpp:157] Top shape: 12 24 96 96 (2654208)
I0103 17:22:08.329159 27792 net.cpp:157] Top shape: 12 24 96 96 (2654208)
I0103 17:22:08.329162 27792 net.cpp:165] Memory required for data: 1693332864
I0103 17:22:08.329166 27792 layer_factory.hpp:77] Creating layer conv3_1/expand
I0103 17:22:08.329176 27792 net.cpp:100] Creating Layer conv3_1/expand
I0103 17:22:08.329180 27792 net.cpp:434] conv3_1/expand <- conv2_2/linear/bn_conv2_2/linear/scale_0_split_0
I0103 17:22:08.329188 27792 net.cpp:408] conv3_1/expand -> conv3_1/expand
I0103 17:22:08.329991 27792 net.cpp:150] Setting up conv3_1/expand
I0103 17:22:08.330003 27792 net.cpp:157] Top shape: 12 144 96 96 (15925248)
I0103 17:22:08.330008 27792 net.cpp:165] Memory required for data: 1757033856
I0103 17:22:08.330011 27792 layer_factory.hpp:77] Creating layer conv3_1/expand/bn
I0103 17:22:08.330018 27792 net.cpp:100] Creating Layer conv3_1/expand/bn
I0103 17:22:08.330022 27792 net.cpp:434] conv3_1/expand/bn <- conv3_1/expand
I0103 17:22:08.330027 27792 net.cpp:408] conv3_1/expand/bn -> conv3_1/expand/bn
I0103 17:22:08.330195 27792 net.cpp:150] Setting up conv3_1/expand/bn
I0103 17:22:08.330202 27792 net.cpp:157] Top shape: 12 144 96 96 (15925248)
I0103 17:22:08.330206 27792 net.cpp:165] Memory required for data: 1820734848
I0103 17:22:08.330212 27792 layer_factory.hpp:77] Creating layer conv3_1/expand/scale
I0103 17:22:08.330219 27792 net.cpp:100] Creating Layer conv3_1/expand/scale
I0103 17:22:08.330222 27792 net.cpp:434] conv3_1/expand/scale <- conv3_1/expand/bn
I0103 17:22:08.330226 27792 net.cpp:395] conv3_1/expand/scale -> conv3_1/expand/bn (in-place)
I0103 17:22:08.330257 27792 layer_factory.hpp:77] Creating layer conv3_1/expand/scale
I0103 17:22:08.330351 27792 net.cpp:150] Setting up conv3_1/expand/scale
I0103 17:22:08.330358 27792 net.cpp:157] Top shape: 12 144 96 96 (15925248)
I0103 17:22:08.330361 27792 net.cpp:165] Memory required for data: 1884435840
I0103 17:22:08.330368 27792 layer_factory.hpp:77] Creating layer relu3_1/expand
I0103 17:22:08.330373 27792 net.cpp:100] Creating Layer relu3_1/expand
I0103 17:22:08.330375 27792 net.cpp:434] relu3_1/expand <- conv3_1/expand/bn
I0103 17:22:08.330380 27792 net.cpp:395] relu3_1/expand -> conv3_1/expand/bn (in-place)
I0103 17:22:08.336094 27792 net.cpp:150] Setting up relu3_1/expand
I0103 17:22:08.336112 27792 net.cpp:157] Top shape: 12 144 96 96 (15925248)
I0103 17:22:08.336117 27792 net.cpp:165] Memory required for data: 1948136832
I0103 17:22:08.336123 27792 layer_factory.hpp:77] Creating layer conv3_1/dwise
I0103 17:22:08.336133 27792 net.cpp:100] Creating Layer conv3_1/dwise
I0103 17:22:08.336138 27792 net.cpp:434] conv3_1/dwise <- conv3_1/expand/bn
I0103 17:22:08.336146 27792 net.cpp:408] conv3_1/dwise -> conv3_1/dwise
I0103 17:22:08.336398 27792 net.cpp:150] Setting up conv3_1/dwise
I0103 17:22:08.336408 27792 net.cpp:157] Top shape: 12 144 96 96 (15925248)
I0103 17:22:08.336412 27792 net.cpp:165] Memory required for data: 2011837824
I0103 17:22:08.336418 27792 layer_factory.hpp:77] Creating layer conv3_1/dwise/bn
I0103 17:22:08.336426 27792 net.cpp:100] Creating Layer conv3_1/dwise/bn
I0103 17:22:08.336431 27792 net.cpp:434] conv3_1/dwise/bn <- conv3_1/dwise
I0103 17:22:08.336437 27792 net.cpp:408] conv3_1/dwise/bn -> conv3_1/dwise/bn
I0103 17:22:08.336619 27792 net.cpp:150] Setting up conv3_1/dwise/bn
I0103 17:22:08.336628 27792 net.cpp:157] Top shape: 12 144 96 96 (15925248)
I0103 17:22:08.336632 27792 net.cpp:165] Memory required for data: 2075538816
I0103 17:22:08.336640 27792 layer_factory.hpp:77] Creating layer conv3_1/dwise/scale
I0103 17:22:08.336649 27792 net.cpp:100] Creating Layer conv3_1/dwise/scale
I0103 17:22:08.336653 27792 net.cpp:434] conv3_1/dwise/scale <- conv3_1/dwise/bn
I0103 17:22:08.336659 27792 net.cpp:395] conv3_1/dwise/scale -> conv3_1/dwise/bn (in-place)
I0103 17:22:08.336697 27792 layer_factory.hpp:77] Creating layer conv3_1/dwise/scale
I0103 17:22:08.336822 27792 net.cpp:150] Setting up conv3_1/dwise/scale
I0103 17:22:08.336829 27792 net.cpp:157] Top shape: 12 144 96 96 (15925248)
I0103 17:22:08.336833 27792 net.cpp:165] Memory required for data: 2139239808
I0103 17:22:08.336841 27792 layer_factory.hpp:77] Creating layer relu3_1/dwise
I0103 17:22:08.336848 27792 net.cpp:100] Creating Layer relu3_1/dwise
I0103 17:22:08.336853 27792 net.cpp:434] relu3_1/dwise <- conv3_1/dwise/bn
I0103 17:22:08.336858 27792 net.cpp:395] relu3_1/dwise -> conv3_1/dwise/bn (in-place)
I0103 17:22:08.337014 27792 net.cpp:150] Setting up relu3_1/dwise
I0103 17:22:08.337023 27792 net.cpp:157] Top shape: 12 144 96 96 (15925248)
I0103 17:22:08.337026 27792 net.cpp:165] Memory required for data: 2202940800
I0103 17:22:08.337030 27792 layer_factory.hpp:77] Creating layer conv3_1/linear
I0103 17:22:08.337039 27792 net.cpp:100] Creating Layer conv3_1/linear
I0103 17:22:08.337043 27792 net.cpp:434] conv3_1/linear <- conv3_1/dwise/bn
I0103 17:22:08.337047 27792 net.cpp:408] conv3_1/linear -> conv3_1/linear
I0103 17:22:08.338052 27792 net.cpp:150] Setting up conv3_1/linear
I0103 17:22:08.338063 27792 net.cpp:157] Top shape: 12 24 96 96 (2654208)
I0103 17:22:08.338068 27792 net.cpp:165] Memory required for data: 2213557632
I0103 17:22:08.338073 27792 layer_factory.hpp:77] Creating layer conv3_1/linear/bn
I0103 17:22:08.338080 27792 net.cpp:100] Creating Layer conv3_1/linear/bn
I0103 17:22:08.338083 27792 net.cpp:434] conv3_1/linear/bn <- conv3_1/linear
I0103 17:22:08.338089 27792 net.cpp:408] conv3_1/linear/bn -> conv3_1/linear/bn
I0103 17:22:08.338397 27792 net.cpp:150] Setting up conv3_1/linear/bn
I0103 17:22:08.338405 27792 net.cpp:157] Top shape: 12 24 96 96 (2654208)
I0103 17:22:08.338408 27792 net.cpp:165] Memory required for data: 2224174464
I0103 17:22:08.338415 27792 layer_factory.hpp:77] Creating layer conv3_1/linear/scale
I0103 17:22:08.338423 27792 net.cpp:100] Creating Layer conv3_1/linear/scale
I0103 17:22:08.338426 27792 net.cpp:434] conv3_1/linear/scale <- conv3_1/linear/bn
I0103 17:22:08.338431 27792 net.cpp:395] conv3_1/linear/scale -> conv3_1/linear/bn (in-place)
I0103 17:22:08.338539 27792 layer_factory.hpp:77] Creating layer conv3_1/linear/scale
I0103 17:22:08.338685 27792 net.cpp:150] Setting up conv3_1/linear/scale
I0103 17:22:08.338692 27792 net.cpp:157] Top shape: 12 24 96 96 (2654208)
I0103 17:22:08.338696 27792 net.cpp:165] Memory required for data: 2234791296
I0103 17:22:08.338701 27792 layer_factory.hpp:77] Creating layer block_3_1
I0103 17:22:08.338707 27792 net.cpp:100] Creating Layer block_3_1
I0103 17:22:08.338711 27792 net.cpp:434] block_3_1 <- conv2_2/linear/bn_conv2_2/linear/scale_0_split_1
I0103 17:22:08.338716 27792 net.cpp:434] block_3_1 <- conv3_1/linear/bn
I0103 17:22:08.338721 27792 net.cpp:408] block_3_1 -> block_3_1
I0103 17:22:08.338747 27792 net.cpp:150] Setting up block_3_1
I0103 17:22:08.338752 27792 net.cpp:157] Top shape: 12 24 96 96 (2654208)
I0103 17:22:08.338755 27792 net.cpp:165] Memory required for data: 2245408128
I0103 17:22:08.338758 27792 layer_factory.hpp:77] Creating layer conv3_2/expand
I0103 17:22:08.338769 27792 net.cpp:100] Creating Layer conv3_2/expand
I0103 17:22:08.338773 27792 net.cpp:434] conv3_2/expand <- block_3_1
I0103 17:22:08.338804 27792 net.cpp:408] conv3_2/expand -> conv3_2/expand
I0103 17:22:08.339936 27792 net.cpp:150] Setting up conv3_2/expand
I0103 17:22:08.339954 27792 net.cpp:157] Top shape: 12 144 96 96 (15925248)
I0103 17:22:08.339959 27792 net.cpp:165] Memory required for data: 2309109120
I0103 17:22:08.339967 27792 layer_factory.hpp:77] Creating layer conv3_2/expand/bn
I0103 17:22:08.339974 27792 net.cpp:100] Creating Layer conv3_2/expand/bn
I0103 17:22:08.339980 27792 net.cpp:434] conv3_2/expand/bn <- conv3_2/expand
I0103 17:22:08.339988 27792 net.cpp:408] conv3_2/expand/bn -> conv3_2/expand/bn
I0103 17:22:08.340227 27792 net.cpp:150] Setting up conv3_2/expand/bn
I0103 17:22:08.340237 27792 net.cpp:157] Top shape: 12 144 96 96 (15925248)
I0103 17:22:08.340242 27792 net.cpp:165] Memory required for data: 2372810112
I0103 17:22:08.340251 27792 layer_factory.hpp:77] Creating layer conv3_2/expand/scale
I0103 17:22:08.340260 27792 net.cpp:100] Creating Layer conv3_2/expand/scale
I0103 17:22:08.340267 27792 net.cpp:434] conv3_2/expand/scale <- conv3_2/expand/bn
I0103 17:22:08.340273 27792 net.cpp:395] conv3_2/expand/scale -> conv3_2/expand/bn (in-place)
I0103 17:22:08.340318 27792 layer_factory.hpp:77] Creating layer conv3_2/expand/scale
I0103 17:22:08.340446 27792 net.cpp:150] Setting up conv3_2/expand/scale
I0103 17:22:08.340454 27792 net.cpp:157] Top shape: 12 144 96 96 (15925248)
I0103 17:22:08.340458 27792 net.cpp:165] Memory required for data: 2436511104
I0103 17:22:08.340471 27792 layer_factory.hpp:77] Creating layer relu3_2/expand
I0103 17:22:08.340479 27792 net.cpp:100] Creating Layer relu3_2/expand
I0103 17:22:08.340483 27792 net.cpp:434] relu3_2/expand <- conv3_2/expand/bn
I0103 17:22:08.340489 27792 net.cpp:395] relu3_2/expand -> conv3_2/expand/bn (in-place)
I0103 17:22:08.340652 27792 net.cpp:150] Setting up relu3_2/expand
I0103 17:22:08.340662 27792 net.cpp:157] Top shape: 12 144 96 96 (15925248)
I0103 17:22:08.340667 27792 net.cpp:165] Memory required for data: 2500212096
I0103 17:22:08.340670 27792 layer_factory.hpp:77] Creating layer conv3_2/dwise
I0103 17:22:08.340679 27792 net.cpp:100] Creating Layer conv3_2/dwise
I0103 17:22:08.340683 27792 net.cpp:434] conv3_2/dwise <- conv3_2/expand/bn
I0103 17:22:08.340690 27792 net.cpp:408] conv3_2/dwise -> conv3_2/dwise
I0103 17:22:08.340904 27792 net.cpp:150] Setting up conv3_2/dwise
I0103 17:22:08.340914 27792 net.cpp:157] Top shape: 12 144 48 48 (3981312)
I0103 17:22:08.340917 27792 net.cpp:165] Memory required for data: 2516137344
I0103 17:22:08.340924 27792 layer_factory.hpp:77] Creating layer conv3_2/dwise/bn
I0103 17:22:08.340929 27792 net.cpp:100] Creating Layer conv3_2/dwise/bn
I0103 17:22:08.340934 27792 net.cpp:434] conv3_2/dwise/bn <- conv3_2/dwise
I0103 17:22:08.340939 27792 net.cpp:408] conv3_2/dwise/bn -> conv3_2/dwise/bn
I0103 17:22:08.341136 27792 net.cpp:150] Setting up conv3_2/dwise/bn
I0103 17:22:08.341145 27792 net.cpp:157] Top shape: 12 144 48 48 (3981312)
I0103 17:22:08.341148 27792 net.cpp:165] Memory required for data: 2532062592
I0103 17:22:08.341156 27792 layer_factory.hpp:77] Creating layer conv3_2/dwise/scale
I0103 17:22:08.341162 27792 net.cpp:100] Creating Layer conv3_2/dwise/scale
I0103 17:22:08.341167 27792 net.cpp:434] conv3_2/dwise/scale <- conv3_2/dwise/bn
I0103 17:22:08.341173 27792 net.cpp:395] conv3_2/dwise/scale -> conv3_2/dwise/bn (in-place)
I0103 17:22:08.341208 27792 layer_factory.hpp:77] Creating layer conv3_2/dwise/scale
I0103 17:22:08.341310 27792 net.cpp:150] Setting up conv3_2/dwise/scale
I0103 17:22:08.341318 27792 net.cpp:157] Top shape: 12 144 48 48 (3981312)
I0103 17:22:08.341322 27792 net.cpp:165] Memory required for data: 2547987840
I0103 17:22:08.341329 27792 layer_factory.hpp:77] Creating layer relu3_2/dwise
I0103 17:22:08.341336 27792 net.cpp:100] Creating Layer relu3_2/dwise
I0103 17:22:08.341339 27792 net.cpp:434] relu3_2/dwise <- conv3_2/dwise/bn
I0103 17:22:08.341344 27792 net.cpp:395] relu3_2/dwise -> conv3_2/dwise/bn (in-place)
I0103 17:22:08.341507 27792 net.cpp:150] Setting up relu3_2/dwise
I0103 17:22:08.341516 27792 net.cpp:157] Top shape: 12 144 48 48 (3981312)
I0103 17:22:08.341521 27792 net.cpp:165] Memory required for data: 2563913088
I0103 17:22:08.341524 27792 layer_factory.hpp:77] Creating layer conv3_2/linear
I0103 17:22:08.341533 27792 net.cpp:100] Creating Layer conv3_2/linear
I0103 17:22:08.341537 27792 net.cpp:434] conv3_2/linear <- conv3_2/dwise/bn
I0103 17:22:08.341544 27792 net.cpp:408] conv3_2/linear -> conv3_2/linear
I0103 17:22:08.342708 27792 net.cpp:150] Setting up conv3_2/linear
I0103 17:22:08.342723 27792 net.cpp:157] Top shape: 12 32 48 48 (884736)
I0103 17:22:08.342728 27792 net.cpp:165] Memory required for data: 2567452032
I0103 17:22:08.342734 27792 layer_factory.hpp:77] Creating layer conv3_2/linear/bn
I0103 17:22:08.342741 27792 net.cpp:100] Creating Layer conv3_2/linear/bn
I0103 17:22:08.342746 27792 net.cpp:434] conv3_2/linear/bn <- conv3_2/linear
I0103 17:22:08.342752 27792 net.cpp:408] conv3_2/linear/bn -> conv3_2/linear/bn
I0103 17:22:08.343005 27792 net.cpp:150] Setting up conv3_2/linear/bn
I0103 17:22:08.343015 27792 net.cpp:157] Top shape: 12 32 48 48 (884736)
I0103 17:22:08.343021 27792 net.cpp:165] Memory required for data: 2570990976
I0103 17:22:08.343030 27792 layer_factory.hpp:77] Creating layer conv3_2/linear/scale
I0103 17:22:08.343039 27792 net.cpp:100] Creating Layer conv3_2/linear/scale
I0103 17:22:08.343042 27792 net.cpp:434] conv3_2/linear/scale <- conv3_2/linear/bn
I0103 17:22:08.343050 27792 net.cpp:395] conv3_2/linear/scale -> conv3_2/linear/bn (in-place)
I0103 17:22:08.343091 27792 layer_factory.hpp:77] Creating layer conv3_2/linear/scale
I0103 17:22:08.343196 27792 net.cpp:150] Setting up conv3_2/linear/scale
I0103 17:22:08.343204 27792 net.cpp:157] Top shape: 12 32 48 48 (884736)
I0103 17:22:08.343207 27792 net.cpp:165] Memory required for data: 2574529920
I0103 17:22:08.343214 27792 layer_factory.hpp:77] Creating layer conv3_2/linear/bn_conv3_2/linear/scale_0_split
I0103 17:22:08.343220 27792 net.cpp:100] Creating Layer conv3_2/linear/bn_conv3_2/linear/scale_0_split
I0103 17:22:08.343225 27792 net.cpp:434] conv3_2/linear/bn_conv3_2/linear/scale_0_split <- conv3_2/linear/bn
I0103 17:22:08.343230 27792 net.cpp:408] conv3_2/linear/bn_conv3_2/linear/scale_0_split -> conv3_2/linear/bn_conv3_2/linear/scale_0_split_0
I0103 17:22:08.343237 27792 net.cpp:408] conv3_2/linear/bn_conv3_2/linear/scale_0_split -> conv3_2/linear/bn_conv3_2/linear/scale_0_split_1
I0103 17:22:08.343271 27792 net.cpp:150] Setting up conv3_2/linear/bn_conv3_2/linear/scale_0_split
I0103 17:22:08.343278 27792 net.cpp:157] Top shape: 12 32 48 48 (884736)
I0103 17:22:08.343283 27792 net.cpp:157] Top shape: 12 32 48 48 (884736)
I0103 17:22:08.343286 27792 net.cpp:165] Memory required for data: 2581607808
I0103 17:22:08.343291 27792 layer_factory.hpp:77] Creating layer conv4_1/expand
I0103 17:22:08.343299 27792 net.cpp:100] Creating Layer conv4_1/expand
I0103 17:22:08.343303 27792 net.cpp:434] conv4_1/expand <- conv3_2/linear/bn_conv3_2/linear/scale_0_split_0
I0103 17:22:08.343310 27792 net.cpp:408] conv4_1/expand -> conv4_1/expand
I0103 17:22:08.344532 27792 net.cpp:150] Setting up conv4_1/expand
I0103 17:22:08.344547 27792 net.cpp:157] Top shape: 12 192 48 48 (5308416)
I0103 17:22:08.344552 27792 net.cpp:165] Memory required for data: 2602841472
I0103 17:22:08.344558 27792 layer_factory.hpp:77] Creating layer conv4_1/expand/bn
I0103 17:22:08.344565 27792 net.cpp:100] Creating Layer conv4_1/expand/bn
I0103 17:22:08.344570 27792 net.cpp:434] conv4_1/expand/bn <- conv4_1/expand
I0103 17:22:08.344576 27792 net.cpp:408] conv4_1/expand/bn -> conv4_1/expand/bn
I0103 17:22:08.344781 27792 net.cpp:150] Setting up conv4_1/expand/bn
I0103 17:22:08.344789 27792 net.cpp:157] Top shape: 12 192 48 48 (5308416)
I0103 17:22:08.344794 27792 net.cpp:165] Memory required for data: 2624075136
I0103 17:22:08.344800 27792 layer_factory.hpp:77] Creating layer conv4_1/expand/scale
I0103 17:22:08.344810 27792 net.cpp:100] Creating Layer conv4_1/expand/scale
I0103 17:22:08.344815 27792 net.cpp:434] conv4_1/expand/scale <- conv4_1/expand/bn
I0103 17:22:08.344821 27792 net.cpp:395] conv4_1/expand/scale -> conv4_1/expand/bn (in-place)
I0103 17:22:08.344864 27792 layer_factory.hpp:77] Creating layer conv4_1/expand/scale
I0103 17:22:08.344998 27792 net.cpp:150] Setting up conv4_1/expand/scale
I0103 17:22:08.345010 27792 net.cpp:157] Top shape: 12 192 48 48 (5308416)
I0103 17:22:08.345013 27792 net.cpp:165] Memory required for data: 2645308800
I0103 17:22:08.345021 27792 layer_factory.hpp:77] Creating layer relu4_1/expand
I0103 17:22:08.345031 27792 net.cpp:100] Creating Layer relu4_1/expand
I0103 17:22:08.345038 27792 net.cpp:434] relu4_1/expand <- conv4_1/expand/bn
I0103 17:22:08.345046 27792 net.cpp:395] relu4_1/expand -> conv4_1/expand/bn (in-place)
I0103 17:22:08.345264 27792 net.cpp:150] Setting up relu4_1/expand
I0103 17:22:08.345275 27792 net.cpp:157] Top shape: 12 192 48 48 (5308416)
I0103 17:22:08.345279 27792 net.cpp:165] Memory required for data: 2666542464
I0103 17:22:08.345284 27792 layer_factory.hpp:77] Creating layer conv4_1/dwise
I0103 17:22:08.345299 27792 net.cpp:100] Creating Layer conv4_1/dwise
I0103 17:22:08.345304 27792 net.cpp:434] conv4_1/dwise <- conv4_1/expand/bn
I0103 17:22:08.345312 27792 net.cpp:408] conv4_1/dwise -> conv4_1/dwise
I0103 17:22:08.345571 27792 net.cpp:150] Setting up conv4_1/dwise
I0103 17:22:08.345582 27792 net.cpp:157] Top shape: 12 192 48 48 (5308416)
I0103 17:22:08.345587 27792 net.cpp:165] Memory required for data: 2687776128
I0103 17:22:08.345592 27792 layer_factory.hpp:77] Creating layer conv4_1/dwise/bn
I0103 17:22:08.345603 27792 net.cpp:100] Creating Layer conv4_1/dwise/bn
I0103 17:22:08.345608 27792 net.cpp:434] conv4_1/dwise/bn <- conv4_1/dwise
I0103 17:22:08.345614 27792 net.cpp:408] conv4_1/dwise/bn -> conv4_1/dwise/bn
I0103 17:22:08.345814 27792 net.cpp:150] Setting up conv4_1/dwise/bn
I0103 17:22:08.345822 27792 net.cpp:157] Top shape: 12 192 48 48 (5308416)
I0103 17:22:08.345827 27792 net.cpp:165] Memory required for data: 2709009792
I0103 17:22:08.345835 27792 layer_factory.hpp:77] Creating layer conv4_1/dwise/scale
I0103 17:22:08.345842 27792 net.cpp:100] Creating Layer conv4_1/dwise/scale
I0103 17:22:08.345847 27792 net.cpp:434] conv4_1/dwise/scale <- conv4_1/dwise/bn
I0103 17:22:08.345852 27792 net.cpp:395] conv4_1/dwise/scale -> conv4_1/dwise/bn (in-place)
I0103 17:22:08.345890 27792 layer_factory.hpp:77] Creating layer conv4_1/dwise/scale
I0103 17:22:08.345993 27792 net.cpp:150] Setting up conv4_1/dwise/scale
I0103 17:22:08.346001 27792 net.cpp:157] Top shape: 12 192 48 48 (5308416)
I0103 17:22:08.346005 27792 net.cpp:165] Memory required for data: 2730243456
I0103 17:22:08.346011 27792 layer_factory.hpp:77] Creating layer relu4_1/dwise
I0103 17:22:08.346017 27792 net.cpp:100] Creating Layer relu4_1/dwise
I0103 17:22:08.346022 27792 net.cpp:434] relu4_1/dwise <- conv4_1/dwise/bn
I0103 17:22:08.346027 27792 net.cpp:395] relu4_1/dwise -> conv4_1/dwise/bn (in-place)
I0103 17:22:08.346561 27792 net.cpp:150] Setting up relu4_1/dwise
I0103 17:22:08.346576 27792 net.cpp:157] Top shape: 12 192 48 48 (5308416)
I0103 17:22:08.346581 27792 net.cpp:165] Memory required for data: 2751477120
I0103 17:22:08.346585 27792 layer_factory.hpp:77] Creating layer conv4_1/linear
I0103 17:22:08.346596 27792 net.cpp:100] Creating Layer conv4_1/linear
I0103 17:22:08.346599 27792 net.cpp:434] conv4_1/linear <- conv4_1/dwise/bn
I0103 17:22:08.346606 27792 net.cpp:408] conv4_1/linear -> conv4_1/linear
I0103 17:22:08.347880 27792 net.cpp:150] Setting up conv4_1/linear
I0103 17:22:08.347898 27792 net.cpp:157] Top shape: 12 32 48 48 (884736)
I0103 17:22:08.347903 27792 net.cpp:165] Memory required for data: 2755016064
I0103 17:22:08.347908 27792 layer_factory.hpp:77] Creating layer conv4_1/linear/bn
I0103 17:22:08.347918 27792 net.cpp:100] Creating Layer conv4_1/linear/bn
I0103 17:22:08.347924 27792 net.cpp:434] conv4_1/linear/bn <- conv4_1/linear
I0103 17:22:08.347931 27792 net.cpp:408] conv4_1/linear/bn -> conv4_1/linear/bn
I0103 17:22:08.348151 27792 net.cpp:150] Setting up conv4_1/linear/bn
I0103 17:22:08.348160 27792 net.cpp:157] Top shape: 12 32 48 48 (884736)
I0103 17:22:08.348165 27792 net.cpp:165] Memory required for data: 2758555008
I0103 17:22:08.348172 27792 layer_factory.hpp:77] Creating layer conv4_1/linear/scale
I0103 17:22:08.348183 27792 net.cpp:100] Creating Layer conv4_1/linear/scale
I0103 17:22:08.348191 27792 net.cpp:434] conv4_1/linear/scale <- conv4_1/linear/bn
I0103 17:22:08.348196 27792 net.cpp:395] conv4_1/linear/scale -> conv4_1/linear/bn (in-place)
I0103 17:22:08.348237 27792 layer_factory.hpp:77] Creating layer conv4_1/linear/scale
I0103 17:22:08.348381 27792 net.cpp:150] Setting up conv4_1/linear/scale
I0103 17:22:08.348390 27792 net.cpp:157] Top shape: 12 32 48 48 (884736)
I0103 17:22:08.348394 27792 net.cpp:165] Memory required for data: 2762093952
I0103 17:22:08.348403 27792 layer_factory.hpp:77] Creating layer block_4_1
I0103 17:22:08.348412 27792 net.cpp:100] Creating Layer block_4_1
I0103 17:22:08.348417 27792 net.cpp:434] block_4_1 <- conv3_2/linear/bn_conv3_2/linear/scale_0_split_1
I0103 17:22:08.348423 27792 net.cpp:434] block_4_1 <- conv4_1/linear/bn
I0103 17:22:08.348430 27792 net.cpp:408] block_4_1 -> block_4_1
I0103 17:22:08.348459 27792 net.cpp:150] Setting up block_4_1
I0103 17:22:08.348466 27792 net.cpp:157] Top shape: 12 32 48 48 (884736)
I0103 17:22:08.348470 27792 net.cpp:165] Memory required for data: 2765632896
I0103 17:22:08.348475 27792 layer_factory.hpp:77] Creating layer block_4_1_block_4_1_0_split
I0103 17:22:08.348482 27792 net.cpp:100] Creating Layer block_4_1_block_4_1_0_split
I0103 17:22:08.348487 27792 net.cpp:434] block_4_1_block_4_1_0_split <- block_4_1
I0103 17:22:08.348495 27792 net.cpp:408] block_4_1_block_4_1_0_split -> block_4_1_block_4_1_0_split_0
I0103 17:22:08.348505 27792 net.cpp:408] block_4_1_block_4_1_0_split -> block_4_1_block_4_1_0_split_1
I0103 17:22:08.348546 27792 net.cpp:150] Setting up block_4_1_block_4_1_0_split
I0103 17:22:08.348552 27792 net.cpp:157] Top shape: 12 32 48 48 (884736)
I0103 17:22:08.348558 27792 net.cpp:157] Top shape: 12 32 48 48 (884736)
I0103 17:22:08.348562 27792 net.cpp:165] Memory required for data: 2772710784
I0103 17:22:08.348567 27792 layer_factory.hpp:77] Creating layer conv4_2/expand
I0103 17:22:08.348577 27792 net.cpp:100] Creating Layer conv4_2/expand
I0103 17:22:08.348582 27792 net.cpp:434] conv4_2/expand <- block_4_1_block_4_1_0_split_0
I0103 17:22:08.348590 27792 net.cpp:408] conv4_2/expand -> conv4_2/expand
I0103 17:22:08.349476 27792 net.cpp:150] Setting up conv4_2/expand
I0103 17:22:08.349489 27792 net.cpp:157] Top shape: 12 192 48 48 (5308416)
I0103 17:22:08.349493 27792 net.cpp:165] Memory required for data: 2793944448
I0103 17:22:08.349499 27792 layer_factory.hpp:77] Creating layer conv4_2/expand/bn
I0103 17:22:08.349506 27792 net.cpp:100] Creating Layer conv4_2/expand/bn
I0103 17:22:08.349510 27792 net.cpp:434] conv4_2/expand/bn <- conv4_2/expand
I0103 17:22:08.349516 27792 net.cpp:408] conv4_2/expand/bn -> conv4_2/expand/bn
I0103 17:22:08.349715 27792 net.cpp:150] Setting up conv4_2/expand/bn
I0103 17:22:08.349725 27792 net.cpp:157] Top shape: 12 192 48 48 (5308416)
I0103 17:22:08.349728 27792 net.cpp:165] Memory required for data: 2815178112
I0103 17:22:08.349736 27792 layer_factory.hpp:77] Creating layer conv4_2/expand/scale
I0103 17:22:08.349743 27792 net.cpp:100] Creating Layer conv4_2/expand/scale
I0103 17:22:08.349747 27792 net.cpp:434] conv4_2/expand/scale <- conv4_2/expand/bn
I0103 17:22:08.349753 27792 net.cpp:395] conv4_2/expand/scale -> conv4_2/expand/bn (in-place)
I0103 17:22:08.349792 27792 layer_factory.hpp:77] Creating layer conv4_2/expand/scale
I0103 17:22:08.349900 27792 net.cpp:150] Setting up conv4_2/expand/scale
I0103 17:22:08.349908 27792 net.cpp:157] Top shape: 12 192 48 48 (5308416)
I0103 17:22:08.349912 27792 net.cpp:165] Memory required for data: 2836411776
I0103 17:22:08.349920 27792 layer_factory.hpp:77] Creating layer relu4_2/expand
I0103 17:22:08.349926 27792 net.cpp:100] Creating Layer relu4_2/expand
I0103 17:22:08.349931 27792 net.cpp:434] relu4_2/expand <- conv4_2/expand/bn
I0103 17:22:08.349936 27792 net.cpp:395] relu4_2/expand -> conv4_2/expand/bn (in-place)
I0103 17:22:08.350941 27792 net.cpp:150] Setting up relu4_2/expand
I0103 17:22:08.350983 27792 net.cpp:157] Top shape: 12 192 48 48 (5308416)
I0103 17:22:08.350993 27792 net.cpp:165] Memory required for data: 2857645440
I0103 17:22:08.351006 27792 layer_factory.hpp:77] Creating layer conv4_2/dwise
I0103 17:22:08.351033 27792 net.cpp:100] Creating Layer conv4_2/dwise
I0103 17:22:08.351047 27792 net.cpp:434] conv4_2/dwise <- conv4_2/expand/bn
I0103 17:22:08.351064 27792 net.cpp:408] conv4_2/dwise -> conv4_2/dwise
I0103 17:22:08.351625 27792 net.cpp:150] Setting up conv4_2/dwise
I0103 17:22:08.351647 27792 net.cpp:157] Top shape: 12 192 48 48 (5308416)
I0103 17:22:08.351655 27792 net.cpp:165] Memory required for data: 2878879104
I0103 17:22:08.351668 27792 layer_factory.hpp:77] Creating layer conv4_2/dwise/bn
I0103 17:22:08.351683 27792 net.cpp:100] Creating Layer conv4_2/dwise/bn
I0103 17:22:08.351696 27792 net.cpp:434] conv4_2/dwise/bn <- conv4_2/dwise
I0103 17:22:08.351711 27792 net.cpp:408] conv4_2/dwise/bn -> conv4_2/dwise/bn
I0103 17:22:08.352181 27792 net.cpp:150] Setting up conv4_2/dwise/bn
I0103 17:22:08.352200 27792 net.cpp:157] Top shape: 12 192 48 48 (5308416)
I0103 17:22:08.352210 27792 net.cpp:165] Memory required for data: 2900112768
I0103 17:22:08.352226 27792 layer_factory.hpp:77] Creating layer conv4_2/dwise/scale
I0103 17:22:08.352243 27792 net.cpp:100] Creating Layer conv4_2/dwise/scale
I0103 17:22:08.352254 27792 net.cpp:434] conv4_2/dwise/scale <- conv4_2/dwise/bn
I0103 17:22:08.352267 27792 net.cpp:395] conv4_2/dwise/scale -> conv4_2/dwise/bn (in-place)
I0103 17:22:08.352350 27792 layer_factory.hpp:77] Creating layer conv4_2/dwise/scale
I0103 17:22:08.352573 27792 net.cpp:150] Setting up conv4_2/dwise/scale
I0103 17:22:08.352589 27792 net.cpp:157] Top shape: 12 192 48 48 (5308416)
I0103 17:22:08.352599 27792 net.cpp:165] Memory required for data: 2921346432
I0103 17:22:08.352612 27792 layer_factory.hpp:77] Creating layer relu4_2/dwise
I0103 17:22:08.352627 27792 net.cpp:100] Creating Layer relu4_2/dwise
I0103 17:22:08.352638 27792 net.cpp:434] relu4_2/dwise <- conv4_2/dwise/bn
I0103 17:22:08.352649 27792 net.cpp:395] relu4_2/dwise -> conv4_2/dwise/bn (in-place)
I0103 17:22:08.353700 27792 net.cpp:150] Setting up relu4_2/dwise
I0103 17:22:08.353729 27792 net.cpp:157] Top shape: 12 192 48 48 (5308416)
I0103 17:22:08.353739 27792 net.cpp:165] Memory required for data: 2942580096
I0103 17:22:08.353749 27792 layer_factory.hpp:77] Creating layer conv4_2/linear
I0103 17:22:08.353768 27792 net.cpp:100] Creating Layer conv4_2/linear
I0103 17:22:08.353778 27792 net.cpp:434] conv4_2/linear <- conv4_2/dwise/bn
I0103 17:22:08.353792 27792 net.cpp:408] conv4_2/linear -> conv4_2/linear
I0103 17:22:08.356292 27792 net.cpp:150] Setting up conv4_2/linear
I0103 17:22:08.356326 27792 net.cpp:157] Top shape: 12 32 48 48 (884736)
I0103 17:22:08.356335 27792 net.cpp:165] Memory required for data: 2946119040
I0103 17:22:08.356349 27792 layer_factory.hpp:77] Creating layer conv4_2/linear/bn
I0103 17:22:08.356364 27792 net.cpp:100] Creating Layer conv4_2/linear/bn
I0103 17:22:08.356379 27792 net.cpp:434] conv4_2/linear/bn <- conv4_2/linear
I0103 17:22:08.356398 27792 net.cpp:408] conv4_2/linear/bn -> conv4_2/linear/bn
I0103 17:22:08.356837 27792 net.cpp:150] Setting up conv4_2/linear/bn
I0103 17:22:08.356854 27792 net.cpp:157] Top shape: 12 32 48 48 (884736)
I0103 17:22:08.356863 27792 net.cpp:165] Memory required for data: 2949657984
I0103 17:22:08.356879 27792 layer_factory.hpp:77] Creating layer conv4_2/linear/scale
I0103 17:22:08.356894 27792 net.cpp:100] Creating Layer conv4_2/linear/scale
I0103 17:22:08.356904 27792 net.cpp:434] conv4_2/linear/scale <- conv4_2/linear/bn
I0103 17:22:08.356915 27792 net.cpp:395] conv4_2/linear/scale -> conv4_2/linear/bn (in-place)
I0103 17:22:08.356999 27792 layer_factory.hpp:77] Creating layer conv4_2/linear/scale
I0103 17:22:08.357224 27792 net.cpp:150] Setting up conv4_2/linear/scale
I0103 17:22:08.357240 27792 net.cpp:157] Top shape: 12 32 48 48 (884736)
I0103 17:22:08.357249 27792 net.cpp:165] Memory required for data: 2953196928
I0103 17:22:08.357261 27792 layer_factory.hpp:77] Creating layer block_4_2
I0103 17:22:08.357287 27792 net.cpp:100] Creating Layer block_4_2
I0103 17:22:08.357297 27792 net.cpp:434] block_4_2 <- block_4_1_block_4_1_0_split_1
I0103 17:22:08.357307 27792 net.cpp:434] block_4_2 <- conv4_2/linear/bn
I0103 17:22:08.357319 27792 net.cpp:408] block_4_2 -> block_4_2
I0103 17:22:08.357367 27792 net.cpp:150] Setting up block_4_2
I0103 17:22:08.357380 27792 net.cpp:157] Top shape: 12 32 48 48 (884736)
I0103 17:22:08.357388 27792 net.cpp:165] Memory required for data: 2956735872
I0103 17:22:08.357396 27792 layer_factory.hpp:77] Creating layer conv4_3/expand
I0103 17:22:08.357412 27792 net.cpp:100] Creating Layer conv4_3/expand
I0103 17:22:08.357422 27792 net.cpp:434] conv4_3/expand <- block_4_2
I0103 17:22:08.357435 27792 net.cpp:408] conv4_3/expand -> conv4_3/expand
I0103 17:22:08.359987 27792 net.cpp:150] Setting up conv4_3/expand
I0103 17:22:08.360018 27792 net.cpp:157] Top shape: 12 192 48 48 (5308416)
I0103 17:22:08.360028 27792 net.cpp:165] Memory required for data: 2977969536
I0103 17:22:08.360040 27792 layer_factory.hpp:77] Creating layer conv4_3/expand/bn
I0103 17:22:08.360055 27792 net.cpp:100] Creating Layer conv4_3/expand/bn
I0103 17:22:08.360064 27792 net.cpp:434] conv4_3/expand/bn <- conv4_3/expand
I0103 17:22:08.360081 27792 net.cpp:408] conv4_3/expand/bn -> conv4_3/expand/bn
I0103 17:22:08.360525 27792 net.cpp:150] Setting up conv4_3/expand/bn
I0103 17:22:08.360541 27792 net.cpp:157] Top shape: 12 192 48 48 (5308416)
I0103 17:22:08.360549 27792 net.cpp:165] Memory required for data: 2999203200
I0103 17:22:08.360568 27792 layer_factory.hpp:77] Creating layer conv4_3/expand/scale
I0103 17:22:08.360584 27792 net.cpp:100] Creating Layer conv4_3/expand/scale
I0103 17:22:08.360594 27792 net.cpp:434] conv4_3/expand/scale <- conv4_3/expand/bn
I0103 17:22:08.360607 27792 net.cpp:395] conv4_3/expand/scale -> conv4_3/expand/bn (in-place)
I0103 17:22:08.360694 27792 layer_factory.hpp:77] Creating layer conv4_3/expand/scale
I0103 17:22:08.360926 27792 net.cpp:150] Setting up conv4_3/expand/scale
I0103 17:22:08.360942 27792 net.cpp:157] Top shape: 12 192 48 48 (5308416)
I0103 17:22:08.360951 27792 net.cpp:165] Memory required for data: 3020436864
I0103 17:22:08.360965 27792 layer_factory.hpp:77] Creating layer relu4_3/expand
I0103 17:22:08.360980 27792 net.cpp:100] Creating Layer relu4_3/expand
I0103 17:22:08.360991 27792 net.cpp:434] relu4_3/expand <- conv4_3/expand/bn
I0103 17:22:08.361001 27792 net.cpp:395] relu4_3/expand -> conv4_3/expand/bn (in-place)
I0103 17:22:08.361373 27792 net.cpp:150] Setting up relu4_3/expand
I0103 17:22:08.361392 27792 net.cpp:157] Top shape: 12 192 48 48 (5308416)
I0103 17:22:08.361400 27792 net.cpp:165] Memory required for data: 3041670528
I0103 17:22:08.361409 27792 layer_factory.hpp:77] Creating layer conv4_3/dwise
I0103 17:22:08.361425 27792 net.cpp:100] Creating Layer conv4_3/dwise
I0103 17:22:08.361436 27792 net.cpp:434] conv4_3/dwise <- conv4_3/expand/bn
I0103 17:22:08.361450 27792 net.cpp:408] conv4_3/dwise -> conv4_3/dwise
I0103 17:22:08.361954 27792 net.cpp:150] Setting up conv4_3/dwise
I0103 17:22:08.361973 27792 net.cpp:157] Top shape: 12 192 48 48 (5308416)
I0103 17:22:08.361981 27792 net.cpp:165] Memory required for data: 3062904192
I0103 17:22:08.361992 27792 layer_factory.hpp:77] Creating layer conv4_3/dwise/bn
I0103 17:22:08.362005 27792 net.cpp:100] Creating Layer conv4_3/dwise/bn
I0103 17:22:08.362015 27792 net.cpp:434] conv4_3/dwise/bn <- conv4_3/dwise
I0103 17:22:08.362027 27792 net.cpp:408] conv4_3/dwise/bn -> conv4_3/dwise/bn
I0103 17:22:08.362453 27792 net.cpp:150] Setting up conv4_3/dwise/bn
I0103 17:22:08.362469 27792 net.cpp:157] Top shape: 12 192 48 48 (5308416)
I0103 17:22:08.362478 27792 net.cpp:165] Memory required for data: 3084137856
I0103 17:22:08.362494 27792 layer_factory.hpp:77] Creating layer conv4_3/dwise/scale
I0103 17:22:08.362510 27792 net.cpp:100] Creating Layer conv4_3/dwise/scale
I0103 17:22:08.362520 27792 net.cpp:434] conv4_3/dwise/scale <- conv4_3/dwise/bn
I0103 17:22:08.362532 27792 net.cpp:395] conv4_3/dwise/scale -> conv4_3/dwise/bn (in-place)
I0103 17:22:08.362612 27792 layer_factory.hpp:77] Creating layer conv4_3/dwise/scale
I0103 17:22:08.362860 27792 net.cpp:150] Setting up conv4_3/dwise/scale
I0103 17:22:08.362880 27792 net.cpp:157] Top shape: 12 192 48 48 (5308416)
I0103 17:22:08.362888 27792 net.cpp:165] Memory required for data: 3105371520
I0103 17:22:08.362901 27792 layer_factory.hpp:77] Creating layer relu4_3/dwise
I0103 17:22:08.362915 27792 net.cpp:100] Creating Layer relu4_3/dwise
I0103 17:22:08.362926 27792 net.cpp:434] relu4_3/dwise <- conv4_3/dwise/bn
I0103 17:22:08.362939 27792 net.cpp:395] relu4_3/dwise -> conv4_3/dwise/bn (in-place)
I0103 17:22:08.363284 27792 net.cpp:150] Setting up relu4_3/dwise
I0103 17:22:08.363303 27792 net.cpp:157] Top shape: 12 192 48 48 (5308416)
I0103 17:22:08.363313 27792 net.cpp:165] Memory required for data: 3126605184
I0103 17:22:08.363322 27792 layer_factory.hpp:77] Creating layer conv4_3/linear
I0103 17:22:08.363338 27792 net.cpp:100] Creating Layer conv4_3/linear
I0103 17:22:08.363348 27792 net.cpp:434] conv4_3/linear <- conv4_3/dwise/bn
I0103 17:22:08.363361 27792 net.cpp:408] conv4_3/linear -> conv4_3/linear
I0103 17:22:08.364908 27792 net.cpp:150] Setting up conv4_3/linear
I0103 17:22:08.364924 27792 net.cpp:157] Top shape: 12 64 48 48 (1769472)
I0103 17:22:08.364929 27792 net.cpp:165] Memory required for data: 3133683072
I0103 17:22:08.364936 27792 layer_factory.hpp:77] Creating layer conv4_3/linear/bn
I0103 17:22:08.364944 27792 net.cpp:100] Creating Layer conv4_3/linear/bn
I0103 17:22:08.364949 27792 net.cpp:434] conv4_3/linear/bn <- conv4_3/linear
I0103 17:22:08.364956 27792 net.cpp:408] conv4_3/linear/bn -> conv4_3/linear/bn
I0103 17:22:08.365204 27792 net.cpp:150] Setting up conv4_3/linear/bn
I0103 17:22:08.365213 27792 net.cpp:157] Top shape: 12 64 48 48 (1769472)
I0103 17:22:08.365218 27792 net.cpp:165] Memory required for data: 3140760960
I0103 17:22:08.365244 27792 layer_factory.hpp:77] Creating layer conv4_3/linear/scale
I0103 17:22:08.365252 27792 net.cpp:100] Creating Layer conv4_3/linear/scale
I0103 17:22:08.365257 27792 net.cpp:434] conv4_3/linear/scale <- conv4_3/linear/bn
I0103 17:22:08.365260 27792 net.cpp:395] conv4_3/linear/scale -> conv4_3/linear/bn (in-place)
I0103 17:22:08.365296 27792 layer_factory.hpp:77] Creating layer conv4_3/linear/scale
I0103 17:22:08.365391 27792 net.cpp:150] Setting up conv4_3/linear/scale
I0103 17:22:08.365398 27792 net.cpp:157] Top shape: 12 64 48 48 (1769472)
I0103 17:22:08.365401 27792 net.cpp:165] Memory required for data: 3147838848
I0103 17:22:08.365407 27792 layer_factory.hpp:77] Creating layer conv4_3/linear/bn_conv4_3/linear/scale_0_split
I0103 17:22:08.365412 27792 net.cpp:100] Creating Layer conv4_3/linear/bn_conv4_3/linear/scale_0_split
I0103 17:22:08.365417 27792 net.cpp:434] conv4_3/linear/bn_conv4_3/linear/scale_0_split <- conv4_3/linear/bn
I0103 17:22:08.365420 27792 net.cpp:408] conv4_3/linear/bn_conv4_3/linear/scale_0_split -> conv4_3/linear/bn_conv4_3/linear/scale_0_split_0
I0103 17:22:08.365427 27792 net.cpp:408] conv4_3/linear/bn_conv4_3/linear/scale_0_split -> conv4_3/linear/bn_conv4_3/linear/scale_0_split_1
I0103 17:22:08.365456 27792 net.cpp:150] Setting up conv4_3/linear/bn_conv4_3/linear/scale_0_split
I0103 17:22:08.365463 27792 net.cpp:157] Top shape: 12 64 48 48 (1769472)
I0103 17:22:08.365466 27792 net.cpp:157] Top shape: 12 64 48 48 (1769472)
I0103 17:22:08.365469 27792 net.cpp:165] Memory required for data: 3161994624
I0103 17:22:08.365473 27792 layer_factory.hpp:77] Creating layer conv4_4/expand
I0103 17:22:08.365479 27792 net.cpp:100] Creating Layer conv4_4/expand
I0103 17:22:08.365483 27792 net.cpp:434] conv4_4/expand <- conv4_3/linear/bn_conv4_3/linear/scale_0_split_0
I0103 17:22:08.365489 27792 net.cpp:408] conv4_4/expand -> conv4_4/expand
I0103 17:22:08.367010 27792 net.cpp:150] Setting up conv4_4/expand
I0103 17:22:08.367022 27792 net.cpp:157] Top shape: 12 384 48 48 (10616832)
I0103 17:22:08.367025 27792 net.cpp:165] Memory required for data: 3204461952
I0103 17:22:08.367030 27792 layer_factory.hpp:77] Creating layer conv4_4/expand/bn
I0103 17:22:08.367038 27792 net.cpp:100] Creating Layer conv4_4/expand/bn
I0103 17:22:08.367041 27792 net.cpp:434] conv4_4/expand/bn <- conv4_4/expand
I0103 17:22:08.367046 27792 net.cpp:408] conv4_4/expand/bn -> conv4_4/expand/bn
I0103 17:22:08.367225 27792 net.cpp:150] Setting up conv4_4/expand/bn
I0103 17:22:08.367231 27792 net.cpp:157] Top shape: 12 384 48 48 (10616832)
I0103 17:22:08.367234 27792 net.cpp:165] Memory required for data: 3246929280
I0103 17:22:08.367240 27792 layer_factory.hpp:77] Creating layer conv4_4/expand/scale
I0103 17:22:08.367247 27792 net.cpp:100] Creating Layer conv4_4/expand/scale
I0103 17:22:08.367250 27792 net.cpp:434] conv4_4/expand/scale <- conv4_4/expand/bn
I0103 17:22:08.367255 27792 net.cpp:395] conv4_4/expand/scale -> conv4_4/expand/bn (in-place)
I0103 17:22:08.367285 27792 layer_factory.hpp:77] Creating layer conv4_4/expand/scale
I0103 17:22:08.367372 27792 net.cpp:150] Setting up conv4_4/expand/scale
I0103 17:22:08.367377 27792 net.cpp:157] Top shape: 12 384 48 48 (10616832)
I0103 17:22:08.367380 27792 net.cpp:165] Memory required for data: 3289396608
I0103 17:22:08.367386 27792 layer_factory.hpp:77] Creating layer relu4_4/expand
I0103 17:22:08.367391 27792 net.cpp:100] Creating Layer relu4_4/expand
I0103 17:22:08.367395 27792 net.cpp:434] relu4_4/expand <- conv4_4/expand/bn
I0103 17:22:08.367399 27792 net.cpp:395] relu4_4/expand -> conv4_4/expand/bn (in-place)
I0103 17:22:08.367540 27792 net.cpp:150] Setting up relu4_4/expand
I0103 17:22:08.367547 27792 net.cpp:157] Top shape: 12 384 48 48 (10616832)
I0103 17:22:08.367550 27792 net.cpp:165] Memory required for data: 3331863936
I0103 17:22:08.367554 27792 layer_factory.hpp:77] Creating layer conv4_4/dwise
I0103 17:22:08.367561 27792 net.cpp:100] Creating Layer conv4_4/dwise
I0103 17:22:08.367564 27792 net.cpp:434] conv4_4/dwise <- conv4_4/expand/bn
I0103 17:22:08.367570 27792 net.cpp:408] conv4_4/dwise -> conv4_4/dwise
I0103 17:22:08.367842 27792 net.cpp:150] Setting up conv4_4/dwise
I0103 17:22:08.367849 27792 net.cpp:157] Top shape: 12 384 48 48 (10616832)
I0103 17:22:08.367853 27792 net.cpp:165] Memory required for data: 3374331264
I0103 17:22:08.367859 27792 layer_factory.hpp:77] Creating layer conv4_4/dwise/bn
I0103 17:22:08.367866 27792 net.cpp:100] Creating Layer conv4_4/dwise/bn
I0103 17:22:08.367871 27792 net.cpp:434] conv4_4/dwise/bn <- conv4_4/dwise
I0103 17:22:08.367875 27792 net.cpp:408] conv4_4/dwise/bn -> conv4_4/dwise/bn
I0103 17:22:08.368057 27792 net.cpp:150] Setting up conv4_4/dwise/bn
I0103 17:22:08.368062 27792 net.cpp:157] Top shape: 12 384 48 48 (10616832)
I0103 17:22:08.368067 27792 net.cpp:165] Memory required for data: 3416798592
I0103 17:22:08.368072 27792 layer_factory.hpp:77] Creating layer conv4_4/dwise/scale
I0103 17:22:08.368078 27792 net.cpp:100] Creating Layer conv4_4/dwise/scale
I0103 17:22:08.368083 27792 net.cpp:434] conv4_4/dwise/scale <- conv4_4/dwise/bn
I0103 17:22:08.368086 27792 net.cpp:395] conv4_4/dwise/scale -> conv4_4/dwise/bn (in-place)
I0103 17:22:08.368114 27792 layer_factory.hpp:77] Creating layer conv4_4/dwise/scale
I0103 17:22:08.368198 27792 net.cpp:150] Setting up conv4_4/dwise/scale
I0103 17:22:08.368203 27792 net.cpp:157] Top shape: 12 384 48 48 (10616832)
I0103 17:22:08.368207 27792 net.cpp:165] Memory required for data: 3459265920
I0103 17:22:08.368212 27792 layer_factory.hpp:77] Creating layer relu4_4/dwise
I0103 17:22:08.368217 27792 net.cpp:100] Creating Layer relu4_4/dwise
I0103 17:22:08.368221 27792 net.cpp:434] relu4_4/dwise <- conv4_4/dwise/bn
I0103 17:22:08.368227 27792 net.cpp:395] relu4_4/dwise -> conv4_4/dwise/bn (in-place)
I0103 17:22:08.368728 27792 net.cpp:150] Setting up relu4_4/dwise
I0103 17:22:08.368741 27792 net.cpp:157] Top shape: 12 384 48 48 (10616832)
I0103 17:22:08.368746 27792 net.cpp:165] Memory required for data: 3501733248
I0103 17:22:08.368752 27792 layer_factory.hpp:77] Creating layer conv4_4/linear
I0103 17:22:08.368762 27792 net.cpp:100] Creating Layer conv4_4/linear
I0103 17:22:08.368767 27792 net.cpp:434] conv4_4/linear <- conv4_4/dwise/bn
I0103 17:22:08.368774 27792 net.cpp:408] conv4_4/linear -> conv4_4/linear
I0103 17:22:08.370352 27792 net.cpp:150] Setting up conv4_4/linear
I0103 17:22:08.370362 27792 net.cpp:157] Top shape: 12 64 48 48 (1769472)
I0103 17:22:08.370366 27792 net.cpp:165] Memory required for data: 3508811136
I0103 17:22:08.370371 27792 layer_factory.hpp:77] Creating layer conv4_4/linear/bn
I0103 17:22:08.370378 27792 net.cpp:100] Creating Layer conv4_4/linear/bn
I0103 17:22:08.370383 27792 net.cpp:434] conv4_4/linear/bn <- conv4_4/linear
I0103 17:22:08.370388 27792 net.cpp:408] conv4_4/linear/bn -> conv4_4/linear/bn
I0103 17:22:08.370582 27792 net.cpp:150] Setting up conv4_4/linear/bn
I0103 17:22:08.370589 27792 net.cpp:157] Top shape: 12 64 48 48 (1769472)
I0103 17:22:08.370591 27792 net.cpp:165] Memory required for data: 3515889024
I0103 17:22:08.370599 27792 layer_factory.hpp:77] Creating layer conv4_4/linear/scale
I0103 17:22:08.370605 27792 net.cpp:100] Creating Layer conv4_4/linear/scale
I0103 17:22:08.370609 27792 net.cpp:434] conv4_4/linear/scale <- conv4_4/linear/bn
I0103 17:22:08.370613 27792 net.cpp:395] conv4_4/linear/scale -> conv4_4/linear/bn (in-place)
I0103 17:22:08.370648 27792 layer_factory.hpp:77] Creating layer conv4_4/linear/scale
I0103 17:22:08.370740 27792 net.cpp:150] Setting up conv4_4/linear/scale
I0103 17:22:08.370746 27792 net.cpp:157] Top shape: 12 64 48 48 (1769472)
I0103 17:22:08.370749 27792 net.cpp:165] Memory required for data: 3522966912
I0103 17:22:08.370754 27792 layer_factory.hpp:77] Creating layer block_4_4
I0103 17:22:08.370760 27792 net.cpp:100] Creating Layer block_4_4
I0103 17:22:08.370764 27792 net.cpp:434] block_4_4 <- conv4_3/linear/bn_conv4_3/linear/scale_0_split_1
I0103 17:22:08.370769 27792 net.cpp:434] block_4_4 <- conv4_4/linear/bn
I0103 17:22:08.370774 27792 net.cpp:408] block_4_4 -> block_4_4
I0103 17:22:08.370810 27792 net.cpp:150] Setting up block_4_4
I0103 17:22:08.370816 27792 net.cpp:157] Top shape: 12 64 48 48 (1769472)
I0103 17:22:08.370820 27792 net.cpp:165] Memory required for data: 3530044800
I0103 17:22:08.370822 27792 layer_factory.hpp:77] Creating layer block_4_4_block_4_4_0_split
I0103 17:22:08.370828 27792 net.cpp:100] Creating Layer block_4_4_block_4_4_0_split
I0103 17:22:08.370831 27792 net.cpp:434] block_4_4_block_4_4_0_split <- block_4_4
I0103 17:22:08.370836 27792 net.cpp:408] block_4_4_block_4_4_0_split -> block_4_4_block_4_4_0_split_0
I0103 17:22:08.370842 27792 net.cpp:408] block_4_4_block_4_4_0_split -> block_4_4_block_4_4_0_split_1
I0103 17:22:08.370869 27792 net.cpp:150] Setting up block_4_4_block_4_4_0_split
I0103 17:22:08.370874 27792 net.cpp:157] Top shape: 12 64 48 48 (1769472)
I0103 17:22:08.370878 27792 net.cpp:157] Top shape: 12 64 48 48 (1769472)
I0103 17:22:08.370882 27792 net.cpp:165] Memory required for data: 3544200576
I0103 17:22:08.370884 27792 layer_factory.hpp:77] Creating layer conv4_5/expand
I0103 17:22:08.370890 27792 net.cpp:100] Creating Layer conv4_5/expand
I0103 17:22:08.370894 27792 net.cpp:434] conv4_5/expand <- block_4_4_block_4_4_0_split_0
I0103 17:22:08.370899 27792 net.cpp:408] conv4_5/expand -> conv4_5/expand
I0103 17:22:08.372088 27792 net.cpp:150] Setting up conv4_5/expand
I0103 17:22:08.372097 27792 net.cpp:157] Top shape: 12 384 48 48 (10616832)
I0103 17:22:08.372100 27792 net.cpp:165] Memory required for data: 3586667904
I0103 17:22:08.372104 27792 layer_factory.hpp:77] Creating layer conv4_5/expand/bn
I0103 17:22:08.372110 27792 net.cpp:100] Creating Layer conv4_5/expand/bn
I0103 17:22:08.372115 27792 net.cpp:434] conv4_5/expand/bn <- conv4_5/expand
I0103 17:22:08.372120 27792 net.cpp:408] conv4_5/expand/bn -> conv4_5/expand/bn
I0103 17:22:08.372288 27792 net.cpp:150] Setting up conv4_5/expand/bn
I0103 17:22:08.372294 27792 net.cpp:157] Top shape: 12 384 48 48 (10616832)
I0103 17:22:08.372298 27792 net.cpp:165] Memory required for data: 3629135232
I0103 17:22:08.372304 27792 layer_factory.hpp:77] Creating layer conv4_5/expand/scale
I0103 17:22:08.372309 27792 net.cpp:100] Creating Layer conv4_5/expand/scale
I0103 17:22:08.372313 27792 net.cpp:434] conv4_5/expand/scale <- conv4_5/expand/bn
I0103 17:22:08.372318 27792 net.cpp:395] conv4_5/expand/scale -> conv4_5/expand/bn (in-place)
I0103 17:22:08.372346 27792 layer_factory.hpp:77] Creating layer conv4_5/expand/scale
I0103 17:22:08.372432 27792 net.cpp:150] Setting up conv4_5/expand/scale
I0103 17:22:08.372437 27792 net.cpp:157] Top shape: 12 384 48 48 (10616832)
I0103 17:22:08.372440 27792 net.cpp:165] Memory required for data: 3671602560
I0103 17:22:08.372447 27792 layer_factory.hpp:77] Creating layer relu4_5/expand
I0103 17:22:08.372452 27792 net.cpp:100] Creating Layer relu4_5/expand
I0103 17:22:08.372455 27792 net.cpp:434] relu4_5/expand <- conv4_5/expand/bn
I0103 17:22:08.372459 27792 net.cpp:395] relu4_5/expand -> conv4_5/expand/bn (in-place)
I0103 17:22:08.372886 27792 net.cpp:150] Setting up relu4_5/expand
I0103 17:22:08.372896 27792 net.cpp:157] Top shape: 12 384 48 48 (10616832)
I0103 17:22:08.372900 27792 net.cpp:165] Memory required for data: 3714069888
I0103 17:22:08.372903 27792 layer_factory.hpp:77] Creating layer conv4_5/dwise
I0103 17:22:08.372911 27792 net.cpp:100] Creating Layer conv4_5/dwise
I0103 17:22:08.372915 27792 net.cpp:434] conv4_5/dwise <- conv4_5/expand/bn
I0103 17:22:08.372920 27792 net.cpp:408] conv4_5/dwise -> conv4_5/dwise
I0103 17:22:08.373236 27792 net.cpp:150] Setting up conv4_5/dwise
I0103 17:22:08.373246 27792 net.cpp:157] Top shape: 12 384 48 48 (10616832)
I0103 17:22:08.373250 27792 net.cpp:165] Memory required for data: 3756537216
I0103 17:22:08.373257 27792 layer_factory.hpp:77] Creating layer conv4_5/dwise/bn
I0103 17:22:08.373265 27792 net.cpp:100] Creating Layer conv4_5/dwise/bn
I0103 17:22:08.373268 27792 net.cpp:434] conv4_5/dwise/bn <- conv4_5/dwise
I0103 17:22:08.373275 27792 net.cpp:408] conv4_5/dwise/bn -> conv4_5/dwise/bn
I0103 17:22:08.373505 27792 net.cpp:150] Setting up conv4_5/dwise/bn
I0103 17:22:08.373513 27792 net.cpp:157] Top shape: 12 384 48 48 (10616832)
I0103 17:22:08.373517 27792 net.cpp:165] Memory required for data: 3799004544
I0103 17:22:08.373526 27792 layer_factory.hpp:77] Creating layer conv4_5/dwise/scale
I0103 17:22:08.373534 27792 net.cpp:100] Creating Layer conv4_5/dwise/scale
I0103 17:22:08.373539 27792 net.cpp:434] conv4_5/dwise/scale <- conv4_5/dwise/bn
I0103 17:22:08.373545 27792 net.cpp:395] conv4_5/dwise/scale -> conv4_5/dwise/bn (in-place)
I0103 17:22:08.373579 27792 layer_factory.hpp:77] Creating layer conv4_5/dwise/scale
I0103 17:22:08.373664 27792 net.cpp:150] Setting up conv4_5/dwise/scale
I0103 17:22:08.373670 27792 net.cpp:157] Top shape: 12 384 48 48 (10616832)
I0103 17:22:08.373673 27792 net.cpp:165] Memory required for data: 3841471872
I0103 17:22:08.373678 27792 layer_factory.hpp:77] Creating layer relu4_5/dwise
I0103 17:22:08.373683 27792 net.cpp:100] Creating Layer relu4_5/dwise
I0103 17:22:08.373687 27792 net.cpp:434] relu4_5/dwise <- conv4_5/dwise/bn
I0103 17:22:08.373692 27792 net.cpp:395] relu4_5/dwise -> conv4_5/dwise/bn (in-place)
I0103 17:22:08.373864 27792 net.cpp:150] Setting up relu4_5/dwise
I0103 17:22:08.373872 27792 net.cpp:157] Top shape: 12 384 48 48 (10616832)
I0103 17:22:08.373877 27792 net.cpp:165] Memory required for data: 3883939200
I0103 17:22:08.373881 27792 layer_factory.hpp:77] Creating layer conv4_5/linear
I0103 17:22:08.373890 27792 net.cpp:100] Creating Layer conv4_5/linear
I0103 17:22:08.373894 27792 net.cpp:434] conv4_5/linear <- conv4_5/dwise/bn
I0103 17:22:08.373900 27792 net.cpp:408] conv4_5/linear -> conv4_5/linear
I0103 17:22:08.375481 27792 net.cpp:150] Setting up conv4_5/linear
I0103 17:22:08.375494 27792 net.cpp:157] Top shape: 12 64 48 48 (1769472)
I0103 17:22:08.375497 27792 net.cpp:165] Memory required for data: 3891017088
I0103 17:22:08.375502 27792 layer_factory.hpp:77] Creating layer conv4_5/linear/bn
I0103 17:22:08.375509 27792 net.cpp:100] Creating Layer conv4_5/linear/bn
I0103 17:22:08.375514 27792 net.cpp:434] conv4_5/linear/bn <- conv4_5/linear
I0103 17:22:08.375519 27792 net.cpp:408] conv4_5/linear/bn -> conv4_5/linear/bn
I0103 17:22:08.375706 27792 net.cpp:150] Setting up conv4_5/linear/bn
I0103 17:22:08.375712 27792 net.cpp:157] Top shape: 12 64 48 48 (1769472)
I0103 17:22:08.375715 27792 net.cpp:165] Memory required for data: 3898094976
I0103 17:22:08.375722 27792 layer_factory.hpp:77] Creating layer conv4_5/linear/scale
I0103 17:22:08.375728 27792 net.cpp:100] Creating Layer conv4_5/linear/scale
I0103 17:22:08.375732 27792 net.cpp:434] conv4_5/linear/scale <- conv4_5/linear/bn
I0103 17:22:08.375737 27792 net.cpp:395] conv4_5/linear/scale -> conv4_5/linear/bn (in-place)
I0103 17:22:08.375780 27792 layer_factory.hpp:77] Creating layer conv4_5/linear/scale
I0103 17:22:08.375902 27792 net.cpp:150] Setting up conv4_5/linear/scale
I0103 17:22:08.375910 27792 net.cpp:157] Top shape: 12 64 48 48 (1769472)
I0103 17:22:08.375913 27792 net.cpp:165] Memory required for data: 3905172864
I0103 17:22:08.375921 27792 layer_factory.hpp:77] Creating layer block_4_5
I0103 17:22:08.375926 27792 net.cpp:100] Creating Layer block_4_5
I0103 17:22:08.375932 27792 net.cpp:434] block_4_5 <- block_4_4_block_4_4_0_split_1
I0103 17:22:08.375937 27792 net.cpp:434] block_4_5 <- conv4_5/linear/bn
I0103 17:22:08.375944 27792 net.cpp:408] block_4_5 -> block_4_5
I0103 17:22:08.375972 27792 net.cpp:150] Setting up block_4_5
I0103 17:22:08.375978 27792 net.cpp:157] Top shape: 12 64 48 48 (1769472)
I0103 17:22:08.375982 27792 net.cpp:165] Memory required for data: 3912250752
I0103 17:22:08.375986 27792 layer_factory.hpp:77] Creating layer block_4_5_block_4_5_0_split
I0103 17:22:08.375993 27792 net.cpp:100] Creating Layer block_4_5_block_4_5_0_split
I0103 17:22:08.375998 27792 net.cpp:434] block_4_5_block_4_5_0_split <- block_4_5
I0103 17:22:08.376003 27792 net.cpp:408] block_4_5_block_4_5_0_split -> block_4_5_block_4_5_0_split_0
I0103 17:22:08.376011 27792 net.cpp:408] block_4_5_block_4_5_0_split -> block_4_5_block_4_5_0_split_1
I0103 17:22:08.376046 27792 net.cpp:150] Setting up block_4_5_block_4_5_0_split
I0103 17:22:08.376051 27792 net.cpp:157] Top shape: 12 64 48 48 (1769472)
I0103 17:22:08.376055 27792 net.cpp:157] Top shape: 12 64 48 48 (1769472)
I0103 17:22:08.376058 27792 net.cpp:165] Memory required for data: 3926406528
I0103 17:22:08.376061 27792 layer_factory.hpp:77] Creating layer conv4_6/expand
I0103 17:22:08.376070 27792 net.cpp:100] Creating Layer conv4_6/expand
I0103 17:22:08.376073 27792 net.cpp:434] conv4_6/expand <- block_4_5_block_4_5_0_split_0
I0103 17:22:08.376078 27792 net.cpp:408] conv4_6/expand -> conv4_6/expand
I0103 17:22:08.377599 27792 net.cpp:150] Setting up conv4_6/expand
I0103 17:22:08.377607 27792 net.cpp:157] Top shape: 12 384 48 48 (10616832)
I0103 17:22:08.377610 27792 net.cpp:165] Memory required for data: 3968873856
I0103 17:22:08.377615 27792 layer_factory.hpp:77] Creating layer conv4_6/expand/bn
I0103 17:22:08.377624 27792 net.cpp:100] Creating Layer conv4_6/expand/bn
I0103 17:22:08.377627 27792 net.cpp:434] conv4_6/expand/bn <- conv4_6/expand
I0103 17:22:08.377631 27792 net.cpp:408] conv4_6/expand/bn -> conv4_6/expand/bn
I0103 17:22:08.377795 27792 net.cpp:150] Setting up conv4_6/expand/bn
I0103 17:22:08.377800 27792 net.cpp:157] Top shape: 12 384 48 48 (10616832)
I0103 17:22:08.377804 27792 net.cpp:165] Memory required for data: 4011341184
I0103 17:22:08.377809 27792 layer_factory.hpp:77] Creating layer conv4_6/expand/scale
I0103 17:22:08.377815 27792 net.cpp:100] Creating Layer conv4_6/expand/scale
I0103 17:22:08.377817 27792 net.cpp:434] conv4_6/expand/scale <- conv4_6/expand/bn
I0103 17:22:08.377821 27792 net.cpp:395] conv4_6/expand/scale -> conv4_6/expand/bn (in-place)
I0103 17:22:08.377848 27792 layer_factory.hpp:77] Creating layer conv4_6/expand/scale
I0103 17:22:08.377926 27792 net.cpp:150] Setting up conv4_6/expand/scale
I0103 17:22:08.377931 27792 net.cpp:157] Top shape: 12 384 48 48 (10616832)
I0103 17:22:08.377934 27792 net.cpp:165] Memory required for data: 4053808512
I0103 17:22:08.377938 27792 layer_factory.hpp:77] Creating layer relu4_6/expand
I0103 17:22:08.377943 27792 net.cpp:100] Creating Layer relu4_6/expand
I0103 17:22:08.377946 27792 net.cpp:434] relu4_6/expand <- conv4_6/expand/bn
I0103 17:22:08.377950 27792 net.cpp:395] relu4_6/expand -> conv4_6/expand/bn (in-place)
I0103 17:22:08.378082 27792 net.cpp:150] Setting up relu4_6/expand
I0103 17:22:08.378088 27792 net.cpp:157] Top shape: 12 384 48 48 (10616832)
I0103 17:22:08.378091 27792 net.cpp:165] Memory required for data: 4096275840
I0103 17:22:08.378094 27792 layer_factory.hpp:77] Creating layer conv4_6/dwise
I0103 17:22:08.378100 27792 net.cpp:100] Creating Layer conv4_6/dwise
I0103 17:22:08.378103 27792 net.cpp:434] conv4_6/dwise <- conv4_6/expand/bn
I0103 17:22:08.378109 27792 net.cpp:408] conv4_6/dwise -> conv4_6/dwise
I0103 17:22:08.378330 27792 net.cpp:150] Setting up conv4_6/dwise
I0103 17:22:08.378335 27792 net.cpp:157] Top shape: 12 384 48 48 (10616832)
I0103 17:22:08.378338 27792 net.cpp:165] Memory required for data: 4138743168
I0103 17:22:08.378342 27792 layer_factory.hpp:77] Creating layer conv4_6/dwise/bn
I0103 17:22:08.378347 27792 net.cpp:100] Creating Layer conv4_6/dwise/bn
I0103 17:22:08.378350 27792 net.cpp:434] conv4_6/dwise/bn <- conv4_6/dwise
I0103 17:22:08.378355 27792 net.cpp:408] conv4_6/dwise/bn -> conv4_6/dwise/bn
I0103 17:22:08.378500 27792 net.cpp:150] Setting up conv4_6/dwise/bn
I0103 17:22:08.378505 27792 net.cpp:157] Top shape: 12 384 48 48 (10616832)
I0103 17:22:08.378509 27792 net.cpp:165] Memory required for data: 4181210496
I0103 17:22:08.378515 27792 layer_factory.hpp:77] Creating layer conv4_6/dwise/scale
I0103 17:22:08.378528 27792 net.cpp:100] Creating Layer conv4_6/dwise/scale
I0103 17:22:08.378532 27792 net.cpp:434] conv4_6/dwise/scale <- conv4_6/dwise/bn
I0103 17:22:08.378536 27792 net.cpp:395] conv4_6/dwise/scale -> conv4_6/dwise/bn (in-place)
I0103 17:22:08.378567 27792 layer_factory.hpp:77] Creating layer conv4_6/dwise/scale
I0103 17:22:08.378659 27792 net.cpp:150] Setting up conv4_6/dwise/scale
I0103 17:22:08.378665 27792 net.cpp:157] Top shape: 12 384 48 48 (10616832)
I0103 17:22:08.378669 27792 net.cpp:165] Memory required for data: 4223677824
I0103 17:22:08.378674 27792 layer_factory.hpp:77] Creating layer relu4_6/dwise
I0103 17:22:08.378679 27792 net.cpp:100] Creating Layer relu4_6/dwise
I0103 17:22:08.378684 27792 net.cpp:434] relu4_6/dwise <- conv4_6/dwise/bn
I0103 17:22:08.378687 27792 net.cpp:395] relu4_6/dwise -> conv4_6/dwise/bn (in-place)
I0103 17:22:08.378839 27792 net.cpp:150] Setting up relu4_6/dwise
I0103 17:22:08.378847 27792 net.cpp:157] Top shape: 12 384 48 48 (10616832)
I0103 17:22:08.378850 27792 net.cpp:165] Memory required for data: 4266145152
I0103 17:22:08.378854 27792 layer_factory.hpp:77] Creating layer conv4_6/linear
I0103 17:22:08.378861 27792 net.cpp:100] Creating Layer conv4_6/linear
I0103 17:22:08.378865 27792 net.cpp:434] conv4_6/linear <- conv4_6/dwise/bn
I0103 17:22:08.378870 27792 net.cpp:408] conv4_6/linear -> conv4_6/linear
I0103 17:22:08.380571 27792 net.cpp:150] Setting up conv4_6/linear
I0103 17:22:08.380581 27792 net.cpp:157] Top shape: 12 64 48 48 (1769472)
I0103 17:22:08.380585 27792 net.cpp:165] Memory required for data: 4273223040
I0103 17:22:08.380590 27792 layer_factory.hpp:77] Creating layer conv4_6/linear/bn
I0103 17:22:08.380599 27792 net.cpp:100] Creating Layer conv4_6/linear/bn
I0103 17:22:08.380604 27792 net.cpp:434] conv4_6/linear/bn <- conv4_6/linear
I0103 17:22:08.380609 27792 net.cpp:408] conv4_6/linear/bn -> conv4_6/linear/bn
I0103 17:22:08.380816 27792 net.cpp:150] Setting up conv4_6/linear/bn
I0103 17:22:08.380823 27792 net.cpp:157] Top shape: 12 64 48 48 (1769472)
I0103 17:22:08.380827 27792 net.cpp:165] Memory required for data: 4280300928
I0103 17:22:08.380836 27792 layer_factory.hpp:77] Creating layer conv4_6/linear/scale
I0103 17:22:08.380842 27792 net.cpp:100] Creating Layer conv4_6/linear/scale
I0103 17:22:08.380847 27792 net.cpp:434] conv4_6/linear/scale <- conv4_6/linear/bn
I0103 17:22:08.380854 27792 net.cpp:395] conv4_6/linear/scale -> conv4_6/linear/bn (in-place)
I0103 17:22:08.380897 27792 layer_factory.hpp:77] Creating layer conv4_6/linear/scale
I0103 17:22:08.381017 27792 net.cpp:150] Setting up conv4_6/linear/scale
I0103 17:22:08.381023 27792 net.cpp:157] Top shape: 12 64 48 48 (1769472)
I0103 17:22:08.381026 27792 net.cpp:165] Memory required for data: 4287378816
I0103 17:22:08.381031 27792 layer_factory.hpp:77] Creating layer block_4_6
I0103 17:22:08.381036 27792 net.cpp:100] Creating Layer block_4_6
I0103 17:22:08.381039 27792 net.cpp:434] block_4_6 <- block_4_5_block_4_5_0_split_1
I0103 17:22:08.381044 27792 net.cpp:434] block_4_6 <- conv4_6/linear/bn
I0103 17:22:08.381049 27792 net.cpp:408] block_4_6 -> block_4_6
I0103 17:22:08.381070 27792 net.cpp:150] Setting up block_4_6
I0103 17:22:08.381074 27792 net.cpp:157] Top shape: 12 64 48 48 (1769472)
I0103 17:22:08.381078 27792 net.cpp:165] Memory required for data: 4294456704
I0103 17:22:08.381080 27792 layer_factory.hpp:77] Creating layer block_4_6_block_4_6_0_split
I0103 17:22:08.381085 27792 net.cpp:100] Creating Layer block_4_6_block_4_6_0_split
I0103 17:22:08.381088 27792 net.cpp:434] block_4_6_block_4_6_0_split <- block_4_6
I0103 17:22:08.381094 27792 net.cpp:408] block_4_6_block_4_6_0_split -> block_4_6_block_4_6_0_split_0
I0103 17:22:08.381099 27792 net.cpp:408] block_4_6_block_4_6_0_split -> block_4_6_block_4_6_0_split_1
I0103 17:22:08.381127 27792 net.cpp:150] Setting up block_4_6_block_4_6_0_split
I0103 17:22:08.381132 27792 net.cpp:157] Top shape: 12 64 48 48 (1769472)
I0103 17:22:08.381136 27792 net.cpp:157] Top shape: 12 64 48 48 (1769472)
I0103 17:22:08.381139 27792 net.cpp:165] Memory required for data: 4308612480
I0103 17:22:08.381142 27792 layer_factory.hpp:77] Creating layer conv4_7/expand
I0103 17:22:08.381150 27792 net.cpp:100] Creating Layer conv4_7/expand
I0103 17:22:08.381153 27792 net.cpp:434] conv4_7/expand <- block_4_6_block_4_6_0_split_0
I0103 17:22:08.381158 27792 net.cpp:408] conv4_7/expand -> conv4_7/expand
I0103 17:22:08.382800 27792 net.cpp:150] Setting up conv4_7/expand
I0103 17:22:08.382813 27792 net.cpp:157] Top shape: 12 384 48 48 (10616832)
I0103 17:22:08.382817 27792 net.cpp:165] Memory required for data: 4351079808
I0103 17:22:08.382822 27792 layer_factory.hpp:77] Creating layer conv4_7/expand/bn
I0103 17:22:08.382829 27792 net.cpp:100] Creating Layer conv4_7/expand/bn
I0103 17:22:08.382833 27792 net.cpp:434] conv4_7/expand/bn <- conv4_7/expand
I0103 17:22:08.382839 27792 net.cpp:408] conv4_7/expand/bn -> conv4_7/expand/bn
I0103 17:22:08.383028 27792 net.cpp:150] Setting up conv4_7/expand/bn
I0103 17:22:08.383034 27792 net.cpp:157] Top shape: 12 384 48 48 (10616832)
I0103 17:22:08.383038 27792 net.cpp:165] Memory required for data: 4393547136
I0103 17:22:08.383044 27792 layer_factory.hpp:77] Creating layer conv4_7/expand/scale
I0103 17:22:08.383051 27792 net.cpp:100] Creating Layer conv4_7/expand/scale
I0103 17:22:08.383055 27792 net.cpp:434] conv4_7/expand/scale <- conv4_7/expand/bn
I0103 17:22:08.383059 27792 net.cpp:395] conv4_7/expand/scale -> conv4_7/expand/bn (in-place)
I0103 17:22:08.383105 27792 layer_factory.hpp:77] Creating layer conv4_7/expand/scale
I0103 17:22:08.383209 27792 net.cpp:150] Setting up conv4_7/expand/scale
I0103 17:22:08.383215 27792 net.cpp:157] Top shape: 12 384 48 48 (10616832)
I0103 17:22:08.383219 27792 net.cpp:165] Memory required for data: 4436014464
I0103 17:22:08.383224 27792 layer_factory.hpp:77] Creating layer relu4_7/expand
I0103 17:22:08.383229 27792 net.cpp:100] Creating Layer relu4_7/expand
I0103 17:22:08.383232 27792 net.cpp:434] relu4_7/expand <- conv4_7/expand/bn
I0103 17:22:08.383239 27792 net.cpp:395] relu4_7/expand -> conv4_7/expand/bn (in-place)
I0103 17:22:08.383394 27792 net.cpp:150] Setting up relu4_7/expand
I0103 17:22:08.383401 27792 net.cpp:157] Top shape: 12 384 48 48 (10616832)
I0103 17:22:08.383404 27792 net.cpp:165] Memory required for data: 4478481792
I0103 17:22:08.383407 27792 layer_factory.hpp:77] Creating layer loss1_conv1
I0103 17:22:08.383416 27792 net.cpp:100] Creating Layer loss1_conv1
I0103 17:22:08.383420 27792 net.cpp:434] loss1_conv1 <- block_4_6_block_4_6_0_split_1
I0103 17:22:08.383427 27792 net.cpp:408] loss1_conv1 -> loss1_conv1
I0103 17:22:08.385920 27792 net.cpp:150] Setting up loss1_conv1
I0103 17:22:08.386015 27792 net.cpp:157] Top shape: 12 64 48 48 (1769472)
I0103 17:22:08.386020 27792 net.cpp:165] Memory required for data: 4485559680
I0103 17:22:08.386039 27792 layer_factory.hpp:77] Creating layer loss_relu1
I0103 17:22:08.386065 27792 net.cpp:100] Creating Layer loss_relu1
I0103 17:22:08.386073 27792 net.cpp:434] loss_relu1 <- loss1_conv1
I0103 17:22:08.386082 27792 net.cpp:395] loss_relu1 -> loss1_conv1 (in-place)
I0103 17:22:08.386659 27792 net.cpp:150] Setting up loss_relu1
I0103 17:22:08.386670 27792 net.cpp:157] Top shape: 12 64 48 48 (1769472)
I0103 17:22:08.386673 27792 net.cpp:165] Memory required for data: 4492637568
I0103 17:22:08.386677 27792 layer_factory.hpp:77] Creating layer loss1_conv1_loss_relu1_0_split
I0103 17:22:08.386683 27792 net.cpp:100] Creating Layer loss1_conv1_loss_relu1_0_split
I0103 17:22:08.386687 27792 net.cpp:434] loss1_conv1_loss_relu1_0_split <- loss1_conv1
I0103 17:22:08.386693 27792 net.cpp:408] loss1_conv1_loss_relu1_0_split -> loss1_conv1_loss_relu1_0_split_0
I0103 17:22:08.386700 27792 net.cpp:408] loss1_conv1_loss_relu1_0_split -> loss1_conv1_loss_relu1_0_split_1
I0103 17:22:08.386742 27792 net.cpp:150] Setting up loss1_conv1_loss_relu1_0_split
I0103 17:22:08.386747 27792 net.cpp:157] Top shape: 12 64 48 48 (1769472)
I0103 17:22:08.386751 27792 net.cpp:157] Top shape: 12 64 48 48 (1769472)
I0103 17:22:08.386754 27792 net.cpp:165] Memory required for data: 4506793344
I0103 17:22:08.386759 27792 layer_factory.hpp:77] Creating layer LFCN_1_5x5
I0103 17:22:08.386812 27792 net.cpp:100] Creating Layer LFCN_1_5x5
I0103 17:22:08.386818 27792 net.cpp:434] LFCN_1_5x5 <- loss1_conv1_loss_relu1_0_split_0
I0103 17:22:08.386826 27792 net.cpp:408] LFCN_1_5x5 -> LFCN_1_5x5
I0103 17:22:08.388248 27792 net.cpp:150] Setting up LFCN_1_5x5
I0103 17:22:08.388276 27792 net.cpp:157] Top shape: 12 9 48 48 (248832)
I0103 17:22:08.388280 27792 net.cpp:165] Memory required for data: 4507788672
I0103 17:22:08.388288 27792 layer_factory.hpp:77] Creating layer LFCN_1_5x5_LFCN_1_5x5_0_split
I0103 17:22:08.388300 27792 net.cpp:100] Creating Layer LFCN_1_5x5_LFCN_1_5x5_0_split
I0103 17:22:08.388305 27792 net.cpp:434] LFCN_1_5x5_LFCN_1_5x5_0_split <- LFCN_1_5x5
I0103 17:22:08.388314 27792 net.cpp:408] LFCN_1_5x5_LFCN_1_5x5_0_split -> LFCN_1_5x5_LFCN_1_5x5_0_split_0
I0103 17:22:08.388321 27792 net.cpp:408] LFCN_1_5x5_LFCN_1_5x5_0_split -> LFCN_1_5x5_LFCN_1_5x5_0_split_1
I0103 17:22:08.388355 27792 net.cpp:150] Setting up LFCN_1_5x5_LFCN_1_5x5_0_split
I0103 17:22:08.388360 27792 net.cpp:157] Top shape: 12 9 48 48 (248832)
I0103 17:22:08.388363 27792 net.cpp:157] Top shape: 12 9 48 48 (248832)
I0103 17:22:08.388366 27792 net.cpp:165] Memory required for data: 4509779328
I0103 17:22:08.388370 27792 layer_factory.hpp:77] Creating layer detection_loss_1_5x5
I0103 17:22:08.388379 27792 net.cpp:100] Creating Layer detection_loss_1_5x5
I0103 17:22:08.388382 27792 net.cpp:434] detection_loss_1_5x5 <- LFCN_1_5x5_LFCN_1_5x5_0_split_0
I0103 17:22:08.388387 27792 net.cpp:434] detection_loss_1_5x5 <- label_1_5x5_data_1_split_0
I0103 17:22:08.388393 27792 net.cpp:408] detection_loss_1_5x5 -> loss_1_5x5
I0103 17:22:08.388407 27792 layer_factory.hpp:77] Creating layer detection_loss_1_5x5
I0103 17:22:08.390100 27792 net.cpp:150] Setting up detection_loss_1_5x5
I0103 17:22:08.390115 27792 net.cpp:157] Top shape: 1 1 1 2 (2)
I0103 17:22:08.390117 27792 net.cpp:160]     with loss weight 0.9
I0103 17:22:08.390137 27792 net.cpp:165] Memory required for data: 4509779336
I0103 17:22:08.390142 27792 layer_factory.hpp:77] Creating layer detection_accuracy_1_5x5
I0103 17:22:08.390151 27792 net.cpp:100] Creating Layer detection_accuracy_1_5x5
I0103 17:22:08.390156 27792 net.cpp:434] detection_accuracy_1_5x5 <- LFCN_1_5x5_LFCN_1_5x5_0_split_1
I0103 17:22:08.390162 27792 net.cpp:434] detection_accuracy_1_5x5 <- label_1_5x5_data_1_split_1
I0103 17:22:08.390167 27792 net.cpp:408] detection_accuracy_1_5x5 -> accuracy_1_5x5
I0103 17:22:08.390177 27792 net.cpp:408] detection_accuracy_1_5x5 -> boxiou_1_5x5
I0103 17:22:08.390218 27792 net.cpp:150] Setting up detection_accuracy_1_5x5
I0103 17:22:08.390223 27792 net.cpp:157] Top shape: 1 1 1 2 (2)
I0103 17:22:08.390225 27792 net.cpp:157] Top shape: 1 1 1 1 (1)
I0103 17:22:08.390228 27792 net.cpp:165] Memory required for data: 4509779348
I0103 17:22:08.390233 27792 layer_factory.hpp:77] Creating layer LFCN_1_7x7
I0103 17:22:08.390244 27792 net.cpp:100] Creating Layer LFCN_1_7x7
I0103 17:22:08.390249 27792 net.cpp:434] LFCN_1_7x7 <- loss1_conv1_loss_relu1_0_split_1
I0103 17:22:08.390254 27792 net.cpp:408] LFCN_1_7x7 -> LFCN_1_7x7
I0103 17:22:08.393489 27792 net.cpp:150] Setting up LFCN_1_7x7
I0103 17:22:08.393507 27792 net.cpp:157] Top shape: 12 9 48 48 (248832)
I0103 17:22:08.393510 27792 net.cpp:165] Memory required for data: 4510774676
I0103 17:22:08.393517 27792 layer_factory.hpp:77] Creating layer LFCN_1_7x7_LFCN_1_7x7_0_split
I0103 17:22:08.393527 27792 net.cpp:100] Creating Layer LFCN_1_7x7_LFCN_1_7x7_0_split
I0103 17:22:08.393532 27792 net.cpp:434] LFCN_1_7x7_LFCN_1_7x7_0_split <- LFCN_1_7x7
I0103 17:22:08.393539 27792 net.cpp:408] LFCN_1_7x7_LFCN_1_7x7_0_split -> LFCN_1_7x7_LFCN_1_7x7_0_split_0
I0103 17:22:08.393546 27792 net.cpp:408] LFCN_1_7x7_LFCN_1_7x7_0_split -> LFCN_1_7x7_LFCN_1_7x7_0_split_1
I0103 17:22:08.393580 27792 net.cpp:150] Setting up LFCN_1_7x7_LFCN_1_7x7_0_split
I0103 17:22:08.393585 27792 net.cpp:157] Top shape: 12 9 48 48 (248832)
I0103 17:22:08.393589 27792 net.cpp:157] Top shape: 12 9 48 48 (248832)
I0103 17:22:08.393592 27792 net.cpp:165] Memory required for data: 4512765332
I0103 17:22:08.393595 27792 layer_factory.hpp:77] Creating layer detection_loss_1_7x7
I0103 17:22:08.393604 27792 net.cpp:100] Creating Layer detection_loss_1_7x7
I0103 17:22:08.393609 27792 net.cpp:434] detection_loss_1_7x7 <- LFCN_1_7x7_LFCN_1_7x7_0_split_0
I0103 17:22:08.393613 27792 net.cpp:434] detection_loss_1_7x7 <- label_1_7x7_data_2_split_0
I0103 17:22:08.393620 27792 net.cpp:408] detection_loss_1_7x7 -> loss_1_7x7
I0103 17:22:08.393626 27792 layer_factory.hpp:77] Creating layer detection_loss_1_7x7
I0103 17:22:08.394060 27792 net.cpp:150] Setting up detection_loss_1_7x7
I0103 17:22:08.394071 27792 net.cpp:157] Top shape: 1 1 1 2 (2)
I0103 17:22:08.394074 27792 net.cpp:160]     with loss weight 0.9
I0103 17:22:08.394084 27792 net.cpp:165] Memory required for data: 4512765340
I0103 17:22:08.394088 27792 layer_factory.hpp:77] Creating layer detection_accuracy_1_7x7
I0103 17:22:08.394095 27792 net.cpp:100] Creating Layer detection_accuracy_1_7x7
I0103 17:22:08.394098 27792 net.cpp:434] detection_accuracy_1_7x7 <- LFCN_1_7x7_LFCN_1_7x7_0_split_1
I0103 17:22:08.394104 27792 net.cpp:434] detection_accuracy_1_7x7 <- label_1_7x7_data_2_split_1
I0103 17:22:08.394109 27792 net.cpp:408] detection_accuracy_1_7x7 -> accuracy_1_7x7
I0103 17:22:08.394116 27792 net.cpp:408] detection_accuracy_1_7x7 -> boxiou_1_7x7
I0103 17:22:08.394152 27792 net.cpp:150] Setting up detection_accuracy_1_7x7
I0103 17:22:08.394156 27792 net.cpp:157] Top shape: 1 1 1 2 (2)
I0103 17:22:08.394160 27792 net.cpp:157] Top shape: 1 1 1 1 (1)
I0103 17:22:08.394163 27792 net.cpp:165] Memory required for data: 4512765352
I0103 17:22:08.394166 27792 layer_factory.hpp:77] Creating layer conv4_7/dwise
I0103 17:22:08.394176 27792 net.cpp:100] Creating Layer conv4_7/dwise
I0103 17:22:08.394181 27792 net.cpp:434] conv4_7/dwise <- conv4_7/expand/bn
I0103 17:22:08.394187 27792 net.cpp:408] conv4_7/dwise -> conv4_7/dwise
I0103 17:22:08.394438 27792 net.cpp:150] Setting up conv4_7/dwise
I0103 17:22:08.394443 27792 net.cpp:157] Top shape: 12 384 24 24 (2654208)
I0103 17:22:08.394446 27792 net.cpp:165] Memory required for data: 4523382184
I0103 17:22:08.394450 27792 layer_factory.hpp:77] Creating layer conv4_7/dwise/bn
I0103 17:22:08.394456 27792 net.cpp:100] Creating Layer conv4_7/dwise/bn
I0103 17:22:08.394460 27792 net.cpp:434] conv4_7/dwise/bn <- conv4_7/dwise
I0103 17:22:08.394466 27792 net.cpp:408] conv4_7/dwise/bn -> conv4_7/dwise/bn
I0103 17:22:08.394645 27792 net.cpp:150] Setting up conv4_7/dwise/bn
I0103 17:22:08.394651 27792 net.cpp:157] Top shape: 12 384 24 24 (2654208)
I0103 17:22:08.394655 27792 net.cpp:165] Memory required for data: 4533999016
I0103 17:22:08.394664 27792 layer_factory.hpp:77] Creating layer conv4_7/dwise/scale
I0103 17:22:08.394670 27792 net.cpp:100] Creating Layer conv4_7/dwise/scale
I0103 17:22:08.394675 27792 net.cpp:434] conv4_7/dwise/scale <- conv4_7/dwise/bn
I0103 17:22:08.394678 27792 net.cpp:395] conv4_7/dwise/scale -> conv4_7/dwise/bn (in-place)
I0103 17:22:08.394726 27792 layer_factory.hpp:77] Creating layer conv4_7/dwise/scale
I0103 17:22:08.394839 27792 net.cpp:150] Setting up conv4_7/dwise/scale
I0103 17:22:08.394845 27792 net.cpp:157] Top shape: 12 384 24 24 (2654208)
I0103 17:22:08.394847 27792 net.cpp:165] Memory required for data: 4544615848
I0103 17:22:08.394853 27792 layer_factory.hpp:77] Creating layer relu4_7/dwise
I0103 17:22:08.394860 27792 net.cpp:100] Creating Layer relu4_7/dwise
I0103 17:22:08.394865 27792 net.cpp:434] relu4_7/dwise <- conv4_7/dwise/bn
I0103 17:22:08.394868 27792 net.cpp:395] relu4_7/dwise -> conv4_7/dwise/bn (in-place)
I0103 17:22:08.395018 27792 net.cpp:150] Setting up relu4_7/dwise
I0103 17:22:08.395025 27792 net.cpp:157] Top shape: 12 384 24 24 (2654208)
I0103 17:22:08.395028 27792 net.cpp:165] Memory required for data: 4555232680
I0103 17:22:08.395031 27792 layer_factory.hpp:77] Creating layer conv4_7/linear
I0103 17:22:08.395040 27792 net.cpp:100] Creating Layer conv4_7/linear
I0103 17:22:08.395042 27792 net.cpp:434] conv4_7/linear <- conv4_7/dwise/bn
I0103 17:22:08.395048 27792 net.cpp:408] conv4_7/linear -> conv4_7/linear
I0103 17:22:08.396965 27792 net.cpp:150] Setting up conv4_7/linear
I0103 17:22:08.396975 27792 net.cpp:157] Top shape: 12 96 24 24 (663552)
I0103 17:22:08.396978 27792 net.cpp:165] Memory required for data: 4557886888
I0103 17:22:08.396983 27792 layer_factory.hpp:77] Creating layer conv4_7/linear/bn
I0103 17:22:08.396991 27792 net.cpp:100] Creating Layer conv4_7/linear/bn
I0103 17:22:08.396994 27792 net.cpp:434] conv4_7/linear/bn <- conv4_7/linear
I0103 17:22:08.397001 27792 net.cpp:408] conv4_7/linear/bn -> conv4_7/linear/bn
I0103 17:22:08.397208 27792 net.cpp:150] Setting up conv4_7/linear/bn
I0103 17:22:08.397214 27792 net.cpp:157] Top shape: 12 96 24 24 (663552)
I0103 17:22:08.397217 27792 net.cpp:165] Memory required for data: 4560541096
I0103 17:22:08.397223 27792 layer_factory.hpp:77] Creating layer conv4_7/linear/scale
I0103 17:22:08.397231 27792 net.cpp:100] Creating Layer conv4_7/linear/scale
I0103 17:22:08.397234 27792 net.cpp:434] conv4_7/linear/scale <- conv4_7/linear/bn
I0103 17:22:08.397240 27792 net.cpp:395] conv4_7/linear/scale -> conv4_7/linear/bn (in-place)
I0103 17:22:08.397277 27792 layer_factory.hpp:77] Creating layer conv4_7/linear/scale
I0103 17:22:08.397384 27792 net.cpp:150] Setting up conv4_7/linear/scale
I0103 17:22:08.397392 27792 net.cpp:157] Top shape: 12 96 24 24 (663552)
I0103 17:22:08.397394 27792 net.cpp:165] Memory required for data: 4563195304
I0103 17:22:08.397399 27792 layer_factory.hpp:77] Creating layer conv4_7/linear/bn_conv4_7/linear/scale_0_split
I0103 17:22:08.397404 27792 net.cpp:100] Creating Layer conv4_7/linear/bn_conv4_7/linear/scale_0_split
I0103 17:22:08.397408 27792 net.cpp:434] conv4_7/linear/bn_conv4_7/linear/scale_0_split <- conv4_7/linear/bn
I0103 17:22:08.397413 27792 net.cpp:408] conv4_7/linear/bn_conv4_7/linear/scale_0_split -> conv4_7/linear/bn_conv4_7/linear/scale_0_split_0
I0103 17:22:08.397419 27792 net.cpp:408] conv4_7/linear/bn_conv4_7/linear/scale_0_split -> conv4_7/linear/bn_conv4_7/linear/scale_0_split_1
I0103 17:22:08.397451 27792 net.cpp:150] Setting up conv4_7/linear/bn_conv4_7/linear/scale_0_split
I0103 17:22:08.397456 27792 net.cpp:157] Top shape: 12 96 24 24 (663552)
I0103 17:22:08.397460 27792 net.cpp:157] Top shape: 12 96 24 24 (663552)
I0103 17:22:08.397462 27792 net.cpp:165] Memory required for data: 4568503720
I0103 17:22:08.397466 27792 layer_factory.hpp:77] Creating layer conv5_1/expand
I0103 17:22:08.397473 27792 net.cpp:100] Creating Layer conv5_1/expand
I0103 17:22:08.397476 27792 net.cpp:434] conv5_1/expand <- conv4_7/linear/bn_conv4_7/linear/scale_0_split_0
I0103 17:22:08.397481 27792 net.cpp:408] conv5_1/expand -> conv5_1/expand
I0103 17:22:08.399745 27792 net.cpp:150] Setting up conv5_1/expand
I0103 17:22:08.399758 27792 net.cpp:157] Top shape: 12 576 24 24 (3981312)
I0103 17:22:08.399761 27792 net.cpp:165] Memory required for data: 4584428968
I0103 17:22:08.399767 27792 layer_factory.hpp:77] Creating layer conv5_1/expand/bn
I0103 17:22:08.399773 27792 net.cpp:100] Creating Layer conv5_1/expand/bn
I0103 17:22:08.399777 27792 net.cpp:434] conv5_1/expand/bn <- conv5_1/expand
I0103 17:22:08.399783 27792 net.cpp:408] conv5_1/expand/bn -> conv5_1/expand/bn
I0103 17:22:08.399994 27792 net.cpp:150] Setting up conv5_1/expand/bn
I0103 17:22:08.400002 27792 net.cpp:157] Top shape: 12 576 24 24 (3981312)
I0103 17:22:08.400004 27792 net.cpp:165] Memory required for data: 4600354216
I0103 17:22:08.400012 27792 layer_factory.hpp:77] Creating layer conv5_1/expand/scale
I0103 17:22:08.400019 27792 net.cpp:100] Creating Layer conv5_1/expand/scale
I0103 17:22:08.400023 27792 net.cpp:434] conv5_1/expand/scale <- conv5_1/expand/bn
I0103 17:22:08.400027 27792 net.cpp:395] conv5_1/expand/scale -> conv5_1/expand/bn (in-place)
I0103 17:22:08.400065 27792 layer_factory.hpp:77] Creating layer conv5_1/expand/scale
I0103 17:22:08.400168 27792 net.cpp:150] Setting up conv5_1/expand/scale
I0103 17:22:08.400176 27792 net.cpp:157] Top shape: 12 576 24 24 (3981312)
I0103 17:22:08.400179 27792 net.cpp:165] Memory required for data: 4616279464
I0103 17:22:08.400187 27792 layer_factory.hpp:77] Creating layer relu5_1/expand
I0103 17:22:08.400193 27792 net.cpp:100] Creating Layer relu5_1/expand
I0103 17:22:08.400197 27792 net.cpp:434] relu5_1/expand <- conv5_1/expand/bn
I0103 17:22:08.400202 27792 net.cpp:395] relu5_1/expand -> conv5_1/expand/bn (in-place)
I0103 17:22:08.400367 27792 net.cpp:150] Setting up relu5_1/expand
I0103 17:22:08.400374 27792 net.cpp:157] Top shape: 12 576 24 24 (3981312)
I0103 17:22:08.400377 27792 net.cpp:165] Memory required for data: 4632204712
I0103 17:22:08.400380 27792 layer_factory.hpp:77] Creating layer conv5_1/dwise
I0103 17:22:08.400388 27792 net.cpp:100] Creating Layer conv5_1/dwise
I0103 17:22:08.400393 27792 net.cpp:434] conv5_1/dwise <- conv5_1/expand/bn
I0103 17:22:08.400398 27792 net.cpp:408] conv5_1/dwise -> conv5_1/dwise
I0103 17:22:08.400702 27792 net.cpp:150] Setting up conv5_1/dwise
I0103 17:22:08.400708 27792 net.cpp:157] Top shape: 12 576 24 24 (3981312)
I0103 17:22:08.400712 27792 net.cpp:165] Memory required for data: 4648129960
I0103 17:22:08.400715 27792 layer_factory.hpp:77] Creating layer conv5_1/dwise/bn
I0103 17:22:08.400722 27792 net.cpp:100] Creating Layer conv5_1/dwise/bn
I0103 17:22:08.400725 27792 net.cpp:434] conv5_1/dwise/bn <- conv5_1/dwise
I0103 17:22:08.400729 27792 net.cpp:408] conv5_1/dwise/bn -> conv5_1/dwise/bn
I0103 17:22:08.400914 27792 net.cpp:150] Setting up conv5_1/dwise/bn
I0103 17:22:08.400926 27792 net.cpp:157] Top shape: 12 576 24 24 (3981312)
I0103 17:22:08.400929 27792 net.cpp:165] Memory required for data: 4664055208
I0103 17:22:08.400936 27792 layer_factory.hpp:77] Creating layer conv5_1/dwise/scale
I0103 17:22:08.400943 27792 net.cpp:100] Creating Layer conv5_1/dwise/scale
I0103 17:22:08.400945 27792 net.cpp:434] conv5_1/dwise/scale <- conv5_1/dwise/bn
I0103 17:22:08.400954 27792 net.cpp:395] conv5_1/dwise/scale -> conv5_1/dwise/bn (in-place)
I0103 17:22:08.400987 27792 layer_factory.hpp:77] Creating layer conv5_1/dwise/scale
I0103 17:22:08.401087 27792 net.cpp:150] Setting up conv5_1/dwise/scale
I0103 17:22:08.401093 27792 net.cpp:157] Top shape: 12 576 24 24 (3981312)
I0103 17:22:08.401095 27792 net.cpp:165] Memory required for data: 4679980456
I0103 17:22:08.401101 27792 layer_factory.hpp:77] Creating layer relu5_1/dwise
I0103 17:22:08.401106 27792 net.cpp:100] Creating Layer relu5_1/dwise
I0103 17:22:08.401110 27792 net.cpp:434] relu5_1/dwise <- conv5_1/dwise/bn
I0103 17:22:08.401114 27792 net.cpp:395] relu5_1/dwise -> conv5_1/dwise/bn (in-place)
I0103 17:22:08.401581 27792 net.cpp:150] Setting up relu5_1/dwise
I0103 17:22:08.401590 27792 net.cpp:157] Top shape: 12 576 24 24 (3981312)
I0103 17:22:08.401593 27792 net.cpp:165] Memory required for data: 4695905704
I0103 17:22:08.401597 27792 layer_factory.hpp:77] Creating layer conv5_1/linear
I0103 17:22:08.401607 27792 net.cpp:100] Creating Layer conv5_1/linear
I0103 17:22:08.401609 27792 net.cpp:434] conv5_1/linear <- conv5_1/dwise/bn
I0103 17:22:08.401616 27792 net.cpp:408] conv5_1/linear -> conv5_1/linear
I0103 17:22:08.403719 27792 net.cpp:150] Setting up conv5_1/linear
I0103 17:22:08.403729 27792 net.cpp:157] Top shape: 12 96 24 24 (663552)
I0103 17:22:08.403733 27792 net.cpp:165] Memory required for data: 4698559912
I0103 17:22:08.403738 27792 layer_factory.hpp:77] Creating layer conv5_1/linear/bn
I0103 17:22:08.403744 27792 net.cpp:100] Creating Layer conv5_1/linear/bn
I0103 17:22:08.403749 27792 net.cpp:434] conv5_1/linear/bn <- conv5_1/linear
I0103 17:22:08.403755 27792 net.cpp:408] conv5_1/linear/bn -> conv5_1/linear/bn
I0103 17:22:08.403975 27792 net.cpp:150] Setting up conv5_1/linear/bn
I0103 17:22:08.403982 27792 net.cpp:157] Top shape: 12 96 24 24 (663552)
I0103 17:22:08.403986 27792 net.cpp:165] Memory required for data: 4701214120
I0103 17:22:08.403993 27792 layer_factory.hpp:77] Creating layer conv5_1/linear/scale
I0103 17:22:08.404000 27792 net.cpp:100] Creating Layer conv5_1/linear/scale
I0103 17:22:08.404004 27792 net.cpp:434] conv5_1/linear/scale <- conv5_1/linear/bn
I0103 17:22:08.404011 27792 net.cpp:395] conv5_1/linear/scale -> conv5_1/linear/bn (in-place)
I0103 17:22:08.404048 27792 layer_factory.hpp:77] Creating layer conv5_1/linear/scale
I0103 17:22:08.404156 27792 net.cpp:150] Setting up conv5_1/linear/scale
I0103 17:22:08.404162 27792 net.cpp:157] Top shape: 12 96 24 24 (663552)
I0103 17:22:08.404165 27792 net.cpp:165] Memory required for data: 4703868328
I0103 17:22:08.404171 27792 layer_factory.hpp:77] Creating layer block_5_1
I0103 17:22:08.404177 27792 net.cpp:100] Creating Layer block_5_1
I0103 17:22:08.404182 27792 net.cpp:434] block_5_1 <- conv4_7/linear/bn_conv4_7/linear/scale_0_split_1
I0103 17:22:08.404186 27792 net.cpp:434] block_5_1 <- conv5_1/linear/bn
I0103 17:22:08.404192 27792 net.cpp:408] block_5_1 -> block_5_1
I0103 17:22:08.404213 27792 net.cpp:150] Setting up block_5_1
I0103 17:22:08.404218 27792 net.cpp:157] Top shape: 12 96 24 24 (663552)
I0103 17:22:08.404222 27792 net.cpp:165] Memory required for data: 4706522536
I0103 17:22:08.404225 27792 layer_factory.hpp:77] Creating layer block_5_1_block_5_1_0_split
I0103 17:22:08.404232 27792 net.cpp:100] Creating Layer block_5_1_block_5_1_0_split
I0103 17:22:08.404235 27792 net.cpp:434] block_5_1_block_5_1_0_split <- block_5_1
I0103 17:22:08.404240 27792 net.cpp:408] block_5_1_block_5_1_0_split -> block_5_1_block_5_1_0_split_0
I0103 17:22:08.404247 27792 net.cpp:408] block_5_1_block_5_1_0_split -> block_5_1_block_5_1_0_split_1
I0103 17:22:08.404279 27792 net.cpp:150] Setting up block_5_1_block_5_1_0_split
I0103 17:22:08.404284 27792 net.cpp:157] Top shape: 12 96 24 24 (663552)
I0103 17:22:08.404289 27792 net.cpp:157] Top shape: 12 96 24 24 (663552)
I0103 17:22:08.404292 27792 net.cpp:165] Memory required for data: 4711830952
I0103 17:22:08.404296 27792 layer_factory.hpp:77] Creating layer conv5_2/expand
I0103 17:22:08.404302 27792 net.cpp:100] Creating Layer conv5_2/expand
I0103 17:22:08.404306 27792 net.cpp:434] conv5_2/expand <- block_5_1_block_5_1_0_split_0
I0103 17:22:08.404312 27792 net.cpp:408] conv5_2/expand -> conv5_2/expand
I0103 17:22:08.406549 27792 net.cpp:150] Setting up conv5_2/expand
I0103 17:22:08.406560 27792 net.cpp:157] Top shape: 12 576 24 24 (3981312)
I0103 17:22:08.406563 27792 net.cpp:165] Memory required for data: 4727756200
I0103 17:22:08.406569 27792 layer_factory.hpp:77] Creating layer conv5_2/expand/bn
I0103 17:22:08.406575 27792 net.cpp:100] Creating Layer conv5_2/expand/bn
I0103 17:22:08.406579 27792 net.cpp:434] conv5_2/expand/bn <- conv5_2/expand
I0103 17:22:08.406584 27792 net.cpp:408] conv5_2/expand/bn -> conv5_2/expand/bn
I0103 17:22:08.406800 27792 net.cpp:150] Setting up conv5_2/expand/bn
I0103 17:22:08.406810 27792 net.cpp:157] Top shape: 12 576 24 24 (3981312)
I0103 17:22:08.406812 27792 net.cpp:165] Memory required for data: 4743681448
I0103 17:22:08.406821 27792 layer_factory.hpp:77] Creating layer conv5_2/expand/scale
I0103 17:22:08.406829 27792 net.cpp:100] Creating Layer conv5_2/expand/scale
I0103 17:22:08.406834 27792 net.cpp:434] conv5_2/expand/scale <- conv5_2/expand/bn
I0103 17:22:08.406841 27792 net.cpp:395] conv5_2/expand/scale -> conv5_2/expand/bn (in-place)
I0103 17:22:08.406885 27792 layer_factory.hpp:77] Creating layer conv5_2/expand/scale
I0103 17:22:08.407011 27792 net.cpp:150] Setting up conv5_2/expand/scale
I0103 17:22:08.407016 27792 net.cpp:157] Top shape: 12 576 24 24 (3981312)
I0103 17:22:08.407019 27792 net.cpp:165] Memory required for data: 4759606696
I0103 17:22:08.407024 27792 layer_factory.hpp:77] Creating layer relu5_2/expand
I0103 17:22:08.407030 27792 net.cpp:100] Creating Layer relu5_2/expand
I0103 17:22:08.407034 27792 net.cpp:434] relu5_2/expand <- conv5_2/expand/bn
I0103 17:22:08.407038 27792 net.cpp:395] relu5_2/expand -> conv5_2/expand/bn (in-place)
I0103 17:22:08.407500 27792 net.cpp:150] Setting up relu5_2/expand
I0103 17:22:08.407510 27792 net.cpp:157] Top shape: 12 576 24 24 (3981312)
I0103 17:22:08.407512 27792 net.cpp:165] Memory required for data: 4775531944
I0103 17:22:08.407516 27792 layer_factory.hpp:77] Creating layer conv5_2/dwise
I0103 17:22:08.407524 27792 net.cpp:100] Creating Layer conv5_2/dwise
I0103 17:22:08.407528 27792 net.cpp:434] conv5_2/dwise <- conv5_2/expand/bn
I0103 17:22:08.407534 27792 net.cpp:408] conv5_2/dwise -> conv5_2/dwise
I0103 17:22:08.407843 27792 net.cpp:150] Setting up conv5_2/dwise
I0103 17:22:08.407850 27792 net.cpp:157] Top shape: 12 576 24 24 (3981312)
I0103 17:22:08.407852 27792 net.cpp:165] Memory required for data: 4791457192
I0103 17:22:08.407857 27792 layer_factory.hpp:77] Creating layer conv5_2/dwise/bn
I0103 17:22:08.407865 27792 net.cpp:100] Creating Layer conv5_2/dwise/bn
I0103 17:22:08.407868 27792 net.cpp:434] conv5_2/dwise/bn <- conv5_2/dwise
I0103 17:22:08.407872 27792 net.cpp:408] conv5_2/dwise/bn -> conv5_2/dwise/bn
I0103 17:22:08.408064 27792 net.cpp:150] Setting up conv5_2/dwise/bn
I0103 17:22:08.408071 27792 net.cpp:157] Top shape: 12 576 24 24 (3981312)
I0103 17:22:08.408073 27792 net.cpp:165] Memory required for data: 4807382440
I0103 17:22:08.408079 27792 layer_factory.hpp:77] Creating layer conv5_2/dwise/scale
I0103 17:22:08.408088 27792 net.cpp:100] Creating Layer conv5_2/dwise/scale
I0103 17:22:08.408092 27792 net.cpp:434] conv5_2/dwise/scale <- conv5_2/dwise/bn
I0103 17:22:08.408097 27792 net.cpp:395] conv5_2/dwise/scale -> conv5_2/dwise/bn (in-place)
I0103 17:22:08.408134 27792 layer_factory.hpp:77] Creating layer conv5_2/dwise/scale
I0103 17:22:08.408242 27792 net.cpp:150] Setting up conv5_2/dwise/scale
I0103 17:22:08.408248 27792 net.cpp:157] Top shape: 12 576 24 24 (3981312)
I0103 17:22:08.408252 27792 net.cpp:165] Memory required for data: 4823307688
I0103 17:22:08.408257 27792 layer_factory.hpp:77] Creating layer relu5_2/dwise
I0103 17:22:08.408262 27792 net.cpp:100] Creating Layer relu5_2/dwise
I0103 17:22:08.408267 27792 net.cpp:434] relu5_2/dwise <- conv5_2/dwise/bn
I0103 17:22:08.408272 27792 net.cpp:395] relu5_2/dwise -> conv5_2/dwise/bn (in-place)
I0103 17:22:08.408452 27792 net.cpp:150] Setting up relu5_2/dwise
I0103 17:22:08.408458 27792 net.cpp:157] Top shape: 12 576 24 24 (3981312)
I0103 17:22:08.408463 27792 net.cpp:165] Memory required for data: 4839232936
I0103 17:22:08.408465 27792 layer_factory.hpp:77] Creating layer conv5_2/linear
I0103 17:22:08.408473 27792 net.cpp:100] Creating Layer conv5_2/linear
I0103 17:22:08.408478 27792 net.cpp:434] conv5_2/linear <- conv5_2/dwise/bn
I0103 17:22:08.408483 27792 net.cpp:408] conv5_2/linear -> conv5_2/linear
I0103 17:22:08.410867 27792 net.cpp:150] Setting up conv5_2/linear
I0103 17:22:08.410879 27792 net.cpp:157] Top shape: 12 96 24 24 (663552)
I0103 17:22:08.410882 27792 net.cpp:165] Memory required for data: 4841887144
I0103 17:22:08.410887 27792 layer_factory.hpp:77] Creating layer conv5_2/linear/bn
I0103 17:22:08.410894 27792 net.cpp:100] Creating Layer conv5_2/linear/bn
I0103 17:22:08.410898 27792 net.cpp:434] conv5_2/linear/bn <- conv5_2/linear
I0103 17:22:08.410903 27792 net.cpp:408] conv5_2/linear/bn -> conv5_2/linear/bn
I0103 17:22:08.411103 27792 net.cpp:150] Setting up conv5_2/linear/bn
I0103 17:22:08.411108 27792 net.cpp:157] Top shape: 12 96 24 24 (663552)
I0103 17:22:08.411111 27792 net.cpp:165] Memory required for data: 4844541352
I0103 17:22:08.411119 27792 layer_factory.hpp:77] Creating layer conv5_2/linear/scale
I0103 17:22:08.411125 27792 net.cpp:100] Creating Layer conv5_2/linear/scale
I0103 17:22:08.411130 27792 net.cpp:434] conv5_2/linear/scale <- conv5_2/linear/bn
I0103 17:22:08.411134 27792 net.cpp:395] conv5_2/linear/scale -> conv5_2/linear/bn (in-place)
I0103 17:22:08.411175 27792 layer_factory.hpp:77] Creating layer conv5_2/linear/scale
I0103 17:22:08.411278 27792 net.cpp:150] Setting up conv5_2/linear/scale
I0103 17:22:08.411284 27792 net.cpp:157] Top shape: 12 96 24 24 (663552)
I0103 17:22:08.411288 27792 net.cpp:165] Memory required for data: 4847195560
I0103 17:22:08.411293 27792 layer_factory.hpp:77] Creating layer block_5_2
I0103 17:22:08.411298 27792 net.cpp:100] Creating Layer block_5_2
I0103 17:22:08.411303 27792 net.cpp:434] block_5_2 <- block_5_1_block_5_1_0_split_1
I0103 17:22:08.411306 27792 net.cpp:434] block_5_2 <- conv5_2/linear/bn
I0103 17:22:08.411311 27792 net.cpp:408] block_5_2 -> block_5_2
I0103 17:22:08.411332 27792 net.cpp:150] Setting up block_5_2
I0103 17:22:08.411336 27792 net.cpp:157] Top shape: 12 96 24 24 (663552)
I0103 17:22:08.411339 27792 net.cpp:165] Memory required for data: 4849849768
I0103 17:22:08.411342 27792 layer_factory.hpp:77] Creating layer block_5_2_block_5_2_0_split
I0103 17:22:08.411347 27792 net.cpp:100] Creating Layer block_5_2_block_5_2_0_split
I0103 17:22:08.411350 27792 net.cpp:434] block_5_2_block_5_2_0_split <- block_5_2
I0103 17:22:08.411355 27792 net.cpp:408] block_5_2_block_5_2_0_split -> block_5_2_block_5_2_0_split_0
I0103 17:22:08.411360 27792 net.cpp:408] block_5_2_block_5_2_0_split -> block_5_2_block_5_2_0_split_1
I0103 17:22:08.411366 27792 net.cpp:408] block_5_2_block_5_2_0_split -> block_5_2_block_5_2_0_split_2
I0103 17:22:08.411407 27792 net.cpp:150] Setting up block_5_2_block_5_2_0_split
I0103 17:22:08.411412 27792 net.cpp:157] Top shape: 12 96 24 24 (663552)
I0103 17:22:08.411415 27792 net.cpp:157] Top shape: 12 96 24 24 (663552)
I0103 17:22:08.411419 27792 net.cpp:157] Top shape: 12 96 24 24 (663552)
I0103 17:22:08.411422 27792 net.cpp:165] Memory required for data: 4857812392
I0103 17:22:08.411425 27792 layer_factory.hpp:77] Creating layer conv5_3/expand
I0103 17:22:08.411432 27792 net.cpp:100] Creating Layer conv5_3/expand
I0103 17:22:08.411435 27792 net.cpp:434] conv5_3/expand <- block_5_2_block_5_2_0_split_0
I0103 17:22:08.411442 27792 net.cpp:408] conv5_3/expand -> conv5_3/expand
I0103 17:22:08.414132 27792 net.cpp:150] Setting up conv5_3/expand
I0103 17:22:08.414142 27792 net.cpp:157] Top shape: 12 576 24 24 (3981312)
I0103 17:22:08.414146 27792 net.cpp:165] Memory required for data: 4873737640
I0103 17:22:08.414151 27792 layer_factory.hpp:77] Creating layer conv5_3/expand/bn
I0103 17:22:08.414158 27792 net.cpp:100] Creating Layer conv5_3/expand/bn
I0103 17:22:08.414162 27792 net.cpp:434] conv5_3/expand/bn <- conv5_3/expand
I0103 17:22:08.414167 27792 net.cpp:408] conv5_3/expand/bn -> conv5_3/expand/bn
I0103 17:22:08.414363 27792 net.cpp:150] Setting up conv5_3/expand/bn
I0103 17:22:08.414368 27792 net.cpp:157] Top shape: 12 576 24 24 (3981312)
I0103 17:22:08.414371 27792 net.cpp:165] Memory required for data: 4889662888
I0103 17:22:08.414378 27792 layer_factory.hpp:77] Creating layer conv5_3/expand/scale
I0103 17:22:08.414386 27792 net.cpp:100] Creating Layer conv5_3/expand/scale
I0103 17:22:08.414388 27792 net.cpp:434] conv5_3/expand/scale <- conv5_3/expand/bn
I0103 17:22:08.414393 27792 net.cpp:395] conv5_3/expand/scale -> conv5_3/expand/bn (in-place)
I0103 17:22:08.414429 27792 layer_factory.hpp:77] Creating layer conv5_3/expand/scale
I0103 17:22:08.414535 27792 net.cpp:150] Setting up conv5_3/expand/scale
I0103 17:22:08.414541 27792 net.cpp:157] Top shape: 12 576 24 24 (3981312)
I0103 17:22:08.414543 27792 net.cpp:165] Memory required for data: 4905588136
I0103 17:22:08.414548 27792 layer_factory.hpp:77] Creating layer relu5_3/expand
I0103 17:22:08.414553 27792 net.cpp:100] Creating Layer relu5_3/expand
I0103 17:22:08.414557 27792 net.cpp:434] relu5_3/expand <- conv5_3/expand/bn
I0103 17:22:08.414562 27792 net.cpp:395] relu5_3/expand -> conv5_3/expand/bn (in-place)
I0103 17:22:08.414711 27792 net.cpp:150] Setting up relu5_3/expand
I0103 17:22:08.414718 27792 net.cpp:157] Top shape: 12 576 24 24 (3981312)
I0103 17:22:08.414721 27792 net.cpp:165] Memory required for data: 4921513384
I0103 17:22:08.414724 27792 layer_factory.hpp:77] Creating layer LFCN_2_5x5
I0103 17:22:08.414732 27792 net.cpp:100] Creating Layer LFCN_2_5x5
I0103 17:22:08.414736 27792 net.cpp:434] LFCN_2_5x5 <- block_5_2_block_5_2_0_split_1
I0103 17:22:08.414743 27792 net.cpp:408] LFCN_2_5x5 -> LFCN_2_5x5
I0103 17:22:08.416448 27792 net.cpp:150] Setting up LFCN_2_5x5
I0103 17:22:08.416460 27792 net.cpp:157] Top shape: 12 9 24 24 (62208)
I0103 17:22:08.416462 27792 net.cpp:165] Memory required for data: 4921762216
I0103 17:22:08.416468 27792 layer_factory.hpp:77] Creating layer LFCN_2_5x5_LFCN_2_5x5_0_split
I0103 17:22:08.416474 27792 net.cpp:100] Creating Layer LFCN_2_5x5_LFCN_2_5x5_0_split
I0103 17:22:08.416478 27792 net.cpp:434] LFCN_2_5x5_LFCN_2_5x5_0_split <- LFCN_2_5x5
I0103 17:22:08.416484 27792 net.cpp:408] LFCN_2_5x5_LFCN_2_5x5_0_split -> LFCN_2_5x5_LFCN_2_5x5_0_split_0
I0103 17:22:08.416491 27792 net.cpp:408] LFCN_2_5x5_LFCN_2_5x5_0_split -> LFCN_2_5x5_LFCN_2_5x5_0_split_1
I0103 17:22:08.416523 27792 net.cpp:150] Setting up LFCN_2_5x5_LFCN_2_5x5_0_split
I0103 17:22:08.416528 27792 net.cpp:157] Top shape: 12 9 24 24 (62208)
I0103 17:22:08.416532 27792 net.cpp:157] Top shape: 12 9 24 24 (62208)
I0103 17:22:08.416535 27792 net.cpp:165] Memory required for data: 4922259880
I0103 17:22:08.416539 27792 layer_factory.hpp:77] Creating layer detection_loss_2_5x5
I0103 17:22:08.416545 27792 net.cpp:100] Creating Layer detection_loss_2_5x5
I0103 17:22:08.416549 27792 net.cpp:434] detection_loss_2_5x5 <- LFCN_2_5x5_LFCN_2_5x5_0_split_0
I0103 17:22:08.416553 27792 net.cpp:434] detection_loss_2_5x5 <- label_2_5x5_data_3_split_0
I0103 17:22:08.416559 27792 net.cpp:408] detection_loss_2_5x5 -> loss_2_5x5
I0103 17:22:08.416566 27792 layer_factory.hpp:77] Creating layer detection_loss_2_5x5
I0103 17:22:08.416927 27792 net.cpp:150] Setting up detection_loss_2_5x5
I0103 17:22:08.416937 27792 net.cpp:157] Top shape: 1 1 1 2 (2)
I0103 17:22:08.416941 27792 net.cpp:160]     with loss weight 1
I0103 17:22:08.416954 27792 net.cpp:165] Memory required for data: 4922259888
I0103 17:22:08.416957 27792 layer_factory.hpp:77] Creating layer detection_accuracy_2_5x5
I0103 17:22:08.416966 27792 net.cpp:100] Creating Layer detection_accuracy_2_5x5
I0103 17:22:08.416971 27792 net.cpp:434] detection_accuracy_2_5x5 <- LFCN_2_5x5_LFCN_2_5x5_0_split_1
I0103 17:22:08.416976 27792 net.cpp:434] detection_accuracy_2_5x5 <- label_2_5x5_data_3_split_1
I0103 17:22:08.416983 27792 net.cpp:408] detection_accuracy_2_5x5 -> accuracy_2_5x5
I0103 17:22:08.416992 27792 net.cpp:408] detection_accuracy_2_5x5 -> boxiou_2_5x5
I0103 17:22:08.417034 27792 net.cpp:150] Setting up detection_accuracy_2_5x5
I0103 17:22:08.417040 27792 net.cpp:157] Top shape: 1 1 1 2 (2)
I0103 17:22:08.417045 27792 net.cpp:157] Top shape: 1 1 1 1 (1)
I0103 17:22:08.417049 27792 net.cpp:165] Memory required for data: 4922259900
I0103 17:22:08.417053 27792 layer_factory.hpp:77] Creating layer LFCN_2_7x7
I0103 17:22:08.417063 27792 net.cpp:100] Creating Layer LFCN_2_7x7
I0103 17:22:08.417068 27792 net.cpp:434] LFCN_2_7x7 <- block_5_2_block_5_2_0_split_2
I0103 17:22:08.417076 27792 net.cpp:408] LFCN_2_7x7 -> LFCN_2_7x7
I0103 17:22:08.419175 27792 net.cpp:150] Setting up LFCN_2_7x7
I0103 17:22:08.419188 27792 net.cpp:157] Top shape: 12 9 24 24 (62208)
I0103 17:22:08.419190 27792 net.cpp:165] Memory required for data: 4922508732
I0103 17:22:08.419196 27792 layer_factory.hpp:77] Creating layer LFCN_2_7x7_LFCN_2_7x7_0_split
I0103 17:22:08.419203 27792 net.cpp:100] Creating Layer LFCN_2_7x7_LFCN_2_7x7_0_split
I0103 17:22:08.419206 27792 net.cpp:434] LFCN_2_7x7_LFCN_2_7x7_0_split <- LFCN_2_7x7
I0103 17:22:08.419212 27792 net.cpp:408] LFCN_2_7x7_LFCN_2_7x7_0_split -> LFCN_2_7x7_LFCN_2_7x7_0_split_0
I0103 17:22:08.419219 27792 net.cpp:408] LFCN_2_7x7_LFCN_2_7x7_0_split -> LFCN_2_7x7_LFCN_2_7x7_0_split_1
I0103 17:22:08.419255 27792 net.cpp:150] Setting up LFCN_2_7x7_LFCN_2_7x7_0_split
I0103 17:22:08.419265 27792 net.cpp:157] Top shape: 12 9 24 24 (62208)
I0103 17:22:08.419270 27792 net.cpp:157] Top shape: 12 9 24 24 (62208)
I0103 17:22:08.419272 27792 net.cpp:165] Memory required for data: 4923006396
I0103 17:22:08.419275 27792 layer_factory.hpp:77] Creating layer detection_loss_2_7x7
I0103 17:22:08.419282 27792 net.cpp:100] Creating Layer detection_loss_2_7x7
I0103 17:22:08.419286 27792 net.cpp:434] detection_loss_2_7x7 <- LFCN_2_7x7_LFCN_2_7x7_0_split_0
I0103 17:22:08.419291 27792 net.cpp:434] detection_loss_2_7x7 <- label_2_7x7_data_4_split_0
I0103 17:22:08.419296 27792 net.cpp:408] detection_loss_2_7x7 -> loss_2_7x7
I0103 17:22:08.419302 27792 layer_factory.hpp:77] Creating layer detection_loss_2_7x7
I0103 17:22:08.419636 27792 net.cpp:150] Setting up detection_loss_2_7x7
I0103 17:22:08.419644 27792 net.cpp:157] Top shape: 1 1 1 2 (2)
I0103 17:22:08.419647 27792 net.cpp:160]     with loss weight 1
I0103 17:22:08.419654 27792 net.cpp:165] Memory required for data: 4923006404
I0103 17:22:08.419657 27792 layer_factory.hpp:77] Creating layer detection_accuracy_2_7x7
I0103 17:22:08.419663 27792 net.cpp:100] Creating Layer detection_accuracy_2_7x7
I0103 17:22:08.419667 27792 net.cpp:434] detection_accuracy_2_7x7 <- LFCN_2_7x7_LFCN_2_7x7_0_split_1
I0103 17:22:08.419672 27792 net.cpp:434] detection_accuracy_2_7x7 <- label_2_7x7_data_4_split_1
I0103 17:22:08.419678 27792 net.cpp:408] detection_accuracy_2_7x7 -> accuracy_2_7x7
I0103 17:22:08.419684 27792 net.cpp:408] detection_accuracy_2_7x7 -> boxiou_2_7x7
I0103 17:22:08.419718 27792 net.cpp:150] Setting up detection_accuracy_2_7x7
I0103 17:22:08.419723 27792 net.cpp:157] Top shape: 1 1 1 2 (2)
I0103 17:22:08.419728 27792 net.cpp:157] Top shape: 1 1 1 1 (1)
I0103 17:22:08.419729 27792 net.cpp:165] Memory required for data: 4923006416
I0103 17:22:08.419734 27792 layer_factory.hpp:77] Creating layer conv5_3/dwise
I0103 17:22:08.419741 27792 net.cpp:100] Creating Layer conv5_3/dwise
I0103 17:22:08.419746 27792 net.cpp:434] conv5_3/dwise <- conv5_3/expand/bn
I0103 17:22:08.419750 27792 net.cpp:408] conv5_3/dwise -> conv5_3/dwise
I0103 17:22:08.420063 27792 net.cpp:150] Setting up conv5_3/dwise
I0103 17:22:08.420069 27792 net.cpp:157] Top shape: 12 576 12 12 (995328)
I0103 17:22:08.420073 27792 net.cpp:165] Memory required for data: 4926987728
I0103 17:22:08.420097 27792 layer_factory.hpp:77] Creating layer conv5_3/dwise/bn
I0103 17:22:08.420104 27792 net.cpp:100] Creating Layer conv5_3/dwise/bn
I0103 17:22:08.420109 27792 net.cpp:434] conv5_3/dwise/bn <- conv5_3/dwise
I0103 17:22:08.420114 27792 net.cpp:408] conv5_3/dwise/bn -> conv5_3/dwise/bn
I0103 17:22:08.420310 27792 net.cpp:150] Setting up conv5_3/dwise/bn
I0103 17:22:08.420316 27792 net.cpp:157] Top shape: 12 576 12 12 (995328)
I0103 17:22:08.420320 27792 net.cpp:165] Memory required for data: 4930969040
I0103 17:22:08.420327 27792 layer_factory.hpp:77] Creating layer conv5_3/dwise/scale
I0103 17:22:08.420334 27792 net.cpp:100] Creating Layer conv5_3/dwise/scale
I0103 17:22:08.420337 27792 net.cpp:434] conv5_3/dwise/scale <- conv5_3/dwise/bn
I0103 17:22:08.420342 27792 net.cpp:395] conv5_3/dwise/scale -> conv5_3/dwise/bn (in-place)
I0103 17:22:08.420382 27792 layer_factory.hpp:77] Creating layer conv5_3/dwise/scale
I0103 17:22:08.420485 27792 net.cpp:150] Setting up conv5_3/dwise/scale
I0103 17:22:08.420491 27792 net.cpp:157] Top shape: 12 576 12 12 (995328)
I0103 17:22:08.420495 27792 net.cpp:165] Memory required for data: 4934950352
I0103 17:22:08.420500 27792 layer_factory.hpp:77] Creating layer relu5_3/dwise
I0103 17:22:08.420506 27792 net.cpp:100] Creating Layer relu5_3/dwise
I0103 17:22:08.420508 27792 net.cpp:434] relu5_3/dwise <- conv5_3/dwise/bn
I0103 17:22:08.420512 27792 net.cpp:395] relu5_3/dwise -> conv5_3/dwise/bn (in-place)
I0103 17:22:08.421006 27792 net.cpp:150] Setting up relu5_3/dwise
I0103 17:22:08.421018 27792 net.cpp:157] Top shape: 12 576 12 12 (995328)
I0103 17:22:08.421022 27792 net.cpp:165] Memory required for data: 4938931664
I0103 17:22:08.421027 27792 layer_factory.hpp:77] Creating layer conv5_3/linear
I0103 17:22:08.421036 27792 net.cpp:100] Creating Layer conv5_3/linear
I0103 17:22:08.421041 27792 net.cpp:434] conv5_3/linear <- conv5_3/dwise/bn
I0103 17:22:08.421046 27792 net.cpp:408] conv5_3/linear -> conv5_3/linear
I0103 17:22:08.424114 27792 net.cpp:150] Setting up conv5_3/linear
I0103 17:22:08.424137 27792 net.cpp:157] Top shape: 12 160 12 12 (276480)
I0103 17:22:08.424140 27792 net.cpp:165] Memory required for data: 4940037584
I0103 17:22:08.424149 27792 layer_factory.hpp:77] Creating layer conv5_3/linear/bn
I0103 17:22:08.424160 27792 net.cpp:100] Creating Layer conv5_3/linear/bn
…
I0103 17:22:08.751945 27792 net.cpp:434] conv5_2/expand/scale <- conv5_2/expand/bn
I0103 17:22:08.751951 27792 net.cpp:395] conv5_2/expand/scale -> conv5_2/expand/bn (in-place)
I0103 17:22:08.751998 27792 layer_factory.hpp:77] Creating layer conv5_2/expand/scale
I0103 17:22:08.752140 27792 net.cpp:150] Setting up conv5_2/expand/scale
I0103 17:22:08.752146 27792 net.cpp:157] Top shape: 1 576 24 24 (331776)
I0103 17:22:08.752149 27792 net.cpp:165] Memory required for data: 396633928
I0103 17:22:08.752156 27792 layer_factory.hpp:77] Creating layer relu5_2/expand
I0103 17:22:08.752161 27792 net.cpp:100] Creating Layer relu5_2/expand
I0103 17:22:08.752166 27792 net.cpp:434] relu5_2/expand <- conv5_2/expand/bn
I0103 17:22:08.752171 27792 net.cpp:395] relu5_2/expand -> conv5_2/expand/bn (in-place)
I0103 17:22:08.752370 27792 net.cpp:150] Setting up relu5_2/expand
I0103 17:22:08.752379 27792 net.cpp:157] Top shape: 1 576 24 24 (331776)
I0103 17:22:08.752382 27792 net.cpp:165] Memory required for data: 397961032
I0103 17:22:08.752387 27792 layer_factory.hpp:77] Creating layer conv5_2/dwise
I0103 17:22:08.752395 27792 net.cpp:100] Creating Layer conv5_2/dwise
I0103 17:22:08.752399 27792 net.cpp:434] conv5_2/dwise <- conv5_2/expand/bn
I0103 17:22:08.752406 27792 net.cpp:408] conv5_2/dwise -> conv5_2/dwise
I0103 17:22:08.752805 27792 net.cpp:150] Setting up conv5_2/dwise
I0103 17:22:08.752812 27792 net.cpp:157] Top shape: 1 576 24 24 (331776)
I0103 17:22:08.752816 27792 net.cpp:165] Memory required for data: 399288136
I0103 17:22:08.752821 27792 layer_factory.hpp:77] Creating layer conv5_2/dwise/bn
I0103 17:22:08.752827 27792 net.cpp:100] Creating Layer conv5_2/dwise/bn
I0103 17:22:08.752831 27792 net.cpp:434] conv5_2/dwise/bn <- conv5_2/dwise
I0103 17:22:08.752836 27792 net.cpp:408] conv5_2/dwise/bn -> conv5_2/dwise/bn
I0103 17:22:08.753096 27792 net.cpp:150] Setting up conv5_2/dwise/bn
I0103 17:22:08.753103 27792 net.cpp:157] Top shape: 1 576 24 24 (331776)
I0103 17:22:08.753106 27792 net.cpp:165] Memory required for data: 400615240
I0103 17:22:08.753113 27792 layer_factory.hpp:77] Creating layer conv5_2/dwise/scale
I0103 17:22:08.753121 27792 net.cpp:100] Creating Layer conv5_2/dwise/scale
I0103 17:22:08.753126 27792 net.cpp:434] conv5_2/dwise/scale <- conv5_2/dwise/bn
I0103 17:22:08.753132 27792 net.cpp:395] conv5_2/dwise/scale -> conv5_2/dwise/bn (in-place)
I0103 17:22:08.753177 27792 layer_factory.hpp:77] Creating layer conv5_2/dwise/scale
I0103 17:22:08.753316 27792 net.cpp:150] Setting up conv5_2/dwise/scale
I0103 17:22:08.753322 27792 net.cpp:157] Top shape: 1 576 24 24 (331776)
I0103 17:22:08.753326 27792 net.cpp:165] Memory required for data: 401942344
I0103 17:22:08.753332 27792 layer_factory.hpp:77] Creating layer relu5_2/dwise
I0103 17:22:08.753337 27792 net.cpp:100] Creating Layer relu5_2/dwise
I0103 17:22:08.753341 27792 net.cpp:434] relu5_2/dwise <- conv5_2/dwise/bn
I0103 17:22:08.753347 27792 net.cpp:395] relu5_2/dwise -> conv5_2/dwise/bn (in-place)
I0103 17:22:08.753537 27792 net.cpp:150] Setting up relu5_2/dwise
I0103 17:22:08.753545 27792 net.cpp:157] Top shape: 1 576 24 24 (331776)
I0103 17:22:08.753549 27792 net.cpp:165] Memory required for data: 403269448
I0103 17:22:08.753553 27792 layer_factory.hpp:77] Creating layer conv5_2/linear
I0103 17:22:08.753562 27792 net.cpp:100] Creating Layer conv5_2/linear
I0103 17:22:08.753567 27792 net.cpp:434] conv5_2/linear <- conv5_2/dwise/bn
I0103 17:22:08.753574 27792 net.cpp:408] conv5_2/linear -> conv5_2/linear
I0103 17:22:08.757396 27792 net.cpp:150] Setting up conv5_2/linear
I0103 17:22:08.757411 27792 net.cpp:157] Top shape: 1 96 24 24 (55296)
I0103 17:22:08.757416 27792 net.cpp:165] Memory required for data: 403490632
I0103 17:22:08.757421 27792 layer_factory.hpp:77] Creating layer conv5_2/linear/bn
I0103 17:22:08.757429 27792 net.cpp:100] Creating Layer conv5_2/linear/bn
I0103 17:22:08.757434 27792 net.cpp:434] conv5_2/linear/bn <- conv5_2/linear
I0103 17:22:08.757442 27792 net.cpp:408] conv5_2/linear/bn -> conv5_2/linear/bn
I0103 17:22:08.757730 27792 net.cpp:150] Setting up conv5_2/linear/bn
I0103 17:22:08.757737 27792 net.cpp:157] Top shape: 1 96 24 24 (55296)
I0103 17:22:08.757741 27792 net.cpp:165] Memory required for data: 403711816
I0103 17:22:08.757750 27792 layer_factory.hpp:77] Creating layer conv5_2/linear/scale
I0103 17:22:08.757756 27792 net.cpp:100] Creating Layer conv5_2/linear/scale
I0103 17:22:08.757761 27792 net.cpp:434] conv5_2/linear/scale <- conv5_2/linear/bn
I0103 17:22:08.757768 27792 net.cpp:395] conv5_2/linear/scale -> conv5_2/linear/bn (in-place)
I0103 17:22:08.757817 27792 layer_factory.hpp:77] Creating layer conv5_2/linear/scale
I0103 17:22:08.757959 27792 net.cpp:150] Setting up conv5_2/linear/scale
I0103 17:22:08.757966 27792 net.cpp:157] Top shape: 1 96 24 24 (55296)
I0103 17:22:08.757969 27792 net.cpp:165] Memory required for data: 403933000
I0103 17:22:08.757975 27792 layer_factory.hpp:77] Creating layer block_5_2
I0103 17:22:08.757982 27792 net.cpp:100] Creating Layer block_5_2
I0103 17:22:08.757987 27792 net.cpp:434] block_5_2 <- block_5_1_block_5_1_0_split_1
I0103 17:22:08.757992 27792 net.cpp:434] block_5_2 <- conv5_2/linear/bn
I0103 17:22:08.757998 27792 net.cpp:408] block_5_2 -> block_5_2
I0103 17:22:08.758026 27792 net.cpp:150] Setting up block_5_2
I0103 17:22:08.758031 27792 net.cpp:157] Top shape: 1 96 24 24 (55296)
I0103 17:22:08.758035 27792 net.cpp:165] Memory required for data: 404154184
I0103 17:22:08.758039 27792 layer_factory.hpp:77] Creating layer block_5_2_block_5_2_0_split
I0103 17:22:08.758046 27792 net.cpp:100] Creating Layer block_5_2_block_5_2_0_split
I0103 17:22:08.758050 27792 net.cpp:434] block_5_2_block_5_2_0_split <- block_5_2
I0103 17:22:08.758055 27792 net.cpp:408] block_5_2_block_5_2_0_split -> block_5_2_block_5_2_0_split_0
I0103 17:22:08.758062 27792 net.cpp:408] block_5_2_block_5_2_0_split -> block_5_2_block_5_2_0_split_1
I0103 17:22:08.758069 27792 net.cpp:408] block_5_2_block_5_2_0_split -> block_5_2_block_5_2_0_split_2
I0103 17:22:08.758124 27792 net.cpp:150] Setting up block_5_2_block_5_2_0_split
I0103 17:22:08.758131 27792 net.cpp:157] Top shape: 1 96 24 24 (55296)
I0103 17:22:08.758136 27792 net.cpp:157] Top shape: 1 96 24 24 (55296)
I0103 17:22:08.758139 27792 net.cpp:157] Top shape: 1 96 24 24 (55296)
I0103 17:22:08.758143 27792 net.cpp:165] Memory required for data: 404817736
I0103 17:22:08.758147 27792 layer_factory.hpp:77] Creating layer conv5_3/expand
I0103 17:22:08.758155 27792 net.cpp:100] Creating Layer conv5_3/expand
I0103 17:22:08.758159 27792 net.cpp:434] conv5_3/expand <- block_5_2_block_5_2_0_split_0
I0103 17:22:08.758165 27792 net.cpp:408] conv5_3/expand -> conv5_3/expand
I0103 17:22:08.760998 27792 net.cpp:150] Setting up conv5_3/expand
I0103 17:22:08.761010 27792 net.cpp:157] Top shape: 1 576 24 24 (331776)
I0103 17:22:08.761014 27792 net.cpp:165] Memory required for data: 406144840
I0103 17:22:08.761019 27792 layer_factory.hpp:77] Creating layer conv5_3/expand/bn
I0103 17:22:08.761026 27792 net.cpp:100] Creating Layer conv5_3/expand/bn
I0103 17:22:08.761031 27792 net.cpp:434] conv5_3/expand/bn <- conv5_3/expand
I0103 17:22:08.761039 27792 net.cpp:408] conv5_3/expand/bn -> conv5_3/expand/bn
I0103 17:22:08.761303 27792 net.cpp:150] Setting up conv5_3/expand/bn
I0103 17:22:08.761309 27792 net.cpp:157] Top shape: 1 576 24 24 (331776)
I0103 17:22:08.761313 27792 net.cpp:165] Memory required for data: 407471944
I0103 17:22:08.761322 27792 layer_factory.hpp:77] Creating layer conv5_3/expand/scale
I0103 17:22:08.761328 27792 net.cpp:100] Creating Layer conv5_3/expand/scale
I0103 17:22:08.761332 27792 net.cpp:434] conv5_3/expand/scale <- conv5_3/expand/bn
I0103 17:22:08.761339 27792 net.cpp:395] conv5_3/expand/scale -> conv5_3/expand/bn (in-place)
I0103 17:22:08.761386 27792 layer_factory.hpp:77] Creating layer conv5_3/expand/scale
I0103 17:22:08.761525 27792 net.cpp:150] Setting up conv5_3/expand/scale
I0103 17:22:08.761533 27792 net.cpp:157] Top shape: 1 576 24 24 (331776)
I0103 17:22:08.761535 27792 net.cpp:165] Memory required for data: 408799048
I0103 17:22:08.761541 27792 layer_factory.hpp:77] Creating layer relu5_3/expand
I0103 17:22:08.761548 27792 net.cpp:100] Creating Layer relu5_3/expand
I0103 17:22:08.761551 27792 net.cpp:434] relu5_3/expand <- conv5_3/expand/bn
I0103 17:22:08.761559 27792 net.cpp:395] relu5_3/expand -> conv5_3/expand/bn (in-place)
I0103 17:22:08.761745 27792 net.cpp:150] Setting up relu5_3/expand
I0103 17:22:08.761754 27792 net.cpp:157] Top shape: 1 576 24 24 (331776)
I0103 17:22:08.761757 27792 net.cpp:165] Memory required for data: 410126152
I0103 17:22:08.761761 27792 layer_factory.hpp:77] Creating layer LFCN_2_5x5
I0103 17:22:08.761770 27792 net.cpp:100] Creating Layer LFCN_2_5x5
I0103 17:22:08.761775 27792 net.cpp:434] LFCN_2_5x5 <- block_5_2_block_5_2_0_split_1
I0103 17:22:08.761783 27792 net.cpp:408] LFCN_2_5x5 -> LFCN_2_5x5
I0103 17:22:08.763661 27792 net.cpp:150] Setting up LFCN_2_5x5
I0103 17:22:08.763674 27792 net.cpp:157] Top shape: 1 9 24 24 (5184)
I0103 17:22:08.763679 27792 net.cpp:165] Memory required for data: 410146888
I0103 17:22:08.763685 27792 layer_factory.hpp:77] Creating layer LFCN_2_5x5_LFCN_2_5x5_0_split
I0103 17:22:08.763691 27792 net.cpp:100] Creating Layer LFCN_2_5x5_LFCN_2_5x5_0_split
I0103 17:22:08.763696 27792 net.cpp:434] LFCN_2_5x5_LFCN_2_5x5_0_split <- LFCN_2_5x5
I0103 17:22:08.763703 27792 net.cpp:408] LFCN_2_5x5_LFCN_2_5x5_0_split -> LFCN_2_5x5_LFCN_2_5x5_0_split_0
I0103 17:22:08.763711 27792 net.cpp:408] LFCN_2_5x5_LFCN_2_5x5_0_split -> LFCN_2_5x5_LFCN_2_5x5_0_split_1
I0103 17:22:08.763756 27792 net.cpp:150] Setting up LFCN_2_5x5_LFCN_2_5x5_0_split
I0103 17:22:08.763762 27792 net.cpp:157] Top shape: 1 9 24 24 (5184)
I0103 17:22:08.763767 27792 net.cpp:157] Top shape: 1 9 24 24 (5184)
I0103 17:22:08.763770 27792 net.cpp:165] Memory required for data: 410188360
I0103 17:22:08.763774 27792 layer_factory.hpp:77] Creating layer detection_loss_2_5x5
I0103 17:22:08.763782 27792 net.cpp:100] Creating Layer detection_loss_2_5x5
I0103 17:22:08.763787 27792 net.cpp:434] detection_loss_2_5x5 <- LFCN_2_5x5_LFCN_2_5x5_0_split_0
I0103 17:22:08.763792 27792 net.cpp:434] detection_loss_2_5x5 <- label_2_5x5_data_3_split_0
I0103 17:22:08.763800 27792 net.cpp:408] detection_loss_2_5x5 -> loss_2_5x5
I0103 17:22:08.763809 27792 layer_factory.hpp:77] Creating layer detection_loss_2_5x5
I0103 17:22:08.764206 27792 net.cpp:150] Setting up detection_loss_2_5x5
I0103 17:22:08.764216 27792 net.cpp:157] Top shape: 1 1 1 2 (2)
I0103 17:22:08.764220 27792 net.cpp:160]     with loss weight 1
I0103 17:22:08.764231 27792 net.cpp:165] Memory required for data: 410188368
I0103 17:22:08.764235 27792 layer_factory.hpp:77] Creating layer detection_accuracy_2_5x5
I0103 17:22:08.764242 27792 net.cpp:100] Creating Layer detection_accuracy_2_5x5
I0103 17:22:08.764247 27792 net.cpp:434] detection_accuracy_2_5x5 <- LFCN_2_5x5_LFCN_2_5x5_0_split_1
I0103 17:22:08.764252 27792 net.cpp:434] detection_accuracy_2_5x5 <- label_2_5x5_data_3_split_1
I0103 17:22:08.764258 27792 net.cpp:408] detection_accuracy_2_5x5 -> accuracy_2_5x5
I0103 17:22:08.764266 27792 net.cpp:408] detection_accuracy_2_5x5 -> boxiou_2_5x5
I0103 17:22:08.764312 27792 net.cpp:150] Setting up detection_accuracy_2_5x5
I0103 17:22:08.764317 27792 net.cpp:157] Top shape: 1 1 1 2 (2)
I0103 17:22:08.764322 27792 net.cpp:157] Top shape: 1 1 1 1 (1)
I0103 17:22:08.764326 27792 net.cpp:165] Memory required for data: 410188380
I0103 17:22:08.764329 27792 layer_factory.hpp:77] Creating layer LFCN_2_7x7
I0103 17:22:08.764340 27792 net.cpp:100] Creating Layer LFCN_2_7x7
I0103 17:22:08.764344 27792 net.cpp:434] LFCN_2_7x7 <- block_5_2_block_5_2_0_split_2
I0103 17:22:08.764353 27792 net.cpp:408] LFCN_2_7x7 -> LFCN_2_7x7
I0103 17:22:08.766846 27792 net.cpp:150] Setting up LFCN_2_7x7
I0103 17:22:08.766861 27792 net.cpp:157] Top shape: 1 9 24 24 (5184)
I0103 17:22:08.766865 27792 net.cpp:165] Memory required for data: 410209116
I0103 17:22:08.766872 27792 layer_factory.hpp:77] Creating layer LFCN_2_7x7_LFCN_2_7x7_0_split
I0103 17:22:08.766878 27792 net.cpp:100] Creating Layer LFCN_2_7x7_LFCN_2_7x7_0_split
I0103 17:22:08.766883 27792 net.cpp:434] LFCN_2_7x7_LFCN_2_7x7_0_split <- LFCN_2_7x7
I0103 17:22:08.766890 27792 net.cpp:408] LFCN_2_7x7_LFCN_2_7x7_0_split -> LFCN_2_7x7_LFCN_2_7x7_0_split_0
I0103 17:22:08.766898 27792 net.cpp:408] LFCN_2_7x7_LFCN_2_7x7_0_split -> LFCN_2_7x7_LFCN_2_7x7_0_split_1
I0103 17:22:08.766943 27792 net.cpp:150] Setting up LFCN_2_7x7_LFCN_2_7x7_0_split
I0103 17:22:08.766949 27792 net.cpp:157] Top shape: 1 9 24 24 (5184)
I0103 17:22:08.766953 27792 net.cpp:157] Top shape: 1 9 24 24 (5184)
I0103 17:22:08.766957 27792 net.cpp:165] Memory required for data: 410250588
I0103 17:22:08.766961 27792 layer_factory.hpp:77] Creating layer detection_loss_2_7x7
I0103 17:22:08.766968 27792 net.cpp:100] Creating Layer detection_loss_2_7x7
I0103 17:22:08.766973 27792 net.cpp:434] detection_loss_2_7x7 <- LFCN_2_7x7_LFCN_2_7x7_0_split_0
I0103 17:22:08.766978 27792 net.cpp:434] detection_loss_2_7x7 <- label_2_7x7_data_4_split_0
I0103 17:22:08.766985 27792 net.cpp:408] detection_loss_2_7x7 -> loss_2_7x7
I0103 17:22:08.766993 27792 layer_factory.hpp:77] Creating layer detection_loss_2_7x7
I0103 17:22:08.767386 27792 net.cpp:150] Setting up detection_loss_2_7x7
I0103 17:22:08.767395 27792 net.cpp:157] Top shape: 1 1 1 2 (2)
I0103 17:22:08.767400 27792 net.cpp:160]     with loss weight 1
I0103 17:22:08.767405 27792 net.cpp:165] Memory required for data: 410250596
I0103 17:22:08.767410 27792 layer_factory.hpp:77] Creating layer detection_accuracy_2_7x7
I0103 17:22:08.767417 27792 net.cpp:100] Creating Layer detection_accuracy_2_7x7
I0103 17:22:08.767421 27792 net.cpp:434] detection_accuracy_2_7x7 <- LFCN_2_7x7_LFCN_2_7x7_0_split_1
I0103 17:22:08.767427 27792 net.cpp:434] detection_accuracy_2_7x7 <- label_2_7x7_data_4_split_1
I0103 17:22:08.767432 27792 net.cpp:408] detection_accuracy_2_7x7 -> accuracy_2_7x7
I0103 17:22:08.767441 27792 net.cpp:408] detection_accuracy_2_7x7 -> boxiou_2_7x7
I0103 17:22:08.767487 27792 net.cpp:150] Setting up detection_accuracy_2_7x7
I0103 17:22:08.767493 27792 net.cpp:157] Top shape: 1 1 1 2 (2)
I0103 17:22:08.767496 27792 net.cpp:157] Top shape: 1 1 1 1 (1)
I0103 17:22:08.767500 27792 net.cpp:165] Memory required for data: 410250608
I0103 17:22:08.767503 27792 layer_factory.hpp:77] Creating layer conv5_3/dwise
I0103 17:22:08.767513 27792 net.cpp:100] Creating Layer conv5_3/dwise
I0103 17:22:08.767516 27792 net.cpp:434] conv5_3/dwise <- conv5_3/expand/bn
I0103 17:22:08.767525 27792 net.cpp:408] conv5_3/dwise -> conv5_3/dwise
I0103 17:22:08.767916 27792 net.cpp:150] Setting up conv5_3/dwise
I0103 17:22:08.767923 27792 net.cpp:157] Top shape: 1 576 12 12 (82944)
I0103 17:22:08.767927 27792 net.cpp:165] Memory required for data: 410582384
I0103 17:22:08.767956 27792 layer_factory.hpp:77] Creating layer conv5_3/dwise/bn
I0103 17:22:08.767963 27792 net.cpp:100] Creating Layer conv5_3/dwise/bn
I0103 17:22:08.767968 27792 net.cpp:434] conv5_3/dwise/bn <- conv5_3/dwise
I0103 17:22:08.767973 27792 net.cpp:408] conv5_3/dwise/bn -> conv5_3/dwise/bn
I0103 17:22:08.768242 27792 net.cpp:150] Setting up conv5_3/dwise/bn
I0103 17:22:08.768249 27792 net.cpp:157] Top shape: 1 576 12 12 (82944)
I0103 17:22:08.768254 27792 net.cpp:165] Memory required for data: 410914160
I0103 17:22:08.768261 27792 layer_factory.hpp:77] Creating layer conv5_3/dwise/scale
I0103 17:22:08.782811 27792 net.cpp:100] Creating Layer conv5_3/dwise/scale
I0103 17:22:08.782846 27792 net.cpp:434] conv5_3/dwise/scale <- conv5_3/dwise/bn
I0103 17:22:08.782857 27792 net.cpp:395] conv5_3/dwise/scale -> conv5_3/dwise/bn (in-place)
I0103 17:22:08.783053 27792 layer_factory.hpp:77] Creating layer conv5_3/dwise/scale
I0103 17:22:08.783231 27792 net.cpp:150] Setting up conv5_3/dwise/scale
I0103 17:22:08.783241 27792 net.cpp:157] Top shape: 1 576 12 12 (82944)
I0103 17:22:08.783244 27792 net.cpp:165] Memory required for data: 411245936
I0103 17:22:08.783252 27792 layer_factory.hpp:77] Creating layer relu5_3/dwise
I0103 17:22:08.783259 27792 net.cpp:100] Creating Layer relu5_3/dwise
I0103 17:22:08.783263 27792 net.cpp:434] relu5_3/dwise <- conv5_3/dwise/bn
I0103 17:22:08.783270 27792 net.cpp:395] relu5_3/dwise -> conv5_3/dwise/bn (in-place)
I0103 17:22:08.784412 27792 net.cpp:150] Setting up relu5_3/dwise
I0103 17:22:08.784436 27792 net.cpp:157] Top shape: 1 576 12 12 (82944)
I0103 17:22:08.784443 27792 net.cpp:165] Memory required for data: 411577712
I0103 17:22:08.784451 27792 layer_factory.hpp:77] Creating layer conv5_3/linear
I0103 17:22:08.784476 27792 net.cpp:100] Creating Layer conv5_3/linear
I0103 17:22:08.784484 27792 net.cpp:434] conv5_3/linear <- conv5_3/dwise/bn
I0103 17:22:08.784497 27792 net.cpp:408] conv5_3/linear -> conv5_3/linear
I0103 17:22:08.794098 27792 net.cpp:150] Setting up conv5_3/linear
I0103 17:22:08.794126 27792 net.cpp:157] Top shape: 1 160 12 12 (23040)
I0103 17:22:08.794134 27792 net.cpp:165] Memory required for data: 411669872
I0103 17:22:08.794147 27792 layer_factory.hpp:77] Creating layer conv5_3/linear/bn
I0103 17:22:08.794163 27792 net.cpp:100] Creating Layer conv5_3/linear/bn
I0103 17:22:08.794173 27792 net.cpp:434] conv5_3/linear/bn <- conv5_3/linear
I0103 17:22:08.794188 27792 net.cpp:408] conv5_3/linear/bn -> conv5_3/linear/bn
I0103 17:22:08.794719 27792 net.cpp:150] Setting up conv5_3/linear/bn
I0103 17:22:08.794733 27792 net.cpp:157] Top shape: 1 160 12 12 (23040)
I0103 17:22:08.794739 27792 net.cpp:165] Memory required for data: 411762032
I0103 17:22:08.794754 27792 layer_factory.hpp:77] Creating layer conv5_3/linear/scale
I0103 17:22:08.794769 27792 net.cpp:100] Creating Layer conv5_3/linear/scale
I0103 17:22:08.794776 27792 net.cpp:434] conv5_3/linear/scale <- conv5_3/linear/bn
I0103 17:22:08.794821 27792 net.cpp:395] conv5_3/linear/scale -> conv5_3/linear/bn (in-place)
I0103 17:22:08.794911 27792 layer_factory.hpp:77] Creating layer conv5_3/linear/scale
I0103 17:22:08.795162 27792 net.cpp:150] Setting up conv5_3/linear/scale
I0103 17:22:08.795174 27792 net.cpp:157] Top shape: 1 160 12 12 (23040)
I0103 17:22:08.795181 27792 net.cpp:165] Memory required for data: 411854192
I0103 17:22:08.795192 27792 layer_factory.hpp:77] Creating layer conv5_3/linear/bn_conv5_3/linear/scale_0_split
I0103 17:22:08.795202 27792 net.cpp:100] Creating Layer conv5_3/linear/bn_conv5_3/linear/scale_0_split
I0103 17:22:08.795209 27792 net.cpp:434] conv5_3/linear/bn_conv5_3/linear/scale_0_split <- conv5_3/linear/bn
I0103 17:22:08.795222 27792 net.cpp:408] conv5_3/linear/bn_conv5_3/linear/scale_0_split -> conv5_3/linear/bn_conv5_3/linear/scale_0_split_0
I0103 17:22:08.795233 27792 net.cpp:408] conv5_3/linear/bn_conv5_3/linear/scale_0_split -> conv5_3/linear/bn_conv5_3/linear/scale_0_split_1
I0103 17:22:08.795311 27792 net.cpp:150] Setting up conv5_3/linear/bn_conv5_3/linear/scale_0_split
I0103 17:22:08.795321 27792 net.cpp:157] Top shape: 1 160 12 12 (23040)
I0103 17:22:08.795330 27792 net.cpp:157] Top shape: 1 160 12 12 (23040)
I0103 17:22:08.795336 27792 net.cpp:165] Memory required for data: 412038512
I0103 17:22:08.795342 27792 layer_factory.hpp:77] Creating layer conv6_1/expand
I0103 17:22:08.795356 27792 net.cpp:100] Creating Layer conv6_1/expand
I0103 17:22:08.795362 27792 net.cpp:434] conv6_1/expand <- conv5_3/linear/bn_conv5_3/linear/scale_0_split_0
I0103 17:22:08.795375 27792 net.cpp:408] conv6_1/expand -> conv6_1/expand
I0103 17:22:08.801313 27792 net.cpp:150] Setting up conv6_1/expand
I0103 17:22:08.801326 27792 net.cpp:157] Top shape: 1 960 12 12 (138240)
I0103 17:22:08.801331 27792 net.cpp:165] Memory required for data: 412591472
I0103 17:22:08.801337 27792 layer_factory.hpp:77] Creating layer conv6_1/expand/bn
I0103 17:22:08.801344 27792 net.cpp:100] Creating Layer conv6_1/expand/bn
I0103 17:22:08.801349 27792 net.cpp:434] conv6_1/expand/bn <- conv6_1/expand
I0103 17:22:08.801355 27792 net.cpp:408] conv6_1/expand/bn -> conv6_1/expand/bn
I0103 17:22:08.801643 27792 net.cpp:150] Setting up conv6_1/expand/bn
I0103 17:22:08.801652 27792 net.cpp:157] Top shape: 1 960 12 12 (138240)
I0103 17:22:08.801656 27792 net.cpp:165] Memory required for data: 413144432
I0103 17:22:08.801663 27792 layer_factory.hpp:77] Creating layer conv6_1/expand/scale
I0103 17:22:08.801671 27792 net.cpp:100] Creating Layer conv6_1/expand/scale
I0103 17:22:08.801676 27792 net.cpp:434] conv6_1/expand/scale <- conv6_1/expand/bn
I0103 17:22:08.801682 27792 net.cpp:395] conv6_1/expand/scale -> conv6_1/expand/bn (in-place)
I0103 17:22:08.801733 27792 layer_factory.hpp:77] Creating layer conv6_1/expand/scale
I0103 17:22:08.801877 27792 net.cpp:150] Setting up conv6_1/expand/scale
I0103 17:22:08.801884 27792 net.cpp:157] Top shape: 1 960 12 12 (138240)
I0103 17:22:08.801888 27792 net.cpp:165] Memory required for data: 413697392
I0103 17:22:08.801894 27792 layer_factory.hpp:77] Creating layer relu6_1/expand
I0103 17:22:08.801901 27792 net.cpp:100] Creating Layer relu6_1/expand
I0103 17:22:08.801905 27792 net.cpp:434] relu6_1/expand <- conv6_1/expand/bn
I0103 17:22:08.801910 27792 net.cpp:395] relu6_1/expand -> conv6_1/expand/bn (in-place)
I0103 17:22:08.802103 27792 net.cpp:150] Setting up relu6_1/expand
I0103 17:22:08.802111 27792 net.cpp:157] Top shape: 1 960 12 12 (138240)
I0103 17:22:08.802115 27792 net.cpp:165] Memory required for data: 414250352
I0103 17:22:08.802119 27792 layer_factory.hpp:77] Creating layer conv6_1/dwise
I0103 17:22:08.802129 27792 net.cpp:100] Creating Layer conv6_1/dwise
I0103 17:22:08.802132 27792 net.cpp:434] conv6_1/dwise <- conv6_1/expand/bn
I0103 17:22:08.802139 27792 net.cpp:408] conv6_1/dwise -> conv6_1/dwise
I0103 17:22:08.802649 27792 net.cpp:150] Setting up conv6_1/dwise
I0103 17:22:08.802656 27792 net.cpp:157] Top shape: 1 960 12 12 (138240)
I0103 17:22:08.802659 27792 net.cpp:165] Memory required for data: 414803312
I0103 17:22:08.802664 27792 layer_factory.hpp:77] Creating layer conv6_1/dwise/bn
I0103 17:22:08.802670 27792 net.cpp:100] Creating Layer conv6_1/dwise/bn
I0103 17:22:08.802675 27792 net.cpp:434] conv6_1/dwise/bn <- conv6_1/dwise
I0103 17:22:08.802681 27792 net.cpp:408] conv6_1/dwise/bn -> conv6_1/dwise/bn
I0103 17:22:08.802959 27792 net.cpp:150] Setting up conv6_1/dwise/bn
I0103 17:22:08.802966 27792 net.cpp:157] Top shape: 1 960 12 12 (138240)
I0103 17:22:08.802970 27792 net.cpp:165] Memory required for data: 415356272
I0103 17:22:08.802978 27792 layer_factory.hpp:77] Creating layer conv6_1/dwise/scale
I0103 17:22:08.802985 27792 net.cpp:100] Creating Layer conv6_1/dwise/scale
I0103 17:22:08.802990 27792 net.cpp:434] conv6_1/dwise/scale <- conv6_1/dwise/bn
I0103 17:22:08.802995 27792 net.cpp:395] conv6_1/dwise/scale -> conv6_1/dwise/bn (in-place)
I0103 17:22:08.803045 27792 layer_factory.hpp:77] Creating layer conv6_1/dwise/scale
I0103 17:22:08.803190 27792 net.cpp:150] Setting up conv6_1/dwise/scale
I0103 17:22:08.803196 27792 net.cpp:157] Top shape: 1 960 12 12 (138240)
I0103 17:22:08.803200 27792 net.cpp:165] Memory required for data: 415909232
I0103 17:22:08.803206 27792 layer_factory.hpp:77] Creating layer relu6_1/dwise
I0103 17:22:08.803211 27792 net.cpp:100] Creating Layer relu6_1/dwise
I0103 17:22:08.803216 27792 net.cpp:434] relu6_1/dwise <- conv6_1/dwise/bn
I0103 17:22:08.803222 27792 net.cpp:395] relu6_1/dwise -> conv6_1/dwise/bn (in-place)
I0103 17:22:08.803416 27792 net.cpp:150] Setting up relu6_1/dwise
I0103 17:22:08.803424 27792 net.cpp:157] Top shape: 1 960 12 12 (138240)
I0103 17:22:08.803428 27792 net.cpp:165] Memory required for data: 416462192
I0103 17:22:08.803432 27792 layer_factory.hpp:77] Creating layer conv6_1/linear
I0103 17:22:08.803442 27792 net.cpp:100] Creating Layer conv6_1/linear
I0103 17:22:08.803447 27792 net.cpp:434] conv6_1/linear <- conv6_1/dwise/bn
I0103 17:22:08.803452 27792 net.cpp:408] conv6_1/linear -> conv6_1/linear
I0103 17:22:08.809681 27792 net.cpp:150] Setting up conv6_1/linear
I0103 17:22:08.809695 27792 net.cpp:157] Top shape: 1 160 12 12 (23040)
I0103 17:22:08.809697 27792 net.cpp:165] Memory required for data: 416554352
I0103 17:22:08.809702 27792 layer_factory.hpp:77] Creating layer conv6_1/linear/bn
I0103 17:22:08.809708 27792 net.cpp:100] Creating Layer conv6_1/linear/bn
I0103 17:22:08.809712 27792 net.cpp:434] conv6_1/linear/bn <- conv6_1/linear
I0103 17:22:08.809720 27792 net.cpp:408] conv6_1/linear/bn -> conv6_1/linear/bn
I0103 17:22:08.810652 27792 net.cpp:150] Setting up conv6_1/linear/bn
I0103 17:22:08.810663 27792 net.cpp:157] Top shape: 1 160 12 12 (23040)
I0103 17:22:08.810667 27792 net.cpp:165] Memory required for data: 416646512
I0103 17:22:08.810674 27792 layer_factory.hpp:77] Creating layer conv6_1/linear/scale
I0103 17:22:08.810683 27792 net.cpp:100] Creating Layer conv6_1/linear/scale
I0103 17:22:08.810688 27792 net.cpp:434] conv6_1/linear/scale <- conv6_1/linear/bn
I0103 17:22:08.810693 27792 net.cpp:395] conv6_1/linear/scale -> conv6_1/linear/bn (in-place)
I0103 17:22:08.810729 27792 layer_factory.hpp:77] Creating layer conv6_1/linear/scale
I0103 17:22:08.810832 27792 net.cpp:150] Setting up conv6_1/linear/scale
I0103 17:22:08.810839 27792 net.cpp:157] Top shape: 1 160 12 12 (23040)
I0103 17:22:08.810842 27792 net.cpp:165] Memory required for data: 416738672
I0103 17:22:08.810847 27792 layer_factory.hpp:77] Creating layer block_6_1
I0103 17:22:08.810854 27792 net.cpp:100] Creating Layer block_6_1
I0103 17:22:08.810858 27792 net.cpp:434] block_6_1 <- conv5_3/linear/bn_conv5_3/linear/scale_0_split_1
I0103 17:22:08.810863 27792 net.cpp:434] block_6_1 <- conv6_1/linear/bn
I0103 17:22:08.810870 27792 net.cpp:408] block_6_1 -> block_6_1
I0103 17:22:08.810891 27792 net.cpp:150] Setting up block_6_1
I0103 17:22:08.810896 27792 net.cpp:157] Top shape: 1 160 12 12 (23040)
I0103 17:22:08.810899 27792 net.cpp:165] Memory required for data: 416830832
I0103 17:22:08.810902 27792 layer_factory.hpp:77] Creating layer block_6_1_block_6_1_0_split
I0103 17:22:08.810909 27792 net.cpp:100] Creating Layer block_6_1_block_6_1_0_split
I0103 17:22:08.810912 27792 net.cpp:434] block_6_1_block_6_1_0_split <- block_6_1
I0103 17:22:08.810917 27792 net.cpp:408] block_6_1_block_6_1_0_split -> block_6_1_block_6_1_0_split_0
I0103 17:22:08.810925 27792 net.cpp:408] block_6_1_block_6_1_0_split -> block_6_1_block_6_1_0_split_1
I0103 17:22:08.810963 27792 net.cpp:150] Setting up block_6_1_block_6_1_0_split
I0103 17:22:08.810969 27792 net.cpp:157] Top shape: 1 160 12 12 (23040)
I0103 17:22:08.810974 27792 net.cpp:157] Top shape: 1 160 12 12 (23040)
I0103 17:22:08.810977 27792 net.cpp:165] Memory required for data: 417015152
I0103 17:22:08.810981 27792 layer_factory.hpp:77] Creating layer conv6_2/expand
I0103 17:22:08.810988 27792 net.cpp:100] Creating Layer conv6_2/expand
I0103 17:22:08.810992 27792 net.cpp:434] conv6_2/expand <- block_6_1_block_6_1_0_split_0
I0103 17:22:08.810998 27792 net.cpp:408] conv6_2/expand -> conv6_2/expand
I0103 17:22:08.816138 27792 net.cpp:150] Setting up conv6_2/expand
I0103 17:22:08.816149 27792 net.cpp:157] Top shape: 1 960 12 12 (138240)
I0103 17:22:08.816152 27792 net.cpp:165] Memory required for data: 417568112
I0103 17:22:08.816157 27792 layer_factory.hpp:77] Creating layer conv6_2/expand/bn
I0103 17:22:08.816165 27792 net.cpp:100] Creating Layer conv6_2/expand/bn
I0103 17:22:08.816169 27792 net.cpp:434] conv6_2/expand/bn <- conv6_2/expand
I0103 17:22:08.816175 27792 net.cpp:408] conv6_2/expand/bn -> conv6_2/expand/bn
I0103 17:22:08.816370 27792 net.cpp:150] Setting up conv6_2/expand/bn
I0103 17:22:08.816375 27792 net.cpp:157] Top shape: 1 960 12 12 (138240)
I0103 17:22:08.816380 27792 net.cpp:165] Memory required for data: 418121072
I0103 17:22:08.816385 27792 layer_factory.hpp:77] Creating layer conv6_2/expand/scale
I0103 17:22:08.816392 27792 net.cpp:100] Creating Layer conv6_2/expand/scale
I0103 17:22:08.816396 27792 net.cpp:434] conv6_2/expand/scale <- conv6_2/expand/bn
I0103 17:22:08.816401 27792 net.cpp:395] conv6_2/expand/scale -> conv6_2/expand/bn (in-place)
I0103 17:22:08.816440 27792 layer_factory.hpp:77] Creating layer conv6_2/expand/scale
I0103 17:22:08.816545 27792 net.cpp:150] Setting up conv6_2/expand/scale
I0103 17:22:08.816551 27792 net.cpp:157] Top shape: 1 960 12 12 (138240)
I0103 17:22:08.816555 27792 net.cpp:165] Memory required for data: 418674032
I0103 17:22:08.816560 27792 layer_factory.hpp:77] Creating layer relu6_2/expand
I0103 17:22:08.816565 27792 net.cpp:100] Creating Layer relu6_2/expand
I0103 17:22:08.816570 27792 net.cpp:434] relu6_2/expand <- conv6_2/expand/bn
I0103 17:22:08.816574 27792 net.cpp:395] relu6_2/expand -> conv6_2/expand/bn (in-place)
I0103 17:22:08.817049 27792 net.cpp:150] Setting up relu6_2/expand
I0103 17:22:08.817060 27792 net.cpp:157] Top shape: 1 960 12 12 (138240)
I0103 17:22:08.817064 27792 net.cpp:165] Memory required for data: 419226992
I0103 17:22:08.817067 27792 layer_factory.hpp:77] Creating layer conv6_2/dwise
I0103 17:22:08.817076 27792 net.cpp:100] Creating Layer conv6_2/dwise
I0103 17:22:08.817080 27792 net.cpp:434] conv6_2/dwise <- conv6_2/expand/bn
I0103 17:22:08.817086 27792 net.cpp:408] conv6_2/dwise -> conv6_2/dwise
I0103 17:22:08.817783 27792 net.cpp:150] Setting up conv6_2/dwise
I0103 17:22:08.817965 27792 net.cpp:157] Top shape: 1 960 12 12 (138240)
I0103 17:22:08.817994 27792 net.cpp:165] Memory required for data: 419779952
I0103 17:22:08.818029 27792 layer_factory.hpp:77] Creating layer conv6_2/dwise/bn
I0103 17:22:08.818081 27792 net.cpp:100] Creating Layer conv6_2/dwise/bn
I0103 17:22:08.818094 27792 net.cpp:434] conv6_2/dwise/bn <- conv6_2/dwise
I0103 17:22:08.818104 27792 net.cpp:408] conv6_2/dwise/bn -> conv6_2/dwise/bn
I0103 17:22:08.818469 27792 net.cpp:150] Setting up conv6_2/dwise/bn
I0103 17:22:08.818507 27792 net.cpp:157] Top shape: 1 960 12 12 (138240)
I0103 17:22:08.818531 27792 net.cpp:165] Memory required for data: 420332912
I0103 17:22:08.818550 27792 layer_factory.hpp:77] Creating layer conv6_2/dwise/scale
I0103 17:22:08.818573 27792 net.cpp:100] Creating Layer conv6_2/dwise/scale
I0103 17:22:08.818583 27792 net.cpp:434] conv6_2/dwise/scale <- conv6_2/dwise/bn
I0103 17:22:08.818593 27792 net.cpp:395] conv6_2/dwise/scale -> conv6_2/dwise/bn (in-place)
I0103 17:22:08.818691 27792 layer_factory.hpp:77] Creating layer conv6_2/dwise/scale
I0103 17:22:08.818912 27792 net.cpp:150] Setting up conv6_2/dwise/scale
I0103 17:22:08.818924 27792 net.cpp:157] Top shape: 1 960 12 12 (138240)
I0103 17:22:08.818928 27792 net.cpp:165] Memory required for data: 420885872
I0103 17:22:08.818934 27792 layer_factory.hpp:77] Creating layer relu6_2/dwise
I0103 17:22:08.818943 27792 net.cpp:100] Creating Layer relu6_2/dwise
I0103 17:22:08.818946 27792 net.cpp:434] relu6_2/dwise <- conv6_2/dwise/bn
I0103 17:22:08.818953 27792 net.cpp:395] relu6_2/dwise -> conv6_2/dwise/bn (in-place)
I0103 17:22:08.819305 27792 net.cpp:150] Setting up relu6_2/dwise
I0103 17:22:08.819317 27792 net.cpp:157] Top shape: 1 960 12 12 (138240)
I0103 17:22:08.819324 27792 net.cpp:165] Memory required for data: 421438832
I0103 17:22:08.819329 27792 layer_factory.hpp:77] Creating layer conv6_2/linear
I0103 17:22:08.819347 27792 net.cpp:100] Creating Layer conv6_2/linear
I0103 17:22:08.819352 27792 net.cpp:434] conv6_2/linear <- conv6_2/dwise/bn
I0103 17:22:08.819360 27792 net.cpp:408] conv6_2/linear -> conv6_2/linear
I0103 17:22:08.825479 27792 net.cpp:150] Setting up conv6_2/linear
I0103 17:22:08.825520 27792 net.cpp:157] Top shape: 1 160 12 12 (23040)
I0103 17:22:08.825527 27792 net.cpp:165] Memory required for data: 421530992
I0103 17:22:08.825541 27792 layer_factory.hpp:77] Creating layer conv6_2/linear/bn
I0103 17:22:08.825556 27792 net.cpp:100] Creating Layer conv6_2/linear/bn
I0103 17:22:08.825564 27792 net.cpp:434] conv6_2/linear/bn <- conv6_2/linear
I0103 17:22:08.825572 27792 net.cpp:408] conv6_2/linear/bn -> conv6_2/linear/bn
I0103 17:22:08.825762 27792 net.cpp:150] Setting up conv6_2/linear/bn
I0103 17:22:08.825767 27792 net.cpp:157] Top shape: 1 160 12 12 (23040)
I0103 17:22:08.825770 27792 net.cpp:165] Memory required for data: 421623152
I0103 17:22:08.825778 27792 layer_factory.hpp:77] Creating layer conv6_2/linear/scale
I0103 17:22:08.825786 27792 net.cpp:100] Creating Layer conv6_2/linear/scale
I0103 17:22:08.825789 27792 net.cpp:434] conv6_2/linear/scale <- conv6_2/linear/bn
I0103 17:22:08.825795 27792 net.cpp:395] conv6_2/linear/scale -> conv6_2/linear/bn (in-place)
I0103 17:22:08.825830 27792 layer_factory.hpp:77] Creating layer conv6_2/linear/scale
I0103 17:22:08.825933 27792 net.cpp:150] Setting up conv6_2/linear/scale
I0103 17:22:08.825939 27792 net.cpp:157] Top shape: 1 160 12 12 (23040)
I0103 17:22:08.825942 27792 net.cpp:165] Memory required for data: 421715312
I0103 17:22:08.825948 27792 layer_factory.hpp:77] Creating layer block_6_2
I0103 17:22:08.825954 27792 net.cpp:100] Creating Layer block_6_2
I0103 17:22:08.825959 27792 net.cpp:434] block_6_2 <- block_6_1_block_6_1_0_split_1
I0103 17:22:08.825964 27792 net.cpp:434] block_6_2 <- conv6_2/linear/bn
I0103 17:22:08.825968 27792 net.cpp:408] block_6_2 -> block_6_2
I0103 17:22:08.825989 27792 net.cpp:150] Setting up block_6_2
I0103 17:22:08.825994 27792 net.cpp:157] Top shape: 1 160 12 12 (23040)
I0103 17:22:08.825997 27792 net.cpp:165] Memory required for data: 421807472
I0103 17:22:08.826000 27792 layer_factory.hpp:77] Creating layer block_6_2_block_6_2_0_split
I0103 17:22:08.826005 27792 net.cpp:100] Creating Layer block_6_2_block_6_2_0_split
I0103 17:22:08.826009 27792 net.cpp:434] block_6_2_block_6_2_0_split <- block_6_2
I0103 17:22:08.826014 27792 net.cpp:408] block_6_2_block_6_2_0_split -> block_6_2_block_6_2_0_split_0
I0103 17:22:08.826020 27792 net.cpp:408] block_6_2_block_6_2_0_split -> block_6_2_block_6_2_0_split_1
I0103 17:22:08.826025 27792 net.cpp:408] block_6_2_block_6_2_0_split -> block_6_2_block_6_2_0_split_2
I0103 17:22:08.826064 27792 net.cpp:150] Setting up block_6_2_block_6_2_0_split
I0103 17:22:08.826068 27792 net.cpp:157] Top shape: 1 160 12 12 (23040)
I0103 17:22:08.826072 27792 net.cpp:157] Top shape: 1 160 12 12 (23040)
I0103 17:22:08.826076 27792 net.cpp:157] Top shape: 1 160 12 12 (23040)
I0103 17:22:08.826079 27792 net.cpp:165] Memory required for data: 422083952
I0103 17:22:08.826083 27792 layer_factory.hpp:77] Creating layer conv6_3/expand
I0103 17:22:08.826090 27792 net.cpp:100] Creating Layer conv6_3/expand
I0103 17:22:08.826094 27792 net.cpp:434] conv6_3/expand <- block_6_2_block_6_2_0_split_0
I0103 17:22:08.826099 27792 net.cpp:408] conv6_3/expand -> conv6_3/expand
I0103 17:22:08.834228 27792 net.cpp:150] Setting up conv6_3/expand
I0103 17:22:08.834244 27792 net.cpp:157] Top shape: 1 960 12 12 (138240)
I0103 17:22:08.834247 27792 net.cpp:165] Memory required for data: 422636912
I0103 17:22:08.834254 27792 layer_factory.hpp:77] Creating layer conv6_3/expand/bn
I0103 17:22:08.834264 27792 net.cpp:100] Creating Layer conv6_3/expand/bn
I0103 17:22:08.834269 27792 net.cpp:434] conv6_3/expand/bn <- conv6_3/expand
I0103 17:22:08.834276 27792 net.cpp:408] conv6_3/expand/bn -> conv6_3/expand/bn
I0103 17:22:08.834470 27792 net.cpp:150] Setting up conv6_3/expand/bn
I0103 17:22:08.834475 27792 net.cpp:157] Top shape: 1 960 12 12 (138240)
I0103 17:22:08.834478 27792 net.cpp:165] Memory required for data: 423189872
I0103 17:22:08.834484 27792 layer_factory.hpp:77] Creating layer conv6_3/expand/scale
I0103 17:22:08.834491 27792 net.cpp:100] Creating Layer conv6_3/expand/scale
I0103 17:22:08.834493 27792 net.cpp:434] conv6_3/expand/scale <- conv6_3/expand/bn
I0103 17:22:08.834497 27792 net.cpp:395] conv6_3/expand/scale -> conv6_3/expand/bn (in-place)
I0103 17:22:08.834532 27792 layer_factory.hpp:77] Creating layer conv6_3/expand/scale
I0103 17:22:08.834616 27792 net.cpp:150] Setting up conv6_3/expand/scale
I0103 17:22:08.834621 27792 net.cpp:157] Top shape: 1 960 12 12 (138240)
I0103 17:22:08.834625 27792 net.cpp:165] Memory required for data: 423742832
I0103 17:22:08.834628 27792 layer_factory.hpp:77] Creating layer relu6_3/expand
I0103 17:22:08.834635 27792 net.cpp:100] Creating Layer relu6_3/expand
I0103 17:22:08.834637 27792 net.cpp:434] relu6_3/expand <- conv6_3/expand/bn
I0103 17:22:08.834641 27792 net.cpp:395] relu6_3/expand -> conv6_3/expand/bn (in-place)
I0103 17:22:08.834795 27792 net.cpp:150] Setting up relu6_3/expand
I0103 17:22:08.834802 27792 net.cpp:157] Top shape: 1 960 12 12 (138240)
I0103 17:22:08.834805 27792 net.cpp:165] Memory required for data: 424295792
I0103 17:22:08.834808 27792 layer_factory.hpp:77] Creating layer conv6_3/dwise
I0103 17:22:08.834815 27792 net.cpp:100] Creating Layer conv6_3/dwise
I0103 17:22:08.834818 27792 net.cpp:434] conv6_3/dwise <- conv6_3/expand/bn
I0103 17:22:08.834823 27792 net.cpp:408] conv6_3/dwise -> conv6_3/dwise
I0103 17:22:08.835216 27792 net.cpp:150] Setting up conv6_3/dwise
I0103 17:22:08.835222 27792 net.cpp:157] Top shape: 1 960 12 12 (138240)
I0103 17:22:08.835225 27792 net.cpp:165] Memory required for data: 424848752
I0103 17:22:08.835230 27792 layer_factory.hpp:77] Creating layer conv6_3/dwise/bn
I0103 17:22:08.835237 27792 net.cpp:100] Creating Layer conv6_3/dwise/bn
I0103 17:22:08.835240 27792 net.cpp:434] conv6_3/dwise/bn <- conv6_3/dwise
I0103 17:22:08.835245 27792 net.cpp:408] conv6_3/dwise/bn -> conv6_3/dwise/bn
I0103 17:22:08.835427 27792 net.cpp:150] Setting up conv6_3/dwise/bn
I0103 17:22:08.835433 27792 net.cpp:157] Top shape: 1 960 12 12 (138240)
I0103 17:22:08.835435 27792 net.cpp:165] Memory required for data: 425401712
I0103 17:22:08.835443 27792 layer_factory.hpp:77] Creating layer conv6_3/dwise/scale
I0103 17:22:08.835448 27792 net.cpp:100] Creating Layer conv6_3/dwise/scale
I0103 17:22:08.835451 27792 net.cpp:434] conv6_3/dwise/scale <- conv6_3/dwise/bn
I0103 17:22:08.835456 27792 net.cpp:395] conv6_3/dwise/scale -> conv6_3/dwise/bn (in-place)
I0103 17:22:08.835494 27792 layer_factory.hpp:77] Creating layer conv6_3/dwise/scale
I0103 17:22:08.835593 27792 net.cpp:150] Setting up conv6_3/dwise/scale
I0103 17:22:08.835599 27792 net.cpp:157] Top shape: 1 960 12 12 (138240)
I0103 17:22:08.835602 27792 net.cpp:165] Memory required for data: 425954672
I0103 17:22:08.835608 27792 layer_factory.hpp:77] Creating layer relu6_3/dwise
I0103 17:22:08.835611 27792 net.cpp:100] Creating Layer relu6_3/dwise
I0103 17:22:08.835615 27792 net.cpp:434] relu6_3/dwise <- conv6_3/dwise/bn
I0103 17:22:08.835620 27792 net.cpp:395] relu6_3/dwise -> conv6_3/dwise/bn (in-place)
I0103 17:22:08.836107 27792 net.cpp:150] Setting up relu6_3/dwise
I0103 17:22:08.836117 27792 net.cpp:157] Top shape: 1 960 12 12 (138240)
I0103 17:22:08.836119 27792 net.cpp:165] Memory required for data: 426507632
I0103 17:22:08.836123 27792 layer_factory.hpp:77] Creating layer conv6_3/linear
I0103 17:22:08.836133 27792 net.cpp:100] Creating Layer conv6_3/linear
I0103 17:22:08.836136 27792 net.cpp:434] conv6_3/linear <- conv6_3/dwise/bn
I0103 17:22:08.836141 27792 net.cpp:408] conv6_3/linear -> conv6_3/linear
I0103 17:22:08.844069 27792 net.cpp:150] Setting up conv6_3/linear
I0103 17:22:08.844082 27792 net.cpp:157] Top shape: 1 320 12 12 (46080)
I0103 17:22:08.844086 27792 net.cpp:165] Memory required for data: 426691952
I0103 17:22:08.844092 27792 layer_factory.hpp:77] Creating layer conv6_3/linear/bn
I0103 17:22:08.844099 27792 net.cpp:100] Creating Layer conv6_3/linear/bn
I0103 17:22:08.844105 27792 net.cpp:434] conv6_3/linear/bn <- conv6_3/linear
I0103 17:22:08.844111 27792 net.cpp:408] conv6_3/linear/bn -> conv6_3/linear/bn
I0103 17:22:08.844329 27792 net.cpp:150] Setting up conv6_3/linear/bn
I0103 17:22:08.844336 27792 net.cpp:157] Top shape: 1 320 12 12 (46080)
I0103 17:22:08.844341 27792 net.cpp:165] Memory required for data: 426876272
I0103 17:22:08.844348 27792 layer_factory.hpp:77] Creating layer conv6_3/linear/scale
I0103 17:22:08.844355 27792 net.cpp:100] Creating Layer conv6_3/linear/scale
I0103 17:22:08.844359 27792 net.cpp:434] conv6_3/linear/scale <- conv6_3/linear/bn
I0103 17:22:08.844367 27792 net.cpp:395] conv6_3/linear/scale -> conv6_3/linear/bn (in-place)
I0103 17:22:08.844410 27792 layer_factory.hpp:77] Creating layer conv6_3/linear/scale
I0103 17:22:08.844529 27792 net.cpp:150] Setting up conv6_3/linear/scale
I0103 17:22:08.844537 27792 net.cpp:157] Top shape: 1 320 12 12 (46080)
I0103 17:22:08.844540 27792 net.cpp:165] Memory required for data: 427060592
I0103 17:22:08.844547 27792 layer_factory.hpp:77] Creating layer LFCN_3_5x5
I0103 17:22:08.844557 27792 net.cpp:100] Creating Layer LFCN_3_5x5
I0103 17:22:08.844563 27792 net.cpp:434] LFCN_3_5x5 <- block_6_2_block_6_2_0_split_1
I0103 17:22:08.844569 27792 net.cpp:408] LFCN_3_5x5 -> LFCN_3_5x5
I0103 17:22:08.847120 27792 net.cpp:150] Setting up LFCN_3_5x5
I0103 17:22:08.847132 27792 net.cpp:157] Top shape: 1 9 12 12 (1296)
I0103 17:22:08.847136 27792 net.cpp:165] Memory required for data: 427065776
I0103 17:22:08.847143 27792 layer_factory.hpp:77] Creating layer LFCN_3_5x5_LFCN_3_5x5_0_split
I0103 17:22:08.847151 27792 net.cpp:100] Creating Layer LFCN_3_5x5_LFCN_3_5x5_0_split
I0103 17:22:08.847156 27792 net.cpp:434] LFCN_3_5x5_LFCN_3_5x5_0_split <- LFCN_3_5x5
I0103 17:22:08.847162 27792 net.cpp:408] LFCN_3_5x5_LFCN_3_5x5_0_split -> LFCN_3_5x5_LFCN_3_5x5_0_split_0
I0103 17:22:08.847172 27792 net.cpp:408] LFCN_3_5x5_LFCN_3_5x5_0_split -> LFCN_3_5x5_LFCN_3_5x5_0_split_1
I0103 17:22:08.847208 27792 net.cpp:150] Setting up LFCN_3_5x5_LFCN_3_5x5_0_split
I0103 17:22:08.847213 27792 net.cpp:157] Top shape: 1 9 12 12 (1296)
I0103 17:22:08.847218 27792 net.cpp:157] Top shape: 1 9 12 12 (1296)
I0103 17:22:08.847221 27792 net.cpp:165] Memory required for data: 427076144
I0103 17:22:08.847225 27792 layer_factory.hpp:77] Creating layer detection_loss_3_5x5
I0103 17:22:08.847232 27792 net.cpp:100] Creating Layer detection_loss_3_5x5
I0103 17:22:08.847237 27792 net.cpp:434] detection_loss_3_5x5 <- LFCN_3_5x5_LFCN_3_5x5_0_split_0
I0103 17:22:08.847242 27792 net.cpp:434] detection_loss_3_5x5 <- label_3_5x5_data_5_split_0
I0103 17:22:08.847250 27792 net.cpp:408] detection_loss_3_5x5 -> loss_3_5x5
I0103 17:22:08.847259 27792 layer_factory.hpp:77] Creating layer detection_loss_3_5x5
I0103 17:22:08.847620 27792 net.cpp:150] Setting up detection_loss_3_5x5
I0103 17:22:08.847630 27792 net.cpp:157] Top shape: 1 1 1 2 (2)
I0103 17:22:08.847633 27792 net.cpp:160]     with loss weight 1
I0103 17:22:08.847645 27792 net.cpp:165] Memory required for data: 427076152
I0103 17:22:08.847648 27792 layer_factory.hpp:77] Creating layer detection_accuracy_3_5x5
I0103 17:22:08.847656 27792 net.cpp:100] Creating Layer detection_accuracy_3_5x5
I0103 17:22:08.847661 27792 net.cpp:434] detection_accuracy_3_5x5 <- LFCN_3_5x5_LFCN_3_5x5_0_split_1
I0103 17:22:08.847666 27792 net.cpp:434] detection_accuracy_3_5x5 <- label_3_5x5_data_5_split_1
I0103 17:22:08.847673 27792 net.cpp:408] detection_accuracy_3_5x5 -> accuracy_3_5x5
I0103 17:22:08.847681 27792 net.cpp:408] detection_accuracy_3_5x5 -> boxiou_3_5x5
I0103 17:22:08.847719 27792 net.cpp:150] Setting up detection_accuracy_3_5x5
I0103 17:22:08.847724 27792 net.cpp:157] Top shape: 1 1 1 2 (2)
I0103 17:22:08.847729 27792 net.cpp:157] Top shape: 1 1 1 1 (1)
I0103 17:22:08.847733 27792 net.cpp:165] Memory required for data: 427076164
I0103 17:22:08.847736 27792 layer_factory.hpp:77] Creating layer LFCN_3_7x7
I0103 17:22:08.847745 27792 net.cpp:100] Creating Layer LFCN_3_7x7
I0103 17:22:08.847750 27792 net.cpp:434] LFCN_3_7x7 <- block_6_2_block_6_2_0_split_2
I0103 17:22:08.847757 27792 net.cpp:408] LFCN_3_7x7 -> LFCN_3_7x7
I0103 17:22:08.851251 27792 net.cpp:150] Setting up LFCN_3_7x7
I0103 17:22:08.851269 27792 net.cpp:157] Top shape: 1 9 12 12 (1296)
I0103 17:22:08.851274 27792 net.cpp:165] Memory required for data: 427081348
I0103 17:22:08.851285 27792 layer_factory.hpp:77] Creating layer LFCN_3_7x7_LFCN_3_7x7_0_split
I0103 17:22:08.851294 27792 net.cpp:100] Creating Layer LFCN_3_7x7_LFCN_3_7x7_0_split
I0103 17:22:08.851299 27792 net.cpp:434] LFCN_3_7x7_LFCN_3_7x7_0_split <- LFCN_3_7x7
I0103 17:22:08.851307 27792 net.cpp:408] LFCN_3_7x7_LFCN_3_7x7_0_split -> LFCN_3_7x7_LFCN_3_7x7_0_split_0
I0103 17:22:08.851315 27792 net.cpp:408] LFCN_3_7x7_LFCN_3_7x7_0_split -> LFCN_3_7x7_LFCN_3_7x7_0_split_1
I0103 17:22:08.851356 27792 net.cpp:150] Setting up LFCN_3_7x7_LFCN_3_7x7_0_split
I0103 17:22:08.851363 27792 net.cpp:157] Top shape: 1 9 12 12 (1296)
I0103 17:22:08.851369 27792 net.cpp:157] Top shape: 1 9 12 12 (1296)
I0103 17:22:08.851372 27792 net.cpp:165] Memory required for data: 427091716
I0103 17:22:08.851377 27792 layer_factory.hpp:77] Creating layer detection_loss_3_7x7
I0103 17:22:08.851383 27792 net.cpp:100] Creating Layer detection_loss_3_7x7
I0103 17:22:08.851387 27792 net.cpp:434] detection_loss_3_7x7 <- LFCN_3_7x7_LFCN_3_7x7_0_split_0
I0103 17:22:08.851392 27792 net.cpp:434] detection_loss_3_7x7 <- label_3_7x7_data_6_split_0
I0103 17:22:08.851402 27792 net.cpp:408] detection_loss_3_7x7 -> loss_3_7x7
I0103 17:22:08.851411 27792 layer_factory.hpp:77] Creating layer detection_loss_3_7x7
I0103 17:22:08.851785 27792 net.cpp:150] Setting up detection_loss_3_7x7
I0103 17:22:08.851794 27792 net.cpp:157] Top shape: 1 1 1 2 (2)
I0103 17:22:08.851799 27792 net.cpp:160]     with loss weight 1
I0103 17:22:08.851812 27792 net.cpp:165] Memory required for data: 427091724
I0103 17:22:08.851817 27792 layer_factory.hpp:77] Creating layer detection_accuracy_3_7x7
I0103 17:22:08.851824 27792 net.cpp:100] Creating Layer detection_accuracy_3_7x7
I0103 17:22:08.851828 27792 net.cpp:434] detection_accuracy_3_7x7 <- LFCN_3_7x7_LFCN_3_7x7_0_split_1
I0103 17:22:08.851835 27792 net.cpp:434] detection_accuracy_3_7x7 <- label_3_7x7_data_6_split_1
I0103 17:22:08.851841 27792 net.cpp:408] detection_accuracy_3_7x7 -> accuracy_3_7x7
I0103 17:22:08.851850 27792 net.cpp:408] detection_accuracy_3_7x7 -> boxiou_3_7x7
I0103 17:22:08.851888 27792 net.cpp:150] Setting up detection_accuracy_3_7x7
I0103 17:22:08.851894 27792 net.cpp:157] Top shape: 1 1 1 2 (2)
I0103 17:22:08.851899 27792 net.cpp:157] Top shape: 1 1 1 1 (1)
I0103 17:22:08.851902 27792 net.cpp:165] Memory required for data: 427091736
I0103 17:22:08.851907 27792 layer_factory.hpp:77] Creating layer pool6
I0103 17:22:08.851912 27792 net.cpp:100] Creating Layer pool6
I0103 17:22:08.851917 27792 net.cpp:434] pool6 <- conv6_3/linear/bn
I0103 17:22:08.851922 27792 net.cpp:408] pool6 -> pool6
I0103 17:22:08.851966 27792 net.cpp:150] Setting up pool6
I0103 17:22:08.851972 27792 net.cpp:157] Top shape: 1 320 6 6 (11520)
I0103 17:22:08.851976 27792 net.cpp:165] Memory required for data: 427137816
I0103 17:22:08.851980 27792 layer_factory.hpp:77] Creating layer LFCN_4_5x5
I0103 17:22:08.851991 27792 net.cpp:100] Creating Layer LFCN_4_5x5
I0103 17:22:08.851996 27792 net.cpp:434] LFCN_4_5x5 <- pool6
I0103 17:22:08.852002 27792 net.cpp:408] LFCN_4_5x5 -> LFCN_4_5x5
I0103 17:22:08.855451 27792 net.cpp:150] Setting up LFCN_4_5x5
I0103 17:22:08.855465 27792 net.cpp:157] Top shape: 1 9 6 6 (324)
I0103 17:22:08.855469 27792 net.cpp:165] Memory required for data: 427139112
I0103 17:22:08.855479 27792 layer_factory.hpp:77] Creating layer LFCN_4_5x5_LFCN_4_5x5_0_split
I0103 17:22:08.855487 27792 net.cpp:100] Creating Layer LFCN_4_5x5_LFCN_4_5x5_0_split
I0103 17:22:08.855492 27792 net.cpp:434] LFCN_4_5x5_LFCN_4_5x5_0_split <- LFCN_4_5x5
I0103 17:22:08.855499 27792 net.cpp:408] LFCN_4_5x5_LFCN_4_5x5_0_split -> LFCN_4_5x5_LFCN_4_5x5_0_split_0
I0103 17:22:08.855507 27792 net.cpp:408] LFCN_4_5x5_LFCN_4_5x5_0_split -> LFCN_4_5x5_LFCN_4_5x5_0_split_1
I0103 17:22:08.855548 27792 net.cpp:150] Setting up LFCN_4_5x5_LFCN_4_5x5_0_split
I0103 17:22:08.855554 27792 net.cpp:157] Top shape: 1 9 6 6 (324)
I0103 17:22:08.855559 27792 net.cpp:157] Top shape: 1 9 6 6 (324)
I0103 17:22:08.855563 27792 net.cpp:165] Memory required for data: 427141704
I0103 17:22:08.855567 27792 layer_factory.hpp:77] Creating layer detection_loss_4_5x5
I0103 17:22:08.855576 27792 net.cpp:100] Creating Layer detection_loss_4_5x5
I0103 17:22:08.855579 27792 net.cpp:434] detection_loss_4_5x5 <- LFCN_4_5x5_LFCN_4_5x5_0_split_0
I0103 17:22:08.855584 27792 net.cpp:434] detection_loss_4_5x5 <- label_4_5x5_data_7_split_0
I0103 17:22:08.855590 27792 net.cpp:408] detection_loss_4_5x5 -> loss_4_5x5
I0103 17:22:08.855599 27792 layer_factory.hpp:77] Creating layer detection_loss_4_5x5
I0103 17:22:08.855973 27792 net.cpp:150] Setting up detection_loss_4_5x5
I0103 17:22:08.855981 27792 net.cpp:157] Top shape: 1 1 1 2 (2)
I0103 17:22:08.855984 27792 net.cpp:160]     with loss weight 1
I0103 17:22:08.855991 27792 net.cpp:165] Memory required for data: 427141712
I0103 17:22:08.855994 27792 layer_factory.hpp:77] Creating layer detection_accuracy_4_5x5
I0103 17:22:08.856000 27792 net.cpp:100] Creating Layer detection_accuracy_4_5x5
I0103 17:22:08.856003 27792 net.cpp:434] detection_accuracy_4_5x5 <- LFCN_4_5x5_LFCN_4_5x5_0_split_1
I0103 17:22:08.856009 27792 net.cpp:434] detection_accuracy_4_5x5 <- label_4_5x5_data_7_split_1
I0103 17:22:08.856014 27792 net.cpp:408] detection_accuracy_4_5x5 -> accuracy_4_5x5
I0103 17:22:08.856021 27792 net.cpp:408] detection_accuracy_4_5x5 -> boxiou_4_5x5
I0103 17:22:08.856053 27792 net.cpp:150] Setting up detection_accuracy_4_5x5
I0103 17:22:08.856058 27792 net.cpp:157] Top shape: 1 1 1 2 (2)
I0103 17:22:08.856062 27792 net.cpp:157] Top shape: 1 1 1 1 (1)
I0103 17:22:08.856065 27792 net.cpp:165] Memory required for data: 427141724
I0103 17:22:08.856068 27792 net.cpp:228] detection_accuracy_4_5x5 does not need backward computation.
I0103 17:22:08.856072 27792 net.cpp:226] detection_loss_4_5x5 needs backward computation.
I0103 17:22:08.856076 27792 net.cpp:226] LFCN_4_5x5_LFCN_4_5x5_0_split needs backward computation.
I0103 17:22:08.856079 27792 net.cpp:226] LFCN_4_5x5 needs backward computation.
…
