…
    downsample_rate: 32
    downsample_rate: 32
    downsample_rate: 64
    coord_num: 4
    field_h: 60
    field_h: 84
    field_h: 120
    field_h: 168
    field_h: 240
    field_h: 336
    field_h: 480
    field_w: 60
    field_w: 84
    field_w: 120
    field_w: 168
    field_w: 240
    field_w: 336
    field_w: 480
    fg_threshold: 0.5
    resize_width: 1344
    resize_height: 768
    crop_width: 768
    crop_height: 768
    do_multiple_scale: true
    min_scale: 60
    max_scale: 480
    min_gt_height: 25
    shuffle: true
    output_gt_boxes: true
  }
}
layer {
  name: "slice"
  type: "Slice"
  bottom: "data"
  top: "data123"
  top: "ch4"
  slice_param {
    slice_point: 3
    axis: 1
  }
}
layer {
  name: "conv1_1"
  type: "Convolution"
  bottom: "data123"
  top: "conv1_1"
  param {
    lr_mult: 0
    decay_mult: 0
  }
  param {
    lr_mult: 0
    decay_mult: 0
  }
  convolution_param {
    num_output: 64
    pad: 1
    kernel_size: 3
  }
}
layer {
  name: "relu1_1"
  type: "ReLU"
  bottom: "conv1_1"
  top: "conv1_1"
}
layer {
  name: "conv1_2"
  type: "Convolution"
  bottom: "conv1_1"
  top: "conv1_2"
  param {
    lr_mult: 0
    decay_mult: 0
  }
  param {
    lr_mult: 0
    decay_mult: 0
  }
  convolution_param {
    num_output: 64
    pad: 1
    kernel_size: 3
  }
}
layer {
  name: "relu1_2"
  type: "ReLU"
  bottom: "conv1_2"
  top: "conv1_2"
}
layer {
  name: "pool1"
  type: "Pooling"
  bottom: "conv1_2"
  top: "pool1"
  pooling_param {
    pool: MAX
    kernel_size: 2
    stride: 2
  }
}
layer {
  name: "conv2_1"
  type: "Convolution"
  bottom: "pool1"
  top: "conv2_1"
  param {
    lr_mult: 0
    decay_mult: 0
  }
  param {
    lr_mult: 0
    decay_mult: 0
  }
  convolution_param {
    num_output: 128
    pad: 1
    kernel_size: 3
  }
}
layer {
  name: "relu2_1"
  type: "ReLU"
  bottom: "conv2_1"
  top: "conv2_1"
}
layer {
  name: "conv2_2"
  type: "Convolution"
  bottom: "conv2_1"
  top: "conv2_2"
  param {
    lr_mult: 0
    decay_mult: 0
  }
  param {
    lr_mult: 0
    decay_mult: 0
  }
  convolution_param {
    num_output: 128
    pad: 1
    kernel_size: 3
  }
}
layer {
  name: "relu2_2"
  type: "ReLU"
  bottom: "conv2_2"
  top: "conv2_2"
}
layer {
  name: "pool2"
  type: "Pooling"
  bottom: "conv2_2"
  top: "pool2"
  pooling_param {
    pool: MAX
    kernel_size: 2
    stride: 2
  }
}
layer {
  name: "conv3_1"
  type: "Convolution"
  bottom: "pool2"
  top: "conv3_1"
  convolution_param {
    num_output: 256
    pad: 1
    kernel_size: 3
  }
}
layer {
  name: "relu3_1"
  type: "ReLU"
  bottom: "conv3_1"
  top: "conv3_1"
}
layer {
  name: "conv3_2"
  type: "Convolution"
  bottom: "conv3_1"
  top: "conv3_2"
  convolution_param {
    num_output: 256
    pad: 1
    kernel_size: 3
  }
}
layer {
  name: "relu3_2"
  type: "ReLU"
  bottom: "conv3_2"
  top: "conv3_2"
}
layer {
  name: "conv3_3"
  type: "Convolution"
  bottom: "conv3_2"
  top: "conv3_3"
  convolution_param {
    num_output: 256
    pad: 1
    kernel_size: 3
  }
}
layer {
  name: "relu3_3"
  type: "ReLU"
  bottom: "conv3_3"
  top: "conv3_3"
}
layer {
  name: "pool3"
  type: "Pooling"
  bottom: "conv3_3"
  top: "pool3"
  pooling_param {
    pool: MAX
    kernel_size: 2
    stride: 2
  }
}
layer {
  name: "conv4_1"
  type: "Convolution"
  bottom: "pool3"
  top: "conv4_1"
  convolution_param {
    num_output: 512
    pad: 1
    kernel_size: 3
  }
}
layer {
  name: "relu4_1"
  type: "ReLU"
  bottom: "conv4_1"
  top: "conv4_1"
}
layer {
  name: "conv4_2"
  type: "Convolution"
  bottom: "conv4_1"
  top: "conv4_2"
  convolution_param {
    num_output: 512
    pad: 1
    kernel_size: 3
  }
}
layer {
  name: "relu4_2"
  type: "ReLU"
  bottom: "conv4_2"
  top: "conv4_2"
}
layer {
  name: "conv4_3"
  type: "Convolution"
  bottom: "conv4_2"
  top: "conv4_3"
  convolution_param {
    num_output: 512
    pad: 1
    kernel_size: 3
  }
}
layer {
  name: "relu4_3"
  type: "ReLU"
  bottom: "conv4_3"
  top: "conv4_3"
}
layer {
  name: "loss1_conv1"
  type: "Convolution"
  bottom: "conv4_3"
  top: "loss1_conv1"
  param {
    lr_mult: 1
    decay_mult: 1
  }
  param {
    lr_mult: 2
    decay_mult: 0
  }
  convolution_param {
    num_output: 512
    pad: 1
    kernel_size: 3
    weight_filler {
      type: "gaussian"
      std: 0.01
    }
    bias_filler {
      type: "constant"
    }
  }
}
layer {
  name: "loss_relu1"
  type: "ReLU"
  bottom: "loss1_conv1"
  top: "loss1_conv1"
}
layer {
  name: "LFCN_1_5x5"
  type: "Convolution"
  bottom: "loss1_conv1"
  top: "LFCN_1_5x5"
  param {
    lr_mult: 1
    decay_mult: 1
  }
  param {
    lr_mult: 2
    decay_mult: 0
  }
  convolution_param {
    num_output: 9
    pad: 2
    kernel_size: 5
    weight_filler {
      type: "gaussian"
      std: 0.001
    }
    bias_filler {
      type: "constant"
    }
  }
}
layer {
  name: "detection_loss_1_5x5"
  type: "DetectionLoss"
  bottom: "LFCN_1_5x5"
  bottom: "label_1_5x5"
  top: "loss_1_5x5"
  loss_weight: 0.9
  detection_loss_param {
    cls_num: 5
    coord_num: 4
    lambda: 1
    field_h: 60
    field_w: 60
    downsample_rate: 8
    bb_smooth: true
    field_whr: 2
    field_xyr: 2
    bg_threshold: 0.2
    bg_multiple: 2
    sample_mode: "bootstrap"
    pos_neg_weighted: true
  }
}
layer {
  name: "detection_accuracy_1_5x5"
  type: "DetectionAccuracy"
  bottom: "LFCN_1_5x5"
  bottom: "label_1_5x5"
  top: "accuracy_1_5x5"
  top: "boxiou_1_5x5"
  detection_accuracy_param {
    cls_num: 5
    coord_num: 4
    field_h: 60
    field_w: 60
    downsample_rate: 8
    field_whr: 2
    field_xyr: 2
  }
}
layer {
  name: "LFCN_1_7x7"
  type: "Convolution"
  bottom: "loss1_conv1"
  top: "LFCN_1_7x7"
  param {
    lr_mult: 1
    decay_mult: 1
  }
  param {
    lr_mult: 2
    decay_mult: 0
  }
  convolution_param {
    num_output: 9
    pad: 3
    kernel_size: 7
    weight_filler {
      type: "gaussian"
      std: 0.001
    }
    bias_filler {
      type: "constant"
    }
  }
}
layer {
  name: "detection_loss_1_7x7"
  type: "DetectionLoss"
  bottom: "LFCN_1_7x7"
  bottom: "label_1_7x7"
  top: "loss_1_7x7"
  loss_weight: 0.9
  detection_loss_param {
    cls_num: 5
    coord_num: 4
    lambda: 1
    field_h: 84
    field_w: 84
    downsample_rate: 8
    bb_smooth: true
    field_whr: 2
    field_xyr: 2
    bg_threshold: 0.2
    bg_multiple: 2
    sample_mode: "bootstrap"
    pos_neg_weighted: true
  }
}
layer {
  name: "detection_accuracy_1_7x7"
  type: "DetectionAccuracy"
  bottom: "LFCN_1_7x7"
  bottom: "label_1_7x7"
  top: "accuracy_1_7x7"
  top: "boxiou_1_7x7"
  detection_accuracy_param {
    cls_num: 5
    coord_num: 4
    field_h: 84
    field_w: 84
    downsample_rate: 8
    field_whr: 2
    field_xyr: 2
  }
}
layer {
  name: "pool4"
  type: "Pooling"
  bottom: "conv4_3"
  top: "pool4"
  pooling_param {
    pool: MAX
    kernel_size: 2
    stride: 2
  }
}
layer {
  name: "conv5_1"
  type: "Convolution"
  bottom: "pool4"
  top: "conv5_1"
  convolution_param {
    num_output: 512
    pad: 1
    kernel_size: 3
  }
}
layer {
  name: "relu5_1"
  type: "ReLU"
  bottom: "conv5_1"
  top: "conv5_1"
}
layer {
  name: "conv5_2"
  type: "Convolution"
  bottom: "conv5_1"
  top: "conv5_2"
  convolution_param {
    num_output: 512
    pad: 1
    kernel_size: 3
  }
}
layer {
  name: "relu5_2"
  type: "ReLU"
  bottom: "conv5_2"
  top: "conv5_2"
}
layer {
  name: "conv5_3"
  type: "Convolution"
  bottom: "conv5_2"
  top: "conv5_3"
  convolution_param {
    num_output: 512
    pad: 1
    kernel_size: 3
  }
}
layer {
  name: "relu5_3"
  type: "ReLU"
  bottom: "conv5_3"
  top: "conv5_3"
}
layer {
  name: "LFCN_2_5x5"
  type: "Convolution"
  bottom: "conv5_3"
  top: "LFCN_2_5x5"
  param {
    lr_mult: 1
    decay_mult: 1
  }
  param {
    lr_mult: 2
    decay_mult: 0
  }
  convolution_param {
    num_output: 9
    pad: 2
    kernel_size: 5
    weight_filler {
      type: "gaussian"
      std: 0.001
    }
    bias_filler {
      type: "constant"
    }
  }
}
layer {
  name: "detection_loss_2_5x5"
  type: "DetectionLoss"
  bottom: "LFCN_2_5x5"
  bottom: "label_2_5x5"
  top: "loss_2_5x5"
  detection_loss_param {
    cls_num: 5
    coord_num: 4
    lambda: 1
    field_h: 120
    field_w: 120
    downsample_rate: 16
    bb_smooth: true
    field_whr: 2
    field_xyr: 2
    bg_threshold: 0.2
    bg_multiple: 2
    sample_mode: "bootstrap"
    pos_neg_weighted: true
  }
}
layer {
  name: "detection_accuracy_2_5x5"
  type: "DetectionAccuracy"
  bottom: "LFCN_2_5x5"
  bottom: "label_2_5x5"
  top: "accuracy_2_5x5"
  top: "boxiou_2_5x5"
  detection_accuracy_param {
    cls_num: 5
    coord_num: 4
    field_h: 120
    field_w: 120
    downsample_rate: 16
    field_whr: 2
    field_xyr: 2
  }
}
layer {
  name: "LFCN_2_7x7"
  type: "Convolution"
  bottom: "conv5_3"
  top: "LFCN_2_7x7"
  param {
    lr_mult: 1
    decay_mult: 1
  }
  param {
    lr_mult: 2
    decay_mult: 0
  }
  convolution_param {
    num_output: 9
    pad: 3
    kernel_size: 7
    weight_filler {
      type: "gaussian"
      std: 0.001
    }
    bias_filler {
      type: "constant"
    }
  }
}
layer {
  name: "detection_loss_2_7x7"
  type: "DetectionLoss"
  bottom: "LFCN_2_7x7"
  bottom: "label_2_7x7"
  top: "loss_2_7x7"
  detection_loss_param {
    cls_num: 5
    coord_num: 4
    lambda: 1
    field_h: 168
    field_w: 168
    downsample_rate: 16
    bb_smooth: true
    field_whr: 2
    field_xyr: 2
    bg_threshold: 0.2
    bg_multiple: 2
    sample_mode: "bootstrap"
    pos_neg_weighted: true
  }
}
layer {
  name: "detection_accuracy_2_7x7"
  type: "DetectionAccuracy"
  bottom: "LFCN_2_7x7"
  bottom: "label_2_7x7"
  top: "accuracy_2_7x7"
  top: "boxiou_2_7x7"
  detection_accuracy_param {
    cls_num: 5
    coord_num: 4
    field_h: 168
    field_w: 168
    downsample_rate: 16
    field_whr: 2
    field_xyr: 2
  }
}
layer {
  name: "pool5"
  type: "Pooling"
  bottom: "conv5_3"
  top: "pool5"
  pooling_param {
    pool: MAX
    kernel_size: 2
    stride: 2
  }
}
layer {
  name: "ch4_pool5"
  type: "Pooling"
  bottom: "ch4"
  top: "ch4_pool5"
  pooling_param {
    pool: MAX
    kernel_size: 32
    stride: 32
  }
}
layer {
  name: "pool5_concat"
  type: "Concat"
  bottom: "pool5"
  bottom: "ch4_pool5"
  top: "pool5_new"
}
layer {
  name: "conv6_1_new"
  type: "Convolution"
  bottom: "pool5_new"
  top: "conv6_1"
  param {
    lr_mult: 1
    decay_mult: 1
  }
  param {
    lr_mult: 2
    decay_mult: 0
  }
  convolution_param {
    num_output: 512
    pad: 1
    kernel_size: 3
    weight_filler {
      type: "gaussian"
      std: 0.01
    }
    bias_filler {
      type: "constant"
    }
  }
}
layer {
  name: "relu6_1"
  type: "ReLU"
  bottom: "conv6_1"
  top: "conv6_1"
}
layer {
  name: "LFCN_3_5x5"
  type: "Convolution"
  bottom: "conv6_1"
  top: "LFCN_3_5x5"
  param {
    lr_mult: 1
    decay_mult: 1
  }
  param {
    lr_mult: 2
    decay_mult: 0
  }
  convolution_param {
    num_output: 9
    pad: 2
    kernel_size: 5
    weight_filler {
      type: "gaussian"
      std: 0.001
    }
    bias_filler {
      type: "constant"
    }
  }
}
layer {
  name: "detection_loss_3_5x5"
  type: "DetectionLoss"
  bottom: "LFCN_3_5x5"
  bottom: "label_3_5x5"
  top: "loss_3_5x5"
  detection_loss_param {
    cls_num: 5
    coord_num: 4
    lambda: 1
    field_h: 240
    field_w: 240
    downsample_rate: 32
    bb_smooth: true
    field_whr: 2
    field_xyr: 2
    bg_threshold: 0.2
    bg_multiple: 2
    sample_mode: "bootstrap"
    pos_neg_weighted: true
  }
}
layer {
  name: "detection_accuracy_3_5x5"
  type: "DetectionAccuracy"
  bottom: "LFCN_3_5x5"
  bottom: "label_3_5x5"
  top: "accuracy_3_5x5"
  top: "boxiou_3_5x5"
  detection_accuracy_param {
    cls_num: 5
    coord_num: 4
    field_h: 240
    field_w: 240
    downsample_rate: 32
    field_whr: 2
    field_xyr: 2
  }
}
layer {
  name: "LFCN_3_7x7"
  type: "Convolution"
  bottom: "conv6_1"
  top: "LFCN_3_7x7"
  param {
    lr_mult: 1
    decay_mult: 1
  }
  param {
    lr_mult: 2
    decay_mult: 0
  }
  convolution_param {
    num_output: 9
    pad: 3
    kernel_size: 7
    weight_filler {
      type: "gaussian"
      std: 0.001
    }
    bias_filler {
      type: "constant"
    }
  }
}
layer {
  name: "detection_loss_3_7x7"
  type: "DetectionLoss"
  bottom: "LFCN_3_7x7"
  bottom: "label_3_7x7"
  top: "loss_3_7x7"
  detection_loss_param {
    cls_num: 5
    coord_num: 4
    lambda: 1
    field_h: 336
    field_w: 336
    downsample_rate: 32
    bb_smooth: true
    field_whr: 2
    field_xyr: 2
    bg_threshold: 0.2
    bg_multiple: 2
    sample_mode: "bootstrap"
    pos_neg_weighted: true
  }
}
layer {
  name: "detection_accuracy_3_7x7"
  type: "DetectionAccuracy"
  bottom: "LFCN_3_7x7"
  bottom: "label_3_7x7"
  top: "accuracy_3_7x7"
  top: "boxiou_3_7x7"
  detection_accuracy_param {
    cls_num: 5
    coord_num: 4
    field_h: 336
    field_w: 336
    downsample_rate: 32
    field_whr: 2
    field_xyr: 2
  }
}
layer {
  name: "pool6"
  type: "Pooling"
  bottom: "conv6_1"
  top: "pool6"
  pooling_param {
    pool: MAX
    kernel_size: 2
    stride: 2
  }
}
layer {
  name: "LFCN_4_5x5"
  type: "Convolution"
  bottom: "pool6"
  top: "LFCN_4_5x5"
  param {
    lr_mult: 1
    decay_mult: 1
  }
  param {
    lr_mult: 2
    decay_mult: 0
  }
  convolution_param {
    num_output: 9
    pad: 2
    kernel_size: 5
    weight_filler {
      type: "gaussian"
      std: 0.001
    }
    bias_filler {
      type: "constant"
    }
  }
}
layer {
  name: "detection_loss_4_5x5"
  type: "DetectionLoss"
  bottom: "LFCN_4_5x5"
  bottom: "label_4_5x5"
  top: "loss_4_5x5"
  detection_loss_param {
    cls_num: 5
    coord_num: 4
    lambda: 1
    field_h: 480
    field_w: 480
    downsample_rate: 64
    bb_smooth: true
    field_whr: 2
    field_xyr: 2
    bg_threshold: 0.2
    bg_multiple: 2
    sample_mode: "bootstrap"
    pos_neg_weighted: true
  }
}
layer {
  name: "detection_accuracy_4_5x5"
  type: "DetectionAccuracy"
  bottom: "LFCN_4_5x5"
  bottom: "label_4_5x5"
  top: "accuracy_4_5x5"
  top: "boxiou_4_5x5"
  detection_accuracy_param {
    cls_num: 5
    coord_num: 4
    field_h: 480
    field_w: 480
    downsample_rate: 64
    field_whr: 2
    field_xyr: 2
  }
}
layer {
  name: "proposals"
  type: "BoxOutput"
  bottom: "LFCN_1_5x5"
  bottom: "LFCN_1_7x7"
  bottom: "LFCN_2_5x5"
  bottom: "LFCN_2_7x7"
  bottom: "LFCN_3_5x5"
  bottom: "LFCN_3_7x7"
  bottom: "LFCN_4_5x5"
  top: "proposals"
  propagate_down: false
  propagate_down: false
  propagate_down: false
  propagate_down: false
  propagate_down: false
  propagate_down: false
  propagate_down: false
  box_output_param {
    fg_thr: -8
    iou_thr: 0.65
    nms_type: "IOU"
    field_h: 60
    field_h: 84
    field_h: 120
    field_h: 168
    field_h: 240
    field_h: 336
    field_h: 480
    field_w: 60
    field_w: 84
    field_w: 120
    field_w: 168
    field_w: 240
    field_w: 336
    field_w: 480
    downsample_rate: 8
    downsample_rate: 8
    downsample_rate: 16
    downsample_rate: 16
    downsample_rate: 32
    downsample_rate: 32
    downsample_rate: 64
    field_whr: 2
    field_xyr: 2
    max_nms_num: 3000
  }
}
layer {
  name: "proposal_info"
  type: "ProposalTarget"
  bottom: "proposals"
  bottom: "gt_boxes"
  top: "rois"
  top: "proposal_labels"
  top: "proposal_targets"
  top: "box_inside_weights"
  top: "box_outside_weights"
  top: "match_gt_boxes"
  include {
    phase: TRAIN
  }
  propagate_down: false
  propagate_down: false
  proposal_target_param {
    cls_num: 5
    batch_size: 256
    fg_fraction: 0.25
    num_img_per_batch: 4
    fg_thr: 0.5
    bg_thr_hg: 0.49
    bg_thr_lw: 0.1
    img_width: 768
    img_height: 576
  }
  bbox_reg_param {
    bbox_mean: 0
    bbox_mean: 0
    bbox_mean: 0
    bbox_mean: 0
    bbox_std: 0.1
    bbox_std: 0.1
    bbox_std: 0.2
    bbox_std: 0.2
  }
}
layer {
  name: "conv4_3_2x"
  type: "Deconvolution"
  bottom: "conv4_3"
  top: "conv4_3_2x"
  param {
    lr_mult: 0
    decay_mult: 0
  }
  convolution_param {
    num_output: 512
    bias_term: false
    pad: 1
    kernel_size: 4
    group: 512
    stride: 2
    weight_filler {
      type: "bilinear"
    }
  }
}
layer {
  name: "roi_pool_org"
  type: "ROIPooling"
  bottom: "conv4_3_2x"
  bottom: "rois"
  top: "roi_pool_org"
  roi_pooling_param {
    pooled_h: 7
    pooled_w: 7
    spatial_scale: 0.25
    pad_ratio: 0
  }
}
layer {
  name: "roi_pool_ctx"
  type: "ROIPooling"
  bottom: "conv4_3_2x"
  bottom: "rois"
  top: "roi_pool_ctx"
  roi_pooling_param {
    pooled_h: 7
    pooled_w: 7
    spatial_scale: 0.25
    pad_ratio: 0.25
  }
}
layer {
  name: "roi_pool"
  type: "Concat"
  bottom: "roi_pool_org"
  bottom: "roi_pool_ctx"
  top: "roi_pool"
}
layer {
  name: "roi_c1"
  type: "Convolution"
  bottom: "roi_pool"
  top: "roi_c1"
  param {
    lr_mult: 1
    decay_mult: 1
  }
  param {
    lr_mult: 2
    decay_mult: 0
  }
  convolution_param {
    num_output: 512
    kernel_size: 3
    weight_filler {
      type: "gaussian"
      std: 0.01
    }
    bias_filler {
      type: "constant"
    }
  }
}
layer {
  name: "roi_c1_relu"
  type: "ReLU"
  bottom: "roi_c1"
  top: "roi_c1"
}
layer {
  name: "fc6"
  type: "InnerProduct"
  bottom: "roi_c1"
  top: "fc6"
  param {
    lr_mult: 1
  }
  param {
    lr_mult: 2
  }
  inner_product_param {
    num_output: 4096
    weight_filler {
      type: "gaussian"
      std: 0.001
    }
    bias_filler {
      type: "constant"
      value: 0
    }
  }
}
layer {
  name: "relu6"
  type: "ReLU"
  bottom: "fc6"
  top: "fc6"
}
layer {
  name: "drop6"
  type: "Dropout"
  bottom: "fc6"
  top: "fc6"
  dropout_param {
    dropout_ratio: 0.5
  }
}
layer {
  name: "cls_pred"
  type: "InnerProduct"
  bottom: "fc6"
  top: "cls_pred"
  param {
    lr_mult: 1
  }
  param {
    lr_mult: 2
  }
  inner_product_param {
    num_output: 5
    weight_filler {
      type: "gaussian"
      std: 0.01
    }
    bias_filler {
      type: "constant"
      value: 0
    }
  }
}
layer {
  name: "bbox_pred"
  type: "InnerProduct"
  bottom: "fc6"
  top: "bbox_pred"
  param {
    lr_mult: 1
  }
  param {
    lr_mult: 2
  }
  inner_product_param {
    num_output: 20
    weight_filler {
      type: "gaussian"
      std: 0.001
    }
    bias_filler {
      type: "constant"
      value: 0
    }
  }
}
layer {
  name: "loss_cls"
  type: "SoftmaxWithLoss"
  bottom: "cls_pred"
  bottom: "proposal_labels"
  top: "loss_cls"
  loss_weight: 1
  propagate_down: true
  propagate_down: false
}
layer {
  name: "cls_accuracy"
  type: "Accuracy"
  bottom: "cls_pred"
  bottom: "proposal_labels"
  top: "cls_accuracy"
}
layer {
  name: "loss_bbox"
  type: "SmoothL1Loss"
  bottom: "bbox_pred"
  bottom: "proposal_targets"
  bottom: "box_inside_weights"
  bottom: "box_outside_weights"
  top: "loss_bbox"
  loss_weight: 1
}
layer {
  name: "bbox_iou"
  type: "BboxAccuracy"
  bottom: "bbox_pred"
  bottom: "rois"
  bottom: "match_gt_boxes"
  top: "bbox_iou"
  top: "bbox_iou_pre"
  bbox_reg_param {
    bbox_mean: 0
    bbox_mean: 0
    bbox_mean: 0
    bbox_mean: 0
    bbox_std: 0.1
    bbox_std: 0.1
    bbox_std: 0.2
    bbox_std: 0.2
  }
}
I0323 12:58:47.338101 18712 layer_factory.hpp:77] Creating layer data
I0323 12:58:47.338198 18712 net.cpp:100] Creating Layer data
I0323 12:58:47.338212 18712 net.cpp:408] data -> data
…
I0323 12:58:47.364883 18712 image_gt_data_layer.cpp:235] output label size 2 : 3,6,48,48
I0323 12:58:47.364917 18712 image_gt_data_layer.cpp:235] output label size 3 : 3,6,48,48
I0323 12:58:47.364953 18712 image_gt_data_layer.cpp:235] output label size 4 : 3,6,24,24
I0323 12:58:47.364989 18712 image_gt_data_layer.cpp:235] output label size 5 : 3,6,24,24
I0323 12:58:47.365025 18712 image_gt_data_layer.cpp:235] output label size 6 : 3,6,12,12
I0323 12:58:47.365059 18712 image_gt_data_layer.cpp:250] output gt boxes size: 1,7,1,1
I0323 12:58:47.418478 18712 net.cpp:150] Setting up data
I0323 12:58:47.418584 18712 net.cpp:157] Top shape: 3 4 768 768 (7077888)
I0323 12:58:47.418597 18712 net.cpp:157] Top shape: 3 6 96 96 (165888)
I0323 12:58:47.418607 18712 net.cpp:157] Top shape: 3 6 96 96 (165888)
I0323 12:58:47.418615 18712 net.cpp:157] Top shape: 3 6 48 48 (41472)
I0323 12:58:47.418624 18712 net.cpp:157] Top shape: 3 6 48 48 (41472)
I0323 12:58:47.418633 18712 net.cpp:157] Top shape: 3 6 24 24 (10368)
I0323 12:58:47.418642 18712 net.cpp:157] Top shape: 3 6 24 24 (10368)
I0323 12:58:47.418673 18712 net.cpp:157] Top shape: 3 6 12 12 (2592)
I0323 12:58:47.418684 18712 net.cpp:157] Top shape: 1 7 1 1 (7)
I0323 12:58:47.418692 18712 net.cpp:165] Memory required for data: 30063772
I0323 12:58:47.418711 18712 layer_factory.hpp:77] Creating layer label_1_5x5_data_1_split
I0323 12:58:47.418748 18712 net.cpp:100] Creating Layer label_1_5x5_data_1_split
I0323 12:58:47.418763 18712 net.cpp:434] label_1_5x5_data_1_split <- label_1_5x5
I0323 12:58:47.418790 18712 net.cpp:408] label_1_5x5_data_1_split -> label_1_5x5_data_1_split_0
I0323 12:58:47.418808 18712 net.cpp:408] label_1_5x5_data_1_split -> label_1_5x5_data_1_split_1
I0323 12:58:47.419122 18712 net.cpp:150] Setting up label_1_5x5_data_1_split
I0323 12:58:47.419167 18712 net.cpp:157] Top shape: 3 6 96 96 (165888)
I0323 12:58:47.419173 18712 net.cpp:157] Top shape: 3 6 96 96 (165888)
I0323 12:58:47.419178 18712 net.cpp:165] Memory required for data: 31390876
I0323 12:58:47.419186 18712 layer_factory.hpp:77] Creating layer label_1_7x7_data_2_split
I0323 12:58:47.419204 18712 net.cpp:100] Creating Layer label_1_7x7_data_2_split
I0323 12:58:47.419210 18712 net.cpp:434] label_1_7x7_data_2_split <- label_1_7x7
I0323 12:58:47.419219 18712 net.cpp:408] label_1_7x7_data_2_split -> label_1_7x7_data_2_split_0
I0323 12:58:47.419230 18712 net.cpp:408] label_1_7x7_data_2_split -> label_1_7x7_data_2_split_1
I0323 12:58:47.419265 18712 net.cpp:150] Setting up label_1_7x7_data_2_split
I0323 12:58:47.419271 18712 net.cpp:157] Top shape: 3 6 96 96 (165888)
I0323 12:58:47.419276 18712 net.cpp:157] Top shape: 3 6 96 96 (165888)
I0323 12:58:47.419281 18712 net.cpp:165] Memory required for data: 32717980
I0323 12:58:47.419284 18712 layer_factory.hpp:77] Creating layer label_2_5x5_data_3_split
I0323 12:58:47.419291 18712 net.cpp:100] Creating Layer label_2_5x5_data_3_split
I0323 12:58:47.419296 18712 net.cpp:434] label_2_5x5_data_3_split <- label_2_5x5
I0323 12:58:47.419301 18712 net.cpp:408] label_2_5x5_data_3_split -> label_2_5x5_data_3_split_0
I0323 12:58:47.419306 18712 net.cpp:408] label_2_5x5_data_3_split -> label_2_5x5_data_3_split_1
I0323 12:58:47.419334 18712 net.cpp:150] Setting up label_2_5x5_data_3_split
I0323 12:58:47.419342 18712 net.cpp:157] Top shape: 3 6 48 48 (41472)
I0323 12:58:47.419347 18712 net.cpp:157] Top shape: 3 6 48 48 (41472)
I0323 12:58:47.419350 18712 net.cpp:165] Memory required for data: 33049756
I0323 12:58:47.419354 18712 layer_factory.hpp:77] Creating layer label_2_7x7_data_4_split
I0323 12:58:47.419363 18712 net.cpp:100] Creating Layer label_2_7x7_data_4_split
I0323 12:58:47.419368 18712 net.cpp:434] label_2_7x7_data_4_split <- label_2_7x7
I0323 12:58:47.419375 18712 net.cpp:408] label_2_7x7_data_4_split -> label_2_7x7_data_4_split_0
I0323 12:58:47.419384 18712 net.cpp:408] label_2_7x7_data_4_split -> label_2_7x7_data_4_split_1
I0323 12:58:47.419417 18712 net.cpp:150] Setting up label_2_7x7_data_4_split
I0323 12:58:47.419425 18712 net.cpp:157] Top shape: 3 6 48 48 (41472)
I0323 12:58:47.419431 18712 net.cpp:157] Top shape: 3 6 48 48 (41472)
I0323 12:58:47.419435 18712 net.cpp:165] Memory required for data: 33381532
I0323 12:58:47.419438 18712 layer_factory.hpp:77] Creating layer label_3_5x5_data_5_split
I0323 12:58:47.419443 18712 net.cpp:100] Creating Layer label_3_5x5_data_5_split
I0323 12:58:47.419447 18712 net.cpp:434] label_3_5x5_data_5_split <- label_3_5x5
I0323 12:58:47.419453 18712 net.cpp:408] label_3_5x5_data_5_split -> label_3_5x5_data_5_split_0
I0323 12:58:47.419459 18712 net.cpp:408] label_3_5x5_data_5_split -> label_3_5x5_data_5_split_1
I0323 12:58:47.419487 18712 net.cpp:150] Setting up label_3_5x5_data_5_split
I0323 12:58:47.419493 18712 net.cpp:157] Top shape: 3 6 24 24 (10368)
I0323 12:58:47.419498 18712 net.cpp:157] Top shape: 3 6 24 24 (10368)
I0323 12:58:47.419502 18712 net.cpp:165] Memory required for data: 33464476
I0323 12:58:47.419505 18712 layer_factory.hpp:77] Creating layer label_3_7x7_data_6_split
I0323 12:58:47.419510 18712 net.cpp:100] Creating Layer label_3_7x7_data_6_split
I0323 12:58:47.419514 18712 net.cpp:434] label_3_7x7_data_6_split <- label_3_7x7
I0323 12:58:47.419520 18712 net.cpp:408] label_3_7x7_data_6_split -> label_3_7x7_data_6_split_0
I0323 12:58:47.419528 18712 net.cpp:408] label_3_7x7_data_6_split -> label_3_7x7_data_6_split_1
I0323 12:58:47.419555 18712 net.cpp:150] Setting up label_3_7x7_data_6_split
I0323 12:58:47.419562 18712 net.cpp:157] Top shape: 3 6 24 24 (10368)
I0323 12:58:47.419567 18712 net.cpp:157] Top shape: 3 6 24 24 (10368)
I0323 12:58:47.419570 18712 net.cpp:165] Memory required for data: 33547420
I0323 12:58:47.419574 18712 layer_factory.hpp:77] Creating layer label_4_5x5_data_7_split
I0323 12:58:47.419579 18712 net.cpp:100] Creating Layer label_4_5x5_data_7_split
I0323 12:58:47.419584 18712 net.cpp:434] label_4_5x5_data_7_split <- label_4_5x5
I0323 12:58:47.419589 18712 net.cpp:408] label_4_5x5_data_7_split -> label_4_5x5_data_7_split_0
I0323 12:58:47.419595 18712 net.cpp:408] label_4_5x5_data_7_split -> label_4_5x5_data_7_split_1
I0323 12:58:47.419622 18712 net.cpp:150] Setting up label_4_5x5_data_7_split
I0323 12:58:47.419628 18712 net.cpp:157] Top shape: 3 6 12 12 (2592)
I0323 12:58:47.419633 18712 net.cpp:157] Top shape: 3 6 12 12 (2592)
I0323 12:58:47.419637 18712 net.cpp:165] Memory required for data: 33568156
I0323 12:58:47.419641 18712 layer_factory.hpp:77] Creating layer slice
I0323 12:58:47.419656 18712 net.cpp:100] Creating Layer slice
I0323 12:58:47.419661 18712 net.cpp:434] slice <- data
I0323 12:58:47.419667 18712 net.cpp:408] slice -> data123
I0323 12:58:47.419677 18712 net.cpp:408] slice -> ch4
I0323 12:58:47.419708 18712 net.cpp:150] Setting up slice
I0323 12:58:47.419715 18712 net.cpp:157] Top shape: 3 3 768 768 (5308416)
I0323 12:58:47.419720 18712 net.cpp:157] Top shape: 3 1 768 768 (1769472)
I0323 12:58:47.419723 18712 net.cpp:165] Memory required for data: 61879708
I0323 12:58:47.419728 18712 layer_factory.hpp:77] Creating layer conv1_1
I0323 12:58:47.419741 18712 net.cpp:100] Creating Layer conv1_1
I0323 12:58:47.419746 18712 net.cpp:434] conv1_1 <- data123
I0323 12:58:47.419752 18712 net.cpp:408] conv1_1 -> conv1_1
I0323 12:58:47.670687 18712 net.cpp:150] Setting up conv1_1
I0323 12:58:47.670722 18712 net.cpp:157] Top shape: 3 64 768 768 (113246208)
I0323 12:58:47.670728 18712 net.cpp:165] Memory required for data: 514864540
I0323 12:58:47.670748 18712 layer_factory.hpp:77] Creating layer relu1_1
I0323 12:58:47.670763 18712 net.cpp:100] Creating Layer relu1_1
I0323 12:58:47.670770 18712 net.cpp:434] relu1_1 <- conv1_1
I0323 12:58:47.670776 18712 net.cpp:395] relu1_1 -> conv1_1 (in-place)
I0323 12:58:47.671006 18712 net.cpp:150] Setting up relu1_1
I0323 12:58:47.671015 18712 net.cpp:157] Top shape: 3 64 768 768 (113246208)
I0323 12:58:47.671020 18712 net.cpp:165] Memory required for data: 967849372
I0323 12:58:47.671023 18712 layer_factory.hpp:77] Creating layer conv1_2
I0323 12:58:47.671034 18712 net.cpp:100] Creating Layer conv1_2
I0323 12:58:47.671038 18712 net.cpp:434] conv1_2 <- conv1_1
I0323 12:58:47.671044 18712 net.cpp:408] conv1_2 -> conv1_2
I0323 12:58:47.675261 18712 net.cpp:150] Setting up conv1_2
I0323 12:58:47.675293 18712 net.cpp:157] Top shape: 3 64 768 768 (113246208)
I0323 12:58:47.675298 18712 net.cpp:165] Memory required for data: 1420834204
I0323 12:58:47.675313 18712 layer_factory.hpp:77] Creating layer relu1_2
I0323 12:58:47.675326 18712 net.cpp:100] Creating Layer relu1_2
I0323 12:58:47.675333 18712 net.cpp:434] relu1_2 <- conv1_2
I0323 12:58:47.675339 18712 net.cpp:395] relu1_2 -> conv1_2 (in-place)
I0323 12:58:47.675501 18712 net.cpp:150] Setting up relu1_2
I0323 12:58:47.675510 18712 net.cpp:157] Top shape: 3 64 768 768 (113246208)
I0323 12:58:47.675514 18712 net.cpp:165] Memory required for data: 1873819036
I0323 12:58:47.675518 18712 layer_factory.hpp:77] Creating layer pool1
I0323 12:58:47.675525 18712 net.cpp:100] Creating Layer pool1
I0323 12:58:47.675529 18712 net.cpp:434] pool1 <- conv1_2
I0323 12:58:47.675535 18712 net.cpp:408] pool1 -> pool1
I0323 12:58:47.675585 18712 net.cpp:150] Setting up pool1
I0323 12:58:47.675590 18712 net.cpp:157] Top shape: 3 64 384 384 (28311552)
I0323 12:58:47.675595 18712 net.cpp:165] Memory required for data: 1987065244
I0323 12:58:47.675597 18712 layer_factory.hpp:77] Creating layer conv2_1
I0323 12:58:47.675608 18712 net.cpp:100] Creating Layer conv2_1
I0323 12:58:47.675611 18712 net.cpp:434] conv2_1 <- pool1
I0323 12:58:47.675616 18712 net.cpp:408] conv2_1 -> conv2_1
I0323 12:58:47.677776 18712 net.cpp:150] Setting up conv2_1
I0323 12:58:47.677789 18712 net.cpp:157] Top shape: 3 128 384 384 (56623104)
I0323 12:58:47.677793 18712 net.cpp:165] Memory required for data: 2213557660
I0323 12:58:47.677803 18712 layer_factory.hpp:77] Creating layer relu2_1
I0323 12:58:47.677810 18712 net.cpp:100] Creating Layer relu2_1
I0323 12:58:47.677814 18712 net.cpp:434] relu2_1 <- conv2_1
I0323 12:58:47.677819 18712 net.cpp:395] relu2_1 -> conv2_1 (in-place)
I0323 12:58:47.678019 18712 net.cpp:150] Setting up relu2_1
I0323 12:58:47.678027 18712 net.cpp:157] Top shape: 3 128 384 384 (56623104)
I0323 12:58:47.678031 18712 net.cpp:165] Memory required for data: 2440050076
I0323 12:58:47.678035 18712 layer_factory.hpp:77] Creating layer conv2_2
I0323 12:58:47.678047 18712 net.cpp:100] Creating Layer conv2_2
I0323 12:58:47.678056 18712 net.cpp:434] conv2_2 <- conv2_1
I0323 12:58:47.678062 18712 net.cpp:408] conv2_2 -> conv2_2
I0323 12:58:47.679546 18712 net.cpp:150] Setting up conv2_2
I0323 12:58:47.679558 18712 net.cpp:157] Top shape: 3 128 384 384 (56623104)
I0323 12:58:47.679563 18712 net.cpp:165] Memory required for data: 2666542492
I0323 12:58:47.679569 18712 layer_factory.hpp:77] Creating layer relu2_2
I0323 12:58:47.679574 18712 net.cpp:100] Creating Layer relu2_2
I0323 12:58:47.679579 18712 net.cpp:434] relu2_2 <- conv2_2
I0323 12:58:47.679584 18712 net.cpp:395] relu2_2 -> conv2_2 (in-place)
I0323 12:58:47.679740 18712 net.cpp:150] Setting up relu2_2
I0323 12:58:47.679749 18712 net.cpp:157] Top shape: 3 128 384 384 (56623104)
I0323 12:58:47.679754 18712 net.cpp:165] Memory required for data: 2893034908
I0323 12:58:47.679756 18712 layer_factory.hpp:77] Creating layer pool2
I0323 12:58:47.679764 18712 net.cpp:100] Creating Layer pool2
I0323 12:58:47.679767 18712 net.cpp:434] pool2 <- conv2_2
I0323 12:58:47.679774 18712 net.cpp:408] pool2 -> pool2
I0323 12:58:47.679807 18712 net.cpp:150] Setting up pool2
I0323 12:58:47.679814 18712 net.cpp:157] Top shape: 3 128 192 192 (14155776)
I0323 12:58:47.679818 18712 net.cpp:165] Memory required for data: 2949658012
I0323 12:58:47.679821 18712 layer_factory.hpp:77] Creating layer conv3_1
I0323 12:58:47.679828 18712 net.cpp:100] Creating Layer conv3_1
I0323 12:58:47.679833 18712 net.cpp:434] conv3_1 <- pool2
I0323 12:58:47.679837 18712 net.cpp:408] conv3_1 -> conv3_1
I0323 12:58:47.682183 18712 net.cpp:150] Setting up conv3_1
I0323 12:58:47.682198 18712 net.cpp:157] Top shape: 3 256 192 192 (28311552)
I0323 12:58:47.682201 18712 net.cpp:165] Memory required for data: 3062904220
I0323 12:58:47.682212 18712 layer_factory.hpp:77] Creating layer relu3_1
I0323 12:58:47.682220 18712 net.cpp:100] Creating Layer relu3_1
I0323 12:58:47.682225 18712 net.cpp:434] relu3_1 <- conv3_1
I0323 12:58:47.682230 18712 net.cpp:395] relu3_1 -> conv3_1 (in-place)
I0323 12:58:47.682683 18712 net.cpp:150] Setting up relu3_1
I0323 12:58:47.682695 18712 net.cpp:157] Top shape: 3 256 192 192 (28311552)
I0323 12:58:47.682698 18712 net.cpp:165] Memory required for data: 3176150428
I0323 12:58:47.682703 18712 layer_factory.hpp:77] Creating layer conv3_2
I0323 12:58:47.682710 18712 net.cpp:100] Creating Layer conv3_2
I0323 12:58:47.682715 18712 net.cpp:434] conv3_2 <- conv3_1
I0323 12:58:47.682721 18712 net.cpp:408] conv3_2 -> conv3_2
I0323 12:58:47.686475 18712 net.cpp:150] Setting up conv3_2
I0323 12:58:47.686533 18712 net.cpp:157] Top shape: 3 256 192 192 (28311552)
I0323 12:58:47.686540 18712 net.cpp:165] Memory required for data: 3289396636
I0323 12:58:47.686560 18712 layer_factory.hpp:77] Creating layer relu3_2
I0323 12:58:47.686583 18712 net.cpp:100] Creating Layer relu3_2
I0323 12:58:47.686594 18712 net.cpp:434] relu3_2 <- conv3_2
I0323 12:58:47.686605 18712 net.cpp:395] relu3_2 -> conv3_2 (in-place)
I0323 12:58:47.687191 18712 net.cpp:150] Setting up relu3_2
I0323 12:58:47.687202 18712 net.cpp:157] Top shape: 3 256 192 192 (28311552)
I0323 12:58:47.687206 18712 net.cpp:165] Memory required for data: 3402642844
I0323 12:58:47.687211 18712 layer_factory.hpp:77] Creating layer conv3_3
I0323 12:58:47.687219 18712 net.cpp:100] Creating Layer conv3_3
I0323 12:58:47.687223 18712 net.cpp:434] conv3_3 <- conv3_2
I0323 12:58:47.687228 18712 net.cpp:408] conv3_3 -> conv3_3
I0323 12:58:47.691107 18712 net.cpp:150] Setting up conv3_3
I0323 12:58:47.691150 18712 net.cpp:157] Top shape: 3 256 192 192 (28311552)
I0323 12:58:47.691161 18712 net.cpp:165] Memory required for data: 3515889052
I0323 12:58:47.691184 18712 layer_factory.hpp:77] Creating layer relu3_3
I0323 12:58:47.691207 18712 net.cpp:100] Creating Layer relu3_3
I0323 12:58:47.691221 18712 net.cpp:434] relu3_3 <- conv3_3
I0323 12:58:47.691241 18712 net.cpp:395] relu3_3 -> conv3_3 (in-place)
I0323 12:58:47.691690 18712 net.cpp:150] Setting up relu3_3
I0323 12:58:47.691710 18712 net.cpp:157] Top shape: 3 256 192 192 (28311552)
I0323 12:58:47.691720 18712 net.cpp:165] Memory required for data: 3629135260
I0323 12:58:47.691730 18712 layer_factory.hpp:77] Creating layer pool3
I0323 12:58:47.691745 18712 net.cpp:100] Creating Layer pool3
I0323 12:58:47.691757 18712 net.cpp:434] pool3 <- conv3_3
I0323 12:58:47.691771 18712 net.cpp:408] pool3 -> pool3
I0323 12:58:47.691871 18712 net.cpp:150] Setting up pool3
I0323 12:58:47.691885 18712 net.cpp:157] Top shape: 3 256 96 96 (7077888)
I0323 12:58:47.691893 18712 net.cpp:165] Memory required for data: 3657446812
I0323 12:58:47.691902 18712 layer_factory.hpp:77] Creating layer conv4_1
I0323 12:58:47.691920 18712 net.cpp:100] Creating Layer conv4_1
I0323 12:58:47.691931 18712 net.cpp:434] conv4_1 <- pool3
I0323 12:58:47.691942 18712 net.cpp:408] conv4_1 -> conv4_1
I0323 12:58:47.701648 18712 net.cpp:150] Setting up conv4_1
I0323 12:58:47.701689 18712 net.cpp:157] Top shape: 3 512 96 96 (14155776)
I0323 12:58:47.701700 18712 net.cpp:165] Memory required for data: 3714069916
I0323 12:58:47.701722 18712 layer_factory.hpp:77] Creating layer relu4_1
I0323 12:58:47.701741 18712 net.cpp:100] Creating Layer relu4_1
I0323 12:58:47.701755 18712 net.cpp:434] relu4_1 <- conv4_1
I0323 12:58:47.701771 18712 net.cpp:395] relu4_1 -> conv4_1 (in-place)
I0323 12:58:47.702258 18712 net.cpp:150] Setting up relu4_1
I0323 12:58:47.702282 18712 net.cpp:157] Top shape: 3 512 96 96 (14155776)
I0323 12:58:47.702291 18712 net.cpp:165] Memory required for data: 3770693020
I0323 12:58:47.702301 18712 layer_factory.hpp:77] Creating layer conv4_2
I0323 12:58:47.702319 18712 net.cpp:100] Creating Layer conv4_2
I0323 12:58:47.702332 18712 net.cpp:434] conv4_2 <- conv4_1
I0323 12:58:47.702347 18712 net.cpp:408] conv4_2 -> conv4_2
I0323 12:58:47.710899 18712 net.cpp:150] Setting up conv4_2
I0323 12:58:47.710930 18712 net.cpp:157] Top shape: 3 512 96 96 (14155776)
I0323 12:58:47.710935 18712 net.cpp:165] Memory required for data: 3827316124
I0323 12:58:47.710950 18712 layer_factory.hpp:77] Creating layer relu4_2
I0323 12:58:47.710964 18712 net.cpp:100] Creating Layer relu4_2
I0323 12:58:47.710971 18712 net.cpp:434] relu4_2 <- conv4_2
I0323 12:58:47.710979 18712 net.cpp:395] relu4_2 -> conv4_2 (in-place)
I0323 12:58:47.711167 18712 net.cpp:150] Setting up relu4_2
I0323 12:58:47.711177 18712 net.cpp:157] Top shape: 3 512 96 96 (14155776)
I0323 12:58:47.711184 18712 net.cpp:165] Memory required for data: 3883939228
I0323 12:58:47.711187 18712 layer_factory.hpp:77] Creating layer conv4_3
I0323 12:58:47.711197 18712 net.cpp:100] Creating Layer conv4_3
I0323 12:58:47.711202 18712 net.cpp:434] conv4_3 <- conv4_2
I0323 12:58:47.711210 18712 net.cpp:408] conv4_3 -> conv4_3
I0323 12:58:47.717509 18712 net.cpp:150] Setting up conv4_3
I0323 12:58:47.717540 18712 net.cpp:157] Top shape: 3 512 96 96 (14155776)
I0323 12:58:47.717545 18712 net.cpp:165] Memory required for data: 3940562332
I0323 12:58:47.717552 18712 layer_factory.hpp:77] Creating layer relu4_3
I0323 12:58:47.717563 18712 net.cpp:100] Creating Layer relu4_3
I0323 12:58:47.717568 18712 net.cpp:434] relu4_3 <- conv4_3
I0323 12:58:47.717574 18712 net.cpp:395] relu4_3 -> conv4_3 (in-place)
I0323 12:58:47.717705 18712 net.cpp:150] Setting up relu4_3
I0323 12:58:47.717713 18712 net.cpp:157] Top shape: 3 512 96 96 (14155776)
I0323 12:58:47.717716 18712 net.cpp:165] Memory required for data: 3997185436
I0323 12:58:47.717720 18712 layer_factory.hpp:77] Creating layer conv4_3_relu4_3_0_split
I0323 12:58:47.717730 18712 net.cpp:100] Creating Layer conv4_3_relu4_3_0_split
I0323 12:58:47.717736 18712 net.cpp:434] conv4_3_relu4_3_0_split <- conv4_3
I0323 12:58:47.717739 18712 net.cpp:408] conv4_3_relu4_3_0_split -> conv4_3_relu4_3_0_split_0
I0323 12:58:47.717746 18712 net.cpp:408] conv4_3_relu4_3_0_split -> conv4_3_relu4_3_0_split_1
I0323 12:58:47.717751 18712 net.cpp:408] conv4_3_relu4_3_0_split -> conv4_3_relu4_3_0_split_2
I0323 12:58:47.717797 18712 net.cpp:150] Setting up conv4_3_relu4_3_0_split
I0323 12:58:47.717803 18712 net.cpp:157] Top shape: 3 512 96 96 (14155776)
I0323 12:58:47.717808 18712 net.cpp:157] Top shape: 3 512 96 96 (14155776)
I0323 12:58:47.717813 18712 net.cpp:157] Top shape: 3 512 96 96 (14155776)
I0323 12:58:47.717815 18712 net.cpp:165] Memory required for data: 4167054748
I0323 12:58:47.717818 18712 layer_factory.hpp:77] Creating layer loss1_conv1
I0323 12:58:47.717830 18712 net.cpp:100] Creating Layer loss1_conv1
I0323 12:58:47.717834 18712 net.cpp:434] loss1_conv1 <- conv4_3_relu4_3_0_split_0
I0323 12:58:47.717841 18712 net.cpp:408] loss1_conv1 -> loss1_conv1
I0323 12:58:47.782521 18712 net.cpp:150] Setting up loss1_conv1
I0323 12:58:47.782548 18712 net.cpp:157] Top shape: 3 512 96 96 (14155776)
I0323 12:58:47.782552 18712 net.cpp:165] Memory required for data: 4223677852
I0323 12:58:47.782562 18712 layer_factory.hpp:77] Creating layer loss_relu1
I0323 12:58:47.782572 18712 net.cpp:100] Creating Layer loss_relu1
I0323 12:58:47.782577 18712 net.cpp:434] loss_relu1 <- loss1_conv1
I0323 12:58:47.782583 18712 net.cpp:395] loss_relu1 -> loss1_conv1 (in-place)
I0323 12:58:47.783031 18712 net.cpp:150] Setting up loss_relu1
I0323 12:58:47.783044 18712 net.cpp:157] Top shape: 3 512 96 96 (14155776)
I0323 12:58:47.783051 18712 net.cpp:165] Memory required for data: 4280300956
I0323 12:58:47.783054 18712 layer_factory.hpp:77] Creating layer loss1_conv1_loss_relu1_0_split
I0323 12:58:47.783062 18712 net.cpp:100] Creating Layer loss1_conv1_loss_relu1_0_split
I0323 12:58:47.783066 18712 net.cpp:434] loss1_conv1_loss_relu1_0_split <- loss1_conv1
I0323 12:58:47.783073 18712 net.cpp:408] loss1_conv1_loss_relu1_0_split -> loss1_conv1_loss_relu1_0_split_0
I0323 12:58:47.783082 18712 net.cpp:408] loss1_conv1_loss_relu1_0_split -> loss1_conv1_loss_relu1_0_split_1
I0323 12:58:47.783126 18712 net.cpp:150] Setting up loss1_conv1_loss_relu1_0_split
I0323 12:58:47.783135 18712 net.cpp:157] Top shape: 3 512 96 96 (14155776)
I0323 12:58:47.783140 18712 net.cpp:157] Top shape: 3 512 96 96 (14155776)
I0323 12:58:47.783144 18712 net.cpp:165] Memory required for data: 4393547164
I0323 12:58:47.783149 18712 layer_factory.hpp:77] Creating layer LFCN_1_5x5
I0323 12:58:47.783162 18712 net.cpp:100] Creating Layer LFCN_1_5x5
I0323 12:58:47.783167 18712 net.cpp:434] LFCN_1_5x5 <- loss1_conv1_loss_relu1_0_split_0
I0323 12:58:47.783174 18712 net.cpp:408] LFCN_1_5x5 -> LFCN_1_5x5
I0323 12:58:47.786581 18712 net.cpp:150] Setting up LFCN_1_5x5
I0323 12:58:47.786592 18712 net.cpp:157] Top shape: 3 9 96 96 (248832)
I0323 12:58:47.786597 18712 net.cpp:165] Memory required for data: 4394542492
I0323 12:58:47.786603 18712 layer_factory.hpp:77] Creating layer LFCN_1_5x5_LFCN_1_5x5_0_split
I0323 12:58:47.786610 18712 net.cpp:100] Creating Layer LFCN_1_5x5_LFCN_1_5x5_0_split
I0323 12:58:47.786614 18712 net.cpp:434] LFCN_1_5x5_LFCN_1_5x5_0_split <- LFCN_1_5x5
I0323 12:58:47.786619 18712 net.cpp:408] LFCN_1_5x5_LFCN_1_5x5_0_split -> LFCN_1_5x5_LFCN_1_5x5_0_split_0
I0323 12:58:47.786625 18712 net.cpp:408] LFCN_1_5x5_LFCN_1_5x5_0_split -> LFCN_1_5x5_LFCN_1_5x5_0_split_1
I0323 12:58:47.786630 18712 net.cpp:408] LFCN_1_5x5_LFCN_1_5x5_0_split -> LFCN_1_5x5_LFCN_1_5x5_0_split_2
I0323 12:58:47.786674 18712 net.cpp:150] Setting up LFCN_1_5x5_LFCN_1_5x5_0_split
I0323 12:58:47.786684 18712 net.cpp:157] Top shape: 3 9 96 96 (248832)
I0323 12:58:47.786689 18712 net.cpp:157] Top shape: 3 9 96 96 (248832)
I0323 12:58:47.786694 18712 net.cpp:157] Top shape: 3 9 96 96 (248832)
I0323 12:58:47.786697 18712 net.cpp:165] Memory required for data: 4397528476
I0323 12:58:47.786701 18712 layer_factory.hpp:77] Creating layer detection_loss_1_5x5
I0323 12:58:47.786715 18712 net.cpp:100] Creating Layer detection_loss_1_5x5
I0323 12:58:47.786720 18712 net.cpp:434] detection_loss_1_5x5 <- LFCN_1_5x5_LFCN_1_5x5_0_split_0
I0323 12:58:47.786725 18712 net.cpp:434] detection_loss_1_5x5 <- label_1_5x5_data_1_split_0
I0323 12:58:47.786729 18712 net.cpp:408] detection_loss_1_5x5 -> loss_1_5x5
I0323 12:58:47.786742 18712 layer_factory.hpp:77] Creating layer detection_loss_1_5x5
I0323 12:58:47.788225 18712 net.cpp:150] Setting up detection_loss_1_5x5
I0323 12:58:47.788239 18712 net.cpp:157] Top shape: 1 1 1 2 (2)
I0323 12:58:47.788242 18712 net.cpp:160]     with loss weight 0.9
I0323 12:58:47.788260 18712 net.cpp:165] Memory required for data: 4397528484
I0323 12:58:47.788264 18712 layer_factory.hpp:77] Creating layer detection_accuracy_1_5x5
I0323 12:58:47.788275 18712 net.cpp:100] Creating Layer detection_accuracy_1_5x5
I0323 12:58:47.788280 18712 net.cpp:434] detection_accuracy_1_5x5 <- LFCN_1_5x5_LFCN_1_5x5_0_split_1
I0323 12:58:47.788285 18712 net.cpp:434] detection_accuracy_1_5x5 <- label_1_5x5_data_1_split_1
I0323 12:58:47.788291 18712 net.cpp:408] detection_accuracy_1_5x5 -> accuracy_1_5x5
I0323 12:58:47.788300 18712 net.cpp:408] detection_accuracy_1_5x5 -> boxiou_1_5x5
I0323 12:58:47.788334 18712 net.cpp:150] Setting up detection_accuracy_1_5x5
I0323 12:58:47.788339 18712 net.cpp:157] Top shape: 1 1 1 2 (2)
I0323 12:58:47.788343 18712 net.cpp:157] Top shape: 1 1 1 1 (1)
I0323 12:58:47.788347 18712 net.cpp:165] Memory required for data: 4397528496
I0323 12:58:47.788349 18712 layer_factory.hpp:77] Creating layer LFCN_1_7x7
I0323 12:58:47.788362 18712 net.cpp:100] Creating Layer LFCN_1_7x7
I0323 12:58:47.788365 18712 net.cpp:434] LFCN_1_7x7 <- loss1_conv1_loss_relu1_0_split_1
I0323 12:58:47.788372 18712 net.cpp:408] LFCN_1_7x7 -> LFCN_1_7x7
I0323 12:58:47.794790 18712 net.cpp:150] Setting up LFCN_1_7x7
I0323 12:58:47.794803 18712 net.cpp:157] Top shape: 3 9 96 96 (248832)
I0323 12:58:47.794807 18712 net.cpp:165] Memory required for data: 4398523824
I0323 12:58:47.794813 18712 layer_factory.hpp:77] Creating layer LFCN_1_7x7_LFCN_1_7x7_0_split
I0323 12:58:47.794821 18712 net.cpp:100] Creating Layer LFCN_1_7x7_LFCN_1_7x7_0_split
I0323 12:58:47.794826 18712 net.cpp:434] LFCN_1_7x7_LFCN_1_7x7_0_split <- LFCN_1_7x7
I0323 12:58:47.794831 18712 net.cpp:408] LFCN_1_7x7_LFCN_1_7x7_0_split -> LFCN_1_7x7_LFCN_1_7x7_0_split_0
I0323 12:58:47.794838 18712 net.cpp:408] LFCN_1_7x7_LFCN_1_7x7_0_split -> LFCN_1_7x7_LFCN_1_7x7_0_split_1
I0323 12:58:47.794843 18712 net.cpp:408] LFCN_1_7x7_LFCN_1_7x7_0_split -> LFCN_1_7x7_LFCN_1_7x7_0_split_2
I0323 12:58:47.794888 18712 net.cpp:150] Setting up LFCN_1_7x7_LFCN_1_7x7_0_split
I0323 12:58:47.794893 18712 net.cpp:157] Top shape: 3 9 96 96 (248832)
I0323 12:58:47.794898 18712 net.cpp:157] Top shape: 3 9 96 96 (248832)
I0323 12:58:47.794903 18712 net.cpp:157] Top shape: 3 9 96 96 (248832)
I0323 12:58:47.794905 18712 net.cpp:165] Memory required for data: 4401509808
I0323 12:58:47.794909 18712 layer_factory.hpp:77] Creating layer detection_loss_1_7x7
I0323 12:58:47.794916 18712 net.cpp:100] Creating Layer detection_loss_1_7x7
I0323 12:58:47.794920 18712 net.cpp:434] detection_loss_1_7x7 <- LFCN_1_7x7_LFCN_1_7x7_0_split_0
I0323 12:58:47.794925 18712 net.cpp:434] detection_loss_1_7x7 <- label_1_7x7_data_2_split_0
I0323 12:58:47.794930 18712 net.cpp:408] detection_loss_1_7x7 -> loss_1_7x7
I0323 12:58:47.794939 18712 layer_factory.hpp:77] Creating layer detection_loss_1_7x7
I0323 12:58:47.795347 18712 net.cpp:150] Setting up detection_loss_1_7x7
I0323 12:58:47.795361 18712 net.cpp:157] Top shape: 1 1 1 2 (2)
I0323 12:58:47.795363 18712 net.cpp:160]     with loss weight 0.9
I0323 12:58:47.795369 18712 net.cpp:165] Memory required for data: 4401509816
I0323 12:58:47.795373 18712 layer_factory.hpp:77] Creating layer detection_accuracy_1_7x7
I0323 12:58:47.795378 18712 net.cpp:100] Creating Layer detection_accuracy_1_7x7
I0323 12:58:47.795382 18712 net.cpp:434] detection_accuracy_1_7x7 <- LFCN_1_7x7_LFCN_1_7x7_0_split_1
I0323 12:58:47.795387 18712 net.cpp:434] detection_accuracy_1_7x7 <- label_1_7x7_data_2_split_1
I0323 12:58:47.795393 18712 net.cpp:408] detection_accuracy_1_7x7 -> accuracy_1_7x7
I0323 12:58:47.795402 18712 net.cpp:408] detection_accuracy_1_7x7 -> boxiou_1_7x7
I0323 12:58:47.795433 18712 net.cpp:150] Setting up detection_accuracy_1_7x7
I0323 12:58:47.795441 18712 net.cpp:157] Top shape: 1 1 1 2 (2)
I0323 12:58:47.795445 18712 net.cpp:157] Top shape: 1 1 1 1 (1)
I0323 12:58:47.795449 18712 net.cpp:165] Memory required for data: 4401509828
I0323 12:58:47.795452 18712 layer_factory.hpp:77] Creating layer pool4
I0323 12:58:47.795459 18712 net.cpp:100] Creating Layer pool4
I0323 12:58:47.795462 18712 net.cpp:434] pool4 <- conv4_3_relu4_3_0_split_1
I0323 12:58:47.795467 18712 net.cpp:408] pool4 -> pool4
I0323 12:58:47.795500 18712 net.cpp:150] Setting up pool4
I0323 12:58:47.795507 18712 net.cpp:157] Top shape: 3 512 48 48 (3538944)
I0323 12:58:47.795511 18712 net.cpp:165] Memory required for data: 4415665604
I0323 12:58:47.795514 18712 layer_factory.hpp:77] Creating layer conv5_1
I0323 12:58:47.795521 18712 net.cpp:100] Creating Layer conv5_1
I0323 12:58:47.795524 18712 net.cpp:434] conv5_1 <- pool4
I0323 12:58:47.795529 18712 net.cpp:408] conv5_1 -> conv5_1
I0323 12:58:47.801846 18712 net.cpp:150] Setting up conv5_1
I0323 12:58:47.801892 18712 net.cpp:157] Top shape: 3 512 48 48 (3538944)
I0323 12:58:47.801898 18712 net.cpp:165] Memory required for data: 4429821380
I0323 12:58:47.801909 18712 layer_factory.hpp:77] Creating layer relu5_1
I0323 12:58:47.801929 18712 net.cpp:100] Creating Layer relu5_1
I0323 12:58:47.801939 18712 net.cpp:434] relu5_1 <- conv5_1
I0323 12:58:47.801945 18712 net.cpp:395] relu5_1 -> conv5_1 (in-place)
I0323 12:58:47.802326 18712 net.cpp:150] Setting up relu5_1
I0323 12:58:47.802340 18712 net.cpp:157] Top shape: 3 512 48 48 (3538944)
I0323 12:58:47.802343 18712 net.cpp:165] Memory required for data: 4443977156
I0323 12:58:47.802348 18712 layer_factory.hpp:77] Creating layer conv5_2
I0323 12:58:47.802363 18712 net.cpp:100] Creating Layer conv5_2
I0323 12:58:47.802368 18712 net.cpp:434] conv5_2 <- conv5_1
I0323 12:58:47.802376 18712 net.cpp:408] conv5_2 -> conv5_2
I0323 12:58:47.812234 18712 net.cpp:150] Setting up conv5_2
I0323 12:58:47.812266 18712 net.cpp:157] Top shape: 3 512 48 48 (3538944)
I0323 12:58:47.812270 18712 net.cpp:165] Memory required for data: 4458132932
I0323 12:58:47.812279 18712 layer_factory.hpp:77] Creating layer relu5_2
I0323 12:58:47.812291 18712 net.cpp:100] Creating Layer relu5_2
I0323 12:58:47.812299 18712 net.cpp:434] relu5_2 <- conv5_2
I0323 12:58:47.812305 18712 net.cpp:395] relu5_2 -> conv5_2 (in-place)
I0323 12:58:47.812681 18712 net.cpp:150] Setting up relu5_2
I0323 12:58:47.812744 18712 net.cpp:157] Top shape: 3 512 48 48 (3538944)
I0323 12:58:47.812752 18712 net.cpp:165] Memory required for data: 4472288708
I0323 12:58:47.812764 18712 layer_factory.hpp:77] Creating layer conv5_3
I0323 12:58:47.812808 18712 net.cpp:100] Creating Layer conv5_3
I0323 12:58:47.812819 18712 net.cpp:434] conv5_3 <- conv5_2
I0323 12:58:47.812834 18712 net.cpp:408] conv5_3 -> conv5_3
I0323 12:58:47.823751 18712 net.cpp:150] Setting up conv5_3
I0323 12:58:47.823803 18712 net.cpp:157] Top shape: 3 512 48 48 (3538944)
I0323 12:58:47.823808 18712 net.cpp:165] Memory required for data: 4486444484
I0323 12:58:47.823822 18712 layer_factory.hpp:77] Creating layer relu5_3
I0323 12:58:47.823839 18712 net.cpp:100] Creating Layer relu5_3
I0323 12:58:47.823848 18712 net.cpp:434] relu5_3 <- conv5_3
I0323 12:58:47.823858 18712 net.cpp:395] relu5_3 -> conv5_3 (in-place)
I0323 12:58:47.824045 18712 net.cpp:150] Setting up relu5_3
I0323 12:58:47.824057 18712 net.cpp:157] Top shape: 3 512 48 48 (3538944)
I0323 12:58:47.824061 18712 net.cpp:165] Memory required for data: 4500600260
I0323 12:58:47.824065 18712 layer_factory.hpp:77] Creating layer conv5_3_relu5_3_0_split
I0323 12:58:47.824075 18712 net.cpp:100] Creating Layer conv5_3_relu5_3_0_split
I0323 12:58:47.824079 18712 net.cpp:434] conv5_3_relu5_3_0_split <- conv5_3
I0323 12:58:47.824084 18712 net.cpp:408] conv5_3_relu5_3_0_split -> conv5_3_relu5_3_0_split_0
I0323 12:58:47.824091 18712 net.cpp:408] conv5_3_relu5_3_0_split -> conv5_3_relu5_3_0_split_1
I0323 12:58:47.824097 18712 net.cpp:408] conv5_3_relu5_3_0_split -> conv5_3_relu5_3_0_split_2
I0323 12:58:47.824156 18712 net.cpp:150] Setting up conv5_3_relu5_3_0_split
I0323 12:58:47.824164 18712 net.cpp:157] Top shape: 3 512 48 48 (3538944)
I0323 12:58:47.824168 18712 net.cpp:157] Top shape: 3 512 48 48 (3538944)
I0323 12:58:47.824173 18712 net.cpp:157] Top shape: 3 512 48 48 (3538944)
I0323 12:58:47.824177 18712 net.cpp:165] Memory required for data: 4543067588
I0323 12:58:47.824180 18712 layer_factory.hpp:77] Creating layer LFCN_2_5x5
I0323 12:58:47.824198 18712 net.cpp:100] Creating Layer LFCN_2_5x5
I0323 12:58:47.824204 18712 net.cpp:434] LFCN_2_5x5 <- conv5_3_relu5_3_0_split_0
I0323 12:58:47.824213 18712 net.cpp:408] LFCN_2_5x5 -> LFCN_2_5x5
I0323 12:58:47.837067 18712 net.cpp:150] Setting up LFCN_2_5x5
I0323 12:58:47.837113 18712 net.cpp:157] Top shape: 3 9 48 48 (62208)
I0323 12:58:47.837123 18712 net.cpp:165] Memory required for data: 4543316420
I0323 12:58:47.837149 18712 layer_factory.hpp:77] Creating layer LFCN_2_5x5_LFCN_2_5x5_0_split
I0323 12:58:47.837173 18712 net.cpp:100] Creating Layer LFCN_2_5x5_LFCN_2_5x5_0_split
I0323 12:58:47.837184 18712 net.cpp:434] LFCN_2_5x5_LFCN_2_5x5_0_split <- LFCN_2_5x5
I0323 12:58:47.837199 18712 net.cpp:408] LFCN_2_5x5_LFCN_2_5x5_0_split -> LFCN_2_5x5_LFCN_2_5x5_0_split_0
I0323 12:58:47.837216 18712 net.cpp:408] LFCN_2_5x5_LFCN_2_5x5_0_split -> LFCN_2_5x5_LFCN_2_5x5_0_split_1
I0323 12:58:47.837227 18712 net.cpp:408] LFCN_2_5x5_LFCN_2_5x5_0_split -> LFCN_2_5x5_LFCN_2_5x5_0_split_2
I0323 12:58:47.837332 18712 net.cpp:150] Setting up LFCN_2_5x5_LFCN_2_5x5_0_split
I0323 12:58:47.837349 18712 net.cpp:157] Top shape: 3 9 48 48 (62208)
I0323 12:58:47.837359 18712 net.cpp:157] Top shape: 3 9 48 48 (62208)
I0323 12:58:47.837369 18712 net.cpp:157] Top shape: 3 9 48 48 (62208)
I0323 12:58:47.837375 18712 net.cpp:165] Memory required for data: 4544062916
I0323 12:58:47.837383 18712 layer_factory.hpp:77] Creating layer detection_loss_2_5x5
I0323 12:58:47.837399 18712 net.cpp:100] Creating Layer detection_loss_2_5x5
I0323 12:58:47.837409 18712 net.cpp:434] detection_loss_2_5x5 <- LFCN_2_5x5_LFCN_2_5x5_0_split_0
I0323 12:58:47.837420 18712 net.cpp:434] detection_loss_2_5x5 <- label_2_5x5_data_3_split_0
I0323 12:58:47.837433 18712 net.cpp:408] detection_loss_2_5x5 -> loss_2_5x5
I0323 12:58:47.837455 18712 layer_factory.hpp:77] Creating layer detection_loss_2_5x5
I0323 12:58:47.838812 18712 net.cpp:150] Setting up detection_loss_2_5x5
I0323 12:58:47.838841 18712 net.cpp:157] Top shape: 1 1 1 2 (2)
I0323 12:58:47.838850 18712 net.cpp:160]     with loss weight 1
I0323 12:58:47.838866 18712 net.cpp:165] Memory required for data: 4544062924
I0323 12:58:47.838874 18712 layer_factory.hpp:77] Creating layer detection_accuracy_2_5x5
I0323 12:58:47.838888 18712 net.cpp:100] Creating Layer detection_accuracy_2_5x5
I0323 12:58:47.838897 18712 net.cpp:434] detection_accuracy_2_5x5 <- LFCN_2_5x5_LFCN_2_5x5_0_split_1
I0323 12:58:47.838907 18712 net.cpp:434] detection_accuracy_2_5x5 <- label_2_5x5_data_3_split_1
I0323 12:58:47.838922 18712 net.cpp:408] detection_accuracy_2_5x5 -> accuracy_2_5x5
I0323 12:58:47.838937 18712 net.cpp:408] detection_accuracy_2_5x5 -> boxiou_2_5x5
I0323 12:58:47.839021 18712 net.cpp:150] Setting up detection_accuracy_2_5x5
I0323 12:58:47.839035 18712 net.cpp:157] Top shape: 1 1 1 2 (2)
I0323 12:58:47.839046 18712 net.cpp:157] Top shape: 1 1 1 1 (1)
I0323 12:58:47.839051 18712 net.cpp:165] Memory required for data: 4544062936
I0323 12:58:47.839059 18712 layer_factory.hpp:77] Creating layer LFCN_2_7x7
I0323 12:58:47.839079 18712 net.cpp:100] Creating Layer LFCN_2_7x7
I0323 12:58:47.839088 18712 net.cpp:434] LFCN_2_7x7 <- conv5_3_relu5_3_0_split_1
I0323 12:58:47.839102 18712 net.cpp:408] LFCN_2_7x7 -> LFCN_2_7x7
I0323 12:58:47.846882 18712 net.cpp:150] Setting up LFCN_2_7x7
I0323 12:58:47.846899 18712 net.cpp:157] Top shape: 3 9 48 48 (62208)
I0323 12:58:47.846902 18712 net.cpp:165] Memory required for data: 4544311768
I0323 12:58:47.846909 18712 layer_factory.hpp:77] Creating layer LFCN_2_7x7_LFCN_2_7x7_0_split
I0323 12:58:47.846918 18712 net.cpp:100] Creating Layer LFCN_2_7x7_LFCN_2_7x7_0_split
I0323 12:58:47.846922 18712 net.cpp:434] LFCN_2_7x7_LFCN_2_7x7_0_split <- LFCN_2_7x7
I0323 12:58:47.846928 18712 net.cpp:408] LFCN_2_7x7_LFCN_2_7x7_0_split -> LFCN_2_7x7_LFCN_2_7x7_0_split_0
I0323 12:58:47.846937 18712 net.cpp:408] LFCN_2_7x7_LFCN_2_7x7_0_split -> LFCN_2_7x7_LFCN_2_7x7_0_split_1
I0323 12:58:47.846945 18712 net.cpp:408] LFCN_2_7x7_LFCN_2_7x7_0_split -> LFCN_2_7x7_LFCN_2_7x7_0_split_2
I0323 12:58:47.847002 18712 net.cpp:150] Setting up LFCN_2_7x7_LFCN_2_7x7_0_split
I0323 12:58:47.847008 18712 net.cpp:157] Top shape: 3 9 48 48 (62208)
I0323 12:58:47.847013 18712 net.cpp:157] Top shape: 3 9 48 48 (62208)
I0323 12:58:47.847018 18712 net.cpp:157] Top shape: 3 9 48 48 (62208)
I0323 12:58:47.847023 18712 net.cpp:165] Memory required for data: 4545058264
I0323 12:58:47.847025 18712 layer_factory.hpp:77] Creating layer detection_loss_2_7x7
I0323 12:58:47.847033 18712 net.cpp:100] Creating Layer detection_loss_2_7x7
I0323 12:58:47.847038 18712 net.cpp:434] detection_loss_2_7x7 <- LFCN_2_7x7_LFCN_2_7x7_0_split_0
I0323 12:58:47.847043 18712 net.cpp:434] detection_loss_2_7x7 <- label_2_7x7_data_4_split_0
I0323 12:58:47.847050 18712 net.cpp:408] detection_loss_2_7x7 -> loss_2_7x7
I0323 12:58:47.847059 18712 layer_factory.hpp:77] Creating layer detection_loss_2_7x7
I0323 12:58:47.847785 18712 net.cpp:150] Setting up detection_loss_2_7x7
I0323 12:58:47.847800 18712 net.cpp:157] Top shape: 1 1 1 2 (2)
I0323 12:58:47.847805 18712 net.cpp:160]     with loss weight 1
I0323 12:58:47.847811 18712 net.cpp:165] Memory required for data: 4545058272
I0323 12:58:47.847815 18712 layer_factory.hpp:77] Creating layer detection_accuracy_2_7x7
I0323 12:58:47.847822 18712 net.cpp:100] Creating Layer detection_accuracy_2_7x7
I0323 12:58:47.847827 18712 net.cpp:434] detection_accuracy_2_7x7 <- LFCN_2_7x7_LFCN_2_7x7_0_split_1
I0323 12:58:47.847832 18712 net.cpp:434] detection_accuracy_2_7x7 <- label_2_7x7_data_4_split_1
I0323 12:58:47.847839 18712 net.cpp:408] detection_accuracy_2_7x7 -> accuracy_2_7x7
I0323 12:58:47.847848 18712 net.cpp:408] detection_accuracy_2_7x7 -> boxiou_2_7x7
I0323 12:58:47.847889 18712 net.cpp:150] Setting up detection_accuracy_2_7x7
I0323 12:58:47.847898 18712 net.cpp:157] Top shape: 1 1 1 2 (2)
I0323 12:58:47.847901 18712 net.cpp:157] Top shape: 1 1 1 1 (1)
I0323 12:58:47.847905 18712 net.cpp:165] Memory required for data: 4545058284
I0323 12:58:47.847909 18712 layer_factory.hpp:77] Creating layer pool5
I0323 12:58:47.847916 18712 net.cpp:100] Creating Layer pool5
I0323 12:58:47.847920 18712 net.cpp:434] pool5 <- conv5_3_relu5_3_0_split_2
I0323 12:58:47.847928 18712 net.cpp:408] pool5 -> pool5
I0323 12:58:47.847965 18712 net.cpp:150] Setting up pool5
I0323 12:58:47.847975 18712 net.cpp:157] Top shape: 3 512 24 24 (884736)
I0323 12:58:47.847977 18712 net.cpp:165] Memory required for data: 4548597228
I0323 12:58:47.847981 18712 layer_factory.hpp:77] Creating layer ch4_pool5
I0323 12:58:47.847986 18712 net.cpp:100] Creating Layer ch4_pool5
I0323 12:58:47.847991 18712 net.cpp:434] ch4_pool5 <- ch4
I0323 12:58:47.847996 18712 net.cpp:408] ch4_pool5 -> ch4_pool5
I0323 12:58:47.848034 18712 net.cpp:150] Setting up ch4_pool5
I0323 12:58:47.848042 18712 net.cpp:157] Top shape: 3 1 24 24 (1728)
I0323 12:58:47.848045 18712 net.cpp:165] Memory required for data: 4548604140
I0323 12:58:47.848050 18712 layer_factory.hpp:77] Creating layer pool5_concat
I0323 12:58:47.848055 18712 net.cpp:100] Creating Layer pool5_concat
I0323 12:58:47.848059 18712 net.cpp:434] pool5_concat <- pool5
I0323 12:58:47.848067 18712 net.cpp:434] pool5_concat <- ch4_pool5
I0323 12:58:47.848071 18712 net.cpp:408] pool5_concat -> pool5_new
I0323 12:58:47.848094 18712 net.cpp:150] Setting up pool5_concat
I0323 12:58:47.848101 18712 net.cpp:157] Top shape: 3 513 24 24 (886464)
I0323 12:58:47.848105 18712 net.cpp:165] Memory required for data: 4552149996
I0323 12:58:47.848109 18712 layer_factory.hpp:77] Creating layer conv6_1_new
I0323 12:58:47.848119 18712 net.cpp:100] Creating Layer conv6_1_new
I0323 12:58:47.848125 18712 net.cpp:434] conv6_1_new <- pool5_new
I0323 12:58:47.848132 18712 net.cpp:408] conv6_1_new -> conv6_1
I0323 12:58:47.912083 18712 net.cpp:150] Setting up conv6_1_new
I0323 12:58:47.912169 18712 net.cpp:157] Top shape: 3 512 24 24 (884736)
I0323 12:58:47.912178 18712 net.cpp:165] Memory required for data: 4555688940
I0323 12:58:47.912204 18712 layer_factory.hpp:77] Creating layer relu6_1
I0323 12:58:47.912277 18712 net.cpp:100] Creating Layer relu6_1
I0323 12:58:47.912297 18712 net.cpp:434] relu6_1 <- conv6_1
I0323 12:58:47.912312 18712 net.cpp:395] relu6_1 -> conv6_1 (in-place)
I0323 12:58:47.912734 18712 net.cpp:150] Setting up relu6_1
I0323 12:58:47.912788 18712 net.cpp:157] Top shape: 3 512 24 24 (884736)
I0323 12:58:47.912796 18712 net.cpp:165] Memory required for data: 4559227884
I0323 12:58:47.912806 18712 layer_factory.hpp:77] Creating layer conv6_1_relu6_1_0_split
I0323 12:58:47.912833 18712 net.cpp:100] Creating Layer conv6_1_relu6_1_0_split
I0323 12:58:47.912839 18712 net.cpp:434] conv6_1_relu6_1_0_split <- conv6_1
I0323 12:58:47.912850 18712 net.cpp:408] conv6_1_relu6_1_0_split -> conv6_1_relu6_1_0_split_0
I0323 12:58:47.912865 18712 net.cpp:408] conv6_1_relu6_1_0_split -> conv6_1_relu6_1_0_split_1
I0323 12:58:47.912874 18712 net.cpp:408] conv6_1_relu6_1_0_split -> conv6_1_relu6_1_0_split_2
I0323 12:58:47.912992 18712 net.cpp:150] Setting up conv6_1_relu6_1_0_split
I0323 12:58:47.913002 18712 net.cpp:157] Top shape: 3 512 24 24 (884736)
I0323 12:58:47.913005 18712 net.cpp:157] Top shape: 3 512 24 24 (884736)
I0323 12:58:47.913010 18712 net.cpp:157] Top shape: 3 512 24 24 (884736)
I0323 12:58:47.913013 18712 net.cpp:165] Memory required for data: 4569844716
I0323 12:58:47.913017 18712 layer_factory.hpp:77] Creating layer LFCN_3_5x5
I0323 12:58:47.913053 18712 net.cpp:100] Creating Layer LFCN_3_5x5
I0323 12:58:47.913060 18712 net.cpp:434] LFCN_3_5x5 <- conv6_1_relu6_1_0_split_0
I0323 12:58:47.913075 18712 net.cpp:408] LFCN_3_5x5 -> LFCN_3_5x5
I0323 12:58:47.917569 18712 net.cpp:150] Setting up LFCN_3_5x5
I0323 12:58:47.917598 18712 net.cpp:157] Top shape: 3 9 24 24 (15552)
I0323 12:58:47.917603 18712 net.cpp:165] Memory required for data: 4569906924
I0323 12:58:47.917611 18712 layer_factory.hpp:77] Creating layer LFCN_3_5x5_LFCN_3_5x5_0_split
I0323 12:58:47.917623 18712 net.cpp:100] Creating Layer LFCN_3_5x5_LFCN_3_5x5_0_split
I0323 12:58:47.917629 18712 net.cpp:434] LFCN_3_5x5_LFCN_3_5x5_0_split <- LFCN_3_5x5
I0323 12:58:47.917635 18712 net.cpp:408] LFCN_3_5x5_LFCN_3_5x5_0_split -> LFCN_3_5x5_LFCN_3_5x5_0_split_0
I0323 12:58:47.917644 18712 net.cpp:408] LFCN_3_5x5_LFCN_3_5x5_0_split -> LFCN_3_5x5_LFCN_3_5x5_0_split_1
I0323 12:58:47.917649 18712 net.cpp:408] LFCN_3_5x5_LFCN_3_5x5_0_split -> LFCN_3_5x5_LFCN_3_5x5_0_split_2
I0323 12:58:47.917699 18712 net.cpp:150] Setting up LFCN_3_5x5_LFCN_3_5x5_0_split
I0323 12:58:47.917706 18712 net.cpp:157] Top shape: 3 9 24 24 (15552)
I0323 12:58:47.917709 18712 net.cpp:157] Top shape: 3 9 24 24 (15552)
I0323 12:58:47.917713 18712 net.cpp:157] Top shape: 3 9 24 24 (15552)
I0323 12:58:47.917716 18712 net.cpp:165] Memory required for data: 4570093548
I0323 12:58:47.917719 18712 layer_factory.hpp:77] Creating layer detection_loss_3_5x5
I0323 12:58:47.917727 18712 net.cpp:100] Creating Layer detection_loss_3_5x5
I0323 12:58:47.917731 18712 net.cpp:434] detection_loss_3_5x5 <- LFCN_3_5x5_LFCN_3_5x5_0_split_0
I0323 12:58:47.917737 18712 net.cpp:434] detection_loss_3_5x5 <- label_3_5x5_data_5_split_0
I0323 12:58:47.917742 18712 net.cpp:408] detection_loss_3_5x5 -> loss_3_5x5
I0323 12:58:47.917753 18712 layer_factory.hpp:77] Creating layer detection_loss_3_5x5
I0323 12:58:47.918073 18712 net.cpp:150] Setting up detection_loss_3_5x5
I0323 12:58:47.918084 18712 net.cpp:157] Top shape: 1 1 1 2 (2)
I0323 12:58:47.918087 18712 net.cpp:160]     with loss weight 1
I0323 12:58:47.918098 18712 net.cpp:165] Memory required for data: 4570093556
I0323 12:58:47.918102 18712 layer_factory.hpp:77] Creating layer detection_accuracy_3_5x5
I0323 12:58:47.918109 18712 net.cpp:100] Creating Layer detection_accuracy_3_5x5
I0323 12:58:47.918113 18712 net.cpp:434] detection_accuracy_3_5x5 <- LFCN_3_5x5_LFCN_3_5x5_0_split_1
I0323 12:58:47.918118 18712 net.cpp:434] detection_accuracy_3_5x5 <- label_3_5x5_data_5_split_1
I0323 12:58:47.918124 18712 net.cpp:408] detection_accuracy_3_5x5 -> accuracy_3_5x5
I0323 12:58:47.918131 18712 net.cpp:408] detection_accuracy_3_5x5 -> boxiou_3_5x5
I0323 12:58:47.918169 18712 net.cpp:150] Setting up detection_accuracy_3_5x5
I0323 12:58:47.918175 18712 net.cpp:157] Top shape: 1 1 1 2 (2)
I0323 12:58:47.918179 18712 net.cpp:157] Top shape: 1 1 1 1 (1)
I0323 12:58:47.918182 18712 net.cpp:165] Memory required for data: 4570093568
I0323 12:58:47.918186 18712 layer_factory.hpp:77] Creating layer LFCN_3_7x7
I0323 12:58:47.918196 18712 net.cpp:100] Creating Layer LFCN_3_7x7
I0323 12:58:47.918200 18712 net.cpp:434] LFCN_3_7x7 <- conv6_1_relu6_1_0_split_1
I0323 12:58:47.918206 18712 net.cpp:408] LFCN_3_7x7 -> LFCN_3_7x7
I0323 12:58:47.925647 18712 net.cpp:150] Setting up LFCN_3_7x7
I0323 12:58:47.925668 18712 net.cpp:157] Top shape: 3 9 24 24 (15552)
I0323 12:58:47.925671 18712 net.cpp:165] Memory required for data: 4570155776
I0323 12:58:47.925679 18712 layer_factory.hpp:77] Creating layer LFCN_3_7x7_LFCN_3_7x7_0_split
I0323 12:58:47.925688 18712 net.cpp:100] Creating Layer LFCN_3_7x7_LFCN_3_7x7_0_split
I0323 12:58:47.925693 18712 net.cpp:434] LFCN_3_7x7_LFCN_3_7x7_0_split <- LFCN_3_7x7
I0323 12:58:47.925698 18712 net.cpp:408] LFCN_3_7x7_LFCN_3_7x7_0_split -> LFCN_3_7x7_LFCN_3_7x7_0_split_0
I0323 12:58:47.925709 18712 net.cpp:408] LFCN_3_7x7_LFCN_3_7x7_0_split -> LFCN_3_7x7_LFCN_3_7x7_0_split_1
I0323 12:58:47.925714 18712 net.cpp:408] LFCN_3_7x7_LFCN_3_7x7_0_split -> LFCN_3_7x7_LFCN_3_7x7_0_split_2
I0323 12:58:47.925761 18712 net.cpp:150] Setting up LFCN_3_7x7_LFCN_3_7x7_0_split
I0323 12:58:47.925768 18712 net.cpp:157] Top shape: 3 9 24 24 (15552)
I0323 12:58:47.925773 18712 net.cpp:157] Top shape: 3 9 24 24 (15552)
I0323 12:58:47.925777 18712 net.cpp:157] Top shape: 3 9 24 24 (15552)
I0323 12:58:47.925781 18712 net.cpp:165] Memory required for data: 4570342400
I0323 12:58:47.925783 18712 layer_factory.hpp:77] Creating layer detection_loss_3_7x7
I0323 12:58:47.925791 18712 net.cpp:100] Creating Layer detection_loss_3_7x7
I0323 12:58:47.925793 18712 net.cpp:434] detection_loss_3_7x7 <- LFCN_3_7x7_LFCN_3_7x7_0_split_0
I0323 12:58:47.925798 18712 net.cpp:434] detection_loss_3_7x7 <- label_3_7x7_data_6_split_0
I0323 12:58:47.925804 18712 net.cpp:408] detection_loss_3_7x7 -> loss_3_7x7
I0323 12:58:47.925813 18712 layer_factory.hpp:77] Creating layer detection_loss_3_7x7
I0323 12:58:47.926133 18712 net.cpp:150] Setting up detection_loss_3_7x7
I0323 12:58:47.926143 18712 net.cpp:157] Top shape: 1 1 1 2 (2)
I0323 12:58:47.926147 18712 net.cpp:160]     with loss weight 1
I0323 12:58:47.926156 18712 net.cpp:165] Memory required for data: 4570342408
I0323 12:58:47.926159 18712 layer_factory.hpp:77] Creating layer detection_accuracy_3_7x7
I0323 12:58:47.926167 18712 net.cpp:100] Creating Layer detection_accuracy_3_7x7
I0323 12:58:47.926170 18712 net.cpp:434] detection_accuracy_3_7x7 <- LFCN_3_7x7_LFCN_3_7x7_0_split_1
I0323 12:58:47.926174 18712 net.cpp:434] detection_accuracy_3_7x7 <- label_3_7x7_data_6_split_1
I0323 12:58:47.926179 18712 net.cpp:408] detection_accuracy_3_7x7 -> accuracy_3_7x7
I0323 12:58:47.926185 18712 net.cpp:408] detection_accuracy_3_7x7 -> boxiou_3_7x7
I0323 12:58:47.926221 18712 net.cpp:150] Setting up detection_accuracy_3_7x7
I0323 12:58:47.926229 18712 net.cpp:157] Top shape: 1 1 1 2 (2)
I0323 12:58:47.926232 18712 net.cpp:157] Top shape: 1 1 1 1 (1)
I0323 12:58:47.926235 18712 net.cpp:165] Memory required for data: 4570342420
I0323 12:58:47.926239 18712 layer_factory.hpp:77] Creating layer pool6
I0323 12:58:47.926247 18712 net.cpp:100] Creating Layer pool6
I0323 12:58:47.926251 18712 net.cpp:434] pool6 <- conv6_1_relu6_1_0_split_2
I0323 12:58:47.926256 18712 net.cpp:408] pool6 -> pool6
I0323 12:58:47.926290 18712 net.cpp:150] Setting up pool6
I0323 12:58:47.926297 18712 net.cpp:157] Top shape: 3 512 12 12 (221184)
I0323 12:58:47.926301 18712 net.cpp:165] Memory required for data: 4571227156
I0323 12:58:47.926303 18712 layer_factory.hpp:77] Creating layer LFCN_4_5x5
I0323 12:58:47.926313 18712 net.cpp:100] Creating Layer LFCN_4_5x5
I0323 12:58:47.926316 18712 net.cpp:434] LFCN_4_5x5 <- pool6
I0323 12:58:47.926322 18712 net.cpp:408] LFCN_4_5x5 -> LFCN_4_5x5
I0323 12:58:47.930441 18712 net.cpp:150] Setting up LFCN_4_5x5
I0323 12:58:47.930459 18712 net.cpp:157] Top shape: 3 9 12 12 (3888)
I0323 12:58:47.930464 18712 net.cpp:165] Memory required for data: 4571242708
I0323 12:58:47.930470 18712 layer_factory.hpp:77] Creating layer LFCN_4_5x5_LFCN_4_5x5_0_split
I0323 12:58:47.930479 18712 net.cpp:100] Creating Layer LFCN_4_5x5_LFCN_4_5x5_0_split
I0323 12:58:47.930483 18712 net.cpp:434] LFCN_4_5x5_LFCN_4_5x5_0_split <- LFCN_4_5x5
I0323 12:58:47.930490 18712 net.cpp:408] LFCN_4_5x5_LFCN_4_5x5_0_split -> LFCN_4_5x5_LFCN_4_5x5_0_split_0
I0323 12:58:47.930498 18712 net.cpp:408] LFCN_4_5x5_LFCN_4_5x5_0_split -> LFCN_4_5x5_LFCN_4_5x5_0_split_1
I0323 12:58:47.930503 18712 net.cpp:408] LFCN_4_5x5_LFCN_4_5x5_0_split -> LFCN_4_5x5_LFCN_4_5x5_0_split_2
I0323 12:58:47.930549 18712 net.cpp:150] Setting up LFCN_4_5x5_LFCN_4_5x5_0_split
I0323 12:58:47.930557 18712 net.cpp:157] Top shape: 3 9 12 12 (3888)
I0323 12:58:47.930562 18712 net.cpp:157] Top shape: 3 9 12 12 (3888)
I0323 12:58:47.930565 18712 net.cpp:157] Top shape: 3 9 12 12 (3888)
I0323 12:58:47.930568 18712 net.cpp:165] Memory required for data: 4571289364
I0323 12:58:47.930572 18712 layer_factory.hpp:77] Creating layer detection_loss_4_5x5
I0323 12:58:47.930579 18712 net.cpp:100] Creating Layer detection_loss_4_5x5
I0323 12:58:47.930583 18712 net.cpp:434] detection_loss_4_5x5 <- LFCN_4_5x5_LFCN_4_5x5_0_split_0
I0323 12:58:47.930588 18712 net.cpp:434] detection_loss_4_5x5 <- label_4_5x5_data_7_split_0
I0323 12:58:47.930593 18712 net.cpp:408] detection_loss_4_5x5 -> loss_4_5x5
I0323 12:58:47.930601 18712 layer_factory.hpp:77] Creating layer detection_loss_4_5x5
I0323 12:58:47.930909 18712 net.cpp:150] Setting up detection_loss_4_5x5
I0323 12:58:47.930919 18712 net.cpp:157] Top shape: 1 1 1 2 (2)
I0323 12:58:47.930922 18712 net.cpp:160]     with loss weight 1
I0323 12:58:47.930929 18712 net.cpp:165] Memory required for data: 4571289372
I0323 12:58:47.930933 18712 layer_factory.hpp:77] Creating layer detection_accuracy_4_5x5
I0323 12:58:47.930940 18712 net.cpp:100] Creating Layer detection_accuracy_4_5x5
I0323 12:58:47.930944 18712 net.cpp:434] detection_accuracy_4_5x5 <- LFCN_4_5x5_LFCN_4_5x5_0_split_1
I0323 12:58:47.930949 18712 net.cpp:434] detection_accuracy_4_5x5 <- label_4_5x5_data_7_split_1
I0323 12:58:47.930953 18712 net.cpp:408] detection_accuracy_4_5x5 -> accuracy_4_5x5
I0323 12:58:47.930960 18712 net.cpp:408] detection_accuracy_4_5x5 -> boxiou_4_5x5
I0323 12:58:47.930996 18712 net.cpp:150] Setting up detection_accuracy_4_5x5
I0323 12:58:47.931004 18712 net.cpp:157] Top shape: 1 1 1 2 (2)
I0323 12:58:47.931007 18712 net.cpp:157] Top shape: 1 1 1 1 (1)
I0323 12:58:47.931010 18712 net.cpp:165] Memory required for data: 4571289384
I0323 12:58:47.931013 18712 layer_factory.hpp:77] Creating layer proposals
I0323 12:58:47.931025 18712 net.cpp:100] Creating Layer proposals
I0323 12:58:47.931030 18712 net.cpp:434] proposals <- LFCN_1_5x5_LFCN_1_5x5_0_split_2
I0323 12:58:47.931035 18712 net.cpp:434] proposals <- LFCN_1_7x7_LFCN_1_7x7_0_split_2
I0323 12:58:47.931038 18712 net.cpp:434] proposals <- LFCN_2_5x5_LFCN_2_5x5_0_split_2
I0323 12:58:47.931043 18712 net.cpp:434] proposals <- LFCN_2_7x7_LFCN_2_7x7_0_split_2
I0323 12:58:47.931046 18712 net.cpp:434] proposals <- LFCN_3_5x5_LFCN_3_5x5_0_split_2
I0323 12:58:47.931051 18712 net.cpp:434] proposals <- LFCN_3_7x7_LFCN_3_7x7_0_split_2
I0323 12:58:47.931054 18712 net.cpp:434] proposals <- LFCN_4_5x5_LFCN_4_5x5_0_split_2
I0323 12:58:47.931059 18712 net.cpp:408] proposals -> proposals
I0323 12:58:47.931089 18712 net.cpp:150] Setting up proposals
I0323 12:58:47.931097 18712 net.cpp:157] Top shape: 1 5 1 1 (5)
I0323 12:58:47.931099 18712 net.cpp:165] Memory required for data: 4571289404
I0323 12:58:47.931102 18712 layer_factory.hpp:77] Creating layer proposal_info
I0323 12:58:47.931110 18712 net.cpp:100] Creating Layer proposal_info
I0323 12:58:47.931114 18712 net.cpp:434] proposal_info <- proposals
I0323 12:58:47.931118 18712 net.cpp:434] proposal_info <- gt_boxes
I0323 12:58:47.931124 18712 net.cpp:408] proposal_info -> rois
I0323 12:58:47.931133 18712 net.cpp:408] proposal_info -> proposal_labels
I0323 12:58:47.931143 18712 net.cpp:408] proposal_info -> proposal_targets
I0323 12:58:47.931150 18712 net.cpp:408] proposal_info -> box_inside_weights
I0323 12:58:47.931155 18712 net.cpp:408] proposal_info -> box_outside_weights
I0323 12:58:47.931161 18712 net.cpp:408] proposal_info -> match_gt_boxes
I0323 12:58:47.931244 18712 net.cpp:150] Setting up proposal_info
I0323 12:58:47.931251 18712 net.cpp:157] Top shape: 256 5 1 1 (1280)
I0323 12:58:47.931255 18712 net.cpp:157] Top shape: 256 1 1 1 (256)
I0323 12:58:47.931259 18712 net.cpp:157] Top shape: 256 20 1 1 (5120)
I0323 12:58:47.931263 18712 net.cpp:157] Top shape: 256 20 1 1 (5120)
I0323 12:58:47.931267 18712 net.cpp:157] Top shape: 256 20 1 1 (5120)
I0323 12:58:47.931272 18712 net.cpp:157] Top shape: 256 6 1 1 (1536)
I0323 12:58:47.931273 18712 net.cpp:165] Memory required for data: 4571363132
I0323 12:58:47.931277 18712 layer_factory.hpp:77] Creating layer rois_proposal_info_0_split
I0323 12:58:47.931282 18712 net.cpp:100] Creating Layer rois_proposal_info_0_split
I0323 12:58:47.931287 18712 net.cpp:434] rois_proposal_info_0_split <- rois
I0323 12:58:47.931290 18712 net.cpp:408] rois_proposal_info_0_split -> rois_proposal_info_0_split_0
I0323 12:58:47.931296 18712 net.cpp:408] rois_proposal_info_0_split -> rois_proposal_info_0_split_1
I0323 12:58:47.931301 18712 net.cpp:408] rois_proposal_info_0_split -> rois_proposal_info_0_split_2
I0323 12:58:47.931344 18712 net.cpp:150] Setting up rois_proposal_info_0_split
I0323 12:58:47.931349 18712 net.cpp:157] Top shape: 256 5 1 1 (1280)
I0323 12:58:47.931354 18712 net.cpp:157] Top shape: 256 5 1 1 (1280)
I0323 12:58:47.931357 18712 net.cpp:157] Top shape: 256 5 1 1 (1280)
I0323 12:58:47.931360 18712 net.cpp:165] Memory required for data: 4571378492
I0323 12:58:47.931363 18712 layer_factory.hpp:77] Creating layer proposal_labels_proposal_info_1_split
I0323 12:58:47.931367 18712 net.cpp:100] Creating Layer proposal_labels_proposal_info_1_split
I0323 12:58:47.931371 18712 net.cpp:434] proposal_labels_proposal_info_1_split <- proposal_labels
I0323 12:58:47.931376 18712 net.cpp:408] proposal_labels_proposal_info_1_split -> proposal_labels_proposal_info_1_split_0
I0323 12:58:47.931382 18712 net.cpp:408] proposal_labels_proposal_info_1_split -> proposal_labels_proposal_info_1_split_1
I0323 12:58:47.931411 18712 net.cpp:150] Setting up proposal_labels_proposal_info_1_split
I0323 12:58:47.931417 18712 net.cpp:157] Top shape: 256 1 1 1 (256)
I0323 12:58:47.931421 18712 net.cpp:157] Top shape: 256 1 1 1 (256)
I0323 12:58:47.931424 18712 net.cpp:165] Memory required for data: 4571380540
I0323 12:58:47.931427 18712 layer_factory.hpp:77] Creating layer conv4_3_2x
I0323 12:58:47.931439 18712 net.cpp:100] Creating Layer conv4_3_2x
I0323 12:58:47.931444 18712 net.cpp:434] conv4_3_2x <- conv4_3_relu4_3_0_split_2
I0323 12:58:47.931449 18712 net.cpp:408] conv4_3_2x -> conv4_3_2x
I0323 12:58:47.931819 18712 net.cpp:150] Setting up conv4_3_2x
I0323 12:58:47.931826 18712 net.cpp:157] Top shape: 3 512 192 192 (56623104)
I0323 12:58:47.931829 18712 net.cpp:165] Memory required for data: 4797872956
I0323 12:58:47.931834 18712 layer_factory.hpp:77] Creating layer conv4_3_2x_conv4_3_2x_0_split
I0323 12:58:47.931840 18712 net.cpp:100] Creating Layer conv4_3_2x_conv4_3_2x_0_split
I0323 12:58:47.931844 18712 net.cpp:434] conv4_3_2x_conv4_3_2x_0_split <- conv4_3_2x
I0323 12:58:47.931849 18712 net.cpp:408] conv4_3_2x_conv4_3_2x_0_split -> conv4_3_2x_conv4_3_2x_0_split_0
I0323 12:58:47.931856 18712 net.cpp:408] conv4_3_2x_conv4_3_2x_0_split -> conv4_3_2x_conv4_3_2x_0_split_1
I0323 12:58:47.931886 18712 net.cpp:150] Setting up conv4_3_2x_conv4_3_2x_0_split
I0323 12:58:47.931892 18712 net.cpp:157] Top shape: 3 512 192 192 (56623104)
I0323 12:58:47.931896 18712 net.cpp:157] Top shape: 3 512 192 192 (56623104)
I0323 12:58:47.931900 18712 net.cpp:165] Memory required for data: 5250857788
I0323 12:58:47.931902 18712 layer_factory.hpp:77] Creating layer roi_pool_org
I0323 12:58:47.931908 18712 net.cpp:100] Creating Layer roi_pool_org
I0323 12:58:47.931913 18712 net.cpp:434] roi_pool_org <- conv4_3_2x_conv4_3_2x_0_split_0
I0323 12:58:47.931917 18712 net.cpp:434] roi_pool_org <- rois_proposal_info_0_split_0
I0323 12:58:47.931921 18712 net.cpp:408] roi_pool_org -> roi_pool_org
I0323 12:58:47.931931 18712 roi_pooling_layer.cpp:33] Spatial scale: 0.25
I0323 12:58:47.931965 18712 net.cpp:150] Setting up roi_pool_org
I0323 12:58:47.931972 18712 net.cpp:157] Top shape: 256 512 7 7 (6422528)
I0323 12:58:47.931974 18712 net.cpp:165] Memory required for data: 5276547900
I0323 12:58:47.931978 18712 layer_factory.hpp:77] Creating layer roi_pool_ctx
I0323 12:58:47.931982 18712 net.cpp:100] Creating Layer roi_pool_ctx
I0323 12:58:47.931987 18712 net.cpp:434] roi_pool_ctx <- conv4_3_2x_conv4_3_2x_0_split_1
I0323 12:58:47.931990 18712 net.cpp:434] roi_pool_ctx <- rois_proposal_info_0_split_1
I0323 12:58:47.931994 18712 net.cpp:408] roi_pool_ctx -> roi_pool_ctx
I0323 12:58:47.931999 18712 roi_pooling_layer.cpp:33] Spatial scale: 0.25
I0323 12:58:47.932031 18712 net.cpp:150] Setting up roi_pool_ctx
I0323 12:58:47.932037 18712 net.cpp:157] Top shape: 256 512 7 7 (6422528)
I0323 12:58:47.932041 18712 net.cpp:165] Memory required for data: 5302238012
I0323 12:58:47.932044 18712 layer_factory.hpp:77] Creating layer roi_pool
I0323 12:58:47.932049 18712 net.cpp:100] Creating Layer roi_pool
I0323 12:58:47.932054 18712 net.cpp:434] roi_pool <- roi_pool_org
I0323 12:58:47.932057 18712 net.cpp:434] roi_pool <- roi_pool_ctx
I0323 12:58:47.932061 18712 net.cpp:408] roi_pool -> roi_pool
I0323 12:58:47.932082 18712 net.cpp:150] Setting up roi_pool
I0323 12:58:47.932088 18712 net.cpp:157] Top shape: 256 1024 7 7 (12845056)
I0323 12:58:47.932091 18712 net.cpp:165] Memory required for data: 5353618236
I0323 12:58:47.932096 18712 layer_factory.hpp:77] Creating layer roi_c1
I0323 12:58:47.932102 18712 net.cpp:100] Creating Layer roi_c1
I0323 12:58:47.932106 18712 net.cpp:434] roi_c1 <- roi_pool
I0323 12:58:47.932112 18712 net.cpp:408] roi_c1 -> roi_c1
I0323 12:58:48.053102 18712 net.cpp:150] Setting up roi_c1
I0323 12:58:48.053133 18712 net.cpp:157] Top shape: 256 512 5 5 (3276800)
I0323 12:58:48.053138 18712 net.cpp:165] Memory required for data: 5366725436
I0323 12:58:48.053144 18712 layer_factory.hpp:77] Creating layer roi_c1_relu
I0323 12:58:48.053155 18712 net.cpp:100] Creating Layer roi_c1_relu
I0323 12:58:48.053161 18712 net.cpp:434] roi_c1_relu <- roi_c1
I0323 12:58:48.053169 18712 net.cpp:395] roi_c1_relu -> roi_c1 (in-place)
I0323 12:58:48.054045 18712 net.cpp:150] Setting up roi_c1_relu
I0323 12:58:48.054093 18712 net.cpp:157] Top shape: 256 512 5 5 (3276800)
I0323 12:58:48.054098 18712 net.cpp:165] Memory required for data: 5379832636
I0323 12:58:48.054103 18712 layer_factory.hpp:77] Creating layer fc6
I0323 12:58:48.054131 18712 net.cpp:100] Creating Layer fc6
I0323 12:58:48.054138 18712 net.cpp:434] fc6 <- roi_c1
I0323 12:58:48.054157 18712 net.cpp:408] fc6 -> fc6
I0323 12:58:49.341074 18712 net.cpp:150] Setting up fc6
I0323 12:58:49.341105 18712 net.cpp:157] Top shape: 256 4096 (1048576)
I0323 12:58:49.341109 18712 net.cpp:165] Memory required for data: 5384026940
I0323 12:58:49.341117 18712 layer_factory.hpp:77] Creating layer relu6
I0323 12:58:49.341127 18712 net.cpp:100] Creating Layer relu6
I0323 12:58:49.341132 18712 net.cpp:434] relu6 <- fc6
I0323 12:58:49.341138 18712 net.cpp:395] relu6 -> fc6 (in-place)
I0323 12:58:49.341359 18712 net.cpp:150] Setting up relu6
I0323 12:58:49.341368 18712 net.cpp:157] Top shape: 256 4096 (1048576)
I0323 12:58:49.341372 18712 net.cpp:165] Memory required for data: 5388221244
I0323 12:58:49.341375 18712 layer_factory.hpp:77] Creating layer drop6
I0323 12:58:49.341382 18712 net.cpp:100] Creating Layer drop6
I0323 12:58:49.341385 18712 net.cpp:434] drop6 <- fc6
I0323 12:58:49.341390 18712 net.cpp:395] drop6 -> fc6 (in-place)
I0323 12:58:49.341413 18712 net.cpp:150] Setting up drop6
I0323 12:58:49.341419 18712 net.cpp:157] Top shape: 256 4096 (1048576)
I0323 12:58:49.341423 18712 net.cpp:165] Memory required for data: 5392415548
I0323 12:58:49.341425 18712 layer_factory.hpp:77] Creating layer fc6_drop6_0_split
I0323 12:58:49.341434 18712 net.cpp:100] Creating Layer fc6_drop6_0_split
I0323 12:58:49.341436 18712 net.cpp:434] fc6_drop6_0_split <- fc6
I0323 12:58:49.341441 18712 net.cpp:408] fc6_drop6_0_split -> fc6_drop6_0_split_0
I0323 12:58:49.341457 18712 net.cpp:408] fc6_drop6_0_split -> fc6_drop6_0_split_1
I0323 12:58:49.341491 18712 net.cpp:150] Setting up fc6_drop6_0_split
I0323 12:58:49.341500 18712 net.cpp:157] Top shape: 256 4096 (1048576)
I0323 12:58:49.341504 18712 net.cpp:157] Top shape: 256 4096 (1048576)
I0323 12:58:49.341507 18712 net.cpp:165] Memory required for data: 5400804156
I0323 12:58:49.341511 18712 layer_factory.hpp:77] Creating layer cls_pred
I0323 12:58:49.341518 18712 net.cpp:100] Creating Layer cls_pred
I0323 12:58:49.341526 18712 net.cpp:434] cls_pred <- fc6_drop6_0_split_0
I0323 12:58:49.341531 18712 net.cpp:408] cls_pred -> cls_pred
I0323 12:58:49.342149 18712 net.cpp:150] Setting up cls_pred
I0323 12:58:49.342159 18712 net.cpp:157] Top shape: 256 5 (1280)
I0323 12:58:49.342161 18712 net.cpp:165] Memory required for data: 5400809276
I0323 12:58:49.342167 18712 layer_factory.hpp:77] Creating layer cls_pred_cls_pred_0_split
I0323 12:58:49.342172 18712 net.cpp:100] Creating Layer cls_pred_cls_pred_0_split
I0323 12:58:49.342175 18712 net.cpp:434] cls_pred_cls_pred_0_split <- cls_pred
I0323 12:58:49.342181 18712 net.cpp:408] cls_pred_cls_pred_0_split -> cls_pred_cls_pred_0_split_0
I0323 12:58:49.342187 18712 net.cpp:408] cls_pred_cls_pred_0_split -> cls_pred_cls_pred_0_split_1
I0323 12:58:49.342213 18712 net.cpp:150] Setting up cls_pred_cls_pred_0_split
I0323 12:58:49.342219 18712 net.cpp:157] Top shape: 256 5 (1280)
I0323 12:58:49.342223 18712 net.cpp:157] Top shape: 256 5 (1280)
I0323 12:58:49.342227 18712 net.cpp:165] Memory required for data: 5400819516
I0323 12:58:49.342231 18712 layer_factory.hpp:77] Creating layer bbox_pred
I0323 12:58:49.342236 18712 net.cpp:100] Creating Layer bbox_pred
I0323 12:58:49.342241 18712 net.cpp:434] bbox_pred <- fc6_drop6_0_split_1
I0323 12:58:49.342245 18712 net.cpp:408] bbox_pred -> bbox_pred
I0323 12:58:49.344473 18712 net.cpp:150] Setting up bbox_pred
I0323 12:58:49.344481 18712 net.cpp:157] Top shape: 256 20 (5120)
I0323 12:58:49.344485 18712 net.cpp:165] Memory required for data: 5400839996
I0323 12:58:49.344489 18712 layer_factory.hpp:77] Creating layer bbox_pred_bbox_pred_0_split
I0323 12:58:49.344496 18712 net.cpp:100] Creating Layer bbox_pred_bbox_pred_0_split
I0323 12:58:49.344499 18712 net.cpp:434] bbox_pred_bbox_pred_0_split <- bbox_pred
I0323 12:58:49.344504 18712 net.cpp:408] bbox_pred_bbox_pred_0_split -> bbox_pred_bbox_pred_0_split_0
I0323 12:58:49.344509 18712 net.cpp:408] bbox_pred_bbox_pred_0_split -> bbox_pred_bbox_pred_0_split_1
I0323 12:58:49.344540 18712 net.cpp:150] Setting up bbox_pred_bbox_pred_0_split
I0323 12:58:49.344547 18712 net.cpp:157] Top shape: 256 20 (5120)
I0323 12:58:49.344552 18712 net.cpp:157] Top shape: 256 20 (5120)
I0323 12:58:49.344554 18712 net.cpp:165] Memory required for data: 5400880956
I0323 12:58:49.344558 18712 layer_factory.hpp:77] Creating layer loss_cls
I0323 12:58:49.344561 18712 net.cpp:100] Creating Layer loss_cls
I0323 12:58:49.344564 18712 net.cpp:434] loss_cls <- cls_pred_cls_pred_0_split_0
I0323 12:58:49.344569 18712 net.cpp:434] loss_cls <- proposal_labels_proposal_info_1_split_0
…
I0323 12:58:49.357081 18712 image_gt_data_layer.cpp:235] output label size 2 : 2,6,48,48
I0323 12:58:49.357128 18712 image_gt_data_layer.cpp:235] output label size 3 : 2,6,48,48
I0323 12:58:49.357177 18712 image_gt_data_layer.cpp:235] output label size 4 : 2,6,24,24
I0323 12:58:49.357223 18712 image_gt_data_layer.cpp:235] output label size 5 : 2,6,24,24
I0323 12:58:49.357270 18712 image_gt_data_layer.cpp:235] output label size 6 : 2,6,12,12
I0323 12:58:49.357317 18712 image_gt_data_layer.cpp:250] output gt boxes size: 1,7,1,1
I0323 12:58:49.395396 18712 net.cpp:150] Setting up data
I0323 12:58:49.395424 18712 net.cpp:157] Top shape: 2 4 768 768 (4718592)
I0323 12:58:49.395429 18712 net.cpp:157] Top shape: 2 6 96 96 (110592)
I0323 12:58:49.395434 18712 net.cpp:157] Top shape: 2 6 96 96 (110592)
I0323 12:58:49.395439 18712 net.cpp:157] Top shape: 2 6 48 48 (27648)
I0323 12:58:49.395443 18712 net.cpp:157] Top shape: 2 6 48 48 (27648)
I0323 12:58:49.395448 18712 net.cpp:157] Top shape: 2 6 24 24 (6912)
I0323 12:58:49.395452 18712 net.cpp:157] Top shape: 2 6 24 24 (6912)
I0323 12:58:49.395457 18712 net.cpp:157] Top shape: 2 6 12 12 (1728)
I0323 12:58:49.395460 18712 net.cpp:157] Top shape: 1 7 1 1 (7)
I0323 12:58:49.395464 18712 net.cpp:165] Memory required for data: 20042524
I0323 12:58:49.395472 18712 layer_factory.hpp:77] Creating layer label_1_5x5_data_1_split
I0323 12:58:49.395484 18712 net.cpp:100] Creating Layer label_1_5x5_data_1_split
I0323 12:58:49.395489 18712 net.cpp:434] label_1_5x5_data_1_split <- label_1_5x5
I0323 12:58:49.395498 18712 net.cpp:408] label_1_5x5_data_1_split -> label_1_5x5_data_1_split_0
I0323 12:58:49.395507 18712 net.cpp:408] label_1_5x5_data_1_split -> label_1_5x5_data_1_split_1
I0323 12:58:49.395819 18712 net.cpp:150] Setting up label_1_5x5_data_1_split
I0323 12:58:49.395866 18712 net.cpp:157] Top shape: 2 6 96 96 (110592)
I0323 12:58:49.395879 18712 net.cpp:157] Top shape: 2 6 96 96 (110592)
I0323 12:58:49.395887 18712 net.cpp:165] Memory required for data: 20927260
I0323 12:58:49.395898 18712 layer_factory.hpp:77] Creating layer label_1_7x7_data_2_split
I0323 12:58:49.395920 18712 net.cpp:100] Creating Layer label_1_7x7_data_2_split
I0323 12:58:49.395932 18712 net.cpp:434] label_1_7x7_data_2_split <- label_1_7x7
I0323 12:58:49.395946 18712 net.cpp:408] label_1_7x7_data_2_split -> label_1_7x7_data_2_split_0
I0323 12:58:49.395964 18712 net.cpp:408] label_1_7x7_data_2_split -> label_1_7x7_data_2_split_1
I0323 12:58:49.396051 18712 net.cpp:150] Setting up label_1_7x7_data_2_split
I0323 12:58:49.396064 18712 net.cpp:157] Top shape: 2 6 96 96 (110592)
I0323 12:58:49.396075 18712 net.cpp:157] Top shape: 2 6 96 96 (110592)
I0323 12:58:49.396081 18712 net.cpp:165] Memory required for data: 21811996
I0323 12:58:49.396090 18712 layer_factory.hpp:77] Creating layer label_2_5x5_data_3_split
I0323 12:58:49.396100 18712 net.cpp:100] Creating Layer label_2_5x5_data_3_split
I0323 12:58:49.396108 18712 net.cpp:434] label_2_5x5_data_3_split <- label_2_5x5
I0323 12:58:49.396121 18712 net.cpp:408] label_2_5x5_data_3_split -> label_2_5x5_data_3_split_0
I0323 12:58:49.396133 18712 net.cpp:408] label_2_5x5_data_3_split -> label_2_5x5_data_3_split_1
I0323 12:58:49.396209 18712 net.cpp:150] Setting up label_2_5x5_data_3_split
I0323 12:58:49.396221 18712 net.cpp:157] Top shape: 2 6 48 48 (27648)
I0323 12:58:49.396231 18712 net.cpp:157] Top shape: 2 6 48 48 (27648)
I0323 12:58:49.396239 18712 net.cpp:165] Memory required for data: 22033180
I0323 12:58:49.396246 18712 layer_factory.hpp:77] Creating layer label_2_7x7_data_4_split
I0323 12:58:49.396257 18712 net.cpp:100] Creating Layer label_2_7x7_data_4_split
I0323 12:58:49.396265 18712 net.cpp:434] label_2_7x7_data_4_split <- label_2_7x7
I0323 12:58:49.396278 18712 net.cpp:408] label_2_7x7_data_4_split -> label_2_7x7_data_4_split_0
I0323 12:58:49.396289 18712 net.cpp:408] label_2_7x7_data_4_split -> label_2_7x7_data_4_split_1
I0323 12:58:49.396366 18712 net.cpp:150] Setting up label_2_7x7_data_4_split
I0323 12:58:49.396378 18712 net.cpp:157] Top shape: 2 6 48 48 (27648)
I0323 12:58:49.396387 18712 net.cpp:157] Top shape: 2 6 48 48 (27648)
I0323 12:58:49.396394 18712 net.cpp:165] Memory required for data: 22254364
I0323 12:58:49.396402 18712 layer_factory.hpp:77] Creating layer label_3_5x5_data_5_split
I0323 12:58:49.396411 18712 net.cpp:100] Creating Layer label_3_5x5_data_5_split
I0323 12:58:49.396420 18712 net.cpp:434] label_3_5x5_data_5_split <- label_3_5x5
I0323 12:58:49.396430 18712 net.cpp:408] label_3_5x5_data_5_split -> label_3_5x5_data_5_split_0
I0323 12:58:49.396442 18712 net.cpp:408] label_3_5x5_data_5_split -> label_3_5x5_data_5_split_1
I0323 12:58:49.396512 18712 net.cpp:150] Setting up label_3_5x5_data_5_split
I0323 12:58:49.396522 18712 net.cpp:157] Top shape: 2 6 24 24 (6912)
I0323 12:58:49.396533 18712 net.cpp:157] Top shape: 2 6 24 24 (6912)
I0323 12:58:49.396538 18712 net.cpp:165] Memory required for data: 22309660
I0323 12:58:49.396545 18712 layer_factory.hpp:77] Creating layer label_3_7x7_data_6_split
I0323 12:58:49.396556 18712 net.cpp:100] Creating Layer label_3_7x7_data_6_split
I0323 12:58:49.396564 18712 net.cpp:434] label_3_7x7_data_6_split <- label_3_7x7
I0323 12:58:49.396574 18712 net.cpp:408] label_3_7x7_data_6_split -> label_3_7x7_data_6_split_0
I0323 12:58:49.396584 18712 net.cpp:408] label_3_7x7_data_6_split -> label_3_7x7_data_6_split_1
I0323 12:58:49.396653 18712 net.cpp:150] Setting up label_3_7x7_data_6_split
I0323 12:58:49.396664 18712 net.cpp:157] Top shape: 2 6 24 24 (6912)
I0323 12:58:49.396673 18712 net.cpp:157] Top shape: 2 6 24 24 (6912)
I0323 12:58:49.396680 18712 net.cpp:165] Memory required for data: 22364956
I0323 12:58:49.396687 18712 layer_factory.hpp:77] Creating layer label_4_5x5_data_7_split
I0323 12:58:49.396695 18712 net.cpp:100] Creating Layer label_4_5x5_data_7_split
I0323 12:58:49.396703 18712 net.cpp:434] label_4_5x5_data_7_split <- label_4_5x5
I0323 12:58:49.396713 18712 net.cpp:408] label_4_5x5_data_7_split -> label_4_5x5_data_7_split_0
I0323 12:58:49.396723 18712 net.cpp:408] label_4_5x5_data_7_split -> label_4_5x5_data_7_split_1
I0323 12:58:49.396792 18712 net.cpp:150] Setting up label_4_5x5_data_7_split
I0323 12:58:49.396806 18712 net.cpp:157] Top shape: 2 6 12 12 (1728)
I0323 12:58:49.396816 18712 net.cpp:157] Top shape: 2 6 12 12 (1728)
I0323 12:58:49.396822 18712 net.cpp:165] Memory required for data: 22378780
I0323 12:58:49.396829 18712 layer_factory.hpp:77] Creating layer slice
I0323 12:58:49.396843 18712 net.cpp:100] Creating Layer slice
I0323 12:58:49.396850 18712 net.cpp:434] slice <- data
I0323 12:58:49.396863 18712 net.cpp:408] slice -> data123
I0323 12:58:49.396875 18712 net.cpp:408] slice -> ch4
I0323 12:58:49.396946 18712 net.cpp:150] Setting up slice
I0323 12:58:49.396957 18712 net.cpp:157] Top shape: 2 3 768 768 (3538944)
I0323 12:58:49.396966 18712 net.cpp:157] Top shape: 2 1 768 768 (1179648)
I0323 12:58:49.396972 18712 net.cpp:165] Memory required for data: 41253148
I0323 12:58:49.396980 18712 layer_factory.hpp:77] Creating layer conv1_1
I0323 12:58:49.396996 18712 net.cpp:100] Creating Layer conv1_1
I0323 12:58:49.397003 18712 net.cpp:434] conv1_1 <- data123
I0323 12:58:49.397013 18712 net.cpp:408] conv1_1 -> conv1_1
I0323 12:58:49.410987 18712 net.cpp:150] Setting up conv1_1
I0323 12:58:49.411038 18712 net.cpp:157] Top shape: 2 64 768 768 (75497472)
I0323 12:58:49.411048 18712 net.cpp:165] Memory required for data: 343243036
I0323 12:58:49.411084 18712 layer_factory.hpp:77] Creating layer relu1_1
I0323 12:58:49.411141 18712 net.cpp:100] Creating Layer relu1_1
I0323 12:58:49.411165 18712 net.cpp:434] relu1_1 <- conv1_1
I0323 12:58:49.411188 18712 net.cpp:395] relu1_1 -> conv1_1 (in-place)
I0323 12:58:49.412114 18712 net.cpp:150] Setting up relu1_1
I0323 12:58:49.412178 18712 net.cpp:157] Top shape: 2 64 768 768 (75497472)
I0323 12:58:49.412194 18712 net.cpp:165] Memory required for data: 645232924
I0323 12:58:49.412206 18712 layer_factory.hpp:77] Creating layer conv1_2
I0323 12:58:49.412266 18712 net.cpp:100] Creating Layer conv1_2
I0323 12:58:49.412278 18712 net.cpp:434] conv1_2 <- conv1_1
I0323 12:58:49.412298 18712 net.cpp:408] conv1_2 -> conv1_2
I0323 12:58:49.416316 18712 net.cpp:150] Setting up conv1_2
I0323 12:58:49.416375 18712 net.cpp:157] Top shape: 2 64 768 768 (75497472)
I0323 12:58:49.416381 18712 net.cpp:165] Memory required for data: 947222812
I0323 12:58:49.416414 18712 layer_factory.hpp:77] Creating layer relu1_2
I0323 12:58:49.416436 18712 net.cpp:100] Creating Layer relu1_2
I0323 12:58:49.416447 18712 net.cpp:434] relu1_2 <- conv1_2
I0323 12:58:49.416460 18712 net.cpp:395] relu1_2 -> conv1_2 (in-place)
I0323 12:58:49.416849 18712 net.cpp:150] Setting up relu1_2
I0323 12:58:49.416864 18712 net.cpp:157] Top shape: 2 64 768 768 (75497472)
I0323 12:58:49.416869 18712 net.cpp:165] Memory required for data: 1249212700
I0323 12:58:49.416874 18712 layer_factory.hpp:77] Creating layer pool1
I0323 12:58:49.416884 18712 net.cpp:100] Creating Layer pool1
I0323 12:58:49.416889 18712 net.cpp:434] pool1 <- conv1_2
I0323 12:58:49.416901 18712 net.cpp:408] pool1 -> pool1
I0323 12:58:49.416999 18712 net.cpp:150] Setting up pool1
I0323 12:58:49.417007 18712 net.cpp:157] Top shape: 2 64 384 384 (18874368)
I0323 12:58:49.417011 18712 net.cpp:165] Memory required for data: 1324710172
I0323 12:58:49.417016 18712 layer_factory.hpp:77] Creating layer conv2_1
I0323 12:58:49.417033 18712 net.cpp:100] Creating Layer conv2_1
I0323 12:58:49.417039 18712 net.cpp:434] conv2_1 <- pool1
I0323 12:58:49.417044 18712 net.cpp:408] conv2_1 -> conv2_1
I0323 12:58:49.420547 18712 net.cpp:150] Setting up conv2_1
I0323 12:58:49.420585 18712 net.cpp:157] Top shape: 2 128 384 384 (37748736)
I0323 12:58:49.420589 18712 net.cpp:165] Memory required for data: 1475705116
I0323 12:58:49.420606 18712 layer_factory.hpp:77] Creating layer relu2_1
I0323 12:58:49.420624 18712 net.cpp:100] Creating Layer relu2_1
I0323 12:58:49.420631 18712 net.cpp:434] relu2_1 <- conv2_1
I0323 12:58:49.420637 18712 net.cpp:395] relu2_1 -> conv2_1 (in-place)
I0323 12:58:49.421303 18712 net.cpp:150] Setting up relu2_1
I0323 12:58:49.421319 18712 net.cpp:157] Top shape: 2 128 384 384 (37748736)
I0323 12:58:49.421322 18712 net.cpp:165] Memory required for data: 1626700060
I0323 12:58:49.421327 18712 layer_factory.hpp:77] Creating layer conv2_2
I0323 12:58:49.421346 18712 net.cpp:100] Creating Layer conv2_2
I0323 12:58:49.421352 18712 net.cpp:434] conv2_2 <- conv2_1
I0323 12:58:49.421361 18712 net.cpp:408] conv2_2 -> conv2_2
I0323 12:58:49.425752 18712 net.cpp:150] Setting up conv2_2
I0323 12:58:49.425783 18712 net.cpp:157] Top shape: 2 128 384 384 (37748736)
I0323 12:58:49.425787 18712 net.cpp:165] Memory required for data: 1777695004
I0323 12:58:49.425799 18712 layer_factory.hpp:77] Creating layer relu2_2
I0323 12:58:49.425812 18712 net.cpp:100] Creating Layer relu2_2
I0323 12:58:49.425817 18712 net.cpp:434] relu2_2 <- conv2_2
I0323 12:58:49.425824 18712 net.cpp:395] relu2_2 -> conv2_2 (in-place)
I0323 12:58:49.426473 18712 net.cpp:150] Setting up relu2_2
I0323 12:58:49.426497 18712 net.cpp:157] Top shape: 2 128 384 384 (37748736)
I0323 12:58:49.426502 18712 net.cpp:165] Memory required for data: 1928689948
I0323 12:58:49.426507 18712 layer_factory.hpp:77] Creating layer pool2
I0323 12:58:49.426520 18712 net.cpp:100] Creating Layer pool2
I0323 12:58:49.426527 18712 net.cpp:434] pool2 <- conv2_2
I0323 12:58:49.426537 18712 net.cpp:408] pool2 -> pool2
I0323 12:58:49.426636 18712 net.cpp:150] Setting up pool2
I0323 12:58:49.426645 18712 net.cpp:157] Top shape: 2 128 192 192 (9437184)
I0323 12:58:49.426647 18712 net.cpp:165] Memory required for data: 1966438684
I0323 12:58:49.426651 18712 layer_factory.hpp:77] Creating layer conv3_1
I0323 12:58:49.426666 18712 net.cpp:100] Creating Layer conv3_1
I0323 12:58:49.426674 18712 net.cpp:434] conv3_1 <- pool2
I0323 12:58:49.426679 18712 net.cpp:408] conv3_1 -> conv3_1
I0323 12:58:49.429008 18712 net.cpp:150] Setting up conv3_1
I0323 12:58:49.429031 18712 net.cpp:157] Top shape: 2 256 192 192 (18874368)
I0323 12:58:49.429035 18712 net.cpp:165] Memory required for data: 2041936156
I0323 12:58:49.429049 18712 layer_factory.hpp:77] Creating layer relu3_1
I0323 12:58:49.429059 18712 net.cpp:100] Creating Layer relu3_1
I0323 12:58:49.429064 18712 net.cpp:434] relu3_1 <- conv3_1
I0323 12:58:49.429070 18712 net.cpp:395] relu3_1 -> conv3_1 (in-place)
I0323 12:58:49.429237 18712 net.cpp:150] Setting up relu3_1
I0323 12:58:49.429246 18712 net.cpp:157] Top shape: 2 256 192 192 (18874368)
I0323 12:58:49.429250 18712 net.cpp:165] Memory required for data: 2117433628
I0323 12:58:49.429253 18712 layer_factory.hpp:77] Creating layer conv3_2
I0323 12:58:49.429261 18712 net.cpp:100] Creating Layer conv3_2
I0323 12:58:49.429265 18712 net.cpp:434] conv3_2 <- conv3_1
I0323 12:58:49.429270 18712 net.cpp:408] conv3_2 -> conv3_2
I0323 12:58:49.431967 18712 net.cpp:150] Setting up conv3_2
I0323 12:58:49.431987 18712 net.cpp:157] Top shape: 2 256 192 192 (18874368)
I0323 12:58:49.431990 18712 net.cpp:165] Memory required for data: 2192931100
I0323 12:58:49.431998 18712 layer_factory.hpp:77] Creating layer relu3_2
I0323 12:58:49.432004 18712 net.cpp:100] Creating Layer relu3_2
I0323 12:58:49.432008 18712 net.cpp:434] relu3_2 <- conv3_2
I0323 12:58:49.432013 18712 net.cpp:395] relu3_2 -> conv3_2 (in-place)
I0323 12:58:49.432178 18712 net.cpp:150] Setting up relu3_2
I0323 12:58:49.432185 18712 net.cpp:157] Top shape: 2 256 192 192 (18874368)
I0323 12:58:49.432189 18712 net.cpp:165] Memory required for data: 2268428572
I0323 12:58:49.432193 18712 layer_factory.hpp:77] Creating layer conv3_3
I0323 12:58:49.432200 18712 net.cpp:100] Creating Layer conv3_3
I0323 12:58:49.432204 18712 net.cpp:434] conv3_3 <- conv3_2
I0323 12:58:49.432209 18712 net.cpp:408] conv3_3 -> conv3_3
I0323 12:58:49.434864 18712 net.cpp:150] Setting up conv3_3
I0323 12:58:49.434885 18712 net.cpp:157] Top shape: 2 256 192 192 (18874368)
I0323 12:58:49.434890 18712 net.cpp:165] Memory required for data: 2343926044
I0323 12:58:49.434908 18712 layer_factory.hpp:77] Creating layer relu3_3
I0323 12:58:49.434921 18712 net.cpp:100] Creating Layer relu3_3
I0323 12:58:49.434928 18712 net.cpp:434] relu3_3 <- conv3_3
I0323 12:58:49.434937 18712 net.cpp:395] relu3_3 -> conv3_3 (in-place)
I0323 12:58:49.435108 18712 net.cpp:150] Setting up relu3_3
I0323 12:58:49.435119 18712 net.cpp:157] Top shape: 2 256 192 192 (18874368)
I0323 12:58:49.435124 18712 net.cpp:165] Memory required for data: 2419423516
I0323 12:58:49.435129 18712 layer_factory.hpp:77] Creating layer pool3
I0323 12:58:49.435138 18712 net.cpp:100] Creating Layer pool3
I0323 12:58:49.435144 18712 net.cpp:434] pool3 <- conv3_3
I0323 12:58:49.435153 18712 net.cpp:408] pool3 -> pool3
I0323 12:58:49.435202 18712 net.cpp:150] Setting up pool3
I0323 12:58:49.435211 18712 net.cpp:157] Top shape: 2 256 96 96 (4718592)
I0323 12:58:49.435215 18712 net.cpp:165] Memory required for data: 2438297884
I0323 12:58:49.435220 18712 layer_factory.hpp:77] Creating layer conv4_1
I0323 12:58:49.435232 18712 net.cpp:100] Creating Layer conv4_1
I0323 12:58:49.435238 18712 net.cpp:434] conv4_1 <- pool3
I0323 12:58:49.435248 18712 net.cpp:408] conv4_1 -> conv4_1
I0323 12:58:49.438830 18712 net.cpp:150] Setting up conv4_1
I0323 12:58:49.438860 18712 net.cpp:157] Top shape: 2 512 96 96 (9437184)
I0323 12:58:49.438866 18712 net.cpp:165] Memory required for data: 2476046620
I0323 12:58:49.438882 18712 layer_factory.hpp:77] Creating layer relu4_1
I0323 12:58:49.438896 18712 net.cpp:100] Creating Layer relu4_1
I0323 12:58:49.438905 18712 net.cpp:434] relu4_1 <- conv4_1
I0323 12:58:49.438916 18712 net.cpp:395] relu4_1 -> conv4_1 (in-place)
I0323 12:58:49.439098 18712 net.cpp:150] Setting up relu4_1
I0323 12:58:49.439110 18712 net.cpp:157] Top shape: 2 512 96 96 (9437184)
I0323 12:58:49.439113 18712 net.cpp:165] Memory required for data: 2513795356
I0323 12:58:49.439118 18712 layer_factory.hpp:77] Creating layer conv4_2
I0323 12:58:49.439129 18712 net.cpp:100] Creating Layer conv4_2
I0323 12:58:49.439136 18712 net.cpp:434] conv4_2 <- conv4_1
I0323 12:58:49.439144 18712 net.cpp:408] conv4_2 -> conv4_2
I0323 12:58:49.448702 18712 net.cpp:150] Setting up conv4_2
I0323 12:58:49.448750 18712 net.cpp:157] Top shape: 2 512 96 96 (9437184)
I0323 12:58:49.448760 18712 net.cpp:165] Memory required for data: 2551544092
I0323 12:58:49.448786 18712 layer_factory.hpp:77] Creating layer relu4_2
I0323 12:58:49.448809 18712 net.cpp:100] Creating Layer relu4_2
I0323 12:58:49.448822 18712 net.cpp:434] relu4_2 <- conv4_2
I0323 12:58:49.448835 18712 net.cpp:395] relu4_2 -> conv4_2 (in-place)
I0323 12:58:49.449928 18712 net.cpp:150] Setting up relu4_2
I0323 12:58:49.449966 18712 net.cpp:157] Top shape: 2 512 96 96 (9437184)
I0323 12:58:49.449975 18712 net.cpp:165] Memory required for data: 2589292828
I0323 12:58:49.449985 18712 layer_factory.hpp:77] Creating layer conv4_3
I0323 12:58:49.450009 18712 net.cpp:100] Creating Layer conv4_3
I0323 12:58:49.450019 18712 net.cpp:434] conv4_3 <- conv4_2
I0323 12:58:49.450036 18712 net.cpp:408] conv4_3 -> conv4_3
I0323 12:58:49.460021 18712 net.cpp:150] Setting up conv4_3
I0323 12:58:49.460067 18712 net.cpp:157] Top shape: 2 512 96 96 (9437184)
I0323 12:58:49.460070 18712 net.cpp:165] Memory required for data: 2627041564
I0323 12:58:49.460083 18712 layer_factory.hpp:77] Creating layer relu4_3
I0323 12:58:49.460101 18712 net.cpp:100] Creating Layer relu4_3
I0323 12:58:49.460111 18712 net.cpp:434] relu4_3 <- conv4_3
I0323 12:58:49.460121 18712 net.cpp:395] relu4_3 -> conv4_3 (in-place)
I0323 12:58:49.460288 18712 net.cpp:150] Setting up relu4_3
I0323 12:58:49.460297 18712 net.cpp:157] Top shape: 2 512 96 96 (9437184)
I0323 12:58:49.460300 18712 net.cpp:165] Memory required for data: 2664790300
I0323 12:58:49.460305 18712 layer_factory.hpp:77] Creating layer conv4_3_relu4_3_0_split
I0323 12:58:49.460317 18712 net.cpp:100] Creating Layer conv4_3_relu4_3_0_split
I0323 12:58:49.460322 18712 net.cpp:434] conv4_3_relu4_3_0_split <- conv4_3
I0323 12:58:49.460330 18712 net.cpp:408] conv4_3_relu4_3_0_split -> conv4_3_relu4_3_0_split_0
I0323 12:58:49.460336 18712 net.cpp:408] conv4_3_relu4_3_0_split -> conv4_3_relu4_3_0_split_1
I0323 12:58:49.460342 18712 net.cpp:408] conv4_3_relu4_3_0_split -> conv4_3_relu4_3_0_split_2
I0323 12:58:49.460397 18712 net.cpp:150] Setting up conv4_3_relu4_3_0_split
I0323 12:58:49.460403 18712 net.cpp:157] Top shape: 2 512 96 96 (9437184)
I0323 12:58:49.460407 18712 net.cpp:157] Top shape: 2 512 96 96 (9437184)
I0323 12:58:49.460412 18712 net.cpp:157] Top shape: 2 512 96 96 (9437184)
I0323 12:58:49.460415 18712 net.cpp:165] Memory required for data: 2778036508
I0323 12:58:49.460418 18712 layer_factory.hpp:77] Creating layer loss1_conv1
I0323 12:58:49.460433 18712 net.cpp:100] Creating Layer loss1_conv1
I0323 12:58:49.460438 18712 net.cpp:434] loss1_conv1 <- conv4_3_relu4_3_0_split_0
I0323 12:58:49.460446 18712 net.cpp:408] loss1_conv1 -> loss1_conv1
I0323 12:58:49.527104 18712 net.cpp:150] Setting up loss1_conv1
I0323 12:58:49.527139 18712 net.cpp:157] Top shape: 2 512 96 96 (9437184)
I0323 12:58:49.527143 18712 net.cpp:165] Memory required for data: 2815785244
I0323 12:58:49.527153 18712 layer_factory.hpp:77] Creating layer loss_relu1
I0323 12:58:49.527166 18712 net.cpp:100] Creating Layer loss_relu1
I0323 12:58:49.527173 18712 net.cpp:434] loss_relu1 <- loss1_conv1
I0323 12:58:49.527180 18712 net.cpp:395] loss_relu1 -> loss1_conv1 (in-place)
I0323 12:58:49.527357 18712 net.cpp:150] Setting up loss_relu1
I0323 12:58:49.527367 18712 net.cpp:157] Top shape: 2 512 96 96 (9437184)
I0323 12:58:49.527370 18712 net.cpp:165] Memory required for data: 2853533980
I0323 12:58:49.527374 18712 layer_factory.hpp:77] Creating layer loss1_conv1_loss_relu1_0_split
I0323 12:58:49.527381 18712 net.cpp:100] Creating Layer loss1_conv1_loss_relu1_0_split
I0323 12:58:49.527387 18712 net.cpp:434] loss1_conv1_loss_relu1_0_split <- loss1_conv1
I0323 12:58:49.527392 18712 net.cpp:408] loss1_conv1_loss_relu1_0_split -> loss1_conv1_loss_relu1_0_split_0
I0323 12:58:49.527400 18712 net.cpp:408] loss1_conv1_loss_relu1_0_split -> loss1_conv1_loss_relu1_0_split_1
I0323 12:58:49.527438 18712 net.cpp:150] Setting up loss1_conv1_loss_relu1_0_split
I0323 12:58:49.527446 18712 net.cpp:157] Top shape: 2 512 96 96 (9437184)
I0323 12:58:49.527449 18712 net.cpp:157] Top shape: 2 512 96 96 (9437184)
I0323 12:58:49.527452 18712 net.cpp:165] Memory required for data: 2929031452
I0323 12:58:49.527456 18712 layer_factory.hpp:77] Creating layer LFCN_1_5x5
I0323 12:58:49.527467 18712 net.cpp:100] Creating Layer LFCN_1_5x5
I0323 12:58:49.527472 18712 net.cpp:434] LFCN_1_5x5 <- loss1_conv1_loss_relu1_0_split_0
I0323 12:58:49.527478 18712 net.cpp:408] LFCN_1_5x5 -> LFCN_1_5x5
I0323 12:58:49.532493 18712 net.cpp:150] Setting up LFCN_1_5x5
I0323 12:58:49.532507 18712 net.cpp:157] Top shape: 2 9 96 96 (165888)
I0323 12:58:49.532511 18712 net.cpp:165] Memory required for data: 2929695004
I0323 12:58:49.532517 18712 layer_factory.hpp:77] Creating layer LFCN_1_5x5_LFCN_1_5x5_0_split
I0323 12:58:49.532523 18712 net.cpp:100] Creating Layer LFCN_1_5x5_LFCN_1_5x5_0_split
I0323 12:58:49.532527 18712 net.cpp:434] LFCN_1_5x5_LFCN_1_5x5_0_split <- LFCN_1_5x5
I0323 12:58:49.532536 18712 net.cpp:408] LFCN_1_5x5_LFCN_1_5x5_0_split -> LFCN_1_5x5_LFCN_1_5x5_0_split_0
I0323 12:58:49.532542 18712 net.cpp:408] LFCN_1_5x5_LFCN_1_5x5_0_split -> LFCN_1_5x5_LFCN_1_5x5_0_split_1
I0323 12:58:49.532549 18712 net.cpp:408] LFCN_1_5x5_LFCN_1_5x5_0_split -> LFCN_1_5x5_LFCN_1_5x5_0_split_2
I0323 12:58:49.532604 18712 net.cpp:150] Setting up LFCN_1_5x5_LFCN_1_5x5_0_split
I0323 12:58:49.532611 18712 net.cpp:157] Top shape: 2 9 96 96 (165888)
I0323 12:58:49.532616 18712 net.cpp:157] Top shape: 2 9 96 96 (165888)
I0323 12:58:49.532621 18712 net.cpp:157] Top shape: 2 9 96 96 (165888)
I0323 12:58:49.532625 18712 net.cpp:165] Memory required for data: 2931685660
I0323 12:58:49.532629 18712 layer_factory.hpp:77] Creating layer detection_loss_1_5x5
I0323 12:58:49.532637 18712 net.cpp:100] Creating Layer detection_loss_1_5x5
I0323 12:58:49.532641 18712 net.cpp:434] detection_loss_1_5x5 <- LFCN_1_5x5_LFCN_1_5x5_0_split_0
I0323 12:58:49.532647 18712 net.cpp:434] detection_loss_1_5x5 <- label_1_5x5_data_1_split_0
I0323 12:58:49.532656 18712 net.cpp:408] detection_loss_1_5x5 -> loss_1_5x5
I0323 12:58:49.532667 18712 layer_factory.hpp:77] Creating layer detection_loss_1_5x5
I0323 12:58:49.533088 18712 net.cpp:150] Setting up detection_loss_1_5x5
I0323 12:58:49.533099 18712 net.cpp:157] Top shape: 1 1 1 2 (2)
I0323 12:58:49.533103 18712 net.cpp:160]     with loss weight 0.9
I0323 12:58:49.533114 18712 net.cpp:165] Memory required for data: 2931685668
I0323 12:58:49.533118 18712 layer_factory.hpp:77] Creating layer detection_accuracy_1_5x5
I0323 12:58:49.533125 18712 net.cpp:100] Creating Layer detection_accuracy_1_5x5
I0323 12:58:49.533129 18712 net.cpp:434] detection_accuracy_1_5x5 <- LFCN_1_5x5_LFCN_1_5x5_0_split_1
I0323 12:58:49.533138 18712 net.cpp:434] detection_accuracy_1_5x5 <- label_1_5x5_data_1_split_1
I0323 12:58:49.533144 18712 net.cpp:408] detection_accuracy_1_5x5 -> accuracy_1_5x5
I0323 12:58:49.533154 18712 net.cpp:408] detection_accuracy_1_5x5 -> boxiou_1_5x5
I0323 12:58:49.533198 18712 net.cpp:150] Setting up detection_accuracy_1_5x5
I0323 12:58:49.533206 18712 net.cpp:157] Top shape: 1 1 1 2 (2)
I0323 12:58:49.533211 18712 net.cpp:157] Top shape: 1 1 1 1 (1)
I0323 12:58:49.533215 18712 net.cpp:165] Memory required for data: 2931685680
I0323 12:58:49.533218 18712 layer_factory.hpp:77] Creating layer LFCN_1_7x7
I0323 12:58:49.533231 18712 net.cpp:100] Creating Layer LFCN_1_7x7
I0323 12:58:49.533236 18712 net.cpp:434] LFCN_1_7x7 <- loss1_conv1_loss_relu1_0_split_1
I0323 12:58:49.533244 18712 net.cpp:408] LFCN_1_7x7 -> LFCN_1_7x7
I0323 12:58:49.539963 18712 net.cpp:150] Setting up LFCN_1_7x7
I0323 12:58:49.539976 18712 net.cpp:157] Top shape: 2 9 96 96 (165888)
I0323 12:58:49.539980 18712 net.cpp:165] Memory required for data: 2932349232
I0323 12:58:49.539986 18712 layer_factory.hpp:77] Creating layer LFCN_1_7x7_LFCN_1_7x7_0_split
I0323 12:58:49.539991 18712 net.cpp:100] Creating Layer LFCN_1_7x7_LFCN_1_7x7_0_split
I0323 12:58:49.539995 18712 net.cpp:434] LFCN_1_7x7_LFCN_1_7x7_0_split <- LFCN_1_7x7
I0323 12:58:49.540001 18712 net.cpp:408] LFCN_1_7x7_LFCN_1_7x7_0_split -> LFCN_1_7x7_LFCN_1_7x7_0_split_0
I0323 12:58:49.540007 18712 net.cpp:408] LFCN_1_7x7_LFCN_1_7x7_0_split -> LFCN_1_7x7_LFCN_1_7x7_0_split_1
I0323 12:58:49.540014 18712 net.cpp:408] LFCN_1_7x7_LFCN_1_7x7_0_split -> LFCN_1_7x7_LFCN_1_7x7_0_split_2
I0323 12:58:49.540063 18712 net.cpp:150] Setting up LFCN_1_7x7_LFCN_1_7x7_0_split
I0323 12:58:49.540071 18712 net.cpp:157] Top shape: 2 9 96 96 (165888)
I0323 12:58:49.540076 18712 net.cpp:157] Top shape: 2 9 96 96 (165888)
I0323 12:58:49.540079 18712 net.cpp:157] Top shape: 2 9 96 96 (165888)
I0323 12:58:49.540082 18712 net.cpp:165] Memory required for data: 2934339888
I0323 12:58:49.540086 18712 layer_factory.hpp:77] Creating layer detection_loss_1_7x7
I0323 12:58:49.540091 18712 net.cpp:100] Creating Layer detection_loss_1_7x7
I0323 12:58:49.540094 18712 net.cpp:434] detection_loss_1_7x7 <- LFCN_1_7x7_LFCN_1_7x7_0_split_0
I0323 12:58:49.540099 18712 net.cpp:434] detection_loss_1_7x7 <- label_1_7x7_data_2_split_0
I0323 12:58:49.540105 18712 net.cpp:408] detection_loss_1_7x7 -> loss_1_7x7
I0323 12:58:49.540112 18712 layer_factory.hpp:77] Creating layer detection_loss_1_7x7
I0323 12:58:49.540526 18712 net.cpp:150] Setting up detection_loss_1_7x7
I0323 12:58:49.540539 18712 net.cpp:157] Top shape: 1 1 1 2 (2)
I0323 12:58:49.540542 18712 net.cpp:160]     with loss weight 0.9
I0323 12:58:49.540550 18712 net.cpp:165] Memory required for data: 2934339896
I0323 12:58:49.540555 18712 layer_factory.hpp:77] Creating layer detection_accuracy_1_7x7
I0323 12:58:49.540561 18712 net.cpp:100] Creating Layer detection_accuracy_1_7x7
I0323 12:58:49.540565 18712 net.cpp:434] detection_accuracy_1_7x7 <- LFCN_1_7x7_LFCN_1_7x7_0_split_1
I0323 12:58:49.540570 18712 net.cpp:434] detection_accuracy_1_7x7 <- label_1_7x7_data_2_split_1
I0323 12:58:49.540575 18712 net.cpp:408] detection_accuracy_1_7x7 -> accuracy_1_7x7
I0323 12:58:49.540582 18712 net.cpp:408] detection_accuracy_1_7x7 -> boxiou_1_7x7
I0323 12:58:49.540622 18712 net.cpp:150] Setting up detection_accuracy_1_7x7
I0323 12:58:49.540628 18712 net.cpp:157] Top shape: 1 1 1 2 (2)
I0323 12:58:49.540632 18712 net.cpp:157] Top shape: 1 1 1 1 (1)
I0323 12:58:49.540635 18712 net.cpp:165] Memory required for data: 2934339908
I0323 12:58:49.540638 18712 layer_factory.hpp:77] Creating layer pool4
I0323 12:58:49.540647 18712 net.cpp:100] Creating Layer pool4
I0323 12:58:49.540650 18712 net.cpp:434] pool4 <- conv4_3_relu4_3_0_split_1
I0323 12:58:49.540658 18712 net.cpp:408] pool4 -> pool4
I0323 12:58:49.540695 18712 net.cpp:150] Setting up pool4
I0323 12:58:49.540704 18712 net.cpp:157] Top shape: 2 512 48 48 (2359296)
I0323 12:58:49.540706 18712 net.cpp:165] Memory required for data: 2943777092
I0323 12:58:49.540710 18712 layer_factory.hpp:77] Creating layer conv5_1
I0323 12:58:49.540716 18712 net.cpp:100] Creating Layer conv5_1
I0323 12:58:49.540720 18712 net.cpp:434] conv5_1 <- pool4
I0323 12:58:49.540726 18712 net.cpp:408] conv5_1 -> conv5_1
I0323 12:58:49.550611 18712 net.cpp:150] Setting up conv5_1
I0323 12:58:49.550662 18712 net.cpp:157] Top shape: 2 512 48 48 (2359296)
I0323 12:58:49.550668 18712 net.cpp:165] Memory required for data: 2953214276
I0323 12:58:49.550681 18712 layer_factory.hpp:77] Creating layer relu5_1
I0323 12:58:49.550704 18712 net.cpp:100] Creating Layer relu5_1
I0323 12:58:49.550712 18712 net.cpp:434] relu5_1 <- conv5_1
I0323 12:58:49.550720 18712 net.cpp:395] relu5_1 -> conv5_1 (in-place)
I0323 12:58:49.550909 18712 net.cpp:150] Setting up relu5_1
I0323 12:58:49.550918 18712 net.cpp:157] Top shape: 2 512 48 48 (2359296)
I0323 12:58:49.550922 18712 net.cpp:165] Memory required for data: 2962651460
I0323 12:58:49.550926 18712 layer_factory.hpp:77] Creating layer conv5_2
I0323 12:58:49.550940 18712 net.cpp:100] Creating Layer conv5_2
I0323 12:58:49.550943 18712 net.cpp:434] conv5_2 <- conv5_1
I0323 12:58:49.550951 18712 net.cpp:408] conv5_2 -> conv5_2
I0323 12:58:49.565661 18712 net.cpp:150] Setting up conv5_2
I0323 12:58:49.565692 18712 net.cpp:157] Top shape: 2 512 48 48 (2359296)
I0323 12:58:49.565696 18712 net.cpp:165] Memory required for data: 2972088644
I0323 12:58:49.565707 18712 layer_factory.hpp:77] Creating layer relu5_2
I0323 12:58:49.565722 18712 net.cpp:100] Creating Layer relu5_2
I0323 12:58:49.565732 18712 net.cpp:434] relu5_2 <- conv5_2
I0323 12:58:49.565739 18712 net.cpp:395] relu5_2 -> conv5_2 (in-place)
I0323 12:58:49.566315 18712 net.cpp:150] Setting up relu5_2
I0323 12:58:49.566329 18712 net.cpp:157] Top shape: 2 512 48 48 (2359296)
I0323 12:58:49.566332 18712 net.cpp:165] Memory required for data: 2981525828
I0323 12:58:49.566335 18712 layer_factory.hpp:77] Creating layer conv5_3
I0323 12:58:49.566346 18712 net.cpp:100] Creating Layer conv5_3
I0323 12:58:49.566351 18712 net.cpp:434] conv5_3 <- conv5_2
I0323 12:58:49.566356 18712 net.cpp:408] conv5_3 -> conv5_3
I0323 12:58:49.572834 18712 net.cpp:150] Setting up conv5_3
I0323 12:58:49.572862 18712 net.cpp:157] Top shape: 2 512 48 48 (2359296)
I0323 12:58:49.572867 18712 net.cpp:165] Memory required for data: 2990963012
I0323 12:58:49.572880 18712 layer_factory.hpp:77] Creating layer relu5_3
I0323 12:58:49.572892 18712 net.cpp:100] Creating Layer relu5_3
I0323 12:58:49.572899 18712 net.cpp:434] relu5_3 <- conv5_3
I0323 12:58:49.572907 18712 net.cpp:395] relu5_3 -> conv5_3 (in-place)
I0323 12:58:49.573112 18712 net.cpp:150] Setting up relu5_3
I0323 12:58:49.573120 18712 net.cpp:157] Top shape: 2 512 48 48 (2359296)
I0323 12:58:49.573124 18712 net.cpp:165] Memory required for data: 3000400196
I0323 12:58:49.573128 18712 layer_factory.hpp:77] Creating layer conv5_3_relu5_3_0_split
I0323 12:58:49.573137 18712 net.cpp:100] Creating Layer conv5_3_relu5_3_0_split
I0323 12:58:49.573143 18712 net.cpp:434] conv5_3_relu5_3_0_split <- conv5_3
I0323 12:58:49.573149 18712 net.cpp:408] conv5_3_relu5_3_0_split -> conv5_3_relu5_3_0_split_0
I0323 12:58:49.573159 18712 net.cpp:408] conv5_3_relu5_3_0_split -> conv5_3_relu5_3_0_split_1
I0323 12:58:49.573169 18712 net.cpp:408] conv5_3_relu5_3_0_split -> conv5_3_relu5_3_0_split_2
I0323 12:58:49.573238 18712 net.cpp:150] Setting up conv5_3_relu5_3_0_split
I0323 12:58:49.573246 18712 net.cpp:157] Top shape: 2 512 48 48 (2359296)
I0323 12:58:49.573251 18712 net.cpp:157] Top shape: 2 512 48 48 (2359296)
I0323 12:58:49.573257 18712 net.cpp:157] Top shape: 2 512 48 48 (2359296)
I0323 12:58:49.573261 18712 net.cpp:165] Memory required for data: 3028711748
I0323 12:58:49.573264 18712 layer_factory.hpp:77] Creating layer LFCN_2_5x5
I0323 12:58:49.573278 18712 net.cpp:100] Creating Layer LFCN_2_5x5
I0323 12:58:49.573284 18712 net.cpp:434] LFCN_2_5x5 <- conv5_3_relu5_3_0_split_0
I0323 12:58:49.573294 18712 net.cpp:408] LFCN_2_5x5 -> LFCN_2_5x5
I0323 12:58:49.578326 18712 net.cpp:150] Setting up LFCN_2_5x5
I0323 12:58:49.578343 18712 net.cpp:157] Top shape: 2 9 48 48 (41472)
I0323 12:58:49.578347 18712 net.cpp:165] Memory required for data: 3028877636
I0323 12:58:49.578362 18712 layer_factory.hpp:77] Creating layer LFCN_2_5x5_LFCN_2_5x5_0_split
I0323 12:58:49.578369 18712 net.cpp:100] Creating Layer LFCN_2_5x5_LFCN_2_5x5_0_split
I0323 12:58:49.578373 18712 net.cpp:434] LFCN_2_5x5_LFCN_2_5x5_0_split <- LFCN_2_5x5
I0323 12:58:49.578382 18712 net.cpp:408] LFCN_2_5x5_LFCN_2_5x5_0_split -> LFCN_2_5x5_LFCN_2_5x5_0_split_0
I0323 12:58:49.578395 18712 net.cpp:408] LFCN_2_5x5_LFCN_2_5x5_0_split -> LFCN_2_5x5_LFCN_2_5x5_0_split_1
I0323 12:58:49.578408 18712 net.cpp:408] LFCN_2_5x5_LFCN_2_5x5_0_split -> LFCN_2_5x5_LFCN_2_5x5_0_split_2
I0323 12:58:49.578486 18712 net.cpp:150] Setting up LFCN_2_5x5_LFCN_2_5x5_0_split
I0323 12:58:49.578496 18712 net.cpp:157] Top shape: 2 9 48 48 (41472)
I0323 12:58:49.578503 18712 net.cpp:157] Top shape: 2 9 48 48 (41472)
I0323 12:58:49.578510 18712 net.cpp:157] Top shape: 2 9 48 48 (41472)
I0323 12:58:49.578514 18712 net.cpp:165] Memory required for data: 3029375300
I0323 12:58:49.578518 18712 layer_factory.hpp:77] Creating layer detection_loss_2_5x5
I0323 12:58:49.578529 18712 net.cpp:100] Creating Layer detection_loss_2_5x5
I0323 12:58:49.578536 18712 net.cpp:434] detection_loss_2_5x5 <- LFCN_2_5x5_LFCN_2_5x5_0_split_0
I0323 12:58:49.578542 18712 net.cpp:434] detection_loss_2_5x5 <- label_2_5x5_data_3_split_0
I0323 12:58:49.578553 18712 net.cpp:408] detection_loss_2_5x5 -> loss_2_5x5
I0323 12:58:49.578567 18712 layer_factory.hpp:77] Creating layer detection_loss_2_5x5
I0323 12:58:49.579360 18712 net.cpp:150] Setting up detection_loss_2_5x5
I0323 12:58:49.579373 18712 net.cpp:157] Top shape: 1 1 1 2 (2)
I0323 12:58:49.579377 18712 net.cpp:160]     with loss weight 1
I0323 12:58:49.579387 18712 net.cpp:165] Memory required for data: 3029375308
I0323 12:58:49.579391 18712 layer_factory.hpp:77] Creating layer detection_accuracy_2_5x5
I0323 12:58:49.579401 18712 net.cpp:100] Creating Layer detection_accuracy_2_5x5
I0323 12:58:49.579404 18712 net.cpp:434] detection_accuracy_2_5x5 <- LFCN_2_5x5_LFCN_2_5x5_0_split_1
I0323 12:58:49.579411 18712 net.cpp:434] detection_accuracy_2_5x5 <- label_2_5x5_data_3_split_1
I0323 12:58:49.579417 18712 net.cpp:408] detection_accuracy_2_5x5 -> accuracy_2_5x5
I0323 12:58:49.579427 18712 net.cpp:408] detection_accuracy_2_5x5 -> boxiou_2_5x5
I0323 12:58:49.579474 18712 net.cpp:150] Setting up detection_accuracy_2_5x5
I0323 12:58:49.579479 18712 net.cpp:157] Top shape: 1 1 1 2 (2)
I0323 12:58:49.579484 18712 net.cpp:157] Top shape: 1 1 1 1 (1)
I0323 12:58:49.579488 18712 net.cpp:165] Memory required for data: 3029375320
I0323 12:58:49.579493 18712 layer_factory.hpp:77] Creating layer LFCN_2_7x7
I0323 12:58:49.579505 18712 net.cpp:100] Creating Layer LFCN_2_7x7
I0323 12:58:49.579509 18712 net.cpp:434] LFCN_2_7x7 <- conv5_3_relu5_3_0_split_1
I0323 12:58:49.579519 18712 net.cpp:408] LFCN_2_7x7 -> LFCN_2_7x7
I0323 12:58:49.587241 18712 net.cpp:150] Setting up LFCN_2_7x7
I0323 12:58:49.587255 18712 net.cpp:157] Top shape: 2 9 48 48 (41472)
I0323 12:58:49.587260 18712 net.cpp:165] Memory required for data: 3029541208
I0323 12:58:49.587266 18712 layer_factory.hpp:77] Creating layer LFCN_2_7x7_LFCN_2_7x7_0_split
I0323 12:58:49.587275 18712 net.cpp:100] Creating Layer LFCN_2_7x7_LFCN_2_7x7_0_split
I0323 12:58:49.587278 18712 net.cpp:434] LFCN_2_7x7_LFCN_2_7x7_0_split <- LFCN_2_7x7
I0323 12:58:49.587283 18712 net.cpp:408] LFCN_2_7x7_LFCN_2_7x7_0_split -> LFCN_2_7x7_LFCN_2_7x7_0_split_0
I0323 12:58:49.587291 18712 net.cpp:408] LFCN_2_7x7_LFCN_2_7x7_0_split -> LFCN_2_7x7_LFCN_2_7x7_0_split_1
I0323 12:58:49.587298 18712 net.cpp:408] LFCN_2_7x7_LFCN_2_7x7_0_split -> LFCN_2_7x7_LFCN_2_7x7_0_split_2
I0323 12:58:49.587353 18712 net.cpp:150] Setting up LFCN_2_7x7_LFCN_2_7x7_0_split
I0323 12:58:49.587360 18712 net.cpp:157] Top shape: 2 9 48 48 (41472)
I0323 12:58:49.587364 18712 net.cpp:157] Top shape: 2 9 48 48 (41472)
I0323 12:58:49.587368 18712 net.cpp:157] Top shape: 2 9 48 48 (41472)
I0323 12:58:49.587371 18712 net.cpp:165] Memory required for data: 3030038872
I0323 12:58:49.587375 18712 layer_factory.hpp:77] Creating layer detection_loss_2_7x7
I0323 12:58:49.587383 18712 net.cpp:100] Creating Layer detection_loss_2_7x7
I0323 12:58:49.587388 18712 net.cpp:434] detection_loss_2_7x7 <- LFCN_2_7x7_LFCN_2_7x7_0_split_0
I0323 12:58:49.587394 18712 net.cpp:434] detection_loss_2_7x7 <- label_2_7x7_data_4_split_0
I0323 12:58:49.587399 18712 net.cpp:408] detection_loss_2_7x7 -> loss_2_7x7
I0323 12:58:49.587406 18712 layer_factory.hpp:77] Creating layer detection_loss_2_7x7
I0323 12:58:49.587821 18712 net.cpp:150] Setting up detection_loss_2_7x7
I0323 12:58:49.587831 18712 net.cpp:157] Top shape: 1 1 1 2 (2)
I0323 12:58:49.587833 18712 net.cpp:160]     with loss weight 1
I0323 12:58:49.587838 18712 net.cpp:165] Memory required for data: 3030038880
I0323 12:58:49.587842 18712 layer_factory.hpp:77] Creating layer detection_accuracy_2_7x7
I0323 12:58:49.587847 18712 net.cpp:100] Creating Layer detection_accuracy_2_7x7
I0323 12:58:49.587852 18712 net.cpp:434] detection_accuracy_2_7x7 <- LFCN_2_7x7_LFCN_2_7x7_0_split_1
I0323 12:58:49.587857 18712 net.cpp:434] detection_accuracy_2_7x7 <- label_2_7x7_data_4_split_1
I0323 12:58:49.587862 18712 net.cpp:408] detection_accuracy_2_7x7 -> accuracy_2_7x7
I0323 12:58:49.587869 18712 net.cpp:408] detection_accuracy_2_7x7 -> boxiou_2_7x7
I0323 12:58:49.587962 18712 net.cpp:150] Setting up detection_accuracy_2_7x7
I0323 12:58:49.587968 18712 net.cpp:157] Top shape: 1 1 1 2 (2)
I0323 12:58:49.587972 18712 net.cpp:157] Top shape: 1 1 1 1 (1)
I0323 12:58:49.587975 18712 net.cpp:165] Memory required for data: 3030038892
I0323 12:58:49.587980 18712 layer_factory.hpp:77] Creating layer pool5
I0323 12:58:49.587986 18712 net.cpp:100] Creating Layer pool5
I0323 12:58:49.587990 18712 net.cpp:434] pool5 <- conv5_3_relu5_3_0_split_2
I0323 12:58:49.587994 18712 net.cpp:408] pool5 -> pool5
I0323 12:58:49.588086 18712 net.cpp:150] Setting up pool5
I0323 12:58:49.588093 18712 net.cpp:157] Top shape: 2 512 24 24 (589824)
I0323 12:58:49.588096 18712 net.cpp:165] Memory required for data: 3032398188
I0323 12:58:49.588099 18712 layer_factory.hpp:77] Creating layer ch4_pool5
I0323 12:58:49.588105 18712 net.cpp:100] Creating Layer ch4_pool5
I0323 12:58:49.588109 18712 net.cpp:434] ch4_pool5 <- ch4
I0323 12:58:49.588114 18712 net.cpp:408] ch4_pool5 -> ch4_pool5
I0323 12:58:49.588165 18712 net.cpp:150] Setting up ch4_pool5
I0323 12:58:49.588171 18712 net.cpp:157] Top shape: 2 1 24 24 (1152)
I0323 12:58:49.588174 18712 net.cpp:165] Memory required for data: 3032402796
I0323 12:58:49.588177 18712 layer_factory.hpp:77] Creating layer pool5_concat
I0323 12:58:49.588182 18712 net.cpp:100] Creating Layer pool5_concat
I0323 12:58:49.588186 18712 net.cpp:434] pool5_concat <- pool5
I0323 12:58:49.588191 18712 net.cpp:434] pool5_concat <- ch4_pool5
I0323 12:58:49.588196 18712 net.cpp:408] pool5_concat -> pool5_new
I0323 12:58:49.588222 18712 net.cpp:150] Setting up pool5_concat
I0323 12:58:49.588228 18712 net.cpp:157] Top shape: 2 513 24 24 (590976)
I0323 12:58:49.588232 18712 net.cpp:165] Memory required for data: 3034766700
I0323 12:58:49.588234 18712 layer_factory.hpp:77] Creating layer conv6_1_new
I0323 12:58:49.588243 18712 net.cpp:100] Creating Layer conv6_1_new
I0323 12:58:49.588248 18712 net.cpp:434] conv6_1_new <- pool5_new
I0323 12:58:49.588253 18712 net.cpp:408] conv6_1_new -> conv6_1
I0323 12:58:49.653417 18712 net.cpp:150] Setting up conv6_1_new
I0323 12:58:49.653442 18712 net.cpp:157] Top shape: 2 512 24 24 (589824)
I0323 12:58:49.653446 18712 net.cpp:165] Memory required for data: 3037125996
I0323 12:58:49.653453 18712 layer_factory.hpp:77] Creating layer relu6_1
I0323 12:58:49.653468 18712 net.cpp:100] Creating Layer relu6_1
I0323 12:58:49.653475 18712 net.cpp:434] relu6_1 <- conv6_1
I0323 12:58:49.653479 18712 net.cpp:395] relu6_1 -> conv6_1 (in-place)
I0323 12:58:49.653648 18712 net.cpp:150] Setting up relu6_1
I0323 12:58:49.653658 18712 net.cpp:157] Top shape: 2 512 24 24 (589824)
I0323 12:58:49.653662 18712 net.cpp:165] Memory required for data: 3039485292
I0323 12:58:49.653666 18712 layer_factory.hpp:77] Creating layer conv6_1_relu6_1_0_split
I0323 12:58:49.653672 18712 net.cpp:100] Creating Layer conv6_1_relu6_1_0_split
I0323 12:58:49.653676 18712 net.cpp:434] conv6_1_relu6_1_0_split <- conv6_1
I0323 12:58:49.653681 18712 net.cpp:408] conv6_1_relu6_1_0_split -> conv6_1_relu6_1_0_split_0
I0323 12:58:49.653689 18712 net.cpp:408] conv6_1_relu6_1_0_split -> conv6_1_relu6_1_0_split_1
I0323 12:58:49.653695 18712 net.cpp:408] conv6_1_relu6_1_0_split -> conv6_1_relu6_1_0_split_2
I0323 12:58:49.653751 18712 net.cpp:150] Setting up conv6_1_relu6_1_0_split
I0323 12:58:49.653759 18712 net.cpp:157] Top shape: 2 512 24 24 (589824)
I0323 12:58:49.653762 18712 net.cpp:157] Top shape: 2 512 24 24 (589824)
I0323 12:58:49.653766 18712 net.cpp:157] Top shape: 2 512 24 24 (589824)
I0323 12:58:49.653769 18712 net.cpp:165] Memory required for data: 3046563180
I0323 12:58:49.653774 18712 layer_factory.hpp:77] Creating layer LFCN_3_5x5
I0323 12:58:49.653784 18712 net.cpp:100] Creating Layer LFCN_3_5x5
I0323 12:58:49.653789 18712 net.cpp:434] LFCN_3_5x5 <- conv6_1_relu6_1_0_split_0
I0323 12:58:49.653795 18712 net.cpp:408] LFCN_3_5x5 -> LFCN_3_5x5
I0323 12:58:49.657913 18712 net.cpp:150] Setting up LFCN_3_5x5
I0323 12:58:49.657927 18712 net.cpp:157] Top shape: 2 9 24 24 (10368)
I0323 12:58:49.657932 18712 net.cpp:165] Memory required for data: 3046604652
I0323 12:58:49.657938 18712 layer_factory.hpp:77] Creating layer LFCN_3_5x5_LFCN_3_5x5_0_split
I0323 12:58:49.657944 18712 net.cpp:100] Creating Layer LFCN_3_5x5_LFCN_3_5x5_0_split
I0323 12:58:49.657958 18712 net.cpp:434] LFCN_3_5x5_LFCN_3_5x5_0_split <- LFCN_3_5x5
I0323 12:58:49.657966 18712 net.cpp:408] LFCN_3_5x5_LFCN_3_5x5_0_split -> LFCN_3_5x5_LFCN_3_5x5_0_split_0
I0323 12:58:49.657972 18712 net.cpp:408] LFCN_3_5x5_LFCN_3_5x5_0_split -> LFCN_3_5x5_LFCN_3_5x5_0_split_1
I0323 12:58:49.657979 18712 net.cpp:408] LFCN_3_5x5_LFCN_3_5x5_0_split -> LFCN_3_5x5_LFCN_3_5x5_0_split_2
I0323 12:58:49.658031 18712 net.cpp:150] Setting up LFCN_3_5x5_LFCN_3_5x5_0_split
I0323 12:58:49.658038 18712 net.cpp:157] Top shape: 2 9 24 24 (10368)
I0323 12:58:49.658042 18712 net.cpp:157] Top shape: 2 9 24 24 (10368)
I0323 12:58:49.658046 18712 net.cpp:157] Top shape: 2 9 24 24 (10368)
I0323 12:58:49.658049 18712 net.cpp:165] Memory required for data: 3046729068
I0323 12:58:49.658053 18712 layer_factory.hpp:77] Creating layer detection_loss_3_5x5
I0323 12:58:49.658061 18712 net.cpp:100] Creating Layer detection_loss_3_5x5
I0323 12:58:49.658066 18712 net.cpp:434] detection_loss_3_5x5 <- LFCN_3_5x5_LFCN_3_5x5_0_split_0
I0323 12:58:49.658071 18712 net.cpp:434] detection_loss_3_5x5 <- label_3_5x5_data_5_split_0
I0323 12:58:49.658077 18712 net.cpp:408] detection_loss_3_5x5 -> loss_3_5x5
I0323 12:58:49.658085 18712 layer_factory.hpp:77] Creating layer detection_loss_3_5x5
I0323 12:58:49.658426 18712 net.cpp:150] Setting up detection_loss_3_5x5
I0323 12:58:49.658434 18712 net.cpp:157] Top shape: 1 1 1 2 (2)
I0323 12:58:49.658437 18712 net.cpp:160]     with loss weight 1
I0323 12:58:49.658449 18712 net.cpp:165] Memory required for data: 3046729076
I0323 12:58:49.658452 18712 layer_factory.hpp:77] Creating layer detection_accuracy_3_5x5
I0323 12:58:49.658459 18712 net.cpp:100] Creating Layer detection_accuracy_3_5x5
I0323 12:58:49.658466 18712 net.cpp:434] detection_accuracy_3_5x5 <- LFCN_3_5x5_LFCN_3_5x5_0_split_1
I0323 12:58:49.658471 18712 net.cpp:434] detection_accuracy_3_5x5 <- label_3_5x5_data_5_split_1
I0323 12:58:49.658476 18712 net.cpp:408] detection_accuracy_3_5x5 -> accuracy_3_5x5
I0323 12:58:49.658483 18712 net.cpp:408] detection_accuracy_3_5x5 -> boxiou_3_5x5
I0323 12:58:49.658524 18712 net.cpp:150] Setting up detection_accuracy_3_5x5
I0323 12:58:49.658529 18712 net.cpp:157] Top shape: 1 1 1 2 (2)
I0323 12:58:49.658534 18712 net.cpp:157] Top shape: 1 1 1 1 (1)
I0323 12:58:49.658537 18712 net.cpp:165] Memory required for data: 3046729088
I0323 12:58:49.658541 18712 layer_factory.hpp:77] Creating layer LFCN_3_7x7
I0323 12:58:49.658550 18712 net.cpp:100] Creating Layer LFCN_3_7x7
I0323 12:58:49.658555 18712 net.cpp:434] LFCN_3_7x7 <- conv6_1_relu6_1_0_split_1
I0323 12:58:49.658560 18712 net.cpp:408] LFCN_3_7x7 -> LFCN_3_7x7
I0323 12:58:49.666249 18712 net.cpp:150] Setting up LFCN_3_7x7
I0323 12:58:49.666265 18712 net.cpp:157] Top shape: 2 9 24 24 (10368)
I0323 12:58:49.666270 18712 net.cpp:165] Memory required for data: 3046770560
I0323 12:58:49.666275 18712 layer_factory.hpp:77] Creating layer LFCN_3_7x7_LFCN_3_7x7_0_split
I0323 12:58:49.666282 18712 net.cpp:100] Creating Layer LFCN_3_7x7_LFCN_3_7x7_0_split
I0323 12:58:49.666286 18712 net.cpp:434] LFCN_3_7x7_LFCN_3_7x7_0_split <- LFCN_3_7x7
I0323 12:58:49.666293 18712 net.cpp:408] LFCN_3_7x7_LFCN_3_7x7_0_split -> LFCN_3_7x7_LFCN_3_7x7_0_split_0
I0323 12:58:49.666301 18712 net.cpp:408] LFCN_3_7x7_LFCN_3_7x7_0_split -> LFCN_3_7x7_LFCN_3_7x7_0_split_1
I0323 12:58:49.666311 18712 net.cpp:408] LFCN_3_7x7_LFCN_3_7x7_0_split -> LFCN_3_7x7_LFCN_3_7x7_0_split_2
I0323 12:58:49.666370 18712 net.cpp:150] Setting up LFCN_3_7x7_LFCN_3_7x7_0_split
I0323 12:58:49.666378 18712 net.cpp:157] Top shape: 2 9 24 24 (10368)
I0323 12:58:49.666383 18712 net.cpp:157] Top shape: 2 9 24 24 (10368)
I0323 12:58:49.666386 18712 net.cpp:157] Top shape: 2 9 24 24 (10368)
I0323 12:58:49.666389 18712 net.cpp:165] Memory required for data: 3046894976
I0323 12:58:49.666393 18712 layer_factory.hpp:77] Creating layer detection_loss_3_7x7
I0323 12:58:49.666399 18712 net.cpp:100] Creating Layer detection_loss_3_7x7
I0323 12:58:49.666404 18712 net.cpp:434] detection_loss_3_7x7 <- LFCN_3_7x7_LFCN_3_7x7_0_split_0
I0323 12:58:49.666409 18712 net.cpp:434] detection_loss_3_7x7 <- label_3_7x7_data_6_split_0
I0323 12:58:49.666414 18712 net.cpp:408] detection_loss_3_7x7 -> loss_3_7x7
I0323 12:58:49.666420 18712 layer_factory.hpp:77] Creating layer detection_loss_3_7x7
I0323 12:58:49.667168 18712 net.cpp:150] Setting up detection_loss_3_7x7
I0323 12:58:49.667182 18712 net.cpp:157] Top shape: 1 1 1 2 (2)
I0323 12:58:49.667186 18712 net.cpp:160]     with loss weight 1
I0323 12:58:49.667192 18712 net.cpp:165] Memory required for data: 3046894984
I0323 12:58:49.667196 18712 layer_factory.hpp:77] Creating layer detection_accuracy_3_7x7
I0323 12:58:49.667202 18712 net.cpp:100] Creating Layer detection_accuracy_3_7x7
I0323 12:58:49.667207 18712 net.cpp:434] detection_accuracy_3_7x7 <- LFCN_3_7x7_LFCN_3_7x7_0_split_1
I0323 12:58:49.667212 18712 net.cpp:434] detection_accuracy_3_7x7 <- label_3_7x7_data_6_split_1
I0323 12:58:49.667217 18712 net.cpp:408] detection_accuracy_3_7x7 -> accuracy_3_7x7
I0323 12:58:49.667224 18712 net.cpp:408] detection_accuracy_3_7x7 -> boxiou_3_7x7
I0323 12:58:49.667266 18712 net.cpp:150] Setting up detection_accuracy_3_7x7
I0323 12:58:49.667273 18712 net.cpp:157] Top shape: 1 1 1 2 (2)
I0323 12:58:49.667276 18712 net.cpp:157] Top shape: 1 1 1 1 (1)
I0323 12:58:49.667279 18712 net.cpp:165] Memory required for data: 3046894996
I0323 12:58:49.667282 18712 layer_factory.hpp:77] Creating layer pool6
I0323 12:58:49.667291 18712 net.cpp:100] Creating Layer pool6
I0323 12:58:49.667296 18712 net.cpp:434] pool6 <- conv6_1_relu6_1_0_split_2
I0323 12:58:49.667301 18712 net.cpp:408] pool6 -> pool6
I0323 12:58:49.667340 18712 net.cpp:150] Setting up pool6
I0323 12:58:49.667346 18712 net.cpp:157] Top shape: 2 512 12 12 (147456)
I0323 12:58:49.667349 18712 net.cpp:165] Memory required for data: 3047484820
I0323 12:58:49.667352 18712 layer_factory.hpp:77] Creating layer LFCN_4_5x5
I0323 12:58:49.667361 18712 net.cpp:100] Creating Layer LFCN_4_5x5
I0323 12:58:49.667366 18712 net.cpp:434] LFCN_4_5x5 <- pool6
I0323 12:58:49.667372 18712 net.cpp:408] LFCN_4_5x5 -> LFCN_4_5x5
I0323 12:58:49.671241 18712 net.cpp:150] Setting up LFCN_4_5x5
I0323 12:58:49.671254 18712 net.cpp:157] Top shape: 2 9 12 12 (2592)
I0323 12:58:49.671258 18712 net.cpp:165] Memory required for data: 3047495188
I0323 12:58:49.671264 18712 layer_factory.hpp:77] Creating layer LFCN_4_5x5_LFCN_4_5x5_0_split
I0323 12:58:49.671270 18712 net.cpp:100] Creating Layer LFCN_4_5x5_LFCN_4_5x5_0_split
I0323 12:58:49.671274 18712 net.cpp:434] LFCN_4_5x5_LFCN_4_5x5_0_split <- LFCN_4_5x5
I0323 12:58:49.671280 18712 net.cpp:408] LFCN_4_5x5_LFCN_4_5x5_0_split -> LFCN_4_5x5_LFCN_4_5x5_0_split_0
I0323 12:58:49.671288 18712 net.cpp:408] LFCN_4_5x5_LFCN_4_5x5_0_split -> LFCN_4_5x5_LFCN_4_5x5_0_split_1
I0323 12:58:49.671294 18712 net.cpp:408] LFCN_4_5x5_LFCN_4_5x5_0_split -> LFCN_4_5x5_LFCN_4_5x5_0_split_2
I0323 12:58:49.671347 18712 net.cpp:150] Setting up LFCN_4_5x5_LFCN_4_5x5_0_split
I0323 12:58:49.671355 18712 net.cpp:157] Top shape: 2 9 12 12 (2592)
I0323 12:58:49.671358 18712 net.cpp:157] Top shape: 2 9 12 12 (2592)
I0323 12:58:49.671362 18712 net.cpp:157] Top shape: 2 9 12 12 (2592)
I0323 12:58:49.671365 18712 net.cpp:165] Memory required for data: 3047526292
I0323 12:58:49.671370 18712 layer_factory.hpp:77] Creating layer detection_loss_4_5x5
I0323 12:58:49.671375 18712 net.cpp:100] Creating Layer detection_loss_4_5x5
I0323 12:58:49.671378 18712 net.cpp:434] detection_loss_4_5x5 <- LFCN_4_5x5_LFCN_4_5x5_0_split_0
I0323 12:58:49.671382 18712 net.cpp:434] detection_loss_4_5x5 <- label_4_5x5_data_7_split_0
I0323 12:58:49.671388 18712 net.cpp:408] detection_loss_4_5x5 -> loss_4_5x5
I0323 12:58:49.671396 18712 layer_factory.hpp:77] Creating layer detection_loss_4_5x5
I0323 12:58:49.671763 18712 net.cpp:150] Setting up detection_loss_4_5x5
I0323 12:58:49.671774 18712 net.cpp:157] Top shape: 1 1 1 2 (2)
I0323 12:58:49.671779 18712 net.cpp:160]     with loss weight 1
I0323 12:58:49.671787 18712 net.cpp:165] Memory required for data: 3047526300
I0323 12:58:49.671790 18712 layer_factory.hpp:77] Creating layer detection_accuracy_4_5x5
I0323 12:58:49.671798 18712 net.cpp:100] Creating Layer detection_accuracy_4_5x5
I0323 12:58:49.671804 18712 net.cpp:434] detection_accuracy_4_5x5 <- LFCN_4_5x5_LFCN_4_5x5_0_split_1
I0323 12:58:49.671810 18712 net.cpp:434] detection_accuracy_4_5x5 <- label_4_5x5_data_7_split_1
I0323 12:58:49.671815 18712 net.cpp:408] detection_accuracy_4_5x5 -> accuracy_4_5x5
I0323 12:58:49.671825 18712 net.cpp:408] detection_accuracy_4_5x5 -> boxiou_4_5x5
I0323 12:58:49.671874 18712 net.cpp:150] Setting up detection_accuracy_4_5x5
I0323 12:58:49.671880 18712 net.cpp:157] Top shape: 1 1 1 2 (2)
I0323 12:58:49.671885 18712 net.cpp:157] Top shape: 1 1 1 1 (1)
I0323 12:58:49.671887 18712 net.cpp:165] Memory required for data: 3047526312
I0323 12:58:49.671891 18712 layer_factory.hpp:77] Creating layer proposals
I0323 12:58:49.671900 18712 net.cpp:100] Creating Layer proposals
I0323 12:58:49.671905 18712 net.cpp:434] proposals <- LFCN_1_5x5_LFCN_1_5x5_0_split_2
I0323 12:58:49.671910 18712 net.cpp:434] proposals <- LFCN_1_7x7_LFCN_1_7x7_0_split_2
I0323 12:58:49.671913 18712 net.cpp:434] proposals <- LFCN_2_5x5_LFCN_2_5x5_0_split_2
I0323 12:58:49.671917 18712 net.cpp:434] proposals <- LFCN_2_7x7_LFCN_2_7x7_0_split_2
I0323 12:58:49.671921 18712 net.cpp:434] proposals <- LFCN_3_5x5_LFCN_3_5x5_0_split_2
I0323 12:58:49.671924 18712 net.cpp:434] proposals <- LFCN_3_7x7_LFCN_3_7x7_0_split_2
I0323 12:58:49.671928 18712 net.cpp:434] proposals <- LFCN_4_5x5_LFCN_4_5x5_0_split_2
I0323 12:58:49.671933 18712 net.cpp:408] proposals -> proposals
I0323 12:58:49.671963 18712 net.cpp:150] Setting up proposals
I0323 12:58:49.671969 18712 net.cpp:157] Top shape: 1 5 1 1 (5)
I0323 12:58:49.671972 18712 net.cpp:165] Memory required for data: 3047526332
I0323 12:58:49.671975 18712 layer_factory.hpp:77] Creating layer proposal_info
I0323 12:58:49.671984 18712 net.cpp:100] Creating Layer proposal_info
I0323 12:58:49.671988 18712 net.cpp:434] proposal_info <- proposals
I0323 12:58:49.671993 18712 net.cpp:434] proposal_info <- gt_boxes
I0323 12:58:49.671998 18712 net.cpp:408] proposal_info -> rois
I0323 12:58:49.672004 18712 net.cpp:408] proposal_info -> proposal_labels
I0323 12:58:49.672011 18712 net.cpp:408] proposal_info -> proposal_targets
I0323 12:58:49.672019 18712 net.cpp:408] proposal_info -> box_inside_weights
I0323 12:58:49.672024 18712 net.cpp:408] proposal_info -> box_outside_weights
I0323 12:58:49.672031 18712 net.cpp:408] proposal_info -> match_gt_boxes
I0323 12:58:49.672125 18712 net.cpp:150] Setting up proposal_info
I0323 12:58:49.672132 18712 net.cpp:157] Top shape: 128 5 1 1 (640)
I0323 12:58:49.672137 18712 net.cpp:157] Top shape: 128 1 1 1 (128)
I0323 12:58:49.672140 18712 net.cpp:157] Top shape: 128 20 1 1 (2560)
I0323 12:58:49.672144 18712 net.cpp:157] Top shape: 128 20 1 1 (2560)
I0323 12:58:49.672148 18712 net.cpp:157] Top shape: 128 20 1 1 (2560)
I0323 12:58:49.672152 18712 net.cpp:157] Top shape: 128 6 1 1 (768)
I0323 12:58:49.672155 18712 net.cpp:165] Memory required for data: 3047563196
I0323 12:58:49.672159 18712 layer_factory.hpp:77] Creating layer rois_proposal_info_0_split
I0323 12:58:49.672163 18712 net.cpp:100] Creating Layer rois_proposal_info_0_split
I0323 12:58:49.672168 18712 net.cpp:434] rois_proposal_info_0_split <- rois
I0323 12:58:49.672171 18712 net.cpp:408] rois_proposal_info_0_split -> rois_proposal_info_0_split_0
I0323 12:58:49.672178 18712 net.cpp:408] rois_proposal_info_0_split -> rois_proposal_info_0_split_1
I0323 12:58:49.672183 18712 net.cpp:408] rois_proposal_info_0_split -> rois_proposal_info_0_split_2
I0323 12:58:49.672230 18712 net.cpp:150] Setting up rois_proposal_info_0_split
I0323 12:58:49.672236 18712 net.cpp:157] Top shape: 128 5 1 1 (640)
I0323 12:58:49.672240 18712 net.cpp:157] Top shape: 128 5 1 1 (640)
I0323 12:58:49.672245 18712 net.cpp:157] Top shape: 128 5 1 1 (640)
I0323 12:58:49.672247 18712 net.cpp:165] Memory required for data: 3047570876
I0323 12:58:49.672250 18712 layer_factory.hpp:77] Creating layer proposal_labels_proposal_info_1_split
I0323 12:58:49.672255 18712 net.cpp:100] Creating Layer proposal_labels_proposal_info_1_split
I0323 12:58:49.672258 18712 net.cpp:434] proposal_labels_proposal_info_1_split <- proposal_labels
I0323 12:58:49.672263 18712 net.cpp:408] proposal_labels_proposal_info_1_split -> proposal_labels_proposal_info_1_split_0
I0323 12:58:49.672268 18712 net.cpp:408] proposal_labels_proposal_info_1_split -> proposal_labels_proposal_info_1_split_1
I0323 12:58:49.672303 18712 net.cpp:150] Setting up proposal_labels_proposal_info_1_split
I0323 12:58:49.672309 18712 net.cpp:157] Top shape: 128 1 1 1 (128)
I0323 12:58:49.672313 18712 net.cpp:157] Top shape: 128 1 1 1 (128)
I0323 12:58:49.672317 18712 net.cpp:165] Memory required for data: 3047571900
I0323 12:58:49.672320 18712 layer_factory.hpp:77] Creating layer conv4_3_2x
I0323 12:58:49.672327 18712 net.cpp:100] Creating Layer conv4_3_2x
I0323 12:58:49.672333 18712 net.cpp:434] conv4_3_2x <- conv4_3_relu4_3_0_split_2
I0323 12:58:49.672338 18712 net.cpp:408] conv4_3_2x -> conv4_3_2x
I0323 12:58:49.672719 18712 net.cpp:150] Setting up conv4_3_2x
I0323 12:58:49.672726 18712 net.cpp:157] Top shape: 2 512 192 192 (37748736)
I0323 12:58:49.672729 18712 net.cpp:165] Memory required for data: 3198566844
I0323 12:58:49.672734 18712 layer_factory.hpp:77] Creating layer conv4_3_2x_conv4_3_2x_0_split
I0323 12:58:49.672740 18712 net.cpp:100] Creating Layer conv4_3_2x_conv4_3_2x_0_split
I0323 12:58:49.672745 18712 net.cpp:434] conv4_3_2x_conv4_3_2x_0_split <- conv4_3_2x
I0323 12:58:49.672749 18712 net.cpp:408] conv4_3_2x_conv4_3_2x_0_split -> conv4_3_2x_conv4_3_2x_0_split_0
I0323 12:58:49.672755 18712 net.cpp:408] conv4_3_2x_conv4_3_2x_0_split -> conv4_3_2x_conv4_3_2x_0_split_1
I0323 12:58:49.672792 18712 net.cpp:150] Setting up conv4_3_2x_conv4_3_2x_0_split
I0323 12:58:49.672798 18712 net.cpp:157] Top shape: 2 512 192 192 (37748736)
I0323 12:58:49.672802 18712 net.cpp:157] Top shape: 2 512 192 192 (37748736)
I0323 12:58:49.672806 18712 net.cpp:165] Memory required for data: 3500556732
I0323 12:58:49.672808 18712 layer_factory.hpp:77] Creating layer roi_pool_org
I0323 12:58:49.672813 18712 net.cpp:100] Creating Layer roi_pool_org
I0323 12:58:49.672817 18712 net.cpp:434] roi_pool_org <- conv4_3_2x_conv4_3_2x_0_split_0
I0323 12:58:49.672821 18712 net.cpp:434] roi_pool_org <- rois_proposal_info_0_split_0
I0323 12:58:49.672827 18712 net.cpp:408] roi_pool_org -> roi_pool_org
I0323 12:58:49.672833 18712 roi_pooling_layer.cpp:33] Spatial scale: 0.25
I0323 12:58:49.672873 18712 net.cpp:150] Setting up roi_pool_org
I0323 12:58:49.672878 18712 net.cpp:157] Top shape: 128 512 7 7 (3211264)
I0323 12:58:49.672881 18712 net.cpp:165] Memory required for data: 3513401788
I0323 12:58:49.672884 18712 layer_factory.hpp:77] Creating layer roi_pool_ctx
I0323 12:58:49.672889 18712 net.cpp:100] Creating Layer roi_pool_ctx
I0323 12:58:49.672894 18712 net.cpp:434] roi_pool_ctx <- conv4_3_2x_conv4_3_2x_0_split_1
I0323 12:58:49.672897 18712 net.cpp:434] roi_pool_ctx <- rois_proposal_info_0_split_1
I0323 12:58:49.672904 18712 net.cpp:408] roi_pool_ctx -> roi_pool_ctx
I0323 12:58:49.672909 18712 roi_pooling_layer.cpp:33] Spatial scale: 0.25
I0323 12:58:49.672946 18712 net.cpp:150] Setting up roi_pool_ctx
I0323 12:58:49.672952 18712 net.cpp:157] Top shape: 128 512 7 7 (3211264)
I0323 12:58:49.672955 18712 net.cpp:165] Memory required for data: 3526246844
I0323 12:58:49.672958 18712 layer_factory.hpp:77] Creating layer roi_pool
I0323 12:58:49.672965 18712 net.cpp:100] Creating Layer roi_pool
I0323 12:58:49.672968 18712 net.cpp:434] roi_pool <- roi_pool_org
I0323 12:58:49.672972 18712 net.cpp:434] roi_pool <- roi_pool_ctx
I0323 12:58:49.672977 18712 net.cpp:408] roi_pool -> roi_pool
I0323 12:58:49.673000 18712 net.cpp:150] Setting up roi_pool
I0323 12:58:49.673007 18712 net.cpp:157] Top shape: 128 1024 7 7 (6422528)
I0323 12:58:49.673009 18712 net.cpp:165] Memory required for data: 3551936956
I0323 12:58:49.673012 18712 layer_factory.hpp:77] Creating layer roi_c1
I0323 12:58:49.673020 18712 net.cpp:100] Creating Layer roi_c1
I0323 12:58:49.673024 18712 net.cpp:434] roi_c1 <- roi_pool
I0323 12:58:49.673029 18712 net.cpp:408] roi_c1 -> roi_c1
I0323 12:58:49.803053 18712 net.cpp:150] Setting up roi_c1
I0323 12:58:49.803083 18712 net.cpp:157] Top shape: 128 512 5 5 (1638400)
I0323 12:58:49.803088 18712 net.cpp:165] Memory required for data: 3558490556
I0323 12:58:49.803097 18712 layer_factory.hpp:77] Creating layer roi_c1_relu
I0323 12:58:49.803108 18712 net.cpp:100] Creating Layer roi_c1_relu
I0323 12:58:49.803114 18712 net.cpp:434] roi_c1_relu <- roi_c1
I0323 12:58:49.803122 18712 net.cpp:395] roi_c1_relu -> roi_c1 (in-place)
I0323 12:58:49.803306 18712 net.cpp:150] Setting up roi_c1_relu
I0323 12:58:49.803318 18712 net.cpp:157] Top shape: 128 512 5 5 (1638400)
I0323 12:58:49.803320 18712 net.cpp:165] Memory required for data: 3565044156
I0323 12:58:49.803324 18712 layer_factory.hpp:77] Creating layer fc6
I0323 12:58:49.803333 18712 net.cpp:100] Creating Layer fc6
I0323 12:58:49.803335 18712 net.cpp:434] fc6 <- roi_c1
I0323 12:58:49.803342 18712 net.cpp:408] fc6 -> fc6
I0323 12:58:51.126236 18712 net.cpp:150] Setting up fc6
I0323 12:58:51.126267 18712 net.cpp:157] Top shape: 128 4096 (524288)
I0323 12:58:51.126271 18712 net.cpp:165] Memory required for data: 3567141308
I0323 12:58:51.126279 18712 layer_factory.hpp:77] Creating layer relu6
I0323 12:58:51.126289 18712 net.cpp:100] Creating Layer relu6
I0323 12:58:51.126296 18712 net.cpp:434] relu6 <- fc6
I0323 12:58:51.126302 18712 net.cpp:395] relu6 -> fc6 (in-place)
I0323 12:58:51.126549 18712 net.cpp:150] Setting up relu6
I0323 12:58:51.126559 18712 net.cpp:157] Top shape: 128 4096 (524288)
I0323 12:58:51.126564 18712 net.cpp:165] Memory required for data: 3569238460
I0323 12:58:51.126566 18712 layer_factory.hpp:77] Creating layer drop6
I0323 12:58:51.126574 18712 net.cpp:100] Creating Layer drop6
I0323 12:58:51.126577 18712 net.cpp:434] drop6 <- fc6
I0323 12:58:51.126585 18712 net.cpp:395] drop6 -> fc6 (in-place)
I0323 12:58:51.126606 18712 net.cpp:150] Setting up drop6
I0323 12:58:51.126612 18712 net.cpp:157] Top shape: 128 4096 (524288)
I0323 12:58:51.126616 18712 net.cpp:165] Memory required for data: 3571335612
I0323 12:58:51.126619 18712 layer_factory.hpp:77] Creating layer fc6_drop6_0_split
I0323 12:58:51.126624 18712 net.cpp:100] Creating Layer fc6_drop6_0_split
I0323 12:58:51.126627 18712 net.cpp:434] fc6_drop6_0_split <- fc6
I0323 12:58:51.126633 18712 net.cpp:408] fc6_drop6_0_split -> fc6_drop6_0_split_0
I0323 12:58:51.126651 18712 net.cpp:408] fc6_drop6_0_split -> fc6_drop6_0_split_1
I0323 12:58:51.126691 18712 net.cpp:150] Setting up fc6_drop6_0_split
I0323 12:58:51.126699 18712 net.cpp:157] Top shape: 128 4096 (524288)
I0323 12:58:51.126703 18712 net.cpp:157] Top shape: 128 4096 (524288)
I0323 12:58:51.126706 18712 net.cpp:165] Memory required for data: 3575529916
I0323 12:58:51.126710 18712 layer_factory.hpp:77] Creating layer cls_pred
I0323 12:58:51.126718 18712 net.cpp:100] Creating Layer cls_pred
I0323 12:58:51.126721 18712 net.cpp:434] cls_pred <- fc6_drop6_0_split_0
I0323 12:58:51.126729 18712 net.cpp:408] cls_pred -> cls_pred
I0323 12:58:51.127357 18712 net.cpp:150] Setting up cls_pred
I0323 12:58:51.127367 18712 net.cpp:157] Top shape: 128 5 (640)
I0323 12:58:51.127370 18712 net.cpp:165] Memory required for data: 3575532476
I0323 12:58:51.127377 18712 layer_factory.hpp:77] Creating layer cls_pred_cls_pred_0_split
I0323 12:58:51.127383 18712 net.cpp:100] Creating Layer cls_pred_cls_pred_0_split
I0323 12:58:51.127388 18712 net.cpp:434] cls_pred_cls_pred_0_split <- cls_pred
I0323 12:58:51.127393 18712 net.cpp:408] cls_pred_cls_pred_0_split -> cls_pred_cls_pred_0_split_0
I0323 12:58:51.127403 18712 net.cpp:408] cls_pred_cls_pred_0_split -> cls_pred_cls_pred_0_split_1
I0323 12:58:51.127442 18712 net.cpp:150] Setting up cls_pred_cls_pred_0_split
I0323 12:58:51.127449 18712 net.cpp:157] Top shape: 128 5 (640)
I0323 12:58:51.127454 18712 net.cpp:157] Top shape: 128 5 (640)
I0323 12:58:51.127459 18712 net.cpp:165] Memory required for data: 3575537596
I0323 12:58:51.127462 18712 layer_factory.hpp:77] Creating layer bbox_pred
I0323 12:58:51.127470 18712 net.cpp:100] Creating Layer bbox_pred
I0323 12:58:51.127475 18712 net.cpp:434] bbox_pred <- fc6_drop6_0_split_1
I0323 12:58:51.127481 18712 net.cpp:408] bbox_pred -> bbox_pred
I0323 12:58:51.129590 18712 net.cpp:150] Setting up bbox_pred
I0323 12:58:51.129596 18712 net.cpp:157] Top shape: 128 20 (2560)
I0323 12:58:51.129600 18712 net.cpp:165] Memory required for data: 3575547836
I0323 12:58:51.129603 18712 layer_factory.hpp:77] Creating layer bbox_pred_bbox_pred_0_split
I0323 12:58:51.129608 18712 net.cpp:100] Creating Layer bbox_pred_bbox_pred_0_split
I0323 12:58:51.129611 18712 net.cpp:434] bbox_pred_bbox_pred_0_split <- bbox_pred
I0323 12:58:51.129616 18712 net.cpp:408] bbox_pred_bbox_pred_0_split -> bbox_pred_bbox_pred_0_split_0
I0323 12:58:51.129621 18712 net.cpp:408] bbox_pred_bbox_pred_0_split -> bbox_pred_bbox_pred_0_split_1
I0323 12:58:51.129647 18712 net.cpp:150] Setting up bbox_pred_bbox_pred_0_split
I0323 12:58:51.129652 18712 net.cpp:157] Top shape: 128 20 (2560)
I0323 12:58:51.129657 18712 net.cpp:157] Top shape: 128 20 (2560)
I0323 12:58:51.129658 18712 net.cpp:165] Memory required for data: 3575568316
I0323 12:58:51.129662 18712 layer_factory.hpp:77] Creating layer loss_cls
I0323 12:58:51.129667 18712 net.cpp:100] Creating Layer loss_cls
I0323 12:58:51.129669 18712 net.cpp:434] loss_cls <- cls_pred_cls_pred_0_split_0
I0323 12:58:51.129673 18712 net.cpp:434] loss_cls <- proposal_labels_proposal_info_1_split_0
…
