…
    downsample_rate: 16
    downsample_rate: 32
    downsample_rate: 32
    downsample_rate: 64
    coord_num: 4
    field_h: 60
    field_h: 84
    field_h: 120
    field_h: 168
    field_h: 240
    field_h: 336
    field_h: 480
    field_w: 60
    field_w: 84
    field_w: 120
    field_w: 168
    field_w: 240
    field_w: 336
    field_w: 480
    fg_threshold: 0.5
    resize_width: 1344
    resize_height: 768
    crop_width: 768
    crop_height: 768
    do_multiple_scale: true
    min_scale: 60
    max_scale: 480
    min_gt_height: 25
    shuffle: true
  }
}
layer {
  name: "slice"
  type: "Slice"
  bottom: "data"
  top: "data123"
  top: "ch4"
  slice_param {
    slice_point: 3
    axis: 1
  }
}
layer {
  name: "conv1_1"
  type: "Convolution"
  bottom: "data123"
  top: "conv1_1"
  convolution_param {
    num_output: 64
    pad: 1
    kernel_size: 3
  }
}
layer {
  name: "relu1_1"
  type: "ReLU"
  bottom: "conv1_1"
  top: "conv1_1"
}
layer {
  name: "conv1_2"
  type: "Convolution"
  bottom: "conv1_1"
  top: "conv1_2"
  convolution_param {
    num_output: 64
    pad: 1
    kernel_size: 3
  }
}
layer {
  name: "relu1_2"
  type: "ReLU"
  bottom: "conv1_2"
  top: "conv1_2"
}
layer {
  name: "pool1"
  type: "Pooling"
  bottom: "conv1_2"
  top: "pool1"
  pooling_param {
    pool: MAX
    kernel_size: 2
    stride: 2
  }
}
layer {
  name: "conv2_1"
  type: "Convolution"
  bottom: "pool1"
  top: "conv2_1"
  convolution_param {
    num_output: 128
    pad: 1
    kernel_size: 3
  }
}
layer {
  name: "relu2_1"
  type: "ReLU"
  bottom: "conv2_1"
  top: "conv2_1"
}
layer {
  name: "conv2_2"
  type: "Convolution"
  bottom: "conv2_1"
  top: "conv2_2"
  convolution_param {
    num_output: 128
    pad: 1
    kernel_size: 3
  }
}
layer {
  name: "relu2_2"
  type: "ReLU"
  bottom: "conv2_2"
  top: "conv2_2"
}
layer {
  name: "pool2"
  type: "Pooling"
  bottom: "conv2_2"
  top: "pool2"
  pooling_param {
    pool: MAX
    kernel_size: 2
    stride: 2
  }
}
layer {
  name: "conv3_1"
  type: "Convolution"
  bottom: "pool2"
  top: "conv3_1"
  convolution_param {
    num_output: 256
    pad: 1
    kernel_size: 3
  }
}
layer {
  name: "relu3_1"
  type: "ReLU"
  bottom: "conv3_1"
  top: "conv3_1"
}
layer {
  name: "conv3_2"
  type: "Convolution"
  bottom: "conv3_1"
  top: "conv3_2"
  convolution_param {
    num_output: 256
    pad: 1
    kernel_size: 3
  }
}
layer {
  name: "relu3_2"
  type: "ReLU"
  bottom: "conv3_2"
  top: "conv3_2"
}
layer {
  name: "conv3_3"
  type: "Convolution"
  bottom: "conv3_2"
  top: "conv3_3"
  convolution_param {
    num_output: 256
    pad: 1
    kernel_size: 3
  }
}
layer {
  name: "relu3_3"
  type: "ReLU"
  bottom: "conv3_3"
  top: "conv3_3"
}
layer {
  name: "pool3"
  type: "Pooling"
  bottom: "conv3_3"
  top: "pool3"
  pooling_param {
    pool: MAX
    kernel_size: 2
    stride: 2
  }
}
layer {
  name: "conv4_1"
  type: "Convolution"
  bottom: "pool3"
  top: "conv4_1"
  convolution_param {
    num_output: 512
    pad: 1
    kernel_size: 3
  }
}
layer {
  name: "relu4_1"
  type: "ReLU"
  bottom: "conv4_1"
  top: "conv4_1"
}
layer {
  name: "conv4_2"
  type: "Convolution"
  bottom: "conv4_1"
  top: "conv4_2"
  convolution_param {
    num_output: 512
    pad: 1
    kernel_size: 3
  }
}
layer {
  name: "relu4_2"
  type: "ReLU"
  bottom: "conv4_2"
  top: "conv4_2"
}
layer {
  name: "conv4_3"
  type: "Convolution"
  bottom: "conv4_2"
  top: "conv4_3"
  convolution_param {
    num_output: 512
    pad: 1
    kernel_size: 3
  }
}
layer {
  name: "relu4_3"
  type: "ReLU"
  bottom: "conv4_3"
  top: "conv4_3"
}
layer {
  name: "loss1_conv1"
  type: "Convolution"
  bottom: "conv4_3"
  top: "loss1_conv1"
  param {
    lr_mult: 1
    decay_mult: 1
  }
  param {
    lr_mult: 2
    decay_mult: 0
  }
  convolution_param {
    num_output: 512
    pad: 1
    kernel_size: 3
    weight_filler {
      type: "gaussian"
      std: 0.01
    }
    bias_filler {
      type: "constant"
    }
  }
}
layer {
  name: "loss_relu1"
  type: "ReLU"
  bottom: "loss1_conv1"
  top: "loss1_conv1"
}
layer {
  name: "LFCN_1_5x5"
  type: "Convolution"
  bottom: "loss1_conv1"
  top: "LFCN_1_5x5"
  param {
    lr_mult: 1
    decay_mult: 1
  }
  param {
    lr_mult: 2
    decay_mult: 0
  }
  convolution_param {
    num_output: 9
    pad: 2
    kernel_size: 5
    weight_filler {
      type: "gaussian"
      std: 0.001
    }
    bias_filler {
      type: "constant"
    }
  }
}
layer {
  name: "detection_loss_1_5x5"
  type: "DetectionLoss"
  bottom: "LFCN_1_5x5"
  bottom: "label_1_5x5"
  top: "loss_1_5x5"
  loss_weight: 0.9
  detection_loss_param {
    cls_num: 5
    coord_num: 4
    lambda: 0.05
    field_h: 60
    field_w: 60
    downsample_rate: 8
    bb_smooth: true
    field_whr: 2
    field_xyr: 2
    bg_threshold: 0.2
    bg_multiple: 2
    sample_mode: "random"
    pos_neg_weighted: true
  }
}
layer {
  name: "detection_accuracy_1_5x5"
  type: "DetectionAccuracy"
  bottom: "LFCN_1_5x5"
  bottom: "label_1_5x5"
  top: "accuracy_1_5x5"
  top: "boxiou_1_5x5"
  detection_accuracy_param {
    cls_num: 5
    coord_num: 4
    field_h: 60
    field_w: 60
    downsample_rate: 8
    field_whr: 2
    field_xyr: 2
  }
}
layer {
  name: "LFCN_1_7x7"
  type: "Convolution"
  bottom: "loss1_conv1"
  top: "LFCN_1_7x7"
  param {
    lr_mult: 1
    decay_mult: 1
  }
  param {
    lr_mult: 2
    decay_mult: 0
  }
  convolution_param {
    num_output: 9
    pad: 3
    kernel_size: 7
    weight_filler {
      type: "gaussian"
      std: 0.001
    }
    bias_filler {
      type: "constant"
    }
  }
}
layer {
  name: "detection_loss_1_7x7"
  type: "DetectionLoss"
  bottom: "LFCN_1_7x7"
  bottom: "label_1_7x7"
  top: "loss_1_7x7"
  loss_weight: 0.9
  detection_loss_param {
    cls_num: 5
    coord_num: 4
    lambda: 0.05
    field_h: 84
    field_w: 84
    downsample_rate: 8
    bb_smooth: true
    field_whr: 2
    field_xyr: 2
    bg_threshold: 0.2
    bg_multiple: 2
    sample_mode: "random"
    pos_neg_weighted: true
  }
}
layer {
  name: "detection_accuracy_1_7x7"
  type: "DetectionAccuracy"
  bottom: "LFCN_1_7x7"
  bottom: "label_1_7x7"
  top: "accuracy_1_7x7"
  top: "boxiou_1_7x7"
  detection_accuracy_param {
    cls_num: 5
    coord_num: 4
    field_h: 84
    field_w: 84
    downsample_rate: 8
    field_whr: 2
    field_xyr: 2
  }
}
layer {
  name: "pool4"
  type: "Pooling"
  bottom: "conv4_3"
  top: "pool4"
  pooling_param {
    pool: MAX
    kernel_size: 2
    stride: 2
  }
}
layer {
  name: "conv5_1"
  type: "Convolution"
  bottom: "pool4"
  top: "conv5_1"
  convolution_param {
    num_output: 512
    pad: 1
    kernel_size: 3
  }
}
layer {
  name: "relu5_1"
  type: "ReLU"
  bottom: "conv5_1"
  top: "conv5_1"
}
layer {
  name: "conv5_2"
  type: "Convolution"
  bottom: "conv5_1"
  top: "conv5_2"
  convolution_param {
    num_output: 512
    pad: 1
    kernel_size: 3
  }
}
layer {
  name: "relu5_2"
  type: "ReLU"
  bottom: "conv5_2"
  top: "conv5_2"
}
layer {
  name: "conv5_3"
  type: "Convolution"
  bottom: "conv5_2"
  top: "conv5_3"
  convolution_param {
    num_output: 512
    pad: 1
    kernel_size: 3
  }
}
layer {
  name: "relu5_3"
  type: "ReLU"
  bottom: "conv5_3"
  top: "conv5_3"
}
layer {
  name: "LFCN_2_5x5"
  type: "Convolution"
  bottom: "conv5_3"
  top: "LFCN_2_5x5"
  param {
    lr_mult: 1
    decay_mult: 1
  }
  param {
    lr_mult: 2
    decay_mult: 0
  }
  convolution_param {
    num_output: 9
    pad: 2
    kernel_size: 5
    weight_filler {
      type: "gaussian"
      std: 0.001
    }
    bias_filler {
      type: "constant"
    }
  }
}
layer {
  name: "detection_loss_2_5x5"
  type: "DetectionLoss"
  bottom: "LFCN_2_5x5"
  bottom: "label_2_5x5"
  top: "loss_2_5x5"
  detection_loss_param {
    cls_num: 5
    coord_num: 4
    lambda: 0.05
    field_h: 120
    field_w: 120
    downsample_rate: 16
    bb_smooth: true
    field_whr: 2
    field_xyr: 2
    bg_threshold: 0.2
    bg_multiple: 2
    sample_mode: "random"
    pos_neg_weighted: true
  }
}
layer {
  name: "detection_accuracy_2_5x5"
  type: "DetectionAccuracy"
  bottom: "LFCN_2_5x5"
  bottom: "label_2_5x5"
  top: "accuracy_2_5x5"
  top: "boxiou_2_5x5"
  detection_accuracy_param {
    cls_num: 5
    coord_num: 4
    field_h: 120
    field_w: 120
    downsample_rate: 16
    field_whr: 2
    field_xyr: 2
  }
}
layer {
  name: "LFCN_2_7x7"
  type: "Convolution"
  bottom: "conv5_3"
  top: "LFCN_2_7x7"
  param {
    lr_mult: 1
    decay_mult: 1
  }
  param {
    lr_mult: 2
    decay_mult: 0
  }
  convolution_param {
    num_output: 9
    pad: 3
    kernel_size: 7
    weight_filler {
      type: "gaussian"
      std: 0.001
    }
    bias_filler {
      type: "constant"
    }
  }
}
layer {
  name: "detection_loss_2_7x7"
  type: "DetectionLoss"
  bottom: "LFCN_2_7x7"
  bottom: "label_2_7x7"
  top: "loss_2_7x7"
  detection_loss_param {
    cls_num: 5
    coord_num: 4
    lambda: 0.05
    field_h: 168
    field_w: 168
    downsample_rate: 16
    bb_smooth: true
    field_whr: 2
    field_xyr: 2
    bg_threshold: 0.2
    bg_multiple: 2
    sample_mode: "random"
    pos_neg_weighted: true
  }
}
layer {
  name: "detection_accuracy_2_7x7"
  type: "DetectionAccuracy"
  bottom: "LFCN_2_7x7"
  bottom: "label_2_7x7"
  top: "accuracy_2_7x7"
  top: "boxiou_2_7x7"
  detection_accuracy_param {
    cls_num: 5
    coord_num: 4
    field_h: 168
    field_w: 168
    downsample_rate: 16
    field_whr: 2
    field_xyr: 2
  }
}
layer {
  name: "pool5"
  type: "Pooling"
  bottom: "conv5_3"
  top: "pool5"
  pooling_param {
    pool: MAX
    kernel_size: 2
    stride: 2
  }
}
layer {
  name: "ch4_pool5"
  type: "Pooling"
  bottom: "ch4"
  top: "ch4_pool5"
  pooling_param {
    pool: MAX
    kernel_size: 32
    stride: 32
  }
}
layer {
  name: "pool5_concat"
  type: "Concat"
  bottom: "pool5"
  bottom: "ch4_pool5"
  top: "pool5_new"
}
layer {
  name: "conv6_1_new"
  type: "Convolution"
  bottom: "pool5_new"
  top: "conv6_1"
  param {
    lr_mult: 1
    decay_mult: 1
  }
  param {
    lr_mult: 2
    decay_mult: 0
  }
  convolution_param {
    num_output: 512
    pad: 1
    kernel_size: 3
    weight_filler {
      type: "gaussian"
      std: 0.01
    }
    bias_filler {
      type: "constant"
    }
  }
}
layer {
  name: "relu6_1"
  type: "ReLU"
  bottom: "conv6_1"
  top: "conv6_1"
}
layer {
  name: "LFCN_3_5x5"
  type: "Convolution"
  bottom: "conv6_1"
  top: "LFCN_3_5x5"
  param {
    lr_mult: 1
    decay_mult: 1
  }
  param {
    lr_mult: 2
    decay_mult: 0
  }
  convolution_param {
    num_output: 9
    pad: 2
    kernel_size: 5
    weight_filler {
      type: "gaussian"
      std: 0.001
    }
    bias_filler {
      type: "constant"
    }
  }
}
layer {
  name: "detection_loss_3_5x5"
  type: "DetectionLoss"
  bottom: "LFCN_3_5x5"
  bottom: "label_3_5x5"
  top: "loss_3_5x5"
  detection_loss_param {
    cls_num: 5
    coord_num: 4
    lambda: 0.05
    field_h: 240
    field_w: 240
    downsample_rate: 32
    bb_smooth: true
    field_whr: 2
    field_xyr: 2
    bg_threshold: 0.2
    bg_multiple: 2
    sample_mode: "random"
    pos_neg_weighted: true
  }
}
layer {
  name: "detection_accuracy_3_5x5"
  type: "DetectionAccuracy"
  bottom: "LFCN_3_5x5"
  bottom: "label_3_5x5"
  top: "accuracy_3_5x5"
  top: "boxiou_3_5x5"
  detection_accuracy_param {
    cls_num: 5
    coord_num: 4
    field_h: 240
    field_w: 240
    downsample_rate: 32
    field_whr: 2
    field_xyr: 2
  }
}
layer {
  name: "LFCN_3_7x7"
  type: "Convolution"
  bottom: "conv6_1"
  top: "LFCN_3_7x7"
  param {
    lr_mult: 1
    decay_mult: 1
  }
  param {
    lr_mult: 2
    decay_mult: 0
  }
  convolution_param {
    num_output: 9
    pad: 3
    kernel_size: 7
    weight_filler {
      type: "gaussian"
      std: 0.001
    }
    bias_filler {
      type: "constant"
    }
  }
}
layer {
  name: "detection_loss_3_7x7"
  type: "DetectionLoss"
  bottom: "LFCN_3_7x7"
  bottom: "label_3_7x7"
  top: "loss_3_7x7"
  detection_loss_param {
    cls_num: 5
    coord_num: 4
    lambda: 0.05
    field_h: 336
    field_w: 336
    downsample_rate: 32
    bb_smooth: true
    field_whr: 2
    field_xyr: 2
    bg_threshold: 0.2
    bg_multiple: 2
    sample_mode: "random"
    pos_neg_weighted: true
  }
}
layer {
  name: "detection_accuracy_3_7x7"
  type: "DetectionAccuracy"
  bottom: "LFCN_3_7x7"
  bottom: "label_3_7x7"
  top: "accuracy_3_7x7"
  top: "boxiou_3_7x7"
  detection_accuracy_param {
    cls_num: 5
    coord_num: 4
    field_h: 336
    field_w: 336
    downsample_rate: 32
    field_whr: 2
    field_xyr: 2
  }
}
layer {
  name: "pool6"
  type: "Pooling"
  bottom: "conv6_1"
  top: "pool6"
  pooling_param {
    pool: MAX
    kernel_size: 2
    stride: 2
  }
}
layer {
  name: "LFCN_4_5x5"
  type: "Convolution"
  bottom: "pool6"
  top: "LFCN_4_5x5"
  param {
    lr_mult: 1
    decay_mult: 1
  }
  param {
    lr_mult: 2
    decay_mult: 0
  }
  convolution_param {
    num_output: 9
    pad: 2
    kernel_size: 5
    weight_filler {
      type: "gaussian"
      std: 0.001
    }
    bias_filler {
      type: "constant"
    }
  }
}
layer {
  name: "detection_loss_4_5x5"
  type: "DetectionLoss"
  bottom: "LFCN_4_5x5"
  bottom: "label_4_5x5"
  top: "loss_4_5x5"
  detection_loss_param {
    cls_num: 5
    coord_num: 4
    lambda: 0.05
    field_h: 480
    field_w: 480
    downsample_rate: 64
    bb_smooth: true
    field_whr: 2
    field_xyr: 2
    bg_threshold: 0.2
    bg_multiple: 2
    sample_mode: "random"
    pos_neg_weighted: true
  }
}
layer {
  name: "detection_accuracy_4_5x5"
  type: "DetectionAccuracy"
  bottom: "LFCN_4_5x5"
  bottom: "label_4_5x5"
  top: "accuracy_4_5x5"
  top: "boxiou_4_5x5"
  detection_accuracy_param {
    cls_num: 5
    coord_num: 4
    field_h: 480
    field_w: 480
    downsample_rate: 64
    field_whr: 2
    field_xyr: 2
  }
}
I0323 10:29:25.951300 17346 layer_factory.hpp:77] Creating layer data
I0323 10:29:25.951339 17346 net.cpp:100] Creating Layer data
I0323 10:29:25.951345 17346 net.cpp:408] data -> data
…
I0323 10:29:25.975286 17346 image_gt_data_layer.cpp:235] output label size 1 : 4,6,96,96
I0323 10:29:25.975329 17346 image_gt_data_layer.cpp:235] output label size 2 : 4,6,48,48
I0323 10:29:25.975368 17346 image_gt_data_layer.cpp:235] output label size 3 : 4,6,48,48
I0323 10:29:25.975417 17346 image_gt_data_layer.cpp:235] output label size 4 : 4,6,24,24
I0323 10:29:25.975461 17346 image_gt_data_layer.cpp:235] output label size 5 : 4,6,24,24
I0323 10:29:25.975502 17346 image_gt_data_layer.cpp:235] output label size 6 : 4,6,12,12
I0323 10:29:26.051110 17346 net.cpp:150] Setting up data
I0323 10:29:26.051146 17346 net.cpp:157] Top shape: 4 4 768 768 (9437184)
I0323 10:29:26.051152 17346 net.cpp:157] Top shape: 4 6 96 96 (221184)
I0323 10:29:26.051156 17346 net.cpp:157] Top shape: 4 6 96 96 (221184)
I0323 10:29:26.051159 17346 net.cpp:157] Top shape: 4 6 48 48 (55296)
I0323 10:29:26.051163 17346 net.cpp:157] Top shape: 4 6 48 48 (55296)
I0323 10:29:26.051167 17346 net.cpp:157] Top shape: 4 6 24 24 (13824)
I0323 10:29:26.051170 17346 net.cpp:157] Top shape: 4 6 24 24 (13824)
I0323 10:29:26.051175 17346 net.cpp:157] Top shape: 4 6 12 12 (3456)
I0323 10:29:26.051178 17346 net.cpp:165] Memory required for data: 40084992
I0323 10:29:26.051187 17346 layer_factory.hpp:77] Creating layer label_1_5x5_data_1_split
I0323 10:29:26.051203 17346 net.cpp:100] Creating Layer label_1_5x5_data_1_split
I0323 10:29:26.051209 17346 net.cpp:434] label_1_5x5_data_1_split <- label_1_5x5
I0323 10:29:26.051220 17346 net.cpp:408] label_1_5x5_data_1_split -> label_1_5x5_data_1_split_0
I0323 10:29:26.051230 17346 net.cpp:408] label_1_5x5_data_1_split -> label_1_5x5_data_1_split_1
I0323 10:29:26.051283 17346 net.cpp:150] Setting up label_1_5x5_data_1_split
I0323 10:29:26.051290 17346 net.cpp:157] Top shape: 4 6 96 96 (221184)
I0323 10:29:26.051295 17346 net.cpp:157] Top shape: 4 6 96 96 (221184)
I0323 10:29:26.051297 17346 net.cpp:165] Memory required for data: 41854464
I0323 10:29:26.051301 17346 layer_factory.hpp:77] Creating layer label_1_7x7_data_2_split
I0323 10:29:26.051307 17346 net.cpp:100] Creating Layer label_1_7x7_data_2_split
I0323 10:29:26.051311 17346 net.cpp:434] label_1_7x7_data_2_split <- label_1_7x7
I0323 10:29:26.051316 17346 net.cpp:408] label_1_7x7_data_2_split -> label_1_7x7_data_2_split_0
I0323 10:29:26.051321 17346 net.cpp:408] label_1_7x7_data_2_split -> label_1_7x7_data_2_split_1
I0323 10:29:26.051369 17346 net.cpp:150] Setting up label_1_7x7_data_2_split
I0323 10:29:26.051375 17346 net.cpp:157] Top shape: 4 6 96 96 (221184)
I0323 10:29:26.051379 17346 net.cpp:157] Top shape: 4 6 96 96 (221184)
I0323 10:29:26.051383 17346 net.cpp:165] Memory required for data: 43623936
I0323 10:29:26.051385 17346 layer_factory.hpp:77] Creating layer label_2_5x5_data_3_split
I0323 10:29:26.051389 17346 net.cpp:100] Creating Layer label_2_5x5_data_3_split
I0323 10:29:26.051393 17346 net.cpp:434] label_2_5x5_data_3_split <- label_2_5x5
I0323 10:29:26.051398 17346 net.cpp:408] label_2_5x5_data_3_split -> label_2_5x5_data_3_split_0
I0323 10:29:26.051403 17346 net.cpp:408] label_2_5x5_data_3_split -> label_2_5x5_data_3_split_1
I0323 10:29:26.051429 17346 net.cpp:150] Setting up label_2_5x5_data_3_split
I0323 10:29:26.051434 17346 net.cpp:157] Top shape: 4 6 48 48 (55296)
I0323 10:29:26.051436 17346 net.cpp:157] Top shape: 4 6 48 48 (55296)
I0323 10:29:26.051440 17346 net.cpp:165] Memory required for data: 44066304
I0323 10:29:26.051442 17346 layer_factory.hpp:77] Creating layer label_2_7x7_data_4_split
I0323 10:29:26.051447 17346 net.cpp:100] Creating Layer label_2_7x7_data_4_split
I0323 10:29:26.051450 17346 net.cpp:434] label_2_7x7_data_4_split <- label_2_7x7
I0323 10:29:26.051455 17346 net.cpp:408] label_2_7x7_data_4_split -> label_2_7x7_data_4_split_0
I0323 10:29:26.051460 17346 net.cpp:408] label_2_7x7_data_4_split -> label_2_7x7_data_4_split_1
I0323 10:29:26.051486 17346 net.cpp:150] Setting up label_2_7x7_data_4_split
I0323 10:29:26.051491 17346 net.cpp:157] Top shape: 4 6 48 48 (55296)
I0323 10:29:26.051496 17346 net.cpp:157] Top shape: 4 6 48 48 (55296)
I0323 10:29:26.051498 17346 net.cpp:165] Memory required for data: 44508672
I0323 10:29:26.051501 17346 layer_factory.hpp:77] Creating layer label_3_5x5_data_5_split
I0323 10:29:26.051506 17346 net.cpp:100] Creating Layer label_3_5x5_data_5_split
I0323 10:29:26.051509 17346 net.cpp:434] label_3_5x5_data_5_split <- label_3_5x5
I0323 10:29:26.051514 17346 net.cpp:408] label_3_5x5_data_5_split -> label_3_5x5_data_5_split_0
I0323 10:29:26.051522 17346 net.cpp:408] label_3_5x5_data_5_split -> label_3_5x5_data_5_split_1
I0323 10:29:26.051545 17346 net.cpp:150] Setting up label_3_5x5_data_5_split
I0323 10:29:26.051551 17346 net.cpp:157] Top shape: 4 6 24 24 (13824)
I0323 10:29:26.051555 17346 net.cpp:157] Top shape: 4 6 24 24 (13824)
I0323 10:29:26.051558 17346 net.cpp:165] Memory required for data: 44619264
I0323 10:29:26.051561 17346 layer_factory.hpp:77] Creating layer label_3_7x7_data_6_split
I0323 10:29:26.051565 17346 net.cpp:100] Creating Layer label_3_7x7_data_6_split
I0323 10:29:26.051568 17346 net.cpp:434] label_3_7x7_data_6_split <- label_3_7x7
I0323 10:29:26.051573 17346 net.cpp:408] label_3_7x7_data_6_split -> label_3_7x7_data_6_split_0
I0323 10:29:26.051578 17346 net.cpp:408] label_3_7x7_data_6_split -> label_3_7x7_data_6_split_1
I0323 10:29:26.051601 17346 net.cpp:150] Setting up label_3_7x7_data_6_split
I0323 10:29:26.051607 17346 net.cpp:157] Top shape: 4 6 24 24 (13824)
I0323 10:29:26.051611 17346 net.cpp:157] Top shape: 4 6 24 24 (13824)
I0323 10:29:26.051614 17346 net.cpp:165] Memory required for data: 44729856
I0323 10:29:26.051617 17346 layer_factory.hpp:77] Creating layer label_4_5x5_data_7_split
I0323 10:29:26.051621 17346 net.cpp:100] Creating Layer label_4_5x5_data_7_split
I0323 10:29:26.051625 17346 net.cpp:434] label_4_5x5_data_7_split <- label_4_5x5
I0323 10:29:26.051630 17346 net.cpp:408] label_4_5x5_data_7_split -> label_4_5x5_data_7_split_0
I0323 10:29:26.051635 17346 net.cpp:408] label_4_5x5_data_7_split -> label_4_5x5_data_7_split_1
I0323 10:29:26.051658 17346 net.cpp:150] Setting up label_4_5x5_data_7_split
I0323 10:29:26.051663 17346 net.cpp:157] Top shape: 4 6 12 12 (3456)
I0323 10:29:26.051667 17346 net.cpp:157] Top shape: 4 6 12 12 (3456)
I0323 10:29:26.051671 17346 net.cpp:165] Memory required for data: 44757504
I0323 10:29:26.051674 17346 layer_factory.hpp:77] Creating layer slice
I0323 10:29:26.051688 17346 net.cpp:100] Creating Layer slice
I0323 10:29:26.051692 17346 net.cpp:434] slice <- data
I0323 10:29:26.051697 17346 net.cpp:408] slice -> data123
I0323 10:29:26.051704 17346 net.cpp:408] slice -> ch4
I0323 10:29:26.051731 17346 net.cpp:150] Setting up slice
I0323 10:29:26.051738 17346 net.cpp:157] Top shape: 4 3 768 768 (7077888)
I0323 10:29:26.051741 17346 net.cpp:157] Top shape: 4 1 768 768 (2359296)
I0323 10:29:26.051744 17346 net.cpp:165] Memory required for data: 82506240
I0323 10:29:26.051748 17346 layer_factory.hpp:77] Creating layer conv1_1
I0323 10:29:26.051759 17346 net.cpp:100] Creating Layer conv1_1
I0323 10:29:26.051761 17346 net.cpp:434] conv1_1 <- data123
I0323 10:29:26.051767 17346 net.cpp:408] conv1_1 -> conv1_1
I0323 10:29:26.324843 17346 net.cpp:150] Setting up conv1_1
I0323 10:29:26.324874 17346 net.cpp:157] Top shape: 4 64 768 768 (150994944)
I0323 10:29:26.324879 17346 net.cpp:165] Memory required for data: 686486016
I0323 10:29:26.324896 17346 layer_factory.hpp:77] Creating layer relu1_1
I0323 10:29:26.324909 17346 net.cpp:100] Creating Layer relu1_1
I0323 10:29:26.324915 17346 net.cpp:434] relu1_1 <- conv1_1
I0323 10:29:26.324921 17346 net.cpp:395] relu1_1 -> conv1_1 (in-place)
I0323 10:29:26.325093 17346 net.cpp:150] Setting up relu1_1
I0323 10:29:26.325103 17346 net.cpp:157] Top shape: 4 64 768 768 (150994944)
I0323 10:29:26.325105 17346 net.cpp:165] Memory required for data: 1290465792
I0323 10:29:26.325109 17346 layer_factory.hpp:77] Creating layer conv1_2
I0323 10:29:26.325119 17346 net.cpp:100] Creating Layer conv1_2
I0323 10:29:26.325122 17346 net.cpp:434] conv1_2 <- conv1_1
I0323 10:29:26.325127 17346 net.cpp:408] conv1_2 -> conv1_2
I0323 10:29:26.327250 17346 net.cpp:150] Setting up conv1_2
I0323 10:29:26.327265 17346 net.cpp:157] Top shape: 4 64 768 768 (150994944)
I0323 10:29:26.327270 17346 net.cpp:165] Memory required for data: 1894445568
I0323 10:29:26.327281 17346 layer_factory.hpp:77] Creating layer relu1_2
I0323 10:29:26.327291 17346 net.cpp:100] Creating Layer relu1_2
I0323 10:29:26.327296 17346 net.cpp:434] relu1_2 <- conv1_2
I0323 10:29:26.327303 17346 net.cpp:395] relu1_2 -> conv1_2 (in-place)
I0323 10:29:26.327500 17346 net.cpp:150] Setting up relu1_2
I0323 10:29:26.327510 17346 net.cpp:157] Top shape: 4 64 768 768 (150994944)
I0323 10:29:26.327514 17346 net.cpp:165] Memory required for data: 2498425344
I0323 10:29:26.327518 17346 layer_factory.hpp:77] Creating layer pool1
I0323 10:29:26.327527 17346 net.cpp:100] Creating Layer pool1
I0323 10:29:26.327530 17346 net.cpp:434] pool1 <- conv1_2
I0323 10:29:26.327538 17346 net.cpp:408] pool1 -> pool1
I0323 10:29:26.327595 17346 net.cpp:150] Setting up pool1
I0323 10:29:26.327603 17346 net.cpp:157] Top shape: 4 64 384 384 (37748736)
I0323 10:29:26.327607 17346 net.cpp:165] Memory required for data: 2649420288
I0323 10:29:26.327610 17346 layer_factory.hpp:77] Creating layer conv2_1
I0323 10:29:26.327620 17346 net.cpp:100] Creating Layer conv2_1
I0323 10:29:26.327622 17346 net.cpp:434] conv2_1 <- pool1
I0323 10:29:26.327630 17346 net.cpp:408] conv2_1 -> conv2_1
I0323 10:29:26.329900 17346 net.cpp:150] Setting up conv2_1
I0323 10:29:26.329916 17346 net.cpp:157] Top shape: 4 128 384 384 (75497472)
I0323 10:29:26.329921 17346 net.cpp:165] Memory required for data: 2951410176
I0323 10:29:26.329931 17346 layer_factory.hpp:77] Creating layer relu2_1
I0323 10:29:26.329941 17346 net.cpp:100] Creating Layer relu2_1
I0323 10:29:26.329944 17346 net.cpp:434] relu2_1 <- conv2_1
I0323 10:29:26.329967 17346 net.cpp:395] relu2_1 -> conv2_1 (in-place)
I0323 10:29:26.330194 17346 net.cpp:150] Setting up relu2_1
I0323 10:29:26.330204 17346 net.cpp:157] Top shape: 4 128 384 384 (75497472)
I0323 10:29:26.330207 17346 net.cpp:165] Memory required for data: 3253400064
I0323 10:29:26.330211 17346 layer_factory.hpp:77] Creating layer conv2_2
I0323 10:29:26.330224 17346 net.cpp:100] Creating Layer conv2_2
I0323 10:29:26.330226 17346 net.cpp:434] conv2_2 <- conv2_1
I0323 10:29:26.330232 17346 net.cpp:408] conv2_2 -> conv2_2
I0323 10:29:26.331609 17346 net.cpp:150] Setting up conv2_2
I0323 10:29:26.331621 17346 net.cpp:157] Top shape: 4 128 384 384 (75497472)
I0323 10:29:26.331625 17346 net.cpp:165] Memory required for data: 3555389952
I0323 10:29:26.331634 17346 layer_factory.hpp:77] Creating layer relu2_2
I0323 10:29:26.331640 17346 net.cpp:100] Creating Layer relu2_2
I0323 10:29:26.331643 17346 net.cpp:434] relu2_2 <- conv2_2
I0323 10:29:26.331650 17346 net.cpp:395] relu2_2 -> conv2_2 (in-place)
I0323 10:29:26.331809 17346 net.cpp:150] Setting up relu2_2
I0323 10:29:26.331817 17346 net.cpp:157] Top shape: 4 128 384 384 (75497472)
I0323 10:29:26.331821 17346 net.cpp:165] Memory required for data: 3857379840
I0323 10:29:26.331825 17346 layer_factory.hpp:77] Creating layer pool2
I0323 10:29:26.331830 17346 net.cpp:100] Creating Layer pool2
I0323 10:29:26.331833 17346 net.cpp:434] pool2 <- conv2_2
I0323 10:29:26.331840 17346 net.cpp:408] pool2 -> pool2
I0323 10:29:26.331874 17346 net.cpp:150] Setting up pool2
I0323 10:29:26.331881 17346 net.cpp:157] Top shape: 4 128 192 192 (18874368)
I0323 10:29:26.331883 17346 net.cpp:165] Memory required for data: 3932877312
I0323 10:29:26.331887 17346 layer_factory.hpp:77] Creating layer conv3_1
I0323 10:29:26.331893 17346 net.cpp:100] Creating Layer conv3_1
I0323 10:29:26.331897 17346 net.cpp:434] conv3_1 <- pool2
I0323 10:29:26.331902 17346 net.cpp:408] conv3_1 -> conv3_1
I0323 10:29:26.334101 17346 net.cpp:150] Setting up conv3_1
I0323 10:29:26.334115 17346 net.cpp:157] Top shape: 4 256 192 192 (37748736)
I0323 10:29:26.334120 17346 net.cpp:165] Memory required for data: 4083872256
I0323 10:29:26.334130 17346 layer_factory.hpp:77] Creating layer relu3_1
I0323 10:29:26.334136 17346 net.cpp:100] Creating Layer relu3_1
I0323 10:29:26.334141 17346 net.cpp:434] relu3_1 <- conv3_1
I0323 10:29:26.334146 17346 net.cpp:395] relu3_1 -> conv3_1 (in-place)
I0323 10:29:26.334561 17346 net.cpp:150] Setting up relu3_1
I0323 10:29:26.334573 17346 net.cpp:157] Top shape: 4 256 192 192 (37748736)
I0323 10:29:26.334578 17346 net.cpp:165] Memory required for data: 4234867200
I0323 10:29:26.334580 17346 layer_factory.hpp:77] Creating layer conv3_2
I0323 10:29:26.334589 17346 net.cpp:100] Creating Layer conv3_2
I0323 10:29:26.334594 17346 net.cpp:434] conv3_2 <- conv3_1
I0323 10:29:26.334599 17346 net.cpp:408] conv3_2 -> conv3_2
I0323 10:29:26.336690 17346 net.cpp:150] Setting up conv3_2
I0323 10:29:26.336704 17346 net.cpp:157] Top shape: 4 256 192 192 (37748736)
I0323 10:29:26.336707 17346 net.cpp:165] Memory required for data: 4385862144
I0323 10:29:26.336714 17346 layer_factory.hpp:77] Creating layer relu3_2
I0323 10:29:26.336721 17346 net.cpp:100] Creating Layer relu3_2
I0323 10:29:26.336725 17346 net.cpp:434] relu3_2 <- conv3_2
I0323 10:29:26.336730 17346 net.cpp:395] relu3_2 -> conv3_2 (in-place)
I0323 10:29:26.337172 17346 net.cpp:150] Setting up relu3_2
I0323 10:29:26.337184 17346 net.cpp:157] Top shape: 4 256 192 192 (37748736)
I0323 10:29:26.337188 17346 net.cpp:165] Memory required for data: 4536857088
I0323 10:29:26.337191 17346 layer_factory.hpp:77] Creating layer conv3_3
I0323 10:29:26.337199 17346 net.cpp:100] Creating Layer conv3_3
I0323 10:29:26.337203 17346 net.cpp:434] conv3_3 <- conv3_2
I0323 10:29:26.337209 17346 net.cpp:408] conv3_3 -> conv3_3
I0323 10:29:26.339865 17346 net.cpp:150] Setting up conv3_3
I0323 10:29:26.339890 17346 net.cpp:157] Top shape: 4 256 192 192 (37748736)
I0323 10:29:26.339895 17346 net.cpp:165] Memory required for data: 4687852032
I0323 10:29:26.339902 17346 layer_factory.hpp:77] Creating layer relu3_3
I0323 10:29:26.339912 17346 net.cpp:100] Creating Layer relu3_3
I0323 10:29:26.339917 17346 net.cpp:434] relu3_3 <- conv3_3
I0323 10:29:26.339923 17346 net.cpp:395] relu3_3 -> conv3_3 (in-place)
I0323 10:29:26.340085 17346 net.cpp:150] Setting up relu3_3
I0323 10:29:26.340093 17346 net.cpp:157] Top shape: 4 256 192 192 (37748736)
I0323 10:29:26.340096 17346 net.cpp:165] Memory required for data: 4838846976
I0323 10:29:26.340100 17346 layer_factory.hpp:77] Creating layer pool3
I0323 10:29:26.340106 17346 net.cpp:100] Creating Layer pool3
I0323 10:29:26.340111 17346 net.cpp:434] pool3 <- conv3_3
I0323 10:29:26.340116 17346 net.cpp:408] pool3 -> pool3
I0323 10:29:26.340152 17346 net.cpp:150] Setting up pool3
I0323 10:29:26.340158 17346 net.cpp:157] Top shape: 4 256 96 96 (9437184)
I0323 10:29:26.340162 17346 net.cpp:165] Memory required for data: 4876595712
I0323 10:29:26.340165 17346 layer_factory.hpp:77] Creating layer conv4_1
I0323 10:29:26.340175 17346 net.cpp:100] Creating Layer conv4_1
I0323 10:29:26.340178 17346 net.cpp:434] conv4_1 <- pool3
I0323 10:29:26.340183 17346 net.cpp:408] conv4_1 -> conv4_1
I0323 10:29:26.344738 17346 net.cpp:150] Setting up conv4_1
I0323 10:29:26.344774 17346 net.cpp:157] Top shape: 4 512 96 96 (18874368)
I0323 10:29:26.344779 17346 net.cpp:165] Memory required for data: 4952093184
I0323 10:29:26.344790 17346 layer_factory.hpp:77] Creating layer relu4_1
I0323 10:29:26.344805 17346 net.cpp:100] Creating Layer relu4_1
I0323 10:29:26.344811 17346 net.cpp:434] relu4_1 <- conv4_1
I0323 10:29:26.344821 17346 net.cpp:395] relu4_1 -> conv4_1 (in-place)
I0323 10:29:26.345041 17346 net.cpp:150] Setting up relu4_1
I0323 10:29:26.345051 17346 net.cpp:157] Top shape: 4 512 96 96 (18874368)
I0323 10:29:26.345054 17346 net.cpp:165] Memory required for data: 5027590656
I0323 10:29:26.345058 17346 layer_factory.hpp:77] Creating layer conv4_2
I0323 10:29:26.345070 17346 net.cpp:100] Creating Layer conv4_2
I0323 10:29:26.345075 17346 net.cpp:434] conv4_2 <- conv4_1
I0323 10:29:26.345082 17346 net.cpp:408] conv4_2 -> conv4_2
I0323 10:29:26.351891 17346 net.cpp:150] Setting up conv4_2
I0323 10:29:26.351923 17346 net.cpp:157] Top shape: 4 512 96 96 (18874368)
I0323 10:29:26.351930 17346 net.cpp:165] Memory required for data: 5103088128
I0323 10:29:26.351953 17346 layer_factory.hpp:77] Creating layer relu4_2
I0323 10:29:26.351969 17346 net.cpp:100] Creating Layer relu4_2
I0323 10:29:26.351977 17346 net.cpp:434] relu4_2 <- conv4_2
I0323 10:29:26.351989 17346 net.cpp:395] relu4_2 -> conv4_2 (in-place)
I0323 10:29:26.352257 17346 net.cpp:150] Setting up relu4_2
I0323 10:29:26.352274 17346 net.cpp:157] Top shape: 4 512 96 96 (18874368)
I0323 10:29:26.352280 17346 net.cpp:165] Memory required for data: 5178585600
I0323 10:29:26.352286 17346 layer_factory.hpp:77] Creating layer conv4_3
I0323 10:29:26.352300 17346 net.cpp:100] Creating Layer conv4_3
I0323 10:29:26.352306 17346 net.cpp:434] conv4_3 <- conv4_2
I0323 10:29:26.352319 17346 net.cpp:408] conv4_3 -> conv4_3
I0323 10:29:26.358991 17346 net.cpp:150] Setting up conv4_3
I0323 10:29:26.359037 17346 net.cpp:157] Top shape: 4 512 96 96 (18874368)
I0323 10:29:26.359042 17346 net.cpp:165] Memory required for data: 5254083072
I0323 10:29:26.359055 17346 layer_factory.hpp:77] Creating layer relu4_3
I0323 10:29:26.359073 17346 net.cpp:100] Creating Layer relu4_3
I0323 10:29:26.359081 17346 net.cpp:434] relu4_3 <- conv4_3
I0323 10:29:26.359092 17346 net.cpp:395] relu4_3 -> conv4_3 (in-place)
I0323 10:29:26.359324 17346 net.cpp:150] Setting up relu4_3
I0323 10:29:26.359335 17346 net.cpp:157] Top shape: 4 512 96 96 (18874368)
I0323 10:29:26.359339 17346 net.cpp:165] Memory required for data: 5329580544
I0323 10:29:26.359345 17346 layer_factory.hpp:77] Creating layer conv4_3_relu4_3_0_split
I0323 10:29:26.359369 17346 net.cpp:100] Creating Layer conv4_3_relu4_3_0_split
I0323 10:29:26.359376 17346 net.cpp:434] conv4_3_relu4_3_0_split <- conv4_3
I0323 10:29:26.359387 17346 net.cpp:408] conv4_3_relu4_3_0_split -> conv4_3_relu4_3_0_split_0
I0323 10:29:26.359403 17346 net.cpp:408] conv4_3_relu4_3_0_split -> conv4_3_relu4_3_0_split_1
I0323 10:29:26.359460 17346 net.cpp:150] Setting up conv4_3_relu4_3_0_split
I0323 10:29:26.359469 17346 net.cpp:157] Top shape: 4 512 96 96 (18874368)
I0323 10:29:26.359475 17346 net.cpp:157] Top shape: 4 512 96 96 (18874368)
I0323 10:29:26.359483 17346 net.cpp:165] Memory required for data: 5480575488
I0323 10:29:26.359488 17346 layer_factory.hpp:77] Creating layer loss1_conv1
I0323 10:29:26.359514 17346 net.cpp:100] Creating Layer loss1_conv1
I0323 10:29:26.359520 17346 net.cpp:434] loss1_conv1 <- conv4_3_relu4_3_0_split_0
I0323 10:29:26.359536 17346 net.cpp:408] loss1_conv1 -> loss1_conv1
I0323 10:29:26.430282 17346 net.cpp:150] Setting up loss1_conv1
I0323 10:29:26.430311 17346 net.cpp:157] Top shape: 4 512 96 96 (18874368)
I0323 10:29:26.430315 17346 net.cpp:165] Memory required for data: 5556072960
I0323 10:29:26.430325 17346 layer_factory.hpp:77] Creating layer loss_relu1
I0323 10:29:26.430335 17346 net.cpp:100] Creating Layer loss_relu1
I0323 10:29:26.430341 17346 net.cpp:434] loss_relu1 <- loss1_conv1
I0323 10:29:26.430347 17346 net.cpp:395] loss_relu1 -> loss1_conv1 (in-place)
I0323 10:29:26.430804 17346 net.cpp:150] Setting up loss_relu1
I0323 10:29:26.430815 17346 net.cpp:157] Top shape: 4 512 96 96 (18874368)
I0323 10:29:26.430819 17346 net.cpp:165] Memory required for data: 5631570432
I0323 10:29:26.430822 17346 layer_factory.hpp:77] Creating layer loss1_conv1_loss_relu1_0_split
I0323 10:29:26.430830 17346 net.cpp:100] Creating Layer loss1_conv1_loss_relu1_0_split
I0323 10:29:26.430832 17346 net.cpp:434] loss1_conv1_loss_relu1_0_split <- loss1_conv1
I0323 10:29:26.430838 17346 net.cpp:408] loss1_conv1_loss_relu1_0_split -> loss1_conv1_loss_relu1_0_split_0
I0323 10:29:26.430845 17346 net.cpp:408] loss1_conv1_loss_relu1_0_split -> loss1_conv1_loss_relu1_0_split_1
I0323 10:29:26.430881 17346 net.cpp:150] Setting up loss1_conv1_loss_relu1_0_split
I0323 10:29:26.430887 17346 net.cpp:157] Top shape: 4 512 96 96 (18874368)
I0323 10:29:26.430891 17346 net.cpp:157] Top shape: 4 512 96 96 (18874368)
I0323 10:29:26.430894 17346 net.cpp:165] Memory required for data: 5782565376
I0323 10:29:26.430897 17346 layer_factory.hpp:77] Creating layer LFCN_1_5x5
I0323 10:29:26.430908 17346 net.cpp:100] Creating Layer LFCN_1_5x5
I0323 10:29:26.430912 17346 net.cpp:434] LFCN_1_5x5 <- loss1_conv1_loss_relu1_0_split_0
I0323 10:29:26.430917 17346 net.cpp:408] LFCN_1_5x5 -> LFCN_1_5x5
I0323 10:29:26.434360 17346 net.cpp:150] Setting up LFCN_1_5x5
I0323 10:29:26.434370 17346 net.cpp:157] Top shape: 4 9 96 96 (331776)
I0323 10:29:26.434376 17346 net.cpp:165] Memory required for data: 5783892480
I0323 10:29:26.434381 17346 layer_factory.hpp:77] Creating layer LFCN_1_5x5_LFCN_1_5x5_0_split
I0323 10:29:26.434386 17346 net.cpp:100] Creating Layer LFCN_1_5x5_LFCN_1_5x5_0_split
I0323 10:29:26.434391 17346 net.cpp:434] LFCN_1_5x5_LFCN_1_5x5_0_split <- LFCN_1_5x5
I0323 10:29:26.434396 17346 net.cpp:408] LFCN_1_5x5_LFCN_1_5x5_0_split -> LFCN_1_5x5_LFCN_1_5x5_0_split_0
I0323 10:29:26.434401 17346 net.cpp:408] LFCN_1_5x5_LFCN_1_5x5_0_split -> LFCN_1_5x5_LFCN_1_5x5_0_split_1
I0323 10:29:26.434433 17346 net.cpp:150] Setting up LFCN_1_5x5_LFCN_1_5x5_0_split
I0323 10:29:26.434440 17346 net.cpp:157] Top shape: 4 9 96 96 (331776)
I0323 10:29:26.434444 17346 net.cpp:157] Top shape: 4 9 96 96 (331776)
I0323 10:29:26.434448 17346 net.cpp:165] Memory required for data: 5786546688
I0323 10:29:26.434450 17346 layer_factory.hpp:77] Creating layer detection_loss_1_5x5
I0323 10:29:26.434458 17346 net.cpp:100] Creating Layer detection_loss_1_5x5
I0323 10:29:26.434460 17346 net.cpp:434] detection_loss_1_5x5 <- LFCN_1_5x5_LFCN_1_5x5_0_split_0
I0323 10:29:26.434465 17346 net.cpp:434] detection_loss_1_5x5 <- label_1_5x5_data_1_split_0
I0323 10:29:26.434469 17346 net.cpp:408] detection_loss_1_5x5 -> loss_1_5x5
I0323 10:29:26.434482 17346 layer_factory.hpp:77] Creating layer detection_loss_1_5x5
I0323 10:29:26.435950 17346 net.cpp:150] Setting up detection_loss_1_5x5
I0323 10:29:26.435963 17346 net.cpp:157] Top shape: 1 1 1 2 (2)
I0323 10:29:26.435966 17346 net.cpp:160]     with loss weight 0.9
I0323 10:29:26.435986 17346 net.cpp:165] Memory required for data: 5786546696
I0323 10:29:26.435989 17346 layer_factory.hpp:77] Creating layer detection_accuracy_1_5x5
I0323 10:29:26.435997 17346 net.cpp:100] Creating Layer detection_accuracy_1_5x5
I0323 10:29:26.436000 17346 net.cpp:434] detection_accuracy_1_5x5 <- LFCN_1_5x5_LFCN_1_5x5_0_split_1
I0323 10:29:26.436004 17346 net.cpp:434] detection_accuracy_1_5x5 <- label_1_5x5_data_1_split_1
I0323 10:29:26.436012 17346 net.cpp:408] detection_accuracy_1_5x5 -> accuracy_1_5x5
I0323 10:29:26.436019 17346 net.cpp:408] detection_accuracy_1_5x5 -> boxiou_1_5x5
I0323 10:29:26.436056 17346 net.cpp:150] Setting up detection_accuracy_1_5x5
I0323 10:29:26.436064 17346 net.cpp:157] Top shape: 1 1 1 2 (2)
I0323 10:29:26.436069 17346 net.cpp:157] Top shape: 1 1 1 1 (1)
I0323 10:29:26.436071 17346 net.cpp:165] Memory required for data: 5786546708
I0323 10:29:26.436074 17346 layer_factory.hpp:77] Creating layer LFCN_1_7x7
I0323 10:29:26.436085 17346 net.cpp:100] Creating Layer LFCN_1_7x7
I0323 10:29:26.436089 17346 net.cpp:434] LFCN_1_7x7 <- loss1_conv1_loss_relu1_0_split_1
I0323 10:29:26.436094 17346 net.cpp:408] LFCN_1_7x7 -> LFCN_1_7x7
I0323 10:29:26.442891 17346 net.cpp:150] Setting up LFCN_1_7x7
I0323 10:29:26.442909 17346 net.cpp:157] Top shape: 4 9 96 96 (331776)
I0323 10:29:26.442914 17346 net.cpp:165] Memory required for data: 5787873812
I0323 10:29:26.442920 17346 layer_factory.hpp:77] Creating layer LFCN_1_7x7_LFCN_1_7x7_0_split
I0323 10:29:26.442926 17346 net.cpp:100] Creating Layer LFCN_1_7x7_LFCN_1_7x7_0_split
I0323 10:29:26.442930 17346 net.cpp:434] LFCN_1_7x7_LFCN_1_7x7_0_split <- LFCN_1_7x7
I0323 10:29:26.442936 17346 net.cpp:408] LFCN_1_7x7_LFCN_1_7x7_0_split -> LFCN_1_7x7_LFCN_1_7x7_0_split_0
I0323 10:29:26.442942 17346 net.cpp:408] LFCN_1_7x7_LFCN_1_7x7_0_split -> LFCN_1_7x7_LFCN_1_7x7_0_split_1
I0323 10:29:26.442981 17346 net.cpp:150] Setting up LFCN_1_7x7_LFCN_1_7x7_0_split
I0323 10:29:26.442987 17346 net.cpp:157] Top shape: 4 9 96 96 (331776)
I0323 10:29:26.442991 17346 net.cpp:157] Top shape: 4 9 96 96 (331776)
I0323 10:29:26.442994 17346 net.cpp:165] Memory required for data: 5790528020
I0323 10:29:26.442997 17346 layer_factory.hpp:77] Creating layer detection_loss_1_7x7
I0323 10:29:26.443004 17346 net.cpp:100] Creating Layer detection_loss_1_7x7
I0323 10:29:26.443007 17346 net.cpp:434] detection_loss_1_7x7 <- LFCN_1_7x7_LFCN_1_7x7_0_split_0
I0323 10:29:26.443012 17346 net.cpp:434] detection_loss_1_7x7 <- label_1_7x7_data_2_split_0
I0323 10:29:26.443017 17346 net.cpp:408] detection_loss_1_7x7 -> loss_1_7x7
I0323 10:29:26.443025 17346 layer_factory.hpp:77] Creating layer detection_loss_1_7x7
I0323 10:29:26.444697 17346 net.cpp:150] Setting up detection_loss_1_7x7
I0323 10:29:26.444718 17346 net.cpp:157] Top shape: 1 1 1 2 (2)
I0323 10:29:26.444721 17346 net.cpp:160]     with loss weight 0.9
I0323 10:29:26.444732 17346 net.cpp:165] Memory required for data: 5790528028
I0323 10:29:26.444736 17346 layer_factory.hpp:77] Creating layer detection_accuracy_1_7x7
I0323 10:29:26.444746 17346 net.cpp:100] Creating Layer detection_accuracy_1_7x7
I0323 10:29:26.444751 17346 net.cpp:434] detection_accuracy_1_7x7 <- LFCN_1_7x7_LFCN_1_7x7_0_split_1
I0323 10:29:26.444756 17346 net.cpp:434] detection_accuracy_1_7x7 <- label_1_7x7_data_2_split_1
I0323 10:29:26.444762 17346 net.cpp:408] detection_accuracy_1_7x7 -> accuracy_1_7x7
I0323 10:29:26.444768 17346 net.cpp:408] detection_accuracy_1_7x7 -> boxiou_1_7x7
I0323 10:29:26.444808 17346 net.cpp:150] Setting up detection_accuracy_1_7x7
I0323 10:29:26.444815 17346 net.cpp:157] Top shape: 1 1 1 2 (2)
I0323 10:29:26.444819 17346 net.cpp:157] Top shape: 1 1 1 1 (1)
I0323 10:29:26.444823 17346 net.cpp:165] Memory required for data: 5790528040
I0323 10:29:26.444825 17346 layer_factory.hpp:77] Creating layer pool4
I0323 10:29:26.444833 17346 net.cpp:100] Creating Layer pool4
I0323 10:29:26.444836 17346 net.cpp:434] pool4 <- conv4_3_relu4_3_0_split_1
I0323 10:29:26.444844 17346 net.cpp:408] pool4 -> pool4
I0323 10:29:26.444877 17346 net.cpp:150] Setting up pool4
I0323 10:29:26.444883 17346 net.cpp:157] Top shape: 4 512 48 48 (4718592)
I0323 10:29:26.444886 17346 net.cpp:165] Memory required for data: 5809402408
I0323 10:29:26.444890 17346 layer_factory.hpp:77] Creating layer conv5_1
I0323 10:29:26.444900 17346 net.cpp:100] Creating Layer conv5_1
I0323 10:29:26.444902 17346 net.cpp:434] conv5_1 <- pool4
I0323 10:29:26.444907 17346 net.cpp:408] conv5_1 -> conv5_1
I0323 10:29:26.450681 17346 net.cpp:150] Setting up conv5_1
I0323 10:29:26.450711 17346 net.cpp:157] Top shape: 4 512 48 48 (4718592)
I0323 10:29:26.450716 17346 net.cpp:165] Memory required for data: 5828276776
I0323 10:29:26.450724 17346 layer_factory.hpp:77] Creating layer relu5_1
I0323 10:29:26.450736 17346 net.cpp:100] Creating Layer relu5_1
I0323 10:29:26.450743 17346 net.cpp:434] relu5_1 <- conv5_1
I0323 10:29:26.450748 17346 net.cpp:395] relu5_1 -> conv5_1 (in-place)
I0323 10:29:26.450911 17346 net.cpp:150] Setting up relu5_1
I0323 10:29:26.450919 17346 net.cpp:157] Top shape: 4 512 48 48 (4718592)
I0323 10:29:26.450923 17346 net.cpp:165] Memory required for data: 5847151144
I0323 10:29:26.450927 17346 layer_factory.hpp:77] Creating layer conv5_2
I0323 10:29:26.450935 17346 net.cpp:100] Creating Layer conv5_2
I0323 10:29:26.450939 17346 net.cpp:434] conv5_2 <- conv5_1
I0323 10:29:26.450945 17346 net.cpp:408] conv5_2 -> conv5_2
I0323 10:29:26.456802 17346 net.cpp:150] Setting up conv5_2
I0323 10:29:26.456835 17346 net.cpp:157] Top shape: 4 512 48 48 (4718592)
I0323 10:29:26.456840 17346 net.cpp:165] Memory required for data: 5866025512
I0323 10:29:26.456848 17346 layer_factory.hpp:77] Creating layer relu5_2
I0323 10:29:26.456861 17346 net.cpp:100] Creating Layer relu5_2
I0323 10:29:26.456866 17346 net.cpp:434] relu5_2 <- conv5_2
I0323 10:29:26.456873 17346 net.cpp:395] relu5_2 -> conv5_2 (in-place)
I0323 10:29:26.457033 17346 net.cpp:150] Setting up relu5_2
I0323 10:29:26.457041 17346 net.cpp:157] Top shape: 4 512 48 48 (4718592)
I0323 10:29:26.457046 17346 net.cpp:165] Memory required for data: 5884899880
I0323 10:29:26.457048 17346 layer_factory.hpp:77] Creating layer conv5_3
I0323 10:29:26.457058 17346 net.cpp:100] Creating Layer conv5_3
I0323 10:29:26.457062 17346 net.cpp:434] conv5_3 <- conv5_2
I0323 10:29:26.457067 17346 net.cpp:408] conv5_3 -> conv5_3
I0323 10:29:26.466799 17346 net.cpp:150] Setting up conv5_3
I0323 10:29:26.466832 17346 net.cpp:157] Top shape: 4 512 48 48 (4718592)
I0323 10:29:26.466836 17346 net.cpp:165] Memory required for data: 5903774248
I0323 10:29:26.466846 17346 layer_factory.hpp:77] Creating layer relu5_3
I0323 10:29:26.466858 17346 net.cpp:100] Creating Layer relu5_3
I0323 10:29:26.466866 17346 net.cpp:434] relu5_3 <- conv5_3
I0323 10:29:26.466871 17346 net.cpp:395] relu5_3 -> conv5_3 (in-place)
I0323 10:29:26.467083 17346 net.cpp:150] Setting up relu5_3
I0323 10:29:26.467093 17346 net.cpp:157] Top shape: 4 512 48 48 (4718592)
I0323 10:29:26.467097 17346 net.cpp:165] Memory required for data: 5922648616
I0323 10:29:26.467100 17346 layer_factory.hpp:77] Creating layer conv5_3_relu5_3_0_split
I0323 10:29:26.467106 17346 net.cpp:100] Creating Layer conv5_3_relu5_3_0_split
I0323 10:29:26.467110 17346 net.cpp:434] conv5_3_relu5_3_0_split <- conv5_3
I0323 10:29:26.467115 17346 net.cpp:408] conv5_3_relu5_3_0_split -> conv5_3_relu5_3_0_split_0
I0323 10:29:26.467123 17346 net.cpp:408] conv5_3_relu5_3_0_split -> conv5_3_relu5_3_0_split_1
I0323 10:29:26.467133 17346 net.cpp:408] conv5_3_relu5_3_0_split -> conv5_3_relu5_3_0_split_2
I0323 10:29:26.467196 17346 net.cpp:150] Setting up conv5_3_relu5_3_0_split
I0323 10:29:26.467208 17346 net.cpp:157] Top shape: 4 512 48 48 (4718592)
I0323 10:29:26.467216 17346 net.cpp:157] Top shape: 4 512 48 48 (4718592)
I0323 10:29:26.467221 17346 net.cpp:157] Top shape: 4 512 48 48 (4718592)
I0323 10:29:26.467226 17346 net.cpp:165] Memory required for data: 5979271720
I0323 10:29:26.467229 17346 layer_factory.hpp:77] Creating layer LFCN_2_5x5
I0323 10:29:26.467242 17346 net.cpp:100] Creating Layer LFCN_2_5x5
I0323 10:29:26.467247 17346 net.cpp:434] LFCN_2_5x5 <- conv5_3_relu5_3_0_split_0
I0323 10:29:26.467254 17346 net.cpp:408] LFCN_2_5x5 -> LFCN_2_5x5
I0323 10:29:26.471354 17346 net.cpp:150] Setting up LFCN_2_5x5
I0323 10:29:26.471370 17346 net.cpp:157] Top shape: 4 9 48 48 (82944)
I0323 10:29:26.471374 17346 net.cpp:165] Memory required for data: 5979603496
I0323 10:29:26.471387 17346 layer_factory.hpp:77] Creating layer LFCN_2_5x5_LFCN_2_5x5_0_split
I0323 10:29:26.471393 17346 net.cpp:100] Creating Layer LFCN_2_5x5_LFCN_2_5x5_0_split
I0323 10:29:26.471398 17346 net.cpp:434] LFCN_2_5x5_LFCN_2_5x5_0_split <- LFCN_2_5x5
I0323 10:29:26.471402 17346 net.cpp:408] LFCN_2_5x5_LFCN_2_5x5_0_split -> LFCN_2_5x5_LFCN_2_5x5_0_split_0
I0323 10:29:26.471410 17346 net.cpp:408] LFCN_2_5x5_LFCN_2_5x5_0_split -> LFCN_2_5x5_LFCN_2_5x5_0_split_1
I0323 10:29:26.471444 17346 net.cpp:150] Setting up LFCN_2_5x5_LFCN_2_5x5_0_split
I0323 10:29:26.471451 17346 net.cpp:157] Top shape: 4 9 48 48 (82944)
I0323 10:29:26.471455 17346 net.cpp:157] Top shape: 4 9 48 48 (82944)
I0323 10:29:26.471458 17346 net.cpp:165] Memory required for data: 5980267048
I0323 10:29:26.471462 17346 layer_factory.hpp:77] Creating layer detection_loss_2_5x5
I0323 10:29:26.471468 17346 net.cpp:100] Creating Layer detection_loss_2_5x5
I0323 10:29:26.471472 17346 net.cpp:434] detection_loss_2_5x5 <- LFCN_2_5x5_LFCN_2_5x5_0_split_0
I0323 10:29:26.471477 17346 net.cpp:434] detection_loss_2_5x5 <- label_2_5x5_data_3_split_0
I0323 10:29:26.471483 17346 net.cpp:408] detection_loss_2_5x5 -> loss_2_5x5
I0323 10:29:26.471496 17346 layer_factory.hpp:77] Creating layer detection_loss_2_5x5
I0323 10:29:26.472950 17346 net.cpp:150] Setting up detection_loss_2_5x5
I0323 10:29:26.472965 17346 net.cpp:157] Top shape: 1 1 1 2 (2)
I0323 10:29:26.472968 17346 net.cpp:160]     with loss weight 1
I0323 10:29:26.472980 17346 net.cpp:165] Memory required for data: 5980267056
I0323 10:29:26.472982 17346 layer_factory.hpp:77] Creating layer detection_accuracy_2_5x5
I0323 10:29:26.472990 17346 net.cpp:100] Creating Layer detection_accuracy_2_5x5
I0323 10:29:26.472995 17346 net.cpp:434] detection_accuracy_2_5x5 <- LFCN_2_5x5_LFCN_2_5x5_0_split_1
I0323 10:29:26.473000 17346 net.cpp:434] detection_accuracy_2_5x5 <- label_2_5x5_data_3_split_1
I0323 10:29:26.473006 17346 net.cpp:408] detection_accuracy_2_5x5 -> accuracy_2_5x5
I0323 10:29:26.473012 17346 net.cpp:408] detection_accuracy_2_5x5 -> boxiou_2_5x5
I0323 10:29:26.473052 17346 net.cpp:150] Setting up detection_accuracy_2_5x5
I0323 10:29:26.473059 17346 net.cpp:157] Top shape: 1 1 1 2 (2)
I0323 10:29:26.473063 17346 net.cpp:157] Top shape: 1 1 1 1 (1)
I0323 10:29:26.473067 17346 net.cpp:165] Memory required for data: 5980267068
I0323 10:29:26.473069 17346 layer_factory.hpp:77] Creating layer LFCN_2_7x7
I0323 10:29:26.473080 17346 net.cpp:100] Creating Layer LFCN_2_7x7
I0323 10:29:26.473085 17346 net.cpp:434] LFCN_2_7x7 <- conv5_3_relu5_3_0_split_1
I0323 10:29:26.473093 17346 net.cpp:408] LFCN_2_7x7 -> LFCN_2_7x7
I0323 10:29:26.488889 17346 net.cpp:150] Setting up LFCN_2_7x7
I0323 10:29:26.488939 17346 net.cpp:157] Top shape: 4 9 48 48 (82944)
I0323 10:29:26.488948 17346 net.cpp:165] Memory required for data: 5980598844
I0323 10:29:26.488965 17346 layer_factory.hpp:77] Creating layer LFCN_2_7x7_LFCN_2_7x7_0_split
I0323 10:29:26.488982 17346 net.cpp:100] Creating Layer LFCN_2_7x7_LFCN_2_7x7_0_split
I0323 10:29:26.488993 17346 net.cpp:434] LFCN_2_7x7_LFCN_2_7x7_0_split <- LFCN_2_7x7
I0323 10:29:26.489011 17346 net.cpp:408] LFCN_2_7x7_LFCN_2_7x7_0_split -> LFCN_2_7x7_LFCN_2_7x7_0_split_0
I0323 10:29:26.489027 17346 net.cpp:408] LFCN_2_7x7_LFCN_2_7x7_0_split -> LFCN_2_7x7_LFCN_2_7x7_0_split_1
I0323 10:29:26.489106 17346 net.cpp:150] Setting up LFCN_2_7x7_LFCN_2_7x7_0_split
I0323 10:29:26.489120 17346 net.cpp:157] Top shape: 4 9 48 48 (82944)
I0323 10:29:26.489130 17346 net.cpp:157] Top shape: 4 9 48 48 (82944)
I0323 10:29:26.489138 17346 net.cpp:165] Memory required for data: 5981262396
I0323 10:29:26.489145 17346 layer_factory.hpp:77] Creating layer detection_loss_2_7x7
I0323 10:29:26.489161 17346 net.cpp:100] Creating Layer detection_loss_2_7x7
I0323 10:29:26.489171 17346 net.cpp:434] detection_loss_2_7x7 <- LFCN_2_7x7_LFCN_2_7x7_0_split_0
I0323 10:29:26.489182 17346 net.cpp:434] detection_loss_2_7x7 <- label_2_7x7_data_4_split_0
I0323 10:29:26.489197 17346 net.cpp:408] detection_loss_2_7x7 -> loss_2_7x7
I0323 10:29:26.489217 17346 layer_factory.hpp:77] Creating layer detection_loss_2_7x7
I0323 10:29:26.490684 17346 net.cpp:150] Setting up detection_loss_2_7x7
I0323 10:29:26.490700 17346 net.cpp:157] Top shape: 1 1 1 2 (2)
I0323 10:29:26.490703 17346 net.cpp:160]     with loss weight 1
I0323 10:29:26.490715 17346 net.cpp:165] Memory required for data: 5981262404
I0323 10:29:26.490720 17346 layer_factory.hpp:77] Creating layer detection_accuracy_2_7x7
I0323 10:29:26.490731 17346 net.cpp:100] Creating Layer detection_accuracy_2_7x7
I0323 10:29:26.490736 17346 net.cpp:434] detection_accuracy_2_7x7 <- LFCN_2_7x7_LFCN_2_7x7_0_split_1
I0323 10:29:26.490741 17346 net.cpp:434] detection_accuracy_2_7x7 <- label_2_7x7_data_4_split_1
I0323 10:29:26.490748 17346 net.cpp:408] detection_accuracy_2_7x7 -> accuracy_2_7x7
I0323 10:29:26.490758 17346 net.cpp:408] detection_accuracy_2_7x7 -> boxiou_2_7x7
I0323 10:29:26.490803 17346 net.cpp:150] Setting up detection_accuracy_2_7x7
I0323 10:29:26.490810 17346 net.cpp:157] Top shape: 1 1 1 2 (2)
I0323 10:29:26.490816 17346 net.cpp:157] Top shape: 1 1 1 1 (1)
I0323 10:29:26.490820 17346 net.cpp:165] Memory required for data: 5981262416
I0323 10:29:26.490823 17346 layer_factory.hpp:77] Creating layer pool5
I0323 10:29:26.490833 17346 net.cpp:100] Creating Layer pool5
I0323 10:29:26.490839 17346 net.cpp:434] pool5 <- conv5_3_relu5_3_0_split_2
I0323 10:29:26.490844 17346 net.cpp:408] pool5 -> pool5
I0323 10:29:26.490886 17346 net.cpp:150] Setting up pool5
I0323 10:29:26.490895 17346 net.cpp:157] Top shape: 4 512 24 24 (1179648)
I0323 10:29:26.490898 17346 net.cpp:165] Memory required for data: 5985981008
I0323 10:29:26.490902 17346 layer_factory.hpp:77] Creating layer ch4_pool5
I0323 10:29:26.490908 17346 net.cpp:100] Creating Layer ch4_pool5
I0323 10:29:26.490913 17346 net.cpp:434] ch4_pool5 <- ch4
I0323 10:29:26.490921 17346 net.cpp:408] ch4_pool5 -> ch4_pool5
I0323 10:29:26.490958 17346 net.cpp:150] Setting up ch4_pool5
I0323 10:29:26.490967 17346 net.cpp:157] Top shape: 4 1 24 24 (2304)
I0323 10:29:26.490970 17346 net.cpp:165] Memory required for data: 5985990224
I0323 10:29:26.490974 17346 layer_factory.hpp:77] Creating layer pool5_concat
I0323 10:29:26.490981 17346 net.cpp:100] Creating Layer pool5_concat
I0323 10:29:26.490985 17346 net.cpp:434] pool5_concat <- pool5
I0323 10:29:26.490991 17346 net.cpp:434] pool5_concat <- ch4_pool5
I0323 10:29:26.490996 17346 net.cpp:408] pool5_concat -> pool5_new
I0323 10:29:26.491024 17346 net.cpp:150] Setting up pool5_concat
I0323 10:29:26.491031 17346 net.cpp:157] Top shape: 4 513 24 24 (1181952)
I0323 10:29:26.491035 17346 net.cpp:165] Memory required for data: 5990718032
I0323 10:29:26.491039 17346 layer_factory.hpp:77] Creating layer conv6_1_new
I0323 10:29:26.491051 17346 net.cpp:100] Creating Layer conv6_1_new
I0323 10:29:26.491055 17346 net.cpp:434] conv6_1_new <- pool5_new
I0323 10:29:26.491063 17346 net.cpp:408] conv6_1_new -> conv6_1
I0323 10:29:26.552758 17346 net.cpp:150] Setting up conv6_1_new
I0323 10:29:26.552788 17346 net.cpp:157] Top shape: 4 512 24 24 (1179648)
I0323 10:29:26.552793 17346 net.cpp:165] Memory required for data: 5995436624
I0323 10:29:26.552801 17346 layer_factory.hpp:77] Creating layer relu6_1
I0323 10:29:26.552819 17346 net.cpp:100] Creating Layer relu6_1
I0323 10:29:26.552826 17346 net.cpp:434] relu6_1 <- conv6_1
I0323 10:29:26.552834 17346 net.cpp:395] relu6_1 -> conv6_1 (in-place)
I0323 10:29:26.553004 17346 net.cpp:150] Setting up relu6_1
I0323 10:29:26.553014 17346 net.cpp:157] Top shape: 4 512 24 24 (1179648)
I0323 10:29:26.553016 17346 net.cpp:165] Memory required for data: 6000155216
I0323 10:29:26.553020 17346 layer_factory.hpp:77] Creating layer conv6_1_relu6_1_0_split
I0323 10:29:26.553026 17346 net.cpp:100] Creating Layer conv6_1_relu6_1_0_split
I0323 10:29:26.553030 17346 net.cpp:434] conv6_1_relu6_1_0_split <- conv6_1
I0323 10:29:26.553035 17346 net.cpp:408] conv6_1_relu6_1_0_split -> conv6_1_relu6_1_0_split_0
I0323 10:29:26.553043 17346 net.cpp:408] conv6_1_relu6_1_0_split -> conv6_1_relu6_1_0_split_1
I0323 10:29:26.553050 17346 net.cpp:408] conv6_1_relu6_1_0_split -> conv6_1_relu6_1_0_split_2
I0323 10:29:26.553097 17346 net.cpp:150] Setting up conv6_1_relu6_1_0_split
I0323 10:29:26.553103 17346 net.cpp:157] Top shape: 4 512 24 24 (1179648)
I0323 10:29:26.553108 17346 net.cpp:157] Top shape: 4 512 24 24 (1179648)
I0323 10:29:26.553113 17346 net.cpp:157] Top shape: 4 512 24 24 (1179648)
I0323 10:29:26.553117 17346 net.cpp:165] Memory required for data: 6014310992
I0323 10:29:26.553120 17346 layer_factory.hpp:77] Creating layer LFCN_3_5x5
I0323 10:29:26.553129 17346 net.cpp:100] Creating Layer LFCN_3_5x5
I0323 10:29:26.553133 17346 net.cpp:434] LFCN_3_5x5 <- conv6_1_relu6_1_0_split_0
I0323 10:29:26.553140 17346 net.cpp:408] LFCN_3_5x5 -> LFCN_3_5x5
I0323 10:29:26.560137 17346 net.cpp:150] Setting up LFCN_3_5x5
I0323 10:29:26.560184 17346 net.cpp:157] Top shape: 4 9 24 24 (20736)
I0323 10:29:26.560194 17346 net.cpp:165] Memory required for data: 6014393936
I0323 10:29:26.560212 17346 layer_factory.hpp:77] Creating layer LFCN_3_5x5_LFCN_3_5x5_0_split
I0323 10:29:26.560231 17346 net.cpp:100] Creating Layer LFCN_3_5x5_LFCN_3_5x5_0_split
I0323 10:29:26.560242 17346 net.cpp:434] LFCN_3_5x5_LFCN_3_5x5_0_split <- LFCN_3_5x5
I0323 10:29:26.560256 17346 net.cpp:408] LFCN_3_5x5_LFCN_3_5x5_0_split -> LFCN_3_5x5_LFCN_3_5x5_0_split_0
I0323 10:29:26.560278 17346 net.cpp:408] LFCN_3_5x5_LFCN_3_5x5_0_split -> LFCN_3_5x5_LFCN_3_5x5_0_split_1
I0323 10:29:26.560361 17346 net.cpp:150] Setting up LFCN_3_5x5_LFCN_3_5x5_0_split
I0323 10:29:26.560376 17346 net.cpp:157] Top shape: 4 9 24 24 (20736)
I0323 10:29:26.560385 17346 net.cpp:157] Top shape: 4 9 24 24 (20736)
I0323 10:29:26.560392 17346 net.cpp:165] Memory required for data: 6014559824
I0323 10:29:26.560400 17346 layer_factory.hpp:77] Creating layer detection_loss_3_5x5
I0323 10:29:26.560415 17346 net.cpp:100] Creating Layer detection_loss_3_5x5
I0323 10:29:26.560425 17346 net.cpp:434] detection_loss_3_5x5 <- LFCN_3_5x5_LFCN_3_5x5_0_split_0
I0323 10:29:26.560434 17346 net.cpp:434] detection_loss_3_5x5 <- label_3_5x5_data_5_split_0
I0323 10:29:26.560446 17346 net.cpp:408] detection_loss_3_5x5 -> loss_3_5x5
I0323 10:29:26.560464 17346 layer_factory.hpp:77] Creating layer detection_loss_3_5x5
I0323 10:29:26.561167 17346 net.cpp:150] Setting up detection_loss_3_5x5
I0323 10:29:26.561188 17346 net.cpp:157] Top shape: 1 1 1 2 (2)
I0323 10:29:26.561195 17346 net.cpp:160]     with loss weight 1
I0323 10:29:26.561213 17346 net.cpp:165] Memory required for data: 6014559832
I0323 10:29:26.561220 17346 layer_factory.hpp:77] Creating layer detection_accuracy_3_5x5
I0323 10:29:26.561233 17346 net.cpp:100] Creating Layer detection_accuracy_3_5x5
I0323 10:29:26.561244 17346 net.cpp:434] detection_accuracy_3_5x5 <- LFCN_3_5x5_LFCN_3_5x5_0_split_1
I0323 10:29:26.561254 17346 net.cpp:434] detection_accuracy_3_5x5 <- label_3_5x5_data_5_split_1
I0323 10:29:26.561267 17346 net.cpp:408] detection_accuracy_3_5x5 -> accuracy_3_5x5
I0323 10:29:26.561285 17346 net.cpp:408] detection_accuracy_3_5x5 -> boxiou_3_5x5
I0323 10:29:26.561362 17346 net.cpp:150] Setting up detection_accuracy_3_5x5
I0323 10:29:26.561375 17346 net.cpp:157] Top shape: 1 1 1 2 (2)
I0323 10:29:26.561384 17346 net.cpp:157] Top shape: 1 1 1 1 (1)
I0323 10:29:26.561390 17346 net.cpp:165] Memory required for data: 6014559844
I0323 10:29:26.561398 17346 layer_factory.hpp:77] Creating layer LFCN_3_7x7
I0323 10:29:26.561421 17346 net.cpp:100] Creating Layer LFCN_3_7x7
I0323 10:29:26.561432 17346 net.cpp:434] LFCN_3_7x7 <- conv6_1_relu6_1_0_split_1
I0323 10:29:26.561445 17346 net.cpp:408] LFCN_3_7x7 -> LFCN_3_7x7
I0323 10:29:26.577080 17346 net.cpp:150] Setting up LFCN_3_7x7
I0323 10:29:26.577117 17346 net.cpp:157] Top shape: 4 9 24 24 (20736)
I0323 10:29:26.577122 17346 net.cpp:165] Memory required for data: 6014642788
I0323 10:29:26.577131 17346 layer_factory.hpp:77] Creating layer LFCN_3_7x7_LFCN_3_7x7_0_split
I0323 10:29:26.577148 17346 net.cpp:100] Creating Layer LFCN_3_7x7_LFCN_3_7x7_0_split
I0323 10:29:26.577155 17346 net.cpp:434] LFCN_3_7x7_LFCN_3_7x7_0_split <- LFCN_3_7x7
I0323 10:29:26.577163 17346 net.cpp:408] LFCN_3_7x7_LFCN_3_7x7_0_split -> LFCN_3_7x7_LFCN_3_7x7_0_split_0
I0323 10:29:26.577172 17346 net.cpp:408] LFCN_3_7x7_LFCN_3_7x7_0_split -> LFCN_3_7x7_LFCN_3_7x7_0_split_1
I0323 10:29:26.577209 17346 net.cpp:150] Setting up LFCN_3_7x7_LFCN_3_7x7_0_split
I0323 10:29:26.577214 17346 net.cpp:157] Top shape: 4 9 24 24 (20736)
I0323 10:29:26.577219 17346 net.cpp:157] Top shape: 4 9 24 24 (20736)
I0323 10:29:26.577221 17346 net.cpp:165] Memory required for data: 6014808676
I0323 10:29:26.577224 17346 layer_factory.hpp:77] Creating layer detection_loss_3_7x7
I0323 10:29:26.577232 17346 net.cpp:100] Creating Layer detection_loss_3_7x7
I0323 10:29:26.577235 17346 net.cpp:434] detection_loss_3_7x7 <- LFCN_3_7x7_LFCN_3_7x7_0_split_0
I0323 10:29:26.577240 17346 net.cpp:434] detection_loss_3_7x7 <- label_3_7x7_data_6_split_0
I0323 10:29:26.577247 17346 net.cpp:408] detection_loss_3_7x7 -> loss_3_7x7
I0323 10:29:26.577256 17346 layer_factory.hpp:77] Creating layer detection_loss_3_7x7
I0323 10:29:26.577579 17346 net.cpp:150] Setting up detection_loss_3_7x7
I0323 10:29:26.577591 17346 net.cpp:157] Top shape: 1 1 1 2 (2)
I0323 10:29:26.577594 17346 net.cpp:160]     with loss weight 1
I0323 10:29:26.577615 17346 net.cpp:165] Memory required for data: 6014808684
I0323 10:29:26.577618 17346 layer_factory.hpp:77] Creating layer detection_accuracy_3_7x7
I0323 10:29:26.577626 17346 net.cpp:100] Creating Layer detection_accuracy_3_7x7
I0323 10:29:26.577630 17346 net.cpp:434] detection_accuracy_3_7x7 <- LFCN_3_7x7_LFCN_3_7x7_0_split_1
I0323 10:29:26.577635 17346 net.cpp:434] detection_accuracy_3_7x7 <- label_3_7x7_data_6_split_1
I0323 10:29:26.577641 17346 net.cpp:408] detection_accuracy_3_7x7 -> accuracy_3_7x7
I0323 10:29:26.577647 17346 net.cpp:408] detection_accuracy_3_7x7 -> boxiou_3_7x7
I0323 10:29:26.577688 17346 net.cpp:150] Setting up detection_accuracy_3_7x7
I0323 10:29:26.577694 17346 net.cpp:157] Top shape: 1 1 1 2 (2)
I0323 10:29:26.577698 17346 net.cpp:157] Top shape: 1 1 1 1 (1)
I0323 10:29:26.577702 17346 net.cpp:165] Memory required for data: 6014808696
I0323 10:29:26.577704 17346 layer_factory.hpp:77] Creating layer pool6
I0323 10:29:26.577713 17346 net.cpp:100] Creating Layer pool6
I0323 10:29:26.577718 17346 net.cpp:434] pool6 <- conv6_1_relu6_1_0_split_2
I0323 10:29:26.577724 17346 net.cpp:408] pool6 -> pool6
I0323 10:29:26.577759 17346 net.cpp:150] Setting up pool6
I0323 10:29:26.577765 17346 net.cpp:157] Top shape: 4 512 12 12 (294912)
I0323 10:29:26.577769 17346 net.cpp:165] Memory required for data: 6015988344
I0323 10:29:26.577772 17346 layer_factory.hpp:77] Creating layer LFCN_4_5x5
I0323 10:29:26.577786 17346 net.cpp:100] Creating Layer LFCN_4_5x5
I0323 10:29:26.577791 17346 net.cpp:434] LFCN_4_5x5 <- pool6
I0323 10:29:26.577797 17346 net.cpp:408] LFCN_4_5x5 -> LFCN_4_5x5
I0323 10:29:26.582736 17346 net.cpp:150] Setting up LFCN_4_5x5
I0323 10:29:26.582762 17346 net.cpp:157] Top shape: 4 9 12 12 (5184)
I0323 10:29:26.582767 17346 net.cpp:165] Memory required for data: 6016009080
I0323 10:29:26.582778 17346 layer_factory.hpp:77] Creating layer LFCN_4_5x5_LFCN_4_5x5_0_split
I0323 10:29:26.582794 17346 net.cpp:100] Creating Layer LFCN_4_5x5_LFCN_4_5x5_0_split
I0323 10:29:26.582799 17346 net.cpp:434] LFCN_4_5x5_LFCN_4_5x5_0_split <- LFCN_4_5x5
I0323 10:29:26.582806 17346 net.cpp:408] LFCN_4_5x5_LFCN_4_5x5_0_split -> LFCN_4_5x5_LFCN_4_5x5_0_split_0
I0323 10:29:26.582815 17346 net.cpp:408] LFCN_4_5x5_LFCN_4_5x5_0_split -> LFCN_4_5x5_LFCN_4_5x5_0_split_1
I0323 10:29:26.582852 17346 net.cpp:150] Setting up LFCN_4_5x5_LFCN_4_5x5_0_split
I0323 10:29:26.582859 17346 net.cpp:157] Top shape: 4 9 12 12 (5184)
I0323 10:29:26.582864 17346 net.cpp:157] Top shape: 4 9 12 12 (5184)
I0323 10:29:26.582866 17346 net.cpp:165] Memory required for data: 6016050552
I0323 10:29:26.582870 17346 layer_factory.hpp:77] Creating layer detection_loss_4_5x5
I0323 10:29:26.582877 17346 net.cpp:100] Creating Layer detection_loss_4_5x5
I0323 10:29:26.582881 17346 net.cpp:434] detection_loss_4_5x5 <- LFCN_4_5x5_LFCN_4_5x5_0_split_0
I0323 10:29:26.582886 17346 net.cpp:434] detection_loss_4_5x5 <- label_4_5x5_data_7_split_0
I0323 10:29:26.582891 17346 net.cpp:408] detection_loss_4_5x5 -> loss_4_5x5
I0323 10:29:26.582901 17346 layer_factory.hpp:77] Creating layer detection_loss_4_5x5
I0323 10:29:26.583222 17346 net.cpp:150] Setting up detection_loss_4_5x5
I0323 10:29:26.583231 17346 net.cpp:157] Top shape: 1 1 1 2 (2)
I0323 10:29:26.583235 17346 net.cpp:160]     with loss weight 1
I0323 10:29:26.583245 17346 net.cpp:165] Memory required for data: 6016050560
I0323 10:29:26.583250 17346 layer_factory.hpp:77] Creating layer detection_accuracy_4_5x5
I0323 10:29:26.583256 17346 net.cpp:100] Creating Layer detection_accuracy_4_5x5
I0323 10:29:26.583258 17346 net.cpp:434] detection_accuracy_4_5x5 <- LFCN_4_5x5_LFCN_4_5x5_0_split_1
I0323 10:29:26.583263 17346 net.cpp:434] detection_accuracy_4_5x5 <- label_4_5x5_data_7_split_1
I0323 10:29:26.583269 17346 net.cpp:408] detection_accuracy_4_5x5 -> accuracy_4_5x5
I0323 10:29:26.583277 17346 net.cpp:408] detection_accuracy_4_5x5 -> boxiou_4_5x5
I0323 10:29:26.583314 17346 net.cpp:150] Setting up detection_accuracy_4_5x5
I0323 10:29:26.583322 17346 net.cpp:157] Top shape: 1 1 1 2 (2)
I0323 10:29:26.583324 17346 net.cpp:157] Top shape: 1 1 1 1 (1)
I0323 10:29:26.583328 17346 net.cpp:165] Memory required for data: 6016050572
I0323 10:29:26.583331 17346 net.cpp:228] detection_accuracy_4_5x5 does not need backward computation.
I0323 10:29:26.583334 17346 net.cpp:226] detection_loss_4_5x5 needs backward computation.
I0323 10:29:26.583338 17346 net.cpp:226] LFCN_4_5x5_LFCN_4_5x5_0_split needs backward computation.
I0323 10:29:26.583341 17346 net.cpp:226] LFCN_4_5x5 needs backward computation.
…
I0323 10:29:26.594691 17346 image_gt_data_layer.cpp:235] output label size 1 : 2,6,96,96
I0323 10:29:26.594741 17346 image_gt_data_layer.cpp:235] output label size 2 : 2,6,48,48
I0323 10:29:26.594792 17346 image_gt_data_layer.cpp:235] output label size 3 : 2,6,48,48
I0323 10:29:26.594840 17346 image_gt_data_layer.cpp:235] output label size 4 : 2,6,24,24
I0323 10:29:26.594887 17346 image_gt_data_layer.cpp:235] output label size 5 : 2,6,24,24
I0323 10:29:26.594935 17346 image_gt_data_layer.cpp:235] output label size 6 : 2,6,12,12
I0323 10:29:26.634205 17346 net.cpp:150] Setting up data
I0323 10:29:26.634238 17346 net.cpp:157] Top shape: 2 4 768 768 (4718592)
I0323 10:29:26.634245 17346 net.cpp:157] Top shape: 2 6 96 96 (110592)
I0323 10:29:26.634250 17346 net.cpp:157] Top shape: 2 6 96 96 (110592)
I0323 10:29:26.634255 17346 net.cpp:157] Top shape: 2 6 48 48 (27648)
I0323 10:29:26.634260 17346 net.cpp:157] Top shape: 2 6 48 48 (27648)
I0323 10:29:26.634265 17346 net.cpp:157] Top shape: 2 6 24 24 (6912)
I0323 10:29:26.634269 17346 net.cpp:157] Top shape: 2 6 24 24 (6912)
I0323 10:29:26.634274 17346 net.cpp:157] Top shape: 2 6 12 12 (1728)
I0323 10:29:26.634279 17346 net.cpp:165] Memory required for data: 20042496
I0323 10:29:26.634286 17346 layer_factory.hpp:77] Creating layer label_1_5x5_data_1_split
I0323 10:29:26.634304 17346 net.cpp:100] Creating Layer label_1_5x5_data_1_split
I0323 10:29:26.634310 17346 net.cpp:434] label_1_5x5_data_1_split <- label_1_5x5
I0323 10:29:26.634317 17346 net.cpp:408] label_1_5x5_data_1_split -> label_1_5x5_data_1_split_0
I0323 10:29:26.634330 17346 net.cpp:408] label_1_5x5_data_1_split -> label_1_5x5_data_1_split_1
I0323 10:29:26.634666 17346 net.cpp:150] Setting up label_1_5x5_data_1_split
I0323 10:29:26.634717 17346 net.cpp:157] Top shape: 2 6 96 96 (110592)
I0323 10:29:26.634732 17346 net.cpp:157] Top shape: 2 6 96 96 (110592)
I0323 10:29:26.634740 17346 net.cpp:165] Memory required for data: 20927232
I0323 10:29:26.634753 17346 layer_factory.hpp:77] Creating layer label_1_7x7_data_2_split
I0323 10:29:26.634776 17346 net.cpp:100] Creating Layer label_1_7x7_data_2_split
I0323 10:29:26.634788 17346 net.cpp:434] label_1_7x7_data_2_split <- label_1_7x7
I0323 10:29:26.634804 17346 net.cpp:408] label_1_7x7_data_2_split -> label_1_7x7_data_2_split_0
I0323 10:29:26.634822 17346 net.cpp:408] label_1_7x7_data_2_split -> label_1_7x7_data_2_split_1
I0323 10:29:26.634904 17346 net.cpp:150] Setting up label_1_7x7_data_2_split
I0323 10:29:26.634917 17346 net.cpp:157] Top shape: 2 6 96 96 (110592)
I0323 10:29:26.634928 17346 net.cpp:157] Top shape: 2 6 96 96 (110592)
I0323 10:29:26.634938 17346 net.cpp:165] Memory required for data: 21811968
I0323 10:29:26.634945 17346 layer_factory.hpp:77] Creating layer label_2_5x5_data_3_split
I0323 10:29:26.634956 17346 net.cpp:100] Creating Layer label_2_5x5_data_3_split
I0323 10:29:26.634965 17346 net.cpp:434] label_2_5x5_data_3_split <- label_2_5x5
I0323 10:29:26.634976 17346 net.cpp:408] label_2_5x5_data_3_split -> label_2_5x5_data_3_split_0
I0323 10:29:26.634990 17346 net.cpp:408] label_2_5x5_data_3_split -> label_2_5x5_data_3_split_1
I0323 10:29:26.635062 17346 net.cpp:150] Setting up label_2_5x5_data_3_split
I0323 10:29:26.635076 17346 net.cpp:157] Top shape: 2 6 48 48 (27648)
I0323 10:29:26.635087 17346 net.cpp:157] Top shape: 2 6 48 48 (27648)
I0323 10:29:26.635095 17346 net.cpp:165] Memory required for data: 22033152
I0323 10:29:26.635103 17346 layer_factory.hpp:77] Creating layer label_2_7x7_data_4_split
I0323 10:29:26.635115 17346 net.cpp:100] Creating Layer label_2_7x7_data_4_split
I0323 10:29:26.635125 17346 net.cpp:434] label_2_7x7_data_4_split <- label_2_7x7
I0323 10:29:26.635138 17346 net.cpp:408] label_2_7x7_data_4_split -> label_2_7x7_data_4_split_0
I0323 10:29:26.635151 17346 net.cpp:408] label_2_7x7_data_4_split -> label_2_7x7_data_4_split_1
I0323 10:29:26.635221 17346 net.cpp:150] Setting up label_2_7x7_data_4_split
I0323 10:29:26.635233 17346 net.cpp:157] Top shape: 2 6 48 48 (27648)
I0323 10:29:26.635244 17346 net.cpp:157] Top shape: 2 6 48 48 (27648)
I0323 10:29:26.635253 17346 net.cpp:165] Memory required for data: 22254336
I0323 10:29:26.635262 17346 layer_factory.hpp:77] Creating layer label_3_5x5_data_5_split
I0323 10:29:26.635272 17346 net.cpp:100] Creating Layer label_3_5x5_data_5_split
I0323 10:29:26.635282 17346 net.cpp:434] label_3_5x5_data_5_split <- label_3_5x5
I0323 10:29:26.635293 17346 net.cpp:408] label_3_5x5_data_5_split -> label_3_5x5_data_5_split_0
I0323 10:29:26.635308 17346 net.cpp:408] label_3_5x5_data_5_split -> label_3_5x5_data_5_split_1
I0323 10:29:26.635380 17346 net.cpp:150] Setting up label_3_5x5_data_5_split
I0323 10:29:26.635393 17346 net.cpp:157] Top shape: 2 6 24 24 (6912)
I0323 10:29:26.635404 17346 net.cpp:157] Top shape: 2 6 24 24 (6912)
I0323 10:29:26.635412 17346 net.cpp:165] Memory required for data: 22309632
I0323 10:29:26.635419 17346 layer_factory.hpp:77] Creating layer label_3_7x7_data_6_split
I0323 10:29:26.635438 17346 net.cpp:100] Creating Layer label_3_7x7_data_6_split
I0323 10:29:26.635447 17346 net.cpp:434] label_3_7x7_data_6_split <- label_3_7x7
I0323 10:29:26.635458 17346 net.cpp:408] label_3_7x7_data_6_split -> label_3_7x7_data_6_split_0
I0323 10:29:26.635473 17346 net.cpp:408] label_3_7x7_data_6_split -> label_3_7x7_data_6_split_1
I0323 10:29:26.635547 17346 net.cpp:150] Setting up label_3_7x7_data_6_split
I0323 10:29:26.635560 17346 net.cpp:157] Top shape: 2 6 24 24 (6912)
I0323 10:29:26.635571 17346 net.cpp:157] Top shape: 2 6 24 24 (6912)
I0323 10:29:26.635579 17346 net.cpp:165] Memory required for data: 22364928
I0323 10:29:26.635587 17346 layer_factory.hpp:77] Creating layer label_4_5x5_data_7_split
I0323 10:29:26.635597 17346 net.cpp:100] Creating Layer label_4_5x5_data_7_split
I0323 10:29:26.635607 17346 net.cpp:434] label_4_5x5_data_7_split <- label_4_5x5
I0323 10:29:26.635617 17346 net.cpp:408] label_4_5x5_data_7_split -> label_4_5x5_data_7_split_0
I0323 10:29:26.635632 17346 net.cpp:408] label_4_5x5_data_7_split -> label_4_5x5_data_7_split_1
I0323 10:29:26.635709 17346 net.cpp:150] Setting up label_4_5x5_data_7_split
I0323 10:29:26.635721 17346 net.cpp:157] Top shape: 2 6 12 12 (1728)
I0323 10:29:26.635732 17346 net.cpp:157] Top shape: 2 6 12 12 (1728)
I0323 10:29:26.635740 17346 net.cpp:165] Memory required for data: 22378752
I0323 10:29:26.635748 17346 layer_factory.hpp:77] Creating layer slice
I0323 10:29:26.635766 17346 net.cpp:100] Creating Layer slice
I0323 10:29:26.635776 17346 net.cpp:434] slice <- data
I0323 10:29:26.635787 17346 net.cpp:408] slice -> data123
I0323 10:29:26.635803 17346 net.cpp:408] slice -> ch4
I0323 10:29:26.635879 17346 net.cpp:150] Setting up slice
I0323 10:29:26.635892 17346 net.cpp:157] Top shape: 2 3 768 768 (3538944)
I0323 10:29:26.635902 17346 net.cpp:157] Top shape: 2 1 768 768 (1179648)
I0323 10:29:26.635911 17346 net.cpp:165] Memory required for data: 41253120
I0323 10:29:26.635918 17346 layer_factory.hpp:77] Creating layer conv1_1
I0323 10:29:26.635937 17346 net.cpp:100] Creating Layer conv1_1
I0323 10:29:26.635946 17346 net.cpp:434] conv1_1 <- data123
I0323 10:29:26.635959 17346 net.cpp:408] conv1_1 -> conv1_1
I0323 10:29:26.650688 17346 net.cpp:150] Setting up conv1_1
I0323 10:29:26.650730 17346 net.cpp:157] Top shape: 2 64 768 768 (75497472)
I0323 10:29:26.650739 17346 net.cpp:165] Memory required for data: 343243008
I0323 10:29:26.650768 17346 layer_factory.hpp:77] Creating layer relu1_1
I0323 10:29:26.650795 17346 net.cpp:100] Creating Layer relu1_1
I0323 10:29:26.650809 17346 net.cpp:434] relu1_1 <- conv1_1
I0323 10:29:26.650821 17346 net.cpp:395] relu1_1 -> conv1_1 (in-place)
I0323 10:29:26.651885 17346 net.cpp:150] Setting up relu1_1
I0323 10:29:26.651912 17346 net.cpp:157] Top shape: 2 64 768 768 (75497472)
I0323 10:29:26.651921 17346 net.cpp:165] Memory required for data: 645232896
I0323 10:29:26.651929 17346 layer_factory.hpp:77] Creating layer conv1_2
I0323 10:29:26.651948 17346 net.cpp:100] Creating Layer conv1_2
I0323 10:29:26.651957 17346 net.cpp:434] conv1_2 <- conv1_1
I0323 10:29:26.651969 17346 net.cpp:408] conv1_2 -> conv1_2
I0323 10:29:26.656778 17346 net.cpp:150] Setting up conv1_2
I0323 10:29:26.656822 17346 net.cpp:157] Top shape: 2 64 768 768 (75497472)
I0323 10:29:26.656831 17346 net.cpp:165] Memory required for data: 947222784
I0323 10:29:26.656854 17346 layer_factory.hpp:77] Creating layer relu1_2
I0323 10:29:26.656882 17346 net.cpp:100] Creating Layer relu1_2
I0323 10:29:26.656898 17346 net.cpp:434] relu1_2 <- conv1_2
I0323 10:29:26.656915 17346 net.cpp:395] relu1_2 -> conv1_2 (in-place)
I0323 10:29:26.657364 17346 net.cpp:150] Setting up relu1_2
I0323 10:29:26.657387 17346 net.cpp:157] Top shape: 2 64 768 768 (75497472)
I0323 10:29:26.657402 17346 net.cpp:165] Memory required for data: 1249212672
I0323 10:29:26.657414 17346 layer_factory.hpp:77] Creating layer pool1
I0323 10:29:26.657439 17346 net.cpp:100] Creating Layer pool1
I0323 10:29:26.657450 17346 net.cpp:434] pool1 <- conv1_2
I0323 10:29:26.657469 17346 net.cpp:408] pool1 -> pool1
I0323 10:29:26.657593 17346 net.cpp:150] Setting up pool1
I0323 10:29:26.657611 17346 net.cpp:157] Top shape: 2 64 384 384 (18874368)
I0323 10:29:26.657622 17346 net.cpp:165] Memory required for data: 1324710144
I0323 10:29:26.657635 17346 layer_factory.hpp:77] Creating layer conv2_1
I0323 10:29:26.657661 17346 net.cpp:100] Creating Layer conv2_1
I0323 10:29:26.657675 17346 net.cpp:434] conv2_1 <- pool1
I0323 10:29:26.657693 17346 net.cpp:408] conv2_1 -> conv2_1
I0323 10:29:26.661164 17346 net.cpp:150] Setting up conv2_1
I0323 10:29:26.661682 17346 net.cpp:157] Top shape: 2 128 384 384 (37748736)
I0323 10:29:26.661866 17346 net.cpp:165] Memory required for data: 1475705088
I0323 10:29:26.662092 17346 layer_factory.hpp:77] Creating layer relu2_1
I0323 10:29:26.662341 17346 net.cpp:100] Creating Layer relu2_1
I0323 10:29:26.662478 17346 net.cpp:434] relu2_1 <- conv2_1
I0323 10:29:26.662575 17346 net.cpp:395] relu2_1 -> conv2_1 (in-place)
I0323 10:29:26.663125 17346 net.cpp:150] Setting up relu2_1
I0323 10:29:26.663144 17346 net.cpp:157] Top shape: 2 128 384 384 (37748736)
I0323 10:29:26.663151 17346 net.cpp:165] Memory required for data: 1626700032
I0323 10:29:26.663157 17346 layer_factory.hpp:77] Creating layer conv2_2
I0323 10:29:26.663179 17346 net.cpp:100] Creating Layer conv2_2
I0323 10:29:26.663187 17346 net.cpp:434] conv2_2 <- conv2_1
I0323 10:29:26.663197 17346 net.cpp:408] conv2_2 -> conv2_2
I0323 10:29:26.667282 17346 net.cpp:150] Setting up conv2_2
I0323 10:29:26.667311 17346 net.cpp:157] Top shape: 2 128 384 384 (37748736)
I0323 10:29:26.667316 17346 net.cpp:165] Memory required for data: 1777694976
I0323 10:29:26.667328 17346 layer_factory.hpp:77] Creating layer relu2_2
I0323 10:29:26.667345 17346 net.cpp:100] Creating Layer relu2_2
I0323 10:29:26.667356 17346 net.cpp:434] relu2_2 <- conv2_2
I0323 10:29:26.667364 17346 net.cpp:395] relu2_2 -> conv2_2 (in-place)
I0323 10:29:26.667559 17346 net.cpp:150] Setting up relu2_2
I0323 10:29:26.667569 17346 net.cpp:157] Top shape: 2 128 384 384 (37748736)
I0323 10:29:26.667574 17346 net.cpp:165] Memory required for data: 1928689920
I0323 10:29:26.667579 17346 layer_factory.hpp:77] Creating layer pool2
I0323 10:29:26.667590 17346 net.cpp:100] Creating Layer pool2
I0323 10:29:26.667595 17346 net.cpp:434] pool2 <- conv2_2
I0323 10:29:26.667604 17346 net.cpp:408] pool2 -> pool2
I0323 10:29:26.667651 17346 net.cpp:150] Setting up pool2
I0323 10:29:26.667659 17346 net.cpp:157] Top shape: 2 128 192 192 (9437184)
I0323 10:29:26.667662 17346 net.cpp:165] Memory required for data: 1966438656
I0323 10:29:26.667668 17346 layer_factory.hpp:77] Creating layer conv3_1
I0323 10:29:26.667685 17346 net.cpp:100] Creating Layer conv3_1
I0323 10:29:26.667690 17346 net.cpp:434] conv3_1 <- pool2
I0323 10:29:26.667695 17346 net.cpp:408] conv3_1 -> conv3_1
I0323 10:29:26.670177 17346 net.cpp:150] Setting up conv3_1
I0323 10:29:26.670192 17346 net.cpp:157] Top shape: 2 256 192 192 (18874368)
I0323 10:29:26.670195 17346 net.cpp:165] Memory required for data: 2041936128
I0323 10:29:26.670212 17346 layer_factory.hpp:77] Creating layer relu3_1
I0323 10:29:26.670220 17346 net.cpp:100] Creating Layer relu3_1
I0323 10:29:26.670228 17346 net.cpp:434] relu3_1 <- conv3_1
I0323 10:29:26.670233 17346 net.cpp:395] relu3_1 -> conv3_1 (in-place)
I0323 10:29:26.670403 17346 net.cpp:150] Setting up relu3_1
I0323 10:29:26.670413 17346 net.cpp:157] Top shape: 2 256 192 192 (18874368)
I0323 10:29:26.670418 17346 net.cpp:165] Memory required for data: 2117433600
I0323 10:29:26.670423 17346 layer_factory.hpp:77] Creating layer conv3_2
I0323 10:29:26.670436 17346 net.cpp:100] Creating Layer conv3_2
I0323 10:29:26.670441 17346 net.cpp:434] conv3_2 <- conv3_1
I0323 10:29:26.670449 17346 net.cpp:408] conv3_2 -> conv3_2
I0323 10:29:26.673348 17346 net.cpp:150] Setting up conv3_2
I0323 10:29:26.673373 17346 net.cpp:157] Top shape: 2 256 192 192 (18874368)
I0323 10:29:26.673378 17346 net.cpp:165] Memory required for data: 2192931072
I0323 10:29:26.673390 17346 layer_factory.hpp:77] Creating layer relu3_2
I0323 10:29:26.673401 17346 net.cpp:100] Creating Layer relu3_2
I0323 10:29:26.673408 17346 net.cpp:434] relu3_2 <- conv3_2
I0323 10:29:26.673421 17346 net.cpp:395] relu3_2 -> conv3_2 (in-place)
I0323 10:29:26.673643 17346 net.cpp:150] Setting up relu3_2
I0323 10:29:26.673656 17346 net.cpp:157] Top shape: 2 256 192 192 (18874368)
I0323 10:29:26.673661 17346 net.cpp:165] Memory required for data: 2268428544
I0323 10:29:26.673666 17346 layer_factory.hpp:77] Creating layer conv3_3
I0323 10:29:26.673674 17346 net.cpp:100] Creating Layer conv3_3
I0323 10:29:26.673681 17346 net.cpp:434] conv3_3 <- conv3_2
I0323 10:29:26.673688 17346 net.cpp:408] conv3_3 -> conv3_3
I0323 10:29:26.682451 17346 net.cpp:150] Setting up conv3_3
I0323 10:29:26.682499 17346 net.cpp:157] Top shape: 2 256 192 192 (18874368)
I0323 10:29:26.682509 17346 net.cpp:165] Memory required for data: 2343926016
I0323 10:29:26.682528 17346 layer_factory.hpp:77] Creating layer relu3_3
I0323 10:29:26.682550 17346 net.cpp:100] Creating Layer relu3_3
I0323 10:29:26.682564 17346 net.cpp:434] relu3_3 <- conv3_3
I0323 10:29:26.682577 17346 net.cpp:395] relu3_3 -> conv3_3 (in-place)
I0323 10:29:26.683606 17346 net.cpp:150] Setting up relu3_3
I0323 10:29:26.683634 17346 net.cpp:157] Top shape: 2 256 192 192 (18874368)
I0323 10:29:26.683642 17346 net.cpp:165] Memory required for data: 2419423488
I0323 10:29:26.683652 17346 layer_factory.hpp:77] Creating layer pool3
I0323 10:29:26.683668 17346 net.cpp:100] Creating Layer pool3
I0323 10:29:26.683678 17346 net.cpp:434] pool3 <- conv3_3
I0323 10:29:26.683693 17346 net.cpp:408] pool3 -> pool3
I0323 10:29:26.683791 17346 net.cpp:150] Setting up pool3
I0323 10:29:26.683804 17346 net.cpp:157] Top shape: 2 256 96 96 (4718592)
I0323 10:29:26.683812 17346 net.cpp:165] Memory required for data: 2438297856
I0323 10:29:26.683822 17346 layer_factory.hpp:77] Creating layer conv4_1
I0323 10:29:26.683842 17346 net.cpp:100] Creating Layer conv4_1
I0323 10:29:26.683852 17346 net.cpp:434] conv4_1 <- pool3
I0323 10:29:26.683864 17346 net.cpp:408] conv4_1 -> conv4_1
I0323 10:29:26.691202 17346 net.cpp:150] Setting up conv4_1
I0323 10:29:26.691252 17346 net.cpp:157] Top shape: 2 512 96 96 (9437184)
I0323 10:29:26.691262 17346 net.cpp:165] Memory required for data: 2476046592
I0323 10:29:26.691285 17346 layer_factory.hpp:77] Creating layer relu4_1
I0323 10:29:26.691308 17346 net.cpp:100] Creating Layer relu4_1
I0323 10:29:26.691321 17346 net.cpp:434] relu4_1 <- conv4_1
I0323 10:29:26.691334 17346 net.cpp:395] relu4_1 -> conv4_1 (in-place)
I0323 10:29:26.691751 17346 net.cpp:150] Setting up relu4_1
I0323 10:29:26.691771 17346 net.cpp:157] Top shape: 2 512 96 96 (9437184)
I0323 10:29:26.691781 17346 net.cpp:165] Memory required for data: 2513795328
I0323 10:29:26.691789 17346 layer_factory.hpp:77] Creating layer conv4_2
I0323 10:29:26.691810 17346 net.cpp:100] Creating Layer conv4_2
I0323 10:29:26.691821 17346 net.cpp:434] conv4_2 <- conv4_1
I0323 10:29:26.691838 17346 net.cpp:408] conv4_2 -> conv4_2
I0323 10:29:26.700090 17346 net.cpp:150] Setting up conv4_2
I0323 10:29:26.700121 17346 net.cpp:157] Top shape: 2 512 96 96 (9437184)
I0323 10:29:26.700124 17346 net.cpp:165] Memory required for data: 2551544064
I0323 10:29:26.700136 17346 layer_factory.hpp:77] Creating layer relu4_2
I0323 10:29:26.700147 17346 net.cpp:100] Creating Layer relu4_2
I0323 10:29:26.700152 17346 net.cpp:434] relu4_2 <- conv4_2
I0323 10:29:26.700158 17346 net.cpp:395] relu4_2 -> conv4_2 (in-place)
I0323 10:29:26.700326 17346 net.cpp:150] Setting up relu4_2
I0323 10:29:26.700335 17346 net.cpp:157] Top shape: 2 512 96 96 (9437184)
I0323 10:29:26.700340 17346 net.cpp:165] Memory required for data: 2589292800
I0323 10:29:26.700343 17346 layer_factory.hpp:77] Creating layer conv4_3
I0323 10:29:26.700353 17346 net.cpp:100] Creating Layer conv4_3
I0323 10:29:26.700357 17346 net.cpp:434] conv4_3 <- conv4_2
I0323 10:29:26.700363 17346 net.cpp:408] conv4_3 -> conv4_3
I0323 10:29:26.706408 17346 net.cpp:150] Setting up conv4_3
I0323 10:29:26.706435 17346 net.cpp:157] Top shape: 2 512 96 96 (9437184)
I0323 10:29:26.706440 17346 net.cpp:165] Memory required for data: 2627041536
I0323 10:29:26.706449 17346 layer_factory.hpp:77] Creating layer relu4_3
I0323 10:29:26.706462 17346 net.cpp:100] Creating Layer relu4_3
I0323 10:29:26.706468 17346 net.cpp:434] relu4_3 <- conv4_3
I0323 10:29:26.706475 17346 net.cpp:395] relu4_3 -> conv4_3 (in-place)
I0323 10:29:26.706634 17346 net.cpp:150] Setting up relu4_3
I0323 10:29:26.706643 17346 net.cpp:157] Top shape: 2 512 96 96 (9437184)
I0323 10:29:26.706646 17346 net.cpp:165] Memory required for data: 2664790272
I0323 10:29:26.706650 17346 layer_factory.hpp:77] Creating layer conv4_3_relu4_3_0_split
I0323 10:29:26.706661 17346 net.cpp:100] Creating Layer conv4_3_relu4_3_0_split
I0323 10:29:26.706666 17346 net.cpp:434] conv4_3_relu4_3_0_split <- conv4_3
I0323 10:29:26.706672 17346 net.cpp:408] conv4_3_relu4_3_0_split -> conv4_3_relu4_3_0_split_0
I0323 10:29:26.706681 17346 net.cpp:408] conv4_3_relu4_3_0_split -> conv4_3_relu4_3_0_split_1
I0323 10:29:26.706719 17346 net.cpp:150] Setting up conv4_3_relu4_3_0_split
I0323 10:29:26.706727 17346 net.cpp:157] Top shape: 2 512 96 96 (9437184)
I0323 10:29:26.706730 17346 net.cpp:157] Top shape: 2 512 96 96 (9437184)
I0323 10:29:26.706734 17346 net.cpp:165] Memory required for data: 2740287744
I0323 10:29:26.706737 17346 layer_factory.hpp:77] Creating layer loss1_conv1
I0323 10:29:26.706749 17346 net.cpp:100] Creating Layer loss1_conv1
I0323 10:29:26.706753 17346 net.cpp:434] loss1_conv1 <- conv4_3_relu4_3_0_split_0
I0323 10:29:26.706759 17346 net.cpp:408] loss1_conv1 -> loss1_conv1
I0323 10:29:26.771908 17346 net.cpp:150] Setting up loss1_conv1
I0323 10:29:26.771934 17346 net.cpp:157] Top shape: 2 512 96 96 (9437184)
I0323 10:29:26.771939 17346 net.cpp:165] Memory required for data: 2778036480
I0323 10:29:26.771946 17346 layer_factory.hpp:77] Creating layer loss_relu1
I0323 10:29:26.771957 17346 net.cpp:100] Creating Layer loss_relu1
I0323 10:29:26.771963 17346 net.cpp:434] loss_relu1 <- loss1_conv1
I0323 10:29:26.771970 17346 net.cpp:395] loss_relu1 -> loss1_conv1 (in-place)
I0323 10:29:26.772130 17346 net.cpp:150] Setting up loss_relu1
I0323 10:29:26.772140 17346 net.cpp:157] Top shape: 2 512 96 96 (9437184)
I0323 10:29:26.772142 17346 net.cpp:165] Memory required for data: 2815785216
I0323 10:29:26.772145 17346 layer_factory.hpp:77] Creating layer loss1_conv1_loss_relu1_0_split
I0323 10:29:26.772153 17346 net.cpp:100] Creating Layer loss1_conv1_loss_relu1_0_split
I0323 10:29:26.772157 17346 net.cpp:434] loss1_conv1_loss_relu1_0_split <- loss1_conv1
I0323 10:29:26.772161 17346 net.cpp:408] loss1_conv1_loss_relu1_0_split -> loss1_conv1_loss_relu1_0_split_0
I0323 10:29:26.772168 17346 net.cpp:408] loss1_conv1_loss_relu1_0_split -> loss1_conv1_loss_relu1_0_split_1
I0323 10:29:26.772207 17346 net.cpp:150] Setting up loss1_conv1_loss_relu1_0_split
I0323 10:29:26.772213 17346 net.cpp:157] Top shape: 2 512 96 96 (9437184)
I0323 10:29:26.772218 17346 net.cpp:157] Top shape: 2 512 96 96 (9437184)
I0323 10:29:26.772222 17346 net.cpp:165] Memory required for data: 2891282688
I0323 10:29:26.772224 17346 layer_factory.hpp:77] Creating layer LFCN_1_5x5
I0323 10:29:26.772234 17346 net.cpp:100] Creating Layer LFCN_1_5x5
I0323 10:29:26.772238 17346 net.cpp:434] LFCN_1_5x5 <- loss1_conv1_loss_relu1_0_split_0
I0323 10:29:26.772245 17346 net.cpp:408] LFCN_1_5x5 -> LFCN_1_5x5
I0323 10:29:26.778275 17346 net.cpp:150] Setting up LFCN_1_5x5
I0323 10:29:26.778329 17346 net.cpp:157] Top shape: 2 9 96 96 (165888)
I0323 10:29:26.778340 17346 net.cpp:165] Memory required for data: 2891946240
I0323 10:29:26.778359 17346 layer_factory.hpp:77] Creating layer LFCN_1_5x5_LFCN_1_5x5_0_split
I0323 10:29:26.778383 17346 net.cpp:100] Creating Layer LFCN_1_5x5_LFCN_1_5x5_0_split
I0323 10:29:26.778393 17346 net.cpp:434] LFCN_1_5x5_LFCN_1_5x5_0_split <- LFCN_1_5x5
I0323 10:29:26.778409 17346 net.cpp:408] LFCN_1_5x5_LFCN_1_5x5_0_split -> LFCN_1_5x5_LFCN_1_5x5_0_split_0
I0323 10:29:26.778427 17346 net.cpp:408] LFCN_1_5x5_LFCN_1_5x5_0_split -> LFCN_1_5x5_LFCN_1_5x5_0_split_1
I0323 10:29:26.778535 17346 net.cpp:150] Setting up LFCN_1_5x5_LFCN_1_5x5_0_split
I0323 10:29:26.778550 17346 net.cpp:157] Top shape: 2 9 96 96 (165888)
I0323 10:29:26.778573 17346 net.cpp:157] Top shape: 2 9 96 96 (165888)
I0323 10:29:26.778579 17346 net.cpp:165] Memory required for data: 2893273344
I0323 10:29:26.778587 17346 layer_factory.hpp:77] Creating layer detection_loss_1_5x5
I0323 10:29:26.778602 17346 net.cpp:100] Creating Layer detection_loss_1_5x5
I0323 10:29:26.778614 17346 net.cpp:434] detection_loss_1_5x5 <- LFCN_1_5x5_LFCN_1_5x5_0_split_0
I0323 10:29:26.778625 17346 net.cpp:434] detection_loss_1_5x5 <- label_1_5x5_data_1_split_0
I0323 10:29:26.778640 17346 net.cpp:408] detection_loss_1_5x5 -> loss_1_5x5
I0323 10:29:26.778662 17346 layer_factory.hpp:77] Creating layer detection_loss_1_5x5
I0323 10:29:26.779553 17346 net.cpp:150] Setting up detection_loss_1_5x5
I0323 10:29:26.779575 17346 net.cpp:157] Top shape: 1 1 1 2 (2)
I0323 10:29:26.779583 17346 net.cpp:160]     with loss weight 0.9
I0323 10:29:26.779601 17346 net.cpp:165] Memory required for data: 2893273352
I0323 10:29:26.779609 17346 layer_factory.hpp:77] Creating layer detection_accuracy_1_5x5
I0323 10:29:26.779623 17346 net.cpp:100] Creating Layer detection_accuracy_1_5x5
I0323 10:29:26.779631 17346 net.cpp:434] detection_accuracy_1_5x5 <- LFCN_1_5x5_LFCN_1_5x5_0_split_1
I0323 10:29:26.779644 17346 net.cpp:434] detection_accuracy_1_5x5 <- label_1_5x5_data_1_split_1
I0323 10:29:26.779659 17346 net.cpp:408] detection_accuracy_1_5x5 -> accuracy_1_5x5
I0323 10:29:26.779677 17346 net.cpp:408] detection_accuracy_1_5x5 -> boxiou_1_5x5
I0323 10:29:26.779769 17346 net.cpp:150] Setting up detection_accuracy_1_5x5
I0323 10:29:26.779784 17346 net.cpp:157] Top shape: 1 1 1 2 (2)
I0323 10:29:26.779793 17346 net.cpp:157] Top shape: 1 1 1 1 (1)
I0323 10:29:26.779803 17346 net.cpp:165] Memory required for data: 2893273364
I0323 10:29:26.779810 17346 layer_factory.hpp:77] Creating layer LFCN_1_7x7
I0323 10:29:26.779834 17346 net.cpp:100] Creating Layer LFCN_1_7x7
I0323 10:29:26.779844 17346 net.cpp:434] LFCN_1_7x7 <- loss1_conv1_loss_relu1_0_split_1
I0323 10:29:26.779858 17346 net.cpp:408] LFCN_1_7x7 -> LFCN_1_7x7
I0323 10:29:26.793576 17346 net.cpp:150] Setting up LFCN_1_7x7
I0323 10:29:26.793612 17346 net.cpp:157] Top shape: 2 9 96 96 (165888)
I0323 10:29:26.793615 17346 net.cpp:165] Memory required for data: 2893936916
I0323 10:29:26.793627 17346 layer_factory.hpp:77] Creating layer LFCN_1_7x7_LFCN_1_7x7_0_split
I0323 10:29:26.793640 17346 net.cpp:100] Creating Layer LFCN_1_7x7_LFCN_1_7x7_0_split
I0323 10:29:26.793648 17346 net.cpp:434] LFCN_1_7x7_LFCN_1_7x7_0_split <- LFCN_1_7x7
I0323 10:29:26.793658 17346 net.cpp:408] LFCN_1_7x7_LFCN_1_7x7_0_split -> LFCN_1_7x7_LFCN_1_7x7_0_split_0
I0323 10:29:26.793668 17346 net.cpp:408] LFCN_1_7x7_LFCN_1_7x7_0_split -> LFCN_1_7x7_LFCN_1_7x7_0_split_1
I0323 10:29:26.797459 17346 net.cpp:150] Setting up LFCN_1_7x7_LFCN_1_7x7_0_split
I0323 10:29:26.797479 17346 net.cpp:157] Top shape: 2 9 96 96 (165888)
I0323 10:29:26.797485 17346 net.cpp:157] Top shape: 2 9 96 96 (165888)
I0323 10:29:26.797489 17346 net.cpp:165] Memory required for data: 2895264020
I0323 10:29:26.797494 17346 layer_factory.hpp:77] Creating layer detection_loss_1_7x7
I0323 10:29:26.797508 17346 net.cpp:100] Creating Layer detection_loss_1_7x7
I0323 10:29:26.797513 17346 net.cpp:434] detection_loss_1_7x7 <- LFCN_1_7x7_LFCN_1_7x7_0_split_0
I0323 10:29:26.797519 17346 net.cpp:434] detection_loss_1_7x7 <- label_1_7x7_data_2_split_0
I0323 10:29:26.797529 17346 net.cpp:408] detection_loss_1_7x7 -> loss_1_7x7
I0323 10:29:26.797544 17346 layer_factory.hpp:77] Creating layer detection_loss_1_7x7
I0323 10:29:26.801580 17346 net.cpp:150] Setting up detection_loss_1_7x7
I0323 10:29:26.801622 17346 net.cpp:157] Top shape: 1 1 1 2 (2)
I0323 10:29:26.801632 17346 net.cpp:160]     with loss weight 0.9
I0323 10:29:26.801656 17346 net.cpp:165] Memory required for data: 2895264028
I0323 10:29:26.801669 17346 layer_factory.hpp:77] Creating layer detection_accuracy_1_7x7
I0323 10:29:26.801697 17346 net.cpp:100] Creating Layer detection_accuracy_1_7x7
I0323 10:29:26.801717 17346 net.cpp:434] detection_accuracy_1_7x7 <- LFCN_1_7x7_LFCN_1_7x7_0_split_1
I0323 10:29:26.801733 17346 net.cpp:434] detection_accuracy_1_7x7 <- label_1_7x7_data_2_split_1
I0323 10:29:26.801750 17346 net.cpp:408] detection_accuracy_1_7x7 -> accuracy_1_7x7
I0323 10:29:26.801774 17346 net.cpp:408] detection_accuracy_1_7x7 -> boxiou_1_7x7
I0323 10:29:26.801879 17346 net.cpp:150] Setting up detection_accuracy_1_7x7
I0323 10:29:26.801895 17346 net.cpp:157] Top shape: 1 1 1 2 (2)
I0323 10:29:26.801904 17346 net.cpp:157] Top shape: 1 1 1 1 (1)
I0323 10:29:26.801913 17346 net.cpp:165] Memory required for data: 2895264040
I0323 10:29:26.801923 17346 layer_factory.hpp:77] Creating layer pool4
I0323 10:29:26.801942 17346 net.cpp:100] Creating Layer pool4
I0323 10:29:26.801995 17346 net.cpp:434] pool4 <- conv4_3_relu4_3_0_split_1
I0323 10:29:26.802011 17346 net.cpp:408] pool4 -> pool4
I0323 10:29:26.802109 17346 net.cpp:150] Setting up pool4
I0323 10:29:26.802125 17346 net.cpp:157] Top shape: 2 512 48 48 (2359296)
I0323 10:29:26.802132 17346 net.cpp:165] Memory required for data: 2904701224
I0323 10:29:26.802141 17346 layer_factory.hpp:77] Creating layer conv5_1
I0323 10:29:26.802163 17346 net.cpp:100] Creating Layer conv5_1
I0323 10:29:26.802173 17346 net.cpp:434] conv5_1 <- pool4
I0323 10:29:26.802193 17346 net.cpp:408] conv5_1 -> conv5_1
I0323 10:29:26.812770 17346 net.cpp:150] Setting up conv5_1
I0323 10:29:26.812839 17346 net.cpp:157] Top shape: 2 512 48 48 (2359296)
I0323 10:29:26.812849 17346 net.cpp:165] Memory required for data: 2914138408
I0323 10:29:26.812870 17346 layer_factory.hpp:77] Creating layer relu5_1
I0323 10:29:26.812892 17346 net.cpp:100] Creating Layer relu5_1
I0323 10:29:26.812906 17346 net.cpp:434] relu5_1 <- conv5_1
I0323 10:29:26.812923 17346 net.cpp:395] relu5_1 -> conv5_1 (in-place)
I0323 10:29:26.813381 17346 net.cpp:150] Setting up relu5_1
I0323 10:29:26.813402 17346 net.cpp:157] Top shape: 2 512 48 48 (2359296)
I0323 10:29:26.813410 17346 net.cpp:165] Memory required for data: 2923575592
I0323 10:29:26.813418 17346 layer_factory.hpp:77] Creating layer conv5_2
I0323 10:29:26.813452 17346 net.cpp:100] Creating Layer conv5_2
I0323 10:29:26.813462 17346 net.cpp:434] conv5_2 <- conv5_1
I0323 10:29:26.813477 17346 net.cpp:408] conv5_2 -> conv5_2
I0323 10:29:26.826249 17346 net.cpp:150] Setting up conv5_2
I0323 10:29:26.826277 17346 net.cpp:157] Top shape: 2 512 48 48 (2359296)
I0323 10:29:26.826282 17346 net.cpp:165] Memory required for data: 2933012776
I0323 10:29:26.826292 17346 layer_factory.hpp:77] Creating layer relu5_2
I0323 10:29:26.826305 17346 net.cpp:100] Creating Layer relu5_2
I0323 10:29:26.826313 17346 net.cpp:434] relu5_2 <- conv5_2
I0323 10:29:26.826321 17346 net.cpp:395] relu5_2 -> conv5_2 (in-place)
I0323 10:29:26.826526 17346 net.cpp:150] Setting up relu5_2
I0323 10:29:26.826537 17346 net.cpp:157] Top shape: 2 512 48 48 (2359296)
I0323 10:29:26.826541 17346 net.cpp:165] Memory required for data: 2942449960
I0323 10:29:26.826545 17346 layer_factory.hpp:77] Creating layer conv5_3
I0323 10:29:26.826556 17346 net.cpp:100] Creating Layer conv5_3
I0323 10:29:26.826561 17346 net.cpp:434] conv5_3 <- conv5_2
I0323 10:29:26.826567 17346 net.cpp:408] conv5_3 -> conv5_3
I0323 10:29:26.833380 17346 net.cpp:150] Setting up conv5_3
I0323 10:29:26.833413 17346 net.cpp:157] Top shape: 2 512 48 48 (2359296)
I0323 10:29:26.833418 17346 net.cpp:165] Memory required for data: 2951887144
I0323 10:29:26.833429 17346 layer_factory.hpp:77] Creating layer relu5_3
I0323 10:29:26.833442 17346 net.cpp:100] Creating Layer relu5_3
I0323 10:29:26.833449 17346 net.cpp:434] relu5_3 <- conv5_3
I0323 10:29:26.833456 17346 net.cpp:395] relu5_3 -> conv5_3 (in-place)
I0323 10:29:26.833662 17346 net.cpp:150] Setting up relu5_3
I0323 10:29:26.833673 17346 net.cpp:157] Top shape: 2 512 48 48 (2359296)
I0323 10:29:26.833678 17346 net.cpp:165] Memory required for data: 2961324328
I0323 10:29:26.833681 17346 layer_factory.hpp:77] Creating layer conv5_3_relu5_3_0_split
I0323 10:29:26.833688 17346 net.cpp:100] Creating Layer conv5_3_relu5_3_0_split
I0323 10:29:26.833693 17346 net.cpp:434] conv5_3_relu5_3_0_split <- conv5_3
I0323 10:29:26.833700 17346 net.cpp:408] conv5_3_relu5_3_0_split -> conv5_3_relu5_3_0_split_0
I0323 10:29:26.833709 17346 net.cpp:408] conv5_3_relu5_3_0_split -> conv5_3_relu5_3_0_split_1
I0323 10:29:26.833714 17346 net.cpp:408] conv5_3_relu5_3_0_split -> conv5_3_relu5_3_0_split_2
I0323 10:29:26.833806 17346 net.cpp:150] Setting up conv5_3_relu5_3_0_split
I0323 10:29:26.833817 17346 net.cpp:157] Top shape: 2 512 48 48 (2359296)
I0323 10:29:26.833822 17346 net.cpp:157] Top shape: 2 512 48 48 (2359296)
I0323 10:29:26.833827 17346 net.cpp:157] Top shape: 2 512 48 48 (2359296)
I0323 10:29:26.833830 17346 net.cpp:165] Memory required for data: 2989635880
I0323 10:29:26.833834 17346 layer_factory.hpp:77] Creating layer LFCN_2_5x5
I0323 10:29:26.833849 17346 net.cpp:100] Creating Layer LFCN_2_5x5
I0323 10:29:26.833854 17346 net.cpp:434] LFCN_2_5x5 <- conv5_3_relu5_3_0_split_0
I0323 10:29:26.833865 17346 net.cpp:408] LFCN_2_5x5 -> LFCN_2_5x5
I0323 10:29:26.838570 17346 net.cpp:150] Setting up LFCN_2_5x5
I0323 10:29:26.838595 17346 net.cpp:157] Top shape: 2 9 48 48 (41472)
I0323 10:29:26.838599 17346 net.cpp:165] Memory required for data: 2989801768
I0323 10:29:26.838615 17346 layer_factory.hpp:77] Creating layer LFCN_2_5x5_LFCN_2_5x5_0_split
I0323 10:29:26.838624 17346 net.cpp:100] Creating Layer LFCN_2_5x5_LFCN_2_5x5_0_split
I0323 10:29:26.838629 17346 net.cpp:434] LFCN_2_5x5_LFCN_2_5x5_0_split <- LFCN_2_5x5
I0323 10:29:26.838635 17346 net.cpp:408] LFCN_2_5x5_LFCN_2_5x5_0_split -> LFCN_2_5x5_LFCN_2_5x5_0_split_0
I0323 10:29:26.838644 17346 net.cpp:408] LFCN_2_5x5_LFCN_2_5x5_0_split -> LFCN_2_5x5_LFCN_2_5x5_0_split_1
I0323 10:29:26.838685 17346 net.cpp:150] Setting up LFCN_2_5x5_LFCN_2_5x5_0_split
I0323 10:29:26.838690 17346 net.cpp:157] Top shape: 2 9 48 48 (41472)
I0323 10:29:26.838695 17346 net.cpp:157] Top shape: 2 9 48 48 (41472)
I0323 10:29:26.838697 17346 net.cpp:165] Memory required for data: 2990133544
I0323 10:29:26.838701 17346 layer_factory.hpp:77] Creating layer detection_loss_2_5x5
I0323 10:29:26.838709 17346 net.cpp:100] Creating Layer detection_loss_2_5x5
I0323 10:29:26.838712 17346 net.cpp:434] detection_loss_2_5x5 <- LFCN_2_5x5_LFCN_2_5x5_0_split_0
I0323 10:29:26.838718 17346 net.cpp:434] detection_loss_2_5x5 <- label_2_5x5_data_3_split_0
I0323 10:29:26.838726 17346 net.cpp:408] detection_loss_2_5x5 -> loss_2_5x5
I0323 10:29:26.838739 17346 layer_factory.hpp:77] Creating layer detection_loss_2_5x5
I0323 10:29:26.839341 17346 net.cpp:150] Setting up detection_loss_2_5x5
I0323 10:29:26.839373 17346 net.cpp:157] Top shape: 1 1 1 2 (2)
I0323 10:29:26.839377 17346 net.cpp:160]     with loss weight 1
I0323 10:29:26.839398 17346 net.cpp:165] Memory required for data: 2990133552
I0323 10:29:26.839404 17346 layer_factory.hpp:77] Creating layer detection_accuracy_2_5x5
I0323 10:29:26.839417 17346 net.cpp:100] Creating Layer detection_accuracy_2_5x5
I0323 10:29:26.839424 17346 net.cpp:434] detection_accuracy_2_5x5 <- LFCN_2_5x5_LFCN_2_5x5_0_split_1
I0323 10:29:26.839432 17346 net.cpp:434] detection_accuracy_2_5x5 <- label_2_5x5_data_3_split_1
I0323 10:29:26.839442 17346 net.cpp:408] detection_accuracy_2_5x5 -> accuracy_2_5x5
I0323 10:29:26.839452 17346 net.cpp:408] detection_accuracy_2_5x5 -> boxiou_2_5x5
I0323 10:29:26.839509 17346 net.cpp:150] Setting up detection_accuracy_2_5x5
I0323 10:29:26.839519 17346 net.cpp:157] Top shape: 1 1 1 2 (2)
I0323 10:29:26.839525 17346 net.cpp:157] Top shape: 1 1 1 1 (1)
I0323 10:29:26.839529 17346 net.cpp:165] Memory required for data: 2990133564
I0323 10:29:26.839534 17346 layer_factory.hpp:77] Creating layer LFCN_2_7x7
I0323 10:29:26.839550 17346 net.cpp:100] Creating Layer LFCN_2_7x7
I0323 10:29:26.839555 17346 net.cpp:434] LFCN_2_7x7 <- conv5_3_relu5_3_0_split_1
I0323 10:29:26.839562 17346 net.cpp:408] LFCN_2_7x7 -> LFCN_2_7x7
I0323 10:29:26.853796 17346 net.cpp:150] Setting up LFCN_2_7x7
I0323 10:29:26.853828 17346 net.cpp:157] Top shape: 2 9 48 48 (41472)
I0323 10:29:26.853834 17346 net.cpp:165] Memory required for data: 2990299452
I0323 10:29:26.853847 17346 layer_factory.hpp:77] Creating layer LFCN_2_7x7_LFCN_2_7x7_0_split
I0323 10:29:26.853860 17346 net.cpp:100] Creating Layer LFCN_2_7x7_LFCN_2_7x7_0_split
I0323 10:29:26.853869 17346 net.cpp:434] LFCN_2_7x7_LFCN_2_7x7_0_split <- LFCN_2_7x7
I0323 10:29:26.853879 17346 net.cpp:408] LFCN_2_7x7_LFCN_2_7x7_0_split -> LFCN_2_7x7_LFCN_2_7x7_0_split_0
I0323 10:29:26.853891 17346 net.cpp:408] LFCN_2_7x7_LFCN_2_7x7_0_split -> LFCN_2_7x7_LFCN_2_7x7_0_split_1
I0323 10:29:26.853960 17346 net.cpp:150] Setting up LFCN_2_7x7_LFCN_2_7x7_0_split
I0323 10:29:26.853971 17346 net.cpp:157] Top shape: 2 9 48 48 (41472)
I0323 10:29:26.853977 17346 net.cpp:157] Top shape: 2 9 48 48 (41472)
I0323 10:29:26.853981 17346 net.cpp:165] Memory required for data: 2990631228
I0323 10:29:26.853986 17346 layer_factory.hpp:77] Creating layer detection_loss_2_7x7
I0323 10:29:26.853996 17346 net.cpp:100] Creating Layer detection_loss_2_7x7
I0323 10:29:26.854007 17346 net.cpp:434] detection_loss_2_7x7 <- LFCN_2_7x7_LFCN_2_7x7_0_split_0
I0323 10:29:26.854015 17346 net.cpp:434] detection_loss_2_7x7 <- label_2_7x7_data_4_split_0
I0323 10:29:26.854027 17346 net.cpp:408] detection_loss_2_7x7 -> loss_2_7x7
I0323 10:29:26.854040 17346 layer_factory.hpp:77] Creating layer detection_loss_2_7x7
I0323 10:29:26.854435 17346 net.cpp:150] Setting up detection_loss_2_7x7
I0323 10:29:26.854447 17346 net.cpp:157] Top shape: 1 1 1 2 (2)
I0323 10:29:26.854452 17346 net.cpp:160]     with loss weight 1
I0323 10:29:26.854462 17346 net.cpp:165] Memory required for data: 2990631236
I0323 10:29:26.854467 17346 layer_factory.hpp:77] Creating layer detection_accuracy_2_7x7
I0323 10:29:26.854478 17346 net.cpp:100] Creating Layer detection_accuracy_2_7x7
I0323 10:29:26.854490 17346 net.cpp:434] detection_accuracy_2_7x7 <- LFCN_2_7x7_LFCN_2_7x7_0_split_1
I0323 10:29:26.854497 17346 net.cpp:434] detection_accuracy_2_7x7 <- label_2_7x7_data_4_split_1
I0323 10:29:26.854507 17346 net.cpp:408] detection_accuracy_2_7x7 -> accuracy_2_7x7
I0323 10:29:26.854521 17346 net.cpp:408] detection_accuracy_2_7x7 -> boxiou_2_7x7
I0323 10:29:26.854573 17346 net.cpp:150] Setting up detection_accuracy_2_7x7
I0323 10:29:26.854581 17346 net.cpp:157] Top shape: 1 1 1 2 (2)
I0323 10:29:26.854588 17346 net.cpp:157] Top shape: 1 1 1 1 (1)
I0323 10:29:26.854593 17346 net.cpp:165] Memory required for data: 2990631248
I0323 10:29:26.854596 17346 layer_factory.hpp:77] Creating layer pool5
I0323 10:29:26.854606 17346 net.cpp:100] Creating Layer pool5
I0323 10:29:26.854614 17346 net.cpp:434] pool5 <- conv5_3_relu5_3_0_split_2
I0323 10:29:26.854624 17346 net.cpp:408] pool5 -> pool5
I0323 10:29:26.854670 17346 net.cpp:150] Setting up pool5
I0323 10:29:26.854678 17346 net.cpp:157] Top shape: 2 512 24 24 (589824)
I0323 10:29:26.854682 17346 net.cpp:165] Memory required for data: 2992990544
I0323 10:29:26.854687 17346 layer_factory.hpp:77] Creating layer ch4_pool5
I0323 10:29:26.854696 17346 net.cpp:100] Creating Layer ch4_pool5
I0323 10:29:26.854703 17346 net.cpp:434] ch4_pool5 <- ch4
I0323 10:29:26.854713 17346 net.cpp:408] ch4_pool5 -> ch4_pool5
I0323 10:29:26.854759 17346 net.cpp:150] Setting up ch4_pool5
I0323 10:29:26.854768 17346 net.cpp:157] Top shape: 2 1 24 24 (1152)
I0323 10:29:26.854773 17346 net.cpp:165] Memory required for data: 2992995152
I0323 10:29:26.854779 17346 layer_factory.hpp:77] Creating layer pool5_concat
I0323 10:29:26.854789 17346 net.cpp:100] Creating Layer pool5_concat
I0323 10:29:26.854796 17346 net.cpp:434] pool5_concat <- pool5
I0323 10:29:26.854804 17346 net.cpp:434] pool5_concat <- ch4_pool5
I0323 10:29:26.854811 17346 net.cpp:408] pool5_concat -> pool5_new
I0323 10:29:26.854843 17346 net.cpp:150] Setting up pool5_concat
I0323 10:29:26.854852 17346 net.cpp:157] Top shape: 2 513 24 24 (590976)
I0323 10:29:26.854857 17346 net.cpp:165] Memory required for data: 2995359056
I0323 10:29:26.854862 17346 layer_factory.hpp:77] Creating layer conv6_1_new
I0323 10:29:26.854876 17346 net.cpp:100] Creating Layer conv6_1_new
I0323 10:29:26.854883 17346 net.cpp:434] conv6_1_new <- pool5_new
I0323 10:29:26.854893 17346 net.cpp:408] conv6_1_new -> conv6_1
I0323 10:29:26.920481 17346 net.cpp:150] Setting up conv6_1_new
I0323 10:29:26.920513 17346 net.cpp:157] Top shape: 2 512 24 24 (589824)
I0323 10:29:26.920519 17346 net.cpp:165] Memory required for data: 2997718352
I0323 10:29:26.920531 17346 layer_factory.hpp:77] Creating layer relu6_1
I0323 10:29:26.920557 17346 net.cpp:100] Creating Layer relu6_1
I0323 10:29:26.920567 17346 net.cpp:434] relu6_1 <- conv6_1
I0323 10:29:26.920578 17346 net.cpp:395] relu6_1 -> conv6_1 (in-place)
I0323 10:29:26.921129 17346 net.cpp:150] Setting up relu6_1
I0323 10:29:26.921144 17346 net.cpp:157] Top shape: 2 512 24 24 (589824)
I0323 10:29:26.921149 17346 net.cpp:165] Memory required for data: 3000077648
I0323 10:29:26.921155 17346 layer_factory.hpp:77] Creating layer conv6_1_relu6_1_0_split
I0323 10:29:26.921164 17346 net.cpp:100] Creating Layer conv6_1_relu6_1_0_split
I0323 10:29:26.921169 17346 net.cpp:434] conv6_1_relu6_1_0_split <- conv6_1
I0323 10:29:26.921175 17346 net.cpp:408] conv6_1_relu6_1_0_split -> conv6_1_relu6_1_0_split_0
I0323 10:29:26.921185 17346 net.cpp:408] conv6_1_relu6_1_0_split -> conv6_1_relu6_1_0_split_1
I0323 10:29:26.921195 17346 net.cpp:408] conv6_1_relu6_1_0_split -> conv6_1_relu6_1_0_split_2
I0323 10:29:26.921259 17346 net.cpp:150] Setting up conv6_1_relu6_1_0_split
I0323 10:29:26.921268 17346 net.cpp:157] Top shape: 2 512 24 24 (589824)
I0323 10:29:26.921274 17346 net.cpp:157] Top shape: 2 512 24 24 (589824)
I0323 10:29:26.921280 17346 net.cpp:157] Top shape: 2 512 24 24 (589824)
I0323 10:29:26.921284 17346 net.cpp:165] Memory required for data: 3007155536
I0323 10:29:26.921289 17346 layer_factory.hpp:77] Creating layer LFCN_3_5x5
I0323 10:29:26.921304 17346 net.cpp:100] Creating Layer LFCN_3_5x5
I0323 10:29:26.921310 17346 net.cpp:434] LFCN_3_5x5 <- conv6_1_relu6_1_0_split_0
I0323 10:29:26.921320 17346 net.cpp:408] LFCN_3_5x5 -> LFCN_3_5x5
I0323 10:29:26.925412 17346 net.cpp:150] Setting up LFCN_3_5x5
I0323 10:29:26.925429 17346 net.cpp:157] Top shape: 2 9 24 24 (10368)
I0323 10:29:26.925433 17346 net.cpp:165] Memory required for data: 3007197008
I0323 10:29:26.925443 17346 layer_factory.hpp:77] Creating layer LFCN_3_5x5_LFCN_3_5x5_0_split
I0323 10:29:26.925452 17346 net.cpp:100] Creating Layer LFCN_3_5x5_LFCN_3_5x5_0_split
I0323 10:29:26.925459 17346 net.cpp:434] LFCN_3_5x5_LFCN_3_5x5_0_split <- LFCN_3_5x5
I0323 10:29:26.925467 17346 net.cpp:408] LFCN_3_5x5_LFCN_3_5x5_0_split -> LFCN_3_5x5_LFCN_3_5x5_0_split_0
I0323 10:29:26.925477 17346 net.cpp:408] LFCN_3_5x5_LFCN_3_5x5_0_split -> LFCN_3_5x5_LFCN_3_5x5_0_split_1
I0323 10:29:26.925528 17346 net.cpp:150] Setting up LFCN_3_5x5_LFCN_3_5x5_0_split
I0323 10:29:26.925536 17346 net.cpp:157] Top shape: 2 9 24 24 (10368)
I0323 10:29:26.925542 17346 net.cpp:157] Top shape: 2 9 24 24 (10368)
I0323 10:29:26.925546 17346 net.cpp:165] Memory required for data: 3007279952
I0323 10:29:26.925550 17346 layer_factory.hpp:77] Creating layer detection_loss_3_5x5
I0323 10:29:26.925561 17346 net.cpp:100] Creating Layer detection_loss_3_5x5
I0323 10:29:26.925567 17346 net.cpp:434] detection_loss_3_5x5 <- LFCN_3_5x5_LFCN_3_5x5_0_split_0
I0323 10:29:26.925573 17346 net.cpp:434] detection_loss_3_5x5 <- label_3_5x5_data_5_split_0
I0323 10:29:26.925582 17346 net.cpp:408] detection_loss_3_5x5 -> loss_3_5x5
I0323 10:29:26.925596 17346 layer_factory.hpp:77] Creating layer detection_loss_3_5x5
I0323 10:29:26.925941 17346 net.cpp:150] Setting up detection_loss_3_5x5
I0323 10:29:26.925959 17346 net.cpp:157] Top shape: 1 1 1 2 (2)
I0323 10:29:26.925964 17346 net.cpp:160]     with loss weight 1
I0323 10:29:26.925981 17346 net.cpp:165] Memory required for data: 3007279960
I0323 10:29:26.925985 17346 layer_factory.hpp:77] Creating layer detection_accuracy_3_5x5
I0323 10:29:26.925993 17346 net.cpp:100] Creating Layer detection_accuracy_3_5x5
I0323 10:29:26.925998 17346 net.cpp:434] detection_accuracy_3_5x5 <- LFCN_3_5x5_LFCN_3_5x5_0_split_1
I0323 10:29:26.926004 17346 net.cpp:434] detection_accuracy_3_5x5 <- label_3_5x5_data_5_split_1
I0323 10:29:26.926012 17346 net.cpp:408] detection_accuracy_3_5x5 -> accuracy_3_5x5
I0323 10:29:26.926024 17346 net.cpp:408] detection_accuracy_3_5x5 -> boxiou_3_5x5
I0323 10:29:26.926074 17346 net.cpp:150] Setting up detection_accuracy_3_5x5
I0323 10:29:26.926082 17346 net.cpp:157] Top shape: 1 1 1 2 (2)
I0323 10:29:26.926089 17346 net.cpp:157] Top shape: 1 1 1 1 (1)
I0323 10:29:26.926092 17346 net.cpp:165] Memory required for data: 3007279972
I0323 10:29:26.926097 17346 layer_factory.hpp:77] Creating layer LFCN_3_7x7
I0323 10:29:26.926111 17346 net.cpp:100] Creating Layer LFCN_3_7x7
I0323 10:29:26.926118 17346 net.cpp:434] LFCN_3_7x7 <- conv6_1_relu6_1_0_split_1
I0323 10:29:26.926127 17346 net.cpp:408] LFCN_3_7x7 -> LFCN_3_7x7
I0323 10:29:26.935433 17346 net.cpp:150] Setting up LFCN_3_7x7
I0323 10:29:26.935467 17346 net.cpp:157] Top shape: 2 9 24 24 (10368)
I0323 10:29:26.935472 17346 net.cpp:165] Memory required for data: 3007321444
I0323 10:29:26.935487 17346 layer_factory.hpp:77] Creating layer LFCN_3_7x7_LFCN_3_7x7_0_split
I0323 10:29:26.935503 17346 net.cpp:100] Creating Layer LFCN_3_7x7_LFCN_3_7x7_0_split
I0323 10:29:26.935514 17346 net.cpp:434] LFCN_3_7x7_LFCN_3_7x7_0_split <- LFCN_3_7x7
I0323 10:29:26.935529 17346 net.cpp:408] LFCN_3_7x7_LFCN_3_7x7_0_split -> LFCN_3_7x7_LFCN_3_7x7_0_split_0
I0323 10:29:26.935546 17346 net.cpp:408] LFCN_3_7x7_LFCN_3_7x7_0_split -> LFCN_3_7x7_LFCN_3_7x7_0_split_1
I0323 10:29:26.935616 17346 net.cpp:150] Setting up LFCN_3_7x7_LFCN_3_7x7_0_split
I0323 10:29:26.935631 17346 net.cpp:157] Top shape: 2 9 24 24 (10368)
I0323 10:29:26.935642 17346 net.cpp:157] Top shape: 2 9 24 24 (10368)
I0323 10:29:26.935650 17346 net.cpp:165] Memory required for data: 3007404388
I0323 10:29:26.935658 17346 layer_factory.hpp:77] Creating layer detection_loss_3_7x7
I0323 10:29:26.935670 17346 net.cpp:100] Creating Layer detection_loss_3_7x7
I0323 10:29:26.935678 17346 net.cpp:434] detection_loss_3_7x7 <- LFCN_3_7x7_LFCN_3_7x7_0_split_0
I0323 10:29:26.935688 17346 net.cpp:434] detection_loss_3_7x7 <- label_3_7x7_data_6_split_0
I0323 10:29:26.935701 17346 net.cpp:408] detection_loss_3_7x7 -> loss_3_7x7
I0323 10:29:26.935720 17346 layer_factory.hpp:77] Creating layer detection_loss_3_7x7
I0323 10:29:26.936205 17346 net.cpp:150] Setting up detection_loss_3_7x7
I0323 10:29:26.936220 17346 net.cpp:157] Top shape: 1 1 1 2 (2)
I0323 10:29:26.936226 17346 net.cpp:160]     with loss weight 1
I0323 10:29:26.936240 17346 net.cpp:165] Memory required for data: 3007404396
I0323 10:29:26.936247 17346 layer_factory.hpp:77] Creating layer detection_accuracy_3_7x7
I0323 10:29:26.936257 17346 net.cpp:100] Creating Layer detection_accuracy_3_7x7
I0323 10:29:26.936265 17346 net.cpp:434] detection_accuracy_3_7x7 <- LFCN_3_7x7_LFCN_3_7x7_0_split_1
I0323 10:29:26.936273 17346 net.cpp:434] detection_accuracy_3_7x7 <- label_3_7x7_data_6_split_1
I0323 10:29:26.936285 17346 net.cpp:408] detection_accuracy_3_7x7 -> accuracy_3_7x7
I0323 10:29:26.936300 17346 net.cpp:408] detection_accuracy_3_7x7 -> boxiou_3_7x7
I0323 10:29:26.936359 17346 net.cpp:150] Setting up detection_accuracy_3_7x7
I0323 10:29:26.936370 17346 net.cpp:157] Top shape: 1 1 1 2 (2)
I0323 10:29:26.936378 17346 net.cpp:157] Top shape: 1 1 1 1 (1)
I0323 10:29:26.936383 17346 net.cpp:165] Memory required for data: 3007404408
I0323 10:29:26.936389 17346 layer_factory.hpp:77] Creating layer pool6
I0323 10:29:26.936399 17346 net.cpp:100] Creating Layer pool6
I0323 10:29:26.936408 17346 net.cpp:434] pool6 <- conv6_1_relu6_1_0_split_2
I0323 10:29:26.936420 17346 net.cpp:408] pool6 -> pool6
I0323 10:29:26.936475 17346 net.cpp:150] Setting up pool6
I0323 10:29:26.936491 17346 net.cpp:157] Top shape: 2 512 12 12 (147456)
I0323 10:29:26.936497 17346 net.cpp:165] Memory required for data: 3007994232
I0323 10:29:26.936504 17346 layer_factory.hpp:77] Creating layer LFCN_4_5x5
I0323 10:29:26.936522 17346 net.cpp:100] Creating Layer LFCN_4_5x5
I0323 10:29:26.936532 17346 net.cpp:434] LFCN_4_5x5 <- pool6
I0323 10:29:26.936543 17346 net.cpp:408] LFCN_4_5x5 -> LFCN_4_5x5
I0323 10:29:26.941736 17346 net.cpp:150] Setting up LFCN_4_5x5
I0323 10:29:26.941758 17346 net.cpp:157] Top shape: 2 9 12 12 (2592)
I0323 10:29:26.941766 17346 net.cpp:165] Memory required for data: 3008004600
I0323 10:29:26.941778 17346 layer_factory.hpp:77] Creating layer LFCN_4_5x5_LFCN_4_5x5_0_split
I0323 10:29:26.941794 17346 net.cpp:100] Creating Layer LFCN_4_5x5_LFCN_4_5x5_0_split
I0323 10:29:26.941804 17346 net.cpp:434] LFCN_4_5x5_LFCN_4_5x5_0_split <- LFCN_4_5x5
I0323 10:29:26.941817 17346 net.cpp:408] LFCN_4_5x5_LFCN_4_5x5_0_split -> LFCN_4_5x5_LFCN_4_5x5_0_split_0
I0323 10:29:26.941831 17346 net.cpp:408] LFCN_4_5x5_LFCN_4_5x5_0_split -> LFCN_4_5x5_LFCN_4_5x5_0_split_1
I0323 10:29:26.941903 17346 net.cpp:150] Setting up LFCN_4_5x5_LFCN_4_5x5_0_split
I0323 10:29:26.941916 17346 net.cpp:157] Top shape: 2 9 12 12 (2592)
I0323 10:29:26.941926 17346 net.cpp:157] Top shape: 2 9 12 12 (2592)
I0323 10:29:26.941932 17346 net.cpp:165] Memory required for data: 3008025336
I0323 10:29:26.941941 17346 layer_factory.hpp:77] Creating layer detection_loss_4_5x5
I0323 10:29:26.941975 17346 net.cpp:100] Creating Layer detection_loss_4_5x5
I0323 10:29:26.941988 17346 net.cpp:434] detection_loss_4_5x5 <- LFCN_4_5x5_LFCN_4_5x5_0_split_0
I0323 10:29:26.941999 17346 net.cpp:434] detection_loss_4_5x5 <- label_4_5x5_data_7_split_0
I0323 10:29:26.942011 17346 net.cpp:408] detection_loss_4_5x5 -> loss_4_5x5
I0323 10:29:26.942030 17346 layer_factory.hpp:77] Creating layer detection_loss_4_5x5
I0323 10:29:26.942528 17346 net.cpp:150] Setting up detection_loss_4_5x5
I0323 10:29:26.942543 17346 net.cpp:157] Top shape: 1 1 1 2 (2)
I0323 10:29:26.942548 17346 net.cpp:160]     with loss weight 1
I0323 10:29:26.942558 17346 net.cpp:165] Memory required for data: 3008025344
I0323 10:29:26.942564 17346 layer_factory.hpp:77] Creating layer detection_accuracy_4_5x5
I0323 10:29:26.942574 17346 net.cpp:100] Creating Layer detection_accuracy_4_5x5
I0323 10:29:26.942582 17346 net.cpp:434] detection_accuracy_4_5x5 <- LFCN_4_5x5_LFCN_4_5x5_0_split_1
I0323 10:29:26.942590 17346 net.cpp:434] detection_accuracy_4_5x5 <- label_4_5x5_data_7_split_1
I0323 10:29:26.942602 17346 net.cpp:408] detection_accuracy_4_5x5 -> accuracy_4_5x5
I0323 10:29:26.942615 17346 net.cpp:408] detection_accuracy_4_5x5 -> boxiou_4_5x5
I0323 10:29:26.942678 17346 net.cpp:150] Setting up detection_accuracy_4_5x5
I0323 10:29:26.942689 17346 net.cpp:157] Top shape: 1 1 1 2 (2)
I0323 10:29:26.942697 17346 net.cpp:157] Top shape: 1 1 1 1 (1)
I0323 10:29:26.942703 17346 net.cpp:165] Memory required for data: 3008025356
I0323 10:29:26.942708 17346 net.cpp:228] detection_accuracy_4_5x5 does not need backward computation.
I0323 10:29:26.942714 17346 net.cpp:226] detection_loss_4_5x5 needs backward computation.
I0323 10:29:26.942720 17346 net.cpp:226] LFCN_4_5x5_LFCN_4_5x5_0_split needs backward computation.
I0323 10:29:26.942730 17346 net.cpp:226] LFCN_4_5x5 needs backward computation.
…
