…
    downsample_rate: 16
    downsample_rate: 32
    downsample_rate: 32
    downsample_rate: 64
    coord_num: 4
    field_h: 60
    field_h: 84
    field_h: 120
    field_h: 168
    field_h: 240
    field_h: 336
    field_h: 480
    field_w: 60
    field_w: 84
    field_w: 120
    field_w: 168
    field_w: 240
    field_w: 336
    field_w: 480
    fg_threshold: 0.5
    resize_width: 1344
    resize_height: 768
    crop_width: 768
    crop_height: 768
    do_multiple_scale: true
    min_scale: 60
    max_scale: 480
    min_gt_height: 25
    shuffle: true
  }
}
layer {
  name: "slice"
  type: "Slice"
  bottom: "data"
  top: "data123"
  top: "ch4"
  slice_param {
    slice_point: 3
    axis: 1
  }
}
layer {
  name: "ch4_0-127"
  type: "Power"
  bottom: "ch4"
  top: "ch4_0-127"
  power_param {
    power: 1
    scale: 1
    shift: -128
  }
}
layer {
  name: "ch4_128-255"
  type: "Power"
  bottom: "ch4"
  top: "ch4_128-255"
  power_param {
    power: 1
    scale: -1
    shift: 128
  }
}
layer {
  name: "ch4_2cls-concat"
  type: "Concat"
  bottom: "ch4_0-127"
  bottom: "ch4_128-255"
  top: "ch4_2cls"
}
layer {
  name: "relu_ch42cls"
  type: "ReLU"
  bottom: "ch4_2cls"
  top: "ch4_2cls"
}
layer {
  name: "conv1_1"
  type: "Convolution"
  bottom: "data123"
  top: "conv1_1"
  convolution_param {
    num_output: 64
    pad: 1
    kernel_size: 3
  }
}
layer {
  name: "relu1_1"
  type: "ReLU"
  bottom: "conv1_1"
  top: "conv1_1"
}
layer {
  name: "conv1_2"
  type: "Convolution"
  bottom: "conv1_1"
  top: "conv1_2"
  convolution_param {
    num_output: 64
    pad: 1
    kernel_size: 3
  }
}
layer {
  name: "relu1_2"
  type: "ReLU"
  bottom: "conv1_2"
  top: "conv1_2"
}
layer {
  name: "pool1"
  type: "Pooling"
  bottom: "conv1_2"
  top: "pool1"
  pooling_param {
    pool: MAX
    kernel_size: 2
    stride: 2
  }
}
layer {
  name: "ch4_pool1"
  type: "Pooling"
  bottom: "ch4_2cls"
  top: "ch4_pool1"
  pooling_param {
    pool: MAX
    kernel_size: 2
    stride: 2
  }
}
layer {
  name: "pool1_concat"
  type: "Concat"
  bottom: "pool1"
  bottom: "ch4_pool1"
  top: "pool1_new"
}
layer {
  name: "conv2_1_new"
  type: "Convolution"
  bottom: "pool1_new"
  top: "conv2_1"
  convolution_param {
    num_output: 128
    pad: 1
    kernel_size: 3
  }
}
layer {
  name: "relu2_1"
  type: "ReLU"
  bottom: "conv2_1"
  top: "conv2_1"
}
layer {
  name: "conv2_2"
  type: "Convolution"
  bottom: "conv2_1"
  top: "conv2_2"
  convolution_param {
    num_output: 128
    pad: 1
    kernel_size: 3
  }
}
layer {
  name: "relu2_2"
  type: "ReLU"
  bottom: "conv2_2"
  top: "conv2_2"
}
layer {
  name: "pool2"
  type: "Pooling"
  bottom: "conv2_2"
  top: "pool2"
  pooling_param {
    pool: MAX
    kernel_size: 2
    stride: 2
  }
}
layer {
  name: "ch4_pool2"
  type: "Pooling"
  bottom: "ch4_pool1"
  top: "ch4_pool2"
  pooling_param {
    pool: MAX
    kernel_size: 2
    stride: 2
  }
}
layer {
  name: "pool2_concat"
  type: "Concat"
  bottom: "pool2"
  bottom: "ch4_pool2"
  top: "pool2_new"
}
layer {
  name: "conv3_1_new"
  type: "Convolution"
  bottom: "pool2_new"
  top: "conv3_1"
  convolution_param {
    num_output: 256
    pad: 1
    kernel_size: 3
  }
}
layer {
  name: "relu3_1"
  type: "ReLU"
  bottom: "conv3_1"
  top: "conv3_1"
}
layer {
  name: "conv3_2"
  type: "Convolution"
  bottom: "conv3_1"
  top: "conv3_2"
  convolution_param {
    num_output: 256
    pad: 1
    kernel_size: 3
  }
}
layer {
  name: "relu3_2"
  type: "ReLU"
  bottom: "conv3_2"
  top: "conv3_2"
}
layer {
  name: "conv3_3"
  type: "Convolution"
  bottom: "conv3_2"
  top: "conv3_3"
  convolution_param {
    num_output: 256
    pad: 1
    kernel_size: 3
  }
}
layer {
  name: "relu3_3"
  type: "ReLU"
  bottom: "conv3_3"
  top: "conv3_3"
}
layer {
  name: "pool3"
  type: "Pooling"
  bottom: "conv3_3"
  top: "pool3"
  pooling_param {
    pool: MAX
    kernel_size: 2
    stride: 2
  }
}
layer {
  name: "ch4_pool3"
  type: "Pooling"
  bottom: "ch4_pool2"
  top: "ch4_pool3"
  pooling_param {
    pool: MAX
    kernel_size: 2
    stride: 2
  }
}
layer {
  name: "pool3_concat"
  type: "Concat"
  bottom: "pool3"
  bottom: "ch4_pool3"
  top: "pool3_new"
}
layer {
  name: "conv4_1_new"
  type: "Convolution"
  bottom: "pool3_new"
  top: "conv4_1"
  convolution_param {
    num_output: 512
    pad: 1
    kernel_size: 3
  }
}
layer {
  name: "relu4_1"
  type: "ReLU"
  bottom: "conv4_1"
  top: "conv4_1"
}
layer {
  name: "conv4_2"
  type: "Convolution"
  bottom: "conv4_1"
  top: "conv4_2"
  convolution_param {
    num_output: 512
    pad: 1
    kernel_size: 3
  }
}
layer {
  name: "relu4_2"
  type: "ReLU"
  bottom: "conv4_2"
  top: "conv4_2"
}
layer {
  name: "conv4_3"
  type: "Convolution"
  bottom: "conv4_2"
  top: "conv4_3"
  convolution_param {
    num_output: 512
    pad: 1
    kernel_size: 3
  }
}
layer {
  name: "relu4_3"
  type: "ReLU"
  bottom: "conv4_3"
  top: "conv4_3"
}
layer {
  name: "loss1_conv1"
  type: "Convolution"
  bottom: "conv4_3"
  top: "loss1_conv1"
  param {
    lr_mult: 1
    decay_mult: 1
  }
  param {
    lr_mult: 2
    decay_mult: 0
  }
  convolution_param {
    num_output: 512
    pad: 1
    kernel_size: 3
    weight_filler {
      type: "gaussian"
      std: 0.01
    }
    bias_filler {
      type: "constant"
    }
  }
}
layer {
  name: "loss_relu1"
  type: "ReLU"
  bottom: "loss1_conv1"
  top: "loss1_conv1"
}
layer {
  name: "LFCN_1_5x5"
  type: "Convolution"
  bottom: "loss1_conv1"
  top: "LFCN_1_5x5"
  param {
    lr_mult: 1
    decay_mult: 1
  }
  param {
    lr_mult: 2
    decay_mult: 0
  }
  convolution_param {
    num_output: 9
    pad: 2
    kernel_size: 5
    weight_filler {
      type: "gaussian"
      std: 0.001
    }
    bias_filler {
      type: "constant"
    }
  }
}
layer {
  name: "detection_loss_1_5x5"
  type: "DetectionLoss"
  bottom: "LFCN_1_5x5"
  bottom: "label_1_5x5"
  top: "loss_1_5x5"
  loss_weight: 0.9
  detection_loss_param {
    cls_num: 5
    coord_num: 4
    lambda: 0.05
    field_h: 60
    field_w: 60
    downsample_rate: 8
    bb_smooth: true
    field_whr: 2
    field_xyr: 2
    bg_threshold: 0.2
    bg_multiple: 2
    sample_mode: "random"
    pos_neg_weighted: true
  }
}
layer {
  name: "detection_accuracy_1_5x5"
  type: "DetectionAccuracy"
  bottom: "LFCN_1_5x5"
  bottom: "label_1_5x5"
  top: "accuracy_1_5x5"
  top: "boxiou_1_5x5"
  detection_accuracy_param {
    cls_num: 5
    coord_num: 4
    field_h: 60
    field_w: 60
    downsample_rate: 8
    field_whr: 2
    field_xyr: 2
  }
}
layer {
  name: "LFCN_1_7x7"
  type: "Convolution"
  bottom: "loss1_conv1"
  top: "LFCN_1_7x7"
  param {
    lr_mult: 1
    decay_mult: 1
  }
  param {
    lr_mult: 2
    decay_mult: 0
  }
  convolution_param {
    num_output: 9
    pad: 3
    kernel_size: 7
    weight_filler {
      type: "gaussian"
      std: 0.001
    }
    bias_filler {
      type: "constant"
    }
  }
}
layer {
  name: "detection_loss_1_7x7"
  type: "DetectionLoss"
  bottom: "LFCN_1_7x7"
  bottom: "label_1_7x7"
  top: "loss_1_7x7"
  loss_weight: 0.9
  detection_loss_param {
    cls_num: 5
    coord_num: 4
    lambda: 0.05
    field_h: 84
    field_w: 84
    downsample_rate: 8
    bb_smooth: true
    field_whr: 2
    field_xyr: 2
    bg_threshold: 0.2
    bg_multiple: 2
    sample_mode: "random"
    pos_neg_weighted: true
  }
}
layer {
  name: "detection_accuracy_1_7x7"
  type: "DetectionAccuracy"
  bottom: "LFCN_1_7x7"
  bottom: "label_1_7x7"
  top: "accuracy_1_7x7"
  top: "boxiou_1_7x7"
  detection_accuracy_param {
    cls_num: 5
    coord_num: 4
    field_h: 84
    field_w: 84
    downsample_rate: 8
    field_whr: 2
    field_xyr: 2
  }
}
layer {
  name: "pool4"
  type: "Pooling"
  bottom: "conv4_3"
  top: "pool4"
  pooling_param {
    pool: MAX
    kernel_size: 2
    stride: 2
  }
}
layer {
  name: "conv5_1"
  type: "Convolution"
  bottom: "pool4"
  top: "conv5_1"
  convolution_param {
    num_output: 512
    pad: 1
    kernel_size: 3
  }
}
layer {
  name: "relu5_1"
  type: "ReLU"
  bottom: "conv5_1"
  top: "conv5_1"
}
layer {
  name: "conv5_2"
  type: "Convolution"
  bottom: "conv5_1"
  top: "conv5_2"
  convolution_param {
    num_output: 512
    pad: 1
    kernel_size: 3
  }
}
layer {
  name: "relu5_2"
  type: "ReLU"
  bottom: "conv5_2"
  top: "conv5_2"
}
layer {
  name: "conv5_3"
  type: "Convolution"
  bottom: "conv5_2"
  top: "conv5_3"
  convolution_param {
    num_output: 512
    pad: 1
    kernel_size: 3
  }
}
layer {
  name: "relu5_3"
  type: "ReLU"
  bottom: "conv5_3"
  top: "conv5_3"
}
layer {
  name: "LFCN_2_5x5"
  type: "Convolution"
  bottom: "conv5_3"
  top: "LFCN_2_5x5"
  param {
    lr_mult: 1
    decay_mult: 1
  }
  param {
    lr_mult: 2
    decay_mult: 0
  }
  convolution_param {
    num_output: 9
    pad: 2
    kernel_size: 5
    weight_filler {
      type: "gaussian"
      std: 0.001
    }
    bias_filler {
      type: "constant"
    }
  }
}
layer {
  name: "detection_loss_2_5x5"
  type: "DetectionLoss"
  bottom: "LFCN_2_5x5"
  bottom: "label_2_5x5"
  top: "loss_2_5x5"
  detection_loss_param {
    cls_num: 5
    coord_num: 4
    lambda: 0.05
    field_h: 120
    field_w: 120
    downsample_rate: 16
    bb_smooth: true
    field_whr: 2
    field_xyr: 2
    bg_threshold: 0.2
    bg_multiple: 2
    sample_mode: "random"
    pos_neg_weighted: true
  }
}
layer {
  name: "detection_accuracy_2_5x5"
  type: "DetectionAccuracy"
  bottom: "LFCN_2_5x5"
  bottom: "label_2_5x5"
  top: "accuracy_2_5x5"
  top: "boxiou_2_5x5"
  detection_accuracy_param {
    cls_num: 5
    coord_num: 4
    field_h: 120
    field_w: 120
    downsample_rate: 16
    field_whr: 2
    field_xyr: 2
  }
}
layer {
  name: "LFCN_2_7x7"
  type: "Convolution"
  bottom: "conv5_3"
  top: "LFCN_2_7x7"
  param {
    lr_mult: 1
    decay_mult: 1
  }
  param {
    lr_mult: 2
    decay_mult: 0
  }
  convolution_param {
    num_output: 9
    pad: 3
    kernel_size: 7
    weight_filler {
      type: "gaussian"
      std: 0.001
    }
    bias_filler {
      type: "constant"
    }
  }
}
layer {
  name: "detection_loss_2_7x7"
  type: "DetectionLoss"
  bottom: "LFCN_2_7x7"
  bottom: "label_2_7x7"
  top: "loss_2_7x7"
  detection_loss_param {
    cls_num: 5
    coord_num: 4
    lambda: 0.05
    field_h: 168
    field_w: 168
    downsample_rate: 16
    bb_smooth: true
    field_whr: 2
    field_xyr: 2
    bg_threshold: 0.2
    bg_multiple: 2
    sample_mode: "random"
    pos_neg_weighted: true
  }
}
layer {
  name: "detection_accuracy_2_7x7"
  type: "DetectionAccuracy"
  bottom: "LFCN_2_7x7"
  bottom: "label_2_7x7"
  top: "accuracy_2_7x7"
  top: "boxiou_2_7x7"
  detection_accuracy_param {
    cls_num: 5
    coord_num: 4
    field_h: 168
    field_w: 168
    downsample_rate: 16
    field_whr: 2
    field_xyr: 2
  }
}
layer {
  name: "pool5"
  type: "Pooling"
  bottom: "conv5_3"
  top: "pool5"
  pooling_param {
    pool: MAX
    kernel_size: 2
    stride: 2
  }
}
layer {
  name: "conv6_1"
  type: "Convolution"
  bottom: "pool5"
  top: "conv6_1"
  param {
    lr_mult: 1
    decay_mult: 1
  }
  param {
    lr_mult: 2
    decay_mult: 0
  }
  convolution_param {
    num_output: 512
    pad: 1
    kernel_size: 3
    weight_filler {
      type: "gaussian"
      std: 0.01
    }
    bias_filler {
      type: "constant"
    }
  }
}
layer {
  name: "relu6_1"
  type: "ReLU"
  bottom: "conv6_1"
  top: "conv6_1"
}
layer {
  name: "LFCN_3_5x5"
  type: "Convolution"
  bottom: "conv6_1"
  top: "LFCN_3_5x5"
  param {
    lr_mult: 1
    decay_mult: 1
  }
  param {
    lr_mult: 2
    decay_mult: 0
  }
  convolution_param {
    num_output: 9
    pad: 2
    kernel_size: 5
    weight_filler {
      type: "gaussian"
      std: 0.001
    }
    bias_filler {
      type: "constant"
    }
  }
}
layer {
  name: "detection_loss_3_5x5"
  type: "DetectionLoss"
  bottom: "LFCN_3_5x5"
  bottom: "label_3_5x5"
  top: "loss_3_5x5"
  detection_loss_param {
    cls_num: 5
    coord_num: 4
    lambda: 0.05
    field_h: 240
    field_w: 240
    downsample_rate: 32
    bb_smooth: true
    field_whr: 2
    field_xyr: 2
    bg_threshold: 0.2
    bg_multiple: 2
    sample_mode: "random"
    pos_neg_weighted: true
  }
}
layer {
  name: "detection_accuracy_3_5x5"
  type: "DetectionAccuracy"
  bottom: "LFCN_3_5x5"
  bottom: "label_3_5x5"
  top: "accuracy_3_5x5"
  top: "boxiou_3_5x5"
  detection_accuracy_param {
    cls_num: 5
    coord_num: 4
    field_h: 240
    field_w: 240
    downsample_rate: 32
    field_whr: 2
    field_xyr: 2
  }
}
layer {
  name: "LFCN_3_7x7"
  type: "Convolution"
  bottom: "conv6_1"
  top: "LFCN_3_7x7"
  param {
    lr_mult: 1
    decay_mult: 1
  }
  param {
    lr_mult: 2
    decay_mult: 0
  }
  convolution_param {
    num_output: 9
    pad: 3
    kernel_size: 7
    weight_filler {
      type: "gaussian"
      std: 0.001
    }
    bias_filler {
      type: "constant"
    }
  }
}
layer {
  name: "detection_loss_3_7x7"
  type: "DetectionLoss"
  bottom: "LFCN_3_7x7"
  bottom: "label_3_7x7"
  top: "loss_3_7x7"
  detection_loss_param {
    cls_num: 5
    coord_num: 4
    lambda: 0.05
    field_h: 336
    field_w: 336
    downsample_rate: 32
    bb_smooth: true
    field_whr: 2
    field_xyr: 2
    bg_threshold: 0.2
    bg_multiple: 2
    sample_mode: "random"
    pos_neg_weighted: true
  }
}
layer {
  name: "detection_accuracy_3_7x7"
  type: "DetectionAccuracy"
  bottom: "LFCN_3_7x7"
  bottom: "label_3_7x7"
  top: "accuracy_3_7x7"
  top: "boxiou_3_7x7"
  detection_accuracy_param {
    cls_num: 5
    coord_num: 4
    field_h: 336
    field_w: 336
    downsample_rate: 32
    field_whr: 2
    field_xyr: 2
  }
}
layer {
  name: "pool6"
  type: "Pooling"
  bottom: "conv6_1"
  top: "pool6"
  pooling_param {
    pool: MAX
    kernel_size: 2
    stride: 2
  }
}
layer {
  name: "LFCN_4_5x5"
  type: "Convolution"
  bottom: "pool6"
  top: "LFCN_4_5x5"
  param {
    lr_mult: 1
    decay_mult: 1
  }
  param {
    lr_mult: 2
    decay_mult: 0
  }
  convolution_param {
    num_output: 9
    pad: 2
    kernel_size: 5
    weight_filler {
      type: "gaussian"
      std: 0.001
    }
    bias_filler {
      type: "constant"
    }
  }
}
layer {
  name: "detection_loss_4_5x5"
  type: "DetectionLoss"
  bottom: "LFCN_4_5x5"
  bottom: "label_4_5x5"
  top: "loss_4_5x5"
  detection_loss_param {
    cls_num: 5
    coord_num: 4
    lambda: 0.05
    field_h: 480
    field_w: 480
    downsample_rate: 64
    bb_smooth: true
    field_whr: 2
    field_xyr: 2
    bg_threshold: 0.2
    bg_multiple: 2
    sample_mode: "random"
    pos_neg_weighted: true
  }
}
layer {
  name: "detection_accuracy_4_5x5"
  type: "DetectionAccuracy"
  bottom: "LFCN_4_5x5"
  bottom: "label_4_5x5"
  top: "accuracy_4_5x5"
  top: "boxiou_4_5x5"
  detection_accuracy_param {
    cls_num: 5
    coord_num: 4
    field_h: 480
    field_w: 480
    downsample_rate: 64
    field_whr: 2
    field_xyr: 2
  }
}
I0703 21:48:35.475980 12750 layer_factory.hpp:77] Creating layer data
I0703 21:48:35.476016 12750 net.cpp:100] Creating Layer data
I0703 21:48:35.476024 12750 net.cpp:408] data -> data
…
I0703 21:48:35.503828 12750 image_gt_data_layer.cpp:235] output label size 1 : 4,6,96,96
I0703 21:48:35.503926 12750 image_gt_data_layer.cpp:235] output label size 2 : 4,6,48,48
I0703 21:48:35.503999 12750 image_gt_data_layer.cpp:235] output label size 3 : 4,6,48,48
I0703 21:48:35.504068 12750 image_gt_data_layer.cpp:235] output label size 4 : 4,6,24,24
I0703 21:48:35.504129 12750 image_gt_data_layer.cpp:235] output label size 5 : 4,6,24,24
I0703 21:48:35.504184 12750 image_gt_data_layer.cpp:235] output label size 6 : 4,6,12,12
I0703 21:48:35.580934 12750 net.cpp:150] Setting up data
I0703 21:48:35.580970 12750 net.cpp:157] Top shape: 4 4 768 768 (9437184)
I0703 21:48:35.580976 12750 net.cpp:157] Top shape: 4 6 96 96 (221184)
I0703 21:48:35.580982 12750 net.cpp:157] Top shape: 4 6 96 96 (221184)
I0703 21:48:35.580987 12750 net.cpp:157] Top shape: 4 6 48 48 (55296)
I0703 21:48:35.580992 12750 net.cpp:157] Top shape: 4 6 48 48 (55296)
I0703 21:48:35.580997 12750 net.cpp:157] Top shape: 4 6 24 24 (13824)
I0703 21:48:35.581002 12750 net.cpp:157] Top shape: 4 6 24 24 (13824)
I0703 21:48:35.581007 12750 net.cpp:157] Top shape: 4 6 12 12 (3456)
I0703 21:48:35.581012 12750 net.cpp:165] Memory required for data: 40084992
I0703 21:48:35.581022 12750 layer_factory.hpp:77] Creating layer label_1_5x5_data_1_split
I0703 21:48:35.581045 12750 net.cpp:100] Creating Layer label_1_5x5_data_1_split
I0703 21:48:35.581053 12750 net.cpp:434] label_1_5x5_data_1_split <- label_1_5x5
I0703 21:48:35.581077 12750 net.cpp:408] label_1_5x5_data_1_split -> label_1_5x5_data_1_split_0
I0703 21:48:35.581101 12750 net.cpp:408] label_1_5x5_data_1_split -> label_1_5x5_data_1_split_1
I0703 21:48:35.581167 12750 net.cpp:150] Setting up label_1_5x5_data_1_split
I0703 21:48:35.581176 12750 net.cpp:157] Top shape: 4 6 96 96 (221184)
I0703 21:48:35.581182 12750 net.cpp:157] Top shape: 4 6 96 96 (221184)
I0703 21:48:35.581185 12750 net.cpp:165] Memory required for data: 41854464
I0703 21:48:35.581189 12750 layer_factory.hpp:77] Creating layer label_1_7x7_data_2_split
I0703 21:48:35.581197 12750 net.cpp:100] Creating Layer label_1_7x7_data_2_split
I0703 21:48:35.581202 12750 net.cpp:434] label_1_7x7_data_2_split <- label_1_7x7
I0703 21:48:35.581207 12750 net.cpp:408] label_1_7x7_data_2_split -> label_1_7x7_data_2_split_0
I0703 21:48:35.581213 12750 net.cpp:408] label_1_7x7_data_2_split -> label_1_7x7_data_2_split_1
I0703 21:48:35.581250 12750 net.cpp:150] Setting up label_1_7x7_data_2_split
I0703 21:48:35.581257 12750 net.cpp:157] Top shape: 4 6 96 96 (221184)
I0703 21:48:35.581264 12750 net.cpp:157] Top shape: 4 6 96 96 (221184)
I0703 21:48:35.581267 12750 net.cpp:165] Memory required for data: 43623936
I0703 21:48:35.581270 12750 layer_factory.hpp:77] Creating layer label_2_5x5_data_3_split
I0703 21:48:35.581275 12750 net.cpp:100] Creating Layer label_2_5x5_data_3_split
I0703 21:48:35.581279 12750 net.cpp:434] label_2_5x5_data_3_split <- label_2_5x5
I0703 21:48:35.581284 12750 net.cpp:408] label_2_5x5_data_3_split -> label_2_5x5_data_3_split_0
I0703 21:48:35.581290 12750 net.cpp:408] label_2_5x5_data_3_split -> label_2_5x5_data_3_split_1
I0703 21:48:35.581322 12750 net.cpp:150] Setting up label_2_5x5_data_3_split
I0703 21:48:35.581329 12750 net.cpp:157] Top shape: 4 6 48 48 (55296)
I0703 21:48:35.581333 12750 net.cpp:157] Top shape: 4 6 48 48 (55296)
I0703 21:48:35.581337 12750 net.cpp:165] Memory required for data: 44066304
I0703 21:48:35.581341 12750 layer_factory.hpp:77] Creating layer label_2_7x7_data_4_split
I0703 21:48:35.581346 12750 net.cpp:100] Creating Layer label_2_7x7_data_4_split
I0703 21:48:35.581351 12750 net.cpp:434] label_2_7x7_data_4_split <- label_2_7x7
I0703 21:48:35.581357 12750 net.cpp:408] label_2_7x7_data_4_split -> label_2_7x7_data_4_split_0
I0703 21:48:35.581362 12750 net.cpp:408] label_2_7x7_data_4_split -> label_2_7x7_data_4_split_1
I0703 21:48:35.581394 12750 net.cpp:150] Setting up label_2_7x7_data_4_split
I0703 21:48:35.581401 12750 net.cpp:157] Top shape: 4 6 48 48 (55296)
I0703 21:48:35.581406 12750 net.cpp:157] Top shape: 4 6 48 48 (55296)
I0703 21:48:35.581409 12750 net.cpp:165] Memory required for data: 44508672
I0703 21:48:35.581413 12750 layer_factory.hpp:77] Creating layer label_3_5x5_data_5_split
I0703 21:48:35.581418 12750 net.cpp:100] Creating Layer label_3_5x5_data_5_split
I0703 21:48:35.581421 12750 net.cpp:434] label_3_5x5_data_5_split <- label_3_5x5
I0703 21:48:35.581427 12750 net.cpp:408] label_3_5x5_data_5_split -> label_3_5x5_data_5_split_0
I0703 21:48:35.581434 12750 net.cpp:408] label_3_5x5_data_5_split -> label_3_5x5_data_5_split_1
I0703 21:48:35.581463 12750 net.cpp:150] Setting up label_3_5x5_data_5_split
I0703 21:48:35.581470 12750 net.cpp:157] Top shape: 4 6 24 24 (13824)
I0703 21:48:35.581475 12750 net.cpp:157] Top shape: 4 6 24 24 (13824)
I0703 21:48:35.581480 12750 net.cpp:165] Memory required for data: 44619264
I0703 21:48:35.581483 12750 layer_factory.hpp:77] Creating layer label_3_7x7_data_6_split
I0703 21:48:35.581487 12750 net.cpp:100] Creating Layer label_3_7x7_data_6_split
I0703 21:48:35.581491 12750 net.cpp:434] label_3_7x7_data_6_split <- label_3_7x7
I0703 21:48:35.581497 12750 net.cpp:408] label_3_7x7_data_6_split -> label_3_7x7_data_6_split_0
I0703 21:48:35.581503 12750 net.cpp:408] label_3_7x7_data_6_split -> label_3_7x7_data_6_split_1
I0703 21:48:35.581532 12750 net.cpp:150] Setting up label_3_7x7_data_6_split
I0703 21:48:35.581538 12750 net.cpp:157] Top shape: 4 6 24 24 (13824)
I0703 21:48:35.581542 12750 net.cpp:157] Top shape: 4 6 24 24 (13824)
I0703 21:48:35.581547 12750 net.cpp:165] Memory required for data: 44729856
I0703 21:48:35.581549 12750 layer_factory.hpp:77] Creating layer label_4_5x5_data_7_split
I0703 21:48:35.581555 12750 net.cpp:100] Creating Layer label_4_5x5_data_7_split
I0703 21:48:35.581559 12750 net.cpp:434] label_4_5x5_data_7_split <- label_4_5x5
I0703 21:48:35.581564 12750 net.cpp:408] label_4_5x5_data_7_split -> label_4_5x5_data_7_split_0
I0703 21:48:35.581569 12750 net.cpp:408] label_4_5x5_data_7_split -> label_4_5x5_data_7_split_1
I0703 21:48:35.581599 12750 net.cpp:150] Setting up label_4_5x5_data_7_split
I0703 21:48:35.581606 12750 net.cpp:157] Top shape: 4 6 12 12 (3456)
I0703 21:48:35.581610 12750 net.cpp:157] Top shape: 4 6 12 12 (3456)
I0703 21:48:35.581614 12750 net.cpp:165] Memory required for data: 44757504
I0703 21:48:35.581617 12750 layer_factory.hpp:77] Creating layer slice
I0703 21:48:35.581629 12750 net.cpp:100] Creating Layer slice
I0703 21:48:35.581632 12750 net.cpp:434] slice <- data
I0703 21:48:35.581637 12750 net.cpp:408] slice -> data123
I0703 21:48:35.581646 12750 net.cpp:408] slice -> ch4
I0703 21:48:35.581677 12750 net.cpp:150] Setting up slice
I0703 21:48:35.581686 12750 net.cpp:157] Top shape: 4 3 768 768 (7077888)
I0703 21:48:35.581689 12750 net.cpp:157] Top shape: 4 1 768 768 (2359296)
I0703 21:48:35.581693 12750 net.cpp:165] Memory required for data: 82506240
I0703 21:48:35.581696 12750 layer_factory.hpp:77] Creating layer ch4_slice_1_split
I0703 21:48:35.581701 12750 net.cpp:100] Creating Layer ch4_slice_1_split
I0703 21:48:35.581704 12750 net.cpp:434] ch4_slice_1_split <- ch4
I0703 21:48:35.581712 12750 net.cpp:408] ch4_slice_1_split -> ch4_slice_1_split_0
I0703 21:48:35.581717 12750 net.cpp:408] ch4_slice_1_split -> ch4_slice_1_split_1
I0703 21:48:35.581744 12750 net.cpp:150] Setting up ch4_slice_1_split
I0703 21:48:35.581753 12750 net.cpp:157] Top shape: 4 1 768 768 (2359296)
I0703 21:48:35.581758 12750 net.cpp:157] Top shape: 4 1 768 768 (2359296)
I0703 21:48:35.581761 12750 net.cpp:165] Memory required for data: 101380608
I0703 21:48:35.581765 12750 layer_factory.hpp:77] Creating layer ch4_0-127
I0703 21:48:35.581771 12750 net.cpp:100] Creating Layer ch4_0-127
I0703 21:48:35.581775 12750 net.cpp:434] ch4_0-127 <- ch4_slice_1_split_0
I0703 21:48:35.581799 12750 net.cpp:408] ch4_0-127 -> ch4_0-127
I0703 21:48:35.581830 12750 net.cpp:150] Setting up ch4_0-127
I0703 21:48:35.581837 12750 net.cpp:157] Top shape: 4 1 768 768 (2359296)
I0703 21:48:35.581841 12750 net.cpp:165] Memory required for data: 110817792
I0703 21:48:35.581845 12750 layer_factory.hpp:77] Creating layer ch4_128-255
I0703 21:48:35.581851 12750 net.cpp:100] Creating Layer ch4_128-255
I0703 21:48:35.581856 12750 net.cpp:434] ch4_128-255 <- ch4_slice_1_split_1
I0703 21:48:35.581861 12750 net.cpp:408] ch4_128-255 -> ch4_128-255
I0703 21:48:35.581879 12750 net.cpp:150] Setting up ch4_128-255
I0703 21:48:35.581888 12750 net.cpp:157] Top shape: 4 1 768 768 (2359296)
I0703 21:48:35.581893 12750 net.cpp:165] Memory required for data: 120254976
I0703 21:48:35.581897 12750 layer_factory.hpp:77] Creating layer ch4_2cls-concat
I0703 21:48:35.581902 12750 net.cpp:100] Creating Layer ch4_2cls-concat
I0703 21:48:35.581907 12750 net.cpp:434] ch4_2cls-concat <- ch4_0-127
I0703 21:48:35.581912 12750 net.cpp:434] ch4_2cls-concat <- ch4_128-255
I0703 21:48:35.581918 12750 net.cpp:408] ch4_2cls-concat -> ch4_2cls
I0703 21:48:35.581938 12750 net.cpp:150] Setting up ch4_2cls-concat
I0703 21:48:35.581945 12750 net.cpp:157] Top shape: 4 2 768 768 (4718592)
I0703 21:48:35.581948 12750 net.cpp:165] Memory required for data: 139129344
I0703 21:48:35.581953 12750 layer_factory.hpp:77] Creating layer relu_ch42cls
I0703 21:48:35.581959 12750 net.cpp:100] Creating Layer relu_ch42cls
I0703 21:48:35.581962 12750 net.cpp:434] relu_ch42cls <- ch4_2cls
I0703 21:48:35.581966 12750 net.cpp:395] relu_ch42cls -> ch4_2cls (in-place)
I0703 21:48:35.857728 12750 net.cpp:150] Setting up relu_ch42cls
I0703 21:48:35.857775 12750 net.cpp:157] Top shape: 4 2 768 768 (4718592)
I0703 21:48:35.857781 12750 net.cpp:165] Memory required for data: 158003712
I0703 21:48:35.857792 12750 layer_factory.hpp:77] Creating layer conv1_1
I0703 21:48:35.857813 12750 net.cpp:100] Creating Layer conv1_1
I0703 21:48:35.857822 12750 net.cpp:434] conv1_1 <- data123
I0703 21:48:35.857831 12750 net.cpp:408] conv1_1 -> conv1_1
I0703 21:48:35.865243 12750 net.cpp:150] Setting up conv1_1
I0703 21:48:35.865353 12750 net.cpp:157] Top shape: 4 64 768 768 (150994944)
I0703 21:48:35.865361 12750 net.cpp:165] Memory required for data: 761983488
I0703 21:48:35.865411 12750 layer_factory.hpp:77] Creating layer relu1_1
I0703 21:48:35.865437 12750 net.cpp:100] Creating Layer relu1_1
I0703 21:48:35.865447 12750 net.cpp:434] relu1_1 <- conv1_1
I0703 21:48:35.865453 12750 net.cpp:395] relu1_1 -> conv1_1 (in-place)
I0703 21:48:35.865720 12750 net.cpp:150] Setting up relu1_1
I0703 21:48:35.865731 12750 net.cpp:157] Top shape: 4 64 768 768 (150994944)
I0703 21:48:35.865736 12750 net.cpp:165] Memory required for data: 1365963264
I0703 21:48:35.865741 12750 layer_factory.hpp:77] Creating layer conv1_2
I0703 21:48:35.865753 12750 net.cpp:100] Creating Layer conv1_2
I0703 21:48:35.865757 12750 net.cpp:434] conv1_2 <- conv1_1
I0703 21:48:35.865764 12750 net.cpp:408] conv1_2 -> conv1_2
I0703 21:48:35.869169 12750 net.cpp:150] Setting up conv1_2
I0703 21:48:35.869201 12750 net.cpp:157] Top shape: 4 64 768 768 (150994944)
I0703 21:48:35.869206 12750 net.cpp:165] Memory required for data: 1969943040
I0703 21:48:35.869222 12750 layer_factory.hpp:77] Creating layer relu1_2
I0703 21:48:35.869237 12750 net.cpp:100] Creating Layer relu1_2
I0703 21:48:35.869246 12750 net.cpp:434] relu1_2 <- conv1_2
I0703 21:48:35.869266 12750 net.cpp:395] relu1_2 -> conv1_2 (in-place)
I0703 21:48:35.869534 12750 net.cpp:150] Setting up relu1_2
I0703 21:48:35.869549 12750 net.cpp:157] Top shape: 4 64 768 768 (150994944)
I0703 21:48:35.869555 12750 net.cpp:165] Memory required for data: 2573922816
I0703 21:48:35.869562 12750 layer_factory.hpp:77] Creating layer pool1
I0703 21:48:35.869573 12750 net.cpp:100] Creating Layer pool1
I0703 21:48:35.869587 12750 net.cpp:434] pool1 <- conv1_2
I0703 21:48:35.869598 12750 net.cpp:408] pool1 -> pool1
I0703 21:48:35.869684 12750 net.cpp:150] Setting up pool1
I0703 21:48:35.869695 12750 net.cpp:157] Top shape: 4 64 384 384 (37748736)
I0703 21:48:35.869700 12750 net.cpp:165] Memory required for data: 2724917760
I0703 21:48:35.869706 12750 layer_factory.hpp:77] Creating layer ch4_pool1
I0703 21:48:35.869716 12750 net.cpp:100] Creating Layer ch4_pool1
I0703 21:48:35.869724 12750 net.cpp:434] ch4_pool1 <- ch4_2cls
I0703 21:48:35.869735 12750 net.cpp:408] ch4_pool1 -> ch4_pool1
I0703 21:48:35.869789 12750 net.cpp:150] Setting up ch4_pool1
I0703 21:48:35.869801 12750 net.cpp:157] Top shape: 4 2 384 384 (1179648)
I0703 21:48:35.869807 12750 net.cpp:165] Memory required for data: 2729636352
I0703 21:48:35.869812 12750 layer_factory.hpp:77] Creating layer ch4_pool1_ch4_pool1_0_split
I0703 21:48:35.869822 12750 net.cpp:100] Creating Layer ch4_pool1_ch4_pool1_0_split
I0703 21:48:35.869828 12750 net.cpp:434] ch4_pool1_ch4_pool1_0_split <- ch4_pool1
I0703 21:48:35.869837 12750 net.cpp:408] ch4_pool1_ch4_pool1_0_split -> ch4_pool1_ch4_pool1_0_split_0
I0703 21:48:35.869848 12750 net.cpp:408] ch4_pool1_ch4_pool1_0_split -> ch4_pool1_ch4_pool1_0_split_1
I0703 21:48:35.869895 12750 net.cpp:150] Setting up ch4_pool1_ch4_pool1_0_split
I0703 21:48:35.869906 12750 net.cpp:157] Top shape: 4 2 384 384 (1179648)
I0703 21:48:35.869915 12750 net.cpp:157] Top shape: 4 2 384 384 (1179648)
I0703 21:48:35.869920 12750 net.cpp:165] Memory required for data: 2739073536
I0703 21:48:35.869925 12750 layer_factory.hpp:77] Creating layer pool1_concat
I0703 21:48:35.869937 12750 net.cpp:100] Creating Layer pool1_concat
I0703 21:48:35.869943 12750 net.cpp:434] pool1_concat <- pool1
I0703 21:48:35.869951 12750 net.cpp:434] pool1_concat <- ch4_pool1_ch4_pool1_0_split_0
I0703 21:48:35.869959 12750 net.cpp:408] pool1_concat -> pool1_new
I0703 21:48:35.869994 12750 net.cpp:150] Setting up pool1_concat
I0703 21:48:35.870005 12750 net.cpp:157] Top shape: 4 66 384 384 (38928384)
I0703 21:48:35.870010 12750 net.cpp:165] Memory required for data: 2894787072
I0703 21:48:35.870018 12750 layer_factory.hpp:77] Creating layer conv2_1_new
I0703 21:48:35.870031 12750 net.cpp:100] Creating Layer conv2_1_new
I0703 21:48:35.870038 12750 net.cpp:434] conv2_1_new <- pool1_new
I0703 21:48:35.870049 12750 net.cpp:408] conv2_1_new -> conv2_1
I0703 21:48:35.872746 12750 net.cpp:150] Setting up conv2_1_new
I0703 21:48:35.872774 12750 net.cpp:157] Top shape: 4 128 384 384 (75497472)
I0703 21:48:35.872781 12750 net.cpp:165] Memory required for data: 3196776960
I0703 21:48:35.872802 12750 layer_factory.hpp:77] Creating layer relu2_1
I0703 21:48:35.872818 12750 net.cpp:100] Creating Layer relu2_1
I0703 21:48:35.872829 12750 net.cpp:434] relu2_1 <- conv2_1
I0703 21:48:35.872840 12750 net.cpp:395] relu2_1 -> conv2_1 (in-place)
I0703 21:48:35.873385 12750 net.cpp:150] Setting up relu2_1
I0703 21:48:35.873402 12750 net.cpp:157] Top shape: 4 128 384 384 (75497472)
I0703 21:48:35.873409 12750 net.cpp:165] Memory required for data: 3498766848
I0703 21:48:35.873414 12750 layer_factory.hpp:77] Creating layer conv2_2
I0703 21:48:35.873430 12750 net.cpp:100] Creating Layer conv2_2
I0703 21:48:35.873450 12750 net.cpp:434] conv2_2 <- conv2_1
I0703 21:48:35.873461 12750 net.cpp:408] conv2_2 -> conv2_2
I0703 21:48:35.875000 12750 net.cpp:150] Setting up conv2_2
I0703 21:48:35.875028 12750 net.cpp:157] Top shape: 4 128 384 384 (75497472)
I0703 21:48:35.875036 12750 net.cpp:165] Memory required for data: 3800756736
I0703 21:48:35.875051 12750 layer_factory.hpp:77] Creating layer relu2_2
I0703 21:48:35.875067 12750 net.cpp:100] Creating Layer relu2_2
I0703 21:48:35.875077 12750 net.cpp:434] relu2_2 <- conv2_2
I0703 21:48:35.875088 12750 net.cpp:395] relu2_2 -> conv2_2 (in-place)
I0703 21:48:35.875641 12750 net.cpp:150] Setting up relu2_2
I0703 21:48:35.875659 12750 net.cpp:157] Top shape: 4 128 384 384 (75497472)
I0703 21:48:35.875666 12750 net.cpp:165] Memory required for data: 4102746624
I0703 21:48:35.875674 12750 layer_factory.hpp:77] Creating layer pool2
I0703 21:48:35.875689 12750 net.cpp:100] Creating Layer pool2
I0703 21:48:35.875699 12750 net.cpp:434] pool2 <- conv2_2
I0703 21:48:35.875711 12750 net.cpp:408] pool2 -> pool2
I0703 21:48:35.875771 12750 net.cpp:150] Setting up pool2
I0703 21:48:35.875783 12750 net.cpp:157] Top shape: 4 128 192 192 (18874368)
I0703 21:48:35.875790 12750 net.cpp:165] Memory required for data: 4178244096
I0703 21:48:35.875798 12750 layer_factory.hpp:77] Creating layer ch4_pool2
I0703 21:48:35.875809 12750 net.cpp:100] Creating Layer ch4_pool2
I0703 21:48:35.875818 12750 net.cpp:434] ch4_pool2 <- ch4_pool1_ch4_pool1_0_split_1
I0703 21:48:35.875833 12750 net.cpp:408] ch4_pool2 -> ch4_pool2
I0703 21:48:35.875885 12750 net.cpp:150] Setting up ch4_pool2
I0703 21:48:35.875896 12750 net.cpp:157] Top shape: 4 2 192 192 (294912)
I0703 21:48:35.875903 12750 net.cpp:165] Memory required for data: 4179423744
I0703 21:48:35.875911 12750 layer_factory.hpp:77] Creating layer ch4_pool2_ch4_pool2_0_split
I0703 21:48:35.875924 12750 net.cpp:100] Creating Layer ch4_pool2_ch4_pool2_0_split
I0703 21:48:35.875932 12750 net.cpp:434] ch4_pool2_ch4_pool2_0_split <- ch4_pool2
I0703 21:48:35.875944 12750 net.cpp:408] ch4_pool2_ch4_pool2_0_split -> ch4_pool2_ch4_pool2_0_split_0
I0703 21:48:35.875960 12750 net.cpp:408] ch4_pool2_ch4_pool2_0_split -> ch4_pool2_ch4_pool2_0_split_1
I0703 21:48:35.876016 12750 net.cpp:150] Setting up ch4_pool2_ch4_pool2_0_split
I0703 21:48:35.876029 12750 net.cpp:157] Top shape: 4 2 192 192 (294912)
I0703 21:48:35.876037 12750 net.cpp:157] Top shape: 4 2 192 192 (294912)
I0703 21:48:35.876046 12750 net.cpp:165] Memory required for data: 4181783040
I0703 21:48:35.876054 12750 layer_factory.hpp:77] Creating layer pool2_concat
I0703 21:48:35.876065 12750 net.cpp:100] Creating Layer pool2_concat
I0703 21:48:35.876073 12750 net.cpp:434] pool2_concat <- pool2
I0703 21:48:35.876083 12750 net.cpp:434] pool2_concat <- ch4_pool2_ch4_pool2_0_split_0
I0703 21:48:35.876096 12750 net.cpp:408] pool2_concat -> pool2_new
I0703 21:48:35.876135 12750 net.cpp:150] Setting up pool2_concat
I0703 21:48:35.876148 12750 net.cpp:157] Top shape: 4 130 192 192 (19169280)
I0703 21:48:35.876157 12750 net.cpp:165] Memory required for data: 4258460160
I0703 21:48:35.876163 12750 layer_factory.hpp:77] Creating layer conv3_1_new
I0703 21:48:35.876181 12750 net.cpp:100] Creating Layer conv3_1_new
I0703 21:48:35.876189 12750 net.cpp:434] conv3_1_new <- pool2_new
I0703 21:48:35.876201 12750 net.cpp:408] conv3_1_new -> conv3_1
I0703 21:48:35.879384 12750 net.cpp:150] Setting up conv3_1_new
I0703 21:48:35.879406 12750 net.cpp:157] Top shape: 4 256 192 192 (37748736)
I0703 21:48:35.879413 12750 net.cpp:165] Memory required for data: 4409455104
I0703 21:48:35.879436 12750 layer_factory.hpp:77] Creating layer relu3_1
I0703 21:48:35.879449 12750 net.cpp:100] Creating Layer relu3_1
I0703 21:48:35.879457 12750 net.cpp:434] relu3_1 <- conv3_1
I0703 21:48:35.879468 12750 net.cpp:395] relu3_1 -> conv3_1 (in-place)
I0703 21:48:35.879678 12750 net.cpp:150] Setting up relu3_1
I0703 21:48:35.879691 12750 net.cpp:157] Top shape: 4 256 192 192 (37748736)
I0703 21:48:35.879698 12750 net.cpp:165] Memory required for data: 4560450048
I0703 21:48:35.879703 12750 layer_factory.hpp:77] Creating layer conv3_2
I0703 21:48:35.879721 12750 net.cpp:100] Creating Layer conv3_2
I0703 21:48:35.879729 12750 net.cpp:434] conv3_2 <- conv3_1
I0703 21:48:35.879739 12750 net.cpp:408] conv3_2 -> conv3_2
I0703 21:48:35.882310 12750 net.cpp:150] Setting up conv3_2
I0703 21:48:35.882328 12750 net.cpp:157] Top shape: 4 256 192 192 (37748736)
I0703 21:48:35.882334 12750 net.cpp:165] Memory required for data: 4711444992
I0703 21:48:35.882346 12750 layer_factory.hpp:77] Creating layer relu3_2
I0703 21:48:35.882359 12750 net.cpp:100] Creating Layer relu3_2
I0703 21:48:35.882366 12750 net.cpp:434] relu3_2 <- conv3_2
I0703 21:48:35.882375 12750 net.cpp:395] relu3_2 -> conv3_2 (in-place)
I0703 21:48:35.882541 12750 net.cpp:150] Setting up relu3_2
I0703 21:48:35.882553 12750 net.cpp:157] Top shape: 4 256 192 192 (37748736)
I0703 21:48:35.882558 12750 net.cpp:165] Memory required for data: 4862439936
I0703 21:48:35.882562 12750 layer_factory.hpp:77] Creating layer conv3_3
I0703 21:48:35.882573 12750 net.cpp:100] Creating Layer conv3_3
I0703 21:48:35.882580 12750 net.cpp:434] conv3_3 <- conv3_2
I0703 21:48:35.882588 12750 net.cpp:408] conv3_3 -> conv3_3
I0703 21:48:35.885054 12750 net.cpp:150] Setting up conv3_3
I0703 21:48:35.885071 12750 net.cpp:157] Top shape: 4 256 192 192 (37748736)
I0703 21:48:35.885076 12750 net.cpp:165] Memory required for data: 5013434880
I0703 21:48:35.885085 12750 layer_factory.hpp:77] Creating layer relu3_3
I0703 21:48:35.885099 12750 net.cpp:100] Creating Layer relu3_3
I0703 21:48:35.885107 12750 net.cpp:434] relu3_3 <- conv3_3
I0703 21:48:35.885114 12750 net.cpp:395] relu3_3 -> conv3_3 (in-place)
I0703 21:48:35.885284 12750 net.cpp:150] Setting up relu3_3
I0703 21:48:35.885298 12750 net.cpp:157] Top shape: 4 256 192 192 (37748736)
I0703 21:48:35.885303 12750 net.cpp:165] Memory required for data: 5164429824
I0703 21:48:35.885308 12750 layer_factory.hpp:77] Creating layer pool3
I0703 21:48:35.885315 12750 net.cpp:100] Creating Layer pool3
I0703 21:48:35.885321 12750 net.cpp:434] pool3 <- conv3_3
I0703 21:48:35.885329 12750 net.cpp:408] pool3 -> pool3
I0703 21:48:35.885372 12750 net.cpp:150] Setting up pool3
I0703 21:48:35.885381 12750 net.cpp:157] Top shape: 4 256 96 96 (9437184)
I0703 21:48:35.885386 12750 net.cpp:165] Memory required for data: 5202178560
I0703 21:48:35.885390 12750 layer_factory.hpp:77] Creating layer ch4_pool3
I0703 21:48:35.885399 12750 net.cpp:100] Creating Layer ch4_pool3
I0703 21:48:35.885406 12750 net.cpp:434] ch4_pool3 <- ch4_pool2_ch4_pool2_0_split_1
I0703 21:48:35.885413 12750 net.cpp:408] ch4_pool3 -> ch4_pool3
I0703 21:48:35.885452 12750 net.cpp:150] Setting up ch4_pool3
I0703 21:48:35.885460 12750 net.cpp:157] Top shape: 4 2 96 96 (73728)
I0703 21:48:35.885464 12750 net.cpp:165] Memory required for data: 5202473472
I0703 21:48:35.885469 12750 layer_factory.hpp:77] Creating layer pool3_concat
I0703 21:48:35.885476 12750 net.cpp:100] Creating Layer pool3_concat
I0703 21:48:35.885481 12750 net.cpp:434] pool3_concat <- pool3
I0703 21:48:35.885488 12750 net.cpp:434] pool3_concat <- ch4_pool3
I0703 21:48:35.885495 12750 net.cpp:408] pool3_concat -> pool3_new
I0703 21:48:35.885522 12750 net.cpp:150] Setting up pool3_concat
I0703 21:48:35.885530 12750 net.cpp:157] Top shape: 4 258 96 96 (9510912)
I0703 21:48:35.885535 12750 net.cpp:165] Memory required for data: 5240517120
I0703 21:48:35.885540 12750 layer_factory.hpp:77] Creating layer conv4_1_new
I0703 21:48:35.885550 12750 net.cpp:100] Creating Layer conv4_1_new
I0703 21:48:35.885557 12750 net.cpp:434] conv4_1_new <- pool3_new
I0703 21:48:35.885565 12750 net.cpp:408] conv4_1_new -> conv4_1
I0703 21:48:35.892467 12750 net.cpp:150] Setting up conv4_1_new
I0703 21:48:35.892513 12750 net.cpp:157] Top shape: 4 512 96 96 (18874368)
I0703 21:48:35.892522 12750 net.cpp:165] Memory required for data: 5316014592
I0703 21:48:35.892537 12750 layer_factory.hpp:77] Creating layer relu4_1
I0703 21:48:35.892562 12750 net.cpp:100] Creating Layer relu4_1
I0703 21:48:35.892575 12750 net.cpp:434] relu4_1 <- conv4_1
I0703 21:48:35.892587 12750 net.cpp:395] relu4_1 -> conv4_1 (in-place)
I0703 21:48:35.892755 12750 net.cpp:150] Setting up relu4_1
I0703 21:48:35.892765 12750 net.cpp:157] Top shape: 4 512 96 96 (18874368)
I0703 21:48:35.892771 12750 net.cpp:165] Memory required for data: 5391512064
I0703 21:48:35.892774 12750 layer_factory.hpp:77] Creating layer conv4_2
I0703 21:48:35.892788 12750 net.cpp:100] Creating Layer conv4_2
I0703 21:48:35.892796 12750 net.cpp:434] conv4_2 <- conv4_1
I0703 21:48:35.892802 12750 net.cpp:408] conv4_2 -> conv4_2
I0703 21:48:35.899142 12750 net.cpp:150] Setting up conv4_2
I0703 21:48:35.899173 12750 net.cpp:157] Top shape: 4 512 96 96 (18874368)
I0703 21:48:35.899183 12750 net.cpp:165] Memory required for data: 5467009536
I0703 21:48:35.899201 12750 layer_factory.hpp:77] Creating layer relu4_2
I0703 21:48:35.899215 12750 net.cpp:100] Creating Layer relu4_2
I0703 21:48:35.899224 12750 net.cpp:434] relu4_2 <- conv4_2
I0703 21:48:35.899235 12750 net.cpp:395] relu4_2 -> conv4_2 (in-place)
I0703 21:48:35.899682 12750 net.cpp:150] Setting up relu4_2
I0703 21:48:35.899695 12750 net.cpp:157] Top shape: 4 512 96 96 (18874368)
I0703 21:48:35.899700 12750 net.cpp:165] Memory required for data: 5542507008
I0703 21:48:35.899705 12750 layer_factory.hpp:77] Creating layer conv4_3
I0703 21:48:35.899718 12750 net.cpp:100] Creating Layer conv4_3
I0703 21:48:35.899725 12750 net.cpp:434] conv4_3 <- conv4_2
I0703 21:48:35.899732 12750 net.cpp:408] conv4_3 -> conv4_3
I0703 21:48:35.909149 12750 net.cpp:150] Setting up conv4_3
I0703 21:48:35.909191 12750 net.cpp:157] Top shape: 4 512 96 96 (18874368)
I0703 21:48:35.909198 12750 net.cpp:165] Memory required for data: 5618004480
I0703 21:48:35.909209 12750 layer_factory.hpp:77] Creating layer relu4_3
I0703 21:48:35.909226 12750 net.cpp:100] Creating Layer relu4_3
I0703 21:48:35.909235 12750 net.cpp:434] relu4_3 <- conv4_3
I0703 21:48:35.909242 12750 net.cpp:395] relu4_3 -> conv4_3 (in-place)
I0703 21:48:35.909847 12750 net.cpp:150] Setting up relu4_3
I0703 21:48:35.909860 12750 net.cpp:157] Top shape: 4 512 96 96 (18874368)
I0703 21:48:35.909865 12750 net.cpp:165] Memory required for data: 5693501952
I0703 21:48:35.909870 12750 layer_factory.hpp:77] Creating layer conv4_3_relu4_3_0_split
I0703 21:48:35.909878 12750 net.cpp:100] Creating Layer conv4_3_relu4_3_0_split
I0703 21:48:35.909884 12750 net.cpp:434] conv4_3_relu4_3_0_split <- conv4_3
I0703 21:48:35.909893 12750 net.cpp:408] conv4_3_relu4_3_0_split -> conv4_3_relu4_3_0_split_0
I0703 21:48:35.909905 12750 net.cpp:408] conv4_3_relu4_3_0_split -> conv4_3_relu4_3_0_split_1
I0703 21:48:35.909950 12750 net.cpp:150] Setting up conv4_3_relu4_3_0_split
I0703 21:48:35.909958 12750 net.cpp:157] Top shape: 4 512 96 96 (18874368)
I0703 21:48:35.909965 12750 net.cpp:157] Top shape: 4 512 96 96 (18874368)
I0703 21:48:35.909968 12750 net.cpp:165] Memory required for data: 5844496896
I0703 21:48:35.909973 12750 layer_factory.hpp:77] Creating layer loss1_conv1
I0703 21:48:35.909987 12750 net.cpp:100] Creating Layer loss1_conv1
I0703 21:48:35.909994 12750 net.cpp:434] loss1_conv1 <- conv4_3_relu4_3_0_split_0
I0703 21:48:35.910006 12750 net.cpp:408] loss1_conv1 -> loss1_conv1
I0703 21:48:35.972851 12750 net.cpp:150] Setting up loss1_conv1
I0703 21:48:35.972879 12750 net.cpp:157] Top shape: 4 512 96 96 (18874368)
I0703 21:48:35.972885 12750 net.cpp:165] Memory required for data: 5919994368
I0703 21:48:35.972898 12750 layer_factory.hpp:77] Creating layer loss_relu1
I0703 21:48:35.972911 12750 net.cpp:100] Creating Layer loss_relu1
I0703 21:48:35.972921 12750 net.cpp:434] loss_relu1 <- loss1_conv1
I0703 21:48:35.972932 12750 net.cpp:395] loss_relu1 -> loss1_conv1 (in-place)
I0703 21:48:35.973100 12750 net.cpp:150] Setting up loss_relu1
I0703 21:48:35.973112 12750 net.cpp:157] Top shape: 4 512 96 96 (18874368)
I0703 21:48:35.973117 12750 net.cpp:165] Memory required for data: 5995491840
I0703 21:48:35.973122 12750 layer_factory.hpp:77] Creating layer loss1_conv1_loss_relu1_0_split
I0703 21:48:35.973129 12750 net.cpp:100] Creating Layer loss1_conv1_loss_relu1_0_split
I0703 21:48:35.973134 12750 net.cpp:434] loss1_conv1_loss_relu1_0_split <- loss1_conv1
I0703 21:48:35.973141 12750 net.cpp:408] loss1_conv1_loss_relu1_0_split -> loss1_conv1_loss_relu1_0_split_0
I0703 21:48:35.973152 12750 net.cpp:408] loss1_conv1_loss_relu1_0_split -> loss1_conv1_loss_relu1_0_split_1
I0703 21:48:35.973194 12750 net.cpp:150] Setting up loss1_conv1_loss_relu1_0_split
I0703 21:48:35.973203 12750 net.cpp:157] Top shape: 4 512 96 96 (18874368)
I0703 21:48:35.973209 12750 net.cpp:157] Top shape: 4 512 96 96 (18874368)
I0703 21:48:35.973214 12750 net.cpp:165] Memory required for data: 6146486784
I0703 21:48:35.973219 12750 layer_factory.hpp:77] Creating layer LFCN_1_5x5
I0703 21:48:35.973233 12750 net.cpp:100] Creating Layer LFCN_1_5x5
I0703 21:48:35.973240 12750 net.cpp:434] LFCN_1_5x5 <- loss1_conv1_loss_relu1_0_split_0
I0703 21:48:35.973248 12750 net.cpp:408] LFCN_1_5x5 -> LFCN_1_5x5
I0703 21:48:35.977458 12750 net.cpp:150] Setting up LFCN_1_5x5
I0703 21:48:35.977471 12750 net.cpp:157] Top shape: 4 9 96 96 (331776)
I0703 21:48:35.977475 12750 net.cpp:165] Memory required for data: 6147813888
I0703 21:48:35.977483 12750 layer_factory.hpp:77] Creating layer LFCN_1_5x5_LFCN_1_5x5_0_split
I0703 21:48:35.977490 12750 net.cpp:100] Creating Layer LFCN_1_5x5_LFCN_1_5x5_0_split
I0703 21:48:35.977495 12750 net.cpp:434] LFCN_1_5x5_LFCN_1_5x5_0_split <- LFCN_1_5x5
I0703 21:48:35.977504 12750 net.cpp:408] LFCN_1_5x5_LFCN_1_5x5_0_split -> LFCN_1_5x5_LFCN_1_5x5_0_split_0
I0703 21:48:35.977512 12750 net.cpp:408] LFCN_1_5x5_LFCN_1_5x5_0_split -> LFCN_1_5x5_LFCN_1_5x5_0_split_1
I0703 21:48:35.977547 12750 net.cpp:150] Setting up LFCN_1_5x5_LFCN_1_5x5_0_split
I0703 21:48:35.977555 12750 net.cpp:157] Top shape: 4 9 96 96 (331776)
I0703 21:48:35.977560 12750 net.cpp:157] Top shape: 4 9 96 96 (331776)
I0703 21:48:35.977563 12750 net.cpp:165] Memory required for data: 6150468096
I0703 21:48:35.977567 12750 layer_factory.hpp:77] Creating layer detection_loss_1_5x5
I0703 21:48:35.977577 12750 net.cpp:100] Creating Layer detection_loss_1_5x5
I0703 21:48:35.977582 12750 net.cpp:434] detection_loss_1_5x5 <- LFCN_1_5x5_LFCN_1_5x5_0_split_0
I0703 21:48:35.977588 12750 net.cpp:434] detection_loss_1_5x5 <- label_1_5x5_data_1_split_0
I0703 21:48:35.977596 12750 net.cpp:408] detection_loss_1_5x5 -> loss_1_5x5
I0703 21:48:35.977612 12750 layer_factory.hpp:77] Creating layer detection_loss_1_5x5
I0703 21:48:35.978842 12750 net.cpp:150] Setting up detection_loss_1_5x5
I0703 21:48:35.978857 12750 net.cpp:157] Top shape: 1 1 1 2 (2)
I0703 21:48:35.978860 12750 net.cpp:160]     with loss weight 0.9
I0703 21:48:35.978883 12750 net.cpp:165] Memory required for data: 6150468104
I0703 21:48:35.978901 12750 layer_factory.hpp:77] Creating layer detection_accuracy_1_5x5
I0703 21:48:35.978917 12750 net.cpp:100] Creating Layer detection_accuracy_1_5x5
I0703 21:48:35.978924 12750 net.cpp:434] detection_accuracy_1_5x5 <- LFCN_1_5x5_LFCN_1_5x5_0_split_1
I0703 21:48:35.978929 12750 net.cpp:434] detection_accuracy_1_5x5 <- label_1_5x5_data_1_split_1
I0703 21:48:35.978937 12750 net.cpp:408] detection_accuracy_1_5x5 -> accuracy_1_5x5
I0703 21:48:35.978951 12750 net.cpp:408] detection_accuracy_1_5x5 -> boxiou_1_5x5
I0703 21:48:35.978996 12750 net.cpp:150] Setting up detection_accuracy_1_5x5
I0703 21:48:35.979007 12750 net.cpp:157] Top shape: 1 1 1 2 (2)
I0703 21:48:35.979013 12750 net.cpp:157] Top shape: 1 1 1 1 (1)
I0703 21:48:35.979019 12750 net.cpp:165] Memory required for data: 6150468116
I0703 21:48:35.979023 12750 layer_factory.hpp:77] Creating layer LFCN_1_7x7
I0703 21:48:35.979037 12750 net.cpp:100] Creating Layer LFCN_1_7x7
I0703 21:48:35.979043 12750 net.cpp:434] LFCN_1_7x7 <- loss1_conv1_loss_relu1_0_split_1
I0703 21:48:35.979050 12750 net.cpp:408] LFCN_1_7x7 -> LFCN_1_7x7
I0703 21:48:35.986784 12750 net.cpp:150] Setting up LFCN_1_7x7
I0703 21:48:35.986822 12750 net.cpp:157] Top shape: 4 9 96 96 (331776)
I0703 21:48:35.986829 12750 net.cpp:165] Memory required for data: 6151795220
I0703 21:48:35.986840 12750 layer_factory.hpp:77] Creating layer LFCN_1_7x7_LFCN_1_7x7_0_split
I0703 21:48:35.986853 12750 net.cpp:100] Creating Layer LFCN_1_7x7_LFCN_1_7x7_0_split
I0703 21:48:35.986860 12750 net.cpp:434] LFCN_1_7x7_LFCN_1_7x7_0_split <- LFCN_1_7x7
I0703 21:48:35.986869 12750 net.cpp:408] LFCN_1_7x7_LFCN_1_7x7_0_split -> LFCN_1_7x7_LFCN_1_7x7_0_split_0
I0703 21:48:35.986913 12750 net.cpp:408] LFCN_1_7x7_LFCN_1_7x7_0_split -> LFCN_1_7x7_LFCN_1_7x7_0_split_1
I0703 21:48:35.986971 12750 net.cpp:150] Setting up LFCN_1_7x7_LFCN_1_7x7_0_split
I0703 21:48:35.986982 12750 net.cpp:157] Top shape: 4 9 96 96 (331776)
I0703 21:48:35.986989 12750 net.cpp:157] Top shape: 4 9 96 96 (331776)
I0703 21:48:35.986994 12750 net.cpp:165] Memory required for data: 6154449428
I0703 21:48:35.986997 12750 layer_factory.hpp:77] Creating layer detection_loss_1_7x7
I0703 21:48:35.987012 12750 net.cpp:100] Creating Layer detection_loss_1_7x7
I0703 21:48:35.987040 12750 net.cpp:434] detection_loss_1_7x7 <- LFCN_1_7x7_LFCN_1_7x7_0_split_0
I0703 21:48:35.987049 12750 net.cpp:434] detection_loss_1_7x7 <- label_1_7x7_data_2_split_0
I0703 21:48:35.987056 12750 net.cpp:408] detection_loss_1_7x7 -> loss_1_7x7
I0703 21:48:35.987067 12750 layer_factory.hpp:77] Creating layer detection_loss_1_7x7
I0703 21:48:35.989051 12750 net.cpp:150] Setting up detection_loss_1_7x7
I0703 21:48:35.989100 12750 net.cpp:157] Top shape: 1 1 1 2 (2)
I0703 21:48:35.989105 12750 net.cpp:160]     with loss weight 0.9
I0703 21:48:35.989128 12750 net.cpp:165] Memory required for data: 6154449436
I0703 21:48:35.989138 12750 layer_factory.hpp:77] Creating layer detection_accuracy_1_7x7
I0703 21:48:35.989161 12750 net.cpp:100] Creating Layer detection_accuracy_1_7x7
I0703 21:48:35.989171 12750 net.cpp:434] detection_accuracy_1_7x7 <- LFCN_1_7x7_LFCN_1_7x7_0_split_1
I0703 21:48:35.989182 12750 net.cpp:434] detection_accuracy_1_7x7 <- label_1_7x7_data_2_split_1
I0703 21:48:35.989199 12750 net.cpp:408] detection_accuracy_1_7x7 -> accuracy_1_7x7
I0703 21:48:35.989212 12750 net.cpp:408] detection_accuracy_1_7x7 -> boxiou_1_7x7
I0703 21:48:35.989264 12750 net.cpp:150] Setting up detection_accuracy_1_7x7
I0703 21:48:35.989270 12750 net.cpp:157] Top shape: 1 1 1 2 (2)
I0703 21:48:35.989276 12750 net.cpp:157] Top shape: 1 1 1 1 (1)
I0703 21:48:35.989280 12750 net.cpp:165] Memory required for data: 6154449448
I0703 21:48:35.989285 12750 layer_factory.hpp:77] Creating layer pool4
I0703 21:48:35.989295 12750 net.cpp:100] Creating Layer pool4
I0703 21:48:35.989301 12750 net.cpp:434] pool4 <- conv4_3_relu4_3_0_split_1
I0703 21:48:35.989315 12750 net.cpp:408] pool4 -> pool4
I0703 21:48:35.989356 12750 net.cpp:150] Setting up pool4
I0703 21:48:35.989362 12750 net.cpp:157] Top shape: 4 512 48 48 (4718592)
I0703 21:48:35.989367 12750 net.cpp:165] Memory required for data: 6173323816
I0703 21:48:35.989372 12750 layer_factory.hpp:77] Creating layer conv5_1
I0703 21:48:35.989382 12750 net.cpp:100] Creating Layer conv5_1
I0703 21:48:35.989387 12750 net.cpp:434] conv5_1 <- pool4
I0703 21:48:35.989392 12750 net.cpp:408] conv5_1 -> conv5_1
I0703 21:48:35.996079 12750 net.cpp:150] Setting up conv5_1
I0703 21:48:35.996237 12750 net.cpp:157] Top shape: 4 512 48 48 (4718592)
I0703 21:48:35.996249 12750 net.cpp:165] Memory required for data: 6192198184
I0703 21:48:35.996280 12750 layer_factory.hpp:77] Creating layer relu5_1
I0703 21:48:35.996336 12750 net.cpp:100] Creating Layer relu5_1
I0703 21:48:35.996361 12750 net.cpp:434] relu5_1 <- conv5_1
I0703 21:48:35.996397 12750 net.cpp:395] relu5_1 -> conv5_1 (in-place)
I0703 21:48:35.997002 12750 net.cpp:150] Setting up relu5_1
I0703 21:48:35.997068 12750 net.cpp:157] Top shape: 4 512 48 48 (4718592)
I0703 21:48:35.997083 12750 net.cpp:165] Memory required for data: 6211072552
I0703 21:48:35.997092 12750 layer_factory.hpp:77] Creating layer conv5_2
I0703 21:48:35.997139 12750 net.cpp:100] Creating Layer conv5_2
I0703 21:48:35.997157 12750 net.cpp:434] conv5_2 <- conv5_1
I0703 21:48:35.997174 12750 net.cpp:408] conv5_2 -> conv5_2
I0703 21:48:36.011183 12750 net.cpp:150] Setting up conv5_2
I0703 21:48:36.011219 12750 net.cpp:157] Top shape: 4 512 48 48 (4718592)
I0703 21:48:36.011224 12750 net.cpp:165] Memory required for data: 6229946920
I0703 21:48:36.011236 12750 layer_factory.hpp:77] Creating layer relu5_2
I0703 21:48:36.011258 12750 net.cpp:100] Creating Layer relu5_2
I0703 21:48:36.011271 12750 net.cpp:434] relu5_2 <- conv5_2
I0703 21:48:36.011279 12750 net.cpp:395] relu5_2 -> conv5_2 (in-place)
I0703 21:48:36.012132 12750 net.cpp:150] Setting up relu5_2
I0703 21:48:36.012151 12750 net.cpp:157] Top shape: 4 512 48 48 (4718592)
I0703 21:48:36.012156 12750 net.cpp:165] Memory required for data: 6248821288
I0703 21:48:36.012161 12750 layer_factory.hpp:77] Creating layer conv5_3
I0703 21:48:36.012177 12750 net.cpp:100] Creating Layer conv5_3
I0703 21:48:36.012183 12750 net.cpp:434] conv5_3 <- conv5_2
I0703 21:48:36.012190 12750 net.cpp:408] conv5_3 -> conv5_3
I0703 21:48:36.020532 12750 net.cpp:150] Setting up conv5_3
I0703 21:48:36.020576 12750 net.cpp:157] Top shape: 4 512 48 48 (4718592)
I0703 21:48:36.020581 12750 net.cpp:165] Memory required for data: 6267695656
I0703 21:48:36.020593 12750 layer_factory.hpp:77] Creating layer relu5_3
I0703 21:48:36.020606 12750 net.cpp:100] Creating Layer relu5_3
I0703 21:48:36.020613 12750 net.cpp:434] relu5_3 <- conv5_3
I0703 21:48:36.020622 12750 net.cpp:395] relu5_3 -> conv5_3 (in-place)
I0703 21:48:36.021406 12750 net.cpp:150] Setting up relu5_3
I0703 21:48:36.021422 12750 net.cpp:157] Top shape: 4 512 48 48 (4718592)
I0703 21:48:36.021426 12750 net.cpp:165] Memory required for data: 6286570024
I0703 21:48:36.021431 12750 layer_factory.hpp:77] Creating layer conv5_3_relu5_3_0_split
I0703 21:48:36.021447 12750 net.cpp:100] Creating Layer conv5_3_relu5_3_0_split
I0703 21:48:36.021451 12750 net.cpp:434] conv5_3_relu5_3_0_split <- conv5_3
I0703 21:48:36.021461 12750 net.cpp:408] conv5_3_relu5_3_0_split -> conv5_3_relu5_3_0_split_0
I0703 21:48:36.021471 12750 net.cpp:408] conv5_3_relu5_3_0_split -> conv5_3_relu5_3_0_split_1
I0703 21:48:36.021498 12750 net.cpp:408] conv5_3_relu5_3_0_split -> conv5_3_relu5_3_0_split_2
I0703 21:48:36.021586 12750 net.cpp:150] Setting up conv5_3_relu5_3_0_split
I0703 21:48:36.021600 12750 net.cpp:157] Top shape: 4 512 48 48 (4718592)
I0703 21:48:36.021607 12750 net.cpp:157] Top shape: 4 512 48 48 (4718592)
I0703 21:48:36.021617 12750 net.cpp:157] Top shape: 4 512 48 48 (4718592)
I0703 21:48:36.021625 12750 net.cpp:165] Memory required for data: 6343193128
I0703 21:48:36.021633 12750 layer_factory.hpp:77] Creating layer LFCN_2_5x5
I0703 21:48:36.021656 12750 net.cpp:100] Creating Layer LFCN_2_5x5
I0703 21:48:36.021665 12750 net.cpp:434] LFCN_2_5x5 <- conv5_3_relu5_3_0_split_0
I0703 21:48:36.021682 12750 net.cpp:408] LFCN_2_5x5 -> LFCN_2_5x5
I0703 21:48:36.026202 12750 net.cpp:150] Setting up LFCN_2_5x5
I0703 21:48:36.026216 12750 net.cpp:157] Top shape: 4 9 48 48 (82944)
I0703 21:48:36.026221 12750 net.cpp:165] Memory required for data: 6343524904
I0703 21:48:36.026230 12750 layer_factory.hpp:77] Creating layer LFCN_2_5x5_LFCN_2_5x5_0_split
I0703 21:48:36.026237 12750 net.cpp:100] Creating Layer LFCN_2_5x5_LFCN_2_5x5_0_split
I0703 21:48:36.026242 12750 net.cpp:434] LFCN_2_5x5_LFCN_2_5x5_0_split <- LFCN_2_5x5
I0703 21:48:36.026249 12750 net.cpp:408] LFCN_2_5x5_LFCN_2_5x5_0_split -> LFCN_2_5x5_LFCN_2_5x5_0_split_0
I0703 21:48:36.026258 12750 net.cpp:408] LFCN_2_5x5_LFCN_2_5x5_0_split -> LFCN_2_5x5_LFCN_2_5x5_0_split_1
I0703 21:48:36.026305 12750 net.cpp:150] Setting up LFCN_2_5x5_LFCN_2_5x5_0_split
I0703 21:48:36.026314 12750 net.cpp:157] Top shape: 4 9 48 48 (82944)
I0703 21:48:36.026319 12750 net.cpp:157] Top shape: 4 9 48 48 (82944)
I0703 21:48:36.026322 12750 net.cpp:165] Memory required for data: 6344188456
I0703 21:48:36.026326 12750 layer_factory.hpp:77] Creating layer detection_loss_2_5x5
I0703 21:48:36.026335 12750 net.cpp:100] Creating Layer detection_loss_2_5x5
I0703 21:48:36.026341 12750 net.cpp:434] detection_loss_2_5x5 <- LFCN_2_5x5_LFCN_2_5x5_0_split_0
I0703 21:48:36.026347 12750 net.cpp:434] detection_loss_2_5x5 <- label_2_5x5_data_3_split_0
I0703 21:48:36.026358 12750 net.cpp:408] detection_loss_2_5x5 -> loss_2_5x5
I0703 21:48:36.026371 12750 layer_factory.hpp:77] Creating layer detection_loss_2_5x5
I0703 21:48:36.027567 12750 net.cpp:150] Setting up detection_loss_2_5x5
I0703 21:48:36.027580 12750 net.cpp:157] Top shape: 1 1 1 2 (2)
I0703 21:48:36.027583 12750 net.cpp:160]     with loss weight 1
I0703 21:48:36.027595 12750 net.cpp:165] Memory required for data: 6344188464
I0703 21:48:36.027599 12750 layer_factory.hpp:77] Creating layer detection_accuracy_2_5x5
I0703 21:48:36.027607 12750 net.cpp:100] Creating Layer detection_accuracy_2_5x5
I0703 21:48:36.027611 12750 net.cpp:434] detection_accuracy_2_5x5 <- LFCN_2_5x5_LFCN_2_5x5_0_split_1
I0703 21:48:36.027618 12750 net.cpp:434] detection_accuracy_2_5x5 <- label_2_5x5_data_3_split_1
I0703 21:48:36.027624 12750 net.cpp:408] detection_accuracy_2_5x5 -> accuracy_2_5x5
I0703 21:48:36.027632 12750 net.cpp:408] detection_accuracy_2_5x5 -> boxiou_2_5x5
I0703 21:48:36.027668 12750 net.cpp:150] Setting up detection_accuracy_2_5x5
I0703 21:48:36.027674 12750 net.cpp:157] Top shape: 1 1 1 2 (2)
I0703 21:48:36.027678 12750 net.cpp:157] Top shape: 1 1 1 1 (1)
I0703 21:48:36.027681 12750 net.cpp:165] Memory required for data: 6344188476
I0703 21:48:36.027684 12750 layer_factory.hpp:77] Creating layer LFCN_2_7x7
I0703 21:48:36.027694 12750 net.cpp:100] Creating Layer LFCN_2_7x7
I0703 21:48:36.027700 12750 net.cpp:434] LFCN_2_7x7 <- conv5_3_relu5_3_0_split_1
I0703 21:48:36.027705 12750 net.cpp:408] LFCN_2_7x7 -> LFCN_2_7x7
I0703 21:48:36.035010 12750 net.cpp:150] Setting up LFCN_2_7x7
I0703 21:48:36.035029 12750 net.cpp:157] Top shape: 4 9 48 48 (82944)
I0703 21:48:36.035034 12750 net.cpp:165] Memory required for data: 6344520252
I0703 21:48:36.035044 12750 layer_factory.hpp:77] Creating layer LFCN_2_7x7_LFCN_2_7x7_0_split
I0703 21:48:36.035054 12750 net.cpp:100] Creating Layer LFCN_2_7x7_LFCN_2_7x7_0_split
I0703 21:48:36.035059 12750 net.cpp:434] LFCN_2_7x7_LFCN_2_7x7_0_split <- LFCN_2_7x7
I0703 21:48:36.035066 12750 net.cpp:408] LFCN_2_7x7_LFCN_2_7x7_0_split -> LFCN_2_7x7_LFCN_2_7x7_0_split_0
I0703 21:48:36.035097 12750 net.cpp:408] LFCN_2_7x7_LFCN_2_7x7_0_split -> LFCN_2_7x7_LFCN_2_7x7_0_split_1
I0703 21:48:36.035149 12750 net.cpp:150] Setting up LFCN_2_7x7_LFCN_2_7x7_0_split
I0703 21:48:36.035161 12750 net.cpp:157] Top shape: 4 9 48 48 (82944)
I0703 21:48:36.035169 12750 net.cpp:157] Top shape: 4 9 48 48 (82944)
I0703 21:48:36.035177 12750 net.cpp:165] Memory required for data: 6345183804
I0703 21:48:36.035181 12750 layer_factory.hpp:77] Creating layer detection_loss_2_7x7
I0703 21:48:36.035194 12750 net.cpp:100] Creating Layer detection_loss_2_7x7
I0703 21:48:36.035200 12750 net.cpp:434] detection_loss_2_7x7 <- LFCN_2_7x7_LFCN_2_7x7_0_split_0
I0703 21:48:36.035207 12750 net.cpp:434] detection_loss_2_7x7 <- label_2_7x7_data_4_split_0
I0703 21:48:36.035217 12750 net.cpp:408] detection_loss_2_7x7 -> loss_2_7x7
I0703 21:48:36.035228 12750 layer_factory.hpp:77] Creating layer detection_loss_2_7x7
I0703 21:48:36.035682 12750 net.cpp:150] Setting up detection_loss_2_7x7
I0703 21:48:36.035697 12750 net.cpp:157] Top shape: 1 1 1 2 (2)
I0703 21:48:36.035704 12750 net.cpp:160]     with loss weight 1
I0703 21:48:36.035714 12750 net.cpp:165] Memory required for data: 6345183812
I0703 21:48:36.035719 12750 layer_factory.hpp:77] Creating layer detection_accuracy_2_7x7
I0703 21:48:36.035729 12750 net.cpp:100] Creating Layer detection_accuracy_2_7x7
I0703 21:48:36.035737 12750 net.cpp:434] detection_accuracy_2_7x7 <- LFCN_2_7x7_LFCN_2_7x7_0_split_1
I0703 21:48:36.035743 12750 net.cpp:434] detection_accuracy_2_7x7 <- label_2_7x7_data_4_split_1
I0703 21:48:36.035753 12750 net.cpp:408] detection_accuracy_2_7x7 -> accuracy_2_7x7
I0703 21:48:36.035763 12750 net.cpp:408] detection_accuracy_2_7x7 -> boxiou_2_7x7
I0703 21:48:36.035817 12750 net.cpp:150] Setting up detection_accuracy_2_7x7
I0703 21:48:36.035827 12750 net.cpp:157] Top shape: 1 1 1 2 (2)
I0703 21:48:36.035835 12750 net.cpp:157] Top shape: 1 1 1 1 (1)
I0703 21:48:36.035840 12750 net.cpp:165] Memory required for data: 6345183824
I0703 21:48:36.035845 12750 layer_factory.hpp:77] Creating layer pool5
I0703 21:48:36.035856 12750 net.cpp:100] Creating Layer pool5
I0703 21:48:36.035862 12750 net.cpp:434] pool5 <- conv5_3_relu5_3_0_split_2
I0703 21:48:36.035871 12750 net.cpp:408] pool5 -> pool5
I0703 21:48:36.035919 12750 net.cpp:150] Setting up pool5
I0703 21:48:36.035929 12750 net.cpp:157] Top shape: 4 512 24 24 (1179648)
I0703 21:48:36.035935 12750 net.cpp:165] Memory required for data: 6349902416
I0703 21:48:36.035939 12750 layer_factory.hpp:77] Creating layer conv6_1
I0703 21:48:36.035953 12750 net.cpp:100] Creating Layer conv6_1
I0703 21:48:36.035960 12750 net.cpp:434] conv6_1 <- pool5
I0703 21:48:36.035969 12750 net.cpp:408] conv6_1 -> conv6_1
I0703 21:48:36.099546 12750 net.cpp:150] Setting up conv6_1
I0703 21:48:36.099581 12750 net.cpp:157] Top shape: 4 512 24 24 (1179648)
I0703 21:48:36.099584 12750 net.cpp:165] Memory required for data: 6354621008
I0703 21:48:36.099596 12750 layer_factory.hpp:77] Creating layer relu6_1
I0703 21:48:36.099609 12750 net.cpp:100] Creating Layer relu6_1
I0703 21:48:36.099624 12750 net.cpp:434] relu6_1 <- conv6_1
I0703 21:48:36.099632 12750 net.cpp:395] relu6_1 -> conv6_1 (in-place)
I0703 21:48:36.099817 12750 net.cpp:150] Setting up relu6_1
I0703 21:48:36.099826 12750 net.cpp:157] Top shape: 4 512 24 24 (1179648)
I0703 21:48:36.099830 12750 net.cpp:165] Memory required for data: 6359339600
I0703 21:48:36.099833 12750 layer_factory.hpp:77] Creating layer conv6_1_relu6_1_0_split
I0703 21:48:36.099841 12750 net.cpp:100] Creating Layer conv6_1_relu6_1_0_split
I0703 21:48:36.099846 12750 net.cpp:434] conv6_1_relu6_1_0_split <- conv6_1
I0703 21:48:36.099853 12750 net.cpp:408] conv6_1_relu6_1_0_split -> conv6_1_relu6_1_0_split_0
I0703 21:48:36.099864 12750 net.cpp:408] conv6_1_relu6_1_0_split -> conv6_1_relu6_1_0_split_1
I0703 21:48:36.099872 12750 net.cpp:408] conv6_1_relu6_1_0_split -> conv6_1_relu6_1_0_split_2
I0703 21:48:36.099932 12750 net.cpp:150] Setting up conv6_1_relu6_1_0_split
I0703 21:48:36.099941 12750 net.cpp:157] Top shape: 4 512 24 24 (1179648)
I0703 21:48:36.099944 12750 net.cpp:157] Top shape: 4 512 24 24 (1179648)
I0703 21:48:36.099949 12750 net.cpp:157] Top shape: 4 512 24 24 (1179648)
I0703 21:48:36.099953 12750 net.cpp:165] Memory required for data: 6373495376
I0703 21:48:36.099958 12750 layer_factory.hpp:77] Creating layer LFCN_3_5x5
I0703 21:48:36.099974 12750 net.cpp:100] Creating Layer LFCN_3_5x5
I0703 21:48:36.099982 12750 net.cpp:434] LFCN_3_5x5 <- conv6_1_relu6_1_0_split_0
I0703 21:48:36.099992 12750 net.cpp:408] LFCN_3_5x5 -> LFCN_3_5x5
I0703 21:48:36.104013 12750 net.cpp:150] Setting up LFCN_3_5x5
I0703 21:48:36.104027 12750 net.cpp:157] Top shape: 4 9 24 24 (20736)
I0703 21:48:36.104029 12750 net.cpp:165] Memory required for data: 6373578320
I0703 21:48:36.104035 12750 layer_factory.hpp:77] Creating layer LFCN_3_5x5_LFCN_3_5x5_0_split
I0703 21:48:36.104040 12750 net.cpp:100] Creating Layer LFCN_3_5x5_LFCN_3_5x5_0_split
I0703 21:48:36.104045 12750 net.cpp:434] LFCN_3_5x5_LFCN_3_5x5_0_split <- LFCN_3_5x5
I0703 21:48:36.104050 12750 net.cpp:408] LFCN_3_5x5_LFCN_3_5x5_0_split -> LFCN_3_5x5_LFCN_3_5x5_0_split_0
I0703 21:48:36.104058 12750 net.cpp:408] LFCN_3_5x5_LFCN_3_5x5_0_split -> LFCN_3_5x5_LFCN_3_5x5_0_split_1
I0703 21:48:36.104094 12750 net.cpp:150] Setting up LFCN_3_5x5_LFCN_3_5x5_0_split
I0703 21:48:36.104099 12750 net.cpp:157] Top shape: 4 9 24 24 (20736)
I0703 21:48:36.104105 12750 net.cpp:157] Top shape: 4 9 24 24 (20736)
I0703 21:48:36.104110 12750 net.cpp:165] Memory required for data: 6373744208
I0703 21:48:36.104115 12750 layer_factory.hpp:77] Creating layer detection_loss_3_5x5
I0703 21:48:36.104122 12750 net.cpp:100] Creating Layer detection_loss_3_5x5
I0703 21:48:36.104127 12750 net.cpp:434] detection_loss_3_5x5 <- LFCN_3_5x5_LFCN_3_5x5_0_split_0
I0703 21:48:36.104133 12750 net.cpp:434] detection_loss_3_5x5 <- label_3_5x5_data_5_split_0
I0703 21:48:36.104143 12750 net.cpp:408] detection_loss_3_5x5 -> loss_3_5x5
I0703 21:48:36.104156 12750 layer_factory.hpp:77] Creating layer detection_loss_3_5x5
I0703 21:48:36.104488 12750 net.cpp:150] Setting up detection_loss_3_5x5
I0703 21:48:36.104498 12750 net.cpp:157] Top shape: 1 1 1 2 (2)
I0703 21:48:36.104502 12750 net.cpp:160]     with loss weight 1
I0703 21:48:36.104516 12750 net.cpp:165] Memory required for data: 6373744216
I0703 21:48:36.104521 12750 layer_factory.hpp:77] Creating layer detection_accuracy_3_5x5
I0703 21:48:36.104532 12750 net.cpp:100] Creating Layer detection_accuracy_3_5x5
I0703 21:48:36.104538 12750 net.cpp:434] detection_accuracy_3_5x5 <- LFCN_3_5x5_LFCN_3_5x5_0_split_1
I0703 21:48:36.104544 12750 net.cpp:434] detection_accuracy_3_5x5 <- label_3_5x5_data_5_split_1
I0703 21:48:36.104552 12750 net.cpp:408] detection_accuracy_3_5x5 -> accuracy_3_5x5
I0703 21:48:36.104562 12750 net.cpp:408] detection_accuracy_3_5x5 -> boxiou_3_5x5
I0703 21:48:36.104606 12750 net.cpp:150] Setting up detection_accuracy_3_5x5
I0703 21:48:36.104616 12750 net.cpp:157] Top shape: 1 1 1 2 (2)
I0703 21:48:36.104621 12750 net.cpp:157] Top shape: 1 1 1 1 (1)
I0703 21:48:36.104624 12750 net.cpp:165] Memory required for data: 6373744228
I0703 21:48:36.104629 12750 layer_factory.hpp:77] Creating layer LFCN_3_7x7
I0703 21:48:36.104638 12750 net.cpp:100] Creating Layer LFCN_3_7x7
I0703 21:48:36.104643 12750 net.cpp:434] LFCN_3_7x7 <- conv6_1_relu6_1_0_split_1
I0703 21:48:36.104651 12750 net.cpp:408] LFCN_3_7x7 -> LFCN_3_7x7
I0703 21:48:36.112646 12750 net.cpp:150] Setting up LFCN_3_7x7
I0703 21:48:36.112670 12750 net.cpp:157] Top shape: 4 9 24 24 (20736)
I0703 21:48:36.112674 12750 net.cpp:165] Memory required for data: 6373827172
I0703 21:48:36.112682 12750 layer_factory.hpp:77] Creating layer LFCN_3_7x7_LFCN_3_7x7_0_split
I0703 21:48:36.112694 12750 net.cpp:100] Creating Layer LFCN_3_7x7_LFCN_3_7x7_0_split
I0703 21:48:36.112699 12750 net.cpp:434] LFCN_3_7x7_LFCN_3_7x7_0_split <- LFCN_3_7x7
I0703 21:48:36.112707 12750 net.cpp:408] LFCN_3_7x7_LFCN_3_7x7_0_split -> LFCN_3_7x7_LFCN_3_7x7_0_split_0
I0703 21:48:36.112718 12750 net.cpp:408] LFCN_3_7x7_LFCN_3_7x7_0_split -> LFCN_3_7x7_LFCN_3_7x7_0_split_1
I0703 21:48:36.112767 12750 net.cpp:150] Setting up LFCN_3_7x7_LFCN_3_7x7_0_split
I0703 21:48:36.112776 12750 net.cpp:157] Top shape: 4 9 24 24 (20736)
I0703 21:48:36.112779 12750 net.cpp:157] Top shape: 4 9 24 24 (20736)
I0703 21:48:36.112783 12750 net.cpp:165] Memory required for data: 6373993060
I0703 21:48:36.112787 12750 layer_factory.hpp:77] Creating layer detection_loss_3_7x7
I0703 21:48:36.112797 12750 net.cpp:100] Creating Layer detection_loss_3_7x7
I0703 21:48:36.112802 12750 net.cpp:434] detection_loss_3_7x7 <- LFCN_3_7x7_LFCN_3_7x7_0_split_0
I0703 21:48:36.112808 12750 net.cpp:434] detection_loss_3_7x7 <- label_3_7x7_data_6_split_0
I0703 21:48:36.112814 12750 net.cpp:408] detection_loss_3_7x7 -> loss_3_7x7
I0703 21:48:36.112825 12750 layer_factory.hpp:77] Creating layer detection_loss_3_7x7
I0703 21:48:36.113467 12750 net.cpp:150] Setting up detection_loss_3_7x7
I0703 21:48:36.113481 12750 net.cpp:157] Top shape: 1 1 1 2 (2)
I0703 21:48:36.113485 12750 net.cpp:160]     with loss weight 1
I0703 21:48:36.113498 12750 net.cpp:165] Memory required for data: 6373993068
I0703 21:48:36.113503 12750 layer_factory.hpp:77] Creating layer detection_accuracy_3_7x7
I0703 21:48:36.113512 12750 net.cpp:100] Creating Layer detection_accuracy_3_7x7
I0703 21:48:36.113517 12750 net.cpp:434] detection_accuracy_3_7x7 <- LFCN_3_7x7_LFCN_3_7x7_0_split_1
I0703 21:48:36.113523 12750 net.cpp:434] detection_accuracy_3_7x7 <- label_3_7x7_data_6_split_1
I0703 21:48:36.113533 12750 net.cpp:408] detection_accuracy_3_7x7 -> accuracy_3_7x7
I0703 21:48:36.113543 12750 net.cpp:408] detection_accuracy_3_7x7 -> boxiou_3_7x7
I0703 21:48:36.113590 12750 net.cpp:150] Setting up detection_accuracy_3_7x7
I0703 21:48:36.113600 12750 net.cpp:157] Top shape: 1 1 1 2 (2)
I0703 21:48:36.113606 12750 net.cpp:157] Top shape: 1 1 1 1 (1)
I0703 21:48:36.113610 12750 net.cpp:165] Memory required for data: 6373993080
I0703 21:48:36.113615 12750 layer_factory.hpp:77] Creating layer pool6
I0703 21:48:36.113625 12750 net.cpp:100] Creating Layer pool6
I0703 21:48:36.113631 12750 net.cpp:434] pool6 <- conv6_1_relu6_1_0_split_2
I0703 21:48:36.113637 12750 net.cpp:408] pool6 -> pool6
I0703 21:48:36.113685 12750 net.cpp:150] Setting up pool6
I0703 21:48:36.113694 12750 net.cpp:157] Top shape: 4 512 12 12 (294912)
I0703 21:48:36.113699 12750 net.cpp:165] Memory required for data: 6375172728
I0703 21:48:36.113703 12750 layer_factory.hpp:77] Creating layer LFCN_4_5x5
I0703 21:48:36.113716 12750 net.cpp:100] Creating Layer LFCN_4_5x5
I0703 21:48:36.113723 12750 net.cpp:434] LFCN_4_5x5 <- pool6
I0703 21:48:36.113734 12750 net.cpp:408] LFCN_4_5x5 -> LFCN_4_5x5
I0703 21:48:36.117359 12750 net.cpp:150] Setting up LFCN_4_5x5
I0703 21:48:36.117374 12750 net.cpp:157] Top shape: 4 9 12 12 (5184)
I0703 21:48:36.117378 12750 net.cpp:165] Memory required for data: 6375193464
I0703 21:48:36.117386 12750 layer_factory.hpp:77] Creating layer LFCN_4_5x5_LFCN_4_5x5_0_split
I0703 21:48:36.117406 12750 net.cpp:100] Creating Layer LFCN_4_5x5_LFCN_4_5x5_0_split
I0703 21:48:36.117413 12750 net.cpp:434] LFCN_4_5x5_LFCN_4_5x5_0_split <- LFCN_4_5x5
I0703 21:48:36.117420 12750 net.cpp:408] LFCN_4_5x5_LFCN_4_5x5_0_split -> LFCN_4_5x5_LFCN_4_5x5_0_split_0
I0703 21:48:36.117429 12750 net.cpp:408] LFCN_4_5x5_LFCN_4_5x5_0_split -> LFCN_4_5x5_LFCN_4_5x5_0_split_1
I0703 21:48:36.117466 12750 net.cpp:150] Setting up LFCN_4_5x5_LFCN_4_5x5_0_split
I0703 21:48:36.117475 12750 net.cpp:157] Top shape: 4 9 12 12 (5184)
I0703 21:48:36.117480 12750 net.cpp:157] Top shape: 4 9 12 12 (5184)
I0703 21:48:36.117485 12750 net.cpp:165] Memory required for data: 6375234936
I0703 21:48:36.117488 12750 layer_factory.hpp:77] Creating layer detection_loss_4_5x5
I0703 21:48:36.117496 12750 net.cpp:100] Creating Layer detection_loss_4_5x5
I0703 21:48:36.117502 12750 net.cpp:434] detection_loss_4_5x5 <- LFCN_4_5x5_LFCN_4_5x5_0_split_0
I0703 21:48:36.117507 12750 net.cpp:434] detection_loss_4_5x5 <- label_4_5x5_data_7_split_0
I0703 21:48:36.117519 12750 net.cpp:408] detection_loss_4_5x5 -> loss_4_5x5
I0703 21:48:36.117532 12750 layer_factory.hpp:77] Creating layer detection_loss_4_5x5
I0703 21:48:36.118228 12750 net.cpp:150] Setting up detection_loss_4_5x5
I0703 21:48:36.118243 12750 net.cpp:157] Top shape: 1 1 1 2 (2)
I0703 21:48:36.118248 12750 net.cpp:160]     with loss weight 1
I0703 21:48:36.118260 12750 net.cpp:165] Memory required for data: 6375234944
I0703 21:48:36.118265 12750 layer_factory.hpp:77] Creating layer detection_accuracy_4_5x5
I0703 21:48:36.118274 12750 net.cpp:100] Creating Layer detection_accuracy_4_5x5
I0703 21:48:36.118281 12750 net.cpp:434] detection_accuracy_4_5x5 <- LFCN_4_5x5_LFCN_4_5x5_0_split_1
I0703 21:48:36.118288 12750 net.cpp:434] detection_accuracy_4_5x5 <- label_4_5x5_data_7_split_1
I0703 21:48:36.118295 12750 net.cpp:408] detection_accuracy_4_5x5 -> accuracy_4_5x5
I0703 21:48:36.118304 12750 net.cpp:408] detection_accuracy_4_5x5 -> boxiou_4_5x5
I0703 21:48:36.118347 12750 net.cpp:150] Setting up detection_accuracy_4_5x5
I0703 21:48:36.118357 12750 net.cpp:157] Top shape: 1 1 1 2 (2)
I0703 21:48:36.118362 12750 net.cpp:157] Top shape: 1 1 1 1 (1)
I0703 21:48:36.118367 12750 net.cpp:165] Memory required for data: 6375234956
I0703 21:48:36.118371 12750 net.cpp:228] detection_accuracy_4_5x5 does not need backward computation.
I0703 21:48:36.118377 12750 net.cpp:226] detection_loss_4_5x5 needs backward computation.
I0703 21:48:36.118382 12750 net.cpp:226] LFCN_4_5x5_LFCN_4_5x5_0_split needs backward computation.
I0703 21:48:36.118386 12750 net.cpp:226] LFCN_4_5x5 needs backward computation.
…
I0703 21:48:36.130458 12750 image_gt_data_layer.cpp:235] output label size 1 : 2,6,96,96
I0703 21:48:36.130530 12750 image_gt_data_layer.cpp:235] output label size 2 : 2,6,48,48
I0703 21:48:36.130600 12750 image_gt_data_layer.cpp:235] output label size 3 : 2,6,48,48
I0703 21:48:36.130668 12750 image_gt_data_layer.cpp:235] output label size 4 : 2,6,24,24
I0703 21:48:36.130739 12750 image_gt_data_layer.cpp:235] output label size 5 : 2,6,24,24
I0703 21:48:36.130810 12750 image_gt_data_layer.cpp:235] output label size 6 : 2,6,12,12
I0703 21:48:36.166743 12750 net.cpp:150] Setting up data
I0703 21:48:36.166774 12750 net.cpp:157] Top shape: 2 4 768 768 (4718592)
I0703 21:48:36.166784 12750 net.cpp:157] Top shape: 2 6 96 96 (110592)
I0703 21:48:36.166791 12750 net.cpp:157] Top shape: 2 6 96 96 (110592)
I0703 21:48:36.166797 12750 net.cpp:157] Top shape: 2 6 48 48 (27648)
I0703 21:48:36.166805 12750 net.cpp:157] Top shape: 2 6 48 48 (27648)
I0703 21:48:36.166813 12750 net.cpp:157] Top shape: 2 6 24 24 (6912)
I0703 21:48:36.166821 12750 net.cpp:157] Top shape: 2 6 24 24 (6912)
I0703 21:48:36.166827 12750 net.cpp:157] Top shape: 2 6 12 12 (1728)
I0703 21:48:36.166833 12750 net.cpp:165] Memory required for data: 20042496
I0703 21:48:36.166841 12750 layer_factory.hpp:77] Creating layer label_1_5x5_data_1_split
I0703 21:48:36.166859 12750 net.cpp:100] Creating Layer label_1_5x5_data_1_split
I0703 21:48:36.166867 12750 net.cpp:434] label_1_5x5_data_1_split <- label_1_5x5
I0703 21:48:36.166877 12750 net.cpp:408] label_1_5x5_data_1_split -> label_1_5x5_data_1_split_0
I0703 21:48:36.166915 12750 net.cpp:408] label_1_5x5_data_1_split -> label_1_5x5_data_1_split_1
I0703 21:48:36.167340 12750 net.cpp:150] Setting up label_1_5x5_data_1_split
I0703 21:48:36.167392 12750 net.cpp:157] Top shape: 2 6 96 96 (110592)
I0703 21:48:36.167410 12750 net.cpp:157] Top shape: 2 6 96 96 (110592)
I0703 21:48:36.167423 12750 net.cpp:165] Memory required for data: 20927232
I0703 21:48:36.167440 12750 layer_factory.hpp:77] Creating layer label_1_7x7_data_2_split
I0703 21:48:36.167469 12750 net.cpp:100] Creating Layer label_1_7x7_data_2_split
I0703 21:48:36.167485 12750 net.cpp:434] label_1_7x7_data_2_split <- label_1_7x7
I0703 21:48:36.167505 12750 net.cpp:408] label_1_7x7_data_2_split -> label_1_7x7_data_2_split_0
I0703 21:48:36.167532 12750 net.cpp:408] label_1_7x7_data_2_split -> label_1_7x7_data_2_split_1
I0703 21:48:36.167662 12750 net.cpp:150] Setting up label_1_7x7_data_2_split
I0703 21:48:36.167685 12750 net.cpp:157] Top shape: 2 6 96 96 (110592)
I0703 21:48:36.167701 12750 net.cpp:157] Top shape: 2 6 96 96 (110592)
I0703 21:48:36.167712 12750 net.cpp:165] Memory required for data: 21811968
I0703 21:48:36.167724 12750 layer_factory.hpp:77] Creating layer label_2_5x5_data_3_split
I0703 21:48:36.167742 12750 net.cpp:100] Creating Layer label_2_5x5_data_3_split
I0703 21:48:36.167754 12750 net.cpp:434] label_2_5x5_data_3_split <- label_2_5x5
I0703 21:48:36.167773 12750 net.cpp:408] label_2_5x5_data_3_split -> label_2_5x5_data_3_split_0
I0703 21:48:36.167789 12750 net.cpp:408] label_2_5x5_data_3_split -> label_2_5x5_data_3_split_1
I0703 21:48:36.167879 12750 net.cpp:150] Setting up label_2_5x5_data_3_split
I0703 21:48:36.167893 12750 net.cpp:157] Top shape: 2 6 48 48 (27648)
I0703 21:48:36.167904 12750 net.cpp:157] Top shape: 2 6 48 48 (27648)
I0703 21:48:36.167912 12750 net.cpp:165] Memory required for data: 22033152
I0703 21:48:36.167922 12750 layer_factory.hpp:77] Creating layer label_2_7x7_data_4_split
I0703 21:48:36.167935 12750 net.cpp:100] Creating Layer label_2_7x7_data_4_split
I0703 21:48:36.167944 12750 net.cpp:434] label_2_7x7_data_4_split <- label_2_7x7
I0703 21:48:36.167956 12750 net.cpp:408] label_2_7x7_data_4_split -> label_2_7x7_data_4_split_0
I0703 21:48:36.167969 12750 net.cpp:408] label_2_7x7_data_4_split -> label_2_7x7_data_4_split_1
I0703 21:48:36.168047 12750 net.cpp:150] Setting up label_2_7x7_data_4_split
I0703 21:48:36.168059 12750 net.cpp:157] Top shape: 2 6 48 48 (27648)
I0703 21:48:36.168071 12750 net.cpp:157] Top shape: 2 6 48 48 (27648)
I0703 21:48:36.168079 12750 net.cpp:165] Memory required for data: 22254336
I0703 21:48:36.168087 12750 layer_factory.hpp:77] Creating layer label_3_5x5_data_5_split
I0703 21:48:36.168097 12750 net.cpp:100] Creating Layer label_3_5x5_data_5_split
I0703 21:48:36.168104 12750 net.cpp:434] label_3_5x5_data_5_split <- label_3_5x5
I0703 21:48:36.168118 12750 net.cpp:408] label_3_5x5_data_5_split -> label_3_5x5_data_5_split_0
I0703 21:48:36.168133 12750 net.cpp:408] label_3_5x5_data_5_split -> label_3_5x5_data_5_split_1
I0703 21:48:36.168211 12750 net.cpp:150] Setting up label_3_5x5_data_5_split
I0703 21:48:36.168228 12750 net.cpp:157] Top shape: 2 6 24 24 (6912)
I0703 21:48:36.168238 12750 net.cpp:157] Top shape: 2 6 24 24 (6912)
I0703 21:48:36.168247 12750 net.cpp:165] Memory required for data: 22309632
I0703 21:48:36.168254 12750 layer_factory.hpp:77] Creating layer label_3_7x7_data_6_split
I0703 21:48:36.168265 12750 net.cpp:100] Creating Layer label_3_7x7_data_6_split
I0703 21:48:36.168274 12750 net.cpp:434] label_3_7x7_data_6_split <- label_3_7x7
I0703 21:48:36.168287 12750 net.cpp:408] label_3_7x7_data_6_split -> label_3_7x7_data_6_split_0
I0703 21:48:36.168300 12750 net.cpp:408] label_3_7x7_data_6_split -> label_3_7x7_data_6_split_1
I0703 21:48:36.168372 12750 net.cpp:150] Setting up label_3_7x7_data_6_split
I0703 21:48:36.168385 12750 net.cpp:157] Top shape: 2 6 24 24 (6912)
I0703 21:48:36.168395 12750 net.cpp:157] Top shape: 2 6 24 24 (6912)
I0703 21:48:36.168403 12750 net.cpp:165] Memory required for data: 22364928
I0703 21:48:36.168412 12750 layer_factory.hpp:77] Creating layer label_4_5x5_data_7_split
I0703 21:48:36.168426 12750 net.cpp:100] Creating Layer label_4_5x5_data_7_split
I0703 21:48:36.168434 12750 net.cpp:434] label_4_5x5_data_7_split <- label_4_5x5
I0703 21:48:36.168445 12750 net.cpp:408] label_4_5x5_data_7_split -> label_4_5x5_data_7_split_0
I0703 21:48:36.168458 12750 net.cpp:408] label_4_5x5_data_7_split -> label_4_5x5_data_7_split_1
I0703 21:48:36.168532 12750 net.cpp:150] Setting up label_4_5x5_data_7_split
I0703 21:48:36.168545 12750 net.cpp:157] Top shape: 2 6 12 12 (1728)
I0703 21:48:36.168555 12750 net.cpp:157] Top shape: 2 6 12 12 (1728)
I0703 21:48:36.168563 12750 net.cpp:165] Memory required for data: 22378752
I0703 21:48:36.168571 12750 layer_factory.hpp:77] Creating layer slice
I0703 21:48:36.168586 12750 net.cpp:100] Creating Layer slice
I0703 21:48:36.168596 12750 net.cpp:434] slice <- data
I0703 21:48:36.168606 12750 net.cpp:408] slice -> data123
I0703 21:48:36.168620 12750 net.cpp:408] slice -> ch4
I0703 21:48:36.168699 12750 net.cpp:150] Setting up slice
I0703 21:48:36.168711 12750 net.cpp:157] Top shape: 2 3 768 768 (3538944)
I0703 21:48:36.168722 12750 net.cpp:157] Top shape: 2 1 768 768 (1179648)
I0703 21:48:36.168730 12750 net.cpp:165] Memory required for data: 41253120
I0703 21:48:36.168737 12750 layer_factory.hpp:77] Creating layer ch4_slice_1_split
I0703 21:48:36.168748 12750 net.cpp:100] Creating Layer ch4_slice_1_split
I0703 21:48:36.168757 12750 net.cpp:434] ch4_slice_1_split <- ch4
I0703 21:48:36.168769 12750 net.cpp:408] ch4_slice_1_split -> ch4_slice_1_split_0
I0703 21:48:36.168782 12750 net.cpp:408] ch4_slice_1_split -> ch4_slice_1_split_1
I0703 21:48:36.168855 12750 net.cpp:150] Setting up ch4_slice_1_split
I0703 21:48:36.168867 12750 net.cpp:157] Top shape: 2 1 768 768 (1179648)
I0703 21:48:36.168879 12750 net.cpp:157] Top shape: 2 1 768 768 (1179648)
I0703 21:48:36.168886 12750 net.cpp:165] Memory required for data: 50690304
I0703 21:48:36.168895 12750 layer_factory.hpp:77] Creating layer ch4_0-127
I0703 21:48:36.168906 12750 net.cpp:100] Creating Layer ch4_0-127
I0703 21:48:36.168915 12750 net.cpp:434] ch4_0-127 <- ch4_slice_1_split_0
I0703 21:48:36.168926 12750 net.cpp:408] ch4_0-127 -> ch4_0-127
I0703 21:48:36.168972 12750 net.cpp:150] Setting up ch4_0-127
I0703 21:48:36.168983 12750 net.cpp:157] Top shape: 2 1 768 768 (1179648)
I0703 21:48:36.168992 12750 net.cpp:165] Memory required for data: 55408896
I0703 21:48:36.168998 12750 layer_factory.hpp:77] Creating layer ch4_128-255
I0703 21:48:36.169013 12750 net.cpp:100] Creating Layer ch4_128-255
I0703 21:48:36.169021 12750 net.cpp:434] ch4_128-255 <- ch4_slice_1_split_1
I0703 21:48:36.169031 12750 net.cpp:408] ch4_128-255 -> ch4_128-255
I0703 21:48:36.169075 12750 net.cpp:150] Setting up ch4_128-255
I0703 21:48:36.169087 12750 net.cpp:157] Top shape: 2 1 768 768 (1179648)
I0703 21:48:36.169098 12750 net.cpp:165] Memory required for data: 60127488
I0703 21:48:36.169106 12750 layer_factory.hpp:77] Creating layer ch4_2cls-concat
I0703 21:48:36.169118 12750 net.cpp:100] Creating Layer ch4_2cls-concat
I0703 21:48:36.169127 12750 net.cpp:434] ch4_2cls-concat <- ch4_0-127
I0703 21:48:36.169140 12750 net.cpp:434] ch4_2cls-concat <- ch4_128-255
I0703 21:48:36.169152 12750 net.cpp:408] ch4_2cls-concat -> ch4_2cls
I0703 21:48:36.169217 12750 net.cpp:150] Setting up ch4_2cls-concat
I0703 21:48:36.169231 12750 net.cpp:157] Top shape: 2 2 768 768 (2359296)
I0703 21:48:36.169241 12750 net.cpp:165] Memory required for data: 69564672
I0703 21:48:36.169250 12750 layer_factory.hpp:77] Creating layer relu_ch42cls
I0703 21:48:36.169262 12750 net.cpp:100] Creating Layer relu_ch42cls
I0703 21:48:36.169271 12750 net.cpp:434] relu_ch42cls <- ch4_2cls
I0703 21:48:36.169286 12750 net.cpp:395] relu_ch42cls -> ch4_2cls (in-place)
I0703 21:48:36.172505 12750 net.cpp:150] Setting up relu_ch42cls
I0703 21:48:36.172538 12750 net.cpp:157] Top shape: 2 2 768 768 (2359296)
I0703 21:48:36.172546 12750 net.cpp:165] Memory required for data: 79001856
I0703 21:48:36.172556 12750 layer_factory.hpp:77] Creating layer conv1_1
I0703 21:48:36.172580 12750 net.cpp:100] Creating Layer conv1_1
I0703 21:48:36.172592 12750 net.cpp:434] conv1_1 <- data123
I0703 21:48:36.172606 12750 net.cpp:408] conv1_1 -> conv1_1
I0703 21:48:36.180560 12750 net.cpp:150] Setting up conv1_1
I0703 21:48:36.180593 12750 net.cpp:157] Top shape: 2 64 768 768 (75497472)
I0703 21:48:36.180601 12750 net.cpp:165] Memory required for data: 380991744
I0703 21:48:36.180621 12750 layer_factory.hpp:77] Creating layer relu1_1
I0703 21:48:36.180636 12750 net.cpp:100] Creating Layer relu1_1
I0703 21:48:36.180644 12750 net.cpp:434] relu1_1 <- conv1_1
I0703 21:48:36.180651 12750 net.cpp:395] relu1_1 -> conv1_1 (in-place)
I0703 21:48:36.180927 12750 net.cpp:150] Setting up relu1_1
I0703 21:48:36.180938 12750 net.cpp:157] Top shape: 2 64 768 768 (75497472)
I0703 21:48:36.180940 12750 net.cpp:165] Memory required for data: 682981632
I0703 21:48:36.180944 12750 layer_factory.hpp:77] Creating layer conv1_2
I0703 21:48:36.180958 12750 net.cpp:100] Creating Layer conv1_2
I0703 21:48:36.180963 12750 net.cpp:434] conv1_2 <- conv1_1
I0703 21:48:36.180968 12750 net.cpp:408] conv1_2 -> conv1_2
I0703 21:48:36.183640 12750 net.cpp:150] Setting up conv1_2
I0703 21:48:36.183655 12750 net.cpp:157] Top shape: 2 64 768 768 (75497472)
I0703 21:48:36.183660 12750 net.cpp:165] Memory required for data: 984971520
I0703 21:48:36.183671 12750 layer_factory.hpp:77] Creating layer relu1_2
I0703 21:48:36.183683 12750 net.cpp:100] Creating Layer relu1_2
I0703 21:48:36.183688 12750 net.cpp:434] relu1_2 <- conv1_2
I0703 21:48:36.183696 12750 net.cpp:395] relu1_2 -> conv1_2 (in-place)
I0703 21:48:36.183876 12750 net.cpp:150] Setting up relu1_2
I0703 21:48:36.183884 12750 net.cpp:157] Top shape: 2 64 768 768 (75497472)
I0703 21:48:36.183887 12750 net.cpp:165] Memory required for data: 1286961408
I0703 21:48:36.183892 12750 layer_factory.hpp:77] Creating layer pool1
I0703 21:48:36.183898 12750 net.cpp:100] Creating Layer pool1
I0703 21:48:36.183902 12750 net.cpp:434] pool1 <- conv1_2
I0703 21:48:36.183909 12750 net.cpp:408] pool1 -> pool1
I0703 21:48:36.183954 12750 net.cpp:150] Setting up pool1
I0703 21:48:36.183959 12750 net.cpp:157] Top shape: 2 64 384 384 (18874368)
I0703 21:48:36.183962 12750 net.cpp:165] Memory required for data: 1362458880
I0703 21:48:36.183965 12750 layer_factory.hpp:77] Creating layer ch4_pool1
I0703 21:48:36.183972 12750 net.cpp:100] Creating Layer ch4_pool1
I0703 21:48:36.183976 12750 net.cpp:434] ch4_pool1 <- ch4_2cls
I0703 21:48:36.183980 12750 net.cpp:408] ch4_pool1 -> ch4_pool1
I0703 21:48:36.184016 12750 net.cpp:150] Setting up ch4_pool1
I0703 21:48:36.184022 12750 net.cpp:157] Top shape: 2 2 384 384 (589824)
I0703 21:48:36.184026 12750 net.cpp:165] Memory required for data: 1364818176
I0703 21:48:36.184028 12750 layer_factory.hpp:77] Creating layer ch4_pool1_ch4_pool1_0_split
I0703 21:48:36.184033 12750 net.cpp:100] Creating Layer ch4_pool1_ch4_pool1_0_split
I0703 21:48:36.184036 12750 net.cpp:434] ch4_pool1_ch4_pool1_0_split <- ch4_pool1
I0703 21:48:36.184041 12750 net.cpp:408] ch4_pool1_ch4_pool1_0_split -> ch4_pool1_ch4_pool1_0_split_0
I0703 21:48:36.184046 12750 net.cpp:408] ch4_pool1_ch4_pool1_0_split -> ch4_pool1_ch4_pool1_0_split_1
I0703 21:48:36.184079 12750 net.cpp:150] Setting up ch4_pool1_ch4_pool1_0_split
I0703 21:48:36.184084 12750 net.cpp:157] Top shape: 2 2 384 384 (589824)
I0703 21:48:36.184088 12750 net.cpp:157] Top shape: 2 2 384 384 (589824)
I0703 21:48:36.184090 12750 net.cpp:165] Memory required for data: 1369536768
I0703 21:48:36.184094 12750 layer_factory.hpp:77] Creating layer pool1_concat
I0703 21:48:36.184099 12750 net.cpp:100] Creating Layer pool1_concat
I0703 21:48:36.184103 12750 net.cpp:434] pool1_concat <- pool1
I0703 21:48:36.184106 12750 net.cpp:434] pool1_concat <- ch4_pool1_ch4_pool1_0_split_0
I0703 21:48:36.184111 12750 net.cpp:408] pool1_concat -> pool1_new
I0703 21:48:36.184132 12750 net.cpp:150] Setting up pool1_concat
I0703 21:48:36.184136 12750 net.cpp:157] Top shape: 2 66 384 384 (19464192)
I0703 21:48:36.184139 12750 net.cpp:165] Memory required for data: 1447393536
I0703 21:48:36.184142 12750 layer_factory.hpp:77] Creating layer conv2_1_new
I0703 21:48:36.184149 12750 net.cpp:100] Creating Layer conv2_1_new
I0703 21:48:36.184152 12750 net.cpp:434] conv2_1_new <- pool1_new
I0703 21:48:36.184157 12750 net.cpp:408] conv2_1_new -> conv2_1
I0703 21:48:36.185925 12750 net.cpp:150] Setting up conv2_1_new
I0703 21:48:36.185935 12750 net.cpp:157] Top shape: 2 128 384 384 (37748736)
I0703 21:48:36.185938 12750 net.cpp:165] Memory required for data: 1598388480
I0703 21:48:36.185946 12750 layer_factory.hpp:77] Creating layer relu2_1
I0703 21:48:36.185953 12750 net.cpp:100] Creating Layer relu2_1
I0703 21:48:36.185957 12750 net.cpp:434] relu2_1 <- conv2_1
I0703 21:48:36.185961 12750 net.cpp:395] relu2_1 -> conv2_1 (in-place)
I0703 21:48:36.186127 12750 net.cpp:150] Setting up relu2_1
I0703 21:48:36.186136 12750 net.cpp:157] Top shape: 2 128 384 384 (37748736)
I0703 21:48:36.186139 12750 net.cpp:165] Memory required for data: 1749383424
I0703 21:48:36.186143 12750 layer_factory.hpp:77] Creating layer conv2_2
I0703 21:48:36.186149 12750 net.cpp:100] Creating Layer conv2_2
I0703 21:48:36.186153 12750 net.cpp:434] conv2_2 <- conv2_1
I0703 21:48:36.186158 12750 net.cpp:408] conv2_2 -> conv2_2
I0703 21:48:36.191649 12750 net.cpp:150] Setting up conv2_2
I0703 21:48:36.191701 12750 net.cpp:157] Top shape: 2 128 384 384 (37748736)
I0703 21:48:36.191709 12750 net.cpp:165] Memory required for data: 1900378368
I0703 21:48:36.191728 12750 layer_factory.hpp:77] Creating layer relu2_2
I0703 21:48:36.191750 12750 net.cpp:100] Creating Layer relu2_2
I0703 21:48:36.191761 12750 net.cpp:434] relu2_2 <- conv2_2
I0703 21:48:36.191773 12750 net.cpp:395] relu2_2 -> conv2_2 (in-place)
I0703 21:48:36.193843 12750 net.cpp:150] Setting up relu2_2
I0703 21:48:36.193918 12750 net.cpp:157] Top shape: 2 128 384 384 (37748736)
I0703 21:48:36.193934 12750 net.cpp:165] Memory required for data: 2051373312
I0703 21:48:36.193953 12750 layer_factory.hpp:77] Creating layer pool2
I0703 21:48:36.194000 12750 net.cpp:100] Creating Layer pool2
I0703 21:48:36.194022 12750 net.cpp:434] pool2 <- conv2_2
I0703 21:48:36.194058 12750 net.cpp:408] pool2 -> pool2
I0703 21:48:36.194283 12750 net.cpp:150] Setting up pool2
I0703 21:48:36.194308 12750 net.cpp:157] Top shape: 2 128 192 192 (9437184)
I0703 21:48:36.194321 12750 net.cpp:165] Memory required for data: 2089122048
I0703 21:48:36.194335 12750 layer_factory.hpp:77] Creating layer ch4_pool2
I0703 21:48:36.194362 12750 net.cpp:100] Creating Layer ch4_pool2
I0703 21:48:36.194380 12750 net.cpp:434] ch4_pool2 <- ch4_pool1_ch4_pool1_0_split_1
I0703 21:48:36.194401 12750 net.cpp:408] ch4_pool2 -> ch4_pool2
I0703 21:48:36.194541 12750 net.cpp:150] Setting up ch4_pool2
I0703 21:48:36.194564 12750 net.cpp:157] Top shape: 2 2 192 192 (147456)
I0703 21:48:36.194576 12750 net.cpp:165] Memory required for data: 2089711872
I0703 21:48:36.194586 12750 layer_factory.hpp:77] Creating layer ch4_pool2_ch4_pool2_0_split
I0703 21:48:36.194607 12750 net.cpp:100] Creating Layer ch4_pool2_ch4_pool2_0_split
I0703 21:48:36.194622 12750 net.cpp:434] ch4_pool2_ch4_pool2_0_split <- ch4_pool2
I0703 21:48:36.194640 12750 net.cpp:408] ch4_pool2_ch4_pool2_0_split -> ch4_pool2_ch4_pool2_0_split_0
I0703 21:48:36.194663 12750 net.cpp:408] ch4_pool2_ch4_pool2_0_split -> ch4_pool2_ch4_pool2_0_split_1
I0703 21:48:36.194799 12750 net.cpp:150] Setting up ch4_pool2_ch4_pool2_0_split
I0703 21:48:36.194821 12750 net.cpp:157] Top shape: 2 2 192 192 (147456)
I0703 21:48:36.194838 12750 net.cpp:157] Top shape: 2 2 192 192 (147456)
I0703 21:48:36.194850 12750 net.cpp:165] Memory required for data: 2090891520
I0703 21:48:36.194862 12750 layer_factory.hpp:77] Creating layer pool2_concat
I0703 21:48:36.194880 12750 net.cpp:100] Creating Layer pool2_concat
I0703 21:48:36.194941 12750 net.cpp:434] pool2_concat <- pool2
I0703 21:48:36.194957 12750 net.cpp:434] pool2_concat <- ch4_pool2_ch4_pool2_0_split_0
I0703 21:48:36.194985 12750 net.cpp:408] pool2_concat -> pool2_new
I0703 21:48:36.195081 12750 net.cpp:150] Setting up pool2_concat
I0703 21:48:36.195102 12750 net.cpp:157] Top shape: 2 130 192 192 (9584640)
I0703 21:48:36.195117 12750 net.cpp:165] Memory required for data: 2129230080
I0703 21:48:36.195132 12750 layer_factory.hpp:77] Creating layer conv3_1_new
I0703 21:48:36.195163 12750 net.cpp:100] Creating Layer conv3_1_new
I0703 21:48:36.195178 12750 net.cpp:434] conv3_1_new <- pool2_new
I0703 21:48:36.195197 12750 net.cpp:408] conv3_1_new -> conv3_1
I0703 21:48:36.200086 12750 net.cpp:150] Setting up conv3_1_new
I0703 21:48:36.200142 12750 net.cpp:157] Top shape: 2 256 192 192 (18874368)
I0703 21:48:36.200152 12750 net.cpp:165] Memory required for data: 2204727552
I0703 21:48:36.200188 12750 layer_factory.hpp:77] Creating layer relu3_1
I0703 21:48:36.200219 12750 net.cpp:100] Creating Layer relu3_1
I0703 21:48:36.200235 12750 net.cpp:434] relu3_1 <- conv3_1
I0703 21:48:36.200250 12750 net.cpp:395] relu3_1 -> conv3_1 (in-place)
I0703 21:48:36.200778 12750 net.cpp:150] Setting up relu3_1
I0703 21:48:36.200798 12750 net.cpp:157] Top shape: 2 256 192 192 (18874368)
I0703 21:48:36.200808 12750 net.cpp:165] Memory required for data: 2280225024
I0703 21:48:36.200819 12750 layer_factory.hpp:77] Creating layer conv3_2
I0703 21:48:36.200851 12750 net.cpp:100] Creating Layer conv3_2
I0703 21:48:36.200861 12750 net.cpp:434] conv3_2 <- conv3_1
I0703 21:48:36.200878 12750 net.cpp:408] conv3_2 -> conv3_2
I0703 21:48:36.208488 12750 net.cpp:150] Setting up conv3_2
I0703 21:48:36.208541 12750 net.cpp:157] Top shape: 2 256 192 192 (18874368)
I0703 21:48:36.208552 12750 net.cpp:165] Memory required for data: 2355722496
I0703 21:48:36.208577 12750 layer_factory.hpp:77] Creating layer relu3_2
I0703 21:48:36.208606 12750 net.cpp:100] Creating Layer relu3_2
I0703 21:48:36.208621 12750 net.cpp:434] relu3_2 <- conv3_2
I0703 21:48:36.208633 12750 net.cpp:395] relu3_2 -> conv3_2 (in-place)
I0703 21:48:36.209066 12750 net.cpp:150] Setting up relu3_2
I0703 21:48:36.209087 12750 net.cpp:157] Top shape: 2 256 192 192 (18874368)
I0703 21:48:36.209095 12750 net.cpp:165] Memory required for data: 2431219968
I0703 21:48:36.209105 12750 layer_factory.hpp:77] Creating layer conv3_3
I0703 21:48:36.209123 12750 net.cpp:100] Creating Layer conv3_3
I0703 21:48:36.209132 12750 net.cpp:434] conv3_3 <- conv3_2
I0703 21:48:36.209144 12750 net.cpp:408] conv3_3 -> conv3_3
I0703 21:48:36.215631 12750 net.cpp:150] Setting up conv3_3
I0703 21:48:36.215687 12750 net.cpp:157] Top shape: 2 256 192 192 (18874368)
I0703 21:48:36.215700 12750 net.cpp:165] Memory required for data: 2506717440
I0703 21:48:36.215728 12750 layer_factory.hpp:77] Creating layer relu3_3
I0703 21:48:36.215759 12750 net.cpp:100] Creating Layer relu3_3
I0703 21:48:36.215777 12750 net.cpp:434] relu3_3 <- conv3_3
I0703 21:48:36.215796 12750 net.cpp:395] relu3_3 -> conv3_3 (in-place)
I0703 21:48:36.216315 12750 net.cpp:150] Setting up relu3_3
I0703 21:48:36.216341 12750 net.cpp:157] Top shape: 2 256 192 192 (18874368)
I0703 21:48:36.216354 12750 net.cpp:165] Memory required for data: 2582214912
I0703 21:48:36.216367 12750 layer_factory.hpp:77] Creating layer pool3
I0703 21:48:36.216388 12750 net.cpp:100] Creating Layer pool3
I0703 21:48:36.216405 12750 net.cpp:434] pool3 <- conv3_3
I0703 21:48:36.216423 12750 net.cpp:408] pool3 -> pool3
I0703 21:48:36.216564 12750 net.cpp:150] Setting up pool3
I0703 21:48:36.216585 12750 net.cpp:157] Top shape: 2 256 96 96 (4718592)
I0703 21:48:36.216598 12750 net.cpp:165] Memory required for data: 2601089280
I0703 21:48:36.216609 12750 layer_factory.hpp:77] Creating layer ch4_pool3
I0703 21:48:36.216624 12750 net.cpp:100] Creating Layer ch4_pool3
I0703 21:48:36.216641 12750 net.cpp:434] ch4_pool3 <- ch4_pool2_ch4_pool2_0_split_1
I0703 21:48:36.216663 12750 net.cpp:408] ch4_pool3 -> ch4_pool3
I0703 21:48:36.216768 12750 net.cpp:150] Setting up ch4_pool3
I0703 21:48:36.216789 12750 net.cpp:157] Top shape: 2 2 96 96 (36864)
I0703 21:48:36.216801 12750 net.cpp:165] Memory required for data: 2601236736
I0703 21:48:36.216812 12750 layer_factory.hpp:77] Creating layer pool3_concat
I0703 21:48:36.216835 12750 net.cpp:100] Creating Layer pool3_concat
I0703 21:48:36.216851 12750 net.cpp:434] pool3_concat <- pool3
I0703 21:48:36.216866 12750 net.cpp:434] pool3_concat <- ch4_pool3
I0703 21:48:36.216883 12750 net.cpp:408] pool3_concat -> pool3_new
I0703 21:48:36.216955 12750 net.cpp:150] Setting up pool3_concat
I0703 21:48:36.216976 12750 net.cpp:157] Top shape: 2 258 96 96 (4755456)
I0703 21:48:36.216987 12750 net.cpp:165] Memory required for data: 2620258560
I0703 21:48:36.217002 12750 layer_factory.hpp:77] Creating layer conv4_1_new
I0703 21:48:36.217027 12750 net.cpp:100] Creating Layer conv4_1_new
I0703 21:48:36.217041 12750 net.cpp:434] conv4_1_new <- pool3_new
I0703 21:48:36.217062 12750 net.cpp:408] conv4_1_new -> conv4_1
I0703 21:48:36.227581 12750 net.cpp:150] Setting up conv4_1_new
I0703 21:48:36.227645 12750 net.cpp:157] Top shape: 2 512 96 96 (9437184)
I0703 21:48:36.227660 12750 net.cpp:165] Memory required for data: 2658007296
I0703 21:48:36.227684 12750 layer_factory.hpp:77] Creating layer relu4_1
I0703 21:48:36.227713 12750 net.cpp:100] Creating Layer relu4_1
I0703 21:48:36.227733 12750 net.cpp:434] relu4_1 <- conv4_1
I0703 21:48:36.227756 12750 net.cpp:395] relu4_1 -> conv4_1 (in-place)
I0703 21:48:36.228008 12750 net.cpp:150] Setting up relu4_1
I0703 21:48:36.228020 12750 net.cpp:157] Top shape: 2 512 96 96 (9437184)
I0703 21:48:36.228025 12750 net.cpp:165] Memory required for data: 2695756032
I0703 21:48:36.228029 12750 layer_factory.hpp:77] Creating layer conv4_2
I0703 21:48:36.228040 12750 net.cpp:100] Creating Layer conv4_2
I0703 21:48:36.228046 12750 net.cpp:434] conv4_2 <- conv4_1
I0703 21:48:36.228054 12750 net.cpp:408] conv4_2 -> conv4_2
I0703 21:48:36.235155 12750 net.cpp:150] Setting up conv4_2
I0703 21:48:36.235198 12750 net.cpp:157] Top shape: 2 512 96 96 (9437184)
I0703 21:48:36.235201 12750 net.cpp:165] Memory required for data: 2733504768
I0703 21:48:36.235219 12750 layer_factory.hpp:77] Creating layer relu4_2
I0703 21:48:36.235235 12750 net.cpp:100] Creating Layer relu4_2
I0703 21:48:36.235244 12750 net.cpp:434] relu4_2 <- conv4_2
I0703 21:48:36.235250 12750 net.cpp:395] relu4_2 -> conv4_2 (in-place)
I0703 21:48:36.235414 12750 net.cpp:150] Setting up relu4_2
I0703 21:48:36.235424 12750 net.cpp:157] Top shape: 2 512 96 96 (9437184)
I0703 21:48:36.235426 12750 net.cpp:165] Memory required for data: 2771253504
I0703 21:48:36.235430 12750 layer_factory.hpp:77] Creating layer conv4_3
I0703 21:48:36.235440 12750 net.cpp:100] Creating Layer conv4_3
I0703 21:48:36.235445 12750 net.cpp:434] conv4_3 <- conv4_2
I0703 21:48:36.235452 12750 net.cpp:408] conv4_3 -> conv4_3
I0703 21:48:36.241631 12750 net.cpp:150] Setting up conv4_3
I0703 21:48:36.241658 12750 net.cpp:157] Top shape: 2 512 96 96 (9437184)
I0703 21:48:36.241662 12750 net.cpp:165] Memory required for data: 2809002240
I0703 21:48:36.241669 12750 layer_factory.hpp:77] Creating layer relu4_3
I0703 21:48:36.241681 12750 net.cpp:100] Creating Layer relu4_3
I0703 21:48:36.241686 12750 net.cpp:434] relu4_3 <- conv4_3
I0703 21:48:36.241691 12750 net.cpp:395] relu4_3 -> conv4_3 (in-place)
I0703 21:48:36.243645 12750 net.cpp:150] Setting up relu4_3
I0703 21:48:36.243659 12750 net.cpp:157] Top shape: 2 512 96 96 (9437184)
I0703 21:48:36.243662 12750 net.cpp:165] Memory required for data: 2846750976
I0703 21:48:36.243666 12750 layer_factory.hpp:77] Creating layer conv4_3_relu4_3_0_split
I0703 21:48:36.243674 12750 net.cpp:100] Creating Layer conv4_3_relu4_3_0_split
I0703 21:48:36.243676 12750 net.cpp:434] conv4_3_relu4_3_0_split <- conv4_3
I0703 21:48:36.243683 12750 net.cpp:408] conv4_3_relu4_3_0_split -> conv4_3_relu4_3_0_split_0
I0703 21:48:36.243690 12750 net.cpp:408] conv4_3_relu4_3_0_split -> conv4_3_relu4_3_0_split_1
I0703 21:48:36.243734 12750 net.cpp:150] Setting up conv4_3_relu4_3_0_split
I0703 21:48:36.243741 12750 net.cpp:157] Top shape: 2 512 96 96 (9437184)
I0703 21:48:36.243746 12750 net.cpp:157] Top shape: 2 512 96 96 (9437184)
I0703 21:48:36.243749 12750 net.cpp:165] Memory required for data: 2922248448
I0703 21:48:36.243752 12750 layer_factory.hpp:77] Creating layer loss1_conv1
I0703 21:48:36.243764 12750 net.cpp:100] Creating Layer loss1_conv1
I0703 21:48:36.243768 12750 net.cpp:434] loss1_conv1 <- conv4_3_relu4_3_0_split_0
I0703 21:48:36.243778 12750 net.cpp:408] loss1_conv1 -> loss1_conv1
I0703 21:48:36.314607 12750 net.cpp:150] Setting up loss1_conv1
I0703 21:48:36.314635 12750 net.cpp:157] Top shape: 2 512 96 96 (9437184)
I0703 21:48:36.314641 12750 net.cpp:165] Memory required for data: 2959997184
I0703 21:48:36.314651 12750 layer_factory.hpp:77] Creating layer loss_relu1
I0703 21:48:36.314663 12750 net.cpp:100] Creating Layer loss_relu1
I0703 21:48:36.314671 12750 net.cpp:434] loss_relu1 <- loss1_conv1
I0703 21:48:36.314682 12750 net.cpp:395] loss_relu1 -> loss1_conv1 (in-place)
I0703 21:48:36.314903 12750 net.cpp:150] Setting up loss_relu1
I0703 21:48:36.314915 12750 net.cpp:157] Top shape: 2 512 96 96 (9437184)
I0703 21:48:36.314919 12750 net.cpp:165] Memory required for data: 2997745920
I0703 21:48:36.314924 12750 layer_factory.hpp:77] Creating layer loss1_conv1_loss_relu1_0_split
I0703 21:48:36.314935 12750 net.cpp:100] Creating Layer loss1_conv1_loss_relu1_0_split
I0703 21:48:36.314942 12750 net.cpp:434] loss1_conv1_loss_relu1_0_split <- loss1_conv1
I0703 21:48:36.314952 12750 net.cpp:408] loss1_conv1_loss_relu1_0_split -> loss1_conv1_loss_relu1_0_split_0
I0703 21:48:36.314966 12750 net.cpp:408] loss1_conv1_loss_relu1_0_split -> loss1_conv1_loss_relu1_0_split_1
I0703 21:48:36.315024 12750 net.cpp:150] Setting up loss1_conv1_loss_relu1_0_split
I0703 21:48:36.315033 12750 net.cpp:157] Top shape: 2 512 96 96 (9437184)
I0703 21:48:36.315038 12750 net.cpp:157] Top shape: 2 512 96 96 (9437184)
I0703 21:48:36.315044 12750 net.cpp:165] Memory required for data: 3073243392
I0703 21:48:36.315049 12750 layer_factory.hpp:77] Creating layer LFCN_1_5x5
I0703 21:48:36.315070 12750 net.cpp:100] Creating Layer LFCN_1_5x5
I0703 21:48:36.315078 12750 net.cpp:434] LFCN_1_5x5 <- loss1_conv1_loss_relu1_0_split_0
I0703 21:48:36.315095 12750 net.cpp:408] LFCN_1_5x5 -> LFCN_1_5x5
I0703 21:48:36.319787 12750 net.cpp:150] Setting up LFCN_1_5x5
I0703 21:48:36.319798 12750 net.cpp:157] Top shape: 2 9 96 96 (165888)
I0703 21:48:36.319802 12750 net.cpp:165] Memory required for data: 3073906944
I0703 21:48:36.319808 12750 layer_factory.hpp:77] Creating layer LFCN_1_5x5_LFCN_1_5x5_0_split
I0703 21:48:36.319814 12750 net.cpp:100] Creating Layer LFCN_1_5x5_LFCN_1_5x5_0_split
I0703 21:48:36.319818 12750 net.cpp:434] LFCN_1_5x5_LFCN_1_5x5_0_split <- LFCN_1_5x5
I0703 21:48:36.319821 12750 net.cpp:408] LFCN_1_5x5_LFCN_1_5x5_0_split -> LFCN_1_5x5_LFCN_1_5x5_0_split_0
I0703 21:48:36.319828 12750 net.cpp:408] LFCN_1_5x5_LFCN_1_5x5_0_split -> LFCN_1_5x5_LFCN_1_5x5_0_split_1
I0703 21:48:36.319859 12750 net.cpp:150] Setting up LFCN_1_5x5_LFCN_1_5x5_0_split
I0703 21:48:36.319864 12750 net.cpp:157] Top shape: 2 9 96 96 (165888)
I0703 21:48:36.319867 12750 net.cpp:157] Top shape: 2 9 96 96 (165888)
I0703 21:48:36.319869 12750 net.cpp:165] Memory required for data: 3075234048
I0703 21:48:36.319872 12750 layer_factory.hpp:77] Creating layer detection_loss_1_5x5
I0703 21:48:36.319878 12750 net.cpp:100] Creating Layer detection_loss_1_5x5
I0703 21:48:36.319881 12750 net.cpp:434] detection_loss_1_5x5 <- LFCN_1_5x5_LFCN_1_5x5_0_split_0
I0703 21:48:36.319887 12750 net.cpp:434] detection_loss_1_5x5 <- label_1_5x5_data_1_split_0
I0703 21:48:36.319891 12750 net.cpp:408] detection_loss_1_5x5 -> loss_1_5x5
I0703 21:48:36.319900 12750 layer_factory.hpp:77] Creating layer detection_loss_1_5x5
I0703 21:48:36.320286 12750 net.cpp:150] Setting up detection_loss_1_5x5
I0703 21:48:36.320297 12750 net.cpp:157] Top shape: 1 1 1 2 (2)
I0703 21:48:36.320300 12750 net.cpp:160]     with loss weight 0.9
I0703 21:48:36.320314 12750 net.cpp:165] Memory required for data: 3075234056
I0703 21:48:36.320319 12750 layer_factory.hpp:77] Creating layer detection_accuracy_1_5x5
I0703 21:48:36.320330 12750 net.cpp:100] Creating Layer detection_accuracy_1_5x5
I0703 21:48:36.320338 12750 net.cpp:434] detection_accuracy_1_5x5 <- LFCN_1_5x5_LFCN_1_5x5_0_split_1
I0703 21:48:36.320343 12750 net.cpp:434] detection_accuracy_1_5x5 <- label_1_5x5_data_1_split_1
I0703 21:48:36.320353 12750 net.cpp:408] detection_accuracy_1_5x5 -> accuracy_1_5x5
I0703 21:48:36.320365 12750 net.cpp:408] detection_accuracy_1_5x5 -> boxiou_1_5x5
I0703 21:48:36.320415 12750 net.cpp:150] Setting up detection_accuracy_1_5x5
I0703 21:48:36.320422 12750 net.cpp:157] Top shape: 1 1 1 2 (2)
I0703 21:48:36.320426 12750 net.cpp:157] Top shape: 1 1 1 1 (1)
I0703 21:48:36.320430 12750 net.cpp:165] Memory required for data: 3075234068
I0703 21:48:36.320432 12750 layer_factory.hpp:77] Creating layer LFCN_1_7x7
I0703 21:48:36.320442 12750 net.cpp:100] Creating Layer LFCN_1_7x7
I0703 21:48:36.320447 12750 net.cpp:434] LFCN_1_7x7 <- loss1_conv1_loss_relu1_0_split_1
I0703 21:48:36.320453 12750 net.cpp:408] LFCN_1_7x7 -> LFCN_1_7x7
I0703 21:48:36.329088 12750 net.cpp:150] Setting up LFCN_1_7x7
I0703 21:48:36.329134 12750 net.cpp:157] Top shape: 2 9 96 96 (165888)
I0703 21:48:36.329140 12750 net.cpp:165] Memory required for data: 3075897620
I0703 21:48:36.329154 12750 layer_factory.hpp:77] Creating layer LFCN_1_7x7_LFCN_1_7x7_0_split
I0703 21:48:36.329169 12750 net.cpp:100] Creating Layer LFCN_1_7x7_LFCN_1_7x7_0_split
I0703 21:48:36.329177 12750 net.cpp:434] LFCN_1_7x7_LFCN_1_7x7_0_split <- LFCN_1_7x7
I0703 21:48:36.329187 12750 net.cpp:408] LFCN_1_7x7_LFCN_1_7x7_0_split -> LFCN_1_7x7_LFCN_1_7x7_0_split_0
I0703 21:48:36.329229 12750 net.cpp:408] LFCN_1_7x7_LFCN_1_7x7_0_split -> LFCN_1_7x7_LFCN_1_7x7_0_split_1
I0703 21:48:36.329275 12750 net.cpp:150] Setting up LFCN_1_7x7_LFCN_1_7x7_0_split
I0703 21:48:36.329282 12750 net.cpp:157] Top shape: 2 9 96 96 (165888)
I0703 21:48:36.329286 12750 net.cpp:157] Top shape: 2 9 96 96 (165888)
I0703 21:48:36.329289 12750 net.cpp:165] Memory required for data: 3077224724
I0703 21:48:36.329293 12750 layer_factory.hpp:77] Creating layer detection_loss_1_7x7
I0703 21:48:36.329306 12750 net.cpp:100] Creating Layer detection_loss_1_7x7
I0703 21:48:36.329310 12750 net.cpp:434] detection_loss_1_7x7 <- LFCN_1_7x7_LFCN_1_7x7_0_split_0
I0703 21:48:36.329316 12750 net.cpp:434] detection_loss_1_7x7 <- label_1_7x7_data_2_split_0
I0703 21:48:36.329324 12750 net.cpp:408] detection_loss_1_7x7 -> loss_1_7x7
I0703 21:48:36.329335 12750 layer_factory.hpp:77] Creating layer detection_loss_1_7x7
I0703 21:48:36.329787 12750 net.cpp:150] Setting up detection_loss_1_7x7
I0703 21:48:36.329798 12750 net.cpp:157] Top shape: 1 1 1 2 (2)
I0703 21:48:36.329802 12750 net.cpp:160]     with loss weight 0.9
I0703 21:48:36.329825 12750 net.cpp:165] Memory required for data: 3077224732
I0703 21:48:36.329829 12750 layer_factory.hpp:77] Creating layer detection_accuracy_1_7x7
I0703 21:48:36.329843 12750 net.cpp:100] Creating Layer detection_accuracy_1_7x7
I0703 21:48:36.329847 12750 net.cpp:434] detection_accuracy_1_7x7 <- LFCN_1_7x7_LFCN_1_7x7_0_split_1
I0703 21:48:36.329852 12750 net.cpp:434] detection_accuracy_1_7x7 <- label_1_7x7_data_2_split_1
I0703 21:48:36.329856 12750 net.cpp:408] detection_accuracy_1_7x7 -> accuracy_1_7x7
I0703 21:48:36.329864 12750 net.cpp:408] detection_accuracy_1_7x7 -> boxiou_1_7x7
I0703 21:48:36.329912 12750 net.cpp:150] Setting up detection_accuracy_1_7x7
I0703 21:48:36.329918 12750 net.cpp:157] Top shape: 1 1 1 2 (2)
I0703 21:48:36.329922 12750 net.cpp:157] Top shape: 1 1 1 1 (1)
I0703 21:48:36.329926 12750 net.cpp:165] Memory required for data: 3077224744
I0703 21:48:36.329929 12750 layer_factory.hpp:77] Creating layer pool4
I0703 21:48:36.329936 12750 net.cpp:100] Creating Layer pool4
I0703 21:48:36.329941 12750 net.cpp:434] pool4 <- conv4_3_relu4_3_0_split_1
I0703 21:48:36.329948 12750 net.cpp:408] pool4 -> pool4
I0703 21:48:36.329988 12750 net.cpp:150] Setting up pool4
I0703 21:48:36.329993 12750 net.cpp:157] Top shape: 2 512 48 48 (2359296)
I0703 21:48:36.329995 12750 net.cpp:165] Memory required for data: 3086661928
I0703 21:48:36.329999 12750 layer_factory.hpp:77] Creating layer conv5_1
I0703 21:48:36.330010 12750 net.cpp:100] Creating Layer conv5_1
I0703 21:48:36.330014 12750 net.cpp:434] conv5_1 <- pool4
I0703 21:48:36.330019 12750 net.cpp:408] conv5_1 -> conv5_1
I0703 21:48:36.340584 12750 net.cpp:150] Setting up conv5_1
I0703 21:48:36.340623 12750 net.cpp:157] Top shape: 2 512 48 48 (2359296)
I0703 21:48:36.340631 12750 net.cpp:165] Memory required for data: 3096099112
I0703 21:48:36.340646 12750 layer_factory.hpp:77] Creating layer relu5_1
I0703 21:48:36.340665 12750 net.cpp:100] Creating Layer relu5_1
I0703 21:48:36.340674 12750 net.cpp:434] relu5_1 <- conv5_1
I0703 21:48:36.340682 12750 net.cpp:395] relu5_1 -> conv5_1 (in-place)
I0703 21:48:36.340898 12750 net.cpp:150] Setting up relu5_1
I0703 21:48:36.340907 12750 net.cpp:157] Top shape: 2 512 48 48 (2359296)
I0703 21:48:36.340910 12750 net.cpp:165] Memory required for data: 3105536296
I0703 21:48:36.340914 12750 layer_factory.hpp:77] Creating layer conv5_2
I0703 21:48:36.340929 12750 net.cpp:100] Creating Layer conv5_2
I0703 21:48:36.340934 12750 net.cpp:434] conv5_2 <- conv5_1
I0703 21:48:36.340945 12750 net.cpp:408] conv5_2 -> conv5_2
I0703 21:48:36.351131 12750 net.cpp:150] Setting up conv5_2
I0703 21:48:36.351176 12750 net.cpp:157] Top shape: 2 512 48 48 (2359296)
I0703 21:48:36.351181 12750 net.cpp:165] Memory required for data: 3114973480
I0703 21:48:36.351193 12750 layer_factory.hpp:77] Creating layer relu5_2
I0703 21:48:36.351212 12750 net.cpp:100] Creating Layer relu5_2
I0703 21:48:36.351222 12750 net.cpp:434] relu5_2 <- conv5_2
I0703 21:48:36.351230 12750 net.cpp:395] relu5_2 -> conv5_2 (in-place)
I0703 21:48:36.351492 12750 net.cpp:150] Setting up relu5_2
I0703 21:48:36.351557 12750 net.cpp:157] Top shape: 2 512 48 48 (2359296)
I0703 21:48:36.351572 12750 net.cpp:165] Memory required for data: 3124410664
I0703 21:48:36.351591 12750 layer_factory.hpp:77] Creating layer conv5_3
I0703 21:48:36.351647 12750 net.cpp:100] Creating Layer conv5_3
I0703 21:48:36.351672 12750 net.cpp:434] conv5_3 <- conv5_2
I0703 21:48:36.351697 12750 net.cpp:408] conv5_3 -> conv5_3
I0703 21:48:36.362131 12750 net.cpp:150] Setting up conv5_3
I0703 21:48:36.362162 12750 net.cpp:157] Top shape: 2 512 48 48 (2359296)
I0703 21:48:36.362167 12750 net.cpp:165] Memory required for data: 3133847848
I0703 21:48:36.362179 12750 layer_factory.hpp:77] Creating layer relu5_3
I0703 21:48:36.362193 12750 net.cpp:100] Creating Layer relu5_3
I0703 21:48:36.362201 12750 net.cpp:434] relu5_3 <- conv5_3
I0703 21:48:36.362210 12750 net.cpp:395] relu5_3 -> conv5_3 (in-place)
I0703 21:48:36.364877 12750 net.cpp:150] Setting up relu5_3
I0703 21:48:36.364892 12750 net.cpp:157] Top shape: 2 512 48 48 (2359296)
I0703 21:48:36.364897 12750 net.cpp:165] Memory required for data: 3143285032
I0703 21:48:36.364903 12750 layer_factory.hpp:77] Creating layer conv5_3_relu5_3_0_split
I0703 21:48:36.364920 12750 net.cpp:100] Creating Layer conv5_3_relu5_3_0_split
I0703 21:48:36.364928 12750 net.cpp:434] conv5_3_relu5_3_0_split <- conv5_3
I0703 21:48:36.364938 12750 net.cpp:408] conv5_3_relu5_3_0_split -> conv5_3_relu5_3_0_split_0
I0703 21:48:36.364950 12750 net.cpp:408] conv5_3_relu5_3_0_split -> conv5_3_relu5_3_0_split_1
I0703 21:48:36.364960 12750 net.cpp:408] conv5_3_relu5_3_0_split -> conv5_3_relu5_3_0_split_2
I0703 21:48:36.365025 12750 net.cpp:150] Setting up conv5_3_relu5_3_0_split
I0703 21:48:36.365034 12750 net.cpp:157] Top shape: 2 512 48 48 (2359296)
I0703 21:48:36.365041 12750 net.cpp:157] Top shape: 2 512 48 48 (2359296)
I0703 21:48:36.365046 12750 net.cpp:157] Top shape: 2 512 48 48 (2359296)
I0703 21:48:36.365051 12750 net.cpp:165] Memory required for data: 3171596584
I0703 21:48:36.365056 12750 layer_factory.hpp:77] Creating layer LFCN_2_5x5
I0703 21:48:36.365069 12750 net.cpp:100] Creating Layer LFCN_2_5x5
I0703 21:48:36.365075 12750 net.cpp:434] LFCN_2_5x5 <- conv5_3_relu5_3_0_split_0
I0703 21:48:36.365085 12750 net.cpp:408] LFCN_2_5x5 -> LFCN_2_5x5
I0703 21:48:36.370012 12750 net.cpp:150] Setting up LFCN_2_5x5
I0703 21:48:36.370028 12750 net.cpp:157] Top shape: 2 9 48 48 (41472)
I0703 21:48:36.370033 12750 net.cpp:165] Memory required for data: 3171762472
I0703 21:48:36.370048 12750 layer_factory.hpp:77] Creating layer LFCN_2_5x5_LFCN_2_5x5_0_split
I0703 21:48:36.370060 12750 net.cpp:100] Creating Layer LFCN_2_5x5_LFCN_2_5x5_0_split
I0703 21:48:36.370067 12750 net.cpp:434] LFCN_2_5x5_LFCN_2_5x5_0_split <- LFCN_2_5x5
I0703 21:48:36.370077 12750 net.cpp:408] LFCN_2_5x5_LFCN_2_5x5_0_split -> LFCN_2_5x5_LFCN_2_5x5_0_split_0
I0703 21:48:36.370088 12750 net.cpp:408] LFCN_2_5x5_LFCN_2_5x5_0_split -> LFCN_2_5x5_LFCN_2_5x5_0_split_1
I0703 21:48:36.370136 12750 net.cpp:150] Setting up LFCN_2_5x5_LFCN_2_5x5_0_split
I0703 21:48:36.370144 12750 net.cpp:157] Top shape: 2 9 48 48 (41472)
I0703 21:48:36.370151 12750 net.cpp:157] Top shape: 2 9 48 48 (41472)
I0703 21:48:36.370156 12750 net.cpp:165] Memory required for data: 3172094248
I0703 21:48:36.370159 12750 layer_factory.hpp:77] Creating layer detection_loss_2_5x5
I0703 21:48:36.370169 12750 net.cpp:100] Creating Layer detection_loss_2_5x5
I0703 21:48:36.370177 12750 net.cpp:434] detection_loss_2_5x5 <- LFCN_2_5x5_LFCN_2_5x5_0_split_0
I0703 21:48:36.370183 12750 net.cpp:434] detection_loss_2_5x5 <- label_2_5x5_data_3_split_0
I0703 21:48:36.370191 12750 net.cpp:408] detection_loss_2_5x5 -> loss_2_5x5
I0703 21:48:36.370206 12750 layer_factory.hpp:77] Creating layer detection_loss_2_5x5
I0703 21:48:36.370560 12750 net.cpp:150] Setting up detection_loss_2_5x5
I0703 21:48:36.370571 12750 net.cpp:157] Top shape: 1 1 1 2 (2)
I0703 21:48:36.370576 12750 net.cpp:160]     with loss weight 1
I0703 21:48:36.370590 12750 net.cpp:165] Memory required for data: 3172094256
I0703 21:48:36.370595 12750 layer_factory.hpp:77] Creating layer detection_accuracy_2_5x5
I0703 21:48:36.370604 12750 net.cpp:100] Creating Layer detection_accuracy_2_5x5
I0703 21:48:36.370610 12750 net.cpp:434] detection_accuracy_2_5x5 <- LFCN_2_5x5_LFCN_2_5x5_0_split_1
I0703 21:48:36.370617 12750 net.cpp:434] detection_accuracy_2_5x5 <- label_2_5x5_data_3_split_1
I0703 21:48:36.370628 12750 net.cpp:408] detection_accuracy_2_5x5 -> accuracy_2_5x5
I0703 21:48:36.370640 12750 net.cpp:408] detection_accuracy_2_5x5 -> boxiou_2_5x5
I0703 21:48:36.370687 12750 net.cpp:150] Setting up detection_accuracy_2_5x5
I0703 21:48:36.370697 12750 net.cpp:157] Top shape: 1 1 1 2 (2)
I0703 21:48:36.370702 12750 net.cpp:157] Top shape: 1 1 1 1 (1)
I0703 21:48:36.370707 12750 net.cpp:165] Memory required for data: 3172094268
I0703 21:48:36.370712 12750 layer_factory.hpp:77] Creating layer LFCN_2_7x7
I0703 21:48:36.370723 12750 net.cpp:100] Creating Layer LFCN_2_7x7
I0703 21:48:36.370730 12750 net.cpp:434] LFCN_2_7x7 <- conv5_3_relu5_3_0_split_1
I0703 21:48:36.370739 12750 net.cpp:408] LFCN_2_7x7 -> LFCN_2_7x7
I0703 21:48:36.379418 12750 net.cpp:150] Setting up LFCN_2_7x7
I0703 21:48:36.379439 12750 net.cpp:157] Top shape: 2 9 48 48 (41472)
I0703 21:48:36.379446 12750 net.cpp:165] Memory required for data: 3172260156
I0703 21:48:36.379456 12750 layer_factory.hpp:77] Creating layer LFCN_2_7x7_LFCN_2_7x7_0_split
I0703 21:48:36.379469 12750 net.cpp:100] Creating Layer LFCN_2_7x7_LFCN_2_7x7_0_split
I0703 21:48:36.379478 12750 net.cpp:434] LFCN_2_7x7_LFCN_2_7x7_0_split <- LFCN_2_7x7
I0703 21:48:36.379489 12750 net.cpp:408] LFCN_2_7x7_LFCN_2_7x7_0_split -> LFCN_2_7x7_LFCN_2_7x7_0_split_0
I0703 21:48:36.379503 12750 net.cpp:408] LFCN_2_7x7_LFCN_2_7x7_0_split -> LFCN_2_7x7_LFCN_2_7x7_0_split_1
I0703 21:48:36.379557 12750 net.cpp:150] Setting up LFCN_2_7x7_LFCN_2_7x7_0_split
I0703 21:48:36.379567 12750 net.cpp:157] Top shape: 2 9 48 48 (41472)
I0703 21:48:36.379575 12750 net.cpp:157] Top shape: 2 9 48 48 (41472)
I0703 21:48:36.379580 12750 net.cpp:165] Memory required for data: 3172591932
I0703 21:48:36.379585 12750 layer_factory.hpp:77] Creating layer detection_loss_2_7x7
I0703 21:48:36.379595 12750 net.cpp:100] Creating Layer detection_loss_2_7x7
I0703 21:48:36.379603 12750 net.cpp:434] detection_loss_2_7x7 <- LFCN_2_7x7_LFCN_2_7x7_0_split_0
I0703 21:48:36.379611 12750 net.cpp:434] detection_loss_2_7x7 <- label_2_7x7_data_4_split_0
I0703 21:48:36.379621 12750 net.cpp:408] detection_loss_2_7x7 -> loss_2_7x7
I0703 21:48:36.379637 12750 layer_factory.hpp:77] Creating layer detection_loss_2_7x7
I0703 21:48:36.380044 12750 net.cpp:150] Setting up detection_loss_2_7x7
I0703 21:48:36.380059 12750 net.cpp:157] Top shape: 1 1 1 2 (2)
I0703 21:48:36.380064 12750 net.cpp:160]     with loss weight 1
I0703 21:48:36.380077 12750 net.cpp:165] Memory required for data: 3172591940
I0703 21:48:36.380084 12750 layer_factory.hpp:77] Creating layer detection_accuracy_2_7x7
I0703 21:48:36.380092 12750 net.cpp:100] Creating Layer detection_accuracy_2_7x7
I0703 21:48:36.380100 12750 net.cpp:434] detection_accuracy_2_7x7 <- LFCN_2_7x7_LFCN_2_7x7_0_split_1
I0703 21:48:36.380108 12750 net.cpp:434] detection_accuracy_2_7x7 <- label_2_7x7_data_4_split_1
I0703 21:48:36.380120 12750 net.cpp:408] detection_accuracy_2_7x7 -> accuracy_2_7x7
I0703 21:48:36.380133 12750 net.cpp:408] detection_accuracy_2_7x7 -> boxiou_2_7x7
I0703 21:48:36.380187 12750 net.cpp:150] Setting up detection_accuracy_2_7x7
I0703 21:48:36.380198 12750 net.cpp:157] Top shape: 1 1 1 2 (2)
I0703 21:48:36.380204 12750 net.cpp:157] Top shape: 1 1 1 1 (1)
I0703 21:48:36.380211 12750 net.cpp:165] Memory required for data: 3172591952
I0703 21:48:36.380218 12750 layer_factory.hpp:77] Creating layer pool5
I0703 21:48:36.380228 12750 net.cpp:100] Creating Layer pool5
I0703 21:48:36.380236 12750 net.cpp:434] pool5 <- conv5_3_relu5_3_0_split_2
I0703 21:48:36.380245 12750 net.cpp:408] pool5 -> pool5
I0703 21:48:36.380297 12750 net.cpp:150] Setting up pool5
I0703 21:48:36.380311 12750 net.cpp:157] Top shape: 2 512 24 24 (589824)
I0703 21:48:36.380314 12750 net.cpp:165] Memory required for data: 3174951248
I0703 21:48:36.380321 12750 layer_factory.hpp:77] Creating layer conv6_1
I0703 21:48:36.380336 12750 net.cpp:100] Creating Layer conv6_1
I0703 21:48:36.380342 12750 net.cpp:434] conv6_1 <- pool5
I0703 21:48:36.380352 12750 net.cpp:408] conv6_1 -> conv6_1
I0703 21:48:36.447752 12750 net.cpp:150] Setting up conv6_1
I0703 21:48:36.447779 12750 net.cpp:157] Top shape: 2 512 24 24 (589824)
I0703 21:48:36.447784 12750 net.cpp:165] Memory required for data: 3177310544
I0703 21:48:36.447793 12750 layer_factory.hpp:77] Creating layer relu6_1
I0703 21:48:36.447803 12750 net.cpp:100] Creating Layer relu6_1
I0703 21:48:36.447813 12750 net.cpp:434] relu6_1 <- conv6_1
I0703 21:48:36.447820 12750 net.cpp:395] relu6_1 -> conv6_1 (in-place)
I0703 21:48:36.447988 12750 net.cpp:150] Setting up relu6_1
I0703 21:48:36.447998 12750 net.cpp:157] Top shape: 2 512 24 24 (589824)
I0703 21:48:36.448001 12750 net.cpp:165] Memory required for data: 3179669840
I0703 21:48:36.448004 12750 layer_factory.hpp:77] Creating layer conv6_1_relu6_1_0_split
I0703 21:48:36.448011 12750 net.cpp:100] Creating Layer conv6_1_relu6_1_0_split
I0703 21:48:36.448015 12750 net.cpp:434] conv6_1_relu6_1_0_split <- conv6_1
I0703 21:48:36.448020 12750 net.cpp:408] conv6_1_relu6_1_0_split -> conv6_1_relu6_1_0_split_0
I0703 21:48:36.448026 12750 net.cpp:408] conv6_1_relu6_1_0_split -> conv6_1_relu6_1_0_split_1
I0703 21:48:36.448032 12750 net.cpp:408] conv6_1_relu6_1_0_split -> conv6_1_relu6_1_0_split_2
I0703 21:48:36.448086 12750 net.cpp:150] Setting up conv6_1_relu6_1_0_split
I0703 21:48:36.448092 12750 net.cpp:157] Top shape: 2 512 24 24 (589824)
I0703 21:48:36.448096 12750 net.cpp:157] Top shape: 2 512 24 24 (589824)
I0703 21:48:36.448101 12750 net.cpp:157] Top shape: 2 512 24 24 (589824)
I0703 21:48:36.448103 12750 net.cpp:165] Memory required for data: 3186747728
I0703 21:48:36.448107 12750 layer_factory.hpp:77] Creating layer LFCN_3_5x5
I0703 21:48:36.448117 12750 net.cpp:100] Creating Layer LFCN_3_5x5
I0703 21:48:36.448122 12750 net.cpp:434] LFCN_3_5x5 <- conv6_1_relu6_1_0_split_0
I0703 21:48:36.448128 12750 net.cpp:408] LFCN_3_5x5 -> LFCN_3_5x5
I0703 21:48:36.452253 12750 net.cpp:150] Setting up LFCN_3_5x5
I0703 21:48:36.452267 12750 net.cpp:157] Top shape: 2 9 24 24 (10368)
I0703 21:48:36.452271 12750 net.cpp:165] Memory required for data: 3186789200
I0703 21:48:36.452277 12750 layer_factory.hpp:77] Creating layer LFCN_3_5x5_LFCN_3_5x5_0_split
I0703 21:48:36.452282 12750 net.cpp:100] Creating Layer LFCN_3_5x5_LFCN_3_5x5_0_split
I0703 21:48:36.452286 12750 net.cpp:434] LFCN_3_5x5_LFCN_3_5x5_0_split <- LFCN_3_5x5
I0703 21:48:36.452291 12750 net.cpp:408] LFCN_3_5x5_LFCN_3_5x5_0_split -> LFCN_3_5x5_LFCN_3_5x5_0_split_0
I0703 21:48:36.452299 12750 net.cpp:408] LFCN_3_5x5_LFCN_3_5x5_0_split -> LFCN_3_5x5_LFCN_3_5x5_0_split_1
I0703 21:48:36.452342 12750 net.cpp:150] Setting up LFCN_3_5x5_LFCN_3_5x5_0_split
I0703 21:48:36.452347 12750 net.cpp:157] Top shape: 2 9 24 24 (10368)
I0703 21:48:36.452350 12750 net.cpp:157] Top shape: 2 9 24 24 (10368)
I0703 21:48:36.452353 12750 net.cpp:165] Memory required for data: 3186872144
I0703 21:48:36.452356 12750 layer_factory.hpp:77] Creating layer detection_loss_3_5x5
I0703 21:48:36.452363 12750 net.cpp:100] Creating Layer detection_loss_3_5x5
I0703 21:48:36.452368 12750 net.cpp:434] detection_loss_3_5x5 <- LFCN_3_5x5_LFCN_3_5x5_0_split_0
I0703 21:48:36.452373 12750 net.cpp:434] detection_loss_3_5x5 <- label_3_5x5_data_5_split_0
I0703 21:48:36.452378 12750 net.cpp:408] detection_loss_3_5x5 -> loss_3_5x5
I0703 21:48:36.452388 12750 layer_factory.hpp:77] Creating layer detection_loss_3_5x5
I0703 21:48:36.452729 12750 net.cpp:150] Setting up detection_loss_3_5x5
I0703 21:48:36.452739 12750 net.cpp:157] Top shape: 1 1 1 2 (2)
I0703 21:48:36.452744 12750 net.cpp:160]     with loss weight 1
I0703 21:48:36.452754 12750 net.cpp:165] Memory required for data: 3186872152
I0703 21:48:36.452757 12750 layer_factory.hpp:77] Creating layer detection_accuracy_3_5x5
I0703 21:48:36.452765 12750 net.cpp:100] Creating Layer detection_accuracy_3_5x5
I0703 21:48:36.452769 12750 net.cpp:434] detection_accuracy_3_5x5 <- LFCN_3_5x5_LFCN_3_5x5_0_split_1
I0703 21:48:36.452774 12750 net.cpp:434] detection_accuracy_3_5x5 <- label_3_5x5_data_5_split_1
I0703 21:48:36.452778 12750 net.cpp:408] detection_accuracy_3_5x5 -> accuracy_3_5x5
I0703 21:48:36.452786 12750 net.cpp:408] detection_accuracy_3_5x5 -> boxiou_3_5x5
I0703 21:48:36.452826 12750 net.cpp:150] Setting up detection_accuracy_3_5x5
I0703 21:48:36.452833 12750 net.cpp:157] Top shape: 1 1 1 2 (2)
I0703 21:48:36.452837 12750 net.cpp:157] Top shape: 1 1 1 1 (1)
I0703 21:48:36.452841 12750 net.cpp:165] Memory required for data: 3186872164
I0703 21:48:36.452843 12750 layer_factory.hpp:77] Creating layer LFCN_3_7x7
I0703 21:48:36.452852 12750 net.cpp:100] Creating Layer LFCN_3_7x7
I0703 21:48:36.452855 12750 net.cpp:434] LFCN_3_7x7 <- conv6_1_relu6_1_0_split_1
I0703 21:48:36.452862 12750 net.cpp:408] LFCN_3_7x7 -> LFCN_3_7x7
I0703 21:48:36.460155 12750 net.cpp:150] Setting up LFCN_3_7x7
I0703 21:48:36.460171 12750 net.cpp:157] Top shape: 2 9 24 24 (10368)
I0703 21:48:36.460175 12750 net.cpp:165] Memory required for data: 3186913636
I0703 21:48:36.460181 12750 layer_factory.hpp:77] Creating layer LFCN_3_7x7_LFCN_3_7x7_0_split
I0703 21:48:36.460188 12750 net.cpp:100] Creating Layer LFCN_3_7x7_LFCN_3_7x7_0_split
I0703 21:48:36.460192 12750 net.cpp:434] LFCN_3_7x7_LFCN_3_7x7_0_split <- LFCN_3_7x7
I0703 21:48:36.460198 12750 net.cpp:408] LFCN_3_7x7_LFCN_3_7x7_0_split -> LFCN_3_7x7_LFCN_3_7x7_0_split_0
I0703 21:48:36.460204 12750 net.cpp:408] LFCN_3_7x7_LFCN_3_7x7_0_split -> LFCN_3_7x7_LFCN_3_7x7_0_split_1
I0703 21:48:36.460244 12750 net.cpp:150] Setting up LFCN_3_7x7_LFCN_3_7x7_0_split
I0703 21:48:36.460250 12750 net.cpp:157] Top shape: 2 9 24 24 (10368)
I0703 21:48:36.460254 12750 net.cpp:157] Top shape: 2 9 24 24 (10368)
I0703 21:48:36.460258 12750 net.cpp:165] Memory required for data: 3186996580
I0703 21:48:36.460261 12750 layer_factory.hpp:77] Creating layer detection_loss_3_7x7
I0703 21:48:36.460268 12750 net.cpp:100] Creating Layer detection_loss_3_7x7
I0703 21:48:36.460270 12750 net.cpp:434] detection_loss_3_7x7 <- LFCN_3_7x7_LFCN_3_7x7_0_split_0
I0703 21:48:36.460274 12750 net.cpp:434] detection_loss_3_7x7 <- label_3_7x7_data_6_split_0
I0703 21:48:36.460281 12750 net.cpp:408] detection_loss_3_7x7 -> loss_3_7x7
I0703 21:48:36.460289 12750 layer_factory.hpp:77] Creating layer detection_loss_3_7x7
I0703 21:48:36.460677 12750 net.cpp:150] Setting up detection_loss_3_7x7
I0703 21:48:36.460687 12750 net.cpp:157] Top shape: 1 1 1 2 (2)
I0703 21:48:36.460690 12750 net.cpp:160]     with loss weight 1
I0703 21:48:36.460696 12750 net.cpp:165] Memory required for data: 3186996588
I0703 21:48:36.460700 12750 layer_factory.hpp:77] Creating layer detection_accuracy_3_7x7
I0703 21:48:36.460706 12750 net.cpp:100] Creating Layer detection_accuracy_3_7x7
I0703 21:48:36.460711 12750 net.cpp:434] detection_accuracy_3_7x7 <- LFCN_3_7x7_LFCN_3_7x7_0_split_1
I0703 21:48:36.460714 12750 net.cpp:434] detection_accuracy_3_7x7 <- label_3_7x7_data_6_split_1
I0703 21:48:36.460721 12750 net.cpp:408] detection_accuracy_3_7x7 -> accuracy_3_7x7
I0703 21:48:36.460727 12750 net.cpp:408] detection_accuracy_3_7x7 -> boxiou_3_7x7
I0703 21:48:36.460767 12750 net.cpp:150] Setting up detection_accuracy_3_7x7
I0703 21:48:36.460772 12750 net.cpp:157] Top shape: 1 1 1 2 (2)
I0703 21:48:36.460777 12750 net.cpp:157] Top shape: 1 1 1 1 (1)
I0703 21:48:36.460779 12750 net.cpp:165] Memory required for data: 3186996600
I0703 21:48:36.460783 12750 layer_factory.hpp:77] Creating layer pool6
I0703 21:48:36.460788 12750 net.cpp:100] Creating Layer pool6
I0703 21:48:36.460793 12750 net.cpp:434] pool6 <- conv6_1_relu6_1_0_split_2
I0703 21:48:36.460798 12750 net.cpp:408] pool6 -> pool6
I0703 21:48:36.460835 12750 net.cpp:150] Setting up pool6
I0703 21:48:36.460841 12750 net.cpp:157] Top shape: 2 512 12 12 (147456)
I0703 21:48:36.460845 12750 net.cpp:165] Memory required for data: 3187586424
I0703 21:48:36.460849 12750 layer_factory.hpp:77] Creating layer LFCN_4_5x5
I0703 21:48:36.460857 12750 net.cpp:100] Creating Layer LFCN_4_5x5
I0703 21:48:36.460860 12750 net.cpp:434] LFCN_4_5x5 <- pool6
I0703 21:48:36.460866 12750 net.cpp:408] LFCN_4_5x5 -> LFCN_4_5x5
I0703 21:48:36.464984 12750 net.cpp:150] Setting up LFCN_4_5x5
I0703 21:48:36.465005 12750 net.cpp:157] Top shape: 2 9 12 12 (2592)
I0703 21:48:36.465009 12750 net.cpp:165] Memory required for data: 3187596792
I0703 21:48:36.465016 12750 layer_factory.hpp:77] Creating layer LFCN_4_5x5_LFCN_4_5x5_0_split
I0703 21:48:36.465025 12750 net.cpp:100] Creating Layer LFCN_4_5x5_LFCN_4_5x5_0_split
I0703 21:48:36.465030 12750 net.cpp:434] LFCN_4_5x5_LFCN_4_5x5_0_split <- LFCN_4_5x5
I0703 21:48:36.465036 12750 net.cpp:408] LFCN_4_5x5_LFCN_4_5x5_0_split -> LFCN_4_5x5_LFCN_4_5x5_0_split_0
I0703 21:48:36.465044 12750 net.cpp:408] LFCN_4_5x5_LFCN_4_5x5_0_split -> LFCN_4_5x5_LFCN_4_5x5_0_split_1
I0703 21:48:36.465085 12750 net.cpp:150] Setting up LFCN_4_5x5_LFCN_4_5x5_0_split
I0703 21:48:36.465090 12750 net.cpp:157] Top shape: 2 9 12 12 (2592)
I0703 21:48:36.465095 12750 net.cpp:157] Top shape: 2 9 12 12 (2592)
I0703 21:48:36.465097 12750 net.cpp:165] Memory required for data: 3187617528
I0703 21:48:36.465101 12750 layer_factory.hpp:77] Creating layer detection_loss_4_5x5
I0703 21:48:36.465107 12750 net.cpp:100] Creating Layer detection_loss_4_5x5
I0703 21:48:36.465111 12750 net.cpp:434] detection_loss_4_5x5 <- LFCN_4_5x5_LFCN_4_5x5_0_split_0
I0703 21:48:36.465116 12750 net.cpp:434] detection_loss_4_5x5 <- label_4_5x5_data_7_split_0
I0703 21:48:36.465121 12750 net.cpp:408] detection_loss_4_5x5 -> loss_4_5x5
I0703 21:48:36.465129 12750 layer_factory.hpp:77] Creating layer detection_loss_4_5x5
I0703 21:48:36.465837 12750 net.cpp:150] Setting up detection_loss_4_5x5
I0703 21:48:36.465850 12750 net.cpp:157] Top shape: 1 1 1 2 (2)
I0703 21:48:36.465853 12750 net.cpp:160]     with loss weight 1
I0703 21:48:36.465862 12750 net.cpp:165] Memory required for data: 3187617536
I0703 21:48:36.465865 12750 layer_factory.hpp:77] Creating layer detection_accuracy_4_5x5
I0703 21:48:36.465872 12750 net.cpp:100] Creating Layer detection_accuracy_4_5x5
I0703 21:48:36.465875 12750 net.cpp:434] detection_accuracy_4_5x5 <- LFCN_4_5x5_LFCN_4_5x5_0_split_1
I0703 21:48:36.465880 12750 net.cpp:434] detection_accuracy_4_5x5 <- label_4_5x5_data_7_split_1
I0703 21:48:36.465886 12750 net.cpp:408] detection_accuracy_4_5x5 -> accuracy_4_5x5
I0703 21:48:36.465893 12750 net.cpp:408] detection_accuracy_4_5x5 -> boxiou_4_5x5
I0703 21:48:36.465934 12750 net.cpp:150] Setting up detection_accuracy_4_5x5
I0703 21:48:36.465940 12750 net.cpp:157] Top shape: 1 1 1 2 (2)
I0703 21:48:36.465945 12750 net.cpp:157] Top shape: 1 1 1 1 (1)
I0703 21:48:36.465947 12750 net.cpp:165] Memory required for data: 3187617548
I0703 21:48:36.465950 12750 net.cpp:228] detection_accuracy_4_5x5 does not need backward computation.
I0703 21:48:36.465955 12750 net.cpp:226] detection_loss_4_5x5 needs backward computation.
I0703 21:48:36.465957 12750 net.cpp:226] LFCN_4_5x5_LFCN_4_5x5_0_split needs backward computation.
I0703 21:48:36.465961 12750 net.cpp:226] LFCN_4_5x5 needs backward computation.
…
