…
    downsample_rate: 16
    downsample_rate: 32
    downsample_rate: 32
    downsample_rate: 64
    coord_num: 4
    field_h: 60
    field_h: 84
    field_h: 120
    field_h: 168
    field_h: 240
    field_h: 336
    field_h: 480
    field_w: 60
    field_w: 84
    field_w: 120
    field_w: 168
    field_w: 240
    field_w: 336
    field_w: 480
    fg_threshold: 0.5
    resize_width: 1344
    resize_height: 768
    crop_width: 768
    crop_height: 768
    do_multiple_scale: true
    min_scale: 60
    max_scale: 480
    min_gt_height: 25
    shuffle: true
  }
}
layer {
  name: "slice"
  type: "Slice"
  bottom: "data"
  top: "data123"
  top: "ch4"
  slice_param {
    slice_point: 3
    axis: 1
  }
}
layer {
  name: "conv1_1"
  type: "Convolution"
  bottom: "data123"
  top: "conv1_1"
  convolution_param {
    num_output: 64
    pad: 1
    kernel_size: 3
  }
}
layer {
  name: "relu1_1"
  type: "ReLU"
  bottom: "conv1_1"
  top: "conv1_1"
}
layer {
  name: "conv1_2"
  type: "Convolution"
  bottom: "conv1_1"
  top: "conv1_2"
  convolution_param {
    num_output: 64
    pad: 1
    kernel_size: 3
  }
}
layer {
  name: "relu1_2"
  type: "ReLU"
  bottom: "conv1_2"
  top: "conv1_2"
}
layer {
  name: "pool1"
  type: "Pooling"
  bottom: "conv1_2"
  top: "pool1"
  pooling_param {
    pool: MAX
    kernel_size: 2
    stride: 2
  }
}
layer {
  name: "ch4_pool1"
  type: "Pooling"
  bottom: "ch4"
  top: "ch4_pool1"
  pooling_param {
    pool: MAX
    kernel_size: 2
    stride: 2
  }
}
layer {
  name: "pool1_concat"
  type: "Concat"
  bottom: "pool1"
  bottom: "ch4_pool1"
  top: "pool1_new"
}
layer {
  name: "conv2_1_new"
  type: "Convolution"
  bottom: "pool1_new"
  top: "conv2_1"
  convolution_param {
    num_output: 128
    pad: 1
    kernel_size: 3
  }
}
layer {
  name: "relu2_1"
  type: "ReLU"
  bottom: "conv2_1"
  top: "conv2_1"
}
layer {
  name: "conv2_2"
  type: "Convolution"
  bottom: "conv2_1"
  top: "conv2_2"
  convolution_param {
    num_output: 128
    pad: 1
    kernel_size: 3
  }
}
layer {
  name: "relu2_2"
  type: "ReLU"
  bottom: "conv2_2"
  top: "conv2_2"
}
layer {
  name: "pool2"
  type: "Pooling"
  bottom: "conv2_2"
  top: "pool2"
  pooling_param {
    pool: MAX
    kernel_size: 2
    stride: 2
  }
}
layer {
  name: "ch4_pool2"
  type: "Pooling"
  bottom: "ch4_pool1"
  top: "ch4_pool2"
  pooling_param {
    pool: MAX
    kernel_size: 2
    stride: 2
  }
}
layer {
  name: "pool2_concat"
  type: "Concat"
  bottom: "pool2"
  bottom: "ch4_pool2"
  top: "pool2_new"
}
layer {
  name: "conv3_1_new"
  type: "Convolution"
  bottom: "pool2_new"
  top: "conv3_1"
  convolution_param {
    num_output: 256
    pad: 1
    kernel_size: 3
  }
}
layer {
  name: "relu3_1"
  type: "ReLU"
  bottom: "conv3_1"
  top: "conv3_1"
}
layer {
  name: "conv3_2"
  type: "Convolution"
  bottom: "conv3_1"
  top: "conv3_2"
  convolution_param {
    num_output: 256
    pad: 1
    kernel_size: 3
  }
}
layer {
  name: "relu3_2"
  type: "ReLU"
  bottom: "conv3_2"
  top: "conv3_2"
}
layer {
  name: "conv3_3"
  type: "Convolution"
  bottom: "conv3_2"
  top: "conv3_3"
  convolution_param {
    num_output: 256
    pad: 1
    kernel_size: 3
  }
}
layer {
  name: "relu3_3"
  type: "ReLU"
  bottom: "conv3_3"
  top: "conv3_3"
}
layer {
  name: "pool3"
  type: "Pooling"
  bottom: "conv3_3"
  top: "pool3"
  pooling_param {
    pool: MAX
    kernel_size: 2
    stride: 2
  }
}
layer {
  name: "ch4_pool3"
  type: "Pooling"
  bottom: "ch4_pool2"
  top: "ch4_pool3"
  pooling_param {
    pool: MAX
    kernel_size: 2
    stride: 2
  }
}
layer {
  name: "pool3_concat"
  type: "Concat"
  bottom: "pool3"
  bottom: "ch4_pool3"
  top: "pool3_new"
}
layer {
  name: "conv4_1_new"
  type: "Convolution"
  bottom: "pool3_new"
  top: "conv4_1"
  convolution_param {
    num_output: 512
    pad: 1
    kernel_size: 3
  }
}
layer {
  name: "relu4_1"
  type: "ReLU"
  bottom: "conv4_1"
  top: "conv4_1"
}
layer {
  name: "conv4_2"
  type: "Convolution"
  bottom: "conv4_1"
  top: "conv4_2"
  convolution_param {
    num_output: 512
    pad: 1
    kernel_size: 3
  }
}
layer {
  name: "relu4_2"
  type: "ReLU"
  bottom: "conv4_2"
  top: "conv4_2"
}
layer {
  name: "conv4_3"
  type: "Convolution"
  bottom: "conv4_2"
  top: "conv4_3"
  convolution_param {
    num_output: 512
    pad: 1
    kernel_size: 3
  }
}
layer {
  name: "relu4_3"
  type: "ReLU"
  bottom: "conv4_3"
  top: "conv4_3"
}
layer {
  name: "loss1_conv1"
  type: "Convolution"
  bottom: "conv4_3"
  top: "loss1_conv1"
  param {
    lr_mult: 1
    decay_mult: 1
  }
  param {
    lr_mult: 2
    decay_mult: 0
  }
  convolution_param {
    num_output: 512
    pad: 1
    kernel_size: 3
    weight_filler {
      type: "gaussian"
      std: 0.01
    }
    bias_filler {
      type: "constant"
    }
  }
}
layer {
  name: "loss_relu1"
  type: "ReLU"
  bottom: "loss1_conv1"
  top: "loss1_conv1"
}
layer {
  name: "LFCN_1_5x5"
  type: "Convolution"
  bottom: "loss1_conv1"
  top: "LFCN_1_5x5"
  param {
    lr_mult: 1
    decay_mult: 1
  }
  param {
    lr_mult: 2
    decay_mult: 0
  }
  convolution_param {
    num_output: 9
    pad: 2
    kernel_size: 5
    weight_filler {
      type: "gaussian"
      std: 0.001
    }
    bias_filler {
      type: "constant"
    }
  }
}
layer {
  name: "detection_loss_1_5x5"
  type: "DetectionLoss"
  bottom: "LFCN_1_5x5"
  bottom: "label_1_5x5"
  top: "loss_1_5x5"
  loss_weight: 0.9
  detection_loss_param {
    cls_num: 5
    coord_num: 4
    lambda: 0.05
    field_h: 60
    field_w: 60
    downsample_rate: 8
    bb_smooth: true
    field_whr: 2
    field_xyr: 2
    bg_threshold: 0.2
    bg_multiple: 2
    sample_mode: "random"
    pos_neg_weighted: true
  }
}
layer {
  name: "detection_accuracy_1_5x5"
  type: "DetectionAccuracy"
  bottom: "LFCN_1_5x5"
  bottom: "label_1_5x5"
  top: "accuracy_1_5x5"
  top: "boxiou_1_5x5"
  detection_accuracy_param {
    cls_num: 5
    coord_num: 4
    field_h: 60
    field_w: 60
    downsample_rate: 8
    field_whr: 2
    field_xyr: 2
  }
}
layer {
  name: "LFCN_1_7x7"
  type: "Convolution"
  bottom: "loss1_conv1"
  top: "LFCN_1_7x7"
  param {
    lr_mult: 1
    decay_mult: 1
  }
  param {
    lr_mult: 2
    decay_mult: 0
  }
  convolution_param {
    num_output: 9
    pad: 3
    kernel_size: 7
    weight_filler {
      type: "gaussian"
      std: 0.001
    }
    bias_filler {
      type: "constant"
    }
  }
}
layer {
  name: "detection_loss_1_7x7"
  type: "DetectionLoss"
  bottom: "LFCN_1_7x7"
  bottom: "label_1_7x7"
  top: "loss_1_7x7"
  loss_weight: 0.9
  detection_loss_param {
    cls_num: 5
    coord_num: 4
    lambda: 0.05
    field_h: 84
    field_w: 84
    downsample_rate: 8
    bb_smooth: true
    field_whr: 2
    field_xyr: 2
    bg_threshold: 0.2
    bg_multiple: 2
    sample_mode: "random"
    pos_neg_weighted: true
  }
}
layer {
  name: "detection_accuracy_1_7x7"
  type: "DetectionAccuracy"
  bottom: "LFCN_1_7x7"
  bottom: "label_1_7x7"
  top: "accuracy_1_7x7"
  top: "boxiou_1_7x7"
  detection_accuracy_param {
    cls_num: 5
    coord_num: 4
    field_h: 84
    field_w: 84
    downsample_rate: 8
    field_whr: 2
    field_xyr: 2
  }
}
layer {
  name: "pool4"
  type: "Pooling"
  bottom: "conv4_3"
  top: "pool4"
  pooling_param {
    pool: MAX
    kernel_size: 2
    stride: 2
  }
}
layer {
  name: "ch4_pool4"
  type: "Pooling"
  bottom: "ch4_pool3"
  top: "ch4_pool4"
  pooling_param {
    pool: MAX
    kernel_size: 2
    stride: 2
  }
}
layer {
  name: "pool4_concat"
  type: "Concat"
  bottom: "pool4"
  bottom: "ch4_pool4"
  top: "pool4_new"
}
layer {
  name: "conv5_1_new"
  type: "Convolution"
  bottom: "pool4_new"
  top: "conv5_1"
  convolution_param {
    num_output: 512
    pad: 1
    kernel_size: 3
  }
}
layer {
  name: "relu5_1"
  type: "ReLU"
  bottom: "conv5_1"
  top: "conv5_1"
}
layer {
  name: "conv5_2"
  type: "Convolution"
  bottom: "conv5_1"
  top: "conv5_2"
  convolution_param {
    num_output: 512
    pad: 1
    kernel_size: 3
  }
}
layer {
  name: "relu5_2"
  type: "ReLU"
  bottom: "conv5_2"
  top: "conv5_2"
}
layer {
  name: "conv5_3"
  type: "Convolution"
  bottom: "conv5_2"
  top: "conv5_3"
  convolution_param {
    num_output: 512
    pad: 1
    kernel_size: 3
  }
}
layer {
  name: "relu5_3"
  type: "ReLU"
  bottom: "conv5_3"
  top: "conv5_3"
}
layer {
  name: "LFCN_2_5x5"
  type: "Convolution"
  bottom: "conv5_3"
  top: "LFCN_2_5x5"
  param {
    lr_mult: 1
    decay_mult: 1
  }
  param {
    lr_mult: 2
    decay_mult: 0
  }
  convolution_param {
    num_output: 9
    pad: 2
    kernel_size: 5
    weight_filler {
      type: "gaussian"
      std: 0.001
    }
    bias_filler {
      type: "constant"
    }
  }
}
layer {
  name: "detection_loss_2_5x5"
  type: "DetectionLoss"
  bottom: "LFCN_2_5x5"
  bottom: "label_2_5x5"
  top: "loss_2_5x5"
  detection_loss_param {
    cls_num: 5
    coord_num: 4
    lambda: 0.05
    field_h: 120
    field_w: 120
    downsample_rate: 16
    bb_smooth: true
    field_whr: 2
    field_xyr: 2
    bg_threshold: 0.2
    bg_multiple: 2
    sample_mode: "random"
    pos_neg_weighted: true
  }
}
layer {
  name: "detection_accuracy_2_5x5"
  type: "DetectionAccuracy"
  bottom: "LFCN_2_5x5"
  bottom: "label_2_5x5"
  top: "accuracy_2_5x5"
  top: "boxiou_2_5x5"
  detection_accuracy_param {
    cls_num: 5
    coord_num: 4
    field_h: 120
    field_w: 120
    downsample_rate: 16
    field_whr: 2
    field_xyr: 2
  }
}
layer {
  name: "LFCN_2_7x7"
  type: "Convolution"
  bottom: "conv5_3"
  top: "LFCN_2_7x7"
  param {
    lr_mult: 1
    decay_mult: 1
  }
  param {
    lr_mult: 2
    decay_mult: 0
  }
  convolution_param {
    num_output: 9
    pad: 3
    kernel_size: 7
    weight_filler {
      type: "gaussian"
      std: 0.001
    }
    bias_filler {
      type: "constant"
    }
  }
}
layer {
  name: "detection_loss_2_7x7"
  type: "DetectionLoss"
  bottom: "LFCN_2_7x7"
  bottom: "label_2_7x7"
  top: "loss_2_7x7"
  detection_loss_param {
    cls_num: 5
    coord_num: 4
    lambda: 0.05
    field_h: 168
    field_w: 168
    downsample_rate: 16
    bb_smooth: true
    field_whr: 2
    field_xyr: 2
    bg_threshold: 0.2
    bg_multiple: 2
    sample_mode: "random"
    pos_neg_weighted: true
  }
}
layer {
  name: "detection_accuracy_2_7x7"
  type: "DetectionAccuracy"
  bottom: "LFCN_2_7x7"
  bottom: "label_2_7x7"
  top: "accuracy_2_7x7"
  top: "boxiou_2_7x7"
  detection_accuracy_param {
    cls_num: 5
    coord_num: 4
    field_h: 168
    field_w: 168
    downsample_rate: 16
    field_whr: 2
    field_xyr: 2
  }
}
layer {
  name: "pool5"
  type: "Pooling"
  bottom: "conv5_3"
  top: "pool5"
  pooling_param {
    pool: MAX
    kernel_size: 2
    stride: 2
  }
}
layer {
  name: "ch4_pool5"
  type: "Pooling"
  bottom: "ch4_pool4"
  top: "ch4_pool5"
  pooling_param {
    pool: MAX
    kernel_size: 2
    stride: 2
  }
}
layer {
  name: "pool5_concat"
  type: "Concat"
  bottom: "pool5"
  bottom: "ch4_pool5"
  top: "pool5_new"
}
layer {
  name: "conv6_1_new"
  type: "Convolution"
  bottom: "pool5_new"
  top: "conv6_1"
  param {
    lr_mult: 1
    decay_mult: 1
  }
  param {
    lr_mult: 2
    decay_mult: 0
  }
  convolution_param {
    num_output: 512
    pad: 1
    kernel_size: 3
    weight_filler {
      type: "gaussian"
      std: 0.01
    }
    bias_filler {
      type: "constant"
    }
  }
}
layer {
  name: "relu6_1"
  type: "ReLU"
  bottom: "conv6_1"
  top: "conv6_1"
}
layer {
  name: "LFCN_3_5x5"
  type: "Convolution"
  bottom: "conv6_1"
  top: "LFCN_3_5x5"
  param {
    lr_mult: 1
    decay_mult: 1
  }
  param {
    lr_mult: 2
    decay_mult: 0
  }
  convolution_param {
    num_output: 9
    pad: 2
    kernel_size: 5
    weight_filler {
      type: "gaussian"
      std: 0.001
    }
    bias_filler {
      type: "constant"
    }
  }
}
layer {
  name: "detection_loss_3_5x5"
  type: "DetectionLoss"
  bottom: "LFCN_3_5x5"
  bottom: "label_3_5x5"
  top: "loss_3_5x5"
  detection_loss_param {
    cls_num: 5
    coord_num: 4
    lambda: 0.05
    field_h: 240
    field_w: 240
    downsample_rate: 32
    bb_smooth: true
    field_whr: 2
    field_xyr: 2
    bg_threshold: 0.2
    bg_multiple: 2
    sample_mode: "random"
    pos_neg_weighted: true
  }
}
layer {
  name: "detection_accuracy_3_5x5"
  type: "DetectionAccuracy"
  bottom: "LFCN_3_5x5"
  bottom: "label_3_5x5"
  top: "accuracy_3_5x5"
  top: "boxiou_3_5x5"
  detection_accuracy_param {
    cls_num: 5
    coord_num: 4
    field_h: 240
    field_w: 240
    downsample_rate: 32
    field_whr: 2
    field_xyr: 2
  }
}
layer {
  name: "LFCN_3_7x7"
  type: "Convolution"
  bottom: "conv6_1"
  top: "LFCN_3_7x7"
  param {
    lr_mult: 1
    decay_mult: 1
  }
  param {
    lr_mult: 2
    decay_mult: 0
  }
  convolution_param {
    num_output: 9
    pad: 3
    kernel_size: 7
    weight_filler {
      type: "gaussian"
      std: 0.001
    }
    bias_filler {
      type: "constant"
    }
  }
}
layer {
  name: "detection_loss_3_7x7"
  type: "DetectionLoss"
  bottom: "LFCN_3_7x7"
  bottom: "label_3_7x7"
  top: "loss_3_7x7"
  detection_loss_param {
    cls_num: 5
    coord_num: 4
    lambda: 0.05
    field_h: 336
    field_w: 336
    downsample_rate: 32
    bb_smooth: true
    field_whr: 2
    field_xyr: 2
    bg_threshold: 0.2
    bg_multiple: 2
    sample_mode: "random"
    pos_neg_weighted: true
  }
}
layer {
  name: "detection_accuracy_3_7x7"
  type: "DetectionAccuracy"
  bottom: "LFCN_3_7x7"
  bottom: "label_3_7x7"
  top: "accuracy_3_7x7"
  top: "boxiou_3_7x7"
  detection_accuracy_param {
    cls_num: 5
    coord_num: 4
    field_h: 336
    field_w: 336
    downsample_rate: 32
    field_whr: 2
    field_xyr: 2
  }
}
layer {
  name: "pool6"
  type: "Pooling"
  bottom: "conv6_1"
  top: "pool6"
  pooling_param {
    pool: MAX
    kernel_size: 2
    stride: 2
  }
}
layer {
  name: "ch4_pool6"
  type: "Pooling"
  bottom: "ch4_pool5"
  top: "ch4_pool6"
  pooling_param {
    pool: MAX
    kernel_size: 2
    stride: 2
  }
}
layer {
  name: "pool6_concat"
  type: "Concat"
  bottom: "pool6"
  bottom: "ch4_pool6"
  top: "pool6_new"
}
layer {
  name: "LFCN_4_5x5_new"
  type: "Convolution"
  bottom: "pool6_new"
  top: "LFCN_4_5x5"
  param {
    lr_mult: 1
    decay_mult: 1
  }
  param {
    lr_mult: 2
    decay_mult: 0
  }
  convolution_param {
    num_output: 9
    pad: 2
    kernel_size: 5
    weight_filler {
      type: "gaussian"
      std: 0.001
    }
    bias_filler {
      type: "constant"
    }
  }
}
layer {
  name: "detection_loss_4_5x5"
  type: "DetectionLoss"
  bottom: "LFCN_4_5x5"
  bottom: "label_4_5x5"
  top: "loss_4_5x5"
  detection_loss_param {
    cls_num: 5
    coord_num: 4
    lambda: 0.05
    field_h: 480
    field_w: 480
    downsample_rate: 64
    bb_smooth: true
    field_whr: 2
    field_xyr: 2
    bg_threshold: 0.2
    bg_multiple: 2
    sample_mode: "random"
    pos_neg_weighted: true
  }
}
layer {
  name: "detection_accuracy_4_5x5"
  type: "DetectionAccuracy"
  bottom: "LFCN_4_5x5"
  bottom: "label_4_5x5"
  top: "accuracy_4_5x5"
  top: "boxiou_4_5x5"
  detection_accuracy_param {
    cls_num: 5
    coord_num: 4
    field_h: 480
    field_w: 480
    downsample_rate: 64
    field_whr: 2
    field_xyr: 2
  }
}
I0913 10:59:49.326745 19021 layer_factory.hpp:77] Creating layer data
I0913 10:59:49.326794 19021 net.cpp:100] Creating Layer data
I0913 10:59:49.326802 19021 net.cpp:408] data -> data
…
I0913 10:59:49.352751 19021 image_gt_data_layer.cpp:235] output label size 1 : 4,6,96,96
I0913 10:59:49.352788 19021 image_gt_data_layer.cpp:235] output label size 2 : 4,6,48,48
I0913 10:59:49.352824 19021 image_gt_data_layer.cpp:235] output label size 3 : 4,6,48,48
I0913 10:59:49.352861 19021 image_gt_data_layer.cpp:235] output label size 4 : 4,6,24,24
I0913 10:59:49.352897 19021 image_gt_data_layer.cpp:235] output label size 5 : 4,6,24,24
I0913 10:59:49.352934 19021 image_gt_data_layer.cpp:235] output label size 6 : 4,6,12,12
I0913 10:59:49.427067 19021 net.cpp:150] Setting up data
I0913 10:59:49.427126 19021 net.cpp:157] Top shape: 4 4 768 768 (9437184)
I0913 10:59:49.427134 19021 net.cpp:157] Top shape: 4 6 96 96 (221184)
I0913 10:59:49.427139 19021 net.cpp:157] Top shape: 4 6 96 96 (221184)
I0913 10:59:49.427143 19021 net.cpp:157] Top shape: 4 6 48 48 (55296)
I0913 10:59:49.427148 19021 net.cpp:157] Top shape: 4 6 48 48 (55296)
I0913 10:59:49.427155 19021 net.cpp:157] Top shape: 4 6 24 24 (13824)
I0913 10:59:49.427158 19021 net.cpp:157] Top shape: 4 6 24 24 (13824)
I0913 10:59:49.427162 19021 net.cpp:157] Top shape: 4 6 12 12 (3456)
I0913 10:59:49.427166 19021 net.cpp:165] Memory required for data: 40084992
I0913 10:59:49.427184 19021 layer_factory.hpp:77] Creating layer label_1_5x5_data_1_split
I0913 10:59:49.427232 19021 net.cpp:100] Creating Layer label_1_5x5_data_1_split
I0913 10:59:49.427244 19021 net.cpp:434] label_1_5x5_data_1_split <- label_1_5x5
I0913 10:59:49.427268 19021 net.cpp:408] label_1_5x5_data_1_split -> label_1_5x5_data_1_split_0
I0913 10:59:49.427284 19021 net.cpp:408] label_1_5x5_data_1_split -> label_1_5x5_data_1_split_1
I0913 10:59:49.427491 19021 net.cpp:150] Setting up label_1_5x5_data_1_split
I0913 10:59:49.427543 19021 net.cpp:157] Top shape: 4 6 96 96 (221184)
I0913 10:59:49.427556 19021 net.cpp:157] Top shape: 4 6 96 96 (221184)
I0913 10:59:49.427564 19021 net.cpp:165] Memory required for data: 41854464
I0913 10:59:49.427578 19021 layer_factory.hpp:77] Creating layer label_1_7x7_data_2_split
I0913 10:59:49.427603 19021 net.cpp:100] Creating Layer label_1_7x7_data_2_split
I0913 10:59:49.427614 19021 net.cpp:434] label_1_7x7_data_2_split <- label_1_7x7
I0913 10:59:49.427629 19021 net.cpp:408] label_1_7x7_data_2_split -> label_1_7x7_data_2_split_0
I0913 10:59:49.427649 19021 net.cpp:408] label_1_7x7_data_2_split -> label_1_7x7_data_2_split_1
I0913 10:59:49.427713 19021 net.cpp:150] Setting up label_1_7x7_data_2_split
I0913 10:59:49.427726 19021 net.cpp:157] Top shape: 4 6 96 96 (221184)
I0913 10:59:49.427737 19021 net.cpp:157] Top shape: 4 6 96 96 (221184)
I0913 10:59:49.427747 19021 net.cpp:165] Memory required for data: 43623936
I0913 10:59:49.427754 19021 layer_factory.hpp:77] Creating layer label_2_5x5_data_3_split
I0913 10:59:49.427767 19021 net.cpp:100] Creating Layer label_2_5x5_data_3_split
I0913 10:59:49.427775 19021 net.cpp:434] label_2_5x5_data_3_split <- label_2_5x5
I0913 10:59:49.427786 19021 net.cpp:408] label_2_5x5_data_3_split -> label_2_5x5_data_3_split_0
I0913 10:59:49.427799 19021 net.cpp:408] label_2_5x5_data_3_split -> label_2_5x5_data_3_split_1
I0913 10:59:49.427856 19021 net.cpp:150] Setting up label_2_5x5_data_3_split
I0913 10:59:49.427870 19021 net.cpp:157] Top shape: 4 6 48 48 (55296)
I0913 10:59:49.427881 19021 net.cpp:157] Top shape: 4 6 48 48 (55296)
I0913 10:59:49.427889 19021 net.cpp:165] Memory required for data: 44066304
I0913 10:59:49.427896 19021 layer_factory.hpp:77] Creating layer label_2_7x7_data_4_split
I0913 10:59:49.427907 19021 net.cpp:100] Creating Layer label_2_7x7_data_4_split
I0913 10:59:49.427917 19021 net.cpp:434] label_2_7x7_data_4_split <- label_2_7x7
I0913 10:59:49.427927 19021 net.cpp:408] label_2_7x7_data_4_split -> label_2_7x7_data_4_split_0
I0913 10:59:49.427942 19021 net.cpp:408] label_2_7x7_data_4_split -> label_2_7x7_data_4_split_1
I0913 10:59:49.427997 19021 net.cpp:150] Setting up label_2_7x7_data_4_split
I0913 10:59:49.428009 19021 net.cpp:157] Top shape: 4 6 48 48 (55296)
I0913 10:59:49.428020 19021 net.cpp:157] Top shape: 4 6 48 48 (55296)
I0913 10:59:49.428028 19021 net.cpp:165] Memory required for data: 44508672
I0913 10:59:49.428035 19021 layer_factory.hpp:77] Creating layer label_3_5x5_data_5_split
I0913 10:59:49.428047 19021 net.cpp:100] Creating Layer label_3_5x5_data_5_split
I0913 10:59:49.428056 19021 net.cpp:434] label_3_5x5_data_5_split <- label_3_5x5
I0913 10:59:49.428066 19021 net.cpp:408] label_3_5x5_data_5_split -> label_3_5x5_data_5_split_0
I0913 10:59:49.428083 19021 net.cpp:408] label_3_5x5_data_5_split -> label_3_5x5_data_5_split_1
I0913 10:59:49.428139 19021 net.cpp:150] Setting up label_3_5x5_data_5_split
I0913 10:59:49.428153 19021 net.cpp:157] Top shape: 4 6 24 24 (13824)
I0913 10:59:49.428164 19021 net.cpp:157] Top shape: 4 6 24 24 (13824)
I0913 10:59:49.428171 19021 net.cpp:165] Memory required for data: 44619264
I0913 10:59:49.428180 19021 layer_factory.hpp:77] Creating layer label_3_7x7_data_6_split
I0913 10:59:49.428190 19021 net.cpp:100] Creating Layer label_3_7x7_data_6_split
I0913 10:59:49.428200 19021 net.cpp:434] label_3_7x7_data_6_split <- label_3_7x7
I0913 10:59:49.428211 19021 net.cpp:408] label_3_7x7_data_6_split -> label_3_7x7_data_6_split_0
I0913 10:59:49.428225 19021 net.cpp:408] label_3_7x7_data_6_split -> label_3_7x7_data_6_split_1
I0913 10:59:49.428278 19021 net.cpp:150] Setting up label_3_7x7_data_6_split
I0913 10:59:49.428290 19021 net.cpp:157] Top shape: 4 6 24 24 (13824)
I0913 10:59:49.428300 19021 net.cpp:157] Top shape: 4 6 24 24 (13824)
I0913 10:59:49.428308 19021 net.cpp:165] Memory required for data: 44729856
I0913 10:59:49.428315 19021 layer_factory.hpp:77] Creating layer label_4_5x5_data_7_split
I0913 10:59:49.428328 19021 net.cpp:100] Creating Layer label_4_5x5_data_7_split
I0913 10:59:49.428336 19021 net.cpp:434] label_4_5x5_data_7_split <- label_4_5x5
I0913 10:59:49.428346 19021 net.cpp:408] label_4_5x5_data_7_split -> label_4_5x5_data_7_split_0
I0913 10:59:49.428359 19021 net.cpp:408] label_4_5x5_data_7_split -> label_4_5x5_data_7_split_1
I0913 10:59:49.428414 19021 net.cpp:150] Setting up label_4_5x5_data_7_split
I0913 10:59:49.428426 19021 net.cpp:157] Top shape: 4 6 12 12 (3456)
I0913 10:59:49.428437 19021 net.cpp:157] Top shape: 4 6 12 12 (3456)
I0913 10:59:49.428447 19021 net.cpp:165] Memory required for data: 44757504
I0913 10:59:49.428453 19021 layer_factory.hpp:77] Creating layer slice
I0913 10:59:49.428484 19021 net.cpp:100] Creating Layer slice
I0913 10:59:49.428494 19021 net.cpp:434] slice <- data
I0913 10:59:49.428505 19021 net.cpp:408] slice -> data123
I0913 10:59:49.428524 19021 net.cpp:408] slice -> ch4
I0913 10:59:49.428586 19021 net.cpp:150] Setting up slice
I0913 10:59:49.428598 19021 net.cpp:157] Top shape: 4 3 768 768 (7077888)
I0913 10:59:49.428609 19021 net.cpp:157] Top shape: 4 1 768 768 (2359296)
I0913 10:59:49.428618 19021 net.cpp:165] Memory required for data: 82506240
I0913 10:59:49.428627 19021 layer_factory.hpp:77] Creating layer conv1_1
I0913 10:59:49.428650 19021 net.cpp:100] Creating Layer conv1_1
I0913 10:59:49.428660 19021 net.cpp:434] conv1_1 <- data123
I0913 10:59:49.428670 19021 net.cpp:408] conv1_1 -> conv1_1
I0913 10:59:49.724195 19021 net.cpp:150] Setting up conv1_1
I0913 10:59:49.724225 19021 net.cpp:157] Top shape: 4 64 768 768 (150994944)
I0913 10:59:49.724231 19021 net.cpp:165] Memory required for data: 686486016
I0913 10:59:49.724252 19021 layer_factory.hpp:77] Creating layer relu1_1
I0913 10:59:49.724265 19021 net.cpp:100] Creating Layer relu1_1
I0913 10:59:49.724272 19021 net.cpp:434] relu1_1 <- conv1_1
I0913 10:59:49.724279 19021 net.cpp:395] relu1_1 -> conv1_1 (in-place)
I0913 10:59:49.724480 19021 net.cpp:150] Setting up relu1_1
I0913 10:59:49.724490 19021 net.cpp:157] Top shape: 4 64 768 768 (150994944)
I0913 10:59:49.724494 19021 net.cpp:165] Memory required for data: 1290465792
I0913 10:59:49.724498 19021 layer_factory.hpp:77] Creating layer conv1_2
I0913 10:59:49.724509 19021 net.cpp:100] Creating Layer conv1_2
I0913 10:59:49.724514 19021 net.cpp:434] conv1_2 <- conv1_1
I0913 10:59:49.724521 19021 net.cpp:408] conv1_2 -> conv1_2
I0913 10:59:49.726800 19021 net.cpp:150] Setting up conv1_2
I0913 10:59:49.726816 19021 net.cpp:157] Top shape: 4 64 768 768 (150994944)
I0913 10:59:49.726820 19021 net.cpp:165] Memory required for data: 1894445568
I0913 10:59:49.726830 19021 layer_factory.hpp:77] Creating layer relu1_2
I0913 10:59:49.726837 19021 net.cpp:100] Creating Layer relu1_2
I0913 10:59:49.726842 19021 net.cpp:434] relu1_2 <- conv1_2
I0913 10:59:49.726847 19021 net.cpp:395] relu1_2 -> conv1_2 (in-place)
I0913 10:59:49.727000 19021 net.cpp:150] Setting up relu1_2
I0913 10:59:49.727010 19021 net.cpp:157] Top shape: 4 64 768 768 (150994944)
I0913 10:59:49.727013 19021 net.cpp:165] Memory required for data: 2498425344
I0913 10:59:49.727016 19021 layer_factory.hpp:77] Creating layer pool1
I0913 10:59:49.727022 19021 net.cpp:100] Creating Layer pool1
I0913 10:59:49.727026 19021 net.cpp:434] pool1 <- conv1_2
I0913 10:59:49.727031 19021 net.cpp:408] pool1 -> pool1
I0913 10:59:49.727078 19021 net.cpp:150] Setting up pool1
I0913 10:59:49.727085 19021 net.cpp:157] Top shape: 4 64 384 384 (37748736)
I0913 10:59:49.727089 19021 net.cpp:165] Memory required for data: 2649420288
I0913 10:59:49.727092 19021 layer_factory.hpp:77] Creating layer ch4_pool1
I0913 10:59:49.727097 19021 net.cpp:100] Creating Layer ch4_pool1
I0913 10:59:49.727100 19021 net.cpp:434] ch4_pool1 <- ch4
I0913 10:59:49.727105 19021 net.cpp:408] ch4_pool1 -> ch4_pool1
I0913 10:59:49.727133 19021 net.cpp:150] Setting up ch4_pool1
I0913 10:59:49.727138 19021 net.cpp:157] Top shape: 4 1 384 384 (589824)
I0913 10:59:49.727140 19021 net.cpp:165] Memory required for data: 2651779584
I0913 10:59:49.727144 19021 layer_factory.hpp:77] Creating layer ch4_pool1_ch4_pool1_0_split
I0913 10:59:49.727149 19021 net.cpp:100] Creating Layer ch4_pool1_ch4_pool1_0_split
I0913 10:59:49.727154 19021 net.cpp:434] ch4_pool1_ch4_pool1_0_split <- ch4_pool1
I0913 10:59:49.727157 19021 net.cpp:408] ch4_pool1_ch4_pool1_0_split -> ch4_pool1_ch4_pool1_0_split_0
I0913 10:59:49.727162 19021 net.cpp:408] ch4_pool1_ch4_pool1_0_split -> ch4_pool1_ch4_pool1_0_split_1
I0913 10:59:49.727190 19021 net.cpp:150] Setting up ch4_pool1_ch4_pool1_0_split
I0913 10:59:49.727195 19021 net.cpp:157] Top shape: 4 1 384 384 (589824)
I0913 10:59:49.727200 19021 net.cpp:157] Top shape: 4 1 384 384 (589824)
I0913 10:59:49.727202 19021 net.cpp:165] Memory required for data: 2656498176
I0913 10:59:49.727205 19021 layer_factory.hpp:77] Creating layer pool1_concat
I0913 10:59:49.727212 19021 net.cpp:100] Creating Layer pool1_concat
I0913 10:59:49.727216 19021 net.cpp:434] pool1_concat <- pool1
I0913 10:59:49.727221 19021 net.cpp:434] pool1_concat <- ch4_pool1_ch4_pool1_0_split_0
I0913 10:59:49.727224 19021 net.cpp:408] pool1_concat -> pool1_new
I0913 10:59:49.727246 19021 net.cpp:150] Setting up pool1_concat
I0913 10:59:49.727252 19021 net.cpp:157] Top shape: 4 65 384 384 (38338560)
I0913 10:59:49.727255 19021 net.cpp:165] Memory required for data: 2809852416
I0913 10:59:49.727259 19021 layer_factory.hpp:77] Creating layer conv2_1_new
I0913 10:59:49.727267 19021 net.cpp:100] Creating Layer conv2_1_new
I0913 10:59:49.727270 19021 net.cpp:434] conv2_1_new <- pool1_new
I0913 10:59:49.727274 19021 net.cpp:408] conv2_1_new -> conv2_1
I0913 10:59:49.729333 19021 net.cpp:150] Setting up conv2_1_new
I0913 10:59:49.729346 19021 net.cpp:157] Top shape: 4 128 384 384 (75497472)
I0913 10:59:49.729349 19021 net.cpp:165] Memory required for data: 3111842304
I0913 10:59:49.729358 19021 layer_factory.hpp:77] Creating layer relu2_1
I0913 10:59:49.729364 19021 net.cpp:100] Creating Layer relu2_1
I0913 10:59:49.729368 19021 net.cpp:434] relu2_1 <- conv2_1
I0913 10:59:49.729372 19021 net.cpp:395] relu2_1 -> conv2_1 (in-place)
I0913 10:59:49.729521 19021 net.cpp:150] Setting up relu2_1
I0913 10:59:49.729527 19021 net.cpp:157] Top shape: 4 128 384 384 (75497472)
I0913 10:59:49.729530 19021 net.cpp:165] Memory required for data: 3413832192
I0913 10:59:49.729533 19021 layer_factory.hpp:77] Creating layer conv2_2
I0913 10:59:49.729542 19021 net.cpp:100] Creating Layer conv2_2
I0913 10:59:49.729544 19021 net.cpp:434] conv2_2 <- conv2_1
I0913 10:59:49.729550 19021 net.cpp:408] conv2_2 -> conv2_2
I0913 10:59:49.730861 19021 net.cpp:150] Setting up conv2_2
I0913 10:59:49.730875 19021 net.cpp:157] Top shape: 4 128 384 384 (75497472)
I0913 10:59:49.730878 19021 net.cpp:165] Memory required for data: 3715822080
I0913 10:59:49.730885 19021 layer_factory.hpp:77] Creating layer relu2_2
I0913 10:59:49.730890 19021 net.cpp:100] Creating Layer relu2_2
I0913 10:59:49.730895 19021 net.cpp:434] relu2_2 <- conv2_2
I0913 10:59:49.730900 19021 net.cpp:395] relu2_2 -> conv2_2 (in-place)
I0913 10:59:49.731045 19021 net.cpp:150] Setting up relu2_2
I0913 10:59:49.731052 19021 net.cpp:157] Top shape: 4 128 384 384 (75497472)
I0913 10:59:49.731057 19021 net.cpp:165] Memory required for data: 4017811968
I0913 10:59:49.731061 19021 layer_factory.hpp:77] Creating layer pool2
I0913 10:59:49.731067 19021 net.cpp:100] Creating Layer pool2
I0913 10:59:49.731070 19021 net.cpp:434] pool2 <- conv2_2
I0913 10:59:49.731076 19021 net.cpp:408] pool2 -> pool2
I0913 10:59:49.731108 19021 net.cpp:150] Setting up pool2
I0913 10:59:49.731115 19021 net.cpp:157] Top shape: 4 128 192 192 (18874368)
I0913 10:59:49.731118 19021 net.cpp:165] Memory required for data: 4093309440
I0913 10:59:49.731122 19021 layer_factory.hpp:77] Creating layer ch4_pool2
I0913 10:59:49.731127 19021 net.cpp:100] Creating Layer ch4_pool2
I0913 10:59:49.731130 19021 net.cpp:434] ch4_pool2 <- ch4_pool1_ch4_pool1_0_split_1
I0913 10:59:49.731135 19021 net.cpp:408] ch4_pool2 -> ch4_pool2
I0913 10:59:49.731163 19021 net.cpp:150] Setting up ch4_pool2
I0913 10:59:49.731168 19021 net.cpp:157] Top shape: 4 1 192 192 (147456)
I0913 10:59:49.731171 19021 net.cpp:165] Memory required for data: 4093899264
I0913 10:59:49.731174 19021 layer_factory.hpp:77] Creating layer ch4_pool2_ch4_pool2_0_split
I0913 10:59:49.731179 19021 net.cpp:100] Creating Layer ch4_pool2_ch4_pool2_0_split
I0913 10:59:49.731184 19021 net.cpp:434] ch4_pool2_ch4_pool2_0_split <- ch4_pool2
I0913 10:59:49.731187 19021 net.cpp:408] ch4_pool2_ch4_pool2_0_split -> ch4_pool2_ch4_pool2_0_split_0
I0913 10:59:49.731194 19021 net.cpp:408] ch4_pool2_ch4_pool2_0_split -> ch4_pool2_ch4_pool2_0_split_1
I0913 10:59:49.731220 19021 net.cpp:150] Setting up ch4_pool2_ch4_pool2_0_split
I0913 10:59:49.731226 19021 net.cpp:157] Top shape: 4 1 192 192 (147456)
I0913 10:59:49.731231 19021 net.cpp:157] Top shape: 4 1 192 192 (147456)
I0913 10:59:49.731235 19021 net.cpp:165] Memory required for data: 4095078912
I0913 10:59:49.731240 19021 layer_factory.hpp:77] Creating layer pool2_concat
I0913 10:59:49.731245 19021 net.cpp:100] Creating Layer pool2_concat
I0913 10:59:49.731250 19021 net.cpp:434] pool2_concat <- pool2
I0913 10:59:49.731254 19021 net.cpp:434] pool2_concat <- ch4_pool2_ch4_pool2_0_split_0
I0913 10:59:49.731261 19021 net.cpp:408] pool2_concat -> pool2_new
I0913 10:59:49.731281 19021 net.cpp:150] Setting up pool2_concat
I0913 10:59:49.731288 19021 net.cpp:157] Top shape: 4 129 192 192 (19021824)
I0913 10:59:49.731292 19021 net.cpp:165] Memory required for data: 4171166208
I0913 10:59:49.731297 19021 layer_factory.hpp:77] Creating layer conv3_1_new
I0913 10:59:49.731304 19021 net.cpp:100] Creating Layer conv3_1_new
I0913 10:59:49.731308 19021 net.cpp:434] conv3_1_new <- pool2_new
I0913 10:59:49.731314 19021 net.cpp:408] conv3_1_new -> conv3_1
I0913 10:59:49.733980 19021 net.cpp:150] Setting up conv3_1_new
I0913 10:59:49.734004 19021 net.cpp:157] Top shape: 4 256 192 192 (37748736)
I0913 10:59:49.734009 19021 net.cpp:165] Memory required for data: 4322161152
I0913 10:59:49.734045 19021 layer_factory.hpp:77] Creating layer relu3_1
I0913 10:59:49.734060 19021 net.cpp:100] Creating Layer relu3_1
I0913 10:59:49.734066 19021 net.cpp:434] relu3_1 <- conv3_1
I0913 10:59:49.734074 19021 net.cpp:395] relu3_1 -> conv3_1 (in-place)
I0913 10:59:49.737133 19021 net.cpp:150] Setting up relu3_1
I0913 10:59:49.737151 19021 net.cpp:157] Top shape: 4 256 192 192 (37748736)
I0913 10:59:49.737156 19021 net.cpp:165] Memory required for data: 4473156096
I0913 10:59:49.737161 19021 layer_factory.hpp:77] Creating layer conv3_2
I0913 10:59:49.737176 19021 net.cpp:100] Creating Layer conv3_2
I0913 10:59:49.737181 19021 net.cpp:434] conv3_2 <- conv3_1
I0913 10:59:49.737190 19021 net.cpp:408] conv3_2 -> conv3_2
I0913 10:59:49.739696 19021 net.cpp:150] Setting up conv3_2
I0913 10:59:49.739717 19021 net.cpp:157] Top shape: 4 256 192 192 (37748736)
I0913 10:59:49.739722 19021 net.cpp:165] Memory required for data: 4624151040
I0913 10:59:49.739732 19021 layer_factory.hpp:77] Creating layer relu3_2
I0913 10:59:49.739742 19021 net.cpp:100] Creating Layer relu3_2
I0913 10:59:49.739748 19021 net.cpp:434] relu3_2 <- conv3_2
I0913 10:59:49.739754 19021 net.cpp:395] relu3_2 -> conv3_2 (in-place)
I0913 10:59:49.740314 19021 net.cpp:150] Setting up relu3_2
I0913 10:59:49.740325 19021 net.cpp:157] Top shape: 4 256 192 192 (37748736)
I0913 10:59:49.740329 19021 net.cpp:165] Memory required for data: 4775145984
I0913 10:59:49.740332 19021 layer_factory.hpp:77] Creating layer conv3_3
I0913 10:59:49.740342 19021 net.cpp:100] Creating Layer conv3_3
I0913 10:59:49.740346 19021 net.cpp:434] conv3_3 <- conv3_2
I0913 10:59:49.740352 19021 net.cpp:408] conv3_3 -> conv3_3
I0913 10:59:49.743067 19021 net.cpp:150] Setting up conv3_3
I0913 10:59:49.743089 19021 net.cpp:157] Top shape: 4 256 192 192 (37748736)
I0913 10:59:49.743093 19021 net.cpp:165] Memory required for data: 4926140928
I0913 10:59:49.743101 19021 layer_factory.hpp:77] Creating layer relu3_3
I0913 10:59:49.743111 19021 net.cpp:100] Creating Layer relu3_3
I0913 10:59:49.743116 19021 net.cpp:434] relu3_3 <- conv3_3
I0913 10:59:49.743122 19021 net.cpp:395] relu3_3 -> conv3_3 (in-place)
I0913 10:59:49.743307 19021 net.cpp:150] Setting up relu3_3
I0913 10:59:49.743319 19021 net.cpp:157] Top shape: 4 256 192 192 (37748736)
I0913 10:59:49.743324 19021 net.cpp:165] Memory required for data: 5077135872
I0913 10:59:49.743329 19021 layer_factory.hpp:77] Creating layer pool3
I0913 10:59:49.743337 19021 net.cpp:100] Creating Layer pool3
I0913 10:59:49.743342 19021 net.cpp:434] pool3 <- conv3_3
I0913 10:59:49.743350 19021 net.cpp:408] pool3 -> pool3
I0913 10:59:49.743400 19021 net.cpp:150] Setting up pool3
I0913 10:59:49.743408 19021 net.cpp:157] Top shape: 4 256 96 96 (9437184)
I0913 10:59:49.743413 19021 net.cpp:165] Memory required for data: 5114884608
I0913 10:59:49.743417 19021 layer_factory.hpp:77] Creating layer ch4_pool3
I0913 10:59:49.743429 19021 net.cpp:100] Creating Layer ch4_pool3
I0913 10:59:49.743434 19021 net.cpp:434] ch4_pool3 <- ch4_pool2_ch4_pool2_0_split_1
I0913 10:59:49.743443 19021 net.cpp:408] ch4_pool3 -> ch4_pool3
I0913 10:59:49.743485 19021 net.cpp:150] Setting up ch4_pool3
I0913 10:59:49.743494 19021 net.cpp:157] Top shape: 4 1 96 96 (36864)
I0913 10:59:49.743499 19021 net.cpp:165] Memory required for data: 5115032064
I0913 10:59:49.743502 19021 layer_factory.hpp:77] Creating layer ch4_pool3_ch4_pool3_0_split
I0913 10:59:49.743511 19021 net.cpp:100] Creating Layer ch4_pool3_ch4_pool3_0_split
I0913 10:59:49.743515 19021 net.cpp:434] ch4_pool3_ch4_pool3_0_split <- ch4_pool3
I0913 10:59:49.743521 19021 net.cpp:408] ch4_pool3_ch4_pool3_0_split -> ch4_pool3_ch4_pool3_0_split_0
I0913 10:59:49.743530 19021 net.cpp:408] ch4_pool3_ch4_pool3_0_split -> ch4_pool3_ch4_pool3_0_split_1
I0913 10:59:49.743572 19021 net.cpp:150] Setting up ch4_pool3_ch4_pool3_0_split
I0913 10:59:49.743580 19021 net.cpp:157] Top shape: 4 1 96 96 (36864)
I0913 10:59:49.743587 19021 net.cpp:157] Top shape: 4 1 96 96 (36864)
I0913 10:59:49.743590 19021 net.cpp:165] Memory required for data: 5115326976
I0913 10:59:49.743594 19021 layer_factory.hpp:77] Creating layer pool3_concat
I0913 10:59:49.743603 19021 net.cpp:100] Creating Layer pool3_concat
I0913 10:59:49.743607 19021 net.cpp:434] pool3_concat <- pool3
I0913 10:59:49.743613 19021 net.cpp:434] pool3_concat <- ch4_pool3_ch4_pool3_0_split_0
I0913 10:59:49.743619 19021 net.cpp:408] pool3_concat -> pool3_new
I0913 10:59:49.743646 19021 net.cpp:150] Setting up pool3_concat
I0913 10:59:49.743654 19021 net.cpp:157] Top shape: 4 257 96 96 (9474048)
I0913 10:59:49.743659 19021 net.cpp:165] Memory required for data: 5153223168
I0913 10:59:49.743664 19021 layer_factory.hpp:77] Creating layer conv4_1_new
I0913 10:59:49.743674 19021 net.cpp:100] Creating Layer conv4_1_new
I0913 10:59:49.743680 19021 net.cpp:434] conv4_1_new <- pool3_new
I0913 10:59:49.743685 19021 net.cpp:408] conv4_1_new -> conv4_1
I0913 10:59:49.748726 19021 net.cpp:150] Setting up conv4_1_new
I0913 10:59:49.748773 19021 net.cpp:157] Top shape: 4 512 96 96 (18874368)
I0913 10:59:49.748778 19021 net.cpp:165] Memory required for data: 5228720640
I0913 10:59:49.748795 19021 layer_factory.hpp:77] Creating layer relu4_1
I0913 10:59:49.748814 19021 net.cpp:100] Creating Layer relu4_1
I0913 10:59:49.748823 19021 net.cpp:434] relu4_1 <- conv4_1
I0913 10:59:49.748831 19021 net.cpp:395] relu4_1 -> conv4_1 (in-place)
I0913 10:59:49.749014 19021 net.cpp:150] Setting up relu4_1
I0913 10:59:49.749023 19021 net.cpp:157] Top shape: 4 512 96 96 (18874368)
I0913 10:59:49.749027 19021 net.cpp:165] Memory required for data: 5304218112
I0913 10:59:49.749032 19021 layer_factory.hpp:77] Creating layer conv4_2
I0913 10:59:49.749045 19021 net.cpp:100] Creating Layer conv4_2
I0913 10:59:49.749049 19021 net.cpp:434] conv4_2 <- conv4_1
I0913 10:59:49.749058 19021 net.cpp:408] conv4_2 -> conv4_2
I0913 10:59:49.758108 19021 net.cpp:150] Setting up conv4_2
I0913 10:59:49.758142 19021 net.cpp:157] Top shape: 4 512 96 96 (18874368)
I0913 10:59:49.758147 19021 net.cpp:165] Memory required for data: 5379715584
I0913 10:59:49.758162 19021 layer_factory.hpp:77] Creating layer relu4_2
I0913 10:59:49.758177 19021 net.cpp:100] Creating Layer relu4_2
I0913 10:59:49.758185 19021 net.cpp:434] relu4_2 <- conv4_2
I0913 10:59:49.758191 19021 net.cpp:395] relu4_2 -> conv4_2 (in-place)
I0913 10:59:49.758352 19021 net.cpp:150] Setting up relu4_2
I0913 10:59:49.758361 19021 net.cpp:157] Top shape: 4 512 96 96 (18874368)
I0913 10:59:49.758364 19021 net.cpp:165] Memory required for data: 5455213056
I0913 10:59:49.758368 19021 layer_factory.hpp:77] Creating layer conv4_3
I0913 10:59:49.758379 19021 net.cpp:100] Creating Layer conv4_3
I0913 10:59:49.758383 19021 net.cpp:434] conv4_3 <- conv4_2
I0913 10:59:49.758388 19021 net.cpp:408] conv4_3 -> conv4_3
I0913 10:59:49.764451 19021 net.cpp:150] Setting up conv4_3
I0913 10:59:49.764482 19021 net.cpp:157] Top shape: 4 512 96 96 (18874368)
I0913 10:59:49.764487 19021 net.cpp:165] Memory required for data: 5530710528
I0913 10:59:49.764497 19021 layer_factory.hpp:77] Creating layer relu4_3
I0913 10:59:49.764511 19021 net.cpp:100] Creating Layer relu4_3
I0913 10:59:49.764518 19021 net.cpp:434] relu4_3 <- conv4_3
I0913 10:59:49.764526 19021 net.cpp:395] relu4_3 -> conv4_3 (in-place)
I0913 10:59:49.764714 19021 net.cpp:150] Setting up relu4_3
I0913 10:59:49.764724 19021 net.cpp:157] Top shape: 4 512 96 96 (18874368)
I0913 10:59:49.764727 19021 net.cpp:165] Memory required for data: 5606208000
I0913 10:59:49.764731 19021 layer_factory.hpp:77] Creating layer conv4_3_relu4_3_0_split
I0913 10:59:49.764739 19021 net.cpp:100] Creating Layer conv4_3_relu4_3_0_split
I0913 10:59:49.764742 19021 net.cpp:434] conv4_3_relu4_3_0_split <- conv4_3
I0913 10:59:49.764748 19021 net.cpp:408] conv4_3_relu4_3_0_split -> conv4_3_relu4_3_0_split_0
I0913 10:59:49.764757 19021 net.cpp:408] conv4_3_relu4_3_0_split -> conv4_3_relu4_3_0_split_1
I0913 10:59:49.764798 19021 net.cpp:150] Setting up conv4_3_relu4_3_0_split
I0913 10:59:49.764806 19021 net.cpp:157] Top shape: 4 512 96 96 (18874368)
I0913 10:59:49.764811 19021 net.cpp:157] Top shape: 4 512 96 96 (18874368)
I0913 10:59:49.764814 19021 net.cpp:165] Memory required for data: 5757202944
I0913 10:59:49.764817 19021 layer_factory.hpp:77] Creating layer loss1_conv1
I0913 10:59:49.764832 19021 net.cpp:100] Creating Layer loss1_conv1
I0913 10:59:49.764835 19021 net.cpp:434] loss1_conv1 <- conv4_3_relu4_3_0_split_0
I0913 10:59:49.764843 19021 net.cpp:408] loss1_conv1 -> loss1_conv1
I0913 10:59:49.825227 19021 net.cpp:150] Setting up loss1_conv1
I0913 10:59:49.825253 19021 net.cpp:157] Top shape: 4 512 96 96 (18874368)
I0913 10:59:49.825258 19021 net.cpp:165] Memory required for data: 5832700416
I0913 10:59:49.825266 19021 layer_factory.hpp:77] Creating layer loss_relu1
I0913 10:59:49.825279 19021 net.cpp:100] Creating Layer loss_relu1
I0913 10:59:49.825284 19021 net.cpp:434] loss_relu1 <- loss1_conv1
I0913 10:59:49.825291 19021 net.cpp:395] loss_relu1 -> loss1_conv1 (in-place)
I0913 10:59:49.825809 19021 net.cpp:150] Setting up loss_relu1
I0913 10:59:49.825821 19021 net.cpp:157] Top shape: 4 512 96 96 (18874368)
I0913 10:59:49.825825 19021 net.cpp:165] Memory required for data: 5908197888
I0913 10:59:49.825829 19021 layer_factory.hpp:77] Creating layer loss1_conv1_loss_relu1_0_split
I0913 10:59:49.825837 19021 net.cpp:100] Creating Layer loss1_conv1_loss_relu1_0_split
I0913 10:59:49.825840 19021 net.cpp:434] loss1_conv1_loss_relu1_0_split <- loss1_conv1
I0913 10:59:49.825847 19021 net.cpp:408] loss1_conv1_loss_relu1_0_split -> loss1_conv1_loss_relu1_0_split_0
I0913 10:59:49.825855 19021 net.cpp:408] loss1_conv1_loss_relu1_0_split -> loss1_conv1_loss_relu1_0_split_1
I0913 10:59:49.825889 19021 net.cpp:150] Setting up loss1_conv1_loss_relu1_0_split
I0913 10:59:49.825896 19021 net.cpp:157] Top shape: 4 512 96 96 (18874368)
I0913 10:59:49.825899 19021 net.cpp:157] Top shape: 4 512 96 96 (18874368)
I0913 10:59:49.825902 19021 net.cpp:165] Memory required for data: 6059192832
I0913 10:59:49.825906 19021 layer_factory.hpp:77] Creating layer LFCN_1_5x5
I0913 10:59:49.825920 19021 net.cpp:100] Creating Layer LFCN_1_5x5
I0913 10:59:49.825923 19021 net.cpp:434] LFCN_1_5x5 <- loss1_conv1_loss_relu1_0_split_0
I0913 10:59:49.825929 19021 net.cpp:408] LFCN_1_5x5 -> LFCN_1_5x5
I0913 10:59:49.830624 19021 net.cpp:150] Setting up LFCN_1_5x5
I0913 10:59:49.830675 19021 net.cpp:157] Top shape: 4 9 96 96 (331776)
I0913 10:59:49.830680 19021 net.cpp:165] Memory required for data: 6060519936
I0913 10:59:49.830696 19021 layer_factory.hpp:77] Creating layer LFCN_1_5x5_LFCN_1_5x5_0_split
I0913 10:59:49.830716 19021 net.cpp:100] Creating Layer LFCN_1_5x5_LFCN_1_5x5_0_split
I0913 10:59:49.830724 19021 net.cpp:434] LFCN_1_5x5_LFCN_1_5x5_0_split <- LFCN_1_5x5
I0913 10:59:49.830734 19021 net.cpp:408] LFCN_1_5x5_LFCN_1_5x5_0_split -> LFCN_1_5x5_LFCN_1_5x5_0_split_0
I0913 10:59:49.830745 19021 net.cpp:408] LFCN_1_5x5_LFCN_1_5x5_0_split -> LFCN_1_5x5_LFCN_1_5x5_0_split_1
I0913 10:59:49.830801 19021 net.cpp:150] Setting up LFCN_1_5x5_LFCN_1_5x5_0_split
I0913 10:59:49.830808 19021 net.cpp:157] Top shape: 4 9 96 96 (331776)
I0913 10:59:49.830812 19021 net.cpp:157] Top shape: 4 9 96 96 (331776)
I0913 10:59:49.830816 19021 net.cpp:165] Memory required for data: 6063174144
I0913 10:59:49.830819 19021 layer_factory.hpp:77] Creating layer detection_loss_1_5x5
I0913 10:59:49.830830 19021 net.cpp:100] Creating Layer detection_loss_1_5x5
I0913 10:59:49.830833 19021 net.cpp:434] detection_loss_1_5x5 <- LFCN_1_5x5_LFCN_1_5x5_0_split_0
I0913 10:59:49.830838 19021 net.cpp:434] detection_loss_1_5x5 <- label_1_5x5_data_1_split_0
I0913 10:59:49.830845 19021 net.cpp:408] detection_loss_1_5x5 -> loss_1_5x5
I0913 10:59:49.830860 19021 layer_factory.hpp:77] Creating layer detection_loss_1_5x5
I0913 10:59:49.832624 19021 net.cpp:150] Setting up detection_loss_1_5x5
I0913 10:59:49.832639 19021 net.cpp:157] Top shape: 1 1 1 2 (2)
I0913 10:59:49.832643 19021 net.cpp:160]     with loss weight 0.9
I0913 10:59:49.832674 19021 net.cpp:165] Memory required for data: 6063174152
I0913 10:59:49.832679 19021 layer_factory.hpp:77] Creating layer detection_accuracy_1_5x5
I0913 10:59:49.832690 19021 net.cpp:100] Creating Layer detection_accuracy_1_5x5
I0913 10:59:49.832695 19021 net.cpp:434] detection_accuracy_1_5x5 <- LFCN_1_5x5_LFCN_1_5x5_0_split_1
I0913 10:59:49.832700 19021 net.cpp:434] detection_accuracy_1_5x5 <- label_1_5x5_data_1_split_1
I0913 10:59:49.832706 19021 net.cpp:408] detection_accuracy_1_5x5 -> accuracy_1_5x5
I0913 10:59:49.832715 19021 net.cpp:408] detection_accuracy_1_5x5 -> boxiou_1_5x5
I0913 10:59:49.832759 19021 net.cpp:150] Setting up detection_accuracy_1_5x5
I0913 10:59:49.832765 19021 net.cpp:157] Top shape: 1 1 1 2 (2)
I0913 10:59:49.832769 19021 net.cpp:157] Top shape: 1 1 1 1 (1)
I0913 10:59:49.832772 19021 net.cpp:165] Memory required for data: 6063174164
I0913 10:59:49.832775 19021 layer_factory.hpp:77] Creating layer LFCN_1_7x7
I0913 10:59:49.832790 19021 net.cpp:100] Creating Layer LFCN_1_7x7
I0913 10:59:49.832794 19021 net.cpp:434] LFCN_1_7x7 <- loss1_conv1_loss_relu1_0_split_1
I0913 10:59:49.832801 19021 net.cpp:408] LFCN_1_7x7 -> LFCN_1_7x7
I0913 10:59:49.840092 19021 net.cpp:150] Setting up LFCN_1_7x7
I0913 10:59:49.840117 19021 net.cpp:157] Top shape: 4 9 96 96 (331776)
I0913 10:59:49.840121 19021 net.cpp:165] Memory required for data: 6064501268
I0913 10:59:49.840129 19021 layer_factory.hpp:77] Creating layer LFCN_1_7x7_LFCN_1_7x7_0_split
I0913 10:59:49.840139 19021 net.cpp:100] Creating Layer LFCN_1_7x7_LFCN_1_7x7_0_split
I0913 10:59:49.840144 19021 net.cpp:434] LFCN_1_7x7_LFCN_1_7x7_0_split <- LFCN_1_7x7
I0913 10:59:49.840152 19021 net.cpp:408] LFCN_1_7x7_LFCN_1_7x7_0_split -> LFCN_1_7x7_LFCN_1_7x7_0_split_0
I0913 10:59:49.840158 19021 net.cpp:408] LFCN_1_7x7_LFCN_1_7x7_0_split -> LFCN_1_7x7_LFCN_1_7x7_0_split_1
I0913 10:59:49.840189 19021 net.cpp:150] Setting up LFCN_1_7x7_LFCN_1_7x7_0_split
I0913 10:59:49.840193 19021 net.cpp:157] Top shape: 4 9 96 96 (331776)
I0913 10:59:49.840198 19021 net.cpp:157] Top shape: 4 9 96 96 (331776)
I0913 10:59:49.840200 19021 net.cpp:165] Memory required for data: 6067155476
I0913 10:59:49.840203 19021 layer_factory.hpp:77] Creating layer detection_loss_1_7x7
I0913 10:59:49.840209 19021 net.cpp:100] Creating Layer detection_loss_1_7x7
I0913 10:59:49.840212 19021 net.cpp:434] detection_loss_1_7x7 <- LFCN_1_7x7_LFCN_1_7x7_0_split_0
I0913 10:59:49.840216 19021 net.cpp:434] detection_loss_1_7x7 <- label_1_7x7_data_2_split_0
I0913 10:59:49.840222 19021 net.cpp:408] detection_loss_1_7x7 -> loss_1_7x7
I0913 10:59:49.840229 19021 layer_factory.hpp:77] Creating layer detection_loss_1_7x7
I0913 10:59:49.842602 19021 net.cpp:150] Setting up detection_loss_1_7x7
I0913 10:59:49.842634 19021 net.cpp:157] Top shape: 1 1 1 2 (2)
I0913 10:59:49.842638 19021 net.cpp:160]     with loss weight 0.9
I0913 10:59:49.842653 19021 net.cpp:165] Memory required for data: 6067155484
I0913 10:59:49.842658 19021 layer_factory.hpp:77] Creating layer detection_accuracy_1_7x7
I0913 10:59:49.842674 19021 net.cpp:100] Creating Layer detection_accuracy_1_7x7
I0913 10:59:49.842681 19021 net.cpp:434] detection_accuracy_1_7x7 <- LFCN_1_7x7_LFCN_1_7x7_0_split_1
I0913 10:59:49.842705 19021 net.cpp:434] detection_accuracy_1_7x7 <- label_1_7x7_data_2_split_1
I0913 10:59:49.842711 19021 net.cpp:408] detection_accuracy_1_7x7 -> accuracy_1_7x7
I0913 10:59:49.842727 19021 net.cpp:408] detection_accuracy_1_7x7 -> boxiou_1_7x7
I0913 10:59:49.842779 19021 net.cpp:150] Setting up detection_accuracy_1_7x7
I0913 10:59:49.842787 19021 net.cpp:157] Top shape: 1 1 1 2 (2)
I0913 10:59:49.842792 19021 net.cpp:157] Top shape: 1 1 1 1 (1)
I0913 10:59:49.842794 19021 net.cpp:165] Memory required for data: 6067155496
I0913 10:59:49.842798 19021 layer_factory.hpp:77] Creating layer pool4
I0913 10:59:49.842805 19021 net.cpp:100] Creating Layer pool4
I0913 10:59:49.842810 19021 net.cpp:434] pool4 <- conv4_3_relu4_3_0_split_1
I0913 10:59:49.842816 19021 net.cpp:408] pool4 -> pool4
I0913 10:59:49.842851 19021 net.cpp:150] Setting up pool4
I0913 10:59:49.842860 19021 net.cpp:157] Top shape: 4 512 48 48 (4718592)
I0913 10:59:49.842864 19021 net.cpp:165] Memory required for data: 6086029864
I0913 10:59:49.842869 19021 layer_factory.hpp:77] Creating layer ch4_pool4
I0913 10:59:49.842878 19021 net.cpp:100] Creating Layer ch4_pool4
I0913 10:59:49.842883 19021 net.cpp:434] ch4_pool4 <- ch4_pool3_ch4_pool3_0_split_1
I0913 10:59:49.842892 19021 net.cpp:408] ch4_pool4 -> ch4_pool4
I0913 10:59:49.842937 19021 net.cpp:150] Setting up ch4_pool4
I0913 10:59:49.842948 19021 net.cpp:157] Top shape: 4 1 48 48 (9216)
I0913 10:59:49.842952 19021 net.cpp:165] Memory required for data: 6086066728
I0913 10:59:49.842957 19021 layer_factory.hpp:77] Creating layer ch4_pool4_ch4_pool4_0_split
I0913 10:59:49.842964 19021 net.cpp:100] Creating Layer ch4_pool4_ch4_pool4_0_split
I0913 10:59:49.842969 19021 net.cpp:434] ch4_pool4_ch4_pool4_0_split <- ch4_pool4
I0913 10:59:49.842975 19021 net.cpp:408] ch4_pool4_ch4_pool4_0_split -> ch4_pool4_ch4_pool4_0_split_0
I0913 10:59:49.842988 19021 net.cpp:408] ch4_pool4_ch4_pool4_0_split -> ch4_pool4_ch4_pool4_0_split_1
I0913 10:59:49.843032 19021 net.cpp:150] Setting up ch4_pool4_ch4_pool4_0_split
I0913 10:59:49.843041 19021 net.cpp:157] Top shape: 4 1 48 48 (9216)
I0913 10:59:49.843046 19021 net.cpp:157] Top shape: 4 1 48 48 (9216)
I0913 10:59:49.843051 19021 net.cpp:165] Memory required for data: 6086140456
I0913 10:59:49.843055 19021 layer_factory.hpp:77] Creating layer pool4_concat
I0913 10:59:49.843063 19021 net.cpp:100] Creating Layer pool4_concat
I0913 10:59:49.843070 19021 net.cpp:434] pool4_concat <- pool4
I0913 10:59:49.843076 19021 net.cpp:434] pool4_concat <- ch4_pool4_ch4_pool4_0_split_0
I0913 10:59:49.843091 19021 net.cpp:408] pool4_concat -> pool4_new
I0913 10:59:49.843118 19021 net.cpp:150] Setting up pool4_concat
I0913 10:59:49.843125 19021 net.cpp:157] Top shape: 4 513 48 48 (4727808)
I0913 10:59:49.843130 19021 net.cpp:165] Memory required for data: 6105051688
I0913 10:59:49.843134 19021 layer_factory.hpp:77] Creating layer conv5_1_new
I0913 10:59:49.843147 19021 net.cpp:100] Creating Layer conv5_1_new
I0913 10:59:49.843152 19021 net.cpp:434] conv5_1_new <- pool4_new
I0913 10:59:49.843158 19021 net.cpp:408] conv5_1_new -> conv5_1
I0913 10:59:49.852712 19021 net.cpp:150] Setting up conv5_1_new
I0913 10:59:49.852766 19021 net.cpp:157] Top shape: 4 512 48 48 (4718592)
I0913 10:59:49.852774 19021 net.cpp:165] Memory required for data: 6123926056
I0913 10:59:49.852792 19021 layer_factory.hpp:77] Creating layer relu5_1
I0913 10:59:49.852813 19021 net.cpp:100] Creating Layer relu5_1
I0913 10:59:49.852824 19021 net.cpp:434] relu5_1 <- conv5_1
I0913 10:59:49.852835 19021 net.cpp:395] relu5_1 -> conv5_1 (in-place)
I0913 10:59:49.853014 19021 net.cpp:150] Setting up relu5_1
I0913 10:59:49.853025 19021 net.cpp:157] Top shape: 4 512 48 48 (4718592)
I0913 10:59:49.853029 19021 net.cpp:165] Memory required for data: 6142800424
I0913 10:59:49.853034 19021 layer_factory.hpp:77] Creating layer conv5_2
I0913 10:59:49.853054 19021 net.cpp:100] Creating Layer conv5_2
I0913 10:59:49.853060 19021 net.cpp:434] conv5_2 <- conv5_1
I0913 10:59:49.853066 19021 net.cpp:408] conv5_2 -> conv5_2
I0913 10:59:49.861127 19021 net.cpp:150] Setting up conv5_2
I0913 10:59:49.861161 19021 net.cpp:157] Top shape: 4 512 48 48 (4718592)
I0913 10:59:49.861166 19021 net.cpp:165] Memory required for data: 6161674792
I0913 10:59:49.861176 19021 layer_factory.hpp:77] Creating layer relu5_2
I0913 10:59:49.861189 19021 net.cpp:100] Creating Layer relu5_2
I0913 10:59:49.861196 19021 net.cpp:434] relu5_2 <- conv5_2
I0913 10:59:49.861207 19021 net.cpp:395] relu5_2 -> conv5_2 (in-place)
I0913 10:59:49.861352 19021 net.cpp:150] Setting up relu5_2
I0913 10:59:49.861363 19021 net.cpp:157] Top shape: 4 512 48 48 (4718592)
I0913 10:59:49.861367 19021 net.cpp:165] Memory required for data: 6180549160
I0913 10:59:49.861372 19021 layer_factory.hpp:77] Creating layer conv5_3
I0913 10:59:49.861385 19021 net.cpp:100] Creating Layer conv5_3
I0913 10:59:49.861392 19021 net.cpp:434] conv5_3 <- conv5_2
I0913 10:59:49.861397 19021 net.cpp:408] conv5_3 -> conv5_3
I0913 10:59:49.867280 19021 net.cpp:150] Setting up conv5_3
I0913 10:59:49.867316 19021 net.cpp:157] Top shape: 4 512 48 48 (4718592)
I0913 10:59:49.867321 19021 net.cpp:165] Memory required for data: 6199423528
I0913 10:59:49.867336 19021 layer_factory.hpp:77] Creating layer relu5_3
I0913 10:59:49.867355 19021 net.cpp:100] Creating Layer relu5_3
I0913 10:59:49.867367 19021 net.cpp:434] relu5_3 <- conv5_3
I0913 10:59:49.867377 19021 net.cpp:395] relu5_3 -> conv5_3 (in-place)
I0913 10:59:49.867564 19021 net.cpp:150] Setting up relu5_3
I0913 10:59:49.867578 19021 net.cpp:157] Top shape: 4 512 48 48 (4718592)
I0913 10:59:49.867583 19021 net.cpp:165] Memory required for data: 6218297896
I0913 10:59:49.867588 19021 layer_factory.hpp:77] Creating layer conv5_3_relu5_3_0_split
I0913 10:59:49.867595 19021 net.cpp:100] Creating Layer conv5_3_relu5_3_0_split
I0913 10:59:49.867600 19021 net.cpp:434] conv5_3_relu5_3_0_split <- conv5_3
I0913 10:59:49.867606 19021 net.cpp:408] conv5_3_relu5_3_0_split -> conv5_3_relu5_3_0_split_0
I0913 10:59:49.867614 19021 net.cpp:408] conv5_3_relu5_3_0_split -> conv5_3_relu5_3_0_split_1
I0913 10:59:49.867622 19021 net.cpp:408] conv5_3_relu5_3_0_split -> conv5_3_relu5_3_0_split_2
I0913 10:59:49.867676 19021 net.cpp:150] Setting up conv5_3_relu5_3_0_split
I0913 10:59:49.867686 19021 net.cpp:157] Top shape: 4 512 48 48 (4718592)
I0913 10:59:49.867691 19021 net.cpp:157] Top shape: 4 512 48 48 (4718592)
I0913 10:59:49.867697 19021 net.cpp:157] Top shape: 4 512 48 48 (4718592)
I0913 10:59:49.867702 19021 net.cpp:165] Memory required for data: 6274921000
I0913 10:59:49.867707 19021 layer_factory.hpp:77] Creating layer LFCN_2_5x5
I0913 10:59:49.867727 19021 net.cpp:100] Creating Layer LFCN_2_5x5
I0913 10:59:49.867734 19021 net.cpp:434] LFCN_2_5x5 <- conv5_3_relu5_3_0_split_0
I0913 10:59:49.867743 19021 net.cpp:408] LFCN_2_5x5 -> LFCN_2_5x5
I0913 10:59:49.871757 19021 net.cpp:150] Setting up LFCN_2_5x5
I0913 10:59:49.871775 19021 net.cpp:157] Top shape: 4 9 48 48 (82944)
I0913 10:59:49.871780 19021 net.cpp:165] Memory required for data: 6275252776
I0913 10:59:49.871803 19021 layer_factory.hpp:77] Creating layer LFCN_2_5x5_LFCN_2_5x5_0_split
I0913 10:59:49.871814 19021 net.cpp:100] Creating Layer LFCN_2_5x5_LFCN_2_5x5_0_split
I0913 10:59:49.871819 19021 net.cpp:434] LFCN_2_5x5_LFCN_2_5x5_0_split <- LFCN_2_5x5
I0913 10:59:49.871827 19021 net.cpp:408] LFCN_2_5x5_LFCN_2_5x5_0_split -> LFCN_2_5x5_LFCN_2_5x5_0_split_0
I0913 10:59:49.871839 19021 net.cpp:408] LFCN_2_5x5_LFCN_2_5x5_0_split -> LFCN_2_5x5_LFCN_2_5x5_0_split_1
I0913 10:59:49.871883 19021 net.cpp:150] Setting up LFCN_2_5x5_LFCN_2_5x5_0_split
I0913 10:59:49.871893 19021 net.cpp:157] Top shape: 4 9 48 48 (82944)
I0913 10:59:49.871899 19021 net.cpp:157] Top shape: 4 9 48 48 (82944)
I0913 10:59:49.871903 19021 net.cpp:165] Memory required for data: 6275916328
I0913 10:59:49.871908 19021 layer_factory.hpp:77] Creating layer detection_loss_2_5x5
I0913 10:59:49.871917 19021 net.cpp:100] Creating Layer detection_loss_2_5x5
I0913 10:59:49.871924 19021 net.cpp:434] detection_loss_2_5x5 <- LFCN_2_5x5_LFCN_2_5x5_0_split_0
I0913 10:59:49.871930 19021 net.cpp:434] detection_loss_2_5x5 <- label_2_5x5_data_3_split_0
I0913 10:59:49.871940 19021 net.cpp:408] detection_loss_2_5x5 -> loss_2_5x5
I0913 10:59:49.871953 19021 layer_factory.hpp:77] Creating layer detection_loss_2_5x5
I0913 10:59:49.873334 19021 net.cpp:150] Setting up detection_loss_2_5x5
I0913 10:59:49.873348 19021 net.cpp:157] Top shape: 1 1 1 2 (2)
I0913 10:59:49.873353 19021 net.cpp:160]     with loss weight 1
I0913 10:59:49.873366 19021 net.cpp:165] Memory required for data: 6275916336
I0913 10:59:49.873371 19021 layer_factory.hpp:77] Creating layer detection_accuracy_2_5x5
I0913 10:59:49.873383 19021 net.cpp:100] Creating Layer detection_accuracy_2_5x5
I0913 10:59:49.873390 19021 net.cpp:434] detection_accuracy_2_5x5 <- LFCN_2_5x5_LFCN_2_5x5_0_split_1
I0913 10:59:49.873397 19021 net.cpp:434] detection_accuracy_2_5x5 <- label_2_5x5_data_3_split_1
I0913 10:59:49.873405 19021 net.cpp:408] detection_accuracy_2_5x5 -> accuracy_2_5x5
I0913 10:59:49.873416 19021 net.cpp:408] detection_accuracy_2_5x5 -> boxiou_2_5x5
I0913 10:59:49.873462 19021 net.cpp:150] Setting up detection_accuracy_2_5x5
I0913 10:59:49.873471 19021 net.cpp:157] Top shape: 1 1 1 2 (2)
I0913 10:59:49.873477 19021 net.cpp:157] Top shape: 1 1 1 1 (1)
I0913 10:59:49.873482 19021 net.cpp:165] Memory required for data: 6275916348
I0913 10:59:49.873487 19021 layer_factory.hpp:77] Creating layer LFCN_2_7x7
I0913 10:59:49.873503 19021 net.cpp:100] Creating Layer LFCN_2_7x7
I0913 10:59:49.873512 19021 net.cpp:434] LFCN_2_7x7 <- conv5_3_relu5_3_0_split_1
I0913 10:59:49.873524 19021 net.cpp:408] LFCN_2_7x7 -> LFCN_2_7x7
I0913 10:59:49.882827 19021 net.cpp:150] Setting up LFCN_2_7x7
I0913 10:59:49.882843 19021 net.cpp:157] Top shape: 4 9 48 48 (82944)
I0913 10:59:49.882848 19021 net.cpp:165] Memory required for data: 6276248124
I0913 10:59:49.882856 19021 layer_factory.hpp:77] Creating layer LFCN_2_7x7_LFCN_2_7x7_0_split
I0913 10:59:49.882864 19021 net.cpp:100] Creating Layer LFCN_2_7x7_LFCN_2_7x7_0_split
I0913 10:59:49.882872 19021 net.cpp:434] LFCN_2_7x7_LFCN_2_7x7_0_split <- LFCN_2_7x7
I0913 10:59:49.882879 19021 net.cpp:408] LFCN_2_7x7_LFCN_2_7x7_0_split -> LFCN_2_7x7_LFCN_2_7x7_0_split_0
I0913 10:59:49.882889 19021 net.cpp:408] LFCN_2_7x7_LFCN_2_7x7_0_split -> LFCN_2_7x7_LFCN_2_7x7_0_split_1
I0913 10:59:49.882926 19021 net.cpp:150] Setting up LFCN_2_7x7_LFCN_2_7x7_0_split
I0913 10:59:49.882936 19021 net.cpp:157] Top shape: 4 9 48 48 (82944)
I0913 10:59:49.882942 19021 net.cpp:157] Top shape: 4 9 48 48 (82944)
I0913 10:59:49.882946 19021 net.cpp:165] Memory required for data: 6276911676
I0913 10:59:49.882951 19021 layer_factory.hpp:77] Creating layer detection_loss_2_7x7
I0913 10:59:49.882959 19021 net.cpp:100] Creating Layer detection_loss_2_7x7
I0913 10:59:49.882966 19021 net.cpp:434] detection_loss_2_7x7 <- LFCN_2_7x7_LFCN_2_7x7_0_split_0
I0913 10:59:49.882972 19021 net.cpp:434] detection_loss_2_7x7 <- label_2_7x7_data_4_split_0
I0913 10:59:49.882983 19021 net.cpp:408] detection_loss_2_7x7 -> loss_2_7x7
I0913 10:59:49.882994 19021 layer_factory.hpp:77] Creating layer detection_loss_2_7x7
I0913 10:59:49.883644 19021 net.cpp:150] Setting up detection_loss_2_7x7
I0913 10:59:49.883664 19021 net.cpp:157] Top shape: 1 1 1 2 (2)
I0913 10:59:49.883669 19021 net.cpp:160]     with loss weight 1
I0913 10:59:49.883679 19021 net.cpp:165] Memory required for data: 6276911684
I0913 10:59:49.883684 19021 layer_factory.hpp:77] Creating layer detection_accuracy_2_7x7
I0913 10:59:49.883697 19021 net.cpp:100] Creating Layer detection_accuracy_2_7x7
I0913 10:59:49.883705 19021 net.cpp:434] detection_accuracy_2_7x7 <- LFCN_2_7x7_LFCN_2_7x7_0_split_1
I0913 10:59:49.883711 19021 net.cpp:434] detection_accuracy_2_7x7 <- label_2_7x7_data_4_split_1
I0913 10:59:49.883720 19021 net.cpp:408] detection_accuracy_2_7x7 -> accuracy_2_7x7
I0913 10:59:49.883729 19021 net.cpp:408] detection_accuracy_2_7x7 -> boxiou_2_7x7
I0913 10:59:49.883774 19021 net.cpp:150] Setting up detection_accuracy_2_7x7
I0913 10:59:49.883782 19021 net.cpp:157] Top shape: 1 1 1 2 (2)
I0913 10:59:49.883788 19021 net.cpp:157] Top shape: 1 1 1 1 (1)
I0913 10:59:49.883792 19021 net.cpp:165] Memory required for data: 6276911696
I0913 10:59:49.883797 19021 layer_factory.hpp:77] Creating layer pool5
I0913 10:59:49.883807 19021 net.cpp:100] Creating Layer pool5
I0913 10:59:49.883814 19021 net.cpp:434] pool5 <- conv5_3_relu5_3_0_split_2
I0913 10:59:49.883821 19021 net.cpp:408] pool5 -> pool5
I0913 10:59:49.883863 19021 net.cpp:150] Setting up pool5
I0913 10:59:49.883872 19021 net.cpp:157] Top shape: 4 512 24 24 (1179648)
I0913 10:59:49.883877 19021 net.cpp:165] Memory required for data: 6281630288
I0913 10:59:49.883882 19021 layer_factory.hpp:77] Creating layer ch4_pool5
I0913 10:59:49.883888 19021 net.cpp:100] Creating Layer ch4_pool5
I0913 10:59:49.883893 19021 net.cpp:434] ch4_pool5 <- ch4_pool4_ch4_pool4_0_split_1
I0913 10:59:49.883904 19021 net.cpp:408] ch4_pool5 -> ch4_pool5
I0913 10:59:49.883944 19021 net.cpp:150] Setting up ch4_pool5
I0913 10:59:49.883954 19021 net.cpp:157] Top shape: 4 1 24 24 (2304)
I0913 10:59:49.883957 19021 net.cpp:165] Memory required for data: 6281639504
I0913 10:59:49.883962 19021 layer_factory.hpp:77] Creating layer ch4_pool5_ch4_pool5_0_split
I0913 10:59:49.883968 19021 net.cpp:100] Creating Layer ch4_pool5_ch4_pool5_0_split
I0913 10:59:49.883973 19021 net.cpp:434] ch4_pool5_ch4_pool5_0_split <- ch4_pool5
I0913 10:59:49.883980 19021 net.cpp:408] ch4_pool5_ch4_pool5_0_split -> ch4_pool5_ch4_pool5_0_split_0
I0913 10:59:49.883988 19021 net.cpp:408] ch4_pool5_ch4_pool5_0_split -> ch4_pool5_ch4_pool5_0_split_1
I0913 10:59:49.884027 19021 net.cpp:150] Setting up ch4_pool5_ch4_pool5_0_split
I0913 10:59:49.884035 19021 net.cpp:157] Top shape: 4 1 24 24 (2304)
I0913 10:59:49.884042 19021 net.cpp:157] Top shape: 4 1 24 24 (2304)
I0913 10:59:49.884047 19021 net.cpp:165] Memory required for data: 6281657936
I0913 10:59:49.884050 19021 layer_factory.hpp:77] Creating layer pool5_concat
I0913 10:59:49.884059 19021 net.cpp:100] Creating Layer pool5_concat
I0913 10:59:49.884065 19021 net.cpp:434] pool5_concat <- pool5
I0913 10:59:49.884071 19021 net.cpp:434] pool5_concat <- ch4_pool5_ch4_pool5_0_split_0
I0913 10:59:49.884078 19021 net.cpp:408] pool5_concat -> pool5_new
I0913 10:59:49.884106 19021 net.cpp:150] Setting up pool5_concat
I0913 10:59:49.884114 19021 net.cpp:157] Top shape: 4 513 24 24 (1181952)
I0913 10:59:49.884119 19021 net.cpp:165] Memory required for data: 6286385744
I0913 10:59:49.884124 19021 layer_factory.hpp:77] Creating layer conv6_1_new
I0913 10:59:49.884135 19021 net.cpp:100] Creating Layer conv6_1_new
I0913 10:59:49.884141 19021 net.cpp:434] conv6_1_new <- pool5_new
I0913 10:59:49.884150 19021 net.cpp:408] conv6_1_new -> conv6_1
I0913 10:59:49.948729 19021 net.cpp:150] Setting up conv6_1_new
I0913 10:59:49.948760 19021 net.cpp:157] Top shape: 4 512 24 24 (1179648)
I0913 10:59:49.948765 19021 net.cpp:165] Memory required for data: 6291104336
I0913 10:59:49.948777 19021 layer_factory.hpp:77] Creating layer relu6_1
I0913 10:59:49.948791 19021 net.cpp:100] Creating Layer relu6_1
I0913 10:59:49.948798 19021 net.cpp:434] relu6_1 <- conv6_1
I0913 10:59:49.948807 19021 net.cpp:395] relu6_1 -> conv6_1 (in-place)
I0913 10:59:49.948971 19021 net.cpp:150] Setting up relu6_1
I0913 10:59:49.948982 19021 net.cpp:157] Top shape: 4 512 24 24 (1179648)
I0913 10:59:49.948987 19021 net.cpp:165] Memory required for data: 6295822928
I0913 10:59:49.948992 19021 layer_factory.hpp:77] Creating layer conv6_1_relu6_1_0_split
I0913 10:59:49.949002 19021 net.cpp:100] Creating Layer conv6_1_relu6_1_0_split
I0913 10:59:49.949007 19021 net.cpp:434] conv6_1_relu6_1_0_split <- conv6_1
I0913 10:59:49.949017 19021 net.cpp:408] conv6_1_relu6_1_0_split -> conv6_1_relu6_1_0_split_0
I0913 10:59:49.949028 19021 net.cpp:408] conv6_1_relu6_1_0_split -> conv6_1_relu6_1_0_split_1
I0913 10:59:49.949038 19021 net.cpp:408] conv6_1_relu6_1_0_split -> conv6_1_relu6_1_0_split_2
I0913 10:59:49.949090 19021 net.cpp:150] Setting up conv6_1_relu6_1_0_split
I0913 10:59:49.949098 19021 net.cpp:157] Top shape: 4 512 24 24 (1179648)
I0913 10:59:49.949105 19021 net.cpp:157] Top shape: 4 512 24 24 (1179648)
I0913 10:59:49.949110 19021 net.cpp:157] Top shape: 4 512 24 24 (1179648)
I0913 10:59:49.949115 19021 net.cpp:165] Memory required for data: 6309978704
I0913 10:59:49.949120 19021 layer_factory.hpp:77] Creating layer LFCN_3_5x5
I0913 10:59:49.949134 19021 net.cpp:100] Creating Layer LFCN_3_5x5
I0913 10:59:49.949141 19021 net.cpp:434] LFCN_3_5x5 <- conv6_1_relu6_1_0_split_0
I0913 10:59:49.949148 19021 net.cpp:408] LFCN_3_5x5 -> LFCN_3_5x5
I0913 10:59:49.952972 19021 net.cpp:150] Setting up LFCN_3_5x5
I0913 10:59:49.952986 19021 net.cpp:157] Top shape: 4 9 24 24 (20736)
I0913 10:59:49.952991 19021 net.cpp:165] Memory required for data: 6310061648
I0913 10:59:49.952997 19021 layer_factory.hpp:77] Creating layer LFCN_3_5x5_LFCN_3_5x5_0_split
I0913 10:59:49.953004 19021 net.cpp:100] Creating Layer LFCN_3_5x5_LFCN_3_5x5_0_split
I0913 10:59:49.953011 19021 net.cpp:434] LFCN_3_5x5_LFCN_3_5x5_0_split <- LFCN_3_5x5
I0913 10:59:49.953017 19021 net.cpp:408] LFCN_3_5x5_LFCN_3_5x5_0_split -> LFCN_3_5x5_LFCN_3_5x5_0_split_0
I0913 10:59:49.953027 19021 net.cpp:408] LFCN_3_5x5_LFCN_3_5x5_0_split -> LFCN_3_5x5_LFCN_3_5x5_0_split_1
I0913 10:59:49.953061 19021 net.cpp:150] Setting up LFCN_3_5x5_LFCN_3_5x5_0_split
I0913 10:59:49.953068 19021 net.cpp:157] Top shape: 4 9 24 24 (20736)
I0913 10:59:49.953073 19021 net.cpp:157] Top shape: 4 9 24 24 (20736)
I0913 10:59:49.953078 19021 net.cpp:165] Memory required for data: 6310227536
I0913 10:59:49.953081 19021 layer_factory.hpp:77] Creating layer detection_loss_3_5x5
I0913 10:59:49.953089 19021 net.cpp:100] Creating Layer detection_loss_3_5x5
I0913 10:59:49.953094 19021 net.cpp:434] detection_loss_3_5x5 <- LFCN_3_5x5_LFCN_3_5x5_0_split_0
I0913 10:59:49.953101 19021 net.cpp:434] detection_loss_3_5x5 <- label_3_5x5_data_5_split_0
I0913 10:59:49.953111 19021 net.cpp:408] detection_loss_3_5x5 -> loss_3_5x5
I0913 10:59:49.953125 19021 layer_factory.hpp:77] Creating layer detection_loss_3_5x5
I0913 10:59:49.953438 19021 net.cpp:150] Setting up detection_loss_3_5x5
I0913 10:59:49.953450 19021 net.cpp:157] Top shape: 1 1 1 2 (2)
I0913 10:59:49.953454 19021 net.cpp:160]     with loss weight 1
I0913 10:59:49.953469 19021 net.cpp:165] Memory required for data: 6310227544
I0913 10:59:49.953474 19021 layer_factory.hpp:77] Creating layer detection_accuracy_3_5x5
I0913 10:59:49.953482 19021 net.cpp:100] Creating Layer detection_accuracy_3_5x5
I0913 10:59:49.953488 19021 net.cpp:434] detection_accuracy_3_5x5 <- LFCN_3_5x5_LFCN_3_5x5_0_split_1
I0913 10:59:49.953495 19021 net.cpp:434] detection_accuracy_3_5x5 <- label_3_5x5_data_5_split_1
I0913 10:59:49.953505 19021 net.cpp:408] detection_accuracy_3_5x5 -> accuracy_3_5x5
I0913 10:59:49.953516 19021 net.cpp:408] detection_accuracy_3_5x5 -> boxiou_3_5x5
I0913 10:59:49.953559 19021 net.cpp:150] Setting up detection_accuracy_3_5x5
I0913 10:59:49.953568 19021 net.cpp:157] Top shape: 1 1 1 2 (2)
I0913 10:59:49.953574 19021 net.cpp:157] Top shape: 1 1 1 1 (1)
I0913 10:59:49.953578 19021 net.cpp:165] Memory required for data: 6310227556
I0913 10:59:49.953583 19021 layer_factory.hpp:77] Creating layer LFCN_3_7x7
I0913 10:59:49.953595 19021 net.cpp:100] Creating Layer LFCN_3_7x7
I0913 10:59:49.953601 19021 net.cpp:434] LFCN_3_7x7 <- conv6_1_relu6_1_0_split_1
I0913 10:59:49.953610 19021 net.cpp:408] LFCN_3_7x7 -> LFCN_3_7x7
I0913 10:59:49.960863 19021 net.cpp:150] Setting up LFCN_3_7x7
I0913 10:59:49.960878 19021 net.cpp:157] Top shape: 4 9 24 24 (20736)
I0913 10:59:49.960882 19021 net.cpp:165] Memory required for data: 6310310500
I0913 10:59:49.960891 19021 layer_factory.hpp:77] Creating layer LFCN_3_7x7_LFCN_3_7x7_0_split
I0913 10:59:49.960898 19021 net.cpp:100] Creating Layer LFCN_3_7x7_LFCN_3_7x7_0_split
I0913 10:59:49.960903 19021 net.cpp:434] LFCN_3_7x7_LFCN_3_7x7_0_split <- LFCN_3_7x7
I0913 10:59:49.960913 19021 net.cpp:408] LFCN_3_7x7_LFCN_3_7x7_0_split -> LFCN_3_7x7_LFCN_3_7x7_0_split_0
I0913 10:59:49.960923 19021 net.cpp:408] LFCN_3_7x7_LFCN_3_7x7_0_split -> LFCN_3_7x7_LFCN_3_7x7_0_split_1
I0913 10:59:49.960960 19021 net.cpp:150] Setting up LFCN_3_7x7_LFCN_3_7x7_0_split
I0913 10:59:49.960969 19021 net.cpp:157] Top shape: 4 9 24 24 (20736)
I0913 10:59:49.960975 19021 net.cpp:157] Top shape: 4 9 24 24 (20736)
I0913 10:59:49.960979 19021 net.cpp:165] Memory required for data: 6310476388
I0913 10:59:49.960984 19021 layer_factory.hpp:77] Creating layer detection_loss_3_7x7
I0913 10:59:49.960995 19021 net.cpp:100] Creating Layer detection_loss_3_7x7
I0913 10:59:49.961004 19021 net.cpp:434] detection_loss_3_7x7 <- LFCN_3_7x7_LFCN_3_7x7_0_split_0
I0913 10:59:49.961009 19021 net.cpp:434] detection_loss_3_7x7 <- label_3_7x7_data_6_split_0
I0913 10:59:49.961017 19021 net.cpp:408] detection_loss_3_7x7 -> loss_3_7x7
I0913 10:59:49.961027 19021 layer_factory.hpp:77] Creating layer detection_loss_3_7x7
I0913 10:59:49.961338 19021 net.cpp:150] Setting up detection_loss_3_7x7
I0913 10:59:49.961349 19021 net.cpp:157] Top shape: 1 1 1 2 (2)
I0913 10:59:49.961354 19021 net.cpp:160]     with loss weight 1
I0913 10:59:49.961364 19021 net.cpp:165] Memory required for data: 6310476396
I0913 10:59:49.961367 19021 layer_factory.hpp:77] Creating layer detection_accuracy_3_7x7
I0913 10:59:49.961376 19021 net.cpp:100] Creating Layer detection_accuracy_3_7x7
I0913 10:59:49.961382 19021 net.cpp:434] detection_accuracy_3_7x7 <- LFCN_3_7x7_LFCN_3_7x7_0_split_1
I0913 10:59:49.961388 19021 net.cpp:434] detection_accuracy_3_7x7 <- label_3_7x7_data_6_split_1
I0913 10:59:49.961397 19021 net.cpp:408] detection_accuracy_3_7x7 -> accuracy_3_7x7
I0913 10:59:49.961408 19021 net.cpp:408] detection_accuracy_3_7x7 -> boxiou_3_7x7
I0913 10:59:49.961452 19021 net.cpp:150] Setting up detection_accuracy_3_7x7
I0913 10:59:49.961462 19021 net.cpp:157] Top shape: 1 1 1 2 (2)
I0913 10:59:49.961468 19021 net.cpp:157] Top shape: 1 1 1 1 (1)
I0913 10:59:49.961472 19021 net.cpp:165] Memory required for data: 6310476408
I0913 10:59:49.961477 19021 layer_factory.hpp:77] Creating layer pool6
I0913 10:59:49.961484 19021 net.cpp:100] Creating Layer pool6
I0913 10:59:49.961490 19021 net.cpp:434] pool6 <- conv6_1_relu6_1_0_split_2
I0913 10:59:49.961499 19021 net.cpp:408] pool6 -> pool6
I0913 10:59:49.961540 19021 net.cpp:150] Setting up pool6
I0913 10:59:49.961550 19021 net.cpp:157] Top shape: 4 512 12 12 (294912)
I0913 10:59:49.961555 19021 net.cpp:165] Memory required for data: 6311656056
I0913 10:59:49.961560 19021 layer_factory.hpp:77] Creating layer ch4_pool6
I0913 10:59:49.961568 19021 net.cpp:100] Creating Layer ch4_pool6
I0913 10:59:49.961575 19021 net.cpp:434] ch4_pool6 <- ch4_pool5_ch4_pool5_0_split_1
I0913 10:59:49.961582 19021 net.cpp:408] ch4_pool6 -> ch4_pool6
I0913 10:59:49.961622 19021 net.cpp:150] Setting up ch4_pool6
I0913 10:59:49.961632 19021 net.cpp:157] Top shape: 4 1 12 12 (576)
I0913 10:59:49.961637 19021 net.cpp:165] Memory required for data: 6311658360
I0913 10:59:49.961642 19021 layer_factory.hpp:77] Creating layer pool6_concat
I0913 10:59:49.961648 19021 net.cpp:100] Creating Layer pool6_concat
I0913 10:59:49.961653 19021 net.cpp:434] pool6_concat <- pool6
I0913 10:59:49.961659 19021 net.cpp:434] pool6_concat <- ch4_pool6
I0913 10:59:49.961666 19021 net.cpp:408] pool6_concat -> pool6_new
I0913 10:59:49.961694 19021 net.cpp:150] Setting up pool6_concat
I0913 10:59:49.961702 19021 net.cpp:157] Top shape: 4 513 12 12 (295488)
I0913 10:59:49.961706 19021 net.cpp:165] Memory required for data: 6312840312
I0913 10:59:49.961712 19021 layer_factory.hpp:77] Creating layer LFCN_4_5x5_new
I0913 10:59:49.961724 19021 net.cpp:100] Creating Layer LFCN_4_5x5_new
I0913 10:59:49.961730 19021 net.cpp:434] LFCN_4_5x5_new <- pool6_new
I0913 10:59:49.961740 19021 net.cpp:408] LFCN_4_5x5_new -> LFCN_4_5x5
I0913 10:59:49.965988 19021 net.cpp:150] Setting up LFCN_4_5x5_new
I0913 10:59:49.966012 19021 net.cpp:157] Top shape: 4 9 12 12 (5184)
I0913 10:59:49.966017 19021 net.cpp:165] Memory required for data: 6312861048
I0913 10:59:49.966038 19021 layer_factory.hpp:77] Creating layer LFCN_4_5x5_LFCN_4_5x5_new_0_split
I0913 10:59:49.966050 19021 net.cpp:100] Creating Layer LFCN_4_5x5_LFCN_4_5x5_new_0_split
I0913 10:59:49.966058 19021 net.cpp:434] LFCN_4_5x5_LFCN_4_5x5_new_0_split <- LFCN_4_5x5
I0913 10:59:49.966069 19021 net.cpp:408] LFCN_4_5x5_LFCN_4_5x5_new_0_split -> LFCN_4_5x5_LFCN_4_5x5_new_0_split_0
I0913 10:59:49.966084 19021 net.cpp:408] LFCN_4_5x5_LFCN_4_5x5_new_0_split -> LFCN_4_5x5_LFCN_4_5x5_new_0_split_1
I0913 10:59:49.966127 19021 net.cpp:150] Setting up LFCN_4_5x5_LFCN_4_5x5_new_0_split
I0913 10:59:49.966136 19021 net.cpp:157] Top shape: 4 9 12 12 (5184)
I0913 10:59:49.966142 19021 net.cpp:157] Top shape: 4 9 12 12 (5184)
I0913 10:59:49.966147 19021 net.cpp:165] Memory required for data: 6312902520
I0913 10:59:49.966151 19021 layer_factory.hpp:77] Creating layer detection_loss_4_5x5
I0913 10:59:49.966162 19021 net.cpp:100] Creating Layer detection_loss_4_5x5
I0913 10:59:49.966168 19021 net.cpp:434] detection_loss_4_5x5 <- LFCN_4_5x5_LFCN_4_5x5_new_0_split_0
I0913 10:59:49.966176 19021 net.cpp:434] detection_loss_4_5x5 <- label_4_5x5_data_7_split_0
I0913 10:59:49.966184 19021 net.cpp:408] detection_loss_4_5x5 -> loss_4_5x5
I0913 10:59:49.966197 19021 layer_factory.hpp:77] Creating layer detection_loss_4_5x5
I0913 10:59:49.966508 19021 net.cpp:150] Setting up detection_loss_4_5x5
I0913 10:59:49.966519 19021 net.cpp:157] Top shape: 1 1 1 2 (2)
I0913 10:59:49.966523 19021 net.cpp:160]     with loss weight 1
I0913 10:59:49.966537 19021 net.cpp:165] Memory required for data: 6312902528
I0913 10:59:49.966542 19021 layer_factory.hpp:77] Creating layer detection_accuracy_4_5x5
I0913 10:59:49.966552 19021 net.cpp:100] Creating Layer detection_accuracy_4_5x5
I0913 10:59:49.966559 19021 net.cpp:434] detection_accuracy_4_5x5 <- LFCN_4_5x5_LFCN_4_5x5_new_0_split_1
I0913 10:59:49.966565 19021 net.cpp:434] detection_accuracy_4_5x5 <- label_4_5x5_data_7_split_1
I0913 10:59:49.966573 19021 net.cpp:408] detection_accuracy_4_5x5 -> accuracy_4_5x5
I0913 10:59:49.966583 19021 net.cpp:408] detection_accuracy_4_5x5 -> boxiou_4_5x5
I0913 10:59:49.966627 19021 net.cpp:150] Setting up detection_accuracy_4_5x5
I0913 10:59:49.966636 19021 net.cpp:157] Top shape: 1 1 1 2 (2)
I0913 10:59:49.966642 19021 net.cpp:157] Top shape: 1 1 1 1 (1)
I0913 10:59:49.966646 19021 net.cpp:165] Memory required for data: 6312902540
I0913 10:59:49.966652 19021 net.cpp:228] detection_accuracy_4_5x5 does not need backward computation.
I0913 10:59:49.966657 19021 net.cpp:226] detection_loss_4_5x5 needs backward computation.
I0913 10:59:49.966662 19021 net.cpp:226] LFCN_4_5x5_LFCN_4_5x5_new_0_split needs backward computation.
I0913 10:59:49.966666 19021 net.cpp:226] LFCN_4_5x5_new needs backward computation.
…
I0913 10:59:49.979513 19021 image_gt_data_layer.cpp:235] output label size 1 : 2,6,96,96
I0913 10:59:49.979560 19021 image_gt_data_layer.cpp:235] output label size 2 : 2,6,48,48
I0913 10:59:49.979607 19021 image_gt_data_layer.cpp:235] output label size 3 : 2,6,48,48
I0913 10:59:49.979655 19021 image_gt_data_layer.cpp:235] output label size 4 : 2,6,24,24
I0913 10:59:49.979707 19021 image_gt_data_layer.cpp:235] output label size 5 : 2,6,24,24
I0913 10:59:49.979758 19021 image_gt_data_layer.cpp:235] output label size 6 : 2,6,12,12
I0913 10:59:50.010813 19021 net.cpp:150] Setting up data
I0913 10:59:50.010866 19021 net.cpp:157] Top shape: 2 4 768 768 (4718592)
I0913 10:59:50.010876 19021 net.cpp:157] Top shape: 2 6 96 96 (110592)
I0913 10:59:50.010885 19021 net.cpp:157] Top shape: 2 6 96 96 (110592)
I0913 10:59:50.010892 19021 net.cpp:157] Top shape: 2 6 48 48 (27648)
I0913 10:59:50.010900 19021 net.cpp:157] Top shape: 2 6 48 48 (27648)
I0913 10:59:50.010907 19021 net.cpp:157] Top shape: 2 6 24 24 (6912)
I0913 10:59:50.010915 19021 net.cpp:157] Top shape: 2 6 24 24 (6912)
I0913 10:59:50.010921 19021 net.cpp:157] Top shape: 2 6 12 12 (1728)
I0913 10:59:50.010923 19021 net.cpp:165] Memory required for data: 20042496
I0913 10:59:50.010932 19021 layer_factory.hpp:77] Creating layer label_1_5x5_data_1_split
I0913 10:59:50.010954 19021 net.cpp:100] Creating Layer label_1_5x5_data_1_split
I0913 10:59:50.010962 19021 net.cpp:434] label_1_5x5_data_1_split <- label_1_5x5
I0913 10:59:50.010970 19021 net.cpp:408] label_1_5x5_data_1_split -> label_1_5x5_data_1_split_0
I0913 10:59:50.010985 19021 net.cpp:408] label_1_5x5_data_1_split -> label_1_5x5_data_1_split_1
I0913 10:59:50.011078 19021 net.cpp:150] Setting up label_1_5x5_data_1_split
I0913 10:59:50.011085 19021 net.cpp:157] Top shape: 2 6 96 96 (110592)
I0913 10:59:50.011090 19021 net.cpp:157] Top shape: 2 6 96 96 (110592)
I0913 10:59:50.011092 19021 net.cpp:165] Memory required for data: 20927232
I0913 10:59:50.011096 19021 layer_factory.hpp:77] Creating layer label_1_7x7_data_2_split
I0913 10:59:50.011102 19021 net.cpp:100] Creating Layer label_1_7x7_data_2_split
I0913 10:59:50.011106 19021 net.cpp:434] label_1_7x7_data_2_split <- label_1_7x7
I0913 10:59:50.011111 19021 net.cpp:408] label_1_7x7_data_2_split -> label_1_7x7_data_2_split_0
I0913 10:59:50.011117 19021 net.cpp:408] label_1_7x7_data_2_split -> label_1_7x7_data_2_split_1
I0913 10:59:50.011312 19021 net.cpp:150] Setting up label_1_7x7_data_2_split
I0913 10:59:50.011343 19021 net.cpp:157] Top shape: 2 6 96 96 (110592)
I0913 10:59:50.011349 19021 net.cpp:157] Top shape: 2 6 96 96 (110592)
I0913 10:59:50.011353 19021 net.cpp:165] Memory required for data: 21811968
I0913 10:59:50.011360 19021 layer_factory.hpp:77] Creating layer label_2_5x5_data_3_split
I0913 10:59:50.011374 19021 net.cpp:100] Creating Layer label_2_5x5_data_3_split
I0913 10:59:50.011380 19021 net.cpp:434] label_2_5x5_data_3_split <- label_2_5x5
I0913 10:59:50.011390 19021 net.cpp:408] label_2_5x5_data_3_split -> label_2_5x5_data_3_split_0
I0913 10:59:50.011401 19021 net.cpp:408] label_2_5x5_data_3_split -> label_2_5x5_data_3_split_1
I0913 10:59:50.011451 19021 net.cpp:150] Setting up label_2_5x5_data_3_split
I0913 10:59:50.011457 19021 net.cpp:157] Top shape: 2 6 48 48 (27648)
I0913 10:59:50.011462 19021 net.cpp:157] Top shape: 2 6 48 48 (27648)
I0913 10:59:50.011466 19021 net.cpp:165] Memory required for data: 22033152
I0913 10:59:50.011469 19021 layer_factory.hpp:77] Creating layer label_2_7x7_data_4_split
I0913 10:59:50.011477 19021 net.cpp:100] Creating Layer label_2_7x7_data_4_split
I0913 10:59:50.011482 19021 net.cpp:434] label_2_7x7_data_4_split <- label_2_7x7
I0913 10:59:50.011488 19021 net.cpp:408] label_2_7x7_data_4_split -> label_2_7x7_data_4_split_0
I0913 10:59:50.011497 19021 net.cpp:408] label_2_7x7_data_4_split -> label_2_7x7_data_4_split_1
I0913 10:59:50.011538 19021 net.cpp:150] Setting up label_2_7x7_data_4_split
I0913 10:59:50.011544 19021 net.cpp:157] Top shape: 2 6 48 48 (27648)
I0913 10:59:50.011549 19021 net.cpp:157] Top shape: 2 6 48 48 (27648)
I0913 10:59:50.011553 19021 net.cpp:165] Memory required for data: 22254336
I0913 10:59:50.011556 19021 layer_factory.hpp:77] Creating layer label_3_5x5_data_5_split
I0913 10:59:50.011562 19021 net.cpp:100] Creating Layer label_3_5x5_data_5_split
I0913 10:59:50.011566 19021 net.cpp:434] label_3_5x5_data_5_split <- label_3_5x5
I0913 10:59:50.011572 19021 net.cpp:408] label_3_5x5_data_5_split -> label_3_5x5_data_5_split_0
I0913 10:59:50.011582 19021 net.cpp:408] label_3_5x5_data_5_split -> label_3_5x5_data_5_split_1
I0913 10:59:50.011620 19021 net.cpp:150] Setting up label_3_5x5_data_5_split
I0913 10:59:50.011626 19021 net.cpp:157] Top shape: 2 6 24 24 (6912)
I0913 10:59:50.011629 19021 net.cpp:157] Top shape: 2 6 24 24 (6912)
I0913 10:59:50.011631 19021 net.cpp:165] Memory required for data: 22309632
I0913 10:59:50.011636 19021 layer_factory.hpp:77] Creating layer label_3_7x7_data_6_split
I0913 10:59:50.011639 19021 net.cpp:100] Creating Layer label_3_7x7_data_6_split
I0913 10:59:50.011642 19021 net.cpp:434] label_3_7x7_data_6_split <- label_3_7x7
I0913 10:59:50.011651 19021 net.cpp:408] label_3_7x7_data_6_split -> label_3_7x7_data_6_split_0
I0913 10:59:50.011656 19021 net.cpp:408] label_3_7x7_data_6_split -> label_3_7x7_data_6_split_1
I0913 10:59:50.011687 19021 net.cpp:150] Setting up label_3_7x7_data_6_split
I0913 10:59:50.011692 19021 net.cpp:157] Top shape: 2 6 24 24 (6912)
I0913 10:59:50.011695 19021 net.cpp:157] Top shape: 2 6 24 24 (6912)
I0913 10:59:50.011698 19021 net.cpp:165] Memory required for data: 22364928
I0913 10:59:50.011701 19021 layer_factory.hpp:77] Creating layer label_4_5x5_data_7_split
I0913 10:59:50.011708 19021 net.cpp:100] Creating Layer label_4_5x5_data_7_split
I0913 10:59:50.011710 19021 net.cpp:434] label_4_5x5_data_7_split <- label_4_5x5
I0913 10:59:50.011713 19021 net.cpp:408] label_4_5x5_data_7_split -> label_4_5x5_data_7_split_0
I0913 10:59:50.011718 19021 net.cpp:408] label_4_5x5_data_7_split -> label_4_5x5_data_7_split_1
I0913 10:59:50.011749 19021 net.cpp:150] Setting up label_4_5x5_data_7_split
I0913 10:59:50.011755 19021 net.cpp:157] Top shape: 2 6 12 12 (1728)
I0913 10:59:50.011760 19021 net.cpp:157] Top shape: 2 6 12 12 (1728)
I0913 10:59:50.011765 19021 net.cpp:165] Memory required for data: 22378752
I0913 10:59:50.011767 19021 layer_factory.hpp:77] Creating layer slice
I0913 10:59:50.011780 19021 net.cpp:100] Creating Layer slice
I0913 10:59:50.011783 19021 net.cpp:434] slice <- data
I0913 10:59:50.011790 19021 net.cpp:408] slice -> data123
I0913 10:59:50.011795 19021 net.cpp:408] slice -> ch4
I0913 10:59:50.011837 19021 net.cpp:150] Setting up slice
I0913 10:59:50.011842 19021 net.cpp:157] Top shape: 2 3 768 768 (3538944)
I0913 10:59:50.011847 19021 net.cpp:157] Top shape: 2 1 768 768 (1179648)
I0913 10:59:50.011850 19021 net.cpp:165] Memory required for data: 41253120
I0913 10:59:50.011854 19021 layer_factory.hpp:77] Creating layer conv1_1
I0913 10:59:50.011865 19021 net.cpp:100] Creating Layer conv1_1
I0913 10:59:50.011869 19021 net.cpp:434] conv1_1 <- data123
I0913 10:59:50.011874 19021 net.cpp:408] conv1_1 -> conv1_1
I0913 10:59:50.018664 19021 net.cpp:150] Setting up conv1_1
I0913 10:59:50.018715 19021 net.cpp:157] Top shape: 2 64 768 768 (75497472)
I0913 10:59:50.018723 19021 net.cpp:165] Memory required for data: 343243008
I0913 10:59:50.018752 19021 layer_factory.hpp:77] Creating layer relu1_1
I0913 10:59:50.018776 19021 net.cpp:100] Creating Layer relu1_1
I0913 10:59:50.018784 19021 net.cpp:434] relu1_1 <- conv1_1
I0913 10:59:50.018795 19021 net.cpp:395] relu1_1 -> conv1_1 (in-place)
I0913 10:59:50.019595 19021 net.cpp:150] Setting up relu1_1
I0913 10:59:50.019623 19021 net.cpp:157] Top shape: 2 64 768 768 (75497472)
I0913 10:59:50.019626 19021 net.cpp:165] Memory required for data: 645232896
I0913 10:59:50.019632 19021 layer_factory.hpp:77] Creating layer conv1_2
I0913 10:59:50.019652 19021 net.cpp:100] Creating Layer conv1_2
I0913 10:59:50.019657 19021 net.cpp:434] conv1_2 <- conv1_1
I0913 10:59:50.019665 19021 net.cpp:408] conv1_2 -> conv1_2
E0913 10:59:50.023067 19044 image_gt_data_layer.cpp:371] Could not open or find file /media/b3-542/LIBRARY/moz/result/AllHaveLight/blob_jan30_xgt_train/002567.png
I0913 10:59:50.023108 19021 net.cpp:150] Setting up conv1_2
I0913 10:59:50.023126 19021 net.cpp:157] Top shape: 2 64 768 768 (75497472)
I0913 10:59:50.023133 19021 net.cpp:165] Memory required for data: 947222784
I0913 10:59:50.023152 19021 layer_factory.hpp:77] Creating layer relu1_2
I0913 10:59:50.023175 19021 net.cpp:100] Creating Layer relu1_2
I0913 10:59:50.023181 19021 net.cpp:434] relu1_2 <- conv1_2
I0913 10:59:50.023191 19021 net.cpp:395] relu1_2 -> conv1_2 (in-place)
I0913 10:59:50.023394 19021 net.cpp:150] Setting up relu1_2
I0913 10:59:50.023404 19021 net.cpp:157] Top shape: 2 64 768 768 (75497472)
I0913 10:59:50.023408 19021 net.cpp:165] Memory required for data: 1249212672
I0913 10:59:50.023412 19021 layer_factory.hpp:77] Creating layer pool1
I0913 10:59:50.023418 19021 net.cpp:100] Creating Layer pool1
I0913 10:59:50.023422 19021 net.cpp:434] pool1 <- conv1_2
I0913 10:59:50.023427 19021 net.cpp:408] pool1 -> pool1
I0913 10:59:50.023480 19021 net.cpp:150] Setting up pool1
I0913 10:59:50.023524 19021 net.cpp:157] Top shape: 2 64 384 384 (18874368)
I0913 10:59:50.023543 19021 net.cpp:165] Memory required for data: 1324710144
I0913 10:59:50.023556 19021 layer_factory.hpp:77] Creating layer ch4_pool1
I0913 10:59:50.023587 19021 net.cpp:100] Creating Layer ch4_pool1
I0913 10:59:50.023602 19021 net.cpp:434] ch4_pool1 <- ch4
I0913 10:59:50.023659 19021 net.cpp:408] ch4_pool1 -> ch4_pool1
I0913 10:59:50.024160 19021 net.cpp:150] Setting up ch4_pool1
I0913 10:59:50.024228 19021 net.cpp:157] Top shape: 2 1 384 384 (294912)
I0913 10:59:50.024243 19021 net.cpp:165] Memory required for data: 1325889792
I0913 10:59:50.024256 19021 layer_factory.hpp:77] Creating layer ch4_pool1_ch4_pool1_0_split
I0913 10:59:50.024291 19021 net.cpp:100] Creating Layer ch4_pool1_ch4_pool1_0_split
I0913 10:59:50.024304 19021 net.cpp:434] ch4_pool1_ch4_pool1_0_split <- ch4_pool1
I0913 10:59:50.024332 19021 net.cpp:408] ch4_pool1_ch4_pool1_0_split -> ch4_pool1_ch4_pool1_0_split_0
I0913 10:59:50.024366 19021 net.cpp:408] ch4_pool1_ch4_pool1_0_split -> ch4_pool1_ch4_pool1_0_split_1
I0913 10:59:50.024724 19021 net.cpp:150] Setting up ch4_pool1_ch4_pool1_0_split
I0913 10:59:50.024791 19021 net.cpp:157] Top shape: 2 1 384 384 (294912)
I0913 10:59:50.024806 19021 net.cpp:157] Top shape: 2 1 384 384 (294912)
I0913 10:59:50.024816 19021 net.cpp:165] Memory required for data: 1328249088
I0913 10:59:50.024828 19021 layer_factory.hpp:77] Creating layer pool1_concat
I0913 10:59:50.024893 19021 net.cpp:100] Creating Layer pool1_concat
I0913 10:59:50.024919 19021 net.cpp:434] pool1_concat <- pool1
I0913 10:59:50.024945 19021 net.cpp:434] pool1_concat <- ch4_pool1_ch4_pool1_0_split_0
I0913 10:59:50.025007 19021 net.cpp:408] pool1_concat -> pool1_new
I0913 10:59:50.025213 19021 net.cpp:150] Setting up pool1_concat
I0913 10:59:50.025279 19021 net.cpp:157] Top shape: 2 65 384 384 (19169280)
I0913 10:59:50.025298 19021 net.cpp:165] Memory required for data: 1404926208
I0913 10:59:50.025312 19021 layer_factory.hpp:77] Creating layer conv2_1_new
I0913 10:59:50.025362 19021 net.cpp:100] Creating Layer conv2_1_new
I0913 10:59:50.025379 19021 net.cpp:434] conv2_1_new <- pool1_new
I0913 10:59:50.025420 19021 net.cpp:408] conv2_1_new -> conv2_1
I0913 10:59:50.039594 19021 net.cpp:150] Setting up conv2_1_new
I0913 10:59:50.039628 19021 net.cpp:157] Top shape: 2 128 384 384 (37748736)
I0913 10:59:50.039631 19021 net.cpp:165] Memory required for data: 1555921152
I0913 10:59:50.039649 19021 layer_factory.hpp:77] Creating layer relu2_1
I0913 10:59:50.039662 19021 net.cpp:100] Creating Layer relu2_1
I0913 10:59:50.039669 19021 net.cpp:434] relu2_1 <- conv2_1
I0913 10:59:50.039674 19021 net.cpp:395] relu2_1 -> conv2_1 (in-place)
E0913 10:59:50.039724 19044 image_gt_data_layer.cpp:371] Could not open or find file /media/b3-542/LIBRARY/moz/result/AllHaveLight/blob_jan30_xgt_train/002567.png
I0913 10:59:50.039939 19021 net.cpp:150] Setting up relu2_1
I0913 10:59:50.039947 19021 net.cpp:157] Top shape: 2 128 384 384 (37748736)
I0913 10:59:50.039950 19021 net.cpp:165] Memory required for data: 1706916096
I0913 10:59:50.039954 19021 layer_factory.hpp:77] Creating layer conv2_2
I0913 10:59:50.039964 19021 net.cpp:100] Creating Layer conv2_2
I0913 10:59:50.039968 19021 net.cpp:434] conv2_2 <- conv2_1
I0913 10:59:50.039974 19021 net.cpp:408] conv2_2 -> conv2_2
I0913 10:59:50.046653 19021 net.cpp:150] Setting up conv2_2
I0913 10:59:50.046699 19021 net.cpp:157] Top shape: 2 128 384 384 (37748736)
I0913 10:59:50.046703 19021 net.cpp:165] Memory required for data: 1857911040
I0913 10:59:50.046720 19021 layer_factory.hpp:77] Creating layer relu2_2
I0913 10:59:50.046739 19021 net.cpp:100] Creating Layer relu2_2
I0913 10:59:50.046747 19021 net.cpp:434] relu2_2 <- conv2_2
I0913 10:59:50.046757 19021 net.cpp:395] relu2_2 -> conv2_2 (in-place)
I0913 10:59:50.047060 19021 net.cpp:150] Setting up relu2_2
I0913 10:59:50.047071 19021 net.cpp:157] Top shape: 2 128 384 384 (37748736)
I0913 10:59:50.047075 19021 net.cpp:165] Memory required for data: 2008905984
I0913 10:59:50.047080 19021 layer_factory.hpp:77] Creating layer pool2
I0913 10:59:50.047088 19021 net.cpp:100] Creating Layer pool2
I0913 10:59:50.047091 19021 net.cpp:434] pool2 <- conv2_2
I0913 10:59:50.047099 19021 net.cpp:408] pool2 -> pool2
I0913 10:59:50.047185 19021 net.cpp:150] Setting up pool2
I0913 10:59:50.047194 19021 net.cpp:157] Top shape: 2 128 192 192 (9437184)
I0913 10:59:50.047199 19021 net.cpp:165] Memory required for data: 2046654720
I0913 10:59:50.047201 19021 layer_factory.hpp:77] Creating layer ch4_pool2
I0913 10:59:50.047207 19021 net.cpp:100] Creating Layer ch4_pool2
I0913 10:59:50.047210 19021 net.cpp:434] ch4_pool2 <- ch4_pool1_ch4_pool1_0_split_1
I0913 10:59:50.047216 19021 net.cpp:408] ch4_pool2 -> ch4_pool2
I0913 10:59:50.047252 19021 net.cpp:150] Setting up ch4_pool2
I0913 10:59:50.047258 19021 net.cpp:157] Top shape: 2 1 192 192 (73728)
I0913 10:59:50.047262 19021 net.cpp:165] Memory required for data: 2046949632
I0913 10:59:50.047266 19021 layer_factory.hpp:77] Creating layer ch4_pool2_ch4_pool2_0_split
I0913 10:59:50.047272 19021 net.cpp:100] Creating Layer ch4_pool2_ch4_pool2_0_split
I0913 10:59:50.047276 19021 net.cpp:434] ch4_pool2_ch4_pool2_0_split <- ch4_pool2
I0913 10:59:50.047281 19021 net.cpp:408] ch4_pool2_ch4_pool2_0_split -> ch4_pool2_ch4_pool2_0_split_0
I0913 10:59:50.047286 19021 net.cpp:408] ch4_pool2_ch4_pool2_0_split -> ch4_pool2_ch4_pool2_0_split_1
I0913 10:59:50.047322 19021 net.cpp:150] Setting up ch4_pool2_ch4_pool2_0_split
I0913 10:59:50.047328 19021 net.cpp:157] Top shape: 2 1 192 192 (73728)
I0913 10:59:50.047333 19021 net.cpp:157] Top shape: 2 1 192 192 (73728)
I0913 10:59:50.047336 19021 net.cpp:165] Memory required for data: 2047539456
I0913 10:59:50.047339 19021 layer_factory.hpp:77] Creating layer pool2_concat
I0913 10:59:50.047345 19021 net.cpp:100] Creating Layer pool2_concat
I0913 10:59:50.047348 19021 net.cpp:434] pool2_concat <- pool2
I0913 10:59:50.047353 19021 net.cpp:434] pool2_concat <- ch4_pool2_ch4_pool2_0_split_0
I0913 10:59:50.047358 19021 net.cpp:408] pool2_concat -> pool2_new
I0913 10:59:50.047379 19021 net.cpp:150] Setting up pool2_concat
I0913 10:59:50.047385 19021 net.cpp:157] Top shape: 2 129 192 192 (9510912)
I0913 10:59:50.047389 19021 net.cpp:165] Memory required for data: 2085583104
I0913 10:59:50.047391 19021 layer_factory.hpp:77] Creating layer conv3_1_new
I0913 10:59:50.047402 19021 net.cpp:100] Creating Layer conv3_1_new
I0913 10:59:50.047406 19021 net.cpp:434] conv3_1_new <- pool2_new
I0913 10:59:50.047410 19021 net.cpp:408] conv3_1_new -> conv3_1
E0913 10:59:50.049239 19044 image_gt_data_layer.cpp:371] Could not open or find file /media/b3-542/LIBRARY/moz/result/AllHaveLight/blob_jan30_xgt_train/002567.png
I0913 10:59:50.053737 19021 net.cpp:150] Setting up conv3_1_new
I0913 10:59:50.053781 19021 net.cpp:157] Top shape: 2 256 192 192 (18874368)
I0913 10:59:50.053791 19021 net.cpp:165] Memory required for data: 2161080576
I0913 10:59:50.053818 19021 layer_factory.hpp:77] Creating layer relu3_1
I0913 10:59:50.053836 19021 net.cpp:100] Creating Layer relu3_1
I0913 10:59:50.053848 19021 net.cpp:434] relu3_1 <- conv3_1
I0913 10:59:50.053859 19021 net.cpp:395] relu3_1 -> conv3_1 (in-place)
I0913 10:59:50.054361 19021 net.cpp:150] Setting up relu3_1
I0913 10:59:50.054419 19021 net.cpp:157] Top shape: 2 256 192 192 (18874368)
I0913 10:59:50.054432 19021 net.cpp:165] Memory required for data: 2236578048
I0913 10:59:50.054445 19021 layer_factory.hpp:77] Creating layer conv3_2
I0913 10:59:50.054468 19021 net.cpp:100] Creating Layer conv3_2
I0913 10:59:50.054483 19021 net.cpp:434] conv3_2 <- conv3_1
I0913 10:59:50.054504 19021 net.cpp:408] conv3_2 -> conv3_2
I0913 10:59:50.059348 19021 net.cpp:150] Setting up conv3_2
I0913 10:59:50.059370 19021 net.cpp:157] Top shape: 2 256 192 192 (18874368)
I0913 10:59:50.059375 19021 net.cpp:165] Memory required for data: 2312075520
I0913 10:59:50.059386 19021 layer_factory.hpp:77] Creating layer relu3_2
I0913 10:59:50.059396 19021 net.cpp:100] Creating Layer relu3_2
I0913 10:59:50.059401 19021 net.cpp:434] relu3_2 <- conv3_2
I0913 10:59:50.059412 19021 net.cpp:395] relu3_2 -> conv3_2 (in-place)
I0913 10:59:50.059615 19021 net.cpp:150] Setting up relu3_2
I0913 10:59:50.059626 19021 net.cpp:157] Top shape: 2 256 192 192 (18874368)
I0913 10:59:50.059630 19021 net.cpp:165] Memory required for data: 2387572992
I0913 10:59:50.059635 19021 layer_factory.hpp:77] Creating layer conv3_3
I0913 10:59:50.059645 19021 net.cpp:100] Creating Layer conv3_3
I0913 10:59:50.059650 19021 net.cpp:434] conv3_3 <- conv3_2
I0913 10:59:50.059657 19021 net.cpp:408] conv3_3 -> conv3_3
I0913 10:59:50.062968 19021 net.cpp:150] Setting up conv3_3
I0913 10:59:50.062986 19021 net.cpp:157] Top shape: 2 256 192 192 (18874368)
I0913 10:59:50.062991 19021 net.cpp:165] Memory required for data: 2463070464
I0913 10:59:50.062999 19021 layer_factory.hpp:77] Creating layer relu3_3
I0913 10:59:50.063007 19021 net.cpp:100] Creating Layer relu3_3
I0913 10:59:50.063012 19021 net.cpp:434] relu3_3 <- conv3_3
I0913 10:59:50.063019 19021 net.cpp:395] relu3_3 -> conv3_3 (in-place)
I0913 10:59:50.063596 19021 net.cpp:150] Setting up relu3_3
I0913 10:59:50.063611 19021 net.cpp:157] Top shape: 2 256 192 192 (18874368)
I0913 10:59:50.063617 19021 net.cpp:165] Memory required for data: 2538567936
I0913 10:59:50.063622 19021 layer_factory.hpp:77] Creating layer pool3
I0913 10:59:50.063632 19021 net.cpp:100] Creating Layer pool3
I0913 10:59:50.063637 19021 net.cpp:434] pool3 <- conv3_3
I0913 10:59:50.063643 19021 net.cpp:408] pool3 -> pool3
I0913 10:59:50.063697 19021 net.cpp:150] Setting up pool3
I0913 10:59:50.063705 19021 net.cpp:157] Top shape: 2 256 96 96 (4718592)
I0913 10:59:50.063710 19021 net.cpp:165] Memory required for data: 2557442304
I0913 10:59:50.063714 19021 layer_factory.hpp:77] Creating layer ch4_pool3
I0913 10:59:50.063724 19021 net.cpp:100] Creating Layer ch4_pool3
I0913 10:59:50.063730 19021 net.cpp:434] ch4_pool3 <- ch4_pool2_ch4_pool2_0_split_1
I0913 10:59:50.063738 19021 net.cpp:408] ch4_pool3 -> ch4_pool3
I0913 10:59:50.063783 19021 net.cpp:150] Setting up ch4_pool3
I0913 10:59:50.063791 19021 net.cpp:157] Top shape: 2 1 96 96 (18432)
I0913 10:59:50.063796 19021 net.cpp:165] Memory required for data: 2557516032
I0913 10:59:50.063800 19021 layer_factory.hpp:77] Creating layer ch4_pool3_ch4_pool3_0_split
I0913 10:59:50.063807 19021 net.cpp:100] Creating Layer ch4_pool3_ch4_pool3_0_split
I0913 10:59:50.063812 19021 net.cpp:434] ch4_pool3_ch4_pool3_0_split <- ch4_pool3
I0913 10:59:50.063817 19021 net.cpp:408] ch4_pool3_ch4_pool3_0_split -> ch4_pool3_ch4_pool3_0_split_0
I0913 10:59:50.063825 19021 net.cpp:408] ch4_pool3_ch4_pool3_0_split -> ch4_pool3_ch4_pool3_0_split_1
I0913 10:59:50.063870 19021 net.cpp:150] Setting up ch4_pool3_ch4_pool3_0_split
I0913 10:59:50.063879 19021 net.cpp:157] Top shape: 2 1 96 96 (18432)
I0913 10:59:50.063886 19021 net.cpp:157] Top shape: 2 1 96 96 (18432)
I0913 10:59:50.063892 19021 net.cpp:165] Memory required for data: 2557663488
I0913 10:59:50.063897 19021 layer_factory.hpp:77] Creating layer pool3_concat
I0913 10:59:50.063906 19021 net.cpp:100] Creating Layer pool3_concat
I0913 10:59:50.063912 19021 net.cpp:434] pool3_concat <- pool3
I0913 10:59:50.063920 19021 net.cpp:434] pool3_concat <- ch4_pool3_ch4_pool3_0_split_0
I0913 10:59:50.063927 19021 net.cpp:408] pool3_concat -> pool3_new
I0913 10:59:50.063959 19021 net.cpp:150] Setting up pool3_concat
I0913 10:59:50.063967 19021 net.cpp:157] Top shape: 2 257 96 96 (4737024)
I0913 10:59:50.063972 19021 net.cpp:165] Memory required for data: 2576611584
I0913 10:59:50.063977 19021 layer_factory.hpp:77] Creating layer conv4_1_new
I0913 10:59:50.063988 19021 net.cpp:100] Creating Layer conv4_1_new
I0913 10:59:50.063994 19021 net.cpp:434] conv4_1_new <- pool3_new
I0913 10:59:50.064002 19021 net.cpp:408] conv4_1_new -> conv4_1
I0913 10:59:50.068691 19021 net.cpp:150] Setting up conv4_1_new
I0913 10:59:50.068754 19021 net.cpp:157] Top shape: 2 512 96 96 (9437184)
I0913 10:59:50.068761 19021 net.cpp:165] Memory required for data: 2614360320
I0913 10:59:50.068778 19021 layer_factory.hpp:77] Creating layer relu4_1
I0913 10:59:50.068799 19021 net.cpp:100] Creating Layer relu4_1
I0913 10:59:50.068809 19021 net.cpp:434] relu4_1 <- conv4_1
I0913 10:59:50.068819 19021 net.cpp:395] relu4_1 -> conv4_1 (in-place)
I0913 10:59:50.069068 19021 net.cpp:150] Setting up relu4_1
I0913 10:59:50.069080 19021 net.cpp:157] Top shape: 2 512 96 96 (9437184)
I0913 10:59:50.069085 19021 net.cpp:165] Memory required for data: 2652109056
I0913 10:59:50.069092 19021 layer_factory.hpp:77] Creating layer conv4_2
I0913 10:59:50.069108 19021 net.cpp:100] Creating Layer conv4_2
I0913 10:59:50.069114 19021 net.cpp:434] conv4_2 <- conv4_1
I0913 10:59:50.069123 19021 net.cpp:408] conv4_2 -> conv4_2
I0913 10:59:50.081147 19021 net.cpp:150] Setting up conv4_2
I0913 10:59:50.081181 19021 net.cpp:157] Top shape: 2 512 96 96 (9437184)
I0913 10:59:50.081185 19021 net.cpp:165] Memory required for data: 2689857792
I0913 10:59:50.081202 19021 layer_factory.hpp:77] Creating layer relu4_2
I0913 10:59:50.081218 19021 net.cpp:100] Creating Layer relu4_2
I0913 10:59:50.081224 19021 net.cpp:434] relu4_2 <- conv4_2
I0913 10:59:50.081230 19021 net.cpp:395] relu4_2 -> conv4_2 (in-place)
I0913 10:59:50.081393 19021 net.cpp:150] Setting up relu4_2
I0913 10:59:50.081401 19021 net.cpp:157] Top shape: 2 512 96 96 (9437184)
I0913 10:59:50.081404 19021 net.cpp:165] Memory required for data: 2727606528
I0913 10:59:50.081408 19021 layer_factory.hpp:77] Creating layer conv4_3
I0913 10:59:50.081418 19021 net.cpp:100] Creating Layer conv4_3
I0913 10:59:50.081423 19021 net.cpp:434] conv4_3 <- conv4_2
I0913 10:59:50.081429 19021 net.cpp:408] conv4_3 -> conv4_3
I0913 10:59:50.091734 19021 net.cpp:150] Setting up conv4_3
I0913 10:59:50.091787 19021 net.cpp:157] Top shape: 2 512 96 96 (9437184)
I0913 10:59:50.091794 19021 net.cpp:165] Memory required for data: 2765355264
I0913 10:59:50.091809 19021 layer_factory.hpp:77] Creating layer relu4_3
I0913 10:59:50.091828 19021 net.cpp:100] Creating Layer relu4_3
I0913 10:59:50.091837 19021 net.cpp:434] relu4_3 <- conv4_3
I0913 10:59:50.091848 19021 net.cpp:395] relu4_3 -> conv4_3 (in-place)
I0913 10:59:50.092022 19021 net.cpp:150] Setting up relu4_3
I0913 10:59:50.092031 19021 net.cpp:157] Top shape: 2 512 96 96 (9437184)
I0913 10:59:50.092034 19021 net.cpp:165] Memory required for data: 2803104000
I0913 10:59:50.092038 19021 layer_factory.hpp:77] Creating layer conv4_3_relu4_3_0_split
I0913 10:59:50.092046 19021 net.cpp:100] Creating Layer conv4_3_relu4_3_0_split
I0913 10:59:50.092051 19021 net.cpp:434] conv4_3_relu4_3_0_split <- conv4_3
I0913 10:59:50.092058 19021 net.cpp:408] conv4_3_relu4_3_0_split -> conv4_3_relu4_3_0_split_0
I0913 10:59:50.092066 19021 net.cpp:408] conv4_3_relu4_3_0_split -> conv4_3_relu4_3_0_split_1
I0913 10:59:50.092105 19021 net.cpp:150] Setting up conv4_3_relu4_3_0_split
I0913 10:59:50.092111 19021 net.cpp:157] Top shape: 2 512 96 96 (9437184)
I0913 10:59:50.092115 19021 net.cpp:157] Top shape: 2 512 96 96 (9437184)
I0913 10:59:50.092118 19021 net.cpp:165] Memory required for data: 2878601472
I0913 10:59:50.092123 19021 layer_factory.hpp:77] Creating layer loss1_conv1
I0913 10:59:50.092137 19021 net.cpp:100] Creating Layer loss1_conv1
I0913 10:59:50.092141 19021 net.cpp:434] loss1_conv1 <- conv4_3_relu4_3_0_split_0
I0913 10:59:50.092149 19021 net.cpp:408] loss1_conv1 -> loss1_conv1
I0913 10:59:50.168354 19021 net.cpp:150] Setting up loss1_conv1
I0913 10:59:50.168381 19021 net.cpp:157] Top shape: 2 512 96 96 (9437184)
I0913 10:59:50.168385 19021 net.cpp:165] Memory required for data: 2916350208
I0913 10:59:50.168395 19021 layer_factory.hpp:77] Creating layer loss_relu1
I0913 10:59:50.168407 19021 net.cpp:100] Creating Layer loss_relu1
I0913 10:59:50.168412 19021 net.cpp:434] loss_relu1 <- loss1_conv1
I0913 10:59:50.168419 19021 net.cpp:395] loss_relu1 -> loss1_conv1 (in-place)
I0913 10:59:50.168576 19021 net.cpp:150] Setting up loss_relu1
I0913 10:59:50.168584 19021 net.cpp:157] Top shape: 2 512 96 96 (9437184)
I0913 10:59:50.168587 19021 net.cpp:165] Memory required for data: 2954098944
I0913 10:59:50.168591 19021 layer_factory.hpp:77] Creating layer loss1_conv1_loss_relu1_0_split
I0913 10:59:50.168598 19021 net.cpp:100] Creating Layer loss1_conv1_loss_relu1_0_split
I0913 10:59:50.168601 19021 net.cpp:434] loss1_conv1_loss_relu1_0_split <- loss1_conv1
I0913 10:59:50.168606 19021 net.cpp:408] loss1_conv1_loss_relu1_0_split -> loss1_conv1_loss_relu1_0_split_0
I0913 10:59:50.168613 19021 net.cpp:408] loss1_conv1_loss_relu1_0_split -> loss1_conv1_loss_relu1_0_split_1
I0913 10:59:50.168653 19021 net.cpp:150] Setting up loss1_conv1_loss_relu1_0_split
I0913 10:59:50.168658 19021 net.cpp:157] Top shape: 2 512 96 96 (9437184)
I0913 10:59:50.168663 19021 net.cpp:157] Top shape: 2 512 96 96 (9437184)
I0913 10:59:50.168666 19021 net.cpp:165] Memory required for data: 3029596416
I0913 10:59:50.168669 19021 layer_factory.hpp:77] Creating layer LFCN_1_5x5
I0913 10:59:50.168680 19021 net.cpp:100] Creating Layer LFCN_1_5x5
I0913 10:59:50.168684 19021 net.cpp:434] LFCN_1_5x5 <- loss1_conv1_loss_relu1_0_split_0
I0913 10:59:50.168691 19021 net.cpp:408] LFCN_1_5x5 -> LFCN_1_5x5
I0913 10:59:50.172436 19021 net.cpp:150] Setting up LFCN_1_5x5
I0913 10:59:50.172447 19021 net.cpp:157] Top shape: 2 9 96 96 (165888)
I0913 10:59:50.172451 19021 net.cpp:165] Memory required for data: 3030259968
I0913 10:59:50.172456 19021 layer_factory.hpp:77] Creating layer LFCN_1_5x5_LFCN_1_5x5_0_split
I0913 10:59:50.172461 19021 net.cpp:100] Creating Layer LFCN_1_5x5_LFCN_1_5x5_0_split
I0913 10:59:50.172464 19021 net.cpp:434] LFCN_1_5x5_LFCN_1_5x5_0_split <- LFCN_1_5x5
I0913 10:59:50.172469 19021 net.cpp:408] LFCN_1_5x5_LFCN_1_5x5_0_split -> LFCN_1_5x5_LFCN_1_5x5_0_split_0
I0913 10:59:50.172474 19021 net.cpp:408] LFCN_1_5x5_LFCN_1_5x5_0_split -> LFCN_1_5x5_LFCN_1_5x5_0_split_1
I0913 10:59:50.172505 19021 net.cpp:150] Setting up LFCN_1_5x5_LFCN_1_5x5_0_split
I0913 10:59:50.172514 19021 net.cpp:157] Top shape: 2 9 96 96 (165888)
I0913 10:59:50.172518 19021 net.cpp:157] Top shape: 2 9 96 96 (165888)
I0913 10:59:50.172520 19021 net.cpp:165] Memory required for data: 3031587072
I0913 10:59:50.172523 19021 layer_factory.hpp:77] Creating layer detection_loss_1_5x5
I0913 10:59:50.172529 19021 net.cpp:100] Creating Layer detection_loss_1_5x5
I0913 10:59:50.172533 19021 net.cpp:434] detection_loss_1_5x5 <- LFCN_1_5x5_LFCN_1_5x5_0_split_0
I0913 10:59:50.172536 19021 net.cpp:434] detection_loss_1_5x5 <- label_1_5x5_data_1_split_0
I0913 10:59:50.172541 19021 net.cpp:408] detection_loss_1_5x5 -> loss_1_5x5
I0913 10:59:50.172549 19021 layer_factory.hpp:77] Creating layer detection_loss_1_5x5
I0913 10:59:50.172917 19021 net.cpp:150] Setting up detection_loss_1_5x5
I0913 10:59:50.172927 19021 net.cpp:157] Top shape: 1 1 1 2 (2)
I0913 10:59:50.172930 19021 net.cpp:160]     with loss weight 0.9
I0913 10:59:50.172941 19021 net.cpp:165] Memory required for data: 3031587080
I0913 10:59:50.172945 19021 layer_factory.hpp:77] Creating layer detection_accuracy_1_5x5
I0913 10:59:50.172951 19021 net.cpp:100] Creating Layer detection_accuracy_1_5x5
I0913 10:59:50.172955 19021 net.cpp:434] detection_accuracy_1_5x5 <- LFCN_1_5x5_LFCN_1_5x5_0_split_1
I0913 10:59:50.172960 19021 net.cpp:434] detection_accuracy_1_5x5 <- label_1_5x5_data_1_split_1
I0913 10:59:50.172966 19021 net.cpp:408] detection_accuracy_1_5x5 -> accuracy_1_5x5
I0913 10:59:50.172971 19021 net.cpp:408] detection_accuracy_1_5x5 -> boxiou_1_5x5
I0913 10:59:50.173009 19021 net.cpp:150] Setting up detection_accuracy_1_5x5
I0913 10:59:50.173015 19021 net.cpp:157] Top shape: 1 1 1 2 (2)
I0913 10:59:50.173020 19021 net.cpp:157] Top shape: 1 1 1 1 (1)
I0913 10:59:50.173023 19021 net.cpp:165] Memory required for data: 3031587092
I0913 10:59:50.173027 19021 layer_factory.hpp:77] Creating layer LFCN_1_7x7
I0913 10:59:50.173035 19021 net.cpp:100] Creating Layer LFCN_1_7x7
I0913 10:59:50.173038 19021 net.cpp:434] LFCN_1_7x7 <- loss1_conv1_loss_relu1_0_split_1
I0913 10:59:50.173044 19021 net.cpp:408] LFCN_1_7x7 -> LFCN_1_7x7
I0913 10:59:50.180563 19021 net.cpp:150] Setting up LFCN_1_7x7
I0913 10:59:50.180578 19021 net.cpp:157] Top shape: 2 9 96 96 (165888)
I0913 10:59:50.180583 19021 net.cpp:165] Memory required for data: 3032250644
I0913 10:59:50.180589 19021 layer_factory.hpp:77] Creating layer LFCN_1_7x7_LFCN_1_7x7_0_split
I0913 10:59:50.180596 19021 net.cpp:100] Creating Layer LFCN_1_7x7_LFCN_1_7x7_0_split
I0913 10:59:50.180600 19021 net.cpp:434] LFCN_1_7x7_LFCN_1_7x7_0_split <- LFCN_1_7x7
I0913 10:59:50.180606 19021 net.cpp:408] LFCN_1_7x7_LFCN_1_7x7_0_split -> LFCN_1_7x7_LFCN_1_7x7_0_split_0
I0913 10:59:50.180613 19021 net.cpp:408] LFCN_1_7x7_LFCN_1_7x7_0_split -> LFCN_1_7x7_LFCN_1_7x7_0_split_1
I0913 10:59:50.180651 19021 net.cpp:150] Setting up LFCN_1_7x7_LFCN_1_7x7_0_split
I0913 10:59:50.180658 19021 net.cpp:157] Top shape: 2 9 96 96 (165888)
I0913 10:59:50.180662 19021 net.cpp:157] Top shape: 2 9 96 96 (165888)
I0913 10:59:50.180665 19021 net.cpp:165] Memory required for data: 3033577748
I0913 10:59:50.180668 19021 layer_factory.hpp:77] Creating layer detection_loss_1_7x7
I0913 10:59:50.180675 19021 net.cpp:100] Creating Layer detection_loss_1_7x7
I0913 10:59:50.180678 19021 net.cpp:434] detection_loss_1_7x7 <- LFCN_1_7x7_LFCN_1_7x7_0_split_0
I0913 10:59:50.180683 19021 net.cpp:434] detection_loss_1_7x7 <- label_1_7x7_data_2_split_0
I0913 10:59:50.180689 19021 net.cpp:408] detection_loss_1_7x7 -> loss_1_7x7
I0913 10:59:50.180696 19021 layer_factory.hpp:77] Creating layer detection_loss_1_7x7
I0913 10:59:50.181458 19021 net.cpp:150] Setting up detection_loss_1_7x7
I0913 10:59:50.181471 19021 net.cpp:157] Top shape: 1 1 1 2 (2)
I0913 10:59:50.181475 19021 net.cpp:160]     with loss weight 0.9
I0913 10:59:50.181483 19021 net.cpp:165] Memory required for data: 3033577756
I0913 10:59:50.181485 19021 layer_factory.hpp:77] Creating layer detection_accuracy_1_7x7
I0913 10:59:50.181493 19021 net.cpp:100] Creating Layer detection_accuracy_1_7x7
I0913 10:59:50.181496 19021 net.cpp:434] detection_accuracy_1_7x7 <- LFCN_1_7x7_LFCN_1_7x7_0_split_1
I0913 10:59:50.181501 19021 net.cpp:434] detection_accuracy_1_7x7 <- label_1_7x7_data_2_split_1
I0913 10:59:50.181509 19021 net.cpp:408] detection_accuracy_1_7x7 -> accuracy_1_7x7
I0913 10:59:50.181519 19021 net.cpp:408] detection_accuracy_1_7x7 -> boxiou_1_7x7
I0913 10:59:50.181560 19021 net.cpp:150] Setting up detection_accuracy_1_7x7
I0913 10:59:50.181565 19021 net.cpp:157] Top shape: 1 1 1 2 (2)
I0913 10:59:50.181571 19021 net.cpp:157] Top shape: 1 1 1 1 (1)
I0913 10:59:50.181573 19021 net.cpp:165] Memory required for data: 3033577768
I0913 10:59:50.181576 19021 layer_factory.hpp:77] Creating layer pool4
I0913 10:59:50.181582 19021 net.cpp:100] Creating Layer pool4
I0913 10:59:50.181586 19021 net.cpp:434] pool4 <- conv4_3_relu4_3_0_split_1
I0913 10:59:50.181591 19021 net.cpp:408] pool4 -> pool4
I0913 10:59:50.181628 19021 net.cpp:150] Setting up pool4
I0913 10:59:50.181634 19021 net.cpp:157] Top shape: 2 512 48 48 (2359296)
I0913 10:59:50.181638 19021 net.cpp:165] Memory required for data: 3043014952
I0913 10:59:50.181640 19021 layer_factory.hpp:77] Creating layer ch4_pool4
I0913 10:59:50.181646 19021 net.cpp:100] Creating Layer ch4_pool4
I0913 10:59:50.181650 19021 net.cpp:434] ch4_pool4 <- ch4_pool3_ch4_pool3_0_split_1
I0913 10:59:50.181654 19021 net.cpp:408] ch4_pool4 -> ch4_pool4
I0913 10:59:50.181689 19021 net.cpp:150] Setting up ch4_pool4
I0913 10:59:50.181697 19021 net.cpp:157] Top shape: 2 1 48 48 (4608)
I0913 10:59:50.181700 19021 net.cpp:165] Memory required for data: 3043033384
I0913 10:59:50.181704 19021 layer_factory.hpp:77] Creating layer ch4_pool4_ch4_pool4_0_split
I0913 10:59:50.181710 19021 net.cpp:100] Creating Layer ch4_pool4_ch4_pool4_0_split
I0913 10:59:50.181713 19021 net.cpp:434] ch4_pool4_ch4_pool4_0_split <- ch4_pool4
I0913 10:59:50.181717 19021 net.cpp:408] ch4_pool4_ch4_pool4_0_split -> ch4_pool4_ch4_pool4_0_split_0
I0913 10:59:50.181722 19021 net.cpp:408] ch4_pool4_ch4_pool4_0_split -> ch4_pool4_ch4_pool4_0_split_1
I0913 10:59:50.181756 19021 net.cpp:150] Setting up ch4_pool4_ch4_pool4_0_split
I0913 10:59:50.181762 19021 net.cpp:157] Top shape: 2 1 48 48 (4608)
I0913 10:59:50.181766 19021 net.cpp:157] Top shape: 2 1 48 48 (4608)
I0913 10:59:50.181769 19021 net.cpp:165] Memory required for data: 3043070248
I0913 10:59:50.181772 19021 layer_factory.hpp:77] Creating layer pool4_concat
I0913 10:59:50.181777 19021 net.cpp:100] Creating Layer pool4_concat
I0913 10:59:50.181780 19021 net.cpp:434] pool4_concat <- pool4
I0913 10:59:50.181784 19021 net.cpp:434] pool4_concat <- ch4_pool4_ch4_pool4_0_split_0
I0913 10:59:50.181790 19021 net.cpp:408] pool4_concat -> pool4_new
I0913 10:59:50.181810 19021 net.cpp:150] Setting up pool4_concat
I0913 10:59:50.181816 19021 net.cpp:157] Top shape: 2 513 48 48 (2363904)
I0913 10:59:50.181819 19021 net.cpp:165] Memory required for data: 3052525864
I0913 10:59:50.181823 19021 layer_factory.hpp:77] Creating layer conv5_1_new
I0913 10:59:50.181829 19021 net.cpp:100] Creating Layer conv5_1_new
I0913 10:59:50.181833 19021 net.cpp:434] conv5_1_new <- pool4_new
I0913 10:59:50.181838 19021 net.cpp:408] conv5_1_new -> conv5_1
I0913 10:59:50.187863 19021 net.cpp:150] Setting up conv5_1_new
I0913 10:59:50.187894 19021 net.cpp:157] Top shape: 2 512 48 48 (2359296)
I0913 10:59:50.187899 19021 net.cpp:165] Memory required for data: 3061963048
I0913 10:59:50.187908 19021 layer_factory.hpp:77] Creating layer relu5_1
I0913 10:59:50.187922 19021 net.cpp:100] Creating Layer relu5_1
I0913 10:59:50.187928 19021 net.cpp:434] relu5_1 <- conv5_1
I0913 10:59:50.187934 19021 net.cpp:395] relu5_1 -> conv5_1 (in-place)
I0913 10:59:50.188096 19021 net.cpp:150] Setting up relu5_1
I0913 10:59:50.188104 19021 net.cpp:157] Top shape: 2 512 48 48 (2359296)
I0913 10:59:50.188107 19021 net.cpp:165] Memory required for data: 3071400232
I0913 10:59:50.188110 19021 layer_factory.hpp:77] Creating layer conv5_2
I0913 10:59:50.188120 19021 net.cpp:100] Creating Layer conv5_2
I0913 10:59:50.188123 19021 net.cpp:434] conv5_2 <- conv5_1
I0913 10:59:50.188129 19021 net.cpp:408] conv5_2 -> conv5_2
I0913 10:59:50.194047 19021 net.cpp:150] Setting up conv5_2
I0913 10:59:50.194078 19021 net.cpp:157] Top shape: 2 512 48 48 (2359296)
I0913 10:59:50.194082 19021 net.cpp:165] Memory required for data: 3080837416
I0913 10:59:50.194090 19021 layer_factory.hpp:77] Creating layer relu5_2
I0913 10:59:50.194100 19021 net.cpp:100] Creating Layer relu5_2
I0913 10:59:50.194106 19021 net.cpp:434] relu5_2 <- conv5_2
I0913 10:59:50.194111 19021 net.cpp:395] relu5_2 -> conv5_2 (in-place)
I0913 10:59:50.194273 19021 net.cpp:150] Setting up relu5_2
I0913 10:59:50.194281 19021 net.cpp:157] Top shape: 2 512 48 48 (2359296)
I0913 10:59:50.194285 19021 net.cpp:165] Memory required for data: 3090274600
I0913 10:59:50.194289 19021 layer_factory.hpp:77] Creating layer conv5_3
I0913 10:59:50.194298 19021 net.cpp:100] Creating Layer conv5_3
I0913 10:59:50.194301 19021 net.cpp:434] conv5_3 <- conv5_2
I0913 10:59:50.194306 19021 net.cpp:408] conv5_3 -> conv5_3
I0913 10:59:50.201105 19021 net.cpp:150] Setting up conv5_3
I0913 10:59:50.201166 19021 net.cpp:157] Top shape: 2 512 48 48 (2359296)
I0913 10:59:50.201172 19021 net.cpp:165] Memory required for data: 3099711784
I0913 10:59:50.201189 19021 layer_factory.hpp:77] Creating layer relu5_3
I0913 10:59:50.201210 19021 net.cpp:100] Creating Layer relu5_3
I0913 10:59:50.201220 19021 net.cpp:434] relu5_3 <- conv5_3
I0913 10:59:50.201227 19021 net.cpp:395] relu5_3 -> conv5_3 (in-place)
I0913 10:59:50.201409 19021 net.cpp:150] Setting up relu5_3
I0913 10:59:50.201419 19021 net.cpp:157] Top shape: 2 512 48 48 (2359296)
I0913 10:59:50.201423 19021 net.cpp:165] Memory required for data: 3109148968
I0913 10:59:50.201427 19021 layer_factory.hpp:77] Creating layer conv5_3_relu5_3_0_split
I0913 10:59:50.201436 19021 net.cpp:100] Creating Layer conv5_3_relu5_3_0_split
I0913 10:59:50.201441 19021 net.cpp:434] conv5_3_relu5_3_0_split <- conv5_3
I0913 10:59:50.201445 19021 net.cpp:408] conv5_3_relu5_3_0_split -> conv5_3_relu5_3_0_split_0
I0913 10:59:50.201453 19021 net.cpp:408] conv5_3_relu5_3_0_split -> conv5_3_relu5_3_0_split_1
I0913 10:59:50.201459 19021 net.cpp:408] conv5_3_relu5_3_0_split -> conv5_3_relu5_3_0_split_2
I0913 10:59:50.201514 19021 net.cpp:150] Setting up conv5_3_relu5_3_0_split
I0913 10:59:50.201519 19021 net.cpp:157] Top shape: 2 512 48 48 (2359296)
I0913 10:59:50.201524 19021 net.cpp:157] Top shape: 2 512 48 48 (2359296)
I0913 10:59:50.201529 19021 net.cpp:157] Top shape: 2 512 48 48 (2359296)
I0913 10:59:50.201531 19021 net.cpp:165] Memory required for data: 3137460520
I0913 10:59:50.201535 19021 layer_factory.hpp:77] Creating layer LFCN_2_5x5
I0913 10:59:50.201562 19021 net.cpp:100] Creating Layer LFCN_2_5x5
I0913 10:59:50.201567 19021 net.cpp:434] LFCN_2_5x5 <- conv5_3_relu5_3_0_split_0
I0913 10:59:50.201576 19021 net.cpp:408] LFCN_2_5x5 -> LFCN_2_5x5
I0913 10:59:50.206900 19021 net.cpp:150] Setting up LFCN_2_5x5
I0913 10:59:50.206930 19021 net.cpp:157] Top shape: 2 9 48 48 (41472)
I0913 10:59:50.206934 19021 net.cpp:165] Memory required for data: 3137626408
I0913 10:59:50.206954 19021 layer_factory.hpp:77] Creating layer LFCN_2_5x5_LFCN_2_5x5_0_split
I0913 10:59:50.206965 19021 net.cpp:100] Creating Layer LFCN_2_5x5_LFCN_2_5x5_0_split
I0913 10:59:50.206971 19021 net.cpp:434] LFCN_2_5x5_LFCN_2_5x5_0_split <- LFCN_2_5x5
I0913 10:59:50.206979 19021 net.cpp:408] LFCN_2_5x5_LFCN_2_5x5_0_split -> LFCN_2_5x5_LFCN_2_5x5_0_split_0
I0913 10:59:50.206990 19021 net.cpp:408] LFCN_2_5x5_LFCN_2_5x5_0_split -> LFCN_2_5x5_LFCN_2_5x5_0_split_1
I0913 10:59:50.207029 19021 net.cpp:150] Setting up LFCN_2_5x5_LFCN_2_5x5_0_split
I0913 10:59:50.207036 19021 net.cpp:157] Top shape: 2 9 48 48 (41472)
I0913 10:59:50.207041 19021 net.cpp:157] Top shape: 2 9 48 48 (41472)
I0913 10:59:50.207043 19021 net.cpp:165] Memory required for data: 3137958184
I0913 10:59:50.207046 19021 layer_factory.hpp:77] Creating layer detection_loss_2_5x5
I0913 10:59:50.207054 19021 net.cpp:100] Creating Layer detection_loss_2_5x5
I0913 10:59:50.207058 19021 net.cpp:434] detection_loss_2_5x5 <- LFCN_2_5x5_LFCN_2_5x5_0_split_0
I0913 10:59:50.207063 19021 net.cpp:434] detection_loss_2_5x5 <- label_2_5x5_data_3_split_0
I0913 10:59:50.207069 19021 net.cpp:408] detection_loss_2_5x5 -> loss_2_5x5
I0913 10:59:50.207077 19021 layer_factory.hpp:77] Creating layer detection_loss_2_5x5
I0913 10:59:50.207419 19021 net.cpp:150] Setting up detection_loss_2_5x5
I0913 10:59:50.207429 19021 net.cpp:157] Top shape: 1 1 1 2 (2)
I0913 10:59:50.207432 19021 net.cpp:160]     with loss weight 1
I0913 10:59:50.207443 19021 net.cpp:165] Memory required for data: 3137958192
I0913 10:59:50.207448 19021 layer_factory.hpp:77] Creating layer detection_accuracy_2_5x5
I0913 10:59:50.207453 19021 net.cpp:100] Creating Layer detection_accuracy_2_5x5
I0913 10:59:50.207458 19021 net.cpp:434] detection_accuracy_2_5x5 <- LFCN_2_5x5_LFCN_2_5x5_0_split_1
I0913 10:59:50.207461 19021 net.cpp:434] detection_accuracy_2_5x5 <- label_2_5x5_data_3_split_1
I0913 10:59:50.207468 19021 net.cpp:408] detection_accuracy_2_5x5 -> accuracy_2_5x5
I0913 10:59:50.207474 19021 net.cpp:408] detection_accuracy_2_5x5 -> boxiou_2_5x5
I0913 10:59:50.207515 19021 net.cpp:150] Setting up detection_accuracy_2_5x5
I0913 10:59:50.207523 19021 net.cpp:157] Top shape: 1 1 1 2 (2)
I0913 10:59:50.207527 19021 net.cpp:157] Top shape: 1 1 1 1 (1)
I0913 10:59:50.207530 19021 net.cpp:165] Memory required for data: 3137958204
I0913 10:59:50.207533 19021 layer_factory.hpp:77] Creating layer LFCN_2_7x7
I0913 10:59:50.207545 19021 net.cpp:100] Creating Layer LFCN_2_7x7
I0913 10:59:50.207550 19021 net.cpp:434] LFCN_2_7x7 <- conv5_3_relu5_3_0_split_1
I0913 10:59:50.207554 19021 net.cpp:408] LFCN_2_7x7 -> LFCN_2_7x7
I0913 10:59:50.216415 19021 net.cpp:150] Setting up LFCN_2_7x7
I0913 10:59:50.216440 19021 net.cpp:157] Top shape: 2 9 48 48 (41472)
I0913 10:59:50.216445 19021 net.cpp:165] Memory required for data: 3138124092
I0913 10:59:50.216455 19021 layer_factory.hpp:77] Creating layer LFCN_2_7x7_LFCN_2_7x7_0_split
I0913 10:59:50.216469 19021 net.cpp:100] Creating Layer LFCN_2_7x7_LFCN_2_7x7_0_split
I0913 10:59:50.216473 19021 net.cpp:434] LFCN_2_7x7_LFCN_2_7x7_0_split <- LFCN_2_7x7
I0913 10:59:50.216482 19021 net.cpp:408] LFCN_2_7x7_LFCN_2_7x7_0_split -> LFCN_2_7x7_LFCN_2_7x7_0_split_0
I0913 10:59:50.216491 19021 net.cpp:408] LFCN_2_7x7_LFCN_2_7x7_0_split -> LFCN_2_7x7_LFCN_2_7x7_0_split_1
I0913 10:59:50.216552 19021 net.cpp:150] Setting up LFCN_2_7x7_LFCN_2_7x7_0_split
I0913 10:59:50.216559 19021 net.cpp:157] Top shape: 2 9 48 48 (41472)
I0913 10:59:50.216564 19021 net.cpp:157] Top shape: 2 9 48 48 (41472)
I0913 10:59:50.216568 19021 net.cpp:165] Memory required for data: 3138455868
I0913 10:59:50.216572 19021 layer_factory.hpp:77] Creating layer detection_loss_2_7x7
I0913 10:59:50.216580 19021 net.cpp:100] Creating Layer detection_loss_2_7x7
I0913 10:59:50.216585 19021 net.cpp:434] detection_loss_2_7x7 <- LFCN_2_7x7_LFCN_2_7x7_0_split_0
I0913 10:59:50.216591 19021 net.cpp:434] detection_loss_2_7x7 <- label_2_7x7_data_4_split_0
I0913 10:59:50.216598 19021 net.cpp:408] detection_loss_2_7x7 -> loss_2_7x7
I0913 10:59:50.216609 19021 layer_factory.hpp:77] Creating layer detection_loss_2_7x7
I0913 10:59:50.216990 19021 net.cpp:150] Setting up detection_loss_2_7x7
I0913 10:59:50.217000 19021 net.cpp:157] Top shape: 1 1 1 2 (2)
I0913 10:59:50.217003 19021 net.cpp:160]     with loss weight 1
I0913 10:59:50.217012 19021 net.cpp:165] Memory required for data: 3138455876
I0913 10:59:50.217016 19021 layer_factory.hpp:77] Creating layer detection_accuracy_2_7x7
I0913 10:59:50.217022 19021 net.cpp:100] Creating Layer detection_accuracy_2_7x7
I0913 10:59:50.217026 19021 net.cpp:434] detection_accuracy_2_7x7 <- LFCN_2_7x7_LFCN_2_7x7_0_split_1
I0913 10:59:50.217031 19021 net.cpp:434] detection_accuracy_2_7x7 <- label_2_7x7_data_4_split_1
I0913 10:59:50.217036 19021 net.cpp:408] detection_accuracy_2_7x7 -> accuracy_2_7x7
I0913 10:59:50.217043 19021 net.cpp:408] detection_accuracy_2_7x7 -> boxiou_2_7x7
I0913 10:59:50.217083 19021 net.cpp:150] Setting up detection_accuracy_2_7x7
I0913 10:59:50.217090 19021 net.cpp:157] Top shape: 1 1 1 2 (2)
I0913 10:59:50.217094 19021 net.cpp:157] Top shape: 1 1 1 1 (1)
I0913 10:59:50.217097 19021 net.cpp:165] Memory required for data: 3138455888
I0913 10:59:50.217100 19021 layer_factory.hpp:77] Creating layer pool5
I0913 10:59:50.217108 19021 net.cpp:100] Creating Layer pool5
I0913 10:59:50.217111 19021 net.cpp:434] pool5 <- conv5_3_relu5_3_0_split_2
I0913 10:59:50.217118 19021 net.cpp:408] pool5 -> pool5
I0913 10:59:50.217154 19021 net.cpp:150] Setting up pool5
I0913 10:59:50.217160 19021 net.cpp:157] Top shape: 2 512 24 24 (589824)
I0913 10:59:50.217164 19021 net.cpp:165] Memory required for data: 3140815184
I0913 10:59:50.217166 19021 layer_factory.hpp:77] Creating layer ch4_pool5
I0913 10:59:50.217171 19021 net.cpp:100] Creating Layer ch4_pool5
I0913 10:59:50.217175 19021 net.cpp:434] ch4_pool5 <- ch4_pool4_ch4_pool4_0_split_1
I0913 10:59:50.217180 19021 net.cpp:408] ch4_pool5 -> ch4_pool5
I0913 10:59:50.217216 19021 net.cpp:150] Setting up ch4_pool5
I0913 10:59:50.217221 19021 net.cpp:157] Top shape: 2 1 24 24 (1152)
I0913 10:59:50.217226 19021 net.cpp:165] Memory required for data: 3140819792
I0913 10:59:50.217228 19021 layer_factory.hpp:77] Creating layer ch4_pool5_ch4_pool5_0_split
I0913 10:59:50.217232 19021 net.cpp:100] Creating Layer ch4_pool5_ch4_pool5_0_split
I0913 10:59:50.217236 19021 net.cpp:434] ch4_pool5_ch4_pool5_0_split <- ch4_pool5
I0913 10:59:50.217242 19021 net.cpp:408] ch4_pool5_ch4_pool5_0_split -> ch4_pool5_ch4_pool5_0_split_0
I0913 10:59:50.217247 19021 net.cpp:408] ch4_pool5_ch4_pool5_0_split -> ch4_pool5_ch4_pool5_0_split_1
I0913 10:59:50.217281 19021 net.cpp:150] Setting up ch4_pool5_ch4_pool5_0_split
I0913 10:59:50.217288 19021 net.cpp:157] Top shape: 2 1 24 24 (1152)
I0913 10:59:50.217293 19021 net.cpp:157] Top shape: 2 1 24 24 (1152)
I0913 10:59:50.217296 19021 net.cpp:165] Memory required for data: 3140829008
I0913 10:59:50.217299 19021 layer_factory.hpp:77] Creating layer pool5_concat
I0913 10:59:50.217303 19021 net.cpp:100] Creating Layer pool5_concat
I0913 10:59:50.217306 19021 net.cpp:434] pool5_concat <- pool5
I0913 10:59:50.217311 19021 net.cpp:434] pool5_concat <- ch4_pool5_ch4_pool5_0_split_0
I0913 10:59:50.217316 19021 net.cpp:408] pool5_concat -> pool5_new
I0913 10:59:50.217337 19021 net.cpp:150] Setting up pool5_concat
I0913 10:59:50.217344 19021 net.cpp:157] Top shape: 2 513 24 24 (590976)
I0913 10:59:50.217346 19021 net.cpp:165] Memory required for data: 3143192912
I0913 10:59:50.217350 19021 layer_factory.hpp:77] Creating layer conv6_1_new
I0913 10:59:50.217358 19021 net.cpp:100] Creating Layer conv6_1_new
I0913 10:59:50.217361 19021 net.cpp:434] conv6_1_new <- pool5_new
I0913 10:59:50.217366 19021 net.cpp:408] conv6_1_new -> conv6_1
I0913 10:59:50.279064 19021 net.cpp:150] Setting up conv6_1_new
I0913 10:59:50.279109 19021 net.cpp:157] Top shape: 2 512 24 24 (589824)
I0913 10:59:50.279114 19021 net.cpp:165] Memory required for data: 3145552208
I0913 10:59:50.279125 19021 layer_factory.hpp:77] Creating layer relu6_1
I0913 10:59:50.279145 19021 net.cpp:100] Creating Layer relu6_1
I0913 10:59:50.279155 19021 net.cpp:434] relu6_1 <- conv6_1
I0913 10:59:50.279161 19021 net.cpp:395] relu6_1 -> conv6_1 (in-place)
I0913 10:59:50.279803 19021 net.cpp:150] Setting up relu6_1
I0913 10:59:50.279817 19021 net.cpp:157] Top shape: 2 512 24 24 (589824)
I0913 10:59:50.279820 19021 net.cpp:165] Memory required for data: 3147911504
I0913 10:59:50.279824 19021 layer_factory.hpp:77] Creating layer conv6_1_relu6_1_0_split
I0913 10:59:50.279835 19021 net.cpp:100] Creating Layer conv6_1_relu6_1_0_split
I0913 10:59:50.279839 19021 net.cpp:434] conv6_1_relu6_1_0_split <- conv6_1
I0913 10:59:50.279844 19021 net.cpp:408] conv6_1_relu6_1_0_split -> conv6_1_relu6_1_0_split_0
I0913 10:59:50.279852 19021 net.cpp:408] conv6_1_relu6_1_0_split -> conv6_1_relu6_1_0_split_1
I0913 10:59:50.279860 19021 net.cpp:408] conv6_1_relu6_1_0_split -> conv6_1_relu6_1_0_split_2
I0913 10:59:50.279923 19021 net.cpp:150] Setting up conv6_1_relu6_1_0_split
I0913 10:59:50.279929 19021 net.cpp:157] Top shape: 2 512 24 24 (589824)
I0913 10:59:50.279934 19021 net.cpp:157] Top shape: 2 512 24 24 (589824)
I0913 10:59:50.279938 19021 net.cpp:157] Top shape: 2 512 24 24 (589824)
I0913 10:59:50.279942 19021 net.cpp:165] Memory required for data: 3154989392
I0913 10:59:50.279944 19021 layer_factory.hpp:77] Creating layer LFCN_3_5x5
I0913 10:59:50.279959 19021 net.cpp:100] Creating Layer LFCN_3_5x5
I0913 10:59:50.279963 19021 net.cpp:434] LFCN_3_5x5 <- conv6_1_relu6_1_0_split_0
I0913 10:59:50.279971 19021 net.cpp:408] LFCN_3_5x5 -> LFCN_3_5x5
I0913 10:59:50.285454 19021 net.cpp:150] Setting up LFCN_3_5x5
I0913 10:59:50.285502 19021 net.cpp:157] Top shape: 2 9 24 24 (10368)
I0913 10:59:50.285507 19021 net.cpp:165] Memory required for data: 3155030864
I0913 10:59:50.285522 19021 layer_factory.hpp:77] Creating layer LFCN_3_5x5_LFCN_3_5x5_0_split
I0913 10:59:50.285542 19021 net.cpp:100] Creating Layer LFCN_3_5x5_LFCN_3_5x5_0_split
I0913 10:59:50.285552 19021 net.cpp:434] LFCN_3_5x5_LFCN_3_5x5_0_split <- LFCN_3_5x5
I0913 10:59:50.285559 19021 net.cpp:408] LFCN_3_5x5_LFCN_3_5x5_0_split -> LFCN_3_5x5_LFCN_3_5x5_0_split_0
I0913 10:59:50.285571 19021 net.cpp:408] LFCN_3_5x5_LFCN_3_5x5_0_split -> LFCN_3_5x5_LFCN_3_5x5_0_split_1
I0913 10:59:50.285619 19021 net.cpp:150] Setting up LFCN_3_5x5_LFCN_3_5x5_0_split
I0913 10:59:50.285625 19021 net.cpp:157] Top shape: 2 9 24 24 (10368)
I0913 10:59:50.285629 19021 net.cpp:157] Top shape: 2 9 24 24 (10368)
I0913 10:59:50.285632 19021 net.cpp:165] Memory required for data: 3155113808
I0913 10:59:50.285636 19021 layer_factory.hpp:77] Creating layer detection_loss_3_5x5
I0913 10:59:50.285647 19021 net.cpp:100] Creating Layer detection_loss_3_5x5
I0913 10:59:50.285651 19021 net.cpp:434] detection_loss_3_5x5 <- LFCN_3_5x5_LFCN_3_5x5_0_split_0
I0913 10:59:50.285657 19021 net.cpp:434] detection_loss_3_5x5 <- label_3_5x5_data_5_split_0
I0913 10:59:50.285665 19021 net.cpp:408] detection_loss_3_5x5 -> loss_3_5x5
I0913 10:59:50.285676 19021 layer_factory.hpp:77] Creating layer detection_loss_3_5x5
I0913 10:59:50.286052 19021 net.cpp:150] Setting up detection_loss_3_5x5
I0913 10:59:50.286063 19021 net.cpp:157] Top shape: 1 1 1 2 (2)
I0913 10:59:50.286067 19021 net.cpp:160]     with loss weight 1
I0913 10:59:50.286082 19021 net.cpp:165] Memory required for data: 3155113816
I0913 10:59:50.286087 19021 layer_factory.hpp:77] Creating layer detection_accuracy_3_5x5
I0913 10:59:50.286096 19021 net.cpp:100] Creating Layer detection_accuracy_3_5x5
I0913 10:59:50.286100 19021 net.cpp:434] detection_accuracy_3_5x5 <- LFCN_3_5x5_LFCN_3_5x5_0_split_1
I0913 10:59:50.286104 19021 net.cpp:434] detection_accuracy_3_5x5 <- label_3_5x5_data_5_split_1
I0913 10:59:50.286111 19021 net.cpp:408] detection_accuracy_3_5x5 -> accuracy_3_5x5
I0913 10:59:50.286119 19021 net.cpp:408] detection_accuracy_3_5x5 -> boxiou_3_5x5
I0913 10:59:50.286164 19021 net.cpp:150] Setting up detection_accuracy_3_5x5
I0913 10:59:50.286171 19021 net.cpp:157] Top shape: 1 1 1 2 (2)
I0913 10:59:50.286175 19021 net.cpp:157] Top shape: 1 1 1 1 (1)
I0913 10:59:50.286178 19021 net.cpp:165] Memory required for data: 3155113828
I0913 10:59:50.286181 19021 layer_factory.hpp:77] Creating layer LFCN_3_7x7
I0913 10:59:50.286195 19021 net.cpp:100] Creating Layer LFCN_3_7x7
I0913 10:59:50.286200 19021 net.cpp:434] LFCN_3_7x7 <- conv6_1_relu6_1_0_split_1
I0913 10:59:50.286206 19021 net.cpp:408] LFCN_3_7x7 -> LFCN_3_7x7
I0913 10:59:50.296653 19021 net.cpp:150] Setting up LFCN_3_7x7
I0913 10:59:50.296695 19021 net.cpp:157] Top shape: 2 9 24 24 (10368)
I0913 10:59:50.296700 19021 net.cpp:165] Memory required for data: 3155155300
I0913 10:59:50.296713 19021 layer_factory.hpp:77] Creating layer LFCN_3_7x7_LFCN_3_7x7_0_split
I0913 10:59:50.296730 19021 net.cpp:100] Creating Layer LFCN_3_7x7_LFCN_3_7x7_0_split
I0913 10:59:50.296737 19021 net.cpp:434] LFCN_3_7x7_LFCN_3_7x7_0_split <- LFCN_3_7x7
I0913 10:59:50.296746 19021 net.cpp:408] LFCN_3_7x7_LFCN_3_7x7_0_split -> LFCN_3_7x7_LFCN_3_7x7_0_split_0
I0913 10:59:50.296758 19021 net.cpp:408] LFCN_3_7x7_LFCN_3_7x7_0_split -> LFCN_3_7x7_LFCN_3_7x7_0_split_1
I0913 10:59:50.296802 19021 net.cpp:150] Setting up LFCN_3_7x7_LFCN_3_7x7_0_split
I0913 10:59:50.296808 19021 net.cpp:157] Top shape: 2 9 24 24 (10368)
I0913 10:59:50.296811 19021 net.cpp:157] Top shape: 2 9 24 24 (10368)
I0913 10:59:50.296814 19021 net.cpp:165] Memory required for data: 3155238244
I0913 10:59:50.296818 19021 layer_factory.hpp:77] Creating layer detection_loss_3_7x7
I0913 10:59:50.296829 19021 net.cpp:100] Creating Layer detection_loss_3_7x7
I0913 10:59:50.296833 19021 net.cpp:434] detection_loss_3_7x7 <- LFCN_3_7x7_LFCN_3_7x7_0_split_0
I0913 10:59:50.296839 19021 net.cpp:434] detection_loss_3_7x7 <- label_3_7x7_data_6_split_0
I0913 10:59:50.296849 19021 net.cpp:408] detection_loss_3_7x7 -> loss_3_7x7
I0913 10:59:50.296859 19021 layer_factory.hpp:77] Creating layer detection_loss_3_7x7
I0913 10:59:50.297222 19021 net.cpp:150] Setting up detection_loss_3_7x7
I0913 10:59:50.297232 19021 net.cpp:157] Top shape: 1 1 1 2 (2)
I0913 10:59:50.297235 19021 net.cpp:160]     with loss weight 1
I0913 10:59:50.297253 19021 net.cpp:165] Memory required for data: 3155238252
I0913 10:59:50.297257 19021 layer_factory.hpp:77] Creating layer detection_accuracy_3_7x7
I0913 10:59:50.297266 19021 net.cpp:100] Creating Layer detection_accuracy_3_7x7
I0913 10:59:50.297269 19021 net.cpp:434] detection_accuracy_3_7x7 <- LFCN_3_7x7_LFCN_3_7x7_0_split_1
I0913 10:59:50.297273 19021 net.cpp:434] detection_accuracy_3_7x7 <- label_3_7x7_data_6_split_1
I0913 10:59:50.297281 19021 net.cpp:408] detection_accuracy_3_7x7 -> accuracy_3_7x7
I0913 10:59:50.297289 19021 net.cpp:408] detection_accuracy_3_7x7 -> boxiou_3_7x7
I0913 10:59:50.297353 19021 net.cpp:150] Setting up detection_accuracy_3_7x7
I0913 10:59:50.297359 19021 net.cpp:157] Top shape: 1 1 1 2 (2)
I0913 10:59:50.297363 19021 net.cpp:157] Top shape: 1 1 1 1 (1)
I0913 10:59:50.297368 19021 net.cpp:165] Memory required for data: 3155238264
I0913 10:59:50.297370 19021 layer_factory.hpp:77] Creating layer pool6
I0913 10:59:50.297377 19021 net.cpp:100] Creating Layer pool6
I0913 10:59:50.297382 19021 net.cpp:434] pool6 <- conv6_1_relu6_1_0_split_2
I0913 10:59:50.297387 19021 net.cpp:408] pool6 -> pool6
I0913 10:59:50.297427 19021 net.cpp:150] Setting up pool6
I0913 10:59:50.297433 19021 net.cpp:157] Top shape: 2 512 12 12 (147456)
I0913 10:59:50.297437 19021 net.cpp:165] Memory required for data: 3155828088
I0913 10:59:50.297441 19021 layer_factory.hpp:77] Creating layer ch4_pool6
I0913 10:59:50.297446 19021 net.cpp:100] Creating Layer ch4_pool6
I0913 10:59:50.297451 19021 net.cpp:434] ch4_pool6 <- ch4_pool5_ch4_pool5_0_split_1
I0913 10:59:50.297456 19021 net.cpp:408] ch4_pool6 -> ch4_pool6
I0913 10:59:50.297490 19021 net.cpp:150] Setting up ch4_pool6
I0913 10:59:50.297497 19021 net.cpp:157] Top shape: 2 1 12 12 (288)
I0913 10:59:50.297499 19021 net.cpp:165] Memory required for data: 3155829240
I0913 10:59:50.297502 19021 layer_factory.hpp:77] Creating layer pool6_concat
I0913 10:59:50.297510 19021 net.cpp:100] Creating Layer pool6_concat
I0913 10:59:50.297514 19021 net.cpp:434] pool6_concat <- pool6
I0913 10:59:50.297518 19021 net.cpp:434] pool6_concat <- ch4_pool6
I0913 10:59:50.297523 19021 net.cpp:408] pool6_concat -> pool6_new
I0913 10:59:50.297545 19021 net.cpp:150] Setting up pool6_concat
I0913 10:59:50.297550 19021 net.cpp:157] Top shape: 2 513 12 12 (147744)
I0913 10:59:50.297554 19021 net.cpp:165] Memory required for data: 3156420216
I0913 10:59:50.297556 19021 layer_factory.hpp:77] Creating layer LFCN_4_5x5_new
I0913 10:59:50.297570 19021 net.cpp:100] Creating Layer LFCN_4_5x5_new
I0913 10:59:50.297574 19021 net.cpp:434] LFCN_4_5x5_new <- pool6_new
I0913 10:59:50.297580 19021 net.cpp:408] LFCN_4_5x5_new -> LFCN_4_5x5
I0913 10:59:50.303017 19021 net.cpp:150] Setting up LFCN_4_5x5_new
I0913 10:59:50.303071 19021 net.cpp:157] Top shape: 2 9 12 12 (2592)
I0913 10:59:50.303078 19021 net.cpp:165] Memory required for data: 3156430584
I0913 10:59:50.303097 19021 layer_factory.hpp:77] Creating layer LFCN_4_5x5_LFCN_4_5x5_new_0_split
I0913 10:59:50.303117 19021 net.cpp:100] Creating Layer LFCN_4_5x5_LFCN_4_5x5_new_0_split
I0913 10:59:50.303124 19021 net.cpp:434] LFCN_4_5x5_LFCN_4_5x5_new_0_split <- LFCN_4_5x5
I0913 10:59:50.303135 19021 net.cpp:408] LFCN_4_5x5_LFCN_4_5x5_new_0_split -> LFCN_4_5x5_LFCN_4_5x5_new_0_split_0
I0913 10:59:50.303148 19021 net.cpp:408] LFCN_4_5x5_LFCN_4_5x5_new_0_split -> LFCN_4_5x5_LFCN_4_5x5_new_0_split_1
I0913 10:59:50.303213 19021 net.cpp:150] Setting up LFCN_4_5x5_LFCN_4_5x5_new_0_split
I0913 10:59:50.303220 19021 net.cpp:157] Top shape: 2 9 12 12 (2592)
I0913 10:59:50.303225 19021 net.cpp:157] Top shape: 2 9 12 12 (2592)
I0913 10:59:50.303227 19021 net.cpp:165] Memory required for data: 3156451320
I0913 10:59:50.303231 19021 layer_factory.hpp:77] Creating layer detection_loss_4_5x5
I0913 10:59:50.303241 19021 net.cpp:100] Creating Layer detection_loss_4_5x5
I0913 10:59:50.303243 19021 net.cpp:434] detection_loss_4_5x5 <- LFCN_4_5x5_LFCN_4_5x5_new_0_split_0
I0913 10:59:50.303251 19021 net.cpp:434] detection_loss_4_5x5 <- label_4_5x5_data_7_split_0
I0913 10:59:50.303258 19021 net.cpp:408] detection_loss_4_5x5 -> loss_4_5x5
I0913 10:59:50.303268 19021 layer_factory.hpp:77] Creating layer detection_loss_4_5x5
I0913 10:59:50.303680 19021 net.cpp:150] Setting up detection_loss_4_5x5
I0913 10:59:50.303692 19021 net.cpp:157] Top shape: 1 1 1 2 (2)
I0913 10:59:50.303695 19021 net.cpp:160]     with loss weight 1
I0913 10:59:50.303715 19021 net.cpp:165] Memory required for data: 3156451328
I0913 10:59:50.303719 19021 layer_factory.hpp:77] Creating layer detection_accuracy_4_5x5
I0913 10:59:50.303728 19021 net.cpp:100] Creating Layer detection_accuracy_4_5x5
I0913 10:59:50.303731 19021 net.cpp:434] detection_accuracy_4_5x5 <- LFCN_4_5x5_LFCN_4_5x5_new_0_split_1
I0913 10:59:50.303736 19021 net.cpp:434] detection_accuracy_4_5x5 <- label_4_5x5_data_7_split_1
I0913 10:59:50.303745 19021 net.cpp:408] detection_accuracy_4_5x5 -> accuracy_4_5x5
I0913 10:59:50.303751 19021 net.cpp:408] detection_accuracy_4_5x5 -> boxiou_4_5x5
I0913 10:59:50.303799 19021 net.cpp:150] Setting up detection_accuracy_4_5x5
I0913 10:59:50.303805 19021 net.cpp:157] Top shape: 1 1 1 2 (2)
I0913 10:59:50.303809 19021 net.cpp:157] Top shape: 1 1 1 1 (1)
I0913 10:59:50.303812 19021 net.cpp:165] Memory required for data: 3156451340
I0913 10:59:50.303815 19021 net.cpp:228] detection_accuracy_4_5x5 does not need backward computation.
I0913 10:59:50.303819 19021 net.cpp:226] detection_loss_4_5x5 needs backward computation.
I0913 10:59:50.303823 19021 net.cpp:226] LFCN_4_5x5_LFCN_4_5x5_new_0_split needs backward computation.
I0913 10:59:50.303827 19021 net.cpp:226] LFCN_4_5x5_new needs backward computation.
…
