…
    downsample_rate: 32
    downsample_rate: 32
    downsample_rate: 64
    coord_num: 4
    field_h: 60
    field_h: 84
    field_h: 120
    field_h: 168
    field_h: 240
    field_h: 336
    field_h: 480
    field_w: 60
    field_w: 84
    field_w: 120
    field_w: 168
    field_w: 240
    field_w: 336
    field_w: 480
    fg_threshold: 0.5
    resize_width: 1344
    resize_height: 768
    crop_width: 768
    crop_height: 768
    do_multiple_scale: true
    min_scale: 60
    max_scale: 480
    min_gt_height: 25
    shuffle: true
    output_gt_boxes: true
  }
}
layer {
  name: "slice"
  type: "Slice"
  bottom: "data"
  top: "data123"
  top: "ch4"
  slice_param {
    slice_point: 3
    axis: 1
  }
}
layer {
  name: "conv1_1"
  type: "Convolution"
  bottom: "data123"
  top: "conv1_1"
  param {
    lr_mult: 0
    decay_mult: 0
  }
  param {
    lr_mult: 0
    decay_mult: 0
  }
  convolution_param {
    num_output: 64
    pad: 1
    kernel_size: 3
  }
}
layer {
  name: "relu1_1"
  type: "ReLU"
  bottom: "conv1_1"
  top: "conv1_1"
}
layer {
  name: "conv1_2"
  type: "Convolution"
  bottom: "conv1_1"
  top: "conv1_2"
  param {
    lr_mult: 0
    decay_mult: 0
  }
  param {
    lr_mult: 0
    decay_mult: 0
  }
  convolution_param {
    num_output: 64
    pad: 1
    kernel_size: 3
  }
}
layer {
  name: "relu1_2"
  type: "ReLU"
  bottom: "conv1_2"
  top: "conv1_2"
}
layer {
  name: "pool1"
  type: "Pooling"
  bottom: "conv1_2"
  top: "pool1"
  pooling_param {
    pool: MAX
    kernel_size: 2
    stride: 2
  }
}
layer {
  name: "ch4_pool1"
  type: "Pooling"
  bottom: "ch4"
  top: "ch4_pool1"
  pooling_param {
    pool: MAX
    kernel_size: 2
    stride: 2
  }
}
layer {
  name: "pool1_concat"
  type: "Concat"
  bottom: "pool1"
  bottom: "ch4_pool1"
  top: "pool1_new"
}
layer {
  name: "conv2_1_new"
  type: "Convolution"
  bottom: "pool1_new"
  top: "conv2_1"
  param {
    lr_mult: 0
    decay_mult: 0
  }
  param {
    lr_mult: 0
    decay_mult: 0
  }
  convolution_param {
    num_output: 128
    pad: 1
    kernel_size: 3
  }
}
layer {
  name: "relu2_1"
  type: "ReLU"
  bottom: "conv2_1"
  top: "conv2_1"
}
layer {
  name: "conv2_2"
  type: "Convolution"
  bottom: "conv2_1"
  top: "conv2_2"
  param {
    lr_mult: 0
    decay_mult: 0
  }
  param {
    lr_mult: 0
    decay_mult: 0
  }
  convolution_param {
    num_output: 128
    pad: 1
    kernel_size: 3
  }
}
layer {
  name: "relu2_2"
  type: "ReLU"
  bottom: "conv2_2"
  top: "conv2_2"
}
layer {
  name: "pool2"
  type: "Pooling"
  bottom: "conv2_2"
  top: "pool2"
  pooling_param {
    pool: MAX
    kernel_size: 2
    stride: 2
  }
}
layer {
  name: "ch4_pool2"
  type: "Pooling"
  bottom: "ch4_pool1"
  top: "ch4_pool2"
  pooling_param {
    pool: MAX
    kernel_size: 2
    stride: 2
  }
}
layer {
  name: "pool2_concat"
  type: "Concat"
  bottom: "pool2"
  bottom: "ch4_pool2"
  top: "pool2_new"
}
layer {
  name: "conv3_1_new"
  type: "Convolution"
  bottom: "pool2_new"
  top: "conv3_1"
  convolution_param {
    num_output: 256
    pad: 1
    kernel_size: 3
  }
}
layer {
  name: "relu3_1"
  type: "ReLU"
  bottom: "conv3_1"
  top: "conv3_1"
}
layer {
  name: "conv3_2"
  type: "Convolution"
  bottom: "conv3_1"
  top: "conv3_2"
  convolution_param {
    num_output: 256
    pad: 1
    kernel_size: 3
  }
}
layer {
  name: "relu3_2"
  type: "ReLU"
  bottom: "conv3_2"
  top: "conv3_2"
}
layer {
  name: "conv3_3"
  type: "Convolution"
  bottom: "conv3_2"
  top: "conv3_3"
  convolution_param {
    num_output: 256
    pad: 1
    kernel_size: 3
  }
}
layer {
  name: "relu3_3"
  type: "ReLU"
  bottom: "conv3_3"
  top: "conv3_3"
}
layer {
  name: "pool3"
  type: "Pooling"
  bottom: "conv3_3"
  top: "pool3"
  pooling_param {
    pool: MAX
    kernel_size: 2
    stride: 2
  }
}
layer {
  name: "ch4_pool3"
  type: "Pooling"
  bottom: "ch4_pool2"
  top: "ch4_pool3"
  pooling_param {
    pool: MAX
    kernel_size: 2
    stride: 2
  }
}
layer {
  name: "pool3_concat"
  type: "Concat"
  bottom: "pool3"
  bottom: "ch4_pool3"
  top: "pool3_new"
}
layer {
  name: "conv4_1_new"
  type: "Convolution"
  bottom: "pool3_new"
  top: "conv4_1"
  convolution_param {
    num_output: 512
    pad: 1
    kernel_size: 3
  }
}
layer {
  name: "relu4_1"
  type: "ReLU"
  bottom: "conv4_1"
  top: "conv4_1"
}
layer {
  name: "conv4_2"
  type: "Convolution"
  bottom: "conv4_1"
  top: "conv4_2"
  convolution_param {
    num_output: 512
    pad: 1
    kernel_size: 3
  }
}
layer {
  name: "relu4_2"
  type: "ReLU"
  bottom: "conv4_2"
  top: "conv4_2"
}
layer {
  name: "conv4_3"
  type: "Convolution"
  bottom: "conv4_2"
  top: "conv4_3"
  convolution_param {
    num_output: 512
    pad: 1
    kernel_size: 3
  }
}
layer {
  name: "relu4_3"
  type: "ReLU"
  bottom: "conv4_3"
  top: "conv4_3"
}
layer {
  name: "loss1_conv1"
  type: "Convolution"
  bottom: "conv4_3"
  top: "loss1_conv1"
  param {
    lr_mult: 1
    decay_mult: 1
  }
  param {
    lr_mult: 2
    decay_mult: 0
  }
  convolution_param {
    num_output: 512
    pad: 1
    kernel_size: 3
    weight_filler {
      type: "gaussian"
      std: 0.01
    }
    bias_filler {
      type: "constant"
    }
  }
}
layer {
  name: "loss_relu1"
  type: "ReLU"
  bottom: "loss1_conv1"
  top: "loss1_conv1"
}
layer {
  name: "LFCN_1_5x5"
  type: "Convolution"
  bottom: "loss1_conv1"
  top: "LFCN_1_5x5"
  param {
    lr_mult: 1
    decay_mult: 1
  }
  param {
    lr_mult: 2
    decay_mult: 0
  }
  convolution_param {
    num_output: 9
    pad: 2
    kernel_size: 5
    weight_filler {
      type: "gaussian"
      std: 0.001
    }
    bias_filler {
      type: "constant"
    }
  }
}
layer {
  name: "detection_loss_1_5x5"
  type: "DetectionLoss"
  bottom: "LFCN_1_5x5"
  bottom: "label_1_5x5"
  top: "loss_1_5x5"
  loss_weight: 0.9
  detection_loss_param {
    cls_num: 5
    coord_num: 4
    lambda: 1
    field_h: 60
    field_w: 60
    downsample_rate: 8
    bb_smooth: true
    field_whr: 2
    field_xyr: 2
    bg_threshold: 0.2
    bg_multiple: 2
    sample_mode: "bootstrap"
    pos_neg_weighted: true
  }
}
layer {
  name: "detection_accuracy_1_5x5"
  type: "DetectionAccuracy"
  bottom: "LFCN_1_5x5"
  bottom: "label_1_5x5"
  top: "accuracy_1_5x5"
  top: "boxiou_1_5x5"
  detection_accuracy_param {
    cls_num: 5
    coord_num: 4
    field_h: 60
    field_w: 60
    downsample_rate: 8
    field_whr: 2
    field_xyr: 2
  }
}
layer {
  name: "LFCN_1_7x7"
  type: "Convolution"
  bottom: "loss1_conv1"
  top: "LFCN_1_7x7"
  param {
    lr_mult: 1
    decay_mult: 1
  }
  param {
    lr_mult: 2
    decay_mult: 0
  }
  convolution_param {
    num_output: 9
    pad: 3
    kernel_size: 7
    weight_filler {
      type: "gaussian"
      std: 0.001
    }
    bias_filler {
      type: "constant"
    }
  }
}
layer {
  name: "detection_loss_1_7x7"
  type: "DetectionLoss"
  bottom: "LFCN_1_7x7"
  bottom: "label_1_7x7"
  top: "loss_1_7x7"
  loss_weight: 0.9
  detection_loss_param {
    cls_num: 5
    coord_num: 4
    lambda: 1
    field_h: 84
    field_w: 84
    downsample_rate: 8
    bb_smooth: true
    field_whr: 2
    field_xyr: 2
    bg_threshold: 0.2
    bg_multiple: 2
    sample_mode: "bootstrap"
    pos_neg_weighted: true
  }
}
layer {
  name: "detection_accuracy_1_7x7"
  type: "DetectionAccuracy"
  bottom: "LFCN_1_7x7"
  bottom: "label_1_7x7"
  top: "accuracy_1_7x7"
  top: "boxiou_1_7x7"
  detection_accuracy_param {
    cls_num: 5
    coord_num: 4
    field_h: 84
    field_w: 84
    downsample_rate: 8
    field_whr: 2
    field_xyr: 2
  }
}
layer {
  name: "pool4"
  type: "Pooling"
  bottom: "conv4_3"
  top: "pool4"
  pooling_param {
    pool: MAX
    kernel_size: 2
    stride: 2
  }
}
layer {
  name: "ch4_pool4"
  type: "Pooling"
  bottom: "ch4_pool3"
  top: "ch4_pool4"
  pooling_param {
    pool: MAX
    kernel_size: 2
    stride: 2
  }
}
layer {
  name: "pool4_concat"
  type: "Concat"
  bottom: "pool4"
  bottom: "ch4_pool4"
  top: "pool4_new"
}
layer {
  name: "conv5_1_new"
  type: "Convolution"
  bottom: "pool4_new"
  top: "conv5_1"
  convolution_param {
    num_output: 512
    pad: 1
    kernel_size: 3
  }
}
layer {
  name: "relu5_1"
  type: "ReLU"
  bottom: "conv5_1"
  top: "conv5_1"
}
layer {
  name: "conv5_2"
  type: "Convolution"
  bottom: "conv5_1"
  top: "conv5_2"
  convolution_param {
    num_output: 512
    pad: 1
    kernel_size: 3
  }
}
layer {
  name: "relu5_2"
  type: "ReLU"
  bottom: "conv5_2"
  top: "conv5_2"
}
layer {
  name: "conv5_3"
  type: "Convolution"
  bottom: "conv5_2"
  top: "conv5_3"
  convolution_param {
    num_output: 512
    pad: 1
    kernel_size: 3
  }
}
layer {
  name: "relu5_3"
  type: "ReLU"
  bottom: "conv5_3"
  top: "conv5_3"
}
layer {
  name: "LFCN_2_5x5"
  type: "Convolution"
  bottom: "conv5_3"
  top: "LFCN_2_5x5"
  param {
    lr_mult: 1
    decay_mult: 1
  }
  param {
    lr_mult: 2
    decay_mult: 0
  }
  convolution_param {
    num_output: 9
    pad: 2
    kernel_size: 5
    weight_filler {
      type: "gaussian"
      std: 0.001
    }
    bias_filler {
      type: "constant"
    }
  }
}
layer {
  name: "detection_loss_2_5x5"
  type: "DetectionLoss"
  bottom: "LFCN_2_5x5"
  bottom: "label_2_5x5"
  top: "loss_2_5x5"
  detection_loss_param {
    cls_num: 5
    coord_num: 4
    lambda: 1
    field_h: 120
    field_w: 120
    downsample_rate: 16
    bb_smooth: true
    field_whr: 2
    field_xyr: 2
    bg_threshold: 0.2
    bg_multiple: 2
    sample_mode: "bootstrap"
    pos_neg_weighted: true
  }
}
layer {
  name: "detection_accuracy_2_5x5"
  type: "DetectionAccuracy"
  bottom: "LFCN_2_5x5"
  bottom: "label_2_5x5"
  top: "accuracy_2_5x5"
  top: "boxiou_2_5x5"
  detection_accuracy_param {
    cls_num: 5
    coord_num: 4
    field_h: 120
    field_w: 120
    downsample_rate: 16
    field_whr: 2
    field_xyr: 2
  }
}
layer {
  name: "LFCN_2_7x7"
  type: "Convolution"
  bottom: "conv5_3"
  top: "LFCN_2_7x7"
  param {
    lr_mult: 1
    decay_mult: 1
  }
  param {
    lr_mult: 2
    decay_mult: 0
  }
  convolution_param {
    num_output: 9
    pad: 3
    kernel_size: 7
    weight_filler {
      type: "gaussian"
      std: 0.001
    }
    bias_filler {
      type: "constant"
    }
  }
}
layer {
  name: "detection_loss_2_7x7"
  type: "DetectionLoss"
  bottom: "LFCN_2_7x7"
  bottom: "label_2_7x7"
  top: "loss_2_7x7"
  detection_loss_param {
    cls_num: 5
    coord_num: 4
    lambda: 1
    field_h: 168
    field_w: 168
    downsample_rate: 16
    bb_smooth: true
    field_whr: 2
    field_xyr: 2
    bg_threshold: 0.2
    bg_multiple: 2
    sample_mode: "bootstrap"
    pos_neg_weighted: true
  }
}
layer {
  name: "detection_accuracy_2_7x7"
  type: "DetectionAccuracy"
  bottom: "LFCN_2_7x7"
  bottom: "label_2_7x7"
  top: "accuracy_2_7x7"
  top: "boxiou_2_7x7"
  detection_accuracy_param {
    cls_num: 5
    coord_num: 4
    field_h: 168
    field_w: 168
    downsample_rate: 16
    field_whr: 2
    field_xyr: 2
  }
}
layer {
  name: "pool5"
  type: "Pooling"
  bottom: "conv5_3"
  top: "pool5"
  pooling_param {
    pool: MAX
    kernel_size: 2
    stride: 2
  }
}
layer {
  name: "ch4_pool5"
  type: "Pooling"
  bottom: "ch4_pool4"
  top: "ch4_pool5"
  pooling_param {
    pool: MAX
    kernel_size: 2
    stride: 2
  }
}
layer {
  name: "pool5_concat"
  type: "Concat"
  bottom: "pool5"
  bottom: "ch4_pool5"
  top: "pool5_new"
}
layer {
  name: "conv6_1_new"
  type: "Convolution"
  bottom: "pool5_new"
  top: "conv6_1"
  param {
    lr_mult: 1
    decay_mult: 1
  }
  param {
    lr_mult: 2
    decay_mult: 0
  }
  convolution_param {
    num_output: 512
    pad: 1
    kernel_size: 3
    weight_filler {
      type: "gaussian"
      std: 0.01
    }
    bias_filler {
      type: "constant"
    }
  }
}
layer {
  name: "relu6_1"
  type: "ReLU"
  bottom: "conv6_1"
  top: "conv6_1"
}
layer {
  name: "LFCN_3_5x5"
  type: "Convolution"
  bottom: "conv6_1"
  top: "LFCN_3_5x5"
  param {
    lr_mult: 1
    decay_mult: 1
  }
  param {
    lr_mult: 2
    decay_mult: 0
  }
  convolution_param {
    num_output: 9
    pad: 2
    kernel_size: 5
    weight_filler {
      type: "gaussian"
      std: 0.001
    }
    bias_filler {
      type: "constant"
    }
  }
}
layer {
  name: "detection_loss_3_5x5"
  type: "DetectionLoss"
  bottom: "LFCN_3_5x5"
  bottom: "label_3_5x5"
  top: "loss_3_5x5"
  detection_loss_param {
    cls_num: 5
    coord_num: 4
    lambda: 1
    field_h: 240
    field_w: 240
    downsample_rate: 32
    bb_smooth: true
    field_whr: 2
    field_xyr: 2
    bg_threshold: 0.2
    bg_multiple: 2
    sample_mode: "bootstrap"
    pos_neg_weighted: true
  }
}
layer {
  name: "detection_accuracy_3_5x5"
  type: "DetectionAccuracy"
  bottom: "LFCN_3_5x5"
  bottom: "label_3_5x5"
  top: "accuracy_3_5x5"
  top: "boxiou_3_5x5"
  detection_accuracy_param {
    cls_num: 5
    coord_num: 4
    field_h: 240
    field_w: 240
    downsample_rate: 32
    field_whr: 2
    field_xyr: 2
  }
}
layer {
  name: "LFCN_3_7x7"
  type: "Convolution"
  bottom: "conv6_1"
  top: "LFCN_3_7x7"
  param {
    lr_mult: 1
    decay_mult: 1
  }
  param {
    lr_mult: 2
    decay_mult: 0
  }
  convolution_param {
    num_output: 9
    pad: 3
    kernel_size: 7
    weight_filler {
      type: "gaussian"
      std: 0.001
    }
    bias_filler {
      type: "constant"
    }
  }
}
layer {
  name: "detection_loss_3_7x7"
  type: "DetectionLoss"
  bottom: "LFCN_3_7x7"
  bottom: "label_3_7x7"
  top: "loss_3_7x7"
  detection_loss_param {
    cls_num: 5
    coord_num: 4
    lambda: 1
    field_h: 336
    field_w: 336
    downsample_rate: 32
    bb_smooth: true
    field_whr: 2
    field_xyr: 2
    bg_threshold: 0.2
    bg_multiple: 2
    sample_mode: "bootstrap"
    pos_neg_weighted: true
  }
}
layer {
  name: "detection_accuracy_3_7x7"
  type: "DetectionAccuracy"
  bottom: "LFCN_3_7x7"
  bottom: "label_3_7x7"
  top: "accuracy_3_7x7"
  top: "boxiou_3_7x7"
  detection_accuracy_param {
    cls_num: 5
    coord_num: 4
    field_h: 336
    field_w: 336
    downsample_rate: 32
    field_whr: 2
    field_xyr: 2
  }
}
layer {
  name: "pool6"
  type: "Pooling"
  bottom: "conv6_1"
  top: "pool6"
  pooling_param {
    pool: MAX
    kernel_size: 2
    stride: 2
  }
}
layer {
  name: "ch4_pool6"
  type: "Pooling"
  bottom: "ch4_pool5"
  top: "ch4_pool6"
  pooling_param {
    pool: MAX
    kernel_size: 2
    stride: 2
  }
}
layer {
  name: "pool6_concat"
  type: "Concat"
  bottom: "pool6"
  bottom: "ch4_pool6"
  top: "pool6_new"
}
layer {
  name: "LFCN_4_5x5_new"
  type: "Convolution"
  bottom: "pool6_new"
  top: "LFCN_4_5x5"
  param {
    lr_mult: 1
    decay_mult: 1
  }
  param {
    lr_mult: 2
    decay_mult: 0
  }
  convolution_param {
    num_output: 9
    pad: 2
    kernel_size: 5
  }
}
layer {
  name: "detection_loss_4_5x5"
  type: "DetectionLoss"
  bottom: "LFCN_4_5x5"
  bottom: "label_4_5x5"
  top: "loss_4_5x5"
  detection_loss_param {
    cls_num: 5
    coord_num: 4
    lambda: 1
    field_h: 480
    field_w: 480
    downsample_rate: 64
    bb_smooth: true
    field_whr: 2
    field_xyr: 2
    bg_threshold: 0.2
    bg_multiple: 2
    sample_mode: "bootstrap"
    pos_neg_weighted: true
  }
}
layer {
  name: "detection_accuracy_4_5x5"
  type: "DetectionAccuracy"
  bottom: "LFCN_4_5x5"
  bottom: "label_4_5x5"
  top: "accuracy_4_5x5"
  top: "boxiou_4_5x5"
  detection_accuracy_param {
    cls_num: 5
    coord_num: 4
    field_h: 480
    field_w: 480
    downsample_rate: 64
    field_whr: 2
    field_xyr: 2
  }
}
layer {
  name: "proposals"
  type: "BoxOutput"
  bottom: "LFCN_1_5x5"
  bottom: "LFCN_1_7x7"
  bottom: "LFCN_2_5x5"
  bottom: "LFCN_2_7x7"
  bottom: "LFCN_3_5x5"
  bottom: "LFCN_3_7x7"
  bottom: "LFCN_4_5x5"
  top: "proposals"
  propagate_down: false
  propagate_down: false
  propagate_down: false
  propagate_down: false
  propagate_down: false
  propagate_down: false
  propagate_down: false
  box_output_param {
    fg_thr: -8
    iou_thr: 0.65
    nms_type: "IOU"
    field_h: 60
    field_h: 84
    field_h: 120
    field_h: 168
    field_h: 240
    field_h: 336
    field_h: 480
    field_w: 60
    field_w: 84
    field_w: 120
    field_w: 168
    field_w: 240
    field_w: 336
    field_w: 480
    downsample_rate: 8
    downsample_rate: 8
    downsample_rate: 16
    downsample_rate: 16
    downsample_rate: 32
    downsample_rate: 32
    downsample_rate: 64
    field_whr: 2
    field_xyr: 2
    max_nms_num: 3000
  }
}
layer {
  name: "proposal_info"
  type: "ProposalTarget"
  bottom: "proposals"
  bottom: "gt_boxes"
  top: "rois"
  top: "proposal_labels"
  top: "proposal_targets"
  top: "box_inside_weights"
  top: "box_outside_weights"
  top: "match_gt_boxes"
  include {
    phase: TRAIN
  }
  propagate_down: false
  propagate_down: false
  proposal_target_param {
    cls_num: 5
    batch_size: 256
    fg_fraction: 0.25
    num_img_per_batch: 4
    fg_thr: 0.5
    bg_thr_hg: 0.49
    bg_thr_lw: 0.1
    img_width: 768
    img_height: 576
  }
  bbox_reg_param {
    bbox_mean: 0
    bbox_mean: 0
    bbox_mean: 0
    bbox_mean: 0
    bbox_std: 0.1
    bbox_std: 0.1
    bbox_std: 0.2
    bbox_std: 0.2
  }
}
layer {
  name: "conv4_3_2x"
  type: "Deconvolution"
  bottom: "conv4_3"
  top: "conv4_3_2x"
  param {
    lr_mult: 0
    decay_mult: 0
  }
  convolution_param {
    num_output: 512
    bias_term: false
    pad: 1
    kernel_size: 4
    group: 512
    stride: 2
    weight_filler {
      type: "bilinear"
    }
  }
}
layer {
  name: "roi_pool_org"
  type: "ROIPooling"
  bottom: "conv4_3_2x"
  bottom: "rois"
  top: "roi_pool_org"
  roi_pooling_param {
    pooled_h: 7
    pooled_w: 7
    spatial_scale: 0.25
    pad_ratio: 0
  }
}
layer {
  name: "roi_pool_ctx"
  type: "ROIPooling"
  bottom: "conv4_3_2x"
  bottom: "rois"
  top: "roi_pool_ctx"
  roi_pooling_param {
    pooled_h: 7
    pooled_w: 7
    spatial_scale: 0.25
    pad_ratio: 0.25
  }
}
layer {
  name: "roi_pool"
  type: "Concat"
  bottom: "roi_pool_org"
  bottom: "roi_pool_ctx"
  top: "roi_pool"
}
layer {
  name: "roi_c1"
  type: "Convolution"
  bottom: "roi_pool"
  top: "roi_c1"
  param {
    lr_mult: 1
    decay_mult: 1
  }
  param {
    lr_mult: 2
    decay_mult: 0
  }
  convolution_param {
    num_output: 512
    kernel_size: 3
    weight_filler {
      type: "gaussian"
      std: 0.01
    }
    bias_filler {
      type: "constant"
    }
  }
}
layer {
  name: "roi_c1_relu"
  type: "ReLU"
  bottom: "roi_c1"
  top: "roi_c1"
}
layer {
  name: "fc6"
  type: "InnerProduct"
  bottom: "roi_c1"
  top: "fc6"
  param {
    lr_mult: 1
  }
  param {
    lr_mult: 2
  }
  inner_product_param {
    num_output: 4096
    weight_filler {
      type: "gaussian"
      std: 0.001
    }
    bias_filler {
      type: "constant"
      value: 0
    }
  }
}
layer {
  name: "relu6"
  type: "ReLU"
  bottom: "fc6"
  top: "fc6"
}
layer {
  name: "drop6"
  type: "Dropout"
  bottom: "fc6"
  top: "fc6"
  dropout_param {
    dropout_ratio: 0.5
  }
}
layer {
  name: "cls_pred"
  type: "InnerProduct"
  bottom: "fc6"
  top: "cls_pred"
  param {
    lr_mult: 1
  }
  param {
    lr_mult: 2
  }
  inner_product_param {
    num_output: 5
    weight_filler {
      type: "gaussian"
      std: 0.01
    }
    bias_filler {
      type: "constant"
      value: 0
    }
  }
}
layer {
  name: "bbox_pred"
  type: "InnerProduct"
  bottom: "fc6"
  top: "bbox_pred"
  param {
    lr_mult: 1
  }
  param {
    lr_mult: 2
  }
  inner_product_param {
    num_output: 20
    weight_filler {
      type: "gaussian"
      std: 0.001
    }
    bias_filler {
      type: "constant"
      value: 0
    }
  }
}
layer {
  name: "loss_cls"
  type: "SoftmaxWithLoss"
  bottom: "cls_pred"
  bottom: "proposal_labels"
  top: "loss_cls"
  loss_weight: 1
  propagate_down: true
  propagate_down: false
}
layer {
  name: "cls_accuracy"
  type: "Accuracy"
  bottom: "cls_pred"
  bottom: "proposal_labels"
  top: "cls_accuracy"
}
layer {
  name: "loss_bbox"
  type: "SmoothL1Loss"
  bottom: "bbox_pred"
  bottom: "proposal_targets"
  bottom: "box_inside_weights"
  bottom: "box_outside_weights"
  top: "loss_bbox"
  loss_weight: 1
}
layer {
  name: "bbox_iou"
  type: "BboxAccuracy"
  bottom: "bbox_pred"
  bottom: "rois"
  bottom: "match_gt_boxes"
  top: "bbox_iou"
  top: "bbox_iou_pre"
  bbox_reg_param {
    bbox_mean: 0
    bbox_mean: 0
    bbox_mean: 0
    bbox_mean: 0
    bbox_std: 0.1
    bbox_std: 0.1
    bbox_std: 0.2
    bbox_std: 0.2
  }
}
I0913 19:48:35.058266  1241 layer_factory.hpp:77] Creating layer data
I0913 19:48:35.058307  1241 net.cpp:100] Creating Layer data
I0913 19:48:35.058315  1241 net.cpp:408] data -> data
…
I0913 19:48:35.081995  1241 image_gt_data_layer.cpp:235] output label size 2 : 3,6,48,48
I0913 19:48:35.082072  1241 image_gt_data_layer.cpp:235] output label size 3 : 3,6,48,48
I0913 19:48:35.082110  1241 image_gt_data_layer.cpp:235] output label size 4 : 3,6,24,24
I0913 19:48:35.082149  1241 image_gt_data_layer.cpp:235] output label size 5 : 3,6,24,24
I0913 19:48:35.082211  1241 image_gt_data_layer.cpp:235] output label size 6 : 3,6,12,12
I0913 19:48:35.082257  1241 image_gt_data_layer.cpp:250] output gt boxes size: 1,7,1,1
I0913 19:48:35.148147  1241 net.cpp:150] Setting up data
I0913 19:48:35.148190  1241 net.cpp:157] Top shape: 3 4 768 768 (7077888)
I0913 19:48:35.148200  1241 net.cpp:157] Top shape: 3 6 96 96 (165888)
I0913 19:48:35.148208  1241 net.cpp:157] Top shape: 3 6 96 96 (165888)
I0913 19:48:35.148216  1241 net.cpp:157] Top shape: 3 6 48 48 (41472)
I0913 19:48:35.148224  1241 net.cpp:157] Top shape: 3 6 48 48 (41472)
I0913 19:48:35.148234  1241 net.cpp:157] Top shape: 3 6 24 24 (10368)
I0913 19:48:35.148243  1241 net.cpp:157] Top shape: 3 6 24 24 (10368)
I0913 19:48:35.148253  1241 net.cpp:157] Top shape: 3 6 12 12 (2592)
I0913 19:48:35.148262  1241 net.cpp:157] Top shape: 1 7 1 1 (7)
I0913 19:48:35.148269  1241 net.cpp:165] Memory required for data: 30063772
I0913 19:48:35.148283  1241 layer_factory.hpp:77] Creating layer label_1_5x5_data_1_split
I0913 19:48:35.148308  1241 net.cpp:100] Creating Layer label_1_5x5_data_1_split
I0913 19:48:35.148319  1241 net.cpp:434] label_1_5x5_data_1_split <- label_1_5x5
I0913 19:48:35.148339  1241 net.cpp:408] label_1_5x5_data_1_split -> label_1_5x5_data_1_split_0
I0913 19:48:35.148353  1241 net.cpp:408] label_1_5x5_data_1_split -> label_1_5x5_data_1_split_1
I0913 19:48:35.148428  1241 net.cpp:150] Setting up label_1_5x5_data_1_split
I0913 19:48:35.148442  1241 net.cpp:157] Top shape: 3 6 96 96 (165888)
I0913 19:48:35.148452  1241 net.cpp:157] Top shape: 3 6 96 96 (165888)
I0913 19:48:35.148458  1241 net.cpp:165] Memory required for data: 31390876
I0913 19:48:35.148464  1241 layer_factory.hpp:77] Creating layer label_1_7x7_data_2_split
I0913 19:48:35.148478  1241 net.cpp:100] Creating Layer label_1_7x7_data_2_split
I0913 19:48:35.148484  1241 net.cpp:434] label_1_7x7_data_2_split <- label_1_7x7
I0913 19:48:35.148496  1241 net.cpp:408] label_1_7x7_data_2_split -> label_1_7x7_data_2_split_0
I0913 19:48:35.148510  1241 net.cpp:408] label_1_7x7_data_2_split -> label_1_7x7_data_2_split_1
I0913 19:48:35.148563  1241 net.cpp:150] Setting up label_1_7x7_data_2_split
I0913 19:48:35.148576  1241 net.cpp:157] Top shape: 3 6 96 96 (165888)
I0913 19:48:35.148584  1241 net.cpp:157] Top shape: 3 6 96 96 (165888)
I0913 19:48:35.148591  1241 net.cpp:165] Memory required for data: 32717980
I0913 19:48:35.148598  1241 layer_factory.hpp:77] Creating layer label_2_5x5_data_3_split
I0913 19:48:35.148607  1241 net.cpp:100] Creating Layer label_2_5x5_data_3_split
I0913 19:48:35.148615  1241 net.cpp:434] label_2_5x5_data_3_split <- label_2_5x5
I0913 19:48:35.148627  1241 net.cpp:408] label_2_5x5_data_3_split -> label_2_5x5_data_3_split_0
I0913 19:48:35.148641  1241 net.cpp:408] label_2_5x5_data_3_split -> label_2_5x5_data_3_split_1
I0913 19:48:35.148689  1241 net.cpp:150] Setting up label_2_5x5_data_3_split
I0913 19:48:35.148701  1241 net.cpp:157] Top shape: 3 6 48 48 (41472)
I0913 19:48:35.148710  1241 net.cpp:157] Top shape: 3 6 48 48 (41472)
I0913 19:48:35.148717  1241 net.cpp:165] Memory required for data: 33049756
I0913 19:48:35.148725  1241 layer_factory.hpp:77] Creating layer label_2_7x7_data_4_split
I0913 19:48:35.148735  1241 net.cpp:100] Creating Layer label_2_7x7_data_4_split
I0913 19:48:35.148743  1241 net.cpp:434] label_2_7x7_data_4_split <- label_2_7x7
I0913 19:48:35.148753  1241 net.cpp:408] label_2_7x7_data_4_split -> label_2_7x7_data_4_split_0
I0913 19:48:35.148772  1241 net.cpp:408] label_2_7x7_data_4_split -> label_2_7x7_data_4_split_1
I0913 19:48:35.148821  1241 net.cpp:150] Setting up label_2_7x7_data_4_split
I0913 19:48:35.148833  1241 net.cpp:157] Top shape: 3 6 48 48 (41472)
I0913 19:48:35.148844  1241 net.cpp:157] Top shape: 3 6 48 48 (41472)
I0913 19:48:35.148851  1241 net.cpp:165] Memory required for data: 33381532
I0913 19:48:35.148859  1241 layer_factory.hpp:77] Creating layer label_3_5x5_data_5_split
I0913 19:48:35.148867  1241 net.cpp:100] Creating Layer label_3_5x5_data_5_split
I0913 19:48:35.148874  1241 net.cpp:434] label_3_5x5_data_5_split <- label_3_5x5
I0913 19:48:35.148886  1241 net.cpp:408] label_3_5x5_data_5_split -> label_3_5x5_data_5_split_0
I0913 19:48:35.148900  1241 net.cpp:408] label_3_5x5_data_5_split -> label_3_5x5_data_5_split_1
I0913 19:48:35.148947  1241 net.cpp:150] Setting up label_3_5x5_data_5_split
I0913 19:48:35.148958  1241 net.cpp:157] Top shape: 3 6 24 24 (10368)
I0913 19:48:35.148967  1241 net.cpp:157] Top shape: 3 6 24 24 (10368)
I0913 19:48:35.148977  1241 net.cpp:165] Memory required for data: 33464476
I0913 19:48:35.148983  1241 layer_factory.hpp:77] Creating layer label_3_7x7_data_6_split
I0913 19:48:35.148991  1241 net.cpp:100] Creating Layer label_3_7x7_data_6_split
I0913 19:48:35.148998  1241 net.cpp:434] label_3_7x7_data_6_split <- label_3_7x7
I0913 19:48:35.149006  1241 net.cpp:408] label_3_7x7_data_6_split -> label_3_7x7_data_6_split_0
I0913 19:48:35.149016  1241 net.cpp:408] label_3_7x7_data_6_split -> label_3_7x7_data_6_split_1
I0913 19:48:35.149058  1241 net.cpp:150] Setting up label_3_7x7_data_6_split
I0913 19:48:35.149068  1241 net.cpp:157] Top shape: 3 6 24 24 (10368)
I0913 19:48:35.149076  1241 net.cpp:157] Top shape: 3 6 24 24 (10368)
I0913 19:48:35.149083  1241 net.cpp:165] Memory required for data: 33547420
I0913 19:48:35.149089  1241 layer_factory.hpp:77] Creating layer label_4_5x5_data_7_split
I0913 19:48:35.149096  1241 net.cpp:100] Creating Layer label_4_5x5_data_7_split
I0913 19:48:35.149104  1241 net.cpp:434] label_4_5x5_data_7_split <- label_4_5x5
I0913 19:48:35.149114  1241 net.cpp:408] label_4_5x5_data_7_split -> label_4_5x5_data_7_split_0
I0913 19:48:35.149127  1241 net.cpp:408] label_4_5x5_data_7_split -> label_4_5x5_data_7_split_1
I0913 19:48:35.149170  1241 net.cpp:150] Setting up label_4_5x5_data_7_split
I0913 19:48:35.149180  1241 net.cpp:157] Top shape: 3 6 12 12 (2592)
I0913 19:48:35.149188  1241 net.cpp:157] Top shape: 3 6 12 12 (2592)
I0913 19:48:35.149194  1241 net.cpp:165] Memory required for data: 33568156
I0913 19:48:35.149200  1241 layer_factory.hpp:77] Creating layer slice
I0913 19:48:35.149219  1241 net.cpp:100] Creating Layer slice
I0913 19:48:35.149225  1241 net.cpp:434] slice <- data
I0913 19:48:35.149235  1241 net.cpp:408] slice -> data123
I0913 19:48:35.149247  1241 net.cpp:408] slice -> ch4
I0913 19:48:35.149287  1241 net.cpp:150] Setting up slice
I0913 19:48:35.149298  1241 net.cpp:157] Top shape: 3 3 768 768 (5308416)
I0913 19:48:35.149305  1241 net.cpp:157] Top shape: 3 1 768 768 (1769472)
I0913 19:48:35.149310  1241 net.cpp:165] Memory required for data: 61879708
I0913 19:48:35.149317  1241 layer_factory.hpp:77] Creating layer conv1_1
I0913 19:48:35.149333  1241 net.cpp:100] Creating Layer conv1_1
I0913 19:48:35.149340  1241 net.cpp:434] conv1_1 <- data123
I0913 19:48:35.149349  1241 net.cpp:408] conv1_1 -> conv1_1
I0913 19:48:35.383726  1241 net.cpp:150] Setting up conv1_1
I0913 19:48:35.383772  1241 net.cpp:157] Top shape: 3 64 768 768 (113246208)
I0913 19:48:35.383779  1241 net.cpp:165] Memory required for data: 514864540
I0913 19:48:35.383805  1241 layer_factory.hpp:77] Creating layer relu1_1
I0913 19:48:35.383824  1241 net.cpp:100] Creating Layer relu1_1
I0913 19:48:35.383831  1241 net.cpp:434] relu1_1 <- conv1_1
I0913 19:48:35.383839  1241 net.cpp:395] relu1_1 -> conv1_1 (in-place)
I0913 19:48:35.384050  1241 net.cpp:150] Setting up relu1_1
I0913 19:48:35.384059  1241 net.cpp:157] Top shape: 3 64 768 768 (113246208)
I0913 19:48:35.384063  1241 net.cpp:165] Memory required for data: 967849372
I0913 19:48:35.384068  1241 layer_factory.hpp:77] Creating layer conv1_2
I0913 19:48:35.384088  1241 net.cpp:100] Creating Layer conv1_2
I0913 19:48:35.384093  1241 net.cpp:434] conv1_2 <- conv1_1
I0913 19:48:35.384099  1241 net.cpp:408] conv1_2 -> conv1_2
I0913 19:48:35.386471  1241 net.cpp:150] Setting up conv1_2
I0913 19:48:35.386487  1241 net.cpp:157] Top shape: 3 64 768 768 (113246208)
I0913 19:48:35.386492  1241 net.cpp:165] Memory required for data: 1420834204
I0913 19:48:35.386500  1241 layer_factory.hpp:77] Creating layer relu1_2
I0913 19:48:35.386507  1241 net.cpp:100] Creating Layer relu1_2
I0913 19:48:35.386512  1241 net.cpp:434] relu1_2 <- conv1_2
I0913 19:48:35.386518  1241 net.cpp:395] relu1_2 -> conv1_2 (in-place)
I0913 19:48:35.386675  1241 net.cpp:150] Setting up relu1_2
I0913 19:48:35.386683  1241 net.cpp:157] Top shape: 3 64 768 768 (113246208)
I0913 19:48:35.386687  1241 net.cpp:165] Memory required for data: 1873819036
I0913 19:48:35.386692  1241 layer_factory.hpp:77] Creating layer pool1
I0913 19:48:35.386699  1241 net.cpp:100] Creating Layer pool1
I0913 19:48:35.386710  1241 net.cpp:434] pool1 <- conv1_2
I0913 19:48:35.386716  1241 net.cpp:408] pool1 -> pool1
I0913 19:48:35.386775  1241 net.cpp:150] Setting up pool1
I0913 19:48:35.386781  1241 net.cpp:157] Top shape: 3 64 384 384 (28311552)
I0913 19:48:35.386785  1241 net.cpp:165] Memory required for data: 1987065244
I0913 19:48:35.386788  1241 layer_factory.hpp:77] Creating layer ch4_pool1
I0913 19:48:35.386795  1241 net.cpp:100] Creating Layer ch4_pool1
I0913 19:48:35.386797  1241 net.cpp:434] ch4_pool1 <- ch4
I0913 19:48:35.386807  1241 net.cpp:408] ch4_pool1 -> ch4_pool1
I0913 19:48:35.386842  1241 net.cpp:150] Setting up ch4_pool1
I0913 19:48:35.386847  1241 net.cpp:157] Top shape: 3 1 384 384 (442368)
I0913 19:48:35.386850  1241 net.cpp:165] Memory required for data: 1988834716
I0913 19:48:35.386853  1241 layer_factory.hpp:77] Creating layer ch4_pool1_ch4_pool1_0_split
I0913 19:48:35.386860  1241 net.cpp:100] Creating Layer ch4_pool1_ch4_pool1_0_split
I0913 19:48:35.386865  1241 net.cpp:434] ch4_pool1_ch4_pool1_0_split <- ch4_pool1
I0913 19:48:35.386869  1241 net.cpp:408] ch4_pool1_ch4_pool1_0_split -> ch4_pool1_ch4_pool1_0_split_0
I0913 19:48:35.386875  1241 net.cpp:408] ch4_pool1_ch4_pool1_0_split -> ch4_pool1_ch4_pool1_0_split_1
I0913 19:48:35.386904  1241 net.cpp:150] Setting up ch4_pool1_ch4_pool1_0_split
I0913 19:48:35.386909  1241 net.cpp:157] Top shape: 3 1 384 384 (442368)
I0913 19:48:35.386914  1241 net.cpp:157] Top shape: 3 1 384 384 (442368)
I0913 19:48:35.386916  1241 net.cpp:165] Memory required for data: 1992373660
I0913 19:48:35.386919  1241 layer_factory.hpp:77] Creating layer pool1_concat
I0913 19:48:35.386929  1241 net.cpp:100] Creating Layer pool1_concat
I0913 19:48:35.386932  1241 net.cpp:434] pool1_concat <- pool1
I0913 19:48:35.386937  1241 net.cpp:434] pool1_concat <- ch4_pool1_ch4_pool1_0_split_0
I0913 19:48:35.386942  1241 net.cpp:408] pool1_concat -> pool1_new
I0913 19:48:35.386963  1241 net.cpp:150] Setting up pool1_concat
I0913 19:48:35.386970  1241 net.cpp:157] Top shape: 3 65 384 384 (28753920)
I0913 19:48:35.386972  1241 net.cpp:165] Memory required for data: 2107389340
I0913 19:48:35.386976  1241 layer_factory.hpp:77] Creating layer conv2_1_new
I0913 19:48:35.386984  1241 net.cpp:100] Creating Layer conv2_1_new
I0913 19:48:35.386988  1241 net.cpp:434] conv2_1_new <- pool1_new
I0913 19:48:35.386993  1241 net.cpp:408] conv2_1_new -> conv2_1
I0913 19:48:35.390573  1241 net.cpp:150] Setting up conv2_1_new
I0913 19:48:35.390594  1241 net.cpp:157] Top shape: 3 128 384 384 (56623104)
I0913 19:48:35.390597  1241 net.cpp:165] Memory required for data: 2333881756
I0913 19:48:35.390609  1241 layer_factory.hpp:77] Creating layer relu2_1
I0913 19:48:35.390616  1241 net.cpp:100] Creating Layer relu2_1
I0913 19:48:35.390622  1241 net.cpp:434] relu2_1 <- conv2_1
I0913 19:48:35.390627  1241 net.cpp:395] relu2_1 -> conv2_1 (in-place)
I0913 19:48:35.390771  1241 net.cpp:150] Setting up relu2_1
I0913 19:48:35.390779  1241 net.cpp:157] Top shape: 3 128 384 384 (56623104)
I0913 19:48:35.390784  1241 net.cpp:165] Memory required for data: 2560374172
I0913 19:48:35.390786  1241 layer_factory.hpp:77] Creating layer conv2_2
I0913 19:48:35.390795  1241 net.cpp:100] Creating Layer conv2_2
I0913 19:48:35.390799  1241 net.cpp:434] conv2_2 <- conv2_1
I0913 19:48:35.390805  1241 net.cpp:408] conv2_2 -> conv2_2
I0913 19:48:35.392169  1241 net.cpp:150] Setting up conv2_2
I0913 19:48:35.392182  1241 net.cpp:157] Top shape: 3 128 384 384 (56623104)
I0913 19:48:35.392186  1241 net.cpp:165] Memory required for data: 2786866588
I0913 19:48:35.392192  1241 layer_factory.hpp:77] Creating layer relu2_2
I0913 19:48:35.392199  1241 net.cpp:100] Creating Layer relu2_2
I0913 19:48:35.392202  1241 net.cpp:434] relu2_2 <- conv2_2
I0913 19:48:35.392207  1241 net.cpp:395] relu2_2 -> conv2_2 (in-place)
I0913 19:48:35.392400  1241 net.cpp:150] Setting up relu2_2
I0913 19:48:35.392413  1241 net.cpp:157] Top shape: 3 128 384 384 (56623104)
I0913 19:48:35.392418  1241 net.cpp:165] Memory required for data: 3013359004
I0913 19:48:35.392423  1241 layer_factory.hpp:77] Creating layer pool2
I0913 19:48:35.392431  1241 net.cpp:100] Creating Layer pool2
I0913 19:48:35.392436  1241 net.cpp:434] pool2 <- conv2_2
I0913 19:48:35.392442  1241 net.cpp:408] pool2 -> pool2
I0913 19:48:35.392488  1241 net.cpp:150] Setting up pool2
I0913 19:48:35.392495  1241 net.cpp:157] Top shape: 3 128 192 192 (14155776)
I0913 19:48:35.392499  1241 net.cpp:165] Memory required for data: 3069982108
I0913 19:48:35.392504  1241 layer_factory.hpp:77] Creating layer ch4_pool2
I0913 19:48:35.392510  1241 net.cpp:100] Creating Layer ch4_pool2
I0913 19:48:35.392515  1241 net.cpp:434] ch4_pool2 <- ch4_pool1_ch4_pool1_0_split_1
I0913 19:48:35.392522  1241 net.cpp:408] ch4_pool2 -> ch4_pool2
I0913 19:48:35.392561  1241 net.cpp:150] Setting up ch4_pool2
I0913 19:48:35.392568  1241 net.cpp:157] Top shape: 3 1 192 192 (110592)
I0913 19:48:35.392573  1241 net.cpp:165] Memory required for data: 3070424476
I0913 19:48:35.392577  1241 layer_factory.hpp:77] Creating layer ch4_pool2_ch4_pool2_0_split
I0913 19:48:35.392583  1241 net.cpp:100] Creating Layer ch4_pool2_ch4_pool2_0_split
I0913 19:48:35.392587  1241 net.cpp:434] ch4_pool2_ch4_pool2_0_split <- ch4_pool2
I0913 19:48:35.392594  1241 net.cpp:408] ch4_pool2_ch4_pool2_0_split -> ch4_pool2_ch4_pool2_0_split_0
I0913 19:48:35.392601  1241 net.cpp:408] ch4_pool2_ch4_pool2_0_split -> ch4_pool2_ch4_pool2_0_split_1
I0913 19:48:35.392640  1241 net.cpp:150] Setting up ch4_pool2_ch4_pool2_0_split
I0913 19:48:35.392647  1241 net.cpp:157] Top shape: 3 1 192 192 (110592)
I0913 19:48:35.392652  1241 net.cpp:157] Top shape: 3 1 192 192 (110592)
I0913 19:48:35.392657  1241 net.cpp:165] Memory required for data: 3071309212
I0913 19:48:35.392660  1241 layer_factory.hpp:77] Creating layer pool2_concat
I0913 19:48:35.392668  1241 net.cpp:100] Creating Layer pool2_concat
I0913 19:48:35.392673  1241 net.cpp:434] pool2_concat <- pool2
I0913 19:48:35.392678  1241 net.cpp:434] pool2_concat <- ch4_pool2_ch4_pool2_0_split_0
I0913 19:48:35.392683  1241 net.cpp:408] pool2_concat -> pool2_new
I0913 19:48:35.392709  1241 net.cpp:150] Setting up pool2_concat
I0913 19:48:35.392715  1241 net.cpp:157] Top shape: 3 129 192 192 (14266368)
I0913 19:48:35.392719  1241 net.cpp:165] Memory required for data: 3128374684
I0913 19:48:35.392724  1241 layer_factory.hpp:77] Creating layer conv3_1_new
I0913 19:48:35.392731  1241 net.cpp:100] Creating Layer conv3_1_new
I0913 19:48:35.392735  1241 net.cpp:434] conv3_1_new <- pool2_new
I0913 19:48:35.392742  1241 net.cpp:408] conv3_1_new -> conv3_1
I0913 19:48:35.398350  1241 net.cpp:150] Setting up conv3_1_new
I0913 19:48:35.398380  1241 net.cpp:157] Top shape: 3 256 192 192 (28311552)
I0913 19:48:35.398385  1241 net.cpp:165] Memory required for data: 3241620892
I0913 19:48:35.398403  1241 layer_factory.hpp:77] Creating layer relu3_1
I0913 19:48:35.398416  1241 net.cpp:100] Creating Layer relu3_1
I0913 19:48:35.398424  1241 net.cpp:434] relu3_1 <- conv3_1
I0913 19:48:35.398430  1241 net.cpp:395] relu3_1 -> conv3_1 (in-place)
I0913 19:48:35.398861  1241 net.cpp:150] Setting up relu3_1
I0913 19:48:35.398874  1241 net.cpp:157] Top shape: 3 256 192 192 (28311552)
I0913 19:48:35.398877  1241 net.cpp:165] Memory required for data: 3354867100
I0913 19:48:35.398881  1241 layer_factory.hpp:77] Creating layer conv3_2
I0913 19:48:35.398892  1241 net.cpp:100] Creating Layer conv3_2
I0913 19:48:35.398910  1241 net.cpp:434] conv3_2 <- conv3_1
I0913 19:48:35.398918  1241 net.cpp:408] conv3_2 -> conv3_2
I0913 19:48:35.401257  1241 net.cpp:150] Setting up conv3_2
I0913 19:48:35.401274  1241 net.cpp:157] Top shape: 3 256 192 192 (28311552)
I0913 19:48:35.401278  1241 net.cpp:165] Memory required for data: 3468113308
I0913 19:48:35.401288  1241 layer_factory.hpp:77] Creating layer relu3_2
I0913 19:48:35.401298  1241 net.cpp:100] Creating Layer relu3_2
I0913 19:48:35.401302  1241 net.cpp:434] relu3_2 <- conv3_2
I0913 19:48:35.401309  1241 net.cpp:395] relu3_2 -> conv3_2 (in-place)
I0913 19:48:35.401757  1241 net.cpp:150] Setting up relu3_2
I0913 19:48:35.401769  1241 net.cpp:157] Top shape: 3 256 192 192 (28311552)
I0913 19:48:35.401773  1241 net.cpp:165] Memory required for data: 3581359516
I0913 19:48:35.401779  1241 layer_factory.hpp:77] Creating layer conv3_3
I0913 19:48:35.401789  1241 net.cpp:100] Creating Layer conv3_3
I0913 19:48:35.401794  1241 net.cpp:434] conv3_3 <- conv3_2
I0913 19:48:35.401803  1241 net.cpp:408] conv3_3 -> conv3_3
I0913 19:48:35.404688  1241 net.cpp:150] Setting up conv3_3
I0913 19:48:35.404707  1241 net.cpp:157] Top shape: 3 256 192 192 (28311552)
I0913 19:48:35.404711  1241 net.cpp:165] Memory required for data: 3694605724
I0913 19:48:35.404721  1241 layer_factory.hpp:77] Creating layer relu3_3
I0913 19:48:35.404729  1241 net.cpp:100] Creating Layer relu3_3
I0913 19:48:35.404734  1241 net.cpp:434] relu3_3 <- conv3_3
I0913 19:48:35.404739  1241 net.cpp:395] relu3_3 -> conv3_3 (in-place)
I0913 19:48:35.404927  1241 net.cpp:150] Setting up relu3_3
I0913 19:48:35.404937  1241 net.cpp:157] Top shape: 3 256 192 192 (28311552)
I0913 19:48:35.404939  1241 net.cpp:165] Memory required for data: 3807851932
I0913 19:48:35.404943  1241 layer_factory.hpp:77] Creating layer pool3
I0913 19:48:35.404952  1241 net.cpp:100] Creating Layer pool3
I0913 19:48:35.404955  1241 net.cpp:434] pool3 <- conv3_3
I0913 19:48:35.404963  1241 net.cpp:408] pool3 -> pool3
I0913 19:48:35.405007  1241 net.cpp:150] Setting up pool3
I0913 19:48:35.405014  1241 net.cpp:157] Top shape: 3 256 96 96 (7077888)
I0913 19:48:35.405019  1241 net.cpp:165] Memory required for data: 3836163484
I0913 19:48:35.405022  1241 layer_factory.hpp:77] Creating layer ch4_pool3
I0913 19:48:35.405035  1241 net.cpp:100] Creating Layer ch4_pool3
I0913 19:48:35.405040  1241 net.cpp:434] ch4_pool3 <- ch4_pool2_ch4_pool2_0_split_1
I0913 19:48:35.405045  1241 net.cpp:408] ch4_pool3 -> ch4_pool3
I0913 19:48:35.405082  1241 net.cpp:150] Setting up ch4_pool3
I0913 19:48:35.405089  1241 net.cpp:157] Top shape: 3 1 96 96 (27648)
I0913 19:48:35.405093  1241 net.cpp:165] Memory required for data: 3836274076
I0913 19:48:35.405097  1241 layer_factory.hpp:77] Creating layer ch4_pool3_ch4_pool3_0_split
I0913 19:48:35.405103  1241 net.cpp:100] Creating Layer ch4_pool3_ch4_pool3_0_split
I0913 19:48:35.405107  1241 net.cpp:434] ch4_pool3_ch4_pool3_0_split <- ch4_pool3
I0913 19:48:35.405113  1241 net.cpp:408] ch4_pool3_ch4_pool3_0_split -> ch4_pool3_ch4_pool3_0_split_0
I0913 19:48:35.405119  1241 net.cpp:408] ch4_pool3_ch4_pool3_0_split -> ch4_pool3_ch4_pool3_0_split_1
I0913 19:48:35.405154  1241 net.cpp:150] Setting up ch4_pool3_ch4_pool3_0_split
I0913 19:48:35.405161  1241 net.cpp:157] Top shape: 3 1 96 96 (27648)
I0913 19:48:35.405166  1241 net.cpp:157] Top shape: 3 1 96 96 (27648)
I0913 19:48:35.405169  1241 net.cpp:165] Memory required for data: 3836495260
I0913 19:48:35.405174  1241 layer_factory.hpp:77] Creating layer pool3_concat
I0913 19:48:35.405180  1241 net.cpp:100] Creating Layer pool3_concat
I0913 19:48:35.405184  1241 net.cpp:434] pool3_concat <- pool3
I0913 19:48:35.405189  1241 net.cpp:434] pool3_concat <- ch4_pool3_ch4_pool3_0_split_0
I0913 19:48:35.405194  1241 net.cpp:408] pool3_concat -> pool3_new
I0913 19:48:35.405216  1241 net.cpp:150] Setting up pool3_concat
I0913 19:48:35.405223  1241 net.cpp:157] Top shape: 3 257 96 96 (7105536)
I0913 19:48:35.405227  1241 net.cpp:165] Memory required for data: 3864917404
I0913 19:48:35.405230  1241 layer_factory.hpp:77] Creating layer conv4_1_new
I0913 19:48:35.405238  1241 net.cpp:100] Creating Layer conv4_1_new
I0913 19:48:35.405242  1241 net.cpp:434] conv4_1_new <- pool3_new
I0913 19:48:35.405249  1241 net.cpp:408] conv4_1_new -> conv4_1
I0913 19:48:35.409826  1241 net.cpp:150] Setting up conv4_1_new
I0913 19:48:35.409857  1241 net.cpp:157] Top shape: 3 512 96 96 (14155776)
I0913 19:48:35.409862  1241 net.cpp:165] Memory required for data: 3921540508
I0913 19:48:35.409871  1241 layer_factory.hpp:77] Creating layer relu4_1
I0913 19:48:35.409884  1241 net.cpp:100] Creating Layer relu4_1
I0913 19:48:35.409891  1241 net.cpp:434] relu4_1 <- conv4_1
I0913 19:48:35.409899  1241 net.cpp:395] relu4_1 -> conv4_1 (in-place)
I0913 19:48:35.410113  1241 net.cpp:150] Setting up relu4_1
I0913 19:48:35.410127  1241 net.cpp:157] Top shape: 3 512 96 96 (14155776)
I0913 19:48:35.410132  1241 net.cpp:165] Memory required for data: 3978163612
I0913 19:48:35.410137  1241 layer_factory.hpp:77] Creating layer conv4_2
I0913 19:48:35.410148  1241 net.cpp:100] Creating Layer conv4_2
I0913 19:48:35.410154  1241 net.cpp:434] conv4_2 <- conv4_1
I0913 19:48:35.410162  1241 net.cpp:408] conv4_2 -> conv4_2
I0913 19:48:35.417877  1241 net.cpp:150] Setting up conv4_2
I0913 19:48:35.417906  1241 net.cpp:157] Top shape: 3 512 96 96 (14155776)
I0913 19:48:35.417912  1241 net.cpp:165] Memory required for data: 4034786716
I0913 19:48:35.417928  1241 layer_factory.hpp:77] Creating layer relu4_2
I0913 19:48:35.417943  1241 net.cpp:100] Creating Layer relu4_2
I0913 19:48:35.417948  1241 net.cpp:434] relu4_2 <- conv4_2
I0913 19:48:35.417955  1241 net.cpp:395] relu4_2 -> conv4_2 (in-place)
I0913 19:48:35.418169  1241 net.cpp:150] Setting up relu4_2
I0913 19:48:35.418179  1241 net.cpp:157] Top shape: 3 512 96 96 (14155776)
I0913 19:48:35.418182  1241 net.cpp:165] Memory required for data: 4091409820
I0913 19:48:35.418186  1241 layer_factory.hpp:77] Creating layer conv4_3
I0913 19:48:35.418197  1241 net.cpp:100] Creating Layer conv4_3
I0913 19:48:35.418201  1241 net.cpp:434] conv4_3 <- conv4_2
I0913 19:48:35.418210  1241 net.cpp:408] conv4_3 -> conv4_3
I0913 19:48:35.427536  1241 net.cpp:150] Setting up conv4_3
I0913 19:48:35.427574  1241 net.cpp:157] Top shape: 3 512 96 96 (14155776)
I0913 19:48:35.427579  1241 net.cpp:165] Memory required for data: 4148032924
I0913 19:48:35.427592  1241 layer_factory.hpp:77] Creating layer relu4_3
I0913 19:48:35.427606  1241 net.cpp:100] Creating Layer relu4_3
I0913 19:48:35.427614  1241 net.cpp:434] relu4_3 <- conv4_3
I0913 19:48:35.427623  1241 net.cpp:395] relu4_3 -> conv4_3 (in-place)
I0913 19:48:35.427789  1241 net.cpp:150] Setting up relu4_3
I0913 19:48:35.427798  1241 net.cpp:157] Top shape: 3 512 96 96 (14155776)
I0913 19:48:35.427801  1241 net.cpp:165] Memory required for data: 4204656028
I0913 19:48:35.427804  1241 layer_factory.hpp:77] Creating layer conv4_3_relu4_3_0_split
I0913 19:48:35.427811  1241 net.cpp:100] Creating Layer conv4_3_relu4_3_0_split
I0913 19:48:35.427815  1241 net.cpp:434] conv4_3_relu4_3_0_split <- conv4_3
I0913 19:48:35.427821  1241 net.cpp:408] conv4_3_relu4_3_0_split -> conv4_3_relu4_3_0_split_0
I0913 19:48:35.427829  1241 net.cpp:408] conv4_3_relu4_3_0_split -> conv4_3_relu4_3_0_split_1
I0913 19:48:35.427834  1241 net.cpp:408] conv4_3_relu4_3_0_split -> conv4_3_relu4_3_0_split_2
I0913 19:48:35.427882  1241 net.cpp:150] Setting up conv4_3_relu4_3_0_split
I0913 19:48:35.427889  1241 net.cpp:157] Top shape: 3 512 96 96 (14155776)
I0913 19:48:35.427893  1241 net.cpp:157] Top shape: 3 512 96 96 (14155776)
I0913 19:48:35.427897  1241 net.cpp:157] Top shape: 3 512 96 96 (14155776)
I0913 19:48:35.427901  1241 net.cpp:165] Memory required for data: 4374525340
I0913 19:48:35.427903  1241 layer_factory.hpp:77] Creating layer loss1_conv1
I0913 19:48:35.427918  1241 net.cpp:100] Creating Layer loss1_conv1
I0913 19:48:35.427922  1241 net.cpp:434] loss1_conv1 <- conv4_3_relu4_3_0_split_0
I0913 19:48:35.427929  1241 net.cpp:408] loss1_conv1 -> loss1_conv1
I0913 19:48:35.489298  1241 net.cpp:150] Setting up loss1_conv1
I0913 19:48:35.489325  1241 net.cpp:157] Top shape: 3 512 96 96 (14155776)
I0913 19:48:35.489327  1241 net.cpp:165] Memory required for data: 4431148444
I0913 19:48:35.489336  1241 layer_factory.hpp:77] Creating layer loss_relu1
I0913 19:48:35.489346  1241 net.cpp:100] Creating Layer loss_relu1
I0913 19:48:35.489353  1241 net.cpp:434] loss_relu1 <- loss1_conv1
I0913 19:48:35.489358  1241 net.cpp:395] loss_relu1 -> loss1_conv1 (in-place)
I0913 19:48:35.489786  1241 net.cpp:150] Setting up loss_relu1
I0913 19:48:35.489799  1241 net.cpp:157] Top shape: 3 512 96 96 (14155776)
I0913 19:48:35.489802  1241 net.cpp:165] Memory required for data: 4487771548
I0913 19:48:35.489806  1241 layer_factory.hpp:77] Creating layer loss1_conv1_loss_relu1_0_split
I0913 19:48:35.489814  1241 net.cpp:100] Creating Layer loss1_conv1_loss_relu1_0_split
I0913 19:48:35.489817  1241 net.cpp:434] loss1_conv1_loss_relu1_0_split <- loss1_conv1
I0913 19:48:35.489821  1241 net.cpp:408] loss1_conv1_loss_relu1_0_split -> loss1_conv1_loss_relu1_0_split_0
I0913 19:48:35.489828  1241 net.cpp:408] loss1_conv1_loss_relu1_0_split -> loss1_conv1_loss_relu1_0_split_1
I0913 19:48:35.489864  1241 net.cpp:150] Setting up loss1_conv1_loss_relu1_0_split
I0913 19:48:35.489871  1241 net.cpp:157] Top shape: 3 512 96 96 (14155776)
I0913 19:48:35.489876  1241 net.cpp:157] Top shape: 3 512 96 96 (14155776)
I0913 19:48:35.489878  1241 net.cpp:165] Memory required for data: 4601017756
I0913 19:48:35.489881  1241 layer_factory.hpp:77] Creating layer LFCN_1_5x5
I0913 19:48:35.489892  1241 net.cpp:100] Creating Layer LFCN_1_5x5
I0913 19:48:35.489895  1241 net.cpp:434] LFCN_1_5x5 <- loss1_conv1_loss_relu1_0_split_0
I0913 19:48:35.489902  1241 net.cpp:408] LFCN_1_5x5 -> LFCN_1_5x5
I0913 19:48:35.493302  1241 net.cpp:150] Setting up LFCN_1_5x5
I0913 19:48:35.493311  1241 net.cpp:157] Top shape: 3 9 96 96 (248832)
I0913 19:48:35.493314  1241 net.cpp:165] Memory required for data: 4602013084
I0913 19:48:35.493319  1241 layer_factory.hpp:77] Creating layer LFCN_1_5x5_LFCN_1_5x5_0_split
I0913 19:48:35.493324  1241 net.cpp:100] Creating Layer LFCN_1_5x5_LFCN_1_5x5_0_split
I0913 19:48:35.493326  1241 net.cpp:434] LFCN_1_5x5_LFCN_1_5x5_0_split <- LFCN_1_5x5
I0913 19:48:35.493332  1241 net.cpp:408] LFCN_1_5x5_LFCN_1_5x5_0_split -> LFCN_1_5x5_LFCN_1_5x5_0_split_0
I0913 19:48:35.493338  1241 net.cpp:408] LFCN_1_5x5_LFCN_1_5x5_0_split -> LFCN_1_5x5_LFCN_1_5x5_0_split_1
I0913 19:48:35.493343  1241 net.cpp:408] LFCN_1_5x5_LFCN_1_5x5_0_split -> LFCN_1_5x5_LFCN_1_5x5_0_split_2
I0913 19:48:35.493381  1241 net.cpp:150] Setting up LFCN_1_5x5_LFCN_1_5x5_0_split
I0913 19:48:35.493386  1241 net.cpp:157] Top shape: 3 9 96 96 (248832)
I0913 19:48:35.493389  1241 net.cpp:157] Top shape: 3 9 96 96 (248832)
I0913 19:48:35.493393  1241 net.cpp:157] Top shape: 3 9 96 96 (248832)
I0913 19:48:35.493396  1241 net.cpp:165] Memory required for data: 4604999068
I0913 19:48:35.493399  1241 layer_factory.hpp:77] Creating layer detection_loss_1_5x5
I0913 19:48:35.493405  1241 net.cpp:100] Creating Layer detection_loss_1_5x5
I0913 19:48:35.493408  1241 net.cpp:434] detection_loss_1_5x5 <- LFCN_1_5x5_LFCN_1_5x5_0_split_0
I0913 19:48:35.493412  1241 net.cpp:434] detection_loss_1_5x5 <- label_1_5x5_data_1_split_0
I0913 19:48:35.493417  1241 net.cpp:408] detection_loss_1_5x5 -> loss_1_5x5
I0913 19:48:35.493427  1241 layer_factory.hpp:77] Creating layer detection_loss_1_5x5
I0913 19:48:35.494895  1241 net.cpp:150] Setting up detection_loss_1_5x5
I0913 19:48:35.494910  1241 net.cpp:157] Top shape: 1 1 1 2 (2)
I0913 19:48:35.494912  1241 net.cpp:160]     with loss weight 0.9
I0913 19:48:35.494931  1241 net.cpp:165] Memory required for data: 4604999076
I0913 19:48:35.494935  1241 layer_factory.hpp:77] Creating layer detection_accuracy_1_5x5
I0913 19:48:35.494942  1241 net.cpp:100] Creating Layer detection_accuracy_1_5x5
I0913 19:48:35.494946  1241 net.cpp:434] detection_accuracy_1_5x5 <- LFCN_1_5x5_LFCN_1_5x5_0_split_1
I0913 19:48:35.494951  1241 net.cpp:434] detection_accuracy_1_5x5 <- label_1_5x5_data_1_split_1
I0913 19:48:35.494956  1241 net.cpp:408] detection_accuracy_1_5x5 -> accuracy_1_5x5
I0913 19:48:35.494964  1241 net.cpp:408] detection_accuracy_1_5x5 -> boxiou_1_5x5
I0913 19:48:35.495002  1241 net.cpp:150] Setting up detection_accuracy_1_5x5
I0913 19:48:35.495007  1241 net.cpp:157] Top shape: 1 1 1 2 (2)
I0913 19:48:35.495012  1241 net.cpp:157] Top shape: 1 1 1 1 (1)
I0913 19:48:35.495014  1241 net.cpp:165] Memory required for data: 4604999088
I0913 19:48:35.495018  1241 layer_factory.hpp:77] Creating layer LFCN_1_7x7
I0913 19:48:35.495026  1241 net.cpp:100] Creating Layer LFCN_1_7x7
I0913 19:48:35.495030  1241 net.cpp:434] LFCN_1_7x7 <- loss1_conv1_loss_relu1_0_split_1
I0913 19:48:35.495036  1241 net.cpp:408] LFCN_1_7x7 -> LFCN_1_7x7
I0913 19:48:35.501366  1241 net.cpp:150] Setting up LFCN_1_7x7
I0913 19:48:35.501377  1241 net.cpp:157] Top shape: 3 9 96 96 (248832)
I0913 19:48:35.501380  1241 net.cpp:165] Memory required for data: 4605994416
I0913 19:48:35.501385  1241 layer_factory.hpp:77] Creating layer LFCN_1_7x7_LFCN_1_7x7_0_split
I0913 19:48:35.501390  1241 net.cpp:100] Creating Layer LFCN_1_7x7_LFCN_1_7x7_0_split
I0913 19:48:35.501394  1241 net.cpp:434] LFCN_1_7x7_LFCN_1_7x7_0_split <- LFCN_1_7x7
I0913 19:48:35.501399  1241 net.cpp:408] LFCN_1_7x7_LFCN_1_7x7_0_split -> LFCN_1_7x7_LFCN_1_7x7_0_split_0
I0913 19:48:35.501408  1241 net.cpp:408] LFCN_1_7x7_LFCN_1_7x7_0_split -> LFCN_1_7x7_LFCN_1_7x7_0_split_1
I0913 19:48:35.501413  1241 net.cpp:408] LFCN_1_7x7_LFCN_1_7x7_0_split -> LFCN_1_7x7_LFCN_1_7x7_0_split_2
I0913 19:48:35.501452  1241 net.cpp:150] Setting up LFCN_1_7x7_LFCN_1_7x7_0_split
I0913 19:48:35.501457  1241 net.cpp:157] Top shape: 3 9 96 96 (248832)
I0913 19:48:35.501461  1241 net.cpp:157] Top shape: 3 9 96 96 (248832)
I0913 19:48:35.501466  1241 net.cpp:157] Top shape: 3 9 96 96 (248832)
I0913 19:48:35.501468  1241 net.cpp:165] Memory required for data: 4608980400
I0913 19:48:35.501471  1241 layer_factory.hpp:77] Creating layer detection_loss_1_7x7
I0913 19:48:35.501478  1241 net.cpp:100] Creating Layer detection_loss_1_7x7
I0913 19:48:35.501482  1241 net.cpp:434] detection_loss_1_7x7 <- LFCN_1_7x7_LFCN_1_7x7_0_split_0
I0913 19:48:35.501487  1241 net.cpp:434] detection_loss_1_7x7 <- label_1_7x7_data_2_split_0
I0913 19:48:35.501492  1241 net.cpp:408] detection_loss_1_7x7 -> loss_1_7x7
I0913 19:48:35.501498  1241 layer_factory.hpp:77] Creating layer detection_loss_1_7x7
I0913 19:48:35.501859  1241 net.cpp:150] Setting up detection_loss_1_7x7
I0913 19:48:35.501868  1241 net.cpp:157] Top shape: 1 1 1 2 (2)
I0913 19:48:35.501871  1241 net.cpp:160]     with loss weight 0.9
I0913 19:48:35.501878  1241 net.cpp:165] Memory required for data: 4608980408
I0913 19:48:35.501881  1241 layer_factory.hpp:77] Creating layer detection_accuracy_1_7x7
I0913 19:48:35.501888  1241 net.cpp:100] Creating Layer detection_accuracy_1_7x7
I0913 19:48:35.501893  1241 net.cpp:434] detection_accuracy_1_7x7 <- LFCN_1_7x7_LFCN_1_7x7_0_split_1
I0913 19:48:35.501896  1241 net.cpp:434] detection_accuracy_1_7x7 <- label_1_7x7_data_2_split_1
I0913 19:48:35.501901  1241 net.cpp:408] detection_accuracy_1_7x7 -> accuracy_1_7x7
I0913 19:48:35.501907  1241 net.cpp:408] detection_accuracy_1_7x7 -> boxiou_1_7x7
I0913 19:48:35.501941  1241 net.cpp:150] Setting up detection_accuracy_1_7x7
I0913 19:48:35.501947  1241 net.cpp:157] Top shape: 1 1 1 2 (2)
I0913 19:48:35.501951  1241 net.cpp:157] Top shape: 1 1 1 1 (1)
I0913 19:48:35.501955  1241 net.cpp:165] Memory required for data: 4608980420
I0913 19:48:35.501957  1241 layer_factory.hpp:77] Creating layer pool4
I0913 19:48:35.501963  1241 net.cpp:100] Creating Layer pool4
I0913 19:48:35.501967  1241 net.cpp:434] pool4 <- conv4_3_relu4_3_0_split_1
I0913 19:48:35.501973  1241 net.cpp:408] pool4 -> pool4
I0913 19:48:35.502004  1241 net.cpp:150] Setting up pool4
I0913 19:48:35.502012  1241 net.cpp:157] Top shape: 3 512 48 48 (3538944)
I0913 19:48:35.502014  1241 net.cpp:165] Memory required for data: 4623136196
I0913 19:48:35.502017  1241 layer_factory.hpp:77] Creating layer ch4_pool4
I0913 19:48:35.502028  1241 net.cpp:100] Creating Layer ch4_pool4
I0913 19:48:35.502033  1241 net.cpp:434] ch4_pool4 <- ch4_pool3_ch4_pool3_0_split_1
I0913 19:48:35.502038  1241 net.cpp:408] ch4_pool4 -> ch4_pool4
I0913 19:48:35.502069  1241 net.cpp:150] Setting up ch4_pool4
I0913 19:48:35.502074  1241 net.cpp:157] Top shape: 3 1 48 48 (6912)
I0913 19:48:35.502077  1241 net.cpp:165] Memory required for data: 4623163844
I0913 19:48:35.502081  1241 layer_factory.hpp:77] Creating layer ch4_pool4_ch4_pool4_0_split
I0913 19:48:35.502086  1241 net.cpp:100] Creating Layer ch4_pool4_ch4_pool4_0_split
I0913 19:48:35.502089  1241 net.cpp:434] ch4_pool4_ch4_pool4_0_split <- ch4_pool4
I0913 19:48:35.502094  1241 net.cpp:408] ch4_pool4_ch4_pool4_0_split -> ch4_pool4_ch4_pool4_0_split_0
I0913 19:48:35.502099  1241 net.cpp:408] ch4_pool4_ch4_pool4_0_split -> ch4_pool4_ch4_pool4_0_split_1
I0913 19:48:35.502130  1241 net.cpp:150] Setting up ch4_pool4_ch4_pool4_0_split
I0913 19:48:35.502135  1241 net.cpp:157] Top shape: 3 1 48 48 (6912)
I0913 19:48:35.502140  1241 net.cpp:157] Top shape: 3 1 48 48 (6912)
I0913 19:48:35.502142  1241 net.cpp:165] Memory required for data: 4623219140
I0913 19:48:35.502146  1241 layer_factory.hpp:77] Creating layer pool4_concat
I0913 19:48:35.502151  1241 net.cpp:100] Creating Layer pool4_concat
I0913 19:48:35.502153  1241 net.cpp:434] pool4_concat <- pool4
I0913 19:48:35.502158  1241 net.cpp:434] pool4_concat <- ch4_pool4_ch4_pool4_0_split_0
I0913 19:48:35.502163  1241 net.cpp:408] pool4_concat -> pool4_new
I0913 19:48:35.502183  1241 net.cpp:150] Setting up pool4_concat
I0913 19:48:35.502189  1241 net.cpp:157] Top shape: 3 513 48 48 (3545856)
I0913 19:48:35.502192  1241 net.cpp:165] Memory required for data: 4637402564
I0913 19:48:35.502195  1241 layer_factory.hpp:77] Creating layer conv5_1_new
I0913 19:48:35.502202  1241 net.cpp:100] Creating Layer conv5_1_new
I0913 19:48:35.502204  1241 net.cpp:434] conv5_1_new <- pool4_new
I0913 19:48:35.502210  1241 net.cpp:408] conv5_1_new -> conv5_1
I0913 19:48:35.508316  1241 net.cpp:150] Setting up conv5_1_new
I0913 19:48:35.508345  1241 net.cpp:157] Top shape: 3 512 48 48 (3538944)
I0913 19:48:35.508348  1241 net.cpp:165] Memory required for data: 4651558340
I0913 19:48:35.508358  1241 layer_factory.hpp:77] Creating layer relu5_1
I0913 19:48:35.508368  1241 net.cpp:100] Creating Layer relu5_1
I0913 19:48:35.508373  1241 net.cpp:434] relu5_1 <- conv5_1
I0913 19:48:35.508379  1241 net.cpp:395] relu5_1 -> conv5_1 (in-place)
I0913 19:48:35.508543  1241 net.cpp:150] Setting up relu5_1
I0913 19:48:35.508553  1241 net.cpp:157] Top shape: 3 512 48 48 (3538944)
I0913 19:48:35.508555  1241 net.cpp:165] Memory required for data: 4665714116
I0913 19:48:35.508559  1241 layer_factory.hpp:77] Creating layer conv5_2
I0913 19:48:35.508568  1241 net.cpp:100] Creating Layer conv5_2
I0913 19:48:35.508570  1241 net.cpp:434] conv5_2 <- conv5_1
I0913 19:48:35.508576  1241 net.cpp:408] conv5_2 -> conv5_2
I0913 19:48:35.515029  1241 net.cpp:150] Setting up conv5_2
I0913 19:48:35.515082  1241 net.cpp:157] Top shape: 3 512 48 48 (3538944)
I0913 19:48:35.515089  1241 net.cpp:165] Memory required for data: 4679869892
I0913 19:48:35.515100  1241 layer_factory.hpp:77] Creating layer relu5_2
I0913 19:48:35.515120  1241 net.cpp:100] Creating Layer relu5_2
I0913 19:48:35.515128  1241 net.cpp:434] relu5_2 <- conv5_2
I0913 19:48:35.515136  1241 net.cpp:395] relu5_2 -> conv5_2 (in-place)
I0913 19:48:35.515311  1241 net.cpp:150] Setting up relu5_2
I0913 19:48:35.515319  1241 net.cpp:157] Top shape: 3 512 48 48 (3538944)
I0913 19:48:35.515323  1241 net.cpp:165] Memory required for data: 4694025668
I0913 19:48:35.515326  1241 layer_factory.hpp:77] Creating layer conv5_3
I0913 19:48:35.515338  1241 net.cpp:100] Creating Layer conv5_3
I0913 19:48:35.515341  1241 net.cpp:434] conv5_3 <- conv5_2
I0913 19:48:35.515347  1241 net.cpp:408] conv5_3 -> conv5_3
I0913 19:48:35.525013  1241 net.cpp:150] Setting up conv5_3
I0913 19:48:35.525068  1241 net.cpp:157] Top shape: 3 512 48 48 (3538944)
I0913 19:48:35.525074  1241 net.cpp:165] Memory required for data: 4708181444
I0913 19:48:35.525085  1241 layer_factory.hpp:77] Creating layer relu5_3
I0913 19:48:35.525102  1241 net.cpp:100] Creating Layer relu5_3
I0913 19:48:35.525110  1241 net.cpp:434] relu5_3 <- conv5_3
I0913 19:48:35.525120  1241 net.cpp:395] relu5_3 -> conv5_3 (in-place)
I0913 19:48:35.525291  1241 net.cpp:150] Setting up relu5_3
I0913 19:48:35.525301  1241 net.cpp:157] Top shape: 3 512 48 48 (3538944)
I0913 19:48:35.525305  1241 net.cpp:165] Memory required for data: 4722337220
I0913 19:48:35.525308  1241 layer_factory.hpp:77] Creating layer conv5_3_relu5_3_0_split
I0913 19:48:35.525317  1241 net.cpp:100] Creating Layer conv5_3_relu5_3_0_split
I0913 19:48:35.525321  1241 net.cpp:434] conv5_3_relu5_3_0_split <- conv5_3
I0913 19:48:35.525328  1241 net.cpp:408] conv5_3_relu5_3_0_split -> conv5_3_relu5_3_0_split_0
I0913 19:48:35.525336  1241 net.cpp:408] conv5_3_relu5_3_0_split -> conv5_3_relu5_3_0_split_1
I0913 19:48:35.525341  1241 net.cpp:408] conv5_3_relu5_3_0_split -> conv5_3_relu5_3_0_split_2
I0913 19:48:35.525388  1241 net.cpp:150] Setting up conv5_3_relu5_3_0_split
I0913 19:48:35.525394  1241 net.cpp:157] Top shape: 3 512 48 48 (3538944)
I0913 19:48:35.525399  1241 net.cpp:157] Top shape: 3 512 48 48 (3538944)
I0913 19:48:35.525403  1241 net.cpp:157] Top shape: 3 512 48 48 (3538944)
I0913 19:48:35.525406  1241 net.cpp:165] Memory required for data: 4764804548
I0913 19:48:35.525410  1241 layer_factory.hpp:77] Creating layer LFCN_2_5x5
I0913 19:48:35.525437  1241 net.cpp:100] Creating Layer LFCN_2_5x5
I0913 19:48:35.525441  1241 net.cpp:434] LFCN_2_5x5 <- conv5_3_relu5_3_0_split_0
I0913 19:48:35.525449  1241 net.cpp:408] LFCN_2_5x5 -> LFCN_2_5x5
I0913 19:48:35.530403  1241 net.cpp:150] Setting up LFCN_2_5x5
I0913 19:48:35.530417  1241 net.cpp:157] Top shape: 3 9 48 48 (62208)
I0913 19:48:35.530421  1241 net.cpp:165] Memory required for data: 4765053380
I0913 19:48:35.530432  1241 layer_factory.hpp:77] Creating layer LFCN_2_5x5_LFCN_2_5x5_0_split
I0913 19:48:35.530438  1241 net.cpp:100] Creating Layer LFCN_2_5x5_LFCN_2_5x5_0_split
I0913 19:48:35.530442  1241 net.cpp:434] LFCN_2_5x5_LFCN_2_5x5_0_split <- LFCN_2_5x5
I0913 19:48:35.530448  1241 net.cpp:408] LFCN_2_5x5_LFCN_2_5x5_0_split -> LFCN_2_5x5_LFCN_2_5x5_0_split_0
I0913 19:48:35.530454  1241 net.cpp:408] LFCN_2_5x5_LFCN_2_5x5_0_split -> LFCN_2_5x5_LFCN_2_5x5_0_split_1
I0913 19:48:35.530459  1241 net.cpp:408] LFCN_2_5x5_LFCN_2_5x5_0_split -> LFCN_2_5x5_LFCN_2_5x5_0_split_2
I0913 19:48:35.530505  1241 net.cpp:150] Setting up LFCN_2_5x5_LFCN_2_5x5_0_split
I0913 19:48:35.530513  1241 net.cpp:157] Top shape: 3 9 48 48 (62208)
I0913 19:48:35.530516  1241 net.cpp:157] Top shape: 3 9 48 48 (62208)
I0913 19:48:35.530520  1241 net.cpp:157] Top shape: 3 9 48 48 (62208)
I0913 19:48:35.530524  1241 net.cpp:165] Memory required for data: 4765799876
I0913 19:48:35.530526  1241 layer_factory.hpp:77] Creating layer detection_loss_2_5x5
I0913 19:48:35.530532  1241 net.cpp:100] Creating Layer detection_loss_2_5x5
I0913 19:48:35.530535  1241 net.cpp:434] detection_loss_2_5x5 <- LFCN_2_5x5_LFCN_2_5x5_0_split_0
I0913 19:48:35.530540  1241 net.cpp:434] detection_loss_2_5x5 <- label_2_5x5_data_3_split_0
I0913 19:48:35.530546  1241 net.cpp:408] detection_loss_2_5x5 -> loss_2_5x5
I0913 19:48:35.530555  1241 layer_factory.hpp:77] Creating layer detection_loss_2_5x5
I0913 19:48:35.531163  1241 net.cpp:150] Setting up detection_loss_2_5x5
I0913 19:48:35.531177  1241 net.cpp:157] Top shape: 1 1 1 2 (2)
I0913 19:48:35.531180  1241 net.cpp:160]     with loss weight 1
I0913 19:48:35.531190  1241 net.cpp:165] Memory required for data: 4765799884
I0913 19:48:35.531194  1241 layer_factory.hpp:77] Creating layer detection_accuracy_2_5x5
I0913 19:48:35.531201  1241 net.cpp:100] Creating Layer detection_accuracy_2_5x5
I0913 19:48:35.531205  1241 net.cpp:434] detection_accuracy_2_5x5 <- LFCN_2_5x5_LFCN_2_5x5_0_split_1
I0913 19:48:35.531209  1241 net.cpp:434] detection_accuracy_2_5x5 <- label_2_5x5_data_3_split_1
I0913 19:48:35.531214  1241 net.cpp:408] detection_accuracy_2_5x5 -> accuracy_2_5x5
I0913 19:48:35.531221  1241 net.cpp:408] detection_accuracy_2_5x5 -> boxiou_2_5x5
I0913 19:48:35.531260  1241 net.cpp:150] Setting up detection_accuracy_2_5x5
I0913 19:48:35.531267  1241 net.cpp:157] Top shape: 1 1 1 2 (2)
I0913 19:48:35.531272  1241 net.cpp:157] Top shape: 1 1 1 1 (1)
I0913 19:48:35.531276  1241 net.cpp:165] Memory required for data: 4765799896
I0913 19:48:35.531280  1241 layer_factory.hpp:77] Creating layer LFCN_2_7x7
I0913 19:48:35.531291  1241 net.cpp:100] Creating Layer LFCN_2_7x7
I0913 19:48:35.531296  1241 net.cpp:434] LFCN_2_7x7 <- conv5_3_relu5_3_0_split_1
I0913 19:48:35.531303  1241 net.cpp:408] LFCN_2_7x7 -> LFCN_2_7x7
I0913 19:48:35.537643  1241 net.cpp:150] Setting up LFCN_2_7x7
I0913 19:48:35.537655  1241 net.cpp:157] Top shape: 3 9 48 48 (62208)
I0913 19:48:35.537658  1241 net.cpp:165] Memory required for data: 4766048728
I0913 19:48:35.537664  1241 layer_factory.hpp:77] Creating layer LFCN_2_7x7_LFCN_2_7x7_0_split
I0913 19:48:35.537669  1241 net.cpp:100] Creating Layer LFCN_2_7x7_LFCN_2_7x7_0_split
I0913 19:48:35.537673  1241 net.cpp:434] LFCN_2_7x7_LFCN_2_7x7_0_split <- LFCN_2_7x7
I0913 19:48:35.537679  1241 net.cpp:408] LFCN_2_7x7_LFCN_2_7x7_0_split -> LFCN_2_7x7_LFCN_2_7x7_0_split_0
I0913 19:48:35.537685  1241 net.cpp:408] LFCN_2_7x7_LFCN_2_7x7_0_split -> LFCN_2_7x7_LFCN_2_7x7_0_split_1
I0913 19:48:35.537690  1241 net.cpp:408] LFCN_2_7x7_LFCN_2_7x7_0_split -> LFCN_2_7x7_LFCN_2_7x7_0_split_2
I0913 19:48:35.537734  1241 net.cpp:150] Setting up LFCN_2_7x7_LFCN_2_7x7_0_split
I0913 19:48:35.537740  1241 net.cpp:157] Top shape: 3 9 48 48 (62208)
I0913 19:48:35.537745  1241 net.cpp:157] Top shape: 3 9 48 48 (62208)
I0913 19:48:35.537750  1241 net.cpp:157] Top shape: 3 9 48 48 (62208)
I0913 19:48:35.537752  1241 net.cpp:165] Memory required for data: 4766795224
I0913 19:48:35.537755  1241 layer_factory.hpp:77] Creating layer detection_loss_2_7x7
I0913 19:48:35.537760  1241 net.cpp:100] Creating Layer detection_loss_2_7x7
I0913 19:48:35.537763  1241 net.cpp:434] detection_loss_2_7x7 <- LFCN_2_7x7_LFCN_2_7x7_0_split_0
I0913 19:48:35.537768  1241 net.cpp:434] detection_loss_2_7x7 <- label_2_7x7_data_4_split_0
I0913 19:48:35.537773  1241 net.cpp:408] detection_loss_2_7x7 -> loss_2_7x7
I0913 19:48:35.537781  1241 layer_factory.hpp:77] Creating layer detection_loss_2_7x7
I0913 19:48:35.538625  1241 net.cpp:150] Setting up detection_loss_2_7x7
I0913 19:48:35.538638  1241 net.cpp:157] Top shape: 1 1 1 2 (2)
I0913 19:48:35.538641  1241 net.cpp:160]     with loss weight 1
I0913 19:48:35.538647  1241 net.cpp:165] Memory required for data: 4766795232
I0913 19:48:35.538650  1241 layer_factory.hpp:77] Creating layer detection_accuracy_2_7x7
I0913 19:48:35.538656  1241 net.cpp:100] Creating Layer detection_accuracy_2_7x7
I0913 19:48:35.538661  1241 net.cpp:434] detection_accuracy_2_7x7 <- LFCN_2_7x7_LFCN_2_7x7_0_split_1
I0913 19:48:35.538664  1241 net.cpp:434] detection_accuracy_2_7x7 <- label_2_7x7_data_4_split_1
I0913 19:48:35.538669  1241 net.cpp:408] detection_accuracy_2_7x7 -> accuracy_2_7x7
I0913 19:48:35.538676  1241 net.cpp:408] detection_accuracy_2_7x7 -> boxiou_2_7x7
I0913 19:48:35.538717  1241 net.cpp:150] Setting up detection_accuracy_2_7x7
I0913 19:48:35.538723  1241 net.cpp:157] Top shape: 1 1 1 2 (2)
I0913 19:48:35.538727  1241 net.cpp:157] Top shape: 1 1 1 1 (1)
I0913 19:48:35.538730  1241 net.cpp:165] Memory required for data: 4766795244
I0913 19:48:35.538733  1241 layer_factory.hpp:77] Creating layer pool5
I0913 19:48:35.538739  1241 net.cpp:100] Creating Layer pool5
I0913 19:48:35.538743  1241 net.cpp:434] pool5 <- conv5_3_relu5_3_0_split_2
I0913 19:48:35.538748  1241 net.cpp:408] pool5 -> pool5
I0913 19:48:35.538781  1241 net.cpp:150] Setting up pool5
I0913 19:48:35.538787  1241 net.cpp:157] Top shape: 3 512 24 24 (884736)
I0913 19:48:35.538790  1241 net.cpp:165] Memory required for data: 4770334188
I0913 19:48:35.538794  1241 layer_factory.hpp:77] Creating layer ch4_pool5
I0913 19:48:35.538799  1241 net.cpp:100] Creating Layer ch4_pool5
I0913 19:48:35.538802  1241 net.cpp:434] ch4_pool5 <- ch4_pool4_ch4_pool4_0_split_1
I0913 19:48:35.538807  1241 net.cpp:408] ch4_pool5 -> ch4_pool5
I0913 19:48:35.538837  1241 net.cpp:150] Setting up ch4_pool5
I0913 19:48:35.538844  1241 net.cpp:157] Top shape: 3 1 24 24 (1728)
I0913 19:48:35.538847  1241 net.cpp:165] Memory required for data: 4770341100
I0913 19:48:35.538851  1241 layer_factory.hpp:77] Creating layer ch4_pool5_ch4_pool5_0_split
I0913 19:48:35.538854  1241 net.cpp:100] Creating Layer ch4_pool5_ch4_pool5_0_split
I0913 19:48:35.538858  1241 net.cpp:434] ch4_pool5_ch4_pool5_0_split <- ch4_pool5
I0913 19:48:35.538862  1241 net.cpp:408] ch4_pool5_ch4_pool5_0_split -> ch4_pool5_ch4_pool5_0_split_0
I0913 19:48:35.538868  1241 net.cpp:408] ch4_pool5_ch4_pool5_0_split -> ch4_pool5_ch4_pool5_0_split_1
I0913 19:48:35.538898  1241 net.cpp:150] Setting up ch4_pool5_ch4_pool5_0_split
I0913 19:48:35.538904  1241 net.cpp:157] Top shape: 3 1 24 24 (1728)
I0913 19:48:35.538908  1241 net.cpp:157] Top shape: 3 1 24 24 (1728)
I0913 19:48:35.538911  1241 net.cpp:165] Memory required for data: 4770354924
I0913 19:48:35.538915  1241 layer_factory.hpp:77] Creating layer pool5_concat
I0913 19:48:35.538919  1241 net.cpp:100] Creating Layer pool5_concat
I0913 19:48:35.538923  1241 net.cpp:434] pool5_concat <- pool5
I0913 19:48:35.538928  1241 net.cpp:434] pool5_concat <- ch4_pool5_ch4_pool5_0_split_0
I0913 19:48:35.538933  1241 net.cpp:408] pool5_concat -> pool5_new
I0913 19:48:35.538952  1241 net.cpp:150] Setting up pool5_concat
I0913 19:48:35.538959  1241 net.cpp:157] Top shape: 3 513 24 24 (886464)
I0913 19:48:35.538961  1241 net.cpp:165] Memory required for data: 4773900780
I0913 19:48:35.538964  1241 layer_factory.hpp:77] Creating layer conv6_1_new
I0913 19:48:35.538972  1241 net.cpp:100] Creating Layer conv6_1_new
I0913 19:48:35.538976  1241 net.cpp:434] conv6_1_new <- pool5_new
I0913 19:48:35.538981  1241 net.cpp:408] conv6_1_new -> conv6_1
I0913 19:48:35.603287  1241 net.cpp:150] Setting up conv6_1_new
I0913 19:48:35.603315  1241 net.cpp:157] Top shape: 3 512 24 24 (884736)
I0913 19:48:35.603320  1241 net.cpp:165] Memory required for data: 4777439724
I0913 19:48:35.603328  1241 layer_factory.hpp:77] Creating layer relu6_1
I0913 19:48:35.603339  1241 net.cpp:100] Creating Layer relu6_1
I0913 19:48:35.603345  1241 net.cpp:434] relu6_1 <- conv6_1
I0913 19:48:35.603351  1241 net.cpp:395] relu6_1 -> conv6_1 (in-place)
I0913 19:48:35.603516  1241 net.cpp:150] Setting up relu6_1
I0913 19:48:35.603525  1241 net.cpp:157] Top shape: 3 512 24 24 (884736)
I0913 19:48:35.603529  1241 net.cpp:165] Memory required for data: 4780978668
I0913 19:48:35.603533  1241 layer_factory.hpp:77] Creating layer conv6_1_relu6_1_0_split
I0913 19:48:35.603540  1241 net.cpp:100] Creating Layer conv6_1_relu6_1_0_split
I0913 19:48:35.603543  1241 net.cpp:434] conv6_1_relu6_1_0_split <- conv6_1
I0913 19:48:35.603549  1241 net.cpp:408] conv6_1_relu6_1_0_split -> conv6_1_relu6_1_0_split_0
I0913 19:48:35.603556  1241 net.cpp:408] conv6_1_relu6_1_0_split -> conv6_1_relu6_1_0_split_1
I0913 19:48:35.603562  1241 net.cpp:408] conv6_1_relu6_1_0_split -> conv6_1_relu6_1_0_split_2
I0913 19:48:35.603610  1241 net.cpp:150] Setting up conv6_1_relu6_1_0_split
I0913 19:48:35.603617  1241 net.cpp:157] Top shape: 3 512 24 24 (884736)
I0913 19:48:35.603621  1241 net.cpp:157] Top shape: 3 512 24 24 (884736)
I0913 19:48:35.603626  1241 net.cpp:157] Top shape: 3 512 24 24 (884736)
I0913 19:48:35.603628  1241 net.cpp:165] Memory required for data: 4791595500
I0913 19:48:35.603631  1241 layer_factory.hpp:77] Creating layer LFCN_3_5x5
I0913 19:48:35.603642  1241 net.cpp:100] Creating Layer LFCN_3_5x5
I0913 19:48:35.603646  1241 net.cpp:434] LFCN_3_5x5 <- conv6_1_relu6_1_0_split_0
I0913 19:48:35.603652  1241 net.cpp:408] LFCN_3_5x5 -> LFCN_3_5x5
I0913 19:48:35.607667  1241 net.cpp:150] Setting up LFCN_3_5x5
I0913 19:48:35.607677  1241 net.cpp:157] Top shape: 3 9 24 24 (15552)
I0913 19:48:35.607681  1241 net.cpp:165] Memory required for data: 4791657708
I0913 19:48:35.607686  1241 layer_factory.hpp:77] Creating layer LFCN_3_5x5_LFCN_3_5x5_0_split
I0913 19:48:35.607692  1241 net.cpp:100] Creating Layer LFCN_3_5x5_LFCN_3_5x5_0_split
I0913 19:48:35.607695  1241 net.cpp:434] LFCN_3_5x5_LFCN_3_5x5_0_split <- LFCN_3_5x5
I0913 19:48:35.607700  1241 net.cpp:408] LFCN_3_5x5_LFCN_3_5x5_0_split -> LFCN_3_5x5_LFCN_3_5x5_0_split_0
I0913 19:48:35.607707  1241 net.cpp:408] LFCN_3_5x5_LFCN_3_5x5_0_split -> LFCN_3_5x5_LFCN_3_5x5_0_split_1
I0913 19:48:35.607712  1241 net.cpp:408] LFCN_3_5x5_LFCN_3_5x5_0_split -> LFCN_3_5x5_LFCN_3_5x5_0_split_2
I0913 19:48:35.607753  1241 net.cpp:150] Setting up LFCN_3_5x5_LFCN_3_5x5_0_split
I0913 19:48:35.607758  1241 net.cpp:157] Top shape: 3 9 24 24 (15552)
I0913 19:48:35.607761  1241 net.cpp:157] Top shape: 3 9 24 24 (15552)
I0913 19:48:35.607765  1241 net.cpp:157] Top shape: 3 9 24 24 (15552)
I0913 19:48:35.607769  1241 net.cpp:165] Memory required for data: 4791844332
I0913 19:48:35.607770  1241 layer_factory.hpp:77] Creating layer detection_loss_3_5x5
I0913 19:48:35.607777  1241 net.cpp:100] Creating Layer detection_loss_3_5x5
I0913 19:48:35.607780  1241 net.cpp:434] detection_loss_3_5x5 <- LFCN_3_5x5_LFCN_3_5x5_0_split_0
I0913 19:48:35.607784  1241 net.cpp:434] detection_loss_3_5x5 <- label_3_5x5_data_5_split_0
I0913 19:48:35.607790  1241 net.cpp:408] detection_loss_3_5x5 -> loss_3_5x5
I0913 19:48:35.607796  1241 layer_factory.hpp:77] Creating layer detection_loss_3_5x5
I0913 19:48:35.608125  1241 net.cpp:150] Setting up detection_loss_3_5x5
I0913 19:48:35.608135  1241 net.cpp:157] Top shape: 1 1 1 2 (2)
I0913 19:48:35.608139  1241 net.cpp:160]     with loss weight 1
I0913 19:48:35.608150  1241 net.cpp:165] Memory required for data: 4791844340
I0913 19:48:35.608152  1241 layer_factory.hpp:77] Creating layer detection_accuracy_3_5x5
I0913 19:48:35.608160  1241 net.cpp:100] Creating Layer detection_accuracy_3_5x5
I0913 19:48:35.608162  1241 net.cpp:434] detection_accuracy_3_5x5 <- LFCN_3_5x5_LFCN_3_5x5_0_split_1
I0913 19:48:35.608167  1241 net.cpp:434] detection_accuracy_3_5x5 <- label_3_5x5_data_5_split_1
I0913 19:48:35.608173  1241 net.cpp:408] detection_accuracy_3_5x5 -> accuracy_3_5x5
I0913 19:48:35.608180  1241 net.cpp:408] detection_accuracy_3_5x5 -> boxiou_3_5x5
I0913 19:48:35.608214  1241 net.cpp:150] Setting up detection_accuracy_3_5x5
I0913 19:48:35.608222  1241 net.cpp:157] Top shape: 1 1 1 2 (2)
I0913 19:48:35.608225  1241 net.cpp:157] Top shape: 1 1 1 1 (1)
I0913 19:48:35.608228  1241 net.cpp:165] Memory required for data: 4791844352
I0913 19:48:35.608232  1241 layer_factory.hpp:77] Creating layer LFCN_3_7x7
I0913 19:48:35.608240  1241 net.cpp:100] Creating Layer LFCN_3_7x7
I0913 19:48:35.608244  1241 net.cpp:434] LFCN_3_7x7 <- conv6_1_relu6_1_0_split_1
I0913 19:48:35.608249  1241 net.cpp:408] LFCN_3_7x7 -> LFCN_3_7x7
I0913 19:48:35.615739  1241 net.cpp:150] Setting up LFCN_3_7x7
I0913 19:48:35.615761  1241 net.cpp:157] Top shape: 3 9 24 24 (15552)
I0913 19:48:35.615764  1241 net.cpp:165] Memory required for data: 4791906560
I0913 19:48:35.615772  1241 layer_factory.hpp:77] Creating layer LFCN_3_7x7_LFCN_3_7x7_0_split
I0913 19:48:35.615780  1241 net.cpp:100] Creating Layer LFCN_3_7x7_LFCN_3_7x7_0_split
I0913 19:48:35.615787  1241 net.cpp:434] LFCN_3_7x7_LFCN_3_7x7_0_split <- LFCN_3_7x7
I0913 19:48:35.615794  1241 net.cpp:408] LFCN_3_7x7_LFCN_3_7x7_0_split -> LFCN_3_7x7_LFCN_3_7x7_0_split_0
I0913 19:48:35.615803  1241 net.cpp:408] LFCN_3_7x7_LFCN_3_7x7_0_split -> LFCN_3_7x7_LFCN_3_7x7_0_split_1
I0913 19:48:35.615808  1241 net.cpp:408] LFCN_3_7x7_LFCN_3_7x7_0_split -> LFCN_3_7x7_LFCN_3_7x7_0_split_2
I0913 19:48:35.615859  1241 net.cpp:150] Setting up LFCN_3_7x7_LFCN_3_7x7_0_split
I0913 19:48:35.615865  1241 net.cpp:157] Top shape: 3 9 24 24 (15552)
I0913 19:48:35.615869  1241 net.cpp:157] Top shape: 3 9 24 24 (15552)
I0913 19:48:35.615873  1241 net.cpp:157] Top shape: 3 9 24 24 (15552)
I0913 19:48:35.615876  1241 net.cpp:165] Memory required for data: 4792093184
I0913 19:48:35.615880  1241 layer_factory.hpp:77] Creating layer detection_loss_3_7x7
I0913 19:48:35.615885  1241 net.cpp:100] Creating Layer detection_loss_3_7x7
I0913 19:48:35.615888  1241 net.cpp:434] detection_loss_3_7x7 <- LFCN_3_7x7_LFCN_3_7x7_0_split_0
I0913 19:48:35.615895  1241 net.cpp:434] detection_loss_3_7x7 <- label_3_7x7_data_6_split_0
I0913 19:48:35.615900  1241 net.cpp:408] detection_loss_3_7x7 -> loss_3_7x7
I0913 19:48:35.615909  1241 layer_factory.hpp:77] Creating layer detection_loss_3_7x7
I0913 19:48:35.616223  1241 net.cpp:150] Setting up detection_loss_3_7x7
I0913 19:48:35.616232  1241 net.cpp:157] Top shape: 1 1 1 2 (2)
I0913 19:48:35.616235  1241 net.cpp:160]     with loss weight 1
I0913 19:48:35.616245  1241 net.cpp:165] Memory required for data: 4792093192
I0913 19:48:35.616247  1241 layer_factory.hpp:77] Creating layer detection_accuracy_3_7x7
I0913 19:48:35.616255  1241 net.cpp:100] Creating Layer detection_accuracy_3_7x7
I0913 19:48:35.616258  1241 net.cpp:434] detection_accuracy_3_7x7 <- LFCN_3_7x7_LFCN_3_7x7_0_split_1
I0913 19:48:35.616263  1241 net.cpp:434] detection_accuracy_3_7x7 <- label_3_7x7_data_6_split_1
I0913 19:48:35.616268  1241 net.cpp:408] detection_accuracy_3_7x7 -> accuracy_3_7x7
I0913 19:48:35.616276  1241 net.cpp:408] detection_accuracy_3_7x7 -> boxiou_3_7x7
I0913 19:48:35.616312  1241 net.cpp:150] Setting up detection_accuracy_3_7x7
I0913 19:48:35.616318  1241 net.cpp:157] Top shape: 1 1 1 2 (2)
I0913 19:48:35.616322  1241 net.cpp:157] Top shape: 1 1 1 1 (1)
I0913 19:48:35.616325  1241 net.cpp:165] Memory required for data: 4792093204
I0913 19:48:35.616328  1241 layer_factory.hpp:77] Creating layer pool6
I0913 19:48:35.616335  1241 net.cpp:100] Creating Layer pool6
I0913 19:48:35.616339  1241 net.cpp:434] pool6 <- conv6_1_relu6_1_0_split_2
I0913 19:48:35.616344  1241 net.cpp:408] pool6 -> pool6
I0913 19:48:35.616379  1241 net.cpp:150] Setting up pool6
I0913 19:48:35.616385  1241 net.cpp:157] Top shape: 3 512 12 12 (221184)
I0913 19:48:35.616389  1241 net.cpp:165] Memory required for data: 4792977940
I0913 19:48:35.616391  1241 layer_factory.hpp:77] Creating layer ch4_pool6
I0913 19:48:35.616396  1241 net.cpp:100] Creating Layer ch4_pool6
I0913 19:48:35.616400  1241 net.cpp:434] ch4_pool6 <- ch4_pool5_ch4_pool5_0_split_1
I0913 19:48:35.616405  1241 net.cpp:408] ch4_pool6 -> ch4_pool6
I0913 19:48:35.616437  1241 net.cpp:150] Setting up ch4_pool6
I0913 19:48:35.616443  1241 net.cpp:157] Top shape: 3 1 12 12 (432)
I0913 19:48:35.616446  1241 net.cpp:165] Memory required for data: 4792979668
I0913 19:48:35.616451  1241 layer_factory.hpp:77] Creating layer pool6_concat
I0913 19:48:35.616454  1241 net.cpp:100] Creating Layer pool6_concat
I0913 19:48:35.616458  1241 net.cpp:434] pool6_concat <- pool6
I0913 19:48:35.616462  1241 net.cpp:434] pool6_concat <- ch4_pool6
I0913 19:48:35.616469  1241 net.cpp:408] pool6_concat -> pool6_new
I0913 19:48:35.616489  1241 net.cpp:150] Setting up pool6_concat
I0913 19:48:35.616494  1241 net.cpp:157] Top shape: 3 513 12 12 (221616)
I0913 19:48:35.616497  1241 net.cpp:165] Memory required for data: 4793866132
I0913 19:48:35.616500  1241 layer_factory.hpp:77] Creating layer LFCN_4_5x5_new
I0913 19:48:35.616508  1241 net.cpp:100] Creating Layer LFCN_4_5x5_new
I0913 19:48:35.616511  1241 net.cpp:434] LFCN_4_5x5_new <- pool6_new
I0913 19:48:35.616518  1241 net.cpp:408] LFCN_4_5x5_new -> LFCN_4_5x5
I0913 19:48:35.619382  1241 net.cpp:150] Setting up LFCN_4_5x5_new
I0913 19:48:35.619411  1241 net.cpp:157] Top shape: 3 9 12 12 (3888)
I0913 19:48:35.619415  1241 net.cpp:165] Memory required for data: 4793881684
I0913 19:48:35.619424  1241 layer_factory.hpp:77] Creating layer LFCN_4_5x5_LFCN_4_5x5_new_0_split
I0913 19:48:35.619436  1241 net.cpp:100] Creating Layer LFCN_4_5x5_LFCN_4_5x5_new_0_split
I0913 19:48:35.619442  1241 net.cpp:434] LFCN_4_5x5_LFCN_4_5x5_new_0_split <- LFCN_4_5x5
I0913 19:48:35.619449  1241 net.cpp:408] LFCN_4_5x5_LFCN_4_5x5_new_0_split -> LFCN_4_5x5_LFCN_4_5x5_new_0_split_0
I0913 19:48:35.619457  1241 net.cpp:408] LFCN_4_5x5_LFCN_4_5x5_new_0_split -> LFCN_4_5x5_LFCN_4_5x5_new_0_split_1
I0913 19:48:35.619463  1241 net.cpp:408] LFCN_4_5x5_LFCN_4_5x5_new_0_split -> LFCN_4_5x5_LFCN_4_5x5_new_0_split_2
I0913 19:48:35.619535  1241 net.cpp:150] Setting up LFCN_4_5x5_LFCN_4_5x5_new_0_split
I0913 19:48:35.619542  1241 net.cpp:157] Top shape: 3 9 12 12 (3888)
I0913 19:48:35.619547  1241 net.cpp:157] Top shape: 3 9 12 12 (3888)
I0913 19:48:35.619551  1241 net.cpp:157] Top shape: 3 9 12 12 (3888)
I0913 19:48:35.619554  1241 net.cpp:165] Memory required for data: 4793928340
I0913 19:48:35.619559  1241 layer_factory.hpp:77] Creating layer detection_loss_4_5x5
I0913 19:48:35.619566  1241 net.cpp:100] Creating Layer detection_loss_4_5x5
I0913 19:48:35.619570  1241 net.cpp:434] detection_loss_4_5x5 <- LFCN_4_5x5_LFCN_4_5x5_new_0_split_0
I0913 19:48:35.619576  1241 net.cpp:434] detection_loss_4_5x5 <- label_4_5x5_data_7_split_0
I0913 19:48:35.619582  1241 net.cpp:408] detection_loss_4_5x5 -> loss_4_5x5
I0913 19:48:35.619590  1241 layer_factory.hpp:77] Creating layer detection_loss_4_5x5
I0913 19:48:35.619899  1241 net.cpp:150] Setting up detection_loss_4_5x5
I0913 19:48:35.619909  1241 net.cpp:157] Top shape: 1 1 1 2 (2)
I0913 19:48:35.619912  1241 net.cpp:160]     with loss weight 1
I0913 19:48:35.619922  1241 net.cpp:165] Memory required for data: 4793928348
I0913 19:48:35.619926  1241 layer_factory.hpp:77] Creating layer detection_accuracy_4_5x5
I0913 19:48:35.619932  1241 net.cpp:100] Creating Layer detection_accuracy_4_5x5
I0913 19:48:35.619936  1241 net.cpp:434] detection_accuracy_4_5x5 <- LFCN_4_5x5_LFCN_4_5x5_new_0_split_1
I0913 19:48:35.619941  1241 net.cpp:434] detection_accuracy_4_5x5 <- label_4_5x5_data_7_split_1
I0913 19:48:35.619948  1241 net.cpp:408] detection_accuracy_4_5x5 -> accuracy_4_5x5
I0913 19:48:35.619956  1241 net.cpp:408] detection_accuracy_4_5x5 -> boxiou_4_5x5
I0913 19:48:35.619992  1241 net.cpp:150] Setting up detection_accuracy_4_5x5
I0913 19:48:35.619998  1241 net.cpp:157] Top shape: 1 1 1 2 (2)
I0913 19:48:35.620002  1241 net.cpp:157] Top shape: 1 1 1 1 (1)
I0913 19:48:35.620005  1241 net.cpp:165] Memory required for data: 4793928360
I0913 19:48:35.620008  1241 layer_factory.hpp:77] Creating layer proposals
I0913 19:48:35.620016  1241 net.cpp:100] Creating Layer proposals
I0913 19:48:35.620020  1241 net.cpp:434] proposals <- LFCN_1_5x5_LFCN_1_5x5_0_split_2
I0913 19:48:35.620026  1241 net.cpp:434] proposals <- LFCN_1_7x7_LFCN_1_7x7_0_split_2
I0913 19:48:35.620030  1241 net.cpp:434] proposals <- LFCN_2_5x5_LFCN_2_5x5_0_split_2
I0913 19:48:35.620035  1241 net.cpp:434] proposals <- LFCN_2_7x7_LFCN_2_7x7_0_split_2
I0913 19:48:35.620039  1241 net.cpp:434] proposals <- LFCN_3_5x5_LFCN_3_5x5_0_split_2
I0913 19:48:35.620043  1241 net.cpp:434] proposals <- LFCN_3_7x7_LFCN_3_7x7_0_split_2
I0913 19:48:35.620048  1241 net.cpp:434] proposals <- LFCN_4_5x5_LFCN_4_5x5_new_0_split_2
I0913 19:48:35.620054  1241 net.cpp:408] proposals -> proposals
I0913 19:48:35.620090  1241 net.cpp:150] Setting up proposals
I0913 19:48:35.620097  1241 net.cpp:157] Top shape: 1 5 1 1 (5)
I0913 19:48:35.620100  1241 net.cpp:165] Memory required for data: 4793928380
I0913 19:48:35.620103  1241 layer_factory.hpp:77] Creating layer proposal_info
I0913 19:48:35.620113  1241 net.cpp:100] Creating Layer proposal_info
I0913 19:48:35.620117  1241 net.cpp:434] proposal_info <- proposals
I0913 19:48:35.620122  1241 net.cpp:434] proposal_info <- gt_boxes
I0913 19:48:35.620127  1241 net.cpp:408] proposal_info -> rois
I0913 19:48:35.620137  1241 net.cpp:408] proposal_info -> proposal_labels
I0913 19:48:35.620144  1241 net.cpp:408] proposal_info -> proposal_targets
I0913 19:48:35.620151  1241 net.cpp:408] proposal_info -> box_inside_weights
I0913 19:48:35.620157  1241 net.cpp:408] proposal_info -> box_outside_weights
I0913 19:48:35.620162  1241 net.cpp:408] proposal_info -> match_gt_boxes
I0913 19:48:35.620247  1241 net.cpp:150] Setting up proposal_info
I0913 19:48:35.620254  1241 net.cpp:157] Top shape: 256 5 1 1 (1280)
I0913 19:48:35.620260  1241 net.cpp:157] Top shape: 256 1 1 1 (256)
I0913 19:48:35.620263  1241 net.cpp:157] Top shape: 256 20 1 1 (5120)
I0913 19:48:35.620267  1241 net.cpp:157] Top shape: 256 20 1 1 (5120)
I0913 19:48:35.620271  1241 net.cpp:157] Top shape: 256 20 1 1 (5120)
I0913 19:48:35.620275  1241 net.cpp:157] Top shape: 256 6 1 1 (1536)
I0913 19:48:35.620280  1241 net.cpp:165] Memory required for data: 4794002108
I0913 19:48:35.620282  1241 layer_factory.hpp:77] Creating layer rois_proposal_info_0_split
I0913 19:48:35.620288  1241 net.cpp:100] Creating Layer rois_proposal_info_0_split
I0913 19:48:35.620291  1241 net.cpp:434] rois_proposal_info_0_split <- rois
I0913 19:48:35.620296  1241 net.cpp:408] rois_proposal_info_0_split -> rois_proposal_info_0_split_0
I0913 19:48:35.620301  1241 net.cpp:408] rois_proposal_info_0_split -> rois_proposal_info_0_split_1
I0913 19:48:35.620306  1241 net.cpp:408] rois_proposal_info_0_split -> rois_proposal_info_0_split_2
I0913 19:48:35.620348  1241 net.cpp:150] Setting up rois_proposal_info_0_split
I0913 19:48:35.620355  1241 net.cpp:157] Top shape: 256 5 1 1 (1280)
I0913 19:48:35.620360  1241 net.cpp:157] Top shape: 256 5 1 1 (1280)
I0913 19:48:35.620364  1241 net.cpp:157] Top shape: 256 5 1 1 (1280)
I0913 19:48:35.620368  1241 net.cpp:165] Memory required for data: 4794017468
I0913 19:48:35.620371  1241 layer_factory.hpp:77] Creating layer proposal_labels_proposal_info_1_split
I0913 19:48:35.620378  1241 net.cpp:100] Creating Layer proposal_labels_proposal_info_1_split
I0913 19:48:35.620381  1241 net.cpp:434] proposal_labels_proposal_info_1_split <- proposal_labels
I0913 19:48:35.620385  1241 net.cpp:408] proposal_labels_proposal_info_1_split -> proposal_labels_proposal_info_1_split_0
I0913 19:48:35.620391  1241 net.cpp:408] proposal_labels_proposal_info_1_split -> proposal_labels_proposal_info_1_split_1
I0913 19:48:35.620422  1241 net.cpp:150] Setting up proposal_labels_proposal_info_1_split
I0913 19:48:35.620429  1241 net.cpp:157] Top shape: 256 1 1 1 (256)
I0913 19:48:35.620434  1241 net.cpp:157] Top shape: 256 1 1 1 (256)
I0913 19:48:35.620437  1241 net.cpp:165] Memory required for data: 4794019516
I0913 19:48:35.620441  1241 layer_factory.hpp:77] Creating layer conv4_3_2x
I0913 19:48:35.620448  1241 net.cpp:100] Creating Layer conv4_3_2x
I0913 19:48:35.620452  1241 net.cpp:434] conv4_3_2x <- conv4_3_relu4_3_0_split_2
I0913 19:48:35.620457  1241 net.cpp:408] conv4_3_2x -> conv4_3_2x
I0913 19:48:35.620937  1241 net.cpp:150] Setting up conv4_3_2x
I0913 19:48:35.620945  1241 net.cpp:157] Top shape: 3 512 192 192 (56623104)
I0913 19:48:35.620949  1241 net.cpp:165] Memory required for data: 5020511932
I0913 19:48:35.620954  1241 layer_factory.hpp:77] Creating layer conv4_3_2x_conv4_3_2x_0_split
I0913 19:48:35.620959  1241 net.cpp:100] Creating Layer conv4_3_2x_conv4_3_2x_0_split
I0913 19:48:35.620963  1241 net.cpp:434] conv4_3_2x_conv4_3_2x_0_split <- conv4_3_2x
I0913 19:48:35.620967  1241 net.cpp:408] conv4_3_2x_conv4_3_2x_0_split -> conv4_3_2x_conv4_3_2x_0_split_0
I0913 19:48:35.620973  1241 net.cpp:408] conv4_3_2x_conv4_3_2x_0_split -> conv4_3_2x_conv4_3_2x_0_split_1
I0913 19:48:35.621006  1241 net.cpp:150] Setting up conv4_3_2x_conv4_3_2x_0_split
I0913 19:48:35.621012  1241 net.cpp:157] Top shape: 3 512 192 192 (56623104)
I0913 19:48:35.621017  1241 net.cpp:157] Top shape: 3 512 192 192 (56623104)
I0913 19:48:35.621021  1241 net.cpp:165] Memory required for data: 5473496764
I0913 19:48:35.621024  1241 layer_factory.hpp:77] Creating layer roi_pool_org
I0913 19:48:35.621031  1241 net.cpp:100] Creating Layer roi_pool_org
I0913 19:48:35.621034  1241 net.cpp:434] roi_pool_org <- conv4_3_2x_conv4_3_2x_0_split_0
I0913 19:48:35.621039  1241 net.cpp:434] roi_pool_org <- rois_proposal_info_0_split_0
I0913 19:48:35.621043  1241 net.cpp:408] roi_pool_org -> roi_pool_org
I0913 19:48:35.621052  1241 roi_pooling_layer.cpp:33] Spatial scale: 0.25
I0913 19:48:35.621088  1241 net.cpp:150] Setting up roi_pool_org
I0913 19:48:35.621093  1241 net.cpp:157] Top shape: 256 512 7 7 (6422528)
I0913 19:48:35.621098  1241 net.cpp:165] Memory required for data: 5499186876
I0913 19:48:35.621101  1241 layer_factory.hpp:77] Creating layer roi_pool_ctx
I0913 19:48:35.621105  1241 net.cpp:100] Creating Layer roi_pool_ctx
I0913 19:48:35.621109  1241 net.cpp:434] roi_pool_ctx <- conv4_3_2x_conv4_3_2x_0_split_1
I0913 19:48:35.621114  1241 net.cpp:434] roi_pool_ctx <- rois_proposal_info_0_split_1
I0913 19:48:35.621119  1241 net.cpp:408] roi_pool_ctx -> roi_pool_ctx
I0913 19:48:35.621124  1241 roi_pooling_layer.cpp:33] Spatial scale: 0.25
I0913 19:48:35.621158  1241 net.cpp:150] Setting up roi_pool_ctx
I0913 19:48:35.621165  1241 net.cpp:157] Top shape: 256 512 7 7 (6422528)
I0913 19:48:35.621168  1241 net.cpp:165] Memory required for data: 5524876988
I0913 19:48:35.621171  1241 layer_factory.hpp:77] Creating layer roi_pool
I0913 19:48:35.621177  1241 net.cpp:100] Creating Layer roi_pool
I0913 19:48:35.621181  1241 net.cpp:434] roi_pool <- roi_pool_org
I0913 19:48:35.621186  1241 net.cpp:434] roi_pool <- roi_pool_ctx
I0913 19:48:35.621191  1241 net.cpp:408] roi_pool -> roi_pool
I0913 19:48:35.621212  1241 net.cpp:150] Setting up roi_pool
I0913 19:48:35.621217  1241 net.cpp:157] Top shape: 256 1024 7 7 (12845056)
I0913 19:48:35.621222  1241 net.cpp:165] Memory required for data: 5576257212
I0913 19:48:35.621225  1241 layer_factory.hpp:77] Creating layer roi_c1
I0913 19:48:35.621234  1241 net.cpp:100] Creating Layer roi_c1
I0913 19:48:35.621238  1241 net.cpp:434] roi_c1 <- roi_pool
I0913 19:48:35.621244  1241 net.cpp:408] roi_c1 -> roi_c1
I0913 19:48:35.744983  1241 net.cpp:150] Setting up roi_c1
I0913 19:48:35.745010  1241 net.cpp:157] Top shape: 256 512 5 5 (3276800)
I0913 19:48:35.745014  1241 net.cpp:165] Memory required for data: 5589364412
I0913 19:48:35.745021  1241 layer_factory.hpp:77] Creating layer roi_c1_relu
I0913 19:48:35.745033  1241 net.cpp:100] Creating Layer roi_c1_relu
I0913 19:48:35.745038  1241 net.cpp:434] roi_c1_relu <- roi_c1
I0913 19:48:35.745043  1241 net.cpp:395] roi_c1_relu -> roi_c1 (in-place)
I0913 19:48:35.745494  1241 net.cpp:150] Setting up roi_c1_relu
I0913 19:48:35.745507  1241 net.cpp:157] Top shape: 256 512 5 5 (3276800)
I0913 19:48:35.745510  1241 net.cpp:165] Memory required for data: 5602471612
I0913 19:48:35.745513  1241 layer_factory.hpp:77] Creating layer fc6
I0913 19:48:35.745522  1241 net.cpp:100] Creating Layer fc6
I0913 19:48:35.745527  1241 net.cpp:434] fc6 <- roi_c1
I0913 19:48:35.745533  1241 net.cpp:408] fc6 -> fc6
I0913 19:48:36.995661  1241 net.cpp:150] Setting up fc6
I0913 19:48:36.995694  1241 net.cpp:157] Top shape: 256 4096 (1048576)
I0913 19:48:36.995699  1241 net.cpp:165] Memory required for data: 5606665916
I0913 19:48:36.995709  1241 layer_factory.hpp:77] Creating layer relu6
I0913 19:48:36.995723  1241 net.cpp:100] Creating Layer relu6
I0913 19:48:36.995729  1241 net.cpp:434] relu6 <- fc6
I0913 19:48:36.995735  1241 net.cpp:395] relu6 -> fc6 (in-place)
I0913 19:48:36.995967  1241 net.cpp:150] Setting up relu6
I0913 19:48:36.995976  1241 net.cpp:157] Top shape: 256 4096 (1048576)
I0913 19:48:36.995980  1241 net.cpp:165] Memory required for data: 5610860220
I0913 19:48:36.995983  1241 layer_factory.hpp:77] Creating layer drop6
I0913 19:48:36.995999  1241 net.cpp:100] Creating Layer drop6
I0913 19:48:36.996002  1241 net.cpp:434] drop6 <- fc6
I0913 19:48:36.996007  1241 net.cpp:395] drop6 -> fc6 (in-place)
I0913 19:48:36.996031  1241 net.cpp:150] Setting up drop6
I0913 19:48:36.996037  1241 net.cpp:157] Top shape: 256 4096 (1048576)
I0913 19:48:36.996040  1241 net.cpp:165] Memory required for data: 5615054524
I0913 19:48:36.996043  1241 layer_factory.hpp:77] Creating layer fc6_drop6_0_split
I0913 19:48:36.996049  1241 net.cpp:100] Creating Layer fc6_drop6_0_split
I0913 19:48:36.996053  1241 net.cpp:434] fc6_drop6_0_split <- fc6
I0913 19:48:36.996058  1241 net.cpp:408] fc6_drop6_0_split -> fc6_drop6_0_split_0
I0913 19:48:36.996065  1241 net.cpp:408] fc6_drop6_0_split -> fc6_drop6_0_split_1
I0913 19:48:36.996101  1241 net.cpp:150] Setting up fc6_drop6_0_split
I0913 19:48:36.996107  1241 net.cpp:157] Top shape: 256 4096 (1048576)
I0913 19:48:36.996111  1241 net.cpp:157] Top shape: 256 4096 (1048576)
I0913 19:48:36.996114  1241 net.cpp:165] Memory required for data: 5623443132
I0913 19:48:36.996117  1241 layer_factory.hpp:77] Creating layer cls_pred
I0913 19:48:36.996125  1241 net.cpp:100] Creating Layer cls_pred
I0913 19:48:36.996129  1241 net.cpp:434] cls_pred <- fc6_drop6_0_split_0
I0913 19:48:36.996135  1241 net.cpp:408] cls_pred -> cls_pred
I0913 19:48:36.996754  1241 net.cpp:150] Setting up cls_pred
I0913 19:48:36.996773  1241 net.cpp:157] Top shape: 256 5 (1280)
I0913 19:48:36.996775  1241 net.cpp:165] Memory required for data: 5623448252
I0913 19:48:36.996783  1241 layer_factory.hpp:77] Creating layer cls_pred_cls_pred_0_split
I0913 19:48:36.996788  1241 net.cpp:100] Creating Layer cls_pred_cls_pred_0_split
I0913 19:48:36.996793  1241 net.cpp:434] cls_pred_cls_pred_0_split <- cls_pred
I0913 19:48:36.996798  1241 net.cpp:408] cls_pred_cls_pred_0_split -> cls_pred_cls_pred_0_split_0
I0913 19:48:36.996803  1241 net.cpp:408] cls_pred_cls_pred_0_split -> cls_pred_cls_pred_0_split_1
I0913 19:48:36.996832  1241 net.cpp:150] Setting up cls_pred_cls_pred_0_split
I0913 19:48:36.996839  1241 net.cpp:157] Top shape: 256 5 (1280)
I0913 19:48:36.996842  1241 net.cpp:157] Top shape: 256 5 (1280)
I0913 19:48:36.996845  1241 net.cpp:165] Memory required for data: 5623458492
I0913 19:48:36.996850  1241 layer_factory.hpp:77] Creating layer bbox_pred
I0913 19:48:36.996855  1241 net.cpp:100] Creating Layer bbox_pred
I0913 19:48:36.996860  1241 net.cpp:434] bbox_pred <- fc6_drop6_0_split_1
I0913 19:48:36.996865  1241 net.cpp:408] bbox_pred -> bbox_pred
I0913 19:48:36.999126  1241 net.cpp:150] Setting up bbox_pred
I0913 19:48:36.999135  1241 net.cpp:157] Top shape: 256 20 (5120)
I0913 19:48:36.999138  1241 net.cpp:165] Memory required for data: 5623478972
I0913 19:48:36.999143  1241 layer_factory.hpp:77] Creating layer bbox_pred_bbox_pred_0_split
I0913 19:48:36.999147  1241 net.cpp:100] Creating Layer bbox_pred_bbox_pred_0_split
I0913 19:48:36.999151  1241 net.cpp:434] bbox_pred_bbox_pred_0_split <- bbox_pred
I0913 19:48:36.999156  1241 net.cpp:408] bbox_pred_bbox_pred_0_split -> bbox_pred_bbox_pred_0_split_0
I0913 19:48:36.999162  1241 net.cpp:408] bbox_pred_bbox_pred_0_split -> bbox_pred_bbox_pred_0_split_1
I0913 19:48:36.999191  1241 net.cpp:150] Setting up bbox_pred_bbox_pred_0_split
I0913 19:48:36.999195  1241 net.cpp:157] Top shape: 256 20 (5120)
I0913 19:48:36.999199  1241 net.cpp:157] Top shape: 256 20 (5120)
I0913 19:48:36.999202  1241 net.cpp:165] Memory required for data: 5623519932
I0913 19:48:36.999205  1241 layer_factory.hpp:77] Creating layer loss_cls
I0913 19:48:36.999212  1241 net.cpp:100] Creating Layer loss_cls
I0913 19:48:36.999215  1241 net.cpp:434] loss_cls <- cls_pred_cls_pred_0_split_0
I0913 19:48:36.999220  1241 net.cpp:434] loss_cls <- proposal_labels_proposal_info_1_split_0
…
I0913 19:48:37.012470  1241 image_gt_data_layer.cpp:235] output label size 2 : 2,6,48,48
I0913 19:48:37.012518  1241 image_gt_data_layer.cpp:235] output label size 3 : 2,6,48,48
I0913 19:48:37.012567  1241 image_gt_data_layer.cpp:235] output label size 4 : 2,6,24,24
I0913 19:48:37.012614  1241 image_gt_data_layer.cpp:235] output label size 5 : 2,6,24,24
I0913 19:48:37.012660  1241 image_gt_data_layer.cpp:235] output label size 6 : 2,6,12,12
I0913 19:48:37.012706  1241 image_gt_data_layer.cpp:250] output gt boxes size: 1,7,1,1
I0913 19:48:37.047916  1241 net.cpp:150] Setting up data
I0913 19:48:37.047957  1241 net.cpp:157] Top shape: 2 4 768 768 (4718592)
I0913 19:48:37.047964  1241 net.cpp:157] Top shape: 2 6 96 96 (110592)
I0913 19:48:37.047969  1241 net.cpp:157] Top shape: 2 6 96 96 (110592)
I0913 19:48:37.047974  1241 net.cpp:157] Top shape: 2 6 48 48 (27648)
I0913 19:48:37.047979  1241 net.cpp:157] Top shape: 2 6 48 48 (27648)
I0913 19:48:37.047983  1241 net.cpp:157] Top shape: 2 6 24 24 (6912)
I0913 19:48:37.047987  1241 net.cpp:157] Top shape: 2 6 24 24 (6912)
I0913 19:48:37.047992  1241 net.cpp:157] Top shape: 2 6 12 12 (1728)
I0913 19:48:37.047996  1241 net.cpp:157] Top shape: 1 7 1 1 (7)
I0913 19:48:37.048000  1241 net.cpp:165] Memory required for data: 20042524
I0913 19:48:37.048009  1241 layer_factory.hpp:77] Creating layer label_1_5x5_data_1_split
I0913 19:48:37.048033  1241 net.cpp:100] Creating Layer label_1_5x5_data_1_split
I0913 19:48:37.048039  1241 net.cpp:434] label_1_5x5_data_1_split <- label_1_5x5
I0913 19:48:37.048048  1241 net.cpp:408] label_1_5x5_data_1_split -> label_1_5x5_data_1_split_0
I0913 19:48:37.048060  1241 net.cpp:408] label_1_5x5_data_1_split -> label_1_5x5_data_1_split_1
I0913 19:48:37.048195  1241 net.cpp:150] Setting up label_1_5x5_data_1_split
I0913 19:48:37.048202  1241 net.cpp:157] Top shape: 2 6 96 96 (110592)
I0913 19:48:37.048205  1241 net.cpp:157] Top shape: 2 6 96 96 (110592)
I0913 19:48:37.048208  1241 net.cpp:165] Memory required for data: 20927260
I0913 19:48:37.048213  1241 layer_factory.hpp:77] Creating layer label_1_7x7_data_2_split
I0913 19:48:37.048218  1241 net.cpp:100] Creating Layer label_1_7x7_data_2_split
I0913 19:48:37.048221  1241 net.cpp:434] label_1_7x7_data_2_split <- label_1_7x7
I0913 19:48:37.048228  1241 net.cpp:408] label_1_7x7_data_2_split -> label_1_7x7_data_2_split_0
I0913 19:48:37.048233  1241 net.cpp:408] label_1_7x7_data_2_split -> label_1_7x7_data_2_split_1
I0913 19:48:37.048272  1241 net.cpp:150] Setting up label_1_7x7_data_2_split
I0913 19:48:37.048277  1241 net.cpp:157] Top shape: 2 6 96 96 (110592)
I0913 19:48:37.048281  1241 net.cpp:157] Top shape: 2 6 96 96 (110592)
I0913 19:48:37.048285  1241 net.cpp:165] Memory required for data: 21811996
I0913 19:48:37.048288  1241 layer_factory.hpp:77] Creating layer label_2_5x5_data_3_split
I0913 19:48:37.048295  1241 net.cpp:100] Creating Layer label_2_5x5_data_3_split
I0913 19:48:37.048298  1241 net.cpp:434] label_2_5x5_data_3_split <- label_2_5x5
I0913 19:48:37.048305  1241 net.cpp:408] label_2_5x5_data_3_split -> label_2_5x5_data_3_split_0
I0913 19:48:37.048310  1241 net.cpp:408] label_2_5x5_data_3_split -> label_2_5x5_data_3_split_1
I0913 19:48:37.048365  1241 net.cpp:150] Setting up label_2_5x5_data_3_split
I0913 19:48:37.048372  1241 net.cpp:157] Top shape: 2 6 48 48 (27648)
I0913 19:48:37.048377  1241 net.cpp:157] Top shape: 2 6 48 48 (27648)
I0913 19:48:37.048380  1241 net.cpp:165] Memory required for data: 22033180
I0913 19:48:37.048383  1241 layer_factory.hpp:77] Creating layer label_2_7x7_data_4_split
I0913 19:48:37.048390  1241 net.cpp:100] Creating Layer label_2_7x7_data_4_split
I0913 19:48:37.048393  1241 net.cpp:434] label_2_7x7_data_4_split <- label_2_7x7
I0913 19:48:37.048398  1241 net.cpp:408] label_2_7x7_data_4_split -> label_2_7x7_data_4_split_0
I0913 19:48:37.048403  1241 net.cpp:408] label_2_7x7_data_4_split -> label_2_7x7_data_4_split_1
I0913 19:48:37.048444  1241 net.cpp:150] Setting up label_2_7x7_data_4_split
I0913 19:48:37.048449  1241 net.cpp:157] Top shape: 2 6 48 48 (27648)
I0913 19:48:37.048452  1241 net.cpp:157] Top shape: 2 6 48 48 (27648)
I0913 19:48:37.048455  1241 net.cpp:165] Memory required for data: 22254364
I0913 19:48:37.048460  1241 layer_factory.hpp:77] Creating layer label_3_5x5_data_5_split
I0913 19:48:37.048465  1241 net.cpp:100] Creating Layer label_3_5x5_data_5_split
I0913 19:48:37.048468  1241 net.cpp:434] label_3_5x5_data_5_split <- label_3_5x5
I0913 19:48:37.048472  1241 net.cpp:408] label_3_5x5_data_5_split -> label_3_5x5_data_5_split_0
I0913 19:48:37.048477  1241 net.cpp:408] label_3_5x5_data_5_split -> label_3_5x5_data_5_split_1
I0913 19:48:37.048509  1241 net.cpp:150] Setting up label_3_5x5_data_5_split
I0913 19:48:37.048514  1241 net.cpp:157] Top shape: 2 6 24 24 (6912)
I0913 19:48:37.048518  1241 net.cpp:157] Top shape: 2 6 24 24 (6912)
I0913 19:48:37.048521  1241 net.cpp:165] Memory required for data: 22309660
I0913 19:48:37.048524  1241 layer_factory.hpp:77] Creating layer label_3_7x7_data_6_split
I0913 19:48:37.048528  1241 net.cpp:100] Creating Layer label_3_7x7_data_6_split
I0913 19:48:37.048532  1241 net.cpp:434] label_3_7x7_data_6_split <- label_3_7x7
I0913 19:48:37.048537  1241 net.cpp:408] label_3_7x7_data_6_split -> label_3_7x7_data_6_split_0
I0913 19:48:37.048540  1241 net.cpp:408] label_3_7x7_data_6_split -> label_3_7x7_data_6_split_1
I0913 19:48:37.048571  1241 net.cpp:150] Setting up label_3_7x7_data_6_split
I0913 19:48:37.048576  1241 net.cpp:157] Top shape: 2 6 24 24 (6912)
I0913 19:48:37.048580  1241 net.cpp:157] Top shape: 2 6 24 24 (6912)
I0913 19:48:37.048583  1241 net.cpp:165] Memory required for data: 22364956
I0913 19:48:37.048586  1241 layer_factory.hpp:77] Creating layer label_4_5x5_data_7_split
I0913 19:48:37.048591  1241 net.cpp:100] Creating Layer label_4_5x5_data_7_split
I0913 19:48:37.048594  1241 net.cpp:434] label_4_5x5_data_7_split <- label_4_5x5
I0913 19:48:37.048599  1241 net.cpp:408] label_4_5x5_data_7_split -> label_4_5x5_data_7_split_0
I0913 19:48:37.048604  1241 net.cpp:408] label_4_5x5_data_7_split -> label_4_5x5_data_7_split_1
I0913 19:48:37.048633  1241 net.cpp:150] Setting up label_4_5x5_data_7_split
I0913 19:48:37.048637  1241 net.cpp:157] Top shape: 2 6 12 12 (1728)
I0913 19:48:37.048641  1241 net.cpp:157] Top shape: 2 6 12 12 (1728)
I0913 19:48:37.048645  1241 net.cpp:165] Memory required for data: 22378780
I0913 19:48:37.048647  1241 layer_factory.hpp:77] Creating layer slice
I0913 19:48:37.048657  1241 net.cpp:100] Creating Layer slice
I0913 19:48:37.048660  1241 net.cpp:434] slice <- data
I0913 19:48:37.048666  1241 net.cpp:408] slice -> data123
I0913 19:48:37.048671  1241 net.cpp:408] slice -> ch4
I0913 19:48:37.048709  1241 net.cpp:150] Setting up slice
I0913 19:48:37.048714  1241 net.cpp:157] Top shape: 2 3 768 768 (3538944)
I0913 19:48:37.048718  1241 net.cpp:157] Top shape: 2 1 768 768 (1179648)
I0913 19:48:37.048722  1241 net.cpp:165] Memory required for data: 41253148
I0913 19:48:37.048724  1241 layer_factory.hpp:77] Creating layer conv1_1
I0913 19:48:37.048735  1241 net.cpp:100] Creating Layer conv1_1
I0913 19:48:37.048738  1241 net.cpp:434] conv1_1 <- data123
I0913 19:48:37.048744  1241 net.cpp:408] conv1_1 -> conv1_1
I0913 19:48:37.056819  1241 net.cpp:150] Setting up conv1_1
I0913 19:48:37.056885  1241 net.cpp:157] Top shape: 2 64 768 768 (75497472)
I0913 19:48:37.056895  1241 net.cpp:165] Memory required for data: 343243036
I0913 19:48:37.056933  1241 layer_factory.hpp:77] Creating layer relu1_1
I0913 19:48:37.056965  1241 net.cpp:100] Creating Layer relu1_1
I0913 19:48:37.056978  1241 net.cpp:434] relu1_1 <- conv1_1
I0913 19:48:37.056990  1241 net.cpp:395] relu1_1 -> conv1_1 (in-place)
I0913 19:48:37.057545  1241 net.cpp:150] Setting up relu1_1
I0913 19:48:37.057565  1241 net.cpp:157] Top shape: 2 64 768 768 (75497472)
I0913 19:48:37.057574  1241 net.cpp:165] Memory required for data: 645232924
I0913 19:48:37.057582  1241 layer_factory.hpp:77] Creating layer conv1_2
I0913 19:48:37.057607  1241 net.cpp:100] Creating Layer conv1_2
I0913 19:48:37.057615  1241 net.cpp:434] conv1_2 <- conv1_1
I0913 19:48:37.057631  1241 net.cpp:408] conv1_2 -> conv1_2
E0913 19:48:37.061997  1267 image_gt_data_layer.cpp:371] Could not open or find file /media/b3-542/LIBRARY/moz/result/AllHaveLight/blob_jan30_xgt_train/005280.png
I0913 19:48:37.068094  1241 net.cpp:150] Setting up conv1_2
I0913 19:48:37.068123  1241 net.cpp:157] Top shape: 2 64 768 768 (75497472)
I0913 19:48:37.068128  1241 net.cpp:165] Memory required for data: 947222812
I0913 19:48:37.068148  1241 layer_factory.hpp:77] Creating layer relu1_2
I0913 19:48:37.068162  1241 net.cpp:100] Creating Layer relu1_2
I0913 19:48:37.068169  1241 net.cpp:434] relu1_2 <- conv1_2
I0913 19:48:37.068178  1241 net.cpp:395] relu1_2 -> conv1_2 (in-place)
I0913 19:48:37.068495  1241 net.cpp:150] Setting up relu1_2
I0913 19:48:37.068506  1241 net.cpp:157] Top shape: 2 64 768 768 (75497472)
I0913 19:48:37.068511  1241 net.cpp:165] Memory required for data: 1249212700
I0913 19:48:37.068516  1241 layer_factory.hpp:77] Creating layer pool1
I0913 19:48:37.068529  1241 net.cpp:100] Creating Layer pool1
I0913 19:48:37.068534  1241 net.cpp:434] pool1 <- conv1_2
I0913 19:48:37.068542  1241 net.cpp:408] pool1 -> pool1
I0913 19:48:37.068645  1241 net.cpp:150] Setting up pool1
I0913 19:48:37.068653  1241 net.cpp:157] Top shape: 2 64 384 384 (18874368)
I0913 19:48:37.068657  1241 net.cpp:165] Memory required for data: 1324710172
I0913 19:48:37.068661  1241 layer_factory.hpp:77] Creating layer ch4_pool1
I0913 19:48:37.068670  1241 net.cpp:100] Creating Layer ch4_pool1
I0913 19:48:37.068673  1241 net.cpp:434] ch4_pool1 <- ch4
I0913 19:48:37.068680  1241 net.cpp:408] ch4_pool1 -> ch4_pool1
I0913 19:48:37.068733  1241 net.cpp:150] Setting up ch4_pool1
I0913 19:48:37.068742  1241 net.cpp:157] Top shape: 2 1 384 384 (294912)
I0913 19:48:37.068745  1241 net.cpp:165] Memory required for data: 1325889820
I0913 19:48:37.068749  1241 layer_factory.hpp:77] Creating layer ch4_pool1_ch4_pool1_0_split
I0913 19:48:37.068756  1241 net.cpp:100] Creating Layer ch4_pool1_ch4_pool1_0_split
I0913 19:48:37.068760  1241 net.cpp:434] ch4_pool1_ch4_pool1_0_split <- ch4_pool1
I0913 19:48:37.068765  1241 net.cpp:408] ch4_pool1_ch4_pool1_0_split -> ch4_pool1_ch4_pool1_0_split_0
I0913 19:48:37.068773  1241 net.cpp:408] ch4_pool1_ch4_pool1_0_split -> ch4_pool1_ch4_pool1_0_split_1
I0913 19:48:37.068831  1241 net.cpp:150] Setting up ch4_pool1_ch4_pool1_0_split
I0913 19:48:37.068840  1241 net.cpp:157] Top shape: 2 1 384 384 (294912)
I0913 19:48:37.068845  1241 net.cpp:157] Top shape: 2 1 384 384 (294912)
I0913 19:48:37.068848  1241 net.cpp:165] Memory required for data: 1328249116
I0913 19:48:37.068852  1241 layer_factory.hpp:77] Creating layer pool1_concat
I0913 19:48:37.068866  1241 net.cpp:100] Creating Layer pool1_concat
I0913 19:48:37.068871  1241 net.cpp:434] pool1_concat <- pool1
I0913 19:48:37.068876  1241 net.cpp:434] pool1_concat <- ch4_pool1_ch4_pool1_0_split_0
I0913 19:48:37.068883  1241 net.cpp:408] pool1_concat -> pool1_new
I0913 19:48:37.068915  1241 net.cpp:150] Setting up pool1_concat
I0913 19:48:37.068923  1241 net.cpp:157] Top shape: 2 65 384 384 (19169280)
I0913 19:48:37.068928  1241 net.cpp:165] Memory required for data: 1404926236
I0913 19:48:37.068931  1241 layer_factory.hpp:77] Creating layer conv2_1_new
I0913 19:48:37.068943  1241 net.cpp:100] Creating Layer conv2_1_new
I0913 19:48:37.068949  1241 net.cpp:434] conv2_1_new <- pool1_new
I0913 19:48:37.068956  1241 net.cpp:408] conv2_1_new -> conv2_1
E0913 19:48:37.071033  1267 image_gt_data_layer.cpp:371] Could not open or find file /media/b3-542/LIBRARY/moz/result/AllHaveLight/blob_jan30_xgt_train/005280.png
I0913 19:48:37.073581  1241 net.cpp:150] Setting up conv2_1_new
I0913 19:48:37.073603  1241 net.cpp:157] Top shape: 2 128 384 384 (37748736)
I0913 19:48:37.073608  1241 net.cpp:165] Memory required for data: 1555921180
I0913 19:48:37.073626  1241 layer_factory.hpp:77] Creating layer relu2_1
I0913 19:48:37.073642  1241 net.cpp:100] Creating Layer relu2_1
I0913 19:48:37.073650  1241 net.cpp:434] relu2_1 <- conv2_1
I0913 19:48:37.073659  1241 net.cpp:395] relu2_1 -> conv2_1 (in-place)
I0913 19:48:37.077291  1241 net.cpp:150] Setting up relu2_1
I0913 19:48:37.077308  1241 net.cpp:157] Top shape: 2 128 384 384 (37748736)
I0913 19:48:37.077313  1241 net.cpp:165] Memory required for data: 1706916124
I0913 19:48:37.077319  1241 layer_factory.hpp:77] Creating layer conv2_2
I0913 19:48:37.077334  1241 net.cpp:100] Creating Layer conv2_2
I0913 19:48:37.077340  1241 net.cpp:434] conv2_2 <- conv2_1
I0913 19:48:37.077352  1241 net.cpp:408] conv2_2 -> conv2_2
E0913 19:48:37.081027  1267 image_gt_data_layer.cpp:371] Could not open or find file /media/b3-542/LIBRARY/moz/result/AllHaveLight/blob_jan30_xgt_train/005280.png
I0913 19:48:37.084419  1241 net.cpp:150] Setting up conv2_2
I0913 19:48:37.084597  1241 net.cpp:157] Top shape: 2 128 384 384 (37748736)
I0913 19:48:37.084612  1241 net.cpp:165] Memory required for data: 1857911068
I0913 19:48:37.084671  1241 layer_factory.hpp:77] Creating layer relu2_2
I0913 19:48:37.084728  1241 net.cpp:100] Creating Layer relu2_2
I0913 19:48:37.084754  1241 net.cpp:434] relu2_2 <- conv2_2
I0913 19:48:37.084785  1241 net.cpp:395] relu2_2 -> conv2_2 (in-place)
I0913 19:48:37.085315  1241 net.cpp:150] Setting up relu2_2
I0913 19:48:37.085332  1241 net.cpp:157] Top shape: 2 128 384 384 (37748736)
I0913 19:48:37.085336  1241 net.cpp:165] Memory required for data: 2008906012
I0913 19:48:37.085341  1241 layer_factory.hpp:77] Creating layer pool2
I0913 19:48:37.085355  1241 net.cpp:100] Creating Layer pool2
I0913 19:48:37.085361  1241 net.cpp:434] pool2 <- conv2_2
I0913 19:48:37.085371  1241 net.cpp:408] pool2 -> pool2
I0913 19:48:37.085460  1241 net.cpp:150] Setting up pool2
I0913 19:48:37.085469  1241 net.cpp:157] Top shape: 2 128 192 192 (9437184)
I0913 19:48:37.085471  1241 net.cpp:165] Memory required for data: 2046654748
I0913 19:48:37.085475  1241 layer_factory.hpp:77] Creating layer ch4_pool2
I0913 19:48:37.085484  1241 net.cpp:100] Creating Layer ch4_pool2
I0913 19:48:37.085490  1241 net.cpp:434] ch4_pool2 <- ch4_pool1_ch4_pool1_0_split_1
I0913 19:48:37.085495  1241 net.cpp:408] ch4_pool2 -> ch4_pool2
I0913 19:48:37.085539  1241 net.cpp:150] Setting up ch4_pool2
I0913 19:48:37.085546  1241 net.cpp:157] Top shape: 2 1 192 192 (73728)
I0913 19:48:37.085549  1241 net.cpp:165] Memory required for data: 2046949660
I0913 19:48:37.085553  1241 layer_factory.hpp:77] Creating layer ch4_pool2_ch4_pool2_0_split
I0913 19:48:37.085559  1241 net.cpp:100] Creating Layer ch4_pool2_ch4_pool2_0_split
I0913 19:48:37.085564  1241 net.cpp:434] ch4_pool2_ch4_pool2_0_split <- ch4_pool2
I0913 19:48:37.085572  1241 net.cpp:408] ch4_pool2_ch4_pool2_0_split -> ch4_pool2_ch4_pool2_0_split_0
I0913 19:48:37.085580  1241 net.cpp:408] ch4_pool2_ch4_pool2_0_split -> ch4_pool2_ch4_pool2_0_split_1
I0913 19:48:37.085620  1241 net.cpp:150] Setting up ch4_pool2_ch4_pool2_0_split
I0913 19:48:37.085628  1241 net.cpp:157] Top shape: 2 1 192 192 (73728)
I0913 19:48:37.085633  1241 net.cpp:157] Top shape: 2 1 192 192 (73728)
I0913 19:48:37.085638  1241 net.cpp:165] Memory required for data: 2047539484
I0913 19:48:37.085642  1241 layer_factory.hpp:77] Creating layer pool2_concat
I0913 19:48:37.085649  1241 net.cpp:100] Creating Layer pool2_concat
I0913 19:48:37.085654  1241 net.cpp:434] pool2_concat <- pool2
I0913 19:48:37.085659  1241 net.cpp:434] pool2_concat <- ch4_pool2_ch4_pool2_0_split_0
I0913 19:48:37.085665  1241 net.cpp:408] pool2_concat -> pool2_new
I0913 19:48:37.085690  1241 net.cpp:150] Setting up pool2_concat
I0913 19:48:37.085697  1241 net.cpp:157] Top shape: 2 129 192 192 (9510912)
I0913 19:48:37.085701  1241 net.cpp:165] Memory required for data: 2085583132
I0913 19:48:37.085705  1241 layer_factory.hpp:77] Creating layer conv3_1_new
I0913 19:48:37.085714  1241 net.cpp:100] Creating Layer conv3_1_new
I0913 19:48:37.085719  1241 net.cpp:434] conv3_1_new <- pool2_new
I0913 19:48:37.085726  1241 net.cpp:408] conv3_1_new -> conv3_1
I0913 19:48:37.087947  1241 net.cpp:150] Setting up conv3_1_new
I0913 19:48:37.087965  1241 net.cpp:157] Top shape: 2 256 192 192 (18874368)
I0913 19:48:37.087970  1241 net.cpp:165] Memory required for data: 2161080604
I0913 19:48:37.087983  1241 layer_factory.hpp:77] Creating layer relu3_1
I0913 19:48:37.087991  1241 net.cpp:100] Creating Layer relu3_1
I0913 19:48:37.087996  1241 net.cpp:434] relu3_1 <- conv3_1
I0913 19:48:37.088003  1241 net.cpp:395] relu3_1 -> conv3_1 (in-place)
I0913 19:48:37.088207  1241 net.cpp:150] Setting up relu3_1
I0913 19:48:37.088217  1241 net.cpp:157] Top shape: 2 256 192 192 (18874368)
I0913 19:48:37.088220  1241 net.cpp:165] Memory required for data: 2236578076
I0913 19:48:37.088224  1241 layer_factory.hpp:77] Creating layer conv3_2
I0913 19:48:37.088234  1241 net.cpp:100] Creating Layer conv3_2
I0913 19:48:37.088239  1241 net.cpp:434] conv3_2 <- conv3_1
I0913 19:48:37.088244  1241 net.cpp:408] conv3_2 -> conv3_2
I0913 19:48:37.093081  1241 net.cpp:150] Setting up conv3_2
I0913 19:48:37.093114  1241 net.cpp:157] Top shape: 2 256 192 192 (18874368)
I0913 19:48:37.093119  1241 net.cpp:165] Memory required for data: 2312075548
I0913 19:48:37.093132  1241 layer_factory.hpp:77] Creating layer relu3_2
I0913 19:48:37.093144  1241 net.cpp:100] Creating Layer relu3_2
I0913 19:48:37.093152  1241 net.cpp:434] relu3_2 <- conv3_2
I0913 19:48:37.093158  1241 net.cpp:395] relu3_2 -> conv3_2 (in-place)
I0913 19:48:37.093354  1241 net.cpp:150] Setting up relu3_2
I0913 19:48:37.093365  1241 net.cpp:157] Top shape: 2 256 192 192 (18874368)
I0913 19:48:37.093369  1241 net.cpp:165] Memory required for data: 2387573020
I0913 19:48:37.093374  1241 layer_factory.hpp:77] Creating layer conv3_3
I0913 19:48:37.093384  1241 net.cpp:100] Creating Layer conv3_3
I0913 19:48:37.093389  1241 net.cpp:434] conv3_3 <- conv3_2
I0913 19:48:37.093396  1241 net.cpp:408] conv3_3 -> conv3_3
I0913 19:48:37.096387  1241 net.cpp:150] Setting up conv3_3
I0913 19:48:37.096412  1241 net.cpp:157] Top shape: 2 256 192 192 (18874368)
I0913 19:48:37.096416  1241 net.cpp:165] Memory required for data: 2463070492
I0913 19:48:37.096426  1241 layer_factory.hpp:77] Creating layer relu3_3
I0913 19:48:37.096436  1241 net.cpp:100] Creating Layer relu3_3
I0913 19:48:37.096441  1241 net.cpp:434] relu3_3 <- conv3_3
I0913 19:48:37.096447  1241 net.cpp:395] relu3_3 -> conv3_3 (in-place)
I0913 19:48:37.096617  1241 net.cpp:150] Setting up relu3_3
I0913 19:48:37.096627  1241 net.cpp:157] Top shape: 2 256 192 192 (18874368)
I0913 19:48:37.096632  1241 net.cpp:165] Memory required for data: 2538567964
I0913 19:48:37.096635  1241 layer_factory.hpp:77] Creating layer pool3
I0913 19:48:37.096642  1241 net.cpp:100] Creating Layer pool3
I0913 19:48:37.096645  1241 net.cpp:434] pool3 <- conv3_3
I0913 19:48:37.096650  1241 net.cpp:408] pool3 -> pool3
I0913 19:48:37.096695  1241 net.cpp:150] Setting up pool3
I0913 19:48:37.096702  1241 net.cpp:157] Top shape: 2 256 96 96 (4718592)
I0913 19:48:37.096705  1241 net.cpp:165] Memory required for data: 2557442332
I0913 19:48:37.096709  1241 layer_factory.hpp:77] Creating layer ch4_pool3
I0913 19:48:37.096719  1241 net.cpp:100] Creating Layer ch4_pool3
I0913 19:48:37.096722  1241 net.cpp:434] ch4_pool3 <- ch4_pool2_ch4_pool2_0_split_1
I0913 19:48:37.096729  1241 net.cpp:408] ch4_pool3 -> ch4_pool3
I0913 19:48:37.096766  1241 net.cpp:150] Setting up ch4_pool3
I0913 19:48:37.096772  1241 net.cpp:157] Top shape: 2 1 96 96 (18432)
I0913 19:48:37.096776  1241 net.cpp:165] Memory required for data: 2557516060
I0913 19:48:37.096778  1241 layer_factory.hpp:77] Creating layer ch4_pool3_ch4_pool3_0_split
I0913 19:48:37.096784  1241 net.cpp:100] Creating Layer ch4_pool3_ch4_pool3_0_split
I0913 19:48:37.096788  1241 net.cpp:434] ch4_pool3_ch4_pool3_0_split <- ch4_pool3
I0913 19:48:37.096792  1241 net.cpp:408] ch4_pool3_ch4_pool3_0_split -> ch4_pool3_ch4_pool3_0_split_0
I0913 19:48:37.096797  1241 net.cpp:408] ch4_pool3_ch4_pool3_0_split -> ch4_pool3_ch4_pool3_0_split_1
I0913 19:48:37.096834  1241 net.cpp:150] Setting up ch4_pool3_ch4_pool3_0_split
I0913 19:48:37.096840  1241 net.cpp:157] Top shape: 2 1 96 96 (18432)
I0913 19:48:37.096844  1241 net.cpp:157] Top shape: 2 1 96 96 (18432)
I0913 19:48:37.096848  1241 net.cpp:165] Memory required for data: 2557663516
I0913 19:48:37.096850  1241 layer_factory.hpp:77] Creating layer pool3_concat
I0913 19:48:37.096856  1241 net.cpp:100] Creating Layer pool3_concat
I0913 19:48:37.096860  1241 net.cpp:434] pool3_concat <- pool3
I0913 19:48:37.096864  1241 net.cpp:434] pool3_concat <- ch4_pool3_ch4_pool3_0_split_0
I0913 19:48:37.096869  1241 net.cpp:408] pool3_concat -> pool3_new
I0913 19:48:37.096892  1241 net.cpp:150] Setting up pool3_concat
I0913 19:48:37.096899  1241 net.cpp:157] Top shape: 2 257 96 96 (4737024)
I0913 19:48:37.096904  1241 net.cpp:165] Memory required for data: 2576611612
I0913 19:48:37.096906  1241 layer_factory.hpp:77] Creating layer conv4_1_new
I0913 19:48:37.096912  1241 net.cpp:100] Creating Layer conv4_1_new
I0913 19:48:37.096917  1241 net.cpp:434] conv4_1_new <- pool3_new
I0913 19:48:37.096923  1241 net.cpp:408] conv4_1_new -> conv4_1
I0913 19:48:37.100944  1241 net.cpp:150] Setting up conv4_1_new
I0913 19:48:37.100970  1241 net.cpp:157] Top shape: 2 512 96 96 (9437184)
I0913 19:48:37.100973  1241 net.cpp:165] Memory required for data: 2614360348
I0913 19:48:37.100981  1241 layer_factory.hpp:77] Creating layer relu4_1
I0913 19:48:37.100992  1241 net.cpp:100] Creating Layer relu4_1
I0913 19:48:37.100997  1241 net.cpp:434] relu4_1 <- conv4_1
I0913 19:48:37.101003  1241 net.cpp:395] relu4_1 -> conv4_1 (in-place)
I0913 19:48:37.101150  1241 net.cpp:150] Setting up relu4_1
I0913 19:48:37.101160  1241 net.cpp:157] Top shape: 2 512 96 96 (9437184)
I0913 19:48:37.101162  1241 net.cpp:165] Memory required for data: 2652109084
I0913 19:48:37.101166  1241 layer_factory.hpp:77] Creating layer conv4_2
I0913 19:48:37.101174  1241 net.cpp:100] Creating Layer conv4_2
I0913 19:48:37.101179  1241 net.cpp:434] conv4_2 <- conv4_1
I0913 19:48:37.101184  1241 net.cpp:408] conv4_2 -> conv4_2
I0913 19:48:37.107118  1241 net.cpp:150] Setting up conv4_2
I0913 19:48:37.107149  1241 net.cpp:157] Top shape: 2 512 96 96 (9437184)
I0913 19:48:37.107153  1241 net.cpp:165] Memory required for data: 2689857820
I0913 19:48:37.107168  1241 layer_factory.hpp:77] Creating layer relu4_2
I0913 19:48:37.107179  1241 net.cpp:100] Creating Layer relu4_2
I0913 19:48:37.107185  1241 net.cpp:434] relu4_2 <- conv4_2
I0913 19:48:37.107192  1241 net.cpp:395] relu4_2 -> conv4_2 (in-place)
I0913 19:48:37.107686  1241 net.cpp:150] Setting up relu4_2
I0913 19:48:37.107700  1241 net.cpp:157] Top shape: 2 512 96 96 (9437184)
I0913 19:48:37.107703  1241 net.cpp:165] Memory required for data: 2727606556
I0913 19:48:37.107707  1241 layer_factory.hpp:77] Creating layer conv4_3
I0913 19:48:37.107717  1241 net.cpp:100] Creating Layer conv4_3
I0913 19:48:37.107722  1241 net.cpp:434] conv4_3 <- conv4_2
I0913 19:48:37.107728  1241 net.cpp:408] conv4_3 -> conv4_3
I0913 19:48:37.113667  1241 net.cpp:150] Setting up conv4_3
I0913 19:48:37.113718  1241 net.cpp:157] Top shape: 2 512 96 96 (9437184)
I0913 19:48:37.113723  1241 net.cpp:165] Memory required for data: 2765355292
I0913 19:48:37.113736  1241 layer_factory.hpp:77] Creating layer relu4_3
I0913 19:48:37.113756  1241 net.cpp:100] Creating Layer relu4_3
I0913 19:48:37.113765  1241 net.cpp:434] relu4_3 <- conv4_3
I0913 19:48:37.113772  1241 net.cpp:395] relu4_3 -> conv4_3 (in-place)
I0913 19:48:37.113946  1241 net.cpp:150] Setting up relu4_3
I0913 19:48:37.113955  1241 net.cpp:157] Top shape: 2 512 96 96 (9437184)
I0913 19:48:37.113960  1241 net.cpp:165] Memory required for data: 2803104028
I0913 19:48:37.113962  1241 layer_factory.hpp:77] Creating layer conv4_3_relu4_3_0_split
I0913 19:48:37.113970  1241 net.cpp:100] Creating Layer conv4_3_relu4_3_0_split
I0913 19:48:37.113973  1241 net.cpp:434] conv4_3_relu4_3_0_split <- conv4_3
I0913 19:48:37.113979  1241 net.cpp:408] conv4_3_relu4_3_0_split -> conv4_3_relu4_3_0_split_0
I0913 19:48:37.113987  1241 net.cpp:408] conv4_3_relu4_3_0_split -> conv4_3_relu4_3_0_split_1
I0913 19:48:37.113992  1241 net.cpp:408] conv4_3_relu4_3_0_split -> conv4_3_relu4_3_0_split_2
I0913 19:48:37.114058  1241 net.cpp:150] Setting up conv4_3_relu4_3_0_split
I0913 19:48:37.114065  1241 net.cpp:157] Top shape: 2 512 96 96 (9437184)
I0913 19:48:37.114069  1241 net.cpp:157] Top shape: 2 512 96 96 (9437184)
I0913 19:48:37.114073  1241 net.cpp:157] Top shape: 2 512 96 96 (9437184)
I0913 19:48:37.114076  1241 net.cpp:165] Memory required for data: 2916350236
I0913 19:48:37.114079  1241 layer_factory.hpp:77] Creating layer loss1_conv1
I0913 19:48:37.114094  1241 net.cpp:100] Creating Layer loss1_conv1
I0913 19:48:37.114096  1241 net.cpp:434] loss1_conv1 <- conv4_3_relu4_3_0_split_0
I0913 19:48:37.114109  1241 net.cpp:408] loss1_conv1 -> loss1_conv1
I0913 19:48:37.183763  1241 net.cpp:150] Setting up loss1_conv1
I0913 19:48:37.183894  1241 net.cpp:157] Top shape: 2 512 96 96 (9437184)
I0913 19:48:37.183909  1241 net.cpp:165] Memory required for data: 2954098972
I0913 19:48:37.183941  1241 layer_factory.hpp:77] Creating layer loss_relu1
I0913 19:48:37.183980  1241 net.cpp:100] Creating Layer loss_relu1
I0913 19:48:37.184000  1241 net.cpp:434] loss_relu1 <- loss1_conv1
I0913 19:48:37.184020  1241 net.cpp:395] loss_relu1 -> loss1_conv1 (in-place)
I0913 19:48:37.184543  1241 net.cpp:150] Setting up loss_relu1
I0913 19:48:37.184571  1241 net.cpp:157] Top shape: 2 512 96 96 (9437184)
I0913 19:48:37.184584  1241 net.cpp:165] Memory required for data: 2991847708
I0913 19:48:37.184597  1241 layer_factory.hpp:77] Creating layer loss1_conv1_loss_relu1_0_split
I0913 19:48:37.184618  1241 net.cpp:100] Creating Layer loss1_conv1_loss_relu1_0_split
I0913 19:48:37.184633  1241 net.cpp:434] loss1_conv1_loss_relu1_0_split <- loss1_conv1
I0913 19:48:37.184650  1241 net.cpp:408] loss1_conv1_loss_relu1_0_split -> loss1_conv1_loss_relu1_0_split_0
I0913 19:48:37.184680  1241 net.cpp:408] loss1_conv1_loss_relu1_0_split -> loss1_conv1_loss_relu1_0_split_1
I0913 19:48:37.184832  1241 net.cpp:150] Setting up loss1_conv1_loss_relu1_0_split
I0913 19:48:37.184854  1241 net.cpp:157] Top shape: 2 512 96 96 (9437184)
I0913 19:48:37.184870  1241 net.cpp:157] Top shape: 2 512 96 96 (9437184)
I0913 19:48:37.184880  1241 net.cpp:165] Memory required for data: 3067345180
I0913 19:48:37.184892  1241 layer_factory.hpp:77] Creating layer LFCN_1_5x5
I0913 19:48:37.184926  1241 net.cpp:100] Creating Layer LFCN_1_5x5
I0913 19:48:37.184940  1241 net.cpp:434] LFCN_1_5x5 <- loss1_conv1_loss_relu1_0_split_0
I0913 19:48:37.184967  1241 net.cpp:408] LFCN_1_5x5 -> LFCN_1_5x5
I0913 19:48:37.193950  1241 net.cpp:150] Setting up LFCN_1_5x5
I0913 19:48:37.193979  1241 net.cpp:157] Top shape: 2 9 96 96 (165888)
I0913 19:48:37.193984  1241 net.cpp:165] Memory required for data: 3068008732
I0913 19:48:37.193994  1241 layer_factory.hpp:77] Creating layer LFCN_1_5x5_LFCN_1_5x5_0_split
I0913 19:48:37.194006  1241 net.cpp:100] Creating Layer LFCN_1_5x5_LFCN_1_5x5_0_split
I0913 19:48:37.194013  1241 net.cpp:434] LFCN_1_5x5_LFCN_1_5x5_0_split <- LFCN_1_5x5
I0913 19:48:37.194021  1241 net.cpp:408] LFCN_1_5x5_LFCN_1_5x5_0_split -> LFCN_1_5x5_LFCN_1_5x5_0_split_0
I0913 19:48:37.194044  1241 net.cpp:408] LFCN_1_5x5_LFCN_1_5x5_0_split -> LFCN_1_5x5_LFCN_1_5x5_0_split_1
I0913 19:48:37.194054  1241 net.cpp:408] LFCN_1_5x5_LFCN_1_5x5_0_split -> LFCN_1_5x5_LFCN_1_5x5_0_split_2
I0913 19:48:37.194103  1241 net.cpp:150] Setting up LFCN_1_5x5_LFCN_1_5x5_0_split
I0913 19:48:37.194108  1241 net.cpp:157] Top shape: 2 9 96 96 (165888)
I0913 19:48:37.194111  1241 net.cpp:157] Top shape: 2 9 96 96 (165888)
I0913 19:48:37.194115  1241 net.cpp:157] Top shape: 2 9 96 96 (165888)
I0913 19:48:37.194118  1241 net.cpp:165] Memory required for data: 3069999388
I0913 19:48:37.194120  1241 layer_factory.hpp:77] Creating layer detection_loss_1_5x5
I0913 19:48:37.194128  1241 net.cpp:100] Creating Layer detection_loss_1_5x5
I0913 19:48:37.194131  1241 net.cpp:434] detection_loss_1_5x5 <- LFCN_1_5x5_LFCN_1_5x5_0_split_0
I0913 19:48:37.194135  1241 net.cpp:434] detection_loss_1_5x5 <- label_1_5x5_data_1_split_0
I0913 19:48:37.194140  1241 net.cpp:408] detection_loss_1_5x5 -> loss_1_5x5
I0913 19:48:37.194146  1241 layer_factory.hpp:77] Creating layer detection_loss_1_5x5
I0913 19:48:37.194507  1241 net.cpp:150] Setting up detection_loss_1_5x5
I0913 19:48:37.194516  1241 net.cpp:157] Top shape: 1 1 1 2 (2)
I0913 19:48:37.194519  1241 net.cpp:160]     with loss weight 0.9
I0913 19:48:37.194531  1241 net.cpp:165] Memory required for data: 3069999396
I0913 19:48:37.194535  1241 layer_factory.hpp:77] Creating layer detection_accuracy_1_5x5
I0913 19:48:37.194541  1241 net.cpp:100] Creating Layer detection_accuracy_1_5x5
I0913 19:48:37.194545  1241 net.cpp:434] detection_accuracy_1_5x5 <- LFCN_1_5x5_LFCN_1_5x5_0_split_1
I0913 19:48:37.194550  1241 net.cpp:434] detection_accuracy_1_5x5 <- label_1_5x5_data_1_split_1
I0913 19:48:37.194555  1241 net.cpp:408] detection_accuracy_1_5x5 -> accuracy_1_5x5
I0913 19:48:37.194561  1241 net.cpp:408] detection_accuracy_1_5x5 -> boxiou_1_5x5
I0913 19:48:37.194600  1241 net.cpp:150] Setting up detection_accuracy_1_5x5
I0913 19:48:37.194607  1241 net.cpp:157] Top shape: 1 1 1 2 (2)
I0913 19:48:37.194610  1241 net.cpp:157] Top shape: 1 1 1 1 (1)
I0913 19:48:37.194613  1241 net.cpp:165] Memory required for data: 3069999408
I0913 19:48:37.194617  1241 layer_factory.hpp:77] Creating layer LFCN_1_7x7
I0913 19:48:37.194628  1241 net.cpp:100] Creating Layer LFCN_1_7x7
I0913 19:48:37.194631  1241 net.cpp:434] LFCN_1_7x7 <- loss1_conv1_loss_relu1_0_split_1
I0913 19:48:37.194636  1241 net.cpp:408] LFCN_1_7x7 -> LFCN_1_7x7
I0913 19:48:37.203287  1241 net.cpp:150] Setting up LFCN_1_7x7
I0913 19:48:37.203320  1241 net.cpp:157] Top shape: 2 9 96 96 (165888)
I0913 19:48:37.203323  1241 net.cpp:165] Memory required for data: 3070662960
I0913 19:48:37.203333  1241 layer_factory.hpp:77] Creating layer LFCN_1_7x7_LFCN_1_7x7_0_split
I0913 19:48:37.203344  1241 net.cpp:100] Creating Layer LFCN_1_7x7_LFCN_1_7x7_0_split
I0913 19:48:37.203351  1241 net.cpp:434] LFCN_1_7x7_LFCN_1_7x7_0_split <- LFCN_1_7x7
I0913 19:48:37.203357  1241 net.cpp:408] LFCN_1_7x7_LFCN_1_7x7_0_split -> LFCN_1_7x7_LFCN_1_7x7_0_split_0
I0913 19:48:37.203373  1241 net.cpp:408] LFCN_1_7x7_LFCN_1_7x7_0_split -> LFCN_1_7x7_LFCN_1_7x7_0_split_1
I0913 19:48:37.203379  1241 net.cpp:408] LFCN_1_7x7_LFCN_1_7x7_0_split -> LFCN_1_7x7_LFCN_1_7x7_0_split_2
I0913 19:48:37.203429  1241 net.cpp:150] Setting up LFCN_1_7x7_LFCN_1_7x7_0_split
I0913 19:48:37.203436  1241 net.cpp:157] Top shape: 2 9 96 96 (165888)
I0913 19:48:37.203441  1241 net.cpp:157] Top shape: 2 9 96 96 (165888)
I0913 19:48:37.203445  1241 net.cpp:157] Top shape: 2 9 96 96 (165888)
I0913 19:48:37.203449  1241 net.cpp:165] Memory required for data: 3072653616
I0913 19:48:37.203452  1241 layer_factory.hpp:77] Creating layer detection_loss_1_7x7
I0913 19:48:37.203460  1241 net.cpp:100] Creating Layer detection_loss_1_7x7
I0913 19:48:37.203465  1241 net.cpp:434] detection_loss_1_7x7 <- LFCN_1_7x7_LFCN_1_7x7_0_split_0
I0913 19:48:37.203470  1241 net.cpp:434] detection_loss_1_7x7 <- label_1_7x7_data_2_split_0
I0913 19:48:37.203476  1241 net.cpp:408] detection_loss_1_7x7 -> loss_1_7x7
I0913 19:48:37.203485  1241 layer_factory.hpp:77] Creating layer detection_loss_1_7x7
I0913 19:48:37.203869  1241 net.cpp:150] Setting up detection_loss_1_7x7
I0913 19:48:37.203878  1241 net.cpp:157] Top shape: 1 1 1 2 (2)
I0913 19:48:37.203881  1241 net.cpp:160]     with loss weight 0.9
I0913 19:48:37.203893  1241 net.cpp:165] Memory required for data: 3072653624
I0913 19:48:37.203896  1241 layer_factory.hpp:77] Creating layer detection_accuracy_1_7x7
I0913 19:48:37.203903  1241 net.cpp:100] Creating Layer detection_accuracy_1_7x7
I0913 19:48:37.203907  1241 net.cpp:434] detection_accuracy_1_7x7 <- LFCN_1_7x7_LFCN_1_7x7_0_split_1
I0913 19:48:37.203912  1241 net.cpp:434] detection_accuracy_1_7x7 <- label_1_7x7_data_2_split_1
I0913 19:48:37.203918  1241 net.cpp:408] detection_accuracy_1_7x7 -> accuracy_1_7x7
I0913 19:48:37.203924  1241 net.cpp:408] detection_accuracy_1_7x7 -> boxiou_1_7x7
I0913 19:48:37.203964  1241 net.cpp:150] Setting up detection_accuracy_1_7x7
I0913 19:48:37.203971  1241 net.cpp:157] Top shape: 1 1 1 2 (2)
I0913 19:48:37.203975  1241 net.cpp:157] Top shape: 1 1 1 1 (1)
I0913 19:48:37.203979  1241 net.cpp:165] Memory required for data: 3072653636
I0913 19:48:37.203981  1241 layer_factory.hpp:77] Creating layer pool4
I0913 19:48:37.203989  1241 net.cpp:100] Creating Layer pool4
I0913 19:48:37.203992  1241 net.cpp:434] pool4 <- conv4_3_relu4_3_0_split_1
I0913 19:48:37.203997  1241 net.cpp:408] pool4 -> pool4
I0913 19:48:37.204035  1241 net.cpp:150] Setting up pool4
I0913 19:48:37.204041  1241 net.cpp:157] Top shape: 2 512 48 48 (2359296)
I0913 19:48:37.204044  1241 net.cpp:165] Memory required for data: 3082090820
I0913 19:48:37.204047  1241 layer_factory.hpp:77] Creating layer ch4_pool4
I0913 19:48:37.204052  1241 net.cpp:100] Creating Layer ch4_pool4
I0913 19:48:37.204056  1241 net.cpp:434] ch4_pool4 <- ch4_pool3_ch4_pool3_0_split_1
I0913 19:48:37.204061  1241 net.cpp:408] ch4_pool4 -> ch4_pool4
I0913 19:48:37.204095  1241 net.cpp:150] Setting up ch4_pool4
I0913 19:48:37.204102  1241 net.cpp:157] Top shape: 2 1 48 48 (4608)
I0913 19:48:37.204105  1241 net.cpp:165] Memory required for data: 3082109252
I0913 19:48:37.204108  1241 layer_factory.hpp:77] Creating layer ch4_pool4_ch4_pool4_0_split
I0913 19:48:37.204113  1241 net.cpp:100] Creating Layer ch4_pool4_ch4_pool4_0_split
I0913 19:48:37.204116  1241 net.cpp:434] ch4_pool4_ch4_pool4_0_split <- ch4_pool4
I0913 19:48:37.204123  1241 net.cpp:408] ch4_pool4_ch4_pool4_0_split -> ch4_pool4_ch4_pool4_0_split_0
I0913 19:48:37.204128  1241 net.cpp:408] ch4_pool4_ch4_pool4_0_split -> ch4_pool4_ch4_pool4_0_split_1
I0913 19:48:37.204160  1241 net.cpp:150] Setting up ch4_pool4_ch4_pool4_0_split
I0913 19:48:37.204166  1241 net.cpp:157] Top shape: 2 1 48 48 (4608)
I0913 19:48:37.204171  1241 net.cpp:157] Top shape: 2 1 48 48 (4608)
I0913 19:48:37.204174  1241 net.cpp:165] Memory required for data: 3082146116
I0913 19:48:37.204177  1241 layer_factory.hpp:77] Creating layer pool4_concat
I0913 19:48:37.204182  1241 net.cpp:100] Creating Layer pool4_concat
I0913 19:48:37.204186  1241 net.cpp:434] pool4_concat <- pool4
I0913 19:48:37.204190  1241 net.cpp:434] pool4_concat <- ch4_pool4_ch4_pool4_0_split_0
I0913 19:48:37.204195  1241 net.cpp:408] pool4_concat -> pool4_new
I0913 19:48:37.204216  1241 net.cpp:150] Setting up pool4_concat
I0913 19:48:37.204222  1241 net.cpp:157] Top shape: 2 513 48 48 (2363904)
I0913 19:48:37.204226  1241 net.cpp:165] Memory required for data: 3091601732
I0913 19:48:37.204228  1241 layer_factory.hpp:77] Creating layer conv5_1_new
I0913 19:48:37.204236  1241 net.cpp:100] Creating Layer conv5_1_new
I0913 19:48:37.204239  1241 net.cpp:434] conv5_1_new <- pool4_new
I0913 19:48:37.204243  1241 net.cpp:408] conv5_1_new -> conv5_1
I0913 19:48:37.209976  1241 net.cpp:150] Setting up conv5_1_new
I0913 19:48:37.210011  1241 net.cpp:157] Top shape: 2 512 48 48 (2359296)
I0913 19:48:37.210016  1241 net.cpp:165] Memory required for data: 3101038916
I0913 19:48:37.210036  1241 layer_factory.hpp:77] Creating layer relu5_1
I0913 19:48:37.210047  1241 net.cpp:100] Creating Layer relu5_1
I0913 19:48:37.210052  1241 net.cpp:434] relu5_1 <- conv5_1
I0913 19:48:37.210059  1241 net.cpp:395] relu5_1 -> conv5_1 (in-place)
I0913 19:48:37.210203  1241 net.cpp:150] Setting up relu5_1
I0913 19:48:37.210211  1241 net.cpp:157] Top shape: 2 512 48 48 (2359296)
I0913 19:48:37.210213  1241 net.cpp:165] Memory required for data: 3110476100
I0913 19:48:37.210216  1241 layer_factory.hpp:77] Creating layer conv5_2
I0913 19:48:37.210224  1241 net.cpp:100] Creating Layer conv5_2
I0913 19:48:37.210227  1241 net.cpp:434] conv5_2 <- conv5_1
I0913 19:48:37.210232  1241 net.cpp:408] conv5_2 -> conv5_2
I0913 19:48:37.216565  1241 net.cpp:150] Setting up conv5_2
I0913 19:48:37.216603  1241 net.cpp:157] Top shape: 2 512 48 48 (2359296)
I0913 19:48:37.216609  1241 net.cpp:165] Memory required for data: 3119913284
I0913 19:48:37.216624  1241 layer_factory.hpp:77] Creating layer relu5_2
I0913 19:48:37.216640  1241 net.cpp:100] Creating Layer relu5_2
I0913 19:48:37.216648  1241 net.cpp:434] relu5_2 <- conv5_2
I0913 19:48:37.216655  1241 net.cpp:395] relu5_2 -> conv5_2 (in-place)
I0913 19:48:37.217170  1241 net.cpp:150] Setting up relu5_2
I0913 19:48:37.217183  1241 net.cpp:157] Top shape: 2 512 48 48 (2359296)
I0913 19:48:37.217186  1241 net.cpp:165] Memory required for data: 3129350468
I0913 19:48:37.217190  1241 layer_factory.hpp:77] Creating layer conv5_3
I0913 19:48:37.217200  1241 net.cpp:100] Creating Layer conv5_3
I0913 19:48:37.217205  1241 net.cpp:434] conv5_3 <- conv5_2
I0913 19:48:37.217211  1241 net.cpp:408] conv5_3 -> conv5_3
I0913 19:48:37.224064  1241 net.cpp:150] Setting up conv5_3
I0913 19:48:37.224097  1241 net.cpp:157] Top shape: 2 512 48 48 (2359296)
I0913 19:48:37.224100  1241 net.cpp:165] Memory required for data: 3138787652
I0913 19:48:37.224109  1241 layer_factory.hpp:77] Creating layer relu5_3
I0913 19:48:37.224123  1241 net.cpp:100] Creating Layer relu5_3
I0913 19:48:37.224128  1241 net.cpp:434] relu5_3 <- conv5_3
I0913 19:48:37.224135  1241 net.cpp:395] relu5_3 -> conv5_3 (in-place)
I0913 19:48:37.224308  1241 net.cpp:150] Setting up relu5_3
I0913 19:48:37.224318  1241 net.cpp:157] Top shape: 2 512 48 48 (2359296)
I0913 19:48:37.224320  1241 net.cpp:165] Memory required for data: 3148224836
I0913 19:48:37.224324  1241 layer_factory.hpp:77] Creating layer conv5_3_relu5_3_0_split
I0913 19:48:37.224330  1241 net.cpp:100] Creating Layer conv5_3_relu5_3_0_split
I0913 19:48:37.224334  1241 net.cpp:434] conv5_3_relu5_3_0_split <- conv5_3
I0913 19:48:37.224339  1241 net.cpp:408] conv5_3_relu5_3_0_split -> conv5_3_relu5_3_0_split_0
I0913 19:48:37.224346  1241 net.cpp:408] conv5_3_relu5_3_0_split -> conv5_3_relu5_3_0_split_1
I0913 19:48:37.224351  1241 net.cpp:408] conv5_3_relu5_3_0_split -> conv5_3_relu5_3_0_split_2
I0913 19:48:37.224404  1241 net.cpp:150] Setting up conv5_3_relu5_3_0_split
I0913 19:48:37.224411  1241 net.cpp:157] Top shape: 2 512 48 48 (2359296)
I0913 19:48:37.224416  1241 net.cpp:157] Top shape: 2 512 48 48 (2359296)
I0913 19:48:37.224419  1241 net.cpp:157] Top shape: 2 512 48 48 (2359296)
I0913 19:48:37.224422  1241 net.cpp:165] Memory required for data: 3176536388
I0913 19:48:37.224426  1241 layer_factory.hpp:77] Creating layer LFCN_2_5x5
I0913 19:48:37.224442  1241 net.cpp:100] Creating Layer LFCN_2_5x5
I0913 19:48:37.224447  1241 net.cpp:434] LFCN_2_5x5 <- conv5_3_relu5_3_0_split_0
I0913 19:48:37.224453  1241 net.cpp:408] LFCN_2_5x5 -> LFCN_2_5x5
I0913 19:48:37.229280  1241 net.cpp:150] Setting up LFCN_2_5x5
I0913 19:48:37.229292  1241 net.cpp:157] Top shape: 2 9 48 48 (41472)
I0913 19:48:37.229295  1241 net.cpp:165] Memory required for data: 3176702276
I0913 19:48:37.229305  1241 layer_factory.hpp:77] Creating layer LFCN_2_5x5_LFCN_2_5x5_0_split
I0913 19:48:37.229312  1241 net.cpp:100] Creating Layer LFCN_2_5x5_LFCN_2_5x5_0_split
I0913 19:48:37.229315  1241 net.cpp:434] LFCN_2_5x5_LFCN_2_5x5_0_split <- LFCN_2_5x5
I0913 19:48:37.229320  1241 net.cpp:408] LFCN_2_5x5_LFCN_2_5x5_0_split -> LFCN_2_5x5_LFCN_2_5x5_0_split_0
I0913 19:48:37.229326  1241 net.cpp:408] LFCN_2_5x5_LFCN_2_5x5_0_split -> LFCN_2_5x5_LFCN_2_5x5_0_split_1
I0913 19:48:37.229329  1241 net.cpp:408] LFCN_2_5x5_LFCN_2_5x5_0_split -> LFCN_2_5x5_LFCN_2_5x5_0_split_2
I0913 19:48:37.229377  1241 net.cpp:150] Setting up LFCN_2_5x5_LFCN_2_5x5_0_split
I0913 19:48:37.229382  1241 net.cpp:157] Top shape: 2 9 48 48 (41472)
I0913 19:48:37.229385  1241 net.cpp:157] Top shape: 2 9 48 48 (41472)
I0913 19:48:37.229389  1241 net.cpp:157] Top shape: 2 9 48 48 (41472)
I0913 19:48:37.229393  1241 net.cpp:165] Memory required for data: 3177199940
I0913 19:48:37.229395  1241 layer_factory.hpp:77] Creating layer detection_loss_2_5x5
I0913 19:48:37.229403  1241 net.cpp:100] Creating Layer detection_loss_2_5x5
I0913 19:48:37.229406  1241 net.cpp:434] detection_loss_2_5x5 <- LFCN_2_5x5_LFCN_2_5x5_0_split_0
I0913 19:48:37.229410  1241 net.cpp:434] detection_loss_2_5x5 <- label_2_5x5_data_3_split_0
I0913 19:48:37.229416  1241 net.cpp:408] detection_loss_2_5x5 -> loss_2_5x5
I0913 19:48:37.229444  1241 layer_factory.hpp:77] Creating layer detection_loss_2_5x5
I0913 19:48:37.229847  1241 net.cpp:150] Setting up detection_loss_2_5x5
I0913 19:48:37.229858  1241 net.cpp:157] Top shape: 1 1 1 2 (2)
I0913 19:48:37.229861  1241 net.cpp:160]     with loss weight 1
I0913 19:48:37.229876  1241 net.cpp:165] Memory required for data: 3177199948
I0913 19:48:37.229881  1241 layer_factory.hpp:77] Creating layer detection_accuracy_2_5x5
I0913 19:48:37.229888  1241 net.cpp:100] Creating Layer detection_accuracy_2_5x5
I0913 19:48:37.229892  1241 net.cpp:434] detection_accuracy_2_5x5 <- LFCN_2_5x5_LFCN_2_5x5_0_split_1
I0913 19:48:37.229897  1241 net.cpp:434] detection_accuracy_2_5x5 <- label_2_5x5_data_3_split_1
I0913 19:48:37.229902  1241 net.cpp:408] detection_accuracy_2_5x5 -> accuracy_2_5x5
I0913 19:48:37.229910  1241 net.cpp:408] detection_accuracy_2_5x5 -> boxiou_2_5x5
I0913 19:48:37.229955  1241 net.cpp:150] Setting up detection_accuracy_2_5x5
I0913 19:48:37.229961  1241 net.cpp:157] Top shape: 1 1 1 2 (2)
I0913 19:48:37.229965  1241 net.cpp:157] Top shape: 1 1 1 1 (1)
I0913 19:48:37.229969  1241 net.cpp:165] Memory required for data: 3177199960
I0913 19:48:37.229971  1241 layer_factory.hpp:77] Creating layer LFCN_2_7x7
I0913 19:48:37.229982  1241 net.cpp:100] Creating Layer LFCN_2_7x7
I0913 19:48:37.229988  1241 net.cpp:434] LFCN_2_7x7 <- conv5_3_relu5_3_0_split_1
I0913 19:48:37.229993  1241 net.cpp:408] LFCN_2_7x7 -> LFCN_2_7x7
I0913 19:48:37.240861  1241 net.cpp:150] Setting up LFCN_2_7x7
I0913 19:48:37.240907  1241 net.cpp:157] Top shape: 2 9 48 48 (41472)
I0913 19:48:37.240911  1241 net.cpp:165] Memory required for data: 3177365848
I0913 19:48:37.240922  1241 layer_factory.hpp:77] Creating layer LFCN_2_7x7_LFCN_2_7x7_0_split
I0913 19:48:37.240936  1241 net.cpp:100] Creating Layer LFCN_2_7x7_LFCN_2_7x7_0_split
I0913 19:48:37.240943  1241 net.cpp:434] LFCN_2_7x7_LFCN_2_7x7_0_split <- LFCN_2_7x7
I0913 19:48:37.240952  1241 net.cpp:408] LFCN_2_7x7_LFCN_2_7x7_0_split -> LFCN_2_7x7_LFCN_2_7x7_0_split_0
I0913 19:48:37.240962  1241 net.cpp:408] LFCN_2_7x7_LFCN_2_7x7_0_split -> LFCN_2_7x7_LFCN_2_7x7_0_split_1
I0913 19:48:37.240967  1241 net.cpp:408] LFCN_2_7x7_LFCN_2_7x7_0_split -> LFCN_2_7x7_LFCN_2_7x7_0_split_2
I0913 19:48:37.241021  1241 net.cpp:150] Setting up LFCN_2_7x7_LFCN_2_7x7_0_split
I0913 19:48:37.241029  1241 net.cpp:157] Top shape: 2 9 48 48 (41472)
I0913 19:48:37.241032  1241 net.cpp:157] Top shape: 2 9 48 48 (41472)
I0913 19:48:37.241036  1241 net.cpp:157] Top shape: 2 9 48 48 (41472)
I0913 19:48:37.241039  1241 net.cpp:165] Memory required for data: 3177863512
I0913 19:48:37.241042  1241 layer_factory.hpp:77] Creating layer detection_loss_2_7x7
I0913 19:48:37.241050  1241 net.cpp:100] Creating Layer detection_loss_2_7x7
I0913 19:48:37.241055  1241 net.cpp:434] detection_loss_2_7x7 <- LFCN_2_7x7_LFCN_2_7x7_0_split_0
I0913 19:48:37.241060  1241 net.cpp:434] detection_loss_2_7x7 <- label_2_7x7_data_4_split_0
I0913 19:48:37.241065  1241 net.cpp:408] detection_loss_2_7x7 -> loss_2_7x7
I0913 19:48:37.241075  1241 layer_factory.hpp:77] Creating layer detection_loss_2_7x7
I0913 19:48:37.241428  1241 net.cpp:150] Setting up detection_loss_2_7x7
I0913 19:48:37.241438  1241 net.cpp:157] Top shape: 1 1 1 2 (2)
I0913 19:48:37.241442  1241 net.cpp:160]     with loss weight 1
I0913 19:48:37.241453  1241 net.cpp:165] Memory required for data: 3177863520
I0913 19:48:37.241456  1241 layer_factory.hpp:77] Creating layer detection_accuracy_2_7x7
I0913 19:48:37.241463  1241 net.cpp:100] Creating Layer detection_accuracy_2_7x7
I0913 19:48:37.241468  1241 net.cpp:434] detection_accuracy_2_7x7 <- LFCN_2_7x7_LFCN_2_7x7_0_split_1
I0913 19:48:37.241474  1241 net.cpp:434] detection_accuracy_2_7x7 <- label_2_7x7_data_4_split_1
I0913 19:48:37.241482  1241 net.cpp:408] detection_accuracy_2_7x7 -> accuracy_2_7x7
I0913 19:48:37.241489  1241 net.cpp:408] detection_accuracy_2_7x7 -> boxiou_2_7x7
I0913 19:48:37.241539  1241 net.cpp:150] Setting up detection_accuracy_2_7x7
I0913 19:48:37.241547  1241 net.cpp:157] Top shape: 1 1 1 2 (2)
I0913 19:48:37.241552  1241 net.cpp:157] Top shape: 1 1 1 1 (1)
I0913 19:48:37.241557  1241 net.cpp:165] Memory required for data: 3177863532
I0913 19:48:37.241561  1241 layer_factory.hpp:77] Creating layer pool5
I0913 19:48:37.241569  1241 net.cpp:100] Creating Layer pool5
I0913 19:48:37.241574  1241 net.cpp:434] pool5 <- conv5_3_relu5_3_0_split_2
I0913 19:48:37.241580  1241 net.cpp:408] pool5 -> pool5
I0913 19:48:37.241626  1241 net.cpp:150] Setting up pool5
I0913 19:48:37.241633  1241 net.cpp:157] Top shape: 2 512 24 24 (589824)
I0913 19:48:37.241637  1241 net.cpp:165] Memory required for data: 3180222828
I0913 19:48:37.241641  1241 layer_factory.hpp:77] Creating layer ch4_pool5
I0913 19:48:37.241649  1241 net.cpp:100] Creating Layer ch4_pool5
I0913 19:48:37.241654  1241 net.cpp:434] ch4_pool5 <- ch4_pool4_ch4_pool4_0_split_1
I0913 19:48:37.241660  1241 net.cpp:408] ch4_pool5 -> ch4_pool5
I0913 19:48:37.241705  1241 net.cpp:150] Setting up ch4_pool5
I0913 19:48:37.241714  1241 net.cpp:157] Top shape: 2 1 24 24 (1152)
I0913 19:48:37.241716  1241 net.cpp:165] Memory required for data: 3180227436
I0913 19:48:37.241720  1241 layer_factory.hpp:77] Creating layer ch4_pool5_ch4_pool5_0_split
I0913 19:48:37.241726  1241 net.cpp:100] Creating Layer ch4_pool5_ch4_pool5_0_split
I0913 19:48:37.241730  1241 net.cpp:434] ch4_pool5_ch4_pool5_0_split <- ch4_pool5
I0913 19:48:37.241737  1241 net.cpp:408] ch4_pool5_ch4_pool5_0_split -> ch4_pool5_ch4_pool5_0_split_0
I0913 19:48:37.241744  1241 net.cpp:408] ch4_pool5_ch4_pool5_0_split -> ch4_pool5_ch4_pool5_0_split_1
I0913 19:48:37.241782  1241 net.cpp:150] Setting up ch4_pool5_ch4_pool5_0_split
I0913 19:48:37.241788  1241 net.cpp:157] Top shape: 2 1 24 24 (1152)
I0913 19:48:37.241792  1241 net.cpp:157] Top shape: 2 1 24 24 (1152)
I0913 19:48:37.241796  1241 net.cpp:165] Memory required for data: 3180236652
I0913 19:48:37.241799  1241 layer_factory.hpp:77] Creating layer pool5_concat
I0913 19:48:37.241804  1241 net.cpp:100] Creating Layer pool5_concat
I0913 19:48:37.241808  1241 net.cpp:434] pool5_concat <- pool5
I0913 19:48:37.241812  1241 net.cpp:434] pool5_concat <- ch4_pool5_ch4_pool5_0_split_0
I0913 19:48:37.241817  1241 net.cpp:408] pool5_concat -> pool5_new
I0913 19:48:37.241839  1241 net.cpp:150] Setting up pool5_concat
I0913 19:48:37.241845  1241 net.cpp:157] Top shape: 2 513 24 24 (590976)
I0913 19:48:37.241848  1241 net.cpp:165] Memory required for data: 3182600556
I0913 19:48:37.241852  1241 layer_factory.hpp:77] Creating layer conv6_1_new
I0913 19:48:37.241860  1241 net.cpp:100] Creating Layer conv6_1_new
I0913 19:48:37.241864  1241 net.cpp:434] conv6_1_new <- pool5_new
I0913 19:48:37.241870  1241 net.cpp:408] conv6_1_new -> conv6_1
I0913 19:48:37.306640  1241 net.cpp:150] Setting up conv6_1_new
I0913 19:48:37.306670  1241 net.cpp:157] Top shape: 2 512 24 24 (589824)
I0913 19:48:37.306675  1241 net.cpp:165] Memory required for data: 3184959852
I0913 19:48:37.306684  1241 layer_factory.hpp:77] Creating layer relu6_1
I0913 19:48:37.306699  1241 net.cpp:100] Creating Layer relu6_1
I0913 19:48:37.306705  1241 net.cpp:434] relu6_1 <- conv6_1
I0913 19:48:37.306715  1241 net.cpp:395] relu6_1 -> conv6_1 (in-place)
I0913 19:48:37.306924  1241 net.cpp:150] Setting up relu6_1
I0913 19:48:37.306933  1241 net.cpp:157] Top shape: 2 512 24 24 (589824)
I0913 19:48:37.306937  1241 net.cpp:165] Memory required for data: 3187319148
I0913 19:48:37.306941  1241 layer_factory.hpp:77] Creating layer conv6_1_relu6_1_0_split
I0913 19:48:37.306946  1241 net.cpp:100] Creating Layer conv6_1_relu6_1_0_split
I0913 19:48:37.306949  1241 net.cpp:434] conv6_1_relu6_1_0_split <- conv6_1
I0913 19:48:37.306955  1241 net.cpp:408] conv6_1_relu6_1_0_split -> conv6_1_relu6_1_0_split_0
I0913 19:48:37.306962  1241 net.cpp:408] conv6_1_relu6_1_0_split -> conv6_1_relu6_1_0_split_1
I0913 19:48:37.306967  1241 net.cpp:408] conv6_1_relu6_1_0_split -> conv6_1_relu6_1_0_split_2
I0913 19:48:37.307021  1241 net.cpp:150] Setting up conv6_1_relu6_1_0_split
I0913 19:48:37.307029  1241 net.cpp:157] Top shape: 2 512 24 24 (589824)
I0913 19:48:37.307032  1241 net.cpp:157] Top shape: 2 512 24 24 (589824)
I0913 19:48:37.307040  1241 net.cpp:157] Top shape: 2 512 24 24 (589824)
I0913 19:48:37.307044  1241 net.cpp:165] Memory required for data: 3194397036
I0913 19:48:37.307046  1241 layer_factory.hpp:77] Creating layer LFCN_3_5x5
I0913 19:48:37.307056  1241 net.cpp:100] Creating Layer LFCN_3_5x5
I0913 19:48:37.307060  1241 net.cpp:434] LFCN_3_5x5 <- conv6_1_relu6_1_0_split_0
I0913 19:48:37.307068  1241 net.cpp:408] LFCN_3_5x5 -> LFCN_3_5x5
I0913 19:48:37.312062  1241 net.cpp:150] Setting up LFCN_3_5x5
I0913 19:48:37.312130  1241 net.cpp:157] Top shape: 2 9 24 24 (10368)
I0913 19:48:37.312134  1241 net.cpp:165] Memory required for data: 3194438508
I0913 19:48:37.312145  1241 layer_factory.hpp:77] Creating layer LFCN_3_5x5_LFCN_3_5x5_0_split
I0913 19:48:37.312157  1241 net.cpp:100] Creating Layer LFCN_3_5x5_LFCN_3_5x5_0_split
I0913 19:48:37.312165  1241 net.cpp:434] LFCN_3_5x5_LFCN_3_5x5_0_split <- LFCN_3_5x5
I0913 19:48:37.312175  1241 net.cpp:408] LFCN_3_5x5_LFCN_3_5x5_0_split -> LFCN_3_5x5_LFCN_3_5x5_0_split_0
I0913 19:48:37.312185  1241 net.cpp:408] LFCN_3_5x5_LFCN_3_5x5_0_split -> LFCN_3_5x5_LFCN_3_5x5_0_split_1
I0913 19:48:37.312189  1241 net.cpp:408] LFCN_3_5x5_LFCN_3_5x5_0_split -> LFCN_3_5x5_LFCN_3_5x5_0_split_2
I0913 19:48:37.312247  1241 net.cpp:150] Setting up LFCN_3_5x5_LFCN_3_5x5_0_split
I0913 19:48:37.312254  1241 net.cpp:157] Top shape: 2 9 24 24 (10368)
I0913 19:48:37.312258  1241 net.cpp:157] Top shape: 2 9 24 24 (10368)
I0913 19:48:37.312263  1241 net.cpp:157] Top shape: 2 9 24 24 (10368)
I0913 19:48:37.312265  1241 net.cpp:165] Memory required for data: 3194562924
I0913 19:48:37.312268  1241 layer_factory.hpp:77] Creating layer detection_loss_3_5x5
I0913 19:48:37.312278  1241 net.cpp:100] Creating Layer detection_loss_3_5x5
I0913 19:48:37.312280  1241 net.cpp:434] detection_loss_3_5x5 <- LFCN_3_5x5_LFCN_3_5x5_0_split_0
I0913 19:48:37.312289  1241 net.cpp:434] detection_loss_3_5x5 <- label_3_5x5_data_5_split_0
I0913 19:48:37.312295  1241 net.cpp:408] detection_loss_3_5x5 -> loss_3_5x5
I0913 19:48:37.312304  1241 layer_factory.hpp:77] Creating layer detection_loss_3_5x5
I0913 19:48:37.312666  1241 net.cpp:150] Setting up detection_loss_3_5x5
I0913 19:48:37.312676  1241 net.cpp:157] Top shape: 1 1 1 2 (2)
I0913 19:48:37.312680  1241 net.cpp:160]     with loss weight 1
I0913 19:48:37.312690  1241 net.cpp:165] Memory required for data: 3194562932
I0913 19:48:37.312693  1241 layer_factory.hpp:77] Creating layer detection_accuracy_3_5x5
I0913 19:48:37.312701  1241 net.cpp:100] Creating Layer detection_accuracy_3_5x5
I0913 19:48:37.312705  1241 net.cpp:434] detection_accuracy_3_5x5 <- LFCN_3_5x5_LFCN_3_5x5_0_split_1
I0913 19:48:37.312710  1241 net.cpp:434] detection_accuracy_3_5x5 <- label_3_5x5_data_5_split_1
I0913 19:48:37.312714  1241 net.cpp:408] detection_accuracy_3_5x5 -> accuracy_3_5x5
I0913 19:48:37.312721  1241 net.cpp:408] detection_accuracy_3_5x5 -> boxiou_3_5x5
I0913 19:48:37.312765  1241 net.cpp:150] Setting up detection_accuracy_3_5x5
I0913 19:48:37.312772  1241 net.cpp:157] Top shape: 1 1 1 2 (2)
I0913 19:48:37.312777  1241 net.cpp:157] Top shape: 1 1 1 1 (1)
I0913 19:48:37.312778  1241 net.cpp:165] Memory required for data: 3194562944
I0913 19:48:37.312783  1241 layer_factory.hpp:77] Creating layer LFCN_3_7x7
I0913 19:48:37.312793  1241 net.cpp:100] Creating Layer LFCN_3_7x7
I0913 19:48:37.312796  1241 net.cpp:434] LFCN_3_7x7 <- conv6_1_relu6_1_0_split_1
I0913 19:48:37.312803  1241 net.cpp:408] LFCN_3_7x7 -> LFCN_3_7x7
I0913 19:48:37.320365  1241 net.cpp:150] Setting up LFCN_3_7x7
I0913 19:48:37.320389  1241 net.cpp:157] Top shape: 2 9 24 24 (10368)
I0913 19:48:37.320392  1241 net.cpp:165] Memory required for data: 3194604416
I0913 19:48:37.320401  1241 layer_factory.hpp:77] Creating layer LFCN_3_7x7_LFCN_3_7x7_0_split
I0913 19:48:37.320411  1241 net.cpp:100] Creating Layer LFCN_3_7x7_LFCN_3_7x7_0_split
I0913 19:48:37.320416  1241 net.cpp:434] LFCN_3_7x7_LFCN_3_7x7_0_split <- LFCN_3_7x7
I0913 19:48:37.320423  1241 net.cpp:408] LFCN_3_7x7_LFCN_3_7x7_0_split -> LFCN_3_7x7_LFCN_3_7x7_0_split_0
I0913 19:48:37.320430  1241 net.cpp:408] LFCN_3_7x7_LFCN_3_7x7_0_split -> LFCN_3_7x7_LFCN_3_7x7_0_split_1
I0913 19:48:37.320437  1241 net.cpp:408] LFCN_3_7x7_LFCN_3_7x7_0_split -> LFCN_3_7x7_LFCN_3_7x7_0_split_2
I0913 19:48:37.320493  1241 net.cpp:150] Setting up LFCN_3_7x7_LFCN_3_7x7_0_split
I0913 19:48:37.320499  1241 net.cpp:157] Top shape: 2 9 24 24 (10368)
I0913 19:48:37.320504  1241 net.cpp:157] Top shape: 2 9 24 24 (10368)
I0913 19:48:37.320508  1241 net.cpp:157] Top shape: 2 9 24 24 (10368)
I0913 19:48:37.320511  1241 net.cpp:165] Memory required for data: 3194728832
I0913 19:48:37.320514  1241 layer_factory.hpp:77] Creating layer detection_loss_3_7x7
I0913 19:48:37.320542  1241 net.cpp:100] Creating Layer detection_loss_3_7x7
I0913 19:48:37.320549  1241 net.cpp:434] detection_loss_3_7x7 <- LFCN_3_7x7_LFCN_3_7x7_0_split_0
I0913 19:48:37.320556  1241 net.cpp:434] detection_loss_3_7x7 <- label_3_7x7_data_6_split_0
I0913 19:48:37.320564  1241 net.cpp:408] detection_loss_3_7x7 -> loss_3_7x7
I0913 19:48:37.320576  1241 layer_factory.hpp:77] Creating layer detection_loss_3_7x7
I0913 19:48:37.321331  1241 net.cpp:150] Setting up detection_loss_3_7x7
I0913 19:48:37.321344  1241 net.cpp:157] Top shape: 1 1 1 2 (2)
I0913 19:48:37.321347  1241 net.cpp:160]     with loss weight 1
I0913 19:48:37.321358  1241 net.cpp:165] Memory required for data: 3194728840
I0913 19:48:37.321362  1241 layer_factory.hpp:77] Creating layer detection_accuracy_3_7x7
I0913 19:48:37.321368  1241 net.cpp:100] Creating Layer detection_accuracy_3_7x7
I0913 19:48:37.321372  1241 net.cpp:434] detection_accuracy_3_7x7 <- LFCN_3_7x7_LFCN_3_7x7_0_split_1
I0913 19:48:37.321377  1241 net.cpp:434] detection_accuracy_3_7x7 <- label_3_7x7_data_6_split_1
I0913 19:48:37.321383  1241 net.cpp:408] detection_accuracy_3_7x7 -> accuracy_3_7x7
I0913 19:48:37.321391  1241 net.cpp:408] detection_accuracy_3_7x7 -> boxiou_3_7x7
I0913 19:48:37.321434  1241 net.cpp:150] Setting up detection_accuracy_3_7x7
I0913 19:48:37.321440  1241 net.cpp:157] Top shape: 1 1 1 2 (2)
I0913 19:48:37.321444  1241 net.cpp:157] Top shape: 1 1 1 1 (1)
I0913 19:48:37.321447  1241 net.cpp:165] Memory required for data: 3194728852
I0913 19:48:37.321450  1241 layer_factory.hpp:77] Creating layer pool6
I0913 19:48:37.321457  1241 net.cpp:100] Creating Layer pool6
I0913 19:48:37.321461  1241 net.cpp:434] pool6 <- conv6_1_relu6_1_0_split_2
I0913 19:48:37.321466  1241 net.cpp:408] pool6 -> pool6
I0913 19:48:37.321552  1241 net.cpp:150] Setting up pool6
I0913 19:48:37.321563  1241 net.cpp:157] Top shape: 2 512 12 12 (147456)
I0913 19:48:37.321565  1241 net.cpp:165] Memory required for data: 3195318676
I0913 19:48:37.321569  1241 layer_factory.hpp:77] Creating layer ch4_pool6
I0913 19:48:37.321576  1241 net.cpp:100] Creating Layer ch4_pool6
I0913 19:48:37.321580  1241 net.cpp:434] ch4_pool6 <- ch4_pool5_ch4_pool5_0_split_1
I0913 19:48:37.321585  1241 net.cpp:408] ch4_pool6 -> ch4_pool6
I0913 19:48:37.321625  1241 net.cpp:150] Setting up ch4_pool6
I0913 19:48:37.321632  1241 net.cpp:157] Top shape: 2 1 12 12 (288)
I0913 19:48:37.321635  1241 net.cpp:165] Memory required for data: 3195319828
I0913 19:48:37.321638  1241 layer_factory.hpp:77] Creating layer pool6_concat
I0913 19:48:37.321643  1241 net.cpp:100] Creating Layer pool6_concat
I0913 19:48:37.321647  1241 net.cpp:434] pool6_concat <- pool6
I0913 19:48:37.321651  1241 net.cpp:434] pool6_concat <- ch4_pool6
I0913 19:48:37.321656  1241 net.cpp:408] pool6_concat -> pool6_new
I0913 19:48:37.321678  1241 net.cpp:150] Setting up pool6_concat
I0913 19:48:37.321686  1241 net.cpp:157] Top shape: 2 513 12 12 (147744)
I0913 19:48:37.321688  1241 net.cpp:165] Memory required for data: 3195910804
I0913 19:48:37.321691  1241 layer_factory.hpp:77] Creating layer LFCN_4_5x5_new
I0913 19:48:37.321699  1241 net.cpp:100] Creating Layer LFCN_4_5x5_new
I0913 19:48:37.321702  1241 net.cpp:434] LFCN_4_5x5_new <- pool6_new
I0913 19:48:37.321708  1241 net.cpp:408] LFCN_4_5x5_new -> LFCN_4_5x5
I0913 19:48:37.323283  1241 net.cpp:150] Setting up LFCN_4_5x5_new
I0913 19:48:37.323297  1241 net.cpp:157] Top shape: 2 9 12 12 (2592)
I0913 19:48:37.323302  1241 net.cpp:165] Memory required for data: 3195921172
I0913 19:48:37.323308  1241 layer_factory.hpp:77] Creating layer LFCN_4_5x5_LFCN_4_5x5_new_0_split
I0913 19:48:37.323314  1241 net.cpp:100] Creating Layer LFCN_4_5x5_LFCN_4_5x5_new_0_split
I0913 19:48:37.323320  1241 net.cpp:434] LFCN_4_5x5_LFCN_4_5x5_new_0_split <- LFCN_4_5x5
I0913 19:48:37.323325  1241 net.cpp:408] LFCN_4_5x5_LFCN_4_5x5_new_0_split -> LFCN_4_5x5_LFCN_4_5x5_new_0_split_0
I0913 19:48:37.323333  1241 net.cpp:408] LFCN_4_5x5_LFCN_4_5x5_new_0_split -> LFCN_4_5x5_LFCN_4_5x5_new_0_split_1
I0913 19:48:37.323338  1241 net.cpp:408] LFCN_4_5x5_LFCN_4_5x5_new_0_split -> LFCN_4_5x5_LFCN_4_5x5_new_0_split_2
I0913 19:48:37.323393  1241 net.cpp:150] Setting up LFCN_4_5x5_LFCN_4_5x5_new_0_split
I0913 19:48:37.323400  1241 net.cpp:157] Top shape: 2 9 12 12 (2592)
I0913 19:48:37.323405  1241 net.cpp:157] Top shape: 2 9 12 12 (2592)
I0913 19:48:37.323408  1241 net.cpp:157] Top shape: 2 9 12 12 (2592)
I0913 19:48:37.323411  1241 net.cpp:165] Memory required for data: 3195952276
I0913 19:48:37.323415  1241 layer_factory.hpp:77] Creating layer detection_loss_4_5x5
I0913 19:48:37.323421  1241 net.cpp:100] Creating Layer detection_loss_4_5x5
I0913 19:48:37.323424  1241 net.cpp:434] detection_loss_4_5x5 <- LFCN_4_5x5_LFCN_4_5x5_new_0_split_0
I0913 19:48:37.323429  1241 net.cpp:434] detection_loss_4_5x5 <- label_4_5x5_data_7_split_0
I0913 19:48:37.323433  1241 net.cpp:408] detection_loss_4_5x5 -> loss_4_5x5
I0913 19:48:37.323441  1241 layer_factory.hpp:77] Creating layer detection_loss_4_5x5
I0913 19:48:37.323792  1241 net.cpp:150] Setting up detection_loss_4_5x5
I0913 19:48:37.323801  1241 net.cpp:157] Top shape: 1 1 1 2 (2)
I0913 19:48:37.323804  1241 net.cpp:160]     with loss weight 1
I0913 19:48:37.323810  1241 net.cpp:165] Memory required for data: 3195952284
I0913 19:48:37.323814  1241 layer_factory.hpp:77] Creating layer detection_accuracy_4_5x5
I0913 19:48:37.323820  1241 net.cpp:100] Creating Layer detection_accuracy_4_5x5
I0913 19:48:37.323823  1241 net.cpp:434] detection_accuracy_4_5x5 <- LFCN_4_5x5_LFCN_4_5x5_new_0_split_1
I0913 19:48:37.323828  1241 net.cpp:434] detection_accuracy_4_5x5 <- label_4_5x5_data_7_split_1
I0913 19:48:37.323834  1241 net.cpp:408] detection_accuracy_4_5x5 -> accuracy_4_5x5
I0913 19:48:37.323840  1241 net.cpp:408] detection_accuracy_4_5x5 -> boxiou_4_5x5
I0913 19:48:37.323879  1241 net.cpp:150] Setting up detection_accuracy_4_5x5
I0913 19:48:37.323886  1241 net.cpp:157] Top shape: 1 1 1 2 (2)
I0913 19:48:37.323890  1241 net.cpp:157] Top shape: 1 1 1 1 (1)
I0913 19:48:37.323894  1241 net.cpp:165] Memory required for data: 3195952296
I0913 19:48:37.323896  1241 layer_factory.hpp:77] Creating layer proposals
I0913 19:48:37.323905  1241 net.cpp:100] Creating Layer proposals
I0913 19:48:37.323909  1241 net.cpp:434] proposals <- LFCN_1_5x5_LFCN_1_5x5_0_split_2
I0913 19:48:37.323913  1241 net.cpp:434] proposals <- LFCN_1_7x7_LFCN_1_7x7_0_split_2
I0913 19:48:37.323917  1241 net.cpp:434] proposals <- LFCN_2_5x5_LFCN_2_5x5_0_split_2
I0913 19:48:37.323921  1241 net.cpp:434] proposals <- LFCN_2_7x7_LFCN_2_7x7_0_split_2
I0913 19:48:37.323925  1241 net.cpp:434] proposals <- LFCN_3_5x5_LFCN_3_5x5_0_split_2
I0913 19:48:37.323930  1241 net.cpp:434] proposals <- LFCN_3_7x7_LFCN_3_7x7_0_split_2
I0913 19:48:37.323932  1241 net.cpp:434] proposals <- LFCN_4_5x5_LFCN_4_5x5_new_0_split_2
I0913 19:48:37.323938  1241 net.cpp:408] proposals -> proposals
I0913 19:48:37.323971  1241 net.cpp:150] Setting up proposals
I0913 19:48:37.323978  1241 net.cpp:157] Top shape: 1 5 1 1 (5)
I0913 19:48:37.323982  1241 net.cpp:165] Memory required for data: 3195952316
I0913 19:48:37.323984  1241 layer_factory.hpp:77] Creating layer proposal_info
I0913 19:48:37.323994  1241 net.cpp:100] Creating Layer proposal_info
I0913 19:48:37.323998  1241 net.cpp:434] proposal_info <- proposals
I0913 19:48:37.324002  1241 net.cpp:434] proposal_info <- gt_boxes
I0913 19:48:37.324008  1241 net.cpp:408] proposal_info -> rois
I0913 19:48:37.324015  1241 net.cpp:408] proposal_info -> proposal_labels
I0913 19:48:37.324021  1241 net.cpp:408] proposal_info -> proposal_targets
I0913 19:48:37.324028  1241 net.cpp:408] proposal_info -> box_inside_weights
I0913 19:48:37.324033  1241 net.cpp:408] proposal_info -> box_outside_weights
I0913 19:48:37.324038  1241 net.cpp:408] proposal_info -> match_gt_boxes
I0913 19:48:37.324132  1241 net.cpp:150] Setting up proposal_info
I0913 19:48:37.324139  1241 net.cpp:157] Top shape: 128 5 1 1 (640)
I0913 19:48:37.324143  1241 net.cpp:157] Top shape: 128 1 1 1 (128)
I0913 19:48:37.324147  1241 net.cpp:157] Top shape: 128 20 1 1 (2560)
I0913 19:48:37.324151  1241 net.cpp:157] Top shape: 128 20 1 1 (2560)
I0913 19:48:37.324156  1241 net.cpp:157] Top shape: 128 20 1 1 (2560)
I0913 19:48:37.324159  1241 net.cpp:157] Top shape: 128 6 1 1 (768)
I0913 19:48:37.324163  1241 net.cpp:165] Memory required for data: 3195989180
I0913 19:48:37.324167  1241 layer_factory.hpp:77] Creating layer rois_proposal_info_0_split
I0913 19:48:37.324172  1241 net.cpp:100] Creating Layer rois_proposal_info_0_split
I0913 19:48:37.324175  1241 net.cpp:434] rois_proposal_info_0_split <- rois
I0913 19:48:37.324179  1241 net.cpp:408] rois_proposal_info_0_split -> rois_proposal_info_0_split_0
I0913 19:48:37.324185  1241 net.cpp:408] rois_proposal_info_0_split -> rois_proposal_info_0_split_1
I0913 19:48:37.324189  1241 net.cpp:408] rois_proposal_info_0_split -> rois_proposal_info_0_split_2
I0913 19:48:37.324236  1241 net.cpp:150] Setting up rois_proposal_info_0_split
I0913 19:48:37.324242  1241 net.cpp:157] Top shape: 128 5 1 1 (640)
I0913 19:48:37.324246  1241 net.cpp:157] Top shape: 128 5 1 1 (640)
I0913 19:48:37.324250  1241 net.cpp:157] Top shape: 128 5 1 1 (640)
I0913 19:48:37.324254  1241 net.cpp:165] Memory required for data: 3195996860
I0913 19:48:37.324256  1241 layer_factory.hpp:77] Creating layer proposal_labels_proposal_info_1_split
I0913 19:48:37.324262  1241 net.cpp:100] Creating Layer proposal_labels_proposal_info_1_split
I0913 19:48:37.324265  1241 net.cpp:434] proposal_labels_proposal_info_1_split <- proposal_labels
I0913 19:48:37.324270  1241 net.cpp:408] proposal_labels_proposal_info_1_split -> proposal_labels_proposal_info_1_split_0
I0913 19:48:37.324275  1241 net.cpp:408] proposal_labels_proposal_info_1_split -> proposal_labels_proposal_info_1_split_1
I0913 19:48:37.324311  1241 net.cpp:150] Setting up proposal_labels_proposal_info_1_split
I0913 19:48:37.324316  1241 net.cpp:157] Top shape: 128 1 1 1 (128)
I0913 19:48:37.324321  1241 net.cpp:157] Top shape: 128 1 1 1 (128)
I0913 19:48:37.324323  1241 net.cpp:165] Memory required for data: 3195997884
I0913 19:48:37.324326  1241 layer_factory.hpp:77] Creating layer conv4_3_2x
I0913 19:48:37.324332  1241 net.cpp:100] Creating Layer conv4_3_2x
I0913 19:48:37.324337  1241 net.cpp:434] conv4_3_2x <- conv4_3_relu4_3_0_split_2
I0913 19:48:37.324342  1241 net.cpp:408] conv4_3_2x -> conv4_3_2x
I0913 19:48:37.324834  1241 net.cpp:150] Setting up conv4_3_2x
I0913 19:48:37.324842  1241 net.cpp:157] Top shape: 2 512 192 192 (37748736)
I0913 19:48:37.324846  1241 net.cpp:165] Memory required for data: 3346992828
I0913 19:48:37.324849  1241 layer_factory.hpp:77] Creating layer conv4_3_2x_conv4_3_2x_0_split
I0913 19:48:37.324856  1241 net.cpp:100] Creating Layer conv4_3_2x_conv4_3_2x_0_split
I0913 19:48:37.324859  1241 net.cpp:434] conv4_3_2x_conv4_3_2x_0_split <- conv4_3_2x
I0913 19:48:37.324863  1241 net.cpp:408] conv4_3_2x_conv4_3_2x_0_split -> conv4_3_2x_conv4_3_2x_0_split_0
I0913 19:48:37.324869  1241 net.cpp:408] conv4_3_2x_conv4_3_2x_0_split -> conv4_3_2x_conv4_3_2x_0_split_1
I0913 19:48:37.324906  1241 net.cpp:150] Setting up conv4_3_2x_conv4_3_2x_0_split
I0913 19:48:37.324913  1241 net.cpp:157] Top shape: 2 512 192 192 (37748736)
I0913 19:48:37.324918  1241 net.cpp:157] Top shape: 2 512 192 192 (37748736)
I0913 19:48:37.324920  1241 net.cpp:165] Memory required for data: 3648982716
I0913 19:48:37.324923  1241 layer_factory.hpp:77] Creating layer roi_pool_org
I0913 19:48:37.324929  1241 net.cpp:100] Creating Layer roi_pool_org
I0913 19:48:37.324932  1241 net.cpp:434] roi_pool_org <- conv4_3_2x_conv4_3_2x_0_split_0
I0913 19:48:37.324937  1241 net.cpp:434] roi_pool_org <- rois_proposal_info_0_split_0
I0913 19:48:37.324941  1241 net.cpp:408] roi_pool_org -> roi_pool_org
I0913 19:48:37.324947  1241 roi_pooling_layer.cpp:33] Spatial scale: 0.25
I0913 19:48:37.324988  1241 net.cpp:150] Setting up roi_pool_org
I0913 19:48:37.324995  1241 net.cpp:157] Top shape: 128 512 7 7 (3211264)
I0913 19:48:37.324997  1241 net.cpp:165] Memory required for data: 3661827772
I0913 19:48:37.325001  1241 layer_factory.hpp:77] Creating layer roi_pool_ctx
I0913 19:48:37.325006  1241 net.cpp:100] Creating Layer roi_pool_ctx
I0913 19:48:37.325009  1241 net.cpp:434] roi_pool_ctx <- conv4_3_2x_conv4_3_2x_0_split_1
I0913 19:48:37.325013  1241 net.cpp:434] roi_pool_ctx <- rois_proposal_info_0_split_1
I0913 19:48:37.325018  1241 net.cpp:408] roi_pool_ctx -> roi_pool_ctx
I0913 19:48:37.325024  1241 roi_pooling_layer.cpp:33] Spatial scale: 0.25
I0913 19:48:37.325062  1241 net.cpp:150] Setting up roi_pool_ctx
I0913 19:48:37.325067  1241 net.cpp:157] Top shape: 128 512 7 7 (3211264)
I0913 19:48:37.325070  1241 net.cpp:165] Memory required for data: 3674672828
I0913 19:48:37.325073  1241 layer_factory.hpp:77] Creating layer roi_pool
I0913 19:48:37.325079  1241 net.cpp:100] Creating Layer roi_pool
I0913 19:48:37.325083  1241 net.cpp:434] roi_pool <- roi_pool_org
I0913 19:48:37.325088  1241 net.cpp:434] roi_pool <- roi_pool_ctx
I0913 19:48:37.325091  1241 net.cpp:408] roi_pool -> roi_pool
I0913 19:48:37.325114  1241 net.cpp:150] Setting up roi_pool
I0913 19:48:37.325119  1241 net.cpp:157] Top shape: 128 1024 7 7 (6422528)
I0913 19:48:37.325122  1241 net.cpp:165] Memory required for data: 3700362940
I0913 19:48:37.325125  1241 layer_factory.hpp:77] Creating layer roi_c1
I0913 19:48:37.325132  1241 net.cpp:100] Creating Layer roi_c1
I0913 19:48:37.325136  1241 net.cpp:434] roi_c1 <- roi_pool
I0913 19:48:37.325142  1241 net.cpp:408] roi_c1 -> roi_c1
I0913 19:48:37.446367  1241 net.cpp:150] Setting up roi_c1
I0913 19:48:37.446394  1241 net.cpp:157] Top shape: 128 512 5 5 (1638400)
I0913 19:48:37.446398  1241 net.cpp:165] Memory required for data: 3706916540
I0913 19:48:37.446406  1241 layer_factory.hpp:77] Creating layer roi_c1_relu
I0913 19:48:37.446418  1241 net.cpp:100] Creating Layer roi_c1_relu
I0913 19:48:37.446424  1241 net.cpp:434] roi_c1_relu <- roi_c1
I0913 19:48:37.446431  1241 net.cpp:395] roi_c1_relu -> roi_c1 (in-place)
I0913 19:48:37.446593  1241 net.cpp:150] Setting up roi_c1_relu
I0913 19:48:37.446602  1241 net.cpp:157] Top shape: 128 512 5 5 (1638400)
I0913 19:48:37.446606  1241 net.cpp:165] Memory required for data: 3713470140
I0913 19:48:37.446610  1241 layer_factory.hpp:77] Creating layer fc6
I0913 19:48:37.446619  1241 net.cpp:100] Creating Layer fc6
I0913 19:48:37.446622  1241 net.cpp:434] fc6 <- roi_c1
I0913 19:48:37.446629  1241 net.cpp:408] fc6 -> fc6
I0913 19:48:38.716583  1241 net.cpp:150] Setting up fc6
I0913 19:48:38.716614  1241 net.cpp:157] Top shape: 128 4096 (524288)
I0913 19:48:38.716619  1241 net.cpp:165] Memory required for data: 3715567292
I0913 19:48:38.716627  1241 layer_factory.hpp:77] Creating layer relu6
I0913 19:48:38.716637  1241 net.cpp:100] Creating Layer relu6
I0913 19:48:38.716645  1241 net.cpp:434] relu6 <- fc6
I0913 19:48:38.716650  1241 net.cpp:395] relu6 -> fc6 (in-place)
I0913 19:48:38.716881  1241 net.cpp:150] Setting up relu6
I0913 19:48:38.716890  1241 net.cpp:157] Top shape: 128 4096 (524288)
I0913 19:48:38.716893  1241 net.cpp:165] Memory required for data: 3717664444
I0913 19:48:38.716897  1241 layer_factory.hpp:77] Creating layer drop6
I0913 19:48:38.716904  1241 net.cpp:100] Creating Layer drop6
I0913 19:48:38.716908  1241 net.cpp:434] drop6 <- fc6
I0913 19:48:38.716913  1241 net.cpp:395] drop6 -> fc6 (in-place)
I0913 19:48:38.716935  1241 net.cpp:150] Setting up drop6
I0913 19:48:38.716941  1241 net.cpp:157] Top shape: 128 4096 (524288)
I0913 19:48:38.716946  1241 net.cpp:165] Memory required for data: 3719761596
I0913 19:48:38.716949  1241 layer_factory.hpp:77] Creating layer fc6_drop6_0_split
I0913 19:48:38.716954  1241 net.cpp:100] Creating Layer fc6_drop6_0_split
I0913 19:48:38.716958  1241 net.cpp:434] fc6_drop6_0_split <- fc6
I0913 19:48:38.716962  1241 net.cpp:408] fc6_drop6_0_split -> fc6_drop6_0_split_0
I0913 19:48:38.716969  1241 net.cpp:408] fc6_drop6_0_split -> fc6_drop6_0_split_1
I0913 19:48:38.717008  1241 net.cpp:150] Setting up fc6_drop6_0_split
I0913 19:48:38.717015  1241 net.cpp:157] Top shape: 128 4096 (524288)
I0913 19:48:38.717020  1241 net.cpp:157] Top shape: 128 4096 (524288)
I0913 19:48:38.717022  1241 net.cpp:165] Memory required for data: 3723955900
I0913 19:48:38.717026  1241 layer_factory.hpp:77] Creating layer cls_pred
I0913 19:48:38.717036  1241 net.cpp:100] Creating Layer cls_pred
I0913 19:48:38.717038  1241 net.cpp:434] cls_pred <- fc6_drop6_0_split_0
I0913 19:48:38.717044  1241 net.cpp:408] cls_pred -> cls_pred
I0913 19:48:38.717674  1241 net.cpp:150] Setting up cls_pred
I0913 19:48:38.717681  1241 net.cpp:157] Top shape: 128 5 (640)
I0913 19:48:38.717684  1241 net.cpp:165] Memory required for data: 3723958460
I0913 19:48:38.717689  1241 layer_factory.hpp:77] Creating layer cls_pred_cls_pred_0_split
I0913 19:48:38.717695  1241 net.cpp:100] Creating Layer cls_pred_cls_pred_0_split
I0913 19:48:38.717700  1241 net.cpp:434] cls_pred_cls_pred_0_split <- cls_pred
I0913 19:48:38.717705  1241 net.cpp:408] cls_pred_cls_pred_0_split -> cls_pred_cls_pred_0_split_0
I0913 19:48:38.717710  1241 net.cpp:408] cls_pred_cls_pred_0_split -> cls_pred_cls_pred_0_split_1
I0913 19:48:38.717742  1241 net.cpp:150] Setting up cls_pred_cls_pred_0_split
I0913 19:48:38.717751  1241 net.cpp:157] Top shape: 128 5 (640)
I0913 19:48:38.717756  1241 net.cpp:157] Top shape: 128 5 (640)
I0913 19:48:38.717758  1241 net.cpp:165] Memory required for data: 3723963580
I0913 19:48:38.717761  1241 layer_factory.hpp:77] Creating layer bbox_pred
I0913 19:48:38.717767  1241 net.cpp:100] Creating Layer bbox_pred
I0913 19:48:38.717769  1241 net.cpp:434] bbox_pred <- fc6_drop6_0_split_1
I0913 19:48:38.717777  1241 net.cpp:408] bbox_pred -> bbox_pred
I0913 19:48:38.720010  1241 net.cpp:150] Setting up bbox_pred
I0913 19:48:38.720016  1241 net.cpp:157] Top shape: 128 20 (2560)
I0913 19:48:38.720019  1241 net.cpp:165] Memory required for data: 3723973820
I0913 19:48:38.720024  1241 layer_factory.hpp:77] Creating layer bbox_pred_bbox_pred_0_split
I0913 19:48:38.720027  1241 net.cpp:100] Creating Layer bbox_pred_bbox_pred_0_split
I0913 19:48:38.720031  1241 net.cpp:434] bbox_pred_bbox_pred_0_split <- bbox_pred
I0913 19:48:38.720036  1241 net.cpp:408] bbox_pred_bbox_pred_0_split -> bbox_pred_bbox_pred_0_split_0
I0913 19:48:38.720041  1241 net.cpp:408] bbox_pred_bbox_pred_0_split -> bbox_pred_bbox_pred_0_split_1
I0913 19:48:38.720069  1241 net.cpp:150] Setting up bbox_pred_bbox_pred_0_split
I0913 19:48:38.720073  1241 net.cpp:157] Top shape: 128 20 (2560)
I0913 19:48:38.720077  1241 net.cpp:157] Top shape: 128 20 (2560)
I0913 19:48:38.720079  1241 net.cpp:165] Memory required for data: 3723994300
I0913 19:48:38.720082  1241 layer_factory.hpp:77] Creating layer loss_cls
I0913 19:48:38.720088  1241 net.cpp:100] Creating Layer loss_cls
I0913 19:48:38.720090  1241 net.cpp:434] loss_cls <- cls_pred_cls_pred_0_split_0
I0913 19:48:38.720094  1241 net.cpp:434] loss_cls <- proposal_labels_proposal_info_1_split_0
…
