…
    downsample_rate: 32
    downsample_rate: 32
    downsample_rate: 64
    coord_num: 4
    field_h: 60
    field_h: 84
    field_h: 120
    field_h: 168
    field_h: 240
    field_h: 336
    field_h: 480
    field_w: 60
    field_w: 84
    field_w: 120
    field_w: 168
    field_w: 240
    field_w: 336
    field_w: 480
    fg_threshold: 0.5
    resize_width: 1344
    resize_height: 768
    crop_width: 768
    crop_height: 768
    do_multiple_scale: true
    min_scale: 60
    max_scale: 480
    min_gt_height: 25
    shuffle: true
    output_gt_boxes: true
  }
}
layer {
  name: "slice"
  type: "Slice"
  bottom: "data"
  top: "data123"
  top: "ch4"
  slice_param {
    slice_point: 3
    axis: 1
  }
}
layer {
  name: "ch4_0-127"
  type: "Power"
  bottom: "ch4"
  top: "ch4_0-127"
  power_param {
    power: 1
    scale: 1
    shift: -128
  }
}
layer {
  name: "ch4_128-255"
  type: "Power"
  bottom: "ch4"
  top: "ch4_128-255"
  power_param {
    power: 1
    scale: -1
    shift: 128
  }
}
layer {
  name: "ch4_2cls-concat"
  type: "Concat"
  bottom: "ch4_0-127"
  bottom: "ch4_128-255"
  top: "ch4_2cls"
}
layer {
  name: "relu_ch42cls"
  type: "ReLU"
  bottom: "ch4_2cls"
  top: "ch4_2cls"
}
layer {
  name: "conv1_1"
  type: "Convolution"
  bottom: "data123"
  top: "conv1_1"
  param {
    lr_mult: 0
    decay_mult: 0
  }
  param {
    lr_mult: 0
    decay_mult: 0
  }
  convolution_param {
    num_output: 64
    pad: 1
    kernel_size: 3
  }
}
layer {
  name: "relu1_1"
  type: "ReLU"
  bottom: "conv1_1"
  top: "conv1_1"
}
layer {
  name: "conv1_2"
  type: "Convolution"
  bottom: "conv1_1"
  top: "conv1_2"
  param {
    lr_mult: 0
    decay_mult: 0
  }
  param {
    lr_mult: 0
    decay_mult: 0
  }
  convolution_param {
    num_output: 64
    pad: 1
    kernel_size: 3
  }
}
layer {
  name: "relu1_2"
  type: "ReLU"
  bottom: "conv1_2"
  top: "conv1_2"
}
layer {
  name: "pool1"
  type: "Pooling"
  bottom: "conv1_2"
  top: "pool1"
  pooling_param {
    pool: MAX
    kernel_size: 2
    stride: 2
  }
}
layer {
  name: "conv2_1"
  type: "Convolution"
  bottom: "pool1"
  top: "conv2_1"
  param {
    lr_mult: 0
    decay_mult: 0
  }
  param {
    lr_mult: 0
    decay_mult: 0
  }
  convolution_param {
    num_output: 128
    pad: 1
    kernel_size: 3
  }
}
layer {
  name: "relu2_1"
  type: "ReLU"
  bottom: "conv2_1"
  top: "conv2_1"
}
layer {
  name: "conv2_2"
  type: "Convolution"
  bottom: "conv2_1"
  top: "conv2_2"
  param {
    lr_mult: 0
    decay_mult: 0
  }
  param {
    lr_mult: 0
    decay_mult: 0
  }
  convolution_param {
    num_output: 128
    pad: 1
    kernel_size: 3
  }
}
layer {
  name: "relu2_2"
  type: "ReLU"
  bottom: "conv2_2"
  top: "conv2_2"
}
layer {
  name: "pool2"
  type: "Pooling"
  bottom: "conv2_2"
  top: "pool2"
  pooling_param {
    pool: MAX
    kernel_size: 2
    stride: 2
  }
}
layer {
  name: "conv3_1"
  type: "Convolution"
  bottom: "pool2"
  top: "conv3_1"
  convolution_param {
    num_output: 256
    pad: 1
    kernel_size: 3
  }
}
layer {
  name: "relu3_1"
  type: "ReLU"
  bottom: "conv3_1"
  top: "conv3_1"
}
layer {
  name: "conv3_2"
  type: "Convolution"
  bottom: "conv3_1"
  top: "conv3_2"
  convolution_param {
    num_output: 256
    pad: 1
    kernel_size: 3
  }
}
layer {
  name: "relu3_2"
  type: "ReLU"
  bottom: "conv3_2"
  top: "conv3_2"
}
layer {
  name: "conv3_3"
  type: "Convolution"
  bottom: "conv3_2"
  top: "conv3_3"
  convolution_param {
    num_output: 256
    pad: 1
    kernel_size: 3
  }
}
layer {
  name: "relu3_3"
  type: "ReLU"
  bottom: "conv3_3"
  top: "conv3_3"
}
layer {
  name: "pool3"
  type: "Pooling"
  bottom: "conv3_3"
  top: "pool3"
  pooling_param {
    pool: MAX
    kernel_size: 2
    stride: 2
  }
}
layer {
  name: "conv4_1"
  type: "Convolution"
  bottom: "pool3"
  top: "conv4_1"
  convolution_param {
    num_output: 512
    pad: 1
    kernel_size: 3
  }
}
layer {
  name: "relu4_1"
  type: "ReLU"
  bottom: "conv4_1"
  top: "conv4_1"
}
layer {
  name: "conv4_2"
  type: "Convolution"
  bottom: "conv4_1"
  top: "conv4_2"
  convolution_param {
    num_output: 512
    pad: 1
    kernel_size: 3
  }
}
layer {
  name: "relu4_2"
  type: "ReLU"
  bottom: "conv4_2"
  top: "conv4_2"
}
layer {
  name: "conv4_3"
  type: "Convolution"
  bottom: "conv4_2"
  top: "conv4_3"
  convolution_param {
    num_output: 512
    pad: 1
    kernel_size: 3
  }
}
layer {
  name: "relu4_3"
  type: "ReLU"
  bottom: "conv4_3"
  top: "conv4_3"
}
layer {
  name: "attention"
  type: "Convolution"
  bottom: "conv4_3"
  top: "attention"
  convolution_param {
    num_output: 2
    pad: 1
    kernel_size: 3
  }
}
layer {
  name: "relu_attention"
  type: "ReLU"
  bottom: "attention"
  top: "attention"
}
layer {
  name: "ch4_2cls_pool"
  type: "Pooling"
  bottom: "ch4_2cls"
  top: "ch4_2cls_pool"
  pooling_param {
    pool: MAX
    kernel_size: 8
    stride: 8
  }
}
layer {
  name: "loss_attention"
  type: "EuclideanLoss"
  bottom: "attention"
  bottom: "ch4_2cls_pool"
  top: "loss_attention"
  loss_weight: 1
  propagate_down: true
  propagate_down: false
}
layer {
  name: "loss1_conv1"
  type: "Convolution"
  bottom: "conv4_3"
  top: "loss1_conv1"
  param {
    lr_mult: 1
    decay_mult: 1
  }
  param {
    lr_mult: 2
    decay_mult: 0
  }
  convolution_param {
    num_output: 512
    pad: 1
    kernel_size: 3
    weight_filler {
      type: "gaussian"
      std: 0.01
    }
    bias_filler {
      type: "constant"
    }
  }
}
layer {
  name: "loss_relu1"
  type: "ReLU"
  bottom: "loss1_conv1"
  top: "loss1_conv1"
}
layer {
  name: "LFCN_1_5x5"
  type: "Convolution"
  bottom: "loss1_conv1"
  top: "LFCN_1_5x5"
  param {
    lr_mult: 1
    decay_mult: 1
  }
  param {
    lr_mult: 2
    decay_mult: 0
  }
  convolution_param {
    num_output: 9
    pad: 2
    kernel_size: 5
    weight_filler {
      type: "gaussian"
      std: 0.001
    }
    bias_filler {
      type: "constant"
    }
  }
}
layer {
  name: "detection_loss_1_5x5"
  type: "DetectionLoss"
  bottom: "LFCN_1_5x5"
  bottom: "label_1_5x5"
  top: "loss_1_5x5"
  loss_weight: 0.9
  detection_loss_param {
    cls_num: 5
    coord_num: 4
    lambda: 1
    field_h: 60
    field_w: 60
    downsample_rate: 8
    bb_smooth: true
    field_whr: 2
    field_xyr: 2
    bg_threshold: 0.2
    bg_multiple: 2
    sample_mode: "bootstrap"
    pos_neg_weighted: true
  }
}
layer {
  name: "detection_accuracy_1_5x5"
  type: "DetectionAccuracy"
  bottom: "LFCN_1_5x5"
  bottom: "label_1_5x5"
  top: "accuracy_1_5x5"
  top: "boxiou_1_5x5"
  detection_accuracy_param {
    cls_num: 5
    coord_num: 4
    field_h: 60
    field_w: 60
    downsample_rate: 8
    field_whr: 2
    field_xyr: 2
  }
}
layer {
  name: "LFCN_1_7x7"
  type: "Convolution"
  bottom: "loss1_conv1"
  top: "LFCN_1_7x7"
  param {
    lr_mult: 1
    decay_mult: 1
  }
  param {
    lr_mult: 2
    decay_mult: 0
  }
  convolution_param {
    num_output: 9
    pad: 3
    kernel_size: 7
    weight_filler {
      type: "gaussian"
      std: 0.001
    }
    bias_filler {
      type: "constant"
    }
  }
}
layer {
  name: "detection_loss_1_7x7"
  type: "DetectionLoss"
  bottom: "LFCN_1_7x7"
  bottom: "label_1_7x7"
  top: "loss_1_7x7"
  loss_weight: 0.9
  detection_loss_param {
    cls_num: 5
    coord_num: 4
    lambda: 1
    field_h: 84
    field_w: 84
    downsample_rate: 8
    bb_smooth: true
    field_whr: 2
    field_xyr: 2
    bg_threshold: 0.2
    bg_multiple: 2
    sample_mode: "bootstrap"
    pos_neg_weighted: true
  }
}
layer {
  name: "detection_accuracy_1_7x7"
  type: "DetectionAccuracy"
  bottom: "LFCN_1_7x7"
  bottom: "label_1_7x7"
  top: "accuracy_1_7x7"
  top: "boxiou_1_7x7"
  detection_accuracy_param {
    cls_num: 5
    coord_num: 4
    field_h: 84
    field_w: 84
    downsample_rate: 8
    field_whr: 2
    field_xyr: 2
  }
}
layer {
  name: "pool4"
  type: "Pooling"
  bottom: "conv4_3"
  top: "pool4"
  pooling_param {
    pool: MAX
    kernel_size: 2
    stride: 2
  }
}
layer {
  name: "conv5_1"
  type: "Convolution"
  bottom: "pool4"
  top: "conv5_1"
  convolution_param {
    num_output: 512
    pad: 1
    kernel_size: 3
  }
}
layer {
  name: "relu5_1"
  type: "ReLU"
  bottom: "conv5_1"
  top: "conv5_1"
}
layer {
  name: "conv5_2"
  type: "Convolution"
  bottom: "conv5_1"
  top: "conv5_2"
  convolution_param {
    num_output: 512
    pad: 1
    kernel_size: 3
  }
}
layer {
  name: "relu5_2"
  type: "ReLU"
  bottom: "conv5_2"
  top: "conv5_2"
}
layer {
  name: "conv5_3"
  type: "Convolution"
  bottom: "conv5_2"
  top: "conv5_3"
  convolution_param {
    num_output: 512
    pad: 1
    kernel_size: 3
  }
}
layer {
  name: "relu5_3"
  type: "ReLU"
  bottom: "conv5_3"
  top: "conv5_3"
}
layer {
  name: "LFCN_2_5x5"
  type: "Convolution"
  bottom: "conv5_3"
  top: "LFCN_2_5x5"
  param {
    lr_mult: 1
    decay_mult: 1
  }
  param {
    lr_mult: 2
    decay_mult: 0
  }
  convolution_param {
    num_output: 9
    pad: 2
    kernel_size: 5
    weight_filler {
      type: "gaussian"
      std: 0.001
    }
    bias_filler {
      type: "constant"
    }
  }
}
layer {
  name: "detection_loss_2_5x5"
  type: "DetectionLoss"
  bottom: "LFCN_2_5x5"
  bottom: "label_2_5x5"
  top: "loss_2_5x5"
  detection_loss_param {
    cls_num: 5
    coord_num: 4
    lambda: 1
    field_h: 120
    field_w: 120
    downsample_rate: 16
    bb_smooth: true
    field_whr: 2
    field_xyr: 2
    bg_threshold: 0.2
    bg_multiple: 2
    sample_mode: "bootstrap"
    pos_neg_weighted: true
  }
}
layer {
  name: "detection_accuracy_2_5x5"
  type: "DetectionAccuracy"
  bottom: "LFCN_2_5x5"
  bottom: "label_2_5x5"
  top: "accuracy_2_5x5"
  top: "boxiou_2_5x5"
  detection_accuracy_param {
    cls_num: 5
    coord_num: 4
    field_h: 120
    field_w: 120
    downsample_rate: 16
    field_whr: 2
    field_xyr: 2
  }
}
layer {
  name: "LFCN_2_7x7"
  type: "Convolution"
  bottom: "conv5_3"
  top: "LFCN_2_7x7"
  param {
    lr_mult: 1
    decay_mult: 1
  }
  param {
    lr_mult: 2
    decay_mult: 0
  }
  convolution_param {
    num_output: 9
    pad: 3
    kernel_size: 7
    weight_filler {
      type: "gaussian"
      std: 0.001
    }
    bias_filler {
      type: "constant"
    }
  }
}
layer {
  name: "detection_loss_2_7x7"
  type: "DetectionLoss"
  bottom: "LFCN_2_7x7"
  bottom: "label_2_7x7"
  top: "loss_2_7x7"
  detection_loss_param {
    cls_num: 5
    coord_num: 4
    lambda: 1
    field_h: 168
    field_w: 168
    downsample_rate: 16
    bb_smooth: true
    field_whr: 2
    field_xyr: 2
    bg_threshold: 0.2
    bg_multiple: 2
    sample_mode: "bootstrap"
    pos_neg_weighted: true
  }
}
layer {
  name: "detection_accuracy_2_7x7"
  type: "DetectionAccuracy"
  bottom: "LFCN_2_7x7"
  bottom: "label_2_7x7"
  top: "accuracy_2_7x7"
  top: "boxiou_2_7x7"
  detection_accuracy_param {
    cls_num: 5
    coord_num: 4
    field_h: 168
    field_w: 168
    downsample_rate: 16
    field_whr: 2
    field_xyr: 2
  }
}
layer {
  name: "pool5"
  type: "Pooling"
  bottom: "conv5_3"
  top: "pool5"
  pooling_param {
    pool: MAX
    kernel_size: 2
    stride: 2
  }
}
layer {
  name: "conv6_1"
  type: "Convolution"
  bottom: "pool5"
  top: "conv6_1"
  param {
    lr_mult: 1
    decay_mult: 1
  }
  param {
    lr_mult: 2
    decay_mult: 0
  }
  convolution_param {
    num_output: 512
    pad: 1
    kernel_size: 3
    weight_filler {
      type: "gaussian"
      std: 0.01
    }
    bias_filler {
      type: "constant"
    }
  }
}
layer {
  name: "relu6_1"
  type: "ReLU"
  bottom: "conv6_1"
  top: "conv6_1"
}
layer {
  name: "LFCN_3_5x5"
  type: "Convolution"
  bottom: "conv6_1"
  top: "LFCN_3_5x5"
  param {
    lr_mult: 1
    decay_mult: 1
  }
  param {
    lr_mult: 2
    decay_mult: 0
  }
  convolution_param {
    num_output: 9
    pad: 2
    kernel_size: 5
    weight_filler {
      type: "gaussian"
      std: 0.001
    }
    bias_filler {
      type: "constant"
    }
  }
}
layer {
  name: "detection_loss_3_5x5"
  type: "DetectionLoss"
  bottom: "LFCN_3_5x5"
  bottom: "label_3_5x5"
  top: "loss_3_5x5"
  detection_loss_param {
    cls_num: 5
    coord_num: 4
    lambda: 1
    field_h: 240
    field_w: 240
    downsample_rate: 32
    bb_smooth: true
    field_whr: 2
    field_xyr: 2
    bg_threshold: 0.2
    bg_multiple: 2
    sample_mode: "bootstrap"
    pos_neg_weighted: true
  }
}
layer {
  name: "detection_accuracy_3_5x5"
  type: "DetectionAccuracy"
  bottom: "LFCN_3_5x5"
  bottom: "label_3_5x5"
  top: "accuracy_3_5x5"
  top: "boxiou_3_5x5"
  detection_accuracy_param {
    cls_num: 5
    coord_num: 4
    field_h: 240
    field_w: 240
    downsample_rate: 32
    field_whr: 2
    field_xyr: 2
  }
}
layer {
  name: "LFCN_3_7x7"
  type: "Convolution"
  bottom: "conv6_1"
  top: "LFCN_3_7x7"
  param {
    lr_mult: 1
    decay_mult: 1
  }
  param {
    lr_mult: 2
    decay_mult: 0
  }
  convolution_param {
    num_output: 9
    pad: 3
    kernel_size: 7
    weight_filler {
      type: "gaussian"
      std: 0.001
    }
    bias_filler {
      type: "constant"
    }
  }
}
layer {
  name: "detection_loss_3_7x7"
  type: "DetectionLoss"
  bottom: "LFCN_3_7x7"
  bottom: "label_3_7x7"
  top: "loss_3_7x7"
  detection_loss_param {
    cls_num: 5
    coord_num: 4
    lambda: 1
    field_h: 336
    field_w: 336
    downsample_rate: 32
    bb_smooth: true
    field_whr: 2
    field_xyr: 2
    bg_threshold: 0.2
    bg_multiple: 2
    sample_mode: "bootstrap"
    pos_neg_weighted: true
  }
}
layer {
  name: "detection_accuracy_3_7x7"
  type: "DetectionAccuracy"
  bottom: "LFCN_3_7x7"
  bottom: "label_3_7x7"
  top: "accuracy_3_7x7"
  top: "boxiou_3_7x7"
  detection_accuracy_param {
    cls_num: 5
    coord_num: 4
    field_h: 336
    field_w: 336
    downsample_rate: 32
    field_whr: 2
    field_xyr: 2
  }
}
layer {
  name: "pool6"
  type: "Pooling"
  bottom: "conv6_1"
  top: "pool6"
  pooling_param {
    pool: MAX
    kernel_size: 2
    stride: 2
  }
}
layer {
  name: "LFCN_4_5x5"
  type: "Convolution"
  bottom: "pool6"
  top: "LFCN_4_5x5"
  param {
    lr_mult: 1
    decay_mult: 1
  }
  param {
    lr_mult: 2
    decay_mult: 0
  }
  convolution_param {
    num_output: 9
    pad: 2
    kernel_size: 5
    weight_filler {
      type: "gaussian"
      std: 0.001
    }
    bias_filler {
      type: "constant"
    }
  }
}
layer {
  name: "detection_loss_4_5x5"
  type: "DetectionLoss"
  bottom: "LFCN_4_5x5"
  bottom: "label_4_5x5"
  top: "loss_4_5x5"
  detection_loss_param {
    cls_num: 5
    coord_num: 4
    lambda: 1
    field_h: 480
    field_w: 480
    downsample_rate: 64
    bb_smooth: true
    field_whr: 2
    field_xyr: 2
    bg_threshold: 0.2
    bg_multiple: 2
    sample_mode: "bootstrap"
    pos_neg_weighted: true
  }
}
layer {
  name: "detection_accuracy_4_5x5"
  type: "DetectionAccuracy"
  bottom: "LFCN_4_5x5"
  bottom: "label_4_5x5"
  top: "accuracy_4_5x5"
  top: "boxiou_4_5x5"
  detection_accuracy_param {
    cls_num: 5
    coord_num: 4
    field_h: 480
    field_w: 480
    downsample_rate: 64
    field_whr: 2
    field_xyr: 2
  }
}
layer {
  name: "proposals"
  type: "BoxOutput"
  bottom: "LFCN_1_5x5"
  bottom: "LFCN_1_7x7"
  bottom: "LFCN_2_5x5"
  bottom: "LFCN_2_7x7"
  bottom: "LFCN_3_5x5"
  bottom: "LFCN_3_7x7"
  bottom: "LFCN_4_5x5"
  top: "proposals"
  propagate_down: false
  propagate_down: false
  propagate_down: false
  propagate_down: false
  propagate_down: false
  propagate_down: false
  propagate_down: false
  box_output_param {
    fg_thr: -8
    iou_thr: 0.65
    nms_type: "IOU"
    field_h: 60
    field_h: 84
    field_h: 120
    field_h: 168
    field_h: 240
    field_h: 336
    field_h: 480
    field_w: 60
    field_w: 84
    field_w: 120
    field_w: 168
    field_w: 240
    field_w: 336
    field_w: 480
    downsample_rate: 8
    downsample_rate: 8
    downsample_rate: 16
    downsample_rate: 16
    downsample_rate: 32
    downsample_rate: 32
    downsample_rate: 64
    field_whr: 2
    field_xyr: 2
    max_nms_num: 3000
  }
}
layer {
  name: "proposal_info"
  type: "ProposalTarget"
  bottom: "proposals"
  bottom: "gt_boxes"
  top: "rois"
  top: "proposal_labels"
  top: "proposal_targets"
  top: "box_inside_weights"
  top: "box_outside_weights"
  top: "match_gt_boxes"
  include {
    phase: TRAIN
  }
  propagate_down: false
  propagate_down: false
  proposal_target_param {
    cls_num: 5
    batch_size: 256
    fg_fraction: 0.25
    num_img_per_batch: 4
    fg_thr: 0.5
    bg_thr_hg: 0.49
    bg_thr_lw: 0.1
    img_width: 768
    img_height: 576
  }
  bbox_reg_param {
    bbox_mean: 0
    bbox_mean: 0
    bbox_mean: 0
    bbox_mean: 0
    bbox_std: 0.1
    bbox_std: 0.1
    bbox_std: 0.2
    bbox_std: 0.2
  }
}
layer {
  name: "conv4_3_new"
  type: "Concat"
  bottom: "conv4_3"
  bottom: "attention"
  top: "conv4_3_new"
}
layer {
  name: "conv4_3_2x"
  type: "Deconvolution"
  bottom: "conv4_3_new"
  top: "conv4_3_2x"
  param {
    lr_mult: 0
    decay_mult: 0
  }
  convolution_param {
    num_output: 514
    bias_term: false
    pad: 1
    kernel_size: 4
    group: 514
    stride: 2
    weight_filler {
      type: "bilinear"
    }
  }
}
layer {
  name: "roi_pool_org"
  type: "ROIPooling"
  bottom: "conv4_3_2x"
  bottom: "rois"
  top: "roi_pool_org"
  roi_pooling_param {
    pooled_h: 7
    pooled_w: 7
    spatial_scale: 0.25
    pad_ratio: 0
  }
}
layer {
  name: "roi_pool_ctx"
  type: "ROIPooling"
  bottom: "conv4_3_2x"
  bottom: "rois"
  top: "roi_pool_ctx"
  roi_pooling_param {
    pooled_h: 7
    pooled_w: 7
    spatial_scale: 0.25
    pad_ratio: 0.25
  }
}
layer {
  name: "roi_pool"
  type: "Concat"
  bottom: "roi_pool_org"
  bottom: "roi_pool_ctx"
  top: "roi_pool"
}
layer {
  name: "roi_c1"
  type: "Convolution"
  bottom: "roi_pool"
  top: "roi_c1"
  param {
    lr_mult: 1
    decay_mult: 1
  }
  param {
    lr_mult: 2
    decay_mult: 0
  }
  convolution_param {
    num_output: 512
    kernel_size: 3
    weight_filler {
      type: "gaussian"
      std: 0.01
    }
    bias_filler {
      type: "constant"
    }
  }
}
layer {
  name: "roi_c1_relu"
  type: "ReLU"
  bottom: "roi_c1"
  top: "roi_c1"
}
layer {
  name: "fc6"
  type: "InnerProduct"
  bottom: "roi_c1"
  top: "fc6"
  param {
    lr_mult: 1
  }
  param {
    lr_mult: 2
  }
  inner_product_param {
    num_output: 4096
    weight_filler {
      type: "gaussian"
      std: 0.001
    }
    bias_filler {
      type: "constant"
      value: 0
    }
  }
}
layer {
  name: "relu6"
  type: "ReLU"
  bottom: "fc6"
  top: "fc6"
}
layer {
  name: "drop6"
  type: "Dropout"
  bottom: "fc6"
  top: "fc6"
  dropout_param {
    dropout_ratio: 0.5
  }
}
layer {
  name: "cls_pred"
  type: "InnerProduct"
  bottom: "fc6"
  top: "cls_pred"
  param {
    lr_mult: 1
  }
  param {
    lr_mult: 2
  }
  inner_product_param {
    num_output: 5
    weight_filler {
      type: "gaussian"
      std: 0.01
    }
    bias_filler {
      type: "constant"
      value: 0
    }
  }
}
layer {
  name: "bbox_pred"
  type: "InnerProduct"
  bottom: "fc6"
  top: "bbox_pred"
  param {
    lr_mult: 1
  }
  param {
    lr_mult: 2
  }
  inner_product_param {
    num_output: 20
    weight_filler {
      type: "gaussian"
      std: 0.001
    }
    bias_filler {
      type: "constant"
      value: 0
    }
  }
}
layer {
  name: "loss_cls"
  type: "SoftmaxWithLoss"
  bottom: "cls_pred"
  bottom: "proposal_labels"
  top: "loss_cls"
  loss_weight: 1
  propagate_down: true
  propagate_down: false
}
layer {
  name: "cls_accuracy"
  type: "Accuracy"
  bottom: "cls_pred"
  bottom: "proposal_labels"
  top: "cls_accuracy"
}
layer {
  name: "loss_bbox"
  type: "SmoothL1Loss"
  bottom: "bbox_pred"
  bottom: "proposal_targets"
  bottom: "box_inside_weights"
  bottom: "box_outside_weights"
  top: "loss_bbox"
  loss_weight: 1
}
layer {
  name: "bbox_iou"
  type: "BboxAccuracy"
  bottom: "bbox_pred"
  bottom: "rois"
  bottom: "match_gt_boxes"
  top: "bbox_iou"
  top: "bbox_iou_pre"
  bbox_reg_param {
    bbox_mean: 0
    bbox_mean: 0
    bbox_mean: 0
    bbox_mean: 0
    bbox_std: 0.1
    bbox_std: 0.1
    bbox_std: 0.2
    bbox_std: 0.2
  }
}
I1009 23:28:58.037086  7099 layer_factory.hpp:77] Creating layer data
I1009 23:28:58.037123  7099 net.cpp:100] Creating Layer data
I1009 23:28:58.037130  7099 net.cpp:408] data -> data
…
I1009 23:28:58.060039  7099 image_gt_data_layer.cpp:235] output label size 2 : 3,6,48,48
I1009 23:28:58.060078  7099 image_gt_data_layer.cpp:235] output label size 3 : 3,6,48,48
I1009 23:28:58.060117  7099 image_gt_data_layer.cpp:235] output label size 4 : 3,6,24,24
I1009 23:28:58.060155  7099 image_gt_data_layer.cpp:235] output label size 5 : 3,6,24,24
I1009 23:28:58.060187  7099 image_gt_data_layer.cpp:235] output label size 6 : 3,6,12,12
I1009 23:28:58.060222  7099 image_gt_data_layer.cpp:250] output gt boxes size: 1,7,1,1
I1009 23:28:58.108723  7099 net.cpp:150] Setting up data
I1009 23:28:58.108755  7099 net.cpp:157] Top shape: 3 4 768 768 (7077888)
I1009 23:28:58.108762  7099 net.cpp:157] Top shape: 3 6 96 96 (165888)
I1009 23:28:58.108765  7099 net.cpp:157] Top shape: 3 6 96 96 (165888)
I1009 23:28:58.108768  7099 net.cpp:157] Top shape: 3 6 48 48 (41472)
I1009 23:28:58.108772  7099 net.cpp:157] Top shape: 3 6 48 48 (41472)
I1009 23:28:58.108775  7099 net.cpp:157] Top shape: 3 6 24 24 (10368)
I1009 23:28:58.108779  7099 net.cpp:157] Top shape: 3 6 24 24 (10368)
I1009 23:28:58.108783  7099 net.cpp:157] Top shape: 3 6 12 12 (2592)
I1009 23:28:58.108788  7099 net.cpp:157] Top shape: 1 7 1 1 (7)
I1009 23:28:58.108789  7099 net.cpp:165] Memory required for data: 30063772
I1009 23:28:58.108798  7099 layer_factory.hpp:77] Creating layer label_1_5x5_data_1_split
I1009 23:28:58.108819  7099 net.cpp:100] Creating Layer label_1_5x5_data_1_split
I1009 23:28:58.108825  7099 net.cpp:434] label_1_5x5_data_1_split <- label_1_5x5
I1009 23:28:58.108837  7099 net.cpp:408] label_1_5x5_data_1_split -> label_1_5x5_data_1_split_0
I1009 23:28:58.108846  7099 net.cpp:408] label_1_5x5_data_1_split -> label_1_5x5_data_1_split_1
I1009 23:28:58.108896  7099 net.cpp:150] Setting up label_1_5x5_data_1_split
I1009 23:28:58.108901  7099 net.cpp:157] Top shape: 3 6 96 96 (165888)
I1009 23:28:58.108904  7099 net.cpp:157] Top shape: 3 6 96 96 (165888)
I1009 23:28:58.108907  7099 net.cpp:165] Memory required for data: 31390876
I1009 23:28:58.108911  7099 layer_factory.hpp:77] Creating layer label_1_7x7_data_2_split
I1009 23:28:58.108916  7099 net.cpp:100] Creating Layer label_1_7x7_data_2_split
I1009 23:28:58.108919  7099 net.cpp:434] label_1_7x7_data_2_split <- label_1_7x7
I1009 23:28:58.108924  7099 net.cpp:408] label_1_7x7_data_2_split -> label_1_7x7_data_2_split_0
I1009 23:28:58.108930  7099 net.cpp:408] label_1_7x7_data_2_split -> label_1_7x7_data_2_split_1
I1009 23:28:58.108991  7099 net.cpp:150] Setting up label_1_7x7_data_2_split
I1009 23:28:58.108999  7099 net.cpp:157] Top shape: 3 6 96 96 (165888)
I1009 23:28:58.109004  7099 net.cpp:157] Top shape: 3 6 96 96 (165888)
I1009 23:28:58.109006  7099 net.cpp:165] Memory required for data: 32717980
I1009 23:28:58.109010  7099 layer_factory.hpp:77] Creating layer label_2_5x5_data_3_split
I1009 23:28:58.109015  7099 net.cpp:100] Creating Layer label_2_5x5_data_3_split
I1009 23:28:58.109019  7099 net.cpp:434] label_2_5x5_data_3_split <- label_2_5x5
I1009 23:28:58.109024  7099 net.cpp:408] label_2_5x5_data_3_split -> label_2_5x5_data_3_split_0
I1009 23:28:58.109030  7099 net.cpp:408] label_2_5x5_data_3_split -> label_2_5x5_data_3_split_1
I1009 23:28:58.109061  7099 net.cpp:150] Setting up label_2_5x5_data_3_split
I1009 23:28:58.109067  7099 net.cpp:157] Top shape: 3 6 48 48 (41472)
I1009 23:28:58.109071  7099 net.cpp:157] Top shape: 3 6 48 48 (41472)
I1009 23:28:58.109074  7099 net.cpp:165] Memory required for data: 33049756
I1009 23:28:58.109077  7099 layer_factory.hpp:77] Creating layer label_2_7x7_data_4_split
I1009 23:28:58.109083  7099 net.cpp:100] Creating Layer label_2_7x7_data_4_split
I1009 23:28:58.109086  7099 net.cpp:434] label_2_7x7_data_4_split <- label_2_7x7
I1009 23:28:58.109091  7099 net.cpp:408] label_2_7x7_data_4_split -> label_2_7x7_data_4_split_0
I1009 23:28:58.109097  7099 net.cpp:408] label_2_7x7_data_4_split -> label_2_7x7_data_4_split_1
I1009 23:28:58.109122  7099 net.cpp:150] Setting up label_2_7x7_data_4_split
I1009 23:28:58.109127  7099 net.cpp:157] Top shape: 3 6 48 48 (41472)
I1009 23:28:58.109133  7099 net.cpp:157] Top shape: 3 6 48 48 (41472)
I1009 23:28:58.109135  7099 net.cpp:165] Memory required for data: 33381532
I1009 23:28:58.109138  7099 layer_factory.hpp:77] Creating layer label_3_5x5_data_5_split
I1009 23:28:58.109143  7099 net.cpp:100] Creating Layer label_3_5x5_data_5_split
I1009 23:28:58.109146  7099 net.cpp:434] label_3_5x5_data_5_split <- label_3_5x5
I1009 23:28:58.109150  7099 net.cpp:408] label_3_5x5_data_5_split -> label_3_5x5_data_5_split_0
I1009 23:28:58.109155  7099 net.cpp:408] label_3_5x5_data_5_split -> label_3_5x5_data_5_split_1
I1009 23:28:58.109179  7099 net.cpp:150] Setting up label_3_5x5_data_5_split
I1009 23:28:58.109185  7099 net.cpp:157] Top shape: 3 6 24 24 (10368)
I1009 23:28:58.109189  7099 net.cpp:157] Top shape: 3 6 24 24 (10368)
I1009 23:28:58.109192  7099 net.cpp:165] Memory required for data: 33464476
I1009 23:28:58.109195  7099 layer_factory.hpp:77] Creating layer label_3_7x7_data_6_split
I1009 23:28:58.109200  7099 net.cpp:100] Creating Layer label_3_7x7_data_6_split
I1009 23:28:58.109203  7099 net.cpp:434] label_3_7x7_data_6_split <- label_3_7x7
I1009 23:28:58.109207  7099 net.cpp:408] label_3_7x7_data_6_split -> label_3_7x7_data_6_split_0
I1009 23:28:58.109212  7099 net.cpp:408] label_3_7x7_data_6_split -> label_3_7x7_data_6_split_1
I1009 23:28:58.109236  7099 net.cpp:150] Setting up label_3_7x7_data_6_split
I1009 23:28:58.109241  7099 net.cpp:157] Top shape: 3 6 24 24 (10368)
I1009 23:28:58.109246  7099 net.cpp:157] Top shape: 3 6 24 24 (10368)
I1009 23:28:58.109248  7099 net.cpp:165] Memory required for data: 33547420
I1009 23:28:58.109251  7099 layer_factory.hpp:77] Creating layer label_4_5x5_data_7_split
I1009 23:28:58.109256  7099 net.cpp:100] Creating Layer label_4_5x5_data_7_split
I1009 23:28:58.109259  7099 net.cpp:434] label_4_5x5_data_7_split <- label_4_5x5
I1009 23:28:58.109263  7099 net.cpp:408] label_4_5x5_data_7_split -> label_4_5x5_data_7_split_0
I1009 23:28:58.109268  7099 net.cpp:408] label_4_5x5_data_7_split -> label_4_5x5_data_7_split_1
I1009 23:28:58.109292  7099 net.cpp:150] Setting up label_4_5x5_data_7_split
I1009 23:28:58.109297  7099 net.cpp:157] Top shape: 3 6 12 12 (2592)
I1009 23:28:58.109302  7099 net.cpp:157] Top shape: 3 6 12 12 (2592)
I1009 23:28:58.109304  7099 net.cpp:165] Memory required for data: 33568156
I1009 23:28:58.109308  7099 layer_factory.hpp:77] Creating layer slice
I1009 23:28:58.109319  7099 net.cpp:100] Creating Layer slice
I1009 23:28:58.109323  7099 net.cpp:434] slice <- data
I1009 23:28:58.109326  7099 net.cpp:408] slice -> data123
I1009 23:28:58.109334  7099 net.cpp:408] slice -> ch4
I1009 23:28:58.109360  7099 net.cpp:150] Setting up slice
I1009 23:28:58.109366  7099 net.cpp:157] Top shape: 3 3 768 768 (5308416)
I1009 23:28:58.109370  7099 net.cpp:157] Top shape: 3 1 768 768 (1769472)
I1009 23:28:58.109374  7099 net.cpp:165] Memory required for data: 61879708
I1009 23:28:58.109377  7099 layer_factory.hpp:77] Creating layer ch4_slice_1_split
I1009 23:28:58.109381  7099 net.cpp:100] Creating Layer ch4_slice_1_split
I1009 23:28:58.109385  7099 net.cpp:434] ch4_slice_1_split <- ch4
I1009 23:28:58.109388  7099 net.cpp:408] ch4_slice_1_split -> ch4_slice_1_split_0
I1009 23:28:58.109395  7099 net.cpp:408] ch4_slice_1_split -> ch4_slice_1_split_1
I1009 23:28:58.109418  7099 net.cpp:150] Setting up ch4_slice_1_split
I1009 23:28:58.109423  7099 net.cpp:157] Top shape: 3 1 768 768 (1769472)
I1009 23:28:58.109427  7099 net.cpp:157] Top shape: 3 1 768 768 (1769472)
I1009 23:28:58.109431  7099 net.cpp:165] Memory required for data: 76035484
I1009 23:28:58.109434  7099 layer_factory.hpp:77] Creating layer ch4_0-127
I1009 23:28:58.109443  7099 net.cpp:100] Creating Layer ch4_0-127
I1009 23:28:58.109447  7099 net.cpp:434] ch4_0-127 <- ch4_slice_1_split_0
I1009 23:28:58.109452  7099 net.cpp:408] ch4_0-127 -> ch4_0-127
I1009 23:28:58.109469  7099 net.cpp:150] Setting up ch4_0-127
I1009 23:28:58.109475  7099 net.cpp:157] Top shape: 3 1 768 768 (1769472)
I1009 23:28:58.109478  7099 net.cpp:165] Memory required for data: 83113372
I1009 23:28:58.109481  7099 layer_factory.hpp:77] Creating layer ch4_128-255
I1009 23:28:58.109486  7099 net.cpp:100] Creating Layer ch4_128-255
I1009 23:28:58.109489  7099 net.cpp:434] ch4_128-255 <- ch4_slice_1_split_1
I1009 23:28:58.109494  7099 net.cpp:408] ch4_128-255 -> ch4_128-255
I1009 23:28:58.109509  7099 net.cpp:150] Setting up ch4_128-255
I1009 23:28:58.109514  7099 net.cpp:157] Top shape: 3 1 768 768 (1769472)
I1009 23:28:58.109517  7099 net.cpp:165] Memory required for data: 90191260
I1009 23:28:58.109520  7099 layer_factory.hpp:77] Creating layer ch4_2cls-concat
I1009 23:28:58.109526  7099 net.cpp:100] Creating Layer ch4_2cls-concat
I1009 23:28:58.109529  7099 net.cpp:434] ch4_2cls-concat <- ch4_0-127
I1009 23:28:58.109534  7099 net.cpp:434] ch4_2cls-concat <- ch4_128-255
I1009 23:28:58.109537  7099 net.cpp:408] ch4_2cls-concat -> ch4_2cls
I1009 23:28:58.109557  7099 net.cpp:150] Setting up ch4_2cls-concat
I1009 23:28:58.109563  7099 net.cpp:157] Top shape: 3 2 768 768 (3538944)
I1009 23:28:58.109566  7099 net.cpp:165] Memory required for data: 104347036
I1009 23:28:58.109570  7099 layer_factory.hpp:77] Creating layer relu_ch42cls
I1009 23:28:58.109575  7099 net.cpp:100] Creating Layer relu_ch42cls
I1009 23:28:58.109578  7099 net.cpp:434] relu_ch42cls <- ch4_2cls
I1009 23:28:58.109583  7099 net.cpp:395] relu_ch42cls -> ch4_2cls (in-place)
I1009 23:28:58.333879  7099 net.cpp:150] Setting up relu_ch42cls
I1009 23:28:58.333914  7099 net.cpp:157] Top shape: 3 2 768 768 (3538944)
I1009 23:28:58.333919  7099 net.cpp:165] Memory required for data: 118502812
I1009 23:28:58.333925  7099 layer_factory.hpp:77] Creating layer conv1_1
I1009 23:28:58.333942  7099 net.cpp:100] Creating Layer conv1_1
I1009 23:28:58.333947  7099 net.cpp:434] conv1_1 <- data123
I1009 23:28:58.333955  7099 net.cpp:408] conv1_1 -> conv1_1
I1009 23:28:58.336632  7099 net.cpp:150] Setting up conv1_1
I1009 23:28:58.336649  7099 net.cpp:157] Top shape: 3 64 768 768 (113246208)
I1009 23:28:58.336653  7099 net.cpp:165] Memory required for data: 571487644
I1009 23:28:58.336668  7099 layer_factory.hpp:77] Creating layer relu1_1
I1009 23:28:58.336680  7099 net.cpp:100] Creating Layer relu1_1
I1009 23:28:58.336686  7099 net.cpp:434] relu1_1 <- conv1_1
I1009 23:28:58.336693  7099 net.cpp:395] relu1_1 -> conv1_1 (in-place)
I1009 23:28:58.336858  7099 net.cpp:150] Setting up relu1_1
I1009 23:28:58.336866  7099 net.cpp:157] Top shape: 3 64 768 768 (113246208)
I1009 23:28:58.336870  7099 net.cpp:165] Memory required for data: 1024472476
I1009 23:28:58.336874  7099 layer_factory.hpp:77] Creating layer conv1_2
I1009 23:28:58.336884  7099 net.cpp:100] Creating Layer conv1_2
I1009 23:28:58.336889  7099 net.cpp:434] conv1_2 <- conv1_1
I1009 23:28:58.336894  7099 net.cpp:408] conv1_2 -> conv1_2
I1009 23:28:58.339359  7099 net.cpp:150] Setting up conv1_2
I1009 23:28:58.339388  7099 net.cpp:157] Top shape: 3 64 768 768 (113246208)
I1009 23:28:58.339392  7099 net.cpp:165] Memory required for data: 1477457308
I1009 23:28:58.339408  7099 layer_factory.hpp:77] Creating layer relu1_2
I1009 23:28:58.339421  7099 net.cpp:100] Creating Layer relu1_2
I1009 23:28:58.339428  7099 net.cpp:434] relu1_2 <- conv1_2
I1009 23:28:58.339434  7099 net.cpp:395] relu1_2 -> conv1_2 (in-place)
I1009 23:28:58.339624  7099 net.cpp:150] Setting up relu1_2
I1009 23:28:58.339632  7099 net.cpp:157] Top shape: 3 64 768 768 (113246208)
I1009 23:28:58.339635  7099 net.cpp:165] Memory required for data: 1930442140
I1009 23:28:58.339639  7099 layer_factory.hpp:77] Creating layer pool1
I1009 23:28:58.339648  7099 net.cpp:100] Creating Layer pool1
I1009 23:28:58.339651  7099 net.cpp:434] pool1 <- conv1_2
I1009 23:28:58.339658  7099 net.cpp:408] pool1 -> pool1
I1009 23:28:58.339715  7099 net.cpp:150] Setting up pool1
I1009 23:28:58.339722  7099 net.cpp:157] Top shape: 3 64 384 384 (28311552)
I1009 23:28:58.339725  7099 net.cpp:165] Memory required for data: 2043688348
I1009 23:28:58.339728  7099 layer_factory.hpp:77] Creating layer conv2_1
I1009 23:28:58.339738  7099 net.cpp:100] Creating Layer conv2_1
I1009 23:28:58.339742  7099 net.cpp:434] conv2_1 <- pool1
I1009 23:28:58.339747  7099 net.cpp:408] conv2_1 -> conv2_1
I1009 23:28:58.342070  7099 net.cpp:150] Setting up conv2_1
I1009 23:28:58.342135  7099 net.cpp:157] Top shape: 3 128 384 384 (56623104)
I1009 23:28:58.342156  7099 net.cpp:165] Memory required for data: 2270180764
I1009 23:28:58.342197  7099 layer_factory.hpp:77] Creating layer relu2_1
I1009 23:28:58.342221  7099 net.cpp:100] Creating Layer relu2_1
I1009 23:28:58.342229  7099 net.cpp:434] relu2_1 <- conv2_1
I1009 23:28:58.342236  7099 net.cpp:395] relu2_1 -> conv2_1 (in-place)
I1009 23:28:58.342654  7099 net.cpp:150] Setting up relu2_1
I1009 23:28:58.342667  7099 net.cpp:157] Top shape: 3 128 384 384 (56623104)
I1009 23:28:58.342670  7099 net.cpp:165] Memory required for data: 2496673180
I1009 23:28:58.342674  7099 layer_factory.hpp:77] Creating layer conv2_2
I1009 23:28:58.342684  7099 net.cpp:100] Creating Layer conv2_2
I1009 23:28:58.342689  7099 net.cpp:434] conv2_2 <- conv2_1
I1009 23:28:58.342694  7099 net.cpp:408] conv2_2 -> conv2_2
I1009 23:28:58.343768  7099 net.cpp:150] Setting up conv2_2
I1009 23:28:58.343780  7099 net.cpp:157] Top shape: 3 128 384 384 (56623104)
I1009 23:28:58.343785  7099 net.cpp:165] Memory required for data: 2723165596
I1009 23:28:58.343791  7099 layer_factory.hpp:77] Creating layer relu2_2
I1009 23:28:58.343797  7099 net.cpp:100] Creating Layer relu2_2
I1009 23:28:58.343802  7099 net.cpp:434] relu2_2 <- conv2_2
I1009 23:28:58.343807  7099 net.cpp:395] relu2_2 -> conv2_2 (in-place)
I1009 23:28:58.344220  7099 net.cpp:150] Setting up relu2_2
I1009 23:28:58.344233  7099 net.cpp:157] Top shape: 3 128 384 384 (56623104)
I1009 23:28:58.344235  7099 net.cpp:165] Memory required for data: 2949658012
I1009 23:28:58.344239  7099 layer_factory.hpp:77] Creating layer pool2
I1009 23:28:58.344246  7099 net.cpp:100] Creating Layer pool2
I1009 23:28:58.344250  7099 net.cpp:434] pool2 <- conv2_2
I1009 23:28:58.344256  7099 net.cpp:408] pool2 -> pool2
I1009 23:28:58.344292  7099 net.cpp:150] Setting up pool2
I1009 23:28:58.344298  7099 net.cpp:157] Top shape: 3 128 192 192 (14155776)
I1009 23:28:58.344301  7099 net.cpp:165] Memory required for data: 3006281116
I1009 23:28:58.344305  7099 layer_factory.hpp:77] Creating layer conv3_1
I1009 23:28:58.344311  7099 net.cpp:100] Creating Layer conv3_1
I1009 23:28:58.344316  7099 net.cpp:434] conv3_1 <- pool2
I1009 23:28:58.344321  7099 net.cpp:408] conv3_1 -> conv3_1
I1009 23:28:58.346549  7099 net.cpp:150] Setting up conv3_1
I1009 23:28:58.346563  7099 net.cpp:157] Top shape: 3 256 192 192 (28311552)
I1009 23:28:58.346567  7099 net.cpp:165] Memory required for data: 3119527324
I1009 23:28:58.346577  7099 layer_factory.hpp:77] Creating layer relu3_1
I1009 23:28:58.346585  7099 net.cpp:100] Creating Layer relu3_1
I1009 23:28:58.346590  7099 net.cpp:434] relu3_1 <- conv3_1
I1009 23:28:58.346596  7099 net.cpp:395] relu3_1 -> conv3_1 (in-place)
I1009 23:28:58.346748  7099 net.cpp:150] Setting up relu3_1
I1009 23:28:58.346757  7099 net.cpp:157] Top shape: 3 256 192 192 (28311552)
I1009 23:28:58.346760  7099 net.cpp:165] Memory required for data: 3232773532
I1009 23:28:58.346765  7099 layer_factory.hpp:77] Creating layer conv3_2
I1009 23:28:58.346771  7099 net.cpp:100] Creating Layer conv3_2
I1009 23:28:58.346776  7099 net.cpp:434] conv3_2 <- conv3_1
I1009 23:28:58.346781  7099 net.cpp:408] conv3_2 -> conv3_2
I1009 23:28:58.352195  7099 net.cpp:150] Setting up conv3_2
I1009 23:28:58.352212  7099 net.cpp:157] Top shape: 3 256 192 192 (28311552)
I1009 23:28:58.352216  7099 net.cpp:165] Memory required for data: 3346019740
I1009 23:28:58.352226  7099 layer_factory.hpp:77] Creating layer relu3_2
I1009 23:28:58.352232  7099 net.cpp:100] Creating Layer relu3_2
I1009 23:28:58.352237  7099 net.cpp:434] relu3_2 <- conv3_2
I1009 23:28:58.352242  7099 net.cpp:395] relu3_2 -> conv3_2 (in-place)
I1009 23:28:58.352396  7099 net.cpp:150] Setting up relu3_2
I1009 23:28:58.352404  7099 net.cpp:157] Top shape: 3 256 192 192 (28311552)
I1009 23:28:58.352407  7099 net.cpp:165] Memory required for data: 3459265948
I1009 23:28:58.352411  7099 layer_factory.hpp:77] Creating layer conv3_3
I1009 23:28:58.352419  7099 net.cpp:100] Creating Layer conv3_3
I1009 23:28:58.352422  7099 net.cpp:434] conv3_3 <- conv3_2
I1009 23:28:58.352428  7099 net.cpp:408] conv3_3 -> conv3_3
I1009 23:28:58.354773  7099 net.cpp:150] Setting up conv3_3
I1009 23:28:58.354787  7099 net.cpp:157] Top shape: 3 256 192 192 (28311552)
I1009 23:28:58.354791  7099 net.cpp:165] Memory required for data: 3572512156
I1009 23:28:58.354799  7099 layer_factory.hpp:77] Creating layer relu3_3
I1009 23:28:58.354804  7099 net.cpp:100] Creating Layer relu3_3
I1009 23:28:58.354809  7099 net.cpp:434] relu3_3 <- conv3_3
I1009 23:28:58.354813  7099 net.cpp:395] relu3_3 -> conv3_3 (in-place)
I1009 23:28:58.354967  7099 net.cpp:150] Setting up relu3_3
I1009 23:28:58.354976  7099 net.cpp:157] Top shape: 3 256 192 192 (28311552)
I1009 23:28:58.354979  7099 net.cpp:165] Memory required for data: 3685758364
I1009 23:28:58.354982  7099 layer_factory.hpp:77] Creating layer pool3
I1009 23:28:58.354990  7099 net.cpp:100] Creating Layer pool3
I1009 23:28:58.354993  7099 net.cpp:434] pool3 <- conv3_3
I1009 23:28:58.354998  7099 net.cpp:408] pool3 -> pool3
I1009 23:28:58.355032  7099 net.cpp:150] Setting up pool3
I1009 23:28:58.355038  7099 net.cpp:157] Top shape: 3 256 96 96 (7077888)
I1009 23:28:58.355041  7099 net.cpp:165] Memory required for data: 3714069916
I1009 23:28:58.355044  7099 layer_factory.hpp:77] Creating layer conv4_1
I1009 23:28:58.355051  7099 net.cpp:100] Creating Layer conv4_1
I1009 23:28:58.355056  7099 net.cpp:434] conv4_1 <- pool3
I1009 23:28:58.355060  7099 net.cpp:408] conv4_1 -> conv4_1
I1009 23:28:58.358850  7099 net.cpp:150] Setting up conv4_1
I1009 23:28:58.358877  7099 net.cpp:157] Top shape: 3 512 96 96 (14155776)
I1009 23:28:58.358880  7099 net.cpp:165] Memory required for data: 3770693020
I1009 23:28:58.358889  7099 layer_factory.hpp:77] Creating layer relu4_1
I1009 23:28:58.358902  7099 net.cpp:100] Creating Layer relu4_1
I1009 23:28:58.358907  7099 net.cpp:434] relu4_1 <- conv4_1
I1009 23:28:58.358912  7099 net.cpp:395] relu4_1 -> conv4_1 (in-place)
I1009 23:28:58.359055  7099 net.cpp:150] Setting up relu4_1
I1009 23:28:58.359063  7099 net.cpp:157] Top shape: 3 512 96 96 (14155776)
I1009 23:28:58.359066  7099 net.cpp:165] Memory required for data: 3827316124
I1009 23:28:58.359069  7099 layer_factory.hpp:77] Creating layer conv4_2
I1009 23:28:58.359078  7099 net.cpp:100] Creating Layer conv4_2
I1009 23:28:58.359082  7099 net.cpp:434] conv4_2 <- conv4_1
I1009 23:28:58.359088  7099 net.cpp:408] conv4_2 -> conv4_2
I1009 23:28:58.364873  7099 net.cpp:150] Setting up conv4_2
I1009 23:28:58.364908  7099 net.cpp:157] Top shape: 3 512 96 96 (14155776)
I1009 23:28:58.364912  7099 net.cpp:165] Memory required for data: 3883939228
I1009 23:28:58.364928  7099 layer_factory.hpp:77] Creating layer relu4_2
I1009 23:28:58.364940  7099 net.cpp:100] Creating Layer relu4_2
I1009 23:28:58.364946  7099 net.cpp:434] relu4_2 <- conv4_2
I1009 23:28:58.364951  7099 net.cpp:395] relu4_2 -> conv4_2 (in-place)
I1009 23:28:58.365392  7099 net.cpp:150] Setting up relu4_2
I1009 23:28:58.365404  7099 net.cpp:157] Top shape: 3 512 96 96 (14155776)
I1009 23:28:58.365408  7099 net.cpp:165] Memory required for data: 3940562332
I1009 23:28:58.365412  7099 layer_factory.hpp:77] Creating layer conv4_3
I1009 23:28:58.365422  7099 net.cpp:100] Creating Layer conv4_3
I1009 23:28:58.365424  7099 net.cpp:434] conv4_3 <- conv4_2
I1009 23:28:58.365430  7099 net.cpp:408] conv4_3 -> conv4_3
I1009 23:28:58.370865  7099 net.cpp:150] Setting up conv4_3
I1009 23:28:58.370905  7099 net.cpp:157] Top shape: 3 512 96 96 (14155776)
I1009 23:28:58.370909  7099 net.cpp:165] Memory required for data: 3997185436
I1009 23:28:58.370918  7099 layer_factory.hpp:77] Creating layer relu4_3
I1009 23:28:58.370930  7099 net.cpp:100] Creating Layer relu4_3
I1009 23:28:58.370936  7099 net.cpp:434] relu4_3 <- conv4_3
I1009 23:28:58.370944  7099 net.cpp:395] relu4_3 -> conv4_3 (in-place)
I1009 23:28:58.371557  7099 net.cpp:150] Setting up relu4_3
I1009 23:28:58.371569  7099 net.cpp:157] Top shape: 3 512 96 96 (14155776)
I1009 23:28:58.371572  7099 net.cpp:165] Memory required for data: 4053808540
I1009 23:28:58.371577  7099 layer_factory.hpp:77] Creating layer conv4_3_relu4_3_0_split
I1009 23:28:58.371583  7099 net.cpp:100] Creating Layer conv4_3_relu4_3_0_split
I1009 23:28:58.371587  7099 net.cpp:434] conv4_3_relu4_3_0_split <- conv4_3
I1009 23:28:58.371592  7099 net.cpp:408] conv4_3_relu4_3_0_split -> conv4_3_relu4_3_0_split_0
I1009 23:28:58.371599  7099 net.cpp:408] conv4_3_relu4_3_0_split -> conv4_3_relu4_3_0_split_1
I1009 23:28:58.371604  7099 net.cpp:408] conv4_3_relu4_3_0_split -> conv4_3_relu4_3_0_split_2
I1009 23:28:58.371609  7099 net.cpp:408] conv4_3_relu4_3_0_split -> conv4_3_relu4_3_0_split_3
I1009 23:28:58.371665  7099 net.cpp:150] Setting up conv4_3_relu4_3_0_split
I1009 23:28:58.371671  7099 net.cpp:157] Top shape: 3 512 96 96 (14155776)
I1009 23:28:58.371675  7099 net.cpp:157] Top shape: 3 512 96 96 (14155776)
I1009 23:28:58.371680  7099 net.cpp:157] Top shape: 3 512 96 96 (14155776)
I1009 23:28:58.371683  7099 net.cpp:157] Top shape: 3 512 96 96 (14155776)
I1009 23:28:58.371686  7099 net.cpp:165] Memory required for data: 4280300956
I1009 23:28:58.371690  7099 layer_factory.hpp:77] Creating layer attention
I1009 23:28:58.371697  7099 net.cpp:100] Creating Layer attention
I1009 23:28:58.371701  7099 net.cpp:434] attention <- conv4_3_relu4_3_0_split_0
I1009 23:28:58.371707  7099 net.cpp:408] attention -> attention
I1009 23:28:58.372951  7099 net.cpp:150] Setting up attention
I1009 23:28:58.372963  7099 net.cpp:157] Top shape: 3 2 96 96 (55296)
I1009 23:28:58.372967  7099 net.cpp:165] Memory required for data: 4280522140
I1009 23:28:58.372974  7099 layer_factory.hpp:77] Creating layer relu_attention
I1009 23:28:58.372980  7099 net.cpp:100] Creating Layer relu_attention
I1009 23:28:58.372984  7099 net.cpp:434] relu_attention <- attention
I1009 23:28:58.372989  7099 net.cpp:395] relu_attention -> attention (in-place)
I1009 23:28:58.373147  7099 net.cpp:150] Setting up relu_attention
I1009 23:28:58.373154  7099 net.cpp:157] Top shape: 3 2 96 96 (55296)
I1009 23:28:58.373158  7099 net.cpp:165] Memory required for data: 4280743324
I1009 23:28:58.373162  7099 layer_factory.hpp:77] Creating layer attention_relu_attention_0_split
I1009 23:28:58.373167  7099 net.cpp:100] Creating Layer attention_relu_attention_0_split
I1009 23:28:58.373170  7099 net.cpp:434] attention_relu_attention_0_split <- attention
I1009 23:28:58.373175  7099 net.cpp:408] attention_relu_attention_0_split -> attention_relu_attention_0_split_0
I1009 23:28:58.373181  7099 net.cpp:408] attention_relu_attention_0_split -> attention_relu_attention_0_split_1
I1009 23:28:58.373212  7099 net.cpp:150] Setting up attention_relu_attention_0_split
I1009 23:28:58.373219  7099 net.cpp:157] Top shape: 3 2 96 96 (55296)
I1009 23:28:58.373224  7099 net.cpp:157] Top shape: 3 2 96 96 (55296)
I1009 23:28:58.373226  7099 net.cpp:165] Memory required for data: 4281185692
I1009 23:28:58.373229  7099 layer_factory.hpp:77] Creating layer ch4_2cls_pool
I1009 23:28:58.373235  7099 net.cpp:100] Creating Layer ch4_2cls_pool
I1009 23:28:58.373239  7099 net.cpp:434] ch4_2cls_pool <- ch4_2cls
I1009 23:28:58.373244  7099 net.cpp:408] ch4_2cls_pool -> ch4_2cls_pool
I1009 23:28:58.373273  7099 net.cpp:150] Setting up ch4_2cls_pool
I1009 23:28:58.373280  7099 net.cpp:157] Top shape: 3 2 96 96 (55296)
I1009 23:28:58.373283  7099 net.cpp:165] Memory required for data: 4281406876
I1009 23:28:58.373286  7099 layer_factory.hpp:77] Creating layer loss_attention
I1009 23:28:58.373292  7099 net.cpp:100] Creating Layer loss_attention
I1009 23:28:58.373296  7099 net.cpp:434] loss_attention <- attention_relu_attention_0_split_0
I1009 23:28:58.373301  7099 net.cpp:434] loss_attention <- ch4_2cls_pool
I1009 23:28:58.373306  7099 net.cpp:408] loss_attention -> loss_attention
I1009 23:28:58.373338  7099 net.cpp:150] Setting up loss_attention
I1009 23:28:58.373344  7099 net.cpp:157] Top shape: (1)
I1009 23:28:58.373347  7099 net.cpp:160]     with loss weight 1
I1009 23:28:58.373366  7099 net.cpp:165] Memory required for data: 4281406880
I1009 23:28:58.373370  7099 layer_factory.hpp:77] Creating layer loss1_conv1
I1009 23:28:58.373378  7099 net.cpp:100] Creating Layer loss1_conv1
I1009 23:28:58.373383  7099 net.cpp:434] loss1_conv1 <- conv4_3_relu4_3_0_split_1
I1009 23:28:58.373389  7099 net.cpp:408] loss1_conv1 -> loss1_conv1
I1009 23:28:58.432080  7099 net.cpp:150] Setting up loss1_conv1
I1009 23:28:58.432106  7099 net.cpp:157] Top shape: 3 512 96 96 (14155776)
I1009 23:28:58.432108  7099 net.cpp:165] Memory required for data: 4338029984
I1009 23:28:58.432117  7099 layer_factory.hpp:77] Creating layer loss_relu1
I1009 23:28:58.432126  7099 net.cpp:100] Creating Layer loss_relu1
I1009 23:28:58.432132  7099 net.cpp:434] loss_relu1 <- loss1_conv1
I1009 23:28:58.432137  7099 net.cpp:395] loss_relu1 -> loss1_conv1 (in-place)
I1009 23:28:58.432269  7099 net.cpp:150] Setting up loss_relu1
I1009 23:28:58.432277  7099 net.cpp:157] Top shape: 3 512 96 96 (14155776)
I1009 23:28:58.432281  7099 net.cpp:165] Memory required for data: 4394653088
I1009 23:28:58.432286  7099 layer_factory.hpp:77] Creating layer loss1_conv1_loss_relu1_0_split
I1009 23:28:58.432291  7099 net.cpp:100] Creating Layer loss1_conv1_loss_relu1_0_split
I1009 23:28:58.432296  7099 net.cpp:434] loss1_conv1_loss_relu1_0_split <- loss1_conv1
I1009 23:28:58.432301  7099 net.cpp:408] loss1_conv1_loss_relu1_0_split -> loss1_conv1_loss_relu1_0_split_0
I1009 23:28:58.432307  7099 net.cpp:408] loss1_conv1_loss_relu1_0_split -> loss1_conv1_loss_relu1_0_split_1
I1009 23:28:58.432338  7099 net.cpp:150] Setting up loss1_conv1_loss_relu1_0_split
I1009 23:28:58.432345  7099 net.cpp:157] Top shape: 3 512 96 96 (14155776)
I1009 23:28:58.432349  7099 net.cpp:157] Top shape: 3 512 96 96 (14155776)
I1009 23:28:58.432353  7099 net.cpp:165] Memory required for data: 4507899296
I1009 23:28:58.432355  7099 layer_factory.hpp:77] Creating layer LFCN_1_5x5
I1009 23:28:58.432365  7099 net.cpp:100] Creating Layer LFCN_1_5x5
I1009 23:28:58.432369  7099 net.cpp:434] LFCN_1_5x5 <- loss1_conv1_loss_relu1_0_split_0
I1009 23:28:58.432375  7099 net.cpp:408] LFCN_1_5x5 -> LFCN_1_5x5
I1009 23:28:58.436094  7099 net.cpp:150] Setting up LFCN_1_5x5
I1009 23:28:58.436106  7099 net.cpp:157] Top shape: 3 9 96 96 (248832)
I1009 23:28:58.436110  7099 net.cpp:165] Memory required for data: 4508894624
I1009 23:28:58.436116  7099 layer_factory.hpp:77] Creating layer LFCN_1_5x5_LFCN_1_5x5_0_split
I1009 23:28:58.436122  7099 net.cpp:100] Creating Layer LFCN_1_5x5_LFCN_1_5x5_0_split
I1009 23:28:58.436125  7099 net.cpp:434] LFCN_1_5x5_LFCN_1_5x5_0_split <- LFCN_1_5x5
I1009 23:28:58.436131  7099 net.cpp:408] LFCN_1_5x5_LFCN_1_5x5_0_split -> LFCN_1_5x5_LFCN_1_5x5_0_split_0
I1009 23:28:58.436137  7099 net.cpp:408] LFCN_1_5x5_LFCN_1_5x5_0_split -> LFCN_1_5x5_LFCN_1_5x5_0_split_1
I1009 23:28:58.436142  7099 net.cpp:408] LFCN_1_5x5_LFCN_1_5x5_0_split -> LFCN_1_5x5_LFCN_1_5x5_0_split_2
I1009 23:28:58.436184  7099 net.cpp:150] Setting up LFCN_1_5x5_LFCN_1_5x5_0_split
I1009 23:28:58.436190  7099 net.cpp:157] Top shape: 3 9 96 96 (248832)
I1009 23:28:58.436194  7099 net.cpp:157] Top shape: 3 9 96 96 (248832)
I1009 23:28:58.436198  7099 net.cpp:157] Top shape: 3 9 96 96 (248832)
I1009 23:28:58.436202  7099 net.cpp:165] Memory required for data: 4511880608
I1009 23:28:58.436204  7099 layer_factory.hpp:77] Creating layer detection_loss_1_5x5
I1009 23:28:58.436211  7099 net.cpp:100] Creating Layer detection_loss_1_5x5
I1009 23:28:58.436215  7099 net.cpp:434] detection_loss_1_5x5 <- LFCN_1_5x5_LFCN_1_5x5_0_split_0
I1009 23:28:58.436219  7099 net.cpp:434] detection_loss_1_5x5 <- label_1_5x5_data_1_split_0
I1009 23:28:58.436224  7099 net.cpp:408] detection_loss_1_5x5 -> loss_1_5x5
I1009 23:28:58.436236  7099 layer_factory.hpp:77] Creating layer detection_loss_1_5x5
I1009 23:28:58.437417  7099 net.cpp:150] Setting up detection_loss_1_5x5
I1009 23:28:58.437429  7099 net.cpp:157] Top shape: 1 1 1 2 (2)
I1009 23:28:58.437433  7099 net.cpp:160]     with loss weight 0.9
I1009 23:28:58.437445  7099 net.cpp:165] Memory required for data: 4511880616
I1009 23:28:58.437449  7099 layer_factory.hpp:77] Creating layer detection_accuracy_1_5x5
I1009 23:28:58.437456  7099 net.cpp:100] Creating Layer detection_accuracy_1_5x5
I1009 23:28:58.437460  7099 net.cpp:434] detection_accuracy_1_5x5 <- LFCN_1_5x5_LFCN_1_5x5_0_split_1
I1009 23:28:58.437466  7099 net.cpp:434] detection_accuracy_1_5x5 <- label_1_5x5_data_1_split_1
I1009 23:28:58.437472  7099 net.cpp:408] detection_accuracy_1_5x5 -> accuracy_1_5x5
I1009 23:28:58.437480  7099 net.cpp:408] detection_accuracy_1_5x5 -> boxiou_1_5x5
I1009 23:28:58.437515  7099 net.cpp:150] Setting up detection_accuracy_1_5x5
I1009 23:28:58.437522  7099 net.cpp:157] Top shape: 1 1 1 2 (2)
I1009 23:28:58.437526  7099 net.cpp:157] Top shape: 1 1 1 1 (1)
I1009 23:28:58.437530  7099 net.cpp:165] Memory required for data: 4511880628
I1009 23:28:58.437533  7099 layer_factory.hpp:77] Creating layer LFCN_1_7x7
I1009 23:28:58.437542  7099 net.cpp:100] Creating Layer LFCN_1_7x7
I1009 23:28:58.437546  7099 net.cpp:434] LFCN_1_7x7 <- loss1_conv1_loss_relu1_0_split_1
I1009 23:28:58.437551  7099 net.cpp:408] LFCN_1_7x7 -> LFCN_1_7x7
I1009 23:28:58.444082  7099 net.cpp:150] Setting up LFCN_1_7x7
I1009 23:28:58.444095  7099 net.cpp:157] Top shape: 3 9 96 96 (248832)
I1009 23:28:58.444099  7099 net.cpp:165] Memory required for data: 4512875956
I1009 23:28:58.444106  7099 layer_factory.hpp:77] Creating layer LFCN_1_7x7_LFCN_1_7x7_0_split
I1009 23:28:58.444111  7099 net.cpp:100] Creating Layer LFCN_1_7x7_LFCN_1_7x7_0_split
I1009 23:28:58.444116  7099 net.cpp:434] LFCN_1_7x7_LFCN_1_7x7_0_split <- LFCN_1_7x7
I1009 23:28:58.444121  7099 net.cpp:408] LFCN_1_7x7_LFCN_1_7x7_0_split -> LFCN_1_7x7_LFCN_1_7x7_0_split_0
I1009 23:28:58.444128  7099 net.cpp:408] LFCN_1_7x7_LFCN_1_7x7_0_split -> LFCN_1_7x7_LFCN_1_7x7_0_split_1
I1009 23:28:58.444139  7099 net.cpp:408] LFCN_1_7x7_LFCN_1_7x7_0_split -> LFCN_1_7x7_LFCN_1_7x7_0_split_2
I1009 23:28:58.444182  7099 net.cpp:150] Setting up LFCN_1_7x7_LFCN_1_7x7_0_split
I1009 23:28:58.444187  7099 net.cpp:157] Top shape: 3 9 96 96 (248832)
I1009 23:28:58.444192  7099 net.cpp:157] Top shape: 3 9 96 96 (248832)
I1009 23:28:58.444196  7099 net.cpp:157] Top shape: 3 9 96 96 (248832)
I1009 23:28:58.444200  7099 net.cpp:165] Memory required for data: 4515861940
I1009 23:28:58.444202  7099 layer_factory.hpp:77] Creating layer detection_loss_1_7x7
I1009 23:28:58.444209  7099 net.cpp:100] Creating Layer detection_loss_1_7x7
I1009 23:28:58.444212  7099 net.cpp:434] detection_loss_1_7x7 <- LFCN_1_7x7_LFCN_1_7x7_0_split_0
I1009 23:28:58.444217  7099 net.cpp:434] detection_loss_1_7x7 <- label_1_7x7_data_2_split_0
I1009 23:28:58.444222  7099 net.cpp:408] detection_loss_1_7x7 -> loss_1_7x7
I1009 23:28:58.444229  7099 layer_factory.hpp:77] Creating layer detection_loss_1_7x7
I1009 23:28:58.444566  7099 net.cpp:150] Setting up detection_loss_1_7x7
I1009 23:28:58.444576  7099 net.cpp:157] Top shape: 1 1 1 2 (2)
I1009 23:28:58.444579  7099 net.cpp:160]     with loss weight 0.9
I1009 23:28:58.444586  7099 net.cpp:165] Memory required for data: 4515861948
I1009 23:28:58.444589  7099 layer_factory.hpp:77] Creating layer detection_accuracy_1_7x7
I1009 23:28:58.444595  7099 net.cpp:100] Creating Layer detection_accuracy_1_7x7
I1009 23:28:58.444598  7099 net.cpp:434] detection_accuracy_1_7x7 <- LFCN_1_7x7_LFCN_1_7x7_0_split_1
I1009 23:28:58.444603  7099 net.cpp:434] detection_accuracy_1_7x7 <- label_1_7x7_data_2_split_1
I1009 23:28:58.444608  7099 net.cpp:408] detection_accuracy_1_7x7 -> accuracy_1_7x7
I1009 23:28:58.444614  7099 net.cpp:408] detection_accuracy_1_7x7 -> boxiou_1_7x7
I1009 23:28:58.444643  7099 net.cpp:150] Setting up detection_accuracy_1_7x7
I1009 23:28:58.444650  7099 net.cpp:157] Top shape: 1 1 1 2 (2)
I1009 23:28:58.444654  7099 net.cpp:157] Top shape: 1 1 1 1 (1)
I1009 23:28:58.444658  7099 net.cpp:165] Memory required for data: 4515861960
I1009 23:28:58.444660  7099 layer_factory.hpp:77] Creating layer pool4
I1009 23:28:58.444666  7099 net.cpp:100] Creating Layer pool4
I1009 23:28:58.444669  7099 net.cpp:434] pool4 <- conv4_3_relu4_3_0_split_2
I1009 23:28:58.444674  7099 net.cpp:408] pool4 -> pool4
I1009 23:28:58.444705  7099 net.cpp:150] Setting up pool4
I1009 23:28:58.444710  7099 net.cpp:157] Top shape: 3 512 48 48 (3538944)
I1009 23:28:58.444713  7099 net.cpp:165] Memory required for data: 4530017736
I1009 23:28:58.444716  7099 layer_factory.hpp:77] Creating layer conv5_1
I1009 23:28:58.444723  7099 net.cpp:100] Creating Layer conv5_1
I1009 23:28:58.444726  7099 net.cpp:434] conv5_1 <- pool4
I1009 23:28:58.444731  7099 net.cpp:408] conv5_1 -> conv5_1
I1009 23:28:58.450534  7099 net.cpp:150] Setting up conv5_1
I1009 23:28:58.450564  7099 net.cpp:157] Top shape: 3 512 48 48 (3538944)
I1009 23:28:58.450568  7099 net.cpp:165] Memory required for data: 4544173512
I1009 23:28:58.450577  7099 layer_factory.hpp:77] Creating layer relu5_1
I1009 23:28:58.450588  7099 net.cpp:100] Creating Layer relu5_1
I1009 23:28:58.450594  7099 net.cpp:434] relu5_1 <- conv5_1
I1009 23:28:58.450600  7099 net.cpp:395] relu5_1 -> conv5_1 (in-place)
I1009 23:28:58.451043  7099 net.cpp:150] Setting up relu5_1
I1009 23:28:58.451056  7099 net.cpp:157] Top shape: 3 512 48 48 (3538944)
I1009 23:28:58.451059  7099 net.cpp:165] Memory required for data: 4558329288
I1009 23:28:58.451062  7099 layer_factory.hpp:77] Creating layer conv5_2
I1009 23:28:58.451071  7099 net.cpp:100] Creating Layer conv5_2
I1009 23:28:58.451076  7099 net.cpp:434] conv5_2 <- conv5_1
I1009 23:28:58.451081  7099 net.cpp:408] conv5_2 -> conv5_2
I1009 23:28:58.456338  7099 net.cpp:150] Setting up conv5_2
I1009 23:28:58.456378  7099 net.cpp:157] Top shape: 3 512 48 48 (3538944)
I1009 23:28:58.456382  7099 net.cpp:165] Memory required for data: 4572485064
I1009 23:28:58.456389  7099 layer_factory.hpp:77] Creating layer relu5_2
I1009 23:28:58.456400  7099 net.cpp:100] Creating Layer relu5_2
I1009 23:28:58.456408  7099 net.cpp:434] relu5_2 <- conv5_2
I1009 23:28:58.456413  7099 net.cpp:395] relu5_2 -> conv5_2 (in-place)
I1009 23:28:58.457010  7099 net.cpp:150] Setting up relu5_2
I1009 23:28:58.457022  7099 net.cpp:157] Top shape: 3 512 48 48 (3538944)
I1009 23:28:58.457026  7099 net.cpp:165] Memory required for data: 4586640840
I1009 23:28:58.457029  7099 layer_factory.hpp:77] Creating layer conv5_3
I1009 23:28:58.457038  7099 net.cpp:100] Creating Layer conv5_3
I1009 23:28:58.457042  7099 net.cpp:434] conv5_3 <- conv5_2
I1009 23:28:58.457048  7099 net.cpp:408] conv5_3 -> conv5_3
I1009 23:28:58.462862  7099 net.cpp:150] Setting up conv5_3
I1009 23:28:58.462891  7099 net.cpp:157] Top shape: 3 512 48 48 (3538944)
I1009 23:28:58.462896  7099 net.cpp:165] Memory required for data: 4600796616
I1009 23:28:58.462911  7099 layer_factory.hpp:77] Creating layer relu5_3
I1009 23:28:58.462922  7099 net.cpp:100] Creating Layer relu5_3
I1009 23:28:58.462929  7099 net.cpp:434] relu5_3 <- conv5_3
I1009 23:28:58.462934  7099 net.cpp:395] relu5_3 -> conv5_3 (in-place)
I1009 23:28:58.463085  7099 net.cpp:150] Setting up relu5_3
I1009 23:28:58.463093  7099 net.cpp:157] Top shape: 3 512 48 48 (3538944)
I1009 23:28:58.463098  7099 net.cpp:165] Memory required for data: 4614952392
I1009 23:28:58.463101  7099 layer_factory.hpp:77] Creating layer conv5_3_relu5_3_0_split
I1009 23:28:58.463109  7099 net.cpp:100] Creating Layer conv5_3_relu5_3_0_split
I1009 23:28:58.463114  7099 net.cpp:434] conv5_3_relu5_3_0_split <- conv5_3
I1009 23:28:58.463120  7099 net.cpp:408] conv5_3_relu5_3_0_split -> conv5_3_relu5_3_0_split_0
I1009 23:28:58.463127  7099 net.cpp:408] conv5_3_relu5_3_0_split -> conv5_3_relu5_3_0_split_1
I1009 23:28:58.463132  7099 net.cpp:408] conv5_3_relu5_3_0_split -> conv5_3_relu5_3_0_split_2
I1009 23:28:58.463176  7099 net.cpp:150] Setting up conv5_3_relu5_3_0_split
I1009 23:28:58.463183  7099 net.cpp:157] Top shape: 3 512 48 48 (3538944)
I1009 23:28:58.463187  7099 net.cpp:157] Top shape: 3 512 48 48 (3538944)
I1009 23:28:58.463191  7099 net.cpp:157] Top shape: 3 512 48 48 (3538944)
I1009 23:28:58.463194  7099 net.cpp:165] Memory required for data: 4657419720
I1009 23:28:58.463197  7099 layer_factory.hpp:77] Creating layer LFCN_2_5x5
I1009 23:28:58.463208  7099 net.cpp:100] Creating Layer LFCN_2_5x5
I1009 23:28:58.463212  7099 net.cpp:434] LFCN_2_5x5 <- conv5_3_relu5_3_0_split_0
I1009 23:28:58.463217  7099 net.cpp:408] LFCN_2_5x5 -> LFCN_2_5x5
I1009 23:28:58.467875  7099 net.cpp:150] Setting up LFCN_2_5x5
I1009 23:28:58.467888  7099 net.cpp:157] Top shape: 3 9 48 48 (62208)
I1009 23:28:58.467892  7099 net.cpp:165] Memory required for data: 4657668552
I1009 23:28:58.467898  7099 layer_factory.hpp:77] Creating layer LFCN_2_5x5_LFCN_2_5x5_0_split
I1009 23:28:58.467905  7099 net.cpp:100] Creating Layer LFCN_2_5x5_LFCN_2_5x5_0_split
I1009 23:28:58.467909  7099 net.cpp:434] LFCN_2_5x5_LFCN_2_5x5_0_split <- LFCN_2_5x5
I1009 23:28:58.467916  7099 net.cpp:408] LFCN_2_5x5_LFCN_2_5x5_0_split -> LFCN_2_5x5_LFCN_2_5x5_0_split_0
I1009 23:28:58.467922  7099 net.cpp:408] LFCN_2_5x5_LFCN_2_5x5_0_split -> LFCN_2_5x5_LFCN_2_5x5_0_split_1
I1009 23:28:58.467927  7099 net.cpp:408] LFCN_2_5x5_LFCN_2_5x5_0_split -> LFCN_2_5x5_LFCN_2_5x5_0_split_2
I1009 23:28:58.467969  7099 net.cpp:150] Setting up LFCN_2_5x5_LFCN_2_5x5_0_split
I1009 23:28:58.467977  7099 net.cpp:157] Top shape: 3 9 48 48 (62208)
I1009 23:28:58.467980  7099 net.cpp:157] Top shape: 3 9 48 48 (62208)
I1009 23:28:58.467984  7099 net.cpp:157] Top shape: 3 9 48 48 (62208)
I1009 23:28:58.467988  7099 net.cpp:165] Memory required for data: 4658415048
I1009 23:28:58.467991  7099 layer_factory.hpp:77] Creating layer detection_loss_2_5x5
I1009 23:28:58.468003  7099 net.cpp:100] Creating Layer detection_loss_2_5x5
I1009 23:28:58.468006  7099 net.cpp:434] detection_loss_2_5x5 <- LFCN_2_5x5_LFCN_2_5x5_0_split_0
I1009 23:28:58.468011  7099 net.cpp:434] detection_loss_2_5x5 <- label_2_5x5_data_3_split_0
I1009 23:28:58.468016  7099 net.cpp:408] detection_loss_2_5x5 -> loss_2_5x5
I1009 23:28:58.468025  7099 layer_factory.hpp:77] Creating layer detection_loss_2_5x5
I1009 23:28:58.468379  7099 net.cpp:150] Setting up detection_loss_2_5x5
I1009 23:28:58.468389  7099 net.cpp:157] Top shape: 1 1 1 2 (2)
I1009 23:28:58.468392  7099 net.cpp:160]     with loss weight 1
I1009 23:28:58.468403  7099 net.cpp:165] Memory required for data: 4658415056
I1009 23:28:58.468407  7099 layer_factory.hpp:77] Creating layer detection_accuracy_2_5x5
I1009 23:28:58.468415  7099 net.cpp:100] Creating Layer detection_accuracy_2_5x5
I1009 23:28:58.468417  7099 net.cpp:434] detection_accuracy_2_5x5 <- LFCN_2_5x5_LFCN_2_5x5_0_split_1
I1009 23:28:58.468422  7099 net.cpp:434] detection_accuracy_2_5x5 <- label_2_5x5_data_3_split_1
I1009 23:28:58.468427  7099 net.cpp:408] detection_accuracy_2_5x5 -> accuracy_2_5x5
I1009 23:28:58.468435  7099 net.cpp:408] detection_accuracy_2_5x5 -> boxiou_2_5x5
I1009 23:28:58.468467  7099 net.cpp:150] Setting up detection_accuracy_2_5x5
I1009 23:28:58.468473  7099 net.cpp:157] Top shape: 1 1 1 2 (2)
I1009 23:28:58.468478  7099 net.cpp:157] Top shape: 1 1 1 1 (1)
I1009 23:28:58.468482  7099 net.cpp:165] Memory required for data: 4658415068
I1009 23:28:58.468484  7099 layer_factory.hpp:77] Creating layer LFCN_2_7x7
I1009 23:28:58.468492  7099 net.cpp:100] Creating Layer LFCN_2_7x7
I1009 23:28:58.468497  7099 net.cpp:434] LFCN_2_7x7 <- conv5_3_relu5_3_0_split_1
I1009 23:28:58.468502  7099 net.cpp:408] LFCN_2_7x7 -> LFCN_2_7x7
I1009 23:28:58.474525  7099 net.cpp:150] Setting up LFCN_2_7x7
I1009 23:28:58.474539  7099 net.cpp:157] Top shape: 3 9 48 48 (62208)
I1009 23:28:58.474542  7099 net.cpp:165] Memory required for data: 4658663900
I1009 23:28:58.474548  7099 layer_factory.hpp:77] Creating layer LFCN_2_7x7_LFCN_2_7x7_0_split
I1009 23:28:58.474553  7099 net.cpp:100] Creating Layer LFCN_2_7x7_LFCN_2_7x7_0_split
I1009 23:28:58.474557  7099 net.cpp:434] LFCN_2_7x7_LFCN_2_7x7_0_split <- LFCN_2_7x7
I1009 23:28:58.474563  7099 net.cpp:408] LFCN_2_7x7_LFCN_2_7x7_0_split -> LFCN_2_7x7_LFCN_2_7x7_0_split_0
I1009 23:28:58.474570  7099 net.cpp:408] LFCN_2_7x7_LFCN_2_7x7_0_split -> LFCN_2_7x7_LFCN_2_7x7_0_split_1
I1009 23:28:58.474575  7099 net.cpp:408] LFCN_2_7x7_LFCN_2_7x7_0_split -> LFCN_2_7x7_LFCN_2_7x7_0_split_2
I1009 23:28:58.474617  7099 net.cpp:150] Setting up LFCN_2_7x7_LFCN_2_7x7_0_split
I1009 23:28:58.474625  7099 net.cpp:157] Top shape: 3 9 48 48 (62208)
I1009 23:28:58.474629  7099 net.cpp:157] Top shape: 3 9 48 48 (62208)
I1009 23:28:58.474633  7099 net.cpp:157] Top shape: 3 9 48 48 (62208)
I1009 23:28:58.474637  7099 net.cpp:165] Memory required for data: 4659410396
I1009 23:28:58.474639  7099 layer_factory.hpp:77] Creating layer detection_loss_2_7x7
I1009 23:28:58.474644  7099 net.cpp:100] Creating Layer detection_loss_2_7x7
I1009 23:28:58.474648  7099 net.cpp:434] detection_loss_2_7x7 <- LFCN_2_7x7_LFCN_2_7x7_0_split_0
I1009 23:28:58.474653  7099 net.cpp:434] detection_loss_2_7x7 <- label_2_7x7_data_4_split_0
I1009 23:28:58.474658  7099 net.cpp:408] detection_loss_2_7x7 -> loss_2_7x7
I1009 23:28:58.474664  7099 layer_factory.hpp:77] Creating layer detection_loss_2_7x7
I1009 23:28:58.474958  7099 net.cpp:150] Setting up detection_loss_2_7x7
I1009 23:28:58.474967  7099 net.cpp:157] Top shape: 1 1 1 2 (2)
I1009 23:28:58.474972  7099 net.cpp:160]     with loss weight 1
I1009 23:28:58.474977  7099 net.cpp:165] Memory required for data: 4659410404
I1009 23:28:58.474980  7099 layer_factory.hpp:77] Creating layer detection_accuracy_2_7x7
I1009 23:28:58.474985  7099 net.cpp:100] Creating Layer detection_accuracy_2_7x7
I1009 23:28:58.474989  7099 net.cpp:434] detection_accuracy_2_7x7 <- LFCN_2_7x7_LFCN_2_7x7_0_split_1
I1009 23:28:58.474993  7099 net.cpp:434] detection_accuracy_2_7x7 <- label_2_7x7_data_4_split_1
I1009 23:28:58.474998  7099 net.cpp:408] detection_accuracy_2_7x7 -> accuracy_2_7x7
I1009 23:28:58.475004  7099 net.cpp:408] detection_accuracy_2_7x7 -> boxiou_2_7x7
I1009 23:28:58.475036  7099 net.cpp:150] Setting up detection_accuracy_2_7x7
I1009 23:28:58.475042  7099 net.cpp:157] Top shape: 1 1 1 2 (2)
I1009 23:28:58.475047  7099 net.cpp:157] Top shape: 1 1 1 1 (1)
I1009 23:28:58.475050  7099 net.cpp:165] Memory required for data: 4659410416
I1009 23:28:58.475054  7099 layer_factory.hpp:77] Creating layer pool5
I1009 23:28:58.475059  7099 net.cpp:100] Creating Layer pool5
I1009 23:28:58.475064  7099 net.cpp:434] pool5 <- conv5_3_relu5_3_0_split_2
I1009 23:28:58.475069  7099 net.cpp:408] pool5 -> pool5
I1009 23:28:58.475100  7099 net.cpp:150] Setting up pool5
I1009 23:28:58.475106  7099 net.cpp:157] Top shape: 3 512 24 24 (884736)
I1009 23:28:58.475108  7099 net.cpp:165] Memory required for data: 4662949360
I1009 23:28:58.475111  7099 layer_factory.hpp:77] Creating layer conv6_1
I1009 23:28:58.475119  7099 net.cpp:100] Creating Layer conv6_1
I1009 23:28:58.475122  7099 net.cpp:434] conv6_1 <- pool5
I1009 23:28:58.475128  7099 net.cpp:408] conv6_1 -> conv6_1
I1009 23:28:58.535351  7099 net.cpp:150] Setting up conv6_1
I1009 23:28:58.535380  7099 net.cpp:157] Top shape: 3 512 24 24 (884736)
I1009 23:28:58.535384  7099 net.cpp:165] Memory required for data: 4666488304
I1009 23:28:58.535393  7099 layer_factory.hpp:77] Creating layer relu6_1
I1009 23:28:58.535403  7099 net.cpp:100] Creating Layer relu6_1
I1009 23:28:58.535410  7099 net.cpp:434] relu6_1 <- conv6_1
I1009 23:28:58.535416  7099 net.cpp:395] relu6_1 -> conv6_1 (in-place)
I1009 23:28:58.535567  7099 net.cpp:150] Setting up relu6_1
I1009 23:28:58.535575  7099 net.cpp:157] Top shape: 3 512 24 24 (884736)
I1009 23:28:58.535579  7099 net.cpp:165] Memory required for data: 4670027248
I1009 23:28:58.535583  7099 layer_factory.hpp:77] Creating layer conv6_1_relu6_1_0_split
I1009 23:28:58.535588  7099 net.cpp:100] Creating Layer conv6_1_relu6_1_0_split
I1009 23:28:58.535593  7099 net.cpp:434] conv6_1_relu6_1_0_split <- conv6_1
I1009 23:28:58.535598  7099 net.cpp:408] conv6_1_relu6_1_0_split -> conv6_1_relu6_1_0_split_0
I1009 23:28:58.535604  7099 net.cpp:408] conv6_1_relu6_1_0_split -> conv6_1_relu6_1_0_split_1
I1009 23:28:58.535609  7099 net.cpp:408] conv6_1_relu6_1_0_split -> conv6_1_relu6_1_0_split_2
I1009 23:28:58.535652  7099 net.cpp:150] Setting up conv6_1_relu6_1_0_split
I1009 23:28:58.535660  7099 net.cpp:157] Top shape: 3 512 24 24 (884736)
I1009 23:28:58.535663  7099 net.cpp:157] Top shape: 3 512 24 24 (884736)
I1009 23:28:58.535666  7099 net.cpp:157] Top shape: 3 512 24 24 (884736)
I1009 23:28:58.535670  7099 net.cpp:165] Memory required for data: 4680644080
I1009 23:28:58.535673  7099 layer_factory.hpp:77] Creating layer LFCN_3_5x5
I1009 23:28:58.535683  7099 net.cpp:100] Creating Layer LFCN_3_5x5
I1009 23:28:58.535686  7099 net.cpp:434] LFCN_3_5x5 <- conv6_1_relu6_1_0_split_0
I1009 23:28:58.535693  7099 net.cpp:408] LFCN_3_5x5 -> LFCN_3_5x5
I1009 23:28:58.539608  7099 net.cpp:150] Setting up LFCN_3_5x5
I1009 23:28:58.539621  7099 net.cpp:157] Top shape: 3 9 24 24 (15552)
I1009 23:28:58.539625  7099 net.cpp:165] Memory required for data: 4680706288
I1009 23:28:58.539631  7099 layer_factory.hpp:77] Creating layer LFCN_3_5x5_LFCN_3_5x5_0_split
I1009 23:28:58.539638  7099 net.cpp:100] Creating Layer LFCN_3_5x5_LFCN_3_5x5_0_split
I1009 23:28:58.539641  7099 net.cpp:434] LFCN_3_5x5_LFCN_3_5x5_0_split <- LFCN_3_5x5
I1009 23:28:58.539646  7099 net.cpp:408] LFCN_3_5x5_LFCN_3_5x5_0_split -> LFCN_3_5x5_LFCN_3_5x5_0_split_0
I1009 23:28:58.539654  7099 net.cpp:408] LFCN_3_5x5_LFCN_3_5x5_0_split -> LFCN_3_5x5_LFCN_3_5x5_0_split_1
I1009 23:28:58.539661  7099 net.cpp:408] LFCN_3_5x5_LFCN_3_5x5_0_split -> LFCN_3_5x5_LFCN_3_5x5_0_split_2
I1009 23:28:58.539708  7099 net.cpp:150] Setting up LFCN_3_5x5_LFCN_3_5x5_0_split
I1009 23:28:58.539714  7099 net.cpp:157] Top shape: 3 9 24 24 (15552)
I1009 23:28:58.539719  7099 net.cpp:157] Top shape: 3 9 24 24 (15552)
I1009 23:28:58.539724  7099 net.cpp:157] Top shape: 3 9 24 24 (15552)
I1009 23:28:58.539727  7099 net.cpp:165] Memory required for data: 4680892912
I1009 23:28:58.539731  7099 layer_factory.hpp:77] Creating layer detection_loss_3_5x5
I1009 23:28:58.539738  7099 net.cpp:100] Creating Layer detection_loss_3_5x5
I1009 23:28:58.539743  7099 net.cpp:434] detection_loss_3_5x5 <- LFCN_3_5x5_LFCN_3_5x5_0_split_0
I1009 23:28:58.539748  7099 net.cpp:434] detection_loss_3_5x5 <- label_3_5x5_data_5_split_0
I1009 23:28:58.539757  7099 net.cpp:408] detection_loss_3_5x5 -> loss_3_5x5
I1009 23:28:58.539765  7099 layer_factory.hpp:77] Creating layer detection_loss_3_5x5
I1009 23:28:58.540349  7099 net.cpp:150] Setting up detection_loss_3_5x5
I1009 23:28:58.540361  7099 net.cpp:157] Top shape: 1 1 1 2 (2)
I1009 23:28:58.540365  7099 net.cpp:160]     with loss weight 1
I1009 23:28:58.540377  7099 net.cpp:165] Memory required for data: 4680892920
I1009 23:28:58.540380  7099 layer_factory.hpp:77] Creating layer detection_accuracy_3_5x5
I1009 23:28:58.540387  7099 net.cpp:100] Creating Layer detection_accuracy_3_5x5
I1009 23:28:58.540390  7099 net.cpp:434] detection_accuracy_3_5x5 <- LFCN_3_5x5_LFCN_3_5x5_0_split_1
I1009 23:28:58.540395  7099 net.cpp:434] detection_accuracy_3_5x5 <- label_3_5x5_data_5_split_1
I1009 23:28:58.540401  7099 net.cpp:408] detection_accuracy_3_5x5 -> accuracy_3_5x5
I1009 23:28:58.540410  7099 net.cpp:408] detection_accuracy_3_5x5 -> boxiou_3_5x5
I1009 23:28:58.540444  7099 net.cpp:150] Setting up detection_accuracy_3_5x5
I1009 23:28:58.540450  7099 net.cpp:157] Top shape: 1 1 1 2 (2)
I1009 23:28:58.540454  7099 net.cpp:157] Top shape: 1 1 1 1 (1)
I1009 23:28:58.540457  7099 net.cpp:165] Memory required for data: 4680892932
I1009 23:28:58.540460  7099 layer_factory.hpp:77] Creating layer LFCN_3_7x7
I1009 23:28:58.540470  7099 net.cpp:100] Creating Layer LFCN_3_7x7
I1009 23:28:58.540474  7099 net.cpp:434] LFCN_3_7x7 <- conv6_1_relu6_1_0_split_1
I1009 23:28:58.540480  7099 net.cpp:408] LFCN_3_7x7 -> LFCN_3_7x7
I1009 23:28:58.547358  7099 net.cpp:150] Setting up LFCN_3_7x7
I1009 23:28:58.547371  7099 net.cpp:157] Top shape: 3 9 24 24 (15552)
I1009 23:28:58.547374  7099 net.cpp:165] Memory required for data: 4680955140
I1009 23:28:58.547381  7099 layer_factory.hpp:77] Creating layer LFCN_3_7x7_LFCN_3_7x7_0_split
I1009 23:28:58.547387  7099 net.cpp:100] Creating Layer LFCN_3_7x7_LFCN_3_7x7_0_split
I1009 23:28:58.547391  7099 net.cpp:434] LFCN_3_7x7_LFCN_3_7x7_0_split <- LFCN_3_7x7
I1009 23:28:58.547399  7099 net.cpp:408] LFCN_3_7x7_LFCN_3_7x7_0_split -> LFCN_3_7x7_LFCN_3_7x7_0_split_0
I1009 23:28:58.547405  7099 net.cpp:408] LFCN_3_7x7_LFCN_3_7x7_0_split -> LFCN_3_7x7_LFCN_3_7x7_0_split_1
I1009 23:28:58.547410  7099 net.cpp:408] LFCN_3_7x7_LFCN_3_7x7_0_split -> LFCN_3_7x7_LFCN_3_7x7_0_split_2
I1009 23:28:58.547459  7099 net.cpp:150] Setting up LFCN_3_7x7_LFCN_3_7x7_0_split
I1009 23:28:58.547467  7099 net.cpp:157] Top shape: 3 9 24 24 (15552)
I1009 23:28:58.547472  7099 net.cpp:157] Top shape: 3 9 24 24 (15552)
I1009 23:28:58.547475  7099 net.cpp:157] Top shape: 3 9 24 24 (15552)
I1009 23:28:58.547478  7099 net.cpp:165] Memory required for data: 4681141764
I1009 23:28:58.547482  7099 layer_factory.hpp:77] Creating layer detection_loss_3_7x7
I1009 23:28:58.547487  7099 net.cpp:100] Creating Layer detection_loss_3_7x7
I1009 23:28:58.547492  7099 net.cpp:434] detection_loss_3_7x7 <- LFCN_3_7x7_LFCN_3_7x7_0_split_0
I1009 23:28:58.547495  7099 net.cpp:434] detection_loss_3_7x7 <- label_3_7x7_data_6_split_0
I1009 23:28:58.547502  7099 net.cpp:408] detection_loss_3_7x7 -> loss_3_7x7
I1009 23:28:58.547508  7099 layer_factory.hpp:77] Creating layer detection_loss_3_7x7
I1009 23:28:58.548117  7099 net.cpp:150] Setting up detection_loss_3_7x7
I1009 23:28:58.548130  7099 net.cpp:157] Top shape: 1 1 1 2 (2)
I1009 23:28:58.548135  7099 net.cpp:160]     with loss weight 1
I1009 23:28:58.548142  7099 net.cpp:165] Memory required for data: 4681141772
I1009 23:28:58.548146  7099 layer_factory.hpp:77] Creating layer detection_accuracy_3_7x7
I1009 23:28:58.548151  7099 net.cpp:100] Creating Layer detection_accuracy_3_7x7
I1009 23:28:58.548156  7099 net.cpp:434] detection_accuracy_3_7x7 <- LFCN_3_7x7_LFCN_3_7x7_0_split_1
I1009 23:28:58.548161  7099 net.cpp:434] detection_accuracy_3_7x7 <- label_3_7x7_data_6_split_1
I1009 23:28:58.548166  7099 net.cpp:408] detection_accuracy_3_7x7 -> accuracy_3_7x7
I1009 23:28:58.548173  7099 net.cpp:408] detection_accuracy_3_7x7 -> boxiou_3_7x7
I1009 23:28:58.548208  7099 net.cpp:150] Setting up detection_accuracy_3_7x7
I1009 23:28:58.548214  7099 net.cpp:157] Top shape: 1 1 1 2 (2)
I1009 23:28:58.548218  7099 net.cpp:157] Top shape: 1 1 1 1 (1)
I1009 23:28:58.548223  7099 net.cpp:165] Memory required for data: 4681141784
I1009 23:28:58.548225  7099 layer_factory.hpp:77] Creating layer pool6
I1009 23:28:58.548235  7099 net.cpp:100] Creating Layer pool6
I1009 23:28:58.548239  7099 net.cpp:434] pool6 <- conv6_1_relu6_1_0_split_2
I1009 23:28:58.548244  7099 net.cpp:408] pool6 -> pool6
I1009 23:28:58.548279  7099 net.cpp:150] Setting up pool6
I1009 23:28:58.548285  7099 net.cpp:157] Top shape: 3 512 12 12 (221184)
I1009 23:28:58.548287  7099 net.cpp:165] Memory required for data: 4682026520
I1009 23:28:58.548291  7099 layer_factory.hpp:77] Creating layer LFCN_4_5x5
I1009 23:28:58.548300  7099 net.cpp:100] Creating Layer LFCN_4_5x5
I1009 23:28:58.548305  7099 net.cpp:434] LFCN_4_5x5 <- pool6
I1009 23:28:58.548310  7099 net.cpp:408] LFCN_4_5x5 -> LFCN_4_5x5
I1009 23:28:58.552230  7099 net.cpp:150] Setting up LFCN_4_5x5
I1009 23:28:58.552240  7099 net.cpp:157] Top shape: 3 9 12 12 (3888)
I1009 23:28:58.552243  7099 net.cpp:165] Memory required for data: 4682042072
I1009 23:28:58.552248  7099 layer_factory.hpp:77] Creating layer LFCN_4_5x5_LFCN_4_5x5_0_split
I1009 23:28:58.552253  7099 net.cpp:100] Creating Layer LFCN_4_5x5_LFCN_4_5x5_0_split
I1009 23:28:58.552256  7099 net.cpp:434] LFCN_4_5x5_LFCN_4_5x5_0_split <- LFCN_4_5x5
I1009 23:28:58.552263  7099 net.cpp:408] LFCN_4_5x5_LFCN_4_5x5_0_split -> LFCN_4_5x5_LFCN_4_5x5_0_split_0
I1009 23:28:58.552268  7099 net.cpp:408] LFCN_4_5x5_LFCN_4_5x5_0_split -> LFCN_4_5x5_LFCN_4_5x5_0_split_1
I1009 23:28:58.552271  7099 net.cpp:408] LFCN_4_5x5_LFCN_4_5x5_0_split -> LFCN_4_5x5_LFCN_4_5x5_0_split_2
I1009 23:28:58.552310  7099 net.cpp:150] Setting up LFCN_4_5x5_LFCN_4_5x5_0_split
I1009 23:28:58.552317  7099 net.cpp:157] Top shape: 3 9 12 12 (3888)
I1009 23:28:58.552320  7099 net.cpp:157] Top shape: 3 9 12 12 (3888)
I1009 23:28:58.552323  7099 net.cpp:157] Top shape: 3 9 12 12 (3888)
I1009 23:28:58.552326  7099 net.cpp:165] Memory required for data: 4682088728
I1009 23:28:58.552330  7099 layer_factory.hpp:77] Creating layer detection_loss_4_5x5
I1009 23:28:58.552335  7099 net.cpp:100] Creating Layer detection_loss_4_5x5
I1009 23:28:58.552337  7099 net.cpp:434] detection_loss_4_5x5 <- LFCN_4_5x5_LFCN_4_5x5_0_split_0
I1009 23:28:58.552341  7099 net.cpp:434] detection_loss_4_5x5 <- label_4_5x5_data_7_split_0
I1009 23:28:58.552345  7099 net.cpp:408] detection_loss_4_5x5 -> loss_4_5x5
I1009 23:28:58.552351  7099 layer_factory.hpp:77] Creating layer detection_loss_4_5x5
I1009 23:28:58.552646  7099 net.cpp:150] Setting up detection_loss_4_5x5
I1009 23:28:58.552655  7099 net.cpp:157] Top shape: 1 1 1 2 (2)
I1009 23:28:58.552659  7099 net.cpp:160]     with loss weight 1
I1009 23:28:58.552664  7099 net.cpp:165] Memory required for data: 4682088736
I1009 23:28:58.552667  7099 layer_factory.hpp:77] Creating layer detection_accuracy_4_5x5
I1009 23:28:58.552673  7099 net.cpp:100] Creating Layer detection_accuracy_4_5x5
I1009 23:28:58.552677  7099 net.cpp:434] detection_accuracy_4_5x5 <- LFCN_4_5x5_LFCN_4_5x5_0_split_1
I1009 23:28:58.552681  7099 net.cpp:434] detection_accuracy_4_5x5 <- label_4_5x5_data_7_split_1
I1009 23:28:58.552686  7099 net.cpp:408] detection_accuracy_4_5x5 -> accuracy_4_5x5
I1009 23:28:58.552693  7099 net.cpp:408] detection_accuracy_4_5x5 -> boxiou_4_5x5
I1009 23:28:58.552726  7099 net.cpp:150] Setting up detection_accuracy_4_5x5
I1009 23:28:58.552732  7099 net.cpp:157] Top shape: 1 1 1 2 (2)
I1009 23:28:58.552736  7099 net.cpp:157] Top shape: 1 1 1 1 (1)
I1009 23:28:58.552738  7099 net.cpp:165] Memory required for data: 4682088748
I1009 23:28:58.552742  7099 layer_factory.hpp:77] Creating layer proposals
I1009 23:28:58.552749  7099 net.cpp:100] Creating Layer proposals
I1009 23:28:58.552752  7099 net.cpp:434] proposals <- LFCN_1_5x5_LFCN_1_5x5_0_split_2
I1009 23:28:58.552757  7099 net.cpp:434] proposals <- LFCN_1_7x7_LFCN_1_7x7_0_split_2
I1009 23:28:58.552762  7099 net.cpp:434] proposals <- LFCN_2_5x5_LFCN_2_5x5_0_split_2
I1009 23:28:58.552765  7099 net.cpp:434] proposals <- LFCN_2_7x7_LFCN_2_7x7_0_split_2
I1009 23:28:58.552768  7099 net.cpp:434] proposals <- LFCN_3_5x5_LFCN_3_5x5_0_split_2
I1009 23:28:58.552772  7099 net.cpp:434] proposals <- LFCN_3_7x7_LFCN_3_7x7_0_split_2
I1009 23:28:58.552776  7099 net.cpp:434] proposals <- LFCN_4_5x5_LFCN_4_5x5_0_split_2
I1009 23:28:58.552780  7099 net.cpp:408] proposals -> proposals
I1009 23:28:58.552806  7099 net.cpp:150] Setting up proposals
I1009 23:28:58.552812  7099 net.cpp:157] Top shape: 1 5 1 1 (5)
I1009 23:28:58.552815  7099 net.cpp:165] Memory required for data: 4682088768
I1009 23:28:58.552819  7099 layer_factory.hpp:77] Creating layer proposal_info
I1009 23:28:58.552826  7099 net.cpp:100] Creating Layer proposal_info
I1009 23:28:58.552831  7099 net.cpp:434] proposal_info <- proposals
I1009 23:28:58.552835  7099 net.cpp:434] proposal_info <- gt_boxes
I1009 23:28:58.552839  7099 net.cpp:408] proposal_info -> rois
I1009 23:28:58.552850  7099 net.cpp:408] proposal_info -> proposal_labels
I1009 23:28:58.552857  7099 net.cpp:408] proposal_info -> proposal_targets
I1009 23:28:58.552865  7099 net.cpp:408] proposal_info -> box_inside_weights
I1009 23:28:58.552871  7099 net.cpp:408] proposal_info -> box_outside_weights
I1009 23:28:58.552877  7099 net.cpp:408] proposal_info -> match_gt_boxes
I1009 23:28:58.552959  7099 net.cpp:150] Setting up proposal_info
I1009 23:28:58.552966  7099 net.cpp:157] Top shape: 256 5 1 1 (1280)
I1009 23:28:58.552970  7099 net.cpp:157] Top shape: 256 1 1 1 (256)
I1009 23:28:58.552974  7099 net.cpp:157] Top shape: 256 20 1 1 (5120)
I1009 23:28:58.552978  7099 net.cpp:157] Top shape: 256 20 1 1 (5120)
I1009 23:28:58.552981  7099 net.cpp:157] Top shape: 256 20 1 1 (5120)
I1009 23:28:58.552985  7099 net.cpp:157] Top shape: 256 6 1 1 (1536)
I1009 23:28:58.552989  7099 net.cpp:165] Memory required for data: 4682162496
I1009 23:28:58.552992  7099 layer_factory.hpp:77] Creating layer rois_proposal_info_0_split
I1009 23:28:58.552997  7099 net.cpp:100] Creating Layer rois_proposal_info_0_split
I1009 23:28:58.553000  7099 net.cpp:434] rois_proposal_info_0_split <- rois
I1009 23:28:58.553005  7099 net.cpp:408] rois_proposal_info_0_split -> rois_proposal_info_0_split_0
I1009 23:28:58.553010  7099 net.cpp:408] rois_proposal_info_0_split -> rois_proposal_info_0_split_1
I1009 23:28:58.553015  7099 net.cpp:408] rois_proposal_info_0_split -> rois_proposal_info_0_split_2
I1009 23:28:58.553056  7099 net.cpp:150] Setting up rois_proposal_info_0_split
I1009 23:28:58.553062  7099 net.cpp:157] Top shape: 256 5 1 1 (1280)
I1009 23:28:58.553066  7099 net.cpp:157] Top shape: 256 5 1 1 (1280)
I1009 23:28:58.553071  7099 net.cpp:157] Top shape: 256 5 1 1 (1280)
I1009 23:28:58.553072  7099 net.cpp:165] Memory required for data: 4682177856
I1009 23:28:58.553076  7099 layer_factory.hpp:77] Creating layer proposal_labels_proposal_info_1_split
I1009 23:28:58.553079  7099 net.cpp:100] Creating Layer proposal_labels_proposal_info_1_split
I1009 23:28:58.553083  7099 net.cpp:434] proposal_labels_proposal_info_1_split <- proposal_labels
I1009 23:28:58.553087  7099 net.cpp:408] proposal_labels_proposal_info_1_split -> proposal_labels_proposal_info_1_split_0
I1009 23:28:58.553092  7099 net.cpp:408] proposal_labels_proposal_info_1_split -> proposal_labels_proposal_info_1_split_1
I1009 23:28:58.553130  7099 net.cpp:150] Setting up proposal_labels_proposal_info_1_split
I1009 23:28:58.553136  7099 net.cpp:157] Top shape: 256 1 1 1 (256)
I1009 23:28:58.553141  7099 net.cpp:157] Top shape: 256 1 1 1 (256)
I1009 23:28:58.553144  7099 net.cpp:165] Memory required for data: 4682179904
I1009 23:28:58.553148  7099 layer_factory.hpp:77] Creating layer conv4_3_new
I1009 23:28:58.553151  7099 net.cpp:100] Creating Layer conv4_3_new
I1009 23:28:58.553155  7099 net.cpp:434] conv4_3_new <- conv4_3_relu4_3_0_split_3
I1009 23:28:58.553159  7099 net.cpp:434] conv4_3_new <- attention_relu_attention_0_split_1
I1009 23:28:58.553164  7099 net.cpp:408] conv4_3_new -> conv4_3_new
I1009 23:28:58.553185  7099 net.cpp:150] Setting up conv4_3_new
I1009 23:28:58.553191  7099 net.cpp:157] Top shape: 3 514 96 96 (14211072)
I1009 23:28:58.553194  7099 net.cpp:165] Memory required for data: 4739024192
I1009 23:28:58.553197  7099 layer_factory.hpp:77] Creating layer conv4_3_2x
I1009 23:28:58.553203  7099 net.cpp:100] Creating Layer conv4_3_2x
I1009 23:28:58.553207  7099 net.cpp:434] conv4_3_2x <- conv4_3_new
I1009 23:28:58.553213  7099 net.cpp:408] conv4_3_2x -> conv4_3_2x
I1009 23:28:58.553685  7099 net.cpp:150] Setting up conv4_3_2x
I1009 23:28:58.553694  7099 net.cpp:157] Top shape: 3 514 192 192 (56844288)
I1009 23:28:58.553696  7099 net.cpp:165] Memory required for data: 4966401344
I1009 23:28:58.553700  7099 layer_factory.hpp:77] Creating layer conv4_3_2x_conv4_3_2x_0_split
I1009 23:28:58.553704  7099 net.cpp:100] Creating Layer conv4_3_2x_conv4_3_2x_0_split
I1009 23:28:58.553709  7099 net.cpp:434] conv4_3_2x_conv4_3_2x_0_split <- conv4_3_2x
I1009 23:28:58.553714  7099 net.cpp:408] conv4_3_2x_conv4_3_2x_0_split -> conv4_3_2x_conv4_3_2x_0_split_0
I1009 23:28:58.553719  7099 net.cpp:408] conv4_3_2x_conv4_3_2x_0_split -> conv4_3_2x_conv4_3_2x_0_split_1
I1009 23:28:58.553748  7099 net.cpp:150] Setting up conv4_3_2x_conv4_3_2x_0_split
I1009 23:28:58.553755  7099 net.cpp:157] Top shape: 3 514 192 192 (56844288)
I1009 23:28:58.553758  7099 net.cpp:157] Top shape: 3 514 192 192 (56844288)
I1009 23:28:58.553761  7099 net.cpp:165] Memory required for data: 5421155648
I1009 23:28:58.553764  7099 layer_factory.hpp:77] Creating layer roi_pool_org
I1009 23:28:58.553771  7099 net.cpp:100] Creating Layer roi_pool_org
I1009 23:28:58.553774  7099 net.cpp:434] roi_pool_org <- conv4_3_2x_conv4_3_2x_0_split_0
I1009 23:28:58.553778  7099 net.cpp:434] roi_pool_org <- rois_proposal_info_0_split_0
I1009 23:28:58.553782  7099 net.cpp:408] roi_pool_org -> roi_pool_org
I1009 23:28:58.553791  7099 roi_pooling_layer.cpp:33] Spatial scale: 0.25
I1009 23:28:58.553824  7099 net.cpp:150] Setting up roi_pool_org
I1009 23:28:58.553829  7099 net.cpp:157] Top shape: 256 514 7 7 (6447616)
I1009 23:28:58.553833  7099 net.cpp:165] Memory required for data: 5446946112
I1009 23:28:58.553836  7099 layer_factory.hpp:77] Creating layer roi_pool_ctx
I1009 23:28:58.553841  7099 net.cpp:100] Creating Layer roi_pool_ctx
I1009 23:28:58.553845  7099 net.cpp:434] roi_pool_ctx <- conv4_3_2x_conv4_3_2x_0_split_1
I1009 23:28:58.553849  7099 net.cpp:434] roi_pool_ctx <- rois_proposal_info_0_split_1
I1009 23:28:58.553853  7099 net.cpp:408] roi_pool_ctx -> roi_pool_ctx
I1009 23:28:58.553858  7099 roi_pooling_layer.cpp:33] Spatial scale: 0.25
I1009 23:28:58.553891  7099 net.cpp:150] Setting up roi_pool_ctx
I1009 23:28:58.553897  7099 net.cpp:157] Top shape: 256 514 7 7 (6447616)
I1009 23:28:58.553900  7099 net.cpp:165] Memory required for data: 5472736576
I1009 23:28:58.553903  7099 layer_factory.hpp:77] Creating layer roi_pool
I1009 23:28:58.553907  7099 net.cpp:100] Creating Layer roi_pool
I1009 23:28:58.553911  7099 net.cpp:434] roi_pool <- roi_pool_org
I1009 23:28:58.553915  7099 net.cpp:434] roi_pool <- roi_pool_ctx
I1009 23:28:58.553921  7099 net.cpp:408] roi_pool -> roi_pool
I1009 23:28:58.553939  7099 net.cpp:150] Setting up roi_pool
I1009 23:28:58.553946  7099 net.cpp:157] Top shape: 256 1028 7 7 (12895232)
I1009 23:28:58.553948  7099 net.cpp:165] Memory required for data: 5524317504
I1009 23:28:58.553951  7099 layer_factory.hpp:77] Creating layer roi_c1
I1009 23:28:58.553961  7099 net.cpp:100] Creating Layer roi_c1
I1009 23:28:58.553964  7099 net.cpp:434] roi_c1 <- roi_pool
I1009 23:28:58.553969  7099 net.cpp:408] roi_c1 -> roi_c1
I1009 23:28:58.668830  7099 net.cpp:150] Setting up roi_c1
I1009 23:28:58.668857  7099 net.cpp:157] Top shape: 256 512 5 5 (3276800)
I1009 23:28:58.668861  7099 net.cpp:165] Memory required for data: 5537424704
I1009 23:28:58.668869  7099 layer_factory.hpp:77] Creating layer roi_c1_relu
I1009 23:28:58.668879  7099 net.cpp:100] Creating Layer roi_c1_relu
I1009 23:28:58.668884  7099 net.cpp:434] roi_c1_relu <- roi_c1
I1009 23:28:58.668890  7099 net.cpp:395] roi_c1_relu -> roi_c1 (in-place)
I1009 23:28:58.669039  7099 net.cpp:150] Setting up roi_c1_relu
I1009 23:28:58.669046  7099 net.cpp:157] Top shape: 256 512 5 5 (3276800)
I1009 23:28:58.669049  7099 net.cpp:165] Memory required for data: 5550531904
I1009 23:28:58.669054  7099 layer_factory.hpp:77] Creating layer fc6
I1009 23:28:58.669060  7099 net.cpp:100] Creating Layer fc6
I1009 23:28:58.669064  7099 net.cpp:434] fc6 <- roi_c1
I1009 23:28:58.669071  7099 net.cpp:408] fc6 -> fc6
I1009 23:28:59.892702  7099 net.cpp:150] Setting up fc6
I1009 23:28:59.892735  7099 net.cpp:157] Top shape: 256 4096 (1048576)
I1009 23:28:59.892738  7099 net.cpp:165] Memory required for data: 5554726208
I1009 23:28:59.892747  7099 layer_factory.hpp:77] Creating layer relu6
I1009 23:28:59.892757  7099 net.cpp:100] Creating Layer relu6
I1009 23:28:59.892765  7099 net.cpp:434] relu6 <- fc6
I1009 23:28:59.892771  7099 net.cpp:395] relu6 -> fc6 (in-place)
I1009 23:28:59.892995  7099 net.cpp:150] Setting up relu6
I1009 23:28:59.893005  7099 net.cpp:157] Top shape: 256 4096 (1048576)
I1009 23:28:59.893008  7099 net.cpp:165] Memory required for data: 5558920512
I1009 23:28:59.893013  7099 layer_factory.hpp:77] Creating layer drop6
I1009 23:28:59.893028  7099 net.cpp:100] Creating Layer drop6
I1009 23:28:59.893030  7099 net.cpp:434] drop6 <- fc6
I1009 23:28:59.893038  7099 net.cpp:395] drop6 -> fc6 (in-place)
I1009 23:28:59.893060  7099 net.cpp:150] Setting up drop6
I1009 23:28:59.893066  7099 net.cpp:157] Top shape: 256 4096 (1048576)
I1009 23:28:59.893069  7099 net.cpp:165] Memory required for data: 5563114816
I1009 23:28:59.893072  7099 layer_factory.hpp:77] Creating layer fc6_drop6_0_split
I1009 23:28:59.893077  7099 net.cpp:100] Creating Layer fc6_drop6_0_split
I1009 23:28:59.893080  7099 net.cpp:434] fc6_drop6_0_split <- fc6
I1009 23:28:59.893086  7099 net.cpp:408] fc6_drop6_0_split -> fc6_drop6_0_split_0
I1009 23:28:59.893092  7099 net.cpp:408] fc6_drop6_0_split -> fc6_drop6_0_split_1
I1009 23:28:59.893128  7099 net.cpp:150] Setting up fc6_drop6_0_split
I1009 23:28:59.893134  7099 net.cpp:157] Top shape: 256 4096 (1048576)
I1009 23:28:59.893138  7099 net.cpp:157] Top shape: 256 4096 (1048576)
I1009 23:28:59.893141  7099 net.cpp:165] Memory required for data: 5571503424
I1009 23:28:59.893144  7099 layer_factory.hpp:77] Creating layer cls_pred
I1009 23:28:59.893153  7099 net.cpp:100] Creating Layer cls_pred
I1009 23:28:59.893157  7099 net.cpp:434] cls_pred <- fc6_drop6_0_split_0
I1009 23:28:59.893162  7099 net.cpp:408] cls_pred -> cls_pred
I1009 23:28:59.893776  7099 net.cpp:150] Setting up cls_pred
I1009 23:28:59.893784  7099 net.cpp:157] Top shape: 256 5 (1280)
I1009 23:28:59.893787  7099 net.cpp:165] Memory required for data: 5571508544
I1009 23:28:59.893792  7099 layer_factory.hpp:77] Creating layer cls_pred_cls_pred_0_split
I1009 23:28:59.893797  7099 net.cpp:100] Creating Layer cls_pred_cls_pred_0_split
I1009 23:28:59.893800  7099 net.cpp:434] cls_pred_cls_pred_0_split <- cls_pred
I1009 23:28:59.893806  7099 net.cpp:408] cls_pred_cls_pred_0_split -> cls_pred_cls_pred_0_split_0
I1009 23:28:59.893812  7099 net.cpp:408] cls_pred_cls_pred_0_split -> cls_pred_cls_pred_0_split_1
I1009 23:28:59.893839  7099 net.cpp:150] Setting up cls_pred_cls_pred_0_split
I1009 23:28:59.893846  7099 net.cpp:157] Top shape: 256 5 (1280)
I1009 23:28:59.893849  7099 net.cpp:157] Top shape: 256 5 (1280)
I1009 23:28:59.893852  7099 net.cpp:165] Memory required for data: 5571518784
I1009 23:28:59.893856  7099 layer_factory.hpp:77] Creating layer bbox_pred
I1009 23:28:59.893862  7099 net.cpp:100] Creating Layer bbox_pred
I1009 23:28:59.893865  7099 net.cpp:434] bbox_pred <- fc6_drop6_0_split_1
I1009 23:28:59.893870  7099 net.cpp:408] bbox_pred -> bbox_pred
I1009 23:28:59.895998  7099 net.cpp:150] Setting up bbox_pred
I1009 23:28:59.896006  7099 net.cpp:157] Top shape: 256 20 (5120)
I1009 23:28:59.896008  7099 net.cpp:165] Memory required for data: 5571539264
I1009 23:28:59.896013  7099 layer_factory.hpp:77] Creating layer bbox_pred_bbox_pred_0_split
I1009 23:28:59.896018  7099 net.cpp:100] Creating Layer bbox_pred_bbox_pred_0_split
I1009 23:28:59.896020  7099 net.cpp:434] bbox_pred_bbox_pred_0_split <- bbox_pred
I1009 23:28:59.896024  7099 net.cpp:408] bbox_pred_bbox_pred_0_split -> bbox_pred_bbox_pred_0_split_0
I1009 23:28:59.896028  7099 net.cpp:408] bbox_pred_bbox_pred_0_split -> bbox_pred_bbox_pred_0_split_1
I1009 23:28:59.896054  7099 net.cpp:150] Setting up bbox_pred_bbox_pred_0_split
I1009 23:28:59.896057  7099 net.cpp:157] Top shape: 256 20 (5120)
I1009 23:28:59.896060  7099 net.cpp:157] Top shape: 256 20 (5120)
I1009 23:28:59.896064  7099 net.cpp:165] Memory required for data: 5571580224
I1009 23:28:59.896065  7099 layer_factory.hpp:77] Creating layer loss_cls
I1009 23:28:59.896070  7099 net.cpp:100] Creating Layer loss_cls
I1009 23:28:59.896073  7099 net.cpp:434] loss_cls <- cls_pred_cls_pred_0_split_0
I1009 23:28:59.896078  7099 net.cpp:434] loss_cls <- proposal_labels_proposal_info_1_split_0
…
I1009 23:28:59.909636  7099 image_gt_data_layer.cpp:235] output label size 2 : 2,6,48,48
I1009 23:28:59.909682  7099 image_gt_data_layer.cpp:235] output label size 3 : 2,6,48,48
I1009 23:28:59.909730  7099 image_gt_data_layer.cpp:235] output label size 4 : 2,6,24,24
I1009 23:28:59.909777  7099 image_gt_data_layer.cpp:235] output label size 5 : 2,6,24,24
I1009 23:28:59.909823  7099 image_gt_data_layer.cpp:235] output label size 6 : 2,6,12,12
I1009 23:28:59.909869  7099 image_gt_data_layer.cpp:250] output gt boxes size: 1,7,1,1
I1009 23:28:59.943848  7099 net.cpp:150] Setting up data
I1009 23:28:59.943876  7099 net.cpp:157] Top shape: 2 4 768 768 (4718592)
I1009 23:28:59.943882  7099 net.cpp:157] Top shape: 2 6 96 96 (110592)
I1009 23:28:59.943886  7099 net.cpp:157] Top shape: 2 6 96 96 (110592)
I1009 23:28:59.943891  7099 net.cpp:157] Top shape: 2 6 48 48 (27648)
I1009 23:28:59.943895  7099 net.cpp:157] Top shape: 2 6 48 48 (27648)
I1009 23:28:59.943899  7099 net.cpp:157] Top shape: 2 6 24 24 (6912)
I1009 23:28:59.943903  7099 net.cpp:157] Top shape: 2 6 24 24 (6912)
I1009 23:28:59.943907  7099 net.cpp:157] Top shape: 2 6 12 12 (1728)
I1009 23:28:59.943912  7099 net.cpp:157] Top shape: 1 7 1 1 (7)
I1009 23:28:59.943917  7099 net.cpp:165] Memory required for data: 20042524
I1009 23:28:59.943922  7099 layer_factory.hpp:77] Creating layer label_1_5x5_data_1_split
I1009 23:28:59.943936  7099 net.cpp:100] Creating Layer label_1_5x5_data_1_split
I1009 23:28:59.943941  7099 net.cpp:434] label_1_5x5_data_1_split <- label_1_5x5
I1009 23:28:59.943948  7099 net.cpp:408] label_1_5x5_data_1_split -> label_1_5x5_data_1_split_0
I1009 23:28:59.943958  7099 net.cpp:408] label_1_5x5_data_1_split -> label_1_5x5_data_1_split_1
I1009 23:28:59.944285  7099 net.cpp:150] Setting up label_1_5x5_data_1_split
I1009 23:28:59.944329  7099 net.cpp:157] Top shape: 2 6 96 96 (110592)
I1009 23:28:59.944342  7099 net.cpp:157] Top shape: 2 6 96 96 (110592)
I1009 23:28:59.944350  7099 net.cpp:165] Memory required for data: 20927260
I1009 23:28:59.944361  7099 layer_factory.hpp:77] Creating layer label_1_7x7_data_2_split
I1009 23:28:59.944391  7099 net.cpp:100] Creating Layer label_1_7x7_data_2_split
I1009 23:28:59.944399  7099 net.cpp:434] label_1_7x7_data_2_split <- label_1_7x7
I1009 23:28:59.944413  7099 net.cpp:408] label_1_7x7_data_2_split -> label_1_7x7_data_2_split_0
I1009 23:28:59.944430  7099 net.cpp:408] label_1_7x7_data_2_split -> label_1_7x7_data_2_split_1
I1009 23:28:59.944514  7099 net.cpp:150] Setting up label_1_7x7_data_2_split
I1009 23:28:59.944525  7099 net.cpp:157] Top shape: 2 6 96 96 (110592)
I1009 23:28:59.944535  7099 net.cpp:157] Top shape: 2 6 96 96 (110592)
I1009 23:28:59.944542  7099 net.cpp:165] Memory required for data: 21811996
I1009 23:28:59.944550  7099 layer_factory.hpp:77] Creating layer label_2_5x5_data_3_split
I1009 23:28:59.944564  7099 net.cpp:100] Creating Layer label_2_5x5_data_3_split
I1009 23:28:59.944572  7099 net.cpp:434] label_2_5x5_data_3_split <- label_2_5x5
I1009 23:28:59.944582  7099 net.cpp:408] label_2_5x5_data_3_split -> label_2_5x5_data_3_split_0
I1009 23:28:59.944597  7099 net.cpp:408] label_2_5x5_data_3_split -> label_2_5x5_data_3_split_1
I1009 23:28:59.944670  7099 net.cpp:150] Setting up label_2_5x5_data_3_split
I1009 23:28:59.944681  7099 net.cpp:157] Top shape: 2 6 48 48 (27648)
I1009 23:28:59.944690  7099 net.cpp:157] Top shape: 2 6 48 48 (27648)
I1009 23:28:59.944697  7099 net.cpp:165] Memory required for data: 22033180
I1009 23:28:59.944705  7099 layer_factory.hpp:77] Creating layer label_2_7x7_data_4_split
I1009 23:28:59.944717  7099 net.cpp:100] Creating Layer label_2_7x7_data_4_split
I1009 23:28:59.944725  7099 net.cpp:434] label_2_7x7_data_4_split <- label_2_7x7
I1009 23:28:59.944736  7099 net.cpp:408] label_2_7x7_data_4_split -> label_2_7x7_data_4_split_0
I1009 23:28:59.944746  7099 net.cpp:408] label_2_7x7_data_4_split -> label_2_7x7_data_4_split_1
I1009 23:28:59.944825  7099 net.cpp:150] Setting up label_2_7x7_data_4_split
I1009 23:28:59.944836  7099 net.cpp:157] Top shape: 2 6 48 48 (27648)
I1009 23:28:59.944846  7099 net.cpp:157] Top shape: 2 6 48 48 (27648)
I1009 23:28:59.944854  7099 net.cpp:165] Memory required for data: 22254364
I1009 23:28:59.944860  7099 layer_factory.hpp:77] Creating layer label_3_5x5_data_5_split
I1009 23:28:59.944870  7099 net.cpp:100] Creating Layer label_3_5x5_data_5_split
I1009 23:28:59.944877  7099 net.cpp:434] label_3_5x5_data_5_split <- label_3_5x5
I1009 23:28:59.944888  7099 net.cpp:408] label_3_5x5_data_5_split -> label_3_5x5_data_5_split_0
I1009 23:28:59.944900  7099 net.cpp:408] label_3_5x5_data_5_split -> label_3_5x5_data_5_split_1
I1009 23:28:59.944972  7099 net.cpp:150] Setting up label_3_5x5_data_5_split
I1009 23:28:59.944983  7099 net.cpp:157] Top shape: 2 6 24 24 (6912)
I1009 23:28:59.944993  7099 net.cpp:157] Top shape: 2 6 24 24 (6912)
I1009 23:28:59.944999  7099 net.cpp:165] Memory required for data: 22309660
I1009 23:28:59.945006  7099 layer_factory.hpp:77] Creating layer label_3_7x7_data_6_split
I1009 23:28:59.945014  7099 net.cpp:100] Creating Layer label_3_7x7_data_6_split
I1009 23:28:59.945021  7099 net.cpp:434] label_3_7x7_data_6_split <- label_3_7x7
I1009 23:28:59.945032  7099 net.cpp:408] label_3_7x7_data_6_split -> label_3_7x7_data_6_split_0
I1009 23:28:59.945044  7099 net.cpp:408] label_3_7x7_data_6_split -> label_3_7x7_data_6_split_1
I1009 23:28:59.945112  7099 net.cpp:150] Setting up label_3_7x7_data_6_split
I1009 23:28:59.945123  7099 net.cpp:157] Top shape: 2 6 24 24 (6912)
I1009 23:28:59.945132  7099 net.cpp:157] Top shape: 2 6 24 24 (6912)
I1009 23:28:59.945138  7099 net.cpp:165] Memory required for data: 22364956
I1009 23:28:59.945145  7099 layer_factory.hpp:77] Creating layer label_4_5x5_data_7_split
I1009 23:28:59.945154  7099 net.cpp:100] Creating Layer label_4_5x5_data_7_split
I1009 23:28:59.945161  7099 net.cpp:434] label_4_5x5_data_7_split <- label_4_5x5
I1009 23:28:59.945170  7099 net.cpp:408] label_4_5x5_data_7_split -> label_4_5x5_data_7_split_0
I1009 23:28:59.945183  7099 net.cpp:408] label_4_5x5_data_7_split -> label_4_5x5_data_7_split_1
I1009 23:28:59.945250  7099 net.cpp:150] Setting up label_4_5x5_data_7_split
I1009 23:28:59.945261  7099 net.cpp:157] Top shape: 2 6 12 12 (1728)
I1009 23:28:59.945269  7099 net.cpp:157] Top shape: 2 6 12 12 (1728)
I1009 23:28:59.945276  7099 net.cpp:165] Memory required for data: 22378780
I1009 23:28:59.945282  7099 layer_factory.hpp:77] Creating layer slice
I1009 23:28:59.945300  7099 net.cpp:100] Creating Layer slice
I1009 23:28:59.945308  7099 net.cpp:434] slice <- data
I1009 23:28:59.945317  7099 net.cpp:408] slice -> data123
I1009 23:28:59.945329  7099 net.cpp:408] slice -> ch4
I1009 23:28:59.945401  7099 net.cpp:150] Setting up slice
I1009 23:28:59.945412  7099 net.cpp:157] Top shape: 2 3 768 768 (3538944)
I1009 23:28:59.945420  7099 net.cpp:157] Top shape: 2 1 768 768 (1179648)
I1009 23:28:59.945427  7099 net.cpp:165] Memory required for data: 41253148
I1009 23:28:59.945435  7099 layer_factory.hpp:77] Creating layer ch4_slice_1_split
I1009 23:28:59.945443  7099 net.cpp:100] Creating Layer ch4_slice_1_split
I1009 23:28:59.945451  7099 net.cpp:434] ch4_slice_1_split <- ch4
I1009 23:28:59.945459  7099 net.cpp:408] ch4_slice_1_split -> ch4_slice_1_split_0
I1009 23:28:59.945471  7099 net.cpp:408] ch4_slice_1_split -> ch4_slice_1_split_1
I1009 23:28:59.945541  7099 net.cpp:150] Setting up ch4_slice_1_split
I1009 23:28:59.945551  7099 net.cpp:157] Top shape: 2 1 768 768 (1179648)
I1009 23:28:59.945560  7099 net.cpp:157] Top shape: 2 1 768 768 (1179648)
I1009 23:28:59.945566  7099 net.cpp:165] Memory required for data: 50690332
I1009 23:28:59.945574  7099 layer_factory.hpp:77] Creating layer ch4_0-127
I1009 23:28:59.945586  7099 net.cpp:100] Creating Layer ch4_0-127
I1009 23:28:59.945593  7099 net.cpp:434] ch4_0-127 <- ch4_slice_1_split_0
I1009 23:28:59.945605  7099 net.cpp:408] ch4_0-127 -> ch4_0-127
I1009 23:28:59.945647  7099 net.cpp:150] Setting up ch4_0-127
I1009 23:28:59.945657  7099 net.cpp:157] Top shape: 2 1 768 768 (1179648)
I1009 23:28:59.945663  7099 net.cpp:165] Memory required for data: 55408924
I1009 23:28:59.945669  7099 layer_factory.hpp:77] Creating layer ch4_128-255
I1009 23:28:59.945679  7099 net.cpp:100] Creating Layer ch4_128-255
I1009 23:28:59.945686  7099 net.cpp:434] ch4_128-255 <- ch4_slice_1_split_1
I1009 23:28:59.945696  7099 net.cpp:408] ch4_128-255 -> ch4_128-255
I1009 23:28:59.945739  7099 net.cpp:150] Setting up ch4_128-255
I1009 23:28:59.945749  7099 net.cpp:157] Top shape: 2 1 768 768 (1179648)
I1009 23:28:59.945755  7099 net.cpp:165] Memory required for data: 60127516
I1009 23:28:59.945762  7099 layer_factory.hpp:77] Creating layer ch4_2cls-concat
I1009 23:28:59.945775  7099 net.cpp:100] Creating Layer ch4_2cls-concat
I1009 23:28:59.945781  7099 net.cpp:434] ch4_2cls-concat <- ch4_0-127
I1009 23:28:59.945791  7099 net.cpp:434] ch4_2cls-concat <- ch4_128-255
I1009 23:28:59.945799  7099 net.cpp:408] ch4_2cls-concat -> ch4_2cls
I1009 23:28:59.945845  7099 net.cpp:150] Setting up ch4_2cls-concat
I1009 23:28:59.945855  7099 net.cpp:157] Top shape: 2 2 768 768 (2359296)
I1009 23:28:59.945863  7099 net.cpp:165] Memory required for data: 69564700
I1009 23:28:59.945869  7099 layer_factory.hpp:77] Creating layer relu_ch42cls
I1009 23:28:59.945879  7099 net.cpp:100] Creating Layer relu_ch42cls
I1009 23:28:59.945888  7099 net.cpp:434] relu_ch42cls <- ch4_2cls
I1009 23:28:59.945895  7099 net.cpp:395] relu_ch42cls -> ch4_2cls (in-place)
I1009 23:28:59.946429  7099 net.cpp:150] Setting up relu_ch42cls
I1009 23:28:59.946449  7099 net.cpp:157] Top shape: 2 2 768 768 (2359296)
I1009 23:28:59.946456  7099 net.cpp:165] Memory required for data: 79001884
I1009 23:28:59.946463  7099 layer_factory.hpp:77] Creating layer conv1_1
I1009 23:28:59.946485  7099 net.cpp:100] Creating Layer conv1_1
I1009 23:28:59.946492  7099 net.cpp:434] conv1_1 <- data123
I1009 23:28:59.946503  7099 net.cpp:408] conv1_1 -> conv1_1
I1009 23:28:59.955298  7099 net.cpp:150] Setting up conv1_1
I1009 23:28:59.955334  7099 net.cpp:157] Top shape: 2 64 768 768 (75497472)
I1009 23:28:59.955343  7099 net.cpp:165] Memory required for data: 380991772
I1009 23:28:59.955368  7099 layer_factory.hpp:77] Creating layer relu1_1
I1009 23:28:59.955385  7099 net.cpp:100] Creating Layer relu1_1
I1009 23:28:59.955394  7099 net.cpp:434] relu1_1 <- conv1_1
I1009 23:28:59.955407  7099 net.cpp:395] relu1_1 -> conv1_1 (in-place)
I1009 23:28:59.956413  7099 net.cpp:150] Setting up relu1_1
I1009 23:28:59.956436  7099 net.cpp:157] Top shape: 2 64 768 768 (75497472)
I1009 23:28:59.956444  7099 net.cpp:165] Memory required for data: 682981660
I1009 23:28:59.956452  7099 layer_factory.hpp:77] Creating layer conv1_2
I1009 23:28:59.956475  7099 net.cpp:100] Creating Layer conv1_2
I1009 23:28:59.956482  7099 net.cpp:434] conv1_2 <- conv1_1
I1009 23:28:59.956496  7099 net.cpp:408] conv1_2 -> conv1_2
I1009 23:28:59.960937  7099 net.cpp:150] Setting up conv1_2
I1009 23:28:59.960973  7099 net.cpp:157] Top shape: 2 64 768 768 (75497472)
I1009 23:28:59.960984  7099 net.cpp:165] Memory required for data: 984971548
I1009 23:28:59.961014  7099 layer_factory.hpp:77] Creating layer relu1_2
I1009 23:28:59.961079  7099 net.cpp:100] Creating Layer relu1_2
I1009 23:28:59.961097  7099 net.cpp:434] relu1_2 <- conv1_2
I1009 23:28:59.961112  7099 net.cpp:395] relu1_2 -> conv1_2 (in-place)
I1009 23:28:59.961518  7099 net.cpp:150] Setting up relu1_2
I1009 23:28:59.961542  7099 net.cpp:157] Top shape: 2 64 768 768 (75497472)
I1009 23:28:59.961552  7099 net.cpp:165] Memory required for data: 1286961436
I1009 23:28:59.961562  7099 layer_factory.hpp:77] Creating layer pool1
I1009 23:28:59.961580  7099 net.cpp:100] Creating Layer pool1
I1009 23:28:59.961591  7099 net.cpp:434] pool1 <- conv1_2
I1009 23:28:59.961617  7099 net.cpp:408] pool1 -> pool1
I1009 23:28:59.961740  7099 net.cpp:150] Setting up pool1
I1009 23:28:59.961761  7099 net.cpp:157] Top shape: 2 64 384 384 (18874368)
I1009 23:28:59.961771  7099 net.cpp:165] Memory required for data: 1362458908
I1009 23:28:59.961782  7099 layer_factory.hpp:77] Creating layer conv2_1
I1009 23:28:59.961807  7099 net.cpp:100] Creating Layer conv2_1
I1009 23:28:59.961820  7099 net.cpp:434] conv2_1 <- pool1
I1009 23:28:59.961839  7099 net.cpp:408] conv2_1 -> conv2_1
I1009 23:28:59.964228  7099 net.cpp:150] Setting up conv2_1
I1009 23:28:59.964263  7099 net.cpp:157] Top shape: 2 128 384 384 (37748736)
I1009 23:28:59.964269  7099 net.cpp:165] Memory required for data: 1513453852
I1009 23:28:59.964288  7099 layer_factory.hpp:77] Creating layer relu2_1
I1009 23:28:59.964305  7099 net.cpp:100] Creating Layer relu2_1
I1009 23:28:59.964314  7099 net.cpp:434] relu2_1 <- conv2_1
I1009 23:28:59.964324  7099 net.cpp:395] relu2_1 -> conv2_1 (in-place)
I1009 23:28:59.964507  7099 net.cpp:150] Setting up relu2_1
I1009 23:28:59.964519  7099 net.cpp:157] Top shape: 2 128 384 384 (37748736)
I1009 23:28:59.964524  7099 net.cpp:165] Memory required for data: 1664448796
I1009 23:28:59.964529  7099 layer_factory.hpp:77] Creating layer conv2_2
I1009 23:28:59.964541  7099 net.cpp:100] Creating Layer conv2_2
I1009 23:28:59.964548  7099 net.cpp:434] conv2_2 <- conv2_1
I1009 23:28:59.964556  7099 net.cpp:408] conv2_2 -> conv2_2
I1009 23:28:59.966969  7099 net.cpp:150] Setting up conv2_2
I1009 23:28:59.966984  7099 net.cpp:157] Top shape: 2 128 384 384 (37748736)
I1009 23:28:59.966989  7099 net.cpp:165] Memory required for data: 1815443740
I1009 23:28:59.967000  7099 layer_factory.hpp:77] Creating layer relu2_2
I1009 23:28:59.967010  7099 net.cpp:100] Creating Layer relu2_2
I1009 23:28:59.967016  7099 net.cpp:434] relu2_2 <- conv2_2
I1009 23:28:59.967023  7099 net.cpp:395] relu2_2 -> conv2_2 (in-place)
I1009 23:28:59.967526  7099 net.cpp:150] Setting up relu2_2
I1009 23:28:59.967540  7099 net.cpp:157] Top shape: 2 128 384 384 (37748736)
I1009 23:28:59.967545  7099 net.cpp:165] Memory required for data: 1966438684
I1009 23:28:59.967550  7099 layer_factory.hpp:77] Creating layer pool2
I1009 23:28:59.967561  7099 net.cpp:100] Creating Layer pool2
I1009 23:28:59.967567  7099 net.cpp:434] pool2 <- conv2_2
I1009 23:28:59.967576  7099 net.cpp:408] pool2 -> pool2
I1009 23:28:59.967624  7099 net.cpp:150] Setting up pool2
I1009 23:28:59.967633  7099 net.cpp:157] Top shape: 2 128 192 192 (9437184)
I1009 23:28:59.967638  7099 net.cpp:165] Memory required for data: 2004187420
I1009 23:28:59.967643  7099 layer_factory.hpp:77] Creating layer conv3_1
I1009 23:28:59.967653  7099 net.cpp:100] Creating Layer conv3_1
I1009 23:28:59.967658  7099 net.cpp:434] conv3_1 <- pool2
I1009 23:28:59.967666  7099 net.cpp:408] conv3_1 -> conv3_1
I1009 23:28:59.968895  7099 net.cpp:150] Setting up conv3_1
I1009 23:28:59.968909  7099 net.cpp:157] Top shape: 2 256 192 192 (18874368)
I1009 23:28:59.968914  7099 net.cpp:165] Memory required for data: 2079684892
I1009 23:28:59.968930  7099 layer_factory.hpp:77] Creating layer relu3_1
I1009 23:28:59.968937  7099 net.cpp:100] Creating Layer relu3_1
I1009 23:28:59.968943  7099 net.cpp:434] relu3_1 <- conv3_1
I1009 23:28:59.968950  7099 net.cpp:395] relu3_1 -> conv3_1 (in-place)
I1009 23:28:59.969436  7099 net.cpp:150] Setting up relu3_1
I1009 23:28:59.969450  7099 net.cpp:157] Top shape: 2 256 192 192 (18874368)
I1009 23:28:59.969455  7099 net.cpp:165] Memory required for data: 2155182364
I1009 23:28:59.969460  7099 layer_factory.hpp:77] Creating layer conv3_2
I1009 23:28:59.969471  7099 net.cpp:100] Creating Layer conv3_2
I1009 23:28:59.969478  7099 net.cpp:434] conv3_2 <- conv3_1
I1009 23:28:59.969487  7099 net.cpp:408] conv3_2 -> conv3_2
I1009 23:28:59.972012  7099 net.cpp:150] Setting up conv3_2
I1009 23:28:59.972026  7099 net.cpp:157] Top shape: 2 256 192 192 (18874368)
I1009 23:28:59.972031  7099 net.cpp:165] Memory required for data: 2230679836
I1009 23:28:59.972039  7099 layer_factory.hpp:77] Creating layer relu3_2
I1009 23:28:59.972048  7099 net.cpp:100] Creating Layer relu3_2
I1009 23:28:59.972054  7099 net.cpp:434] relu3_2 <- conv3_2
I1009 23:28:59.972060  7099 net.cpp:395] relu3_2 -> conv3_2 (in-place)
I1009 23:28:59.972234  7099 net.cpp:150] Setting up relu3_2
I1009 23:28:59.972244  7099 net.cpp:157] Top shape: 2 256 192 192 (18874368)
I1009 23:28:59.972249  7099 net.cpp:165] Memory required for data: 2306177308
I1009 23:28:59.972254  7099 layer_factory.hpp:77] Creating layer conv3_3
I1009 23:28:59.972266  7099 net.cpp:100] Creating Layer conv3_3
I1009 23:28:59.972272  7099 net.cpp:434] conv3_3 <- conv3_2
I1009 23:28:59.972280  7099 net.cpp:408] conv3_3 -> conv3_3
I1009 23:28:59.974938  7099 net.cpp:150] Setting up conv3_3
I1009 23:28:59.974957  7099 net.cpp:157] Top shape: 2 256 192 192 (18874368)
I1009 23:28:59.974962  7099 net.cpp:165] Memory required for data: 2381674780
I1009 23:28:59.974972  7099 layer_factory.hpp:77] Creating layer relu3_3
I1009 23:28:59.974982  7099 net.cpp:100] Creating Layer relu3_3
I1009 23:28:59.974989  7099 net.cpp:434] relu3_3 <- conv3_3
I1009 23:28:59.974999  7099 net.cpp:395] relu3_3 -> conv3_3 (in-place)
I1009 23:28:59.975174  7099 net.cpp:150] Setting up relu3_3
I1009 23:28:59.975185  7099 net.cpp:157] Top shape: 2 256 192 192 (18874368)
I1009 23:28:59.975190  7099 net.cpp:165] Memory required for data: 2457172252
I1009 23:28:59.975194  7099 layer_factory.hpp:77] Creating layer pool3
I1009 23:28:59.975203  7099 net.cpp:100] Creating Layer pool3
I1009 23:28:59.975209  7099 net.cpp:434] pool3 <- conv3_3
I1009 23:28:59.975219  7099 net.cpp:408] pool3 -> pool3
I1009 23:28:59.975266  7099 net.cpp:150] Setting up pool3
I1009 23:28:59.975275  7099 net.cpp:157] Top shape: 2 256 96 96 (4718592)
I1009 23:28:59.975278  7099 net.cpp:165] Memory required for data: 2476046620
I1009 23:28:59.975283  7099 layer_factory.hpp:77] Creating layer conv4_1
I1009 23:28:59.975296  7099 net.cpp:100] Creating Layer conv4_1
I1009 23:28:59.975302  7099 net.cpp:434] conv4_1 <- pool3
I1009 23:28:59.975308  7099 net.cpp:408] conv4_1 -> conv4_1
I1009 23:28:59.978971  7099 net.cpp:150] Setting up conv4_1
I1009 23:28:59.978998  7099 net.cpp:157] Top shape: 2 512 96 96 (9437184)
I1009 23:28:59.979003  7099 net.cpp:165] Memory required for data: 2513795356
I1009 23:28:59.979017  7099 layer_factory.hpp:77] Creating layer relu4_1
I1009 23:28:59.979038  7099 net.cpp:100] Creating Layer relu4_1
I1009 23:28:59.979045  7099 net.cpp:434] relu4_1 <- conv4_1
I1009 23:28:59.979054  7099 net.cpp:395] relu4_1 -> conv4_1 (in-place)
I1009 23:28:59.979238  7099 net.cpp:150] Setting up relu4_1
I1009 23:28:59.979250  7099 net.cpp:157] Top shape: 2 512 96 96 (9437184)
I1009 23:28:59.979254  7099 net.cpp:165] Memory required for data: 2551544092
I1009 23:28:59.979259  7099 layer_factory.hpp:77] Creating layer conv4_2
I1009 23:28:59.979271  7099 net.cpp:100] Creating Layer conv4_2
I1009 23:28:59.979279  7099 net.cpp:434] conv4_2 <- conv4_1
I1009 23:28:59.979287  7099 net.cpp:408] conv4_2 -> conv4_2
I1009 23:28:59.985893  7099 net.cpp:150] Setting up conv4_2
I1009 23:28:59.985930  7099 net.cpp:157] Top shape: 2 512 96 96 (9437184)
I1009 23:28:59.985936  7099 net.cpp:165] Memory required for data: 2589292828
I1009 23:28:59.985960  7099 layer_factory.hpp:77] Creating layer relu4_2
I1009 23:28:59.985976  7099 net.cpp:100] Creating Layer relu4_2
I1009 23:28:59.985987  7099 net.cpp:434] relu4_2 <- conv4_2
I1009 23:28:59.985999  7099 net.cpp:395] relu4_2 -> conv4_2 (in-place)
I1009 23:28:59.986230  7099 net.cpp:150] Setting up relu4_2
I1009 23:28:59.986244  7099 net.cpp:157] Top shape: 2 512 96 96 (9437184)
I1009 23:28:59.986250  7099 net.cpp:165] Memory required for data: 2627041564
I1009 23:28:59.986256  7099 layer_factory.hpp:77] Creating layer conv4_3
I1009 23:28:59.986272  7099 net.cpp:100] Creating Layer conv4_3
I1009 23:28:59.986280  7099 net.cpp:434] conv4_3 <- conv4_2
I1009 23:28:59.986289  7099 net.cpp:408] conv4_3 -> conv4_3
I1009 23:28:59.992684  7099 net.cpp:150] Setting up conv4_3
I1009 23:28:59.992714  7099 net.cpp:157] Top shape: 2 512 96 96 (9437184)
I1009 23:28:59.992720  7099 net.cpp:165] Memory required for data: 2664790300
I1009 23:28:59.992733  7099 layer_factory.hpp:77] Creating layer relu4_3
I1009 23:28:59.992748  7099 net.cpp:100] Creating Layer relu4_3
I1009 23:28:59.992755  7099 net.cpp:434] relu4_3 <- conv4_3
I1009 23:28:59.992768  7099 net.cpp:395] relu4_3 -> conv4_3 (in-place)
I1009 23:28:59.994546  7099 net.cpp:150] Setting up relu4_3
I1009 23:28:59.994560  7099 net.cpp:157] Top shape: 2 512 96 96 (9437184)
I1009 23:28:59.994565  7099 net.cpp:165] Memory required for data: 2702539036
I1009 23:28:59.994570  7099 layer_factory.hpp:77] Creating layer conv4_3_relu4_3_0_split
I1009 23:28:59.994581  7099 net.cpp:100] Creating Layer conv4_3_relu4_3_0_split
I1009 23:28:59.994588  7099 net.cpp:434] conv4_3_relu4_3_0_split <- conv4_3
I1009 23:28:59.994598  7099 net.cpp:408] conv4_3_relu4_3_0_split -> conv4_3_relu4_3_0_split_0
I1009 23:28:59.994608  7099 net.cpp:408] conv4_3_relu4_3_0_split -> conv4_3_relu4_3_0_split_1
I1009 23:28:59.994617  7099 net.cpp:408] conv4_3_relu4_3_0_split -> conv4_3_relu4_3_0_split_2
I1009 23:28:59.994624  7099 net.cpp:408] conv4_3_relu4_3_0_split -> conv4_3_relu4_3_0_split_3
I1009 23:28:59.994695  7099 net.cpp:150] Setting up conv4_3_relu4_3_0_split
I1009 23:28:59.994705  7099 net.cpp:157] Top shape: 2 512 96 96 (9437184)
I1009 23:28:59.994711  7099 net.cpp:157] Top shape: 2 512 96 96 (9437184)
I1009 23:28:59.994716  7099 net.cpp:157] Top shape: 2 512 96 96 (9437184)
I1009 23:28:59.994724  7099 net.cpp:157] Top shape: 2 512 96 96 (9437184)
I1009 23:28:59.994729  7099 net.cpp:165] Memory required for data: 2853533980
I1009 23:28:59.994734  7099 layer_factory.hpp:77] Creating layer attention
I1009 23:28:59.994745  7099 net.cpp:100] Creating Layer attention
I1009 23:28:59.994750  7099 net.cpp:434] attention <- conv4_3_relu4_3_0_split_0
I1009 23:28:59.994760  7099 net.cpp:408] attention -> attention
I1009 23:28:59.998811  7099 net.cpp:150] Setting up attention
I1009 23:28:59.998838  7099 net.cpp:157] Top shape: 2 2 96 96 (36864)
I1009 23:28:59.998845  7099 net.cpp:165] Memory required for data: 2853681436
I1009 23:28:59.998859  7099 layer_factory.hpp:77] Creating layer relu_attention
I1009 23:28:59.998877  7099 net.cpp:100] Creating Layer relu_attention
I1009 23:28:59.998885  7099 net.cpp:434] relu_attention <- attention
I1009 23:28:59.998896  7099 net.cpp:395] relu_attention -> attention (in-place)
I1009 23:28:59.999713  7099 net.cpp:150] Setting up relu_attention
I1009 23:28:59.999742  7099 net.cpp:157] Top shape: 2 2 96 96 (36864)
I1009 23:28:59.999749  7099 net.cpp:165] Memory required for data: 2853828892
I1009 23:28:59.999758  7099 layer_factory.hpp:77] Creating layer attention_relu_attention_0_split
I1009 23:28:59.999773  7099 net.cpp:100] Creating Layer attention_relu_attention_0_split
I1009 23:28:59.999781  7099 net.cpp:434] attention_relu_attention_0_split <- attention
I1009 23:28:59.999797  7099 net.cpp:408] attention_relu_attention_0_split -> attention_relu_attention_0_split_0
I1009 23:28:59.999814  7099 net.cpp:408] attention_relu_attention_0_split -> attention_relu_attention_0_split_1
I1009 23:28:59.999931  7099 net.cpp:150] Setting up attention_relu_attention_0_split
I1009 23:28:59.999944  7099 net.cpp:157] Top shape: 2 2 96 96 (36864)
I1009 23:28:59.999953  7099 net.cpp:157] Top shape: 2 2 96 96 (36864)
I1009 23:28:59.999958  7099 net.cpp:165] Memory required for data: 2854123804
I1009 23:28:59.999964  7099 layer_factory.hpp:77] Creating layer ch4_2cls_pool
I1009 23:28:59.999981  7099 net.cpp:100] Creating Layer ch4_2cls_pool
I1009 23:28:59.999989  7099 net.cpp:434] ch4_2cls_pool <- ch4_2cls
I1009 23:29:00.000001  7099 net.cpp:408] ch4_2cls_pool -> ch4_2cls_pool
I1009 23:29:00.000108  7099 net.cpp:150] Setting up ch4_2cls_pool
I1009 23:29:00.000119  7099 net.cpp:157] Top shape: 2 2 96 96 (36864)
I1009 23:29:00.000124  7099 net.cpp:165] Memory required for data: 2854271260
I1009 23:29:00.000130  7099 layer_factory.hpp:77] Creating layer loss_attention
I1009 23:29:00.000144  7099 net.cpp:100] Creating Layer loss_attention
I1009 23:29:00.000152  7099 net.cpp:434] loss_attention <- attention_relu_attention_0_split_0
I1009 23:29:00.000160  7099 net.cpp:434] loss_attention <- ch4_2cls_pool
I1009 23:29:00.000169  7099 net.cpp:408] loss_attention -> loss_attention
I1009 23:29:00.000252  7099 net.cpp:150] Setting up loss_attention
I1009 23:29:00.000262  7099 net.cpp:157] Top shape: (1)
I1009 23:29:00.000268  7099 net.cpp:160]     with loss weight 1
I1009 23:29:00.000285  7099 net.cpp:165] Memory required for data: 2854271264
I1009 23:29:00.000293  7099 layer_factory.hpp:77] Creating layer loss1_conv1
I1009 23:29:00.000309  7099 net.cpp:100] Creating Layer loss1_conv1
I1009 23:29:00.000319  7099 net.cpp:434] loss1_conv1 <- conv4_3_relu4_3_0_split_1
I1009 23:29:00.000330  7099 net.cpp:408] loss1_conv1 -> loss1_conv1
I1009 23:29:00.064648  7099 net.cpp:150] Setting up loss1_conv1
I1009 23:29:00.064678  7099 net.cpp:157] Top shape: 2 512 96 96 (9437184)
I1009 23:29:00.064684  7099 net.cpp:165] Memory required for data: 2892020000
I1009 23:29:00.064697  7099 layer_factory.hpp:77] Creating layer loss_relu1
I1009 23:29:00.064713  7099 net.cpp:100] Creating Layer loss_relu1
I1009 23:29:00.064720  7099 net.cpp:434] loss_relu1 <- loss1_conv1
I1009 23:29:00.064728  7099 net.cpp:395] loss_relu1 -> loss1_conv1 (in-place)
I1009 23:29:00.064960  7099 net.cpp:150] Setting up loss_relu1
I1009 23:29:00.064971  7099 net.cpp:157] Top shape: 2 512 96 96 (9437184)
I1009 23:29:00.064976  7099 net.cpp:165] Memory required for data: 2929768736
I1009 23:29:00.064981  7099 layer_factory.hpp:77] Creating layer loss1_conv1_loss_relu1_0_split
I1009 23:29:00.064990  7099 net.cpp:100] Creating Layer loss1_conv1_loss_relu1_0_split
I1009 23:29:00.064996  7099 net.cpp:434] loss1_conv1_loss_relu1_0_split <- loss1_conv1
I1009 23:29:00.065002  7099 net.cpp:408] loss1_conv1_loss_relu1_0_split -> loss1_conv1_loss_relu1_0_split_0
I1009 23:29:00.065011  7099 net.cpp:408] loss1_conv1_loss_relu1_0_split -> loss1_conv1_loss_relu1_0_split_1
I1009 23:29:00.065065  7099 net.cpp:150] Setting up loss1_conv1_loss_relu1_0_split
I1009 23:29:00.065074  7099 net.cpp:157] Top shape: 2 512 96 96 (9437184)
I1009 23:29:00.065079  7099 net.cpp:157] Top shape: 2 512 96 96 (9437184)
I1009 23:29:00.065084  7099 net.cpp:165] Memory required for data: 3005266208
I1009 23:29:00.065088  7099 layer_factory.hpp:77] Creating layer LFCN_1_5x5
I1009 23:29:00.065102  7099 net.cpp:100] Creating Layer LFCN_1_5x5
I1009 23:29:00.065109  7099 net.cpp:434] LFCN_1_5x5 <- loss1_conv1_loss_relu1_0_split_0
I1009 23:29:00.065117  7099 net.cpp:408] LFCN_1_5x5 -> LFCN_1_5x5
I1009 23:29:00.070551  7099 net.cpp:150] Setting up LFCN_1_5x5
I1009 23:29:00.070571  7099 net.cpp:157] Top shape: 2 9 96 96 (165888)
I1009 23:29:00.070577  7099 net.cpp:165] Memory required for data: 3005929760
I1009 23:29:00.070590  7099 layer_factory.hpp:77] Creating layer LFCN_1_5x5_LFCN_1_5x5_0_split
I1009 23:29:00.070602  7099 net.cpp:100] Creating Layer LFCN_1_5x5_LFCN_1_5x5_0_split
I1009 23:29:00.070611  7099 net.cpp:434] LFCN_1_5x5_LFCN_1_5x5_0_split <- LFCN_1_5x5
I1009 23:29:00.070622  7099 net.cpp:408] LFCN_1_5x5_LFCN_1_5x5_0_split -> LFCN_1_5x5_LFCN_1_5x5_0_split_0
I1009 23:29:00.070638  7099 net.cpp:408] LFCN_1_5x5_LFCN_1_5x5_0_split -> LFCN_1_5x5_LFCN_1_5x5_0_split_1
I1009 23:29:00.070653  7099 net.cpp:408] LFCN_1_5x5_LFCN_1_5x5_0_split -> LFCN_1_5x5_LFCN_1_5x5_0_split_2
I1009 23:29:00.070721  7099 net.cpp:150] Setting up LFCN_1_5x5_LFCN_1_5x5_0_split
I1009 23:29:00.070732  7099 net.cpp:157] Top shape: 2 9 96 96 (165888)
I1009 23:29:00.070739  7099 net.cpp:157] Top shape: 2 9 96 96 (165888)
I1009 23:29:00.070747  7099 net.cpp:157] Top shape: 2 9 96 96 (165888)
I1009 23:29:00.070755  7099 net.cpp:165] Memory required for data: 3007920416
I1009 23:29:00.070760  7099 layer_factory.hpp:77] Creating layer detection_loss_1_5x5
I1009 23:29:00.070775  7099 net.cpp:100] Creating Layer detection_loss_1_5x5
I1009 23:29:00.070780  7099 net.cpp:434] detection_loss_1_5x5 <- LFCN_1_5x5_LFCN_1_5x5_0_split_0
I1009 23:29:00.070788  7099 net.cpp:434] detection_loss_1_5x5 <- label_1_5x5_data_1_split_0
I1009 23:29:00.070801  7099 net.cpp:408] detection_loss_1_5x5 -> loss_1_5x5
I1009 23:29:00.070816  7099 layer_factory.hpp:77] Creating layer detection_loss_1_5x5
I1009 23:29:00.071280  7099 net.cpp:150] Setting up detection_loss_1_5x5
I1009 23:29:00.071295  7099 net.cpp:157] Top shape: 1 1 1 2 (2)
I1009 23:29:00.071301  7099 net.cpp:160]     with loss weight 0.9
I1009 23:29:00.071319  7099 net.cpp:165] Memory required for data: 3007920424
I1009 23:29:00.071326  7099 layer_factory.hpp:77] Creating layer detection_accuracy_1_5x5
I1009 23:29:00.071343  7099 net.cpp:100] Creating Layer detection_accuracy_1_5x5
I1009 23:29:00.071352  7099 net.cpp:434] detection_accuracy_1_5x5 <- LFCN_1_5x5_LFCN_1_5x5_0_split_1
I1009 23:29:00.071362  7099 net.cpp:434] detection_accuracy_1_5x5 <- label_1_5x5_data_1_split_1
I1009 23:29:00.071374  7099 net.cpp:408] detection_accuracy_1_5x5 -> accuracy_1_5x5
I1009 23:29:00.071395  7099 net.cpp:408] detection_accuracy_1_5x5 -> boxiou_1_5x5
I1009 23:29:00.071460  7099 net.cpp:150] Setting up detection_accuracy_1_5x5
I1009 23:29:00.071470  7099 net.cpp:157] Top shape: 1 1 1 2 (2)
I1009 23:29:00.071477  7099 net.cpp:157] Top shape: 1 1 1 1 (1)
I1009 23:29:00.071483  7099 net.cpp:165] Memory required for data: 3007920436
I1009 23:29:00.071490  7099 layer_factory.hpp:77] Creating layer LFCN_1_7x7
I1009 23:29:00.071507  7099 net.cpp:100] Creating Layer LFCN_1_7x7
I1009 23:29:00.071516  7099 net.cpp:434] LFCN_1_7x7 <- loss1_conv1_loss_relu1_0_split_1
I1009 23:29:00.071529  7099 net.cpp:408] LFCN_1_7x7 -> LFCN_1_7x7
I1009 23:29:00.078114  7099 net.cpp:150] Setting up LFCN_1_7x7
I1009 23:29:00.078127  7099 net.cpp:157] Top shape: 2 9 96 96 (165888)
I1009 23:29:00.078133  7099 net.cpp:165] Memory required for data: 3008583988
I1009 23:29:00.078143  7099 layer_factory.hpp:77] Creating layer LFCN_1_7x7_LFCN_1_7x7_0_split
I1009 23:29:00.078155  7099 net.cpp:100] Creating Layer LFCN_1_7x7_LFCN_1_7x7_0_split
I1009 23:29:00.078161  7099 net.cpp:434] LFCN_1_7x7_LFCN_1_7x7_0_split <- LFCN_1_7x7
I1009 23:29:00.078172  7099 net.cpp:408] LFCN_1_7x7_LFCN_1_7x7_0_split -> LFCN_1_7x7_LFCN_1_7x7_0_split_0
I1009 23:29:00.078184  7099 net.cpp:408] LFCN_1_7x7_LFCN_1_7x7_0_split -> LFCN_1_7x7_LFCN_1_7x7_0_split_1
I1009 23:29:00.078202  7099 net.cpp:408] LFCN_1_7x7_LFCN_1_7x7_0_split -> LFCN_1_7x7_LFCN_1_7x7_0_split_2
I1009 23:29:00.078269  7099 net.cpp:150] Setting up LFCN_1_7x7_LFCN_1_7x7_0_split
I1009 23:29:00.078279  7099 net.cpp:157] Top shape: 2 9 96 96 (165888)
I1009 23:29:00.078287  7099 net.cpp:157] Top shape: 2 9 96 96 (165888)
I1009 23:29:00.078294  7099 net.cpp:157] Top shape: 2 9 96 96 (165888)
I1009 23:29:00.078299  7099 net.cpp:165] Memory required for data: 3010574644
I1009 23:29:00.078305  7099 layer_factory.hpp:77] Creating layer detection_loss_1_7x7
I1009 23:29:00.078316  7099 net.cpp:100] Creating Layer detection_loss_1_7x7
I1009 23:29:00.078325  7099 net.cpp:434] detection_loss_1_7x7 <- LFCN_1_7x7_LFCN_1_7x7_0_split_0
I1009 23:29:00.078333  7099 net.cpp:434] detection_loss_1_7x7 <- label_1_7x7_data_2_split_0
I1009 23:29:00.078346  7099 net.cpp:408] detection_loss_1_7x7 -> loss_1_7x7
I1009 23:29:00.078362  7099 layer_factory.hpp:77] Creating layer detection_loss_1_7x7
I1009 23:29:00.078806  7099 net.cpp:150] Setting up detection_loss_1_7x7
I1009 23:29:00.078819  7099 net.cpp:157] Top shape: 1 1 1 2 (2)
I1009 23:29:00.078825  7099 net.cpp:160]     with loss weight 0.9
I1009 23:29:00.078835  7099 net.cpp:165] Memory required for data: 3010574652
I1009 23:29:00.078841  7099 layer_factory.hpp:77] Creating layer detection_accuracy_1_7x7
I1009 23:29:00.078855  7099 net.cpp:100] Creating Layer detection_accuracy_1_7x7
I1009 23:29:00.078861  7099 net.cpp:434] detection_accuracy_1_7x7 <- LFCN_1_7x7_LFCN_1_7x7_0_split_1
I1009 23:29:00.078869  7099 net.cpp:434] detection_accuracy_1_7x7 <- label_1_7x7_data_2_split_1
I1009 23:29:00.078881  7099 net.cpp:408] detection_accuracy_1_7x7 -> accuracy_1_7x7
I1009 23:29:00.078896  7099 net.cpp:408] detection_accuracy_1_7x7 -> boxiou_1_7x7
I1009 23:29:00.078948  7099 net.cpp:150] Setting up detection_accuracy_1_7x7
I1009 23:29:00.078958  7099 net.cpp:157] Top shape: 1 1 1 2 (2)
I1009 23:29:00.078965  7099 net.cpp:157] Top shape: 1 1 1 1 (1)
I1009 23:29:00.078970  7099 net.cpp:165] Memory required for data: 3010574664
I1009 23:29:00.078975  7099 layer_factory.hpp:77] Creating layer pool4
I1009 23:29:00.078990  7099 net.cpp:100] Creating Layer pool4
I1009 23:29:00.078999  7099 net.cpp:434] pool4 <- conv4_3_relu4_3_0_split_2
I1009 23:29:00.079010  7099 net.cpp:408] pool4 -> pool4
I1009 23:29:00.079061  7099 net.cpp:150] Setting up pool4
I1009 23:29:00.079071  7099 net.cpp:157] Top shape: 2 512 48 48 (2359296)
I1009 23:29:00.079077  7099 net.cpp:165] Memory required for data: 3020011848
I1009 23:29:00.079082  7099 layer_factory.hpp:77] Creating layer conv5_1
I1009 23:29:00.079097  7099 net.cpp:100] Creating Layer conv5_1
I1009 23:29:00.079104  7099 net.cpp:434] conv5_1 <- pool4
I1009 23:29:00.079111  7099 net.cpp:408] conv5_1 -> conv5_1
I1009 23:29:00.085603  7099 net.cpp:150] Setting up conv5_1
I1009 23:29:00.085634  7099 net.cpp:157] Top shape: 2 512 48 48 (2359296)
I1009 23:29:00.085639  7099 net.cpp:165] Memory required for data: 3029449032
I1009 23:29:00.085651  7099 layer_factory.hpp:77] Creating layer relu5_1
I1009 23:29:00.085667  7099 net.cpp:100] Creating Layer relu5_1
I1009 23:29:00.085677  7099 net.cpp:434] relu5_1 <- conv5_1
I1009 23:29:00.085685  7099 net.cpp:395] relu5_1 -> conv5_1 (in-place)
I1009 23:29:00.085861  7099 net.cpp:150] Setting up relu5_1
I1009 23:29:00.085875  7099 net.cpp:157] Top shape: 2 512 48 48 (2359296)
I1009 23:29:00.085880  7099 net.cpp:165] Memory required for data: 3038886216
I1009 23:29:00.085883  7099 layer_factory.hpp:77] Creating layer conv5_2
I1009 23:29:00.085894  7099 net.cpp:100] Creating Layer conv5_2
I1009 23:29:00.085901  7099 net.cpp:434] conv5_2 <- conv5_1
I1009 23:29:00.085911  7099 net.cpp:408] conv5_2 -> conv5_2
I1009 23:29:00.092407  7099 net.cpp:150] Setting up conv5_2
I1009 23:29:00.092443  7099 net.cpp:157] Top shape: 2 512 48 48 (2359296)
I1009 23:29:00.092450  7099 net.cpp:165] Memory required for data: 3048323400
I1009 23:29:00.092463  7099 layer_factory.hpp:77] Creating layer relu5_2
I1009 23:29:00.092478  7099 net.cpp:100] Creating Layer relu5_2
I1009 23:29:00.092487  7099 net.cpp:434] relu5_2 <- conv5_2
I1009 23:29:00.092497  7099 net.cpp:395] relu5_2 -> conv5_2 (in-place)
I1009 23:29:00.093011  7099 net.cpp:150] Setting up relu5_2
I1009 23:29:00.093025  7099 net.cpp:157] Top shape: 2 512 48 48 (2359296)
I1009 23:29:00.093030  7099 net.cpp:165] Memory required for data: 3057760584
I1009 23:29:00.093035  7099 layer_factory.hpp:77] Creating layer conv5_3
I1009 23:29:00.093050  7099 net.cpp:100] Creating Layer conv5_3
I1009 23:29:00.093056  7099 net.cpp:434] conv5_3 <- conv5_2
I1009 23:29:00.093063  7099 net.cpp:408] conv5_3 -> conv5_3
I1009 23:29:00.099303  7099 net.cpp:150] Setting up conv5_3
I1009 23:29:00.099335  7099 net.cpp:157] Top shape: 2 512 48 48 (2359296)
I1009 23:29:00.099340  7099 net.cpp:165] Memory required for data: 3067197768
I1009 23:29:00.099364  7099 layer_factory.hpp:77] Creating layer relu5_3
I1009 23:29:00.099377  7099 net.cpp:100] Creating Layer relu5_3
I1009 23:29:00.099388  7099 net.cpp:434] relu5_3 <- conv5_3
I1009 23:29:00.099400  7099 net.cpp:395] relu5_3 -> conv5_3 (in-place)
I1009 23:29:00.101250  7099 net.cpp:150] Setting up relu5_3
I1009 23:29:00.101264  7099 net.cpp:157] Top shape: 2 512 48 48 (2359296)
I1009 23:29:00.101270  7099 net.cpp:165] Memory required for data: 3076634952
I1009 23:29:00.101275  7099 layer_factory.hpp:77] Creating layer conv5_3_relu5_3_0_split
I1009 23:29:00.101286  7099 net.cpp:100] Creating Layer conv5_3_relu5_3_0_split
I1009 23:29:00.101292  7099 net.cpp:434] conv5_3_relu5_3_0_split <- conv5_3
I1009 23:29:00.101300  7099 net.cpp:408] conv5_3_relu5_3_0_split -> conv5_3_relu5_3_0_split_0
I1009 23:29:00.101313  7099 net.cpp:408] conv5_3_relu5_3_0_split -> conv5_3_relu5_3_0_split_1
I1009 23:29:00.101323  7099 net.cpp:408] conv5_3_relu5_3_0_split -> conv5_3_relu5_3_0_split_2
I1009 23:29:00.101395  7099 net.cpp:150] Setting up conv5_3_relu5_3_0_split
I1009 23:29:00.101405  7099 net.cpp:157] Top shape: 2 512 48 48 (2359296)
I1009 23:29:00.101411  7099 net.cpp:157] Top shape: 2 512 48 48 (2359296)
I1009 23:29:00.101418  7099 net.cpp:157] Top shape: 2 512 48 48 (2359296)
I1009 23:29:00.101423  7099 net.cpp:165] Memory required for data: 3104946504
I1009 23:29:00.101428  7099 layer_factory.hpp:77] Creating layer LFCN_2_5x5
I1009 23:29:00.101444  7099 net.cpp:100] Creating Layer LFCN_2_5x5
I1009 23:29:00.101450  7099 net.cpp:434] LFCN_2_5x5 <- conv5_3_relu5_3_0_split_0
I1009 23:29:00.101461  7099 net.cpp:408] LFCN_2_5x5 -> LFCN_2_5x5
I1009 23:29:00.106364  7099 net.cpp:150] Setting up LFCN_2_5x5
I1009 23:29:00.106379  7099 net.cpp:157] Top shape: 2 9 48 48 (41472)
I1009 23:29:00.106384  7099 net.cpp:165] Memory required for data: 3105112392
I1009 23:29:00.106393  7099 layer_factory.hpp:77] Creating layer LFCN_2_5x5_LFCN_2_5x5_0_split
I1009 23:29:00.106401  7099 net.cpp:100] Creating Layer LFCN_2_5x5_LFCN_2_5x5_0_split
I1009 23:29:00.106408  7099 net.cpp:434] LFCN_2_5x5_LFCN_2_5x5_0_split <- LFCN_2_5x5
I1009 23:29:00.106418  7099 net.cpp:408] LFCN_2_5x5_LFCN_2_5x5_0_split -> LFCN_2_5x5_LFCN_2_5x5_0_split_0
I1009 23:29:00.106429  7099 net.cpp:408] LFCN_2_5x5_LFCN_2_5x5_0_split -> LFCN_2_5x5_LFCN_2_5x5_0_split_1
I1009 23:29:00.106439  7099 net.cpp:408] LFCN_2_5x5_LFCN_2_5x5_0_split -> LFCN_2_5x5_LFCN_2_5x5_0_split_2
I1009 23:29:00.106501  7099 net.cpp:150] Setting up LFCN_2_5x5_LFCN_2_5x5_0_split
I1009 23:29:00.106510  7099 net.cpp:157] Top shape: 2 9 48 48 (41472)
I1009 23:29:00.106516  7099 net.cpp:157] Top shape: 2 9 48 48 (41472)
I1009 23:29:00.106523  7099 net.cpp:157] Top shape: 2 9 48 48 (41472)
I1009 23:29:00.106528  7099 net.cpp:165] Memory required for data: 3105610056
I1009 23:29:00.106532  7099 layer_factory.hpp:77] Creating layer detection_loss_2_5x5
I1009 23:29:00.106549  7099 net.cpp:100] Creating Layer detection_loss_2_5x5
I1009 23:29:00.106556  7099 net.cpp:434] detection_loss_2_5x5 <- LFCN_2_5x5_LFCN_2_5x5_0_split_0
I1009 23:29:00.106562  7099 net.cpp:434] detection_loss_2_5x5 <- label_2_5x5_data_3_split_0
I1009 23:29:00.106575  7099 net.cpp:408] detection_loss_2_5x5 -> loss_2_5x5
I1009 23:29:00.106587  7099 layer_factory.hpp:77] Creating layer detection_loss_2_5x5
I1009 23:29:00.106945  7099 net.cpp:150] Setting up detection_loss_2_5x5
I1009 23:29:00.106956  7099 net.cpp:157] Top shape: 1 1 1 2 (2)
I1009 23:29:00.106961  7099 net.cpp:160]     with loss weight 1
I1009 23:29:00.106974  7099 net.cpp:165] Memory required for data: 3105610064
I1009 23:29:00.106979  7099 layer_factory.hpp:77] Creating layer detection_accuracy_2_5x5
I1009 23:29:00.106990  7099 net.cpp:100] Creating Layer detection_accuracy_2_5x5
I1009 23:29:00.106997  7099 net.cpp:434] detection_accuracy_2_5x5 <- LFCN_2_5x5_LFCN_2_5x5_0_split_1
I1009 23:29:00.107003  7099 net.cpp:434] detection_accuracy_2_5x5 <- label_2_5x5_data_3_split_1
I1009 23:29:00.107012  7099 net.cpp:408] detection_accuracy_2_5x5 -> accuracy_2_5x5
I1009 23:29:00.107023  7099 net.cpp:408] detection_accuracy_2_5x5 -> boxiou_2_5x5
I1009 23:29:00.107071  7099 net.cpp:150] Setting up detection_accuracy_2_5x5
I1009 23:29:00.107080  7099 net.cpp:157] Top shape: 1 1 1 2 (2)
I1009 23:29:00.107086  7099 net.cpp:157] Top shape: 1 1 1 1 (1)
I1009 23:29:00.107090  7099 net.cpp:165] Memory required for data: 3105610076
I1009 23:29:00.107095  7099 layer_factory.hpp:77] Creating layer LFCN_2_7x7
I1009 23:29:00.107112  7099 net.cpp:100] Creating Layer LFCN_2_7x7
I1009 23:29:00.107118  7099 net.cpp:434] LFCN_2_7x7 <- conv5_3_relu5_3_0_split_1
I1009 23:29:00.107128  7099 net.cpp:408] LFCN_2_7x7 -> LFCN_2_7x7
I1009 23:29:00.113915  7099 net.cpp:150] Setting up LFCN_2_7x7
I1009 23:29:00.113940  7099 net.cpp:157] Top shape: 2 9 48 48 (41472)
I1009 23:29:00.113945  7099 net.cpp:165] Memory required for data: 3105775964
I1009 23:29:00.113955  7099 layer_factory.hpp:77] Creating layer LFCN_2_7x7_LFCN_2_7x7_0_split
I1009 23:29:00.113975  7099 net.cpp:100] Creating Layer LFCN_2_7x7_LFCN_2_7x7_0_split
I1009 23:29:00.113984  7099 net.cpp:434] LFCN_2_7x7_LFCN_2_7x7_0_split <- LFCN_2_7x7
I1009 23:29:00.113993  7099 net.cpp:408] LFCN_2_7x7_LFCN_2_7x7_0_split -> LFCN_2_7x7_LFCN_2_7x7_0_split_0
I1009 23:29:00.114003  7099 net.cpp:408] LFCN_2_7x7_LFCN_2_7x7_0_split -> LFCN_2_7x7_LFCN_2_7x7_0_split_1
I1009 23:29:00.114011  7099 net.cpp:408] LFCN_2_7x7_LFCN_2_7x7_0_split -> LFCN_2_7x7_LFCN_2_7x7_0_split_2
I1009 23:29:00.114073  7099 net.cpp:150] Setting up LFCN_2_7x7_LFCN_2_7x7_0_split
I1009 23:29:00.114082  7099 net.cpp:157] Top shape: 2 9 48 48 (41472)
I1009 23:29:00.114089  7099 net.cpp:157] Top shape: 2 9 48 48 (41472)
I1009 23:29:00.114106  7099 net.cpp:157] Top shape: 2 9 48 48 (41472)
I1009 23:29:00.114110  7099 net.cpp:165] Memory required for data: 3106273628
I1009 23:29:00.114115  7099 layer_factory.hpp:77] Creating layer detection_loss_2_7x7
I1009 23:29:00.114125  7099 net.cpp:100] Creating Layer detection_loss_2_7x7
I1009 23:29:00.114130  7099 net.cpp:434] detection_loss_2_7x7 <- LFCN_2_7x7_LFCN_2_7x7_0_split_0
I1009 23:29:00.114136  7099 net.cpp:434] detection_loss_2_7x7 <- label_2_7x7_data_4_split_0
I1009 23:29:00.114145  7099 net.cpp:408] detection_loss_2_7x7 -> loss_2_7x7
I1009 23:29:00.114157  7099 layer_factory.hpp:77] Creating layer detection_loss_2_7x7
I1009 23:29:00.114521  7099 net.cpp:150] Setting up detection_loss_2_7x7
I1009 23:29:00.114531  7099 net.cpp:157] Top shape: 1 1 1 2 (2)
I1009 23:29:00.114537  7099 net.cpp:160]     with loss weight 1
I1009 23:29:00.114552  7099 net.cpp:165] Memory required for data: 3106273636
I1009 23:29:00.114558  7099 layer_factory.hpp:77] Creating layer detection_accuracy_2_7x7
I1009 23:29:00.114569  7099 net.cpp:100] Creating Layer detection_accuracy_2_7x7
I1009 23:29:00.114574  7099 net.cpp:434] detection_accuracy_2_7x7 <- LFCN_2_7x7_LFCN_2_7x7_0_split_1
I1009 23:29:00.114580  7099 net.cpp:434] detection_accuracy_2_7x7 <- label_2_7x7_data_4_split_1
I1009 23:29:00.114593  7099 net.cpp:408] detection_accuracy_2_7x7 -> accuracy_2_7x7
I1009 23:29:00.114603  7099 net.cpp:408] detection_accuracy_2_7x7 -> boxiou_2_7x7
I1009 23:29:00.114653  7099 net.cpp:150] Setting up detection_accuracy_2_7x7
I1009 23:29:00.114662  7099 net.cpp:157] Top shape: 1 1 1 2 (2)
I1009 23:29:00.114668  7099 net.cpp:157] Top shape: 1 1 1 1 (1)
I1009 23:29:00.114672  7099 net.cpp:165] Memory required for data: 3106273648
I1009 23:29:00.114677  7099 layer_factory.hpp:77] Creating layer pool5
I1009 23:29:00.114686  7099 net.cpp:100] Creating Layer pool5
I1009 23:29:00.114692  7099 net.cpp:434] pool5 <- conv5_3_relu5_3_0_split_2
I1009 23:29:00.114701  7099 net.cpp:408] pool5 -> pool5
I1009 23:29:00.114747  7099 net.cpp:150] Setting up pool5
I1009 23:29:00.114755  7099 net.cpp:157] Top shape: 2 512 24 24 (589824)
I1009 23:29:00.114759  7099 net.cpp:165] Memory required for data: 3108632944
I1009 23:29:00.114763  7099 layer_factory.hpp:77] Creating layer conv6_1
I1009 23:29:00.114778  7099 net.cpp:100] Creating Layer conv6_1
I1009 23:29:00.114784  7099 net.cpp:434] conv6_1 <- pool5
I1009 23:29:00.114794  7099 net.cpp:408] conv6_1 -> conv6_1
I1009 23:29:00.172708  7099 net.cpp:150] Setting up conv6_1
I1009 23:29:00.172736  7099 net.cpp:157] Top shape: 2 512 24 24 (589824)
I1009 23:29:00.172741  7099 net.cpp:165] Memory required for data: 3110992240
I1009 23:29:00.172752  7099 layer_factory.hpp:77] Creating layer relu6_1
I1009 23:29:00.172768  7099 net.cpp:100] Creating Layer relu6_1
I1009 23:29:00.172777  7099 net.cpp:434] relu6_1 <- conv6_1
I1009 23:29:00.172785  7099 net.cpp:395] relu6_1 -> conv6_1 (in-place)
I1009 23:29:00.172943  7099 net.cpp:150] Setting up relu6_1
I1009 23:29:00.172955  7099 net.cpp:157] Top shape: 2 512 24 24 (589824)
I1009 23:29:00.172960  7099 net.cpp:165] Memory required for data: 3113351536
I1009 23:29:00.172966  7099 layer_factory.hpp:77] Creating layer conv6_1_relu6_1_0_split
I1009 23:29:00.172974  7099 net.cpp:100] Creating Layer conv6_1_relu6_1_0_split
I1009 23:29:00.172979  7099 net.cpp:434] conv6_1_relu6_1_0_split <- conv6_1
I1009 23:29:00.172986  7099 net.cpp:408] conv6_1_relu6_1_0_split -> conv6_1_relu6_1_0_split_0
I1009 23:29:00.172996  7099 net.cpp:408] conv6_1_relu6_1_0_split -> conv6_1_relu6_1_0_split_1
I1009 23:29:00.173002  7099 net.cpp:408] conv6_1_relu6_1_0_split -> conv6_1_relu6_1_0_split_2
I1009 23:29:00.173064  7099 net.cpp:150] Setting up conv6_1_relu6_1_0_split
I1009 23:29:00.173074  7099 net.cpp:157] Top shape: 2 512 24 24 (589824)
I1009 23:29:00.173080  7099 net.cpp:157] Top shape: 2 512 24 24 (589824)
I1009 23:29:00.173086  7099 net.cpp:157] Top shape: 2 512 24 24 (589824)
I1009 23:29:00.173090  7099 net.cpp:165] Memory required for data: 3120429424
I1009 23:29:00.173095  7099 layer_factory.hpp:77] Creating layer LFCN_3_5x5
I1009 23:29:00.173110  7099 net.cpp:100] Creating Layer LFCN_3_5x5
I1009 23:29:00.173117  7099 net.cpp:434] LFCN_3_5x5 <- conv6_1_relu6_1_0_split_0
I1009 23:29:00.173127  7099 net.cpp:408] LFCN_3_5x5 -> LFCN_3_5x5
I1009 23:29:00.176899  7099 net.cpp:150] Setting up LFCN_3_5x5
I1009 23:29:00.176913  7099 net.cpp:157] Top shape: 2 9 24 24 (10368)
I1009 23:29:00.176918  7099 net.cpp:165] Memory required for data: 3120470896
I1009 23:29:00.176924  7099 layer_factory.hpp:77] Creating layer LFCN_3_5x5_LFCN_3_5x5_0_split
I1009 23:29:00.176934  7099 net.cpp:100] Creating Layer LFCN_3_5x5_LFCN_3_5x5_0_split
I1009 23:29:00.176939  7099 net.cpp:434] LFCN_3_5x5_LFCN_3_5x5_0_split <- LFCN_3_5x5
I1009 23:29:00.176945  7099 net.cpp:408] LFCN_3_5x5_LFCN_3_5x5_0_split -> LFCN_3_5x5_LFCN_3_5x5_0_split_0
I1009 23:29:00.176954  7099 net.cpp:408] LFCN_3_5x5_LFCN_3_5x5_0_split -> LFCN_3_5x5_LFCN_3_5x5_0_split_1
I1009 23:29:00.176960  7099 net.cpp:408] LFCN_3_5x5_LFCN_3_5x5_0_split -> LFCN_3_5x5_LFCN_3_5x5_0_split_2
I1009 23:29:00.177011  7099 net.cpp:150] Setting up LFCN_3_5x5_LFCN_3_5x5_0_split
I1009 23:29:00.177019  7099 net.cpp:157] Top shape: 2 9 24 24 (10368)
I1009 23:29:00.177024  7099 net.cpp:157] Top shape: 2 9 24 24 (10368)
I1009 23:29:00.177031  7099 net.cpp:157] Top shape: 2 9 24 24 (10368)
I1009 23:29:00.177036  7099 net.cpp:165] Memory required for data: 3120595312
I1009 23:29:00.177039  7099 layer_factory.hpp:77] Creating layer detection_loss_3_5x5
I1009 23:29:00.177049  7099 net.cpp:100] Creating Layer detection_loss_3_5x5
I1009 23:29:00.177054  7099 net.cpp:434] detection_loss_3_5x5 <- LFCN_3_5x5_LFCN_3_5x5_0_split_0
I1009 23:29:00.177060  7099 net.cpp:434] detection_loss_3_5x5 <- label_3_5x5_data_5_split_0
I1009 23:29:00.177067  7099 net.cpp:408] detection_loss_3_5x5 -> loss_3_5x5
I1009 23:29:00.177078  7099 layer_factory.hpp:77] Creating layer detection_loss_3_5x5
I1009 23:29:00.177397  7099 net.cpp:150] Setting up detection_loss_3_5x5
I1009 23:29:00.177407  7099 net.cpp:157] Top shape: 1 1 1 2 (2)
I1009 23:29:00.177412  7099 net.cpp:160]     with loss weight 1
I1009 23:29:00.177426  7099 net.cpp:165] Memory required for data: 3120595320
I1009 23:29:00.177431  7099 layer_factory.hpp:77] Creating layer detection_accuracy_3_5x5
I1009 23:29:00.177441  7099 net.cpp:100] Creating Layer detection_accuracy_3_5x5
I1009 23:29:00.177448  7099 net.cpp:434] detection_accuracy_3_5x5 <- LFCN_3_5x5_LFCN_3_5x5_0_split_1
I1009 23:29:00.177455  7099 net.cpp:434] detection_accuracy_3_5x5 <- label_3_5x5_data_5_split_1
I1009 23:29:00.177465  7099 net.cpp:408] detection_accuracy_3_5x5 -> accuracy_3_5x5
I1009 23:29:00.177477  7099 net.cpp:408] detection_accuracy_3_5x5 -> boxiou_3_5x5
I1009 23:29:00.177523  7099 net.cpp:150] Setting up detection_accuracy_3_5x5
I1009 23:29:00.177532  7099 net.cpp:157] Top shape: 1 1 1 2 (2)
I1009 23:29:00.177538  7099 net.cpp:157] Top shape: 1 1 1 1 (1)
I1009 23:29:00.177543  7099 net.cpp:165] Memory required for data: 3120595332
I1009 23:29:00.177547  7099 layer_factory.hpp:77] Creating layer LFCN_3_7x7
I1009 23:29:00.177559  7099 net.cpp:100] Creating Layer LFCN_3_7x7
I1009 23:29:00.177565  7099 net.cpp:434] LFCN_3_7x7 <- conv6_1_relu6_1_0_split_1
I1009 23:29:00.177575  7099 net.cpp:408] LFCN_3_7x7 -> LFCN_3_7x7
I1009 23:29:00.184618  7099 net.cpp:150] Setting up LFCN_3_7x7
I1009 23:29:00.184636  7099 net.cpp:157] Top shape: 2 9 24 24 (10368)
I1009 23:29:00.184643  7099 net.cpp:165] Memory required for data: 3120636804
I1009 23:29:00.184653  7099 layer_factory.hpp:77] Creating layer LFCN_3_7x7_LFCN_3_7x7_0_split
I1009 23:29:00.184660  7099 net.cpp:100] Creating Layer LFCN_3_7x7_LFCN_3_7x7_0_split
I1009 23:29:00.184666  7099 net.cpp:434] LFCN_3_7x7_LFCN_3_7x7_0_split <- LFCN_3_7x7
I1009 23:29:00.184674  7099 net.cpp:408] LFCN_3_7x7_LFCN_3_7x7_0_split -> LFCN_3_7x7_LFCN_3_7x7_0_split_0
I1009 23:29:00.184689  7099 net.cpp:408] LFCN_3_7x7_LFCN_3_7x7_0_split -> LFCN_3_7x7_LFCN_3_7x7_0_split_1
I1009 23:29:00.184698  7099 net.cpp:408] LFCN_3_7x7_LFCN_3_7x7_0_split -> LFCN_3_7x7_LFCN_3_7x7_0_split_2
I1009 23:29:00.184762  7099 net.cpp:150] Setting up LFCN_3_7x7_LFCN_3_7x7_0_split
I1009 23:29:00.184770  7099 net.cpp:157] Top shape: 2 9 24 24 (10368)
I1009 23:29:00.184777  7099 net.cpp:157] Top shape: 2 9 24 24 (10368)
I1009 23:29:00.184783  7099 net.cpp:157] Top shape: 2 9 24 24 (10368)
I1009 23:29:00.184788  7099 net.cpp:165] Memory required for data: 3120761220
I1009 23:29:00.184793  7099 layer_factory.hpp:77] Creating layer detection_loss_3_7x7
I1009 23:29:00.184801  7099 net.cpp:100] Creating Layer detection_loss_3_7x7
I1009 23:29:00.184808  7099 net.cpp:434] detection_loss_3_7x7 <- LFCN_3_7x7_LFCN_3_7x7_0_split_0
I1009 23:29:00.184814  7099 net.cpp:434] detection_loss_3_7x7 <- label_3_7x7_data_6_split_0
I1009 23:29:00.184823  7099 net.cpp:408] detection_loss_3_7x7 -> loss_3_7x7
I1009 23:29:00.184835  7099 layer_factory.hpp:77] Creating layer detection_loss_3_7x7
I1009 23:29:00.185531  7099 net.cpp:150] Setting up detection_loss_3_7x7
I1009 23:29:00.185545  7099 net.cpp:157] Top shape: 1 1 1 2 (2)
I1009 23:29:00.185550  7099 net.cpp:160]     with loss weight 1
I1009 23:29:00.185560  7099 net.cpp:165] Memory required for data: 3120761228
I1009 23:29:00.185565  7099 layer_factory.hpp:77] Creating layer detection_accuracy_3_7x7
I1009 23:29:00.185575  7099 net.cpp:100] Creating Layer detection_accuracy_3_7x7
I1009 23:29:00.185582  7099 net.cpp:434] detection_accuracy_3_7x7 <- LFCN_3_7x7_LFCN_3_7x7_0_split_1
I1009 23:29:00.185590  7099 net.cpp:434] detection_accuracy_3_7x7 <- label_3_7x7_data_6_split_1
I1009 23:29:00.185600  7099 net.cpp:408] detection_accuracy_3_7x7 -> accuracy_3_7x7
I1009 23:29:00.185611  7099 net.cpp:408] detection_accuracy_3_7x7 -> boxiou_3_7x7
I1009 23:29:00.185659  7099 net.cpp:150] Setting up detection_accuracy_3_7x7
I1009 23:29:00.185668  7099 net.cpp:157] Top shape: 1 1 1 2 (2)
I1009 23:29:00.185674  7099 net.cpp:157] Top shape: 1 1 1 1 (1)
I1009 23:29:00.185679  7099 net.cpp:165] Memory required for data: 3120761240
I1009 23:29:00.185683  7099 layer_factory.hpp:77] Creating layer pool6
I1009 23:29:00.185693  7099 net.cpp:100] Creating Layer pool6
I1009 23:29:00.185699  7099 net.cpp:434] pool6 <- conv6_1_relu6_1_0_split_2
I1009 23:29:00.185706  7099 net.cpp:408] pool6 -> pool6
I1009 23:29:00.185750  7099 net.cpp:150] Setting up pool6
I1009 23:29:00.185758  7099 net.cpp:157] Top shape: 2 512 12 12 (147456)
I1009 23:29:00.185762  7099 net.cpp:165] Memory required for data: 3121351064
I1009 23:29:00.185767  7099 layer_factory.hpp:77] Creating layer LFCN_4_5x5
I1009 23:29:00.185781  7099 net.cpp:100] Creating Layer LFCN_4_5x5
I1009 23:29:00.185786  7099 net.cpp:434] LFCN_4_5x5 <- pool6
I1009 23:29:00.185793  7099 net.cpp:408] LFCN_4_5x5 -> LFCN_4_5x5
I1009 23:29:00.189649  7099 net.cpp:150] Setting up LFCN_4_5x5
I1009 23:29:00.189671  7099 net.cpp:157] Top shape: 2 9 12 12 (2592)
I1009 23:29:00.189677  7099 net.cpp:165] Memory required for data: 3121361432
I1009 23:29:00.189685  7099 layer_factory.hpp:77] Creating layer LFCN_4_5x5_LFCN_4_5x5_0_split
I1009 23:29:00.189698  7099 net.cpp:100] Creating Layer LFCN_4_5x5_LFCN_4_5x5_0_split
I1009 23:29:00.189707  7099 net.cpp:434] LFCN_4_5x5_LFCN_4_5x5_0_split <- LFCN_4_5x5
I1009 23:29:00.189715  7099 net.cpp:408] LFCN_4_5x5_LFCN_4_5x5_0_split -> LFCN_4_5x5_LFCN_4_5x5_0_split_0
I1009 23:29:00.189728  7099 net.cpp:408] LFCN_4_5x5_LFCN_4_5x5_0_split -> LFCN_4_5x5_LFCN_4_5x5_0_split_1
I1009 23:29:00.189739  7099 net.cpp:408] LFCN_4_5x5_LFCN_4_5x5_0_split -> LFCN_4_5x5_LFCN_4_5x5_0_split_2
I1009 23:29:00.189802  7099 net.cpp:150] Setting up LFCN_4_5x5_LFCN_4_5x5_0_split
I1009 23:29:00.189811  7099 net.cpp:157] Top shape: 2 9 12 12 (2592)
I1009 23:29:00.189817  7099 net.cpp:157] Top shape: 2 9 12 12 (2592)
I1009 23:29:00.189823  7099 net.cpp:157] Top shape: 2 9 12 12 (2592)
I1009 23:29:00.189827  7099 net.cpp:165] Memory required for data: 3121392536
I1009 23:29:00.189832  7099 layer_factory.hpp:77] Creating layer detection_loss_4_5x5
I1009 23:29:00.189842  7099 net.cpp:100] Creating Layer detection_loss_4_5x5
I1009 23:29:00.189849  7099 net.cpp:434] detection_loss_4_5x5 <- LFCN_4_5x5_LFCN_4_5x5_0_split_0
I1009 23:29:00.189857  7099 net.cpp:434] detection_loss_4_5x5 <- label_4_5x5_data_7_split_0
I1009 23:29:00.189863  7099 net.cpp:408] detection_loss_4_5x5 -> loss_4_5x5
I1009 23:29:00.189877  7099 layer_factory.hpp:77] Creating layer detection_loss_4_5x5
I1009 23:29:00.190716  7099 net.cpp:150] Setting up detection_loss_4_5x5
I1009 23:29:00.190731  7099 net.cpp:157] Top shape: 1 1 1 2 (2)
I1009 23:29:00.190735  7099 net.cpp:160]     with loss weight 1
I1009 23:29:00.190748  7099 net.cpp:165] Memory required for data: 3121392544
I1009 23:29:00.190753  7099 layer_factory.hpp:77] Creating layer detection_accuracy_4_5x5
I1009 23:29:00.190764  7099 net.cpp:100] Creating Layer detection_accuracy_4_5x5
I1009 23:29:00.190773  7099 net.cpp:434] detection_accuracy_4_5x5 <- LFCN_4_5x5_LFCN_4_5x5_0_split_1
I1009 23:29:00.190779  7099 net.cpp:434] detection_accuracy_4_5x5 <- label_4_5x5_data_7_split_1
I1009 23:29:00.190794  7099 net.cpp:408] detection_accuracy_4_5x5 -> accuracy_4_5x5
I1009 23:29:00.190806  7099 net.cpp:408] detection_accuracy_4_5x5 -> boxiou_4_5x5
I1009 23:29:00.190856  7099 net.cpp:150] Setting up detection_accuracy_4_5x5
I1009 23:29:00.190866  7099 net.cpp:157] Top shape: 1 1 1 2 (2)
I1009 23:29:00.190871  7099 net.cpp:157] Top shape: 1 1 1 1 (1)
I1009 23:29:00.190876  7099 net.cpp:165] Memory required for data: 3121392556
I1009 23:29:00.190881  7099 layer_factory.hpp:77] Creating layer proposals
I1009 23:29:00.190891  7099 net.cpp:100] Creating Layer proposals
I1009 23:29:00.190898  7099 net.cpp:434] proposals <- LFCN_1_5x5_LFCN_1_5x5_0_split_2
I1009 23:29:00.190907  7099 net.cpp:434] proposals <- LFCN_1_7x7_LFCN_1_7x7_0_split_2
I1009 23:29:00.190913  7099 net.cpp:434] proposals <- LFCN_2_5x5_LFCN_2_5x5_0_split_2
I1009 23:29:00.190920  7099 net.cpp:434] proposals <- LFCN_2_7x7_LFCN_2_7x7_0_split_2
I1009 23:29:00.190925  7099 net.cpp:434] proposals <- LFCN_3_5x5_LFCN_3_5x5_0_split_2
I1009 23:29:00.190932  7099 net.cpp:434] proposals <- LFCN_3_7x7_LFCN_3_7x7_0_split_2
I1009 23:29:00.190937  7099 net.cpp:434] proposals <- LFCN_4_5x5_LFCN_4_5x5_0_split_2
I1009 23:29:00.190946  7099 net.cpp:408] proposals -> proposals
I1009 23:29:00.190977  7099 net.cpp:150] Setting up proposals
I1009 23:29:00.190985  7099 net.cpp:157] Top shape: 1 5 1 1 (5)
I1009 23:29:00.190990  7099 net.cpp:165] Memory required for data: 3121392576
I1009 23:29:00.190994  7099 layer_factory.hpp:77] Creating layer proposal_info
I1009 23:29:00.191007  7099 net.cpp:100] Creating Layer proposal_info
I1009 23:29:00.191013  7099 net.cpp:434] proposal_info <- proposals
I1009 23:29:00.191020  7099 net.cpp:434] proposal_info <- gt_boxes
I1009 23:29:00.191030  7099 net.cpp:408] proposal_info -> rois
I1009 23:29:00.191041  7099 net.cpp:408] proposal_info -> proposal_labels
I1009 23:29:00.191053  7099 net.cpp:408] proposal_info -> proposal_targets
I1009 23:29:00.191066  7099 net.cpp:408] proposal_info -> box_inside_weights
I1009 23:29:00.191076  7099 net.cpp:408] proposal_info -> box_outside_weights
I1009 23:29:00.191087  7099 net.cpp:408] proposal_info -> match_gt_boxes
I1009 23:29:00.191188  7099 net.cpp:150] Setting up proposal_info
I1009 23:29:00.191197  7099 net.cpp:157] Top shape: 128 5 1 1 (640)
I1009 23:29:00.191203  7099 net.cpp:157] Top shape: 128 1 1 1 (128)
I1009 23:29:00.191210  7099 net.cpp:157] Top shape: 128 20 1 1 (2560)
I1009 23:29:00.191216  7099 net.cpp:157] Top shape: 128 20 1 1 (2560)
I1009 23:29:00.191223  7099 net.cpp:157] Top shape: 128 20 1 1 (2560)
I1009 23:29:00.191231  7099 net.cpp:157] Top shape: 128 6 1 1 (768)
I1009 23:29:00.191234  7099 net.cpp:165] Memory required for data: 3121429440
I1009 23:29:00.191239  7099 layer_factory.hpp:77] Creating layer rois_proposal_info_0_split
I1009 23:29:00.191246  7099 net.cpp:100] Creating Layer rois_proposal_info_0_split
I1009 23:29:00.191251  7099 net.cpp:434] rois_proposal_info_0_split <- rois
I1009 23:29:00.191259  7099 net.cpp:408] rois_proposal_info_0_split -> rois_proposal_info_0_split_0
I1009 23:29:00.191268  7099 net.cpp:408] rois_proposal_info_0_split -> rois_proposal_info_0_split_1
I1009 23:29:00.191278  7099 net.cpp:408] rois_proposal_info_0_split -> rois_proposal_info_0_split_2
I1009 23:29:00.191334  7099 net.cpp:150] Setting up rois_proposal_info_0_split
I1009 23:29:00.191342  7099 net.cpp:157] Top shape: 128 5 1 1 (640)
I1009 23:29:00.191349  7099 net.cpp:157] Top shape: 128 5 1 1 (640)
I1009 23:29:00.191354  7099 net.cpp:157] Top shape: 128 5 1 1 (640)
I1009 23:29:00.191359  7099 net.cpp:165] Memory required for data: 3121437120
I1009 23:29:00.191365  7099 layer_factory.hpp:77] Creating layer proposal_labels_proposal_info_1_split
I1009 23:29:00.191372  7099 net.cpp:100] Creating Layer proposal_labels_proposal_info_1_split
I1009 23:29:00.191378  7099 net.cpp:434] proposal_labels_proposal_info_1_split <- proposal_labels
I1009 23:29:00.191385  7099 net.cpp:408] proposal_labels_proposal_info_1_split -> proposal_labels_proposal_info_1_split_0
I1009 23:29:00.191395  7099 net.cpp:408] proposal_labels_proposal_info_1_split -> proposal_labels_proposal_info_1_split_1
I1009 23:29:00.191450  7099 net.cpp:150] Setting up proposal_labels_proposal_info_1_split
I1009 23:29:00.191459  7099 net.cpp:157] Top shape: 128 1 1 1 (128)
I1009 23:29:00.191467  7099 net.cpp:157] Top shape: 128 1 1 1 (128)
I1009 23:29:00.191471  7099 net.cpp:165] Memory required for data: 3121438144
I1009 23:29:00.191476  7099 layer_factory.hpp:77] Creating layer conv4_3_new
I1009 23:29:00.191488  7099 net.cpp:100] Creating Layer conv4_3_new
I1009 23:29:00.191495  7099 net.cpp:434] conv4_3_new <- conv4_3_relu4_3_0_split_3
I1009 23:29:00.191503  7099 net.cpp:434] conv4_3_new <- attention_relu_attention_0_split_1
I1009 23:29:00.191510  7099 net.cpp:408] conv4_3_new -> conv4_3_new
I1009 23:29:00.191541  7099 net.cpp:150] Setting up conv4_3_new
I1009 23:29:00.191552  7099 net.cpp:157] Top shape: 2 514 96 96 (9474048)
I1009 23:29:00.191558  7099 net.cpp:165] Memory required for data: 3159334336
I1009 23:29:00.191563  7099 layer_factory.hpp:77] Creating layer conv4_3_2x
I1009 23:29:00.191574  7099 net.cpp:100] Creating Layer conv4_3_2x
I1009 23:29:00.191581  7099 net.cpp:434] conv4_3_2x <- conv4_3_new
I1009 23:29:00.191588  7099 net.cpp:408] conv4_3_2x -> conv4_3_2x
I1009 23:29:00.192081  7099 net.cpp:150] Setting up conv4_3_2x
I1009 23:29:00.192090  7099 net.cpp:157] Top shape: 2 514 192 192 (37896192)
I1009 23:29:00.192093  7099 net.cpp:165] Memory required for data: 3310919104
I1009 23:29:00.192100  7099 layer_factory.hpp:77] Creating layer conv4_3_2x_conv4_3_2x_0_split
I1009 23:29:00.192106  7099 net.cpp:100] Creating Layer conv4_3_2x_conv4_3_2x_0_split
I1009 23:29:00.192111  7099 net.cpp:434] conv4_3_2x_conv4_3_2x_0_split <- conv4_3_2x
I1009 23:29:00.192118  7099 net.cpp:408] conv4_3_2x_conv4_3_2x_0_split -> conv4_3_2x_conv4_3_2x_0_split_0
I1009 23:29:00.192126  7099 net.cpp:408] conv4_3_2x_conv4_3_2x_0_split -> conv4_3_2x_conv4_3_2x_0_split_1
I1009 23:29:00.192163  7099 net.cpp:150] Setting up conv4_3_2x_conv4_3_2x_0_split
I1009 23:29:00.192173  7099 net.cpp:157] Top shape: 2 514 192 192 (37896192)
I1009 23:29:00.192178  7099 net.cpp:157] Top shape: 2 514 192 192 (37896192)
I1009 23:29:00.192183  7099 net.cpp:165] Memory required for data: 3614088640
I1009 23:29:00.192186  7099 layer_factory.hpp:77] Creating layer roi_pool_org
I1009 23:29:00.192193  7099 net.cpp:100] Creating Layer roi_pool_org
I1009 23:29:00.192198  7099 net.cpp:434] roi_pool_org <- conv4_3_2x_conv4_3_2x_0_split_0
I1009 23:29:00.192203  7099 net.cpp:434] roi_pool_org <- rois_proposal_info_0_split_0
I1009 23:29:00.192210  7099 net.cpp:408] roi_pool_org -> roi_pool_org
I1009 23:29:00.192219  7099 roi_pooling_layer.cpp:33] Spatial scale: 0.25
I1009 23:29:00.192260  7099 net.cpp:150] Setting up roi_pool_org
I1009 23:29:00.192267  7099 net.cpp:157] Top shape: 128 514 7 7 (3223808)
I1009 23:29:00.192271  7099 net.cpp:165] Memory required for data: 3626983872
I1009 23:29:00.192276  7099 layer_factory.hpp:77] Creating layer roi_pool_ctx
I1009 23:29:00.192281  7099 net.cpp:100] Creating Layer roi_pool_ctx
I1009 23:29:00.192286  7099 net.cpp:434] roi_pool_ctx <- conv4_3_2x_conv4_3_2x_0_split_1
I1009 23:29:00.192291  7099 net.cpp:434] roi_pool_ctx <- rois_proposal_info_0_split_1
I1009 23:29:00.192296  7099 net.cpp:408] roi_pool_ctx -> roi_pool_ctx
I1009 23:29:00.192304  7099 roi_pooling_layer.cpp:33] Spatial scale: 0.25
I1009 23:29:00.192344  7099 net.cpp:150] Setting up roi_pool_ctx
I1009 23:29:00.192353  7099 net.cpp:157] Top shape: 128 514 7 7 (3223808)
I1009 23:29:00.192355  7099 net.cpp:165] Memory required for data: 3639879104
I1009 23:29:00.192359  7099 layer_factory.hpp:77] Creating layer roi_pool
I1009 23:29:00.192364  7099 net.cpp:100] Creating Layer roi_pool
I1009 23:29:00.192369  7099 net.cpp:434] roi_pool <- roi_pool_org
I1009 23:29:00.192375  7099 net.cpp:434] roi_pool <- roi_pool_ctx
I1009 23:29:00.192382  7099 net.cpp:408] roi_pool -> roi_pool
I1009 23:29:00.192409  7099 net.cpp:150] Setting up roi_pool
I1009 23:29:00.192415  7099 net.cpp:157] Top shape: 128 1028 7 7 (6447616)
I1009 23:29:00.192420  7099 net.cpp:165] Memory required for data: 3665669568
I1009 23:29:00.192423  7099 layer_factory.hpp:77] Creating layer roi_c1
I1009 23:29:00.192433  7099 net.cpp:100] Creating Layer roi_c1
I1009 23:29:00.192440  7099 net.cpp:434] roi_c1 <- roi_pool
I1009 23:29:00.192446  7099 net.cpp:408] roi_c1 -> roi_c1
I1009 23:29:00.308378  7099 net.cpp:150] Setting up roi_c1
I1009 23:29:00.308408  7099 net.cpp:157] Top shape: 128 512 5 5 (1638400)
I1009 23:29:00.308413  7099 net.cpp:165] Memory required for data: 3672223168
I1009 23:29:00.308423  7099 layer_factory.hpp:77] Creating layer roi_c1_relu
I1009 23:29:00.308436  7099 net.cpp:100] Creating Layer roi_c1_relu
I1009 23:29:00.308444  7099 net.cpp:434] roi_c1_relu <- roi_c1
I1009 23:29:00.308451  7099 net.cpp:395] roi_c1_relu -> roi_c1 (in-place)
I1009 23:29:00.308614  7099 net.cpp:150] Setting up roi_c1_relu
I1009 23:29:00.308625  7099 net.cpp:157] Top shape: 128 512 5 5 (1638400)
I1009 23:29:00.308630  7099 net.cpp:165] Memory required for data: 3678776768
I1009 23:29:00.308635  7099 layer_factory.hpp:77] Creating layer fc6
I1009 23:29:00.308645  7099 net.cpp:100] Creating Layer fc6
I1009 23:29:00.308652  7099 net.cpp:434] fc6 <- roi_c1
I1009 23:29:00.308661  7099 net.cpp:408] fc6 -> fc6
I1009 23:29:01.535388  7099 net.cpp:150] Setting up fc6
I1009 23:29:01.535426  7099 net.cpp:157] Top shape: 128 4096 (524288)
I1009 23:29:01.535431  7099 net.cpp:165] Memory required for data: 3680873920
I1009 23:29:01.535444  7099 layer_factory.hpp:77] Creating layer relu6
I1009 23:29:01.535457  7099 net.cpp:100] Creating Layer relu6
I1009 23:29:01.535468  7099 net.cpp:434] relu6 <- fc6
I1009 23:29:01.535475  7099 net.cpp:395] relu6 -> fc6 (in-place)
I1009 23:29:01.535728  7099 net.cpp:150] Setting up relu6
I1009 23:29:01.535739  7099 net.cpp:157] Top shape: 128 4096 (524288)
I1009 23:29:01.535744  7099 net.cpp:165] Memory required for data: 3682971072
I1009 23:29:01.535748  7099 layer_factory.hpp:77] Creating layer drop6
I1009 23:29:01.535758  7099 net.cpp:100] Creating Layer drop6
I1009 23:29:01.535764  7099 net.cpp:434] drop6 <- fc6
I1009 23:29:01.535774  7099 net.cpp:395] drop6 -> fc6 (in-place)
I1009 23:29:01.535804  7099 net.cpp:150] Setting up drop6
I1009 23:29:01.535811  7099 net.cpp:157] Top shape: 128 4096 (524288)
I1009 23:29:01.535815  7099 net.cpp:165] Memory required for data: 3685068224
I1009 23:29:01.535820  7099 layer_factory.hpp:77] Creating layer fc6_drop6_0_split
I1009 23:29:01.535828  7099 net.cpp:100] Creating Layer fc6_drop6_0_split
I1009 23:29:01.535835  7099 net.cpp:434] fc6_drop6_0_split <- fc6
I1009 23:29:01.535840  7099 net.cpp:408] fc6_drop6_0_split -> fc6_drop6_0_split_0
I1009 23:29:01.535848  7099 net.cpp:408] fc6_drop6_0_split -> fc6_drop6_0_split_1
I1009 23:29:01.535897  7099 net.cpp:150] Setting up fc6_drop6_0_split
I1009 23:29:01.535904  7099 net.cpp:157] Top shape: 128 4096 (524288)
I1009 23:29:01.535910  7099 net.cpp:157] Top shape: 128 4096 (524288)
I1009 23:29:01.535915  7099 net.cpp:165] Memory required for data: 3689262528
I1009 23:29:01.535919  7099 layer_factory.hpp:77] Creating layer cls_pred
I1009 23:29:01.535930  7099 net.cpp:100] Creating Layer cls_pred
I1009 23:29:01.535938  7099 net.cpp:434] cls_pred <- fc6_drop6_0_split_0
I1009 23:29:01.535945  7099 net.cpp:408] cls_pred -> cls_pred
I1009 23:29:01.536581  7099 net.cpp:150] Setting up cls_pred
I1009 23:29:01.536592  7099 net.cpp:157] Top shape: 128 5 (640)
I1009 23:29:01.536595  7099 net.cpp:165] Memory required for data: 3689265088
I1009 23:29:01.536603  7099 layer_factory.hpp:77] Creating layer cls_pred_cls_pred_0_split
I1009 23:29:01.536610  7099 net.cpp:100] Creating Layer cls_pred_cls_pred_0_split
I1009 23:29:01.536618  7099 net.cpp:434] cls_pred_cls_pred_0_split <- cls_pred
I1009 23:29:01.536625  7099 net.cpp:408] cls_pred_cls_pred_0_split -> cls_pred_cls_pred_0_split_0
I1009 23:29:01.536635  7099 net.cpp:408] cls_pred_cls_pred_0_split -> cls_pred_cls_pred_0_split_1
I1009 23:29:01.536674  7099 net.cpp:150] Setting up cls_pred_cls_pred_0_split
I1009 23:29:01.536682  7099 net.cpp:157] Top shape: 128 5 (640)
I1009 23:29:01.536689  7099 net.cpp:157] Top shape: 128 5 (640)
I1009 23:29:01.536692  7099 net.cpp:165] Memory required for data: 3689270208
I1009 23:29:01.536696  7099 layer_factory.hpp:77] Creating layer bbox_pred
I1009 23:29:01.536705  7099 net.cpp:100] Creating Layer bbox_pred
I1009 23:29:01.536710  7099 net.cpp:434] bbox_pred <- fc6_drop6_0_split_1
I1009 23:29:01.536720  7099 net.cpp:408] bbox_pred -> bbox_pred
I1009 23:29:01.538909  7099 net.cpp:150] Setting up bbox_pred
I1009 23:29:01.538918  7099 net.cpp:157] Top shape: 128 20 (2560)
I1009 23:29:01.538923  7099 net.cpp:165] Memory required for data: 3689280448
I1009 23:29:01.538929  7099 layer_factory.hpp:77] Creating layer bbox_pred_bbox_pred_0_split
I1009 23:29:01.538938  7099 net.cpp:100] Creating Layer bbox_pred_bbox_pred_0_split
I1009 23:29:01.538944  7099 net.cpp:434] bbox_pred_bbox_pred_0_split <- bbox_pred
I1009 23:29:01.538949  7099 net.cpp:408] bbox_pred_bbox_pred_0_split -> bbox_pred_bbox_pred_0_split_0
I1009 23:29:01.538957  7099 net.cpp:408] bbox_pred_bbox_pred_0_split -> bbox_pred_bbox_pred_0_split_1
I1009 23:29:01.538995  7099 net.cpp:150] Setting up bbox_pred_bbox_pred_0_split
I1009 23:29:01.539002  7099 net.cpp:157] Top shape: 128 20 (2560)
I1009 23:29:01.539006  7099 net.cpp:157] Top shape: 128 20 (2560)
I1009 23:29:01.539011  7099 net.cpp:165] Memory required for data: 3689300928
I1009 23:29:01.539014  7099 layer_factory.hpp:77] Creating layer loss_cls
I1009 23:29:01.539021  7099 net.cpp:100] Creating Layer loss_cls
I1009 23:29:01.539026  7099 net.cpp:434] loss_cls <- cls_pred_cls_pred_0_split_0
I1009 23:29:01.539032  7099 net.cpp:434] loss_cls <- proposal_labels_proposal_info_1_split_0
…
