…
    downsample_rate: 16
    downsample_rate: 32
    downsample_rate: 32
    downsample_rate: 64
    coord_num: 4
    field_h: 60
    field_h: 84
    field_h: 120
    field_h: 168
    field_h: 240
    field_h: 336
    field_h: 480
    field_w: 60
    field_w: 84
    field_w: 120
    field_w: 168
    field_w: 240
    field_w: 336
    field_w: 480
    fg_threshold: 0.5
    resize_width: 1344
    resize_height: 768
    crop_width: 768
    crop_height: 768
    do_multiple_scale: true
    min_scale: 60
    max_scale: 480
    min_gt_height: 25
    shuffle: true
  }
}
layer {
  name: "slice"
  type: "Slice"
  bottom: "data"
  top: "data123"
  top: "ch4"
  slice_param {
    slice_point: 3
    axis: 1
  }
}
layer {
  name: "silence"
  type: "Silence"
  bottom: "ch4"
}
layer {
  name: "conv1_1"
  type: "Convolution"
  bottom: "data123"
  top: "conv1_1"
  convolution_param {
    num_output: 64
    pad: 1
    kernel_size: 3
  }
}
layer {
  name: "relu1_1"
  type: "ReLU"
  bottom: "conv1_1"
  top: "conv1_1"
}
layer {
  name: "conv1_2"
  type: "Convolution"
  bottom: "conv1_1"
  top: "conv1_2"
  convolution_param {
    num_output: 64
    pad: 1
    kernel_size: 3
  }
}
layer {
  name: "relu1_2"
  type: "ReLU"
  bottom: "conv1_2"
  top: "conv1_2"
}
layer {
  name: "pool1"
  type: "Pooling"
  bottom: "conv1_2"
  top: "pool1"
  pooling_param {
    pool: MAX
    kernel_size: 2
    stride: 2
  }
}
layer {
  name: "conv2_1"
  type: "Convolution"
  bottom: "pool1"
  top: "conv2_1"
  convolution_param {
    num_output: 128
    pad: 1
    kernel_size: 3
  }
}
layer {
  name: "relu2_1"
  type: "ReLU"
  bottom: "conv2_1"
  top: "conv2_1"
}
layer {
  name: "conv2_2"
  type: "Convolution"
  bottom: "conv2_1"
  top: "conv2_2"
  convolution_param {
    num_output: 128
    pad: 1
    kernel_size: 3
  }
}
layer {
  name: "relu2_2"
  type: "ReLU"
  bottom: "conv2_2"
  top: "conv2_2"
}
layer {
  name: "pool2"
  type: "Pooling"
  bottom: "conv2_2"
  top: "pool2"
  pooling_param {
    pool: MAX
    kernel_size: 2
    stride: 2
  }
}
layer {
  name: "conv3_1"
  type: "Convolution"
  bottom: "pool2"
  top: "conv3_1"
  convolution_param {
    num_output: 256
    pad: 1
    kernel_size: 3
  }
}
layer {
  name: "relu3_1"
  type: "ReLU"
  bottom: "conv3_1"
  top: "conv3_1"
}
layer {
  name: "conv3_2"
  type: "Convolution"
  bottom: "conv3_1"
  top: "conv3_2"
  convolution_param {
    num_output: 256
    pad: 1
    kernel_size: 3
  }
}
layer {
  name: "relu3_2"
  type: "ReLU"
  bottom: "conv3_2"
  top: "conv3_2"
}
layer {
  name: "conv3_3"
  type: "Convolution"
  bottom: "conv3_2"
  top: "conv3_3"
  convolution_param {
    num_output: 256
    pad: 1
    kernel_size: 3
  }
}
layer {
  name: "relu3_3"
  type: "ReLU"
  bottom: "conv3_3"
  top: "conv3_3"
}
layer {
  name: "pool3"
  type: "Pooling"
  bottom: "conv3_3"
  top: "pool3"
  pooling_param {
    pool: MAX
    kernel_size: 2
    stride: 2
  }
}
layer {
  name: "conv4_1"
  type: "Convolution"
  bottom: "pool3"
  top: "conv4_1"
  convolution_param {
    num_output: 512
    pad: 1
    kernel_size: 3
  }
}
layer {
  name: "relu4_1"
  type: "ReLU"
  bottom: "conv4_1"
  top: "conv4_1"
}
layer {
  name: "conv4_2"
  type: "Convolution"
  bottom: "conv4_1"
  top: "conv4_2"
  convolution_param {
    num_output: 512
    pad: 1
    kernel_size: 3
  }
}
layer {
  name: "relu4_2"
  type: "ReLU"
  bottom: "conv4_2"
  top: "conv4_2"
}
layer {
  name: "conv4_3"
  type: "Convolution"
  bottom: "conv4_2"
  top: "conv4_3"
  convolution_param {
    num_output: 512
    pad: 1
    kernel_size: 3
  }
}
layer {
  name: "relu4_3"
  type: "ReLU"
  bottom: "conv4_3"
  top: "conv4_3"
}
layer {
  name: "loss1_conv1"
  type: "Convolution"
  bottom: "conv4_3"
  top: "loss1_conv1"
  param {
    lr_mult: 1
    decay_mult: 1
  }
  param {
    lr_mult: 2
    decay_mult: 0
  }
  convolution_param {
    num_output: 512
    pad: 1
    kernel_size: 3
    weight_filler {
      type: "gaussian"
      std: 0.01
    }
    bias_filler {
      type: "constant"
    }
  }
}
layer {
  name: "loss_relu1"
  type: "ReLU"
  bottom: "loss1_conv1"
  top: "loss1_conv1"
}
layer {
  name: "LFCN_1_5x5"
  type: "Convolution"
  bottom: "loss1_conv1"
  top: "LFCN_1_5x5"
  param {
    lr_mult: 1
    decay_mult: 1
  }
  param {
    lr_mult: 2
    decay_mult: 0
  }
  convolution_param {
    num_output: 9
    pad: 2
    kernel_size: 5
    weight_filler {
      type: "gaussian"
      std: 0.001
    }
    bias_filler {
      type: "constant"
    }
  }
}
layer {
  name: "detection_loss_1_5x5"
  type: "DetectionLoss"
  bottom: "LFCN_1_5x5"
  bottom: "label_1_5x5"
  top: "loss_1_5x5"
  loss_weight: 0.9
  detection_loss_param {
    cls_num: 5
    coord_num: 4
    lambda: 0.05
    field_h: 60
    field_w: 60
    downsample_rate: 8
    bb_smooth: true
    field_whr: 2
    field_xyr: 2
    bg_threshold: 0.2
    bg_multiple: 2
    sample_mode: "random"
    pos_neg_weighted: true
  }
}
layer {
  name: "detection_accuracy_1_5x5"
  type: "DetectionAccuracy"
  bottom: "LFCN_1_5x5"
  bottom: "label_1_5x5"
  top: "accuracy_1_5x5"
  top: "boxiou_1_5x5"
  detection_accuracy_param {
    cls_num: 5
    coord_num: 4
    field_h: 60
    field_w: 60
    downsample_rate: 8
    field_whr: 2
    field_xyr: 2
  }
}
layer {
  name: "LFCN_1_7x7"
  type: "Convolution"
  bottom: "loss1_conv1"
  top: "LFCN_1_7x7"
  param {
    lr_mult: 1
    decay_mult: 1
  }
  param {
    lr_mult: 2
    decay_mult: 0
  }
  convolution_param {
    num_output: 9
    pad: 3
    kernel_size: 7
    weight_filler {
      type: "gaussian"
      std: 0.001
    }
    bias_filler {
      type: "constant"
    }
  }
}
layer {
  name: "detection_loss_1_7x7"
  type: "DetectionLoss"
  bottom: "LFCN_1_7x7"
  bottom: "label_1_7x7"
  top: "loss_1_7x7"
  loss_weight: 0.9
  detection_loss_param {
    cls_num: 5
    coord_num: 4
    lambda: 0.05
    field_h: 84
    field_w: 84
    downsample_rate: 8
    bb_smooth: true
    field_whr: 2
    field_xyr: 2
    bg_threshold: 0.2
    bg_multiple: 2
    sample_mode: "random"
    pos_neg_weighted: true
  }
}
layer {
  name: "detection_accuracy_1_7x7"
  type: "DetectionAccuracy"
  bottom: "LFCN_1_7x7"
  bottom: "label_1_7x7"
  top: "accuracy_1_7x7"
  top: "boxiou_1_7x7"
  detection_accuracy_param {
    cls_num: 5
    coord_num: 4
    field_h: 84
    field_w: 84
    downsample_rate: 8
    field_whr: 2
    field_xyr: 2
  }
}
layer {
  name: "pool4"
  type: "Pooling"
  bottom: "conv4_3"
  top: "pool4"
  pooling_param {
    pool: MAX
    kernel_size: 2
    stride: 2
  }
}
layer {
  name: "conv5_1"
  type: "Convolution"
  bottom: "pool4"
  top: "conv5_1"
  convolution_param {
    num_output: 512
    pad: 1
    kernel_size: 3
  }
}
layer {
  name: "relu5_1"
  type: "ReLU"
  bottom: "conv5_1"
  top: "conv5_1"
}
layer {
  name: "conv5_2"
  type: "Convolution"
  bottom: "conv5_1"
  top: "conv5_2"
  convolution_param {
    num_output: 512
    pad: 1
    kernel_size: 3
  }
}
layer {
  name: "relu5_2"
  type: "ReLU"
  bottom: "conv5_2"
  top: "conv5_2"
}
layer {
  name: "conv5_3"
  type: "Convolution"
  bottom: "conv5_2"
  top: "conv5_3"
  convolution_param {
    num_output: 512
    pad: 1
    kernel_size: 3
  }
}
layer {
  name: "relu5_3"
  type: "ReLU"
  bottom: "conv5_3"
  top: "conv5_3"
}
layer {
  name: "LFCN_2_5x5"
  type: "Convolution"
  bottom: "conv5_3"
  top: "LFCN_2_5x5"
  param {
    lr_mult: 1
    decay_mult: 1
  }
  param {
    lr_mult: 2
    decay_mult: 0
  }
  convolution_param {
    num_output: 9
    pad: 2
    kernel_size: 5
    weight_filler {
      type: "gaussian"
      std: 0.001
    }
    bias_filler {
      type: "constant"
    }
  }
}
layer {
  name: "detection_loss_2_5x5"
  type: "DetectionLoss"
  bottom: "LFCN_2_5x5"
  bottom: "label_2_5x5"
  top: "loss_2_5x5"
  detection_loss_param {
    cls_num: 5
    coord_num: 4
    lambda: 0.05
    field_h: 120
    field_w: 120
    downsample_rate: 16
    bb_smooth: true
    field_whr: 2
    field_xyr: 2
    bg_threshold: 0.2
    bg_multiple: 2
    sample_mode: "random"
    pos_neg_weighted: true
  }
}
layer {
  name: "detection_accuracy_2_5x5"
  type: "DetectionAccuracy"
  bottom: "LFCN_2_5x5"
  bottom: "label_2_5x5"
  top: "accuracy_2_5x5"
  top: "boxiou_2_5x5"
  detection_accuracy_param {
    cls_num: 5
    coord_num: 4
    field_h: 120
    field_w: 120
    downsample_rate: 16
    field_whr: 2
    field_xyr: 2
  }
}
layer {
  name: "LFCN_2_7x7"
  type: "Convolution"
  bottom: "conv5_3"
  top: "LFCN_2_7x7"
  param {
    lr_mult: 1
    decay_mult: 1
  }
  param {
    lr_mult: 2
    decay_mult: 0
  }
  convolution_param {
    num_output: 9
    pad: 3
    kernel_size: 7
    weight_filler {
      type: "gaussian"
      std: 0.001
    }
    bias_filler {
      type: "constant"
    }
  }
}
layer {
  name: "detection_loss_2_7x7"
  type: "DetectionLoss"
  bottom: "LFCN_2_7x7"
  bottom: "label_2_7x7"
  top: "loss_2_7x7"
  detection_loss_param {
    cls_num: 5
    coord_num: 4
    lambda: 0.05
    field_h: 168
    field_w: 168
    downsample_rate: 16
    bb_smooth: true
    field_whr: 2
    field_xyr: 2
    bg_threshold: 0.2
    bg_multiple: 2
    sample_mode: "random"
    pos_neg_weighted: true
  }
}
layer {
  name: "detection_accuracy_2_7x7"
  type: "DetectionAccuracy"
  bottom: "LFCN_2_7x7"
  bottom: "label_2_7x7"
  top: "accuracy_2_7x7"
  top: "boxiou_2_7x7"
  detection_accuracy_param {
    cls_num: 5
    coord_num: 4
    field_h: 168
    field_w: 168
    downsample_rate: 16
    field_whr: 2
    field_xyr: 2
  }
}
layer {
  name: "pool5"
  type: "Pooling"
  bottom: "conv5_3"
  top: "pool5"
  pooling_param {
    pool: MAX
    kernel_size: 2
    stride: 2
  }
}
layer {
  name: "conv6_1"
  type: "Convolution"
  bottom: "pool5"
  top: "conv6_1"
  param {
    lr_mult: 1
    decay_mult: 1
  }
  param {
    lr_mult: 2
    decay_mult: 0
  }
  convolution_param {
    num_output: 512
    pad: 1
    kernel_size: 3
    weight_filler {
      type: "gaussian"
      std: 0.01
    }
    bias_filler {
      type: "constant"
    }
  }
}
layer {
  name: "relu6_1"
  type: "ReLU"
  bottom: "conv6_1"
  top: "conv6_1"
}
layer {
  name: "LFCN_3_5x5"
  type: "Convolution"
  bottom: "conv6_1"
  top: "LFCN_3_5x5"
  param {
    lr_mult: 1
    decay_mult: 1
  }
  param {
    lr_mult: 2
    decay_mult: 0
  }
  convolution_param {
    num_output: 9
    pad: 2
    kernel_size: 5
    weight_filler {
      type: "gaussian"
      std: 0.001
    }
    bias_filler {
      type: "constant"
    }
  }
}
layer {
  name: "detection_loss_3_5x5"
  type: "DetectionLoss"
  bottom: "LFCN_3_5x5"
  bottom: "label_3_5x5"
  top: "loss_3_5x5"
  detection_loss_param {
    cls_num: 5
    coord_num: 4
    lambda: 0.05
    field_h: 240
    field_w: 240
    downsample_rate: 32
    bb_smooth: true
    field_whr: 2
    field_xyr: 2
    bg_threshold: 0.2
    bg_multiple: 2
    sample_mode: "random"
    pos_neg_weighted: true
  }
}
layer {
  name: "detection_accuracy_3_5x5"
  type: "DetectionAccuracy"
  bottom: "LFCN_3_5x5"
  bottom: "label_3_5x5"
  top: "accuracy_3_5x5"
  top: "boxiou_3_5x5"
  detection_accuracy_param {
    cls_num: 5
    coord_num: 4
    field_h: 240
    field_w: 240
    downsample_rate: 32
    field_whr: 2
    field_xyr: 2
  }
}
layer {
  name: "LFCN_3_7x7"
  type: "Convolution"
  bottom: "conv6_1"
  top: "LFCN_3_7x7"
  param {
    lr_mult: 1
    decay_mult: 1
  }
  param {
    lr_mult: 2
    decay_mult: 0
  }
  convolution_param {
    num_output: 9
    pad: 3
    kernel_size: 7
    weight_filler {
      type: "gaussian"
      std: 0.001
    }
    bias_filler {
      type: "constant"
    }
  }
}
layer {
  name: "detection_loss_3_7x7"
  type: "DetectionLoss"
  bottom: "LFCN_3_7x7"
  bottom: "label_3_7x7"
  top: "loss_3_7x7"
  detection_loss_param {
    cls_num: 5
    coord_num: 4
    lambda: 0.05
    field_h: 336
    field_w: 336
    downsample_rate: 32
    bb_smooth: true
    field_whr: 2
    field_xyr: 2
    bg_threshold: 0.2
    bg_multiple: 2
    sample_mode: "random"
    pos_neg_weighted: true
  }
}
layer {
  name: "detection_accuracy_3_7x7"
  type: "DetectionAccuracy"
  bottom: "LFCN_3_7x7"
  bottom: "label_3_7x7"
  top: "accuracy_3_7x7"
  top: "boxiou_3_7x7"
  detection_accuracy_param {
    cls_num: 5
    coord_num: 4
    field_h: 336
    field_w: 336
    downsample_rate: 32
    field_whr: 2
    field_xyr: 2
  }
}
layer {
  name: "pool6"
  type: "Pooling"
  bottom: "conv6_1"
  top: "pool6"
  pooling_param {
    pool: MAX
    kernel_size: 2
    stride: 2
  }
}
layer {
  name: "LFCN_4_5x5"
  type: "Convolution"
  bottom: "pool6"
  top: "LFCN_4_5x5"
  param {
    lr_mult: 1
    decay_mult: 1
  }
  param {
    lr_mult: 2
    decay_mult: 0
  }
  convolution_param {
    num_output: 9
    pad: 2
    kernel_size: 5
    weight_filler {
      type: "gaussian"
      std: 0.001
    }
    bias_filler {
      type: "constant"
    }
  }
}
layer {
  name: "detection_loss_4_5x5"
  type: "DetectionLoss"
  bottom: "LFCN_4_5x5"
  bottom: "label_4_5x5"
  top: "loss_4_5x5"
  detection_loss_param {
    cls_num: 5
    coord_num: 4
    lambda: 0.05
    field_h: 480
    field_w: 480
    downsample_rate: 64
    bb_smooth: true
    field_whr: 2
    field_xyr: 2
    bg_threshold: 0.2
    bg_multiple: 2
    sample_mode: "random"
    pos_neg_weighted: true
  }
}
layer {
  name: "detection_accuracy_4_5x5"
  type: "DetectionAccuracy"
  bottom: "LFCN_4_5x5"
  bottom: "label_4_5x5"
  top: "accuracy_4_5x5"
  top: "boxiou_4_5x5"
  detection_accuracy_param {
    cls_num: 5
    coord_num: 4
    field_h: 480
    field_w: 480
    downsample_rate: 64
    field_whr: 2
    field_xyr: 2
  }
}
I1009 21:01:30.720196  5613 layer_factory.hpp:77] Creating layer data
I1009 21:01:30.720237  5613 net.cpp:100] Creating Layer data
I1009 21:01:30.720244  5613 net.cpp:408] data -> data
…
I1009 21:01:30.745889  5613 image_gt_data_layer.cpp:235] output label size 1 : 4,6,96,96
I1009 21:01:30.745935  5613 image_gt_data_layer.cpp:235] output label size 2 : 4,6,48,48
I1009 21:01:30.745978  5613 image_gt_data_layer.cpp:235] output label size 3 : 4,6,48,48
I1009 21:01:30.746014  5613 image_gt_data_layer.cpp:235] output label size 4 : 4,6,24,24
I1009 21:01:30.746050  5613 image_gt_data_layer.cpp:235] output label size 5 : 4,6,24,24
I1009 21:01:30.746086  5613 image_gt_data_layer.cpp:235] output label size 6 : 4,6,12,12
I1009 21:01:30.813042  5613 net.cpp:150] Setting up data
I1009 21:01:30.813074  5613 net.cpp:157] Top shape: 4 4 768 768 (9437184)
I1009 21:01:30.813081  5613 net.cpp:157] Top shape: 4 6 96 96 (221184)
I1009 21:01:30.813086  5613 net.cpp:157] Top shape: 4 6 96 96 (221184)
I1009 21:01:30.813091  5613 net.cpp:157] Top shape: 4 6 48 48 (55296)
I1009 21:01:30.813096  5613 net.cpp:157] Top shape: 4 6 48 48 (55296)
I1009 21:01:30.813099  5613 net.cpp:157] Top shape: 4 6 24 24 (13824)
I1009 21:01:30.813103  5613 net.cpp:157] Top shape: 4 6 24 24 (13824)
I1009 21:01:30.813107  5613 net.cpp:157] Top shape: 4 6 12 12 (3456)
I1009 21:01:30.813110  5613 net.cpp:165] Memory required for data: 40084992
I1009 21:01:30.813119  5613 layer_factory.hpp:77] Creating layer label_1_5x5_data_1_split
I1009 21:01:30.813136  5613 net.cpp:100] Creating Layer label_1_5x5_data_1_split
I1009 21:01:30.813143  5613 net.cpp:434] label_1_5x5_data_1_split <- label_1_5x5
I1009 21:01:30.813154  5613 net.cpp:408] label_1_5x5_data_1_split -> label_1_5x5_data_1_split_0
I1009 21:01:30.813185  5613 net.cpp:408] label_1_5x5_data_1_split -> label_1_5x5_data_1_split_1
I1009 21:01:30.813239  5613 net.cpp:150] Setting up label_1_5x5_data_1_split
I1009 21:01:30.813246  5613 net.cpp:157] Top shape: 4 6 96 96 (221184)
I1009 21:01:30.813251  5613 net.cpp:157] Top shape: 4 6 96 96 (221184)
I1009 21:01:30.813253  5613 net.cpp:165] Memory required for data: 41854464
I1009 21:01:30.813256  5613 layer_factory.hpp:77] Creating layer label_1_7x7_data_2_split
I1009 21:01:30.813261  5613 net.cpp:100] Creating Layer label_1_7x7_data_2_split
I1009 21:01:30.813264  5613 net.cpp:434] label_1_7x7_data_2_split <- label_1_7x7
I1009 21:01:30.813269  5613 net.cpp:408] label_1_7x7_data_2_split -> label_1_7x7_data_2_split_0
I1009 21:01:30.813274  5613 net.cpp:408] label_1_7x7_data_2_split -> label_1_7x7_data_2_split_1
I1009 21:01:30.813300  5613 net.cpp:150] Setting up label_1_7x7_data_2_split
I1009 21:01:30.813308  5613 net.cpp:157] Top shape: 4 6 96 96 (221184)
I1009 21:01:30.813311  5613 net.cpp:157] Top shape: 4 6 96 96 (221184)
I1009 21:01:30.813314  5613 net.cpp:165] Memory required for data: 43623936
I1009 21:01:30.813318  5613 layer_factory.hpp:77] Creating layer label_2_5x5_data_3_split
I1009 21:01:30.813323  5613 net.cpp:100] Creating Layer label_2_5x5_data_3_split
I1009 21:01:30.813325  5613 net.cpp:434] label_2_5x5_data_3_split <- label_2_5x5
I1009 21:01:30.813329  5613 net.cpp:408] label_2_5x5_data_3_split -> label_2_5x5_data_3_split_0
I1009 21:01:30.813334  5613 net.cpp:408] label_2_5x5_data_3_split -> label_2_5x5_data_3_split_1
I1009 21:01:30.813362  5613 net.cpp:150] Setting up label_2_5x5_data_3_split
I1009 21:01:30.813369  5613 net.cpp:157] Top shape: 4 6 48 48 (55296)
I1009 21:01:30.813372  5613 net.cpp:157] Top shape: 4 6 48 48 (55296)
I1009 21:01:30.813374  5613 net.cpp:165] Memory required for data: 44066304
I1009 21:01:30.813379  5613 layer_factory.hpp:77] Creating layer label_2_7x7_data_4_split
I1009 21:01:30.813385  5613 net.cpp:100] Creating Layer label_2_7x7_data_4_split
I1009 21:01:30.813388  5613 net.cpp:434] label_2_7x7_data_4_split <- label_2_7x7
I1009 21:01:30.813393  5613 net.cpp:408] label_2_7x7_data_4_split -> label_2_7x7_data_4_split_0
I1009 21:01:30.813400  5613 net.cpp:408] label_2_7x7_data_4_split -> label_2_7x7_data_4_split_1
I1009 21:01:30.813426  5613 net.cpp:150] Setting up label_2_7x7_data_4_split
I1009 21:01:30.813431  5613 net.cpp:157] Top shape: 4 6 48 48 (55296)
I1009 21:01:30.813436  5613 net.cpp:157] Top shape: 4 6 48 48 (55296)
I1009 21:01:30.813439  5613 net.cpp:165] Memory required for data: 44508672
I1009 21:01:30.813442  5613 layer_factory.hpp:77] Creating layer label_3_5x5_data_5_split
I1009 21:01:30.813447  5613 net.cpp:100] Creating Layer label_3_5x5_data_5_split
I1009 21:01:30.813452  5613 net.cpp:434] label_3_5x5_data_5_split <- label_3_5x5
I1009 21:01:30.813455  5613 net.cpp:408] label_3_5x5_data_5_split -> label_3_5x5_data_5_split_0
I1009 21:01:30.813462  5613 net.cpp:408] label_3_5x5_data_5_split -> label_3_5x5_data_5_split_1
I1009 21:01:30.813488  5613 net.cpp:150] Setting up label_3_5x5_data_5_split
I1009 21:01:30.813494  5613 net.cpp:157] Top shape: 4 6 24 24 (13824)
I1009 21:01:30.813498  5613 net.cpp:157] Top shape: 4 6 24 24 (13824)
I1009 21:01:30.813501  5613 net.cpp:165] Memory required for data: 44619264
I1009 21:01:30.813504  5613 layer_factory.hpp:77] Creating layer label_3_7x7_data_6_split
I1009 21:01:30.813508  5613 net.cpp:100] Creating Layer label_3_7x7_data_6_split
I1009 21:01:30.813513  5613 net.cpp:434] label_3_7x7_data_6_split <- label_3_7x7
I1009 21:01:30.813518  5613 net.cpp:408] label_3_7x7_data_6_split -> label_3_7x7_data_6_split_0
I1009 21:01:30.813522  5613 net.cpp:408] label_3_7x7_data_6_split -> label_3_7x7_data_6_split_1
I1009 21:01:30.813551  5613 net.cpp:150] Setting up label_3_7x7_data_6_split
I1009 21:01:30.813557  5613 net.cpp:157] Top shape: 4 6 24 24 (13824)
I1009 21:01:30.813562  5613 net.cpp:157] Top shape: 4 6 24 24 (13824)
I1009 21:01:30.813565  5613 net.cpp:165] Memory required for data: 44729856
I1009 21:01:30.813568  5613 layer_factory.hpp:77] Creating layer label_4_5x5_data_7_split
I1009 21:01:30.813572  5613 net.cpp:100] Creating Layer label_4_5x5_data_7_split
I1009 21:01:30.813576  5613 net.cpp:434] label_4_5x5_data_7_split <- label_4_5x5
I1009 21:01:30.813581  5613 net.cpp:408] label_4_5x5_data_7_split -> label_4_5x5_data_7_split_0
I1009 21:01:30.813586  5613 net.cpp:408] label_4_5x5_data_7_split -> label_4_5x5_data_7_split_1
I1009 21:01:30.813660  5613 net.cpp:150] Setting up label_4_5x5_data_7_split
I1009 21:01:30.813714  5613 net.cpp:157] Top shape: 4 6 12 12 (3456)
I1009 21:01:30.813726  5613 net.cpp:157] Top shape: 4 6 12 12 (3456)
I1009 21:01:30.813735  5613 net.cpp:165] Memory required for data: 44757504
I1009 21:01:30.813751  5613 layer_factory.hpp:77] Creating layer slice
I1009 21:01:30.813786  5613 net.cpp:100] Creating Layer slice
I1009 21:01:30.813797  5613 net.cpp:434] slice <- data
I1009 21:01:30.813812  5613 net.cpp:408] slice -> data123
I1009 21:01:30.813838  5613 net.cpp:408] slice -> ch4
I1009 21:01:30.813947  5613 net.cpp:150] Setting up slice
I1009 21:01:30.813962  5613 net.cpp:157] Top shape: 4 3 768 768 (7077888)
I1009 21:01:30.813972  5613 net.cpp:157] Top shape: 4 1 768 768 (2359296)
I1009 21:01:30.813982  5613 net.cpp:165] Memory required for data: 82506240
I1009 21:01:30.813989  5613 layer_factory.hpp:77] Creating layer silence
I1009 21:01:30.814010  5613 net.cpp:100] Creating Layer silence
I1009 21:01:30.814018  5613 net.cpp:434] silence <- ch4
I1009 21:01:30.814029  5613 net.cpp:150] Setting up silence
I1009 21:01:30.814038  5613 net.cpp:165] Memory required for data: 82506240
I1009 21:01:30.814046  5613 layer_factory.hpp:77] Creating layer conv1_1
I1009 21:01:30.814066  5613 net.cpp:100] Creating Layer conv1_1
I1009 21:01:30.814075  5613 net.cpp:434] conv1_1 <- data123
I1009 21:01:30.814086  5613 net.cpp:408] conv1_1 -> conv1_1
I1009 21:01:31.123244  5613 net.cpp:150] Setting up conv1_1
I1009 21:01:31.123270  5613 net.cpp:157] Top shape: 4 64 768 768 (150994944)
I1009 21:01:31.123275  5613 net.cpp:165] Memory required for data: 686486016
I1009 21:01:31.123291  5613 layer_factory.hpp:77] Creating layer relu1_1
I1009 21:01:31.123303  5613 net.cpp:100] Creating Layer relu1_1
I1009 21:01:31.123309  5613 net.cpp:434] relu1_1 <- conv1_1
I1009 21:01:31.123315  5613 net.cpp:395] relu1_1 -> conv1_1 (in-place)
I1009 21:01:31.123481  5613 net.cpp:150] Setting up relu1_1
I1009 21:01:31.123489  5613 net.cpp:157] Top shape: 4 64 768 768 (150994944)
I1009 21:01:31.123493  5613 net.cpp:165] Memory required for data: 1290465792
I1009 21:01:31.123497  5613 layer_factory.hpp:77] Creating layer conv1_2
I1009 21:01:31.123505  5613 net.cpp:100] Creating Layer conv1_2
I1009 21:01:31.123510  5613 net.cpp:434] conv1_2 <- conv1_1
I1009 21:01:31.123515  5613 net.cpp:408] conv1_2 -> conv1_2
I1009 21:01:31.125532  5613 net.cpp:150] Setting up conv1_2
I1009 21:01:31.125548  5613 net.cpp:157] Top shape: 4 64 768 768 (150994944)
I1009 21:01:31.125552  5613 net.cpp:165] Memory required for data: 1894445568
I1009 21:01:31.125561  5613 layer_factory.hpp:77] Creating layer relu1_2
I1009 21:01:31.125568  5613 net.cpp:100] Creating Layer relu1_2
I1009 21:01:31.125572  5613 net.cpp:434] relu1_2 <- conv1_2
I1009 21:01:31.125577  5613 net.cpp:395] relu1_2 -> conv1_2 (in-place)
I1009 21:01:31.125733  5613 net.cpp:150] Setting up relu1_2
I1009 21:01:31.125742  5613 net.cpp:157] Top shape: 4 64 768 768 (150994944)
I1009 21:01:31.125746  5613 net.cpp:165] Memory required for data: 2498425344
I1009 21:01:31.125751  5613 layer_factory.hpp:77] Creating layer pool1
I1009 21:01:31.125757  5613 net.cpp:100] Creating Layer pool1
I1009 21:01:31.125762  5613 net.cpp:434] pool1 <- conv1_2
I1009 21:01:31.125767  5613 net.cpp:408] pool1 -> pool1
I1009 21:01:31.125813  5613 net.cpp:150] Setting up pool1
I1009 21:01:31.125818  5613 net.cpp:157] Top shape: 4 64 384 384 (37748736)
I1009 21:01:31.125823  5613 net.cpp:165] Memory required for data: 2649420288
I1009 21:01:31.125825  5613 layer_factory.hpp:77] Creating layer conv2_1
I1009 21:01:31.125833  5613 net.cpp:100] Creating Layer conv2_1
I1009 21:01:31.125838  5613 net.cpp:434] conv2_1 <- pool1
I1009 21:01:31.125843  5613 net.cpp:408] conv2_1 -> conv2_1
I1009 21:01:31.128654  5613 net.cpp:150] Setting up conv2_1
I1009 21:01:31.128677  5613 net.cpp:157] Top shape: 4 128 384 384 (75497472)
I1009 21:01:31.128681  5613 net.cpp:165] Memory required for data: 2951410176
I1009 21:01:31.128693  5613 layer_factory.hpp:77] Creating layer relu2_1
I1009 21:01:31.128705  5613 net.cpp:100] Creating Layer relu2_1
I1009 21:01:31.128711  5613 net.cpp:434] relu2_1 <- conv2_1
I1009 21:01:31.128718  5613 net.cpp:395] relu2_1 -> conv2_1 (in-place)
I1009 21:01:31.128880  5613 net.cpp:150] Setting up relu2_1
I1009 21:01:31.128887  5613 net.cpp:157] Top shape: 4 128 384 384 (75497472)
I1009 21:01:31.128891  5613 net.cpp:165] Memory required for data: 3253400064
I1009 21:01:31.128895  5613 layer_factory.hpp:77] Creating layer conv2_2
I1009 21:01:31.128903  5613 net.cpp:100] Creating Layer conv2_2
I1009 21:01:31.128908  5613 net.cpp:434] conv2_2 <- conv2_1
I1009 21:01:31.128913  5613 net.cpp:408] conv2_2 -> conv2_2
I1009 21:01:31.130270  5613 net.cpp:150] Setting up conv2_2
I1009 21:01:31.130283  5613 net.cpp:157] Top shape: 4 128 384 384 (75497472)
I1009 21:01:31.130287  5613 net.cpp:165] Memory required for data: 3555389952
I1009 21:01:31.130295  5613 layer_factory.hpp:77] Creating layer relu2_2
I1009 21:01:31.130301  5613 net.cpp:100] Creating Layer relu2_2
I1009 21:01:31.130306  5613 net.cpp:434] relu2_2 <- conv2_2
I1009 21:01:31.130311  5613 net.cpp:395] relu2_2 -> conv2_2 (in-place)
I1009 21:01:31.130458  5613 net.cpp:150] Setting up relu2_2
I1009 21:01:31.130467  5613 net.cpp:157] Top shape: 4 128 384 384 (75497472)
I1009 21:01:31.130471  5613 net.cpp:165] Memory required for data: 3857379840
I1009 21:01:31.130475  5613 layer_factory.hpp:77] Creating layer pool2
I1009 21:01:31.130481  5613 net.cpp:100] Creating Layer pool2
I1009 21:01:31.130486  5613 net.cpp:434] pool2 <- conv2_2
I1009 21:01:31.130492  5613 net.cpp:408] pool2 -> pool2
I1009 21:01:31.130527  5613 net.cpp:150] Setting up pool2
I1009 21:01:31.130532  5613 net.cpp:157] Top shape: 4 128 192 192 (18874368)
I1009 21:01:31.130537  5613 net.cpp:165] Memory required for data: 3932877312
I1009 21:01:31.130540  5613 layer_factory.hpp:77] Creating layer conv3_1
I1009 21:01:31.130548  5613 net.cpp:100] Creating Layer conv3_1
I1009 21:01:31.130551  5613 net.cpp:434] conv3_1 <- pool2
I1009 21:01:31.130558  5613 net.cpp:408] conv3_1 -> conv3_1
I1009 21:01:31.132887  5613 net.cpp:150] Setting up conv3_1
I1009 21:01:31.132902  5613 net.cpp:157] Top shape: 4 256 192 192 (37748736)
I1009 21:01:31.132906  5613 net.cpp:165] Memory required for data: 4083872256
I1009 21:01:31.132920  5613 layer_factory.hpp:77] Creating layer relu3_1
I1009 21:01:31.132928  5613 net.cpp:100] Creating Layer relu3_1
I1009 21:01:31.132932  5613 net.cpp:434] relu3_1 <- conv3_1
I1009 21:01:31.132941  5613 net.cpp:395] relu3_1 -> conv3_1 (in-place)
I1009 21:01:31.133405  5613 net.cpp:150] Setting up relu3_1
I1009 21:01:31.133419  5613 net.cpp:157] Top shape: 4 256 192 192 (37748736)
I1009 21:01:31.133422  5613 net.cpp:165] Memory required for data: 4234867200
I1009 21:01:31.133426  5613 layer_factory.hpp:77] Creating layer conv3_2
I1009 21:01:31.133437  5613 net.cpp:100] Creating Layer conv3_2
I1009 21:01:31.133442  5613 net.cpp:434] conv3_2 <- conv3_1
I1009 21:01:31.133450  5613 net.cpp:408] conv3_2 -> conv3_2
I1009 21:01:31.135732  5613 net.cpp:150] Setting up conv3_2
I1009 21:01:31.135747  5613 net.cpp:157] Top shape: 4 256 192 192 (37748736)
I1009 21:01:31.135751  5613 net.cpp:165] Memory required for data: 4385862144
I1009 21:01:31.135761  5613 layer_factory.hpp:77] Creating layer relu3_2
I1009 21:01:31.135766  5613 net.cpp:100] Creating Layer relu3_2
I1009 21:01:31.135771  5613 net.cpp:434] relu3_2 <- conv3_2
I1009 21:01:31.135778  5613 net.cpp:395] relu3_2 -> conv3_2 (in-place)
I1009 21:01:31.136234  5613 net.cpp:150] Setting up relu3_2
I1009 21:01:31.136246  5613 net.cpp:157] Top shape: 4 256 192 192 (37748736)
I1009 21:01:31.136251  5613 net.cpp:165] Memory required for data: 4536857088
I1009 21:01:31.136255  5613 layer_factory.hpp:77] Creating layer conv3_3
I1009 21:01:31.136265  5613 net.cpp:100] Creating Layer conv3_3
I1009 21:01:31.136270  5613 net.cpp:434] conv3_3 <- conv3_2
I1009 21:01:31.136276  5613 net.cpp:408] conv3_3 -> conv3_3
I1009 21:01:31.138960  5613 net.cpp:150] Setting up conv3_3
I1009 21:01:31.138978  5613 net.cpp:157] Top shape: 4 256 192 192 (37748736)
I1009 21:01:31.138983  5613 net.cpp:165] Memory required for data: 4687852032
I1009 21:01:31.138990  5613 layer_factory.hpp:77] Creating layer relu3_3
I1009 21:01:31.138999  5613 net.cpp:100] Creating Layer relu3_3
I1009 21:01:31.139004  5613 net.cpp:434] relu3_3 <- conv3_3
I1009 21:01:31.139011  5613 net.cpp:395] relu3_3 -> conv3_3 (in-place)
I1009 21:01:31.139201  5613 net.cpp:150] Setting up relu3_3
I1009 21:01:31.139212  5613 net.cpp:157] Top shape: 4 256 192 192 (37748736)
I1009 21:01:31.139217  5613 net.cpp:165] Memory required for data: 4838846976
I1009 21:01:31.139221  5613 layer_factory.hpp:77] Creating layer pool3
I1009 21:01:31.139228  5613 net.cpp:100] Creating Layer pool3
I1009 21:01:31.139232  5613 net.cpp:434] pool3 <- conv3_3
I1009 21:01:31.139240  5613 net.cpp:408] pool3 -> pool3
I1009 21:01:31.139283  5613 net.cpp:150] Setting up pool3
I1009 21:01:31.139291  5613 net.cpp:157] Top shape: 4 256 96 96 (9437184)
I1009 21:01:31.139294  5613 net.cpp:165] Memory required for data: 4876595712
I1009 21:01:31.139298  5613 layer_factory.hpp:77] Creating layer conv4_1
I1009 21:01:31.139308  5613 net.cpp:100] Creating Layer conv4_1
I1009 21:01:31.139312  5613 net.cpp:434] conv4_1 <- pool3
I1009 21:01:31.139319  5613 net.cpp:408] conv4_1 -> conv4_1
I1009 21:01:31.144129  5613 net.cpp:150] Setting up conv4_1
I1009 21:01:31.144172  5613 net.cpp:157] Top shape: 4 512 96 96 (18874368)
I1009 21:01:31.144177  5613 net.cpp:165] Memory required for data: 4952093184
I1009 21:01:31.144192  5613 layer_factory.hpp:77] Creating layer relu4_1
I1009 21:01:31.144212  5613 net.cpp:100] Creating Layer relu4_1
I1009 21:01:31.144218  5613 net.cpp:434] relu4_1 <- conv4_1
I1009 21:01:31.144230  5613 net.cpp:395] relu4_1 -> conv4_1 (in-place)
I1009 21:01:31.144443  5613 net.cpp:150] Setting up relu4_1
I1009 21:01:31.144454  5613 net.cpp:157] Top shape: 4 512 96 96 (18874368)
I1009 21:01:31.144459  5613 net.cpp:165] Memory required for data: 5027590656
I1009 21:01:31.144464  5613 layer_factory.hpp:77] Creating layer conv4_2
I1009 21:01:31.144480  5613 net.cpp:100] Creating Layer conv4_2
I1009 21:01:31.144485  5613 net.cpp:434] conv4_2 <- conv4_1
I1009 21:01:31.144493  5613 net.cpp:408] conv4_2 -> conv4_2
I1009 21:01:31.152379  5613 net.cpp:150] Setting up conv4_2
I1009 21:01:31.152407  5613 net.cpp:157] Top shape: 4 512 96 96 (18874368)
I1009 21:01:31.152412  5613 net.cpp:165] Memory required for data: 5103088128
I1009 21:01:31.152426  5613 layer_factory.hpp:77] Creating layer relu4_2
I1009 21:01:31.152438  5613 net.cpp:100] Creating Layer relu4_2
I1009 21:01:31.152444  5613 net.cpp:434] relu4_2 <- conv4_2
I1009 21:01:31.152451  5613 net.cpp:395] relu4_2 -> conv4_2 (in-place)
I1009 21:01:31.152604  5613 net.cpp:150] Setting up relu4_2
I1009 21:01:31.152613  5613 net.cpp:157] Top shape: 4 512 96 96 (18874368)
I1009 21:01:31.152616  5613 net.cpp:165] Memory required for data: 5178585600
I1009 21:01:31.152621  5613 layer_factory.hpp:77] Creating layer conv4_3
I1009 21:01:31.152628  5613 net.cpp:100] Creating Layer conv4_3
I1009 21:01:31.152632  5613 net.cpp:434] conv4_3 <- conv4_2
I1009 21:01:31.152638  5613 net.cpp:408] conv4_3 -> conv4_3
I1009 21:01:31.158928  5613 net.cpp:150] Setting up conv4_3
I1009 21:01:31.158959  5613 net.cpp:157] Top shape: 4 512 96 96 (18874368)
I1009 21:01:31.158964  5613 net.cpp:165] Memory required for data: 5254083072
I1009 21:01:31.158973  5613 layer_factory.hpp:77] Creating layer relu4_3
I1009 21:01:31.158989  5613 net.cpp:100] Creating Layer relu4_3
I1009 21:01:31.158994  5613 net.cpp:434] relu4_3 <- conv4_3
I1009 21:01:31.159001  5613 net.cpp:395] relu4_3 -> conv4_3 (in-place)
I1009 21:01:31.159166  5613 net.cpp:150] Setting up relu4_3
I1009 21:01:31.159175  5613 net.cpp:157] Top shape: 4 512 96 96 (18874368)
I1009 21:01:31.159180  5613 net.cpp:165] Memory required for data: 5329580544
I1009 21:01:31.159183  5613 layer_factory.hpp:77] Creating layer conv4_3_relu4_3_0_split
I1009 21:01:31.159189  5613 net.cpp:100] Creating Layer conv4_3_relu4_3_0_split
I1009 21:01:31.159193  5613 net.cpp:434] conv4_3_relu4_3_0_split <- conv4_3
I1009 21:01:31.159198  5613 net.cpp:408] conv4_3_relu4_3_0_split -> conv4_3_relu4_3_0_split_0
I1009 21:01:31.159205  5613 net.cpp:408] conv4_3_relu4_3_0_split -> conv4_3_relu4_3_0_split_1
I1009 21:01:31.159240  5613 net.cpp:150] Setting up conv4_3_relu4_3_0_split
I1009 21:01:31.159247  5613 net.cpp:157] Top shape: 4 512 96 96 (18874368)
I1009 21:01:31.159252  5613 net.cpp:157] Top shape: 4 512 96 96 (18874368)
I1009 21:01:31.159255  5613 net.cpp:165] Memory required for data: 5480575488
I1009 21:01:31.159258  5613 layer_factory.hpp:77] Creating layer loss1_conv1
I1009 21:01:31.159271  5613 net.cpp:100] Creating Layer loss1_conv1
I1009 21:01:31.159273  5613 net.cpp:434] loss1_conv1 <- conv4_3_relu4_3_0_split_0
I1009 21:01:31.159281  5613 net.cpp:408] loss1_conv1 -> loss1_conv1
I1009 21:01:31.233433  5613 net.cpp:150] Setting up loss1_conv1
I1009 21:01:31.233476  5613 net.cpp:157] Top shape: 4 512 96 96 (18874368)
I1009 21:01:31.233480  5613 net.cpp:165] Memory required for data: 5556072960
I1009 21:01:31.233494  5613 layer_factory.hpp:77] Creating layer loss_relu1
I1009 21:01:31.233511  5613 net.cpp:100] Creating Layer loss_relu1
I1009 21:01:31.233518  5613 net.cpp:434] loss_relu1 <- loss1_conv1
I1009 21:01:31.233526  5613 net.cpp:395] loss_relu1 -> loss1_conv1 (in-place)
I1009 21:01:31.234280  5613 net.cpp:150] Setting up loss_relu1
I1009 21:01:31.234295  5613 net.cpp:157] Top shape: 4 512 96 96 (18874368)
I1009 21:01:31.234299  5613 net.cpp:165] Memory required for data: 5631570432
I1009 21:01:31.234303  5613 layer_factory.hpp:77] Creating layer loss1_conv1_loss_relu1_0_split
I1009 21:01:31.234314  5613 net.cpp:100] Creating Layer loss1_conv1_loss_relu1_0_split
I1009 21:01:31.234318  5613 net.cpp:434] loss1_conv1_loss_relu1_0_split <- loss1_conv1
I1009 21:01:31.234324  5613 net.cpp:408] loss1_conv1_loss_relu1_0_split -> loss1_conv1_loss_relu1_0_split_0
I1009 21:01:31.234333  5613 net.cpp:408] loss1_conv1_loss_relu1_0_split -> loss1_conv1_loss_relu1_0_split_1
I1009 21:01:31.234400  5613 net.cpp:150] Setting up loss1_conv1_loss_relu1_0_split
I1009 21:01:31.234406  5613 net.cpp:157] Top shape: 4 512 96 96 (18874368)
I1009 21:01:31.234411  5613 net.cpp:157] Top shape: 4 512 96 96 (18874368)
I1009 21:01:31.234413  5613 net.cpp:165] Memory required for data: 5782565376
I1009 21:01:31.234416  5613 layer_factory.hpp:77] Creating layer LFCN_1_5x5
I1009 21:01:31.234433  5613 net.cpp:100] Creating Layer LFCN_1_5x5
I1009 21:01:31.234437  5613 net.cpp:434] LFCN_1_5x5 <- loss1_conv1_loss_relu1_0_split_0
I1009 21:01:31.234444  5613 net.cpp:408] LFCN_1_5x5 -> LFCN_1_5x5
I1009 21:01:31.238600  5613 net.cpp:150] Setting up LFCN_1_5x5
I1009 21:01:31.238646  5613 net.cpp:157] Top shape: 4 9 96 96 (331776)
I1009 21:01:31.238651  5613 net.cpp:165] Memory required for data: 5783892480
I1009 21:01:31.238662  5613 layer_factory.hpp:77] Creating layer LFCN_1_5x5_LFCN_1_5x5_0_split
I1009 21:01:31.238677  5613 net.cpp:100] Creating Layer LFCN_1_5x5_LFCN_1_5x5_0_split
I1009 21:01:31.238684  5613 net.cpp:434] LFCN_1_5x5_LFCN_1_5x5_0_split <- LFCN_1_5x5
I1009 21:01:31.238692  5613 net.cpp:408] LFCN_1_5x5_LFCN_1_5x5_0_split -> LFCN_1_5x5_LFCN_1_5x5_0_split_0
I1009 21:01:31.238700  5613 net.cpp:408] LFCN_1_5x5_LFCN_1_5x5_0_split -> LFCN_1_5x5_LFCN_1_5x5_0_split_1
I1009 21:01:31.238737  5613 net.cpp:150] Setting up LFCN_1_5x5_LFCN_1_5x5_0_split
I1009 21:01:31.238742  5613 net.cpp:157] Top shape: 4 9 96 96 (331776)
I1009 21:01:31.238746  5613 net.cpp:157] Top shape: 4 9 96 96 (331776)
I1009 21:01:31.238749  5613 net.cpp:165] Memory required for data: 5786546688
I1009 21:01:31.238752  5613 layer_factory.hpp:77] Creating layer detection_loss_1_5x5
I1009 21:01:31.238761  5613 net.cpp:100] Creating Layer detection_loss_1_5x5
I1009 21:01:31.238765  5613 net.cpp:434] detection_loss_1_5x5 <- LFCN_1_5x5_LFCN_1_5x5_0_split_0
I1009 21:01:31.238770  5613 net.cpp:434] detection_loss_1_5x5 <- label_1_5x5_data_1_split_0
I1009 21:01:31.238777  5613 net.cpp:408] detection_loss_1_5x5 -> loss_1_5x5
I1009 21:01:31.238804  5613 layer_factory.hpp:77] Creating layer detection_loss_1_5x5
I1009 21:01:31.241327  5613 net.cpp:150] Setting up detection_loss_1_5x5
I1009 21:01:31.241390  5613 net.cpp:157] Top shape: 1 1 1 2 (2)
I1009 21:01:31.241394  5613 net.cpp:160]     with loss weight 0.9
I1009 21:01:31.241436  5613 net.cpp:165] Memory required for data: 5786546696
I1009 21:01:31.241444  5613 layer_factory.hpp:77] Creating layer detection_accuracy_1_5x5
I1009 21:01:31.241470  5613 net.cpp:100] Creating Layer detection_accuracy_1_5x5
I1009 21:01:31.241482  5613 net.cpp:434] detection_accuracy_1_5x5 <- LFCN_1_5x5_LFCN_1_5x5_0_split_1
I1009 21:01:31.241492  5613 net.cpp:434] detection_accuracy_1_5x5 <- label_1_5x5_data_1_split_1
I1009 21:01:31.241503  5613 net.cpp:408] detection_accuracy_1_5x5 -> accuracy_1_5x5
I1009 21:01:31.241515  5613 net.cpp:408] detection_accuracy_1_5x5 -> boxiou_1_5x5
I1009 21:01:31.241569  5613 net.cpp:150] Setting up detection_accuracy_1_5x5
I1009 21:01:31.241575  5613 net.cpp:157] Top shape: 1 1 1 2 (2)
I1009 21:01:31.241580  5613 net.cpp:157] Top shape: 1 1 1 1 (1)
I1009 21:01:31.241583  5613 net.cpp:165] Memory required for data: 5786546708
I1009 21:01:31.241586  5613 layer_factory.hpp:77] Creating layer LFCN_1_7x7
I1009 21:01:31.241605  5613 net.cpp:100] Creating Layer LFCN_1_7x7
I1009 21:01:31.241609  5613 net.cpp:434] LFCN_1_7x7 <- loss1_conv1_loss_relu1_0_split_1
I1009 21:01:31.241617  5613 net.cpp:408] LFCN_1_7x7 -> LFCN_1_7x7
I1009 21:01:31.250250  5613 net.cpp:150] Setting up LFCN_1_7x7
I1009 21:01:31.250277  5613 net.cpp:157] Top shape: 4 9 96 96 (331776)
I1009 21:01:31.250280  5613 net.cpp:165] Memory required for data: 5787873812
I1009 21:01:31.250289  5613 layer_factory.hpp:77] Creating layer LFCN_1_7x7_LFCN_1_7x7_0_split
I1009 21:01:31.250300  5613 net.cpp:100] Creating Layer LFCN_1_7x7_LFCN_1_7x7_0_split
I1009 21:01:31.250306  5613 net.cpp:434] LFCN_1_7x7_LFCN_1_7x7_0_split <- LFCN_1_7x7
I1009 21:01:31.250313  5613 net.cpp:408] LFCN_1_7x7_LFCN_1_7x7_0_split -> LFCN_1_7x7_LFCN_1_7x7_0_split_0
I1009 21:01:31.250320  5613 net.cpp:408] LFCN_1_7x7_LFCN_1_7x7_0_split -> LFCN_1_7x7_LFCN_1_7x7_0_split_1
I1009 21:01:31.250361  5613 net.cpp:150] Setting up LFCN_1_7x7_LFCN_1_7x7_0_split
I1009 21:01:31.250368  5613 net.cpp:157] Top shape: 4 9 96 96 (331776)
I1009 21:01:31.250372  5613 net.cpp:157] Top shape: 4 9 96 96 (331776)
I1009 21:01:31.250376  5613 net.cpp:165] Memory required for data: 5790528020
I1009 21:01:31.250380  5613 layer_factory.hpp:77] Creating layer detection_loss_1_7x7
I1009 21:01:31.250386  5613 net.cpp:100] Creating Layer detection_loss_1_7x7
I1009 21:01:31.250391  5613 net.cpp:434] detection_loss_1_7x7 <- LFCN_1_7x7_LFCN_1_7x7_0_split_0
I1009 21:01:31.250396  5613 net.cpp:434] detection_loss_1_7x7 <- label_1_7x7_data_2_split_0
I1009 21:01:31.250402  5613 net.cpp:408] detection_loss_1_7x7 -> loss_1_7x7
I1009 21:01:31.250411  5613 layer_factory.hpp:77] Creating layer detection_loss_1_7x7
I1009 21:01:31.251922  5613 net.cpp:150] Setting up detection_loss_1_7x7
I1009 21:01:31.251943  5613 net.cpp:157] Top shape: 1 1 1 2 (2)
I1009 21:01:31.251948  5613 net.cpp:160]     with loss weight 0.9
I1009 21:01:31.251962  5613 net.cpp:165] Memory required for data: 5790528028
I1009 21:01:31.251967  5613 layer_factory.hpp:77] Creating layer detection_accuracy_1_7x7
I1009 21:01:31.251979  5613 net.cpp:100] Creating Layer detection_accuracy_1_7x7
I1009 21:01:31.251987  5613 net.cpp:434] detection_accuracy_1_7x7 <- LFCN_1_7x7_LFCN_1_7x7_0_split_1
I1009 21:01:31.251994  5613 net.cpp:434] detection_accuracy_1_7x7 <- label_1_7x7_data_2_split_1
I1009 21:01:31.252005  5613 net.cpp:408] detection_accuracy_1_7x7 -> accuracy_1_7x7
I1009 21:01:31.252017  5613 net.cpp:408] detection_accuracy_1_7x7 -> boxiou_1_7x7
I1009 21:01:31.252061  5613 net.cpp:150] Setting up detection_accuracy_1_7x7
I1009 21:01:31.252070  5613 net.cpp:157] Top shape: 1 1 1 2 (2)
I1009 21:01:31.252076  5613 net.cpp:157] Top shape: 1 1 1 1 (1)
I1009 21:01:31.252080  5613 net.cpp:165] Memory required for data: 5790528040
I1009 21:01:31.252085  5613 layer_factory.hpp:77] Creating layer pool4
I1009 21:01:31.252094  5613 net.cpp:100] Creating Layer pool4
I1009 21:01:31.252100  5613 net.cpp:434] pool4 <- conv4_3_relu4_3_0_split_1
I1009 21:01:31.252111  5613 net.cpp:408] pool4 -> pool4
I1009 21:01:31.252154  5613 net.cpp:150] Setting up pool4
I1009 21:01:31.252162  5613 net.cpp:157] Top shape: 4 512 48 48 (4718592)
I1009 21:01:31.252167  5613 net.cpp:165] Memory required for data: 5809402408
I1009 21:01:31.252171  5613 layer_factory.hpp:77] Creating layer conv5_1
I1009 21:01:31.252183  5613 net.cpp:100] Creating Layer conv5_1
I1009 21:01:31.252187  5613 net.cpp:434] conv5_1 <- pool4
I1009 21:01:31.252195  5613 net.cpp:408] conv5_1 -> conv5_1
I1009 21:01:31.257815  5613 net.cpp:150] Setting up conv5_1
I1009 21:01:31.257848  5613 net.cpp:157] Top shape: 4 512 48 48 (4718592)
I1009 21:01:31.257853  5613 net.cpp:165] Memory required for data: 5828276776
I1009 21:01:31.257863  5613 layer_factory.hpp:77] Creating layer relu5_1
I1009 21:01:31.257876  5613 net.cpp:100] Creating Layer relu5_1
I1009 21:01:31.257884  5613 net.cpp:434] relu5_1 <- conv5_1
I1009 21:01:31.257894  5613 net.cpp:395] relu5_1 -> conv5_1 (in-place)
I1009 21:01:31.258051  5613 net.cpp:150] Setting up relu5_1
I1009 21:01:31.258062  5613 net.cpp:157] Top shape: 4 512 48 48 (4718592)
I1009 21:01:31.258067  5613 net.cpp:165] Memory required for data: 5847151144
I1009 21:01:31.258072  5613 layer_factory.hpp:77] Creating layer conv5_2
I1009 21:01:31.258085  5613 net.cpp:100] Creating Layer conv5_2
I1009 21:01:31.258119  5613 net.cpp:434] conv5_2 <- conv5_1
I1009 21:01:31.258129  5613 net.cpp:408] conv5_2 -> conv5_2
I1009 21:01:31.264277  5613 net.cpp:150] Setting up conv5_2
I1009 21:01:31.264310  5613 net.cpp:157] Top shape: 4 512 48 48 (4718592)
I1009 21:01:31.264317  5613 net.cpp:165] Memory required for data: 5866025512
I1009 21:01:31.264328  5613 layer_factory.hpp:77] Creating layer relu5_2
I1009 21:01:31.264343  5613 net.cpp:100] Creating Layer relu5_2
I1009 21:01:31.264349  5613 net.cpp:434] relu5_2 <- conv5_2
I1009 21:01:31.264356  5613 net.cpp:395] relu5_2 -> conv5_2 (in-place)
I1009 21:01:31.264499  5613 net.cpp:150] Setting up relu5_2
I1009 21:01:31.264509  5613 net.cpp:157] Top shape: 4 512 48 48 (4718592)
I1009 21:01:31.264513  5613 net.cpp:165] Memory required for data: 5884899880
I1009 21:01:31.264518  5613 layer_factory.hpp:77] Creating layer conv5_3
I1009 21:01:31.264529  5613 net.cpp:100] Creating Layer conv5_3
I1009 21:01:31.264535  5613 net.cpp:434] conv5_3 <- conv5_2
I1009 21:01:31.264544  5613 net.cpp:408] conv5_3 -> conv5_3
I1009 21:01:31.270592  5613 net.cpp:150] Setting up conv5_3
I1009 21:01:31.270622  5613 net.cpp:157] Top shape: 4 512 48 48 (4718592)
I1009 21:01:31.270628  5613 net.cpp:165] Memory required for data: 5903774248
I1009 21:01:31.270642  5613 layer_factory.hpp:77] Creating layer relu5_3
I1009 21:01:31.270654  5613 net.cpp:100] Creating Layer relu5_3
I1009 21:01:31.270663  5613 net.cpp:434] relu5_3 <- conv5_3
I1009 21:01:31.270674  5613 net.cpp:395] relu5_3 -> conv5_3 (in-place)
I1009 21:01:31.270843  5613 net.cpp:150] Setting up relu5_3
I1009 21:01:31.270855  5613 net.cpp:157] Top shape: 4 512 48 48 (4718592)
I1009 21:01:31.270859  5613 net.cpp:165] Memory required for data: 5922648616
I1009 21:01:31.270864  5613 layer_factory.hpp:77] Creating layer conv5_3_relu5_3_0_split
I1009 21:01:31.270872  5613 net.cpp:100] Creating Layer conv5_3_relu5_3_0_split
I1009 21:01:31.270879  5613 net.cpp:434] conv5_3_relu5_3_0_split <- conv5_3
I1009 21:01:31.270889  5613 net.cpp:408] conv5_3_relu5_3_0_split -> conv5_3_relu5_3_0_split_0
I1009 21:01:31.270900  5613 net.cpp:408] conv5_3_relu5_3_0_split -> conv5_3_relu5_3_0_split_1
I1009 21:01:31.270910  5613 net.cpp:408] conv5_3_relu5_3_0_split -> conv5_3_relu5_3_0_split_2
I1009 21:01:31.270965  5613 net.cpp:150] Setting up conv5_3_relu5_3_0_split
I1009 21:01:31.270974  5613 net.cpp:157] Top shape: 4 512 48 48 (4718592)
I1009 21:01:31.270980  5613 net.cpp:157] Top shape: 4 512 48 48 (4718592)
I1009 21:01:31.270987  5613 net.cpp:157] Top shape: 4 512 48 48 (4718592)
I1009 21:01:31.270990  5613 net.cpp:165] Memory required for data: 5979271720
I1009 21:01:31.270995  5613 layer_factory.hpp:77] Creating layer LFCN_2_5x5
I1009 21:01:31.271010  5613 net.cpp:100] Creating Layer LFCN_2_5x5
I1009 21:01:31.271016  5613 net.cpp:434] LFCN_2_5x5 <- conv5_3_relu5_3_0_split_0
I1009 21:01:31.271025  5613 net.cpp:408] LFCN_2_5x5 -> LFCN_2_5x5
I1009 21:01:31.274807  5613 net.cpp:150] Setting up LFCN_2_5x5
I1009 21:01:31.274821  5613 net.cpp:157] Top shape: 4 9 48 48 (82944)
I1009 21:01:31.274827  5613 net.cpp:165] Memory required for data: 5979603496
I1009 21:01:31.274844  5613 layer_factory.hpp:77] Creating layer LFCN_2_5x5_LFCN_2_5x5_0_split
I1009 21:01:31.274853  5613 net.cpp:100] Creating Layer LFCN_2_5x5_LFCN_2_5x5_0_split
I1009 21:01:31.274859  5613 net.cpp:434] LFCN_2_5x5_LFCN_2_5x5_0_split <- LFCN_2_5x5
I1009 21:01:31.274866  5613 net.cpp:408] LFCN_2_5x5_LFCN_2_5x5_0_split -> LFCN_2_5x5_LFCN_2_5x5_0_split_0
I1009 21:01:31.274875  5613 net.cpp:408] LFCN_2_5x5_LFCN_2_5x5_0_split -> LFCN_2_5x5_LFCN_2_5x5_0_split_1
I1009 21:01:31.274917  5613 net.cpp:150] Setting up LFCN_2_5x5_LFCN_2_5x5_0_split
I1009 21:01:31.274927  5613 net.cpp:157] Top shape: 4 9 48 48 (82944)
I1009 21:01:31.274933  5613 net.cpp:157] Top shape: 4 9 48 48 (82944)
I1009 21:01:31.274938  5613 net.cpp:165] Memory required for data: 5980267048
I1009 21:01:31.274942  5613 layer_factory.hpp:77] Creating layer detection_loss_2_5x5
I1009 21:01:31.274952  5613 net.cpp:100] Creating Layer detection_loss_2_5x5
I1009 21:01:31.274960  5613 net.cpp:434] detection_loss_2_5x5 <- LFCN_2_5x5_LFCN_2_5x5_0_split_0
I1009 21:01:31.274966  5613 net.cpp:434] detection_loss_2_5x5 <- label_2_5x5_data_3_split_0
I1009 21:01:31.274974  5613 net.cpp:408] detection_loss_2_5x5 -> loss_2_5x5
I1009 21:01:31.274994  5613 layer_factory.hpp:77] Creating layer detection_loss_2_5x5
I1009 21:01:31.276441  5613 net.cpp:150] Setting up detection_loss_2_5x5
I1009 21:01:31.276456  5613 net.cpp:157] Top shape: 1 1 1 2 (2)
I1009 21:01:31.276461  5613 net.cpp:160]     with loss weight 1
I1009 21:01:31.276476  5613 net.cpp:165] Memory required for data: 5980267056
I1009 21:01:31.276482  5613 layer_factory.hpp:77] Creating layer detection_accuracy_2_5x5
I1009 21:01:31.276492  5613 net.cpp:100] Creating Layer detection_accuracy_2_5x5
I1009 21:01:31.276499  5613 net.cpp:434] detection_accuracy_2_5x5 <- LFCN_2_5x5_LFCN_2_5x5_0_split_1
I1009 21:01:31.276506  5613 net.cpp:434] detection_accuracy_2_5x5 <- label_2_5x5_data_3_split_1
I1009 21:01:31.276515  5613 net.cpp:408] detection_accuracy_2_5x5 -> accuracy_2_5x5
I1009 21:01:31.276527  5613 net.cpp:408] detection_accuracy_2_5x5 -> boxiou_2_5x5
I1009 21:01:31.276572  5613 net.cpp:150] Setting up detection_accuracy_2_5x5
I1009 21:01:31.276582  5613 net.cpp:157] Top shape: 1 1 1 2 (2)
I1009 21:01:31.276588  5613 net.cpp:157] Top shape: 1 1 1 1 (1)
I1009 21:01:31.276593  5613 net.cpp:165] Memory required for data: 5980267068
I1009 21:01:31.276598  5613 layer_factory.hpp:77] Creating layer LFCN_2_7x7
I1009 21:01:31.276609  5613 net.cpp:100] Creating Layer LFCN_2_7x7
I1009 21:01:31.276616  5613 net.cpp:434] LFCN_2_7x7 <- conv5_3_relu5_3_0_split_1
I1009 21:01:31.276624  5613 net.cpp:408] LFCN_2_7x7 -> LFCN_2_7x7
I1009 21:01:31.283447  5613 net.cpp:150] Setting up LFCN_2_7x7
I1009 21:01:31.283463  5613 net.cpp:157] Top shape: 4 9 48 48 (82944)
I1009 21:01:31.283468  5613 net.cpp:165] Memory required for data: 5980598844
I1009 21:01:31.283478  5613 layer_factory.hpp:77] Creating layer LFCN_2_7x7_LFCN_2_7x7_0_split
I1009 21:01:31.283488  5613 net.cpp:100] Creating Layer LFCN_2_7x7_LFCN_2_7x7_0_split
I1009 21:01:31.283494  5613 net.cpp:434] LFCN_2_7x7_LFCN_2_7x7_0_split <- LFCN_2_7x7
I1009 21:01:31.283502  5613 net.cpp:408] LFCN_2_7x7_LFCN_2_7x7_0_split -> LFCN_2_7x7_LFCN_2_7x7_0_split_0
I1009 21:01:31.283512  5613 net.cpp:408] LFCN_2_7x7_LFCN_2_7x7_0_split -> LFCN_2_7x7_LFCN_2_7x7_0_split_1
I1009 21:01:31.283556  5613 net.cpp:150] Setting up LFCN_2_7x7_LFCN_2_7x7_0_split
I1009 21:01:31.283566  5613 net.cpp:157] Top shape: 4 9 48 48 (82944)
I1009 21:01:31.283572  5613 net.cpp:157] Top shape: 4 9 48 48 (82944)
I1009 21:01:31.283576  5613 net.cpp:165] Memory required for data: 5981262396
I1009 21:01:31.283581  5613 layer_factory.hpp:77] Creating layer detection_loss_2_7x7
I1009 21:01:31.283591  5613 net.cpp:100] Creating Layer detection_loss_2_7x7
I1009 21:01:31.283597  5613 net.cpp:434] detection_loss_2_7x7 <- LFCN_2_7x7_LFCN_2_7x7_0_split_0
I1009 21:01:31.283604  5613 net.cpp:434] detection_loss_2_7x7 <- label_2_7x7_data_4_split_0
I1009 21:01:31.283614  5613 net.cpp:408] detection_loss_2_7x7 -> loss_2_7x7
I1009 21:01:31.283627  5613 layer_factory.hpp:77] Creating layer detection_loss_2_7x7
I1009 21:01:31.284304  5613 net.cpp:150] Setting up detection_loss_2_7x7
I1009 21:01:31.284319  5613 net.cpp:157] Top shape: 1 1 1 2 (2)
I1009 21:01:31.284324  5613 net.cpp:160]     with loss weight 1
I1009 21:01:31.284337  5613 net.cpp:165] Memory required for data: 5981262404
I1009 21:01:31.284341  5613 layer_factory.hpp:77] Creating layer detection_accuracy_2_7x7
I1009 21:01:31.284351  5613 net.cpp:100] Creating Layer detection_accuracy_2_7x7
I1009 21:01:31.284358  5613 net.cpp:434] detection_accuracy_2_7x7 <- LFCN_2_7x7_LFCN_2_7x7_0_split_1
I1009 21:01:31.284365  5613 net.cpp:434] detection_accuracy_2_7x7 <- label_2_7x7_data_4_split_1
I1009 21:01:31.284376  5613 net.cpp:408] detection_accuracy_2_7x7 -> accuracy_2_7x7
I1009 21:01:31.284387  5613 net.cpp:408] detection_accuracy_2_7x7 -> boxiou_2_7x7
I1009 21:01:31.284435  5613 net.cpp:150] Setting up detection_accuracy_2_7x7
I1009 21:01:31.284443  5613 net.cpp:157] Top shape: 1 1 1 2 (2)
I1009 21:01:31.284449  5613 net.cpp:157] Top shape: 1 1 1 1 (1)
I1009 21:01:31.284453  5613 net.cpp:165] Memory required for data: 5981262416
I1009 21:01:31.284458  5613 layer_factory.hpp:77] Creating layer pool5
I1009 21:01:31.284468  5613 net.cpp:100] Creating Layer pool5
I1009 21:01:31.284476  5613 net.cpp:434] pool5 <- conv5_3_relu5_3_0_split_2
I1009 21:01:31.284485  5613 net.cpp:408] pool5 -> pool5
I1009 21:01:31.284528  5613 net.cpp:150] Setting up pool5
I1009 21:01:31.284539  5613 net.cpp:157] Top shape: 4 512 24 24 (1179648)
I1009 21:01:31.284545  5613 net.cpp:165] Memory required for data: 5985981008
I1009 21:01:31.284549  5613 layer_factory.hpp:77] Creating layer conv6_1
I1009 21:01:31.284564  5613 net.cpp:100] Creating Layer conv6_1
I1009 21:01:31.284570  5613 net.cpp:434] conv6_1 <- pool5
I1009 21:01:31.284579  5613 net.cpp:408] conv6_1 -> conv6_1
I1009 21:01:31.347498  5613 net.cpp:150] Setting up conv6_1
I1009 21:01:31.347527  5613 net.cpp:157] Top shape: 4 512 24 24 (1179648)
I1009 21:01:31.347533  5613 net.cpp:165] Memory required for data: 5990699600
I1009 21:01:31.347543  5613 layer_factory.hpp:77] Creating layer relu6_1
I1009 21:01:31.347558  5613 net.cpp:100] Creating Layer relu6_1
I1009 21:01:31.347565  5613 net.cpp:434] relu6_1 <- conv6_1
I1009 21:01:31.347574  5613 net.cpp:395] relu6_1 -> conv6_1 (in-place)
I1009 21:01:31.347740  5613 net.cpp:150] Setting up relu6_1
I1009 21:01:31.347753  5613 net.cpp:157] Top shape: 4 512 24 24 (1179648)
I1009 21:01:31.347756  5613 net.cpp:165] Memory required for data: 5995418192
I1009 21:01:31.347761  5613 layer_factory.hpp:77] Creating layer conv6_1_relu6_1_0_split
I1009 21:01:31.347779  5613 net.cpp:100] Creating Layer conv6_1_relu6_1_0_split
I1009 21:01:31.347785  5613 net.cpp:434] conv6_1_relu6_1_0_split <- conv6_1
I1009 21:01:31.347793  5613 net.cpp:408] conv6_1_relu6_1_0_split -> conv6_1_relu6_1_0_split_0
I1009 21:01:31.347802  5613 net.cpp:408] conv6_1_relu6_1_0_split -> conv6_1_relu6_1_0_split_1
I1009 21:01:31.347812  5613 net.cpp:408] conv6_1_relu6_1_0_split -> conv6_1_relu6_1_0_split_2
I1009 21:01:31.347877  5613 net.cpp:150] Setting up conv6_1_relu6_1_0_split
I1009 21:01:31.347887  5613 net.cpp:157] Top shape: 4 512 24 24 (1179648)
I1009 21:01:31.347895  5613 net.cpp:157] Top shape: 4 512 24 24 (1179648)
I1009 21:01:31.347903  5613 net.cpp:157] Top shape: 4 512 24 24 (1179648)
I1009 21:01:31.347909  5613 net.cpp:165] Memory required for data: 6009573968
I1009 21:01:31.347915  5613 layer_factory.hpp:77] Creating layer LFCN_3_5x5
I1009 21:01:31.347934  5613 net.cpp:100] Creating Layer LFCN_3_5x5
I1009 21:01:31.347941  5613 net.cpp:434] LFCN_3_5x5 <- conv6_1_relu6_1_0_split_0
I1009 21:01:31.347952  5613 net.cpp:408] LFCN_3_5x5 -> LFCN_3_5x5
I1009 21:01:31.351806  5613 net.cpp:150] Setting up LFCN_3_5x5
I1009 21:01:31.351822  5613 net.cpp:157] Top shape: 4 9 24 24 (20736)
I1009 21:01:31.351827  5613 net.cpp:165] Memory required for data: 6009656912
I1009 21:01:31.351837  5613 layer_factory.hpp:77] Creating layer LFCN_3_5x5_LFCN_3_5x5_0_split
I1009 21:01:31.351850  5613 net.cpp:100] Creating Layer LFCN_3_5x5_LFCN_3_5x5_0_split
I1009 21:01:31.351860  5613 net.cpp:434] LFCN_3_5x5_LFCN_3_5x5_0_split <- LFCN_3_5x5
I1009 21:01:31.351871  5613 net.cpp:408] LFCN_3_5x5_LFCN_3_5x5_0_split -> LFCN_3_5x5_LFCN_3_5x5_0_split_0
I1009 21:01:31.351886  5613 net.cpp:408] LFCN_3_5x5_LFCN_3_5x5_0_split -> LFCN_3_5x5_LFCN_3_5x5_0_split_1
I1009 21:01:31.351938  5613 net.cpp:150] Setting up LFCN_3_5x5_LFCN_3_5x5_0_split
I1009 21:01:31.351948  5613 net.cpp:157] Top shape: 4 9 24 24 (20736)
I1009 21:01:31.351956  5613 net.cpp:157] Top shape: 4 9 24 24 (20736)
I1009 21:01:31.351963  5613 net.cpp:165] Memory required for data: 6009822800
I1009 21:01:31.351969  5613 layer_factory.hpp:77] Creating layer detection_loss_3_5x5
I1009 21:01:31.351979  5613 net.cpp:100] Creating Layer detection_loss_3_5x5
I1009 21:01:31.351989  5613 net.cpp:434] detection_loss_3_5x5 <- LFCN_3_5x5_LFCN_3_5x5_0_split_0
I1009 21:01:31.351996  5613 net.cpp:434] detection_loss_3_5x5 <- label_3_5x5_data_5_split_0
I1009 21:01:31.352008  5613 net.cpp:408] detection_loss_3_5x5 -> loss_3_5x5
I1009 21:01:31.352023  5613 layer_factory.hpp:77] Creating layer detection_loss_3_5x5
I1009 21:01:31.352355  5613 net.cpp:150] Setting up detection_loss_3_5x5
I1009 21:01:31.352365  5613 net.cpp:157] Top shape: 1 1 1 2 (2)
I1009 21:01:31.352370  5613 net.cpp:160]     with loss weight 1
I1009 21:01:31.352385  5613 net.cpp:165] Memory required for data: 6009822808
I1009 21:01:31.352389  5613 layer_factory.hpp:77] Creating layer detection_accuracy_3_5x5
I1009 21:01:31.352399  5613 net.cpp:100] Creating Layer detection_accuracy_3_5x5
I1009 21:01:31.352406  5613 net.cpp:434] detection_accuracy_3_5x5 <- LFCN_3_5x5_LFCN_3_5x5_0_split_1
I1009 21:01:31.352412  5613 net.cpp:434] detection_accuracy_3_5x5 <- label_3_5x5_data_5_split_1
I1009 21:01:31.352421  5613 net.cpp:408] detection_accuracy_3_5x5 -> accuracy_3_5x5
I1009 21:01:31.352432  5613 net.cpp:408] detection_accuracy_3_5x5 -> boxiou_3_5x5
I1009 21:01:31.352474  5613 net.cpp:150] Setting up detection_accuracy_3_5x5
I1009 21:01:31.352484  5613 net.cpp:157] Top shape: 1 1 1 2 (2)
I1009 21:01:31.352490  5613 net.cpp:157] Top shape: 1 1 1 1 (1)
I1009 21:01:31.352494  5613 net.cpp:165] Memory required for data: 6009822820
I1009 21:01:31.352499  5613 layer_factory.hpp:77] Creating layer LFCN_3_7x7
I1009 21:01:31.352511  5613 net.cpp:100] Creating Layer LFCN_3_7x7
I1009 21:01:31.352517  5613 net.cpp:434] LFCN_3_7x7 <- conv6_1_relu6_1_0_split_1
I1009 21:01:31.352527  5613 net.cpp:408] LFCN_3_7x7 -> LFCN_3_7x7
I1009 21:01:31.360306  5613 net.cpp:150] Setting up LFCN_3_7x7
I1009 21:01:31.360334  5613 net.cpp:157] Top shape: 4 9 24 24 (20736)
I1009 21:01:31.360340  5613 net.cpp:165] Memory required for data: 6009905764
I1009 21:01:31.360352  5613 layer_factory.hpp:77] Creating layer LFCN_3_7x7_LFCN_3_7x7_0_split
I1009 21:01:31.360364  5613 net.cpp:100] Creating Layer LFCN_3_7x7_LFCN_3_7x7_0_split
I1009 21:01:31.360373  5613 net.cpp:434] LFCN_3_7x7_LFCN_3_7x7_0_split <- LFCN_3_7x7
I1009 21:01:31.360383  5613 net.cpp:408] LFCN_3_7x7_LFCN_3_7x7_0_split -> LFCN_3_7x7_LFCN_3_7x7_0_split_0
I1009 21:01:31.360396  5613 net.cpp:408] LFCN_3_7x7_LFCN_3_7x7_0_split -> LFCN_3_7x7_LFCN_3_7x7_0_split_1
I1009 21:01:31.360443  5613 net.cpp:150] Setting up LFCN_3_7x7_LFCN_3_7x7_0_split
I1009 21:01:31.360452  5613 net.cpp:157] Top shape: 4 9 24 24 (20736)
I1009 21:01:31.360458  5613 net.cpp:157] Top shape: 4 9 24 24 (20736)
I1009 21:01:31.360463  5613 net.cpp:165] Memory required for data: 6010071652
I1009 21:01:31.360467  5613 layer_factory.hpp:77] Creating layer detection_loss_3_7x7
I1009 21:01:31.360478  5613 net.cpp:100] Creating Layer detection_loss_3_7x7
I1009 21:01:31.360486  5613 net.cpp:434] detection_loss_3_7x7 <- LFCN_3_7x7_LFCN_3_7x7_0_split_0
I1009 21:01:31.360492  5613 net.cpp:434] detection_loss_3_7x7 <- label_3_7x7_data_6_split_0
I1009 21:01:31.360500  5613 net.cpp:408] detection_loss_3_7x7 -> loss_3_7x7
I1009 21:01:31.360513  5613 layer_factory.hpp:77] Creating layer detection_loss_3_7x7
I1009 21:01:31.360831  5613 net.cpp:150] Setting up detection_loss_3_7x7
I1009 21:01:31.360843  5613 net.cpp:157] Top shape: 1 1 1 2 (2)
I1009 21:01:31.360848  5613 net.cpp:160]     with loss weight 1
I1009 21:01:31.360862  5613 net.cpp:165] Memory required for data: 6010071660
I1009 21:01:31.360867  5613 layer_factory.hpp:77] Creating layer detection_accuracy_3_7x7
I1009 21:01:31.360875  5613 net.cpp:100] Creating Layer detection_accuracy_3_7x7
I1009 21:01:31.360880  5613 net.cpp:434] detection_accuracy_3_7x7 <- LFCN_3_7x7_LFCN_3_7x7_0_split_1
I1009 21:01:31.360886  5613 net.cpp:434] detection_accuracy_3_7x7 <- label_3_7x7_data_6_split_1
I1009 21:01:31.360895  5613 net.cpp:408] detection_accuracy_3_7x7 -> accuracy_3_7x7
I1009 21:01:31.360908  5613 net.cpp:408] detection_accuracy_3_7x7 -> boxiou_3_7x7
I1009 21:01:31.360952  5613 net.cpp:150] Setting up detection_accuracy_3_7x7
I1009 21:01:31.360962  5613 net.cpp:157] Top shape: 1 1 1 2 (2)
I1009 21:01:31.360967  5613 net.cpp:157] Top shape: 1 1 1 1 (1)
I1009 21:01:31.360972  5613 net.cpp:165] Memory required for data: 6010071672
I1009 21:01:31.360977  5613 layer_factory.hpp:77] Creating layer pool6
I1009 21:01:31.360986  5613 net.cpp:100] Creating Layer pool6
I1009 21:01:31.360994  5613 net.cpp:434] pool6 <- conv6_1_relu6_1_0_split_2
I1009 21:01:31.361001  5613 net.cpp:408] pool6 -> pool6
I1009 21:01:31.361043  5613 net.cpp:150] Setting up pool6
I1009 21:01:31.361052  5613 net.cpp:157] Top shape: 4 512 12 12 (294912)
I1009 21:01:31.361057  5613 net.cpp:165] Memory required for data: 6011251320
I1009 21:01:31.361061  5613 layer_factory.hpp:77] Creating layer LFCN_4_5x5
I1009 21:01:31.361073  5613 net.cpp:100] Creating Layer LFCN_4_5x5
I1009 21:01:31.361080  5613 net.cpp:434] LFCN_4_5x5 <- pool6
I1009 21:01:31.361089  5613 net.cpp:408] LFCN_4_5x5 -> LFCN_4_5x5
I1009 21:01:31.365275  5613 net.cpp:150] Setting up LFCN_4_5x5
I1009 21:01:31.365309  5613 net.cpp:157] Top shape: 4 9 12 12 (5184)
I1009 21:01:31.365315  5613 net.cpp:165] Memory required for data: 6011272056
I1009 21:01:31.365329  5613 layer_factory.hpp:77] Creating layer LFCN_4_5x5_LFCN_4_5x5_0_split
I1009 21:01:31.365344  5613 net.cpp:100] Creating Layer LFCN_4_5x5_LFCN_4_5x5_0_split
I1009 21:01:31.365353  5613 net.cpp:434] LFCN_4_5x5_LFCN_4_5x5_0_split <- LFCN_4_5x5
I1009 21:01:31.365367  5613 net.cpp:408] LFCN_4_5x5_LFCN_4_5x5_0_split -> LFCN_4_5x5_LFCN_4_5x5_0_split_0
I1009 21:01:31.365381  5613 net.cpp:408] LFCN_4_5x5_LFCN_4_5x5_0_split -> LFCN_4_5x5_LFCN_4_5x5_0_split_1
I1009 21:01:31.365427  5613 net.cpp:150] Setting up LFCN_4_5x5_LFCN_4_5x5_0_split
I1009 21:01:31.365437  5613 net.cpp:157] Top shape: 4 9 12 12 (5184)
I1009 21:01:31.365442  5613 net.cpp:157] Top shape: 4 9 12 12 (5184)
I1009 21:01:31.365447  5613 net.cpp:165] Memory required for data: 6011313528
I1009 21:01:31.365451  5613 layer_factory.hpp:77] Creating layer detection_loss_4_5x5
I1009 21:01:31.365464  5613 net.cpp:100] Creating Layer detection_loss_4_5x5
I1009 21:01:31.365470  5613 net.cpp:434] detection_loss_4_5x5 <- LFCN_4_5x5_LFCN_4_5x5_0_split_0
I1009 21:01:31.365478  5613 net.cpp:434] detection_loss_4_5x5 <- label_4_5x5_data_7_split_0
I1009 21:01:31.365487  5613 net.cpp:408] detection_loss_4_5x5 -> loss_4_5x5
I1009 21:01:31.365502  5613 layer_factory.hpp:77] Creating layer detection_loss_4_5x5
I1009 21:01:31.365849  5613 net.cpp:150] Setting up detection_loss_4_5x5
I1009 21:01:31.365864  5613 net.cpp:157] Top shape: 1 1 1 2 (2)
I1009 21:01:31.365869  5613 net.cpp:160]     with loss weight 1
I1009 21:01:31.365888  5613 net.cpp:165] Memory required for data: 6011313536
I1009 21:01:31.365895  5613 layer_factory.hpp:77] Creating layer detection_accuracy_4_5x5
I1009 21:01:31.365906  5613 net.cpp:100] Creating Layer detection_accuracy_4_5x5
I1009 21:01:31.365913  5613 net.cpp:434] detection_accuracy_4_5x5 <- LFCN_4_5x5_LFCN_4_5x5_0_split_1
I1009 21:01:31.365919  5613 net.cpp:434] detection_accuracy_4_5x5 <- label_4_5x5_data_7_split_1
I1009 21:01:31.365927  5613 net.cpp:408] detection_accuracy_4_5x5 -> accuracy_4_5x5
I1009 21:01:31.365939  5613 net.cpp:408] detection_accuracy_4_5x5 -> boxiou_4_5x5
I1009 21:01:31.365993  5613 net.cpp:150] Setting up detection_accuracy_4_5x5
I1009 21:01:31.366001  5613 net.cpp:157] Top shape: 1 1 1 2 (2)
I1009 21:01:31.366008  5613 net.cpp:157] Top shape: 1 1 1 1 (1)
I1009 21:01:31.366011  5613 net.cpp:165] Memory required for data: 6011313548
I1009 21:01:31.366015  5613 net.cpp:228] detection_accuracy_4_5x5 does not need backward computation.
I1009 21:01:31.366020  5613 net.cpp:226] detection_loss_4_5x5 needs backward computation.
I1009 21:01:31.366024  5613 net.cpp:226] LFCN_4_5x5_LFCN_4_5x5_0_split needs backward computation.
I1009 21:01:31.366029  5613 net.cpp:226] LFCN_4_5x5 needs backward computation.
…
I1009 21:01:31.378650  5613 image_gt_data_layer.cpp:235] output label size 1 : 2,6,96,96
I1009 21:01:31.378697  5613 image_gt_data_layer.cpp:235] output label size 2 : 2,6,48,48
I1009 21:01:31.378744  5613 image_gt_data_layer.cpp:235] output label size 3 : 2,6,48,48
I1009 21:01:31.378790  5613 image_gt_data_layer.cpp:235] output label size 4 : 2,6,24,24
I1009 21:01:31.378836  5613 image_gt_data_layer.cpp:235] output label size 5 : 2,6,24,24
I1009 21:01:31.378883  5613 image_gt_data_layer.cpp:235] output label size 6 : 2,6,12,12
I1009 21:01:31.412024  5613 net.cpp:150] Setting up data
I1009 21:01:31.412080  5613 net.cpp:157] Top shape: 2 4 768 768 (4718592)
I1009 21:01:31.412087  5613 net.cpp:157] Top shape: 2 6 96 96 (110592)
I1009 21:01:31.412092  5613 net.cpp:157] Top shape: 2 6 96 96 (110592)
I1009 21:01:31.412096  5613 net.cpp:157] Top shape: 2 6 48 48 (27648)
I1009 21:01:31.412101  5613 net.cpp:157] Top shape: 2 6 48 48 (27648)
I1009 21:01:31.412106  5613 net.cpp:157] Top shape: 2 6 24 24 (6912)
I1009 21:01:31.412111  5613 net.cpp:157] Top shape: 2 6 24 24 (6912)
I1009 21:01:31.412114  5613 net.cpp:157] Top shape: 2 6 12 12 (1728)
I1009 21:01:31.412117  5613 net.cpp:165] Memory required for data: 20042496
I1009 21:01:31.412127  5613 layer_factory.hpp:77] Creating layer label_1_5x5_data_1_split
I1009 21:01:31.412155  5613 net.cpp:100] Creating Layer label_1_5x5_data_1_split
I1009 21:01:31.412163  5613 net.cpp:434] label_1_5x5_data_1_split <- label_1_5x5
I1009 21:01:31.412171  5613 net.cpp:408] label_1_5x5_data_1_split -> label_1_5x5_data_1_split_0
I1009 21:01:31.412187  5613 net.cpp:408] label_1_5x5_data_1_split -> label_1_5x5_data_1_split_1
I1009 21:01:31.412570  5613 net.cpp:150] Setting up label_1_5x5_data_1_split
I1009 21:01:31.412621  5613 net.cpp:157] Top shape: 2 6 96 96 (110592)
I1009 21:01:31.412631  5613 net.cpp:157] Top shape: 2 6 96 96 (110592)
I1009 21:01:31.412639  5613 net.cpp:165] Memory required for data: 20927232
I1009 21:01:31.412650  5613 layer_factory.hpp:77] Creating layer label_1_7x7_data_2_split
I1009 21:01:31.412673  5613 net.cpp:100] Creating Layer label_1_7x7_data_2_split
I1009 21:01:31.412683  5613 net.cpp:434] label_1_7x7_data_2_split <- label_1_7x7
I1009 21:01:31.412696  5613 net.cpp:408] label_1_7x7_data_2_split -> label_1_7x7_data_2_split_0
I1009 21:01:31.412712  5613 net.cpp:408] label_1_7x7_data_2_split -> label_1_7x7_data_2_split_1
I1009 21:01:31.412797  5613 net.cpp:150] Setting up label_1_7x7_data_2_split
I1009 21:01:31.412808  5613 net.cpp:157] Top shape: 2 6 96 96 (110592)
I1009 21:01:31.412818  5613 net.cpp:157] Top shape: 2 6 96 96 (110592)
I1009 21:01:31.412825  5613 net.cpp:165] Memory required for data: 21811968
I1009 21:01:31.412832  5613 layer_factory.hpp:77] Creating layer label_2_5x5_data_3_split
I1009 21:01:31.412842  5613 net.cpp:100] Creating Layer label_2_5x5_data_3_split
I1009 21:01:31.412849  5613 net.cpp:434] label_2_5x5_data_3_split <- label_2_5x5
I1009 21:01:31.412861  5613 net.cpp:408] label_2_5x5_data_3_split -> label_2_5x5_data_3_split_0
I1009 21:01:31.412873  5613 net.cpp:408] label_2_5x5_data_3_split -> label_2_5x5_data_3_split_1
I1009 21:01:31.412945  5613 net.cpp:150] Setting up label_2_5x5_data_3_split
I1009 21:01:31.412956  5613 net.cpp:157] Top shape: 2 6 48 48 (27648)
I1009 21:01:31.412966  5613 net.cpp:157] Top shape: 2 6 48 48 (27648)
I1009 21:01:31.412972  5613 net.cpp:165] Memory required for data: 22033152
I1009 21:01:31.412979  5613 layer_factory.hpp:77] Creating layer label_2_7x7_data_4_split
I1009 21:01:31.412992  5613 net.cpp:100] Creating Layer label_2_7x7_data_4_split
I1009 21:01:31.412998  5613 net.cpp:434] label_2_7x7_data_4_split <- label_2_7x7
I1009 21:01:31.413012  5613 net.cpp:408] label_2_7x7_data_4_split -> label_2_7x7_data_4_split_0
I1009 21:01:31.413022  5613 net.cpp:408] label_2_7x7_data_4_split -> label_2_7x7_data_4_split_1
I1009 21:01:31.413092  5613 net.cpp:150] Setting up label_2_7x7_data_4_split
I1009 21:01:31.413102  5613 net.cpp:157] Top shape: 2 6 48 48 (27648)
I1009 21:01:31.413111  5613 net.cpp:157] Top shape: 2 6 48 48 (27648)
I1009 21:01:31.413118  5613 net.cpp:165] Memory required for data: 22254336
I1009 21:01:31.413125  5613 layer_factory.hpp:77] Creating layer label_3_5x5_data_5_split
I1009 21:01:31.413136  5613 net.cpp:100] Creating Layer label_3_5x5_data_5_split
I1009 21:01:31.413143  5613 net.cpp:434] label_3_5x5_data_5_split <- label_3_5x5
I1009 21:01:31.413153  5613 net.cpp:408] label_3_5x5_data_5_split -> label_3_5x5_data_5_split_0
I1009 21:01:31.413167  5613 net.cpp:408] label_3_5x5_data_5_split -> label_3_5x5_data_5_split_1
I1009 21:01:31.413239  5613 net.cpp:150] Setting up label_3_5x5_data_5_split
I1009 21:01:31.413252  5613 net.cpp:157] Top shape: 2 6 24 24 (6912)
I1009 21:01:31.413261  5613 net.cpp:157] Top shape: 2 6 24 24 (6912)
I1009 21:01:31.413269  5613 net.cpp:165] Memory required for data: 22309632
I1009 21:01:31.413275  5613 layer_factory.hpp:77] Creating layer label_3_7x7_data_6_split
I1009 21:01:31.413287  5613 net.cpp:100] Creating Layer label_3_7x7_data_6_split
I1009 21:01:31.413295  5613 net.cpp:434] label_3_7x7_data_6_split <- label_3_7x7
I1009 21:01:31.413305  5613 net.cpp:408] label_3_7x7_data_6_split -> label_3_7x7_data_6_split_0
I1009 21:01:31.413316  5613 net.cpp:408] label_3_7x7_data_6_split -> label_3_7x7_data_6_split_1
I1009 21:01:31.413384  5613 net.cpp:150] Setting up label_3_7x7_data_6_split
I1009 21:01:31.413395  5613 net.cpp:157] Top shape: 2 6 24 24 (6912)
I1009 21:01:31.413404  5613 net.cpp:157] Top shape: 2 6 24 24 (6912)
I1009 21:01:31.413410  5613 net.cpp:165] Memory required for data: 22364928
I1009 21:01:31.413419  5613 layer_factory.hpp:77] Creating layer label_4_5x5_data_7_split
I1009 21:01:31.413427  5613 net.cpp:100] Creating Layer label_4_5x5_data_7_split
I1009 21:01:31.413434  5613 net.cpp:434] label_4_5x5_data_7_split <- label_4_5x5
I1009 21:01:31.413444  5613 net.cpp:408] label_4_5x5_data_7_split -> label_4_5x5_data_7_split_0
I1009 21:01:31.413453  5613 net.cpp:408] label_4_5x5_data_7_split -> label_4_5x5_data_7_split_1
I1009 21:01:31.413522  5613 net.cpp:150] Setting up label_4_5x5_data_7_split
I1009 21:01:31.413532  5613 net.cpp:157] Top shape: 2 6 12 12 (1728)
I1009 21:01:31.413542  5613 net.cpp:157] Top shape: 2 6 12 12 (1728)
I1009 21:01:31.413548  5613 net.cpp:165] Memory required for data: 22378752
I1009 21:01:31.413555  5613 layer_factory.hpp:77] Creating layer slice
I1009 21:01:31.413570  5613 net.cpp:100] Creating Layer slice
I1009 21:01:31.413578  5613 net.cpp:434] slice <- data
I1009 21:01:31.413589  5613 net.cpp:408] slice -> data123
I1009 21:01:31.413601  5613 net.cpp:408] slice -> ch4
I1009 21:01:31.413671  5613 net.cpp:150] Setting up slice
I1009 21:01:31.413681  5613 net.cpp:157] Top shape: 2 3 768 768 (3538944)
I1009 21:01:31.413689  5613 net.cpp:157] Top shape: 2 1 768 768 (1179648)
I1009 21:01:31.413695  5613 net.cpp:165] Memory required for data: 41253120
I1009 21:01:31.413702  5613 layer_factory.hpp:77] Creating layer silence
I1009 21:01:31.413717  5613 net.cpp:100] Creating Layer silence
I1009 21:01:31.413723  5613 net.cpp:434] silence <- ch4
I1009 21:01:31.413733  5613 net.cpp:150] Setting up silence
I1009 21:01:31.413738  5613 net.cpp:165] Memory required for data: 41253120
I1009 21:01:31.413745  5613 layer_factory.hpp:77] Creating layer conv1_1
I1009 21:01:31.413760  5613 net.cpp:100] Creating Layer conv1_1
I1009 21:01:31.413769  5613 net.cpp:434] conv1_1 <- data123
I1009 21:01:31.413777  5613 net.cpp:408] conv1_1 -> conv1_1
I1009 21:01:31.424085  5613 net.cpp:150] Setting up conv1_1
I1009 21:01:31.424124  5613 net.cpp:157] Top shape: 2 64 768 768 (75497472)
I1009 21:01:31.424131  5613 net.cpp:165] Memory required for data: 343243008
I1009 21:01:31.424157  5613 layer_factory.hpp:77] Creating layer relu1_1
I1009 21:01:31.424180  5613 net.cpp:100] Creating Layer relu1_1
I1009 21:01:31.424188  5613 net.cpp:434] relu1_1 <- conv1_1
I1009 21:01:31.424197  5613 net.cpp:395] relu1_1 -> conv1_1 (in-place)
E1009 21:01:31.424247  5637 image_gt_data_layer.cpp:371] Could not open or find file /media/b3-542/LIBRARY/moz/result/AllHaveLight/blob_jan30_xgt_train/000006.png
I1009 21:01:31.426537  5613 net.cpp:150] Setting up relu1_1
I1009 21:01:31.426607  5613 net.cpp:157] Top shape: 2 64 768 768 (75497472)
I1009 21:01:31.426614  5613 net.cpp:165] Memory required for data: 645232896
I1009 21:01:31.426623  5613 layer_factory.hpp:77] Creating layer conv1_2
I1009 21:01:31.426652  5613 net.cpp:100] Creating Layer conv1_2
I1009 21:01:31.426661  5613 net.cpp:434] conv1_2 <- conv1_1
I1009 21:01:31.426676  5613 net.cpp:408] conv1_2 -> conv1_2
I1009 21:01:31.437872  5613 net.cpp:150] Setting up conv1_2
I1009 21:01:31.437983  5613 net.cpp:157] Top shape: 2 64 768 768 (75497472)
I1009 21:01:31.437994  5613 net.cpp:165] Memory required for data: 947222784
I1009 21:01:31.438030  5613 layer_factory.hpp:77] Creating layer relu1_2
I1009 21:01:31.438055  5613 net.cpp:100] Creating Layer relu1_2
I1009 21:01:31.438067  5613 net.cpp:434] relu1_2 <- conv1_2
I1009 21:01:31.438082  5613 net.cpp:395] relu1_2 -> conv1_2 (in-place)
I1009 21:01:31.438923  5613 net.cpp:150] Setting up relu1_2
I1009 21:01:31.438941  5613 net.cpp:157] Top shape: 2 64 768 768 (75497472)
I1009 21:01:31.438947  5613 net.cpp:165] Memory required for data: 1249212672
I1009 21:01:31.438951  5613 layer_factory.hpp:77] Creating layer pool1
I1009 21:01:31.438966  5613 net.cpp:100] Creating Layer pool1
I1009 21:01:31.438971  5613 net.cpp:434] pool1 <- conv1_2
I1009 21:01:31.438977  5613 net.cpp:408] pool1 -> pool1
E1009 21:01:31.438994  5637 image_gt_data_layer.cpp:371] Could not open or find file /media/b3-542/LIBRARY/moz/result/AllHaveLight/blob_jan30_xgt_train/000006.png
I1009 21:01:31.439090  5613 net.cpp:150] Setting up pool1
I1009 21:01:31.439097  5613 net.cpp:157] Top shape: 2 64 384 384 (18874368)
I1009 21:01:31.439101  5613 net.cpp:165] Memory required for data: 1324710144
I1009 21:01:31.439105  5613 layer_factory.hpp:77] Creating layer conv2_1
I1009 21:01:31.439121  5613 net.cpp:100] Creating Layer conv2_1
I1009 21:01:31.439126  5613 net.cpp:434] conv2_1 <- pool1
I1009 21:01:31.439131  5613 net.cpp:408] conv2_1 -> conv2_1
I1009 21:01:31.448464  5613 net.cpp:150] Setting up conv2_1
I1009 21:01:31.448530  5613 net.cpp:157] Top shape: 2 128 384 384 (37748736)
I1009 21:01:31.448537  5613 net.cpp:165] Memory required for data: 1475705088
I1009 21:01:31.448567  5613 layer_factory.hpp:77] Creating layer relu2_1
I1009 21:01:31.448595  5613 net.cpp:100] Creating Layer relu2_1
I1009 21:01:31.448604  5613 net.cpp:434] relu2_1 <- conv2_1
I1009 21:01:31.448612  5613 net.cpp:395] relu2_1 -> conv2_1 (in-place)
I1009 21:01:31.449234  5613 net.cpp:150] Setting up relu2_1
I1009 21:01:31.449249  5613 net.cpp:157] Top shape: 2 128 384 384 (37748736)
I1009 21:01:31.449254  5613 net.cpp:165] Memory required for data: 1626700032
I1009 21:01:31.449257  5613 layer_factory.hpp:77] Creating layer conv2_2
E1009 21:01:31.449265  5637 image_gt_data_layer.cpp:371] Could not open or find file /media/b3-542/LIBRARY/moz/result/AllHaveLight/blob_jan30_xgt_train/000006.png
I1009 21:01:31.449272  5613 net.cpp:100] Creating Layer conv2_2
I1009 21:01:31.449276  5613 net.cpp:434] conv2_2 <- conv2_1
I1009 21:01:31.449285  5613 net.cpp:408] conv2_2 -> conv2_2
I1009 21:01:31.453074  5613 net.cpp:150] Setting up conv2_2
I1009 21:01:31.453091  5613 net.cpp:157] Top shape: 2 128 384 384 (37748736)
I1009 21:01:31.453095  5613 net.cpp:165] Memory required for data: 1777694976
I1009 21:01:31.453104  5613 layer_factory.hpp:77] Creating layer relu2_2
I1009 21:01:31.453112  5613 net.cpp:100] Creating Layer relu2_2
I1009 21:01:31.453117  5613 net.cpp:434] relu2_2 <- conv2_2
I1009 21:01:31.453125  5613 net.cpp:395] relu2_2 -> conv2_2 (in-place)
I1009 21:01:31.453331  5613 net.cpp:150] Setting up relu2_2
I1009 21:01:31.453343  5613 net.cpp:157] Top shape: 2 128 384 384 (37748736)
I1009 21:01:31.453347  5613 net.cpp:165] Memory required for data: 1928689920
I1009 21:01:31.453351  5613 layer_factory.hpp:77] Creating layer pool2
I1009 21:01:31.453358  5613 net.cpp:100] Creating Layer pool2
I1009 21:01:31.453362  5613 net.cpp:434] pool2 <- conv2_2
I1009 21:01:31.453369  5613 net.cpp:408] pool2 -> pool2
I1009 21:01:31.453418  5613 net.cpp:150] Setting up pool2
I1009 21:01:31.453426  5613 net.cpp:157] Top shape: 2 128 192 192 (9437184)
I1009 21:01:31.453430  5613 net.cpp:165] Memory required for data: 1966438656
I1009 21:01:31.453433  5613 layer_factory.hpp:77] Creating layer conv3_1
I1009 21:01:31.453444  5613 net.cpp:100] Creating Layer conv3_1
I1009 21:01:31.453449  5613 net.cpp:434] conv3_1 <- pool2
I1009 21:01:31.453454  5613 net.cpp:408] conv3_1 -> conv3_1
I1009 21:01:31.456463  5613 net.cpp:150] Setting up conv3_1
I1009 21:01:31.456483  5613 net.cpp:157] Top shape: 2 256 192 192 (18874368)
I1009 21:01:31.456488  5613 net.cpp:165] Memory required for data: 2041936128
I1009 21:01:31.456502  5613 layer_factory.hpp:77] Creating layer relu3_1
I1009 21:01:31.456514  5613 net.cpp:100] Creating Layer relu3_1
I1009 21:01:31.456521  5613 net.cpp:434] relu3_1 <- conv3_1
I1009 21:01:31.456526  5613 net.cpp:395] relu3_1 -> conv3_1 (in-place)
I1009 21:01:31.456770  5613 net.cpp:150] Setting up relu3_1
I1009 21:01:31.456784  5613 net.cpp:157] Top shape: 2 256 192 192 (18874368)
I1009 21:01:31.456789  5613 net.cpp:165] Memory required for data: 2117433600
I1009 21:01:31.456794  5613 layer_factory.hpp:77] Creating layer conv3_2
I1009 21:01:31.456804  5613 net.cpp:100] Creating Layer conv3_2
I1009 21:01:31.456810  5613 net.cpp:434] conv3_2 <- conv3_1
I1009 21:01:31.456820  5613 net.cpp:408] conv3_2 -> conv3_2
I1009 21:01:31.460044  5613 net.cpp:150] Setting up conv3_2
I1009 21:01:31.460067  5613 net.cpp:157] Top shape: 2 256 192 192 (18874368)
I1009 21:01:31.460072  5613 net.cpp:165] Memory required for data: 2192931072
I1009 21:01:31.460081  5613 layer_factory.hpp:77] Creating layer relu3_2
I1009 21:01:31.460093  5613 net.cpp:100] Creating Layer relu3_2
I1009 21:01:31.460098  5613 net.cpp:434] relu3_2 <- conv3_2
I1009 21:01:31.460105  5613 net.cpp:395] relu3_2 -> conv3_2 (in-place)
I1009 21:01:31.460348  5613 net.cpp:150] Setting up relu3_2
I1009 21:01:31.460361  5613 net.cpp:157] Top shape: 2 256 192 192 (18874368)
I1009 21:01:31.460367  5613 net.cpp:165] Memory required for data: 2268428544
I1009 21:01:31.460373  5613 layer_factory.hpp:77] Creating layer conv3_3
I1009 21:01:31.460382  5613 net.cpp:100] Creating Layer conv3_3
I1009 21:01:31.460387  5613 net.cpp:434] conv3_3 <- conv3_2
I1009 21:01:31.460397  5613 net.cpp:408] conv3_3 -> conv3_3
I1009 21:01:31.463656  5613 net.cpp:150] Setting up conv3_3
I1009 21:01:31.463676  5613 net.cpp:157] Top shape: 2 256 192 192 (18874368)
I1009 21:01:31.463680  5613 net.cpp:165] Memory required for data: 2343926016
I1009 21:01:31.463688  5613 layer_factory.hpp:77] Creating layer relu3_3
I1009 21:01:31.463697  5613 net.cpp:100] Creating Layer relu3_3
I1009 21:01:31.463702  5613 net.cpp:434] relu3_3 <- conv3_3
I1009 21:01:31.463709  5613 net.cpp:395] relu3_3 -> conv3_3 (in-place)
I1009 21:01:31.464201  5613 net.cpp:150] Setting up relu3_3
I1009 21:01:31.464213  5613 net.cpp:157] Top shape: 2 256 192 192 (18874368)
I1009 21:01:31.464216  5613 net.cpp:165] Memory required for data: 2419423488
I1009 21:01:31.464221  5613 layer_factory.hpp:77] Creating layer pool3
I1009 21:01:31.464227  5613 net.cpp:100] Creating Layer pool3
I1009 21:01:31.464231  5613 net.cpp:434] pool3 <- conv3_3
I1009 21:01:31.464238  5613 net.cpp:408] pool3 -> pool3
I1009 21:01:31.464279  5613 net.cpp:150] Setting up pool3
I1009 21:01:31.464287  5613 net.cpp:157] Top shape: 2 256 96 96 (4718592)
I1009 21:01:31.464290  5613 net.cpp:165] Memory required for data: 2438297856
I1009 21:01:31.464293  5613 layer_factory.hpp:77] Creating layer conv4_1
I1009 21:01:31.464300  5613 net.cpp:100] Creating Layer conv4_1
I1009 21:01:31.464304  5613 net.cpp:434] conv4_1 <- pool3
I1009 21:01:31.464309  5613 net.cpp:408] conv4_1 -> conv4_1
I1009 21:01:31.467802  5613 net.cpp:150] Setting up conv4_1
I1009 21:01:31.467824  5613 net.cpp:157] Top shape: 2 512 96 96 (9437184)
I1009 21:01:31.467828  5613 net.cpp:165] Memory required for data: 2476046592
I1009 21:01:31.467836  5613 layer_factory.hpp:77] Creating layer relu4_1
I1009 21:01:31.467845  5613 net.cpp:100] Creating Layer relu4_1
I1009 21:01:31.467850  5613 net.cpp:434] relu4_1 <- conv4_1
I1009 21:01:31.467855  5613 net.cpp:395] relu4_1 -> conv4_1 (in-place)
I1009 21:01:31.468009  5613 net.cpp:150] Setting up relu4_1
I1009 21:01:31.468019  5613 net.cpp:157] Top shape: 2 512 96 96 (9437184)
I1009 21:01:31.468022  5613 net.cpp:165] Memory required for data: 2513795328
I1009 21:01:31.468026  5613 layer_factory.hpp:77] Creating layer conv4_2
I1009 21:01:31.468034  5613 net.cpp:100] Creating Layer conv4_2
I1009 21:01:31.468039  5613 net.cpp:434] conv4_2 <- conv4_1
I1009 21:01:31.468044  5613 net.cpp:408] conv4_2 -> conv4_2
I1009 21:01:31.473886  5613 net.cpp:150] Setting up conv4_2
I1009 21:01:31.473920  5613 net.cpp:157] Top shape: 2 512 96 96 (9437184)
I1009 21:01:31.473924  5613 net.cpp:165] Memory required for data: 2551544064
I1009 21:01:31.473938  5613 layer_factory.hpp:77] Creating layer relu4_2
I1009 21:01:31.473948  5613 net.cpp:100] Creating Layer relu4_2
I1009 21:01:31.473953  5613 net.cpp:434] relu4_2 <- conv4_2
I1009 21:01:31.473959  5613 net.cpp:395] relu4_2 -> conv4_2 (in-place)
I1009 21:01:31.474138  5613 net.cpp:150] Setting up relu4_2
I1009 21:01:31.474148  5613 net.cpp:157] Top shape: 2 512 96 96 (9437184)
I1009 21:01:31.474151  5613 net.cpp:165] Memory required for data: 2589292800
I1009 21:01:31.474154  5613 layer_factory.hpp:77] Creating layer conv4_3
I1009 21:01:31.474165  5613 net.cpp:100] Creating Layer conv4_3
I1009 21:01:31.474169  5613 net.cpp:434] conv4_3 <- conv4_2
I1009 21:01:31.474174  5613 net.cpp:408] conv4_3 -> conv4_3
I1009 21:01:31.484412  5613 net.cpp:150] Setting up conv4_3
I1009 21:01:31.484450  5613 net.cpp:157] Top shape: 2 512 96 96 (9437184)
I1009 21:01:31.484455  5613 net.cpp:165] Memory required for data: 2627041536
I1009 21:01:31.484467  5613 layer_factory.hpp:77] Creating layer relu4_3
I1009 21:01:31.484486  5613 net.cpp:100] Creating Layer relu4_3
I1009 21:01:31.484491  5613 net.cpp:434] relu4_3 <- conv4_3
I1009 21:01:31.484499  5613 net.cpp:395] relu4_3 -> conv4_3 (in-place)
I1009 21:01:31.484664  5613 net.cpp:150] Setting up relu4_3
I1009 21:01:31.484675  5613 net.cpp:157] Top shape: 2 512 96 96 (9437184)
I1009 21:01:31.484678  5613 net.cpp:165] Memory required for data: 2664790272
I1009 21:01:31.484683  5613 layer_factory.hpp:77] Creating layer conv4_3_relu4_3_0_split
I1009 21:01:31.484688  5613 net.cpp:100] Creating Layer conv4_3_relu4_3_0_split
I1009 21:01:31.484691  5613 net.cpp:434] conv4_3_relu4_3_0_split <- conv4_3
I1009 21:01:31.484696  5613 net.cpp:408] conv4_3_relu4_3_0_split -> conv4_3_relu4_3_0_split_0
I1009 21:01:31.484702  5613 net.cpp:408] conv4_3_relu4_3_0_split -> conv4_3_relu4_3_0_split_1
I1009 21:01:31.484742  5613 net.cpp:150] Setting up conv4_3_relu4_3_0_split
I1009 21:01:31.484748  5613 net.cpp:157] Top shape: 2 512 96 96 (9437184)
I1009 21:01:31.484752  5613 net.cpp:157] Top shape: 2 512 96 96 (9437184)
I1009 21:01:31.484755  5613 net.cpp:165] Memory required for data: 2740287744
I1009 21:01:31.484758  5613 layer_factory.hpp:77] Creating layer loss1_conv1
I1009 21:01:31.484771  5613 net.cpp:100] Creating Layer loss1_conv1
I1009 21:01:31.484774  5613 net.cpp:434] loss1_conv1 <- conv4_3_relu4_3_0_split_0
I1009 21:01:31.484781  5613 net.cpp:408] loss1_conv1 -> loss1_conv1
I1009 21:01:31.547171  5613 net.cpp:150] Setting up loss1_conv1
I1009 21:01:31.547197  5613 net.cpp:157] Top shape: 2 512 96 96 (9437184)
I1009 21:01:31.547201  5613 net.cpp:165] Memory required for data: 2778036480
I1009 21:01:31.547210  5613 layer_factory.hpp:77] Creating layer loss_relu1
I1009 21:01:31.547220  5613 net.cpp:100] Creating Layer loss_relu1
I1009 21:01:31.547227  5613 net.cpp:434] loss_relu1 <- loss1_conv1
I1009 21:01:31.547235  5613 net.cpp:395] loss_relu1 -> loss1_conv1 (in-place)
I1009 21:01:31.547401  5613 net.cpp:150] Setting up loss_relu1
I1009 21:01:31.547411  5613 net.cpp:157] Top shape: 2 512 96 96 (9437184)
I1009 21:01:31.547415  5613 net.cpp:165] Memory required for data: 2815785216
I1009 21:01:31.547417  5613 layer_factory.hpp:77] Creating layer loss1_conv1_loss_relu1_0_split
I1009 21:01:31.547425  5613 net.cpp:100] Creating Layer loss1_conv1_loss_relu1_0_split
I1009 21:01:31.547427  5613 net.cpp:434] loss1_conv1_loss_relu1_0_split <- loss1_conv1
I1009 21:01:31.547433  5613 net.cpp:408] loss1_conv1_loss_relu1_0_split -> loss1_conv1_loss_relu1_0_split_0
I1009 21:01:31.547441  5613 net.cpp:408] loss1_conv1_loss_relu1_0_split -> loss1_conv1_loss_relu1_0_split_1
I1009 21:01:31.547478  5613 net.cpp:150] Setting up loss1_conv1_loss_relu1_0_split
I1009 21:01:31.547485  5613 net.cpp:157] Top shape: 2 512 96 96 (9437184)
I1009 21:01:31.547490  5613 net.cpp:157] Top shape: 2 512 96 96 (9437184)
I1009 21:01:31.547493  5613 net.cpp:165] Memory required for data: 2891282688
I1009 21:01:31.547497  5613 layer_factory.hpp:77] Creating layer LFCN_1_5x5
I1009 21:01:31.547507  5613 net.cpp:100] Creating Layer LFCN_1_5x5
I1009 21:01:31.547510  5613 net.cpp:434] LFCN_1_5x5 <- loss1_conv1_loss_relu1_0_split_0
I1009 21:01:31.547518  5613 net.cpp:408] LFCN_1_5x5 -> LFCN_1_5x5
I1009 21:01:31.551481  5613 net.cpp:150] Setting up LFCN_1_5x5
I1009 21:01:31.551494  5613 net.cpp:157] Top shape: 2 9 96 96 (165888)
I1009 21:01:31.551497  5613 net.cpp:165] Memory required for data: 2891946240
I1009 21:01:31.551503  5613 layer_factory.hpp:77] Creating layer LFCN_1_5x5_LFCN_1_5x5_0_split
I1009 21:01:31.551511  5613 net.cpp:100] Creating Layer LFCN_1_5x5_LFCN_1_5x5_0_split
I1009 21:01:31.551514  5613 net.cpp:434] LFCN_1_5x5_LFCN_1_5x5_0_split <- LFCN_1_5x5
I1009 21:01:31.551519  5613 net.cpp:408] LFCN_1_5x5_LFCN_1_5x5_0_split -> LFCN_1_5x5_LFCN_1_5x5_0_split_0
I1009 21:01:31.551527  5613 net.cpp:408] LFCN_1_5x5_LFCN_1_5x5_0_split -> LFCN_1_5x5_LFCN_1_5x5_0_split_1
I1009 21:01:31.551564  5613 net.cpp:150] Setting up LFCN_1_5x5_LFCN_1_5x5_0_split
I1009 21:01:31.551571  5613 net.cpp:157] Top shape: 2 9 96 96 (165888)
I1009 21:01:31.551576  5613 net.cpp:157] Top shape: 2 9 96 96 (165888)
I1009 21:01:31.551579  5613 net.cpp:165] Memory required for data: 2893273344
I1009 21:01:31.551582  5613 layer_factory.hpp:77] Creating layer detection_loss_1_5x5
I1009 21:01:31.551590  5613 net.cpp:100] Creating Layer detection_loss_1_5x5
I1009 21:01:31.551595  5613 net.cpp:434] detection_loss_1_5x5 <- LFCN_1_5x5_LFCN_1_5x5_0_split_0
I1009 21:01:31.551599  5613 net.cpp:434] detection_loss_1_5x5 <- label_1_5x5_data_1_split_0
I1009 21:01:31.551604  5613 net.cpp:408] detection_loss_1_5x5 -> loss_1_5x5
I1009 21:01:31.551614  5613 layer_factory.hpp:77] Creating layer detection_loss_1_5x5
I1009 21:01:31.551980  5613 net.cpp:150] Setting up detection_loss_1_5x5
I1009 21:01:31.551990  5613 net.cpp:157] Top shape: 1 1 1 2 (2)
I1009 21:01:31.551993  5613 net.cpp:160]     with loss weight 0.9
I1009 21:01:31.552004  5613 net.cpp:165] Memory required for data: 2893273352
I1009 21:01:31.552008  5613 layer_factory.hpp:77] Creating layer detection_accuracy_1_5x5
I1009 21:01:31.552014  5613 net.cpp:100] Creating Layer detection_accuracy_1_5x5
I1009 21:01:31.552017  5613 net.cpp:434] detection_accuracy_1_5x5 <- LFCN_1_5x5_LFCN_1_5x5_0_split_1
I1009 21:01:31.552022  5613 net.cpp:434] detection_accuracy_1_5x5 <- label_1_5x5_data_1_split_1
I1009 21:01:31.552028  5613 net.cpp:408] detection_accuracy_1_5x5 -> accuracy_1_5x5
I1009 21:01:31.552034  5613 net.cpp:408] detection_accuracy_1_5x5 -> boxiou_1_5x5
I1009 21:01:31.552070  5613 net.cpp:150] Setting up detection_accuracy_1_5x5
I1009 21:01:31.552078  5613 net.cpp:157] Top shape: 1 1 1 2 (2)
I1009 21:01:31.552081  5613 net.cpp:157] Top shape: 1 1 1 1 (1)
I1009 21:01:31.552084  5613 net.cpp:165] Memory required for data: 2893273364
I1009 21:01:31.552088  5613 layer_factory.hpp:77] Creating layer LFCN_1_7x7
I1009 21:01:31.552098  5613 net.cpp:100] Creating Layer LFCN_1_7x7
I1009 21:01:31.552100  5613 net.cpp:434] LFCN_1_7x7 <- loss1_conv1_loss_relu1_0_split_1
I1009 21:01:31.552106  5613 net.cpp:408] LFCN_1_7x7 -> LFCN_1_7x7
I1009 21:01:31.559361  5613 net.cpp:150] Setting up LFCN_1_7x7
I1009 21:01:31.559378  5613 net.cpp:157] Top shape: 2 9 96 96 (165888)
I1009 21:01:31.559382  5613 net.cpp:165] Memory required for data: 2893936916
I1009 21:01:31.559388  5613 layer_factory.hpp:77] Creating layer LFCN_1_7x7_LFCN_1_7x7_0_split
I1009 21:01:31.559397  5613 net.cpp:100] Creating Layer LFCN_1_7x7_LFCN_1_7x7_0_split
I1009 21:01:31.559403  5613 net.cpp:434] LFCN_1_7x7_LFCN_1_7x7_0_split <- LFCN_1_7x7
I1009 21:01:31.559409  5613 net.cpp:408] LFCN_1_7x7_LFCN_1_7x7_0_split -> LFCN_1_7x7_LFCN_1_7x7_0_split_0
I1009 21:01:31.559417  5613 net.cpp:408] LFCN_1_7x7_LFCN_1_7x7_0_split -> LFCN_1_7x7_LFCN_1_7x7_0_split_1
I1009 21:01:31.559453  5613 net.cpp:150] Setting up LFCN_1_7x7_LFCN_1_7x7_0_split
I1009 21:01:31.559458  5613 net.cpp:157] Top shape: 2 9 96 96 (165888)
I1009 21:01:31.559463  5613 net.cpp:157] Top shape: 2 9 96 96 (165888)
I1009 21:01:31.559465  5613 net.cpp:165] Memory required for data: 2895264020
I1009 21:01:31.559468  5613 layer_factory.hpp:77] Creating layer detection_loss_1_7x7
I1009 21:01:31.559476  5613 net.cpp:100] Creating Layer detection_loss_1_7x7
I1009 21:01:31.559480  5613 net.cpp:434] detection_loss_1_7x7 <- LFCN_1_7x7_LFCN_1_7x7_0_split_0
I1009 21:01:31.559485  5613 net.cpp:434] detection_loss_1_7x7 <- label_1_7x7_data_2_split_0
I1009 21:01:31.559490  5613 net.cpp:408] detection_loss_1_7x7 -> loss_1_7x7
I1009 21:01:31.559497  5613 layer_factory.hpp:77] Creating layer detection_loss_1_7x7
I1009 21:01:31.560252  5613 net.cpp:150] Setting up detection_loss_1_7x7
I1009 21:01:31.560264  5613 net.cpp:157] Top shape: 1 1 1 2 (2)
I1009 21:01:31.560268  5613 net.cpp:160]     with loss weight 0.9
I1009 21:01:31.560276  5613 net.cpp:165] Memory required for data: 2895264028
I1009 21:01:31.560279  5613 layer_factory.hpp:77] Creating layer detection_accuracy_1_7x7
I1009 21:01:31.560286  5613 net.cpp:100] Creating Layer detection_accuracy_1_7x7
I1009 21:01:31.560290  5613 net.cpp:434] detection_accuracy_1_7x7 <- LFCN_1_7x7_LFCN_1_7x7_0_split_1
I1009 21:01:31.560295  5613 net.cpp:434] detection_accuracy_1_7x7 <- label_1_7x7_data_2_split_1
I1009 21:01:31.560302  5613 net.cpp:408] detection_accuracy_1_7x7 -> accuracy_1_7x7
I1009 21:01:31.560308  5613 net.cpp:408] detection_accuracy_1_7x7 -> boxiou_1_7x7
I1009 21:01:31.560348  5613 net.cpp:150] Setting up detection_accuracy_1_7x7
I1009 21:01:31.560354  5613 net.cpp:157] Top shape: 1 1 1 2 (2)
I1009 21:01:31.560359  5613 net.cpp:157] Top shape: 1 1 1 1 (1)
I1009 21:01:31.560361  5613 net.cpp:165] Memory required for data: 2895264040
I1009 21:01:31.560364  5613 layer_factory.hpp:77] Creating layer pool4
I1009 21:01:31.560371  5613 net.cpp:100] Creating Layer pool4
I1009 21:01:31.560375  5613 net.cpp:434] pool4 <- conv4_3_relu4_3_0_split_1
I1009 21:01:31.560380  5613 net.cpp:408] pool4 -> pool4
I1009 21:01:31.560416  5613 net.cpp:150] Setting up pool4
I1009 21:01:31.560423  5613 net.cpp:157] Top shape: 2 512 48 48 (2359296)
I1009 21:01:31.560427  5613 net.cpp:165] Memory required for data: 2904701224
I1009 21:01:31.560431  5613 layer_factory.hpp:77] Creating layer conv5_1
I1009 21:01:31.560437  5613 net.cpp:100] Creating Layer conv5_1
I1009 21:01:31.560441  5613 net.cpp:434] conv5_1 <- pool4
I1009 21:01:31.560446  5613 net.cpp:408] conv5_1 -> conv5_1
I1009 21:01:31.571712  5613 net.cpp:150] Setting up conv5_1
I1009 21:01:31.571751  5613 net.cpp:157] Top shape: 2 512 48 48 (2359296)
I1009 21:01:31.571755  5613 net.cpp:165] Memory required for data: 2914138408
I1009 21:01:31.571766  5613 layer_factory.hpp:77] Creating layer relu5_1
I1009 21:01:31.571782  5613 net.cpp:100] Creating Layer relu5_1
I1009 21:01:31.571790  5613 net.cpp:434] relu5_1 <- conv5_1
I1009 21:01:31.571799  5613 net.cpp:395] relu5_1 -> conv5_1 (in-place)
I1009 21:01:31.571974  5613 net.cpp:150] Setting up relu5_1
I1009 21:01:31.571985  5613 net.cpp:157] Top shape: 2 512 48 48 (2359296)
I1009 21:01:31.571987  5613 net.cpp:165] Memory required for data: 2923575592
I1009 21:01:31.571990  5613 layer_factory.hpp:77] Creating layer conv5_2
I1009 21:01:31.572002  5613 net.cpp:100] Creating Layer conv5_2
I1009 21:01:31.572007  5613 net.cpp:434] conv5_2 <- conv5_1
I1009 21:01:31.572013  5613 net.cpp:408] conv5_2 -> conv5_2
I1009 21:01:31.581889  5613 net.cpp:150] Setting up conv5_2
I1009 21:01:31.581920  5613 net.cpp:157] Top shape: 2 512 48 48 (2359296)
I1009 21:01:31.581924  5613 net.cpp:165] Memory required for data: 2933012776
I1009 21:01:31.581933  5613 layer_factory.hpp:77] Creating layer relu5_2
I1009 21:01:31.581948  5613 net.cpp:100] Creating Layer relu5_2
I1009 21:01:31.581955  5613 net.cpp:434] relu5_2 <- conv5_2
I1009 21:01:31.581961  5613 net.cpp:395] relu5_2 -> conv5_2 (in-place)
I1009 21:01:31.582159  5613 net.cpp:150] Setting up relu5_2
I1009 21:01:31.582170  5613 net.cpp:157] Top shape: 2 512 48 48 (2359296)
I1009 21:01:31.582173  5613 net.cpp:165] Memory required for data: 2942449960
I1009 21:01:31.582177  5613 layer_factory.hpp:77] Creating layer conv5_3
I1009 21:01:31.582185  5613 net.cpp:100] Creating Layer conv5_3
I1009 21:01:31.582188  5613 net.cpp:434] conv5_3 <- conv5_2
I1009 21:01:31.582195  5613 net.cpp:408] conv5_3 -> conv5_3
I1009 21:01:31.588239  5613 net.cpp:150] Setting up conv5_3
I1009 21:01:31.588269  5613 net.cpp:157] Top shape: 2 512 48 48 (2359296)
I1009 21:01:31.588274  5613 net.cpp:165] Memory required for data: 2951887144
I1009 21:01:31.588284  5613 layer_factory.hpp:77] Creating layer relu5_3
I1009 21:01:31.588294  5613 net.cpp:100] Creating Layer relu5_3
I1009 21:01:31.588300  5613 net.cpp:434] relu5_3 <- conv5_3
I1009 21:01:31.588307  5613 net.cpp:395] relu5_3 -> conv5_3 (in-place)
I1009 21:01:31.588474  5613 net.cpp:150] Setting up relu5_3
I1009 21:01:31.588485  5613 net.cpp:157] Top shape: 2 512 48 48 (2359296)
I1009 21:01:31.588487  5613 net.cpp:165] Memory required for data: 2961324328
I1009 21:01:31.588490  5613 layer_factory.hpp:77] Creating layer conv5_3_relu5_3_0_split
I1009 21:01:31.588496  5613 net.cpp:100] Creating Layer conv5_3_relu5_3_0_split
I1009 21:01:31.588500  5613 net.cpp:434] conv5_3_relu5_3_0_split <- conv5_3
I1009 21:01:31.588506  5613 net.cpp:408] conv5_3_relu5_3_0_split -> conv5_3_relu5_3_0_split_0
I1009 21:01:31.588513  5613 net.cpp:408] conv5_3_relu5_3_0_split -> conv5_3_relu5_3_0_split_1
I1009 21:01:31.588518  5613 net.cpp:408] conv5_3_relu5_3_0_split -> conv5_3_relu5_3_0_split_2
I1009 21:01:31.588570  5613 net.cpp:150] Setting up conv5_3_relu5_3_0_split
I1009 21:01:31.588577  5613 net.cpp:157] Top shape: 2 512 48 48 (2359296)
I1009 21:01:31.588582  5613 net.cpp:157] Top shape: 2 512 48 48 (2359296)
I1009 21:01:31.588585  5613 net.cpp:157] Top shape: 2 512 48 48 (2359296)
I1009 21:01:31.588588  5613 net.cpp:165] Memory required for data: 2989635880
I1009 21:01:31.588591  5613 layer_factory.hpp:77] Creating layer LFCN_2_5x5
I1009 21:01:31.588603  5613 net.cpp:100] Creating Layer LFCN_2_5x5
I1009 21:01:31.588606  5613 net.cpp:434] LFCN_2_5x5 <- conv5_3_relu5_3_0_split_0
I1009 21:01:31.588613  5613 net.cpp:408] LFCN_2_5x5 -> LFCN_2_5x5
I1009 21:01:31.592409  5613 net.cpp:150] Setting up LFCN_2_5x5
I1009 21:01:31.592422  5613 net.cpp:157] Top shape: 2 9 48 48 (41472)
I1009 21:01:31.592427  5613 net.cpp:165] Memory required for data: 2989801768
I1009 21:01:31.592439  5613 layer_factory.hpp:77] Creating layer LFCN_2_5x5_LFCN_2_5x5_0_split
I1009 21:01:31.592445  5613 net.cpp:100] Creating Layer LFCN_2_5x5_LFCN_2_5x5_0_split
I1009 21:01:31.592448  5613 net.cpp:434] LFCN_2_5x5_LFCN_2_5x5_0_split <- LFCN_2_5x5
I1009 21:01:31.592453  5613 net.cpp:408] LFCN_2_5x5_LFCN_2_5x5_0_split -> LFCN_2_5x5_LFCN_2_5x5_0_split_0
I1009 21:01:31.592460  5613 net.cpp:408] LFCN_2_5x5_LFCN_2_5x5_0_split -> LFCN_2_5x5_LFCN_2_5x5_0_split_1
I1009 21:01:31.592499  5613 net.cpp:150] Setting up LFCN_2_5x5_LFCN_2_5x5_0_split
I1009 21:01:31.592505  5613 net.cpp:157] Top shape: 2 9 48 48 (41472)
I1009 21:01:31.592509  5613 net.cpp:157] Top shape: 2 9 48 48 (41472)
I1009 21:01:31.592512  5613 net.cpp:165] Memory required for data: 2990133544
I1009 21:01:31.592515  5613 layer_factory.hpp:77] Creating layer detection_loss_2_5x5
I1009 21:01:31.592523  5613 net.cpp:100] Creating Layer detection_loss_2_5x5
I1009 21:01:31.592526  5613 net.cpp:434] detection_loss_2_5x5 <- LFCN_2_5x5_LFCN_2_5x5_0_split_0
I1009 21:01:31.592531  5613 net.cpp:434] detection_loss_2_5x5 <- label_2_5x5_data_3_split_0
I1009 21:01:31.592537  5613 net.cpp:408] detection_loss_2_5x5 -> loss_2_5x5
I1009 21:01:31.592550  5613 layer_factory.hpp:77] Creating layer detection_loss_2_5x5
I1009 21:01:31.592890  5613 net.cpp:150] Setting up detection_loss_2_5x5
I1009 21:01:31.592900  5613 net.cpp:157] Top shape: 1 1 1 2 (2)
I1009 21:01:31.592902  5613 net.cpp:160]     with loss weight 1
I1009 21:01:31.592912  5613 net.cpp:165] Memory required for data: 2990133552
I1009 21:01:31.592916  5613 layer_factory.hpp:77] Creating layer detection_accuracy_2_5x5
I1009 21:01:31.592922  5613 net.cpp:100] Creating Layer detection_accuracy_2_5x5
I1009 21:01:31.592926  5613 net.cpp:434] detection_accuracy_2_5x5 <- LFCN_2_5x5_LFCN_2_5x5_0_split_1
I1009 21:01:31.592931  5613 net.cpp:434] detection_accuracy_2_5x5 <- label_2_5x5_data_3_split_1
I1009 21:01:31.592936  5613 net.cpp:408] detection_accuracy_2_5x5 -> accuracy_2_5x5
I1009 21:01:31.592943  5613 net.cpp:408] detection_accuracy_2_5x5 -> boxiou_2_5x5
I1009 21:01:31.592980  5613 net.cpp:150] Setting up detection_accuracy_2_5x5
I1009 21:01:31.592988  5613 net.cpp:157] Top shape: 1 1 1 2 (2)
I1009 21:01:31.592991  5613 net.cpp:157] Top shape: 1 1 1 1 (1)
I1009 21:01:31.592994  5613 net.cpp:165] Memory required for data: 2990133564
I1009 21:01:31.592998  5613 layer_factory.hpp:77] Creating layer LFCN_2_7x7
I1009 21:01:31.593008  5613 net.cpp:100] Creating Layer LFCN_2_7x7
I1009 21:01:31.593011  5613 net.cpp:434] LFCN_2_7x7 <- conv5_3_relu5_3_0_split_1
I1009 21:01:31.593016  5613 net.cpp:408] LFCN_2_7x7 -> LFCN_2_7x7
I1009 21:01:31.600108  5613 net.cpp:150] Setting up LFCN_2_7x7
I1009 21:01:31.600121  5613 net.cpp:157] Top shape: 2 9 48 48 (41472)
I1009 21:01:31.600124  5613 net.cpp:165] Memory required for data: 2990299452
I1009 21:01:31.600129  5613 layer_factory.hpp:77] Creating layer LFCN_2_7x7_LFCN_2_7x7_0_split
I1009 21:01:31.600136  5613 net.cpp:100] Creating Layer LFCN_2_7x7_LFCN_2_7x7_0_split
I1009 21:01:31.600138  5613 net.cpp:434] LFCN_2_7x7_LFCN_2_7x7_0_split <- LFCN_2_7x7
I1009 21:01:31.600142  5613 net.cpp:408] LFCN_2_7x7_LFCN_2_7x7_0_split -> LFCN_2_7x7_LFCN_2_7x7_0_split_0
I1009 21:01:31.600148  5613 net.cpp:408] LFCN_2_7x7_LFCN_2_7x7_0_split -> LFCN_2_7x7_LFCN_2_7x7_0_split_1
I1009 21:01:31.600180  5613 net.cpp:150] Setting up LFCN_2_7x7_LFCN_2_7x7_0_split
I1009 21:01:31.600185  5613 net.cpp:157] Top shape: 2 9 48 48 (41472)
I1009 21:01:31.600188  5613 net.cpp:157] Top shape: 2 9 48 48 (41472)
I1009 21:01:31.600191  5613 net.cpp:165] Memory required for data: 2990631228
I1009 21:01:31.600194  5613 layer_factory.hpp:77] Creating layer detection_loss_2_7x7
I1009 21:01:31.600199  5613 net.cpp:100] Creating Layer detection_loss_2_7x7
I1009 21:01:31.600203  5613 net.cpp:434] detection_loss_2_7x7 <- LFCN_2_7x7_LFCN_2_7x7_0_split_0
I1009 21:01:31.600206  5613 net.cpp:434] detection_loss_2_7x7 <- label_2_7x7_data_4_split_0
I1009 21:01:31.600211  5613 net.cpp:408] detection_loss_2_7x7 -> loss_2_7x7
I1009 21:01:31.600217  5613 layer_factory.hpp:77] Creating layer detection_loss_2_7x7
I1009 21:01:31.600559  5613 net.cpp:150] Setting up detection_loss_2_7x7
I1009 21:01:31.600569  5613 net.cpp:157] Top shape: 1 1 1 2 (2)
I1009 21:01:31.600572  5613 net.cpp:160]     with loss weight 1
I1009 21:01:31.600579  5613 net.cpp:165] Memory required for data: 2990631236
I1009 21:01:31.600581  5613 layer_factory.hpp:77] Creating layer detection_accuracy_2_7x7
I1009 21:01:31.600587  5613 net.cpp:100] Creating Layer detection_accuracy_2_7x7
I1009 21:01:31.600594  5613 net.cpp:434] detection_accuracy_2_7x7 <- LFCN_2_7x7_LFCN_2_7x7_0_split_1
I1009 21:01:31.600598  5613 net.cpp:434] detection_accuracy_2_7x7 <- label_2_7x7_data_4_split_1
I1009 21:01:31.600603  5613 net.cpp:408] detection_accuracy_2_7x7 -> accuracy_2_7x7
I1009 21:01:31.600610  5613 net.cpp:408] detection_accuracy_2_7x7 -> boxiou_2_7x7
I1009 21:01:31.600648  5613 net.cpp:150] Setting up detection_accuracy_2_7x7
I1009 21:01:31.600656  5613 net.cpp:157] Top shape: 1 1 1 2 (2)
I1009 21:01:31.600659  5613 net.cpp:157] Top shape: 1 1 1 1 (1)
I1009 21:01:31.600662  5613 net.cpp:165] Memory required for data: 2990631248
I1009 21:01:31.600666  5613 layer_factory.hpp:77] Creating layer pool5
I1009 21:01:31.600670  5613 net.cpp:100] Creating Layer pool5
I1009 21:01:31.600674  5613 net.cpp:434] pool5 <- conv5_3_relu5_3_0_split_2
I1009 21:01:31.600680  5613 net.cpp:408] pool5 -> pool5
I1009 21:01:31.600715  5613 net.cpp:150] Setting up pool5
I1009 21:01:31.600723  5613 net.cpp:157] Top shape: 2 512 24 24 (589824)
I1009 21:01:31.600725  5613 net.cpp:165] Memory required for data: 2992990544
I1009 21:01:31.600728  5613 layer_factory.hpp:77] Creating layer conv6_1
I1009 21:01:31.600739  5613 net.cpp:100] Creating Layer conv6_1
I1009 21:01:31.600741  5613 net.cpp:434] conv6_1 <- pool5
I1009 21:01:31.600746  5613 net.cpp:408] conv6_1 -> conv6_1
I1009 21:01:31.664223  5613 net.cpp:150] Setting up conv6_1
I1009 21:01:31.664252  5613 net.cpp:157] Top shape: 2 512 24 24 (589824)
I1009 21:01:31.664258  5613 net.cpp:165] Memory required for data: 2995349840
I1009 21:01:31.664265  5613 layer_factory.hpp:77] Creating layer relu6_1
I1009 21:01:31.664276  5613 net.cpp:100] Creating Layer relu6_1
I1009 21:01:31.664283  5613 net.cpp:434] relu6_1 <- conv6_1
I1009 21:01:31.664290  5613 net.cpp:395] relu6_1 -> conv6_1 (in-place)
I1009 21:01:31.664793  5613 net.cpp:150] Setting up relu6_1
I1009 21:01:31.664806  5613 net.cpp:157] Top shape: 2 512 24 24 (589824)
I1009 21:01:31.664809  5613 net.cpp:165] Memory required for data: 2997709136
I1009 21:01:31.664813  5613 layer_factory.hpp:77] Creating layer conv6_1_relu6_1_0_split
I1009 21:01:31.664825  5613 net.cpp:100] Creating Layer conv6_1_relu6_1_0_split
I1009 21:01:31.664832  5613 net.cpp:434] conv6_1_relu6_1_0_split <- conv6_1
I1009 21:01:31.664839  5613 net.cpp:408] conv6_1_relu6_1_0_split -> conv6_1_relu6_1_0_split_0
I1009 21:01:31.664845  5613 net.cpp:408] conv6_1_relu6_1_0_split -> conv6_1_relu6_1_0_split_1
I1009 21:01:31.664850  5613 net.cpp:408] conv6_1_relu6_1_0_split -> conv6_1_relu6_1_0_split_2
I1009 21:01:31.664906  5613 net.cpp:150] Setting up conv6_1_relu6_1_0_split
I1009 21:01:31.664912  5613 net.cpp:157] Top shape: 2 512 24 24 (589824)
I1009 21:01:31.664916  5613 net.cpp:157] Top shape: 2 512 24 24 (589824)
I1009 21:01:31.664921  5613 net.cpp:157] Top shape: 2 512 24 24 (589824)
I1009 21:01:31.664923  5613 net.cpp:165] Memory required for data: 3004787024
I1009 21:01:31.664927  5613 layer_factory.hpp:77] Creating layer LFCN_3_5x5
I1009 21:01:31.664938  5613 net.cpp:100] Creating Layer LFCN_3_5x5
I1009 21:01:31.664942  5613 net.cpp:434] LFCN_3_5x5 <- conv6_1_relu6_1_0_split_0
I1009 21:01:31.664948  5613 net.cpp:408] LFCN_3_5x5 -> LFCN_3_5x5
I1009 21:01:31.669004  5613 net.cpp:150] Setting up LFCN_3_5x5
I1009 21:01:31.669018  5613 net.cpp:157] Top shape: 2 9 24 24 (10368)
I1009 21:01:31.669021  5613 net.cpp:165] Memory required for data: 3004828496
I1009 21:01:31.669028  5613 layer_factory.hpp:77] Creating layer LFCN_3_5x5_LFCN_3_5x5_0_split
I1009 21:01:31.669032  5613 net.cpp:100] Creating Layer LFCN_3_5x5_LFCN_3_5x5_0_split
I1009 21:01:31.669036  5613 net.cpp:434] LFCN_3_5x5_LFCN_3_5x5_0_split <- LFCN_3_5x5
I1009 21:01:31.669044  5613 net.cpp:408] LFCN_3_5x5_LFCN_3_5x5_0_split -> LFCN_3_5x5_LFCN_3_5x5_0_split_0
I1009 21:01:31.669049  5613 net.cpp:408] LFCN_3_5x5_LFCN_3_5x5_0_split -> LFCN_3_5x5_LFCN_3_5x5_0_split_1
I1009 21:01:31.669088  5613 net.cpp:150] Setting up LFCN_3_5x5_LFCN_3_5x5_0_split
I1009 21:01:31.669095  5613 net.cpp:157] Top shape: 2 9 24 24 (10368)
I1009 21:01:31.669100  5613 net.cpp:157] Top shape: 2 9 24 24 (10368)
I1009 21:01:31.669102  5613 net.cpp:165] Memory required for data: 3004911440
I1009 21:01:31.669106  5613 layer_factory.hpp:77] Creating layer detection_loss_3_5x5
I1009 21:01:31.669112  5613 net.cpp:100] Creating Layer detection_loss_3_5x5
I1009 21:01:31.669116  5613 net.cpp:434] detection_loss_3_5x5 <- LFCN_3_5x5_LFCN_3_5x5_0_split_0
I1009 21:01:31.669121  5613 net.cpp:434] detection_loss_3_5x5 <- label_3_5x5_data_5_split_0
I1009 21:01:31.669128  5613 net.cpp:408] detection_loss_3_5x5 -> loss_3_5x5
I1009 21:01:31.669137  5613 layer_factory.hpp:77] Creating layer detection_loss_3_5x5
I1009 21:01:31.669466  5613 net.cpp:150] Setting up detection_loss_3_5x5
I1009 21:01:31.669476  5613 net.cpp:157] Top shape: 1 1 1 2 (2)
I1009 21:01:31.669479  5613 net.cpp:160]     with loss weight 1
I1009 21:01:31.669490  5613 net.cpp:165] Memory required for data: 3004911448
I1009 21:01:31.669493  5613 layer_factory.hpp:77] Creating layer detection_accuracy_3_5x5
I1009 21:01:31.669500  5613 net.cpp:100] Creating Layer detection_accuracy_3_5x5
I1009 21:01:31.669504  5613 net.cpp:434] detection_accuracy_3_5x5 <- LFCN_3_5x5_LFCN_3_5x5_0_split_1
I1009 21:01:31.669509  5613 net.cpp:434] detection_accuracy_3_5x5 <- label_3_5x5_data_5_split_1
I1009 21:01:31.669514  5613 net.cpp:408] detection_accuracy_3_5x5 -> accuracy_3_5x5
I1009 21:01:31.669522  5613 net.cpp:408] detection_accuracy_3_5x5 -> boxiou_3_5x5
I1009 21:01:31.669559  5613 net.cpp:150] Setting up detection_accuracy_3_5x5
I1009 21:01:31.669566  5613 net.cpp:157] Top shape: 1 1 1 2 (2)
I1009 21:01:31.669570  5613 net.cpp:157] Top shape: 1 1 1 1 (1)
I1009 21:01:31.669574  5613 net.cpp:165] Memory required for data: 3004911460
I1009 21:01:31.669576  5613 layer_factory.hpp:77] Creating layer LFCN_3_7x7
I1009 21:01:31.669584  5613 net.cpp:100] Creating Layer LFCN_3_7x7
I1009 21:01:31.669589  5613 net.cpp:434] LFCN_3_7x7 <- conv6_1_relu6_1_0_split_1
I1009 21:01:31.669595  5613 net.cpp:408] LFCN_3_7x7 -> LFCN_3_7x7
I1009 21:01:31.677448  5613 net.cpp:150] Setting up LFCN_3_7x7
I1009 21:01:31.677471  5613 net.cpp:157] Top shape: 2 9 24 24 (10368)
I1009 21:01:31.677475  5613 net.cpp:165] Memory required for data: 3004952932
I1009 21:01:31.677482  5613 layer_factory.hpp:77] Creating layer LFCN_3_7x7_LFCN_3_7x7_0_split
I1009 21:01:31.677490  5613 net.cpp:100] Creating Layer LFCN_3_7x7_LFCN_3_7x7_0_split
I1009 21:01:31.677495  5613 net.cpp:434] LFCN_3_7x7_LFCN_3_7x7_0_split <- LFCN_3_7x7
I1009 21:01:31.677503  5613 net.cpp:408] LFCN_3_7x7_LFCN_3_7x7_0_split -> LFCN_3_7x7_LFCN_3_7x7_0_split_0
I1009 21:01:31.677510  5613 net.cpp:408] LFCN_3_7x7_LFCN_3_7x7_0_split -> LFCN_3_7x7_LFCN_3_7x7_0_split_1
I1009 21:01:31.677552  5613 net.cpp:150] Setting up LFCN_3_7x7_LFCN_3_7x7_0_split
I1009 21:01:31.677559  5613 net.cpp:157] Top shape: 2 9 24 24 (10368)
I1009 21:01:31.677563  5613 net.cpp:157] Top shape: 2 9 24 24 (10368)
I1009 21:01:31.677567  5613 net.cpp:165] Memory required for data: 3005035876
I1009 21:01:31.677569  5613 layer_factory.hpp:77] Creating layer detection_loss_3_7x7
I1009 21:01:31.677577  5613 net.cpp:100] Creating Layer detection_loss_3_7x7
I1009 21:01:31.677580  5613 net.cpp:434] detection_loss_3_7x7 <- LFCN_3_7x7_LFCN_3_7x7_0_split_0
I1009 21:01:31.677584  5613 net.cpp:434] detection_loss_3_7x7 <- label_3_7x7_data_6_split_0
I1009 21:01:31.677590  5613 net.cpp:408] detection_loss_3_7x7 -> loss_3_7x7
I1009 21:01:31.677598  5613 layer_factory.hpp:77] Creating layer detection_loss_3_7x7
I1009 21:01:31.677927  5613 net.cpp:150] Setting up detection_loss_3_7x7
I1009 21:01:31.677938  5613 net.cpp:157] Top shape: 1 1 1 2 (2)
I1009 21:01:31.677942  5613 net.cpp:160]     with loss weight 1
I1009 21:01:31.677950  5613 net.cpp:165] Memory required for data: 3005035884
I1009 21:01:31.677954  5613 layer_factory.hpp:77] Creating layer detection_accuracy_3_7x7
I1009 21:01:31.677960  5613 net.cpp:100] Creating Layer detection_accuracy_3_7x7
I1009 21:01:31.677964  5613 net.cpp:434] detection_accuracy_3_7x7 <- LFCN_3_7x7_LFCN_3_7x7_0_split_1
I1009 21:01:31.677968  5613 net.cpp:434] detection_accuracy_3_7x7 <- label_3_7x7_data_6_split_1
I1009 21:01:31.677974  5613 net.cpp:408] detection_accuracy_3_7x7 -> accuracy_3_7x7
I1009 21:01:31.677981  5613 net.cpp:408] detection_accuracy_3_7x7 -> boxiou_3_7x7
I1009 21:01:31.678023  5613 net.cpp:150] Setting up detection_accuracy_3_7x7
I1009 21:01:31.678030  5613 net.cpp:157] Top shape: 1 1 1 2 (2)
I1009 21:01:31.678035  5613 net.cpp:157] Top shape: 1 1 1 1 (1)
I1009 21:01:31.678036  5613 net.cpp:165] Memory required for data: 3005035896
I1009 21:01:31.678040  5613 layer_factory.hpp:77] Creating layer pool6
I1009 21:01:31.678047  5613 net.cpp:100] Creating Layer pool6
I1009 21:01:31.678051  5613 net.cpp:434] pool6 <- conv6_1_relu6_1_0_split_2
I1009 21:01:31.678056  5613 net.cpp:408] pool6 -> pool6
I1009 21:01:31.678118  5613 net.cpp:150] Setting up pool6
I1009 21:01:31.678126  5613 net.cpp:157] Top shape: 2 512 12 12 (147456)
I1009 21:01:31.678129  5613 net.cpp:165] Memory required for data: 3005625720
I1009 21:01:31.678133  5613 layer_factory.hpp:77] Creating layer LFCN_4_5x5
I1009 21:01:31.678141  5613 net.cpp:100] Creating Layer LFCN_4_5x5
I1009 21:01:31.678145  5613 net.cpp:434] LFCN_4_5x5 <- pool6
I1009 21:01:31.678151  5613 net.cpp:408] LFCN_4_5x5 -> LFCN_4_5x5
I1009 21:01:31.681841  5613 net.cpp:150] Setting up LFCN_4_5x5
I1009 21:01:31.681852  5613 net.cpp:157] Top shape: 2 9 12 12 (2592)
I1009 21:01:31.681855  5613 net.cpp:165] Memory required for data: 3005636088
I1009 21:01:31.681860  5613 layer_factory.hpp:77] Creating layer LFCN_4_5x5_LFCN_4_5x5_0_split
I1009 21:01:31.681865  5613 net.cpp:100] Creating Layer LFCN_4_5x5_LFCN_4_5x5_0_split
I1009 21:01:31.681869  5613 net.cpp:434] LFCN_4_5x5_LFCN_4_5x5_0_split <- LFCN_4_5x5
I1009 21:01:31.681872  5613 net.cpp:408] LFCN_4_5x5_LFCN_4_5x5_0_split -> LFCN_4_5x5_LFCN_4_5x5_0_split_0
I1009 21:01:31.681879  5613 net.cpp:408] LFCN_4_5x5_LFCN_4_5x5_0_split -> LFCN_4_5x5_LFCN_4_5x5_0_split_1
I1009 21:01:31.681911  5613 net.cpp:150] Setting up LFCN_4_5x5_LFCN_4_5x5_0_split
I1009 21:01:31.681917  5613 net.cpp:157] Top shape: 2 9 12 12 (2592)
I1009 21:01:31.681921  5613 net.cpp:157] Top shape: 2 9 12 12 (2592)
I1009 21:01:31.681923  5613 net.cpp:165] Memory required for data: 3005656824
I1009 21:01:31.681926  5613 layer_factory.hpp:77] Creating layer detection_loss_4_5x5
I1009 21:01:31.681931  5613 net.cpp:100] Creating Layer detection_loss_4_5x5
I1009 21:01:31.681934  5613 net.cpp:434] detection_loss_4_5x5 <- LFCN_4_5x5_LFCN_4_5x5_0_split_0
I1009 21:01:31.681938  5613 net.cpp:434] detection_loss_4_5x5 <- label_4_5x5_data_7_split_0
I1009 21:01:31.681943  5613 net.cpp:408] detection_loss_4_5x5 -> loss_4_5x5
I1009 21:01:31.681949  5613 layer_factory.hpp:77] Creating layer detection_loss_4_5x5
I1009 21:01:31.682291  5613 net.cpp:150] Setting up detection_loss_4_5x5
I1009 21:01:31.682301  5613 net.cpp:157] Top shape: 1 1 1 2 (2)
I1009 21:01:31.682303  5613 net.cpp:160]     with loss weight 1
I1009 21:01:31.682309  5613 net.cpp:165] Memory required for data: 3005656832
I1009 21:01:31.682312  5613 layer_factory.hpp:77] Creating layer detection_accuracy_4_5x5
I1009 21:01:31.682318  5613 net.cpp:100] Creating Layer detection_accuracy_4_5x5
I1009 21:01:31.682322  5613 net.cpp:434] detection_accuracy_4_5x5 <- LFCN_4_5x5_LFCN_4_5x5_0_split_1
I1009 21:01:31.682327  5613 net.cpp:434] detection_accuracy_4_5x5 <- label_4_5x5_data_7_split_1
I1009 21:01:31.682332  5613 net.cpp:408] detection_accuracy_4_5x5 -> accuracy_4_5x5
I1009 21:01:31.682337  5613 net.cpp:408] detection_accuracy_4_5x5 -> boxiou_4_5x5
I1009 21:01:31.682376  5613 net.cpp:150] Setting up detection_accuracy_4_5x5
I1009 21:01:31.682384  5613 net.cpp:157] Top shape: 1 1 1 2 (2)
I1009 21:01:31.682387  5613 net.cpp:157] Top shape: 1 1 1 1 (1)
I1009 21:01:31.682390  5613 net.cpp:165] Memory required for data: 3005656844
I1009 21:01:31.682394  5613 net.cpp:228] detection_accuracy_4_5x5 does not need backward computation.
I1009 21:01:31.682397  5613 net.cpp:226] detection_loss_4_5x5 needs backward computation.
I1009 21:01:31.682401  5613 net.cpp:226] LFCN_4_5x5_LFCN_4_5x5_0_split needs backward computation.
I1009 21:01:31.682404  5613 net.cpp:226] LFCN_4_5x5 needs backward computation.
…
