…
    downsample_rate: 32
    downsample_rate: 32
    downsample_rate: 64
    coord_num: 4
    field_h: 60
    field_h: 84
    field_h: 120
    field_h: 168
    field_h: 240
    field_h: 336
    field_h: 480
    field_w: 60
    field_w: 84
    field_w: 120
    field_w: 168
    field_w: 240
    field_w: 336
    field_w: 480
    fg_threshold: 0.5
    resize_width: 1344
    resize_height: 768
    crop_width: 768
    crop_height: 768
    do_multiple_scale: true
    min_scale: 60
    max_scale: 480
    min_gt_height: 25
    shuffle: true
    output_gt_boxes: true
  }
}
layer {
  name: "slice"
  type: "Slice"
  bottom: "data"
  top: "data123"
  top: "ch4"
  slice_param {
    slice_point: 3
    axis: 1
  }
}
layer {
  name: "conv1_1"
  type: "Convolution"
  bottom: "data123"
  top: "conv1_1"
  param {
    lr_mult: 0
    decay_mult: 0
  }
  param {
    lr_mult: 0
    decay_mult: 0
  }
  convolution_param {
    num_output: 64
    pad: 1
    kernel_size: 3
  }
}
layer {
  name: "relu1_1"
  type: "ReLU"
  bottom: "conv1_1"
  top: "conv1_1"
}
layer {
  name: "conv1_2"
  type: "Convolution"
  bottom: "conv1_1"
  top: "conv1_2"
  param {
    lr_mult: 0
    decay_mult: 0
  }
  param {
    lr_mult: 0
    decay_mult: 0
  }
  convolution_param {
    num_output: 64
    pad: 1
    kernel_size: 3
  }
}
layer {
  name: "relu1_2"
  type: "ReLU"
  bottom: "conv1_2"
  top: "conv1_2"
}
layer {
  name: "pool1"
  type: "Pooling"
  bottom: "conv1_2"
  top: "pool1"
  pooling_param {
    pool: MAX
    kernel_size: 2
    stride: 2
  }
}
layer {
  name: "ch4_pool1"
  type: "Pooling"
  bottom: "ch4"
  top: "ch4_pool1"
  pooling_param {
    pool: MAX
    kernel_size: 2
    stride: 2
  }
}
layer {
  name: "pool1_concat"
  type: "Concat"
  bottom: "pool1"
  bottom: "ch4_pool1"
  top: "pool1_new"
}
layer {
  name: "conv2_1_new"
  type: "Convolution"
  bottom: "pool1_new"
  top: "conv2_1"
  param {
    lr_mult: 0
    decay_mult: 0
  }
  param {
    lr_mult: 0
    decay_mult: 0
  }
  convolution_param {
    num_output: 128
    pad: 1
    kernel_size: 3
  }
}
layer {
  name: "relu2_1"
  type: "ReLU"
  bottom: "conv2_1"
  top: "conv2_1"
}
layer {
  name: "conv2_2"
  type: "Convolution"
  bottom: "conv2_1"
  top: "conv2_2"
  param {
    lr_mult: 0
    decay_mult: 0
  }
  param {
    lr_mult: 0
    decay_mult: 0
  }
  convolution_param {
    num_output: 128
    pad: 1
    kernel_size: 3
  }
}
layer {
  name: "relu2_2"
  type: "ReLU"
  bottom: "conv2_2"
  top: "conv2_2"
}
layer {
  name: "pool2"
  type: "Pooling"
  bottom: "conv2_2"
  top: "pool2"
  pooling_param {
    pool: MAX
    kernel_size: 2
    stride: 2
  }
}
layer {
  name: "ch4_pool2"
  type: "Pooling"
  bottom: "ch4_pool1"
  top: "ch4_pool2"
  pooling_param {
    pool: MAX
    kernel_size: 2
    stride: 2
  }
}
layer {
  name: "pool2_concat"
  type: "Concat"
  bottom: "pool2"
  bottom: "ch4_pool2"
  top: "pool2_new"
}
layer {
  name: "conv3_1_new"
  type: "Convolution"
  bottom: "pool2_new"
  top: "conv3_1"
  convolution_param {
    num_output: 256
    pad: 1
    kernel_size: 3
  }
}
layer {
  name: "relu3_1"
  type: "ReLU"
  bottom: "conv3_1"
  top: "conv3_1"
}
layer {
  name: "conv3_2"
  type: "Convolution"
  bottom: "conv3_1"
  top: "conv3_2"
  convolution_param {
    num_output: 256
    pad: 1
    kernel_size: 3
  }
}
layer {
  name: "relu3_2"
  type: "ReLU"
  bottom: "conv3_2"
  top: "conv3_2"
}
layer {
  name: "conv3_3"
  type: "Convolution"
  bottom: "conv3_2"
  top: "conv3_3"
  convolution_param {
    num_output: 256
    pad: 1
    kernel_size: 3
  }
}
layer {
  name: "relu3_3"
  type: "ReLU"
  bottom: "conv3_3"
  top: "conv3_3"
}
layer {
  name: "pool3"
  type: "Pooling"
  bottom: "conv3_3"
  top: "pool3"
  pooling_param {
    pool: MAX
    kernel_size: 2
    stride: 2
  }
}
layer {
  name: "ch4_pool3"
  type: "Pooling"
  bottom: "ch4_pool2"
  top: "ch4_pool3"
  pooling_param {
    pool: MAX
    kernel_size: 2
    stride: 2
  }
}
layer {
  name: "pool3_concat"
  type: "Concat"
  bottom: "pool3"
  bottom: "ch4_pool3"
  top: "pool3_new"
}
layer {
  name: "conv4_1_new"
  type: "Convolution"
  bottom: "pool3_new"
  top: "conv4_1"
  convolution_param {
    num_output: 512
    pad: 1
    kernel_size: 3
  }
}
layer {
  name: "relu4_1"
  type: "ReLU"
  bottom: "conv4_1"
  top: "conv4_1"
}
layer {
  name: "conv4_2"
  type: "Convolution"
  bottom: "conv4_1"
  top: "conv4_2"
  convolution_param {
    num_output: 512
    pad: 1
    kernel_size: 3
  }
}
layer {
  name: "relu4_2"
  type: "ReLU"
  bottom: "conv4_2"
  top: "conv4_2"
}
layer {
  name: "conv4_3"
  type: "Convolution"
  bottom: "conv4_2"
  top: "conv4_3"
  convolution_param {
    num_output: 512
    pad: 1
    kernel_size: 3
  }
}
layer {
  name: "relu4_3"
  type: "ReLU"
  bottom: "conv4_3"
  top: "conv4_3"
}
layer {
  name: "loss1_conv1"
  type: "Convolution"
  bottom: "conv4_3"
  top: "loss1_conv1"
  param {
    lr_mult: 1
    decay_mult: 1
  }
  param {
    lr_mult: 2
    decay_mult: 0
  }
  convolution_param {
    num_output: 512
    pad: 1
    kernel_size: 3
    weight_filler {
      type: "gaussian"
      std: 0.01
    }
    bias_filler {
      type: "constant"
    }
  }
}
layer {
  name: "loss_relu1"
  type: "ReLU"
  bottom: "loss1_conv1"
  top: "loss1_conv1"
}
layer {
  name: "LFCN_1_5x5"
  type: "Convolution"
  bottom: "loss1_conv1"
  top: "LFCN_1_5x5"
  param {
    lr_mult: 1
    decay_mult: 1
  }
  param {
    lr_mult: 2
    decay_mult: 0
  }
  convolution_param {
    num_output: 9
    pad: 2
    kernel_size: 5
    weight_filler {
      type: "gaussian"
      std: 0.001
    }
    bias_filler {
      type: "constant"
    }
  }
}
layer {
  name: "detection_loss_1_5x5"
  type: "DetectionLoss"
  bottom: "LFCN_1_5x5"
  bottom: "label_1_5x5"
  top: "loss_1_5x5"
  loss_weight: 0.9
  detection_loss_param {
    cls_num: 5
    coord_num: 4
    lambda: 1
    field_h: 60
    field_w: 60
    downsample_rate: 8
    bb_smooth: true
    field_whr: 2
    field_xyr: 2
    bg_threshold: 0.2
    bg_multiple: 2
    sample_mode: "bootstrap"
    pos_neg_weighted: true
  }
}
layer {
  name: "detection_accuracy_1_5x5"
  type: "DetectionAccuracy"
  bottom: "LFCN_1_5x5"
  bottom: "label_1_5x5"
  top: "accuracy_1_5x5"
  top: "boxiou_1_5x5"
  detection_accuracy_param {
    cls_num: 5
    coord_num: 4
    field_h: 60
    field_w: 60
    downsample_rate: 8
    field_whr: 2
    field_xyr: 2
  }
}
layer {
  name: "LFCN_1_7x7"
  type: "Convolution"
  bottom: "loss1_conv1"
  top: "LFCN_1_7x7"
  param {
    lr_mult: 1
    decay_mult: 1
  }
  param {
    lr_mult: 2
    decay_mult: 0
  }
  convolution_param {
    num_output: 9
    pad: 3
    kernel_size: 7
    weight_filler {
      type: "gaussian"
      std: 0.001
    }
    bias_filler {
      type: "constant"
    }
  }
}
layer {
  name: "detection_loss_1_7x7"
  type: "DetectionLoss"
  bottom: "LFCN_1_7x7"
  bottom: "label_1_7x7"
  top: "loss_1_7x7"
  loss_weight: 0.9
  detection_loss_param {
    cls_num: 5
    coord_num: 4
    lambda: 1
    field_h: 84
    field_w: 84
    downsample_rate: 8
    bb_smooth: true
    field_whr: 2
    field_xyr: 2
    bg_threshold: 0.2
    bg_multiple: 2
    sample_mode: "bootstrap"
    pos_neg_weighted: true
  }
}
layer {
  name: "detection_accuracy_1_7x7"
  type: "DetectionAccuracy"
  bottom: "LFCN_1_7x7"
  bottom: "label_1_7x7"
  top: "accuracy_1_7x7"
  top: "boxiou_1_7x7"
  detection_accuracy_param {
    cls_num: 5
    coord_num: 4
    field_h: 84
    field_w: 84
    downsample_rate: 8
    field_whr: 2
    field_xyr: 2
  }
}
layer {
  name: "pool4"
  type: "Pooling"
  bottom: "conv4_3"
  top: "pool4"
  pooling_param {
    pool: MAX
    kernel_size: 2
    stride: 2
  }
}
layer {
  name: "ch4_pool4"
  type: "Pooling"
  bottom: "ch4_pool3"
  top: "ch4_pool4"
  pooling_param {
    pool: MAX
    kernel_size: 2
    stride: 2
  }
}
layer {
  name: "pool4_concat"
  type: "Concat"
  bottom: "pool4"
  bottom: "ch4_pool4"
  top: "pool4_new"
}
layer {
  name: "conv5_1_new"
  type: "Convolution"
  bottom: "pool4_new"
  top: "conv5_1"
  convolution_param {
    num_output: 512
    pad: 1
    kernel_size: 3
  }
}
layer {
  name: "relu5_1"
  type: "ReLU"
  bottom: "conv5_1"
  top: "conv5_1"
}
layer {
  name: "conv5_2"
  type: "Convolution"
  bottom: "conv5_1"
  top: "conv5_2"
  convolution_param {
    num_output: 512
    pad: 1
    kernel_size: 3
  }
}
layer {
  name: "relu5_2"
  type: "ReLU"
  bottom: "conv5_2"
  top: "conv5_2"
}
layer {
  name: "conv5_3"
  type: "Convolution"
  bottom: "conv5_2"
  top: "conv5_3"
  convolution_param {
    num_output: 512
    pad: 1
    kernel_size: 3
  }
}
layer {
  name: "relu5_3"
  type: "ReLU"
  bottom: "conv5_3"
  top: "conv5_3"
}
layer {
  name: "LFCN_2_5x5"
  type: "Convolution"
  bottom: "conv5_3"
  top: "LFCN_2_5x5"
  param {
    lr_mult: 1
    decay_mult: 1
  }
  param {
    lr_mult: 2
    decay_mult: 0
  }
  convolution_param {
    num_output: 9
    pad: 2
    kernel_size: 5
    weight_filler {
      type: "gaussian"
      std: 0.001
    }
    bias_filler {
      type: "constant"
    }
  }
}
layer {
  name: "detection_loss_2_5x5"
  type: "DetectionLoss"
  bottom: "LFCN_2_5x5"
  bottom: "label_2_5x5"
  top: "loss_2_5x5"
  detection_loss_param {
    cls_num: 5
    coord_num: 4
    lambda: 1
    field_h: 120
    field_w: 120
    downsample_rate: 16
    bb_smooth: true
    field_whr: 2
    field_xyr: 2
    bg_threshold: 0.2
    bg_multiple: 2
    sample_mode: "bootstrap"
    pos_neg_weighted: true
  }
}
layer {
  name: "detection_accuracy_2_5x5"
  type: "DetectionAccuracy"
  bottom: "LFCN_2_5x5"
  bottom: "label_2_5x5"
  top: "accuracy_2_5x5"
  top: "boxiou_2_5x5"
  detection_accuracy_param {
    cls_num: 5
    coord_num: 4
    field_h: 120
    field_w: 120
    downsample_rate: 16
    field_whr: 2
    field_xyr: 2
  }
}
layer {
  name: "LFCN_2_7x7"
  type: "Convolution"
  bottom: "conv5_3"
  top: "LFCN_2_7x7"
  param {
    lr_mult: 1
    decay_mult: 1
  }
  param {
    lr_mult: 2
    decay_mult: 0
  }
  convolution_param {
    num_output: 9
    pad: 3
    kernel_size: 7
    weight_filler {
      type: "gaussian"
      std: 0.001
    }
    bias_filler {
      type: "constant"
    }
  }
}
layer {
  name: "detection_loss_2_7x7"
  type: "DetectionLoss"
  bottom: "LFCN_2_7x7"
  bottom: "label_2_7x7"
  top: "loss_2_7x7"
  detection_loss_param {
    cls_num: 5
    coord_num: 4
    lambda: 1
    field_h: 168
    field_w: 168
    downsample_rate: 16
    bb_smooth: true
    field_whr: 2
    field_xyr: 2
    bg_threshold: 0.2
    bg_multiple: 2
    sample_mode: "bootstrap"
    pos_neg_weighted: true
  }
}
layer {
  name: "detection_accuracy_2_7x7"
  type: "DetectionAccuracy"
  bottom: "LFCN_2_7x7"
  bottom: "label_2_7x7"
  top: "accuracy_2_7x7"
  top: "boxiou_2_7x7"
  detection_accuracy_param {
    cls_num: 5
    coord_num: 4
    field_h: 168
    field_w: 168
    downsample_rate: 16
    field_whr: 2
    field_xyr: 2
  }
}
layer {
  name: "pool5"
  type: "Pooling"
  bottom: "conv5_3"
  top: "pool5"
  pooling_param {
    pool: MAX
    kernel_size: 2
    stride: 2
  }
}
layer {
  name: "ch4_pool5"
  type: "Pooling"
  bottom: "ch4_pool4"
  top: "ch4_pool5"
  pooling_param {
    pool: MAX
    kernel_size: 2
    stride: 2
  }
}
layer {
  name: "pool5_concat"
  type: "Concat"
  bottom: "pool5"
  bottom: "ch4_pool5"
  top: "pool5_new"
}
layer {
  name: "conv6_1_new"
  type: "Convolution"
  bottom: "pool5_new"
  top: "conv6_1"
  param {
    lr_mult: 1
    decay_mult: 1
  }
  param {
    lr_mult: 2
    decay_mult: 0
  }
  convolution_param {
    num_output: 512
    pad: 1
    kernel_size: 3
    weight_filler {
      type: "gaussian"
      std: 0.01
    }
    bias_filler {
      type: "constant"
    }
  }
}
layer {
  name: "relu6_1"
  type: "ReLU"
  bottom: "conv6_1"
  top: "conv6_1"
}
layer {
  name: "LFCN_3_5x5"
  type: "Convolution"
  bottom: "conv6_1"
  top: "LFCN_3_5x5"
  param {
    lr_mult: 1
    decay_mult: 1
  }
  param {
    lr_mult: 2
    decay_mult: 0
  }
  convolution_param {
    num_output: 9
    pad: 2
    kernel_size: 5
    weight_filler {
      type: "gaussian"
      std: 0.001
    }
    bias_filler {
      type: "constant"
    }
  }
}
layer {
  name: "detection_loss_3_5x5"
  type: "DetectionLoss"
  bottom: "LFCN_3_5x5"
  bottom: "label_3_5x5"
  top: "loss_3_5x5"
  detection_loss_param {
    cls_num: 5
    coord_num: 4
    lambda: 1
    field_h: 240
    field_w: 240
    downsample_rate: 32
    bb_smooth: true
    field_whr: 2
    field_xyr: 2
    bg_threshold: 0.2
    bg_multiple: 2
    sample_mode: "bootstrap"
    pos_neg_weighted: true
  }
}
layer {
  name: "detection_accuracy_3_5x5"
  type: "DetectionAccuracy"
  bottom: "LFCN_3_5x5"
  bottom: "label_3_5x5"
  top: "accuracy_3_5x5"
  top: "boxiou_3_5x5"
  detection_accuracy_param {
    cls_num: 5
    coord_num: 4
    field_h: 240
    field_w: 240
    downsample_rate: 32
    field_whr: 2
    field_xyr: 2
  }
}
layer {
  name: "LFCN_3_7x7"
  type: "Convolution"
  bottom: "conv6_1"
  top: "LFCN_3_7x7"
  param {
    lr_mult: 1
    decay_mult: 1
  }
  param {
    lr_mult: 2
    decay_mult: 0
  }
  convolution_param {
    num_output: 9
    pad: 3
    kernel_size: 7
    weight_filler {
      type: "gaussian"
      std: 0.001
    }
    bias_filler {
      type: "constant"
    }
  }
}
layer {
  name: "detection_loss_3_7x7"
  type: "DetectionLoss"
  bottom: "LFCN_3_7x7"
  bottom: "label_3_7x7"
  top: "loss_3_7x7"
  detection_loss_param {
    cls_num: 5
    coord_num: 4
    lambda: 1
    field_h: 336
    field_w: 336
    downsample_rate: 32
    bb_smooth: true
    field_whr: 2
    field_xyr: 2
    bg_threshold: 0.2
    bg_multiple: 2
    sample_mode: "bootstrap"
    pos_neg_weighted: true
  }
}
layer {
  name: "detection_accuracy_3_7x7"
  type: "DetectionAccuracy"
  bottom: "LFCN_3_7x7"
  bottom: "label_3_7x7"
  top: "accuracy_3_7x7"
  top: "boxiou_3_7x7"
  detection_accuracy_param {
    cls_num: 5
    coord_num: 4
    field_h: 336
    field_w: 336
    downsample_rate: 32
    field_whr: 2
    field_xyr: 2
  }
}
layer {
  name: "pool6"
  type: "Pooling"
  bottom: "conv6_1"
  top: "pool6"
  pooling_param {
    pool: MAX
    kernel_size: 2
    stride: 2
  }
}
layer {
  name: "LFCN_4_5x5"
  type: "Convolution"
  bottom: "pool6"
  top: "LFCN_4_5x5"
  param {
    lr_mult: 1
    decay_mult: 1
  }
  param {
    lr_mult: 2
    decay_mult: 0
  }
  convolution_param {
    num_output: 9
    pad: 2
    kernel_size: 5
    weight_filler {
      type: "gaussian"
      std: 0.001
    }
    bias_filler {
      type: "constant"
    }
  }
}
layer {
  name: "detection_loss_4_5x5"
  type: "DetectionLoss"
  bottom: "LFCN_4_5x5"
  bottom: "label_4_5x5"
  top: "loss_4_5x5"
  detection_loss_param {
    cls_num: 5
    coord_num: 4
    lambda: 1
    field_h: 480
    field_w: 480
    downsample_rate: 64
    bb_smooth: true
    field_whr: 2
    field_xyr: 2
    bg_threshold: 0.2
    bg_multiple: 2
    sample_mode: "bootstrap"
    pos_neg_weighted: true
  }
}
layer {
  name: "detection_accuracy_4_5x5"
  type: "DetectionAccuracy"
  bottom: "LFCN_4_5x5"
  bottom: "label_4_5x5"
  top: "accuracy_4_5x5"
  top: "boxiou_4_5x5"
  detection_accuracy_param {
    cls_num: 5
    coord_num: 4
    field_h: 480
    field_w: 480
    downsample_rate: 64
    field_whr: 2
    field_xyr: 2
  }
}
layer {
  name: "proposals"
  type: "BoxOutput"
  bottom: "LFCN_1_5x5"
  bottom: "LFCN_1_7x7"
  bottom: "LFCN_2_5x5"
  bottom: "LFCN_2_7x7"
  bottom: "LFCN_3_5x5"
  bottom: "LFCN_3_7x7"
  bottom: "LFCN_4_5x5"
  top: "proposals"
  propagate_down: false
  propagate_down: false
  propagate_down: false
  propagate_down: false
  propagate_down: false
  propagate_down: false
  propagate_down: false
  box_output_param {
    fg_thr: -8
    iou_thr: 0.65
    nms_type: "IOU"
    field_h: 60
    field_h: 84
    field_h: 120
    field_h: 168
    field_h: 240
    field_h: 336
    field_h: 480
    field_w: 60
    field_w: 84
    field_w: 120
    field_w: 168
    field_w: 240
    field_w: 336
    field_w: 480
    downsample_rate: 8
    downsample_rate: 8
    downsample_rate: 16
    downsample_rate: 16
    downsample_rate: 32
    downsample_rate: 32
    downsample_rate: 64
    field_whr: 2
    field_xyr: 2
    max_nms_num: 3000
  }
}
layer {
  name: "proposal_info"
  type: "ProposalTarget"
  bottom: "proposals"
  bottom: "gt_boxes"
  top: "rois"
  top: "proposal_labels"
  top: "proposal_targets"
  top: "box_inside_weights"
  top: "box_outside_weights"
  top: "match_gt_boxes"
  include {
    phase: TRAIN
  }
  propagate_down: false
  propagate_down: false
  proposal_target_param {
    cls_num: 5
    batch_size: 256
    fg_fraction: 0.25
    num_img_per_batch: 4
    fg_thr: 0.5
    bg_thr_hg: 0.49
    bg_thr_lw: 0.1
    img_width: 768
    img_height: 576
  }
  bbox_reg_param {
    bbox_mean: 0
    bbox_mean: 0
    bbox_mean: 0
    bbox_mean: 0
    bbox_std: 0.1
    bbox_std: 0.1
    bbox_std: 0.2
    bbox_std: 0.2
  }
}
layer {
  name: "conv4_3_2x"
  type: "Deconvolution"
  bottom: "conv4_3"
  top: "conv4_3_2x"
  param {
    lr_mult: 0
    decay_mult: 0
  }
  convolution_param {
    num_output: 512
    bias_term: false
    pad: 1
    kernel_size: 4
    group: 512
    stride: 2
    weight_filler {
      type: "bilinear"
    }
  }
}
layer {
  name: "roi_pool_org"
  type: "ROIPooling"
  bottom: "conv4_3_2x"
  bottom: "rois"
  top: "roi_pool_org"
  roi_pooling_param {
    pooled_h: 7
    pooled_w: 7
    spatial_scale: 0.25
    pad_ratio: 0
  }
}
layer {
  name: "roi_pool_ctx"
  type: "ROIPooling"
  bottom: "conv4_3_2x"
  bottom: "rois"
  top: "roi_pool_ctx"
  roi_pooling_param {
    pooled_h: 7
    pooled_w: 7
    spatial_scale: 0.25
    pad_ratio: 0.25
  }
}
layer {
  name: "roi_pool"
  type: "Concat"
  bottom: "roi_pool_org"
  bottom: "roi_pool_ctx"
  top: "roi_pool"
}
layer {
  name: "roi_c1"
  type: "Convolution"
  bottom: "roi_pool"
  top: "roi_c1"
  param {
    lr_mult: 1
    decay_mult: 1
  }
  param {
    lr_mult: 2
    decay_mult: 0
  }
  convolution_param {
    num_output: 512
    kernel_size: 3
    weight_filler {
      type: "gaussian"
      std: 0.01
    }
    bias_filler {
      type: "constant"
    }
  }
}
layer {
  name: "roi_c1_relu"
  type: "ReLU"
  bottom: "roi_c1"
  top: "roi_c1"
}
layer {
  name: "fc6"
  type: "InnerProduct"
  bottom: "roi_c1"
  top: "fc6"
  param {
    lr_mult: 1
  }
  param {
    lr_mult: 2
  }
  inner_product_param {
    num_output: 4096
    weight_filler {
      type: "gaussian"
      std: 0.001
    }
    bias_filler {
      type: "constant"
      value: 0
    }
  }
}
layer {
  name: "relu6"
  type: "ReLU"
  bottom: "fc6"
  top: "fc6"
}
layer {
  name: "drop6"
  type: "Dropout"
  bottom: "fc6"
  top: "fc6"
  dropout_param {
    dropout_ratio: 0.5
  }
}
layer {
  name: "cls_pred"
  type: "InnerProduct"
  bottom: "fc6"
  top: "cls_pred"
  param {
    lr_mult: 1
  }
  param {
    lr_mult: 2
  }
  inner_product_param {
    num_output: 5
    weight_filler {
      type: "gaussian"
      std: 0.01
    }
    bias_filler {
      type: "constant"
      value: 0
    }
  }
}
layer {
  name: "bbox_pred"
  type: "InnerProduct"
  bottom: "fc6"
  top: "bbox_pred"
  param {
    lr_mult: 1
  }
  param {
    lr_mult: 2
  }
  inner_product_param {
    num_output: 20
    weight_filler {
      type: "gaussian"
      std: 0.001
    }
    bias_filler {
      type: "constant"
      value: 0
    }
  }
}
layer {
  name: "loss_cls"
  type: "SoftmaxWithLoss"
  bottom: "cls_pred"
  bottom: "proposal_labels"
  top: "loss_cls"
  loss_weight: 1
  propagate_down: true
  propagate_down: false
}
layer {
  name: "cls_accuracy"
  type: "Accuracy"
  bottom: "cls_pred"
  bottom: "proposal_labels"
  top: "cls_accuracy"
}
layer {
  name: "loss_bbox"
  type: "SmoothL1Loss"
  bottom: "bbox_pred"
  bottom: "proposal_targets"
  bottom: "box_inside_weights"
  bottom: "box_outside_weights"
  top: "loss_bbox"
  loss_weight: 1
}
layer {
  name: "bbox_iou"
  type: "BboxAccuracy"
  bottom: "bbox_pred"
  bottom: "rois"
  bottom: "match_gt_boxes"
  top: "bbox_iou"
  top: "bbox_iou_pre"
  bbox_reg_param {
    bbox_mean: 0
    bbox_mean: 0
    bbox_mean: 0
    bbox_mean: 0
    bbox_std: 0.1
    bbox_std: 0.1
    bbox_std: 0.2
    bbox_std: 0.2
  }
}
I0202 00:15:15.620043 31870 layer_factory.hpp:77] Creating layer data
I0202 00:15:15.620558 31870 net.cpp:100] Creating Layer data
I0202 00:15:15.620733 31870 net.cpp:408] data -> data
…
I0202 00:15:15.645073 31870 image_gt_data_layer.cpp:235] output label size 2 : 3,6,48,48
I0202 00:15:15.645117 31870 image_gt_data_layer.cpp:235] output label size 3 : 3,6,48,48
I0202 00:15:15.645159 31870 image_gt_data_layer.cpp:235] output label size 4 : 3,6,24,24
I0202 00:15:15.645202 31870 image_gt_data_layer.cpp:235] output label size 5 : 3,6,24,24
I0202 00:15:15.645244 31870 image_gt_data_layer.cpp:235] output label size 6 : 3,6,12,12
I0202 00:15:15.645287 31870 image_gt_data_layer.cpp:250] output gt boxes size: 1,7,1,1
I0202 00:15:15.699048 31870 net.cpp:150] Setting up data
I0202 00:15:15.699118 31870 net.cpp:157] Top shape: 3 4 768 768 (7077888)
I0202 00:15:15.699128 31870 net.cpp:157] Top shape: 3 6 96 96 (165888)
I0202 00:15:15.699134 31870 net.cpp:157] Top shape: 3 6 96 96 (165888)
I0202 00:15:15.699141 31870 net.cpp:157] Top shape: 3 6 48 48 (41472)
I0202 00:15:15.699147 31870 net.cpp:157] Top shape: 3 6 48 48 (41472)
I0202 00:15:15.699153 31870 net.cpp:157] Top shape: 3 6 24 24 (10368)
I0202 00:15:15.699160 31870 net.cpp:157] Top shape: 3 6 24 24 (10368)
I0202 00:15:15.699167 31870 net.cpp:157] Top shape: 3 6 12 12 (2592)
I0202 00:15:15.699172 31870 net.cpp:157] Top shape: 1 7 1 1 (7)
I0202 00:15:15.699177 31870 net.cpp:165] Memory required for data: 30063772
I0202 00:15:15.699199 31870 layer_factory.hpp:77] Creating layer label_1_5x5_data_1_split
I0202 00:15:15.699241 31870 net.cpp:100] Creating Layer label_1_5x5_data_1_split
I0202 00:15:15.699252 31870 net.cpp:434] label_1_5x5_data_1_split <- label_1_5x5
I0202 00:15:15.699270 31870 net.cpp:408] label_1_5x5_data_1_split -> label_1_5x5_data_1_split_0
I0202 00:15:15.699283 31870 net.cpp:408] label_1_5x5_data_1_split -> label_1_5x5_data_1_split_1
I0202 00:15:15.699551 31870 net.cpp:150] Setting up label_1_5x5_data_1_split
I0202 00:15:15.699595 31870 net.cpp:157] Top shape: 3 6 96 96 (165888)
I0202 00:15:15.699609 31870 net.cpp:157] Top shape: 3 6 96 96 (165888)
I0202 00:15:15.699618 31870 net.cpp:165] Memory required for data: 31390876
I0202 00:15:15.699630 31870 layer_factory.hpp:77] Creating layer label_1_7x7_data_2_split
I0202 00:15:15.699653 31870 net.cpp:100] Creating Layer label_1_7x7_data_2_split
I0202 00:15:15.699666 31870 net.cpp:434] label_1_7x7_data_2_split <- label_1_7x7
I0202 00:15:15.699681 31870 net.cpp:408] label_1_7x7_data_2_split -> label_1_7x7_data_2_split_0
I0202 00:15:15.699698 31870 net.cpp:408] label_1_7x7_data_2_split -> label_1_7x7_data_2_split_1
I0202 00:15:15.699779 31870 net.cpp:150] Setting up label_1_7x7_data_2_split
I0202 00:15:15.699793 31870 net.cpp:157] Top shape: 3 6 96 96 (165888)
I0202 00:15:15.699803 31870 net.cpp:157] Top shape: 3 6 96 96 (165888)
I0202 00:15:15.699811 31870 net.cpp:165] Memory required for data: 32717980
I0202 00:15:15.699820 31870 layer_factory.hpp:77] Creating layer label_2_5x5_data_3_split
I0202 00:15:15.699831 31870 net.cpp:100] Creating Layer label_2_5x5_data_3_split
I0202 00:15:15.699838 31870 net.cpp:434] label_2_5x5_data_3_split <- label_2_5x5
I0202 00:15:15.699851 31870 net.cpp:408] label_2_5x5_data_3_split -> label_2_5x5_data_3_split_0
I0202 00:15:15.699877 31870 net.cpp:408] label_2_5x5_data_3_split -> label_2_5x5_data_3_split_1
I0202 00:15:15.699937 31870 net.cpp:150] Setting up label_2_5x5_data_3_split
I0202 00:15:15.699951 31870 net.cpp:157] Top shape: 3 6 48 48 (41472)
I0202 00:15:15.699962 31870 net.cpp:157] Top shape: 3 6 48 48 (41472)
I0202 00:15:15.699970 31870 net.cpp:165] Memory required for data: 33049756
I0202 00:15:15.699978 31870 layer_factory.hpp:77] Creating layer label_2_7x7_data_4_split
I0202 00:15:15.699992 31870 net.cpp:100] Creating Layer label_2_7x7_data_4_split
I0202 00:15:15.700001 31870 net.cpp:434] label_2_7x7_data_4_split <- label_2_7x7
I0202 00:15:15.700013 31870 net.cpp:408] label_2_7x7_data_4_split -> label_2_7x7_data_4_split_0
I0202 00:15:15.700026 31870 net.cpp:408] label_2_7x7_data_4_split -> label_2_7x7_data_4_split_1
I0202 00:15:15.700086 31870 net.cpp:150] Setting up label_2_7x7_data_4_split
I0202 00:15:15.700101 31870 net.cpp:157] Top shape: 3 6 48 48 (41472)
I0202 00:15:15.700112 31870 net.cpp:157] Top shape: 3 6 48 48 (41472)
I0202 00:15:15.700119 31870 net.cpp:165] Memory required for data: 33381532
I0202 00:15:15.700127 31870 layer_factory.hpp:77] Creating layer label_3_5x5_data_5_split
I0202 00:15:15.700139 31870 net.cpp:100] Creating Layer label_3_5x5_data_5_split
I0202 00:15:15.700146 31870 net.cpp:434] label_3_5x5_data_5_split <- label_3_5x5
I0202 00:15:15.700158 31870 net.cpp:408] label_3_5x5_data_5_split -> label_3_5x5_data_5_split_0
I0202 00:15:15.700171 31870 net.cpp:408] label_3_5x5_data_5_split -> label_3_5x5_data_5_split_1
I0202 00:15:15.700230 31870 net.cpp:150] Setting up label_3_5x5_data_5_split
I0202 00:15:15.700244 31870 net.cpp:157] Top shape: 3 6 24 24 (10368)
I0202 00:15:15.700254 31870 net.cpp:157] Top shape: 3 6 24 24 (10368)
I0202 00:15:15.700263 31870 net.cpp:165] Memory required for data: 33464476
I0202 00:15:15.700270 31870 layer_factory.hpp:77] Creating layer label_3_7x7_data_6_split
I0202 00:15:15.700280 31870 net.cpp:100] Creating Layer label_3_7x7_data_6_split
I0202 00:15:15.700289 31870 net.cpp:434] label_3_7x7_data_6_split <- label_3_7x7
I0202 00:15:15.700300 31870 net.cpp:408] label_3_7x7_data_6_split -> label_3_7x7_data_6_split_0
I0202 00:15:15.700314 31870 net.cpp:408] label_3_7x7_data_6_split -> label_3_7x7_data_6_split_1
I0202 00:15:15.700374 31870 net.cpp:150] Setting up label_3_7x7_data_6_split
I0202 00:15:15.700387 31870 net.cpp:157] Top shape: 3 6 24 24 (10368)
I0202 00:15:15.700397 31870 net.cpp:157] Top shape: 3 6 24 24 (10368)
I0202 00:15:15.700405 31870 net.cpp:165] Memory required for data: 33547420
I0202 00:15:15.700413 31870 layer_factory.hpp:77] Creating layer label_4_5x5_data_7_split
I0202 00:15:15.700423 31870 net.cpp:100] Creating Layer label_4_5x5_data_7_split
I0202 00:15:15.700431 31870 net.cpp:434] label_4_5x5_data_7_split <- label_4_5x5
I0202 00:15:15.700443 31870 net.cpp:408] label_4_5x5_data_7_split -> label_4_5x5_data_7_split_0
I0202 00:15:15.700454 31870 net.cpp:408] label_4_5x5_data_7_split -> label_4_5x5_data_7_split_1
I0202 00:15:15.700511 31870 net.cpp:150] Setting up label_4_5x5_data_7_split
I0202 00:15:15.700525 31870 net.cpp:157] Top shape: 3 6 12 12 (2592)
I0202 00:15:15.700536 31870 net.cpp:157] Top shape: 3 6 12 12 (2592)
I0202 00:15:15.700542 31870 net.cpp:165] Memory required for data: 33568156
I0202 00:15:15.700551 31870 layer_factory.hpp:77] Creating layer slice
I0202 00:15:15.700575 31870 net.cpp:100] Creating Layer slice
I0202 00:15:15.700585 31870 net.cpp:434] slice <- data
I0202 00:15:15.700598 31870 net.cpp:408] slice -> data123
I0202 00:15:15.700616 31870 net.cpp:408] slice -> ch4
I0202 00:15:15.700690 31870 net.cpp:150] Setting up slice
I0202 00:15:15.700703 31870 net.cpp:157] Top shape: 3 3 768 768 (5308416)
I0202 00:15:15.700713 31870 net.cpp:157] Top shape: 3 1 768 768 (1769472)
I0202 00:15:15.700721 31870 net.cpp:165] Memory required for data: 61879708
I0202 00:15:15.700728 31870 layer_factory.hpp:77] Creating layer conv1_1
I0202 00:15:15.700754 31870 net.cpp:100] Creating Layer conv1_1
I0202 00:15:15.700765 31870 net.cpp:434] conv1_1 <- data123
I0202 00:15:15.700778 31870 net.cpp:408] conv1_1 -> conv1_1
I0202 00:15:15.994186 31870 net.cpp:150] Setting up conv1_1
I0202 00:15:15.994230 31870 net.cpp:157] Top shape: 3 64 768 768 (113246208)
I0202 00:15:15.994235 31870 net.cpp:165] Memory required for data: 514864540
I0202 00:15:15.994263 31870 layer_factory.hpp:77] Creating layer relu1_1
I0202 00:15:15.994287 31870 net.cpp:100] Creating Layer relu1_1
I0202 00:15:15.994297 31870 net.cpp:434] relu1_1 <- conv1_1
I0202 00:15:15.994307 31870 net.cpp:395] relu1_1 -> conv1_1 (in-place)
I0202 00:15:15.994568 31870 net.cpp:150] Setting up relu1_1
I0202 00:15:15.994581 31870 net.cpp:157] Top shape: 3 64 768 768 (113246208)
I0202 00:15:15.994586 31870 net.cpp:165] Memory required for data: 967849372
I0202 00:15:15.994593 31870 layer_factory.hpp:77] Creating layer conv1_2
I0202 00:15:15.994611 31870 net.cpp:100] Creating Layer conv1_2
I0202 00:15:15.994617 31870 net.cpp:434] conv1_2 <- conv1_1
I0202 00:15:15.994626 31870 net.cpp:408] conv1_2 -> conv1_2
I0202 00:15:15.997158 31870 net.cpp:150] Setting up conv1_2
I0202 00:15:15.997195 31870 net.cpp:157] Top shape: 3 64 768 768 (113246208)
I0202 00:15:15.997200 31870 net.cpp:165] Memory required for data: 1420834204
I0202 00:15:15.997216 31870 layer_factory.hpp:77] Creating layer relu1_2
I0202 00:15:15.997233 31870 net.cpp:100] Creating Layer relu1_2
I0202 00:15:15.997242 31870 net.cpp:434] relu1_2 <- conv1_2
I0202 00:15:15.997251 31870 net.cpp:395] relu1_2 -> conv1_2 (in-place)
I0202 00:15:15.997517 31870 net.cpp:150] Setting up relu1_2
I0202 00:15:15.997529 31870 net.cpp:157] Top shape: 3 64 768 768 (113246208)
I0202 00:15:15.997534 31870 net.cpp:165] Memory required for data: 1873819036
I0202 00:15:15.997539 31870 layer_factory.hpp:77] Creating layer pool1
I0202 00:15:15.997550 31870 net.cpp:100] Creating Layer pool1
I0202 00:15:15.997556 31870 net.cpp:434] pool1 <- conv1_2
I0202 00:15:15.997565 31870 net.cpp:408] pool1 -> pool1
I0202 00:15:15.997645 31870 net.cpp:150] Setting up pool1
I0202 00:15:15.997653 31870 net.cpp:157] Top shape: 3 64 384 384 (28311552)
I0202 00:15:15.997658 31870 net.cpp:165] Memory required for data: 1987065244
I0202 00:15:15.997663 31870 layer_factory.hpp:77] Creating layer ch4_pool1
I0202 00:15:15.997669 31870 net.cpp:100] Creating Layer ch4_pool1
I0202 00:15:15.997674 31870 net.cpp:434] ch4_pool1 <- ch4
I0202 00:15:15.997681 31870 net.cpp:408] ch4_pool1 -> ch4_pool1
I0202 00:15:15.997714 31870 net.cpp:150] Setting up ch4_pool1
I0202 00:15:15.997720 31870 net.cpp:157] Top shape: 3 1 384 384 (442368)
I0202 00:15:15.997723 31870 net.cpp:165] Memory required for data: 1988834716
I0202 00:15:15.997727 31870 layer_factory.hpp:77] Creating layer ch4_pool1_ch4_pool1_0_split
I0202 00:15:15.997733 31870 net.cpp:100] Creating Layer ch4_pool1_ch4_pool1_0_split
I0202 00:15:15.997737 31870 net.cpp:434] ch4_pool1_ch4_pool1_0_split <- ch4_pool1
I0202 00:15:15.997742 31870 net.cpp:408] ch4_pool1_ch4_pool1_0_split -> ch4_pool1_ch4_pool1_0_split_0
I0202 00:15:15.997747 31870 net.cpp:408] ch4_pool1_ch4_pool1_0_split -> ch4_pool1_ch4_pool1_0_split_1
I0202 00:15:15.997777 31870 net.cpp:150] Setting up ch4_pool1_ch4_pool1_0_split
I0202 00:15:15.997783 31870 net.cpp:157] Top shape: 3 1 384 384 (442368)
I0202 00:15:15.997788 31870 net.cpp:157] Top shape: 3 1 384 384 (442368)
I0202 00:15:15.997792 31870 net.cpp:165] Memory required for data: 1992373660
I0202 00:15:15.997797 31870 layer_factory.hpp:77] Creating layer pool1_concat
I0202 00:15:15.997808 31870 net.cpp:100] Creating Layer pool1_concat
I0202 00:15:15.997814 31870 net.cpp:434] pool1_concat <- pool1
I0202 00:15:15.997820 31870 net.cpp:434] pool1_concat <- ch4_pool1_ch4_pool1_0_split_0
I0202 00:15:15.997828 31870 net.cpp:408] pool1_concat -> pool1_new
I0202 00:15:15.997858 31870 net.cpp:150] Setting up pool1_concat
I0202 00:15:15.997865 31870 net.cpp:157] Top shape: 3 65 384 384 (28753920)
I0202 00:15:15.997869 31870 net.cpp:165] Memory required for data: 2107389340
I0202 00:15:15.997874 31870 layer_factory.hpp:77] Creating layer conv2_1_new
I0202 00:15:15.997885 31870 net.cpp:100] Creating Layer conv2_1_new
I0202 00:15:15.997892 31870 net.cpp:434] conv2_1_new <- pool1_new
I0202 00:15:15.997900 31870 net.cpp:408] conv2_1_new -> conv2_1
I0202 00:15:16.000349 31870 net.cpp:150] Setting up conv2_1_new
I0202 00:15:16.000372 31870 net.cpp:157] Top shape: 3 128 384 384 (56623104)
I0202 00:15:16.000376 31870 net.cpp:165] Memory required for data: 2333881756
I0202 00:15:16.000388 31870 layer_factory.hpp:77] Creating layer relu2_1
I0202 00:15:16.000398 31870 net.cpp:100] Creating Layer relu2_1
I0202 00:15:16.000404 31870 net.cpp:434] relu2_1 <- conv2_1
I0202 00:15:16.000411 31870 net.cpp:395] relu2_1 -> conv2_1 (in-place)
I0202 00:15:16.000572 31870 net.cpp:150] Setting up relu2_1
I0202 00:15:16.000581 31870 net.cpp:157] Top shape: 3 128 384 384 (56623104)
I0202 00:15:16.000586 31870 net.cpp:165] Memory required for data: 2560374172
I0202 00:15:16.000591 31870 layer_factory.hpp:77] Creating layer conv2_2
I0202 00:15:16.000602 31870 net.cpp:100] Creating Layer conv2_2
I0202 00:15:16.000607 31870 net.cpp:434] conv2_2 <- conv2_1
I0202 00:15:16.000612 31870 net.cpp:408] conv2_2 -> conv2_2
I0202 00:15:16.002173 31870 net.cpp:150] Setting up conv2_2
I0202 00:15:16.002187 31870 net.cpp:157] Top shape: 3 128 384 384 (56623104)
I0202 00:15:16.002192 31870 net.cpp:165] Memory required for data: 2786866588
I0202 00:15:16.002199 31870 layer_factory.hpp:77] Creating layer relu2_2
I0202 00:15:16.002205 31870 net.cpp:100] Creating Layer relu2_2
I0202 00:15:16.002209 31870 net.cpp:434] relu2_2 <- conv2_2
I0202 00:15:16.002214 31870 net.cpp:395] relu2_2 -> conv2_2 (in-place)
I0202 00:15:16.002378 31870 net.cpp:150] Setting up relu2_2
I0202 00:15:16.002388 31870 net.cpp:157] Top shape: 3 128 384 384 (56623104)
I0202 00:15:16.002393 31870 net.cpp:165] Memory required for data: 3013359004
I0202 00:15:16.002398 31870 layer_factory.hpp:77] Creating layer pool2
I0202 00:15:16.002405 31870 net.cpp:100] Creating Layer pool2
I0202 00:15:16.002410 31870 net.cpp:434] pool2 <- conv2_2
I0202 00:15:16.002418 31870 net.cpp:408] pool2 -> pool2
I0202 00:15:16.002457 31870 net.cpp:150] Setting up pool2
I0202 00:15:16.002465 31870 net.cpp:157] Top shape: 3 128 192 192 (14155776)
I0202 00:15:16.002467 31870 net.cpp:165] Memory required for data: 3069982108
I0202 00:15:16.002472 31870 layer_factory.hpp:77] Creating layer ch4_pool2
I0202 00:15:16.002480 31870 net.cpp:100] Creating Layer ch4_pool2
I0202 00:15:16.002483 31870 net.cpp:434] ch4_pool2 <- ch4_pool1_ch4_pool1_0_split_1
I0202 00:15:16.002490 31870 net.cpp:408] ch4_pool2 -> ch4_pool2
I0202 00:15:16.002524 31870 net.cpp:150] Setting up ch4_pool2
I0202 00:15:16.002532 31870 net.cpp:157] Top shape: 3 1 192 192 (110592)
I0202 00:15:16.002535 31870 net.cpp:165] Memory required for data: 3070424476
I0202 00:15:16.002540 31870 layer_factory.hpp:77] Creating layer ch4_pool2_ch4_pool2_0_split
I0202 00:15:16.002547 31870 net.cpp:100] Creating Layer ch4_pool2_ch4_pool2_0_split
I0202 00:15:16.002550 31870 net.cpp:434] ch4_pool2_ch4_pool2_0_split <- ch4_pool2
I0202 00:15:16.002559 31870 net.cpp:408] ch4_pool2_ch4_pool2_0_split -> ch4_pool2_ch4_pool2_0_split_0
I0202 00:15:16.002566 31870 net.cpp:408] ch4_pool2_ch4_pool2_0_split -> ch4_pool2_ch4_pool2_0_split_1
I0202 00:15:16.002601 31870 net.cpp:150] Setting up ch4_pool2_ch4_pool2_0_split
I0202 00:15:16.002609 31870 net.cpp:157] Top shape: 3 1 192 192 (110592)
I0202 00:15:16.002614 31870 net.cpp:157] Top shape: 3 1 192 192 (110592)
I0202 00:15:16.002617 31870 net.cpp:165] Memory required for data: 3071309212
I0202 00:15:16.002622 31870 layer_factory.hpp:77] Creating layer pool2_concat
I0202 00:15:16.002629 31870 net.cpp:100] Creating Layer pool2_concat
I0202 00:15:16.002632 31870 net.cpp:434] pool2_concat <- pool2
I0202 00:15:16.002638 31870 net.cpp:434] pool2_concat <- ch4_pool2_ch4_pool2_0_split_0
I0202 00:15:16.002645 31870 net.cpp:408] pool2_concat -> pool2_new
I0202 00:15:16.002670 31870 net.cpp:150] Setting up pool2_concat
I0202 00:15:16.002676 31870 net.cpp:157] Top shape: 3 129 192 192 (14266368)
I0202 00:15:16.002678 31870 net.cpp:165] Memory required for data: 3128374684
I0202 00:15:16.002684 31870 layer_factory.hpp:77] Creating layer conv3_1_new
I0202 00:15:16.002693 31870 net.cpp:100] Creating Layer conv3_1_new
I0202 00:15:16.002698 31870 net.cpp:434] conv3_1_new <- pool2_new
I0202 00:15:16.002704 31870 net.cpp:408] conv3_1_new -> conv3_1
I0202 00:15:16.005054 31870 net.cpp:150] Setting up conv3_1_new
I0202 00:15:16.005072 31870 net.cpp:157] Top shape: 3 256 192 192 (28311552)
I0202 00:15:16.005077 31870 net.cpp:165] Memory required for data: 3241620892
I0202 00:15:16.005092 31870 layer_factory.hpp:77] Creating layer relu3_1
I0202 00:15:16.005101 31870 net.cpp:100] Creating Layer relu3_1
I0202 00:15:16.005107 31870 net.cpp:434] relu3_1 <- conv3_1
I0202 00:15:16.005113 31870 net.cpp:395] relu3_1 -> conv3_1 (in-place)
I0202 00:15:16.005714 31870 net.cpp:150] Setting up relu3_1
I0202 00:15:16.005731 31870 net.cpp:157] Top shape: 3 256 192 192 (28311552)
I0202 00:15:16.005736 31870 net.cpp:165] Memory required for data: 3354867100
I0202 00:15:16.005741 31870 layer_factory.hpp:77] Creating layer conv3_2
I0202 00:15:16.005751 31870 net.cpp:100] Creating Layer conv3_2
I0202 00:15:16.005769 31870 net.cpp:434] conv3_2 <- conv3_1
I0202 00:15:16.005777 31870 net.cpp:408] conv3_2 -> conv3_2
I0202 00:15:16.008472 31870 net.cpp:150] Setting up conv3_2
I0202 00:15:16.008496 31870 net.cpp:157] Top shape: 3 256 192 192 (28311552)
I0202 00:15:16.008499 31870 net.cpp:165] Memory required for data: 3468113308
I0202 00:15:16.008509 31870 layer_factory.hpp:77] Creating layer relu3_2
I0202 00:15:16.008520 31870 net.cpp:100] Creating Layer relu3_2
I0202 00:15:16.008527 31870 net.cpp:434] relu3_2 <- conv3_2
I0202 00:15:16.008533 31870 net.cpp:395] relu3_2 -> conv3_2 (in-place)
I0202 00:15:16.009032 31870 net.cpp:150] Setting up relu3_2
I0202 00:15:16.009049 31870 net.cpp:157] Top shape: 3 256 192 192 (28311552)
I0202 00:15:16.009053 31870 net.cpp:165] Memory required for data: 3581359516
I0202 00:15:16.009059 31870 layer_factory.hpp:77] Creating layer conv3_3
I0202 00:15:16.009079 31870 net.cpp:100] Creating Layer conv3_3
I0202 00:15:16.009083 31870 net.cpp:434] conv3_3 <- conv3_2
I0202 00:15:16.009093 31870 net.cpp:408] conv3_3 -> conv3_3
I0202 00:15:16.013082 31870 net.cpp:150] Setting up conv3_3
I0202 00:15:16.013115 31870 net.cpp:157] Top shape: 3 256 192 192 (28311552)
I0202 00:15:16.013120 31870 net.cpp:165] Memory required for data: 3694605724
I0202 00:15:16.013130 31870 layer_factory.hpp:77] Creating layer relu3_3
I0202 00:15:16.013144 31870 net.cpp:100] Creating Layer relu3_3
I0202 00:15:16.013150 31870 net.cpp:434] relu3_3 <- conv3_3
I0202 00:15:16.013157 31870 net.cpp:395] relu3_3 -> conv3_3 (in-place)
I0202 00:15:16.013373 31870 net.cpp:150] Setting up relu3_3
I0202 00:15:16.013386 31870 net.cpp:157] Top shape: 3 256 192 192 (28311552)
I0202 00:15:16.013391 31870 net.cpp:165] Memory required for data: 3807851932
I0202 00:15:16.013394 31870 layer_factory.hpp:77] Creating layer pool3
I0202 00:15:16.013406 31870 net.cpp:100] Creating Layer pool3
I0202 00:15:16.013411 31870 net.cpp:434] pool3 <- conv3_3
I0202 00:15:16.013422 31870 net.cpp:408] pool3 -> pool3
I0202 00:15:16.013481 31870 net.cpp:150] Setting up pool3
I0202 00:15:16.013491 31870 net.cpp:157] Top shape: 3 256 96 96 (7077888)
I0202 00:15:16.013495 31870 net.cpp:165] Memory required for data: 3836163484
I0202 00:15:16.013499 31870 layer_factory.hpp:77] Creating layer ch4_pool3
I0202 00:15:16.013556 31870 net.cpp:100] Creating Layer ch4_pool3
I0202 00:15:16.013566 31870 net.cpp:434] ch4_pool3 <- ch4_pool2_ch4_pool2_0_split_1
I0202 00:15:16.013571 31870 net.cpp:408] ch4_pool3 -> ch4_pool3
I0202 00:15:16.013617 31870 net.cpp:150] Setting up ch4_pool3
I0202 00:15:16.013626 31870 net.cpp:157] Top shape: 3 1 96 96 (27648)
I0202 00:15:16.013630 31870 net.cpp:165] Memory required for data: 3836274076
I0202 00:15:16.013633 31870 layer_factory.hpp:77] Creating layer ch4_pool3_ch4_pool3_0_split
I0202 00:15:16.013640 31870 net.cpp:100] Creating Layer ch4_pool3_ch4_pool3_0_split
I0202 00:15:16.013645 31870 net.cpp:434] ch4_pool3_ch4_pool3_0_split <- ch4_pool3
I0202 00:15:16.013651 31870 net.cpp:408] ch4_pool3_ch4_pool3_0_split -> ch4_pool3_ch4_pool3_0_split_0
I0202 00:15:16.013659 31870 net.cpp:408] ch4_pool3_ch4_pool3_0_split -> ch4_pool3_ch4_pool3_0_split_1
I0202 00:15:16.013697 31870 net.cpp:150] Setting up ch4_pool3_ch4_pool3_0_split
I0202 00:15:16.013705 31870 net.cpp:157] Top shape: 3 1 96 96 (27648)
I0202 00:15:16.013710 31870 net.cpp:157] Top shape: 3 1 96 96 (27648)
I0202 00:15:16.013712 31870 net.cpp:165] Memory required for data: 3836495260
I0202 00:15:16.013716 31870 layer_factory.hpp:77] Creating layer pool3_concat
I0202 00:15:16.013723 31870 net.cpp:100] Creating Layer pool3_concat
I0202 00:15:16.013727 31870 net.cpp:434] pool3_concat <- pool3
I0202 00:15:16.013731 31870 net.cpp:434] pool3_concat <- ch4_pool3_ch4_pool3_0_split_0
I0202 00:15:16.013736 31870 net.cpp:408] pool3_concat -> pool3_new
I0202 00:15:16.013757 31870 net.cpp:150] Setting up pool3_concat
I0202 00:15:16.013763 31870 net.cpp:157] Top shape: 3 257 96 96 (7105536)
I0202 00:15:16.013767 31870 net.cpp:165] Memory required for data: 3864917404
I0202 00:15:16.013769 31870 layer_factory.hpp:77] Creating layer conv4_1_new
I0202 00:15:16.013779 31870 net.cpp:100] Creating Layer conv4_1_new
I0202 00:15:16.013782 31870 net.cpp:434] conv4_1_new <- pool3_new
I0202 00:15:16.013787 31870 net.cpp:408] conv4_1_new -> conv4_1
I0202 00:15:16.017974 31870 net.cpp:150] Setting up conv4_1_new
I0202 00:15:16.018003 31870 net.cpp:157] Top shape: 3 512 96 96 (14155776)
I0202 00:15:16.018008 31870 net.cpp:165] Memory required for data: 3921540508
I0202 00:15:16.018018 31870 layer_factory.hpp:77] Creating layer relu4_1
I0202 00:15:16.018030 31870 net.cpp:100] Creating Layer relu4_1
I0202 00:15:16.018036 31870 net.cpp:434] relu4_1 <- conv4_1
I0202 00:15:16.018043 31870 net.cpp:395] relu4_1 -> conv4_1 (in-place)
I0202 00:15:16.018205 31870 net.cpp:150] Setting up relu4_1
I0202 00:15:16.018214 31870 net.cpp:157] Top shape: 3 512 96 96 (14155776)
I0202 00:15:16.018218 31870 net.cpp:165] Memory required for data: 3978163612
I0202 00:15:16.018221 31870 layer_factory.hpp:77] Creating layer conv4_2
I0202 00:15:16.018231 31870 net.cpp:100] Creating Layer conv4_2
I0202 00:15:16.018235 31870 net.cpp:434] conv4_2 <- conv4_1
I0202 00:15:16.018242 31870 net.cpp:408] conv4_2 -> conv4_2
I0202 00:15:16.028744 31870 net.cpp:150] Setting up conv4_2
I0202 00:15:16.028782 31870 net.cpp:157] Top shape: 3 512 96 96 (14155776)
I0202 00:15:16.028786 31870 net.cpp:165] Memory required for data: 4034786716
I0202 00:15:16.028802 31870 layer_factory.hpp:77] Creating layer relu4_2
I0202 00:15:16.028815 31870 net.cpp:100] Creating Layer relu4_2
I0202 00:15:16.028821 31870 net.cpp:434] relu4_2 <- conv4_2
I0202 00:15:16.028828 31870 net.cpp:395] relu4_2 -> conv4_2 (in-place)
I0202 00:15:16.029014 31870 net.cpp:150] Setting up relu4_2
I0202 00:15:16.029024 31870 net.cpp:157] Top shape: 3 512 96 96 (14155776)
I0202 00:15:16.029028 31870 net.cpp:165] Memory required for data: 4091409820
I0202 00:15:16.029032 31870 layer_factory.hpp:77] Creating layer conv4_3
I0202 00:15:16.029042 31870 net.cpp:100] Creating Layer conv4_3
I0202 00:15:16.029047 31870 net.cpp:434] conv4_3 <- conv4_2
I0202 00:15:16.029052 31870 net.cpp:408] conv4_3 -> conv4_3
I0202 00:15:16.035722 31870 net.cpp:150] Setting up conv4_3
I0202 00:15:16.035755 31870 net.cpp:157] Top shape: 3 512 96 96 (14155776)
I0202 00:15:16.035759 31870 net.cpp:165] Memory required for data: 4148032924
I0202 00:15:16.035769 31870 layer_factory.hpp:77] Creating layer relu4_3
I0202 00:15:16.035784 31870 net.cpp:100] Creating Layer relu4_3
I0202 00:15:16.035790 31870 net.cpp:434] relu4_3 <- conv4_3
I0202 00:15:16.035796 31870 net.cpp:395] relu4_3 -> conv4_3 (in-place)
I0202 00:15:16.035950 31870 net.cpp:150] Setting up relu4_3
I0202 00:15:16.035960 31870 net.cpp:157] Top shape: 3 512 96 96 (14155776)
I0202 00:15:16.035964 31870 net.cpp:165] Memory required for data: 4204656028
I0202 00:15:16.035967 31870 layer_factory.hpp:77] Creating layer conv4_3_relu4_3_0_split
I0202 00:15:16.035974 31870 net.cpp:100] Creating Layer conv4_3_relu4_3_0_split
I0202 00:15:16.035977 31870 net.cpp:434] conv4_3_relu4_3_0_split <- conv4_3
I0202 00:15:16.035982 31870 net.cpp:408] conv4_3_relu4_3_0_split -> conv4_3_relu4_3_0_split_0
I0202 00:15:16.035989 31870 net.cpp:408] conv4_3_relu4_3_0_split -> conv4_3_relu4_3_0_split_1
I0202 00:15:16.035996 31870 net.cpp:408] conv4_3_relu4_3_0_split -> conv4_3_relu4_3_0_split_2
I0202 00:15:16.036041 31870 net.cpp:150] Setting up conv4_3_relu4_3_0_split
I0202 00:15:16.036047 31870 net.cpp:157] Top shape: 3 512 96 96 (14155776)
I0202 00:15:16.036051 31870 net.cpp:157] Top shape: 3 512 96 96 (14155776)
I0202 00:15:16.036056 31870 net.cpp:157] Top shape: 3 512 96 96 (14155776)
I0202 00:15:16.036058 31870 net.cpp:165] Memory required for data: 4374525340
I0202 00:15:16.036062 31870 layer_factory.hpp:77] Creating layer loss1_conv1
I0202 00:15:16.036072 31870 net.cpp:100] Creating Layer loss1_conv1
I0202 00:15:16.036077 31870 net.cpp:434] loss1_conv1 <- conv4_3_relu4_3_0_split_0
I0202 00:15:16.036084 31870 net.cpp:408] loss1_conv1 -> loss1_conv1
I0202 00:15:16.106704 31870 net.cpp:150] Setting up loss1_conv1
I0202 00:15:16.106753 31870 net.cpp:157] Top shape: 3 512 96 96 (14155776)
I0202 00:15:16.106765 31870 net.cpp:165] Memory required for data: 4431148444
I0202 00:15:16.106782 31870 layer_factory.hpp:77] Creating layer loss_relu1
I0202 00:15:16.106804 31870 net.cpp:100] Creating Layer loss_relu1
I0202 00:15:16.106815 31870 net.cpp:434] loss_relu1 <- loss1_conv1
I0202 00:15:16.106827 31870 net.cpp:395] loss_relu1 -> loss1_conv1 (in-place)
I0202 00:15:16.107841 31870 net.cpp:150] Setting up loss_relu1
I0202 00:15:16.107867 31870 net.cpp:157] Top shape: 3 512 96 96 (14155776)
I0202 00:15:16.107875 31870 net.cpp:165] Memory required for data: 4487771548
I0202 00:15:16.107884 31870 layer_factory.hpp:77] Creating layer loss1_conv1_loss_relu1_0_split
I0202 00:15:16.107897 31870 net.cpp:100] Creating Layer loss1_conv1_loss_relu1_0_split
I0202 00:15:16.107905 31870 net.cpp:434] loss1_conv1_loss_relu1_0_split <- loss1_conv1
I0202 00:15:16.107919 31870 net.cpp:408] loss1_conv1_loss_relu1_0_split -> loss1_conv1_loss_relu1_0_split_0
I0202 00:15:16.107934 31870 net.cpp:408] loss1_conv1_loss_relu1_0_split -> loss1_conv1_loss_relu1_0_split_1
I0202 00:15:16.108016 31870 net.cpp:150] Setting up loss1_conv1_loss_relu1_0_split
I0202 00:15:16.108029 31870 net.cpp:157] Top shape: 3 512 96 96 (14155776)
I0202 00:15:16.108039 31870 net.cpp:157] Top shape: 3 512 96 96 (14155776)
I0202 00:15:16.108047 31870 net.cpp:165] Memory required for data: 4601017756
I0202 00:15:16.108054 31870 layer_factory.hpp:77] Creating layer LFCN_1_5x5
I0202 00:15:16.108075 31870 net.cpp:100] Creating Layer LFCN_1_5x5
I0202 00:15:16.108085 31870 net.cpp:434] LFCN_1_5x5 <- loss1_conv1_loss_relu1_0_split_0
I0202 00:15:16.108100 31870 net.cpp:408] LFCN_1_5x5 -> LFCN_1_5x5
I0202 00:15:16.115622 31870 net.cpp:150] Setting up LFCN_1_5x5
I0202 00:15:16.115636 31870 net.cpp:157] Top shape: 3 9 96 96 (248832)
I0202 00:15:16.115640 31870 net.cpp:165] Memory required for data: 4602013084
I0202 00:15:16.115648 31870 layer_factory.hpp:77] Creating layer LFCN_1_5x5_LFCN_1_5x5_0_split
I0202 00:15:16.115653 31870 net.cpp:100] Creating Layer LFCN_1_5x5_LFCN_1_5x5_0_split
I0202 00:15:16.115658 31870 net.cpp:434] LFCN_1_5x5_LFCN_1_5x5_0_split <- LFCN_1_5x5
I0202 00:15:16.115664 31870 net.cpp:408] LFCN_1_5x5_LFCN_1_5x5_0_split -> LFCN_1_5x5_LFCN_1_5x5_0_split_0
I0202 00:15:16.115671 31870 net.cpp:408] LFCN_1_5x5_LFCN_1_5x5_0_split -> LFCN_1_5x5_LFCN_1_5x5_0_split_1
I0202 00:15:16.115679 31870 net.cpp:408] LFCN_1_5x5_LFCN_1_5x5_0_split -> LFCN_1_5x5_LFCN_1_5x5_0_split_2
I0202 00:15:16.115730 31870 net.cpp:150] Setting up LFCN_1_5x5_LFCN_1_5x5_0_split
I0202 00:15:16.115737 31870 net.cpp:157] Top shape: 3 9 96 96 (248832)
I0202 00:15:16.115742 31870 net.cpp:157] Top shape: 3 9 96 96 (248832)
I0202 00:15:16.115747 31870 net.cpp:157] Top shape: 3 9 96 96 (248832)
I0202 00:15:16.115751 31870 net.cpp:165] Memory required for data: 4604999068
I0202 00:15:16.115756 31870 layer_factory.hpp:77] Creating layer detection_loss_1_5x5
I0202 00:15:16.115764 31870 net.cpp:100] Creating Layer detection_loss_1_5x5
I0202 00:15:16.115769 31870 net.cpp:434] detection_loss_1_5x5 <- LFCN_1_5x5_LFCN_1_5x5_0_split_0
I0202 00:15:16.115775 31870 net.cpp:434] detection_loss_1_5x5 <- label_1_5x5_data_1_split_0
I0202 00:15:16.115782 31870 net.cpp:408] detection_loss_1_5x5 -> loss_1_5x5
I0202 00:15:16.115795 31870 layer_factory.hpp:77] Creating layer detection_loss_1_5x5
I0202 00:15:16.117435 31870 net.cpp:150] Setting up detection_loss_1_5x5
I0202 00:15:16.117451 31870 net.cpp:157] Top shape: 1 1 1 2 (2)
I0202 00:15:16.117455 31870 net.cpp:160]     with loss weight 0.9
I0202 00:15:16.117477 31870 net.cpp:165] Memory required for data: 4604999076
I0202 00:15:16.117481 31870 layer_factory.hpp:77] Creating layer detection_accuracy_1_5x5
I0202 00:15:16.117489 31870 net.cpp:100] Creating Layer detection_accuracy_1_5x5
I0202 00:15:16.117494 31870 net.cpp:434] detection_accuracy_1_5x5 <- LFCN_1_5x5_LFCN_1_5x5_0_split_1
I0202 00:15:16.117507 31870 net.cpp:434] detection_accuracy_1_5x5 <- label_1_5x5_data_1_split_1
I0202 00:15:16.117516 31870 net.cpp:408] detection_accuracy_1_5x5 -> accuracy_1_5x5
I0202 00:15:16.117525 31870 net.cpp:408] detection_accuracy_1_5x5 -> boxiou_1_5x5
I0202 00:15:16.117569 31870 net.cpp:150] Setting up detection_accuracy_1_5x5
I0202 00:15:16.117576 31870 net.cpp:157] Top shape: 1 1 1 2 (2)
I0202 00:15:16.117581 31870 net.cpp:157] Top shape: 1 1 1 1 (1)
I0202 00:15:16.117584 31870 net.cpp:165] Memory required for data: 4604999088
I0202 00:15:16.117588 31870 layer_factory.hpp:77] Creating layer LFCN_1_7x7
I0202 00:15:16.117599 31870 net.cpp:100] Creating Layer LFCN_1_7x7
I0202 00:15:16.117604 31870 net.cpp:434] LFCN_1_7x7 <- loss1_conv1_loss_relu1_0_split_1
I0202 00:15:16.117614 31870 net.cpp:408] LFCN_1_7x7 -> LFCN_1_7x7
I0202 00:15:16.126034 31870 net.cpp:150] Setting up LFCN_1_7x7
I0202 00:15:16.126072 31870 net.cpp:157] Top shape: 3 9 96 96 (248832)
I0202 00:15:16.126078 31870 net.cpp:165] Memory required for data: 4605994416
I0202 00:15:16.126091 31870 layer_factory.hpp:77] Creating layer LFCN_1_7x7_LFCN_1_7x7_0_split
I0202 00:15:16.126103 31870 net.cpp:100] Creating Layer LFCN_1_7x7_LFCN_1_7x7_0_split
I0202 00:15:16.126111 31870 net.cpp:434] LFCN_1_7x7_LFCN_1_7x7_0_split <- LFCN_1_7x7
I0202 00:15:16.126121 31870 net.cpp:408] LFCN_1_7x7_LFCN_1_7x7_0_split -> LFCN_1_7x7_LFCN_1_7x7_0_split_0
I0202 00:15:16.126138 31870 net.cpp:408] LFCN_1_7x7_LFCN_1_7x7_0_split -> LFCN_1_7x7_LFCN_1_7x7_0_split_1
I0202 00:15:16.126147 31870 net.cpp:408] LFCN_1_7x7_LFCN_1_7x7_0_split -> LFCN_1_7x7_LFCN_1_7x7_0_split_2
I0202 00:15:16.126227 31870 net.cpp:150] Setting up LFCN_1_7x7_LFCN_1_7x7_0_split
I0202 00:15:16.126235 31870 net.cpp:157] Top shape: 3 9 96 96 (248832)
I0202 00:15:16.126241 31870 net.cpp:157] Top shape: 3 9 96 96 (248832)
I0202 00:15:16.126245 31870 net.cpp:157] Top shape: 3 9 96 96 (248832)
I0202 00:15:16.126250 31870 net.cpp:165] Memory required for data: 4608980400
I0202 00:15:16.126255 31870 layer_factory.hpp:77] Creating layer detection_loss_1_7x7
I0202 00:15:16.126265 31870 net.cpp:100] Creating Layer detection_loss_1_7x7
I0202 00:15:16.126269 31870 net.cpp:434] detection_loss_1_7x7 <- LFCN_1_7x7_LFCN_1_7x7_0_split_0
I0202 00:15:16.126276 31870 net.cpp:434] detection_loss_1_7x7 <- label_1_7x7_data_2_split_0
I0202 00:15:16.126282 31870 net.cpp:408] detection_loss_1_7x7 -> loss_1_7x7
I0202 00:15:16.126292 31870 layer_factory.hpp:77] Creating layer detection_loss_1_7x7
I0202 00:15:16.126770 31870 net.cpp:150] Setting up detection_loss_1_7x7
I0202 00:15:16.126782 31870 net.cpp:157] Top shape: 1 1 1 2 (2)
I0202 00:15:16.126786 31870 net.cpp:160]     with loss weight 0.9
I0202 00:15:16.126801 31870 net.cpp:165] Memory required for data: 4608980408
I0202 00:15:16.126807 31870 layer_factory.hpp:77] Creating layer detection_accuracy_1_7x7
I0202 00:15:16.126816 31870 net.cpp:100] Creating Layer detection_accuracy_1_7x7
I0202 00:15:16.126821 31870 net.cpp:434] detection_accuracy_1_7x7 <- LFCN_1_7x7_LFCN_1_7x7_0_split_1
I0202 00:15:16.126827 31870 net.cpp:434] detection_accuracy_1_7x7 <- label_1_7x7_data_2_split_1
I0202 00:15:16.126835 31870 net.cpp:408] detection_accuracy_1_7x7 -> accuracy_1_7x7
I0202 00:15:16.126842 31870 net.cpp:408] detection_accuracy_1_7x7 -> boxiou_1_7x7
I0202 00:15:16.126878 31870 net.cpp:150] Setting up detection_accuracy_1_7x7
I0202 00:15:16.126884 31870 net.cpp:157] Top shape: 1 1 1 2 (2)
I0202 00:15:16.126888 31870 net.cpp:157] Top shape: 1 1 1 1 (1)
I0202 00:15:16.126891 31870 net.cpp:165] Memory required for data: 4608980420
I0202 00:15:16.126895 31870 layer_factory.hpp:77] Creating layer pool4
I0202 00:15:16.126904 31870 net.cpp:100] Creating Layer pool4
I0202 00:15:16.126907 31870 net.cpp:434] pool4 <- conv4_3_relu4_3_0_split_1
I0202 00:15:16.126914 31870 net.cpp:408] pool4 -> pool4
I0202 00:15:16.126945 31870 net.cpp:150] Setting up pool4
I0202 00:15:16.126952 31870 net.cpp:157] Top shape: 3 512 48 48 (3538944)
I0202 00:15:16.126955 31870 net.cpp:165] Memory required for data: 4623136196
I0202 00:15:16.126960 31870 layer_factory.hpp:77] Creating layer ch4_pool4
I0202 00:15:16.126965 31870 net.cpp:100] Creating Layer ch4_pool4
I0202 00:15:16.126969 31870 net.cpp:434] ch4_pool4 <- ch4_pool3_ch4_pool3_0_split_1
I0202 00:15:16.126974 31870 net.cpp:408] ch4_pool4 -> ch4_pool4
I0202 00:15:16.127005 31870 net.cpp:150] Setting up ch4_pool4
I0202 00:15:16.127012 31870 net.cpp:157] Top shape: 3 1 48 48 (6912)
I0202 00:15:16.127014 31870 net.cpp:165] Memory required for data: 4623163844
I0202 00:15:16.127018 31870 layer_factory.hpp:77] Creating layer ch4_pool4_ch4_pool4_0_split
I0202 00:15:16.127023 31870 net.cpp:100] Creating Layer ch4_pool4_ch4_pool4_0_split
I0202 00:15:16.127027 31870 net.cpp:434] ch4_pool4_ch4_pool4_0_split <- ch4_pool4
I0202 00:15:16.127033 31870 net.cpp:408] ch4_pool4_ch4_pool4_0_split -> ch4_pool4_ch4_pool4_0_split_0
I0202 00:15:16.127038 31870 net.cpp:408] ch4_pool4_ch4_pool4_0_split -> ch4_pool4_ch4_pool4_0_split_1
I0202 00:15:16.127068 31870 net.cpp:150] Setting up ch4_pool4_ch4_pool4_0_split
I0202 00:15:16.127074 31870 net.cpp:157] Top shape: 3 1 48 48 (6912)
I0202 00:15:16.127079 31870 net.cpp:157] Top shape: 3 1 48 48 (6912)
I0202 00:15:16.127082 31870 net.cpp:165] Memory required for data: 4623219140
I0202 00:15:16.127085 31870 layer_factory.hpp:77] Creating layer pool4_concat
I0202 00:15:16.127090 31870 net.cpp:100] Creating Layer pool4_concat
I0202 00:15:16.127095 31870 net.cpp:434] pool4_concat <- pool4
I0202 00:15:16.127099 31870 net.cpp:434] pool4_concat <- ch4_pool4_ch4_pool4_0_split_0
I0202 00:15:16.127105 31870 net.cpp:408] pool4_concat -> pool4_new
I0202 00:15:16.127125 31870 net.cpp:150] Setting up pool4_concat
I0202 00:15:16.127132 31870 net.cpp:157] Top shape: 3 513 48 48 (3545856)
I0202 00:15:16.127135 31870 net.cpp:165] Memory required for data: 4637402564
I0202 00:15:16.127140 31870 layer_factory.hpp:77] Creating layer conv5_1_new
I0202 00:15:16.127146 31870 net.cpp:100] Creating Layer conv5_1_new
I0202 00:15:16.127151 31870 net.cpp:434] conv5_1_new <- pool4_new
I0202 00:15:16.127156 31870 net.cpp:408] conv5_1_new -> conv5_1
I0202 00:15:16.133275 31870 net.cpp:150] Setting up conv5_1_new
I0202 00:15:16.133303 31870 net.cpp:157] Top shape: 3 512 48 48 (3538944)
I0202 00:15:16.133307 31870 net.cpp:165] Memory required for data: 4651558340
I0202 00:15:16.133316 31870 layer_factory.hpp:77] Creating layer relu5_1
I0202 00:15:16.133329 31870 net.cpp:100] Creating Layer relu5_1
I0202 00:15:16.133337 31870 net.cpp:434] relu5_1 <- conv5_1
I0202 00:15:16.133342 31870 net.cpp:395] relu5_1 -> conv5_1 (in-place)
I0202 00:15:16.133606 31870 net.cpp:150] Setting up relu5_1
I0202 00:15:16.133641 31870 net.cpp:157] Top shape: 3 512 48 48 (3538944)
I0202 00:15:16.133647 31870 net.cpp:165] Memory required for data: 4665714116
I0202 00:15:16.133651 31870 layer_factory.hpp:77] Creating layer conv5_2
I0202 00:15:16.133661 31870 net.cpp:100] Creating Layer conv5_2
I0202 00:15:16.133664 31870 net.cpp:434] conv5_2 <- conv5_1
I0202 00:15:16.133671 31870 net.cpp:408] conv5_2 -> conv5_2
I0202 00:15:16.139655 31870 net.cpp:150] Setting up conv5_2
I0202 00:15:16.139685 31870 net.cpp:157] Top shape: 3 512 48 48 (3538944)
I0202 00:15:16.139690 31870 net.cpp:165] Memory required for data: 4679869892
I0202 00:15:16.139698 31870 layer_factory.hpp:77] Creating layer relu5_2
I0202 00:15:16.139710 31870 net.cpp:100] Creating Layer relu5_2
I0202 00:15:16.139716 31870 net.cpp:434] relu5_2 <- conv5_2
I0202 00:15:16.139724 31870 net.cpp:395] relu5_2 -> conv5_2 (in-place)
I0202 00:15:16.139884 31870 net.cpp:150] Setting up relu5_2
I0202 00:15:16.139894 31870 net.cpp:157] Top shape: 3 512 48 48 (3538944)
I0202 00:15:16.139897 31870 net.cpp:165] Memory required for data: 4694025668
I0202 00:15:16.139901 31870 layer_factory.hpp:77] Creating layer conv5_3
I0202 00:15:16.139910 31870 net.cpp:100] Creating Layer conv5_3
I0202 00:15:16.139914 31870 net.cpp:434] conv5_3 <- conv5_2
I0202 00:15:16.139920 31870 net.cpp:408] conv5_3 -> conv5_3
I0202 00:15:16.145809 31870 net.cpp:150] Setting up conv5_3
I0202 00:15:16.145841 31870 net.cpp:157] Top shape: 3 512 48 48 (3538944)
I0202 00:15:16.145846 31870 net.cpp:165] Memory required for data: 4708181444
I0202 00:15:16.145858 31870 layer_factory.hpp:77] Creating layer relu5_3
I0202 00:15:16.145871 31870 net.cpp:100] Creating Layer relu5_3
I0202 00:15:16.145879 31870 net.cpp:434] relu5_3 <- conv5_3
I0202 00:15:16.145885 31870 net.cpp:395] relu5_3 -> conv5_3 (in-place)
I0202 00:15:16.146047 31870 net.cpp:150] Setting up relu5_3
I0202 00:15:16.146056 31870 net.cpp:157] Top shape: 3 512 48 48 (3538944)
I0202 00:15:16.146060 31870 net.cpp:165] Memory required for data: 4722337220
I0202 00:15:16.146064 31870 layer_factory.hpp:77] Creating layer conv5_3_relu5_3_0_split
I0202 00:15:16.146071 31870 net.cpp:100] Creating Layer conv5_3_relu5_3_0_split
I0202 00:15:16.146075 31870 net.cpp:434] conv5_3_relu5_3_0_split <- conv5_3
I0202 00:15:16.146080 31870 net.cpp:408] conv5_3_relu5_3_0_split -> conv5_3_relu5_3_0_split_0
I0202 00:15:16.146087 31870 net.cpp:408] conv5_3_relu5_3_0_split -> conv5_3_relu5_3_0_split_1
I0202 00:15:16.146095 31870 net.cpp:408] conv5_3_relu5_3_0_split -> conv5_3_relu5_3_0_split_2
I0202 00:15:16.146142 31870 net.cpp:150] Setting up conv5_3_relu5_3_0_split
I0202 00:15:16.146148 31870 net.cpp:157] Top shape: 3 512 48 48 (3538944)
I0202 00:15:16.146153 31870 net.cpp:157] Top shape: 3 512 48 48 (3538944)
I0202 00:15:16.146157 31870 net.cpp:157] Top shape: 3 512 48 48 (3538944)
I0202 00:15:16.146160 31870 net.cpp:165] Memory required for data: 4764804548
I0202 00:15:16.146163 31870 layer_factory.hpp:77] Creating layer LFCN_2_5x5
I0202 00:15:16.146180 31870 net.cpp:100] Creating Layer LFCN_2_5x5
I0202 00:15:16.146186 31870 net.cpp:434] LFCN_2_5x5 <- conv5_3_relu5_3_0_split_0
I0202 00:15:16.146194 31870 net.cpp:408] LFCN_2_5x5 -> LFCN_2_5x5
I0202 00:15:16.150678 31870 net.cpp:150] Setting up LFCN_2_5x5
I0202 00:15:16.150692 31870 net.cpp:157] Top shape: 3 9 48 48 (62208)
I0202 00:15:16.150696 31870 net.cpp:165] Memory required for data: 4765053380
I0202 00:15:16.150708 31870 layer_factory.hpp:77] Creating layer LFCN_2_5x5_LFCN_2_5x5_0_split
I0202 00:15:16.150714 31870 net.cpp:100] Creating Layer LFCN_2_5x5_LFCN_2_5x5_0_split
I0202 00:15:16.150719 31870 net.cpp:434] LFCN_2_5x5_LFCN_2_5x5_0_split <- LFCN_2_5x5
I0202 00:15:16.150725 31870 net.cpp:408] LFCN_2_5x5_LFCN_2_5x5_0_split -> LFCN_2_5x5_LFCN_2_5x5_0_split_0
I0202 00:15:16.150732 31870 net.cpp:408] LFCN_2_5x5_LFCN_2_5x5_0_split -> LFCN_2_5x5_LFCN_2_5x5_0_split_1
I0202 00:15:16.150738 31870 net.cpp:408] LFCN_2_5x5_LFCN_2_5x5_0_split -> LFCN_2_5x5_LFCN_2_5x5_0_split_2
I0202 00:15:16.150784 31870 net.cpp:150] Setting up LFCN_2_5x5_LFCN_2_5x5_0_split
I0202 00:15:16.150792 31870 net.cpp:157] Top shape: 3 9 48 48 (62208)
I0202 00:15:16.150797 31870 net.cpp:157] Top shape: 3 9 48 48 (62208)
I0202 00:15:16.150801 31870 net.cpp:157] Top shape: 3 9 48 48 (62208)
I0202 00:15:16.150805 31870 net.cpp:165] Memory required for data: 4765799876
I0202 00:15:16.150809 31870 layer_factory.hpp:77] Creating layer detection_loss_2_5x5
I0202 00:15:16.150815 31870 net.cpp:100] Creating Layer detection_loss_2_5x5
I0202 00:15:16.150820 31870 net.cpp:434] detection_loss_2_5x5 <- LFCN_2_5x5_LFCN_2_5x5_0_split_0
I0202 00:15:16.150823 31870 net.cpp:434] detection_loss_2_5x5 <- label_2_5x5_data_3_split_0
I0202 00:15:16.150830 31870 net.cpp:408] detection_loss_2_5x5 -> loss_2_5x5
I0202 00:15:16.150840 31870 layer_factory.hpp:77] Creating layer detection_loss_2_5x5
I0202 00:15:16.151455 31870 net.cpp:150] Setting up detection_loss_2_5x5
I0202 00:15:16.151468 31870 net.cpp:157] Top shape: 1 1 1 2 (2)
I0202 00:15:16.151471 31870 net.cpp:160]     with loss weight 1
I0202 00:15:16.151484 31870 net.cpp:165] Memory required for data: 4765799884
I0202 00:15:16.151487 31870 layer_factory.hpp:77] Creating layer detection_accuracy_2_5x5
I0202 00:15:16.151495 31870 net.cpp:100] Creating Layer detection_accuracy_2_5x5
I0202 00:15:16.151499 31870 net.cpp:434] detection_accuracy_2_5x5 <- LFCN_2_5x5_LFCN_2_5x5_0_split_1
I0202 00:15:16.151504 31870 net.cpp:434] detection_accuracy_2_5x5 <- label_2_5x5_data_3_split_1
I0202 00:15:16.151510 31870 net.cpp:408] detection_accuracy_2_5x5 -> accuracy_2_5x5
I0202 00:15:16.151516 31870 net.cpp:408] detection_accuracy_2_5x5 -> boxiou_2_5x5
I0202 00:15:16.151552 31870 net.cpp:150] Setting up detection_accuracy_2_5x5
I0202 00:15:16.151559 31870 net.cpp:157] Top shape: 1 1 1 2 (2)
I0202 00:15:16.151563 31870 net.cpp:157] Top shape: 1 1 1 1 (1)
I0202 00:15:16.151566 31870 net.cpp:165] Memory required for data: 4765799896
I0202 00:15:16.151569 31870 layer_factory.hpp:77] Creating layer LFCN_2_7x7
I0202 00:15:16.151578 31870 net.cpp:100] Creating Layer LFCN_2_7x7
I0202 00:15:16.151582 31870 net.cpp:434] LFCN_2_7x7 <- conv5_3_relu5_3_0_split_1
I0202 00:15:16.151588 31870 net.cpp:408] LFCN_2_7x7 -> LFCN_2_7x7
I0202 00:15:16.157965 31870 net.cpp:150] Setting up LFCN_2_7x7
I0202 00:15:16.157979 31870 net.cpp:157] Top shape: 3 9 48 48 (62208)
I0202 00:15:16.157981 31870 net.cpp:165] Memory required for data: 4766048728
I0202 00:15:16.157989 31870 layer_factory.hpp:77] Creating layer LFCN_2_7x7_LFCN_2_7x7_0_split
I0202 00:15:16.157994 31870 net.cpp:100] Creating Layer LFCN_2_7x7_LFCN_2_7x7_0_split
I0202 00:15:16.157997 31870 net.cpp:434] LFCN_2_7x7_LFCN_2_7x7_0_split <- LFCN_2_7x7
I0202 00:15:16.158002 31870 net.cpp:408] LFCN_2_7x7_LFCN_2_7x7_0_split -> LFCN_2_7x7_LFCN_2_7x7_0_split_0
I0202 00:15:16.158010 31870 net.cpp:408] LFCN_2_7x7_LFCN_2_7x7_0_split -> LFCN_2_7x7_LFCN_2_7x7_0_split_1
I0202 00:15:16.158016 31870 net.cpp:408] LFCN_2_7x7_LFCN_2_7x7_0_split -> LFCN_2_7x7_LFCN_2_7x7_0_split_2
I0202 00:15:16.158062 31870 net.cpp:150] Setting up LFCN_2_7x7_LFCN_2_7x7_0_split
I0202 00:15:16.158069 31870 net.cpp:157] Top shape: 3 9 48 48 (62208)
I0202 00:15:16.158074 31870 net.cpp:157] Top shape: 3 9 48 48 (62208)
I0202 00:15:16.158078 31870 net.cpp:157] Top shape: 3 9 48 48 (62208)
I0202 00:15:16.158082 31870 net.cpp:165] Memory required for data: 4766795224
I0202 00:15:16.158085 31870 layer_factory.hpp:77] Creating layer detection_loss_2_7x7
I0202 00:15:16.158090 31870 net.cpp:100] Creating Layer detection_loss_2_7x7
I0202 00:15:16.158094 31870 net.cpp:434] detection_loss_2_7x7 <- LFCN_2_7x7_LFCN_2_7x7_0_split_0
I0202 00:15:16.158099 31870 net.cpp:434] detection_loss_2_7x7 <- label_2_7x7_data_4_split_0
I0202 00:15:16.158105 31870 net.cpp:408] detection_loss_2_7x7 -> loss_2_7x7
I0202 00:15:16.158113 31870 layer_factory.hpp:77] Creating layer detection_loss_2_7x7
I0202 00:15:16.158723 31870 net.cpp:150] Setting up detection_loss_2_7x7
I0202 00:15:16.158735 31870 net.cpp:157] Top shape: 1 1 1 2 (2)
I0202 00:15:16.158740 31870 net.cpp:160]     with loss weight 1
I0202 00:15:16.158746 31870 net.cpp:165] Memory required for data: 4766795232
I0202 00:15:16.158749 31870 layer_factory.hpp:77] Creating layer detection_accuracy_2_7x7
I0202 00:15:16.158756 31870 net.cpp:100] Creating Layer detection_accuracy_2_7x7
I0202 00:15:16.158761 31870 net.cpp:434] detection_accuracy_2_7x7 <- LFCN_2_7x7_LFCN_2_7x7_0_split_1
I0202 00:15:16.158766 31870 net.cpp:434] detection_accuracy_2_7x7 <- label_2_7x7_data_4_split_1
I0202 00:15:16.158772 31870 net.cpp:408] detection_accuracy_2_7x7 -> accuracy_2_7x7
I0202 00:15:16.158779 31870 net.cpp:408] detection_accuracy_2_7x7 -> boxiou_2_7x7
I0202 00:15:16.158814 31870 net.cpp:150] Setting up detection_accuracy_2_7x7
I0202 00:15:16.158821 31870 net.cpp:157] Top shape: 1 1 1 2 (2)
I0202 00:15:16.158825 31870 net.cpp:157] Top shape: 1 1 1 1 (1)
I0202 00:15:16.158828 31870 net.cpp:165] Memory required for data: 4766795244
I0202 00:15:16.158833 31870 layer_factory.hpp:77] Creating layer pool5
I0202 00:15:16.158838 31870 net.cpp:100] Creating Layer pool5
I0202 00:15:16.158843 31870 net.cpp:434] pool5 <- conv5_3_relu5_3_0_split_2
I0202 00:15:16.158849 31870 net.cpp:408] pool5 -> pool5
I0202 00:15:16.158881 31870 net.cpp:150] Setting up pool5
I0202 00:15:16.158888 31870 net.cpp:157] Top shape: 3 512 24 24 (884736)
I0202 00:15:16.158891 31870 net.cpp:165] Memory required for data: 4770334188
I0202 00:15:16.158895 31870 layer_factory.hpp:77] Creating layer ch4_pool5
I0202 00:15:16.158901 31870 net.cpp:100] Creating Layer ch4_pool5
I0202 00:15:16.158905 31870 net.cpp:434] ch4_pool5 <- ch4_pool4_ch4_pool4_0_split_1
I0202 00:15:16.158912 31870 net.cpp:408] ch4_pool5 -> ch4_pool5
I0202 00:15:16.158942 31870 net.cpp:150] Setting up ch4_pool5
I0202 00:15:16.158949 31870 net.cpp:157] Top shape: 3 1 24 24 (1728)
I0202 00:15:16.158952 31870 net.cpp:165] Memory required for data: 4770341100
I0202 00:15:16.158957 31870 layer_factory.hpp:77] Creating layer pool5_concat
I0202 00:15:16.158962 31870 net.cpp:100] Creating Layer pool5_concat
I0202 00:15:16.158965 31870 net.cpp:434] pool5_concat <- pool5
I0202 00:15:16.158969 31870 net.cpp:434] pool5_concat <- ch4_pool5
I0202 00:15:16.158973 31870 net.cpp:408] pool5_concat -> pool5_new
I0202 00:15:16.158995 31870 net.cpp:150] Setting up pool5_concat
I0202 00:15:16.159000 31870 net.cpp:157] Top shape: 3 513 24 24 (886464)
I0202 00:15:16.159003 31870 net.cpp:165] Memory required for data: 4773886956
I0202 00:15:16.159006 31870 layer_factory.hpp:77] Creating layer conv6_1_new
I0202 00:15:16.159014 31870 net.cpp:100] Creating Layer conv6_1_new
I0202 00:15:16.159018 31870 net.cpp:434] conv6_1_new <- pool5_new
I0202 00:15:16.159025 31870 net.cpp:408] conv6_1_new -> conv6_1
I0202 00:15:16.224238 31870 net.cpp:150] Setting up conv6_1_new
I0202 00:15:16.224265 31870 net.cpp:157] Top shape: 3 512 24 24 (884736)
I0202 00:15:16.224269 31870 net.cpp:165] Memory required for data: 4777425900
I0202 00:15:16.224277 31870 layer_factory.hpp:77] Creating layer relu6_1
I0202 00:15:16.224287 31870 net.cpp:100] Creating Layer relu6_1
I0202 00:15:16.224292 31870 net.cpp:434] relu6_1 <- conv6_1
I0202 00:15:16.224298 31870 net.cpp:395] relu6_1 -> conv6_1 (in-place)
I0202 00:15:16.224436 31870 net.cpp:150] Setting up relu6_1
I0202 00:15:16.224445 31870 net.cpp:157] Top shape: 3 512 24 24 (884736)
I0202 00:15:16.224448 31870 net.cpp:165] Memory required for data: 4780964844
I0202 00:15:16.224452 31870 layer_factory.hpp:77] Creating layer conv6_1_relu6_1_0_split
I0202 00:15:16.224457 31870 net.cpp:100] Creating Layer conv6_1_relu6_1_0_split
I0202 00:15:16.224462 31870 net.cpp:434] conv6_1_relu6_1_0_split <- conv6_1
I0202 00:15:16.224467 31870 net.cpp:408] conv6_1_relu6_1_0_split -> conv6_1_relu6_1_0_split_0
I0202 00:15:16.224475 31870 net.cpp:408] conv6_1_relu6_1_0_split -> conv6_1_relu6_1_0_split_1
I0202 00:15:16.224480 31870 net.cpp:408] conv6_1_relu6_1_0_split -> conv6_1_relu6_1_0_split_2
I0202 00:15:16.224529 31870 net.cpp:150] Setting up conv6_1_relu6_1_0_split
I0202 00:15:16.224536 31870 net.cpp:157] Top shape: 3 512 24 24 (884736)
I0202 00:15:16.224540 31870 net.cpp:157] Top shape: 3 512 24 24 (884736)
I0202 00:15:16.224545 31870 net.cpp:157] Top shape: 3 512 24 24 (884736)
I0202 00:15:16.224547 31870 net.cpp:165] Memory required for data: 4791581676
I0202 00:15:16.224551 31870 layer_factory.hpp:77] Creating layer LFCN_3_5x5
I0202 00:15:16.224561 31870 net.cpp:100] Creating Layer LFCN_3_5x5
I0202 00:15:16.224565 31870 net.cpp:434] LFCN_3_5x5 <- conv6_1_relu6_1_0_split_0
I0202 00:15:16.224572 31870 net.cpp:408] LFCN_3_5x5 -> LFCN_3_5x5
I0202 00:15:16.228462 31870 net.cpp:150] Setting up LFCN_3_5x5
I0202 00:15:16.228476 31870 net.cpp:157] Top shape: 3 9 24 24 (15552)
I0202 00:15:16.228478 31870 net.cpp:165] Memory required for data: 4791643884
I0202 00:15:16.228484 31870 layer_factory.hpp:77] Creating layer LFCN_3_5x5_LFCN_3_5x5_0_split
I0202 00:15:16.228489 31870 net.cpp:100] Creating Layer LFCN_3_5x5_LFCN_3_5x5_0_split
I0202 00:15:16.228492 31870 net.cpp:434] LFCN_3_5x5_LFCN_3_5x5_0_split <- LFCN_3_5x5
I0202 00:15:16.228497 31870 net.cpp:408] LFCN_3_5x5_LFCN_3_5x5_0_split -> LFCN_3_5x5_LFCN_3_5x5_0_split_0
I0202 00:15:16.228503 31870 net.cpp:408] LFCN_3_5x5_LFCN_3_5x5_0_split -> LFCN_3_5x5_LFCN_3_5x5_0_split_1
I0202 00:15:16.228507 31870 net.cpp:408] LFCN_3_5x5_LFCN_3_5x5_0_split -> LFCN_3_5x5_LFCN_3_5x5_0_split_2
I0202 00:15:16.228549 31870 net.cpp:150] Setting up LFCN_3_5x5_LFCN_3_5x5_0_split
I0202 00:15:16.228554 31870 net.cpp:157] Top shape: 3 9 24 24 (15552)
I0202 00:15:16.228556 31870 net.cpp:157] Top shape: 3 9 24 24 (15552)
I0202 00:15:16.228560 31870 net.cpp:157] Top shape: 3 9 24 24 (15552)
I0202 00:15:16.228562 31870 net.cpp:165] Memory required for data: 4791830508
I0202 00:15:16.228565 31870 layer_factory.hpp:77] Creating layer detection_loss_3_5x5
I0202 00:15:16.228571 31870 net.cpp:100] Creating Layer detection_loss_3_5x5
I0202 00:15:16.228574 31870 net.cpp:434] detection_loss_3_5x5 <- LFCN_3_5x5_LFCN_3_5x5_0_split_0
I0202 00:15:16.228579 31870 net.cpp:434] detection_loss_3_5x5 <- label_3_5x5_data_5_split_0
I0202 00:15:16.228585 31870 net.cpp:408] detection_loss_3_5x5 -> loss_3_5x5
I0202 00:15:16.228591 31870 layer_factory.hpp:77] Creating layer detection_loss_3_5x5
I0202 00:15:16.228899 31870 net.cpp:150] Setting up detection_loss_3_5x5
I0202 00:15:16.228909 31870 net.cpp:157] Top shape: 1 1 1 2 (2)
I0202 00:15:16.228914 31870 net.cpp:160]     with loss weight 1
I0202 00:15:16.228924 31870 net.cpp:165] Memory required for data: 4791830516
I0202 00:15:16.228927 31870 layer_factory.hpp:77] Creating layer detection_accuracy_3_5x5
I0202 00:15:16.228934 31870 net.cpp:100] Creating Layer detection_accuracy_3_5x5
I0202 00:15:16.228937 31870 net.cpp:434] detection_accuracy_3_5x5 <- LFCN_3_5x5_LFCN_3_5x5_0_split_1
I0202 00:15:16.228942 31870 net.cpp:434] detection_accuracy_3_5x5 <- label_3_5x5_data_5_split_1
I0202 00:15:16.228948 31870 net.cpp:408] detection_accuracy_3_5x5 -> accuracy_3_5x5
I0202 00:15:16.228955 31870 net.cpp:408] detection_accuracy_3_5x5 -> boxiou_3_5x5
I0202 00:15:16.228989 31870 net.cpp:150] Setting up detection_accuracy_3_5x5
I0202 00:15:16.228996 31870 net.cpp:157] Top shape: 1 1 1 2 (2)
I0202 00:15:16.229001 31870 net.cpp:157] Top shape: 1 1 1 1 (1)
I0202 00:15:16.229003 31870 net.cpp:165] Memory required for data: 4791830528
I0202 00:15:16.229007 31870 layer_factory.hpp:77] Creating layer LFCN_3_7x7
I0202 00:15:16.229015 31870 net.cpp:100] Creating Layer LFCN_3_7x7
I0202 00:15:16.229020 31870 net.cpp:434] LFCN_3_7x7 <- conv6_1_relu6_1_0_split_1
I0202 00:15:16.229025 31870 net.cpp:408] LFCN_3_7x7 -> LFCN_3_7x7
I0202 00:15:16.236840 31870 net.cpp:150] Setting up LFCN_3_7x7
I0202 00:15:16.236862 31870 net.cpp:157] Top shape: 3 9 24 24 (15552)
I0202 00:15:16.236867 31870 net.cpp:165] Memory required for data: 4791892736
I0202 00:15:16.236874 31870 layer_factory.hpp:77] Creating layer LFCN_3_7x7_LFCN_3_7x7_0_split
I0202 00:15:16.236884 31870 net.cpp:100] Creating Layer LFCN_3_7x7_LFCN_3_7x7_0_split
I0202 00:15:16.236891 31870 net.cpp:434] LFCN_3_7x7_LFCN_3_7x7_0_split <- LFCN_3_7x7
I0202 00:15:16.236897 31870 net.cpp:408] LFCN_3_7x7_LFCN_3_7x7_0_split -> LFCN_3_7x7_LFCN_3_7x7_0_split_0
I0202 00:15:16.236905 31870 net.cpp:408] LFCN_3_7x7_LFCN_3_7x7_0_split -> LFCN_3_7x7_LFCN_3_7x7_0_split_1
I0202 00:15:16.236910 31870 net.cpp:408] LFCN_3_7x7_LFCN_3_7x7_0_split -> LFCN_3_7x7_LFCN_3_7x7_0_split_2
I0202 00:15:16.236963 31870 net.cpp:150] Setting up LFCN_3_7x7_LFCN_3_7x7_0_split
I0202 00:15:16.236970 31870 net.cpp:157] Top shape: 3 9 24 24 (15552)
I0202 00:15:16.236976 31870 net.cpp:157] Top shape: 3 9 24 24 (15552)
I0202 00:15:16.236980 31870 net.cpp:157] Top shape: 3 9 24 24 (15552)
I0202 00:15:16.236984 31870 net.cpp:165] Memory required for data: 4792079360
I0202 00:15:16.236986 31870 layer_factory.hpp:77] Creating layer detection_loss_3_7x7
I0202 00:15:16.236994 31870 net.cpp:100] Creating Layer detection_loss_3_7x7
I0202 00:15:16.236997 31870 net.cpp:434] detection_loss_3_7x7 <- LFCN_3_7x7_LFCN_3_7x7_0_split_0
I0202 00:15:16.237001 31870 net.cpp:434] detection_loss_3_7x7 <- label_3_7x7_data_6_split_0
I0202 00:15:16.237007 31870 net.cpp:408] detection_loss_3_7x7 -> loss_3_7x7
I0202 00:15:16.237016 31870 layer_factory.hpp:77] Creating layer detection_loss_3_7x7
I0202 00:15:16.237330 31870 net.cpp:150] Setting up detection_loss_3_7x7
I0202 00:15:16.237340 31870 net.cpp:157] Top shape: 1 1 1 2 (2)
I0202 00:15:16.237344 31870 net.cpp:160]     with loss weight 1
I0202 00:15:16.237352 31870 net.cpp:165] Memory required for data: 4792079368
I0202 00:15:16.237356 31870 layer_factory.hpp:77] Creating layer detection_accuracy_3_7x7
I0202 00:15:16.237363 31870 net.cpp:100] Creating Layer detection_accuracy_3_7x7
I0202 00:15:16.237366 31870 net.cpp:434] detection_accuracy_3_7x7 <- LFCN_3_7x7_LFCN_3_7x7_0_split_1
I0202 00:15:16.237371 31870 net.cpp:434] detection_accuracy_3_7x7 <- label_3_7x7_data_6_split_1
I0202 00:15:16.237377 31870 net.cpp:408] detection_accuracy_3_7x7 -> accuracy_3_7x7
I0202 00:15:16.237385 31870 net.cpp:408] detection_accuracy_3_7x7 -> boxiou_3_7x7
I0202 00:15:16.237421 31870 net.cpp:150] Setting up detection_accuracy_3_7x7
I0202 00:15:16.237426 31870 net.cpp:157] Top shape: 1 1 1 2 (2)
I0202 00:15:16.237432 31870 net.cpp:157] Top shape: 1 1 1 1 (1)
I0202 00:15:16.237434 31870 net.cpp:165] Memory required for data: 4792079380
I0202 00:15:16.237437 31870 layer_factory.hpp:77] Creating layer pool6
I0202 00:15:16.237444 31870 net.cpp:100] Creating Layer pool6
I0202 00:15:16.237448 31870 net.cpp:434] pool6 <- conv6_1_relu6_1_0_split_2
I0202 00:15:16.237453 31870 net.cpp:408] pool6 -> pool6
I0202 00:15:16.237488 31870 net.cpp:150] Setting up pool6
I0202 00:15:16.237495 31870 net.cpp:157] Top shape: 3 512 12 12 (221184)
I0202 00:15:16.237498 31870 net.cpp:165] Memory required for data: 4792964116
I0202 00:15:16.237509 31870 layer_factory.hpp:77] Creating layer LFCN_4_5x5
I0202 00:15:16.237534 31870 net.cpp:100] Creating Layer LFCN_4_5x5
I0202 00:15:16.237543 31870 net.cpp:434] LFCN_4_5x5 <- pool6
I0202 00:15:16.237561 31870 net.cpp:408] LFCN_4_5x5 -> LFCN_4_5x5
I0202 00:15:16.242574 31870 net.cpp:150] Setting up LFCN_4_5x5
I0202 00:15:16.242666 31870 net.cpp:157] Top shape: 3 9 12 12 (3888)
I0202 00:15:16.242672 31870 net.cpp:165] Memory required for data: 4792979668
I0202 00:15:16.242692 31870 layer_factory.hpp:77] Creating layer LFCN_4_5x5_LFCN_4_5x5_0_split
I0202 00:15:16.242717 31870 net.cpp:100] Creating Layer LFCN_4_5x5_LFCN_4_5x5_0_split
I0202 00:15:16.242732 31870 net.cpp:434] LFCN_4_5x5_LFCN_4_5x5_0_split <- LFCN_4_5x5
I0202 00:15:16.242748 31870 net.cpp:408] LFCN_4_5x5_LFCN_4_5x5_0_split -> LFCN_4_5x5_LFCN_4_5x5_0_split_0
I0202 00:15:16.242766 31870 net.cpp:408] LFCN_4_5x5_LFCN_4_5x5_0_split -> LFCN_4_5x5_LFCN_4_5x5_0_split_1
I0202 00:15:16.242774 31870 net.cpp:408] LFCN_4_5x5_LFCN_4_5x5_0_split -> LFCN_4_5x5_LFCN_4_5x5_0_split_2
I0202 00:15:16.242843 31870 net.cpp:150] Setting up LFCN_4_5x5_LFCN_4_5x5_0_split
I0202 00:15:16.242851 31870 net.cpp:157] Top shape: 3 9 12 12 (3888)
I0202 00:15:16.242857 31870 net.cpp:157] Top shape: 3 9 12 12 (3888)
I0202 00:15:16.242862 31870 net.cpp:157] Top shape: 3 9 12 12 (3888)
I0202 00:15:16.242866 31870 net.cpp:165] Memory required for data: 4793026324
I0202 00:15:16.242871 31870 layer_factory.hpp:77] Creating layer detection_loss_4_5x5
I0202 00:15:16.242884 31870 net.cpp:100] Creating Layer detection_loss_4_5x5
I0202 00:15:16.242888 31870 net.cpp:434] detection_loss_4_5x5 <- LFCN_4_5x5_LFCN_4_5x5_0_split_0
I0202 00:15:16.242898 31870 net.cpp:434] detection_loss_4_5x5 <- label_4_5x5_data_7_split_0
I0202 00:15:16.242908 31870 net.cpp:408] detection_loss_4_5x5 -> loss_4_5x5
I0202 00:15:16.242921 31870 layer_factory.hpp:77] Creating layer detection_loss_4_5x5
I0202 00:15:16.243347 31870 net.cpp:150] Setting up detection_loss_4_5x5
I0202 00:15:16.243360 31870 net.cpp:157] Top shape: 1 1 1 2 (2)
I0202 00:15:16.243362 31870 net.cpp:160]     with loss weight 1
I0202 00:15:16.243389 31870 net.cpp:165] Memory required for data: 4793026332
I0202 00:15:16.243392 31870 layer_factory.hpp:77] Creating layer detection_accuracy_4_5x5
I0202 00:15:16.243405 31870 net.cpp:100] Creating Layer detection_accuracy_4_5x5
I0202 00:15:16.243410 31870 net.cpp:434] detection_accuracy_4_5x5 <- LFCN_4_5x5_LFCN_4_5x5_0_split_1
I0202 00:15:16.243415 31870 net.cpp:434] detection_accuracy_4_5x5 <- label_4_5x5_data_7_split_1
I0202 00:15:16.243423 31870 net.cpp:408] detection_accuracy_4_5x5 -> accuracy_4_5x5
I0202 00:15:16.243432 31870 net.cpp:408] detection_accuracy_4_5x5 -> boxiou_4_5x5
I0202 00:15:16.243479 31870 net.cpp:150] Setting up detection_accuracy_4_5x5
I0202 00:15:16.243485 31870 net.cpp:157] Top shape: 1 1 1 2 (2)
I0202 00:15:16.243489 31870 net.cpp:157] Top shape: 1 1 1 1 (1)
I0202 00:15:16.243492 31870 net.cpp:165] Memory required for data: 4793026344
I0202 00:15:16.243495 31870 layer_factory.hpp:77] Creating layer proposals
I0202 00:15:16.243525 31870 net.cpp:100] Creating Layer proposals
I0202 00:15:16.243531 31870 net.cpp:434] proposals <- LFCN_1_5x5_LFCN_1_5x5_0_split_2
I0202 00:15:16.243535 31870 net.cpp:434] proposals <- LFCN_1_7x7_LFCN_1_7x7_0_split_2
I0202 00:15:16.243541 31870 net.cpp:434] proposals <- LFCN_2_5x5_LFCN_2_5x5_0_split_2
I0202 00:15:16.243544 31870 net.cpp:434] proposals <- LFCN_2_7x7_LFCN_2_7x7_0_split_2
I0202 00:15:16.243549 31870 net.cpp:434] proposals <- LFCN_3_5x5_LFCN_3_5x5_0_split_2
I0202 00:15:16.243553 31870 net.cpp:434] proposals <- LFCN_3_7x7_LFCN_3_7x7_0_split_2
I0202 00:15:16.243556 31870 net.cpp:434] proposals <- LFCN_4_5x5_LFCN_4_5x5_0_split_2
I0202 00:15:16.243562 31870 net.cpp:408] proposals -> proposals
I0202 00:15:16.243592 31870 net.cpp:150] Setting up proposals
I0202 00:15:16.243599 31870 net.cpp:157] Top shape: 1 5 1 1 (5)
I0202 00:15:16.243602 31870 net.cpp:165] Memory required for data: 4793026364
I0202 00:15:16.243605 31870 layer_factory.hpp:77] Creating layer proposal_info
I0202 00:15:16.243619 31870 net.cpp:100] Creating Layer proposal_info
I0202 00:15:16.243623 31870 net.cpp:434] proposal_info <- proposals
I0202 00:15:16.243628 31870 net.cpp:434] proposal_info <- gt_boxes
I0202 00:15:16.243633 31870 net.cpp:408] proposal_info -> rois
I0202 00:15:16.243645 31870 net.cpp:408] proposal_info -> proposal_labels
I0202 00:15:16.243654 31870 net.cpp:408] proposal_info -> proposal_targets
I0202 00:15:16.243659 31870 net.cpp:408] proposal_info -> box_inside_weights
I0202 00:15:16.243677 31870 net.cpp:408] proposal_info -> box_outside_weights
I0202 00:15:16.243685 31870 net.cpp:408] proposal_info -> match_gt_boxes
I0202 00:15:16.243772 31870 net.cpp:150] Setting up proposal_info
I0202 00:15:16.243779 31870 net.cpp:157] Top shape: 256 5 1 1 (1280)
I0202 00:15:16.243783 31870 net.cpp:157] Top shape: 256 1 1 1 (256)
I0202 00:15:16.243788 31870 net.cpp:157] Top shape: 256 20 1 1 (5120)
I0202 00:15:16.243793 31870 net.cpp:157] Top shape: 256 20 1 1 (5120)
I0202 00:15:16.243796 31870 net.cpp:157] Top shape: 256 20 1 1 (5120)
I0202 00:15:16.243800 31870 net.cpp:157] Top shape: 256 6 1 1 (1536)
I0202 00:15:16.243803 31870 net.cpp:165] Memory required for data: 4793100092
I0202 00:15:16.243806 31870 layer_factory.hpp:77] Creating layer rois_proposal_info_0_split
I0202 00:15:16.243813 31870 net.cpp:100] Creating Layer rois_proposal_info_0_split
I0202 00:15:16.243816 31870 net.cpp:434] rois_proposal_info_0_split <- rois
I0202 00:15:16.243821 31870 net.cpp:408] rois_proposal_info_0_split -> rois_proposal_info_0_split_0
I0202 00:15:16.243826 31870 net.cpp:408] rois_proposal_info_0_split -> rois_proposal_info_0_split_1
I0202 00:15:16.243834 31870 net.cpp:408] rois_proposal_info_0_split -> rois_proposal_info_0_split_2
I0202 00:15:16.243875 31870 net.cpp:150] Setting up rois_proposal_info_0_split
I0202 00:15:16.243880 31870 net.cpp:157] Top shape: 256 5 1 1 (1280)
I0202 00:15:16.243885 31870 net.cpp:157] Top shape: 256 5 1 1 (1280)
I0202 00:15:16.243888 31870 net.cpp:157] Top shape: 256 5 1 1 (1280)
I0202 00:15:16.243891 31870 net.cpp:165] Memory required for data: 4793115452
I0202 00:15:16.243894 31870 layer_factory.hpp:77] Creating layer proposal_labels_proposal_info_1_split
I0202 00:15:16.243899 31870 net.cpp:100] Creating Layer proposal_labels_proposal_info_1_split
I0202 00:15:16.243902 31870 net.cpp:434] proposal_labels_proposal_info_1_split <- proposal_labels
I0202 00:15:16.243907 31870 net.cpp:408] proposal_labels_proposal_info_1_split -> proposal_labels_proposal_info_1_split_0
I0202 00:15:16.243912 31870 net.cpp:408] proposal_labels_proposal_info_1_split -> proposal_labels_proposal_info_1_split_1
I0202 00:15:16.243943 31870 net.cpp:150] Setting up proposal_labels_proposal_info_1_split
I0202 00:15:16.243949 31870 net.cpp:157] Top shape: 256 1 1 1 (256)
I0202 00:15:16.243953 31870 net.cpp:157] Top shape: 256 1 1 1 (256)
I0202 00:15:16.243957 31870 net.cpp:165] Memory required for data: 4793117500
I0202 00:15:16.243959 31870 layer_factory.hpp:77] Creating layer conv4_3_2x
I0202 00:15:16.243968 31870 net.cpp:100] Creating Layer conv4_3_2x
I0202 00:15:16.243973 31870 net.cpp:434] conv4_3_2x <- conv4_3_relu4_3_0_split_2
I0202 00:15:16.243978 31870 net.cpp:408] conv4_3_2x -> conv4_3_2x
I0202 00:15:16.244360 31870 net.cpp:150] Setting up conv4_3_2x
I0202 00:15:16.244369 31870 net.cpp:157] Top shape: 3 512 192 192 (56623104)
I0202 00:15:16.244371 31870 net.cpp:165] Memory required for data: 5019609916
I0202 00:15:16.244376 31870 layer_factory.hpp:77] Creating layer conv4_3_2x_conv4_3_2x_0_split
I0202 00:15:16.244380 31870 net.cpp:100] Creating Layer conv4_3_2x_conv4_3_2x_0_split
I0202 00:15:16.244385 31870 net.cpp:434] conv4_3_2x_conv4_3_2x_0_split <- conv4_3_2x
I0202 00:15:16.244388 31870 net.cpp:408] conv4_3_2x_conv4_3_2x_0_split -> conv4_3_2x_conv4_3_2x_0_split_0
I0202 00:15:16.244395 31870 net.cpp:408] conv4_3_2x_conv4_3_2x_0_split -> conv4_3_2x_conv4_3_2x_0_split_1
I0202 00:15:16.244426 31870 net.cpp:150] Setting up conv4_3_2x_conv4_3_2x_0_split
I0202 00:15:16.244432 31870 net.cpp:157] Top shape: 3 512 192 192 (56623104)
I0202 00:15:16.244436 31870 net.cpp:157] Top shape: 3 512 192 192 (56623104)
I0202 00:15:16.244439 31870 net.cpp:165] Memory required for data: 5472594748
I0202 00:15:16.244442 31870 layer_factory.hpp:77] Creating layer roi_pool_org
I0202 00:15:16.244447 31870 net.cpp:100] Creating Layer roi_pool_org
I0202 00:15:16.244451 31870 net.cpp:434] roi_pool_org <- conv4_3_2x_conv4_3_2x_0_split_0
I0202 00:15:16.244457 31870 net.cpp:434] roi_pool_org <- rois_proposal_info_0_split_0
I0202 00:15:16.244462 31870 net.cpp:408] roi_pool_org -> roi_pool_org
I0202 00:15:16.244479 31870 roi_pooling_layer.cpp:33] Spatial scale: 0.25
I0202 00:15:16.244570 31870 net.cpp:150] Setting up roi_pool_org
I0202 00:15:16.244591 31870 net.cpp:157] Top shape: 256 512 7 7 (6422528)
I0202 00:15:16.244596 31870 net.cpp:165] Memory required for data: 5498284860
I0202 00:15:16.244599 31870 layer_factory.hpp:77] Creating layer roi_pool_ctx
I0202 00:15:16.244606 31870 net.cpp:100] Creating Layer roi_pool_ctx
I0202 00:15:16.244611 31870 net.cpp:434] roi_pool_ctx <- conv4_3_2x_conv4_3_2x_0_split_1
I0202 00:15:16.244616 31870 net.cpp:434] roi_pool_ctx <- rois_proposal_info_0_split_1
I0202 00:15:16.244621 31870 net.cpp:408] roi_pool_ctx -> roi_pool_ctx
I0202 00:15:16.244627 31870 roi_pooling_layer.cpp:33] Spatial scale: 0.25
I0202 00:15:16.244673 31870 net.cpp:150] Setting up roi_pool_ctx
I0202 00:15:16.244680 31870 net.cpp:157] Top shape: 256 512 7 7 (6422528)
I0202 00:15:16.244683 31870 net.cpp:165] Memory required for data: 5523974972
I0202 00:15:16.244688 31870 layer_factory.hpp:77] Creating layer roi_pool
I0202 00:15:16.244693 31870 net.cpp:100] Creating Layer roi_pool
I0202 00:15:16.244696 31870 net.cpp:434] roi_pool <- roi_pool_org
I0202 00:15:16.244701 31870 net.cpp:434] roi_pool <- roi_pool_ctx
I0202 00:15:16.244705 31870 net.cpp:408] roi_pool -> roi_pool
I0202 00:15:16.244729 31870 net.cpp:150] Setting up roi_pool
I0202 00:15:16.244735 31870 net.cpp:157] Top shape: 256 1024 7 7 (12845056)
I0202 00:15:16.244738 31870 net.cpp:165] Memory required for data: 5575355196
I0202 00:15:16.244742 31870 layer_factory.hpp:77] Creating layer roi_c1
I0202 00:15:16.244755 31870 net.cpp:100] Creating Layer roi_c1
I0202 00:15:16.244760 31870 net.cpp:434] roi_c1 <- roi_pool
I0202 00:15:16.244766 31870 net.cpp:408] roi_c1 -> roi_c1
I0202 00:15:16.370012 31870 net.cpp:150] Setting up roi_c1
I0202 00:15:16.370072 31870 net.cpp:157] Top shape: 256 512 5 5 (3276800)
I0202 00:15:16.370079 31870 net.cpp:165] Memory required for data: 5588462396
I0202 00:15:16.370092 31870 layer_factory.hpp:77] Creating layer roi_c1_relu
I0202 00:15:16.370113 31870 net.cpp:100] Creating Layer roi_c1_relu
I0202 00:15:16.370122 31870 net.cpp:434] roi_c1_relu <- roi_c1
I0202 00:15:16.370131 31870 net.cpp:395] roi_c1_relu -> roi_c1 (in-place)
I0202 00:15:16.370928 31870 net.cpp:150] Setting up roi_c1_relu
I0202 00:15:16.370944 31870 net.cpp:157] Top shape: 256 512 5 5 (3276800)
I0202 00:15:16.370949 31870 net.cpp:165] Memory required for data: 5601569596
I0202 00:15:16.370954 31870 layer_factory.hpp:77] Creating layer fc6
I0202 00:15:16.370980 31870 net.cpp:100] Creating Layer fc6
I0202 00:15:16.370986 31870 net.cpp:434] fc6 <- roi_c1
I0202 00:15:16.370995 31870 net.cpp:408] fc6 -> fc6
I0202 00:15:17.676443 31870 net.cpp:150] Setting up fc6
I0202 00:15:17.676506 31870 net.cpp:157] Top shape: 256 4096 (1048576)
I0202 00:15:17.676512 31870 net.cpp:165] Memory required for data: 5605763900
I0202 00:15:17.676523 31870 layer_factory.hpp:77] Creating layer relu6
I0202 00:15:17.676537 31870 net.cpp:100] Creating Layer relu6
I0202 00:15:17.676544 31870 net.cpp:434] relu6 <- fc6
I0202 00:15:17.676550 31870 net.cpp:395] relu6 -> fc6 (in-place)
I0202 00:15:17.677153 31870 net.cpp:150] Setting up relu6
I0202 00:15:17.677207 31870 net.cpp:157] Top shape: 256 4096 (1048576)
I0202 00:15:17.677214 31870 net.cpp:165] Memory required for data: 5609958204
I0202 00:15:17.677222 31870 layer_factory.hpp:77] Creating layer drop6
I0202 00:15:17.677243 31870 net.cpp:100] Creating Layer drop6
I0202 00:15:17.677251 31870 net.cpp:434] drop6 <- fc6
I0202 00:15:17.677265 31870 net.cpp:395] drop6 -> fc6 (in-place)
I0202 00:15:17.677358 31870 net.cpp:150] Setting up drop6
I0202 00:15:17.677374 31870 net.cpp:157] Top shape: 256 4096 (1048576)
I0202 00:15:17.677378 31870 net.cpp:165] Memory required for data: 5614152508
I0202 00:15:17.677383 31870 layer_factory.hpp:77] Creating layer fc6_drop6_0_split
I0202 00:15:17.677395 31870 net.cpp:100] Creating Layer fc6_drop6_0_split
I0202 00:15:17.677400 31870 net.cpp:434] fc6_drop6_0_split <- fc6
I0202 00:15:17.677408 31870 net.cpp:408] fc6_drop6_0_split -> fc6_drop6_0_split_0
I0202 00:15:17.677423 31870 net.cpp:408] fc6_drop6_0_split -> fc6_drop6_0_split_1
I0202 00:15:17.677495 31870 net.cpp:150] Setting up fc6_drop6_0_split
I0202 00:15:17.677532 31870 net.cpp:157] Top shape: 256 4096 (1048576)
I0202 00:15:17.677567 31870 net.cpp:157] Top shape: 256 4096 (1048576)
I0202 00:15:17.677604 31870 net.cpp:165] Memory required for data: 5622541116
I0202 00:15:17.677623 31870 layer_factory.hpp:77] Creating layer cls_pred
I0202 00:15:17.677669 31870 net.cpp:100] Creating Layer cls_pred
I0202 00:15:17.677673 31870 net.cpp:434] cls_pred <- fc6_drop6_0_split_0
I0202 00:15:17.677687 31870 net.cpp:408] cls_pred -> cls_pred
I0202 00:15:17.678418 31870 net.cpp:150] Setting up cls_pred
I0202 00:15:17.678438 31870 net.cpp:157] Top shape: 256 5 (1280)
I0202 00:15:17.678442 31870 net.cpp:165] Memory required for data: 5622546236
I0202 00:15:17.678453 31870 layer_factory.hpp:77] Creating layer cls_pred_cls_pred_0_split
I0202 00:15:17.678467 31870 net.cpp:100] Creating Layer cls_pred_cls_pred_0_split
I0202 00:15:17.678472 31870 net.cpp:434] cls_pred_cls_pred_0_split <- cls_pred
I0202 00:15:17.678479 31870 net.cpp:408] cls_pred_cls_pred_0_split -> cls_pred_cls_pred_0_split_0
I0202 00:15:17.678485 31870 net.cpp:408] cls_pred_cls_pred_0_split -> cls_pred_cls_pred_0_split_1
I0202 00:15:17.678515 31870 net.cpp:150] Setting up cls_pred_cls_pred_0_split
I0202 00:15:17.678525 31870 net.cpp:157] Top shape: 256 5 (1280)
I0202 00:15:17.678530 31870 net.cpp:157] Top shape: 256 5 (1280)
I0202 00:15:17.678535 31870 net.cpp:165] Memory required for data: 5622556476
I0202 00:15:17.678539 31870 layer_factory.hpp:77] Creating layer bbox_pred
I0202 00:15:17.678550 31870 net.cpp:100] Creating Layer bbox_pred
I0202 00:15:17.678557 31870 net.cpp:434] bbox_pred <- fc6_drop6_0_split_1
I0202 00:15:17.678568 31870 net.cpp:408] bbox_pred -> bbox_pred
I0202 00:15:17.680794 31870 net.cpp:150] Setting up bbox_pred
I0202 00:15:17.680812 31870 net.cpp:157] Top shape: 256 20 (5120)
I0202 00:15:17.680817 31870 net.cpp:165] Memory required for data: 5622576956
I0202 00:15:17.680826 31870 layer_factory.hpp:77] Creating layer bbox_pred_bbox_pred_0_split
I0202 00:15:17.680833 31870 net.cpp:100] Creating Layer bbox_pred_bbox_pred_0_split
I0202 00:15:17.680840 31870 net.cpp:434] bbox_pred_bbox_pred_0_split <- bbox_pred
I0202 00:15:17.680853 31870 net.cpp:408] bbox_pred_bbox_pred_0_split -> bbox_pred_bbox_pred_0_split_0
I0202 00:15:17.680863 31870 net.cpp:408] bbox_pred_bbox_pred_0_split -> bbox_pred_bbox_pred_0_split_1
I0202 00:15:17.680904 31870 net.cpp:150] Setting up bbox_pred_bbox_pred_0_split
I0202 00:15:17.680913 31870 net.cpp:157] Top shape: 256 20 (5120)
I0202 00:15:17.680919 31870 net.cpp:157] Top shape: 256 20 (5120)
I0202 00:15:17.680923 31870 net.cpp:165] Memory required for data: 5622617916
I0202 00:15:17.680928 31870 layer_factory.hpp:77] Creating layer loss_cls
I0202 00:15:17.680938 31870 net.cpp:100] Creating Layer loss_cls
I0202 00:15:17.680944 31870 net.cpp:434] loss_cls <- cls_pred_cls_pred_0_split_0
I0202 00:15:17.680951 31870 net.cpp:434] loss_cls <- proposal_labels_proposal_info_1_split_0
…
I0202 00:15:17.694602 31870 image_gt_data_layer.cpp:235] output label size 2 : 2,6,48,48
I0202 00:15:17.694649 31870 image_gt_data_layer.cpp:235] output label size 3 : 2,6,48,48
I0202 00:15:17.694697 31870 image_gt_data_layer.cpp:235] output label size 4 : 2,6,24,24
I0202 00:15:17.694744 31870 image_gt_data_layer.cpp:235] output label size 5 : 2,6,24,24
I0202 00:15:17.694790 31870 image_gt_data_layer.cpp:235] output label size 6 : 2,6,12,12
I0202 00:15:17.694838 31870 image_gt_data_layer.cpp:250] output gt boxes size: 1,7,1,1
I0202 00:15:17.733443 31870 net.cpp:150] Setting up data
I0202 00:15:17.733474 31870 net.cpp:157] Top shape: 2 4 768 768 (4718592)
I0202 00:15:17.733482 31870 net.cpp:157] Top shape: 2 6 96 96 (110592)
I0202 00:15:17.733489 31870 net.cpp:157] Top shape: 2 6 96 96 (110592)
I0202 00:15:17.733494 31870 net.cpp:157] Top shape: 2 6 48 48 (27648)
I0202 00:15:17.733507 31870 net.cpp:157] Top shape: 2 6 48 48 (27648)
I0202 00:15:17.733521 31870 net.cpp:157] Top shape: 2 6 24 24 (6912)
I0202 00:15:17.733528 31870 net.cpp:157] Top shape: 2 6 24 24 (6912)
I0202 00:15:17.733533 31870 net.cpp:157] Top shape: 2 6 12 12 (1728)
I0202 00:15:17.733539 31870 net.cpp:157] Top shape: 1 7 1 1 (7)
I0202 00:15:17.733544 31870 net.cpp:165] Memory required for data: 20042524
I0202 00:15:17.733552 31870 layer_factory.hpp:77] Creating layer label_1_5x5_data_1_split
I0202 00:15:17.733567 31870 net.cpp:100] Creating Layer label_1_5x5_data_1_split
I0202 00:15:17.733574 31870 net.cpp:434] label_1_5x5_data_1_split <- label_1_5x5
I0202 00:15:17.733583 31870 net.cpp:408] label_1_5x5_data_1_split -> label_1_5x5_data_1_split_0
I0202 00:15:17.733595 31870 net.cpp:408] label_1_5x5_data_1_split -> label_1_5x5_data_1_split_1
I0202 00:15:17.733882 31870 net.cpp:150] Setting up label_1_5x5_data_1_split
I0202 00:15:17.733922 31870 net.cpp:157] Top shape: 2 6 96 96 (110592)
I0202 00:15:17.733929 31870 net.cpp:157] Top shape: 2 6 96 96 (110592)
I0202 00:15:17.733934 31870 net.cpp:165] Memory required for data: 20927260
I0202 00:15:17.733942 31870 layer_factory.hpp:77] Creating layer label_1_7x7_data_2_split
I0202 00:15:17.733958 31870 net.cpp:100] Creating Layer label_1_7x7_data_2_split
I0202 00:15:17.733964 31870 net.cpp:434] label_1_7x7_data_2_split <- label_1_7x7
I0202 00:15:17.733973 31870 net.cpp:408] label_1_7x7_data_2_split -> label_1_7x7_data_2_split_0
I0202 00:15:17.733984 31870 net.cpp:408] label_1_7x7_data_2_split -> label_1_7x7_data_2_split_1
I0202 00:15:17.734035 31870 net.cpp:150] Setting up label_1_7x7_data_2_split
I0202 00:15:17.734042 31870 net.cpp:157] Top shape: 2 6 96 96 (110592)
I0202 00:15:17.734047 31870 net.cpp:157] Top shape: 2 6 96 96 (110592)
I0202 00:15:17.734052 31870 net.cpp:165] Memory required for data: 21811996
I0202 00:15:17.734056 31870 layer_factory.hpp:77] Creating layer label_2_5x5_data_3_split
I0202 00:15:17.734062 31870 net.cpp:100] Creating Layer label_2_5x5_data_3_split
I0202 00:15:17.734067 31870 net.cpp:434] label_2_5x5_data_3_split <- label_2_5x5
I0202 00:15:17.734073 31870 net.cpp:408] label_2_5x5_data_3_split -> label_2_5x5_data_3_split_0
I0202 00:15:17.734081 31870 net.cpp:408] label_2_5x5_data_3_split -> label_2_5x5_data_3_split_1
I0202 00:15:17.734124 31870 net.cpp:150] Setting up label_2_5x5_data_3_split
I0202 00:15:17.734131 31870 net.cpp:157] Top shape: 2 6 48 48 (27648)
I0202 00:15:17.734136 31870 net.cpp:157] Top shape: 2 6 48 48 (27648)
I0202 00:15:17.734140 31870 net.cpp:165] Memory required for data: 22033180
I0202 00:15:17.734145 31870 layer_factory.hpp:77] Creating layer label_2_7x7_data_4_split
I0202 00:15:17.734151 31870 net.cpp:100] Creating Layer label_2_7x7_data_4_split
I0202 00:15:17.734156 31870 net.cpp:434] label_2_7x7_data_4_split <- label_2_7x7
I0202 00:15:17.734163 31870 net.cpp:408] label_2_7x7_data_4_split -> label_2_7x7_data_4_split_0
I0202 00:15:17.734169 31870 net.cpp:408] label_2_7x7_data_4_split -> label_2_7x7_data_4_split_1
I0202 00:15:17.734206 31870 net.cpp:150] Setting up label_2_7x7_data_4_split
I0202 00:15:17.734213 31870 net.cpp:157] Top shape: 2 6 48 48 (27648)
I0202 00:15:17.734220 31870 net.cpp:157] Top shape: 2 6 48 48 (27648)
I0202 00:15:17.734223 31870 net.cpp:165] Memory required for data: 22254364
I0202 00:15:17.734227 31870 layer_factory.hpp:77] Creating layer label_3_5x5_data_5_split
I0202 00:15:17.734232 31870 net.cpp:100] Creating Layer label_3_5x5_data_5_split
I0202 00:15:17.734236 31870 net.cpp:434] label_3_5x5_data_5_split <- label_3_5x5
I0202 00:15:17.734241 31870 net.cpp:408] label_3_5x5_data_5_split -> label_3_5x5_data_5_split_0
I0202 00:15:17.734246 31870 net.cpp:408] label_3_5x5_data_5_split -> label_3_5x5_data_5_split_1
I0202 00:15:17.734282 31870 net.cpp:150] Setting up label_3_5x5_data_5_split
I0202 00:15:17.734288 31870 net.cpp:157] Top shape: 2 6 24 24 (6912)
I0202 00:15:17.734293 31870 net.cpp:157] Top shape: 2 6 24 24 (6912)
I0202 00:15:17.734297 31870 net.cpp:165] Memory required for data: 22309660
I0202 00:15:17.734300 31870 layer_factory.hpp:77] Creating layer label_3_7x7_data_6_split
I0202 00:15:17.734305 31870 net.cpp:100] Creating Layer label_3_7x7_data_6_split
I0202 00:15:17.734309 31870 net.cpp:434] label_3_7x7_data_6_split <- label_3_7x7
I0202 00:15:17.734315 31870 net.cpp:408] label_3_7x7_data_6_split -> label_3_7x7_data_6_split_0
I0202 00:15:17.734321 31870 net.cpp:408] label_3_7x7_data_6_split -> label_3_7x7_data_6_split_1
I0202 00:15:17.734361 31870 net.cpp:150] Setting up label_3_7x7_data_6_split
I0202 00:15:17.734367 31870 net.cpp:157] Top shape: 2 6 24 24 (6912)
I0202 00:15:17.734372 31870 net.cpp:157] Top shape: 2 6 24 24 (6912)
I0202 00:15:17.734375 31870 net.cpp:165] Memory required for data: 22364956
I0202 00:15:17.734380 31870 layer_factory.hpp:77] Creating layer label_4_5x5_data_7_split
I0202 00:15:17.734383 31870 net.cpp:100] Creating Layer label_4_5x5_data_7_split
I0202 00:15:17.734387 31870 net.cpp:434] label_4_5x5_data_7_split <- label_4_5x5
I0202 00:15:17.734393 31870 net.cpp:408] label_4_5x5_data_7_split -> label_4_5x5_data_7_split_0
I0202 00:15:17.734400 31870 net.cpp:408] label_4_5x5_data_7_split -> label_4_5x5_data_7_split_1
I0202 00:15:17.734436 31870 net.cpp:150] Setting up label_4_5x5_data_7_split
I0202 00:15:17.734442 31870 net.cpp:157] Top shape: 2 6 12 12 (1728)
I0202 00:15:17.734447 31870 net.cpp:157] Top shape: 2 6 12 12 (1728)
I0202 00:15:17.734450 31870 net.cpp:165] Memory required for data: 22378780
I0202 00:15:17.734454 31870 layer_factory.hpp:77] Creating layer slice
I0202 00:15:17.734463 31870 net.cpp:100] Creating Layer slice
I0202 00:15:17.734467 31870 net.cpp:434] slice <- data
I0202 00:15:17.734473 31870 net.cpp:408] slice -> data123
I0202 00:15:17.734480 31870 net.cpp:408] slice -> ch4
I0202 00:15:17.734519 31870 net.cpp:150] Setting up slice
I0202 00:15:17.734524 31870 net.cpp:157] Top shape: 2 3 768 768 (3538944)
I0202 00:15:17.734529 31870 net.cpp:157] Top shape: 2 1 768 768 (1179648)
I0202 00:15:17.734532 31870 net.cpp:165] Memory required for data: 41253148
I0202 00:15:17.734535 31870 layer_factory.hpp:77] Creating layer conv1_1
I0202 00:15:17.734546 31870 net.cpp:100] Creating Layer conv1_1
I0202 00:15:17.734550 31870 net.cpp:434] conv1_1 <- data123
I0202 00:15:17.734557 31870 net.cpp:408] conv1_1 -> conv1_1
I0202 00:15:17.740381 31870 net.cpp:150] Setting up conv1_1
I0202 00:15:17.740422 31870 net.cpp:157] Top shape: 2 64 768 768 (75497472)
I0202 00:15:17.740427 31870 net.cpp:165] Memory required for data: 343243036
I0202 00:15:17.740448 31870 layer_factory.hpp:77] Creating layer relu1_1
I0202 00:15:17.740466 31870 net.cpp:100] Creating Layer relu1_1
I0202 00:15:17.740473 31870 net.cpp:434] relu1_1 <- conv1_1
I0202 00:15:17.740481 31870 net.cpp:395] relu1_1 -> conv1_1 (in-place)
I0202 00:15:17.740792 31870 net.cpp:150] Setting up relu1_1
I0202 00:15:17.740805 31870 net.cpp:157] Top shape: 2 64 768 768 (75497472)
I0202 00:15:17.740809 31870 net.cpp:165] Memory required for data: 645232924
I0202 00:15:17.740813 31870 layer_factory.hpp:77] Creating layer conv1_2
I0202 00:15:17.740826 31870 net.cpp:100] Creating Layer conv1_2
I0202 00:15:17.740830 31870 net.cpp:434] conv1_2 <- conv1_1
I0202 00:15:17.740839 31870 net.cpp:408] conv1_2 -> conv1_2
I0202 00:15:17.744743 31870 net.cpp:150] Setting up conv1_2
I0202 00:15:17.744788 31870 net.cpp:157] Top shape: 2 64 768 768 (75497472)
I0202 00:15:17.744797 31870 net.cpp:165] Memory required for data: 947222812
I0202 00:15:17.744824 31870 layer_factory.hpp:77] Creating layer relu1_2
I0202 00:15:17.744844 31870 net.cpp:100] Creating Layer relu1_2
I0202 00:15:17.744855 31870 net.cpp:434] relu1_2 <- conv1_2
I0202 00:15:17.744869 31870 net.cpp:395] relu1_2 -> conv1_2 (in-place)
I0202 00:15:17.745352 31870 net.cpp:150] Setting up relu1_2
I0202 00:15:17.745373 31870 net.cpp:157] Top shape: 2 64 768 768 (75497472)
I0202 00:15:17.745383 31870 net.cpp:165] Memory required for data: 1249212700
I0202 00:15:17.745391 31870 layer_factory.hpp:77] Creating layer pool1
I0202 00:15:17.745406 31870 net.cpp:100] Creating Layer pool1
I0202 00:15:17.745416 31870 net.cpp:434] pool1 <- conv1_2
I0202 00:15:17.745432 31870 net.cpp:408] pool1 -> pool1
I0202 00:15:17.745564 31870 net.cpp:150] Setting up pool1
I0202 00:15:17.745579 31870 net.cpp:157] Top shape: 2 64 384 384 (18874368)
I0202 00:15:17.745587 31870 net.cpp:165] Memory required for data: 1324710172
I0202 00:15:17.745595 31870 layer_factory.hpp:77] Creating layer ch4_pool1
I0202 00:15:17.745606 31870 net.cpp:100] Creating Layer ch4_pool1
I0202 00:15:17.745617 31870 net.cpp:434] ch4_pool1 <- ch4
I0202 00:15:17.745628 31870 net.cpp:408] ch4_pool1 -> ch4_pool1
I0202 00:15:17.745712 31870 net.cpp:150] Setting up ch4_pool1
I0202 00:15:17.745726 31870 net.cpp:157] Top shape: 2 1 384 384 (294912)
I0202 00:15:17.745733 31870 net.cpp:165] Memory required for data: 1325889820
I0202 00:15:17.745741 31870 layer_factory.hpp:77] Creating layer ch4_pool1_ch4_pool1_0_split
I0202 00:15:17.745753 31870 net.cpp:100] Creating Layer ch4_pool1_ch4_pool1_0_split
I0202 00:15:17.745761 31870 net.cpp:434] ch4_pool1_ch4_pool1_0_split <- ch4_pool1
I0202 00:15:17.745772 31870 net.cpp:408] ch4_pool1_ch4_pool1_0_split -> ch4_pool1_ch4_pool1_0_split_0
I0202 00:15:17.745790 31870 net.cpp:408] ch4_pool1_ch4_pool1_0_split -> ch4_pool1_ch4_pool1_0_split_1
I0202 00:15:17.745870 31870 net.cpp:150] Setting up ch4_pool1_ch4_pool1_0_split
I0202 00:15:17.745883 31870 net.cpp:157] Top shape: 2 1 384 384 (294912)
I0202 00:15:17.745893 31870 net.cpp:157] Top shape: 2 1 384 384 (294912)
I0202 00:15:17.745900 31870 net.cpp:165] Memory required for data: 1328249116
I0202 00:15:17.745908 31870 layer_factory.hpp:77] Creating layer pool1_concat
I0202 00:15:17.745925 31870 net.cpp:100] Creating Layer pool1_concat
I0202 00:15:17.745935 31870 net.cpp:434] pool1_concat <- pool1
I0202 00:15:17.745945 31870 net.cpp:434] pool1_concat <- ch4_pool1_ch4_pool1_0_split_0
I0202 00:15:17.745957 31870 net.cpp:408] pool1_concat -> pool1_new
I0202 00:15:17.746007 31870 net.cpp:150] Setting up pool1_concat
I0202 00:15:17.746021 31870 net.cpp:157] Top shape: 2 65 384 384 (19169280)
I0202 00:15:17.746027 31870 net.cpp:165] Memory required for data: 1404926236
I0202 00:15:17.746035 31870 layer_factory.hpp:77] Creating layer conv2_1_new
I0202 00:15:17.746053 31870 net.cpp:100] Creating Layer conv2_1_new
I0202 00:15:17.746062 31870 net.cpp:434] conv2_1_new <- pool1_new
I0202 00:15:17.746075 31870 net.cpp:408] conv2_1_new -> conv2_1
I0202 00:15:17.748895 31870 net.cpp:150] Setting up conv2_1_new
I0202 00:15:17.748920 31870 net.cpp:157] Top shape: 2 128 384 384 (37748736)
I0202 00:15:17.748925 31870 net.cpp:165] Memory required for data: 1555921180
I0202 00:15:17.748941 31870 layer_factory.hpp:77] Creating layer relu2_1
I0202 00:15:17.748955 31870 net.cpp:100] Creating Layer relu2_1
I0202 00:15:17.748961 31870 net.cpp:434] relu2_1 <- conv2_1
I0202 00:15:17.748967 31870 net.cpp:395] relu2_1 -> conv2_1 (in-place)
I0202 00:15:17.749550 31870 net.cpp:150] Setting up relu2_1
I0202 00:15:17.749565 31870 net.cpp:157] Top shape: 2 128 384 384 (37748736)
I0202 00:15:17.749572 31870 net.cpp:165] Memory required for data: 1706916124
I0202 00:15:17.749575 31870 layer_factory.hpp:77] Creating layer conv2_2
I0202 00:15:17.749586 31870 net.cpp:100] Creating Layer conv2_2
I0202 00:15:17.749590 31870 net.cpp:434] conv2_2 <- conv2_1
I0202 00:15:17.749598 31870 net.cpp:408] conv2_2 -> conv2_2
I0202 00:15:17.752254 31870 net.cpp:150] Setting up conv2_2
I0202 00:15:17.752270 31870 net.cpp:157] Top shape: 2 128 384 384 (37748736)
I0202 00:15:17.752275 31870 net.cpp:165] Memory required for data: 1857911068
I0202 00:15:17.752284 31870 layer_factory.hpp:77] Creating layer relu2_2
I0202 00:15:17.752291 31870 net.cpp:100] Creating Layer relu2_2
I0202 00:15:17.752296 31870 net.cpp:434] relu2_2 <- conv2_2
I0202 00:15:17.752303 31870 net.cpp:395] relu2_2 -> conv2_2 (in-place)
I0202 00:15:17.752511 31870 net.cpp:150] Setting up relu2_2
I0202 00:15:17.752521 31870 net.cpp:157] Top shape: 2 128 384 384 (37748736)
I0202 00:15:17.752526 31870 net.cpp:165] Memory required for data: 2008906012
I0202 00:15:17.752529 31870 layer_factory.hpp:77] Creating layer pool2
I0202 00:15:17.752538 31870 net.cpp:100] Creating Layer pool2
I0202 00:15:17.752547 31870 net.cpp:434] pool2 <- conv2_2
I0202 00:15:17.752558 31870 net.cpp:408] pool2 -> pool2
I0202 00:15:17.752741 31870 net.cpp:150] Setting up pool2
I0202 00:15:17.752770 31870 net.cpp:157] Top shape: 2 128 192 192 (9437184)
I0202 00:15:17.752775 31870 net.cpp:165] Memory required for data: 2046654748
I0202 00:15:17.752784 31870 layer_factory.hpp:77] Creating layer ch4_pool2
I0202 00:15:17.752804 31870 net.cpp:100] Creating Layer ch4_pool2
I0202 00:15:17.752812 31870 net.cpp:434] ch4_pool2 <- ch4_pool1_ch4_pool1_0_split_1
I0202 00:15:17.752828 31870 net.cpp:408] ch4_pool2 -> ch4_pool2
I0202 00:15:17.752979 31870 net.cpp:150] Setting up ch4_pool2
I0202 00:15:17.753000 31870 net.cpp:157] Top shape: 2 1 192 192 (73728)
I0202 00:15:17.753006 31870 net.cpp:165] Memory required for data: 2046949660
I0202 00:15:17.753013 31870 layer_factory.hpp:77] Creating layer ch4_pool2_ch4_pool2_0_split
I0202 00:15:17.753048 31870 net.cpp:100] Creating Layer ch4_pool2_ch4_pool2_0_split
I0202 00:15:17.753057 31870 net.cpp:434] ch4_pool2_ch4_pool2_0_split <- ch4_pool2
I0202 00:15:17.753068 31870 net.cpp:408] ch4_pool2_ch4_pool2_0_split -> ch4_pool2_ch4_pool2_0_split_0
I0202 00:15:17.753079 31870 net.cpp:408] ch4_pool2_ch4_pool2_0_split -> ch4_pool2_ch4_pool2_0_split_1
I0202 00:15:17.753218 31870 net.cpp:150] Setting up ch4_pool2_ch4_pool2_0_split
I0202 00:15:17.753238 31870 net.cpp:157] Top shape: 2 1 192 192 (73728)
I0202 00:15:17.753244 31870 net.cpp:157] Top shape: 2 1 192 192 (73728)
I0202 00:15:17.753248 31870 net.cpp:165] Memory required for data: 2047539484
I0202 00:15:17.753255 31870 layer_factory.hpp:77] Creating layer pool2_concat
I0202 00:15:17.753273 31870 net.cpp:100] Creating Layer pool2_concat
I0202 00:15:17.753288 31870 net.cpp:434] pool2_concat <- pool2
I0202 00:15:17.753296 31870 net.cpp:434] pool2_concat <- ch4_pool2_ch4_pool2_0_split_0
I0202 00:15:17.753304 31870 net.cpp:408] pool2_concat -> pool2_new
I0202 00:15:17.753401 31870 net.cpp:150] Setting up pool2_concat
I0202 00:15:17.753417 31870 net.cpp:157] Top shape: 2 129 192 192 (9510912)
I0202 00:15:17.753420 31870 net.cpp:165] Memory required for data: 2085583132
I0202 00:15:17.753427 31870 layer_factory.hpp:77] Creating layer conv3_1_new
I0202 00:15:17.753478 31870 net.cpp:100] Creating Layer conv3_1_new
I0202 00:15:17.753486 31870 net.cpp:434] conv3_1_new <- pool2_new
I0202 00:15:17.753496 31870 net.cpp:408] conv3_1_new -> conv3_1
I0202 00:15:17.756832 31870 net.cpp:150] Setting up conv3_1_new
I0202 00:15:17.756881 31870 net.cpp:157] Top shape: 2 256 192 192 (18874368)
I0202 00:15:17.756887 31870 net.cpp:165] Memory required for data: 2161080604
I0202 00:15:17.756911 31870 layer_factory.hpp:77] Creating layer relu3_1
I0202 00:15:17.756933 31870 net.cpp:100] Creating Layer relu3_1
I0202 00:15:17.756944 31870 net.cpp:434] relu3_1 <- conv3_1
I0202 00:15:17.756953 31870 net.cpp:395] relu3_1 -> conv3_1 (in-place)
I0202 00:15:17.757175 31870 net.cpp:150] Setting up relu3_1
I0202 00:15:17.757186 31870 net.cpp:157] Top shape: 2 256 192 192 (18874368)
I0202 00:15:17.757190 31870 net.cpp:165] Memory required for data: 2236578076
I0202 00:15:17.757195 31870 layer_factory.hpp:77] Creating layer conv3_2
I0202 00:15:17.757210 31870 net.cpp:100] Creating Layer conv3_2
I0202 00:15:17.757215 31870 net.cpp:434] conv3_2 <- conv3_1
I0202 00:15:17.757222 31870 net.cpp:408] conv3_2 -> conv3_2
I0202 00:15:17.764789 31870 net.cpp:150] Setting up conv3_2
I0202 00:15:17.764819 31870 net.cpp:157] Top shape: 2 256 192 192 (18874368)
I0202 00:15:17.764824 31870 net.cpp:165] Memory required for data: 2312075548
I0202 00:15:17.764834 31870 layer_factory.hpp:77] Creating layer relu3_2
I0202 00:15:17.764847 31870 net.cpp:100] Creating Layer relu3_2
I0202 00:15:17.764854 31870 net.cpp:434] relu3_2 <- conv3_2
I0202 00:15:17.764861 31870 net.cpp:395] relu3_2 -> conv3_2 (in-place)
I0202 00:15:17.765079 31870 net.cpp:150] Setting up relu3_2
I0202 00:15:17.765089 31870 net.cpp:157] Top shape: 2 256 192 192 (18874368)
I0202 00:15:17.765094 31870 net.cpp:165] Memory required for data: 2387573020
I0202 00:15:17.765097 31870 layer_factory.hpp:77] Creating layer conv3_3
I0202 00:15:17.765110 31870 net.cpp:100] Creating Layer conv3_3
I0202 00:15:17.765115 31870 net.cpp:434] conv3_3 <- conv3_2
I0202 00:15:17.765122 31870 net.cpp:408] conv3_3 -> conv3_3
I0202 00:15:17.768190 31870 net.cpp:150] Setting up conv3_3
I0202 00:15:17.768209 31870 net.cpp:157] Top shape: 2 256 192 192 (18874368)
I0202 00:15:17.768215 31870 net.cpp:165] Memory required for data: 2463070492
I0202 00:15:17.768224 31870 layer_factory.hpp:77] Creating layer relu3_3
I0202 00:15:17.768237 31870 net.cpp:100] Creating Layer relu3_3
I0202 00:15:17.768245 31870 net.cpp:434] relu3_3 <- conv3_3
I0202 00:15:17.768254 31870 net.cpp:395] relu3_3 -> conv3_3 (in-place)
I0202 00:15:17.768460 31870 net.cpp:150] Setting up relu3_3
I0202 00:15:17.768471 31870 net.cpp:157] Top shape: 2 256 192 192 (18874368)
I0202 00:15:17.768476 31870 net.cpp:165] Memory required for data: 2538567964
I0202 00:15:17.768479 31870 layer_factory.hpp:77] Creating layer pool3
I0202 00:15:17.768487 31870 net.cpp:100] Creating Layer pool3
I0202 00:15:17.768491 31870 net.cpp:434] pool3 <- conv3_3
I0202 00:15:17.768498 31870 net.cpp:408] pool3 -> pool3
I0202 00:15:17.768549 31870 net.cpp:150] Setting up pool3
I0202 00:15:17.768558 31870 net.cpp:157] Top shape: 2 256 96 96 (4718592)
I0202 00:15:17.768560 31870 net.cpp:165] Memory required for data: 2557442332
I0202 00:15:17.768564 31870 layer_factory.hpp:77] Creating layer ch4_pool3
I0202 00:15:17.768576 31870 net.cpp:100] Creating Layer ch4_pool3
I0202 00:15:17.768581 31870 net.cpp:434] ch4_pool3 <- ch4_pool2_ch4_pool2_0_split_1
I0202 00:15:17.768587 31870 net.cpp:408] ch4_pool3 -> ch4_pool3
I0202 00:15:17.768627 31870 net.cpp:150] Setting up ch4_pool3
I0202 00:15:17.768636 31870 net.cpp:157] Top shape: 2 1 96 96 (18432)
I0202 00:15:17.768640 31870 net.cpp:165] Memory required for data: 2557516060
I0202 00:15:17.768645 31870 layer_factory.hpp:77] Creating layer ch4_pool3_ch4_pool3_0_split
I0202 00:15:17.768651 31870 net.cpp:100] Creating Layer ch4_pool3_ch4_pool3_0_split
I0202 00:15:17.768654 31870 net.cpp:434] ch4_pool3_ch4_pool3_0_split <- ch4_pool3
I0202 00:15:17.768659 31870 net.cpp:408] ch4_pool3_ch4_pool3_0_split -> ch4_pool3_ch4_pool3_0_split_0
I0202 00:15:17.768666 31870 net.cpp:408] ch4_pool3_ch4_pool3_0_split -> ch4_pool3_ch4_pool3_0_split_1
I0202 00:15:17.768707 31870 net.cpp:150] Setting up ch4_pool3_ch4_pool3_0_split
I0202 00:15:17.768714 31870 net.cpp:157] Top shape: 2 1 96 96 (18432)
I0202 00:15:17.768719 31870 net.cpp:157] Top shape: 2 1 96 96 (18432)
I0202 00:15:17.768723 31870 net.cpp:165] Memory required for data: 2557663516
I0202 00:15:17.768726 31870 layer_factory.hpp:77] Creating layer pool3_concat
I0202 00:15:17.768733 31870 net.cpp:100] Creating Layer pool3_concat
I0202 00:15:17.768738 31870 net.cpp:434] pool3_concat <- pool3
I0202 00:15:17.768743 31870 net.cpp:434] pool3_concat <- ch4_pool3_ch4_pool3_0_split_0
I0202 00:15:17.768748 31870 net.cpp:408] pool3_concat -> pool3_new
I0202 00:15:17.768774 31870 net.cpp:150] Setting up pool3_concat
I0202 00:15:17.768785 31870 net.cpp:157] Top shape: 2 257 96 96 (4737024)
I0202 00:15:17.768790 31870 net.cpp:165] Memory required for data: 2576611612
I0202 00:15:17.768793 31870 layer_factory.hpp:77] Creating layer conv4_1_new
I0202 00:15:17.768801 31870 net.cpp:100] Creating Layer conv4_1_new
I0202 00:15:17.768805 31870 net.cpp:434] conv4_1_new <- pool3_new
I0202 00:15:17.768821 31870 net.cpp:408] conv4_1_new -> conv4_1
I0202 00:15:17.772718 31870 net.cpp:150] Setting up conv4_1_new
I0202 00:15:17.772748 31870 net.cpp:157] Top shape: 2 512 96 96 (9437184)
I0202 00:15:17.772753 31870 net.cpp:165] Memory required for data: 2614360348
I0202 00:15:17.772763 31870 layer_factory.hpp:77] Creating layer relu4_1
I0202 00:15:17.772776 31870 net.cpp:100] Creating Layer relu4_1
I0202 00:15:17.772783 31870 net.cpp:434] relu4_1 <- conv4_1
I0202 00:15:17.772789 31870 net.cpp:395] relu4_1 -> conv4_1 (in-place)
I0202 00:15:17.772948 31870 net.cpp:150] Setting up relu4_1
I0202 00:15:17.772958 31870 net.cpp:157] Top shape: 2 512 96 96 (9437184)
I0202 00:15:17.772960 31870 net.cpp:165] Memory required for data: 2652109084
I0202 00:15:17.772964 31870 layer_factory.hpp:77] Creating layer conv4_2
I0202 00:15:17.772974 31870 net.cpp:100] Creating Layer conv4_2
I0202 00:15:17.772977 31870 net.cpp:434] conv4_2 <- conv4_1
I0202 00:15:17.772984 31870 net.cpp:408] conv4_2 -> conv4_2
I0202 00:15:17.780864 31870 net.cpp:150] Setting up conv4_2
I0202 00:15:17.780902 31870 net.cpp:157] Top shape: 2 512 96 96 (9437184)
I0202 00:15:17.780907 31870 net.cpp:165] Memory required for data: 2689857820
I0202 00:15:17.780922 31870 layer_factory.hpp:77] Creating layer relu4_2
I0202 00:15:17.780935 31870 net.cpp:100] Creating Layer relu4_2
I0202 00:15:17.780941 31870 net.cpp:434] relu4_2 <- conv4_2
I0202 00:15:17.780948 31870 net.cpp:395] relu4_2 -> conv4_2 (in-place)
I0202 00:15:17.781476 31870 net.cpp:150] Setting up relu4_2
I0202 00:15:17.781489 31870 net.cpp:157] Top shape: 2 512 96 96 (9437184)
I0202 00:15:17.781492 31870 net.cpp:165] Memory required for data: 2727606556
I0202 00:15:17.781497 31870 layer_factory.hpp:77] Creating layer conv4_3
I0202 00:15:17.781514 31870 net.cpp:100] Creating Layer conv4_3
I0202 00:15:17.781519 31870 net.cpp:434] conv4_3 <- conv4_2
I0202 00:15:17.781527 31870 net.cpp:408] conv4_3 -> conv4_3
I0202 00:15:17.790853 31870 net.cpp:150] Setting up conv4_3
I0202 00:15:17.790891 31870 net.cpp:157] Top shape: 2 512 96 96 (9437184)
I0202 00:15:17.790897 31870 net.cpp:165] Memory required for data: 2765355292
I0202 00:15:17.790910 31870 layer_factory.hpp:77] Creating layer relu4_3
I0202 00:15:17.790925 31870 net.cpp:100] Creating Layer relu4_3
I0202 00:15:17.790935 31870 net.cpp:434] relu4_3 <- conv4_3
I0202 00:15:17.790946 31870 net.cpp:395] relu4_3 -> conv4_3 (in-place)
I0202 00:15:17.791231 31870 net.cpp:150] Setting up relu4_3
I0202 00:15:17.791247 31870 net.cpp:157] Top shape: 2 512 96 96 (9437184)
I0202 00:15:17.791252 31870 net.cpp:165] Memory required for data: 2803104028
I0202 00:15:17.791260 31870 layer_factory.hpp:77] Creating layer conv4_3_relu4_3_0_split
I0202 00:15:17.791270 31870 net.cpp:100] Creating Layer conv4_3_relu4_3_0_split
I0202 00:15:17.791277 31870 net.cpp:434] conv4_3_relu4_3_0_split <- conv4_3
I0202 00:15:17.791290 31870 net.cpp:408] conv4_3_relu4_3_0_split -> conv4_3_relu4_3_0_split_0
I0202 00:15:17.791302 31870 net.cpp:408] conv4_3_relu4_3_0_split -> conv4_3_relu4_3_0_split_1
I0202 00:15:17.791312 31870 net.cpp:408] conv4_3_relu4_3_0_split -> conv4_3_relu4_3_0_split_2
I0202 00:15:17.791393 31870 net.cpp:150] Setting up conv4_3_relu4_3_0_split
I0202 00:15:17.791405 31870 net.cpp:157] Top shape: 2 512 96 96 (9437184)
I0202 00:15:17.791411 31870 net.cpp:157] Top shape: 2 512 96 96 (9437184)
I0202 00:15:17.791417 31870 net.cpp:157] Top shape: 2 512 96 96 (9437184)
I0202 00:15:17.791422 31870 net.cpp:165] Memory required for data: 2916350236
I0202 00:15:17.791427 31870 layer_factory.hpp:77] Creating layer loss1_conv1
I0202 00:15:17.791447 31870 net.cpp:100] Creating Layer loss1_conv1
I0202 00:15:17.791455 31870 net.cpp:434] loss1_conv1 <- conv4_3_relu4_3_0_split_0
I0202 00:15:17.791465 31870 net.cpp:408] loss1_conv1 -> loss1_conv1
I0202 00:15:17.862645 31870 net.cpp:150] Setting up loss1_conv1
I0202 00:15:17.862690 31870 net.cpp:157] Top shape: 2 512 96 96 (9437184)
I0202 00:15:17.862695 31870 net.cpp:165] Memory required for data: 2954098972
I0202 00:15:17.862706 31870 layer_factory.hpp:77] Creating layer loss_relu1
I0202 00:15:17.862725 31870 net.cpp:100] Creating Layer loss_relu1
I0202 00:15:17.862732 31870 net.cpp:434] loss_relu1 <- loss1_conv1
I0202 00:15:17.862740 31870 net.cpp:395] loss_relu1 -> loss1_conv1 (in-place)
I0202 00:15:17.863065 31870 net.cpp:150] Setting up loss_relu1
I0202 00:15:17.863150 31870 net.cpp:157] Top shape: 2 512 96 96 (9437184)
I0202 00:15:17.863175 31870 net.cpp:165] Memory required for data: 2991847708
I0202 00:15:17.863188 31870 layer_factory.hpp:77] Creating layer loss1_conv1_loss_relu1_0_split
I0202 00:15:17.863220 31870 net.cpp:100] Creating Layer loss1_conv1_loss_relu1_0_split
I0202 00:15:17.863237 31870 net.cpp:434] loss1_conv1_loss_relu1_0_split <- loss1_conv1
I0202 00:15:17.863283 31870 net.cpp:408] loss1_conv1_loss_relu1_0_split -> loss1_conv1_loss_relu1_0_split_0
I0202 00:15:17.863317 31870 net.cpp:408] loss1_conv1_loss_relu1_0_split -> loss1_conv1_loss_relu1_0_split_1
I0202 00:15:17.863751 31870 net.cpp:150] Setting up loss1_conv1_loss_relu1_0_split
I0202 00:15:17.863832 31870 net.cpp:157] Top shape: 2 512 96 96 (9437184)
I0202 00:15:17.863853 31870 net.cpp:157] Top shape: 2 512 96 96 (9437184)
I0202 00:15:17.863862 31870 net.cpp:165] Memory required for data: 3067345180
I0202 00:15:17.863873 31870 layer_factory.hpp:77] Creating layer LFCN_1_5x5
I0202 00:15:17.863962 31870 net.cpp:100] Creating Layer LFCN_1_5x5
I0202 00:15:17.863991 31870 net.cpp:434] LFCN_1_5x5 <- loss1_conv1_loss_relu1_0_split_0
I0202 00:15:17.864020 31870 net.cpp:408] LFCN_1_5x5 -> LFCN_1_5x5
I0202 00:15:17.876972 31870 net.cpp:150] Setting up LFCN_1_5x5
I0202 00:15:17.877004 31870 net.cpp:157] Top shape: 2 9 96 96 (165888)
I0202 00:15:17.877010 31870 net.cpp:165] Memory required for data: 3068008732
I0202 00:15:17.877020 31870 layer_factory.hpp:77] Creating layer LFCN_1_5x5_LFCN_1_5x5_0_split
I0202 00:15:17.877034 31870 net.cpp:100] Creating Layer LFCN_1_5x5_LFCN_1_5x5_0_split
I0202 00:15:17.877041 31870 net.cpp:434] LFCN_1_5x5_LFCN_1_5x5_0_split <- LFCN_1_5x5
I0202 00:15:17.877051 31870 net.cpp:408] LFCN_1_5x5_LFCN_1_5x5_0_split -> LFCN_1_5x5_LFCN_1_5x5_0_split_0
I0202 00:15:17.877063 31870 net.cpp:408] LFCN_1_5x5_LFCN_1_5x5_0_split -> LFCN_1_5x5_LFCN_1_5x5_0_split_1
I0202 00:15:17.877070 31870 net.cpp:408] LFCN_1_5x5_LFCN_1_5x5_0_split -> LFCN_1_5x5_LFCN_1_5x5_0_split_2
I0202 00:15:17.877133 31870 net.cpp:150] Setting up LFCN_1_5x5_LFCN_1_5x5_0_split
I0202 00:15:17.877141 31870 net.cpp:157] Top shape: 2 9 96 96 (165888)
I0202 00:15:17.877147 31870 net.cpp:157] Top shape: 2 9 96 96 (165888)
I0202 00:15:17.877152 31870 net.cpp:157] Top shape: 2 9 96 96 (165888)
I0202 00:15:17.877156 31870 net.cpp:165] Memory required for data: 3069999388
I0202 00:15:17.877161 31870 layer_factory.hpp:77] Creating layer detection_loss_1_5x5
I0202 00:15:17.877182 31870 net.cpp:100] Creating Layer detection_loss_1_5x5
I0202 00:15:17.877188 31870 net.cpp:434] detection_loss_1_5x5 <- LFCN_1_5x5_LFCN_1_5x5_0_split_0
I0202 00:15:17.877195 31870 net.cpp:434] detection_loss_1_5x5 <- label_1_5x5_data_1_split_0
I0202 00:15:17.877202 31870 net.cpp:408] detection_loss_1_5x5 -> loss_1_5x5
I0202 00:15:17.877216 31870 layer_factory.hpp:77] Creating layer detection_loss_1_5x5
I0202 00:15:17.877703 31870 net.cpp:150] Setting up detection_loss_1_5x5
I0202 00:15:17.877715 31870 net.cpp:157] Top shape: 1 1 1 2 (2)
I0202 00:15:17.877719 31870 net.cpp:160]     with loss weight 0.9
I0202 00:15:17.877732 31870 net.cpp:165] Memory required for data: 3069999396
I0202 00:15:17.877735 31870 layer_factory.hpp:77] Creating layer detection_accuracy_1_5x5
I0202 00:15:17.877745 31870 net.cpp:100] Creating Layer detection_accuracy_1_5x5
I0202 00:15:17.877750 31870 net.cpp:434] detection_accuracy_1_5x5 <- LFCN_1_5x5_LFCN_1_5x5_0_split_1
I0202 00:15:17.877756 31870 net.cpp:434] detection_accuracy_1_5x5 <- label_1_5x5_data_1_split_1
I0202 00:15:17.877763 31870 net.cpp:408] detection_accuracy_1_5x5 -> accuracy_1_5x5
I0202 00:15:17.877773 31870 net.cpp:408] detection_accuracy_1_5x5 -> boxiou_1_5x5
I0202 00:15:17.877821 31870 net.cpp:150] Setting up detection_accuracy_1_5x5
I0202 00:15:17.877828 31870 net.cpp:157] Top shape: 1 1 1 2 (2)
I0202 00:15:17.877835 31870 net.cpp:157] Top shape: 1 1 1 1 (1)
I0202 00:15:17.877838 31870 net.cpp:165] Memory required for data: 3069999408
I0202 00:15:17.877841 31870 layer_factory.hpp:77] Creating layer LFCN_1_7x7
I0202 00:15:17.877856 31870 net.cpp:100] Creating Layer LFCN_1_7x7
I0202 00:15:17.877861 31870 net.cpp:434] LFCN_1_7x7 <- loss1_conv1_loss_relu1_0_split_1
I0202 00:15:17.877871 31870 net.cpp:408] LFCN_1_7x7 -> LFCN_1_7x7
I0202 00:15:17.890221 31870 net.cpp:150] Setting up LFCN_1_7x7
I0202 00:15:17.890254 31870 net.cpp:157] Top shape: 2 9 96 96 (165888)
I0202 00:15:17.890257 31870 net.cpp:165] Memory required for data: 3070662960
I0202 00:15:17.890269 31870 layer_factory.hpp:77] Creating layer LFCN_1_7x7_LFCN_1_7x7_0_split
I0202 00:15:17.890282 31870 net.cpp:100] Creating Layer LFCN_1_7x7_LFCN_1_7x7_0_split
I0202 00:15:17.890290 31870 net.cpp:434] LFCN_1_7x7_LFCN_1_7x7_0_split <- LFCN_1_7x7
I0202 00:15:17.890297 31870 net.cpp:408] LFCN_1_7x7_LFCN_1_7x7_0_split -> LFCN_1_7x7_LFCN_1_7x7_0_split_0
I0202 00:15:17.890316 31870 net.cpp:408] LFCN_1_7x7_LFCN_1_7x7_0_split -> LFCN_1_7x7_LFCN_1_7x7_0_split_1
I0202 00:15:17.890322 31870 net.cpp:408] LFCN_1_7x7_LFCN_1_7x7_0_split -> LFCN_1_7x7_LFCN_1_7x7_0_split_2
I0202 00:15:17.890375 31870 net.cpp:150] Setting up LFCN_1_7x7_LFCN_1_7x7_0_split
I0202 00:15:17.890384 31870 net.cpp:157] Top shape: 2 9 96 96 (165888)
I0202 00:15:17.890390 31870 net.cpp:157] Top shape: 2 9 96 96 (165888)
I0202 00:15:17.890394 31870 net.cpp:157] Top shape: 2 9 96 96 (165888)
I0202 00:15:17.890398 31870 net.cpp:165] Memory required for data: 3072653616
I0202 00:15:17.890401 31870 layer_factory.hpp:77] Creating layer detection_loss_1_7x7
I0202 00:15:17.890409 31870 net.cpp:100] Creating Layer detection_loss_1_7x7
I0202 00:15:17.890413 31870 net.cpp:434] detection_loss_1_7x7 <- LFCN_1_7x7_LFCN_1_7x7_0_split_0
I0202 00:15:17.890419 31870 net.cpp:434] detection_loss_1_7x7 <- label_1_7x7_data_2_split_0
I0202 00:15:17.890426 31870 net.cpp:408] detection_loss_1_7x7 -> loss_1_7x7
I0202 00:15:17.890435 31870 layer_factory.hpp:77] Creating layer detection_loss_1_7x7
I0202 00:15:17.890826 31870 net.cpp:150] Setting up detection_loss_1_7x7
I0202 00:15:17.890836 31870 net.cpp:157] Top shape: 1 1 1 2 (2)
I0202 00:15:17.890839 31870 net.cpp:160]     with loss weight 0.9
I0202 00:15:17.890856 31870 net.cpp:165] Memory required for data: 3072653624
I0202 00:15:17.890861 31870 layer_factory.hpp:77] Creating layer detection_accuracy_1_7x7
I0202 00:15:17.890868 31870 net.cpp:100] Creating Layer detection_accuracy_1_7x7
I0202 00:15:17.890872 31870 net.cpp:434] detection_accuracy_1_7x7 <- LFCN_1_7x7_LFCN_1_7x7_0_split_1
I0202 00:15:17.890877 31870 net.cpp:434] detection_accuracy_1_7x7 <- label_1_7x7_data_2_split_1
I0202 00:15:17.890884 31870 net.cpp:408] detection_accuracy_1_7x7 -> accuracy_1_7x7
I0202 00:15:17.890892 31870 net.cpp:408] detection_accuracy_1_7x7 -> boxiou_1_7x7
I0202 00:15:17.890938 31870 net.cpp:150] Setting up detection_accuracy_1_7x7
I0202 00:15:17.890945 31870 net.cpp:157] Top shape: 1 1 1 2 (2)
I0202 00:15:17.890949 31870 net.cpp:157] Top shape: 1 1 1 1 (1)
I0202 00:15:17.890952 31870 net.cpp:165] Memory required for data: 3072653636
I0202 00:15:17.890956 31870 layer_factory.hpp:77] Creating layer pool4
I0202 00:15:17.890964 31870 net.cpp:100] Creating Layer pool4
I0202 00:15:17.890967 31870 net.cpp:434] pool4 <- conv4_3_relu4_3_0_split_1
I0202 00:15:17.890974 31870 net.cpp:408] pool4 -> pool4
I0202 00:15:17.891011 31870 net.cpp:150] Setting up pool4
I0202 00:15:17.891019 31870 net.cpp:157] Top shape: 2 512 48 48 (2359296)
I0202 00:15:17.891022 31870 net.cpp:165] Memory required for data: 3082090820
I0202 00:15:17.891026 31870 layer_factory.hpp:77] Creating layer ch4_pool4
I0202 00:15:17.891031 31870 net.cpp:100] Creating Layer ch4_pool4
I0202 00:15:17.891034 31870 net.cpp:434] ch4_pool4 <- ch4_pool3_ch4_pool3_0_split_1
I0202 00:15:17.891039 31870 net.cpp:408] ch4_pool4 -> ch4_pool4
I0202 00:15:17.891074 31870 net.cpp:150] Setting up ch4_pool4
I0202 00:15:17.891082 31870 net.cpp:157] Top shape: 2 1 48 48 (4608)
I0202 00:15:17.891084 31870 net.cpp:165] Memory required for data: 3082109252
I0202 00:15:17.891088 31870 layer_factory.hpp:77] Creating layer ch4_pool4_ch4_pool4_0_split
I0202 00:15:17.891093 31870 net.cpp:100] Creating Layer ch4_pool4_ch4_pool4_0_split
I0202 00:15:17.891095 31870 net.cpp:434] ch4_pool4_ch4_pool4_0_split <- ch4_pool4
I0202 00:15:17.891101 31870 net.cpp:408] ch4_pool4_ch4_pool4_0_split -> ch4_pool4_ch4_pool4_0_split_0
I0202 00:15:17.891108 31870 net.cpp:408] ch4_pool4_ch4_pool4_0_split -> ch4_pool4_ch4_pool4_0_split_1
I0202 00:15:17.891142 31870 net.cpp:150] Setting up ch4_pool4_ch4_pool4_0_split
I0202 00:15:17.891149 31870 net.cpp:157] Top shape: 2 1 48 48 (4608)
I0202 00:15:17.891152 31870 net.cpp:157] Top shape: 2 1 48 48 (4608)
I0202 00:15:17.891156 31870 net.cpp:165] Memory required for data: 3082146116
I0202 00:15:17.891160 31870 layer_factory.hpp:77] Creating layer pool4_concat
I0202 00:15:17.891165 31870 net.cpp:100] Creating Layer pool4_concat
I0202 00:15:17.891168 31870 net.cpp:434] pool4_concat <- pool4
I0202 00:15:17.891172 31870 net.cpp:434] pool4_concat <- ch4_pool4_ch4_pool4_0_split_0
I0202 00:15:17.891178 31870 net.cpp:408] pool4_concat -> pool4_new
I0202 00:15:17.891201 31870 net.cpp:150] Setting up pool4_concat
I0202 00:15:17.891207 31870 net.cpp:157] Top shape: 2 513 48 48 (2363904)
I0202 00:15:17.891211 31870 net.cpp:165] Memory required for data: 3091601732
I0202 00:15:17.891214 31870 layer_factory.hpp:77] Creating layer conv5_1_new
I0202 00:15:17.891222 31870 net.cpp:100] Creating Layer conv5_1_new
I0202 00:15:17.891227 31870 net.cpp:434] conv5_1_new <- pool4_new
I0202 00:15:17.891232 31870 net.cpp:408] conv5_1_new -> conv5_1
I0202 00:15:17.897606 31870 net.cpp:150] Setting up conv5_1_new
I0202 00:15:17.897635 31870 net.cpp:157] Top shape: 2 512 48 48 (2359296)
I0202 00:15:17.897639 31870 net.cpp:165] Memory required for data: 3101038916
I0202 00:15:17.897649 31870 layer_factory.hpp:77] Creating layer relu5_1
I0202 00:15:17.897662 31870 net.cpp:100] Creating Layer relu5_1
I0202 00:15:17.897668 31870 net.cpp:434] relu5_1 <- conv5_1
I0202 00:15:17.897675 31870 net.cpp:395] relu5_1 -> conv5_1 (in-place)
I0202 00:15:17.897935 31870 net.cpp:150] Setting up relu5_1
I0202 00:15:17.897944 31870 net.cpp:157] Top shape: 2 512 48 48 (2359296)
I0202 00:15:17.897948 31870 net.cpp:165] Memory required for data: 3110476100
I0202 00:15:17.897951 31870 layer_factory.hpp:77] Creating layer conv5_2
I0202 00:15:17.897961 31870 net.cpp:100] Creating Layer conv5_2
I0202 00:15:17.897965 31870 net.cpp:434] conv5_2 <- conv5_1
I0202 00:15:17.897972 31870 net.cpp:408] conv5_2 -> conv5_2
I0202 00:15:17.908424 31870 net.cpp:150] Setting up conv5_2
I0202 00:15:17.908470 31870 net.cpp:157] Top shape: 2 512 48 48 (2359296)
I0202 00:15:17.908475 31870 net.cpp:165] Memory required for data: 3119913284
I0202 00:15:17.908485 31870 layer_factory.hpp:77] Creating layer relu5_2
I0202 00:15:17.908498 31870 net.cpp:100] Creating Layer relu5_2
I0202 00:15:17.908504 31870 net.cpp:434] relu5_2 <- conv5_2
I0202 00:15:17.908510 31870 net.cpp:395] relu5_2 -> conv5_2 (in-place)
I0202 00:15:17.910447 31870 net.cpp:150] Setting up relu5_2
I0202 00:15:17.910465 31870 net.cpp:157] Top shape: 2 512 48 48 (2359296)
I0202 00:15:17.910470 31870 net.cpp:165] Memory required for data: 3129350468
I0202 00:15:17.910475 31870 layer_factory.hpp:77] Creating layer conv5_3
I0202 00:15:17.910483 31870 net.cpp:100] Creating Layer conv5_3
I0202 00:15:17.910488 31870 net.cpp:434] conv5_3 <- conv5_2
I0202 00:15:17.910496 31870 net.cpp:408] conv5_3 -> conv5_3
I0202 00:15:17.916546 31870 net.cpp:150] Setting up conv5_3
I0202 00:15:17.916575 31870 net.cpp:157] Top shape: 2 512 48 48 (2359296)
I0202 00:15:17.916580 31870 net.cpp:165] Memory required for data: 3138787652
I0202 00:15:17.916589 31870 layer_factory.hpp:77] Creating layer relu5_3
I0202 00:15:17.916600 31870 net.cpp:100] Creating Layer relu5_3
I0202 00:15:17.916607 31870 net.cpp:434] relu5_3 <- conv5_3
I0202 00:15:17.916615 31870 net.cpp:395] relu5_3 -> conv5_3 (in-place)
I0202 00:15:17.916782 31870 net.cpp:150] Setting up relu5_3
I0202 00:15:17.916792 31870 net.cpp:157] Top shape: 2 512 48 48 (2359296)
I0202 00:15:17.916795 31870 net.cpp:165] Memory required for data: 3148224836
I0202 00:15:17.916800 31870 layer_factory.hpp:77] Creating layer conv5_3_relu5_3_0_split
I0202 00:15:17.916805 31870 net.cpp:100] Creating Layer conv5_3_relu5_3_0_split
I0202 00:15:17.916810 31870 net.cpp:434] conv5_3_relu5_3_0_split <- conv5_3
I0202 00:15:17.916816 31870 net.cpp:408] conv5_3_relu5_3_0_split -> conv5_3_relu5_3_0_split_0
I0202 00:15:17.916822 31870 net.cpp:408] conv5_3_relu5_3_0_split -> conv5_3_relu5_3_0_split_1
I0202 00:15:17.916828 31870 net.cpp:408] conv5_3_relu5_3_0_split -> conv5_3_relu5_3_0_split_2
I0202 00:15:17.916882 31870 net.cpp:150] Setting up conv5_3_relu5_3_0_split
I0202 00:15:17.916889 31870 net.cpp:157] Top shape: 2 512 48 48 (2359296)
I0202 00:15:17.916893 31870 net.cpp:157] Top shape: 2 512 48 48 (2359296)
I0202 00:15:17.916898 31870 net.cpp:157] Top shape: 2 512 48 48 (2359296)
I0202 00:15:17.916901 31870 net.cpp:165] Memory required for data: 3176536388
I0202 00:15:17.916904 31870 layer_factory.hpp:77] Creating layer LFCN_2_5x5
I0202 00:15:17.916921 31870 net.cpp:100] Creating Layer LFCN_2_5x5
I0202 00:15:17.916927 31870 net.cpp:434] LFCN_2_5x5 <- conv5_3_relu5_3_0_split_0
I0202 00:15:17.916934 31870 net.cpp:408] LFCN_2_5x5 -> LFCN_2_5x5
I0202 00:15:17.921795 31870 net.cpp:150] Setting up LFCN_2_5x5
I0202 00:15:17.921811 31870 net.cpp:157] Top shape: 2 9 48 48 (41472)
I0202 00:15:17.921815 31870 net.cpp:165] Memory required for data: 3176702276
I0202 00:15:17.921828 31870 layer_factory.hpp:77] Creating layer LFCN_2_5x5_LFCN_2_5x5_0_split
I0202 00:15:17.921835 31870 net.cpp:100] Creating Layer LFCN_2_5x5_LFCN_2_5x5_0_split
I0202 00:15:17.921839 31870 net.cpp:434] LFCN_2_5x5_LFCN_2_5x5_0_split <- LFCN_2_5x5
I0202 00:15:17.921845 31870 net.cpp:408] LFCN_2_5x5_LFCN_2_5x5_0_split -> LFCN_2_5x5_LFCN_2_5x5_0_split_0
I0202 00:15:17.921852 31870 net.cpp:408] LFCN_2_5x5_LFCN_2_5x5_0_split -> LFCN_2_5x5_LFCN_2_5x5_0_split_1
I0202 00:15:17.921859 31870 net.cpp:408] LFCN_2_5x5_LFCN_2_5x5_0_split -> LFCN_2_5x5_LFCN_2_5x5_0_split_2
I0202 00:15:17.921911 31870 net.cpp:150] Setting up LFCN_2_5x5_LFCN_2_5x5_0_split
I0202 00:15:17.921918 31870 net.cpp:157] Top shape: 2 9 48 48 (41472)
I0202 00:15:17.921923 31870 net.cpp:157] Top shape: 2 9 48 48 (41472)
I0202 00:15:17.921927 31870 net.cpp:157] Top shape: 2 9 48 48 (41472)
I0202 00:15:17.921931 31870 net.cpp:165] Memory required for data: 3177199940
I0202 00:15:17.921934 31870 layer_factory.hpp:77] Creating layer detection_loss_2_5x5
I0202 00:15:17.921941 31870 net.cpp:100] Creating Layer detection_loss_2_5x5
I0202 00:15:17.921946 31870 net.cpp:434] detection_loss_2_5x5 <- LFCN_2_5x5_LFCN_2_5x5_0_split_0
I0202 00:15:17.921950 31870 net.cpp:434] detection_loss_2_5x5 <- label_2_5x5_data_3_split_0
I0202 00:15:17.921957 31870 net.cpp:408] detection_loss_2_5x5 -> loss_2_5x5
I0202 00:15:17.921965 31870 layer_factory.hpp:77] Creating layer detection_loss_2_5x5
I0202 00:15:17.922646 31870 net.cpp:150] Setting up detection_loss_2_5x5
I0202 00:15:17.922662 31870 net.cpp:157] Top shape: 1 1 1 2 (2)
I0202 00:15:17.922665 31870 net.cpp:160]     with loss weight 1
I0202 00:15:17.922677 31870 net.cpp:165] Memory required for data: 3177199948
I0202 00:15:17.922679 31870 layer_factory.hpp:77] Creating layer detection_accuracy_2_5x5
I0202 00:15:17.922686 31870 net.cpp:100] Creating Layer detection_accuracy_2_5x5
I0202 00:15:17.922690 31870 net.cpp:434] detection_accuracy_2_5x5 <- LFCN_2_5x5_LFCN_2_5x5_0_split_1
I0202 00:15:17.922695 31870 net.cpp:434] detection_accuracy_2_5x5 <- label_2_5x5_data_3_split_1
I0202 00:15:17.922701 31870 net.cpp:408] detection_accuracy_2_5x5 -> accuracy_2_5x5
I0202 00:15:17.922708 31870 net.cpp:408] detection_accuracy_2_5x5 -> boxiou_2_5x5
I0202 00:15:17.922749 31870 net.cpp:150] Setting up detection_accuracy_2_5x5
I0202 00:15:17.922756 31870 net.cpp:157] Top shape: 1 1 1 2 (2)
I0202 00:15:17.922760 31870 net.cpp:157] Top shape: 1 1 1 1 (1)
I0202 00:15:17.922763 31870 net.cpp:165] Memory required for data: 3177199960
I0202 00:15:17.922767 31870 layer_factory.hpp:77] Creating layer LFCN_2_7x7
I0202 00:15:17.922776 31870 net.cpp:100] Creating Layer LFCN_2_7x7
I0202 00:15:17.922780 31870 net.cpp:434] LFCN_2_7x7 <- conv5_3_relu5_3_0_split_1
I0202 00:15:17.922788 31870 net.cpp:408] LFCN_2_7x7 -> LFCN_2_7x7
I0202 00:15:17.929978 31870 net.cpp:150] Setting up LFCN_2_7x7
I0202 00:15:17.930001 31870 net.cpp:157] Top shape: 2 9 48 48 (41472)
I0202 00:15:17.930004 31870 net.cpp:165] Memory required for data: 3177365848
I0202 00:15:17.930012 31870 layer_factory.hpp:77] Creating layer LFCN_2_7x7_LFCN_2_7x7_0_split
I0202 00:15:17.930022 31870 net.cpp:100] Creating Layer LFCN_2_7x7_LFCN_2_7x7_0_split
I0202 00:15:17.930027 31870 net.cpp:434] LFCN_2_7x7_LFCN_2_7x7_0_split <- LFCN_2_7x7
I0202 00:15:17.930035 31870 net.cpp:408] LFCN_2_7x7_LFCN_2_7x7_0_split -> LFCN_2_7x7_LFCN_2_7x7_0_split_0
I0202 00:15:17.930043 31870 net.cpp:408] LFCN_2_7x7_LFCN_2_7x7_0_split -> LFCN_2_7x7_LFCN_2_7x7_0_split_1
I0202 00:15:17.930048 31870 net.cpp:408] LFCN_2_7x7_LFCN_2_7x7_0_split -> LFCN_2_7x7_LFCN_2_7x7_0_split_2
I0202 00:15:17.930102 31870 net.cpp:150] Setting up LFCN_2_7x7_LFCN_2_7x7_0_split
I0202 00:15:17.930109 31870 net.cpp:157] Top shape: 2 9 48 48 (41472)
I0202 00:15:17.930114 31870 net.cpp:157] Top shape: 2 9 48 48 (41472)
I0202 00:15:17.930119 31870 net.cpp:157] Top shape: 2 9 48 48 (41472)
I0202 00:15:17.930121 31870 net.cpp:165] Memory required for data: 3177863512
I0202 00:15:17.930125 31870 layer_factory.hpp:77] Creating layer detection_loss_2_7x7
I0202 00:15:17.930133 31870 net.cpp:100] Creating Layer detection_loss_2_7x7
I0202 00:15:17.930137 31870 net.cpp:434] detection_loss_2_7x7 <- LFCN_2_7x7_LFCN_2_7x7_0_split_0
I0202 00:15:17.930142 31870 net.cpp:434] detection_loss_2_7x7 <- label_2_7x7_data_4_split_0
I0202 00:15:17.930148 31870 net.cpp:408] detection_loss_2_7x7 -> loss_2_7x7
I0202 00:15:17.930157 31870 layer_factory.hpp:77] Creating layer detection_loss_2_7x7
I0202 00:15:17.930506 31870 net.cpp:150] Setting up detection_loss_2_7x7
I0202 00:15:17.930517 31870 net.cpp:157] Top shape: 1 1 1 2 (2)
I0202 00:15:17.930521 31870 net.cpp:160]     with loss weight 1
I0202 00:15:17.930529 31870 net.cpp:165] Memory required for data: 3177863520
I0202 00:15:17.930533 31870 layer_factory.hpp:77] Creating layer detection_accuracy_2_7x7
I0202 00:15:17.930541 31870 net.cpp:100] Creating Layer detection_accuracy_2_7x7
I0202 00:15:17.930544 31870 net.cpp:434] detection_accuracy_2_7x7 <- LFCN_2_7x7_LFCN_2_7x7_0_split_1
I0202 00:15:17.930549 31870 net.cpp:434] detection_accuracy_2_7x7 <- label_2_7x7_data_4_split_1
I0202 00:15:17.930557 31870 net.cpp:408] detection_accuracy_2_7x7 -> accuracy_2_7x7
I0202 00:15:17.930563 31870 net.cpp:408] detection_accuracy_2_7x7 -> boxiou_2_7x7
I0202 00:15:17.930604 31870 net.cpp:150] Setting up detection_accuracy_2_7x7
I0202 00:15:17.930613 31870 net.cpp:157] Top shape: 1 1 1 2 (2)
I0202 00:15:17.930618 31870 net.cpp:157] Top shape: 1 1 1 1 (1)
I0202 00:15:17.930620 31870 net.cpp:165] Memory required for data: 3177863532
I0202 00:15:17.930624 31870 layer_factory.hpp:77] Creating layer pool5
I0202 00:15:17.930630 31870 net.cpp:100] Creating Layer pool5
I0202 00:15:17.930634 31870 net.cpp:434] pool5 <- conv5_3_relu5_3_0_split_2
I0202 00:15:17.930640 31870 net.cpp:408] pool5 -> pool5
I0202 00:15:17.930680 31870 net.cpp:150] Setting up pool5
I0202 00:15:17.930685 31870 net.cpp:157] Top shape: 2 512 24 24 (589824)
I0202 00:15:17.930690 31870 net.cpp:165] Memory required for data: 3180222828
I0202 00:15:17.930692 31870 layer_factory.hpp:77] Creating layer ch4_pool5
I0202 00:15:17.930699 31870 net.cpp:100] Creating Layer ch4_pool5
I0202 00:15:17.930703 31870 net.cpp:434] ch4_pool5 <- ch4_pool4_ch4_pool4_0_split_1
I0202 00:15:17.930708 31870 net.cpp:408] ch4_pool5 -> ch4_pool5
I0202 00:15:17.930745 31870 net.cpp:150] Setting up ch4_pool5
I0202 00:15:17.930752 31870 net.cpp:157] Top shape: 2 1 24 24 (1152)
I0202 00:15:17.930755 31870 net.cpp:165] Memory required for data: 3180227436
I0202 00:15:17.930758 31870 layer_factory.hpp:77] Creating layer pool5_concat
I0202 00:15:17.930764 31870 net.cpp:100] Creating Layer pool5_concat
I0202 00:15:17.930768 31870 net.cpp:434] pool5_concat <- pool5
I0202 00:15:17.930773 31870 net.cpp:434] pool5_concat <- ch4_pool5
I0202 00:15:17.930778 31870 net.cpp:408] pool5_concat -> pool5_new
I0202 00:15:17.930800 31870 net.cpp:150] Setting up pool5_concat
I0202 00:15:17.930807 31870 net.cpp:157] Top shape: 2 513 24 24 (590976)
I0202 00:15:17.930810 31870 net.cpp:165] Memory required for data: 3182591340
I0202 00:15:17.930814 31870 layer_factory.hpp:77] Creating layer conv6_1_new
I0202 00:15:17.930824 31870 net.cpp:100] Creating Layer conv6_1_new
I0202 00:15:17.930829 31870 net.cpp:434] conv6_1_new <- pool5_new
I0202 00:15:17.930835 31870 net.cpp:408] conv6_1_new -> conv6_1
I0202 00:15:17.996371 31870 net.cpp:150] Setting up conv6_1_new
I0202 00:15:17.996398 31870 net.cpp:157] Top shape: 2 512 24 24 (589824)
I0202 00:15:17.996403 31870 net.cpp:165] Memory required for data: 3184950636
I0202 00:15:17.996412 31870 layer_factory.hpp:77] Creating layer relu6_1
I0202 00:15:17.996425 31870 net.cpp:100] Creating Layer relu6_1
I0202 00:15:17.996433 31870 net.cpp:434] relu6_1 <- conv6_1
I0202 00:15:17.996438 31870 net.cpp:395] relu6_1 -> conv6_1 (in-place)
I0202 00:15:17.996613 31870 net.cpp:150] Setting up relu6_1
I0202 00:15:17.996621 31870 net.cpp:157] Top shape: 2 512 24 24 (589824)
I0202 00:15:17.996626 31870 net.cpp:165] Memory required for data: 3187309932
I0202 00:15:17.996632 31870 layer_factory.hpp:77] Creating layer conv6_1_relu6_1_0_split
I0202 00:15:17.996637 31870 net.cpp:100] Creating Layer conv6_1_relu6_1_0_split
I0202 00:15:17.996641 31870 net.cpp:434] conv6_1_relu6_1_0_split <- conv6_1
I0202 00:15:17.996646 31870 net.cpp:408] conv6_1_relu6_1_0_split -> conv6_1_relu6_1_0_split_0
I0202 00:15:17.996654 31870 net.cpp:408] conv6_1_relu6_1_0_split -> conv6_1_relu6_1_0_split_1
I0202 00:15:17.996659 31870 net.cpp:408] conv6_1_relu6_1_0_split -> conv6_1_relu6_1_0_split_2
I0202 00:15:17.996712 31870 net.cpp:150] Setting up conv6_1_relu6_1_0_split
I0202 00:15:17.996719 31870 net.cpp:157] Top shape: 2 512 24 24 (589824)
I0202 00:15:17.996724 31870 net.cpp:157] Top shape: 2 512 24 24 (589824)
I0202 00:15:17.996728 31870 net.cpp:157] Top shape: 2 512 24 24 (589824)
I0202 00:15:17.996731 31870 net.cpp:165] Memory required for data: 3194387820
I0202 00:15:17.996734 31870 layer_factory.hpp:77] Creating layer LFCN_3_5x5
I0202 00:15:17.996747 31870 net.cpp:100] Creating Layer LFCN_3_5x5
I0202 00:15:17.996750 31870 net.cpp:434] LFCN_3_5x5 <- conv6_1_relu6_1_0_split_0
I0202 00:15:17.996758 31870 net.cpp:408] LFCN_3_5x5 -> LFCN_3_5x5
I0202 00:15:18.002163 31870 net.cpp:150] Setting up LFCN_3_5x5
I0202 00:15:18.002216 31870 net.cpp:157] Top shape: 2 9 24 24 (10368)
I0202 00:15:18.002223 31870 net.cpp:165] Memory required for data: 3194429292
I0202 00:15:18.002236 31870 layer_factory.hpp:77] Creating layer LFCN_3_5x5_LFCN_3_5x5_0_split
I0202 00:15:18.002254 31870 net.cpp:100] Creating Layer LFCN_3_5x5_LFCN_3_5x5_0_split
I0202 00:15:18.002260 31870 net.cpp:434] LFCN_3_5x5_LFCN_3_5x5_0_split <- LFCN_3_5x5
I0202 00:15:18.002269 31870 net.cpp:408] LFCN_3_5x5_LFCN_3_5x5_0_split -> LFCN_3_5x5_LFCN_3_5x5_0_split_0
I0202 00:15:18.002279 31870 net.cpp:408] LFCN_3_5x5_LFCN_3_5x5_0_split -> LFCN_3_5x5_LFCN_3_5x5_0_split_1
I0202 00:15:18.002285 31870 net.cpp:408] LFCN_3_5x5_LFCN_3_5x5_0_split -> LFCN_3_5x5_LFCN_3_5x5_0_split_2
I0202 00:15:18.002342 31870 net.cpp:150] Setting up LFCN_3_5x5_LFCN_3_5x5_0_split
I0202 00:15:18.002349 31870 net.cpp:157] Top shape: 2 9 24 24 (10368)
I0202 00:15:18.002353 31870 net.cpp:157] Top shape: 2 9 24 24 (10368)
I0202 00:15:18.002358 31870 net.cpp:157] Top shape: 2 9 24 24 (10368)
I0202 00:15:18.002362 31870 net.cpp:165] Memory required for data: 3194553708
I0202 00:15:18.002367 31870 layer_factory.hpp:77] Creating layer detection_loss_3_5x5
I0202 00:15:18.002377 31870 net.cpp:100] Creating Layer detection_loss_3_5x5
I0202 00:15:18.002380 31870 net.cpp:434] detection_loss_3_5x5 <- LFCN_3_5x5_LFCN_3_5x5_0_split_0
I0202 00:15:18.002388 31870 net.cpp:434] detection_loss_3_5x5 <- label_3_5x5_data_5_split_0
I0202 00:15:18.002394 31870 net.cpp:408] detection_loss_3_5x5 -> loss_3_5x5
I0202 00:15:18.002404 31870 layer_factory.hpp:77] Creating layer detection_loss_3_5x5
I0202 00:15:18.002768 31870 net.cpp:150] Setting up detection_loss_3_5x5
I0202 00:15:18.002779 31870 net.cpp:157] Top shape: 1 1 1 2 (2)
I0202 00:15:18.002782 31870 net.cpp:160]     with loss weight 1
I0202 00:15:18.002797 31870 net.cpp:165] Memory required for data: 3194553716
I0202 00:15:18.002801 31870 layer_factory.hpp:77] Creating layer detection_accuracy_3_5x5
I0202 00:15:18.002812 31870 net.cpp:100] Creating Layer detection_accuracy_3_5x5
I0202 00:15:18.002816 31870 net.cpp:434] detection_accuracy_3_5x5 <- LFCN_3_5x5_LFCN_3_5x5_0_split_1
I0202 00:15:18.002821 31870 net.cpp:434] detection_accuracy_3_5x5 <- label_3_5x5_data_5_split_1
I0202 00:15:18.002828 31870 net.cpp:408] detection_accuracy_3_5x5 -> accuracy_3_5x5
I0202 00:15:18.002836 31870 net.cpp:408] detection_accuracy_3_5x5 -> boxiou_3_5x5
I0202 00:15:18.002884 31870 net.cpp:150] Setting up detection_accuracy_3_5x5
I0202 00:15:18.002892 31870 net.cpp:157] Top shape: 1 1 1 2 (2)
I0202 00:15:18.002895 31870 net.cpp:157] Top shape: 1 1 1 1 (1)
I0202 00:15:18.002899 31870 net.cpp:165] Memory required for data: 3194553728
I0202 00:15:18.002902 31870 layer_factory.hpp:77] Creating layer LFCN_3_7x7
I0202 00:15:18.002919 31870 net.cpp:100] Creating Layer LFCN_3_7x7
I0202 00:15:18.002925 31870 net.cpp:434] LFCN_3_7x7 <- conv6_1_relu6_1_0_split_1
I0202 00:15:18.002933 31870 net.cpp:408] LFCN_3_7x7 -> LFCN_3_7x7
I0202 00:15:18.012403 31870 net.cpp:150] Setting up LFCN_3_7x7
I0202 00:15:18.012431 31870 net.cpp:157] Top shape: 2 9 24 24 (10368)
I0202 00:15:18.012435 31870 net.cpp:165] Memory required for data: 3194595200
I0202 00:15:18.012444 31870 layer_factory.hpp:77] Creating layer LFCN_3_7x7_LFCN_3_7x7_0_split
I0202 00:15:18.012452 31870 net.cpp:100] Creating Layer LFCN_3_7x7_LFCN_3_7x7_0_split
I0202 00:15:18.012459 31870 net.cpp:434] LFCN_3_7x7_LFCN_3_7x7_0_split <- LFCN_3_7x7
I0202 00:15:18.012465 31870 net.cpp:408] LFCN_3_7x7_LFCN_3_7x7_0_split -> LFCN_3_7x7_LFCN_3_7x7_0_split_0
I0202 00:15:18.012472 31870 net.cpp:408] LFCN_3_7x7_LFCN_3_7x7_0_split -> LFCN_3_7x7_LFCN_3_7x7_0_split_1
I0202 00:15:18.012476 31870 net.cpp:408] LFCN_3_7x7_LFCN_3_7x7_0_split -> LFCN_3_7x7_LFCN_3_7x7_0_split_2
I0202 00:15:18.012529 31870 net.cpp:150] Setting up LFCN_3_7x7_LFCN_3_7x7_0_split
I0202 00:15:18.012536 31870 net.cpp:157] Top shape: 2 9 24 24 (10368)
I0202 00:15:18.012539 31870 net.cpp:157] Top shape: 2 9 24 24 (10368)
I0202 00:15:18.012543 31870 net.cpp:157] Top shape: 2 9 24 24 (10368)
I0202 00:15:18.012547 31870 net.cpp:165] Memory required for data: 3194719616
I0202 00:15:18.012549 31870 layer_factory.hpp:77] Creating layer detection_loss_3_7x7
I0202 00:15:18.012557 31870 net.cpp:100] Creating Layer detection_loss_3_7x7
I0202 00:15:18.012560 31870 net.cpp:434] detection_loss_3_7x7 <- LFCN_3_7x7_LFCN_3_7x7_0_split_0
I0202 00:15:18.012567 31870 net.cpp:434] detection_loss_3_7x7 <- label_3_7x7_data_6_split_0
I0202 00:15:18.012573 31870 net.cpp:408] detection_loss_3_7x7 -> loss_3_7x7
I0202 00:15:18.012581 31870 layer_factory.hpp:77] Creating layer detection_loss_3_7x7
I0202 00:15:18.013283 31870 net.cpp:150] Setting up detection_loss_3_7x7
I0202 00:15:18.013303 31870 net.cpp:157] Top shape: 1 1 1 2 (2)
I0202 00:15:18.013305 31870 net.cpp:160]     with loss weight 1
I0202 00:15:18.013316 31870 net.cpp:165] Memory required for data: 3194719624
I0202 00:15:18.013319 31870 layer_factory.hpp:77] Creating layer detection_accuracy_3_7x7
I0202 00:15:18.013327 31870 net.cpp:100] Creating Layer detection_accuracy_3_7x7
I0202 00:15:18.013331 31870 net.cpp:434] detection_accuracy_3_7x7 <- LFCN_3_7x7_LFCN_3_7x7_0_split_1
I0202 00:15:18.013336 31870 net.cpp:434] detection_accuracy_3_7x7 <- label_3_7x7_data_6_split_1
I0202 00:15:18.013342 31870 net.cpp:408] detection_accuracy_3_7x7 -> accuracy_3_7x7
I0202 00:15:18.013351 31870 net.cpp:408] detection_accuracy_3_7x7 -> boxiou_3_7x7
I0202 00:15:18.013396 31870 net.cpp:150] Setting up detection_accuracy_3_7x7
I0202 00:15:18.013402 31870 net.cpp:157] Top shape: 1 1 1 2 (2)
I0202 00:15:18.013406 31870 net.cpp:157] Top shape: 1 1 1 1 (1)
I0202 00:15:18.013409 31870 net.cpp:165] Memory required for data: 3194719636
I0202 00:15:18.013413 31870 layer_factory.hpp:77] Creating layer pool6
I0202 00:15:18.013420 31870 net.cpp:100] Creating Layer pool6
I0202 00:15:18.013425 31870 net.cpp:434] pool6 <- conv6_1_relu6_1_0_split_2
I0202 00:15:18.013430 31870 net.cpp:408] pool6 -> pool6
I0202 00:15:18.013468 31870 net.cpp:150] Setting up pool6
I0202 00:15:18.013475 31870 net.cpp:157] Top shape: 2 512 12 12 (147456)
I0202 00:15:18.013478 31870 net.cpp:165] Memory required for data: 3195309460
I0202 00:15:18.013483 31870 layer_factory.hpp:77] Creating layer LFCN_4_5x5
I0202 00:15:18.013492 31870 net.cpp:100] Creating Layer LFCN_4_5x5
I0202 00:15:18.013496 31870 net.cpp:434] LFCN_4_5x5 <- pool6
I0202 00:15:18.013510 31870 net.cpp:408] LFCN_4_5x5 -> LFCN_4_5x5
I0202 00:15:18.017676 31870 net.cpp:150] Setting up LFCN_4_5x5
I0202 00:15:18.017693 31870 net.cpp:157] Top shape: 2 9 12 12 (2592)
I0202 00:15:18.017699 31870 net.cpp:165] Memory required for data: 3195319828
I0202 00:15:18.017705 31870 layer_factory.hpp:77] Creating layer LFCN_4_5x5_LFCN_4_5x5_0_split
I0202 00:15:18.017711 31870 net.cpp:100] Creating Layer LFCN_4_5x5_LFCN_4_5x5_0_split
I0202 00:15:18.017717 31870 net.cpp:434] LFCN_4_5x5_LFCN_4_5x5_0_split <- LFCN_4_5x5
I0202 00:15:18.017722 31870 net.cpp:408] LFCN_4_5x5_LFCN_4_5x5_0_split -> LFCN_4_5x5_LFCN_4_5x5_0_split_0
I0202 00:15:18.017729 31870 net.cpp:408] LFCN_4_5x5_LFCN_4_5x5_0_split -> LFCN_4_5x5_LFCN_4_5x5_0_split_1
I0202 00:15:18.017735 31870 net.cpp:408] LFCN_4_5x5_LFCN_4_5x5_0_split -> LFCN_4_5x5_LFCN_4_5x5_0_split_2
I0202 00:15:18.017788 31870 net.cpp:150] Setting up LFCN_4_5x5_LFCN_4_5x5_0_split
I0202 00:15:18.017793 31870 net.cpp:157] Top shape: 2 9 12 12 (2592)
I0202 00:15:18.017797 31870 net.cpp:157] Top shape: 2 9 12 12 (2592)
I0202 00:15:18.017802 31870 net.cpp:157] Top shape: 2 9 12 12 (2592)
I0202 00:15:18.017804 31870 net.cpp:165] Memory required for data: 3195350932
I0202 00:15:18.017807 31870 layer_factory.hpp:77] Creating layer detection_loss_4_5x5
I0202 00:15:18.017814 31870 net.cpp:100] Creating Layer detection_loss_4_5x5
I0202 00:15:18.017818 31870 net.cpp:434] detection_loss_4_5x5 <- LFCN_4_5x5_LFCN_4_5x5_0_split_0
I0202 00:15:18.017823 31870 net.cpp:434] detection_loss_4_5x5 <- label_4_5x5_data_7_split_0
I0202 00:15:18.017827 31870 net.cpp:408] detection_loss_4_5x5 -> loss_4_5x5
I0202 00:15:18.017835 31870 layer_factory.hpp:77] Creating layer detection_loss_4_5x5
I0202 00:15:18.018174 31870 net.cpp:150] Setting up detection_loss_4_5x5
I0202 00:15:18.018184 31870 net.cpp:157] Top shape: 1 1 1 2 (2)
I0202 00:15:18.018187 31870 net.cpp:160]     with loss weight 1
I0202 00:15:18.018194 31870 net.cpp:165] Memory required for data: 3195350940
I0202 00:15:18.018198 31870 layer_factory.hpp:77] Creating layer detection_accuracy_4_5x5
I0202 00:15:18.018203 31870 net.cpp:100] Creating Layer detection_accuracy_4_5x5
I0202 00:15:18.018208 31870 net.cpp:434] detection_accuracy_4_5x5 <- LFCN_4_5x5_LFCN_4_5x5_0_split_1
I0202 00:15:18.018211 31870 net.cpp:434] detection_accuracy_4_5x5 <- label_4_5x5_data_7_split_1
I0202 00:15:18.018218 31870 net.cpp:408] detection_accuracy_4_5x5 -> accuracy_4_5x5
I0202 00:15:18.018224 31870 net.cpp:408] detection_accuracy_4_5x5 -> boxiou_4_5x5
I0202 00:15:18.018265 31870 net.cpp:150] Setting up detection_accuracy_4_5x5
I0202 00:15:18.018272 31870 net.cpp:157] Top shape: 1 1 1 2 (2)
I0202 00:15:18.018276 31870 net.cpp:157] Top shape: 1 1 1 1 (1)
I0202 00:15:18.018280 31870 net.cpp:165] Memory required for data: 3195350952
I0202 00:15:18.018282 31870 layer_factory.hpp:77] Creating layer proposals
I0202 00:15:18.018290 31870 net.cpp:100] Creating Layer proposals
I0202 00:15:18.018296 31870 net.cpp:434] proposals <- LFCN_1_5x5_LFCN_1_5x5_0_split_2
I0202 00:15:18.018299 31870 net.cpp:434] proposals <- LFCN_1_7x7_LFCN_1_7x7_0_split_2
I0202 00:15:18.018304 31870 net.cpp:434] proposals <- LFCN_2_5x5_LFCN_2_5x5_0_split_2
I0202 00:15:18.018308 31870 net.cpp:434] proposals <- LFCN_2_7x7_LFCN_2_7x7_0_split_2
I0202 00:15:18.018312 31870 net.cpp:434] proposals <- LFCN_3_5x5_LFCN_3_5x5_0_split_2
I0202 00:15:18.018316 31870 net.cpp:434] proposals <- LFCN_3_7x7_LFCN_3_7x7_0_split_2
I0202 00:15:18.018321 31870 net.cpp:434] proposals <- LFCN_4_5x5_LFCN_4_5x5_0_split_2
I0202 00:15:18.018326 31870 net.cpp:408] proposals -> proposals
I0202 00:15:18.018352 31870 net.cpp:150] Setting up proposals
I0202 00:15:18.018357 31870 net.cpp:157] Top shape: 1 5 1 1 (5)
I0202 00:15:18.018362 31870 net.cpp:165] Memory required for data: 3195350972
I0202 00:15:18.018364 31870 layer_factory.hpp:77] Creating layer proposal_info
I0202 00:15:18.018373 31870 net.cpp:100] Creating Layer proposal_info
I0202 00:15:18.018375 31870 net.cpp:434] proposal_info <- proposals
I0202 00:15:18.018380 31870 net.cpp:434] proposal_info <- gt_boxes
I0202 00:15:18.018386 31870 net.cpp:408] proposal_info -> rois
I0202 00:15:18.018393 31870 net.cpp:408] proposal_info -> proposal_labels
I0202 00:15:18.018399 31870 net.cpp:408] proposal_info -> proposal_targets
I0202 00:15:18.018405 31870 net.cpp:408] proposal_info -> box_inside_weights
I0202 00:15:18.018420 31870 net.cpp:408] proposal_info -> box_outside_weights
I0202 00:15:18.018427 31870 net.cpp:408] proposal_info -> match_gt_boxes
I0202 00:15:18.018529 31870 net.cpp:150] Setting up proposal_info
I0202 00:15:18.018537 31870 net.cpp:157] Top shape: 128 5 1 1 (640)
I0202 00:15:18.018541 31870 net.cpp:157] Top shape: 128 1 1 1 (128)
I0202 00:15:18.018545 31870 net.cpp:157] Top shape: 128 20 1 1 (2560)
I0202 00:15:18.018551 31870 net.cpp:157] Top shape: 128 20 1 1 (2560)
I0202 00:15:18.018555 31870 net.cpp:157] Top shape: 128 20 1 1 (2560)
I0202 00:15:18.018559 31870 net.cpp:157] Top shape: 128 6 1 1 (768)
I0202 00:15:18.018563 31870 net.cpp:165] Memory required for data: 3195387836
I0202 00:15:18.018566 31870 layer_factory.hpp:77] Creating layer rois_proposal_info_0_split
I0202 00:15:18.018571 31870 net.cpp:100] Creating Layer rois_proposal_info_0_split
I0202 00:15:18.018574 31870 net.cpp:434] rois_proposal_info_0_split <- rois
I0202 00:15:18.018579 31870 net.cpp:408] rois_proposal_info_0_split -> rois_proposal_info_0_split_0
I0202 00:15:18.018585 31870 net.cpp:408] rois_proposal_info_0_split -> rois_proposal_info_0_split_1
I0202 00:15:18.018589 31870 net.cpp:408] rois_proposal_info_0_split -> rois_proposal_info_0_split_2
I0202 00:15:18.018636 31870 net.cpp:150] Setting up rois_proposal_info_0_split
I0202 00:15:18.018641 31870 net.cpp:157] Top shape: 128 5 1 1 (640)
I0202 00:15:18.018646 31870 net.cpp:157] Top shape: 128 5 1 1 (640)
I0202 00:15:18.018649 31870 net.cpp:157] Top shape: 128 5 1 1 (640)
I0202 00:15:18.018652 31870 net.cpp:165] Memory required for data: 3195395516
I0202 00:15:18.018656 31870 layer_factory.hpp:77] Creating layer proposal_labels_proposal_info_1_split
I0202 00:15:18.018662 31870 net.cpp:100] Creating Layer proposal_labels_proposal_info_1_split
I0202 00:15:18.018666 31870 net.cpp:434] proposal_labels_proposal_info_1_split <- proposal_labels
I0202 00:15:18.018671 31870 net.cpp:408] proposal_labels_proposal_info_1_split -> proposal_labels_proposal_info_1_split_0
I0202 00:15:18.018676 31870 net.cpp:408] proposal_labels_proposal_info_1_split -> proposal_labels_proposal_info_1_split_1
I0202 00:15:18.018709 31870 net.cpp:150] Setting up proposal_labels_proposal_info_1_split
I0202 00:15:18.018716 31870 net.cpp:157] Top shape: 128 1 1 1 (128)
I0202 00:15:18.018720 31870 net.cpp:157] Top shape: 128 1 1 1 (128)
I0202 00:15:18.018723 31870 net.cpp:165] Memory required for data: 3195396540
I0202 00:15:18.018726 31870 layer_factory.hpp:77] Creating layer conv4_3_2x
I0202 00:15:18.018733 31870 net.cpp:100] Creating Layer conv4_3_2x
I0202 00:15:18.018736 31870 net.cpp:434] conv4_3_2x <- conv4_3_relu4_3_0_split_2
I0202 00:15:18.018743 31870 net.cpp:408] conv4_3_2x -> conv4_3_2x
I0202 00:15:18.019125 31870 net.cpp:150] Setting up conv4_3_2x
I0202 00:15:18.019134 31870 net.cpp:157] Top shape: 2 512 192 192 (37748736)
I0202 00:15:18.019137 31870 net.cpp:165] Memory required for data: 3346391484
I0202 00:15:18.019141 31870 layer_factory.hpp:77] Creating layer conv4_3_2x_conv4_3_2x_0_split
I0202 00:15:18.019146 31870 net.cpp:100] Creating Layer conv4_3_2x_conv4_3_2x_0_split
I0202 00:15:18.019150 31870 net.cpp:434] conv4_3_2x_conv4_3_2x_0_split <- conv4_3_2x
I0202 00:15:18.019155 31870 net.cpp:408] conv4_3_2x_conv4_3_2x_0_split -> conv4_3_2x_conv4_3_2x_0_split_0
I0202 00:15:18.019160 31870 net.cpp:408] conv4_3_2x_conv4_3_2x_0_split -> conv4_3_2x_conv4_3_2x_0_split_1
I0202 00:15:18.019196 31870 net.cpp:150] Setting up conv4_3_2x_conv4_3_2x_0_split
I0202 00:15:18.019203 31870 net.cpp:157] Top shape: 2 512 192 192 (37748736)
I0202 00:15:18.019207 31870 net.cpp:157] Top shape: 2 512 192 192 (37748736)
I0202 00:15:18.019210 31870 net.cpp:165] Memory required for data: 3648381372
I0202 00:15:18.019213 31870 layer_factory.hpp:77] Creating layer roi_pool_org
I0202 00:15:18.019218 31870 net.cpp:100] Creating Layer roi_pool_org
I0202 00:15:18.019222 31870 net.cpp:434] roi_pool_org <- conv4_3_2x_conv4_3_2x_0_split_0
I0202 00:15:18.019227 31870 net.cpp:434] roi_pool_org <- rois_proposal_info_0_split_0
I0202 00:15:18.019232 31870 net.cpp:408] roi_pool_org -> roi_pool_org
I0202 00:15:18.019237 31870 roi_pooling_layer.cpp:33] Spatial scale: 0.25
I0202 00:15:18.019276 31870 net.cpp:150] Setting up roi_pool_org
I0202 00:15:18.019282 31870 net.cpp:157] Top shape: 128 512 7 7 (3211264)
I0202 00:15:18.019285 31870 net.cpp:165] Memory required for data: 3661226428
I0202 00:15:18.019289 31870 layer_factory.hpp:77] Creating layer roi_pool_ctx
I0202 00:15:18.019294 31870 net.cpp:100] Creating Layer roi_pool_ctx
I0202 00:15:18.019296 31870 net.cpp:434] roi_pool_ctx <- conv4_3_2x_conv4_3_2x_0_split_1
I0202 00:15:18.019301 31870 net.cpp:434] roi_pool_ctx <- rois_proposal_info_0_split_1
I0202 00:15:18.019306 31870 net.cpp:408] roi_pool_ctx -> roi_pool_ctx
I0202 00:15:18.019312 31870 roi_pooling_layer.cpp:33] Spatial scale: 0.25
I0202 00:15:18.019348 31870 net.cpp:150] Setting up roi_pool_ctx
I0202 00:15:18.019356 31870 net.cpp:157] Top shape: 128 512 7 7 (3211264)
I0202 00:15:18.019358 31870 net.cpp:165] Memory required for data: 3674071484
I0202 00:15:18.019361 31870 layer_factory.hpp:77] Creating layer roi_pool
I0202 00:15:18.019367 31870 net.cpp:100] Creating Layer roi_pool
I0202 00:15:18.019371 31870 net.cpp:434] roi_pool <- roi_pool_org
I0202 00:15:18.019376 31870 net.cpp:434] roi_pool <- roi_pool_ctx
I0202 00:15:18.019379 31870 net.cpp:408] roi_pool -> roi_pool
I0202 00:15:18.019403 31870 net.cpp:150] Setting up roi_pool
I0202 00:15:18.019409 31870 net.cpp:157] Top shape: 128 1024 7 7 (6422528)
I0202 00:15:18.019412 31870 net.cpp:165] Memory required for data: 3699761596
I0202 00:15:18.019415 31870 layer_factory.hpp:77] Creating layer roi_c1
I0202 00:15:18.019423 31870 net.cpp:100] Creating Layer roi_c1
I0202 00:15:18.019428 31870 net.cpp:434] roi_c1 <- roi_pool
I0202 00:15:18.019433 31870 net.cpp:408] roi_c1 -> roi_c1
I0202 00:15:18.146466 31870 net.cpp:150] Setting up roi_c1
I0202 00:15:18.146518 31870 net.cpp:157] Top shape: 128 512 5 5 (1638400)
I0202 00:15:18.146523 31870 net.cpp:165] Memory required for data: 3706315196
I0202 00:15:18.146535 31870 layer_factory.hpp:77] Creating layer roi_c1_relu
I0202 00:15:18.146554 31870 net.cpp:100] Creating Layer roi_c1_relu
I0202 00:15:18.146562 31870 net.cpp:434] roi_c1_relu <- roi_c1
I0202 00:15:18.146570 31870 net.cpp:395] roi_c1_relu -> roi_c1 (in-place)
I0202 00:15:18.146754 31870 net.cpp:150] Setting up roi_c1_relu
I0202 00:15:18.146762 31870 net.cpp:157] Top shape: 128 512 5 5 (1638400)
I0202 00:15:18.146765 31870 net.cpp:165] Memory required for data: 3712868796
I0202 00:15:18.146770 31870 layer_factory.hpp:77] Creating layer fc6
I0202 00:15:18.146780 31870 net.cpp:100] Creating Layer fc6
I0202 00:15:18.146785 31870 net.cpp:434] fc6 <- roi_c1
I0202 00:15:18.146792 31870 net.cpp:408] fc6 -> fc6
I0202 00:15:19.521576 31870 net.cpp:150] Setting up fc6
I0202 00:15:19.521611 31870 net.cpp:157] Top shape: 128 4096 (524288)
I0202 00:15:19.521615 31870 net.cpp:165] Memory required for data: 3714965948
I0202 00:15:19.521625 31870 layer_factory.hpp:77] Creating layer relu6
I0202 00:15:19.521636 31870 net.cpp:100] Creating Layer relu6
I0202 00:15:19.521642 31870 net.cpp:434] relu6 <- fc6
I0202 00:15:19.521648 31870 net.cpp:395] relu6 -> fc6 (in-place)
I0202 00:15:19.521891 31870 net.cpp:150] Setting up relu6
I0202 00:15:19.521900 31870 net.cpp:157] Top shape: 128 4096 (524288)
I0202 00:15:19.521904 31870 net.cpp:165] Memory required for data: 3717063100
I0202 00:15:19.521908 31870 layer_factory.hpp:77] Creating layer drop6
I0202 00:15:19.521914 31870 net.cpp:100] Creating Layer drop6
I0202 00:15:19.521919 31870 net.cpp:434] drop6 <- fc6
I0202 00:15:19.521924 31870 net.cpp:395] drop6 -> fc6 (in-place)
I0202 00:15:19.521946 31870 net.cpp:150] Setting up drop6
I0202 00:15:19.521953 31870 net.cpp:157] Top shape: 128 4096 (524288)
I0202 00:15:19.521956 31870 net.cpp:165] Memory required for data: 3719160252
I0202 00:15:19.521960 31870 layer_factory.hpp:77] Creating layer fc6_drop6_0_split
I0202 00:15:19.521965 31870 net.cpp:100] Creating Layer fc6_drop6_0_split
I0202 00:15:19.521967 31870 net.cpp:434] fc6_drop6_0_split <- fc6
I0202 00:15:19.521972 31870 net.cpp:408] fc6_drop6_0_split -> fc6_drop6_0_split_0
I0202 00:15:19.521978 31870 net.cpp:408] fc6_drop6_0_split -> fc6_drop6_0_split_1
I0202 00:15:19.522019 31870 net.cpp:150] Setting up fc6_drop6_0_split
I0202 00:15:19.522025 31870 net.cpp:157] Top shape: 128 4096 (524288)
I0202 00:15:19.522029 31870 net.cpp:157] Top shape: 128 4096 (524288)
I0202 00:15:19.522032 31870 net.cpp:165] Memory required for data: 3723354556
I0202 00:15:19.522035 31870 layer_factory.hpp:77] Creating layer cls_pred
I0202 00:15:19.522043 31870 net.cpp:100] Creating Layer cls_pred
I0202 00:15:19.522047 31870 net.cpp:434] cls_pred <- fc6_drop6_0_split_0
I0202 00:15:19.522058 31870 net.cpp:408] cls_pred -> cls_pred
I0202 00:15:19.522687 31870 net.cpp:150] Setting up cls_pred
I0202 00:15:19.522694 31870 net.cpp:157] Top shape: 128 5 (640)
I0202 00:15:19.522697 31870 net.cpp:165] Memory required for data: 3723357116
I0202 00:15:19.522703 31870 layer_factory.hpp:77] Creating layer cls_pred_cls_pred_0_split
I0202 00:15:19.522708 31870 net.cpp:100] Creating Layer cls_pred_cls_pred_0_split
I0202 00:15:19.522712 31870 net.cpp:434] cls_pred_cls_pred_0_split <- cls_pred
I0202 00:15:19.522717 31870 net.cpp:408] cls_pred_cls_pred_0_split -> cls_pred_cls_pred_0_split_0
I0202 00:15:19.522723 31870 net.cpp:408] cls_pred_cls_pred_0_split -> cls_pred_cls_pred_0_split_1
I0202 00:15:19.522755 31870 net.cpp:150] Setting up cls_pred_cls_pred_0_split
I0202 00:15:19.522763 31870 net.cpp:157] Top shape: 128 5 (640)
I0202 00:15:19.522766 31870 net.cpp:157] Top shape: 128 5 (640)
I0202 00:15:19.522769 31870 net.cpp:165] Memory required for data: 3723362236
I0202 00:15:19.522773 31870 layer_factory.hpp:77] Creating layer bbox_pred
I0202 00:15:19.522778 31870 net.cpp:100] Creating Layer bbox_pred
I0202 00:15:19.522781 31870 net.cpp:434] bbox_pred <- fc6_drop6_0_split_1
I0202 00:15:19.522789 31870 net.cpp:408] bbox_pred -> bbox_pred
I0202 00:15:19.524955 31870 net.cpp:150] Setting up bbox_pred
I0202 00:15:19.524960 31870 net.cpp:157] Top shape: 128 20 (2560)
I0202 00:15:19.524963 31870 net.cpp:165] Memory required for data: 3723372476
I0202 00:15:19.524967 31870 layer_factory.hpp:77] Creating layer bbox_pred_bbox_pred_0_split
I0202 00:15:19.524971 31870 net.cpp:100] Creating Layer bbox_pred_bbox_pred_0_split
I0202 00:15:19.524974 31870 net.cpp:434] bbox_pred_bbox_pred_0_split <- bbox_pred
I0202 00:15:19.524979 31870 net.cpp:408] bbox_pred_bbox_pred_0_split -> bbox_pred_bbox_pred_0_split_0
I0202 00:15:19.524984 31870 net.cpp:408] bbox_pred_bbox_pred_0_split -> bbox_pred_bbox_pred_0_split_1
I0202 00:15:19.525012 31870 net.cpp:150] Setting up bbox_pred_bbox_pred_0_split
I0202 00:15:19.525015 31870 net.cpp:157] Top shape: 128 20 (2560)
I0202 00:15:19.525019 31870 net.cpp:157] Top shape: 128 20 (2560)
I0202 00:15:19.525022 31870 net.cpp:165] Memory required for data: 3723392956
I0202 00:15:19.525024 31870 layer_factory.hpp:77] Creating layer loss_cls
I0202 00:15:19.525032 31870 net.cpp:100] Creating Layer loss_cls
I0202 00:15:19.525034 31870 net.cpp:434] loss_cls <- cls_pred_cls_pred_0_split_0
I0202 00:15:19.525038 31870 net.cpp:434] loss_cls <- proposal_labels_proposal_info_1_split_0
…
