…
    downsample_rate: 16
    downsample_rate: 32
    downsample_rate: 32
    downsample_rate: 64
    coord_num: 4
    field_h: 60
    field_h: 84
    field_h: 120
    field_h: 168
    field_h: 240
    field_h: 336
    field_h: 480
    field_w: 60
    field_w: 84
    field_w: 120
    field_w: 168
    field_w: 240
    field_w: 336
    field_w: 480
    fg_threshold: 0.5
    resize_width: 1344
    resize_height: 768
    crop_width: 768
    crop_height: 768
    do_multiple_scale: true
    min_scale: 60
    max_scale: 480
    min_gt_height: 25
    shuffle: true
  }
}
layer {
  name: "slice"
  type: "Slice"
  bottom: "data"
  top: "data123"
  top: "ch4"
  slice_param {
    slice_point: 3
    axis: 1
  }
}
layer {
  name: "conv1_1"
  type: "Convolution"
  bottom: "data123"
  top: "conv1_1"
  convolution_param {
    num_output: 64
    pad: 1
    kernel_size: 3
  }
}
layer {
  name: "relu1_1"
  type: "ReLU"
  bottom: "conv1_1"
  top: "conv1_1"
}
layer {
  name: "conv1_2"
  type: "Convolution"
  bottom: "conv1_1"
  top: "conv1_2"
  convolution_param {
    num_output: 64
    pad: 1
    kernel_size: 3
  }
}
layer {
  name: "relu1_2"
  type: "ReLU"
  bottom: "conv1_2"
  top: "conv1_2"
}
layer {
  name: "pool1"
  type: "Pooling"
  bottom: "conv1_2"
  top: "pool1"
  pooling_param {
    pool: MAX
    kernel_size: 2
    stride: 2
  }
}
layer {
  name: "ch4_pool1"
  type: "Pooling"
  bottom: "ch4"
  top: "ch4_pool1"
  pooling_param {
    pool: MAX
    kernel_size: 2
    stride: 2
  }
}
layer {
  name: "pool1_concat"
  type: "Concat"
  bottom: "pool1"
  bottom: "ch4_pool1"
  top: "pool1_new"
}
layer {
  name: "conv2_1_new"
  type: "Convolution"
  bottom: "pool1_new"
  top: "conv2_1"
  convolution_param {
    num_output: 128
    pad: 1
    kernel_size: 3
  }
}
layer {
  name: "relu2_1"
  type: "ReLU"
  bottom: "conv2_1"
  top: "conv2_1"
}
layer {
  name: "conv2_2"
  type: "Convolution"
  bottom: "conv2_1"
  top: "conv2_2"
  convolution_param {
    num_output: 128
    pad: 1
    kernel_size: 3
  }
}
layer {
  name: "relu2_2"
  type: "ReLU"
  bottom: "conv2_2"
  top: "conv2_2"
}
layer {
  name: "pool2"
  type: "Pooling"
  bottom: "conv2_2"
  top: "pool2"
  pooling_param {
    pool: MAX
    kernel_size: 2
    stride: 2
  }
}
layer {
  name: "ch4_pool2"
  type: "Pooling"
  bottom: "ch4_pool1"
  top: "ch4_pool2"
  pooling_param {
    pool: MAX
    kernel_size: 2
    stride: 2
  }
}
layer {
  name: "pool2_concat"
  type: "Concat"
  bottom: "pool2"
  bottom: "ch4_pool2"
  top: "pool2_new"
}
layer {
  name: "conv3_1_new"
  type: "Convolution"
  bottom: "pool2_new"
  top: "conv3_1"
  convolution_param {
    num_output: 256
    pad: 1
    kernel_size: 3
  }
}
layer {
  name: "relu3_1"
  type: "ReLU"
  bottom: "conv3_1"
  top: "conv3_1"
}
layer {
  name: "conv3_2"
  type: "Convolution"
  bottom: "conv3_1"
  top: "conv3_2"
  convolution_param {
    num_output: 256
    pad: 1
    kernel_size: 3
  }
}
layer {
  name: "relu3_2"
  type: "ReLU"
  bottom: "conv3_2"
  top: "conv3_2"
}
layer {
  name: "conv3_3"
  type: "Convolution"
  bottom: "conv3_2"
  top: "conv3_3"
  convolution_param {
    num_output: 256
    pad: 1
    kernel_size: 3
  }
}
layer {
  name: "relu3_3"
  type: "ReLU"
  bottom: "conv3_3"
  top: "conv3_3"
}
layer {
  name: "pool3"
  type: "Pooling"
  bottom: "conv3_3"
  top: "pool3"
  pooling_param {
    pool: MAX
    kernel_size: 2
    stride: 2
  }
}
layer {
  name: "ch4_pool3"
  type: "Pooling"
  bottom: "ch4_pool2"
  top: "ch4_pool3"
  pooling_param {
    pool: MAX
    kernel_size: 2
    stride: 2
  }
}
layer {
  name: "pool3_concat"
  type: "Concat"
  bottom: "pool3"
  bottom: "ch4_pool3"
  top: "pool3_new"
}
layer {
  name: "conv4_1_new"
  type: "Convolution"
  bottom: "pool3_new"
  top: "conv4_1"
  convolution_param {
    num_output: 512
    pad: 1
    kernel_size: 3
  }
}
layer {
  name: "relu4_1"
  type: "ReLU"
  bottom: "conv4_1"
  top: "conv4_1"
}
layer {
  name: "conv4_2"
  type: "Convolution"
  bottom: "conv4_1"
  top: "conv4_2"
  convolution_param {
    num_output: 512
    pad: 1
    kernel_size: 3
  }
}
layer {
  name: "relu4_2"
  type: "ReLU"
  bottom: "conv4_2"
  top: "conv4_2"
}
layer {
  name: "conv4_3"
  type: "Convolution"
  bottom: "conv4_2"
  top: "conv4_3"
  convolution_param {
    num_output: 512
    pad: 1
    kernel_size: 3
  }
}
layer {
  name: "relu4_3"
  type: "ReLU"
  bottom: "conv4_3"
  top: "conv4_3"
}
layer {
  name: "loss1_conv1"
  type: "Convolution"
  bottom: "conv4_3"
  top: "loss1_conv1"
  param {
    lr_mult: 1
    decay_mult: 1
  }
  param {
    lr_mult: 2
    decay_mult: 0
  }
  convolution_param {
    num_output: 512
    pad: 1
    kernel_size: 3
    weight_filler {
      type: "gaussian"
      std: 0.01
    }
    bias_filler {
      type: "constant"
    }
  }
}
layer {
  name: "loss_relu1"
  type: "ReLU"
  bottom: "loss1_conv1"
  top: "loss1_conv1"
}
layer {
  name: "LFCN_1_5x5"
  type: "Convolution"
  bottom: "loss1_conv1"
  top: "LFCN_1_5x5"
  param {
    lr_mult: 1
    decay_mult: 1
  }
  param {
    lr_mult: 2
    decay_mult: 0
  }
  convolution_param {
    num_output: 9
    pad: 2
    kernel_size: 5
    weight_filler {
      type: "gaussian"
      std: 0.001
    }
    bias_filler {
      type: "constant"
    }
  }
}
layer {
  name: "detection_loss_1_5x5"
  type: "DetectionLoss"
  bottom: "LFCN_1_5x5"
  bottom: "label_1_5x5"
  top: "loss_1_5x5"
  loss_weight: 0.9
  detection_loss_param {
    cls_num: 5
    coord_num: 4
    lambda: 0.05
    field_h: 60
    field_w: 60
    downsample_rate: 8
    bb_smooth: true
    field_whr: 2
    field_xyr: 2
    bg_threshold: 0.2
    bg_multiple: 2
    sample_mode: "random"
    pos_neg_weighted: true
  }
}
layer {
  name: "detection_accuracy_1_5x5"
  type: "DetectionAccuracy"
  bottom: "LFCN_1_5x5"
  bottom: "label_1_5x5"
  top: "accuracy_1_5x5"
  top: "boxiou_1_5x5"
  detection_accuracy_param {
    cls_num: 5
    coord_num: 4
    field_h: 60
    field_w: 60
    downsample_rate: 8
    field_whr: 2
    field_xyr: 2
  }
}
layer {
  name: "LFCN_1_7x7"
  type: "Convolution"
  bottom: "loss1_conv1"
  top: "LFCN_1_7x7"
  param {
    lr_mult: 1
    decay_mult: 1
  }
  param {
    lr_mult: 2
    decay_mult: 0
  }
  convolution_param {
    num_output: 9
    pad: 3
    kernel_size: 7
    weight_filler {
      type: "gaussian"
      std: 0.001
    }
    bias_filler {
      type: "constant"
    }
  }
}
layer {
  name: "detection_loss_1_7x7"
  type: "DetectionLoss"
  bottom: "LFCN_1_7x7"
  bottom: "label_1_7x7"
  top: "loss_1_7x7"
  loss_weight: 0.9
  detection_loss_param {
    cls_num: 5
    coord_num: 4
    lambda: 0.05
    field_h: 84
    field_w: 84
    downsample_rate: 8
    bb_smooth: true
    field_whr: 2
    field_xyr: 2
    bg_threshold: 0.2
    bg_multiple: 2
    sample_mode: "random"
    pos_neg_weighted: true
  }
}
layer {
  name: "detection_accuracy_1_7x7"
  type: "DetectionAccuracy"
  bottom: "LFCN_1_7x7"
  bottom: "label_1_7x7"
  top: "accuracy_1_7x7"
  top: "boxiou_1_7x7"
  detection_accuracy_param {
    cls_num: 5
    coord_num: 4
    field_h: 84
    field_w: 84
    downsample_rate: 8
    field_whr: 2
    field_xyr: 2
  }
}
layer {
  name: "pool4"
  type: "Pooling"
  bottom: "conv4_3"
  top: "pool4"
  pooling_param {
    pool: MAX
    kernel_size: 2
    stride: 2
  }
}
layer {
  name: "ch4_pool4"
  type: "Pooling"
  bottom: "ch4_pool3"
  top: "ch4_pool4"
  pooling_param {
    pool: MAX
    kernel_size: 2
    stride: 2
  }
}
layer {
  name: "pool4_concat"
  type: "Concat"
  bottom: "pool4"
  bottom: "ch4_pool4"
  top: "pool4_new"
}
layer {
  name: "conv5_1_new"
  type: "Convolution"
  bottom: "pool4_new"
  top: "conv5_1"
  convolution_param {
    num_output: 512
    pad: 1
    kernel_size: 3
  }
}
layer {
  name: "relu5_1"
  type: "ReLU"
  bottom: "conv5_1"
  top: "conv5_1"
}
layer {
  name: "conv5_2"
  type: "Convolution"
  bottom: "conv5_1"
  top: "conv5_2"
  convolution_param {
    num_output: 512
    pad: 1
    kernel_size: 3
  }
}
layer {
  name: "relu5_2"
  type: "ReLU"
  bottom: "conv5_2"
  top: "conv5_2"
}
layer {
  name: "conv5_3"
  type: "Convolution"
  bottom: "conv5_2"
  top: "conv5_3"
  convolution_param {
    num_output: 512
    pad: 1
    kernel_size: 3
  }
}
layer {
  name: "relu5_3"
  type: "ReLU"
  bottom: "conv5_3"
  top: "conv5_3"
}
layer {
  name: "LFCN_2_5x5"
  type: "Convolution"
  bottom: "conv5_3"
  top: "LFCN_2_5x5"
  param {
    lr_mult: 1
    decay_mult: 1
  }
  param {
    lr_mult: 2
    decay_mult: 0
  }
  convolution_param {
    num_output: 9
    pad: 2
    kernel_size: 5
    weight_filler {
      type: "gaussian"
      std: 0.001
    }
    bias_filler {
      type: "constant"
    }
  }
}
layer {
  name: "detection_loss_2_5x5"
  type: "DetectionLoss"
  bottom: "LFCN_2_5x5"
  bottom: "label_2_5x5"
  top: "loss_2_5x5"
  detection_loss_param {
    cls_num: 5
    coord_num: 4
    lambda: 0.05
    field_h: 120
    field_w: 120
    downsample_rate: 16
    bb_smooth: true
    field_whr: 2
    field_xyr: 2
    bg_threshold: 0.2
    bg_multiple: 2
    sample_mode: "random"
    pos_neg_weighted: true
  }
}
layer {
  name: "detection_accuracy_2_5x5"
  type: "DetectionAccuracy"
  bottom: "LFCN_2_5x5"
  bottom: "label_2_5x5"
  top: "accuracy_2_5x5"
  top: "boxiou_2_5x5"
  detection_accuracy_param {
    cls_num: 5
    coord_num: 4
    field_h: 120
    field_w: 120
    downsample_rate: 16
    field_whr: 2
    field_xyr: 2
  }
}
layer {
  name: "LFCN_2_7x7"
  type: "Convolution"
  bottom: "conv5_3"
  top: "LFCN_2_7x7"
  param {
    lr_mult: 1
    decay_mult: 1
  }
  param {
    lr_mult: 2
    decay_mult: 0
  }
  convolution_param {
    num_output: 9
    pad: 3
    kernel_size: 7
    weight_filler {
      type: "gaussian"
      std: 0.001
    }
    bias_filler {
      type: "constant"
    }
  }
}
layer {
  name: "detection_loss_2_7x7"
  type: "DetectionLoss"
  bottom: "LFCN_2_7x7"
  bottom: "label_2_7x7"
  top: "loss_2_7x7"
  detection_loss_param {
    cls_num: 5
    coord_num: 4
    lambda: 0.05
    field_h: 168
    field_w: 168
    downsample_rate: 16
    bb_smooth: true
    field_whr: 2
    field_xyr: 2
    bg_threshold: 0.2
    bg_multiple: 2
    sample_mode: "random"
    pos_neg_weighted: true
  }
}
layer {
  name: "detection_accuracy_2_7x7"
  type: "DetectionAccuracy"
  bottom: "LFCN_2_7x7"
  bottom: "label_2_7x7"
  top: "accuracy_2_7x7"
  top: "boxiou_2_7x7"
  detection_accuracy_param {
    cls_num: 5
    coord_num: 4
    field_h: 168
    field_w: 168
    downsample_rate: 16
    field_whr: 2
    field_xyr: 2
  }
}
layer {
  name: "pool5"
  type: "Pooling"
  bottom: "conv5_3"
  top: "pool5"
  pooling_param {
    pool: MAX
    kernel_size: 2
    stride: 2
  }
}
layer {
  name: "ch4_pool5"
  type: "Pooling"
  bottom: "ch4_pool4"
  top: "ch4_pool5"
  pooling_param {
    pool: MAX
    kernel_size: 2
    stride: 2
  }
}
layer {
  name: "pool5_concat"
  type: "Concat"
  bottom: "pool5"
  bottom: "ch4_pool5"
  top: "pool5_new"
}
layer {
  name: "conv6_1_new"
  type: "Convolution"
  bottom: "pool5_new"
  top: "conv6_1"
  param {
    lr_mult: 1
    decay_mult: 1
  }
  param {
    lr_mult: 2
    decay_mult: 0
  }
  convolution_param {
    num_output: 512
    pad: 1
    kernel_size: 3
    weight_filler {
      type: "gaussian"
      std: 0.01
    }
    bias_filler {
      type: "constant"
    }
  }
}
layer {
  name: "relu6_1"
  type: "ReLU"
  bottom: "conv6_1"
  top: "conv6_1"
}
layer {
  name: "LFCN_3_5x5"
  type: "Convolution"
  bottom: "conv6_1"
  top: "LFCN_3_5x5"
  param {
    lr_mult: 1
    decay_mult: 1
  }
  param {
    lr_mult: 2
    decay_mult: 0
  }
  convolution_param {
    num_output: 9
    pad: 2
    kernel_size: 5
    weight_filler {
      type: "gaussian"
      std: 0.001
    }
    bias_filler {
      type: "constant"
    }
  }
}
layer {
  name: "detection_loss_3_5x5"
  type: "DetectionLoss"
  bottom: "LFCN_3_5x5"
  bottom: "label_3_5x5"
  top: "loss_3_5x5"
  detection_loss_param {
    cls_num: 5
    coord_num: 4
    lambda: 0.05
    field_h: 240
    field_w: 240
    downsample_rate: 32
    bb_smooth: true
    field_whr: 2
    field_xyr: 2
    bg_threshold: 0.2
    bg_multiple: 2
    sample_mode: "random"
    pos_neg_weighted: true
  }
}
layer {
  name: "detection_accuracy_3_5x5"
  type: "DetectionAccuracy"
  bottom: "LFCN_3_5x5"
  bottom: "label_3_5x5"
  top: "accuracy_3_5x5"
  top: "boxiou_3_5x5"
  detection_accuracy_param {
    cls_num: 5
    coord_num: 4
    field_h: 240
    field_w: 240
    downsample_rate: 32
    field_whr: 2
    field_xyr: 2
  }
}
layer {
  name: "LFCN_3_7x7"
  type: "Convolution"
  bottom: "conv6_1"
  top: "LFCN_3_7x7"
  param {
    lr_mult: 1
    decay_mult: 1
  }
  param {
    lr_mult: 2
    decay_mult: 0
  }
  convolution_param {
    num_output: 9
    pad: 3
    kernel_size: 7
    weight_filler {
      type: "gaussian"
      std: 0.001
    }
    bias_filler {
      type: "constant"
    }
  }
}
layer {
  name: "detection_loss_3_7x7"
  type: "DetectionLoss"
  bottom: "LFCN_3_7x7"
  bottom: "label_3_7x7"
  top: "loss_3_7x7"
  detection_loss_param {
    cls_num: 5
    coord_num: 4
    lambda: 0.05
    field_h: 336
    field_w: 336
    downsample_rate: 32
    bb_smooth: true
    field_whr: 2
    field_xyr: 2
    bg_threshold: 0.2
    bg_multiple: 2
    sample_mode: "random"
    pos_neg_weighted: true
  }
}
layer {
  name: "detection_accuracy_3_7x7"
  type: "DetectionAccuracy"
  bottom: "LFCN_3_7x7"
  bottom: "label_3_7x7"
  top: "accuracy_3_7x7"
  top: "boxiou_3_7x7"
  detection_accuracy_param {
    cls_num: 5
    coord_num: 4
    field_h: 336
    field_w: 336
    downsample_rate: 32
    field_whr: 2
    field_xyr: 2
  }
}
layer {
  name: "pool6"
  type: "Pooling"
  bottom: "conv6_1"
  top: "pool6"
  pooling_param {
    pool: MAX
    kernel_size: 2
    stride: 2
  }
}
layer {
  name: "LFCN_4_5x5"
  type: "Convolution"
  bottom: "pool6"
  top: "LFCN_4_5x5"
  param {
    lr_mult: 1
    decay_mult: 1
  }
  param {
    lr_mult: 2
    decay_mult: 0
  }
  convolution_param {
    num_output: 9
    pad: 2
    kernel_size: 5
    weight_filler {
      type: "gaussian"
      std: 0.001
    }
    bias_filler {
      type: "constant"
    }
  }
}
layer {
  name: "detection_loss_4_5x5"
  type: "DetectionLoss"
  bottom: "LFCN_4_5x5"
  bottom: "label_4_5x5"
  top: "loss_4_5x5"
  detection_loss_param {
    cls_num: 5
    coord_num: 4
    lambda: 0.05
    field_h: 480
    field_w: 480
    downsample_rate: 64
    bb_smooth: true
    field_whr: 2
    field_xyr: 2
    bg_threshold: 0.2
    bg_multiple: 2
    sample_mode: "random"
    pos_neg_weighted: true
  }
}
layer {
  name: "detection_accuracy_4_5x5"
  type: "DetectionAccuracy"
  bottom: "LFCN_4_5x5"
  bottom: "label_4_5x5"
  top: "accuracy_4_5x5"
  top: "boxiou_4_5x5"
  detection_accuracy_param {
    cls_num: 5
    coord_num: 4
    field_h: 480
    field_w: 480
    downsample_rate: 64
    field_whr: 2
    field_xyr: 2
  }
}
I0201 21:41:12.871775  7708 layer_factory.hpp:77] Creating layer data
I0201 21:41:12.871821  7708 net.cpp:100] Creating Layer data
I0201 21:41:12.871829  7708 net.cpp:408] data -> data
…
I0201 21:41:12.897017  7708 image_gt_data_layer.cpp:235] output label size 1 : 4,6,96,96
I0201 21:41:12.897053  7708 image_gt_data_layer.cpp:235] output label size 2 : 4,6,48,48
I0201 21:41:12.897089  7708 image_gt_data_layer.cpp:235] output label size 3 : 4,6,48,48
I0201 21:41:12.897125  7708 image_gt_data_layer.cpp:235] output label size 4 : 4,6,24,24
I0201 21:41:12.897161  7708 image_gt_data_layer.cpp:235] output label size 5 : 4,6,24,24
I0201 21:41:12.897197  7708 image_gt_data_layer.cpp:235] output label size 6 : 4,6,12,12
I0201 21:41:12.973484  7708 net.cpp:150] Setting up data
I0201 21:41:12.973520  7708 net.cpp:157] Top shape: 4 4 768 768 (9437184)
I0201 21:41:12.973526  7708 net.cpp:157] Top shape: 4 6 96 96 (221184)
I0201 21:41:12.973529  7708 net.cpp:157] Top shape: 4 6 96 96 (221184)
I0201 21:41:12.973533  7708 net.cpp:157] Top shape: 4 6 48 48 (55296)
I0201 21:41:12.973537  7708 net.cpp:157] Top shape: 4 6 48 48 (55296)
I0201 21:41:12.973541  7708 net.cpp:157] Top shape: 4 6 24 24 (13824)
I0201 21:41:12.973544  7708 net.cpp:157] Top shape: 4 6 24 24 (13824)
I0201 21:41:12.973548  7708 net.cpp:157] Top shape: 4 6 12 12 (3456)
I0201 21:41:12.973551  7708 net.cpp:165] Memory required for data: 40084992
I0201 21:41:12.973558  7708 layer_factory.hpp:77] Creating layer label_1_5x5_data_1_split
I0201 21:41:12.973574  7708 net.cpp:100] Creating Layer label_1_5x5_data_1_split
I0201 21:41:12.973580  7708 net.cpp:434] label_1_5x5_data_1_split <- label_1_5x5
I0201 21:41:12.973590  7708 net.cpp:408] label_1_5x5_data_1_split -> label_1_5x5_data_1_split_0
I0201 21:41:12.973599  7708 net.cpp:408] label_1_5x5_data_1_split -> label_1_5x5_data_1_split_1
I0201 21:41:12.973659  7708 net.cpp:150] Setting up label_1_5x5_data_1_split
I0201 21:41:12.973665  7708 net.cpp:157] Top shape: 4 6 96 96 (221184)
I0201 21:41:12.973670  7708 net.cpp:157] Top shape: 4 6 96 96 (221184)
I0201 21:41:12.973672  7708 net.cpp:165] Memory required for data: 41854464
I0201 21:41:12.973675  7708 layer_factory.hpp:77] Creating layer label_1_7x7_data_2_split
I0201 21:41:12.973681  7708 net.cpp:100] Creating Layer label_1_7x7_data_2_split
I0201 21:41:12.973685  7708 net.cpp:434] label_1_7x7_data_2_split <- label_1_7x7
I0201 21:41:12.973690  7708 net.cpp:408] label_1_7x7_data_2_split -> label_1_7x7_data_2_split_0
I0201 21:41:12.973695  7708 net.cpp:408] label_1_7x7_data_2_split -> label_1_7x7_data_2_split_1
I0201 21:41:12.973744  7708 net.cpp:150] Setting up label_1_7x7_data_2_split
I0201 21:41:12.973749  7708 net.cpp:157] Top shape: 4 6 96 96 (221184)
I0201 21:41:12.973754  7708 net.cpp:157] Top shape: 4 6 96 96 (221184)
I0201 21:41:12.973757  7708 net.cpp:165] Memory required for data: 43623936
I0201 21:41:12.973762  7708 layer_factory.hpp:77] Creating layer label_2_5x5_data_3_split
I0201 21:41:12.973767  7708 net.cpp:100] Creating Layer label_2_5x5_data_3_split
I0201 21:41:12.973769  7708 net.cpp:434] label_2_5x5_data_3_split <- label_2_5x5
I0201 21:41:12.973774  7708 net.cpp:408] label_2_5x5_data_3_split -> label_2_5x5_data_3_split_0
I0201 21:41:12.973779  7708 net.cpp:408] label_2_5x5_data_3_split -> label_2_5x5_data_3_split_1
I0201 21:41:12.973809  7708 net.cpp:150] Setting up label_2_5x5_data_3_split
I0201 21:41:12.973812  7708 net.cpp:157] Top shape: 4 6 48 48 (55296)
I0201 21:41:12.973816  7708 net.cpp:157] Top shape: 4 6 48 48 (55296)
I0201 21:41:12.973819  7708 net.cpp:165] Memory required for data: 44066304
I0201 21:41:12.973822  7708 layer_factory.hpp:77] Creating layer label_2_7x7_data_4_split
I0201 21:41:12.973827  7708 net.cpp:100] Creating Layer label_2_7x7_data_4_split
I0201 21:41:12.973830  7708 net.cpp:434] label_2_7x7_data_4_split <- label_2_7x7
I0201 21:41:12.973835  7708 net.cpp:408] label_2_7x7_data_4_split -> label_2_7x7_data_4_split_0
I0201 21:41:12.973840  7708 net.cpp:408] label_2_7x7_data_4_split -> label_2_7x7_data_4_split_1
I0201 21:41:12.973863  7708 net.cpp:150] Setting up label_2_7x7_data_4_split
I0201 21:41:12.973868  7708 net.cpp:157] Top shape: 4 6 48 48 (55296)
I0201 21:41:12.973872  7708 net.cpp:157] Top shape: 4 6 48 48 (55296)
I0201 21:41:12.973875  7708 net.cpp:165] Memory required for data: 44508672
I0201 21:41:12.973878  7708 layer_factory.hpp:77] Creating layer label_3_5x5_data_5_split
I0201 21:41:12.973882  7708 net.cpp:100] Creating Layer label_3_5x5_data_5_split
I0201 21:41:12.973886  7708 net.cpp:434] label_3_5x5_data_5_split <- label_3_5x5
I0201 21:41:12.973889  7708 net.cpp:408] label_3_5x5_data_5_split -> label_3_5x5_data_5_split_0
I0201 21:41:12.973896  7708 net.cpp:408] label_3_5x5_data_5_split -> label_3_5x5_data_5_split_1
I0201 21:41:12.973919  7708 net.cpp:150] Setting up label_3_5x5_data_5_split
I0201 21:41:12.973923  7708 net.cpp:157] Top shape: 4 6 24 24 (13824)
I0201 21:41:12.973927  7708 net.cpp:157] Top shape: 4 6 24 24 (13824)
I0201 21:41:12.973930  7708 net.cpp:165] Memory required for data: 44619264
I0201 21:41:12.973933  7708 layer_factory.hpp:77] Creating layer label_3_7x7_data_6_split
I0201 21:41:12.973938  7708 net.cpp:100] Creating Layer label_3_7x7_data_6_split
I0201 21:41:12.973942  7708 net.cpp:434] label_3_7x7_data_6_split <- label_3_7x7
I0201 21:41:12.973947  7708 net.cpp:408] label_3_7x7_data_6_split -> label_3_7x7_data_6_split_0
I0201 21:41:12.973951  7708 net.cpp:408] label_3_7x7_data_6_split -> label_3_7x7_data_6_split_1
I0201 21:41:12.973973  7708 net.cpp:150] Setting up label_3_7x7_data_6_split
I0201 21:41:12.973978  7708 net.cpp:157] Top shape: 4 6 24 24 (13824)
I0201 21:41:12.973983  7708 net.cpp:157] Top shape: 4 6 24 24 (13824)
I0201 21:41:12.973985  7708 net.cpp:165] Memory required for data: 44729856
I0201 21:41:12.973989  7708 layer_factory.hpp:77] Creating layer label_4_5x5_data_7_split
I0201 21:41:12.973992  7708 net.cpp:100] Creating Layer label_4_5x5_data_7_split
I0201 21:41:12.973995  7708 net.cpp:434] label_4_5x5_data_7_split <- label_4_5x5
I0201 21:41:12.974000  7708 net.cpp:408] label_4_5x5_data_7_split -> label_4_5x5_data_7_split_0
I0201 21:41:12.974005  7708 net.cpp:408] label_4_5x5_data_7_split -> label_4_5x5_data_7_split_1
I0201 21:41:12.974027  7708 net.cpp:150] Setting up label_4_5x5_data_7_split
I0201 21:41:12.974038  7708 net.cpp:157] Top shape: 4 6 12 12 (3456)
I0201 21:41:12.974042  7708 net.cpp:157] Top shape: 4 6 12 12 (3456)
I0201 21:41:12.974045  7708 net.cpp:165] Memory required for data: 44757504
I0201 21:41:12.974048  7708 layer_factory.hpp:77] Creating layer slice
I0201 21:41:12.974059  7708 net.cpp:100] Creating Layer slice
I0201 21:41:12.974062  7708 net.cpp:434] slice <- data
I0201 21:41:12.974067  7708 net.cpp:408] slice -> data123
I0201 21:41:12.974074  7708 net.cpp:408] slice -> ch4
I0201 21:41:12.974104  7708 net.cpp:150] Setting up slice
I0201 21:41:12.974112  7708 net.cpp:157] Top shape: 4 3 768 768 (7077888)
I0201 21:41:12.974115  7708 net.cpp:157] Top shape: 4 1 768 768 (2359296)
I0201 21:41:12.974118  7708 net.cpp:165] Memory required for data: 82506240
I0201 21:41:12.974122  7708 layer_factory.hpp:77] Creating layer conv1_1
I0201 21:41:12.974130  7708 net.cpp:100] Creating Layer conv1_1
I0201 21:41:12.974134  7708 net.cpp:434] conv1_1 <- data123
I0201 21:41:12.974139  7708 net.cpp:408] conv1_1 -> conv1_1
I0201 21:41:13.270589  7708 net.cpp:150] Setting up conv1_1
I0201 21:41:13.270637  7708 net.cpp:157] Top shape: 4 64 768 768 (150994944)
I0201 21:41:13.270643  7708 net.cpp:165] Memory required for data: 686486016
I0201 21:41:13.270686  7708 layer_factory.hpp:77] Creating layer relu1_1
I0201 21:41:13.270709  7708 net.cpp:100] Creating Layer relu1_1
I0201 21:41:13.270720  7708 net.cpp:434] relu1_1 <- conv1_1
I0201 21:41:13.270728  7708 net.cpp:395] relu1_1 -> conv1_1 (in-place)
I0201 21:41:13.271065  7708 net.cpp:150] Setting up relu1_1
I0201 21:41:13.271081  7708 net.cpp:157] Top shape: 4 64 768 768 (150994944)
I0201 21:41:13.271086  7708 net.cpp:165] Memory required for data: 1290465792
I0201 21:41:13.271090  7708 layer_factory.hpp:77] Creating layer conv1_2
I0201 21:41:13.271112  7708 net.cpp:100] Creating Layer conv1_2
I0201 21:41:13.271118  7708 net.cpp:434] conv1_2 <- conv1_1
I0201 21:41:13.271126  7708 net.cpp:408] conv1_2 -> conv1_2
I0201 21:41:13.276774  7708 net.cpp:150] Setting up conv1_2
I0201 21:41:13.276831  7708 net.cpp:157] Top shape: 4 64 768 768 (150994944)
I0201 21:41:13.276835  7708 net.cpp:165] Memory required for data: 1894445568
I0201 21:41:13.276860  7708 layer_factory.hpp:77] Creating layer relu1_2
I0201 21:41:13.276878  7708 net.cpp:100] Creating Layer relu1_2
I0201 21:41:13.276887  7708 net.cpp:434] relu1_2 <- conv1_2
I0201 21:41:13.276895  7708 net.cpp:395] relu1_2 -> conv1_2 (in-place)
I0201 21:41:13.277182  7708 net.cpp:150] Setting up relu1_2
I0201 21:41:13.277194  7708 net.cpp:157] Top shape: 4 64 768 768 (150994944)
I0201 21:41:13.277199  7708 net.cpp:165] Memory required for data: 2498425344
I0201 21:41:13.277202  7708 layer_factory.hpp:77] Creating layer pool1
I0201 21:41:13.277211  7708 net.cpp:100] Creating Layer pool1
I0201 21:41:13.277216  7708 net.cpp:434] pool1 <- conv1_2
I0201 21:41:13.277225  7708 net.cpp:408] pool1 -> pool1
I0201 21:41:13.277338  7708 net.cpp:150] Setting up pool1
I0201 21:41:13.277348  7708 net.cpp:157] Top shape: 4 64 384 384 (37748736)
I0201 21:41:13.277350  7708 net.cpp:165] Memory required for data: 2649420288
I0201 21:41:13.277354  7708 layer_factory.hpp:77] Creating layer ch4_pool1
I0201 21:41:13.277360  7708 net.cpp:100] Creating Layer ch4_pool1
I0201 21:41:13.277364  7708 net.cpp:434] ch4_pool1 <- ch4
I0201 21:41:13.277372  7708 net.cpp:408] ch4_pool1 -> ch4_pool1
I0201 21:41:13.277402  7708 net.cpp:150] Setting up ch4_pool1
I0201 21:41:13.277410  7708 net.cpp:157] Top shape: 4 1 384 384 (589824)
I0201 21:41:13.277412  7708 net.cpp:165] Memory required for data: 2651779584
I0201 21:41:13.277416  7708 layer_factory.hpp:77] Creating layer ch4_pool1_ch4_pool1_0_split
I0201 21:41:13.277424  7708 net.cpp:100] Creating Layer ch4_pool1_ch4_pool1_0_split
I0201 21:41:13.277428  7708 net.cpp:434] ch4_pool1_ch4_pool1_0_split <- ch4_pool1
I0201 21:41:13.277434  7708 net.cpp:408] ch4_pool1_ch4_pool1_0_split -> ch4_pool1_ch4_pool1_0_split_0
I0201 21:41:13.277439  7708 net.cpp:408] ch4_pool1_ch4_pool1_0_split -> ch4_pool1_ch4_pool1_0_split_1
I0201 21:41:13.277468  7708 net.cpp:150] Setting up ch4_pool1_ch4_pool1_0_split
I0201 21:41:13.277475  7708 net.cpp:157] Top shape: 4 1 384 384 (589824)
I0201 21:41:13.277479  7708 net.cpp:157] Top shape: 4 1 384 384 (589824)
I0201 21:41:13.277482  7708 net.cpp:165] Memory required for data: 2656498176
I0201 21:41:13.277487  7708 layer_factory.hpp:77] Creating layer pool1_concat
I0201 21:41:13.277498  7708 net.cpp:100] Creating Layer pool1_concat
I0201 21:41:13.277544  7708 net.cpp:434] pool1_concat <- pool1
I0201 21:41:13.277554  7708 net.cpp:434] pool1_concat <- ch4_pool1_ch4_pool1_0_split_0
I0201 21:41:13.277559  7708 net.cpp:408] pool1_concat -> pool1_new
I0201 21:41:13.277580  7708 net.cpp:150] Setting up pool1_concat
I0201 21:41:13.277585  7708 net.cpp:157] Top shape: 4 65 384 384 (38338560)
I0201 21:41:13.277588  7708 net.cpp:165] Memory required for data: 2809852416
I0201 21:41:13.277591  7708 layer_factory.hpp:77] Creating layer conv2_1_new
I0201 21:41:13.277602  7708 net.cpp:100] Creating Layer conv2_1_new
I0201 21:41:13.277606  7708 net.cpp:434] conv2_1_new <- pool1_new
I0201 21:41:13.277611  7708 net.cpp:408] conv2_1_new -> conv2_1
I0201 21:41:13.282825  7708 net.cpp:150] Setting up conv2_1_new
I0201 21:41:13.282877  7708 net.cpp:157] Top shape: 4 128 384 384 (75497472)
I0201 21:41:13.282883  7708 net.cpp:165] Memory required for data: 3111842304
I0201 21:41:13.282910  7708 layer_factory.hpp:77] Creating layer relu2_1
I0201 21:41:13.282943  7708 net.cpp:100] Creating Layer relu2_1
I0201 21:41:13.282954  7708 net.cpp:434] relu2_1 <- conv2_1
I0201 21:41:13.282963  7708 net.cpp:395] relu2_1 -> conv2_1 (in-place)
I0201 21:41:13.283259  7708 net.cpp:150] Setting up relu2_1
I0201 21:41:13.283277  7708 net.cpp:157] Top shape: 4 128 384 384 (75497472)
I0201 21:41:13.283280  7708 net.cpp:165] Memory required for data: 3413832192
I0201 21:41:13.283284  7708 layer_factory.hpp:77] Creating layer conv2_2
I0201 21:41:13.283300  7708 net.cpp:100] Creating Layer conv2_2
I0201 21:41:13.283304  7708 net.cpp:434] conv2_2 <- conv2_1
I0201 21:41:13.283310  7708 net.cpp:408] conv2_2 -> conv2_2
I0201 21:41:13.285104  7708 net.cpp:150] Setting up conv2_2
I0201 21:41:13.285126  7708 net.cpp:157] Top shape: 4 128 384 384 (75497472)
I0201 21:41:13.285130  7708 net.cpp:165] Memory required for data: 3715822080
I0201 21:41:13.285140  7708 layer_factory.hpp:77] Creating layer relu2_2
I0201 21:41:13.285149  7708 net.cpp:100] Creating Layer relu2_2
I0201 21:41:13.285154  7708 net.cpp:434] relu2_2 <- conv2_2
I0201 21:41:13.285159  7708 net.cpp:395] relu2_2 -> conv2_2 (in-place)
I0201 21:41:13.285313  7708 net.cpp:150] Setting up relu2_2
I0201 21:41:13.285322  7708 net.cpp:157] Top shape: 4 128 384 384 (75497472)
I0201 21:41:13.285326  7708 net.cpp:165] Memory required for data: 4017811968
I0201 21:41:13.285331  7708 layer_factory.hpp:77] Creating layer pool2
I0201 21:41:13.285337  7708 net.cpp:100] Creating Layer pool2
I0201 21:41:13.285341  7708 net.cpp:434] pool2 <- conv2_2
I0201 21:41:13.285346  7708 net.cpp:408] pool2 -> pool2
I0201 21:41:13.285384  7708 net.cpp:150] Setting up pool2
I0201 21:41:13.285390  7708 net.cpp:157] Top shape: 4 128 192 192 (18874368)
I0201 21:41:13.285394  7708 net.cpp:165] Memory required for data: 4093309440
I0201 21:41:13.285398  7708 layer_factory.hpp:77] Creating layer ch4_pool2
I0201 21:41:13.285403  7708 net.cpp:100] Creating Layer ch4_pool2
I0201 21:41:13.285406  7708 net.cpp:434] ch4_pool2 <- ch4_pool1_ch4_pool1_0_split_1
I0201 21:41:13.285411  7708 net.cpp:408] ch4_pool2 -> ch4_pool2
I0201 21:41:13.285439  7708 net.cpp:150] Setting up ch4_pool2
I0201 21:41:13.285445  7708 net.cpp:157] Top shape: 4 1 192 192 (147456)
I0201 21:41:13.285449  7708 net.cpp:165] Memory required for data: 4093899264
I0201 21:41:13.285451  7708 layer_factory.hpp:77] Creating layer ch4_pool2_ch4_pool2_0_split
I0201 21:41:13.285457  7708 net.cpp:100] Creating Layer ch4_pool2_ch4_pool2_0_split
I0201 21:41:13.285461  7708 net.cpp:434] ch4_pool2_ch4_pool2_0_split <- ch4_pool2
I0201 21:41:13.285466  7708 net.cpp:408] ch4_pool2_ch4_pool2_0_split -> ch4_pool2_ch4_pool2_0_split_0
I0201 21:41:13.285471  7708 net.cpp:408] ch4_pool2_ch4_pool2_0_split -> ch4_pool2_ch4_pool2_0_split_1
I0201 21:41:13.285498  7708 net.cpp:150] Setting up ch4_pool2_ch4_pool2_0_split
I0201 21:41:13.285534  7708 net.cpp:157] Top shape: 4 1 192 192 (147456)
I0201 21:41:13.285538  7708 net.cpp:157] Top shape: 4 1 192 192 (147456)
I0201 21:41:13.285542  7708 net.cpp:165] Memory required for data: 4095078912
I0201 21:41:13.285545  7708 layer_factory.hpp:77] Creating layer pool2_concat
I0201 21:41:13.285552  7708 net.cpp:100] Creating Layer pool2_concat
I0201 21:41:13.285555  7708 net.cpp:434] pool2_concat <- pool2
I0201 21:41:13.285560  7708 net.cpp:434] pool2_concat <- ch4_pool2_ch4_pool2_0_split_0
I0201 21:41:13.285565  7708 net.cpp:408] pool2_concat -> pool2_new
I0201 21:41:13.285585  7708 net.cpp:150] Setting up pool2_concat
I0201 21:41:13.285615  7708 net.cpp:157] Top shape: 4 129 192 192 (19021824)
I0201 21:41:13.285619  7708 net.cpp:165] Memory required for data: 4171166208
I0201 21:41:13.285622  7708 layer_factory.hpp:77] Creating layer conv3_1_new
I0201 21:41:13.285631  7708 net.cpp:100] Creating Layer conv3_1_new
I0201 21:41:13.285634  7708 net.cpp:434] conv3_1_new <- pool2_new
I0201 21:41:13.285640  7708 net.cpp:408] conv3_1_new -> conv3_1
I0201 21:41:13.287950  7708 net.cpp:150] Setting up conv3_1_new
I0201 21:41:13.287971  7708 net.cpp:157] Top shape: 4 256 192 192 (37748736)
I0201 21:41:13.287973  7708 net.cpp:165] Memory required for data: 4322161152
I0201 21:41:13.287986  7708 layer_factory.hpp:77] Creating layer relu3_1
I0201 21:41:13.287995  7708 net.cpp:100] Creating Layer relu3_1
I0201 21:41:13.288000  7708 net.cpp:434] relu3_1 <- conv3_1
I0201 21:41:13.288007  7708 net.cpp:395] relu3_1 -> conv3_1 (in-place)
I0201 21:41:13.288451  7708 net.cpp:150] Setting up relu3_1
I0201 21:41:13.288463  7708 net.cpp:157] Top shape: 4 256 192 192 (37748736)
I0201 21:41:13.288466  7708 net.cpp:165] Memory required for data: 4473156096
I0201 21:41:13.288470  7708 layer_factory.hpp:77] Creating layer conv3_2
I0201 21:41:13.288480  7708 net.cpp:100] Creating Layer conv3_2
I0201 21:41:13.288483  7708 net.cpp:434] conv3_2 <- conv3_1
I0201 21:41:13.288491  7708 net.cpp:408] conv3_2 -> conv3_2
I0201 21:41:13.291093  7708 net.cpp:150] Setting up conv3_2
I0201 21:41:13.291118  7708 net.cpp:157] Top shape: 4 256 192 192 (37748736)
I0201 21:41:13.291123  7708 net.cpp:165] Memory required for data: 4624151040
I0201 21:41:13.291134  7708 layer_factory.hpp:77] Creating layer relu3_2
I0201 21:41:13.291144  7708 net.cpp:100] Creating Layer relu3_2
I0201 21:41:13.291151  7708 net.cpp:434] relu3_2 <- conv3_2
I0201 21:41:13.291157  7708 net.cpp:395] relu3_2 -> conv3_2 (in-place)
I0201 21:41:13.291744  7708 net.cpp:150] Setting up relu3_2
I0201 21:41:13.291757  7708 net.cpp:157] Top shape: 4 256 192 192 (37748736)
I0201 21:41:13.291761  7708 net.cpp:165] Memory required for data: 4775145984
I0201 21:41:13.291764  7708 layer_factory.hpp:77] Creating layer conv3_3
I0201 21:41:13.291774  7708 net.cpp:100] Creating Layer conv3_3
I0201 21:41:13.291777  7708 net.cpp:434] conv3_3 <- conv3_2
I0201 21:41:13.291784  7708 net.cpp:408] conv3_3 -> conv3_3
I0201 21:41:13.296658  7708 net.cpp:150] Setting up conv3_3
I0201 21:41:13.296686  7708 net.cpp:157] Top shape: 4 256 192 192 (37748736)
I0201 21:41:13.296691  7708 net.cpp:165] Memory required for data: 4926140928
I0201 21:41:13.296700  7708 layer_factory.hpp:77] Creating layer relu3_3
I0201 21:41:13.296715  7708 net.cpp:100] Creating Layer relu3_3
I0201 21:41:13.296720  7708 net.cpp:434] relu3_3 <- conv3_3
I0201 21:41:13.296725  7708 net.cpp:395] relu3_3 -> conv3_3 (in-place)
I0201 21:41:13.296888  7708 net.cpp:150] Setting up relu3_3
I0201 21:41:13.296897  7708 net.cpp:157] Top shape: 4 256 192 192 (37748736)
I0201 21:41:13.296900  7708 net.cpp:165] Memory required for data: 5077135872
I0201 21:41:13.296905  7708 layer_factory.hpp:77] Creating layer pool3
I0201 21:41:13.296912  7708 net.cpp:100] Creating Layer pool3
I0201 21:41:13.296916  7708 net.cpp:434] pool3 <- conv3_3
I0201 21:41:13.296923  7708 net.cpp:408] pool3 -> pool3
I0201 21:41:13.296959  7708 net.cpp:150] Setting up pool3
I0201 21:41:13.296965  7708 net.cpp:157] Top shape: 4 256 96 96 (9437184)
I0201 21:41:13.296968  7708 net.cpp:165] Memory required for data: 5114884608
I0201 21:41:13.296972  7708 layer_factory.hpp:77] Creating layer ch4_pool3
I0201 21:41:13.296983  7708 net.cpp:100] Creating Layer ch4_pool3
I0201 21:41:13.296988  7708 net.cpp:434] ch4_pool3 <- ch4_pool2_ch4_pool2_0_split_1
I0201 21:41:13.296993  7708 net.cpp:408] ch4_pool3 -> ch4_pool3
I0201 21:41:13.297024  7708 net.cpp:150] Setting up ch4_pool3
I0201 21:41:13.297029  7708 net.cpp:157] Top shape: 4 1 96 96 (36864)
I0201 21:41:13.297032  7708 net.cpp:165] Memory required for data: 5115032064
I0201 21:41:13.297035  7708 layer_factory.hpp:77] Creating layer ch4_pool3_ch4_pool3_0_split
I0201 21:41:13.297041  7708 net.cpp:100] Creating Layer ch4_pool3_ch4_pool3_0_split
I0201 21:41:13.297045  7708 net.cpp:434] ch4_pool3_ch4_pool3_0_split <- ch4_pool3
I0201 21:41:13.297049  7708 net.cpp:408] ch4_pool3_ch4_pool3_0_split -> ch4_pool3_ch4_pool3_0_split_0
I0201 21:41:13.297055  7708 net.cpp:408] ch4_pool3_ch4_pool3_0_split -> ch4_pool3_ch4_pool3_0_split_1
I0201 21:41:13.297086  7708 net.cpp:150] Setting up ch4_pool3_ch4_pool3_0_split
I0201 21:41:13.297092  7708 net.cpp:157] Top shape: 4 1 96 96 (36864)
I0201 21:41:13.297096  7708 net.cpp:157] Top shape: 4 1 96 96 (36864)
I0201 21:41:13.297099  7708 net.cpp:165] Memory required for data: 5115326976
I0201 21:41:13.297102  7708 layer_factory.hpp:77] Creating layer pool3_concat
I0201 21:41:13.297108  7708 net.cpp:100] Creating Layer pool3_concat
I0201 21:41:13.297112  7708 net.cpp:434] pool3_concat <- pool3
I0201 21:41:13.297117  7708 net.cpp:434] pool3_concat <- ch4_pool3_ch4_pool3_0_split_0
I0201 21:41:13.297122  7708 net.cpp:408] pool3_concat -> pool3_new
I0201 21:41:13.297140  7708 net.cpp:150] Setting up pool3_concat
I0201 21:41:13.297147  7708 net.cpp:157] Top shape: 4 257 96 96 (9474048)
I0201 21:41:13.297149  7708 net.cpp:165] Memory required for data: 5153223168
I0201 21:41:13.297152  7708 layer_factory.hpp:77] Creating layer conv4_1_new
I0201 21:41:13.297161  7708 net.cpp:100] Creating Layer conv4_1_new
I0201 21:41:13.297165  7708 net.cpp:434] conv4_1_new <- pool3_new
I0201 21:41:13.297169  7708 net.cpp:408] conv4_1_new -> conv4_1
I0201 21:41:13.301419  7708 net.cpp:150] Setting up conv4_1_new
I0201 21:41:13.301460  7708 net.cpp:157] Top shape: 4 512 96 96 (18874368)
I0201 21:41:13.301465  7708 net.cpp:165] Memory required for data: 5228720640
I0201 21:41:13.301476  7708 layer_factory.hpp:77] Creating layer relu4_1
I0201 21:41:13.301491  7708 net.cpp:100] Creating Layer relu4_1
I0201 21:41:13.301496  7708 net.cpp:434] relu4_1 <- conv4_1
I0201 21:41:13.301533  7708 net.cpp:395] relu4_1 -> conv4_1 (in-place)
I0201 21:41:13.301730  7708 net.cpp:150] Setting up relu4_1
I0201 21:41:13.301740  7708 net.cpp:157] Top shape: 4 512 96 96 (18874368)
I0201 21:41:13.301744  7708 net.cpp:165] Memory required for data: 5304218112
I0201 21:41:13.301748  7708 layer_factory.hpp:77] Creating layer conv4_2
I0201 21:41:13.301759  7708 net.cpp:100] Creating Layer conv4_2
I0201 21:41:13.301764  7708 net.cpp:434] conv4_2 <- conv4_1
I0201 21:41:13.301772  7708 net.cpp:408] conv4_2 -> conv4_2
I0201 21:41:13.307847  7708 net.cpp:150] Setting up conv4_2
I0201 21:41:13.307878  7708 net.cpp:157] Top shape: 4 512 96 96 (18874368)
I0201 21:41:13.307883  7708 net.cpp:165] Memory required for data: 5379715584
I0201 21:41:13.307898  7708 layer_factory.hpp:77] Creating layer relu4_2
I0201 21:41:13.307909  7708 net.cpp:100] Creating Layer relu4_2
I0201 21:41:13.307914  7708 net.cpp:434] relu4_2 <- conv4_2
I0201 21:41:13.307924  7708 net.cpp:395] relu4_2 -> conv4_2 (in-place)
I0201 21:41:13.308115  7708 net.cpp:150] Setting up relu4_2
I0201 21:41:13.308125  7708 net.cpp:157] Top shape: 4 512 96 96 (18874368)
I0201 21:41:13.308128  7708 net.cpp:165] Memory required for data: 5455213056
I0201 21:41:13.308132  7708 layer_factory.hpp:77] Creating layer conv4_3
I0201 21:41:13.308145  7708 net.cpp:100] Creating Layer conv4_3
I0201 21:41:13.308148  7708 net.cpp:434] conv4_3 <- conv4_2
I0201 21:41:13.308156  7708 net.cpp:408] conv4_3 -> conv4_3
I0201 21:41:13.314172  7708 net.cpp:150] Setting up conv4_3
I0201 21:41:13.314203  7708 net.cpp:157] Top shape: 4 512 96 96 (18874368)
I0201 21:41:13.314208  7708 net.cpp:165] Memory required for data: 5530710528
I0201 21:41:13.314218  7708 layer_factory.hpp:77] Creating layer relu4_3
I0201 21:41:13.314232  7708 net.cpp:100] Creating Layer relu4_3
I0201 21:41:13.314239  7708 net.cpp:434] relu4_3 <- conv4_3
I0201 21:41:13.314247  7708 net.cpp:395] relu4_3 -> conv4_3 (in-place)
I0201 21:41:13.314445  7708 net.cpp:150] Setting up relu4_3
I0201 21:41:13.314455  7708 net.cpp:157] Top shape: 4 512 96 96 (18874368)
I0201 21:41:13.314460  7708 net.cpp:165] Memory required for data: 5606208000
I0201 21:41:13.314463  7708 layer_factory.hpp:77] Creating layer conv4_3_relu4_3_0_split
I0201 21:41:13.314471  7708 net.cpp:100] Creating Layer conv4_3_relu4_3_0_split
I0201 21:41:13.314474  7708 net.cpp:434] conv4_3_relu4_3_0_split <- conv4_3
I0201 21:41:13.314481  7708 net.cpp:408] conv4_3_relu4_3_0_split -> conv4_3_relu4_3_0_split_0
I0201 21:41:13.314491  7708 net.cpp:408] conv4_3_relu4_3_0_split -> conv4_3_relu4_3_0_split_1
I0201 21:41:13.314532  7708 net.cpp:150] Setting up conv4_3_relu4_3_0_split
I0201 21:41:13.314538  7708 net.cpp:157] Top shape: 4 512 96 96 (18874368)
I0201 21:41:13.314543  7708 net.cpp:157] Top shape: 4 512 96 96 (18874368)
I0201 21:41:13.314545  7708 net.cpp:165] Memory required for data: 5757202944
I0201 21:41:13.314549  7708 layer_factory.hpp:77] Creating layer loss1_conv1
I0201 21:41:13.314565  7708 net.cpp:100] Creating Layer loss1_conv1
I0201 21:41:13.314571  7708 net.cpp:434] loss1_conv1 <- conv4_3_relu4_3_0_split_0
I0201 21:41:13.314579  7708 net.cpp:408] loss1_conv1 -> loss1_conv1
I0201 21:41:13.383586  7708 net.cpp:150] Setting up loss1_conv1
I0201 21:41:13.383615  7708 net.cpp:157] Top shape: 4 512 96 96 (18874368)
I0201 21:41:13.383620  7708 net.cpp:165] Memory required for data: 5832700416
I0201 21:41:13.383628  7708 layer_factory.hpp:77] Creating layer loss_relu1
I0201 21:41:13.383639  7708 net.cpp:100] Creating Layer loss_relu1
I0201 21:41:13.383644  7708 net.cpp:434] loss_relu1 <- loss1_conv1
I0201 21:41:13.383652  7708 net.cpp:395] loss_relu1 -> loss1_conv1 (in-place)
I0201 21:41:13.384112  7708 net.cpp:150] Setting up loss_relu1
I0201 21:41:13.384124  7708 net.cpp:157] Top shape: 4 512 96 96 (18874368)
I0201 21:41:13.384127  7708 net.cpp:165] Memory required for data: 5908197888
I0201 21:41:13.384131  7708 layer_factory.hpp:77] Creating layer loss1_conv1_loss_relu1_0_split
I0201 21:41:13.384137  7708 net.cpp:100] Creating Layer loss1_conv1_loss_relu1_0_split
I0201 21:41:13.384141  7708 net.cpp:434] loss1_conv1_loss_relu1_0_split <- loss1_conv1
I0201 21:41:13.384147  7708 net.cpp:408] loss1_conv1_loss_relu1_0_split -> loss1_conv1_loss_relu1_0_split_0
I0201 21:41:13.384155  7708 net.cpp:408] loss1_conv1_loss_relu1_0_split -> loss1_conv1_loss_relu1_0_split_1
I0201 21:41:13.384188  7708 net.cpp:150] Setting up loss1_conv1_loss_relu1_0_split
I0201 21:41:13.384193  7708 net.cpp:157] Top shape: 4 512 96 96 (18874368)
I0201 21:41:13.384197  7708 net.cpp:157] Top shape: 4 512 96 96 (18874368)
I0201 21:41:13.384201  7708 net.cpp:165] Memory required for data: 6059192832
I0201 21:41:13.384203  7708 layer_factory.hpp:77] Creating layer LFCN_1_5x5
I0201 21:41:13.384214  7708 net.cpp:100] Creating Layer LFCN_1_5x5
I0201 21:41:13.384217  7708 net.cpp:434] LFCN_1_5x5 <- loss1_conv1_loss_relu1_0_split_0
I0201 21:41:13.384223  7708 net.cpp:408] LFCN_1_5x5 -> LFCN_1_5x5
I0201 21:41:13.388121  7708 net.cpp:150] Setting up LFCN_1_5x5
I0201 21:41:13.388134  7708 net.cpp:157] Top shape: 4 9 96 96 (331776)
I0201 21:41:13.388137  7708 net.cpp:165] Memory required for data: 6060519936
I0201 21:41:13.388144  7708 layer_factory.hpp:77] Creating layer LFCN_1_5x5_LFCN_1_5x5_0_split
I0201 21:41:13.388147  7708 net.cpp:100] Creating Layer LFCN_1_5x5_LFCN_1_5x5_0_split
I0201 21:41:13.388150  7708 net.cpp:434] LFCN_1_5x5_LFCN_1_5x5_0_split <- LFCN_1_5x5
I0201 21:41:13.388155  7708 net.cpp:408] LFCN_1_5x5_LFCN_1_5x5_0_split -> LFCN_1_5x5_LFCN_1_5x5_0_split_0
I0201 21:41:13.388160  7708 net.cpp:408] LFCN_1_5x5_LFCN_1_5x5_0_split -> LFCN_1_5x5_LFCN_1_5x5_0_split_1
I0201 21:41:13.388192  7708 net.cpp:150] Setting up LFCN_1_5x5_LFCN_1_5x5_0_split
I0201 21:41:13.388198  7708 net.cpp:157] Top shape: 4 9 96 96 (331776)
I0201 21:41:13.388201  7708 net.cpp:157] Top shape: 4 9 96 96 (331776)
I0201 21:41:13.388204  7708 net.cpp:165] Memory required for data: 6063174144
I0201 21:41:13.388207  7708 layer_factory.hpp:77] Creating layer detection_loss_1_5x5
I0201 21:41:13.388214  7708 net.cpp:100] Creating Layer detection_loss_1_5x5
I0201 21:41:13.388218  7708 net.cpp:434] detection_loss_1_5x5 <- LFCN_1_5x5_LFCN_1_5x5_0_split_0
I0201 21:41:13.388222  7708 net.cpp:434] detection_loss_1_5x5 <- label_1_5x5_data_1_split_0
I0201 21:41:13.388226  7708 net.cpp:408] detection_loss_1_5x5 -> loss_1_5x5
I0201 21:41:13.388240  7708 layer_factory.hpp:77] Creating layer detection_loss_1_5x5
I0201 21:41:13.389778  7708 net.cpp:150] Setting up detection_loss_1_5x5
I0201 21:41:13.389792  7708 net.cpp:157] Top shape: 1 1 1 2 (2)
I0201 21:41:13.389796  7708 net.cpp:160]     with loss weight 0.9
I0201 21:41:13.389814  7708 net.cpp:165] Memory required for data: 6063174152
I0201 21:41:13.389818  7708 layer_factory.hpp:77] Creating layer detection_accuracy_1_5x5
I0201 21:41:13.389825  7708 net.cpp:100] Creating Layer detection_accuracy_1_5x5
I0201 21:41:13.389829  7708 net.cpp:434] detection_accuracy_1_5x5 <- LFCN_1_5x5_LFCN_1_5x5_0_split_1
I0201 21:41:13.389834  7708 net.cpp:434] detection_accuracy_1_5x5 <- label_1_5x5_data_1_split_1
I0201 21:41:13.389842  7708 net.cpp:408] detection_accuracy_1_5x5 -> accuracy_1_5x5
I0201 21:41:13.389850  7708 net.cpp:408] detection_accuracy_1_5x5 -> boxiou_1_5x5
I0201 21:41:13.389889  7708 net.cpp:150] Setting up detection_accuracy_1_5x5
I0201 21:41:13.389894  7708 net.cpp:157] Top shape: 1 1 1 2 (2)
I0201 21:41:13.389899  7708 net.cpp:157] Top shape: 1 1 1 1 (1)
I0201 21:41:13.389901  7708 net.cpp:165] Memory required for data: 6063174164
I0201 21:41:13.389904  7708 layer_factory.hpp:77] Creating layer LFCN_1_7x7
I0201 21:41:13.389914  7708 net.cpp:100] Creating Layer LFCN_1_7x7
I0201 21:41:13.389919  7708 net.cpp:434] LFCN_1_7x7 <- loss1_conv1_loss_relu1_0_split_1
I0201 21:41:13.389925  7708 net.cpp:408] LFCN_1_7x7 -> LFCN_1_7x7
I0201 21:41:13.396497  7708 net.cpp:150] Setting up LFCN_1_7x7
I0201 21:41:13.396510  7708 net.cpp:157] Top shape: 4 9 96 96 (331776)
I0201 21:41:13.396514  7708 net.cpp:165] Memory required for data: 6064501268
I0201 21:41:13.396520  7708 layer_factory.hpp:77] Creating layer LFCN_1_7x7_LFCN_1_7x7_0_split
I0201 21:41:13.396528  7708 net.cpp:100] Creating Layer LFCN_1_7x7_LFCN_1_7x7_0_split
I0201 21:41:13.396531  7708 net.cpp:434] LFCN_1_7x7_LFCN_1_7x7_0_split <- LFCN_1_7x7
I0201 21:41:13.396538  7708 net.cpp:408] LFCN_1_7x7_LFCN_1_7x7_0_split -> LFCN_1_7x7_LFCN_1_7x7_0_split_0
I0201 21:41:13.396544  7708 net.cpp:408] LFCN_1_7x7_LFCN_1_7x7_0_split -> LFCN_1_7x7_LFCN_1_7x7_0_split_1
I0201 21:41:13.396577  7708 net.cpp:150] Setting up LFCN_1_7x7_LFCN_1_7x7_0_split
I0201 21:41:13.396582  7708 net.cpp:157] Top shape: 4 9 96 96 (331776)
I0201 21:41:13.396586  7708 net.cpp:157] Top shape: 4 9 96 96 (331776)
I0201 21:41:13.396589  7708 net.cpp:165] Memory required for data: 6067155476
I0201 21:41:13.396592  7708 layer_factory.hpp:77] Creating layer detection_loss_1_7x7
I0201 21:41:13.396600  7708 net.cpp:100] Creating Layer detection_loss_1_7x7
I0201 21:41:13.396602  7708 net.cpp:434] detection_loss_1_7x7 <- LFCN_1_7x7_LFCN_1_7x7_0_split_0
I0201 21:41:13.396607  7708 net.cpp:434] detection_loss_1_7x7 <- label_1_7x7_data_2_split_0
I0201 21:41:13.396611  7708 net.cpp:408] detection_loss_1_7x7 -> loss_1_7x7
I0201 21:41:13.396618  7708 layer_factory.hpp:77] Creating layer detection_loss_1_7x7
I0201 21:41:13.398418  7708 net.cpp:150] Setting up detection_loss_1_7x7
I0201 21:41:13.398448  7708 net.cpp:157] Top shape: 1 1 1 2 (2)
I0201 21:41:13.398453  7708 net.cpp:160]     with loss weight 0.9
I0201 21:41:13.398464  7708 net.cpp:165] Memory required for data: 6067155484
I0201 21:41:13.398470  7708 layer_factory.hpp:77] Creating layer detection_accuracy_1_7x7
I0201 21:41:13.398484  7708 net.cpp:100] Creating Layer detection_accuracy_1_7x7
I0201 21:41:13.398490  7708 net.cpp:434] detection_accuracy_1_7x7 <- LFCN_1_7x7_LFCN_1_7x7_0_split_1
I0201 21:41:13.398497  7708 net.cpp:434] detection_accuracy_1_7x7 <- label_1_7x7_data_2_split_1
I0201 21:41:13.398504  7708 net.cpp:408] detection_accuracy_1_7x7 -> accuracy_1_7x7
I0201 21:41:13.398519  7708 net.cpp:408] detection_accuracy_1_7x7 -> boxiou_1_7x7
I0201 21:41:13.398561  7708 net.cpp:150] Setting up detection_accuracy_1_7x7
I0201 21:41:13.398568  7708 net.cpp:157] Top shape: 1 1 1 2 (2)
I0201 21:41:13.398573  7708 net.cpp:157] Top shape: 1 1 1 1 (1)
I0201 21:41:13.398576  7708 net.cpp:165] Memory required for data: 6067155496
I0201 21:41:13.398581  7708 layer_factory.hpp:77] Creating layer pool4
I0201 21:41:13.398586  7708 net.cpp:100] Creating Layer pool4
I0201 21:41:13.398591  7708 net.cpp:434] pool4 <- conv4_3_relu4_3_0_split_1
I0201 21:41:13.398597  7708 net.cpp:408] pool4 -> pool4
I0201 21:41:13.398633  7708 net.cpp:150] Setting up pool4
I0201 21:41:13.398639  7708 net.cpp:157] Top shape: 4 512 48 48 (4718592)
I0201 21:41:13.398643  7708 net.cpp:165] Memory required for data: 6086029864
I0201 21:41:13.398648  7708 layer_factory.hpp:77] Creating layer ch4_pool4
I0201 21:41:13.398653  7708 net.cpp:100] Creating Layer ch4_pool4
I0201 21:41:13.398658  7708 net.cpp:434] ch4_pool4 <- ch4_pool3_ch4_pool3_0_split_1
I0201 21:41:13.398663  7708 net.cpp:408] ch4_pool4 -> ch4_pool4
I0201 21:41:13.398694  7708 net.cpp:150] Setting up ch4_pool4
I0201 21:41:13.398701  7708 net.cpp:157] Top shape: 4 1 48 48 (9216)
I0201 21:41:13.398705  7708 net.cpp:165] Memory required for data: 6086066728
I0201 21:41:13.398707  7708 layer_factory.hpp:77] Creating layer ch4_pool4_ch4_pool4_0_split
I0201 21:41:13.398713  7708 net.cpp:100] Creating Layer ch4_pool4_ch4_pool4_0_split
I0201 21:41:13.398716  7708 net.cpp:434] ch4_pool4_ch4_pool4_0_split <- ch4_pool4
I0201 21:41:13.398721  7708 net.cpp:408] ch4_pool4_ch4_pool4_0_split -> ch4_pool4_ch4_pool4_0_split_0
I0201 21:41:13.398726  7708 net.cpp:408] ch4_pool4_ch4_pool4_0_split -> ch4_pool4_ch4_pool4_0_split_1
I0201 21:41:13.398757  7708 net.cpp:150] Setting up ch4_pool4_ch4_pool4_0_split
I0201 21:41:13.398764  7708 net.cpp:157] Top shape: 4 1 48 48 (9216)
I0201 21:41:13.398768  7708 net.cpp:157] Top shape: 4 1 48 48 (9216)
I0201 21:41:13.398772  7708 net.cpp:165] Memory required for data: 6086140456
I0201 21:41:13.398775  7708 layer_factory.hpp:77] Creating layer pool4_concat
I0201 21:41:13.398780  7708 net.cpp:100] Creating Layer pool4_concat
I0201 21:41:13.398783  7708 net.cpp:434] pool4_concat <- pool4
I0201 21:41:13.398787  7708 net.cpp:434] pool4_concat <- ch4_pool4_ch4_pool4_0_split_0
I0201 21:41:13.398793  7708 net.cpp:408] pool4_concat -> pool4_new
I0201 21:41:13.398813  7708 net.cpp:150] Setting up pool4_concat
I0201 21:41:13.398818  7708 net.cpp:157] Top shape: 4 513 48 48 (4727808)
I0201 21:41:13.398820  7708 net.cpp:165] Memory required for data: 6105051688
I0201 21:41:13.398823  7708 layer_factory.hpp:77] Creating layer conv5_1_new
I0201 21:41:13.398830  7708 net.cpp:100] Creating Layer conv5_1_new
I0201 21:41:13.398834  7708 net.cpp:434] conv5_1_new <- pool4_new
I0201 21:41:13.398840  7708 net.cpp:408] conv5_1_new -> conv5_1
I0201 21:41:13.406638  7708 net.cpp:150] Setting up conv5_1_new
I0201 21:41:13.406782  7708 net.cpp:157] Top shape: 4 512 48 48 (4718592)
I0201 21:41:13.406791  7708 net.cpp:165] Memory required for data: 6123926056
I0201 21:41:13.406819  7708 layer_factory.hpp:77] Creating layer relu5_1
I0201 21:41:13.406867  7708 net.cpp:100] Creating Layer relu5_1
I0201 21:41:13.406888  7708 net.cpp:434] relu5_1 <- conv5_1
I0201 21:41:13.406898  7708 net.cpp:395] relu5_1 -> conv5_1 (in-place)
I0201 21:41:13.407126  7708 net.cpp:150] Setting up relu5_1
I0201 21:41:13.407133  7708 net.cpp:157] Top shape: 4 512 48 48 (4718592)
I0201 21:41:13.407137  7708 net.cpp:165] Memory required for data: 6142800424
I0201 21:41:13.407141  7708 layer_factory.hpp:77] Creating layer conv5_2
I0201 21:41:13.407155  7708 net.cpp:100] Creating Layer conv5_2
I0201 21:41:13.407158  7708 net.cpp:434] conv5_2 <- conv5_1
I0201 21:41:13.407166  7708 net.cpp:408] conv5_2 -> conv5_2
I0201 21:41:13.418954  7708 net.cpp:150] Setting up conv5_2
I0201 21:41:13.419024  7708 net.cpp:157] Top shape: 4 512 48 48 (4718592)
I0201 21:41:13.419035  7708 net.cpp:165] Memory required for data: 6161674792
I0201 21:41:13.419056  7708 layer_factory.hpp:77] Creating layer relu5_2
I0201 21:41:13.419080  7708 net.cpp:100] Creating Layer relu5_2
I0201 21:41:13.419096  7708 net.cpp:434] relu5_2 <- conv5_2
I0201 21:41:13.419113  7708 net.cpp:395] relu5_2 -> conv5_2 (in-place)
I0201 21:41:13.419682  7708 net.cpp:150] Setting up relu5_2
I0201 21:41:13.419823  7708 net.cpp:157] Top shape: 4 512 48 48 (4718592)
I0201 21:41:13.419858  7708 net.cpp:165] Memory required for data: 6180549160
I0201 21:41:13.419883  7708 layer_factory.hpp:77] Creating layer conv5_3
I0201 21:41:13.419963  7708 net.cpp:100] Creating Layer conv5_3
I0201 21:41:13.419987  7708 net.cpp:434] conv5_3 <- conv5_2
I0201 21:41:13.420018  7708 net.cpp:408] conv5_3 -> conv5_3
I0201 21:41:13.432083  7708 net.cpp:150] Setting up conv5_3
I0201 21:41:13.432118  7708 net.cpp:157] Top shape: 4 512 48 48 (4718592)
I0201 21:41:13.432124  7708 net.cpp:165] Memory required for data: 6199423528
I0201 21:41:13.432137  7708 layer_factory.hpp:77] Creating layer relu5_3
I0201 21:41:13.432153  7708 net.cpp:100] Creating Layer relu5_3
I0201 21:41:13.432162  7708 net.cpp:434] relu5_3 <- conv5_3
I0201 21:41:13.432168  7708 net.cpp:395] relu5_3 -> conv5_3 (in-place)
I0201 21:41:13.432400  7708 net.cpp:150] Setting up relu5_3
I0201 21:41:13.432415  7708 net.cpp:157] Top shape: 4 512 48 48 (4718592)
I0201 21:41:13.432420  7708 net.cpp:165] Memory required for data: 6218297896
I0201 21:41:13.432425  7708 layer_factory.hpp:77] Creating layer conv5_3_relu5_3_0_split
I0201 21:41:13.432433  7708 net.cpp:100] Creating Layer conv5_3_relu5_3_0_split
I0201 21:41:13.432438  7708 net.cpp:434] conv5_3_relu5_3_0_split <- conv5_3
I0201 21:41:13.432446  7708 net.cpp:408] conv5_3_relu5_3_0_split -> conv5_3_relu5_3_0_split_0
I0201 21:41:13.432454  7708 net.cpp:408] conv5_3_relu5_3_0_split -> conv5_3_relu5_3_0_split_1
I0201 21:41:13.432464  7708 net.cpp:408] conv5_3_relu5_3_0_split -> conv5_3_relu5_3_0_split_2
I0201 21:41:13.432535  7708 net.cpp:150] Setting up conv5_3_relu5_3_0_split
I0201 21:41:13.432544  7708 net.cpp:157] Top shape: 4 512 48 48 (4718592)
I0201 21:41:13.432551  7708 net.cpp:157] Top shape: 4 512 48 48 (4718592)
I0201 21:41:13.432557  7708 net.cpp:157] Top shape: 4 512 48 48 (4718592)
I0201 21:41:13.432561  7708 net.cpp:165] Memory required for data: 6274921000
I0201 21:41:13.432566  7708 layer_factory.hpp:77] Creating layer LFCN_2_5x5
I0201 21:41:13.432588  7708 net.cpp:100] Creating Layer LFCN_2_5x5
I0201 21:41:13.432595  7708 net.cpp:434] LFCN_2_5x5 <- conv5_3_relu5_3_0_split_0
I0201 21:41:13.432606  7708 net.cpp:408] LFCN_2_5x5 -> LFCN_2_5x5
I0201 21:41:13.437196  7708 net.cpp:150] Setting up LFCN_2_5x5
I0201 21:41:13.437211  7708 net.cpp:157] Top shape: 4 9 48 48 (82944)
I0201 21:41:13.437214  7708 net.cpp:165] Memory required for data: 6275252776
I0201 21:41:13.437227  7708 layer_factory.hpp:77] Creating layer LFCN_2_5x5_LFCN_2_5x5_0_split
I0201 21:41:13.437232  7708 net.cpp:100] Creating Layer LFCN_2_5x5_LFCN_2_5x5_0_split
I0201 21:41:13.437237  7708 net.cpp:434] LFCN_2_5x5_LFCN_2_5x5_0_split <- LFCN_2_5x5
I0201 21:41:13.437242  7708 net.cpp:408] LFCN_2_5x5_LFCN_2_5x5_0_split -> LFCN_2_5x5_LFCN_2_5x5_0_split_0
I0201 21:41:13.437247  7708 net.cpp:408] LFCN_2_5x5_LFCN_2_5x5_0_split -> LFCN_2_5x5_LFCN_2_5x5_0_split_1
I0201 21:41:13.437281  7708 net.cpp:150] Setting up LFCN_2_5x5_LFCN_2_5x5_0_split
I0201 21:41:13.437286  7708 net.cpp:157] Top shape: 4 9 48 48 (82944)
I0201 21:41:13.437290  7708 net.cpp:157] Top shape: 4 9 48 48 (82944)
I0201 21:41:13.437294  7708 net.cpp:165] Memory required for data: 6275916328
I0201 21:41:13.437296  7708 layer_factory.hpp:77] Creating layer detection_loss_2_5x5
I0201 21:41:13.437304  7708 net.cpp:100] Creating Layer detection_loss_2_5x5
I0201 21:41:13.437307  7708 net.cpp:434] detection_loss_2_5x5 <- LFCN_2_5x5_LFCN_2_5x5_0_split_0
I0201 21:41:13.437312  7708 net.cpp:434] detection_loss_2_5x5 <- label_2_5x5_data_3_split_0
I0201 21:41:13.437319  7708 net.cpp:408] detection_loss_2_5x5 -> loss_2_5x5
I0201 21:41:13.437327  7708 layer_factory.hpp:77] Creating layer detection_loss_2_5x5
I0201 21:41:13.438757  7708 net.cpp:150] Setting up detection_loss_2_5x5
I0201 21:41:13.438771  7708 net.cpp:157] Top shape: 1 1 1 2 (2)
I0201 21:41:13.438774  7708 net.cpp:160]     with loss weight 1
I0201 21:41:13.438786  7708 net.cpp:165] Memory required for data: 6275916336
I0201 21:41:13.438788  7708 layer_factory.hpp:77] Creating layer detection_accuracy_2_5x5
I0201 21:41:13.438797  7708 net.cpp:100] Creating Layer detection_accuracy_2_5x5
I0201 21:41:13.438802  7708 net.cpp:434] detection_accuracy_2_5x5 <- LFCN_2_5x5_LFCN_2_5x5_0_split_1
I0201 21:41:13.438807  7708 net.cpp:434] detection_accuracy_2_5x5 <- label_2_5x5_data_3_split_1
I0201 21:41:13.438812  7708 net.cpp:408] detection_accuracy_2_5x5 -> accuracy_2_5x5
I0201 21:41:13.438818  7708 net.cpp:408] detection_accuracy_2_5x5 -> boxiou_2_5x5
I0201 21:41:13.438856  7708 net.cpp:150] Setting up detection_accuracy_2_5x5
I0201 21:41:13.438863  7708 net.cpp:157] Top shape: 1 1 1 2 (2)
I0201 21:41:13.438868  7708 net.cpp:157] Top shape: 1 1 1 1 (1)
I0201 21:41:13.438870  7708 net.cpp:165] Memory required for data: 6275916348
I0201 21:41:13.438874  7708 layer_factory.hpp:77] Creating layer LFCN_2_7x7
I0201 21:41:13.438884  7708 net.cpp:100] Creating Layer LFCN_2_7x7
I0201 21:41:13.438887  7708 net.cpp:434] LFCN_2_7x7 <- conv5_3_relu5_3_0_split_1
I0201 21:41:13.438894  7708 net.cpp:408] LFCN_2_7x7 -> LFCN_2_7x7
I0201 21:41:13.445379  7708 net.cpp:150] Setting up LFCN_2_7x7
I0201 21:41:13.445392  7708 net.cpp:157] Top shape: 4 9 48 48 (82944)
I0201 21:41:13.445395  7708 net.cpp:165] Memory required for data: 6276248124
I0201 21:41:13.445401  7708 layer_factory.hpp:77] Creating layer LFCN_2_7x7_LFCN_2_7x7_0_split
I0201 21:41:13.445407  7708 net.cpp:100] Creating Layer LFCN_2_7x7_LFCN_2_7x7_0_split
I0201 21:41:13.445410  7708 net.cpp:434] LFCN_2_7x7_LFCN_2_7x7_0_split <- LFCN_2_7x7
I0201 21:41:13.445416  7708 net.cpp:408] LFCN_2_7x7_LFCN_2_7x7_0_split -> LFCN_2_7x7_LFCN_2_7x7_0_split_0
I0201 21:41:13.445421  7708 net.cpp:408] LFCN_2_7x7_LFCN_2_7x7_0_split -> LFCN_2_7x7_LFCN_2_7x7_0_split_1
I0201 21:41:13.445451  7708 net.cpp:150] Setting up LFCN_2_7x7_LFCN_2_7x7_0_split
I0201 21:41:13.445456  7708 net.cpp:157] Top shape: 4 9 48 48 (82944)
I0201 21:41:13.445459  7708 net.cpp:157] Top shape: 4 9 48 48 (82944)
I0201 21:41:13.445462  7708 net.cpp:165] Memory required for data: 6276911676
I0201 21:41:13.445464  7708 layer_factory.hpp:77] Creating layer detection_loss_2_7x7
I0201 21:41:13.445469  7708 net.cpp:100] Creating Layer detection_loss_2_7x7
I0201 21:41:13.445472  7708 net.cpp:434] detection_loss_2_7x7 <- LFCN_2_7x7_LFCN_2_7x7_0_split_0
I0201 21:41:13.445477  7708 net.cpp:434] detection_loss_2_7x7 <- label_2_7x7_data_4_split_0
I0201 21:41:13.445482  7708 net.cpp:408] detection_loss_2_7x7 -> loss_2_7x7
I0201 21:41:13.445489  7708 layer_factory.hpp:77] Creating layer detection_loss_2_7x7
I0201 21:41:13.446133  7708 net.cpp:150] Setting up detection_loss_2_7x7
I0201 21:41:13.446146  7708 net.cpp:157] Top shape: 1 1 1 2 (2)
I0201 21:41:13.446149  7708 net.cpp:160]     with loss weight 1
I0201 21:41:13.446156  7708 net.cpp:165] Memory required for data: 6276911684
I0201 21:41:13.446159  7708 layer_factory.hpp:77] Creating layer detection_accuracy_2_7x7
I0201 21:41:13.446166  7708 net.cpp:100] Creating Layer detection_accuracy_2_7x7
I0201 21:41:13.446171  7708 net.cpp:434] detection_accuracy_2_7x7 <- LFCN_2_7x7_LFCN_2_7x7_0_split_1
I0201 21:41:13.446175  7708 net.cpp:434] detection_accuracy_2_7x7 <- label_2_7x7_data_4_split_1
I0201 21:41:13.446180  7708 net.cpp:408] detection_accuracy_2_7x7 -> accuracy_2_7x7
I0201 21:41:13.446187  7708 net.cpp:408] detection_accuracy_2_7x7 -> boxiou_2_7x7
I0201 21:41:13.446223  7708 net.cpp:150] Setting up detection_accuracy_2_7x7
I0201 21:41:13.446228  7708 net.cpp:157] Top shape: 1 1 1 2 (2)
I0201 21:41:13.446233  7708 net.cpp:157] Top shape: 1 1 1 1 (1)
I0201 21:41:13.446236  7708 net.cpp:165] Memory required for data: 6276911696
I0201 21:41:13.446239  7708 layer_factory.hpp:77] Creating layer pool5
I0201 21:41:13.446245  7708 net.cpp:100] Creating Layer pool5
I0201 21:41:13.446249  7708 net.cpp:434] pool5 <- conv5_3_relu5_3_0_split_2
I0201 21:41:13.446256  7708 net.cpp:408] pool5 -> pool5
I0201 21:41:13.446290  7708 net.cpp:150] Setting up pool5
I0201 21:41:13.446297  7708 net.cpp:157] Top shape: 4 512 24 24 (1179648)
I0201 21:41:13.446301  7708 net.cpp:165] Memory required for data: 6281630288
I0201 21:41:13.446305  7708 layer_factory.hpp:77] Creating layer ch4_pool5
I0201 21:41:13.446308  7708 net.cpp:100] Creating Layer ch4_pool5
I0201 21:41:13.446312  7708 net.cpp:434] ch4_pool5 <- ch4_pool4_ch4_pool4_0_split_1
I0201 21:41:13.446318  7708 net.cpp:408] ch4_pool5 -> ch4_pool5
I0201 21:41:13.446349  7708 net.cpp:150] Setting up ch4_pool5
I0201 21:41:13.446357  7708 net.cpp:157] Top shape: 4 1 24 24 (2304)
I0201 21:41:13.446359  7708 net.cpp:165] Memory required for data: 6281639504
I0201 21:41:13.446362  7708 layer_factory.hpp:77] Creating layer pool5_concat
I0201 21:41:13.446367  7708 net.cpp:100] Creating Layer pool5_concat
I0201 21:41:13.446370  7708 net.cpp:434] pool5_concat <- pool5
I0201 21:41:13.446375  7708 net.cpp:434] pool5_concat <- ch4_pool5
I0201 21:41:13.446379  7708 net.cpp:408] pool5_concat -> pool5_new
I0201 21:41:13.446399  7708 net.cpp:150] Setting up pool5_concat
I0201 21:41:13.446405  7708 net.cpp:157] Top shape: 4 513 24 24 (1181952)
I0201 21:41:13.446408  7708 net.cpp:165] Memory required for data: 6286367312
I0201 21:41:13.446411  7708 layer_factory.hpp:77] Creating layer conv6_1_new
I0201 21:41:13.446419  7708 net.cpp:100] Creating Layer conv6_1_new
I0201 21:41:13.446424  7708 net.cpp:434] conv6_1_new <- pool5_new
I0201 21:41:13.446429  7708 net.cpp:408] conv6_1_new -> conv6_1
I0201 21:41:13.511015  7708 net.cpp:150] Setting up conv6_1_new
I0201 21:41:13.511041  7708 net.cpp:157] Top shape: 4 512 24 24 (1179648)
I0201 21:41:13.511045  7708 net.cpp:165] Memory required for data: 6291085904
I0201 21:41:13.511054  7708 layer_factory.hpp:77] Creating layer relu6_1
I0201 21:41:13.511066  7708 net.cpp:100] Creating Layer relu6_1
I0201 21:41:13.511072  7708 net.cpp:434] relu6_1 <- conv6_1
I0201 21:41:13.511080  7708 net.cpp:395] relu6_1 -> conv6_1 (in-place)
I0201 21:41:13.511242  7708 net.cpp:150] Setting up relu6_1
I0201 21:41:13.511251  7708 net.cpp:157] Top shape: 4 512 24 24 (1179648)
I0201 21:41:13.511255  7708 net.cpp:165] Memory required for data: 6295804496
I0201 21:41:13.511258  7708 layer_factory.hpp:77] Creating layer conv6_1_relu6_1_0_split
I0201 21:41:13.511263  7708 net.cpp:100] Creating Layer conv6_1_relu6_1_0_split
I0201 21:41:13.511266  7708 net.cpp:434] conv6_1_relu6_1_0_split <- conv6_1
I0201 21:41:13.511272  7708 net.cpp:408] conv6_1_relu6_1_0_split -> conv6_1_relu6_1_0_split_0
I0201 21:41:13.511279  7708 net.cpp:408] conv6_1_relu6_1_0_split -> conv6_1_relu6_1_0_split_1
I0201 21:41:13.511284  7708 net.cpp:408] conv6_1_relu6_1_0_split -> conv6_1_relu6_1_0_split_2
I0201 21:41:13.511330  7708 net.cpp:150] Setting up conv6_1_relu6_1_0_split
I0201 21:41:13.511338  7708 net.cpp:157] Top shape: 4 512 24 24 (1179648)
I0201 21:41:13.511343  7708 net.cpp:157] Top shape: 4 512 24 24 (1179648)
I0201 21:41:13.511346  7708 net.cpp:157] Top shape: 4 512 24 24 (1179648)
I0201 21:41:13.511349  7708 net.cpp:165] Memory required for data: 6309960272
I0201 21:41:13.511353  7708 layer_factory.hpp:77] Creating layer LFCN_3_5x5
I0201 21:41:13.511363  7708 net.cpp:100] Creating Layer LFCN_3_5x5
I0201 21:41:13.511366  7708 net.cpp:434] LFCN_3_5x5 <- conv6_1_relu6_1_0_split_0
I0201 21:41:13.511373  7708 net.cpp:408] LFCN_3_5x5 -> LFCN_3_5x5
I0201 21:41:13.518126  7708 net.cpp:150] Setting up LFCN_3_5x5
I0201 21:41:13.518141  7708 net.cpp:157] Top shape: 4 9 24 24 (20736)
I0201 21:41:13.518143  7708 net.cpp:165] Memory required for data: 6310043216
I0201 21:41:13.518151  7708 layer_factory.hpp:77] Creating layer LFCN_3_5x5_LFCN_3_5x5_0_split
I0201 21:41:13.518157  7708 net.cpp:100] Creating Layer LFCN_3_5x5_LFCN_3_5x5_0_split
I0201 21:41:13.518162  7708 net.cpp:434] LFCN_3_5x5_LFCN_3_5x5_0_split <- LFCN_3_5x5
I0201 21:41:13.518167  7708 net.cpp:408] LFCN_3_5x5_LFCN_3_5x5_0_split -> LFCN_3_5x5_LFCN_3_5x5_0_split_0
I0201 21:41:13.518174  7708 net.cpp:408] LFCN_3_5x5_LFCN_3_5x5_0_split -> LFCN_3_5x5_LFCN_3_5x5_0_split_1
I0201 21:41:13.518209  7708 net.cpp:150] Setting up LFCN_3_5x5_LFCN_3_5x5_0_split
I0201 21:41:13.518216  7708 net.cpp:157] Top shape: 4 9 24 24 (20736)
I0201 21:41:13.518221  7708 net.cpp:157] Top shape: 4 9 24 24 (20736)
I0201 21:41:13.518224  7708 net.cpp:165] Memory required for data: 6310209104
I0201 21:41:13.518227  7708 layer_factory.hpp:77] Creating layer detection_loss_3_5x5
I0201 21:41:13.518234  7708 net.cpp:100] Creating Layer detection_loss_3_5x5
I0201 21:41:13.518239  7708 net.cpp:434] detection_loss_3_5x5 <- LFCN_3_5x5_LFCN_3_5x5_0_split_0
I0201 21:41:13.518244  7708 net.cpp:434] detection_loss_3_5x5 <- label_3_5x5_data_5_split_0
I0201 21:41:13.518250  7708 net.cpp:408] detection_loss_3_5x5 -> loss_3_5x5
I0201 21:41:13.518259  7708 layer_factory.hpp:77] Creating layer detection_loss_3_5x5
I0201 21:41:13.518589  7708 net.cpp:150] Setting up detection_loss_3_5x5
I0201 21:41:13.518601  7708 net.cpp:157] Top shape: 1 1 1 2 (2)
I0201 21:41:13.518605  7708 net.cpp:160]     with loss weight 1
I0201 21:41:13.518618  7708 net.cpp:165] Memory required for data: 6310209112
I0201 21:41:13.518623  7708 layer_factory.hpp:77] Creating layer detection_accuracy_3_5x5
I0201 21:41:13.518631  7708 net.cpp:100] Creating Layer detection_accuracy_3_5x5
I0201 21:41:13.518636  7708 net.cpp:434] detection_accuracy_3_5x5 <- LFCN_3_5x5_LFCN_3_5x5_0_split_1
I0201 21:41:13.518643  7708 net.cpp:434] detection_accuracy_3_5x5 <- label_3_5x5_data_5_split_1
I0201 21:41:13.518652  7708 net.cpp:408] detection_accuracy_3_5x5 -> accuracy_3_5x5
I0201 21:41:13.518661  7708 net.cpp:408] detection_accuracy_3_5x5 -> boxiou_3_5x5
I0201 21:41:13.518710  7708 net.cpp:150] Setting up detection_accuracy_3_5x5
I0201 21:41:13.518719  7708 net.cpp:157] Top shape: 1 1 1 2 (2)
I0201 21:41:13.518725  7708 net.cpp:157] Top shape: 1 1 1 1 (1)
I0201 21:41:13.518729  7708 net.cpp:165] Memory required for data: 6310209124
I0201 21:41:13.518733  7708 layer_factory.hpp:77] Creating layer LFCN_3_7x7
I0201 21:41:13.518746  7708 net.cpp:100] Creating Layer LFCN_3_7x7
I0201 21:41:13.518751  7708 net.cpp:434] LFCN_3_7x7 <- conv6_1_relu6_1_0_split_1
I0201 21:41:13.518760  7708 net.cpp:408] LFCN_3_7x7 -> LFCN_3_7x7
I0201 21:41:13.527981  7708 net.cpp:150] Setting up LFCN_3_7x7
I0201 21:41:13.528012  7708 net.cpp:157] Top shape: 4 9 24 24 (20736)
I0201 21:41:13.528017  7708 net.cpp:165] Memory required for data: 6310292068
I0201 21:41:13.528026  7708 layer_factory.hpp:77] Creating layer LFCN_3_7x7_LFCN_3_7x7_0_split
I0201 21:41:13.528040  7708 net.cpp:100] Creating Layer LFCN_3_7x7_LFCN_3_7x7_0_split
I0201 21:41:13.528048  7708 net.cpp:434] LFCN_3_7x7_LFCN_3_7x7_0_split <- LFCN_3_7x7
I0201 21:41:13.528053  7708 net.cpp:408] LFCN_3_7x7_LFCN_3_7x7_0_split -> LFCN_3_7x7_LFCN_3_7x7_0_split_0
I0201 21:41:13.528064  7708 net.cpp:408] LFCN_3_7x7_LFCN_3_7x7_0_split -> LFCN_3_7x7_LFCN_3_7x7_0_split_1
I0201 21:41:13.528108  7708 net.cpp:150] Setting up LFCN_3_7x7_LFCN_3_7x7_0_split
I0201 21:41:13.528113  7708 net.cpp:157] Top shape: 4 9 24 24 (20736)
I0201 21:41:13.528118  7708 net.cpp:157] Top shape: 4 9 24 24 (20736)
I0201 21:41:13.528122  7708 net.cpp:165] Memory required for data: 6310457956
I0201 21:41:13.528126  7708 layer_factory.hpp:77] Creating layer detection_loss_3_7x7
I0201 21:41:13.528134  7708 net.cpp:100] Creating Layer detection_loss_3_7x7
I0201 21:41:13.528138  7708 net.cpp:434] detection_loss_3_7x7 <- LFCN_3_7x7_LFCN_3_7x7_0_split_0
I0201 21:41:13.528144  7708 net.cpp:434] detection_loss_3_7x7 <- label_3_7x7_data_6_split_0
I0201 21:41:13.528151  7708 net.cpp:408] detection_loss_3_7x7 -> loss_3_7x7
I0201 21:41:13.528161  7708 layer_factory.hpp:77] Creating layer detection_loss_3_7x7
I0201 21:41:13.528527  7708 net.cpp:150] Setting up detection_loss_3_7x7
I0201 21:41:13.528538  7708 net.cpp:157] Top shape: 1 1 1 2 (2)
I0201 21:41:13.528543  7708 net.cpp:160]     with loss weight 1
I0201 21:41:13.528554  7708 net.cpp:165] Memory required for data: 6310457964
I0201 21:41:13.528558  7708 layer_factory.hpp:77] Creating layer detection_accuracy_3_7x7
I0201 21:41:13.528568  7708 net.cpp:100] Creating Layer detection_accuracy_3_7x7
I0201 21:41:13.528571  7708 net.cpp:434] detection_accuracy_3_7x7 <- LFCN_3_7x7_LFCN_3_7x7_0_split_1
I0201 21:41:13.528576  7708 net.cpp:434] detection_accuracy_3_7x7 <- label_3_7x7_data_6_split_1
I0201 21:41:13.528584  7708 net.cpp:408] detection_accuracy_3_7x7 -> accuracy_3_7x7
I0201 21:41:13.528592  7708 net.cpp:408] detection_accuracy_3_7x7 -> boxiou_3_7x7
I0201 21:41:13.528636  7708 net.cpp:150] Setting up detection_accuracy_3_7x7
I0201 21:41:13.528643  7708 net.cpp:157] Top shape: 1 1 1 2 (2)
I0201 21:41:13.528648  7708 net.cpp:157] Top shape: 1 1 1 1 (1)
I0201 21:41:13.528651  7708 net.cpp:165] Memory required for data: 6310457976
I0201 21:41:13.528656  7708 layer_factory.hpp:77] Creating layer pool6
I0201 21:41:13.528664  7708 net.cpp:100] Creating Layer pool6
I0201 21:41:13.528669  7708 net.cpp:434] pool6 <- conv6_1_relu6_1_0_split_2
I0201 21:41:13.528676  7708 net.cpp:408] pool6 -> pool6
I0201 21:41:13.528720  7708 net.cpp:150] Setting up pool6
I0201 21:41:13.528728  7708 net.cpp:157] Top shape: 4 512 12 12 (294912)
I0201 21:41:13.528731  7708 net.cpp:165] Memory required for data: 6311637624
I0201 21:41:13.528735  7708 layer_factory.hpp:77] Creating layer LFCN_4_5x5
I0201 21:41:13.528746  7708 net.cpp:100] Creating Layer LFCN_4_5x5
I0201 21:41:13.528750  7708 net.cpp:434] LFCN_4_5x5 <- pool6
I0201 21:41:13.528758  7708 net.cpp:408] LFCN_4_5x5 -> LFCN_4_5x5
I0201 21:41:13.532891  7708 net.cpp:150] Setting up LFCN_4_5x5
I0201 21:41:13.532903  7708 net.cpp:157] Top shape: 4 9 12 12 (5184)
I0201 21:41:13.532907  7708 net.cpp:165] Memory required for data: 6311658360
I0201 21:41:13.532912  7708 layer_factory.hpp:77] Creating layer LFCN_4_5x5_LFCN_4_5x5_0_split
I0201 21:41:13.532917  7708 net.cpp:100] Creating Layer LFCN_4_5x5_LFCN_4_5x5_0_split
I0201 21:41:13.532920  7708 net.cpp:434] LFCN_4_5x5_LFCN_4_5x5_0_split <- LFCN_4_5x5
I0201 21:41:13.532925  7708 net.cpp:408] LFCN_4_5x5_LFCN_4_5x5_0_split -> LFCN_4_5x5_LFCN_4_5x5_0_split_0
I0201 21:41:13.532930  7708 net.cpp:408] LFCN_4_5x5_LFCN_4_5x5_0_split -> LFCN_4_5x5_LFCN_4_5x5_0_split_1
I0201 21:41:13.532958  7708 net.cpp:150] Setting up LFCN_4_5x5_LFCN_4_5x5_0_split
I0201 21:41:13.532963  7708 net.cpp:157] Top shape: 4 9 12 12 (5184)
I0201 21:41:13.532968  7708 net.cpp:157] Top shape: 4 9 12 12 (5184)
I0201 21:41:13.532969  7708 net.cpp:165] Memory required for data: 6311699832
I0201 21:41:13.532972  7708 layer_factory.hpp:77] Creating layer detection_loss_4_5x5
I0201 21:41:13.532976  7708 net.cpp:100] Creating Layer detection_loss_4_5x5
I0201 21:41:13.532979  7708 net.cpp:434] detection_loss_4_5x5 <- LFCN_4_5x5_LFCN_4_5x5_0_split_0
I0201 21:41:13.532984  7708 net.cpp:434] detection_loss_4_5x5 <- label_4_5x5_data_7_split_0
I0201 21:41:13.532989  7708 net.cpp:408] detection_loss_4_5x5 -> loss_4_5x5
I0201 21:41:13.532994  7708 layer_factory.hpp:77] Creating layer detection_loss_4_5x5
I0201 21:41:13.533289  7708 net.cpp:150] Setting up detection_loss_4_5x5
I0201 21:41:13.533299  7708 net.cpp:157] Top shape: 1 1 1 2 (2)
I0201 21:41:13.533303  7708 net.cpp:160]     with loss weight 1
I0201 21:41:13.533308  7708 net.cpp:165] Memory required for data: 6311699840
I0201 21:41:13.533311  7708 layer_factory.hpp:77] Creating layer detection_accuracy_4_5x5
I0201 21:41:13.533318  7708 net.cpp:100] Creating Layer detection_accuracy_4_5x5
I0201 21:41:13.533321  7708 net.cpp:434] detection_accuracy_4_5x5 <- LFCN_4_5x5_LFCN_4_5x5_0_split_1
I0201 21:41:13.533326  7708 net.cpp:434] detection_accuracy_4_5x5 <- label_4_5x5_data_7_split_1
I0201 21:41:13.533331  7708 net.cpp:408] detection_accuracy_4_5x5 -> accuracy_4_5x5
I0201 21:41:13.533337  7708 net.cpp:408] detection_accuracy_4_5x5 -> boxiou_4_5x5
I0201 21:41:13.533371  7708 net.cpp:150] Setting up detection_accuracy_4_5x5
I0201 21:41:13.533378  7708 net.cpp:157] Top shape: 1 1 1 2 (2)
I0201 21:41:13.533382  7708 net.cpp:157] Top shape: 1 1 1 1 (1)
I0201 21:41:13.533385  7708 net.cpp:165] Memory required for data: 6311699852
I0201 21:41:13.533388  7708 net.cpp:228] detection_accuracy_4_5x5 does not need backward computation.
I0201 21:41:13.533391  7708 net.cpp:226] detection_loss_4_5x5 needs backward computation.
I0201 21:41:13.533396  7708 net.cpp:226] LFCN_4_5x5_LFCN_4_5x5_0_split needs backward computation.
I0201 21:41:13.533398  7708 net.cpp:226] LFCN_4_5x5 needs backward computation.
…
I0201 21:41:13.545044  7708 image_gt_data_layer.cpp:235] output label size 1 : 2,6,96,96
I0201 21:41:13.545095  7708 image_gt_data_layer.cpp:235] output label size 2 : 2,6,48,48
I0201 21:41:13.545143  7708 image_gt_data_layer.cpp:235] output label size 3 : 2,6,48,48
I0201 21:41:13.545192  7708 image_gt_data_layer.cpp:235] output label size 4 : 2,6,24,24
I0201 21:41:13.545239  7708 image_gt_data_layer.cpp:235] output label size 5 : 2,6,24,24
I0201 21:41:13.545310  7708 image_gt_data_layer.cpp:235] output label size 6 : 2,6,12,12
I0201 21:41:13.593014  7708 net.cpp:150] Setting up data
I0201 21:41:13.593042  7708 net.cpp:157] Top shape: 2 4 768 768 (4718592)
I0201 21:41:13.593047  7708 net.cpp:157] Top shape: 2 6 96 96 (110592)
I0201 21:41:13.593052  7708 net.cpp:157] Top shape: 2 6 96 96 (110592)
I0201 21:41:13.593056  7708 net.cpp:157] Top shape: 2 6 48 48 (27648)
I0201 21:41:13.593060  7708 net.cpp:157] Top shape: 2 6 48 48 (27648)
I0201 21:41:13.593063  7708 net.cpp:157] Top shape: 2 6 24 24 (6912)
I0201 21:41:13.593067  7708 net.cpp:157] Top shape: 2 6 24 24 (6912)
I0201 21:41:13.593070  7708 net.cpp:157] Top shape: 2 6 12 12 (1728)
I0201 21:41:13.593073  7708 net.cpp:165] Memory required for data: 20042496
I0201 21:41:13.593080  7708 layer_factory.hpp:77] Creating layer label_1_5x5_data_1_split
I0201 21:41:13.593091  7708 net.cpp:100] Creating Layer label_1_5x5_data_1_split
I0201 21:41:13.593096  7708 net.cpp:434] label_1_5x5_data_1_split <- label_1_5x5
I0201 21:41:13.593101  7708 net.cpp:408] label_1_5x5_data_1_split -> label_1_5x5_data_1_split_0
I0201 21:41:13.593112  7708 net.cpp:408] label_1_5x5_data_1_split -> label_1_5x5_data_1_split_1
I0201 21:41:13.593458  7708 net.cpp:150] Setting up label_1_5x5_data_1_split
I0201 21:41:13.593524  7708 net.cpp:157] Top shape: 2 6 96 96 (110592)
I0201 21:41:13.593538  7708 net.cpp:157] Top shape: 2 6 96 96 (110592)
I0201 21:41:13.593545  7708 net.cpp:165] Memory required for data: 20927232
I0201 21:41:13.593557  7708 layer_factory.hpp:77] Creating layer label_1_7x7_data_2_split
I0201 21:41:13.593580  7708 net.cpp:100] Creating Layer label_1_7x7_data_2_split
I0201 21:41:13.593593  7708 net.cpp:434] label_1_7x7_data_2_split <- label_1_7x7
I0201 21:41:13.593606  7708 net.cpp:408] label_1_7x7_data_2_split -> label_1_7x7_data_2_split_0
I0201 21:41:13.593624  7708 net.cpp:408] label_1_7x7_data_2_split -> label_1_7x7_data_2_split_1
I0201 21:41:13.593705  7708 net.cpp:150] Setting up label_1_7x7_data_2_split
I0201 21:41:13.593719  7708 net.cpp:157] Top shape: 2 6 96 96 (110592)
I0201 21:41:13.593729  7708 net.cpp:157] Top shape: 2 6 96 96 (110592)
I0201 21:41:13.593736  7708 net.cpp:165] Memory required for data: 21811968
I0201 21:41:13.593744  7708 layer_factory.hpp:77] Creating layer label_2_5x5_data_3_split
I0201 21:41:13.593755  7708 net.cpp:100] Creating Layer label_2_5x5_data_3_split
I0201 21:41:13.593765  7708 net.cpp:434] label_2_5x5_data_3_split <- label_2_5x5
I0201 21:41:13.593776  7708 net.cpp:408] label_2_5x5_data_3_split -> label_2_5x5_data_3_split_0
I0201 21:41:13.593791  7708 net.cpp:408] label_2_5x5_data_3_split -> label_2_5x5_data_3_split_1
I0201 21:41:13.593863  7708 net.cpp:150] Setting up label_2_5x5_data_3_split
I0201 21:41:13.593876  7708 net.cpp:157] Top shape: 2 6 48 48 (27648)
I0201 21:41:13.593885  7708 net.cpp:157] Top shape: 2 6 48 48 (27648)
I0201 21:41:13.593892  7708 net.cpp:165] Memory required for data: 22033152
I0201 21:41:13.593900  7708 layer_factory.hpp:77] Creating layer label_2_7x7_data_4_split
I0201 21:41:13.593910  7708 net.cpp:100] Creating Layer label_2_7x7_data_4_split
I0201 21:41:13.593920  7708 net.cpp:434] label_2_7x7_data_4_split <- label_2_7x7
I0201 21:41:13.593931  7708 net.cpp:408] label_2_7x7_data_4_split -> label_2_7x7_data_4_split_0
I0201 21:41:13.593945  7708 net.cpp:408] label_2_7x7_data_4_split -> label_2_7x7_data_4_split_1
I0201 21:41:13.594014  7708 net.cpp:150] Setting up label_2_7x7_data_4_split
I0201 21:41:13.594034  7708 net.cpp:157] Top shape: 2 6 48 48 (27648)
I0201 21:41:13.594045  7708 net.cpp:157] Top shape: 2 6 48 48 (27648)
I0201 21:41:13.594053  7708 net.cpp:165] Memory required for data: 22254336
I0201 21:41:13.594060  7708 layer_factory.hpp:77] Creating layer label_3_5x5_data_5_split
I0201 21:41:13.594070  7708 net.cpp:100] Creating Layer label_3_5x5_data_5_split
I0201 21:41:13.594077  7708 net.cpp:434] label_3_5x5_data_5_split <- label_3_5x5
I0201 21:41:13.594087  7708 net.cpp:408] label_3_5x5_data_5_split -> label_3_5x5_data_5_split_0
I0201 21:41:13.594102  7708 net.cpp:408] label_3_5x5_data_5_split -> label_3_5x5_data_5_split_1
I0201 21:41:13.594175  7708 net.cpp:150] Setting up label_3_5x5_data_5_split
I0201 21:41:13.594188  7708 net.cpp:157] Top shape: 2 6 24 24 (6912)
I0201 21:41:13.594198  7708 net.cpp:157] Top shape: 2 6 24 24 (6912)
I0201 21:41:13.594205  7708 net.cpp:165] Memory required for data: 22309632
I0201 21:41:13.594213  7708 layer_factory.hpp:77] Creating layer label_3_7x7_data_6_split
I0201 21:41:13.594223  7708 net.cpp:100] Creating Layer label_3_7x7_data_6_split
I0201 21:41:13.594231  7708 net.cpp:434] label_3_7x7_data_6_split <- label_3_7x7
I0201 21:41:13.594243  7708 net.cpp:408] label_3_7x7_data_6_split -> label_3_7x7_data_6_split_0
I0201 21:41:13.594255  7708 net.cpp:408] label_3_7x7_data_6_split -> label_3_7x7_data_6_split_1
I0201 21:41:13.594326  7708 net.cpp:150] Setting up label_3_7x7_data_6_split
I0201 21:41:13.594338  7708 net.cpp:157] Top shape: 2 6 24 24 (6912)
I0201 21:41:13.594347  7708 net.cpp:157] Top shape: 2 6 24 24 (6912)
I0201 21:41:13.594354  7708 net.cpp:165] Memory required for data: 22364928
I0201 21:41:13.594362  7708 layer_factory.hpp:77] Creating layer label_4_5x5_data_7_split
I0201 21:41:13.594370  7708 net.cpp:100] Creating Layer label_4_5x5_data_7_split
I0201 21:41:13.594379  7708 net.cpp:434] label_4_5x5_data_7_split <- label_4_5x5
I0201 21:41:13.594389  7708 net.cpp:408] label_4_5x5_data_7_split -> label_4_5x5_data_7_split_0
I0201 21:41:13.594403  7708 net.cpp:408] label_4_5x5_data_7_split -> label_4_5x5_data_7_split_1
I0201 21:41:13.594470  7708 net.cpp:150] Setting up label_4_5x5_data_7_split
I0201 21:41:13.594481  7708 net.cpp:157] Top shape: 2 6 12 12 (1728)
I0201 21:41:13.594491  7708 net.cpp:157] Top shape: 2 6 12 12 (1728)
I0201 21:41:13.594497  7708 net.cpp:165] Memory required for data: 22378752
I0201 21:41:13.594504  7708 layer_factory.hpp:77] Creating layer slice
I0201 21:41:13.594519  7708 net.cpp:100] Creating Layer slice
I0201 21:41:13.594528  7708 net.cpp:434] slice <- data
I0201 21:41:13.594539  7708 net.cpp:408] slice -> data123
I0201 21:41:13.594552  7708 net.cpp:408] slice -> ch4
I0201 21:41:13.594622  7708 net.cpp:150] Setting up slice
I0201 21:41:13.594635  7708 net.cpp:157] Top shape: 2 3 768 768 (3538944)
I0201 21:41:13.594645  7708 net.cpp:157] Top shape: 2 1 768 768 (1179648)
I0201 21:41:13.594651  7708 net.cpp:165] Memory required for data: 41253120
I0201 21:41:13.594658  7708 layer_factory.hpp:77] Creating layer conv1_1
I0201 21:41:13.594674  7708 net.cpp:100] Creating Layer conv1_1
I0201 21:41:13.594683  7708 net.cpp:434] conv1_1 <- data123
I0201 21:41:13.594693  7708 net.cpp:408] conv1_1 -> conv1_1
I0201 21:41:13.603744  7708 net.cpp:150] Setting up conv1_1
I0201 21:41:13.603797  7708 net.cpp:157] Top shape: 2 64 768 768 (75497472)
I0201 21:41:13.603804  7708 net.cpp:165] Memory required for data: 343243008
I0201 21:41:13.603828  7708 layer_factory.hpp:77] Creating layer relu1_1
I0201 21:41:13.603852  7708 net.cpp:100] Creating Layer relu1_1
I0201 21:41:13.603862  7708 net.cpp:434] relu1_1 <- conv1_1
I0201 21:41:13.603869  7708 net.cpp:395] relu1_1 -> conv1_1 (in-place)
I0201 21:41:13.604701  7708 net.cpp:150] Setting up relu1_1
I0201 21:41:13.604715  7708 net.cpp:157] Top shape: 2 64 768 768 (75497472)
I0201 21:41:13.604719  7708 net.cpp:165] Memory required for data: 645232896
I0201 21:41:13.604724  7708 layer_factory.hpp:77] Creating layer conv1_2
I0201 21:41:13.604740  7708 net.cpp:100] Creating Layer conv1_2
I0201 21:41:13.604744  7708 net.cpp:434] conv1_2 <- conv1_1
I0201 21:41:13.604751  7708 net.cpp:408] conv1_2 -> conv1_2
I0201 21:41:13.609752  7708 net.cpp:150] Setting up conv1_2
I0201 21:41:13.609793  7708 net.cpp:157] Top shape: 2 64 768 768 (75497472)
I0201 21:41:13.609798  7708 net.cpp:165] Memory required for data: 947222784
I0201 21:41:13.609815  7708 layer_factory.hpp:77] Creating layer relu1_2
I0201 21:41:13.609835  7708 net.cpp:100] Creating Layer relu1_2
I0201 21:41:13.609843  7708 net.cpp:434] relu1_2 <- conv1_2
I0201 21:41:13.609851  7708 net.cpp:395] relu1_2 -> conv1_2 (in-place)
I0201 21:41:13.610066  7708 net.cpp:150] Setting up relu1_2
I0201 21:41:13.610077  7708 net.cpp:157] Top shape: 2 64 768 768 (75497472)
I0201 21:41:13.610081  7708 net.cpp:165] Memory required for data: 1249212672
I0201 21:41:13.610085  7708 layer_factory.hpp:77] Creating layer pool1
I0201 21:41:13.610095  7708 net.cpp:100] Creating Layer pool1
I0201 21:41:13.610100  7708 net.cpp:434] pool1 <- conv1_2
I0201 21:41:13.610105  7708 net.cpp:408] pool1 -> pool1
I0201 21:41:13.610158  7708 net.cpp:150] Setting up pool1
I0201 21:41:13.610167  7708 net.cpp:157] Top shape: 2 64 384 384 (18874368)
I0201 21:41:13.610169  7708 net.cpp:165] Memory required for data: 1324710144
I0201 21:41:13.610173  7708 layer_factory.hpp:77] Creating layer ch4_pool1
I0201 21:41:13.610179  7708 net.cpp:100] Creating Layer ch4_pool1
I0201 21:41:13.610183  7708 net.cpp:434] ch4_pool1 <- ch4
I0201 21:41:13.610190  7708 net.cpp:408] ch4_pool1 -> ch4_pool1
I0201 21:41:13.610231  7708 net.cpp:150] Setting up ch4_pool1
I0201 21:41:13.610239  7708 net.cpp:157] Top shape: 2 1 384 384 (294912)
I0201 21:41:13.610242  7708 net.cpp:165] Memory required for data: 1325889792
I0201 21:41:13.610245  7708 layer_factory.hpp:77] Creating layer ch4_pool1_ch4_pool1_0_split
I0201 21:41:13.610254  7708 net.cpp:100] Creating Layer ch4_pool1_ch4_pool1_0_split
I0201 21:41:13.610257  7708 net.cpp:434] ch4_pool1_ch4_pool1_0_split <- ch4_pool1
I0201 21:41:13.610263  7708 net.cpp:408] ch4_pool1_ch4_pool1_0_split -> ch4_pool1_ch4_pool1_0_split_0
I0201 21:41:13.610270  7708 net.cpp:408] ch4_pool1_ch4_pool1_0_split -> ch4_pool1_ch4_pool1_0_split_1
I0201 21:41:13.610308  7708 net.cpp:150] Setting up ch4_pool1_ch4_pool1_0_split
I0201 21:41:13.610317  7708 net.cpp:157] Top shape: 2 1 384 384 (294912)
I0201 21:41:13.610322  7708 net.cpp:157] Top shape: 2 1 384 384 (294912)
I0201 21:41:13.610327  7708 net.cpp:165] Memory required for data: 1328249088
I0201 21:41:13.610329  7708 layer_factory.hpp:77] Creating layer pool1_concat
I0201 21:41:13.610340  7708 net.cpp:100] Creating Layer pool1_concat
I0201 21:41:13.610344  7708 net.cpp:434] pool1_concat <- pool1
I0201 21:41:13.610349  7708 net.cpp:434] pool1_concat <- ch4_pool1_ch4_pool1_0_split_0
I0201 21:41:13.610354  7708 net.cpp:408] pool1_concat -> pool1_new
I0201 21:41:13.610380  7708 net.cpp:150] Setting up pool1_concat
I0201 21:41:13.610388  7708 net.cpp:157] Top shape: 2 65 384 384 (19169280)
I0201 21:41:13.610391  7708 net.cpp:165] Memory required for data: 1404926208
I0201 21:41:13.610395  7708 layer_factory.hpp:77] Creating layer conv2_1_new
I0201 21:41:13.610406  7708 net.cpp:100] Creating Layer conv2_1_new
I0201 21:41:13.610410  7708 net.cpp:434] conv2_1_new <- pool1_new
I0201 21:41:13.610417  7708 net.cpp:408] conv2_1_new -> conv2_1
I0201 21:41:13.617189  7708 net.cpp:150] Setting up conv2_1_new
I0201 21:41:13.617259  7708 net.cpp:157] Top shape: 2 128 384 384 (37748736)
I0201 21:41:13.617265  7708 net.cpp:165] Memory required for data: 1555921152
I0201 21:41:13.617300  7708 layer_factory.hpp:77] Creating layer relu2_1
I0201 21:41:13.617328  7708 net.cpp:100] Creating Layer relu2_1
I0201 21:41:13.617338  7708 net.cpp:434] relu2_1 <- conv2_1
I0201 21:41:13.617352  7708 net.cpp:395] relu2_1 -> conv2_1 (in-place)
I0201 21:41:13.618337  7708 net.cpp:150] Setting up relu2_1
I0201 21:41:13.618443  7708 net.cpp:157] Top shape: 2 128 384 384 (37748736)
I0201 21:41:13.618453  7708 net.cpp:165] Memory required for data: 1706916096
I0201 21:41:13.618465  7708 layer_factory.hpp:77] Creating layer conv2_2
I0201 21:41:13.618531  7708 net.cpp:100] Creating Layer conv2_2
I0201 21:41:13.618551  7708 net.cpp:434] conv2_2 <- conv2_1
I0201 21:41:13.618571  7708 net.cpp:408] conv2_2 -> conv2_2
I0201 21:41:13.624014  7708 net.cpp:150] Setting up conv2_2
I0201 21:41:13.624085  7708 net.cpp:157] Top shape: 2 128 384 384 (37748736)
I0201 21:41:13.624099  7708 net.cpp:165] Memory required for data: 1857911040
I0201 21:41:13.624124  7708 layer_factory.hpp:77] Creating layer relu2_2
I0201 21:41:13.624150  7708 net.cpp:100] Creating Layer relu2_2
I0201 21:41:13.624169  7708 net.cpp:434] relu2_2 <- conv2_2
I0201 21:41:13.624195  7708 net.cpp:395] relu2_2 -> conv2_2 (in-place)
I0201 21:41:13.626312  7708 net.cpp:150] Setting up relu2_2
I0201 21:41:13.626356  7708 net.cpp:157] Top shape: 2 128 384 384 (37748736)
I0201 21:41:13.626365  7708 net.cpp:165] Memory required for data: 2008905984
I0201 21:41:13.626375  7708 layer_factory.hpp:77] Creating layer pool2
I0201 21:41:13.626397  7708 net.cpp:100] Creating Layer pool2
I0201 21:41:13.626410  7708 net.cpp:434] pool2 <- conv2_2
I0201 21:41:13.626432  7708 net.cpp:408] pool2 -> pool2
I0201 21:41:13.626616  7708 net.cpp:150] Setting up pool2
I0201 21:41:13.626655  7708 net.cpp:157] Top shape: 2 128 192 192 (9437184)
I0201 21:41:13.626669  7708 net.cpp:165] Memory required for data: 2046654720
I0201 21:41:13.626685  7708 layer_factory.hpp:77] Creating layer ch4_pool2
I0201 21:41:13.626722  7708 net.cpp:100] Creating Layer ch4_pool2
I0201 21:41:13.626744  7708 net.cpp:434] ch4_pool2 <- ch4_pool1_ch4_pool1_0_split_1
I0201 21:41:13.626771  7708 net.cpp:408] ch4_pool2 -> ch4_pool2
I0201 21:41:13.626963  7708 net.cpp:150] Setting up ch4_pool2
I0201 21:41:13.626977  7708 net.cpp:157] Top shape: 2 1 192 192 (73728)
I0201 21:41:13.626986  7708 net.cpp:165] Memory required for data: 2046949632
I0201 21:41:13.626993  7708 layer_factory.hpp:77] Creating layer ch4_pool2_ch4_pool2_0_split
I0201 21:41:13.627010  7708 net.cpp:100] Creating Layer ch4_pool2_ch4_pool2_0_split
I0201 21:41:13.627022  7708 net.cpp:434] ch4_pool2_ch4_pool2_0_split <- ch4_pool2
I0201 21:41:13.627034  7708 net.cpp:408] ch4_pool2_ch4_pool2_0_split -> ch4_pool2_ch4_pool2_0_split_0
I0201 21:41:13.627054  7708 net.cpp:408] ch4_pool2_ch4_pool2_0_split -> ch4_pool2_ch4_pool2_0_split_1
I0201 21:41:13.627126  7708 net.cpp:150] Setting up ch4_pool2_ch4_pool2_0_split
I0201 21:41:13.627140  7708 net.cpp:157] Top shape: 2 1 192 192 (73728)
I0201 21:41:13.627148  7708 net.cpp:157] Top shape: 2 1 192 192 (73728)
I0201 21:41:13.627156  7708 net.cpp:165] Memory required for data: 2047539456
I0201 21:41:13.627166  7708 layer_factory.hpp:77] Creating layer pool2_concat
I0201 21:41:13.627179  7708 net.cpp:100] Creating Layer pool2_concat
I0201 21:41:13.627189  7708 net.cpp:434] pool2_concat <- pool2
I0201 21:41:13.627199  7708 net.cpp:434] pool2_concat <- ch4_pool2_ch4_pool2_0_split_0
I0201 21:41:13.627215  7708 net.cpp:408] pool2_concat -> pool2_new
I0201 21:41:13.627260  7708 net.cpp:150] Setting up pool2_concat
I0201 21:41:13.627271  7708 net.cpp:157] Top shape: 2 129 192 192 (9510912)
I0201 21:41:13.627277  7708 net.cpp:165] Memory required for data: 2085583104
I0201 21:41:13.627284  7708 layer_factory.hpp:77] Creating layer conv3_1_new
I0201 21:41:13.627301  7708 net.cpp:100] Creating Layer conv3_1_new
I0201 21:41:13.627310  7708 net.cpp:434] conv3_1_new <- pool2_new
I0201 21:41:13.627321  7708 net.cpp:408] conv3_1_new -> conv3_1
I0201 21:41:13.630655  7708 net.cpp:150] Setting up conv3_1_new
I0201 21:41:13.630686  7708 net.cpp:157] Top shape: 2 256 192 192 (18874368)
I0201 21:41:13.630692  7708 net.cpp:165] Memory required for data: 2161080576
I0201 21:41:13.630712  7708 layer_factory.hpp:77] Creating layer relu3_1
I0201 21:41:13.630726  7708 net.cpp:100] Creating Layer relu3_1
I0201 21:41:13.630736  7708 net.cpp:434] relu3_1 <- conv3_1
I0201 21:41:13.630744  7708 net.cpp:395] relu3_1 -> conv3_1 (in-place)
I0201 21:41:13.630949  7708 net.cpp:150] Setting up relu3_1
I0201 21:41:13.630964  7708 net.cpp:157] Top shape: 2 256 192 192 (18874368)
I0201 21:41:13.630969  7708 net.cpp:165] Memory required for data: 2236578048
I0201 21:41:13.630975  7708 layer_factory.hpp:77] Creating layer conv3_2
I0201 21:41:13.630988  7708 net.cpp:100] Creating Layer conv3_2
I0201 21:41:13.630995  7708 net.cpp:434] conv3_2 <- conv3_1
I0201 21:41:13.631006  7708 net.cpp:408] conv3_2 -> conv3_2
I0201 21:41:13.633991  7708 net.cpp:150] Setting up conv3_2
I0201 21:41:13.634013  7708 net.cpp:157] Top shape: 2 256 192 192 (18874368)
I0201 21:41:13.634019  7708 net.cpp:165] Memory required for data: 2312075520
I0201 21:41:13.634030  7708 layer_factory.hpp:77] Creating layer relu3_2
I0201 21:41:13.634042  7708 net.cpp:100] Creating Layer relu3_2
I0201 21:41:13.634052  7708 net.cpp:434] relu3_2 <- conv3_2
I0201 21:41:13.634063  7708 net.cpp:395] relu3_2 -> conv3_2 (in-place)
I0201 21:41:13.634268  7708 net.cpp:150] Setting up relu3_2
I0201 21:41:13.634280  7708 net.cpp:157] Top shape: 2 256 192 192 (18874368)
I0201 21:41:13.634285  7708 net.cpp:165] Memory required for data: 2387572992
I0201 21:41:13.634291  7708 layer_factory.hpp:77] Creating layer conv3_3
I0201 21:41:13.634306  7708 net.cpp:100] Creating Layer conv3_3
I0201 21:41:13.634313  7708 net.cpp:434] conv3_3 <- conv3_2
I0201 21:41:13.634322  7708 net.cpp:408] conv3_3 -> conv3_3
I0201 21:41:13.637456  7708 net.cpp:150] Setting up conv3_3
I0201 21:41:13.637483  7708 net.cpp:157] Top shape: 2 256 192 192 (18874368)
I0201 21:41:13.637490  7708 net.cpp:165] Memory required for data: 2463070464
I0201 21:41:13.637547  7708 layer_factory.hpp:77] Creating layer relu3_3
I0201 21:41:13.637579  7708 net.cpp:100] Creating Layer relu3_3
I0201 21:41:13.637589  7708 net.cpp:434] relu3_3 <- conv3_3
I0201 21:41:13.637600  7708 net.cpp:395] relu3_3 -> conv3_3 (in-place)
I0201 21:41:13.638240  7708 net.cpp:150] Setting up relu3_3
I0201 21:41:13.638257  7708 net.cpp:157] Top shape: 2 256 192 192 (18874368)
I0201 21:41:13.638263  7708 net.cpp:165] Memory required for data: 2538567936
I0201 21:41:13.638269  7708 layer_factory.hpp:77] Creating layer pool3
I0201 21:41:13.638279  7708 net.cpp:100] Creating Layer pool3
I0201 21:41:13.638288  7708 net.cpp:434] pool3 <- conv3_3
I0201 21:41:13.638299  7708 net.cpp:408] pool3 -> pool3
I0201 21:41:13.638382  7708 net.cpp:150] Setting up pool3
I0201 21:41:13.638396  7708 net.cpp:157] Top shape: 2 256 96 96 (4718592)
I0201 21:41:13.638401  7708 net.cpp:165] Memory required for data: 2557442304
I0201 21:41:13.638406  7708 layer_factory.hpp:77] Creating layer ch4_pool3
I0201 21:41:13.638422  7708 net.cpp:100] Creating Layer ch4_pool3
I0201 21:41:13.638429  7708 net.cpp:434] ch4_pool3 <- ch4_pool2_ch4_pool2_0_split_1
I0201 21:41:13.638439  7708 net.cpp:408] ch4_pool3 -> ch4_pool3
I0201 21:41:13.638491  7708 net.cpp:150] Setting up ch4_pool3
I0201 21:41:13.638502  7708 net.cpp:157] Top shape: 2 1 96 96 (18432)
I0201 21:41:13.638509  7708 net.cpp:165] Memory required for data: 2557516032
I0201 21:41:13.638514  7708 layer_factory.hpp:77] Creating layer ch4_pool3_ch4_pool3_0_split
I0201 21:41:13.638521  7708 net.cpp:100] Creating Layer ch4_pool3_ch4_pool3_0_split
I0201 21:41:13.638526  7708 net.cpp:434] ch4_pool3_ch4_pool3_0_split <- ch4_pool3
I0201 21:41:13.638535  7708 net.cpp:408] ch4_pool3_ch4_pool3_0_split -> ch4_pool3_ch4_pool3_0_split_0
I0201 21:41:13.638545  7708 net.cpp:408] ch4_pool3_ch4_pool3_0_split -> ch4_pool3_ch4_pool3_0_split_1
I0201 21:41:13.638598  7708 net.cpp:150] Setting up ch4_pool3_ch4_pool3_0_split
I0201 21:41:13.638608  7708 net.cpp:157] Top shape: 2 1 96 96 (18432)
I0201 21:41:13.638615  7708 net.cpp:157] Top shape: 2 1 96 96 (18432)
I0201 21:41:13.638620  7708 net.cpp:165] Memory required for data: 2557663488
I0201 21:41:13.638625  7708 layer_factory.hpp:77] Creating layer pool3_concat
I0201 21:41:13.638633  7708 net.cpp:100] Creating Layer pool3_concat
I0201 21:41:13.638639  7708 net.cpp:434] pool3_concat <- pool3
I0201 21:41:13.638648  7708 net.cpp:434] pool3_concat <- ch4_pool3_ch4_pool3_0_split_0
I0201 21:41:13.638659  7708 net.cpp:408] pool3_concat -> pool3_new
I0201 21:41:13.638694  7708 net.cpp:150] Setting up pool3_concat
I0201 21:41:13.638703  7708 net.cpp:157] Top shape: 2 257 96 96 (4737024)
I0201 21:41:13.638708  7708 net.cpp:165] Memory required for data: 2576611584
I0201 21:41:13.638713  7708 layer_factory.hpp:77] Creating layer conv4_1_new
I0201 21:41:13.638726  7708 net.cpp:100] Creating Layer conv4_1_new
I0201 21:41:13.638732  7708 net.cpp:434] conv4_1_new <- pool3_new
I0201 21:41:13.638741  7708 net.cpp:408] conv4_1_new -> conv4_1
I0201 21:41:13.643024  7708 net.cpp:150] Setting up conv4_1_new
I0201 21:41:13.643057  7708 net.cpp:157] Top shape: 2 512 96 96 (9437184)
I0201 21:41:13.643064  7708 net.cpp:165] Memory required for data: 2614360320
I0201 21:41:13.643079  7708 layer_factory.hpp:77] Creating layer relu4_1
I0201 21:41:13.643095  7708 net.cpp:100] Creating Layer relu4_1
I0201 21:41:13.643116  7708 net.cpp:434] relu4_1 <- conv4_1
I0201 21:41:13.643127  7708 net.cpp:395] relu4_1 -> conv4_1 (in-place)
I0201 21:41:13.643337  7708 net.cpp:150] Setting up relu4_1
I0201 21:41:13.643349  7708 net.cpp:157] Top shape: 2 512 96 96 (9437184)
I0201 21:41:13.643355  7708 net.cpp:165] Memory required for data: 2652109056
I0201 21:41:13.643362  7708 layer_factory.hpp:77] Creating layer conv4_2
I0201 21:41:13.643376  7708 net.cpp:100] Creating Layer conv4_2
I0201 21:41:13.643383  7708 net.cpp:434] conv4_2 <- conv4_1
I0201 21:41:13.643396  7708 net.cpp:408] conv4_2 -> conv4_2
I0201 21:41:13.652740  7708 net.cpp:150] Setting up conv4_2
I0201 21:41:13.652787  7708 net.cpp:157] Top shape: 2 512 96 96 (9437184)
I0201 21:41:13.652794  7708 net.cpp:165] Memory required for data: 2689857792
I0201 21:41:13.652817  7708 layer_factory.hpp:77] Creating layer relu4_2
I0201 21:41:13.652837  7708 net.cpp:100] Creating Layer relu4_2
I0201 21:41:13.652870  7708 net.cpp:434] relu4_2 <- conv4_2
I0201 21:41:13.652880  7708 net.cpp:395] relu4_2 -> conv4_2 (in-place)
I0201 21:41:13.653061  7708 net.cpp:150] Setting up relu4_2
I0201 21:41:13.653071  7708 net.cpp:157] Top shape: 2 512 96 96 (9437184)
I0201 21:41:13.653077  7708 net.cpp:165] Memory required for data: 2727606528
I0201 21:41:13.653082  7708 layer_factory.hpp:77] Creating layer conv4_3
I0201 21:41:13.653095  7708 net.cpp:100] Creating Layer conv4_3
I0201 21:41:13.653100  7708 net.cpp:434] conv4_3 <- conv4_2
I0201 21:41:13.653106  7708 net.cpp:408] conv4_3 -> conv4_3
I0201 21:41:13.659411  7708 net.cpp:150] Setting up conv4_3
I0201 21:41:13.659440  7708 net.cpp:157] Top shape: 2 512 96 96 (9437184)
I0201 21:41:13.659446  7708 net.cpp:165] Memory required for data: 2765355264
I0201 21:41:13.659454  7708 layer_factory.hpp:77] Creating layer relu4_3
I0201 21:41:13.659466  7708 net.cpp:100] Creating Layer relu4_3
I0201 21:41:13.659472  7708 net.cpp:434] relu4_3 <- conv4_3
I0201 21:41:13.659479  7708 net.cpp:395] relu4_3 -> conv4_3 (in-place)
I0201 21:41:13.659642  7708 net.cpp:150] Setting up relu4_3
I0201 21:41:13.659651  7708 net.cpp:157] Top shape: 2 512 96 96 (9437184)
I0201 21:41:13.659654  7708 net.cpp:165] Memory required for data: 2803104000
I0201 21:41:13.659658  7708 layer_factory.hpp:77] Creating layer conv4_3_relu4_3_0_split
I0201 21:41:13.659664  7708 net.cpp:100] Creating Layer conv4_3_relu4_3_0_split
I0201 21:41:13.659668  7708 net.cpp:434] conv4_3_relu4_3_0_split <- conv4_3
I0201 21:41:13.659674  7708 net.cpp:408] conv4_3_relu4_3_0_split -> conv4_3_relu4_3_0_split_0
I0201 21:41:13.659680  7708 net.cpp:408] conv4_3_relu4_3_0_split -> conv4_3_relu4_3_0_split_1
I0201 21:41:13.659718  7708 net.cpp:150] Setting up conv4_3_relu4_3_0_split
I0201 21:41:13.659725  7708 net.cpp:157] Top shape: 2 512 96 96 (9437184)
I0201 21:41:13.659729  7708 net.cpp:157] Top shape: 2 512 96 96 (9437184)
I0201 21:41:13.659732  7708 net.cpp:165] Memory required for data: 2878601472
I0201 21:41:13.659735  7708 layer_factory.hpp:77] Creating layer loss1_conv1
I0201 21:41:13.659747  7708 net.cpp:100] Creating Layer loss1_conv1
I0201 21:41:13.659752  7708 net.cpp:434] loss1_conv1 <- conv4_3_relu4_3_0_split_0
I0201 21:41:13.659759  7708 net.cpp:408] loss1_conv1 -> loss1_conv1
I0201 21:41:13.729307  7708 net.cpp:150] Setting up loss1_conv1
I0201 21:41:13.729336  7708 net.cpp:157] Top shape: 2 512 96 96 (9437184)
I0201 21:41:13.729341  7708 net.cpp:165] Memory required for data: 2916350208
I0201 21:41:13.729351  7708 layer_factory.hpp:77] Creating layer loss_relu1
I0201 21:41:13.729362  7708 net.cpp:100] Creating Layer loss_relu1
I0201 21:41:13.729368  7708 net.cpp:434] loss_relu1 <- loss1_conv1
I0201 21:41:13.729377  7708 net.cpp:395] loss_relu1 -> loss1_conv1 (in-place)
I0201 21:41:13.729593  7708 net.cpp:150] Setting up loss_relu1
I0201 21:41:13.729604  7708 net.cpp:157] Top shape: 2 512 96 96 (9437184)
I0201 21:41:13.729607  7708 net.cpp:165] Memory required for data: 2954098944
I0201 21:41:13.729611  7708 layer_factory.hpp:77] Creating layer loss1_conv1_loss_relu1_0_split
I0201 21:41:13.729619  7708 net.cpp:100] Creating Layer loss1_conv1_loss_relu1_0_split
I0201 21:41:13.729622  7708 net.cpp:434] loss1_conv1_loss_relu1_0_split <- loss1_conv1
I0201 21:41:13.729629  7708 net.cpp:408] loss1_conv1_loss_relu1_0_split -> loss1_conv1_loss_relu1_0_split_0
I0201 21:41:13.729638  7708 net.cpp:408] loss1_conv1_loss_relu1_0_split -> loss1_conv1_loss_relu1_0_split_1
I0201 21:41:13.729689  7708 net.cpp:150] Setting up loss1_conv1_loss_relu1_0_split
I0201 21:41:13.729697  7708 net.cpp:157] Top shape: 2 512 96 96 (9437184)
I0201 21:41:13.729703  7708 net.cpp:157] Top shape: 2 512 96 96 (9437184)
I0201 21:41:13.729709  7708 net.cpp:165] Memory required for data: 3029596416
I0201 21:41:13.729714  7708 layer_factory.hpp:77] Creating layer LFCN_1_5x5
I0201 21:41:13.729730  7708 net.cpp:100] Creating Layer LFCN_1_5x5
I0201 21:41:13.729735  7708 net.cpp:434] LFCN_1_5x5 <- loss1_conv1_loss_relu1_0_split_0
I0201 21:41:13.729745  7708 net.cpp:408] LFCN_1_5x5 -> LFCN_1_5x5
I0201 21:41:13.733945  7708 net.cpp:150] Setting up LFCN_1_5x5
I0201 21:41:13.733958  7708 net.cpp:157] Top shape: 2 9 96 96 (165888)
I0201 21:41:13.733963  7708 net.cpp:165] Memory required for data: 3030259968
I0201 21:41:13.733970  7708 layer_factory.hpp:77] Creating layer LFCN_1_5x5_LFCN_1_5x5_0_split
I0201 21:41:13.733978  7708 net.cpp:100] Creating Layer LFCN_1_5x5_LFCN_1_5x5_0_split
I0201 21:41:13.733983  7708 net.cpp:434] LFCN_1_5x5_LFCN_1_5x5_0_split <- LFCN_1_5x5
I0201 21:41:13.733990  7708 net.cpp:408] LFCN_1_5x5_LFCN_1_5x5_0_split -> LFCN_1_5x5_LFCN_1_5x5_0_split_0
I0201 21:41:13.733999  7708 net.cpp:408] LFCN_1_5x5_LFCN_1_5x5_0_split -> LFCN_1_5x5_LFCN_1_5x5_0_split_1
I0201 21:41:13.734045  7708 net.cpp:150] Setting up LFCN_1_5x5_LFCN_1_5x5_0_split
I0201 21:41:13.734055  7708 net.cpp:157] Top shape: 2 9 96 96 (165888)
I0201 21:41:13.734061  7708 net.cpp:157] Top shape: 2 9 96 96 (165888)
I0201 21:41:13.734067  7708 net.cpp:165] Memory required for data: 3031587072
I0201 21:41:13.734071  7708 layer_factory.hpp:77] Creating layer detection_loss_1_5x5
I0201 21:41:13.734079  7708 net.cpp:100] Creating Layer detection_loss_1_5x5
I0201 21:41:13.734082  7708 net.cpp:434] detection_loss_1_5x5 <- LFCN_1_5x5_LFCN_1_5x5_0_split_0
I0201 21:41:13.734088  7708 net.cpp:434] detection_loss_1_5x5 <- label_1_5x5_data_1_split_0
I0201 21:41:13.734097  7708 net.cpp:408] detection_loss_1_5x5 -> loss_1_5x5
I0201 21:41:13.734107  7708 layer_factory.hpp:77] Creating layer detection_loss_1_5x5
I0201 21:41:13.734539  7708 net.cpp:150] Setting up detection_loss_1_5x5
I0201 21:41:13.734549  7708 net.cpp:157] Top shape: 1 1 1 2 (2)
I0201 21:41:13.734551  7708 net.cpp:160]     with loss weight 0.9
I0201 21:41:13.734562  7708 net.cpp:165] Memory required for data: 3031587080
I0201 21:41:13.734566  7708 layer_factory.hpp:77] Creating layer detection_accuracy_1_5x5
I0201 21:41:13.734575  7708 net.cpp:100] Creating Layer detection_accuracy_1_5x5
I0201 21:41:13.734578  7708 net.cpp:434] detection_accuracy_1_5x5 <- LFCN_1_5x5_LFCN_1_5x5_0_split_1
I0201 21:41:13.734585  7708 net.cpp:434] detection_accuracy_1_5x5 <- label_1_5x5_data_1_split_1
I0201 21:41:13.734592  7708 net.cpp:408] detection_accuracy_1_5x5 -> accuracy_1_5x5
I0201 21:41:13.734601  7708 net.cpp:408] detection_accuracy_1_5x5 -> boxiou_1_5x5
I0201 21:41:13.734647  7708 net.cpp:150] Setting up detection_accuracy_1_5x5
I0201 21:41:13.734653  7708 net.cpp:157] Top shape: 1 1 1 2 (2)
I0201 21:41:13.734659  7708 net.cpp:157] Top shape: 1 1 1 1 (1)
I0201 21:41:13.734663  7708 net.cpp:165] Memory required for data: 3031587092
I0201 21:41:13.734666  7708 layer_factory.hpp:77] Creating layer LFCN_1_7x7
I0201 21:41:13.734678  7708 net.cpp:100] Creating Layer LFCN_1_7x7
I0201 21:41:13.734681  7708 net.cpp:434] LFCN_1_7x7 <- loss1_conv1_loss_relu1_0_split_1
I0201 21:41:13.734690  7708 net.cpp:408] LFCN_1_7x7 -> LFCN_1_7x7
I0201 21:41:13.743865  7708 net.cpp:150] Setting up LFCN_1_7x7
I0201 21:41:13.743921  7708 net.cpp:157] Top shape: 2 9 96 96 (165888)
I0201 21:41:13.743926  7708 net.cpp:165] Memory required for data: 3032250644
I0201 21:41:13.743942  7708 layer_factory.hpp:77] Creating layer LFCN_1_7x7_LFCN_1_7x7_0_split
I0201 21:41:13.743962  7708 net.cpp:100] Creating Layer LFCN_1_7x7_LFCN_1_7x7_0_split
I0201 21:41:13.743971  7708 net.cpp:434] LFCN_1_7x7_LFCN_1_7x7_0_split <- LFCN_1_7x7
I0201 21:41:13.743985  7708 net.cpp:408] LFCN_1_7x7_LFCN_1_7x7_0_split -> LFCN_1_7x7_LFCN_1_7x7_0_split_0
I0201 21:41:13.744000  7708 net.cpp:408] LFCN_1_7x7_LFCN_1_7x7_0_split -> LFCN_1_7x7_LFCN_1_7x7_0_split_1
I0201 21:41:13.744074  7708 net.cpp:150] Setting up LFCN_1_7x7_LFCN_1_7x7_0_split
I0201 21:41:13.744086  7708 net.cpp:157] Top shape: 2 9 96 96 (165888)
I0201 21:41:13.744093  7708 net.cpp:157] Top shape: 2 9 96 96 (165888)
I0201 21:41:13.744098  7708 net.cpp:165] Memory required for data: 3033577748
I0201 21:41:13.744102  7708 layer_factory.hpp:77] Creating layer detection_loss_1_7x7
I0201 21:41:13.744117  7708 net.cpp:100] Creating Layer detection_loss_1_7x7
I0201 21:41:13.744122  7708 net.cpp:434] detection_loss_1_7x7 <- LFCN_1_7x7_LFCN_1_7x7_0_split_0
I0201 21:41:13.744129  7708 net.cpp:434] detection_loss_1_7x7 <- label_1_7x7_data_2_split_0
I0201 21:41:13.744141  7708 net.cpp:408] detection_loss_1_7x7 -> loss_1_7x7
I0201 21:41:13.744158  7708 layer_factory.hpp:77] Creating layer detection_loss_1_7x7
I0201 21:41:13.746347  7708 net.cpp:150] Setting up detection_loss_1_7x7
I0201 21:41:13.746392  7708 net.cpp:157] Top shape: 1 1 1 2 (2)
I0201 21:41:13.746395  7708 net.cpp:160]     with loss weight 0.9
I0201 21:41:13.746415  7708 net.cpp:165] Memory required for data: 3033577756
I0201 21:41:13.746420  7708 layer_factory.hpp:77] Creating layer detection_accuracy_1_7x7
I0201 21:41:13.746434  7708 net.cpp:100] Creating Layer detection_accuracy_1_7x7
I0201 21:41:13.746441  7708 net.cpp:434] detection_accuracy_1_7x7 <- LFCN_1_7x7_LFCN_1_7x7_0_split_1
I0201 21:41:13.746449  7708 net.cpp:434] detection_accuracy_1_7x7 <- label_1_7x7_data_2_split_1
I0201 21:41:13.746459  7708 net.cpp:408] detection_accuracy_1_7x7 -> accuracy_1_7x7
I0201 21:41:13.746485  7708 net.cpp:408] detection_accuracy_1_7x7 -> boxiou_1_7x7
I0201 21:41:13.746551  7708 net.cpp:150] Setting up detection_accuracy_1_7x7
I0201 21:41:13.746562  7708 net.cpp:157] Top shape: 1 1 1 2 (2)
I0201 21:41:13.746568  7708 net.cpp:157] Top shape: 1 1 1 1 (1)
I0201 21:41:13.746572  7708 net.cpp:165] Memory required for data: 3033577768
I0201 21:41:13.746577  7708 layer_factory.hpp:77] Creating layer pool4
I0201 21:41:13.746587  7708 net.cpp:100] Creating Layer pool4
I0201 21:41:13.746592  7708 net.cpp:434] pool4 <- conv4_3_relu4_3_0_split_1
I0201 21:41:13.746601  7708 net.cpp:408] pool4 -> pool4
I0201 21:41:13.746661  7708 net.cpp:150] Setting up pool4
I0201 21:41:13.746676  7708 net.cpp:157] Top shape: 2 512 48 48 (2359296)
I0201 21:41:13.746680  7708 net.cpp:165] Memory required for data: 3043014952
I0201 21:41:13.746685  7708 layer_factory.hpp:77] Creating layer ch4_pool4
I0201 21:41:13.746695  7708 net.cpp:100] Creating Layer ch4_pool4
I0201 21:41:13.746701  7708 net.cpp:434] ch4_pool4 <- ch4_pool3_ch4_pool3_0_split_1
I0201 21:41:13.746708  7708 net.cpp:408] ch4_pool4 -> ch4_pool4
I0201 21:41:13.746773  7708 net.cpp:150] Setting up ch4_pool4
I0201 21:41:13.746783  7708 net.cpp:157] Top shape: 2 1 48 48 (4608)
I0201 21:41:13.746786  7708 net.cpp:165] Memory required for data: 3043033384
I0201 21:41:13.746789  7708 layer_factory.hpp:77] Creating layer ch4_pool4_ch4_pool4_0_split
I0201 21:41:13.746796  7708 net.cpp:100] Creating Layer ch4_pool4_ch4_pool4_0_split
I0201 21:41:13.746799  7708 net.cpp:434] ch4_pool4_ch4_pool4_0_split <- ch4_pool4
I0201 21:41:13.746804  7708 net.cpp:408] ch4_pool4_ch4_pool4_0_split -> ch4_pool4_ch4_pool4_0_split_0
I0201 21:41:13.746810  7708 net.cpp:408] ch4_pool4_ch4_pool4_0_split -> ch4_pool4_ch4_pool4_0_split_1
I0201 21:41:13.746851  7708 net.cpp:150] Setting up ch4_pool4_ch4_pool4_0_split
I0201 21:41:13.746857  7708 net.cpp:157] Top shape: 2 1 48 48 (4608)
I0201 21:41:13.746861  7708 net.cpp:157] Top shape: 2 1 48 48 (4608)
I0201 21:41:13.746865  7708 net.cpp:165] Memory required for data: 3043070248
I0201 21:41:13.746868  7708 layer_factory.hpp:77] Creating layer pool4_concat
I0201 21:41:13.746873  7708 net.cpp:100] Creating Layer pool4_concat
I0201 21:41:13.746877  7708 net.cpp:434] pool4_concat <- pool4
I0201 21:41:13.746881  7708 net.cpp:434] pool4_concat <- ch4_pool4_ch4_pool4_0_split_0
I0201 21:41:13.746887  7708 net.cpp:408] pool4_concat -> pool4_new
I0201 21:41:13.746908  7708 net.cpp:150] Setting up pool4_concat
I0201 21:41:13.746913  7708 net.cpp:157] Top shape: 2 513 48 48 (2363904)
I0201 21:41:13.746917  7708 net.cpp:165] Memory required for data: 3052525864
I0201 21:41:13.746919  7708 layer_factory.hpp:77] Creating layer conv5_1_new
I0201 21:41:13.746927  7708 net.cpp:100] Creating Layer conv5_1_new
I0201 21:41:13.746932  7708 net.cpp:434] conv5_1_new <- pool4_new
I0201 21:41:13.746937  7708 net.cpp:408] conv5_1_new -> conv5_1
I0201 21:41:13.754621  7708 net.cpp:150] Setting up conv5_1_new
I0201 21:41:13.754652  7708 net.cpp:157] Top shape: 2 512 48 48 (2359296)
I0201 21:41:13.754655  7708 net.cpp:165] Memory required for data: 3061963048
I0201 21:41:13.754667  7708 layer_factory.hpp:77] Creating layer relu5_1
I0201 21:41:13.754679  7708 net.cpp:100] Creating Layer relu5_1
I0201 21:41:13.754688  7708 net.cpp:434] relu5_1 <- conv5_1
I0201 21:41:13.754693  7708 net.cpp:395] relu5_1 -> conv5_1 (in-place)
I0201 21:41:13.754868  7708 net.cpp:150] Setting up relu5_1
I0201 21:41:13.754876  7708 net.cpp:157] Top shape: 2 512 48 48 (2359296)
I0201 21:41:13.754880  7708 net.cpp:165] Memory required for data: 3071400232
I0201 21:41:13.754884  7708 layer_factory.hpp:77] Creating layer conv5_2
I0201 21:41:13.754894  7708 net.cpp:100] Creating Layer conv5_2
I0201 21:41:13.754899  7708 net.cpp:434] conv5_2 <- conv5_1
I0201 21:41:13.754904  7708 net.cpp:408] conv5_2 -> conv5_2
I0201 21:41:13.762058  7708 net.cpp:150] Setting up conv5_2
I0201 21:41:13.762085  7708 net.cpp:157] Top shape: 2 512 48 48 (2359296)
I0201 21:41:13.762090  7708 net.cpp:165] Memory required for data: 3080837416
I0201 21:41:13.762100  7708 layer_factory.hpp:77] Creating layer relu5_2
I0201 21:41:13.762112  7708 net.cpp:100] Creating Layer relu5_2
I0201 21:41:13.762118  7708 net.cpp:434] relu5_2 <- conv5_2
I0201 21:41:13.762128  7708 net.cpp:395] relu5_2 -> conv5_2 (in-place)
I0201 21:41:13.762339  7708 net.cpp:150] Setting up relu5_2
I0201 21:41:13.762349  7708 net.cpp:157] Top shape: 2 512 48 48 (2359296)
I0201 21:41:13.762353  7708 net.cpp:165] Memory required for data: 3090274600
I0201 21:41:13.762357  7708 layer_factory.hpp:77] Creating layer conv5_3
I0201 21:41:13.762368  7708 net.cpp:100] Creating Layer conv5_3
I0201 21:41:13.762373  7708 net.cpp:434] conv5_3 <- conv5_2
I0201 21:41:13.762380  7708 net.cpp:408] conv5_3 -> conv5_3
I0201 21:41:13.769939  7708 net.cpp:150] Setting up conv5_3
I0201 21:41:13.769966  7708 net.cpp:157] Top shape: 2 512 48 48 (2359296)
I0201 21:41:13.769970  7708 net.cpp:165] Memory required for data: 3099711784
I0201 21:41:13.769979  7708 layer_factory.hpp:77] Creating layer relu5_3
I0201 21:41:13.769991  7708 net.cpp:100] Creating Layer relu5_3
I0201 21:41:13.769999  7708 net.cpp:434] relu5_3 <- conv5_3
I0201 21:41:13.770004  7708 net.cpp:395] relu5_3 -> conv5_3 (in-place)
I0201 21:41:13.770170  7708 net.cpp:150] Setting up relu5_3
I0201 21:41:13.770179  7708 net.cpp:157] Top shape: 2 512 48 48 (2359296)
I0201 21:41:13.770182  7708 net.cpp:165] Memory required for data: 3109148968
I0201 21:41:13.770185  7708 layer_factory.hpp:77] Creating layer conv5_3_relu5_3_0_split
I0201 21:41:13.770193  7708 net.cpp:100] Creating Layer conv5_3_relu5_3_0_split
I0201 21:41:13.770196  7708 net.cpp:434] conv5_3_relu5_3_0_split <- conv5_3
I0201 21:41:13.770201  7708 net.cpp:408] conv5_3_relu5_3_0_split -> conv5_3_relu5_3_0_split_0
I0201 21:41:13.770207  7708 net.cpp:408] conv5_3_relu5_3_0_split -> conv5_3_relu5_3_0_split_1
I0201 21:41:13.770212  7708 net.cpp:408] conv5_3_relu5_3_0_split -> conv5_3_relu5_3_0_split_2
I0201 21:41:13.770264  7708 net.cpp:150] Setting up conv5_3_relu5_3_0_split
I0201 21:41:13.770272  7708 net.cpp:157] Top shape: 2 512 48 48 (2359296)
I0201 21:41:13.770275  7708 net.cpp:157] Top shape: 2 512 48 48 (2359296)
I0201 21:41:13.770279  7708 net.cpp:157] Top shape: 2 512 48 48 (2359296)
I0201 21:41:13.770282  7708 net.cpp:165] Memory required for data: 3137460520
I0201 21:41:13.770285  7708 layer_factory.hpp:77] Creating layer LFCN_2_5x5
I0201 21:41:13.770303  7708 net.cpp:100] Creating Layer LFCN_2_5x5
I0201 21:41:13.770308  7708 net.cpp:434] LFCN_2_5x5 <- conv5_3_relu5_3_0_split_0
I0201 21:41:13.770315  7708 net.cpp:408] LFCN_2_5x5 -> LFCN_2_5x5
I0201 21:41:13.774397  7708 net.cpp:150] Setting up LFCN_2_5x5
I0201 21:41:13.774410  7708 net.cpp:157] Top shape: 2 9 48 48 (41472)
I0201 21:41:13.774415  7708 net.cpp:165] Memory required for data: 3137626408
I0201 21:41:13.774426  7708 layer_factory.hpp:77] Creating layer LFCN_2_5x5_LFCN_2_5x5_0_split
I0201 21:41:13.774432  7708 net.cpp:100] Creating Layer LFCN_2_5x5_LFCN_2_5x5_0_split
I0201 21:41:13.774436  7708 net.cpp:434] LFCN_2_5x5_LFCN_2_5x5_0_split <- LFCN_2_5x5
I0201 21:41:13.774441  7708 net.cpp:408] LFCN_2_5x5_LFCN_2_5x5_0_split -> LFCN_2_5x5_LFCN_2_5x5_0_split_0
I0201 21:41:13.774447  7708 net.cpp:408] LFCN_2_5x5_LFCN_2_5x5_0_split -> LFCN_2_5x5_LFCN_2_5x5_0_split_1
I0201 21:41:13.774485  7708 net.cpp:150] Setting up LFCN_2_5x5_LFCN_2_5x5_0_split
I0201 21:41:13.774492  7708 net.cpp:157] Top shape: 2 9 48 48 (41472)
I0201 21:41:13.774497  7708 net.cpp:157] Top shape: 2 9 48 48 (41472)
I0201 21:41:13.774499  7708 net.cpp:165] Memory required for data: 3137958184
I0201 21:41:13.774502  7708 layer_factory.hpp:77] Creating layer detection_loss_2_5x5
I0201 21:41:13.774509  7708 net.cpp:100] Creating Layer detection_loss_2_5x5
I0201 21:41:13.774513  7708 net.cpp:434] detection_loss_2_5x5 <- LFCN_2_5x5_LFCN_2_5x5_0_split_0
I0201 21:41:13.774518  7708 net.cpp:434] detection_loss_2_5x5 <- label_2_5x5_data_3_split_0
I0201 21:41:13.774524  7708 net.cpp:408] detection_loss_2_5x5 -> loss_2_5x5
I0201 21:41:13.774533  7708 layer_factory.hpp:77] Creating layer detection_loss_2_5x5
I0201 21:41:13.774870  7708 net.cpp:150] Setting up detection_loss_2_5x5
I0201 21:41:13.774879  7708 net.cpp:157] Top shape: 1 1 1 2 (2)
I0201 21:41:13.774883  7708 net.cpp:160]     with loss weight 1
I0201 21:41:13.774893  7708 net.cpp:165] Memory required for data: 3137958192
I0201 21:41:13.774896  7708 layer_factory.hpp:77] Creating layer detection_accuracy_2_5x5
I0201 21:41:13.774902  7708 net.cpp:100] Creating Layer detection_accuracy_2_5x5
I0201 21:41:13.774905  7708 net.cpp:434] detection_accuracy_2_5x5 <- LFCN_2_5x5_LFCN_2_5x5_0_split_1
I0201 21:41:13.774910  7708 net.cpp:434] detection_accuracy_2_5x5 <- label_2_5x5_data_3_split_1
I0201 21:41:13.774916  7708 net.cpp:408] detection_accuracy_2_5x5 -> accuracy_2_5x5
I0201 21:41:13.774922  7708 net.cpp:408] detection_accuracy_2_5x5 -> boxiou_2_5x5
I0201 21:41:13.774961  7708 net.cpp:150] Setting up detection_accuracy_2_5x5
I0201 21:41:13.774967  7708 net.cpp:157] Top shape: 1 1 1 2 (2)
I0201 21:41:13.774972  7708 net.cpp:157] Top shape: 1 1 1 1 (1)
I0201 21:41:13.774976  7708 net.cpp:165] Memory required for data: 3137958204
I0201 21:41:13.774978  7708 layer_factory.hpp:77] Creating layer LFCN_2_7x7
I0201 21:41:13.774987  7708 net.cpp:100] Creating Layer LFCN_2_7x7
I0201 21:41:13.774991  7708 net.cpp:434] LFCN_2_7x7 <- conv5_3_relu5_3_0_split_1
I0201 21:41:13.774998  7708 net.cpp:408] LFCN_2_7x7 -> LFCN_2_7x7
I0201 21:41:13.783212  7708 net.cpp:150] Setting up LFCN_2_7x7
I0201 21:41:13.783262  7708 net.cpp:157] Top shape: 2 9 48 48 (41472)
I0201 21:41:13.783267  7708 net.cpp:165] Memory required for data: 3138124092
I0201 21:41:13.783282  7708 layer_factory.hpp:77] Creating layer LFCN_2_7x7_LFCN_2_7x7_0_split
I0201 21:41:13.783298  7708 net.cpp:100] Creating Layer LFCN_2_7x7_LFCN_2_7x7_0_split
I0201 21:41:13.783308  7708 net.cpp:434] LFCN_2_7x7_LFCN_2_7x7_0_split <- LFCN_2_7x7
I0201 21:41:13.783318  7708 net.cpp:408] LFCN_2_7x7_LFCN_2_7x7_0_split -> LFCN_2_7x7_LFCN_2_7x7_0_split_0
I0201 21:41:13.783329  7708 net.cpp:408] LFCN_2_7x7_LFCN_2_7x7_0_split -> LFCN_2_7x7_LFCN_2_7x7_0_split_1
I0201 21:41:13.783372  7708 net.cpp:150] Setting up LFCN_2_7x7_LFCN_2_7x7_0_split
I0201 21:41:13.783377  7708 net.cpp:157] Top shape: 2 9 48 48 (41472)
I0201 21:41:13.783381  7708 net.cpp:157] Top shape: 2 9 48 48 (41472)
I0201 21:41:13.783385  7708 net.cpp:165] Memory required for data: 3138455868
I0201 21:41:13.783387  7708 layer_factory.hpp:77] Creating layer detection_loss_2_7x7
I0201 21:41:13.783398  7708 net.cpp:100] Creating Layer detection_loss_2_7x7
I0201 21:41:13.783401  7708 net.cpp:434] detection_loss_2_7x7 <- LFCN_2_7x7_LFCN_2_7x7_0_split_0
I0201 21:41:13.783408  7708 net.cpp:434] detection_loss_2_7x7 <- label_2_7x7_data_4_split_0
I0201 21:41:13.783417  7708 net.cpp:408] detection_loss_2_7x7 -> loss_2_7x7
I0201 21:41:13.783429  7708 layer_factory.hpp:77] Creating layer detection_loss_2_7x7
I0201 21:41:13.783839  7708 net.cpp:150] Setting up detection_loss_2_7x7
I0201 21:41:13.783855  7708 net.cpp:157] Top shape: 1 1 1 2 (2)
I0201 21:41:13.783859  7708 net.cpp:160]     with loss weight 1
I0201 21:41:13.783879  7708 net.cpp:165] Memory required for data: 3138455876
I0201 21:41:13.783884  7708 layer_factory.hpp:77] Creating layer detection_accuracy_2_7x7
I0201 21:41:13.783892  7708 net.cpp:100] Creating Layer detection_accuracy_2_7x7
I0201 21:41:13.783896  7708 net.cpp:434] detection_accuracy_2_7x7 <- LFCN_2_7x7_LFCN_2_7x7_0_split_1
I0201 21:41:13.783900  7708 net.cpp:434] detection_accuracy_2_7x7 <- label_2_7x7_data_4_split_1
I0201 21:41:13.783908  7708 net.cpp:408] detection_accuracy_2_7x7 -> accuracy_2_7x7
I0201 21:41:13.783915  7708 net.cpp:408] detection_accuracy_2_7x7 -> boxiou_2_7x7
I0201 21:41:13.783964  7708 net.cpp:150] Setting up detection_accuracy_2_7x7
I0201 21:41:13.783970  7708 net.cpp:157] Top shape: 1 1 1 2 (2)
I0201 21:41:13.783974  7708 net.cpp:157] Top shape: 1 1 1 1 (1)
I0201 21:41:13.783977  7708 net.cpp:165] Memory required for data: 3138455888
I0201 21:41:13.783982  7708 layer_factory.hpp:77] Creating layer pool5
I0201 21:41:13.783989  7708 net.cpp:100] Creating Layer pool5
I0201 21:41:13.783995  7708 net.cpp:434] pool5 <- conv5_3_relu5_3_0_split_2
I0201 21:41:13.784003  7708 net.cpp:408] pool5 -> pool5
I0201 21:41:13.784041  7708 net.cpp:150] Setting up pool5
I0201 21:41:13.784047  7708 net.cpp:157] Top shape: 2 512 24 24 (589824)
I0201 21:41:13.784051  7708 net.cpp:165] Memory required for data: 3140815184
I0201 21:41:13.784055  7708 layer_factory.hpp:77] Creating layer ch4_pool5
I0201 21:41:13.784060  7708 net.cpp:100] Creating Layer ch4_pool5
I0201 21:41:13.784065  7708 net.cpp:434] ch4_pool5 <- ch4_pool4_ch4_pool4_0_split_1
I0201 21:41:13.784070  7708 net.cpp:408] ch4_pool5 -> ch4_pool5
I0201 21:41:13.784106  7708 net.cpp:150] Setting up ch4_pool5
I0201 21:41:13.784112  7708 net.cpp:157] Top shape: 2 1 24 24 (1152)
I0201 21:41:13.784116  7708 net.cpp:165] Memory required for data: 3140819792
I0201 21:41:13.784118  7708 layer_factory.hpp:77] Creating layer pool5_concat
I0201 21:41:13.784126  7708 net.cpp:100] Creating Layer pool5_concat
I0201 21:41:13.784129  7708 net.cpp:434] pool5_concat <- pool5
I0201 21:41:13.784133  7708 net.cpp:434] pool5_concat <- ch4_pool5
I0201 21:41:13.784137  7708 net.cpp:408] pool5_concat -> pool5_new
I0201 21:41:13.784166  7708 net.cpp:150] Setting up pool5_concat
I0201 21:41:13.784173  7708 net.cpp:157] Top shape: 2 513 24 24 (590976)
I0201 21:41:13.784178  7708 net.cpp:165] Memory required for data: 3143183696
I0201 21:41:13.784181  7708 layer_factory.hpp:77] Creating layer conv6_1_new
I0201 21:41:13.784198  7708 net.cpp:100] Creating Layer conv6_1_new
I0201 21:41:13.784202  7708 net.cpp:434] conv6_1_new <- pool5_new
I0201 21:41:13.784210  7708 net.cpp:408] conv6_1_new -> conv6_1
I0201 21:41:13.849699  7708 net.cpp:150] Setting up conv6_1_new
I0201 21:41:13.849728  7708 net.cpp:157] Top shape: 2 512 24 24 (589824)
I0201 21:41:13.849732  7708 net.cpp:165] Memory required for data: 3145542992
I0201 21:41:13.849740  7708 layer_factory.hpp:77] Creating layer relu6_1
I0201 21:41:13.849752  7708 net.cpp:100] Creating Layer relu6_1
I0201 21:41:13.849758  7708 net.cpp:434] relu6_1 <- conv6_1
I0201 21:41:13.849763  7708 net.cpp:395] relu6_1 -> conv6_1 (in-place)
I0201 21:41:13.850277  7708 net.cpp:150] Setting up relu6_1
I0201 21:41:13.850289  7708 net.cpp:157] Top shape: 2 512 24 24 (589824)
I0201 21:41:13.850293  7708 net.cpp:165] Memory required for data: 3147902288
I0201 21:41:13.850296  7708 layer_factory.hpp:77] Creating layer conv6_1_relu6_1_0_split
I0201 21:41:13.850303  7708 net.cpp:100] Creating Layer conv6_1_relu6_1_0_split
I0201 21:41:13.850306  7708 net.cpp:434] conv6_1_relu6_1_0_split <- conv6_1
I0201 21:41:13.850311  7708 net.cpp:408] conv6_1_relu6_1_0_split -> conv6_1_relu6_1_0_split_0
I0201 21:41:13.850319  7708 net.cpp:408] conv6_1_relu6_1_0_split -> conv6_1_relu6_1_0_split_1
I0201 21:41:13.850327  7708 net.cpp:408] conv6_1_relu6_1_0_split -> conv6_1_relu6_1_0_split_2
I0201 21:41:13.850380  7708 net.cpp:150] Setting up conv6_1_relu6_1_0_split
I0201 21:41:13.850389  7708 net.cpp:157] Top shape: 2 512 24 24 (589824)
I0201 21:41:13.850394  7708 net.cpp:157] Top shape: 2 512 24 24 (589824)
I0201 21:41:13.850397  7708 net.cpp:157] Top shape: 2 512 24 24 (589824)
I0201 21:41:13.850399  7708 net.cpp:165] Memory required for data: 3154980176
I0201 21:41:13.850404  7708 layer_factory.hpp:77] Creating layer LFCN_3_5x5
I0201 21:41:13.850414  7708 net.cpp:100] Creating Layer LFCN_3_5x5
I0201 21:41:13.850419  7708 net.cpp:434] LFCN_3_5x5 <- conv6_1_relu6_1_0_split_0
I0201 21:41:13.850425  7708 net.cpp:408] LFCN_3_5x5 -> LFCN_3_5x5
I0201 21:41:13.854809  7708 net.cpp:150] Setting up LFCN_3_5x5
I0201 21:41:13.854835  7708 net.cpp:157] Top shape: 2 9 24 24 (10368)
I0201 21:41:13.854840  7708 net.cpp:165] Memory required for data: 3155021648
I0201 21:41:13.854847  7708 layer_factory.hpp:77] Creating layer LFCN_3_5x5_LFCN_3_5x5_0_split
I0201 21:41:13.854856  7708 net.cpp:100] Creating Layer LFCN_3_5x5_LFCN_3_5x5_0_split
I0201 21:41:13.854862  7708 net.cpp:434] LFCN_3_5x5_LFCN_3_5x5_0_split <- LFCN_3_5x5
I0201 21:41:13.854868  7708 net.cpp:408] LFCN_3_5x5_LFCN_3_5x5_0_split -> LFCN_3_5x5_LFCN_3_5x5_0_split_0
I0201 21:41:13.854878  7708 net.cpp:408] LFCN_3_5x5_LFCN_3_5x5_0_split -> LFCN_3_5x5_LFCN_3_5x5_0_split_1
I0201 21:41:13.854920  7708 net.cpp:150] Setting up LFCN_3_5x5_LFCN_3_5x5_0_split
I0201 21:41:13.854926  7708 net.cpp:157] Top shape: 2 9 24 24 (10368)
I0201 21:41:13.854931  7708 net.cpp:157] Top shape: 2 9 24 24 (10368)
I0201 21:41:13.854933  7708 net.cpp:165] Memory required for data: 3155104592
I0201 21:41:13.854938  7708 layer_factory.hpp:77] Creating layer detection_loss_3_5x5
I0201 21:41:13.854944  7708 net.cpp:100] Creating Layer detection_loss_3_5x5
I0201 21:41:13.854948  7708 net.cpp:434] detection_loss_3_5x5 <- LFCN_3_5x5_LFCN_3_5x5_0_split_0
I0201 21:41:13.854954  7708 net.cpp:434] detection_loss_3_5x5 <- label_3_5x5_data_5_split_0
I0201 21:41:13.854960  7708 net.cpp:408] detection_loss_3_5x5 -> loss_3_5x5
I0201 21:41:13.854969  7708 layer_factory.hpp:77] Creating layer detection_loss_3_5x5
I0201 21:41:13.855309  7708 net.cpp:150] Setting up detection_loss_3_5x5
I0201 21:41:13.855319  7708 net.cpp:157] Top shape: 1 1 1 2 (2)
I0201 21:41:13.855324  7708 net.cpp:160]     with loss weight 1
I0201 21:41:13.855334  7708 net.cpp:165] Memory required for data: 3155104600
I0201 21:41:13.855337  7708 layer_factory.hpp:77] Creating layer detection_accuracy_3_5x5
I0201 21:41:13.855343  7708 net.cpp:100] Creating Layer detection_accuracy_3_5x5
I0201 21:41:13.855348  7708 net.cpp:434] detection_accuracy_3_5x5 <- LFCN_3_5x5_LFCN_3_5x5_0_split_1
I0201 21:41:13.855353  7708 net.cpp:434] detection_accuracy_3_5x5 <- label_3_5x5_data_5_split_1
I0201 21:41:13.855360  7708 net.cpp:408] detection_accuracy_3_5x5 -> accuracy_3_5x5
I0201 21:41:13.855366  7708 net.cpp:408] detection_accuracy_3_5x5 -> boxiou_3_5x5
I0201 21:41:13.855412  7708 net.cpp:150] Setting up detection_accuracy_3_5x5
I0201 21:41:13.855418  7708 net.cpp:157] Top shape: 1 1 1 2 (2)
I0201 21:41:13.855422  7708 net.cpp:157] Top shape: 1 1 1 1 (1)
I0201 21:41:13.855425  7708 net.cpp:165] Memory required for data: 3155104612
I0201 21:41:13.855428  7708 layer_factory.hpp:77] Creating layer LFCN_3_7x7
I0201 21:41:13.855439  7708 net.cpp:100] Creating Layer LFCN_3_7x7
I0201 21:41:13.855445  7708 net.cpp:434] LFCN_3_7x7 <- conv6_1_relu6_1_0_split_1
I0201 21:41:13.855451  7708 net.cpp:408] LFCN_3_7x7 -> LFCN_3_7x7
I0201 21:41:13.863386  7708 net.cpp:150] Setting up LFCN_3_7x7
I0201 21:41:13.863405  7708 net.cpp:157] Top shape: 2 9 24 24 (10368)
I0201 21:41:13.863409  7708 net.cpp:165] Memory required for data: 3155146084
I0201 21:41:13.863417  7708 layer_factory.hpp:77] Creating layer LFCN_3_7x7_LFCN_3_7x7_0_split
I0201 21:41:13.863425  7708 net.cpp:100] Creating Layer LFCN_3_7x7_LFCN_3_7x7_0_split
I0201 21:41:13.863430  7708 net.cpp:434] LFCN_3_7x7_LFCN_3_7x7_0_split <- LFCN_3_7x7
I0201 21:41:13.863435  7708 net.cpp:408] LFCN_3_7x7_LFCN_3_7x7_0_split -> LFCN_3_7x7_LFCN_3_7x7_0_split_0
I0201 21:41:13.863442  7708 net.cpp:408] LFCN_3_7x7_LFCN_3_7x7_0_split -> LFCN_3_7x7_LFCN_3_7x7_0_split_1
I0201 21:41:13.863485  7708 net.cpp:150] Setting up LFCN_3_7x7_LFCN_3_7x7_0_split
I0201 21:41:13.863492  7708 net.cpp:157] Top shape: 2 9 24 24 (10368)
I0201 21:41:13.863497  7708 net.cpp:157] Top shape: 2 9 24 24 (10368)
I0201 21:41:13.863500  7708 net.cpp:165] Memory required for data: 3155229028
I0201 21:41:13.863504  7708 layer_factory.hpp:77] Creating layer detection_loss_3_7x7
I0201 21:41:13.863509  7708 net.cpp:100] Creating Layer detection_loss_3_7x7
I0201 21:41:13.863514  7708 net.cpp:434] detection_loss_3_7x7 <- LFCN_3_7x7_LFCN_3_7x7_0_split_0
I0201 21:41:13.863518  7708 net.cpp:434] detection_loss_3_7x7 <- label_3_7x7_data_6_split_0
I0201 21:41:13.863525  7708 net.cpp:408] detection_loss_3_7x7 -> loss_3_7x7
I0201 21:41:13.863534  7708 layer_factory.hpp:77] Creating layer detection_loss_3_7x7
I0201 21:41:13.863871  7708 net.cpp:150] Setting up detection_loss_3_7x7
I0201 21:41:13.863880  7708 net.cpp:157] Top shape: 1 1 1 2 (2)
I0201 21:41:13.863883  7708 net.cpp:160]     with loss weight 1
I0201 21:41:13.863891  7708 net.cpp:165] Memory required for data: 3155229036
I0201 21:41:13.863894  7708 layer_factory.hpp:77] Creating layer detection_accuracy_3_7x7
I0201 21:41:13.863901  7708 net.cpp:100] Creating Layer detection_accuracy_3_7x7
I0201 21:41:13.863905  7708 net.cpp:434] detection_accuracy_3_7x7 <- LFCN_3_7x7_LFCN_3_7x7_0_split_1
I0201 21:41:13.863909  7708 net.cpp:434] detection_accuracy_3_7x7 <- label_3_7x7_data_6_split_1
I0201 21:41:13.863915  7708 net.cpp:408] detection_accuracy_3_7x7 -> accuracy_3_7x7
I0201 21:41:13.863922  7708 net.cpp:408] detection_accuracy_3_7x7 -> boxiou_3_7x7
I0201 21:41:13.863965  7708 net.cpp:150] Setting up detection_accuracy_3_7x7
I0201 21:41:13.863970  7708 net.cpp:157] Top shape: 1 1 1 2 (2)
I0201 21:41:13.863975  7708 net.cpp:157] Top shape: 1 1 1 1 (1)
I0201 21:41:13.863977  7708 net.cpp:165] Memory required for data: 3155229048
I0201 21:41:13.863981  7708 layer_factory.hpp:77] Creating layer pool6
I0201 21:41:13.863987  7708 net.cpp:100] Creating Layer pool6
I0201 21:41:13.863992  7708 net.cpp:434] pool6 <- conv6_1_relu6_1_0_split_2
I0201 21:41:13.863997  7708 net.cpp:408] pool6 -> pool6
I0201 21:41:13.864035  7708 net.cpp:150] Setting up pool6
I0201 21:41:13.864042  7708 net.cpp:157] Top shape: 2 512 12 12 (147456)
I0201 21:41:13.864044  7708 net.cpp:165] Memory required for data: 3155818872
I0201 21:41:13.864048  7708 layer_factory.hpp:77] Creating layer LFCN_4_5x5
I0201 21:41:13.864056  7708 net.cpp:100] Creating Layer LFCN_4_5x5
I0201 21:41:13.864059  7708 net.cpp:434] LFCN_4_5x5 <- pool6
I0201 21:41:13.864065  7708 net.cpp:408] LFCN_4_5x5 -> LFCN_4_5x5
I0201 21:41:13.868111  7708 net.cpp:150] Setting up LFCN_4_5x5
I0201 21:41:13.868124  7708 net.cpp:157] Top shape: 2 9 12 12 (2592)
I0201 21:41:13.868127  7708 net.cpp:165] Memory required for data: 3155829240
I0201 21:41:13.868134  7708 layer_factory.hpp:77] Creating layer LFCN_4_5x5_LFCN_4_5x5_0_split
I0201 21:41:13.868139  7708 net.cpp:100] Creating Layer LFCN_4_5x5_LFCN_4_5x5_0_split
I0201 21:41:13.868142  7708 net.cpp:434] LFCN_4_5x5_LFCN_4_5x5_0_split <- LFCN_4_5x5
I0201 21:41:13.868147  7708 net.cpp:408] LFCN_4_5x5_LFCN_4_5x5_0_split -> LFCN_4_5x5_LFCN_4_5x5_0_split_0
I0201 21:41:13.868154  7708 net.cpp:408] LFCN_4_5x5_LFCN_4_5x5_0_split -> LFCN_4_5x5_LFCN_4_5x5_0_split_1
I0201 21:41:13.868187  7708 net.cpp:150] Setting up LFCN_4_5x5_LFCN_4_5x5_0_split
I0201 21:41:13.868192  7708 net.cpp:157] Top shape: 2 9 12 12 (2592)
I0201 21:41:13.868196  7708 net.cpp:157] Top shape: 2 9 12 12 (2592)
I0201 21:41:13.868198  7708 net.cpp:165] Memory required for data: 3155849976
I0201 21:41:13.868201  7708 layer_factory.hpp:77] Creating layer detection_loss_4_5x5
I0201 21:41:13.868206  7708 net.cpp:100] Creating Layer detection_loss_4_5x5
I0201 21:41:13.868211  7708 net.cpp:434] detection_loss_4_5x5 <- LFCN_4_5x5_LFCN_4_5x5_0_split_0
I0201 21:41:13.868214  7708 net.cpp:434] detection_loss_4_5x5 <- label_4_5x5_data_7_split_0
I0201 21:41:13.868218  7708 net.cpp:408] detection_loss_4_5x5 -> loss_4_5x5
I0201 21:41:13.868227  7708 layer_factory.hpp:77] Creating layer detection_loss_4_5x5
I0201 21:41:13.868559  7708 net.cpp:150] Setting up detection_loss_4_5x5
I0201 21:41:13.868568  7708 net.cpp:157] Top shape: 1 1 1 2 (2)
I0201 21:41:13.868571  7708 net.cpp:160]     with loss weight 1
I0201 21:41:13.868577  7708 net.cpp:165] Memory required for data: 3155849984
I0201 21:41:13.868580  7708 layer_factory.hpp:77] Creating layer detection_accuracy_4_5x5
I0201 21:41:13.868585  7708 net.cpp:100] Creating Layer detection_accuracy_4_5x5
I0201 21:41:13.868589  7708 net.cpp:434] detection_accuracy_4_5x5 <- LFCN_4_5x5_LFCN_4_5x5_0_split_1
I0201 21:41:13.868593  7708 net.cpp:434] detection_accuracy_4_5x5 <- label_4_5x5_data_7_split_1
I0201 21:41:13.868599  7708 net.cpp:408] detection_accuracy_4_5x5 -> accuracy_4_5x5
I0201 21:41:13.868605  7708 net.cpp:408] detection_accuracy_4_5x5 -> boxiou_4_5x5
I0201 21:41:13.868644  7708 net.cpp:150] Setting up detection_accuracy_4_5x5
I0201 21:41:13.868650  7708 net.cpp:157] Top shape: 1 1 1 2 (2)
I0201 21:41:13.868654  7708 net.cpp:157] Top shape: 1 1 1 1 (1)
I0201 21:41:13.868657  7708 net.cpp:165] Memory required for data: 3155849996
I0201 21:41:13.868661  7708 net.cpp:228] detection_accuracy_4_5x5 does not need backward computation.
I0201 21:41:13.868664  7708 net.cpp:226] detection_loss_4_5x5 needs backward computation.
I0201 21:41:13.868669  7708 net.cpp:226] LFCN_4_5x5_LFCN_4_5x5_0_split needs backward computation.
I0201 21:41:13.868671  7708 net.cpp:226] LFCN_4_5x5 needs backward computation.
…
