…
    downsample_rate: 32
    downsample_rate: 32
    downsample_rate: 64
    coord_num: 4
    field_h: 60
    field_h: 84
    field_h: 120
    field_h: 168
    field_h: 240
    field_h: 336
    field_h: 480
    field_w: 60
    field_w: 84
    field_w: 120
    field_w: 168
    field_w: 240
    field_w: 336
    field_w: 480
    fg_threshold: 0.5
    resize_width: 1344
    resize_height: 768
    crop_width: 768
    crop_height: 768
    do_multiple_scale: true
    min_scale: 60
    max_scale: 480
    min_gt_height: 25
    shuffle: true
    output_gt_boxes: true
  }
}
layer {
  name: "slice"
  type: "Slice"
  bottom: "data"
  top: "data123"
  top: "ch4"
  slice_param {
    slice_point: 3
    axis: 1
  }
}
layer {
  name: "conv1_1"
  type: "Convolution"
  bottom: "data123"
  top: "conv1_1"
  param {
    lr_mult: 0
    decay_mult: 0
  }
  param {
    lr_mult: 0
    decay_mult: 0
  }
  convolution_param {
    num_output: 64
    pad: 1
    kernel_size: 3
  }
}
layer {
  name: "relu1_1"
  type: "ReLU"
  bottom: "conv1_1"
  top: "conv1_1"
}
layer {
  name: "conv1_2"
  type: "Convolution"
  bottom: "conv1_1"
  top: "conv1_2"
  param {
    lr_mult: 0
    decay_mult: 0
  }
  param {
    lr_mult: 0
    decay_mult: 0
  }
  convolution_param {
    num_output: 64
    pad: 1
    kernel_size: 3
  }
}
layer {
  name: "relu1_2"
  type: "ReLU"
  bottom: "conv1_2"
  top: "conv1_2"
}
layer {
  name: "pool1"
  type: "Pooling"
  bottom: "conv1_2"
  top: "pool1"
  pooling_param {
    pool: MAX
    kernel_size: 2
    stride: 2
  }
}
layer {
  name: "conv2_1"
  type: "Convolution"
  bottom: "pool1"
  top: "conv2_1"
  param {
    lr_mult: 0
    decay_mult: 0
  }
  param {
    lr_mult: 0
    decay_mult: 0
  }
  convolution_param {
    num_output: 128
    pad: 1
    kernel_size: 3
  }
}
layer {
  name: "relu2_1"
  type: "ReLU"
  bottom: "conv2_1"
  top: "conv2_1"
}
layer {
  name: "conv2_2"
  type: "Convolution"
  bottom: "conv2_1"
  top: "conv2_2"
  param {
    lr_mult: 0
    decay_mult: 0
  }
  param {
    lr_mult: 0
    decay_mult: 0
  }
  convolution_param {
    num_output: 128
    pad: 1
    kernel_size: 3
  }
}
layer {
  name: "relu2_2"
  type: "ReLU"
  bottom: "conv2_2"
  top: "conv2_2"
}
layer {
  name: "pool2"
  type: "Pooling"
  bottom: "conv2_2"
  top: "pool2"
  pooling_param {
    pool: MAX
    kernel_size: 2
    stride: 2
  }
}
layer {
  name: "conv3_1"
  type: "Convolution"
  bottom: "pool2"
  top: "conv3_1"
  convolution_param {
    num_output: 256
    pad: 1
    kernel_size: 3
  }
}
layer {
  name: "relu3_1"
  type: "ReLU"
  bottom: "conv3_1"
  top: "conv3_1"
}
layer {
  name: "conv3_2"
  type: "Convolution"
  bottom: "conv3_1"
  top: "conv3_2"
  convolution_param {
    num_output: 256
    pad: 1
    kernel_size: 3
  }
}
layer {
  name: "relu3_2"
  type: "ReLU"
  bottom: "conv3_2"
  top: "conv3_2"
}
layer {
  name: "conv3_3"
  type: "Convolution"
  bottom: "conv3_2"
  top: "conv3_3"
  convolution_param {
    num_output: 256
    pad: 1
    kernel_size: 3
  }
}
layer {
  name: "relu3_3"
  type: "ReLU"
  bottom: "conv3_3"
  top: "conv3_3"
}
layer {
  name: "pool3"
  type: "Pooling"
  bottom: "conv3_3"
  top: "pool3"
  pooling_param {
    pool: MAX
    kernel_size: 2
    stride: 2
  }
}
layer {
  name: "conv4_1"
  type: "Convolution"
  bottom: "pool3"
  top: "conv4_1"
  convolution_param {
    num_output: 512
    pad: 1
    kernel_size: 3
  }
}
layer {
  name: "relu4_1"
  type: "ReLU"
  bottom: "conv4_1"
  top: "conv4_1"
}
layer {
  name: "conv4_2"
  type: "Convolution"
  bottom: "conv4_1"
  top: "conv4_2"
  convolution_param {
    num_output: 512
    pad: 1
    kernel_size: 3
  }
}
layer {
  name: "relu4_2"
  type: "ReLU"
  bottom: "conv4_2"
  top: "conv4_2"
}
layer {
  name: "conv4_3"
  type: "Convolution"
  bottom: "conv4_2"
  top: "conv4_3"
  convolution_param {
    num_output: 512
    pad: 1
    kernel_size: 3
  }
}
layer {
  name: "relu4_3"
  type: "ReLU"
  bottom: "conv4_3"
  top: "conv4_3"
}
layer {
  name: "buffer"
  type: "Convolution"
  bottom: "conv4_3"
  top: "buffer"
  param {
    lr_mult: 1
    decay_mult: 1
  }
  param {
    lr_mult: 2
    decay_mult: 0
  }
  convolution_param {
    num_output: 512
    pad: 1
    kernel_size: 3
    weight_filler {
      type: "gaussian"
      std: 0.01
    }
    bias_filler {
      type: "constant"
    }
  }
}
layer {
  name: "relu_buffer"
  type: "ReLU"
  bottom: "buffer"
  top: "buffer"
}
layer {
  name: "attention"
  type: "Convolution"
  bottom: "buffer"
  top: "attention"
  param {
    lr_mult: 1
    decay_mult: 1
  }
  param {
    lr_mult: 2
    decay_mult: 0
  }
  convolution_param {
    num_output: 2
    pad: 1
    kernel_size: 3
  }
}
layer {
  name: "relu_attention"
  type: "ReLU"
  bottom: "attention"
  top: "attention"
}
layer {
  name: "ch4_pool"
  type: "Pooling"
  bottom: "ch4"
  top: "ch4_pool"
  pooling_param {
    pool: MAX
    kernel_size: 8
    stride: 8
  }
}
layer {
  name: "loss_attention"
  type: "SoftmaxWithLoss"
  bottom: "attention"
  bottom: "ch4_pool"
  top: "loss_attention"
  loss_weight: 1
  propagate_down: true
  propagate_down: false
}
layer {
  name: "loss1_conv1"
  type: "Convolution"
  bottom: "conv4_3"
  top: "loss1_conv1"
  param {
    lr_mult: 1
    decay_mult: 1
  }
  param {
    lr_mult: 2
    decay_mult: 0
  }
  convolution_param {
    num_output: 512
    pad: 1
    kernel_size: 3
    weight_filler {
      type: "gaussian"
      std: 0.01
    }
    bias_filler {
      type: "constant"
    }
  }
}
layer {
  name: "loss_relu1"
  type: "ReLU"
  bottom: "loss1_conv1"
  top: "loss1_conv1"
}
layer {
  name: "LFCN_1_5x5"
  type: "Convolution"
  bottom: "loss1_conv1"
  top: "LFCN_1_5x5"
  param {
    lr_mult: 1
    decay_mult: 1
  }
  param {
    lr_mult: 2
    decay_mult: 0
  }
  convolution_param {
    num_output: 9
    pad: 2
    kernel_size: 5
    weight_filler {
      type: "gaussian"
      std: 0.001
    }
    bias_filler {
      type: "constant"
    }
  }
}
layer {
  name: "detection_loss_1_5x5"
  type: "DetectionLoss"
  bottom: "LFCN_1_5x5"
  bottom: "label_1_5x5"
  top: "loss_1_5x5"
  loss_weight: 0.9
  detection_loss_param {
    cls_num: 5
    coord_num: 4
    lambda: 1
    field_h: 60
    field_w: 60
    downsample_rate: 8
    bb_smooth: true
    field_whr: 2
    field_xyr: 2
    bg_threshold: 0.2
    bg_multiple: 2
    sample_mode: "bootstrap"
    pos_neg_weighted: true
  }
}
layer {
  name: "detection_accuracy_1_5x5"
  type: "DetectionAccuracy"
  bottom: "LFCN_1_5x5"
  bottom: "label_1_5x5"
  top: "accuracy_1_5x5"
  top: "boxiou_1_5x5"
  detection_accuracy_param {
    cls_num: 5
    coord_num: 4
    field_h: 60
    field_w: 60
    downsample_rate: 8
    field_whr: 2
    field_xyr: 2
  }
}
layer {
  name: "LFCN_1_7x7"
  type: "Convolution"
  bottom: "loss1_conv1"
  top: "LFCN_1_7x7"
  param {
    lr_mult: 1
    decay_mult: 1
  }
  param {
    lr_mult: 2
    decay_mult: 0
  }
  convolution_param {
    num_output: 9
    pad: 3
    kernel_size: 7
    weight_filler {
      type: "gaussian"
      std: 0.001
    }
    bias_filler {
      type: "constant"
    }
  }
}
layer {
  name: "detection_loss_1_7x7"
  type: "DetectionLoss"
  bottom: "LFCN_1_7x7"
  bottom: "label_1_7x7"
  top: "loss_1_7x7"
  loss_weight: 0.9
  detection_loss_param {
    cls_num: 5
    coord_num: 4
    lambda: 1
    field_h: 84
    field_w: 84
    downsample_rate: 8
    bb_smooth: true
    field_whr: 2
    field_xyr: 2
    bg_threshold: 0.2
    bg_multiple: 2
    sample_mode: "bootstrap"
    pos_neg_weighted: true
  }
}
layer {
  name: "detection_accuracy_1_7x7"
  type: "DetectionAccuracy"
  bottom: "LFCN_1_7x7"
  bottom: "label_1_7x7"
  top: "accuracy_1_7x7"
  top: "boxiou_1_7x7"
  detection_accuracy_param {
    cls_num: 5
    coord_num: 4
    field_h: 84
    field_w: 84
    downsample_rate: 8
    field_whr: 2
    field_xyr: 2
  }
}
layer {
  name: "pool4"
  type: "Pooling"
  bottom: "conv4_3"
  top: "pool4"
  pooling_param {
    pool: MAX
    kernel_size: 2
    stride: 2
  }
}
layer {
  name: "conv5_1"
  type: "Convolution"
  bottom: "pool4"
  top: "conv5_1"
  convolution_param {
    num_output: 512
    pad: 1
    kernel_size: 3
  }
}
layer {
  name: "relu5_1"
  type: "ReLU"
  bottom: "conv5_1"
  top: "conv5_1"
}
layer {
  name: "conv5_2"
  type: "Convolution"
  bottom: "conv5_1"
  top: "conv5_2"
  convolution_param {
    num_output: 512
    pad: 1
    kernel_size: 3
  }
}
layer {
  name: "relu5_2"
  type: "ReLU"
  bottom: "conv5_2"
  top: "conv5_2"
}
layer {
  name: "conv5_3"
  type: "Convolution"
  bottom: "conv5_2"
  top: "conv5_3"
  convolution_param {
    num_output: 512
    pad: 1
    kernel_size: 3
  }
}
layer {
  name: "relu5_3"
  type: "ReLU"
  bottom: "conv5_3"
  top: "conv5_3"
}
layer {
  name: "LFCN_2_5x5"
  type: "Convolution"
  bottom: "conv5_3"
  top: "LFCN_2_5x5"
  param {
    lr_mult: 1
    decay_mult: 1
  }
  param {
    lr_mult: 2
    decay_mult: 0
  }
  convolution_param {
    num_output: 9
    pad: 2
    kernel_size: 5
    weight_filler {
      type: "gaussian"
      std: 0.001
    }
    bias_filler {
      type: "constant"
    }
  }
}
layer {
  name: "detection_loss_2_5x5"
  type: "DetectionLoss"
  bottom: "LFCN_2_5x5"
  bottom: "label_2_5x5"
  top: "loss_2_5x5"
  detection_loss_param {
    cls_num: 5
    coord_num: 4
    lambda: 1
    field_h: 120
    field_w: 120
    downsample_rate: 16
    bb_smooth: true
    field_whr: 2
    field_xyr: 2
    bg_threshold: 0.2
    bg_multiple: 2
    sample_mode: "bootstrap"
    pos_neg_weighted: true
  }
}
layer {
  name: "detection_accuracy_2_5x5"
  type: "DetectionAccuracy"
  bottom: "LFCN_2_5x5"
  bottom: "label_2_5x5"
  top: "accuracy_2_5x5"
  top: "boxiou_2_5x5"
  detection_accuracy_param {
    cls_num: 5
    coord_num: 4
    field_h: 120
    field_w: 120
    downsample_rate: 16
    field_whr: 2
    field_xyr: 2
  }
}
layer {
  name: "LFCN_2_7x7"
  type: "Convolution"
  bottom: "conv5_3"
  top: "LFCN_2_7x7"
  param {
    lr_mult: 1
    decay_mult: 1
  }
  param {
    lr_mult: 2
    decay_mult: 0
  }
  convolution_param {
    num_output: 9
    pad: 3
    kernel_size: 7
    weight_filler {
      type: "gaussian"
      std: 0.001
    }
    bias_filler {
      type: "constant"
    }
  }
}
layer {
  name: "detection_loss_2_7x7"
  type: "DetectionLoss"
  bottom: "LFCN_2_7x7"
  bottom: "label_2_7x7"
  top: "loss_2_7x7"
  detection_loss_param {
    cls_num: 5
    coord_num: 4
    lambda: 1
    field_h: 168
    field_w: 168
    downsample_rate: 16
    bb_smooth: true
    field_whr: 2
    field_xyr: 2
    bg_threshold: 0.2
    bg_multiple: 2
    sample_mode: "bootstrap"
    pos_neg_weighted: true
  }
}
layer {
  name: "detection_accuracy_2_7x7"
  type: "DetectionAccuracy"
  bottom: "LFCN_2_7x7"
  bottom: "label_2_7x7"
  top: "accuracy_2_7x7"
  top: "boxiou_2_7x7"
  detection_accuracy_param {
    cls_num: 5
    coord_num: 4
    field_h: 168
    field_w: 168
    downsample_rate: 16
    field_whr: 2
    field_xyr: 2
  }
}
layer {
  name: "pool5"
  type: "Pooling"
  bottom: "conv5_3"
  top: "pool5"
  pooling_param {
    pool: MAX
    kernel_size: 2
    stride: 2
  }
}
layer {
  name: "conv6_1"
  type: "Convolution"
  bottom: "pool5"
  top: "conv6_1"
  param {
    lr_mult: 1
    decay_mult: 1
  }
  param {
    lr_mult: 2
    decay_mult: 0
  }
  convolution_param {
    num_output: 512
    pad: 1
    kernel_size: 3
    weight_filler {
      type: "gaussian"
      std: 0.01
    }
    bias_filler {
      type: "constant"
    }
  }
}
layer {
  name: "relu6_1"
  type: "ReLU"
  bottom: "conv6_1"
  top: "conv6_1"
}
layer {
  name: "LFCN_3_5x5"
  type: "Convolution"
  bottom: "conv6_1"
  top: "LFCN_3_5x5"
  param {
    lr_mult: 1
    decay_mult: 1
  }
  param {
    lr_mult: 2
    decay_mult: 0
  }
  convolution_param {
    num_output: 9
    pad: 2
    kernel_size: 5
    weight_filler {
      type: "gaussian"
      std: 0.001
    }
    bias_filler {
      type: "constant"
    }
  }
}
layer {
  name: "detection_loss_3_5x5"
  type: "DetectionLoss"
  bottom: "LFCN_3_5x5"
  bottom: "label_3_5x5"
  top: "loss_3_5x5"
  detection_loss_param {
    cls_num: 5
    coord_num: 4
    lambda: 1
    field_h: 240
    field_w: 240
    downsample_rate: 32
    bb_smooth: true
    field_whr: 2
    field_xyr: 2
    bg_threshold: 0.2
    bg_multiple: 2
    sample_mode: "bootstrap"
    pos_neg_weighted: true
  }
}
layer {
  name: "detection_accuracy_3_5x5"
  type: "DetectionAccuracy"
  bottom: "LFCN_3_5x5"
  bottom: "label_3_5x5"
  top: "accuracy_3_5x5"
  top: "boxiou_3_5x5"
  detection_accuracy_param {
    cls_num: 5
    coord_num: 4
    field_h: 240
    field_w: 240
    downsample_rate: 32
    field_whr: 2
    field_xyr: 2
  }
}
layer {
  name: "LFCN_3_7x7"
  type: "Convolution"
  bottom: "conv6_1"
  top: "LFCN_3_7x7"
  param {
    lr_mult: 1
    decay_mult: 1
  }
  param {
    lr_mult: 2
    decay_mult: 0
  }
  convolution_param {
    num_output: 9
    pad: 3
    kernel_size: 7
    weight_filler {
      type: "gaussian"
      std: 0.001
    }
    bias_filler {
      type: "constant"
    }
  }
}
layer {
  name: "detection_loss_3_7x7"
  type: "DetectionLoss"
  bottom: "LFCN_3_7x7"
  bottom: "label_3_7x7"
  top: "loss_3_7x7"
  detection_loss_param {
    cls_num: 5
    coord_num: 4
    lambda: 1
    field_h: 336
    field_w: 336
    downsample_rate: 32
    bb_smooth: true
    field_whr: 2
    field_xyr: 2
    bg_threshold: 0.2
    bg_multiple: 2
    sample_mode: "bootstrap"
    pos_neg_weighted: true
  }
}
layer {
  name: "detection_accuracy_3_7x7"
  type: "DetectionAccuracy"
  bottom: "LFCN_3_7x7"
  bottom: "label_3_7x7"
  top: "accuracy_3_7x7"
  top: "boxiou_3_7x7"
  detection_accuracy_param {
    cls_num: 5
    coord_num: 4
    field_h: 336
    field_w: 336
    downsample_rate: 32
    field_whr: 2
    field_xyr: 2
  }
}
layer {
  name: "pool6"
  type: "Pooling"
  bottom: "conv6_1"
  top: "pool6"
  pooling_param {
    pool: MAX
    kernel_size: 2
    stride: 2
  }
}
layer {
  name: "LFCN_4_5x5"
  type: "Convolution"
  bottom: "pool6"
  top: "LFCN_4_5x5"
  param {
    lr_mult: 1
    decay_mult: 1
  }
  param {
    lr_mult: 2
    decay_mult: 0
  }
  convolution_param {
    num_output: 9
    pad: 2
    kernel_size: 5
    weight_filler {
      type: "gaussian"
      std: 0.001
    }
    bias_filler {
      type: "constant"
    }
  }
}
layer {
  name: "detection_loss_4_5x5"
  type: "DetectionLoss"
  bottom: "LFCN_4_5x5"
  bottom: "label_4_5x5"
  top: "loss_4_5x5"
  detection_loss_param {
    cls_num: 5
    coord_num: 4
    lambda: 1
    field_h: 480
    field_w: 480
    downsample_rate: 64
    bb_smooth: true
    field_whr: 2
    field_xyr: 2
    bg_threshold: 0.2
    bg_multiple: 2
    sample_mode: "bootstrap"
    pos_neg_weighted: true
  }
}
layer {
  name: "detection_accuracy_4_5x5"
  type: "DetectionAccuracy"
  bottom: "LFCN_4_5x5"
  bottom: "label_4_5x5"
  top: "accuracy_4_5x5"
  top: "boxiou_4_5x5"
  detection_accuracy_param {
    cls_num: 5
    coord_num: 4
    field_h: 480
    field_w: 480
    downsample_rate: 64
    field_whr: 2
    field_xyr: 2
  }
}
layer {
  name: "proposals"
  type: "BoxOutput"
  bottom: "LFCN_1_5x5"
  bottom: "LFCN_1_7x7"
  bottom: "LFCN_2_5x5"
  bottom: "LFCN_2_7x7"
  bottom: "LFCN_3_5x5"
  bottom: "LFCN_3_7x7"
  bottom: "LFCN_4_5x5"
  top: "proposals"
  propagate_down: false
  propagate_down: false
  propagate_down: false
  propagate_down: false
  propagate_down: false
  propagate_down: false
  propagate_down: false
  box_output_param {
    fg_thr: -8
    iou_thr: 0.65
    nms_type: "IOU"
    field_h: 60
    field_h: 84
    field_h: 120
    field_h: 168
    field_h: 240
    field_h: 336
    field_h: 480
    field_w: 60
    field_w: 84
    field_w: 120
    field_w: 168
    field_w: 240
    field_w: 336
    field_w: 480
    downsample_rate: 8
    downsample_rate: 8
    downsample_rate: 16
    downsample_rate: 16
    downsample_rate: 32
    downsample_rate: 32
    downsample_rate: 64
    field_whr: 2
    field_xyr: 2
    max_nms_num: 3000
  }
}
layer {
  name: "proposal_info"
  type: "ProposalTarget"
  bottom: "proposals"
  bottom: "gt_boxes"
  top: "rois"
  top: "proposal_labels"
  top: "proposal_targets"
  top: "box_inside_weights"
  top: "box_outside_weights"
  top: "match_gt_boxes"
  include {
    phase: TRAIN
  }
  propagate_down: false
  propagate_down: false
  proposal_target_param {
    cls_num: 5
    batch_size: 256
    fg_fraction: 0.25
    num_img_per_batch: 4
    fg_thr: 0.5
    bg_thr_hg: 0.49
    bg_thr_lw: 0.1
    img_width: 768
    img_height: 576
  }
  bbox_reg_param {
    bbox_mean: 0
    bbox_mean: 0
    bbox_mean: 0
    bbox_mean: 0
    bbox_std: 0.1
    bbox_std: 0.1
    bbox_std: 0.2
    bbox_std: 0.2
  }
}
layer {
  name: "slice1"
  type: "Slice"
  bottom: "attention"
  top: "bg"
  top: "attention1"
  slice_param {
    slice_point: 1
    axis: 1
  }
}
layer {
  name: "silence"
  type: "Silence"
  bottom: "bg"
}
layer {
  name: "conv4_3_new"
  type: "Concat"
  bottom: "conv4_3"
  bottom: "attention1"
  top: "conv4_3_new"
}
layer {
  name: "conv4_3_2x"
  type: "Deconvolution"
  bottom: "conv4_3_new"
  top: "conv4_3_2x"
  param {
    lr_mult: 0
    decay_mult: 0
  }
  convolution_param {
    num_output: 513
    bias_term: false
    pad: 1
    kernel_size: 4
    group: 513
    stride: 2
    weight_filler {
      type: "bilinear"
    }
  }
}
layer {
  name: "roi_pool_org"
  type: "ROIPooling"
  bottom: "conv4_3_2x"
  bottom: "rois"
  top: "roi_pool_org"
  roi_pooling_param {
    pooled_h: 7
    pooled_w: 7
    spatial_scale: 0.25
    pad_ratio: 0
  }
}
layer {
  name: "roi_pool_ctx"
  type: "ROIPooling"
  bottom: "conv4_3_2x"
  bottom: "rois"
  top: "roi_pool_ctx"
  roi_pooling_param {
    pooled_h: 7
    pooled_w: 7
    spatial_scale: 0.25
    pad_ratio: 0.25
  }
}
layer {
  name: "roi_pool"
  type: "Concat"
  bottom: "roi_pool_org"
  bottom: "roi_pool_ctx"
  top: "roi_pool"
}
layer {
  name: "roi_c1"
  type: "Convolution"
  bottom: "roi_pool"
  top: "roi_c1"
  param {
    lr_mult: 1
    decay_mult: 1
  }
  param {
    lr_mult: 2
    decay_mult: 0
  }
  convolution_param {
    num_output: 512
    kernel_size: 3
    weight_filler {
      type: "gaussian"
      std: 0.01
    }
    bias_filler {
      type: "constant"
    }
  }
}
layer {
  name: "roi_c1_relu"
  type: "ReLU"
  bottom: "roi_c1"
  top: "roi_c1"
}
layer {
  name: "fc6"
  type: "InnerProduct"
  bottom: "roi_c1"
  top: "fc6"
  param {
    lr_mult: 1
  }
  param {
    lr_mult: 2
  }
  inner_product_param {
    num_output: 4096
    weight_filler {
      type: "gaussian"
      std: 0.001
    }
    bias_filler {
      type: "constant"
      value: 0
    }
  }
}
layer {
  name: "relu6"
  type: "ReLU"
  bottom: "fc6"
  top: "fc6"
}
layer {
  name: "drop6"
  type: "Dropout"
  bottom: "fc6"
  top: "fc6"
  dropout_param {
    dropout_ratio: 0.5
  }
}
layer {
  name: "cls_pred"
  type: "InnerProduct"
  bottom: "fc6"
  top: "cls_pred"
  param {
    lr_mult: 1
  }
  param {
    lr_mult: 2
  }
  inner_product_param {
    num_output: 5
    weight_filler {
      type: "gaussian"
      std: 0.01
    }
    bias_filler {
      type: "constant"
      value: 0
    }
  }
}
layer {
  name: "bbox_pred"
  type: "InnerProduct"
  bottom: "fc6"
  top: "bbox_pred"
  param {
    lr_mult: 1
  }
  param {
    lr_mult: 2
  }
  inner_product_param {
    num_output: 20
    weight_filler {
      type: "gaussian"
      std: 0.001
    }
    bias_filler {
      type: "constant"
      value: 0
    }
  }
}
layer {
  name: "loss_cls"
  type: "SoftmaxWithLoss"
  bottom: "cls_pred"
  bottom: "proposal_labels"
  top: "loss_cls"
  loss_weight: 1
  propagate_down: true
  propagate_down: false
}
layer {
  name: "cls_accuracy"
  type: "Accuracy"
  bottom: "cls_pred"
  bottom: "proposal_labels"
  top: "cls_accuracy"
}
layer {
  name: "loss_bbox"
  type: "SmoothL1Loss"
  bottom: "bbox_pred"
  bottom: "proposal_targets"
  bottom: "box_inside_weights"
  bottom: "box_outside_weights"
  top: "loss_bbox"
  loss_weight: 1
}
layer {
  name: "bbox_iou"
  type: "BboxAccuracy"
  bottom: "bbox_pred"
  bottom: "rois"
  bottom: "match_gt_boxes"
  top: "bbox_iou"
  top: "bbox_iou_pre"
  bbox_reg_param {
    bbox_mean: 0
    bbox_mean: 0
    bbox_mean: 0
    bbox_mean: 0
    bbox_std: 0.1
    bbox_std: 0.1
    bbox_std: 0.2
    bbox_std: 0.2
  }
}
I1013 17:08:09.502498  8692 layer_factory.hpp:77] Creating layer data
I1013 17:08:09.502538  8692 net.cpp:100] Creating Layer data
I1013 17:08:09.502545  8692 net.cpp:408] data -> data
…
I1013 17:08:09.527444  8692 image_gt_data_layer.cpp:235] output label size 2 : 3,6,48,48
I1013 17:08:09.527482  8692 image_gt_data_layer.cpp:235] output label size 3 : 3,6,48,48
I1013 17:08:09.527519  8692 image_gt_data_layer.cpp:235] output label size 4 : 3,6,24,24
I1013 17:08:09.527559  8692 image_gt_data_layer.cpp:235] output label size 5 : 3,6,24,24
I1013 17:08:09.527595  8692 image_gt_data_layer.cpp:235] output label size 6 : 3,6,12,12
I1013 17:08:09.527632  8692 image_gt_data_layer.cpp:250] output gt boxes size: 1,7,1,1
I1013 17:08:09.586900  8692 net.cpp:150] Setting up data
I1013 17:08:09.586942  8692 net.cpp:157] Top shape: 3 4 768 768 (7077888)
I1013 17:08:09.586948  8692 net.cpp:157] Top shape: 3 6 96 96 (165888)
I1013 17:08:09.586953  8692 net.cpp:157] Top shape: 3 6 96 96 (165888)
I1013 17:08:09.586957  8692 net.cpp:157] Top shape: 3 6 48 48 (41472)
I1013 17:08:09.586961  8692 net.cpp:157] Top shape: 3 6 48 48 (41472)
I1013 17:08:09.586966  8692 net.cpp:157] Top shape: 3 6 24 24 (10368)
I1013 17:08:09.586969  8692 net.cpp:157] Top shape: 3 6 24 24 (10368)
I1013 17:08:09.586973  8692 net.cpp:157] Top shape: 3 6 12 12 (2592)
I1013 17:08:09.586979  8692 net.cpp:157] Top shape: 1 7 1 1 (7)
I1013 17:08:09.586983  8692 net.cpp:165] Memory required for data: 30063772
I1013 17:08:09.586993  8692 layer_factory.hpp:77] Creating layer label_1_5x5_data_1_split
I1013 17:08:09.587014  8692 net.cpp:100] Creating Layer label_1_5x5_data_1_split
I1013 17:08:09.587021  8692 net.cpp:434] label_1_5x5_data_1_split <- label_1_5x5
I1013 17:08:09.587036  8692 net.cpp:408] label_1_5x5_data_1_split -> label_1_5x5_data_1_split_0
I1013 17:08:09.587046  8692 net.cpp:408] label_1_5x5_data_1_split -> label_1_5x5_data_1_split_1
I1013 17:08:09.587255  8692 net.cpp:150] Setting up label_1_5x5_data_1_split
I1013 17:08:09.587302  8692 net.cpp:157] Top shape: 3 6 96 96 (165888)
I1013 17:08:09.587316  8692 net.cpp:157] Top shape: 3 6 96 96 (165888)
I1013 17:08:09.587324  8692 net.cpp:165] Memory required for data: 31390876
I1013 17:08:09.587337  8692 layer_factory.hpp:77] Creating layer label_1_7x7_data_2_split
I1013 17:08:09.587359  8692 net.cpp:100] Creating Layer label_1_7x7_data_2_split
I1013 17:08:09.587370  8692 net.cpp:434] label_1_7x7_data_2_split <- label_1_7x7
I1013 17:08:09.587384  8692 net.cpp:408] label_1_7x7_data_2_split -> label_1_7x7_data_2_split_0
I1013 17:08:09.587402  8692 net.cpp:408] label_1_7x7_data_2_split -> label_1_7x7_data_2_split_1
I1013 17:08:09.587471  8692 net.cpp:150] Setting up label_1_7x7_data_2_split
I1013 17:08:09.587484  8692 net.cpp:157] Top shape: 3 6 96 96 (165888)
I1013 17:08:09.587496  8692 net.cpp:157] Top shape: 3 6 96 96 (165888)
I1013 17:08:09.587503  8692 net.cpp:165] Memory required for data: 32717980
I1013 17:08:09.587512  8692 layer_factory.hpp:77] Creating layer label_2_5x5_data_3_split
I1013 17:08:09.587523  8692 net.cpp:100] Creating Layer label_2_5x5_data_3_split
I1013 17:08:09.587532  8692 net.cpp:434] label_2_5x5_data_3_split <- label_2_5x5
I1013 17:08:09.587545  8692 net.cpp:408] label_2_5x5_data_3_split -> label_2_5x5_data_3_split_0
I1013 17:08:09.587559  8692 net.cpp:408] label_2_5x5_data_3_split -> label_2_5x5_data_3_split_1
I1013 17:08:09.587622  8692 net.cpp:150] Setting up label_2_5x5_data_3_split
I1013 17:08:09.587635  8692 net.cpp:157] Top shape: 3 6 48 48 (41472)
I1013 17:08:09.587646  8692 net.cpp:157] Top shape: 3 6 48 48 (41472)
I1013 17:08:09.587654  8692 net.cpp:165] Memory required for data: 33049756
I1013 17:08:09.587663  8692 layer_factory.hpp:77] Creating layer label_2_7x7_data_4_split
I1013 17:08:09.587674  8692 net.cpp:100] Creating Layer label_2_7x7_data_4_split
I1013 17:08:09.587683  8692 net.cpp:434] label_2_7x7_data_4_split <- label_2_7x7
I1013 17:08:09.587697  8692 net.cpp:408] label_2_7x7_data_4_split -> label_2_7x7_data_4_split_0
I1013 17:08:09.587709  8692 net.cpp:408] label_2_7x7_data_4_split -> label_2_7x7_data_4_split_1
I1013 17:08:09.587772  8692 net.cpp:150] Setting up label_2_7x7_data_4_split
I1013 17:08:09.587785  8692 net.cpp:157] Top shape: 3 6 48 48 (41472)
I1013 17:08:09.587796  8692 net.cpp:157] Top shape: 3 6 48 48 (41472)
I1013 17:08:09.587805  8692 net.cpp:165] Memory required for data: 33381532
I1013 17:08:09.587813  8692 layer_factory.hpp:77] Creating layer label_3_5x5_data_5_split
I1013 17:08:09.587824  8692 net.cpp:100] Creating Layer label_3_5x5_data_5_split
I1013 17:08:09.587833  8692 net.cpp:434] label_3_5x5_data_5_split <- label_3_5x5
I1013 17:08:09.587846  8692 net.cpp:408] label_3_5x5_data_5_split -> label_3_5x5_data_5_split_0
I1013 17:08:09.587859  8692 net.cpp:408] label_3_5x5_data_5_split -> label_3_5x5_data_5_split_1
I1013 17:08:09.587916  8692 net.cpp:150] Setting up label_3_5x5_data_5_split
I1013 17:08:09.587929  8692 net.cpp:157] Top shape: 3 6 24 24 (10368)
I1013 17:08:09.587940  8692 net.cpp:157] Top shape: 3 6 24 24 (10368)
I1013 17:08:09.587949  8692 net.cpp:165] Memory required for data: 33464476
I1013 17:08:09.587957  8692 layer_factory.hpp:77] Creating layer label_3_7x7_data_6_split
I1013 17:08:09.587970  8692 net.cpp:100] Creating Layer label_3_7x7_data_6_split
I1013 17:08:09.587978  8692 net.cpp:434] label_3_7x7_data_6_split <- label_3_7x7
I1013 17:08:09.587990  8692 net.cpp:408] label_3_7x7_data_6_split -> label_3_7x7_data_6_split_0
I1013 17:08:09.588002  8692 net.cpp:408] label_3_7x7_data_6_split -> label_3_7x7_data_6_split_1
I1013 17:08:09.588060  8692 net.cpp:150] Setting up label_3_7x7_data_6_split
I1013 17:08:09.588073  8692 net.cpp:157] Top shape: 3 6 24 24 (10368)
I1013 17:08:09.588083  8692 net.cpp:157] Top shape: 3 6 24 24 (10368)
I1013 17:08:09.588093  8692 net.cpp:165] Memory required for data: 33547420
I1013 17:08:09.588100  8692 layer_factory.hpp:77] Creating layer label_4_5x5_data_7_split
I1013 17:08:09.588111  8692 net.cpp:100] Creating Layer label_4_5x5_data_7_split
I1013 17:08:09.588119  8692 net.cpp:434] label_4_5x5_data_7_split <- label_4_5x5
I1013 17:08:09.588130  8692 net.cpp:408] label_4_5x5_data_7_split -> label_4_5x5_data_7_split_0
I1013 17:08:09.588143  8692 net.cpp:408] label_4_5x5_data_7_split -> label_4_5x5_data_7_split_1
I1013 17:08:09.588207  8692 net.cpp:150] Setting up label_4_5x5_data_7_split
I1013 17:08:09.588218  8692 net.cpp:157] Top shape: 3 6 12 12 (2592)
I1013 17:08:09.588254  8692 net.cpp:157] Top shape: 3 6 12 12 (2592)
I1013 17:08:09.588264  8692 net.cpp:165] Memory required for data: 33568156
I1013 17:08:09.588273  8692 layer_factory.hpp:77] Creating layer slice
I1013 17:08:09.588296  8692 net.cpp:100] Creating Layer slice
I1013 17:08:09.588305  8692 net.cpp:434] slice <- data
I1013 17:08:09.588320  8692 net.cpp:408] slice -> data123
I1013 17:08:09.588337  8692 net.cpp:408] slice -> ch4
I1013 17:08:09.588402  8692 net.cpp:150] Setting up slice
I1013 17:08:09.588414  8692 net.cpp:157] Top shape: 3 3 768 768 (5308416)
I1013 17:08:09.588425  8692 net.cpp:157] Top shape: 3 1 768 768 (1769472)
I1013 17:08:09.588433  8692 net.cpp:165] Memory required for data: 61879708
I1013 17:08:09.588443  8692 layer_factory.hpp:77] Creating layer conv1_1
I1013 17:08:09.588462  8692 net.cpp:100] Creating Layer conv1_1
I1013 17:08:09.588471  8692 net.cpp:434] conv1_1 <- data123
I1013 17:08:09.588484  8692 net.cpp:408] conv1_1 -> conv1_1
I1013 17:08:09.837044  8692 net.cpp:150] Setting up conv1_1
I1013 17:08:09.837070  8692 net.cpp:157] Top shape: 3 64 768 768 (113246208)
I1013 17:08:09.837074  8692 net.cpp:165] Memory required for data: 514864540
I1013 17:08:09.837092  8692 layer_factory.hpp:77] Creating layer relu1_1
I1013 17:08:09.837105  8692 net.cpp:100] Creating Layer relu1_1
I1013 17:08:09.837110  8692 net.cpp:434] relu1_1 <- conv1_1
I1013 17:08:09.837117  8692 net.cpp:395] relu1_1 -> conv1_1 (in-place)
I1013 17:08:09.837298  8692 net.cpp:150] Setting up relu1_1
I1013 17:08:09.837307  8692 net.cpp:157] Top shape: 3 64 768 768 (113246208)
I1013 17:08:09.837311  8692 net.cpp:165] Memory required for data: 967849372
I1013 17:08:09.837314  8692 layer_factory.hpp:77] Creating layer conv1_2
I1013 17:08:09.837325  8692 net.cpp:100] Creating Layer conv1_2
I1013 17:08:09.837328  8692 net.cpp:434] conv1_2 <- conv1_1
I1013 17:08:09.837334  8692 net.cpp:408] conv1_2 -> conv1_2
I1013 17:08:09.839367  8692 net.cpp:150] Setting up conv1_2
I1013 17:08:09.839381  8692 net.cpp:157] Top shape: 3 64 768 768 (113246208)
I1013 17:08:09.839385  8692 net.cpp:165] Memory required for data: 1420834204
I1013 17:08:09.839395  8692 layer_factory.hpp:77] Creating layer relu1_2
I1013 17:08:09.839401  8692 net.cpp:100] Creating Layer relu1_2
I1013 17:08:09.839406  8692 net.cpp:434] relu1_2 <- conv1_2
I1013 17:08:09.839409  8692 net.cpp:395] relu1_2 -> conv1_2 (in-place)
I1013 17:08:09.839560  8692 net.cpp:150] Setting up relu1_2
I1013 17:08:09.839566  8692 net.cpp:157] Top shape: 3 64 768 768 (113246208)
I1013 17:08:09.839570  8692 net.cpp:165] Memory required for data: 1873819036
I1013 17:08:09.839573  8692 layer_factory.hpp:77] Creating layer pool1
I1013 17:08:09.839579  8692 net.cpp:100] Creating Layer pool1
I1013 17:08:09.839583  8692 net.cpp:434] pool1 <- conv1_2
I1013 17:08:09.839588  8692 net.cpp:408] pool1 -> pool1
I1013 17:08:09.839638  8692 net.cpp:150] Setting up pool1
I1013 17:08:09.839646  8692 net.cpp:157] Top shape: 3 64 384 384 (28311552)
I1013 17:08:09.839649  8692 net.cpp:165] Memory required for data: 1987065244
I1013 17:08:09.839653  8692 layer_factory.hpp:77] Creating layer conv2_1
I1013 17:08:09.839660  8692 net.cpp:100] Creating Layer conv2_1
I1013 17:08:09.839663  8692 net.cpp:434] conv2_1 <- pool1
I1013 17:08:09.839668  8692 net.cpp:408] conv2_1 -> conv2_1
I1013 17:08:09.842053  8692 net.cpp:150] Setting up conv2_1
I1013 17:08:09.842092  8692 net.cpp:157] Top shape: 3 128 384 384 (56623104)
I1013 17:08:09.842097  8692 net.cpp:165] Memory required for data: 2213557660
I1013 17:08:09.842114  8692 layer_factory.hpp:77] Creating layer relu2_1
I1013 17:08:09.842131  8692 net.cpp:100] Creating Layer relu2_1
I1013 17:08:09.842139  8692 net.cpp:434] relu2_1 <- conv2_1
I1013 17:08:09.842145  8692 net.cpp:395] relu2_1 -> conv2_1 (in-place)
I1013 17:08:09.842314  8692 net.cpp:150] Setting up relu2_1
I1013 17:08:09.842322  8692 net.cpp:157] Top shape: 3 128 384 384 (56623104)
I1013 17:08:09.842326  8692 net.cpp:165] Memory required for data: 2440050076
I1013 17:08:09.842329  8692 layer_factory.hpp:77] Creating layer conv2_2
I1013 17:08:09.842345  8692 net.cpp:100] Creating Layer conv2_2
I1013 17:08:09.842348  8692 net.cpp:434] conv2_2 <- conv2_1
I1013 17:08:09.842355  8692 net.cpp:408] conv2_2 -> conv2_2
I1013 17:08:09.844077  8692 net.cpp:150] Setting up conv2_2
I1013 17:08:09.844116  8692 net.cpp:157] Top shape: 3 128 384 384 (56623104)
I1013 17:08:09.844121  8692 net.cpp:165] Memory required for data: 2666542492
I1013 17:08:09.844135  8692 layer_factory.hpp:77] Creating layer relu2_2
I1013 17:08:09.844152  8692 net.cpp:100] Creating Layer relu2_2
I1013 17:08:09.844159  8692 net.cpp:434] relu2_2 <- conv2_2
I1013 17:08:09.844167  8692 net.cpp:395] relu2_2 -> conv2_2 (in-place)
I1013 17:08:09.844384  8692 net.cpp:150] Setting up relu2_2
I1013 17:08:09.844395  8692 net.cpp:157] Top shape: 3 128 384 384 (56623104)
I1013 17:08:09.844398  8692 net.cpp:165] Memory required for data: 2893034908
I1013 17:08:09.844403  8692 layer_factory.hpp:77] Creating layer pool2
I1013 17:08:09.844409  8692 net.cpp:100] Creating Layer pool2
I1013 17:08:09.844413  8692 net.cpp:434] pool2 <- conv2_2
I1013 17:08:09.844419  8692 net.cpp:408] pool2 -> pool2
I1013 17:08:09.844466  8692 net.cpp:150] Setting up pool2
I1013 17:08:09.844472  8692 net.cpp:157] Top shape: 3 128 192 192 (14155776)
I1013 17:08:09.844475  8692 net.cpp:165] Memory required for data: 2949658012
I1013 17:08:09.844480  8692 layer_factory.hpp:77] Creating layer conv3_1
I1013 17:08:09.844491  8692 net.cpp:100] Creating Layer conv3_1
I1013 17:08:09.844496  8692 net.cpp:434] conv3_1 <- pool2
I1013 17:08:09.844501  8692 net.cpp:408] conv3_1 -> conv3_1
I1013 17:08:09.851516  8692 net.cpp:150] Setting up conv3_1
I1013 17:08:09.851574  8692 net.cpp:157] Top shape: 3 256 192 192 (28311552)
I1013 17:08:09.851583  8692 net.cpp:165] Memory required for data: 3062904220
I1013 17:08:09.851625  8692 layer_factory.hpp:77] Creating layer relu3_1
I1013 17:08:09.851650  8692 net.cpp:100] Creating Layer relu3_1
I1013 17:08:09.851658  8692 net.cpp:434] relu3_1 <- conv3_1
I1013 17:08:09.851665  8692 net.cpp:395] relu3_1 -> conv3_1 (in-place)
I1013 17:08:09.853700  8692 net.cpp:150] Setting up relu3_1
I1013 17:08:09.854107  8692 net.cpp:157] Top shape: 3 256 192 192 (28311552)
I1013 17:08:09.854131  8692 net.cpp:165] Memory required for data: 3176150428
I1013 17:08:09.854146  8692 layer_factory.hpp:77] Creating layer conv3_2
I1013 17:08:09.854187  8692 net.cpp:100] Creating Layer conv3_2
I1013 17:08:09.854199  8692 net.cpp:434] conv3_2 <- conv3_1
I1013 17:08:09.854215  8692 net.cpp:408] conv3_2 -> conv3_2
I1013 17:08:09.857308  8692 net.cpp:150] Setting up conv3_2
I1013 17:08:09.857348  8692 net.cpp:157] Top shape: 3 256 192 192 (28311552)
I1013 17:08:09.857357  8692 net.cpp:165] Memory required for data: 3289396636
I1013 17:08:09.857372  8692 layer_factory.hpp:77] Creating layer relu3_2
I1013 17:08:09.857388  8692 net.cpp:100] Creating Layer relu3_2
I1013 17:08:09.857399  8692 net.cpp:434] relu3_2 <- conv3_2
I1013 17:08:09.857414  8692 net.cpp:395] relu3_2 -> conv3_2 (in-place)
I1013 17:08:09.857951  8692 net.cpp:150] Setting up relu3_2
I1013 17:08:09.857969  8692 net.cpp:157] Top shape: 3 256 192 192 (28311552)
I1013 17:08:09.857975  8692 net.cpp:165] Memory required for data: 3402642844
I1013 17:08:09.857981  8692 layer_factory.hpp:77] Creating layer conv3_3
I1013 17:08:09.857997  8692 net.cpp:100] Creating Layer conv3_3
I1013 17:08:09.858006  8692 net.cpp:434] conv3_3 <- conv3_2
I1013 17:08:09.858017  8692 net.cpp:408] conv3_3 -> conv3_3
I1013 17:08:09.861135  8692 net.cpp:150] Setting up conv3_3
I1013 17:08:09.861155  8692 net.cpp:157] Top shape: 3 256 192 192 (28311552)
I1013 17:08:09.861162  8692 net.cpp:165] Memory required for data: 3515889052
I1013 17:08:09.861174  8692 layer_factory.hpp:77] Creating layer relu3_3
I1013 17:08:09.861187  8692 net.cpp:100] Creating Layer relu3_3
I1013 17:08:09.861196  8692 net.cpp:434] relu3_3 <- conv3_3
I1013 17:08:09.861208  8692 net.cpp:395] relu3_3 -> conv3_3 (in-place)
I1013 17:08:09.861430  8692 net.cpp:150] Setting up relu3_3
I1013 17:08:09.861444  8692 net.cpp:157] Top shape: 3 256 192 192 (28311552)
I1013 17:08:09.861450  8692 net.cpp:165] Memory required for data: 3629135260
I1013 17:08:09.861457  8692 layer_factory.hpp:77] Creating layer pool3
I1013 17:08:09.861469  8692 net.cpp:100] Creating Layer pool3
I1013 17:08:09.861477  8692 net.cpp:434] pool3 <- conv3_3
I1013 17:08:09.861487  8692 net.cpp:408] pool3 -> pool3
I1013 17:08:09.861541  8692 net.cpp:150] Setting up pool3
I1013 17:08:09.861553  8692 net.cpp:157] Top shape: 3 256 96 96 (7077888)
I1013 17:08:09.861559  8692 net.cpp:165] Memory required for data: 3657446812
I1013 17:08:09.861567  8692 layer_factory.hpp:77] Creating layer conv4_1
I1013 17:08:09.861577  8692 net.cpp:100] Creating Layer conv4_1
I1013 17:08:09.861585  8692 net.cpp:434] conv4_1 <- pool3
I1013 17:08:09.861595  8692 net.cpp:408] conv4_1 -> conv4_1
I1013 17:08:09.871934  8692 net.cpp:150] Setting up conv4_1
I1013 17:08:09.871968  8692 net.cpp:157] Top shape: 3 512 96 96 (14155776)
I1013 17:08:09.871973  8692 net.cpp:165] Memory required for data: 3714069916
I1013 17:08:09.871987  8692 layer_factory.hpp:77] Creating layer relu4_1
I1013 17:08:09.872004  8692 net.cpp:100] Creating Layer relu4_1
I1013 17:08:09.872012  8692 net.cpp:434] relu4_1 <- conv4_1
I1013 17:08:09.872023  8692 net.cpp:395] relu4_1 -> conv4_1 (in-place)
I1013 17:08:09.872218  8692 net.cpp:150] Setting up relu4_1
I1013 17:08:09.872249  8692 net.cpp:157] Top shape: 3 512 96 96 (14155776)
I1013 17:08:09.872256  8692 net.cpp:165] Memory required for data: 3770693020
I1013 17:08:09.872261  8692 layer_factory.hpp:77] Creating layer conv4_2
I1013 17:08:09.872275  8692 net.cpp:100] Creating Layer conv4_2
I1013 17:08:09.872280  8692 net.cpp:434] conv4_2 <- conv4_1
I1013 17:08:09.872287  8692 net.cpp:408] conv4_2 -> conv4_2
I1013 17:08:09.878587  8692 net.cpp:150] Setting up conv4_2
I1013 17:08:09.878618  8692 net.cpp:157] Top shape: 3 512 96 96 (14155776)
I1013 17:08:09.878623  8692 net.cpp:165] Memory required for data: 3827316124
I1013 17:08:09.878638  8692 layer_factory.hpp:77] Creating layer relu4_2
I1013 17:08:09.878648  8692 net.cpp:100] Creating Layer relu4_2
I1013 17:08:09.878654  8692 net.cpp:434] relu4_2 <- conv4_2
I1013 17:08:09.878660  8692 net.cpp:395] relu4_2 -> conv4_2 (in-place)
I1013 17:08:09.878813  8692 net.cpp:150] Setting up relu4_2
I1013 17:08:09.878823  8692 net.cpp:157] Top shape: 3 512 96 96 (14155776)
I1013 17:08:09.878825  8692 net.cpp:165] Memory required for data: 3883939228
I1013 17:08:09.878829  8692 layer_factory.hpp:77] Creating layer conv4_3
I1013 17:08:09.878839  8692 net.cpp:100] Creating Layer conv4_3
I1013 17:08:09.878842  8692 net.cpp:434] conv4_3 <- conv4_2
I1013 17:08:09.878847  8692 net.cpp:408] conv4_3 -> conv4_3
I1013 17:08:09.886791  8692 net.cpp:150] Setting up conv4_3
I1013 17:08:09.886823  8692 net.cpp:157] Top shape: 3 512 96 96 (14155776)
I1013 17:08:09.886827  8692 net.cpp:165] Memory required for data: 3940562332
I1013 17:08:09.886837  8692 layer_factory.hpp:77] Creating layer relu4_3
I1013 17:08:09.886848  8692 net.cpp:100] Creating Layer relu4_3
I1013 17:08:09.886855  8692 net.cpp:434] relu4_3 <- conv4_3
I1013 17:08:09.886863  8692 net.cpp:395] relu4_3 -> conv4_3 (in-place)
I1013 17:08:09.887017  8692 net.cpp:150] Setting up relu4_3
I1013 17:08:09.887027  8692 net.cpp:157] Top shape: 3 512 96 96 (14155776)
I1013 17:08:09.887030  8692 net.cpp:165] Memory required for data: 3997185436
I1013 17:08:09.887034  8692 layer_factory.hpp:77] Creating layer conv4_3_relu4_3_0_split
I1013 17:08:09.887044  8692 net.cpp:100] Creating Layer conv4_3_relu4_3_0_split
I1013 17:08:09.887049  8692 net.cpp:434] conv4_3_relu4_3_0_split <- conv4_3
I1013 17:08:09.887054  8692 net.cpp:408] conv4_3_relu4_3_0_split -> conv4_3_relu4_3_0_split_0
I1013 17:08:09.887060  8692 net.cpp:408] conv4_3_relu4_3_0_split -> conv4_3_relu4_3_0_split_1
I1013 17:08:09.887066  8692 net.cpp:408] conv4_3_relu4_3_0_split -> conv4_3_relu4_3_0_split_2
I1013 17:08:09.887071  8692 net.cpp:408] conv4_3_relu4_3_0_split -> conv4_3_relu4_3_0_split_3
I1013 17:08:09.887127  8692 net.cpp:150] Setting up conv4_3_relu4_3_0_split
I1013 17:08:09.887133  8692 net.cpp:157] Top shape: 3 512 96 96 (14155776)
I1013 17:08:09.887137  8692 net.cpp:157] Top shape: 3 512 96 96 (14155776)
I1013 17:08:09.887141  8692 net.cpp:157] Top shape: 3 512 96 96 (14155776)
I1013 17:08:09.887145  8692 net.cpp:157] Top shape: 3 512 96 96 (14155776)
I1013 17:08:09.887148  8692 net.cpp:165] Memory required for data: 4223677852
I1013 17:08:09.887151  8692 layer_factory.hpp:77] Creating layer buffer
I1013 17:08:09.887163  8692 net.cpp:100] Creating Layer buffer
I1013 17:08:09.887167  8692 net.cpp:434] buffer <- conv4_3_relu4_3_0_split_0
I1013 17:08:09.887174  8692 net.cpp:408] buffer -> buffer
I1013 17:08:09.951123  8692 net.cpp:150] Setting up buffer
I1013 17:08:09.951148  8692 net.cpp:157] Top shape: 3 512 96 96 (14155776)
I1013 17:08:09.951151  8692 net.cpp:165] Memory required for data: 4280300956
I1013 17:08:09.951159  8692 layer_factory.hpp:77] Creating layer relu_buffer
I1013 17:08:09.951169  8692 net.cpp:100] Creating Layer relu_buffer
I1013 17:08:09.951174  8692 net.cpp:434] relu_buffer <- buffer
I1013 17:08:09.951179  8692 net.cpp:395] relu_buffer -> buffer (in-place)
I1013 17:08:09.951617  8692 net.cpp:150] Setting up relu_buffer
I1013 17:08:09.951630  8692 net.cpp:157] Top shape: 3 512 96 96 (14155776)
I1013 17:08:09.951633  8692 net.cpp:165] Memory required for data: 4336924060
I1013 17:08:09.951637  8692 layer_factory.hpp:77] Creating layer attention
I1013 17:08:09.951647  8692 net.cpp:100] Creating Layer attention
I1013 17:08:09.951651  8692 net.cpp:434] attention <- buffer
I1013 17:08:09.951658  8692 net.cpp:408] attention -> attention
I1013 17:08:09.952632  8692 net.cpp:150] Setting up attention
I1013 17:08:09.952646  8692 net.cpp:157] Top shape: 3 2 96 96 (55296)
I1013 17:08:09.952648  8692 net.cpp:165] Memory required for data: 4337145244
I1013 17:08:09.952656  8692 layer_factory.hpp:77] Creating layer relu_attention
I1013 17:08:09.952662  8692 net.cpp:100] Creating Layer relu_attention
I1013 17:08:09.952666  8692 net.cpp:434] relu_attention <- attention
I1013 17:08:09.952670  8692 net.cpp:395] relu_attention -> attention (in-place)
I1013 17:08:09.953147  8692 net.cpp:150] Setting up relu_attention
I1013 17:08:09.953160  8692 net.cpp:157] Top shape: 3 2 96 96 (55296)
I1013 17:08:09.953162  8692 net.cpp:165] Memory required for data: 4337366428
I1013 17:08:09.953166  8692 layer_factory.hpp:77] Creating layer attention_relu_attention_0_split
I1013 17:08:09.953173  8692 net.cpp:100] Creating Layer attention_relu_attention_0_split
I1013 17:08:09.953177  8692 net.cpp:434] attention_relu_attention_0_split <- attention
I1013 17:08:09.953183  8692 net.cpp:408] attention_relu_attention_0_split -> attention_relu_attention_0_split_0
I1013 17:08:09.953189  8692 net.cpp:408] attention_relu_attention_0_split -> attention_relu_attention_0_split_1
I1013 17:08:09.953229  8692 net.cpp:150] Setting up attention_relu_attention_0_split
I1013 17:08:09.953238  8692 net.cpp:157] Top shape: 3 2 96 96 (55296)
I1013 17:08:09.953241  8692 net.cpp:157] Top shape: 3 2 96 96 (55296)
I1013 17:08:09.953244  8692 net.cpp:165] Memory required for data: 4337808796
I1013 17:08:09.953248  8692 layer_factory.hpp:77] Creating layer ch4_pool
I1013 17:08:09.953255  8692 net.cpp:100] Creating Layer ch4_pool
I1013 17:08:09.953259  8692 net.cpp:434] ch4_pool <- ch4
I1013 17:08:09.953263  8692 net.cpp:408] ch4_pool -> ch4_pool
I1013 17:08:09.953297  8692 net.cpp:150] Setting up ch4_pool
I1013 17:08:09.953303  8692 net.cpp:157] Top shape: 3 1 96 96 (27648)
I1013 17:08:09.953306  8692 net.cpp:165] Memory required for data: 4337919388
I1013 17:08:09.953310  8692 layer_factory.hpp:77] Creating layer loss_attention
I1013 17:08:09.953315  8692 net.cpp:100] Creating Layer loss_attention
I1013 17:08:09.953318  8692 net.cpp:434] loss_attention <- attention_relu_attention_0_split_0
I1013 17:08:09.953322  8692 net.cpp:434] loss_attention <- ch4_pool
I1013 17:08:09.953327  8692 net.cpp:408] loss_attention -> loss_attention
I1013 17:08:09.953337  8692 layer_factory.hpp:77] Creating layer loss_attention
I1013 17:08:09.953603  8692 net.cpp:150] Setting up loss_attention
I1013 17:08:09.953611  8692 net.cpp:157] Top shape: (1)
I1013 17:08:09.953615  8692 net.cpp:160]     with loss weight 1
I1013 17:08:09.953634  8692 net.cpp:165] Memory required for data: 4337919392
I1013 17:08:09.953639  8692 layer_factory.hpp:77] Creating layer loss1_conv1
I1013 17:08:09.953647  8692 net.cpp:100] Creating Layer loss1_conv1
I1013 17:08:09.953651  8692 net.cpp:434] loss1_conv1 <- conv4_3_relu4_3_0_split_1
I1013 17:08:09.953657  8692 net.cpp:408] loss1_conv1 -> loss1_conv1
I1013 17:08:10.016880  8692 net.cpp:150] Setting up loss1_conv1
I1013 17:08:10.016909  8692 net.cpp:157] Top shape: 3 512 96 96 (14155776)
I1013 17:08:10.016913  8692 net.cpp:165] Memory required for data: 4394542496
I1013 17:08:10.016922  8692 layer_factory.hpp:77] Creating layer loss_relu1
I1013 17:08:10.016934  8692 net.cpp:100] Creating Layer loss_relu1
I1013 17:08:10.016940  8692 net.cpp:434] loss_relu1 <- loss1_conv1
I1013 17:08:10.016947  8692 net.cpp:395] loss_relu1 -> loss1_conv1 (in-place)
I1013 17:08:10.017103  8692 net.cpp:150] Setting up loss_relu1
I1013 17:08:10.017112  8692 net.cpp:157] Top shape: 3 512 96 96 (14155776)
I1013 17:08:10.017115  8692 net.cpp:165] Memory required for data: 4451165600
I1013 17:08:10.017119  8692 layer_factory.hpp:77] Creating layer loss1_conv1_loss_relu1_0_split
I1013 17:08:10.017127  8692 net.cpp:100] Creating Layer loss1_conv1_loss_relu1_0_split
I1013 17:08:10.017129  8692 net.cpp:434] loss1_conv1_loss_relu1_0_split <- loss1_conv1
I1013 17:08:10.017134  8692 net.cpp:408] loss1_conv1_loss_relu1_0_split -> loss1_conv1_loss_relu1_0_split_0
I1013 17:08:10.017140  8692 net.cpp:408] loss1_conv1_loss_relu1_0_split -> loss1_conv1_loss_relu1_0_split_1
I1013 17:08:10.017175  8692 net.cpp:150] Setting up loss1_conv1_loss_relu1_0_split
I1013 17:08:10.017181  8692 net.cpp:157] Top shape: 3 512 96 96 (14155776)
I1013 17:08:10.017185  8692 net.cpp:157] Top shape: 3 512 96 96 (14155776)
I1013 17:08:10.017189  8692 net.cpp:165] Memory required for data: 4564411808
I1013 17:08:10.017191  8692 layer_factory.hpp:77] Creating layer LFCN_1_5x5
I1013 17:08:10.017202  8692 net.cpp:100] Creating Layer LFCN_1_5x5
I1013 17:08:10.017206  8692 net.cpp:434] LFCN_1_5x5 <- loss1_conv1_loss_relu1_0_split_0
I1013 17:08:10.017212  8692 net.cpp:408] LFCN_1_5x5 -> LFCN_1_5x5
I1013 17:08:10.021409  8692 net.cpp:150] Setting up LFCN_1_5x5
I1013 17:08:10.021421  8692 net.cpp:157] Top shape: 3 9 96 96 (248832)
I1013 17:08:10.021425  8692 net.cpp:165] Memory required for data: 4565407136
I1013 17:08:10.021431  8692 layer_factory.hpp:77] Creating layer LFCN_1_5x5_LFCN_1_5x5_0_split
I1013 17:08:10.021436  8692 net.cpp:100] Creating Layer LFCN_1_5x5_LFCN_1_5x5_0_split
I1013 17:08:10.021440  8692 net.cpp:434] LFCN_1_5x5_LFCN_1_5x5_0_split <- LFCN_1_5x5
I1013 17:08:10.021446  8692 net.cpp:408] LFCN_1_5x5_LFCN_1_5x5_0_split -> LFCN_1_5x5_LFCN_1_5x5_0_split_0
I1013 17:08:10.021452  8692 net.cpp:408] LFCN_1_5x5_LFCN_1_5x5_0_split -> LFCN_1_5x5_LFCN_1_5x5_0_split_1
I1013 17:08:10.021457  8692 net.cpp:408] LFCN_1_5x5_LFCN_1_5x5_0_split -> LFCN_1_5x5_LFCN_1_5x5_0_split_2
I1013 17:08:10.021503  8692 net.cpp:150] Setting up LFCN_1_5x5_LFCN_1_5x5_0_split
I1013 17:08:10.021510  8692 net.cpp:157] Top shape: 3 9 96 96 (248832)
I1013 17:08:10.021515  8692 net.cpp:157] Top shape: 3 9 96 96 (248832)
I1013 17:08:10.021520  8692 net.cpp:157] Top shape: 3 9 96 96 (248832)
I1013 17:08:10.021523  8692 net.cpp:165] Memory required for data: 4568393120
I1013 17:08:10.021526  8692 layer_factory.hpp:77] Creating layer detection_loss_1_5x5
I1013 17:08:10.021533  8692 net.cpp:100] Creating Layer detection_loss_1_5x5
I1013 17:08:10.021536  8692 net.cpp:434] detection_loss_1_5x5 <- LFCN_1_5x5_LFCN_1_5x5_0_split_0
I1013 17:08:10.021540  8692 net.cpp:434] detection_loss_1_5x5 <- label_1_5x5_data_1_split_0
I1013 17:08:10.021546  8692 net.cpp:408] detection_loss_1_5x5 -> loss_1_5x5
I1013 17:08:10.021559  8692 layer_factory.hpp:77] Creating layer detection_loss_1_5x5
I1013 17:08:10.022709  8692 net.cpp:150] Setting up detection_loss_1_5x5
I1013 17:08:10.022723  8692 net.cpp:157] Top shape: 1 1 1 2 (2)
I1013 17:08:10.022727  8692 net.cpp:160]     with loss weight 0.9
I1013 17:08:10.022737  8692 net.cpp:165] Memory required for data: 4568393128
I1013 17:08:10.022740  8692 layer_factory.hpp:77] Creating layer detection_accuracy_1_5x5
I1013 17:08:10.022747  8692 net.cpp:100] Creating Layer detection_accuracy_1_5x5
I1013 17:08:10.022752  8692 net.cpp:434] detection_accuracy_1_5x5 <- LFCN_1_5x5_LFCN_1_5x5_0_split_1
I1013 17:08:10.022756  8692 net.cpp:434] detection_accuracy_1_5x5 <- label_1_5x5_data_1_split_1
I1013 17:08:10.022761  8692 net.cpp:408] detection_accuracy_1_5x5 -> accuracy_1_5x5
I1013 17:08:10.022770  8692 net.cpp:408] detection_accuracy_1_5x5 -> boxiou_1_5x5
I1013 17:08:10.022810  8692 net.cpp:150] Setting up detection_accuracy_1_5x5
I1013 17:08:10.022817  8692 net.cpp:157] Top shape: 1 1 1 2 (2)
I1013 17:08:10.022821  8692 net.cpp:157] Top shape: 1 1 1 1 (1)
I1013 17:08:10.022825  8692 net.cpp:165] Memory required for data: 4568393140
I1013 17:08:10.022827  8692 layer_factory.hpp:77] Creating layer LFCN_1_7x7
I1013 17:08:10.022836  8692 net.cpp:100] Creating Layer LFCN_1_7x7
I1013 17:08:10.022842  8692 net.cpp:434] LFCN_1_7x7 <- loss1_conv1_loss_relu1_0_split_1
I1013 17:08:10.022847  8692 net.cpp:408] LFCN_1_7x7 -> LFCN_1_7x7
I1013 17:08:10.029290  8692 net.cpp:150] Setting up LFCN_1_7x7
I1013 17:08:10.029304  8692 net.cpp:157] Top shape: 3 9 96 96 (248832)
I1013 17:08:10.029307  8692 net.cpp:165] Memory required for data: 4569388468
I1013 17:08:10.029314  8692 layer_factory.hpp:77] Creating layer LFCN_1_7x7_LFCN_1_7x7_0_split
I1013 17:08:10.029320  8692 net.cpp:100] Creating Layer LFCN_1_7x7_LFCN_1_7x7_0_split
I1013 17:08:10.029325  8692 net.cpp:434] LFCN_1_7x7_LFCN_1_7x7_0_split <- LFCN_1_7x7
I1013 17:08:10.029330  8692 net.cpp:408] LFCN_1_7x7_LFCN_1_7x7_0_split -> LFCN_1_7x7_LFCN_1_7x7_0_split_0
I1013 17:08:10.029337  8692 net.cpp:408] LFCN_1_7x7_LFCN_1_7x7_0_split -> LFCN_1_7x7_LFCN_1_7x7_0_split_1
I1013 17:08:10.029341  8692 net.cpp:408] LFCN_1_7x7_LFCN_1_7x7_0_split -> LFCN_1_7x7_LFCN_1_7x7_0_split_2
I1013 17:08:10.029386  8692 net.cpp:150] Setting up LFCN_1_7x7_LFCN_1_7x7_0_split
I1013 17:08:10.029392  8692 net.cpp:157] Top shape: 3 9 96 96 (248832)
I1013 17:08:10.029395  8692 net.cpp:157] Top shape: 3 9 96 96 (248832)
I1013 17:08:10.029399  8692 net.cpp:157] Top shape: 3 9 96 96 (248832)
I1013 17:08:10.029402  8692 net.cpp:165] Memory required for data: 4572374452
I1013 17:08:10.029405  8692 layer_factory.hpp:77] Creating layer detection_loss_1_7x7
I1013 17:08:10.029412  8692 net.cpp:100] Creating Layer detection_loss_1_7x7
I1013 17:08:10.029417  8692 net.cpp:434] detection_loss_1_7x7 <- LFCN_1_7x7_LFCN_1_7x7_0_split_0
I1013 17:08:10.029420  8692 net.cpp:434] detection_loss_1_7x7 <- label_1_7x7_data_2_split_0
I1013 17:08:10.029424  8692 net.cpp:408] detection_loss_1_7x7 -> loss_1_7x7
I1013 17:08:10.029431  8692 layer_factory.hpp:77] Creating layer detection_loss_1_7x7
I1013 17:08:10.031509  8692 net.cpp:150] Setting up detection_loss_1_7x7
I1013 17:08:10.031543  8692 net.cpp:157] Top shape: 1 1 1 2 (2)
I1013 17:08:10.031548  8692 net.cpp:160]     with loss weight 0.9
I1013 17:08:10.031559  8692 net.cpp:165] Memory required for data: 4572374460
I1013 17:08:10.031564  8692 layer_factory.hpp:77] Creating layer detection_accuracy_1_7x7
I1013 17:08:10.031577  8692 net.cpp:100] Creating Layer detection_accuracy_1_7x7
I1013 17:08:10.031584  8692 net.cpp:434] detection_accuracy_1_7x7 <- LFCN_1_7x7_LFCN_1_7x7_0_split_1
I1013 17:08:10.031591  8692 net.cpp:434] detection_accuracy_1_7x7 <- label_1_7x7_data_2_split_1
I1013 17:08:10.031596  8692 net.cpp:408] detection_accuracy_1_7x7 -> accuracy_1_7x7
I1013 17:08:10.031605  8692 net.cpp:408] detection_accuracy_1_7x7 -> boxiou_1_7x7
I1013 17:08:10.031652  8692 net.cpp:150] Setting up detection_accuracy_1_7x7
I1013 17:08:10.031658  8692 net.cpp:157] Top shape: 1 1 1 2 (2)
I1013 17:08:10.031663  8692 net.cpp:157] Top shape: 1 1 1 1 (1)
I1013 17:08:10.031666  8692 net.cpp:165] Memory required for data: 4572374472
I1013 17:08:10.031671  8692 layer_factory.hpp:77] Creating layer pool4
I1013 17:08:10.031677  8692 net.cpp:100] Creating Layer pool4
I1013 17:08:10.031682  8692 net.cpp:434] pool4 <- conv4_3_relu4_3_0_split_2
I1013 17:08:10.031687  8692 net.cpp:408] pool4 -> pool4
I1013 17:08:10.031720  8692 net.cpp:150] Setting up pool4
I1013 17:08:10.031726  8692 net.cpp:157] Top shape: 3 512 48 48 (3538944)
I1013 17:08:10.031729  8692 net.cpp:165] Memory required for data: 4586530248
I1013 17:08:10.031733  8692 layer_factory.hpp:77] Creating layer conv5_1
I1013 17:08:10.031742  8692 net.cpp:100] Creating Layer conv5_1
I1013 17:08:10.031746  8692 net.cpp:434] conv5_1 <- pool4
I1013 17:08:10.031750  8692 net.cpp:408] conv5_1 -> conv5_1
I1013 17:08:10.037253  8692 net.cpp:150] Setting up conv5_1
I1013 17:08:10.037288  8692 net.cpp:157] Top shape: 3 512 48 48 (3538944)
I1013 17:08:10.037292  8692 net.cpp:165] Memory required for data: 4600686024
I1013 17:08:10.037302  8692 layer_factory.hpp:77] Creating layer relu5_1
I1013 17:08:10.037314  8692 net.cpp:100] Creating Layer relu5_1
I1013 17:08:10.037320  8692 net.cpp:434] relu5_1 <- conv5_1
I1013 17:08:10.037326  8692 net.cpp:395] relu5_1 -> conv5_1 (in-place)
I1013 17:08:10.037925  8692 net.cpp:150] Setting up relu5_1
I1013 17:08:10.037938  8692 net.cpp:157] Top shape: 3 512 48 48 (3538944)
I1013 17:08:10.037941  8692 net.cpp:165] Memory required for data: 4614841800
I1013 17:08:10.037945  8692 layer_factory.hpp:77] Creating layer conv5_2
I1013 17:08:10.037955  8692 net.cpp:100] Creating Layer conv5_2
I1013 17:08:10.037958  8692 net.cpp:434] conv5_2 <- conv5_1
I1013 17:08:10.037966  8692 net.cpp:408] conv5_2 -> conv5_2
I1013 17:08:10.043812  8692 net.cpp:150] Setting up conv5_2
I1013 17:08:10.043846  8692 net.cpp:157] Top shape: 3 512 48 48 (3538944)
I1013 17:08:10.043850  8692 net.cpp:165] Memory required for data: 4628997576
I1013 17:08:10.043864  8692 layer_factory.hpp:77] Creating layer relu5_2
I1013 17:08:10.043874  8692 net.cpp:100] Creating Layer relu5_2
I1013 17:08:10.043882  8692 net.cpp:434] relu5_2 <- conv5_2
I1013 17:08:10.043886  8692 net.cpp:395] relu5_2 -> conv5_2 (in-place)
I1013 17:08:10.044026  8692 net.cpp:150] Setting up relu5_2
I1013 17:08:10.044035  8692 net.cpp:157] Top shape: 3 512 48 48 (3538944)
I1013 17:08:10.044039  8692 net.cpp:165] Memory required for data: 4643153352
I1013 17:08:10.044042  8692 layer_factory.hpp:77] Creating layer conv5_3
I1013 17:08:10.044051  8692 net.cpp:100] Creating Layer conv5_3
I1013 17:08:10.044055  8692 net.cpp:434] conv5_3 <- conv5_2
I1013 17:08:10.044060  8692 net.cpp:408] conv5_3 -> conv5_3
I1013 17:08:10.052613  8692 net.cpp:150] Setting up conv5_3
I1013 17:08:10.052959  8692 net.cpp:157] Top shape: 3 512 48 48 (3538944)
I1013 17:08:10.053016  8692 net.cpp:165] Memory required for data: 4657309128
I1013 17:08:10.053089  8692 layer_factory.hpp:77] Creating layer relu5_3
I1013 17:08:10.053150  8692 net.cpp:100] Creating Layer relu5_3
I1013 17:08:10.053164  8692 net.cpp:434] relu5_3 <- conv5_3
I1013 17:08:10.053181  8692 net.cpp:395] relu5_3 -> conv5_3 (in-place)
I1013 17:08:10.053638  8692 net.cpp:150] Setting up relu5_3
I1013 17:08:10.053660  8692 net.cpp:157] Top shape: 3 512 48 48 (3538944)
I1013 17:08:10.053665  8692 net.cpp:165] Memory required for data: 4671464904
I1013 17:08:10.053670  8692 layer_factory.hpp:77] Creating layer conv5_3_relu5_3_0_split
I1013 17:08:10.053683  8692 net.cpp:100] Creating Layer conv5_3_relu5_3_0_split
I1013 17:08:10.053689  8692 net.cpp:434] conv5_3_relu5_3_0_split <- conv5_3
I1013 17:08:10.053696  8692 net.cpp:408] conv5_3_relu5_3_0_split -> conv5_3_relu5_3_0_split_0
I1013 17:08:10.053716  8692 net.cpp:408] conv5_3_relu5_3_0_split -> conv5_3_relu5_3_0_split_1
I1013 17:08:10.053726  8692 net.cpp:408] conv5_3_relu5_3_0_split -> conv5_3_relu5_3_0_split_2
I1013 17:08:10.053822  8692 net.cpp:150] Setting up conv5_3_relu5_3_0_split
I1013 17:08:10.053830  8692 net.cpp:157] Top shape: 3 512 48 48 (3538944)
I1013 17:08:10.053836  8692 net.cpp:157] Top shape: 3 512 48 48 (3538944)
I1013 17:08:10.053841  8692 net.cpp:157] Top shape: 3 512 48 48 (3538944)
I1013 17:08:10.053846  8692 net.cpp:165] Memory required for data: 4713932232
I1013 17:08:10.053850  8692 layer_factory.hpp:77] Creating layer LFCN_2_5x5
I1013 17:08:10.053865  8692 net.cpp:100] Creating Layer LFCN_2_5x5
I1013 17:08:10.053872  8692 net.cpp:434] LFCN_2_5x5 <- conv5_3_relu5_3_0_split_0
I1013 17:08:10.053882  8692 net.cpp:408] LFCN_2_5x5 -> LFCN_2_5x5
I1013 17:08:10.059046  8692 net.cpp:150] Setting up LFCN_2_5x5
I1013 17:08:10.059067  8692 net.cpp:157] Top shape: 3 9 48 48 (62208)
I1013 17:08:10.059072  8692 net.cpp:165] Memory required for data: 4714181064
I1013 17:08:10.059080  8692 layer_factory.hpp:77] Creating layer LFCN_2_5x5_LFCN_2_5x5_0_split
I1013 17:08:10.059089  8692 net.cpp:100] Creating Layer LFCN_2_5x5_LFCN_2_5x5_0_split
I1013 17:08:10.059096  8692 net.cpp:434] LFCN_2_5x5_LFCN_2_5x5_0_split <- LFCN_2_5x5
I1013 17:08:10.059103  8692 net.cpp:408] LFCN_2_5x5_LFCN_2_5x5_0_split -> LFCN_2_5x5_LFCN_2_5x5_0_split_0
I1013 17:08:10.059111  8692 net.cpp:408] LFCN_2_5x5_LFCN_2_5x5_0_split -> LFCN_2_5x5_LFCN_2_5x5_0_split_1
I1013 17:08:10.059116  8692 net.cpp:408] LFCN_2_5x5_LFCN_2_5x5_0_split -> LFCN_2_5x5_LFCN_2_5x5_0_split_2
I1013 17:08:10.059165  8692 net.cpp:150] Setting up LFCN_2_5x5_LFCN_2_5x5_0_split
I1013 17:08:10.059173  8692 net.cpp:157] Top shape: 3 9 48 48 (62208)
I1013 17:08:10.059177  8692 net.cpp:157] Top shape: 3 9 48 48 (62208)
I1013 17:08:10.059182  8692 net.cpp:157] Top shape: 3 9 48 48 (62208)
I1013 17:08:10.059186  8692 net.cpp:165] Memory required for data: 4714927560
I1013 17:08:10.059190  8692 layer_factory.hpp:77] Creating layer detection_loss_2_5x5
I1013 17:08:10.059198  8692 net.cpp:100] Creating Layer detection_loss_2_5x5
I1013 17:08:10.059201  8692 net.cpp:434] detection_loss_2_5x5 <- LFCN_2_5x5_LFCN_2_5x5_0_split_0
I1013 17:08:10.059207  8692 net.cpp:434] detection_loss_2_5x5 <- label_2_5x5_data_3_split_0
I1013 17:08:10.059214  8692 net.cpp:408] detection_loss_2_5x5 -> loss_2_5x5
I1013 17:08:10.059224  8692 layer_factory.hpp:77] Creating layer detection_loss_2_5x5
I1013 17:08:10.059590  8692 net.cpp:150] Setting up detection_loss_2_5x5
I1013 17:08:10.059600  8692 net.cpp:157] Top shape: 1 1 1 2 (2)
I1013 17:08:10.059603  8692 net.cpp:160]     with loss weight 1
I1013 17:08:10.059614  8692 net.cpp:165] Memory required for data: 4714927568
I1013 17:08:10.059618  8692 layer_factory.hpp:77] Creating layer detection_accuracy_2_5x5
I1013 17:08:10.059625  8692 net.cpp:100] Creating Layer detection_accuracy_2_5x5
I1013 17:08:10.059628  8692 net.cpp:434] detection_accuracy_2_5x5 <- LFCN_2_5x5_LFCN_2_5x5_0_split_1
I1013 17:08:10.059633  8692 net.cpp:434] detection_accuracy_2_5x5 <- label_2_5x5_data_3_split_1
I1013 17:08:10.059638  8692 net.cpp:408] detection_accuracy_2_5x5 -> accuracy_2_5x5
I1013 17:08:10.059645  8692 net.cpp:408] detection_accuracy_2_5x5 -> boxiou_2_5x5
I1013 17:08:10.059681  8692 net.cpp:150] Setting up detection_accuracy_2_5x5
I1013 17:08:10.059687  8692 net.cpp:157] Top shape: 1 1 1 2 (2)
I1013 17:08:10.059691  8692 net.cpp:157] Top shape: 1 1 1 1 (1)
I1013 17:08:10.059695  8692 net.cpp:165] Memory required for data: 4714927580
I1013 17:08:10.059698  8692 layer_factory.hpp:77] Creating layer LFCN_2_7x7
I1013 17:08:10.059707  8692 net.cpp:100] Creating Layer LFCN_2_7x7
I1013 17:08:10.059712  8692 net.cpp:434] LFCN_2_7x7 <- conv5_3_relu5_3_0_split_1
I1013 17:08:10.059717  8692 net.cpp:408] LFCN_2_7x7 -> LFCN_2_7x7
I1013 17:08:10.068341  8692 net.cpp:150] Setting up LFCN_2_7x7
I1013 17:08:10.068385  8692 net.cpp:157] Top shape: 3 9 48 48 (62208)
I1013 17:08:10.068389  8692 net.cpp:165] Memory required for data: 4715176412
I1013 17:08:10.068401  8692 layer_factory.hpp:77] Creating layer LFCN_2_7x7_LFCN_2_7x7_0_split
I1013 17:08:10.068423  8692 net.cpp:100] Creating Layer LFCN_2_7x7_LFCN_2_7x7_0_split
I1013 17:08:10.068431  8692 net.cpp:434] LFCN_2_7x7_LFCN_2_7x7_0_split <- LFCN_2_7x7
I1013 17:08:10.068439  8692 net.cpp:408] LFCN_2_7x7_LFCN_2_7x7_0_split -> LFCN_2_7x7_LFCN_2_7x7_0_split_0
I1013 17:08:10.068451  8692 net.cpp:408] LFCN_2_7x7_LFCN_2_7x7_0_split -> LFCN_2_7x7_LFCN_2_7x7_0_split_1
I1013 17:08:10.068459  8692 net.cpp:408] LFCN_2_7x7_LFCN_2_7x7_0_split -> LFCN_2_7x7_LFCN_2_7x7_0_split_2
I1013 17:08:10.068507  8692 net.cpp:150] Setting up LFCN_2_7x7_LFCN_2_7x7_0_split
I1013 17:08:10.068516  8692 net.cpp:157] Top shape: 3 9 48 48 (62208)
I1013 17:08:10.068521  8692 net.cpp:157] Top shape: 3 9 48 48 (62208)
I1013 17:08:10.068524  8692 net.cpp:157] Top shape: 3 9 48 48 (62208)
I1013 17:08:10.068527  8692 net.cpp:165] Memory required for data: 4715922908
I1013 17:08:10.068531  8692 layer_factory.hpp:77] Creating layer detection_loss_2_7x7
I1013 17:08:10.068538  8692 net.cpp:100] Creating Layer detection_loss_2_7x7
I1013 17:08:10.068543  8692 net.cpp:434] detection_loss_2_7x7 <- LFCN_2_7x7_LFCN_2_7x7_0_split_0
I1013 17:08:10.068549  8692 net.cpp:434] detection_loss_2_7x7 <- label_2_7x7_data_4_split_0
I1013 17:08:10.068557  8692 net.cpp:408] detection_loss_2_7x7 -> loss_2_7x7
I1013 17:08:10.068567  8692 layer_factory.hpp:77] Creating layer detection_loss_2_7x7
I1013 17:08:10.068972  8692 net.cpp:150] Setting up detection_loss_2_7x7
I1013 17:08:10.069030  8692 net.cpp:157] Top shape: 1 1 1 2 (2)
I1013 17:08:10.069036  8692 net.cpp:160]     with loss weight 1
I1013 17:08:10.069078  8692 net.cpp:165] Memory required for data: 4715922916
I1013 17:08:10.069089  8692 layer_factory.hpp:77] Creating layer detection_accuracy_2_7x7
I1013 17:08:10.069128  8692 net.cpp:100] Creating Layer detection_accuracy_2_7x7
I1013 17:08:10.069144  8692 net.cpp:434] detection_accuracy_2_7x7 <- LFCN_2_7x7_LFCN_2_7x7_0_split_1
I1013 17:08:10.069155  8692 net.cpp:434] detection_accuracy_2_7x7 <- label_2_7x7_data_4_split_1
I1013 17:08:10.069165  8692 net.cpp:408] detection_accuracy_2_7x7 -> accuracy_2_7x7
I1013 17:08:10.069178  8692 net.cpp:408] detection_accuracy_2_7x7 -> boxiou_2_7x7
I1013 17:08:10.069280  8692 net.cpp:150] Setting up detection_accuracy_2_7x7
I1013 17:08:10.069299  8692 net.cpp:157] Top shape: 1 1 1 2 (2)
I1013 17:08:10.069305  8692 net.cpp:157] Top shape: 1 1 1 1 (1)
I1013 17:08:10.069310  8692 net.cpp:165] Memory required for data: 4715922928
I1013 17:08:10.069314  8692 layer_factory.hpp:77] Creating layer pool5
I1013 17:08:10.069329  8692 net.cpp:100] Creating Layer pool5
I1013 17:08:10.069339  8692 net.cpp:434] pool5 <- conv5_3_relu5_3_0_split_2
I1013 17:08:10.069347  8692 net.cpp:408] pool5 -> pool5
I1013 17:08:10.069401  8692 net.cpp:150] Setting up pool5
I1013 17:08:10.069411  8692 net.cpp:157] Top shape: 3 512 24 24 (884736)
I1013 17:08:10.069416  8692 net.cpp:165] Memory required for data: 4719461872
I1013 17:08:10.069420  8692 layer_factory.hpp:77] Creating layer conv6_1
I1013 17:08:10.069442  8692 net.cpp:100] Creating Layer conv6_1
I1013 17:08:10.069448  8692 net.cpp:434] conv6_1 <- pool5
I1013 17:08:10.069458  8692 net.cpp:408] conv6_1 -> conv6_1
I1013 17:08:10.133316  8692 net.cpp:150] Setting up conv6_1
I1013 17:08:10.133373  8692 net.cpp:157] Top shape: 3 512 24 24 (884736)
I1013 17:08:10.133380  8692 net.cpp:165] Memory required for data: 4723000816
I1013 17:08:10.133399  8692 layer_factory.hpp:77] Creating layer relu6_1
I1013 17:08:10.133424  8692 net.cpp:100] Creating Layer relu6_1
I1013 17:08:10.133435  8692 net.cpp:434] relu6_1 <- conv6_1
I1013 17:08:10.133447  8692 net.cpp:395] relu6_1 -> conv6_1 (in-place)
I1013 17:08:10.135362  8692 net.cpp:150] Setting up relu6_1
I1013 17:08:10.135424  8692 net.cpp:157] Top shape: 3 512 24 24 (884736)
I1013 17:08:10.135432  8692 net.cpp:165] Memory required for data: 4726539760
I1013 17:08:10.135442  8692 layer_factory.hpp:77] Creating layer conv6_1_relu6_1_0_split
I1013 17:08:10.135457  8692 net.cpp:100] Creating Layer conv6_1_relu6_1_0_split
I1013 17:08:10.135464  8692 net.cpp:434] conv6_1_relu6_1_0_split <- conv6_1
I1013 17:08:10.135474  8692 net.cpp:408] conv6_1_relu6_1_0_split -> conv6_1_relu6_1_0_split_0
I1013 17:08:10.135486  8692 net.cpp:408] conv6_1_relu6_1_0_split -> conv6_1_relu6_1_0_split_1
I1013 17:08:10.135493  8692 net.cpp:408] conv6_1_relu6_1_0_split -> conv6_1_relu6_1_0_split_2
I1013 17:08:10.135614  8692 net.cpp:150] Setting up conv6_1_relu6_1_0_split
I1013 17:08:10.135625  8692 net.cpp:157] Top shape: 3 512 24 24 (884736)
I1013 17:08:10.135632  8692 net.cpp:157] Top shape: 3 512 24 24 (884736)
I1013 17:08:10.135638  8692 net.cpp:157] Top shape: 3 512 24 24 (884736)
I1013 17:08:10.135643  8692 net.cpp:165] Memory required for data: 4737156592
I1013 17:08:10.135648  8692 layer_factory.hpp:77] Creating layer LFCN_3_5x5
I1013 17:08:10.135668  8692 net.cpp:100] Creating Layer LFCN_3_5x5
I1013 17:08:10.135682  8692 net.cpp:434] LFCN_3_5x5 <- conv6_1_relu6_1_0_split_0
I1013 17:08:10.135695  8692 net.cpp:408] LFCN_3_5x5 -> LFCN_3_5x5
I1013 17:08:10.141556  8692 net.cpp:150] Setting up LFCN_3_5x5
I1013 17:08:10.141587  8692 net.cpp:157] Top shape: 3 9 24 24 (15552)
I1013 17:08:10.141592  8692 net.cpp:165] Memory required for data: 4737218800
I1013 17:08:10.141600  8692 layer_factory.hpp:77] Creating layer LFCN_3_5x5_LFCN_3_5x5_0_split
I1013 17:08:10.141613  8692 net.cpp:100] Creating Layer LFCN_3_5x5_LFCN_3_5x5_0_split
I1013 17:08:10.141619  8692 net.cpp:434] LFCN_3_5x5_LFCN_3_5x5_0_split <- LFCN_3_5x5
I1013 17:08:10.141626  8692 net.cpp:408] LFCN_3_5x5_LFCN_3_5x5_0_split -> LFCN_3_5x5_LFCN_3_5x5_0_split_0
I1013 17:08:10.141634  8692 net.cpp:408] LFCN_3_5x5_LFCN_3_5x5_0_split -> LFCN_3_5x5_LFCN_3_5x5_0_split_1
I1013 17:08:10.141639  8692 net.cpp:408] LFCN_3_5x5_LFCN_3_5x5_0_split -> LFCN_3_5x5_LFCN_3_5x5_0_split_2
I1013 17:08:10.141691  8692 net.cpp:150] Setting up LFCN_3_5x5_LFCN_3_5x5_0_split
I1013 17:08:10.141698  8692 net.cpp:157] Top shape: 3 9 24 24 (15552)
I1013 17:08:10.141702  8692 net.cpp:157] Top shape: 3 9 24 24 (15552)
I1013 17:08:10.141706  8692 net.cpp:157] Top shape: 3 9 24 24 (15552)
I1013 17:08:10.141710  8692 net.cpp:165] Memory required for data: 4737405424
I1013 17:08:10.141712  8692 layer_factory.hpp:77] Creating layer detection_loss_3_5x5
I1013 17:08:10.141721  8692 net.cpp:100] Creating Layer detection_loss_3_5x5
I1013 17:08:10.141726  8692 net.cpp:434] detection_loss_3_5x5 <- LFCN_3_5x5_LFCN_3_5x5_0_split_0
I1013 17:08:10.141731  8692 net.cpp:434] detection_loss_3_5x5 <- label_3_5x5_data_5_split_0
I1013 17:08:10.141736  8692 net.cpp:408] detection_loss_3_5x5 -> loss_3_5x5
I1013 17:08:10.141746  8692 layer_factory.hpp:77] Creating layer detection_loss_3_5x5
I1013 17:08:10.142427  8692 net.cpp:150] Setting up detection_loss_3_5x5
I1013 17:08:10.142451  8692 net.cpp:157] Top shape: 1 1 1 2 (2)
I1013 17:08:10.142454  8692 net.cpp:160]     with loss weight 1
I1013 17:08:10.142467  8692 net.cpp:165] Memory required for data: 4737405432
I1013 17:08:10.142472  8692 layer_factory.hpp:77] Creating layer detection_accuracy_3_5x5
I1013 17:08:10.142479  8692 net.cpp:100] Creating Layer detection_accuracy_3_5x5
I1013 17:08:10.142483  8692 net.cpp:434] detection_accuracy_3_5x5 <- LFCN_3_5x5_LFCN_3_5x5_0_split_1
I1013 17:08:10.142489  8692 net.cpp:434] detection_accuracy_3_5x5 <- label_3_5x5_data_5_split_1
I1013 17:08:10.142498  8692 net.cpp:408] detection_accuracy_3_5x5 -> accuracy_3_5x5
I1013 17:08:10.142506  8692 net.cpp:408] detection_accuracy_3_5x5 -> boxiou_3_5x5
I1013 17:08:10.142546  8692 net.cpp:150] Setting up detection_accuracy_3_5x5
I1013 17:08:10.142552  8692 net.cpp:157] Top shape: 1 1 1 2 (2)
I1013 17:08:10.142556  8692 net.cpp:157] Top shape: 1 1 1 1 (1)
I1013 17:08:10.142560  8692 net.cpp:165] Memory required for data: 4737405444
I1013 17:08:10.142562  8692 layer_factory.hpp:77] Creating layer LFCN_3_7x7
I1013 17:08:10.142573  8692 net.cpp:100] Creating Layer LFCN_3_7x7
I1013 17:08:10.142577  8692 net.cpp:434] LFCN_3_7x7 <- conv6_1_relu6_1_0_split_1
I1013 17:08:10.142582  8692 net.cpp:408] LFCN_3_7x7 -> LFCN_3_7x7
I1013 17:08:10.150743  8692 net.cpp:150] Setting up LFCN_3_7x7
I1013 17:08:10.150768  8692 net.cpp:157] Top shape: 3 9 24 24 (15552)
I1013 17:08:10.150773  8692 net.cpp:165] Memory required for data: 4737467652
I1013 17:08:10.150781  8692 layer_factory.hpp:77] Creating layer LFCN_3_7x7_LFCN_3_7x7_0_split
I1013 17:08:10.150791  8692 net.cpp:100] Creating Layer LFCN_3_7x7_LFCN_3_7x7_0_split
I1013 17:08:10.150799  8692 net.cpp:434] LFCN_3_7x7_LFCN_3_7x7_0_split <- LFCN_3_7x7
I1013 17:08:10.150805  8692 net.cpp:408] LFCN_3_7x7_LFCN_3_7x7_0_split -> LFCN_3_7x7_LFCN_3_7x7_0_split_0
I1013 17:08:10.150815  8692 net.cpp:408] LFCN_3_7x7_LFCN_3_7x7_0_split -> LFCN_3_7x7_LFCN_3_7x7_0_split_1
I1013 17:08:10.150820  8692 net.cpp:408] LFCN_3_7x7_LFCN_3_7x7_0_split -> LFCN_3_7x7_LFCN_3_7x7_0_split_2
I1013 17:08:10.150869  8692 net.cpp:150] Setting up LFCN_3_7x7_LFCN_3_7x7_0_split
I1013 17:08:10.150876  8692 net.cpp:157] Top shape: 3 9 24 24 (15552)
I1013 17:08:10.150880  8692 net.cpp:157] Top shape: 3 9 24 24 (15552)
I1013 17:08:10.150884  8692 net.cpp:157] Top shape: 3 9 24 24 (15552)
I1013 17:08:10.150887  8692 net.cpp:165] Memory required for data: 4737654276
I1013 17:08:10.150890  8692 layer_factory.hpp:77] Creating layer detection_loss_3_7x7
I1013 17:08:10.150897  8692 net.cpp:100] Creating Layer detection_loss_3_7x7
I1013 17:08:10.150902  8692 net.cpp:434] detection_loss_3_7x7 <- LFCN_3_7x7_LFCN_3_7x7_0_split_0
I1013 17:08:10.150907  8692 net.cpp:434] detection_loss_3_7x7 <- label_3_7x7_data_6_split_0
I1013 17:08:10.150914  8692 net.cpp:408] detection_loss_3_7x7 -> loss_3_7x7
I1013 17:08:10.150923  8692 layer_factory.hpp:77] Creating layer detection_loss_3_7x7
I1013 17:08:10.151235  8692 net.cpp:150] Setting up detection_loss_3_7x7
I1013 17:08:10.151245  8692 net.cpp:157] Top shape: 1 1 1 2 (2)
I1013 17:08:10.151248  8692 net.cpp:160]     with loss weight 1
I1013 17:08:10.151258  8692 net.cpp:165] Memory required for data: 4737654284
I1013 17:08:10.151262  8692 layer_factory.hpp:77] Creating layer detection_accuracy_3_7x7
I1013 17:08:10.151268  8692 net.cpp:100] Creating Layer detection_accuracy_3_7x7
I1013 17:08:10.151273  8692 net.cpp:434] detection_accuracy_3_7x7 <- LFCN_3_7x7_LFCN_3_7x7_0_split_1
I1013 17:08:10.151276  8692 net.cpp:434] detection_accuracy_3_7x7 <- label_3_7x7_data_6_split_1
I1013 17:08:10.151281  8692 net.cpp:408] detection_accuracy_3_7x7 -> accuracy_3_7x7
I1013 17:08:10.151288  8692 net.cpp:408] detection_accuracy_3_7x7 -> boxiou_3_7x7
I1013 17:08:10.151327  8692 net.cpp:150] Setting up detection_accuracy_3_7x7
I1013 17:08:10.151334  8692 net.cpp:157] Top shape: 1 1 1 2 (2)
I1013 17:08:10.151337  8692 net.cpp:157] Top shape: 1 1 1 1 (1)
I1013 17:08:10.151340  8692 net.cpp:165] Memory required for data: 4737654296
I1013 17:08:10.151343  8692 layer_factory.hpp:77] Creating layer pool6
I1013 17:08:10.151350  8692 net.cpp:100] Creating Layer pool6
I1013 17:08:10.151353  8692 net.cpp:434] pool6 <- conv6_1_relu6_1_0_split_2
I1013 17:08:10.151360  8692 net.cpp:408] pool6 -> pool6
I1013 17:08:10.151392  8692 net.cpp:150] Setting up pool6
I1013 17:08:10.151399  8692 net.cpp:157] Top shape: 3 512 12 12 (221184)
I1013 17:08:10.151402  8692 net.cpp:165] Memory required for data: 4738539032
I1013 17:08:10.151405  8692 layer_factory.hpp:77] Creating layer LFCN_4_5x5
I1013 17:08:10.151417  8692 net.cpp:100] Creating Layer LFCN_4_5x5
I1013 17:08:10.151419  8692 net.cpp:434] LFCN_4_5x5 <- pool6
I1013 17:08:10.151425  8692 net.cpp:408] LFCN_4_5x5 -> LFCN_4_5x5
I1013 17:08:10.155396  8692 net.cpp:150] Setting up LFCN_4_5x5
I1013 17:08:10.155409  8692 net.cpp:157] Top shape: 3 9 12 12 (3888)
I1013 17:08:10.155413  8692 net.cpp:165] Memory required for data: 4738554584
I1013 17:08:10.155419  8692 layer_factory.hpp:77] Creating layer LFCN_4_5x5_LFCN_4_5x5_0_split
I1013 17:08:10.155426  8692 net.cpp:100] Creating Layer LFCN_4_5x5_LFCN_4_5x5_0_split
I1013 17:08:10.155429  8692 net.cpp:434] LFCN_4_5x5_LFCN_4_5x5_0_split <- LFCN_4_5x5
I1013 17:08:10.155436  8692 net.cpp:408] LFCN_4_5x5_LFCN_4_5x5_0_split -> LFCN_4_5x5_LFCN_4_5x5_0_split_0
I1013 17:08:10.155441  8692 net.cpp:408] LFCN_4_5x5_LFCN_4_5x5_0_split -> LFCN_4_5x5_LFCN_4_5x5_0_split_1
I1013 17:08:10.155447  8692 net.cpp:408] LFCN_4_5x5_LFCN_4_5x5_0_split -> LFCN_4_5x5_LFCN_4_5x5_0_split_2
I1013 17:08:10.155493  8692 net.cpp:150] Setting up LFCN_4_5x5_LFCN_4_5x5_0_split
I1013 17:08:10.155500  8692 net.cpp:157] Top shape: 3 9 12 12 (3888)
I1013 17:08:10.155504  8692 net.cpp:157] Top shape: 3 9 12 12 (3888)
I1013 17:08:10.155508  8692 net.cpp:157] Top shape: 3 9 12 12 (3888)
I1013 17:08:10.155511  8692 net.cpp:165] Memory required for data: 4738601240
I1013 17:08:10.155514  8692 layer_factory.hpp:77] Creating layer detection_loss_4_5x5
I1013 17:08:10.155519  8692 net.cpp:100] Creating Layer detection_loss_4_5x5
I1013 17:08:10.155522  8692 net.cpp:434] detection_loss_4_5x5 <- LFCN_4_5x5_LFCN_4_5x5_0_split_0
I1013 17:08:10.155527  8692 net.cpp:434] detection_loss_4_5x5 <- label_4_5x5_data_7_split_0
I1013 17:08:10.155532  8692 net.cpp:408] detection_loss_4_5x5 -> loss_4_5x5
I1013 17:08:10.155539  8692 layer_factory.hpp:77] Creating layer detection_loss_4_5x5
I1013 17:08:10.156245  8692 net.cpp:150] Setting up detection_loss_4_5x5
I1013 17:08:10.156265  8692 net.cpp:157] Top shape: 1 1 1 2 (2)
I1013 17:08:10.156268  8692 net.cpp:160]     with loss weight 1
I1013 17:08:10.156314  8692 net.cpp:165] Memory required for data: 4738601248
I1013 17:08:10.156323  8692 layer_factory.hpp:77] Creating layer detection_accuracy_4_5x5
I1013 17:08:10.156359  8692 net.cpp:100] Creating Layer detection_accuracy_4_5x5
I1013 17:08:10.156388  8692 net.cpp:434] detection_accuracy_4_5x5 <- LFCN_4_5x5_LFCN_4_5x5_0_split_1
I1013 17:08:10.156409  8692 net.cpp:434] detection_accuracy_4_5x5 <- label_4_5x5_data_7_split_1
I1013 17:08:10.156430  8692 net.cpp:408] detection_accuracy_4_5x5 -> accuracy_4_5x5
I1013 17:08:10.156460  8692 net.cpp:408] detection_accuracy_4_5x5 -> boxiou_4_5x5
I1013 17:08:10.156718  8692 net.cpp:150] Setting up detection_accuracy_4_5x5
I1013 17:08:10.156865  8692 net.cpp:157] Top shape: 1 1 1 2 (2)
I1013 17:08:10.156894  8692 net.cpp:157] Top shape: 1 1 1 1 (1)
I1013 17:08:10.156903  8692 net.cpp:165] Memory required for data: 4738601260
I1013 17:08:10.156914  8692 layer_factory.hpp:77] Creating layer proposals
I1013 17:08:10.156958  8692 net.cpp:100] Creating Layer proposals
I1013 17:08:10.156982  8692 net.cpp:434] proposals <- LFCN_1_5x5_LFCN_1_5x5_0_split_2
I1013 17:08:10.157004  8692 net.cpp:434] proposals <- LFCN_1_7x7_LFCN_1_7x7_0_split_2
I1013 17:08:10.157021  8692 net.cpp:434] proposals <- LFCN_2_5x5_LFCN_2_5x5_0_split_2
I1013 17:08:10.157034  8692 net.cpp:434] proposals <- LFCN_2_7x7_LFCN_2_7x7_0_split_2
I1013 17:08:10.157047  8692 net.cpp:434] proposals <- LFCN_3_5x5_LFCN_3_5x5_0_split_2
I1013 17:08:10.157059  8692 net.cpp:434] proposals <- LFCN_3_7x7_LFCN_3_7x7_0_split_2
I1013 17:08:10.157071  8692 net.cpp:434] proposals <- LFCN_4_5x5_LFCN_4_5x5_0_split_2
I1013 17:08:10.157085  8692 net.cpp:408] proposals -> proposals
I1013 17:08:10.157214  8692 net.cpp:150] Setting up proposals
I1013 17:08:10.157225  8692 net.cpp:157] Top shape: 1 5 1 1 (5)
I1013 17:08:10.157233  8692 net.cpp:165] Memory required for data: 4738601280
I1013 17:08:10.157238  8692 layer_factory.hpp:77] Creating layer proposal_info
I1013 17:08:10.157254  8692 net.cpp:100] Creating Layer proposal_info
I1013 17:08:10.157261  8692 net.cpp:434] proposal_info <- proposals
I1013 17:08:10.157270  8692 net.cpp:434] proposal_info <- gt_boxes
I1013 17:08:10.157280  8692 net.cpp:408] proposal_info -> rois
I1013 17:08:10.157296  8692 net.cpp:408] proposal_info -> proposal_labels
I1013 17:08:10.157306  8692 net.cpp:408] proposal_info -> proposal_targets
I1013 17:08:10.157317  8692 net.cpp:408] proposal_info -> box_inside_weights
I1013 17:08:10.157323  8692 net.cpp:408] proposal_info -> box_outside_weights
I1013 17:08:10.157330  8692 net.cpp:408] proposal_info -> match_gt_boxes
I1013 17:08:10.157418  8692 net.cpp:150] Setting up proposal_info
I1013 17:08:10.157424  8692 net.cpp:157] Top shape: 256 5 1 1 (1280)
I1013 17:08:10.157429  8692 net.cpp:157] Top shape: 256 1 1 1 (256)
I1013 17:08:10.157433  8692 net.cpp:157] Top shape: 256 20 1 1 (5120)
I1013 17:08:10.157436  8692 net.cpp:157] Top shape: 256 20 1 1 (5120)
I1013 17:08:10.157440  8692 net.cpp:157] Top shape: 256 20 1 1 (5120)
I1013 17:08:10.157444  8692 net.cpp:157] Top shape: 256 6 1 1 (1536)
I1013 17:08:10.157447  8692 net.cpp:165] Memory required for data: 4738675008
I1013 17:08:10.157451  8692 layer_factory.hpp:77] Creating layer rois_proposal_info_0_split
I1013 17:08:10.157456  8692 net.cpp:100] Creating Layer rois_proposal_info_0_split
I1013 17:08:10.157459  8692 net.cpp:434] rois_proposal_info_0_split <- rois
I1013 17:08:10.157464  8692 net.cpp:408] rois_proposal_info_0_split -> rois_proposal_info_0_split_0
I1013 17:08:10.157469  8692 net.cpp:408] rois_proposal_info_0_split -> rois_proposal_info_0_split_1
I1013 17:08:10.157474  8692 net.cpp:408] rois_proposal_info_0_split -> rois_proposal_info_0_split_2
I1013 17:08:10.157517  8692 net.cpp:150] Setting up rois_proposal_info_0_split
I1013 17:08:10.157523  8692 net.cpp:157] Top shape: 256 5 1 1 (1280)
I1013 17:08:10.157527  8692 net.cpp:157] Top shape: 256 5 1 1 (1280)
I1013 17:08:10.157531  8692 net.cpp:157] Top shape: 256 5 1 1 (1280)
I1013 17:08:10.157533  8692 net.cpp:165] Memory required for data: 4738690368
I1013 17:08:10.157537  8692 layer_factory.hpp:77] Creating layer proposal_labels_proposal_info_1_split
I1013 17:08:10.157541  8692 net.cpp:100] Creating Layer proposal_labels_proposal_info_1_split
I1013 17:08:10.157544  8692 net.cpp:434] proposal_labels_proposal_info_1_split <- proposal_labels
I1013 17:08:10.157548  8692 net.cpp:408] proposal_labels_proposal_info_1_split -> proposal_labels_proposal_info_1_split_0
I1013 17:08:10.157555  8692 net.cpp:408] proposal_labels_proposal_info_1_split -> proposal_labels_proposal_info_1_split_1
I1013 17:08:10.157588  8692 net.cpp:150] Setting up proposal_labels_proposal_info_1_split
I1013 17:08:10.157593  8692 net.cpp:157] Top shape: 256 1 1 1 (256)
I1013 17:08:10.157596  8692 net.cpp:157] Top shape: 256 1 1 1 (256)
I1013 17:08:10.157599  8692 net.cpp:165] Memory required for data: 4738692416
I1013 17:08:10.157603  8692 layer_factory.hpp:77] Creating layer slice1
I1013 17:08:10.157609  8692 net.cpp:100] Creating Layer slice1
I1013 17:08:10.157613  8692 net.cpp:434] slice1 <- attention_relu_attention_0_split_1
I1013 17:08:10.157619  8692 net.cpp:408] slice1 -> bg
I1013 17:08:10.157626  8692 net.cpp:408] slice1 -> attention1
I1013 17:08:10.157658  8692 net.cpp:150] Setting up slice1
I1013 17:08:10.157665  8692 net.cpp:157] Top shape: 3 1 96 96 (27648)
I1013 17:08:10.157668  8692 net.cpp:157] Top shape: 3 1 96 96 (27648)
I1013 17:08:10.157671  8692 net.cpp:165] Memory required for data: 4738913600
I1013 17:08:10.157675  8692 layer_factory.hpp:77] Creating layer silence
I1013 17:08:10.157686  8692 net.cpp:100] Creating Layer silence
I1013 17:08:10.157691  8692 net.cpp:434] silence <- bg
I1013 17:08:10.157696  8692 net.cpp:150] Setting up silence
I1013 17:08:10.157698  8692 net.cpp:165] Memory required for data: 4738913600
I1013 17:08:10.157701  8692 layer_factory.hpp:77] Creating layer conv4_3_new
I1013 17:08:10.157706  8692 net.cpp:100] Creating Layer conv4_3_new
I1013 17:08:10.157711  8692 net.cpp:434] conv4_3_new <- conv4_3_relu4_3_0_split_3
I1013 17:08:10.157714  8692 net.cpp:434] conv4_3_new <- attention1
I1013 17:08:10.157719  8692 net.cpp:408] conv4_3_new -> conv4_3_new
I1013 17:08:10.157742  8692 net.cpp:150] Setting up conv4_3_new
I1013 17:08:10.157749  8692 net.cpp:157] Top shape: 3 513 96 96 (14183424)
I1013 17:08:10.157753  8692 net.cpp:165] Memory required for data: 4795647296
I1013 17:08:10.157757  8692 layer_factory.hpp:77] Creating layer conv4_3_2x
I1013 17:08:10.157764  8692 net.cpp:100] Creating Layer conv4_3_2x
I1013 17:08:10.157769  8692 net.cpp:434] conv4_3_2x <- conv4_3_new
I1013 17:08:10.157773  8692 net.cpp:408] conv4_3_2x -> conv4_3_2x
I1013 17:08:10.158288  8692 net.cpp:150] Setting up conv4_3_2x
I1013 17:08:10.158295  8692 net.cpp:157] Top shape: 3 513 192 192 (56733696)
I1013 17:08:10.158299  8692 net.cpp:165] Memory required for data: 5022582080
I1013 17:08:10.158304  8692 layer_factory.hpp:77] Creating layer conv4_3_2x_conv4_3_2x_0_split
I1013 17:08:10.158310  8692 net.cpp:100] Creating Layer conv4_3_2x_conv4_3_2x_0_split
I1013 17:08:10.158314  8692 net.cpp:434] conv4_3_2x_conv4_3_2x_0_split <- conv4_3_2x
I1013 17:08:10.158323  8692 net.cpp:408] conv4_3_2x_conv4_3_2x_0_split -> conv4_3_2x_conv4_3_2x_0_split_0
I1013 17:08:10.158329  8692 net.cpp:408] conv4_3_2x_conv4_3_2x_0_split -> conv4_3_2x_conv4_3_2x_0_split_1
I1013 17:08:10.158363  8692 net.cpp:150] Setting up conv4_3_2x_conv4_3_2x_0_split
I1013 17:08:10.158370  8692 net.cpp:157] Top shape: 3 513 192 192 (56733696)
I1013 17:08:10.158375  8692 net.cpp:157] Top shape: 3 513 192 192 (56733696)
I1013 17:08:10.158378  8692 net.cpp:165] Memory required for data: 5476451648
I1013 17:08:10.158381  8692 layer_factory.hpp:77] Creating layer roi_pool_org
I1013 17:08:10.158387  8692 net.cpp:100] Creating Layer roi_pool_org
I1013 17:08:10.158391  8692 net.cpp:434] roi_pool_org <- conv4_3_2x_conv4_3_2x_0_split_0
I1013 17:08:10.158396  8692 net.cpp:434] roi_pool_org <- rois_proposal_info_0_split_0
I1013 17:08:10.158401  8692 net.cpp:408] roi_pool_org -> roi_pool_org
I1013 17:08:10.158411  8692 roi_pooling_layer.cpp:33] Spatial scale: 0.25
I1013 17:08:10.158452  8692 net.cpp:150] Setting up roi_pool_org
I1013 17:08:10.158457  8692 net.cpp:157] Top shape: 256 513 7 7 (6435072)
I1013 17:08:10.158463  8692 net.cpp:165] Memory required for data: 5502191936
I1013 17:08:10.158465  8692 layer_factory.hpp:77] Creating layer roi_pool_ctx
I1013 17:08:10.158470  8692 net.cpp:100] Creating Layer roi_pool_ctx
I1013 17:08:10.158473  8692 net.cpp:434] roi_pool_ctx <- conv4_3_2x_conv4_3_2x_0_split_1
I1013 17:08:10.158478  8692 net.cpp:434] roi_pool_ctx <- rois_proposal_info_0_split_1
I1013 17:08:10.158483  8692 net.cpp:408] roi_pool_ctx -> roi_pool_ctx
I1013 17:08:10.158489  8692 roi_pooling_layer.cpp:33] Spatial scale: 0.25
I1013 17:08:10.158522  8692 net.cpp:150] Setting up roi_pool_ctx
I1013 17:08:10.158529  8692 net.cpp:157] Top shape: 256 513 7 7 (6435072)
I1013 17:08:10.158531  8692 net.cpp:165] Memory required for data: 5527932224
I1013 17:08:10.158535  8692 layer_factory.hpp:77] Creating layer roi_pool
I1013 17:08:10.158540  8692 net.cpp:100] Creating Layer roi_pool
I1013 17:08:10.158542  8692 net.cpp:434] roi_pool <- roi_pool_org
I1013 17:08:10.158546  8692 net.cpp:434] roi_pool <- roi_pool_ctx
I1013 17:08:10.158553  8692 net.cpp:408] roi_pool -> roi_pool
I1013 17:08:10.158574  8692 net.cpp:150] Setting up roi_pool
I1013 17:08:10.158579  8692 net.cpp:157] Top shape: 256 1026 7 7 (12870144)
I1013 17:08:10.158582  8692 net.cpp:165] Memory required for data: 5579412800
I1013 17:08:10.158586  8692 layer_factory.hpp:77] Creating layer roi_c1
I1013 17:08:10.158593  8692 net.cpp:100] Creating Layer roi_c1
I1013 17:08:10.158598  8692 net.cpp:434] roi_c1 <- roi_pool
I1013 17:08:10.158604  8692 net.cpp:408] roi_c1 -> roi_c1
I1013 17:08:10.283632  8692 net.cpp:150] Setting up roi_c1
I1013 17:08:10.283658  8692 net.cpp:157] Top shape: 256 512 5 5 (3276800)
I1013 17:08:10.283661  8692 net.cpp:165] Memory required for data: 5592520000
I1013 17:08:10.283668  8692 layer_factory.hpp:77] Creating layer roi_c1_relu
I1013 17:08:10.283679  8692 net.cpp:100] Creating Layer roi_c1_relu
I1013 17:08:10.283684  8692 net.cpp:434] roi_c1_relu <- roi_c1
I1013 17:08:10.283690  8692 net.cpp:395] roi_c1_relu -> roi_c1 (in-place)
I1013 17:08:10.283838  8692 net.cpp:150] Setting up roi_c1_relu
I1013 17:08:10.283848  8692 net.cpp:157] Top shape: 256 512 5 5 (3276800)
I1013 17:08:10.283850  8692 net.cpp:165] Memory required for data: 5605627200
I1013 17:08:10.283854  8692 layer_factory.hpp:77] Creating layer fc6
I1013 17:08:10.283862  8692 net.cpp:100] Creating Layer fc6
I1013 17:08:10.283865  8692 net.cpp:434] fc6 <- roi_c1
I1013 17:08:10.283871  8692 net.cpp:408] fc6 -> fc6
I1013 17:08:11.527252  8692 net.cpp:150] Setting up fc6
I1013 17:08:11.527282  8692 net.cpp:157] Top shape: 256 4096 (1048576)
I1013 17:08:11.527287  8692 net.cpp:165] Memory required for data: 5609821504
I1013 17:08:11.527294  8692 layer_factory.hpp:77] Creating layer relu6
I1013 17:08:11.527305  8692 net.cpp:100] Creating Layer relu6
I1013 17:08:11.527312  8692 net.cpp:434] relu6 <- fc6
I1013 17:08:11.527318  8692 net.cpp:395] relu6 -> fc6 (in-place)
I1013 17:08:11.527537  8692 net.cpp:150] Setting up relu6
I1013 17:08:11.527546  8692 net.cpp:157] Top shape: 256 4096 (1048576)
I1013 17:08:11.527549  8692 net.cpp:165] Memory required for data: 5614015808
I1013 17:08:11.527552  8692 layer_factory.hpp:77] Creating layer drop6
I1013 17:08:11.527566  8692 net.cpp:100] Creating Layer drop6
I1013 17:08:11.527571  8692 net.cpp:434] drop6 <- fc6
I1013 17:08:11.527577  8692 net.cpp:395] drop6 -> fc6 (in-place)
I1013 17:08:11.527601  8692 net.cpp:150] Setting up drop6
I1013 17:08:11.527606  8692 net.cpp:157] Top shape: 256 4096 (1048576)
I1013 17:08:11.527609  8692 net.cpp:165] Memory required for data: 5618210112
I1013 17:08:11.527612  8692 layer_factory.hpp:77] Creating layer fc6_drop6_0_split
I1013 17:08:11.527618  8692 net.cpp:100] Creating Layer fc6_drop6_0_split
I1013 17:08:11.527622  8692 net.cpp:434] fc6_drop6_0_split <- fc6
I1013 17:08:11.527626  8692 net.cpp:408] fc6_drop6_0_split -> fc6_drop6_0_split_0
I1013 17:08:11.527632  8692 net.cpp:408] fc6_drop6_0_split -> fc6_drop6_0_split_1
I1013 17:08:11.527667  8692 net.cpp:150] Setting up fc6_drop6_0_split
I1013 17:08:11.527673  8692 net.cpp:157] Top shape: 256 4096 (1048576)
I1013 17:08:11.527676  8692 net.cpp:157] Top shape: 256 4096 (1048576)
I1013 17:08:11.527679  8692 net.cpp:165] Memory required for data: 5626598720
I1013 17:08:11.527683  8692 layer_factory.hpp:77] Creating layer cls_pred
I1013 17:08:11.527689  8692 net.cpp:100] Creating Layer cls_pred
I1013 17:08:11.527693  8692 net.cpp:434] cls_pred <- fc6_drop6_0_split_0
I1013 17:08:11.527698  8692 net.cpp:408] cls_pred -> cls_pred
I1013 17:08:11.529315  8692 net.cpp:150] Setting up cls_pred
I1013 17:08:11.529328  8692 net.cpp:157] Top shape: 256 5 (1280)
I1013 17:08:11.529331  8692 net.cpp:165] Memory required for data: 5626603840
I1013 17:08:11.529338  8692 layer_factory.hpp:77] Creating layer cls_pred_cls_pred_0_split
I1013 17:08:11.529342  8692 net.cpp:100] Creating Layer cls_pred_cls_pred_0_split
I1013 17:08:11.529346  8692 net.cpp:434] cls_pred_cls_pred_0_split <- cls_pred
I1013 17:08:11.529351  8692 net.cpp:408] cls_pred_cls_pred_0_split -> cls_pred_cls_pred_0_split_0
I1013 17:08:11.529358  8692 net.cpp:408] cls_pred_cls_pred_0_split -> cls_pred_cls_pred_0_split_1
I1013 17:08:11.529387  8692 net.cpp:150] Setting up cls_pred_cls_pred_0_split
I1013 17:08:11.529393  8692 net.cpp:157] Top shape: 256 5 (1280)
I1013 17:08:11.529397  8692 net.cpp:157] Top shape: 256 5 (1280)
I1013 17:08:11.529402  8692 net.cpp:165] Memory required for data: 5626614080
I1013 17:08:11.529405  8692 layer_factory.hpp:77] Creating layer bbox_pred
I1013 17:08:11.529410  8692 net.cpp:100] Creating Layer bbox_pred
I1013 17:08:11.529414  8692 net.cpp:434] bbox_pred <- fc6_drop6_0_split_1
I1013 17:08:11.529419  8692 net.cpp:408] bbox_pred -> bbox_pred
I1013 17:08:11.531565  8692 net.cpp:150] Setting up bbox_pred
I1013 17:08:11.531571  8692 net.cpp:157] Top shape: 256 20 (5120)
I1013 17:08:11.531574  8692 net.cpp:165] Memory required for data: 5626634560
I1013 17:08:11.531579  8692 layer_factory.hpp:77] Creating layer bbox_pred_bbox_pred_0_split
I1013 17:08:11.531581  8692 net.cpp:100] Creating Layer bbox_pred_bbox_pred_0_split
I1013 17:08:11.531584  8692 net.cpp:434] bbox_pred_bbox_pred_0_split <- bbox_pred
I1013 17:08:11.531589  8692 net.cpp:408] bbox_pred_bbox_pred_0_split -> bbox_pred_bbox_pred_0_split_0
I1013 17:08:11.531594  8692 net.cpp:408] bbox_pred_bbox_pred_0_split -> bbox_pred_bbox_pred_0_split_1
I1013 17:08:11.531616  8692 net.cpp:150] Setting up bbox_pred_bbox_pred_0_split
I1013 17:08:11.531620  8692 net.cpp:157] Top shape: 256 20 (5120)
I1013 17:08:11.531623  8692 net.cpp:157] Top shape: 256 20 (5120)
I1013 17:08:11.531626  8692 net.cpp:165] Memory required for data: 5626675520
I1013 17:08:11.531628  8692 layer_factory.hpp:77] Creating layer loss_cls
I1013 17:08:11.531633  8692 net.cpp:100] Creating Layer loss_cls
I1013 17:08:11.531636  8692 net.cpp:434] loss_cls <- cls_pred_cls_pred_0_split_0
I1013 17:08:11.531641  8692 net.cpp:434] loss_cls <- proposal_labels_proposal_info_1_split_0
…
I1013 17:08:11.545145  8692 image_gt_data_layer.cpp:235] output label size 2 : 1,6,48,48
I1013 17:08:11.545193  8692 image_gt_data_layer.cpp:235] output label size 3 : 1,6,48,48
I1013 17:08:11.545241  8692 image_gt_data_layer.cpp:235] output label size 4 : 1,6,24,24
I1013 17:08:11.545289  8692 image_gt_data_layer.cpp:235] output label size 5 : 1,6,24,24
I1013 17:08:11.545336  8692 image_gt_data_layer.cpp:235] output label size 6 : 1,6,12,12
I1013 17:08:11.545383  8692 image_gt_data_layer.cpp:250] output gt boxes size: 1,7,1,1
I1013 17:08:11.569803  8692 net.cpp:150] Setting up data
I1013 17:08:11.569839  8692 net.cpp:157] Top shape: 1 4 768 768 (2359296)
I1013 17:08:11.569847  8692 net.cpp:157] Top shape: 1 6 96 96 (55296)
I1013 17:08:11.569852  8692 net.cpp:157] Top shape: 1 6 96 96 (55296)
I1013 17:08:11.569857  8692 net.cpp:157] Top shape: 1 6 48 48 (13824)
I1013 17:08:11.569861  8692 net.cpp:157] Top shape: 1 6 48 48 (13824)
I1013 17:08:11.569865  8692 net.cpp:157] Top shape: 1 6 24 24 (3456)
I1013 17:08:11.569869  8692 net.cpp:157] Top shape: 1 6 24 24 (3456)
I1013 17:08:11.569874  8692 net.cpp:157] Top shape: 1 6 12 12 (864)
I1013 17:08:11.569877  8692 net.cpp:157] Top shape: 1 7 1 1 (7)
I1013 17:08:11.569880  8692 net.cpp:165] Memory required for data: 10021276
I1013 17:08:11.569887  8692 layer_factory.hpp:77] Creating layer label_1_5x5_data_1_split
I1013 17:08:11.569900  8692 net.cpp:100] Creating Layer label_1_5x5_data_1_split
I1013 17:08:11.569905  8692 net.cpp:434] label_1_5x5_data_1_split <- label_1_5x5
I1013 17:08:11.569912  8692 net.cpp:408] label_1_5x5_data_1_split -> label_1_5x5_data_1_split_0
I1013 17:08:11.569921  8692 net.cpp:408] label_1_5x5_data_1_split -> label_1_5x5_data_1_split_1
I1013 17:08:11.570207  8692 net.cpp:150] Setting up label_1_5x5_data_1_split
I1013 17:08:11.570257  8692 net.cpp:157] Top shape: 1 6 96 96 (55296)
I1013 17:08:11.570269  8692 net.cpp:157] Top shape: 1 6 96 96 (55296)
I1013 17:08:11.570277  8692 net.cpp:165] Memory required for data: 10463644
I1013 17:08:11.570288  8692 layer_factory.hpp:77] Creating layer label_1_7x7_data_2_split
I1013 17:08:11.570309  8692 net.cpp:100] Creating Layer label_1_7x7_data_2_split
I1013 17:08:11.570319  8692 net.cpp:434] label_1_7x7_data_2_split <- label_1_7x7
I1013 17:08:11.570334  8692 net.cpp:408] label_1_7x7_data_2_split -> label_1_7x7_data_2_split_0
I1013 17:08:11.570350  8692 net.cpp:408] label_1_7x7_data_2_split -> label_1_7x7_data_2_split_1
I1013 17:08:11.570436  8692 net.cpp:150] Setting up label_1_7x7_data_2_split
I1013 17:08:11.570447  8692 net.cpp:157] Top shape: 1 6 96 96 (55296)
I1013 17:08:11.570456  8692 net.cpp:157] Top shape: 1 6 96 96 (55296)
I1013 17:08:11.570463  8692 net.cpp:165] Memory required for data: 10906012
I1013 17:08:11.570471  8692 layer_factory.hpp:77] Creating layer label_2_5x5_data_3_split
I1013 17:08:11.570480  8692 net.cpp:100] Creating Layer label_2_5x5_data_3_split
I1013 17:08:11.570487  8692 net.cpp:434] label_2_5x5_data_3_split <- label_2_5x5
I1013 17:08:11.570499  8692 net.cpp:408] label_2_5x5_data_3_split -> label_2_5x5_data_3_split_0
I1013 17:08:11.570511  8692 net.cpp:408] label_2_5x5_data_3_split -> label_2_5x5_data_3_split_1
I1013 17:08:11.570585  8692 net.cpp:150] Setting up label_2_5x5_data_3_split
I1013 17:08:11.570596  8692 net.cpp:157] Top shape: 1 6 48 48 (13824)
I1013 17:08:11.570606  8692 net.cpp:157] Top shape: 1 6 48 48 (13824)
I1013 17:08:11.570613  8692 net.cpp:165] Memory required for data: 11016604
I1013 17:08:11.570621  8692 layer_factory.hpp:77] Creating layer label_2_7x7_data_4_split
I1013 17:08:11.570631  8692 net.cpp:100] Creating Layer label_2_7x7_data_4_split
I1013 17:08:11.570638  8692 net.cpp:434] label_2_7x7_data_4_split <- label_2_7x7
I1013 17:08:11.570647  8692 net.cpp:408] label_2_7x7_data_4_split -> label_2_7x7_data_4_split_0
I1013 17:08:11.570662  8692 net.cpp:408] label_2_7x7_data_4_split -> label_2_7x7_data_4_split_1
I1013 17:08:11.570736  8692 net.cpp:150] Setting up label_2_7x7_data_4_split
I1013 17:08:11.570746  8692 net.cpp:157] Top shape: 1 6 48 48 (13824)
I1013 17:08:11.570756  8692 net.cpp:157] Top shape: 1 6 48 48 (13824)
I1013 17:08:11.570763  8692 net.cpp:165] Memory required for data: 11127196
I1013 17:08:11.570771  8692 layer_factory.hpp:77] Creating layer label_3_5x5_data_5_split
I1013 17:08:11.570783  8692 net.cpp:100] Creating Layer label_3_5x5_data_5_split
I1013 17:08:11.570791  8692 net.cpp:434] label_3_5x5_data_5_split <- label_3_5x5
I1013 17:08:11.570801  8692 net.cpp:408] label_3_5x5_data_5_split -> label_3_5x5_data_5_split_0
I1013 17:08:11.570813  8692 net.cpp:408] label_3_5x5_data_5_split -> label_3_5x5_data_5_split_1
I1013 17:08:11.570883  8692 net.cpp:150] Setting up label_3_5x5_data_5_split
I1013 17:08:11.570894  8692 net.cpp:157] Top shape: 1 6 24 24 (3456)
I1013 17:08:11.570902  8692 net.cpp:157] Top shape: 1 6 24 24 (3456)
I1013 17:08:11.570909  8692 net.cpp:165] Memory required for data: 11154844
I1013 17:08:11.570915  8692 layer_factory.hpp:77] Creating layer label_3_7x7_data_6_split
I1013 17:08:11.570924  8692 net.cpp:100] Creating Layer label_3_7x7_data_6_split
I1013 17:08:11.570931  8692 net.cpp:434] label_3_7x7_data_6_split <- label_3_7x7
I1013 17:08:11.570941  8692 net.cpp:408] label_3_7x7_data_6_split -> label_3_7x7_data_6_split_0
I1013 17:08:11.570952  8692 net.cpp:408] label_3_7x7_data_6_split -> label_3_7x7_data_6_split_1
I1013 17:08:11.571022  8692 net.cpp:150] Setting up label_3_7x7_data_6_split
I1013 17:08:11.571033  8692 net.cpp:157] Top shape: 1 6 24 24 (3456)
I1013 17:08:11.571041  8692 net.cpp:157] Top shape: 1 6 24 24 (3456)
I1013 17:08:11.571048  8692 net.cpp:165] Memory required for data: 11182492
I1013 17:08:11.571055  8692 layer_factory.hpp:77] Creating layer label_4_5x5_data_7_split
I1013 17:08:11.571063  8692 net.cpp:100] Creating Layer label_4_5x5_data_7_split
I1013 17:08:11.571071  8692 net.cpp:434] label_4_5x5_data_7_split <- label_4_5x5
I1013 17:08:11.571085  8692 net.cpp:408] label_4_5x5_data_7_split -> label_4_5x5_data_7_split_0
I1013 17:08:11.571096  8692 net.cpp:408] label_4_5x5_data_7_split -> label_4_5x5_data_7_split_1
I1013 17:08:11.571166  8692 net.cpp:150] Setting up label_4_5x5_data_7_split
I1013 17:08:11.571175  8692 net.cpp:157] Top shape: 1 6 12 12 (864)
I1013 17:08:11.571184  8692 net.cpp:157] Top shape: 1 6 12 12 (864)
I1013 17:08:11.571192  8692 net.cpp:165] Memory required for data: 11189404
I1013 17:08:11.571198  8692 layer_factory.hpp:77] Creating layer slice
I1013 17:08:11.571215  8692 net.cpp:100] Creating Layer slice
I1013 17:08:11.571223  8692 net.cpp:434] slice <- data
I1013 17:08:11.571233  8692 net.cpp:408] slice -> data123
I1013 17:08:11.571245  8692 net.cpp:408] slice -> ch4
I1013 17:08:11.571321  8692 net.cpp:150] Setting up slice
I1013 17:08:11.571331  8692 net.cpp:157] Top shape: 1 3 768 768 (1769472)
I1013 17:08:11.571339  8692 net.cpp:157] Top shape: 1 1 768 768 (589824)
I1013 17:08:11.571346  8692 net.cpp:165] Memory required for data: 20626588
I1013 17:08:11.571353  8692 layer_factory.hpp:77] Creating layer conv1_1
I1013 17:08:11.571369  8692 net.cpp:100] Creating Layer conv1_1
I1013 17:08:11.571377  8692 net.cpp:434] conv1_1 <- data123
I1013 17:08:11.571388  8692 net.cpp:408] conv1_1 -> conv1_1
I1013 17:08:11.578608  8692 net.cpp:150] Setting up conv1_1
I1013 17:08:11.578642  8692 net.cpp:157] Top shape: 1 64 768 768 (37748736)
I1013 17:08:11.578652  8692 net.cpp:165] Memory required for data: 171621532
I1013 17:08:11.578675  8692 layer_factory.hpp:77] Creating layer relu1_1
I1013 17:08:11.578696  8692 net.cpp:100] Creating Layer relu1_1
I1013 17:08:11.578706  8692 net.cpp:434] relu1_1 <- conv1_1
I1013 17:08:11.578718  8692 net.cpp:395] relu1_1 -> conv1_1 (in-place)
I1013 17:08:11.579107  8692 net.cpp:150] Setting up relu1_1
I1013 17:08:11.579124  8692 net.cpp:157] Top shape: 1 64 768 768 (37748736)
I1013 17:08:11.579133  8692 net.cpp:165] Memory required for data: 322616476
I1013 17:08:11.579139  8692 layer_factory.hpp:77] Creating layer conv1_2
I1013 17:08:11.579156  8692 net.cpp:100] Creating Layer conv1_2
I1013 17:08:11.579164  8692 net.cpp:434] conv1_2 <- conv1_1
I1013 17:08:11.579177  8692 net.cpp:408] conv1_2 -> conv1_2
I1013 17:08:11.583600  8692 net.cpp:150] Setting up conv1_2
I1013 17:08:11.583655  8692 net.cpp:157] Top shape: 1 64 768 768 (37748736)
I1013 17:08:11.583662  8692 net.cpp:165] Memory required for data: 473611420
I1013 17:08:11.583685  8692 layer_factory.hpp:77] Creating layer relu1_2
I1013 17:08:11.583706  8692 net.cpp:100] Creating Layer relu1_2
I1013 17:08:11.583716  8692 net.cpp:434] relu1_2 <- conv1_2
I1013 17:08:11.583724  8692 net.cpp:395] relu1_2 -> conv1_2 (in-place)
I1013 17:08:11.584913  8692 net.cpp:150] Setting up relu1_2
I1013 17:08:11.585101  8692 net.cpp:157] Top shape: 1 64 768 768 (37748736)
I1013 17:08:11.585155  8692 net.cpp:165] Memory required for data: 624606364
I1013 17:08:11.585184  8692 layer_factory.hpp:77] Creating layer pool1
I1013 17:08:11.585294  8692 net.cpp:100] Creating Layer pool1
I1013 17:08:11.585347  8692 net.cpp:434] pool1 <- conv1_2
I1013 17:08:11.585403  8692 net.cpp:408] pool1 -> pool1
I1013 17:08:11.586067  8692 net.cpp:150] Setting up pool1
I1013 17:08:11.586128  8692 net.cpp:157] Top shape: 1 64 384 384 (9437184)
I1013 17:08:11.586148  8692 net.cpp:165] Memory required for data: 662355100
I1013 17:08:11.586163  8692 layer_factory.hpp:77] Creating layer conv2_1
I1013 17:08:11.586231  8692 net.cpp:100] Creating Layer conv2_1
I1013 17:08:11.586243  8692 net.cpp:434] conv2_1 <- pool1
I1013 17:08:11.586266  8692 net.cpp:408] conv2_1 -> conv2_1
I1013 17:08:11.591318  8692 net.cpp:150] Setting up conv2_1
I1013 17:08:11.591361  8692 net.cpp:157] Top shape: 1 128 384 384 (18874368)
I1013 17:08:11.591370  8692 net.cpp:165] Memory required for data: 737852572
I1013 17:08:11.591395  8692 layer_factory.hpp:77] Creating layer relu2_1
I1013 17:08:11.591415  8692 net.cpp:100] Creating Layer relu2_1
I1013 17:08:11.591428  8692 net.cpp:434] relu2_1 <- conv2_1
I1013 17:08:11.591441  8692 net.cpp:395] relu2_1 -> conv2_1 (in-place)
I1013 17:08:11.591823  8692 net.cpp:150] Setting up relu2_1
I1013 17:08:11.591840  8692 net.cpp:157] Top shape: 1 128 384 384 (18874368)
I1013 17:08:11.591846  8692 net.cpp:165] Memory required for data: 813350044
I1013 17:08:11.591853  8692 layer_factory.hpp:77] Creating layer conv2_2
I1013 17:08:11.591876  8692 net.cpp:100] Creating Layer conv2_2
I1013 17:08:11.591883  8692 net.cpp:434] conv2_2 <- conv2_1
I1013 17:08:11.591897  8692 net.cpp:408] conv2_2 -> conv2_2
I1013 17:08:11.594503  8692 net.cpp:150] Setting up conv2_2
I1013 17:08:11.594516  8692 net.cpp:157] Top shape: 1 128 384 384 (18874368)
I1013 17:08:11.594521  8692 net.cpp:165] Memory required for data: 888847516
I1013 17:08:11.594530  8692 layer_factory.hpp:77] Creating layer relu2_2
I1013 17:08:11.594540  8692 net.cpp:100] Creating Layer relu2_2
I1013 17:08:11.594544  8692 net.cpp:434] relu2_2 <- conv2_2
I1013 17:08:11.594552  8692 net.cpp:395] relu2_2 -> conv2_2 (in-place)
I1013 17:08:11.594780  8692 net.cpp:150] Setting up relu2_2
I1013 17:08:11.594790  8692 net.cpp:157] Top shape: 1 128 384 384 (18874368)
I1013 17:08:11.594794  8692 net.cpp:165] Memory required for data: 964344988
I1013 17:08:11.594799  8692 layer_factory.hpp:77] Creating layer pool2
I1013 17:08:11.594807  8692 net.cpp:100] Creating Layer pool2
I1013 17:08:11.594811  8692 net.cpp:434] pool2 <- conv2_2
I1013 17:08:11.594820  8692 net.cpp:408] pool2 -> pool2
I1013 17:08:11.594873  8692 net.cpp:150] Setting up pool2
I1013 17:08:11.594879  8692 net.cpp:157] Top shape: 1 128 192 192 (4718592)
I1013 17:08:11.594883  8692 net.cpp:165] Memory required for data: 983219356
I1013 17:08:11.594887  8692 layer_factory.hpp:77] Creating layer conv3_1
I1013 17:08:11.594898  8692 net.cpp:100] Creating Layer conv3_1
I1013 17:08:11.594902  8692 net.cpp:434] conv3_1 <- pool2
I1013 17:08:11.594911  8692 net.cpp:408] conv3_1 -> conv3_1
I1013 17:08:11.597885  8692 net.cpp:150] Setting up conv3_1
I1013 17:08:11.597911  8692 net.cpp:157] Top shape: 1 256 192 192 (9437184)
I1013 17:08:11.597916  8692 net.cpp:165] Memory required for data: 1020968092
I1013 17:08:11.597935  8692 layer_factory.hpp:77] Creating layer relu3_1
I1013 17:08:11.597947  8692 net.cpp:100] Creating Layer relu3_1
I1013 17:08:11.597954  8692 net.cpp:434] relu3_1 <- conv3_1
I1013 17:08:11.597961  8692 net.cpp:395] relu3_1 -> conv3_1 (in-place)
I1013 17:08:11.598592  8692 net.cpp:150] Setting up relu3_1
I1013 17:08:11.598608  8692 net.cpp:157] Top shape: 1 256 192 192 (9437184)
I1013 17:08:11.598611  8692 net.cpp:165] Memory required for data: 1058716828
I1013 17:08:11.598616  8692 layer_factory.hpp:77] Creating layer conv3_2
I1013 17:08:11.598629  8692 net.cpp:100] Creating Layer conv3_2
I1013 17:08:11.598635  8692 net.cpp:434] conv3_2 <- conv3_1
I1013 17:08:11.598644  8692 net.cpp:408] conv3_2 -> conv3_2
I1013 17:08:11.601555  8692 net.cpp:150] Setting up conv3_2
I1013 17:08:11.601580  8692 net.cpp:157] Top shape: 1 256 192 192 (9437184)
I1013 17:08:11.601584  8692 net.cpp:165] Memory required for data: 1096465564
I1013 17:08:11.601594  8692 layer_factory.hpp:77] Creating layer relu3_2
I1013 17:08:11.601605  8692 net.cpp:100] Creating Layer relu3_2
I1013 17:08:11.601613  8692 net.cpp:434] relu3_2 <- conv3_2
I1013 17:08:11.601619  8692 net.cpp:395] relu3_2 -> conv3_2 (in-place)
I1013 17:08:11.603655  8692 net.cpp:150] Setting up relu3_2
I1013 17:08:11.603670  8692 net.cpp:157] Top shape: 1 256 192 192 (9437184)
I1013 17:08:11.603675  8692 net.cpp:165] Memory required for data: 1134214300
I1013 17:08:11.603680  8692 layer_factory.hpp:77] Creating layer conv3_3
I1013 17:08:11.603694  8692 net.cpp:100] Creating Layer conv3_3
I1013 17:08:11.603700  8692 net.cpp:434] conv3_3 <- conv3_2
I1013 17:08:11.603706  8692 net.cpp:408] conv3_3 -> conv3_3
I1013 17:08:11.606791  8692 net.cpp:150] Setting up conv3_3
I1013 17:08:11.606809  8692 net.cpp:157] Top shape: 1 256 192 192 (9437184)
I1013 17:08:11.606814  8692 net.cpp:165] Memory required for data: 1171963036
I1013 17:08:11.606822  8692 layer_factory.hpp:77] Creating layer relu3_3
I1013 17:08:11.606832  8692 net.cpp:100] Creating Layer relu3_3
I1013 17:08:11.606837  8692 net.cpp:434] relu3_3 <- conv3_3
I1013 17:08:11.606842  8692 net.cpp:395] relu3_3 -> conv3_3 (in-place)
I1013 17:08:11.607038  8692 net.cpp:150] Setting up relu3_3
I1013 17:08:11.607048  8692 net.cpp:157] Top shape: 1 256 192 192 (9437184)
I1013 17:08:11.607053  8692 net.cpp:165] Memory required for data: 1209711772
I1013 17:08:11.607056  8692 layer_factory.hpp:77] Creating layer pool3
I1013 17:08:11.607064  8692 net.cpp:100] Creating Layer pool3
I1013 17:08:11.607067  8692 net.cpp:434] pool3 <- conv3_3
I1013 17:08:11.607074  8692 net.cpp:408] pool3 -> pool3
I1013 17:08:11.607125  8692 net.cpp:150] Setting up pool3
I1013 17:08:11.607132  8692 net.cpp:157] Top shape: 1 256 96 96 (2359296)
I1013 17:08:11.607136  8692 net.cpp:165] Memory required for data: 1219148956
I1013 17:08:11.607139  8692 layer_factory.hpp:77] Creating layer conv4_1
I1013 17:08:11.607151  8692 net.cpp:100] Creating Layer conv4_1
I1013 17:08:11.607154  8692 net.cpp:434] conv4_1 <- pool3
I1013 17:08:11.607159  8692 net.cpp:408] conv4_1 -> conv4_1
I1013 17:08:11.611310  8692 net.cpp:150] Setting up conv4_1
I1013 17:08:11.611338  8692 net.cpp:157] Top shape: 1 512 96 96 (4718592)
I1013 17:08:11.611343  8692 net.cpp:165] Memory required for data: 1238023324
I1013 17:08:11.611354  8692 layer_factory.hpp:77] Creating layer relu4_1
I1013 17:08:11.611366  8692 net.cpp:100] Creating Layer relu4_1
I1013 17:08:11.611371  8692 net.cpp:434] relu4_1 <- conv4_1
I1013 17:08:11.611378  8692 net.cpp:395] relu4_1 -> conv4_1 (in-place)
I1013 17:08:11.611595  8692 net.cpp:150] Setting up relu4_1
I1013 17:08:11.611608  8692 net.cpp:157] Top shape: 1 512 96 96 (4718592)
I1013 17:08:11.611610  8692 net.cpp:165] Memory required for data: 1256897692
I1013 17:08:11.611614  8692 layer_factory.hpp:77] Creating layer conv4_2
I1013 17:08:11.611625  8692 net.cpp:100] Creating Layer conv4_2
I1013 17:08:11.611629  8692 net.cpp:434] conv4_2 <- conv4_1
I1013 17:08:11.611636  8692 net.cpp:408] conv4_2 -> conv4_2
I1013 17:08:11.625324  8692 net.cpp:150] Setting up conv4_2
I1013 17:08:11.625371  8692 net.cpp:157] Top shape: 1 512 96 96 (4718592)
I1013 17:08:11.625376  8692 net.cpp:165] Memory required for data: 1275772060
I1013 17:08:11.625401  8692 layer_factory.hpp:77] Creating layer relu4_2
I1013 17:08:11.625418  8692 net.cpp:100] Creating Layer relu4_2
I1013 17:08:11.625428  8692 net.cpp:434] relu4_2 <- conv4_2
I1013 17:08:11.625439  8692 net.cpp:395] relu4_2 -> conv4_2 (in-place)
I1013 17:08:11.625679  8692 net.cpp:150] Setting up relu4_2
I1013 17:08:11.625691  8692 net.cpp:157] Top shape: 1 512 96 96 (4718592)
I1013 17:08:11.625695  8692 net.cpp:165] Memory required for data: 1294646428
I1013 17:08:11.625700  8692 layer_factory.hpp:77] Creating layer conv4_3
I1013 17:08:11.625715  8692 net.cpp:100] Creating Layer conv4_3
I1013 17:08:11.625720  8692 net.cpp:434] conv4_3 <- conv4_2
I1013 17:08:11.625728  8692 net.cpp:408] conv4_3 -> conv4_3
I1013 17:08:11.634699  8692 net.cpp:150] Setting up conv4_3
I1013 17:08:11.634745  8692 net.cpp:157] Top shape: 1 512 96 96 (4718592)
I1013 17:08:11.634755  8692 net.cpp:165] Memory required for data: 1313520796
I1013 17:08:11.634773  8692 layer_factory.hpp:77] Creating layer relu4_3
I1013 17:08:11.634791  8692 net.cpp:100] Creating Layer relu4_3
I1013 17:08:11.634804  8692 net.cpp:434] relu4_3 <- conv4_3
I1013 17:08:11.634824  8692 net.cpp:395] relu4_3 -> conv4_3 (in-place)
I1013 17:08:11.635238  8692 net.cpp:150] Setting up relu4_3
I1013 17:08:11.635258  8692 net.cpp:157] Top shape: 1 512 96 96 (4718592)
I1013 17:08:11.635267  8692 net.cpp:165] Memory required for data: 1332395164
I1013 17:08:11.635275  8692 layer_factory.hpp:77] Creating layer conv4_3_relu4_3_0_split
I1013 17:08:11.635296  8692 net.cpp:100] Creating Layer conv4_3_relu4_3_0_split
I1013 17:08:11.635306  8692 net.cpp:434] conv4_3_relu4_3_0_split <- conv4_3
I1013 17:08:11.635319  8692 net.cpp:408] conv4_3_relu4_3_0_split -> conv4_3_relu4_3_0_split_0
I1013 17:08:11.635335  8692 net.cpp:408] conv4_3_relu4_3_0_split -> conv4_3_relu4_3_0_split_1
I1013 17:08:11.635350  8692 net.cpp:408] conv4_3_relu4_3_0_split -> conv4_3_relu4_3_0_split_2
I1013 17:08:11.635365  8692 net.cpp:408] conv4_3_relu4_3_0_split -> conv4_3_relu4_3_0_split_3
I1013 17:08:11.635524  8692 net.cpp:150] Setting up conv4_3_relu4_3_0_split
I1013 17:08:11.635538  8692 net.cpp:157] Top shape: 1 512 96 96 (4718592)
I1013 17:08:11.635550  8692 net.cpp:157] Top shape: 1 512 96 96 (4718592)
I1013 17:08:11.635561  8692 net.cpp:157] Top shape: 1 512 96 96 (4718592)
I1013 17:08:11.635571  8692 net.cpp:157] Top shape: 1 512 96 96 (4718592)
I1013 17:08:11.635579  8692 net.cpp:165] Memory required for data: 1407892636
I1013 17:08:11.635588  8692 layer_factory.hpp:77] Creating layer buffer
I1013 17:08:11.635610  8692 net.cpp:100] Creating Layer buffer
I1013 17:08:11.635620  8692 net.cpp:434] buffer <- conv4_3_relu4_3_0_split_0
I1013 17:08:11.635635  8692 net.cpp:408] buffer -> buffer
I1013 17:08:11.703248  8692 net.cpp:150] Setting up buffer
I1013 17:08:11.703275  8692 net.cpp:157] Top shape: 1 512 96 96 (4718592)
I1013 17:08:11.703279  8692 net.cpp:165] Memory required for data: 1426767004
I1013 17:08:11.703286  8692 layer_factory.hpp:77] Creating layer relu_buffer
I1013 17:08:11.703296  8692 net.cpp:100] Creating Layer relu_buffer
I1013 17:08:11.703301  8692 net.cpp:434] relu_buffer <- buffer
I1013 17:08:11.703306  8692 net.cpp:395] relu_buffer -> buffer (in-place)
I1013 17:08:11.703794  8692 net.cpp:150] Setting up relu_buffer
I1013 17:08:11.703806  8692 net.cpp:157] Top shape: 1 512 96 96 (4718592)
I1013 17:08:11.703809  8692 net.cpp:165] Memory required for data: 1445641372
I1013 17:08:11.703814  8692 layer_factory.hpp:77] Creating layer attention
I1013 17:08:11.703822  8692 net.cpp:100] Creating Layer attention
I1013 17:08:11.703825  8692 net.cpp:434] attention <- buffer
I1013 17:08:11.703832  8692 net.cpp:408] attention -> attention
I1013 17:08:11.704896  8692 net.cpp:150] Setting up attention
I1013 17:08:11.704908  8692 net.cpp:157] Top shape: 1 2 96 96 (18432)
I1013 17:08:11.704912  8692 net.cpp:165] Memory required for data: 1445715100
I1013 17:08:11.704918  8692 layer_factory.hpp:77] Creating layer relu_attention
I1013 17:08:11.704926  8692 net.cpp:100] Creating Layer relu_attention
I1013 17:08:11.704928  8692 net.cpp:434] relu_attention <- attention
I1013 17:08:11.704933  8692 net.cpp:395] relu_attention -> attention (in-place)
I1013 17:08:11.705451  8692 net.cpp:150] Setting up relu_attention
I1013 17:08:11.705463  8692 net.cpp:157] Top shape: 1 2 96 96 (18432)
I1013 17:08:11.705466  8692 net.cpp:165] Memory required for data: 1445788828
I1013 17:08:11.705471  8692 layer_factory.hpp:77] Creating layer attention_relu_attention_0_split
I1013 17:08:11.705476  8692 net.cpp:100] Creating Layer attention_relu_attention_0_split
I1013 17:08:11.705479  8692 net.cpp:434] attention_relu_attention_0_split <- attention
I1013 17:08:11.705485  8692 net.cpp:408] attention_relu_attention_0_split -> attention_relu_attention_0_split_0
I1013 17:08:11.705492  8692 net.cpp:408] attention_relu_attention_0_split -> attention_relu_attention_0_split_1
I1013 17:08:11.705531  8692 net.cpp:150] Setting up attention_relu_attention_0_split
I1013 17:08:11.705538  8692 net.cpp:157] Top shape: 1 2 96 96 (18432)
I1013 17:08:11.705541  8692 net.cpp:157] Top shape: 1 2 96 96 (18432)
I1013 17:08:11.705544  8692 net.cpp:165] Memory required for data: 1445936284
I1013 17:08:11.705548  8692 layer_factory.hpp:77] Creating layer ch4_pool
I1013 17:08:11.705554  8692 net.cpp:100] Creating Layer ch4_pool
I1013 17:08:11.705556  8692 net.cpp:434] ch4_pool <- ch4
I1013 17:08:11.705561  8692 net.cpp:408] ch4_pool -> ch4_pool
I1013 17:08:11.705598  8692 net.cpp:150] Setting up ch4_pool
I1013 17:08:11.705606  8692 net.cpp:157] Top shape: 1 1 96 96 (9216)
I1013 17:08:11.705610  8692 net.cpp:165] Memory required for data: 1445973148
I1013 17:08:11.705612  8692 layer_factory.hpp:77] Creating layer loss_attention
I1013 17:08:11.705618  8692 net.cpp:100] Creating Layer loss_attention
I1013 17:08:11.705621  8692 net.cpp:434] loss_attention <- attention_relu_attention_0_split_0
I1013 17:08:11.705626  8692 net.cpp:434] loss_attention <- ch4_pool
I1013 17:08:11.705631  8692 net.cpp:408] loss_attention -> loss_attention
I1013 17:08:11.705638  8692 layer_factory.hpp:77] Creating layer loss_attention
I1013 17:08:11.705884  8692 net.cpp:150] Setting up loss_attention
I1013 17:08:11.705893  8692 net.cpp:157] Top shape: (1)
I1013 17:08:11.705896  8692 net.cpp:160]     with loss weight 1
I1013 17:08:11.705906  8692 net.cpp:165] Memory required for data: 1445973152
I1013 17:08:11.705910  8692 layer_factory.hpp:77] Creating layer loss1_conv1
I1013 17:08:11.705920  8692 net.cpp:100] Creating Layer loss1_conv1
I1013 17:08:11.705925  8692 net.cpp:434] loss1_conv1 <- conv4_3_relu4_3_0_split_1
I1013 17:08:11.705931  8692 net.cpp:408] loss1_conv1 -> loss1_conv1
I1013 17:08:11.767644  8692 net.cpp:150] Setting up loss1_conv1
I1013 17:08:11.767673  8692 net.cpp:157] Top shape: 1 512 96 96 (4718592)
I1013 17:08:11.767676  8692 net.cpp:165] Memory required for data: 1464847520
I1013 17:08:11.767686  8692 layer_factory.hpp:77] Creating layer loss_relu1
I1013 17:08:11.767699  8692 net.cpp:100] Creating Layer loss_relu1
I1013 17:08:11.767705  8692 net.cpp:434] loss_relu1 <- loss1_conv1
I1013 17:08:11.767711  8692 net.cpp:395] loss_relu1 -> loss1_conv1 (in-place)
I1013 17:08:11.767885  8692 net.cpp:150] Setting up loss_relu1
I1013 17:08:11.767894  8692 net.cpp:157] Top shape: 1 512 96 96 (4718592)
I1013 17:08:11.767897  8692 net.cpp:165] Memory required for data: 1483721888
I1013 17:08:11.767901  8692 layer_factory.hpp:77] Creating layer loss1_conv1_loss_relu1_0_split
I1013 17:08:11.767907  8692 net.cpp:100] Creating Layer loss1_conv1_loss_relu1_0_split
I1013 17:08:11.767910  8692 net.cpp:434] loss1_conv1_loss_relu1_0_split <- loss1_conv1
I1013 17:08:11.767916  8692 net.cpp:408] loss1_conv1_loss_relu1_0_split -> loss1_conv1_loss_relu1_0_split_0
I1013 17:08:11.767922  8692 net.cpp:408] loss1_conv1_loss_relu1_0_split -> loss1_conv1_loss_relu1_0_split_1
I1013 17:08:11.767961  8692 net.cpp:150] Setting up loss1_conv1_loss_relu1_0_split
I1013 17:08:11.767966  8692 net.cpp:157] Top shape: 1 512 96 96 (4718592)
I1013 17:08:11.767971  8692 net.cpp:157] Top shape: 1 512 96 96 (4718592)
I1013 17:08:11.767973  8692 net.cpp:165] Memory required for data: 1521470624
I1013 17:08:11.767976  8692 layer_factory.hpp:77] Creating layer LFCN_1_5x5
I1013 17:08:11.767988  8692 net.cpp:100] Creating Layer LFCN_1_5x5
I1013 17:08:11.767992  8692 net.cpp:434] LFCN_1_5x5 <- loss1_conv1_loss_relu1_0_split_0
I1013 17:08:11.767998  8692 net.cpp:408] LFCN_1_5x5 -> LFCN_1_5x5
I1013 17:08:11.771984  8692 net.cpp:150] Setting up LFCN_1_5x5
I1013 17:08:11.771998  8692 net.cpp:157] Top shape: 1 9 96 96 (82944)
I1013 17:08:11.772001  8692 net.cpp:165] Memory required for data: 1521802400
I1013 17:08:11.772007  8692 layer_factory.hpp:77] Creating layer LFCN_1_5x5_LFCN_1_5x5_0_split
I1013 17:08:11.772013  8692 net.cpp:100] Creating Layer LFCN_1_5x5_LFCN_1_5x5_0_split
I1013 17:08:11.772017  8692 net.cpp:434] LFCN_1_5x5_LFCN_1_5x5_0_split <- LFCN_1_5x5
I1013 17:08:11.772022  8692 net.cpp:408] LFCN_1_5x5_LFCN_1_5x5_0_split -> LFCN_1_5x5_LFCN_1_5x5_0_split_0
I1013 17:08:11.772028  8692 net.cpp:408] LFCN_1_5x5_LFCN_1_5x5_0_split -> LFCN_1_5x5_LFCN_1_5x5_0_split_1
I1013 17:08:11.772035  8692 net.cpp:408] LFCN_1_5x5_LFCN_1_5x5_0_split -> LFCN_1_5x5_LFCN_1_5x5_0_split_2
I1013 17:08:11.772089  8692 net.cpp:150] Setting up LFCN_1_5x5_LFCN_1_5x5_0_split
I1013 17:08:11.772094  8692 net.cpp:157] Top shape: 1 9 96 96 (82944)
I1013 17:08:11.772099  8692 net.cpp:157] Top shape: 1 9 96 96 (82944)
I1013 17:08:11.772102  8692 net.cpp:157] Top shape: 1 9 96 96 (82944)
I1013 17:08:11.772105  8692 net.cpp:165] Memory required for data: 1522797728
I1013 17:08:11.772109  8692 layer_factory.hpp:77] Creating layer detection_loss_1_5x5
I1013 17:08:11.772116  8692 net.cpp:100] Creating Layer detection_loss_1_5x5
I1013 17:08:11.772119  8692 net.cpp:434] detection_loss_1_5x5 <- LFCN_1_5x5_LFCN_1_5x5_0_split_0
I1013 17:08:11.772125  8692 net.cpp:434] detection_loss_1_5x5 <- label_1_5x5_data_1_split_0
I1013 17:08:11.772128  8692 net.cpp:408] detection_loss_1_5x5 -> loss_1_5x5
I1013 17:08:11.772136  8692 layer_factory.hpp:77] Creating layer detection_loss_1_5x5
I1013 17:08:11.773342  8692 net.cpp:150] Setting up detection_loss_1_5x5
I1013 17:08:11.773355  8692 net.cpp:157] Top shape: 1 1 1 2 (2)
I1013 17:08:11.773360  8692 net.cpp:160]     with loss weight 0.9
I1013 17:08:11.773370  8692 net.cpp:165] Memory required for data: 1522797736
I1013 17:08:11.773375  8692 layer_factory.hpp:77] Creating layer detection_accuracy_1_5x5
I1013 17:08:11.773382  8692 net.cpp:100] Creating Layer detection_accuracy_1_5x5
I1013 17:08:11.773386  8692 net.cpp:434] detection_accuracy_1_5x5 <- LFCN_1_5x5_LFCN_1_5x5_0_split_1
I1013 17:08:11.773391  8692 net.cpp:434] detection_accuracy_1_5x5 <- label_1_5x5_data_1_split_1
I1013 17:08:11.773396  8692 net.cpp:408] detection_accuracy_1_5x5 -> accuracy_1_5x5
I1013 17:08:11.773402  8692 net.cpp:408] detection_accuracy_1_5x5 -> boxiou_1_5x5
I1013 17:08:11.773443  8692 net.cpp:150] Setting up detection_accuracy_1_5x5
I1013 17:08:11.773449  8692 net.cpp:157] Top shape: 1 1 1 2 (2)
I1013 17:08:11.773454  8692 net.cpp:157] Top shape: 1 1 1 1 (1)
I1013 17:08:11.773456  8692 net.cpp:165] Memory required for data: 1522797748
I1013 17:08:11.773460  8692 layer_factory.hpp:77] Creating layer LFCN_1_7x7
I1013 17:08:11.773469  8692 net.cpp:100] Creating Layer LFCN_1_7x7
I1013 17:08:11.773473  8692 net.cpp:434] LFCN_1_7x7 <- loss1_conv1_loss_relu1_0_split_1
I1013 17:08:11.773480  8692 net.cpp:408] LFCN_1_7x7 -> LFCN_1_7x7
I1013 17:08:11.783306  8692 net.cpp:150] Setting up LFCN_1_7x7
I1013 17:08:11.783335  8692 net.cpp:157] Top shape: 1 9 96 96 (82944)
I1013 17:08:11.783341  8692 net.cpp:165] Memory required for data: 1523129524
I1013 17:08:11.783354  8692 layer_factory.hpp:77] Creating layer LFCN_1_7x7_LFCN_1_7x7_0_split
I1013 17:08:11.783368  8692 net.cpp:100] Creating Layer LFCN_1_7x7_LFCN_1_7x7_0_split
I1013 17:08:11.783375  8692 net.cpp:434] LFCN_1_7x7_LFCN_1_7x7_0_split <- LFCN_1_7x7
I1013 17:08:11.783385  8692 net.cpp:408] LFCN_1_7x7_LFCN_1_7x7_0_split -> LFCN_1_7x7_LFCN_1_7x7_0_split_0
I1013 17:08:11.783394  8692 net.cpp:408] LFCN_1_7x7_LFCN_1_7x7_0_split -> LFCN_1_7x7_LFCN_1_7x7_0_split_1
I1013 17:08:11.783404  8692 net.cpp:408] LFCN_1_7x7_LFCN_1_7x7_0_split -> LFCN_1_7x7_LFCN_1_7x7_0_split_2
I1013 17:08:11.783491  8692 net.cpp:150] Setting up LFCN_1_7x7_LFCN_1_7x7_0_split
I1013 17:08:11.783504  8692 net.cpp:157] Top shape: 1 9 96 96 (82944)
I1013 17:08:11.783511  8692 net.cpp:157] Top shape: 1 9 96 96 (82944)
I1013 17:08:11.783517  8692 net.cpp:157] Top shape: 1 9 96 96 (82944)
I1013 17:08:11.783524  8692 net.cpp:165] Memory required for data: 1524124852
I1013 17:08:11.783527  8692 layer_factory.hpp:77] Creating layer detection_loss_1_7x7
I1013 17:08:11.783540  8692 net.cpp:100] Creating Layer detection_loss_1_7x7
I1013 17:08:11.783545  8692 net.cpp:434] detection_loss_1_7x7 <- LFCN_1_7x7_LFCN_1_7x7_0_split_0
I1013 17:08:11.783552  8692 net.cpp:434] detection_loss_1_7x7 <- label_1_7x7_data_2_split_0
I1013 17:08:11.783561  8692 net.cpp:408] detection_loss_1_7x7 -> loss_1_7x7
I1013 17:08:11.783574  8692 layer_factory.hpp:77] Creating layer detection_loss_1_7x7
I1013 17:08:11.784394  8692 net.cpp:150] Setting up detection_loss_1_7x7
I1013 17:08:11.784407  8692 net.cpp:157] Top shape: 1 1 1 2 (2)
I1013 17:08:11.784410  8692 net.cpp:160]     with loss weight 0.9
I1013 17:08:11.784422  8692 net.cpp:165] Memory required for data: 1524124860
I1013 17:08:11.784427  8692 layer_factory.hpp:77] Creating layer detection_accuracy_1_7x7
I1013 17:08:11.784436  8692 net.cpp:100] Creating Layer detection_accuracy_1_7x7
I1013 17:08:11.784441  8692 net.cpp:434] detection_accuracy_1_7x7 <- LFCN_1_7x7_LFCN_1_7x7_0_split_1
I1013 17:08:11.784446  8692 net.cpp:434] detection_accuracy_1_7x7 <- label_1_7x7_data_2_split_1
I1013 17:08:11.784451  8692 net.cpp:408] detection_accuracy_1_7x7 -> accuracy_1_7x7
I1013 17:08:11.784459  8692 net.cpp:408] detection_accuracy_1_7x7 -> boxiou_1_7x7
I1013 17:08:11.784508  8692 net.cpp:150] Setting up detection_accuracy_1_7x7
I1013 17:08:11.784514  8692 net.cpp:157] Top shape: 1 1 1 2 (2)
I1013 17:08:11.784518  8692 net.cpp:157] Top shape: 1 1 1 1 (1)
I1013 17:08:11.784523  8692 net.cpp:165] Memory required for data: 1524124872
I1013 17:08:11.784525  8692 layer_factory.hpp:77] Creating layer pool4
I1013 17:08:11.784531  8692 net.cpp:100] Creating Layer pool4
I1013 17:08:11.784536  8692 net.cpp:434] pool4 <- conv4_3_relu4_3_0_split_2
I1013 17:08:11.784543  8692 net.cpp:408] pool4 -> pool4
I1013 17:08:11.784584  8692 net.cpp:150] Setting up pool4
I1013 17:08:11.784590  8692 net.cpp:157] Top shape: 1 512 48 48 (1179648)
I1013 17:08:11.784592  8692 net.cpp:165] Memory required for data: 1528843464
I1013 17:08:11.784595  8692 layer_factory.hpp:77] Creating layer conv5_1
I1013 17:08:11.784605  8692 net.cpp:100] Creating Layer conv5_1
I1013 17:08:11.784610  8692 net.cpp:434] conv5_1 <- pool4
I1013 17:08:11.784613  8692 net.cpp:408] conv5_1 -> conv5_1
I1013 17:08:11.790067  8692 net.cpp:150] Setting up conv5_1
I1013 17:08:11.790105  8692 net.cpp:157] Top shape: 1 512 48 48 (1179648)
I1013 17:08:11.790110  8692 net.cpp:165] Memory required for data: 1533562056
I1013 17:08:11.790120  8692 layer_factory.hpp:77] Creating layer relu5_1
I1013 17:08:11.790133  8692 net.cpp:100] Creating Layer relu5_1
I1013 17:08:11.790139  8692 net.cpp:434] relu5_1 <- conv5_1
I1013 17:08:11.790144  8692 net.cpp:395] relu5_1 -> conv5_1 (in-place)
I1013 17:08:11.790817  8692 net.cpp:150] Setting up relu5_1
I1013 17:08:11.790829  8692 net.cpp:157] Top shape: 1 512 48 48 (1179648)
I1013 17:08:11.790833  8692 net.cpp:165] Memory required for data: 1538280648
I1013 17:08:11.790837  8692 layer_factory.hpp:77] Creating layer conv5_2
I1013 17:08:11.790845  8692 net.cpp:100] Creating Layer conv5_2
I1013 17:08:11.790849  8692 net.cpp:434] conv5_2 <- conv5_1
I1013 17:08:11.790855  8692 net.cpp:408] conv5_2 -> conv5_2
I1013 17:08:11.797083  8692 net.cpp:150] Setting up conv5_2
I1013 17:08:11.797123  8692 net.cpp:157] Top shape: 1 512 48 48 (1179648)
I1013 17:08:11.797127  8692 net.cpp:165] Memory required for data: 1542999240
I1013 17:08:11.797152  8692 layer_factory.hpp:77] Creating layer relu5_2
I1013 17:08:11.797168  8692 net.cpp:100] Creating Layer relu5_2
I1013 17:08:11.797176  8692 net.cpp:434] relu5_2 <- conv5_2
I1013 17:08:11.797184  8692 net.cpp:395] relu5_2 -> conv5_2 (in-place)
I1013 17:08:11.797385  8692 net.cpp:150] Setting up relu5_2
I1013 17:08:11.797399  8692 net.cpp:157] Top shape: 1 512 48 48 (1179648)
I1013 17:08:11.797402  8692 net.cpp:165] Memory required for data: 1547717832
I1013 17:08:11.797407  8692 layer_factory.hpp:77] Creating layer conv5_3
I1013 17:08:11.797422  8692 net.cpp:100] Creating Layer conv5_3
I1013 17:08:11.797428  8692 net.cpp:434] conv5_3 <- conv5_2
I1013 17:08:11.797435  8692 net.cpp:408] conv5_3 -> conv5_3
I1013 17:08:11.806393  8692 net.cpp:150] Setting up conv5_3
I1013 17:08:11.806421  8692 net.cpp:157] Top shape: 1 512 48 48 (1179648)
I1013 17:08:11.806427  8692 net.cpp:165] Memory required for data: 1552436424
I1013 17:08:11.806435  8692 layer_factory.hpp:77] Creating layer relu5_3
I1013 17:08:11.806447  8692 net.cpp:100] Creating Layer relu5_3
I1013 17:08:11.806454  8692 net.cpp:434] relu5_3 <- conv5_3
I1013 17:08:11.806460  8692 net.cpp:395] relu5_3 -> conv5_3 (in-place)
I1013 17:08:11.806625  8692 net.cpp:150] Setting up relu5_3
I1013 17:08:11.806634  8692 net.cpp:157] Top shape: 1 512 48 48 (1179648)
I1013 17:08:11.806638  8692 net.cpp:165] Memory required for data: 1557155016
I1013 17:08:11.806641  8692 layer_factory.hpp:77] Creating layer conv5_3_relu5_3_0_split
I1013 17:08:11.806648  8692 net.cpp:100] Creating Layer conv5_3_relu5_3_0_split
I1013 17:08:11.806650  8692 net.cpp:434] conv5_3_relu5_3_0_split <- conv5_3
I1013 17:08:11.806656  8692 net.cpp:408] conv5_3_relu5_3_0_split -> conv5_3_relu5_3_0_split_0
I1013 17:08:11.806664  8692 net.cpp:408] conv5_3_relu5_3_0_split -> conv5_3_relu5_3_0_split_1
I1013 17:08:11.806669  8692 net.cpp:408] conv5_3_relu5_3_0_split -> conv5_3_relu5_3_0_split_2
I1013 17:08:11.806723  8692 net.cpp:150] Setting up conv5_3_relu5_3_0_split
I1013 17:08:11.806730  8692 net.cpp:157] Top shape: 1 512 48 48 (1179648)
I1013 17:08:11.806735  8692 net.cpp:157] Top shape: 1 512 48 48 (1179648)
I1013 17:08:11.806738  8692 net.cpp:157] Top shape: 1 512 48 48 (1179648)
I1013 17:08:11.806741  8692 net.cpp:165] Memory required for data: 1571310792
I1013 17:08:11.806744  8692 layer_factory.hpp:77] Creating layer LFCN_2_5x5
I1013 17:08:11.806756  8692 net.cpp:100] Creating Layer LFCN_2_5x5
I1013 17:08:11.806759  8692 net.cpp:434] LFCN_2_5x5 <- conv5_3_relu5_3_0_split_0
I1013 17:08:11.806766  8692 net.cpp:408] LFCN_2_5x5 -> LFCN_2_5x5
I1013 17:08:11.810784  8692 net.cpp:150] Setting up LFCN_2_5x5
I1013 17:08:11.810796  8692 net.cpp:157] Top shape: 1 9 48 48 (20736)
I1013 17:08:11.810798  8692 net.cpp:165] Memory required for data: 1571393736
I1013 17:08:11.810803  8692 layer_factory.hpp:77] Creating layer LFCN_2_5x5_LFCN_2_5x5_0_split
I1013 17:08:11.810809  8692 net.cpp:100] Creating Layer LFCN_2_5x5_LFCN_2_5x5_0_split
I1013 17:08:11.810812  8692 net.cpp:434] LFCN_2_5x5_LFCN_2_5x5_0_split <- LFCN_2_5x5
I1013 17:08:11.810817  8692 net.cpp:408] LFCN_2_5x5_LFCN_2_5x5_0_split -> LFCN_2_5x5_LFCN_2_5x5_0_split_0
I1013 17:08:11.810822  8692 net.cpp:408] LFCN_2_5x5_LFCN_2_5x5_0_split -> LFCN_2_5x5_LFCN_2_5x5_0_split_1
I1013 17:08:11.810827  8692 net.cpp:408] LFCN_2_5x5_LFCN_2_5x5_0_split -> LFCN_2_5x5_LFCN_2_5x5_0_split_2
I1013 17:08:11.810873  8692 net.cpp:150] Setting up LFCN_2_5x5_LFCN_2_5x5_0_split
I1013 17:08:11.810878  8692 net.cpp:157] Top shape: 1 9 48 48 (20736)
I1013 17:08:11.810881  8692 net.cpp:157] Top shape: 1 9 48 48 (20736)
I1013 17:08:11.810885  8692 net.cpp:157] Top shape: 1 9 48 48 (20736)
I1013 17:08:11.810887  8692 net.cpp:165] Memory required for data: 1571642568
I1013 17:08:11.810890  8692 layer_factory.hpp:77] Creating layer detection_loss_2_5x5
I1013 17:08:11.810895  8692 net.cpp:100] Creating Layer detection_loss_2_5x5
I1013 17:08:11.810899  8692 net.cpp:434] detection_loss_2_5x5 <- LFCN_2_5x5_LFCN_2_5x5_0_split_0
I1013 17:08:11.810902  8692 net.cpp:434] detection_loss_2_5x5 <- label_2_5x5_data_3_split_0
I1013 17:08:11.810909  8692 net.cpp:408] detection_loss_2_5x5 -> loss_2_5x5
I1013 17:08:11.810916  8692 layer_factory.hpp:77] Creating layer detection_loss_2_5x5
I1013 17:08:11.811267  8692 net.cpp:150] Setting up detection_loss_2_5x5
I1013 17:08:11.811277  8692 net.cpp:157] Top shape: 1 1 1 2 (2)
I1013 17:08:11.811280  8692 net.cpp:160]     with loss weight 1
I1013 17:08:11.811290  8692 net.cpp:165] Memory required for data: 1571642576
I1013 17:08:11.811293  8692 layer_factory.hpp:77] Creating layer detection_accuracy_2_5x5
I1013 17:08:11.811300  8692 net.cpp:100] Creating Layer detection_accuracy_2_5x5
I1013 17:08:11.811303  8692 net.cpp:434] detection_accuracy_2_5x5 <- LFCN_2_5x5_LFCN_2_5x5_0_split_1
I1013 17:08:11.811309  8692 net.cpp:434] detection_accuracy_2_5x5 <- label_2_5x5_data_3_split_1
I1013 17:08:11.811314  8692 net.cpp:408] detection_accuracy_2_5x5 -> accuracy_2_5x5
I1013 17:08:11.811321  8692 net.cpp:408] detection_accuracy_2_5x5 -> boxiou_2_5x5
I1013 17:08:11.811362  8692 net.cpp:150] Setting up detection_accuracy_2_5x5
I1013 17:08:11.811368  8692 net.cpp:157] Top shape: 1 1 1 2 (2)
I1013 17:08:11.811372  8692 net.cpp:157] Top shape: 1 1 1 1 (1)
I1013 17:08:11.811375  8692 net.cpp:165] Memory required for data: 1571642588
I1013 17:08:11.811378  8692 layer_factory.hpp:77] Creating layer LFCN_2_7x7
I1013 17:08:11.811386  8692 net.cpp:100] Creating Layer LFCN_2_7x7
I1013 17:08:11.811390  8692 net.cpp:434] LFCN_2_7x7 <- conv5_3_relu5_3_0_split_1
I1013 17:08:11.811396  8692 net.cpp:408] LFCN_2_7x7 -> LFCN_2_7x7
I1013 17:08:11.820175  8692 net.cpp:150] Setting up LFCN_2_7x7
I1013 17:08:11.820260  8692 net.cpp:157] Top shape: 1 9 48 48 (20736)
I1013 17:08:11.820268  8692 net.cpp:165] Memory required for data: 1571725532
I1013 17:08:11.820281  8692 layer_factory.hpp:77] Creating layer LFCN_2_7x7_LFCN_2_7x7_0_split
I1013 17:08:11.820312  8692 net.cpp:100] Creating Layer LFCN_2_7x7_LFCN_2_7x7_0_split
I1013 17:08:11.820322  8692 net.cpp:434] LFCN_2_7x7_LFCN_2_7x7_0_split <- LFCN_2_7x7
I1013 17:08:11.820333  8692 net.cpp:408] LFCN_2_7x7_LFCN_2_7x7_0_split -> LFCN_2_7x7_LFCN_2_7x7_0_split_0
I1013 17:08:11.820348  8692 net.cpp:408] LFCN_2_7x7_LFCN_2_7x7_0_split -> LFCN_2_7x7_LFCN_2_7x7_0_split_1
I1013 17:08:11.820353  8692 net.cpp:408] LFCN_2_7x7_LFCN_2_7x7_0_split -> LFCN_2_7x7_LFCN_2_7x7_0_split_2
I1013 17:08:11.820415  8692 net.cpp:150] Setting up LFCN_2_7x7_LFCN_2_7x7_0_split
I1013 17:08:11.820421  8692 net.cpp:157] Top shape: 1 9 48 48 (20736)
I1013 17:08:11.820426  8692 net.cpp:157] Top shape: 1 9 48 48 (20736)
I1013 17:08:11.820430  8692 net.cpp:157] Top shape: 1 9 48 48 (20736)
I1013 17:08:11.820433  8692 net.cpp:165] Memory required for data: 1571974364
I1013 17:08:11.820437  8692 layer_factory.hpp:77] Creating layer detection_loss_2_7x7
I1013 17:08:11.820446  8692 net.cpp:100] Creating Layer detection_loss_2_7x7
I1013 17:08:11.820449  8692 net.cpp:434] detection_loss_2_7x7 <- LFCN_2_7x7_LFCN_2_7x7_0_split_0
I1013 17:08:11.820456  8692 net.cpp:434] detection_loss_2_7x7 <- label_2_7x7_data_4_split_0
I1013 17:08:11.820464  8692 net.cpp:408] detection_loss_2_7x7 -> loss_2_7x7
I1013 17:08:11.820475  8692 layer_factory.hpp:77] Creating layer detection_loss_2_7x7
I1013 17:08:11.820894  8692 net.cpp:150] Setting up detection_loss_2_7x7
I1013 17:08:11.820902  8692 net.cpp:157] Top shape: 1 1 1 2 (2)
I1013 17:08:11.820905  8692 net.cpp:160]     with loss weight 1
I1013 17:08:11.820936  8692 net.cpp:165] Memory required for data: 1571974372
I1013 17:08:11.820940  8692 layer_factory.hpp:77] Creating layer detection_accuracy_2_7x7
I1013 17:08:11.820950  8692 net.cpp:100] Creating Layer detection_accuracy_2_7x7
I1013 17:08:11.820953  8692 net.cpp:434] detection_accuracy_2_7x7 <- LFCN_2_7x7_LFCN_2_7x7_0_split_1
I1013 17:08:11.820957  8692 net.cpp:434] detection_accuracy_2_7x7 <- label_2_7x7_data_4_split_1
I1013 17:08:11.820966  8692 net.cpp:408] detection_accuracy_2_7x7 -> accuracy_2_7x7
I1013 17:08:11.820972  8692 net.cpp:408] detection_accuracy_2_7x7 -> boxiou_2_7x7
I1013 17:08:11.821019  8692 net.cpp:150] Setting up detection_accuracy_2_7x7
I1013 17:08:11.821027  8692 net.cpp:157] Top shape: 1 1 1 2 (2)
I1013 17:08:11.821030  8692 net.cpp:157] Top shape: 1 1 1 1 (1)
I1013 17:08:11.821033  8692 net.cpp:165] Memory required for data: 1571974384
I1013 17:08:11.821036  8692 layer_factory.hpp:77] Creating layer pool5
I1013 17:08:11.821043  8692 net.cpp:100] Creating Layer pool5
I1013 17:08:11.821048  8692 net.cpp:434] pool5 <- conv5_3_relu5_3_0_split_2
I1013 17:08:11.821053  8692 net.cpp:408] pool5 -> pool5
I1013 17:08:11.821092  8692 net.cpp:150] Setting up pool5
I1013 17:08:11.821099  8692 net.cpp:157] Top shape: 1 512 24 24 (294912)
I1013 17:08:11.821101  8692 net.cpp:165] Memory required for data: 1573154032
I1013 17:08:11.821105  8692 layer_factory.hpp:77] Creating layer conv6_1
I1013 17:08:11.821121  8692 net.cpp:100] Creating Layer conv6_1
I1013 17:08:11.821125  8692 net.cpp:434] conv6_1 <- pool5
I1013 17:08:11.821132  8692 net.cpp:408] conv6_1 -> conv6_1
I1013 17:08:11.883677  8692 net.cpp:150] Setting up conv6_1
I1013 17:08:11.883731  8692 net.cpp:157] Top shape: 1 512 24 24 (294912)
I1013 17:08:11.883738  8692 net.cpp:165] Memory required for data: 1574333680
I1013 17:08:11.883749  8692 layer_factory.hpp:77] Creating layer relu6_1
I1013 17:08:11.883770  8692 net.cpp:100] Creating Layer relu6_1
I1013 17:08:11.883780  8692 net.cpp:434] relu6_1 <- conv6_1
I1013 17:08:11.883787  8692 net.cpp:395] relu6_1 -> conv6_1 (in-place)
I1013 17:08:11.885536  8692 net.cpp:150] Setting up relu6_1
I1013 17:08:11.885598  8692 net.cpp:157] Top shape: 1 512 24 24 (294912)
I1013 17:08:11.885603  8692 net.cpp:165] Memory required for data: 1575513328
I1013 17:08:11.885612  8692 layer_factory.hpp:77] Creating layer conv6_1_relu6_1_0_split
I1013 17:08:11.885634  8692 net.cpp:100] Creating Layer conv6_1_relu6_1_0_split
I1013 17:08:11.885643  8692 net.cpp:434] conv6_1_relu6_1_0_split <- conv6_1
I1013 17:08:11.885653  8692 net.cpp:408] conv6_1_relu6_1_0_split -> conv6_1_relu6_1_0_split_0
I1013 17:08:11.885663  8692 net.cpp:408] conv6_1_relu6_1_0_split -> conv6_1_relu6_1_0_split_1
I1013 17:08:11.885669  8692 net.cpp:408] conv6_1_relu6_1_0_split -> conv6_1_relu6_1_0_split_2
I1013 17:08:11.885764  8692 net.cpp:150] Setting up conv6_1_relu6_1_0_split
I1013 17:08:11.885771  8692 net.cpp:157] Top shape: 1 512 24 24 (294912)
I1013 17:08:11.885776  8692 net.cpp:157] Top shape: 1 512 24 24 (294912)
I1013 17:08:11.885779  8692 net.cpp:157] Top shape: 1 512 24 24 (294912)
I1013 17:08:11.885782  8692 net.cpp:165] Memory required for data: 1579052272
I1013 17:08:11.885787  8692 layer_factory.hpp:77] Creating layer LFCN_3_5x5
I1013 17:08:11.885798  8692 net.cpp:100] Creating Layer LFCN_3_5x5
I1013 17:08:11.885802  8692 net.cpp:434] LFCN_3_5x5 <- conv6_1_relu6_1_0_split_0
I1013 17:08:11.885808  8692 net.cpp:408] LFCN_3_5x5 -> LFCN_3_5x5
I1013 17:08:11.889950  8692 net.cpp:150] Setting up LFCN_3_5x5
I1013 17:08:11.890007  8692 net.cpp:157] Top shape: 1 9 24 24 (5184)
I1013 17:08:11.890012  8692 net.cpp:165] Memory required for data: 1579073008
I1013 17:08:11.890023  8692 layer_factory.hpp:77] Creating layer LFCN_3_5x5_LFCN_3_5x5_0_split
I1013 17:08:11.890041  8692 net.cpp:100] Creating Layer LFCN_3_5x5_LFCN_3_5x5_0_split
I1013 17:08:11.890050  8692 net.cpp:434] LFCN_3_5x5_LFCN_3_5x5_0_split <- LFCN_3_5x5
I1013 17:08:11.890060  8692 net.cpp:408] LFCN_3_5x5_LFCN_3_5x5_0_split -> LFCN_3_5x5_LFCN_3_5x5_0_split_0
I1013 17:08:11.890071  8692 net.cpp:408] LFCN_3_5x5_LFCN_3_5x5_0_split -> LFCN_3_5x5_LFCN_3_5x5_0_split_1
I1013 17:08:11.890077  8692 net.cpp:408] LFCN_3_5x5_LFCN_3_5x5_0_split -> LFCN_3_5x5_LFCN_3_5x5_0_split_2
I1013 17:08:11.890141  8692 net.cpp:150] Setting up LFCN_3_5x5_LFCN_3_5x5_0_split
I1013 17:08:11.890152  8692 net.cpp:157] Top shape: 1 9 24 24 (5184)
I1013 17:08:11.890157  8692 net.cpp:157] Top shape: 1 9 24 24 (5184)
I1013 17:08:11.890163  8692 net.cpp:157] Top shape: 1 9 24 24 (5184)
I1013 17:08:11.890167  8692 net.cpp:165] Memory required for data: 1579135216
I1013 17:08:11.890172  8692 layer_factory.hpp:77] Creating layer detection_loss_3_5x5
I1013 17:08:11.890189  8692 net.cpp:100] Creating Layer detection_loss_3_5x5
I1013 17:08:11.890193  8692 net.cpp:434] detection_loss_3_5x5 <- LFCN_3_5x5_LFCN_3_5x5_0_split_0
I1013 17:08:11.890203  8692 net.cpp:434] detection_loss_3_5x5 <- label_3_5x5_data_5_split_0
I1013 17:08:11.890213  8692 net.cpp:408] detection_loss_3_5x5 -> loss_3_5x5
I1013 17:08:11.890230  8692 layer_factory.hpp:77] Creating layer detection_loss_3_5x5
I1013 17:08:11.891278  8692 net.cpp:150] Setting up detection_loss_3_5x5
I1013 17:08:11.891293  8692 net.cpp:157] Top shape: 1 1 1 2 (2)
I1013 17:08:11.891297  8692 net.cpp:160]     with loss weight 1
I1013 17:08:11.891314  8692 net.cpp:165] Memory required for data: 1579135224
I1013 17:08:11.891319  8692 layer_factory.hpp:77] Creating layer detection_accuracy_3_5x5
I1013 17:08:11.891330  8692 net.cpp:100] Creating Layer detection_accuracy_3_5x5
I1013 17:08:11.891338  8692 net.cpp:434] detection_accuracy_3_5x5 <- LFCN_3_5x5_LFCN_3_5x5_0_split_1
I1013 17:08:11.891346  8692 net.cpp:434] detection_accuracy_3_5x5 <- label_3_5x5_data_5_split_1
I1013 17:08:11.891356  8692 net.cpp:408] detection_accuracy_3_5x5 -> accuracy_3_5x5
I1013 17:08:11.891371  8692 net.cpp:408] detection_accuracy_3_5x5 -> boxiou_3_5x5
I1013 17:08:11.891422  8692 net.cpp:150] Setting up detection_accuracy_3_5x5
I1013 17:08:11.891432  8692 net.cpp:157] Top shape: 1 1 1 2 (2)
I1013 17:08:11.891438  8692 net.cpp:157] Top shape: 1 1 1 1 (1)
I1013 17:08:11.891441  8692 net.cpp:165] Memory required for data: 1579135236
I1013 17:08:11.891446  8692 layer_factory.hpp:77] Creating layer LFCN_3_7x7
I1013 17:08:11.891460  8692 net.cpp:100] Creating Layer LFCN_3_7x7
I1013 17:08:11.891468  8692 net.cpp:434] LFCN_3_7x7 <- conv6_1_relu6_1_0_split_1
I1013 17:08:11.891479  8692 net.cpp:408] LFCN_3_7x7 -> LFCN_3_7x7
I1013 17:08:11.900851  8692 net.cpp:150] Setting up LFCN_3_7x7
I1013 17:08:11.900900  8692 net.cpp:157] Top shape: 1 9 24 24 (5184)
I1013 17:08:11.900907  8692 net.cpp:165] Memory required for data: 1579155972
I1013 17:08:11.900923  8692 layer_factory.hpp:77] Creating layer LFCN_3_7x7_LFCN_3_7x7_0_split
I1013 17:08:11.900938  8692 net.cpp:100] Creating Layer LFCN_3_7x7_LFCN_3_7x7_0_split
I1013 17:08:11.900948  8692 net.cpp:434] LFCN_3_7x7_LFCN_3_7x7_0_split <- LFCN_3_7x7
I1013 17:08:11.900959  8692 net.cpp:408] LFCN_3_7x7_LFCN_3_7x7_0_split -> LFCN_3_7x7_LFCN_3_7x7_0_split_0
I1013 17:08:11.900971  8692 net.cpp:408] LFCN_3_7x7_LFCN_3_7x7_0_split -> LFCN_3_7x7_LFCN_3_7x7_0_split_1
I1013 17:08:11.900982  8692 net.cpp:408] LFCN_3_7x7_LFCN_3_7x7_0_split -> LFCN_3_7x7_LFCN_3_7x7_0_split_2
I1013 17:08:11.901075  8692 net.cpp:150] Setting up LFCN_3_7x7_LFCN_3_7x7_0_split
I1013 17:08:11.901085  8692 net.cpp:157] Top shape: 1 9 24 24 (5184)
I1013 17:08:11.901091  8692 net.cpp:157] Top shape: 1 9 24 24 (5184)
I1013 17:08:11.901096  8692 net.cpp:157] Top shape: 1 9 24 24 (5184)
I1013 17:08:11.901101  8692 net.cpp:165] Memory required for data: 1579218180
I1013 17:08:11.901106  8692 layer_factory.hpp:77] Creating layer detection_loss_3_7x7
I1013 17:08:11.901118  8692 net.cpp:100] Creating Layer detection_loss_3_7x7
I1013 17:08:11.901124  8692 net.cpp:434] detection_loss_3_7x7 <- LFCN_3_7x7_LFCN_3_7x7_0_split_0
I1013 17:08:11.901131  8692 net.cpp:434] detection_loss_3_7x7 <- label_3_7x7_data_6_split_0
I1013 17:08:11.901139  8692 net.cpp:408] detection_loss_3_7x7 -> loss_3_7x7
I1013 17:08:11.901154  8692 layer_factory.hpp:77] Creating layer detection_loss_3_7x7
I1013 17:08:11.901765  8692 net.cpp:150] Setting up detection_loss_3_7x7
I1013 17:08:11.901780  8692 net.cpp:157] Top shape: 1 1 1 2 (2)
I1013 17:08:11.901787  8692 net.cpp:160]     with loss weight 1
I1013 17:08:11.901801  8692 net.cpp:165] Memory required for data: 1579218188
I1013 17:08:11.901806  8692 layer_factory.hpp:77] Creating layer detection_accuracy_3_7x7
I1013 17:08:11.901814  8692 net.cpp:100] Creating Layer detection_accuracy_3_7x7
I1013 17:08:11.901820  8692 net.cpp:434] detection_accuracy_3_7x7 <- LFCN_3_7x7_LFCN_3_7x7_0_split_1
I1013 17:08:11.901829  8692 net.cpp:434] detection_accuracy_3_7x7 <- label_3_7x7_data_6_split_1
I1013 17:08:11.901839  8692 net.cpp:408] detection_accuracy_3_7x7 -> accuracy_3_7x7
I1013 17:08:11.901852  8692 net.cpp:408] detection_accuracy_3_7x7 -> boxiou_3_7x7
I1013 17:08:11.901922  8692 net.cpp:150] Setting up detection_accuracy_3_7x7
I1013 17:08:11.901934  8692 net.cpp:157] Top shape: 1 1 1 2 (2)
I1013 17:08:11.901939  8692 net.cpp:157] Top shape: 1 1 1 1 (1)
I1013 17:08:11.901945  8692 net.cpp:165] Memory required for data: 1579218200
I1013 17:08:11.901949  8692 layer_factory.hpp:77] Creating layer pool6
I1013 17:08:11.901958  8692 net.cpp:100] Creating Layer pool6
I1013 17:08:11.901965  8692 net.cpp:434] pool6 <- conv6_1_relu6_1_0_split_2
I1013 17:08:11.901975  8692 net.cpp:408] pool6 -> pool6
I1013 17:08:11.902038  8692 net.cpp:150] Setting up pool6
I1013 17:08:11.902050  8692 net.cpp:157] Top shape: 1 512 12 12 (73728)
I1013 17:08:11.902055  8692 net.cpp:165] Memory required for data: 1579513112
I1013 17:08:11.902060  8692 layer_factory.hpp:77] Creating layer LFCN_4_5x5
I1013 17:08:11.902074  8692 net.cpp:100] Creating Layer LFCN_4_5x5
I1013 17:08:11.902087  8692 net.cpp:434] LFCN_4_5x5 <- pool6
I1013 17:08:11.902097  8692 net.cpp:408] LFCN_4_5x5 -> LFCN_4_5x5
I1013 17:08:11.906313  8692 net.cpp:150] Setting up LFCN_4_5x5
I1013 17:08:11.906325  8692 net.cpp:157] Top shape: 1 9 12 12 (1296)
I1013 17:08:11.906328  8692 net.cpp:165] Memory required for data: 1579518296
I1013 17:08:11.906334  8692 layer_factory.hpp:77] Creating layer LFCN_4_5x5_LFCN_4_5x5_0_split
I1013 17:08:11.906340  8692 net.cpp:100] Creating Layer LFCN_4_5x5_LFCN_4_5x5_0_split
I1013 17:08:11.906343  8692 net.cpp:434] LFCN_4_5x5_LFCN_4_5x5_0_split <- LFCN_4_5x5
I1013 17:08:11.906349  8692 net.cpp:408] LFCN_4_5x5_LFCN_4_5x5_0_split -> LFCN_4_5x5_LFCN_4_5x5_0_split_0
I1013 17:08:11.906355  8692 net.cpp:408] LFCN_4_5x5_LFCN_4_5x5_0_split -> LFCN_4_5x5_LFCN_4_5x5_0_split_1
I1013 17:08:11.906359  8692 net.cpp:408] LFCN_4_5x5_LFCN_4_5x5_0_split -> LFCN_4_5x5_LFCN_4_5x5_0_split_2
I1013 17:08:11.906407  8692 net.cpp:150] Setting up LFCN_4_5x5_LFCN_4_5x5_0_split
I1013 17:08:11.906414  8692 net.cpp:157] Top shape: 1 9 12 12 (1296)
I1013 17:08:11.906417  8692 net.cpp:157] Top shape: 1 9 12 12 (1296)
I1013 17:08:11.906420  8692 net.cpp:157] Top shape: 1 9 12 12 (1296)
I1013 17:08:11.906424  8692 net.cpp:165] Memory required for data: 1579533848
I1013 17:08:11.906425  8692 layer_factory.hpp:77] Creating layer detection_loss_4_5x5
I1013 17:08:11.906431  8692 net.cpp:100] Creating Layer detection_loss_4_5x5
I1013 17:08:11.906435  8692 net.cpp:434] detection_loss_4_5x5 <- LFCN_4_5x5_LFCN_4_5x5_0_split_0
I1013 17:08:11.906440  8692 net.cpp:434] detection_loss_4_5x5 <- label_4_5x5_data_7_split_0
I1013 17:08:11.906445  8692 net.cpp:408] detection_loss_4_5x5 -> loss_4_5x5
I1013 17:08:11.906452  8692 layer_factory.hpp:77] Creating layer detection_loss_4_5x5
I1013 17:08:11.906803  8692 net.cpp:150] Setting up detection_loss_4_5x5
I1013 17:08:11.906813  8692 net.cpp:157] Top shape: 1 1 1 2 (2)
I1013 17:08:11.906816  8692 net.cpp:160]     with loss weight 1
I1013 17:08:11.906822  8692 net.cpp:165] Memory required for data: 1579533856
I1013 17:08:11.906826  8692 layer_factory.hpp:77] Creating layer detection_accuracy_4_5x5
I1013 17:08:11.906832  8692 net.cpp:100] Creating Layer detection_accuracy_4_5x5
I1013 17:08:11.906836  8692 net.cpp:434] detection_accuracy_4_5x5 <- LFCN_4_5x5_LFCN_4_5x5_0_split_1
I1013 17:08:11.906841  8692 net.cpp:434] detection_accuracy_4_5x5 <- label_4_5x5_data_7_split_1
I1013 17:08:11.906846  8692 net.cpp:408] detection_accuracy_4_5x5 -> accuracy_4_5x5
I1013 17:08:11.906852  8692 net.cpp:408] detection_accuracy_4_5x5 -> boxiou_4_5x5
I1013 17:08:11.906893  8692 net.cpp:150] Setting up detection_accuracy_4_5x5
I1013 17:08:11.906899  8692 net.cpp:157] Top shape: 1 1 1 2 (2)
I1013 17:08:11.906903  8692 net.cpp:157] Top shape: 1 1 1 1 (1)
I1013 17:08:11.906906  8692 net.cpp:165] Memory required for data: 1579533868
I1013 17:08:11.906909  8692 layer_factory.hpp:77] Creating layer proposals
I1013 17:08:11.906916  8692 net.cpp:100] Creating Layer proposals
I1013 17:08:11.906920  8692 net.cpp:434] proposals <- LFCN_1_5x5_LFCN_1_5x5_0_split_2
I1013 17:08:11.906924  8692 net.cpp:434] proposals <- LFCN_1_7x7_LFCN_1_7x7_0_split_2
I1013 17:08:11.906929  8692 net.cpp:434] proposals <- LFCN_2_5x5_LFCN_2_5x5_0_split_2
I1013 17:08:11.906934  8692 net.cpp:434] proposals <- LFCN_2_7x7_LFCN_2_7x7_0_split_2
I1013 17:08:11.906936  8692 net.cpp:434] proposals <- LFCN_3_5x5_LFCN_3_5x5_0_split_2
I1013 17:08:11.906940  8692 net.cpp:434] proposals <- LFCN_3_7x7_LFCN_3_7x7_0_split_2
I1013 17:08:11.906944  8692 net.cpp:434] proposals <- LFCN_4_5x5_LFCN_4_5x5_0_split_2
I1013 17:08:11.906949  8692 net.cpp:408] proposals -> proposals
I1013 17:08:11.906973  8692 net.cpp:150] Setting up proposals
I1013 17:08:11.906980  8692 net.cpp:157] Top shape: 1 5 1 1 (5)
I1013 17:08:11.906982  8692 net.cpp:165] Memory required for data: 1579533888
I1013 17:08:11.906985  8692 layer_factory.hpp:77] Creating layer proposal_info
I1013 17:08:11.906996  8692 net.cpp:100] Creating Layer proposal_info
I1013 17:08:11.906999  8692 net.cpp:434] proposal_info <- proposals
I1013 17:08:11.907003  8692 net.cpp:434] proposal_info <- gt_boxes
I1013 17:08:11.907008  8692 net.cpp:408] proposal_info -> rois
I1013 17:08:11.907016  8692 net.cpp:408] proposal_info -> proposal_labels
I1013 17:08:11.907023  8692 net.cpp:408] proposal_info -> proposal_targets
I1013 17:08:11.907029  8692 net.cpp:408] proposal_info -> box_inside_weights
I1013 17:08:11.907035  8692 net.cpp:408] proposal_info -> box_outside_weights
I1013 17:08:11.907042  8692 net.cpp:408] proposal_info -> match_gt_boxes
I1013 17:08:11.907136  8692 net.cpp:150] Setting up proposal_info
I1013 17:08:11.907143  8692 net.cpp:157] Top shape: 128 5 1 1 (640)
I1013 17:08:11.907147  8692 net.cpp:157] Top shape: 128 1 1 1 (128)
I1013 17:08:11.907151  8692 net.cpp:157] Top shape: 128 20 1 1 (2560)
I1013 17:08:11.907155  8692 net.cpp:157] Top shape: 128 20 1 1 (2560)
I1013 17:08:11.907160  8692 net.cpp:157] Top shape: 128 20 1 1 (2560)
I1013 17:08:11.907163  8692 net.cpp:157] Top shape: 128 6 1 1 (768)
I1013 17:08:11.907166  8692 net.cpp:165] Memory required for data: 1579570752
I1013 17:08:11.907171  8692 layer_factory.hpp:77] Creating layer rois_proposal_info_0_split
I1013 17:08:11.907176  8692 net.cpp:100] Creating Layer rois_proposal_info_0_split
I1013 17:08:11.907179  8692 net.cpp:434] rois_proposal_info_0_split <- rois
I1013 17:08:11.907183  8692 net.cpp:408] rois_proposal_info_0_split -> rois_proposal_info_0_split_0
I1013 17:08:11.907191  8692 net.cpp:408] rois_proposal_info_0_split -> rois_proposal_info_0_split_1
I1013 17:08:11.907196  8692 net.cpp:408] rois_proposal_info_0_split -> rois_proposal_info_0_split_2
I1013 17:08:11.907253  8692 net.cpp:150] Setting up rois_proposal_info_0_split
I1013 17:08:11.907259  8692 net.cpp:157] Top shape: 128 5 1 1 (640)
I1013 17:08:11.907263  8692 net.cpp:157] Top shape: 128 5 1 1 (640)
I1013 17:08:11.907268  8692 net.cpp:157] Top shape: 128 5 1 1 (640)
I1013 17:08:11.907270  8692 net.cpp:165] Memory required for data: 1579578432
I1013 17:08:11.907274  8692 layer_factory.hpp:77] Creating layer proposal_labels_proposal_info_1_split
I1013 17:08:11.907277  8692 net.cpp:100] Creating Layer proposal_labels_proposal_info_1_split
I1013 17:08:11.907280  8692 net.cpp:434] proposal_labels_proposal_info_1_split <- proposal_labels
I1013 17:08:11.907286  8692 net.cpp:408] proposal_labels_proposal_info_1_split -> proposal_labels_proposal_info_1_split_0
I1013 17:08:11.907292  8692 net.cpp:408] proposal_labels_proposal_info_1_split -> proposal_labels_proposal_info_1_split_1
I1013 17:08:11.907327  8692 net.cpp:150] Setting up proposal_labels_proposal_info_1_split
I1013 17:08:11.907333  8692 net.cpp:157] Top shape: 128 1 1 1 (128)
I1013 17:08:11.907337  8692 net.cpp:157] Top shape: 128 1 1 1 (128)
I1013 17:08:11.907341  8692 net.cpp:165] Memory required for data: 1579579456
I1013 17:08:11.907343  8692 layer_factory.hpp:77] Creating layer slice1
I1013 17:08:11.907348  8692 net.cpp:100] Creating Layer slice1
I1013 17:08:11.907352  8692 net.cpp:434] slice1 <- attention_relu_attention_0_split_1
I1013 17:08:11.907356  8692 net.cpp:408] slice1 -> bg
I1013 17:08:11.907362  8692 net.cpp:408] slice1 -> attention1
I1013 17:08:11.907400  8692 net.cpp:150] Setting up slice1
I1013 17:08:11.907407  8692 net.cpp:157] Top shape: 1 1 96 96 (9216)
I1013 17:08:11.907410  8692 net.cpp:157] Top shape: 1 1 96 96 (9216)
I1013 17:08:11.907413  8692 net.cpp:165] Memory required for data: 1579653184
I1013 17:08:11.907416  8692 layer_factory.hpp:77] Creating layer silence
I1013 17:08:11.907420  8692 net.cpp:100] Creating Layer silence
I1013 17:08:11.907423  8692 net.cpp:434] silence <- bg
I1013 17:08:11.907428  8692 net.cpp:150] Setting up silence
I1013 17:08:11.907431  8692 net.cpp:165] Memory required for data: 1579653184
I1013 17:08:11.907434  8692 layer_factory.hpp:77] Creating layer conv4_3_new
I1013 17:08:11.907438  8692 net.cpp:100] Creating Layer conv4_3_new
I1013 17:08:11.907443  8692 net.cpp:434] conv4_3_new <- conv4_3_relu4_3_0_split_3
I1013 17:08:11.907447  8692 net.cpp:434] conv4_3_new <- attention1
I1013 17:08:11.907452  8692 net.cpp:408] conv4_3_new -> conv4_3_new
I1013 17:08:11.907476  8692 net.cpp:150] Setting up conv4_3_new
I1013 17:08:11.907482  8692 net.cpp:157] Top shape: 1 513 96 96 (4727808)
I1013 17:08:11.907485  8692 net.cpp:165] Memory required for data: 1598564416
I1013 17:08:11.907488  8692 layer_factory.hpp:77] Creating layer conv4_3_2x
I1013 17:08:11.907497  8692 net.cpp:100] Creating Layer conv4_3_2x
I1013 17:08:11.907501  8692 net.cpp:434] conv4_3_2x <- conv4_3_new
I1013 17:08:11.907507  8692 net.cpp:408] conv4_3_2x -> conv4_3_2x
I1013 17:08:11.908061  8692 net.cpp:150] Setting up conv4_3_2x
I1013 17:08:11.908069  8692 net.cpp:157] Top shape: 1 513 192 192 (18911232)
I1013 17:08:11.908072  8692 net.cpp:165] Memory required for data: 1674209344
I1013 17:08:11.908077  8692 layer_factory.hpp:77] Creating layer conv4_3_2x_conv4_3_2x_0_split
I1013 17:08:11.908082  8692 net.cpp:100] Creating Layer conv4_3_2x_conv4_3_2x_0_split
I1013 17:08:11.908085  8692 net.cpp:434] conv4_3_2x_conv4_3_2x_0_split <- conv4_3_2x
I1013 17:08:11.908089  8692 net.cpp:408] conv4_3_2x_conv4_3_2x_0_split -> conv4_3_2x_conv4_3_2x_0_split_0
I1013 17:08:11.908095  8692 net.cpp:408] conv4_3_2x_conv4_3_2x_0_split -> conv4_3_2x_conv4_3_2x_0_split_1
I1013 17:08:11.908133  8692 net.cpp:150] Setting up conv4_3_2x_conv4_3_2x_0_split
I1013 17:08:11.908139  8692 net.cpp:157] Top shape: 1 513 192 192 (18911232)
I1013 17:08:11.908143  8692 net.cpp:157] Top shape: 1 513 192 192 (18911232)
I1013 17:08:11.908146  8692 net.cpp:165] Memory required for data: 1825499200
I1013 17:08:11.908149  8692 layer_factory.hpp:77] Creating layer roi_pool_org
I1013 17:08:11.908155  8692 net.cpp:100] Creating Layer roi_pool_org
I1013 17:08:11.908159  8692 net.cpp:434] roi_pool_org <- conv4_3_2x_conv4_3_2x_0_split_0
I1013 17:08:11.908162  8692 net.cpp:434] roi_pool_org <- rois_proposal_info_0_split_0
I1013 17:08:11.908167  8692 net.cpp:408] roi_pool_org -> roi_pool_org
I1013 17:08:11.908174  8692 roi_pooling_layer.cpp:33] Spatial scale: 0.25
I1013 17:08:11.908215  8692 net.cpp:150] Setting up roi_pool_org
I1013 17:08:11.908221  8692 net.cpp:157] Top shape: 128 513 7 7 (3217536)
I1013 17:08:11.908223  8692 net.cpp:165] Memory required for data: 1838369344
I1013 17:08:11.908233  8692 layer_factory.hpp:77] Creating layer roi_pool_ctx
I1013 17:08:11.908239  8692 net.cpp:100] Creating Layer roi_pool_ctx
I1013 17:08:11.908242  8692 net.cpp:434] roi_pool_ctx <- conv4_3_2x_conv4_3_2x_0_split_1
I1013 17:08:11.908247  8692 net.cpp:434] roi_pool_ctx <- rois_proposal_info_0_split_1
I1013 17:08:11.908252  8692 net.cpp:408] roi_pool_ctx -> roi_pool_ctx
I1013 17:08:11.908258  8692 roi_pooling_layer.cpp:33] Spatial scale: 0.25
I1013 17:08:11.908298  8692 net.cpp:150] Setting up roi_pool_ctx
I1013 17:08:11.908303  8692 net.cpp:157] Top shape: 128 513 7 7 (3217536)
I1013 17:08:11.908308  8692 net.cpp:165] Memory required for data: 1851239488
I1013 17:08:11.908310  8692 layer_factory.hpp:77] Creating layer roi_pool
I1013 17:08:11.908314  8692 net.cpp:100] Creating Layer roi_pool
I1013 17:08:11.908318  8692 net.cpp:434] roi_pool <- roi_pool_org
I1013 17:08:11.908323  8692 net.cpp:434] roi_pool <- roi_pool_ctx
I1013 17:08:11.908327  8692 net.cpp:408] roi_pool -> roi_pool
I1013 17:08:11.908349  8692 net.cpp:150] Setting up roi_pool
I1013 17:08:11.908354  8692 net.cpp:157] Top shape: 128 1026 7 7 (6435072)
I1013 17:08:11.908357  8692 net.cpp:165] Memory required for data: 1876979776
I1013 17:08:11.908360  8692 layer_factory.hpp:77] Creating layer roi_c1
I1013 17:08:11.908370  8692 net.cpp:100] Creating Layer roi_c1
I1013 17:08:11.908372  8692 net.cpp:434] roi_c1 <- roi_pool
I1013 17:08:11.908377  8692 net.cpp:408] roi_c1 -> roi_c1
I1013 17:08:12.028563  8692 net.cpp:150] Setting up roi_c1
I1013 17:08:12.028589  8692 net.cpp:157] Top shape: 128 512 5 5 (1638400)
I1013 17:08:12.028594  8692 net.cpp:165] Memory required for data: 1883533376
I1013 17:08:12.028602  8692 layer_factory.hpp:77] Creating layer roi_c1_relu
I1013 17:08:12.028614  8692 net.cpp:100] Creating Layer roi_c1_relu
I1013 17:08:12.028621  8692 net.cpp:434] roi_c1_relu <- roi_c1
I1013 17:08:12.028628  8692 net.cpp:395] roi_c1_relu -> roi_c1 (in-place)
I1013 17:08:12.028789  8692 net.cpp:150] Setting up roi_c1_relu
I1013 17:08:12.028800  8692 net.cpp:157] Top shape: 128 512 5 5 (1638400)
I1013 17:08:12.028803  8692 net.cpp:165] Memory required for data: 1890086976
I1013 17:08:12.028806  8692 layer_factory.hpp:77] Creating layer fc6
I1013 17:08:12.028815  8692 net.cpp:100] Creating Layer fc6
I1013 17:08:12.028817  8692 net.cpp:434] fc6 <- roi_c1
I1013 17:08:12.028825  8692 net.cpp:408] fc6 -> fc6
I1013 17:08:13.275028  8692 net.cpp:150] Setting up fc6
I1013 17:08:13.275065  8692 net.cpp:157] Top shape: 128 4096 (524288)
I1013 17:08:13.275068  8692 net.cpp:165] Memory required for data: 1892184128
I1013 17:08:13.275077  8692 layer_factory.hpp:77] Creating layer relu6
I1013 17:08:13.275089  8692 net.cpp:100] Creating Layer relu6
I1013 17:08:13.275094  8692 net.cpp:434] relu6 <- fc6
I1013 17:08:13.275100  8692 net.cpp:395] relu6 -> fc6 (in-place)
I1013 17:08:13.275351  8692 net.cpp:150] Setting up relu6
I1013 17:08:13.275360  8692 net.cpp:157] Top shape: 128 4096 (524288)
I1013 17:08:13.275363  8692 net.cpp:165] Memory required for data: 1894281280
I1013 17:08:13.275367  8692 layer_factory.hpp:77] Creating layer drop6
I1013 17:08:13.275374  8692 net.cpp:100] Creating Layer drop6
I1013 17:08:13.275378  8692 net.cpp:434] drop6 <- fc6
I1013 17:08:13.275384  8692 net.cpp:395] drop6 -> fc6 (in-place)
I1013 17:08:13.275408  8692 net.cpp:150] Setting up drop6
I1013 17:08:13.275413  8692 net.cpp:157] Top shape: 128 4096 (524288)
I1013 17:08:13.275416  8692 net.cpp:165] Memory required for data: 1896378432
I1013 17:08:13.275419  8692 layer_factory.hpp:77] Creating layer fc6_drop6_0_split
I1013 17:08:13.275424  8692 net.cpp:100] Creating Layer fc6_drop6_0_split
I1013 17:08:13.275427  8692 net.cpp:434] fc6_drop6_0_split <- fc6
I1013 17:08:13.275434  8692 net.cpp:408] fc6_drop6_0_split -> fc6_drop6_0_split_0
I1013 17:08:13.275439  8692 net.cpp:408] fc6_drop6_0_split -> fc6_drop6_0_split_1
I1013 17:08:13.275480  8692 net.cpp:150] Setting up fc6_drop6_0_split
I1013 17:08:13.275485  8692 net.cpp:157] Top shape: 128 4096 (524288)
I1013 17:08:13.275490  8692 net.cpp:157] Top shape: 128 4096 (524288)
I1013 17:08:13.275492  8692 net.cpp:165] Memory required for data: 1900572736
I1013 17:08:13.275496  8692 layer_factory.hpp:77] Creating layer cls_pred
I1013 17:08:13.275503  8692 net.cpp:100] Creating Layer cls_pred
I1013 17:08:13.275507  8692 net.cpp:434] cls_pred <- fc6_drop6_0_split_0
I1013 17:08:13.275513  8692 net.cpp:408] cls_pred -> cls_pred
I1013 17:08:13.276149  8692 net.cpp:150] Setting up cls_pred
I1013 17:08:13.276156  8692 net.cpp:157] Top shape: 128 5 (640)
I1013 17:08:13.276160  8692 net.cpp:165] Memory required for data: 1900575296
I1013 17:08:13.276165  8692 layer_factory.hpp:77] Creating layer cls_pred_cls_pred_0_split
I1013 17:08:13.276170  8692 net.cpp:100] Creating Layer cls_pred_cls_pred_0_split
I1013 17:08:13.276173  8692 net.cpp:434] cls_pred_cls_pred_0_split <- cls_pred
I1013 17:08:13.276177  8692 net.cpp:408] cls_pred_cls_pred_0_split -> cls_pred_cls_pred_0_split_0
I1013 17:08:13.276183  8692 net.cpp:408] cls_pred_cls_pred_0_split -> cls_pred_cls_pred_0_split_1
I1013 17:08:13.276216  8692 net.cpp:150] Setting up cls_pred_cls_pred_0_split
I1013 17:08:13.276221  8692 net.cpp:157] Top shape: 128 5 (640)
I1013 17:08:13.276230  8692 net.cpp:157] Top shape: 128 5 (640)
I1013 17:08:13.276234  8692 net.cpp:165] Memory required for data: 1900580416
I1013 17:08:13.276237  8692 layer_factory.hpp:77] Creating layer bbox_pred
I1013 17:08:13.276243  8692 net.cpp:100] Creating Layer bbox_pred
I1013 17:08:13.276247  8692 net.cpp:434] bbox_pred <- fc6_drop6_0_split_1
I1013 17:08:13.276252  8692 net.cpp:408] bbox_pred -> bbox_pred
I1013 17:08:13.278491  8692 net.cpp:150] Setting up bbox_pred
I1013 17:08:13.278497  8692 net.cpp:157] Top shape: 128 20 (2560)
I1013 17:08:13.278501  8692 net.cpp:165] Memory required for data: 1900590656
I1013 17:08:13.278506  8692 layer_factory.hpp:77] Creating layer bbox_pred_bbox_pred_0_split
I1013 17:08:13.278512  8692 net.cpp:100] Creating Layer bbox_pred_bbox_pred_0_split
I1013 17:08:13.278514  8692 net.cpp:434] bbox_pred_bbox_pred_0_split <- bbox_pred
I1013 17:08:13.278519  8692 net.cpp:408] bbox_pred_bbox_pred_0_split -> bbox_pred_bbox_pred_0_split_0
I1013 17:08:13.278525  8692 net.cpp:408] bbox_pred_bbox_pred_0_split -> bbox_pred_bbox_pred_0_split_1
I1013 17:08:13.278559  8692 net.cpp:150] Setting up bbox_pred_bbox_pred_0_split
I1013 17:08:13.278565  8692 net.cpp:157] Top shape: 128 20 (2560)
I1013 17:08:13.278570  8692 net.cpp:157] Top shape: 128 20 (2560)
I1013 17:08:13.278573  8692 net.cpp:165] Memory required for data: 1900611136
I1013 17:08:13.278578  8692 layer_factory.hpp:77] Creating layer loss_cls
I1013 17:08:13.278584  8692 net.cpp:100] Creating Layer loss_cls
I1013 17:08:13.278586  8692 net.cpp:434] loss_cls <- cls_pred_cls_pred_0_split_0
I1013 17:08:13.278592  8692 net.cpp:434] loss_cls <- proposal_labels_proposal_info_1_split_0
…
