…
    downsample_rate: 16
    downsample_rate: 32
    downsample_rate: 32
    downsample_rate: 64
    coord_num: 4
    field_h: 60
    field_h: 84
    field_h: 120
    field_h: 168
    field_h: 240
    field_h: 336
    field_h: 480
    field_w: 60
    field_w: 84
    field_w: 120
    field_w: 168
    field_w: 240
    field_w: 336
    field_w: 480
    fg_threshold: 0.5
    resize_width: 1344
    resize_height: 768
    crop_width: 768
    crop_height: 768
    do_multiple_scale: true
    min_scale: 60
    max_scale: 480
    min_gt_height: 25
    shuffle: true
  }
}
layer {
  name: "slice"
  type: "Slice"
  bottom: "data"
  top: "data123"
  top: "ch4"
  slice_param {
    slice_point: 3
    axis: 1
  }
}
layer {
  name: "conv1_1"
  type: "Convolution"
  bottom: "data123"
  top: "conv1_1"
  convolution_param {
    num_output: 64
    pad: 1
    kernel_size: 3
  }
}
layer {
  name: "relu1_1"
  type: "ReLU"
  bottom: "conv1_1"
  top: "conv1_1"
}
layer {
  name: "conv1_2"
  type: "Convolution"
  bottom: "conv1_1"
  top: "conv1_2"
  convolution_param {
    num_output: 64
    pad: 1
    kernel_size: 3
  }
}
layer {
  name: "relu1_2"
  type: "ReLU"
  bottom: "conv1_2"
  top: "conv1_2"
}
layer {
  name: "pool1"
  type: "Pooling"
  bottom: "conv1_2"
  top: "pool1"
  pooling_param {
    pool: MAX
    kernel_size: 2
    stride: 2
  }
}
layer {
  name: "conv2_1"
  type: "Convolution"
  bottom: "pool1"
  top: "conv2_1"
  convolution_param {
    num_output: 128
    pad: 1
    kernel_size: 3
  }
}
layer {
  name: "relu2_1"
  type: "ReLU"
  bottom: "conv2_1"
  top: "conv2_1"
}
layer {
  name: "conv2_2"
  type: "Convolution"
  bottom: "conv2_1"
  top: "conv2_2"
  convolution_param {
    num_output: 128
    pad: 1
    kernel_size: 3
  }
}
layer {
  name: "relu2_2"
  type: "ReLU"
  bottom: "conv2_2"
  top: "conv2_2"
}
layer {
  name: "pool2"
  type: "Pooling"
  bottom: "conv2_2"
  top: "pool2"
  pooling_param {
    pool: MAX
    kernel_size: 2
    stride: 2
  }
}
layer {
  name: "conv3_1"
  type: "Convolution"
  bottom: "pool2"
  top: "conv3_1"
  convolution_param {
    num_output: 256
    pad: 1
    kernel_size: 3
  }
}
layer {
  name: "relu3_1"
  type: "ReLU"
  bottom: "conv3_1"
  top: "conv3_1"
}
layer {
  name: "conv3_2"
  type: "Convolution"
  bottom: "conv3_1"
  top: "conv3_2"
  convolution_param {
    num_output: 256
    pad: 1
    kernel_size: 3
  }
}
layer {
  name: "relu3_2"
  type: "ReLU"
  bottom: "conv3_2"
  top: "conv3_2"
}
layer {
  name: "conv3_3"
  type: "Convolution"
  bottom: "conv3_2"
  top: "conv3_3"
  convolution_param {
    num_output: 256
    pad: 1
    kernel_size: 3
  }
}
layer {
  name: "relu3_3"
  type: "ReLU"
  bottom: "conv3_3"
  top: "conv3_3"
}
layer {
  name: "pool3"
  type: "Pooling"
  bottom: "conv3_3"
  top: "pool3"
  pooling_param {
    pool: MAX
    kernel_size: 2
    stride: 2
  }
}
layer {
  name: "conv4_1"
  type: "Convolution"
  bottom: "pool3"
  top: "conv4_1"
  convolution_param {
    num_output: 512
    pad: 1
    kernel_size: 3
  }
}
layer {
  name: "relu4_1"
  type: "ReLU"
  bottom: "conv4_1"
  top: "conv4_1"
}
layer {
  name: "conv4_2"
  type: "Convolution"
  bottom: "conv4_1"
  top: "conv4_2"
  convolution_param {
    num_output: 512
    pad: 1
    kernel_size: 3
  }
}
layer {
  name: "relu4_2"
  type: "ReLU"
  bottom: "conv4_2"
  top: "conv4_2"
}
layer {
  name: "conv4_3"
  type: "Convolution"
  bottom: "conv4_2"
  top: "conv4_3"
  convolution_param {
    num_output: 512
    pad: 1
    kernel_size: 3
  }
}
layer {
  name: "relu4_3"
  type: "ReLU"
  bottom: "conv4_3"
  top: "conv4_3"
}
layer {
  name: "buffer"
  type: "Convolution"
  bottom: "conv4_3"
  top: "buffer"
  param {
    lr_mult: 1
    decay_mult: 1
  }
  param {
    lr_mult: 2
    decay_mult: 0
  }
  convolution_param {
    num_output: 512
    pad: 1
    kernel_size: 3
    weight_filler {
      type: "gaussian"
      std: 0.01
    }
    bias_filler {
      type: "constant"
    }
  }
}
layer {
  name: "relu_buffer"
  type: "ReLU"
  bottom: "buffer"
  top: "buffer"
}
layer {
  name: "attention"
  type: "Convolution"
  bottom: "buffer"
  top: "attention"
  param {
    lr_mult: 1
    decay_mult: 1
  }
  param {
    lr_mult: 2
    decay_mult: 0
  }
  convolution_param {
    num_output: 3
    pad: 1
    kernel_size: 3
    weight_filler {
      type: "gaussian"
      std: 0.01
    }
    bias_filler {
      type: "constant"
    }
  }
}
layer {
  name: "relu_attention"
  type: "ReLU"
  bottom: "attention"
  top: "attention"
}
layer {
  name: "ch4_pool"
  type: "Pooling"
  bottom: "ch4"
  top: "ch4_pool"
  pooling_param {
    pool: MAX
    kernel_size: 8
    stride: 8
  }
}
layer {
  name: "loss_attention"
  type: "SoftmaxWithLoss"
  bottom: "attention"
  bottom: "ch4_pool"
  top: "loss_attention"
  loss_weight: 1
  propagate_down: true
  propagate_down: false
}
layer {
  name: "loss1_conv1"
  type: "Convolution"
  bottom: "conv4_3"
  top: "loss1_conv1"
  param {
    lr_mult: 1
    decay_mult: 1
  }
  param {
    lr_mult: 2
    decay_mult: 0
  }
  convolution_param {
    num_output: 512
    pad: 1
    kernel_size: 3
    weight_filler {
      type: "gaussian"
      std: 0.01
    }
    bias_filler {
      type: "constant"
    }
  }
}
layer {
  name: "loss_relu1"
  type: "ReLU"
  bottom: "loss1_conv1"
  top: "loss1_conv1"
}
layer {
  name: "LFCN_1_5x5"
  type: "Convolution"
  bottom: "loss1_conv1"
  top: "LFCN_1_5x5"
  param {
    lr_mult: 1
    decay_mult: 1
  }
  param {
    lr_mult: 2
    decay_mult: 0
  }
  convolution_param {
    num_output: 9
    pad: 2
    kernel_size: 5
    weight_filler {
      type: "gaussian"
      std: 0.001
    }
    bias_filler {
      type: "constant"
    }
  }
}
layer {
  name: "detection_loss_1_5x5"
  type: "DetectionLoss"
  bottom: "LFCN_1_5x5"
  bottom: "label_1_5x5"
  top: "loss_1_5x5"
  loss_weight: 0.9
  detection_loss_param {
    cls_num: 5
    coord_num: 4
    lambda: 0.05
    field_h: 60
    field_w: 60
    downsample_rate: 8
    bb_smooth: true
    field_whr: 2
    field_xyr: 2
    bg_threshold: 0.2
    bg_multiple: 2
    sample_mode: "random"
    pos_neg_weighted: true
  }
}
layer {
  name: "detection_accuracy_1_5x5"
  type: "DetectionAccuracy"
  bottom: "LFCN_1_5x5"
  bottom: "label_1_5x5"
  top: "accuracy_1_5x5"
  top: "boxiou_1_5x5"
  detection_accuracy_param {
    cls_num: 5
    coord_num: 4
    field_h: 60
    field_w: 60
    downsample_rate: 8
    field_whr: 2
    field_xyr: 2
  }
}
layer {
  name: "LFCN_1_7x7"
  type: "Convolution"
  bottom: "loss1_conv1"
  top: "LFCN_1_7x7"
  param {
    lr_mult: 1
    decay_mult: 1
  }
  param {
    lr_mult: 2
    decay_mult: 0
  }
  convolution_param {
    num_output: 9
    pad: 3
    kernel_size: 7
    weight_filler {
      type: "gaussian"
      std: 0.001
    }
    bias_filler {
      type: "constant"
    }
  }
}
layer {
  name: "detection_loss_1_7x7"
  type: "DetectionLoss"
  bottom: "LFCN_1_7x7"
  bottom: "label_1_7x7"
  top: "loss_1_7x7"
  loss_weight: 0.9
  detection_loss_param {
    cls_num: 5
    coord_num: 4
    lambda: 0.05
    field_h: 84
    field_w: 84
    downsample_rate: 8
    bb_smooth: true
    field_whr: 2
    field_xyr: 2
    bg_threshold: 0.2
    bg_multiple: 2
    sample_mode: "random"
    pos_neg_weighted: true
  }
}
layer {
  name: "detection_accuracy_1_7x7"
  type: "DetectionAccuracy"
  bottom: "LFCN_1_7x7"
  bottom: "label_1_7x7"
  top: "accuracy_1_7x7"
  top: "boxiou_1_7x7"
  detection_accuracy_param {
    cls_num: 5
    coord_num: 4
    field_h: 84
    field_w: 84
    downsample_rate: 8
    field_whr: 2
    field_xyr: 2
  }
}
layer {
  name: "pool4"
  type: "Pooling"
  bottom: "conv4_3"
  top: "pool4"
  pooling_param {
    pool: MAX
    kernel_size: 2
    stride: 2
  }
}
layer {
  name: "conv5_1"
  type: "Convolution"
  bottom: "pool4"
  top: "conv5_1"
  convolution_param {
    num_output: 512
    pad: 1
    kernel_size: 3
  }
}
layer {
  name: "relu5_1"
  type: "ReLU"
  bottom: "conv5_1"
  top: "conv5_1"
}
layer {
  name: "conv5_2"
  type: "Convolution"
  bottom: "conv5_1"
  top: "conv5_2"
  convolution_param {
    num_output: 512
    pad: 1
    kernel_size: 3
  }
}
layer {
  name: "relu5_2"
  type: "ReLU"
  bottom: "conv5_2"
  top: "conv5_2"
}
layer {
  name: "conv5_3"
  type: "Convolution"
  bottom: "conv5_2"
  top: "conv5_3"
  convolution_param {
    num_output: 512
    pad: 1
    kernel_size: 3
  }
}
layer {
  name: "relu5_3"
  type: "ReLU"
  bottom: "conv5_3"
  top: "conv5_3"
}
layer {
  name: "LFCN_2_5x5"
  type: "Convolution"
  bottom: "conv5_3"
  top: "LFCN_2_5x5"
  param {
    lr_mult: 1
    decay_mult: 1
  }
  param {
    lr_mult: 2
    decay_mult: 0
  }
  convolution_param {
    num_output: 9
    pad: 2
    kernel_size: 5
    weight_filler {
      type: "gaussian"
      std: 0.001
    }
    bias_filler {
      type: "constant"
    }
  }
}
layer {
  name: "detection_loss_2_5x5"
  type: "DetectionLoss"
  bottom: "LFCN_2_5x5"
  bottom: "label_2_5x5"
  top: "loss_2_5x5"
  detection_loss_param {
    cls_num: 5
    coord_num: 4
    lambda: 0.05
    field_h: 120
    field_w: 120
    downsample_rate: 16
    bb_smooth: true
    field_whr: 2
    field_xyr: 2
    bg_threshold: 0.2
    bg_multiple: 2
    sample_mode: "random"
    pos_neg_weighted: true
  }
}
layer {
  name: "detection_accuracy_2_5x5"
  type: "DetectionAccuracy"
  bottom: "LFCN_2_5x5"
  bottom: "label_2_5x5"
  top: "accuracy_2_5x5"
  top: "boxiou_2_5x5"
  detection_accuracy_param {
    cls_num: 5
    coord_num: 4
    field_h: 120
    field_w: 120
    downsample_rate: 16
    field_whr: 2
    field_xyr: 2
  }
}
layer {
  name: "LFCN_2_7x7"
  type: "Convolution"
  bottom: "conv5_3"
  top: "LFCN_2_7x7"
  param {
    lr_mult: 1
    decay_mult: 1
  }
  param {
    lr_mult: 2
    decay_mult: 0
  }
  convolution_param {
    num_output: 9
    pad: 3
    kernel_size: 7
    weight_filler {
      type: "gaussian"
      std: 0.001
    }
    bias_filler {
      type: "constant"
    }
  }
}
layer {
  name: "detection_loss_2_7x7"
  type: "DetectionLoss"
  bottom: "LFCN_2_7x7"
  bottom: "label_2_7x7"
  top: "loss_2_7x7"
  detection_loss_param {
    cls_num: 5
    coord_num: 4
    lambda: 0.05
    field_h: 168
    field_w: 168
    downsample_rate: 16
    bb_smooth: true
    field_whr: 2
    field_xyr: 2
    bg_threshold: 0.2
    bg_multiple: 2
    sample_mode: "random"
    pos_neg_weighted: true
  }
}
layer {
  name: "detection_accuracy_2_7x7"
  type: "DetectionAccuracy"
  bottom: "LFCN_2_7x7"
  bottom: "label_2_7x7"
  top: "accuracy_2_7x7"
  top: "boxiou_2_7x7"
  detection_accuracy_param {
    cls_num: 5
    coord_num: 4
    field_h: 168
    field_w: 168
    downsample_rate: 16
    field_whr: 2
    field_xyr: 2
  }
}
layer {
  name: "pool5"
  type: "Pooling"
  bottom: "conv5_3"
  top: "pool5"
  pooling_param {
    pool: MAX
    kernel_size: 2
    stride: 2
  }
}
layer {
  name: "conv6_1"
  type: "Convolution"
  bottom: "pool5"
  top: "conv6_1"
  param {
    lr_mult: 1
    decay_mult: 1
  }
  param {
    lr_mult: 2
    decay_mult: 0
  }
  convolution_param {
    num_output: 512
    pad: 1
    kernel_size: 3
    weight_filler {
      type: "gaussian"
      std: 0.01
    }
    bias_filler {
      type: "constant"
    }
  }
}
layer {
  name: "relu6_1"
  type: "ReLU"
  bottom: "conv6_1"
  top: "conv6_1"
}
layer {
  name: "LFCN_3_5x5"
  type: "Convolution"
  bottom: "conv6_1"
  top: "LFCN_3_5x5"
  param {
    lr_mult: 1
    decay_mult: 1
  }
  param {
    lr_mult: 2
    decay_mult: 0
  }
  convolution_param {
    num_output: 9
    pad: 2
    kernel_size: 5
    weight_filler {
      type: "gaussian"
      std: 0.001
    }
    bias_filler {
      type: "constant"
    }
  }
}
layer {
  name: "detection_loss_3_5x5"
  type: "DetectionLoss"
  bottom: "LFCN_3_5x5"
  bottom: "label_3_5x5"
  top: "loss_3_5x5"
  detection_loss_param {
    cls_num: 5
    coord_num: 4
    lambda: 0.05
    field_h: 240
    field_w: 240
    downsample_rate: 32
    bb_smooth: true
    field_whr: 2
    field_xyr: 2
    bg_threshold: 0.2
    bg_multiple: 2
    sample_mode: "random"
    pos_neg_weighted: true
  }
}
layer {
  name: "detection_accuracy_3_5x5"
  type: "DetectionAccuracy"
  bottom: "LFCN_3_5x5"
  bottom: "label_3_5x5"
  top: "accuracy_3_5x5"
  top: "boxiou_3_5x5"
  detection_accuracy_param {
    cls_num: 5
    coord_num: 4
    field_h: 240
    field_w: 240
    downsample_rate: 32
    field_whr: 2
    field_xyr: 2
  }
}
layer {
  name: "LFCN_3_7x7"
  type: "Convolution"
  bottom: "conv6_1"
  top: "LFCN_3_7x7"
  param {
    lr_mult: 1
    decay_mult: 1
  }
  param {
    lr_mult: 2
    decay_mult: 0
  }
  convolution_param {
    num_output: 9
    pad: 3
    kernel_size: 7
    weight_filler {
      type: "gaussian"
      std: 0.001
    }
    bias_filler {
      type: "constant"
    }
  }
}
layer {
  name: "detection_loss_3_7x7"
  type: "DetectionLoss"
  bottom: "LFCN_3_7x7"
  bottom: "label_3_7x7"
  top: "loss_3_7x7"
  detection_loss_param {
    cls_num: 5
    coord_num: 4
    lambda: 0.05
    field_h: 336
    field_w: 336
    downsample_rate: 32
    bb_smooth: true
    field_whr: 2
    field_xyr: 2
    bg_threshold: 0.2
    bg_multiple: 2
    sample_mode: "random"
    pos_neg_weighted: true
  }
}
layer {
  name: "detection_accuracy_3_7x7"
  type: "DetectionAccuracy"
  bottom: "LFCN_3_7x7"
  bottom: "label_3_7x7"
  top: "accuracy_3_7x7"
  top: "boxiou_3_7x7"
  detection_accuracy_param {
    cls_num: 5
    coord_num: 4
    field_h: 336
    field_w: 336
    downsample_rate: 32
    field_whr: 2
    field_xyr: 2
  }
}
layer {
  name: "pool6"
  type: "Pooling"
  bottom: "conv6_1"
  top: "pool6"
  pooling_param {
    pool: MAX
    kernel_size: 2
    stride: 2
  }
}
layer {
  name: "LFCN_4_5x5"
  type: "Convolution"
  bottom: "pool6"
  top: "LFCN_4_5x5"
  param {
    lr_mult: 1
    decay_mult: 1
  }
  param {
    lr_mult: 2
    decay_mult: 0
  }
  convolution_param {
    num_output: 9
    pad: 2
    kernel_size: 5
    weight_filler {
      type: "gaussian"
      std: 0.001
    }
    bias_filler {
      type: "constant"
    }
  }
}
layer {
  name: "detection_loss_4_5x5"
  type: "DetectionLoss"
  bottom: "LFCN_4_5x5"
  bottom: "label_4_5x5"
  top: "loss_4_5x5"
  detection_loss_param {
    cls_num: 5
    coord_num: 4
    lambda: 0.05
    field_h: 480
    field_w: 480
    downsample_rate: 64
    bb_smooth: true
    field_whr: 2
    field_xyr: 2
    bg_threshold: 0.2
    bg_multiple: 2
    sample_mode: "random"
    pos_neg_weighted: true
  }
}
layer {
  name: "detection_accuracy_4_5x5"
  type: "DetectionAccuracy"
  bottom: "LFCN_4_5x5"
  bottom: "label_4_5x5"
  top: "accuracy_4_5x5"
  top: "boxiou_4_5x5"
  detection_accuracy_param {
    cls_num: 5
    coord_num: 4
    field_h: 480
    field_w: 480
    downsample_rate: 64
    field_whr: 2
    field_xyr: 2
  }
}
I1015 21:01:51.284700 12458 layer_factory.hpp:77] Creating layer data
I1015 21:01:51.284744 12458 net.cpp:100] Creating Layer data
I1015 21:01:51.284754 12458 net.cpp:408] data -> data
…
I1015 21:01:51.310325 12458 image_gt_data_layer.cpp:235] output label size 1 : 1,6,96,96
I1015 21:01:51.310415 12458 image_gt_data_layer.cpp:235] output label size 2 : 1,6,48,48
I1015 21:01:51.310559 12458 image_gt_data_layer.cpp:235] output label size 3 : 1,6,48,48
I1015 21:01:51.310634 12458 image_gt_data_layer.cpp:235] output label size 4 : 1,6,24,24
I1015 21:01:51.310674 12458 image_gt_data_layer.cpp:235] output label size 5 : 1,6,24,24
I1015 21:01:51.310714 12458 image_gt_data_layer.cpp:235] output label size 6 : 1,6,12,12
I1015 21:01:51.339129 12458 net.cpp:150] Setting up data
I1015 21:01:51.339180 12458 net.cpp:157] Top shape: 1 4 768 768 (2359296)
I1015 21:01:51.339192 12458 net.cpp:157] Top shape: 1 6 96 96 (55296)
I1015 21:01:51.339201 12458 net.cpp:157] Top shape: 1 6 96 96 (55296)
I1015 21:01:51.339210 12458 net.cpp:157] Top shape: 1 6 48 48 (13824)
I1015 21:01:51.339220 12458 net.cpp:157] Top shape: 1 6 48 48 (13824)
I1015 21:01:51.339227 12458 net.cpp:157] Top shape: 1 6 24 24 (3456)
I1015 21:01:51.339236 12458 net.cpp:157] Top shape: 1 6 24 24 (3456)
I1015 21:01:51.339244 12458 net.cpp:157] Top shape: 1 6 12 12 (864)
I1015 21:01:51.339251 12458 net.cpp:165] Memory required for data: 10021248
I1015 21:01:51.339265 12458 layer_factory.hpp:77] Creating layer label_1_5x5_data_1_split
I1015 21:01:51.339290 12458 net.cpp:100] Creating Layer label_1_5x5_data_1_split
I1015 21:01:51.339300 12458 net.cpp:434] label_1_5x5_data_1_split <- label_1_5x5
I1015 21:01:51.339320 12458 net.cpp:408] label_1_5x5_data_1_split -> label_1_5x5_data_1_split_0
I1015 21:01:51.339339 12458 net.cpp:408] label_1_5x5_data_1_split -> label_1_5x5_data_1_split_1
I1015 21:01:51.339428 12458 net.cpp:150] Setting up label_1_5x5_data_1_split
I1015 21:01:51.339440 12458 net.cpp:157] Top shape: 1 6 96 96 (55296)
I1015 21:01:51.339448 12458 net.cpp:157] Top shape: 1 6 96 96 (55296)
I1015 21:01:51.339455 12458 net.cpp:165] Memory required for data: 10463616
I1015 21:01:51.339462 12458 layer_factory.hpp:77] Creating layer label_1_7x7_data_2_split
I1015 21:01:51.339471 12458 net.cpp:100] Creating Layer label_1_7x7_data_2_split
I1015 21:01:51.339478 12458 net.cpp:434] label_1_7x7_data_2_split <- label_1_7x7
I1015 21:01:51.339489 12458 net.cpp:408] label_1_7x7_data_2_split -> label_1_7x7_data_2_split_0
I1015 21:01:51.339500 12458 net.cpp:408] label_1_7x7_data_2_split -> label_1_7x7_data_2_split_1
I1015 21:01:51.339555 12458 net.cpp:150] Setting up label_1_7x7_data_2_split
I1015 21:01:51.339570 12458 net.cpp:157] Top shape: 1 6 96 96 (55296)
I1015 21:01:51.339578 12458 net.cpp:157] Top shape: 1 6 96 96 (55296)
I1015 21:01:51.339584 12458 net.cpp:165] Memory required for data: 10905984
I1015 21:01:51.339591 12458 layer_factory.hpp:77] Creating layer label_2_5x5_data_3_split
I1015 21:01:51.339601 12458 net.cpp:100] Creating Layer label_2_5x5_data_3_split
I1015 21:01:51.339608 12458 net.cpp:434] label_2_5x5_data_3_split <- label_2_5x5
I1015 21:01:51.339617 12458 net.cpp:408] label_2_5x5_data_3_split -> label_2_5x5_data_3_split_0
I1015 21:01:51.339629 12458 net.cpp:408] label_2_5x5_data_3_split -> label_2_5x5_data_3_split_1
I1015 21:01:51.339681 12458 net.cpp:150] Setting up label_2_5x5_data_3_split
I1015 21:01:51.339694 12458 net.cpp:157] Top shape: 1 6 48 48 (13824)
I1015 21:01:51.339702 12458 net.cpp:157] Top shape: 1 6 48 48 (13824)
I1015 21:01:51.339709 12458 net.cpp:165] Memory required for data: 11016576
I1015 21:01:51.339716 12458 layer_factory.hpp:77] Creating layer label_2_7x7_data_4_split
I1015 21:01:51.339728 12458 net.cpp:100] Creating Layer label_2_7x7_data_4_split
I1015 21:01:51.339735 12458 net.cpp:434] label_2_7x7_data_4_split <- label_2_7x7
I1015 21:01:51.339745 12458 net.cpp:408] label_2_7x7_data_4_split -> label_2_7x7_data_4_split_0
I1015 21:01:51.339754 12458 net.cpp:408] label_2_7x7_data_4_split -> label_2_7x7_data_4_split_1
I1015 21:01:51.339810 12458 net.cpp:150] Setting up label_2_7x7_data_4_split
I1015 21:01:51.339823 12458 net.cpp:157] Top shape: 1 6 48 48 (13824)
I1015 21:01:51.339831 12458 net.cpp:157] Top shape: 1 6 48 48 (13824)
I1015 21:01:51.339838 12458 net.cpp:165] Memory required for data: 11127168
I1015 21:01:51.339844 12458 layer_factory.hpp:77] Creating layer label_3_5x5_data_5_split
I1015 21:01:51.339854 12458 net.cpp:100] Creating Layer label_3_5x5_data_5_split
I1015 21:01:51.339859 12458 net.cpp:434] label_3_5x5_data_5_split <- label_3_5x5
I1015 21:01:51.339870 12458 net.cpp:408] label_3_5x5_data_5_split -> label_3_5x5_data_5_split_0
I1015 21:01:51.339884 12458 net.cpp:408] label_3_5x5_data_5_split -> label_3_5x5_data_5_split_1
I1015 21:01:51.339937 12458 net.cpp:150] Setting up label_3_5x5_data_5_split
I1015 21:01:51.339951 12458 net.cpp:157] Top shape: 1 6 24 24 (3456)
I1015 21:01:51.339959 12458 net.cpp:157] Top shape: 1 6 24 24 (3456)
I1015 21:01:51.339965 12458 net.cpp:165] Memory required for data: 11154816
I1015 21:01:51.339972 12458 layer_factory.hpp:77] Creating layer label_3_7x7_data_6_split
I1015 21:01:51.339980 12458 net.cpp:100] Creating Layer label_3_7x7_data_6_split
I1015 21:01:51.339987 12458 net.cpp:434] label_3_7x7_data_6_split <- label_3_7x7
I1015 21:01:51.339996 12458 net.cpp:408] label_3_7x7_data_6_split -> label_3_7x7_data_6_split_0
I1015 21:01:51.340006 12458 net.cpp:408] label_3_7x7_data_6_split -> label_3_7x7_data_6_split_1
I1015 21:01:51.340056 12458 net.cpp:150] Setting up label_3_7x7_data_6_split
I1015 21:01:51.340068 12458 net.cpp:157] Top shape: 1 6 24 24 (3456)
I1015 21:01:51.340077 12458 net.cpp:157] Top shape: 1 6 24 24 (3456)
I1015 21:01:51.340083 12458 net.cpp:165] Memory required for data: 11182464
I1015 21:01:51.340090 12458 layer_factory.hpp:77] Creating layer label_4_5x5_data_7_split
I1015 21:01:51.340098 12458 net.cpp:100] Creating Layer label_4_5x5_data_7_split
I1015 21:01:51.340104 12458 net.cpp:434] label_4_5x5_data_7_split <- label_4_5x5
I1015 21:01:51.340113 12458 net.cpp:408] label_4_5x5_data_7_split -> label_4_5x5_data_7_split_0
I1015 21:01:51.340123 12458 net.cpp:408] label_4_5x5_data_7_split -> label_4_5x5_data_7_split_1
I1015 21:01:51.340175 12458 net.cpp:150] Setting up label_4_5x5_data_7_split
I1015 21:01:51.340188 12458 net.cpp:157] Top shape: 1 6 12 12 (864)
I1015 21:01:51.340195 12458 net.cpp:157] Top shape: 1 6 12 12 (864)
I1015 21:01:51.340201 12458 net.cpp:165] Memory required for data: 11189376
I1015 21:01:51.340209 12458 layer_factory.hpp:77] Creating layer slice
I1015 21:01:51.340229 12458 net.cpp:100] Creating Layer slice
I1015 21:01:51.340237 12458 net.cpp:434] slice <- data
I1015 21:01:51.340247 12458 net.cpp:408] slice -> data123
I1015 21:01:51.340260 12458 net.cpp:408] slice -> ch4
I1015 21:01:51.340314 12458 net.cpp:150] Setting up slice
I1015 21:01:51.340327 12458 net.cpp:157] Top shape: 1 3 768 768 (1769472)
I1015 21:01:51.340335 12458 net.cpp:157] Top shape: 1 1 768 768 (589824)
I1015 21:01:51.340342 12458 net.cpp:165] Memory required for data: 20626560
I1015 21:01:51.340348 12458 layer_factory.hpp:77] Creating layer conv1_1
I1015 21:01:51.340387 12458 net.cpp:100] Creating Layer conv1_1
I1015 21:01:51.340406 12458 net.cpp:434] conv1_1 <- data123
I1015 21:01:51.340420 12458 net.cpp:408] conv1_1 -> conv1_1
I1015 21:01:51.571487 12458 net.cpp:150] Setting up conv1_1
I1015 21:01:51.571516 12458 net.cpp:157] Top shape: 1 64 768 768 (37748736)
I1015 21:01:51.571521 12458 net.cpp:165] Memory required for data: 171621504
I1015 21:01:51.571538 12458 layer_factory.hpp:77] Creating layer relu1_1
I1015 21:01:51.571549 12458 net.cpp:100] Creating Layer relu1_1
I1015 21:01:51.571554 12458 net.cpp:434] relu1_1 <- conv1_1
I1015 21:01:51.571559 12458 net.cpp:395] relu1_1 -> conv1_1 (in-place)
I1015 21:01:51.571717 12458 net.cpp:150] Setting up relu1_1
I1015 21:01:51.571728 12458 net.cpp:157] Top shape: 1 64 768 768 (37748736)
I1015 21:01:51.571732 12458 net.cpp:165] Memory required for data: 322616448
I1015 21:01:51.571735 12458 layer_factory.hpp:77] Creating layer conv1_2
I1015 21:01:51.571745 12458 net.cpp:100] Creating Layer conv1_2
I1015 21:01:51.571749 12458 net.cpp:434] conv1_2 <- conv1_1
I1015 21:01:51.571755 12458 net.cpp:408] conv1_2 -> conv1_2
I1015 21:01:51.573787 12458 net.cpp:150] Setting up conv1_2
I1015 21:01:51.573804 12458 net.cpp:157] Top shape: 1 64 768 768 (37748736)
I1015 21:01:51.573808 12458 net.cpp:165] Memory required for data: 473611392
I1015 21:01:51.573819 12458 layer_factory.hpp:77] Creating layer relu1_2
I1015 21:01:51.573827 12458 net.cpp:100] Creating Layer relu1_2
I1015 21:01:51.573832 12458 net.cpp:434] relu1_2 <- conv1_2
I1015 21:01:51.573837 12458 net.cpp:395] relu1_2 -> conv1_2 (in-place)
I1015 21:01:51.573998 12458 net.cpp:150] Setting up relu1_2
I1015 21:01:51.574007 12458 net.cpp:157] Top shape: 1 64 768 768 (37748736)
I1015 21:01:51.574012 12458 net.cpp:165] Memory required for data: 624606336
I1015 21:01:51.574014 12458 layer_factory.hpp:77] Creating layer pool1
I1015 21:01:51.574021 12458 net.cpp:100] Creating Layer pool1
I1015 21:01:51.574024 12458 net.cpp:434] pool1 <- conv1_2
I1015 21:01:51.574029 12458 net.cpp:408] pool1 -> pool1
I1015 21:01:51.574075 12458 net.cpp:150] Setting up pool1
I1015 21:01:51.574081 12458 net.cpp:157] Top shape: 1 64 384 384 (9437184)
I1015 21:01:51.574085 12458 net.cpp:165] Memory required for data: 662355072
I1015 21:01:51.574088 12458 layer_factory.hpp:77] Creating layer conv2_1
I1015 21:01:51.574096 12458 net.cpp:100] Creating Layer conv2_1
I1015 21:01:51.574100 12458 net.cpp:434] conv2_1 <- pool1
I1015 21:01:51.574105 12458 net.cpp:408] conv2_1 -> conv2_1
I1015 21:01:51.576115 12458 net.cpp:150] Setting up conv2_1
I1015 21:01:51.576131 12458 net.cpp:157] Top shape: 1 128 384 384 (18874368)
I1015 21:01:51.576135 12458 net.cpp:165] Memory required for data: 737852544
I1015 21:01:51.576145 12458 layer_factory.hpp:77] Creating layer relu2_1
I1015 21:01:51.576151 12458 net.cpp:100] Creating Layer relu2_1
I1015 21:01:51.576154 12458 net.cpp:434] relu2_1 <- conv2_1
I1015 21:01:51.576159 12458 net.cpp:395] relu2_1 -> conv2_1 (in-place)
I1015 21:01:51.576297 12458 net.cpp:150] Setting up relu2_1
I1015 21:01:51.576306 12458 net.cpp:157] Top shape: 1 128 384 384 (18874368)
I1015 21:01:51.576309 12458 net.cpp:165] Memory required for data: 813350016
I1015 21:01:51.576313 12458 layer_factory.hpp:77] Creating layer conv2_2
I1015 21:01:51.576324 12458 net.cpp:100] Creating Layer conv2_2
I1015 21:01:51.576329 12458 net.cpp:434] conv2_2 <- conv2_1
I1015 21:01:51.576334 12458 net.cpp:408] conv2_2 -> conv2_2
I1015 21:01:51.577673 12458 net.cpp:150] Setting up conv2_2
I1015 21:01:51.577687 12458 net.cpp:157] Top shape: 1 128 384 384 (18874368)
I1015 21:01:51.577692 12458 net.cpp:165] Memory required for data: 888847488
I1015 21:01:51.577697 12458 layer_factory.hpp:77] Creating layer relu2_2
I1015 21:01:51.577703 12458 net.cpp:100] Creating Layer relu2_2
I1015 21:01:51.577706 12458 net.cpp:434] relu2_2 <- conv2_2
I1015 21:01:51.577713 12458 net.cpp:395] relu2_2 -> conv2_2 (in-place)
I1015 21:01:51.577862 12458 net.cpp:150] Setting up relu2_2
I1015 21:01:51.577870 12458 net.cpp:157] Top shape: 1 128 384 384 (18874368)
I1015 21:01:51.577873 12458 net.cpp:165] Memory required for data: 964344960
I1015 21:01:51.577877 12458 layer_factory.hpp:77] Creating layer pool2
I1015 21:01:51.577883 12458 net.cpp:100] Creating Layer pool2
I1015 21:01:51.577886 12458 net.cpp:434] pool2 <- conv2_2
I1015 21:01:51.577894 12458 net.cpp:408] pool2 -> pool2
I1015 21:01:51.577927 12458 net.cpp:150] Setting up pool2
I1015 21:01:51.577935 12458 net.cpp:157] Top shape: 1 128 192 192 (4718592)
I1015 21:01:51.577939 12458 net.cpp:165] Memory required for data: 983219328
I1015 21:01:51.577942 12458 layer_factory.hpp:77] Creating layer conv3_1
I1015 21:01:51.577949 12458 net.cpp:100] Creating Layer conv3_1
I1015 21:01:51.577951 12458 net.cpp:434] conv3_1 <- pool2
I1015 21:01:51.577956 12458 net.cpp:408] conv3_1 -> conv3_1
I1015 21:01:51.580085 12458 net.cpp:150] Setting up conv3_1
I1015 21:01:51.580098 12458 net.cpp:157] Top shape: 1 256 192 192 (9437184)
I1015 21:01:51.580102 12458 net.cpp:165] Memory required for data: 1020968064
I1015 21:01:51.580111 12458 layer_factory.hpp:77] Creating layer relu3_1
I1015 21:01:51.580117 12458 net.cpp:100] Creating Layer relu3_1
I1015 21:01:51.580121 12458 net.cpp:434] relu3_1 <- conv3_1
I1015 21:01:51.580124 12458 net.cpp:395] relu3_1 -> conv3_1 (in-place)
I1015 21:01:51.580550 12458 net.cpp:150] Setting up relu3_1
I1015 21:01:51.580562 12458 net.cpp:157] Top shape: 1 256 192 192 (9437184)
I1015 21:01:51.580566 12458 net.cpp:165] Memory required for data: 1058716800
I1015 21:01:51.580570 12458 layer_factory.hpp:77] Creating layer conv3_2
I1015 21:01:51.580579 12458 net.cpp:100] Creating Layer conv3_2
I1015 21:01:51.580582 12458 net.cpp:434] conv3_2 <- conv3_1
I1015 21:01:51.580587 12458 net.cpp:408] conv3_2 -> conv3_2
I1015 21:01:51.582713 12458 net.cpp:150] Setting up conv3_2
I1015 21:01:51.582731 12458 net.cpp:157] Top shape: 1 256 192 192 (9437184)
I1015 21:01:51.582736 12458 net.cpp:165] Memory required for data: 1096465536
I1015 21:01:51.582743 12458 layer_factory.hpp:77] Creating layer relu3_2
I1015 21:01:51.582749 12458 net.cpp:100] Creating Layer relu3_2
I1015 21:01:51.582753 12458 net.cpp:434] relu3_2 <- conv3_2
I1015 21:01:51.582758 12458 net.cpp:395] relu3_2 -> conv3_2 (in-place)
I1015 21:01:51.583218 12458 net.cpp:150] Setting up relu3_2
I1015 21:01:51.583233 12458 net.cpp:157] Top shape: 1 256 192 192 (9437184)
I1015 21:01:51.583238 12458 net.cpp:165] Memory required for data: 1134214272
I1015 21:01:51.583242 12458 layer_factory.hpp:77] Creating layer conv3_3
I1015 21:01:51.583252 12458 net.cpp:100] Creating Layer conv3_3
I1015 21:01:51.583256 12458 net.cpp:434] conv3_3 <- conv3_2
I1015 21:01:51.583263 12458 net.cpp:408] conv3_3 -> conv3_3
I1015 21:01:51.585989 12458 net.cpp:150] Setting up conv3_3
I1015 21:01:51.586015 12458 net.cpp:157] Top shape: 1 256 192 192 (9437184)
I1015 21:01:51.586019 12458 net.cpp:165] Memory required for data: 1171963008
I1015 21:01:51.586028 12458 layer_factory.hpp:77] Creating layer relu3_3
I1015 21:01:51.586040 12458 net.cpp:100] Creating Layer relu3_3
I1015 21:01:51.586045 12458 net.cpp:434] relu3_3 <- conv3_3
I1015 21:01:51.586051 12458 net.cpp:395] relu3_3 -> conv3_3 (in-place)
I1015 21:01:51.586215 12458 net.cpp:150] Setting up relu3_3
I1015 21:01:51.586225 12458 net.cpp:157] Top shape: 1 256 192 192 (9437184)
I1015 21:01:51.586227 12458 net.cpp:165] Memory required for data: 1209711744
I1015 21:01:51.586231 12458 layer_factory.hpp:77] Creating layer pool3
I1015 21:01:51.586238 12458 net.cpp:100] Creating Layer pool3
I1015 21:01:51.586242 12458 net.cpp:434] pool3 <- conv3_3
I1015 21:01:51.586247 12458 net.cpp:408] pool3 -> pool3
I1015 21:01:51.586283 12458 net.cpp:150] Setting up pool3
I1015 21:01:51.586289 12458 net.cpp:157] Top shape: 1 256 96 96 (2359296)
I1015 21:01:51.586292 12458 net.cpp:165] Memory required for data: 1219148928
I1015 21:01:51.586297 12458 layer_factory.hpp:77] Creating layer conv4_1
I1015 21:01:51.586304 12458 net.cpp:100] Creating Layer conv4_1
I1015 21:01:51.586308 12458 net.cpp:434] conv4_1 <- pool3
I1015 21:01:51.586313 12458 net.cpp:408] conv4_1 -> conv4_1
I1015 21:01:51.590014 12458 net.cpp:150] Setting up conv4_1
I1015 21:01:51.590040 12458 net.cpp:157] Top shape: 1 512 96 96 (4718592)
I1015 21:01:51.590044 12458 net.cpp:165] Memory required for data: 1238023296
I1015 21:01:51.590054 12458 layer_factory.hpp:77] Creating layer relu4_1
I1015 21:01:51.590065 12458 net.cpp:100] Creating Layer relu4_1
I1015 21:01:51.590070 12458 net.cpp:434] relu4_1 <- conv4_1
I1015 21:01:51.590076 12458 net.cpp:395] relu4_1 -> conv4_1 (in-place)
I1015 21:01:51.590245 12458 net.cpp:150] Setting up relu4_1
I1015 21:01:51.590255 12458 net.cpp:157] Top shape: 1 512 96 96 (4718592)
I1015 21:01:51.590257 12458 net.cpp:165] Memory required for data: 1256897664
I1015 21:01:51.590261 12458 layer_factory.hpp:77] Creating layer conv4_2
I1015 21:01:51.590270 12458 net.cpp:100] Creating Layer conv4_2
I1015 21:01:51.590275 12458 net.cpp:434] conv4_2 <- conv4_1
I1015 21:01:51.590279 12458 net.cpp:408] conv4_2 -> conv4_2
I1015 21:01:51.596318 12458 net.cpp:150] Setting up conv4_2
I1015 21:01:51.596350 12458 net.cpp:157] Top shape: 1 512 96 96 (4718592)
I1015 21:01:51.596354 12458 net.cpp:165] Memory required for data: 1275772032
I1015 21:01:51.596393 12458 layer_factory.hpp:77] Creating layer relu4_2
I1015 21:01:51.596407 12458 net.cpp:100] Creating Layer relu4_2
I1015 21:01:51.596413 12458 net.cpp:434] relu4_2 <- conv4_2
I1015 21:01:51.596421 12458 net.cpp:395] relu4_2 -> conv4_2 (in-place)
I1015 21:01:51.596606 12458 net.cpp:150] Setting up relu4_2
I1015 21:01:51.596616 12458 net.cpp:157] Top shape: 1 512 96 96 (4718592)
I1015 21:01:51.596619 12458 net.cpp:165] Memory required for data: 1294646400
I1015 21:01:51.596623 12458 layer_factory.hpp:77] Creating layer conv4_3
I1015 21:01:51.596633 12458 net.cpp:100] Creating Layer conv4_3
I1015 21:01:51.596637 12458 net.cpp:434] conv4_3 <- conv4_2
I1015 21:01:51.596644 12458 net.cpp:408] conv4_3 -> conv4_3
I1015 21:01:51.603312 12458 net.cpp:150] Setting up conv4_3
I1015 21:01:51.603358 12458 net.cpp:157] Top shape: 1 512 96 96 (4718592)
I1015 21:01:51.603364 12458 net.cpp:165] Memory required for data: 1313520768
I1015 21:01:51.603375 12458 layer_factory.hpp:77] Creating layer relu4_3
I1015 21:01:51.603394 12458 net.cpp:100] Creating Layer relu4_3
I1015 21:01:51.603400 12458 net.cpp:434] relu4_3 <- conv4_3
I1015 21:01:51.603410 12458 net.cpp:395] relu4_3 -> conv4_3 (in-place)
I1015 21:01:51.603597 12458 net.cpp:150] Setting up relu4_3
I1015 21:01:51.603608 12458 net.cpp:157] Top shape: 1 512 96 96 (4718592)
I1015 21:01:51.603612 12458 net.cpp:165] Memory required for data: 1332395136
I1015 21:01:51.603616 12458 layer_factory.hpp:77] Creating layer conv4_3_relu4_3_0_split
I1015 21:01:51.603631 12458 net.cpp:100] Creating Layer conv4_3_relu4_3_0_split
I1015 21:01:51.603636 12458 net.cpp:434] conv4_3_relu4_3_0_split <- conv4_3
I1015 21:01:51.603641 12458 net.cpp:408] conv4_3_relu4_3_0_split -> conv4_3_relu4_3_0_split_0
I1015 21:01:51.603651 12458 net.cpp:408] conv4_3_relu4_3_0_split -> conv4_3_relu4_3_0_split_1
I1015 21:01:51.603657 12458 net.cpp:408] conv4_3_relu4_3_0_split -> conv4_3_relu4_3_0_split_2
I1015 21:01:51.603709 12458 net.cpp:150] Setting up conv4_3_relu4_3_0_split
I1015 21:01:51.603716 12458 net.cpp:157] Top shape: 1 512 96 96 (4718592)
I1015 21:01:51.603721 12458 net.cpp:157] Top shape: 1 512 96 96 (4718592)
I1015 21:01:51.603726 12458 net.cpp:157] Top shape: 1 512 96 96 (4718592)
I1015 21:01:51.603730 12458 net.cpp:165] Memory required for data: 1389018240
I1015 21:01:51.603734 12458 layer_factory.hpp:77] Creating layer buffer
I1015 21:01:51.603749 12458 net.cpp:100] Creating Layer buffer
I1015 21:01:51.603755 12458 net.cpp:434] buffer <- conv4_3_relu4_3_0_split_0
I1015 21:01:51.603761 12458 net.cpp:408] buffer -> buffer
I1015 21:01:51.667235 12458 net.cpp:150] Setting up buffer
I1015 21:01:51.667260 12458 net.cpp:157] Top shape: 1 512 96 96 (4718592)
I1015 21:01:51.667264 12458 net.cpp:165] Memory required for data: 1407892608
I1015 21:01:51.667271 12458 layer_factory.hpp:77] Creating layer relu_buffer
I1015 21:01:51.667280 12458 net.cpp:100] Creating Layer relu_buffer
I1015 21:01:51.667285 12458 net.cpp:434] relu_buffer <- buffer
I1015 21:01:51.667292 12458 net.cpp:395] relu_buffer -> buffer (in-place)
I1015 21:01:51.667722 12458 net.cpp:150] Setting up relu_buffer
I1015 21:01:51.667734 12458 net.cpp:157] Top shape: 1 512 96 96 (4718592)
I1015 21:01:51.667738 12458 net.cpp:165] Memory required for data: 1426766976
I1015 21:01:51.667742 12458 layer_factory.hpp:77] Creating layer attention
I1015 21:01:51.667754 12458 net.cpp:100] Creating Layer attention
I1015 21:01:51.667758 12458 net.cpp:434] attention <- buffer
I1015 21:01:51.667764 12458 net.cpp:408] attention -> attention
I1015 21:01:51.669064 12458 net.cpp:150] Setting up attention
I1015 21:01:51.669076 12458 net.cpp:157] Top shape: 1 3 96 96 (27648)
I1015 21:01:51.669080 12458 net.cpp:165] Memory required for data: 1426877568
I1015 21:01:51.669088 12458 layer_factory.hpp:77] Creating layer relu_attention
I1015 21:01:51.669093 12458 net.cpp:100] Creating Layer relu_attention
I1015 21:01:51.669097 12458 net.cpp:434] relu_attention <- attention
I1015 21:01:51.669103 12458 net.cpp:395] relu_attention -> attention (in-place)
I1015 21:01:51.669529 12458 net.cpp:150] Setting up relu_attention
I1015 21:01:51.669541 12458 net.cpp:157] Top shape: 1 3 96 96 (27648)
I1015 21:01:51.669544 12458 net.cpp:165] Memory required for data: 1426988160
I1015 21:01:51.669548 12458 layer_factory.hpp:77] Creating layer ch4_pool
I1015 21:01:51.669556 12458 net.cpp:100] Creating Layer ch4_pool
I1015 21:01:51.669559 12458 net.cpp:434] ch4_pool <- ch4
I1015 21:01:51.669565 12458 net.cpp:408] ch4_pool -> ch4_pool
I1015 21:01:51.669600 12458 net.cpp:150] Setting up ch4_pool
I1015 21:01:51.669607 12458 net.cpp:157] Top shape: 1 1 96 96 (9216)
I1015 21:01:51.669610 12458 net.cpp:165] Memory required for data: 1427025024
I1015 21:01:51.669613 12458 layer_factory.hpp:77] Creating layer loss_attention
I1015 21:01:51.669620 12458 net.cpp:100] Creating Layer loss_attention
I1015 21:01:51.669623 12458 net.cpp:434] loss_attention <- attention
I1015 21:01:51.669627 12458 net.cpp:434] loss_attention <- ch4_pool
I1015 21:01:51.669632 12458 net.cpp:408] loss_attention -> loss_attention
I1015 21:01:51.669642 12458 layer_factory.hpp:77] Creating layer loss_attention
I1015 21:01:51.669879 12458 net.cpp:150] Setting up loss_attention
I1015 21:01:51.669888 12458 net.cpp:157] Top shape: (1)
I1015 21:01:51.669893 12458 net.cpp:160]     with loss weight 1
I1015 21:01:51.669909 12458 net.cpp:165] Memory required for data: 1427025028
I1015 21:01:51.669912 12458 layer_factory.hpp:77] Creating layer loss1_conv1
I1015 21:01:51.669921 12458 net.cpp:100] Creating Layer loss1_conv1
I1015 21:01:51.669925 12458 net.cpp:434] loss1_conv1 <- conv4_3_relu4_3_0_split_1
I1015 21:01:51.669932 12458 net.cpp:408] loss1_conv1 -> loss1_conv1
I1015 21:01:51.731302 12458 net.cpp:150] Setting up loss1_conv1
I1015 21:01:51.731331 12458 net.cpp:157] Top shape: 1 512 96 96 (4718592)
I1015 21:01:51.731334 12458 net.cpp:165] Memory required for data: 1445899396
I1015 21:01:51.731343 12458 layer_factory.hpp:77] Creating layer loss_relu1
I1015 21:01:51.731353 12458 net.cpp:100] Creating Layer loss_relu1
I1015 21:01:51.731356 12458 net.cpp:434] loss_relu1 <- loss1_conv1
I1015 21:01:51.731362 12458 net.cpp:395] loss_relu1 -> loss1_conv1 (in-place)
I1015 21:01:51.731520 12458 net.cpp:150] Setting up loss_relu1
I1015 21:01:51.731530 12458 net.cpp:157] Top shape: 1 512 96 96 (4718592)
I1015 21:01:51.731534 12458 net.cpp:165] Memory required for data: 1464773764
I1015 21:01:51.731537 12458 layer_factory.hpp:77] Creating layer loss1_conv1_loss_relu1_0_split
I1015 21:01:51.731544 12458 net.cpp:100] Creating Layer loss1_conv1_loss_relu1_0_split
I1015 21:01:51.731547 12458 net.cpp:434] loss1_conv1_loss_relu1_0_split <- loss1_conv1
I1015 21:01:51.731552 12458 net.cpp:408] loss1_conv1_loss_relu1_0_split -> loss1_conv1_loss_relu1_0_split_0
I1015 21:01:51.731559 12458 net.cpp:408] loss1_conv1_loss_relu1_0_split -> loss1_conv1_loss_relu1_0_split_1
I1015 21:01:51.731593 12458 net.cpp:150] Setting up loss1_conv1_loss_relu1_0_split
I1015 21:01:51.731598 12458 net.cpp:157] Top shape: 1 512 96 96 (4718592)
I1015 21:01:51.731602 12458 net.cpp:157] Top shape: 1 512 96 96 (4718592)
I1015 21:01:51.731606 12458 net.cpp:165] Memory required for data: 1502522500
I1015 21:01:51.731609 12458 layer_factory.hpp:77] Creating layer LFCN_1_5x5
I1015 21:01:51.731619 12458 net.cpp:100] Creating Layer LFCN_1_5x5
I1015 21:01:51.731623 12458 net.cpp:434] LFCN_1_5x5 <- loss1_conv1_loss_relu1_0_split_0
I1015 21:01:51.731631 12458 net.cpp:408] LFCN_1_5x5 -> LFCN_1_5x5
I1015 21:01:51.735893 12458 net.cpp:150] Setting up LFCN_1_5x5
I1015 21:01:51.735906 12458 net.cpp:157] Top shape: 1 9 96 96 (82944)
I1015 21:01:51.735909 12458 net.cpp:165] Memory required for data: 1502854276
I1015 21:01:51.735916 12458 layer_factory.hpp:77] Creating layer LFCN_1_5x5_LFCN_1_5x5_0_split
I1015 21:01:51.735922 12458 net.cpp:100] Creating Layer LFCN_1_5x5_LFCN_1_5x5_0_split
I1015 21:01:51.735926 12458 net.cpp:434] LFCN_1_5x5_LFCN_1_5x5_0_split <- LFCN_1_5x5
I1015 21:01:51.735931 12458 net.cpp:408] LFCN_1_5x5_LFCN_1_5x5_0_split -> LFCN_1_5x5_LFCN_1_5x5_0_split_0
I1015 21:01:51.735939 12458 net.cpp:408] LFCN_1_5x5_LFCN_1_5x5_0_split -> LFCN_1_5x5_LFCN_1_5x5_0_split_1
I1015 21:01:51.735975 12458 net.cpp:150] Setting up LFCN_1_5x5_LFCN_1_5x5_0_split
I1015 21:01:51.735980 12458 net.cpp:157] Top shape: 1 9 96 96 (82944)
I1015 21:01:51.735983 12458 net.cpp:157] Top shape: 1 9 96 96 (82944)
I1015 21:01:51.735986 12458 net.cpp:165] Memory required for data: 1503517828
I1015 21:01:51.735990 12458 layer_factory.hpp:77] Creating layer detection_loss_1_5x5
I1015 21:01:51.736002 12458 net.cpp:100] Creating Layer detection_loss_1_5x5
I1015 21:01:51.736006 12458 net.cpp:434] detection_loss_1_5x5 <- LFCN_1_5x5_LFCN_1_5x5_0_split_0
I1015 21:01:51.736011 12458 net.cpp:434] detection_loss_1_5x5 <- label_1_5x5_data_1_split_0
I1015 21:01:51.736016 12458 net.cpp:408] detection_loss_1_5x5 -> loss_1_5x5
I1015 21:01:51.736028 12458 layer_factory.hpp:77] Creating layer detection_loss_1_5x5
I1015 21:01:51.737269 12458 net.cpp:150] Setting up detection_loss_1_5x5
I1015 21:01:51.737284 12458 net.cpp:157] Top shape: 1 1 1 2 (2)
I1015 21:01:51.737287 12458 net.cpp:160]     with loss weight 0.9
I1015 21:01:51.737298 12458 net.cpp:165] Memory required for data: 1503517836
I1015 21:01:51.737303 12458 layer_factory.hpp:77] Creating layer detection_accuracy_1_5x5
I1015 21:01:51.737311 12458 net.cpp:100] Creating Layer detection_accuracy_1_5x5
I1015 21:01:51.737315 12458 net.cpp:434] detection_accuracy_1_5x5 <- LFCN_1_5x5_LFCN_1_5x5_0_split_1
I1015 21:01:51.737319 12458 net.cpp:434] detection_accuracy_1_5x5 <- label_1_5x5_data_1_split_1
I1015 21:01:51.737324 12458 net.cpp:408] detection_accuracy_1_5x5 -> accuracy_1_5x5
I1015 21:01:51.737332 12458 net.cpp:408] detection_accuracy_1_5x5 -> boxiou_1_5x5
I1015 21:01:51.737370 12458 net.cpp:150] Setting up detection_accuracy_1_5x5
I1015 21:01:51.737375 12458 net.cpp:157] Top shape: 1 1 1 2 (2)
I1015 21:01:51.737378 12458 net.cpp:157] Top shape: 1 1 1 1 (1)
I1015 21:01:51.737381 12458 net.cpp:165] Memory required for data: 1503517848
I1015 21:01:51.737385 12458 layer_factory.hpp:77] Creating layer LFCN_1_7x7
I1015 21:01:51.737395 12458 net.cpp:100] Creating Layer LFCN_1_7x7
I1015 21:01:51.737398 12458 net.cpp:434] LFCN_1_7x7 <- loss1_conv1_loss_relu1_0_split_1
I1015 21:01:51.737406 12458 net.cpp:408] LFCN_1_7x7 -> LFCN_1_7x7
I1015 21:01:51.744980 12458 net.cpp:150] Setting up LFCN_1_7x7
I1015 21:01:51.745002 12458 net.cpp:157] Top shape: 1 9 96 96 (82944)
I1015 21:01:51.745007 12458 net.cpp:165] Memory required for data: 1503849624
I1015 21:01:51.745014 12458 layer_factory.hpp:77] Creating layer LFCN_1_7x7_LFCN_1_7x7_0_split
I1015 21:01:51.745023 12458 net.cpp:100] Creating Layer LFCN_1_7x7_LFCN_1_7x7_0_split
I1015 21:01:51.745028 12458 net.cpp:434] LFCN_1_7x7_LFCN_1_7x7_0_split <- LFCN_1_7x7
I1015 21:01:51.745033 12458 net.cpp:408] LFCN_1_7x7_LFCN_1_7x7_0_split -> LFCN_1_7x7_LFCN_1_7x7_0_split_0
I1015 21:01:51.745041 12458 net.cpp:408] LFCN_1_7x7_LFCN_1_7x7_0_split -> LFCN_1_7x7_LFCN_1_7x7_0_split_1
I1015 21:01:51.745077 12458 net.cpp:150] Setting up LFCN_1_7x7_LFCN_1_7x7_0_split
I1015 21:01:51.745085 12458 net.cpp:157] Top shape: 1 9 96 96 (82944)
I1015 21:01:51.745088 12458 net.cpp:157] Top shape: 1 9 96 96 (82944)
I1015 21:01:51.745091 12458 net.cpp:165] Memory required for data: 1504513176
I1015 21:01:51.745095 12458 layer_factory.hpp:77] Creating layer detection_loss_1_7x7
I1015 21:01:51.745103 12458 net.cpp:100] Creating Layer detection_loss_1_7x7
I1015 21:01:51.745106 12458 net.cpp:434] detection_loss_1_7x7 <- LFCN_1_7x7_LFCN_1_7x7_0_split_0
I1015 21:01:51.745111 12458 net.cpp:434] detection_loss_1_7x7 <- label_1_7x7_data_2_split_0
I1015 21:01:51.745116 12458 net.cpp:408] detection_loss_1_7x7 -> loss_1_7x7
I1015 21:01:51.745124 12458 layer_factory.hpp:77] Creating layer detection_loss_1_7x7
I1015 21:01:51.745859 12458 net.cpp:150] Setting up detection_loss_1_7x7
I1015 21:01:51.745874 12458 net.cpp:157] Top shape: 1 1 1 2 (2)
I1015 21:01:51.745878 12458 net.cpp:160]     with loss weight 0.9
I1015 21:01:51.745888 12458 net.cpp:165] Memory required for data: 1504513184
I1015 21:01:51.745893 12458 layer_factory.hpp:77] Creating layer detection_accuracy_1_7x7
I1015 21:01:51.745899 12458 net.cpp:100] Creating Layer detection_accuracy_1_7x7
I1015 21:01:51.745903 12458 net.cpp:434] detection_accuracy_1_7x7 <- LFCN_1_7x7_LFCN_1_7x7_0_split_1
I1015 21:01:51.745908 12458 net.cpp:434] detection_accuracy_1_7x7 <- label_1_7x7_data_2_split_1
I1015 21:01:51.745913 12458 net.cpp:408] detection_accuracy_1_7x7 -> accuracy_1_7x7
I1015 21:01:51.745919 12458 net.cpp:408] detection_accuracy_1_7x7 -> boxiou_1_7x7
I1015 21:01:51.745957 12458 net.cpp:150] Setting up detection_accuracy_1_7x7
I1015 21:01:51.745965 12458 net.cpp:157] Top shape: 1 1 1 2 (2)
I1015 21:01:51.745970 12458 net.cpp:157] Top shape: 1 1 1 1 (1)
I1015 21:01:51.745972 12458 net.cpp:165] Memory required for data: 1504513196
I1015 21:01:51.745975 12458 layer_factory.hpp:77] Creating layer pool4
I1015 21:01:51.745983 12458 net.cpp:100] Creating Layer pool4
I1015 21:01:51.745986 12458 net.cpp:434] pool4 <- conv4_3_relu4_3_0_split_2
I1015 21:01:51.745991 12458 net.cpp:408] pool4 -> pool4
I1015 21:01:51.746023 12458 net.cpp:150] Setting up pool4
I1015 21:01:51.746031 12458 net.cpp:157] Top shape: 1 512 48 48 (1179648)
I1015 21:01:51.746034 12458 net.cpp:165] Memory required for data: 1509231788
I1015 21:01:51.746037 12458 layer_factory.hpp:77] Creating layer conv5_1
I1015 21:01:51.746047 12458 net.cpp:100] Creating Layer conv5_1
I1015 21:01:51.746049 12458 net.cpp:434] conv5_1 <- pool4
I1015 21:01:51.746054 12458 net.cpp:408] conv5_1 -> conv5_1
I1015 21:01:51.751281 12458 net.cpp:150] Setting up conv5_1
I1015 21:01:51.751320 12458 net.cpp:157] Top shape: 1 512 48 48 (1179648)
I1015 21:01:51.751323 12458 net.cpp:165] Memory required for data: 1513950380
I1015 21:01:51.751332 12458 layer_factory.hpp:77] Creating layer relu5_1
I1015 21:01:51.751343 12458 net.cpp:100] Creating Layer relu5_1
I1015 21:01:51.751348 12458 net.cpp:434] relu5_1 <- conv5_1
I1015 21:01:51.751353 12458 net.cpp:395] relu5_1 -> conv5_1 (in-place)
I1015 21:01:51.751952 12458 net.cpp:150] Setting up relu5_1
I1015 21:01:51.751965 12458 net.cpp:157] Top shape: 1 512 48 48 (1179648)
I1015 21:01:51.751968 12458 net.cpp:165] Memory required for data: 1518668972
I1015 21:01:51.751972 12458 layer_factory.hpp:77] Creating layer conv5_2
I1015 21:01:51.751983 12458 net.cpp:100] Creating Layer conv5_2
I1015 21:01:51.751987 12458 net.cpp:434] conv5_2 <- conv5_1
I1015 21:01:51.751993 12458 net.cpp:408] conv5_2 -> conv5_2
I1015 21:01:51.757607 12458 net.cpp:150] Setting up conv5_2
I1015 21:01:51.757637 12458 net.cpp:157] Top shape: 1 512 48 48 (1179648)
I1015 21:01:51.757642 12458 net.cpp:165] Memory required for data: 1523387564
I1015 21:01:51.757658 12458 layer_factory.hpp:77] Creating layer relu5_2
I1015 21:01:51.757669 12458 net.cpp:100] Creating Layer relu5_2
I1015 21:01:51.757675 12458 net.cpp:434] relu5_2 <- conv5_2
I1015 21:01:51.757681 12458 net.cpp:395] relu5_2 -> conv5_2 (in-place)
I1015 21:01:51.757845 12458 net.cpp:150] Setting up relu5_2
I1015 21:01:51.757854 12458 net.cpp:157] Top shape: 1 512 48 48 (1179648)
I1015 21:01:51.757858 12458 net.cpp:165] Memory required for data: 1528106156
I1015 21:01:51.757861 12458 layer_factory.hpp:77] Creating layer conv5_3
I1015 21:01:51.757872 12458 net.cpp:100] Creating Layer conv5_3
I1015 21:01:51.757875 12458 net.cpp:434] conv5_3 <- conv5_2
I1015 21:01:51.757880 12458 net.cpp:408] conv5_3 -> conv5_3
I1015 21:01:51.764292 12458 net.cpp:150] Setting up conv5_3
I1015 21:01:51.764335 12458 net.cpp:157] Top shape: 1 512 48 48 (1179648)
I1015 21:01:51.764339 12458 net.cpp:165] Memory required for data: 1532824748
I1015 21:01:51.764349 12458 layer_factory.hpp:77] Creating layer relu5_3
I1015 21:01:51.764379 12458 net.cpp:100] Creating Layer relu5_3
I1015 21:01:51.764397 12458 net.cpp:434] relu5_3 <- conv5_3
I1015 21:01:51.764407 12458 net.cpp:395] relu5_3 -> conv5_3 (in-place)
I1015 21:01:51.764756 12458 net.cpp:150] Setting up relu5_3
I1015 21:01:51.764766 12458 net.cpp:157] Top shape: 1 512 48 48 (1179648)
I1015 21:01:51.764770 12458 net.cpp:165] Memory required for data: 1537543340
I1015 21:01:51.764773 12458 layer_factory.hpp:77] Creating layer conv5_3_relu5_3_0_split
I1015 21:01:51.764782 12458 net.cpp:100] Creating Layer conv5_3_relu5_3_0_split
I1015 21:01:51.764786 12458 net.cpp:434] conv5_3_relu5_3_0_split <- conv5_3
I1015 21:01:51.764791 12458 net.cpp:408] conv5_3_relu5_3_0_split -> conv5_3_relu5_3_0_split_0
I1015 21:01:51.764798 12458 net.cpp:408] conv5_3_relu5_3_0_split -> conv5_3_relu5_3_0_split_1
I1015 21:01:51.764811 12458 net.cpp:408] conv5_3_relu5_3_0_split -> conv5_3_relu5_3_0_split_2
I1015 21:01:51.764863 12458 net.cpp:150] Setting up conv5_3_relu5_3_0_split
I1015 21:01:51.764869 12458 net.cpp:157] Top shape: 1 512 48 48 (1179648)
I1015 21:01:51.764873 12458 net.cpp:157] Top shape: 1 512 48 48 (1179648)
I1015 21:01:51.764878 12458 net.cpp:157] Top shape: 1 512 48 48 (1179648)
I1015 21:01:51.764881 12458 net.cpp:165] Memory required for data: 1551699116
I1015 21:01:51.764884 12458 layer_factory.hpp:77] Creating layer LFCN_2_5x5
I1015 21:01:51.764901 12458 net.cpp:100] Creating Layer LFCN_2_5x5
I1015 21:01:51.764905 12458 net.cpp:434] LFCN_2_5x5 <- conv5_3_relu5_3_0_split_0
I1015 21:01:51.764912 12458 net.cpp:408] LFCN_2_5x5 -> LFCN_2_5x5
I1015 21:01:51.769706 12458 net.cpp:150] Setting up LFCN_2_5x5
I1015 21:01:51.769737 12458 net.cpp:157] Top shape: 1 9 48 48 (20736)
I1015 21:01:51.769740 12458 net.cpp:165] Memory required for data: 1551782060
I1015 21:01:51.769750 12458 layer_factory.hpp:77] Creating layer LFCN_2_5x5_LFCN_2_5x5_0_split
I1015 21:01:51.769762 12458 net.cpp:100] Creating Layer LFCN_2_5x5_LFCN_2_5x5_0_split
I1015 21:01:51.769768 12458 net.cpp:434] LFCN_2_5x5_LFCN_2_5x5_0_split <- LFCN_2_5x5
I1015 21:01:51.769774 12458 net.cpp:408] LFCN_2_5x5_LFCN_2_5x5_0_split -> LFCN_2_5x5_LFCN_2_5x5_0_split_0
I1015 21:01:51.769783 12458 net.cpp:408] LFCN_2_5x5_LFCN_2_5x5_0_split -> LFCN_2_5x5_LFCN_2_5x5_0_split_1
I1015 21:01:51.769819 12458 net.cpp:150] Setting up LFCN_2_5x5_LFCN_2_5x5_0_split
I1015 21:01:51.769824 12458 net.cpp:157] Top shape: 1 9 48 48 (20736)
I1015 21:01:51.769829 12458 net.cpp:157] Top shape: 1 9 48 48 (20736)
I1015 21:01:51.769830 12458 net.cpp:165] Memory required for data: 1551947948
I1015 21:01:51.769834 12458 layer_factory.hpp:77] Creating layer detection_loss_2_5x5
I1015 21:01:51.769845 12458 net.cpp:100] Creating Layer detection_loss_2_5x5
I1015 21:01:51.769850 12458 net.cpp:434] detection_loss_2_5x5 <- LFCN_2_5x5_LFCN_2_5x5_0_split_0
I1015 21:01:51.769855 12458 net.cpp:434] detection_loss_2_5x5 <- label_2_5x5_data_3_split_0
I1015 21:01:51.769863 12458 net.cpp:408] detection_loss_2_5x5 -> loss_2_5x5
I1015 21:01:51.769876 12458 layer_factory.hpp:77] Creating layer detection_loss_2_5x5
I1015 21:01:51.770222 12458 net.cpp:150] Setting up detection_loss_2_5x5
I1015 21:01:51.770232 12458 net.cpp:157] Top shape: 1 1 1 2 (2)
I1015 21:01:51.770236 12458 net.cpp:160]     with loss weight 1
I1015 21:01:51.770259 12458 net.cpp:165] Memory required for data: 1551947956
I1015 21:01:51.770263 12458 layer_factory.hpp:77] Creating layer detection_accuracy_2_5x5
I1015 21:01:51.770272 12458 net.cpp:100] Creating Layer detection_accuracy_2_5x5
I1015 21:01:51.770275 12458 net.cpp:434] detection_accuracy_2_5x5 <- LFCN_2_5x5_LFCN_2_5x5_0_split_1
I1015 21:01:51.770280 12458 net.cpp:434] detection_accuracy_2_5x5 <- label_2_5x5_data_3_split_1
I1015 21:01:51.770288 12458 net.cpp:408] detection_accuracy_2_5x5 -> accuracy_2_5x5
I1015 21:01:51.770294 12458 net.cpp:408] detection_accuracy_2_5x5 -> boxiou_2_5x5
I1015 21:01:51.770337 12458 net.cpp:150] Setting up detection_accuracy_2_5x5
I1015 21:01:51.770344 12458 net.cpp:157] Top shape: 1 1 1 2 (2)
I1015 21:01:51.770349 12458 net.cpp:157] Top shape: 1 1 1 1 (1)
I1015 21:01:51.770351 12458 net.cpp:165] Memory required for data: 1551947968
I1015 21:01:51.770355 12458 layer_factory.hpp:77] Creating layer LFCN_2_7x7
I1015 21:01:51.770370 12458 net.cpp:100] Creating Layer LFCN_2_7x7
I1015 21:01:51.770375 12458 net.cpp:434] LFCN_2_7x7 <- conv5_3_relu5_3_0_split_1
I1015 21:01:51.770382 12458 net.cpp:408] LFCN_2_7x7 -> LFCN_2_7x7
I1015 21:01:51.778674 12458 net.cpp:150] Setting up LFCN_2_7x7
I1015 21:01:51.778693 12458 net.cpp:157] Top shape: 1 9 48 48 (20736)
I1015 21:01:51.778697 12458 net.cpp:165] Memory required for data: 1552030912
I1015 21:01:51.778704 12458 layer_factory.hpp:77] Creating layer LFCN_2_7x7_LFCN_2_7x7_0_split
I1015 21:01:51.778723 12458 net.cpp:100] Creating Layer LFCN_2_7x7_LFCN_2_7x7_0_split
I1015 21:01:51.778728 12458 net.cpp:434] LFCN_2_7x7_LFCN_2_7x7_0_split <- LFCN_2_7x7
I1015 21:01:51.778734 12458 net.cpp:408] LFCN_2_7x7_LFCN_2_7x7_0_split -> LFCN_2_7x7_LFCN_2_7x7_0_split_0
I1015 21:01:51.778743 12458 net.cpp:408] LFCN_2_7x7_LFCN_2_7x7_0_split -> LFCN_2_7x7_LFCN_2_7x7_0_split_1
I1015 21:01:51.778779 12458 net.cpp:150] Setting up LFCN_2_7x7_LFCN_2_7x7_0_split
I1015 21:01:51.778786 12458 net.cpp:157] Top shape: 1 9 48 48 (20736)
I1015 21:01:51.778790 12458 net.cpp:157] Top shape: 1 9 48 48 (20736)
I1015 21:01:51.778793 12458 net.cpp:165] Memory required for data: 1552196800
I1015 21:01:51.778796 12458 layer_factory.hpp:77] Creating layer detection_loss_2_7x7
I1015 21:01:51.778808 12458 net.cpp:100] Creating Layer detection_loss_2_7x7
I1015 21:01:51.778812 12458 net.cpp:434] detection_loss_2_7x7 <- LFCN_2_7x7_LFCN_2_7x7_0_split_0
I1015 21:01:51.778817 12458 net.cpp:434] detection_loss_2_7x7 <- label_2_7x7_data_4_split_0
I1015 21:01:51.778823 12458 net.cpp:408] detection_loss_2_7x7 -> loss_2_7x7
I1015 21:01:51.778831 12458 layer_factory.hpp:77] Creating layer detection_loss_2_7x7
I1015 21:01:51.779132 12458 net.cpp:150] Setting up detection_loss_2_7x7
I1015 21:01:51.779144 12458 net.cpp:157] Top shape: 1 1 1 2 (2)
I1015 21:01:51.779146 12458 net.cpp:160]     with loss weight 1
I1015 21:01:51.779156 12458 net.cpp:165] Memory required for data: 1552196808
I1015 21:01:51.779160 12458 layer_factory.hpp:77] Creating layer detection_accuracy_2_7x7
I1015 21:01:51.779165 12458 net.cpp:100] Creating Layer detection_accuracy_2_7x7
I1015 21:01:51.779170 12458 net.cpp:434] detection_accuracy_2_7x7 <- LFCN_2_7x7_LFCN_2_7x7_0_split_1
I1015 21:01:51.779173 12458 net.cpp:434] detection_accuracy_2_7x7 <- label_2_7x7_data_4_split_1
I1015 21:01:51.779179 12458 net.cpp:408] detection_accuracy_2_7x7 -> accuracy_2_7x7
I1015 21:01:51.779186 12458 net.cpp:408] detection_accuracy_2_7x7 -> boxiou_2_7x7
I1015 21:01:51.779220 12458 net.cpp:150] Setting up detection_accuracy_2_7x7
I1015 21:01:51.779227 12458 net.cpp:157] Top shape: 1 1 1 2 (2)
I1015 21:01:51.779232 12458 net.cpp:157] Top shape: 1 1 1 1 (1)
I1015 21:01:51.779235 12458 net.cpp:165] Memory required for data: 1552196820
I1015 21:01:51.779239 12458 layer_factory.hpp:77] Creating layer pool5
I1015 21:01:51.779247 12458 net.cpp:100] Creating Layer pool5
I1015 21:01:51.779250 12458 net.cpp:434] pool5 <- conv5_3_relu5_3_0_split_2
I1015 21:01:51.779255 12458 net.cpp:408] pool5 -> pool5
I1015 21:01:51.779287 12458 net.cpp:150] Setting up pool5
I1015 21:01:51.779294 12458 net.cpp:157] Top shape: 1 512 24 24 (294912)
I1015 21:01:51.779297 12458 net.cpp:165] Memory required for data: 1553376468
I1015 21:01:51.779300 12458 layer_factory.hpp:77] Creating layer conv6_1
I1015 21:01:51.779309 12458 net.cpp:100] Creating Layer conv6_1
I1015 21:01:51.779314 12458 net.cpp:434] conv6_1 <- pool5
I1015 21:01:51.779320 12458 net.cpp:408] conv6_1 -> conv6_1
I1015 21:01:51.841460 12458 net.cpp:150] Setting up conv6_1
I1015 21:01:51.841486 12458 net.cpp:157] Top shape: 1 512 24 24 (294912)
I1015 21:01:51.841490 12458 net.cpp:165] Memory required for data: 1554556116
I1015 21:01:51.841497 12458 layer_factory.hpp:77] Creating layer relu6_1
I1015 21:01:51.841507 12458 net.cpp:100] Creating Layer relu6_1
I1015 21:01:51.841512 12458 net.cpp:434] relu6_1 <- conv6_1
I1015 21:01:51.841519 12458 net.cpp:395] relu6_1 -> conv6_1 (in-place)
I1015 21:01:51.841962 12458 net.cpp:150] Setting up relu6_1
I1015 21:01:51.841975 12458 net.cpp:157] Top shape: 1 512 24 24 (294912)
I1015 21:01:51.841979 12458 net.cpp:165] Memory required for data: 1555735764
I1015 21:01:51.841982 12458 layer_factory.hpp:77] Creating layer conv6_1_relu6_1_0_split
I1015 21:01:51.841989 12458 net.cpp:100] Creating Layer conv6_1_relu6_1_0_split
I1015 21:01:51.841992 12458 net.cpp:434] conv6_1_relu6_1_0_split <- conv6_1
I1015 21:01:51.841998 12458 net.cpp:408] conv6_1_relu6_1_0_split -> conv6_1_relu6_1_0_split_0
I1015 21:01:51.842005 12458 net.cpp:408] conv6_1_relu6_1_0_split -> conv6_1_relu6_1_0_split_1
I1015 21:01:51.842010 12458 net.cpp:408] conv6_1_relu6_1_0_split -> conv6_1_relu6_1_0_split_2
I1015 21:01:51.842057 12458 net.cpp:150] Setting up conv6_1_relu6_1_0_split
I1015 21:01:51.842064 12458 net.cpp:157] Top shape: 1 512 24 24 (294912)
I1015 21:01:51.842069 12458 net.cpp:157] Top shape: 1 512 24 24 (294912)
I1015 21:01:51.842073 12458 net.cpp:157] Top shape: 1 512 24 24 (294912)
I1015 21:01:51.842077 12458 net.cpp:165] Memory required for data: 1559274708
I1015 21:01:51.842079 12458 layer_factory.hpp:77] Creating layer LFCN_3_5x5
I1015 21:01:51.842090 12458 net.cpp:100] Creating Layer LFCN_3_5x5
I1015 21:01:51.842094 12458 net.cpp:434] LFCN_3_5x5 <- conv6_1_relu6_1_0_split_0
I1015 21:01:51.842101 12458 net.cpp:408] LFCN_3_5x5 -> LFCN_3_5x5
I1015 21:01:51.845773 12458 net.cpp:150] Setting up LFCN_3_5x5
I1015 21:01:51.845788 12458 net.cpp:157] Top shape: 1 9 24 24 (5184)
I1015 21:01:51.845791 12458 net.cpp:165] Memory required for data: 1559295444
I1015 21:01:51.845798 12458 layer_factory.hpp:77] Creating layer LFCN_3_5x5_LFCN_3_5x5_0_split
I1015 21:01:51.845803 12458 net.cpp:100] Creating Layer LFCN_3_5x5_LFCN_3_5x5_0_split
I1015 21:01:51.845806 12458 net.cpp:434] LFCN_3_5x5_LFCN_3_5x5_0_split <- LFCN_3_5x5
I1015 21:01:51.845813 12458 net.cpp:408] LFCN_3_5x5_LFCN_3_5x5_0_split -> LFCN_3_5x5_LFCN_3_5x5_0_split_0
I1015 21:01:51.845819 12458 net.cpp:408] LFCN_3_5x5_LFCN_3_5x5_0_split -> LFCN_3_5x5_LFCN_3_5x5_0_split_1
I1015 21:01:51.845854 12458 net.cpp:150] Setting up LFCN_3_5x5_LFCN_3_5x5_0_split
I1015 21:01:51.845860 12458 net.cpp:157] Top shape: 1 9 24 24 (5184)
I1015 21:01:51.845863 12458 net.cpp:157] Top shape: 1 9 24 24 (5184)
I1015 21:01:51.845866 12458 net.cpp:165] Memory required for data: 1559336916
I1015 21:01:51.845870 12458 layer_factory.hpp:77] Creating layer detection_loss_3_5x5
I1015 21:01:51.845876 12458 net.cpp:100] Creating Layer detection_loss_3_5x5
I1015 21:01:51.845880 12458 net.cpp:434] detection_loss_3_5x5 <- LFCN_3_5x5_LFCN_3_5x5_0_split_0
I1015 21:01:51.845885 12458 net.cpp:434] detection_loss_3_5x5 <- label_3_5x5_data_5_split_0
I1015 21:01:51.845892 12458 net.cpp:408] detection_loss_3_5x5 -> loss_3_5x5
I1015 21:01:51.845902 12458 layer_factory.hpp:77] Creating layer detection_loss_3_5x5
I1015 21:01:51.846575 12458 net.cpp:150] Setting up detection_loss_3_5x5
I1015 21:01:51.846598 12458 net.cpp:157] Top shape: 1 1 1 2 (2)
I1015 21:01:51.846602 12458 net.cpp:160]     with loss weight 1
I1015 21:01:51.846649 12458 net.cpp:165] Memory required for data: 1559336924
I1015 21:01:51.846654 12458 layer_factory.hpp:77] Creating layer detection_accuracy_3_5x5
I1015 21:01:51.846671 12458 net.cpp:100] Creating Layer detection_accuracy_3_5x5
I1015 21:01:51.846675 12458 net.cpp:434] detection_accuracy_3_5x5 <- LFCN_3_5x5_LFCN_3_5x5_0_split_1
I1015 21:01:51.846683 12458 net.cpp:434] detection_accuracy_3_5x5 <- label_3_5x5_data_5_split_1
I1015 21:01:51.846690 12458 net.cpp:408] detection_accuracy_3_5x5 -> accuracy_3_5x5
I1015 21:01:51.846699 12458 net.cpp:408] detection_accuracy_3_5x5 -> boxiou_3_5x5
I1015 21:01:51.846757 12458 net.cpp:150] Setting up detection_accuracy_3_5x5
I1015 21:01:51.846771 12458 net.cpp:157] Top shape: 1 1 1 2 (2)
I1015 21:01:51.846777 12458 net.cpp:157] Top shape: 1 1 1 1 (1)
I1015 21:01:51.846783 12458 net.cpp:165] Memory required for data: 1559336936
I1015 21:01:51.846788 12458 layer_factory.hpp:77] Creating layer LFCN_3_7x7
I1015 21:01:51.846813 12458 net.cpp:100] Creating Layer LFCN_3_7x7
I1015 21:01:51.846820 12458 net.cpp:434] LFCN_3_7x7 <- conv6_1_relu6_1_0_split_1
I1015 21:01:51.846834 12458 net.cpp:408] LFCN_3_7x7 -> LFCN_3_7x7
I1015 21:01:51.855832 12458 net.cpp:150] Setting up LFCN_3_7x7
I1015 21:01:51.855873 12458 net.cpp:157] Top shape: 1 9 24 24 (5184)
I1015 21:01:51.855880 12458 net.cpp:165] Memory required for data: 1559357672
I1015 21:01:51.855893 12458 layer_factory.hpp:77] Creating layer LFCN_3_7x7_LFCN_3_7x7_0_split
I1015 21:01:51.855913 12458 net.cpp:100] Creating Layer LFCN_3_7x7_LFCN_3_7x7_0_split
I1015 21:01:51.855923 12458 net.cpp:434] LFCN_3_7x7_LFCN_3_7x7_0_split <- LFCN_3_7x7
I1015 21:01:51.855934 12458 net.cpp:408] LFCN_3_7x7_LFCN_3_7x7_0_split -> LFCN_3_7x7_LFCN_3_7x7_0_split_0
I1015 21:01:51.855949 12458 net.cpp:408] LFCN_3_7x7_LFCN_3_7x7_0_split -> LFCN_3_7x7_LFCN_3_7x7_0_split_1
I1015 21:01:51.855996 12458 net.cpp:150] Setting up LFCN_3_7x7_LFCN_3_7x7_0_split
I1015 21:01:51.856005 12458 net.cpp:157] Top shape: 1 9 24 24 (5184)
I1015 21:01:51.856011 12458 net.cpp:157] Top shape: 1 9 24 24 (5184)
I1015 21:01:51.856015 12458 net.cpp:165] Memory required for data: 1559399144
I1015 21:01:51.856021 12458 layer_factory.hpp:77] Creating layer detection_loss_3_7x7
I1015 21:01:51.856036 12458 net.cpp:100] Creating Layer detection_loss_3_7x7
I1015 21:01:51.856042 12458 net.cpp:434] detection_loss_3_7x7 <- LFCN_3_7x7_LFCN_3_7x7_0_split_0
I1015 21:01:51.856050 12458 net.cpp:434] detection_loss_3_7x7 <- label_3_7x7_data_6_split_0
I1015 21:01:51.856058 12458 net.cpp:408] detection_loss_3_7x7 -> loss_3_7x7
I1015 21:01:51.856071 12458 layer_factory.hpp:77] Creating layer detection_loss_3_7x7
I1015 21:01:51.856425 12458 net.cpp:150] Setting up detection_loss_3_7x7
I1015 21:01:51.856437 12458 net.cpp:157] Top shape: 1 1 1 2 (2)
I1015 21:01:51.856441 12458 net.cpp:160]     with loss weight 1
I1015 21:01:51.856458 12458 net.cpp:165] Memory required for data: 1559399152
I1015 21:01:51.856462 12458 layer_factory.hpp:77] Creating layer detection_accuracy_3_7x7
I1015 21:01:51.856472 12458 net.cpp:100] Creating Layer detection_accuracy_3_7x7
I1015 21:01:51.856477 12458 net.cpp:434] detection_accuracy_3_7x7 <- LFCN_3_7x7_LFCN_3_7x7_0_split_1
I1015 21:01:51.856483 12458 net.cpp:434] detection_accuracy_3_7x7 <- label_3_7x7_data_6_split_1
I1015 21:01:51.856492 12458 net.cpp:408] detection_accuracy_3_7x7 -> accuracy_3_7x7
I1015 21:01:51.856505 12458 net.cpp:408] detection_accuracy_3_7x7 -> boxiou_3_7x7
I1015 21:01:51.856554 12458 net.cpp:150] Setting up detection_accuracy_3_7x7
I1015 21:01:51.856562 12458 net.cpp:157] Top shape: 1 1 1 2 (2)
I1015 21:01:51.856568 12458 net.cpp:157] Top shape: 1 1 1 1 (1)
I1015 21:01:51.856572 12458 net.cpp:165] Memory required for data: 1559399164
I1015 21:01:51.856577 12458 layer_factory.hpp:77] Creating layer pool6
I1015 21:01:51.856590 12458 net.cpp:100] Creating Layer pool6
I1015 21:01:51.856597 12458 net.cpp:434] pool6 <- conv6_1_relu6_1_0_split_2
I1015 21:01:51.856606 12458 net.cpp:408] pool6 -> pool6
I1015 21:01:51.856648 12458 net.cpp:150] Setting up pool6
I1015 21:01:51.856657 12458 net.cpp:157] Top shape: 1 512 12 12 (73728)
I1015 21:01:51.856662 12458 net.cpp:165] Memory required for data: 1559694076
I1015 21:01:51.856667 12458 layer_factory.hpp:77] Creating layer LFCN_4_5x5
I1015 21:01:51.856683 12458 net.cpp:100] Creating Layer LFCN_4_5x5
I1015 21:01:51.856688 12458 net.cpp:434] LFCN_4_5x5 <- pool6
I1015 21:01:51.856698 12458 net.cpp:408] LFCN_4_5x5 -> LFCN_4_5x5
I1015 21:01:51.861215 12458 net.cpp:150] Setting up LFCN_4_5x5
I1015 21:01:51.861254 12458 net.cpp:157] Top shape: 1 9 12 12 (1296)
I1015 21:01:51.861263 12458 net.cpp:165] Memory required for data: 1559699260
I1015 21:01:51.861276 12458 layer_factory.hpp:77] Creating layer LFCN_4_5x5_LFCN_4_5x5_0_split
I1015 21:01:51.861290 12458 net.cpp:100] Creating Layer LFCN_4_5x5_LFCN_4_5x5_0_split
I1015 21:01:51.861300 12458 net.cpp:434] LFCN_4_5x5_LFCN_4_5x5_0_split <- LFCN_4_5x5
I1015 21:01:51.861313 12458 net.cpp:408] LFCN_4_5x5_LFCN_4_5x5_0_split -> LFCN_4_5x5_LFCN_4_5x5_0_split_0
I1015 21:01:51.861327 12458 net.cpp:408] LFCN_4_5x5_LFCN_4_5x5_0_split -> LFCN_4_5x5_LFCN_4_5x5_0_split_1
I1015 21:01:51.861372 12458 net.cpp:150] Setting up LFCN_4_5x5_LFCN_4_5x5_0_split
I1015 21:01:51.861382 12458 net.cpp:157] Top shape: 1 9 12 12 (1296)
I1015 21:01:51.861387 12458 net.cpp:157] Top shape: 1 9 12 12 (1296)
I1015 21:01:51.861392 12458 net.cpp:165] Memory required for data: 1559709628
I1015 21:01:51.861397 12458 layer_factory.hpp:77] Creating layer detection_loss_4_5x5
I1015 21:01:51.861409 12458 net.cpp:100] Creating Layer detection_loss_4_5x5
I1015 21:01:51.861416 12458 net.cpp:434] detection_loss_4_5x5 <- LFCN_4_5x5_LFCN_4_5x5_0_split_0
I1015 21:01:51.861423 12458 net.cpp:434] detection_loss_4_5x5 <- label_4_5x5_data_7_split_0
I1015 21:01:51.861433 12458 net.cpp:408] detection_loss_4_5x5 -> loss_4_5x5
I1015 21:01:51.861447 12458 layer_factory.hpp:77] Creating layer detection_loss_4_5x5
I1015 21:01:51.861799 12458 net.cpp:150] Setting up detection_loss_4_5x5
I1015 21:01:51.861809 12458 net.cpp:157] Top shape: 1 1 1 2 (2)
I1015 21:01:51.861814 12458 net.cpp:160]     with loss weight 1
I1015 21:01:51.861836 12458 net.cpp:165] Memory required for data: 1559709636
I1015 21:01:51.861842 12458 layer_factory.hpp:77] Creating layer detection_accuracy_4_5x5
I1015 21:01:51.861852 12458 net.cpp:100] Creating Layer detection_accuracy_4_5x5
I1015 21:01:51.861860 12458 net.cpp:434] detection_accuracy_4_5x5 <- LFCN_4_5x5_LFCN_4_5x5_0_split_1
I1015 21:01:51.861866 12458 net.cpp:434] detection_accuracy_4_5x5 <- label_4_5x5_data_7_split_1
I1015 21:01:51.861876 12458 net.cpp:408] detection_accuracy_4_5x5 -> accuracy_4_5x5
I1015 21:01:51.861887 12458 net.cpp:408] detection_accuracy_4_5x5 -> boxiou_4_5x5
I1015 21:01:51.861933 12458 net.cpp:150] Setting up detection_accuracy_4_5x5
I1015 21:01:51.861943 12458 net.cpp:157] Top shape: 1 1 1 2 (2)
I1015 21:01:51.861948 12458 net.cpp:157] Top shape: 1 1 1 1 (1)
I1015 21:01:51.861953 12458 net.cpp:165] Memory required for data: 1559709648
I1015 21:01:51.861958 12458 net.cpp:228] detection_accuracy_4_5x5 does not need backward computation.
I1015 21:01:51.861963 12458 net.cpp:226] detection_loss_4_5x5 needs backward computation.
I1015 21:01:51.861970 12458 net.cpp:226] LFCN_4_5x5_LFCN_4_5x5_0_split needs backward computation.
I1015 21:01:51.861977 12458 net.cpp:226] LFCN_4_5x5 needs backward computation.
…
I1015 21:01:51.874740 12458 image_gt_data_layer.cpp:235] output label size 1 : 2,6,96,96
I1015 21:01:51.874783 12458 image_gt_data_layer.cpp:235] output label size 2 : 2,6,48,48
I1015 21:01:51.874821 12458 image_gt_data_layer.cpp:235] output label size 3 : 2,6,48,48
I1015 21:01:51.874861 12458 image_gt_data_layer.cpp:235] output label size 4 : 2,6,24,24
I1015 21:01:51.874902 12458 image_gt_data_layer.cpp:235] output label size 5 : 2,6,24,24
I1015 21:01:51.874939 12458 image_gt_data_layer.cpp:235] output label size 6 : 2,6,12,12
I1015 21:01:51.914317 12458 net.cpp:150] Setting up data
I1015 21:01:51.914389 12458 net.cpp:157] Top shape: 2 4 768 768 (4718592)
I1015 21:01:51.914397 12458 net.cpp:157] Top shape: 2 6 96 96 (110592)
I1015 21:01:51.914402 12458 net.cpp:157] Top shape: 2 6 96 96 (110592)
I1015 21:01:51.914407 12458 net.cpp:157] Top shape: 2 6 48 48 (27648)
I1015 21:01:51.914412 12458 net.cpp:157] Top shape: 2 6 48 48 (27648)
I1015 21:01:51.914417 12458 net.cpp:157] Top shape: 2 6 24 24 (6912)
I1015 21:01:51.914420 12458 net.cpp:157] Top shape: 2 6 24 24 (6912)
I1015 21:01:51.914424 12458 net.cpp:157] Top shape: 2 6 12 12 (1728)
I1015 21:01:51.914428 12458 net.cpp:165] Memory required for data: 20042496
I1015 21:01:51.914438 12458 layer_factory.hpp:77] Creating layer label_1_5x5_data_1_split
I1015 21:01:51.914455 12458 net.cpp:100] Creating Layer label_1_5x5_data_1_split
I1015 21:01:51.914460 12458 net.cpp:434] label_1_5x5_data_1_split <- label_1_5x5
I1015 21:01:51.914469 12458 net.cpp:408] label_1_5x5_data_1_split -> label_1_5x5_data_1_split_0
I1015 21:01:51.914480 12458 net.cpp:408] label_1_5x5_data_1_split -> label_1_5x5_data_1_split_1
I1015 21:01:51.914741 12458 net.cpp:150] Setting up label_1_5x5_data_1_split
I1015 21:01:51.914793 12458 net.cpp:157] Top shape: 2 6 96 96 (110592)
I1015 21:01:51.914805 12458 net.cpp:157] Top shape: 2 6 96 96 (110592)
I1015 21:01:51.914814 12458 net.cpp:165] Memory required for data: 20927232
I1015 21:01:51.914827 12458 layer_factory.hpp:77] Creating layer label_1_7x7_data_2_split
I1015 21:01:51.914850 12458 net.cpp:100] Creating Layer label_1_7x7_data_2_split
I1015 21:01:51.914862 12458 net.cpp:434] label_1_7x7_data_2_split <- label_1_7x7
I1015 21:01:51.914876 12458 net.cpp:408] label_1_7x7_data_2_split -> label_1_7x7_data_2_split_0
I1015 21:01:51.914896 12458 net.cpp:408] label_1_7x7_data_2_split -> label_1_7x7_data_2_split_1
I1015 21:01:51.914996 12458 net.cpp:150] Setting up label_1_7x7_data_2_split
I1015 21:01:51.915014 12458 net.cpp:157] Top shape: 2 6 96 96 (110592)
I1015 21:01:51.915024 12458 net.cpp:157] Top shape: 2 6 96 96 (110592)
I1015 21:01:51.915033 12458 net.cpp:165] Memory required for data: 21811968
I1015 21:01:51.915042 12458 layer_factory.hpp:77] Creating layer label_2_5x5_data_3_split
I1015 21:01:51.915053 12458 net.cpp:100] Creating Layer label_2_5x5_data_3_split
I1015 21:01:51.915063 12458 net.cpp:434] label_2_5x5_data_3_split <- label_2_5x5
I1015 21:01:51.915077 12458 net.cpp:408] label_2_5x5_data_3_split -> label_2_5x5_data_3_split_0
I1015 21:01:51.915093 12458 net.cpp:408] label_2_5x5_data_3_split -> label_2_5x5_data_3_split_1
I1015 21:01:51.915174 12458 net.cpp:150] Setting up label_2_5x5_data_3_split
I1015 21:01:51.915189 12458 net.cpp:157] Top shape: 2 6 48 48 (27648)
I1015 21:01:51.915199 12458 net.cpp:157] Top shape: 2 6 48 48 (27648)
I1015 21:01:51.915208 12458 net.cpp:165] Memory required for data: 22033152
I1015 21:01:51.915216 12458 layer_factory.hpp:77] Creating layer label_2_7x7_data_4_split
I1015 21:01:51.915227 12458 net.cpp:100] Creating Layer label_2_7x7_data_4_split
I1015 21:01:51.915237 12458 net.cpp:434] label_2_7x7_data_4_split <- label_2_7x7
I1015 21:01:51.915249 12458 net.cpp:408] label_2_7x7_data_4_split -> label_2_7x7_data_4_split_0
I1015 21:01:51.915262 12458 net.cpp:408] label_2_7x7_data_4_split -> label_2_7x7_data_4_split_1
I1015 21:01:51.915346 12458 net.cpp:150] Setting up label_2_7x7_data_4_split
I1015 21:01:51.915359 12458 net.cpp:157] Top shape: 2 6 48 48 (27648)
I1015 21:01:51.915369 12458 net.cpp:157] Top shape: 2 6 48 48 (27648)
I1015 21:01:51.915376 12458 net.cpp:165] Memory required for data: 22254336
I1015 21:01:51.915385 12458 layer_factory.hpp:77] Creating layer label_3_5x5_data_5_split
I1015 21:01:51.915393 12458 net.cpp:100] Creating Layer label_3_5x5_data_5_split
I1015 21:01:51.915401 12458 net.cpp:434] label_3_5x5_data_5_split <- label_3_5x5
I1015 21:01:51.915415 12458 net.cpp:408] label_3_5x5_data_5_split -> label_3_5x5_data_5_split_0
I1015 21:01:51.915429 12458 net.cpp:408] label_3_5x5_data_5_split -> label_3_5x5_data_5_split_1
I1015 21:01:51.915506 12458 net.cpp:150] Setting up label_3_5x5_data_5_split
I1015 21:01:51.915519 12458 net.cpp:157] Top shape: 2 6 24 24 (6912)
I1015 21:01:51.915529 12458 net.cpp:157] Top shape: 2 6 24 24 (6912)
I1015 21:01:51.915536 12458 net.cpp:165] Memory required for data: 22309632
I1015 21:01:51.915544 12458 layer_factory.hpp:77] Creating layer label_3_7x7_data_6_split
I1015 21:01:51.915554 12458 net.cpp:100] Creating Layer label_3_7x7_data_6_split
I1015 21:01:51.915565 12458 net.cpp:434] label_3_7x7_data_6_split <- label_3_7x7
I1015 21:01:51.915575 12458 net.cpp:408] label_3_7x7_data_6_split -> label_3_7x7_data_6_split_0
I1015 21:01:51.915586 12458 net.cpp:408] label_3_7x7_data_6_split -> label_3_7x7_data_6_split_1
I1015 21:01:51.915661 12458 net.cpp:150] Setting up label_3_7x7_data_6_split
I1015 21:01:51.915673 12458 net.cpp:157] Top shape: 2 6 24 24 (6912)
I1015 21:01:51.915683 12458 net.cpp:157] Top shape: 2 6 24 24 (6912)
I1015 21:01:51.915690 12458 net.cpp:165] Memory required for data: 22364928
I1015 21:01:51.915697 12458 layer_factory.hpp:77] Creating layer label_4_5x5_data_7_split
I1015 21:01:51.915706 12458 net.cpp:100] Creating Layer label_4_5x5_data_7_split
I1015 21:01:51.915714 12458 net.cpp:434] label_4_5x5_data_7_split <- label_4_5x5
I1015 21:01:51.915724 12458 net.cpp:408] label_4_5x5_data_7_split -> label_4_5x5_data_7_split_0
I1015 21:01:51.915737 12458 net.cpp:408] label_4_5x5_data_7_split -> label_4_5x5_data_7_split_1
I1015 21:01:51.915817 12458 net.cpp:150] Setting up label_4_5x5_data_7_split
I1015 21:01:51.915827 12458 net.cpp:157] Top shape: 2 6 12 12 (1728)
I1015 21:01:51.915838 12458 net.cpp:157] Top shape: 2 6 12 12 (1728)
I1015 21:01:51.915844 12458 net.cpp:165] Memory required for data: 22378752
I1015 21:01:51.915853 12458 layer_factory.hpp:77] Creating layer slice
I1015 21:01:51.915869 12458 net.cpp:100] Creating Layer slice
I1015 21:01:51.915877 12458 net.cpp:434] slice <- data
I1015 21:01:51.915889 12458 net.cpp:408] slice -> data123
I1015 21:01:51.915904 12458 net.cpp:408] slice -> ch4
I1015 21:01:51.915979 12458 net.cpp:150] Setting up slice
I1015 21:01:51.915992 12458 net.cpp:157] Top shape: 2 3 768 768 (3538944)
I1015 21:01:51.916000 12458 net.cpp:157] Top shape: 2 1 768 768 (1179648)
I1015 21:01:51.916007 12458 net.cpp:165] Memory required for data: 41253120
I1015 21:01:51.916015 12458 layer_factory.hpp:77] Creating layer conv1_1
I1015 21:01:51.916036 12458 net.cpp:100] Creating Layer conv1_1
I1015 21:01:51.916043 12458 net.cpp:434] conv1_1 <- data123
I1015 21:01:51.916056 12458 net.cpp:408] conv1_1 -> conv1_1
I1015 21:01:51.923578 12458 net.cpp:150] Setting up conv1_1
I1015 21:01:51.923611 12458 net.cpp:157] Top shape: 2 64 768 768 (75497472)
I1015 21:01:51.923616 12458 net.cpp:165] Memory required for data: 343243008
I1015 21:01:51.923635 12458 layer_factory.hpp:77] Creating layer relu1_1
I1015 21:01:51.923650 12458 net.cpp:100] Creating Layer relu1_1
I1015 21:01:51.923657 12458 net.cpp:434] relu1_1 <- conv1_1
I1015 21:01:51.923663 12458 net.cpp:395] relu1_1 -> conv1_1 (in-place)
I1015 21:01:51.923974 12458 net.cpp:150] Setting up relu1_1
I1015 21:01:51.923985 12458 net.cpp:157] Top shape: 2 64 768 768 (75497472)
I1015 21:01:51.923990 12458 net.cpp:165] Memory required for data: 645232896
I1015 21:01:51.923993 12458 layer_factory.hpp:77] Creating layer conv1_2
I1015 21:01:51.924006 12458 net.cpp:100] Creating Layer conv1_2
I1015 21:01:51.924010 12458 net.cpp:434] conv1_2 <- conv1_1
I1015 21:01:51.924017 12458 net.cpp:408] conv1_2 -> conv1_2
I1015 21:01:51.927597 12458 net.cpp:150] Setting up conv1_2
I1015 21:01:51.927621 12458 net.cpp:157] Top shape: 2 64 768 768 (75497472)
I1015 21:01:51.927628 12458 net.cpp:165] Memory required for data: 947222784
I1015 21:01:51.927642 12458 layer_factory.hpp:77] Creating layer relu1_2
I1015 21:01:51.927655 12458 net.cpp:100] Creating Layer relu1_2
I1015 21:01:51.927661 12458 net.cpp:434] relu1_2 <- conv1_2
I1015 21:01:51.927669 12458 net.cpp:395] relu1_2 -> conv1_2 (in-place)
I1015 21:01:51.927871 12458 net.cpp:150] Setting up relu1_2
I1015 21:01:51.927881 12458 net.cpp:157] Top shape: 2 64 768 768 (75497472)
I1015 21:01:51.927886 12458 net.cpp:165] Memory required for data: 1249212672
I1015 21:01:51.927891 12458 layer_factory.hpp:77] Creating layer pool1
I1015 21:01:51.927898 12458 net.cpp:100] Creating Layer pool1
I1015 21:01:51.927902 12458 net.cpp:434] pool1 <- conv1_2
I1015 21:01:51.927909 12458 net.cpp:408] pool1 -> pool1
I1015 21:01:51.927961 12458 net.cpp:150] Setting up pool1
I1015 21:01:51.927969 12458 net.cpp:157] Top shape: 2 64 384 384 (18874368)
I1015 21:01:51.927973 12458 net.cpp:165] Memory required for data: 1324710144
I1015 21:01:51.927978 12458 layer_factory.hpp:77] Creating layer conv2_1
I1015 21:01:51.927989 12458 net.cpp:100] Creating Layer conv2_1
I1015 21:01:51.927992 12458 net.cpp:434] conv2_1 <- pool1
I1015 21:01:51.927999 12458 net.cpp:408] conv2_1 -> conv2_1
I1015 21:01:51.929778 12458 net.cpp:150] Setting up conv2_1
I1015 21:01:51.929795 12458 net.cpp:157] Top shape: 2 128 384 384 (37748736)
I1015 21:01:51.929800 12458 net.cpp:165] Memory required for data: 1475705088
I1015 21:01:51.929813 12458 layer_factory.hpp:77] Creating layer relu2_1
I1015 21:01:51.929822 12458 net.cpp:100] Creating Layer relu2_1
I1015 21:01:51.929826 12458 net.cpp:434] relu2_1 <- conv2_1
I1015 21:01:51.929834 12458 net.cpp:395] relu2_1 -> conv2_1 (in-place)
I1015 21:01:51.930392 12458 net.cpp:150] Setting up relu2_1
I1015 21:01:51.930405 12458 net.cpp:157] Top shape: 2 128 384 384 (37748736)
I1015 21:01:51.930410 12458 net.cpp:165] Memory required for data: 1626700032
I1015 21:01:51.930414 12458 layer_factory.hpp:77] Creating layer conv2_2
I1015 21:01:51.930428 12458 net.cpp:100] Creating Layer conv2_2
I1015 21:01:51.930433 12458 net.cpp:434] conv2_2 <- conv2_1
I1015 21:01:51.930440 12458 net.cpp:408] conv2_2 -> conv2_2
I1015 21:01:51.932723 12458 net.cpp:150] Setting up conv2_2
I1015 21:01:51.932739 12458 net.cpp:157] Top shape: 2 128 384 384 (37748736)
I1015 21:01:51.932744 12458 net.cpp:165] Memory required for data: 1777694976
I1015 21:01:51.932754 12458 layer_factory.hpp:77] Creating layer relu2_2
I1015 21:01:51.932762 12458 net.cpp:100] Creating Layer relu2_2
I1015 21:01:51.932767 12458 net.cpp:434] relu2_2 <- conv2_2
I1015 21:01:51.932773 12458 net.cpp:395] relu2_2 -> conv2_2 (in-place)
I1015 21:01:51.935739 12458 net.cpp:150] Setting up relu2_2
I1015 21:01:51.935758 12458 net.cpp:157] Top shape: 2 128 384 384 (37748736)
I1015 21:01:51.935763 12458 net.cpp:165] Memory required for data: 1928689920
I1015 21:01:51.935770 12458 layer_factory.hpp:77] Creating layer pool2
I1015 21:01:51.935781 12458 net.cpp:100] Creating Layer pool2
I1015 21:01:51.935787 12458 net.cpp:434] pool2 <- conv2_2
I1015 21:01:51.935794 12458 net.cpp:408] pool2 -> pool2
I1015 21:01:51.935858 12458 net.cpp:150] Setting up pool2
I1015 21:01:51.935868 12458 net.cpp:157] Top shape: 2 128 192 192 (9437184)
I1015 21:01:51.935873 12458 net.cpp:165] Memory required for data: 1966438656
I1015 21:01:51.935876 12458 layer_factory.hpp:77] Creating layer conv3_1
I1015 21:01:51.935887 12458 net.cpp:100] Creating Layer conv3_1
I1015 21:01:51.935894 12458 net.cpp:434] conv3_1 <- pool2
I1015 21:01:51.935899 12458 net.cpp:408] conv3_1 -> conv3_1
I1015 21:01:51.938635 12458 net.cpp:150] Setting up conv3_1
I1015 21:01:51.938655 12458 net.cpp:157] Top shape: 2 256 192 192 (18874368)
I1015 21:01:51.938659 12458 net.cpp:165] Memory required for data: 2041936128
I1015 21:01:51.938671 12458 layer_factory.hpp:77] Creating layer relu3_1
I1015 21:01:51.938680 12458 net.cpp:100] Creating Layer relu3_1
I1015 21:01:51.938685 12458 net.cpp:434] relu3_1 <- conv3_1
I1015 21:01:51.938691 12458 net.cpp:395] relu3_1 -> conv3_1 (in-place)
I1015 21:01:51.938905 12458 net.cpp:150] Setting up relu3_1
I1015 21:01:51.938913 12458 net.cpp:157] Top shape: 2 256 192 192 (18874368)
I1015 21:01:51.938917 12458 net.cpp:165] Memory required for data: 2117433600
I1015 21:01:51.938922 12458 layer_factory.hpp:77] Creating layer conv3_2
I1015 21:01:51.938930 12458 net.cpp:100] Creating Layer conv3_2
I1015 21:01:51.938935 12458 net.cpp:434] conv3_2 <- conv3_1
I1015 21:01:51.938941 12458 net.cpp:408] conv3_2 -> conv3_2
I1015 21:01:51.943567 12458 net.cpp:150] Setting up conv3_2
I1015 21:01:51.943595 12458 net.cpp:157] Top shape: 2 256 192 192 (18874368)
I1015 21:01:51.943599 12458 net.cpp:165] Memory required for data: 2192931072
I1015 21:01:51.943611 12458 layer_factory.hpp:77] Creating layer relu3_2
I1015 21:01:51.943624 12458 net.cpp:100] Creating Layer relu3_2
I1015 21:01:51.943630 12458 net.cpp:434] relu3_2 <- conv3_2
I1015 21:01:51.943637 12458 net.cpp:395] relu3_2 -> conv3_2 (in-place)
I1015 21:01:51.943852 12458 net.cpp:150] Setting up relu3_2
I1015 21:01:51.943861 12458 net.cpp:157] Top shape: 2 256 192 192 (18874368)
I1015 21:01:51.943866 12458 net.cpp:165] Memory required for data: 2268428544
I1015 21:01:51.943869 12458 layer_factory.hpp:77] Creating layer conv3_3
I1015 21:01:51.943881 12458 net.cpp:100] Creating Layer conv3_3
I1015 21:01:51.943886 12458 net.cpp:434] conv3_3 <- conv3_2
I1015 21:01:51.943892 12458 net.cpp:408] conv3_3 -> conv3_3
I1015 21:01:51.947383 12458 net.cpp:150] Setting up conv3_3
I1015 21:01:51.947433 12458 net.cpp:157] Top shape: 2 256 192 192 (18874368)
I1015 21:01:51.947438 12458 net.cpp:165] Memory required for data: 2343926016
I1015 21:01:51.947455 12458 layer_factory.hpp:77] Creating layer relu3_3
I1015 21:01:51.947475 12458 net.cpp:100] Creating Layer relu3_3
I1015 21:01:51.947487 12458 net.cpp:434] relu3_3 <- conv3_3
I1015 21:01:51.947497 12458 net.cpp:395] relu3_3 -> conv3_3 (in-place)
I1015 21:01:51.947721 12458 net.cpp:150] Setting up relu3_3
I1015 21:01:51.947736 12458 net.cpp:157] Top shape: 2 256 192 192 (18874368)
I1015 21:01:51.947739 12458 net.cpp:165] Memory required for data: 2419423488
I1015 21:01:51.947743 12458 layer_factory.hpp:77] Creating layer pool3
I1015 21:01:51.947758 12458 net.cpp:100] Creating Layer pool3
I1015 21:01:51.947764 12458 net.cpp:434] pool3 <- conv3_3
I1015 21:01:51.947772 12458 net.cpp:408] pool3 -> pool3
I1015 21:01:51.947827 12458 net.cpp:150] Setting up pool3
I1015 21:01:51.947835 12458 net.cpp:157] Top shape: 2 256 96 96 (4718592)
I1015 21:01:51.947839 12458 net.cpp:165] Memory required for data: 2438297856
I1015 21:01:51.947844 12458 layer_factory.hpp:77] Creating layer conv4_1
I1015 21:01:51.947861 12458 net.cpp:100] Creating Layer conv4_1
I1015 21:01:51.947867 12458 net.cpp:434] conv4_1 <- pool3
I1015 21:01:51.947872 12458 net.cpp:408] conv4_1 -> conv4_1
I1015 21:01:51.957494 12458 net.cpp:150] Setting up conv4_1
I1015 21:01:51.957551 12458 net.cpp:157] Top shape: 2 512 96 96 (9437184)
I1015 21:01:51.957578 12458 net.cpp:165] Memory required for data: 2476046592
I1015 21:01:51.957613 12458 layer_factory.hpp:77] Creating layer relu4_1
I1015 21:01:51.957655 12458 net.cpp:100] Creating Layer relu4_1
I1015 21:01:51.957684 12458 net.cpp:434] relu4_1 <- conv4_1
I1015 21:01:51.957711 12458 net.cpp:395] relu4_1 -> conv4_1 (in-place)
I1015 21:01:51.958015 12458 net.cpp:150] Setting up relu4_1
I1015 21:01:51.958031 12458 net.cpp:157] Top shape: 2 512 96 96 (9437184)
I1015 21:01:51.958039 12458 net.cpp:165] Memory required for data: 2513795328
I1015 21:01:51.958043 12458 layer_factory.hpp:77] Creating layer conv4_2
I1015 21:01:51.958061 12458 net.cpp:100] Creating Layer conv4_2
I1015 21:01:51.958068 12458 net.cpp:434] conv4_2 <- conv4_1
I1015 21:01:51.958078 12458 net.cpp:408] conv4_2 -> conv4_2
I1015 21:01:51.965176 12458 net.cpp:150] Setting up conv4_2
I1015 21:01:51.965209 12458 net.cpp:157] Top shape: 2 512 96 96 (9437184)
I1015 21:01:51.965215 12458 net.cpp:165] Memory required for data: 2551544064
I1015 21:01:51.965230 12458 layer_factory.hpp:77] Creating layer relu4_2
I1015 21:01:51.965242 12458 net.cpp:100] Creating Layer relu4_2
I1015 21:01:51.965250 12458 net.cpp:434] relu4_2 <- conv4_2
I1015 21:01:51.965258 12458 net.cpp:395] relu4_2 -> conv4_2 (in-place)
I1015 21:01:51.965845 12458 net.cpp:150] Setting up relu4_2
I1015 21:01:51.965860 12458 net.cpp:157] Top shape: 2 512 96 96 (9437184)
I1015 21:01:51.965865 12458 net.cpp:165] Memory required for data: 2589292800
I1015 21:01:51.965869 12458 layer_factory.hpp:77] Creating layer conv4_3
I1015 21:01:51.965881 12458 net.cpp:100] Creating Layer conv4_3
I1015 21:01:51.965886 12458 net.cpp:434] conv4_3 <- conv4_2
I1015 21:01:51.965893 12458 net.cpp:408] conv4_3 -> conv4_3
I1015 21:01:51.973017 12458 net.cpp:150] Setting up conv4_3
I1015 21:01:51.973071 12458 net.cpp:157] Top shape: 2 512 96 96 (9437184)
I1015 21:01:51.973075 12458 net.cpp:165] Memory required for data: 2627041536
I1015 21:01:51.973085 12458 layer_factory.hpp:77] Creating layer relu4_3
I1015 21:01:51.973099 12458 net.cpp:100] Creating Layer relu4_3
I1015 21:01:51.973105 12458 net.cpp:434] relu4_3 <- conv4_3
I1015 21:01:51.973111 12458 net.cpp:395] relu4_3 -> conv4_3 (in-place)
I1015 21:01:51.973843 12458 net.cpp:150] Setting up relu4_3
I1015 21:01:51.973856 12458 net.cpp:157] Top shape: 2 512 96 96 (9437184)
I1015 21:01:51.973860 12458 net.cpp:165] Memory required for data: 2664790272
I1015 21:01:51.973863 12458 layer_factory.hpp:77] Creating layer conv4_3_relu4_3_0_split
I1015 21:01:51.973876 12458 net.cpp:100] Creating Layer conv4_3_relu4_3_0_split
I1015 21:01:51.973881 12458 net.cpp:434] conv4_3_relu4_3_0_split <- conv4_3
I1015 21:01:51.973886 12458 net.cpp:408] conv4_3_relu4_3_0_split -> conv4_3_relu4_3_0_split_0
I1015 21:01:51.973894 12458 net.cpp:408] conv4_3_relu4_3_0_split -> conv4_3_relu4_3_0_split_1
I1015 21:01:51.973899 12458 net.cpp:408] conv4_3_relu4_3_0_split -> conv4_3_relu4_3_0_split_2
I1015 21:01:51.973954 12458 net.cpp:150] Setting up conv4_3_relu4_3_0_split
I1015 21:01:51.973960 12458 net.cpp:157] Top shape: 2 512 96 96 (9437184)
I1015 21:01:51.973965 12458 net.cpp:157] Top shape: 2 512 96 96 (9437184)
I1015 21:01:51.973969 12458 net.cpp:157] Top shape: 2 512 96 96 (9437184)
I1015 21:01:51.973973 12458 net.cpp:165] Memory required for data: 2778036480
I1015 21:01:51.973975 12458 layer_factory.hpp:77] Creating layer buffer
I1015 21:01:51.973989 12458 net.cpp:100] Creating Layer buffer
I1015 21:01:51.973992 12458 net.cpp:434] buffer <- conv4_3_relu4_3_0_split_0
I1015 21:01:51.973997 12458 net.cpp:408] buffer -> buffer
I1015 21:01:52.039229 12458 net.cpp:150] Setting up buffer
I1015 21:01:52.039278 12458 net.cpp:157] Top shape: 2 512 96 96 (9437184)
I1015 21:01:52.039283 12458 net.cpp:165] Memory required for data: 2815785216
I1015 21:01:52.039296 12458 layer_factory.hpp:77] Creating layer relu_buffer
I1015 21:01:52.039315 12458 net.cpp:100] Creating Layer relu_buffer
I1015 21:01:52.039324 12458 net.cpp:434] relu_buffer <- buffer
I1015 21:01:52.039332 12458 net.cpp:395] relu_buffer -> buffer (in-place)
I1015 21:01:52.039502 12458 net.cpp:150] Setting up relu_buffer
I1015 21:01:52.039511 12458 net.cpp:157] Top shape: 2 512 96 96 (9437184)
I1015 21:01:52.039515 12458 net.cpp:165] Memory required for data: 2853533952
I1015 21:01:52.039518 12458 layer_factory.hpp:77] Creating layer attention
I1015 21:01:52.039533 12458 net.cpp:100] Creating Layer attention
I1015 21:01:52.039537 12458 net.cpp:434] attention <- buffer
I1015 21:01:52.039543 12458 net.cpp:408] attention -> attention
I1015 21:01:52.041404 12458 net.cpp:150] Setting up attention
I1015 21:01:52.041416 12458 net.cpp:157] Top shape: 2 3 96 96 (55296)
I1015 21:01:52.041420 12458 net.cpp:165] Memory required for data: 2853755136
I1015 21:01:52.041429 12458 layer_factory.hpp:77] Creating layer relu_attention
I1015 21:01:52.041437 12458 net.cpp:100] Creating Layer relu_attention
I1015 21:01:52.041443 12458 net.cpp:434] relu_attention <- attention
I1015 21:01:52.041451 12458 net.cpp:395] relu_attention -> attention (in-place)
I1015 21:01:52.041663 12458 net.cpp:150] Setting up relu_attention
I1015 21:01:52.041673 12458 net.cpp:157] Top shape: 2 3 96 96 (55296)
I1015 21:01:52.041677 12458 net.cpp:165] Memory required for data: 2853976320
I1015 21:01:52.041682 12458 layer_factory.hpp:77] Creating layer ch4_pool
I1015 21:01:52.041688 12458 net.cpp:100] Creating Layer ch4_pool
I1015 21:01:52.041692 12458 net.cpp:434] ch4_pool <- ch4
I1015 21:01:52.041702 12458 net.cpp:408] ch4_pool -> ch4_pool
I1015 21:01:52.041751 12458 net.cpp:150] Setting up ch4_pool
I1015 21:01:52.041759 12458 net.cpp:157] Top shape: 2 1 96 96 (18432)
I1015 21:01:52.041764 12458 net.cpp:165] Memory required for data: 2854050048
I1015 21:01:52.041767 12458 layer_factory.hpp:77] Creating layer loss_attention
I1015 21:01:52.041777 12458 net.cpp:100] Creating Layer loss_attention
I1015 21:01:52.041780 12458 net.cpp:434] loss_attention <- attention
I1015 21:01:52.041786 12458 net.cpp:434] loss_attention <- ch4_pool
I1015 21:01:52.041795 12458 net.cpp:408] loss_attention -> loss_attention
I1015 21:01:52.041807 12458 layer_factory.hpp:77] Creating layer loss_attention
I1015 21:01:52.042157 12458 net.cpp:150] Setting up loss_attention
I1015 21:01:52.042168 12458 net.cpp:157] Top shape: (1)
I1015 21:01:52.042172 12458 net.cpp:160]     with loss weight 1
I1015 21:01:52.042191 12458 net.cpp:165] Memory required for data: 2854050052
I1015 21:01:52.042196 12458 layer_factory.hpp:77] Creating layer loss1_conv1
I1015 21:01:52.042209 12458 net.cpp:100] Creating Layer loss1_conv1
I1015 21:01:52.042215 12458 net.cpp:434] loss1_conv1 <- conv4_3_relu4_3_0_split_1
I1015 21:01:52.042223 12458 net.cpp:408] loss1_conv1 -> loss1_conv1
I1015 21:01:52.107942 12458 net.cpp:150] Setting up loss1_conv1
I1015 21:01:52.107970 12458 net.cpp:157] Top shape: 2 512 96 96 (9437184)
I1015 21:01:52.107975 12458 net.cpp:165] Memory required for data: 2891798788
I1015 21:01:52.107983 12458 layer_factory.hpp:77] Creating layer loss_relu1
I1015 21:01:52.107995 12458 net.cpp:100] Creating Layer loss_relu1
I1015 21:01:52.108000 12458 net.cpp:434] loss_relu1 <- loss1_conv1
I1015 21:01:52.108006 12458 net.cpp:395] loss_relu1 -> loss1_conv1 (in-place)
I1015 21:01:52.108166 12458 net.cpp:150] Setting up loss_relu1
I1015 21:01:52.108175 12458 net.cpp:157] Top shape: 2 512 96 96 (9437184)
I1015 21:01:52.108180 12458 net.cpp:165] Memory required for data: 2929547524
I1015 21:01:52.108182 12458 layer_factory.hpp:77] Creating layer loss1_conv1_loss_relu1_0_split
I1015 21:01:52.108188 12458 net.cpp:100] Creating Layer loss1_conv1_loss_relu1_0_split
I1015 21:01:52.108191 12458 net.cpp:434] loss1_conv1_loss_relu1_0_split <- loss1_conv1
I1015 21:01:52.108197 12458 net.cpp:408] loss1_conv1_loss_relu1_0_split -> loss1_conv1_loss_relu1_0_split_0
I1015 21:01:52.108204 12458 net.cpp:408] loss1_conv1_loss_relu1_0_split -> loss1_conv1_loss_relu1_0_split_1
I1015 21:01:52.108243 12458 net.cpp:150] Setting up loss1_conv1_loss_relu1_0_split
I1015 21:01:52.108249 12458 net.cpp:157] Top shape: 2 512 96 96 (9437184)
I1015 21:01:52.108253 12458 net.cpp:157] Top shape: 2 512 96 96 (9437184)
I1015 21:01:52.108256 12458 net.cpp:165] Memory required for data: 3005044996
I1015 21:01:52.108260 12458 layer_factory.hpp:77] Creating layer LFCN_1_5x5
I1015 21:01:52.108273 12458 net.cpp:100] Creating Layer LFCN_1_5x5
I1015 21:01:52.108275 12458 net.cpp:434] LFCN_1_5x5 <- loss1_conv1_loss_relu1_0_split_0
I1015 21:01:52.108283 12458 net.cpp:408] LFCN_1_5x5 -> LFCN_1_5x5
I1015 21:01:52.112275 12458 net.cpp:150] Setting up LFCN_1_5x5
I1015 21:01:52.112288 12458 net.cpp:157] Top shape: 2 9 96 96 (165888)
I1015 21:01:52.112293 12458 net.cpp:165] Memory required for data: 3005708548
I1015 21:01:52.112298 12458 layer_factory.hpp:77] Creating layer LFCN_1_5x5_LFCN_1_5x5_0_split
I1015 21:01:52.112303 12458 net.cpp:100] Creating Layer LFCN_1_5x5_LFCN_1_5x5_0_split
I1015 21:01:52.112308 12458 net.cpp:434] LFCN_1_5x5_LFCN_1_5x5_0_split <- LFCN_1_5x5
I1015 21:01:52.112313 12458 net.cpp:408] LFCN_1_5x5_LFCN_1_5x5_0_split -> LFCN_1_5x5_LFCN_1_5x5_0_split_0
I1015 21:01:52.112320 12458 net.cpp:408] LFCN_1_5x5_LFCN_1_5x5_0_split -> LFCN_1_5x5_LFCN_1_5x5_0_split_1
I1015 21:01:52.112355 12458 net.cpp:150] Setting up LFCN_1_5x5_LFCN_1_5x5_0_split
I1015 21:01:52.112375 12458 net.cpp:157] Top shape: 2 9 96 96 (165888)
I1015 21:01:52.112401 12458 net.cpp:157] Top shape: 2 9 96 96 (165888)
I1015 21:01:52.112404 12458 net.cpp:165] Memory required for data: 3007035652
I1015 21:01:52.112407 12458 layer_factory.hpp:77] Creating layer detection_loss_1_5x5
I1015 21:01:52.112416 12458 net.cpp:100] Creating Layer detection_loss_1_5x5
I1015 21:01:52.112419 12458 net.cpp:434] detection_loss_1_5x5 <- LFCN_1_5x5_LFCN_1_5x5_0_split_0
I1015 21:01:52.112423 12458 net.cpp:434] detection_loss_1_5x5 <- label_1_5x5_data_1_split_0
I1015 21:01:52.112429 12458 net.cpp:408] detection_loss_1_5x5 -> loss_1_5x5
I1015 21:01:52.112438 12458 layer_factory.hpp:77] Creating layer detection_loss_1_5x5
I1015 21:01:52.113153 12458 net.cpp:150] Setting up detection_loss_1_5x5
I1015 21:01:52.113165 12458 net.cpp:157] Top shape: 1 1 1 2 (2)
I1015 21:01:52.113169 12458 net.cpp:160]     with loss weight 0.9
I1015 21:01:52.113180 12458 net.cpp:165] Memory required for data: 3007035660
I1015 21:01:52.113183 12458 layer_factory.hpp:77] Creating layer detection_accuracy_1_5x5
I1015 21:01:52.113190 12458 net.cpp:100] Creating Layer detection_accuracy_1_5x5
I1015 21:01:52.113194 12458 net.cpp:434] detection_accuracy_1_5x5 <- LFCN_1_5x5_LFCN_1_5x5_0_split_1
I1015 21:01:52.113198 12458 net.cpp:434] detection_accuracy_1_5x5 <- label_1_5x5_data_1_split_1
I1015 21:01:52.113204 12458 net.cpp:408] detection_accuracy_1_5x5 -> accuracy_1_5x5
I1015 21:01:52.113211 12458 net.cpp:408] detection_accuracy_1_5x5 -> boxiou_1_5x5
I1015 21:01:52.113248 12458 net.cpp:150] Setting up detection_accuracy_1_5x5
I1015 21:01:52.113255 12458 net.cpp:157] Top shape: 1 1 1 2 (2)
I1015 21:01:52.113260 12458 net.cpp:157] Top shape: 1 1 1 1 (1)
I1015 21:01:52.113262 12458 net.cpp:165] Memory required for data: 3007035672
I1015 21:01:52.113265 12458 layer_factory.hpp:77] Creating layer LFCN_1_7x7
I1015 21:01:52.113276 12458 net.cpp:100] Creating Layer LFCN_1_7x7
I1015 21:01:52.113281 12458 net.cpp:434] LFCN_1_7x7 <- loss1_conv1_loss_relu1_0_split_1
I1015 21:01:52.113286 12458 net.cpp:408] LFCN_1_7x7 -> LFCN_1_7x7
I1015 21:01:52.120507 12458 net.cpp:150] Setting up LFCN_1_7x7
I1015 21:01:52.120532 12458 net.cpp:157] Top shape: 2 9 96 96 (165888)
I1015 21:01:52.120535 12458 net.cpp:165] Memory required for data: 3007699224
I1015 21:01:52.120544 12458 layer_factory.hpp:77] Creating layer LFCN_1_7x7_LFCN_1_7x7_0_split
I1015 21:01:52.120555 12458 net.cpp:100] Creating Layer LFCN_1_7x7_LFCN_1_7x7_0_split
I1015 21:01:52.120560 12458 net.cpp:434] LFCN_1_7x7_LFCN_1_7x7_0_split <- LFCN_1_7x7
I1015 21:01:52.120568 12458 net.cpp:408] LFCN_1_7x7_LFCN_1_7x7_0_split -> LFCN_1_7x7_LFCN_1_7x7_0_split_0
I1015 21:01:52.120576 12458 net.cpp:408] LFCN_1_7x7_LFCN_1_7x7_0_split -> LFCN_1_7x7_LFCN_1_7x7_0_split_1
I1015 21:01:52.120616 12458 net.cpp:150] Setting up LFCN_1_7x7_LFCN_1_7x7_0_split
I1015 21:01:52.120626 12458 net.cpp:157] Top shape: 2 9 96 96 (165888)
I1015 21:01:52.120631 12458 net.cpp:157] Top shape: 2 9 96 96 (165888)
I1015 21:01:52.120635 12458 net.cpp:165] Memory required for data: 3009026328
I1015 21:01:52.120637 12458 layer_factory.hpp:77] Creating layer detection_loss_1_7x7
I1015 21:01:52.120645 12458 net.cpp:100] Creating Layer detection_loss_1_7x7
I1015 21:01:52.120648 12458 net.cpp:434] detection_loss_1_7x7 <- LFCN_1_7x7_LFCN_1_7x7_0_split_0
I1015 21:01:52.120653 12458 net.cpp:434] detection_loss_1_7x7 <- label_1_7x7_data_2_split_0
I1015 21:01:52.120659 12458 net.cpp:408] detection_loss_1_7x7 -> loss_1_7x7
I1015 21:01:52.120667 12458 layer_factory.hpp:77] Creating layer detection_loss_1_7x7
I1015 21:01:52.121913 12458 net.cpp:150] Setting up detection_loss_1_7x7
I1015 21:01:52.121928 12458 net.cpp:157] Top shape: 1 1 1 2 (2)
I1015 21:01:52.121932 12458 net.cpp:160]     with loss weight 0.9
I1015 21:01:52.121943 12458 net.cpp:165] Memory required for data: 3009026336
I1015 21:01:52.121948 12458 layer_factory.hpp:77] Creating layer detection_accuracy_1_7x7
I1015 21:01:52.121958 12458 net.cpp:100] Creating Layer detection_accuracy_1_7x7
I1015 21:01:52.121963 12458 net.cpp:434] detection_accuracy_1_7x7 <- LFCN_1_7x7_LFCN_1_7x7_0_split_1
I1015 21:01:52.121968 12458 net.cpp:434] detection_accuracy_1_7x7 <- label_1_7x7_data_2_split_1
I1015 21:01:52.121973 12458 net.cpp:408] detection_accuracy_1_7x7 -> accuracy_1_7x7
I1015 21:01:52.121979 12458 net.cpp:408] detection_accuracy_1_7x7 -> boxiou_1_7x7
I1015 21:01:52.122020 12458 net.cpp:150] Setting up detection_accuracy_1_7x7
I1015 21:01:52.122027 12458 net.cpp:157] Top shape: 1 1 1 2 (2)
I1015 21:01:52.122031 12458 net.cpp:157] Top shape: 1 1 1 1 (1)
I1015 21:01:52.122035 12458 net.cpp:165] Memory required for data: 3009026348
I1015 21:01:52.122037 12458 layer_factory.hpp:77] Creating layer pool4
I1015 21:01:52.122045 12458 net.cpp:100] Creating Layer pool4
I1015 21:01:52.122048 12458 net.cpp:434] pool4 <- conv4_3_relu4_3_0_split_2
I1015 21:01:52.122054 12458 net.cpp:408] pool4 -> pool4
I1015 21:01:52.122092 12458 net.cpp:150] Setting up pool4
I1015 21:01:52.122099 12458 net.cpp:157] Top shape: 2 512 48 48 (2359296)
I1015 21:01:52.122102 12458 net.cpp:165] Memory required for data: 3018463532
I1015 21:01:52.122107 12458 layer_factory.hpp:77] Creating layer conv5_1
I1015 21:01:52.122115 12458 net.cpp:100] Creating Layer conv5_1
I1015 21:01:52.122120 12458 net.cpp:434] conv5_1 <- pool4
I1015 21:01:52.122125 12458 net.cpp:408] conv5_1 -> conv5_1
I1015 21:01:52.127719 12458 net.cpp:150] Setting up conv5_1
I1015 21:01:52.127753 12458 net.cpp:157] Top shape: 2 512 48 48 (2359296)
I1015 21:01:52.127758 12458 net.cpp:165] Memory required for data: 3027900716
I1015 21:01:52.127764 12458 layer_factory.hpp:77] Creating layer relu5_1
I1015 21:01:52.127774 12458 net.cpp:100] Creating Layer relu5_1
I1015 21:01:52.127779 12458 net.cpp:434] relu5_1 <- conv5_1
I1015 21:01:52.127786 12458 net.cpp:395] relu5_1 -> conv5_1 (in-place)
I1015 21:01:52.127933 12458 net.cpp:150] Setting up relu5_1
I1015 21:01:52.127940 12458 net.cpp:157] Top shape: 2 512 48 48 (2359296)
I1015 21:01:52.127943 12458 net.cpp:165] Memory required for data: 3037337900
I1015 21:01:52.127948 12458 layer_factory.hpp:77] Creating layer conv5_2
I1015 21:01:52.127957 12458 net.cpp:100] Creating Layer conv5_2
I1015 21:01:52.127960 12458 net.cpp:434] conv5_2 <- conv5_1
I1015 21:01:52.127966 12458 net.cpp:408] conv5_2 -> conv5_2
I1015 21:01:52.134563 12458 net.cpp:150] Setting up conv5_2
I1015 21:01:52.134590 12458 net.cpp:157] Top shape: 2 512 48 48 (2359296)
I1015 21:01:52.134595 12458 net.cpp:165] Memory required for data: 3046775084
I1015 21:01:52.134611 12458 layer_factory.hpp:77] Creating layer relu5_2
I1015 21:01:52.134621 12458 net.cpp:100] Creating Layer relu5_2
I1015 21:01:52.134627 12458 net.cpp:434] relu5_2 <- conv5_2
I1015 21:01:52.134634 12458 net.cpp:395] relu5_2 -> conv5_2 (in-place)
I1015 21:01:52.134809 12458 net.cpp:150] Setting up relu5_2
I1015 21:01:52.134817 12458 net.cpp:157] Top shape: 2 512 48 48 (2359296)
I1015 21:01:52.134820 12458 net.cpp:165] Memory required for data: 3056212268
I1015 21:01:52.134824 12458 layer_factory.hpp:77] Creating layer conv5_3
I1015 21:01:52.134835 12458 net.cpp:100] Creating Layer conv5_3
I1015 21:01:52.134838 12458 net.cpp:434] conv5_3 <- conv5_2
I1015 21:01:52.134843 12458 net.cpp:408] conv5_3 -> conv5_3
I1015 21:01:52.144309 12458 net.cpp:150] Setting up conv5_3
I1015 21:01:52.144385 12458 net.cpp:157] Top shape: 2 512 48 48 (2359296)
I1015 21:01:52.144390 12458 net.cpp:165] Memory required for data: 3065649452
I1015 21:01:52.144404 12458 layer_factory.hpp:77] Creating layer relu5_3
I1015 21:01:52.144428 12458 net.cpp:100] Creating Layer relu5_3
I1015 21:01:52.144435 12458 net.cpp:434] relu5_3 <- conv5_3
I1015 21:01:52.144443 12458 net.cpp:395] relu5_3 -> conv5_3 (in-place)
I1015 21:01:52.144618 12458 net.cpp:150] Setting up relu5_3
I1015 21:01:52.144626 12458 net.cpp:157] Top shape: 2 512 48 48 (2359296)
I1015 21:01:52.144630 12458 net.cpp:165] Memory required for data: 3075086636
I1015 21:01:52.144634 12458 layer_factory.hpp:77] Creating layer conv5_3_relu5_3_0_split
I1015 21:01:52.144640 12458 net.cpp:100] Creating Layer conv5_3_relu5_3_0_split
I1015 21:01:52.144644 12458 net.cpp:434] conv5_3_relu5_3_0_split <- conv5_3
I1015 21:01:52.144649 12458 net.cpp:408] conv5_3_relu5_3_0_split -> conv5_3_relu5_3_0_split_0
I1015 21:01:52.144655 12458 net.cpp:408] conv5_3_relu5_3_0_split -> conv5_3_relu5_3_0_split_1
I1015 21:01:52.144667 12458 net.cpp:408] conv5_3_relu5_3_0_split -> conv5_3_relu5_3_0_split_2
I1015 21:01:52.144721 12458 net.cpp:150] Setting up conv5_3_relu5_3_0_split
I1015 21:01:52.144728 12458 net.cpp:157] Top shape: 2 512 48 48 (2359296)
I1015 21:01:52.144733 12458 net.cpp:157] Top shape: 2 512 48 48 (2359296)
I1015 21:01:52.144737 12458 net.cpp:157] Top shape: 2 512 48 48 (2359296)
I1015 21:01:52.144740 12458 net.cpp:165] Memory required for data: 3103398188
I1015 21:01:52.144743 12458 layer_factory.hpp:77] Creating layer LFCN_2_5x5
I1015 21:01:52.144757 12458 net.cpp:100] Creating Layer LFCN_2_5x5
I1015 21:01:52.144759 12458 net.cpp:434] LFCN_2_5x5 <- conv5_3_relu5_3_0_split_0
I1015 21:01:52.144767 12458 net.cpp:408] LFCN_2_5x5 -> LFCN_2_5x5
I1015 21:01:52.148932 12458 net.cpp:150] Setting up LFCN_2_5x5
I1015 21:01:52.148950 12458 net.cpp:157] Top shape: 2 9 48 48 (41472)
I1015 21:01:52.148954 12458 net.cpp:165] Memory required for data: 3103564076
I1015 21:01:52.148962 12458 layer_factory.hpp:77] Creating layer LFCN_2_5x5_LFCN_2_5x5_0_split
I1015 21:01:52.148968 12458 net.cpp:100] Creating Layer LFCN_2_5x5_LFCN_2_5x5_0_split
I1015 21:01:52.148972 12458 net.cpp:434] LFCN_2_5x5_LFCN_2_5x5_0_split <- LFCN_2_5x5
I1015 21:01:52.148977 12458 net.cpp:408] LFCN_2_5x5_LFCN_2_5x5_0_split -> LFCN_2_5x5_LFCN_2_5x5_0_split_0
I1015 21:01:52.148984 12458 net.cpp:408] LFCN_2_5x5_LFCN_2_5x5_0_split -> LFCN_2_5x5_LFCN_2_5x5_0_split_1
I1015 21:01:52.149024 12458 net.cpp:150] Setting up LFCN_2_5x5_LFCN_2_5x5_0_split
I1015 21:01:52.149030 12458 net.cpp:157] Top shape: 2 9 48 48 (41472)
I1015 21:01:52.149035 12458 net.cpp:157] Top shape: 2 9 48 48 (41472)
I1015 21:01:52.149039 12458 net.cpp:165] Memory required for data: 3103895852
I1015 21:01:52.149041 12458 layer_factory.hpp:77] Creating layer detection_loss_2_5x5
I1015 21:01:52.149049 12458 net.cpp:100] Creating Layer detection_loss_2_5x5
I1015 21:01:52.149052 12458 net.cpp:434] detection_loss_2_5x5 <- LFCN_2_5x5_LFCN_2_5x5_0_split_0
I1015 21:01:52.149057 12458 net.cpp:434] detection_loss_2_5x5 <- label_2_5x5_data_3_split_0
I1015 21:01:52.149065 12458 net.cpp:408] detection_loss_2_5x5 -> loss_2_5x5
I1015 21:01:52.149075 12458 layer_factory.hpp:77] Creating layer detection_loss_2_5x5
I1015 21:01:52.149473 12458 net.cpp:150] Setting up detection_loss_2_5x5
I1015 21:01:52.149482 12458 net.cpp:157] Top shape: 1 1 1 2 (2)
I1015 21:01:52.149487 12458 net.cpp:160]     with loss weight 1
I1015 21:01:52.149497 12458 net.cpp:165] Memory required for data: 3103895860
I1015 21:01:52.149502 12458 layer_factory.hpp:77] Creating layer detection_accuracy_2_5x5
I1015 21:01:52.149508 12458 net.cpp:100] Creating Layer detection_accuracy_2_5x5
I1015 21:01:52.149513 12458 net.cpp:434] detection_accuracy_2_5x5 <- LFCN_2_5x5_LFCN_2_5x5_0_split_1
I1015 21:01:52.149518 12458 net.cpp:434] detection_accuracy_2_5x5 <- label_2_5x5_data_3_split_1
I1015 21:01:52.149523 12458 net.cpp:408] detection_accuracy_2_5x5 -> accuracy_2_5x5
I1015 21:01:52.149528 12458 net.cpp:408] detection_accuracy_2_5x5 -> boxiou_2_5x5
I1015 21:01:52.149570 12458 net.cpp:150] Setting up detection_accuracy_2_5x5
I1015 21:01:52.149576 12458 net.cpp:157] Top shape: 1 1 1 2 (2)
I1015 21:01:52.149581 12458 net.cpp:157] Top shape: 1 1 1 1 (1)
I1015 21:01:52.149583 12458 net.cpp:165] Memory required for data: 3103895872
I1015 21:01:52.149587 12458 layer_factory.hpp:77] Creating layer LFCN_2_7x7
I1015 21:01:52.149596 12458 net.cpp:100] Creating Layer LFCN_2_7x7
I1015 21:01:52.149601 12458 net.cpp:434] LFCN_2_7x7 <- conv5_3_relu5_3_0_split_1
I1015 21:01:52.149607 12458 net.cpp:408] LFCN_2_7x7 -> LFCN_2_7x7
I1015 21:01:52.156388 12458 net.cpp:150] Setting up LFCN_2_7x7
I1015 21:01:52.156399 12458 net.cpp:157] Top shape: 2 9 48 48 (41472)
I1015 21:01:52.156402 12458 net.cpp:165] Memory required for data: 3104061760
I1015 21:01:52.156409 12458 layer_factory.hpp:77] Creating layer LFCN_2_7x7_LFCN_2_7x7_0_split
I1015 21:01:52.156414 12458 net.cpp:100] Creating Layer LFCN_2_7x7_LFCN_2_7x7_0_split
I1015 21:01:52.156416 12458 net.cpp:434] LFCN_2_7x7_LFCN_2_7x7_0_split <- LFCN_2_7x7
I1015 21:01:52.156422 12458 net.cpp:408] LFCN_2_7x7_LFCN_2_7x7_0_split -> LFCN_2_7x7_LFCN_2_7x7_0_split_0
I1015 21:01:52.156428 12458 net.cpp:408] LFCN_2_7x7_LFCN_2_7x7_0_split -> LFCN_2_7x7_LFCN_2_7x7_0_split_1
I1015 21:01:52.156466 12458 net.cpp:150] Setting up LFCN_2_7x7_LFCN_2_7x7_0_split
I1015 21:01:52.156471 12458 net.cpp:157] Top shape: 2 9 48 48 (41472)
I1015 21:01:52.156474 12458 net.cpp:157] Top shape: 2 9 48 48 (41472)
I1015 21:01:52.156477 12458 net.cpp:165] Memory required for data: 3104393536
I1015 21:01:52.156481 12458 layer_factory.hpp:77] Creating layer detection_loss_2_7x7
I1015 21:01:52.156493 12458 net.cpp:100] Creating Layer detection_loss_2_7x7
I1015 21:01:52.156497 12458 net.cpp:434] detection_loss_2_7x7 <- LFCN_2_7x7_LFCN_2_7x7_0_split_0
I1015 21:01:52.156502 12458 net.cpp:434] detection_loss_2_7x7 <- label_2_7x7_data_4_split_0
I1015 21:01:52.156507 12458 net.cpp:408] detection_loss_2_7x7 -> loss_2_7x7
I1015 21:01:52.156513 12458 layer_factory.hpp:77] Creating layer detection_loss_2_7x7
I1015 21:01:52.157202 12458 net.cpp:150] Setting up detection_loss_2_7x7
I1015 21:01:52.157214 12458 net.cpp:157] Top shape: 1 1 1 2 (2)
I1015 21:01:52.157218 12458 net.cpp:160]     with loss weight 1
I1015 21:01:52.157229 12458 net.cpp:165] Memory required for data: 3104393544
I1015 21:01:52.157233 12458 layer_factory.hpp:77] Creating layer detection_accuracy_2_7x7
I1015 21:01:52.157239 12458 net.cpp:100] Creating Layer detection_accuracy_2_7x7
I1015 21:01:52.157243 12458 net.cpp:434] detection_accuracy_2_7x7 <- LFCN_2_7x7_LFCN_2_7x7_0_split_1
I1015 21:01:52.157248 12458 net.cpp:434] detection_accuracy_2_7x7 <- label_2_7x7_data_4_split_1
I1015 21:01:52.157254 12458 net.cpp:408] detection_accuracy_2_7x7 -> accuracy_2_7x7
I1015 21:01:52.157263 12458 net.cpp:408] detection_accuracy_2_7x7 -> boxiou_2_7x7
I1015 21:01:52.157301 12458 net.cpp:150] Setting up detection_accuracy_2_7x7
I1015 21:01:52.157307 12458 net.cpp:157] Top shape: 1 1 1 2 (2)
I1015 21:01:52.157311 12458 net.cpp:157] Top shape: 1 1 1 1 (1)
I1015 21:01:52.157315 12458 net.cpp:165] Memory required for data: 3104393556
I1015 21:01:52.157318 12458 layer_factory.hpp:77] Creating layer pool5
I1015 21:01:52.157325 12458 net.cpp:100] Creating Layer pool5
I1015 21:01:52.157330 12458 net.cpp:434] pool5 <- conv5_3_relu5_3_0_split_2
I1015 21:01:52.157335 12458 net.cpp:408] pool5 -> pool5
I1015 21:01:52.157374 12458 net.cpp:150] Setting up pool5
I1015 21:01:52.157380 12458 net.cpp:157] Top shape: 2 512 24 24 (589824)
I1015 21:01:52.157383 12458 net.cpp:165] Memory required for data: 3106752852
I1015 21:01:52.157387 12458 layer_factory.hpp:77] Creating layer conv6_1
I1015 21:01:52.157395 12458 net.cpp:100] Creating Layer conv6_1
I1015 21:01:52.157400 12458 net.cpp:434] conv6_1 <- pool5
I1015 21:01:52.157407 12458 net.cpp:408] conv6_1 -> conv6_1
I1015 21:01:52.218196 12458 net.cpp:150] Setting up conv6_1
I1015 21:01:52.218245 12458 net.cpp:157] Top shape: 2 512 24 24 (589824)
I1015 21:01:52.218250 12458 net.cpp:165] Memory required for data: 3109112148
I1015 21:01:52.218261 12458 layer_factory.hpp:77] Creating layer relu6_1
I1015 21:01:52.218281 12458 net.cpp:100] Creating Layer relu6_1
I1015 21:01:52.218288 12458 net.cpp:434] relu6_1 <- conv6_1
I1015 21:01:52.218299 12458 net.cpp:395] relu6_1 -> conv6_1 (in-place)
I1015 21:01:52.218474 12458 net.cpp:150] Setting up relu6_1
I1015 21:01:52.218483 12458 net.cpp:157] Top shape: 2 512 24 24 (589824)
I1015 21:01:52.218487 12458 net.cpp:165] Memory required for data: 3111471444
I1015 21:01:52.218490 12458 layer_factory.hpp:77] Creating layer conv6_1_relu6_1_0_split
I1015 21:01:52.218497 12458 net.cpp:100] Creating Layer conv6_1_relu6_1_0_split
I1015 21:01:52.218502 12458 net.cpp:434] conv6_1_relu6_1_0_split <- conv6_1
I1015 21:01:52.218508 12458 net.cpp:408] conv6_1_relu6_1_0_split -> conv6_1_relu6_1_0_split_0
I1015 21:01:52.218515 12458 net.cpp:408] conv6_1_relu6_1_0_split -> conv6_1_relu6_1_0_split_1
I1015 21:01:52.218521 12458 net.cpp:408] conv6_1_relu6_1_0_split -> conv6_1_relu6_1_0_split_2
I1015 21:01:52.218574 12458 net.cpp:150] Setting up conv6_1_relu6_1_0_split
I1015 21:01:52.218581 12458 net.cpp:157] Top shape: 2 512 24 24 (589824)
I1015 21:01:52.218585 12458 net.cpp:157] Top shape: 2 512 24 24 (589824)
I1015 21:01:52.218590 12458 net.cpp:157] Top shape: 2 512 24 24 (589824)
I1015 21:01:52.218592 12458 net.cpp:165] Memory required for data: 3118549332
I1015 21:01:52.218596 12458 layer_factory.hpp:77] Creating layer LFCN_3_5x5
I1015 21:01:52.218612 12458 net.cpp:100] Creating Layer LFCN_3_5x5
I1015 21:01:52.218616 12458 net.cpp:434] LFCN_3_5x5 <- conv6_1_relu6_1_0_split_0
I1015 21:01:52.218626 12458 net.cpp:408] LFCN_3_5x5 -> LFCN_3_5x5
I1015 21:01:52.225064 12458 net.cpp:150] Setting up LFCN_3_5x5
I1015 21:01:52.225093 12458 net.cpp:157] Top shape: 2 9 24 24 (10368)
I1015 21:01:52.225097 12458 net.cpp:165] Memory required for data: 3118590804
I1015 21:01:52.225106 12458 layer_factory.hpp:77] Creating layer LFCN_3_5x5_LFCN_3_5x5_0_split
I1015 21:01:52.225116 12458 net.cpp:100] Creating Layer LFCN_3_5x5_LFCN_3_5x5_0_split
I1015 21:01:52.225123 12458 net.cpp:434] LFCN_3_5x5_LFCN_3_5x5_0_split <- LFCN_3_5x5
I1015 21:01:52.225131 12458 net.cpp:408] LFCN_3_5x5_LFCN_3_5x5_0_split -> LFCN_3_5x5_LFCN_3_5x5_0_split_0
I1015 21:01:52.225139 12458 net.cpp:408] LFCN_3_5x5_LFCN_3_5x5_0_split -> LFCN_3_5x5_LFCN_3_5x5_0_split_1
I1015 21:01:52.225180 12458 net.cpp:150] Setting up LFCN_3_5x5_LFCN_3_5x5_0_split
I1015 21:01:52.225188 12458 net.cpp:157] Top shape: 2 9 24 24 (10368)
I1015 21:01:52.225191 12458 net.cpp:157] Top shape: 2 9 24 24 (10368)
I1015 21:01:52.225194 12458 net.cpp:165] Memory required for data: 3118673748
I1015 21:01:52.225198 12458 layer_factory.hpp:77] Creating layer detection_loss_3_5x5
I1015 21:01:52.225205 12458 net.cpp:100] Creating Layer detection_loss_3_5x5
I1015 21:01:52.225209 12458 net.cpp:434] detection_loss_3_5x5 <- LFCN_3_5x5_LFCN_3_5x5_0_split_0
I1015 21:01:52.225214 12458 net.cpp:434] detection_loss_3_5x5 <- label_3_5x5_data_5_split_0
I1015 21:01:52.225221 12458 net.cpp:408] detection_loss_3_5x5 -> loss_3_5x5
I1015 21:01:52.225229 12458 layer_factory.hpp:77] Creating layer detection_loss_3_5x5
I1015 21:01:52.225617 12458 net.cpp:150] Setting up detection_loss_3_5x5
I1015 21:01:52.225627 12458 net.cpp:157] Top shape: 1 1 1 2 (2)
I1015 21:01:52.225630 12458 net.cpp:160]     with loss weight 1
I1015 21:01:52.225641 12458 net.cpp:165] Memory required for data: 3118673756
I1015 21:01:52.225644 12458 layer_factory.hpp:77] Creating layer detection_accuracy_3_5x5
I1015 21:01:52.225653 12458 net.cpp:100] Creating Layer detection_accuracy_3_5x5
I1015 21:01:52.225656 12458 net.cpp:434] detection_accuracy_3_5x5 <- LFCN_3_5x5_LFCN_3_5x5_0_split_1
I1015 21:01:52.225661 12458 net.cpp:434] detection_accuracy_3_5x5 <- label_3_5x5_data_5_split_1
I1015 21:01:52.225666 12458 net.cpp:408] detection_accuracy_3_5x5 -> accuracy_3_5x5
I1015 21:01:52.225673 12458 net.cpp:408] detection_accuracy_3_5x5 -> boxiou_3_5x5
I1015 21:01:52.225715 12458 net.cpp:150] Setting up detection_accuracy_3_5x5
I1015 21:01:52.225723 12458 net.cpp:157] Top shape: 1 1 1 2 (2)
I1015 21:01:52.225726 12458 net.cpp:157] Top shape: 1 1 1 1 (1)
I1015 21:01:52.225729 12458 net.cpp:165] Memory required for data: 3118673768
I1015 21:01:52.225733 12458 layer_factory.hpp:77] Creating layer LFCN_3_7x7
I1015 21:01:52.225744 12458 net.cpp:100] Creating Layer LFCN_3_7x7
I1015 21:01:52.225747 12458 net.cpp:434] LFCN_3_7x7 <- conv6_1_relu6_1_0_split_1
I1015 21:01:52.225754 12458 net.cpp:408] LFCN_3_7x7 -> LFCN_3_7x7
I1015 21:01:52.232529 12458 net.cpp:150] Setting up LFCN_3_7x7
I1015 21:01:52.232543 12458 net.cpp:157] Top shape: 2 9 24 24 (10368)
I1015 21:01:52.232547 12458 net.cpp:165] Memory required for data: 3118715240
I1015 21:01:52.232553 12458 layer_factory.hpp:77] Creating layer LFCN_3_7x7_LFCN_3_7x7_0_split
I1015 21:01:52.232559 12458 net.cpp:100] Creating Layer LFCN_3_7x7_LFCN_3_7x7_0_split
I1015 21:01:52.232563 12458 net.cpp:434] LFCN_3_7x7_LFCN_3_7x7_0_split <- LFCN_3_7x7
I1015 21:01:52.232569 12458 net.cpp:408] LFCN_3_7x7_LFCN_3_7x7_0_split -> LFCN_3_7x7_LFCN_3_7x7_0_split_0
I1015 21:01:52.232575 12458 net.cpp:408] LFCN_3_7x7_LFCN_3_7x7_0_split -> LFCN_3_7x7_LFCN_3_7x7_0_split_1
I1015 21:01:52.232614 12458 net.cpp:150] Setting up LFCN_3_7x7_LFCN_3_7x7_0_split
I1015 21:01:52.232620 12458 net.cpp:157] Top shape: 2 9 24 24 (10368)
I1015 21:01:52.232623 12458 net.cpp:157] Top shape: 2 9 24 24 (10368)
I1015 21:01:52.232626 12458 net.cpp:165] Memory required for data: 3118798184
I1015 21:01:52.232630 12458 layer_factory.hpp:77] Creating layer detection_loss_3_7x7
I1015 21:01:52.232635 12458 net.cpp:100] Creating Layer detection_loss_3_7x7
I1015 21:01:52.232638 12458 net.cpp:434] detection_loss_3_7x7 <- LFCN_3_7x7_LFCN_3_7x7_0_split_0
I1015 21:01:52.232643 12458 net.cpp:434] detection_loss_3_7x7 <- label_3_7x7_data_6_split_0
I1015 21:01:52.232650 12458 net.cpp:408] detection_loss_3_7x7 -> loss_3_7x7
I1015 21:01:52.232656 12458 layer_factory.hpp:77] Creating layer detection_loss_3_7x7
I1015 21:01:52.232975 12458 net.cpp:150] Setting up detection_loss_3_7x7
I1015 21:01:52.232985 12458 net.cpp:157] Top shape: 1 1 1 2 (2)
I1015 21:01:52.232987 12458 net.cpp:160]     with loss weight 1
I1015 21:01:52.232993 12458 net.cpp:165] Memory required for data: 3118798192
I1015 21:01:52.232997 12458 layer_factory.hpp:77] Creating layer detection_accuracy_3_7x7
I1015 21:01:52.233003 12458 net.cpp:100] Creating Layer detection_accuracy_3_7x7
I1015 21:01:52.233007 12458 net.cpp:434] detection_accuracy_3_7x7 <- LFCN_3_7x7_LFCN_3_7x7_0_split_1
I1015 21:01:52.233012 12458 net.cpp:434] detection_accuracy_3_7x7 <- label_3_7x7_data_6_split_1
I1015 21:01:52.233016 12458 net.cpp:408] detection_accuracy_3_7x7 -> accuracy_3_7x7
I1015 21:01:52.233024 12458 net.cpp:408] detection_accuracy_3_7x7 -> boxiou_3_7x7
I1015 21:01:52.233060 12458 net.cpp:150] Setting up detection_accuracy_3_7x7
I1015 21:01:52.233067 12458 net.cpp:157] Top shape: 1 1 1 2 (2)
I1015 21:01:52.233072 12458 net.cpp:157] Top shape: 1 1 1 1 (1)
I1015 21:01:52.233074 12458 net.cpp:165] Memory required for data: 3118798204
I1015 21:01:52.233078 12458 layer_factory.hpp:77] Creating layer pool6
I1015 21:01:52.233084 12458 net.cpp:100] Creating Layer pool6
I1015 21:01:52.233088 12458 net.cpp:434] pool6 <- conv6_1_relu6_1_0_split_2
I1015 21:01:52.233093 12458 net.cpp:408] pool6 -> pool6
I1015 21:01:52.233129 12458 net.cpp:150] Setting up pool6
I1015 21:01:52.233135 12458 net.cpp:157] Top shape: 2 512 12 12 (147456)
I1015 21:01:52.233139 12458 net.cpp:165] Memory required for data: 3119388028
I1015 21:01:52.233142 12458 layer_factory.hpp:77] Creating layer LFCN_4_5x5
I1015 21:01:52.233152 12458 net.cpp:100] Creating Layer LFCN_4_5x5
I1015 21:01:52.233157 12458 net.cpp:434] LFCN_4_5x5 <- pool6
I1015 21:01:52.233163 12458 net.cpp:408] LFCN_4_5x5 -> LFCN_4_5x5
I1015 21:01:52.237212 12458 net.cpp:150] Setting up LFCN_4_5x5
I1015 21:01:52.237226 12458 net.cpp:157] Top shape: 2 9 12 12 (2592)
I1015 21:01:52.237231 12458 net.cpp:165] Memory required for data: 3119398396
I1015 21:01:52.237236 12458 layer_factory.hpp:77] Creating layer LFCN_4_5x5_LFCN_4_5x5_0_split
I1015 21:01:52.237243 12458 net.cpp:100] Creating Layer LFCN_4_5x5_LFCN_4_5x5_0_split
I1015 21:01:52.237247 12458 net.cpp:434] LFCN_4_5x5_LFCN_4_5x5_0_split <- LFCN_4_5x5
I1015 21:01:52.237253 12458 net.cpp:408] LFCN_4_5x5_LFCN_4_5x5_0_split -> LFCN_4_5x5_LFCN_4_5x5_0_split_0
I1015 21:01:52.237259 12458 net.cpp:408] LFCN_4_5x5_LFCN_4_5x5_0_split -> LFCN_4_5x5_LFCN_4_5x5_0_split_1
I1015 21:01:52.237298 12458 net.cpp:150] Setting up LFCN_4_5x5_LFCN_4_5x5_0_split
I1015 21:01:52.237303 12458 net.cpp:157] Top shape: 2 9 12 12 (2592)
I1015 21:01:52.237308 12458 net.cpp:157] Top shape: 2 9 12 12 (2592)
I1015 21:01:52.237310 12458 net.cpp:165] Memory required for data: 3119419132
I1015 21:01:52.237313 12458 layer_factory.hpp:77] Creating layer detection_loss_4_5x5
I1015 21:01:52.237318 12458 net.cpp:100] Creating Layer detection_loss_4_5x5
I1015 21:01:52.237321 12458 net.cpp:434] detection_loss_4_5x5 <- LFCN_4_5x5_LFCN_4_5x5_0_split_0
I1015 21:01:52.237326 12458 net.cpp:434] detection_loss_4_5x5 <- label_4_5x5_data_7_split_0
I1015 21:01:52.237332 12458 net.cpp:408] detection_loss_4_5x5 -> loss_4_5x5
I1015 21:01:52.237340 12458 layer_factory.hpp:77] Creating layer detection_loss_4_5x5
I1015 21:01:52.237664 12458 net.cpp:150] Setting up detection_loss_4_5x5
I1015 21:01:52.237674 12458 net.cpp:157] Top shape: 1 1 1 2 (2)
I1015 21:01:52.237677 12458 net.cpp:160]     with loss weight 1
I1015 21:01:52.237684 12458 net.cpp:165] Memory required for data: 3119419140
I1015 21:01:52.237687 12458 layer_factory.hpp:77] Creating layer detection_accuracy_4_5x5
I1015 21:01:52.237694 12458 net.cpp:100] Creating Layer detection_accuracy_4_5x5
I1015 21:01:52.237696 12458 net.cpp:434] detection_accuracy_4_5x5 <- LFCN_4_5x5_LFCN_4_5x5_0_split_1
I1015 21:01:52.237702 12458 net.cpp:434] detection_accuracy_4_5x5 <- label_4_5x5_data_7_split_1
I1015 21:01:52.237707 12458 net.cpp:408] detection_accuracy_4_5x5 -> accuracy_4_5x5
I1015 21:01:52.237713 12458 net.cpp:408] detection_accuracy_4_5x5 -> boxiou_4_5x5
I1015 21:01:52.237751 12458 net.cpp:150] Setting up detection_accuracy_4_5x5
I1015 21:01:52.237758 12458 net.cpp:157] Top shape: 1 1 1 2 (2)
I1015 21:01:52.237763 12458 net.cpp:157] Top shape: 1 1 1 1 (1)
I1015 21:01:52.237766 12458 net.cpp:165] Memory required for data: 3119419152
I1015 21:01:52.237769 12458 net.cpp:228] detection_accuracy_4_5x5 does not need backward computation.
I1015 21:01:52.237773 12458 net.cpp:226] detection_loss_4_5x5 needs backward computation.
I1015 21:01:52.237777 12458 net.cpp:226] LFCN_4_5x5_LFCN_4_5x5_0_split needs backward computation.
I1015 21:01:52.237781 12458 net.cpp:226] LFCN_4_5x5 needs backward computation.
…
