…
    downsample_rate: 32
    downsample_rate: 32
    downsample_rate: 64
    coord_num: 4
    field_h: 60
    field_h: 84
    field_h: 120
    field_h: 168
    field_h: 240
    field_h: 336
    field_h: 480
    field_w: 60
    field_w: 84
    field_w: 120
    field_w: 168
    field_w: 240
    field_w: 336
    field_w: 480
    fg_threshold: 0.5
    resize_width: 1344
    resize_height: 768
    crop_width: 768
    crop_height: 768
    do_multiple_scale: true
    min_scale: 60
    max_scale: 480
    min_gt_height: 25
    shuffle: true
    output_gt_boxes: true
  }
}
layer {
  name: "slice"
  type: "Slice"
  bottom: "data"
  top: "data123"
  top: "ch4"
  slice_param {
    slice_point: 3
    axis: 1
  }
}
layer {
  name: "conv1_1"
  type: "Convolution"
  bottom: "data123"
  top: "conv1_1"
  param {
    lr_mult: 0
    decay_mult: 0
  }
  param {
    lr_mult: 0
    decay_mult: 0
  }
  convolution_param {
    num_output: 64
    pad: 1
    kernel_size: 3
  }
}
layer {
  name: "relu1_1"
  type: "ReLU"
  bottom: "conv1_1"
  top: "conv1_1"
}
layer {
  name: "conv1_2"
  type: "Convolution"
  bottom: "conv1_1"
  top: "conv1_2"
  param {
    lr_mult: 0
    decay_mult: 0
  }
  param {
    lr_mult: 0
    decay_mult: 0
  }
  convolution_param {
    num_output: 64
    pad: 1
    kernel_size: 3
  }
}
layer {
  name: "relu1_2"
  type: "ReLU"
  bottom: "conv1_2"
  top: "conv1_2"
}
layer {
  name: "pool1"
  type: "Pooling"
  bottom: "conv1_2"
  top: "pool1"
  pooling_param {
    pool: MAX
    kernel_size: 2
    stride: 2
  }
}
layer {
  name: "conv2_1"
  type: "Convolution"
  bottom: "pool1"
  top: "conv2_1"
  param {
    lr_mult: 0
    decay_mult: 0
  }
  param {
    lr_mult: 0
    decay_mult: 0
  }
  convolution_param {
    num_output: 128
    pad: 1
    kernel_size: 3
  }
}
layer {
  name: "relu2_1"
  type: "ReLU"
  bottom: "conv2_1"
  top: "conv2_1"
}
layer {
  name: "conv2_2"
  type: "Convolution"
  bottom: "conv2_1"
  top: "conv2_2"
  param {
    lr_mult: 0
    decay_mult: 0
  }
  param {
    lr_mult: 0
    decay_mult: 0
  }
  convolution_param {
    num_output: 128
    pad: 1
    kernel_size: 3
  }
}
layer {
  name: "relu2_2"
  type: "ReLU"
  bottom: "conv2_2"
  top: "conv2_2"
}
layer {
  name: "pool2"
  type: "Pooling"
  bottom: "conv2_2"
  top: "pool2"
  pooling_param {
    pool: MAX
    kernel_size: 2
    stride: 2
  }
}
layer {
  name: "conv3_1"
  type: "Convolution"
  bottom: "pool2"
  top: "conv3_1"
  convolution_param {
    num_output: 256
    pad: 1
    kernel_size: 3
  }
}
layer {
  name: "relu3_1"
  type: "ReLU"
  bottom: "conv3_1"
  top: "conv3_1"
}
layer {
  name: "conv3_2"
  type: "Convolution"
  bottom: "conv3_1"
  top: "conv3_2"
  convolution_param {
    num_output: 256
    pad: 1
    kernel_size: 3
  }
}
layer {
  name: "relu3_2"
  type: "ReLU"
  bottom: "conv3_2"
  top: "conv3_2"
}
layer {
  name: "conv3_3"
  type: "Convolution"
  bottom: "conv3_2"
  top: "conv3_3"
  convolution_param {
    num_output: 256
    pad: 1
    kernel_size: 3
  }
}
layer {
  name: "relu3_3"
  type: "ReLU"
  bottom: "conv3_3"
  top: "conv3_3"
}
layer {
  name: "pool3"
  type: "Pooling"
  bottom: "conv3_3"
  top: "pool3"
  pooling_param {
    pool: MAX
    kernel_size: 2
    stride: 2
  }
}
layer {
  name: "conv4_1"
  type: "Convolution"
  bottom: "pool3"
  top: "conv4_1"
  convolution_param {
    num_output: 512
    pad: 1
    kernel_size: 3
  }
}
layer {
  name: "relu4_1"
  type: "ReLU"
  bottom: "conv4_1"
  top: "conv4_1"
}
layer {
  name: "conv4_2"
  type: "Convolution"
  bottom: "conv4_1"
  top: "conv4_2"
  convolution_param {
    num_output: 512
    pad: 1
    kernel_size: 3
  }
}
layer {
  name: "relu4_2"
  type: "ReLU"
  bottom: "conv4_2"
  top: "conv4_2"
}
layer {
  name: "conv4_3"
  type: "Convolution"
  bottom: "conv4_2"
  top: "conv4_3"
  convolution_param {
    num_output: 512
    pad: 1
    kernel_size: 3
  }
}
layer {
  name: "relu4_3"
  type: "ReLU"
  bottom: "conv4_3"
  top: "conv4_3"
}
layer {
  name: "buffer"
  type: "Convolution"
  bottom: "conv4_3"
  top: "buffer"
  param {
    lr_mult: 1
    decay_mult: 1
  }
  param {
    lr_mult: 2
    decay_mult: 0
  }
  convolution_param {
    num_output: 512
    pad: 1
    kernel_size: 3
    weight_filler {
      type: "gaussian"
      std: 0.01
    }
    bias_filler {
      type: "constant"
    }
  }
}
layer {
  name: "relu_buffer"
  type: "ReLU"
  bottom: "buffer"
  top: "buffer"
}
layer {
  name: "attention"
  type: "Convolution"
  bottom: "buffer"
  top: "attention"
  param {
    lr_mult: 1
    decay_mult: 1
  }
  param {
    lr_mult: 2
    decay_mult: 0
  }
  convolution_param {
    num_output: 3
    pad: 1
    kernel_size: 3
  }
}
layer {
  name: "relu_attention"
  type: "ReLU"
  bottom: "attention"
  top: "relu_attention"
}
layer {
  name: "ch4_pool"
  type: "Pooling"
  bottom: "ch4"
  top: "ch4_pool"
  pooling_param {
    pool: MAX
    kernel_size: 8
    stride: 8
  }
}
layer {
  name: "loss_attention"
  type: "SoftmaxWithLoss"
  bottom: "relu_attention"
  bottom: "ch4_pool"
  top: "loss_attention"
  loss_weight: 1
  propagate_down: true
  propagate_down: false
}
layer {
  name: "loss1_conv1"
  type: "Convolution"
  bottom: "conv4_3"
  top: "loss1_conv1"
  param {
    lr_mult: 1
    decay_mult: 1
  }
  param {
    lr_mult: 2
    decay_mult: 0
  }
  convolution_param {
    num_output: 512
    pad: 1
    kernel_size: 3
    weight_filler {
      type: "gaussian"
      std: 0.01
    }
    bias_filler {
      type: "constant"
    }
  }
}
layer {
  name: "loss_relu1"
  type: "ReLU"
  bottom: "loss1_conv1"
  top: "loss1_conv1"
}
layer {
  name: "LFCN_1_5x5"
  type: "Convolution"
  bottom: "loss1_conv1"
  top: "LFCN_1_5x5"
  param {
    lr_mult: 1
    decay_mult: 1
  }
  param {
    lr_mult: 2
    decay_mult: 0
  }
  convolution_param {
    num_output: 9
    pad: 2
    kernel_size: 5
    weight_filler {
      type: "gaussian"
      std: 0.001
    }
    bias_filler {
      type: "constant"
    }
  }
}
layer {
  name: "detection_loss_1_5x5"
  type: "DetectionLoss"
  bottom: "LFCN_1_5x5"
  bottom: "label_1_5x5"
  top: "loss_1_5x5"
  loss_weight: 0.9
  detection_loss_param {
    cls_num: 5
    coord_num: 4
    lambda: 1
    field_h: 60
    field_w: 60
    downsample_rate: 8
    bb_smooth: true
    field_whr: 2
    field_xyr: 2
    bg_threshold: 0.2
    bg_multiple: 2
    sample_mode: "bootstrap"
    pos_neg_weighted: true
  }
}
layer {
  name: "detection_accuracy_1_5x5"
  type: "DetectionAccuracy"
  bottom: "LFCN_1_5x5"
  bottom: "label_1_5x5"
  top: "accuracy_1_5x5"
  top: "boxiou_1_5x5"
  detection_accuracy_param {
    cls_num: 5
    coord_num: 4
    field_h: 60
    field_w: 60
    downsample_rate: 8
    field_whr: 2
    field_xyr: 2
  }
}
layer {
  name: "LFCN_1_7x7"
  type: "Convolution"
  bottom: "loss1_conv1"
  top: "LFCN_1_7x7"
  param {
    lr_mult: 1
    decay_mult: 1
  }
  param {
    lr_mult: 2
    decay_mult: 0
  }
  convolution_param {
    num_output: 9
    pad: 3
    kernel_size: 7
    weight_filler {
      type: "gaussian"
      std: 0.001
    }
    bias_filler {
      type: "constant"
    }
  }
}
layer {
  name: "detection_loss_1_7x7"
  type: "DetectionLoss"
  bottom: "LFCN_1_7x7"
  bottom: "label_1_7x7"
  top: "loss_1_7x7"
  loss_weight: 0.9
  detection_loss_param {
    cls_num: 5
    coord_num: 4
    lambda: 1
    field_h: 84
    field_w: 84
    downsample_rate: 8
    bb_smooth: true
    field_whr: 2
    field_xyr: 2
    bg_threshold: 0.2
    bg_multiple: 2
    sample_mode: "bootstrap"
    pos_neg_weighted: true
  }
}
layer {
  name: "detection_accuracy_1_7x7"
  type: "DetectionAccuracy"
  bottom: "LFCN_1_7x7"
  bottom: "label_1_7x7"
  top: "accuracy_1_7x7"
  top: "boxiou_1_7x7"
  detection_accuracy_param {
    cls_num: 5
    coord_num: 4
    field_h: 84
    field_w: 84
    downsample_rate: 8
    field_whr: 2
    field_xyr: 2
  }
}
layer {
  name: "pool4"
  type: "Pooling"
  bottom: "conv4_3"
  top: "pool4"
  pooling_param {
    pool: MAX
    kernel_size: 2
    stride: 2
  }
}
layer {
  name: "conv5_1"
  type: "Convolution"
  bottom: "pool4"
  top: "conv5_1"
  convolution_param {
    num_output: 512
    pad: 1
    kernel_size: 3
  }
}
layer {
  name: "relu5_1"
  type: "ReLU"
  bottom: "conv5_1"
  top: "conv5_1"
}
layer {
  name: "conv5_2"
  type: "Convolution"
  bottom: "conv5_1"
  top: "conv5_2"
  convolution_param {
    num_output: 512
    pad: 1
    kernel_size: 3
  }
}
layer {
  name: "relu5_2"
  type: "ReLU"
  bottom: "conv5_2"
  top: "conv5_2"
}
layer {
  name: "conv5_3"
  type: "Convolution"
  bottom: "conv5_2"
  top: "conv5_3"
  convolution_param {
    num_output: 512
    pad: 1
    kernel_size: 3
  }
}
layer {
  name: "relu5_3"
  type: "ReLU"
  bottom: "conv5_3"
  top: "conv5_3"
}
layer {
  name: "LFCN_2_5x5"
  type: "Convolution"
  bottom: "conv5_3"
  top: "LFCN_2_5x5"
  param {
    lr_mult: 1
    decay_mult: 1
  }
  param {
    lr_mult: 2
    decay_mult: 0
  }
  convolution_param {
    num_output: 9
    pad: 2
    kernel_size: 5
    weight_filler {
      type: "gaussian"
      std: 0.001
    }
    bias_filler {
      type: "constant"
    }
  }
}
layer {
  name: "detection_loss_2_5x5"
  type: "DetectionLoss"
  bottom: "LFCN_2_5x5"
  bottom: "label_2_5x5"
  top: "loss_2_5x5"
  detection_loss_param {
    cls_num: 5
    coord_num: 4
    lambda: 1
    field_h: 120
    field_w: 120
    downsample_rate: 16
    bb_smooth: true
    field_whr: 2
    field_xyr: 2
    bg_threshold: 0.2
    bg_multiple: 2
    sample_mode: "bootstrap"
    pos_neg_weighted: true
  }
}
layer {
  name: "detection_accuracy_2_5x5"
  type: "DetectionAccuracy"
  bottom: "LFCN_2_5x5"
  bottom: "label_2_5x5"
  top: "accuracy_2_5x5"
  top: "boxiou_2_5x5"
  detection_accuracy_param {
    cls_num: 5
    coord_num: 4
    field_h: 120
    field_w: 120
    downsample_rate: 16
    field_whr: 2
    field_xyr: 2
  }
}
layer {
  name: "LFCN_2_7x7"
  type: "Convolution"
  bottom: "conv5_3"
  top: "LFCN_2_7x7"
  param {
    lr_mult: 1
    decay_mult: 1
  }
  param {
    lr_mult: 2
    decay_mult: 0
  }
  convolution_param {
    num_output: 9
    pad: 3
    kernel_size: 7
    weight_filler {
      type: "gaussian"
      std: 0.001
    }
    bias_filler {
      type: "constant"
    }
  }
}
layer {
  name: "detection_loss_2_7x7"
  type: "DetectionLoss"
  bottom: "LFCN_2_7x7"
  bottom: "label_2_7x7"
  top: "loss_2_7x7"
  detection_loss_param {
    cls_num: 5
    coord_num: 4
    lambda: 1
    field_h: 168
    field_w: 168
    downsample_rate: 16
    bb_smooth: true
    field_whr: 2
    field_xyr: 2
    bg_threshold: 0.2
    bg_multiple: 2
    sample_mode: "bootstrap"
    pos_neg_weighted: true
  }
}
layer {
  name: "detection_accuracy_2_7x7"
  type: "DetectionAccuracy"
  bottom: "LFCN_2_7x7"
  bottom: "label_2_7x7"
  top: "accuracy_2_7x7"
  top: "boxiou_2_7x7"
  detection_accuracy_param {
    cls_num: 5
    coord_num: 4
    field_h: 168
    field_w: 168
    downsample_rate: 16
    field_whr: 2
    field_xyr: 2
  }
}
layer {
  name: "pool5"
  type: "Pooling"
  bottom: "conv5_3"
  top: "pool5"
  pooling_param {
    pool: MAX
    kernel_size: 2
    stride: 2
  }
}
layer {
  name: "conv6_1"
  type: "Convolution"
  bottom: "pool5"
  top: "conv6_1"
  param {
    lr_mult: 1
    decay_mult: 1
  }
  param {
    lr_mult: 2
    decay_mult: 0
  }
  convolution_param {
    num_output: 512
    pad: 1
    kernel_size: 3
    weight_filler {
      type: "gaussian"
      std: 0.01
    }
    bias_filler {
      type: "constant"
    }
  }
}
layer {
  name: "relu6_1"
  type: "ReLU"
  bottom: "conv6_1"
  top: "conv6_1"
}
layer {
  name: "LFCN_3_5x5"
  type: "Convolution"
  bottom: "conv6_1"
  top: "LFCN_3_5x5"
  param {
    lr_mult: 1
    decay_mult: 1
  }
  param {
    lr_mult: 2
    decay_mult: 0
  }
  convolution_param {
    num_output: 9
    pad: 2
    kernel_size: 5
    weight_filler {
      type: "gaussian"
      std: 0.001
    }
    bias_filler {
      type: "constant"
    }
  }
}
layer {
  name: "detection_loss_3_5x5"
  type: "DetectionLoss"
  bottom: "LFCN_3_5x5"
  bottom: "label_3_5x5"
  top: "loss_3_5x5"
  detection_loss_param {
    cls_num: 5
    coord_num: 4
    lambda: 1
    field_h: 240
    field_w: 240
    downsample_rate: 32
    bb_smooth: true
    field_whr: 2
    field_xyr: 2
    bg_threshold: 0.2
    bg_multiple: 2
    sample_mode: "bootstrap"
    pos_neg_weighted: true
  }
}
layer {
  name: "detection_accuracy_3_5x5"
  type: "DetectionAccuracy"
  bottom: "LFCN_3_5x5"
  bottom: "label_3_5x5"
  top: "accuracy_3_5x5"
  top: "boxiou_3_5x5"
  detection_accuracy_param {
    cls_num: 5
    coord_num: 4
    field_h: 240
    field_w: 240
    downsample_rate: 32
    field_whr: 2
    field_xyr: 2
  }
}
layer {
  name: "LFCN_3_7x7"
  type: "Convolution"
  bottom: "conv6_1"
  top: "LFCN_3_7x7"
  param {
    lr_mult: 1
    decay_mult: 1
  }
  param {
    lr_mult: 2
    decay_mult: 0
  }
  convolution_param {
    num_output: 9
    pad: 3
    kernel_size: 7
    weight_filler {
      type: "gaussian"
      std: 0.001
    }
    bias_filler {
      type: "constant"
    }
  }
}
layer {
  name: "detection_loss_3_7x7"
  type: "DetectionLoss"
  bottom: "LFCN_3_7x7"
  bottom: "label_3_7x7"
  top: "loss_3_7x7"
  detection_loss_param {
    cls_num: 5
    coord_num: 4
    lambda: 1
    field_h: 336
    field_w: 336
    downsample_rate: 32
    bb_smooth: true
    field_whr: 2
    field_xyr: 2
    bg_threshold: 0.2
    bg_multiple: 2
    sample_mode: "bootstrap"
    pos_neg_weighted: true
  }
}
layer {
  name: "detection_accuracy_3_7x7"
  type: "DetectionAccuracy"
  bottom: "LFCN_3_7x7"
  bottom: "label_3_7x7"
  top: "accuracy_3_7x7"
  top: "boxiou_3_7x7"
  detection_accuracy_param {
    cls_num: 5
    coord_num: 4
    field_h: 336
    field_w: 336
    downsample_rate: 32
    field_whr: 2
    field_xyr: 2
  }
}
layer {
  name: "pool6"
  type: "Pooling"
  bottom: "conv6_1"
  top: "pool6"
  pooling_param {
    pool: MAX
    kernel_size: 2
    stride: 2
  }
}
layer {
  name: "LFCN_4_5x5"
  type: "Convolution"
  bottom: "pool6"
  top: "LFCN_4_5x5"
  param {
    lr_mult: 1
    decay_mult: 1
  }
  param {
    lr_mult: 2
    decay_mult: 0
  }
  convolution_param {
    num_output: 9
    pad: 2
    kernel_size: 5
    weight_filler {
      type: "gaussian"
      std: 0.001
    }
    bias_filler {
      type: "constant"
    }
  }
}
layer {
  name: "detection_loss_4_5x5"
  type: "DetectionLoss"
  bottom: "LFCN_4_5x5"
  bottom: "label_4_5x5"
  top: "loss_4_5x5"
  detection_loss_param {
    cls_num: 5
    coord_num: 4
    lambda: 1
    field_h: 480
    field_w: 480
    downsample_rate: 64
    bb_smooth: true
    field_whr: 2
    field_xyr: 2
    bg_threshold: 0.2
    bg_multiple: 2
    sample_mode: "bootstrap"
    pos_neg_weighted: true
  }
}
layer {
  name: "detection_accuracy_4_5x5"
  type: "DetectionAccuracy"
  bottom: "LFCN_4_5x5"
  bottom: "label_4_5x5"
  top: "accuracy_4_5x5"
  top: "boxiou_4_5x5"
  detection_accuracy_param {
    cls_num: 5
    coord_num: 4
    field_h: 480
    field_w: 480
    downsample_rate: 64
    field_whr: 2
    field_xyr: 2
  }
}
layer {
  name: "proposals"
  type: "BoxOutput"
  bottom: "LFCN_1_5x5"
  bottom: "LFCN_1_7x7"
  bottom: "LFCN_2_5x5"
  bottom: "LFCN_2_7x7"
  bottom: "LFCN_3_5x5"
  bottom: "LFCN_3_7x7"
  bottom: "LFCN_4_5x5"
  top: "proposals"
  propagate_down: false
  propagate_down: false
  propagate_down: false
  propagate_down: false
  propagate_down: false
  propagate_down: false
  propagate_down: false
  box_output_param {
    fg_thr: -8
    iou_thr: 0.65
    nms_type: "IOU"
    field_h: 60
    field_h: 84
    field_h: 120
    field_h: 168
    field_h: 240
    field_h: 336
    field_h: 480
    field_w: 60
    field_w: 84
    field_w: 120
    field_w: 168
    field_w: 240
    field_w: 336
    field_w: 480
    downsample_rate: 8
    downsample_rate: 8
    downsample_rate: 16
    downsample_rate: 16
    downsample_rate: 32
    downsample_rate: 32
    downsample_rate: 64
    field_whr: 2
    field_xyr: 2
    max_nms_num: 3000
  }
}
layer {
  name: "proposal_info"
  type: "ProposalTarget"
  bottom: "proposals"
  bottom: "gt_boxes"
  top: "rois"
  top: "proposal_labels"
  top: "proposal_targets"
  top: "box_inside_weights"
  top: "box_outside_weights"
  top: "match_gt_boxes"
  include {
    phase: TRAIN
  }
  propagate_down: false
  propagate_down: false
  proposal_target_param {
    cls_num: 5
    batch_size: 256
    fg_fraction: 0.25
    num_img_per_batch: 4
    fg_thr: 0.5
    bg_thr_hg: 0.49
    bg_thr_lw: 0.1
    img_width: 768
    img_height: 576
  }
  bbox_reg_param {
    bbox_mean: 0
    bbox_mean: 0
    bbox_mean: 0
    bbox_mean: 0
    bbox_std: 0.1
    bbox_std: 0.1
    bbox_std: 0.2
    bbox_std: 0.2
  }
}
layer {
  name: "softmax"
  type: "Softmax"
  bottom: "relu_attention"
  top: "softmax_attention"
}
layer {
  name: "slice1"
  type: "Slice"
  bottom: "softmax_attention"
  top: "bg"
  top: "attention1"
  slice_param {
    slice_point: 1
    axis: 1
  }
}
layer {
  name: "silence"
  type: "Silence"
  bottom: "bg"
}
layer {
  name: "conv4_3_new"
  type: "Concat"
  bottom: "conv4_3"
  bottom: "attention1"
  top: "conv4_3_new"
}
layer {
  name: "conv4_3_2x"
  type: "Deconvolution"
  bottom: "conv4_3_new"
  top: "conv4_3_2x"
  param {
    lr_mult: 0
    decay_mult: 0
  }
  convolution_param {
    num_output: 514
    bias_term: false
    pad: 1
    kernel_size: 4
    group: 514
    stride: 2
    weight_filler {
      type: "bilinear"
    }
  }
}
layer {
  name: "roi_pool_org"
  type: "ROIPooling"
  bottom: "conv4_3_2x"
  bottom: "rois"
  top: "roi_pool_org"
  roi_pooling_param {
    pooled_h: 7
    pooled_w: 7
    spatial_scale: 0.25
    pad_ratio: 0
  }
}
layer {
  name: "roi_pool_ctx"
  type: "ROIPooling"
  bottom: "conv4_3_2x"
  bottom: "rois"
  top: "roi_pool_ctx"
  roi_pooling_param {
    pooled_h: 7
    pooled_w: 7
    spatial_scale: 0.25
    pad_ratio: 0.25
  }
}
layer {
  name: "roi_pool"
  type: "Concat"
  bottom: "roi_pool_org"
  bottom: "roi_pool_ctx"
  top: "roi_pool"
}
layer {
  name: "roi_c1"
  type: "Convolution"
  bottom: "roi_pool"
  top: "roi_c1"
  param {
    lr_mult: 1
    decay_mult: 1
  }
  param {
    lr_mult: 2
    decay_mult: 0
  }
  convolution_param {
    num_output: 512
    kernel_size: 3
    weight_filler {
      type: "gaussian"
      std: 0.01
    }
    bias_filler {
      type: "constant"
    }
  }
}
layer {
  name: "roi_c1_relu"
  type: "ReLU"
  bottom: "roi_c1"
  top: "roi_c1"
}
layer {
  name: "fc6"
  type: "InnerProduct"
  bottom: "roi_c1"
  top: "fc6"
  param {
    lr_mult: 1
  }
  param {
    lr_mult: 2
  }
  inner_product_param {
    num_output: 4096
    weight_filler {
      type: "gaussian"
      std: 0.001
    }
    bias_filler {
      type: "constant"
      value: 0
    }
  }
}
layer {
  name: "relu6"
  type: "ReLU"
  bottom: "fc6"
  top: "fc6"
}
layer {
  name: "drop6"
  type: "Dropout"
  bottom: "fc6"
  top: "fc6"
  dropout_param {
    dropout_ratio: 0.5
  }
}
layer {
  name: "cls_pred"
  type: "InnerProduct"
  bottom: "fc6"
  top: "cls_pred"
  param {
    lr_mult: 1
  }
  param {
    lr_mult: 2
  }
  inner_product_param {
    num_output: 5
    weight_filler {
      type: "gaussian"
      std: 0.01
    }
    bias_filler {
      type: "constant"
      value: 0
    }
  }
}
layer {
  name: "bbox_pred"
  type: "InnerProduct"
  bottom: "fc6"
  top: "bbox_pred"
  param {
    lr_mult: 1
  }
  param {
    lr_mult: 2
  }
  inner_product_param {
    num_output: 20
    weight_filler {
      type: "gaussian"
      std: 0.001
    }
    bias_filler {
      type: "constant"
      value: 0
    }
  }
}
layer {
  name: "loss_cls"
  type: "SoftmaxWithLoss"
  bottom: "cls_pred"
  bottom: "proposal_labels"
  top: "loss_cls"
  loss_weight: 1
  propagate_down: true
  propagate_down: false
}
layer {
  name: "cls_accuracy"
  type: "Accuracy"
  bottom: "cls_pred"
  bottom: "proposal_labels"
  top: "cls_accuracy"
}
layer {
  name: "loss_bbox"
  type: "SmoothL1Loss"
  bottom: "bbox_pred"
  bottom: "proposal_targets"
  bottom: "box_inside_weights"
  bottom: "box_outside_weights"
  top: "loss_bbox"
  loss_weight: 1
}
layer {
  name: "bbox_iou"
  type: "BboxAccuracy"
  bottom: "bbox_pred"
  bottom: "rois"
  bottom: "match_gt_boxes"
  top: "bbox_iou"
  top: "bbox_iou_pre"
  bbox_reg_param {
    bbox_mean: 0
    bbox_mean: 0
    bbox_mean: 0
    bbox_mean: 0
    bbox_std: 0.1
    bbox_std: 0.1
    bbox_std: 0.2
    bbox_std: 0.2
  }
}
I1015 21:48:49.215567 13583 layer_factory.hpp:77] Creating layer data
I1015 21:48:49.215605 13583 net.cpp:100] Creating Layer data
I1015 21:48:49.215611 13583 net.cpp:408] data -> data
…
I1015 21:48:49.238521 13583 image_gt_data_layer.cpp:235] output label size 2 : 3,6,48,48
I1015 21:48:49.238556 13583 image_gt_data_layer.cpp:235] output label size 3 : 3,6,48,48
I1015 21:48:49.238591 13583 image_gt_data_layer.cpp:235] output label size 4 : 3,6,24,24
I1015 21:48:49.238626 13583 image_gt_data_layer.cpp:235] output label size 5 : 3,6,24,24
I1015 21:48:49.238662 13583 image_gt_data_layer.cpp:235] output label size 6 : 3,6,12,12
I1015 21:48:49.238698 13583 image_gt_data_layer.cpp:250] output gt boxes size: 1,7,1,1
I1015 21:48:49.287425 13583 net.cpp:150] Setting up data
I1015 21:48:49.287466 13583 net.cpp:157] Top shape: 3 4 768 768 (7077888)
I1015 21:48:49.287472 13583 net.cpp:157] Top shape: 3 6 96 96 (165888)
I1015 21:48:49.287477 13583 net.cpp:157] Top shape: 3 6 96 96 (165888)
I1015 21:48:49.287482 13583 net.cpp:157] Top shape: 3 6 48 48 (41472)
I1015 21:48:49.287487 13583 net.cpp:157] Top shape: 3 6 48 48 (41472)
I1015 21:48:49.287493 13583 net.cpp:157] Top shape: 3 6 24 24 (10368)
I1015 21:48:49.287497 13583 net.cpp:157] Top shape: 3 6 24 24 (10368)
I1015 21:48:49.287503 13583 net.cpp:157] Top shape: 3 6 12 12 (2592)
I1015 21:48:49.287508 13583 net.cpp:157] Top shape: 1 7 1 1 (7)
I1015 21:48:49.287513 13583 net.cpp:165] Memory required for data: 30063772
I1015 21:48:49.287524 13583 layer_factory.hpp:77] Creating layer label_1_5x5_data_1_split
I1015 21:48:49.287549 13583 net.cpp:100] Creating Layer label_1_5x5_data_1_split
I1015 21:48:49.287557 13583 net.cpp:434] label_1_5x5_data_1_split <- label_1_5x5
I1015 21:48:49.287572 13583 net.cpp:408] label_1_5x5_data_1_split -> label_1_5x5_data_1_split_0
I1015 21:48:49.287585 13583 net.cpp:408] label_1_5x5_data_1_split -> label_1_5x5_data_1_split_1
I1015 21:48:49.287802 13583 net.cpp:150] Setting up label_1_5x5_data_1_split
I1015 21:48:49.287847 13583 net.cpp:157] Top shape: 3 6 96 96 (165888)
I1015 21:48:49.287859 13583 net.cpp:157] Top shape: 3 6 96 96 (165888)
I1015 21:48:49.287868 13583 net.cpp:165] Memory required for data: 31390876
I1015 21:48:49.287879 13583 layer_factory.hpp:77] Creating layer label_1_7x7_data_2_split
I1015 21:48:49.287902 13583 net.cpp:100] Creating Layer label_1_7x7_data_2_split
I1015 21:48:49.287914 13583 net.cpp:434] label_1_7x7_data_2_split <- label_1_7x7
I1015 21:48:49.287930 13583 net.cpp:408] label_1_7x7_data_2_split -> label_1_7x7_data_2_split_0
I1015 21:48:49.287948 13583 net.cpp:408] label_1_7x7_data_2_split -> label_1_7x7_data_2_split_1
I1015 21:48:49.288015 13583 net.cpp:150] Setting up label_1_7x7_data_2_split
I1015 21:48:49.288028 13583 net.cpp:157] Top shape: 3 6 96 96 (165888)
I1015 21:48:49.288038 13583 net.cpp:157] Top shape: 3 6 96 96 (165888)
I1015 21:48:49.288046 13583 net.cpp:165] Memory required for data: 32717980
I1015 21:48:49.288053 13583 layer_factory.hpp:77] Creating layer label_2_5x5_data_3_split
I1015 21:48:49.288063 13583 net.cpp:100] Creating Layer label_2_5x5_data_3_split
I1015 21:48:49.288070 13583 net.cpp:434] label_2_5x5_data_3_split <- label_2_5x5
I1015 21:48:49.288081 13583 net.cpp:408] label_2_5x5_data_3_split -> label_2_5x5_data_3_split_0
I1015 21:48:49.288096 13583 net.cpp:408] label_2_5x5_data_3_split -> label_2_5x5_data_3_split_1
I1015 21:48:49.288156 13583 net.cpp:150] Setting up label_2_5x5_data_3_split
I1015 21:48:49.288168 13583 net.cpp:157] Top shape: 3 6 48 48 (41472)
I1015 21:48:49.288177 13583 net.cpp:157] Top shape: 3 6 48 48 (41472)
I1015 21:48:49.288187 13583 net.cpp:165] Memory required for data: 33049756
I1015 21:48:49.288193 13583 layer_factory.hpp:77] Creating layer label_2_7x7_data_4_split
I1015 21:48:49.288206 13583 net.cpp:100] Creating Layer label_2_7x7_data_4_split
I1015 21:48:49.288214 13583 net.cpp:434] label_2_7x7_data_4_split <- label_2_7x7
I1015 21:48:49.288224 13583 net.cpp:408] label_2_7x7_data_4_split -> label_2_7x7_data_4_split_0
I1015 21:48:49.288239 13583 net.cpp:408] label_2_7x7_data_4_split -> label_2_7x7_data_4_split_1
I1015 21:48:49.288300 13583 net.cpp:150] Setting up label_2_7x7_data_4_split
I1015 21:48:49.288313 13583 net.cpp:157] Top shape: 3 6 48 48 (41472)
I1015 21:48:49.288326 13583 net.cpp:157] Top shape: 3 6 48 48 (41472)
I1015 21:48:49.288334 13583 net.cpp:165] Memory required for data: 33381532
I1015 21:48:49.288341 13583 layer_factory.hpp:77] Creating layer label_3_5x5_data_5_split
I1015 21:48:49.288350 13583 net.cpp:100] Creating Layer label_3_5x5_data_5_split
I1015 21:48:49.288358 13583 net.cpp:434] label_3_5x5_data_5_split <- label_3_5x5
I1015 21:48:49.288408 13583 net.cpp:408] label_3_5x5_data_5_split -> label_3_5x5_data_5_split_0
I1015 21:48:49.288422 13583 net.cpp:408] label_3_5x5_data_5_split -> label_3_5x5_data_5_split_1
I1015 21:48:49.288483 13583 net.cpp:150] Setting up label_3_5x5_data_5_split
I1015 21:48:49.288498 13583 net.cpp:157] Top shape: 3 6 24 24 (10368)
I1015 21:48:49.288507 13583 net.cpp:157] Top shape: 3 6 24 24 (10368)
I1015 21:48:49.288514 13583 net.cpp:165] Memory required for data: 33464476
I1015 21:48:49.288522 13583 layer_factory.hpp:77] Creating layer label_3_7x7_data_6_split
I1015 21:48:49.288530 13583 net.cpp:100] Creating Layer label_3_7x7_data_6_split
I1015 21:48:49.288538 13583 net.cpp:434] label_3_7x7_data_6_split <- label_3_7x7
I1015 21:48:49.288550 13583 net.cpp:408] label_3_7x7_data_6_split -> label_3_7x7_data_6_split_0
I1015 21:48:49.288561 13583 net.cpp:408] label_3_7x7_data_6_split -> label_3_7x7_data_6_split_1
I1015 21:48:49.288619 13583 net.cpp:150] Setting up label_3_7x7_data_6_split
I1015 21:48:49.288633 13583 net.cpp:157] Top shape: 3 6 24 24 (10368)
I1015 21:48:49.288642 13583 net.cpp:157] Top shape: 3 6 24 24 (10368)
I1015 21:48:49.288648 13583 net.cpp:165] Memory required for data: 33547420
I1015 21:48:49.288655 13583 layer_factory.hpp:77] Creating layer label_4_5x5_data_7_split
I1015 21:48:49.288672 13583 net.cpp:100] Creating Layer label_4_5x5_data_7_split
I1015 21:48:49.288681 13583 net.cpp:434] label_4_5x5_data_7_split <- label_4_5x5
I1015 21:48:49.288697 13583 net.cpp:408] label_4_5x5_data_7_split -> label_4_5x5_data_7_split_0
I1015 21:48:49.288708 13583 net.cpp:408] label_4_5x5_data_7_split -> label_4_5x5_data_7_split_1
I1015 21:48:49.288769 13583 net.cpp:150] Setting up label_4_5x5_data_7_split
I1015 21:48:49.288782 13583 net.cpp:157] Top shape: 3 6 12 12 (2592)
I1015 21:48:49.288791 13583 net.cpp:157] Top shape: 3 6 12 12 (2592)
I1015 21:48:49.288800 13583 net.cpp:165] Memory required for data: 33568156
I1015 21:48:49.288807 13583 layer_factory.hpp:77] Creating layer slice
I1015 21:48:49.288822 13583 net.cpp:100] Creating Layer slice
I1015 21:48:49.288831 13583 net.cpp:434] slice <- data
I1015 21:48:49.288841 13583 net.cpp:408] slice -> data123
I1015 21:48:49.288859 13583 net.cpp:408] slice -> ch4
I1015 21:48:49.288918 13583 net.cpp:150] Setting up slice
I1015 21:48:49.288931 13583 net.cpp:157] Top shape: 3 3 768 768 (5308416)
I1015 21:48:49.288940 13583 net.cpp:157] Top shape: 3 1 768 768 (1769472)
I1015 21:48:49.288949 13583 net.cpp:165] Memory required for data: 61879708
I1015 21:48:49.288955 13583 layer_factory.hpp:77] Creating layer conv1_1
I1015 21:48:49.288980 13583 net.cpp:100] Creating Layer conv1_1
I1015 21:48:49.288988 13583 net.cpp:434] conv1_1 <- data123
I1015 21:48:49.288998 13583 net.cpp:408] conv1_1 -> conv1_1
I1015 21:48:49.550582 13583 net.cpp:150] Setting up conv1_1
I1015 21:48:49.550614 13583 net.cpp:157] Top shape: 3 64 768 768 (113246208)
I1015 21:48:49.550621 13583 net.cpp:165] Memory required for data: 514864540
I1015 21:48:49.550643 13583 layer_factory.hpp:77] Creating layer relu1_1
I1015 21:48:49.550659 13583 net.cpp:100] Creating Layer relu1_1
I1015 21:48:49.550667 13583 net.cpp:434] relu1_1 <- conv1_1
I1015 21:48:49.550675 13583 net.cpp:395] relu1_1 -> conv1_1 (in-place)
I1015 21:48:49.550922 13583 net.cpp:150] Setting up relu1_1
I1015 21:48:49.550935 13583 net.cpp:157] Top shape: 3 64 768 768 (113246208)
I1015 21:48:49.550941 13583 net.cpp:165] Memory required for data: 967849372
I1015 21:48:49.550946 13583 layer_factory.hpp:77] Creating layer conv1_2
I1015 21:48:49.550961 13583 net.cpp:100] Creating Layer conv1_2
I1015 21:48:49.550967 13583 net.cpp:434] conv1_2 <- conv1_1
I1015 21:48:49.550976 13583 net.cpp:408] conv1_2 -> conv1_2
I1015 21:48:49.554119 13583 net.cpp:150] Setting up conv1_2
I1015 21:48:49.554138 13583 net.cpp:157] Top shape: 3 64 768 768 (113246208)
I1015 21:48:49.554144 13583 net.cpp:165] Memory required for data: 1420834204
I1015 21:48:49.554157 13583 layer_factory.hpp:77] Creating layer relu1_2
I1015 21:48:49.554167 13583 net.cpp:100] Creating Layer relu1_2
I1015 21:48:49.554173 13583 net.cpp:434] relu1_2 <- conv1_2
I1015 21:48:49.554180 13583 net.cpp:395] relu1_2 -> conv1_2 (in-place)
I1015 21:48:49.554390 13583 net.cpp:150] Setting up relu1_2
I1015 21:48:49.554401 13583 net.cpp:157] Top shape: 3 64 768 768 (113246208)
I1015 21:48:49.554406 13583 net.cpp:165] Memory required for data: 1873819036
I1015 21:48:49.554411 13583 layer_factory.hpp:77] Creating layer pool1
I1015 21:48:49.554419 13583 net.cpp:100] Creating Layer pool1
I1015 21:48:49.554425 13583 net.cpp:434] pool1 <- conv1_2
I1015 21:48:49.554432 13583 net.cpp:408] pool1 -> pool1
I1015 21:48:49.554489 13583 net.cpp:150] Setting up pool1
I1015 21:48:49.554498 13583 net.cpp:157] Top shape: 3 64 384 384 (28311552)
I1015 21:48:49.554504 13583 net.cpp:165] Memory required for data: 1987065244
I1015 21:48:49.554508 13583 layer_factory.hpp:77] Creating layer conv2_1
I1015 21:48:49.554519 13583 net.cpp:100] Creating Layer conv2_1
I1015 21:48:49.554524 13583 net.cpp:434] conv2_1 <- pool1
I1015 21:48:49.554531 13583 net.cpp:408] conv2_1 -> conv2_1
I1015 21:48:49.557260 13583 net.cpp:150] Setting up conv2_1
I1015 21:48:49.557281 13583 net.cpp:157] Top shape: 3 128 384 384 (56623104)
I1015 21:48:49.557286 13583 net.cpp:165] Memory required for data: 2213557660
I1015 21:48:49.557297 13583 layer_factory.hpp:77] Creating layer relu2_1
I1015 21:48:49.557307 13583 net.cpp:100] Creating Layer relu2_1
I1015 21:48:49.557312 13583 net.cpp:434] relu2_1 <- conv2_1
I1015 21:48:49.557319 13583 net.cpp:395] relu2_1 -> conv2_1 (in-place)
I1015 21:48:49.557503 13583 net.cpp:150] Setting up relu2_1
I1015 21:48:49.557514 13583 net.cpp:157] Top shape: 3 128 384 384 (56623104)
I1015 21:48:49.557520 13583 net.cpp:165] Memory required for data: 2440050076
I1015 21:48:49.557524 13583 layer_factory.hpp:77] Creating layer conv2_2
I1015 21:48:49.557538 13583 net.cpp:100] Creating Layer conv2_2
I1015 21:48:49.557543 13583 net.cpp:434] conv2_2 <- conv2_1
I1015 21:48:49.557549 13583 net.cpp:408] conv2_2 -> conv2_2
I1015 21:48:49.559260 13583 net.cpp:150] Setting up conv2_2
I1015 21:48:49.559276 13583 net.cpp:157] Top shape: 3 128 384 384 (56623104)
I1015 21:48:49.559281 13583 net.cpp:165] Memory required for data: 2666542492
I1015 21:48:49.559290 13583 layer_factory.hpp:77] Creating layer relu2_2
I1015 21:48:49.559298 13583 net.cpp:100] Creating Layer relu2_2
I1015 21:48:49.559303 13583 net.cpp:434] relu2_2 <- conv2_2
I1015 21:48:49.559310 13583 net.cpp:395] relu2_2 -> conv2_2 (in-place)
I1015 21:48:49.559504 13583 net.cpp:150] Setting up relu2_2
I1015 21:48:49.559514 13583 net.cpp:157] Top shape: 3 128 384 384 (56623104)
I1015 21:48:49.559520 13583 net.cpp:165] Memory required for data: 2893034908
I1015 21:48:49.559525 13583 layer_factory.hpp:77] Creating layer pool2
I1015 21:48:49.559531 13583 net.cpp:100] Creating Layer pool2
I1015 21:48:49.559537 13583 net.cpp:434] pool2 <- conv2_2
I1015 21:48:49.559545 13583 net.cpp:408] pool2 -> pool2
I1015 21:48:49.559587 13583 net.cpp:150] Setting up pool2
I1015 21:48:49.559597 13583 net.cpp:157] Top shape: 3 128 192 192 (14155776)
I1015 21:48:49.559602 13583 net.cpp:165] Memory required for data: 2949658012
I1015 21:48:49.559607 13583 layer_factory.hpp:77] Creating layer conv3_1
I1015 21:48:49.559614 13583 net.cpp:100] Creating Layer conv3_1
I1015 21:48:49.559619 13583 net.cpp:434] conv3_1 <- pool2
I1015 21:48:49.559625 13583 net.cpp:408] conv3_1 -> conv3_1
I1015 21:48:49.563796 13583 net.cpp:150] Setting up conv3_1
I1015 21:48:49.563879 13583 net.cpp:157] Top shape: 3 256 192 192 (28311552)
I1015 21:48:49.563899 13583 net.cpp:165] Memory required for data: 3062904220
I1015 21:48:49.563935 13583 layer_factory.hpp:77] Creating layer relu3_1
I1015 21:48:49.563964 13583 net.cpp:100] Creating Layer relu3_1
I1015 21:48:49.563982 13583 net.cpp:434] relu3_1 <- conv3_1
I1015 21:48:49.564000 13583 net.cpp:395] relu3_1 -> conv3_1 (in-place)
I1015 21:48:49.564652 13583 net.cpp:150] Setting up relu3_1
I1015 21:48:49.564684 13583 net.cpp:157] Top shape: 3 256 192 192 (28311552)
I1015 21:48:49.564700 13583 net.cpp:165] Memory required for data: 3176150428
I1015 21:48:49.564715 13583 layer_factory.hpp:77] Creating layer conv3_2
I1015 21:48:49.564738 13583 net.cpp:100] Creating Layer conv3_2
I1015 21:48:49.564754 13583 net.cpp:434] conv3_2 <- conv3_1
I1015 21:48:49.564772 13583 net.cpp:408] conv3_2 -> conv3_2
I1015 21:48:49.567646 13583 net.cpp:150] Setting up conv3_2
I1015 21:48:49.567685 13583 net.cpp:157] Top shape: 3 256 192 192 (28311552)
I1015 21:48:49.567692 13583 net.cpp:165] Memory required for data: 3289396636
I1015 21:48:49.567705 13583 layer_factory.hpp:77] Creating layer relu3_2
I1015 21:48:49.567721 13583 net.cpp:100] Creating Layer relu3_2
I1015 21:48:49.567729 13583 net.cpp:434] relu3_2 <- conv3_2
I1015 21:48:49.567739 13583 net.cpp:395] relu3_2 -> conv3_2 (in-place)
I1015 21:48:49.568279 13583 net.cpp:150] Setting up relu3_2
I1015 21:48:49.568294 13583 net.cpp:157] Top shape: 3 256 192 192 (28311552)
I1015 21:48:49.568296 13583 net.cpp:165] Memory required for data: 3402642844
I1015 21:48:49.568300 13583 layer_factory.hpp:77] Creating layer conv3_3
I1015 21:48:49.568310 13583 net.cpp:100] Creating Layer conv3_3
I1015 21:48:49.568315 13583 net.cpp:434] conv3_3 <- conv3_2
I1015 21:48:49.568320 13583 net.cpp:408] conv3_3 -> conv3_3
I1015 21:48:49.570922 13583 net.cpp:150] Setting up conv3_3
I1015 21:48:49.570943 13583 net.cpp:157] Top shape: 3 256 192 192 (28311552)
I1015 21:48:49.570946 13583 net.cpp:165] Memory required for data: 3515889052
I1015 21:48:49.570955 13583 layer_factory.hpp:77] Creating layer relu3_3
I1015 21:48:49.570963 13583 net.cpp:100] Creating Layer relu3_3
I1015 21:48:49.570968 13583 net.cpp:434] relu3_3 <- conv3_3
I1015 21:48:49.570974 13583 net.cpp:395] relu3_3 -> conv3_3 (in-place)
I1015 21:48:49.571125 13583 net.cpp:150] Setting up relu3_3
I1015 21:48:49.571131 13583 net.cpp:157] Top shape: 3 256 192 192 (28311552)
I1015 21:48:49.571135 13583 net.cpp:165] Memory required for data: 3629135260
I1015 21:48:49.571138 13583 layer_factory.hpp:77] Creating layer pool3
I1015 21:48:49.571146 13583 net.cpp:100] Creating Layer pool3
I1015 21:48:49.571148 13583 net.cpp:434] pool3 <- conv3_3
I1015 21:48:49.571153 13583 net.cpp:408] pool3 -> pool3
I1015 21:48:49.571189 13583 net.cpp:150] Setting up pool3
I1015 21:48:49.571197 13583 net.cpp:157] Top shape: 3 256 96 96 (7077888)
I1015 21:48:49.571199 13583 net.cpp:165] Memory required for data: 3657446812
I1015 21:48:49.571203 13583 layer_factory.hpp:77] Creating layer conv4_1
I1015 21:48:49.571211 13583 net.cpp:100] Creating Layer conv4_1
I1015 21:48:49.571214 13583 net.cpp:434] conv4_1 <- pool3
I1015 21:48:49.571220 13583 net.cpp:408] conv4_1 -> conv4_1
I1015 21:48:49.578891 13583 net.cpp:150] Setting up conv4_1
I1015 21:48:49.578914 13583 net.cpp:157] Top shape: 3 512 96 96 (14155776)
I1015 21:48:49.578917 13583 net.cpp:165] Memory required for data: 3714069916
I1015 21:48:49.578928 13583 layer_factory.hpp:77] Creating layer relu4_1
I1015 21:48:49.578938 13583 net.cpp:100] Creating Layer relu4_1
I1015 21:48:49.578944 13583 net.cpp:434] relu4_1 <- conv4_1
I1015 21:48:49.578950 13583 net.cpp:395] relu4_1 -> conv4_1 (in-place)
I1015 21:48:49.579113 13583 net.cpp:150] Setting up relu4_1
I1015 21:48:49.579121 13583 net.cpp:157] Top shape: 3 512 96 96 (14155776)
I1015 21:48:49.579125 13583 net.cpp:165] Memory required for data: 3770693020
I1015 21:48:49.579128 13583 layer_factory.hpp:77] Creating layer conv4_2
I1015 21:48:49.579138 13583 net.cpp:100] Creating Layer conv4_2
I1015 21:48:49.579141 13583 net.cpp:434] conv4_2 <- conv4_1
I1015 21:48:49.579149 13583 net.cpp:408] conv4_2 -> conv4_2
I1015 21:48:49.585084 13583 net.cpp:150] Setting up conv4_2
I1015 21:48:49.585114 13583 net.cpp:157] Top shape: 3 512 96 96 (14155776)
I1015 21:48:49.585117 13583 net.cpp:165] Memory required for data: 3827316124
I1015 21:48:49.585132 13583 layer_factory.hpp:77] Creating layer relu4_2
I1015 21:48:49.585144 13583 net.cpp:100] Creating Layer relu4_2
I1015 21:48:49.585148 13583 net.cpp:434] relu4_2 <- conv4_2
I1015 21:48:49.585162 13583 net.cpp:395] relu4_2 -> conv4_2 (in-place)
I1015 21:48:49.585322 13583 net.cpp:150] Setting up relu4_2
I1015 21:48:49.585331 13583 net.cpp:157] Top shape: 3 512 96 96 (14155776)
I1015 21:48:49.585335 13583 net.cpp:165] Memory required for data: 3883939228
I1015 21:48:49.585338 13583 layer_factory.hpp:77] Creating layer conv4_3
I1015 21:48:49.585348 13583 net.cpp:100] Creating Layer conv4_3
I1015 21:48:49.585352 13583 net.cpp:434] conv4_3 <- conv4_2
I1015 21:48:49.585357 13583 net.cpp:408] conv4_3 -> conv4_3
I1015 21:48:49.592767 13583 net.cpp:150] Setting up conv4_3
I1015 21:48:49.592810 13583 net.cpp:157] Top shape: 3 512 96 96 (14155776)
I1015 21:48:49.592820 13583 net.cpp:165] Memory required for data: 3940562332
I1015 21:48:49.592838 13583 layer_factory.hpp:77] Creating layer relu4_3
I1015 21:48:49.592862 13583 net.cpp:100] Creating Layer relu4_3
I1015 21:48:49.592877 13583 net.cpp:434] relu4_3 <- conv4_3
I1015 21:48:49.592896 13583 net.cpp:395] relu4_3 -> conv4_3 (in-place)
I1015 21:48:49.593255 13583 net.cpp:150] Setting up relu4_3
I1015 21:48:49.593276 13583 net.cpp:157] Top shape: 3 512 96 96 (14155776)
I1015 21:48:49.593286 13583 net.cpp:165] Memory required for data: 3997185436
I1015 21:48:49.593300 13583 layer_factory.hpp:77] Creating layer conv4_3_relu4_3_0_split
I1015 21:48:49.593327 13583 net.cpp:100] Creating Layer conv4_3_relu4_3_0_split
I1015 21:48:49.593338 13583 net.cpp:434] conv4_3_relu4_3_0_split <- conv4_3
I1015 21:48:49.593353 13583 net.cpp:408] conv4_3_relu4_3_0_split -> conv4_3_relu4_3_0_split_0
I1015 21:48:49.593379 13583 net.cpp:408] conv4_3_relu4_3_0_split -> conv4_3_relu4_3_0_split_1
I1015 21:48:49.593397 13583 net.cpp:408] conv4_3_relu4_3_0_split -> conv4_3_relu4_3_0_split_2
I1015 21:48:49.593417 13583 net.cpp:408] conv4_3_relu4_3_0_split -> conv4_3_relu4_3_0_split_3
I1015 21:48:49.593561 13583 net.cpp:150] Setting up conv4_3_relu4_3_0_split
I1015 21:48:49.593578 13583 net.cpp:157] Top shape: 3 512 96 96 (14155776)
I1015 21:48:49.593595 13583 net.cpp:157] Top shape: 3 512 96 96 (14155776)
I1015 21:48:49.593610 13583 net.cpp:157] Top shape: 3 512 96 96 (14155776)
I1015 21:48:49.593623 13583 net.cpp:157] Top shape: 3 512 96 96 (14155776)
I1015 21:48:49.593633 13583 net.cpp:165] Memory required for data: 4223677852
I1015 21:48:49.593647 13583 layer_factory.hpp:77] Creating layer buffer
I1015 21:48:49.593677 13583 net.cpp:100] Creating Layer buffer
I1015 21:48:49.593689 13583 net.cpp:434] buffer <- conv4_3_relu4_3_0_split_0
I1015 21:48:49.593708 13583 net.cpp:408] buffer -> buffer
I1015 21:48:49.659574 13583 net.cpp:150] Setting up buffer
I1015 21:48:49.659600 13583 net.cpp:157] Top shape: 3 512 96 96 (14155776)
I1015 21:48:49.659602 13583 net.cpp:165] Memory required for data: 4280300956
I1015 21:48:49.659610 13583 layer_factory.hpp:77] Creating layer relu_buffer
I1015 21:48:49.659621 13583 net.cpp:100] Creating Layer relu_buffer
I1015 21:48:49.659626 13583 net.cpp:434] relu_buffer <- buffer
I1015 21:48:49.659632 13583 net.cpp:395] relu_buffer -> buffer (in-place)
I1015 21:48:49.660061 13583 net.cpp:150] Setting up relu_buffer
I1015 21:48:49.660074 13583 net.cpp:157] Top shape: 3 512 96 96 (14155776)
I1015 21:48:49.660078 13583 net.cpp:165] Memory required for data: 4336924060
I1015 21:48:49.660081 13583 layer_factory.hpp:77] Creating layer attention
I1015 21:48:49.660091 13583 net.cpp:100] Creating Layer attention
I1015 21:48:49.660095 13583 net.cpp:434] attention <- buffer
I1015 21:48:49.660101 13583 net.cpp:408] attention -> attention
I1015 21:48:49.661084 13583 net.cpp:150] Setting up attention
I1015 21:48:49.661098 13583 net.cpp:157] Top shape: 3 3 96 96 (82944)
I1015 21:48:49.661100 13583 net.cpp:165] Memory required for data: 4337255836
I1015 21:48:49.661108 13583 layer_factory.hpp:77] Creating layer relu_attention
I1015 21:48:49.661114 13583 net.cpp:100] Creating Layer relu_attention
I1015 21:48:49.661118 13583 net.cpp:434] relu_attention <- attention
I1015 21:48:49.661124 13583 net.cpp:408] relu_attention -> relu_attention
I1015 21:48:49.661625 13583 net.cpp:150] Setting up relu_attention
I1015 21:48:49.661638 13583 net.cpp:157] Top shape: 3 3 96 96 (82944)
I1015 21:48:49.661641 13583 net.cpp:165] Memory required for data: 4337587612
I1015 21:48:49.661645 13583 layer_factory.hpp:77] Creating layer relu_attention_relu_attention_0_split
I1015 21:48:49.661650 13583 net.cpp:100] Creating Layer relu_attention_relu_attention_0_split
I1015 21:48:49.661655 13583 net.cpp:434] relu_attention_relu_attention_0_split <- relu_attention
I1015 21:48:49.661662 13583 net.cpp:408] relu_attention_relu_attention_0_split -> relu_attention_relu_attention_0_split_0
I1015 21:48:49.661674 13583 net.cpp:408] relu_attention_relu_attention_0_split -> relu_attention_relu_attention_0_split_1
I1015 21:48:49.661713 13583 net.cpp:150] Setting up relu_attention_relu_attention_0_split
I1015 21:48:49.661721 13583 net.cpp:157] Top shape: 3 3 96 96 (82944)
I1015 21:48:49.661725 13583 net.cpp:157] Top shape: 3 3 96 96 (82944)
I1015 21:48:49.661729 13583 net.cpp:165] Memory required for data: 4338251164
I1015 21:48:49.661734 13583 layer_factory.hpp:77] Creating layer ch4_pool
I1015 21:48:49.661743 13583 net.cpp:100] Creating Layer ch4_pool
I1015 21:48:49.661749 13583 net.cpp:434] ch4_pool <- ch4
I1015 21:48:49.661756 13583 net.cpp:408] ch4_pool -> ch4_pool
I1015 21:48:49.661794 13583 net.cpp:150] Setting up ch4_pool
I1015 21:48:49.661801 13583 net.cpp:157] Top shape: 3 1 96 96 (27648)
I1015 21:48:49.661804 13583 net.cpp:165] Memory required for data: 4338361756
I1015 21:48:49.661808 13583 layer_factory.hpp:77] Creating layer loss_attention
I1015 21:48:49.661815 13583 net.cpp:100] Creating Layer loss_attention
I1015 21:48:49.661820 13583 net.cpp:434] loss_attention <- relu_attention_relu_attention_0_split_0
I1015 21:48:49.661825 13583 net.cpp:434] loss_attention <- ch4_pool
I1015 21:48:49.661831 13583 net.cpp:408] loss_attention -> loss_attention
I1015 21:48:49.661842 13583 layer_factory.hpp:77] Creating layer loss_attention
I1015 21:48:49.662125 13583 net.cpp:150] Setting up loss_attention
I1015 21:48:49.662135 13583 net.cpp:157] Top shape: (1)
I1015 21:48:49.662138 13583 net.cpp:160]     with loss weight 1
I1015 21:48:49.662161 13583 net.cpp:165] Memory required for data: 4338361760
I1015 21:48:49.662165 13583 layer_factory.hpp:77] Creating layer loss1_conv1
I1015 21:48:49.662178 13583 net.cpp:100] Creating Layer loss1_conv1
I1015 21:48:49.662185 13583 net.cpp:434] loss1_conv1 <- conv4_3_relu4_3_0_split_1
I1015 21:48:49.662194 13583 net.cpp:408] loss1_conv1 -> loss1_conv1
I1015 21:48:49.721330 13583 net.cpp:150] Setting up loss1_conv1
I1015 21:48:49.721355 13583 net.cpp:157] Top shape: 3 512 96 96 (14155776)
I1015 21:48:49.721359 13583 net.cpp:165] Memory required for data: 4394984864
I1015 21:48:49.721366 13583 layer_factory.hpp:77] Creating layer loss_relu1
I1015 21:48:49.721377 13583 net.cpp:100] Creating Layer loss_relu1
I1015 21:48:49.721382 13583 net.cpp:434] loss_relu1 <- loss1_conv1
I1015 21:48:49.721387 13583 net.cpp:395] loss_relu1 -> loss1_conv1 (in-place)
I1015 21:48:49.721539 13583 net.cpp:150] Setting up loss_relu1
I1015 21:48:49.721547 13583 net.cpp:157] Top shape: 3 512 96 96 (14155776)
I1015 21:48:49.721551 13583 net.cpp:165] Memory required for data: 4451607968
I1015 21:48:49.721554 13583 layer_factory.hpp:77] Creating layer loss1_conv1_loss_relu1_0_split
I1015 21:48:49.721561 13583 net.cpp:100] Creating Layer loss1_conv1_loss_relu1_0_split
I1015 21:48:49.721565 13583 net.cpp:434] loss1_conv1_loss_relu1_0_split <- loss1_conv1
I1015 21:48:49.721570 13583 net.cpp:408] loss1_conv1_loss_relu1_0_split -> loss1_conv1_loss_relu1_0_split_0
I1015 21:48:49.721578 13583 net.cpp:408] loss1_conv1_loss_relu1_0_split -> loss1_conv1_loss_relu1_0_split_1
I1015 21:48:49.721612 13583 net.cpp:150] Setting up loss1_conv1_loss_relu1_0_split
I1015 21:48:49.721619 13583 net.cpp:157] Top shape: 3 512 96 96 (14155776)
I1015 21:48:49.721623 13583 net.cpp:157] Top shape: 3 512 96 96 (14155776)
I1015 21:48:49.721626 13583 net.cpp:165] Memory required for data: 4564854176
I1015 21:48:49.721629 13583 layer_factory.hpp:77] Creating layer LFCN_1_5x5
I1015 21:48:49.721642 13583 net.cpp:100] Creating Layer LFCN_1_5x5
I1015 21:48:49.721647 13583 net.cpp:434] LFCN_1_5x5 <- loss1_conv1_loss_relu1_0_split_0
I1015 21:48:49.721658 13583 net.cpp:408] LFCN_1_5x5 -> LFCN_1_5x5
I1015 21:48:49.725927 13583 net.cpp:150] Setting up LFCN_1_5x5
I1015 21:48:49.725939 13583 net.cpp:157] Top shape: 3 9 96 96 (248832)
I1015 21:48:49.725941 13583 net.cpp:165] Memory required for data: 4565849504
I1015 21:48:49.725946 13583 layer_factory.hpp:77] Creating layer LFCN_1_5x5_LFCN_1_5x5_0_split
I1015 21:48:49.725951 13583 net.cpp:100] Creating Layer LFCN_1_5x5_LFCN_1_5x5_0_split
I1015 21:48:49.725955 13583 net.cpp:434] LFCN_1_5x5_LFCN_1_5x5_0_split <- LFCN_1_5x5
I1015 21:48:49.725960 13583 net.cpp:408] LFCN_1_5x5_LFCN_1_5x5_0_split -> LFCN_1_5x5_LFCN_1_5x5_0_split_0
I1015 21:48:49.725965 13583 net.cpp:408] LFCN_1_5x5_LFCN_1_5x5_0_split -> LFCN_1_5x5_LFCN_1_5x5_0_split_1
I1015 21:48:49.725970 13583 net.cpp:408] LFCN_1_5x5_LFCN_1_5x5_0_split -> LFCN_1_5x5_LFCN_1_5x5_0_split_2
I1015 21:48:49.726018 13583 net.cpp:150] Setting up LFCN_1_5x5_LFCN_1_5x5_0_split
I1015 21:48:49.726025 13583 net.cpp:157] Top shape: 3 9 96 96 (248832)
I1015 21:48:49.726029 13583 net.cpp:157] Top shape: 3 9 96 96 (248832)
I1015 21:48:49.726033 13583 net.cpp:157] Top shape: 3 9 96 96 (248832)
I1015 21:48:49.726037 13583 net.cpp:165] Memory required for data: 4568835488
I1015 21:48:49.726040 13583 layer_factory.hpp:77] Creating layer detection_loss_1_5x5
I1015 21:48:49.726049 13583 net.cpp:100] Creating Layer detection_loss_1_5x5
I1015 21:48:49.726054 13583 net.cpp:434] detection_loss_1_5x5 <- LFCN_1_5x5_LFCN_1_5x5_0_split_0
I1015 21:48:49.726059 13583 net.cpp:434] detection_loss_1_5x5 <- label_1_5x5_data_1_split_0
I1015 21:48:49.726065 13583 net.cpp:408] detection_loss_1_5x5 -> loss_1_5x5
I1015 21:48:49.726080 13583 layer_factory.hpp:77] Creating layer detection_loss_1_5x5
I1015 21:48:49.727241 13583 net.cpp:150] Setting up detection_loss_1_5x5
I1015 21:48:49.727252 13583 net.cpp:157] Top shape: 1 1 1 2 (2)
I1015 21:48:49.727257 13583 net.cpp:160]     with loss weight 0.9
I1015 21:48:49.727267 13583 net.cpp:165] Memory required for data: 4568835496
I1015 21:48:49.727270 13583 layer_factory.hpp:77] Creating layer detection_accuracy_1_5x5
I1015 21:48:49.727277 13583 net.cpp:100] Creating Layer detection_accuracy_1_5x5
I1015 21:48:49.727282 13583 net.cpp:434] detection_accuracy_1_5x5 <- LFCN_1_5x5_LFCN_1_5x5_0_split_1
I1015 21:48:49.727286 13583 net.cpp:434] detection_accuracy_1_5x5 <- label_1_5x5_data_1_split_1
I1015 21:48:49.727293 13583 net.cpp:408] detection_accuracy_1_5x5 -> accuracy_1_5x5
I1015 21:48:49.727301 13583 net.cpp:408] detection_accuracy_1_5x5 -> boxiou_1_5x5
I1015 21:48:49.727339 13583 net.cpp:150] Setting up detection_accuracy_1_5x5
I1015 21:48:49.727345 13583 net.cpp:157] Top shape: 1 1 1 2 (2)
I1015 21:48:49.727349 13583 net.cpp:157] Top shape: 1 1 1 1 (1)
I1015 21:48:49.727353 13583 net.cpp:165] Memory required for data: 4568835508
I1015 21:48:49.727357 13583 layer_factory.hpp:77] Creating layer LFCN_1_7x7
I1015 21:48:49.727367 13583 net.cpp:100] Creating Layer LFCN_1_7x7
I1015 21:48:49.727372 13583 net.cpp:434] LFCN_1_7x7 <- loss1_conv1_loss_relu1_0_split_1
I1015 21:48:49.727380 13583 net.cpp:408] LFCN_1_7x7 -> LFCN_1_7x7
I1015 21:48:49.733695 13583 net.cpp:150] Setting up LFCN_1_7x7
I1015 21:48:49.733711 13583 net.cpp:157] Top shape: 3 9 96 96 (248832)
I1015 21:48:49.733716 13583 net.cpp:165] Memory required for data: 4569830836
I1015 21:48:49.733721 13583 layer_factory.hpp:77] Creating layer LFCN_1_7x7_LFCN_1_7x7_0_split
I1015 21:48:49.733729 13583 net.cpp:100] Creating Layer LFCN_1_7x7_LFCN_1_7x7_0_split
I1015 21:48:49.733733 13583 net.cpp:434] LFCN_1_7x7_LFCN_1_7x7_0_split <- LFCN_1_7x7
I1015 21:48:49.733738 13583 net.cpp:408] LFCN_1_7x7_LFCN_1_7x7_0_split -> LFCN_1_7x7_LFCN_1_7x7_0_split_0
I1015 21:48:49.733747 13583 net.cpp:408] LFCN_1_7x7_LFCN_1_7x7_0_split -> LFCN_1_7x7_LFCN_1_7x7_0_split_1
I1015 21:48:49.733752 13583 net.cpp:408] LFCN_1_7x7_LFCN_1_7x7_0_split -> LFCN_1_7x7_LFCN_1_7x7_0_split_2
I1015 21:48:49.733798 13583 net.cpp:150] Setting up LFCN_1_7x7_LFCN_1_7x7_0_split
I1015 21:48:49.733803 13583 net.cpp:157] Top shape: 3 9 96 96 (248832)
I1015 21:48:49.733808 13583 net.cpp:157] Top shape: 3 9 96 96 (248832)
I1015 21:48:49.733811 13583 net.cpp:157] Top shape: 3 9 96 96 (248832)
I1015 21:48:49.733814 13583 net.cpp:165] Memory required for data: 4572816820
I1015 21:48:49.733817 13583 layer_factory.hpp:77] Creating layer detection_loss_1_7x7
I1015 21:48:49.733824 13583 net.cpp:100] Creating Layer detection_loss_1_7x7
I1015 21:48:49.733827 13583 net.cpp:434] detection_loss_1_7x7 <- LFCN_1_7x7_LFCN_1_7x7_0_split_0
I1015 21:48:49.733832 13583 net.cpp:434] detection_loss_1_7x7 <- label_1_7x7_data_2_split_0
I1015 21:48:49.733837 13583 net.cpp:408] detection_loss_1_7x7 -> loss_1_7x7
I1015 21:48:49.733844 13583 layer_factory.hpp:77] Creating layer detection_loss_1_7x7
I1015 21:48:49.734514 13583 net.cpp:150] Setting up detection_loss_1_7x7
I1015 21:48:49.734529 13583 net.cpp:157] Top shape: 1 1 1 2 (2)
I1015 21:48:49.734531 13583 net.cpp:160]     with loss weight 0.9
I1015 21:48:49.734539 13583 net.cpp:165] Memory required for data: 4572816828
I1015 21:48:49.734541 13583 layer_factory.hpp:77] Creating layer detection_accuracy_1_7x7
I1015 21:48:49.734549 13583 net.cpp:100] Creating Layer detection_accuracy_1_7x7
I1015 21:48:49.734552 13583 net.cpp:434] detection_accuracy_1_7x7 <- LFCN_1_7x7_LFCN_1_7x7_0_split_1
I1015 21:48:49.734557 13583 net.cpp:434] detection_accuracy_1_7x7 <- label_1_7x7_data_2_split_1
I1015 21:48:49.734563 13583 net.cpp:408] detection_accuracy_1_7x7 -> accuracy_1_7x7
I1015 21:48:49.734575 13583 net.cpp:408] detection_accuracy_1_7x7 -> boxiou_1_7x7
I1015 21:48:49.734607 13583 net.cpp:150] Setting up detection_accuracy_1_7x7
I1015 21:48:49.734613 13583 net.cpp:157] Top shape: 1 1 1 2 (2)
I1015 21:48:49.734617 13583 net.cpp:157] Top shape: 1 1 1 1 (1)
I1015 21:48:49.734621 13583 net.cpp:165] Memory required for data: 4572816840
I1015 21:48:49.734623 13583 layer_factory.hpp:77] Creating layer pool4
I1015 21:48:49.734629 13583 net.cpp:100] Creating Layer pool4
I1015 21:48:49.734632 13583 net.cpp:434] pool4 <- conv4_3_relu4_3_0_split_2
I1015 21:48:49.734637 13583 net.cpp:408] pool4 -> pool4
I1015 21:48:49.734668 13583 net.cpp:150] Setting up pool4
I1015 21:48:49.734673 13583 net.cpp:157] Top shape: 3 512 48 48 (3538944)
I1015 21:48:49.734676 13583 net.cpp:165] Memory required for data: 4586972616
I1015 21:48:49.734679 13583 layer_factory.hpp:77] Creating layer conv5_1
I1015 21:48:49.734686 13583 net.cpp:100] Creating Layer conv5_1
I1015 21:48:49.734690 13583 net.cpp:434] conv5_1 <- pool4
I1015 21:48:49.734695 13583 net.cpp:408] conv5_1 -> conv5_1
I1015 21:48:49.740123 13583 net.cpp:150] Setting up conv5_1
I1015 21:48:49.740159 13583 net.cpp:157] Top shape: 3 512 48 48 (3538944)
I1015 21:48:49.740162 13583 net.cpp:165] Memory required for data: 4601128392
I1015 21:48:49.740170 13583 layer_factory.hpp:77] Creating layer relu5_1
I1015 21:48:49.740180 13583 net.cpp:100] Creating Layer relu5_1
I1015 21:48:49.740188 13583 net.cpp:434] relu5_1 <- conv5_1
I1015 21:48:49.740195 13583 net.cpp:395] relu5_1 -> conv5_1 (in-place)
I1015 21:48:49.740795 13583 net.cpp:150] Setting up relu5_1
I1015 21:48:49.740808 13583 net.cpp:157] Top shape: 3 512 48 48 (3538944)
I1015 21:48:49.740811 13583 net.cpp:165] Memory required for data: 4615284168
I1015 21:48:49.740815 13583 layer_factory.hpp:77] Creating layer conv5_2
I1015 21:48:49.740825 13583 net.cpp:100] Creating Layer conv5_2
I1015 21:48:49.740829 13583 net.cpp:434] conv5_2 <- conv5_1
I1015 21:48:49.740836 13583 net.cpp:408] conv5_2 -> conv5_2
I1015 21:48:49.746552 13583 net.cpp:150] Setting up conv5_2
I1015 21:48:49.746582 13583 net.cpp:157] Top shape: 3 512 48 48 (3538944)
I1015 21:48:49.746585 13583 net.cpp:165] Memory required for data: 4629439944
I1015 21:48:49.746603 13583 layer_factory.hpp:77] Creating layer relu5_2
I1015 21:48:49.746615 13583 net.cpp:100] Creating Layer relu5_2
I1015 21:48:49.746623 13583 net.cpp:434] relu5_2 <- conv5_2
I1015 21:48:49.746630 13583 net.cpp:395] relu5_2 -> conv5_2 (in-place)
I1015 21:48:49.746785 13583 net.cpp:150] Setting up relu5_2
I1015 21:48:49.746795 13583 net.cpp:157] Top shape: 3 512 48 48 (3538944)
I1015 21:48:49.746798 13583 net.cpp:165] Memory required for data: 4643595720
I1015 21:48:49.746803 13583 layer_factory.hpp:77] Creating layer conv5_3
I1015 21:48:49.746811 13583 net.cpp:100] Creating Layer conv5_3
I1015 21:48:49.746815 13583 net.cpp:434] conv5_3 <- conv5_2
I1015 21:48:49.746824 13583 net.cpp:408] conv5_3 -> conv5_3
I1015 21:48:49.752885 13583 net.cpp:150] Setting up conv5_3
I1015 21:48:49.752914 13583 net.cpp:157] Top shape: 3 512 48 48 (3538944)
I1015 21:48:49.752918 13583 net.cpp:165] Memory required for data: 4657751496
I1015 21:48:49.752929 13583 layer_factory.hpp:77] Creating layer relu5_3
I1015 21:48:49.752945 13583 net.cpp:100] Creating Layer relu5_3
I1015 21:48:49.752954 13583 net.cpp:434] relu5_3 <- conv5_3
I1015 21:48:49.752961 13583 net.cpp:395] relu5_3 -> conv5_3 (in-place)
I1015 21:48:49.753129 13583 net.cpp:150] Setting up relu5_3
I1015 21:48:49.753139 13583 net.cpp:157] Top shape: 3 512 48 48 (3538944)
I1015 21:48:49.753144 13583 net.cpp:165] Memory required for data: 4671907272
I1015 21:48:49.753149 13583 layer_factory.hpp:77] Creating layer conv5_3_relu5_3_0_split
I1015 21:48:49.753156 13583 net.cpp:100] Creating Layer conv5_3_relu5_3_0_split
I1015 21:48:49.753161 13583 net.cpp:434] conv5_3_relu5_3_0_split <- conv5_3
I1015 21:48:49.753170 13583 net.cpp:408] conv5_3_relu5_3_0_split -> conv5_3_relu5_3_0_split_0
I1015 21:48:49.753178 13583 net.cpp:408] conv5_3_relu5_3_0_split -> conv5_3_relu5_3_0_split_1
I1015 21:48:49.753183 13583 net.cpp:408] conv5_3_relu5_3_0_split -> conv5_3_relu5_3_0_split_2
I1015 21:48:49.753233 13583 net.cpp:150] Setting up conv5_3_relu5_3_0_split
I1015 21:48:49.753240 13583 net.cpp:157] Top shape: 3 512 48 48 (3538944)
I1015 21:48:49.753244 13583 net.cpp:157] Top shape: 3 512 48 48 (3538944)
I1015 21:48:49.753250 13583 net.cpp:157] Top shape: 3 512 48 48 (3538944)
I1015 21:48:49.753254 13583 net.cpp:165] Memory required for data: 4714374600
I1015 21:48:49.753259 13583 layer_factory.hpp:77] Creating layer LFCN_2_5x5
I1015 21:48:49.753275 13583 net.cpp:100] Creating Layer LFCN_2_5x5
I1015 21:48:49.753280 13583 net.cpp:434] LFCN_2_5x5 <- conv5_3_relu5_3_0_split_0
I1015 21:48:49.753288 13583 net.cpp:408] LFCN_2_5x5 -> LFCN_2_5x5
I1015 21:48:49.758018 13583 net.cpp:150] Setting up LFCN_2_5x5
I1015 21:48:49.758034 13583 net.cpp:157] Top shape: 3 9 48 48 (62208)
I1015 21:48:49.758038 13583 net.cpp:165] Memory required for data: 4714623432
I1015 21:48:49.758045 13583 layer_factory.hpp:77] Creating layer LFCN_2_5x5_LFCN_2_5x5_0_split
I1015 21:48:49.758054 13583 net.cpp:100] Creating Layer LFCN_2_5x5_LFCN_2_5x5_0_split
I1015 21:48:49.758057 13583 net.cpp:434] LFCN_2_5x5_LFCN_2_5x5_0_split <- LFCN_2_5x5
I1015 21:48:49.758064 13583 net.cpp:408] LFCN_2_5x5_LFCN_2_5x5_0_split -> LFCN_2_5x5_LFCN_2_5x5_0_split_0
I1015 21:48:49.758072 13583 net.cpp:408] LFCN_2_5x5_LFCN_2_5x5_0_split -> LFCN_2_5x5_LFCN_2_5x5_0_split_1
I1015 21:48:49.758081 13583 net.cpp:408] LFCN_2_5x5_LFCN_2_5x5_0_split -> LFCN_2_5x5_LFCN_2_5x5_0_split_2
I1015 21:48:49.758134 13583 net.cpp:150] Setting up LFCN_2_5x5_LFCN_2_5x5_0_split
I1015 21:48:49.758142 13583 net.cpp:157] Top shape: 3 9 48 48 (62208)
I1015 21:48:49.758147 13583 net.cpp:157] Top shape: 3 9 48 48 (62208)
I1015 21:48:49.758154 13583 net.cpp:157] Top shape: 3 9 48 48 (62208)
I1015 21:48:49.758158 13583 net.cpp:165] Memory required for data: 4715369928
I1015 21:48:49.758163 13583 layer_factory.hpp:77] Creating layer detection_loss_2_5x5
I1015 21:48:49.758174 13583 net.cpp:100] Creating Layer detection_loss_2_5x5
I1015 21:48:49.758180 13583 net.cpp:434] detection_loss_2_5x5 <- LFCN_2_5x5_LFCN_2_5x5_0_split_0
I1015 21:48:49.758185 13583 net.cpp:434] detection_loss_2_5x5 <- label_2_5x5_data_3_split_0
I1015 21:48:49.758194 13583 net.cpp:408] detection_loss_2_5x5 -> loss_2_5x5
I1015 21:48:49.758204 13583 layer_factory.hpp:77] Creating layer detection_loss_2_5x5
I1015 21:48:49.758528 13583 net.cpp:150] Setting up detection_loss_2_5x5
I1015 21:48:49.758538 13583 net.cpp:157] Top shape: 1 1 1 2 (2)
I1015 21:48:49.758543 13583 net.cpp:160]     with loss weight 1
I1015 21:48:49.758554 13583 net.cpp:165] Memory required for data: 4715369936
I1015 21:48:49.758558 13583 layer_factory.hpp:77] Creating layer detection_accuracy_2_5x5
I1015 21:48:49.758568 13583 net.cpp:100] Creating Layer detection_accuracy_2_5x5
I1015 21:48:49.758574 13583 net.cpp:434] detection_accuracy_2_5x5 <- LFCN_2_5x5_LFCN_2_5x5_0_split_1
I1015 21:48:49.758579 13583 net.cpp:434] detection_accuracy_2_5x5 <- label_2_5x5_data_3_split_1
I1015 21:48:49.758587 13583 net.cpp:408] detection_accuracy_2_5x5 -> accuracy_2_5x5
I1015 21:48:49.758595 13583 net.cpp:408] detection_accuracy_2_5x5 -> boxiou_2_5x5
I1015 21:48:49.758637 13583 net.cpp:150] Setting up detection_accuracy_2_5x5
I1015 21:48:49.758644 13583 net.cpp:157] Top shape: 1 1 1 2 (2)
I1015 21:48:49.758649 13583 net.cpp:157] Top shape: 1 1 1 1 (1)
I1015 21:48:49.758653 13583 net.cpp:165] Memory required for data: 4715369948
I1015 21:48:49.758658 13583 layer_factory.hpp:77] Creating layer LFCN_2_7x7
I1015 21:48:49.758669 13583 net.cpp:100] Creating Layer LFCN_2_7x7
I1015 21:48:49.758675 13583 net.cpp:434] LFCN_2_7x7 <- conv5_3_relu5_3_0_split_1
I1015 21:48:49.758683 13583 net.cpp:408] LFCN_2_7x7 -> LFCN_2_7x7
I1015 21:48:49.765017 13583 net.cpp:150] Setting up LFCN_2_7x7
I1015 21:48:49.765030 13583 net.cpp:157] Top shape: 3 9 48 48 (62208)
I1015 21:48:49.765035 13583 net.cpp:165] Memory required for data: 4715618780
I1015 21:48:49.765041 13583 layer_factory.hpp:77] Creating layer LFCN_2_7x7_LFCN_2_7x7_0_split
I1015 21:48:49.765056 13583 net.cpp:100] Creating Layer LFCN_2_7x7_LFCN_2_7x7_0_split
I1015 21:48:49.765061 13583 net.cpp:434] LFCN_2_7x7_LFCN_2_7x7_0_split <- LFCN_2_7x7
I1015 21:48:49.765067 13583 net.cpp:408] LFCN_2_7x7_LFCN_2_7x7_0_split -> LFCN_2_7x7_LFCN_2_7x7_0_split_0
I1015 21:48:49.765076 13583 net.cpp:408] LFCN_2_7x7_LFCN_2_7x7_0_split -> LFCN_2_7x7_LFCN_2_7x7_0_split_1
I1015 21:48:49.765084 13583 net.cpp:408] LFCN_2_7x7_LFCN_2_7x7_0_split -> LFCN_2_7x7_LFCN_2_7x7_0_split_2
I1015 21:48:49.765133 13583 net.cpp:150] Setting up LFCN_2_7x7_LFCN_2_7x7_0_split
I1015 21:48:49.765141 13583 net.cpp:157] Top shape: 3 9 48 48 (62208)
I1015 21:48:49.765146 13583 net.cpp:157] Top shape: 3 9 48 48 (62208)
I1015 21:48:49.765151 13583 net.cpp:157] Top shape: 3 9 48 48 (62208)
I1015 21:48:49.765156 13583 net.cpp:165] Memory required for data: 4716365276
I1015 21:48:49.765161 13583 layer_factory.hpp:77] Creating layer detection_loss_2_7x7
I1015 21:48:49.765170 13583 net.cpp:100] Creating Layer detection_loss_2_7x7
I1015 21:48:49.765177 13583 net.cpp:434] detection_loss_2_7x7 <- LFCN_2_7x7_LFCN_2_7x7_0_split_0
I1015 21:48:49.765182 13583 net.cpp:434] detection_loss_2_7x7 <- label_2_7x7_data_4_split_0
I1015 21:48:49.765187 13583 net.cpp:408] detection_loss_2_7x7 -> loss_2_7x7
I1015 21:48:49.765197 13583 layer_factory.hpp:77] Creating layer detection_loss_2_7x7
I1015 21:48:49.765518 13583 net.cpp:150] Setting up detection_loss_2_7x7
I1015 21:48:49.765529 13583 net.cpp:157] Top shape: 1 1 1 2 (2)
I1015 21:48:49.765533 13583 net.cpp:160]     with loss weight 1
I1015 21:48:49.765540 13583 net.cpp:165] Memory required for data: 4716365284
I1015 21:48:49.765544 13583 layer_factory.hpp:77] Creating layer detection_accuracy_2_7x7
I1015 21:48:49.765552 13583 net.cpp:100] Creating Layer detection_accuracy_2_7x7
I1015 21:48:49.765556 13583 net.cpp:434] detection_accuracy_2_7x7 <- LFCN_2_7x7_LFCN_2_7x7_0_split_1
I1015 21:48:49.765563 13583 net.cpp:434] detection_accuracy_2_7x7 <- label_2_7x7_data_4_split_1
I1015 21:48:49.765571 13583 net.cpp:408] detection_accuracy_2_7x7 -> accuracy_2_7x7
I1015 21:48:49.765580 13583 net.cpp:408] detection_accuracy_2_7x7 -> boxiou_2_7x7
I1015 21:48:49.765621 13583 net.cpp:150] Setting up detection_accuracy_2_7x7
I1015 21:48:49.765628 13583 net.cpp:157] Top shape: 1 1 1 2 (2)
I1015 21:48:49.765633 13583 net.cpp:157] Top shape: 1 1 1 1 (1)
I1015 21:48:49.765637 13583 net.cpp:165] Memory required for data: 4716365296
I1015 21:48:49.765642 13583 layer_factory.hpp:77] Creating layer pool5
I1015 21:48:49.765652 13583 net.cpp:100] Creating Layer pool5
I1015 21:48:49.765660 13583 net.cpp:434] pool5 <- conv5_3_relu5_3_0_split_2
I1015 21:48:49.765666 13583 net.cpp:408] pool5 -> pool5
I1015 21:48:49.765707 13583 net.cpp:150] Setting up pool5
I1015 21:48:49.765713 13583 net.cpp:157] Top shape: 3 512 24 24 (884736)
I1015 21:48:49.765717 13583 net.cpp:165] Memory required for data: 4719904240
I1015 21:48:49.765722 13583 layer_factory.hpp:77] Creating layer conv6_1
I1015 21:48:49.765734 13583 net.cpp:100] Creating Layer conv6_1
I1015 21:48:49.765743 13583 net.cpp:434] conv6_1 <- pool5
I1015 21:48:49.765753 13583 net.cpp:408] conv6_1 -> conv6_1
I1015 21:48:49.825992 13583 net.cpp:150] Setting up conv6_1
I1015 21:48:49.826020 13583 net.cpp:157] Top shape: 3 512 24 24 (884736)
I1015 21:48:49.826025 13583 net.cpp:165] Memory required for data: 4723443184
I1015 21:48:49.826033 13583 layer_factory.hpp:77] Creating layer relu6_1
I1015 21:48:49.826045 13583 net.cpp:100] Creating Layer relu6_1
I1015 21:48:49.826051 13583 net.cpp:434] relu6_1 <- conv6_1
I1015 21:48:49.826061 13583 net.cpp:395] relu6_1 -> conv6_1 (in-place)
I1015 21:48:49.826539 13583 net.cpp:150] Setting up relu6_1
I1015 21:48:49.826551 13583 net.cpp:157] Top shape: 3 512 24 24 (884736)
I1015 21:48:49.826555 13583 net.cpp:165] Memory required for data: 4726982128
I1015 21:48:49.826560 13583 layer_factory.hpp:77] Creating layer conv6_1_relu6_1_0_split
I1015 21:48:49.826568 13583 net.cpp:100] Creating Layer conv6_1_relu6_1_0_split
I1015 21:48:49.826573 13583 net.cpp:434] conv6_1_relu6_1_0_split <- conv6_1
I1015 21:48:49.826580 13583 net.cpp:408] conv6_1_relu6_1_0_split -> conv6_1_relu6_1_0_split_0
I1015 21:48:49.826586 13583 net.cpp:408] conv6_1_relu6_1_0_split -> conv6_1_relu6_1_0_split_1
I1015 21:48:49.826591 13583 net.cpp:408] conv6_1_relu6_1_0_split -> conv6_1_relu6_1_0_split_2
I1015 21:48:49.826644 13583 net.cpp:150] Setting up conv6_1_relu6_1_0_split
I1015 21:48:49.826651 13583 net.cpp:157] Top shape: 3 512 24 24 (884736)
I1015 21:48:49.826655 13583 net.cpp:157] Top shape: 3 512 24 24 (884736)
I1015 21:48:49.826660 13583 net.cpp:157] Top shape: 3 512 24 24 (884736)
I1015 21:48:49.826664 13583 net.cpp:165] Memory required for data: 4737598960
I1015 21:48:49.826668 13583 layer_factory.hpp:77] Creating layer LFCN_3_5x5
I1015 21:48:49.826683 13583 net.cpp:100] Creating Layer LFCN_3_5x5
I1015 21:48:49.826689 13583 net.cpp:434] LFCN_3_5x5 <- conv6_1_relu6_1_0_split_0
I1015 21:48:49.826696 13583 net.cpp:408] LFCN_3_5x5 -> LFCN_3_5x5
I1015 21:48:49.830663 13583 net.cpp:150] Setting up LFCN_3_5x5
I1015 21:48:49.830677 13583 net.cpp:157] Top shape: 3 9 24 24 (15552)
I1015 21:48:49.830680 13583 net.cpp:165] Memory required for data: 4737661168
I1015 21:48:49.830687 13583 layer_factory.hpp:77] Creating layer LFCN_3_5x5_LFCN_3_5x5_0_split
I1015 21:48:49.830693 13583 net.cpp:100] Creating Layer LFCN_3_5x5_LFCN_3_5x5_0_split
I1015 21:48:49.830695 13583 net.cpp:434] LFCN_3_5x5_LFCN_3_5x5_0_split <- LFCN_3_5x5
I1015 21:48:49.830700 13583 net.cpp:408] LFCN_3_5x5_LFCN_3_5x5_0_split -> LFCN_3_5x5_LFCN_3_5x5_0_split_0
I1015 21:48:49.830708 13583 net.cpp:408] LFCN_3_5x5_LFCN_3_5x5_0_split -> LFCN_3_5x5_LFCN_3_5x5_0_split_1
I1015 21:48:49.830713 13583 net.cpp:408] LFCN_3_5x5_LFCN_3_5x5_0_split -> LFCN_3_5x5_LFCN_3_5x5_0_split_2
I1015 21:48:49.830766 13583 net.cpp:150] Setting up LFCN_3_5x5_LFCN_3_5x5_0_split
I1015 21:48:49.830775 13583 net.cpp:157] Top shape: 3 9 24 24 (15552)
I1015 21:48:49.830780 13583 net.cpp:157] Top shape: 3 9 24 24 (15552)
I1015 21:48:49.830785 13583 net.cpp:157] Top shape: 3 9 24 24 (15552)
I1015 21:48:49.830788 13583 net.cpp:165] Memory required for data: 4737847792
I1015 21:48:49.830793 13583 layer_factory.hpp:77] Creating layer detection_loss_3_5x5
I1015 21:48:49.830801 13583 net.cpp:100] Creating Layer detection_loss_3_5x5
I1015 21:48:49.830803 13583 net.cpp:434] detection_loss_3_5x5 <- LFCN_3_5x5_LFCN_3_5x5_0_split_0
I1015 21:48:49.830808 13583 net.cpp:434] detection_loss_3_5x5 <- label_3_5x5_data_5_split_0
I1015 21:48:49.830818 13583 net.cpp:408] detection_loss_3_5x5 -> loss_3_5x5
I1015 21:48:49.830828 13583 layer_factory.hpp:77] Creating layer detection_loss_3_5x5
I1015 21:48:49.831449 13583 net.cpp:150] Setting up detection_loss_3_5x5
I1015 21:48:49.831462 13583 net.cpp:157] Top shape: 1 1 1 2 (2)
I1015 21:48:49.831465 13583 net.cpp:160]     with loss weight 1
I1015 21:48:49.831477 13583 net.cpp:165] Memory required for data: 4737847800
I1015 21:48:49.831483 13583 layer_factory.hpp:77] Creating layer detection_accuracy_3_5x5
I1015 21:48:49.831495 13583 net.cpp:100] Creating Layer detection_accuracy_3_5x5
I1015 21:48:49.831501 13583 net.cpp:434] detection_accuracy_3_5x5 <- LFCN_3_5x5_LFCN_3_5x5_0_split_1
I1015 21:48:49.831511 13583 net.cpp:434] detection_accuracy_3_5x5 <- label_3_5x5_data_5_split_1
I1015 21:48:49.831521 13583 net.cpp:408] detection_accuracy_3_5x5 -> accuracy_3_5x5
I1015 21:48:49.831533 13583 net.cpp:408] detection_accuracy_3_5x5 -> boxiou_3_5x5
I1015 21:48:49.831585 13583 net.cpp:150] Setting up detection_accuracy_3_5x5
I1015 21:48:49.831593 13583 net.cpp:157] Top shape: 1 1 1 2 (2)
I1015 21:48:49.831599 13583 net.cpp:157] Top shape: 1 1 1 1 (1)
I1015 21:48:49.831605 13583 net.cpp:165] Memory required for data: 4737847812
I1015 21:48:49.831610 13583 layer_factory.hpp:77] Creating layer LFCN_3_7x7
I1015 21:48:49.831626 13583 net.cpp:100] Creating Layer LFCN_3_7x7
I1015 21:48:49.831634 13583 net.cpp:434] LFCN_3_7x7 <- conv6_1_relu6_1_0_split_1
I1015 21:48:49.831645 13583 net.cpp:408] LFCN_3_7x7 -> LFCN_3_7x7
I1015 21:48:49.838971 13583 net.cpp:150] Setting up LFCN_3_7x7
I1015 21:48:49.838985 13583 net.cpp:157] Top shape: 3 9 24 24 (15552)
I1015 21:48:49.838989 13583 net.cpp:165] Memory required for data: 4737910020
I1015 21:48:49.838995 13583 layer_factory.hpp:77] Creating layer LFCN_3_7x7_LFCN_3_7x7_0_split
I1015 21:48:49.839001 13583 net.cpp:100] Creating Layer LFCN_3_7x7_LFCN_3_7x7_0_split
I1015 21:48:49.839004 13583 net.cpp:434] LFCN_3_7x7_LFCN_3_7x7_0_split <- LFCN_3_7x7
I1015 21:48:49.839010 13583 net.cpp:408] LFCN_3_7x7_LFCN_3_7x7_0_split -> LFCN_3_7x7_LFCN_3_7x7_0_split_0
I1015 21:48:49.839017 13583 net.cpp:408] LFCN_3_7x7_LFCN_3_7x7_0_split -> LFCN_3_7x7_LFCN_3_7x7_0_split_1
I1015 21:48:49.839021 13583 net.cpp:408] LFCN_3_7x7_LFCN_3_7x7_0_split -> LFCN_3_7x7_LFCN_3_7x7_0_split_2
I1015 21:48:49.839068 13583 net.cpp:150] Setting up LFCN_3_7x7_LFCN_3_7x7_0_split
I1015 21:48:49.839074 13583 net.cpp:157] Top shape: 3 9 24 24 (15552)
I1015 21:48:49.839078 13583 net.cpp:157] Top shape: 3 9 24 24 (15552)
I1015 21:48:49.839082 13583 net.cpp:157] Top shape: 3 9 24 24 (15552)
I1015 21:48:49.839085 13583 net.cpp:165] Memory required for data: 4738096644
I1015 21:48:49.839089 13583 layer_factory.hpp:77] Creating layer detection_loss_3_7x7
I1015 21:48:49.839097 13583 net.cpp:100] Creating Layer detection_loss_3_7x7
I1015 21:48:49.839100 13583 net.cpp:434] detection_loss_3_7x7 <- LFCN_3_7x7_LFCN_3_7x7_0_split_0
I1015 21:48:49.839105 13583 net.cpp:434] detection_loss_3_7x7 <- label_3_7x7_data_6_split_0
I1015 21:48:49.839112 13583 net.cpp:408] detection_loss_3_7x7 -> loss_3_7x7
I1015 21:48:49.839120 13583 layer_factory.hpp:77] Creating layer detection_loss_3_7x7
I1015 21:48:49.839442 13583 net.cpp:150] Setting up detection_loss_3_7x7
I1015 21:48:49.839452 13583 net.cpp:157] Top shape: 1 1 1 2 (2)
I1015 21:48:49.839454 13583 net.cpp:160]     with loss weight 1
I1015 21:48:49.839462 13583 net.cpp:165] Memory required for data: 4738096652
I1015 21:48:49.839467 13583 layer_factory.hpp:77] Creating layer detection_accuracy_3_7x7
I1015 21:48:49.839475 13583 net.cpp:100] Creating Layer detection_accuracy_3_7x7
I1015 21:48:49.839480 13583 net.cpp:434] detection_accuracy_3_7x7 <- LFCN_3_7x7_LFCN_3_7x7_0_split_1
I1015 21:48:49.839485 13583 net.cpp:434] detection_accuracy_3_7x7 <- label_3_7x7_data_6_split_1
I1015 21:48:49.839495 13583 net.cpp:408] detection_accuracy_3_7x7 -> accuracy_3_7x7
I1015 21:48:49.839504 13583 net.cpp:408] detection_accuracy_3_7x7 -> boxiou_3_7x7
I1015 21:48:49.839543 13583 net.cpp:150] Setting up detection_accuracy_3_7x7
I1015 21:48:49.839552 13583 net.cpp:157] Top shape: 1 1 1 2 (2)
I1015 21:48:49.839556 13583 net.cpp:157] Top shape: 1 1 1 1 (1)
I1015 21:48:49.839560 13583 net.cpp:165] Memory required for data: 4738096664
I1015 21:48:49.839565 13583 layer_factory.hpp:77] Creating layer pool6
I1015 21:48:49.839572 13583 net.cpp:100] Creating Layer pool6
I1015 21:48:49.839578 13583 net.cpp:434] pool6 <- conv6_1_relu6_1_0_split_2
I1015 21:48:49.839586 13583 net.cpp:408] pool6 -> pool6
I1015 21:48:49.839625 13583 net.cpp:150] Setting up pool6
I1015 21:48:49.839632 13583 net.cpp:157] Top shape: 3 512 12 12 (221184)
I1015 21:48:49.839635 13583 net.cpp:165] Memory required for data: 4738981400
I1015 21:48:49.839639 13583 layer_factory.hpp:77] Creating layer LFCN_4_5x5
I1015 21:48:49.839653 13583 net.cpp:100] Creating Layer LFCN_4_5x5
I1015 21:48:49.839658 13583 net.cpp:434] LFCN_4_5x5 <- pool6
I1015 21:48:49.839665 13583 net.cpp:408] LFCN_4_5x5 -> LFCN_4_5x5
I1015 21:48:49.843425 13583 net.cpp:150] Setting up LFCN_4_5x5
I1015 21:48:49.843436 13583 net.cpp:157] Top shape: 3 9 12 12 (3888)
I1015 21:48:49.843439 13583 net.cpp:165] Memory required for data: 4738996952
I1015 21:48:49.843444 13583 layer_factory.hpp:77] Creating layer LFCN_4_5x5_LFCN_4_5x5_0_split
I1015 21:48:49.843452 13583 net.cpp:100] Creating Layer LFCN_4_5x5_LFCN_4_5x5_0_split
I1015 21:48:49.843456 13583 net.cpp:434] LFCN_4_5x5_LFCN_4_5x5_0_split <- LFCN_4_5x5
I1015 21:48:49.843459 13583 net.cpp:408] LFCN_4_5x5_LFCN_4_5x5_0_split -> LFCN_4_5x5_LFCN_4_5x5_0_split_0
I1015 21:48:49.843464 13583 net.cpp:408] LFCN_4_5x5_LFCN_4_5x5_0_split -> LFCN_4_5x5_LFCN_4_5x5_0_split_1
I1015 21:48:49.843469 13583 net.cpp:408] LFCN_4_5x5_LFCN_4_5x5_0_split -> LFCN_4_5x5_LFCN_4_5x5_0_split_2
I1015 21:48:49.843514 13583 net.cpp:150] Setting up LFCN_4_5x5_LFCN_4_5x5_0_split
I1015 21:48:49.843521 13583 net.cpp:157] Top shape: 3 9 12 12 (3888)
I1015 21:48:49.843524 13583 net.cpp:157] Top shape: 3 9 12 12 (3888)
I1015 21:48:49.843529 13583 net.cpp:157] Top shape: 3 9 12 12 (3888)
I1015 21:48:49.843533 13583 net.cpp:165] Memory required for data: 4739043608
I1015 21:48:49.843536 13583 layer_factory.hpp:77] Creating layer detection_loss_4_5x5
I1015 21:48:49.843544 13583 net.cpp:100] Creating Layer detection_loss_4_5x5
I1015 21:48:49.843547 13583 net.cpp:434] detection_loss_4_5x5 <- LFCN_4_5x5_LFCN_4_5x5_0_split_0
I1015 21:48:49.843552 13583 net.cpp:434] detection_loss_4_5x5 <- label_4_5x5_data_7_split_0
I1015 21:48:49.843557 13583 net.cpp:408] detection_loss_4_5x5 -> loss_4_5x5
I1015 21:48:49.843565 13583 layer_factory.hpp:77] Creating layer detection_loss_4_5x5
I1015 21:48:49.843873 13583 net.cpp:150] Setting up detection_loss_4_5x5
I1015 21:48:49.843883 13583 net.cpp:157] Top shape: 1 1 1 2 (2)
I1015 21:48:49.843885 13583 net.cpp:160]     with loss weight 1
I1015 21:48:49.843891 13583 net.cpp:165] Memory required for data: 4739043616
I1015 21:48:49.843895 13583 layer_factory.hpp:77] Creating layer detection_accuracy_4_5x5
I1015 21:48:49.843902 13583 net.cpp:100] Creating Layer detection_accuracy_4_5x5
I1015 21:48:49.843907 13583 net.cpp:434] detection_accuracy_4_5x5 <- LFCN_4_5x5_LFCN_4_5x5_0_split_1
I1015 21:48:49.843914 13583 net.cpp:434] detection_accuracy_4_5x5 <- label_4_5x5_data_7_split_1
I1015 21:48:49.843920 13583 net.cpp:408] detection_accuracy_4_5x5 -> accuracy_4_5x5
I1015 21:48:49.843927 13583 net.cpp:408] detection_accuracy_4_5x5 -> boxiou_4_5x5
I1015 21:48:49.843962 13583 net.cpp:150] Setting up detection_accuracy_4_5x5
I1015 21:48:49.843969 13583 net.cpp:157] Top shape: 1 1 1 2 (2)
I1015 21:48:49.843974 13583 net.cpp:157] Top shape: 1 1 1 1 (1)
I1015 21:48:49.843977 13583 net.cpp:165] Memory required for data: 4739043628
I1015 21:48:49.843981 13583 layer_factory.hpp:77] Creating layer proposals
I1015 21:48:49.843993 13583 net.cpp:100] Creating Layer proposals
I1015 21:48:49.843998 13583 net.cpp:434] proposals <- LFCN_1_5x5_LFCN_1_5x5_0_split_2
I1015 21:48:49.844002 13583 net.cpp:434] proposals <- LFCN_1_7x7_LFCN_1_7x7_0_split_2
I1015 21:48:49.844007 13583 net.cpp:434] proposals <- LFCN_2_5x5_LFCN_2_5x5_0_split_2
I1015 21:48:49.844010 13583 net.cpp:434] proposals <- LFCN_2_7x7_LFCN_2_7x7_0_split_2
I1015 21:48:49.844013 13583 net.cpp:434] proposals <- LFCN_3_5x5_LFCN_3_5x5_0_split_2
I1015 21:48:49.844017 13583 net.cpp:434] proposals <- LFCN_3_7x7_LFCN_3_7x7_0_split_2
I1015 21:48:49.844020 13583 net.cpp:434] proposals <- LFCN_4_5x5_LFCN_4_5x5_0_split_2
I1015 21:48:49.844027 13583 net.cpp:408] proposals -> proposals
I1015 21:48:49.844051 13583 net.cpp:150] Setting up proposals
I1015 21:48:49.844058 13583 net.cpp:157] Top shape: 1 5 1 1 (5)
I1015 21:48:49.844060 13583 net.cpp:165] Memory required for data: 4739043648
I1015 21:48:49.844064 13583 layer_factory.hpp:77] Creating layer proposal_info
I1015 21:48:49.844072 13583 net.cpp:100] Creating Layer proposal_info
I1015 21:48:49.844076 13583 net.cpp:434] proposal_info <- proposals
I1015 21:48:49.844080 13583 net.cpp:434] proposal_info <- gt_boxes
I1015 21:48:49.844086 13583 net.cpp:408] proposal_info -> rois
I1015 21:48:49.844096 13583 net.cpp:408] proposal_info -> proposal_labels
I1015 21:48:49.844103 13583 net.cpp:408] proposal_info -> proposal_targets
I1015 21:48:49.844110 13583 net.cpp:408] proposal_info -> box_inside_weights
I1015 21:48:49.844115 13583 net.cpp:408] proposal_info -> box_outside_weights
I1015 21:48:49.844120 13583 net.cpp:408] proposal_info -> match_gt_boxes
I1015 21:48:49.844202 13583 net.cpp:150] Setting up proposal_info
I1015 21:48:49.844209 13583 net.cpp:157] Top shape: 256 5 1 1 (1280)
I1015 21:48:49.844214 13583 net.cpp:157] Top shape: 256 1 1 1 (256)
I1015 21:48:49.844218 13583 net.cpp:157] Top shape: 256 20 1 1 (5120)
I1015 21:48:49.844223 13583 net.cpp:157] Top shape: 256 20 1 1 (5120)
I1015 21:48:49.844226 13583 net.cpp:157] Top shape: 256 20 1 1 (5120)
I1015 21:48:49.844229 13583 net.cpp:157] Top shape: 256 6 1 1 (1536)
I1015 21:48:49.844233 13583 net.cpp:165] Memory required for data: 4739117376
I1015 21:48:49.844236 13583 layer_factory.hpp:77] Creating layer rois_proposal_info_0_split
I1015 21:48:49.844240 13583 net.cpp:100] Creating Layer rois_proposal_info_0_split
I1015 21:48:49.844244 13583 net.cpp:434] rois_proposal_info_0_split <- rois
I1015 21:48:49.844249 13583 net.cpp:408] rois_proposal_info_0_split -> rois_proposal_info_0_split_0
I1015 21:48:49.844254 13583 net.cpp:408] rois_proposal_info_0_split -> rois_proposal_info_0_split_1
I1015 21:48:49.844259 13583 net.cpp:408] rois_proposal_info_0_split -> rois_proposal_info_0_split_2
I1015 21:48:49.844300 13583 net.cpp:150] Setting up rois_proposal_info_0_split
I1015 21:48:49.844306 13583 net.cpp:157] Top shape: 256 5 1 1 (1280)
I1015 21:48:49.844310 13583 net.cpp:157] Top shape: 256 5 1 1 (1280)
I1015 21:48:49.844314 13583 net.cpp:157] Top shape: 256 5 1 1 (1280)
I1015 21:48:49.844317 13583 net.cpp:165] Memory required for data: 4739132736
I1015 21:48:49.844321 13583 layer_factory.hpp:77] Creating layer proposal_labels_proposal_info_1_split
I1015 21:48:49.844326 13583 net.cpp:100] Creating Layer proposal_labels_proposal_info_1_split
I1015 21:48:49.844329 13583 net.cpp:434] proposal_labels_proposal_info_1_split <- proposal_labels
I1015 21:48:49.844334 13583 net.cpp:408] proposal_labels_proposal_info_1_split -> proposal_labels_proposal_info_1_split_0
I1015 21:48:49.844339 13583 net.cpp:408] proposal_labels_proposal_info_1_split -> proposal_labels_proposal_info_1_split_1
I1015 21:48:49.844391 13583 net.cpp:150] Setting up proposal_labels_proposal_info_1_split
I1015 21:48:49.844399 13583 net.cpp:157] Top shape: 256 1 1 1 (256)
I1015 21:48:49.844403 13583 net.cpp:157] Top shape: 256 1 1 1 (256)
I1015 21:48:49.844406 13583 net.cpp:165] Memory required for data: 4739134784
I1015 21:48:49.844409 13583 layer_factory.hpp:77] Creating layer softmax
I1015 21:48:49.844414 13583 net.cpp:100] Creating Layer softmax
I1015 21:48:49.844418 13583 net.cpp:434] softmax <- relu_attention_relu_attention_0_split_1
I1015 21:48:49.844422 13583 net.cpp:408] softmax -> softmax_attention
I1015 21:48:49.844620 13583 net.cpp:150] Setting up softmax
I1015 21:48:49.844630 13583 net.cpp:157] Top shape: 3 3 96 96 (82944)
I1015 21:48:49.844632 13583 net.cpp:165] Memory required for data: 4739466560
I1015 21:48:49.844635 13583 layer_factory.hpp:77] Creating layer slice1
I1015 21:48:49.844641 13583 net.cpp:100] Creating Layer slice1
I1015 21:48:49.844645 13583 net.cpp:434] slice1 <- softmax_attention
I1015 21:48:49.844651 13583 net.cpp:408] slice1 -> bg
I1015 21:48:49.844657 13583 net.cpp:408] slice1 -> attention1
I1015 21:48:49.844703 13583 net.cpp:150] Setting up slice1
I1015 21:48:49.844710 13583 net.cpp:157] Top shape: 3 1 96 96 (27648)
I1015 21:48:49.844717 13583 net.cpp:157] Top shape: 3 2 96 96 (55296)
I1015 21:48:49.844720 13583 net.cpp:165] Memory required for data: 4739798336
I1015 21:48:49.844725 13583 layer_factory.hpp:77] Creating layer silence
I1015 21:48:49.844736 13583 net.cpp:100] Creating Layer silence
I1015 21:48:49.844743 13583 net.cpp:434] silence <- bg
I1015 21:48:49.844748 13583 net.cpp:150] Setting up silence
I1015 21:48:49.844751 13583 net.cpp:165] Memory required for data: 4739798336
I1015 21:48:49.844755 13583 layer_factory.hpp:77] Creating layer conv4_3_new
I1015 21:48:49.844763 13583 net.cpp:100] Creating Layer conv4_3_new
I1015 21:48:49.844766 13583 net.cpp:434] conv4_3_new <- conv4_3_relu4_3_0_split_3
I1015 21:48:49.844774 13583 net.cpp:434] conv4_3_new <- attention1
I1015 21:48:49.844782 13583 net.cpp:408] conv4_3_new -> conv4_3_new
I1015 21:48:49.844810 13583 net.cpp:150] Setting up conv4_3_new
I1015 21:48:49.844817 13583 net.cpp:157] Top shape: 3 514 96 96 (14211072)
I1015 21:48:49.844820 13583 net.cpp:165] Memory required for data: 4796642624
I1015 21:48:49.844825 13583 layer_factory.hpp:77] Creating layer conv4_3_2x
I1015 21:48:49.844835 13583 net.cpp:100] Creating Layer conv4_3_2x
I1015 21:48:49.844841 13583 net.cpp:434] conv4_3_2x <- conv4_3_new
I1015 21:48:49.844847 13583 net.cpp:408] conv4_3_2x -> conv4_3_2x
I1015 21:48:49.845329 13583 net.cpp:150] Setting up conv4_3_2x
I1015 21:48:49.845337 13583 net.cpp:157] Top shape: 3 514 192 192 (56844288)
I1015 21:48:49.845340 13583 net.cpp:165] Memory required for data: 5024019776
I1015 21:48:49.845347 13583 layer_factory.hpp:77] Creating layer conv4_3_2x_conv4_3_2x_0_split
I1015 21:48:49.845353 13583 net.cpp:100] Creating Layer conv4_3_2x_conv4_3_2x_0_split
I1015 21:48:49.845357 13583 net.cpp:434] conv4_3_2x_conv4_3_2x_0_split <- conv4_3_2x
I1015 21:48:49.845366 13583 net.cpp:408] conv4_3_2x_conv4_3_2x_0_split -> conv4_3_2x_conv4_3_2x_0_split_0
I1015 21:48:49.845372 13583 net.cpp:408] conv4_3_2x_conv4_3_2x_0_split -> conv4_3_2x_conv4_3_2x_0_split_1
I1015 21:48:49.845409 13583 net.cpp:150] Setting up conv4_3_2x_conv4_3_2x_0_split
I1015 21:48:49.845417 13583 net.cpp:157] Top shape: 3 514 192 192 (56844288)
I1015 21:48:49.845422 13583 net.cpp:157] Top shape: 3 514 192 192 (56844288)
I1015 21:48:49.845425 13583 net.cpp:165] Memory required for data: 5478774080
I1015 21:48:49.845430 13583 layer_factory.hpp:77] Creating layer roi_pool_org
I1015 21:48:49.845441 13583 net.cpp:100] Creating Layer roi_pool_org
I1015 21:48:49.845448 13583 net.cpp:434] roi_pool_org <- conv4_3_2x_conv4_3_2x_0_split_0
I1015 21:48:49.845453 13583 net.cpp:434] roi_pool_org <- rois_proposal_info_0_split_0
I1015 21:48:49.845461 13583 net.cpp:408] roi_pool_org -> roi_pool_org
I1015 21:48:49.845470 13583 roi_pooling_layer.cpp:33] Spatial scale: 0.25
I1015 21:48:49.845510 13583 net.cpp:150] Setting up roi_pool_org
I1015 21:48:49.845518 13583 net.cpp:157] Top shape: 256 514 7 7 (6447616)
I1015 21:48:49.845525 13583 net.cpp:165] Memory required for data: 5504564544
I1015 21:48:49.845530 13583 layer_factory.hpp:77] Creating layer roi_pool_ctx
I1015 21:48:49.845538 13583 net.cpp:100] Creating Layer roi_pool_ctx
I1015 21:48:49.845543 13583 net.cpp:434] roi_pool_ctx <- conv4_3_2x_conv4_3_2x_0_split_1
I1015 21:48:49.845551 13583 net.cpp:434] roi_pool_ctx <- rois_proposal_info_0_split_1
I1015 21:48:49.845558 13583 net.cpp:408] roi_pool_ctx -> roi_pool_ctx
I1015 21:48:49.845569 13583 roi_pooling_layer.cpp:33] Spatial scale: 0.25
I1015 21:48:49.845616 13583 net.cpp:150] Setting up roi_pool_ctx
I1015 21:48:49.845624 13583 net.cpp:157] Top shape: 256 514 7 7 (6447616)
I1015 21:48:49.845629 13583 net.cpp:165] Memory required for data: 5530355008
I1015 21:48:49.845635 13583 layer_factory.hpp:77] Creating layer roi_pool
I1015 21:48:49.845643 13583 net.cpp:100] Creating Layer roi_pool
I1015 21:48:49.845650 13583 net.cpp:434] roi_pool <- roi_pool_org
I1015 21:48:49.845657 13583 net.cpp:434] roi_pool <- roi_pool_ctx
I1015 21:48:49.845666 13583 net.cpp:408] roi_pool -> roi_pool
I1015 21:48:49.845700 13583 net.cpp:150] Setting up roi_pool
I1015 21:48:49.845707 13583 net.cpp:157] Top shape: 256 1028 7 7 (12895232)
I1015 21:48:49.845712 13583 net.cpp:165] Memory required for data: 5581935936
I1015 21:48:49.845718 13583 layer_factory.hpp:77] Creating layer roi_c1
I1015 21:48:49.845731 13583 net.cpp:100] Creating Layer roi_c1
I1015 21:48:49.845737 13583 net.cpp:434] roi_c1 <- roi_pool
I1015 21:48:49.845748 13583 net.cpp:408] roi_c1 -> roi_c1
I1015 21:48:49.962636 13583 net.cpp:150] Setting up roi_c1
I1015 21:48:49.962663 13583 net.cpp:157] Top shape: 256 512 5 5 (3276800)
I1015 21:48:49.962667 13583 net.cpp:165] Memory required for data: 5595043136
I1015 21:48:49.962674 13583 layer_factory.hpp:77] Creating layer roi_c1_relu
I1015 21:48:49.962684 13583 net.cpp:100] Creating Layer roi_c1_relu
I1015 21:48:49.962689 13583 net.cpp:434] roi_c1_relu <- roi_c1
I1015 21:48:49.962697 13583 net.cpp:395] roi_c1_relu -> roi_c1 (in-place)
I1015 21:48:49.962857 13583 net.cpp:150] Setting up roi_c1_relu
I1015 21:48:49.962867 13583 net.cpp:157] Top shape: 256 512 5 5 (3276800)
I1015 21:48:49.962872 13583 net.cpp:165] Memory required for data: 5608150336
I1015 21:48:49.962875 13583 layer_factory.hpp:77] Creating layer fc6
I1015 21:48:49.962887 13583 net.cpp:100] Creating Layer fc6
I1015 21:48:49.962891 13583 net.cpp:434] fc6 <- roi_c1
I1015 21:48:49.962899 13583 net.cpp:408] fc6 -> fc6
I1015 21:48:51.176688 13583 net.cpp:150] Setting up fc6
I1015 21:48:51.176723 13583 net.cpp:157] Top shape: 256 4096 (1048576)
I1015 21:48:51.176728 13583 net.cpp:165] Memory required for data: 5612344640
I1015 21:48:51.176738 13583 layer_factory.hpp:77] Creating layer relu6
I1015 21:48:51.176749 13583 net.cpp:100] Creating Layer relu6
I1015 21:48:51.176755 13583 net.cpp:434] relu6 <- fc6
I1015 21:48:51.176761 13583 net.cpp:395] relu6 -> fc6 (in-place)
I1015 21:48:51.177429 13583 net.cpp:150] Setting up relu6
I1015 21:48:51.177443 13583 net.cpp:157] Top shape: 256 4096 (1048576)
I1015 21:48:51.177446 13583 net.cpp:165] Memory required for data: 5616538944
I1015 21:48:51.177450 13583 layer_factory.hpp:77] Creating layer drop6
I1015 21:48:51.177462 13583 net.cpp:100] Creating Layer drop6
I1015 21:48:51.177466 13583 net.cpp:434] drop6 <- fc6
I1015 21:48:51.177472 13583 net.cpp:395] drop6 -> fc6 (in-place)
I1015 21:48:51.177496 13583 net.cpp:150] Setting up drop6
I1015 21:48:51.177502 13583 net.cpp:157] Top shape: 256 4096 (1048576)
I1015 21:48:51.177505 13583 net.cpp:165] Memory required for data: 5620733248
I1015 21:48:51.177508 13583 layer_factory.hpp:77] Creating layer fc6_drop6_0_split
I1015 21:48:51.177515 13583 net.cpp:100] Creating Layer fc6_drop6_0_split
I1015 21:48:51.177517 13583 net.cpp:434] fc6_drop6_0_split <- fc6
I1015 21:48:51.177523 13583 net.cpp:408] fc6_drop6_0_split -> fc6_drop6_0_split_0
I1015 21:48:51.177531 13583 net.cpp:408] fc6_drop6_0_split -> fc6_drop6_0_split_1
I1015 21:48:51.177572 13583 net.cpp:150] Setting up fc6_drop6_0_split
I1015 21:48:51.177579 13583 net.cpp:157] Top shape: 256 4096 (1048576)
I1015 21:48:51.177583 13583 net.cpp:157] Top shape: 256 4096 (1048576)
I1015 21:48:51.177587 13583 net.cpp:165] Memory required for data: 5629121856
I1015 21:48:51.177592 13583 layer_factory.hpp:77] Creating layer cls_pred
I1015 21:48:51.177600 13583 net.cpp:100] Creating Layer cls_pred
I1015 21:48:51.177606 13583 net.cpp:434] cls_pred <- fc6_drop6_0_split_0
I1015 21:48:51.177613 13583 net.cpp:408] cls_pred -> cls_pred
I1015 21:48:51.178287 13583 net.cpp:150] Setting up cls_pred
I1015 21:48:51.178308 13583 net.cpp:157] Top shape: 256 5 (1280)
I1015 21:48:51.178313 13583 net.cpp:165] Memory required for data: 5629126976
I1015 21:48:51.178318 13583 layer_factory.hpp:77] Creating layer cls_pred_cls_pred_0_split
I1015 21:48:51.178324 13583 net.cpp:100] Creating Layer cls_pred_cls_pred_0_split
I1015 21:48:51.178329 13583 net.cpp:434] cls_pred_cls_pred_0_split <- cls_pred
I1015 21:48:51.178335 13583 net.cpp:408] cls_pred_cls_pred_0_split -> cls_pred_cls_pred_0_split_0
I1015 21:48:51.178342 13583 net.cpp:408] cls_pred_cls_pred_0_split -> cls_pred_cls_pred_0_split_1
I1015 21:48:51.178370 13583 net.cpp:150] Setting up cls_pred_cls_pred_0_split
I1015 21:48:51.178376 13583 net.cpp:157] Top shape: 256 5 (1280)
I1015 21:48:51.178380 13583 net.cpp:157] Top shape: 256 5 (1280)
I1015 21:48:51.178383 13583 net.cpp:165] Memory required for data: 5629137216
I1015 21:48:51.178386 13583 layer_factory.hpp:77] Creating layer bbox_pred
I1015 21:48:51.178392 13583 net.cpp:100] Creating Layer bbox_pred
I1015 21:48:51.178396 13583 net.cpp:434] bbox_pred <- fc6_drop6_0_split_1
I1015 21:48:51.178402 13583 net.cpp:408] bbox_pred -> bbox_pred
I1015 21:48:51.180586 13583 net.cpp:150] Setting up bbox_pred
I1015 21:48:51.180594 13583 net.cpp:157] Top shape: 256 20 (5120)
I1015 21:48:51.180598 13583 net.cpp:165] Memory required for data: 5629157696
I1015 21:48:51.180603 13583 layer_factory.hpp:77] Creating layer bbox_pred_bbox_pred_0_split
I1015 21:48:51.180608 13583 net.cpp:100] Creating Layer bbox_pred_bbox_pred_0_split
I1015 21:48:51.180610 13583 net.cpp:434] bbox_pred_bbox_pred_0_split <- bbox_pred
I1015 21:48:51.180614 13583 net.cpp:408] bbox_pred_bbox_pred_0_split -> bbox_pred_bbox_pred_0_split_0
I1015 21:48:51.180619 13583 net.cpp:408] bbox_pred_bbox_pred_0_split -> bbox_pred_bbox_pred_0_split_1
I1015 21:48:51.180644 13583 net.cpp:150] Setting up bbox_pred_bbox_pred_0_split
I1015 21:48:51.180649 13583 net.cpp:157] Top shape: 256 20 (5120)
I1015 21:48:51.180651 13583 net.cpp:157] Top shape: 256 20 (5120)
I1015 21:48:51.180654 13583 net.cpp:165] Memory required for data: 5629198656
I1015 21:48:51.180656 13583 layer_factory.hpp:77] Creating layer loss_cls
I1015 21:48:51.180661 13583 net.cpp:100] Creating Layer loss_cls
I1015 21:48:51.180665 13583 net.cpp:434] loss_cls <- cls_pred_cls_pred_0_split_0
I1015 21:48:51.180670 13583 net.cpp:434] loss_cls <- proposal_labels_proposal_info_1_split_0
…
I1015 21:48:51.193405 13583 image_gt_data_layer.cpp:235] output label size 2 : 1,6,48,48
I1015 21:48:51.193452 13583 image_gt_data_layer.cpp:235] output label size 3 : 1,6,48,48
I1015 21:48:51.193500 13583 image_gt_data_layer.cpp:235] output label size 4 : 1,6,24,24
I1015 21:48:51.193548 13583 image_gt_data_layer.cpp:235] output label size 5 : 1,6,24,24
I1015 21:48:51.193596 13583 image_gt_data_layer.cpp:235] output label size 6 : 1,6,12,12
I1015 21:48:51.193642 13583 image_gt_data_layer.cpp:250] output gt boxes size: 1,7,1,1
I1015 21:48:51.212502 13583 net.cpp:150] Setting up data
I1015 21:48:51.212529 13583 net.cpp:157] Top shape: 1 4 768 768 (2359296)
I1015 21:48:51.212535 13583 net.cpp:157] Top shape: 1 6 96 96 (55296)
I1015 21:48:51.212539 13583 net.cpp:157] Top shape: 1 6 96 96 (55296)
I1015 21:48:51.212544 13583 net.cpp:157] Top shape: 1 6 48 48 (13824)
I1015 21:48:51.212548 13583 net.cpp:157] Top shape: 1 6 48 48 (13824)
I1015 21:48:51.212553 13583 net.cpp:157] Top shape: 1 6 24 24 (3456)
I1015 21:48:51.212558 13583 net.cpp:157] Top shape: 1 6 24 24 (3456)
I1015 21:48:51.212561 13583 net.cpp:157] Top shape: 1 6 12 12 (864)
I1015 21:48:51.212565 13583 net.cpp:157] Top shape: 1 7 1 1 (7)
I1015 21:48:51.212568 13583 net.cpp:165] Memory required for data: 10021276
I1015 21:48:51.212574 13583 layer_factory.hpp:77] Creating layer label_1_5x5_data_1_split
I1015 21:48:51.212589 13583 net.cpp:100] Creating Layer label_1_5x5_data_1_split
I1015 21:48:51.212594 13583 net.cpp:434] label_1_5x5_data_1_split <- label_1_5x5
I1015 21:48:51.212604 13583 net.cpp:408] label_1_5x5_data_1_split -> label_1_5x5_data_1_split_0
I1015 21:48:51.212615 13583 net.cpp:408] label_1_5x5_data_1_split -> label_1_5x5_data_1_split_1
I1015 21:48:51.212891 13583 net.cpp:150] Setting up label_1_5x5_data_1_split
I1015 21:48:51.212931 13583 net.cpp:157] Top shape: 1 6 96 96 (55296)
I1015 21:48:51.212942 13583 net.cpp:157] Top shape: 1 6 96 96 (55296)
I1015 21:48:51.212950 13583 net.cpp:165] Memory required for data: 10463644
I1015 21:48:51.212961 13583 layer_factory.hpp:77] Creating layer label_1_7x7_data_2_split
I1015 21:48:51.212983 13583 net.cpp:100] Creating Layer label_1_7x7_data_2_split
I1015 21:48:51.212993 13583 net.cpp:434] label_1_7x7_data_2_split <- label_1_7x7
I1015 21:48:51.213008 13583 net.cpp:408] label_1_7x7_data_2_split -> label_1_7x7_data_2_split_0
I1015 21:48:51.213026 13583 net.cpp:408] label_1_7x7_data_2_split -> label_1_7x7_data_2_split_1
I1015 21:48:51.213112 13583 net.cpp:150] Setting up label_1_7x7_data_2_split
I1015 21:48:51.213125 13583 net.cpp:157] Top shape: 1 6 96 96 (55296)
I1015 21:48:51.213135 13583 net.cpp:157] Top shape: 1 6 96 96 (55296)
I1015 21:48:51.213141 13583 net.cpp:165] Memory required for data: 10906012
I1015 21:48:51.213148 13583 layer_factory.hpp:77] Creating layer label_2_5x5_data_3_split
I1015 21:48:51.213158 13583 net.cpp:100] Creating Layer label_2_5x5_data_3_split
I1015 21:48:51.213166 13583 net.cpp:434] label_2_5x5_data_3_split <- label_2_5x5
I1015 21:48:51.213176 13583 net.cpp:408] label_2_5x5_data_3_split -> label_2_5x5_data_3_split_0
I1015 21:48:51.213187 13583 net.cpp:408] label_2_5x5_data_3_split -> label_2_5x5_data_3_split_1
I1015 21:48:51.213263 13583 net.cpp:150] Setting up label_2_5x5_data_3_split
I1015 21:48:51.213274 13583 net.cpp:157] Top shape: 1 6 48 48 (13824)
I1015 21:48:51.213282 13583 net.cpp:157] Top shape: 1 6 48 48 (13824)
I1015 21:48:51.213289 13583 net.cpp:165] Memory required for data: 11016604
I1015 21:48:51.213295 13583 layer_factory.hpp:77] Creating layer label_2_7x7_data_4_split
I1015 21:48:51.213305 13583 net.cpp:100] Creating Layer label_2_7x7_data_4_split
I1015 21:48:51.213313 13583 net.cpp:434] label_2_7x7_data_4_split <- label_2_7x7
I1015 21:48:51.213325 13583 net.cpp:408] label_2_7x7_data_4_split -> label_2_7x7_data_4_split_0
I1015 21:48:51.213336 13583 net.cpp:408] label_2_7x7_data_4_split -> label_2_7x7_data_4_split_1
I1015 21:48:51.213413 13583 net.cpp:150] Setting up label_2_7x7_data_4_split
I1015 21:48:51.213423 13583 net.cpp:157] Top shape: 1 6 48 48 (13824)
I1015 21:48:51.213433 13583 net.cpp:157] Top shape: 1 6 48 48 (13824)
I1015 21:48:51.213440 13583 net.cpp:165] Memory required for data: 11127196
I1015 21:48:51.213446 13583 layer_factory.hpp:77] Creating layer label_3_5x5_data_5_split
I1015 21:48:51.213459 13583 net.cpp:100] Creating Layer label_3_5x5_data_5_split
I1015 21:48:51.213465 13583 net.cpp:434] label_3_5x5_data_5_split <- label_3_5x5
I1015 21:48:51.213474 13583 net.cpp:408] label_3_5x5_data_5_split -> label_3_5x5_data_5_split_0
I1015 21:48:51.213485 13583 net.cpp:408] label_3_5x5_data_5_split -> label_3_5x5_data_5_split_1
I1015 21:48:51.213557 13583 net.cpp:150] Setting up label_3_5x5_data_5_split
I1015 21:48:51.213568 13583 net.cpp:157] Top shape: 1 6 24 24 (3456)
I1015 21:48:51.213577 13583 net.cpp:157] Top shape: 1 6 24 24 (3456)
I1015 21:48:51.213583 13583 net.cpp:165] Memory required for data: 11154844
I1015 21:48:51.213590 13583 layer_factory.hpp:77] Creating layer label_3_7x7_data_6_split
I1015 21:48:51.213599 13583 net.cpp:100] Creating Layer label_3_7x7_data_6_split
I1015 21:48:51.213606 13583 net.cpp:434] label_3_7x7_data_6_split <- label_3_7x7
I1015 21:48:51.213618 13583 net.cpp:408] label_3_7x7_data_6_split -> label_3_7x7_data_6_split_0
I1015 21:48:51.213629 13583 net.cpp:408] label_3_7x7_data_6_split -> label_3_7x7_data_6_split_1
I1015 21:48:51.213698 13583 net.cpp:150] Setting up label_3_7x7_data_6_split
I1015 21:48:51.213708 13583 net.cpp:157] Top shape: 1 6 24 24 (3456)
I1015 21:48:51.213717 13583 net.cpp:157] Top shape: 1 6 24 24 (3456)
I1015 21:48:51.213724 13583 net.cpp:165] Memory required for data: 11182492
I1015 21:48:51.213730 13583 layer_factory.hpp:77] Creating layer label_4_5x5_data_7_split
I1015 21:48:51.213743 13583 net.cpp:100] Creating Layer label_4_5x5_data_7_split
I1015 21:48:51.213750 13583 net.cpp:434] label_4_5x5_data_7_split <- label_4_5x5
I1015 21:48:51.213760 13583 net.cpp:408] label_4_5x5_data_7_split -> label_4_5x5_data_7_split_0
I1015 21:48:51.213770 13583 net.cpp:408] label_4_5x5_data_7_split -> label_4_5x5_data_7_split_1
I1015 21:48:51.213842 13583 net.cpp:150] Setting up label_4_5x5_data_7_split
I1015 21:48:51.213853 13583 net.cpp:157] Top shape: 1 6 12 12 (864)
I1015 21:48:51.213862 13583 net.cpp:157] Top shape: 1 6 12 12 (864)
I1015 21:48:51.213870 13583 net.cpp:165] Memory required for data: 11189404
I1015 21:48:51.213876 13583 layer_factory.hpp:77] Creating layer slice
I1015 21:48:51.213891 13583 net.cpp:100] Creating Layer slice
I1015 21:48:51.213898 13583 net.cpp:434] slice <- data
I1015 21:48:51.213908 13583 net.cpp:408] slice -> data123
I1015 21:48:51.213920 13583 net.cpp:408] slice -> ch4
I1015 21:48:51.213992 13583 net.cpp:150] Setting up slice
I1015 21:48:51.214004 13583 net.cpp:157] Top shape: 1 3 768 768 (1769472)
I1015 21:48:51.214012 13583 net.cpp:157] Top shape: 1 1 768 768 (589824)
I1015 21:48:51.214018 13583 net.cpp:165] Memory required for data: 20626588
I1015 21:48:51.214025 13583 layer_factory.hpp:77] Creating layer conv1_1
I1015 21:48:51.214043 13583 net.cpp:100] Creating Layer conv1_1
I1015 21:48:51.214051 13583 net.cpp:434] conv1_1 <- data123
I1015 21:48:51.214061 13583 net.cpp:408] conv1_1 -> conv1_1
I1015 21:48:51.221315 13583 net.cpp:150] Setting up conv1_1
I1015 21:48:51.221351 13583 net.cpp:157] Top shape: 1 64 768 768 (37748736)
I1015 21:48:51.221360 13583 net.cpp:165] Memory required for data: 171621532
I1015 21:48:51.221385 13583 layer_factory.hpp:77] Creating layer relu1_1
I1015 21:48:51.221405 13583 net.cpp:100] Creating Layer relu1_1
I1015 21:48:51.221415 13583 net.cpp:434] relu1_1 <- conv1_1
I1015 21:48:51.221426 13583 net.cpp:395] relu1_1 -> conv1_1 (in-place)
I1015 21:48:51.221838 13583 net.cpp:150] Setting up relu1_1
I1015 21:48:51.221854 13583 net.cpp:157] Top shape: 1 64 768 768 (37748736)
I1015 21:48:51.221861 13583 net.cpp:165] Memory required for data: 322616476
I1015 21:48:51.221869 13583 layer_factory.hpp:77] Creating layer conv1_2
I1015 21:48:51.221889 13583 net.cpp:100] Creating Layer conv1_2
I1015 21:48:51.221896 13583 net.cpp:434] conv1_2 <- conv1_1
I1015 21:48:51.221909 13583 net.cpp:408] conv1_2 -> conv1_2
I1015 21:48:51.226025 13583 net.cpp:150] Setting up conv1_2
I1015 21:48:51.226040 13583 net.cpp:157] Top shape: 1 64 768 768 (37748736)
I1015 21:48:51.226044 13583 net.cpp:165] Memory required for data: 473611420
I1015 21:48:51.226055 13583 layer_factory.hpp:77] Creating layer relu1_2
I1015 21:48:51.226064 13583 net.cpp:100] Creating Layer relu1_2
I1015 21:48:51.226069 13583 net.cpp:434] relu1_2 <- conv1_2
I1015 21:48:51.226076 13583 net.cpp:395] relu1_2 -> conv1_2 (in-place)
I1015 21:48:51.226290 13583 net.cpp:150] Setting up relu1_2
I1015 21:48:51.226300 13583 net.cpp:157] Top shape: 1 64 768 768 (37748736)
I1015 21:48:51.226302 13583 net.cpp:165] Memory required for data: 624606364
I1015 21:48:51.226306 13583 layer_factory.hpp:77] Creating layer pool1
I1015 21:48:51.226313 13583 net.cpp:100] Creating Layer pool1
I1015 21:48:51.226320 13583 net.cpp:434] pool1 <- conv1_2
I1015 21:48:51.226325 13583 net.cpp:408] pool1 -> pool1
I1015 21:48:51.226374 13583 net.cpp:150] Setting up pool1
I1015 21:48:51.226380 13583 net.cpp:157] Top shape: 1 64 384 384 (9437184)
I1015 21:48:51.226383 13583 net.cpp:165] Memory required for data: 662355100
I1015 21:48:51.226387 13583 layer_factory.hpp:77] Creating layer conv2_1
I1015 21:48:51.226397 13583 net.cpp:100] Creating Layer conv2_1
I1015 21:48:51.226400 13583 net.cpp:434] conv2_1 <- pool1
I1015 21:48:51.226406 13583 net.cpp:408] conv2_1 -> conv2_1
I1015 21:48:51.229094 13583 net.cpp:150] Setting up conv2_1
I1015 21:48:51.229112 13583 net.cpp:157] Top shape: 1 128 384 384 (18874368)
I1015 21:48:51.229117 13583 net.cpp:165] Memory required for data: 737852572
I1015 21:48:51.229130 13583 layer_factory.hpp:77] Creating layer relu2_1
I1015 21:48:51.229143 13583 net.cpp:100] Creating Layer relu2_1
I1015 21:48:51.229148 13583 net.cpp:434] relu2_1 <- conv2_1
I1015 21:48:51.229153 13583 net.cpp:395] relu2_1 -> conv2_1 (in-place)
I1015 21:48:51.229713 13583 net.cpp:150] Setting up relu2_1
I1015 21:48:51.229725 13583 net.cpp:157] Top shape: 1 128 384 384 (18874368)
I1015 21:48:51.229728 13583 net.cpp:165] Memory required for data: 813350044
I1015 21:48:51.229732 13583 layer_factory.hpp:77] Creating layer conv2_2
I1015 21:48:51.229748 13583 net.cpp:100] Creating Layer conv2_2
I1015 21:48:51.229753 13583 net.cpp:434] conv2_2 <- conv2_1
I1015 21:48:51.229758 13583 net.cpp:408] conv2_2 -> conv2_2
I1015 21:48:51.231146 13583 net.cpp:150] Setting up conv2_2
I1015 21:48:51.231158 13583 net.cpp:157] Top shape: 1 128 384 384 (18874368)
I1015 21:48:51.231163 13583 net.cpp:165] Memory required for data: 888847516
I1015 21:48:51.231169 13583 layer_factory.hpp:77] Creating layer relu2_2
I1015 21:48:51.231178 13583 net.cpp:100] Creating Layer relu2_2
I1015 21:48:51.231182 13583 net.cpp:434] relu2_2 <- conv2_2
I1015 21:48:51.231187 13583 net.cpp:395] relu2_2 -> conv2_2 (in-place)
I1015 21:48:51.231746 13583 net.cpp:150] Setting up relu2_2
I1015 21:48:51.231757 13583 net.cpp:157] Top shape: 1 128 384 384 (18874368)
I1015 21:48:51.231761 13583 net.cpp:165] Memory required for data: 964344988
I1015 21:48:51.231765 13583 layer_factory.hpp:77] Creating layer pool2
I1015 21:48:51.231773 13583 net.cpp:100] Creating Layer pool2
I1015 21:48:51.231777 13583 net.cpp:434] pool2 <- conv2_2
I1015 21:48:51.231783 13583 net.cpp:408] pool2 -> pool2
I1015 21:48:51.231830 13583 net.cpp:150] Setting up pool2
I1015 21:48:51.231837 13583 net.cpp:157] Top shape: 1 128 192 192 (4718592)
I1015 21:48:51.231840 13583 net.cpp:165] Memory required for data: 983219356
I1015 21:48:51.231843 13583 layer_factory.hpp:77] Creating layer conv3_1
I1015 21:48:51.231853 13583 net.cpp:100] Creating Layer conv3_1
I1015 21:48:51.231856 13583 net.cpp:434] conv3_1 <- pool2
I1015 21:48:51.231861 13583 net.cpp:408] conv3_1 -> conv3_1
I1015 21:48:51.238348 13583 net.cpp:150] Setting up conv3_1
I1015 21:48:51.238384 13583 net.cpp:157] Top shape: 1 256 192 192 (9437184)
I1015 21:48:51.238394 13583 net.cpp:165] Memory required for data: 1020968092
I1015 21:48:51.238420 13583 layer_factory.hpp:77] Creating layer relu3_1
I1015 21:48:51.238440 13583 net.cpp:100] Creating Layer relu3_1
I1015 21:48:51.238451 13583 net.cpp:434] relu3_1 <- conv3_1
I1015 21:48:51.238466 13583 net.cpp:395] relu3_1 -> conv3_1 (in-place)
I1015 21:48:51.238885 13583 net.cpp:150] Setting up relu3_1
I1015 21:48:51.238903 13583 net.cpp:157] Top shape: 1 256 192 192 (9437184)
I1015 21:48:51.238910 13583 net.cpp:165] Memory required for data: 1058716828
I1015 21:48:51.238919 13583 layer_factory.hpp:77] Creating layer conv3_2
I1015 21:48:51.238939 13583 net.cpp:100] Creating Layer conv3_2
I1015 21:48:51.238947 13583 net.cpp:434] conv3_2 <- conv3_1
I1015 21:48:51.238963 13583 net.cpp:408] conv3_2 -> conv3_2
I1015 21:48:51.244493 13583 net.cpp:150] Setting up conv3_2
I1015 21:48:51.244534 13583 net.cpp:157] Top shape: 1 256 192 192 (9437184)
I1015 21:48:51.244542 13583 net.cpp:165] Memory required for data: 1096465564
I1015 21:48:51.244560 13583 layer_factory.hpp:77] Creating layer relu3_2
I1015 21:48:51.244580 13583 net.cpp:100] Creating Layer relu3_2
I1015 21:48:51.244591 13583 net.cpp:434] relu3_2 <- conv3_2
I1015 21:48:51.244603 13583 net.cpp:395] relu3_2 -> conv3_2 (in-place)
I1015 21:48:51.245004 13583 net.cpp:150] Setting up relu3_2
I1015 21:48:51.245023 13583 net.cpp:157] Top shape: 1 256 192 192 (9437184)
I1015 21:48:51.245029 13583 net.cpp:165] Memory required for data: 1134214300
I1015 21:48:51.245038 13583 layer_factory.hpp:77] Creating layer conv3_3
I1015 21:48:51.245052 13583 net.cpp:100] Creating Layer conv3_3
I1015 21:48:51.245060 13583 net.cpp:434] conv3_3 <- conv3_2
I1015 21:48:51.245074 13583 net.cpp:408] conv3_3 -> conv3_3
I1015 21:48:51.249763 13583 net.cpp:150] Setting up conv3_3
I1015 21:48:51.249788 13583 net.cpp:157] Top shape: 1 256 192 192 (9437184)
I1015 21:48:51.249792 13583 net.cpp:165] Memory required for data: 1171963036
I1015 21:48:51.249801 13583 layer_factory.hpp:77] Creating layer relu3_3
I1015 21:48:51.249811 13583 net.cpp:100] Creating Layer relu3_3
I1015 21:48:51.249817 13583 net.cpp:434] relu3_3 <- conv3_3
I1015 21:48:51.249825 13583 net.cpp:395] relu3_3 -> conv3_3 (in-place)
I1015 21:48:51.249995 13583 net.cpp:150] Setting up relu3_3
I1015 21:48:51.250005 13583 net.cpp:157] Top shape: 1 256 192 192 (9437184)
I1015 21:48:51.250007 13583 net.cpp:165] Memory required for data: 1209711772
I1015 21:48:51.250010 13583 layer_factory.hpp:77] Creating layer pool3
I1015 21:48:51.250018 13583 net.cpp:100] Creating Layer pool3
I1015 21:48:51.250023 13583 net.cpp:434] pool3 <- conv3_3
I1015 21:48:51.250030 13583 net.cpp:408] pool3 -> pool3
I1015 21:48:51.250072 13583 net.cpp:150] Setting up pool3
I1015 21:48:51.250078 13583 net.cpp:157] Top shape: 1 256 96 96 (2359296)
I1015 21:48:51.250082 13583 net.cpp:165] Memory required for data: 1219148956
I1015 21:48:51.250084 13583 layer_factory.hpp:77] Creating layer conv4_1
I1015 21:48:51.250092 13583 net.cpp:100] Creating Layer conv4_1
I1015 21:48:51.250097 13583 net.cpp:434] conv4_1 <- pool3
I1015 21:48:51.250102 13583 net.cpp:408] conv4_1 -> conv4_1
I1015 21:48:51.253564 13583 net.cpp:150] Setting up conv4_1
I1015 21:48:51.253589 13583 net.cpp:157] Top shape: 1 512 96 96 (4718592)
I1015 21:48:51.253593 13583 net.cpp:165] Memory required for data: 1238023324
I1015 21:48:51.253602 13583 layer_factory.hpp:77] Creating layer relu4_1
I1015 21:48:51.253612 13583 net.cpp:100] Creating Layer relu4_1
I1015 21:48:51.253618 13583 net.cpp:434] relu4_1 <- conv4_1
I1015 21:48:51.253625 13583 net.cpp:395] relu4_1 -> conv4_1 (in-place)
I1015 21:48:51.253788 13583 net.cpp:150] Setting up relu4_1
I1015 21:48:51.253798 13583 net.cpp:157] Top shape: 1 512 96 96 (4718592)
I1015 21:48:51.253800 13583 net.cpp:165] Memory required for data: 1256897692
I1015 21:48:51.253804 13583 layer_factory.hpp:77] Creating layer conv4_2
I1015 21:48:51.253813 13583 net.cpp:100] Creating Layer conv4_2
I1015 21:48:51.253818 13583 net.cpp:434] conv4_2 <- conv4_1
I1015 21:48:51.253823 13583 net.cpp:408] conv4_2 -> conv4_2
I1015 21:48:51.261670 13583 net.cpp:150] Setting up conv4_2
I1015 21:48:51.261705 13583 net.cpp:157] Top shape: 1 512 96 96 (4718592)
I1015 21:48:51.261709 13583 net.cpp:165] Memory required for data: 1275772060
I1015 21:48:51.261725 13583 layer_factory.hpp:77] Creating layer relu4_2
I1015 21:48:51.261740 13583 net.cpp:100] Creating Layer relu4_2
I1015 21:48:51.261746 13583 net.cpp:434] relu4_2 <- conv4_2
I1015 21:48:51.261755 13583 net.cpp:395] relu4_2 -> conv4_2 (in-place)
I1015 21:48:51.262326 13583 net.cpp:150] Setting up relu4_2
I1015 21:48:51.262341 13583 net.cpp:157] Top shape: 1 512 96 96 (4718592)
I1015 21:48:51.262344 13583 net.cpp:165] Memory required for data: 1294646428
I1015 21:48:51.262348 13583 layer_factory.hpp:77] Creating layer conv4_3
I1015 21:48:51.262359 13583 net.cpp:100] Creating Layer conv4_3
I1015 21:48:51.262367 13583 net.cpp:434] conv4_3 <- conv4_2
I1015 21:48:51.262374 13583 net.cpp:408] conv4_3 -> conv4_3
I1015 21:48:51.269934 13583 net.cpp:150] Setting up conv4_3
I1015 21:48:51.269984 13583 net.cpp:157] Top shape: 1 512 96 96 (4718592)
I1015 21:48:51.269989 13583 net.cpp:165] Memory required for data: 1313520796
I1015 21:48:51.269999 13583 layer_factory.hpp:77] Creating layer relu4_3
I1015 21:48:51.270014 13583 net.cpp:100] Creating Layer relu4_3
I1015 21:48:51.270020 13583 net.cpp:434] relu4_3 <- conv4_3
I1015 21:48:51.270027 13583 net.cpp:395] relu4_3 -> conv4_3 (in-place)
I1015 21:48:51.270859 13583 net.cpp:150] Setting up relu4_3
I1015 21:48:51.270871 13583 net.cpp:157] Top shape: 1 512 96 96 (4718592)
I1015 21:48:51.270875 13583 net.cpp:165] Memory required for data: 1332395164
I1015 21:48:51.270879 13583 layer_factory.hpp:77] Creating layer conv4_3_relu4_3_0_split
I1015 21:48:51.270893 13583 net.cpp:100] Creating Layer conv4_3_relu4_3_0_split
I1015 21:48:51.270898 13583 net.cpp:434] conv4_3_relu4_3_0_split <- conv4_3
I1015 21:48:51.270905 13583 net.cpp:408] conv4_3_relu4_3_0_split -> conv4_3_relu4_3_0_split_0
I1015 21:48:51.270911 13583 net.cpp:408] conv4_3_relu4_3_0_split -> conv4_3_relu4_3_0_split_1
I1015 21:48:51.270917 13583 net.cpp:408] conv4_3_relu4_3_0_split -> conv4_3_relu4_3_0_split_2
I1015 21:48:51.270922 13583 net.cpp:408] conv4_3_relu4_3_0_split -> conv4_3_relu4_3_0_split_3
I1015 21:48:51.271013 13583 net.cpp:150] Setting up conv4_3_relu4_3_0_split
I1015 21:48:51.271019 13583 net.cpp:157] Top shape: 1 512 96 96 (4718592)
I1015 21:48:51.271023 13583 net.cpp:157] Top shape: 1 512 96 96 (4718592)
I1015 21:48:51.271040 13583 net.cpp:157] Top shape: 1 512 96 96 (4718592)
I1015 21:48:51.271045 13583 net.cpp:157] Top shape: 1 512 96 96 (4718592)
I1015 21:48:51.271049 13583 net.cpp:165] Memory required for data: 1407892636
I1015 21:48:51.271052 13583 layer_factory.hpp:77] Creating layer buffer
I1015 21:48:51.271072 13583 net.cpp:100] Creating Layer buffer
I1015 21:48:51.271077 13583 net.cpp:434] buffer <- conv4_3_relu4_3_0_split_0
I1015 21:48:51.271085 13583 net.cpp:408] buffer -> buffer
I1015 21:48:51.331682 13583 net.cpp:150] Setting up buffer
I1015 21:48:51.331709 13583 net.cpp:157] Top shape: 1 512 96 96 (4718592)
I1015 21:48:51.331714 13583 net.cpp:165] Memory required for data: 1426767004
I1015 21:48:51.331722 13583 layer_factory.hpp:77] Creating layer relu_buffer
I1015 21:48:51.331734 13583 net.cpp:100] Creating Layer relu_buffer
I1015 21:48:51.331740 13583 net.cpp:434] relu_buffer <- buffer
I1015 21:48:51.331748 13583 net.cpp:395] relu_buffer -> buffer (in-place)
I1015 21:48:51.331907 13583 net.cpp:150] Setting up relu_buffer
I1015 21:48:51.331917 13583 net.cpp:157] Top shape: 1 512 96 96 (4718592)
I1015 21:48:51.331919 13583 net.cpp:165] Memory required for data: 1445641372
I1015 21:48:51.331923 13583 layer_factory.hpp:77] Creating layer attention
I1015 21:48:51.331933 13583 net.cpp:100] Creating Layer attention
I1015 21:48:51.331935 13583 net.cpp:434] attention <- buffer
I1015 21:48:51.331941 13583 net.cpp:408] attention -> attention
I1015 21:48:51.333420 13583 net.cpp:150] Setting up attention
I1015 21:48:51.333434 13583 net.cpp:157] Top shape: 1 3 96 96 (27648)
I1015 21:48:51.333437 13583 net.cpp:165] Memory required for data: 1445751964
I1015 21:48:51.333446 13583 layer_factory.hpp:77] Creating layer relu_attention
I1015 21:48:51.333453 13583 net.cpp:100] Creating Layer relu_attention
I1015 21:48:51.333458 13583 net.cpp:434] relu_attention <- attention
I1015 21:48:51.333464 13583 net.cpp:408] relu_attention -> relu_attention
I1015 21:48:51.333647 13583 net.cpp:150] Setting up relu_attention
I1015 21:48:51.333657 13583 net.cpp:157] Top shape: 1 3 96 96 (27648)
I1015 21:48:51.333659 13583 net.cpp:165] Memory required for data: 1445862556
I1015 21:48:51.333662 13583 layer_factory.hpp:77] Creating layer relu_attention_relu_attention_0_split
I1015 21:48:51.333669 13583 net.cpp:100] Creating Layer relu_attention_relu_attention_0_split
I1015 21:48:51.333673 13583 net.cpp:434] relu_attention_relu_attention_0_split <- relu_attention
I1015 21:48:51.333678 13583 net.cpp:408] relu_attention_relu_attention_0_split -> relu_attention_relu_attention_0_split_0
I1015 21:48:51.333683 13583 net.cpp:408] relu_attention_relu_attention_0_split -> relu_attention_relu_attention_0_split_1
I1015 21:48:51.333720 13583 net.cpp:150] Setting up relu_attention_relu_attention_0_split
I1015 21:48:51.333727 13583 net.cpp:157] Top shape: 1 3 96 96 (27648)
I1015 21:48:51.333731 13583 net.cpp:157] Top shape: 1 3 96 96 (27648)
I1015 21:48:51.333734 13583 net.cpp:165] Memory required for data: 1446083740
I1015 21:48:51.333737 13583 layer_factory.hpp:77] Creating layer ch4_pool
I1015 21:48:51.333744 13583 net.cpp:100] Creating Layer ch4_pool
I1015 21:48:51.333746 13583 net.cpp:434] ch4_pool <- ch4
I1015 21:48:51.333752 13583 net.cpp:408] ch4_pool -> ch4_pool
I1015 21:48:51.333789 13583 net.cpp:150] Setting up ch4_pool
I1015 21:48:51.333796 13583 net.cpp:157] Top shape: 1 1 96 96 (9216)
I1015 21:48:51.333798 13583 net.cpp:165] Memory required for data: 1446120604
I1015 21:48:51.333801 13583 layer_factory.hpp:77] Creating layer loss_attention
I1015 21:48:51.333808 13583 net.cpp:100] Creating Layer loss_attention
I1015 21:48:51.333811 13583 net.cpp:434] loss_attention <- relu_attention_relu_attention_0_split_0
I1015 21:48:51.333817 13583 net.cpp:434] loss_attention <- ch4_pool
I1015 21:48:51.333822 13583 net.cpp:408] loss_attention -> loss_attention
I1015 21:48:51.333828 13583 layer_factory.hpp:77] Creating layer loss_attention
I1015 21:48:51.334076 13583 net.cpp:150] Setting up loss_attention
I1015 21:48:51.334085 13583 net.cpp:157] Top shape: (1)
I1015 21:48:51.334090 13583 net.cpp:160]     with loss weight 1
I1015 21:48:51.334101 13583 net.cpp:165] Memory required for data: 1446120608
I1015 21:48:51.334105 13583 layer_factory.hpp:77] Creating layer loss1_conv1
I1015 21:48:51.334113 13583 net.cpp:100] Creating Layer loss1_conv1
I1015 21:48:51.334117 13583 net.cpp:434] loss1_conv1 <- conv4_3_relu4_3_0_split_1
I1015 21:48:51.334123 13583 net.cpp:408] loss1_conv1 -> loss1_conv1
I1015 21:48:51.393191 13583 net.cpp:150] Setting up loss1_conv1
I1015 21:48:51.393218 13583 net.cpp:157] Top shape: 1 512 96 96 (4718592)
I1015 21:48:51.393223 13583 net.cpp:165] Memory required for data: 1464994976
I1015 21:48:51.393231 13583 layer_factory.hpp:77] Creating layer loss_relu1
I1015 21:48:51.393244 13583 net.cpp:100] Creating Layer loss_relu1
I1015 21:48:51.393249 13583 net.cpp:434] loss_relu1 <- loss1_conv1
I1015 21:48:51.393256 13583 net.cpp:395] loss_relu1 -> loss1_conv1 (in-place)
I1015 21:48:51.393422 13583 net.cpp:150] Setting up loss_relu1
I1015 21:48:51.393431 13583 net.cpp:157] Top shape: 1 512 96 96 (4718592)
I1015 21:48:51.393435 13583 net.cpp:165] Memory required for data: 1483869344
I1015 21:48:51.393437 13583 layer_factory.hpp:77] Creating layer loss1_conv1_loss_relu1_0_split
I1015 21:48:51.393443 13583 net.cpp:100] Creating Layer loss1_conv1_loss_relu1_0_split
I1015 21:48:51.393447 13583 net.cpp:434] loss1_conv1_loss_relu1_0_split <- loss1_conv1
I1015 21:48:51.393455 13583 net.cpp:408] loss1_conv1_loss_relu1_0_split -> loss1_conv1_loss_relu1_0_split_0
I1015 21:48:51.393462 13583 net.cpp:408] loss1_conv1_loss_relu1_0_split -> loss1_conv1_loss_relu1_0_split_1
I1015 21:48:51.393512 13583 net.cpp:150] Setting up loss1_conv1_loss_relu1_0_split
I1015 21:48:51.393519 13583 net.cpp:157] Top shape: 1 512 96 96 (4718592)
I1015 21:48:51.393524 13583 net.cpp:157] Top shape: 1 512 96 96 (4718592)
I1015 21:48:51.393527 13583 net.cpp:165] Memory required for data: 1521618080
I1015 21:48:51.393532 13583 layer_factory.hpp:77] Creating layer LFCN_1_5x5
I1015 21:48:51.393544 13583 net.cpp:100] Creating Layer LFCN_1_5x5
I1015 21:48:51.393549 13583 net.cpp:434] LFCN_1_5x5 <- loss1_conv1_loss_relu1_0_split_0
I1015 21:48:51.393558 13583 net.cpp:408] LFCN_1_5x5 -> LFCN_1_5x5
I1015 21:48:51.397578 13583 net.cpp:150] Setting up LFCN_1_5x5
I1015 21:48:51.397593 13583 net.cpp:157] Top shape: 1 9 96 96 (82944)
I1015 21:48:51.397595 13583 net.cpp:165] Memory required for data: 1521949856
I1015 21:48:51.397601 13583 layer_factory.hpp:77] Creating layer LFCN_1_5x5_LFCN_1_5x5_0_split
I1015 21:48:51.397609 13583 net.cpp:100] Creating Layer LFCN_1_5x5_LFCN_1_5x5_0_split
I1015 21:48:51.397614 13583 net.cpp:434] LFCN_1_5x5_LFCN_1_5x5_0_split <- LFCN_1_5x5
I1015 21:48:51.397619 13583 net.cpp:408] LFCN_1_5x5_LFCN_1_5x5_0_split -> LFCN_1_5x5_LFCN_1_5x5_0_split_0
I1015 21:48:51.397626 13583 net.cpp:408] LFCN_1_5x5_LFCN_1_5x5_0_split -> LFCN_1_5x5_LFCN_1_5x5_0_split_1
I1015 21:48:51.397632 13583 net.cpp:408] LFCN_1_5x5_LFCN_1_5x5_0_split -> LFCN_1_5x5_LFCN_1_5x5_0_split_2
I1015 21:48:51.397686 13583 net.cpp:150] Setting up LFCN_1_5x5_LFCN_1_5x5_0_split
I1015 21:48:51.397692 13583 net.cpp:157] Top shape: 1 9 96 96 (82944)
I1015 21:48:51.397696 13583 net.cpp:157] Top shape: 1 9 96 96 (82944)
I1015 21:48:51.397701 13583 net.cpp:157] Top shape: 1 9 96 96 (82944)
I1015 21:48:51.397704 13583 net.cpp:165] Memory required for data: 1522945184
I1015 21:48:51.397707 13583 layer_factory.hpp:77] Creating layer detection_loss_1_5x5
I1015 21:48:51.397716 13583 net.cpp:100] Creating Layer detection_loss_1_5x5
I1015 21:48:51.397720 13583 net.cpp:434] detection_loss_1_5x5 <- LFCN_1_5x5_LFCN_1_5x5_0_split_0
I1015 21:48:51.397724 13583 net.cpp:434] detection_loss_1_5x5 <- label_1_5x5_data_1_split_0
I1015 21:48:51.397730 13583 net.cpp:408] detection_loss_1_5x5 -> loss_1_5x5
I1015 21:48:51.397739 13583 layer_factory.hpp:77] Creating layer detection_loss_1_5x5
I1015 21:48:51.399240 13583 net.cpp:150] Setting up detection_loss_1_5x5
I1015 21:48:51.399252 13583 net.cpp:157] Top shape: 1 1 1 2 (2)
I1015 21:48:51.399256 13583 net.cpp:160]     with loss weight 0.9
I1015 21:48:51.399266 13583 net.cpp:165] Memory required for data: 1522945192
I1015 21:48:51.399271 13583 layer_factory.hpp:77] Creating layer detection_accuracy_1_5x5
I1015 21:48:51.399277 13583 net.cpp:100] Creating Layer detection_accuracy_1_5x5
I1015 21:48:51.399281 13583 net.cpp:434] detection_accuracy_1_5x5 <- LFCN_1_5x5_LFCN_1_5x5_0_split_1
I1015 21:48:51.399286 13583 net.cpp:434] detection_accuracy_1_5x5 <- label_1_5x5_data_1_split_1
I1015 21:48:51.399291 13583 net.cpp:408] detection_accuracy_1_5x5 -> accuracy_1_5x5
I1015 21:48:51.399297 13583 net.cpp:408] detection_accuracy_1_5x5 -> boxiou_1_5x5
I1015 21:48:51.399336 13583 net.cpp:150] Setting up detection_accuracy_1_5x5
I1015 21:48:51.399343 13583 net.cpp:157] Top shape: 1 1 1 2 (2)
I1015 21:48:51.399348 13583 net.cpp:157] Top shape: 1 1 1 1 (1)
I1015 21:48:51.399350 13583 net.cpp:165] Memory required for data: 1522945204
I1015 21:48:51.399353 13583 layer_factory.hpp:77] Creating layer LFCN_1_7x7
I1015 21:48:51.399363 13583 net.cpp:100] Creating Layer LFCN_1_7x7
I1015 21:48:51.399366 13583 net.cpp:434] LFCN_1_7x7 <- loss1_conv1_loss_relu1_0_split_1
I1015 21:48:51.399374 13583 net.cpp:408] LFCN_1_7x7 -> LFCN_1_7x7
I1015 21:48:51.407280 13583 net.cpp:150] Setting up LFCN_1_7x7
I1015 21:48:51.407304 13583 net.cpp:157] Top shape: 1 9 96 96 (82944)
I1015 21:48:51.407307 13583 net.cpp:165] Memory required for data: 1523276980
I1015 21:48:51.407315 13583 layer_factory.hpp:77] Creating layer LFCN_1_7x7_LFCN_1_7x7_0_split
I1015 21:48:51.407325 13583 net.cpp:100] Creating Layer LFCN_1_7x7_LFCN_1_7x7_0_split
I1015 21:48:51.407330 13583 net.cpp:434] LFCN_1_7x7_LFCN_1_7x7_0_split <- LFCN_1_7x7
I1015 21:48:51.407336 13583 net.cpp:408] LFCN_1_7x7_LFCN_1_7x7_0_split -> LFCN_1_7x7_LFCN_1_7x7_0_split_0
I1015 21:48:51.407344 13583 net.cpp:408] LFCN_1_7x7_LFCN_1_7x7_0_split -> LFCN_1_7x7_LFCN_1_7x7_0_split_1
I1015 21:48:51.407349 13583 net.cpp:408] LFCN_1_7x7_LFCN_1_7x7_0_split -> LFCN_1_7x7_LFCN_1_7x7_0_split_2
I1015 21:48:51.407402 13583 net.cpp:150] Setting up LFCN_1_7x7_LFCN_1_7x7_0_split
I1015 21:48:51.407409 13583 net.cpp:157] Top shape: 1 9 96 96 (82944)
I1015 21:48:51.407413 13583 net.cpp:157] Top shape: 1 9 96 96 (82944)
I1015 21:48:51.407418 13583 net.cpp:157] Top shape: 1 9 96 96 (82944)
I1015 21:48:51.407420 13583 net.cpp:165] Memory required for data: 1524272308
I1015 21:48:51.407423 13583 layer_factory.hpp:77] Creating layer detection_loss_1_7x7
I1015 21:48:51.407430 13583 net.cpp:100] Creating Layer detection_loss_1_7x7
I1015 21:48:51.407434 13583 net.cpp:434] detection_loss_1_7x7 <- LFCN_1_7x7_LFCN_1_7x7_0_split_0
I1015 21:48:51.407439 13583 net.cpp:434] detection_loss_1_7x7 <- label_1_7x7_data_2_split_0
I1015 21:48:51.407444 13583 net.cpp:408] detection_loss_1_7x7 -> loss_1_7x7
I1015 21:48:51.407452 13583 layer_factory.hpp:77] Creating layer detection_loss_1_7x7
I1015 21:48:51.407865 13583 net.cpp:150] Setting up detection_loss_1_7x7
I1015 21:48:51.407874 13583 net.cpp:157] Top shape: 1 1 1 2 (2)
I1015 21:48:51.407878 13583 net.cpp:160]     with loss weight 0.9
I1015 21:48:51.407888 13583 net.cpp:165] Memory required for data: 1524272316
I1015 21:48:51.407892 13583 layer_factory.hpp:77] Creating layer detection_accuracy_1_7x7
I1015 21:48:51.407898 13583 net.cpp:100] Creating Layer detection_accuracy_1_7x7
I1015 21:48:51.407902 13583 net.cpp:434] detection_accuracy_1_7x7 <- LFCN_1_7x7_LFCN_1_7x7_0_split_1
I1015 21:48:51.407907 13583 net.cpp:434] detection_accuracy_1_7x7 <- label_1_7x7_data_2_split_1
I1015 21:48:51.407910 13583 net.cpp:408] detection_accuracy_1_7x7 -> accuracy_1_7x7
I1015 21:48:51.407923 13583 net.cpp:408] detection_accuracy_1_7x7 -> boxiou_1_7x7
I1015 21:48:51.407966 13583 net.cpp:150] Setting up detection_accuracy_1_7x7
I1015 21:48:51.407974 13583 net.cpp:157] Top shape: 1 1 1 2 (2)
I1015 21:48:51.407977 13583 net.cpp:157] Top shape: 1 1 1 1 (1)
I1015 21:48:51.407980 13583 net.cpp:165] Memory required for data: 1524272328
I1015 21:48:51.407984 13583 layer_factory.hpp:77] Creating layer pool4
I1015 21:48:51.407991 13583 net.cpp:100] Creating Layer pool4
I1015 21:48:51.407994 13583 net.cpp:434] pool4 <- conv4_3_relu4_3_0_split_2
I1015 21:48:51.408000 13583 net.cpp:408] pool4 -> pool4
I1015 21:48:51.408038 13583 net.cpp:150] Setting up pool4
I1015 21:48:51.408044 13583 net.cpp:157] Top shape: 1 512 48 48 (1179648)
I1015 21:48:51.408047 13583 net.cpp:165] Memory required for data: 1528990920
I1015 21:48:51.408051 13583 layer_factory.hpp:77] Creating layer conv5_1
I1015 21:48:51.408058 13583 net.cpp:100] Creating Layer conv5_1
I1015 21:48:51.408061 13583 net.cpp:434] conv5_1 <- pool4
I1015 21:48:51.408066 13583 net.cpp:408] conv5_1 -> conv5_1
I1015 21:48:51.413986 13583 net.cpp:150] Setting up conv5_1
I1015 21:48:51.414017 13583 net.cpp:157] Top shape: 1 512 48 48 (1179648)
I1015 21:48:51.414022 13583 net.cpp:165] Memory required for data: 1533709512
I1015 21:48:51.414032 13583 layer_factory.hpp:77] Creating layer relu5_1
I1015 21:48:51.414043 13583 net.cpp:100] Creating Layer relu5_1
I1015 21:48:51.414049 13583 net.cpp:434] relu5_1 <- conv5_1
I1015 21:48:51.414057 13583 net.cpp:395] relu5_1 -> conv5_1 (in-place)
I1015 21:48:51.414230 13583 net.cpp:150] Setting up relu5_1
I1015 21:48:51.414239 13583 net.cpp:157] Top shape: 1 512 48 48 (1179648)
I1015 21:48:51.414242 13583 net.cpp:165] Memory required for data: 1538428104
I1015 21:48:51.414247 13583 layer_factory.hpp:77] Creating layer conv5_2
I1015 21:48:51.414258 13583 net.cpp:100] Creating Layer conv5_2
I1015 21:48:51.414263 13583 net.cpp:434] conv5_2 <- conv5_1
I1015 21:48:51.414268 13583 net.cpp:408] conv5_2 -> conv5_2
I1015 21:48:51.420130 13583 net.cpp:150] Setting up conv5_2
I1015 21:48:51.420161 13583 net.cpp:157] Top shape: 1 512 48 48 (1179648)
I1015 21:48:51.420166 13583 net.cpp:165] Memory required for data: 1543146696
I1015 21:48:51.420182 13583 layer_factory.hpp:77] Creating layer relu5_2
I1015 21:48:51.420195 13583 net.cpp:100] Creating Layer relu5_2
I1015 21:48:51.420202 13583 net.cpp:434] relu5_2 <- conv5_2
I1015 21:48:51.420207 13583 net.cpp:395] relu5_2 -> conv5_2 (in-place)
I1015 21:48:51.420352 13583 net.cpp:150] Setting up relu5_2
I1015 21:48:51.420370 13583 net.cpp:157] Top shape: 1 512 48 48 (1179648)
I1015 21:48:51.420374 13583 net.cpp:165] Memory required for data: 1547865288
I1015 21:48:51.420378 13583 layer_factory.hpp:77] Creating layer conv5_3
I1015 21:48:51.420388 13583 net.cpp:100] Creating Layer conv5_3
I1015 21:48:51.420392 13583 net.cpp:434] conv5_3 <- conv5_2
I1015 21:48:51.420398 13583 net.cpp:408] conv5_3 -> conv5_3
I1015 21:48:51.426637 13583 net.cpp:150] Setting up conv5_3
I1015 21:48:51.426667 13583 net.cpp:157] Top shape: 1 512 48 48 (1179648)
I1015 21:48:51.426671 13583 net.cpp:165] Memory required for data: 1552583880
I1015 21:48:51.426678 13583 layer_factory.hpp:77] Creating layer relu5_3
I1015 21:48:51.426689 13583 net.cpp:100] Creating Layer relu5_3
I1015 21:48:51.426694 13583 net.cpp:434] relu5_3 <- conv5_3
I1015 21:48:51.426700 13583 net.cpp:395] relu5_3 -> conv5_3 (in-place)
I1015 21:48:51.426849 13583 net.cpp:150] Setting up relu5_3
I1015 21:48:51.426858 13583 net.cpp:157] Top shape: 1 512 48 48 (1179648)
I1015 21:48:51.426862 13583 net.cpp:165] Memory required for data: 1557302472
I1015 21:48:51.426864 13583 layer_factory.hpp:77] Creating layer conv5_3_relu5_3_0_split
I1015 21:48:51.426872 13583 net.cpp:100] Creating Layer conv5_3_relu5_3_0_split
I1015 21:48:51.426875 13583 net.cpp:434] conv5_3_relu5_3_0_split <- conv5_3
I1015 21:48:51.426880 13583 net.cpp:408] conv5_3_relu5_3_0_split -> conv5_3_relu5_3_0_split_0
I1015 21:48:51.426887 13583 net.cpp:408] conv5_3_relu5_3_0_split -> conv5_3_relu5_3_0_split_1
I1015 21:48:51.426893 13583 net.cpp:408] conv5_3_relu5_3_0_split -> conv5_3_relu5_3_0_split_2
I1015 21:48:51.426946 13583 net.cpp:150] Setting up conv5_3_relu5_3_0_split
I1015 21:48:51.426954 13583 net.cpp:157] Top shape: 1 512 48 48 (1179648)
I1015 21:48:51.426957 13583 net.cpp:157] Top shape: 1 512 48 48 (1179648)
I1015 21:48:51.426961 13583 net.cpp:157] Top shape: 1 512 48 48 (1179648)
I1015 21:48:51.426964 13583 net.cpp:165] Memory required for data: 1571458248
I1015 21:48:51.426967 13583 layer_factory.hpp:77] Creating layer LFCN_2_5x5
I1015 21:48:51.426977 13583 net.cpp:100] Creating Layer LFCN_2_5x5
I1015 21:48:51.426982 13583 net.cpp:434] LFCN_2_5x5 <- conv5_3_relu5_3_0_split_0
I1015 21:48:51.426987 13583 net.cpp:408] LFCN_2_5x5 -> LFCN_2_5x5
I1015 21:48:51.430930 13583 net.cpp:150] Setting up LFCN_2_5x5
I1015 21:48:51.430941 13583 net.cpp:157] Top shape: 1 9 48 48 (20736)
I1015 21:48:51.430944 13583 net.cpp:165] Memory required for data: 1571541192
I1015 21:48:51.430949 13583 layer_factory.hpp:77] Creating layer LFCN_2_5x5_LFCN_2_5x5_0_split
I1015 21:48:51.430954 13583 net.cpp:100] Creating Layer LFCN_2_5x5_LFCN_2_5x5_0_split
I1015 21:48:51.430958 13583 net.cpp:434] LFCN_2_5x5_LFCN_2_5x5_0_split <- LFCN_2_5x5
I1015 21:48:51.430963 13583 net.cpp:408] LFCN_2_5x5_LFCN_2_5x5_0_split -> LFCN_2_5x5_LFCN_2_5x5_0_split_0
I1015 21:48:51.430968 13583 net.cpp:408] LFCN_2_5x5_LFCN_2_5x5_0_split -> LFCN_2_5x5_LFCN_2_5x5_0_split_1
I1015 21:48:51.430974 13583 net.cpp:408] LFCN_2_5x5_LFCN_2_5x5_0_split -> LFCN_2_5x5_LFCN_2_5x5_0_split_2
I1015 21:48:51.431017 13583 net.cpp:150] Setting up LFCN_2_5x5_LFCN_2_5x5_0_split
I1015 21:48:51.431022 13583 net.cpp:157] Top shape: 1 9 48 48 (20736)
I1015 21:48:51.431026 13583 net.cpp:157] Top shape: 1 9 48 48 (20736)
I1015 21:48:51.431030 13583 net.cpp:157] Top shape: 1 9 48 48 (20736)
I1015 21:48:51.431032 13583 net.cpp:165] Memory required for data: 1571790024
I1015 21:48:51.431036 13583 layer_factory.hpp:77] Creating layer detection_loss_2_5x5
I1015 21:48:51.431043 13583 net.cpp:100] Creating Layer detection_loss_2_5x5
I1015 21:48:51.431047 13583 net.cpp:434] detection_loss_2_5x5 <- LFCN_2_5x5_LFCN_2_5x5_0_split_0
I1015 21:48:51.431051 13583 net.cpp:434] detection_loss_2_5x5 <- label_2_5x5_data_3_split_0
I1015 21:48:51.431057 13583 net.cpp:408] detection_loss_2_5x5 -> loss_2_5x5
I1015 21:48:51.431066 13583 layer_factory.hpp:77] Creating layer detection_loss_2_5x5
I1015 21:48:51.431396 13583 net.cpp:150] Setting up detection_loss_2_5x5
I1015 21:48:51.431406 13583 net.cpp:157] Top shape: 1 1 1 2 (2)
I1015 21:48:51.431409 13583 net.cpp:160]     with loss weight 1
I1015 21:48:51.431421 13583 net.cpp:165] Memory required for data: 1571790032
I1015 21:48:51.431424 13583 layer_factory.hpp:77] Creating layer detection_accuracy_2_5x5
I1015 21:48:51.431432 13583 net.cpp:100] Creating Layer detection_accuracy_2_5x5
I1015 21:48:51.431435 13583 net.cpp:434] detection_accuracy_2_5x5 <- LFCN_2_5x5_LFCN_2_5x5_0_split_1
I1015 21:48:51.431440 13583 net.cpp:434] detection_accuracy_2_5x5 <- label_2_5x5_data_3_split_1
I1015 21:48:51.431445 13583 net.cpp:408] detection_accuracy_2_5x5 -> accuracy_2_5x5
I1015 21:48:51.431452 13583 net.cpp:408] detection_accuracy_2_5x5 -> boxiou_2_5x5
I1015 21:48:51.431490 13583 net.cpp:150] Setting up detection_accuracy_2_5x5
I1015 21:48:51.431497 13583 net.cpp:157] Top shape: 1 1 1 2 (2)
I1015 21:48:51.431501 13583 net.cpp:157] Top shape: 1 1 1 1 (1)
I1015 21:48:51.431504 13583 net.cpp:165] Memory required for data: 1571790044
I1015 21:48:51.431507 13583 layer_factory.hpp:77] Creating layer LFCN_2_7x7
I1015 21:48:51.431514 13583 net.cpp:100] Creating Layer LFCN_2_7x7
I1015 21:48:51.431519 13583 net.cpp:434] LFCN_2_7x7 <- conv5_3_relu5_3_0_split_1
I1015 21:48:51.431525 13583 net.cpp:408] LFCN_2_7x7 -> LFCN_2_7x7
I1015 21:48:51.438851 13583 net.cpp:150] Setting up LFCN_2_7x7
I1015 21:48:51.438866 13583 net.cpp:157] Top shape: 1 9 48 48 (20736)
I1015 21:48:51.438869 13583 net.cpp:165] Memory required for data: 1571872988
I1015 21:48:51.438875 13583 layer_factory.hpp:77] Creating layer LFCN_2_7x7_LFCN_2_7x7_0_split
I1015 21:48:51.438889 13583 net.cpp:100] Creating Layer LFCN_2_7x7_LFCN_2_7x7_0_split
I1015 21:48:51.438892 13583 net.cpp:434] LFCN_2_7x7_LFCN_2_7x7_0_split <- LFCN_2_7x7
I1015 21:48:51.438897 13583 net.cpp:408] LFCN_2_7x7_LFCN_2_7x7_0_split -> LFCN_2_7x7_LFCN_2_7x7_0_split_0
I1015 21:48:51.438905 13583 net.cpp:408] LFCN_2_7x7_LFCN_2_7x7_0_split -> LFCN_2_7x7_LFCN_2_7x7_0_split_1
I1015 21:48:51.438910 13583 net.cpp:408] LFCN_2_7x7_LFCN_2_7x7_0_split -> LFCN_2_7x7_LFCN_2_7x7_0_split_2
I1015 21:48:51.438962 13583 net.cpp:150] Setting up LFCN_2_7x7_LFCN_2_7x7_0_split
I1015 21:48:51.438968 13583 net.cpp:157] Top shape: 1 9 48 48 (20736)
I1015 21:48:51.438972 13583 net.cpp:157] Top shape: 1 9 48 48 (20736)
I1015 21:48:51.438977 13583 net.cpp:157] Top shape: 1 9 48 48 (20736)
I1015 21:48:51.438979 13583 net.cpp:165] Memory required for data: 1572121820
I1015 21:48:51.438983 13583 layer_factory.hpp:77] Creating layer detection_loss_2_7x7
I1015 21:48:51.438989 13583 net.cpp:100] Creating Layer detection_loss_2_7x7
I1015 21:48:51.438993 13583 net.cpp:434] detection_loss_2_7x7 <- LFCN_2_7x7_LFCN_2_7x7_0_split_0
I1015 21:48:51.438997 13583 net.cpp:434] detection_loss_2_7x7 <- label_2_7x7_data_4_split_0
I1015 21:48:51.439004 13583 net.cpp:408] detection_loss_2_7x7 -> loss_2_7x7
I1015 21:48:51.439011 13583 layer_factory.hpp:77] Creating layer detection_loss_2_7x7
I1015 21:48:51.439735 13583 net.cpp:150] Setting up detection_loss_2_7x7
I1015 21:48:51.439749 13583 net.cpp:157] Top shape: 1 1 1 2 (2)
I1015 21:48:51.439754 13583 net.cpp:160]     with loss weight 1
I1015 21:48:51.439761 13583 net.cpp:165] Memory required for data: 1572121828
I1015 21:48:51.439765 13583 layer_factory.hpp:77] Creating layer detection_accuracy_2_7x7
I1015 21:48:51.439774 13583 net.cpp:100] Creating Layer detection_accuracy_2_7x7
I1015 21:48:51.439777 13583 net.cpp:434] detection_accuracy_2_7x7 <- LFCN_2_7x7_LFCN_2_7x7_0_split_1
I1015 21:48:51.439785 13583 net.cpp:434] detection_accuracy_2_7x7 <- label_2_7x7_data_4_split_1
I1015 21:48:51.439791 13583 net.cpp:408] detection_accuracy_2_7x7 -> accuracy_2_7x7
I1015 21:48:51.439800 13583 net.cpp:408] detection_accuracy_2_7x7 -> boxiou_2_7x7
I1015 21:48:51.439846 13583 net.cpp:150] Setting up detection_accuracy_2_7x7
I1015 21:48:51.439852 13583 net.cpp:157] Top shape: 1 1 1 2 (2)
I1015 21:48:51.439857 13583 net.cpp:157] Top shape: 1 1 1 1 (1)
I1015 21:48:51.439859 13583 net.cpp:165] Memory required for data: 1572121840
I1015 21:48:51.439862 13583 layer_factory.hpp:77] Creating layer pool5
I1015 21:48:51.439867 13583 net.cpp:100] Creating Layer pool5
I1015 21:48:51.439872 13583 net.cpp:434] pool5 <- conv5_3_relu5_3_0_split_2
I1015 21:48:51.439878 13583 net.cpp:408] pool5 -> pool5
I1015 21:48:51.439915 13583 net.cpp:150] Setting up pool5
I1015 21:48:51.439923 13583 net.cpp:157] Top shape: 1 512 24 24 (294912)
I1015 21:48:51.439925 13583 net.cpp:165] Memory required for data: 1573301488
I1015 21:48:51.439929 13583 layer_factory.hpp:77] Creating layer conv6_1
I1015 21:48:51.439936 13583 net.cpp:100] Creating Layer conv6_1
I1015 21:48:51.439940 13583 net.cpp:434] conv6_1 <- pool5
I1015 21:48:51.439946 13583 net.cpp:408] conv6_1 -> conv6_1
I1015 21:48:51.500093 13583 net.cpp:150] Setting up conv6_1
I1015 21:48:51.500119 13583 net.cpp:157] Top shape: 1 512 24 24 (294912)
I1015 21:48:51.500123 13583 net.cpp:165] Memory required for data: 1574481136
I1015 21:48:51.500131 13583 layer_factory.hpp:77] Creating layer relu6_1
I1015 21:48:51.500144 13583 net.cpp:100] Creating Layer relu6_1
I1015 21:48:51.500149 13583 net.cpp:434] relu6_1 <- conv6_1
I1015 21:48:51.500155 13583 net.cpp:395] relu6_1 -> conv6_1 (in-place)
I1015 21:48:51.500308 13583 net.cpp:150] Setting up relu6_1
I1015 21:48:51.500317 13583 net.cpp:157] Top shape: 1 512 24 24 (294912)
I1015 21:48:51.500321 13583 net.cpp:165] Memory required for data: 1575660784
I1015 21:48:51.500324 13583 layer_factory.hpp:77] Creating layer conv6_1_relu6_1_0_split
I1015 21:48:51.500331 13583 net.cpp:100] Creating Layer conv6_1_relu6_1_0_split
I1015 21:48:51.500334 13583 net.cpp:434] conv6_1_relu6_1_0_split <- conv6_1
I1015 21:48:51.500339 13583 net.cpp:408] conv6_1_relu6_1_0_split -> conv6_1_relu6_1_0_split_0
I1015 21:48:51.500345 13583 net.cpp:408] conv6_1_relu6_1_0_split -> conv6_1_relu6_1_0_split_1
I1015 21:48:51.500350 13583 net.cpp:408] conv6_1_relu6_1_0_split -> conv6_1_relu6_1_0_split_2
I1015 21:48:51.500411 13583 net.cpp:150] Setting up conv6_1_relu6_1_0_split
I1015 21:48:51.500418 13583 net.cpp:157] Top shape: 1 512 24 24 (294912)
I1015 21:48:51.500422 13583 net.cpp:157] Top shape: 1 512 24 24 (294912)
I1015 21:48:51.500427 13583 net.cpp:157] Top shape: 1 512 24 24 (294912)
I1015 21:48:51.500429 13583 net.cpp:165] Memory required for data: 1579199728
I1015 21:48:51.500432 13583 layer_factory.hpp:77] Creating layer LFCN_3_5x5
I1015 21:48:51.500443 13583 net.cpp:100] Creating Layer LFCN_3_5x5
I1015 21:48:51.500447 13583 net.cpp:434] LFCN_3_5x5 <- conv6_1_relu6_1_0_split_0
I1015 21:48:51.500453 13583 net.cpp:408] LFCN_3_5x5 -> LFCN_3_5x5
I1015 21:48:51.504206 13583 net.cpp:150] Setting up LFCN_3_5x5
I1015 21:48:51.504217 13583 net.cpp:157] Top shape: 1 9 24 24 (5184)
I1015 21:48:51.504220 13583 net.cpp:165] Memory required for data: 1579220464
I1015 21:48:51.504225 13583 layer_factory.hpp:77] Creating layer LFCN_3_5x5_LFCN_3_5x5_0_split
I1015 21:48:51.504231 13583 net.cpp:100] Creating Layer LFCN_3_5x5_LFCN_3_5x5_0_split
I1015 21:48:51.504235 13583 net.cpp:434] LFCN_3_5x5_LFCN_3_5x5_0_split <- LFCN_3_5x5
I1015 21:48:51.504238 13583 net.cpp:408] LFCN_3_5x5_LFCN_3_5x5_0_split -> LFCN_3_5x5_LFCN_3_5x5_0_split_0
I1015 21:48:51.504245 13583 net.cpp:408] LFCN_3_5x5_LFCN_3_5x5_0_split -> LFCN_3_5x5_LFCN_3_5x5_0_split_1
I1015 21:48:51.504248 13583 net.cpp:408] LFCN_3_5x5_LFCN_3_5x5_0_split -> LFCN_3_5x5_LFCN_3_5x5_0_split_2
I1015 21:48:51.504294 13583 net.cpp:150] Setting up LFCN_3_5x5_LFCN_3_5x5_0_split
I1015 21:48:51.504300 13583 net.cpp:157] Top shape: 1 9 24 24 (5184)
I1015 21:48:51.504303 13583 net.cpp:157] Top shape: 1 9 24 24 (5184)
I1015 21:48:51.504307 13583 net.cpp:157] Top shape: 1 9 24 24 (5184)
I1015 21:48:51.504309 13583 net.cpp:165] Memory required for data: 1579282672
I1015 21:48:51.504312 13583 layer_factory.hpp:77] Creating layer detection_loss_3_5x5
I1015 21:48:51.504318 13583 net.cpp:100] Creating Layer detection_loss_3_5x5
I1015 21:48:51.504321 13583 net.cpp:434] detection_loss_3_5x5 <- LFCN_3_5x5_LFCN_3_5x5_0_split_0
I1015 21:48:51.504326 13583 net.cpp:434] detection_loss_3_5x5 <- label_3_5x5_data_5_split_0
I1015 21:48:51.504331 13583 net.cpp:408] detection_loss_3_5x5 -> loss_3_5x5
I1015 21:48:51.504339 13583 layer_factory.hpp:77] Creating layer detection_loss_3_5x5
I1015 21:48:51.504657 13583 net.cpp:150] Setting up detection_loss_3_5x5
I1015 21:48:51.504668 13583 net.cpp:157] Top shape: 1 1 1 2 (2)
I1015 21:48:51.504673 13583 net.cpp:160]     with loss weight 1
I1015 21:48:51.504683 13583 net.cpp:165] Memory required for data: 1579282680
I1015 21:48:51.504686 13583 layer_factory.hpp:77] Creating layer detection_accuracy_3_5x5
I1015 21:48:51.504693 13583 net.cpp:100] Creating Layer detection_accuracy_3_5x5
I1015 21:48:51.504696 13583 net.cpp:434] detection_accuracy_3_5x5 <- LFCN_3_5x5_LFCN_3_5x5_0_split_1
I1015 21:48:51.504700 13583 net.cpp:434] detection_accuracy_3_5x5 <- label_3_5x5_data_5_split_1
I1015 21:48:51.504706 13583 net.cpp:408] detection_accuracy_3_5x5 -> accuracy_3_5x5
I1015 21:48:51.504714 13583 net.cpp:408] detection_accuracy_3_5x5 -> boxiou_3_5x5
I1015 21:48:51.504752 13583 net.cpp:150] Setting up detection_accuracy_3_5x5
I1015 21:48:51.504760 13583 net.cpp:157] Top shape: 1 1 1 2 (2)
I1015 21:48:51.504762 13583 net.cpp:157] Top shape: 1 1 1 1 (1)
I1015 21:48:51.504765 13583 net.cpp:165] Memory required for data: 1579282692
I1015 21:48:51.504768 13583 layer_factory.hpp:77] Creating layer LFCN_3_7x7
I1015 21:48:51.504777 13583 net.cpp:100] Creating Layer LFCN_3_7x7
I1015 21:48:51.504781 13583 net.cpp:434] LFCN_3_7x7 <- conv6_1_relu6_1_0_split_1
I1015 21:48:51.504786 13583 net.cpp:408] LFCN_3_7x7 -> LFCN_3_7x7
I1015 21:48:51.511596 13583 net.cpp:150] Setting up LFCN_3_7x7
I1015 21:48:51.511610 13583 net.cpp:157] Top shape: 1 9 24 24 (5184)
I1015 21:48:51.511613 13583 net.cpp:165] Memory required for data: 1579303428
I1015 21:48:51.511620 13583 layer_factory.hpp:77] Creating layer LFCN_3_7x7_LFCN_3_7x7_0_split
I1015 21:48:51.511626 13583 net.cpp:100] Creating Layer LFCN_3_7x7_LFCN_3_7x7_0_split
I1015 21:48:51.511631 13583 net.cpp:434] LFCN_3_7x7_LFCN_3_7x7_0_split <- LFCN_3_7x7
I1015 21:48:51.511636 13583 net.cpp:408] LFCN_3_7x7_LFCN_3_7x7_0_split -> LFCN_3_7x7_LFCN_3_7x7_0_split_0
I1015 21:48:51.511643 13583 net.cpp:408] LFCN_3_7x7_LFCN_3_7x7_0_split -> LFCN_3_7x7_LFCN_3_7x7_0_split_1
I1015 21:48:51.511647 13583 net.cpp:408] LFCN_3_7x7_LFCN_3_7x7_0_split -> LFCN_3_7x7_LFCN_3_7x7_0_split_2
I1015 21:48:51.511693 13583 net.cpp:150] Setting up LFCN_3_7x7_LFCN_3_7x7_0_split
I1015 21:48:51.511699 13583 net.cpp:157] Top shape: 1 9 24 24 (5184)
I1015 21:48:51.511703 13583 net.cpp:157] Top shape: 1 9 24 24 (5184)
I1015 21:48:51.511706 13583 net.cpp:157] Top shape: 1 9 24 24 (5184)
I1015 21:48:51.511708 13583 net.cpp:165] Memory required for data: 1579365636
I1015 21:48:51.511711 13583 layer_factory.hpp:77] Creating layer detection_loss_3_7x7
I1015 21:48:51.511718 13583 net.cpp:100] Creating Layer detection_loss_3_7x7
I1015 21:48:51.511720 13583 net.cpp:434] detection_loss_3_7x7 <- LFCN_3_7x7_LFCN_3_7x7_0_split_0
I1015 21:48:51.511724 13583 net.cpp:434] detection_loss_3_7x7 <- label_3_7x7_data_6_split_0
I1015 21:48:51.511730 13583 net.cpp:408] detection_loss_3_7x7 -> loss_3_7x7
I1015 21:48:51.511737 13583 layer_factory.hpp:77] Creating layer detection_loss_3_7x7
I1015 21:48:51.512076 13583 net.cpp:150] Setting up detection_loss_3_7x7
I1015 21:48:51.512085 13583 net.cpp:157] Top shape: 1 1 1 2 (2)
I1015 21:48:51.512089 13583 net.cpp:160]     with loss weight 1
I1015 21:48:51.512095 13583 net.cpp:165] Memory required for data: 1579365644
I1015 21:48:51.512099 13583 layer_factory.hpp:77] Creating layer detection_accuracy_3_7x7
I1015 21:48:51.512105 13583 net.cpp:100] Creating Layer detection_accuracy_3_7x7
I1015 21:48:51.512109 13583 net.cpp:434] detection_accuracy_3_7x7 <- LFCN_3_7x7_LFCN_3_7x7_0_split_1
I1015 21:48:51.512114 13583 net.cpp:434] detection_accuracy_3_7x7 <- label_3_7x7_data_6_split_1
I1015 21:48:51.512120 13583 net.cpp:408] detection_accuracy_3_7x7 -> accuracy_3_7x7
I1015 21:48:51.512126 13583 net.cpp:408] detection_accuracy_3_7x7 -> boxiou_3_7x7
I1015 21:48:51.512166 13583 net.cpp:150] Setting up detection_accuracy_3_7x7
I1015 21:48:51.512173 13583 net.cpp:157] Top shape: 1 1 1 2 (2)
I1015 21:48:51.512177 13583 net.cpp:157] Top shape: 1 1 1 1 (1)
I1015 21:48:51.512181 13583 net.cpp:165] Memory required for data: 1579365656
I1015 21:48:51.512183 13583 layer_factory.hpp:77] Creating layer pool6
I1015 21:48:51.512189 13583 net.cpp:100] Creating Layer pool6
I1015 21:48:51.512193 13583 net.cpp:434] pool6 <- conv6_1_relu6_1_0_split_2
I1015 21:48:51.512199 13583 net.cpp:408] pool6 -> pool6
I1015 21:48:51.512236 13583 net.cpp:150] Setting up pool6
I1015 21:48:51.512243 13583 net.cpp:157] Top shape: 1 512 12 12 (73728)
I1015 21:48:51.512246 13583 net.cpp:165] Memory required for data: 1579660568
I1015 21:48:51.512249 13583 layer_factory.hpp:77] Creating layer LFCN_4_5x5
I1015 21:48:51.512259 13583 net.cpp:100] Creating Layer LFCN_4_5x5
I1015 21:48:51.512262 13583 net.cpp:434] LFCN_4_5x5 <- pool6
I1015 21:48:51.512267 13583 net.cpp:408] LFCN_4_5x5 -> LFCN_4_5x5
I1015 21:48:51.516229 13583 net.cpp:150] Setting up LFCN_4_5x5
I1015 21:48:51.516245 13583 net.cpp:157] Top shape: 1 9 12 12 (1296)
I1015 21:48:51.516249 13583 net.cpp:165] Memory required for data: 1579665752
I1015 21:48:51.516257 13583 layer_factory.hpp:77] Creating layer LFCN_4_5x5_LFCN_4_5x5_0_split
I1015 21:48:51.516263 13583 net.cpp:100] Creating Layer LFCN_4_5x5_LFCN_4_5x5_0_split
I1015 21:48:51.516268 13583 net.cpp:434] LFCN_4_5x5_LFCN_4_5x5_0_split <- LFCN_4_5x5
I1015 21:48:51.516273 13583 net.cpp:408] LFCN_4_5x5_LFCN_4_5x5_0_split -> LFCN_4_5x5_LFCN_4_5x5_0_split_0
I1015 21:48:51.516279 13583 net.cpp:408] LFCN_4_5x5_LFCN_4_5x5_0_split -> LFCN_4_5x5_LFCN_4_5x5_0_split_1
I1015 21:48:51.516284 13583 net.cpp:408] LFCN_4_5x5_LFCN_4_5x5_0_split -> LFCN_4_5x5_LFCN_4_5x5_0_split_2
I1015 21:48:51.516337 13583 net.cpp:150] Setting up LFCN_4_5x5_LFCN_4_5x5_0_split
I1015 21:48:51.516343 13583 net.cpp:157] Top shape: 1 9 12 12 (1296)
I1015 21:48:51.516348 13583 net.cpp:157] Top shape: 1 9 12 12 (1296)
I1015 21:48:51.516352 13583 net.cpp:157] Top shape: 1 9 12 12 (1296)
I1015 21:48:51.516355 13583 net.cpp:165] Memory required for data: 1579681304
I1015 21:48:51.516358 13583 layer_factory.hpp:77] Creating layer detection_loss_4_5x5
I1015 21:48:51.516371 13583 net.cpp:100] Creating Layer detection_loss_4_5x5
I1015 21:48:51.516374 13583 net.cpp:434] detection_loss_4_5x5 <- LFCN_4_5x5_LFCN_4_5x5_0_split_0
I1015 21:48:51.516379 13583 net.cpp:434] detection_loss_4_5x5 <- label_4_5x5_data_7_split_0
I1015 21:48:51.516386 13583 net.cpp:408] detection_loss_4_5x5 -> loss_4_5x5
I1015 21:48:51.516392 13583 layer_factory.hpp:77] Creating layer detection_loss_4_5x5
I1015 21:48:51.516749 13583 net.cpp:150] Setting up detection_loss_4_5x5
I1015 21:48:51.516760 13583 net.cpp:157] Top shape: 1 1 1 2 (2)
I1015 21:48:51.516764 13583 net.cpp:160]     with loss weight 1
I1015 21:48:51.516772 13583 net.cpp:165] Memory required for data: 1579681312
I1015 21:48:51.516777 13583 layer_factory.hpp:77] Creating layer detection_accuracy_4_5x5
I1015 21:48:51.516784 13583 net.cpp:100] Creating Layer detection_accuracy_4_5x5
I1015 21:48:51.516789 13583 net.cpp:434] detection_accuracy_4_5x5 <- LFCN_4_5x5_LFCN_4_5x5_0_split_1
I1015 21:48:51.516794 13583 net.cpp:434] detection_accuracy_4_5x5 <- label_4_5x5_data_7_split_1
I1015 21:48:51.516800 13583 net.cpp:408] detection_accuracy_4_5x5 -> accuracy_4_5x5
I1015 21:48:51.516809 13583 net.cpp:408] detection_accuracy_4_5x5 -> boxiou_4_5x5
I1015 21:48:51.516858 13583 net.cpp:150] Setting up detection_accuracy_4_5x5
I1015 21:48:51.516865 13583 net.cpp:157] Top shape: 1 1 1 2 (2)
I1015 21:48:51.516870 13583 net.cpp:157] Top shape: 1 1 1 1 (1)
I1015 21:48:51.516875 13583 net.cpp:165] Memory required for data: 1579681324
I1015 21:48:51.516878 13583 layer_factory.hpp:77] Creating layer proposals
I1015 21:48:51.516887 13583 net.cpp:100] Creating Layer proposals
I1015 21:48:51.516891 13583 net.cpp:434] proposals <- LFCN_1_5x5_LFCN_1_5x5_0_split_2
I1015 21:48:51.516896 13583 net.cpp:434] proposals <- LFCN_1_7x7_LFCN_1_7x7_0_split_2
I1015 21:48:51.516901 13583 net.cpp:434] proposals <- LFCN_2_5x5_LFCN_2_5x5_0_split_2
I1015 21:48:51.516906 13583 net.cpp:434] proposals <- LFCN_2_7x7_LFCN_2_7x7_0_split_2
I1015 21:48:51.516911 13583 net.cpp:434] proposals <- LFCN_3_5x5_LFCN_3_5x5_0_split_2
I1015 21:48:51.516916 13583 net.cpp:434] proposals <- LFCN_3_7x7_LFCN_3_7x7_0_split_2
I1015 21:48:51.516921 13583 net.cpp:434] proposals <- LFCN_4_5x5_LFCN_4_5x5_0_split_2
I1015 21:48:51.516927 13583 net.cpp:408] proposals -> proposals
I1015 21:48:51.516957 13583 net.cpp:150] Setting up proposals
I1015 21:48:51.516963 13583 net.cpp:157] Top shape: 1 5 1 1 (5)
I1015 21:48:51.516968 13583 net.cpp:165] Memory required for data: 1579681344
I1015 21:48:51.516971 13583 layer_factory.hpp:77] Creating layer proposal_info
I1015 21:48:51.516981 13583 net.cpp:100] Creating Layer proposal_info
I1015 21:48:51.516986 13583 net.cpp:434] proposal_info <- proposals
I1015 21:48:51.516991 13583 net.cpp:434] proposal_info <- gt_boxes
I1015 21:48:51.516997 13583 net.cpp:408] proposal_info -> rois
I1015 21:48:51.517004 13583 net.cpp:408] proposal_info -> proposal_labels
I1015 21:48:51.517011 13583 net.cpp:408] proposal_info -> proposal_targets
I1015 21:48:51.517017 13583 net.cpp:408] proposal_info -> box_inside_weights
I1015 21:48:51.517022 13583 net.cpp:408] proposal_info -> box_outside_weights
I1015 21:48:51.517029 13583 net.cpp:408] proposal_info -> match_gt_boxes
I1015 21:48:51.517122 13583 net.cpp:150] Setting up proposal_info
I1015 21:48:51.517128 13583 net.cpp:157] Top shape: 128 5 1 1 (640)
I1015 21:48:51.517132 13583 net.cpp:157] Top shape: 128 1 1 1 (128)
I1015 21:48:51.517136 13583 net.cpp:157] Top shape: 128 20 1 1 (2560)
I1015 21:48:51.517140 13583 net.cpp:157] Top shape: 128 20 1 1 (2560)
I1015 21:48:51.517144 13583 net.cpp:157] Top shape: 128 20 1 1 (2560)
I1015 21:48:51.517148 13583 net.cpp:157] Top shape: 128 6 1 1 (768)
I1015 21:48:51.517151 13583 net.cpp:165] Memory required for data: 1579718208
I1015 21:48:51.517154 13583 layer_factory.hpp:77] Creating layer rois_proposal_info_0_split
I1015 21:48:51.517159 13583 net.cpp:100] Creating Layer rois_proposal_info_0_split
I1015 21:48:51.517163 13583 net.cpp:434] rois_proposal_info_0_split <- rois
I1015 21:48:51.517166 13583 net.cpp:408] rois_proposal_info_0_split -> rois_proposal_info_0_split_0
I1015 21:48:51.517172 13583 net.cpp:408] rois_proposal_info_0_split -> rois_proposal_info_0_split_1
I1015 21:48:51.517179 13583 net.cpp:408] rois_proposal_info_0_split -> rois_proposal_info_0_split_2
I1015 21:48:51.517225 13583 net.cpp:150] Setting up rois_proposal_info_0_split
I1015 21:48:51.517231 13583 net.cpp:157] Top shape: 128 5 1 1 (640)
I1015 21:48:51.517235 13583 net.cpp:157] Top shape: 128 5 1 1 (640)
I1015 21:48:51.517240 13583 net.cpp:157] Top shape: 128 5 1 1 (640)
I1015 21:48:51.517242 13583 net.cpp:165] Memory required for data: 1579725888
I1015 21:48:51.517246 13583 layer_factory.hpp:77] Creating layer proposal_labels_proposal_info_1_split
I1015 21:48:51.517249 13583 net.cpp:100] Creating Layer proposal_labels_proposal_info_1_split
I1015 21:48:51.517253 13583 net.cpp:434] proposal_labels_proposal_info_1_split <- proposal_labels
I1015 21:48:51.517257 13583 net.cpp:408] proposal_labels_proposal_info_1_split -> proposal_labels_proposal_info_1_split_0
I1015 21:48:51.517263 13583 net.cpp:408] proposal_labels_proposal_info_1_split -> proposal_labels_proposal_info_1_split_1
I1015 21:48:51.517298 13583 net.cpp:150] Setting up proposal_labels_proposal_info_1_split
I1015 21:48:51.517304 13583 net.cpp:157] Top shape: 128 1 1 1 (128)
I1015 21:48:51.517309 13583 net.cpp:157] Top shape: 128 1 1 1 (128)
I1015 21:48:51.517313 13583 net.cpp:165] Memory required for data: 1579726912
I1015 21:48:51.517315 13583 layer_factory.hpp:77] Creating layer softmax
I1015 21:48:51.517319 13583 net.cpp:100] Creating Layer softmax
I1015 21:48:51.517323 13583 net.cpp:434] softmax <- relu_attention_relu_attention_0_split_1
I1015 21:48:51.517328 13583 net.cpp:408] softmax -> softmax_attention
I1015 21:48:51.517912 13583 net.cpp:150] Setting up softmax
I1015 21:48:51.517925 13583 net.cpp:157] Top shape: 1 3 96 96 (27648)
I1015 21:48:51.517930 13583 net.cpp:165] Memory required for data: 1579837504
I1015 21:48:51.517932 13583 layer_factory.hpp:77] Creating layer slice1
I1015 21:48:51.517940 13583 net.cpp:100] Creating Layer slice1
I1015 21:48:51.517943 13583 net.cpp:434] slice1 <- softmax_attention
I1015 21:48:51.517948 13583 net.cpp:408] slice1 -> bg
I1015 21:48:51.517956 13583 net.cpp:408] slice1 -> attention1
I1015 21:48:51.518004 13583 net.cpp:150] Setting up slice1
I1015 21:48:51.518012 13583 net.cpp:157] Top shape: 1 1 96 96 (9216)
I1015 21:48:51.518016 13583 net.cpp:157] Top shape: 1 2 96 96 (18432)
I1015 21:48:51.518019 13583 net.cpp:165] Memory required for data: 1579948096
I1015 21:48:51.518023 13583 layer_factory.hpp:77] Creating layer silence
I1015 21:48:51.518028 13583 net.cpp:100] Creating Layer silence
I1015 21:48:51.518031 13583 net.cpp:434] silence <- bg
I1015 21:48:51.518035 13583 net.cpp:150] Setting up silence
I1015 21:48:51.518038 13583 net.cpp:165] Memory required for data: 1579948096
I1015 21:48:51.518041 13583 layer_factory.hpp:77] Creating layer conv4_3_new
I1015 21:48:51.518049 13583 net.cpp:100] Creating Layer conv4_3_new
I1015 21:48:51.518051 13583 net.cpp:434] conv4_3_new <- conv4_3_relu4_3_0_split_3
I1015 21:48:51.518055 13583 net.cpp:434] conv4_3_new <- attention1
I1015 21:48:51.518062 13583 net.cpp:408] conv4_3_new -> conv4_3_new
I1015 21:48:51.518085 13583 net.cpp:150] Setting up conv4_3_new
I1015 21:48:51.518090 13583 net.cpp:157] Top shape: 1 514 96 96 (4737024)
I1015 21:48:51.518095 13583 net.cpp:165] Memory required for data: 1598896192
I1015 21:48:51.518097 13583 layer_factory.hpp:77] Creating layer conv4_3_2x
I1015 21:48:51.518105 13583 net.cpp:100] Creating Layer conv4_3_2x
I1015 21:48:51.518108 13583 net.cpp:434] conv4_3_2x <- conv4_3_new
I1015 21:48:51.518115 13583 net.cpp:408] conv4_3_2x -> conv4_3_2x
I1015 21:48:51.518610 13583 net.cpp:150] Setting up conv4_3_2x
I1015 21:48:51.518618 13583 net.cpp:157] Top shape: 1 514 192 192 (18948096)
I1015 21:48:51.518621 13583 net.cpp:165] Memory required for data: 1674688576
I1015 21:48:51.518626 13583 layer_factory.hpp:77] Creating layer conv4_3_2x_conv4_3_2x_0_split
I1015 21:48:51.518630 13583 net.cpp:100] Creating Layer conv4_3_2x_conv4_3_2x_0_split
I1015 21:48:51.518635 13583 net.cpp:434] conv4_3_2x_conv4_3_2x_0_split <- conv4_3_2x
I1015 21:48:51.518638 13583 net.cpp:408] conv4_3_2x_conv4_3_2x_0_split -> conv4_3_2x_conv4_3_2x_0_split_0
I1015 21:48:51.518645 13583 net.cpp:408] conv4_3_2x_conv4_3_2x_0_split -> conv4_3_2x_conv4_3_2x_0_split_1
I1015 21:48:51.518682 13583 net.cpp:150] Setting up conv4_3_2x_conv4_3_2x_0_split
I1015 21:48:51.518687 13583 net.cpp:157] Top shape: 1 514 192 192 (18948096)
I1015 21:48:51.518692 13583 net.cpp:157] Top shape: 1 514 192 192 (18948096)
I1015 21:48:51.518694 13583 net.cpp:165] Memory required for data: 1826273344
I1015 21:48:51.518697 13583 layer_factory.hpp:77] Creating layer roi_pool_org
I1015 21:48:51.518704 13583 net.cpp:100] Creating Layer roi_pool_org
I1015 21:48:51.518707 13583 net.cpp:434] roi_pool_org <- conv4_3_2x_conv4_3_2x_0_split_0
I1015 21:48:51.518712 13583 net.cpp:434] roi_pool_org <- rois_proposal_info_0_split_0
I1015 21:48:51.518716 13583 net.cpp:408] roi_pool_org -> roi_pool_org
I1015 21:48:51.518723 13583 roi_pooling_layer.cpp:33] Spatial scale: 0.25
I1015 21:48:51.518761 13583 net.cpp:150] Setting up roi_pool_org
I1015 21:48:51.518769 13583 net.cpp:157] Top shape: 128 514 7 7 (3223808)
I1015 21:48:51.518772 13583 net.cpp:165] Memory required for data: 1839168576
I1015 21:48:51.518775 13583 layer_factory.hpp:77] Creating layer roi_pool_ctx
I1015 21:48:51.518780 13583 net.cpp:100] Creating Layer roi_pool_ctx
I1015 21:48:51.518784 13583 net.cpp:434] roi_pool_ctx <- conv4_3_2x_conv4_3_2x_0_split_1
I1015 21:48:51.518788 13583 net.cpp:434] roi_pool_ctx <- rois_proposal_info_0_split_1
I1015 21:48:51.518793 13583 net.cpp:408] roi_pool_ctx -> roi_pool_ctx
I1015 21:48:51.518798 13583 roi_pooling_layer.cpp:33] Spatial scale: 0.25
I1015 21:48:51.518834 13583 net.cpp:150] Setting up roi_pool_ctx
I1015 21:48:51.518841 13583 net.cpp:157] Top shape: 128 514 7 7 (3223808)
I1015 21:48:51.518846 13583 net.cpp:165] Memory required for data: 1852063808
I1015 21:48:51.518848 13583 layer_factory.hpp:77] Creating layer roi_pool
I1015 21:48:51.518852 13583 net.cpp:100] Creating Layer roi_pool
I1015 21:48:51.518857 13583 net.cpp:434] roi_pool <- roi_pool_org
I1015 21:48:51.518860 13583 net.cpp:434] roi_pool <- roi_pool_ctx
I1015 21:48:51.518864 13583 net.cpp:408] roi_pool -> roi_pool
I1015 21:48:51.518887 13583 net.cpp:150] Setting up roi_pool
I1015 21:48:51.518893 13583 net.cpp:157] Top shape: 128 1028 7 7 (6447616)
I1015 21:48:51.518895 13583 net.cpp:165] Memory required for data: 1877854272
I1015 21:48:51.518898 13583 layer_factory.hpp:77] Creating layer roi_c1
I1015 21:48:51.518905 13583 net.cpp:100] Creating Layer roi_c1
I1015 21:48:51.518909 13583 net.cpp:434] roi_c1 <- roi_pool
I1015 21:48:51.518916 13583 net.cpp:408] roi_c1 -> roi_c1
I1015 21:48:51.638139 13583 net.cpp:150] Setting up roi_c1
I1015 21:48:51.638173 13583 net.cpp:157] Top shape: 128 512 5 5 (1638400)
I1015 21:48:51.638177 13583 net.cpp:165] Memory required for data: 1884407872
I1015 21:48:51.638185 13583 layer_factory.hpp:77] Creating layer roi_c1_relu
I1015 21:48:51.638200 13583 net.cpp:100] Creating Layer roi_c1_relu
I1015 21:48:51.638204 13583 net.cpp:434] roi_c1_relu <- roi_c1
I1015 21:48:51.638211 13583 net.cpp:395] roi_c1_relu -> roi_c1 (in-place)
I1015 21:48:51.638906 13583 net.cpp:150] Setting up roi_c1_relu
I1015 21:48:51.638917 13583 net.cpp:157] Top shape: 128 512 5 5 (1638400)
I1015 21:48:51.638921 13583 net.cpp:165] Memory required for data: 1890961472
I1015 21:48:51.638924 13583 layer_factory.hpp:77] Creating layer fc6
I1015 21:48:51.638933 13583 net.cpp:100] Creating Layer fc6
I1015 21:48:51.638936 13583 net.cpp:434] fc6 <- roi_c1
I1015 21:48:51.638944 13583 net.cpp:408] fc6 -> fc6
I1015 21:48:52.858191 13583 net.cpp:150] Setting up fc6
I1015 21:48:52.858225 13583 net.cpp:157] Top shape: 128 4096 (524288)
I1015 21:48:52.858229 13583 net.cpp:165] Memory required for data: 1893058624
I1015 21:48:52.858238 13583 layer_factory.hpp:77] Creating layer relu6
I1015 21:48:52.858249 13583 net.cpp:100] Creating Layer relu6
I1015 21:48:52.858258 13583 net.cpp:434] relu6 <- fc6
I1015 21:48:52.858263 13583 net.cpp:395] relu6 -> fc6 (in-place)
I1015 21:48:52.858510 13583 net.cpp:150] Setting up relu6
I1015 21:48:52.858520 13583 net.cpp:157] Top shape: 128 4096 (524288)
I1015 21:48:52.858523 13583 net.cpp:165] Memory required for data: 1895155776
I1015 21:48:52.858526 13583 layer_factory.hpp:77] Creating layer drop6
I1015 21:48:52.858536 13583 net.cpp:100] Creating Layer drop6
I1015 21:48:52.858538 13583 net.cpp:434] drop6 <- fc6
I1015 21:48:52.858543 13583 net.cpp:395] drop6 -> fc6 (in-place)
I1015 21:48:52.858566 13583 net.cpp:150] Setting up drop6
I1015 21:48:52.858572 13583 net.cpp:157] Top shape: 128 4096 (524288)
I1015 21:48:52.858574 13583 net.cpp:165] Memory required for data: 1897252928
I1015 21:48:52.858578 13583 layer_factory.hpp:77] Creating layer fc6_drop6_0_split
I1015 21:48:52.858587 13583 net.cpp:100] Creating Layer fc6_drop6_0_split
I1015 21:48:52.858590 13583 net.cpp:434] fc6_drop6_0_split <- fc6
I1015 21:48:52.858595 13583 net.cpp:408] fc6_drop6_0_split -> fc6_drop6_0_split_0
I1015 21:48:52.858602 13583 net.cpp:408] fc6_drop6_0_split -> fc6_drop6_0_split_1
I1015 21:48:52.858640 13583 net.cpp:150] Setting up fc6_drop6_0_split
I1015 21:48:52.858646 13583 net.cpp:157] Top shape: 128 4096 (524288)
I1015 21:48:52.858650 13583 net.cpp:157] Top shape: 128 4096 (524288)
I1015 21:48:52.858654 13583 net.cpp:165] Memory required for data: 1901447232
I1015 21:48:52.858656 13583 layer_factory.hpp:77] Creating layer cls_pred
I1015 21:48:52.858664 13583 net.cpp:100] Creating Layer cls_pred
I1015 21:48:52.858667 13583 net.cpp:434] cls_pred <- fc6_drop6_0_split_0
I1015 21:48:52.858675 13583 net.cpp:408] cls_pred -> cls_pred
I1015 21:48:52.859299 13583 net.cpp:150] Setting up cls_pred
I1015 21:48:52.859306 13583 net.cpp:157] Top shape: 128 5 (640)
I1015 21:48:52.859310 13583 net.cpp:165] Memory required for data: 1901449792
I1015 21:48:52.859316 13583 layer_factory.hpp:77] Creating layer cls_pred_cls_pred_0_split
I1015 21:48:52.859323 13583 net.cpp:100] Creating Layer cls_pred_cls_pred_0_split
I1015 21:48:52.859326 13583 net.cpp:434] cls_pred_cls_pred_0_split <- cls_pred
I1015 21:48:52.859331 13583 net.cpp:408] cls_pred_cls_pred_0_split -> cls_pred_cls_pred_0_split_0
I1015 21:48:52.859336 13583 net.cpp:408] cls_pred_cls_pred_0_split -> cls_pred_cls_pred_0_split_1
I1015 21:48:52.859370 13583 net.cpp:150] Setting up cls_pred_cls_pred_0_split
I1015 21:48:52.859376 13583 net.cpp:157] Top shape: 128 5 (640)
I1015 21:48:52.859380 13583 net.cpp:157] Top shape: 128 5 (640)
I1015 21:48:52.859383 13583 net.cpp:165] Memory required for data: 1901454912
I1015 21:48:52.859386 13583 layer_factory.hpp:77] Creating layer bbox_pred
I1015 21:48:52.859392 13583 net.cpp:100] Creating Layer bbox_pred
I1015 21:48:52.859396 13583 net.cpp:434] bbox_pred <- fc6_drop6_0_split_1
I1015 21:48:52.859402 13583 net.cpp:408] bbox_pred -> bbox_pred
I1015 21:48:52.861529 13583 net.cpp:150] Setting up bbox_pred
I1015 21:48:52.861536 13583 net.cpp:157] Top shape: 128 20 (2560)
I1015 21:48:52.861538 13583 net.cpp:165] Memory required for data: 1901465152
I1015 21:48:52.861543 13583 layer_factory.hpp:77] Creating layer bbox_pred_bbox_pred_0_split
I1015 21:48:52.861546 13583 net.cpp:100] Creating Layer bbox_pred_bbox_pred_0_split
I1015 21:48:52.861549 13583 net.cpp:434] bbox_pred_bbox_pred_0_split <- bbox_pred
I1015 21:48:52.861554 13583 net.cpp:408] bbox_pred_bbox_pred_0_split -> bbox_pred_bbox_pred_0_split_0
I1015 21:48:52.861559 13583 net.cpp:408] bbox_pred_bbox_pred_0_split -> bbox_pred_bbox_pred_0_split_1
I1015 21:48:52.861588 13583 net.cpp:150] Setting up bbox_pred_bbox_pred_0_split
I1015 21:48:52.861591 13583 net.cpp:157] Top shape: 128 20 (2560)
I1015 21:48:52.861594 13583 net.cpp:157] Top shape: 128 20 (2560)
I1015 21:48:52.861598 13583 net.cpp:165] Memory required for data: 1901485632
I1015 21:48:52.861599 13583 layer_factory.hpp:77] Creating layer loss_cls
I1015 21:48:52.861605 13583 net.cpp:100] Creating Layer loss_cls
I1015 21:48:52.861608 13583 net.cpp:434] loss_cls <- cls_pred_cls_pred_0_split_0
I1015 21:48:52.861613 13583 net.cpp:434] loss_cls <- proposal_labels_proposal_info_1_split_0
…
