…
    downsample_rate: 16
    downsample_rate: 32
    downsample_rate: 32
    downsample_rate: 64
    coord_num: 4
    field_h: 60
    field_h: 84
    field_h: 120
    field_h: 168
    field_h: 240
    field_h: 336
    field_h: 480
    field_w: 60
    field_w: 84
    field_w: 120
    field_w: 168
    field_w: 240
    field_w: 336
    field_w: 480
    fg_threshold: 0.5
    resize_width: 1344
    resize_height: 768
    crop_width: 768
    crop_height: 768
    do_multiple_scale: true
    min_scale: 60
    max_scale: 480
    min_gt_height: 25
    shuffle: true
  }
}
layer {
  name: "conv1_1_new"
  type: "Convolution"
  bottom: "data"
  top: "conv1_1"
  convolution_param {
    num_output: 64
    pad: 1
    kernel_size: 3
  }
}
layer {
  name: "relu1_1"
  type: "ReLU"
  bottom: "conv1_1"
  top: "conv1_1"
}
layer {
  name: "conv1_2"
  type: "Convolution"
  bottom: "conv1_1"
  top: "conv1_2"
  convolution_param {
    num_output: 64
    pad: 1
    kernel_size: 3
  }
}
layer {
  name: "relu1_2"
  type: "ReLU"
  bottom: "conv1_2"
  top: "conv1_2"
}
layer {
  name: "pool1"
  type: "Pooling"
  bottom: "conv1_2"
  top: "pool1"
  pooling_param {
    pool: MAX
    kernel_size: 2
    stride: 2
  }
}
layer {
  name: "conv2_1"
  type: "Convolution"
  bottom: "pool1"
  top: "conv2_1"
  convolution_param {
    num_output: 128
    pad: 1
    kernel_size: 3
  }
}
layer {
  name: "relu2_1"
  type: "ReLU"
  bottom: "conv2_1"
  top: "conv2_1"
}
layer {
  name: "conv2_2"
  type: "Convolution"
  bottom: "conv2_1"
  top: "conv2_2"
  convolution_param {
    num_output: 128
    pad: 1
    kernel_size: 3
  }
}
layer {
  name: "relu2_2"
  type: "ReLU"
  bottom: "conv2_2"
  top: "conv2_2"
}
layer {
  name: "pool2"
  type: "Pooling"
  bottom: "conv2_2"
  top: "pool2"
  pooling_param {
    pool: MAX
    kernel_size: 2
    stride: 2
  }
}
layer {
  name: "conv3_1"
  type: "Convolution"
  bottom: "pool2"
  top: "conv3_1"
  convolution_param {
    num_output: 256
    pad: 1
    kernel_size: 3
  }
}
layer {
  name: "relu3_1"
  type: "ReLU"
  bottom: "conv3_1"
  top: "conv3_1"
}
layer {
  name: "conv3_2"
  type: "Convolution"
  bottom: "conv3_1"
  top: "conv3_2"
  convolution_param {
    num_output: 256
    pad: 1
    kernel_size: 3
  }
}
layer {
  name: "relu3_2"
  type: "ReLU"
  bottom: "conv3_2"
  top: "conv3_2"
}
layer {
  name: "conv3_3"
  type: "Convolution"
  bottom: "conv3_2"
  top: "conv3_3"
  convolution_param {
    num_output: 256
    pad: 1
    kernel_size: 3
  }
}
layer {
  name: "relu3_3"
  type: "ReLU"
  bottom: "conv3_3"
  top: "conv3_3"
}
layer {
  name: "pool3"
  type: "Pooling"
  bottom: "conv3_3"
  top: "pool3"
  pooling_param {
    pool: MAX
    kernel_size: 2
    stride: 2
  }
}
layer {
  name: "conv4_1"
  type: "Convolution"
  bottom: "pool3"
  top: "conv4_1"
  convolution_param {
    num_output: 512
    pad: 1
    kernel_size: 3
  }
}
layer {
  name: "relu4_1"
  type: "ReLU"
  bottom: "conv4_1"
  top: "conv4_1"
}
layer {
  name: "conv4_2"
  type: "Convolution"
  bottom: "conv4_1"
  top: "conv4_2"
  convolution_param {
    num_output: 512
    pad: 1
    kernel_size: 3
  }
}
layer {
  name: "relu4_2"
  type: "ReLU"
  bottom: "conv4_2"
  top: "conv4_2"
}
layer {
  name: "conv4_3"
  type: "Convolution"
  bottom: "conv4_2"
  top: "conv4_3"
  convolution_param {
    num_output: 512
    pad: 1
    kernel_size: 3
  }
}
layer {
  name: "relu4_3"
  type: "ReLU"
  bottom: "conv4_3"
  top: "conv4_3"
}
layer {
  name: "loss1_conv1"
  type: "Convolution"
  bottom: "conv4_3"
  top: "loss1_conv1"
  param {
    lr_mult: 1
    decay_mult: 1
  }
  param {
    lr_mult: 2
    decay_mult: 0
  }
  convolution_param {
    num_output: 512
    pad: 1
    kernel_size: 3
    weight_filler {
      type: "gaussian"
      std: 0.01
    }
    bias_filler {
      type: "constant"
    }
  }
}
layer {
  name: "loss_relu1"
  type: "ReLU"
  bottom: "loss1_conv1"
  top: "loss1_conv1"
}
layer {
  name: "LFCN_1_5x5"
  type: "Convolution"
  bottom: "loss1_conv1"
  top: "LFCN_1_5x5"
  param {
    lr_mult: 1
    decay_mult: 1
  }
  param {
    lr_mult: 2
    decay_mult: 0
  }
  convolution_param {
    num_output: 9
    pad: 2
    kernel_size: 5
    weight_filler {
      type: "gaussian"
      std: 0.001
    }
    bias_filler {
      type: "constant"
    }
  }
}
layer {
  name: "detection_loss_1_5x5"
  type: "DetectionLoss"
  bottom: "LFCN_1_5x5"
  bottom: "label_1_5x5"
  top: "loss_1_5x5"
  loss_weight: 0.9
  detection_loss_param {
    cls_num: 5
    coord_num: 4
    lambda: 0.05
    field_h: 60
    field_w: 60
    downsample_rate: 8
    bb_smooth: true
    field_whr: 2
    field_xyr: 2
    bg_threshold: 0.2
    bg_multiple: 2
    sample_mode: "random"
    pos_neg_weighted: true
  }
}
layer {
  name: "detection_accuracy_1_5x5"
  type: "DetectionAccuracy"
  bottom: "LFCN_1_5x5"
  bottom: "label_1_5x5"
  top: "accuracy_1_5x5"
  top: "boxiou_1_5x5"
  detection_accuracy_param {
    cls_num: 5
    coord_num: 4
    field_h: 60
    field_w: 60
    downsample_rate: 8
    field_whr: 2
    field_xyr: 2
  }
}
layer {
  name: "LFCN_1_7x7"
  type: "Convolution"
  bottom: "loss1_conv1"
  top: "LFCN_1_7x7"
  param {
    lr_mult: 1
    decay_mult: 1
  }
  param {
    lr_mult: 2
    decay_mult: 0
  }
  convolution_param {
    num_output: 9
    pad: 3
    kernel_size: 7
    weight_filler {
      type: "gaussian"
      std: 0.001
    }
    bias_filler {
      type: "constant"
    }
  }
}
layer {
  name: "detection_loss_1_7x7"
  type: "DetectionLoss"
  bottom: "LFCN_1_7x7"
  bottom: "label_1_7x7"
  top: "loss_1_7x7"
  loss_weight: 0.9
  detection_loss_param {
    cls_num: 5
    coord_num: 4
    lambda: 0.05
    field_h: 84
    field_w: 84
    downsample_rate: 8
    bb_smooth: true
    field_whr: 2
    field_xyr: 2
    bg_threshold: 0.2
    bg_multiple: 2
    sample_mode: "random"
    pos_neg_weighted: true
  }
}
layer {
  name: "detection_accuracy_1_7x7"
  type: "DetectionAccuracy"
  bottom: "LFCN_1_7x7"
  bottom: "label_1_7x7"
  top: "accuracy_1_7x7"
  top: "boxiou_1_7x7"
  detection_accuracy_param {
    cls_num: 5
    coord_num: 4
    field_h: 84
    field_w: 84
    downsample_rate: 8
    field_whr: 2
    field_xyr: 2
  }
}
layer {
  name: "pool4"
  type: "Pooling"
  bottom: "conv4_3"
  top: "pool4"
  pooling_param {
    pool: MAX
    kernel_size: 2
    stride: 2
  }
}
layer {
  name: "conv5_1"
  type: "Convolution"
  bottom: "pool4"
  top: "conv5_1"
  convolution_param {
    num_output: 512
    pad: 1
    kernel_size: 3
  }
}
layer {
  name: "relu5_1"
  type: "ReLU"
  bottom: "conv5_1"
  top: "conv5_1"
}
layer {
  name: "conv5_2"
  type: "Convolution"
  bottom: "conv5_1"
  top: "conv5_2"
  convolution_param {
    num_output: 512
    pad: 1
    kernel_size: 3
  }
}
layer {
  name: "relu5_2"
  type: "ReLU"
  bottom: "conv5_2"
  top: "conv5_2"
}
layer {
  name: "conv5_3"
  type: "Convolution"
  bottom: "conv5_2"
  top: "conv5_3"
  convolution_param {
    num_output: 512
    pad: 1
    kernel_size: 3
  }
}
layer {
  name: "relu5_3"
  type: "ReLU"
  bottom: "conv5_3"
  top: "conv5_3"
}
layer {
  name: "LFCN_2_5x5"
  type: "Convolution"
  bottom: "conv5_3"
  top: "LFCN_2_5x5"
  param {
    lr_mult: 1
    decay_mult: 1
  }
  param {
    lr_mult: 2
    decay_mult: 0
  }
  convolution_param {
    num_output: 9
    pad: 2
    kernel_size: 5
    weight_filler {
      type: "gaussian"
      std: 0.001
    }
    bias_filler {
      type: "constant"
    }
  }
}
layer {
  name: "detection_loss_2_5x5"
  type: "DetectionLoss"
  bottom: "LFCN_2_5x5"
  bottom: "label_2_5x5"
  top: "loss_2_5x5"
  detection_loss_param {
    cls_num: 5
    coord_num: 4
    lambda: 0.05
    field_h: 120
    field_w: 120
    downsample_rate: 16
    bb_smooth: true
    field_whr: 2
    field_xyr: 2
    bg_threshold: 0.2
    bg_multiple: 2
    sample_mode: "random"
    pos_neg_weighted: true
  }
}
layer {
  name: "detection_accuracy_2_5x5"
  type: "DetectionAccuracy"
  bottom: "LFCN_2_5x5"
  bottom: "label_2_5x5"
  top: "accuracy_2_5x5"
  top: "boxiou_2_5x5"
  detection_accuracy_param {
    cls_num: 5
    coord_num: 4
    field_h: 120
    field_w: 120
    downsample_rate: 16
    field_whr: 2
    field_xyr: 2
  }
}
layer {
  name: "LFCN_2_7x7"
  type: "Convolution"
  bottom: "conv5_3"
  top: "LFCN_2_7x7"
  param {
    lr_mult: 1
    decay_mult: 1
  }
  param {
    lr_mult: 2
    decay_mult: 0
  }
  convolution_param {
    num_output: 9
    pad: 3
    kernel_size: 7
    weight_filler {
      type: "gaussian"
      std: 0.001
    }
    bias_filler {
      type: "constant"
    }
  }
}
layer {
  name: "detection_loss_2_7x7"
  type: "DetectionLoss"
  bottom: "LFCN_2_7x7"
  bottom: "label_2_7x7"
  top: "loss_2_7x7"
  detection_loss_param {
    cls_num: 5
    coord_num: 4
    lambda: 0.05
    field_h: 168
    field_w: 168
    downsample_rate: 16
    bb_smooth: true
    field_whr: 2
    field_xyr: 2
    bg_threshold: 0.2
    bg_multiple: 2
    sample_mode: "random"
    pos_neg_weighted: true
  }
}
layer {
  name: "detection_accuracy_2_7x7"
  type: "DetectionAccuracy"
  bottom: "LFCN_2_7x7"
  bottom: "label_2_7x7"
  top: "accuracy_2_7x7"
  top: "boxiou_2_7x7"
  detection_accuracy_param {
    cls_num: 5
    coord_num: 4
    field_h: 168
    field_w: 168
    downsample_rate: 16
    field_whr: 2
    field_xyr: 2
  }
}
layer {
  name: "pool5"
  type: "Pooling"
  bottom: "conv5_3"
  top: "pool5"
  pooling_param {
    pool: MAX
    kernel_size: 2
    stride: 2
  }
}
layer {
  name: "conv6_1"
  type: "Convolution"
  bottom: "pool5"
  top: "conv6_1"
  param {
    lr_mult: 1
    decay_mult: 1
  }
  param {
    lr_mult: 2
    decay_mult: 0
  }
  convolution_param {
    num_output: 512
    pad: 1
    kernel_size: 3
    weight_filler {
      type: "gaussian"
      std: 0.01
    }
    bias_filler {
      type: "constant"
    }
  }
}
layer {
  name: "relu6_1"
  type: "ReLU"
  bottom: "conv6_1"
  top: "conv6_1"
}
layer {
  name: "LFCN_3_5x5"
  type: "Convolution"
  bottom: "conv6_1"
  top: "LFCN_3_5x5"
  param {
    lr_mult: 1
    decay_mult: 1
  }
  param {
    lr_mult: 2
    decay_mult: 0
  }
  convolution_param {
    num_output: 9
    pad: 2
    kernel_size: 5
    weight_filler {
      type: "gaussian"
      std: 0.001
    }
    bias_filler {
      type: "constant"
    }
  }
}
layer {
  name: "detection_loss_3_5x5"
  type: "DetectionLoss"
  bottom: "LFCN_3_5x5"
  bottom: "label_3_5x5"
  top: "loss_3_5x5"
  detection_loss_param {
    cls_num: 5
    coord_num: 4
    lambda: 0.05
    field_h: 240
    field_w: 240
    downsample_rate: 32
    bb_smooth: true
    field_whr: 2
    field_xyr: 2
    bg_threshold: 0.2
    bg_multiple: 2
    sample_mode: "random"
    pos_neg_weighted: true
  }
}
layer {
  name: "detection_accuracy_3_5x5"
  type: "DetectionAccuracy"
  bottom: "LFCN_3_5x5"
  bottom: "label_3_5x5"
  top: "accuracy_3_5x5"
  top: "boxiou_3_5x5"
  detection_accuracy_param {
    cls_num: 5
    coord_num: 4
    field_h: 240
    field_w: 240
    downsample_rate: 32
    field_whr: 2
    field_xyr: 2
  }
}
layer {
  name: "LFCN_3_7x7"
  type: "Convolution"
  bottom: "conv6_1"
  top: "LFCN_3_7x7"
  param {
    lr_mult: 1
    decay_mult: 1
  }
  param {
    lr_mult: 2
    decay_mult: 0
  }
  convolution_param {
    num_output: 9
    pad: 3
    kernel_size: 7
    weight_filler {
      type: "gaussian"
      std: 0.001
    }
    bias_filler {
      type: "constant"
    }
  }
}
layer {
  name: "detection_loss_3_7x7"
  type: "DetectionLoss"
  bottom: "LFCN_3_7x7"
  bottom: "label_3_7x7"
  top: "loss_3_7x7"
  detection_loss_param {
    cls_num: 5
    coord_num: 4
    lambda: 0.05
    field_h: 336
    field_w: 336
    downsample_rate: 32
    bb_smooth: true
    field_whr: 2
    field_xyr: 2
    bg_threshold: 0.2
    bg_multiple: 2
    sample_mode: "random"
    pos_neg_weighted: true
  }
}
layer {
  name: "detection_accuracy_3_7x7"
  type: "DetectionAccuracy"
  bottom: "LFCN_3_7x7"
  bottom: "label_3_7x7"
  top: "accuracy_3_7x7"
  top: "boxiou_3_7x7"
  detection_accuracy_param {
    cls_num: 5
    coord_num: 4
    field_h: 336
    field_w: 336
    downsample_rate: 32
    field_whr: 2
    field_xyr: 2
  }
}
layer {
  name: "pool6"
  type: "Pooling"
  bottom: "conv6_1"
  top: "pool6"
  pooling_param {
    pool: MAX
    kernel_size: 2
    stride: 2
  }
}
layer {
  name: "LFCN_4_5x5"
  type: "Convolution"
  bottom: "pool6"
  top: "LFCN_4_5x5"
  param {
    lr_mult: 1
    decay_mult: 1
  }
  param {
    lr_mult: 2
    decay_mult: 0
  }
  convolution_param {
    num_output: 9
    pad: 2
    kernel_size: 5
    weight_filler {
      type: "gaussian"
      std: 0.001
    }
    bias_filler {
      type: "constant"
    }
  }
}
layer {
  name: "detection_loss_4_5x5"
  type: "DetectionLoss"
  bottom: "LFCN_4_5x5"
  bottom: "label_4_5x5"
  top: "loss_4_5x5"
  detection_loss_param {
    cls_num: 5
    coord_num: 4
    lambda: 0.05
    field_h: 480
    field_w: 480
    downsample_rate: 64
    bb_smooth: true
    field_whr: 2
    field_xyr: 2
    bg_threshold: 0.2
    bg_multiple: 2
    sample_mode: "random"
    pos_neg_weighted: true
  }
}
layer {
  name: "detection_accuracy_4_5x5"
  type: "DetectionAccuracy"
  bottom: "LFCN_4_5x5"
  bottom: "label_4_5x5"
  top: "accuracy_4_5x5"
  top: "boxiou_4_5x5"
  detection_accuracy_param {
    cls_num: 5
    coord_num: 4
    field_h: 480
    field_w: 480
    downsample_rate: 64
    field_whr: 2
    field_xyr: 2
  }
}
I0911 10:42:50.457540 15254 layer_factory.hpp:77] Creating layer data
I0911 10:42:50.457587 15254 net.cpp:100] Creating Layer data
I0911 10:42:50.457598 15254 net.cpp:408] data -> data
…
I0911 10:42:50.482951 15254 image_gt_data_layer.cpp:235] output label size 1 : 4,6,96,96
I0911 10:42:50.482987 15254 image_gt_data_layer.cpp:235] output label size 2 : 4,6,48,48
I0911 10:42:50.483024 15254 image_gt_data_layer.cpp:235] output label size 3 : 4,6,48,48
I0911 10:42:50.483065 15254 image_gt_data_layer.cpp:235] output label size 4 : 4,6,24,24
I0911 10:42:50.483104 15254 image_gt_data_layer.cpp:235] output label size 5 : 4,6,24,24
I0911 10:42:50.483144 15254 image_gt_data_layer.cpp:235] output label size 6 : 4,6,12,12
I0911 10:42:50.556586 15254 net.cpp:150] Setting up data
I0911 10:42:50.556725 15254 net.cpp:157] Top shape: 4 4 768 768 (9437184)
I0911 10:42:50.556736 15254 net.cpp:157] Top shape: 4 6 96 96 (221184)
I0911 10:42:50.556741 15254 net.cpp:157] Top shape: 4 6 96 96 (221184)
I0911 10:42:50.556746 15254 net.cpp:157] Top shape: 4 6 48 48 (55296)
I0911 10:42:50.556752 15254 net.cpp:157] Top shape: 4 6 48 48 (55296)
I0911 10:42:50.556757 15254 net.cpp:157] Top shape: 4 6 24 24 (13824)
I0911 10:42:50.556763 15254 net.cpp:157] Top shape: 4 6 24 24 (13824)
I0911 10:42:50.556768 15254 net.cpp:157] Top shape: 4 6 12 12 (3456)
I0911 10:42:50.556773 15254 net.cpp:165] Memory required for data: 40084992
I0911 10:42:50.556802 15254 layer_factory.hpp:77] Creating layer label_1_5x5_data_1_split
I0911 10:42:50.556860 15254 net.cpp:100] Creating Layer label_1_5x5_data_1_split
I0911 10:42:50.556895 15254 net.cpp:434] label_1_5x5_data_1_split <- label_1_5x5
I0911 10:42:50.556926 15254 net.cpp:408] label_1_5x5_data_1_split -> label_1_5x5_data_1_split_0
I0911 10:42:50.556951 15254 net.cpp:408] label_1_5x5_data_1_split -> label_1_5x5_data_1_split_1
I0911 10:42:50.557737 15254 net.cpp:150] Setting up label_1_5x5_data_1_split
I0911 10:42:50.557843 15254 net.cpp:157] Top shape: 4 6 96 96 (221184)
I0911 10:42:50.557859 15254 net.cpp:157] Top shape: 4 6 96 96 (221184)
I0911 10:42:50.557870 15254 net.cpp:165] Memory required for data: 41854464
I0911 10:42:50.557888 15254 layer_factory.hpp:77] Creating layer label_1_7x7_data_2_split
I0911 10:42:50.557919 15254 net.cpp:100] Creating Layer label_1_7x7_data_2_split
I0911 10:42:50.557930 15254 net.cpp:434] label_1_7x7_data_2_split <- label_1_7x7
I0911 10:42:50.557945 15254 net.cpp:408] label_1_7x7_data_2_split -> label_1_7x7_data_2_split_0
I0911 10:42:50.557968 15254 net.cpp:408] label_1_7x7_data_2_split -> label_1_7x7_data_2_split_1
I0911 10:42:50.558066 15254 net.cpp:150] Setting up label_1_7x7_data_2_split
I0911 10:42:50.558082 15254 net.cpp:157] Top shape: 4 6 96 96 (221184)
I0911 10:42:50.558094 15254 net.cpp:157] Top shape: 4 6 96 96 (221184)
I0911 10:42:50.558102 15254 net.cpp:165] Memory required for data: 43623936
I0911 10:42:50.558110 15254 layer_factory.hpp:77] Creating layer label_2_5x5_data_3_split
I0911 10:42:50.558123 15254 net.cpp:100] Creating Layer label_2_5x5_data_3_split
I0911 10:42:50.558132 15254 net.cpp:434] label_2_5x5_data_3_split <- label_2_5x5
I0911 10:42:50.558143 15254 net.cpp:408] label_2_5x5_data_3_split -> label_2_5x5_data_3_split_0
I0911 10:42:50.558156 15254 net.cpp:408] label_2_5x5_data_3_split -> label_2_5x5_data_3_split_1
I0911 10:42:50.558220 15254 net.cpp:150] Setting up label_2_5x5_data_3_split
I0911 10:42:50.558233 15254 net.cpp:157] Top shape: 4 6 48 48 (55296)
I0911 10:42:50.558243 15254 net.cpp:157] Top shape: 4 6 48 48 (55296)
I0911 10:42:50.558251 15254 net.cpp:165] Memory required for data: 44066304
I0911 10:42:50.558259 15254 layer_factory.hpp:77] Creating layer label_2_7x7_data_4_split
I0911 10:42:50.558272 15254 net.cpp:100] Creating Layer label_2_7x7_data_4_split
I0911 10:42:50.558282 15254 net.cpp:434] label_2_7x7_data_4_split <- label_2_7x7
I0911 10:42:50.558292 15254 net.cpp:408] label_2_7x7_data_4_split -> label_2_7x7_data_4_split_0
I0911 10:42:50.558305 15254 net.cpp:408] label_2_7x7_data_4_split -> label_2_7x7_data_4_split_1
I0911 10:42:50.558367 15254 net.cpp:150] Setting up label_2_7x7_data_4_split
I0911 10:42:50.558379 15254 net.cpp:157] Top shape: 4 6 48 48 (55296)
I0911 10:42:50.558388 15254 net.cpp:157] Top shape: 4 6 48 48 (55296)
I0911 10:42:50.558398 15254 net.cpp:165] Memory required for data: 44508672
I0911 10:42:50.558404 15254 layer_factory.hpp:77] Creating layer label_3_5x5_data_5_split
I0911 10:42:50.558415 15254 net.cpp:100] Creating Layer label_3_5x5_data_5_split
I0911 10:42:50.558424 15254 net.cpp:434] label_3_5x5_data_5_split <- label_3_5x5
I0911 10:42:50.558436 15254 net.cpp:408] label_3_5x5_data_5_split -> label_3_5x5_data_5_split_0
I0911 10:42:50.558451 15254 net.cpp:408] label_3_5x5_data_5_split -> label_3_5x5_data_5_split_1
I0911 10:42:50.558511 15254 net.cpp:150] Setting up label_3_5x5_data_5_split
I0911 10:42:50.558526 15254 net.cpp:157] Top shape: 4 6 24 24 (13824)
I0911 10:42:50.558537 15254 net.cpp:157] Top shape: 4 6 24 24 (13824)
I0911 10:42:50.558545 15254 net.cpp:165] Memory required for data: 44619264
I0911 10:42:50.558554 15254 layer_factory.hpp:77] Creating layer label_3_7x7_data_6_split
I0911 10:42:50.558564 15254 net.cpp:100] Creating Layer label_3_7x7_data_6_split
I0911 10:42:50.558573 15254 net.cpp:434] label_3_7x7_data_6_split <- label_3_7x7
I0911 10:42:50.558583 15254 net.cpp:408] label_3_7x7_data_6_split -> label_3_7x7_data_6_split_0
I0911 10:42:50.558595 15254 net.cpp:408] label_3_7x7_data_6_split -> label_3_7x7_data_6_split_1
I0911 10:42:50.558653 15254 net.cpp:150] Setting up label_3_7x7_data_6_split
I0911 10:42:50.558665 15254 net.cpp:157] Top shape: 4 6 24 24 (13824)
I0911 10:42:50.558676 15254 net.cpp:157] Top shape: 4 6 24 24 (13824)
I0911 10:42:50.558684 15254 net.cpp:165] Memory required for data: 44729856
I0911 10:42:50.558691 15254 layer_factory.hpp:77] Creating layer label_4_5x5_data_7_split
I0911 10:42:50.558702 15254 net.cpp:100] Creating Layer label_4_5x5_data_7_split
I0911 10:42:50.558710 15254 net.cpp:434] label_4_5x5_data_7_split <- label_4_5x5
I0911 10:42:50.558722 15254 net.cpp:408] label_4_5x5_data_7_split -> label_4_5x5_data_7_split_0
I0911 10:42:50.558733 15254 net.cpp:408] label_4_5x5_data_7_split -> label_4_5x5_data_7_split_1
I0911 10:42:50.558799 15254 net.cpp:150] Setting up label_4_5x5_data_7_split
I0911 10:42:50.558811 15254 net.cpp:157] Top shape: 4 6 12 12 (3456)
I0911 10:42:50.558822 15254 net.cpp:157] Top shape: 4 6 12 12 (3456)
I0911 10:42:50.558830 15254 net.cpp:165] Memory required for data: 44757504
I0911 10:42:50.558837 15254 layer_factory.hpp:77] Creating layer conv1_1_new
I0911 10:42:50.558876 15254 net.cpp:100] Creating Layer conv1_1_new
I0911 10:42:50.558888 15254 net.cpp:434] conv1_1_new <- data
I0911 10:42:50.558902 15254 net.cpp:408] conv1_1_new -> conv1_1
I0911 10:42:50.822417 15254 net.cpp:150] Setting up conv1_1_new
I0911 10:42:50.822448 15254 net.cpp:157] Top shape: 4 64 768 768 (150994944)
I0911 10:42:50.822455 15254 net.cpp:165] Memory required for data: 648737280
I0911 10:42:50.822479 15254 layer_factory.hpp:77] Creating layer relu1_1
I0911 10:42:50.822492 15254 net.cpp:100] Creating Layer relu1_1
I0911 10:42:50.822497 15254 net.cpp:434] relu1_1 <- conv1_1
I0911 10:42:50.822505 15254 net.cpp:395] relu1_1 -> conv1_1 (in-place)
I0911 10:42:50.822710 15254 net.cpp:150] Setting up relu1_1
I0911 10:42:50.822721 15254 net.cpp:157] Top shape: 4 64 768 768 (150994944)
I0911 10:42:50.822724 15254 net.cpp:165] Memory required for data: 1252717056
I0911 10:42:50.822728 15254 layer_factory.hpp:77] Creating layer conv1_2
I0911 10:42:50.822741 15254 net.cpp:100] Creating Layer conv1_2
I0911 10:42:50.822746 15254 net.cpp:434] conv1_2 <- conv1_1
I0911 10:42:50.822752 15254 net.cpp:408] conv1_2 -> conv1_2
I0911 10:42:50.824946 15254 net.cpp:150] Setting up conv1_2
I0911 10:42:50.824960 15254 net.cpp:157] Top shape: 4 64 768 768 (150994944)
I0911 10:42:50.824964 15254 net.cpp:165] Memory required for data: 1856696832
I0911 10:42:50.824972 15254 layer_factory.hpp:77] Creating layer relu1_2
I0911 10:42:50.824980 15254 net.cpp:100] Creating Layer relu1_2
I0911 10:42:50.824982 15254 net.cpp:434] relu1_2 <- conv1_2
I0911 10:42:50.824988 15254 net.cpp:395] relu1_2 -> conv1_2 (in-place)
I0911 10:42:50.825139 15254 net.cpp:150] Setting up relu1_2
I0911 10:42:50.825146 15254 net.cpp:157] Top shape: 4 64 768 768 (150994944)
I0911 10:42:50.825150 15254 net.cpp:165] Memory required for data: 2460676608
I0911 10:42:50.825152 15254 layer_factory.hpp:77] Creating layer pool1
I0911 10:42:50.825160 15254 net.cpp:100] Creating Layer pool1
I0911 10:42:50.825165 15254 net.cpp:434] pool1 <- conv1_2
I0911 10:42:50.825170 15254 net.cpp:408] pool1 -> pool1
I0911 10:42:50.825214 15254 net.cpp:150] Setting up pool1
I0911 10:42:50.825222 15254 net.cpp:157] Top shape: 4 64 384 384 (37748736)
I0911 10:42:50.825227 15254 net.cpp:165] Memory required for data: 2611671552
I0911 10:42:50.825229 15254 layer_factory.hpp:77] Creating layer conv2_1
I0911 10:42:50.825237 15254 net.cpp:100] Creating Layer conv2_1
I0911 10:42:50.825240 15254 net.cpp:434] conv2_1 <- pool1
I0911 10:42:50.825245 15254 net.cpp:408] conv2_1 -> conv2_1
I0911 10:42:50.827633 15254 net.cpp:150] Setting up conv2_1
I0911 10:42:50.827672 15254 net.cpp:157] Top shape: 4 128 384 384 (75497472)
I0911 10:42:50.827677 15254 net.cpp:165] Memory required for data: 2913661440
I0911 10:42:50.827694 15254 layer_factory.hpp:77] Creating layer relu2_1
I0911 10:42:50.827709 15254 net.cpp:100] Creating Layer relu2_1
I0911 10:42:50.827715 15254 net.cpp:434] relu2_1 <- conv2_1
I0911 10:42:50.827723 15254 net.cpp:395] relu2_1 -> conv2_1 (in-place)
I0911 10:42:50.827958 15254 net.cpp:150] Setting up relu2_1
I0911 10:42:50.827971 15254 net.cpp:157] Top shape: 4 128 384 384 (75497472)
I0911 10:42:50.827975 15254 net.cpp:165] Memory required for data: 3215651328
I0911 10:42:50.827978 15254 layer_factory.hpp:77] Creating layer conv2_2
I0911 10:42:50.827992 15254 net.cpp:100] Creating Layer conv2_2
I0911 10:42:50.827996 15254 net.cpp:434] conv2_2 <- conv2_1
I0911 10:42:50.828002 15254 net.cpp:408] conv2_2 -> conv2_2
I0911 10:42:50.829747 15254 net.cpp:150] Setting up conv2_2
I0911 10:42:50.829784 15254 net.cpp:157] Top shape: 4 128 384 384 (75497472)
I0911 10:42:50.829789 15254 net.cpp:165] Memory required for data: 3517641216
I0911 10:42:50.829802 15254 layer_factory.hpp:77] Creating layer relu2_2
I0911 10:42:50.829824 15254 net.cpp:100] Creating Layer relu2_2
I0911 10:42:50.829831 15254 net.cpp:434] relu2_2 <- conv2_2
I0911 10:42:50.829838 15254 net.cpp:395] relu2_2 -> conv2_2 (in-place)
I0911 10:42:50.830008 15254 net.cpp:150] Setting up relu2_2
I0911 10:42:50.830018 15254 net.cpp:157] Top shape: 4 128 384 384 (75497472)
I0911 10:42:50.830022 15254 net.cpp:165] Memory required for data: 3819631104
I0911 10:42:50.830037 15254 layer_factory.hpp:77] Creating layer pool2
I0911 10:42:50.830049 15254 net.cpp:100] Creating Layer pool2
I0911 10:42:50.830051 15254 net.cpp:434] pool2 <- conv2_2
I0911 10:42:50.830057 15254 net.cpp:408] pool2 -> pool2
I0911 10:42:50.830096 15254 net.cpp:150] Setting up pool2
I0911 10:42:50.830101 15254 net.cpp:157] Top shape: 4 128 192 192 (18874368)
I0911 10:42:50.830104 15254 net.cpp:165] Memory required for data: 3895128576
I0911 10:42:50.830107 15254 layer_factory.hpp:77] Creating layer conv3_1
I0911 10:42:50.830117 15254 net.cpp:100] Creating Layer conv3_1
I0911 10:42:50.830121 15254 net.cpp:434] conv3_1 <- pool2
I0911 10:42:50.830126 15254 net.cpp:408] conv3_1 -> conv3_1
I0911 10:42:50.837466 15254 net.cpp:150] Setting up conv3_1
I0911 10:42:50.837492 15254 net.cpp:157] Top shape: 4 256 192 192 (37748736)
I0911 10:42:50.837497 15254 net.cpp:165] Memory required for data: 4046123520
I0911 10:42:50.837514 15254 layer_factory.hpp:77] Creating layer relu3_1
I0911 10:42:50.837527 15254 net.cpp:100] Creating Layer relu3_1
I0911 10:42:50.837535 15254 net.cpp:434] relu3_1 <- conv3_1
I0911 10:42:50.837540 15254 net.cpp:395] relu3_1 -> conv3_1 (in-place)
I0911 10:42:50.837965 15254 net.cpp:150] Setting up relu3_1
I0911 10:42:50.837977 15254 net.cpp:157] Top shape: 4 256 192 192 (37748736)
I0911 10:42:50.837981 15254 net.cpp:165] Memory required for data: 4197118464
I0911 10:42:50.837985 15254 layer_factory.hpp:77] Creating layer conv3_2
I0911 10:42:50.837994 15254 net.cpp:100] Creating Layer conv3_2
I0911 10:42:50.837999 15254 net.cpp:434] conv3_2 <- conv3_1
I0911 10:42:50.838006 15254 net.cpp:408] conv3_2 -> conv3_2
I0911 10:42:50.840327 15254 net.cpp:150] Setting up conv3_2
I0911 10:42:50.840351 15254 net.cpp:157] Top shape: 4 256 192 192 (37748736)
I0911 10:42:50.840355 15254 net.cpp:165] Memory required for data: 4348113408
I0911 10:42:50.840364 15254 layer_factory.hpp:77] Creating layer relu3_2
I0911 10:42:50.840374 15254 net.cpp:100] Creating Layer relu3_2
I0911 10:42:50.840380 15254 net.cpp:434] relu3_2 <- conv3_2
I0911 10:42:50.840386 15254 net.cpp:395] relu3_2 -> conv3_2 (in-place)
I0911 10:42:50.840802 15254 net.cpp:150] Setting up relu3_2
I0911 10:42:50.840816 15254 net.cpp:157] Top shape: 4 256 192 192 (37748736)
I0911 10:42:50.840818 15254 net.cpp:165] Memory required for data: 4499108352
I0911 10:42:50.840822 15254 layer_factory.hpp:77] Creating layer conv3_3
I0911 10:42:50.840831 15254 net.cpp:100] Creating Layer conv3_3
I0911 10:42:50.840836 15254 net.cpp:434] conv3_3 <- conv3_2
I0911 10:42:50.840840 15254 net.cpp:408] conv3_3 -> conv3_3
I0911 10:42:50.843372 15254 net.cpp:150] Setting up conv3_3
I0911 10:42:50.843391 15254 net.cpp:157] Top shape: 4 256 192 192 (37748736)
I0911 10:42:50.843396 15254 net.cpp:165] Memory required for data: 4650103296
I0911 10:42:50.843406 15254 layer_factory.hpp:77] Creating layer relu3_3
I0911 10:42:50.843416 15254 net.cpp:100] Creating Layer relu3_3
I0911 10:42:50.843421 15254 net.cpp:434] relu3_3 <- conv3_3
I0911 10:42:50.843427 15254 net.cpp:395] relu3_3 -> conv3_3 (in-place)
I0911 10:42:50.843612 15254 net.cpp:150] Setting up relu3_3
I0911 10:42:50.843621 15254 net.cpp:157] Top shape: 4 256 192 192 (37748736)
I0911 10:42:50.843626 15254 net.cpp:165] Memory required for data: 4801098240
I0911 10:42:50.843629 15254 layer_factory.hpp:77] Creating layer pool3
I0911 10:42:50.843637 15254 net.cpp:100] Creating Layer pool3
I0911 10:42:50.843641 15254 net.cpp:434] pool3 <- conv3_3
I0911 10:42:50.843648 15254 net.cpp:408] pool3 -> pool3
I0911 10:42:50.843688 15254 net.cpp:150] Setting up pool3
I0911 10:42:50.843696 15254 net.cpp:157] Top shape: 4 256 96 96 (9437184)
I0911 10:42:50.843699 15254 net.cpp:165] Memory required for data: 4838846976
I0911 10:42:50.843703 15254 layer_factory.hpp:77] Creating layer conv4_1
I0911 10:42:50.843713 15254 net.cpp:100] Creating Layer conv4_1
I0911 10:42:50.843716 15254 net.cpp:434] conv4_1 <- pool3
I0911 10:42:50.843722 15254 net.cpp:408] conv4_1 -> conv4_1
I0911 10:42:50.848279 15254 net.cpp:150] Setting up conv4_1
I0911 10:42:50.848309 15254 net.cpp:157] Top shape: 4 512 96 96 (18874368)
I0911 10:42:50.848315 15254 net.cpp:165] Memory required for data: 4914344448
I0911 10:42:50.848327 15254 layer_factory.hpp:77] Creating layer relu4_1
I0911 10:42:50.848340 15254 net.cpp:100] Creating Layer relu4_1
I0911 10:42:50.848345 15254 net.cpp:434] relu4_1 <- conv4_1
I0911 10:42:50.848353 15254 net.cpp:395] relu4_1 -> conv4_1 (in-place)
I0911 10:42:50.848525 15254 net.cpp:150] Setting up relu4_1
I0911 10:42:50.848533 15254 net.cpp:157] Top shape: 4 512 96 96 (18874368)
I0911 10:42:50.848537 15254 net.cpp:165] Memory required for data: 4989841920
I0911 10:42:50.848541 15254 layer_factory.hpp:77] Creating layer conv4_2
I0911 10:42:50.848549 15254 net.cpp:100] Creating Layer conv4_2
I0911 10:42:50.848553 15254 net.cpp:434] conv4_2 <- conv4_1
I0911 10:42:50.848558 15254 net.cpp:408] conv4_2 -> conv4_2
I0911 10:42:50.856564 15254 net.cpp:150] Setting up conv4_2
I0911 10:42:50.856593 15254 net.cpp:157] Top shape: 4 512 96 96 (18874368)
I0911 10:42:50.856597 15254 net.cpp:165] Memory required for data: 5065339392
I0911 10:42:50.856614 15254 layer_factory.hpp:77] Creating layer relu4_2
I0911 10:42:50.856626 15254 net.cpp:100] Creating Layer relu4_2
I0911 10:42:50.856633 15254 net.cpp:434] relu4_2 <- conv4_2
I0911 10:42:50.856639 15254 net.cpp:395] relu4_2 -> conv4_2 (in-place)
I0911 10:42:50.856786 15254 net.cpp:150] Setting up relu4_2
I0911 10:42:50.856794 15254 net.cpp:157] Top shape: 4 512 96 96 (18874368)
I0911 10:42:50.856797 15254 net.cpp:165] Memory required for data: 5140836864
I0911 10:42:50.856801 15254 layer_factory.hpp:77] Creating layer conv4_3
I0911 10:42:50.856811 15254 net.cpp:100] Creating Layer conv4_3
I0911 10:42:50.856814 15254 net.cpp:434] conv4_3 <- conv4_2
I0911 10:42:50.856820 15254 net.cpp:408] conv4_3 -> conv4_3
I0911 10:42:50.862578 15254 net.cpp:150] Setting up conv4_3
I0911 10:42:50.862609 15254 net.cpp:157] Top shape: 4 512 96 96 (18874368)
I0911 10:42:50.862613 15254 net.cpp:165] Memory required for data: 5216334336
I0911 10:42:50.862623 15254 layer_factory.hpp:77] Creating layer relu4_3
I0911 10:42:50.862637 15254 net.cpp:100] Creating Layer relu4_3
I0911 10:42:50.862643 15254 net.cpp:434] relu4_3 <- conv4_3
I0911 10:42:50.862649 15254 net.cpp:395] relu4_3 -> conv4_3 (in-place)
I0911 10:42:50.862797 15254 net.cpp:150] Setting up relu4_3
I0911 10:42:50.862805 15254 net.cpp:157] Top shape: 4 512 96 96 (18874368)
I0911 10:42:50.862809 15254 net.cpp:165] Memory required for data: 5291831808
I0911 10:42:50.862813 15254 layer_factory.hpp:77] Creating layer conv4_3_relu4_3_0_split
I0911 10:42:50.862818 15254 net.cpp:100] Creating Layer conv4_3_relu4_3_0_split
I0911 10:42:50.862823 15254 net.cpp:434] conv4_3_relu4_3_0_split <- conv4_3
I0911 10:42:50.862828 15254 net.cpp:408] conv4_3_relu4_3_0_split -> conv4_3_relu4_3_0_split_0
I0911 10:42:50.862835 15254 net.cpp:408] conv4_3_relu4_3_0_split -> conv4_3_relu4_3_0_split_1
I0911 10:42:50.862869 15254 net.cpp:150] Setting up conv4_3_relu4_3_0_split
I0911 10:42:50.862874 15254 net.cpp:157] Top shape: 4 512 96 96 (18874368)
I0911 10:42:50.862877 15254 net.cpp:157] Top shape: 4 512 96 96 (18874368)
I0911 10:42:50.862881 15254 net.cpp:165] Memory required for data: 5442826752
I0911 10:42:50.862884 15254 layer_factory.hpp:77] Creating layer loss1_conv1
I0911 10:42:50.862900 15254 net.cpp:100] Creating Layer loss1_conv1
I0911 10:42:50.862903 15254 net.cpp:434] loss1_conv1 <- conv4_3_relu4_3_0_split_0
I0911 10:42:50.862910 15254 net.cpp:408] loss1_conv1 -> loss1_conv1
I0911 10:42:50.931792 15254 net.cpp:150] Setting up loss1_conv1
I0911 10:42:50.931820 15254 net.cpp:157] Top shape: 4 512 96 96 (18874368)
I0911 10:42:50.931825 15254 net.cpp:165] Memory required for data: 5518324224
I0911 10:42:50.931835 15254 layer_factory.hpp:77] Creating layer loss_relu1
I0911 10:42:50.931846 15254 net.cpp:100] Creating Layer loss_relu1
I0911 10:42:50.931854 15254 net.cpp:434] loss_relu1 <- loss1_conv1
I0911 10:42:50.931859 15254 net.cpp:395] loss_relu1 -> loss1_conv1 (in-place)
I0911 10:42:50.932302 15254 net.cpp:150] Setting up loss_relu1
I0911 10:42:50.932314 15254 net.cpp:157] Top shape: 4 512 96 96 (18874368)
I0911 10:42:50.932318 15254 net.cpp:165] Memory required for data: 5593821696
I0911 10:42:50.932322 15254 layer_factory.hpp:77] Creating layer loss1_conv1_loss_relu1_0_split
I0911 10:42:50.932328 15254 net.cpp:100] Creating Layer loss1_conv1_loss_relu1_0_split
I0911 10:42:50.932332 15254 net.cpp:434] loss1_conv1_loss_relu1_0_split <- loss1_conv1
I0911 10:42:50.932337 15254 net.cpp:408] loss1_conv1_loss_relu1_0_split -> loss1_conv1_loss_relu1_0_split_0
I0911 10:42:50.932344 15254 net.cpp:408] loss1_conv1_loss_relu1_0_split -> loss1_conv1_loss_relu1_0_split_1
I0911 10:42:50.932380 15254 net.cpp:150] Setting up loss1_conv1_loss_relu1_0_split
I0911 10:42:50.932387 15254 net.cpp:157] Top shape: 4 512 96 96 (18874368)
I0911 10:42:50.932392 15254 net.cpp:157] Top shape: 4 512 96 96 (18874368)
I0911 10:42:50.932395 15254 net.cpp:165] Memory required for data: 5744816640
I0911 10:42:50.932399 15254 layer_factory.hpp:77] Creating layer LFCN_1_5x5
I0911 10:42:50.932409 15254 net.cpp:100] Creating Layer LFCN_1_5x5
I0911 10:42:50.932412 15254 net.cpp:434] LFCN_1_5x5 <- loss1_conv1_loss_relu1_0_split_0
I0911 10:42:50.932417 15254 net.cpp:408] LFCN_1_5x5 -> LFCN_1_5x5
I0911 10:42:50.936019 15254 net.cpp:150] Setting up LFCN_1_5x5
I0911 10:42:50.936031 15254 net.cpp:157] Top shape: 4 9 96 96 (331776)
I0911 10:42:50.936035 15254 net.cpp:165] Memory required for data: 5746143744
I0911 10:42:50.936043 15254 layer_factory.hpp:77] Creating layer LFCN_1_5x5_LFCN_1_5x5_0_split
I0911 10:42:50.936048 15254 net.cpp:100] Creating Layer LFCN_1_5x5_LFCN_1_5x5_0_split
I0911 10:42:50.936051 15254 net.cpp:434] LFCN_1_5x5_LFCN_1_5x5_0_split <- LFCN_1_5x5
I0911 10:42:50.936058 15254 net.cpp:408] LFCN_1_5x5_LFCN_1_5x5_0_split -> LFCN_1_5x5_LFCN_1_5x5_0_split_0
I0911 10:42:50.936064 15254 net.cpp:408] LFCN_1_5x5_LFCN_1_5x5_0_split -> LFCN_1_5x5_LFCN_1_5x5_0_split_1
I0911 10:42:50.936094 15254 net.cpp:150] Setting up LFCN_1_5x5_LFCN_1_5x5_0_split
I0911 10:42:50.936101 15254 net.cpp:157] Top shape: 4 9 96 96 (331776)
I0911 10:42:50.936105 15254 net.cpp:157] Top shape: 4 9 96 96 (331776)
I0911 10:42:50.936108 15254 net.cpp:165] Memory required for data: 5748797952
I0911 10:42:50.936112 15254 layer_factory.hpp:77] Creating layer detection_loss_1_5x5
I0911 10:42:50.936126 15254 net.cpp:100] Creating Layer detection_loss_1_5x5
I0911 10:42:50.936131 15254 net.cpp:434] detection_loss_1_5x5 <- LFCN_1_5x5_LFCN_1_5x5_0_split_0
I0911 10:42:50.936134 15254 net.cpp:434] detection_loss_1_5x5 <- label_1_5x5_data_1_split_0
I0911 10:42:50.936139 15254 net.cpp:408] detection_loss_1_5x5 -> loss_1_5x5
I0911 10:42:50.936151 15254 layer_factory.hpp:77] Creating layer detection_loss_1_5x5
I0911 10:42:50.937680 15254 net.cpp:150] Setting up detection_loss_1_5x5
I0911 10:42:50.937695 15254 net.cpp:157] Top shape: 1 1 1 2 (2)
I0911 10:42:50.937700 15254 net.cpp:160]     with loss weight 0.9
I0911 10:42:50.937718 15254 net.cpp:165] Memory required for data: 5748797960
I0911 10:42:50.937722 15254 layer_factory.hpp:77] Creating layer detection_accuracy_1_5x5
I0911 10:42:50.937731 15254 net.cpp:100] Creating Layer detection_accuracy_1_5x5
I0911 10:42:50.937734 15254 net.cpp:434] detection_accuracy_1_5x5 <- LFCN_1_5x5_LFCN_1_5x5_0_split_1
I0911 10:42:50.937741 15254 net.cpp:434] detection_accuracy_1_5x5 <- label_1_5x5_data_1_split_1
I0911 10:42:50.937746 15254 net.cpp:408] detection_accuracy_1_5x5 -> accuracy_1_5x5
I0911 10:42:50.937753 15254 net.cpp:408] detection_accuracy_1_5x5 -> boxiou_1_5x5
I0911 10:42:50.937791 15254 net.cpp:150] Setting up detection_accuracy_1_5x5
I0911 10:42:50.937799 15254 net.cpp:157] Top shape: 1 1 1 2 (2)
I0911 10:42:50.937803 15254 net.cpp:157] Top shape: 1 1 1 1 (1)
I0911 10:42:50.937806 15254 net.cpp:165] Memory required for data: 5748797972
I0911 10:42:50.937810 15254 layer_factory.hpp:77] Creating layer LFCN_1_7x7
I0911 10:42:50.937820 15254 net.cpp:100] Creating Layer LFCN_1_7x7
I0911 10:42:50.937824 15254 net.cpp:434] LFCN_1_7x7 <- loss1_conv1_loss_relu1_0_split_1
I0911 10:42:50.937829 15254 net.cpp:408] LFCN_1_7x7 -> LFCN_1_7x7
I0911 10:42:50.944478 15254 net.cpp:150] Setting up LFCN_1_7x7
I0911 10:42:50.944491 15254 net.cpp:157] Top shape: 4 9 96 96 (331776)
I0911 10:42:50.944494 15254 net.cpp:165] Memory required for data: 5750125076
I0911 10:42:50.944501 15254 layer_factory.hpp:77] Creating layer LFCN_1_7x7_LFCN_1_7x7_0_split
I0911 10:42:50.944506 15254 net.cpp:100] Creating Layer LFCN_1_7x7_LFCN_1_7x7_0_split
I0911 10:42:50.944509 15254 net.cpp:434] LFCN_1_7x7_LFCN_1_7x7_0_split <- LFCN_1_7x7
I0911 10:42:50.944514 15254 net.cpp:408] LFCN_1_7x7_LFCN_1_7x7_0_split -> LFCN_1_7x7_LFCN_1_7x7_0_split_0
I0911 10:42:50.944520 15254 net.cpp:408] LFCN_1_7x7_LFCN_1_7x7_0_split -> LFCN_1_7x7_LFCN_1_7x7_0_split_1
I0911 10:42:50.944553 15254 net.cpp:150] Setting up LFCN_1_7x7_LFCN_1_7x7_0_split
I0911 10:42:50.944558 15254 net.cpp:157] Top shape: 4 9 96 96 (331776)
I0911 10:42:50.944562 15254 net.cpp:157] Top shape: 4 9 96 96 (331776)
I0911 10:42:50.944566 15254 net.cpp:165] Memory required for data: 5752779284
I0911 10:42:50.944568 15254 layer_factory.hpp:77] Creating layer detection_loss_1_7x7
I0911 10:42:50.944574 15254 net.cpp:100] Creating Layer detection_loss_1_7x7
I0911 10:42:50.944578 15254 net.cpp:434] detection_loss_1_7x7 <- LFCN_1_7x7_LFCN_1_7x7_0_split_0
I0911 10:42:50.944582 15254 net.cpp:434] detection_loss_1_7x7 <- label_1_7x7_data_2_split_0
I0911 10:42:50.944587 15254 net.cpp:408] detection_loss_1_7x7 -> loss_1_7x7
I0911 10:42:50.944594 15254 layer_factory.hpp:77] Creating layer detection_loss_1_7x7
I0911 10:42:50.946082 15254 net.cpp:150] Setting up detection_loss_1_7x7
I0911 10:42:50.946099 15254 net.cpp:157] Top shape: 1 1 1 2 (2)
I0911 10:42:50.946101 15254 net.cpp:160]     with loss weight 0.9
I0911 10:42:50.946112 15254 net.cpp:165] Memory required for data: 5752779292
I0911 10:42:50.946117 15254 layer_factory.hpp:77] Creating layer detection_accuracy_1_7x7
I0911 10:42:50.946123 15254 net.cpp:100] Creating Layer detection_accuracy_1_7x7
I0911 10:42:50.946127 15254 net.cpp:434] detection_accuracy_1_7x7 <- LFCN_1_7x7_LFCN_1_7x7_0_split_1
I0911 10:42:50.946133 15254 net.cpp:434] detection_accuracy_1_7x7 <- label_1_7x7_data_2_split_1
I0911 10:42:50.946138 15254 net.cpp:408] detection_accuracy_1_7x7 -> accuracy_1_7x7
I0911 10:42:50.946146 15254 net.cpp:408] detection_accuracy_1_7x7 -> boxiou_1_7x7
I0911 10:42:50.946180 15254 net.cpp:150] Setting up detection_accuracy_1_7x7
I0911 10:42:50.946187 15254 net.cpp:157] Top shape: 1 1 1 2 (2)
I0911 10:42:50.946192 15254 net.cpp:157] Top shape: 1 1 1 1 (1)
I0911 10:42:50.946195 15254 net.cpp:165] Memory required for data: 5752779304
I0911 10:42:50.946198 15254 layer_factory.hpp:77] Creating layer pool4
I0911 10:42:50.946205 15254 net.cpp:100] Creating Layer pool4
I0911 10:42:50.946210 15254 net.cpp:434] pool4 <- conv4_3_relu4_3_0_split_1
I0911 10:42:50.946215 15254 net.cpp:408] pool4 -> pool4
I0911 10:42:50.946246 15254 net.cpp:150] Setting up pool4
I0911 10:42:50.946252 15254 net.cpp:157] Top shape: 4 512 48 48 (4718592)
I0911 10:42:50.946256 15254 net.cpp:165] Memory required for data: 5771653672
I0911 10:42:50.946259 15254 layer_factory.hpp:77] Creating layer conv5_1
I0911 10:42:50.946269 15254 net.cpp:100] Creating Layer conv5_1
I0911 10:42:50.946272 15254 net.cpp:434] conv5_1 <- pool4
I0911 10:42:50.946277 15254 net.cpp:408] conv5_1 -> conv5_1
I0911 10:42:50.957217 15254 net.cpp:150] Setting up conv5_1
I0911 10:42:50.957264 15254 net.cpp:157] Top shape: 4 512 48 48 (4718592)
I0911 10:42:50.957269 15254 net.cpp:165] Memory required for data: 5790528040
I0911 10:42:50.957285 15254 layer_factory.hpp:77] Creating layer relu5_1
I0911 10:42:50.957314 15254 net.cpp:100] Creating Layer relu5_1
I0911 10:42:50.957325 15254 net.cpp:434] relu5_1 <- conv5_1
I0911 10:42:50.957334 15254 net.cpp:395] relu5_1 -> conv5_1 (in-place)
I0911 10:42:50.957489 15254 net.cpp:150] Setting up relu5_1
I0911 10:42:50.957499 15254 net.cpp:157] Top shape: 4 512 48 48 (4718592)
I0911 10:42:50.957502 15254 net.cpp:165] Memory required for data: 5809402408
I0911 10:42:50.957505 15254 layer_factory.hpp:77] Creating layer conv5_2
I0911 10:42:50.957515 15254 net.cpp:100] Creating Layer conv5_2
I0911 10:42:50.957520 15254 net.cpp:434] conv5_2 <- conv5_1
I0911 10:42:50.957525 15254 net.cpp:408] conv5_2 -> conv5_2
I0911 10:42:50.963681 15254 net.cpp:150] Setting up conv5_2
I0911 10:42:50.963713 15254 net.cpp:157] Top shape: 4 512 48 48 (4718592)
I0911 10:42:50.963718 15254 net.cpp:165] Memory required for data: 5828276776
I0911 10:42:50.963728 15254 layer_factory.hpp:77] Creating layer relu5_2
I0911 10:42:50.963744 15254 net.cpp:100] Creating Layer relu5_2
I0911 10:42:50.963752 15254 net.cpp:434] relu5_2 <- conv5_2
I0911 10:42:50.963758 15254 net.cpp:395] relu5_2 -> conv5_2 (in-place)
I0911 10:42:50.963908 15254 net.cpp:150] Setting up relu5_2
I0911 10:42:50.963917 15254 net.cpp:157] Top shape: 4 512 48 48 (4718592)
I0911 10:42:50.963920 15254 net.cpp:165] Memory required for data: 5847151144
I0911 10:42:50.963924 15254 layer_factory.hpp:77] Creating layer conv5_3
I0911 10:42:50.963934 15254 net.cpp:100] Creating Layer conv5_3
I0911 10:42:50.963938 15254 net.cpp:434] conv5_3 <- conv5_2
I0911 10:42:50.963943 15254 net.cpp:408] conv5_3 -> conv5_3
I0911 10:42:50.972409 15254 net.cpp:150] Setting up conv5_3
I0911 10:42:50.972441 15254 net.cpp:157] Top shape: 4 512 48 48 (4718592)
I0911 10:42:50.972446 15254 net.cpp:165] Memory required for data: 5866025512
I0911 10:42:50.972457 15254 layer_factory.hpp:77] Creating layer relu5_3
I0911 10:42:50.972470 15254 net.cpp:100] Creating Layer relu5_3
I0911 10:42:50.972477 15254 net.cpp:434] relu5_3 <- conv5_3
I0911 10:42:50.972484 15254 net.cpp:395] relu5_3 -> conv5_3 (in-place)
I0911 10:42:50.972690 15254 net.cpp:150] Setting up relu5_3
I0911 10:42:50.972700 15254 net.cpp:157] Top shape: 4 512 48 48 (4718592)
I0911 10:42:50.972704 15254 net.cpp:165] Memory required for data: 5884899880
I0911 10:42:50.972709 15254 layer_factory.hpp:77] Creating layer conv5_3_relu5_3_0_split
I0911 10:42:50.972718 15254 net.cpp:100] Creating Layer conv5_3_relu5_3_0_split
I0911 10:42:50.972723 15254 net.cpp:434] conv5_3_relu5_3_0_split <- conv5_3
I0911 10:42:50.972731 15254 net.cpp:408] conv5_3_relu5_3_0_split -> conv5_3_relu5_3_0_split_0
I0911 10:42:50.972740 15254 net.cpp:408] conv5_3_relu5_3_0_split -> conv5_3_relu5_3_0_split_1
I0911 10:42:50.972748 15254 net.cpp:408] conv5_3_relu5_3_0_split -> conv5_3_relu5_3_0_split_2
I0911 10:42:50.972815 15254 net.cpp:150] Setting up conv5_3_relu5_3_0_split
I0911 10:42:50.972824 15254 net.cpp:157] Top shape: 4 512 48 48 (4718592)
I0911 10:42:50.972831 15254 net.cpp:157] Top shape: 4 512 48 48 (4718592)
I0911 10:42:50.972836 15254 net.cpp:157] Top shape: 4 512 48 48 (4718592)
I0911 10:42:50.972841 15254 net.cpp:165] Memory required for data: 5941522984
I0911 10:42:50.972846 15254 layer_factory.hpp:77] Creating layer LFCN_2_5x5
I0911 10:42:50.972859 15254 net.cpp:100] Creating Layer LFCN_2_5x5
I0911 10:42:50.972867 15254 net.cpp:434] LFCN_2_5x5 <- conv5_3_relu5_3_0_split_0
I0911 10:42:50.972874 15254 net.cpp:408] LFCN_2_5x5 -> LFCN_2_5x5
I0911 10:42:50.977807 15254 net.cpp:150] Setting up LFCN_2_5x5
I0911 10:42:50.977825 15254 net.cpp:157] Top shape: 4 9 48 48 (82944)
I0911 10:42:50.977830 15254 net.cpp:165] Memory required for data: 5941854760
I0911 10:42:50.977846 15254 layer_factory.hpp:77] Creating layer LFCN_2_5x5_LFCN_2_5x5_0_split
I0911 10:42:50.977854 15254 net.cpp:100] Creating Layer LFCN_2_5x5_LFCN_2_5x5_0_split
I0911 10:42:50.977859 15254 net.cpp:434] LFCN_2_5x5_LFCN_2_5x5_0_split <- LFCN_2_5x5
I0911 10:42:50.977867 15254 net.cpp:408] LFCN_2_5x5_LFCN_2_5x5_0_split -> LFCN_2_5x5_LFCN_2_5x5_0_split_0
I0911 10:42:50.977877 15254 net.cpp:408] LFCN_2_5x5_LFCN_2_5x5_0_split -> LFCN_2_5x5_LFCN_2_5x5_0_split_1
I0911 10:42:50.977926 15254 net.cpp:150] Setting up LFCN_2_5x5_LFCN_2_5x5_0_split
I0911 10:42:50.977932 15254 net.cpp:157] Top shape: 4 9 48 48 (82944)
I0911 10:42:50.977938 15254 net.cpp:157] Top shape: 4 9 48 48 (82944)
I0911 10:42:50.977943 15254 net.cpp:165] Memory required for data: 5942518312
I0911 10:42:50.977948 15254 layer_factory.hpp:77] Creating layer detection_loss_2_5x5
I0911 10:42:50.977957 15254 net.cpp:100] Creating Layer detection_loss_2_5x5
I0911 10:42:50.977963 15254 net.cpp:434] detection_loss_2_5x5 <- LFCN_2_5x5_LFCN_2_5x5_0_split_0
I0911 10:42:50.977970 15254 net.cpp:434] detection_loss_2_5x5 <- label_2_5x5_data_3_split_0
I0911 10:42:50.977978 15254 net.cpp:408] detection_loss_2_5x5 -> loss_2_5x5
I0911 10:42:50.977989 15254 layer_factory.hpp:77] Creating layer detection_loss_2_5x5
I0911 10:42:50.980409 15254 net.cpp:150] Setting up detection_loss_2_5x5
I0911 10:42:50.980453 15254 net.cpp:157] Top shape: 1 1 1 2 (2)
I0911 10:42:50.980456 15254 net.cpp:160]     with loss weight 1
I0911 10:42:50.980476 15254 net.cpp:165] Memory required for data: 5942518320
I0911 10:42:50.980484 15254 layer_factory.hpp:77] Creating layer detection_accuracy_2_5x5
I0911 10:42:50.980499 15254 net.cpp:100] Creating Layer detection_accuracy_2_5x5
I0911 10:42:50.980507 15254 net.cpp:434] detection_accuracy_2_5x5 <- LFCN_2_5x5_LFCN_2_5x5_0_split_1
I0911 10:42:50.980518 15254 net.cpp:434] detection_accuracy_2_5x5 <- label_2_5x5_data_3_split_1
I0911 10:42:50.980528 15254 net.cpp:408] detection_accuracy_2_5x5 -> accuracy_2_5x5
I0911 10:42:50.980536 15254 net.cpp:408] detection_accuracy_2_5x5 -> boxiou_2_5x5
I0911 10:42:50.980588 15254 net.cpp:150] Setting up detection_accuracy_2_5x5
I0911 10:42:50.980595 15254 net.cpp:157] Top shape: 1 1 1 2 (2)
I0911 10:42:50.980600 15254 net.cpp:157] Top shape: 1 1 1 1 (1)
I0911 10:42:50.980603 15254 net.cpp:165] Memory required for data: 5942518332
I0911 10:42:50.980607 15254 layer_factory.hpp:77] Creating layer LFCN_2_7x7
I0911 10:42:50.980620 15254 net.cpp:100] Creating Layer LFCN_2_7x7
I0911 10:42:50.980625 15254 net.cpp:434] LFCN_2_7x7 <- conv5_3_relu5_3_0_split_1
I0911 10:42:50.980631 15254 net.cpp:408] LFCN_2_7x7 -> LFCN_2_7x7
I0911 10:42:50.987831 15254 net.cpp:150] Setting up LFCN_2_7x7
I0911 10:42:50.987857 15254 net.cpp:157] Top shape: 4 9 48 48 (82944)
I0911 10:42:50.987861 15254 net.cpp:165] Memory required for data: 5942850108
I0911 10:42:50.987870 15254 layer_factory.hpp:77] Creating layer LFCN_2_7x7_LFCN_2_7x7_0_split
I0911 10:42:50.987879 15254 net.cpp:100] Creating Layer LFCN_2_7x7_LFCN_2_7x7_0_split
I0911 10:42:50.987884 15254 net.cpp:434] LFCN_2_7x7_LFCN_2_7x7_0_split <- LFCN_2_7x7
I0911 10:42:50.987891 15254 net.cpp:408] LFCN_2_7x7_LFCN_2_7x7_0_split -> LFCN_2_7x7_LFCN_2_7x7_0_split_0
I0911 10:42:50.987900 15254 net.cpp:408] LFCN_2_7x7_LFCN_2_7x7_0_split -> LFCN_2_7x7_LFCN_2_7x7_0_split_1
I0911 10:42:50.987934 15254 net.cpp:150] Setting up LFCN_2_7x7_LFCN_2_7x7_0_split
I0911 10:42:50.987939 15254 net.cpp:157] Top shape: 4 9 48 48 (82944)
I0911 10:42:50.987943 15254 net.cpp:157] Top shape: 4 9 48 48 (82944)
I0911 10:42:50.987947 15254 net.cpp:165] Memory required for data: 5943513660
I0911 10:42:50.987951 15254 layer_factory.hpp:77] Creating layer detection_loss_2_7x7
I0911 10:42:50.987957 15254 net.cpp:100] Creating Layer detection_loss_2_7x7
I0911 10:42:50.987962 15254 net.cpp:434] detection_loss_2_7x7 <- LFCN_2_7x7_LFCN_2_7x7_0_split_0
I0911 10:42:50.987967 15254 net.cpp:434] detection_loss_2_7x7 <- label_2_7x7_data_4_split_0
I0911 10:42:50.987972 15254 net.cpp:408] detection_loss_2_7x7 -> loss_2_7x7
I0911 10:42:50.987980 15254 layer_factory.hpp:77] Creating layer detection_loss_2_7x7
I0911 10:42:50.988663 15254 net.cpp:150] Setting up detection_loss_2_7x7
I0911 10:42:50.988677 15254 net.cpp:157] Top shape: 1 1 1 2 (2)
I0911 10:42:50.988679 15254 net.cpp:160]     with loss weight 1
I0911 10:42:50.988689 15254 net.cpp:165] Memory required for data: 5943513668
I0911 10:42:50.988693 15254 layer_factory.hpp:77] Creating layer detection_accuracy_2_7x7
I0911 10:42:50.988700 15254 net.cpp:100] Creating Layer detection_accuracy_2_7x7
I0911 10:42:50.988704 15254 net.cpp:434] detection_accuracy_2_7x7 <- LFCN_2_7x7_LFCN_2_7x7_0_split_1
I0911 10:42:50.988709 15254 net.cpp:434] detection_accuracy_2_7x7 <- label_2_7x7_data_4_split_1
I0911 10:42:50.988714 15254 net.cpp:408] detection_accuracy_2_7x7 -> accuracy_2_7x7
I0911 10:42:50.988720 15254 net.cpp:408] detection_accuracy_2_7x7 -> boxiou_2_7x7
I0911 10:42:50.988755 15254 net.cpp:150] Setting up detection_accuracy_2_7x7
I0911 10:42:50.988762 15254 net.cpp:157] Top shape: 1 1 1 2 (2)
I0911 10:42:50.988766 15254 net.cpp:157] Top shape: 1 1 1 1 (1)
I0911 10:42:50.988770 15254 net.cpp:165] Memory required for data: 5943513680
I0911 10:42:50.988772 15254 layer_factory.hpp:77] Creating layer pool5
I0911 10:42:50.988780 15254 net.cpp:100] Creating Layer pool5
I0911 10:42:50.988783 15254 net.cpp:434] pool5 <- conv5_3_relu5_3_0_split_2
I0911 10:42:50.988788 15254 net.cpp:408] pool5 -> pool5
I0911 10:42:50.988819 15254 net.cpp:150] Setting up pool5
I0911 10:42:50.988826 15254 net.cpp:157] Top shape: 4 512 24 24 (1179648)
I0911 10:42:50.988829 15254 net.cpp:165] Memory required for data: 5948232272
I0911 10:42:50.988832 15254 layer_factory.hpp:77] Creating layer conv6_1
I0911 10:42:50.988842 15254 net.cpp:100] Creating Layer conv6_1
I0911 10:42:50.988845 15254 net.cpp:434] conv6_1 <- pool5
I0911 10:42:50.988850 15254 net.cpp:408] conv6_1 -> conv6_1
I0911 10:42:51.051605 15254 net.cpp:150] Setting up conv6_1
I0911 10:42:51.051630 15254 net.cpp:157] Top shape: 4 512 24 24 (1179648)
I0911 10:42:51.051635 15254 net.cpp:165] Memory required for data: 5952950864
I0911 10:42:51.051642 15254 layer_factory.hpp:77] Creating layer relu6_1
I0911 10:42:51.051652 15254 net.cpp:100] Creating Layer relu6_1
I0911 10:42:51.051658 15254 net.cpp:434] relu6_1 <- conv6_1
I0911 10:42:51.051663 15254 net.cpp:395] relu6_1 -> conv6_1 (in-place)
I0911 10:42:51.051800 15254 net.cpp:150] Setting up relu6_1
I0911 10:42:51.051810 15254 net.cpp:157] Top shape: 4 512 24 24 (1179648)
I0911 10:42:51.051815 15254 net.cpp:165] Memory required for data: 5957669456
I0911 10:42:51.051820 15254 layer_factory.hpp:77] Creating layer conv6_1_relu6_1_0_split
I0911 10:42:51.051827 15254 net.cpp:100] Creating Layer conv6_1_relu6_1_0_split
I0911 10:42:51.051832 15254 net.cpp:434] conv6_1_relu6_1_0_split <- conv6_1
I0911 10:42:51.051839 15254 net.cpp:408] conv6_1_relu6_1_0_split -> conv6_1_relu6_1_0_split_0
I0911 10:42:51.051849 15254 net.cpp:408] conv6_1_relu6_1_0_split -> conv6_1_relu6_1_0_split_1
I0911 10:42:51.051859 15254 net.cpp:408] conv6_1_relu6_1_0_split -> conv6_1_relu6_1_0_split_2
I0911 10:42:51.051911 15254 net.cpp:150] Setting up conv6_1_relu6_1_0_split
I0911 10:42:51.051920 15254 net.cpp:157] Top shape: 4 512 24 24 (1179648)
I0911 10:42:51.051926 15254 net.cpp:157] Top shape: 4 512 24 24 (1179648)
I0911 10:42:51.051932 15254 net.cpp:157] Top shape: 4 512 24 24 (1179648)
I0911 10:42:51.051937 15254 net.cpp:165] Memory required for data: 5971825232
I0911 10:42:51.051944 15254 layer_factory.hpp:77] Creating layer LFCN_3_5x5
I0911 10:42:51.051956 15254 net.cpp:100] Creating Layer LFCN_3_5x5
I0911 10:42:51.051962 15254 net.cpp:434] LFCN_3_5x5 <- conv6_1_relu6_1_0_split_0
I0911 10:42:51.051971 15254 net.cpp:408] LFCN_3_5x5 -> LFCN_3_5x5
I0911 10:42:51.057550 15254 net.cpp:150] Setting up LFCN_3_5x5
I0911 10:42:51.057575 15254 net.cpp:157] Top shape: 4 9 24 24 (20736)
I0911 10:42:51.057580 15254 net.cpp:165] Memory required for data: 5971908176
I0911 10:42:51.057590 15254 layer_factory.hpp:77] Creating layer LFCN_3_5x5_LFCN_3_5x5_0_split
I0911 10:42:51.057603 15254 net.cpp:100] Creating Layer LFCN_3_5x5_LFCN_3_5x5_0_split
I0911 10:42:51.057608 15254 net.cpp:434] LFCN_3_5x5_LFCN_3_5x5_0_split <- LFCN_3_5x5
I0911 10:42:51.057615 15254 net.cpp:408] LFCN_3_5x5_LFCN_3_5x5_0_split -> LFCN_3_5x5_LFCN_3_5x5_0_split_0
I0911 10:42:51.057623 15254 net.cpp:408] LFCN_3_5x5_LFCN_3_5x5_0_split -> LFCN_3_5x5_LFCN_3_5x5_0_split_1
I0911 10:42:51.057663 15254 net.cpp:150] Setting up LFCN_3_5x5_LFCN_3_5x5_0_split
I0911 10:42:51.057672 15254 net.cpp:157] Top shape: 4 9 24 24 (20736)
I0911 10:42:51.057677 15254 net.cpp:157] Top shape: 4 9 24 24 (20736)
I0911 10:42:51.057683 15254 net.cpp:165] Memory required for data: 5972074064
I0911 10:42:51.057689 15254 layer_factory.hpp:77] Creating layer detection_loss_3_5x5
I0911 10:42:51.057699 15254 net.cpp:100] Creating Layer detection_loss_3_5x5
I0911 10:42:51.057704 15254 net.cpp:434] detection_loss_3_5x5 <- LFCN_3_5x5_LFCN_3_5x5_0_split_0
I0911 10:42:51.057711 15254 net.cpp:434] detection_loss_3_5x5 <- label_3_5x5_data_5_split_0
I0911 10:42:51.057720 15254 net.cpp:408] detection_loss_3_5x5 -> loss_3_5x5
I0911 10:42:51.057731 15254 layer_factory.hpp:77] Creating layer detection_loss_3_5x5
I0911 10:42:51.058048 15254 net.cpp:150] Setting up detection_loss_3_5x5
I0911 10:42:51.058058 15254 net.cpp:157] Top shape: 1 1 1 2 (2)
I0911 10:42:51.058063 15254 net.cpp:160]     with loss weight 1
I0911 10:42:51.058076 15254 net.cpp:165] Memory required for data: 5972074072
I0911 10:42:51.058082 15254 layer_factory.hpp:77] Creating layer detection_accuracy_3_5x5
I0911 10:42:51.058089 15254 net.cpp:100] Creating Layer detection_accuracy_3_5x5
I0911 10:42:51.058094 15254 net.cpp:434] detection_accuracy_3_5x5 <- LFCN_3_5x5_LFCN_3_5x5_0_split_1
I0911 10:42:51.058101 15254 net.cpp:434] detection_accuracy_3_5x5 <- label_3_5x5_data_5_split_1
I0911 10:42:51.058110 15254 net.cpp:408] detection_accuracy_3_5x5 -> accuracy_3_5x5
I0911 10:42:51.058121 15254 net.cpp:408] detection_accuracy_3_5x5 -> boxiou_3_5x5
I0911 10:42:51.058161 15254 net.cpp:150] Setting up detection_accuracy_3_5x5
I0911 10:42:51.058167 15254 net.cpp:157] Top shape: 1 1 1 2 (2)
I0911 10:42:51.058173 15254 net.cpp:157] Top shape: 1 1 1 1 (1)
I0911 10:42:51.058178 15254 net.cpp:165] Memory required for data: 5972074084
I0911 10:42:51.058184 15254 layer_factory.hpp:77] Creating layer LFCN_3_7x7
I0911 10:42:51.058197 15254 net.cpp:100] Creating Layer LFCN_3_7x7
I0911 10:42:51.058202 15254 net.cpp:434] LFCN_3_7x7 <- conv6_1_relu6_1_0_split_1
I0911 10:42:51.058212 15254 net.cpp:408] LFCN_3_7x7 -> LFCN_3_7x7
I0911 10:42:51.065990 15254 net.cpp:150] Setting up LFCN_3_7x7
I0911 10:42:51.066013 15254 net.cpp:157] Top shape: 4 9 24 24 (20736)
I0911 10:42:51.066016 15254 net.cpp:165] Memory required for data: 5972157028
I0911 10:42:51.066028 15254 layer_factory.hpp:77] Creating layer LFCN_3_7x7_LFCN_3_7x7_0_split
I0911 10:42:51.066038 15254 net.cpp:100] Creating Layer LFCN_3_7x7_LFCN_3_7x7_0_split
I0911 10:42:51.066043 15254 net.cpp:434] LFCN_3_7x7_LFCN_3_7x7_0_split <- LFCN_3_7x7
I0911 10:42:51.066051 15254 net.cpp:408] LFCN_3_7x7_LFCN_3_7x7_0_split -> LFCN_3_7x7_LFCN_3_7x7_0_split_0
I0911 10:42:51.066059 15254 net.cpp:408] LFCN_3_7x7_LFCN_3_7x7_0_split -> LFCN_3_7x7_LFCN_3_7x7_0_split_1
I0911 10:42:51.066094 15254 net.cpp:150] Setting up LFCN_3_7x7_LFCN_3_7x7_0_split
I0911 10:42:51.066102 15254 net.cpp:157] Top shape: 4 9 24 24 (20736)
I0911 10:42:51.066107 15254 net.cpp:157] Top shape: 4 9 24 24 (20736)
I0911 10:42:51.066112 15254 net.cpp:165] Memory required for data: 5972322916
I0911 10:42:51.066118 15254 layer_factory.hpp:77] Creating layer detection_loss_3_7x7
I0911 10:42:51.066128 15254 net.cpp:100] Creating Layer detection_loss_3_7x7
I0911 10:42:51.066133 15254 net.cpp:434] detection_loss_3_7x7 <- LFCN_3_7x7_LFCN_3_7x7_0_split_0
I0911 10:42:51.066139 15254 net.cpp:434] detection_loss_3_7x7 <- label_3_7x7_data_6_split_0
I0911 10:42:51.066148 15254 net.cpp:408] detection_loss_3_7x7 -> loss_3_7x7
I0911 10:42:51.066159 15254 layer_factory.hpp:77] Creating layer detection_loss_3_7x7
I0911 10:42:51.066454 15254 net.cpp:150] Setting up detection_loss_3_7x7
I0911 10:42:51.066464 15254 net.cpp:157] Top shape: 1 1 1 2 (2)
I0911 10:42:51.066468 15254 net.cpp:160]     with loss weight 1
I0911 10:42:51.066478 15254 net.cpp:165] Memory required for data: 5972322924
I0911 10:42:51.066483 15254 layer_factory.hpp:77] Creating layer detection_accuracy_3_7x7
I0911 10:42:51.066488 15254 net.cpp:100] Creating Layer detection_accuracy_3_7x7
I0911 10:42:51.066493 15254 net.cpp:434] detection_accuracy_3_7x7 <- LFCN_3_7x7_LFCN_3_7x7_0_split_1
I0911 10:42:51.066498 15254 net.cpp:434] detection_accuracy_3_7x7 <- label_3_7x7_data_6_split_1
I0911 10:42:51.066503 15254 net.cpp:408] detection_accuracy_3_7x7 -> accuracy_3_7x7
I0911 10:42:51.066511 15254 net.cpp:408] detection_accuracy_3_7x7 -> boxiou_3_7x7
I0911 10:42:51.066546 15254 net.cpp:150] Setting up detection_accuracy_3_7x7
I0911 10:42:51.066552 15254 net.cpp:157] Top shape: 1 1 1 2 (2)
I0911 10:42:51.066557 15254 net.cpp:157] Top shape: 1 1 1 1 (1)
I0911 10:42:51.066560 15254 net.cpp:165] Memory required for data: 5972322936
I0911 10:42:51.066563 15254 layer_factory.hpp:77] Creating layer pool6
I0911 10:42:51.066570 15254 net.cpp:100] Creating Layer pool6
I0911 10:42:51.066574 15254 net.cpp:434] pool6 <- conv6_1_relu6_1_0_split_2
I0911 10:42:51.066579 15254 net.cpp:408] pool6 -> pool6
I0911 10:42:51.066610 15254 net.cpp:150] Setting up pool6
I0911 10:42:51.066617 15254 net.cpp:157] Top shape: 4 512 12 12 (294912)
I0911 10:42:51.066620 15254 net.cpp:165] Memory required for data: 5973502584
I0911 10:42:51.066623 15254 layer_factory.hpp:77] Creating layer LFCN_4_5x5
I0911 10:42:51.066632 15254 net.cpp:100] Creating Layer LFCN_4_5x5
I0911 10:42:51.066637 15254 net.cpp:434] LFCN_4_5x5 <- pool6
I0911 10:42:51.066642 15254 net.cpp:408] LFCN_4_5x5 -> LFCN_4_5x5
I0911 10:42:51.070291 15254 net.cpp:150] Setting up LFCN_4_5x5
I0911 10:42:51.070303 15254 net.cpp:157] Top shape: 4 9 12 12 (5184)
I0911 10:42:51.070307 15254 net.cpp:165] Memory required for data: 5973523320
I0911 10:42:51.070313 15254 layer_factory.hpp:77] Creating layer LFCN_4_5x5_LFCN_4_5x5_0_split
I0911 10:42:51.070319 15254 net.cpp:100] Creating Layer LFCN_4_5x5_LFCN_4_5x5_0_split
I0911 10:42:51.070323 15254 net.cpp:434] LFCN_4_5x5_LFCN_4_5x5_0_split <- LFCN_4_5x5
I0911 10:42:51.070328 15254 net.cpp:408] LFCN_4_5x5_LFCN_4_5x5_0_split -> LFCN_4_5x5_LFCN_4_5x5_0_split_0
I0911 10:42:51.070336 15254 net.cpp:408] LFCN_4_5x5_LFCN_4_5x5_0_split -> LFCN_4_5x5_LFCN_4_5x5_0_split_1
I0911 10:42:51.070369 15254 net.cpp:150] Setting up LFCN_4_5x5_LFCN_4_5x5_0_split
I0911 10:42:51.070375 15254 net.cpp:157] Top shape: 4 9 12 12 (5184)
I0911 10:42:51.070379 15254 net.cpp:157] Top shape: 4 9 12 12 (5184)
I0911 10:42:51.070382 15254 net.cpp:165] Memory required for data: 5973564792
I0911 10:42:51.070386 15254 layer_factory.hpp:77] Creating layer detection_loss_4_5x5
I0911 10:42:51.070392 15254 net.cpp:100] Creating Layer detection_loss_4_5x5
I0911 10:42:51.070395 15254 net.cpp:434] detection_loss_4_5x5 <- LFCN_4_5x5_LFCN_4_5x5_0_split_0
I0911 10:42:51.070400 15254 net.cpp:434] detection_loss_4_5x5 <- label_4_5x5_data_7_split_0
I0911 10:42:51.070405 15254 net.cpp:408] detection_loss_4_5x5 -> loss_4_5x5
I0911 10:42:51.070411 15254 layer_factory.hpp:77] Creating layer detection_loss_4_5x5
I0911 10:42:51.070703 15254 net.cpp:150] Setting up detection_loss_4_5x5
I0911 10:42:51.070711 15254 net.cpp:157] Top shape: 1 1 1 2 (2)
I0911 10:42:51.070715 15254 net.cpp:160]     with loss weight 1
I0911 10:42:51.070721 15254 net.cpp:165] Memory required for data: 5973564800
I0911 10:42:51.070724 15254 layer_factory.hpp:77] Creating layer detection_accuracy_4_5x5
I0911 10:42:51.070730 15254 net.cpp:100] Creating Layer detection_accuracy_4_5x5
I0911 10:42:51.070734 15254 net.cpp:434] detection_accuracy_4_5x5 <- LFCN_4_5x5_LFCN_4_5x5_0_split_1
I0911 10:42:51.070739 15254 net.cpp:434] detection_accuracy_4_5x5 <- label_4_5x5_data_7_split_1
I0911 10:42:51.070744 15254 net.cpp:408] detection_accuracy_4_5x5 -> accuracy_4_5x5
I0911 10:42:51.070749 15254 net.cpp:408] detection_accuracy_4_5x5 -> boxiou_4_5x5
I0911 10:42:51.070782 15254 net.cpp:150] Setting up detection_accuracy_4_5x5
I0911 10:42:51.070789 15254 net.cpp:157] Top shape: 1 1 1 2 (2)
I0911 10:42:51.070793 15254 net.cpp:157] Top shape: 1 1 1 1 (1)
I0911 10:42:51.070796 15254 net.cpp:165] Memory required for data: 5973564812
I0911 10:42:51.070801 15254 net.cpp:228] detection_accuracy_4_5x5 does not need backward computation.
I0911 10:42:51.070803 15254 net.cpp:226] detection_loss_4_5x5 needs backward computation.
I0911 10:42:51.070807 15254 net.cpp:226] LFCN_4_5x5_LFCN_4_5x5_0_split needs backward computation.
I0911 10:42:51.070811 15254 net.cpp:226] LFCN_4_5x5 needs backward computation.
…
I0911 10:42:51.082237 15254 image_gt_data_layer.cpp:235] output label size 1 : 2,6,96,96
I0911 10:42:51.082283 15254 image_gt_data_layer.cpp:235] output label size 2 : 2,6,48,48
I0911 10:42:51.082329 15254 image_gt_data_layer.cpp:235] output label size 3 : 2,6,48,48
I0911 10:42:51.082376 15254 image_gt_data_layer.cpp:235] output label size 4 : 2,6,24,24
I0911 10:42:51.082422 15254 image_gt_data_layer.cpp:235] output label size 5 : 2,6,24,24
I0911 10:42:51.082468 15254 image_gt_data_layer.cpp:235] output label size 6 : 2,6,12,12
I0911 10:42:51.119707 15254 net.cpp:150] Setting up data
I0911 10:42:51.119735 15254 net.cpp:157] Top shape: 2 4 768 768 (4718592)
I0911 10:42:51.119740 15254 net.cpp:157] Top shape: 2 6 96 96 (110592)
I0911 10:42:51.119745 15254 net.cpp:157] Top shape: 2 6 96 96 (110592)
I0911 10:42:51.119748 15254 net.cpp:157] Top shape: 2 6 48 48 (27648)
I0911 10:42:51.119753 15254 net.cpp:157] Top shape: 2 6 48 48 (27648)
I0911 10:42:51.119757 15254 net.cpp:157] Top shape: 2 6 24 24 (6912)
I0911 10:42:51.119761 15254 net.cpp:157] Top shape: 2 6 24 24 (6912)
I0911 10:42:51.119767 15254 net.cpp:157] Top shape: 2 6 12 12 (1728)
I0911 10:42:51.119771 15254 net.cpp:165] Memory required for data: 20042496
I0911 10:42:51.119779 15254 layer_factory.hpp:77] Creating layer label_1_5x5_data_1_split
I0911 10:42:51.119794 15254 net.cpp:100] Creating Layer label_1_5x5_data_1_split
I0911 10:42:51.119801 15254 net.cpp:434] label_1_5x5_data_1_split <- label_1_5x5
I0911 10:42:51.119809 15254 net.cpp:408] label_1_5x5_data_1_split -> label_1_5x5_data_1_split_0
I0911 10:42:51.119822 15254 net.cpp:408] label_1_5x5_data_1_split -> label_1_5x5_data_1_split_1
I0911 10:42:51.120054 15254 net.cpp:150] Setting up label_1_5x5_data_1_split
I0911 10:42:51.120092 15254 net.cpp:157] Top shape: 2 6 96 96 (110592)
I0911 10:42:51.120101 15254 net.cpp:157] Top shape: 2 6 96 96 (110592)
I0911 10:42:51.120106 15254 net.cpp:165] Memory required for data: 20927232
I0911 10:42:51.120115 15254 layer_factory.hpp:77] Creating layer label_1_7x7_data_2_split
I0911 10:42:51.120131 15254 net.cpp:100] Creating Layer label_1_7x7_data_2_split
I0911 10:42:51.120139 15254 net.cpp:434] label_1_7x7_data_2_split <- label_1_7x7
I0911 10:42:51.120148 15254 net.cpp:408] label_1_7x7_data_2_split -> label_1_7x7_data_2_split_0
I0911 10:42:51.120160 15254 net.cpp:408] label_1_7x7_data_2_split -> label_1_7x7_data_2_split_1
I0911 10:42:51.120211 15254 net.cpp:150] Setting up label_1_7x7_data_2_split
I0911 10:42:51.120220 15254 net.cpp:157] Top shape: 2 6 96 96 (110592)
I0911 10:42:51.120226 15254 net.cpp:157] Top shape: 2 6 96 96 (110592)
I0911 10:42:51.120230 15254 net.cpp:165] Memory required for data: 21811968
I0911 10:42:51.120235 15254 layer_factory.hpp:77] Creating layer label_2_5x5_data_3_split
I0911 10:42:51.120242 15254 net.cpp:100] Creating Layer label_2_5x5_data_3_split
I0911 10:42:51.120247 15254 net.cpp:434] label_2_5x5_data_3_split <- label_2_5x5
I0911 10:42:51.120254 15254 net.cpp:408] label_2_5x5_data_3_split -> label_2_5x5_data_3_split_0
I0911 10:42:51.120262 15254 net.cpp:408] label_2_5x5_data_3_split -> label_2_5x5_data_3_split_1
I0911 10:42:51.120306 15254 net.cpp:150] Setting up label_2_5x5_data_3_split
I0911 10:42:51.120314 15254 net.cpp:157] Top shape: 2 6 48 48 (27648)
I0911 10:42:51.120321 15254 net.cpp:157] Top shape: 2 6 48 48 (27648)
I0911 10:42:51.120326 15254 net.cpp:165] Memory required for data: 22033152
I0911 10:42:51.120331 15254 layer_factory.hpp:77] Creating layer label_2_7x7_data_4_split
I0911 10:42:51.120337 15254 net.cpp:100] Creating Layer label_2_7x7_data_4_split
I0911 10:42:51.120342 15254 net.cpp:434] label_2_7x7_data_4_split <- label_2_7x7
I0911 10:42:51.120348 15254 net.cpp:408] label_2_7x7_data_4_split -> label_2_7x7_data_4_split_0
I0911 10:42:51.120355 15254 net.cpp:408] label_2_7x7_data_4_split -> label_2_7x7_data_4_split_1
I0911 10:42:51.120393 15254 net.cpp:150] Setting up label_2_7x7_data_4_split
I0911 10:42:51.120399 15254 net.cpp:157] Top shape: 2 6 48 48 (27648)
I0911 10:42:51.120405 15254 net.cpp:157] Top shape: 2 6 48 48 (27648)
I0911 10:42:51.120409 15254 net.cpp:165] Memory required for data: 22254336
I0911 10:42:51.120414 15254 layer_factory.hpp:77] Creating layer label_3_5x5_data_5_split
I0911 10:42:51.120417 15254 net.cpp:100] Creating Layer label_3_5x5_data_5_split
I0911 10:42:51.120422 15254 net.cpp:434] label_3_5x5_data_5_split <- label_3_5x5
I0911 10:42:51.120427 15254 net.cpp:408] label_3_5x5_data_5_split -> label_3_5x5_data_5_split_0
I0911 10:42:51.120436 15254 net.cpp:408] label_3_5x5_data_5_split -> label_3_5x5_data_5_split_1
I0911 10:42:51.120479 15254 net.cpp:150] Setting up label_3_5x5_data_5_split
I0911 10:42:51.120487 15254 net.cpp:157] Top shape: 2 6 24 24 (6912)
I0911 10:42:51.120492 15254 net.cpp:157] Top shape: 2 6 24 24 (6912)
I0911 10:42:51.120496 15254 net.cpp:165] Memory required for data: 22309632
I0911 10:42:51.120501 15254 layer_factory.hpp:77] Creating layer label_3_7x7_data_6_split
I0911 10:42:51.120507 15254 net.cpp:100] Creating Layer label_3_7x7_data_6_split
I0911 10:42:51.120512 15254 net.cpp:434] label_3_7x7_data_6_split <- label_3_7x7
I0911 10:42:51.120517 15254 net.cpp:408] label_3_7x7_data_6_split -> label_3_7x7_data_6_split_0
I0911 10:42:51.120524 15254 net.cpp:408] label_3_7x7_data_6_split -> label_3_7x7_data_6_split_1
I0911 10:42:51.120563 15254 net.cpp:150] Setting up label_3_7x7_data_6_split
I0911 10:42:51.120570 15254 net.cpp:157] Top shape: 2 6 24 24 (6912)
I0911 10:42:51.120575 15254 net.cpp:157] Top shape: 2 6 24 24 (6912)
I0911 10:42:51.120579 15254 net.cpp:165] Memory required for data: 22364928
I0911 10:42:51.120584 15254 layer_factory.hpp:77] Creating layer label_4_5x5_data_7_split
I0911 10:42:51.120589 15254 net.cpp:100] Creating Layer label_4_5x5_data_7_split
I0911 10:42:51.120594 15254 net.cpp:434] label_4_5x5_data_7_split <- label_4_5x5
I0911 10:42:51.120599 15254 net.cpp:408] label_4_5x5_data_7_split -> label_4_5x5_data_7_split_0
I0911 10:42:51.120607 15254 net.cpp:408] label_4_5x5_data_7_split -> label_4_5x5_data_7_split_1
I0911 10:42:51.120648 15254 net.cpp:150] Setting up label_4_5x5_data_7_split
I0911 10:42:51.120656 15254 net.cpp:157] Top shape: 2 6 12 12 (1728)
I0911 10:42:51.120661 15254 net.cpp:157] Top shape: 2 6 12 12 (1728)
I0911 10:42:51.120666 15254 net.cpp:165] Memory required for data: 22378752
I0911 10:42:51.120671 15254 layer_factory.hpp:77] Creating layer conv1_1_new
I0911 10:42:51.120681 15254 net.cpp:100] Creating Layer conv1_1_new
I0911 10:42:51.120684 15254 net.cpp:434] conv1_1_new <- data
I0911 10:42:51.120692 15254 net.cpp:408] conv1_1_new -> conv1_1
I0911 10:42:51.127015 15254 net.cpp:150] Setting up conv1_1_new
I0911 10:42:51.127074 15254 net.cpp:157] Top shape: 2 64 768 768 (75497472)
I0911 10:42:51.127085 15254 net.cpp:165] Memory required for data: 324368640
I0911 10:42:51.127123 15254 layer_factory.hpp:77] Creating layer relu1_1
I0911 10:42:51.127148 15254 net.cpp:100] Creating Layer relu1_1
I0911 10:42:51.127162 15254 net.cpp:434] relu1_1 <- conv1_1
I0911 10:42:51.127177 15254 net.cpp:395] relu1_1 -> conv1_1 (in-place)
I0911 10:42:51.128717 15254 net.cpp:150] Setting up relu1_1
I0911 10:42:51.128756 15254 net.cpp:157] Top shape: 2 64 768 768 (75497472)
I0911 10:42:51.128765 15254 net.cpp:165] Memory required for data: 626358528
I0911 10:42:51.128777 15254 layer_factory.hpp:77] Creating layer conv1_2
I0911 10:42:51.128801 15254 net.cpp:100] Creating Layer conv1_2
I0911 10:42:51.128811 15254 net.cpp:434] conv1_2 <- conv1_1
I0911 10:42:51.128824 15254 net.cpp:408] conv1_2 -> conv1_2
I0911 10:42:51.133618 15254 net.cpp:150] Setting up conv1_2
I0911 10:42:51.133652 15254 net.cpp:157] Top shape: 2 64 768 768 (75497472)
I0911 10:42:51.133661 15254 net.cpp:165] Memory required for data: 928348416
I0911 10:42:51.133682 15254 layer_factory.hpp:77] Creating layer relu1_2
I0911 10:42:51.133699 15254 net.cpp:100] Creating Layer relu1_2
I0911 10:42:51.133708 15254 net.cpp:434] relu1_2 <- conv1_2
I0911 10:42:51.133720 15254 net.cpp:395] relu1_2 -> conv1_2 (in-place)
I0911 10:42:51.134168 15254 net.cpp:150] Setting up relu1_2
I0911 10:42:51.134192 15254 net.cpp:157] Top shape: 2 64 768 768 (75497472)
I0911 10:42:51.134203 15254 net.cpp:165] Memory required for data: 1230338304
I0911 10:42:51.134212 15254 layer_factory.hpp:77] Creating layer pool1
I0911 10:42:51.134227 15254 net.cpp:100] Creating Layer pool1
I0911 10:42:51.134236 15254 net.cpp:434] pool1 <- conv1_2
I0911 10:42:51.134248 15254 net.cpp:408] pool1 -> pool1
I0911 10:42:51.134361 15254 net.cpp:150] Setting up pool1
I0911 10:42:51.134377 15254 net.cpp:157] Top shape: 2 64 384 384 (18874368)
I0911 10:42:51.134384 15254 net.cpp:165] Memory required for data: 1305835776
I0911 10:42:51.134392 15254 layer_factory.hpp:77] Creating layer conv2_1
I0911 10:42:51.134413 15254 net.cpp:100] Creating Layer conv2_1
I0911 10:42:51.134420 15254 net.cpp:434] conv2_1 <- pool1
I0911 10:42:51.134433 15254 net.cpp:408] conv2_1 -> conv2_1
I0911 10:42:51.138775 15254 net.cpp:150] Setting up conv2_1
I0911 10:42:51.138831 15254 net.cpp:157] Top shape: 2 128 384 384 (37748736)
I0911 10:42:51.138837 15254 net.cpp:165] Memory required for data: 1456830720
I0911 10:42:51.138861 15254 layer_factory.hpp:77] Creating layer relu2_1
I0911 10:42:51.138880 15254 net.cpp:100] Creating Layer relu2_1
I0911 10:42:51.138887 15254 net.cpp:434] relu2_1 <- conv2_1
I0911 10:42:51.138895 15254 net.cpp:395] relu2_1 -> conv2_1 (in-place)
I0911 10:42:51.139187 15254 net.cpp:150] Setting up relu2_1
I0911 10:42:51.139199 15254 net.cpp:157] Top shape: 2 128 384 384 (37748736)
I0911 10:42:51.139204 15254 net.cpp:165] Memory required for data: 1607825664
I0911 10:42:51.139209 15254 layer_factory.hpp:77] Creating layer conv2_2
I0911 10:42:51.139223 15254 net.cpp:100] Creating Layer conv2_2
I0911 10:42:51.139227 15254 net.cpp:434] conv2_2 <- conv2_1
I0911 10:42:51.139232 15254 net.cpp:408] conv2_2 -> conv2_2
I0911 10:42:51.146981 15254 net.cpp:150] Setting up conv2_2
I0911 10:42:51.147011 15254 net.cpp:157] Top shape: 2 128 384 384 (37748736)
I0911 10:42:51.147017 15254 net.cpp:165] Memory required for data: 1758820608
I0911 10:42:51.147030 15254 layer_factory.hpp:77] Creating layer relu2_2
I0911 10:42:51.147049 15254 net.cpp:100] Creating Layer relu2_2
I0911 10:42:51.147058 15254 net.cpp:434] relu2_2 <- conv2_2
I0911 10:42:51.147066 15254 net.cpp:395] relu2_2 -> conv2_2 (in-place)
I0911 10:42:51.147330 15254 net.cpp:150] Setting up relu2_2
I0911 10:42:51.147342 15254 net.cpp:157] Top shape: 2 128 384 384 (37748736)
I0911 10:42:51.147347 15254 net.cpp:165] Memory required for data: 1909815552
I0911 10:42:51.147352 15254 layer_factory.hpp:77] Creating layer pool2
I0911 10:42:51.147363 15254 net.cpp:100] Creating Layer pool2
I0911 10:42:51.147369 15254 net.cpp:434] pool2 <- conv2_2
I0911 10:42:51.147377 15254 net.cpp:408] pool2 -> pool2
I0911 10:42:51.147433 15254 net.cpp:150] Setting up pool2
I0911 10:42:51.147441 15254 net.cpp:157] Top shape: 2 128 192 192 (9437184)
I0911 10:42:51.147445 15254 net.cpp:165] Memory required for data: 1947564288
I0911 10:42:51.147449 15254 layer_factory.hpp:77] Creating layer conv3_1
I0911 10:42:51.147460 15254 net.cpp:100] Creating Layer conv3_1
I0911 10:42:51.147466 15254 net.cpp:434] conv3_1 <- pool2
I0911 10:42:51.147472 15254 net.cpp:408] conv3_1 -> conv3_1
I0911 10:42:51.153000 15254 net.cpp:150] Setting up conv3_1
I0911 10:42:51.153067 15254 net.cpp:157] Top shape: 2 256 192 192 (18874368)
I0911 10:42:51.153076 15254 net.cpp:165] Memory required for data: 2023061760
I0911 10:42:51.153108 15254 layer_factory.hpp:77] Creating layer relu3_1
I0911 10:42:51.153129 15254 net.cpp:100] Creating Layer relu3_1
I0911 10:42:51.153139 15254 net.cpp:434] relu3_1 <- conv3_1
I0911 10:42:51.153151 15254 net.cpp:395] relu3_1 -> conv3_1 (in-place)
I0911 10:42:51.153443 15254 net.cpp:150] Setting up relu3_1
I0911 10:42:51.153458 15254 net.cpp:157] Top shape: 2 256 192 192 (18874368)
I0911 10:42:51.153462 15254 net.cpp:165] Memory required for data: 2098559232
I0911 10:42:51.153467 15254 layer_factory.hpp:77] Creating layer conv3_2
I0911 10:42:51.153487 15254 net.cpp:100] Creating Layer conv3_2
I0911 10:42:51.153493 15254 net.cpp:434] conv3_2 <- conv3_1
I0911 10:42:51.153502 15254 net.cpp:408] conv3_2 -> conv3_2
I0911 10:42:51.159600 15254 net.cpp:150] Setting up conv3_2
I0911 10:42:51.159641 15254 net.cpp:157] Top shape: 2 256 192 192 (18874368)
I0911 10:42:51.159648 15254 net.cpp:165] Memory required for data: 2174056704
I0911 10:42:51.159663 15254 layer_factory.hpp:77] Creating layer relu3_2
I0911 10:42:51.159682 15254 net.cpp:100] Creating Layer relu3_2
I0911 10:42:51.159689 15254 net.cpp:434] relu3_2 <- conv3_2
I0911 10:42:51.159703 15254 net.cpp:395] relu3_2 -> conv3_2 (in-place)
I0911 10:42:51.159912 15254 net.cpp:150] Setting up relu3_2
I0911 10:42:51.159924 15254 net.cpp:157] Top shape: 2 256 192 192 (18874368)
I0911 10:42:51.159927 15254 net.cpp:165] Memory required for data: 2249554176
I0911 10:42:51.159931 15254 layer_factory.hpp:77] Creating layer conv3_3
I0911 10:42:51.159945 15254 net.cpp:100] Creating Layer conv3_3
I0911 10:42:51.159950 15254 net.cpp:434] conv3_3 <- conv3_2
I0911 10:42:51.159957 15254 net.cpp:408] conv3_3 -> conv3_3
I0911 10:42:51.163349 15254 net.cpp:150] Setting up conv3_3
I0911 10:42:51.163375 15254 net.cpp:157] Top shape: 2 256 192 192 (18874368)
I0911 10:42:51.163380 15254 net.cpp:165] Memory required for data: 2325051648
I0911 10:42:51.163390 15254 layer_factory.hpp:77] Creating layer relu3_3
I0911 10:42:51.163400 15254 net.cpp:100] Creating Layer relu3_3
I0911 10:42:51.163406 15254 net.cpp:434] relu3_3 <- conv3_3
I0911 10:42:51.163414 15254 net.cpp:395] relu3_3 -> conv3_3 (in-place)
I0911 10:42:51.163995 15254 net.cpp:150] Setting up relu3_3
I0911 10:42:51.164010 15254 net.cpp:157] Top shape: 2 256 192 192 (18874368)
I0911 10:42:51.164016 15254 net.cpp:165] Memory required for data: 2400549120
I0911 10:42:51.164019 15254 layer_factory.hpp:77] Creating layer pool3
I0911 10:42:51.164029 15254 net.cpp:100] Creating Layer pool3
I0911 10:42:51.164034 15254 net.cpp:434] pool3 <- conv3_3
I0911 10:42:51.164042 15254 net.cpp:408] pool3 -> pool3
I0911 10:42:51.164095 15254 net.cpp:150] Setting up pool3
I0911 10:42:51.164103 15254 net.cpp:157] Top shape: 2 256 96 96 (4718592)
I0911 10:42:51.164108 15254 net.cpp:165] Memory required for data: 2419423488
I0911 10:42:51.164111 15254 layer_factory.hpp:77] Creating layer conv4_1
I0911 10:42:51.164120 15254 net.cpp:100] Creating Layer conv4_1
I0911 10:42:51.164126 15254 net.cpp:434] conv4_1 <- pool3
I0911 10:42:51.164132 15254 net.cpp:408] conv4_1 -> conv4_1
I0911 10:42:51.169221 15254 net.cpp:150] Setting up conv4_1
I0911 10:42:51.169312 15254 net.cpp:157] Top shape: 2 512 96 96 (9437184)
I0911 10:42:51.169319 15254 net.cpp:165] Memory required for data: 2457172224
I0911 10:42:51.169345 15254 layer_factory.hpp:77] Creating layer relu4_1
I0911 10:42:51.169376 15254 net.cpp:100] Creating Layer relu4_1
I0911 10:42:51.169390 15254 net.cpp:434] relu4_1 <- conv4_1
I0911 10:42:51.169401 15254 net.cpp:395] relu4_1 -> conv4_1 (in-place)
I0911 10:42:51.169697 15254 net.cpp:150] Setting up relu4_1
I0911 10:42:51.169708 15254 net.cpp:157] Top shape: 2 512 96 96 (9437184)
I0911 10:42:51.169714 15254 net.cpp:165] Memory required for data: 2494920960
I0911 10:42:51.169718 15254 layer_factory.hpp:77] Creating layer conv4_2
I0911 10:42:51.169737 15254 net.cpp:100] Creating Layer conv4_2
I0911 10:42:51.169744 15254 net.cpp:434] conv4_2 <- conv4_1
I0911 10:42:51.169749 15254 net.cpp:408] conv4_2 -> conv4_2
I0911 10:42:51.180294 15254 net.cpp:150] Setting up conv4_2
I0911 10:42:51.180337 15254 net.cpp:157] Top shape: 2 512 96 96 (9437184)
I0911 10:42:51.180346 15254 net.cpp:165] Memory required for data: 2532669696
I0911 10:42:51.180371 15254 layer_factory.hpp:77] Creating layer relu4_2
I0911 10:42:51.180400 15254 net.cpp:100] Creating Layer relu4_2
I0911 10:42:51.180409 15254 net.cpp:434] relu4_2 <- conv4_2
I0911 10:42:51.180419 15254 net.cpp:395] relu4_2 -> conv4_2 (in-place)
I0911 10:42:51.180699 15254 net.cpp:150] Setting up relu4_2
I0911 10:42:51.180716 15254 net.cpp:157] Top shape: 2 512 96 96 (9437184)
I0911 10:42:51.180721 15254 net.cpp:165] Memory required for data: 2570418432
I0911 10:42:51.180725 15254 layer_factory.hpp:77] Creating layer conv4_3
I0911 10:42:51.180739 15254 net.cpp:100] Creating Layer conv4_3
I0911 10:42:51.180743 15254 net.cpp:434] conv4_3 <- conv4_2
I0911 10:42:51.180749 15254 net.cpp:408] conv4_3 -> conv4_3
I0911 10:42:51.188169 15254 net.cpp:150] Setting up conv4_3
I0911 10:42:51.188200 15254 net.cpp:157] Top shape: 2 512 96 96 (9437184)
I0911 10:42:51.188206 15254 net.cpp:165] Memory required for data: 2608167168
I0911 10:42:51.188217 15254 layer_factory.hpp:77] Creating layer relu4_3
I0911 10:42:51.188232 15254 net.cpp:100] Creating Layer relu4_3
I0911 10:42:51.188242 15254 net.cpp:434] relu4_3 <- conv4_3
I0911 10:42:51.188256 15254 net.cpp:395] relu4_3 -> conv4_3 (in-place)
I0911 10:42:51.188458 15254 net.cpp:150] Setting up relu4_3
I0911 10:42:51.188472 15254 net.cpp:157] Top shape: 2 512 96 96 (9437184)
I0911 10:42:51.188477 15254 net.cpp:165] Memory required for data: 2645915904
I0911 10:42:51.188483 15254 layer_factory.hpp:77] Creating layer conv4_3_relu4_3_0_split
I0911 10:42:51.188493 15254 net.cpp:100] Creating Layer conv4_3_relu4_3_0_split
I0911 10:42:51.188499 15254 net.cpp:434] conv4_3_relu4_3_0_split <- conv4_3
I0911 10:42:51.188506 15254 net.cpp:408] conv4_3_relu4_3_0_split -> conv4_3_relu4_3_0_split_0
I0911 10:42:51.188515 15254 net.cpp:408] conv4_3_relu4_3_0_split -> conv4_3_relu4_3_0_split_1
I0911 10:42:51.188567 15254 net.cpp:150] Setting up conv4_3_relu4_3_0_split
I0911 10:42:51.188575 15254 net.cpp:157] Top shape: 2 512 96 96 (9437184)
I0911 10:42:51.188580 15254 net.cpp:157] Top shape: 2 512 96 96 (9437184)
I0911 10:42:51.188585 15254 net.cpp:165] Memory required for data: 2721413376
I0911 10:42:51.188589 15254 layer_factory.hpp:77] Creating layer loss1_conv1
I0911 10:42:51.188608 15254 net.cpp:100] Creating Layer loss1_conv1
I0911 10:42:51.188614 15254 net.cpp:434] loss1_conv1 <- conv4_3_relu4_3_0_split_0
I0911 10:42:51.188624 15254 net.cpp:408] loss1_conv1 -> loss1_conv1
I0911 10:42:51.253917 15254 net.cpp:150] Setting up loss1_conv1
I0911 10:42:51.253942 15254 net.cpp:157] Top shape: 2 512 96 96 (9437184)
I0911 10:42:51.253947 15254 net.cpp:165] Memory required for data: 2759162112
I0911 10:42:51.253957 15254 layer_factory.hpp:77] Creating layer loss_relu1
I0911 10:42:51.253971 15254 net.cpp:100] Creating Layer loss_relu1
I0911 10:42:51.253978 15254 net.cpp:434] loss_relu1 <- loss1_conv1
I0911 10:42:51.253983 15254 net.cpp:395] loss_relu1 -> loss1_conv1 (in-place)
I0911 10:42:51.254176 15254 net.cpp:150] Setting up loss_relu1
I0911 10:42:51.254186 15254 net.cpp:157] Top shape: 2 512 96 96 (9437184)
I0911 10:42:51.254190 15254 net.cpp:165] Memory required for data: 2796910848
I0911 10:42:51.254194 15254 layer_factory.hpp:77] Creating layer loss1_conv1_loss_relu1_0_split
I0911 10:42:51.254201 15254 net.cpp:100] Creating Layer loss1_conv1_loss_relu1_0_split
I0911 10:42:51.254204 15254 net.cpp:434] loss1_conv1_loss_relu1_0_split <- loss1_conv1
I0911 10:42:51.254209 15254 net.cpp:408] loss1_conv1_loss_relu1_0_split -> loss1_conv1_loss_relu1_0_split_0
I0911 10:42:51.254216 15254 net.cpp:408] loss1_conv1_loss_relu1_0_split -> loss1_conv1_loss_relu1_0_split_1
I0911 10:42:51.254274 15254 net.cpp:150] Setting up loss1_conv1_loss_relu1_0_split
I0911 10:42:51.254285 15254 net.cpp:157] Top shape: 2 512 96 96 (9437184)
I0911 10:42:51.254292 15254 net.cpp:157] Top shape: 2 512 96 96 (9437184)
I0911 10:42:51.254297 15254 net.cpp:165] Memory required for data: 2872408320
I0911 10:42:51.254302 15254 layer_factory.hpp:77] Creating layer LFCN_1_5x5
I0911 10:42:51.254315 15254 net.cpp:100] Creating Layer LFCN_1_5x5
I0911 10:42:51.254325 15254 net.cpp:434] LFCN_1_5x5 <- loss1_conv1_loss_relu1_0_split_0
I0911 10:42:51.254333 15254 net.cpp:408] LFCN_1_5x5 -> LFCN_1_5x5
I0911 10:42:51.258363 15254 net.cpp:150] Setting up LFCN_1_5x5
I0911 10:42:51.258376 15254 net.cpp:157] Top shape: 2 9 96 96 (165888)
I0911 10:42:51.258379 15254 net.cpp:165] Memory required for data: 2873071872
I0911 10:42:51.258385 15254 layer_factory.hpp:77] Creating layer LFCN_1_5x5_LFCN_1_5x5_0_split
I0911 10:42:51.258391 15254 net.cpp:100] Creating Layer LFCN_1_5x5_LFCN_1_5x5_0_split
I0911 10:42:51.258395 15254 net.cpp:434] LFCN_1_5x5_LFCN_1_5x5_0_split <- LFCN_1_5x5
I0911 10:42:51.258404 15254 net.cpp:408] LFCN_1_5x5_LFCN_1_5x5_0_split -> LFCN_1_5x5_LFCN_1_5x5_0_split_0
I0911 10:42:51.258409 15254 net.cpp:408] LFCN_1_5x5_LFCN_1_5x5_0_split -> LFCN_1_5x5_LFCN_1_5x5_0_split_1
I0911 10:42:51.258460 15254 net.cpp:150] Setting up LFCN_1_5x5_LFCN_1_5x5_0_split
I0911 10:42:51.258472 15254 net.cpp:157] Top shape: 2 9 96 96 (165888)
I0911 10:42:51.258478 15254 net.cpp:157] Top shape: 2 9 96 96 (165888)
I0911 10:42:51.258482 15254 net.cpp:165] Memory required for data: 2874398976
I0911 10:42:51.258486 15254 layer_factory.hpp:77] Creating layer detection_loss_1_5x5
I0911 10:42:51.258494 15254 net.cpp:100] Creating Layer detection_loss_1_5x5
I0911 10:42:51.258499 15254 net.cpp:434] detection_loss_1_5x5 <- LFCN_1_5x5_LFCN_1_5x5_0_split_0
I0911 10:42:51.258505 15254 net.cpp:434] detection_loss_1_5x5 <- label_1_5x5_data_1_split_0
I0911 10:42:51.258514 15254 net.cpp:408] detection_loss_1_5x5 -> loss_1_5x5
I0911 10:42:51.258525 15254 layer_factory.hpp:77] Creating layer detection_loss_1_5x5
I0911 10:42:51.258925 15254 net.cpp:150] Setting up detection_loss_1_5x5
I0911 10:42:51.258936 15254 net.cpp:157] Top shape: 1 1 1 2 (2)
I0911 10:42:51.258939 15254 net.cpp:160]     with loss weight 0.9
I0911 10:42:51.258952 15254 net.cpp:165] Memory required for data: 2874398984
I0911 10:42:51.258957 15254 layer_factory.hpp:77] Creating layer detection_accuracy_1_5x5
I0911 10:42:51.258965 15254 net.cpp:100] Creating Layer detection_accuracy_1_5x5
I0911 10:42:51.258970 15254 net.cpp:434] detection_accuracy_1_5x5 <- LFCN_1_5x5_LFCN_1_5x5_0_split_1
I0911 10:42:51.258980 15254 net.cpp:434] detection_accuracy_1_5x5 <- label_1_5x5_data_1_split_1
I0911 10:42:51.258987 15254 net.cpp:408] detection_accuracy_1_5x5 -> accuracy_1_5x5
I0911 10:42:51.258996 15254 net.cpp:408] detection_accuracy_1_5x5 -> boxiou_1_5x5
I0911 10:42:51.259047 15254 net.cpp:150] Setting up detection_accuracy_1_5x5
I0911 10:42:51.259057 15254 net.cpp:157] Top shape: 1 1 1 2 (2)
I0911 10:42:51.259060 15254 net.cpp:157] Top shape: 1 1 1 1 (1)
I0911 10:42:51.259063 15254 net.cpp:165] Memory required for data: 2874398996
I0911 10:42:51.259066 15254 layer_factory.hpp:77] Creating layer LFCN_1_7x7
I0911 10:42:51.259078 15254 net.cpp:100] Creating Layer LFCN_1_7x7
I0911 10:42:51.259083 15254 net.cpp:434] LFCN_1_7x7 <- loss1_conv1_loss_relu1_0_split_1
I0911 10:42:51.259091 15254 net.cpp:408] LFCN_1_7x7 -> LFCN_1_7x7
I0911 10:42:51.268863 15254 net.cpp:150] Setting up LFCN_1_7x7
I0911 10:42:51.268905 15254 net.cpp:157] Top shape: 2 9 96 96 (165888)
I0911 10:42:51.268910 15254 net.cpp:165] Memory required for data: 2875062548
I0911 10:42:51.268924 15254 layer_factory.hpp:77] Creating layer LFCN_1_7x7_LFCN_1_7x7_0_split
I0911 10:42:51.268944 15254 net.cpp:100] Creating Layer LFCN_1_7x7_LFCN_1_7x7_0_split
I0911 10:42:51.268955 15254 net.cpp:434] LFCN_1_7x7_LFCN_1_7x7_0_split <- LFCN_1_7x7
I0911 10:42:51.268965 15254 net.cpp:408] LFCN_1_7x7_LFCN_1_7x7_0_split -> LFCN_1_7x7_LFCN_1_7x7_0_split_0
I0911 10:42:51.268980 15254 net.cpp:408] LFCN_1_7x7_LFCN_1_7x7_0_split -> LFCN_1_7x7_LFCN_1_7x7_0_split_1
I0911 10:42:51.269027 15254 net.cpp:150] Setting up LFCN_1_7x7_LFCN_1_7x7_0_split
I0911 10:42:51.269034 15254 net.cpp:157] Top shape: 2 9 96 96 (165888)
I0911 10:42:51.269039 15254 net.cpp:157] Top shape: 2 9 96 96 (165888)
I0911 10:42:51.269043 15254 net.cpp:165] Memory required for data: 2876389652
I0911 10:42:51.269049 15254 layer_factory.hpp:77] Creating layer detection_loss_1_7x7
I0911 10:42:51.269060 15254 net.cpp:100] Creating Layer detection_loss_1_7x7
I0911 10:42:51.269065 15254 net.cpp:434] detection_loss_1_7x7 <- LFCN_1_7x7_LFCN_1_7x7_0_split_0
I0911 10:42:51.269073 15254 net.cpp:434] detection_loss_1_7x7 <- label_1_7x7_data_2_split_0
I0911 10:42:51.269083 15254 net.cpp:408] detection_loss_1_7x7 -> loss_1_7x7
I0911 10:42:51.269095 15254 layer_factory.hpp:77] Creating layer detection_loss_1_7x7
I0911 10:42:51.269987 15254 net.cpp:150] Setting up detection_loss_1_7x7
I0911 10:42:51.269999 15254 net.cpp:157] Top shape: 1 1 1 2 (2)
I0911 10:42:51.270004 15254 net.cpp:160]     with loss weight 0.9
I0911 10:42:51.270018 15254 net.cpp:165] Memory required for data: 2876389660
I0911 10:42:51.270021 15254 layer_factory.hpp:77] Creating layer detection_accuracy_1_7x7
I0911 10:42:51.270038 15254 net.cpp:100] Creating Layer detection_accuracy_1_7x7
I0911 10:42:51.270042 15254 net.cpp:434] detection_accuracy_1_7x7 <- LFCN_1_7x7_LFCN_1_7x7_0_split_1
I0911 10:42:51.270047 15254 net.cpp:434] detection_accuracy_1_7x7 <- label_1_7x7_data_2_split_1
I0911 10:42:51.270052 15254 net.cpp:408] detection_accuracy_1_7x7 -> accuracy_1_7x7
I0911 10:42:51.270058 15254 net.cpp:408] detection_accuracy_1_7x7 -> boxiou_1_7x7
I0911 10:42:51.270112 15254 net.cpp:150] Setting up detection_accuracy_1_7x7
I0911 10:42:51.270118 15254 net.cpp:157] Top shape: 1 1 1 2 (2)
I0911 10:42:51.270123 15254 net.cpp:157] Top shape: 1 1 1 1 (1)
I0911 10:42:51.270128 15254 net.cpp:165] Memory required for data: 2876389672
I0911 10:42:51.270133 15254 layer_factory.hpp:77] Creating layer pool4
I0911 10:42:51.270140 15254 net.cpp:100] Creating Layer pool4
I0911 10:42:51.270148 15254 net.cpp:434] pool4 <- conv4_3_relu4_3_0_split_1
I0911 10:42:51.270156 15254 net.cpp:408] pool4 -> pool4
I0911 10:42:51.270198 15254 net.cpp:150] Setting up pool4
I0911 10:42:51.270206 15254 net.cpp:157] Top shape: 2 512 48 48 (2359296)
I0911 10:42:51.270210 15254 net.cpp:165] Memory required for data: 2885826856
I0911 10:42:51.270215 15254 layer_factory.hpp:77] Creating layer conv5_1
I0911 10:42:51.270229 15254 net.cpp:100] Creating Layer conv5_1
I0911 10:42:51.270236 15254 net.cpp:434] conv5_1 <- pool4
I0911 10:42:51.270241 15254 net.cpp:408] conv5_1 -> conv5_1
I0911 10:42:51.277355 15254 net.cpp:150] Setting up conv5_1
I0911 10:42:51.277384 15254 net.cpp:157] Top shape: 2 512 48 48 (2359296)
I0911 10:42:51.277390 15254 net.cpp:165] Memory required for data: 2895264040
I0911 10:42:51.277398 15254 layer_factory.hpp:77] Creating layer relu5_1
I0911 10:42:51.277410 15254 net.cpp:100] Creating Layer relu5_1
I0911 10:42:51.277416 15254 net.cpp:434] relu5_1 <- conv5_1
I0911 10:42:51.277424 15254 net.cpp:395] relu5_1 -> conv5_1 (in-place)
I0911 10:42:51.277597 15254 net.cpp:150] Setting up relu5_1
I0911 10:42:51.277606 15254 net.cpp:157] Top shape: 2 512 48 48 (2359296)
I0911 10:42:51.277611 15254 net.cpp:165] Memory required for data: 2904701224
I0911 10:42:51.277614 15254 layer_factory.hpp:77] Creating layer conv5_2
I0911 10:42:51.277623 15254 net.cpp:100] Creating Layer conv5_2
I0911 10:42:51.277627 15254 net.cpp:434] conv5_2 <- conv5_1
I0911 10:42:51.277634 15254 net.cpp:408] conv5_2 -> conv5_2
I0911 10:42:51.284453 15254 net.cpp:150] Setting up conv5_2
I0911 10:42:51.284507 15254 net.cpp:157] Top shape: 2 512 48 48 (2359296)
I0911 10:42:51.284512 15254 net.cpp:165] Memory required for data: 2914138408
I0911 10:42:51.284528 15254 layer_factory.hpp:77] Creating layer relu5_2
I0911 10:42:51.284552 15254 net.cpp:100] Creating Layer relu5_2
I0911 10:42:51.284561 15254 net.cpp:434] relu5_2 <- conv5_2
I0911 10:42:51.284574 15254 net.cpp:395] relu5_2 -> conv5_2 (in-place)
I0911 10:42:51.284756 15254 net.cpp:150] Setting up relu5_2
I0911 10:42:51.284765 15254 net.cpp:157] Top shape: 2 512 48 48 (2359296)
I0911 10:42:51.284770 15254 net.cpp:165] Memory required for data: 2923575592
I0911 10:42:51.284772 15254 layer_factory.hpp:77] Creating layer conv5_3
I0911 10:42:51.284786 15254 net.cpp:100] Creating Layer conv5_3
I0911 10:42:51.284791 15254 net.cpp:434] conv5_3 <- conv5_2
I0911 10:42:51.284798 15254 net.cpp:408] conv5_3 -> conv5_3
I0911 10:42:51.292428 15254 net.cpp:150] Setting up conv5_3
I0911 10:42:51.292455 15254 net.cpp:157] Top shape: 2 512 48 48 (2359296)
I0911 10:42:51.292460 15254 net.cpp:165] Memory required for data: 2933012776
I0911 10:42:51.292469 15254 layer_factory.hpp:77] Creating layer relu5_3
I0911 10:42:51.292481 15254 net.cpp:100] Creating Layer relu5_3
I0911 10:42:51.292488 15254 net.cpp:434] relu5_3 <- conv5_3
I0911 10:42:51.292493 15254 net.cpp:395] relu5_3 -> conv5_3 (in-place)
I0911 10:42:51.292667 15254 net.cpp:150] Setting up relu5_3
I0911 10:42:51.292677 15254 net.cpp:157] Top shape: 2 512 48 48 (2359296)
I0911 10:42:51.292680 15254 net.cpp:165] Memory required for data: 2942449960
I0911 10:42:51.292685 15254 layer_factory.hpp:77] Creating layer conv5_3_relu5_3_0_split
I0911 10:42:51.292692 15254 net.cpp:100] Creating Layer conv5_3_relu5_3_0_split
I0911 10:42:51.292697 15254 net.cpp:434] conv5_3_relu5_3_0_split <- conv5_3
I0911 10:42:51.292706 15254 net.cpp:408] conv5_3_relu5_3_0_split -> conv5_3_relu5_3_0_split_0
I0911 10:42:51.292712 15254 net.cpp:408] conv5_3_relu5_3_0_split -> conv5_3_relu5_3_0_split_1
I0911 10:42:51.292717 15254 net.cpp:408] conv5_3_relu5_3_0_split -> conv5_3_relu5_3_0_split_2
I0911 10:42:51.292773 15254 net.cpp:150] Setting up conv5_3_relu5_3_0_split
I0911 10:42:51.292780 15254 net.cpp:157] Top shape: 2 512 48 48 (2359296)
I0911 10:42:51.292784 15254 net.cpp:157] Top shape: 2 512 48 48 (2359296)
I0911 10:42:51.292788 15254 net.cpp:157] Top shape: 2 512 48 48 (2359296)
I0911 10:42:51.292791 15254 net.cpp:165] Memory required for data: 2970761512
I0911 10:42:51.292794 15254 layer_factory.hpp:77] Creating layer LFCN_2_5x5
I0911 10:42:51.292807 15254 net.cpp:100] Creating Layer LFCN_2_5x5
I0911 10:42:51.292811 15254 net.cpp:434] LFCN_2_5x5 <- conv5_3_relu5_3_0_split_0
I0911 10:42:51.292821 15254 net.cpp:408] LFCN_2_5x5 -> LFCN_2_5x5
I0911 10:42:51.297171 15254 net.cpp:150] Setting up LFCN_2_5x5
I0911 10:42:51.297184 15254 net.cpp:157] Top shape: 2 9 48 48 (41472)
I0911 10:42:51.297188 15254 net.cpp:165] Memory required for data: 2970927400
I0911 10:42:51.297201 15254 layer_factory.hpp:77] Creating layer LFCN_2_5x5_LFCN_2_5x5_0_split
I0911 10:42:51.297207 15254 net.cpp:100] Creating Layer LFCN_2_5x5_LFCN_2_5x5_0_split
I0911 10:42:51.297211 15254 net.cpp:434] LFCN_2_5x5_LFCN_2_5x5_0_split <- LFCN_2_5x5
I0911 10:42:51.297216 15254 net.cpp:408] LFCN_2_5x5_LFCN_2_5x5_0_split -> LFCN_2_5x5_LFCN_2_5x5_0_split_0
I0911 10:42:51.297222 15254 net.cpp:408] LFCN_2_5x5_LFCN_2_5x5_0_split -> LFCN_2_5x5_LFCN_2_5x5_0_split_1
I0911 10:42:51.297264 15254 net.cpp:150] Setting up LFCN_2_5x5_LFCN_2_5x5_0_split
I0911 10:42:51.297272 15254 net.cpp:157] Top shape: 2 9 48 48 (41472)
I0911 10:42:51.297276 15254 net.cpp:157] Top shape: 2 9 48 48 (41472)
I0911 10:42:51.297279 15254 net.cpp:165] Memory required for data: 2971259176
I0911 10:42:51.297283 15254 layer_factory.hpp:77] Creating layer detection_loss_2_5x5
I0911 10:42:51.297291 15254 net.cpp:100] Creating Layer detection_loss_2_5x5
I0911 10:42:51.297294 15254 net.cpp:434] detection_loss_2_5x5 <- LFCN_2_5x5_LFCN_2_5x5_0_split_0
I0911 10:42:51.297300 15254 net.cpp:434] detection_loss_2_5x5 <- label_2_5x5_data_3_split_0
I0911 10:42:51.297308 15254 net.cpp:408] detection_loss_2_5x5 -> loss_2_5x5
I0911 10:42:51.297319 15254 layer_factory.hpp:77] Creating layer detection_loss_2_5x5
I0911 10:42:51.297667 15254 net.cpp:150] Setting up detection_loss_2_5x5
I0911 10:42:51.297677 15254 net.cpp:157] Top shape: 1 1 1 2 (2)
I0911 10:42:51.297680 15254 net.cpp:160]     with loss weight 1
I0911 10:42:51.297693 15254 net.cpp:165] Memory required for data: 2971259184
I0911 10:42:51.297696 15254 layer_factory.hpp:77] Creating layer detection_accuracy_2_5x5
I0911 10:42:51.297704 15254 net.cpp:100] Creating Layer detection_accuracy_2_5x5
I0911 10:42:51.297709 15254 net.cpp:434] detection_accuracy_2_5x5 <- LFCN_2_5x5_LFCN_2_5x5_0_split_1
I0911 10:42:51.297715 15254 net.cpp:434] detection_accuracy_2_5x5 <- label_2_5x5_data_3_split_1
I0911 10:42:51.297724 15254 net.cpp:408] detection_accuracy_2_5x5 -> accuracy_2_5x5
I0911 10:42:51.297734 15254 net.cpp:408] detection_accuracy_2_5x5 -> boxiou_2_5x5
I0911 10:42:51.297781 15254 net.cpp:150] Setting up detection_accuracy_2_5x5
I0911 10:42:51.297788 15254 net.cpp:157] Top shape: 1 1 1 2 (2)
I0911 10:42:51.297794 15254 net.cpp:157] Top shape: 1 1 1 1 (1)
I0911 10:42:51.297798 15254 net.cpp:165] Memory required for data: 2971259196
I0911 10:42:51.297802 15254 layer_factory.hpp:77] Creating layer LFCN_2_7x7
I0911 10:42:51.297816 15254 net.cpp:100] Creating Layer LFCN_2_7x7
I0911 10:42:51.297822 15254 net.cpp:434] LFCN_2_7x7 <- conv5_3_relu5_3_0_split_1
I0911 10:42:51.297829 15254 net.cpp:408] LFCN_2_7x7 -> LFCN_2_7x7
I0911 10:42:51.306427 15254 net.cpp:150] Setting up LFCN_2_7x7
I0911 10:42:51.306453 15254 net.cpp:157] Top shape: 2 9 48 48 (41472)
I0911 10:42:51.306457 15254 net.cpp:165] Memory required for data: 2971425084
I0911 10:42:51.306466 15254 layer_factory.hpp:77] Creating layer LFCN_2_7x7_LFCN_2_7x7_0_split
I0911 10:42:51.306475 15254 net.cpp:100] Creating Layer LFCN_2_7x7_LFCN_2_7x7_0_split
I0911 10:42:51.306481 15254 net.cpp:434] LFCN_2_7x7_LFCN_2_7x7_0_split <- LFCN_2_7x7
I0911 10:42:51.306488 15254 net.cpp:408] LFCN_2_7x7_LFCN_2_7x7_0_split -> LFCN_2_7x7_LFCN_2_7x7_0_split_0
I0911 10:42:51.306499 15254 net.cpp:408] LFCN_2_7x7_LFCN_2_7x7_0_split -> LFCN_2_7x7_LFCN_2_7x7_0_split_1
I0911 10:42:51.306542 15254 net.cpp:150] Setting up LFCN_2_7x7_LFCN_2_7x7_0_split
I0911 10:42:51.306550 15254 net.cpp:157] Top shape: 2 9 48 48 (41472)
I0911 10:42:51.306555 15254 net.cpp:157] Top shape: 2 9 48 48 (41472)
I0911 10:42:51.306558 15254 net.cpp:165] Memory required for data: 2971756860
I0911 10:42:51.306563 15254 layer_factory.hpp:77] Creating layer detection_loss_2_7x7
I0911 10:42:51.306573 15254 net.cpp:100] Creating Layer detection_loss_2_7x7
I0911 10:42:51.306581 15254 net.cpp:434] detection_loss_2_7x7 <- LFCN_2_7x7_LFCN_2_7x7_0_split_0
I0911 10:42:51.306587 15254 net.cpp:434] detection_loss_2_7x7 <- label_2_7x7_data_4_split_0
I0911 10:42:51.306596 15254 net.cpp:408] detection_loss_2_7x7 -> loss_2_7x7
I0911 10:42:51.306607 15254 layer_factory.hpp:77] Creating layer detection_loss_2_7x7
I0911 10:42:51.306964 15254 net.cpp:150] Setting up detection_loss_2_7x7
I0911 10:42:51.306974 15254 net.cpp:157] Top shape: 1 1 1 2 (2)
I0911 10:42:51.306977 15254 net.cpp:160]     with loss weight 1
I0911 10:42:51.306991 15254 net.cpp:165] Memory required for data: 2971756868
I0911 10:42:51.306995 15254 layer_factory.hpp:77] Creating layer detection_accuracy_2_7x7
I0911 10:42:51.307006 15254 net.cpp:100] Creating Layer detection_accuracy_2_7x7
I0911 10:42:51.307010 15254 net.cpp:434] detection_accuracy_2_7x7 <- LFCN_2_7x7_LFCN_2_7x7_0_split_1
I0911 10:42:51.307016 15254 net.cpp:434] detection_accuracy_2_7x7 <- label_2_7x7_data_4_split_1
I0911 10:42:51.307024 15254 net.cpp:408] detection_accuracy_2_7x7 -> accuracy_2_7x7
I0911 10:42:51.307034 15254 net.cpp:408] detection_accuracy_2_7x7 -> boxiou_2_7x7
I0911 10:42:51.307080 15254 net.cpp:150] Setting up detection_accuracy_2_7x7
I0911 10:42:51.307087 15254 net.cpp:157] Top shape: 1 1 1 2 (2)
I0911 10:42:51.307091 15254 net.cpp:157] Top shape: 1 1 1 1 (1)
I0911 10:42:51.307096 15254 net.cpp:165] Memory required for data: 2971756880
I0911 10:42:51.307101 15254 layer_factory.hpp:77] Creating layer pool5
I0911 10:42:51.307108 15254 net.cpp:100] Creating Layer pool5
I0911 10:42:51.307114 15254 net.cpp:434] pool5 <- conv5_3_relu5_3_0_split_2
I0911 10:42:51.307122 15254 net.cpp:408] pool5 -> pool5
I0911 10:42:51.307164 15254 net.cpp:150] Setting up pool5
I0911 10:42:51.307173 15254 net.cpp:157] Top shape: 2 512 24 24 (589824)
I0911 10:42:51.307175 15254 net.cpp:165] Memory required for data: 2974116176
I0911 10:42:51.307179 15254 layer_factory.hpp:77] Creating layer conv6_1
I0911 10:42:51.307194 15254 net.cpp:100] Creating Layer conv6_1
I0911 10:42:51.307199 15254 net.cpp:434] conv6_1 <- pool5
I0911 10:42:51.307205 15254 net.cpp:408] conv6_1 -> conv6_1
I0911 10:42:51.370131 15254 net.cpp:150] Setting up conv6_1
I0911 10:42:51.370172 15254 net.cpp:157] Top shape: 2 512 24 24 (589824)
I0911 10:42:51.370177 15254 net.cpp:165] Memory required for data: 2976475472
I0911 10:42:51.370191 15254 layer_factory.hpp:77] Creating layer relu6_1
I0911 10:42:51.370209 15254 net.cpp:100] Creating Layer relu6_1
I0911 10:42:51.370221 15254 net.cpp:434] relu6_1 <- conv6_1
I0911 10:42:51.370230 15254 net.cpp:395] relu6_1 -> conv6_1 (in-place)
I0911 10:42:51.370782 15254 net.cpp:150] Setting up relu6_1
I0911 10:42:51.370795 15254 net.cpp:157] Top shape: 2 512 24 24 (589824)
I0911 10:42:51.370800 15254 net.cpp:165] Memory required for data: 2978834768
I0911 10:42:51.370805 15254 layer_factory.hpp:77] Creating layer conv6_1_relu6_1_0_split
I0911 10:42:51.370818 15254 net.cpp:100] Creating Layer conv6_1_relu6_1_0_split
I0911 10:42:51.370824 15254 net.cpp:434] conv6_1_relu6_1_0_split <- conv6_1
I0911 10:42:51.370831 15254 net.cpp:408] conv6_1_relu6_1_0_split -> conv6_1_relu6_1_0_split_0
I0911 10:42:51.370841 15254 net.cpp:408] conv6_1_relu6_1_0_split -> conv6_1_relu6_1_0_split_1
I0911 10:42:51.370847 15254 net.cpp:408] conv6_1_relu6_1_0_split -> conv6_1_relu6_1_0_split_2
I0911 10:42:51.370908 15254 net.cpp:150] Setting up conv6_1_relu6_1_0_split
I0911 10:42:51.370916 15254 net.cpp:157] Top shape: 2 512 24 24 (589824)
I0911 10:42:51.370920 15254 net.cpp:157] Top shape: 2 512 24 24 (589824)
I0911 10:42:51.370924 15254 net.cpp:157] Top shape: 2 512 24 24 (589824)
I0911 10:42:51.370929 15254 net.cpp:165] Memory required for data: 2985912656
I0911 10:42:51.370935 15254 layer_factory.hpp:77] Creating layer LFCN_3_5x5
I0911 10:42:51.370952 15254 net.cpp:100] Creating Layer LFCN_3_5x5
I0911 10:42:51.370957 15254 net.cpp:434] LFCN_3_5x5 <- conv6_1_relu6_1_0_split_0
I0911 10:42:51.370970 15254 net.cpp:408] LFCN_3_5x5 -> LFCN_3_5x5
I0911 10:42:51.378517 15254 net.cpp:150] Setting up LFCN_3_5x5
I0911 10:42:51.378568 15254 net.cpp:157] Top shape: 2 9 24 24 (10368)
I0911 10:42:51.378574 15254 net.cpp:165] Memory required for data: 2985954128
I0911 10:42:51.378590 15254 layer_factory.hpp:77] Creating layer LFCN_3_5x5_LFCN_3_5x5_0_split
I0911 10:42:51.378623 15254 net.cpp:100] Creating Layer LFCN_3_5x5_LFCN_3_5x5_0_split
I0911 10:42:51.378630 15254 net.cpp:434] LFCN_3_5x5_LFCN_3_5x5_0_split <- LFCN_3_5x5
I0911 10:42:51.378639 15254 net.cpp:408] LFCN_3_5x5_LFCN_3_5x5_0_split -> LFCN_3_5x5_LFCN_3_5x5_0_split_0
I0911 10:42:51.378651 15254 net.cpp:408] LFCN_3_5x5_LFCN_3_5x5_0_split -> LFCN_3_5x5_LFCN_3_5x5_0_split_1
I0911 10:42:51.378695 15254 net.cpp:150] Setting up LFCN_3_5x5_LFCN_3_5x5_0_split
I0911 10:42:51.378701 15254 net.cpp:157] Top shape: 2 9 24 24 (10368)
I0911 10:42:51.378706 15254 net.cpp:157] Top shape: 2 9 24 24 (10368)
I0911 10:42:51.378710 15254 net.cpp:165] Memory required for data: 2986037072
I0911 10:42:51.378712 15254 layer_factory.hpp:77] Creating layer detection_loss_3_5x5
I0911 10:42:51.378721 15254 net.cpp:100] Creating Layer detection_loss_3_5x5
I0911 10:42:51.378726 15254 net.cpp:434] detection_loss_3_5x5 <- LFCN_3_5x5_LFCN_3_5x5_0_split_0
I0911 10:42:51.378731 15254 net.cpp:434] detection_loss_3_5x5 <- label_3_5x5_data_5_split_0
I0911 10:42:51.378737 15254 net.cpp:408] detection_loss_3_5x5 -> loss_3_5x5
I0911 10:42:51.378746 15254 layer_factory.hpp:77] Creating layer detection_loss_3_5x5
I0911 10:42:51.379093 15254 net.cpp:150] Setting up detection_loss_3_5x5
I0911 10:42:51.379103 15254 net.cpp:157] Top shape: 1 1 1 2 (2)
I0911 10:42:51.379106 15254 net.cpp:160]     with loss weight 1
I0911 10:42:51.379117 15254 net.cpp:165] Memory required for data: 2986037080
I0911 10:42:51.379120 15254 layer_factory.hpp:77] Creating layer detection_accuracy_3_5x5
I0911 10:42:51.379128 15254 net.cpp:100] Creating Layer detection_accuracy_3_5x5
I0911 10:42:51.379133 15254 net.cpp:434] detection_accuracy_3_5x5 <- LFCN_3_5x5_LFCN_3_5x5_0_split_1
I0911 10:42:51.379140 15254 net.cpp:434] detection_accuracy_3_5x5 <- label_3_5x5_data_5_split_1
I0911 10:42:51.379145 15254 net.cpp:408] detection_accuracy_3_5x5 -> accuracy_3_5x5
I0911 10:42:51.379153 15254 net.cpp:408] detection_accuracy_3_5x5 -> boxiou_3_5x5
I0911 10:42:51.379195 15254 net.cpp:150] Setting up detection_accuracy_3_5x5
I0911 10:42:51.379200 15254 net.cpp:157] Top shape: 1 1 1 2 (2)
I0911 10:42:51.379204 15254 net.cpp:157] Top shape: 1 1 1 1 (1)
I0911 10:42:51.379206 15254 net.cpp:165] Memory required for data: 2986037092
I0911 10:42:51.379210 15254 layer_factory.hpp:77] Creating layer LFCN_3_7x7
I0911 10:42:51.379222 15254 net.cpp:100] Creating Layer LFCN_3_7x7
I0911 10:42:51.379227 15254 net.cpp:434] LFCN_3_7x7 <- conv6_1_relu6_1_0_split_1
I0911 10:42:51.379235 15254 net.cpp:408] LFCN_3_7x7 -> LFCN_3_7x7
I0911 10:42:51.387765 15254 net.cpp:150] Setting up LFCN_3_7x7
I0911 10:42:51.387794 15254 net.cpp:157] Top shape: 2 9 24 24 (10368)
I0911 10:42:51.387799 15254 net.cpp:165] Memory required for data: 2986078564
I0911 10:42:51.387812 15254 layer_factory.hpp:77] Creating layer LFCN_3_7x7_LFCN_3_7x7_0_split
I0911 10:42:51.387825 15254 net.cpp:100] Creating Layer LFCN_3_7x7_LFCN_3_7x7_0_split
I0911 10:42:51.387835 15254 net.cpp:434] LFCN_3_7x7_LFCN_3_7x7_0_split <- LFCN_3_7x7
I0911 10:42:51.387842 15254 net.cpp:408] LFCN_3_7x7_LFCN_3_7x7_0_split -> LFCN_3_7x7_LFCN_3_7x7_0_split_0
I0911 10:42:51.387853 15254 net.cpp:408] LFCN_3_7x7_LFCN_3_7x7_0_split -> LFCN_3_7x7_LFCN_3_7x7_0_split_1
I0911 10:42:51.387907 15254 net.cpp:150] Setting up LFCN_3_7x7_LFCN_3_7x7_0_split
I0911 10:42:51.387917 15254 net.cpp:157] Top shape: 2 9 24 24 (10368)
I0911 10:42:51.387922 15254 net.cpp:157] Top shape: 2 9 24 24 (10368)
I0911 10:42:51.387925 15254 net.cpp:165] Memory required for data: 2986161508
I0911 10:42:51.387931 15254 layer_factory.hpp:77] Creating layer detection_loss_3_7x7
I0911 10:42:51.387943 15254 net.cpp:100] Creating Layer detection_loss_3_7x7
I0911 10:42:51.387950 15254 net.cpp:434] detection_loss_3_7x7 <- LFCN_3_7x7_LFCN_3_7x7_0_split_0
I0911 10:42:51.387957 15254 net.cpp:434] detection_loss_3_7x7 <- label_3_7x7_data_6_split_0
I0911 10:42:51.387965 15254 net.cpp:408] detection_loss_3_7x7 -> loss_3_7x7
I0911 10:42:51.387976 15254 layer_factory.hpp:77] Creating layer detection_loss_3_7x7
I0911 10:42:51.388377 15254 net.cpp:150] Setting up detection_loss_3_7x7
I0911 10:42:51.388391 15254 net.cpp:157] Top shape: 1 1 1 2 (2)
I0911 10:42:51.388396 15254 net.cpp:160]     with loss weight 1
I0911 10:42:51.388409 15254 net.cpp:165] Memory required for data: 2986161516
I0911 10:42:51.388415 15254 layer_factory.hpp:77] Creating layer detection_accuracy_3_7x7
I0911 10:42:51.388425 15254 net.cpp:100] Creating Layer detection_accuracy_3_7x7
I0911 10:42:51.388432 15254 net.cpp:434] detection_accuracy_3_7x7 <- LFCN_3_7x7_LFCN_3_7x7_0_split_1
I0911 10:42:51.388438 15254 net.cpp:434] detection_accuracy_3_7x7 <- label_3_7x7_data_6_split_1
I0911 10:42:51.388447 15254 net.cpp:408] detection_accuracy_3_7x7 -> accuracy_3_7x7
I0911 10:42:51.388463 15254 net.cpp:408] detection_accuracy_3_7x7 -> boxiou_3_7x7
I0911 10:42:51.388516 15254 net.cpp:150] Setting up detection_accuracy_3_7x7
I0911 10:42:51.388525 15254 net.cpp:157] Top shape: 1 1 1 2 (2)
I0911 10:42:51.388531 15254 net.cpp:157] Top shape: 1 1 1 1 (1)
I0911 10:42:51.388537 15254 net.cpp:165] Memory required for data: 2986161528
I0911 10:42:51.388545 15254 layer_factory.hpp:77] Creating layer pool6
I0911 10:42:51.388556 15254 net.cpp:100] Creating Layer pool6
I0911 10:42:51.388564 15254 net.cpp:434] pool6 <- conv6_1_relu6_1_0_split_2
I0911 10:42:51.388571 15254 net.cpp:408] pool6 -> pool6
I0911 10:42:51.388624 15254 net.cpp:150] Setting up pool6
I0911 10:42:51.388633 15254 net.cpp:157] Top shape: 2 512 12 12 (147456)
I0911 10:42:51.388638 15254 net.cpp:165] Memory required for data: 2986751352
I0911 10:42:51.388644 15254 layer_factory.hpp:77] Creating layer LFCN_4_5x5
I0911 10:42:51.388664 15254 net.cpp:100] Creating Layer LFCN_4_5x5
I0911 10:42:51.388670 15254 net.cpp:434] LFCN_4_5x5 <- pool6
I0911 10:42:51.388680 15254 net.cpp:408] LFCN_4_5x5 -> LFCN_4_5x5
I0911 10:42:51.393424 15254 net.cpp:150] Setting up LFCN_4_5x5
I0911 10:42:51.393440 15254 net.cpp:157] Top shape: 2 9 12 12 (2592)
I0911 10:42:51.393445 15254 net.cpp:165] Memory required for data: 2986761720
I0911 10:42:51.393455 15254 layer_factory.hpp:77] Creating layer LFCN_4_5x5_LFCN_4_5x5_0_split
I0911 10:42:51.393463 15254 net.cpp:100] Creating Layer LFCN_4_5x5_LFCN_4_5x5_0_split
I0911 10:42:51.393471 15254 net.cpp:434] LFCN_4_5x5_LFCN_4_5x5_0_split <- LFCN_4_5x5
I0911 10:42:51.393481 15254 net.cpp:408] LFCN_4_5x5_LFCN_4_5x5_0_split -> LFCN_4_5x5_LFCN_4_5x5_0_split_0
I0911 10:42:51.393492 15254 net.cpp:408] LFCN_4_5x5_LFCN_4_5x5_0_split -> LFCN_4_5x5_LFCN_4_5x5_0_split_1
I0911 10:42:51.393546 15254 net.cpp:150] Setting up LFCN_4_5x5_LFCN_4_5x5_0_split
I0911 10:42:51.393554 15254 net.cpp:157] Top shape: 2 9 12 12 (2592)
I0911 10:42:51.393561 15254 net.cpp:157] Top shape: 2 9 12 12 (2592)
I0911 10:42:51.393568 15254 net.cpp:165] Memory required for data: 2986782456
I0911 10:42:51.393571 15254 layer_factory.hpp:77] Creating layer detection_loss_4_5x5
I0911 10:42:51.393580 15254 net.cpp:100] Creating Layer detection_loss_4_5x5
I0911 10:42:51.393587 15254 net.cpp:434] detection_loss_4_5x5 <- LFCN_4_5x5_LFCN_4_5x5_0_split_0
I0911 10:42:51.393592 15254 net.cpp:434] detection_loss_4_5x5 <- label_4_5x5_data_7_split_0
I0911 10:42:51.393601 15254 net.cpp:408] detection_loss_4_5x5 -> loss_4_5x5
I0911 10:42:51.393613 15254 layer_factory.hpp:77] Creating layer detection_loss_4_5x5
I0911 10:42:51.394018 15254 net.cpp:150] Setting up detection_loss_4_5x5
I0911 10:42:51.394037 15254 net.cpp:157] Top shape: 1 1 1 2 (2)
I0911 10:42:51.394040 15254 net.cpp:160]     with loss weight 1
I0911 10:42:51.394047 15254 net.cpp:165] Memory required for data: 2986782464
I0911 10:42:51.394052 15254 layer_factory.hpp:77] Creating layer detection_accuracy_4_5x5
I0911 10:42:51.394057 15254 net.cpp:100] Creating Layer detection_accuracy_4_5x5
I0911 10:42:51.394062 15254 net.cpp:434] detection_accuracy_4_5x5 <- LFCN_4_5x5_LFCN_4_5x5_0_split_1
I0911 10:42:51.394068 15254 net.cpp:434] detection_accuracy_4_5x5 <- label_4_5x5_data_7_split_1
I0911 10:42:51.394073 15254 net.cpp:408] detection_accuracy_4_5x5 -> accuracy_4_5x5
I0911 10:42:51.394081 15254 net.cpp:408] detection_accuracy_4_5x5 -> boxiou_4_5x5
I0911 10:42:51.394135 15254 net.cpp:150] Setting up detection_accuracy_4_5x5
I0911 10:42:51.394142 15254 net.cpp:157] Top shape: 1 1 1 2 (2)
I0911 10:42:51.394147 15254 net.cpp:157] Top shape: 1 1 1 1 (1)
I0911 10:42:51.394150 15254 net.cpp:165] Memory required for data: 2986782476
I0911 10:42:51.394155 15254 net.cpp:228] detection_accuracy_4_5x5 does not need backward computation.
I0911 10:42:51.394158 15254 net.cpp:226] detection_loss_4_5x5 needs backward computation.
I0911 10:42:51.394163 15254 net.cpp:226] LFCN_4_5x5_LFCN_4_5x5_0_split needs backward computation.
I0911 10:42:51.394166 15254 net.cpp:226] LFCN_4_5x5 needs backward computation.
…
