…
    downsample_rate: 16
    downsample_rate: 32
    downsample_rate: 32
    downsample_rate: 64
    coord_num: 4
    field_h: 60
    field_h: 84
    field_h: 120
    field_h: 168
    field_h: 240
    field_h: 336
    field_h: 480
    field_w: 60
    field_w: 84
    field_w: 120
    field_w: 168
    field_w: 240
    field_w: 336
    field_w: 480
    fg_threshold: 0.5
    resize_width: 1344
    resize_height: 768
    crop_width: 768
    crop_height: 768
    do_multiple_scale: true
    min_scale: 60
    max_scale: 480
    min_gt_height: 25
    shuffle: true
  }
}
layer {
  name: "slice"
  type: "Slice"
  bottom: "data"
  top: "data123"
  top: "ch4"
  slice_param {
    slice_point: 3
    axis: 1
  }
}
layer {
  name: "conv1"
  type: "Convolution"
  bottom: "data123"
  top: "conv1"
  param {
    lr_mult: 1
    decay_mult: 1
  }
  convolution_param {
    num_output: 32
    bias_term: false
    pad: 1
    kernel_size: 3
    stride: 2
    weight_filler {
      type: "msra"
    }
  }
}
layer {
  name: "conv1/bn"
  type: "BatchNorm"
  bottom: "conv1"
  top: "conv1"
  batch_norm_param {
    use_global_stats: false
    eps: 1e-05
  }
}
layer {
  name: "conv1/scale"
  type: "Scale"
  bottom: "conv1"
  top: "conv1"
  param {
    lr_mult: 1
    decay_mult: 0
  }
  param {
    lr_mult: 1
    decay_mult: 0
  }
  scale_param {
    filler {
      value: 1
    }
    bias_term: true
    bias_filler {
      value: 0
    }
  }
}
layer {
  name: "relu1"
  type: "ReLU"
  bottom: "conv1"
  top: "conv1"
}
layer {
  name: "conv2_1/dw"
  type: "Convolution"
  bottom: "conv1"
  top: "conv2_1/dw"
  param {
    lr_mult: 1
    decay_mult: 1
  }
  convolution_param {
    num_output: 32
    bias_term: false
    pad: 1
    kernel_size: 3
    group: 32
    stride: 1
    weight_filler {
      type: "msra"
    }
    engine: CAFFE
  }
}
layer {
  name: "conv2_1/dw/bn"
  type: "BatchNorm"
  bottom: "conv2_1/dw"
  top: "conv2_1/dw"
  batch_norm_param {
    use_global_stats: false
    eps: 1e-05
  }
}
layer {
  name: "conv2_1/dw/scale"
  type: "Scale"
  bottom: "conv2_1/dw"
  top: "conv2_1/dw"
  param {
    lr_mult: 1
    decay_mult: 0
  }
  param {
    lr_mult: 1
    decay_mult: 0
  }
  scale_param {
    filler {
      value: 1
    }
    bias_term: true
    bias_filler {
      value: 0
    }
  }
}
layer {
  name: "relu2_1/dw"
  type: "ReLU"
  bottom: "conv2_1/dw"
  top: "conv2_1/dw"
}
layer {
  name: "conv2_1/sep"
  type: "Convolution"
  bottom: "conv2_1/dw"
  top: "conv2_1/sep"
  param {
    lr_mult: 1
    decay_mult: 1
  }
  convolution_param {
    num_output: 64
    bias_term: false
    pad: 0
    kernel_size: 1
    stride: 1
    weight_filler {
      type: "msra"
    }
  }
}
layer {
  name: "conv2_1/sep/bn"
  type: "BatchNorm"
  bottom: "conv2_1/sep"
  top: "conv2_1/sep"
  batch_norm_param {
    use_global_stats: false
    eps: 1e-05
  }
}
layer {
  name: "conv2_1/sep/scale"
  type: "Scale"
  bottom: "conv2_1/sep"
  top: "conv2_1/sep"
  param {
    lr_mult: 1
    decay_mult: 0
  }
  param {
    lr_mult: 1
    decay_mult: 0
  }
  scale_param {
    filler {
      value: 1
    }
    bias_term: true
    bias_filler {
      value: 0
    }
  }
}
layer {
  name: "relu2_1/sep"
  type: "ReLU"
  bottom: "conv2_1/sep"
  top: "conv2_1/sep"
}
layer {
  name: "conv2_2/dw"
  type: "Convolution"
  bottom: "conv2_1/sep"
  top: "conv2_2/dw"
  param {
    lr_mult: 1
    decay_mult: 1
  }
  convolution_param {
    num_output: 64
    bias_term: false
    pad: 1
    kernel_size: 3
    group: 64
    stride: 2
    weight_filler {
      type: "msra"
    }
    engine: CAFFE
  }
}
layer {
  name: "conv2_2/dw/bn"
  type: "BatchNorm"
  bottom: "conv2_2/dw"
  top: "conv2_2/dw"
  batch_norm_param {
    use_global_stats: false
    eps: 1e-05
  }
}
layer {
  name: "conv2_2/dw/scale"
  type: "Scale"
  bottom: "conv2_2/dw"
  top: "conv2_2/dw"
  param {
    lr_mult: 1
    decay_mult: 0
  }
  param {
    lr_mult: 1
    decay_mult: 0
  }
  scale_param {
    filler {
      value: 1
    }
    bias_term: true
    bias_filler {
      value: 0
    }
  }
}
layer {
  name: "relu2_2/dw"
  type: "ReLU"
  bottom: "conv2_2/dw"
  top: "conv2_2/dw"
}
layer {
  name: "conv2_2/sep"
  type: "Convolution"
  bottom: "conv2_2/dw"
  top: "conv2_2/sep"
  param {
    lr_mult: 1
    decay_mult: 1
  }
  convolution_param {
    num_output: 128
    bias_term: false
    pad: 0
    kernel_size: 1
    stride: 1
    weight_filler {
      type: "msra"
    }
  }
}
layer {
  name: "conv2_2/sep/bn"
  type: "BatchNorm"
  bottom: "conv2_2/sep"
  top: "conv2_2/sep"
  batch_norm_param {
    use_global_stats: false
    eps: 1e-05
  }
}
layer {
  name: "conv2_2/sep/scale"
  type: "Scale"
  bottom: "conv2_2/sep"
  top: "conv2_2/sep"
  param {
    lr_mult: 1
    decay_mult: 0
  }
  param {
    lr_mult: 1
    decay_mult: 0
  }
  scale_param {
    filler {
      value: 1
    }
    bias_term: true
    bias_filler {
      value: 0
    }
  }
}
layer {
  name: "relu2_2/sep"
  type: "ReLU"
  bottom: "conv2_2/sep"
  top: "conv2_2/sep"
}
layer {
  name: "conv3_1/dw"
  type: "Convolution"
  bottom: "conv2_2/sep"
  top: "conv3_1/dw"
  param {
    lr_mult: 1
    decay_mult: 1
  }
  convolution_param {
    num_output: 128
    bias_term: false
    pad: 1
    kernel_size: 3
    group: 128
    stride: 1
    weight_filler {
      type: "msra"
    }
    engine: CAFFE
  }
}
layer {
  name: "conv3_1/dw/bn"
  type: "BatchNorm"
  bottom: "conv3_1/dw"
  top: "conv3_1/dw"
  batch_norm_param {
    use_global_stats: false
    eps: 1e-05
  }
}
layer {
  name: "conv3_1/dw/scale"
  type: "Scale"
  bottom: "conv3_1/dw"
  top: "conv3_1/dw"
  param {
    lr_mult: 1
    decay_mult: 0
  }
  param {
    lr_mult: 1
    decay_mult: 0
  }
  scale_param {
    filler {
      value: 1
    }
    bias_term: true
    bias_filler {
      value: 0
    }
  }
}
layer {
  name: "relu3_1/dw"
  type: "ReLU"
  bottom: "conv3_1/dw"
  top: "conv3_1/dw"
}
layer {
  name: "conv3_1/sep"
  type: "Convolution"
  bottom: "conv3_1/dw"
  top: "conv3_1/sep"
  param {
    lr_mult: 1
    decay_mult: 1
  }
  convolution_param {
    num_output: 128
    bias_term: false
    pad: 0
    kernel_size: 1
    stride: 1
    weight_filler {
      type: "msra"
    }
  }
}
layer {
  name: "conv3_1/sep/bn"
  type: "BatchNorm"
  bottom: "conv3_1/sep"
  top: "conv3_1/sep"
  batch_norm_param {
    use_global_stats: false
    eps: 1e-05
  }
}
layer {
  name: "conv3_1/sep/scale"
  type: "Scale"
  bottom: "conv3_1/sep"
  top: "conv3_1/sep"
  param {
    lr_mult: 1
    decay_mult: 0
  }
  param {
    lr_mult: 1
    decay_mult: 0
  }
  scale_param {
    filler {
      value: 1
    }
    bias_term: true
    bias_filler {
      value: 0
    }
  }
}
layer {
  name: "relu3_1/sep"
  type: "ReLU"
  bottom: "conv3_1/sep"
  top: "conv3_1/sep"
}
layer {
  name: "conv3_2/dw"
  type: "Convolution"
  bottom: "conv3_1/sep"
  top: "conv3_2/dw"
  param {
    lr_mult: 1
    decay_mult: 1
  }
  convolution_param {
    num_output: 128
    bias_term: false
    pad: 1
    kernel_size: 3
    group: 128
    stride: 2
    weight_filler {
      type: "msra"
    }
    engine: CAFFE
  }
}
layer {
  name: "conv3_2/dw/bn"
  type: "BatchNorm"
  bottom: "conv3_2/dw"
  top: "conv3_2/dw"
  batch_norm_param {
    use_global_stats: false
    eps: 1e-05
  }
}
layer {
  name: "conv3_2/dw/scale"
  type: "Scale"
  bottom: "conv3_2/dw"
  top: "conv3_2/dw"
  param {
    lr_mult: 1
    decay_mult: 0
  }
  param {
    lr_mult: 1
    decay_mult: 0
  }
  scale_param {
    filler {
      value: 1
    }
    bias_term: true
    bias_filler {
      value: 0
    }
  }
}
layer {
  name: "relu3_2/dw"
  type: "ReLU"
  bottom: "conv3_2/dw"
  top: "conv3_2/dw"
}
layer {
  name: "conv3_2/sep"
  type: "Convolution"
  bottom: "conv3_2/dw"
  top: "conv3_2/sep"
  param {
    lr_mult: 1
    decay_mult: 1
  }
  convolution_param {
    num_output: 256
    bias_term: false
    pad: 0
    kernel_size: 1
    stride: 1
    weight_filler {
      type: "msra"
    }
  }
}
layer {
  name: "conv3_2/sep/bn"
  type: "BatchNorm"
  bottom: "conv3_2/sep"
  top: "conv3_2/sep"
  batch_norm_param {
    use_global_stats: false
    eps: 1e-05
  }
}
layer {
  name: "conv3_2/sep/scale"
  type: "Scale"
  bottom: "conv3_2/sep"
  top: "conv3_2/sep"
  param {
    lr_mult: 1
    decay_mult: 0
  }
  param {
    lr_mult: 1
    decay_mult: 0
  }
  scale_param {
    filler {
      value: 1
    }
    bias_term: true
    bias_filler {
      value: 0
    }
  }
}
layer {
  name: "relu3_2/sep"
  type: "ReLU"
  bottom: "conv3_2/sep"
  top: "conv3_2/sep"
}
layer {
  name: "conv4_1/dw"
  type: "Convolution"
  bottom: "conv3_2/sep"
  top: "conv4_1/dw"
  param {
    lr_mult: 1
    decay_mult: 1
  }
  convolution_param {
    num_output: 256
    bias_term: false
    pad: 1
    kernel_size: 3
    group: 256
    stride: 1
    weight_filler {
      type: "msra"
    }
    engine: CAFFE
  }
}
layer {
  name: "conv4_1/dw/bn"
  type: "BatchNorm"
  bottom: "conv4_1/dw"
  top: "conv4_1/dw"
  batch_norm_param {
    use_global_stats: false
    eps: 1e-05
  }
}
layer {
  name: "conv4_1/dw/scale"
  type: "Scale"
  bottom: "conv4_1/dw"
  top: "conv4_1/dw"
  param {
    lr_mult: 1
    decay_mult: 0
  }
  param {
    lr_mult: 1
    decay_mult: 0
  }
  scale_param {
    filler {
      value: 1
    }
    bias_term: true
    bias_filler {
      value: 0
    }
  }
}
layer {
  name: "relu4_1/dw"
  type: "ReLU"
  bottom: "conv4_1/dw"
  top: "conv4_1/dw"
}
layer {
  name: "conv4_1/sep"
  type: "Convolution"
  bottom: "conv4_1/dw"
  top: "conv4_1/sep"
  param {
    lr_mult: 1
    decay_mult: 1
  }
  convolution_param {
    num_output: 256
    bias_term: false
    pad: 0
    kernel_size: 1
    stride: 1
    weight_filler {
      type: "msra"
    }
  }
}
layer {
  name: "conv4_1/sep/bn"
  type: "BatchNorm"
  bottom: "conv4_1/sep"
  top: "conv4_1/sep"
  batch_norm_param {
    use_global_stats: false
    eps: 1e-05
  }
}
layer {
  name: "conv4_1/sep/scale"
  type: "Scale"
  bottom: "conv4_1/sep"
  top: "conv4_1/sep"
  param {
    lr_mult: 1
    decay_mult: 0
  }
  param {
    lr_mult: 1
    decay_mult: 0
  }
  scale_param {
    filler {
      value: 1
    }
    bias_term: true
    bias_filler {
      value: 0
    }
  }
}
layer {
  name: "relu4_1/sep"
  type: "ReLU"
  bottom: "conv4_1/sep"
  top: "conv4_1/sep"
}
layer {
  name: "buffer"
  type: "Convolution"
  bottom: "conv4_1/sep"
  top: "buffer"
  param {
    lr_mult: 1
    decay_mult: 1
  }
  param {
    lr_mult: 2
    decay_mult: 0
  }
  propagate_down: false
  convolution_param {
    num_output: 256
    pad: 1
    kernel_size: 3
    weight_filler {
      type: "gaussian"
      std: 0.01
    }
    bias_filler {
      type: "constant"
    }
  }
}
layer {
  name: "relu_buffer"
  type: "ReLU"
  bottom: "buffer"
  top: "buffer"
}
layer {
  name: "attention"
  type: "Convolution"
  bottom: "buffer"
  top: "attention"
  param {
    lr_mult: 1
    decay_mult: 1
  }
  param {
    lr_mult: 2
    decay_mult: 0
  }
  convolution_param {
    num_output: 3
    pad: 1
    kernel_size: 3
  }
}
layer {
  name: "ch4_pool"
  type: "Pooling"
  bottom: "ch4"
  top: "ch4_pool"
  pooling_param {
    pool: MAX
    kernel_size: 8
    stride: 8
  }
}
layer {
  name: "loss_attention"
  type: "SoftmaxWithLoss"
  bottom: "attention"
  bottom: "ch4_pool"
  top: "loss_attention"
  loss_weight: 1
  propagate_down: true
  propagate_down: false
}
layer {
  name: "loss1_conv1"
  type: "Convolution"
  bottom: "conv4_1/sep"
  top: "loss1_conv1"
  param {
    lr_mult: 1
    decay_mult: 1
  }
  param {
    lr_mult: 2
    decay_mult: 0
  }
  convolution_param {
    num_output: 256
    pad: 1
    kernel_size: 3
    weight_filler {
      type: "gaussian"
      std: 0.01
    }
    bias_filler {
      type: "constant"
    }
  }
}
layer {
  name: "loss_relu1"
  type: "ReLU"
  bottom: "loss1_conv1"
  top: "loss1_conv1"
}
layer {
  name: "LFCN_1_5x5"
  type: "Convolution"
  bottom: "loss1_conv1"
  top: "LFCN_1_5x5"
  param {
    lr_mult: 1
    decay_mult: 1
  }
  param {
    lr_mult: 2
    decay_mult: 0
  }
  convolution_param {
    num_output: 9
    pad: 2
    kernel_size: 5
    weight_filler {
      type: "gaussian"
      std: 0.001
    }
    bias_filler {
      type: "constant"
    }
  }
}
layer {
  name: "detection_loss_1_5x5"
  type: "DetectionLoss"
  bottom: "LFCN_1_5x5"
  bottom: "label_1_5x5"
  top: "loss_1_5x5"
  loss_weight: 0.9
  detection_loss_param {
    cls_num: 5
    coord_num: 4
    lambda: 0.05
    field_h: 60
    field_w: 60
    downsample_rate: 8
    bb_smooth: true
    field_whr: 2
    field_xyr: 2
    bg_threshold: 0.2
    bg_multiple: 2
    sample_mode: "random"
    pos_neg_weighted: true
  }
}
layer {
  name: "detection_accuracy_1_5x5"
  type: "DetectionAccuracy"
  bottom: "LFCN_1_5x5"
  bottom: "label_1_5x5"
  top: "accuracy_1_5x5"
  top: "boxiou_1_5x5"
  detection_accuracy_param {
    cls_num: 5
    coord_num: 4
    field_h: 60
    field_w: 60
    downsample_rate: 8
    field_whr: 2
    field_xyr: 2
  }
}
layer {
  name: "LFCN_1_7x7"
  type: "Convolution"
  bottom: "loss1_conv1"
  top: "LFCN_1_7x7"
  param {
    lr_mult: 1
    decay_mult: 1
  }
  param {
    lr_mult: 2
    decay_mult: 0
  }
  convolution_param {
    num_output: 9
    pad: 3
    kernel_size: 7
    weight_filler {
      type: "gaussian"
      std: 0.001
    }
    bias_filler {
      type: "constant"
    }
  }
}
layer {
  name: "detection_loss_1_7x7"
  type: "DetectionLoss"
  bottom: "LFCN_1_7x7"
  bottom: "label_1_7x7"
  top: "loss_1_7x7"
  loss_weight: 0.9
  detection_loss_param {
    cls_num: 5
    coord_num: 4
    lambda: 0.05
    field_h: 84
    field_w: 84
    downsample_rate: 8
    bb_smooth: true
    field_whr: 2
    field_xyr: 2
    bg_threshold: 0.2
    bg_multiple: 2
    sample_mode: "random"
    pos_neg_weighted: true
  }
}
layer {
  name: "detection_accuracy_1_7x7"
  type: "DetectionAccuracy"
  bottom: "LFCN_1_7x7"
  bottom: "label_1_7x7"
  top: "accuracy_1_7x7"
  top: "boxiou_1_7x7"
  detection_accuracy_param {
    cls_num: 5
    coord_num: 4
    field_h: 84
    field_w: 84
    downsample_rate: 8
    field_whr: 2
    field_xyr: 2
  }
}
layer {
  name: "conv4_2/dw"
  type: "Convolution"
  bottom: "conv4_1/sep"
  top: "conv4_2/dw"
  param {
    lr_mult: 1
    decay_mult: 1
  }
  convolution_param {
    num_output: 256
    bias_term: false
    pad: 1
    kernel_size: 3
    group: 256
    stride: 2
    weight_filler {
      type: "msra"
    }
    engine: CAFFE
  }
}
layer {
  name: "conv4_2/dw/bn"
  type: "BatchNorm"
  bottom: "conv4_2/dw"
  top: "conv4_2/dw"
  batch_norm_param {
    use_global_stats: false
    eps: 1e-05
  }
}
layer {
  name: "conv4_2/dw/scale"
  type: "Scale"
  bottom: "conv4_2/dw"
  top: "conv4_2/dw"
  param {
    lr_mult: 1
    decay_mult: 0
  }
  param {
    lr_mult: 1
    decay_mult: 0
  }
  scale_param {
    filler {
      value: 1
    }
    bias_term: true
    bias_filler {
      value: 0
    }
  }
}
layer {
  name: "relu4_2/dw"
  type: "ReLU"
  bottom: "conv4_2/dw"
  top: "conv4_2/dw"
}
layer {
  name: "conv4_2/sep"
  type: "Convolution"
  bottom: "conv4_2/dw"
  top: "conv4_2/sep"
  param {
    lr_mult: 1
    decay_mult: 1
  }
  convolution_param {
    num_output: 512
    bias_term: false
    pad: 0
    kernel_size: 1
    stride: 1
    weight_filler {
      type: "msra"
    }
  }
}
layer {
  name: "conv4_2/sep/bn"
  type: "BatchNorm"
  bottom: "conv4_2/sep"
  top: "conv4_2/sep"
  batch_norm_param {
    use_global_stats: false
    eps: 1e-05
  }
}
layer {
  name: "conv4_2/sep/scale"
  type: "Scale"
  bottom: "conv4_2/sep"
  top: "conv4_2/sep"
  param {
    lr_mult: 1
    decay_mult: 0
  }
  param {
    lr_mult: 1
    decay_mult: 0
  }
  scale_param {
    filler {
      value: 1
    }
    bias_term: true
    bias_filler {
      value: 0
    }
  }
}
layer {
  name: "relu4_2/sep"
  type: "ReLU"
  bottom: "conv4_2/sep"
  top: "conv4_2/sep"
}
layer {
  name: "conv5_1/dw"
  type: "Convolution"
  bottom: "conv4_2/sep"
  top: "conv5_1/dw"
  param {
    lr_mult: 1
    decay_mult: 1
  }
  convolution_param {
    num_output: 512
    bias_term: false
    pad: 1
    kernel_size: 3
    group: 512
    stride: 1
    weight_filler {
      type: "msra"
    }
    engine: CAFFE
  }
}
layer {
  name: "conv5_1/dw/bn"
  type: "BatchNorm"
  bottom: "conv5_1/dw"
  top: "conv5_1/dw"
  batch_norm_param {
    use_global_stats: false
    eps: 1e-05
  }
}
layer {
  name: "conv5_1/dw/scale"
  type: "Scale"
  bottom: "conv5_1/dw"
  top: "conv5_1/dw"
  param {
    lr_mult: 1
    decay_mult: 0
  }
  param {
    lr_mult: 1
    decay_mult: 0
  }
  scale_param {
    filler {
      value: 1
    }
    bias_term: true
    bias_filler {
      value: 0
    }
  }
}
layer {
  name: "relu5_1/dw"
  type: "ReLU"
  bottom: "conv5_1/dw"
  top: "conv5_1/dw"
}
layer {
  name: "conv5_1/sep"
  type: "Convolution"
  bottom: "conv5_1/dw"
  top: "conv5_1/sep"
  param {
    lr_mult: 1
    decay_mult: 1
  }
  convolution_param {
    num_output: 512
    bias_term: false
    pad: 0
    kernel_size: 1
    stride: 1
    weight_filler {
      type: "msra"
    }
  }
}
layer {
  name: "conv5_1/sep/bn"
  type: "BatchNorm"
  bottom: "conv5_1/sep"
  top: "conv5_1/sep"
  batch_norm_param {
    use_global_stats: false
    eps: 1e-05
  }
}
layer {
  name: "conv5_1/sep/scale"
  type: "Scale"
  bottom: "conv5_1/sep"
  top: "conv5_1/sep"
  param {
    lr_mult: 1
    decay_mult: 0
  }
  param {
    lr_mult: 1
    decay_mult: 0
  }
  scale_param {
    filler {
      value: 1
    }
    bias_term: true
    bias_filler {
      value: 0
    }
  }
}
layer {
  name: "relu5_1/sep"
  type: "ReLU"
  bottom: "conv5_1/sep"
  top: "conv5_1/sep"
}
layer {
  name: "conv5_2/dw"
  type: "Convolution"
  bottom: "conv5_1/sep"
  top: "conv5_2/dw"
  param {
    lr_mult: 1
    decay_mult: 1
  }
  convolution_param {
    num_output: 512
    bias_term: false
    pad: 1
    kernel_size: 3
    group: 512
    stride: 1
    weight_filler {
      type: "msra"
    }
    engine: CAFFE
  }
}
layer {
  name: "conv5_2/dw/bn"
  type: "BatchNorm"
  bottom: "conv5_2/dw"
  top: "conv5_2/dw"
  batch_norm_param {
    use_global_stats: false
    eps: 1e-05
  }
}
layer {
  name: "conv5_2/dw/scale"
  type: "Scale"
  bottom: "conv5_2/dw"
  top: "conv5_2/dw"
  param {
    lr_mult: 1
    decay_mult: 0
  }
  param {
    lr_mult: 1
    decay_mult: 0
  }
  scale_param {
    filler {
      value: 1
    }
    bias_term: true
    bias_filler {
      value: 0
    }
  }
}
layer {
  name: "relu5_2/dw"
  type: "ReLU"
  bottom: "conv5_2/dw"
  top: "conv5_2/dw"
}
layer {
  name: "conv5_2/sep"
  type: "Convolution"
  bottom: "conv5_2/dw"
  top: "conv5_2/sep"
  param {
    lr_mult: 1
    decay_mult: 1
  }
  convolution_param {
    num_output: 512
    bias_term: false
    pad: 0
    kernel_size: 1
    stride: 1
    weight_filler {
      type: "msra"
    }
  }
}
layer {
  name: "conv5_2/sep/bn"
  type: "BatchNorm"
  bottom: "conv5_2/sep"
  top: "conv5_2/sep"
  batch_norm_param {
    use_global_stats: false
    eps: 1e-05
  }
}
layer {
  name: "conv5_2/sep/scale"
  type: "Scale"
  bottom: "conv5_2/sep"
  top: "conv5_2/sep"
  param {
    lr_mult: 1
    decay_mult: 0
  }
  param {
    lr_mult: 1
    decay_mult: 0
  }
  scale_param {
    filler {
      value: 1
    }
    bias_term: true
    bias_filler {
      value: 0
    }
  }
}
layer {
  name: "relu5_2/sep"
  type: "ReLU"
  bottom: "conv5_2/sep"
  top: "conv5_2/sep"
}
layer {
  name: "conv5_3/dw"
  type: "Convolution"
  bottom: "conv5_2/sep"
  top: "conv5_3/dw"
  param {
    lr_mult: 1
    decay_mult: 1
  }
  convolution_param {
    num_output: 512
    bias_term: false
    pad: 1
    kernel_size: 3
    group: 512
    stride: 1
    weight_filler {
      type: "msra"
    }
    engine: CAFFE
  }
}
layer {
  name: "conv5_3/dw/bn"
  type: "BatchNorm"
  bottom: "conv5_3/dw"
  top: "conv5_3/dw"
  batch_norm_param {
    use_global_stats: false
    eps: 1e-05
  }
}
layer {
  name: "conv5_3/dw/scale"
  type: "Scale"
  bottom: "conv5_3/dw"
  top: "conv5_3/dw"
  param {
    lr_mult: 1
    decay_mult: 0
  }
  param {
    lr_mult: 1
    decay_mult: 0
  }
  scale_param {
    filler {
      value: 1
    }
    bias_term: true
    bias_filler {
      value: 0
    }
  }
}
layer {
  name: "relu5_3/dw"
  type: "ReLU"
  bottom: "conv5_3/dw"
  top: "conv5_3/dw"
}
layer {
  name: "conv5_3/sep"
  type: "Convolution"
  bottom: "conv5_3/dw"
  top: "conv5_3/sep"
  param {
    lr_mult: 1
    decay_mult: 1
  }
  convolution_param {
    num_output: 512
    bias_term: false
    pad: 0
    kernel_size: 1
    stride: 1
    weight_filler {
      type: "msra"
    }
  }
}
layer {
  name: "conv5_3/sep/bn"
  type: "BatchNorm"
  bottom: "conv5_3/sep"
  top: "conv5_3/sep"
  batch_norm_param {
    use_global_stats: false
    eps: 1e-05
  }
}
layer {
  name: "conv5_3/sep/scale"
  type: "Scale"
  bottom: "conv5_3/sep"
  top: "conv5_3/sep"
  param {
    lr_mult: 1
    decay_mult: 0
  }
  param {
    lr_mult: 1
    decay_mult: 0
  }
  scale_param {
    filler {
      value: 1
    }
    bias_term: true
    bias_filler {
      value: 0
    }
  }
}
layer {
  name: "relu5_3/sep"
  type: "ReLU"
  bottom: "conv5_3/sep"
  top: "conv5_3/sep"
}
layer {
  name: "conv5_4/dw"
  type: "Convolution"
  bottom: "conv5_3/sep"
  top: "conv5_4/dw"
  param {
    lr_mult: 1
    decay_mult: 1
  }
  convolution_param {
    num_output: 512
    bias_term: false
    pad: 1
    kernel_size: 3
    group: 512
    stride: 1
    weight_filler {
      type: "msra"
    }
    engine: CAFFE
  }
}
layer {
  name: "conv5_4/dw/bn"
  type: "BatchNorm"
  bottom: "conv5_4/dw"
  top: "conv5_4/dw"
  batch_norm_param {
    use_global_stats: false
    eps: 1e-05
  }
}
layer {
  name: "conv5_4/dw/scale"
  type: "Scale"
  bottom: "conv5_4/dw"
  top: "conv5_4/dw"
  param {
    lr_mult: 1
    decay_mult: 0
  }
  param {
    lr_mult: 1
    decay_mult: 0
  }
  scale_param {
    filler {
      value: 1
    }
    bias_term: true
    bias_filler {
      value: 0
    }
  }
}
layer {
  name: "relu5_4/dw"
  type: "ReLU"
  bottom: "conv5_4/dw"
  top: "conv5_4/dw"
}
layer {
  name: "conv5_4/sep"
  type: "Convolution"
  bottom: "conv5_4/dw"
  top: "conv5_4/sep"
  param {
    lr_mult: 1
    decay_mult: 1
  }
  convolution_param {
    num_output: 512
    bias_term: false
    pad: 0
    kernel_size: 1
    stride: 1
    weight_filler {
      type: "msra"
    }
  }
}
layer {
  name: "conv5_4/sep/bn"
  type: "BatchNorm"
  bottom: "conv5_4/sep"
  top: "conv5_4/sep"
  batch_norm_param {
    use_global_stats: false
    eps: 1e-05
  }
}
layer {
  name: "conv5_4/sep/scale"
  type: "Scale"
  bottom: "conv5_4/sep"
  top: "conv5_4/sep"
  param {
    lr_mult: 1
    decay_mult: 0
  }
  param {
    lr_mult: 1
    decay_mult: 0
  }
  scale_param {
    filler {
      value: 1
    }
    bias_term: true
    bias_filler {
      value: 0
    }
  }
}
layer {
  name: "relu5_4/sep"
  type: "ReLU"
  bottom: "conv5_4/sep"
  top: "conv5_4/sep"
}
layer {
  name: "conv5_5/dw"
  type: "Convolution"
  bottom: "conv5_4/sep"
  top: "conv5_5/dw"
  param {
    lr_mult: 1
    decay_mult: 1
  }
  convolution_param {
    num_output: 512
    bias_term: false
    pad: 1
    kernel_size: 3
    group: 512
    stride: 1
    weight_filler {
      type: "msra"
    }
    engine: CAFFE
  }
}
layer {
  name: "conv5_5/dw/bn"
  type: "BatchNorm"
  bottom: "conv5_5/dw"
  top: "conv5_5/dw"
  batch_norm_param {
    use_global_stats: false
    eps: 1e-05
  }
}
layer {
  name: "conv5_5/dw/scale"
  type: "Scale"
  bottom: "conv5_5/dw"
  top: "conv5_5/dw"
  param {
    lr_mult: 1
    decay_mult: 0
  }
  param {
    lr_mult: 1
    decay_mult: 0
  }
  scale_param {
    filler {
      value: 1
    }
    bias_term: true
    bias_filler {
      value: 0
    }
  }
}
layer {
  name: "relu5_5/dw"
  type: "ReLU"
  bottom: "conv5_5/dw"
  top: "conv5_5/dw"
}
layer {
  name: "conv5_5/sep"
  type: "Convolution"
  bottom: "conv5_5/dw"
  top: "conv5_5/sep"
  param {
    lr_mult: 1
    decay_mult: 1
  }
  convolution_param {
    num_output: 512
    bias_term: false
    pad: 0
    kernel_size: 1
    stride: 1
    weight_filler {
      type: "msra"
    }
  }
}
layer {
  name: "conv5_5/sep/bn"
  type: "BatchNorm"
  bottom: "conv5_5/sep"
  top: "conv5_5/sep"
  batch_norm_param {
    use_global_stats: false
    eps: 1e-05
  }
}
layer {
  name: "conv5_5/sep/scale"
  type: "Scale"
  bottom: "conv5_5/sep"
  top: "conv5_5/sep"
  param {
    lr_mult: 1
    decay_mult: 0
  }
  param {
    lr_mult: 1
    decay_mult: 0
  }
  scale_param {
    filler {
      value: 1
    }
    bias_term: true
    bias_filler {
      value: 0
    }
  }
}
layer {
  name: "relu5_5/sep"
  type: "ReLU"
  bottom: "conv5_5/sep"
  top: "conv5_5/sep"
}
layer {
  name: "LFCN_2_5x5"
  type: "Convolution"
  bottom: "conv5_5/sep"
  top: "LFCN_2_5x5"
  param {
    lr_mult: 1
    decay_mult: 1
  }
  param {
    lr_mult: 2
    decay_mult: 0
  }
  convolution_param {
    num_output: 9
    pad: 2
    kernel_size: 5
    weight_filler {
      type: "gaussian"
      std: 0.001
    }
    bias_filler {
      type: "constant"
    }
  }
}
layer {
  name: "detection_loss_2_5x5"
  type: "DetectionLoss"
  bottom: "LFCN_2_5x5"
  bottom: "label_2_5x5"
  top: "loss_2_5x5"
  detection_loss_param {
    cls_num: 5
    coord_num: 4
    lambda: 0.05
    field_h: 120
    field_w: 120
    downsample_rate: 16
    bb_smooth: true
    field_whr: 2
    field_xyr: 2
    bg_threshold: 0.2
    bg_multiple: 2
    sample_mode: "random"
    pos_neg_weighted: true
  }
}
layer {
  name: "detection_accuracy_2_5x5"
  type: "DetectionAccuracy"
  bottom: "LFCN_2_5x5"
  bottom: "label_2_5x5"
  top: "accuracy_2_5x5"
  top: "boxiou_2_5x5"
  detection_accuracy_param {
    cls_num: 5
    coord_num: 4
    field_h: 120
    field_w: 120
    downsample_rate: 16
    field_whr: 2
    field_xyr: 2
  }
}
layer {
  name: "LFCN_2_7x7"
  type: "Convolution"
  bottom: "conv5_5/sep"
  top: "LFCN_2_7x7"
  param {
    lr_mult: 1
    decay_mult: 1
  }
  param {
    lr_mult: 2
    decay_mult: 0
  }
  convolution_param {
    num_output: 9
    pad: 3
    kernel_size: 7
    weight_filler {
      type: "gaussian"
      std: 0.001
    }
    bias_filler {
      type: "constant"
    }
  }
}
layer {
  name: "detection_loss_2_7x7"
  type: "DetectionLoss"
  bottom: "LFCN_2_7x7"
  bottom: "label_2_7x7"
  top: "loss_2_7x7"
  detection_loss_param {
    cls_num: 5
    coord_num: 4
    lambda: 0.05
    field_h: 168
    field_w: 168
    downsample_rate: 16
    bb_smooth: true
    field_whr: 2
    field_xyr: 2
    bg_threshold: 0.2
    bg_multiple: 2
    sample_mode: "random"
    pos_neg_weighted: true
  }
}
layer {
  name: "detection_accuracy_2_7x7"
  type: "DetectionAccuracy"
  bottom: "LFCN_2_7x7"
  bottom: "label_2_7x7"
  top: "accuracy_2_7x7"
  top: "boxiou_2_7x7"
  detection_accuracy_param {
    cls_num: 5
    coord_num: 4
    field_h: 168
    field_w: 168
    downsample_rate: 16
    field_whr: 2
    field_xyr: 2
  }
}
layer {
  name: "conv5_6/dw"
  type: "Convolution"
  bottom: "conv5_5/sep"
  top: "conv5_6/dw"
  param {
    lr_mult: 1
    decay_mult: 1
  }
  convolution_param {
    num_output: 512
    bias_term: false
    pad: 1
    kernel_size: 3
    group: 512
    stride: 2
    weight_filler {
      type: "msra"
    }
    engine: CAFFE
  }
}
layer {
  name: "conv5_6/dw/bn"
  type: "BatchNorm"
  bottom: "conv5_6/dw"
  top: "conv5_6/dw"
  batch_norm_param {
    use_global_stats: false
    eps: 1e-05
  }
}
layer {
  name: "conv5_6/dw/scale"
  type: "Scale"
  bottom: "conv5_6/dw"
  top: "conv5_6/dw"
  param {
    lr_mult: 1
    decay_mult: 0
  }
  param {
    lr_mult: 1
    decay_mult: 0
  }
  scale_param {
    filler {
      value: 1
    }
    bias_term: true
    bias_filler {
      value: 0
    }
  }
}
layer {
  name: "relu5_6/dw"
  type: "ReLU"
  bottom: "conv5_6/dw"
  top: "conv5_6/dw"
}
layer {
  name: "conv5_6/sep"
  type: "Convolution"
  bottom: "conv5_6/dw"
  top: "conv5_6/sep"
  param {
    lr_mult: 1
    decay_mult: 1
  }
  convolution_param {
    num_output: 1024
    bias_term: false
    pad: 0
    kernel_size: 1
    stride: 1
    weight_filler {
      type: "msra"
    }
  }
}
layer {
  name: "conv5_6/sep/bn"
  type: "BatchNorm"
  bottom: "conv5_6/sep"
  top: "conv5_6/sep"
  batch_norm_param {
    use_global_stats: false
    eps: 1e-05
  }
}
layer {
  name: "conv5_6/sep/scale"
  type: "Scale"
  bottom: "conv5_6/sep"
  top: "conv5_6/sep"
  param {
    lr_mult: 1
    decay_mult: 0
  }
  param {
    lr_mult: 1
    decay_mult: 0
  }
  scale_param {
    filler {
      value: 1
    }
    bias_term: true
    bias_filler {
      value: 0
    }
  }
}
layer {
  name: "relu5_6/sep"
  type: "ReLU"
  bottom: "conv5_6/sep"
  top: "conv5_6/sep"
}
layer {
  name: "conv6/dw"
  type: "Convolution"
  bottom: "conv5_6/sep"
  top: "conv6/dw"
  param {
    lr_mult: 1
    decay_mult: 1
  }
  convolution_param {
    num_output: 1024
    bias_term: false
    pad: 1
    kernel_size: 3
    group: 1024
    stride: 1
    weight_filler {
      type: "msra"
    }
    engine: CAFFE
  }
}
layer {
  name: "conv6/dw/bn"
  type: "BatchNorm"
  bottom: "conv6/dw"
  top: "conv6/dw"
  batch_norm_param {
    use_global_stats: false
    eps: 1e-05
  }
}
layer {
  name: "conv6/dw/scale"
  type: "Scale"
  bottom: "conv6/dw"
  top: "conv6/dw"
  param {
    lr_mult: 1
    decay_mult: 0
  }
  param {
    lr_mult: 1
    decay_mult: 0
  }
  scale_param {
    filler {
      va
I0109 10:44:54.011250  1663 layer_factory.hpp:77] Creating layer data
I0109 10:44:54.011286  1663 net.cpp:100] Creating Layer data
I0109 10:44:54.011292  1663 net.cpp:408] data -> data
I0109 10:44:54.011313  1663 net.cpp:408] data -> label_1_5x5
…
I0109 10:44:54.036659  1663 image_gt_data_layer.cpp:235] output label size 1 : 3,6,96,96
I0109 10:44:54.036695  1663 image_gt_data_layer.cpp:235] output label size 2 : 3,6,48,48
I0109 10:44:54.036732  1663 image_gt_data_layer.cpp:235] output label size 3 : 3,6,48,48
I0109 10:44:54.036768  1663 image_gt_data_layer.cpp:235] output label size 4 : 3,6,24,24
I0109 10:44:54.036808  1663 image_gt_data_layer.cpp:235] output label size 5 : 3,6,24,24
I0109 10:44:54.036847  1663 image_gt_data_layer.cpp:235] output label size 6 : 3,6,12,12
I0109 10:44:54.095183  1663 net.cpp:150] Setting up data
I0109 10:44:54.095268  1663 net.cpp:157] Top shape: 3 4 768 768 (7077888)
I0109 10:44:54.095276  1663 net.cpp:157] Top shape: 3 6 96 96 (165888)
I0109 10:44:54.095283  1663 net.cpp:157] Top shape: 3 6 96 96 (165888)
I0109 10:44:54.095290  1663 net.cpp:157] Top shape: 3 6 48 48 (41472)
I0109 10:44:54.095297  1663 net.cpp:157] Top shape: 3 6 48 48 (41472)
I0109 10:44:54.095304  1663 net.cpp:157] Top shape: 3 6 24 24 (10368)
I0109 10:44:54.095310  1663 net.cpp:157] Top shape: 3 6 24 24 (10368)
I0109 10:44:54.095316  1663 net.cpp:157] Top shape: 3 6 12 12 (2592)
I0109 10:44:54.095321  1663 net.cpp:165] Memory required for data: 30063744
I0109 10:44:54.095342  1663 layer_factory.hpp:77] Creating layer label_1_5x5_data_1_split
I0109 10:44:54.095388  1663 net.cpp:100] Creating Layer label_1_5x5_data_1_split
I0109 10:44:54.095399  1663 net.cpp:434] label_1_5x5_data_1_split <- label_1_5x5
I0109 10:44:54.095422  1663 net.cpp:408] label_1_5x5_data_1_split -> label_1_5x5_data_1_split_0
I0109 10:44:54.095440  1663 net.cpp:408] label_1_5x5_data_1_split -> label_1_5x5_data_1_split_1
I0109 10:44:54.095525  1663 net.cpp:150] Setting up label_1_5x5_data_1_split
I0109 10:44:54.095535  1663 net.cpp:157] Top shape: 3 6 96 96 (165888)
I0109 10:44:54.095542  1663 net.cpp:157] Top shape: 3 6 96 96 (165888)
I0109 10:44:54.095547  1663 net.cpp:165] Memory required for data: 31390848
I0109 10:44:54.095552  1663 layer_factory.hpp:77] Creating layer label_1_7x7_data_2_split
I0109 10:44:54.095561  1663 net.cpp:100] Creating Layer label_1_7x7_data_2_split
I0109 10:44:54.095566  1663 net.cpp:434] label_1_7x7_data_2_split <- label_1_7x7
I0109 10:44:54.095576  1663 net.cpp:408] label_1_7x7_data_2_split -> label_1_7x7_data_2_split_0
I0109 10:44:54.095582  1663 net.cpp:408] label_1_7x7_data_2_split -> label_1_7x7_data_2_split_1
I0109 10:44:54.095620  1663 net.cpp:150] Setting up label_1_7x7_data_2_split
I0109 10:44:54.095630  1663 net.cpp:157] Top shape: 3 6 96 96 (165888)
I0109 10:44:54.095636  1663 net.cpp:157] Top shape: 3 6 96 96 (165888)
I0109 10:44:54.095640  1663 net.cpp:165] Memory required for data: 32717952
I0109 10:44:54.095645  1663 layer_factory.hpp:77] Creating layer label_2_5x5_data_3_split
I0109 10:44:54.095652  1663 net.cpp:100] Creating Layer label_2_5x5_data_3_split
I0109 10:44:54.095657  1663 net.cpp:434] label_2_5x5_data_3_split <- label_2_5x5
I0109 10:44:54.095665  1663 net.cpp:408] label_2_5x5_data_3_split -> label_2_5x5_data_3_split_0
I0109 10:44:54.095672  1663 net.cpp:408] label_2_5x5_data_3_split -> label_2_5x5_data_3_split_1
I0109 10:44:54.095712  1663 net.cpp:150] Setting up label_2_5x5_data_3_split
I0109 10:44:54.095723  1663 net.cpp:157] Top shape: 3 6 48 48 (41472)
I0109 10:44:54.095729  1663 net.cpp:157] Top shape: 3 6 48 48 (41472)
I0109 10:44:54.095734  1663 net.cpp:165] Memory required for data: 33049728
I0109 10:44:54.095739  1663 layer_factory.hpp:77] Creating layer label_2_7x7_data_4_split
I0109 10:44:54.095746  1663 net.cpp:100] Creating Layer label_2_7x7_data_4_split
I0109 10:44:54.095752  1663 net.cpp:434] label_2_7x7_data_4_split <- label_2_7x7
I0109 10:44:54.095757  1663 net.cpp:408] label_2_7x7_data_4_split -> label_2_7x7_data_4_split_0
I0109 10:44:54.095765  1663 net.cpp:408] label_2_7x7_data_4_split -> label_2_7x7_data_4_split_1
I0109 10:44:54.095805  1663 net.cpp:150] Setting up label_2_7x7_data_4_split
I0109 10:44:54.095813  1663 net.cpp:157] Top shape: 3 6 48 48 (41472)
I0109 10:44:54.095819  1663 net.cpp:157] Top shape: 3 6 48 48 (41472)
I0109 10:44:54.095824  1663 net.cpp:165] Memory required for data: 33381504
I0109 10:44:54.095829  1663 layer_factory.hpp:77] Creating layer label_3_5x5_data_5_split
I0109 10:44:54.095839  1663 net.cpp:100] Creating Layer label_3_5x5_data_5_split
I0109 10:44:54.095844  1663 net.cpp:434] label_3_5x5_data_5_split <- label_3_5x5
I0109 10:44:54.095849  1663 net.cpp:408] label_3_5x5_data_5_split -> label_3_5x5_data_5_split_0
I0109 10:44:54.095860  1663 net.cpp:408] label_3_5x5_data_5_split -> label_3_5x5_data_5_split_1
I0109 10:44:54.095892  1663 net.cpp:150] Setting up label_3_5x5_data_5_split
I0109 10:44:54.095901  1663 net.cpp:157] Top shape: 3 6 24 24 (10368)
I0109 10:44:54.095906  1663 net.cpp:157] Top shape: 3 6 24 24 (10368)
I0109 10:44:54.095909  1663 net.cpp:165] Memory required for data: 33464448
I0109 10:44:54.095914  1663 layer_factory.hpp:77] Creating layer label_3_7x7_data_6_split
I0109 10:44:54.095919  1663 net.cpp:100] Creating Layer label_3_7x7_data_6_split
I0109 10:44:54.095924  1663 net.cpp:434] label_3_7x7_data_6_split <- label_3_7x7
I0109 10:44:54.095929  1663 net.cpp:408] label_3_7x7_data_6_split -> label_3_7x7_data_6_split_0
I0109 10:44:54.095935  1663 net.cpp:408] label_3_7x7_data_6_split -> label_3_7x7_data_6_split_1
I0109 10:44:54.095965  1663 net.cpp:150] Setting up label_3_7x7_data_6_split
I0109 10:44:54.095973  1663 net.cpp:157] Top shape: 3 6 24 24 (10368)
I0109 10:44:54.095978  1663 net.cpp:157] Top shape: 3 6 24 24 (10368)
I0109 10:44:54.095983  1663 net.cpp:165] Memory required for data: 33547392
I0109 10:44:54.095985  1663 layer_factory.hpp:77] Creating layer label_4_5x5_data_7_split
I0109 10:44:54.095991  1663 net.cpp:100] Creating Layer label_4_5x5_data_7_split
I0109 10:44:54.095995  1663 net.cpp:434] label_4_5x5_data_7_split <- label_4_5x5
I0109 10:44:54.096001  1663 net.cpp:408] label_4_5x5_data_7_split -> label_4_5x5_data_7_split_0
I0109 10:44:54.096007  1663 net.cpp:408] label_4_5x5_data_7_split -> label_4_5x5_data_7_split_1
I0109 10:44:54.096040  1663 net.cpp:150] Setting up label_4_5x5_data_7_split
I0109 10:44:54.096048  1663 net.cpp:157] Top shape: 3 6 12 12 (2592)
I0109 10:44:54.096055  1663 net.cpp:157] Top shape: 3 6 12 12 (2592)
I0109 10:44:54.096060  1663 net.cpp:165] Memory required for data: 33568128
I0109 10:44:54.096063  1663 layer_factory.hpp:77] Creating layer slice
I0109 10:44:54.096086  1663 net.cpp:100] Creating Layer slice
I0109 10:44:54.096094  1663 net.cpp:434] slice <- data
I0109 10:44:54.096102  1663 net.cpp:408] slice -> data123
I0109 10:44:54.096114  1663 net.cpp:408] slice -> ch4
I0109 10:44:54.096155  1663 net.cpp:150] Setting up slice
I0109 10:44:54.096164  1663 net.cpp:157] Top shape: 3 3 768 768 (5308416)
I0109 10:44:54.096170  1663 net.cpp:157] Top shape: 3 1 768 768 (1769472)
I0109 10:44:54.096175  1663 net.cpp:165] Memory required for data: 61879680
I0109 10:44:54.096180  1663 layer_factory.hpp:77] Creating layer conv1
I0109 10:44:54.096204  1663 net.cpp:100] Creating Layer conv1
I0109 10:44:54.096210  1663 net.cpp:434] conv1 <- data123
I0109 10:44:54.096217  1663 net.cpp:408] conv1 -> conv1
I0109 10:44:54.399833  1663 net.cpp:150] Setting up conv1
I0109 10:44:54.399880  1663 net.cpp:157] Top shape: 3 32 384 384 (14155776)
I0109 10:44:54.399885  1663 net.cpp:165] Memory required for data: 118502784
I0109 10:44:54.399907  1663 layer_factory.hpp:77] Creating layer conv1/bn
I0109 10:44:54.399932  1663 net.cpp:100] Creating Layer conv1/bn
I0109 10:44:54.399940  1663 net.cpp:434] conv1/bn <- conv1
I0109 10:44:54.399947  1663 net.cpp:395] conv1/bn -> conv1 (in-place)
I0109 10:44:54.401394  1663 net.cpp:150] Setting up conv1/bn
I0109 10:44:54.401527  1663 net.cpp:157] Top shape: 3 32 384 384 (14155776)
I0109 10:44:54.401545  1663 net.cpp:165] Memory required for data: 175125888
I0109 10:44:54.401604  1663 layer_factory.hpp:77] Creating layer conv1/scale
I0109 10:44:54.401676  1663 net.cpp:100] Creating Layer conv1/scale
I0109 10:44:54.401721  1663 net.cpp:434] conv1/scale <- conv1
I0109 10:44:54.401744  1663 net.cpp:395] conv1/scale -> conv1 (in-place)
I0109 10:44:54.401938  1663 layer_factory.hpp:77] Creating layer conv1/scale
I0109 10:44:54.403937  1663 net.cpp:150] Setting up conv1/scale
I0109 10:44:54.403978  1663 net.cpp:157] Top shape: 3 32 384 384 (14155776)
I0109 10:44:54.403983  1663 net.cpp:165] Memory required for data: 231748992
I0109 10:44:54.404000  1663 layer_factory.hpp:77] Creating layer relu1
I0109 10:44:54.404016  1663 net.cpp:100] Creating Layer relu1
I0109 10:44:54.404023  1663 net.cpp:434] relu1 <- conv1
I0109 10:44:54.404031  1663 net.cpp:395] relu1 -> conv1 (in-place)
I0109 10:44:54.404311  1663 net.cpp:150] Setting up relu1
I0109 10:44:54.404320  1663 net.cpp:157] Top shape: 3 32 384 384 (14155776)
I0109 10:44:54.404325  1663 net.cpp:165] Memory required for data: 288372096
I0109 10:44:54.404328  1663 layer_factory.hpp:77] Creating layer conv2_1/dw
I0109 10:44:54.404345  1663 net.cpp:100] Creating Layer conv2_1/dw
I0109 10:44:54.404350  1663 net.cpp:434] conv2_1/dw <- conv1
I0109 10:44:54.404357  1663 net.cpp:408] conv2_1/dw -> conv2_1/dw
I0109 10:44:54.404551  1663 net.cpp:150] Setting up conv2_1/dw
I0109 10:44:54.404559  1663 net.cpp:157] Top shape: 3 32 384 384 (14155776)
I0109 10:44:54.404563  1663 net.cpp:165] Memory required for data: 344995200
I0109 10:44:54.404568  1663 layer_factory.hpp:77] Creating layer conv2_1/dw/bn
I0109 10:44:54.404578  1663 net.cpp:100] Creating Layer conv2_1/dw/bn
I0109 10:44:54.404582  1663 net.cpp:434] conv2_1/dw/bn <- conv2_1/dw
I0109 10:44:54.404587  1663 net.cpp:395] conv2_1/dw/bn -> conv2_1/dw (in-place)
I0109 10:44:54.406358  1663 net.cpp:150] Setting up conv2_1/dw/bn
I0109 10:44:54.406406  1663 net.cpp:157] Top shape: 3 32 384 384 (14155776)
I0109 10:44:54.406411  1663 net.cpp:165] Memory required for data: 401618304
I0109 10:44:54.406436  1663 layer_factory.hpp:77] Creating layer conv2_1/dw/scale
I0109 10:44:54.406455  1663 net.cpp:100] Creating Layer conv2_1/dw/scale
I0109 10:44:54.406466  1663 net.cpp:434] conv2_1/dw/scale <- conv2_1/dw
I0109 10:44:54.406473  1663 net.cpp:395] conv2_1/dw/scale -> conv2_1/dw (in-place)
I0109 10:44:54.406530  1663 layer_factory.hpp:77] Creating layer conv2_1/dw/scale
I0109 10:44:54.406890  1663 net.cpp:150] Setting up conv2_1/dw/scale
I0109 10:44:54.406903  1663 net.cpp:157] Top shape: 3 32 384 384 (14155776)
I0109 10:44:54.406906  1663 net.cpp:165] Memory required for data: 458241408
I0109 10:44:54.406913  1663 layer_factory.hpp:77] Creating layer relu2_1/dw
I0109 10:44:54.406924  1663 net.cpp:100] Creating Layer relu2_1/dw
I0109 10:44:54.406929  1663 net.cpp:434] relu2_1/dw <- conv2_1/dw
I0109 10:44:54.406936  1663 net.cpp:395] relu2_1/dw -> conv2_1/dw (in-place)
I0109 10:44:54.407193  1663 net.cpp:150] Setting up relu2_1/dw
I0109 10:44:54.407205  1663 net.cpp:157] Top shape: 3 32 384 384 (14155776)
I0109 10:44:54.407209  1663 net.cpp:165] Memory required for data: 514864512
I0109 10:44:54.407213  1663 layer_factory.hpp:77] Creating layer conv2_1/sep
I0109 10:44:54.407227  1663 net.cpp:100] Creating Layer conv2_1/sep
I0109 10:44:54.407232  1663 net.cpp:434] conv2_1/sep <- conv2_1/dw
I0109 10:44:54.407239  1663 net.cpp:408] conv2_1/sep -> conv2_1/sep
I0109 10:44:54.409770  1663 net.cpp:150] Setting up conv2_1/sep
I0109 10:44:54.409802  1663 net.cpp:157] Top shape: 3 64 384 384 (28311552)
I0109 10:44:54.409807  1663 net.cpp:165] Memory required for data: 628110720
I0109 10:44:54.409818  1663 layer_factory.hpp:77] Creating layer conv2_1/sep/bn
I0109 10:44:54.409833  1663 net.cpp:100] Creating Layer conv2_1/sep/bn
I0109 10:44:54.409839  1663 net.cpp:434] conv2_1/sep/bn <- conv2_1/sep
I0109 10:44:54.409847  1663 net.cpp:395] conv2_1/sep/bn -> conv2_1/sep (in-place)
I0109 10:44:54.411362  1663 net.cpp:150] Setting up conv2_1/sep/bn
I0109 10:44:54.411411  1663 net.cpp:157] Top shape: 3 64 384 384 (28311552)
I0109 10:44:54.411415  1663 net.cpp:165] Memory required for data: 741356928
I0109 10:44:54.411433  1663 layer_factory.hpp:77] Creating layer conv2_1/sep/scale
I0109 10:44:54.411454  1663 net.cpp:100] Creating Layer conv2_1/sep/scale
I0109 10:44:54.411463  1663 net.cpp:434] conv2_1/sep/scale <- conv2_1/sep
I0109 10:44:54.411473  1663 net.cpp:395] conv2_1/sep/scale -> conv2_1/sep (in-place)
I0109 10:44:54.411538  1663 layer_factory.hpp:77] Creating layer conv2_1/sep/scale
I0109 10:44:54.411906  1663 net.cpp:150] Setting up conv2_1/sep/scale
I0109 10:44:54.411917  1663 net.cpp:157] Top shape: 3 64 384 384 (28311552)
I0109 10:44:54.411921  1663 net.cpp:165] Memory required for data: 854603136
I0109 10:44:54.411937  1663 layer_factory.hpp:77] Creating layer relu2_1/sep
I0109 10:44:54.411948  1663 net.cpp:100] Creating Layer relu2_1/sep
I0109 10:44:54.411953  1663 net.cpp:434] relu2_1/sep <- conv2_1/sep
I0109 10:44:54.411958  1663 net.cpp:395] relu2_1/sep -> conv2_1/sep (in-place)
I0109 10:44:54.412228  1663 net.cpp:150] Setting up relu2_1/sep
I0109 10:44:54.412242  1663 net.cpp:157] Top shape: 3 64 384 384 (28311552)
I0109 10:44:54.412246  1663 net.cpp:165] Memory required for data: 967849344
I0109 10:44:54.412250  1663 layer_factory.hpp:77] Creating layer conv2_2/dw
I0109 10:44:54.412266  1663 net.cpp:100] Creating Layer conv2_2/dw
I0109 10:44:54.412271  1663 net.cpp:434] conv2_2/dw <- conv2_1/sep
I0109 10:44:54.412278  1663 net.cpp:408] conv2_2/dw -> conv2_2/dw
I0109 10:44:54.412480  1663 net.cpp:150] Setting up conv2_2/dw
I0109 10:44:54.412488  1663 net.cpp:157] Top shape: 3 64 192 192 (7077888)
I0109 10:44:54.412492  1663 net.cpp:165] Memory required for data: 996160896
I0109 10:44:54.412497  1663 layer_factory.hpp:77] Creating layer conv2_2/dw/bn
I0109 10:44:54.412506  1663 net.cpp:100] Creating Layer conv2_2/dw/bn
I0109 10:44:54.412510  1663 net.cpp:434] conv2_2/dw/bn <- conv2_2/dw
I0109 10:44:54.412516  1663 net.cpp:395] conv2_2/dw/bn -> conv2_2/dw (in-place)
I0109 10:44:54.412715  1663 net.cpp:150] Setting up conv2_2/dw/bn
I0109 10:44:54.412724  1663 net.cpp:157] Top shape: 3 64 192 192 (7077888)
I0109 10:44:54.412729  1663 net.cpp:165] Memory required for data: 1024472448
I0109 10:44:54.412735  1663 layer_factory.hpp:77] Creating layer conv2_2/dw/scale
I0109 10:44:54.412744  1663 net.cpp:100] Creating Layer conv2_2/dw/scale
I0109 10:44:54.412748  1663 net.cpp:434] conv2_2/dw/scale <- conv2_2/dw
I0109 10:44:54.412755  1663 net.cpp:395] conv2_2/dw/scale -> conv2_2/dw (in-place)
I0109 10:44:54.412788  1663 layer_factory.hpp:77] Creating layer conv2_2/dw/scale
I0109 10:44:54.412946  1663 net.cpp:150] Setting up conv2_2/dw/scale
I0109 10:44:54.412957  1663 net.cpp:157] Top shape: 3 64 192 192 (7077888)
I0109 10:44:54.412961  1663 net.cpp:165] Memory required for data: 1052784000
I0109 10:44:54.412967  1663 layer_factory.hpp:77] Creating layer relu2_2/dw
I0109 10:44:54.412976  1663 net.cpp:100] Creating Layer relu2_2/dw
I0109 10:44:54.412979  1663 net.cpp:434] relu2_2/dw <- conv2_2/dw
I0109 10:44:54.412986  1663 net.cpp:395] relu2_2/dw -> conv2_2/dw (in-place)
I0109 10:44:54.413836  1663 net.cpp:150] Setting up relu2_2/dw
I0109 10:44:54.413851  1663 net.cpp:157] Top shape: 3 64 192 192 (7077888)
I0109 10:44:54.413856  1663 net.cpp:165] Memory required for data: 1081095552
I0109 10:44:54.413861  1663 layer_factory.hpp:77] Creating layer conv2_2/sep
I0109 10:44:54.413872  1663 net.cpp:100] Creating Layer conv2_2/sep
I0109 10:44:54.413875  1663 net.cpp:434] conv2_2/sep <- conv2_2/dw
I0109 10:44:54.413882  1663 net.cpp:408] conv2_2/sep -> conv2_2/sep
I0109 10:44:54.416319  1663 net.cpp:150] Setting up conv2_2/sep
I0109 10:44:54.416352  1663 net.cpp:157] Top shape: 3 128 192 192 (14155776)
I0109 10:44:54.416355  1663 net.cpp:165] Memory required for data: 1137718656
I0109 10:44:54.416364  1663 layer_factory.hpp:77] Creating layer conv2_2/sep/bn
I0109 10:44:54.416378  1663 net.cpp:100] Creating Layer conv2_2/sep/bn
I0109 10:44:54.416384  1663 net.cpp:434] conv2_2/sep/bn <- conv2_2/sep
I0109 10:44:54.416391  1663 net.cpp:395] conv2_2/sep/bn -> conv2_2/sep (in-place)
I0109 10:44:54.416579  1663 net.cpp:150] Setting up conv2_2/sep/bn
I0109 10:44:54.416586  1663 net.cpp:157] Top shape: 3 128 192 192 (14155776)
I0109 10:44:54.416589  1663 net.cpp:165] Memory required for data: 1194341760
I0109 10:44:54.416599  1663 layer_factory.hpp:77] Creating layer conv2_2/sep/scale
I0109 10:44:54.416610  1663 net.cpp:100] Creating Layer conv2_2/sep/scale
I0109 10:44:54.416615  1663 net.cpp:434] conv2_2/sep/scale <- conv2_2/sep
I0109 10:44:54.416622  1663 net.cpp:395] conv2_2/sep/scale -> conv2_2/sep (in-place)
I0109 10:44:54.416657  1663 layer_factory.hpp:77] Creating layer conv2_2/sep/scale
I0109 10:44:54.416797  1663 net.cpp:150] Setting up conv2_2/sep/scale
I0109 10:44:54.416805  1663 net.cpp:157] Top shape: 3 128 192 192 (14155776)
I0109 10:44:54.416810  1663 net.cpp:165] Memory required for data: 1250964864
I0109 10:44:54.416815  1663 layer_factory.hpp:77] Creating layer relu2_2/sep
I0109 10:44:54.416823  1663 net.cpp:100] Creating Layer relu2_2/sep
I0109 10:44:54.416827  1663 net.cpp:434] relu2_2/sep <- conv2_2/sep
I0109 10:44:54.416833  1663 net.cpp:395] relu2_2/sep -> conv2_2/sep (in-place)
I0109 10:44:54.417006  1663 net.cpp:150] Setting up relu2_2/sep
I0109 10:44:54.417014  1663 net.cpp:157] Top shape: 3 128 192 192 (14155776)
I0109 10:44:54.417018  1663 net.cpp:165] Memory required for data: 1307587968
I0109 10:44:54.417021  1663 layer_factory.hpp:77] Creating layer conv3_1/dw
I0109 10:44:54.417032  1663 net.cpp:100] Creating Layer conv3_1/dw
I0109 10:44:54.417037  1663 net.cpp:434] conv3_1/dw <- conv2_2/sep
I0109 10:44:54.417043  1663 net.cpp:408] conv3_1/dw -> conv3_1/dw
I0109 10:44:54.417237  1663 net.cpp:150] Setting up conv3_1/dw
I0109 10:44:54.417245  1663 net.cpp:157] Top shape: 3 128 192 192 (14155776)
I0109 10:44:54.417249  1663 net.cpp:165] Memory required for data: 1364211072
I0109 10:44:54.417254  1663 layer_factory.hpp:77] Creating layer conv3_1/dw/bn
I0109 10:44:54.417260  1663 net.cpp:100] Creating Layer conv3_1/dw/bn
I0109 10:44:54.417265  1663 net.cpp:434] conv3_1/dw/bn <- conv3_1/dw
I0109 10:44:54.417270  1663 net.cpp:395] conv3_1/dw/bn -> conv3_1/dw (in-place)
I0109 10:44:54.417445  1663 net.cpp:150] Setting up conv3_1/dw/bn
I0109 10:44:54.417454  1663 net.cpp:157] Top shape: 3 128 192 192 (14155776)
I0109 10:44:54.417459  1663 net.cpp:165] Memory required for data: 1420834176
I0109 10:44:54.417471  1663 layer_factory.hpp:77] Creating layer conv3_1/dw/scale
I0109 10:44:54.417482  1663 net.cpp:100] Creating Layer conv3_1/dw/scale
I0109 10:44:54.417486  1663 net.cpp:434] conv3_1/dw/scale <- conv3_1/dw
I0109 10:44:54.417492  1663 net.cpp:395] conv3_1/dw/scale -> conv3_1/dw (in-place)
I0109 10:44:54.417522  1663 layer_factory.hpp:77] Creating layer conv3_1/dw/scale
I0109 10:44:54.419291  1663 net.cpp:150] Setting up conv3_1/dw/scale
I0109 10:44:54.419339  1663 net.cpp:157] Top shape: 3 128 192 192 (14155776)
I0109 10:44:54.419344  1663 net.cpp:165] Memory required for data: 1477457280
I0109 10:44:54.419356  1663 layer_factory.hpp:77] Creating layer relu3_1/dw
I0109 10:44:54.419379  1663 net.cpp:100] Creating Layer relu3_1/dw
I0109 10:44:54.419389  1663 net.cpp:434] relu3_1/dw <- conv3_1/dw
I0109 10:44:54.419396  1663 net.cpp:395] relu3_1/dw -> conv3_1/dw (in-place)
I0109 10:44:54.419695  1663 net.cpp:150] Setting up relu3_1/dw
I0109 10:44:54.419709  1663 net.cpp:157] Top shape: 3 128 192 192 (14155776)
I0109 10:44:54.419713  1663 net.cpp:165] Memory required for data: 1534080384
I0109 10:44:54.419718  1663 layer_factory.hpp:77] Creating layer conv3_1/sep
I0109 10:44:54.419734  1663 net.cpp:100] Creating Layer conv3_1/sep
I0109 10:44:54.419736  1663 net.cpp:434] conv3_1/sep <- conv3_1/dw
I0109 10:44:54.419742  1663 net.cpp:408] conv3_1/sep -> conv3_1/sep
I0109 10:44:54.422448  1663 net.cpp:150] Setting up conv3_1/sep
I0109 10:44:54.422482  1663 net.cpp:157] Top shape: 3 128 192 192 (14155776)
I0109 10:44:54.422485  1663 net.cpp:165] Memory required for data: 1590703488
I0109 10:44:54.422495  1663 layer_factory.hpp:77] Creating layer conv3_1/sep/bn
I0109 10:44:54.422508  1663 net.cpp:100] Creating Layer conv3_1/sep/bn
I0109 10:44:54.422514  1663 net.cpp:434] conv3_1/sep/bn <- conv3_1/sep
I0109 10:44:54.422520  1663 net.cpp:395] conv3_1/sep/bn -> conv3_1/sep (in-place)
I0109 10:44:54.422698  1663 net.cpp:150] Setting up conv3_1/sep/bn
I0109 10:44:54.422705  1663 net.cpp:157] Top shape: 3 128 192 192 (14155776)
I0109 10:44:54.422709  1663 net.cpp:165] Memory required for data: 1647326592
I0109 10:44:54.422718  1663 layer_factory.hpp:77] Creating layer conv3_1/sep/scale
I0109 10:44:54.422727  1663 net.cpp:100] Creating Layer conv3_1/sep/scale
I0109 10:44:54.422731  1663 net.cpp:434] conv3_1/sep/scale <- conv3_1/sep
I0109 10:44:54.422736  1663 net.cpp:395] conv3_1/sep/scale -> conv3_1/sep (in-place)
I0109 10:44:54.422771  1663 layer_factory.hpp:77] Creating layer conv3_1/sep/scale
I0109 10:44:54.422894  1663 net.cpp:150] Setting up conv3_1/sep/scale
I0109 10:44:54.422902  1663 net.cpp:157] Top shape: 3 128 192 192 (14155776)
I0109 10:44:54.422906  1663 net.cpp:165] Memory required for data: 1703949696
I0109 10:44:54.422912  1663 layer_factory.hpp:77] Creating layer relu3_1/sep
I0109 10:44:54.422919  1663 net.cpp:100] Creating Layer relu3_1/sep
I0109 10:44:54.422922  1663 net.cpp:434] relu3_1/sep <- conv3_1/sep
I0109 10:44:54.422927  1663 net.cpp:395] relu3_1/sep -> conv3_1/sep (in-place)
I0109 10:44:54.423075  1663 net.cpp:150] Setting up relu3_1/sep
I0109 10:44:54.423084  1663 net.cpp:157] Top shape: 3 128 192 192 (14155776)
I0109 10:44:54.423089  1663 net.cpp:165] Memory required for data: 1760572800
I0109 10:44:54.423092  1663 layer_factory.hpp:77] Creating layer conv3_2/dw
I0109 10:44:54.423101  1663 net.cpp:100] Creating Layer conv3_2/dw
I0109 10:44:54.423105  1663 net.cpp:434] conv3_2/dw <- conv3_1/sep
I0109 10:44:54.423110  1663 net.cpp:408] conv3_2/dw -> conv3_2/dw
I0109 10:44:54.423300  1663 net.cpp:150] Setting up conv3_2/dw
I0109 10:44:54.423308  1663 net.cpp:157] Top shape: 3 128 96 96 (3538944)
I0109 10:44:54.423311  1663 net.cpp:165] Memory required for data: 1774728576
I0109 10:44:54.423316  1663 layer_factory.hpp:77] Creating layer conv3_2/dw/bn
I0109 10:44:54.423322  1663 net.cpp:100] Creating Layer conv3_2/dw/bn
I0109 10:44:54.423326  1663 net.cpp:434] conv3_2/dw/bn <- conv3_2/dw
I0109 10:44:54.423331  1663 net.cpp:395] conv3_2/dw/bn -> conv3_2/dw (in-place)
I0109 10:44:54.423486  1663 net.cpp:150] Setting up conv3_2/dw/bn
I0109 10:44:54.423494  1663 net.cpp:157] Top shape: 3 128 96 96 (3538944)
I0109 10:44:54.423497  1663 net.cpp:165] Memory required for data: 1788884352
I0109 10:44:54.423504  1663 layer_factory.hpp:77] Creating layer conv3_2/dw/scale
I0109 10:44:54.423511  1663 net.cpp:100] Creating Layer conv3_2/dw/scale
I0109 10:44:54.423516  1663 net.cpp:434] conv3_2/dw/scale <- conv3_2/dw
I0109 10:44:54.423519  1663 net.cpp:395] conv3_2/dw/scale -> conv3_2/dw (in-place)
I0109 10:44:54.423561  1663 layer_factory.hpp:77] Creating layer conv3_2/dw/scale
I0109 10:44:54.423669  1663 net.cpp:150] Setting up conv3_2/dw/scale
I0109 10:44:54.423678  1663 net.cpp:157] Top shape: 3 128 96 96 (3538944)
I0109 10:44:54.423682  1663 net.cpp:165] Memory required for data: 1803040128
I0109 10:44:54.423688  1663 layer_factory.hpp:77] Creating layer relu3_2/dw
I0109 10:44:54.423693  1663 net.cpp:100] Creating Layer relu3_2/dw
I0109 10:44:54.423698  1663 net.cpp:434] relu3_2/dw <- conv3_2/dw
I0109 10:44:54.423703  1663 net.cpp:395] relu3_2/dw -> conv3_2/dw (in-place)
I0109 10:44:54.423846  1663 net.cpp:150] Setting up relu3_2/dw
I0109 10:44:54.423854  1663 net.cpp:157] Top shape: 3 128 96 96 (3538944)
I0109 10:44:54.423859  1663 net.cpp:165] Memory required for data: 1817195904
I0109 10:44:54.423862  1663 layer_factory.hpp:77] Creating layer conv3_2/sep
I0109 10:44:54.423871  1663 net.cpp:100] Creating Layer conv3_2/sep
I0109 10:44:54.423877  1663 net.cpp:434] conv3_2/sep <- conv3_2/dw
I0109 10:44:54.423882  1663 net.cpp:408] conv3_2/sep -> conv3_2/sep
I0109 10:44:54.425673  1663 net.cpp:150] Setting up conv3_2/sep
I0109 10:44:54.425686  1663 net.cpp:157] Top shape: 3 256 96 96 (7077888)
I0109 10:44:54.425690  1663 net.cpp:165] Memory required for data: 1845507456
I0109 10:44:54.425714  1663 layer_factory.hpp:77] Creating layer conv3_2/sep/bn
I0109 10:44:54.425721  1663 net.cpp:100] Creating Layer conv3_2/sep/bn
I0109 10:44:54.425726  1663 net.cpp:434] conv3_2/sep/bn <- conv3_2/sep
I0109 10:44:54.425731  1663 net.cpp:395] conv3_2/sep/bn -> conv3_2/sep (in-place)
I0109 10:44:54.425900  1663 net.cpp:150] Setting up conv3_2/sep/bn
I0109 10:44:54.425909  1663 net.cpp:157] Top shape: 3 256 96 96 (7077888)
I0109 10:44:54.425911  1663 net.cpp:165] Memory required for data: 1873819008
I0109 10:44:54.425920  1663 layer_factory.hpp:77] Creating layer conv3_2/sep/scale
I0109 10:44:54.425925  1663 net.cpp:100] Creating Layer conv3_2/sep/scale
I0109 10:44:54.425930  1663 net.cpp:434] conv3_2/sep/scale <- conv3_2/sep
I0109 10:44:54.425935  1663 net.cpp:395] conv3_2/sep/scale -> conv3_2/sep (in-place)
I0109 10:44:54.425968  1663 layer_factory.hpp:77] Creating layer conv3_2/sep/scale
I0109 10:44:54.426087  1663 net.cpp:150] Setting up conv3_2/sep/scale
I0109 10:44:54.426095  1663 net.cpp:157] Top shape: 3 256 96 96 (7077888)
I0109 10:44:54.426100  1663 net.cpp:165] Memory required for data: 1902130560
I0109 10:44:54.426105  1663 layer_factory.hpp:77] Creating layer relu3_2/sep
I0109 10:44:54.426110  1663 net.cpp:100] Creating Layer relu3_2/sep
I0109 10:44:54.426113  1663 net.cpp:434] relu3_2/sep <- conv3_2/sep
I0109 10:44:54.426118  1663 net.cpp:395] relu3_2/sep -> conv3_2/sep (in-place)
I0109 10:44:54.426544  1663 net.cpp:150] Setting up relu3_2/sep
I0109 10:44:54.426556  1663 net.cpp:157] Top shape: 3 256 96 96 (7077888)
I0109 10:44:54.426561  1663 net.cpp:165] Memory required for data: 1930442112
I0109 10:44:54.426565  1663 layer_factory.hpp:77] Creating layer conv4_1/dw
I0109 10:44:54.426573  1663 net.cpp:100] Creating Layer conv4_1/dw
I0109 10:44:54.426578  1663 net.cpp:434] conv4_1/dw <- conv3_2/sep
I0109 10:44:54.426586  1663 net.cpp:408] conv4_1/dw -> conv4_1/dw
I0109 10:44:54.426806  1663 net.cpp:150] Setting up conv4_1/dw
I0109 10:44:54.426815  1663 net.cpp:157] Top shape: 3 256 96 96 (7077888)
I0109 10:44:54.426818  1663 net.cpp:165] Memory required for data: 1958753664
I0109 10:44:54.426823  1663 layer_factory.hpp:77] Creating layer conv4_1/dw/bn
I0109 10:44:54.426829  1663 net.cpp:100] Creating Layer conv4_1/dw/bn
I0109 10:44:54.426834  1663 net.cpp:434] conv4_1/dw/bn <- conv4_1/dw
I0109 10:44:54.426838  1663 net.cpp:395] conv4_1/dw/bn -> conv4_1/dw (in-place)
I0109 10:44:54.426998  1663 net.cpp:150] Setting up conv4_1/dw/bn
I0109 10:44:54.427006  1663 net.cpp:157] Top shape: 3 256 96 96 (7077888)
I0109 10:44:54.427011  1663 net.cpp:165] Memory required for data: 1987065216
I0109 10:44:54.427017  1663 layer_factory.hpp:77] Creating layer conv4_1/dw/scale
I0109 10:44:54.427024  1663 net.cpp:100] Creating Layer conv4_1/dw/scale
I0109 10:44:54.427028  1663 net.cpp:434] conv4_1/dw/scale <- conv4_1/dw
I0109 10:44:54.427033  1663 net.cpp:395] conv4_1/dw/scale -> conv4_1/dw (in-place)
I0109 10:44:54.427064  1663 layer_factory.hpp:77] Creating layer conv4_1/dw/scale
I0109 10:44:54.427158  1663 net.cpp:150] Setting up conv4_1/dw/scale
I0109 10:44:54.427166  1663 net.cpp:157] Top shape: 3 256 96 96 (7077888)
I0109 10:44:54.427171  1663 net.cpp:165] Memory required for data: 2015376768
I0109 10:44:54.427176  1663 layer_factory.hpp:77] Creating layer relu4_1/dw
I0109 10:44:54.427182  1663 net.cpp:100] Creating Layer relu4_1/dw
I0109 10:44:54.427186  1663 net.cpp:434] relu4_1/dw <- conv4_1/dw
I0109 10:44:54.427191  1663 net.cpp:395] relu4_1/dw -> conv4_1/dw (in-place)
I0109 10:44:54.427341  1663 net.cpp:150] Setting up relu4_1/dw
I0109 10:44:54.427350  1663 net.cpp:157] Top shape: 3 256 96 96 (7077888)
I0109 10:44:54.427354  1663 net.cpp:165] Memory required for data: 2043688320
I0109 10:44:54.427357  1663 layer_factory.hpp:77] Creating layer conv4_1/sep
I0109 10:44:54.427366  1663 net.cpp:100] Creating Layer conv4_1/sep
I0109 10:44:54.427369  1663 net.cpp:434] conv4_1/sep <- conv4_1/dw
I0109 10:44:54.427376  1663 net.cpp:408] conv4_1/sep -> conv4_1/sep
I0109 10:44:54.429932  1663 net.cpp:150] Setting up conv4_1/sep
I0109 10:44:54.429945  1663 net.cpp:157] Top shape: 3 256 96 96 (7077888)
I0109 10:44:54.429949  1663 net.cpp:165] Memory required for data: 2071999872
I0109 10:44:54.429955  1663 layer_factory.hpp:77] Creating layer conv4_1/sep/bn
I0109 10:44:54.429962  1663 net.cpp:100] Creating Layer conv4_1/sep/bn
I0109 10:44:54.429966  1663 net.cpp:434] conv4_1/sep/bn <- conv4_1/sep
I0109 10:44:54.429972  1663 net.cpp:395] conv4_1/sep/bn -> conv4_1/sep (in-place)
I0109 10:44:54.430137  1663 net.cpp:150] Setting up conv4_1/sep/bn
I0109 10:44:54.430145  1663 net.cpp:157] Top shape: 3 256 96 96 (7077888)
I0109 10:44:54.430148  1663 net.cpp:165] Memory required for data: 2100311424
I0109 10:44:54.430155  1663 layer_factory.hpp:77] Creating layer conv4_1/sep/scale
I0109 10:44:54.430163  1663 net.cpp:100] Creating Layer conv4_1/sep/scale
I0109 10:44:54.430168  1663 net.cpp:434] conv4_1/sep/scale <- conv4_1/sep
I0109 10:44:54.430173  1663 net.cpp:395] conv4_1/sep/scale -> conv4_1/sep (in-place)
I0109 10:44:54.430207  1663 layer_factory.hpp:77] Creating layer conv4_1/sep/scale
I0109 10:44:54.430305  1663 net.cpp:150] Setting up conv4_1/sep/scale
I0109 10:44:54.430312  1663 net.cpp:157] Top shape: 3 256 96 96 (7077888)
I0109 10:44:54.430317  1663 net.cpp:165] Memory required for data: 2128622976
I0109 10:44:54.430330  1663 layer_factory.hpp:77] Creating layer relu4_1/sep
I0109 10:44:54.430338  1663 net.cpp:100] Creating Layer relu4_1/sep
I0109 10:44:54.430342  1663 net.cpp:434] relu4_1/sep <- conv4_1/sep
I0109 10:44:54.430348  1663 net.cpp:395] relu4_1/sep -> conv4_1/sep (in-place)
I0109 10:44:54.430500  1663 net.cpp:150] Setting up relu4_1/sep
I0109 10:44:54.430508  1663 net.cpp:157] Top shape: 3 256 96 96 (7077888)
I0109 10:44:54.430513  1663 net.cpp:165] Memory required for data: 2156934528
I0109 10:44:54.430516  1663 layer_factory.hpp:77] Creating layer conv4_1/sep_relu4_1/sep_0_split
I0109 10:44:54.430524  1663 net.cpp:100] Creating Layer conv4_1/sep_relu4_1/sep_0_split
I0109 10:44:54.430529  1663 net.cpp:434] conv4_1/sep_relu4_1/sep_0_split <- conv4_1/sep
I0109 10:44:54.430536  1663 net.cpp:408] conv4_1/sep_relu4_1/sep_0_split -> conv4_1/sep_relu4_1/sep_0_split_0
I0109 10:44:54.430542  1663 net.cpp:408] conv4_1/sep_relu4_1/sep_0_split -> conv4_1/sep_relu4_1/sep_0_split_1
I0109 10:44:54.430547  1663 net.cpp:408] conv4_1/sep_relu4_1/sep_0_split -> conv4_1/sep_relu4_1/sep_0_split_2
I0109 10:44:54.430593  1663 net.cpp:150] Setting up conv4_1/sep_relu4_1/sep_0_split
I0109 10:44:54.430599  1663 net.cpp:157] Top shape: 3 256 96 96 (7077888)
I0109 10:44:54.430605  1663 net.cpp:157] Top shape: 3 256 96 96 (7077888)
I0109 10:44:54.430609  1663 net.cpp:157] Top shape: 3 256 96 96 (7077888)
I0109 10:44:54.430613  1663 net.cpp:165] Memory required for data: 2241869184
I0109 10:44:54.430615  1663 layer_factory.hpp:77] Creating layer buffer
I0109 10:44:54.430625  1663 net.cpp:100] Creating Layer buffer
I0109 10:44:54.430629  1663 net.cpp:434] buffer <- conv4_1/sep_relu4_1/sep_0_split_0
I0109 10:44:54.430634  1663 net.cpp:408] buffer -> buffer
I0109 10:44:54.446720  1663 net.cpp:150] Setting up buffer
I0109 10:44:54.446746  1663 net.cpp:157] Top shape: 3 256 96 96 (7077888)
I0109 10:44:54.446751  1663 net.cpp:165] Memory required for data: 2270180736
I0109 10:44:54.446760  1663 layer_factory.hpp:77] Creating layer relu_buffer
I0109 10:44:54.446772  1663 net.cpp:100] Creating Layer relu_buffer
I0109 10:44:54.446779  1663 net.cpp:434] relu_buffer <- buffer
I0109 10:44:54.446784  1663 net.cpp:395] relu_buffer -> buffer (in-place)
I0109 10:44:54.446949  1663 net.cpp:150] Setting up relu_buffer
I0109 10:44:54.446959  1663 net.cpp:157] Top shape: 3 256 96 96 (7077888)
I0109 10:44:54.446961  1663 net.cpp:165] Memory required for data: 2298492288
I0109 10:44:54.446965  1663 layer_factory.hpp:77] Creating layer attention
I0109 10:44:54.446974  1663 net.cpp:100] Creating Layer attention
I0109 10:44:54.446979  1663 net.cpp:434] attention <- buffer
I0109 10:44:54.446985  1663 net.cpp:408] attention -> attention
I0109 10:44:54.448268  1663 net.cpp:150] Setting up attention
I0109 10:44:54.448282  1663 net.cpp:157] Top shape: 3 3 96 96 (82944)
I0109 10:44:54.448285  1663 net.cpp:165] Memory required for data: 2298824064
I0109 10:44:54.448292  1663 layer_factory.hpp:77] Creating layer ch4_pool
I0109 10:44:54.448299  1663 net.cpp:100] Creating Layer ch4_pool
I0109 10:44:54.448303  1663 net.cpp:434] ch4_pool <- ch4
I0109 10:44:54.448308  1663 net.cpp:408] ch4_pool -> ch4_pool
I0109 10:44:54.448361  1663 net.cpp:150] Setting up ch4_pool
I0109 10:44:54.448369  1663 net.cpp:157] Top shape: 3 1 96 96 (27648)
I0109 10:44:54.448371  1663 net.cpp:165] Memory required for data: 2298934656
I0109 10:44:54.448375  1663 layer_factory.hpp:77] Creating layer loss_attention
I0109 10:44:54.448382  1663 net.cpp:100] Creating Layer loss_attention
I0109 10:44:54.448385  1663 net.cpp:434] loss_attention <- attention
I0109 10:44:54.448390  1663 net.cpp:434] loss_attention <- ch4_pool
I0109 10:44:54.448395  1663 net.cpp:408] loss_attention -> loss_attention
I0109 10:44:54.448405  1663 layer_factory.hpp:77] Creating layer loss_attention
I0109 10:44:54.449420  1663 net.cpp:150] Setting up loss_attention
I0109 10:44:54.449432  1663 net.cpp:157] Top shape: (1)
I0109 10:44:54.449435  1663 net.cpp:160]     with loss weight 1
I0109 10:44:54.449453  1663 net.cpp:165] Memory required for data: 2298934660
I0109 10:44:54.449456  1663 layer_factory.hpp:77] Creating layer loss1_conv1
I0109 10:44:54.449467  1663 net.cpp:100] Creating Layer loss1_conv1
I0109 10:44:54.449472  1663 net.cpp:434] loss1_conv1 <- conv4_1/sep_relu4_1/sep_0_split_1
I0109 10:44:54.449478  1663 net.cpp:408] loss1_conv1 -> loss1_conv1
I0109 10:44:54.466512  1663 net.cpp:150] Setting up loss1_conv1
I0109 10:44:54.466539  1663 net.cpp:157] Top shape: 3 256 96 96 (7077888)
I0109 10:44:54.466545  1663 net.cpp:165] Memory required for data: 2327246212
I0109 10:44:54.466554  1663 layer_factory.hpp:77] Creating layer loss_relu1
I0109 10:44:54.466567  1663 net.cpp:100] Creating Layer loss_relu1
I0109 10:44:54.466572  1663 net.cpp:434] loss_relu1 <- loss1_conv1
I0109 10:44:54.466578  1663 net.cpp:395] loss_relu1 -> loss1_conv1 (in-place)
I0109 10:44:54.467005  1663 net.cpp:150] Setting up loss_relu1
I0109 10:44:54.467017  1663 net.cpp:157] Top shape: 3 256 96 96 (7077888)
I0109 10:44:54.467021  1663 net.cpp:165] Memory required for data: 2355557764
I0109 10:44:54.467025  1663 layer_factory.hpp:77] Creating layer loss1_conv1_loss_relu1_0_split
I0109 10:44:54.467033  1663 net.cpp:100] Creating Layer loss1_conv1_loss_relu1_0_split
I0109 10:44:54.467037  1663 net.cpp:434] loss1_conv1_loss_relu1_0_split <- loss1_conv1
I0109 10:44:54.467043  1663 net.cpp:408] loss1_conv1_loss_relu1_0_split -> loss1_conv1_loss_relu1_0_split_0
I0109 10:44:54.467051  1663 net.cpp:408] loss1_conv1_loss_relu1_0_split -> loss1_conv1_loss_relu1_0_split_1
I0109 10:44:54.467093  1663 net.cpp:150] Setting up loss1_conv1_loss_relu1_0_split
I0109 10:44:54.467100  1663 net.cpp:157] Top shape: 3 256 96 96 (7077888)
I0109 10:44:54.467104  1663 net.cpp:157] Top shape: 3 256 96 96 (7077888)
I0109 10:44:54.467108  1663 net.cpp:165] Memory required for data: 2412180868
I0109 10:44:54.467110  1663 layer_factory.hpp:77] Creating layer LFCN_1_5x5
I0109 10:44:54.467120  1663 net.cpp:100] Creating Layer LFCN_1_5x5
I0109 10:44:54.467124  1663 net.cpp:434] LFCN_1_5x5 <- loss1_conv1_loss_relu1_0_split_0
I0109 10:44:54.467131  1663 net.cpp:408] LFCN_1_5x5 -> LFCN_1_5x5
I0109 10:44:54.469272  1663 net.cpp:150] Setting up LFCN_1_5x5
I0109 10:44:54.469285  1663 net.cpp:157] Top shape: 3 9 96 96 (248832)
I0109 10:44:54.469287  1663 net.cpp:165] Memory required for data: 2413176196
I0109 10:44:54.469293  1663 layer_factory.hpp:77] Creating layer LFCN_1_5x5_LFCN_1_5x5_0_split
I0109 10:44:54.469300  1663 net.cpp:100] Creating Layer LFCN_1_5x5_LFCN_1_5x5_0_split
I0109 10:44:54.469303  1663 net.cpp:434] LFCN_1_5x5_LFCN_1_5x5_0_split <- LFCN_1_5x5
I0109 10:44:54.469308  1663 net.cpp:408] LFCN_1_5x5_LFCN_1_5x5_0_split -> LFCN_1_5x5_LFCN_1_5x5_0_split_0
I0109 10:44:54.469316  1663 net.cpp:408] LFCN_1_5x5_LFCN_1_5x5_0_split -> LFCN_1_5x5_LFCN_1_5x5_0_split_1
I0109 10:44:54.469347  1663 net.cpp:150] Setting up LFCN_1_5x5_LFCN_1_5x5_0_split
I0109 10:44:54.469353  1663 net.cpp:157] Top shape: 3 9 96 96 (248832)
I0109 10:44:54.469358  1663 net.cpp:157] Top shape: 3 9 96 96 (248832)
I0109 10:44:54.469362  1663 net.cpp:165] Memory required for data: 2415166852
I0109 10:44:54.469364  1663 layer_factory.hpp:77] Creating layer detection_loss_1_5x5
I0109 10:44:54.469385  1663 net.cpp:100] Creating Layer detection_loss_1_5x5
I0109 10:44:54.469393  1663 net.cpp:434] detection_loss_1_5x5 <- LFCN_1_5x5_LFCN_1_5x5_0_split_0
I0109 10:44:54.469399  1663 net.cpp:434] detection_loss_1_5x5 <- label_1_5x5_data_1_split_0
I0109 10:44:54.469405  1663 net.cpp:408] detection_loss_1_5x5 -> loss_1_5x5
I0109 10:44:54.469418  1663 layer_factory.hpp:77] Creating layer detection_loss_1_5x5
I0109 10:44:54.470088  1663 net.cpp:150] Setting up detection_loss_1_5x5
I0109 10:44:54.470100  1663 net.cpp:157] Top shape: 1 1 1 2 (2)
I0109 10:44:54.470104  1663 net.cpp:160]     with loss weight 0.9
I0109 10:44:54.470115  1663 net.cpp:165] Memory required for data: 2415166860
I0109 10:44:54.470119  1663 layer_factory.hpp:77] Creating layer detection_accuracy_1_5x5
I0109 10:44:54.470127  1663 net.cpp:100] Creating Layer detection_accuracy_1_5x5
I0109 10:44:54.470131  1663 net.cpp:434] detection_accuracy_1_5x5 <- LFCN_1_5x5_LFCN_1_5x5_0_split_1
I0109 10:44:54.470136  1663 net.cpp:434] detection_accuracy_1_5x5 <- label_1_5x5_data_1_split_1
I0109 10:44:54.470140  1663 net.cpp:408] detection_accuracy_1_5x5 -> accuracy_1_5x5
I0109 10:44:54.470149  1663 net.cpp:408] detection_accuracy_1_5x5 -> boxiou_1_5x5
I0109 10:44:54.470185  1663 net.cpp:150] Setting up detection_accuracy_1_5x5
I0109 10:44:54.470191  1663 net.cpp:157] Top shape: 1 1 1 2 (2)
I0109 10:44:54.470194  1663 net.cpp:157] Top shape: 1 1 1 1 (1)
I0109 10:44:54.470198  1663 net.cpp:165] Memory required for data: 2415166872
I0109 10:44:54.470201  1663 layer_factory.hpp:77] Creating layer LFCN_1_7x7
I0109 10:44:54.470211  1663 net.cpp:100] Creating Layer LFCN_1_7x7
I0109 10:44:54.470214  1663 net.cpp:434] LFCN_1_7x7 <- loss1_conv1_loss_relu1_0_split_1
I0109 10:44:54.470221  1663 net.cpp:408] LFCN_1_7x7 -> LFCN_1_7x7
I0109 10:44:54.474035  1663 net.cpp:150] Setting up LFCN_1_7x7
I0109 10:44:54.474048  1663 net.cpp:157] Top shape: 3 9 96 96 (248832)
I0109 10:44:54.474053  1663 net.cpp:165] Memory required for data: 2416162200
I0109 10:44:54.474059  1663 layer_factory.hpp:77] Creating layer LFCN_1_7x7_LFCN_1_7x7_0_split
I0109 10:44:54.474066  1663 net.cpp:100] Creating Layer LFCN_1_7x7_LFCN_1_7x7_0_split
I0109 10:44:54.474069  1663 net.cpp:434] LFCN_1_7x7_LFCN_1_7x7_0_split <- LFCN_1_7x7
I0109 10:44:54.474076  1663 net.cpp:408] LFCN_1_7x7_LFCN_1_7x7_0_split -> LFCN_1_7x7_LFCN_1_7x7_0_split_0
I0109 10:44:54.474082  1663 net.cpp:408] LFCN_1_7x7_LFCN_1_7x7_0_split -> LFCN_1_7x7_LFCN_1_7x7_0_split_1
I0109 10:44:54.474117  1663 net.cpp:150] Setting up LFCN_1_7x7_LFCN_1_7x7_0_split
I0109 10:44:54.474123  1663 net.cpp:157] Top shape: 3 9 96 96 (248832)
I0109 10:44:54.474128  1663 net.cpp:157] Top shape: 3 9 96 96 (248832)
I0109 10:44:54.474130  1663 net.cpp:165] Memory required for data: 2418152856
I0109 10:44:54.474133  1663 layer_factory.hpp:77] Creating layer detection_loss_1_7x7
I0109 10:44:54.474140  1663 net.cpp:100] Creating Layer detection_loss_1_7x7
I0109 10:44:54.474144  1663 net.cpp:434] detection_loss_1_7x7 <- LFCN_1_7x7_LFCN_1_7x7_0_split_0
I0109 10:44:54.474149  1663 net.cpp:434] detection_loss_1_7x7 <- label_1_7x7_data_2_split_0
I0109 10:44:54.474156  1663 net.cpp:408] detection_loss_1_7x7 -> loss_1_7x7
I0109 10:44:54.474164  1663 layer_factory.hpp:77] Creating layer detection_loss_1_7x7
I0109 10:44:54.474530  1663 net.cpp:150] Setting up detection_loss_1_7x7
I0109 10:44:54.474540  1663 net.cpp:157] Top shape: 1 1 1 2 (2)
I0109 10:44:54.474544  1663 net.cpp:160]     with loss weight 0.9
I0109 10:44:54.474550  1663 net.cpp:165] Memory required for data: 2418152864
I0109 10:44:54.474553  1663 layer_factory.hpp:77] Creating layer detection_accuracy_1_7x7
I0109 10:44:54.474560  1663 net.cpp:100] Creating Layer detection_accuracy_1_7x7
I0109 10:44:54.474566  1663 net.cpp:434] detection_accuracy_1_7x7 <- LFCN_1_7x7_LFCN_1_7x7_0_split_1
I0109 10:44:54.474570  1663 net.cpp:434] detection_accuracy_1_7x7 <- label_1_7x7_data_2_split_1
I0109 10:44:54.474575  1663 net.cpp:408] detection_accuracy_1_7x7 -> accuracy_1_7x7
I0109 10:44:54.474583  1663 net.cpp:408] detection_accuracy_1_7x7 -> boxiou_1_7x7
I0109 10:44:54.474617  1663 net.cpp:150] Setting up detection_accuracy_1_7x7
I0109 10:44:54.474622  1663 net.cpp:157] Top shape: 1 1 1 2 (2)
I0109 10:44:54.474627  1663 net.cpp:157] Top shape: 1 1 1 1 (1)
I0109 10:44:54.474629  1663 net.cpp:165] Memory required for data: 2418152876
I0109 10:44:54.474633  1663 layer_factory.hpp:77] Creating layer conv4_2/dw
I0109 10:44:54.474642  1663 net.cpp:100] Creating Layer conv4_2/dw
I0109 10:44:54.474648  1663 net.cpp:434] conv4_2/dw <- conv4_1/sep_relu4_1/sep_0_split_2
I0109 10:44:54.474654  1663 net.cpp:408] conv4_2/dw -> conv4_2/dw
I0109 10:44:54.474936  1663 net.cpp:150] Setting up conv4_2/dw
I0109 10:44:54.474948  1663 net.cpp:157] Top shape: 3 256 48 48 (1769472)
I0109 10:44:54.474952  1663 net.cpp:165] Memory required for data: 2425230764
I0109 10:44:54.474959  1663 layer_factory.hpp:77] Creating layer conv4_2/dw/bn
I0109 10:44:54.474968  1663 net.cpp:100] Creating Layer conv4_2/dw/bn
I0109 10:44:54.474974  1663 net.cpp:434] conv4_2/dw/bn <- conv4_2/dw
I0109 10:44:54.474980  1663 net.cpp:395] conv4_2/dw/bn -> conv4_2/dw (in-place)
I0109 10:44:54.475152  1663 net.cpp:150] Setting up conv4_2/dw/bn
I0109 10:44:54.475159  1663 net.cpp:157] Top shape: 3 256 48 48 (1769472)
I0109 10:44:54.475163  1663 net.cpp:165] Memory required for data: 2432308652
I0109 10:44:54.475170  1663 layer_factory.hpp:77] Creating layer conv4_2/dw/scale
I0109 10:44:54.475179  1663 net.cpp:100] Creating Layer conv4_2/dw/scale
I0109 10:44:54.475183  1663 net.cpp:434] conv4_2/dw/scale <- conv4_2/dw
I0109 10:44:54.475188  1663 net.cpp:395] conv4_2/dw/scale -> conv4_2/dw (in-place)
I0109 10:44:54.475224  1663 layer_factory.hpp:77] Creating layer conv4_2/dw/scale
I0109 10:44:54.475318  1663 net.cpp:150] Setting up conv4_2/dw/scale
I0109 10:44:54.475325  1663 net.cpp:157] Top shape: 3 256 48 48 (1769472)
I0109 10:44:54.475328  1663 net.cpp:165] Memory required for data: 2439386540
I0109 10:44:54.475334  1663 layer_factory.hpp:77] Creating layer relu4_2/dw
I0109 10:44:54.475340  1663 net.cpp:100] Creating Layer relu4_2/dw
I0109 10:44:54.475345  1663 net.cpp:434] relu4_2/dw <- conv4_2/dw
I0109 10:44:54.475350  1663 net.cpp:395] relu4_2/dw -> conv4_2/dw (in-place)
I0109 10:44:54.475497  1663 net.cpp:150] Setting up relu4_2/dw
I0109 10:44:54.475507  1663 net.cpp:157] Top shape: 3 256 48 48 (1769472)
I0109 10:44:54.475512  1663 net.cpp:165] Memory required for data: 2446464428
I0109 10:44:54.475515  1663 layer_factory.hpp:77] Creating layer conv4_2/sep
I0109 10:44:54.475523  1663 net.cpp:100] Creating Layer conv4_2/sep
I0109 10:44:54.475528  1663 net.cpp:434] conv4_2/sep <- conv4_2/dw
I0109 10:44:54.475534  1663 net.cpp:408] conv4_2/sep -> conv4_2/sep
I0109 10:44:54.480825  1663 net.cpp:150] Setting up conv4_2/sep
I0109 10:44:54.480842  1663 net.cpp:157] Top shape: 3 512 48 48 (3538944)
I0109 10:44:54.480847  1663 net.cpp:165] Memory required for data: 2460620204
I0109 10:44:54.480854  1663 layer_factory.hpp:77] Creating layer conv4_2/sep/bn
I0109 10:44:54.480864  1663 net.cpp:100] Creating Layer conv4_2/sep/bn
I0109 10:44:54.480870  1663 net.cpp:434] conv4_2/sep/bn <- conv4_2/sep
I0109 10:44:54.480875  1663 net.cpp:395] conv4_2/sep/bn -> conv4_2/sep (in-place)
I0109 10:44:54.481099  1663 net.cpp:150] Setting up conv4_2/sep/bn
I0109 10:44:54.481106  1663 net.cpp:157] Top shape: 3 512 48 48 (3538944)
I0109 10:44:54.481110  1663 net.cpp:165] Memory required for data: 2474775980
I0109 10:44:54.481118  1663 layer_factory.hpp:77] Creating layer conv4_2/sep/scale
I0109 10:44:54.481127  1663 net.cpp:100] Creating Layer conv4_2/sep/scale
I0109 10:44:54.481130  1663 net.cpp:434] conv4_2/sep/scale <- conv4_2/sep
I0109 10:44:54.481137  1663 net.cpp:395] conv4_2/sep/scale -> conv4_2/sep (in-place)
I0109 10:44:54.481169  1663 layer_factory.hpp:77] Creating layer conv4_2/sep/scale
I0109 10:44:54.481267  1663 net.cpp:150] Setting up conv4_2/sep/scale
I0109 10:44:54.481274  1663 net.cpp:157] Top shape: 3 512 48 48 (3538944)
I0109 10:44:54.481278  1663 net.cpp:165] Memory required for data: 2488931756
I0109 10:44:54.481284  1663 layer_factory.hpp:77] Creating layer relu4_2/sep
I0109 10:44:54.481290  1663 net.cpp:100] Creating Layer relu4_2/sep
I0109 10:44:54.481297  1663 net.cpp:434] relu4_2/sep <- conv4_2/sep
I0109 10:44:54.481302  1663 net.cpp:395] relu4_2/sep -> conv4_2/sep (in-place)
I0109 10:44:54.481457  1663 net.cpp:150] Setting up relu4_2/sep
I0109 10:44:54.481467  1663 net.cpp:157] Top shape: 3 512 48 48 (3538944)
I0109 10:44:54.481470  1663 net.cpp:165] Memory required for data: 2503087532
I0109 10:44:54.481474  1663 layer_factory.hpp:77] Creating layer conv5_1/dw
I0109 10:44:54.481482  1663 net.cpp:100] Creating Layer conv5_1/dw
I0109 10:44:54.481488  1663 net.cpp:434] conv5_1/dw <- conv4_2/sep
I0109 10:44:54.481494  1663 net.cpp:408] conv5_1/dw -> conv5_1/dw
I0109 10:44:54.481797  1663 net.cpp:150] Setting up conv5_1/dw
I0109 10:44:54.481807  1663 net.cpp:157] Top shape: 3 512 48 48 (3538944)
I0109 10:44:54.481811  1663 net.cpp:165] Memory required for data: 2517243308
I0109 10:44:54.481815  1663 layer_factory.hpp:77] Creating layer conv5_1/dw/bn
I0109 10:44:54.481820  1663 net.cpp:100] Creating Layer conv5_1/dw/bn
I0109 10:44:54.481824  1663 net.cpp:434] conv5_1/dw/bn <- conv5_1/dw
I0109 10:44:54.481828  1663 net.cpp:395] conv5_1/dw/bn -> conv5_1/dw (in-place)
I0109 10:44:54.481997  1663 net.cpp:150] Setting up conv5_1/dw/bn
I0109 10:44:54.482003  1663 net.cpp:157] Top shape: 3 512 48 48 (3538944)
I0109 10:44:54.482007  1663 net.cpp:165] Memory required for data: 2531399084
I0109 10:44:54.482013  1663 layer_factory.hpp:77] Creating layer conv5_1/dw/scale
I0109 10:44:54.482019  1663 net.cpp:100] Creating Layer conv5_1/dw/scale
I0109 10:44:54.482023  1663 net.cpp:434] conv5_1/dw/scale <- conv5_1/dw
I0109 10:44:54.482028  1663 net.cpp:395] conv5_1/dw/scale -> conv5_1/dw (in-place)
I0109 10:44:54.482059  1663 layer_factory.hpp:77] Creating layer conv5_1/dw/scale
I0109 10:44:54.482157  1663 net.cpp:150] Setting up conv5_1/dw/scale
I0109 10:44:54.482165  1663 net.cpp:157] Top shape: 3 512 48 48 (3538944)
I0109 10:44:54.482168  1663 net.cpp:165] Memory required for data: 2545554860
I0109 10:44:54.482174  1663 layer_factory.hpp:77] Creating layer relu5_1/dw
I0109 10:44:54.482179  1663 net.cpp:100] Creating Layer relu5_1/dw
I0109 10:44:54.482183  1663 net.cpp:434] relu5_1/dw <- conv5_1/dw
I0109 10:44:54.482188  1663 net.cpp:395] relu5_1/dw -> conv5_1/dw (in-place)
I0109 10:44:54.482617  1663 net.cpp:150] Setting up relu5_1/dw
I0109 10:44:54.482630  1663 net.cpp:157] Top shape: 3 512 48 48 (3538944)
I0109 10:44:54.482632  1663 net.cpp:165] Memory required for data: 2559710636
I0109 10:44:54.482636  1663 layer_factory.hpp:77] Creating layer conv5_1/sep
I0109 10:44:54.482645  1663 net.cpp:100] Creating Layer conv5_1/sep
I0109 10:44:54.482650  1663 net.cpp:434] conv5_1/sep <- conv5_1/dw
I0109 10:44:54.482656  1663 net.cpp:408] conv5_1/sep -> conv5_1/sep
I0109 10:44:54.490445  1663 net.cpp:150] Setting up conv5_1/sep
I0109 10:44:54.490458  1663 net.cpp:157] Top shape: 3 512 48 48 (3538944)
I0109 10:44:54.490463  1663 net.cpp:165] Memory required for data: 2573866412
I0109 10:44:54.490468  1663 layer_factory.hpp:77] Creating layer conv5_1/sep/bn
I0109 10:44:54.490474  1663 net.cpp:100] Creating Layer conv5_1/sep/bn
I0109 10:44:54.490478  1663 net.cpp:434] conv5_1/sep/bn <- conv5_1/sep
I0109 10:44:54.490483  1663 net.cpp:395] conv5_1/sep/bn -> conv5_1/sep (in-place)
I0109 10:44:54.490656  1663 net.cpp:150] Setting up conv5_1/sep/bn
I0109 10:44:54.490664  1663 net.cpp:157] Top shape: 3 512 48 48 (3538944)
I0109 10:44:54.490666  1663 net.cpp:165] Memory required for data: 2588022188
I0109 10:44:54.490674  1663 layer_factory.hpp:77] Creating layer conv5_1/sep/scale
I0109 10:44:54.490679  1663 net.cpp:100] Creating Layer conv5_1/sep/scale
I0109 10:44:54.490682  1663 net.cpp:434] conv5_1/sep/scale <- conv5_1/sep
I0109 10:44:54.490689  1663 net.cpp:395] conv5_1/sep/scale -> conv5_1/sep (in-place)
I0109 10:44:54.490718  1663 layer_factory.hpp:77] Creating layer conv5_1/sep/scale
I0109 10:44:54.490811  1663 net.cpp:150] Setting up conv5_1/sep/scale
I0109 10:44:54.490818  1663 net.cpp:157] Top shape: 3 512 48 48 (3538944)
I0109 10:44:54.490823  1663 net.cpp:165] Memory required for data: 2602177964
I0109 10:44:54.490828  1663 layer_factory.hpp:77] Creating layer relu5_1/sep
I0109 10:44:54.490833  1663 net.cpp:100] Creating Layer relu5_1/sep
I0109 10:44:54.490836  1663 net.cpp:434] relu5_1/sep <- conv5_1/sep
I0109 10:44:54.490840  1663 net.cpp:395] relu5_1/sep -> conv5_1/sep (in-place)
I0109 10:44:54.491000  1663 net.cpp:150] Setting up relu5_1/sep
I0109 10:44:54.491009  1663 net.cpp:157] Top shape: 3 512 48 48 (3538944)
I0109 10:44:54.491012  1663 net.cpp:165] Memory required for data: 2616333740
I0109 10:44:54.491016  1663 layer_factory.hpp:77] Creating layer conv5_2/dw
I0109 10:44:54.491025  1663 net.cpp:100] Creating Layer conv5_2/dw
I0109 10:44:54.491029  1663 net.cpp:434] conv5_2/dw <- conv5_1/sep
I0109 10:44:54.491034  1663 net.cpp:408] conv5_2/dw -> conv5_2/dw
I0109 10:44:54.491313  1663 net.cpp:150] Setting up conv5_2/dw
I0109 10:44:54.491320  1663 net.cpp:157] Top shape: 3 512 48 48 (3538944)
I0109 10:44:54.491324  1663 net.cpp:165] Memory required for data: 2630489516
I0109 10:44:54.491329  1663 layer_factory.hpp:77] Creating layer conv5_2/dw/bn
I0109 10:44:54.491335  1663 net.cpp:100] Creating Layer conv5_2/dw/bn
I0109 10:44:54.491338  1663 net.cpp:434] conv5_2/dw/bn <- conv5_2/dw
I0109 10:44:54.491344  1663 net.cpp:395] conv5_2/dw/bn -> conv5_2/dw (in-place)
I0109 10:44:54.491515  1663 net.cpp:150] Setting up conv5_2/dw/bn
I0109 10:44:54.491523  1663 net.cpp:157] Top shape: 3 512 48 48 (3538944)
I0109 10:44:54.491526  1663 net.cpp:165] Memory required for data: 2644645292
I0109 10:44:54.491533  1663 layer_factory.hpp:77] Creating layer conv5_2/dw/scale
I0109 10:44:54.491539  1663 net.cpp:100] Creating Layer conv5_2/dw/scale
I0109 10:44:54.491544  1663 net.cpp:434] conv5_2/dw/scale <- conv5_2/dw
I0109 10:44:54.491547  1663 net.cpp:395] conv5_2/dw/scale -> conv5_2/dw (in-place)
I0109 10:44:54.491577  1663 layer_factory.hpp:77] Creating layer conv5_2/dw/scale
I0109 10:44:54.491674  1663 net.cpp:150] Setting up conv5_2/dw/scale
I0109 10:44:54.491683  1663 net.cpp:157] Top shape: 3 512 48 48 (3538944)
I0109 10:44:54.491686  1663 net.cpp:165] Memory required for data: 2658801068
I0109 10:44:54.491691  1663 layer_factory.hpp:77] Creating layer relu5_2/dw
I0109 10:44:54.491698  1663 net.cpp:100] Creating Layer relu5_2/dw
I0109 10:44:54.491700  1663 net.cpp:434] relu5_2/dw <- conv5_2/dw
I0109 10:44:54.491704  1663 net.cpp:395] relu5_2/dw -> conv5_2/dw (in-place)
I0109 10:44:54.491852  1663 net.cpp:150] Setting up relu5_2/dw
I0109 10:44:54.491860  1663 net.cpp:157] Top shape: 3 512 48 48 (3538944)
I0109 10:44:54.491863  1663 net.cpp:165] Memory required for data: 2672956844
I0109 10:44:54.491866  1663 layer_factory.hpp:77] Creating layer conv5_2/sep
I0109 10:44:54.491874  1663 net.cpp:100] Creating Layer conv5_2/sep
I0109 10:44:54.491878  1663 net.cpp:434] conv5_2/sep <- conv5_2/dw
I0109 10:44:54.491884  1663 net.cpp:408] conv5_2/sep -> conv5_2/sep
I0109 10:44:54.500773  1663 net.cpp:150] Setting up conv5_2/sep
I0109 10:44:54.500808  1663 net.cpp:157] Top shape: 3 512 48 48 (3538944)
I0109 10:44:54.500811  1663 net.cpp:165] Memory required for data: 2687112620
I0109 10:44:54.500819  1663 layer_factory.hpp:77] Creating layer conv5_2/sep/bn
I0109 10:44:54.500834  1663 net.cpp:100] Creating Layer conv5_2/sep/bn
I0109 10:44:54.500840  1663 net.cpp:434] conv5_2/sep/bn <- conv5_2/sep
I0109 10:44:54.500847  1663 net.cpp:395] conv5_2/sep/bn -> conv5_2/sep (in-place)
I0109 10:44:54.501029  1663 net.cpp:150] Setting up conv5_2/sep/bn
I0109 10:44:54.501035  1663 net.cpp:157] Top shape: 3 512 48 48 (3538944)
I0109 10:44:54.501039  1663 net.cpp:165] Memory required for data: 2701268396
I0109 10:44:54.501046  1663 layer_factory.hpp:77] Creating layer conv5_2/sep/scale
I0109 10:44:54.501057  1663 net.cpp:100] Creating Layer conv5_2/sep/scale
I0109 10:44:54.501060  1663 net.cpp:434] conv5_2/sep/scale <- conv5_2/sep
I0109 10:44:54.501065  1663 net.cpp:395] conv5_2/sep/scale -> conv5_2/sep (in-place)
I0109 10:44:54.501101  1663 layer_factory.hpp:77] Creating layer conv5_2/sep/scale
I0109 10:44:54.501204  1663 net.cpp:150] Setting up conv5_2/sep/scale
I0109 10:44:54.501211  1663 net.cpp:157] Top shape: 3 512 48 48 (3538944)
I0109 10:44:54.501214  1663 net.cpp:165] Memory required for data: 2715424172
I0109 10:44:54.501219  1663 layer_factory.hpp:77] Creating layer relu5_2/sep
I0109 10:44:54.501225  1663 net.cpp:100] Creating Layer relu5_2/sep
I0109 10:44:54.501230  1663 net.cpp:434] relu5_2/sep <- conv5_2/sep
I0109 10:44:54.501235  1663 net.cpp:395] relu5_2/sep -> conv5_2/sep (in-place)
I0109 10:44:54.501389  1663 net.cpp:150] Setting up relu5_2/sep
I0109 10:44:54.501397  1663 net.cpp:157] Top shape: 3 512 48 48 (3538944)
I0109 10:44:54.501401  1663 net.cpp:165] Memory required for data: 2729579948
I0109 10:44:54.501405  1663 layer_factory.hpp:77] Creating layer conv5_3/dw
I0109 10:44:54.501413  1663 net.cpp:100] Creating Layer conv5_3/dw
I0109 10:44:54.501417  1663 net.cpp:434] conv5_3/dw <- conv5_2/sep
I0109 10:44:54.501425  1663 net.cpp:408] conv5_3/dw -> conv5_3/dw
I0109 10:44:54.501737  1663 net.cpp:150] Setting up conv5_3/dw
I0109 10:44:54.501749  1663 net.cpp:157] Top shape: 3 512 48 48 (3538944)
I0109 10:44:54.501754  1663 net.cpp:165] Memory required for data: 2743735724
I0109 10:44:54.501760  1663 layer_factory.hpp:77] Creating layer conv5_3/dw/bn
I0109 10:44:54.501770  1663 net.cpp:100] Creating Layer conv5_3/dw/bn
I0109 10:44:54.501775  1663 net.cpp:434] conv5_3/dw/bn <- conv5_3/dw
I0109 10:44:54.501781  1663 net.cpp:395] conv5_3/dw/bn -> conv5_3/dw (in-place)
I0109 10:44:54.501965  1663 net.cpp:150] Setting up conv5_3/dw/bn
I0109 10:44:54.501976  1663 net.cpp:157] Top shape: 3 512 48 48 (3538944)
I0109 10:44:54.501979  1663 net.cpp:165] Memory required for data: 2757891500
I0109 10:44:54.501989  1663 layer_factory.hpp:77] Creating layer conv5_3/dw/scale
I0109 10:44:54.502002  1663 net.cpp:100] Creating Layer conv5_3/dw/scale
I0109 10:44:54.502008  1663 net.cpp:434] conv5_3/dw/scale <- conv5_3/dw
I0109 10:44:54.502015  1663 net.cpp:395] conv5_3/dw/scale -> conv5_3/dw (in-place)
I0109 10:44:54.502053  1663 layer_factory.hpp:77] Creating layer conv5_3/dw/scale
I0109 10:44:54.502166  1663 net.cpp:150] Setting up conv5_3/dw/scale
I0109 10:44:54.502177  1663 net.cpp:157] Top shape: 3 512 48 48 (3538944)
I0109 10:44:54.502180  1663 net.cpp:165] Memory required for data: 2772047276
I0109 10:44:54.502185  1663 layer_factory.hpp:77] Creating layer relu5_3/dw
I0109 10:44:54.502192  1663 net.cpp:100] Creating Layer relu5_3/dw
I0109 10:44:54.502194  1663 net.cpp:434] relu5_3/dw <- conv5_3/dw
I0109 10:44:54.502202  1663 net.cpp:395] relu5_3/dw -> conv5_3/dw (in-place)
I0109 10:44:54.502358  1663 net.cpp:150] Setting up relu5_3/dw
I0109 10:44:54.502368  1663 net.cpp:157] Top shape: 3 512 48 48 (3538944)
I0109 10:44:54.502372  1663 net.cpp:165] Memory required for data: 2786203052
I0109 10:44:54.502375  1663 layer_factory.hpp:77] Creating layer conv5_3/sep
I0109 10:44:54.502383  1663 net.cpp:100] Creating Layer conv5_3/sep
I0109 10:44:54.502388  1663 net.cpp:434] conv5_3/sep <- conv5_3/dw
I0109 10:44:54.502393  1663 net.cpp:408] conv5_3/sep -> conv5_3/sep
I0109 10:44:54.510809  1663 net.cpp:150] Setting up conv5_3/sep
I0109 10:44:54.510843  1663 net.cpp:157] Top shape: 3 512 48 48 (3538944)
I0109 10:44:54.510848  1663 net.cpp:165] Memory required for data: 2800358828
I0109 10:44:54.510856  1663 layer_factory.hpp:77] Creating layer conv5_3/sep/bn
I0109 10:44:54.510870  1663 net.cpp:100] Creating Layer conv5_3/sep/bn
I0109 10:44:54.510877  1663 net.cpp:434] conv5_3/sep/bn <- conv5_3/sep
I0109 10:44:54.510885  1663 net.cpp:395] conv5_3/sep/bn -> conv5_3/sep (in-place)
I0109 10:44:54.511066  1663 net.cpp:150] Setting up conv5_3/sep/bn
I0109 10:44:54.511073  1663 net.cpp:157] Top shape: 3 512 48 48 (3538944)
I0109 10:44:54.511077  1663 net.cpp:165] Memory required for data: 2814514604
I0109 10:44:54.511085  1663 layer_factory.hpp:77] Creating layer conv5_3/sep/scale
I0109 10:44:54.511095  1663 net.cpp:100] Creating Layer conv5_3/sep/scale
I0109 10:44:54.511097  1663 net.cpp:434] conv5_3/sep/scale <- conv5_3/sep
I0109 10:44:54.511102  1663 net.cpp:395] conv5_3/sep/scale -> conv5_3/sep (in-place)
I0109 10:44:54.511137  1663 layer_factory.hpp:77] Creating layer conv5_3/sep/scale
I0109 10:44:54.511235  1663 net.cpp:150] Setting up conv5_3/sep/scale
I0109 10:44:54.511242  1663 net.cpp:157] Top shape: 3 512 48 48 (3538944)
I0109 10:44:54.511245  1663 net.cpp:165] Memory required for data: 2828670380
I0109 10:44:54.511250  1663 layer_factory.hpp:77] Creating layer relu5_3/sep
I0109 10:44:54.511257  1663 net.cpp:100] Creating Layer relu5_3/sep
I0109 10:44:54.511261  1663 net.cpp:434] relu5_3/sep <- conv5_3/sep
I0109 10:44:54.511265  1663 net.cpp:395] relu5_3/sep -> conv5_3/sep (in-place)
I0109 10:44:54.511692  1663 net.cpp:150] Setting up relu5_3/sep
I0109 10:44:54.511703  1663 net.cpp:157] Top shape: 3 512 48 48 (3538944)
I0109 10:44:54.511708  1663 net.cpp:165] Memory required for data: 2842826156
I0109 10:44:54.511710  1663 layer_factory.hpp:77] Creating layer conv5_4/dw
I0109 10:44:54.511720  1663 net.cpp:100] Creating Layer conv5_4/dw
I0109 10:44:54.511724  1663 net.cpp:434] conv5_4/dw <- conv5_3/sep
I0109 10:44:54.511731  1663 net.cpp:408] conv5_4/dw -> conv5_4/dw
I0109 10:44:54.512024  1663 net.cpp:150] Setting up conv5_4/dw
I0109 10:44:54.512032  1663 net.cpp:157] Top shape: 3 512 48 48 (3538944)
I0109 10:44:54.512035  1663 net.cpp:165] Memory required for data: 2856981932
I0109 10:44:54.512039  1663 layer_factory.hpp:77] Creating layer conv5_4/dw/bn
I0109 10:44:54.512044  1663 net.cpp:100] Creating Layer conv5_4/dw/bn
I0109 10:44:54.512048  1663 net.cpp:434] conv5_4/dw/bn <- conv5_4/dw
I0109 10:44:54.512053  1663 net.cpp:395] conv5_4/dw/bn -> conv5_4/dw (in-place)
I0109 10:44:54.512219  1663 net.cpp:150] Setting up conv5_4/dw/bn
I0109 10:44:54.512226  1663 net.cpp:157] Top shape: 3 512 48 48 (3538944)
I0109 10:44:54.512229  1663 net.cpp:165] Memory required for data: 2871137708
I0109 10:44:54.512236  1663 layer_factory.hpp:77] Creating layer conv5_4/dw/scale
I0109 10:44:54.512241  1663 net.cpp:100] Creating Layer conv5_4/dw/scale
I0109 10:44:54.512245  1663 net.cpp:434] conv5_4/dw/scale <- conv5_4/dw
I0109 10:44:54.512250  1663 net.cpp:395] conv5_4/dw/scale -> conv5_4/dw (in-place)
I0109 10:44:54.512280  1663 layer_factory.hpp:77] Creating layer conv5_4/dw/scale
I0109 10:44:54.512377  1663 net.cpp:150] Setting up conv5_4/dw/scale
I0109 10:44:54.512382  1663 net.cpp:157] Top shape: 3 512 48 48 (3538944)
I0109 10:44:54.512387  1663 net.cpp:165] Memory required for data: 2885293484
I0109 10:44:54.512405  1663 layer_factory.hpp:77] Creating layer relu5_4/dw
I0109 10:44:54.512411  1663 net.cpp:100] Creating Layer relu5_4/dw
I0109 10:44:54.512415  1663 net.cpp:434] relu5_4/dw <- conv5_4/dw
I0109 10:44:54.512419  1663 net.cpp:395] relu5_4/dw -> conv5_4/dw (in-place)
I0109 10:44:54.512573  1663 net.cpp:150] Setting up relu5_4/dw
I0109 10:44:54.512583  1663 net.cpp:157] Top shape: 3 512 48 48 (3538944)
I0109 10:44:54.512585  1663 net.cpp:165] Memory required for data: 2899449260
I0109 10:44:54.512589  1663 layer_factory.hpp:77] Creating layer conv5_4/sep
I0109 10:44:54.512596  1663 net.cpp:100] Creating Layer conv5_4/sep
I0109 10:44:54.512599  1663 net.cpp:434] conv5_4/sep <- conv5_4/dw
I0109 10:44:54.512606  1663 net.cpp:408] conv5_4/sep -> conv5_4/sep
I0109 10:44:54.522482  1663 net.cpp:150] Setting up conv5_4/sep
I0109 10:44:54.522511  1663 net.cpp:157] Top shape: 3 512 48 48 (3538944)
I0109 10:44:54.522516  1663 net.cpp:165] Memory required for data: 2913605036
I0109 10:44:54.522523  1663 layer_factory.hpp:77] Creating layer conv5_4/sep/bn
I0109 10:44:54.522537  1663 net.cpp:100] Creating Layer conv5_4/sep/bn
I0109 10:44:54.522544  1663 net.cpp:434] conv5_4/sep/bn <- conv5_4/sep
I0109 10:44:54.522550  1663 net.cpp:395] conv5_4/sep/bn -> conv5_4/sep (in-place)
I0109 10:44:54.522728  1663 net.cpp:150] Setting up conv5_4/sep/bn
I0109 10:44:54.522735  1663 net.cpp:157] Top shape: 3 512 48 48 (3538944)
I0109 10:44:54.522738  1663 net.cpp:165] Memory required for data: 2927760812
I0109 10:44:54.522745  1663 layer_factory.hpp:77] Creating layer conv5_4/sep/scale
I0109 10:44:54.522754  1663 net.cpp:100] Creating Layer conv5_4/sep/scale
I0109 10:44:54.522759  1663 net.cpp:434] conv5_4/sep/scale <- conv5_4/sep
I0109 10:44:54.522765  1663 net.cpp:395] conv5_4/sep/scale -> conv5_4/sep (in-place)
I0109 10:44:54.522797  1663 layer_factory.hpp:77] Creating layer conv5_4/sep/scale
I0109 10:44:54.522895  1663 net.cpp:150] Setting up conv5_4/sep/scale
I0109 10:44:54.522902  1663 net.cpp:157] Top shape: 3 512 48 48 (3538944)
I0109 10:44:54.522905  1663 net.cpp:165] Memory required for data: 2941916588
I0109 10:44:54.522912  1663 layer_factory.hpp:77] Creating layer relu5_4/sep
I0109 10:44:54.522917  1663 net.cpp:100] Creating Layer relu5_4/sep
I0109 10:44:54.522922  1663 net.cpp:434] relu5_4/sep <- conv5_4/sep
I0109 10:44:54.522927  1663 net.cpp:395] relu5_4/sep -> conv5_4/sep (in-place)
I0109 10:44:54.523139  1663 net.cpp:150] Setting up relu5_4/sep
I0109 10:44:54.523152  1663 net.cpp:157] Top shape: 3 512 48 48 (3538944)
I0109 10:44:54.523157  1663 net.cpp:165] Memory required for data: 2956072364
I0109 10:44:54.523164  1663 layer_factory.hpp:77] Creating layer conv5_5/dw
I0109 10:44:54.523178  1663 net.cpp:100] Creating Layer conv5_5/dw
I0109 10:44:54.523185  1663 net.cpp:434] conv5_5/dw <- conv5_4/sep
I0109 10:44:54.523192  1663 net.cpp:408] conv5_5/dw -> conv5_5/dw
I0109 10:44:54.523608  1663 net.cpp:150] Setting up conv5_5/dw
I0109 10:44:54.523622  1663 net.cpp:157] Top shape: 3 512 48 48 (3538944)
I0109 10:44:54.523627  1663 net.cpp:165] Memory required for data: 2970228140
I0109 10:44:54.523633  1663 layer_factory.hpp:77] Creating layer conv5_5/dw/bn
I0109 10:44:54.523643  1663 net.cpp:100] Creating Layer conv5_5/dw/bn
I0109 10:44:54.523649  1663 net.cpp:434] conv5_5/dw/bn <- conv5_5/dw
I0109 10:44:54.523655  1663 net.cpp:395] conv5_5/dw/bn -> conv5_5/dw (in-place)
I0109 10:44:54.523887  1663 net.cpp:150] Setting up conv5_5/dw/bn
I0109 10:44:54.523900  1663 net.cpp:157] Top shape: 3 512 48 48 (3538944)
I0109 10:44:54.523905  1663 net.cpp:165] Memory required for data: 2984383916
I0109 10:44:54.523916  1663 layer_factory.hpp:77] Creating layer conv5_5/dw/scale
I0109 10:44:54.523924  1663 net.cpp:100] Creating Layer conv5_5/dw/scale
I0109 10:44:54.523931  1663 net.cpp:434] conv5_5/dw/scale <- conv5_5/dw
I0109 10:44:54.523939  1663 net.cpp:395] conv5_5/dw/scale -> conv5_5/dw (in-place)
I0109 10:44:54.523983  1663 layer_factory.hpp:77] Creating layer conv5_5/dw/scale
I0109 10:44:54.524114  1663 net.cpp:150] Setting up conv5_5/dw/scale
I0109 10:44:54.524125  1663 net.cpp:157] Top shape: 3 512 48 48 (3538944)
I0109 10:44:54.524132  1663 net.cpp:165] Memory required for data: 2998539692
I0109 10:44:54.524139  1663 layer_factory.hpp:77] Creating layer relu5_5/dw
I0109 10:44:54.524147  1663 net.cpp:100] Creating Layer relu5_5/dw
I0109 10:44:54.524152  1663 net.cpp:434] relu5_5/dw <- conv5_5/dw
I0109 10:44:54.524157  1663 net.cpp:395] relu5_5/dw -> conv5_5/dw (in-place)
I0109 10:44:54.524368  1663 net.cpp:150] Setting up relu5_5/dw
I0109 10:44:54.524379  1663 net.cpp:157] Top shape: 3 512 48 48 (3538944)
I0109 10:44:54.524384  1663 net.cpp:165] Memory required for data: 3012695468
I0109 10:44:54.524389  1663 layer_factory.hpp:77] Creating layer conv5_5/sep
I0109 10:44:54.524400  1663 net.cpp:100] Creating Layer conv5_5/sep
I0109 10:44:54.524407  1663 net.cpp:434] conv5_5/sep <- conv5_5/dw
I0109 10:44:54.524416  1663 net.cpp:408] conv5_5/sep -> conv5_5/sep
I0109 10:44:54.532146  1663 net.cpp:150] Setting up conv5_5/sep
I0109 10:44:54.532169  1663 net.cpp:157] Top shape: 3 512 48 48 (3538944)
I0109 10:44:54.532173  1663 net.cpp:165] Memory required for data: 3026851244
I0109 10:44:54.532181  1663 layer_factory.hpp:77] Creating layer conv5_5/sep/bn
I0109 10:44:54.532191  1663 net.cpp:100] Creating Layer conv5_5/sep/bn
I0109 10:44:54.532196  1663 net.cpp:434] conv5_5/sep/bn <- conv5_5/sep
I0109 10:44:54.532202  1663 net.cpp:395] conv5_5/sep/bn -> conv5_5/sep (in-place)
I0109 10:44:54.532378  1663 net.cpp:150] Setting up conv5_5/sep/bn
I0109 10:44:54.532387  1663 net.cpp:157] Top shape: 3 512 48 48 (3538944)
I0109 10:44:54.532389  1663 net.cpp:165] Memory required for data: 3041007020
I0109 10:44:54.532397  1663 layer_factory.hpp:77] Creating layer conv5_5/sep/scale
I0109 10:44:54.532404  1663 net.cpp:100] Creating Layer conv5_5/sep/scale
I0109 10:44:54.532408  1663 net.cpp:434] conv5_5/sep/scale <- conv5_5/sep
I0109 10:44:54.532413  1663 net.cpp:395] conv5_5/sep/scale -> conv5_5/sep (in-place)
I0109 10:44:54.532446  1663 layer_factory.hpp:77] Creating layer conv5_5/sep/scale
I0109 10:44:54.532548  1663 net.cpp:150] Setting up conv5_5/sep/scale
I0109 10:44:54.532555  1663 net.cpp:157] Top shape: 3 512 48 48 (3538944)
I0109 10:44:54.532559  1663 net.cpp:165] Memory required for data: 3055162796
I0109 10:44:54.532564  1663 layer_factory.hpp:77] Creating layer relu5_5/sep
I0109 10:44:54.532570  1663 net.cpp:100] Creating Layer relu5_5/sep
I0109 10:44:54.532574  1663 net.cpp:434] relu5_5/sep <- conv5_5/sep
I0109 10:44:54.532579  1663 net.cpp:395] relu5_5/sep -> conv5_5/sep (in-place)
I0109 10:44:54.533035  1663 net.cpp:150] Setting up relu5_5/sep
I0109 10:44:54.533049  1663 net.cpp:157] Top shape: 3 512 48 48 (3538944)
I0109 10:44:54.533053  1663 net.cpp:165] Memory required for data: 3069318572
I0109 10:44:54.533058  1663 layer_factory.hpp:77] Creating layer conv5_5/sep_relu5_5/sep_0_split
I0109 10:44:54.533066  1663 net.cpp:100] Creating Layer conv5_5/sep_relu5_5/sep_0_split
I0109 10:44:54.533072  1663 net.cpp:434] conv5_5/sep_relu5_5/sep_0_split <- conv5_5/sep
I0109 10:44:54.533079  1663 net.cpp:408] conv5_5/sep_relu5_5/sep_0_split -> conv5_5/sep_relu5_5/sep_0_split_0
I0109 10:44:54.533089  1663 net.cpp:408] conv5_5/sep_relu5_5/sep_0_split -> conv5_5/sep_relu5_5/sep_0_split_1
I0109 10:44:54.533097  1663 net.cpp:408] conv5_5/sep_relu5_5/sep_0_split -> conv5_5/sep_relu5_5/sep_0_split_2
I0109 10:44:54.533154  1663 net.cpp:150] Setting up conv5_5/sep_relu5_5/sep_0_split
I0109 10:44:54.533161  1663 net.cpp:157] Top shape: 3 512 48 48 (3538944)
I0109 10:44:54.533166  1663 net.cpp:157] Top shape: 3 512 48 48 (3538944)
I0109 10:44:54.533171  1663 net.cpp:157] Top shape: 3 512 48 48 (3538944)
I0109 10:44:54.533176  1663 net.cpp:165] Memory required for data: 3111785900
I0109 10:44:54.533180  1663 layer_factory.hpp:77] Creating layer LFCN_2_5x5
I0109 10:44:54.533191  1663 net.cpp:100] Creating Layer LFCN_2_5x5
I0109 10:44:54.533196  1663 net.cpp:434] LFCN_2_5x5 <- conv5_5/sep_relu5_5/sep_0_split_0
I0109 10:44:54.533202  1663 net.cpp:408] LFCN_2_5x5 -> LFCN_2_5x5
I0109 10:44:54.536780  1663 net.cpp:150] Setting up LFCN_2_5x5
I0109 10:44:54.536792  1663 net.cpp:157] Top shape: 3 9 48 48 (62208)
I0109 10:44:54.536794  1663 net.cpp:165] Memory required for data: 3112034732
I0109 10:44:54.536800  1663 layer_factory.hpp:77] Creating layer LFCN_2_5x5_LFCN_2_5x5_0_split
I0109 10:44:54.536805  1663 net.cpp:100] Creating Layer LFCN_2_5x5_LFCN_2_5x5_0_split
I0109 10:44:54.536809  1663 net.cpp:434] LFCN_2_5x5_LFCN_2_5x5_0_split <- LFCN_2_5x5
I0109 10:44:54.536815  1663 net.cpp:408] LFCN_2_5x5_LFCN_2_5x5_0_split -> LFCN_2_5x5_LFCN_2_5x5_0_split_0
I0109 10:44:54.536821  1663 net.cpp:408] LFCN_2_5x5_LFCN_2_5x5_0_split -> LFCN_2_5x5_LFCN_2_5x5_0_split_1
I0109 10:44:54.536854  1663 net.cpp:150] Setting up LFCN_2_5x5_LFCN_2_5x5_0_split
I0109 10:44:54.536859  1663 net.cpp:157] Top shape: 3 9 48 48 (62208)
I0109 10:44:54.536862  1663 net.cpp:157] Top shape: 3 9 48 48 (62208)
I0109 10:44:54.536865  1663 net.cpp:165] Memory required for data: 3112532396
I0109 10:44:54.536870  1663 layer_factory.hpp:77] Creating layer detection_loss_2_5x5
I0109 10:44:54.536877  1663 net.cpp:100] Creating Layer detection_loss_2_5x5
I0109 10:44:54.536881  1663 net.cpp:434] detection_loss_2_5x5 <- LFCN_2_5x5_LFCN_2_5x5_0_split_0
I0109 10:44:54.536885  1663 net.cpp:434] detection_loss_2_5x5 <- label_2_5x5_data_3_split_0
I0109 10:44:54.536891  1663 net.cpp:408] detection_loss_2_5x5 -> loss_2_5x5
I0109 10:44:54.536900  1663 layer_factory.hpp:77] Creating layer detection_loss_2_5x5
I0109 10:44:54.537539  1663 net.cpp:150] Setting up detection_loss_2_5x5
I0109 10:44:54.537551  1663 net.cpp:157] Top shape: 1 1 1 2 (2)
I0109 10:44:54.537554  1663 net.cpp:160]     with loss weight 1
I0109 10:44:54.537566  1663 net.cpp:165] Memory required for data: 3112532404
I0109 10:44:54.537569  1663 layer_factory.hpp:77] Creating layer detection_accuracy_2_5x5
I0109 10:44:54.537577  1663 net.cpp:100] Creating Layer detection_accuracy_2_5x5
I0109 10:44:54.537582  1663 net.cpp:434] detection_accuracy_2_5x5 <- LFCN_2_5x5_LFCN_2_5x5_0_split_1
I0109 10:44:54.537586  1663 net.cpp:434] detection_accuracy_2_5x5 <- label_2_5x5_data_3_split_1
I0109 10:44:54.537592  1663 net.cpp:408] detection_accuracy_2_5x5 -> accuracy_2_5x5
I0109 10:44:54.537600  1663 net.cpp:408] detection_accuracy_2_5x5 -> boxiou_2_5x5
I0109 10:44:54.537634  1663 net.cpp:150] Setting up detection_accuracy_2_5x5
I0109 10:44:54.537641  1663 net.cpp:157] Top shape: 1 1 1 2 (2)
I0109 10:44:54.537644  1663 net.cpp:157] Top shape: 1 1 1 1 (1)
I0109 10:44:54.537647  1663 net.cpp:165] Memory required for data: 3112532416
I0109 10:44:54.537650  1663 layer_factory.hpp:77] Creating layer LFCN_2_7x7
I0109 10:44:54.537659  1663 net.cpp:100] Creating Layer LFCN_2_7x7
I0109 10:44:54.537663  1663 net.cpp:434] LFCN_2_7x7 <- conv5_5/sep_relu5_5/sep_0_split_1
I0109 10:44:54.537670  1663 net.cpp:408] LFCN_2_7x7 -> LFCN_2_7x7
I0109 10:44:54.545161  1663 net.cpp:150] Setting up LFCN_2_7x7
I0109 10:44:54.545176  1663 net.cpp:157] Top shape: 3 9 48 48 (62208)
I0109 10:44:54.545179  1663 net.cpp:165] Memory required for data: 3112781248
I0109 10:44:54.545186  1663 layer_factory.hpp:77] Creating layer LFCN_2_7x7_LFCN_2_7x7_0_split
I0109 10:44:54.545194  1663 net.cpp:100] Creating Layer LFCN_2_7x7_LFCN_2_7x7_0_split
I0109 10:44:54.545198  1663 net.cpp:434] LFCN_2_7x7_LFCN_2_7x7_0_split <- LFCN_2_7x7
I0109 10:44:54.545204  1663 net.cpp:408] LFCN_2_7x7_LFCN_2_7x7_0_split -> LFCN_2_7x7_LFCN_2_7x7_0_split_0
I0109 10:44:54.545212  1663 net.cpp:408] LFCN_2_7x7_LFCN_2_7x7_0_split -> LFCN_2_7x7_LFCN_2_7x7_0_split_1
I0109 10:44:54.545245  1663 net.cpp:150] Setting up LFCN_2_7x7_LFCN_2_7x7_0_split
I0109 10:44:54.545251  1663 net.cpp:157] Top shape: 3 9 48 48 (62208)
I0109 10:44:54.545255  1663 net.cpp:157] Top shape: 3 9 48 48 (62208)
I0109 10:44:54.545258  1663 net.cpp:165] Memory required for data: 3113278912
I0109 10:44:54.545262  1663 layer_factory.hpp:77] Creating layer detection_loss_2_7x7
I0109 10:44:54.545269  1663 net.cpp:100] Creating Layer detection_loss_2_7x7
I0109 10:44:54.545274  1663 net.cpp:434] detection_loss_2_7x7 <- LFCN_2_7x7_LFCN_2_7x7_0_split_0
I0109 10:44:54.545279  1663 net.cpp:434] detection_loss_2_7x7 <- label_2_7x7_data_4_split_0
I0109 10:44:54.545284  1663 net.cpp:408] detection_loss_2_7x7 -> loss_2_7x7
I0109 10:44:54.545291  1663 layer_factory.hpp:77] Creating layer detection_loss_2_7x7
I0109 10:44:54.545606  1663 net.cpp:150] Setting up detection_loss_2_7x7
I0109 10:44:54.545615  1663 net.cpp:157] Top shape: 1 1 1 2 (2)
I0109 10:44:54.545619  1663 net.cpp:160]     with loss weight 1
I0109 10:44:54.545627  1663 net.cpp:165] Memory required for data: 3113278920
I0109 10:44:54.545630  1663 layer_factory.hpp:77] Creating layer detection_accuracy_2_7x7
I0109 10:44:54.545639  1663 net.cpp:100] Creating Layer detection_accuracy_2_7x7
I0109 10:44:54.545642  1663 net.cpp:434] detection_accuracy_2_7x7 <- LFCN_2_7x7_LFCN_2_7x7_0_split_1
I0109 10:44:54.545646  1663 net.cpp:434] detection_accuracy_2_7x7 <- label_2_7x7_data_4_split_1
I0109 10:44:54.545652  1663 net.cpp:408] detection_accuracy_2_7x7 -> accuracy_2_7x7
I0109 10:44:54.545660  1663 net.cpp:408] detection_accuracy_2_7x7 -> boxiou_2_7x7
I0109 10:44:54.545699  1663 net.cpp:150] Setting up detection_accuracy_2_7x7
I0109 10:44:54.545708  1663 net.cpp:157] Top shape: 1 1 1 2 (2)
I0109 10:44:54.545712  1663 net.cpp:157] Top shape: 1 1 1 1 (1)
I0109 10:44:54.545714  1663 net.cpp:165] Memory required for data: 3113278932
I0109 10:44:54.545718  1663 layer_factory.hpp:77] Creating layer conv5_6/dw
I0109 10:44:54.545725  1663 net.cpp:100] Creating Layer conv5_6/dw
I0109 10:44:54.545729  1663 net.cpp:434] conv5_6/dw <- conv5_5/sep_relu5_5/sep_0_split_2
I0109 10:44:54.545735  1663 net.cpp:408] conv5_6/dw -> conv5_6/dw
I0109 10:44:54.546022  1663 net.cpp:150] Setting up conv5_6/dw
I0109 10:44:54.546030  1663 net.cpp:157] Top shape: 3 512 24 24 (884736)
I0109 10:44:54.546032  1663 net.cpp:165] Memory required for data: 3116817876
I0109 10:44:54.546037  1663 layer_factory.hpp:77] Creating layer conv5_6/dw/bn
I0109 10:44:54.546053  1663 net.cpp:100] Creating Layer conv5_6/dw/bn
I0109 10:44:54.546058  1663 net.cpp:434] conv5_6/dw/bn <- conv5_6/dw
I0109 10:44:54.546062  1663 net.cpp:395] conv5_6/dw/bn -> conv5_6/dw (in-place)
I0109 10:44:54.546234  1663 net.cpp:150] Setting up conv5_6/dw/bn
I0109 10:44:54.546241  1663 net.cpp:157] Top shape: 3 512 24 24 (884736)
I0109 10:44:54.546244  1663 net.cpp:165] Memory required for data: 3120356820
I0109 10:44:54.546252  1663 layer_factory.hpp:77] Creating layer conv5_6/dw/scale
I0109 10:44:54.546260  1663 net.cpp:100] Creating Layer conv5_6/dw/scale
I0109 10:44:54.546264  1663 net.cpp:434] conv5_6/dw/scale <- conv5_6/dw
I0109 10:44:54.546269  1663 net.cpp:395] conv5_6/dw/scale -> conv5_6/dw (in-place)
I0109 10:44:54.546308  1663 layer_factory.hpp:77] Creating layer conv5_6/dw/scale
I0109 10:44:54.546409  1663 net.cpp:150] Setting up conv5_6/dw/scale
I0109 10:44:54.546416  1663 net.cpp:157] Top shape: 3 512 24 24 (884736)
I0109 10:44:54.546419  1663 net.cpp:165] Memory required for data: 3123895764
I0109 10:44:54.546424  1663 layer_factory.hpp:77] Creating layer relu5_6/dw
I0109 10:44:54.546432  1663 net.cpp:100] Creating Layer relu5_6/dw
I0109 10:44:54.546437  1663 net.cpp:434] relu5_6/dw <- conv5_6/dw
I0109 10:44:54.546442  1663 net.cpp:395] relu5_6/dw -> conv5_6/dw (in-place)
I0109 10:44:54.546591  1663 net.cpp:150] Setting up relu5_6/dw
I0109 10:44:54.546598  1663 net.cpp:157] Top shape: 3 512 24 24 (884736)
I0109 10:44:54.546602  1663 net.cpp:165] Memory required for data: 3127434708
I0109 10:44:54.546605  1663 layer_factory.hpp:77] Creating layer conv5_6/sep
I0109 10:44:54.546613  1663 net.cpp:100] Creating Layer conv5_6/sep
I0109 10:44:54.546618  1663 net.cpp:434] conv5_6/sep <- conv5_6/dw
I0109 10:44:54.546624  1663 net.cpp:408] conv5_6/sep -> conv5_6/sep
I0109 10:44:54.562393  1663 net.cpp:150] Setting up conv5_6/sep
I0109 10:44:54.562422  1663 net.cpp:157] Top shape: 3 1024 24 24 (1769472)
I0109 10:44:54.562427  1663 net.cpp:165] Memory required for data: 3134512596
I0109 10:44:54.562434  1663 layer_factory.hpp:77] Creating layer conv5_6/sep/bn
I0109 10:44:54.562446  1663 net.cpp:100] Creating Layer conv5_6/sep/bn
I0109 10:44:54.562453  1663 net.cpp:434] conv5_6/sep/bn <- conv5_6/sep
I0109 10:44:54.562459  1663 net.cpp:395] conv5_6/sep/bn -> conv5_6/sep (in-place)
I0109 10:44:54.562649  1663 net.cpp:150] Setting up conv5_6/sep/bn
I0109 10:44:54.562655  1663 net.cpp:157] Top shape: 3 1024 24 24 (1769472)
I0109 10:44:54.562659  1663 net.cpp:165] Memory required for data: 3141590484
I0109 10:44:54.562665  1663 layer_factory.hpp:77] Creating layer conv5_6/sep/scale
I0109 10:44:54.562674  1663 net.cpp:100] Creating Layer conv5_6/sep/scale
I0109 10:44:54.562677  1663 net.cpp:434] conv5_6/sep/scale <- conv5_6/sep
I0109 10:44:54.562683  1663 net.cpp:395] conv5_6/sep/scale -> conv5_6/sep (in-place)
I0109 10:44:54.562721  1663 layer_factory.hpp:77] Creating layer conv5_6/sep/scale
I0109 10:44:54.562822  1663 net.cpp:150] Setting up conv5_6/sep/scale
I0109 10:44:54.562829  1663 net.cpp:157] Top shape: 3 1024 24 24 (1769472)
I0109 10:44:54.562832  1663 net.cpp:165] Memory required for data: 3148668372
I0109 10:44:54.562837  1663 layer_factory.hpp:77] Creating layer relu5_6/sep
I0109 10:44:54.562844  1663 net.cpp:100] Creating Layer relu5_6/sep
I0109 10:44:54.562847  1663 net.cpp:434] relu5_6/sep <- conv5_6/sep
I0109 10:44:54.562851  1663 net.cpp:395] relu5_6/sep -> conv5_6/sep (in-place)
I0109 10:44:54.563031  1663 net.cpp:150] Setting up relu5_6/sep
I0109 10:44:54.563041  1663 net.cpp:157] Top shape: 3 1024 24 24 (1769472)
I0109 10:44:54.563045  1663 net.cpp:165] Memory required for data: 3155746260
I0109 10:44:54.563050  1663 layer_factory.hpp:77] Creating layer conv6/dw
I0109 10:44:54.563061  1663 net.cpp:100] Creating Layer conv6/dw
I0109 10:44:54.563066  1663 net.cpp:434] conv6/dw <- conv5_6/sep
I0109 10:44:54.563072  1663 net.cpp:408] conv6/dw -> conv6/dw
I0109 10:44:54.563506  1663 net.cpp:150] Setting up conv6/dw
I0109 10:44:54.563518  1663 net.cpp:157] Top shape: 3 1024 24 24 (1769472)
I0109 10:44:54.563524  1663 net.cpp:165] Memory required for data: 3162824148
I0109 10:44:54.563537  1663 layer_factory.hpp:77] Creating layer conv6/dw/bn
I0109 10:44:54.563565  1663 net.cpp:100] Creating Layer conv6/dw/bn
I0109 10:44:54.563577  1663 net.cpp:434] conv6/dw/bn <- conv6/dw
I0109 10:44:54.563587  1663 net.cpp:395] conv6/dw/bn -> conv6/dw (in-place)
I0109 10:44:54.564038  1663 net.cpp:150] Setting up conv6/dw/bn
I0109 10:44:54.564124  1663 net.cpp:157] Top shape: 3 1024 24 24 (1769472)
I0109 10:44:54.564143  1663 net.cpp:165] Memory required for data: 3169902036
I0109 10:44:54.564167  1663 layer_factory.hpp:77] Creating layer conv6/dw/scale
I0109 10:44:54.564208  1663 net.cpp:100] Creating Layer conv6/dw/scale
I0109 10:44:54.564220  1663 net.cpp:434] conv6/dw/scale <- conv6/dw
I0109 10:44:54.564239  1663 net.cpp:395] conv6/dw/scale -> conv6/dw (in-place)
I0109 10:44:54.564469  1663 layer_factory.hpp:77] Creating layer conv6/dw/scale
I0109 10:44:54.564810  1663 net.cpp:150] Setting up conv6/dw/scale
I0109 10:44:54.564858  1663 net.cpp:157] Top shape: 3 1024 24 24 (1769472)
I0109 10:44:54.564865  1663 net.cpp:165] Memory required for data: 3176979924
I0109 10:44:54.564878  1663 layer_factory.hpp:77] Creating layer relu6/dw
I0109 10:44:54.564895  1663 net.cpp:100] Creating Layer relu6/dw
I0109 10:44:54.564903  1663 net.cpp:434] relu6/dw <- conv6/dw
I0109 10:44:54.564913  1663 net.cpp:395] relu6/dw -> conv6/dw (in-place)
I0109 10:44:54.565832  1663 net.cpp:150] Setting up relu6/dw
I0109 10:44:54.565860  1663 net.cpp:157] Top shape: 3 1024 24 24 (1769472)
I0109 10:44:54.565866  1663 net.cpp:165] Memory required for data: 3184057812
I0109 10:44:54.565876  1663 layer_factory.hpp:77] Creating layer conv6/sep
I0109 10:44:54.565901  1663 net.cpp:100] Creating Layer conv6/sep
I0109 10:44:54.565909  1663 net.cpp:434] conv6/sep <- conv6/dw
I0109 10:44:54.565920  1663 net.cpp:408] conv6/sep -> conv6/sep
I0109 10:44:54.595841  1663 net.cpp:150] Setting up conv6/sep
I0109 10:44:54.595875  1663 net.cpp:157] Top shape: 3 1024 24 24 (1769472)
I0109 10:44:54.595880  1663 net.cpp:165] Memory required for data: 3191135700
I0109 10:44:54.595891  1663 layer_factory.hpp:77] Creating layer conv6/sep/bn
I0109 10:44:54.595903  1663 net.cpp:100] Creating Layer conv6/sep/bn
I0109 10:44:54.595912  1663 net.cpp:434] conv6/sep/bn <- conv6/sep
I0109 10:44:54.595922  1663 net.cpp:395] conv6/sep/bn -> conv6/sep (in-place)
I0109 10:44:54.596155  1663 net.cpp:150] Setting up conv6/sep/bn
I0109 10:44:54.596168  1663 net.cpp:157] Top shape: 3 1024 24 24 (1769472)
I0109 10:44:54.596174  1663 net.cpp:165] Memory required for data: 3198213588
I0109 10:44:54.596185  1663 layer_factory.hpp:77] Creating layer conv6/sep/scale
I0109 10:44:54.596200  1663 net.cpp:100] Creating Layer conv6/sep/scale
I0109 10:44:54.596208  1663 net.cpp:434] conv6/sep/scale <- conv6/sep
I0109 10:44:54.596220  1663 net.cpp:395] conv6/sep/scale -> conv6/sep (in-place)
I0109 10:44:54.596277  1663 layer_factory.hpp:77] Creating layer conv6/sep/scale
I0109 10:44:54.596390  1663 net.cpp:150] Setting up conv6/sep/scale
I0109 10:44:54.596398  1663 net.cpp:157] Top shape: 3 1024 24 24 (1769472)
I0109 10:44:54.596403  1663 net.cpp:165] Memory required for data: 3205291476
I0109 10:44:54.596411  1663 layer_factory.hpp:77] Creating layer relu6/sep
I0109 10:44:54.596421  1663 net.cpp:100] Creating Layer relu6/sep
I0109 10:44:54.596426  1663 net.cpp:434] relu6/sep <- conv6/sep
I0109 10:44:54.596434  1663 net.cpp:395] relu6/sep -> conv6/sep (in-place)
I0109 10:44:54.596993  1663 net.cpp:150] Setting up relu6/sep
I0109 10:44:54.597007  1663 net.cpp:157] Top shape: 3 1024 24 24 (1769472)
I0109 10:44:54.597012  1663 net.cpp:165] Memory required for data: 3212369364
I0109 10:44:54.597016  1663 layer_factory.hpp:77] Creating layer conv6/sep_relu6/sep_0_split
I0109 10:44:54.597024  1663 net.cpp:100] Creating Layer conv6/sep_relu6/sep_0_split
I0109 10:44:54.597029  1663 net.cpp:434] conv6/sep_relu6/sep_0_split <- conv6/sep
I0109 10:44:54.597038  1663 net.cpp:408] conv6/sep_relu6/sep_0_split -> conv6/sep_relu6/sep_0_split_0
I0109 10:44:54.597050  1663 net.cpp:408] conv6/sep_relu6/sep_0_split -> conv6/sep_relu6/sep_0_split_1
I0109 10:44:54.597059  1663 net.cpp:408] conv6/sep_relu6/sep_0_split -> conv6/sep_relu6/sep_0_split_2
I0109 10:44:54.597115  1663 net.cpp:150] Setting up conv6/sep_relu6/sep_0_split
I0109 10:44:54.597124  1663 net.cpp:157] Top shape: 3 1024 24 24 (1769472)
I0109 10:44:54.597131  1663 net.cpp:157] Top shape: 3 1024 24 24 (1769472)
I0109 10:44:54.597136  1663 net.cpp:157] Top shape: 3 1024 24 24 (1769472)
I0109 10:44:54.597141  1663 net.cpp:165] Memory required for data: 3233603028
I0109 10:44:54.597144  1663 layer_factory.hpp:77] Creating layer LFCN_3_5x5
I0109 10:44:54.597157  1663 net.cpp:100] Creating Layer LFCN_3_5x5
I0109 10:44:54.597164  1663 net.cpp:434] LFCN_3_5x5 <- conv6/sep_relu6/sep_0_split_0
I0109 10:44:54.597174  1663 net.cpp:408] LFCN_3_5x5 -> LFCN_3_5x5
I0109 10:44:54.604012  1663 net.cpp:150] Setting up LFCN_3_5x5
I0109 10:44:54.604027  1663 net.cpp:157] Top shape: 3 9 24 24 (15552)
I0109 10:44:54.604032  1663 net.cpp:165] Memory required for data: 3233665236
I0109 10:44:54.604040  1663 layer_factory.hpp:77] Creating layer LFCN_3_5x5_LFCN_3_5x5_0_split
I0109 10:44:54.604049  1663 net.cpp:100] Creating Layer LFCN_3_5x5_LFCN_3_5x5_0_split
I0109 10:44:54.604056  1663 net.cpp:434] LFCN_3_5x5_LFCN_3_5x5_0_split <- LFCN_3_5x5
I0109 10:44:54.604066  1663 net.cpp:408] LFCN_3_5x5_LFCN_3_5x5_0_split -> LFCN_3_5x5_LFCN_3_5x5_0_split_0
I0109 10:44:54.604077  1663 net.cpp:408] LFCN_3_5x5_LFCN_3_5x5_0_split -> LFCN_3_5x5_LFCN_3_5x5_0_split_1
I0109 10:44:54.604120  1663 net.cpp:150] Setting up LFCN_3_5x5_LFCN_3_5x5_0_split
I0109 10:44:54.604130  1663 net.cpp:157] Top shape: 3 9 24 24 (15552)
I0109 10:44:54.604136  1663 net.cpp:157] Top shape: 3 9 24 24 (15552)
I0109 10:44:54.604140  1663 net.cpp:165] Memory required for data: 3233789652
I0109 10:44:54.604146  1663 layer_factory.hpp:77] Creating layer detection_loss_3_5x5
I0109 10:44:54.604153  1663 net.cpp:100] Creating Layer detection_loss_3_5x5
I0109 10:44:54.604161  1663 net.cpp:434] detection_loss_3_5x5 <- LFCN_3_5x5_LFCN_3_5x5_0_split_0
I0109 10:44:54.604167  1663 net.cpp:434] detection_loss_3_5x5 <- label_3_5x5_data_5_split_0
I0109 10:44:54.604178  1663 net.cpp:408] detection_loss_3_5x5 -> loss_3_5x5
I0109 10:44:54.604192  1663 layer_factory.hpp:77] Creating layer detection_loss_3_5x5
I0109 10:44:54.604501  1663 net.cpp:150] Setting up detection_loss_3_5x5
I0109 10:44:54.604513  1663 net.cpp:157] Top shape: 1 1 1 2 (2)
I0109 10:44:54.604517  1663 net.cpp:160]     with loss weight 1
I0109 10:44:54.604532  1663 net.cpp:165] Memory required for data: 3233789660
I0109 10:44:54.604537  1663 layer_factory.hpp:77] Creating layer detection_accuracy_3_5x5
I0109 10:44:54.604547  1663 net.cpp:100] Creating Layer detection_accuracy_3_5x5
I0109 10:44:54.604553  1663 net.cpp:434] detection_accuracy_3_5x5 <- LFCN_3_5x5_LFCN_3_5x5_0_split_1
I0109 10:44:54.604562  1663 net.cpp:434] detection_accuracy_3_5x5 <- label_3_5x5_data_5_split_1
I0109 10:44:54.604573  1663 net.cpp:408] detection_accuracy_3_5x5 -> accuracy_3_5x5
I0109 10:44:54.604583  1663 net.cpp:408] detection_accuracy_3_5x5 -> boxiou_3_5x5
I0109 10:44:54.604625  1663 net.cpp:150] Setting up detection_accuracy_3_5x5
I0109 10:44:54.604635  1663 net.cpp:157] Top shape: 1 1 1 2 (2)
I0109 10:44:54.604640  1663 net.cpp:157] Top shape: 1 1 1 1 (1)
I0109 10:44:54.604645  1663 net.cpp:165] Memory required for data: 3233789672
I0109 10:44:54.604648  1663 layer_factory.hpp:77] Creating layer LFCN_3_7x7
I0109 10:44:54.604660  1663 net.cpp:100] Creating Layer LFCN_3_7x7
I0109 10:44:54.604667  1663 net.cpp:434] LFCN_3_7x7 <- conv6/sep_relu6/sep_0_split_1
I0109 10:44:54.604676  1663 net.cpp:408] LFCN_3_7x7 -> LFCN_3_7x7
I0109 10:44:54.619189  1663 net.cpp:150] Setting up LFCN_3_7x7
I0109 10:44:54.619238  1663 net.cpp:157] Top shape: 3 9 24 24 (15552)
I0109 10:44:54.619243  1663 net.cpp:165] Memory required for data: 3233851880
I0109 10:44:54.619261  1663 layer_factory.hpp:77] Creating layer LFCN_3_7x7_LFCN_3_7x7_0_split
I0109 10:44:54.619285  1663 net.cpp:100] Creating Layer LFCN_3_7x7_LFCN_3_7x7_0_split
I0109 10:44:54.619295  1663 net.cpp:434] LFCN_3_7x7_LFCN_3_7x7_0_split <- LFCN_3_7x7
I0109 10:44:54.619307  1663 net.cpp:408] LFCN_3_7x7_LFCN_3_7x7_0_split -> LFCN_3_7x7_LFCN_3_7x7_0_split_0
I0109 10:44:54.619323  1663 net.cpp:408] LFCN_3_7x7_LFCN_3_7x7_0_split -> LFCN_3_7x7_LFCN_3_7x7_0_split_1
I0109 10:44:54.619372  1663 net.cpp:150] Setting up LFCN_3_7x7_LFCN_3_7x7_0_split
I0109 10:44:54.619381  1663 net.cpp:157] Top shape: 3 9 24 24 (15552)
I0109 10:44:54.619387  1663 net.cpp:157] Top shape: 3 9 24 24 (15552)
I0109 10:44:54.619391  1663 net.cpp:165] Memory required for data: 3233976296
I0109 10:44:54.619395  1663 layer_factory.hpp:77] Creating layer detection_loss_3_7x7
I0109 10:44:54.619410  1663 net.cpp:100] Creating Layer detection_loss_3_7x7
I0109 10:44:54.619415  1663 net.cpp:434] detection_loss_3_7x7 <- LFCN_3_7x7_LFCN_3_7x7_0_split_0
I0109 10:44:54.619421  1663 net.cpp:434] detection_loss_3_7x7 <- label_3_7x7_data_6_split_0
I0109 10:44:54.619429  1663 net.cpp:408] detection_loss_3_7x7 -> loss_3_7x7
I0109 10:44:54.619443  1663 layer_factory.hpp:77] Creating layer detection_loss_3_7x7
I0109 10:44:54.619829  1663 net.cpp:150] Setting up detection_loss_3_7x7
I0109 10:44:54.619843  1663 net.cpp:157] Top shape: 1 1 1 2 (2)
I0109 10:44:54.619848  1663 net.cpp:160]     with loss weight 1
I0109 10:44:54.619870  1663 net.cpp:165] Memory required for data: 3233976304
I0109 10:44:54.619875  1663 layer_factory.hpp:77] Creating layer detection_accuracy_3_7x7
I0109 10:44:54.619886  1663 net.cpp:100] Creating Layer detection_accuracy_3_7x7
I0109 10:44:54.619892  1663 net.cpp:434] detection_accuracy_3_7x7 <- LFCN_3_7x7_LFCN_3_7x7_0_split_1
I0109 10:44:54.619899  1663 net.cpp:434] detection_accuracy_3_7x7 <- label_3_7x7_data_6_split_1
I0109 10:44:54.619910  1663 net.cpp:408] detection_accuracy_3_7x7 -> accuracy_3_7x7
I0109 10:44:54.619922  1663 net.cpp:408] detection_accuracy_3_7x7 -> boxiou_3_7x7
I0109 10:44:54.619971  1663 net.cpp:150] Setting up detection_accuracy_3_7x7
I0109 10:44:54.619982  1663 net.cpp:157] Top shape: 1 1 1 2 (2)
I0109 10:44:54.619987  1663 net.cpp:157] Top shape: 1 1 1 1 (1)
I0109 10:44:54.619992  1663 net.cpp:165] Memory required for data: 3233976316
I0109 10:44:54.619995  1663 layer_factory.hpp:77] Creating layer pool6
I0109 10:44:54.620005  1663 net.cpp:100] Creating Layer pool6
I0109 10:44:54.620012  1663 net.cpp:434] pool6 <- conv6/sep_relu6/sep_0_split_2
I0109 10:44:54.620020  1663 net.cpp:408] pool6 -> pool6
I0109 10:44:54.620064  1663 net.cpp:150] Setting up pool6
I0109 10:44:54.620074  1663 net.cpp:157] Top shape: 3 1024 12 12 (442368)
I0109 10:44:54.620077  1663 net.cpp:165] Memory required for data: 3235745788
I0109 10:44:54.620082  1663 layer_factory.hpp:77] Creating layer LFCN_4_5x5
I0109 10:44:54.620100  1663 net.cpp:100] Creating Layer LFCN_4_5x5
I0109 10:44:54.620106  1663 net.cpp:434] LFCN_4_5x5 <- pool6
I0109 10:44:54.620115  1663 net.cpp:408] LFCN_4_5x5 -> LFCN_4_5x5
I0109 10:44:54.628990  1663 net.cpp:150] Setting up LFCN_4_5x5
I0109 10:44:54.629019  1663 net.cpp:157] Top shape: 3 9 12 12 (3888)
I0109 10:44:54.629024  1663 net.cpp:165] Memory required for data: 3235761340
I0109 10:44:54.629036  1663 layer_factory.hpp:77] Creating layer LFCN_4_5x5_LFCN_4_5x5_0_split
I0109 10:44:54.629048  1663 net.cpp:100] Creating Layer LFCN_4_5x5_LFCN_4_5x5_0_split
I0109 10:44:54.629056  1663 net.cpp:434] LFCN_4_5x5_LFCN_4_5x5_0_split <- LFCN_4_5x5
I0109 10:44:54.629065  1663 net.cpp:408] LFCN_4_5x5_LFCN_4_5x5_0_split -> LFCN_4_5x5_LFCN_4_5x5_0_split_0
I0109 10:44:54.629081  1663 net.cpp:408] LFCN_4_5x5_LFCN_4_5x5_0_split -> LFCN_4_5x5_LFCN_4_5x5_0_split_1
I0109 10:44:54.629127  1663 net.cpp:150] Setting up LFCN_4_5x5_LFCN_4_5x5_0_split
I0109 10:44:54.629134  1663 net.cpp:157] Top shape: 3 9 12 12 (3888)
I0109 10:44:54.629140  1663 net.cpp:157] Top shape: 3 9 12 12 (3888)
I0109 10:44:54.629144  1663 net.cpp:165] Memory required for data: 3235792444
I0109 10:44:54.629149  1663 layer_factory.hpp:77] Creating layer detection_loss_4_5x5
I0109 10:44:54.629160  1663 net.cpp:100] Creating Layer detection_loss_4_5x5
I0109 10:44:54.629168  1663 net.cpp:434] detection_loss_4_5x5 <- LFCN_4_5x5_LFCN_4_5x5_0_split_0
I0109 10:44:54.629174  1663 net.cpp:434] detection_loss_4_5x5 <- label_4_5x5_data_7_split_0
I0109 10:44:54.629185  1663 net.cpp:408] detection_loss_4_5x5 -> loss_4_5x5
I0109 10:44:54.629199  1663 layer_factory.hpp:77] Creating layer detection_loss_4_5x5
I0109 10:44:54.629521  1663 net.cpp:150] Setting up detection_loss_4_5x5
I0109 10:44:54.629534  1663 net.cpp:157] Top shape: 1 1 1 2 (2)
I0109 10:44:54.629537  1663 net.cpp:160]     with loss weight 1
I0109 10:44:54.629551  1663 net.cpp:165] Memory required for data: 3235792452
I0109 10:44:54.629556  1663 layer_factory.hpp:77] Creating layer detection_accuracy_4_5x5
I0109 10:44:54.629567  1663 net.cpp:100] Creating Layer detection_accuracy_4_5x5
I0109 10:44:54.629573  1663 net.cpp:434] detection_accuracy_4_5x5 <- LFCN_4_5x5_LFCN_4_5x5_0_split_1
I0109 10:44:54.629580  1663 net.cpp:434] detection_accuracy_4_5x5 <- label_4_5x5_data_7_split_1
I0109 10:44:54.629587  1663 net.cpp:408] detection_accuracy_4_5x5 -> accuracy_4_5x5
I0109 10:44:54.629598  1663 net.cpp:408] detection_accuracy_4_5x5 -> boxiou_4_5x5
I0109 10:44:54.629644  1663 net.cpp:150] Setting up detection_accuracy_4_5x5
I0109 10:44:54.629653  1663 net.cpp:157] Top shape: 1 1 1 2 (2)
I0109 10:44:54.629659  1663 net.cpp:157] Top shape: 1 1 1 1 (1)
I0109 10:44:54.629663  1663 net.cpp:165] Memory required for data: 3235792464
I0109 10:44:54.629668  1663 net.cpp:228] detection_accuracy_4_5x5 does not need backward computation.
I0109 10:44:54.629673  1663 net.cpp:226] detection_loss_4_5x5 needs backward computation.
I0109 10:44:54.629678  1663 net.cpp:226] LFCN_4_5x5_LFCN_4_5x5_0_split needs backward computation.
I0109 10:44:54.629683  1663 net.cpp:226] LFCN_4_5x5 needs backward computation.
…
I0109 10:44:54.644628  1663 image_gt_data_layer.cpp:235] output label size 1 : 1,6,96,96
I0109 10:44:54.644676  1663 image_gt_data_layer.cpp:235] output label size 2 : 1,6,48,48
I0109 10:44:54.644726  1663 image_gt_data_layer.cpp:235] output label size 3 : 1,6,48,48
I0109 10:44:54.644774  1663 image_gt_data_layer.cpp:235] output label size 4 : 1,6,24,24
I0109 10:44:54.644824  1663 image_gt_data_layer.cpp:235] output label size 5 : 1,6,24,24
I0109 10:44:54.644871  1663 image_gt_data_layer.cpp:235] output label size 6 : 1,6,12,12
I0109 10:44:54.664598  1663 net.cpp:150] Setting up data
I0109 10:44:54.664625  1663 net.cpp:157] Top shape: 1 4 768 768 (2359296)
I0109 10:44:54.664631  1663 net.cpp:157] Top shape: 1 6 96 96 (55296)
I0109 10:44:54.664636  1663 net.cpp:157] Top shape: 1 6 96 96 (55296)
I0109 10:44:54.664640  1663 net.cpp:157] Top shape: 1 6 48 48 (13824)
I0109 10:44:54.664644  1663 net.cpp:157] Top shape: 1 6 48 48 (13824)
I0109 10:44:54.664649  1663 net.cpp:157] Top shape: 1 6 24 24 (3456)
I0109 10:44:54.664654  1663 net.cpp:157] Top shape: 1 6 24 24 (3456)
I0109 10:44:54.664657  1663 net.cpp:157] Top shape: 1 6 12 12 (864)
I0109 10:44:54.664660  1663 net.cpp:165] Memory required for data: 10021248
I0109 10:44:54.664667  1663 layer_factory.hpp:77] Creating layer label_1_5x5_data_1_split
I0109 10:44:54.664680  1663 net.cpp:100] Creating Layer label_1_5x5_data_1_split
I0109 10:44:54.664685  1663 net.cpp:434] label_1_5x5_data_1_split <- label_1_5x5
I0109 10:44:54.664691  1663 net.cpp:408] label_1_5x5_data_1_split -> label_1_5x5_data_1_split_0
I0109 10:44:54.664702  1663 net.cpp:408] label_1_5x5_data_1_split -> label_1_5x5_data_1_split_1
I0109 10:44:54.664989  1663 net.cpp:150] Setting up label_1_5x5_data_1_split
I0109 10:44:54.665029  1663 net.cpp:157] Top shape: 1 6 96 96 (55296)
I0109 10:44:54.665036  1663 net.cpp:157] Top shape: 1 6 96 96 (55296)
I0109 10:44:54.665041  1663 net.cpp:165] Memory required for data: 10463616
I0109 10:44:54.665050  1663 layer_factory.hpp:77] Creating layer label_1_7x7_data_2_split
I0109 10:44:54.665066  1663 net.cpp:100] Creating Layer label_1_7x7_data_2_split
I0109 10:44:54.665071  1663 net.cpp:434] label_1_7x7_data_2_split <- label_1_7x7
I0109 10:44:54.665081  1663 net.cpp:408] label_1_7x7_data_2_split -> label_1_7x7_data_2_split_0
I0109 10:44:54.665092  1663 net.cpp:408] label_1_7x7_data_2_split -> label_1_7x7_data_2_split_1
I0109 10:44:54.665149  1663 net.cpp:150] Setting up label_1_7x7_data_2_split
I0109 10:44:54.665158  1663 net.cpp:157] Top shape: 1 6 96 96 (55296)
I0109 10:44:54.665163  1663 net.cpp:157] Top shape: 1 6 96 96 (55296)
I0109 10:44:54.665168  1663 net.cpp:165] Memory required for data: 10905984
I0109 10:44:54.665172  1663 layer_factory.hpp:77] Creating layer label_2_5x5_data_3_split
I0109 10:44:54.665179  1663 net.cpp:100] Creating Layer label_2_5x5_data_3_split
I0109 10:44:54.665184  1663 net.cpp:434] label_2_5x5_data_3_split <- label_2_5x5
I0109 10:44:54.665191  1663 net.cpp:408] label_2_5x5_data_3_split -> label_2_5x5_data_3_split_0
I0109 10:44:54.665200  1663 net.cpp:408] label_2_5x5_data_3_split -> label_2_5x5_data_3_split_1
I0109 10:44:54.665247  1663 net.cpp:150] Setting up label_2_5x5_data_3_split
I0109 10:44:54.665254  1663 net.cpp:157] Top shape: 1 6 48 48 (13824)
I0109 10:44:54.665259  1663 net.cpp:157] Top shape: 1 6 48 48 (13824)
I0109 10:44:54.665264  1663 net.cpp:165] Memory required for data: 11016576
I0109 10:44:54.665268  1663 layer_factory.hpp:77] Creating layer label_2_7x7_data_4_split
I0109 10:44:54.665277  1663 net.cpp:100] Creating Layer label_2_7x7_data_4_split
I0109 10:44:54.665282  1663 net.cpp:434] label_2_7x7_data_4_split <- label_2_7x7
I0109 10:44:54.665288  1663 net.cpp:408] label_2_7x7_data_4_split -> label_2_7x7_data_4_split_0
I0109 10:44:54.665297  1663 net.cpp:408] label_2_7x7_data_4_split -> label_2_7x7_data_4_split_1
I0109 10:44:54.665343  1663 net.cpp:150] Setting up label_2_7x7_data_4_split
I0109 10:44:54.665349  1663 net.cpp:157] Top shape: 1 6 48 48 (13824)
I0109 10:44:54.665355  1663 net.cpp:157] Top shape: 1 6 48 48 (13824)
I0109 10:44:54.665359  1663 net.cpp:165] Memory required for data: 11127168
I0109 10:44:54.665364  1663 layer_factory.hpp:77] Creating layer label_3_5x5_data_5_split
I0109 10:44:54.665371  1663 net.cpp:100] Creating Layer label_3_5x5_data_5_split
I0109 10:44:54.665376  1663 net.cpp:434] label_3_5x5_data_5_split <- label_3_5x5
I0109 10:44:54.665381  1663 net.cpp:408] label_3_5x5_data_5_split -> label_3_5x5_data_5_split_0
I0109 10:44:54.665390  1663 net.cpp:408] label_3_5x5_data_5_split -> label_3_5x5_data_5_split_1
I0109 10:44:54.665428  1663 net.cpp:150] Setting up label_3_5x5_data_5_split
I0109 10:44:54.665434  1663 net.cpp:157] Top shape: 1 6 24 24 (3456)
I0109 10:44:54.665439  1663 net.cpp:157] Top shape: 1 6 24 24 (3456)
I0109 10:44:54.665443  1663 net.cpp:165] Memory required for data: 11154816
I0109 10:44:54.665446  1663 layer_factory.hpp:77] Creating layer label_3_7x7_data_6_split
I0109 10:44:54.665452  1663 net.cpp:100] Creating Layer label_3_7x7_data_6_split
I0109 10:44:54.665455  1663 net.cpp:434] label_3_7x7_data_6_split <- label_3_7x7
I0109 10:44:54.665462  1663 net.cpp:408] label_3_7x7_data_6_split -> label_3_7x7_data_6_split_0
I0109 10:44:54.665468  1663 net.cpp:408] label_3_7x7_data_6_split -> label_3_7x7_data_6_split_1
I0109 10:44:54.665508  1663 net.cpp:150] Setting up label_3_7x7_data_6_split
I0109 10:44:54.665514  1663 net.cpp:157] Top shape: 1 6 24 24 (3456)
I0109 10:44:54.665518  1663 net.cpp:157] Top shape: 1 6 24 24 (3456)
I0109 10:44:54.665522  1663 net.cpp:165] Memory required for data: 11182464
I0109 10:44:54.665526  1663 layer_factory.hpp:77] Creating layer label_4_5x5_data_7_split
I0109 10:44:54.665531  1663 net.cpp:100] Creating Layer label_4_5x5_data_7_split
I0109 10:44:54.665535  1663 net.cpp:434] label_4_5x5_data_7_split <- label_4_5x5
I0109 10:44:54.665541  1663 net.cpp:408] label_4_5x5_data_7_split -> label_4_5x5_data_7_split_0
I0109 10:44:54.665547  1663 net.cpp:408] label_4_5x5_data_7_split -> label_4_5x5_data_7_split_1
I0109 10:44:54.665585  1663 net.cpp:150] Setting up label_4_5x5_data_7_split
I0109 10:44:54.665591  1663 net.cpp:157] Top shape: 1 6 12 12 (864)
I0109 10:44:54.665596  1663 net.cpp:157] Top shape: 1 6 12 12 (864)
I0109 10:44:54.665598  1663 net.cpp:165] Memory required for data: 11189376
I0109 10:44:54.665602  1663 layer_factory.hpp:77] Creating layer slice
I0109 10:44:54.665611  1663 net.cpp:100] Creating Layer slice
I0109 10:44:54.665616  1663 net.cpp:434] slice <- data
I0109 10:44:54.665621  1663 net.cpp:408] slice -> data123
I0109 10:44:54.665629  1663 net.cpp:408] slice -> ch4
I0109 10:44:54.665668  1663 net.cpp:150] Setting up slice
I0109 10:44:54.665673  1663 net.cpp:157] Top shape: 1 3 768 768 (1769472)
I0109 10:44:54.665678  1663 net.cpp:157] Top shape: 1 1 768 768 (589824)
I0109 10:44:54.665681  1663 net.cpp:165] Memory required for data: 20626560
I0109 10:44:54.665685  1663 layer_factory.hpp:77] Creating layer conv1
I0109 10:44:54.665709  1663 net.cpp:100] Creating Layer conv1
I0109 10:44:54.665715  1663 net.cpp:434] conv1 <- data123
I0109 10:44:54.665721  1663 net.cpp:408] conv1 -> conv1
I0109 10:44:54.669412  1663 net.cpp:150] Setting up conv1
I0109 10:44:54.669450  1663 net.cpp:157] Top shape: 1 32 384 384 (4718592)
I0109 10:44:54.669454  1663 net.cpp:165] Memory required for data: 39500928
I0109 10:44:54.669472  1663 layer_factory.hpp:77] Creating layer conv1/bn
I0109 10:44:54.669492  1663 net.cpp:100] Creating Layer conv1/bn
I0109 10:44:54.669500  1663 net.cpp:434] conv1/bn <- conv1
I0109 10:44:54.669507  1663 net.cpp:395] conv1/bn -> conv1 (in-place)
I0109 10:44:54.670037  1663 net.cpp:150] Setting up conv1/bn
I0109 10:44:54.670048  1663 net.cpp:157] Top shape: 1 32 384 384 (4718592)
I0109 10:44:54.670053  1663 net.cpp:165] Memory required for data: 58375296
I0109 10:44:54.670065  1663 layer_factory.hpp:77] Creating layer conv1/scale
I0109 10:44:54.670078  1663 net.cpp:100] Creating Layer conv1/scale
I0109 10:44:54.670081  1663 net.cpp:434] conv1/scale <- conv1
I0109 10:44:54.670092  1663 net.cpp:395] conv1/scale -> conv1 (in-place)
I0109 10:44:54.670158  1663 layer_factory.hpp:77] Creating layer conv1/scale
I0109 10:44:54.671507  1663 net.cpp:150] Setting up conv1/scale
I0109 10:44:54.671520  1663 net.cpp:157] Top shape: 1 32 384 384 (4718592)
I0109 10:44:54.671525  1663 net.cpp:165] Memory required for data: 77249664
I0109 10:44:54.671535  1663 layer_factory.hpp:77] Creating layer relu1
I0109 10:44:54.671545  1663 net.cpp:100] Creating Layer relu1
I0109 10:44:54.671550  1663 net.cpp:434] relu1 <- conv1
I0109 10:44:54.671555  1663 net.cpp:395] relu1 -> conv1 (in-place)
I0109 10:44:54.671804  1663 net.cpp:150] Setting up relu1
I0109 10:44:54.671813  1663 net.cpp:157] Top shape: 1 32 384 384 (4718592)
I0109 10:44:54.671818  1663 net.cpp:165] Memory required for data: 96124032
I0109 10:44:54.671821  1663 layer_factory.hpp:77] Creating layer conv2_1/dw
I0109 10:44:54.671833  1663 net.cpp:100] Creating Layer conv2_1/dw
I0109 10:44:54.671838  1663 net.cpp:434] conv2_1/dw <- conv1
I0109 10:44:54.671845  1663 net.cpp:408] conv2_1/dw -> conv2_1/dw
I0109 10:44:54.672103  1663 net.cpp:150] Setting up conv2_1/dw
I0109 10:44:54.672111  1663 net.cpp:157] Top shape: 1 32 384 384 (4718592)
I0109 10:44:54.672116  1663 net.cpp:165] Memory required for data: 114998400
I0109 10:44:54.672121  1663 layer_factory.hpp:77] Creating layer conv2_1/dw/bn
I0109 10:44:54.672127  1663 net.cpp:100] Creating Layer conv2_1/dw/bn
I0109 10:44:54.672132  1663 net.cpp:434] conv2_1/dw/bn <- conv2_1/dw
I0109 10:44:54.672138  1663 net.cpp:395] conv2_1/dw/bn -> conv2_1/dw (in-place)
I0109 10:44:54.672452  1663 net.cpp:150] Setting up conv2_1/dw/bn
I0109 10:44:54.672459  1663 net.cpp:157] Top shape: 1 32 384 384 (4718592)
I0109 10:44:54.672463  1663 net.cpp:165] Memory required for data: 133872768
I0109 10:44:54.672474  1663 layer_factory.hpp:77] Creating layer conv2_1/dw/scale
I0109 10:44:54.672482  1663 net.cpp:100] Creating Layer conv2_1/dw/scale
I0109 10:44:54.672487  1663 net.cpp:434] conv2_1/dw/scale <- conv2_1/dw
I0109 10:44:54.672492  1663 net.cpp:395] conv2_1/dw/scale -> conv2_1/dw (in-place)
I0109 10:44:54.672536  1663 layer_factory.hpp:77] Creating layer conv2_1/dw/scale
I0109 10:44:54.674005  1663 net.cpp:150] Setting up conv2_1/dw/scale
I0109 10:44:54.674026  1663 net.cpp:157] Top shape: 1 32 384 384 (4718592)
I0109 10:44:54.674032  1663 net.cpp:165] Memory required for data: 152747136
I0109 10:44:54.674044  1663 layer_factory.hpp:77] Creating layer relu2_1/dw
I0109 10:44:54.674059  1663 net.cpp:100] Creating Layer relu2_1/dw
I0109 10:44:54.674067  1663 net.cpp:434] relu2_1/dw <- conv2_1/dw
I0109 10:44:54.674079  1663 net.cpp:395] relu2_1/dw -> conv2_1/dw (in-place)
I0109 10:44:54.674829  1663 net.cpp:150] Setting up relu2_1/dw
I0109 10:44:54.674844  1663 net.cpp:157] Top shape: 1 32 384 384 (4718592)
I0109 10:44:54.674847  1663 net.cpp:165] Memory required for data: 171621504
I0109 10:44:54.674852  1663 layer_factory.hpp:77] Creating layer conv2_1/sep
I0109 10:44:54.674865  1663 net.cpp:100] Creating Layer conv2_1/sep
I0109 10:44:54.674868  1663 net.cpp:434] conv2_1/sep <- conv2_1/dw
I0109 10:44:54.674876  1663 net.cpp:408] conv2_1/sep -> conv2_1/sep
I0109 10:44:54.676544  1663 net.cpp:150] Setting up conv2_1/sep
I0109 10:44:54.676558  1663 net.cpp:157] Top shape: 1 64 384 384 (9437184)
I0109 10:44:54.676561  1663 net.cpp:165] Memory required for data: 209370240
I0109 10:44:54.676568  1663 layer_factory.hpp:77] Creating layer conv2_1/sep/bn
I0109 10:44:54.676578  1663 net.cpp:100] Creating Layer conv2_1/sep/bn
I0109 10:44:54.676582  1663 net.cpp:434] conv2_1/sep/bn <- conv2_1/sep
I0109 10:44:54.676589  1663 net.cpp:395] conv2_1/sep/bn -> conv2_1/sep (in-place)
I0109 10:44:54.677001  1663 net.cpp:150] Setting up conv2_1/sep/bn
I0109 10:44:54.677011  1663 net.cpp:157] Top shape: 1 64 384 384 (9437184)
I0109 10:44:54.677014  1663 net.cpp:165] Memory required for data: 247118976
I0109 10:44:54.677022  1663 layer_factory.hpp:77] Creating layer conv2_1/sep/scale
I0109 10:44:54.677033  1663 net.cpp:100] Creating Layer conv2_1/sep/scale
I0109 10:44:54.677038  1663 net.cpp:434] conv2_1/sep/scale <- conv2_1/sep
I0109 10:44:54.677043  1663 net.cpp:395] conv2_1/sep/scale -> conv2_1/sep (in-place)
I0109 10:44:54.677091  1663 layer_factory.hpp:77] Creating layer conv2_1/sep/scale
I0109 10:44:54.678751  1663 net.cpp:150] Setting up conv2_1/sep/scale
I0109 10:44:54.678777  1663 net.cpp:157] Top shape: 1 64 384 384 (9437184)
I0109 10:44:54.678782  1663 net.cpp:165] Memory required for data: 284867712
I0109 10:44:54.678798  1663 layer_factory.hpp:77] Creating layer relu2_1/sep
I0109 10:44:54.678810  1663 net.cpp:100] Creating Layer relu2_1/sep
I0109 10:44:54.678817  1663 net.cpp:434] relu2_1/sep <- conv2_1/sep
I0109 10:44:54.678823  1663 net.cpp:395] relu2_1/sep -> conv2_1/sep (in-place)
I0109 10:44:54.679188  1663 net.cpp:150] Setting up relu2_1/sep
I0109 10:44:54.679203  1663 net.cpp:157] Top shape: 1 64 384 384 (9437184)
I0109 10:44:54.679208  1663 net.cpp:165] Memory required for data: 322616448
I0109 10:44:54.679214  1663 layer_factory.hpp:77] Creating layer conv2_2/dw
I0109 10:44:54.679241  1663 net.cpp:100] Creating Layer conv2_2/dw
I0109 10:44:54.679252  1663 net.cpp:434] conv2_2/dw <- conv2_1/sep
I0109 10:44:54.679261  1663 net.cpp:408] conv2_2/dw -> conv2_2/dw
I0109 10:44:54.679608  1663 net.cpp:150] Setting up conv2_2/dw
I0109 10:44:54.679621  1663 net.cpp:157] Top shape: 1 64 192 192 (2359296)
I0109 10:44:54.679627  1663 net.cpp:165] Memory required for data: 332053632
I0109 10:44:54.679636  1663 layer_factory.hpp:77] Creating layer conv2_2/dw/bn
I0109 10:44:54.679648  1663 net.cpp:100] Creating Layer conv2_2/dw/bn
I0109 10:44:54.679654  1663 net.cpp:434] conv2_2/dw/bn <- conv2_2/dw
I0109 10:44:54.679662  1663 net.cpp:395] conv2_2/dw/bn -> conv2_2/dw (in-place)
I0109 10:44:54.679930  1663 net.cpp:150] Setting up conv2_2/dw/bn
I0109 10:44:54.679939  1663 net.cpp:157] Top shape: 1 64 192 192 (2359296)
I0109 10:44:54.679942  1663 net.cpp:165] Memory required for data: 341490816
I0109 10:44:54.679950  1663 layer_factory.hpp:77] Creating layer conv2_2/dw/scale
I0109 10:44:54.679960  1663 net.cpp:100] Creating Layer conv2_2/dw/scale
I0109 10:44:54.679965  1663 net.cpp:434] conv2_2/dw/scale <- conv2_2/dw
I0109 10:44:54.679971  1663 net.cpp:395] conv2_2/dw/scale -> conv2_2/dw (in-place)
I0109 10:44:54.680019  1663 layer_factory.hpp:77] Creating layer conv2_2/dw/scale
I0109 10:44:54.680248  1663 net.cpp:150] Setting up conv2_2/dw/scale
I0109 10:44:54.680256  1663 net.cpp:157] Top shape: 1 64 192 192 (2359296)
I0109 10:44:54.680260  1663 net.cpp:165] Memory required for data: 350928000
I0109 10:44:54.680266  1663 layer_factory.hpp:77] Creating layer relu2_2/dw
I0109 10:44:54.680276  1663 net.cpp:100] Creating Layer relu2_2/dw
I0109 10:44:54.680280  1663 net.cpp:434] relu2_2/dw <- conv2_2/dw
I0109 10:44:54.680285  1663 net.cpp:395] relu2_2/dw -> conv2_2/dw (in-place)
I0109 10:44:54.680570  1663 net.cpp:150] Setting up relu2_2/dw
I0109 10:44:54.680579  1663 net.cpp:157] Top shape: 1 64 192 192 (2359296)
I0109 10:44:54.680583  1663 net.cpp:165] Memory required for data: 360365184
I0109 10:44:54.680588  1663 layer_factory.hpp:77] Creating layer conv2_2/sep
I0109 10:44:54.680601  1663 net.cpp:100] Creating Layer conv2_2/sep
I0109 10:44:54.680606  1663 net.cpp:434] conv2_2/sep <- conv2_2/dw
I0109 10:44:54.680613  1663 net.cpp:408] conv2_2/sep -> conv2_2/sep
I0109 10:44:54.682909  1663 net.cpp:150] Setting up conv2_2/sep
I0109 10:44:54.683014  1663 net.cpp:157] Top shape: 1 128 192 192 (4718592)
I0109 10:44:54.683022  1663 net.cpp:165] Memory required for data: 379239552
I0109 10:44:54.683050  1663 layer_factory.hpp:77] Creating layer conv2_2/sep/bn
I0109 10:44:54.683099  1663 net.cpp:100] Creating Layer conv2_2/sep/bn
I0109 10:44:54.683120  1663 net.cpp:434] conv2_2/sep/bn <- conv2_2/sep
I0109 10:44:54.683135  1663 net.cpp:395] conv2_2/sep/bn -> conv2_2/sep (in-place)
I0109 10:44:54.683562  1663 net.cpp:150] Setting up conv2_2/sep/bn
I0109 10:44:54.683573  1663 net.cpp:157] Top shape: 1 128 192 192 (4718592)
I0109 10:44:54.683578  1663 net.cpp:165] Memory required for data: 398113920
I0109 10:44:54.683589  1663 layer_factory.hpp:77] Creating layer conv2_2/sep/scale
I0109 10:44:54.683614  1663 net.cpp:100] Creating Layer conv2_2/sep/scale
I0109 10:44:54.683619  1663 net.cpp:434] conv2_2/sep/scale <- conv2_2/sep
I0109 10:44:54.683627  1663 net.cpp:395] conv2_2/sep/scale -> conv2_2/sep (in-place)
I0109 10:44:54.683688  1663 layer_factory.hpp:77] Creating layer conv2_2/sep/scale
I0109 10:44:54.683931  1663 net.cpp:150] Setting up conv2_2/sep/scale
I0109 10:44:54.683941  1663 net.cpp:157] Top shape: 1 128 192 192 (4718592)
I0109 10:44:54.683945  1663 net.cpp:165] Memory required for data: 416988288
I0109 10:44:54.683953  1663 layer_factory.hpp:77] Creating layer relu2_2/sep
I0109 10:44:54.683964  1663 net.cpp:100] Creating Layer relu2_2/sep
I0109 10:44:54.683969  1663 net.cpp:434] relu2_2/sep <- conv2_2/sep
I0109 10:44:54.683974  1663 net.cpp:395] relu2_2/sep -> conv2_2/sep (in-place)
I0109 10:44:54.684262  1663 net.cpp:150] Setting up relu2_2/sep
I0109 10:44:54.684271  1663 net.cpp:157] Top shape: 1 128 192 192 (4718592)
I0109 10:44:54.684275  1663 net.cpp:165] Memory required for data: 435862656
I0109 10:44:54.684279  1663 layer_factory.hpp:77] Creating layer conv3_1/dw
I0109 10:44:54.684296  1663 net.cpp:100] Creating Layer conv3_1/dw
I0109 10:44:54.684303  1663 net.cpp:434] conv3_1/dw <- conv2_2/sep
I0109 10:44:54.684309  1663 net.cpp:408] conv3_1/dw -> conv3_1/dw
I0109 10:44:54.684617  1663 net.cpp:150] Setting up conv3_1/dw
I0109 10:44:54.684628  1663 net.cpp:157] Top shape: 1 128 192 192 (4718592)
I0109 10:44:54.684631  1663 net.cpp:165] Memory required for data: 454737024
I0109 10:44:54.684638  1663 layer_factory.hpp:77] Creating layer conv3_1/dw/bn
I0109 10:44:54.684644  1663 net.cpp:100] Creating Layer conv3_1/dw/bn
I0109 10:44:54.684649  1663 net.cpp:434] conv3_1/dw/bn <- conv3_1/dw
I0109 10:44:54.684656  1663 net.cpp:395] conv3_1/dw/bn -> conv3_1/dw (in-place)
I0109 10:44:54.684918  1663 net.cpp:150] Setting up conv3_1/dw/bn
I0109 10:44:54.684926  1663 net.cpp:157] Top shape: 1 128 192 192 (4718592)
I0109 10:44:54.684929  1663 net.cpp:165] Memory required for data: 473611392
I0109 10:44:54.684945  1663 layer_factory.hpp:77] Creating layer conv3_1/dw/scale
I0109 10:44:54.684955  1663 net.cpp:100] Creating Layer conv3_1/dw/scale
I0109 10:44:54.684960  1663 net.cpp:434] conv3_1/dw/scale <- conv3_1/dw
I0109 10:44:54.684967  1663 net.cpp:395] conv3_1/dw/scale -> conv3_1/dw (in-place)
I0109 10:44:54.685011  1663 layer_factory.hpp:77] Creating layer conv3_1/dw/scale
I0109 10:44:54.686823  1663 net.cpp:150] Setting up conv3_1/dw/scale
I0109 10:44:54.686870  1663 net.cpp:157] Top shape: 1 128 192 192 (4718592)
I0109 10:44:54.686879  1663 net.cpp:165] Memory required for data: 492485760
I0109 10:44:54.686903  1663 layer_factory.hpp:77] Creating layer relu3_1/dw
I0109 10:44:54.686929  1663 net.cpp:100] Creating Layer relu3_1/dw
I0109 10:44:54.686941  1663 net.cpp:434] relu3_1/dw <- conv3_1/dw
I0109 10:44:54.686954  1663 net.cpp:395] relu3_1/dw -> conv3_1/dw (in-place)
I0109 10:44:54.688203  1663 net.cpp:150] Setting up relu3_1/dw
I0109 10:44:54.688230  1663 net.cpp:157] Top shape: 1 128 192 192 (4718592)
I0109 10:44:54.688238  1663 net.cpp:165] Memory required for data: 511360128
I0109 10:44:54.688246  1663 layer_factory.hpp:77] Creating layer conv3_1/sep
I0109 10:44:54.688271  1663 net.cpp:100] Creating Layer conv3_1/sep
I0109 10:44:54.688280  1663 net.cpp:434] conv3_1/sep <- conv3_1/dw
I0109 10:44:54.688293  1663 net.cpp:408] conv3_1/sep -> conv3_1/sep
I0109 10:44:54.691077  1663 net.cpp:150] Setting up conv3_1/sep
I0109 10:44:54.691102  1663 net.cpp:157] Top shape: 1 128 192 192 (4718592)
I0109 10:44:54.691109  1663 net.cpp:165] Memory required for data: 530234496
I0109 10:44:54.691120  1663 layer_factory.hpp:77] Creating layer conv3_1/sep/bn
I0109 10:44:54.691131  1663 net.cpp:100] Creating Layer conv3_1/sep/bn
I0109 10:44:54.691138  1663 net.cpp:434] conv3_1/sep/bn <- conv3_1/sep
I0109 10:44:54.691146  1663 net.cpp:395] conv3_1/sep/bn -> conv3_1/sep (in-place)
I0109 10:44:54.691473  1663 net.cpp:150] Setting up conv3_1/sep/bn
I0109 10:44:54.691483  1663 net.cpp:157] Top shape: 1 128 192 192 (4718592)
I0109 10:44:54.691488  1663 net.cpp:165] Memory required for data: 549108864
I0109 10:44:54.691500  1663 layer_factory.hpp:77] Creating layer conv3_1/sep/scale
I0109 10:44:54.691511  1663 net.cpp:100] Creating Layer conv3_1/sep/scale
I0109 10:44:54.691516  1663 net.cpp:434] conv3_1/sep/scale <- conv3_1/sep
I0109 10:44:54.691527  1663 net.cpp:395] conv3_1/sep/scale -> conv3_1/sep (in-place)
I0109 10:44:54.691588  1663 layer_factory.hpp:77] Creating layer conv3_1/sep/scale
I0109 10:44:54.691800  1663 net.cpp:150] Setting up conv3_1/sep/scale
I0109 10:44:54.691809  1663 net.cpp:157] Top shape: 1 128 192 192 (4718592)
I0109 10:44:54.691814  1663 net.cpp:165] Memory required for data: 567983232
I0109 10:44:54.691823  1663 layer_factory.hpp:77] Creating layer relu3_1/sep
I0109 10:44:54.691833  1663 net.cpp:100] Creating Layer relu3_1/sep
I0109 10:44:54.691838  1663 net.cpp:434] relu3_1/sep <- conv3_1/sep
I0109 10:44:54.691845  1663 net.cpp:395] relu3_1/sep -> conv3_1/sep (in-place)
I0109 10:44:54.692535  1663 net.cpp:150] Setting up relu3_1/sep
I0109 10:44:54.692549  1663 net.cpp:157] Top shape: 1 128 192 192 (4718592)
I0109 10:44:54.692557  1663 net.cpp:165] Memory required for data: 586857600
I0109 10:44:54.692564  1663 layer_factory.hpp:77] Creating layer conv3_2/dw
I0109 10:44:54.692597  1663 net.cpp:100] Creating Layer conv3_2/dw
I0109 10:44:54.692610  1663 net.cpp:434] conv3_2/dw <- conv3_1/sep
I0109 10:44:54.692646  1663 net.cpp:408] conv3_2/dw -> conv3_2/dw
I0109 10:44:54.693994  1663 net.cpp:150] Setting up conv3_2/dw
I0109 10:44:54.694037  1663 net.cpp:157] Top shape: 1 128 96 96 (1179648)
I0109 10:44:54.694043  1663 net.cpp:165] Memory required for data: 591576192
I0109 10:44:54.694052  1663 layer_factory.hpp:77] Creating layer conv3_2/dw/bn
I0109 10:44:54.694072  1663 net.cpp:100] Creating Layer conv3_2/dw/bn
I0109 10:44:54.694080  1663 net.cpp:434] conv3_2/dw/bn <- conv3_2/dw
I0109 10:44:54.694089  1663 net.cpp:395] conv3_2/dw/bn -> conv3_2/dw (in-place)
I0109 10:44:54.694365  1663 net.cpp:150] Setting up conv3_2/dw/bn
I0109 10:44:54.694372  1663 net.cpp:157] Top shape: 1 128 96 96 (1179648)
I0109 10:44:54.694376  1663 net.cpp:165] Memory required for data: 596294784
I0109 10:44:54.694387  1663 layer_factory.hpp:77] Creating layer conv3_2/dw/scale
I0109 10:44:54.694402  1663 net.cpp:100] Creating Layer conv3_2/dw/scale
I0109 10:44:54.694408  1663 net.cpp:434] conv3_2/dw/scale <- conv3_2/dw
I0109 10:44:54.694416  1663 net.cpp:395] conv3_2/dw/scale -> conv3_2/dw (in-place)
I0109 10:44:54.694470  1663 layer_factory.hpp:77] Creating layer conv3_2/dw/scale
I0109 10:44:54.694623  1663 net.cpp:150] Setting up conv3_2/dw/scale
I0109 10:44:54.694630  1663 net.cpp:157] Top shape: 1 128 96 96 (1179648)
I0109 10:44:54.694634  1663 net.cpp:165] Memory required for data: 601013376
I0109 10:44:54.694643  1663 layer_factory.hpp:77] Creating layer relu3_2/dw
I0109 10:44:54.694651  1663 net.cpp:100] Creating Layer relu3_2/dw
I0109 10:44:54.694655  1663 net.cpp:434] relu3_2/dw <- conv3_2/dw
I0109 10:44:54.694664  1663 net.cpp:395] relu3_2/dw -> conv3_2/dw (in-place)
I0109 10:44:54.695005  1663 net.cpp:150] Setting up relu3_2/dw
I0109 10:44:54.695024  1663 net.cpp:157] Top shape: 1 128 96 96 (1179648)
I0109 10:44:54.695029  1663 net.cpp:165] Memory required for data: 605731968
I0109 10:44:54.695032  1663 layer_factory.hpp:77] Creating layer conv3_2/sep
I0109 10:44:54.695046  1663 net.cpp:100] Creating Layer conv3_2/sep
I0109 10:44:54.695051  1663 net.cpp:434] conv3_2/sep <- conv3_2/dw
I0109 10:44:54.695062  1663 net.cpp:408] conv3_2/sep -> conv3_2/sep
I0109 10:44:54.708199  1663 net.cpp:150] Setting up conv3_2/sep
I0109 10:44:54.708252  1663 net.cpp:157] Top shape: 1 256 96 96 (2359296)
I0109 10:44:54.708261  1663 net.cpp:165] Memory required for data: 615169152
I0109 10:44:54.708276  1663 layer_factory.hpp:77] Creating layer conv3_2/sep/bn
I0109 10:44:54.708297  1663 net.cpp:100] Creating Layer conv3_2/sep/bn
I0109 10:44:54.708310  1663 net.cpp:434] conv3_2/sep/bn <- conv3_2/sep
I0109 10:44:54.708323  1663 net.cpp:395] conv3_2/sep/bn -> conv3_2/sep (in-place)
I0109 10:44:54.708650  1663 net.cpp:150] Setting up conv3_2/sep/bn
I0109 10:44:54.708659  1663 net.cpp:157] Top shape: 1 256 96 96 (2359296)
I0109 10:44:54.708664  1663 net.cpp:165] Memory required for data: 624606336
I0109 10:44:54.708674  1663 layer_factory.hpp:77] Creating layer conv3_2/sep/scale
I0109 10:44:54.708688  1663 net.cpp:100] Creating Layer conv3_2/sep/scale
I0109 10:44:54.708693  1663 net.cpp:434] conv3_2/sep/scale <- conv3_2/sep
I0109 10:44:54.708698  1663 net.cpp:395] conv3_2/sep/scale -> conv3_2/sep (in-place)
I0109 10:44:54.708776  1663 layer_factory.hpp:77] Creating layer conv3_2/sep/scale
I0109 10:44:54.708959  1663 net.cpp:150] Setting up conv3_2/sep/scale
I0109 10:44:54.708967  1663 net.cpp:157] Top shape: 1 256 96 96 (2359296)
I0109 10:44:54.708971  1663 net.cpp:165] Memory required for data: 634043520
I0109 10:44:54.708978  1663 layer_factory.hpp:77] Creating layer relu3_2/sep
I0109 10:44:54.708987  1663 net.cpp:100] Creating Layer relu3_2/sep
I0109 10:44:54.708992  1663 net.cpp:434] relu3_2/sep <- conv3_2/sep
I0109 10:44:54.708997  1663 net.cpp:395] relu3_2/sep -> conv3_2/sep (in-place)
I0109 10:44:54.709221  1663 net.cpp:150] Setting up relu3_2/sep
I0109 10:44:54.709230  1663 net.cpp:157] Top shape: 1 256 96 96 (2359296)
I0109 10:44:54.709234  1663 net.cpp:165] Memory required for data: 643480704
I0109 10:44:54.709239  1663 layer_factory.hpp:77] Creating layer conv4_1/dw
I0109 10:44:54.709250  1663 net.cpp:100] Creating Layer conv4_1/dw
I0109 10:44:54.709254  1663 net.cpp:434] conv4_1/dw <- conv3_2/sep
I0109 10:44:54.709264  1663 net.cpp:408] conv4_1/dw -> conv4_1/dw
I0109 10:44:54.709621  1663 net.cpp:150] Setting up conv4_1/dw
I0109 10:44:54.709630  1663 net.cpp:157] Top shape: 1 256 96 96 (2359296)
I0109 10:44:54.709633  1663 net.cpp:165] Memory required for data: 652917888
I0109 10:44:54.709640  1663 layer_factory.hpp:77] Creating layer conv4_1/dw/bn
I0109 10:44:54.709647  1663 net.cpp:100] Creating Layer conv4_1/dw/bn
I0109 10:44:54.709652  1663 net.cpp:434] conv4_1/dw/bn <- conv4_1/dw
I0109 10:44:54.709657  1663 net.cpp:395] conv4_1/dw/bn -> conv4_1/dw (in-place)
I0109 10:44:54.709937  1663 net.cpp:150] Setting up conv4_1/dw/bn
I0109 10:44:54.709946  1663 net.cpp:157] Top shape: 1 256 96 96 (2359296)
I0109 10:44:54.709950  1663 net.cpp:165] Memory required for data: 662355072
I0109 10:44:54.709959  1663 layer_factory.hpp:77] Creating layer conv4_1/dw/scale
I0109 10:44:54.709969  1663 net.cpp:100] Creating Layer conv4_1/dw/scale
I0109 10:44:54.709973  1663 net.cpp:434] conv4_1/dw/scale <- conv4_1/dw
I0109 10:44:54.709980  1663 net.cpp:395] conv4_1/dw/scale -> conv4_1/dw (in-place)
I0109 10:44:54.710023  1663 layer_factory.hpp:77] Creating layer conv4_1/dw/scale
I0109 10:44:54.710170  1663 net.cpp:150] Setting up conv4_1/dw/scale
…
I0109 10:44:54.769618  1663 net.cpp:395] conv4_2/dw/scale -> conv4_2/dw (in-place)
I0109 10:44:54.769672  1663 layer_factory.hpp:77] Creating layer conv4_2/dw/scale
I0109 10:44:54.769840  1663 net.cpp:150] Setting up conv4_2/dw/scale
I0109 10:44:54.769850  1663 net.cpp:157] Top shape: 1 256 48 48 (589824)
I0109 10:44:54.769855  1663 net.cpp:165] Memory required for data: 813128876
I0109 10:44:54.769863  1663 layer_factory.hpp:77] Creating layer relu4_2/dw
I0109 10:44:54.769871  1663 net.cpp:100] Creating Layer relu4_2/dw
I0109 10:44:54.769876  1663 net.cpp:434] relu4_2/dw <- conv4_2/dw
I0109 10:44:54.769882  1663 net.cpp:395] relu4_2/dw -> conv4_2/dw (in-place)
I0109 10:44:54.770491  1663 net.cpp:150] Setting up relu4_2/dw
I0109 10:44:54.770503  1663 net.cpp:157] Top shape: 1 256 48 48 (589824)
I0109 10:44:54.770507  1663 net.cpp:165] Memory required for data: 815488172
I0109 10:44:54.770511  1663 layer_factory.hpp:77] Creating layer conv4_2/sep
I0109 10:44:54.770519  1663 net.cpp:100] Creating Layer conv4_2/sep
I0109 10:44:54.770524  1663 net.cpp:434] conv4_2/sep <- conv4_2/dw
I0109 10:44:54.770530  1663 net.cpp:408] conv4_2/sep -> conv4_2/sep
I0109 10:44:54.774871  1663 net.cpp:150] Setting up conv4_2/sep
I0109 10:44:54.774883  1663 net.cpp:157] Top shape: 1 512 48 48 (1179648)
I0109 10:44:54.774888  1663 net.cpp:165] Memory required for data: 820206764
I0109 10:44:54.774893  1663 layer_factory.hpp:77] Creating layer conv4_2/sep/bn
I0109 10:44:54.774900  1663 net.cpp:100] Creating Layer conv4_2/sep/bn
I0109 10:44:54.774905  1663 net.cpp:434] conv4_2/sep/bn <- conv4_2/sep
I0109 10:44:54.774911  1663 net.cpp:395] conv4_2/sep/bn -> conv4_2/sep (in-place)
I0109 10:44:54.775120  1663 net.cpp:150] Setting up conv4_2/sep/bn
I0109 10:44:54.775125  1663 net.cpp:157] Top shape: 1 512 48 48 (1179648)
I0109 10:44:54.775130  1663 net.cpp:165] Memory required for data: 824925356
I0109 10:44:54.775136  1663 layer_factory.hpp:77] Creating layer conv4_2/sep/scale
I0109 10:44:54.775144  1663 net.cpp:100] Creating Layer conv4_2/sep/scale
I0109 10:44:54.775147  1663 net.cpp:434] conv4_2/sep/scale <- conv4_2/sep
I0109 10:44:54.775153  1663 net.cpp:395] conv4_2/sep/scale -> conv4_2/sep (in-place)
I0109 10:44:54.775197  1663 layer_factory.hpp:77] Creating layer conv4_2/sep/scale
I0109 10:44:54.775305  1663 net.cpp:150] Setting up conv4_2/sep/scale
I0109 10:44:54.775310  1663 net.cpp:157] Top shape: 1 512 48 48 (1179648)
I0109 10:44:54.775313  1663 net.cpp:165] Memory required for data: 829643948
I0109 10:44:54.775318  1663 layer_factory.hpp:77] Creating layer relu4_2/sep
I0109 10:44:54.775326  1663 net.cpp:100] Creating Layer relu4_2/sep
I0109 10:44:54.775329  1663 net.cpp:434] relu4_2/sep <- conv4_2/sep
I0109 10:44:54.775333  1663 net.cpp:395] relu4_2/sep -> conv4_2/sep (in-place)
I0109 10:44:54.775493  1663 net.cpp:150] Setting up relu4_2/sep
I0109 10:44:54.775501  1663 net.cpp:157] Top shape: 1 512 48 48 (1179648)
I0109 10:44:54.775504  1663 net.cpp:165] Memory required for data: 834362540
I0109 10:44:54.775507  1663 layer_factory.hpp:77] Creating layer conv5_1/dw
I0109 10:44:54.775516  1663 net.cpp:100] Creating Layer conv5_1/dw
I0109 10:44:54.775519  1663 net.cpp:434] conv5_1/dw <- conv4_2/sep
I0109 10:44:54.775527  1663 net.cpp:408] conv5_1/dw -> conv5_1/dw
I0109 10:44:54.775846  1663 net.cpp:150] Setting up conv5_1/dw
I0109 10:44:54.775853  1663 net.cpp:157] Top shape: 1 512 48 48 (1179648)
I0109 10:44:54.775856  1663 net.cpp:165] Memory required for data: 839081132
I0109 10:44:54.775861  1663 layer_factory.hpp:77] Creating layer conv5_1/dw/bn
I0109 10:44:54.775867  1663 net.cpp:100] Creating Layer conv5_1/dw/bn
I0109 10:44:54.775871  1663 net.cpp:434] conv5_1/dw/bn <- conv5_1/dw
I0109 10:44:54.775876  1663 net.cpp:395] conv5_1/dw/bn -> conv5_1/dw (in-place)
I0109 10:44:54.776067  1663 net.cpp:150] Setting up conv5_1/dw/bn
I0109 10:44:54.776073  1663 net.cpp:157] Top shape: 1 512 48 48 (1179648)
I0109 10:44:54.776077  1663 net.cpp:165] Memory required for data: 843799724
I0109 10:44:54.776082  1663 layer_factory.hpp:77] Creating layer conv5_1/dw/scale
I0109 10:44:54.776090  1663 net.cpp:100] Creating Layer conv5_1/dw/scale
I0109 10:44:54.776093  1663 net.cpp:434] conv5_1/dw/scale <- conv5_1/dw
I0109 10:44:54.776099  1663 net.cpp:395] conv5_1/dw/scale -> conv5_1/dw (in-place)
I0109 10:44:54.776134  1663 layer_factory.hpp:77] Creating layer conv5_1/dw/scale
I0109 10:44:54.776242  1663 net.cpp:150] Setting up conv5_1/dw/scale
I0109 10:44:54.776248  1663 net.cpp:157] Top shape: 1 512 48 48 (1179648)
I0109 10:44:54.776250  1663 net.cpp:165] Memory required for data: 848518316
I0109 10:44:54.776257  1663 layer_factory.hpp:77] Creating layer relu5_1/dw
I0109 10:44:54.776262  1663 net.cpp:100] Creating Layer relu5_1/dw
I0109 10:44:54.776266  1663 net.cpp:434] relu5_1/dw <- conv5_1/dw
I0109 10:44:54.776270  1663 net.cpp:395] relu5_1/dw -> conv5_1/dw (in-place)
I0109 10:44:54.776427  1663 net.cpp:150] Setting up relu5_1/dw
I0109 10:44:54.776433  1663 net.cpp:157] Top shape: 1 512 48 48 (1179648)
I0109 10:44:54.776437  1663 net.cpp:165] Memory required for data: 853236908
I0109 10:44:54.776440  1663 layer_factory.hpp:77] Creating layer conv5_1/sep
I0109 10:44:54.776448  1663 net.cpp:100] Creating Layer conv5_1/sep
I0109 10:44:54.776453  1663 net.cpp:434] conv5_1/sep <- conv5_1/dw
I0109 10:44:54.776458  1663 net.cpp:408] conv5_1/sep -> conv5_1/sep
I0109 10:44:54.785717  1663 net.cpp:150] Setting up conv5_1/sep
I0109 10:44:54.785753  1663 net.cpp:157] Top shape: 1 512 48 48 (1179648)
I0109 10:44:54.785758  1663 net.cpp:165] Memory required for data: 857955500
I0109 10:44:54.785769  1663 layer_factory.hpp:77] Creating layer conv5_1/sep/bn
I0109 10:44:54.785785  1663 net.cpp:100] Creating Layer conv5_1/sep/bn
I0109 10:44:54.785794  1663 net.cpp:434] conv5_1/sep/bn <- conv5_1/sep
I0109 10:44:54.785804  1663 net.cpp:395] conv5_1/sep/bn -> conv5_1/sep (in-place)
I0109 10:44:54.786099  1663 net.cpp:150] Setting up conv5_1/sep/bn
I0109 10:44:54.786108  1663 net.cpp:157] Top shape: 1 512 48 48 (1179648)
I0109 10:44:54.786111  1663 net.cpp:165] Memory required for data: 862674092
I0109 10:44:54.786121  1663 layer_factory.hpp:77] Creating layer conv5_1/sep/scale
I0109 10:44:54.786131  1663 net.cpp:100] Creating Layer conv5_1/sep/scale
I0109 10:44:54.786136  1663 net.cpp:434] conv5_1/sep/scale <- conv5_1/sep
I0109 10:44:54.786144  1663 net.cpp:395] conv5_1/sep/scale -> conv5_1/sep (in-place)
I0109 10:44:54.786193  1663 layer_factory.hpp:77] Creating layer conv5_1/sep/scale
I0109 10:44:54.786350  1663 net.cpp:150] Setting up conv5_1/sep/scale
I0109 10:44:54.786357  1663 net.cpp:157] Top shape: 1 512 48 48 (1179648)
I0109 10:44:54.786361  1663 net.cpp:165] Memory required for data: 867392684
I0109 10:44:54.786368  1663 layer_factory.hpp:77] Creating layer relu5_1/sep
I0109 10:44:54.786377  1663 net.cpp:100] Creating Layer relu5_1/sep
I0109 10:44:54.786382  1663 net.cpp:434] relu5_1/sep <- conv5_1/sep
I0109 10:44:54.786387  1663 net.cpp:395] relu5_1/sep -> conv5_1/sep (in-place)
I0109 10:44:54.786608  1663 net.cpp:150] Setting up relu5_1/sep
I0109 10:44:54.786617  1663 net.cpp:157] Top shape: 1 512 48 48 (1179648)
I0109 10:44:54.786622  1663 net.cpp:165] Memory required for data: 872111276
I0109 10:44:54.786625  1663 layer_factory.hpp:77] Creating layer conv5_2/dw
I0109 10:44:54.786638  1663 net.cpp:100] Creating Layer conv5_2/dw
I0109 10:44:54.786643  1663 net.cpp:434] conv5_2/dw <- conv5_1/sep
I0109 10:44:54.786653  1663 net.cpp:408] conv5_2/dw -> conv5_2/dw
I0109 10:44:54.787097  1663 net.cpp:150] Setting up conv5_2/dw
I0109 10:44:54.787108  1663 net.cpp:157] Top shape: 1 512 48 48 (1179648)
I0109 10:44:54.787113  1663 net.cpp:165] Memory required for data: 876829868
I0109 10:44:54.787120  1663 layer_factory.hpp:77] Creating layer conv5_2/dw/bn
I0109 10:44:54.787128  1663 net.cpp:100] Creating Layer conv5_2/dw/bn
I0109 10:44:54.787133  1663 net.cpp:434] conv5_2/dw/bn <- conv5_2/dw
I0109 10:44:54.787142  1663 net.cpp:395] conv5_2/dw/bn -> conv5_2/dw (in-place)
I0109 10:44:54.787472  1663 net.cpp:150] Setting up conv5_2/dw/bn
I0109 10:44:54.787482  1663 net.cpp:157] Top shape: 1 512 48 48 (1179648)
I0109 10:44:54.787487  1663 net.cpp:165] Memory required for data: 881548460
I0109 10:44:54.787497  1663 layer_factory.hpp:77] Creating layer conv5_2/dw/scale
I0109 10:44:54.787506  1663 net.cpp:100] Creating Layer conv5_2/dw/scale
I0109 10:44:54.787511  1663 net.cpp:434] conv5_2/dw/scale <- conv5_2/dw
I0109 10:44:54.787520  1663 net.cpp:395] conv5_2/dw/scale -> conv5_2/dw (in-place)
I0109 10:44:54.787575  1663 layer_factory.hpp:77] Creating layer conv5_2/dw/scale
I0109 10:44:54.787758  1663 net.cpp:150] Setting up conv5_2/dw/scale
I0109 10:44:54.787770  1663 net.cpp:157] Top shape: 1 512 48 48 (1179648)
I0109 10:44:54.787775  1663 net.cpp:165] Memory required for data: 886267052
I0109 10:44:54.787782  1663 layer_factory.hpp:77] Creating layer relu5_2/dw
I0109 10:44:54.787789  1663 net.cpp:100] Creating Layer relu5_2/dw
I0109 10:44:54.787796  1663 net.cpp:434] relu5_2/dw <- conv5_2/dw
I0109 10:44:54.787803  1663 net.cpp:395] relu5_2/dw -> conv5_2/dw (in-place)
I0109 10:44:54.788571  1663 net.cpp:150] Setting up relu5_2/dw
I0109 10:44:54.788584  1663 net.cpp:157] Top shape: 1 512 48 48 (1179648)
I0109 10:44:54.788590  1663 net.cpp:165] Memory required for data: 890985644
I0109 10:44:54.788595  1663 layer_factory.hpp:77] Creating layer conv5_2/sep
I0109 10:44:54.788609  1663 net.cpp:100] Creating Layer conv5_2/sep
I0109 10:44:54.788614  1663 net.cpp:434] conv5_2/sep <- conv5_2/dw
I0109 10:44:54.788620  1663 net.cpp:408] conv5_2/sep -> conv5_2/sep
I0109 10:44:54.797338  1663 net.cpp:150] Setting up conv5_2/sep
I0109 10:44:54.797374  1663 net.cpp:157] Top shape: 1 512 48 48 (1179648)
I0109 10:44:54.797379  1663 net.cpp:165] Memory required for data: 895704236
I0109 10:44:54.797386  1663 layer_factory.hpp:77] Creating layer conv5_2/sep/bn
I0109 10:44:54.797400  1663 net.cpp:100] Creating Layer conv5_2/sep/bn
I0109 10:44:54.797408  1663 net.cpp:434] conv5_2/sep/bn <- conv5_2/sep
I0109 10:44:54.797415  1663 net.cpp:395] conv5_2/sep/bn -> conv5_2/sep (in-place)
I0109 10:44:54.797628  1663 net.cpp:150] Setting up conv5_2/sep/bn
I0109 10:44:54.797634  1663 net.cpp:157] Top shape: 1 512 48 48 (1179648)
I0109 10:44:54.797637  1663 net.cpp:165] Memory required for data: 900422828
I0109 10:44:54.797644  1663 layer_factory.hpp:77] Creating layer conv5_2/sep/scale
I0109 10:44:54.797654  1663 net.cpp:100] Creating Layer conv5_2/sep/scale
I0109 10:44:54.797658  1663 net.cpp:434] conv5_2/sep/scale <- conv5_2/sep
I0109 10:44:54.797662  1663 net.cpp:395] conv5_2/sep/scale -> conv5_2/sep (in-place)
I0109 10:44:54.797708  1663 layer_factory.hpp:77] Creating layer conv5_2/sep/scale
I0109 10:44:54.797821  1663 net.cpp:150] Setting up conv5_2/sep/scale
I0109 10:44:54.797827  1663 net.cpp:157] Top shape: 1 512 48 48 (1179648)
I0109 10:44:54.797829  1663 net.cpp:165] Memory required for data: 905141420
I0109 10:44:54.797835  1663 layer_factory.hpp:77] Creating layer relu5_2/sep
I0109 10:44:54.797842  1663 net.cpp:100] Creating Layer relu5_2/sep
I0109 10:44:54.797847  1663 net.cpp:434] relu5_2/sep <- conv5_2/sep
I0109 10:44:54.797850  1663 net.cpp:395] relu5_2/sep -> conv5_2/sep (in-place)
I0109 10:44:54.798526  1663 net.cpp:150] Setting up relu5_2/sep
I0109 10:44:54.798538  1663 net.cpp:157] Top shape: 1 512 48 48 (1179648)
I0109 10:44:54.798543  1663 net.cpp:165] Memory required for data: 909860012
I0109 10:44:54.798548  1663 layer_factory.hpp:77] Creating layer conv5_3/dw
I0109 10:44:54.798561  1663 net.cpp:100] Creating Layer conv5_3/dw
I0109 10:44:54.798566  1663 net.cpp:434] conv5_3/dw <- conv5_2/sep
I0109 10:44:54.798574  1663 net.cpp:408] conv5_3/dw -> conv5_3/dw
I0109 10:44:54.798997  1663 net.cpp:150] Setting up conv5_3/dw
I0109 10:44:54.799006  1663 net.cpp:157] Top shape: 1 512 48 48 (1179648)
I0109 10:44:54.799010  1663 net.cpp:165] Memory required for data: 914578604
I0109 10:44:54.799017  1663 layer_factory.hpp:77] Creating layer conv5_3/dw/bn
I0109 10:44:54.799024  1663 net.cpp:100] Creating Layer conv5_3/dw/bn
I0109 10:44:54.799029  1663 net.cpp:434] conv5_3/dw/bn <- conv5_3/dw
I0109 10:44:54.799036  1663 net.cpp:395] conv5_3/dw/bn -> conv5_3/dw (in-place)
I0109 10:44:54.799315  1663 net.cpp:150] Setting up conv5_3/dw/bn
I0109 10:44:54.799324  1663 net.cpp:157] Top shape: 1 512 48 48 (1179648)
I0109 10:44:54.799329  1663 net.cpp:165] Memory required for data: 919297196
I0109 10:44:54.799338  1663 layer_factory.hpp:77] Creating layer conv5_3/dw/scale
I0109 10:44:54.799345  1663 net.cpp:100] Creating Layer conv5_3/dw/scale
I0109 10:44:54.799350  1663 net.cpp:434] conv5_3/dw/scale <- conv5_3/dw
I0109 10:44:54.799360  1663 net.cpp:395] conv5_3/dw/scale -> conv5_3/dw (in-place)
I0109 10:44:54.799408  1663 layer_factory.hpp:77] Creating layer conv5_3/dw/scale
I0109 10:44:54.799542  1663 net.cpp:150] Setting up conv5_3/dw/scale
I0109 10:44:54.799549  1663 net.cpp:157] Top shape: 1 512 48 48 (1179648)
I0109 10:44:54.799552  1663 net.cpp:165] Memory required for data: 924015788
I0109 10:44:54.799558  1663 layer_factory.hpp:77] Creating layer relu5_3/dw
I0109 10:44:54.799564  1663 net.cpp:100] Creating Layer relu5_3/dw
I0109 10:44:54.799568  1663 net.cpp:434] relu5_3/dw <- conv5_3/dw
I0109 10:44:54.799573  1663 net.cpp:395] relu5_3/dw -> conv5_3/dw (in-place)
I0109 10:44:54.799731  1663 net.cpp:150] Setting up relu5_3/dw
I0109 10:44:54.799739  1663 net.cpp:157] Top shape: 1 512 48 48 (1179648)
I0109 10:44:54.799742  1663 net.cpp:165] Memory required for data: 928734380
I0109 10:44:54.799746  1663 layer_factory.hpp:77] Creating layer conv5_3/sep
I0109 10:44:54.799753  1663 net.cpp:100] Creating Layer conv5_3/sep
I0109 10:44:54.799757  1663 net.cpp:434] conv5_3/sep <- conv5_3/dw
I0109 10:44:54.799763  1663 net.cpp:408] conv5_3/sep -> conv5_3/sep
I0109 10:44:54.808861  1663 net.cpp:150] Setting up conv5_3/sep
I0109 10:44:54.808887  1663 net.cpp:157] Top shape: 1 512 48 48 (1179648)
I0109 10:44:54.808892  1663 net.cpp:165] Memory required for data: 933452972
I0109 10:44:54.808899  1663 layer_factory.hpp:77] Creating layer conv5_3/sep/bn
I0109 10:44:54.808912  1663 net.cpp:100] Creating Layer conv5_3/sep/bn
I0109 10:44:54.808918  1663 net.cpp:434] conv5_3/sep/bn <- conv5_3/sep
I0109 10:44:54.808924  1663 net.cpp:395] conv5_3/sep/bn -> conv5_3/sep (in-place)
I0109 10:44:54.809141  1663 net.cpp:150] Setting up conv5_3/sep/bn
I0109 10:44:54.809147  1663 net.cpp:157] Top shape: 1 512 48 48 (1179648)
I0109 10:44:54.809150  1663 net.cpp:165] Memory required for data: 938171564
I0109 10:44:54.809157  1663 layer_factory.hpp:77] Creating layer conv5_3/sep/scale
I0109 10:44:54.809165  1663 net.cpp:100] Creating Layer conv5_3/sep/scale
I0109 10:44:54.809170  1663 net.cpp:434] conv5_3/sep/scale <- conv5_3/sep
I0109 10:44:54.809175  1663 net.cpp:395] conv5_3/sep/scale -> conv5_3/sep (in-place)
I0109 10:44:54.809217  1663 layer_factory.hpp:77] Creating layer conv5_3/sep/scale
I0109 10:44:54.809329  1663 net.cpp:150] Setting up conv5_3/sep/scale
I0109 10:44:54.809335  1663 net.cpp:157] Top shape: 1 512 48 48 (1179648)
I0109 10:44:54.809339  1663 net.cpp:165] Memory required for data: 942890156
I0109 10:44:54.809343  1663 layer_factory.hpp:77] Creating layer relu5_3/sep
I0109 10:44:54.809350  1663 net.cpp:100] Creating Layer relu5_3/sep
I0109 10:44:54.809353  1663 net.cpp:434] relu5_3/sep <- conv5_3/sep
I0109 10:44:54.809360  1663 net.cpp:395] relu5_3/sep -> conv5_3/sep (in-place)
I0109 10:44:54.809530  1663 net.cpp:150] Setting up relu5_3/sep
I0109 10:44:54.809536  1663 net.cpp:157] Top shape: 1 512 48 48 (1179648)
I0109 10:44:54.809540  1663 net.cpp:165] Memory required for data: 947608748
I0109 10:44:54.809543  1663 layer_factory.hpp:77] Creating layer conv5_4/dw
I0109 10:44:54.809553  1663 net.cpp:100] Creating Layer conv5_4/dw
I0109 10:44:54.809556  1663 net.cpp:434] conv5_4/dw <- conv5_3/sep
I0109 10:44:54.809563  1663 net.cpp:408] conv5_4/dw -> conv5_4/dw
I0109 10:44:54.809888  1663 net.cpp:150] Setting up conv5_4/dw
I0109 10:44:54.809895  1663 net.cpp:157] Top shape: 1 512 48 48 (1179648)
I0109 10:44:54.809898  1663 net.cpp:165] Memory required for data: 952327340
I0109 10:44:54.809903  1663 layer_factory.hpp:77] Creating layer conv5_4/dw/bn
I0109 10:44:54.809909  1663 net.cpp:100] Creating Layer conv5_4/dw/bn
I0109 10:44:54.809913  1663 net.cpp:434] conv5_4/dw/bn <- conv5_4/dw
I0109 10:44:54.809917  1663 net.cpp:395] conv5_4/dw/bn -> conv5_4/dw (in-place)
I0109 10:44:54.810109  1663 net.cpp:150] Setting up conv5_4/dw/bn
I0109 10:44:54.810115  1663 net.cpp:157] Top shape: 1 512 48 48 (1179648)
I0109 10:44:54.810118  1663 net.cpp:165] Memory required for data: 957045932
I0109 10:44:54.810125  1663 layer_factory.hpp:77] Creating layer conv5_4/dw/scale
I0109 10:44:54.810132  1663 net.cpp:100] Creating Layer conv5_4/dw/scale
I0109 10:44:54.810134  1663 net.cpp:434] conv5_4/dw/scale <- conv5_4/dw
I0109 10:44:54.810139  1663 net.cpp:395] conv5_4/dw/scale -> conv5_4/dw (in-place)
I0109 10:44:54.810174  1663 layer_factory.hpp:77] Creating layer conv5_4/dw/scale
I0109 10:44:54.810283  1663 net.cpp:150] Setting up conv5_4/dw/scale
I0109 10:44:54.810288  1663 net.cpp:157] Top shape: 1 512 48 48 (1179648)
I0109 10:44:54.810292  1663 net.cpp:165] Memory required for data: 961764524
I0109 10:44:54.810309  1663 layer_factory.hpp:77] Creating layer relu5_4/dw
I0109 10:44:54.810315  1663 net.cpp:100] Creating Layer relu5_4/dw
I0109 10:44:54.810318  1663 net.cpp:434] relu5_4/dw <- conv5_4/dw
I0109 10:44:54.810323  1663 net.cpp:395] relu5_4/dw -> conv5_4/dw (in-place)
I0109 10:44:54.810478  1663 net.cpp:150] Setting up relu5_4/dw
I0109 10:44:54.810485  1663 net.cpp:157] Top shape: 1 512 48 48 (1179648)
I0109 10:44:54.810488  1663 net.cpp:165] Memory required for data: 966483116
I0109 10:44:54.810492  1663 layer_factory.hpp:77] Creating layer conv5_4/sep
I0109 10:44:54.810499  1663 net.cpp:100] Creating Layer conv5_4/sep
I0109 10:44:54.810503  1663 net.cpp:434] conv5_4/sep <- conv5_4/dw
I0109 10:44:54.810510  1663 net.cpp:408] conv5_4/sep -> conv5_4/sep
I0109 10:44:54.818485  1663 net.cpp:150] Setting up conv5_4/sep
I0109 10:44:54.818501  1663 net.cpp:157] Top shape: 1 512 48 48 (1179648)
I0109 10:44:54.818506  1663 net.cpp:165] Memory required for data: 971201708
I0109 10:44:54.818512  1663 layer_factory.hpp:77] Creating layer conv5_4/sep/bn
I0109 10:44:54.818524  1663 net.cpp:100] Creating Layer conv5_4/sep/bn
I0109 10:44:54.818529  1663 net.cpp:434] conv5_4/sep/bn <- conv5_4/sep
I0109 10:44:54.818534  1663 net.cpp:395] conv5_4/sep/bn -> conv5_4/sep (in-place)
I0109 10:44:54.818737  1663 net.cpp:150] Setting up conv5_4/sep/bn
I0109 10:44:54.818743  1663 net.cpp:157] Top shape: 1 512 48 48 (1179648)
I0109 10:44:54.818747  1663 net.cpp:165] Memory required for data: 975920300
I0109 10:44:54.818753  1663 layer_factory.hpp:77] Creating layer conv5_4/sep/scale
I0109 10:44:54.818760  1663 net.cpp:100] Creating Layer conv5_4/sep/scale
I0109 10:44:54.818763  1663 net.cpp:434] conv5_4/sep/scale <- conv5_4/sep
I0109 10:44:54.818769  1663 net.cpp:395] conv5_4/sep/scale -> conv5_4/sep (in-place)
I0109 10:44:54.818804  1663 layer_factory.hpp:77] Creating layer conv5_4/sep/scale
I0109 10:44:54.818914  1663 net.cpp:150] Setting up conv5_4/sep/scale
I0109 10:44:54.818920  1663 net.cpp:157] Top shape: 1 512 48 48 (1179648)
I0109 10:44:54.818923  1663 net.cpp:165] Memory required for data: 980638892
I0109 10:44:54.818928  1663 layer_factory.hpp:77] Creating layer relu5_4/sep
I0109 10:44:54.818934  1663 net.cpp:100] Creating Layer relu5_4/sep
I0109 10:44:54.818938  1663 net.cpp:434] relu5_4/sep <- conv5_4/sep
I0109 10:44:54.818943  1663 net.cpp:395] relu5_4/sep -> conv5_4/sep (in-place)
I0109 10:44:54.819440  1663 net.cpp:150] Setting up relu5_4/sep
I0109 10:44:54.819450  1663 net.cpp:157] Top shape: 1 512 48 48 (1179648)
I0109 10:44:54.819453  1663 net.cpp:165] Memory required for data: 985357484
I0109 10:44:54.819458  1663 layer_factory.hpp:77] Creating layer conv5_5/dw
I0109 10:44:54.819466  1663 net.cpp:100] Creating Layer conv5_5/dw
I0109 10:44:54.819470  1663 net.cpp:434] conv5_5/dw <- conv5_4/sep
I0109 10:44:54.819475  1663 net.cpp:408] conv5_5/dw -> conv5_5/dw
I0109 10:44:54.819794  1663 net.cpp:150] Setting up conv5_5/dw
I0109 10:44:54.819800  1663 net.cpp:157] Top shape: 1 512 48 48 (1179648)
I0109 10:44:54.819803  1663 net.cpp:165] Memory required for data: 990076076
I0109 10:44:54.819808  1663 layer_factory.hpp:77] Creating layer conv5_5/dw/bn
I0109 10:44:54.819813  1663 net.cpp:100] Creating Layer conv5_5/dw/bn
I0109 10:44:54.819816  1663 net.cpp:434] conv5_5/dw/bn <- conv5_5/dw
I0109 10:44:54.819821  1663 net.cpp:395] conv5_5/dw/bn -> conv5_5/dw (in-place)
I0109 10:44:54.820015  1663 net.cpp:150] Setting up conv5_5/dw/bn
I0109 10:44:54.820021  1663 net.cpp:157] Top shape: 1 512 48 48 (1179648)
I0109 10:44:54.820024  1663 net.cpp:165] Memory required for data: 994794668
I0109 10:44:54.820031  1663 layer_factory.hpp:77] Creating layer conv5_5/dw/scale
I0109 10:44:54.820039  1663 net.cpp:100] Creating Layer conv5_5/dw/scale
I0109 10:44:54.820041  1663 net.cpp:434] conv5_5/dw/scale <- conv5_5/dw
I0109 10:44:54.820046  1663 net.cpp:395] conv5_5/dw/scale -> conv5_5/dw (in-place)
I0109 10:44:54.820081  1663 layer_factory.hpp:77] Creating layer conv5_5/dw/scale
I0109 10:44:54.820191  1663 net.cpp:150] Setting up conv5_5/dw/scale
I0109 10:44:54.820197  1663 net.cpp:157] Top shape: 1 512 48 48 (1179648)
I0109 10:44:54.820200  1663 net.cpp:165] Memory required for data: 999513260
I0109 10:44:54.820205  1663 layer_factory.hpp:77] Creating layer relu5_5/dw
I0109 10:44:54.820212  1663 net.cpp:100] Creating Layer relu5_5/dw
I0109 10:44:54.820215  1663 net.cpp:434] relu5_5/dw <- conv5_5/dw
I0109 10:44:54.820219  1663 net.cpp:395] relu5_5/dw -> conv5_5/dw (in-place)
I0109 10:44:54.820372  1663 net.cpp:150] Setting up relu5_5/dw
I0109 10:44:54.820379  1663 net.cpp:157] Top shape: 1 512 48 48 (1179648)
I0109 10:44:54.820382  1663 net.cpp:165] Memory required for data: 1004231852
I0109 10:44:54.820387  1663 layer_factory.hpp:77] Creating layer conv5_5/sep
I0109 10:44:54.820395  1663 net.cpp:100] Creating Layer conv5_5/sep
I0109 10:44:54.820399  1663 net.cpp:434] conv5_5/sep <- conv5_5/dw
I0109 10:44:54.820405  1663 net.cpp:408] conv5_5/sep -> conv5_5/sep
I0109 10:44:54.829367  1663 net.cpp:150] Setting up conv5_5/sep
I0109 10:44:54.829403  1663 net.cpp:157] Top shape: 1 512 48 48 (1179648)
I0109 10:44:54.829407  1663 net.cpp:165] Memory required for data: 1008950444
I0109 10:44:54.829418  1663 layer_factory.hpp:77] Creating layer conv5_5/sep/bn
I0109 10:44:54.829434  1663 net.cpp:100] Creating Layer conv5_5/sep/bn
I0109 10:44:54.829443  1663 net.cpp:434] conv5_5/sep/bn <- conv5_5/sep
I0109 10:44:54.829452  1663 net.cpp:395] conv5_5/sep/bn -> conv5_5/sep (in-place)
I0109 10:44:54.829689  1663 net.cpp:150] Setting up conv5_5/sep/bn
I0109 10:44:54.829720  1663 net.cpp:157] Top shape: 1 512 48 48 (1179648)
I0109 10:44:54.829725  1663 net.cpp:165] Memory required for data: 1013669036
I0109 10:44:54.829732  1663 layer_factory.hpp:77] Creating layer conv5_5/sep/scale
I0109 10:44:54.829746  1663 net.cpp:100] Creating Layer conv5_5/sep/scale
I0109 10:44:54.829749  1663 net.cpp:434] conv5_5/sep/scale <- conv5_5/sep
I0109 10:44:54.829756  1663 net.cpp:395] conv5_5/sep/scale -> conv5_5/sep (in-place)
I0109 10:44:54.829800  1663 layer_factory.hpp:77] Creating layer conv5_5/sep/scale
I0109 10:44:54.829918  1663 net.cpp:150] Setting up conv5_5/sep/scale
I0109 10:44:54.829924  1663 net.cpp:157] Top shape: 1 512 48 48 (1179648)
I0109 10:44:54.829928  1663 net.cpp:165] Memory required for data: 1018387628
I0109 10:44:54.829933  1663 layer_factory.hpp:77] Creating layer relu5_5/sep
I0109 10:44:54.829941  1663 net.cpp:100] Creating Layer relu5_5/sep
I0109 10:44:54.829944  1663 net.cpp:434] relu5_5/sep <- conv5_5/sep
I0109 10:44:54.829948  1663 net.cpp:395] relu5_5/sep -> conv5_5/sep (in-place)
I0109 10:44:54.830130  1663 net.cpp:150] Setting up relu5_5/sep
I0109 10:44:54.830137  1663 net.cpp:157] Top shape: 1 512 48 48 (1179648)
I0109 10:44:54.830140  1663 net.cpp:165] Memory required for data: 1023106220
I0109 10:44:54.830143  1663 layer_factory.hpp:77] Creating layer conv5_5/sep_relu5_5/sep_0_split
I0109 10:44:54.830154  1663 net.cpp:100] Creating Layer conv5_5/sep_relu5_5/sep_0_split
I0109 10:44:54.830157  1663 net.cpp:434] conv5_5/sep_relu5_5/sep_0_split <- conv5_5/sep
I0109 10:44:54.830163  1663 net.cpp:408] conv5_5/sep_relu5_5/sep_0_split -> conv5_5/sep_relu5_5/sep_0_split_0
I0109 10:44:54.830169  1663 net.cpp:408] conv5_5/sep_relu5_5/sep_0_split -> conv5_5/sep_relu5_5/sep_0_split_1
I0109 10:44:54.830176  1663 net.cpp:408] conv5_5/sep_relu5_5/sep_0_split -> conv5_5/sep_relu5_5/sep_0_split_2
I0109 10:44:54.830229  1663 net.cpp:150] Setting up conv5_5/sep_relu5_5/sep_0_split
I0109 10:44:54.830235  1663 net.cpp:157] Top shape: 1 512 48 48 (1179648)
I0109 10:44:54.830238  1663 net.cpp:157] Top shape: 1 512 48 48 (1179648)
I0109 10:44:54.830241  1663 net.cpp:157] Top shape: 1 512 48 48 (1179648)
I0109 10:44:54.830245  1663 net.cpp:165] Memory required for data: 1037261996
I0109 10:44:54.830248  1663 layer_factory.hpp:77] Creating layer LFCN_2_5x5
I0109 10:44:54.830260  1663 net.cpp:100] Creating Layer LFCN_2_5x5
I0109 10:44:54.830263  1663 net.cpp:434] LFCN_2_5x5 <- conv5_5/sep_relu5_5/sep_0_split_0
I0109 10:44:54.830271  1663 net.cpp:408] LFCN_2_5x5 -> LFCN_2_5x5
I0109 10:44:54.834712  1663 net.cpp:150] Setting up LFCN_2_5x5
I0109 10:44:54.834740  1663 net.cpp:157] Top shape: 1 9 48 48 (20736)
I0109 10:44:54.834744  1663 net.cpp:165] Memory required for data: 1037344940
I0109 10:44:54.834753  1663 layer_factory.hpp:77] Creating layer LFCN_2_5x5_LFCN_2_5x5_0_split
I0109 10:44:54.834764  1663 net.cpp:100] Creating Layer LFCN_2_5x5_LFCN_2_5x5_0_split
I0109 10:44:54.834770  1663 net.cpp:434] LFCN_2_5x5_LFCN_2_5x5_0_split <- LFCN_2_5x5
I0109 10:44:54.834779  1663 net.cpp:408] LFCN_2_5x5_LFCN_2_5x5_0_split -> LFCN_2_5x5_LFCN_2_5x5_0_split_0
I0109 10:44:54.834786  1663 net.cpp:408] LFCN_2_5x5_LFCN_2_5x5_0_split -> LFCN_2_5x5_LFCN_2_5x5_0_split_1
I0109 10:44:54.834827  1663 net.cpp:150] Setting up LFCN_2_5x5_LFCN_2_5x5_0_split
I0109 10:44:54.834833  1663 net.cpp:157] Top shape: 1 9 48 48 (20736)
I0109 10:44:54.834837  1663 net.cpp:157] Top shape: 1 9 48 48 (20736)
I0109 10:44:54.834841  1663 net.cpp:165] Memory required for data: 1037510828
I0109 10:44:54.834843  1663 layer_factory.hpp:77] Creating layer detection_loss_2_5x5
I0109 10:44:54.834851  1663 net.cpp:100] Creating Layer detection_loss_2_5x5
I0109 10:44:54.834854  1663 net.cpp:434] detection_loss_2_5x5 <- LFCN_2_5x5_LFCN_2_5x5_0_split_0
I0109 10:44:54.834859  1663 net.cpp:434] detection_loss_2_5x5 <- label_2_5x5_data_3_split_0
I0109 10:44:54.834867  1663 net.cpp:408] detection_loss_2_5x5 -> loss_2_5x5
I0109 10:44:54.834877  1663 layer_factory.hpp:77] Creating layer detection_loss_2_5x5
I0109 10:44:54.835216  1663 net.cpp:150] Setting up detection_loss_2_5x5
I0109 10:44:54.835227  1663 net.cpp:157] Top shape: 1 1 1 2 (2)
I0109 10:44:54.835229  1663 net.cpp:160]     with loss weight 1
I0109 10:44:54.835242  1663 net.cpp:165] Memory required for data: 1037510836
I0109 10:44:54.835244  1663 layer_factory.hpp:77] Creating layer detection_accuracy_2_5x5
I0109 10:44:54.835253  1663 net.cpp:100] Creating Layer detection_accuracy_2_5x5
I0109 10:44:54.835255  1663 net.cpp:434] detection_accuracy_2_5x5 <- LFCN_2_5x5_LFCN_2_5x5_0_split_1
I0109 10:44:54.835260  1663 net.cpp:434] detection_accuracy_2_5x5 <- label_2_5x5_data_3_split_1
I0109 10:44:54.835268  1663 net.cpp:408] detection_accuracy_2_5x5 -> accuracy_2_5x5
I0109 10:44:54.835273  1663 net.cpp:408] detection_accuracy_2_5x5 -> boxiou_2_5x5
I0109 10:44:54.835317  1663 net.cpp:150] Setting up detection_accuracy_2_5x5
I0109 10:44:54.835325  1663 net.cpp:157] Top shape: 1 1 1 2 (2)
I0109 10:44:54.835328  1663 net.cpp:157] Top shape: 1 1 1 1 (1)
I0109 10:44:54.835331  1663 net.cpp:165] Memory required for data: 1037510848
I0109 10:44:54.835335  1663 layer_factory.hpp:77] Creating layer LFCN_2_7x7
I0109 10:44:54.835345  1663 net.cpp:100] Creating Layer LFCN_2_7x7
I0109 10:44:54.835350  1663 net.cpp:434] LFCN_2_7x7 <- conv5_5/sep_relu5_5/sep_0_split_1
I0109 10:44:54.835355  1663 net.cpp:408] LFCN_2_7x7 -> LFCN_2_7x7
I0109 10:44:54.843418  1663 net.cpp:150] Setting up LFCN_2_7x7
I0109 10:44:54.843444  1663 net.cpp:157] Top shape: 1 9 48 48 (20736)
I0109 10:44:54.843448  1663 net.cpp:165] Memory required for data: 1037593792
I0109 10:44:54.843456  1663 layer_factory.hpp:77] Creating layer LFCN_2_7x7_LFCN_2_7x7_0_split
I0109 10:44:54.843467  1663 net.cpp:100] Creating Layer LFCN_2_7x7_LFCN_2_7x7_0_split
I0109 10:44:54.843474  1663 net.cpp:434] LFCN_2_7x7_LFCN_2_7x7_0_split <- LFCN_2_7x7
I0109 10:44:54.843482  1663 net.cpp:408] LFCN_2_7x7_LFCN_2_7x7_0_split -> LFCN_2_7x7_LFCN_2_7x7_0_split_0
I0109 10:44:54.843490  1663 net.cpp:408] LFCN_2_7x7_LFCN_2_7x7_0_split -> LFCN_2_7x7_LFCN_2_7x7_0_split_1
I0109 10:44:54.843530  1663 net.cpp:150] Setting up LFCN_2_7x7_LFCN_2_7x7_0_split
I0109 10:44:54.843535  1663 net.cpp:157] Top shape: 1 9 48 48 (20736)
I0109 10:44:54.843539  1663 net.cpp:157] Top shape: 1 9 48 48 (20736)
I0109 10:44:54.843544  1663 net.cpp:165] Memory required for data: 1037759680
I0109 10:44:54.843546  1663 layer_factory.hpp:77] Creating layer detection_loss_2_7x7
I0109 10:44:54.843554  1663 net.cpp:100] Creating Layer detection_loss_2_7x7
I0109 10:44:54.843556  1663 net.cpp:434] detection_loss_2_7x7 <- LFCN_2_7x7_LFCN_2_7x7_0_split_0
I0109 10:44:54.843562  1663 net.cpp:434] detection_loss_2_7x7 <- label_2_7x7_data_4_split_0
I0109 10:44:54.843569  1663 net.cpp:408] detection_loss_2_7x7 -> loss_2_7x7
I0109 10:44:54.843578  1663 layer_factory.hpp:77] Creating layer detection_loss_2_7x7
I0109 10:44:54.844286  1663 net.cpp:150] Setting up detection_loss_2_7x7
I0109 10:44:54.844347  1663 net.cpp:157] Top shape: 1 1 1 2 (2)
I0109 10:44:54.844353  1663 net.cpp:160]     with loss weight 1
I0109 10:44:54.844408  1663 net.cpp:165] Memory required for data: 1037759688
I0109 10:44:54.844419  1663 layer_factory.hpp:77] Creating layer detection_accuracy_2_7x7
I0109 10:44:54.844456  1663 net.cpp:100] Creating Layer detection_accuracy_2_7x7
I0109 10:44:54.844471  1663 net.cpp:434] detection_accuracy_2_7x7 <- LFCN_2_7x7_LFCN_2_7x7_0_split_1
I0109 10:44:54.844491  1663 net.cpp:434] detection_accuracy_2_7x7 <- label_2_7x7_data_4_split_1
I0109 10:44:54.844503  1663 net.cpp:408] detection_accuracy_2_7x7 -> accuracy_2_7x7
I0109 10:44:54.844517  1663 net.cpp:408] detection_accuracy_2_7x7 -> boxiou_2_7x7
I0109 10:44:54.844676  1663 net.cpp:150] Setting up detection_accuracy_2_7x7
I0109 10:44:54.844694  1663 net.cpp:157] Top shape: 1 1 1 2 (2)
I0109 10:44:54.844698  1663 net.cpp:157] Top shape: 1 1 1 1 (1)
I0109 10:44:54.844702  1663 net.cpp:165] Memory required for data: 1037759700
I0109 10:44:54.844707  1663 layer_factory.hpp:77] Creating layer conv5_6/dw
I0109 10:44:54.844743  1663 net.cpp:100] Creating Layer conv5_6/dw
I0109 10:44:54.844751  1663 net.cpp:434] conv5_6/dw <- conv5_5/sep_relu5_5/sep_0_split_2
I0109 10:44:54.844764  1663 net.cpp:408] conv5_6/dw -> conv5_6/dw
I0109 10:44:54.845204  1663 net.cpp:150] Setting up conv5_6/dw
I0109 10:44:54.845219  1663 net.cpp:157] Top shape: 1 512 24 24 (294912)
I0109 10:44:54.845222  1663 net.cpp:165] Memory required for data: 1038939348
I0109 10:44:54.845229  1663 layer_factory.hpp:77] Creating layer conv5_6/dw/bn
I0109 10:44:54.845261  1663 net.cpp:100] Creating Layer conv5_6/dw/bn
I0109 10:44:54.845268  1663 net.cpp:434] conv5_6/dw/bn <- conv5_6/dw
I0109 10:44:54.845273  1663 net.cpp:395] conv5_6/dw/bn -> conv5_6/dw (in-place)
I0109 10:44:54.845495  1663 net.cpp:150] Setting up conv5_6/dw/bn
I0109 10:44:54.845501  1663 net.cpp:157] Top shape: 1 512 24 24 (294912)
I0109 10:44:54.845506  1663 net.cpp:165] Memory required for data: 1040118996
I0109 10:44:54.845513  1663 layer_factory.hpp:77] Creating layer conv5_6/dw/scale
I0109 10:44:54.845521  1663 net.cpp:100] Creating Layer conv5_6/dw/scale
I0109 10:44:54.845525  1663 net.cpp:434] conv5_6/dw/scale <- conv5_6/dw
I0109 10:44:54.845530  1663 net.cpp:395] conv5_6/dw/scale -> conv5_6/dw (in-place)
I0109 10:44:54.845576  1663 layer_factory.hpp:77] Creating layer conv5_6/dw/scale
I0109 10:44:54.845690  1663 net.cpp:150] Setting up conv5_6/dw/scale
I0109 10:44:54.845707  1663 net.cpp:157] Top shape: 1 512 24 24 (294912)
I0109 10:44:54.845711  1663 net.cpp:165] Memory required for data: 1041298644
I0109 10:44:54.845716  1663 layer_factory.hpp:77] Creating layer relu5_6/dw
I0109 10:44:54.845723  1663 net.cpp:100] Creating Layer relu5_6/dw
I0109 10:44:54.845727  1663 net.cpp:434] relu5_6/dw <- conv5_6/dw
I0109 10:44:54.845732  1663 net.cpp:395] relu5_6/dw -> conv5_6/dw (in-place)
I0109 10:44:54.847134  1663 net.cpp:150] Setting up relu5_6/dw
I0109 10:44:54.847158  1663 net.cpp:157] Top shape: 1 512 24 24 (294912)
I0109 10:44:54.847162  1663 net.cpp:165] Memory required for data: 1042478292
I0109 10:44:54.847168  1663 layer_factory.hpp:77] Creating layer conv5_6/sep
I0109 10:44:54.847187  1663 net.cpp:100] Creating Layer conv5_6/sep
I0109 10:44:54.847193  1663 net.cpp:434] conv5_6/sep <- conv5_6/dw
I0109 10:44:54.847200  1663 net.cpp:408] conv5_6/sep -> conv5_6/sep
I0109 10:44:54.863103  1663 net.cpp:150] Setting up conv5_6/sep
I0109 10:44:54.863131  1663 net.cpp:157] Top shape: 1 1024 24 24 (589824)
I0109 10:44:54.863134  1663 net.cpp:165] Memory required for data: 1044837588
I0109 10:44:54.863142  1663 layer_factory.hpp:77] Creating layer conv5_6/sep/bn
I0109 10:44:54.863155  1663 net.cpp:100] Creating Layer conv5_6/sep/bn
I0109 10:44:54.863163  1663 net.cpp:434] conv5_6/sep/bn <- conv5_6/sep
I0109 10:44:54.863170  1663 net.cpp:395] conv5_6/sep/bn -> conv5_6/sep (in-place)
I0109 10:44:54.863392  1663 net.cpp:150] Setting up conv5_6/sep/bn
I0109 10:44:54.863400  1663 net.cpp:157] Top shape: 1 1024 24 24 (589824)
I0109 10:44:54.863404  1663 net.cpp:165] Memory required for data: 1047196884
I0109 10:44:54.863410  1663 layer_factory.hpp:77] Creating layer conv5_6/sep/scale
I0109 10:44:54.863421  1663 net.cpp:100] Creating Layer conv5_6/sep/scale
I0109 10:44:54.863426  1663 net.cpp:434] conv5_6/sep/scale <- conv5_6/sep
I0109 10:44:54.863430  1663 net.cpp:395] conv5_6/sep/scale -> conv5_6/sep (in-place)
I0109 10:44:54.863476  1663 layer_factory.hpp:77] Creating layer conv5_6/sep/scale
I0109 10:44:54.863593  1663 net.cpp:150] Setting up conv5_6/sep/scale
I0109 10:44:54.863600  1663 net.cpp:157] Top shape: 1 1024 24 24 (589824)
I0109 10:44:54.863603  1663 net.cpp:165] Memory required for data: 1049556180
I0109 10:44:54.863610  1663 layer_factory.hpp:77] Creating layer relu5_6/sep
I0109 10:44:54.863617  1663 net.cpp:100] Creating Layer relu5_6/sep
I0109 10:44:54.863621  1663 net.cpp:434] relu5_6/sep <- conv5_6/sep
I0109 10:44:54.863626  1663 net.cpp:395] relu5_6/sep -> conv5_6/sep (in-place)
I0109 10:44:54.863795  1663 net.cpp:150] Setting up relu5_6/sep
I0109 10:44:54.863802  1663 net.cpp:157] Top shape: 1 1024 24 24 (589824)
I0109 10:44:54.863806  1663 net.cpp:165] Memory required for data: 1051915476
I0109 10:44:54.863809  1663 layer_factory.hpp:77] Creating layer conv6/dw
I0109 10:44:54.863821  1663 net.cpp:100] Creating Layer conv6/dw
I0109 10:44:54.863824  1663 net.cpp:434] conv6/dw <- conv5_6/sep
I0109 10:44:54.863831  1663 net.cpp:408] conv6/dw -> conv6/dw
I0109 10:44:54.864270  1663 net.cpp:150] Setting up conv6/dw
I0109 10:44:54.864279  1663 net.cpp:157] Top shape: 1 1024 24 24 (589824)
I0109 10:44:54.864281  1663 net.cpp:165] Memory required for data: 1054274772
I0109 10:44:54.864285  1663 layer_factory.hpp:77] Creating layer conv6/dw/bn
I0109 10:44:54.864291  1663 net.cpp:100] Creating Layer conv6/dw/bn
I0109 10:44:54.864295  1663 net.cpp:434] conv6/dw/bn <- conv6/dw
I0109 10:44:54.864300  1663 net.cpp:395] conv6/dw/bn -> conv6/dw (in-place)
I0109 10:44:54.864501  1663 net.cpp:150] Setting up conv6/dw/bn
I0109 10:44:54.864508  1663 net.cpp:157] Top shape: 1 1024 24 24 (589824)
I0109 10:44:54.864511  1663 net.cpp:165] Memory required for data: 1056634068
I0109 10:44:54.864518  1663 layer_factory.hpp:77] Creating layer conv6/dw/scale
I0109 10:44:54.864526  1663 net.cpp:100] Creating Layer conv6/dw/scale
I0109 10:44:54.864528  1663 net.cpp:434] conv6/dw/scale <- conv6/dw
I0109 10:44:54.864533  1663 net.cpp:395] conv6/dw/scale -> conv6/dw (in-place)
I0109 10:44:54.864578  1663 layer_factory.hpp:77] Creating layer conv6/dw/scale
I0109 10:44:54.864691  1663 net.cpp:150] Setting up conv6/dw/scale
I0109 10:44:54.864697  1663 net.cpp:157] Top shape: 1 1024 24 24 (589824)
I0109 10:44:54.864701  1663 net.cpp:165] Memory required for data: 1058993364
I0109 10:44:54.864706  1663 layer_factory.hpp:77] Creating layer relu6/dw
I0109 10:44:54.864712  1663 net.cpp:100] Creating Layer relu6/dw
I0109 10:44:54.864717  1663 net.cpp:434] relu6/dw <- conv6/dw
I0109 10:44:54.864722  1663 net.cpp:395] relu6/dw -> conv6/dw (in-place)
I0109 10:44:54.864881  1663 net.cpp:150] Setting up relu6/dw
I0109 10:44:54.864889  1663 net.cpp:157] Top shape: 1 1024 24 24 (589824)
I0109 10:44:54.864893  1663 net.cpp:165] Memory required for data: 1061352660
I0109 10:44:54.864897  1663 layer_factory.hpp:77] Creating layer conv6/sep
I0109 10:44:54.864904  1663 net.cpp:100] Creating Layer conv6/sep
I0109 10:44:54.864909  1663 net.cpp:434] conv6/sep <- conv6/dw
I0109 10:44:54.864915  1663 net.cpp:408] conv6/sep -> conv6/sep
I0109 10:44:54.896507  1663 net.cpp:150] Setting up conv6/sep
I0109 10:44:54.896539  1663 net.cpp:157] Top shape: 1 1024 24 24 (589824)
I0109 10:44:54.896543  1663 net.cpp:165] Memory required for data: 1063711956
I0109 10:44:54.896553  1663 layer_factory.hpp:77] Creating layer conv6/sep/bn
I0109 10:44:54.896569  1663 net.cpp:100] Creating Layer conv6/sep/bn
I0109 10:44:54.896576  1663 net.cpp:434] conv6/sep/bn <- conv6/sep
I0109 10:44:54.896600  1663 net.cpp:395] conv6/sep/bn -> conv6/sep (in-place)
I0109 10:44:54.896839  1663 net.cpp:150] Setting up conv6/sep/bn
I0109 10:44:54.896847  1663 net.cpp:157] Top shape: 1 1024 24 24 (589824)
I0109 10:44:54.896850  1663 net.cpp:165] Memory required for data: 1066071252
I0109 10:44:54.896858  1663 layer_factory.hpp:77] Creating layer conv6/sep/scale
I0109 10:44:54.896870  1663 net.cpp:100] Creating Layer conv6/sep/scale
I0109 10:44:54.896876  1663 net.cpp:434] conv6/sep/scale <- conv6/sep
I0109 10:44:54.896880  1663 net.cpp:395] conv6/sep/scale -> conv6/sep (in-place)
I0109 10:44:54.896929  1663 layer_factory.hpp:77] Creating layer conv6/sep/scale
I0109 10:44:54.897049  1663 net.cpp:150] Setting up conv6/sep/scale
I0109 10:44:54.897056  1663 net.cpp:157] Top shape: 1 1024 24 24 (589824)
I0109 10:44:54.897059  1663 net.cpp:165] Memory required for data: 1068430548
I0109 10:44:54.897065  1663 layer_factory.hpp:77] Creating layer relu6/sep
I0109 10:44:54.897073  1663 net.cpp:100] Creating Layer relu6/sep
I0109 10:44:54.897076  1663 net.cpp:434] relu6/sep <- conv6/sep
I0109 10:44:54.897081  1663 net.cpp:395] relu6/sep -> conv6/sep (in-place)
I0109 10:44:54.897294  1663 net.cpp:150] Setting up relu6/sep
I0109 10:44:54.897303  1663 net.cpp:157] Top shape: 1 1024 24 24 (589824)
I0109 10:44:54.897307  1663 net.cpp:165] Memory required for data: 1070789844
I0109 10:44:54.897310  1663 layer_factory.hpp:77] Creating layer conv6/sep_relu6/sep_0_split
I0109 10:44:54.897317  1663 net.cpp:100] Creating Layer conv6/sep_relu6/sep_0_split
I0109 10:44:54.897321  1663 net.cpp:434] conv6/sep_relu6/sep_0_split <- conv6/sep
I0109 10:44:54.897326  1663 net.cpp:408] conv6/sep_relu6/sep_0_split -> conv6/sep_relu6/sep_0_split_0
I0109 10:44:54.897333  1663 net.cpp:408] conv6/sep_relu6/sep_0_split -> conv6/sep_relu6/sep_0_split_1
I0109 10:44:54.897341  1663 net.cpp:408] conv6/sep_relu6/sep_0_split -> conv6/sep_relu6/sep_0_split_2
I0109 10:44:54.897397  1663 net.cpp:150] Setting up conv6/sep_relu6/sep_0_split
I0109 10:44:54.897403  1663 net.cpp:157] Top shape: 1 1024 24 24 (589824)
I0109 10:44:54.897408  1663 net.cpp:157] Top shape: 1 1024 24 24 (589824)
I0109 10:44:54.897411  1663 net.cpp:157] Top shape: 1 1024 24 24 (589824)
I0109 10:44:54.897414  1663 net.cpp:165] Memory required for data: 1077867732
I0109 10:44:54.897418  1663 layer_factory.hpp:77] Creating layer LFCN_3_5x5
I0109 10:44:54.897431  1663 net.cpp:100] Creating Layer LFCN_3_5x5
I0109 10:44:54.897435  1663 net.cpp:434] LFCN_3_5x5 <- conv6/sep_relu6/sep_0_split_0
I0109 10:44:54.897444  1663 net.cpp:408] LFCN_3_5x5 -> LFCN_3_5x5
I0109 10:44:54.908129  1663 net.cpp:150] Setting up LFCN_3_5x5
I0109 10:44:54.908192  1663 net.cpp:157] Top shape: 1 9 24 24 (5184)
I0109 10:44:54.908202  1663 net.cpp:165] Memory required for data: 1077888468
I0109 10:44:54.908228  1663 layer_factory.hpp:77] Creating layer LFCN_3_5x5_LFCN_3_5x5_0_split
I0109 10:44:54.908249  1663 net.cpp:100] Creating Layer LFCN_3_5x5_LFCN_3_5x5_0_split
I0109 10:44:54.908262  1663 net.cpp:434] LFCN_3_5x5_LFCN_3_5x5_0_split <- LFCN_3_5x5
I0109 10:44:54.908278  1663 net.cpp:408] LFCN_3_5x5_LFCN_3_5x5_0_split -> LFCN_3_5x5_LFCN_3_5x5_0_split_0
I0109 10:44:54.908296  1663 net.cpp:408] LFCN_3_5x5_LFCN_3_5x5_0_split -> LFCN_3_5x5_LFCN_3_5x5_0_split_1
I0109 10:44:54.908476  1663 net.cpp:150] Setting up LFCN_3_5x5_LFCN_3_5x5_0_split
I0109 10:44:54.908490  1663 net.cpp:157] Top shape: 1 9 24 24 (5184)
I0109 10:44:54.908500  1663 net.cpp:157] Top shape: 1 9 24 24 (5184)
I0109 10:44:54.908507  1663 net.cpp:165] Memory required for data: 1077929940
I0109 10:44:54.908515  1663 layer_factory.hpp:77] Creating layer detection_loss_3_5x5
I0109 10:44:54.908552  1663 net.cpp:100] Creating Layer detection_loss_3_5x5
I0109 10:44:54.908571  1663 net.cpp:434] detection_loss_3_5x5 <- LFCN_3_5x5_LFCN_3_5x5_0_split_0
I0109 10:44:54.908586  1663 net.cpp:434] detection_loss_3_5x5 <- label_3_5x5_data_5_split_0
I0109 10:44:54.908605  1663 net.cpp:408] detection_loss_3_5x5 -> loss_3_5x5
I0109 10:44:54.908627  1663 layer_factory.hpp:77] Creating layer detection_loss_3_5x5
I0109 10:44:54.909551  1663 net.cpp:150] Setting up detection_loss_3_5x5
I0109 10:44:54.909571  1663 net.cpp:157] Top shape: 1 1 1 2 (2)
I0109 10:44:54.909579  1663 net.cpp:160]     with loss weight 1
I0109 10:44:54.909602  1663 net.cpp:165] Memory required for data: 1077929948
I0109 10:44:54.909610  1663 layer_factory.hpp:77] Creating layer detection_accuracy_3_5x5
I0109 10:44:54.909627  1663 net.cpp:100] Creating Layer detection_accuracy_3_5x5
I0109 10:44:54.909636  1663 net.cpp:434] detection_accuracy_3_5x5 <- LFCN_3_5x5_LFCN_3_5x5_0_split_1
I0109 10:44:54.909646  1663 net.cpp:434] detection_accuracy_3_5x5 <- label_3_5x5_data_5_split_1
I0109 10:44:54.909662  1663 net.cpp:408] detection_accuracy_3_5x5 -> accuracy_3_5x5
I0109 10:44:54.909677  1663 net.cpp:408] detection_accuracy_3_5x5 -> boxiou_3_5x5
I0109 10:44:54.909829  1663 net.cpp:150] Setting up detection_accuracy_3_5x5
I0109 10:44:54.909852  1663 net.cpp:157] Top shape: 1 1 1 2 (2)
I0109 10:44:54.909860  1663 net.cpp:157] Top shape: 1 1 1 1 (1)
I0109 10:44:54.909868  1663 net.cpp:165] Memory required for data: 1077929960
I0109 10:44:54.909876  1663 layer_factory.hpp:77] Creating layer LFCN_3_7x7
I0109 10:44:54.909904  1663 net.cpp:100] Creating Layer LFCN_3_7x7
I0109 10:44:54.909914  1663 net.cpp:434] LFCN_3_7x7 <- conv6/sep_relu6/sep_0_split_1
I0109 10:44:54.909927  1663 net.cpp:408] LFCN_3_7x7 -> LFCN_3_7x7
I0109 10:44:54.926602  1663 net.cpp:150] Setting up LFCN_3_7x7
I0109 10:44:54.926630  1663 net.cpp:157] Top shape: 1 9 24 24 (5184)
I0109 10:44:54.926635  1663 net.cpp:165] Memory required for data: 1077950696
I0109 10:44:54.926643  1663 layer_factory.hpp:77] Creating layer LFCN_3_7x7_LFCN_3_7x7_0_split
I0109 10:44:54.926654  1663 net.cpp:100] Creating Layer LFCN_3_7x7_LFCN_3_7x7_0_split
I0109 10:44:54.926661  1663 net.cpp:434] LFCN_3_7x7_LFCN_3_7x7_0_split <- LFCN_3_7x7
I0109 10:44:54.926669  1663 net.cpp:408] LFCN_3_7x7_LFCN_3_7x7_0_split -> LFCN_3_7x7_LFCN_3_7x7_0_split_0
I0109 10:44:54.926677  1663 net.cpp:408] LFCN_3_7x7_LFCN_3_7x7_0_split -> LFCN_3_7x7_LFCN_3_7x7_0_split_1
I0109 10:44:54.926723  1663 net.cpp:150] Setting up LFCN_3_7x7_LFCN_3_7x7_0_split
I0109 10:44:54.926728  1663 net.cpp:157] Top shape: 1 9 24 24 (5184)
I0109 10:44:54.926733  1663 net.cpp:157] Top shape: 1 9 24 24 (5184)
I0109 10:44:54.926736  1663 net.cpp:165] Memory required for data: 1077992168
I0109 10:44:54.926740  1663 layer_factory.hpp:77] Creating layer detection_loss_3_7x7
I0109 10:44:54.926746  1663 net.cpp:100] Creating Layer detection_loss_3_7x7
I0109 10:44:54.926750  1663 net.cpp:434] detection_loss_3_7x7 <- LFCN_3_7x7_LFCN_3_7x7_0_split_0
I0109 10:44:54.926756  1663 net.cpp:434] detection_loss_3_7x7 <- label_3_7x7_data_6_split_0
I0109 10:44:54.926764  1663 net.cpp:408] detection_loss_3_7x7 -> loss_3_7x7
I0109 10:44:54.926774  1663 layer_factory.hpp:77] Creating layer detection_loss_3_7x7
I0109 10:44:54.927471  1663 net.cpp:150] Setting up detection_loss_3_7x7
I0109 10:44:54.927484  1663 net.cpp:157] Top shape: 1 1 1 2 (2)
I0109 10:44:54.927487  1663 net.cpp:160]     with loss weight 1
I0109 10:44:54.927498  1663 net.cpp:165] Memory required for data: 1077992176
I0109 10:44:54.927501  1663 layer_factory.hpp:77] Creating layer detection_accuracy_3_7x7
I0109 10:44:54.927508  1663 net.cpp:100] Creating Layer detection_accuracy_3_7x7
I0109 10:44:54.927512  1663 net.cpp:434] detection_accuracy_3_7x7 <- LFCN_3_7x7_LFCN_3_7x7_0_split_1
I0109 10:44:54.927516  1663 net.cpp:434] detection_accuracy_3_7x7 <- label_3_7x7_data_6_split_1
I0109 10:44:54.927522  1663 net.cpp:408] detection_accuracy_3_7x7 -> accuracy_3_7x7
I0109 10:44:54.927531  1663 net.cpp:408] detection_accuracy_3_7x7 -> boxiou_3_7x7
I0109 10:44:54.927577  1663 net.cpp:150] Setting up detection_accuracy_3_7x7
I0109 10:44:54.927583  1663 net.cpp:157] Top shape: 1 1 1 2 (2)
I0109 10:44:54.927589  1663 net.cpp:157] Top shape: 1 1 1 1 (1)
I0109 10:44:54.927593  1663 net.cpp:165] Memory required for data: 1077992188
I0109 10:44:54.927597  1663 layer_factory.hpp:77] Creating layer pool6
I0109 10:44:54.927605  1663 net.cpp:100] Creating Layer pool6
I0109 10:44:54.927611  1663 net.cpp:434] pool6 <- conv6/sep_relu6/sep_0_split_2
I0109 10:44:54.927618  1663 net.cpp:408] pool6 -> pool6
I0109 10:44:54.927665  1663 net.cpp:150] Setting up pool6
I0109 10:44:54.927672  1663 net.cpp:157] Top shape: 1 1024 12 12 (147456)
I0109 10:44:54.927676  1663 net.cpp:165] Memory required for data: 1078582012
I0109 10:44:54.927680  1663 layer_factory.hpp:77] Creating layer LFCN_4_5x5
I0109 10:44:54.927692  1663 net.cpp:100] Creating Layer LFCN_4_5x5
I0109 10:44:54.927697  1663 net.cpp:434] LFCN_4_5x5 <- pool6
I0109 10:44:54.927704  1663 net.cpp:408] LFCN_4_5x5 -> LFCN_4_5x5
I0109 10:44:54.934626  1663 net.cpp:150] Setting up LFCN_4_5x5
I0109 10:44:54.934640  1663 net.cpp:157] Top shape: 1 9 12 12 (1296)
I0109 10:44:54.934644  1663 net.cpp:165] Memory required for data: 1078587196
I0109 10:44:54.934650  1663 layer_factory.hpp:77] Creating layer LFCN_4_5x5_LFCN_4_5x5_0_split
I0109 10:44:54.934656  1663 net.cpp:100] Creating Layer LFCN_4_5x5_LFCN_4_5x5_0_split
I0109 10:44:54.934660  1663 net.cpp:434] LFCN_4_5x5_LFCN_4_5x5_0_split <- LFCN_4_5x5
I0109 10:44:54.934666  1663 net.cpp:408] LFCN_4_5x5_LFCN_4_5x5_0_split -> LFCN_4_5x5_LFCN_4_5x5_0_split_0
I0109 10:44:54.934674  1663 net.cpp:408] LFCN_4_5x5_LFCN_4_5x5_0_split -> LFCN_4_5x5_LFCN_4_5x5_0_split_1
I0109 10:44:54.934715  1663 net.cpp:150] Setting up LFCN_4_5x5_LFCN_4_5x5_0_split
I0109 10:44:54.934721  1663 net.cpp:157] Top shape: 1 9 12 12 (1296)
I0109 10:44:54.934725  1663 net.cpp:157] Top shape: 1 9 12 12 (1296)
I0109 10:44:54.934728  1663 net.cpp:165] Memory required for data: 1078597564
I0109 10:44:54.934731  1663 layer_factory.hpp:77] Creating layer detection_loss_4_5x5
I0109 10:44:54.934737  1663 net.cpp:100] Creating Layer detection_loss_4_5x5
I0109 10:44:54.934741  1663 net.cpp:434] detection_loss_4_5x5 <- LFCN_4_5x5_LFCN_4_5x5_0_split_0
I0109 10:44:54.934746  1663 net.cpp:434] detection_loss_4_5x5 <- label_4_5x5_data_7_split_0
I0109 10:44:54.934751  1663 net.cpp:408] detection_loss_4_5x5 -> loss_4_5x5
I0109 10:44:54.934757  1663 layer_factory.hpp:77] Creating layer detection_loss_4_5x5
I0109 10:44:54.935449  1663 net.cpp:150] Setting up detection_loss_4_5x5
I0109 10:44:54.935462  1663 net.cpp:157] Top shape: 1 1 1 2 (2)
I0109 10:44:54.935465  1663 net.cpp:160]     with loss weight 1
I0109 10:44:54.935472  1663 net.cpp:165] Memory required for data: 1078597572
I0109 10:44:54.935475  1663 layer_factory.hpp:77] Creating layer detection_accuracy_4_5x5
I0109 10:44:54.935482  1663 net.cpp:100] Creating Layer detection_accuracy_4_5x5
I0109 10:44:54.935489  1663 net.cpp:434] detection_accuracy_4_5x5 <- LFCN_4_5x5_LFCN_4_5x5_0_split_1
I0109 10:44:54.935497  1663 net.cpp:434] detection_accuracy_4_5x5 <- label_4_5x5_data_7_split_1
I0109 10:44:54.935503  1663 net.cpp:408] detection_accuracy_4_5x5 -> accuracy_4_5x5
I0109 10:44:54.935508  1663 net.cpp:408] detection_accuracy_4_5x5 -> boxiou_4_5x5
I0109 10:44:54.935549  1663 net.cpp:150] Setting up detection_accuracy_4_5x5
I0109 10:44:54.935554  1663 net.cpp:157] Top shape: 1 1 1 2 (2)
I0109 10:44:54.935559  1663 net.cpp:157] Top shape: 1 1 1 1 (1)
I0109 10:44:54.935561  1663 net.cpp:165] Memory required for data: 1078597584
I0109 10:44:54.935564  1663 net.cpp:228] detection_accuracy_4_5x5 does not need backward computation.
I0109 10:44:54.935569  1663 net.cpp:226] detection_loss_4_5x5 needs backward computation.
I0109 10:44:54.935572  1663 net.cpp:226] LFCN_4_5x5_LFCN_4_5x5_0_split needs backward computation.
I0109 10:44:54.935575  1663 net.cpp:226] LFCN_4_5x5 needs backward computation.
…
