name: "MSCNN"
layer {
  top: "data"
  top: "label_1_5x5"
  top: "label_1_7x7"
  top: "label_2_5x5"
  top: "label_2_7x7"
  top: "label_3_5x5"
  top: "label_3_7x7"
  top: "label_4_5x5"
  name: "data"
  type: "ImageGtData"
  include {
    phase: TRAIN
  }
  transform_param {
    mirror: true
    mean_value: 104
    mean_value: 117
    mean_value: 123
    mean_value: 0
    
  }
  image_gt_data_param {
    source: "../../../data/night_det/window_files/train.txt"
    batch_size: 3
    coord_num: 4
    resize_width: 1344
    resize_height: 768
    crop_width: 768
    crop_height: 768
    min_gt_height: 25
    downsample_rate: 8
    downsample_rate: 8
    downsample_rate: 16
    downsample_rate: 16
    downsample_rate: 32
    downsample_rate: 32
    downsample_rate: 64
    field_w: 60
    field_w: 84
    field_w: 120
    field_w: 168
    field_w: 240
    field_w: 336
    field_w: 480
    field_h: 60
    field_h: 84
    field_h: 120
    field_h: 168
    field_h: 240
    field_h: 336
    field_h: 480
    fg_threshold: 0.5
    do_multiple_scale: true
    min_scale: 60
    max_scale: 480
    shuffle: true
  }
}
layer {
  top: "data"
  top: "label_1_5x5"
  top: "label_1_7x7"
  top: "label_2_5x5"
  top: "label_2_7x7"
  top: "label_3_5x5"
  top: "label_3_7x7"
  top: "label_4_5x5"
  name: "data"
  type: "ImageGtData"
  include {
    phase: TEST
  }
  transform_param {
    mirror: false
    mean_value: 104
    mean_value: 117
    mean_value: 123
    mean_value: 0
  }
  image_gt_data_param {
    source: "../../../data/night_det/window_files/train.txt"
    batch_size: 1
    coord_num: 4
    resize_width: 1344
    resize_height: 768
    crop_width: 768
    crop_height: 768
    min_gt_height: 25
    downsample_rate: 8
    downsample_rate: 8
    downsample_rate: 16
    downsample_rate: 16
    downsample_rate: 32
    downsample_rate: 32
    downsample_rate: 64
    field_w: 60
    field_w: 84
    field_w: 120
    field_w: 168
    field_w: 240
    field_w: 336
    field_w: 480
    field_h: 60
    field_h: 84
    field_h: 120
    field_h: 168
    field_h: 240
    field_h: 336
    field_h: 480
    fg_threshold: 0.5
    do_multiple_scale: false
    shuffle: true
  }
}
layer {
  name: "slice"
  type: "Slice"
  bottom: "data"
  top: "data123"
  top: "ch4"
  slice_param {
    axis: 1
    slice_point: 3
  }
}
layer {
  name: "conv1"
  type: "Convolution"
  bottom: "data123"
  top: "conv1"
  param {
    lr_mult: 1
    decay_mult: 1
  }
  convolution_param {
    num_output: 32
    bias_term: false
    pad: 1
    kernel_size: 3
    stride: 2
    weight_filler {
      type: "msra"
    }
  }
}
layer {
  name: "conv1/bn"
  type: "BatchNorm"
  bottom: "conv1"
  top: "conv1"
  param {
    lr_mult: 0
    decay_mult: 0
  }
  param {
    lr_mult: 0
    decay_mult: 0
  }
  param {
    lr_mult: 0
    decay_mult: 0
  }
  batch_norm_param {
    use_global_stats: false
    eps: 1e-5
  }
}
layer {
  name: "conv1/scale"
  type: "Scale"
  bottom: "conv1"
  top: "conv1"
  param {
    lr_mult: 1
    decay_mult: 0
  }
  param {
    lr_mult: 1
    decay_mult: 0
  }
  scale_param {
    filler {
      value: 1
    }
    bias_term: true
    bias_filler {
      value: 0
    }
  }
}
layer {
  name: "relu1"
  type: "ReLU"
  bottom: "conv1"
  top: "conv1"
}
layer {
  name: "conv2_1/dw"
  type: "Convolution"
  bottom: "conv1"
  top: "conv2_1/dw"
  param {
    lr_mult: 1
    decay_mult: 1
  }
  convolution_param {
    num_output: 32
    bias_term: false
    pad: 1
    kernel_size: 3
    group: 32
    engine: CAFFE
    stride: 1
    weight_filler {
      type: "msra"
    }
  }
}
layer {
  name: "conv2_1/dw/bn"
  type: "BatchNorm"
  bottom: "conv2_1/dw"
  top: "conv2_1/dw"
  param {
    lr_mult: 0
    decay_mult: 0
  }
  param {
    lr_mult: 0
    decay_mult: 0
  }
  param {
    lr_mult: 0
    decay_mult: 0
  }
  batch_norm_param {
    use_global_stats: false
    eps: 1e-5
  }
}
layer {
  name: "conv2_1/dw/scale"
  type: "Scale"
  bottom: "conv2_1/dw"
  top: "conv2_1/dw"
  param {
    lr_mult: 1
    decay_mult: 0
  }
  param {
    lr_mult: 1
    decay_mult: 0
  }
  scale_param {
    filler {
      value: 1
    }
    bias_term: true
    bias_filler {
      value: 0
    }
  }
}
layer {
  name: "relu2_1/dw"
  type: "ReLU"
  bottom: "conv2_1/dw"
  top: "conv2_1/dw"
}
layer {
  name: "conv2_1/sep"
  type: "Convolution"
  bottom: "conv2_1/dw"
  top: "conv2_1/sep"
  param {
    lr_mult: 1
    decay_mult: 1
  }
  convolution_param {
    num_output: 64
    bias_term: false
    pad: 0
    kernel_size: 1
    stride: 1
    weight_filler {
      type: "msra"
    }
  }
}
layer {
  name: "conv2_1/sep/bn"
  type: "BatchNorm"
  bottom: "conv2_1/sep"
  top: "conv2_1/sep"
  param {
    lr_mult: 0
    decay_mult: 0
  }
  param {
    lr_mult: 0
    decay_mult: 0
  }
  param {
    lr_mult: 0
    decay_mult: 0
  }
  batch_norm_param {
    use_global_stats: false
    eps: 1e-5
  }
}
layer {
  name: "conv2_1/sep/scale"
  type: "Scale"
  bottom: "conv2_1/sep"
  top: "conv2_1/sep"
  param {
    lr_mult: 1
    decay_mult: 0
  }
  param {
    lr_mult: 1
    decay_mult: 0
  }
  scale_param {
    filler {
      value: 1
    }
    bias_term: true
    bias_filler {
      value: 0
    }
  }
}
layer {
  name: "relu2_1/sep"
  type: "ReLU"
  bottom: "conv2_1/sep"
  top: "conv2_1/sep"
}
layer {
  name: "conv2_2/dw"
  type: "Convolution"
  bottom: "conv2_1/sep"
  top: "conv2_2/dw"
  param {
    lr_mult: 1
    decay_mult: 1
  }
  convolution_param {
    num_output: 64
    bias_term: false
    pad: 1
    kernel_size: 3
    group: 64
    engine: CAFFE
    stride: 2
    weight_filler {
      type: "msra"
    }
  }
}
layer {
  name: "conv2_2/dw/bn"
  type: "BatchNorm"
  bottom: "conv2_2/dw"
  top: "conv2_2/dw"
  param {
    lr_mult: 0
    decay_mult: 0
  }
  param {
    lr_mult: 0
    decay_mult: 0
  }
  param {
    lr_mult: 0
    decay_mult: 0
  }
  batch_norm_param {
    use_global_stats: false
    eps: 1e-5
  }
}
layer {
  name: "conv2_2/dw/scale"
  type: "Scale"
  bottom: "conv2_2/dw"
  top: "conv2_2/dw"
  param {
    lr_mult: 1
    decay_mult: 0
  }
  param {
    lr_mult: 1
    decay_mult: 0
  }
  scale_param {
    filler {
      value: 1
    }
    bias_term: true
    bias_filler {
      value: 0
    }
  }
}
layer {
  name: "relu2_2/dw"
  type: "ReLU"
  bottom: "conv2_2/dw"
  top: "conv2_2/dw"
}
layer {
  name: "conv2_2/sep"
  type: "Convolution"
  bottom: "conv2_2/dw"
  top: "conv2_2/sep"
  param {
    lr_mult: 1
    decay_mult: 1
  }
  convolution_param {
    num_output: 128
    bias_term: false
    pad: 0
    kernel_size: 1
    stride: 1
    weight_filler {
      type: "msra"
    }
  }
}
layer {
  name: "conv2_2/sep/bn"
  type: "BatchNorm"
  bottom: "conv2_2/sep"
  top: "conv2_2/sep"
  param {
    lr_mult: 0
    decay_mult: 0
  }
  param {
    lr_mult: 0
    decay_mult: 0
  }
  param {
    lr_mult: 0
    decay_mult: 0
  }
  batch_norm_param {
    use_global_stats: false
    eps: 1e-5
  }
}
layer {
  name: "conv2_2/sep/scale"
  type: "Scale"
  bottom: "conv2_2/sep"
  top: "conv2_2/sep"
  param {
    lr_mult: 1
    decay_mult: 0
  }
  param {
    lr_mult: 1
    decay_mult: 0
  }
  scale_param {
    filler {
      value: 1
    }
    bias_term: true
    bias_filler {
      value: 0
    }
  }
}
layer {
  name: "relu2_2/sep"
  type: "ReLU"
  bottom: "conv2_2/sep"
  top: "conv2_2/sep"
}
layer {
  name: "conv3_1/dw"
  type: "Convolution"
  bottom: "conv2_2/sep"
  top: "conv3_1/dw"
  param {
    lr_mult: 1
    decay_mult: 1
  }
  convolution_param {
    num_output: 128
    bias_term: false
    pad: 1
    kernel_size: 3
    group: 128
    engine: CAFFE
    stride: 1
    weight_filler {
      type: "msra"
    }
  }
}
layer {
  name: "conv3_1/dw/bn"
  type: "BatchNorm"
  bottom: "conv3_1/dw"
  top: "conv3_1/dw"
  param {
    lr_mult: 0
    decay_mult: 0
  }
  param {
    lr_mult: 0
    decay_mult: 0
  }
  param {
    lr_mult: 0
    decay_mult: 0
  }
  batch_norm_param {
    use_global_stats: false
    eps: 1e-5
  }
}
layer {
  name: "conv3_1/dw/scale"
  type: "Scale"
  bottom: "conv3_1/dw"
  top: "conv3_1/dw"
  param {
    lr_mult: 1
    decay_mult: 0
  }
  param {
    lr_mult: 1
    decay_mult: 0
  }
  scale_param {
    filler {
      value: 1
    }
    bias_term: true
    bias_filler {
      value: 0
    }
  }
}
layer {
  name: "relu3_1/dw"
  type: "ReLU"
  bottom: "conv3_1/dw"
  top: "conv3_1/dw"
}
layer {
  name: "conv3_1/sep"
  type: "Convolution"
  bottom: "conv3_1/dw"
  top: "conv3_1/sep"
  param {
    lr_mult: 1
    decay_mult: 1
  }
  convolution_param {
    num_output: 128
    bias_term: false
    pad: 0
    kernel_size: 1
    stride: 1
    weight_filler {
      type: "msra"
    }
  }
}
layer {
  name: "conv3_1/sep/bn"
  type: "BatchNorm"
  bottom: "conv3_1/sep"
  top: "conv3_1/sep"
  param {
    lr_mult: 0
    decay_mult: 0
  }
  param {
    lr_mult: 0
    decay_mult: 0
  }
  param {
    lr_mult: 0
    decay_mult: 0
  }
  batch_norm_param {
    use_global_stats: false
    eps: 1e-5
  }
}
layer {
  name: "conv3_1/sep/scale"
  type: "Scale"
  bottom: "conv3_1/sep"
  top: "conv3_1/sep"
  param {
    lr_mult: 1
    decay_mult: 0
  }
  param {
    lr_mult: 1
    decay_mult: 0
  }
  scale_param {
    filler {
      value: 1
    }
    bias_term: true
    bias_filler {
      value: 0
    }
  }
}
layer {
  name: "relu3_1/sep"
  type: "ReLU"
  bottom: "conv3_1/sep"
  top: "conv3_1/sep"
}
layer {
  name: "conv3_2/dw"
  type: "Convolution"
  bottom: "conv3_1/sep"
  top: "conv3_2/dw"
  param {
    lr_mult: 1
    decay_mult: 1
  }
  convolution_param {
    num_output: 128
    bias_term: false
    pad: 1
    kernel_size: 3
    group: 128
    engine: CAFFE
    stride: 2
    weight_filler {
      type: "msra"
    }
  }
}
layer {
  name: "conv3_2/dw/bn"
  type: "BatchNorm"
  bottom: "conv3_2/dw"
  top: "conv3_2/dw"
  param {
    lr_mult: 0
    decay_mult: 0
  }
  param {
    lr_mult: 0
    decay_mult: 0
  }
  param {
    lr_mult: 0
    decay_mult: 0
  }
  batch_norm_param {
    use_global_stats: false
    eps: 1e-5
  }
}
layer {
  name: "conv3_2/dw/scale"
  type: "Scale"
  bottom: "conv3_2/dw"
  top: "conv3_2/dw"
  param {
    lr_mult: 1
    decay_mult: 0
  }
  param {
    lr_mult: 1
    decay_mult: 0
  }
  scale_param {
    filler {
      value: 1
    }
    bias_term: true
    bias_filler {
      value: 0
    }
  }
}
layer {
  name: "relu3_2/dw"
  type: "ReLU"
  bottom: "conv3_2/dw"
  top: "conv3_2/dw"
}
layer {
  name: "conv3_2/sep"
  type: "Convolution"
  bottom: "conv3_2/dw"
  top: "conv3_2/sep"
  param {
    lr_mult: 1
    decay_mult: 1
  }
  convolution_param {
    num_output: 256
    bias_term: false
    pad: 0
    kernel_size: 1
    stride: 1
    weight_filler {
      type: "msra"
    }
  }
}
layer {
  name: "conv3_2/sep/bn"
  type: "BatchNorm"
  bottom: "conv3_2/sep"
  top: "conv3_2/sep"
  param {
    lr_mult: 0
    decay_mult: 0
  }
  param {
    lr_mult: 0
    decay_mult: 0
  }
  param {
    lr_mult: 0
    decay_mult: 0
  }
  batch_norm_param {
    use_global_stats: false
    eps: 1e-5
  }
}
layer {
  name: "conv3_2/sep/scale"
  type: "Scale"
  bottom: "conv3_2/sep"
  top: "conv3_2/sep"
  param {
    lr_mult: 1
    decay_mult: 0
  }
  param {
    lr_mult: 1
    decay_mult: 0
  }
  scale_param {
    filler {
      value: 1
    }
    bias_term: true
    bias_filler {
      value: 0
    }
  }
}
layer {
  name: "relu3_2/sep"
  type: "ReLU"
  bottom: "conv3_2/sep"
  top: "conv3_2/sep"
}
layer {
  name: "conv4_1/dw"
  type: "Convolution"
  bottom: "conv3_2/sep"
  top: "conv4_1/dw"
  param {
    lr_mult: 1
    decay_mult: 1
  }
  convolution_param {
    num_output: 256
    bias_term: false
    pad: 1
    kernel_size: 3
    group: 256
    engine: CAFFE
    stride: 1
    weight_filler {
      type: "msra"
    }
  }
}
layer {
  name: "conv4_1/dw/bn"
  type: "BatchNorm"
  bottom: "conv4_1/dw"
  top: "conv4_1/dw"
  param {
    lr_mult: 0
    decay_mult: 0
  }
  param {
    lr_mult: 0
    decay_mult: 0
  }
  param {
    lr_mult: 0
    decay_mult: 0
  }
  batch_norm_param {
    use_global_stats: false
    eps: 1e-5
  }
}
layer {
  name: "conv4_1/dw/scale"
  type: "Scale"
  bottom: "conv4_1/dw"
  top: "conv4_1/dw"
  param {
    lr_mult: 1
    decay_mult: 0
  }
  param {
    lr_mult: 1
    decay_mult: 0
  }
  scale_param {
    filler {
      value: 1
    }
    bias_term: true
    bias_filler {
      value: 0
    }
  }
}
layer {
  name: "relu4_1/dw"
  type: "ReLU"
  bottom: "conv4_1/dw"
  top: "conv4_1/dw"
}
layer {
  name: "conv4_1/sep"
  type: "Convolution"
  bottom: "conv4_1/dw"
  top: "conv4_1/sep"
  param {
    lr_mult: 1
    decay_mult: 1
  }
  convolution_param {
    num_output: 256
    bias_term: false
    pad: 0
    kernel_size: 1
    stride: 1
    weight_filler {
      type: "msra"
    }
  }
}
layer {
  name: "conv4_1/sep/bn"
  type: "BatchNorm"
  bottom: "conv4_1/sep"
  top: "conv4_1/sep"
  param {
    lr_mult: 0
    decay_mult: 0
  }
  param {
    lr_mult: 0
    decay_mult: 0
  }
  param {
    lr_mult: 0
    decay_mult: 0
  }
  batch_norm_param {
    use_global_stats: false
    eps: 1e-5
  }
}
layer {
  name: "conv4_1/sep/scale"
  type: "Scale"
  bottom: "conv4_1/sep"
  top: "conv4_1/sep"
  param {
    lr_mult: 1
    decay_mult: 0
  }
  param {
    lr_mult: 1
    decay_mult: 0
  }
  scale_param {
    filler {
      value: 1
    }
    bias_term: true
    bias_filler {
      value: 0
    }
  }
}
layer {
  name: "relu4_1/sep"
  type: "ReLU"
  bottom: "conv4_1/sep"
  top: "conv4_1/sep"
}
layer {
  bottom: "conv4_1/sep"
  top: "buffer"
  name: "buffer"
  type: "Convolution"
  param {
    lr_mult: 1
    decay_mult: 1
  }
  param {
    lr_mult: 2
    decay_mult: 0
  }
  convolution_param {
    num_output: 256
    pad: 1
    kernel_size: 3
    weight_filler {
      type: "gaussian"
      std: 0.01
    }
    bias_filler {
      type: "constant"
    }
  }
  propagate_down: 0
}
layer {
  bottom: "buffer"
  top: "buffer"
  name: "relu_buffer"
  type: "ReLU"
}
layer {
  bottom: "buffer"
  top: "attention"
  name: "attention"
  type: "Convolution"
  param {
    lr_mult: 1
    decay_mult: 1
  }
  param {
    lr_mult: 2
    decay_mult: 0
  }
  convolution_param {
    num_output: 3
    pad: 1
    kernel_size: 3
  }
}

layer {
  bottom: "ch4"
  top: "ch4_pool"
  name: "ch4_pool"
  type: "Pooling"
  pooling_param {
    pool: MAX
    kernel_size: 8
    stride: 8
  }
}
layer {
  bottom: "attention"
  bottom: "ch4_pool"
  top: "loss_attention"
  name: "loss_attention"
  type: "SoftmaxWithLoss"
  
  loss_weight: 1
  propagate_down: 1
  propagate_down: 0
}

layer {
  bottom: "conv4_1/sep"
  top: "loss1_conv1"
  name: "loss1_conv1"
  type: "Convolution"
  param {
    lr_mult: 1
    decay_mult: 1
  }
  param {
    lr_mult: 2
    decay_mult: 0
  }
  convolution_param {
    num_output: 256
    pad: 1
    kernel_size: 3
    weight_filler {
      type: "gaussian"
      std: 0.01
    }
    bias_filler {
      type: "constant"
    }
  }
}
layer {
  bottom: "loss1_conv1"
  top: "loss1_conv1"
  name: "loss_relu1"
  type: "ReLU"
}
layer {
  bottom: "loss1_conv1"
  top: "LFCN_1_5x5"
  name: "LFCN_1_5x5"
  type: "Convolution"
  param {
    lr_mult: 1
    decay_mult: 1
  }
  param {
    lr_mult: 2
    decay_mult: 0
  }
  convolution_param {
    num_output: 9
    pad: 2
    kernel_size: 5
    weight_filler {
      type: "gaussian"
      std: 0.001
    }
    bias_filler {
      type: "constant"
    }
  }
}
layer {
  bottom: "LFCN_1_5x5"
  bottom: "label_1_5x5"
  top: "loss_1_5x5"
  name: "detection_loss_1_5x5"
  type: "DetectionLoss"
  detection_loss_param {
    cls_num: 5
    coord_num: 4
    lambda: 0.05
    field_h: 60
    field_w: 60
    field_whr: 2
    field_xyr: 2
    downsample_rate: 8
    bb_smooth: true
    bg_threshold: 0.2
    bg_multiple: 2
    sample_mode: "random"
    pos_neg_weighted: true
  }
  loss_weight: 0.9
}
layer {
  bottom: "LFCN_1_5x5"
  bottom: "label_1_5x5"
  top: "accuracy_1_5x5"
  top: "boxiou_1_5x5"
  name: "detection_accuracy_1_5x5"
  type: "DetectionAccuracy"
  detection_accuracy_param {
    cls_num: 5
    coord_num: 4
    field_h: 60
    field_w: 60
    field_whr: 2
    field_xyr: 2
    downsample_rate: 8
  }
}
layer {
  bottom: "loss1_conv1"
  top: "LFCN_1_7x7"
  name: "LFCN_1_7x7"
  type: "Convolution"
  param {
    lr_mult: 1
    decay_mult: 1
  }
  param {
    lr_mult: 2
    decay_mult: 0
  }
  convolution_param {
    num_output: 9
    pad: 3
    kernel_size: 7
    weight_filler {
      type: "gaussian"
      std: 0.001
    }
    bias_filler {
      type: "constant"
    }
  }
}
layer {
  bottom: "LFCN_1_7x7"
  bottom: "label_1_7x7"
  top: "loss_1_7x7"
  name: "detection_loss_1_7x7"
  type: "DetectionLoss"
  detection_loss_param {
    cls_num: 5
    coord_num: 4
    lambda: 0.05
    field_h: 84
    field_w: 84
    field_whr: 2
    field_xyr: 2
    downsample_rate: 8
    bb_smooth: true
    bg_threshold: 0.2
    bg_multiple: 2
    sample_mode: "random"
    pos_neg_weighted: true
  }
  loss_weight: 0.9
}
layer {
  bottom: "LFCN_1_7x7"
  bottom: "label_1_7x7"
  top: "accuracy_1_7x7"
  top: "boxiou_1_7x7"
  name: "detection_accuracy_1_7x7"
  type: "DetectionAccuracy"
  detection_accuracy_param {
    cls_num: 5
    coord_num: 4
    field_h: 84
    field_w: 84
    field_whr: 2
    field_xyr: 2
    downsample_rate: 8
  }
}
layer {
  name: "conv4_2/dw"
  type: "Convolution"
  bottom: "conv4_1/sep"
  top: "conv4_2/dw"
  param {
    lr_mult: 1
    decay_mult: 1
  }
  convolution_param {
    num_output: 256
    bias_term: false
    pad: 1
    kernel_size: 3
    group: 256
    engine: CAFFE
    stride: 2
    weight_filler {
      type: "msra"
    }
  }
}
layer {
  name: "conv4_2/dw/bn"
  type: "BatchNorm"
  bottom: "conv4_2/dw"
  top: "conv4_2/dw"
  param {
    lr_mult: 0
    decay_mult: 0
  }
  param {
    lr_mult: 0
    decay_mult: 0
  }
  param {
    lr_mult: 0
    decay_mult: 0
  }
  batch_norm_param {
    use_global_stats: false
    eps: 1e-5
  }
}
layer {
  name: "conv4_2/dw/scale"
  type: "Scale"
  bottom: "conv4_2/dw"
  top: "conv4_2/dw"
  param {
    lr_mult: 1
    decay_mult: 0
  }
  param {
    lr_mult: 1
    decay_mult: 0
  }
  scale_param {
    filler {
      value: 1
    }
    bias_term: true
    bias_filler {
      value: 0
    }
  }
}
layer {
  name: "relu4_2/dw"
  type: "ReLU"
  bottom: "conv4_2/dw"
  top: "conv4_2/dw"
}
layer {
  name: "conv4_2/sep"
  type: "Convolution"
  bottom: "conv4_2/dw"
  top: "conv4_2/sep"
  param {
    lr_mult: 1
    decay_mult: 1
  }
  convolution_param {
    num_output: 512
    bias_term: false
    pad: 0
    kernel_size: 1
    stride: 1
    weight_filler {
      type: "msra"
    }
  }
}
layer {
  name: "conv4_2/sep/bn"
  type: "BatchNorm"
  bottom: "conv4_2/sep"
  top: "conv4_2/sep"
  param {
    lr_mult: 0
    decay_mult: 0
  }
  param {
    lr_mult: 0
    decay_mult: 0
  }
  param {
    lr_mult: 0
    decay_mult: 0
  }
  batch_norm_param {
    use_global_stats: false
    eps: 1e-5
  }
}
layer {
  name: "conv4_2/sep/scale"
  type: "Scale"
  bottom: "conv4_2/sep"
  top: "conv4_2/sep"
  param {
    lr_mult: 1
    decay_mult: 0
  }
  param {
    lr_mult: 1
    decay_mult: 0
  }
  scale_param {
    filler {
      value: 1
    }
    bias_term: true
    bias_filler {
      value: 0
    }
  }
}
layer {
  name: "relu4_2/sep"
  type: "ReLU"
  bottom: "conv4_2/sep"
  top: "conv4_2/sep"
}
layer {
  name: "conv5_1/dw"
  type: "Convolution"
  bottom: "conv4_2/sep"
  top: "conv5_1/dw"
  param {
    lr_mult: 1
    decay_mult: 1
  }
  convolution_param {
    num_output: 512
    bias_term: false
    pad: 1
    kernel_size: 3
    group: 512
    engine: CAFFE
    stride: 1
    weight_filler {
      type: "msra"
    }
  }
}
layer {
  name: "conv5_1/dw/bn"
  type: "BatchNorm"
  bottom: "conv5_1/dw"
  top: "conv5_1/dw"
  param {
    lr_mult: 0
    decay_mult: 0
  }
  param {
    lr_mult: 0
    decay_mult: 0
  }
  param {
    lr_mult: 0
    decay_mult: 0
  }
  batch_norm_param {
    use_global_stats: false
    eps: 1e-5
  }
}
layer {
  name: "conv5_1/dw/scale"
  type: "Scale"
  bottom: "conv5_1/dw"
  top: "conv5_1/dw"
  param {
    lr_mult: 1
    decay_mult: 0
  }
  param {
    lr_mult: 1
    decay_mult: 0
  }
  scale_param {
    filler {
      value: 1
    }
    bias_term: true
    bias_filler {
      value: 0
    }
  }
}
layer {
  name: "relu5_1/dw"
  type: "ReLU"
  bottom: "conv5_1/dw"
  top: "conv5_1/dw"
}
layer {
  name: "conv5_1/sep"
  type: "Convolution"
  bottom: "conv5_1/dw"
  top: "conv5_1/sep"
  param {
    lr_mult: 1
    decay_mult: 1
  }
  convolution_param {
    num_output: 512
    bias_term: false
    pad: 0
    kernel_size: 1
    stride: 1
    weight_filler {
      type: "msra"
    }
  }
}
layer {
  name: "conv5_1/sep/bn"
  type: "BatchNorm"
  bottom: "conv5_1/sep"
  top: "conv5_1/sep"
  param {
    lr_mult: 0
    decay_mult: 0
  }
  param {
    lr_mult: 0
    decay_mult: 0
  }
  param {
    lr_mult: 0
    decay_mult: 0
  }
  batch_norm_param {
    use_global_stats: false
    eps: 1e-5
  }
}
layer {
  name: "conv5_1/sep/scale"
  type: "Scale"
  bottom: "conv5_1/sep"
  top: "conv5_1/sep"
  param {
    lr_mult: 1
    decay_mult: 0
  }
  param {
    lr_mult: 1
    decay_mult: 0
  }
  scale_param {
    filler {
      value: 1
    }
    bias_term: true
    bias_filler {
      value: 0
    }
  }
}
layer {
  name: "relu5_1/sep"
  type: "ReLU"
  bottom: "conv5_1/sep"
  top: "conv5_1/sep"
}
layer {
  name: "conv5_2/dw"
  type: "Convolution"
  bottom: "conv5_1/sep"
  top: "conv5_2/dw"
  param {
    lr_mult: 1
    decay_mult: 1
  }
  convolution_param {
    num_output: 512
    bias_term: false
    pad: 1
    kernel_size: 3
    group: 512
    engine: CAFFE
    stride: 1
    weight_filler {
      type: "msra"
    }
  }
}
layer {
  name: "conv5_2/dw/bn"
  type: "BatchNorm"
  bottom: "conv5_2/dw"
  top: "conv5_2/dw"
  param {
    lr_mult: 0
    decay_mult: 0
  }
  param {
    lr_mult: 0
    decay_mult: 0
  }
  param {
    lr_mult: 0
    decay_mult: 0
  }
  batch_norm_param {
    use_global_stats: false
    eps: 1e-5
  }
}
layer {
  name: "conv5_2/dw/scale"
  type: "Scale"
  bottom: "conv5_2/dw"
  top: "conv5_2/dw"
  param {
    lr_mult: 1
    decay_mult: 0
  }
  param {
    lr_mult: 1
    decay_mult: 0
  }
  scale_param {
    filler {
      value: 1
    }
    bias_term: true
    bias_filler {
      value: 0
    }
  }
}
layer {
  name: "relu5_2/dw"
  type: "ReLU"
  bottom: "conv5_2/dw"
  top: "conv5_2/dw"
}
layer {
  name: "conv5_2/sep"
  type: "Convolution"
  bottom: "conv5_2/dw"
  top: "conv5_2/sep"
  param {
    lr_mult: 1
    decay_mult: 1
  }
  convolution_param {
    num_output: 512
    bias_term: false
    pad: 0
    kernel_size: 1
    stride: 1
    weight_filler {
      type: "msra"
    }
  }
}
layer {
  name: "conv5_2/sep/bn"
  type: "BatchNorm"
  bottom: "conv5_2/sep"
  top: "conv5_2/sep"
  param {
    lr_mult: 0
    decay_mult: 0
  }
  param {
    lr_mult: 0
    decay_mult: 0
  }
  param {
    lr_mult: 0
    decay_mult: 0
  }
  batch_norm_param {
    use_global_stats: false
    eps: 1e-5
  }
}
layer {
  name: "conv5_2/sep/scale"
  type: "Scale"
  bottom: "conv5_2/sep"
  top: "conv5_2/sep"
  param {
    lr_mult: 1
    decay_mult: 0
  }
  param {
    lr_mult: 1
    decay_mult: 0
  }
  scale_param {
    filler {
      value: 1
    }
    bias_term: true
    bias_filler {
      value: 0
    }
  }
}
layer {
  name: "relu5_2/sep"
  type: "ReLU"
  bottom: "conv5_2/sep"
  top: "conv5_2/sep"
}
layer {
  name: "conv5_3/dw"
  type: "Convolution"
  bottom: "conv5_2/sep"
  top: "conv5_3/dw"
  param {
    lr_mult: 1
    decay_mult: 1
  }
  convolution_param {
    num_output: 512
    bias_term: false
    pad: 1
    kernel_size: 3
    group: 512
    engine: CAFFE
    stride: 1
    weight_filler {
      type: "msra"
    }
  }
}
layer {
  name: "conv5_3/dw/bn"
  type: "BatchNorm"
  bottom: "conv5_3/dw"
  top: "conv5_3/dw"
  param {
    lr_mult: 0
    decay_mult: 0
  }
  param {
    lr_mult: 0
    decay_mult: 0
  }
  param {
    lr_mult: 0
    decay_mult: 0
  }
  batch_norm_param {
    use_global_stats: false
    eps: 1e-5
  }
}
layer {
  name: "conv5_3/dw/scale"
  type: "Scale"
  bottom: "conv5_3/dw"
  top: "conv5_3/dw"
  param {
    lr_mult: 1
    decay_mult: 0
  }
  param {
    lr_mult: 1
    decay_mult: 0
  }
  scale_param {
    filler {
      value: 1
    }
    bias_term: true
    bias_filler {
      value: 0
    }
  }
}
layer {
  name: "relu5_3/dw"
  type: "ReLU"
  bottom: "conv5_3/dw"
  top: "conv5_3/dw"
}
layer {
  name: "conv5_3/sep"
  type: "Convolution"
  bottom: "conv5_3/dw"
  top: "conv5_3/sep"
  param {
    lr_mult: 1
    decay_mult: 1
  }
  convolution_param {
    num_output: 512
    bias_term: false
    pad: 0
    kernel_size: 1
    stride: 1
    weight_filler {
      type: "msra"
    }
  }
}
layer {
  name: "conv5_3/sep/bn"
  type: "BatchNorm"
  bottom: "conv5_3/sep"
  top: "conv5_3/sep"
  param {
    lr_mult: 0
    decay_mult: 0
  }
  param {
    lr_mult: 0
    decay_mult: 0
  }
  param {
    lr_mult: 0
    decay_mult: 0
  }
  batch_norm_param {
    use_global_stats: false
    eps: 1e-5
  }
}
layer {
  name: "conv5_3/sep/scale"
  type: "Scale"
  bottom: "conv5_3/sep"
  top: "conv5_3/sep"
  param {
    lr_mult: 1
    decay_mult: 0
  }
  param {
    lr_mult: 1
    decay_mult: 0
  }
  scale_param {
    filler {
      value: 1
    }
    bias_term: true
    bias_filler {
      value: 0
    }
  }
}
layer {
  name: "relu5_3/sep"
  type: "ReLU"
  bottom: "conv5_3/sep"
  top: "conv5_3/sep"
}
layer {
  name: "conv5_4/dw"
  type: "Convolution"
  bottom: "conv5_3/sep"
  top: "conv5_4/dw"
  param {
    lr_mult: 1
    decay_mult: 1
  }
  convolution_param {
    num_output: 512
    bias_term: false
    pad: 1
    kernel_size: 3
    group: 512
    engine: CAFFE
    stride: 1
    weight_filler {
      type: "msra"
    }
  }
}
layer {
  name: "conv5_4/dw/bn"
  type: "BatchNorm"
  bottom: "conv5_4/dw"
  top: "conv5_4/dw"
  param {
    lr_mult: 0
    decay_mult: 0
  }
  param {
    lr_mult: 0
    decay_mult: 0
  }
  param {
    lr_mult: 0
    decay_mult: 0
  }
  batch_norm_param {
    use_global_stats: false
    eps: 1e-5
  }
}
layer {
  name: "conv5_4/dw/scale"
  type: "Scale"
  bottom: "conv5_4/dw"
  top: "conv5_4/dw"
  param {
    lr_mult: 1
    decay_mult: 0
  }
  param {
    lr_mult: 1
    decay_mult: 0
  }
  scale_param {
    filler {
      value: 1
    }
    bias_term: true
    bias_filler {
      value: 0
    }
  }
}
layer {
  name: "relu5_4/dw"
  type: "ReLU"
  bottom: "conv5_4/dw"
  top: "conv5_4/dw"
}
layer {
  name: "conv5_4/sep"
  type: "Convolution"
  bottom: "conv5_4/dw"
  top: "conv5_4/sep"
  param {
    lr_mult: 1
    decay_mult: 1
  }
  convolution_param {
    num_output: 512
    bias_term: false
    pad: 0
    kernel_size: 1
    stride: 1
    weight_filler {
      type: "msra"
    }
  }
}
layer {
  name: "conv5_4/sep/bn"
  type: "BatchNorm"
  bottom: "conv5_4/sep"
  top: "conv5_4/sep"
  param {
    lr_mult: 0
    decay_mult: 0
  }
  param {
    lr_mult: 0
    decay_mult: 0
  }
  param {
    lr_mult: 0
    decay_mult: 0
  }
  batch_norm_param {
    use_global_stats: false
    eps: 1e-5
  }
}
layer {
  name: "conv5_4/sep/scale"
  type: "Scale"
  bottom: "conv5_4/sep"
  top: "conv5_4/sep"
  param {
    lr_mult: 1
    decay_mult: 0
  }
  param {
    lr_mult: 1
    decay_mult: 0
  }
  scale_param {
    filler {
      value: 1
    }
    bias_term: true
    bias_filler {
      value: 0
    }
  }
}
layer {
  name: "relu5_4/sep"
  type: "ReLU"
  bottom: "conv5_4/sep"
  top: "conv5_4/sep"
}
layer {
  name: "conv5_5/dw"
  type: "Convolution"
  bottom: "conv5_4/sep"
  top: "conv5_5/dw"
  param {
    lr_mult: 1
    decay_mult: 1
  }
  convolution_param {
    num_output: 512
    bias_term: false
    pad: 1
    kernel_size: 3
    group: 512
    engine: CAFFE
    stride: 1
    weight_filler {
      type: "msra"
    }
  }
}
layer {
  name: "conv5_5/dw/bn"
  type: "BatchNorm"
  bottom: "conv5_5/dw"
  top: "conv5_5/dw"
  param {
    lr_mult: 0
    decay_mult: 0
  }
  param {
    lr_mult: 0
    decay_mult: 0
  }
  param {
    lr_mult: 0
    decay_mult: 0
  }
  batch_norm_param {
    use_global_stats: false
    eps: 1e-5
  }
}
layer {
  name: "conv5_5/dw/scale"
  type: "Scale"
  bottom: "conv5_5/dw"
  top: "conv5_5/dw"
  param {
    lr_mult: 1
    decay_mult: 0
  }
  param {
    lr_mult: 1
    decay_mult: 0
  }
  scale_param {
    filler {
      value: 1
    }
    bias_term: true
    bias_filler {
      value: 0
    }
  }
}
layer {
  name: "relu5_5/dw"
  type: "ReLU"
  bottom: "conv5_5/dw"
  top: "conv5_5/dw"
}
layer {
  name: "conv5_5/sep"
  type: "Convolution"
  bottom: "conv5_5/dw"
  top: "conv5_5/sep"
  param {
    lr_mult: 1
    decay_mult: 1
  }
  convolution_param {
    num_output: 512
    bias_term: false
    pad: 0
    kernel_size: 1
    stride: 1
    weight_filler {
      type: "msra"
    }
  }
}
layer {
  name: "conv5_5/sep/bn"
  type: "BatchNorm"
  bottom: "conv5_5/sep"
  top: "conv5_5/sep"
  param {
    lr_mult: 0
    decay_mult: 0
  }
  param {
    lr_mult: 0
    decay_mult: 0
  }
  param {
    lr_mult: 0
    decay_mult: 0
  }
  batch_norm_param {
    use_global_stats: false
    eps: 1e-5
  }
}
layer {
  name: "conv5_5/sep/scale"
  type: "Scale"
  bottom: "conv5_5/sep"
  top: "conv5_5/sep"
  param {
    lr_mult: 1
    decay_mult: 0
  }
  param {
    lr_mult: 1
    decay_mult: 0
  }
  scale_param {
    filler {
      value: 1
    }
    bias_term: true
    bias_filler {
      value: 0
    }
  }
}
layer {
  name: "relu5_5/sep"
  type: "ReLU"
  bottom: "conv5_5/sep"
  top: "conv5_5/sep"
}

layer {
  bottom: "conv5_5/sep"
  top: "LFCN_2_5x5"
  name: "LFCN_2_5x5"
  type: "Convolution"
  param {
    lr_mult: 1
    decay_mult: 1
  }
  param {
    lr_mult: 2
    decay_mult: 0
  }
  convolution_param {
    num_output: 9
    pad: 2
    kernel_size: 5
    weight_filler {
      type: "gaussian"
      std: 0.001
    }
    bias_filler {
      type: "constant"
    }
  }
}
layer {
  bottom: "LFCN_2_5x5"
  bottom: "label_2_5x5"
  top: "loss_2_5x5"
  name: "detection_loss_2_5x5"
  type: "DetectionLoss"
  detection_loss_param {
    cls_num: 5
    coord_num: 4
    lambda: 0.05
    field_h: 120
    field_w: 120
    field_whr: 2
    field_xyr: 2
    downsample_rate: 16
    bb_smooth: true
    bg_threshold: 0.2
    bg_multiple: 2
    sample_mode: "random"
    pos_neg_weighted: true
  }
}
layer {
  bottom: "LFCN_2_5x5"
  bottom: "label_2_5x5"
  top: "accuracy_2_5x5"
  top: "boxiou_2_5x5"
  name: "detection_accuracy_2_5x5"
  type: "DetectionAccuracy"
  detection_accuracy_param {
    cls_num: 5
    coord_num: 4
    field_h: 120
    field_w: 120
    field_whr: 2
    field_xyr: 2
    downsample_rate: 16
  }
}
layer {
  bottom: "conv5_5/sep"
  top: "LFCN_2_7x7"
  name: "LFCN_2_7x7"
  type: "Convolution"
  param {
    lr_mult: 1
    decay_mult: 1
  }
  param {
    lr_mult: 2
    decay_mult: 0
  }
  convolution_param {
    num_output: 9
    pad: 3
    kernel_size: 7
    weight_filler {
      type: "gaussian"
      std: 0.001
    }
    bias_filler {
      type: "constant"
    }
  }
}
layer {
  bottom: "LFCN_2_7x7"
  bottom: "label_2_7x7"
  top: "loss_2_7x7"
  name: "detection_loss_2_7x7"
  type: "DetectionLoss"
  detection_loss_param {
    cls_num: 5
    coord_num: 4
    lambda: 0.05
    field_h: 168
    field_w: 168
    field_whr: 2
    field_xyr: 2
    downsample_rate: 16
    bb_smooth: true
    bg_threshold: 0.2
    bg_multiple: 2
    sample_mode: "random"
    pos_neg_weighted: true
  }
}
layer {
  bottom: "LFCN_2_7x7"
  bottom: "label_2_7x7"
  top: "accuracy_2_7x7"
  top: "boxiou_2_7x7"
  name: "detection_accuracy_2_7x7"
  type: "DetectionAccuracy"
  detection_accuracy_param {
    cls_num: 5
    coord_num: 4
    field_h: 168
    field_w: 168
    field_whr: 2
    field_xyr: 2
    downsample_rate: 16
  }
}

layer {
  name: "conv5_6/dw"
  type: "Convolution"
  bottom: "conv5_5/sep"
  top: "conv5_6/dw"
  param {
    lr_mult: 1
    decay_mult: 1
  }
  convolution_param {
    num_output: 512
    bias_term: false
    pad: 1
    kernel_size: 3
    group: 512
    engine: CAFFE
    stride: 2
    weight_filler {
      type: "msra"
    }
  }
}
layer {
  name: "conv5_6/dw/bn"
  type: "BatchNorm"
  bottom: "conv5_6/dw"
  top: "conv5_6/dw"
  param {
    lr_mult: 0
    decay_mult: 0
  }
  param {
    lr_mult: 0
    decay_mult: 0
  }
  param {
    lr_mult: 0
    decay_mult: 0
  }
  batch_norm_param {
    use_global_stats: false
    eps: 1e-5
  }
}
layer {
  name: "conv5_6/dw/scale"
  type: "Scale"
  bottom: "conv5_6/dw"
  top: "conv5_6/dw"
  param {
    lr_mult: 1
    decay_mult: 0
  }
  param {
    lr_mult: 1
    decay_mult: 0
  }
  scale_param {
    filler {
      value: 1
    }
    bias_term: true
    bias_filler {
      value: 0
    }
  }
}
layer {
  name: "relu5_6/dw"
  type: "ReLU"
  bottom: "conv5_6/dw"
  top: "conv5_6/dw"
}
layer {
  name: "conv5_6/sep"
  type: "Convolution"
  bottom: "conv5_6/dw"
  top: "conv5_6/sep"
  param {
    lr_mult: 1
    decay_mult: 1
  }
  convolution_param {
    num_output: 1024
    bias_term: false
    pad: 0
    kernel_size: 1
    stride: 1
    weight_filler {
      type: "msra"
    }
  }
}
layer {
  name: "conv5_6/sep/bn"
  type: "BatchNorm"
  bottom: "conv5_6/sep"
  top: "conv5_6/sep"
  param {
    lr_mult: 0
    decay_mult: 0
  }
  param {
    lr_mult: 0
    decay_mult: 0
  }
  param {
    lr_mult: 0
    decay_mult: 0
  }
  batch_norm_param {
    use_global_stats: false
    eps: 1e-5
  }
}
layer {
  name: "conv5_6/sep/scale"
  type: "Scale"
  bottom: "conv5_6/sep"
  top: "conv5_6/sep"
  param {
    lr_mult: 1
    decay_mult: 0
  }
  param {
    lr_mult: 1
    decay_mult: 0
  }
  scale_param {
    filler {
      value: 1
    }
    bias_term: true
    bias_filler {
      value: 0
    }
  }
}
layer {
  name: "relu5_6/sep"
  type: "ReLU"
  bottom: "conv5_6/sep"
  top: "conv5_6/sep"
}
layer {
  name: "conv6/dw"
  type: "Convolution"
  bottom: "conv5_6/sep"
  top: "conv6/dw"
  param {
    lr_mult: 1
    decay_mult: 1
  }
  convolution_param {
    num_output: 1024
    bias_term: false
    pad: 1
    kernel_size: 3
    group: 1024
    engine: CAFFE
    stride: 1
    weight_filler {
      type: "msra"
    }
  }
}
layer {
  name: "conv6/dw/bn"
  type: "BatchNorm"
  bottom: "conv6/dw"
  top: "conv6/dw"
  param {
    lr_mult: 0
    decay_mult: 0
  }
  param {
    lr_mult: 0
    decay_mult: 0
  }
  param {
    lr_mult: 0
    decay_mult: 0
  }
  batch_norm_param {
    use_global_stats: false
    eps: 1e-5
  }
}
layer {
  name: "conv6/dw/scale"
  type: "Scale"
  bottom: "conv6/dw"
  top: "conv6/dw"
  param {
    lr_mult: 1
    decay_mult: 0
  }
  param {
    lr_mult: 1
    decay_mult: 0
  }
  scale_param {
    filler {
      value: 1
    }
    bias_term: true
    bias_filler {
      value: 0
    }
  }
}
layer {
  name: "relu6/dw"
  type: "ReLU"
  bottom: "conv6/dw"
  top: "conv6/dw"
}
layer {
  name: "conv6/sep"
  type: "Convolution"
  bottom: "conv6/dw"
  top: "conv6/sep"
  param {
    lr_mult: 1
    decay_mult: 1
  }
  convolution_param {
    num_output: 1024
    bias_term: false
    pad: 0
    kernel_size: 1
    stride: 1
    weight_filler {
      type: "msra"
    }
  }
}
layer {
  name: "conv6/sep/bn"
  type: "BatchNorm"
  bottom: "conv6/sep"
  top: "conv6/sep"
  param {
    lr_mult: 0
    decay_mult: 0
  }
  param {
    lr_mult: 0
    decay_mult: 0
  }
  param {
    lr_mult: 0
    decay_mult: 0
  }
  batch_norm_param {
    use_global_stats: false
    eps: 1e-5
  }
}
layer {
  name: "conv6/sep/scale"
  type: "Scale"
  bottom: "conv6/sep"
  top: "conv6/sep"
  param {
    lr_mult: 1
    decay_mult: 0
  }
  param {
    lr_mult: 1
    decay_mult: 0
  }
  scale_param {
    filler {
      value: 1
    }
    bias_term: true
    bias_filler {
      value: 0
    }
  }
}
layer {
  name: "relu6/sep"
  type: "ReLU"
  bottom: "conv6/sep"
  top: "conv6/sep"
}

layer {
  bottom: "conv6/sep"
  top: "LFCN_3_5x5"
  name: "LFCN_3_5x5"
  type: "Convolution"
  param {
    lr_mult: 1
    decay_mult: 1
  }
  param {
    lr_mult: 2
    decay_mult: 0
  }
  convolution_param {
    num_output: 9
    pad: 2
    kernel_size: 5
    weight_filler {
      type: "gaussian"
      std: 0.001
    }
    bias_filler {
      type: "constant"
    }
  }
}
layer {
  bottom: "LFCN_3_5x5"
  bottom: "label_3_5x5"
  top: "loss_3_5x5"
  name: "detection_loss_3_5x5"
  type: "DetectionLoss"
  detection_loss_param {
    cls_num: 5
    coord_num: 4
    lambda: 0.05
    field_h: 240
    field_w: 240
    field_whr: 2
    field_xyr: 2
    downsample_rate: 32
    bb_smooth: true
    bg_threshold: 0.2
    bg_multiple: 2
    sample_mode: "random"
    pos_neg_weighted: true
  }
}
layer {
  bottom: "LFCN_3_5x5"
  bottom: "label_3_5x5"
  top: "accuracy_3_5x5"
  top: "boxiou_3_5x5"
  name: "detection_accuracy_3_5x5"
  type: "DetectionAccuracy"
  detection_accuracy_param {
    cls_num: 5
    coord_num: 4
    field_h: 240
    field_w: 240
    field_whr: 2
    field_xyr: 2
    downsample_rate: 32
  }
}
layer {
  bottom: "conv6/sep"
  top: "LFCN_3_7x7"
  name: "LFCN_3_7x7"
  type: "Convolution"
  param {
    lr_mult: 1
    decay_mult: 1
  }
  param {
    lr_mult: 2
    decay_mult: 0
  }
  convolution_param {
    num_output: 9
    pad: 3
    kernel_size: 7
    weight_filler {
      type: "gaussian"
      std: 0.001
    }
    bias_filler {
      type: "constant"
    }
  }
}
layer {
  bottom: "LFCN_3_7x7"
  bottom: "label_3_7x7"
  top: "loss_3_7x7"
  name: "detection_loss_3_7x7"
  type: "DetectionLoss"
  detection_loss_param {
    cls_num: 5
    coord_num: 4
    lambda: 0.05
    field_h: 336
    field_w: 336
    field_whr: 2
    field_xyr: 2
    downsample_rate: 32
    bb_smooth: true
    bg_threshold: 0.2
    bg_multiple: 2
    sample_mode: "random"
    pos_neg_weighted: true
  }
}
layer {
  bottom: "LFCN_3_7x7"
  bottom: "label_3_7x7"
  top: "accuracy_3_7x7"
  top: "boxiou_3_7x7"
  name: "detection_accuracy_3_7x7"
  type: "DetectionAccuracy"
  detection_accuracy_param {
    cls_num: 5
    coord_num: 4
    field_h: 336
    field_w: 336
    field_whr: 2
    field_xyr: 2
    downsample_rate: 32
  }
}
layer {
  bottom: "conv6/sep"
  top: "pool6"
  name: "pool6"
  type: "Pooling"
  pooling_param {
    pool: MAX
    kernel_size: 2
    stride: 2
  }
}
layer {
  bottom: "pool6"
  top: "LFCN_4_5x5"
  name: "LFCN_4_5x5"
  type: "Convolution"
  param {
    lr_mult: 1
    decay_mult: 1
  }
  param {
    lr_mult: 2
    decay_mult: 0
  }
  convolution_param {
    num_output: 9
    pad: 2
    kernel_size: 5
    weight_filler {
      type: "gaussian"
      std: 0.001
    }
    bias_filler {
      type: "constant"
    }
  }
}
layer {
  bottom: "LFCN_4_5x5"
  bottom: "label_4_5x5"
  top: "loss_4_5x5"
  name: "detection_loss_4_5x5"
  type: "DetectionLoss"
  detection_loss_param {
    cls_num: 5
    coord_num: 4
    lambda: 0.05
    field_h: 480
    field_w: 480
    field_whr: 2
    field_xyr: 2
    downsample_rate: 64
    bb_smooth: true
    bg_threshold: 0.2
    bg_multiple: 2
    sample_mode: "random"
    pos_neg_weighted: true
  }
}
layer {
  bottom: "LFCN_4_5x5"
  bottom: "label_4_5x5"
  top: "accuracy_4_5x5"
  top: "boxiou_4_5x5"
  name: "detection_accuracy_4_5x5"
  type: "DetectionAccuracy"
  detection_accuracy_param {
    cls_num: 5
    coord_num: 4
    field_h: 480
    field_w: 480
    field_whr: 2
    field_xyr: 2
    downsample_rate: 64
  }
}
