…
    downsample_rate: 32
    downsample_rate: 32
    downsample_rate: 64
    coord_num: 4
    field_h: 60
    field_h: 84
    field_h: 120
    field_h: 168
    field_h: 240
    field_h: 336
    field_h: 480
    field_w: 60
    field_w: 84
    field_w: 120
    field_w: 168
    field_w: 240
    field_w: 336
    field_w: 480
    fg_threshold: 0.5
    resize_width: 1344
    resize_height: 768
    crop_width: 768
    crop_height: 768
    do_multiple_scale: true
    min_scale: 60
    max_scale: 480
    min_gt_height: 25
    shuffle: true
    output_gt_boxes: true
  }
}
layer {
  name: "conv1_1"
  type: "Convolution"
  bottom: "data"
  top: "conv1_1"
  param {
    lr_mult: 0
    decay_mult: 0
  }
  param {
    lr_mult: 0
    decay_mult: 0
  }
  convolution_param {
    num_output: 64
    pad: 1
    kernel_size: 3
  }
}
layer {
  name: "relu1_1"
  type: "ReLU"
  bottom: "conv1_1"
  top: "conv1_1"
}
layer {
  name: "conv1_2"
  type: "Convolution"
  bottom: "conv1_1"
  top: "conv1_2"
  param {
    lr_mult: 0
    decay_mult: 0
  }
  param {
    lr_mult: 0
    decay_mult: 0
  }
  convolution_param {
    num_output: 64
    pad: 1
    kernel_size: 3
  }
}
layer {
  name: "relu1_2"
  type: "ReLU"
  bottom: "conv1_2"
  top: "conv1_2"
}
layer {
  name: "pool1"
  type: "Pooling"
  bottom: "conv1_2"
  top: "pool1"
  pooling_param {
    pool: MAX
    kernel_size: 2
    stride: 2
  }
}
layer {
  name: "conv2_1"
  type: "Convolution"
  bottom: "pool1"
  top: "conv2_1"
  param {
    lr_mult: 0
    decay_mult: 0
  }
  param {
    lr_mult: 0
    decay_mult: 0
  }
  convolution_param {
    num_output: 128
    pad: 1
    kernel_size: 3
  }
}
layer {
  name: "relu2_1"
  type: "ReLU"
  bottom: "conv2_1"
  top: "conv2_1"
}
layer {
  name: "conv2_2"
  type: "Convolution"
  bottom: "conv2_1"
  top: "conv2_2"
  param {
    lr_mult: 0
    decay_mult: 0
  }
  param {
    lr_mult: 0
    decay_mult: 0
  }
  convolution_param {
    num_output: 128
    pad: 1
    kernel_size: 3
  }
}
layer {
  name: "relu2_2"
  type: "ReLU"
  bottom: "conv2_2"
  top: "conv2_2"
}
layer {
  name: "pool2"
  type: "Pooling"
  bottom: "conv2_2"
  top: "pool2"
  pooling_param {
    pool: MAX
    kernel_size: 2
    stride: 2
  }
}
layer {
  name: "conv3_1"
  type: "Convolution"
  bottom: "pool2"
  top: "conv3_1"
  convolution_param {
    num_output: 256
    pad: 1
    kernel_size: 3
  }
}
layer {
  name: "relu3_1"
  type: "ReLU"
  bottom: "conv3_1"
  top: "conv3_1"
}
layer {
  name: "conv3_2"
  type: "Convolution"
  bottom: "conv3_1"
  top: "conv3_2"
  convolution_param {
    num_output: 256
    pad: 1
    kernel_size: 3
  }
}
layer {
  name: "relu3_2"
  type: "ReLU"
  bottom: "conv3_2"
  top: "conv3_2"
}
layer {
  name: "conv3_3"
  type: "Convolution"
  bottom: "conv3_2"
  top: "conv3_3"
  convolution_param {
    num_output: 256
    pad: 1
    kernel_size: 3
  }
}
layer {
  name: "relu3_3"
  type: "ReLU"
  bottom: "conv3_3"
  top: "conv3_3"
}
layer {
  name: "pool3"
  type: "Pooling"
  bottom: "conv3_3"
  top: "pool3"
  pooling_param {
    pool: MAX
    kernel_size: 2
    stride: 2
  }
}
layer {
  name: "conv4_1"
  type: "Convolution"
  bottom: "pool3"
  top: "conv4_1"
  convolution_param {
    num_output: 512
    pad: 1
    kernel_size: 3
  }
}
layer {
  name: "relu4_1"
  type: "ReLU"
  bottom: "conv4_1"
  top: "conv4_1"
}
layer {
  name: "conv4_2"
  type: "Convolution"
  bottom: "conv4_1"
  top: "conv4_2"
  convolution_param {
    num_output: 512
    pad: 1
    kernel_size: 3
  }
}
layer {
  name: "relu4_2"
  type: "ReLU"
  bottom: "conv4_2"
  top: "conv4_2"
}
layer {
  name: "conv4_3"
  type: "Convolution"
  bottom: "conv4_2"
  top: "conv4_3"
  convolution_param {
    num_output: 512
    pad: 1
    kernel_size: 3
  }
}
layer {
  name: "relu4_3"
  type: "ReLU"
  bottom: "conv4_3"
  top: "conv4_3"
}
layer {
  name: "loss1_conv1"
  type: "Convolution"
  bottom: "conv4_3"
  top: "loss1_conv1"
  param {
    lr_mult: 1
    decay_mult: 1
  }
  param {
    lr_mult: 2
    decay_mult: 0
  }
  convolution_param {
    num_output: 512
    pad: 1
    kernel_size: 3
    weight_filler {
      type: "gaussian"
      std: 0.01
    }
    bias_filler {
      type: "constant"
    }
  }
}
layer {
  name: "loss_relu1"
  type: "ReLU"
  bottom: "loss1_conv1"
  top: "loss1_conv1"
}
layer {
  name: "LFCN_1_5x5"
  type: "Convolution"
  bottom: "loss1_conv1"
  top: "LFCN_1_5x5"
  param {
    lr_mult: 1
    decay_mult: 1
  }
  param {
    lr_mult: 2
    decay_mult: 0
  }
  convolution_param {
    num_output: 9
    pad: 2
    kernel_size: 5
    weight_filler {
      type: "gaussian"
      std: 0.001
    }
    bias_filler {
      type: "constant"
    }
  }
}
layer {
  name: "detection_loss_1_5x5"
  type: "DetectionLoss"
  bottom: "LFCN_1_5x5"
  bottom: "label_1_5x5"
  top: "loss_1_5x5"
  loss_weight: 0.9
  detection_loss_param {
    cls_num: 5
    coord_num: 4
    lambda: 1
    field_h: 60
    field_w: 60
    downsample_rate: 8
    bb_smooth: true
    field_whr: 2
    field_xyr: 2
    bg_threshold: 0.2
    bg_multiple: 2
    sample_mode: "bootstrap"
    pos_neg_weighted: true
  }
}
layer {
  name: "detection_accuracy_1_5x5"
  type: "DetectionAccuracy"
  bottom: "LFCN_1_5x5"
  bottom: "label_1_5x5"
  top: "accuracy_1_5x5"
  top: "boxiou_1_5x5"
  detection_accuracy_param {
    cls_num: 5
    coord_num: 4
    field_h: 60
    field_w: 60
    downsample_rate: 8
    field_whr: 2
    field_xyr: 2
  }
}
layer {
  name: "LFCN_1_7x7"
  type: "Convolution"
  bottom: "loss1_conv1"
  top: "LFCN_1_7x7"
  param {
    lr_mult: 1
    decay_mult: 1
  }
  param {
    lr_mult: 2
    decay_mult: 0
  }
  convolution_param {
    num_output: 9
    pad: 3
    kernel_size: 7
    weight_filler {
      type: "gaussian"
      std: 0.001
    }
    bias_filler {
      type: "constant"
    }
  }
}
layer {
  name: "detection_loss_1_7x7"
  type: "DetectionLoss"
  bottom: "LFCN_1_7x7"
  bottom: "label_1_7x7"
  top: "loss_1_7x7"
  loss_weight: 0.9
  detection_loss_param {
    cls_num: 5
    coord_num: 4
    lambda: 1
    field_h: 84
    field_w: 84
    downsample_rate: 8
    bb_smooth: true
    field_whr: 2
    field_xyr: 2
    bg_threshold: 0.2
    bg_multiple: 2
    sample_mode: "bootstrap"
    pos_neg_weighted: true
  }
}
layer {
  name: "detection_accuracy_1_7x7"
  type: "DetectionAccuracy"
  bottom: "LFCN_1_7x7"
  bottom: "label_1_7x7"
  top: "accuracy_1_7x7"
  top: "boxiou_1_7x7"
  detection_accuracy_param {
    cls_num: 5
    coord_num: 4
    field_h: 84
    field_w: 84
    downsample_rate: 8
    field_whr: 2
    field_xyr: 2
  }
}
layer {
  name: "pool4"
  type: "Pooling"
  bottom: "conv4_3"
  top: "pool4"
  pooling_param {
    pool: MAX
    kernel_size: 2
    stride: 2
  }
}
layer {
  name: "conv5_1"
  type: "Convolution"
  bottom: "pool4"
  top: "conv5_1"
  convolution_param {
    num_output: 512
    pad: 1
    kernel_size: 3
  }
}
layer {
  name: "relu5_1"
  type: "ReLU"
  bottom: "conv5_1"
  top: "conv5_1"
}
layer {
  name: "conv5_2"
  type: "Convolution"
  bottom: "conv5_1"
  top: "conv5_2"
  convolution_param {
    num_output: 512
    pad: 1
    kernel_size: 3
  }
}
layer {
  name: "relu5_2"
  type: "ReLU"
  bottom: "conv5_2"
  top: "conv5_2"
}
layer {
  name: "conv5_3"
  type: "Convolution"
  bottom: "conv5_2"
  top: "conv5_3"
  convolution_param {
    num_output: 512
    pad: 1
    kernel_size: 3
  }
}
layer {
  name: "relu5_3"
  type: "ReLU"
  bottom: "conv5_3"
  top: "conv5_3"
}
layer {
  name: "LFCN_2_5x5"
  type: "Convolution"
  bottom: "conv5_3"
  top: "LFCN_2_5x5"
  param {
    lr_mult: 1
    decay_mult: 1
  }
  param {
    lr_mult: 2
    decay_mult: 0
  }
  convolution_param {
    num_output: 9
    pad: 2
    kernel_size: 5
    weight_filler {
      type: "gaussian"
      std: 0.001
    }
    bias_filler {
      type: "constant"
    }
  }
}
layer {
  name: "detection_loss_2_5x5"
  type: "DetectionLoss"
  bottom: "LFCN_2_5x5"
  bottom: "label_2_5x5"
  top: "loss_2_5x5"
  detection_loss_param {
    cls_num: 5
    coord_num: 4
    lambda: 1
    field_h: 120
    field_w: 120
    downsample_rate: 16
    bb_smooth: true
    field_whr: 2
    field_xyr: 2
    bg_threshold: 0.2
    bg_multiple: 2
    sample_mode: "bootstrap"
    pos_neg_weighted: true
  }
}
layer {
  name: "detection_accuracy_2_5x5"
  type: "DetectionAccuracy"
  bottom: "LFCN_2_5x5"
  bottom: "label_2_5x5"
  top: "accuracy_2_5x5"
  top: "boxiou_2_5x5"
  detection_accuracy_param {
    cls_num: 5
    coord_num: 4
    field_h: 120
    field_w: 120
    downsample_rate: 16
    field_whr: 2
    field_xyr: 2
  }
}
layer {
  name: "LFCN_2_7x7"
  type: "Convolution"
  bottom: "conv5_3"
  top: "LFCN_2_7x7"
  param {
    lr_mult: 1
    decay_mult: 1
  }
  param {
    lr_mult: 2
    decay_mult: 0
  }
  convolution_param {
    num_output: 9
    pad: 3
    kernel_size: 7
    weight_filler {
      type: "gaussian"
      std: 0.001
    }
    bias_filler {
      type: "constant"
    }
  }
}
layer {
  name: "detection_loss_2_7x7"
  type: "DetectionLoss"
  bottom: "LFCN_2_7x7"
  bottom: "label_2_7x7"
  top: "loss_2_7x7"
  detection_loss_param {
    cls_num: 5
    coord_num: 4
    lambda: 1
    field_h: 168
    field_w: 168
    downsample_rate: 16
    bb_smooth: true
    field_whr: 2
    field_xyr: 2
    bg_threshold: 0.2
    bg_multiple: 2
    sample_mode: "bootstrap"
    pos_neg_weighted: true
  }
}
layer {
  name: "detection_accuracy_2_7x7"
  type: "DetectionAccuracy"
  bottom: "LFCN_2_7x7"
  bottom: "label_2_7x7"
  top: "accuracy_2_7x7"
  top: "boxiou_2_7x7"
  detection_accuracy_param {
    cls_num: 5
    coord_num: 4
    field_h: 168
    field_w: 168
    downsample_rate: 16
    field_whr: 2
    field_xyr: 2
  }
}
layer {
  name: "pool5"
  type: "Pooling"
  bottom: "conv5_3"
  top: "pool5"
  pooling_param {
    pool: MAX
    kernel_size: 2
    stride: 2
  }
}
layer {
  name: "conv6_1"
  type: "Convolution"
  bottom: "pool5"
  top: "conv6_1"
  param {
    lr_mult: 1
    decay_mult: 1
  }
  param {
    lr_mult: 2
    decay_mult: 0
  }
  convolution_param {
    num_output: 512
    pad: 1
    kernel_size: 3
    weight_filler {
      type: "gaussian"
      std: 0.01
    }
    bias_filler {
      type: "constant"
    }
  }
}
layer {
  name: "relu6_1"
  type: "ReLU"
  bottom: "conv6_1"
  top: "conv6_1"
}
layer {
  name: "LFCN_3_5x5"
  type: "Convolution"
  bottom: "conv6_1"
  top: "LFCN_3_5x5"
  param {
    lr_mult: 1
    decay_mult: 1
  }
  param {
    lr_mult: 2
    decay_mult: 0
  }
  convolution_param {
    num_output: 9
    pad: 2
    kernel_size: 5
    weight_filler {
      type: "gaussian"
      std: 0.001
    }
    bias_filler {
      type: "constant"
    }
  }
}
layer {
  name: "detection_loss_3_5x5"
  type: "DetectionLoss"
  bottom: "LFCN_3_5x5"
  bottom: "label_3_5x5"
  top: "loss_3_5x5"
  detection_loss_param {
    cls_num: 5
    coord_num: 4
    lambda: 1
    field_h: 240
    field_w: 240
    downsample_rate: 32
    bb_smooth: true
    field_whr: 2
    field_xyr: 2
    bg_threshold: 0.2
    bg_multiple: 2
    sample_mode: "bootstrap"
    pos_neg_weighted: true
  }
}
layer {
  name: "detection_accuracy_3_5x5"
  type: "DetectionAccuracy"
  bottom: "LFCN_3_5x5"
  bottom: "label_3_5x5"
  top: "accuracy_3_5x5"
  top: "boxiou_3_5x5"
  detection_accuracy_param {
    cls_num: 5
    coord_num: 4
    field_h: 240
    field_w: 240
    downsample_rate: 32
    field_whr: 2
    field_xyr: 2
  }
}
layer {
  name: "LFCN_3_7x7"
  type: "Convolution"
  bottom: "conv6_1"
  top: "LFCN_3_7x7"
  param {
    lr_mult: 1
    decay_mult: 1
  }
  param {
    lr_mult: 2
    decay_mult: 0
  }
  convolution_param {
    num_output: 9
    pad: 3
    kernel_size: 7
    weight_filler {
      type: "gaussian"
      std: 0.001
    }
    bias_filler {
      type: "constant"
    }
  }
}
layer {
  name: "detection_loss_3_7x7"
  type: "DetectionLoss"
  bottom: "LFCN_3_7x7"
  bottom: "label_3_7x7"
  top: "loss_3_7x7"
  detection_loss_param {
    cls_num: 5
    coord_num: 4
    lambda: 1
    field_h: 336
    field_w: 336
    downsample_rate: 32
    bb_smooth: true
    field_whr: 2
    field_xyr: 2
    bg_threshold: 0.2
    bg_multiple: 2
    sample_mode: "bootstrap"
    pos_neg_weighted: true
  }
}
layer {
  name: "detection_accuracy_3_7x7"
  type: "DetectionAccuracy"
  bottom: "LFCN_3_7x7"
  bottom: "label_3_7x7"
  top: "accuracy_3_7x7"
  top: "boxiou_3_7x7"
  detection_accuracy_param {
    cls_num: 5
    coord_num: 4
    field_h: 336
    field_w: 336
    downsample_rate: 32
    field_whr: 2
    field_xyr: 2
  }
}
layer {
  name: "pool6"
  type: "Pooling"
  bottom: "conv6_1"
  top: "pool6"
  pooling_param {
    pool: MAX
    kernel_size: 2
    stride: 2
  }
}
layer {
  name: "LFCN_4_5x5"
  type: "Convolution"
  bottom: "pool6"
  top: "LFCN_4_5x5"
  param {
    lr_mult: 1
    decay_mult: 1
  }
  param {
    lr_mult: 2
    decay_mult: 0
  }
  convolution_param {
    num_output: 9
    pad: 2
    kernel_size: 5
    weight_filler {
      type: "gaussian"
      std: 0.001
    }
    bias_filler {
      type: "constant"
    }
  }
}
layer {
  name: "detection_loss_4_5x5"
  type: "DetectionLoss"
  bottom: "LFCN_4_5x5"
  bottom: "label_4_5x5"
  top: "loss_4_5x5"
  detection_loss_param {
    cls_num: 5
    coord_num: 4
    lambda: 1
    field_h: 480
    field_w: 480
    downsample_rate: 64
    bb_smooth: true
    field_whr: 2
    field_xyr: 2
    bg_threshold: 0.2
    bg_multiple: 2
    sample_mode: "bootstrap"
    pos_neg_weighted: true
  }
}
layer {
  name: "detection_accuracy_4_5x5"
  type: "DetectionAccuracy"
  bottom: "LFCN_4_5x5"
  bottom: "label_4_5x5"
  top: "accuracy_4_5x5"
  top: "boxiou_4_5x5"
  detection_accuracy_param {
    cls_num: 5
    coord_num: 4
    field_h: 480
    field_w: 480
    downsample_rate: 64
    field_whr: 2
    field_xyr: 2
  }
}
layer {
  name: "proposals"
  type: "BoxOutput"
  bottom: "LFCN_1_5x5"
  bottom: "LFCN_1_7x7"
  bottom: "LFCN_2_5x5"
  bottom: "LFCN_2_7x7"
  bottom: "LFCN_3_5x5"
  bottom: "LFCN_3_7x7"
  bottom: "LFCN_4_5x5"
  top: "proposals"
  propagate_down: false
  propagate_down: false
  propagate_down: false
  propagate_down: false
  propagate_down: false
  propagate_down: false
  propagate_down: false
  box_output_param {
    fg_thr: -8
    iou_thr: 0.65
    nms_type: "IOU"
    field_h: 60
    field_h: 84
    field_h: 120
    field_h: 168
    field_h: 240
    field_h: 336
    field_h: 480
    field_w: 60
    field_w: 84
    field_w: 120
    field_w: 168
    field_w: 240
    field_w: 336
    field_w: 480
    downsample_rate: 8
    downsample_rate: 8
    downsample_rate: 16
    downsample_rate: 16
    downsample_rate: 32
    downsample_rate: 32
    downsample_rate: 64
    field_whr: 2
    field_xyr: 2
    max_nms_num: 3000
  }
}
layer {
  name: "proposal_info"
  type: "ProposalTarget"
  bottom: "proposals"
  bottom: "gt_boxes"
  top: "rois"
  top: "proposal_labels"
  top: "proposal_targets"
  top: "box_inside_weights"
  top: "box_outside_weights"
  top: "match_gt_boxes"
  include {
    phase: TRAIN
  }
  propagate_down: false
  propagate_down: false
  proposal_target_param {
    cls_num: 5
    batch_size: 256
    fg_fraction: 0.25
    num_img_per_batch: 4
    fg_thr: 0.5
    bg_thr_hg: 0.49
    bg_thr_lw: 0.1
    img_width: 768
    img_height: 576
  }
  bbox_reg_param {
    bbox_mean: 0
    bbox_mean: 0
    bbox_mean: 0
    bbox_mean: 0
    bbox_std: 0.1
    bbox_std: 0.1
    bbox_std: 0.2
    bbox_std: 0.2
  }
}
layer {
  name: "conv4_3_2x"
  type: "Deconvolution"
  bottom: "conv4_3"
  top: "conv4_3_2x"
  param {
    lr_mult: 0
    decay_mult: 0
  }
  convolution_param {
    num_output: 512
    bias_term: false
    pad: 1
    kernel_size: 4
    group: 512
    stride: 2
    weight_filler {
      type: "bilinear"
    }
  }
}
layer {
  name: "roi_pool_org"
  type: "ROIPooling"
  bottom: "conv4_3_2x"
  bottom: "rois"
  top: "roi_pool_org"
  roi_pooling_param {
    pooled_h: 7
    pooled_w: 7
    spatial_scale: 0.25
    pad_ratio: 0
  }
}
layer {
  name: "roi_pool_ctx"
  type: "ROIPooling"
  bottom: "conv4_3_2x"
  bottom: "rois"
  top: "roi_pool_ctx"
  roi_pooling_param {
    pooled_h: 7
    pooled_w: 7
    spatial_scale: 0.25
    pad_ratio: 0.25
  }
}
layer {
  name: "roi_pool"
  type: "Concat"
  bottom: "roi_pool_org"
  bottom: "roi_pool_ctx"
  top: "roi_pool"
}
layer {
  name: "roi_c1"
  type: "Convolution"
  bottom: "roi_pool"
  top: "roi_c1"
  param {
    lr_mult: 1
    decay_mult: 1
  }
  param {
    lr_mult: 2
    decay_mult: 0
  }
  convolution_param {
    num_output: 512
    kernel_size: 3
    weight_filler {
      type: "gaussian"
      std: 0.01
    }
    bias_filler {
      type: "constant"
    }
  }
}
layer {
  name: "roi_c1_relu"
  type: "ReLU"
  bottom: "roi_c1"
  top: "roi_c1"
}
layer {
  name: "fc6"
  type: "InnerProduct"
  bottom: "roi_c1"
  top: "fc6"
  param {
    lr_mult: 1
  }
  param {
    lr_mult: 2
  }
  inner_product_param {
    num_output: 4096
    weight_filler {
      type: "gaussian"
      std: 0.001
    }
    bias_filler {
      type: "constant"
      value: 0
    }
  }
}
layer {
  name: "relu6"
  type: "ReLU"
  bottom: "fc6"
  top: "fc6"
}
layer {
  name: "drop6"
  type: "Dropout"
  bottom: "fc6"
  top: "fc6"
  dropout_param {
    dropout_ratio: 0.5
  }
}
layer {
  name: "cls_pred"
  type: "InnerProduct"
  bottom: "fc6"
  top: "cls_pred"
  param {
    lr_mult: 1
  }
  param {
    lr_mult: 2
  }
  inner_product_param {
    num_output: 5
    weight_filler {
      type: "gaussian"
      std: 0.01
    }
    bias_filler {
      type: "constant"
      value: 0
    }
  }
}
layer {
  name: "bbox_pred"
  type: "InnerProduct"
  bottom: "fc6"
  top: "bbox_pred"
  param {
    lr_mult: 1
  }
  param {
    lr_mult: 2
  }
  inner_product_param {
    num_output: 20
    weight_filler {
      type: "gaussian"
      std: 0.001
    }
    bias_filler {
      type: "constant"
      value: 0
    }
  }
}
layer {
  name: "loss_cls"
  type: "SoftmaxWithLoss"
  bottom: "cls_pred"
  bottom: "proposal_labels"
  top: "loss_cls"
  loss_weight: 1
  propagate_down: true
  propagate_down: false
}
layer {
  name: "cls_accuracy"
  type: "Accuracy"
  bottom: "cls_pred"
  bottom: "proposal_labels"
  top: "cls_accuracy"
}
layer {
  name: "loss_bbox"
  type: "SmoothL1Loss"
  bottom: "bbox_pred"
  bottom: "proposal_targets"
  bottom: "box_inside_weights"
  bottom: "box_outside_weights"
  top: "loss_bbox"
  loss_weight: 1
}
layer {
  name: "bbox_iou"
  type: "BboxAccuracy"
  bottom: "bbox_pred"
  bottom: "rois"
  bottom: "match_gt_boxes"
  top: "bbox_iou"
  top: "bbox_iou_pre"
  bbox_reg_param {
    bbox_mean: 0
    bbox_mean: 0
    bbox_mean: 0
    bbox_mean: 0
    bbox_std: 0.1
    bbox_std: 0.1
    bbox_std: 0.2
    bbox_std: 0.2
  }
}
I1215 02:00:28.760887 12783 layer_factory.hpp:77] Creating layer data
I1215 02:00:28.760927 12783 net.cpp:100] Creating Layer data
I1215 02:00:28.760933 12783 net.cpp:408] data -> data
…
I1215 02:00:28.784173 12783 image_gt_data_layer.cpp:235] output label size 2 : 3,6,48,48
I1215 02:00:28.784206 12783 image_gt_data_layer.cpp:235] output label size 3 : 3,6,48,48
I1215 02:00:28.784240 12783 image_gt_data_layer.cpp:235] output label size 4 : 3,6,24,24
I1215 02:00:28.784278 12783 image_gt_data_layer.cpp:235] output label size 5 : 3,6,24,24
I1215 02:00:28.784317 12783 image_gt_data_layer.cpp:235] output label size 6 : 3,6,12,12
I1215 02:00:28.784354 12783 image_gt_data_layer.cpp:250] output gt boxes size: 1,7,1,1
I1215 02:00:28.822614 12783 net.cpp:150] Setting up data
I1215 02:00:28.822650 12783 net.cpp:157] Top shape: 3 3 768 768 (5308416)
I1215 02:00:28.822656 12783 net.cpp:157] Top shape: 3 6 96 96 (165888)
I1215 02:00:28.822664 12783 net.cpp:157] Top shape: 3 6 96 96 (165888)
I1215 02:00:28.822667 12783 net.cpp:157] Top shape: 3 6 48 48 (41472)
I1215 02:00:28.822671 12783 net.cpp:157] Top shape: 3 6 48 48 (41472)
I1215 02:00:28.822676 12783 net.cpp:157] Top shape: 3 6 24 24 (10368)
I1215 02:00:28.822680 12783 net.cpp:157] Top shape: 3 6 24 24 (10368)
I1215 02:00:28.822685 12783 net.cpp:157] Top shape: 3 6 12 12 (2592)
I1215 02:00:28.822690 12783 net.cpp:157] Top shape: 1 7 1 1 (7)
I1215 02:00:28.822692 12783 net.cpp:165] Memory required for data: 22985884
I1215 02:00:28.822702 12783 layer_factory.hpp:77] Creating layer label_1_5x5_data_1_split
I1215 02:00:28.822723 12783 net.cpp:100] Creating Layer label_1_5x5_data_1_split
I1215 02:00:28.822731 12783 net.cpp:434] label_1_5x5_data_1_split <- label_1_5x5
I1215 02:00:28.822742 12783 net.cpp:408] label_1_5x5_data_1_split -> label_1_5x5_data_1_split_0
I1215 02:00:28.822751 12783 net.cpp:408] label_1_5x5_data_1_split -> label_1_5x5_data_1_split_1
I1215 02:00:28.822801 12783 net.cpp:150] Setting up label_1_5x5_data_1_split
I1215 02:00:28.822808 12783 net.cpp:157] Top shape: 3 6 96 96 (165888)
I1215 02:00:28.822813 12783 net.cpp:157] Top shape: 3 6 96 96 (165888)
I1215 02:00:28.822815 12783 net.cpp:165] Memory required for data: 24312988
I1215 02:00:28.822818 12783 layer_factory.hpp:77] Creating layer label_1_7x7_data_2_split
I1215 02:00:28.822824 12783 net.cpp:100] Creating Layer label_1_7x7_data_2_split
I1215 02:00:28.822827 12783 net.cpp:434] label_1_7x7_data_2_split <- label_1_7x7
I1215 02:00:28.822832 12783 net.cpp:408] label_1_7x7_data_2_split -> label_1_7x7_data_2_split_0
I1215 02:00:28.822839 12783 net.cpp:408] label_1_7x7_data_2_split -> label_1_7x7_data_2_split_1
I1215 02:00:28.822906 12783 net.cpp:150] Setting up label_1_7x7_data_2_split
I1215 02:00:28.822912 12783 net.cpp:157] Top shape: 3 6 96 96 (165888)
I1215 02:00:28.822917 12783 net.cpp:157] Top shape: 3 6 96 96 (165888)
I1215 02:00:28.822921 12783 net.cpp:165] Memory required for data: 25640092
I1215 02:00:28.822923 12783 layer_factory.hpp:77] Creating layer label_2_5x5_data_3_split
I1215 02:00:28.822928 12783 net.cpp:100] Creating Layer label_2_5x5_data_3_split
I1215 02:00:28.822932 12783 net.cpp:434] label_2_5x5_data_3_split <- label_2_5x5
I1215 02:00:28.822937 12783 net.cpp:408] label_2_5x5_data_3_split -> label_2_5x5_data_3_split_0
I1215 02:00:28.822943 12783 net.cpp:408] label_2_5x5_data_3_split -> label_2_5x5_data_3_split_1
I1215 02:00:28.822974 12783 net.cpp:150] Setting up label_2_5x5_data_3_split
I1215 02:00:28.822981 12783 net.cpp:157] Top shape: 3 6 48 48 (41472)
I1215 02:00:28.822986 12783 net.cpp:157] Top shape: 3 6 48 48 (41472)
I1215 02:00:28.822989 12783 net.cpp:165] Memory required for data: 25971868
I1215 02:00:28.822993 12783 layer_factory.hpp:77] Creating layer label_2_7x7_data_4_split
I1215 02:00:28.822998 12783 net.cpp:100] Creating Layer label_2_7x7_data_4_split
I1215 02:00:28.823001 12783 net.cpp:434] label_2_7x7_data_4_split <- label_2_7x7
I1215 02:00:28.823005 12783 net.cpp:408] label_2_7x7_data_4_split -> label_2_7x7_data_4_split_0
I1215 02:00:28.823012 12783 net.cpp:408] label_2_7x7_data_4_split -> label_2_7x7_data_4_split_1
I1215 02:00:28.823037 12783 net.cpp:150] Setting up label_2_7x7_data_4_split
I1215 02:00:28.823043 12783 net.cpp:157] Top shape: 3 6 48 48 (41472)
I1215 02:00:28.823048 12783 net.cpp:157] Top shape: 3 6 48 48 (41472)
I1215 02:00:28.823051 12783 net.cpp:165] Memory required for data: 26303644
I1215 02:00:28.823055 12783 layer_factory.hpp:77] Creating layer label_3_5x5_data_5_split
I1215 02:00:28.823060 12783 net.cpp:100] Creating Layer label_3_5x5_data_5_split
I1215 02:00:28.823063 12783 net.cpp:434] label_3_5x5_data_5_split <- label_3_5x5
I1215 02:00:28.823068 12783 net.cpp:408] label_3_5x5_data_5_split -> label_3_5x5_data_5_split_0
I1215 02:00:28.823073 12783 net.cpp:408] label_3_5x5_data_5_split -> label_3_5x5_data_5_split_1
I1215 02:00:28.823097 12783 net.cpp:150] Setting up label_3_5x5_data_5_split
I1215 02:00:28.823103 12783 net.cpp:157] Top shape: 3 6 24 24 (10368)
I1215 02:00:28.823107 12783 net.cpp:157] Top shape: 3 6 24 24 (10368)
I1215 02:00:28.823110 12783 net.cpp:165] Memory required for data: 26386588
I1215 02:00:28.823113 12783 layer_factory.hpp:77] Creating layer label_3_7x7_data_6_split
I1215 02:00:28.823117 12783 net.cpp:100] Creating Layer label_3_7x7_data_6_split
I1215 02:00:28.823122 12783 net.cpp:434] label_3_7x7_data_6_split <- label_3_7x7
I1215 02:00:28.823125 12783 net.cpp:408] label_3_7x7_data_6_split -> label_3_7x7_data_6_split_0
I1215 02:00:28.823130 12783 net.cpp:408] label_3_7x7_data_6_split -> label_3_7x7_data_6_split_1
I1215 02:00:28.823154 12783 net.cpp:150] Setting up label_3_7x7_data_6_split
I1215 02:00:28.823160 12783 net.cpp:157] Top shape: 3 6 24 24 (10368)
I1215 02:00:28.823164 12783 net.cpp:157] Top shape: 3 6 24 24 (10368)
I1215 02:00:28.823168 12783 net.cpp:165] Memory required for data: 26469532
I1215 02:00:28.823170 12783 layer_factory.hpp:77] Creating layer label_4_5x5_data_7_split
I1215 02:00:28.823174 12783 net.cpp:100] Creating Layer label_4_5x5_data_7_split
I1215 02:00:28.823177 12783 net.cpp:434] label_4_5x5_data_7_split <- label_4_5x5
I1215 02:00:28.823182 12783 net.cpp:408] label_4_5x5_data_7_split -> label_4_5x5_data_7_split_0
I1215 02:00:28.823187 12783 net.cpp:408] label_4_5x5_data_7_split -> label_4_5x5_data_7_split_1
I1215 02:00:28.823210 12783 net.cpp:150] Setting up label_4_5x5_data_7_split
I1215 02:00:28.823216 12783 net.cpp:157] Top shape: 3 6 12 12 (2592)
I1215 02:00:28.823220 12783 net.cpp:157] Top shape: 3 6 12 12 (2592)
I1215 02:00:28.823223 12783 net.cpp:165] Memory required for data: 26490268
I1215 02:00:28.823226 12783 layer_factory.hpp:77] Creating layer conv1_1
I1215 02:00:28.823238 12783 net.cpp:100] Creating Layer conv1_1
I1215 02:00:28.823242 12783 net.cpp:434] conv1_1 <- data
I1215 02:00:28.823247 12783 net.cpp:408] conv1_1 -> conv1_1
I1215 02:00:29.042763 12783 net.cpp:150] Setting up conv1_1
I1215 02:00:29.042793 12783 net.cpp:157] Top shape: 3 64 768 768 (113246208)
I1215 02:00:29.042798 12783 net.cpp:165] Memory required for data: 479475100
I1215 02:00:29.042815 12783 layer_factory.hpp:77] Creating layer relu1_1
I1215 02:00:29.042829 12783 net.cpp:100] Creating Layer relu1_1
I1215 02:00:29.042834 12783 net.cpp:434] relu1_1 <- conv1_1
I1215 02:00:29.042840 12783 net.cpp:395] relu1_1 -> conv1_1 (in-place)
I1215 02:00:29.043002 12783 net.cpp:150] Setting up relu1_1
I1215 02:00:29.043011 12783 net.cpp:157] Top shape: 3 64 768 768 (113246208)
I1215 02:00:29.043015 12783 net.cpp:165] Memory required for data: 932459932
I1215 02:00:29.043018 12783 layer_factory.hpp:77] Creating layer conv1_2
I1215 02:00:29.043027 12783 net.cpp:100] Creating Layer conv1_2
I1215 02:00:29.043031 12783 net.cpp:434] conv1_2 <- conv1_1
I1215 02:00:29.043036 12783 net.cpp:408] conv1_2 -> conv1_2
I1215 02:00:29.045249 12783 net.cpp:150] Setting up conv1_2
I1215 02:00:29.045265 12783 net.cpp:157] Top shape: 3 64 768 768 (113246208)
I1215 02:00:29.045269 12783 net.cpp:165] Memory required for data: 1385444764
I1215 02:00:29.045280 12783 layer_factory.hpp:77] Creating layer relu1_2
I1215 02:00:29.045289 12783 net.cpp:100] Creating Layer relu1_2
I1215 02:00:29.045292 12783 net.cpp:434] relu1_2 <- conv1_2
I1215 02:00:29.045298 12783 net.cpp:395] relu1_2 -> conv1_2 (in-place)
I1215 02:00:29.045460 12783 net.cpp:150] Setting up relu1_2
I1215 02:00:29.045469 12783 net.cpp:157] Top shape: 3 64 768 768 (113246208)
I1215 02:00:29.045472 12783 net.cpp:165] Memory required for data: 1838429596
I1215 02:00:29.045476 12783 layer_factory.hpp:77] Creating layer pool1
I1215 02:00:29.045483 12783 net.cpp:100] Creating Layer pool1
I1215 02:00:29.045487 12783 net.cpp:434] pool1 <- conv1_2
I1215 02:00:29.045492 12783 net.cpp:408] pool1 -> pool1
I1215 02:00:29.045534 12783 net.cpp:150] Setting up pool1
I1215 02:00:29.045541 12783 net.cpp:157] Top shape: 3 64 384 384 (28311552)
I1215 02:00:29.045544 12783 net.cpp:165] Memory required for data: 1951675804
I1215 02:00:29.045547 12783 layer_factory.hpp:77] Creating layer conv2_1
I1215 02:00:29.045555 12783 net.cpp:100] Creating Layer conv2_1
I1215 02:00:29.045559 12783 net.cpp:434] conv2_1 <- pool1
I1215 02:00:29.045564 12783 net.cpp:408] conv2_1 -> conv2_1
I1215 02:00:29.047837 12783 net.cpp:150] Setting up conv2_1
I1215 02:00:29.047853 12783 net.cpp:157] Top shape: 3 128 384 384 (56623104)
I1215 02:00:29.047857 12783 net.cpp:165] Memory required for data: 2178168220
I1215 02:00:29.047868 12783 layer_factory.hpp:77] Creating layer relu2_1
I1215 02:00:29.047875 12783 net.cpp:100] Creating Layer relu2_1
I1215 02:00:29.047880 12783 net.cpp:434] relu2_1 <- conv2_1
I1215 02:00:29.047885 12783 net.cpp:395] relu2_1 -> conv2_1 (in-place)
I1215 02:00:29.048035 12783 net.cpp:150] Setting up relu2_1
I1215 02:00:29.048044 12783 net.cpp:157] Top shape: 3 128 384 384 (56623104)
I1215 02:00:29.048048 12783 net.cpp:165] Memory required for data: 2404660636
I1215 02:00:29.048051 12783 layer_factory.hpp:77] Creating layer conv2_2
I1215 02:00:29.048059 12783 net.cpp:100] Creating Layer conv2_2
I1215 02:00:29.048063 12783 net.cpp:434] conv2_2 <- conv2_1
I1215 02:00:29.048069 12783 net.cpp:408] conv2_2 -> conv2_2
I1215 02:00:29.049418 12783 net.cpp:150] Setting up conv2_2
I1215 02:00:29.049432 12783 net.cpp:157] Top shape: 3 128 384 384 (56623104)
I1215 02:00:29.049434 12783 net.cpp:165] Memory required for data: 2631153052
I1215 02:00:29.049441 12783 layer_factory.hpp:77] Creating layer relu2_2
I1215 02:00:29.049449 12783 net.cpp:100] Creating Layer relu2_2
I1215 02:00:29.049453 12783 net.cpp:434] relu2_2 <- conv2_2
I1215 02:00:29.049458 12783 net.cpp:395] relu2_2 -> conv2_2 (in-place)
I1215 02:00:29.049618 12783 net.cpp:150] Setting up relu2_2
I1215 02:00:29.049628 12783 net.cpp:157] Top shape: 3 128 384 384 (56623104)
I1215 02:00:29.049630 12783 net.cpp:165] Memory required for data: 2857645468
I1215 02:00:29.049634 12783 layer_factory.hpp:77] Creating layer pool2
I1215 02:00:29.049640 12783 net.cpp:100] Creating Layer pool2
I1215 02:00:29.049644 12783 net.cpp:434] pool2 <- conv2_2
I1215 02:00:29.049649 12783 net.cpp:408] pool2 -> pool2
I1215 02:00:29.049684 12783 net.cpp:150] Setting up pool2
I1215 02:00:29.049690 12783 net.cpp:157] Top shape: 3 128 192 192 (14155776)
I1215 02:00:29.049693 12783 net.cpp:165] Memory required for data: 2914268572
I1215 02:00:29.049698 12783 layer_factory.hpp:77] Creating layer conv3_1
I1215 02:00:29.049705 12783 net.cpp:100] Creating Layer conv3_1
I1215 02:00:29.049710 12783 net.cpp:434] conv3_1 <- pool2
I1215 02:00:29.049715 12783 net.cpp:408] conv3_1 -> conv3_1
I1215 02:00:29.051870 12783 net.cpp:150] Setting up conv3_1
I1215 02:00:29.051887 12783 net.cpp:157] Top shape: 3 256 192 192 (28311552)
I1215 02:00:29.051890 12783 net.cpp:165] Memory required for data: 3027514780
I1215 02:00:29.051900 12783 layer_factory.hpp:77] Creating layer relu3_1
I1215 02:00:29.051908 12783 net.cpp:100] Creating Layer relu3_1
I1215 02:00:29.051911 12783 net.cpp:434] relu3_1 <- conv3_1
I1215 02:00:29.051916 12783 net.cpp:395] relu3_1 -> conv3_1 (in-place)
I1215 02:00:29.052326 12783 net.cpp:150] Setting up relu3_1
I1215 02:00:29.052338 12783 net.cpp:157] Top shape: 3 256 192 192 (28311552)
I1215 02:00:29.052342 12783 net.cpp:165] Memory required for data: 3140760988
I1215 02:00:29.052346 12783 layer_factory.hpp:77] Creating layer conv3_2
I1215 02:00:29.052353 12783 net.cpp:100] Creating Layer conv3_2
I1215 02:00:29.052357 12783 net.cpp:434] conv3_2 <- conv3_1
I1215 02:00:29.052362 12783 net.cpp:408] conv3_2 -> conv3_2
I1215 02:00:29.054419 12783 net.cpp:150] Setting up conv3_2
I1215 02:00:29.054435 12783 net.cpp:157] Top shape: 3 256 192 192 (28311552)
I1215 02:00:29.054440 12783 net.cpp:165] Memory required for data: 3254007196
I1215 02:00:29.054447 12783 layer_factory.hpp:77] Creating layer relu3_2
I1215 02:00:29.054455 12783 net.cpp:100] Creating Layer relu3_2
I1215 02:00:29.054460 12783 net.cpp:434] relu3_2 <- conv3_2
I1215 02:00:29.054466 12783 net.cpp:395] relu3_2 -> conv3_2 (in-place)
I1215 02:00:29.054869 12783 net.cpp:150] Setting up relu3_2
I1215 02:00:29.054881 12783 net.cpp:157] Top shape: 3 256 192 192 (28311552)
I1215 02:00:29.054885 12783 net.cpp:165] Memory required for data: 3367253404
I1215 02:00:29.054888 12783 layer_factory.hpp:77] Creating layer conv3_3
I1215 02:00:29.054898 12783 net.cpp:100] Creating Layer conv3_3
I1215 02:00:29.054900 12783 net.cpp:434] conv3_3 <- conv3_2
I1215 02:00:29.054906 12783 net.cpp:408] conv3_3 -> conv3_3
I1215 02:00:29.057404 12783 net.cpp:150] Setting up conv3_3
I1215 02:00:29.057430 12783 net.cpp:157] Top shape: 3 256 192 192 (28311552)
I1215 02:00:29.057433 12783 net.cpp:165] Memory required for data: 3480499612
I1215 02:00:29.057442 12783 layer_factory.hpp:77] Creating layer relu3_3
I1215 02:00:29.057452 12783 net.cpp:100] Creating Layer relu3_3
I1215 02:00:29.057458 12783 net.cpp:434] relu3_3 <- conv3_3
I1215 02:00:29.057464 12783 net.cpp:395] relu3_3 -> conv3_3 (in-place)
I1215 02:00:29.057637 12783 net.cpp:150] Setting up relu3_3
I1215 02:00:29.057647 12783 net.cpp:157] Top shape: 3 256 192 192 (28311552)
I1215 02:00:29.057651 12783 net.cpp:165] Memory required for data: 3593745820
I1215 02:00:29.057654 12783 layer_factory.hpp:77] Creating layer pool3
I1215 02:00:29.057662 12783 net.cpp:100] Creating Layer pool3
I1215 02:00:29.057665 12783 net.cpp:434] pool3 <- conv3_3
I1215 02:00:29.057672 12783 net.cpp:408] pool3 -> pool3
I1215 02:00:29.057710 12783 net.cpp:150] Setting up pool3
I1215 02:00:29.057718 12783 net.cpp:157] Top shape: 3 256 96 96 (7077888)
I1215 02:00:29.057720 12783 net.cpp:165] Memory required for data: 3622057372
I1215 02:00:29.057723 12783 layer_factory.hpp:77] Creating layer conv4_1
I1215 02:00:29.057732 12783 net.cpp:100] Creating Layer conv4_1
I1215 02:00:29.057735 12783 net.cpp:434] conv4_1 <- pool3
I1215 02:00:29.057740 12783 net.cpp:408] conv4_1 -> conv4_1
I1215 02:00:29.062160 12783 net.cpp:150] Setting up conv4_1
I1215 02:00:29.062188 12783 net.cpp:157] Top shape: 3 512 96 96 (14155776)
I1215 02:00:29.062192 12783 net.cpp:165] Memory required for data: 3678680476
I1215 02:00:29.062202 12783 layer_factory.hpp:77] Creating layer relu4_1
I1215 02:00:29.062214 12783 net.cpp:100] Creating Layer relu4_1
I1215 02:00:29.062220 12783 net.cpp:434] relu4_1 <- conv4_1
I1215 02:00:29.062227 12783 net.cpp:395] relu4_1 -> conv4_1 (in-place)
I1215 02:00:29.062377 12783 net.cpp:150] Setting up relu4_1
I1215 02:00:29.062386 12783 net.cpp:157] Top shape: 3 512 96 96 (14155776)
I1215 02:00:29.062391 12783 net.cpp:165] Memory required for data: 3735303580
I1215 02:00:29.062393 12783 layer_factory.hpp:77] Creating layer conv4_2
I1215 02:00:29.062402 12783 net.cpp:100] Creating Layer conv4_2
I1215 02:00:29.062407 12783 net.cpp:434] conv4_2 <- conv4_1
I1215 02:00:29.062412 12783 net.cpp:408] conv4_2 -> conv4_2
I1215 02:00:29.068025 12783 net.cpp:150] Setting up conv4_2
I1215 02:00:29.068053 12783 net.cpp:157] Top shape: 3 512 96 96 (14155776)
I1215 02:00:29.068055 12783 net.cpp:165] Memory required for data: 3791926684
I1215 02:00:29.068068 12783 layer_factory.hpp:77] Creating layer relu4_2
I1215 02:00:29.068080 12783 net.cpp:100] Creating Layer relu4_2
I1215 02:00:29.068084 12783 net.cpp:434] relu4_2 <- conv4_2
I1215 02:00:29.068090 12783 net.cpp:395] relu4_2 -> conv4_2 (in-place)
I1215 02:00:29.068223 12783 net.cpp:150] Setting up relu4_2
I1215 02:00:29.068231 12783 net.cpp:157] Top shape: 3 512 96 96 (14155776)
I1215 02:00:29.068235 12783 net.cpp:165] Memory required for data: 3848549788
I1215 02:00:29.068238 12783 layer_factory.hpp:77] Creating layer conv4_3
I1215 02:00:29.068248 12783 net.cpp:100] Creating Layer conv4_3
I1215 02:00:29.068250 12783 net.cpp:434] conv4_3 <- conv4_2
I1215 02:00:29.068256 12783 net.cpp:408] conv4_3 -> conv4_3
I1215 02:00:29.074324 12783 net.cpp:150] Setting up conv4_3
I1215 02:00:29.074354 12783 net.cpp:157] Top shape: 3 512 96 96 (14155776)
I1215 02:00:29.074359 12783 net.cpp:165] Memory required for data: 3905172892
I1215 02:00:29.074369 12783 layer_factory.hpp:77] Creating layer relu4_3
I1215 02:00:29.074381 12783 net.cpp:100] Creating Layer relu4_3
I1215 02:00:29.074388 12783 net.cpp:434] relu4_3 <- conv4_3
I1215 02:00:29.074393 12783 net.cpp:395] relu4_3 -> conv4_3 (in-place)
I1215 02:00:29.074537 12783 net.cpp:150] Setting up relu4_3
I1215 02:00:29.074544 12783 net.cpp:157] Top shape: 3 512 96 96 (14155776)
I1215 02:00:29.074548 12783 net.cpp:165] Memory required for data: 3961795996
I1215 02:00:29.074550 12783 layer_factory.hpp:77] Creating layer conv4_3_relu4_3_0_split
I1215 02:00:29.074558 12783 net.cpp:100] Creating Layer conv4_3_relu4_3_0_split
I1215 02:00:29.074560 12783 net.cpp:434] conv4_3_relu4_3_0_split <- conv4_3
I1215 02:00:29.074565 12783 net.cpp:408] conv4_3_relu4_3_0_split -> conv4_3_relu4_3_0_split_0
I1215 02:00:29.074573 12783 net.cpp:408] conv4_3_relu4_3_0_split -> conv4_3_relu4_3_0_split_1
I1215 02:00:29.074578 12783 net.cpp:408] conv4_3_relu4_3_0_split -> conv4_3_relu4_3_0_split_2
I1215 02:00:29.074620 12783 net.cpp:150] Setting up conv4_3_relu4_3_0_split
I1215 02:00:29.074626 12783 net.cpp:157] Top shape: 3 512 96 96 (14155776)
I1215 02:00:29.074630 12783 net.cpp:157] Top shape: 3 512 96 96 (14155776)
I1215 02:00:29.074635 12783 net.cpp:157] Top shape: 3 512 96 96 (14155776)
I1215 02:00:29.074637 12783 net.cpp:165] Memory required for data: 4131665308
I1215 02:00:29.074640 12783 layer_factory.hpp:77] Creating layer loss1_conv1
I1215 02:00:29.074654 12783 net.cpp:100] Creating Layer loss1_conv1
I1215 02:00:29.074657 12783 net.cpp:434] loss1_conv1 <- conv4_3_relu4_3_0_split_0
I1215 02:00:29.074663 12783 net.cpp:408] loss1_conv1 -> loss1_conv1
I1215 02:00:29.133795 12783 net.cpp:150] Setting up loss1_conv1
I1215 02:00:29.133824 12783 net.cpp:157] Top shape: 3 512 96 96 (14155776)
I1215 02:00:29.133828 12783 net.cpp:165] Memory required for data: 4188288412
I1215 02:00:29.133837 12783 layer_factory.hpp:77] Creating layer loss_relu1
I1215 02:00:29.133849 12783 net.cpp:100] Creating Layer loss_relu1
I1215 02:00:29.133855 12783 net.cpp:434] loss_relu1 <- loss1_conv1
I1215 02:00:29.133862 12783 net.cpp:395] loss_relu1 -> loss1_conv1 (in-place)
I1215 02:00:29.134296 12783 net.cpp:150] Setting up loss_relu1
I1215 02:00:29.134308 12783 net.cpp:157] Top shape: 3 512 96 96 (14155776)
I1215 02:00:29.134312 12783 net.cpp:165] Memory required for data: 4244911516
I1215 02:00:29.134316 12783 layer_factory.hpp:77] Creating layer loss1_conv1_loss_relu1_0_split
I1215 02:00:29.134322 12783 net.cpp:100] Creating Layer loss1_conv1_loss_relu1_0_split
I1215 02:00:29.134326 12783 net.cpp:434] loss1_conv1_loss_relu1_0_split <- loss1_conv1
I1215 02:00:29.134331 12783 net.cpp:408] loss1_conv1_loss_relu1_0_split -> loss1_conv1_loss_relu1_0_split_0
I1215 02:00:29.134340 12783 net.cpp:408] loss1_conv1_loss_relu1_0_split -> loss1_conv1_loss_relu1_0_split_1
I1215 02:00:29.134373 12783 net.cpp:150] Setting up loss1_conv1_loss_relu1_0_split
I1215 02:00:29.134379 12783 net.cpp:157] Top shape: 3 512 96 96 (14155776)
I1215 02:00:29.134383 12783 net.cpp:157] Top shape: 3 512 96 96 (14155776)
I1215 02:00:29.134387 12783 net.cpp:165] Memory required for data: 4358157724
I1215 02:00:29.134390 12783 layer_factory.hpp:77] Creating layer LFCN_1_5x5
I1215 02:00:29.134399 12783 net.cpp:100] Creating Layer LFCN_1_5x5
I1215 02:00:29.134403 12783 net.cpp:434] LFCN_1_5x5 <- loss1_conv1_loss_relu1_0_split_0
I1215 02:00:29.134408 12783 net.cpp:408] LFCN_1_5x5 -> LFCN_1_5x5
I1215 02:00:29.138033 12783 net.cpp:150] Setting up LFCN_1_5x5
I1215 02:00:29.138049 12783 net.cpp:157] Top shape: 3 9 96 96 (248832)
I1215 02:00:29.138053 12783 net.cpp:165] Memory required for data: 4359153052
I1215 02:00:29.138062 12783 layer_factory.hpp:77] Creating layer LFCN_1_5x5_LFCN_1_5x5_0_split
I1215 02:00:29.138070 12783 net.cpp:100] Creating Layer LFCN_1_5x5_LFCN_1_5x5_0_split
I1215 02:00:29.138074 12783 net.cpp:434] LFCN_1_5x5_LFCN_1_5x5_0_split <- LFCN_1_5x5
I1215 02:00:29.138080 12783 net.cpp:408] LFCN_1_5x5_LFCN_1_5x5_0_split -> LFCN_1_5x5_LFCN_1_5x5_0_split_0
I1215 02:00:29.138087 12783 net.cpp:408] LFCN_1_5x5_LFCN_1_5x5_0_split -> LFCN_1_5x5_LFCN_1_5x5_0_split_1
I1215 02:00:29.138092 12783 net.cpp:408] LFCN_1_5x5_LFCN_1_5x5_0_split -> LFCN_1_5x5_LFCN_1_5x5_0_split_2
I1215 02:00:29.138135 12783 net.cpp:150] Setting up LFCN_1_5x5_LFCN_1_5x5_0_split
I1215 02:00:29.138139 12783 net.cpp:157] Top shape: 3 9 96 96 (248832)
I1215 02:00:29.138144 12783 net.cpp:157] Top shape: 3 9 96 96 (248832)
I1215 02:00:29.138147 12783 net.cpp:157] Top shape: 3 9 96 96 (248832)
I1215 02:00:29.138151 12783 net.cpp:165] Memory required for data: 4362139036
I1215 02:00:29.138155 12783 layer_factory.hpp:77] Creating layer detection_loss_1_5x5
I1215 02:00:29.138164 12783 net.cpp:100] Creating Layer detection_loss_1_5x5
I1215 02:00:29.138166 12783 net.cpp:434] detection_loss_1_5x5 <- LFCN_1_5x5_LFCN_1_5x5_0_split_0
I1215 02:00:29.138171 12783 net.cpp:434] detection_loss_1_5x5 <- label_1_5x5_data_1_split_0
I1215 02:00:29.138176 12783 net.cpp:408] detection_loss_1_5x5 -> loss_1_5x5
I1215 02:00:29.138190 12783 layer_factory.hpp:77] Creating layer detection_loss_1_5x5
I1215 02:00:29.139737 12783 net.cpp:150] Setting up detection_loss_1_5x5
I1215 02:00:29.139765 12783 net.cpp:157] Top shape: 1 1 1 2 (2)
I1215 02:00:29.139770 12783 net.cpp:160]     with loss weight 0.9
I1215 02:00:29.139787 12783 net.cpp:165] Memory required for data: 4362139044
I1215 02:00:29.139791 12783 layer_factory.hpp:77] Creating layer detection_accuracy_1_5x5
I1215 02:00:29.139801 12783 net.cpp:100] Creating Layer detection_accuracy_1_5x5
I1215 02:00:29.139806 12783 net.cpp:434] detection_accuracy_1_5x5 <- LFCN_1_5x5_LFCN_1_5x5_0_split_1
I1215 02:00:29.139811 12783 net.cpp:434] detection_accuracy_1_5x5 <- label_1_5x5_data_1_split_1
I1215 02:00:29.139817 12783 net.cpp:408] detection_accuracy_1_5x5 -> accuracy_1_5x5
I1215 02:00:29.139827 12783 net.cpp:408] detection_accuracy_1_5x5 -> boxiou_1_5x5
I1215 02:00:29.139863 12783 net.cpp:150] Setting up detection_accuracy_1_5x5
I1215 02:00:29.139870 12783 net.cpp:157] Top shape: 1 1 1 2 (2)
I1215 02:00:29.139875 12783 net.cpp:157] Top shape: 1 1 1 1 (1)
I1215 02:00:29.139878 12783 net.cpp:165] Memory required for data: 4362139056
I1215 02:00:29.139881 12783 layer_factory.hpp:77] Creating layer LFCN_1_7x7
I1215 02:00:29.139891 12783 net.cpp:100] Creating Layer LFCN_1_7x7
I1215 02:00:29.139897 12783 net.cpp:434] LFCN_1_7x7 <- loss1_conv1_loss_relu1_0_split_1
I1215 02:00:29.139904 12783 net.cpp:408] LFCN_1_7x7 -> LFCN_1_7x7
I1215 02:00:29.146565 12783 net.cpp:150] Setting up LFCN_1_7x7
I1215 02:00:29.146579 12783 net.cpp:157] Top shape: 3 9 96 96 (248832)
I1215 02:00:29.146582 12783 net.cpp:165] Memory required for data: 4363134384
I1215 02:00:29.146590 12783 layer_factory.hpp:77] Creating layer LFCN_1_7x7_LFCN_1_7x7_0_split
I1215 02:00:29.146596 12783 net.cpp:100] Creating Layer LFCN_1_7x7_LFCN_1_7x7_0_split
I1215 02:00:29.146600 12783 net.cpp:434] LFCN_1_7x7_LFCN_1_7x7_0_split <- LFCN_1_7x7
I1215 02:00:29.146605 12783 net.cpp:408] LFCN_1_7x7_LFCN_1_7x7_0_split -> LFCN_1_7x7_LFCN_1_7x7_0_split_0
I1215 02:00:29.146611 12783 net.cpp:408] LFCN_1_7x7_LFCN_1_7x7_0_split -> LFCN_1_7x7_LFCN_1_7x7_0_split_1
I1215 02:00:29.146617 12783 net.cpp:408] LFCN_1_7x7_LFCN_1_7x7_0_split -> LFCN_1_7x7_LFCN_1_7x7_0_split_2
I1215 02:00:29.146659 12783 net.cpp:150] Setting up LFCN_1_7x7_LFCN_1_7x7_0_split
I1215 02:00:29.146665 12783 net.cpp:157] Top shape: 3 9 96 96 (248832)
I1215 02:00:29.146670 12783 net.cpp:157] Top shape: 3 9 96 96 (248832)
I1215 02:00:29.146674 12783 net.cpp:157] Top shape: 3 9 96 96 (248832)
I1215 02:00:29.146677 12783 net.cpp:165] Memory required for data: 4366120368
I1215 02:00:29.146680 12783 layer_factory.hpp:77] Creating layer detection_loss_1_7x7
I1215 02:00:29.146687 12783 net.cpp:100] Creating Layer detection_loss_1_7x7
I1215 02:00:29.146690 12783 net.cpp:434] detection_loss_1_7x7 <- LFCN_1_7x7_LFCN_1_7x7_0_split_0
I1215 02:00:29.146695 12783 net.cpp:434] detection_loss_1_7x7 <- label_1_7x7_data_2_split_0
I1215 02:00:29.146700 12783 net.cpp:408] detection_loss_1_7x7 -> loss_1_7x7
I1215 02:00:29.146708 12783 layer_factory.hpp:77] Creating layer detection_loss_1_7x7
I1215 02:00:29.147130 12783 net.cpp:150] Setting up detection_loss_1_7x7
I1215 02:00:29.147140 12783 net.cpp:157] Top shape: 1 1 1 2 (2)
I1215 02:00:29.147145 12783 net.cpp:160]     with loss weight 0.9
I1215 02:00:29.147152 12783 net.cpp:165] Memory required for data: 4366120376
I1215 02:00:29.147156 12783 layer_factory.hpp:77] Creating layer detection_accuracy_1_7x7
I1215 02:00:29.147164 12783 net.cpp:100] Creating Layer detection_accuracy_1_7x7
I1215 02:00:29.147168 12783 net.cpp:434] detection_accuracy_1_7x7 <- LFCN_1_7x7_LFCN_1_7x7_0_split_1
I1215 02:00:29.147174 12783 net.cpp:434] detection_accuracy_1_7x7 <- label_1_7x7_data_2_split_1
I1215 02:00:29.147181 12783 net.cpp:408] detection_accuracy_1_7x7 -> accuracy_1_7x7
I1215 02:00:29.147186 12783 net.cpp:408] detection_accuracy_1_7x7 -> boxiou_1_7x7
I1215 02:00:29.147215 12783 net.cpp:150] Setting up detection_accuracy_1_7x7
I1215 02:00:29.147222 12783 net.cpp:157] Top shape: 1 1 1 2 (2)
I1215 02:00:29.147227 12783 net.cpp:157] Top shape: 1 1 1 1 (1)
I1215 02:00:29.147229 12783 net.cpp:165] Memory required for data: 4366120388
I1215 02:00:29.147233 12783 layer_factory.hpp:77] Creating layer pool4
I1215 02:00:29.147239 12783 net.cpp:100] Creating Layer pool4
I1215 02:00:29.147243 12783 net.cpp:434] pool4 <- conv4_3_relu4_3_0_split_1
I1215 02:00:29.147248 12783 net.cpp:408] pool4 -> pool4
I1215 02:00:29.147279 12783 net.cpp:150] Setting up pool4
I1215 02:00:29.147284 12783 net.cpp:157] Top shape: 3 512 48 48 (3538944)
I1215 02:00:29.147287 12783 net.cpp:165] Memory required for data: 4380276164
I1215 02:00:29.147291 12783 layer_factory.hpp:77] Creating layer conv5_1
I1215 02:00:29.147297 12783 net.cpp:100] Creating Layer conv5_1
I1215 02:00:29.147300 12783 net.cpp:434] conv5_1 <- pool4
I1215 02:00:29.147307 12783 net.cpp:408] conv5_1 -> conv5_1
I1215 02:00:29.153122 12783 net.cpp:150] Setting up conv5_1
I1215 02:00:29.153156 12783 net.cpp:157] Top shape: 3 512 48 48 (3538944)
I1215 02:00:29.153158 12783 net.cpp:165] Memory required for data: 4394431940
I1215 02:00:29.153167 12783 layer_factory.hpp:77] Creating layer relu5_1
I1215 02:00:29.153177 12783 net.cpp:100] Creating Layer relu5_1
I1215 02:00:29.153183 12783 net.cpp:434] relu5_1 <- conv5_1
I1215 02:00:29.153189 12783 net.cpp:395] relu5_1 -> conv5_1 (in-place)
I1215 02:00:29.153332 12783 net.cpp:150] Setting up relu5_1
I1215 02:00:29.153342 12783 net.cpp:157] Top shape: 3 512 48 48 (3538944)
I1215 02:00:29.153344 12783 net.cpp:165] Memory required for data: 4408587716
I1215 02:00:29.153348 12783 layer_factory.hpp:77] Creating layer conv5_2
I1215 02:00:29.153357 12783 net.cpp:100] Creating Layer conv5_2
I1215 02:00:29.153360 12783 net.cpp:434] conv5_2 <- conv5_1
I1215 02:00:29.153365 12783 net.cpp:408] conv5_2 -> conv5_2
I1215 02:00:29.159265 12783 net.cpp:150] Setting up conv5_2
I1215 02:00:29.159296 12783 net.cpp:157] Top shape: 3 512 48 48 (3538944)
I1215 02:00:29.159301 12783 net.cpp:165] Memory required for data: 4422743492
I1215 02:00:29.159310 12783 layer_factory.hpp:77] Creating layer relu5_2
I1215 02:00:29.159322 12783 net.cpp:100] Creating Layer relu5_2
I1215 02:00:29.159329 12783 net.cpp:434] relu5_2 <- conv5_2
I1215 02:00:29.159335 12783 net.cpp:395] relu5_2 -> conv5_2 (in-place)
I1215 02:00:29.159488 12783 net.cpp:150] Setting up relu5_2
I1215 02:00:29.159497 12783 net.cpp:157] Top shape: 3 512 48 48 (3538944)
I1215 02:00:29.159502 12783 net.cpp:165] Memory required for data: 4436899268
I1215 02:00:29.159504 12783 layer_factory.hpp:77] Creating layer conv5_3
I1215 02:00:29.159512 12783 net.cpp:100] Creating Layer conv5_3
I1215 02:00:29.159516 12783 net.cpp:434] conv5_3 <- conv5_2
I1215 02:00:29.159521 12783 net.cpp:408] conv5_3 -> conv5_3
I1215 02:00:29.165158 12783 net.cpp:150] Setting up conv5_3
I1215 02:00:29.165187 12783 net.cpp:157] Top shape: 3 512 48 48 (3538944)
I1215 02:00:29.165191 12783 net.cpp:165] Memory required for data: 4451055044
I1215 02:00:29.165200 12783 layer_factory.hpp:77] Creating layer relu5_3
I1215 02:00:29.165211 12783 net.cpp:100] Creating Layer relu5_3
I1215 02:00:29.165217 12783 net.cpp:434] relu5_3 <- conv5_3
I1215 02:00:29.165222 12783 net.cpp:395] relu5_3 -> conv5_3 (in-place)
I1215 02:00:29.165372 12783 net.cpp:150] Setting up relu5_3
I1215 02:00:29.165380 12783 net.cpp:157] Top shape: 3 512 48 48 (3538944)
I1215 02:00:29.165385 12783 net.cpp:165] Memory required for data: 4465210820
I1215 02:00:29.165388 12783 layer_factory.hpp:77] Creating layer conv5_3_relu5_3_0_split
I1215 02:00:29.165395 12783 net.cpp:100] Creating Layer conv5_3_relu5_3_0_split
I1215 02:00:29.165398 12783 net.cpp:434] conv5_3_relu5_3_0_split <- conv5_3
I1215 02:00:29.165403 12783 net.cpp:408] conv5_3_relu5_3_0_split -> conv5_3_relu5_3_0_split_0
I1215 02:00:29.165410 12783 net.cpp:408] conv5_3_relu5_3_0_split -> conv5_3_relu5_3_0_split_1
I1215 02:00:29.165416 12783 net.cpp:408] conv5_3_relu5_3_0_split -> conv5_3_relu5_3_0_split_2
I1215 02:00:29.165459 12783 net.cpp:150] Setting up conv5_3_relu5_3_0_split
I1215 02:00:29.165467 12783 net.cpp:157] Top shape: 3 512 48 48 (3538944)
I1215 02:00:29.165470 12783 net.cpp:157] Top shape: 3 512 48 48 (3538944)
I1215 02:00:29.165474 12783 net.cpp:157] Top shape: 3 512 48 48 (3538944)
I1215 02:00:29.165477 12783 net.cpp:165] Memory required for data: 4507678148
I1215 02:00:29.165482 12783 layer_factory.hpp:77] Creating layer LFCN_2_5x5
I1215 02:00:29.165491 12783 net.cpp:100] Creating Layer LFCN_2_5x5
I1215 02:00:29.165494 12783 net.cpp:434] LFCN_2_5x5 <- conv5_3_relu5_3_0_split_0
I1215 02:00:29.165500 12783 net.cpp:408] LFCN_2_5x5 -> LFCN_2_5x5
I1215 02:00:29.170372 12783 net.cpp:150] Setting up LFCN_2_5x5
I1215 02:00:29.170395 12783 net.cpp:157] Top shape: 3 9 48 48 (62208)
I1215 02:00:29.170401 12783 net.cpp:165] Memory required for data: 4507926980
I1215 02:00:29.170415 12783 layer_factory.hpp:77] Creating layer LFCN_2_5x5_LFCN_2_5x5_0_split
I1215 02:00:29.170426 12783 net.cpp:100] Creating Layer LFCN_2_5x5_LFCN_2_5x5_0_split
I1215 02:00:29.170433 12783 net.cpp:434] LFCN_2_5x5_LFCN_2_5x5_0_split <- LFCN_2_5x5
I1215 02:00:29.170439 12783 net.cpp:408] LFCN_2_5x5_LFCN_2_5x5_0_split -> LFCN_2_5x5_LFCN_2_5x5_0_split_0
I1215 02:00:29.170450 12783 net.cpp:408] LFCN_2_5x5_LFCN_2_5x5_0_split -> LFCN_2_5x5_LFCN_2_5x5_0_split_1
I1215 02:00:29.170456 12783 net.cpp:408] LFCN_2_5x5_LFCN_2_5x5_0_split -> LFCN_2_5x5_LFCN_2_5x5_0_split_2
I1215 02:00:29.170500 12783 net.cpp:150] Setting up LFCN_2_5x5_LFCN_2_5x5_0_split
I1215 02:00:29.170507 12783 net.cpp:157] Top shape: 3 9 48 48 (62208)
I1215 02:00:29.170511 12783 net.cpp:157] Top shape: 3 9 48 48 (62208)
I1215 02:00:29.170516 12783 net.cpp:157] Top shape: 3 9 48 48 (62208)
I1215 02:00:29.170518 12783 net.cpp:165] Memory required for data: 4508673476
I1215 02:00:29.170522 12783 layer_factory.hpp:77] Creating layer detection_loss_2_5x5
I1215 02:00:29.170529 12783 net.cpp:100] Creating Layer detection_loss_2_5x5
I1215 02:00:29.170533 12783 net.cpp:434] detection_loss_2_5x5 <- LFCN_2_5x5_LFCN_2_5x5_0_split_0
I1215 02:00:29.170538 12783 net.cpp:434] detection_loss_2_5x5 <- label_2_5x5_data_3_split_0
I1215 02:00:29.170544 12783 net.cpp:408] detection_loss_2_5x5 -> loss_2_5x5
I1215 02:00:29.170552 12783 layer_factory.hpp:77] Creating layer detection_loss_2_5x5
I1215 02:00:29.171188 12783 net.cpp:150] Setting up detection_loss_2_5x5
I1215 02:00:29.171201 12783 net.cpp:157] Top shape: 1 1 1 2 (2)
I1215 02:00:29.171205 12783 net.cpp:160]     with loss weight 1
I1215 02:00:29.171218 12783 net.cpp:165] Memory required for data: 4508673484
I1215 02:00:29.171222 12783 layer_factory.hpp:77] Creating layer detection_accuracy_2_5x5
I1215 02:00:29.171231 12783 net.cpp:100] Creating Layer detection_accuracy_2_5x5
I1215 02:00:29.171234 12783 net.cpp:434] detection_accuracy_2_5x5 <- LFCN_2_5x5_LFCN_2_5x5_0_split_1
I1215 02:00:29.171239 12783 net.cpp:434] detection_accuracy_2_5x5 <- label_2_5x5_data_3_split_1
I1215 02:00:29.171245 12783 net.cpp:408] detection_accuracy_2_5x5 -> accuracy_2_5x5
I1215 02:00:29.171252 12783 net.cpp:408] detection_accuracy_2_5x5 -> boxiou_2_5x5
I1215 02:00:29.171286 12783 net.cpp:150] Setting up detection_accuracy_2_5x5
I1215 02:00:29.171293 12783 net.cpp:157] Top shape: 1 1 1 2 (2)
I1215 02:00:29.171296 12783 net.cpp:157] Top shape: 1 1 1 1 (1)
I1215 02:00:29.171299 12783 net.cpp:165] Memory required for data: 4508673496
I1215 02:00:29.171303 12783 layer_factory.hpp:77] Creating layer LFCN_2_7x7
I1215 02:00:29.171314 12783 net.cpp:100] Creating Layer LFCN_2_7x7
I1215 02:00:29.171317 12783 net.cpp:434] LFCN_2_7x7 <- conv5_3_relu5_3_0_split_1
I1215 02:00:29.171324 12783 net.cpp:408] LFCN_2_7x7 -> LFCN_2_7x7
I1215 02:00:29.177378 12783 net.cpp:150] Setting up LFCN_2_7x7
I1215 02:00:29.177387 12783 net.cpp:157] Top shape: 3 9 48 48 (62208)
I1215 02:00:29.177390 12783 net.cpp:165] Memory required for data: 4508922328
I1215 02:00:29.177397 12783 layer_factory.hpp:77] Creating layer LFCN_2_7x7_LFCN_2_7x7_0_split
I1215 02:00:29.177400 12783 net.cpp:100] Creating Layer LFCN_2_7x7_LFCN_2_7x7_0_split
I1215 02:00:29.177404 12783 net.cpp:434] LFCN_2_7x7_LFCN_2_7x7_0_split <- LFCN_2_7x7
I1215 02:00:29.177409 12783 net.cpp:408] LFCN_2_7x7_LFCN_2_7x7_0_split -> LFCN_2_7x7_LFCN_2_7x7_0_split_0
I1215 02:00:29.177414 12783 net.cpp:408] LFCN_2_7x7_LFCN_2_7x7_0_split -> LFCN_2_7x7_LFCN_2_7x7_0_split_1
I1215 02:00:29.177418 12783 net.cpp:408] LFCN_2_7x7_LFCN_2_7x7_0_split -> LFCN_2_7x7_LFCN_2_7x7_0_split_2
I1215 02:00:29.177456 12783 net.cpp:150] Setting up LFCN_2_7x7_LFCN_2_7x7_0_split
I1215 02:00:29.177461 12783 net.cpp:157] Top shape: 3 9 48 48 (62208)
I1215 02:00:29.177464 12783 net.cpp:157] Top shape: 3 9 48 48 (62208)
I1215 02:00:29.177469 12783 net.cpp:157] Top shape: 3 9 48 48 (62208)
I1215 02:00:29.177470 12783 net.cpp:165] Memory required for data: 4509668824
I1215 02:00:29.177474 12783 layer_factory.hpp:77] Creating layer detection_loss_2_7x7
I1215 02:00:29.177479 12783 net.cpp:100] Creating Layer detection_loss_2_7x7
I1215 02:00:29.177481 12783 net.cpp:434] detection_loss_2_7x7 <- LFCN_2_7x7_LFCN_2_7x7_0_split_0
I1215 02:00:29.177486 12783 net.cpp:434] detection_loss_2_7x7 <- label_2_7x7_data_4_split_0
I1215 02:00:29.177491 12783 net.cpp:408] detection_loss_2_7x7 -> loss_2_7x7
I1215 02:00:29.177496 12783 layer_factory.hpp:77] Creating layer detection_loss_2_7x7
I1215 02:00:29.178146 12783 net.cpp:150] Setting up detection_loss_2_7x7
I1215 02:00:29.178159 12783 net.cpp:157] Top shape: 1 1 1 2 (2)
I1215 02:00:29.178162 12783 net.cpp:160]     with loss weight 1
I1215 02:00:29.178169 12783 net.cpp:165] Memory required for data: 4509668832
I1215 02:00:29.178172 12783 layer_factory.hpp:77] Creating layer detection_accuracy_2_7x7
I1215 02:00:29.178179 12783 net.cpp:100] Creating Layer detection_accuracy_2_7x7
I1215 02:00:29.178184 12783 net.cpp:434] detection_accuracy_2_7x7 <- LFCN_2_7x7_LFCN_2_7x7_0_split_1
I1215 02:00:29.178187 12783 net.cpp:434] detection_accuracy_2_7x7 <- label_2_7x7_data_4_split_1
I1215 02:00:29.178192 12783 net.cpp:408] detection_accuracy_2_7x7 -> accuracy_2_7x7
I1215 02:00:29.178200 12783 net.cpp:408] detection_accuracy_2_7x7 -> boxiou_2_7x7
I1215 02:00:29.178233 12783 net.cpp:150] Setting up detection_accuracy_2_7x7
I1215 02:00:29.178241 12783 net.cpp:157] Top shape: 1 1 1 2 (2)
I1215 02:00:29.178244 12783 net.cpp:157] Top shape: 1 1 1 1 (1)
I1215 02:00:29.178247 12783 net.cpp:165] Memory required for data: 4509668844
I1215 02:00:29.178251 12783 layer_factory.hpp:77] Creating layer pool5
I1215 02:00:29.178257 12783 net.cpp:100] Creating Layer pool5
I1215 02:00:29.178261 12783 net.cpp:434] pool5 <- conv5_3_relu5_3_0_split_2
I1215 02:00:29.178266 12783 net.cpp:408] pool5 -> pool5
I1215 02:00:29.178305 12783 net.cpp:150] Setting up pool5
I1215 02:00:29.178311 12783 net.cpp:157] Top shape: 3 512 24 24 (884736)
I1215 02:00:29.178314 12783 net.cpp:165] Memory required for data: 4513207788
I1215 02:00:29.178318 12783 layer_factory.hpp:77] Creating layer conv6_1
I1215 02:00:29.178325 12783 net.cpp:100] Creating Layer conv6_1
I1215 02:00:29.178329 12783 net.cpp:434] conv6_1 <- pool5
I1215 02:00:29.178335 12783 net.cpp:408] conv6_1 -> conv6_1
I1215 02:00:29.238631 12783 net.cpp:150] Setting up conv6_1
I1215 02:00:29.238654 12783 net.cpp:157] Top shape: 3 512 24 24 (884736)
I1215 02:00:29.238659 12783 net.cpp:165] Memory required for data: 4516746732
I1215 02:00:29.238667 12783 layer_factory.hpp:77] Creating layer relu6_1
I1215 02:00:29.238680 12783 net.cpp:100] Creating Layer relu6_1
I1215 02:00:29.238687 12783 net.cpp:434] relu6_1 <- conv6_1
I1215 02:00:29.238693 12783 net.cpp:395] relu6_1 -> conv6_1 (in-place)
I1215 02:00:29.238849 12783 net.cpp:150] Setting up relu6_1
I1215 02:00:29.238858 12783 net.cpp:157] Top shape: 3 512 24 24 (884736)
I1215 02:00:29.238862 12783 net.cpp:165] Memory required for data: 4520285676
I1215 02:00:29.238865 12783 layer_factory.hpp:77] Creating layer conv6_1_relu6_1_0_split
I1215 02:00:29.238871 12783 net.cpp:100] Creating Layer conv6_1_relu6_1_0_split
I1215 02:00:29.238874 12783 net.cpp:434] conv6_1_relu6_1_0_split <- conv6_1
I1215 02:00:29.238880 12783 net.cpp:408] conv6_1_relu6_1_0_split -> conv6_1_relu6_1_0_split_0
I1215 02:00:29.238886 12783 net.cpp:408] conv6_1_relu6_1_0_split -> conv6_1_relu6_1_0_split_1
I1215 02:00:29.238893 12783 net.cpp:408] conv6_1_relu6_1_0_split -> conv6_1_relu6_1_0_split_2
I1215 02:00:29.238940 12783 net.cpp:150] Setting up conv6_1_relu6_1_0_split
I1215 02:00:29.238945 12783 net.cpp:157] Top shape: 3 512 24 24 (884736)
I1215 02:00:29.238950 12783 net.cpp:157] Top shape: 3 512 24 24 (884736)
I1215 02:00:29.238953 12783 net.cpp:157] Top shape: 3 512 24 24 (884736)
I1215 02:00:29.238956 12783 net.cpp:165] Memory required for data: 4530902508
I1215 02:00:29.238960 12783 layer_factory.hpp:77] Creating layer LFCN_3_5x5
I1215 02:00:29.238970 12783 net.cpp:100] Creating Layer LFCN_3_5x5
I1215 02:00:29.238973 12783 net.cpp:434] LFCN_3_5x5 <- conv6_1_relu6_1_0_split_0
I1215 02:00:29.238979 12783 net.cpp:408] LFCN_3_5x5 -> LFCN_3_5x5
I1215 02:00:29.242864 12783 net.cpp:150] Setting up LFCN_3_5x5
I1215 02:00:29.242882 12783 net.cpp:157] Top shape: 3 9 24 24 (15552)
I1215 02:00:29.242887 12783 net.cpp:165] Memory required for data: 4530964716
I1215 02:00:29.242893 12783 layer_factory.hpp:77] Creating layer LFCN_3_5x5_LFCN_3_5x5_0_split
I1215 02:00:29.242908 12783 net.cpp:100] Creating Layer LFCN_3_5x5_LFCN_3_5x5_0_split
I1215 02:00:29.242911 12783 net.cpp:434] LFCN_3_5x5_LFCN_3_5x5_0_split <- LFCN_3_5x5
I1215 02:00:29.242918 12783 net.cpp:408] LFCN_3_5x5_LFCN_3_5x5_0_split -> LFCN_3_5x5_LFCN_3_5x5_0_split_0
I1215 02:00:29.242924 12783 net.cpp:408] LFCN_3_5x5_LFCN_3_5x5_0_split -> LFCN_3_5x5_LFCN_3_5x5_0_split_1
I1215 02:00:29.242930 12783 net.cpp:408] LFCN_3_5x5_LFCN_3_5x5_0_split -> LFCN_3_5x5_LFCN_3_5x5_0_split_2
I1215 02:00:29.242980 12783 net.cpp:150] Setting up LFCN_3_5x5_LFCN_3_5x5_0_split
I1215 02:00:29.242987 12783 net.cpp:157] Top shape: 3 9 24 24 (15552)
I1215 02:00:29.242992 12783 net.cpp:157] Top shape: 3 9 24 24 (15552)
I1215 02:00:29.242996 12783 net.cpp:157] Top shape: 3 9 24 24 (15552)
I1215 02:00:29.243000 12783 net.cpp:165] Memory required for data: 4531151340
I1215 02:00:29.243003 12783 layer_factory.hpp:77] Creating layer detection_loss_3_5x5
I1215 02:00:29.243011 12783 net.cpp:100] Creating Layer detection_loss_3_5x5
I1215 02:00:29.243016 12783 net.cpp:434] detection_loss_3_5x5 <- LFCN_3_5x5_LFCN_3_5x5_0_split_0
I1215 02:00:29.243021 12783 net.cpp:434] detection_loss_3_5x5 <- label_3_5x5_data_5_split_0
I1215 02:00:29.243026 12783 net.cpp:408] detection_loss_3_5x5 -> loss_3_5x5
I1215 02:00:29.243034 12783 layer_factory.hpp:77] Creating layer detection_loss_3_5x5
I1215 02:00:29.243391 12783 net.cpp:150] Setting up detection_loss_3_5x5
I1215 02:00:29.243399 12783 net.cpp:157] Top shape: 1 1 1 2 (2)
I1215 02:00:29.243402 12783 net.cpp:160]     with loss weight 1
I1215 02:00:29.243413 12783 net.cpp:165] Memory required for data: 4531151348
I1215 02:00:29.243417 12783 layer_factory.hpp:77] Creating layer detection_accuracy_3_5x5
I1215 02:00:29.243423 12783 net.cpp:100] Creating Layer detection_accuracy_3_5x5
I1215 02:00:29.243427 12783 net.cpp:434] detection_accuracy_3_5x5 <- LFCN_3_5x5_LFCN_3_5x5_0_split_1
I1215 02:00:29.243432 12783 net.cpp:434] detection_accuracy_3_5x5 <- label_3_5x5_data_5_split_1
I1215 02:00:29.243438 12783 net.cpp:408] detection_accuracy_3_5x5 -> accuracy_3_5x5
I1215 02:00:29.243445 12783 net.cpp:408] detection_accuracy_3_5x5 -> boxiou_3_5x5
I1215 02:00:29.243479 12783 net.cpp:150] Setting up detection_accuracy_3_5x5
I1215 02:00:29.243486 12783 net.cpp:157] Top shape: 1 1 1 2 (2)
I1215 02:00:29.243490 12783 net.cpp:157] Top shape: 1 1 1 1 (1)
I1215 02:00:29.243494 12783 net.cpp:165] Memory required for data: 4531151360
I1215 02:00:29.243496 12783 layer_factory.hpp:77] Creating layer LFCN_3_7x7
I1215 02:00:29.243505 12783 net.cpp:100] Creating Layer LFCN_3_7x7
I1215 02:00:29.243510 12783 net.cpp:434] LFCN_3_7x7 <- conv6_1_relu6_1_0_split_1
I1215 02:00:29.243515 12783 net.cpp:408] LFCN_3_7x7 -> LFCN_3_7x7
I1215 02:00:29.250964 12783 net.cpp:150] Setting up LFCN_3_7x7
I1215 02:00:29.250982 12783 net.cpp:157] Top shape: 3 9 24 24 (15552)
I1215 02:00:29.250986 12783 net.cpp:165] Memory required for data: 4531213568
I1215 02:00:29.250993 12783 layer_factory.hpp:77] Creating layer LFCN_3_7x7_LFCN_3_7x7_0_split
I1215 02:00:29.251003 12783 net.cpp:100] Creating Layer LFCN_3_7x7_LFCN_3_7x7_0_split
I1215 02:00:29.251008 12783 net.cpp:434] LFCN_3_7x7_LFCN_3_7x7_0_split <- LFCN_3_7x7
I1215 02:00:29.251014 12783 net.cpp:408] LFCN_3_7x7_LFCN_3_7x7_0_split -> LFCN_3_7x7_LFCN_3_7x7_0_split_0
I1215 02:00:29.251021 12783 net.cpp:408] LFCN_3_7x7_LFCN_3_7x7_0_split -> LFCN_3_7x7_LFCN_3_7x7_0_split_1
I1215 02:00:29.251026 12783 net.cpp:408] LFCN_3_7x7_LFCN_3_7x7_0_split -> LFCN_3_7x7_LFCN_3_7x7_0_split_2
I1215 02:00:29.251073 12783 net.cpp:150] Setting up LFCN_3_7x7_LFCN_3_7x7_0_split
I1215 02:00:29.251080 12783 net.cpp:157] Top shape: 3 9 24 24 (15552)
I1215 02:00:29.251083 12783 net.cpp:157] Top shape: 3 9 24 24 (15552)
I1215 02:00:29.251088 12783 net.cpp:157] Top shape: 3 9 24 24 (15552)
I1215 02:00:29.251091 12783 net.cpp:165] Memory required for data: 4531400192
I1215 02:00:29.251094 12783 layer_factory.hpp:77] Creating layer detection_loss_3_7x7
I1215 02:00:29.251102 12783 net.cpp:100] Creating Layer detection_loss_3_7x7
I1215 02:00:29.251108 12783 net.cpp:434] detection_loss_3_7x7 <- LFCN_3_7x7_LFCN_3_7x7_0_split_0
I1215 02:00:29.251113 12783 net.cpp:434] detection_loss_3_7x7 <- label_3_7x7_data_6_split_0
I1215 02:00:29.251118 12783 net.cpp:408] detection_loss_3_7x7 -> loss_3_7x7
I1215 02:00:29.251127 12783 layer_factory.hpp:77] Creating layer detection_loss_3_7x7
I1215 02:00:29.251438 12783 net.cpp:150] Setting up detection_loss_3_7x7
I1215 02:00:29.251448 12783 net.cpp:157] Top shape: 1 1 1 2 (2)
I1215 02:00:29.251451 12783 net.cpp:160]     with loss weight 1
I1215 02:00:29.251461 12783 net.cpp:165] Memory required for data: 4531400200
I1215 02:00:29.251463 12783 layer_factory.hpp:77] Creating layer detection_accuracy_3_7x7
I1215 02:00:29.251471 12783 net.cpp:100] Creating Layer detection_accuracy_3_7x7
I1215 02:00:29.251474 12783 net.cpp:434] detection_accuracy_3_7x7 <- LFCN_3_7x7_LFCN_3_7x7_0_split_1
I1215 02:00:29.251478 12783 net.cpp:434] detection_accuracy_3_7x7 <- label_3_7x7_data_6_split_1
I1215 02:00:29.251484 12783 net.cpp:408] detection_accuracy_3_7x7 -> accuracy_3_7x7
I1215 02:00:29.251492 12783 net.cpp:408] detection_accuracy_3_7x7 -> boxiou_3_7x7
I1215 02:00:29.251528 12783 net.cpp:150] Setting up detection_accuracy_3_7x7
I1215 02:00:29.251534 12783 net.cpp:157] Top shape: 1 1 1 2 (2)
I1215 02:00:29.251538 12783 net.cpp:157] Top shape: 1 1 1 1 (1)
I1215 02:00:29.251541 12783 net.cpp:165] Memory required for data: 4531400212
I1215 02:00:29.251544 12783 layer_factory.hpp:77] Creating layer pool6
I1215 02:00:29.251551 12783 net.cpp:100] Creating Layer pool6
I1215 02:00:29.251555 12783 net.cpp:434] pool6 <- conv6_1_relu6_1_0_split_2
I1215 02:00:29.251560 12783 net.cpp:408] pool6 -> pool6
I1215 02:00:29.251593 12783 net.cpp:150] Setting up pool6
I1215 02:00:29.251600 12783 net.cpp:157] Top shape: 3 512 12 12 (221184)
I1215 02:00:29.251603 12783 net.cpp:165] Memory required for data: 4532284948
I1215 02:00:29.251606 12783 layer_factory.hpp:77] Creating layer LFCN_4_5x5
I1215 02:00:29.251616 12783 net.cpp:100] Creating Layer LFCN_4_5x5
I1215 02:00:29.251619 12783 net.cpp:434] LFCN_4_5x5 <- pool6
I1215 02:00:29.251626 12783 net.cpp:408] LFCN_4_5x5 -> LFCN_4_5x5
I1215 02:00:29.255610 12783 net.cpp:150] Setting up LFCN_4_5x5
I1215 02:00:29.255623 12783 net.cpp:157] Top shape: 3 9 12 12 (3888)
I1215 02:00:29.255627 12783 net.cpp:165] Memory required for data: 4532300500
I1215 02:00:29.255633 12783 layer_factory.hpp:77] Creating layer LFCN_4_5x5_LFCN_4_5x5_0_split
I1215 02:00:29.255640 12783 net.cpp:100] Creating Layer LFCN_4_5x5_LFCN_4_5x5_0_split
I1215 02:00:29.255643 12783 net.cpp:434] LFCN_4_5x5_LFCN_4_5x5_0_split <- LFCN_4_5x5
I1215 02:00:29.255650 12783 net.cpp:408] LFCN_4_5x5_LFCN_4_5x5_0_split -> LFCN_4_5x5_LFCN_4_5x5_0_split_0
I1215 02:00:29.255656 12783 net.cpp:408] LFCN_4_5x5_LFCN_4_5x5_0_split -> LFCN_4_5x5_LFCN_4_5x5_0_split_1
I1215 02:00:29.255661 12783 net.cpp:408] LFCN_4_5x5_LFCN_4_5x5_0_split -> LFCN_4_5x5_LFCN_4_5x5_0_split_2
I1215 02:00:29.255710 12783 net.cpp:150] Setting up LFCN_4_5x5_LFCN_4_5x5_0_split
I1215 02:00:29.255717 12783 net.cpp:157] Top shape: 3 9 12 12 (3888)
I1215 02:00:29.255722 12783 net.cpp:157] Top shape: 3 9 12 12 (3888)
I1215 02:00:29.255726 12783 net.cpp:157] Top shape: 3 9 12 12 (3888)
I1215 02:00:29.255729 12783 net.cpp:165] Memory required for data: 4532347156
I1215 02:00:29.255733 12783 layer_factory.hpp:77] Creating layer detection_loss_4_5x5
I1215 02:00:29.255738 12783 net.cpp:100] Creating Layer detection_loss_4_5x5
I1215 02:00:29.255743 12783 net.cpp:434] detection_loss_4_5x5 <- LFCN_4_5x5_LFCN_4_5x5_0_split_0
I1215 02:00:29.255746 12783 net.cpp:434] detection_loss_4_5x5 <- label_4_5x5_data_7_split_0
I1215 02:00:29.255753 12783 net.cpp:408] detection_loss_4_5x5 -> loss_4_5x5
I1215 02:00:29.255759 12783 layer_factory.hpp:77] Creating layer detection_loss_4_5x5
I1215 02:00:29.256064 12783 net.cpp:150] Setting up detection_loss_4_5x5
I1215 02:00:29.256073 12783 net.cpp:157] Top shape: 1 1 1 2 (2)
I1215 02:00:29.256078 12783 net.cpp:160]     with loss weight 1
I1215 02:00:29.256083 12783 net.cpp:165] Memory required for data: 4532347164
I1215 02:00:29.256085 12783 layer_factory.hpp:77] Creating layer detection_accuracy_4_5x5
I1215 02:00:29.256093 12783 net.cpp:100] Creating Layer detection_accuracy_4_5x5
I1215 02:00:29.256095 12783 net.cpp:434] detection_accuracy_4_5x5 <- LFCN_4_5x5_LFCN_4_5x5_0_split_1
I1215 02:00:29.256100 12783 net.cpp:434] detection_accuracy_4_5x5 <- label_4_5x5_data_7_split_1
I1215 02:00:29.256104 12783 net.cpp:408] detection_accuracy_4_5x5 -> accuracy_4_5x5
I1215 02:00:29.256112 12783 net.cpp:408] detection_accuracy_4_5x5 -> boxiou_4_5x5
I1215 02:00:29.256145 12783 net.cpp:150] Setting up detection_accuracy_4_5x5
I1215 02:00:29.256151 12783 net.cpp:157] Top shape: 1 1 1 2 (2)
I1215 02:00:29.256155 12783 net.cpp:157] Top shape: 1 1 1 1 (1)
I1215 02:00:29.256158 12783 net.cpp:165] Memory required for data: 4532347176
I1215 02:00:29.256161 12783 layer_factory.hpp:77] Creating layer proposals
I1215 02:00:29.256173 12783 net.cpp:100] Creating Layer proposals
I1215 02:00:29.256177 12783 net.cpp:434] proposals <- LFCN_1_5x5_LFCN_1_5x5_0_split_2
I1215 02:00:29.256182 12783 net.cpp:434] proposals <- LFCN_1_7x7_LFCN_1_7x7_0_split_2
I1215 02:00:29.256186 12783 net.cpp:434] proposals <- LFCN_2_5x5_LFCN_2_5x5_0_split_2
I1215 02:00:29.256189 12783 net.cpp:434] proposals <- LFCN_2_7x7_LFCN_2_7x7_0_split_2
I1215 02:00:29.256193 12783 net.cpp:434] proposals <- LFCN_3_5x5_LFCN_3_5x5_0_split_2
I1215 02:00:29.256197 12783 net.cpp:434] proposals <- LFCN_3_7x7_LFCN_3_7x7_0_split_2
I1215 02:00:29.256201 12783 net.cpp:434] proposals <- LFCN_4_5x5_LFCN_4_5x5_0_split_2
I1215 02:00:29.256206 12783 net.cpp:408] proposals -> proposals
I1215 02:00:29.256232 12783 net.cpp:150] Setting up proposals
I1215 02:00:29.256238 12783 net.cpp:157] Top shape: 1 5 1 1 (5)
I1215 02:00:29.256242 12783 net.cpp:165] Memory required for data: 4532347196
I1215 02:00:29.256244 12783 layer_factory.hpp:77] Creating layer proposal_info
I1215 02:00:29.256253 12783 net.cpp:100] Creating Layer proposal_info
I1215 02:00:29.256255 12783 net.cpp:434] proposal_info <- proposals
I1215 02:00:29.256260 12783 net.cpp:434] proposal_info <- gt_boxes
I1215 02:00:29.256264 12783 net.cpp:408] proposal_info -> rois
I1215 02:00:29.256274 12783 net.cpp:408] proposal_info -> proposal_labels
I1215 02:00:29.256284 12783 net.cpp:408] proposal_info -> proposal_targets
I1215 02:00:29.256290 12783 net.cpp:408] proposal_info -> box_inside_weights
I1215 02:00:29.256296 12783 net.cpp:408] proposal_info -> box_outside_weights
I1215 02:00:29.256302 12783 net.cpp:408] proposal_info -> match_gt_boxes
I1215 02:00:29.256383 12783 net.cpp:150] Setting up proposal_info
I1215 02:00:29.256391 12783 net.cpp:157] Top shape: 256 5 1 1 (1280)
I1215 02:00:29.256395 12783 net.cpp:157] Top shape: 256 1 1 1 (256)
I1215 02:00:29.256399 12783 net.cpp:157] Top shape: 256 20 1 1 (5120)
I1215 02:00:29.256403 12783 net.cpp:157] Top shape: 256 20 1 1 (5120)
I1215 02:00:29.256407 12783 net.cpp:157] Top shape: 256 20 1 1 (5120)
I1215 02:00:29.256412 12783 net.cpp:157] Top shape: 256 6 1 1 (1536)
I1215 02:00:29.256414 12783 net.cpp:165] Memory required for data: 4532420924
I1215 02:00:29.256417 12783 layer_factory.hpp:77] Creating layer rois_proposal_info_0_split
I1215 02:00:29.256422 12783 net.cpp:100] Creating Layer rois_proposal_info_0_split
I1215 02:00:29.256425 12783 net.cpp:434] rois_proposal_info_0_split <- rois
I1215 02:00:29.256430 12783 net.cpp:408] rois_proposal_info_0_split -> rois_proposal_info_0_split_0
I1215 02:00:29.256435 12783 net.cpp:408] rois_proposal_info_0_split -> rois_proposal_info_0_split_1
I1215 02:00:29.256441 12783 net.cpp:408] rois_proposal_info_0_split -> rois_proposal_info_0_split_2
I1215 02:00:29.256482 12783 net.cpp:150] Setting up rois_proposal_info_0_split
I1215 02:00:29.256489 12783 net.cpp:157] Top shape: 256 5 1 1 (1280)
I1215 02:00:29.256492 12783 net.cpp:157] Top shape: 256 5 1 1 (1280)
I1215 02:00:29.256496 12783 net.cpp:157] Top shape: 256 5 1 1 (1280)
I1215 02:00:29.256500 12783 net.cpp:165] Memory required for data: 4532436284
I1215 02:00:29.256502 12783 layer_factory.hpp:77] Creating layer proposal_labels_proposal_info_1_split
I1215 02:00:29.256506 12783 net.cpp:100] Creating Layer proposal_labels_proposal_info_1_split
I1215 02:00:29.256510 12783 net.cpp:434] proposal_labels_proposal_info_1_split <- proposal_labels
I1215 02:00:29.256515 12783 net.cpp:408] proposal_labels_proposal_info_1_split -> proposal_labels_proposal_info_1_split_0
I1215 02:00:29.256520 12783 net.cpp:408] proposal_labels_proposal_info_1_split -> proposal_labels_proposal_info_1_split_1
I1215 02:00:29.256551 12783 net.cpp:150] Setting up proposal_labels_proposal_info_1_split
I1215 02:00:29.256557 12783 net.cpp:157] Top shape: 256 1 1 1 (256)
I1215 02:00:29.256561 12783 net.cpp:157] Top shape: 256 1 1 1 (256)
I1215 02:00:29.256563 12783 net.cpp:165] Memory required for data: 4532438332
I1215 02:00:29.256567 12783 layer_factory.hpp:77] Creating layer conv4_3_2x
I1215 02:00:29.256574 12783 net.cpp:100] Creating Layer conv4_3_2x
I1215 02:00:29.256577 12783 net.cpp:434] conv4_3_2x <- conv4_3_relu4_3_0_split_2
I1215 02:00:29.256582 12783 net.cpp:408] conv4_3_2x -> conv4_3_2x
I1215 02:00:29.257056 12783 net.cpp:150] Setting up conv4_3_2x
I1215 02:00:29.257064 12783 net.cpp:157] Top shape: 3 512 192 192 (56623104)
I1215 02:00:29.257067 12783 net.cpp:165] Memory required for data: 4758930748
I1215 02:00:29.257071 12783 layer_factory.hpp:77] Creating layer conv4_3_2x_conv4_3_2x_0_split
I1215 02:00:29.257076 12783 net.cpp:100] Creating Layer conv4_3_2x_conv4_3_2x_0_split
I1215 02:00:29.257079 12783 net.cpp:434] conv4_3_2x_conv4_3_2x_0_split <- conv4_3_2x
I1215 02:00:29.257084 12783 net.cpp:408] conv4_3_2x_conv4_3_2x_0_split -> conv4_3_2x_conv4_3_2x_0_split_0
I1215 02:00:29.257092 12783 net.cpp:408] conv4_3_2x_conv4_3_2x_0_split -> conv4_3_2x_conv4_3_2x_0_split_1
I1215 02:00:29.257130 12783 net.cpp:150] Setting up conv4_3_2x_conv4_3_2x_0_split
I1215 02:00:29.257138 12783 net.cpp:157] Top shape: 3 512 192 192 (56623104)
I1215 02:00:29.257143 12783 net.cpp:157] Top shape: 3 512 192 192 (56623104)
I1215 02:00:29.257148 12783 net.cpp:165] Memory required for data: 5211915580
I1215 02:00:29.257151 12783 layer_factory.hpp:77] Creating layer roi_pool_org
I1215 02:00:29.257163 12783 net.cpp:100] Creating Layer roi_pool_org
I1215 02:00:29.257166 12783 net.cpp:434] roi_pool_org <- conv4_3_2x_conv4_3_2x_0_split_0
I1215 02:00:29.257172 12783 net.cpp:434] roi_pool_org <- rois_proposal_info_0_split_0
I1215 02:00:29.257177 12783 net.cpp:408] roi_pool_org -> roi_pool_org
I1215 02:00:29.257187 12783 roi_pooling_layer.cpp:33] Spatial scale: 0.25
I1215 02:00:29.257232 12783 net.cpp:150] Setting up roi_pool_org
I1215 02:00:29.257239 12783 net.cpp:157] Top shape: 256 512 7 7 (6422528)
I1215 02:00:29.257243 12783 net.cpp:165] Memory required for data: 5237605692
I1215 02:00:29.257247 12783 layer_factory.hpp:77] Creating layer roi_pool_ctx
I1215 02:00:29.257252 12783 net.cpp:100] Creating Layer roi_pool_ctx
I1215 02:00:29.257258 12783 net.cpp:434] roi_pool_ctx <- conv4_3_2x_conv4_3_2x_0_split_1
I1215 02:00:29.257266 12783 net.cpp:434] roi_pool_ctx <- rois_proposal_info_0_split_1
I1215 02:00:29.257275 12783 net.cpp:408] roi_pool_ctx -> roi_pool_ctx
I1215 02:00:29.257282 12783 roi_pooling_layer.cpp:33] Spatial scale: 0.25
I1215 02:00:29.257319 12783 net.cpp:150] Setting up roi_pool_ctx
I1215 02:00:29.257330 12783 net.cpp:157] Top shape: 256 512 7 7 (6422528)
I1215 02:00:29.257334 12783 net.cpp:165] Memory required for data: 5263295804
I1215 02:00:29.257339 12783 layer_factory.hpp:77] Creating layer roi_pool
I1215 02:00:29.257344 12783 net.cpp:100] Creating Layer roi_pool
I1215 02:00:29.257349 12783 net.cpp:434] roi_pool <- roi_pool_org
I1215 02:00:29.257354 12783 net.cpp:434] roi_pool <- roi_pool_ctx
I1215 02:00:29.257359 12783 net.cpp:408] roi_pool -> roi_pool
I1215 02:00:29.257383 12783 net.cpp:150] Setting up roi_pool
I1215 02:00:29.257390 12783 net.cpp:157] Top shape: 256 1024 7 7 (12845056)
I1215 02:00:29.257392 12783 net.cpp:165] Memory required for data: 5314676028
I1215 02:00:29.257395 12783 layer_factory.hpp:77] Creating layer roi_c1
I1215 02:00:29.257403 12783 net.cpp:100] Creating Layer roi_c1
I1215 02:00:29.257406 12783 net.cpp:434] roi_c1 <- roi_pool
I1215 02:00:29.257412 12783 net.cpp:408] roi_c1 -> roi_c1
I1215 02:00:29.372184 12783 net.cpp:150] Setting up roi_c1
I1215 02:00:29.372211 12783 net.cpp:157] Top shape: 256 512 5 5 (3276800)
I1215 02:00:29.372215 12783 net.cpp:165] Memory required for data: 5327783228
I1215 02:00:29.372223 12783 layer_factory.hpp:77] Creating layer roi_c1_relu
I1215 02:00:29.372234 12783 net.cpp:100] Creating Layer roi_c1_relu
I1215 02:00:29.372241 12783 net.cpp:434] roi_c1_relu <- roi_c1
I1215 02:00:29.372246 12783 net.cpp:395] roi_c1_relu -> roi_c1 (in-place)
I1215 02:00:29.372691 12783 net.cpp:150] Setting up roi_c1_relu
I1215 02:00:29.372704 12783 net.cpp:157] Top shape: 256 512 5 5 (3276800)
I1215 02:00:29.372707 12783 net.cpp:165] Memory required for data: 5340890428
I1215 02:00:29.372711 12783 layer_factory.hpp:77] Creating layer fc6
I1215 02:00:29.372720 12783 net.cpp:100] Creating Layer fc6
I1215 02:00:29.372725 12783 net.cpp:434] fc6 <- roi_c1
I1215 02:00:29.372730 12783 net.cpp:408] fc6 -> fc6
I1215 02:00:30.624027 12783 net.cpp:150] Setting up fc6
I1215 02:00:30.624061 12783 net.cpp:157] Top shape: 256 4096 (1048576)
I1215 02:00:30.624065 12783 net.cpp:165] Memory required for data: 5345084732
I1215 02:00:30.624074 12783 layer_factory.hpp:77] Creating layer relu6
I1215 02:00:30.624084 12783 net.cpp:100] Creating Layer relu6
I1215 02:00:30.624090 12783 net.cpp:434] relu6 <- fc6
I1215 02:00:30.624095 12783 net.cpp:395] relu6 -> fc6 (in-place)
I1215 02:00:30.624320 12783 net.cpp:150] Setting up relu6
I1215 02:00:30.624328 12783 net.cpp:157] Top shape: 256 4096 (1048576)
I1215 02:00:30.624331 12783 net.cpp:165] Memory required for data: 5349279036
I1215 02:00:30.624334 12783 layer_factory.hpp:77] Creating layer drop6
I1215 02:00:30.624815 12783 net.cpp:100] Creating Layer drop6
I1215 02:00:30.624822 12783 net.cpp:434] drop6 <- fc6
I1215 02:00:30.624827 12783 net.cpp:395] drop6 -> fc6 (in-place)
I1215 02:00:30.624857 12783 net.cpp:150] Setting up drop6
I1215 02:00:30.624863 12783 net.cpp:157] Top shape: 256 4096 (1048576)
I1215 02:00:30.624866 12783 net.cpp:165] Memory required for data: 5353473340
I1215 02:00:30.624869 12783 layer_factory.hpp:77] Creating layer fc6_drop6_0_split
I1215 02:00:30.624876 12783 net.cpp:100] Creating Layer fc6_drop6_0_split
I1215 02:00:30.624878 12783 net.cpp:434] fc6_drop6_0_split <- fc6
I1215 02:00:30.624882 12783 net.cpp:408] fc6_drop6_0_split -> fc6_drop6_0_split_0
I1215 02:00:30.624891 12783 net.cpp:408] fc6_drop6_0_split -> fc6_drop6_0_split_1
I1215 02:00:30.624924 12783 net.cpp:150] Setting up fc6_drop6_0_split
I1215 02:00:30.624930 12783 net.cpp:157] Top shape: 256 4096 (1048576)
I1215 02:00:30.624934 12783 net.cpp:157] Top shape: 256 4096 (1048576)
I1215 02:00:30.624938 12783 net.cpp:165] Memory required for data: 5361861948
I1215 02:00:30.624940 12783 layer_factory.hpp:77] Creating layer cls_pred
I1215 02:00:30.624948 12783 net.cpp:100] Creating Layer cls_pred
I1215 02:00:30.624951 12783 net.cpp:434] cls_pred <- fc6_drop6_0_split_0
I1215 02:00:30.624958 12783 net.cpp:408] cls_pred -> cls_pred
I1215 02:00:30.625571 12783 net.cpp:150] Setting up cls_pred
I1215 02:00:30.625593 12783 net.cpp:157] Top shape: 256 5 (1280)
I1215 02:00:30.625597 12783 net.cpp:165] Memory required for data: 5361867068
I1215 02:00:30.625602 12783 layer_factory.hpp:77] Creating layer cls_pred_cls_pred_0_split
I1215 02:00:30.625607 12783 net.cpp:100] Creating Layer cls_pred_cls_pred_0_split
I1215 02:00:30.625610 12783 net.cpp:434] cls_pred_cls_pred_0_split <- cls_pred
I1215 02:00:30.625614 12783 net.cpp:408] cls_pred_cls_pred_0_split -> cls_pred_cls_pred_0_split_0
I1215 02:00:30.625620 12783 net.cpp:408] cls_pred_cls_pred_0_split -> cls_pred_cls_pred_0_split_1
I1215 02:00:30.625658 12783 net.cpp:150] Setting up cls_pred_cls_pred_0_split
I1215 02:00:30.625665 12783 net.cpp:157] Top shape: 256 5 (1280)
I1215 02:00:30.625670 12783 net.cpp:157] Top shape: 256 5 (1280)
I1215 02:00:30.625674 12783 net.cpp:165] Memory required for data: 5361877308
I1215 02:00:30.625679 12783 layer_factory.hpp:77] Creating layer bbox_pred
I1215 02:00:30.625684 12783 net.cpp:100] Creating Layer bbox_pred
I1215 02:00:30.625689 12783 net.cpp:434] bbox_pred <- fc6_drop6_0_split_1
I1215 02:00:30.625696 12783 net.cpp:408] bbox_pred -> bbox_pred
I1215 02:00:30.627885 12783 net.cpp:150] Setting up bbox_pred
I1215 02:00:30.627893 12783 net.cpp:157] Top shape: 256 20 (5120)
I1215 02:00:30.627897 12783 net.cpp:165] Memory required for data: 5361897788
I1215 02:00:30.627902 12783 layer_factory.hpp:77] Creating layer bbox_pred_bbox_pred_0_split
I1215 02:00:30.627908 12783 net.cpp:100] Creating Layer bbox_pred_bbox_pred_0_split
I1215 02:00:30.627912 12783 net.cpp:434] bbox_pred_bbox_pred_0_split <- bbox_pred
I1215 02:00:30.627916 12783 net.cpp:408] bbox_pred_bbox_pred_0_split -> bbox_pred_bbox_pred_0_split_0
I1215 02:00:30.627923 12783 net.cpp:408] bbox_pred_bbox_pred_0_split -> bbox_pred_bbox_pred_0_split_1
I1215 02:00:30.627954 12783 net.cpp:150] Setting up bbox_pred_bbox_pred_0_split
I1215 02:00:30.627959 12783 net.cpp:157] Top shape: 256 20 (5120)
I1215 02:00:30.627964 12783 net.cpp:157] Top shape: 256 20 (5120)
I1215 02:00:30.627966 12783 net.cpp:165] Memory required for data: 5361938748
I1215 02:00:30.627969 12783 layer_factory.hpp:77] Creating layer loss_cls
I1215 02:00:30.627975 12783 net.cpp:100] Creating Layer loss_cls
I1215 02:00:30.627979 12783 net.cpp:434] loss_cls <- cls_pred_cls_pred_0_split_0
I1215 02:00:30.627984 12783 net.cpp:434] loss_cls <- proposal_labels_proposal_info_1_split_0
…
I1215 02:00:30.640666 12783 image_gt_data_layer.cpp:235] output label size 2 : 2,6,48,48
I1215 02:00:30.640712 12783 image_gt_data_layer.cpp:235] output label size 3 : 2,6,48,48
I1215 02:00:30.640760 12783 image_gt_data_layer.cpp:235] output label size 4 : 2,6,24,24
I1215 02:00:30.640808 12783 image_gt_data_layer.cpp:235] output label size 5 : 2,6,24,24
I1215 02:00:30.640857 12783 image_gt_data_layer.cpp:235] output label size 6 : 2,6,12,12
I1215 02:00:30.640904 12783 image_gt_data_layer.cpp:250] output gt boxes size: 1,7,1,1
I1215 02:00:30.667948 12783 net.cpp:150] Setting up data
I1215 02:00:30.667974 12783 net.cpp:157] Top shape: 2 3 768 768 (3538944)
I1215 02:00:30.667979 12783 net.cpp:157] Top shape: 2 6 96 96 (110592)
I1215 02:00:30.667984 12783 net.cpp:157] Top shape: 2 6 96 96 (110592)
I1215 02:00:30.667987 12783 net.cpp:157] Top shape: 2 6 48 48 (27648)
I1215 02:00:30.667991 12783 net.cpp:157] Top shape: 2 6 48 48 (27648)
I1215 02:00:30.667994 12783 net.cpp:157] Top shape: 2 6 24 24 (6912)
I1215 02:00:30.667997 12783 net.cpp:157] Top shape: 2 6 24 24 (6912)
I1215 02:00:30.668001 12783 net.cpp:157] Top shape: 2 6 12 12 (1728)
I1215 02:00:30.668005 12783 net.cpp:157] Top shape: 1 7 1 1 (7)
I1215 02:00:30.668007 12783 net.cpp:165] Memory required for data: 15323932
I1215 02:00:30.668013 12783 layer_factory.hpp:77] Creating layer label_1_5x5_data_1_split
I1215 02:00:30.668027 12783 net.cpp:100] Creating Layer label_1_5x5_data_1_split
I1215 02:00:30.668031 12783 net.cpp:434] label_1_5x5_data_1_split <- label_1_5x5
I1215 02:00:30.668038 12783 net.cpp:408] label_1_5x5_data_1_split -> label_1_5x5_data_1_split_0
I1215 02:00:30.668048 12783 net.cpp:408] label_1_5x5_data_1_split -> label_1_5x5_data_1_split_1
I1215 02:00:30.668385 12783 net.cpp:150] Setting up label_1_5x5_data_1_split
I1215 02:00:30.668427 12783 net.cpp:157] Top shape: 2 6 96 96 (110592)
I1215 02:00:30.668439 12783 net.cpp:157] Top shape: 2 6 96 96 (110592)
I1215 02:00:30.668448 12783 net.cpp:165] Memory required for data: 16208668
I1215 02:00:30.668459 12783 layer_factory.hpp:77] Creating layer label_1_7x7_data_2_split
I1215 02:00:30.668484 12783 net.cpp:100] Creating Layer label_1_7x7_data_2_split
I1215 02:00:30.668496 12783 net.cpp:434] label_1_7x7_data_2_split <- label_1_7x7
I1215 02:00:30.668510 12783 net.cpp:408] label_1_7x7_data_2_split -> label_1_7x7_data_2_split_0
I1215 02:00:30.668530 12783 net.cpp:408] label_1_7x7_data_2_split -> label_1_7x7_data_2_split_1
I1215 02:00:30.668615 12783 net.cpp:150] Setting up label_1_7x7_data_2_split
I1215 02:00:30.668628 12783 net.cpp:157] Top shape: 2 6 96 96 (110592)
I1215 02:00:30.668638 12783 net.cpp:157] Top shape: 2 6 96 96 (110592)
I1215 02:00:30.668646 12783 net.cpp:165] Memory required for data: 17093404
I1215 02:00:30.668654 12783 layer_factory.hpp:77] Creating layer label_2_5x5_data_3_split
I1215 02:00:30.668666 12783 net.cpp:100] Creating Layer label_2_5x5_data_3_split
I1215 02:00:30.668676 12783 net.cpp:434] label_2_5x5_data_3_split <- label_2_5x5
I1215 02:00:30.668686 12783 net.cpp:408] label_2_5x5_data_3_split -> label_2_5x5_data_3_split_0
I1215 02:00:30.668699 12783 net.cpp:408] label_2_5x5_data_3_split -> label_2_5x5_data_3_split_1
I1215 02:00:30.668773 12783 net.cpp:150] Setting up label_2_5x5_data_3_split
I1215 02:00:30.668787 12783 net.cpp:157] Top shape: 2 6 48 48 (27648)
I1215 02:00:30.668795 12783 net.cpp:157] Top shape: 2 6 48 48 (27648)
I1215 02:00:30.668803 12783 net.cpp:165] Memory required for data: 17314588
I1215 02:00:30.668812 12783 layer_factory.hpp:77] Creating layer label_2_7x7_data_4_split
I1215 02:00:30.668823 12783 net.cpp:100] Creating Layer label_2_7x7_data_4_split
I1215 02:00:30.668831 12783 net.cpp:434] label_2_7x7_data_4_split <- label_2_7x7
I1215 02:00:30.668844 12783 net.cpp:408] label_2_7x7_data_4_split -> label_2_7x7_data_4_split_0
I1215 02:00:30.668857 12783 net.cpp:408] label_2_7x7_data_4_split -> label_2_7x7_data_4_split_1
I1215 02:00:30.668936 12783 net.cpp:150] Setting up label_2_7x7_data_4_split
I1215 02:00:30.668948 12783 net.cpp:157] Top shape: 2 6 48 48 (27648)
I1215 02:00:30.668959 12783 net.cpp:157] Top shape: 2 6 48 48 (27648)
I1215 02:00:30.668967 12783 net.cpp:165] Memory required for data: 17535772
I1215 02:00:30.668974 12783 layer_factory.hpp:77] Creating layer label_3_5x5_data_5_split
I1215 02:00:30.668985 12783 net.cpp:100] Creating Layer label_3_5x5_data_5_split
I1215 02:00:30.668994 12783 net.cpp:434] label_3_5x5_data_5_split <- label_3_5x5
I1215 02:00:30.669006 12783 net.cpp:408] label_3_5x5_data_5_split -> label_3_5x5_data_5_split_0
I1215 02:00:30.669019 12783 net.cpp:408] label_3_5x5_data_5_split -> label_3_5x5_data_5_split_1
I1215 02:00:30.669092 12783 net.cpp:150] Setting up label_3_5x5_data_5_split
I1215 02:00:30.669104 12783 net.cpp:157] Top shape: 2 6 24 24 (6912)
I1215 02:00:30.669114 12783 net.cpp:157] Top shape: 2 6 24 24 (6912)
I1215 02:00:30.669121 12783 net.cpp:165] Memory required for data: 17591068
I1215 02:00:30.669129 12783 layer_factory.hpp:77] Creating layer label_3_7x7_data_6_split
I1215 02:00:30.669138 12783 net.cpp:100] Creating Layer label_3_7x7_data_6_split
I1215 02:00:30.669147 12783 net.cpp:434] label_3_7x7_data_6_split <- label_3_7x7
I1215 02:00:30.669157 12783 net.cpp:408] label_3_7x7_data_6_split -> label_3_7x7_data_6_split_0
I1215 02:00:30.669172 12783 net.cpp:408] label_3_7x7_data_6_split -> label_3_7x7_data_6_split_1
I1215 02:00:30.669239 12783 net.cpp:150] Setting up label_3_7x7_data_6_split
I1215 02:00:30.669250 12783 net.cpp:157] Top shape: 2 6 24 24 (6912)
I1215 02:00:30.669260 12783 net.cpp:157] Top shape: 2 6 24 24 (6912)
I1215 02:00:30.669266 12783 net.cpp:165] Memory required for data: 17646364
I1215 02:00:30.669273 12783 layer_factory.hpp:77] Creating layer label_4_5x5_data_7_split
I1215 02:00:30.669286 12783 net.cpp:100] Creating Layer label_4_5x5_data_7_split
I1215 02:00:30.669293 12783 net.cpp:434] label_4_5x5_data_7_split <- label_4_5x5
I1215 02:00:30.669302 12783 net.cpp:408] label_4_5x5_data_7_split -> label_4_5x5_data_7_split_0
I1215 02:00:30.669313 12783 net.cpp:408] label_4_5x5_data_7_split -> label_4_5x5_data_7_split_1
I1215 02:00:30.669385 12783 net.cpp:150] Setting up label_4_5x5_data_7_split
I1215 02:00:30.669395 12783 net.cpp:157] Top shape: 2 6 12 12 (1728)
I1215 02:00:30.669404 12783 net.cpp:157] Top shape: 2 6 12 12 (1728)
I1215 02:00:30.669411 12783 net.cpp:165] Memory required for data: 17660188
I1215 02:00:30.669418 12783 layer_factory.hpp:77] Creating layer conv1_1
I1215 02:00:30.669435 12783 net.cpp:100] Creating Layer conv1_1
I1215 02:00:30.669443 12783 net.cpp:434] conv1_1 <- data
I1215 02:00:30.669456 12783 net.cpp:408] conv1_1 -> conv1_1
I1215 02:00:30.677958 12783 net.cpp:150] Setting up conv1_1
I1215 02:00:30.677995 12783 net.cpp:157] Top shape: 2 64 768 768 (75497472)
I1215 02:00:30.678004 12783 net.cpp:165] Memory required for data: 319650076
I1215 02:00:30.678030 12783 layer_factory.hpp:77] Creating layer relu1_1
I1215 02:00:30.678052 12783 net.cpp:100] Creating Layer relu1_1
I1215 02:00:30.678062 12783 net.cpp:434] relu1_1 <- conv1_1
I1215 02:00:30.678073 12783 net.cpp:395] relu1_1 -> conv1_1 (in-place)
I1215 02:00:30.678493 12783 net.cpp:150] Setting up relu1_1
I1215 02:00:30.678516 12783 net.cpp:157] Top shape: 2 64 768 768 (75497472)
I1215 02:00:30.678524 12783 net.cpp:165] Memory required for data: 621639964
I1215 02:00:30.678531 12783 layer_factory.hpp:77] Creating layer conv1_2
I1215 02:00:30.678548 12783 net.cpp:100] Creating Layer conv1_2
I1215 02:00:30.678555 12783 net.cpp:434] conv1_2 <- conv1_1
I1215 02:00:30.678570 12783 net.cpp:408] conv1_2 -> conv1_2
I1215 02:00:30.684115 12783 net.cpp:150] Setting up conv1_2
I1215 02:00:30.684150 12783 net.cpp:157] Top shape: 2 64 768 768 (75497472)
I1215 02:00:30.684159 12783 net.cpp:165] Memory required for data: 923629852
I1215 02:00:30.684185 12783 layer_factory.hpp:77] Creating layer relu1_2
I1215 02:00:30.684201 12783 net.cpp:100] Creating Layer relu1_2
I1215 02:00:30.684211 12783 net.cpp:434] relu1_2 <- conv1_2
I1215 02:00:30.684221 12783 net.cpp:395] relu1_2 -> conv1_2 (in-place)
I1215 02:00:30.684629 12783 net.cpp:150] Setting up relu1_2
I1215 02:00:30.684644 12783 net.cpp:157] Top shape: 2 64 768 768 (75497472)
I1215 02:00:30.684651 12783 net.cpp:165] Memory required for data: 1225619740
I1215 02:00:30.684657 12783 layer_factory.hpp:77] Creating layer pool1
I1215 02:00:30.684674 12783 net.cpp:100] Creating Layer pool1
I1215 02:00:30.684680 12783 net.cpp:434] pool1 <- conv1_2
I1215 02:00:30.684689 12783 net.cpp:408] pool1 -> pool1
I1215 02:00:30.684794 12783 net.cpp:150] Setting up pool1
I1215 02:00:30.684804 12783 net.cpp:157] Top shape: 2 64 384 384 (18874368)
I1215 02:00:30.684810 12783 net.cpp:165] Memory required for data: 1301117212
I1215 02:00:30.684818 12783 layer_factory.hpp:77] Creating layer conv2_1
I1215 02:00:30.684834 12783 net.cpp:100] Creating Layer conv2_1
I1215 02:00:30.684840 12783 net.cpp:434] conv2_1 <- pool1
I1215 02:00:30.684850 12783 net.cpp:408] conv2_1 -> conv2_1
I1215 02:00:30.688621 12783 net.cpp:150] Setting up conv2_1
I1215 02:00:30.688649 12783 net.cpp:157] Top shape: 2 128 384 384 (37748736)
I1215 02:00:30.688657 12783 net.cpp:165] Memory required for data: 1452112156
I1215 02:00:30.688678 12783 layer_factory.hpp:77] Creating layer relu2_1
I1215 02:00:30.688693 12783 net.cpp:100] Creating Layer relu2_1
I1215 02:00:30.688704 12783 net.cpp:434] relu2_1 <- conv2_1
I1215 02:00:30.688717 12783 net.cpp:395] relu2_1 -> conv2_1 (in-place)
I1215 02:00:30.689713 12783 net.cpp:150] Setting up relu2_1
I1215 02:00:30.689738 12783 net.cpp:157] Top shape: 2 128 384 384 (37748736)
I1215 02:00:30.689745 12783 net.cpp:165] Memory required for data: 1603107100
I1215 02:00:30.689754 12783 layer_factory.hpp:77] Creating layer conv2_2
I1215 02:00:30.689774 12783 net.cpp:100] Creating Layer conv2_2
I1215 02:00:30.689783 12783 net.cpp:434] conv2_2 <- conv2_1
I1215 02:00:30.689797 12783 net.cpp:408] conv2_2 -> conv2_2
I1215 02:00:30.693291 12783 net.cpp:150] Setting up conv2_2
I1215 02:00:30.693317 12783 net.cpp:157] Top shape: 2 128 384 384 (37748736)
I1215 02:00:30.693323 12783 net.cpp:165] Memory required for data: 1754102044
I1215 02:00:30.693336 12783 layer_factory.hpp:77] Creating layer relu2_2
I1215 02:00:30.693354 12783 net.cpp:100] Creating Layer relu2_2
I1215 02:00:30.693361 12783 net.cpp:434] relu2_2 <- conv2_2
I1215 02:00:30.693369 12783 net.cpp:395] relu2_2 -> conv2_2 (in-place)
I1215 02:00:30.693630 12783 net.cpp:150] Setting up relu2_2
I1215 02:00:30.693645 12783 net.cpp:157] Top shape: 2 128 384 384 (37748736)
I1215 02:00:30.693648 12783 net.cpp:165] Memory required for data: 1905096988
I1215 02:00:30.693652 12783 layer_factory.hpp:77] Creating layer pool2
I1215 02:00:30.693662 12783 net.cpp:100] Creating Layer pool2
I1215 02:00:30.693666 12783 net.cpp:434] pool2 <- conv2_2
I1215 02:00:30.693675 12783 net.cpp:408] pool2 -> pool2
I1215 02:00:30.693740 12783 net.cpp:150] Setting up pool2
I1215 02:00:30.693749 12783 net.cpp:157] Top shape: 2 128 192 192 (9437184)
I1215 02:00:30.693753 12783 net.cpp:165] Memory required for data: 1942845724
I1215 02:00:30.693758 12783 layer_factory.hpp:77] Creating layer conv3_1
I1215 02:00:30.693769 12783 net.cpp:100] Creating Layer conv3_1
I1215 02:00:30.693773 12783 net.cpp:434] conv3_1 <- pool2
I1215 02:00:30.693783 12783 net.cpp:408] conv3_1 -> conv3_1
I1215 02:00:30.695828 12783 net.cpp:150] Setting up conv3_1
I1215 02:00:30.695849 12783 net.cpp:157] Top shape: 2 256 192 192 (18874368)
I1215 02:00:30.695855 12783 net.cpp:165] Memory required for data: 2018343196
I1215 02:00:30.695873 12783 layer_factory.hpp:77] Creating layer relu3_1
I1215 02:00:30.695883 12783 net.cpp:100] Creating Layer relu3_1
I1215 02:00:30.695888 12783 net.cpp:434] relu3_1 <- conv3_1
I1215 02:00:30.695895 12783 net.cpp:395] relu3_1 -> conv3_1 (in-place)
I1215 02:00:30.696130 12783 net.cpp:150] Setting up relu3_1
I1215 02:00:30.696141 12783 net.cpp:157] Top shape: 2 256 192 192 (18874368)
I1215 02:00:30.696144 12783 net.cpp:165] Memory required for data: 2093840668
I1215 02:00:30.696149 12783 layer_factory.hpp:77] Creating layer conv3_2
I1215 02:00:30.696161 12783 net.cpp:100] Creating Layer conv3_2
I1215 02:00:30.696168 12783 net.cpp:434] conv3_2 <- conv3_1
I1215 02:00:30.696177 12783 net.cpp:408] conv3_2 -> conv3_2
I1215 02:00:30.699259 12783 net.cpp:150] Setting up conv3_2
I1215 02:00:30.699281 12783 net.cpp:157] Top shape: 2 256 192 192 (18874368)
I1215 02:00:30.699287 12783 net.cpp:165] Memory required for data: 2169338140
I1215 02:00:30.699298 12783 layer_factory.hpp:77] Creating layer relu3_2
I1215 02:00:30.699309 12783 net.cpp:100] Creating Layer relu3_2
I1215 02:00:30.699316 12783 net.cpp:434] relu3_2 <- conv3_2
I1215 02:00:30.699327 12783 net.cpp:395] relu3_2 -> conv3_2 (in-place)
I1215 02:00:30.699554 12783 net.cpp:150] Setting up relu3_2
I1215 02:00:30.699569 12783 net.cpp:157] Top shape: 2 256 192 192 (18874368)
I1215 02:00:30.699574 12783 net.cpp:165] Memory required for data: 2244835612
I1215 02:00:30.699580 12783 layer_factory.hpp:77] Creating layer conv3_3
I1215 02:00:30.699595 12783 net.cpp:100] Creating Layer conv3_3
I1215 02:00:30.699601 12783 net.cpp:434] conv3_3 <- conv3_2
I1215 02:00:30.699610 12783 net.cpp:408] conv3_3 -> conv3_3
I1215 02:00:30.706468 12783 net.cpp:150] Setting up conv3_3
I1215 02:00:30.706511 12783 net.cpp:157] Top shape: 2 256 192 192 (18874368)
I1215 02:00:30.706521 12783 net.cpp:165] Memory required for data: 2320333084
I1215 02:00:30.706550 12783 layer_factory.hpp:77] Creating layer relu3_3
I1215 02:00:30.706573 12783 net.cpp:100] Creating Layer relu3_3
I1215 02:00:30.706584 12783 net.cpp:434] relu3_3 <- conv3_3
I1215 02:00:30.706599 12783 net.cpp:395] relu3_3 -> conv3_3 (in-place)
I1215 02:00:30.707013 12783 net.cpp:150] Setting up relu3_3
I1215 02:00:30.707033 12783 net.cpp:157] Top shape: 2 256 192 192 (18874368)
I1215 02:00:30.707043 12783 net.cpp:165] Memory required for data: 2395830556
I1215 02:00:30.707053 12783 layer_factory.hpp:77] Creating layer pool3
I1215 02:00:30.707068 12783 net.cpp:100] Creating Layer pool3
I1215 02:00:30.707077 12783 net.cpp:434] pool3 <- conv3_3
I1215 02:00:30.707092 12783 net.cpp:408] pool3 -> pool3
I1215 02:00:30.707203 12783 net.cpp:150] Setting up pool3
I1215 02:00:30.707218 12783 net.cpp:157] Top shape: 2 256 96 96 (4718592)
I1215 02:00:30.707227 12783 net.cpp:165] Memory required for data: 2414704924
I1215 02:00:30.707235 12783 layer_factory.hpp:77] Creating layer conv4_1
I1215 02:00:30.707258 12783 net.cpp:100] Creating Layer conv4_1
I1215 02:00:30.707267 12783 net.cpp:434] conv4_1 <- pool3
I1215 02:00:30.707279 12783 net.cpp:408] conv4_1 -> conv4_1
I1215 02:00:30.716293 12783 net.cpp:150] Setting up conv4_1
I1215 02:00:30.716337 12783 net.cpp:157] Top shape: 2 512 96 96 (9437184)
I1215 02:00:30.716347 12783 net.cpp:165] Memory required for data: 2452453660
I1215 02:00:30.716367 12783 layer_factory.hpp:77] Creating layer relu4_1
I1215 02:00:30.716388 12783 net.cpp:100] Creating Layer relu4_1
I1215 02:00:30.716410 12783 net.cpp:434] relu4_1 <- conv4_1
I1215 02:00:30.716439 12783 net.cpp:395] relu4_1 -> conv4_1 (in-place)
I1215 02:00:30.716997 12783 net.cpp:150] Setting up relu4_1
I1215 02:00:30.717025 12783 net.cpp:157] Top shape: 2 512 96 96 (9437184)
I1215 02:00:30.717037 12783 net.cpp:165] Memory required for data: 2490202396
I1215 02:00:30.717049 12783 layer_factory.hpp:77] Creating layer conv4_2
I1215 02:00:30.717072 12783 net.cpp:100] Creating Layer conv4_2
I1215 02:00:30.717087 12783 net.cpp:434] conv4_2 <- conv4_1
I1215 02:00:30.717103 12783 net.cpp:408] conv4_2 -> conv4_2
I1215 02:00:30.724725 12783 net.cpp:150] Setting up conv4_2
I1215 02:00:30.724755 12783 net.cpp:157] Top shape: 2 512 96 96 (9437184)
I1215 02:00:30.724759 12783 net.cpp:165] Memory required for data: 2527951132
I1215 02:00:30.724776 12783 layer_factory.hpp:77] Creating layer relu4_2
I1215 02:00:30.724787 12783 net.cpp:100] Creating Layer relu4_2
I1215 02:00:30.724793 12783 net.cpp:434] relu4_2 <- conv4_2
I1215 02:00:30.724800 12783 net.cpp:395] relu4_2 -> conv4_2 (in-place)
I1215 02:00:30.725296 12783 net.cpp:150] Setting up relu4_2
I1215 02:00:30.725307 12783 net.cpp:157] Top shape: 2 512 96 96 (9437184)
I1215 02:00:30.725311 12783 net.cpp:165] Memory required for data: 2565699868
I1215 02:00:30.725316 12783 layer_factory.hpp:77] Creating layer conv4_3
I1215 02:00:30.725325 12783 net.cpp:100] Creating Layer conv4_3
I1215 02:00:30.725329 12783 net.cpp:434] conv4_3 <- conv4_2
I1215 02:00:30.725335 12783 net.cpp:408] conv4_3 -> conv4_3
I1215 02:00:30.731956 12783 net.cpp:150] Setting up conv4_3
I1215 02:00:30.731981 12783 net.cpp:157] Top shape: 2 512 96 96 (9437184)
I1215 02:00:30.731986 12783 net.cpp:165] Memory required for data: 2603448604
I1215 02:00:30.731994 12783 layer_factory.hpp:77] Creating layer relu4_3
I1215 02:00:30.732007 12783 net.cpp:100] Creating Layer relu4_3
I1215 02:00:30.732012 12783 net.cpp:434] relu4_3 <- conv4_3
I1215 02:00:30.732019 12783 net.cpp:395] relu4_3 -> conv4_3 (in-place)
I1215 02:00:30.732182 12783 net.cpp:150] Setting up relu4_3
I1215 02:00:30.732190 12783 net.cpp:157] Top shape: 2 512 96 96 (9437184)
I1215 02:00:30.732194 12783 net.cpp:165] Memory required for data: 2641197340
I1215 02:00:30.732197 12783 layer_factory.hpp:77] Creating layer conv4_3_relu4_3_0_split
I1215 02:00:30.732203 12783 net.cpp:100] Creating Layer conv4_3_relu4_3_0_split
I1215 02:00:30.732208 12783 net.cpp:434] conv4_3_relu4_3_0_split <- conv4_3
I1215 02:00:30.732213 12783 net.cpp:408] conv4_3_relu4_3_0_split -> conv4_3_relu4_3_0_split_0
I1215 02:00:30.732220 12783 net.cpp:408] conv4_3_relu4_3_0_split -> conv4_3_relu4_3_0_split_1
I1215 02:00:30.732226 12783 net.cpp:408] conv4_3_relu4_3_0_split -> conv4_3_relu4_3_0_split_2
I1215 02:00:30.732277 12783 net.cpp:150] Setting up conv4_3_relu4_3_0_split
I1215 02:00:30.732285 12783 net.cpp:157] Top shape: 2 512 96 96 (9437184)
I1215 02:00:30.732290 12783 net.cpp:157] Top shape: 2 512 96 96 (9437184)
I1215 02:00:30.732293 12783 net.cpp:157] Top shape: 2 512 96 96 (9437184)
I1215 02:00:30.732296 12783 net.cpp:165] Memory required for data: 2754443548
I1215 02:00:30.732300 12783 layer_factory.hpp:77] Creating layer loss1_conv1
I1215 02:00:30.732314 12783 net.cpp:100] Creating Layer loss1_conv1
I1215 02:00:30.732319 12783 net.cpp:434] loss1_conv1 <- conv4_3_relu4_3_0_split_0
I1215 02:00:30.732326 12783 net.cpp:408] loss1_conv1 -> loss1_conv1
I1215 02:00:30.794381 12783 net.cpp:150] Setting up loss1_conv1
I1215 02:00:30.794409 12783 net.cpp:157] Top shape: 2 512 96 96 (9437184)
I1215 02:00:30.794412 12783 net.cpp:165] Memory required for data: 2792192284
I1215 02:00:30.794421 12783 layer_factory.hpp:77] Creating layer loss_relu1
I1215 02:00:30.794435 12783 net.cpp:100] Creating Layer loss_relu1
I1215 02:00:30.794440 12783 net.cpp:434] loss_relu1 <- loss1_conv1
I1215 02:00:30.794446 12783 net.cpp:395] loss_relu1 -> loss1_conv1 (in-place)
I1215 02:00:30.794615 12783 net.cpp:150] Setting up loss_relu1
I1215 02:00:30.794623 12783 net.cpp:157] Top shape: 2 512 96 96 (9437184)
I1215 02:00:30.794627 12783 net.cpp:165] Memory required for data: 2829941020
I1215 02:00:30.794631 12783 layer_factory.hpp:77] Creating layer loss1_conv1_loss_relu1_0_split
I1215 02:00:30.794636 12783 net.cpp:100] Creating Layer loss1_conv1_loss_relu1_0_split
I1215 02:00:30.794639 12783 net.cpp:434] loss1_conv1_loss_relu1_0_split <- loss1_conv1
I1215 02:00:30.794646 12783 net.cpp:408] loss1_conv1_loss_relu1_0_split -> loss1_conv1_loss_relu1_0_split_0
I1215 02:00:30.794652 12783 net.cpp:408] loss1_conv1_loss_relu1_0_split -> loss1_conv1_loss_relu1_0_split_1
I1215 02:00:30.794690 12783 net.cpp:150] Setting up loss1_conv1_loss_relu1_0_split
I1215 02:00:30.794697 12783 net.cpp:157] Top shape: 2 512 96 96 (9437184)
I1215 02:00:30.794700 12783 net.cpp:157] Top shape: 2 512 96 96 (9437184)
I1215 02:00:30.794703 12783 net.cpp:165] Memory required for data: 2905438492
I1215 02:00:30.794706 12783 layer_factory.hpp:77] Creating layer LFCN_1_5x5
I1215 02:00:30.794718 12783 net.cpp:100] Creating Layer LFCN_1_5x5
I1215 02:00:30.794720 12783 net.cpp:434] LFCN_1_5x5 <- loss1_conv1_loss_relu1_0_split_0
I1215 02:00:30.794728 12783 net.cpp:408] LFCN_1_5x5 -> LFCN_1_5x5
I1215 02:00:30.799504 12783 net.cpp:150] Setting up LFCN_1_5x5
I1215 02:00:30.799518 12783 net.cpp:157] Top shape: 2 9 96 96 (165888)
I1215 02:00:30.799522 12783 net.cpp:165] Memory required for data: 2906102044
I1215 02:00:30.799530 12783 layer_factory.hpp:77] Creating layer LFCN_1_5x5_LFCN_1_5x5_0_split
I1215 02:00:30.799535 12783 net.cpp:100] Creating Layer LFCN_1_5x5_LFCN_1_5x5_0_split
I1215 02:00:30.799540 12783 net.cpp:434] LFCN_1_5x5_LFCN_1_5x5_0_split <- LFCN_1_5x5
I1215 02:00:30.799548 12783 net.cpp:408] LFCN_1_5x5_LFCN_1_5x5_0_split -> LFCN_1_5x5_LFCN_1_5x5_0_split_0
I1215 02:00:30.799556 12783 net.cpp:408] LFCN_1_5x5_LFCN_1_5x5_0_split -> LFCN_1_5x5_LFCN_1_5x5_0_split_1
I1215 02:00:30.799561 12783 net.cpp:408] LFCN_1_5x5_LFCN_1_5x5_0_split -> LFCN_1_5x5_LFCN_1_5x5_0_split_2
I1215 02:00:30.799612 12783 net.cpp:150] Setting up LFCN_1_5x5_LFCN_1_5x5_0_split
I1215 02:00:30.799619 12783 net.cpp:157] Top shape: 2 9 96 96 (165888)
I1215 02:00:30.799624 12783 net.cpp:157] Top shape: 2 9 96 96 (165888)
I1215 02:00:30.799628 12783 net.cpp:157] Top shape: 2 9 96 96 (165888)
I1215 02:00:30.799631 12783 net.cpp:165] Memory required for data: 2908092700
I1215 02:00:30.799635 12783 layer_factory.hpp:77] Creating layer detection_loss_1_5x5
I1215 02:00:30.799645 12783 net.cpp:100] Creating Layer detection_loss_1_5x5
I1215 02:00:30.799649 12783 net.cpp:434] detection_loss_1_5x5 <- LFCN_1_5x5_LFCN_1_5x5_0_split_0
I1215 02:00:30.799654 12783 net.cpp:434] detection_loss_1_5x5 <- label_1_5x5_data_1_split_0
I1215 02:00:30.799659 12783 net.cpp:408] detection_loss_1_5x5 -> loss_1_5x5
I1215 02:00:30.799667 12783 layer_factory.hpp:77] Creating layer detection_loss_1_5x5
I1215 02:00:30.800057 12783 net.cpp:150] Setting up detection_loss_1_5x5
I1215 02:00:30.800066 12783 net.cpp:157] Top shape: 1 1 1 2 (2)
I1215 02:00:30.800070 12783 net.cpp:160]     with loss weight 0.9
I1215 02:00:30.800081 12783 net.cpp:165] Memory required for data: 2908092708
I1215 02:00:30.800084 12783 layer_factory.hpp:77] Creating layer detection_accuracy_1_5x5
I1215 02:00:30.800091 12783 net.cpp:100] Creating Layer detection_accuracy_1_5x5
I1215 02:00:30.800096 12783 net.cpp:434] detection_accuracy_1_5x5 <- LFCN_1_5x5_LFCN_1_5x5_0_split_1
I1215 02:00:30.800099 12783 net.cpp:434] detection_accuracy_1_5x5 <- label_1_5x5_data_1_split_1
I1215 02:00:30.800104 12783 net.cpp:408] detection_accuracy_1_5x5 -> accuracy_1_5x5
I1215 02:00:30.800110 12783 net.cpp:408] detection_accuracy_1_5x5 -> boxiou_1_5x5
I1215 02:00:30.800148 12783 net.cpp:150] Setting up detection_accuracy_1_5x5
I1215 02:00:30.800154 12783 net.cpp:157] Top shape: 1 1 1 2 (2)
I1215 02:00:30.800158 12783 net.cpp:157] Top shape: 1 1 1 1 (1)
I1215 02:00:30.800161 12783 net.cpp:165] Memory required for data: 2908092720
I1215 02:00:30.800164 12783 layer_factory.hpp:77] Creating layer LFCN_1_7x7
I1215 02:00:30.800173 12783 net.cpp:100] Creating Layer LFCN_1_7x7
I1215 02:00:30.800176 12783 net.cpp:434] LFCN_1_7x7 <- loss1_conv1_loss_relu1_0_split_1
I1215 02:00:30.800184 12783 net.cpp:408] LFCN_1_7x7 -> LFCN_1_7x7
I1215 02:00:30.806620 12783 net.cpp:150] Setting up LFCN_1_7x7
I1215 02:00:30.806635 12783 net.cpp:157] Top shape: 2 9 96 96 (165888)
I1215 02:00:30.806639 12783 net.cpp:165] Memory required for data: 2908756272
I1215 02:00:30.806645 12783 layer_factory.hpp:77] Creating layer LFCN_1_7x7_LFCN_1_7x7_0_split
I1215 02:00:30.806651 12783 net.cpp:100] Creating Layer LFCN_1_7x7_LFCN_1_7x7_0_split
I1215 02:00:30.806654 12783 net.cpp:434] LFCN_1_7x7_LFCN_1_7x7_0_split <- LFCN_1_7x7
I1215 02:00:30.806661 12783 net.cpp:408] LFCN_1_7x7_LFCN_1_7x7_0_split -> LFCN_1_7x7_LFCN_1_7x7_0_split_0
I1215 02:00:30.806668 12783 net.cpp:408] LFCN_1_7x7_LFCN_1_7x7_0_split -> LFCN_1_7x7_LFCN_1_7x7_0_split_1
I1215 02:00:30.806672 12783 net.cpp:408] LFCN_1_7x7_LFCN_1_7x7_0_split -> LFCN_1_7x7_LFCN_1_7x7_0_split_2
I1215 02:00:30.806721 12783 net.cpp:150] Setting up LFCN_1_7x7_LFCN_1_7x7_0_split
I1215 02:00:30.806726 12783 net.cpp:157] Top shape: 2 9 96 96 (165888)
I1215 02:00:30.806730 12783 net.cpp:157] Top shape: 2 9 96 96 (165888)
I1215 02:00:30.806735 12783 net.cpp:157] Top shape: 2 9 96 96 (165888)
I1215 02:00:30.806737 12783 net.cpp:165] Memory required for data: 2910746928
I1215 02:00:30.806740 12783 layer_factory.hpp:77] Creating layer detection_loss_1_7x7
I1215 02:00:30.806747 12783 net.cpp:100] Creating Layer detection_loss_1_7x7
I1215 02:00:30.806751 12783 net.cpp:434] detection_loss_1_7x7 <- LFCN_1_7x7_LFCN_1_7x7_0_split_0
I1215 02:00:30.806756 12783 net.cpp:434] detection_loss_1_7x7 <- label_1_7x7_data_2_split_0
I1215 02:00:30.806762 12783 net.cpp:408] detection_loss_1_7x7 -> loss_1_7x7
I1215 02:00:30.806769 12783 layer_factory.hpp:77] Creating layer detection_loss_1_7x7
I1215 02:00:30.807338 12783 net.cpp:150] Setting up detection_loss_1_7x7
I1215 02:00:30.807348 12783 net.cpp:157] Top shape: 1 1 1 2 (2)
I1215 02:00:30.807351 12783 net.cpp:160]     with loss weight 0.9
I1215 02:00:30.807359 12783 net.cpp:165] Memory required for data: 2910746936
I1215 02:00:30.807363 12783 layer_factory.hpp:77] Creating layer detection_accuracy_1_7x7
I1215 02:00:30.807370 12783 net.cpp:100] Creating Layer detection_accuracy_1_7x7
I1215 02:00:30.807374 12783 net.cpp:434] detection_accuracy_1_7x7 <- LFCN_1_7x7_LFCN_1_7x7_0_split_1
I1215 02:00:30.807379 12783 net.cpp:434] detection_accuracy_1_7x7 <- label_1_7x7_data_2_split_1
I1215 02:00:30.807382 12783 net.cpp:408] detection_accuracy_1_7x7 -> accuracy_1_7x7
I1215 02:00:30.807389 12783 net.cpp:408] detection_accuracy_1_7x7 -> boxiou_1_7x7
I1215 02:00:30.807431 12783 net.cpp:150] Setting up detection_accuracy_1_7x7
I1215 02:00:30.807437 12783 net.cpp:157] Top shape: 1 1 1 2 (2)
I1215 02:00:30.807442 12783 net.cpp:157] Top shape: 1 1 1 1 (1)
I1215 02:00:30.807446 12783 net.cpp:165] Memory required for data: 2910746948
I1215 02:00:30.807448 12783 layer_factory.hpp:77] Creating layer pool4
I1215 02:00:30.807454 12783 net.cpp:100] Creating Layer pool4
I1215 02:00:30.807457 12783 net.cpp:434] pool4 <- conv4_3_relu4_3_0_split_1
I1215 02:00:30.807463 12783 net.cpp:408] pool4 -> pool4
I1215 02:00:30.807498 12783 net.cpp:150] Setting up pool4
I1215 02:00:30.807505 12783 net.cpp:157] Top shape: 2 512 48 48 (2359296)
I1215 02:00:30.807508 12783 net.cpp:165] Memory required for data: 2920184132
I1215 02:00:30.807512 12783 layer_factory.hpp:77] Creating layer conv5_1
I1215 02:00:30.807520 12783 net.cpp:100] Creating Layer conv5_1
I1215 02:00:30.807523 12783 net.cpp:434] conv5_1 <- pool4
I1215 02:00:30.807528 12783 net.cpp:408] conv5_1 -> conv5_1
I1215 02:00:30.813431 12783 net.cpp:150] Setting up conv5_1
I1215 02:00:30.813462 12783 net.cpp:157] Top shape: 2 512 48 48 (2359296)
I1215 02:00:30.813467 12783 net.cpp:165] Memory required for data: 2929621316
I1215 02:00:30.813475 12783 layer_factory.hpp:77] Creating layer relu5_1
I1215 02:00:30.813486 12783 net.cpp:100] Creating Layer relu5_1
I1215 02:00:30.813493 12783 net.cpp:434] relu5_1 <- conv5_1
I1215 02:00:30.813498 12783 net.cpp:395] relu5_1 -> conv5_1 (in-place)
I1215 02:00:30.813679 12783 net.cpp:150] Setting up relu5_1
I1215 02:00:30.813689 12783 net.cpp:157] Top shape: 2 512 48 48 (2359296)
I1215 02:00:30.813694 12783 net.cpp:165] Memory required for data: 2939058500
I1215 02:00:30.813697 12783 layer_factory.hpp:77] Creating layer conv5_2
I1215 02:00:30.813705 12783 net.cpp:100] Creating Layer conv5_2
I1215 02:00:30.813709 12783 net.cpp:434] conv5_2 <- conv5_1
I1215 02:00:30.813715 12783 net.cpp:408] conv5_2 -> conv5_2
I1215 02:00:30.819805 12783 net.cpp:150] Setting up conv5_2
I1215 02:00:30.819835 12783 net.cpp:157] Top shape: 2 512 48 48 (2359296)
I1215 02:00:30.819839 12783 net.cpp:165] Memory required for data: 2948495684
I1215 02:00:30.819849 12783 layer_factory.hpp:77] Creating layer relu5_2
I1215 02:00:30.819862 12783 net.cpp:100] Creating Layer relu5_2
I1215 02:00:30.819869 12783 net.cpp:434] relu5_2 <- conv5_2
I1215 02:00:30.819876 12783 net.cpp:395] relu5_2 -> conv5_2 (in-place)
I1215 02:00:30.820374 12783 net.cpp:150] Setting up relu5_2
I1215 02:00:30.820386 12783 net.cpp:157] Top shape: 2 512 48 48 (2359296)
I1215 02:00:30.820390 12783 net.cpp:165] Memory required for data: 2957932868
I1215 02:00:30.820394 12783 layer_factory.hpp:77] Creating layer conv5_3
I1215 02:00:30.820403 12783 net.cpp:100] Creating Layer conv5_3
I1215 02:00:30.820406 12783 net.cpp:434] conv5_3 <- conv5_2
I1215 02:00:30.820411 12783 net.cpp:408] conv5_3 -> conv5_3
I1215 02:00:30.826594 12783 net.cpp:150] Setting up conv5_3
I1215 02:00:30.826624 12783 net.cpp:157] Top shape: 2 512 48 48 (2359296)
I1215 02:00:30.826628 12783 net.cpp:165] Memory required for data: 2967370052
I1215 02:00:30.826637 12783 layer_factory.hpp:77] Creating layer relu5_3
I1215 02:00:30.826651 12783 net.cpp:100] Creating Layer relu5_3
I1215 02:00:30.826658 12783 net.cpp:434] relu5_3 <- conv5_3
I1215 02:00:30.826664 12783 net.cpp:395] relu5_3 -> conv5_3 (in-place)
I1215 02:00:30.826830 12783 net.cpp:150] Setting up relu5_3
I1215 02:00:30.826839 12783 net.cpp:157] Top shape: 2 512 48 48 (2359296)
I1215 02:00:30.826843 12783 net.cpp:165] Memory required for data: 2976807236
I1215 02:00:30.826845 12783 layer_factory.hpp:77] Creating layer conv5_3_relu5_3_0_split
I1215 02:00:30.826853 12783 net.cpp:100] Creating Layer conv5_3_relu5_3_0_split
I1215 02:00:30.826856 12783 net.cpp:434] conv5_3_relu5_3_0_split <- conv5_3
I1215 02:00:30.826861 12783 net.cpp:408] conv5_3_relu5_3_0_split -> conv5_3_relu5_3_0_split_0
I1215 02:00:30.826867 12783 net.cpp:408] conv5_3_relu5_3_0_split -> conv5_3_relu5_3_0_split_1
I1215 02:00:30.826872 12783 net.cpp:408] conv5_3_relu5_3_0_split -> conv5_3_relu5_3_0_split_2
I1215 02:00:30.826923 12783 net.cpp:150] Setting up conv5_3_relu5_3_0_split
I1215 02:00:30.826930 12783 net.cpp:157] Top shape: 2 512 48 48 (2359296)
I1215 02:00:30.826936 12783 net.cpp:157] Top shape: 2 512 48 48 (2359296)
I1215 02:00:30.826939 12783 net.cpp:157] Top shape: 2 512 48 48 (2359296)
I1215 02:00:30.826942 12783 net.cpp:165] Memory required for data: 3005118788
I1215 02:00:30.826946 12783 layer_factory.hpp:77] Creating layer LFCN_2_5x5
I1215 02:00:30.826956 12783 net.cpp:100] Creating Layer LFCN_2_5x5
I1215 02:00:30.826959 12783 net.cpp:434] LFCN_2_5x5 <- conv5_3_relu5_3_0_split_0
I1215 02:00:30.826967 12783 net.cpp:408] LFCN_2_5x5 -> LFCN_2_5x5
I1215 02:00:30.831799 12783 net.cpp:150] Setting up LFCN_2_5x5
I1215 02:00:30.831813 12783 net.cpp:157] Top shape: 2 9 48 48 (41472)
I1215 02:00:30.831817 12783 net.cpp:165] Memory required for data: 3005284676
I1215 02:00:30.831830 12783 layer_factory.hpp:77] Creating layer LFCN_2_5x5_LFCN_2_5x5_0_split
I1215 02:00:30.831836 12783 net.cpp:100] Creating Layer LFCN_2_5x5_LFCN_2_5x5_0_split
I1215 02:00:30.831840 12783 net.cpp:434] LFCN_2_5x5_LFCN_2_5x5_0_split <- LFCN_2_5x5
I1215 02:00:30.831847 12783 net.cpp:408] LFCN_2_5x5_LFCN_2_5x5_0_split -> LFCN_2_5x5_LFCN_2_5x5_0_split_0
I1215 02:00:30.831861 12783 net.cpp:408] LFCN_2_5x5_LFCN_2_5x5_0_split -> LFCN_2_5x5_LFCN_2_5x5_0_split_1
I1215 02:00:30.831866 12783 net.cpp:408] LFCN_2_5x5_LFCN_2_5x5_0_split -> LFCN_2_5x5_LFCN_2_5x5_0_split_2
I1215 02:00:30.831917 12783 net.cpp:150] Setting up LFCN_2_5x5_LFCN_2_5x5_0_split
I1215 02:00:30.831923 12783 net.cpp:157] Top shape: 2 9 48 48 (41472)
I1215 02:00:30.831926 12783 net.cpp:157] Top shape: 2 9 48 48 (41472)
I1215 02:00:30.831929 12783 net.cpp:157] Top shape: 2 9 48 48 (41472)
I1215 02:00:30.831933 12783 net.cpp:165] Memory required for data: 3005782340
I1215 02:00:30.831936 12783 layer_factory.hpp:77] Creating layer detection_loss_2_5x5
I1215 02:00:30.831945 12783 net.cpp:100] Creating Layer detection_loss_2_5x5
I1215 02:00:30.831948 12783 net.cpp:434] detection_loss_2_5x5 <- LFCN_2_5x5_LFCN_2_5x5_0_split_0
I1215 02:00:30.831954 12783 net.cpp:434] detection_loss_2_5x5 <- label_2_5x5_data_3_split_0
I1215 02:00:30.831959 12783 net.cpp:408] detection_loss_2_5x5 -> loss_2_5x5
I1215 02:00:30.831967 12783 layer_factory.hpp:77] Creating layer detection_loss_2_5x5
I1215 02:00:30.832651 12783 net.cpp:150] Setting up detection_loss_2_5x5
I1215 02:00:30.832664 12783 net.cpp:157] Top shape: 1 1 1 2 (2)
I1215 02:00:30.832667 12783 net.cpp:160]     with loss weight 1
I1215 02:00:30.832679 12783 net.cpp:165] Memory required for data: 3005782348
I1215 02:00:30.832682 12783 layer_factory.hpp:77] Creating layer detection_accuracy_2_5x5
I1215 02:00:30.832691 12783 net.cpp:100] Creating Layer detection_accuracy_2_5x5
I1215 02:00:30.832695 12783 net.cpp:434] detection_accuracy_2_5x5 <- LFCN_2_5x5_LFCN_2_5x5_0_split_1
I1215 02:00:30.832700 12783 net.cpp:434] detection_accuracy_2_5x5 <- label_2_5x5_data_3_split_1
I1215 02:00:30.832705 12783 net.cpp:408] detection_accuracy_2_5x5 -> accuracy_2_5x5
I1215 02:00:30.832711 12783 net.cpp:408] detection_accuracy_2_5x5 -> boxiou_2_5x5
I1215 02:00:30.832756 12783 net.cpp:150] Setting up detection_accuracy_2_5x5
I1215 02:00:30.832763 12783 net.cpp:157] Top shape: 1 1 1 2 (2)
I1215 02:00:30.832767 12783 net.cpp:157] Top shape: 1 1 1 1 (1)
I1215 02:00:30.832770 12783 net.cpp:165] Memory required for data: 3005782360
I1215 02:00:30.832773 12783 layer_factory.hpp:77] Creating layer LFCN_2_7x7
I1215 02:00:30.832782 12783 net.cpp:100] Creating Layer LFCN_2_7x7
I1215 02:00:30.832785 12783 net.cpp:434] LFCN_2_7x7 <- conv5_3_relu5_3_0_split_1
I1215 02:00:30.832792 12783 net.cpp:408] LFCN_2_7x7 -> LFCN_2_7x7
I1215 02:00:30.839272 12783 net.cpp:150] Setting up LFCN_2_7x7
I1215 02:00:30.839284 12783 net.cpp:157] Top shape: 2 9 48 48 (41472)
I1215 02:00:30.839288 12783 net.cpp:165] Memory required for data: 3005948248
I1215 02:00:30.839295 12783 layer_factory.hpp:77] Creating layer LFCN_2_7x7_LFCN_2_7x7_0_split
I1215 02:00:30.839300 12783 net.cpp:100] Creating Layer LFCN_2_7x7_LFCN_2_7x7_0_split
I1215 02:00:30.839304 12783 net.cpp:434] LFCN_2_7x7_LFCN_2_7x7_0_split <- LFCN_2_7x7
I1215 02:00:30.839310 12783 net.cpp:408] LFCN_2_7x7_LFCN_2_7x7_0_split -> LFCN_2_7x7_LFCN_2_7x7_0_split_0
I1215 02:00:30.839318 12783 net.cpp:408] LFCN_2_7x7_LFCN_2_7x7_0_split -> LFCN_2_7x7_LFCN_2_7x7_0_split_1
I1215 02:00:30.839323 12783 net.cpp:408] LFCN_2_7x7_LFCN_2_7x7_0_split -> LFCN_2_7x7_LFCN_2_7x7_0_split_2
I1215 02:00:30.839380 12783 net.cpp:150] Setting up LFCN_2_7x7_LFCN_2_7x7_0_split
I1215 02:00:30.839386 12783 net.cpp:157] Top shape: 2 9 48 48 (41472)
I1215 02:00:30.839391 12783 net.cpp:157] Top shape: 2 9 48 48 (41472)
I1215 02:00:30.839395 12783 net.cpp:157] Top shape: 2 9 48 48 (41472)
I1215 02:00:30.839398 12783 net.cpp:165] Memory required for data: 3006445912
I1215 02:00:30.839402 12783 layer_factory.hpp:77] Creating layer detection_loss_2_7x7
I1215 02:00:30.839408 12783 net.cpp:100] Creating Layer detection_loss_2_7x7
I1215 02:00:30.839412 12783 net.cpp:434] detection_loss_2_7x7 <- LFCN_2_7x7_LFCN_2_7x7_0_split_0
I1215 02:00:30.839416 12783 net.cpp:434] detection_loss_2_7x7 <- label_2_7x7_data_4_split_0
I1215 02:00:30.839422 12783 net.cpp:408] detection_loss_2_7x7 -> loss_2_7x7
I1215 02:00:30.839429 12783 layer_factory.hpp:77] Creating layer detection_loss_2_7x7
I1215 02:00:30.839781 12783 net.cpp:150] Setting up detection_loss_2_7x7
I1215 02:00:30.839789 12783 net.cpp:157] Top shape: 1 1 1 2 (2)
I1215 02:00:30.839793 12783 net.cpp:160]     with loss weight 1
I1215 02:00:30.839798 12783 net.cpp:165] Memory required for data: 3006445920
I1215 02:00:30.839802 12783 layer_factory.hpp:77] Creating layer detection_accuracy_2_7x7
I1215 02:00:30.839808 12783 net.cpp:100] Creating Layer detection_accuracy_2_7x7
I1215 02:00:30.839812 12783 net.cpp:434] detection_accuracy_2_7x7 <- LFCN_2_7x7_LFCN_2_7x7_0_split_1
I1215 02:00:30.839817 12783 net.cpp:434] detection_accuracy_2_7x7 <- label_2_7x7_data_4_split_1
I1215 02:00:30.839821 12783 net.cpp:408] detection_accuracy_2_7x7 -> accuracy_2_7x7
I1215 02:00:30.839829 12783 net.cpp:408] detection_accuracy_2_7x7 -> boxiou_2_7x7
I1215 02:00:30.839866 12783 net.cpp:150] Setting up detection_accuracy_2_7x7
I1215 02:00:30.839872 12783 net.cpp:157] Top shape: 1 1 1 2 (2)
I1215 02:00:30.839877 12783 net.cpp:157] Top shape: 1 1 1 1 (1)
I1215 02:00:30.839880 12783 net.cpp:165] Memory required for data: 3006445932
I1215 02:00:30.839884 12783 layer_factory.hpp:77] Creating layer pool5
I1215 02:00:30.839890 12783 net.cpp:100] Creating Layer pool5
I1215 02:00:30.839893 12783 net.cpp:434] pool5 <- conv5_3_relu5_3_0_split_2
I1215 02:00:30.839898 12783 net.cpp:408] pool5 -> pool5
I1215 02:00:30.839934 12783 net.cpp:150] Setting up pool5
I1215 02:00:30.839941 12783 net.cpp:157] Top shape: 2 512 24 24 (589824)
I1215 02:00:30.839943 12783 net.cpp:165] Memory required for data: 3008805228
I1215 02:00:30.839946 12783 layer_factory.hpp:77] Creating layer conv6_1
I1215 02:00:30.839956 12783 net.cpp:100] Creating Layer conv6_1
I1215 02:00:30.839959 12783 net.cpp:434] conv6_1 <- pool5
I1215 02:00:30.839965 12783 net.cpp:408] conv6_1 -> conv6_1
I1215 02:00:30.899891 12783 net.cpp:150] Setting up conv6_1
I1215 02:00:30.899916 12783 net.cpp:157] Top shape: 2 512 24 24 (589824)
I1215 02:00:30.899921 12783 net.cpp:165] Memory required for data: 3011164524
I1215 02:00:30.899930 12783 layer_factory.hpp:77] Creating layer relu6_1
I1215 02:00:30.899943 12783 net.cpp:100] Creating Layer relu6_1
I1215 02:00:30.899950 12783 net.cpp:434] relu6_1 <- conv6_1
I1215 02:00:30.899955 12783 net.cpp:395] relu6_1 -> conv6_1 (in-place)
I1215 02:00:30.900128 12783 net.cpp:150] Setting up relu6_1
I1215 02:00:30.900137 12783 net.cpp:157] Top shape: 2 512 24 24 (589824)
I1215 02:00:30.900141 12783 net.cpp:165] Memory required for data: 3013523820
I1215 02:00:30.900144 12783 layer_factory.hpp:77] Creating layer conv6_1_relu6_1_0_split
I1215 02:00:30.900151 12783 net.cpp:100] Creating Layer conv6_1_relu6_1_0_split
I1215 02:00:30.900154 12783 net.cpp:434] conv6_1_relu6_1_0_split <- conv6_1
I1215 02:00:30.900158 12783 net.cpp:408] conv6_1_relu6_1_0_split -> conv6_1_relu6_1_0_split_0
I1215 02:00:30.900166 12783 net.cpp:408] conv6_1_relu6_1_0_split -> conv6_1_relu6_1_0_split_1
I1215 02:00:30.900171 12783 net.cpp:408] conv6_1_relu6_1_0_split -> conv6_1_relu6_1_0_split_2
I1215 02:00:30.900224 12783 net.cpp:150] Setting up conv6_1_relu6_1_0_split
I1215 02:00:30.900230 12783 net.cpp:157] Top shape: 2 512 24 24 (589824)
I1215 02:00:30.900234 12783 net.cpp:157] Top shape: 2 512 24 24 (589824)
I1215 02:00:30.900238 12783 net.cpp:157] Top shape: 2 512 24 24 (589824)
I1215 02:00:30.900241 12783 net.cpp:165] Memory required for data: 3020601708
I1215 02:00:30.900245 12783 layer_factory.hpp:77] Creating layer LFCN_3_5x5
I1215 02:00:30.900254 12783 net.cpp:100] Creating Layer LFCN_3_5x5
I1215 02:00:30.900259 12783 net.cpp:434] LFCN_3_5x5 <- conv6_1_relu6_1_0_split_0
I1215 02:00:30.900265 12783 net.cpp:408] LFCN_3_5x5 -> LFCN_3_5x5
I1215 02:00:30.904276 12783 net.cpp:150] Setting up LFCN_3_5x5
I1215 02:00:30.904287 12783 net.cpp:157] Top shape: 2 9 24 24 (10368)
I1215 02:00:30.904290 12783 net.cpp:165] Memory required for data: 3020643180
I1215 02:00:30.904296 12783 layer_factory.hpp:77] Creating layer LFCN_3_5x5_LFCN_3_5x5_0_split
I1215 02:00:30.904306 12783 net.cpp:100] Creating Layer LFCN_3_5x5_LFCN_3_5x5_0_split
I1215 02:00:30.904309 12783 net.cpp:434] LFCN_3_5x5_LFCN_3_5x5_0_split <- LFCN_3_5x5
I1215 02:00:30.904314 12783 net.cpp:408] LFCN_3_5x5_LFCN_3_5x5_0_split -> LFCN_3_5x5_LFCN_3_5x5_0_split_0
I1215 02:00:30.904320 12783 net.cpp:408] LFCN_3_5x5_LFCN_3_5x5_0_split -> LFCN_3_5x5_LFCN_3_5x5_0_split_1
I1215 02:00:30.904325 12783 net.cpp:408] LFCN_3_5x5_LFCN_3_5x5_0_split -> LFCN_3_5x5_LFCN_3_5x5_0_split_2
I1215 02:00:30.904371 12783 net.cpp:150] Setting up LFCN_3_5x5_LFCN_3_5x5_0_split
I1215 02:00:30.904376 12783 net.cpp:157] Top shape: 2 9 24 24 (10368)
I1215 02:00:30.904379 12783 net.cpp:157] Top shape: 2 9 24 24 (10368)
I1215 02:00:30.904382 12783 net.cpp:157] Top shape: 2 9 24 24 (10368)
I1215 02:00:30.904386 12783 net.cpp:165] Memory required for data: 3020767596
I1215 02:00:30.904388 12783 layer_factory.hpp:77] Creating layer detection_loss_3_5x5
I1215 02:00:30.904394 12783 net.cpp:100] Creating Layer detection_loss_3_5x5
I1215 02:00:30.904397 12783 net.cpp:434] detection_loss_3_5x5 <- LFCN_3_5x5_LFCN_3_5x5_0_split_0
I1215 02:00:30.904403 12783 net.cpp:434] detection_loss_3_5x5 <- label_3_5x5_data_5_split_0
I1215 02:00:30.904409 12783 net.cpp:408] detection_loss_3_5x5 -> loss_3_5x5
I1215 02:00:30.904417 12783 layer_factory.hpp:77] Creating layer detection_loss_3_5x5
I1215 02:00:30.904752 12783 net.cpp:150] Setting up detection_loss_3_5x5
I1215 02:00:30.904762 12783 net.cpp:157] Top shape: 1 1 1 2 (2)
I1215 02:00:30.904764 12783 net.cpp:160]     with loss weight 1
I1215 02:00:30.904775 12783 net.cpp:165] Memory required for data: 3020767604
I1215 02:00:30.904778 12783 layer_factory.hpp:77] Creating layer detection_accuracy_3_5x5
I1215 02:00:30.904786 12783 net.cpp:100] Creating Layer detection_accuracy_3_5x5
I1215 02:00:30.904790 12783 net.cpp:434] detection_accuracy_3_5x5 <- LFCN_3_5x5_LFCN_3_5x5_0_split_1
I1215 02:00:30.904794 12783 net.cpp:434] detection_accuracy_3_5x5 <- label_3_5x5_data_5_split_1
I1215 02:00:30.904800 12783 net.cpp:408] detection_accuracy_3_5x5 -> accuracy_3_5x5
I1215 02:00:30.904809 12783 net.cpp:408] detection_accuracy_3_5x5 -> boxiou_3_5x5
I1215 02:00:30.904846 12783 net.cpp:150] Setting up detection_accuracy_3_5x5
I1215 02:00:30.904853 12783 net.cpp:157] Top shape: 1 1 1 2 (2)
I1215 02:00:30.904857 12783 net.cpp:157] Top shape: 1 1 1 1 (1)
I1215 02:00:30.904860 12783 net.cpp:165] Memory required for data: 3020767616
I1215 02:00:30.904863 12783 layer_factory.hpp:77] Creating layer LFCN_3_7x7
I1215 02:00:30.904871 12783 net.cpp:100] Creating Layer LFCN_3_7x7
I1215 02:00:30.904875 12783 net.cpp:434] LFCN_3_7x7 <- conv6_1_relu6_1_0_split_1
I1215 02:00:30.904881 12783 net.cpp:408] LFCN_3_7x7 -> LFCN_3_7x7
I1215 02:00:30.912255 12783 net.cpp:150] Setting up LFCN_3_7x7
I1215 02:00:30.912268 12783 net.cpp:157] Top shape: 2 9 24 24 (10368)
I1215 02:00:30.912271 12783 net.cpp:165] Memory required for data: 3020809088
I1215 02:00:30.912277 12783 layer_factory.hpp:77] Creating layer LFCN_3_7x7_LFCN_3_7x7_0_split
I1215 02:00:30.912282 12783 net.cpp:100] Creating Layer LFCN_3_7x7_LFCN_3_7x7_0_split
I1215 02:00:30.912286 12783 net.cpp:434] LFCN_3_7x7_LFCN_3_7x7_0_split <- LFCN_3_7x7
I1215 02:00:30.912290 12783 net.cpp:408] LFCN_3_7x7_LFCN_3_7x7_0_split -> LFCN_3_7x7_LFCN_3_7x7_0_split_0
I1215 02:00:30.912298 12783 net.cpp:408] LFCN_3_7x7_LFCN_3_7x7_0_split -> LFCN_3_7x7_LFCN_3_7x7_0_split_1
I1215 02:00:30.912302 12783 net.cpp:408] LFCN_3_7x7_LFCN_3_7x7_0_split -> LFCN_3_7x7_LFCN_3_7x7_0_split_2
I1215 02:00:30.912346 12783 net.cpp:150] Setting up LFCN_3_7x7_LFCN_3_7x7_0_split
I1215 02:00:30.912353 12783 net.cpp:157] Top shape: 2 9 24 24 (10368)
I1215 02:00:30.912355 12783 net.cpp:157] Top shape: 2 9 24 24 (10368)
I1215 02:00:30.912359 12783 net.cpp:157] Top shape: 2 9 24 24 (10368)
I1215 02:00:30.912361 12783 net.cpp:165] Memory required for data: 3020933504
I1215 02:00:30.912364 12783 layer_factory.hpp:77] Creating layer detection_loss_3_7x7
I1215 02:00:30.912370 12783 net.cpp:100] Creating Layer detection_loss_3_7x7
I1215 02:00:30.912374 12783 net.cpp:434] detection_loss_3_7x7 <- LFCN_3_7x7_LFCN_3_7x7_0_split_0
I1215 02:00:30.912379 12783 net.cpp:434] detection_loss_3_7x7 <- label_3_7x7_data_6_split_0
I1215 02:00:30.912384 12783 net.cpp:408] detection_loss_3_7x7 -> loss_3_7x7
I1215 02:00:30.912391 12783 layer_factory.hpp:77] Creating layer detection_loss_3_7x7
I1215 02:00:30.913079 12783 net.cpp:150] Setting up detection_loss_3_7x7
I1215 02:00:30.913091 12783 net.cpp:157] Top shape: 1 1 1 2 (2)
I1215 02:00:30.913095 12783 net.cpp:160]     with loss weight 1
I1215 02:00:30.913102 12783 net.cpp:165] Memory required for data: 3020933512
I1215 02:00:30.913106 12783 layer_factory.hpp:77] Creating layer detection_accuracy_3_7x7
I1215 02:00:30.913112 12783 net.cpp:100] Creating Layer detection_accuracy_3_7x7
I1215 02:00:30.913116 12783 net.cpp:434] detection_accuracy_3_7x7 <- LFCN_3_7x7_LFCN_3_7x7_0_split_1
I1215 02:00:30.913121 12783 net.cpp:434] detection_accuracy_3_7x7 <- label_3_7x7_data_6_split_1
I1215 02:00:30.913130 12783 net.cpp:408] detection_accuracy_3_7x7 -> accuracy_3_7x7
I1215 02:00:30.913138 12783 net.cpp:408] detection_accuracy_3_7x7 -> boxiou_3_7x7
I1215 02:00:30.913177 12783 net.cpp:150] Setting up detection_accuracy_3_7x7
I1215 02:00:30.913183 12783 net.cpp:157] Top shape: 1 1 1 2 (2)
I1215 02:00:30.913187 12783 net.cpp:157] Top shape: 1 1 1 1 (1)
I1215 02:00:30.913190 12783 net.cpp:165] Memory required for data: 3020933524
I1215 02:00:30.913194 12783 layer_factory.hpp:77] Creating layer pool6
I1215 02:00:30.913200 12783 net.cpp:100] Creating Layer pool6
I1215 02:00:30.913204 12783 net.cpp:434] pool6 <- conv6_1_relu6_1_0_split_2
I1215 02:00:30.913209 12783 net.cpp:408] pool6 -> pool6
I1215 02:00:30.913245 12783 net.cpp:150] Setting up pool6
I1215 02:00:30.913252 12783 net.cpp:157] Top shape: 2 512 12 12 (147456)
I1215 02:00:30.913255 12783 net.cpp:165] Memory required for data: 3021523348
I1215 02:00:30.913259 12783 layer_factory.hpp:77] Creating layer LFCN_4_5x5
I1215 02:00:30.913269 12783 net.cpp:100] Creating Layer LFCN_4_5x5
I1215 02:00:30.913272 12783 net.cpp:434] LFCN_4_5x5 <- pool6
I1215 02:00:30.913277 12783 net.cpp:408] LFCN_4_5x5 -> LFCN_4_5x5
I1215 02:00:30.917273 12783 net.cpp:150] Setting up LFCN_4_5x5
I1215 02:00:30.917285 12783 net.cpp:157] Top shape: 2 9 12 12 (2592)
I1215 02:00:30.917289 12783 net.cpp:165] Memory required for data: 3021533716
I1215 02:00:30.917296 12783 layer_factory.hpp:77] Creating layer LFCN_4_5x5_LFCN_4_5x5_0_split
I1215 02:00:30.917304 12783 net.cpp:100] Creating Layer LFCN_4_5x5_LFCN_4_5x5_0_split
I1215 02:00:30.917306 12783 net.cpp:434] LFCN_4_5x5_LFCN_4_5x5_0_split <- LFCN_4_5x5
I1215 02:00:30.917312 12783 net.cpp:408] LFCN_4_5x5_LFCN_4_5x5_0_split -> LFCN_4_5x5_LFCN_4_5x5_0_split_0
I1215 02:00:30.917318 12783 net.cpp:408] LFCN_4_5x5_LFCN_4_5x5_0_split -> LFCN_4_5x5_LFCN_4_5x5_0_split_1
I1215 02:00:30.917325 12783 net.cpp:408] LFCN_4_5x5_LFCN_4_5x5_0_split -> LFCN_4_5x5_LFCN_4_5x5_0_split_2
I1215 02:00:30.917378 12783 net.cpp:150] Setting up LFCN_4_5x5_LFCN_4_5x5_0_split
I1215 02:00:30.917383 12783 net.cpp:157] Top shape: 2 9 12 12 (2592)
I1215 02:00:30.917387 12783 net.cpp:157] Top shape: 2 9 12 12 (2592)
I1215 02:00:30.917392 12783 net.cpp:157] Top shape: 2 9 12 12 (2592)
I1215 02:00:30.917395 12783 net.cpp:165] Memory required for data: 3021564820
I1215 02:00:30.917398 12783 layer_factory.hpp:77] Creating layer detection_loss_4_5x5
I1215 02:00:30.917404 12783 net.cpp:100] Creating Layer detection_loss_4_5x5
I1215 02:00:30.917408 12783 net.cpp:434] detection_loss_4_5x5 <- LFCN_4_5x5_LFCN_4_5x5_0_split_0
I1215 02:00:30.917413 12783 net.cpp:434] detection_loss_4_5x5 <- label_4_5x5_data_7_split_0
I1215 02:00:30.917418 12783 net.cpp:408] detection_loss_4_5x5 -> loss_4_5x5
I1215 02:00:30.917424 12783 layer_factory.hpp:77] Creating layer detection_loss_4_5x5
I1215 02:00:30.917771 12783 net.cpp:150] Setting up detection_loss_4_5x5
I1215 02:00:30.917781 12783 net.cpp:157] Top shape: 1 1 1 2 (2)
I1215 02:00:30.917784 12783 net.cpp:160]     with loss weight 1
I1215 02:00:30.917790 12783 net.cpp:165] Memory required for data: 3021564828
I1215 02:00:30.917793 12783 layer_factory.hpp:77] Creating layer detection_accuracy_4_5x5
I1215 02:00:30.917800 12783 net.cpp:100] Creating Layer detection_accuracy_4_5x5
I1215 02:00:30.917804 12783 net.cpp:434] detection_accuracy_4_5x5 <- LFCN_4_5x5_LFCN_4_5x5_0_split_1
I1215 02:00:30.917807 12783 net.cpp:434] detection_accuracy_4_5x5 <- label_4_5x5_data_7_split_1
I1215 02:00:30.917814 12783 net.cpp:408] detection_accuracy_4_5x5 -> accuracy_4_5x5
I1215 02:00:30.917820 12783 net.cpp:408] detection_accuracy_4_5x5 -> boxiou_4_5x5
I1215 02:00:30.917857 12783 net.cpp:150] Setting up detection_accuracy_4_5x5
I1215 02:00:30.917865 12783 net.cpp:157] Top shape: 1 1 1 2 (2)
I1215 02:00:30.917868 12783 net.cpp:157] Top shape: 1 1 1 1 (1)
I1215 02:00:30.917871 12783 net.cpp:165] Memory required for data: 3021564840
I1215 02:00:30.917876 12783 layer_factory.hpp:77] Creating layer proposals
I1215 02:00:30.917883 12783 net.cpp:100] Creating Layer proposals
I1215 02:00:30.917887 12783 net.cpp:434] proposals <- LFCN_1_5x5_LFCN_1_5x5_0_split_2
I1215 02:00:30.917891 12783 net.cpp:434] proposals <- LFCN_1_7x7_LFCN_1_7x7_0_split_2
I1215 02:00:30.917896 12783 net.cpp:434] proposals <- LFCN_2_5x5_LFCN_2_5x5_0_split_2
I1215 02:00:30.917899 12783 net.cpp:434] proposals <- LFCN_2_7x7_LFCN_2_7x7_0_split_2
I1215 02:00:30.917903 12783 net.cpp:434] proposals <- LFCN_3_5x5_LFCN_3_5x5_0_split_2
I1215 02:00:30.917907 12783 net.cpp:434] proposals <- LFCN_3_7x7_LFCN_3_7x7_0_split_2
I1215 02:00:30.917910 12783 net.cpp:434] proposals <- LFCN_4_5x5_LFCN_4_5x5_0_split_2
I1215 02:00:30.917917 12783 net.cpp:408] proposals -> proposals
I1215 02:00:30.917939 12783 net.cpp:150] Setting up proposals
I1215 02:00:30.917945 12783 net.cpp:157] Top shape: 1 5 1 1 (5)
I1215 02:00:30.917949 12783 net.cpp:165] Memory required for data: 3021564860
I1215 02:00:30.917953 12783 layer_factory.hpp:77] Creating layer proposal_info
I1215 02:00:30.917961 12783 net.cpp:100] Creating Layer proposal_info
I1215 02:00:30.917968 12783 net.cpp:434] proposal_info <- proposals
I1215 02:00:30.917971 12783 net.cpp:434] proposal_info <- gt_boxes
I1215 02:00:30.917978 12783 net.cpp:408] proposal_info -> rois
I1215 02:00:30.917984 12783 net.cpp:408] proposal_info -> proposal_labels
I1215 02:00:30.917989 12783 net.cpp:408] proposal_info -> proposal_targets
I1215 02:00:30.917995 12783 net.cpp:408] proposal_info -> box_inside_weights
I1215 02:00:30.918001 12783 net.cpp:408] proposal_info -> box_outside_weights
I1215 02:00:30.918007 12783 net.cpp:408] proposal_info -> match_gt_boxes
I1215 02:00:30.918099 12783 net.cpp:150] Setting up proposal_info
I1215 02:00:30.918107 12783 net.cpp:157] Top shape: 128 5 1 1 (640)
I1215 02:00:30.918110 12783 net.cpp:157] Top shape: 128 1 1 1 (128)
I1215 02:00:30.918114 12783 net.cpp:157] Top shape: 128 20 1 1 (2560)
I1215 02:00:30.918118 12783 net.cpp:157] Top shape: 128 20 1 1 (2560)
I1215 02:00:30.918123 12783 net.cpp:157] Top shape: 128 20 1 1 (2560)
I1215 02:00:30.918126 12783 net.cpp:157] Top shape: 128 6 1 1 (768)
I1215 02:00:30.918129 12783 net.cpp:165] Memory required for data: 3021601724
I1215 02:00:30.918133 12783 layer_factory.hpp:77] Creating layer rois_proposal_info_0_split
I1215 02:00:30.918136 12783 net.cpp:100] Creating Layer rois_proposal_info_0_split
I1215 02:00:30.918140 12783 net.cpp:434] rois_proposal_info_0_split <- rois
I1215 02:00:30.918144 12783 net.cpp:408] rois_proposal_info_0_split -> rois_proposal_info_0_split_0
I1215 02:00:30.918150 12783 net.cpp:408] rois_proposal_info_0_split -> rois_proposal_info_0_split_1
I1215 02:00:30.918155 12783 net.cpp:408] rois_proposal_info_0_split -> rois_proposal_info_0_split_2
I1215 02:00:30.918201 12783 net.cpp:150] Setting up rois_proposal_info_0_split
I1215 02:00:30.918207 12783 net.cpp:157] Top shape: 128 5 1 1 (640)
I1215 02:00:30.918212 12783 net.cpp:157] Top shape: 128 5 1 1 (640)
I1215 02:00:30.918215 12783 net.cpp:157] Top shape: 128 5 1 1 (640)
I1215 02:00:30.918218 12783 net.cpp:165] Memory required for data: 3021609404
I1215 02:00:30.918222 12783 layer_factory.hpp:77] Creating layer proposal_labels_proposal_info_1_split
I1215 02:00:30.918227 12783 net.cpp:100] Creating Layer proposal_labels_proposal_info_1_split
I1215 02:00:30.918231 12783 net.cpp:434] proposal_labels_proposal_info_1_split <- proposal_labels
I1215 02:00:30.918236 12783 net.cpp:408] proposal_labels_proposal_info_1_split -> proposal_labels_proposal_info_1_split_0
I1215 02:00:30.918243 12783 net.cpp:408] proposal_labels_proposal_info_1_split -> proposal_labels_proposal_info_1_split_1
I1215 02:00:30.918288 12783 net.cpp:150] Setting up proposal_labels_proposal_info_1_split
I1215 02:00:30.918296 12783 net.cpp:157] Top shape: 128 1 1 1 (128)
I1215 02:00:30.918301 12783 net.cpp:157] Top shape: 128 1 1 1 (128)
I1215 02:00:30.918305 12783 net.cpp:165] Memory required for data: 3021610428
I1215 02:00:30.918309 12783 layer_factory.hpp:77] Creating layer conv4_3_2x
I1215 02:00:30.918316 12783 net.cpp:100] Creating Layer conv4_3_2x
I1215 02:00:30.918321 12783 net.cpp:434] conv4_3_2x <- conv4_3_relu4_3_0_split_2
I1215 02:00:30.918329 12783 net.cpp:408] conv4_3_2x -> conv4_3_2x
I1215 02:00:30.918862 12783 net.cpp:150] Setting up conv4_3_2x
I1215 02:00:30.918870 12783 net.cpp:157] Top shape: 2 512 192 192 (37748736)
I1215 02:00:30.918874 12783 net.cpp:165] Memory required for data: 3172605372
I1215 02:00:30.918879 12783 layer_factory.hpp:77] Creating layer conv4_3_2x_conv4_3_2x_0_split
I1215 02:00:30.918882 12783 net.cpp:100] Creating Layer conv4_3_2x_conv4_3_2x_0_split
I1215 02:00:30.918887 12783 net.cpp:434] conv4_3_2x_conv4_3_2x_0_split <- conv4_3_2x
I1215 02:00:30.918891 12783 net.cpp:408] conv4_3_2x_conv4_3_2x_0_split -> conv4_3_2x_conv4_3_2x_0_split_0
I1215 02:00:30.918896 12783 net.cpp:408] conv4_3_2x_conv4_3_2x_0_split -> conv4_3_2x_conv4_3_2x_0_split_1
I1215 02:00:30.918932 12783 net.cpp:150] Setting up conv4_3_2x_conv4_3_2x_0_split
I1215 02:00:30.918938 12783 net.cpp:157] Top shape: 2 512 192 192 (37748736)
I1215 02:00:30.918943 12783 net.cpp:157] Top shape: 2 512 192 192 (37748736)
I1215 02:00:30.918946 12783 net.cpp:165] Memory required for data: 3474595260
I1215 02:00:30.918949 12783 layer_factory.hpp:77] Creating layer roi_pool_org
I1215 02:00:30.918954 12783 net.cpp:100] Creating Layer roi_pool_org
I1215 02:00:30.918957 12783 net.cpp:434] roi_pool_org <- conv4_3_2x_conv4_3_2x_0_split_0
I1215 02:00:30.918962 12783 net.cpp:434] roi_pool_org <- rois_proposal_info_0_split_0
I1215 02:00:30.918967 12783 net.cpp:408] roi_pool_org -> roi_pool_org
I1215 02:00:30.918972 12783 roi_pooling_layer.cpp:33] Spatial scale: 0.25
I1215 02:00:30.919011 12783 net.cpp:150] Setting up roi_pool_org
I1215 02:00:30.919018 12783 net.cpp:157] Top shape: 128 512 7 7 (3211264)
I1215 02:00:30.919021 12783 net.cpp:165] Memory required for data: 3487440316
I1215 02:00:30.919024 12783 layer_factory.hpp:77] Creating layer roi_pool_ctx
I1215 02:00:30.919028 12783 net.cpp:100] Creating Layer roi_pool_ctx
I1215 02:00:30.919032 12783 net.cpp:434] roi_pool_ctx <- conv4_3_2x_conv4_3_2x_0_split_1
I1215 02:00:30.919036 12783 net.cpp:434] roi_pool_ctx <- rois_proposal_info_0_split_1
I1215 02:00:30.919042 12783 net.cpp:408] roi_pool_ctx -> roi_pool_ctx
I1215 02:00:30.919049 12783 roi_pooling_layer.cpp:33] Spatial scale: 0.25
I1215 02:00:30.919085 12783 net.cpp:150] Setting up roi_pool_ctx
I1215 02:00:30.919090 12783 net.cpp:157] Top shape: 128 512 7 7 (3211264)
I1215 02:00:30.919093 12783 net.cpp:165] Memory required for data: 3500285372
I1215 02:00:30.919096 12783 layer_factory.hpp:77] Creating layer roi_pool
I1215 02:00:30.919102 12783 net.cpp:100] Creating Layer roi_pool
I1215 02:00:30.919106 12783 net.cpp:434] roi_pool <- roi_pool_org
I1215 02:00:30.919111 12783 net.cpp:434] roi_pool <- roi_pool_ctx
I1215 02:00:30.919116 12783 net.cpp:408] roi_pool -> roi_pool
I1215 02:00:30.919137 12783 net.cpp:150] Setting up roi_pool
I1215 02:00:30.919143 12783 net.cpp:157] Top shape: 128 1024 7 7 (6422528)
I1215 02:00:30.919147 12783 net.cpp:165] Memory required for data: 3525975484
I1215 02:00:30.919149 12783 layer_factory.hpp:77] Creating layer roi_c1
I1215 02:00:30.919158 12783 net.cpp:100] Creating Layer roi_c1
I1215 02:00:30.919162 12783 net.cpp:434] roi_c1 <- roi_pool
I1215 02:00:30.919167 12783 net.cpp:408] roi_c1 -> roi_c1
I1215 02:00:31.037009 12783 net.cpp:150] Setting up roi_c1
I1215 02:00:31.037034 12783 net.cpp:157] Top shape: 128 512 5 5 (1638400)
I1215 02:00:31.037039 12783 net.cpp:165] Memory required for data: 3532529084
I1215 02:00:31.037046 12783 layer_factory.hpp:77] Creating layer roi_c1_relu
I1215 02:00:31.037057 12783 net.cpp:100] Creating Layer roi_c1_relu
I1215 02:00:31.037063 12783 net.cpp:434] roi_c1_relu <- roi_c1
I1215 02:00:31.037068 12783 net.cpp:395] roi_c1_relu -> roi_c1 (in-place)
I1215 02:00:31.037209 12783 net.cpp:150] Setting up roi_c1_relu
I1215 02:00:31.037215 12783 net.cpp:157] Top shape: 128 512 5 5 (1638400)
I1215 02:00:31.037217 12783 net.cpp:165] Memory required for data: 3539082684
I1215 02:00:31.037220 12783 layer_factory.hpp:77] Creating layer fc6
I1215 02:00:31.037228 12783 net.cpp:100] Creating Layer fc6
I1215 02:00:31.037231 12783 net.cpp:434] fc6 <- roi_c1
I1215 02:00:31.037237 12783 net.cpp:408] fc6 -> fc6
I1215 02:00:32.286533 12783 net.cpp:150] Setting up fc6
I1215 02:00:32.286562 12783 net.cpp:157] Top shape: 128 4096 (524288)
I1215 02:00:32.286567 12783 net.cpp:165] Memory required for data: 3541179836
I1215 02:00:32.286577 12783 layer_factory.hpp:77] Creating layer relu6
I1215 02:00:32.286589 12783 net.cpp:100] Creating Layer relu6
I1215 02:00:32.286597 12783 net.cpp:434] relu6 <- fc6
I1215 02:00:32.286602 12783 net.cpp:395] relu6 -> fc6 (in-place)
I1215 02:00:32.286852 12783 net.cpp:150] Setting up relu6
I1215 02:00:32.286862 12783 net.cpp:157] Top shape: 128 4096 (524288)
I1215 02:00:32.286865 12783 net.cpp:165] Memory required for data: 3543276988
I1215 02:00:32.286870 12783 layer_factory.hpp:77] Creating layer drop6
I1215 02:00:32.286878 12783 net.cpp:100] Creating Layer drop6
I1215 02:00:32.286881 12783 net.cpp:434] drop6 <- fc6
I1215 02:00:32.286885 12783 net.cpp:395] drop6 -> fc6 (in-place)
I1215 02:00:32.286909 12783 net.cpp:150] Setting up drop6
I1215 02:00:32.286916 12783 net.cpp:157] Top shape: 128 4096 (524288)
I1215 02:00:32.286919 12783 net.cpp:165] Memory required for data: 3545374140
I1215 02:00:32.286922 12783 layer_factory.hpp:77] Creating layer fc6_drop6_0_split
I1215 02:00:32.286927 12783 net.cpp:100] Creating Layer fc6_drop6_0_split
I1215 02:00:32.286931 12783 net.cpp:434] fc6_drop6_0_split <- fc6
I1215 02:00:32.286936 12783 net.cpp:408] fc6_drop6_0_split -> fc6_drop6_0_split_0
I1215 02:00:32.286943 12783 net.cpp:408] fc6_drop6_0_split -> fc6_drop6_0_split_1
I1215 02:00:32.286981 12783 net.cpp:150] Setting up fc6_drop6_0_split
I1215 02:00:32.286988 12783 net.cpp:157] Top shape: 128 4096 (524288)
I1215 02:00:32.286993 12783 net.cpp:157] Top shape: 128 4096 (524288)
I1215 02:00:32.286995 12783 net.cpp:165] Memory required for data: 3549568444
I1215 02:00:32.286998 12783 layer_factory.hpp:77] Creating layer cls_pred
I1215 02:00:32.287006 12783 net.cpp:100] Creating Layer cls_pred
I1215 02:00:32.287010 12783 net.cpp:434] cls_pred <- fc6_drop6_0_split_0
I1215 02:00:32.287016 12783 net.cpp:408] cls_pred -> cls_pred
I1215 02:00:32.287648 12783 net.cpp:150] Setting up cls_pred
I1215 02:00:32.287655 12783 net.cpp:157] Top shape: 128 5 (640)
I1215 02:00:32.287658 12783 net.cpp:165] Memory required for data: 3549571004
I1215 02:00:32.287664 12783 layer_factory.hpp:77] Creating layer cls_pred_cls_pred_0_split
I1215 02:00:32.287668 12783 net.cpp:100] Creating Layer cls_pred_cls_pred_0_split
I1215 02:00:32.287672 12783 net.cpp:434] cls_pred_cls_pred_0_split <- cls_pred
I1215 02:00:32.287678 12783 net.cpp:408] cls_pred_cls_pred_0_split -> cls_pred_cls_pred_0_split_0
I1215 02:00:32.287683 12783 net.cpp:408] cls_pred_cls_pred_0_split -> cls_pred_cls_pred_0_split_1
I1215 02:00:32.287724 12783 net.cpp:150] Setting up cls_pred_cls_pred_0_split
I1215 02:00:32.287730 12783 net.cpp:157] Top shape: 128 5 (640)
I1215 02:00:32.287734 12783 net.cpp:157] Top shape: 128 5 (640)
I1215 02:00:32.287739 12783 net.cpp:165] Memory required for data: 3549576124
I1215 02:00:32.287741 12783 layer_factory.hpp:77] Creating layer bbox_pred
I1215 02:00:32.287746 12783 net.cpp:100] Creating Layer bbox_pred
I1215 02:00:32.287750 12783 net.cpp:434] bbox_pred <- fc6_drop6_0_split_1
I1215 02:00:32.287756 12783 net.cpp:408] bbox_pred -> bbox_pred
I1215 02:00:32.289914 12783 net.cpp:150] Setting up bbox_pred
I1215 02:00:32.289923 12783 net.cpp:157] Top shape: 128 20 (2560)
I1215 02:00:32.289927 12783 net.cpp:165] Memory required for data: 3549586364
I1215 02:00:32.289932 12783 layer_factory.hpp:77] Creating layer bbox_pred_bbox_pred_0_split
I1215 02:00:32.289937 12783 net.cpp:100] Creating Layer bbox_pred_bbox_pred_0_split
I1215 02:00:32.289939 12783 net.cpp:434] bbox_pred_bbox_pred_0_split <- bbox_pred
I1215 02:00:32.289947 12783 net.cpp:408] bbox_pred_bbox_pred_0_split -> bbox_pred_bbox_pred_0_split_0
I1215 02:00:32.289952 12783 net.cpp:408] bbox_pred_bbox_pred_0_split -> bbox_pred_bbox_pred_0_split_1
I1215 02:00:32.289984 12783 net.cpp:150] Setting up bbox_pred_bbox_pred_0_split
I1215 02:00:32.289991 12783 net.cpp:157] Top shape: 128 20 (2560)
I1215 02:00:32.289995 12783 net.cpp:157] Top shape: 128 20 (2560)
I1215 02:00:32.289999 12783 net.cpp:165] Memory required for data: 3549606844
I1215 02:00:32.290001 12783 layer_factory.hpp:77] Creating layer loss_cls
I1215 02:00:32.290007 12783 net.cpp:100] Creating Layer loss_cls
I1215 02:00:32.290010 12783 net.cpp:434] loss_cls <- cls_pred_cls_pred_0_split_0
I1215 02:00:32.290016 12783 net.cpp:434] loss_cls <- proposal_labels_proposal_info_1_split_0
…
