…
    downsample_rate: 16
    downsample_rate: 32
    downsample_rate: 32
    downsample_rate: 64
    coord_num: 4
    field_h: 60
    field_h: 84
    field_h: 120
    field_h: 168
    field_h: 240
    field_h: 336
    field_h: 480
    field_w: 60
    field_w: 84
    field_w: 120
    field_w: 168
    field_w: 240
    field_w: 336
    field_w: 480
    fg_threshold: 0.5
    resize_width: 1344
    resize_height: 768
    crop_width: 768
    crop_height: 768
    do_multiple_scale: true
    min_scale: 60
    max_scale: 480
    min_gt_height: 25
    shuffle: true
  }
}
layer {
  name: "slice"
  type: "Slice"
  bottom: "data"
  top: "data123"
  top: "ch4"
  slice_param {
    slice_point: 3
    axis: 1
  }
}
layer {
  name: "conv1_1"
  type: "Convolution"
  bottom: "data123"
  top: "conv1_1"
  convolution_param {
    num_output: 64
    pad: 1
    kernel_size: 3
  }
}
layer {
  name: "relu1_1"
  type: "ReLU"
  bottom: "conv1_1"
  top: "conv1_1"
}
layer {
  name: "conv1_2"
  type: "Convolution"
  bottom: "conv1_1"
  top: "conv1_2"
  convolution_param {
    num_output: 64
    pad: 1
    kernel_size: 3
  }
}
layer {
  name: "relu1_2"
  type: "ReLU"
  bottom: "conv1_2"
  top: "conv1_2"
}
layer {
  name: "pool1"
  type: "Pooling"
  bottom: "conv1_2"
  top: "pool1"
  pooling_param {
    pool: MAX
    kernel_size: 2
    stride: 2
  }
}
layer {
  name: "conv2_1"
  type: "Convolution"
  bottom: "pool1"
  top: "conv2_1"
  convolution_param {
    num_output: 128
    pad: 1
    kernel_size: 3
  }
}
layer {
  name: "relu2_1"
  type: "ReLU"
  bottom: "conv2_1"
  top: "conv2_1"
}
layer {
  name: "conv2_2"
  type: "Convolution"
  bottom: "conv2_1"
  top: "conv2_2"
  convolution_param {
    num_output: 128
    pad: 1
    kernel_size: 3
  }
}
layer {
  name: "relu2_2"
  type: "ReLU"
  bottom: "conv2_2"
  top: "conv2_2"
}
layer {
  name: "pool2"
  type: "Pooling"
  bottom: "conv2_2"
  top: "pool2"
  pooling_param {
    pool: MAX
    kernel_size: 2
    stride: 2
  }
}
layer {
  name: "conv3_1"
  type: "Convolution"
  bottom: "pool2"
  top: "conv3_1"
  convolution_param {
    num_output: 256
    pad: 1
    kernel_size: 3
  }
}
layer {
  name: "relu3_1"
  type: "ReLU"
  bottom: "conv3_1"
  top: "conv3_1"
}
layer {
  name: "conv3_2"
  type: "Convolution"
  bottom: "conv3_1"
  top: "conv3_2"
  convolution_param {
    num_output: 256
    pad: 1
    kernel_size: 3
  }
}
layer {
  name: "relu3_2"
  type: "ReLU"
  bottom: "conv3_2"
  top: "conv3_2"
}
layer {
  name: "conv3_3"
  type: "Convolution"
  bottom: "conv3_2"
  top: "conv3_3"
  convolution_param {
    num_output: 256
    pad: 1
    kernel_size: 3
  }
}
layer {
  name: "relu3_3"
  type: "ReLU"
  bottom: "conv3_3"
  top: "conv3_3"
}
layer {
  name: "pool3"
  type: "Pooling"
  bottom: "conv3_3"
  top: "pool3"
  pooling_param {
    pool: MAX
    kernel_size: 2
    stride: 2
  }
}
layer {
  name: "conv4_1"
  type: "Convolution"
  bottom: "pool3"
  top: "conv4_1"
  convolution_param {
    num_output: 512
    pad: 1
    kernel_size: 3
  }
}
layer {
  name: "relu4_1"
  type: "ReLU"
  bottom: "conv4_1"
  top: "conv4_1"
}
layer {
  name: "conv4_2"
  type: "Convolution"
  bottom: "conv4_1"
  top: "conv4_2"
  convolution_param {
    num_output: 512
    pad: 1
    kernel_size: 3
  }
}
layer {
  name: "relu4_2"
  type: "ReLU"
  bottom: "conv4_2"
  top: "conv4_2"
}
layer {
  name: "conv4_3"
  type: "Convolution"
  bottom: "conv4_2"
  top: "conv4_3"
  convolution_param {
    num_output: 512
    pad: 1
    kernel_size: 3
  }
}
layer {
  name: "relu4_3"
  type: "ReLU"
  bottom: "conv4_3"
  top: "conv4_3"
}
layer {
  name: "buffer"
  type: "Convolution"
  bottom: "conv4_3"
  top: "buffer"
  param {
    lr_mult: 1
    decay_mult: 1
  }
  param {
    lr_mult: 2
    decay_mult: 0
  }
  convolution_param {
    num_output: 512
    pad: 1
    kernel_size: 3
    weight_filler {
      type: "gaussian"
      std: 0.01
    }
    bias_filler {
      type: "constant"
    }
  }
}
layer {
  name: "relu_buffer"
  type: "ReLU"
  bottom: "buffer"
  top: "buffer"
}
layer {
  name: "attention"
  type: "Convolution"
  bottom: "buffer"
  top: "attention"
  param {
    lr_mult: 1
    decay_mult: 1
  }
  param {
    lr_mult: 2
    decay_mult: 0
  }
  convolution_param {
    num_output: 2
    pad: 1
    kernel_size: 3
    weight_filler {
      type: "gaussian"
      std: 0.01
    }
    bias_filler {
      type: "constant"
    }
  }
}
layer {
  name: "ch4_pool"
  type: "Pooling"
  bottom: "ch4"
  top: "ch4_pool"
  pooling_param {
    pool: MAX
    kernel_size: 8
    stride: 8
  }
}
layer {
  name: "loss_attention"
  type: "SoftmaxWithLoss"
  bottom: "attention"
  bottom: "ch4_pool"
  top: "loss_attention"
  loss_weight: 1
  propagate_down: true
  propagate_down: false
}
layer {
  name: "loss1_conv1"
  type: "Convolution"
  bottom: "conv4_3"
  top: "loss1_conv1"
  param {
    lr_mult: 1
    decay_mult: 1
  }
  param {
    lr_mult: 2
    decay_mult: 0
  }
  convolution_param {
    num_output: 512
    pad: 1
    kernel_size: 3
    weight_filler {
      type: "gaussian"
      std: 0.01
    }
    bias_filler {
      type: "constant"
    }
  }
}
layer {
  name: "loss_relu1"
  type: "ReLU"
  bottom: "loss1_conv1"
  top: "loss1_conv1"
}
layer {
  name: "LFCN_1_5x5"
  type: "Convolution"
  bottom: "loss1_conv1"
  top: "LFCN_1_5x5"
  param {
    lr_mult: 1
    decay_mult: 1
  }
  param {
    lr_mult: 2
    decay_mult: 0
  }
  convolution_param {
    num_output: 9
    pad: 2
    kernel_size: 5
    weight_filler {
      type: "gaussian"
      std: 0.001
    }
    bias_filler {
      type: "constant"
    }
  }
}
layer {
  name: "detection_loss_1_5x5"
  type: "DetectionLoss"
  bottom: "LFCN_1_5x5"
  bottom: "label_1_5x5"
  top: "loss_1_5x5"
  loss_weight: 0.9
  detection_loss_param {
    cls_num: 5
    coord_num: 4
    lambda: 0.05
    field_h: 60
    field_w: 60
    downsample_rate: 8
    bb_smooth: true
    field_whr: 2
    field_xyr: 2
    bg_threshold: 0.2
    bg_multiple: 2
    sample_mode: "random"
    pos_neg_weighted: true
  }
}
layer {
  name: "detection_accuracy_1_5x5"
  type: "DetectionAccuracy"
  bottom: "LFCN_1_5x5"
  bottom: "label_1_5x5"
  top: "accuracy_1_5x5"
  top: "boxiou_1_5x5"
  detection_accuracy_param {
    cls_num: 5
    coord_num: 4
    field_h: 60
    field_w: 60
    downsample_rate: 8
    field_whr: 2
    field_xyr: 2
  }
}
layer {
  name: "LFCN_1_7x7"
  type: "Convolution"
  bottom: "loss1_conv1"
  top: "LFCN_1_7x7"
  param {
    lr_mult: 1
    decay_mult: 1
  }
  param {
    lr_mult: 2
    decay_mult: 0
  }
  convolution_param {
    num_output: 9
    pad: 3
    kernel_size: 7
    weight_filler {
      type: "gaussian"
      std: 0.001
    }
    bias_filler {
      type: "constant"
    }
  }
}
layer {
  name: "detection_loss_1_7x7"
  type: "DetectionLoss"
  bottom: "LFCN_1_7x7"
  bottom: "label_1_7x7"
  top: "loss_1_7x7"
  loss_weight: 0.9
  detection_loss_param {
    cls_num: 5
    coord_num: 4
    lambda: 0.05
    field_h: 84
    field_w: 84
    downsample_rate: 8
    bb_smooth: true
    field_whr: 2
    field_xyr: 2
    bg_threshold: 0.2
    bg_multiple: 2
    sample_mode: "random"
    pos_neg_weighted: true
  }
}
layer {
  name: "detection_accuracy_1_7x7"
  type: "DetectionAccuracy"
  bottom: "LFCN_1_7x7"
  bottom: "label_1_7x7"
  top: "accuracy_1_7x7"
  top: "boxiou_1_7x7"
  detection_accuracy_param {
    cls_num: 5
    coord_num: 4
    field_h: 84
    field_w: 84
    downsample_rate: 8
    field_whr: 2
    field_xyr: 2
  }
}
layer {
  name: "pool4"
  type: "Pooling"
  bottom: "conv4_3"
  top: "pool4"
  pooling_param {
    pool: MAX
    kernel_size: 2
    stride: 2
  }
}
layer {
  name: "conv5_1"
  type: "Convolution"
  bottom: "pool4"
  top: "conv5_1"
  convolution_param {
    num_output: 512
    pad: 1
    kernel_size: 3
  }
}
layer {
  name: "relu5_1"
  type: "ReLU"
  bottom: "conv5_1"
  top: "conv5_1"
}
layer {
  name: "conv5_2"
  type: "Convolution"
  bottom: "conv5_1"
  top: "conv5_2"
  convolution_param {
    num_output: 512
    pad: 1
    kernel_size: 3
  }
}
layer {
  name: "relu5_2"
  type: "ReLU"
  bottom: "conv5_2"
  top: "conv5_2"
}
layer {
  name: "conv5_3"
  type: "Convolution"
  bottom: "conv5_2"
  top: "conv5_3"
  convolution_param {
    num_output: 512
    pad: 1
    kernel_size: 3
  }
}
layer {
  name: "relu5_3"
  type: "ReLU"
  bottom: "conv5_3"
  top: "conv5_3"
}
layer {
  name: "LFCN_2_5x5"
  type: "Convolution"
  bottom: "conv5_3"
  top: "LFCN_2_5x5"
  param {
    lr_mult: 1
    decay_mult: 1
  }
  param {
    lr_mult: 2
    decay_mult: 0
  }
  convolution_param {
    num_output: 9
    pad: 2
    kernel_size: 5
    weight_filler {
      type: "gaussian"
      std: 0.001
    }
    bias_filler {
      type: "constant"
    }
  }
}
layer {
  name: "detection_loss_2_5x5"
  type: "DetectionLoss"
  bottom: "LFCN_2_5x5"
  bottom: "label_2_5x5"
  top: "loss_2_5x5"
  detection_loss_param {
    cls_num: 5
    coord_num: 4
    lambda: 0.05
    field_h: 120
    field_w: 120
    downsample_rate: 16
    bb_smooth: true
    field_whr: 2
    field_xyr: 2
    bg_threshold: 0.2
    bg_multiple: 2
    sample_mode: "random"
    pos_neg_weighted: true
  }
}
layer {
  name: "detection_accuracy_2_5x5"
  type: "DetectionAccuracy"
  bottom: "LFCN_2_5x5"
  bottom: "label_2_5x5"
  top: "accuracy_2_5x5"
  top: "boxiou_2_5x5"
  detection_accuracy_param {
    cls_num: 5
    coord_num: 4
    field_h: 120
    field_w: 120
    downsample_rate: 16
    field_whr: 2
    field_xyr: 2
  }
}
layer {
  name: "LFCN_2_7x7"
  type: "Convolution"
  bottom: "conv5_3"
  top: "LFCN_2_7x7"
  param {
    lr_mult: 1
    decay_mult: 1
  }
  param {
    lr_mult: 2
    decay_mult: 0
  }
  convolution_param {
    num_output: 9
    pad: 3
    kernel_size: 7
    weight_filler {
      type: "gaussian"
      std: 0.001
    }
    bias_filler {
      type: "constant"
    }
  }
}
layer {
  name: "detection_loss_2_7x7"
  type: "DetectionLoss"
  bottom: "LFCN_2_7x7"
  bottom: "label_2_7x7"
  top: "loss_2_7x7"
  detection_loss_param {
    cls_num: 5
    coord_num: 4
    lambda: 0.05
    field_h: 168
    field_w: 168
    downsample_rate: 16
    bb_smooth: true
    field_whr: 2
    field_xyr: 2
    bg_threshold: 0.2
    bg_multiple: 2
    sample_mode: "random"
    pos_neg_weighted: true
  }
}
layer {
  name: "detection_accuracy_2_7x7"
  type: "DetectionAccuracy"
  bottom: "LFCN_2_7x7"
  bottom: "label_2_7x7"
  top: "accuracy_2_7x7"
  top: "boxiou_2_7x7"
  detection_accuracy_param {
    cls_num: 5
    coord_num: 4
    field_h: 168
    field_w: 168
    downsample_rate: 16
    field_whr: 2
    field_xyr: 2
  }
}
layer {
  name: "pool5"
  type: "Pooling"
  bottom: "conv5_3"
  top: "pool5"
  pooling_param {
    pool: MAX
    kernel_size: 2
    stride: 2
  }
}
layer {
  name: "conv6_1"
  type: "Convolution"
  bottom: "pool5"
  top: "conv6_1"
  param {
    lr_mult: 1
    decay_mult: 1
  }
  param {
    lr_mult: 2
    decay_mult: 0
  }
  convolution_param {
    num_output: 512
    pad: 1
    kernel_size: 3
    weight_filler {
      type: "gaussian"
      std: 0.01
    }
    bias_filler {
      type: "constant"
    }
  }
}
layer {
  name: "relu6_1"
  type: "ReLU"
  bottom: "conv6_1"
  top: "conv6_1"
}
layer {
  name: "LFCN_3_5x5"
  type: "Convolution"
  bottom: "conv6_1"
  top: "LFCN_3_5x5"
  param {
    lr_mult: 1
    decay_mult: 1
  }
  param {
    lr_mult: 2
    decay_mult: 0
  }
  convolution_param {
    num_output: 9
    pad: 2
    kernel_size: 5
    weight_filler {
      type: "gaussian"
      std: 0.001
    }
    bias_filler {
      type: "constant"
    }
  }
}
layer {
  name: "detection_loss_3_5x5"
  type: "DetectionLoss"
  bottom: "LFCN_3_5x5"
  bottom: "label_3_5x5"
  top: "loss_3_5x5"
  detection_loss_param {
    cls_num: 5
    coord_num: 4
    lambda: 0.05
    field_h: 240
    field_w: 240
    downsample_rate: 32
    bb_smooth: true
    field_whr: 2
    field_xyr: 2
    bg_threshold: 0.2
    bg_multiple: 2
    sample_mode: "random"
    pos_neg_weighted: true
  }
}
layer {
  name: "detection_accuracy_3_5x5"
  type: "DetectionAccuracy"
  bottom: "LFCN_3_5x5"
  bottom: "label_3_5x5"
  top: "accuracy_3_5x5"
  top: "boxiou_3_5x5"
  detection_accuracy_param {
    cls_num: 5
    coord_num: 4
    field_h: 240
    field_w: 240
    downsample_rate: 32
    field_whr: 2
    field_xyr: 2
  }
}
layer {
  name: "LFCN_3_7x7"
  type: "Convolution"
  bottom: "conv6_1"
  top: "LFCN_3_7x7"
  param {
    lr_mult: 1
    decay_mult: 1
  }
  param {
    lr_mult: 2
    decay_mult: 0
  }
  convolution_param {
    num_output: 9
    pad: 3
    kernel_size: 7
    weight_filler {
      type: "gaussian"
      std: 0.001
    }
    bias_filler {
      type: "constant"
    }
  }
}
layer {
  name: "detection_loss_3_7x7"
  type: "DetectionLoss"
  bottom: "LFCN_3_7x7"
  bottom: "label_3_7x7"
  top: "loss_3_7x7"
  detection_loss_param {
    cls_num: 5
    coord_num: 4
    lambda: 0.05
    field_h: 336
    field_w: 336
    downsample_rate: 32
    bb_smooth: true
    field_whr: 2
    field_xyr: 2
    bg_threshold: 0.2
    bg_multiple: 2
    sample_mode: "random"
    pos_neg_weighted: true
  }
}
layer {
  name: "detection_accuracy_3_7x7"
  type: "DetectionAccuracy"
  bottom: "LFCN_3_7x7"
  bottom: "label_3_7x7"
  top: "accuracy_3_7x7"
  top: "boxiou_3_7x7"
  detection_accuracy_param {
    cls_num: 5
    coord_num: 4
    field_h: 336
    field_w: 336
    downsample_rate: 32
    field_whr: 2
    field_xyr: 2
  }
}
layer {
  name: "pool6"
  type: "Pooling"
  bottom: "conv6_1"
  top: "pool6"
  pooling_param {
    pool: MAX
    kernel_size: 2
    stride: 2
  }
}
layer {
  name: "LFCN_4_5x5"
  type: "Convolution"
  bottom: "pool6"
  top: "LFCN_4_5x5"
  param {
    lr_mult: 1
    decay_mult: 1
  }
  param {
    lr_mult: 2
    decay_mult: 0
  }
  convolution_param {
    num_output: 9
    pad: 2
    kernel_size: 5
    weight_filler {
      type: "gaussian"
      std: 0.001
    }
    bias_filler {
      type: "constant"
    }
  }
}
layer {
  name: "detection_loss_4_5x5"
  type: "DetectionLoss"
  bottom: "LFCN_4_5x5"
  bottom: "label_4_5x5"
  top: "loss_4_5x5"
  detection_loss_param {
    cls_num: 5
    coord_num: 4
    lambda: 0.05
    field_h: 480
    field_w: 480
    downsample_rate: 64
    bb_smooth: true
    field_whr: 2
    field_xyr: 2
    bg_threshold: 0.2
    bg_multiple: 2
    sample_mode: "random"
    pos_neg_weighted: true
  }
}
layer {
  name: "detection_accuracy_4_5x5"
  type: "DetectionAccuracy"
  bottom: "LFCN_4_5x5"
  bottom: "label_4_5x5"
  top: "accuracy_4_5x5"
  top: "boxiou_4_5x5"
  detection_accuracy_param {
    cls_num: 5
    coord_num: 4
    field_h: 480
    field_w: 480
    downsample_rate: 64
    field_whr: 2
    field_xyr: 2
  }
}
I1018 20:54:35.303524 26895 layer_factory.hpp:77] Creating layer data
I1018 20:54:35.303563 26895 net.cpp:100] Creating Layer data
I1018 20:54:35.303572 26895 net.cpp:408] data -> data
…
I1018 20:54:35.330871 26895 image_gt_data_layer.cpp:235] output label size 1 : 1,6,96,96
I1018 20:54:35.330914 26895 image_gt_data_layer.cpp:235] output label size 2 : 1,6,48,48
I1018 20:54:35.330956 26895 image_gt_data_layer.cpp:235] output label size 3 : 1,6,48,48
I1018 20:54:35.330998 26895 image_gt_data_layer.cpp:235] output label size 4 : 1,6,24,24
I1018 20:54:35.331039 26895 image_gt_data_layer.cpp:235] output label size 5 : 1,6,24,24
I1018 20:54:35.331081 26895 image_gt_data_layer.cpp:235] output label size 6 : 1,6,12,12
I1018 20:54:35.364318 26895 net.cpp:150] Setting up data
I1018 20:54:35.364354 26895 net.cpp:157] Top shape: 1 4 768 768 (2359296)
I1018 20:54:35.364367 26895 net.cpp:157] Top shape: 1 6 96 96 (55296)
I1018 20:54:35.364372 26895 net.cpp:157] Top shape: 1 6 96 96 (55296)
I1018 20:54:35.364377 26895 net.cpp:157] Top shape: 1 6 48 48 (13824)
I1018 20:54:35.364380 26895 net.cpp:157] Top shape: 1 6 48 48 (13824)
I1018 20:54:35.364384 26895 net.cpp:157] Top shape: 1 6 24 24 (3456)
I1018 20:54:35.364388 26895 net.cpp:157] Top shape: 1 6 24 24 (3456)
I1018 20:54:35.364393 26895 net.cpp:157] Top shape: 1 6 12 12 (864)
I1018 20:54:35.364397 26895 net.cpp:165] Memory required for data: 10021248
I1018 20:54:35.364408 26895 layer_factory.hpp:77] Creating layer label_1_5x5_data_1_split
I1018 20:54:35.364426 26895 net.cpp:100] Creating Layer label_1_5x5_data_1_split
I1018 20:54:35.364432 26895 net.cpp:434] label_1_5x5_data_1_split <- label_1_5x5
I1018 20:54:35.364445 26895 net.cpp:408] label_1_5x5_data_1_split -> label_1_5x5_data_1_split_0
I1018 20:54:35.364455 26895 net.cpp:408] label_1_5x5_data_1_split -> label_1_5x5_data_1_split_1
I1018 20:54:35.364500 26895 net.cpp:150] Setting up label_1_5x5_data_1_split
I1018 20:54:35.364508 26895 net.cpp:157] Top shape: 1 6 96 96 (55296)
I1018 20:54:35.364513 26895 net.cpp:157] Top shape: 1 6 96 96 (55296)
I1018 20:54:35.364516 26895 net.cpp:165] Memory required for data: 10463616
I1018 20:54:35.364521 26895 layer_factory.hpp:77] Creating layer label_1_7x7_data_2_split
I1018 20:54:35.364527 26895 net.cpp:100] Creating Layer label_1_7x7_data_2_split
I1018 20:54:35.364531 26895 net.cpp:434] label_1_7x7_data_2_split <- label_1_7x7
I1018 20:54:35.364537 26895 net.cpp:408] label_1_7x7_data_2_split -> label_1_7x7_data_2_split_0
I1018 20:54:35.364542 26895 net.cpp:408] label_1_7x7_data_2_split -> label_1_7x7_data_2_split_1
I1018 20:54:35.364574 26895 net.cpp:150] Setting up label_1_7x7_data_2_split
I1018 20:54:35.364581 26895 net.cpp:157] Top shape: 1 6 96 96 (55296)
I1018 20:54:35.364586 26895 net.cpp:157] Top shape: 1 6 96 96 (55296)
I1018 20:54:35.364590 26895 net.cpp:165] Memory required for data: 10905984
I1018 20:54:35.364594 26895 layer_factory.hpp:77] Creating layer label_2_5x5_data_3_split
I1018 20:54:35.364599 26895 net.cpp:100] Creating Layer label_2_5x5_data_3_split
I1018 20:54:35.364603 26895 net.cpp:434] label_2_5x5_data_3_split <- label_2_5x5
I1018 20:54:35.364609 26895 net.cpp:408] label_2_5x5_data_3_split -> label_2_5x5_data_3_split_0
I1018 20:54:35.364615 26895 net.cpp:408] label_2_5x5_data_3_split -> label_2_5x5_data_3_split_1
I1018 20:54:35.364645 26895 net.cpp:150] Setting up label_2_5x5_data_3_split
I1018 20:54:35.364652 26895 net.cpp:157] Top shape: 1 6 48 48 (13824)
I1018 20:54:35.364657 26895 net.cpp:157] Top shape: 1 6 48 48 (13824)
I1018 20:54:35.364661 26895 net.cpp:165] Memory required for data: 11016576
I1018 20:54:35.364665 26895 layer_factory.hpp:77] Creating layer label_2_7x7_data_4_split
I1018 20:54:35.364670 26895 net.cpp:100] Creating Layer label_2_7x7_data_4_split
I1018 20:54:35.364675 26895 net.cpp:434] label_2_7x7_data_4_split <- label_2_7x7
I1018 20:54:35.364681 26895 net.cpp:408] label_2_7x7_data_4_split -> label_2_7x7_data_4_split_0
I1018 20:54:35.364686 26895 net.cpp:408] label_2_7x7_data_4_split -> label_2_7x7_data_4_split_1
I1018 20:54:35.364717 26895 net.cpp:150] Setting up label_2_7x7_data_4_split
I1018 20:54:35.364724 26895 net.cpp:157] Top shape: 1 6 48 48 (13824)
I1018 20:54:35.364729 26895 net.cpp:157] Top shape: 1 6 48 48 (13824)
I1018 20:54:35.364733 26895 net.cpp:165] Memory required for data: 11127168
I1018 20:54:35.364737 26895 layer_factory.hpp:77] Creating layer label_3_5x5_data_5_split
I1018 20:54:35.364743 26895 net.cpp:100] Creating Layer label_3_5x5_data_5_split
I1018 20:54:35.364748 26895 net.cpp:434] label_3_5x5_data_5_split <- label_3_5x5
I1018 20:54:35.364753 26895 net.cpp:408] label_3_5x5_data_5_split -> label_3_5x5_data_5_split_0
I1018 20:54:35.364760 26895 net.cpp:408] label_3_5x5_data_5_split -> label_3_5x5_data_5_split_1
I1018 20:54:35.364796 26895 net.cpp:150] Setting up label_3_5x5_data_5_split
I1018 20:54:35.364804 26895 net.cpp:157] Top shape: 1 6 24 24 (3456)
I1018 20:54:35.364809 26895 net.cpp:157] Top shape: 1 6 24 24 (3456)
I1018 20:54:35.364814 26895 net.cpp:165] Memory required for data: 11154816
I1018 20:54:35.364817 26895 layer_factory.hpp:77] Creating layer label_3_7x7_data_6_split
I1018 20:54:35.364822 26895 net.cpp:100] Creating Layer label_3_7x7_data_6_split
I1018 20:54:35.364826 26895 net.cpp:434] label_3_7x7_data_6_split <- label_3_7x7
I1018 20:54:35.364832 26895 net.cpp:408] label_3_7x7_data_6_split -> label_3_7x7_data_6_split_0
I1018 20:54:35.364838 26895 net.cpp:408] label_3_7x7_data_6_split -> label_3_7x7_data_6_split_1
I1018 20:54:35.365041 26895 net.cpp:150] Setting up label_3_7x7_data_6_split
I1018 20:54:35.365087 26895 net.cpp:157] Top shape: 1 6 24 24 (3456)
I1018 20:54:35.365099 26895 net.cpp:157] Top shape: 1 6 24 24 (3456)
I1018 20:54:35.365108 26895 net.cpp:165] Memory required for data: 11182464
I1018 20:54:35.365120 26895 layer_factory.hpp:77] Creating layer label_4_5x5_data_7_split
I1018 20:54:35.365140 26895 net.cpp:100] Creating Layer label_4_5x5_data_7_split
I1018 20:54:35.365154 26895 net.cpp:434] label_4_5x5_data_7_split <- label_4_5x5
I1018 20:54:35.365171 26895 net.cpp:408] label_4_5x5_data_7_split -> label_4_5x5_data_7_split_0
I1018 20:54:35.365193 26895 net.cpp:408] label_4_5x5_data_7_split -> label_4_5x5_data_7_split_1
I1018 20:54:35.365268 26895 net.cpp:150] Setting up label_4_5x5_data_7_split
I1018 20:54:35.365283 26895 net.cpp:157] Top shape: 1 6 12 12 (864)
I1018 20:54:35.365299 26895 net.cpp:157] Top shape: 1 6 12 12 (864)
I1018 20:54:35.365311 26895 net.cpp:165] Memory required for data: 11189376
I1018 20:54:35.365321 26895 layer_factory.hpp:77] Creating layer slice
I1018 20:54:35.365355 26895 net.cpp:100] Creating Layer slice
I1018 20:54:35.365366 26895 net.cpp:434] slice <- data
I1018 20:54:35.365381 26895 net.cpp:408] slice -> data123
I1018 20:54:35.365406 26895 net.cpp:408] slice -> ch4
I1018 20:54:35.365474 26895 net.cpp:150] Setting up slice
I1018 20:54:35.365490 26895 net.cpp:157] Top shape: 1 3 768 768 (1769472)
I1018 20:54:35.365505 26895 net.cpp:157] Top shape: 1 1 768 768 (589824)
I1018 20:54:35.365517 26895 net.cpp:165] Memory required for data: 20626560
I1018 20:54:35.365531 26895 layer_factory.hpp:77] Creating layer conv1_1
I1018 20:54:35.365559 26895 net.cpp:100] Creating Layer conv1_1
I1018 20:54:35.365571 26895 net.cpp:434] conv1_1 <- data123
I1018 20:54:35.365587 26895 net.cpp:408] conv1_1 -> conv1_1
I1018 20:54:35.599828 26895 net.cpp:150] Setting up conv1_1
I1018 20:54:35.599858 26895 net.cpp:157] Top shape: 1 64 768 768 (37748736)
I1018 20:54:35.599864 26895 net.cpp:165] Memory required for data: 171621504
I1018 20:54:35.599881 26895 layer_factory.hpp:77] Creating layer relu1_1
I1018 20:54:35.599895 26895 net.cpp:100] Creating Layer relu1_1
I1018 20:54:35.599900 26895 net.cpp:434] relu1_1 <- conv1_1
I1018 20:54:35.599907 26895 net.cpp:395] relu1_1 -> conv1_1 (in-place)
I1018 20:54:35.600114 26895 net.cpp:150] Setting up relu1_1
I1018 20:54:35.600126 26895 net.cpp:157] Top shape: 1 64 768 768 (37748736)
I1018 20:54:35.600131 26895 net.cpp:165] Memory required for data: 322616448
I1018 20:54:35.600136 26895 layer_factory.hpp:77] Creating layer conv1_2
I1018 20:54:35.600147 26895 net.cpp:100] Creating Layer conv1_2
I1018 20:54:35.600152 26895 net.cpp:434] conv1_2 <- conv1_1
I1018 20:54:35.600159 26895 net.cpp:408] conv1_2 -> conv1_2
I1018 20:54:35.602641 26895 net.cpp:150] Setting up conv1_2
I1018 20:54:35.602669 26895 net.cpp:157] Top shape: 1 64 768 768 (37748736)
I1018 20:54:35.602674 26895 net.cpp:165] Memory required for data: 473611392
I1018 20:54:35.602691 26895 layer_factory.hpp:77] Creating layer relu1_2
I1018 20:54:35.602704 26895 net.cpp:100] Creating Layer relu1_2
I1018 20:54:35.602710 26895 net.cpp:434] relu1_2 <- conv1_2
I1018 20:54:35.602716 26895 net.cpp:395] relu1_2 -> conv1_2 (in-place)
I1018 20:54:35.602923 26895 net.cpp:150] Setting up relu1_2
I1018 20:54:35.602934 26895 net.cpp:157] Top shape: 1 64 768 768 (37748736)
I1018 20:54:35.602939 26895 net.cpp:165] Memory required for data: 624606336
I1018 20:54:35.602943 26895 layer_factory.hpp:77] Creating layer pool1
I1018 20:54:35.602952 26895 net.cpp:100] Creating Layer pool1
I1018 20:54:35.602957 26895 net.cpp:434] pool1 <- conv1_2
I1018 20:54:35.602963 26895 net.cpp:408] pool1 -> pool1
I1018 20:54:35.603025 26895 net.cpp:150] Setting up pool1
I1018 20:54:35.603034 26895 net.cpp:157] Top shape: 1 64 384 384 (9437184)
I1018 20:54:35.603039 26895 net.cpp:165] Memory required for data: 662355072
I1018 20:54:35.603042 26895 layer_factory.hpp:77] Creating layer conv2_1
I1018 20:54:35.603052 26895 net.cpp:100] Creating Layer conv2_1
I1018 20:54:35.603058 26895 net.cpp:434] conv2_1 <- pool1
I1018 20:54:35.603063 26895 net.cpp:408] conv2_1 -> conv2_1
I1018 20:54:35.605662 26895 net.cpp:150] Setting up conv2_1
I1018 20:54:35.605685 26895 net.cpp:157] Top shape: 1 128 384 384 (18874368)
I1018 20:54:35.605690 26895 net.cpp:165] Memory required for data: 737852544
I1018 20:54:35.605701 26895 layer_factory.hpp:77] Creating layer relu2_1
I1018 20:54:35.605710 26895 net.cpp:100] Creating Layer relu2_1
I1018 20:54:35.605716 26895 net.cpp:434] relu2_1 <- conv2_1
I1018 20:54:35.605722 26895 net.cpp:395] relu2_1 -> conv2_1 (in-place)
I1018 20:54:35.605893 26895 net.cpp:150] Setting up relu2_1
I1018 20:54:35.605903 26895 net.cpp:157] Top shape: 1 128 384 384 (18874368)
I1018 20:54:35.605907 26895 net.cpp:165] Memory required for data: 813350016
I1018 20:54:35.605912 26895 layer_factory.hpp:77] Creating layer conv2_2
I1018 20:54:35.605923 26895 net.cpp:100] Creating Layer conv2_2
I1018 20:54:35.605931 26895 net.cpp:434] conv2_2 <- conv2_1
I1018 20:54:35.605937 26895 net.cpp:408] conv2_2 -> conv2_2
I1018 20:54:35.607411 26895 net.cpp:150] Setting up conv2_2
I1018 20:54:35.607426 26895 net.cpp:157] Top shape: 1 128 384 384 (18874368)
I1018 20:54:35.607430 26895 net.cpp:165] Memory required for data: 888847488
I1018 20:54:35.607439 26895 layer_factory.hpp:77] Creating layer relu2_2
I1018 20:54:35.607445 26895 net.cpp:100] Creating Layer relu2_2
I1018 20:54:35.607450 26895 net.cpp:434] relu2_2 <- conv2_2
I1018 20:54:35.607455 26895 net.cpp:395] relu2_2 -> conv2_2 (in-place)
I1018 20:54:35.607620 26895 net.cpp:150] Setting up relu2_2
I1018 20:54:35.607630 26895 net.cpp:157] Top shape: 1 128 384 384 (18874368)
I1018 20:54:35.607635 26895 net.cpp:165] Memory required for data: 964344960
I1018 20:54:35.607640 26895 layer_factory.hpp:77] Creating layer pool2
I1018 20:54:35.607645 26895 net.cpp:100] Creating Layer pool2
I1018 20:54:35.607650 26895 net.cpp:434] pool2 <- conv2_2
I1018 20:54:35.607656 26895 net.cpp:408] pool2 -> pool2
I1018 20:54:35.607697 26895 net.cpp:150] Setting up pool2
I1018 20:54:35.607705 26895 net.cpp:157] Top shape: 1 128 192 192 (4718592)
I1018 20:54:35.607709 26895 net.cpp:165] Memory required for data: 983219328
I1018 20:54:35.607713 26895 layer_factory.hpp:77] Creating layer conv3_1
I1018 20:54:35.607720 26895 net.cpp:100] Creating Layer conv3_1
I1018 20:54:35.607724 26895 net.cpp:434] conv3_1 <- pool2
I1018 20:54:35.607730 26895 net.cpp:408] conv3_1 -> conv3_1
I1018 20:54:35.610025 26895 net.cpp:150] Setting up conv3_1
I1018 20:54:35.610043 26895 net.cpp:157] Top shape: 1 256 192 192 (9437184)
I1018 20:54:35.610046 26895 net.cpp:165] Memory required for data: 1020968064
I1018 20:54:35.610057 26895 layer_factory.hpp:77] Creating layer relu3_1
I1018 20:54:35.610064 26895 net.cpp:100] Creating Layer relu3_1
I1018 20:54:35.610069 26895 net.cpp:434] relu3_1 <- conv3_1
I1018 20:54:35.610074 26895 net.cpp:395] relu3_1 -> conv3_1 (in-place)
I1018 20:54:35.610496 26895 net.cpp:150] Setting up relu3_1
I1018 20:54:35.610509 26895 net.cpp:157] Top shape: 1 256 192 192 (9437184)
I1018 20:54:35.610512 26895 net.cpp:165] Memory required for data: 1058716800
I1018 20:54:35.610517 26895 layer_factory.hpp:77] Creating layer conv3_2
I1018 20:54:35.610524 26895 net.cpp:100] Creating Layer conv3_2
I1018 20:54:35.610528 26895 net.cpp:434] conv3_2 <- conv3_1
I1018 20:54:35.610533 26895 net.cpp:408] conv3_2 -> conv3_2
I1018 20:54:35.612630 26895 net.cpp:150] Setting up conv3_2
I1018 20:54:35.612644 26895 net.cpp:157] Top shape: 1 256 192 192 (9437184)
I1018 20:54:35.612648 26895 net.cpp:165] Memory required for data: 1096465536
I1018 20:54:35.612655 26895 layer_factory.hpp:77] Creating layer relu3_2
I1018 20:54:35.612660 26895 net.cpp:100] Creating Layer relu3_2
I1018 20:54:35.612664 26895 net.cpp:434] relu3_2 <- conv3_2
I1018 20:54:35.612670 26895 net.cpp:395] relu3_2 -> conv3_2 (in-place)
I1018 20:54:35.613090 26895 net.cpp:150] Setting up relu3_2
I1018 20:54:35.613103 26895 net.cpp:157] Top shape: 1 256 192 192 (9437184)
I1018 20:54:35.613107 26895 net.cpp:165] Memory required for data: 1134214272
I1018 20:54:35.613111 26895 layer_factory.hpp:77] Creating layer conv3_3
I1018 20:54:35.613118 26895 net.cpp:100] Creating Layer conv3_3
I1018 20:54:35.613122 26895 net.cpp:434] conv3_3 <- conv3_2
I1018 20:54:35.613128 26895 net.cpp:408] conv3_3 -> conv3_3
I1018 20:54:35.615562 26895 net.cpp:150] Setting up conv3_3
I1018 20:54:35.615583 26895 net.cpp:157] Top shape: 1 256 192 192 (9437184)
I1018 20:54:35.615587 26895 net.cpp:165] Memory required for data: 1171963008
I1018 20:54:35.615594 26895 layer_factory.hpp:77] Creating layer relu3_3
I1018 20:54:35.615602 26895 net.cpp:100] Creating Layer relu3_3
I1018 20:54:35.615605 26895 net.cpp:434] relu3_3 <- conv3_3
I1018 20:54:35.615609 26895 net.cpp:395] relu3_3 -> conv3_3 (in-place)
I1018 20:54:35.615742 26895 net.cpp:150] Setting up relu3_3
I1018 20:54:35.615751 26895 net.cpp:157] Top shape: 1 256 192 192 (9437184)
I1018 20:54:35.615753 26895 net.cpp:165] Memory required for data: 1209711744
I1018 20:54:35.615756 26895 layer_factory.hpp:77] Creating layer pool3
I1018 20:54:35.615763 26895 net.cpp:100] Creating Layer pool3
I1018 20:54:35.615766 26895 net.cpp:434] pool3 <- conv3_3
I1018 20:54:35.615769 26895 net.cpp:408] pool3 -> pool3
I1018 20:54:35.615800 26895 net.cpp:150] Setting up pool3
I1018 20:54:35.615806 26895 net.cpp:157] Top shape: 1 256 96 96 (2359296)
I1018 20:54:35.615808 26895 net.cpp:165] Memory required for data: 1219148928
I1018 20:54:35.615811 26895 layer_factory.hpp:77] Creating layer conv4_1
I1018 20:54:35.615818 26895 net.cpp:100] Creating Layer conv4_1
I1018 20:54:35.615821 26895 net.cpp:434] conv4_1 <- pool3
I1018 20:54:35.615825 26895 net.cpp:408] conv4_1 -> conv4_1
I1018 20:54:35.619536 26895 net.cpp:150] Setting up conv4_1
I1018 20:54:35.619580 26895 net.cpp:157] Top shape: 1 512 96 96 (4718592)
I1018 20:54:35.619585 26895 net.cpp:165] Memory required for data: 1238023296
I1018 20:54:35.619601 26895 layer_factory.hpp:77] Creating layer relu4_1
I1018 20:54:35.619618 26895 net.cpp:100] Creating Layer relu4_1
I1018 20:54:35.619626 26895 net.cpp:434] relu4_1 <- conv4_1
I1018 20:54:35.619635 26895 net.cpp:395] relu4_1 -> conv4_1 (in-place)
I1018 20:54:35.619824 26895 net.cpp:150] Setting up relu4_1
I1018 20:54:35.619835 26895 net.cpp:157] Top shape: 1 512 96 96 (4718592)
I1018 20:54:35.619838 26895 net.cpp:165] Memory required for data: 1256897664
I1018 20:54:35.619841 26895 layer_factory.hpp:77] Creating layer conv4_2
I1018 20:54:35.619853 26895 net.cpp:100] Creating Layer conv4_2
I1018 20:54:35.619858 26895 net.cpp:434] conv4_2 <- conv4_1
I1018 20:54:35.619863 26895 net.cpp:408] conv4_2 -> conv4_2
I1018 20:54:35.629285 26895 net.cpp:150] Setting up conv4_2
I1018 20:54:35.629315 26895 net.cpp:157] Top shape: 1 512 96 96 (4718592)
I1018 20:54:35.629319 26895 net.cpp:165] Memory required for data: 1275772032
I1018 20:54:35.629334 26895 layer_factory.hpp:77] Creating layer relu4_2
I1018 20:54:35.629346 26895 net.cpp:100] Creating Layer relu4_2
I1018 20:54:35.629353 26895 net.cpp:434] relu4_2 <- conv4_2
I1018 20:54:35.629357 26895 net.cpp:395] relu4_2 -> conv4_2 (in-place)
I1018 20:54:35.629508 26895 net.cpp:150] Setting up relu4_2
I1018 20:54:35.629518 26895 net.cpp:157] Top shape: 1 512 96 96 (4718592)
I1018 20:54:35.629520 26895 net.cpp:165] Memory required for data: 1294646400
I1018 20:54:35.629524 26895 layer_factory.hpp:77] Creating layer conv4_3
I1018 20:54:35.629534 26895 net.cpp:100] Creating Layer conv4_3
I1018 20:54:35.629536 26895 net.cpp:434] conv4_3 <- conv4_2
I1018 20:54:35.629544 26895 net.cpp:408] conv4_3 -> conv4_3
I1018 20:54:35.635310 26895 net.cpp:150] Setting up conv4_3
I1018 20:54:35.635347 26895 net.cpp:157] Top shape: 1 512 96 96 (4718592)
I1018 20:54:35.635352 26895 net.cpp:165] Memory required for data: 1313520768
I1018 20:54:35.635362 26895 layer_factory.hpp:77] Creating layer relu4_3
I1018 20:54:35.635375 26895 net.cpp:100] Creating Layer relu4_3
I1018 20:54:35.635381 26895 net.cpp:434] relu4_3 <- conv4_3
I1018 20:54:35.635387 26895 net.cpp:395] relu4_3 -> conv4_3 (in-place)
I1018 20:54:35.635543 26895 net.cpp:150] Setting up relu4_3
I1018 20:54:35.635552 26895 net.cpp:157] Top shape: 1 512 96 96 (4718592)
I1018 20:54:35.635555 26895 net.cpp:165] Memory required for data: 1332395136
I1018 20:54:35.635560 26895 layer_factory.hpp:77] Creating layer conv4_3_relu4_3_0_split
I1018 20:54:35.635571 26895 net.cpp:100] Creating Layer conv4_3_relu4_3_0_split
I1018 20:54:35.635574 26895 net.cpp:434] conv4_3_relu4_3_0_split <- conv4_3
I1018 20:54:35.635579 26895 net.cpp:408] conv4_3_relu4_3_0_split -> conv4_3_relu4_3_0_split_0
I1018 20:54:35.635586 26895 net.cpp:408] conv4_3_relu4_3_0_split -> conv4_3_relu4_3_0_split_1
I1018 20:54:35.635591 26895 net.cpp:408] conv4_3_relu4_3_0_split -> conv4_3_relu4_3_0_split_2
I1018 20:54:35.635635 26895 net.cpp:150] Setting up conv4_3_relu4_3_0_split
I1018 20:54:35.635643 26895 net.cpp:157] Top shape: 1 512 96 96 (4718592)
I1018 20:54:35.635646 26895 net.cpp:157] Top shape: 1 512 96 96 (4718592)
I1018 20:54:35.635650 26895 net.cpp:157] Top shape: 1 512 96 96 (4718592)
I1018 20:54:35.635653 26895 net.cpp:165] Memory required for data: 1389018240
I1018 20:54:35.635656 26895 layer_factory.hpp:77] Creating layer buffer
I1018 20:54:35.635668 26895 net.cpp:100] Creating Layer buffer
I1018 20:54:35.635670 26895 net.cpp:434] buffer <- conv4_3_relu4_3_0_split_0
I1018 20:54:35.635676 26895 net.cpp:408] buffer -> buffer
I1018 20:54:35.705209 26895 net.cpp:150] Setting up buffer
I1018 20:54:35.705251 26895 net.cpp:157] Top shape: 1 512 96 96 (4718592)
I1018 20:54:35.705256 26895 net.cpp:165] Memory required for data: 1407892608
I1018 20:54:35.705266 26895 layer_factory.hpp:77] Creating layer relu_buffer
I1018 20:54:35.705282 26895 net.cpp:100] Creating Layer relu_buffer
I1018 20:54:35.705288 26895 net.cpp:434] relu_buffer <- buffer
I1018 20:54:35.705294 26895 net.cpp:395] relu_buffer -> buffer (in-place)
I1018 20:54:35.705997 26895 net.cpp:150] Setting up relu_buffer
I1018 20:54:35.706025 26895 net.cpp:157] Top shape: 1 512 96 96 (4718592)
I1018 20:54:35.706030 26895 net.cpp:165] Memory required for data: 1426766976
I1018 20:54:35.706034 26895 layer_factory.hpp:77] Creating layer attention
I1018 20:54:35.706053 26895 net.cpp:100] Creating Layer attention
I1018 20:54:35.706056 26895 net.cpp:434] attention <- buffer
I1018 20:54:35.706063 26895 net.cpp:408] attention -> attention
I1018 20:54:35.707578 26895 net.cpp:150] Setting up attention
I1018 20:54:35.707608 26895 net.cpp:157] Top shape: 1 2 96 96 (18432)
I1018 20:54:35.707613 26895 net.cpp:165] Memory required for data: 1426840704
I1018 20:54:35.707625 26895 layer_factory.hpp:77] Creating layer ch4_pool
I1018 20:54:35.707638 26895 net.cpp:100] Creating Layer ch4_pool
I1018 20:54:35.707643 26895 net.cpp:434] ch4_pool <- ch4
I1018 20:54:35.707650 26895 net.cpp:408] ch4_pool -> ch4_pool
I1018 20:54:35.707697 26895 net.cpp:150] Setting up ch4_pool
I1018 20:54:35.707702 26895 net.cpp:157] Top shape: 1 1 96 96 (9216)
I1018 20:54:35.707705 26895 net.cpp:165] Memory required for data: 1426877568
I1018 20:54:35.707708 26895 layer_factory.hpp:77] Creating layer loss_attention
I1018 20:54:35.707716 26895 net.cpp:100] Creating Layer loss_attention
I1018 20:54:35.707720 26895 net.cpp:434] loss_attention <- attention
I1018 20:54:35.707723 26895 net.cpp:434] loss_attention <- ch4_pool
I1018 20:54:35.707731 26895 net.cpp:408] loss_attention -> loss_attention
I1018 20:54:35.707742 26895 layer_factory.hpp:77] Creating layer loss_attention
I1018 20:54:35.708379 26895 net.cpp:150] Setting up loss_attention
I1018 20:54:35.708393 26895 net.cpp:157] Top shape: (1)
I1018 20:54:35.708397 26895 net.cpp:160]     with loss weight 1
I1018 20:54:35.708425 26895 net.cpp:165] Memory required for data: 1426877572
I1018 20:54:35.708428 26895 layer_factory.hpp:77] Creating layer loss1_conv1
I1018 20:54:35.708446 26895 net.cpp:100] Creating Layer loss1_conv1
I1018 20:54:35.708449 26895 net.cpp:434] loss1_conv1 <- conv4_3_relu4_3_0_split_1
I1018 20:54:35.708461 26895 net.cpp:408] loss1_conv1 -> loss1_conv1
I1018 20:54:35.773931 26895 net.cpp:150] Setting up loss1_conv1
I1018 20:54:35.773960 26895 net.cpp:157] Top shape: 1 512 96 96 (4718592)
I1018 20:54:35.773964 26895 net.cpp:165] Memory required for data: 1445751940
I1018 20:54:35.773972 26895 layer_factory.hpp:77] Creating layer loss_relu1
I1018 20:54:35.773984 26895 net.cpp:100] Creating Layer loss_relu1
I1018 20:54:35.773990 26895 net.cpp:434] loss_relu1 <- loss1_conv1
I1018 20:54:35.773996 26895 net.cpp:395] loss_relu1 -> loss1_conv1 (in-place)
I1018 20:54:35.776933 26895 net.cpp:150] Setting up loss_relu1
I1018 20:54:35.776947 26895 net.cpp:157] Top shape: 1 512 96 96 (4718592)
I1018 20:54:35.776952 26895 net.cpp:165] Memory required for data: 1464626308
I1018 20:54:35.776955 26895 layer_factory.hpp:77] Creating layer loss1_conv1_loss_relu1_0_split
I1018 20:54:35.776962 26895 net.cpp:100] Creating Layer loss1_conv1_loss_relu1_0_split
I1018 20:54:35.776964 26895 net.cpp:434] loss1_conv1_loss_relu1_0_split <- loss1_conv1
I1018 20:54:35.776970 26895 net.cpp:408] loss1_conv1_loss_relu1_0_split -> loss1_conv1_loss_relu1_0_split_0
I1018 20:54:35.776978 26895 net.cpp:408] loss1_conv1_loss_relu1_0_split -> loss1_conv1_loss_relu1_0_split_1
I1018 20:54:35.777017 26895 net.cpp:150] Setting up loss1_conv1_loss_relu1_0_split
I1018 20:54:35.777024 26895 net.cpp:157] Top shape: 1 512 96 96 (4718592)
I1018 20:54:35.777029 26895 net.cpp:157] Top shape: 1 512 96 96 (4718592)
I1018 20:54:35.777031 26895 net.cpp:165] Memory required for data: 1502375044
I1018 20:54:35.777034 26895 layer_factory.hpp:77] Creating layer LFCN_1_5x5
I1018 20:54:35.777045 26895 net.cpp:100] Creating Layer LFCN_1_5x5
I1018 20:54:35.777050 26895 net.cpp:434] LFCN_1_5x5 <- loss1_conv1_loss_relu1_0_split_0
I1018 20:54:35.777055 26895 net.cpp:408] LFCN_1_5x5 -> LFCN_1_5x5
I1018 20:54:35.782225 26895 net.cpp:150] Setting up LFCN_1_5x5
I1018 20:54:35.782241 26895 net.cpp:157] Top shape: 1 9 96 96 (82944)
I1018 20:54:35.782245 26895 net.cpp:165] Memory required for data: 1502706820
I1018 20:54:35.782253 26895 layer_factory.hpp:77] Creating layer LFCN_1_5x5_LFCN_1_5x5_0_split
I1018 20:54:35.782259 26895 net.cpp:100] Creating Layer LFCN_1_5x5_LFCN_1_5x5_0_split
I1018 20:54:35.782264 26895 net.cpp:434] LFCN_1_5x5_LFCN_1_5x5_0_split <- LFCN_1_5x5
I1018 20:54:35.782271 26895 net.cpp:408] LFCN_1_5x5_LFCN_1_5x5_0_split -> LFCN_1_5x5_LFCN_1_5x5_0_split_0
I1018 20:54:35.782279 26895 net.cpp:408] LFCN_1_5x5_LFCN_1_5x5_0_split -> LFCN_1_5x5_LFCN_1_5x5_0_split_1
I1018 20:54:35.782323 26895 net.cpp:150] Setting up LFCN_1_5x5_LFCN_1_5x5_0_split
I1018 20:54:35.782333 26895 net.cpp:157] Top shape: 1 9 96 96 (82944)
I1018 20:54:35.782338 26895 net.cpp:157] Top shape: 1 9 96 96 (82944)
I1018 20:54:35.782342 26895 net.cpp:165] Memory required for data: 1503370372
I1018 20:54:35.782346 26895 layer_factory.hpp:77] Creating layer detection_loss_1_5x5
I1018 20:54:35.782354 26895 net.cpp:100] Creating Layer detection_loss_1_5x5
I1018 20:54:35.782358 26895 net.cpp:434] detection_loss_1_5x5 <- LFCN_1_5x5_LFCN_1_5x5_0_split_0
I1018 20:54:35.782363 26895 net.cpp:434] detection_loss_1_5x5 <- label_1_5x5_data_1_split_0
I1018 20:54:35.782369 26895 net.cpp:408] detection_loss_1_5x5 -> loss_1_5x5
I1018 20:54:35.782382 26895 layer_factory.hpp:77] Creating layer detection_loss_1_5x5
I1018 20:54:35.783638 26895 net.cpp:150] Setting up detection_loss_1_5x5
I1018 20:54:35.783653 26895 net.cpp:157] Top shape: 1 1 1 2 (2)
I1018 20:54:35.783658 26895 net.cpp:160]     with loss weight 0.9
I1018 20:54:35.783669 26895 net.cpp:165] Memory required for data: 1503370380
I1018 20:54:35.783674 26895 layer_factory.hpp:77] Creating layer detection_accuracy_1_5x5
I1018 20:54:35.783682 26895 net.cpp:100] Creating Layer detection_accuracy_1_5x5
I1018 20:54:35.783687 26895 net.cpp:434] detection_accuracy_1_5x5 <- LFCN_1_5x5_LFCN_1_5x5_0_split_1
I1018 20:54:35.783692 26895 net.cpp:434] detection_accuracy_1_5x5 <- label_1_5x5_data_1_split_1
I1018 20:54:35.783699 26895 net.cpp:408] detection_accuracy_1_5x5 -> accuracy_1_5x5
I1018 20:54:35.783707 26895 net.cpp:408] detection_accuracy_1_5x5 -> boxiou_1_5x5
I1018 20:54:35.783748 26895 net.cpp:150] Setting up detection_accuracy_1_5x5
I1018 20:54:35.783757 26895 net.cpp:157] Top shape: 1 1 1 2 (2)
I1018 20:54:35.783762 26895 net.cpp:157] Top shape: 1 1 1 1 (1)
I1018 20:54:35.783766 26895 net.cpp:165] Memory required for data: 1503370392
I1018 20:54:35.783769 26895 layer_factory.hpp:77] Creating layer LFCN_1_7x7
I1018 20:54:35.783780 26895 net.cpp:100] Creating Layer LFCN_1_7x7
I1018 20:54:35.783785 26895 net.cpp:434] LFCN_1_7x7 <- loss1_conv1_loss_relu1_0_split_1
I1018 20:54:35.783792 26895 net.cpp:408] LFCN_1_7x7 -> LFCN_1_7x7
I1018 20:54:35.792232 26895 net.cpp:150] Setting up LFCN_1_7x7
I1018 20:54:35.792253 26895 net.cpp:157] Top shape: 1 9 96 96 (82944)
I1018 20:54:35.792258 26895 net.cpp:165] Memory required for data: 1503702168
I1018 20:54:35.792264 26895 layer_factory.hpp:77] Creating layer LFCN_1_7x7_LFCN_1_7x7_0_split
I1018 20:54:35.792273 26895 net.cpp:100] Creating Layer LFCN_1_7x7_LFCN_1_7x7_0_split
I1018 20:54:35.792277 26895 net.cpp:434] LFCN_1_7x7_LFCN_1_7x7_0_split <- LFCN_1_7x7
I1018 20:54:35.792284 26895 net.cpp:408] LFCN_1_7x7_LFCN_1_7x7_0_split -> LFCN_1_7x7_LFCN_1_7x7_0_split_0
I1018 20:54:35.792291 26895 net.cpp:408] LFCN_1_7x7_LFCN_1_7x7_0_split -> LFCN_1_7x7_LFCN_1_7x7_0_split_1
I1018 20:54:35.792326 26895 net.cpp:150] Setting up LFCN_1_7x7_LFCN_1_7x7_0_split
I1018 20:54:35.792333 26895 net.cpp:157] Top shape: 1 9 96 96 (82944)
I1018 20:54:35.792337 26895 net.cpp:157] Top shape: 1 9 96 96 (82944)
I1018 20:54:35.792340 26895 net.cpp:165] Memory required for data: 1504365720
I1018 20:54:35.792343 26895 layer_factory.hpp:77] Creating layer detection_loss_1_7x7
I1018 20:54:35.792352 26895 net.cpp:100] Creating Layer detection_loss_1_7x7
I1018 20:54:35.792356 26895 net.cpp:434] detection_loss_1_7x7 <- LFCN_1_7x7_LFCN_1_7x7_0_split_0
I1018 20:54:35.792367 26895 net.cpp:434] detection_loss_1_7x7 <- label_1_7x7_data_2_split_0
I1018 20:54:35.792389 26895 net.cpp:408] detection_loss_1_7x7 -> loss_1_7x7
I1018 20:54:35.792397 26895 layer_factory.hpp:77] Creating layer detection_loss_1_7x7
I1018 20:54:35.792722 26895 net.cpp:150] Setting up detection_loss_1_7x7
I1018 20:54:35.792732 26895 net.cpp:157] Top shape: 1 1 1 2 (2)
I1018 20:54:35.792735 26895 net.cpp:160]     with loss weight 0.9
I1018 20:54:35.792745 26895 net.cpp:165] Memory required for data: 1504365728
I1018 20:54:35.792748 26895 layer_factory.hpp:77] Creating layer detection_accuracy_1_7x7
I1018 20:54:35.792754 26895 net.cpp:100] Creating Layer detection_accuracy_1_7x7
I1018 20:54:35.792757 26895 net.cpp:434] detection_accuracy_1_7x7 <- LFCN_1_7x7_LFCN_1_7x7_0_split_1
I1018 20:54:35.792762 26895 net.cpp:434] detection_accuracy_1_7x7 <- label_1_7x7_data_2_split_1
I1018 20:54:35.792768 26895 net.cpp:408] detection_accuracy_1_7x7 -> accuracy_1_7x7
I1018 20:54:35.792774 26895 net.cpp:408] detection_accuracy_1_7x7 -> boxiou_1_7x7
I1018 20:54:35.792810 26895 net.cpp:150] Setting up detection_accuracy_1_7x7
I1018 20:54:35.792817 26895 net.cpp:157] Top shape: 1 1 1 2 (2)
I1018 20:54:35.792821 26895 net.cpp:157] Top shape: 1 1 1 1 (1)
I1018 20:54:35.792824 26895 net.cpp:165] Memory required for data: 1504365740
I1018 20:54:35.792827 26895 layer_factory.hpp:77] Creating layer pool4
I1018 20:54:35.792832 26895 net.cpp:100] Creating Layer pool4
I1018 20:54:35.792836 26895 net.cpp:434] pool4 <- conv4_3_relu4_3_0_split_2
I1018 20:54:35.792841 26895 net.cpp:408] pool4 -> pool4
I1018 20:54:35.792873 26895 net.cpp:150] Setting up pool4
I1018 20:54:35.792881 26895 net.cpp:157] Top shape: 1 512 48 48 (1179648)
I1018 20:54:35.792883 26895 net.cpp:165] Memory required for data: 1509084332
I1018 20:54:35.792886 26895 layer_factory.hpp:77] Creating layer conv5_1
I1018 20:54:35.792893 26895 net.cpp:100] Creating Layer conv5_1
I1018 20:54:35.792896 26895 net.cpp:434] conv5_1 <- pool4
I1018 20:54:35.792902 26895 net.cpp:408] conv5_1 -> conv5_1
I1018 20:54:35.800673 26895 net.cpp:150] Setting up conv5_1
I1018 20:54:35.800704 26895 net.cpp:157] Top shape: 1 512 48 48 (1179648)
I1018 20:54:35.800707 26895 net.cpp:165] Memory required for data: 1513802924
I1018 20:54:35.800716 26895 layer_factory.hpp:77] Creating layer relu5_1
I1018 20:54:35.800729 26895 net.cpp:100] Creating Layer relu5_1
I1018 20:54:35.800734 26895 net.cpp:434] relu5_1 <- conv5_1
I1018 20:54:35.800742 26895 net.cpp:395] relu5_1 -> conv5_1 (in-place)
I1018 20:54:35.800899 26895 net.cpp:150] Setting up relu5_1
I1018 20:54:35.800909 26895 net.cpp:157] Top shape: 1 512 48 48 (1179648)
I1018 20:54:35.800911 26895 net.cpp:165] Memory required for data: 1518521516
I1018 20:54:35.800915 26895 layer_factory.hpp:77] Creating layer conv5_2
I1018 20:54:35.800925 26895 net.cpp:100] Creating Layer conv5_2
I1018 20:54:35.800927 26895 net.cpp:434] conv5_2 <- conv5_1
I1018 20:54:35.800933 26895 net.cpp:408] conv5_2 -> conv5_2
I1018 20:54:35.809868 26895 net.cpp:150] Setting up conv5_2
I1018 20:54:35.809986 26895 net.cpp:157] Top shape: 1 512 48 48 (1179648)
I1018 20:54:35.809994 26895 net.cpp:165] Memory required for data: 1523240108
I1018 20:54:35.810055 26895 layer_factory.hpp:77] Creating layer relu5_2
I1018 20:54:35.810087 26895 net.cpp:100] Creating Layer relu5_2
I1018 20:54:35.810103 26895 net.cpp:434] relu5_2 <- conv5_2
I1018 20:54:35.810117 26895 net.cpp:395] relu5_2 -> conv5_2 (in-place)
I1018 20:54:35.811020 26895 net.cpp:150] Setting up relu5_2
I1018 20:54:35.811043 26895 net.cpp:157] Top shape: 1 512 48 48 (1179648)
I1018 20:54:35.811048 26895 net.cpp:165] Memory required for data: 1527958700
I1018 20:54:35.811054 26895 layer_factory.hpp:77] Creating layer conv5_3
I1018 20:54:35.811070 26895 net.cpp:100] Creating Layer conv5_3
I1018 20:54:35.811079 26895 net.cpp:434] conv5_3 <- conv5_2
I1018 20:54:35.811090 26895 net.cpp:408] conv5_3 -> conv5_3
I1018 20:54:35.817807 26895 net.cpp:150] Setting up conv5_3
I1018 20:54:35.817845 26895 net.cpp:157] Top shape: 1 512 48 48 (1179648)
I1018 20:54:35.817850 26895 net.cpp:165] Memory required for data: 1532677292
I1018 20:54:35.817860 26895 layer_factory.hpp:77] Creating layer relu5_3
I1018 20:54:35.817873 26895 net.cpp:100] Creating Layer relu5_3
I1018 20:54:35.817878 26895 net.cpp:434] relu5_3 <- conv5_3
I1018 20:54:35.817888 26895 net.cpp:395] relu5_3 -> conv5_3 (in-place)
I1018 20:54:35.818503 26895 net.cpp:150] Setting up relu5_3
I1018 20:54:35.818514 26895 net.cpp:157] Top shape: 1 512 48 48 (1179648)
I1018 20:54:35.818517 26895 net.cpp:165] Memory required for data: 1537395884
I1018 20:54:35.818521 26895 layer_factory.hpp:77] Creating layer conv5_3_relu5_3_0_split
I1018 20:54:35.818527 26895 net.cpp:100] Creating Layer conv5_3_relu5_3_0_split
I1018 20:54:35.818531 26895 net.cpp:434] conv5_3_relu5_3_0_split <- conv5_3
I1018 20:54:35.818539 26895 net.cpp:408] conv5_3_relu5_3_0_split -> conv5_3_relu5_3_0_split_0
I1018 20:54:35.818547 26895 net.cpp:408] conv5_3_relu5_3_0_split -> conv5_3_relu5_3_0_split_1
I1018 20:54:35.818564 26895 net.cpp:408] conv5_3_relu5_3_0_split -> conv5_3_relu5_3_0_split_2
I1018 20:54:35.818624 26895 net.cpp:150] Setting up conv5_3_relu5_3_0_split
I1018 20:54:35.818631 26895 net.cpp:157] Top shape: 1 512 48 48 (1179648)
I1018 20:54:35.818636 26895 net.cpp:157] Top shape: 1 512 48 48 (1179648)
I1018 20:54:35.818642 26895 net.cpp:157] Top shape: 1 512 48 48 (1179648)
I1018 20:54:35.818646 26895 net.cpp:165] Memory required for data: 1551551660
I1018 20:54:35.818650 26895 layer_factory.hpp:77] Creating layer LFCN_2_5x5
I1018 20:54:35.818666 26895 net.cpp:100] Creating Layer LFCN_2_5x5
I1018 20:54:35.818675 26895 net.cpp:434] LFCN_2_5x5 <- conv5_3_relu5_3_0_split_0
I1018 20:54:35.818682 26895 net.cpp:408] LFCN_2_5x5 -> LFCN_2_5x5
I1018 20:54:35.822659 26895 net.cpp:150] Setting up LFCN_2_5x5
I1018 20:54:35.822674 26895 net.cpp:157] Top shape: 1 9 48 48 (20736)
I1018 20:54:35.822677 26895 net.cpp:165] Memory required for data: 1551634604
I1018 20:54:35.822682 26895 layer_factory.hpp:77] Creating layer LFCN_2_5x5_LFCN_2_5x5_0_split
I1018 20:54:35.822690 26895 net.cpp:100] Creating Layer LFCN_2_5x5_LFCN_2_5x5_0_split
I1018 20:54:35.822692 26895 net.cpp:434] LFCN_2_5x5_LFCN_2_5x5_0_split <- LFCN_2_5x5
I1018 20:54:35.822698 26895 net.cpp:408] LFCN_2_5x5_LFCN_2_5x5_0_split -> LFCN_2_5x5_LFCN_2_5x5_0_split_0
I1018 20:54:35.822705 26895 net.cpp:408] LFCN_2_5x5_LFCN_2_5x5_0_split -> LFCN_2_5x5_LFCN_2_5x5_0_split_1
I1018 20:54:35.822746 26895 net.cpp:150] Setting up LFCN_2_5x5_LFCN_2_5x5_0_split
I1018 20:54:35.822754 26895 net.cpp:157] Top shape: 1 9 48 48 (20736)
I1018 20:54:35.822758 26895 net.cpp:157] Top shape: 1 9 48 48 (20736)
I1018 20:54:35.822762 26895 net.cpp:165] Memory required for data: 1551800492
I1018 20:54:35.822764 26895 layer_factory.hpp:77] Creating layer detection_loss_2_5x5
I1018 20:54:35.822772 26895 net.cpp:100] Creating Layer detection_loss_2_5x5
I1018 20:54:35.822774 26895 net.cpp:434] detection_loss_2_5x5 <- LFCN_2_5x5_LFCN_2_5x5_0_split_0
I1018 20:54:35.822780 26895 net.cpp:434] detection_loss_2_5x5 <- label_2_5x5_data_3_split_0
I1018 20:54:35.822785 26895 net.cpp:408] detection_loss_2_5x5 -> loss_2_5x5
I1018 20:54:35.822794 26895 layer_factory.hpp:77] Creating layer detection_loss_2_5x5
I1018 20:54:35.823105 26895 net.cpp:150] Setting up detection_loss_2_5x5
I1018 20:54:35.823138 26895 net.cpp:157] Top shape: 1 1 1 2 (2)
I1018 20:54:35.823143 26895 net.cpp:160]     with loss weight 1
I1018 20:54:35.823154 26895 net.cpp:165] Memory required for data: 1551800500
I1018 20:54:35.823158 26895 layer_factory.hpp:77] Creating layer detection_accuracy_2_5x5
I1018 20:54:35.823166 26895 net.cpp:100] Creating Layer detection_accuracy_2_5x5
I1018 20:54:35.823170 26895 net.cpp:434] detection_accuracy_2_5x5 <- LFCN_2_5x5_LFCN_2_5x5_0_split_1
I1018 20:54:35.823174 26895 net.cpp:434] detection_accuracy_2_5x5 <- label_2_5x5_data_3_split_1
I1018 20:54:35.823179 26895 net.cpp:408] detection_accuracy_2_5x5 -> accuracy_2_5x5
I1018 20:54:35.823186 26895 net.cpp:408] detection_accuracy_2_5x5 -> boxiou_2_5x5
I1018 20:54:35.823222 26895 net.cpp:150] Setting up detection_accuracy_2_5x5
I1018 20:54:35.823228 26895 net.cpp:157] Top shape: 1 1 1 2 (2)
I1018 20:54:35.823232 26895 net.cpp:157] Top shape: 1 1 1 1 (1)
I1018 20:54:35.823235 26895 net.cpp:165] Memory required for data: 1551800512
I1018 20:54:35.823238 26895 layer_factory.hpp:77] Creating layer LFCN_2_7x7
I1018 20:54:35.823246 26895 net.cpp:100] Creating Layer LFCN_2_7x7
I1018 20:54:35.823251 26895 net.cpp:434] LFCN_2_7x7 <- conv5_3_relu5_3_0_split_1
I1018 20:54:35.823256 26895 net.cpp:408] LFCN_2_7x7 -> LFCN_2_7x7
I1018 20:54:35.830302 26895 net.cpp:150] Setting up LFCN_2_7x7
I1018 20:54:35.830315 26895 net.cpp:157] Top shape: 1 9 48 48 (20736)
I1018 20:54:35.830318 26895 net.cpp:165] Memory required for data: 1551883456
I1018 20:54:35.830324 26895 layer_factory.hpp:77] Creating layer LFCN_2_7x7_LFCN_2_7x7_0_split
I1018 20:54:35.830330 26895 net.cpp:100] Creating Layer LFCN_2_7x7_LFCN_2_7x7_0_split
I1018 20:54:35.830334 26895 net.cpp:434] LFCN_2_7x7_LFCN_2_7x7_0_split <- LFCN_2_7x7
I1018 20:54:35.830338 26895 net.cpp:408] LFCN_2_7x7_LFCN_2_7x7_0_split -> LFCN_2_7x7_LFCN_2_7x7_0_split_0
I1018 20:54:35.830343 26895 net.cpp:408] LFCN_2_7x7_LFCN_2_7x7_0_split -> LFCN_2_7x7_LFCN_2_7x7_0_split_1
I1018 20:54:35.830374 26895 net.cpp:150] Setting up LFCN_2_7x7_LFCN_2_7x7_0_split
I1018 20:54:35.830379 26895 net.cpp:157] Top shape: 1 9 48 48 (20736)
I1018 20:54:35.830384 26895 net.cpp:157] Top shape: 1 9 48 48 (20736)
I1018 20:54:35.830385 26895 net.cpp:165] Memory required for data: 1552049344
I1018 20:54:35.830389 26895 layer_factory.hpp:77] Creating layer detection_loss_2_7x7
I1018 20:54:35.830394 26895 net.cpp:100] Creating Layer detection_loss_2_7x7
I1018 20:54:35.830399 26895 net.cpp:434] detection_loss_2_7x7 <- LFCN_2_7x7_LFCN_2_7x7_0_split_0
I1018 20:54:35.830402 26895 net.cpp:434] detection_loss_2_7x7 <- label_2_7x7_data_4_split_0
I1018 20:54:35.830407 26895 net.cpp:408] detection_loss_2_7x7 -> loss_2_7x7
I1018 20:54:35.830415 26895 layer_factory.hpp:77] Creating layer detection_loss_2_7x7
I1018 20:54:35.830710 26895 net.cpp:150] Setting up detection_loss_2_7x7
I1018 20:54:35.830719 26895 net.cpp:157] Top shape: 1 1 1 2 (2)
I1018 20:54:35.830723 26895 net.cpp:160]     with loss weight 1
I1018 20:54:35.830731 26895 net.cpp:165] Memory required for data: 1552049352
I1018 20:54:35.830734 26895 layer_factory.hpp:77] Creating layer detection_accuracy_2_7x7
I1018 20:54:35.830746 26895 net.cpp:100] Creating Layer detection_accuracy_2_7x7
I1018 20:54:35.830751 26895 net.cpp:434] detection_accuracy_2_7x7 <- LFCN_2_7x7_LFCN_2_7x7_0_split_1
I1018 20:54:35.830756 26895 net.cpp:434] detection_accuracy_2_7x7 <- label_2_7x7_data_4_split_1
I1018 20:54:35.830761 26895 net.cpp:408] detection_accuracy_2_7x7 -> accuracy_2_7x7
I1018 20:54:35.830767 26895 net.cpp:408] detection_accuracy_2_7x7 -> boxiou_2_7x7
I1018 20:54:35.830802 26895 net.cpp:150] Setting up detection_accuracy_2_7x7
I1018 20:54:35.830809 26895 net.cpp:157] Top shape: 1 1 1 2 (2)
I1018 20:54:35.830812 26895 net.cpp:157] Top shape: 1 1 1 1 (1)
I1018 20:54:35.830816 26895 net.cpp:165] Memory required for data: 1552049364
I1018 20:54:35.830819 26895 layer_factory.hpp:77] Creating layer pool5
I1018 20:54:35.830826 26895 net.cpp:100] Creating Layer pool5
I1018 20:54:35.830828 26895 net.cpp:434] pool5 <- conv5_3_relu5_3_0_split_2
I1018 20:54:35.830834 26895 net.cpp:408] pool5 -> pool5
I1018 20:54:35.830866 26895 net.cpp:150] Setting up pool5
I1018 20:54:35.830873 26895 net.cpp:157] Top shape: 1 512 24 24 (294912)
I1018 20:54:35.830876 26895 net.cpp:165] Memory required for data: 1553229012
I1018 20:54:35.830879 26895 layer_factory.hpp:77] Creating layer conv6_1
I1018 20:54:35.830888 26895 net.cpp:100] Creating Layer conv6_1
I1018 20:54:35.830891 26895 net.cpp:434] conv6_1 <- pool5
I1018 20:54:35.830899 26895 net.cpp:408] conv6_1 -> conv6_1
I1018 20:54:35.893237 26895 net.cpp:150] Setting up conv6_1
I1018 20:54:35.893293 26895 net.cpp:157] Top shape: 1 512 24 24 (294912)
I1018 20:54:35.893298 26895 net.cpp:165] Memory required for data: 1554408660
I1018 20:54:35.893311 26895 layer_factory.hpp:77] Creating layer relu6_1
I1018 20:54:35.893330 26895 net.cpp:100] Creating Layer relu6_1
I1018 20:54:35.893342 26895 net.cpp:434] relu6_1 <- conv6_1
I1018 20:54:35.893350 26895 net.cpp:395] relu6_1 -> conv6_1 (in-place)
I1018 20:54:35.893553 26895 net.cpp:150] Setting up relu6_1
I1018 20:54:35.893569 26895 net.cpp:157] Top shape: 1 512 24 24 (294912)
I1018 20:54:35.893573 26895 net.cpp:165] Memory required for data: 1555588308
I1018 20:54:35.893579 26895 layer_factory.hpp:77] Creating layer conv6_1_relu6_1_0_split
I1018 20:54:35.893595 26895 net.cpp:100] Creating Layer conv6_1_relu6_1_0_split
I1018 20:54:35.893604 26895 net.cpp:434] conv6_1_relu6_1_0_split <- conv6_1
I1018 20:54:35.893616 26895 net.cpp:408] conv6_1_relu6_1_0_split -> conv6_1_relu6_1_0_split_0
I1018 20:54:35.893636 26895 net.cpp:408] conv6_1_relu6_1_0_split -> conv6_1_relu6_1_0_split_1
I1018 20:54:35.893651 26895 net.cpp:408] conv6_1_relu6_1_0_split -> conv6_1_relu6_1_0_split_2
I1018 20:54:35.893823 26895 net.cpp:150] Setting up conv6_1_relu6_1_0_split
I1018 20:54:35.893898 26895 net.cpp:157] Top shape: 1 512 24 24 (294912)
I1018 20:54:35.893904 26895 net.cpp:157] Top shape: 1 512 24 24 (294912)
I1018 20:54:35.893909 26895 net.cpp:157] Top shape: 1 512 24 24 (294912)
I1018 20:54:35.893913 26895 net.cpp:165] Memory required for data: 1559127252
I1018 20:54:35.893919 26895 layer_factory.hpp:77] Creating layer LFCN_3_5x5
I1018 20:54:35.893967 26895 net.cpp:100] Creating Layer LFCN_3_5x5
I1018 20:54:35.893978 26895 net.cpp:434] LFCN_3_5x5 <- conv6_1_relu6_1_0_split_0
I1018 20:54:35.893998 26895 net.cpp:408] LFCN_3_5x5 -> LFCN_3_5x5
I1018 20:54:35.899116 26895 net.cpp:150] Setting up LFCN_3_5x5
I1018 20:54:35.899166 26895 net.cpp:157] Top shape: 1 9 24 24 (5184)
I1018 20:54:35.899173 26895 net.cpp:165] Memory required for data: 1559147988
I1018 20:54:35.899186 26895 layer_factory.hpp:77] Creating layer LFCN_3_5x5_LFCN_3_5x5_0_split
I1018 20:54:35.899204 26895 net.cpp:100] Creating Layer LFCN_3_5x5_LFCN_3_5x5_0_split
I1018 20:54:35.899214 26895 net.cpp:434] LFCN_3_5x5_LFCN_3_5x5_0_split <- LFCN_3_5x5
I1018 20:54:35.899222 26895 net.cpp:408] LFCN_3_5x5_LFCN_3_5x5_0_split -> LFCN_3_5x5_LFCN_3_5x5_0_split_0
I1018 20:54:35.899235 26895 net.cpp:408] LFCN_3_5x5_LFCN_3_5x5_0_split -> LFCN_3_5x5_LFCN_3_5x5_0_split_1
I1018 20:54:35.899273 26895 net.cpp:150] Setting up LFCN_3_5x5_LFCN_3_5x5_0_split
I1018 20:54:35.899281 26895 net.cpp:157] Top shape: 1 9 24 24 (5184)
I1018 20:54:35.899286 26895 net.cpp:157] Top shape: 1 9 24 24 (5184)
I1018 20:54:35.899288 26895 net.cpp:165] Memory required for data: 1559189460
I1018 20:54:35.899291 26895 layer_factory.hpp:77] Creating layer detection_loss_3_5x5
I1018 20:54:35.899302 26895 net.cpp:100] Creating Layer detection_loss_3_5x5
I1018 20:54:35.899304 26895 net.cpp:434] detection_loss_3_5x5 <- LFCN_3_5x5_LFCN_3_5x5_0_split_0
I1018 20:54:35.899310 26895 net.cpp:434] detection_loss_3_5x5 <- label_3_5x5_data_5_split_0
I1018 20:54:35.899317 26895 net.cpp:408] detection_loss_3_5x5 -> loss_3_5x5
I1018 20:54:35.899327 26895 layer_factory.hpp:77] Creating layer detection_loss_3_5x5
I1018 20:54:35.899652 26895 net.cpp:150] Setting up detection_loss_3_5x5
I1018 20:54:35.899664 26895 net.cpp:157] Top shape: 1 1 1 2 (2)
I1018 20:54:35.899667 26895 net.cpp:160]     with loss weight 1
I1018 20:54:35.899685 26895 net.cpp:165] Memory required for data: 1559189468
I1018 20:54:35.899689 26895 layer_factory.hpp:77] Creating layer detection_accuracy_3_5x5
I1018 20:54:35.899696 26895 net.cpp:100] Creating Layer detection_accuracy_3_5x5
I1018 20:54:35.899701 26895 net.cpp:434] detection_accuracy_3_5x5 <- LFCN_3_5x5_LFCN_3_5x5_0_split_1
I1018 20:54:35.899706 26895 net.cpp:434] detection_accuracy_3_5x5 <- label_3_5x5_data_5_split_1
I1018 20:54:35.899711 26895 net.cpp:408] detection_accuracy_3_5x5 -> accuracy_3_5x5
I1018 20:54:35.899720 26895 net.cpp:408] detection_accuracy_3_5x5 -> boxiou_3_5x5
I1018 20:54:35.899762 26895 net.cpp:150] Setting up detection_accuracy_3_5x5
I1018 20:54:35.899768 26895 net.cpp:157] Top shape: 1 1 1 2 (2)
I1018 20:54:35.899772 26895 net.cpp:157] Top shape: 1 1 1 1 (1)
I1018 20:54:35.899775 26895 net.cpp:165] Memory required for data: 1559189480
I1018 20:54:35.899778 26895 layer_factory.hpp:77] Creating layer LFCN_3_7x7
I1018 20:54:35.899794 26895 net.cpp:100] Creating Layer LFCN_3_7x7
I1018 20:54:35.899801 26895 net.cpp:434] LFCN_3_7x7 <- conv6_1_relu6_1_0_split_1
I1018 20:54:35.899806 26895 net.cpp:408] LFCN_3_7x7 -> LFCN_3_7x7
I1018 20:54:35.909612 26895 net.cpp:150] Setting up LFCN_3_7x7
I1018 20:54:35.909662 26895 net.cpp:157] Top shape: 1 9 24 24 (5184)
I1018 20:54:35.909667 26895 net.cpp:165] Memory required for data: 1559210216
I1018 20:54:35.909678 26895 layer_factory.hpp:77] Creating layer LFCN_3_7x7_LFCN_3_7x7_0_split
I1018 20:54:35.909694 26895 net.cpp:100] Creating Layer LFCN_3_7x7_LFCN_3_7x7_0_split
I1018 20:54:35.909703 26895 net.cpp:434] LFCN_3_7x7_LFCN_3_7x7_0_split <- LFCN_3_7x7
I1018 20:54:35.909713 26895 net.cpp:408] LFCN_3_7x7_LFCN_3_7x7_0_split -> LFCN_3_7x7_LFCN_3_7x7_0_split_0
I1018 20:54:35.909724 26895 net.cpp:408] LFCN_3_7x7_LFCN_3_7x7_0_split -> LFCN_3_7x7_LFCN_3_7x7_0_split_1
I1018 20:54:35.909776 26895 net.cpp:150] Setting up LFCN_3_7x7_LFCN_3_7x7_0_split
I1018 20:54:35.909787 26895 net.cpp:157] Top shape: 1 9 24 24 (5184)
I1018 20:54:35.909791 26895 net.cpp:157] Top shape: 1 9 24 24 (5184)
I1018 20:54:35.909795 26895 net.cpp:165] Memory required for data: 1559251688
I1018 20:54:35.909797 26895 layer_factory.hpp:77] Creating layer detection_loss_3_7x7
I1018 20:54:35.909806 26895 net.cpp:100] Creating Layer detection_loss_3_7x7
I1018 20:54:35.909809 26895 net.cpp:434] detection_loss_3_7x7 <- LFCN_3_7x7_LFCN_3_7x7_0_split_0
I1018 20:54:35.909814 26895 net.cpp:434] detection_loss_3_7x7 <- label_3_7x7_data_6_split_0
I1018 20:54:35.909823 26895 net.cpp:408] detection_loss_3_7x7 -> loss_3_7x7
I1018 20:54:35.909833 26895 layer_factory.hpp:77] Creating layer detection_loss_3_7x7
I1018 20:54:35.910779 26895 net.cpp:150] Setting up detection_loss_3_7x7
I1018 20:54:35.910799 26895 net.cpp:157] Top shape: 1 1 1 2 (2)
I1018 20:54:35.910804 26895 net.cpp:160]     with loss weight 1
I1018 20:54:35.910825 26895 net.cpp:165] Memory required for data: 1559251696
I1018 20:54:35.910830 26895 layer_factory.hpp:77] Creating layer detection_accuracy_3_7x7
I1018 20:54:35.910840 26895 net.cpp:100] Creating Layer detection_accuracy_3_7x7
I1018 20:54:35.910845 26895 net.cpp:434] detection_accuracy_3_7x7 <- LFCN_3_7x7_LFCN_3_7x7_0_split_1
I1018 20:54:35.910851 26895 net.cpp:434] detection_accuracy_3_7x7 <- label_3_7x7_data_6_split_1
I1018 20:54:35.910858 26895 net.cpp:408] detection_accuracy_3_7x7 -> accuracy_3_7x7
I1018 20:54:35.910868 26895 net.cpp:408] detection_accuracy_3_7x7 -> boxiou_3_7x7
I1018 20:54:35.910917 26895 net.cpp:150] Setting up detection_accuracy_3_7x7
I1018 20:54:35.910925 26895 net.cpp:157] Top shape: 1 1 1 2 (2)
I1018 20:54:35.910929 26895 net.cpp:157] Top shape: 1 1 1 1 (1)
I1018 20:54:35.910933 26895 net.cpp:165] Memory required for data: 1559251708
I1018 20:54:35.910935 26895 layer_factory.hpp:77] Creating layer pool6
I1018 20:54:35.910944 26895 net.cpp:100] Creating Layer pool6
I1018 20:54:35.910949 26895 net.cpp:434] pool6 <- conv6_1_relu6_1_0_split_2
I1018 20:54:35.910957 26895 net.cpp:408] pool6 -> pool6
I1018 20:54:35.910993 26895 net.cpp:150] Setting up pool6
I1018 20:54:35.911000 26895 net.cpp:157] Top shape: 1 512 12 12 (73728)
I1018 20:54:35.911005 26895 net.cpp:165] Memory required for data: 1559546620
I1018 20:54:35.911007 26895 layer_factory.hpp:77] Creating layer LFCN_4_5x5
I1018 20:54:35.911021 26895 net.cpp:100] Creating Layer LFCN_4_5x5
I1018 20:54:35.911026 26895 net.cpp:434] LFCN_4_5x5 <- pool6
I1018 20:54:35.911031 26895 net.cpp:408] LFCN_4_5x5 -> LFCN_4_5x5
I1018 20:54:35.914803 26895 net.cpp:150] Setting up LFCN_4_5x5
I1018 20:54:35.914832 26895 net.cpp:157] Top shape: 1 9 12 12 (1296)
I1018 20:54:35.914836 26895 net.cpp:165] Memory required for data: 1559551804
I1018 20:54:35.914845 26895 layer_factory.hpp:77] Creating layer LFCN_4_5x5_LFCN_4_5x5_0_split
I1018 20:54:35.914857 26895 net.cpp:100] Creating Layer LFCN_4_5x5_LFCN_4_5x5_0_split
I1018 20:54:35.914862 26895 net.cpp:434] LFCN_4_5x5_LFCN_4_5x5_0_split <- LFCN_4_5x5
I1018 20:54:35.914870 26895 net.cpp:408] LFCN_4_5x5_LFCN_4_5x5_0_split -> LFCN_4_5x5_LFCN_4_5x5_0_split_0
I1018 20:54:35.914880 26895 net.cpp:408] LFCN_4_5x5_LFCN_4_5x5_0_split -> LFCN_4_5x5_LFCN_4_5x5_0_split_1
I1018 20:54:35.914914 26895 net.cpp:150] Setting up LFCN_4_5x5_LFCN_4_5x5_0_split
I1018 20:54:35.914922 26895 net.cpp:157] Top shape: 1 9 12 12 (1296)
I1018 20:54:35.914927 26895 net.cpp:157] Top shape: 1 9 12 12 (1296)
I1018 20:54:35.914929 26895 net.cpp:165] Memory required for data: 1559562172
I1018 20:54:35.914932 26895 layer_factory.hpp:77] Creating layer detection_loss_4_5x5
I1018 20:54:35.914939 26895 net.cpp:100] Creating Layer detection_loss_4_5x5
I1018 20:54:35.914942 26895 net.cpp:434] detection_loss_4_5x5 <- LFCN_4_5x5_LFCN_4_5x5_0_split_0
I1018 20:54:35.914947 26895 net.cpp:434] detection_loss_4_5x5 <- label_4_5x5_data_7_split_0
I1018 20:54:35.914954 26895 net.cpp:408] detection_loss_4_5x5 -> loss_4_5x5
I1018 20:54:35.914963 26895 layer_factory.hpp:77] Creating layer detection_loss_4_5x5
I1018 20:54:35.917789 26895 net.cpp:150] Setting up detection_loss_4_5x5
I1018 20:54:35.917805 26895 net.cpp:157] Top shape: 1 1 1 2 (2)
I1018 20:54:35.917809 26895 net.cpp:160]     with loss weight 1
I1018 20:54:35.917820 26895 net.cpp:165] Memory required for data: 1559562180
I1018 20:54:35.917824 26895 layer_factory.hpp:77] Creating layer detection_accuracy_4_5x5
I1018 20:54:35.917831 26895 net.cpp:100] Creating Layer detection_accuracy_4_5x5
I1018 20:54:35.917835 26895 net.cpp:434] detection_accuracy_4_5x5 <- LFCN_4_5x5_LFCN_4_5x5_0_split_1
I1018 20:54:35.917840 26895 net.cpp:434] detection_accuracy_4_5x5 <- label_4_5x5_data_7_split_1
I1018 20:54:35.917846 26895 net.cpp:408] detection_accuracy_4_5x5 -> accuracy_4_5x5
I1018 20:54:35.917853 26895 net.cpp:408] detection_accuracy_4_5x5 -> boxiou_4_5x5
I1018 20:54:35.917896 26895 net.cpp:150] Setting up detection_accuracy_4_5x5
I1018 20:54:35.917902 26895 net.cpp:157] Top shape: 1 1 1 2 (2)
I1018 20:54:35.917906 26895 net.cpp:157] Top shape: 1 1 1 1 (1)
I1018 20:54:35.917909 26895 net.cpp:165] Memory required for data: 1559562192
I1018 20:54:35.917912 26895 net.cpp:228] detection_accuracy_4_5x5 does not need backward computation.
I1018 20:54:35.917917 26895 net.cpp:226] detection_loss_4_5x5 needs backward computation.
I1018 20:54:35.917920 26895 net.cpp:226] LFCN_4_5x5_LFCN_4_5x5_0_split needs backward computation.
I1018 20:54:35.917923 26895 net.cpp:226] LFCN_4_5x5 needs backward computation.
…
I1018 20:54:35.930994 26895 image_gt_data_layer.cpp:235] output label size 1 : 2,6,96,96
I1018 20:54:35.931052 26895 image_gt_data_layer.cpp:235] output label size 2 : 2,6,48,48
I1018 20:54:35.931109 26895 image_gt_data_layer.cpp:235] output label size 3 : 2,6,48,48
I1018 20:54:35.931167 26895 image_gt_data_layer.cpp:235] output label size 4 : 2,6,24,24
I1018 20:54:35.931224 26895 image_gt_data_layer.cpp:235] output label size 5 : 2,6,24,24
I1018 20:54:35.931282 26895 image_gt_data_layer.cpp:235] output label size 6 : 2,6,12,12
I1018 20:54:35.969416 26895 net.cpp:150] Setting up data
I1018 20:54:35.969446 26895 net.cpp:157] Top shape: 2 4 768 768 (4718592)
I1018 20:54:35.969453 26895 net.cpp:157] Top shape: 2 6 96 96 (110592)
I1018 20:54:35.969457 26895 net.cpp:157] Top shape: 2 6 96 96 (110592)
I1018 20:54:35.969465 26895 net.cpp:157] Top shape: 2 6 48 48 (27648)
I1018 20:54:35.969468 26895 net.cpp:157] Top shape: 2 6 48 48 (27648)
I1018 20:54:35.969472 26895 net.cpp:157] Top shape: 2 6 24 24 (6912)
I1018 20:54:35.969476 26895 net.cpp:157] Top shape: 2 6 24 24 (6912)
I1018 20:54:35.969480 26895 net.cpp:157] Top shape: 2 6 12 12 (1728)
I1018 20:54:35.969485 26895 net.cpp:165] Memory required for data: 20042496
I1018 20:54:35.969491 26895 layer_factory.hpp:77] Creating layer label_1_5x5_data_1_split
I1018 20:54:35.969504 26895 net.cpp:100] Creating Layer label_1_5x5_data_1_split
I1018 20:54:35.969509 26895 net.cpp:434] label_1_5x5_data_1_split <- label_1_5x5
I1018 20:54:35.969516 26895 net.cpp:408] label_1_5x5_data_1_split -> label_1_5x5_data_1_split_0
I1018 20:54:35.969525 26895 net.cpp:408] label_1_5x5_data_1_split -> label_1_5x5_data_1_split_1
I1018 20:54:35.969856 26895 net.cpp:150] Setting up label_1_5x5_data_1_split
I1018 20:54:35.969900 26895 net.cpp:157] Top shape: 2 6 96 96 (110592)
I1018 20:54:35.969913 26895 net.cpp:157] Top shape: 2 6 96 96 (110592)
I1018 20:54:35.969920 26895 net.cpp:165] Memory required for data: 20927232
I1018 20:54:35.969931 26895 layer_factory.hpp:77] Creating layer label_1_7x7_data_2_split
I1018 20:54:35.969954 26895 net.cpp:100] Creating Layer label_1_7x7_data_2_split
I1018 20:54:35.969964 26895 net.cpp:434] label_1_7x7_data_2_split <- label_1_7x7
I1018 20:54:35.969976 26895 net.cpp:408] label_1_7x7_data_2_split -> label_1_7x7_data_2_split_0
I1018 20:54:35.969995 26895 net.cpp:408] label_1_7x7_data_2_split -> label_1_7x7_data_2_split_1
I1018 20:54:35.970077 26895 net.cpp:150] Setting up label_1_7x7_data_2_split
I1018 20:54:35.970088 26895 net.cpp:157] Top shape: 2 6 96 96 (110592)
I1018 20:54:35.970098 26895 net.cpp:157] Top shape: 2 6 96 96 (110592)
I1018 20:54:35.970108 26895 net.cpp:165] Memory required for data: 21811968
I1018 20:54:35.970114 26895 layer_factory.hpp:77] Creating layer label_2_5x5_data_3_split
I1018 20:54:35.970125 26895 net.cpp:100] Creating Layer label_2_5x5_data_3_split
I1018 20:54:35.970132 26895 net.cpp:434] label_2_5x5_data_3_split <- label_2_5x5
I1018 20:54:35.970144 26895 net.cpp:408] label_2_5x5_data_3_split -> label_2_5x5_data_3_split_0
I1018 20:54:35.970157 26895 net.cpp:408] label_2_5x5_data_3_split -> label_2_5x5_data_3_split_1
I1018 20:54:35.970228 26895 net.cpp:150] Setting up label_2_5x5_data_3_split
I1018 20:54:35.970242 26895 net.cpp:157] Top shape: 2 6 48 48 (27648)
I1018 20:54:35.970252 26895 net.cpp:157] Top shape: 2 6 48 48 (27648)
I1018 20:54:35.970259 26895 net.cpp:165] Memory required for data: 22033152
I1018 20:54:35.970266 26895 layer_factory.hpp:77] Creating layer label_2_7x7_data_4_split
I1018 20:54:35.970278 26895 net.cpp:100] Creating Layer label_2_7x7_data_4_split
I1018 20:54:35.970285 26895 net.cpp:434] label_2_7x7_data_4_split <- label_2_7x7
I1018 20:54:35.970296 26895 net.cpp:408] label_2_7x7_data_4_split -> label_2_7x7_data_4_split_0
I1018 20:54:35.970309 26895 net.cpp:408] label_2_7x7_data_4_split -> label_2_7x7_data_4_split_1
I1018 20:54:35.970388 26895 net.cpp:150] Setting up label_2_7x7_data_4_split
I1018 20:54:35.970412 26895 net.cpp:157] Top shape: 2 6 48 48 (27648)
I1018 20:54:35.970424 26895 net.cpp:157] Top shape: 2 6 48 48 (27648)
I1018 20:54:35.970432 26895 net.cpp:165] Memory required for data: 22254336
I1018 20:54:35.970438 26895 layer_factory.hpp:77] Creating layer label_3_5x5_data_5_split
I1018 20:54:35.970448 26895 net.cpp:100] Creating Layer label_3_5x5_data_5_split
I1018 20:54:35.970458 26895 net.cpp:434] label_3_5x5_data_5_split <- label_3_5x5
I1018 20:54:35.970468 26895 net.cpp:408] label_3_5x5_data_5_split -> label_3_5x5_data_5_split_0
I1018 20:54:35.970484 26895 net.cpp:408] label_3_5x5_data_5_split -> label_3_5x5_data_5_split_1
I1018 20:54:35.970561 26895 net.cpp:150] Setting up label_3_5x5_data_5_split
I1018 20:54:35.970573 26895 net.cpp:157] Top shape: 2 6 24 24 (6912)
I1018 20:54:35.970583 26895 net.cpp:157] Top shape: 2 6 24 24 (6912)
I1018 20:54:35.970592 26895 net.cpp:165] Memory required for data: 22309632
I1018 20:54:35.970599 26895 layer_factory.hpp:77] Creating layer label_3_7x7_data_6_split
I1018 20:54:35.970610 26895 net.cpp:100] Creating Layer label_3_7x7_data_6_split
I1018 20:54:35.970619 26895 net.cpp:434] label_3_7x7_data_6_split <- label_3_7x7
I1018 20:54:35.970629 26895 net.cpp:408] label_3_7x7_data_6_split -> label_3_7x7_data_6_split_0
I1018 20:54:35.970643 26895 net.cpp:408] label_3_7x7_data_6_split -> label_3_7x7_data_6_split_1
I1018 20:54:35.970719 26895 net.cpp:150] Setting up label_3_7x7_data_6_split
I1018 20:54:35.970732 26895 net.cpp:157] Top shape: 2 6 24 24 (6912)
I1018 20:54:35.970741 26895 net.cpp:157] Top shape: 2 6 24 24 (6912)
I1018 20:54:35.970749 26895 net.cpp:165] Memory required for data: 22364928
I1018 20:54:35.970757 26895 layer_factory.hpp:77] Creating layer label_4_5x5_data_7_split
I1018 20:54:35.970768 26895 net.cpp:100] Creating Layer label_4_5x5_data_7_split
I1018 20:54:35.970775 26895 net.cpp:434] label_4_5x5_data_7_split <- label_4_5x5
I1018 20:54:35.970785 26895 net.cpp:408] label_4_5x5_data_7_split -> label_4_5x5_data_7_split_0
I1018 20:54:35.970796 26895 net.cpp:408] label_4_5x5_data_7_split -> label_4_5x5_data_7_split_1
I1018 20:54:35.970876 26895 net.cpp:150] Setting up label_4_5x5_data_7_split
I1018 20:54:35.970890 26895 net.cpp:157] Top shape: 2 6 12 12 (1728)
I1018 20:54:35.970899 26895 net.cpp:157] Top shape: 2 6 12 12 (1728)
I1018 20:54:35.970907 26895 net.cpp:165] Memory required for data: 22378752
I1018 20:54:35.970914 26895 layer_factory.hpp:77] Creating layer slice
I1018 20:54:35.970929 26895 net.cpp:100] Creating Layer slice
I1018 20:54:35.970938 26895 net.cpp:434] slice <- data
I1018 20:54:35.970952 26895 net.cpp:408] slice -> data123
I1018 20:54:35.970965 26895 net.cpp:408] slice -> ch4
I1018 20:54:35.971040 26895 net.cpp:150] Setting up slice
I1018 20:54:35.971053 26895 net.cpp:157] Top shape: 2 3 768 768 (3538944)
I1018 20:54:35.971062 26895 net.cpp:157] Top shape: 2 1 768 768 (1179648)
I1018 20:54:35.971071 26895 net.cpp:165] Memory required for data: 41253120
I1018 20:54:35.971077 26895 layer_factory.hpp:77] Creating layer conv1_1
I1018 20:54:35.971094 26895 net.cpp:100] Creating Layer conv1_1
I1018 20:54:35.971103 26895 net.cpp:434] conv1_1 <- data123
I1018 20:54:35.971113 26895 net.cpp:408] conv1_1 -> conv1_1
I1018 20:54:35.979559 26895 net.cpp:150] Setting up conv1_1
I1018 20:54:35.979583 26895 net.cpp:157] Top shape: 2 64 768 768 (75497472)
I1018 20:54:35.979591 26895 net.cpp:165] Memory required for data: 343243008
I1018 20:54:35.979605 26895 layer_factory.hpp:77] Creating layer relu1_1
I1018 20:54:35.979615 26895 net.cpp:100] Creating Layer relu1_1
I1018 20:54:35.979620 26895 net.cpp:434] relu1_1 <- conv1_1
I1018 20:54:35.979626 26895 net.cpp:395] relu1_1 -> conv1_1 (in-place)
I1018 20:54:35.980053 26895 net.cpp:150] Setting up relu1_1
I1018 20:54:35.980093 26895 net.cpp:157] Top shape: 2 64 768 768 (75497472)
I1018 20:54:35.980104 26895 net.cpp:165] Memory required for data: 645232896
I1018 20:54:35.980115 26895 layer_factory.hpp:77] Creating layer conv1_2
I1018 20:54:35.980140 26895 net.cpp:100] Creating Layer conv1_2
I1018 20:54:35.980152 26895 net.cpp:434] conv1_2 <- conv1_1
I1018 20:54:35.980166 26895 net.cpp:408] conv1_2 -> conv1_2
I1018 20:54:35.985642 26895 net.cpp:150] Setting up conv1_2
I1018 20:54:35.985674 26895 net.cpp:157] Top shape: 2 64 768 768 (75497472)
I1018 20:54:35.985683 26895 net.cpp:165] Memory required for data: 947222784
I1018 20:54:35.985705 26895 layer_factory.hpp:77] Creating layer relu1_2
I1018 20:54:35.985718 26895 net.cpp:100] Creating Layer relu1_2
I1018 20:54:35.985724 26895 net.cpp:434] relu1_2 <- conv1_2
I1018 20:54:35.985731 26895 net.cpp:395] relu1_2 -> conv1_2 (in-place)
I1018 20:54:35.985973 26895 net.cpp:150] Setting up relu1_2
I1018 20:54:35.985985 26895 net.cpp:157] Top shape: 2 64 768 768 (75497472)
I1018 20:54:35.985991 26895 net.cpp:165] Memory required for data: 1249212672
I1018 20:54:35.985996 26895 layer_factory.hpp:77] Creating layer pool1
I1018 20:54:35.986006 26895 net.cpp:100] Creating Layer pool1
I1018 20:54:35.986011 26895 net.cpp:434] pool1 <- conv1_2
I1018 20:54:35.986019 26895 net.cpp:408] pool1 -> pool1
I1018 20:54:35.986078 26895 net.cpp:150] Setting up pool1
I1018 20:54:35.986086 26895 net.cpp:157] Top shape: 2 64 384 384 (18874368)
I1018 20:54:35.986090 26895 net.cpp:165] Memory required for data: 1324710144
I1018 20:54:35.986095 26895 layer_factory.hpp:77] Creating layer conv2_1
I1018 20:54:35.986105 26895 net.cpp:100] Creating Layer conv2_1
I1018 20:54:35.986110 26895 net.cpp:434] conv2_1 <- pool1
I1018 20:54:35.986119 26895 net.cpp:408] conv2_1 -> conv2_1
I1018 20:54:35.987931 26895 net.cpp:150] Setting up conv2_1
I1018 20:54:35.987946 26895 net.cpp:157] Top shape: 2 128 384 384 (37748736)
I1018 20:54:35.987951 26895 net.cpp:165] Memory required for data: 1475705088
I1018 20:54:35.987962 26895 layer_factory.hpp:77] Creating layer relu2_1
I1018 20:54:35.987969 26895 net.cpp:100] Creating Layer relu2_1
I1018 20:54:35.987973 26895 net.cpp:434] relu2_1 <- conv2_1
I1018 20:54:35.987980 26895 net.cpp:395] relu2_1 -> conv2_1 (in-place)
I1018 20:54:35.988170 26895 net.cpp:150] Setting up relu2_1
I1018 20:54:35.988179 26895 net.cpp:157] Top shape: 2 128 384 384 (37748736)
I1018 20:54:35.988183 26895 net.cpp:165] Memory required for data: 1626700032
I1018 20:54:35.988188 26895 layer_factory.hpp:77] Creating layer conv2_2
I1018 20:54:35.988200 26895 net.cpp:100] Creating Layer conv2_2
I1018 20:54:35.988204 26895 net.cpp:434] conv2_2 <- conv2_1
I1018 20:54:35.988210 26895 net.cpp:408] conv2_2 -> conv2_2
I1018 20:54:35.991200 26895 net.cpp:150] Setting up conv2_2
I1018 20:54:35.991219 26895 net.cpp:157] Top shape: 2 128 384 384 (37748736)
I1018 20:54:35.991222 26895 net.cpp:165] Memory required for data: 1777694976
I1018 20:54:35.991230 26895 layer_factory.hpp:77] Creating layer relu2_2
I1018 20:54:35.991240 26895 net.cpp:100] Creating Layer relu2_2
I1018 20:54:35.991246 26895 net.cpp:434] relu2_2 <- conv2_2
I1018 20:54:35.991255 26895 net.cpp:395] relu2_2 -> conv2_2 (in-place)
I1018 20:54:35.992003 26895 net.cpp:150] Setting up relu2_2
I1018 20:54:35.992111 26895 net.cpp:157] Top shape: 2 128 384 384 (37748736)
I1018 20:54:35.992126 26895 net.cpp:165] Memory required for data: 1928689920
I1018 20:54:35.992141 26895 layer_factory.hpp:77] Creating layer pool2
I1018 20:54:35.992177 26895 net.cpp:100] Creating Layer pool2
I1018 20:54:35.992205 26895 net.cpp:434] pool2 <- conv2_2
I1018 20:54:35.992238 26895 net.cpp:408] pool2 -> pool2
I1018 20:54:35.992630 26895 net.cpp:150] Setting up pool2
I1018 20:54:35.992678 26895 net.cpp:157] Top shape: 2 128 192 192 (9437184)
I1018 20:54:35.992691 26895 net.cpp:165] Memory required for data: 1966438656
I1018 20:54:35.992698 26895 layer_factory.hpp:77] Creating layer conv3_1
I1018 20:54:35.992743 26895 net.cpp:100] Creating Layer conv3_1
I1018 20:54:35.992756 26895 net.cpp:434] conv3_1 <- pool2
I1018 20:54:35.992775 26895 net.cpp:408] conv3_1 -> conv3_1
I1018 20:54:36.000208 26895 net.cpp:150] Setting up conv3_1
I1018 20:54:36.000239 26895 net.cpp:157] Top shape: 2 256 192 192 (18874368)
I1018 20:54:36.000243 26895 net.cpp:165] Memory required for data: 2041936128
I1018 20:54:36.000262 26895 layer_factory.hpp:77] Creating layer relu3_1
I1018 20:54:36.000275 26895 net.cpp:100] Creating Layer relu3_1
I1018 20:54:36.000280 26895 net.cpp:434] relu3_1 <- conv3_1
I1018 20:54:36.000288 26895 net.cpp:395] relu3_1 -> conv3_1 (in-place)
I1018 20:54:36.000810 26895 net.cpp:150] Setting up relu3_1
I1018 20:54:36.000823 26895 net.cpp:157] Top shape: 2 256 192 192 (18874368)
I1018 20:54:36.000828 26895 net.cpp:165] Memory required for data: 2117433600
I1018 20:54:36.000831 26895 layer_factory.hpp:77] Creating layer conv3_2
I1018 20:54:36.000844 26895 net.cpp:100] Creating Layer conv3_2
I1018 20:54:36.000849 26895 net.cpp:434] conv3_2 <- conv3_1
I1018 20:54:36.000855 26895 net.cpp:408] conv3_2 -> conv3_2
I1018 20:54:36.003571 26895 net.cpp:150] Setting up conv3_2
I1018 20:54:36.003587 26895 net.cpp:157] Top shape: 2 256 192 192 (18874368)
I1018 20:54:36.003592 26895 net.cpp:165] Memory required for data: 2192931072
I1018 20:54:36.003600 26895 layer_factory.hpp:77] Creating layer relu3_2
I1018 20:54:36.003608 26895 net.cpp:100] Creating Layer relu3_2
I1018 20:54:36.003614 26895 net.cpp:434] relu3_2 <- conv3_2
I1018 20:54:36.003621 26895 net.cpp:395] relu3_2 -> conv3_2 (in-place)
I1018 20:54:36.003818 26895 net.cpp:150] Setting up relu3_2
I1018 20:54:36.003826 26895 net.cpp:157] Top shape: 2 256 192 192 (18874368)
I1018 20:54:36.003830 26895 net.cpp:165] Memory required for data: 2268428544
I1018 20:54:36.003834 26895 layer_factory.hpp:77] Creating layer conv3_3
I1018 20:54:36.003844 26895 net.cpp:100] Creating Layer conv3_3
I1018 20:54:36.003849 26895 net.cpp:434] conv3_3 <- conv3_2
I1018 20:54:36.003854 26895 net.cpp:408] conv3_3 -> conv3_3
I1018 20:54:36.007860 26895 net.cpp:150] Setting up conv3_3
I1018 20:54:36.007899 26895 net.cpp:157] Top shape: 2 256 192 192 (18874368)
I1018 20:54:36.007907 26895 net.cpp:165] Memory required for data: 2343926016
I1018 20:54:36.007926 26895 layer_factory.hpp:77] Creating layer relu3_3
I1018 20:54:36.007947 26895 net.cpp:100] Creating Layer relu3_3
I1018 20:54:36.007969 26895 net.cpp:434] relu3_3 <- conv3_3
I1018 20:54:36.007983 26895 net.cpp:395] relu3_3 -> conv3_3 (in-place)
I1018 20:54:36.008419 26895 net.cpp:150] Setting up relu3_3
I1018 20:54:36.008442 26895 net.cpp:157] Top shape: 2 256 192 192 (18874368)
I1018 20:54:36.008450 26895 net.cpp:165] Memory required for data: 2419423488
I1018 20:54:36.008458 26895 layer_factory.hpp:77] Creating layer pool3
I1018 20:54:36.008472 26895 net.cpp:100] Creating Layer pool3
I1018 20:54:36.008482 26895 net.cpp:434] pool3 <- conv3_3
I1018 20:54:36.008494 26895 net.cpp:408] pool3 -> pool3
I1018 20:54:36.008597 26895 net.cpp:150] Setting up pool3
I1018 20:54:36.008611 26895 net.cpp:157] Top shape: 2 256 96 96 (4718592)
I1018 20:54:36.008620 26895 net.cpp:165] Memory required for data: 2438297856
I1018 20:54:36.008626 26895 layer_factory.hpp:77] Creating layer conv4_1
I1018 20:54:36.008648 26895 net.cpp:100] Creating Layer conv4_1
I1018 20:54:36.008658 26895 net.cpp:434] conv4_1 <- pool3
I1018 20:54:36.008671 26895 net.cpp:408] conv4_1 -> conv4_1
I1018 20:54:36.018858 26895 net.cpp:150] Setting up conv4_1
I1018 20:54:36.018918 26895 net.cpp:157] Top shape: 2 512 96 96 (9437184)
I1018 20:54:36.018926 26895 net.cpp:165] Memory required for data: 2476046592
I1018 20:54:36.018951 26895 layer_factory.hpp:77] Creating layer relu4_1
I1018 20:54:36.018980 26895 net.cpp:100] Creating Layer relu4_1
I1018 20:54:36.018998 26895 net.cpp:434] relu4_1 <- conv4_1
I1018 20:54:36.019016 26895 net.cpp:395] relu4_1 -> conv4_1 (in-place)
I1018 20:54:36.019529 26895 net.cpp:150] Setting up relu4_1
I1018 20:54:36.019551 26895 net.cpp:157] Top shape: 2 512 96 96 (9437184)
I1018 20:54:36.019559 26895 net.cpp:165] Memory required for data: 2513795328
I1018 20:54:36.019567 26895 layer_factory.hpp:77] Creating layer conv4_2
I1018 20:54:36.019585 26895 net.cpp:100] Creating Layer conv4_2
I1018 20:54:36.019595 26895 net.cpp:434] conv4_2 <- conv4_1
I1018 20:54:36.019606 26895 net.cpp:408] conv4_2 -> conv4_2
I1018 20:54:36.030561 26895 net.cpp:150] Setting up conv4_2
I1018 20:54:36.030620 26895 net.cpp:157] Top shape: 2 512 96 96 (9437184)
I1018 20:54:36.030627 26895 net.cpp:165] Memory required for data: 2551544064
I1018 20:54:36.030656 26895 layer_factory.hpp:77] Creating layer relu4_2
I1018 20:54:36.030678 26895 net.cpp:100] Creating Layer relu4_2
I1018 20:54:36.030689 26895 net.cpp:434] relu4_2 <- conv4_2
I1018 20:54:36.030700 26895 net.cpp:395] relu4_2 -> conv4_2 (in-place)
I1018 20:54:36.030983 26895 net.cpp:150] Setting up relu4_2
I1018 20:54:36.030997 26895 net.cpp:157] Top shape: 2 512 96 96 (9437184)
I1018 20:54:36.031002 26895 net.cpp:165] Memory required for data: 2589292800
I1018 20:54:36.031005 26895 layer_factory.hpp:77] Creating layer conv4_3
I1018 20:54:36.031024 26895 net.cpp:100] Creating Layer conv4_3
I1018 20:54:36.031030 26895 net.cpp:434] conv4_3 <- conv4_2
I1018 20:54:36.031044 26895 net.cpp:408] conv4_3 -> conv4_3
I1018 20:54:36.045104 26895 net.cpp:150] Setting up conv4_3
I1018 20:54:36.045145 26895 net.cpp:157] Top shape: 2 512 96 96 (9437184)
I1018 20:54:36.045150 26895 net.cpp:165] Memory required for data: 2627041536
I1018 20:54:36.045162 26895 layer_factory.hpp:77] Creating layer relu4_3
I1018 20:54:36.045181 26895 net.cpp:100] Creating Layer relu4_3
I1018 20:54:36.045188 26895 net.cpp:434] relu4_3 <- conv4_3
I1018 20:54:36.045198 26895 net.cpp:395] relu4_3 -> conv4_3 (in-place)
I1018 20:54:36.045397 26895 net.cpp:150] Setting up relu4_3
I1018 20:54:36.045410 26895 net.cpp:157] Top shape: 2 512 96 96 (9437184)
I1018 20:54:36.045415 26895 net.cpp:165] Memory required for data: 2664790272
I1018 20:54:36.045419 26895 layer_factory.hpp:77] Creating layer conv4_3_relu4_3_0_split
I1018 20:54:36.045434 26895 net.cpp:100] Creating Layer conv4_3_relu4_3_0_split
I1018 20:54:36.045439 26895 net.cpp:434] conv4_3_relu4_3_0_split <- conv4_3
I1018 20:54:36.045444 26895 net.cpp:408] conv4_3_relu4_3_0_split -> conv4_3_relu4_3_0_split_0
I1018 20:54:36.045452 26895 net.cpp:408] conv4_3_relu4_3_0_split -> conv4_3_relu4_3_0_split_1
I1018 20:54:36.045459 26895 net.cpp:408] conv4_3_relu4_3_0_split -> conv4_3_relu4_3_0_split_2
I1018 20:54:36.045522 26895 net.cpp:150] Setting up conv4_3_relu4_3_0_split
I1018 20:54:36.045531 26895 net.cpp:157] Top shape: 2 512 96 96 (9437184)
I1018 20:54:36.045536 26895 net.cpp:157] Top shape: 2 512 96 96 (9437184)
I1018 20:54:36.045541 26895 net.cpp:157] Top shape: 2 512 96 96 (9437184)
I1018 20:54:36.045543 26895 net.cpp:165] Memory required for data: 2778036480
I1018 20:54:36.045547 26895 layer_factory.hpp:77] Creating layer buffer
I1018 20:54:36.045564 26895 net.cpp:100] Creating Layer buffer
I1018 20:54:36.045568 26895 net.cpp:434] buffer <- conv4_3_relu4_3_0_split_0
I1018 20:54:36.045577 26895 net.cpp:408] buffer -> buffer
I1018 20:54:36.116113 26895 net.cpp:150] Setting up buffer
I1018 20:54:36.116137 26895 net.cpp:157] Top shape: 2 512 96 96 (9437184)
I1018 20:54:36.116142 26895 net.cpp:165] Memory required for data: 2815785216
I1018 20:54:36.116148 26895 layer_factory.hpp:77] Creating layer relu_buffer
I1018 20:54:36.116160 26895 net.cpp:100] Creating Layer relu_buffer
I1018 20:54:36.116164 26895 net.cpp:434] relu_buffer <- buffer
I1018 20:54:36.116171 26895 net.cpp:395] relu_buffer -> buffer (in-place)
I1018 20:54:36.116691 26895 net.cpp:150] Setting up relu_buffer
I1018 20:54:36.116704 26895 net.cpp:157] Top shape: 2 512 96 96 (9437184)
I1018 20:54:36.116708 26895 net.cpp:165] Memory required for data: 2853533952
I1018 20:54:36.116711 26895 layer_factory.hpp:77] Creating layer attention
I1018 20:54:36.116724 26895 net.cpp:100] Creating Layer attention
I1018 20:54:36.116729 26895 net.cpp:434] attention <- buffer
I1018 20:54:36.116734 26895 net.cpp:408] attention -> attention
I1018 20:54:36.118366 26895 net.cpp:150] Setting up attention
I1018 20:54:36.118378 26895 net.cpp:157] Top shape: 2 2 96 96 (36864)
I1018 20:54:36.118382 26895 net.cpp:165] Memory required for data: 2853681408
I1018 20:54:36.118388 26895 layer_factory.hpp:77] Creating layer ch4_pool
I1018 20:54:36.118396 26895 net.cpp:100] Creating Layer ch4_pool
I1018 20:54:36.118400 26895 net.cpp:434] ch4_pool <- ch4
I1018 20:54:36.118405 26895 net.cpp:408] ch4_pool -> ch4_pool
I1018 20:54:36.118450 26895 net.cpp:150] Setting up ch4_pool
I1018 20:54:36.118455 26895 net.cpp:157] Top shape: 2 1 96 96 (18432)
I1018 20:54:36.118458 26895 net.cpp:165] Memory required for data: 2853755136
I1018 20:54:36.118463 26895 layer_factory.hpp:77] Creating layer loss_attention
I1018 20:54:36.118470 26895 net.cpp:100] Creating Layer loss_attention
I1018 20:54:36.118474 26895 net.cpp:434] loss_attention <- attention
I1018 20:54:36.118477 26895 net.cpp:434] loss_attention <- ch4_pool
I1018 20:54:36.118482 26895 net.cpp:408] loss_attention -> loss_attention
I1018 20:54:36.118489 26895 layer_factory.hpp:77] Creating layer loss_attention
I1018 20:54:36.118759 26895 net.cpp:150] Setting up loss_attention
I1018 20:54:36.118768 26895 net.cpp:157] Top shape: (1)
I1018 20:54:36.118772 26895 net.cpp:160]     with loss weight 1
I1018 20:54:36.118783 26895 net.cpp:165] Memory required for data: 2853755140
I1018 20:54:36.118786 26895 layer_factory.hpp:77] Creating layer loss1_conv1
I1018 20:54:36.118795 26895 net.cpp:100] Creating Layer loss1_conv1
I1018 20:54:36.118800 26895 net.cpp:434] loss1_conv1 <- conv4_3_relu4_3_0_split_1
I1018 20:54:36.118806 26895 net.cpp:408] loss1_conv1 -> loss1_conv1
I1018 20:54:36.185647 26895 net.cpp:150] Setting up loss1_conv1
I1018 20:54:36.185675 26895 net.cpp:157] Top shape: 2 512 96 96 (9437184)
I1018 20:54:36.185679 26895 net.cpp:165] Memory required for data: 2891503876
I1018 20:54:36.185688 26895 layer_factory.hpp:77] Creating layer loss_relu1
I1018 20:54:36.185698 26895 net.cpp:100] Creating Layer loss_relu1
I1018 20:54:36.185704 26895 net.cpp:434] loss_relu1 <- loss1_conv1
I1018 20:54:36.185711 26895 net.cpp:395] loss_relu1 -> loss1_conv1 (in-place)
I1018 20:54:36.185885 26895 net.cpp:150] Setting up loss_relu1
I1018 20:54:36.185895 26895 net.cpp:157] Top shape: 2 512 96 96 (9437184)
I1018 20:54:36.185899 26895 net.cpp:165] Memory required for data: 2929252612
I1018 20:54:36.185901 26895 layer_factory.hpp:77] Creating layer loss1_conv1_loss_relu1_0_split
I1018 20:54:36.185909 26895 net.cpp:100] Creating Layer loss1_conv1_loss_relu1_0_split
I1018 20:54:36.185912 26895 net.cpp:434] loss1_conv1_loss_relu1_0_split <- loss1_conv1
I1018 20:54:36.185919 26895 net.cpp:408] loss1_conv1_loss_relu1_0_split -> loss1_conv1_loss_relu1_0_split_0
I1018 20:54:36.185925 26895 net.cpp:408] loss1_conv1_loss_relu1_0_split -> loss1_conv1_loss_relu1_0_split_1
I1018 20:54:36.185963 26895 net.cpp:150] Setting up loss1_conv1_loss_relu1_0_split
I1018 20:54:36.185969 26895 net.cpp:157] Top shape: 2 512 96 96 (9437184)
I1018 20:54:36.185974 26895 net.cpp:157] Top shape: 2 512 96 96 (9437184)
I1018 20:54:36.185977 26895 net.cpp:165] Memory required for data: 3004750084
I1018 20:54:36.185981 26895 layer_factory.hpp:77] Creating layer LFCN_1_5x5
I1018 20:54:36.185989 26895 net.cpp:100] Creating Layer LFCN_1_5x5
I1018 20:54:36.185994 26895 net.cpp:434] LFCN_1_5x5 <- loss1_conv1_loss_relu1_0_split_0
I1018 20:54:36.186002 26895 net.cpp:408] LFCN_1_5x5 -> LFCN_1_5x5
I1018 20:54:36.189980 26895 net.cpp:150] Setting up LFCN_1_5x5
I1018 20:54:36.189993 26895 net.cpp:157] Top shape: 2 9 96 96 (165888)
I1018 20:54:36.189997 26895 net.cpp:165] Memory required for data: 3005413636
I1018 20:54:36.190004 26895 layer_factory.hpp:77] Creating layer LFCN_1_5x5_LFCN_1_5x5_0_split
I1018 20:54:36.190009 26895 net.cpp:100] Creating Layer LFCN_1_5x5_LFCN_1_5x5_0_split
I1018 20:54:36.190013 26895 net.cpp:434] LFCN_1_5x5_LFCN_1_5x5_0_split <- LFCN_1_5x5
I1018 20:54:36.190019 26895 net.cpp:408] LFCN_1_5x5_LFCN_1_5x5_0_split -> LFCN_1_5x5_LFCN_1_5x5_0_split_0
I1018 20:54:36.190026 26895 net.cpp:408] LFCN_1_5x5_LFCN_1_5x5_0_split -> LFCN_1_5x5_LFCN_1_5x5_0_split_1
I1018 20:54:36.190063 26895 net.cpp:150] Setting up LFCN_1_5x5_LFCN_1_5x5_0_split
I1018 20:54:36.190069 26895 net.cpp:157] Top shape: 2 9 96 96 (165888)
I1018 20:54:36.190073 26895 net.cpp:157] Top shape: 2 9 96 96 (165888)
I1018 20:54:36.190076 26895 net.cpp:165] Memory required for data: 3006740740
I1018 20:54:36.190079 26895 layer_factory.hpp:77] Creating layer detection_loss_1_5x5
I1018 20:54:36.190088 26895 net.cpp:100] Creating Layer detection_loss_1_5x5
I1018 20:54:36.190090 26895 net.cpp:434] detection_loss_1_5x5 <- LFCN_1_5x5_LFCN_1_5x5_0_split_0
I1018 20:54:36.190094 26895 net.cpp:434] detection_loss_1_5x5 <- label_1_5x5_data_1_split_0
I1018 20:54:36.190099 26895 net.cpp:408] detection_loss_1_5x5 -> loss_1_5x5
I1018 20:54:36.190107 26895 layer_factory.hpp:77] Creating layer detection_loss_1_5x5
I1018 20:54:36.190492 26895 net.cpp:150] Setting up detection_loss_1_5x5
I1018 20:54:36.190502 26895 net.cpp:157] Top shape: 1 1 1 2 (2)
I1018 20:54:36.190505 26895 net.cpp:160]     with loss weight 0.9
I1018 20:54:36.190516 26895 net.cpp:165] Memory required for data: 3006740748
I1018 20:54:36.190521 26895 layer_factory.hpp:77] Creating layer detection_accuracy_1_5x5
I1018 20:54:36.190526 26895 net.cpp:100] Creating Layer detection_accuracy_1_5x5
I1018 20:54:36.190531 26895 net.cpp:434] detection_accuracy_1_5x5 <- LFCN_1_5x5_LFCN_1_5x5_0_split_1
I1018 20:54:36.190534 26895 net.cpp:434] detection_accuracy_1_5x5 <- label_1_5x5_data_1_split_1
I1018 20:54:36.190539 26895 net.cpp:408] detection_accuracy_1_5x5 -> accuracy_1_5x5
I1018 20:54:36.190546 26895 net.cpp:408] detection_accuracy_1_5x5 -> boxiou_1_5x5
I1018 20:54:36.190587 26895 net.cpp:150] Setting up detection_accuracy_1_5x5
I1018 20:54:36.190594 26895 net.cpp:157] Top shape: 1 1 1 2 (2)
I1018 20:54:36.190598 26895 net.cpp:157] Top shape: 1 1 1 1 (1)
I1018 20:54:36.190600 26895 net.cpp:165] Memory required for data: 3006740760
I1018 20:54:36.190604 26895 layer_factory.hpp:77] Creating layer LFCN_1_7x7
I1018 20:54:36.190613 26895 net.cpp:100] Creating Layer LFCN_1_7x7
I1018 20:54:36.190616 26895 net.cpp:434] LFCN_1_7x7 <- loss1_conv1_loss_relu1_0_split_1
I1018 20:54:36.190623 26895 net.cpp:408] LFCN_1_7x7 -> LFCN_1_7x7
I1018 20:54:36.199334 26895 net.cpp:150] Setting up LFCN_1_7x7
I1018 20:54:36.199360 26895 net.cpp:157] Top shape: 2 9 96 96 (165888)
I1018 20:54:36.199365 26895 net.cpp:165] Memory required for data: 3007404312
I1018 20:54:36.199374 26895 layer_factory.hpp:77] Creating layer LFCN_1_7x7_LFCN_1_7x7_0_split
I1018 20:54:36.199384 26895 net.cpp:100] Creating Layer LFCN_1_7x7_LFCN_1_7x7_0_split
I1018 20:54:36.199390 26895 net.cpp:434] LFCN_1_7x7_LFCN_1_7x7_0_split <- LFCN_1_7x7
I1018 20:54:36.199403 26895 net.cpp:408] LFCN_1_7x7_LFCN_1_7x7_0_split -> LFCN_1_7x7_LFCN_1_7x7_0_split_0
I1018 20:54:36.199414 26895 net.cpp:408] LFCN_1_7x7_LFCN_1_7x7_0_split -> LFCN_1_7x7_LFCN_1_7x7_0_split_1
I1018 20:54:36.199462 26895 net.cpp:150] Setting up LFCN_1_7x7_LFCN_1_7x7_0_split
I1018 20:54:36.199470 26895 net.cpp:157] Top shape: 2 9 96 96 (165888)
I1018 20:54:36.199476 26895 net.cpp:157] Top shape: 2 9 96 96 (165888)
I1018 20:54:36.199478 26895 net.cpp:165] Memory required for data: 3008731416
I1018 20:54:36.199481 26895 layer_factory.hpp:77] Creating layer detection_loss_1_7x7
I1018 20:54:36.199491 26895 net.cpp:100] Creating Layer detection_loss_1_7x7
I1018 20:54:36.199493 26895 net.cpp:434] detection_loss_1_7x7 <- LFCN_1_7x7_LFCN_1_7x7_0_split_0
I1018 20:54:36.199498 26895 net.cpp:434] detection_loss_1_7x7 <- label_1_7x7_data_2_split_0
I1018 20:54:36.199503 26895 net.cpp:408] detection_loss_1_7x7 -> loss_1_7x7
I1018 20:54:36.199512 26895 layer_factory.hpp:77] Creating layer detection_loss_1_7x7
I1018 20:54:36.200877 26895 net.cpp:150] Setting up detection_loss_1_7x7
I1018 20:54:36.200893 26895 net.cpp:157] Top shape: 1 1 1 2 (2)
I1018 20:54:36.200896 26895 net.cpp:160]     with loss weight 0.9
I1018 20:54:36.200907 26895 net.cpp:165] Memory required for data: 3008731424
I1018 20:54:36.200911 26895 layer_factory.hpp:77] Creating layer detection_accuracy_1_7x7
I1018 20:54:36.200922 26895 net.cpp:100] Creating Layer detection_accuracy_1_7x7
I1018 20:54:36.200925 26895 net.cpp:434] detection_accuracy_1_7x7 <- LFCN_1_7x7_LFCN_1_7x7_0_split_1
I1018 20:54:36.200932 26895 net.cpp:434] detection_accuracy_1_7x7 <- label_1_7x7_data_2_split_1
I1018 20:54:36.200937 26895 net.cpp:408] detection_accuracy_1_7x7 -> accuracy_1_7x7
I1018 20:54:36.200943 26895 net.cpp:408] detection_accuracy_1_7x7 -> boxiou_1_7x7
I1018 20:54:36.200985 26895 net.cpp:150] Setting up detection_accuracy_1_7x7
I1018 20:54:36.200991 26895 net.cpp:157] Top shape: 1 1 1 2 (2)
I1018 20:54:36.200996 26895 net.cpp:157] Top shape: 1 1 1 1 (1)
I1018 20:54:36.200999 26895 net.cpp:165] Memory required for data: 3008731436
I1018 20:54:36.201001 26895 layer_factory.hpp:77] Creating layer pool4
I1018 20:54:36.201009 26895 net.cpp:100] Creating Layer pool4
I1018 20:54:36.201014 26895 net.cpp:434] pool4 <- conv4_3_relu4_3_0_split_2
I1018 20:54:36.201019 26895 net.cpp:408] pool4 -> pool4
I1018 20:54:36.201056 26895 net.cpp:150] Setting up pool4
I1018 20:54:36.201062 26895 net.cpp:157] Top shape: 2 512 48 48 (2359296)
I1018 20:54:36.201066 26895 net.cpp:165] Memory required for data: 3018168620
I1018 20:54:36.201069 26895 layer_factory.hpp:77] Creating layer conv5_1
I1018 20:54:36.201077 26895 net.cpp:100] Creating Layer conv5_1
I1018 20:54:36.201081 26895 net.cpp:434] conv5_1 <- pool4
I1018 20:54:36.201086 26895 net.cpp:408] conv5_1 -> conv5_1
I1018 20:54:36.207130 26895 net.cpp:150] Setting up conv5_1
I1018 20:54:36.207160 26895 net.cpp:157] Top shape: 2 512 48 48 (2359296)
I1018 20:54:36.207165 26895 net.cpp:165] Memory required for data: 3027605804
I1018 20:54:36.207172 26895 layer_factory.hpp:77] Creating layer relu5_1
I1018 20:54:36.207182 26895 net.cpp:100] Creating Layer relu5_1
I1018 20:54:36.207187 26895 net.cpp:434] relu5_1 <- conv5_1
I1018 20:54:36.207193 26895 net.cpp:395] relu5_1 -> conv5_1 (in-place)
I1018 20:54:36.207351 26895 net.cpp:150] Setting up relu5_1
I1018 20:54:36.207361 26895 net.cpp:157] Top shape: 2 512 48 48 (2359296)
I1018 20:54:36.207365 26895 net.cpp:165] Memory required for data: 3037042988
I1018 20:54:36.207368 26895 layer_factory.hpp:77] Creating layer conv5_2
I1018 20:54:36.207377 26895 net.cpp:100] Creating Layer conv5_2
I1018 20:54:36.207381 26895 net.cpp:434] conv5_2 <- conv5_1
I1018 20:54:36.207386 26895 net.cpp:408] conv5_2 -> conv5_2
I1018 20:54:36.215168 26895 net.cpp:150] Setting up conv5_2
I1018 20:54:36.215231 26895 net.cpp:157] Top shape: 2 512 48 48 (2359296)
I1018 20:54:36.215240 26895 net.cpp:165] Memory required for data: 3046480172
I1018 20:54:36.215270 26895 layer_factory.hpp:77] Creating layer relu5_2
I1018 20:54:36.215288 26895 net.cpp:100] Creating Layer relu5_2
I1018 20:54:36.215301 26895 net.cpp:434] relu5_2 <- conv5_2
I1018 20:54:36.215308 26895 net.cpp:395] relu5_2 -> conv5_2 (in-place)
I1018 20:54:36.221091 26895 net.cpp:150] Setting up relu5_2
I1018 20:54:36.221122 26895 net.cpp:157] Top shape: 2 512 48 48 (2359296)
I1018 20:54:36.221127 26895 net.cpp:165] Memory required for data: 3055917356
I1018 20:54:36.221134 26895 layer_factory.hpp:77] Creating layer conv5_3
I1018 20:54:36.221151 26895 net.cpp:100] Creating Layer conv5_3
I1018 20:54:36.221159 26895 net.cpp:434] conv5_3 <- conv5_2
I1018 20:54:36.221168 26895 net.cpp:408] conv5_3 -> conv5_3
I1018 20:54:36.227962 26895 net.cpp:150] Setting up conv5_3
I1018 20:54:36.227993 26895 net.cpp:157] Top shape: 2 512 48 48 (2359296)
I1018 20:54:36.227998 26895 net.cpp:165] Memory required for data: 3065354540
I1018 20:54:36.228009 26895 layer_factory.hpp:77] Creating layer relu5_3
I1018 20:54:36.228021 26895 net.cpp:100] Creating Layer relu5_3
I1018 20:54:36.228029 26895 net.cpp:434] relu5_3 <- conv5_3
I1018 20:54:36.228035 26895 net.cpp:395] relu5_3 -> conv5_3 (in-place)
I1018 20:54:36.228246 26895 net.cpp:150] Setting up relu5_3
I1018 20:54:36.228260 26895 net.cpp:157] Top shape: 2 512 48 48 (2359296)
I1018 20:54:36.228263 26895 net.cpp:165] Memory required for data: 3074791724
I1018 20:54:36.228267 26895 layer_factory.hpp:77] Creating layer conv5_3_relu5_3_0_split
I1018 20:54:36.228276 26895 net.cpp:100] Creating Layer conv5_3_relu5_3_0_split
I1018 20:54:36.228279 26895 net.cpp:434] conv5_3_relu5_3_0_split <- conv5_3
I1018 20:54:36.228286 26895 net.cpp:408] conv5_3_relu5_3_0_split -> conv5_3_relu5_3_0_split_0
I1018 20:54:36.228296 26895 net.cpp:408] conv5_3_relu5_3_0_split -> conv5_3_relu5_3_0_split_1
I1018 20:54:36.228307 26895 net.cpp:408] conv5_3_relu5_3_0_split -> conv5_3_relu5_3_0_split_2
I1018 20:54:36.228401 26895 net.cpp:150] Setting up conv5_3_relu5_3_0_split
I1018 20:54:36.228411 26895 net.cpp:157] Top shape: 2 512 48 48 (2359296)
I1018 20:54:36.228416 26895 net.cpp:157] Top shape: 2 512 48 48 (2359296)
I1018 20:54:36.228421 26895 net.cpp:157] Top shape: 2 512 48 48 (2359296)
I1018 20:54:36.228425 26895 net.cpp:165] Memory required for data: 3103103276
I1018 20:54:36.228428 26895 layer_factory.hpp:77] Creating layer LFCN_2_5x5
I1018 20:54:36.228442 26895 net.cpp:100] Creating Layer LFCN_2_5x5
I1018 20:54:36.228446 26895 net.cpp:434] LFCN_2_5x5 <- conv5_3_relu5_3_0_split_0
I1018 20:54:36.228454 26895 net.cpp:408] LFCN_2_5x5 -> LFCN_2_5x5
I1018 20:54:36.233184 26895 net.cpp:150] Setting up LFCN_2_5x5
I1018 20:54:36.233201 26895 net.cpp:157] Top shape: 2 9 48 48 (41472)
I1018 20:54:36.233206 26895 net.cpp:165] Memory required for data: 3103269164
I1018 20:54:36.233212 26895 layer_factory.hpp:77] Creating layer LFCN_2_5x5_LFCN_2_5x5_0_split
I1018 20:54:36.233219 26895 net.cpp:100] Creating Layer LFCN_2_5x5_LFCN_2_5x5_0_split
I1018 20:54:36.233224 26895 net.cpp:434] LFCN_2_5x5_LFCN_2_5x5_0_split <- LFCN_2_5x5
I1018 20:54:36.233232 26895 net.cpp:408] LFCN_2_5x5_LFCN_2_5x5_0_split -> LFCN_2_5x5_LFCN_2_5x5_0_split_0
I1018 20:54:36.233239 26895 net.cpp:408] LFCN_2_5x5_LFCN_2_5x5_0_split -> LFCN_2_5x5_LFCN_2_5x5_0_split_1
I1018 20:54:36.233285 26895 net.cpp:150] Setting up LFCN_2_5x5_LFCN_2_5x5_0_split
I1018 20:54:36.233294 26895 net.cpp:157] Top shape: 2 9 48 48 (41472)
I1018 20:54:36.233299 26895 net.cpp:157] Top shape: 2 9 48 48 (41472)
I1018 20:54:36.233302 26895 net.cpp:165] Memory required for data: 3103600940
I1018 20:54:36.233305 26895 layer_factory.hpp:77] Creating layer detection_loss_2_5x5
I1018 20:54:36.233314 26895 net.cpp:100] Creating Layer detection_loss_2_5x5
I1018 20:54:36.233319 26895 net.cpp:434] detection_loss_2_5x5 <- LFCN_2_5x5_LFCN_2_5x5_0_split_0
I1018 20:54:36.233325 26895 net.cpp:434] detection_loss_2_5x5 <- label_2_5x5_data_3_split_0
I1018 20:54:36.233331 26895 net.cpp:408] detection_loss_2_5x5 -> loss_2_5x5
I1018 20:54:36.233341 26895 layer_factory.hpp:77] Creating layer detection_loss_2_5x5
I1018 20:54:36.233734 26895 net.cpp:150] Setting up detection_loss_2_5x5
I1018 20:54:36.233743 26895 net.cpp:157] Top shape: 1 1 1 2 (2)
I1018 20:54:36.233747 26895 net.cpp:160]     with loss weight 1
I1018 20:54:36.233758 26895 net.cpp:165] Memory required for data: 3103600948
I1018 20:54:36.233762 26895 layer_factory.hpp:77] Creating layer detection_accuracy_2_5x5
I1018 20:54:36.233769 26895 net.cpp:100] Creating Layer detection_accuracy_2_5x5
I1018 20:54:36.233774 26895 net.cpp:434] detection_accuracy_2_5x5 <- LFCN_2_5x5_LFCN_2_5x5_0_split_1
I1018 20:54:36.233778 26895 net.cpp:434] detection_accuracy_2_5x5 <- label_2_5x5_data_3_split_1
I1018 20:54:36.233783 26895 net.cpp:408] detection_accuracy_2_5x5 -> accuracy_2_5x5
I1018 20:54:36.233789 26895 net.cpp:408] detection_accuracy_2_5x5 -> boxiou_2_5x5
I1018 20:54:36.233829 26895 net.cpp:150] Setting up detection_accuracy_2_5x5
I1018 20:54:36.233835 26895 net.cpp:157] Top shape: 1 1 1 2 (2)
I1018 20:54:36.233839 26895 net.cpp:157] Top shape: 1 1 1 1 (1)
I1018 20:54:36.233842 26895 net.cpp:165] Memory required for data: 3103600960
I1018 20:54:36.233845 26895 layer_factory.hpp:77] Creating layer LFCN_2_7x7
I1018 20:54:36.233853 26895 net.cpp:100] Creating Layer LFCN_2_7x7
I1018 20:54:36.233858 26895 net.cpp:434] LFCN_2_7x7 <- conv5_3_relu5_3_0_split_1
I1018 20:54:36.233865 26895 net.cpp:408] LFCN_2_7x7 -> LFCN_2_7x7
I1018 20:54:36.240720 26895 net.cpp:150] Setting up LFCN_2_7x7
I1018 20:54:36.240733 26895 net.cpp:157] Top shape: 2 9 48 48 (41472)
I1018 20:54:36.240736 26895 net.cpp:165] Memory required for data: 3103766848
I1018 20:54:36.240742 26895 layer_factory.hpp:77] Creating layer LFCN_2_7x7_LFCN_2_7x7_0_split
I1018 20:54:36.240748 26895 net.cpp:100] Creating Layer LFCN_2_7x7_LFCN_2_7x7_0_split
I1018 20:54:36.240751 26895 net.cpp:434] LFCN_2_7x7_LFCN_2_7x7_0_split <- LFCN_2_7x7
I1018 20:54:36.240757 26895 net.cpp:408] LFCN_2_7x7_LFCN_2_7x7_0_split -> LFCN_2_7x7_LFCN_2_7x7_0_split_0
I1018 20:54:36.240763 26895 net.cpp:408] LFCN_2_7x7_LFCN_2_7x7_0_split -> LFCN_2_7x7_LFCN_2_7x7_0_split_1
I1018 20:54:36.240795 26895 net.cpp:150] Setting up LFCN_2_7x7_LFCN_2_7x7_0_split
I1018 20:54:36.240800 26895 net.cpp:157] Top shape: 2 9 48 48 (41472)
I1018 20:54:36.240804 26895 net.cpp:157] Top shape: 2 9 48 48 (41472)
I1018 20:54:36.240808 26895 net.cpp:165] Memory required for data: 3104098624
I1018 20:54:36.240810 26895 layer_factory.hpp:77] Creating layer detection_loss_2_7x7
I1018 20:54:36.240816 26895 net.cpp:100] Creating Layer detection_loss_2_7x7
I1018 20:54:36.240819 26895 net.cpp:434] detection_loss_2_7x7 <- LFCN_2_7x7_LFCN_2_7x7_0_split_0
I1018 20:54:36.240824 26895 net.cpp:434] detection_loss_2_7x7 <- label_2_7x7_data_4_split_0
I1018 20:54:36.240831 26895 net.cpp:408] detection_loss_2_7x7 -> loss_2_7x7
I1018 20:54:36.240837 26895 layer_factory.hpp:77] Creating layer detection_loss_2_7x7
I1018 20:54:36.241194 26895 net.cpp:150] Setting up detection_loss_2_7x7
I1018 20:54:36.241204 26895 net.cpp:157] Top shape: 1 1 1 2 (2)
I1018 20:54:36.241209 26895 net.cpp:160]     with loss weight 1
I1018 20:54:36.241215 26895 net.cpp:165] Memory required for data: 3104098632
I1018 20:54:36.241219 26895 layer_factory.hpp:77] Creating layer detection_accuracy_2_7x7
I1018 20:54:36.241231 26895 net.cpp:100] Creating Layer detection_accuracy_2_7x7
I1018 20:54:36.241235 26895 net.cpp:434] detection_accuracy_2_7x7 <- LFCN_2_7x7_LFCN_2_7x7_0_split_1
I1018 20:54:36.241240 26895 net.cpp:434] detection_accuracy_2_7x7 <- label_2_7x7_data_4_split_1
I1018 20:54:36.241245 26895 net.cpp:408] detection_accuracy_2_7x7 -> accuracy_2_7x7
I1018 20:54:36.241251 26895 net.cpp:408] detection_accuracy_2_7x7 -> boxiou_2_7x7
I1018 20:54:36.241293 26895 net.cpp:150] Setting up detection_accuracy_2_7x7
I1018 20:54:36.241299 26895 net.cpp:157] Top shape: 1 1 1 2 (2)
I1018 20:54:36.241303 26895 net.cpp:157] Top shape: 1 1 1 1 (1)
I1018 20:54:36.241307 26895 net.cpp:165] Memory required for data: 3104098644
I1018 20:54:36.241310 26895 layer_factory.hpp:77] Creating layer pool5
I1018 20:54:36.241317 26895 net.cpp:100] Creating Layer pool5
I1018 20:54:36.241320 26895 net.cpp:434] pool5 <- conv5_3_relu5_3_0_split_2
I1018 20:54:36.241325 26895 net.cpp:408] pool5 -> pool5
I1018 20:54:36.241361 26895 net.cpp:150] Setting up pool5
I1018 20:54:36.241367 26895 net.cpp:157] Top shape: 2 512 24 24 (589824)
I1018 20:54:36.241371 26895 net.cpp:165] Memory required for data: 3106457940
I1018 20:54:36.241374 26895 layer_factory.hpp:77] Creating layer conv6_1
I1018 20:54:36.241382 26895 net.cpp:100] Creating Layer conv6_1
I1018 20:54:36.241386 26895 net.cpp:434] conv6_1 <- pool5
I1018 20:54:36.241390 26895 net.cpp:408] conv6_1 -> conv6_1
I1018 20:54:36.309183 26895 net.cpp:150] Setting up conv6_1
I1018 20:54:36.309214 26895 net.cpp:157] Top shape: 2 512 24 24 (589824)
I1018 20:54:36.309219 26895 net.cpp:165] Memory required for data: 3108817236
I1018 20:54:36.309227 26895 layer_factory.hpp:77] Creating layer relu6_1
I1018 20:54:36.309238 26895 net.cpp:100] Creating Layer relu6_1
I1018 20:54:36.309244 26895 net.cpp:434] relu6_1 <- conv6_1
I1018 20:54:36.309252 26895 net.cpp:395] relu6_1 -> conv6_1 (in-place)
I1018 20:54:36.309428 26895 net.cpp:150] Setting up relu6_1
I1018 20:54:36.309439 26895 net.cpp:157] Top shape: 2 512 24 24 (589824)
I1018 20:54:36.309442 26895 net.cpp:165] Memory required for data: 3111176532
I1018 20:54:36.309445 26895 layer_factory.hpp:77] Creating layer conv6_1_relu6_1_0_split
I1018 20:54:36.309453 26895 net.cpp:100] Creating Layer conv6_1_relu6_1_0_split
I1018 20:54:36.309455 26895 net.cpp:434] conv6_1_relu6_1_0_split <- conv6_1
I1018 20:54:36.309461 26895 net.cpp:408] conv6_1_relu6_1_0_split -> conv6_1_relu6_1_0_split_0
I1018 20:54:36.309468 26895 net.cpp:408] conv6_1_relu6_1_0_split -> conv6_1_relu6_1_0_split_1
I1018 20:54:36.309473 26895 net.cpp:408] conv6_1_relu6_1_0_split -> conv6_1_relu6_1_0_split_2
I1018 20:54:36.309527 26895 net.cpp:150] Setting up conv6_1_relu6_1_0_split
I1018 20:54:36.309533 26895 net.cpp:157] Top shape: 2 512 24 24 (589824)
I1018 20:54:36.309538 26895 net.cpp:157] Top shape: 2 512 24 24 (589824)
I1018 20:54:36.309541 26895 net.cpp:157] Top shape: 2 512 24 24 (589824)
I1018 20:54:36.309545 26895 net.cpp:165] Memory required for data: 3118254420
I1018 20:54:36.309547 26895 layer_factory.hpp:77] Creating layer LFCN_3_5x5
I1018 20:54:36.309558 26895 net.cpp:100] Creating Layer LFCN_3_5x5
I1018 20:54:36.309562 26895 net.cpp:434] LFCN_3_5x5 <- conv6_1_relu6_1_0_split_0
I1018 20:54:36.309569 26895 net.cpp:408] LFCN_3_5x5 -> LFCN_3_5x5
I1018 20:54:36.315002 26895 net.cpp:150] Setting up LFCN_3_5x5
I1018 20:54:36.315055 26895 net.cpp:157] Top shape: 2 9 24 24 (10368)
I1018 20:54:36.315062 26895 net.cpp:165] Memory required for data: 3118295892
I1018 20:54:36.315073 26895 layer_factory.hpp:77] Creating layer LFCN_3_5x5_LFCN_3_5x5_0_split
I1018 20:54:36.315093 26895 net.cpp:100] Creating Layer LFCN_3_5x5_LFCN_3_5x5_0_split
I1018 20:54:36.315102 26895 net.cpp:434] LFCN_3_5x5_LFCN_3_5x5_0_split <- LFCN_3_5x5
I1018 20:54:36.315111 26895 net.cpp:408] LFCN_3_5x5_LFCN_3_5x5_0_split -> LFCN_3_5x5_LFCN_3_5x5_0_split_0
I1018 20:54:36.315122 26895 net.cpp:408] LFCN_3_5x5_LFCN_3_5x5_0_split -> LFCN_3_5x5_LFCN_3_5x5_0_split_1
I1018 20:54:36.315171 26895 net.cpp:150] Setting up LFCN_3_5x5_LFCN_3_5x5_0_split
I1018 20:54:36.315177 26895 net.cpp:157] Top shape: 2 9 24 24 (10368)
I1018 20:54:36.315181 26895 net.cpp:157] Top shape: 2 9 24 24 (10368)
I1018 20:54:36.315184 26895 net.cpp:165] Memory required for data: 3118378836
I1018 20:54:36.315187 26895 layer_factory.hpp:77] Creating layer detection_loss_3_5x5
I1018 20:54:36.315198 26895 net.cpp:100] Creating Layer detection_loss_3_5x5
I1018 20:54:36.315201 26895 net.cpp:434] detection_loss_3_5x5 <- LFCN_3_5x5_LFCN_3_5x5_0_split_0
I1018 20:54:36.315207 26895 net.cpp:434] detection_loss_3_5x5 <- label_3_5x5_data_5_split_0
I1018 20:54:36.315214 26895 net.cpp:408] detection_loss_3_5x5 -> loss_3_5x5
I1018 20:54:36.315225 26895 layer_factory.hpp:77] Creating layer detection_loss_3_5x5
I1018 20:54:36.315646 26895 net.cpp:150] Setting up detection_loss_3_5x5
I1018 20:54:36.315659 26895 net.cpp:157] Top shape: 1 1 1 2 (2)
I1018 20:54:36.315662 26895 net.cpp:160]     with loss weight 1
I1018 20:54:36.315681 26895 net.cpp:165] Memory required for data: 3118378844
I1018 20:54:36.315685 26895 layer_factory.hpp:77] Creating layer detection_accuracy_3_5x5
I1018 20:54:36.315695 26895 net.cpp:100] Creating Layer detection_accuracy_3_5x5
I1018 20:54:36.315698 26895 net.cpp:434] detection_accuracy_3_5x5 <- LFCN_3_5x5_LFCN_3_5x5_0_split_1
I1018 20:54:36.315703 26895 net.cpp:434] detection_accuracy_3_5x5 <- label_3_5x5_data_5_split_1
I1018 20:54:36.315708 26895 net.cpp:408] detection_accuracy_3_5x5 -> accuracy_3_5x5
I1018 20:54:36.315716 26895 net.cpp:408] detection_accuracy_3_5x5 -> boxiou_3_5x5
I1018 20:54:36.315764 26895 net.cpp:150] Setting up detection_accuracy_3_5x5
I1018 20:54:36.315771 26895 net.cpp:157] Top shape: 1 1 1 2 (2)
I1018 20:54:36.315775 26895 net.cpp:157] Top shape: 1 1 1 1 (1)
I1018 20:54:36.315778 26895 net.cpp:165] Memory required for data: 3118378856
I1018 20:54:36.315781 26895 layer_factory.hpp:77] Creating layer LFCN_3_7x7
I1018 20:54:36.315794 26895 net.cpp:100] Creating Layer LFCN_3_7x7
I1018 20:54:36.315799 26895 net.cpp:434] LFCN_3_7x7 <- conv6_1_relu6_1_0_split_1
I1018 20:54:36.315805 26895 net.cpp:408] LFCN_3_7x7 -> LFCN_3_7x7
I1018 20:54:36.324113 26895 net.cpp:150] Setting up LFCN_3_7x7
I1018 20:54:36.324139 26895 net.cpp:157] Top shape: 2 9 24 24 (10368)
I1018 20:54:36.324142 26895 net.cpp:165] Memory required for data: 3118420328
I1018 20:54:36.324151 26895 layer_factory.hpp:77] Creating layer LFCN_3_7x7_LFCN_3_7x7_0_split
I1018 20:54:36.324162 26895 net.cpp:100] Creating Layer LFCN_3_7x7_LFCN_3_7x7_0_split
I1018 20:54:36.324167 26895 net.cpp:434] LFCN_3_7x7_LFCN_3_7x7_0_split <- LFCN_3_7x7
I1018 20:54:36.324173 26895 net.cpp:408] LFCN_3_7x7_LFCN_3_7x7_0_split -> LFCN_3_7x7_LFCN_3_7x7_0_split_0
I1018 20:54:36.324180 26895 net.cpp:408] LFCN_3_7x7_LFCN_3_7x7_0_split -> LFCN_3_7x7_LFCN_3_7x7_0_split_1
I1018 20:54:36.324224 26895 net.cpp:150] Setting up LFCN_3_7x7_LFCN_3_7x7_0_split
I1018 20:54:36.324232 26895 net.cpp:157] Top shape: 2 9 24 24 (10368)
I1018 20:54:36.324236 26895 net.cpp:157] Top shape: 2 9 24 24 (10368)
I1018 20:54:36.324239 26895 net.cpp:165] Memory required for data: 3118503272
I1018 20:54:36.324241 26895 layer_factory.hpp:77] Creating layer detection_loss_3_7x7
I1018 20:54:36.324249 26895 net.cpp:100] Creating Layer detection_loss_3_7x7
I1018 20:54:36.324254 26895 net.cpp:434] detection_loss_3_7x7 <- LFCN_3_7x7_LFCN_3_7x7_0_split_0
I1018 20:54:36.324259 26895 net.cpp:434] detection_loss_3_7x7 <- label_3_7x7_data_6_split_0
I1018 20:54:36.324263 26895 net.cpp:408] detection_loss_3_7x7 -> loss_3_7x7
I1018 20:54:36.324271 26895 layer_factory.hpp:77] Creating layer detection_loss_3_7x7
I1018 20:54:36.324965 26895 net.cpp:150] Setting up detection_loss_3_7x7
I1018 20:54:36.324978 26895 net.cpp:157] Top shape: 1 1 1 2 (2)
I1018 20:54:36.324982 26895 net.cpp:160]     with loss weight 1
I1018 20:54:36.324992 26895 net.cpp:165] Memory required for data: 3118503280
I1018 20:54:36.324996 26895 layer_factory.hpp:77] Creating layer detection_accuracy_3_7x7
I1018 20:54:36.325003 26895 net.cpp:100] Creating Layer detection_accuracy_3_7x7
I1018 20:54:36.325007 26895 net.cpp:434] detection_accuracy_3_7x7 <- LFCN_3_7x7_LFCN_3_7x7_0_split_1
I1018 20:54:36.325012 26895 net.cpp:434] detection_accuracy_3_7x7 <- label_3_7x7_data_6_split_1
I1018 20:54:36.325018 26895 net.cpp:408] detection_accuracy_3_7x7 -> accuracy_3_7x7
I1018 20:54:36.325026 26895 net.cpp:408] detection_accuracy_3_7x7 -> boxiou_3_7x7
I1018 20:54:36.325067 26895 net.cpp:150] Setting up detection_accuracy_3_7x7
I1018 20:54:36.325073 26895 net.cpp:157] Top shape: 1 1 1 2 (2)
I1018 20:54:36.325078 26895 net.cpp:157] Top shape: 1 1 1 1 (1)
I1018 20:54:36.325080 26895 net.cpp:165] Memory required for data: 3118503292
I1018 20:54:36.325083 26895 layer_factory.hpp:77] Creating layer pool6
I1018 20:54:36.325090 26895 net.cpp:100] Creating Layer pool6
I1018 20:54:36.325095 26895 net.cpp:434] pool6 <- conv6_1_relu6_1_0_split_2
I1018 20:54:36.325099 26895 net.cpp:408] pool6 -> pool6
I1018 20:54:36.325139 26895 net.cpp:150] Setting up pool6
I1018 20:54:36.325145 26895 net.cpp:157] Top shape: 2 512 12 12 (147456)
I1018 20:54:36.325148 26895 net.cpp:165] Memory required for data: 3119093116
I1018 20:54:36.325151 26895 layer_factory.hpp:77] Creating layer LFCN_4_5x5
I1018 20:54:36.325160 26895 net.cpp:100] Creating Layer LFCN_4_5x5
I1018 20:54:36.325163 26895 net.cpp:434] LFCN_4_5x5 <- pool6
I1018 20:54:36.325170 26895 net.cpp:408] LFCN_4_5x5 -> LFCN_4_5x5
I1018 20:54:36.329224 26895 net.cpp:150] Setting up LFCN_4_5x5
I1018 20:54:36.329239 26895 net.cpp:157] Top shape: 2 9 12 12 (2592)
I1018 20:54:36.329242 26895 net.cpp:165] Memory required for data: 3119103484
I1018 20:54:36.329248 26895 layer_factory.hpp:77] Creating layer LFCN_4_5x5_LFCN_4_5x5_0_split
I1018 20:54:36.329253 26895 net.cpp:100] Creating Layer LFCN_4_5x5_LFCN_4_5x5_0_split
I1018 20:54:36.329257 26895 net.cpp:434] LFCN_4_5x5_LFCN_4_5x5_0_split <- LFCN_4_5x5
I1018 20:54:36.329263 26895 net.cpp:408] LFCN_4_5x5_LFCN_4_5x5_0_split -> LFCN_4_5x5_LFCN_4_5x5_0_split_0
I1018 20:54:36.329269 26895 net.cpp:408] LFCN_4_5x5_LFCN_4_5x5_0_split -> LFCN_4_5x5_LFCN_4_5x5_0_split_1
I1018 20:54:36.329308 26895 net.cpp:150] Setting up LFCN_4_5x5_LFCN_4_5x5_0_split
I1018 20:54:36.329318 26895 net.cpp:157] Top shape: 2 9 12 12 (2592)
I1018 20:54:36.329321 26895 net.cpp:157] Top shape: 2 9 12 12 (2592)
I1018 20:54:36.329324 26895 net.cpp:165] Memory required for data: 3119124220
I1018 20:54:36.329327 26895 layer_factory.hpp:77] Creating layer detection_loss_4_5x5
I1018 20:54:36.329332 26895 net.cpp:100] Creating Layer detection_loss_4_5x5
I1018 20:54:36.329336 26895 net.cpp:434] detection_loss_4_5x5 <- LFCN_4_5x5_LFCN_4_5x5_0_split_0
I1018 20:54:36.329340 26895 net.cpp:434] detection_loss_4_5x5 <- label_4_5x5_data_7_split_0
I1018 20:54:36.329345 26895 net.cpp:408] detection_loss_4_5x5 -> loss_4_5x5
I1018 20:54:36.329352 26895 layer_factory.hpp:77] Creating layer detection_loss_4_5x5
I1018 20:54:36.329680 26895 net.cpp:150] Setting up detection_loss_4_5x5
I1018 20:54:36.329690 26895 net.cpp:157] Top shape: 1 1 1 2 (2)
I1018 20:54:36.329694 26895 net.cpp:160]     with loss weight 1
I1018 20:54:36.329699 26895 net.cpp:165] Memory required for data: 3119124228
I1018 20:54:36.329702 26895 layer_factory.hpp:77] Creating layer detection_accuracy_4_5x5
I1018 20:54:36.329710 26895 net.cpp:100] Creating Layer detection_accuracy_4_5x5
I1018 20:54:36.329712 26895 net.cpp:434] detection_accuracy_4_5x5 <- LFCN_4_5x5_LFCN_4_5x5_0_split_1
I1018 20:54:36.329717 26895 net.cpp:434] detection_accuracy_4_5x5 <- label_4_5x5_data_7_split_1
I1018 20:54:36.329721 26895 net.cpp:408] detection_accuracy_4_5x5 -> accuracy_4_5x5
I1018 20:54:36.329730 26895 net.cpp:408] detection_accuracy_4_5x5 -> boxiou_4_5x5
I1018 20:54:36.329767 26895 net.cpp:150] Setting up detection_accuracy_4_5x5
I1018 20:54:36.329773 26895 net.cpp:157] Top shape: 1 1 1 2 (2)
I1018 20:54:36.329777 26895 net.cpp:157] Top shape: 1 1 1 1 (1)
I1018 20:54:36.329780 26895 net.cpp:165] Memory required for data: 3119124240
I1018 20:54:36.329783 26895 net.cpp:228] detection_accuracy_4_5x5 does not need backward computation.
I1018 20:54:36.329787 26895 net.cpp:226] detection_loss_4_5x5 needs backward computation.
I1018 20:54:36.329790 26895 net.cpp:226] LFCN_4_5x5_LFCN_4_5x5_0_split needs backward computation.
I1018 20:54:36.329793 26895 net.cpp:226] LFCN_4_5x5 needs backward computation.
…
