…
    downsample_rate: 32
    downsample_rate: 32
    downsample_rate: 64
    coord_num: 4
    field_h: 60
    field_h: 84
    field_h: 120
    field_h: 168
    field_h: 240
    field_h: 336
    field_h: 480
    field_w: 60
    field_w: 84
    field_w: 120
    field_w: 168
    field_w: 240
    field_w: 336
    field_w: 480
    fg_threshold: 0.5
    resize_width: 1344
    resize_height: 768
    crop_width: 768
    crop_height: 768
    do_multiple_scale: true
    min_scale: 60
    max_scale: 480
    min_gt_height: 25
    shuffle: true
    output_gt_boxes: true
  }
}
layer {
  name: "slice"
  type: "Slice"
  bottom: "data"
  top: "data123"
  top: "ch4"
  slice_param {
    slice_point: 3
    axis: 1
  }
}
layer {
  name: "conv1_1"
  type: "Convolution"
  bottom: "data123"
  top: "conv1_1"
  param {
    lr_mult: 0
    decay_mult: 0
  }
  param {
    lr_mult: 0
    decay_mult: 0
  }
  convolution_param {
    num_output: 64
    pad: 1
    kernel_size: 3
  }
}
layer {
  name: "relu1_1"
  type: "ReLU"
  bottom: "conv1_1"
  top: "conv1_1"
}
layer {
  name: "conv1_2"
  type: "Convolution"
  bottom: "conv1_1"
  top: "conv1_2"
  param {
    lr_mult: 0
    decay_mult: 0
  }
  param {
    lr_mult: 0
    decay_mult: 0
  }
  convolution_param {
    num_output: 64
    pad: 1
    kernel_size: 3
  }
}
layer {
  name: "relu1_2"
  type: "ReLU"
  bottom: "conv1_2"
  top: "conv1_2"
}
layer {
  name: "pool1"
  type: "Pooling"
  bottom: "conv1_2"
  top: "pool1"
  pooling_param {
    pool: MAX
    kernel_size: 2
    stride: 2
  }
}
layer {
  name: "conv2_1"
  type: "Convolution"
  bottom: "pool1"
  top: "conv2_1"
  param {
    lr_mult: 0
    decay_mult: 0
  }
  param {
    lr_mult: 0
    decay_mult: 0
  }
  convolution_param {
    num_output: 128
    pad: 1
    kernel_size: 3
  }
}
layer {
  name: "relu2_1"
  type: "ReLU"
  bottom: "conv2_1"
  top: "conv2_1"
}
layer {
  name: "conv2_2"
  type: "Convolution"
  bottom: "conv2_1"
  top: "conv2_2"
  param {
    lr_mult: 0
    decay_mult: 0
  }
  param {
    lr_mult: 0
    decay_mult: 0
  }
  convolution_param {
    num_output: 128
    pad: 1
    kernel_size: 3
  }
}
layer {
  name: "relu2_2"
  type: "ReLU"
  bottom: "conv2_2"
  top: "conv2_2"
}
layer {
  name: "pool2"
  type: "Pooling"
  bottom: "conv2_2"
  top: "pool2"
  pooling_param {
    pool: MAX
    kernel_size: 2
    stride: 2
  }
}
layer {
  name: "conv3_1"
  type: "Convolution"
  bottom: "pool2"
  top: "conv3_1"
  convolution_param {
    num_output: 256
    pad: 1
    kernel_size: 3
  }
}
layer {
  name: "relu3_1"
  type: "ReLU"
  bottom: "conv3_1"
  top: "conv3_1"
}
layer {
  name: "conv3_2"
  type: "Convolution"
  bottom: "conv3_1"
  top: "conv3_2"
  convolution_param {
    num_output: 256
    pad: 1
    kernel_size: 3
  }
}
layer {
  name: "relu3_2"
  type: "ReLU"
  bottom: "conv3_2"
  top: "conv3_2"
}
layer {
  name: "conv3_3"
  type: "Convolution"
  bottom: "conv3_2"
  top: "conv3_3"
  convolution_param {
    num_output: 256
    pad: 1
    kernel_size: 3
  }
}
layer {
  name: "relu3_3"
  type: "ReLU"
  bottom: "conv3_3"
  top: "conv3_3"
}
layer {
  name: "pool3"
  type: "Pooling"
  bottom: "conv3_3"
  top: "pool3"
  pooling_param {
    pool: MAX
    kernel_size: 2
    stride: 2
  }
}
layer {
  name: "conv4_1"
  type: "Convolution"
  bottom: "pool3"
  top: "conv4_1"
  convolution_param {
    num_output: 512
    pad: 1
    kernel_size: 3
  }
}
layer {
  name: "relu4_1"
  type: "ReLU"
  bottom: "conv4_1"
  top: "conv4_1"
}
layer {
  name: "conv4_2"
  type: "Convolution"
  bottom: "conv4_1"
  top: "conv4_2"
  convolution_param {
    num_output: 512
    pad: 1
    kernel_size: 3
  }
}
layer {
  name: "relu4_2"
  type: "ReLU"
  bottom: "conv4_2"
  top: "conv4_2"
}
layer {
  name: "conv4_3"
  type: "Convolution"
  bottom: "conv4_2"
  top: "conv4_3"
  convolution_param {
    num_output: 512
    pad: 1
    kernel_size: 3
  }
}
layer {
  name: "relu4_3"
  type: "ReLU"
  bottom: "conv4_3"
  top: "conv4_3"
}
layer {
  name: "buffer"
  type: "Convolution"
  bottom: "conv4_3"
  top: "buffer"
  param {
    lr_mult: 1
    decay_mult: 1
  }
  param {
    lr_mult: 2
    decay_mult: 0
  }
  convolution_param {
    num_output: 512
    pad: 1
    kernel_size: 3
    weight_filler {
      type: "gaussian"
      std: 0.01
    }
    bias_filler {
      type: "constant"
    }
  }
}
layer {
  name: "relu_buffer"
  type: "ReLU"
  bottom: "buffer"
  top: "buffer"
}
layer {
  name: "attention"
  type: "Convolution"
  bottom: "buffer"
  top: "attention"
  param {
    lr_mult: 1
    decay_mult: 1
  }
  param {
    lr_mult: 2
    decay_mult: 0
  }
  convolution_param {
    num_output: 2
    pad: 1
    kernel_size: 3
  }
}
layer {
  name: "ch4_pool"
  type: "Pooling"
  bottom: "ch4"
  top: "ch4_pool"
  pooling_param {
    pool: MAX
    kernel_size: 8
    stride: 8
  }
}
layer {
  name: "loss_attention"
  type: "SoftmaxWithLoss"
  bottom: "attention"
  bottom: "ch4_pool"
  top: "loss_attention"
  loss_weight: 1
  propagate_down: true
  propagate_down: false
}
layer {
  name: "loss1_conv1"
  type: "Convolution"
  bottom: "conv4_3"
  top: "loss1_conv1"
  param {
    lr_mult: 1
    decay_mult: 1
  }
  param {
    lr_mult: 2
    decay_mult: 0
  }
  convolution_param {
    num_output: 512
    pad: 1
    kernel_size: 3
    weight_filler {
      type: "gaussian"
      std: 0.01
    }
    bias_filler {
      type: "constant"
    }
  }
}
layer {
  name: "loss_relu1"
  type: "ReLU"
  bottom: "loss1_conv1"
  top: "loss1_conv1"
}
layer {
  name: "LFCN_1_5x5"
  type: "Convolution"
  bottom: "loss1_conv1"
  top: "LFCN_1_5x5"
  param {
    lr_mult: 1
    decay_mult: 1
  }
  param {
    lr_mult: 2
    decay_mult: 0
  }
  convolution_param {
    num_output: 9
    pad: 2
    kernel_size: 5
    weight_filler {
      type: "gaussian"
      std: 0.001
    }
    bias_filler {
      type: "constant"
    }
  }
}
layer {
  name: "detection_loss_1_5x5"
  type: "DetectionLoss"
  bottom: "LFCN_1_5x5"
  bottom: "label_1_5x5"
  top: "loss_1_5x5"
  loss_weight: 0.9
  detection_loss_param {
    cls_num: 5
    coord_num: 4
    lambda: 1
    field_h: 60
    field_w: 60
    downsample_rate: 8
    bb_smooth: true
    field_whr: 2
    field_xyr: 2
    bg_threshold: 0.2
    bg_multiple: 2
    sample_mode: "bootstrap"
    pos_neg_weighted: true
  }
}
layer {
  name: "detection_accuracy_1_5x5"
  type: "DetectionAccuracy"
  bottom: "LFCN_1_5x5"
  bottom: "label_1_5x5"
  top: "accuracy_1_5x5"
  top: "boxiou_1_5x5"
  detection_accuracy_param {
    cls_num: 5
    coord_num: 4
    field_h: 60
    field_w: 60
    downsample_rate: 8
    field_whr: 2
    field_xyr: 2
  }
}
layer {
  name: "LFCN_1_7x7"
  type: "Convolution"
  bottom: "loss1_conv1"
  top: "LFCN_1_7x7"
  param {
    lr_mult: 1
    decay_mult: 1
  }
  param {
    lr_mult: 2
    decay_mult: 0
  }
  convolution_param {
    num_output: 9
    pad: 3
    kernel_size: 7
    weight_filler {
      type: "gaussian"
      std: 0.001
    }
    bias_filler {
      type: "constant"
    }
  }
}
layer {
  name: "detection_loss_1_7x7"
  type: "DetectionLoss"
  bottom: "LFCN_1_7x7"
  bottom: "label_1_7x7"
  top: "loss_1_7x7"
  loss_weight: 0.9
  detection_loss_param {
    cls_num: 5
    coord_num: 4
    lambda: 1
    field_h: 84
    field_w: 84
    downsample_rate: 8
    bb_smooth: true
    field_whr: 2
    field_xyr: 2
    bg_threshold: 0.2
    bg_multiple: 2
    sample_mode: "bootstrap"
    pos_neg_weighted: true
  }
}
layer {
  name: "detection_accuracy_1_7x7"
  type: "DetectionAccuracy"
  bottom: "LFCN_1_7x7"
  bottom: "label_1_7x7"
  top: "accuracy_1_7x7"
  top: "boxiou_1_7x7"
  detection_accuracy_param {
    cls_num: 5
    coord_num: 4
    field_h: 84
    field_w: 84
    downsample_rate: 8
    field_whr: 2
    field_xyr: 2
  }
}
layer {
  name: "pool4"
  type: "Pooling"
  bottom: "conv4_3"
  top: "pool4"
  pooling_param {
    pool: MAX
    kernel_size: 2
    stride: 2
  }
}
layer {
  name: "conv5_1"
  type: "Convolution"
  bottom: "pool4"
  top: "conv5_1"
  convolution_param {
    num_output: 512
    pad: 1
    kernel_size: 3
  }
}
layer {
  name: "relu5_1"
  type: "ReLU"
  bottom: "conv5_1"
  top: "conv5_1"
}
layer {
  name: "conv5_2"
  type: "Convolution"
  bottom: "conv5_1"
  top: "conv5_2"
  convolution_param {
    num_output: 512
    pad: 1
    kernel_size: 3
  }
}
layer {
  name: "relu5_2"
  type: "ReLU"
  bottom: "conv5_2"
  top: "conv5_2"
}
layer {
  name: "conv5_3"
  type: "Convolution"
  bottom: "conv5_2"
  top: "conv5_3"
  convolution_param {
    num_output: 512
    pad: 1
    kernel_size: 3
  }
}
layer {
  name: "relu5_3"
  type: "ReLU"
  bottom: "conv5_3"
  top: "conv5_3"
}
layer {
  name: "LFCN_2_5x5"
  type: "Convolution"
  bottom: "conv5_3"
  top: "LFCN_2_5x5"
  param {
    lr_mult: 1
    decay_mult: 1
  }
  param {
    lr_mult: 2
    decay_mult: 0
  }
  convolution_param {
    num_output: 9
    pad: 2
    kernel_size: 5
    weight_filler {
      type: "gaussian"
      std: 0.001
    }
    bias_filler {
      type: "constant"
    }
  }
}
layer {
  name: "detection_loss_2_5x5"
  type: "DetectionLoss"
  bottom: "LFCN_2_5x5"
  bottom: "label_2_5x5"
  top: "loss_2_5x5"
  detection_loss_param {
    cls_num: 5
    coord_num: 4
    lambda: 1
    field_h: 120
    field_w: 120
    downsample_rate: 16
    bb_smooth: true
    field_whr: 2
    field_xyr: 2
    bg_threshold: 0.2
    bg_multiple: 2
    sample_mode: "bootstrap"
    pos_neg_weighted: true
  }
}
layer {
  name: "detection_accuracy_2_5x5"
  type: "DetectionAccuracy"
  bottom: "LFCN_2_5x5"
  bottom: "label_2_5x5"
  top: "accuracy_2_5x5"
  top: "boxiou_2_5x5"
  detection_accuracy_param {
    cls_num: 5
    coord_num: 4
    field_h: 120
    field_w: 120
    downsample_rate: 16
    field_whr: 2
    field_xyr: 2
  }
}
layer {
  name: "LFCN_2_7x7"
  type: "Convolution"
  bottom: "conv5_3"
  top: "LFCN_2_7x7"
  param {
    lr_mult: 1
    decay_mult: 1
  }
  param {
    lr_mult: 2
    decay_mult: 0
  }
  convolution_param {
    num_output: 9
    pad: 3
    kernel_size: 7
    weight_filler {
      type: "gaussian"
      std: 0.001
    }
    bias_filler {
      type: "constant"
    }
  }
}
layer {
  name: "detection_loss_2_7x7"
  type: "DetectionLoss"
  bottom: "LFCN_2_7x7"
  bottom: "label_2_7x7"
  top: "loss_2_7x7"
  detection_loss_param {
    cls_num: 5
    coord_num: 4
    lambda: 1
    field_h: 168
    field_w: 168
    downsample_rate: 16
    bb_smooth: true
    field_whr: 2
    field_xyr: 2
    bg_threshold: 0.2
    bg_multiple: 2
    sample_mode: "bootstrap"
    pos_neg_weighted: true
  }
}
layer {
  name: "detection_accuracy_2_7x7"
  type: "DetectionAccuracy"
  bottom: "LFCN_2_7x7"
  bottom: "label_2_7x7"
  top: "accuracy_2_7x7"
  top: "boxiou_2_7x7"
  detection_accuracy_param {
    cls_num: 5
    coord_num: 4
    field_h: 168
    field_w: 168
    downsample_rate: 16
    field_whr: 2
    field_xyr: 2
  }
}
layer {
  name: "pool5"
  type: "Pooling"
  bottom: "conv5_3"
  top: "pool5"
  pooling_param {
    pool: MAX
    kernel_size: 2
    stride: 2
  }
}
layer {
  name: "conv6_1"
  type: "Convolution"
  bottom: "pool5"
  top: "conv6_1"
  param {
    lr_mult: 1
    decay_mult: 1
  }
  param {
    lr_mult: 2
    decay_mult: 0
  }
  convolution_param {
    num_output: 512
    pad: 1
    kernel_size: 3
    weight_filler {
      type: "gaussian"
      std: 0.01
    }
    bias_filler {
      type: "constant"
    }
  }
}
layer {
  name: "relu6_1"
  type: "ReLU"
  bottom: "conv6_1"
  top: "conv6_1"
}
layer {
  name: "LFCN_3_5x5"
  type: "Convolution"
  bottom: "conv6_1"
  top: "LFCN_3_5x5"
  param {
    lr_mult: 1
    decay_mult: 1
  }
  param {
    lr_mult: 2
    decay_mult: 0
  }
  convolution_param {
    num_output: 9
    pad: 2
    kernel_size: 5
    weight_filler {
      type: "gaussian"
      std: 0.001
    }
    bias_filler {
      type: "constant"
    }
  }
}
layer {
  name: "detection_loss_3_5x5"
  type: "DetectionLoss"
  bottom: "LFCN_3_5x5"
  bottom: "label_3_5x5"
  top: "loss_3_5x5"
  detection_loss_param {
    cls_num: 5
    coord_num: 4
    lambda: 1
    field_h: 240
    field_w: 240
    downsample_rate: 32
    bb_smooth: true
    field_whr: 2
    field_xyr: 2
    bg_threshold: 0.2
    bg_multiple: 2
    sample_mode: "bootstrap"
    pos_neg_weighted: true
  }
}
layer {
  name: "detection_accuracy_3_5x5"
  type: "DetectionAccuracy"
  bottom: "LFCN_3_5x5"
  bottom: "label_3_5x5"
  top: "accuracy_3_5x5"
  top: "boxiou_3_5x5"
  detection_accuracy_param {
    cls_num: 5
    coord_num: 4
    field_h: 240
    field_w: 240
    downsample_rate: 32
    field_whr: 2
    field_xyr: 2
  }
}
layer {
  name: "LFCN_3_7x7"
  type: "Convolution"
  bottom: "conv6_1"
  top: "LFCN_3_7x7"
  param {
    lr_mult: 1
    decay_mult: 1
  }
  param {
    lr_mult: 2
    decay_mult: 0
  }
  convolution_param {
    num_output: 9
    pad: 3
    kernel_size: 7
    weight_filler {
      type: "gaussian"
      std: 0.001
    }
    bias_filler {
      type: "constant"
    }
  }
}
layer {
  name: "detection_loss_3_7x7"
  type: "DetectionLoss"
  bottom: "LFCN_3_7x7"
  bottom: "label_3_7x7"
  top: "loss_3_7x7"
  detection_loss_param {
    cls_num: 5
    coord_num: 4
    lambda: 1
    field_h: 336
    field_w: 336
    downsample_rate: 32
    bb_smooth: true
    field_whr: 2
    field_xyr: 2
    bg_threshold: 0.2
    bg_multiple: 2
    sample_mode: "bootstrap"
    pos_neg_weighted: true
  }
}
layer {
  name: "detection_accuracy_3_7x7"
  type: "DetectionAccuracy"
  bottom: "LFCN_3_7x7"
  bottom: "label_3_7x7"
  top: "accuracy_3_7x7"
  top: "boxiou_3_7x7"
  detection_accuracy_param {
    cls_num: 5
    coord_num: 4
    field_h: 336
    field_w: 336
    downsample_rate: 32
    field_whr: 2
    field_xyr: 2
  }
}
layer {
  name: "pool6"
  type: "Pooling"
  bottom: "conv6_1"
  top: "pool6"
  pooling_param {
    pool: MAX
    kernel_size: 2
    stride: 2
  }
}
layer {
  name: "LFCN_4_5x5"
  type: "Convolution"
  bottom: "pool6"
  top: "LFCN_4_5x5"
  param {
    lr_mult: 1
    decay_mult: 1
  }
  param {
    lr_mult: 2
    decay_mult: 0
  }
  convolution_param {
    num_output: 9
    pad: 2
    kernel_size: 5
    weight_filler {
      type: "gaussian"
      std: 0.001
    }
    bias_filler {
      type: "constant"
    }
  }
}
layer {
  name: "detection_loss_4_5x5"
  type: "DetectionLoss"
  bottom: "LFCN_4_5x5"
  bottom: "label_4_5x5"
  top: "loss_4_5x5"
  detection_loss_param {
    cls_num: 5
    coord_num: 4
    lambda: 1
    field_h: 480
    field_w: 480
    downsample_rate: 64
    bb_smooth: true
    field_whr: 2
    field_xyr: 2
    bg_threshold: 0.2
    bg_multiple: 2
    sample_mode: "bootstrap"
    pos_neg_weighted: true
  }
}
layer {
  name: "detection_accuracy_4_5x5"
  type: "DetectionAccuracy"
  bottom: "LFCN_4_5x5"
  bottom: "label_4_5x5"
  top: "accuracy_4_5x5"
  top: "boxiou_4_5x5"
  detection_accuracy_param {
    cls_num: 5
    coord_num: 4
    field_h: 480
    field_w: 480
    downsample_rate: 64
    field_whr: 2
    field_xyr: 2
  }
}
layer {
  name: "proposals"
  type: "BoxOutput"
  bottom: "LFCN_1_5x5"
  bottom: "LFCN_1_7x7"
  bottom: "LFCN_2_5x5"
  bottom: "LFCN_2_7x7"
  bottom: "LFCN_3_5x5"
  bottom: "LFCN_3_7x7"
  bottom: "LFCN_4_5x5"
  top: "proposals"
  propagate_down: false
  propagate_down: false
  propagate_down: false
  propagate_down: false
  propagate_down: false
  propagate_down: false
  propagate_down: false
  box_output_param {
    fg_thr: -8
    iou_thr: 0.65
    nms_type: "IOU"
    field_h: 60
    field_h: 84
    field_h: 120
    field_h: 168
    field_h: 240
    field_h: 336
    field_h: 480
    field_w: 60
    field_w: 84
    field_w: 120
    field_w: 168
    field_w: 240
    field_w: 336
    field_w: 480
    downsample_rate: 8
    downsample_rate: 8
    downsample_rate: 16
    downsample_rate: 16
    downsample_rate: 32
    downsample_rate: 32
    downsample_rate: 64
    field_whr: 2
    field_xyr: 2
    max_nms_num: 3000
  }
}
layer {
  name: "proposal_info"
  type: "ProposalTarget"
  bottom: "proposals"
  bottom: "gt_boxes"
  top: "rois"
  top: "proposal_labels"
  top: "proposal_targets"
  top: "box_inside_weights"
  top: "box_outside_weights"
  top: "match_gt_boxes"
  include {
    phase: TRAIN
  }
  propagate_down: false
  propagate_down: false
  proposal_target_param {
    cls_num: 5
    batch_size: 256
    fg_fraction: 0.25
    num_img_per_batch: 4
    fg_thr: 0.5
    bg_thr_hg: 0.49
    bg_thr_lw: 0.1
    img_width: 768
    img_height: 576
  }
  bbox_reg_param {
    bbox_mean: 0
    bbox_mean: 0
    bbox_mean: 0
    bbox_mean: 0
    bbox_std: 0.1
    bbox_std: 0.1
    bbox_std: 0.2
    bbox_std: 0.2
  }
}
layer {
  name: "softmax"
  type: "Softmax"
  bottom: "attention"
  top: "softmax_attention"
}
layer {
  name: "slice1"
  type: "Slice"
  bottom: "softmax_attention"
  top: "bg"
  top: "attention1"
  slice_param {
    slice_point: 1
    axis: 1
  }
}
layer {
  name: "silence"
  type: "Silence"
  bottom: "bg"
}
layer {
  name: "conv4_3_new"
  type: "Concat"
  bottom: "conv4_3"
  bottom: "attention1"
  top: "conv4_3_new"
}
layer {
  name: "conv4_3_2x"
  type: "Deconvolution"
  bottom: "conv4_3_new"
  top: "conv4_3_2x"
  param {
    lr_mult: 0
    decay_mult: 0
  }
  convolution_param {
    num_output: 513
    bias_term: false
    pad: 1
    kernel_size: 4
    group: 513
    stride: 2
    weight_filler {
      type: "bilinear"
    }
  }
}
layer {
  name: "roi_pool_org"
  type: "ROIPooling"
  bottom: "conv4_3_2x"
  bottom: "rois"
  top: "roi_pool_org"
  roi_pooling_param {
    pooled_h: 7
    pooled_w: 7
    spatial_scale: 0.25
    pad_ratio: 0
  }
}
layer {
  name: "roi_pool_ctx"
  type: "ROIPooling"
  bottom: "conv4_3_2x"
  bottom: "rois"
  top: "roi_pool_ctx"
  roi_pooling_param {
    pooled_h: 7
    pooled_w: 7
    spatial_scale: 0.25
    pad_ratio: 0.25
  }
}
layer {
  name: "roi_pool"
  type: "Concat"
  bottom: "roi_pool_org"
  bottom: "roi_pool_ctx"
  top: "roi_pool"
}
layer {
  name: "roi_c1"
  type: "Convolution"
  bottom: "roi_pool"
  top: "roi_c1"
  param {
    lr_mult: 1
    decay_mult: 1
  }
  param {
    lr_mult: 2
    decay_mult: 0
  }
  convolution_param {
    num_output: 512
    kernel_size: 3
    weight_filler {
      type: "gaussian"
      std: 0.01
    }
    bias_filler {
      type: "constant"
    }
  }
}
layer {
  name: "roi_c1_relu"
  type: "ReLU"
  bottom: "roi_c1"
  top: "roi_c1"
}
layer {
  name: "fc6"
  type: "InnerProduct"
  bottom: "roi_c1"
  top: "fc6"
  param {
    lr_mult: 1
  }
  param {
    lr_mult: 2
  }
  inner_product_param {
    num_output: 4096
    weight_filler {
      type: "gaussian"
      std: 0.001
    }
    bias_filler {
      type: "constant"
      value: 0
    }
  }
}
layer {
  name: "relu6"
  type: "ReLU"
  bottom: "fc6"
  top: "fc6"
}
layer {
  name: "drop6"
  type: "Dropout"
  bottom: "fc6"
  top: "fc6"
  dropout_param {
    dropout_ratio: 0.5
  }
}
layer {
  name: "cls_pred"
  type: "InnerProduct"
  bottom: "fc6"
  top: "cls_pred"
  param {
    lr_mult: 1
  }
  param {
    lr_mult: 2
  }
  inner_product_param {
    num_output: 5
    weight_filler {
      type: "gaussian"
      std: 0.01
    }
    bias_filler {
      type: "constant"
      value: 0
    }
  }
}
layer {
  name: "bbox_pred"
  type: "InnerProduct"
  bottom: "fc6"
  top: "bbox_pred"
  param {
    lr_mult: 1
  }
  param {
    lr_mult: 2
  }
  inner_product_param {
    num_output: 20
    weight_filler {
      type: "gaussian"
      std: 0.001
    }
    bias_filler {
      type: "constant"
      value: 0
    }
  }
}
layer {
  name: "loss_cls"
  type: "SoftmaxWithLoss"
  bottom: "cls_pred"
  bottom: "proposal_labels"
  top: "loss_cls"
  loss_weight: 1
  propagate_down: true
  propagate_down: false
}
layer {
  name: "cls_accuracy"
  type: "Accuracy"
  bottom: "cls_pred"
  bottom: "proposal_labels"
  top: "cls_accuracy"
}
layer {
  name: "loss_bbox"
  type: "SmoothL1Loss"
  bottom: "bbox_pred"
  bottom: "proposal_targets"
  bottom: "box_inside_weights"
  bottom: "box_outside_weights"
  top: "loss_bbox"
  loss_weight: 1
}
layer {
  name: "bbox_iou"
  type: "BboxAccuracy"
  bottom: "bbox_pred"
  bottom: "rois"
  bottom: "match_gt_boxes"
  top: "bbox_iou"
  top: "bbox_iou_pre"
  bbox_reg_param {
    bbox_mean: 0
    bbox_mean: 0
    bbox_mean: 0
    bbox_mean: 0
    bbox_std: 0.1
    bbox_std: 0.1
    bbox_std: 0.2
    bbox_std: 0.2
  }
}
I1019 10:05:58.826952 32731 layer_factory.hpp:77] Creating layer data
I1019 10:05:58.826989 32731 net.cpp:100] Creating Layer data
I1019 10:05:58.826997 32731 net.cpp:408] data -> data
…
I1019 10:05:58.853363 32731 image_gt_data_layer.cpp:235] output label size 2 : 3,6,48,48
I1019 10:05:58.853406 32731 image_gt_data_layer.cpp:235] output label size 3 : 3,6,48,48
I1019 10:05:58.853444 32731 image_gt_data_layer.cpp:235] output label size 4 : 3,6,24,24
I1019 10:05:58.853482 32731 image_gt_data_layer.cpp:235] output label size 5 : 3,6,24,24
I1019 10:05:58.853521 32731 image_gt_data_layer.cpp:235] output label size 6 : 3,6,12,12
I1019 10:05:58.853560 32731 image_gt_data_layer.cpp:250] output gt boxes size: 1,7,1,1
I1019 10:05:58.912926 32731 net.cpp:150] Setting up data
I1019 10:05:58.912964 32731 net.cpp:157] Top shape: 3 4 768 768 (7077888)
I1019 10:05:58.912972 32731 net.cpp:157] Top shape: 3 6 96 96 (165888)
I1019 10:05:58.912979 32731 net.cpp:157] Top shape: 3 6 96 96 (165888)
I1019 10:05:58.912984 32731 net.cpp:157] Top shape: 3 6 48 48 (41472)
I1019 10:05:58.912991 32731 net.cpp:157] Top shape: 3 6 48 48 (41472)
I1019 10:05:58.912994 32731 net.cpp:157] Top shape: 3 6 24 24 (10368)
I1019 10:05:58.912999 32731 net.cpp:157] Top shape: 3 6 24 24 (10368)
I1019 10:05:58.913004 32731 net.cpp:157] Top shape: 3 6 12 12 (2592)
I1019 10:05:58.913009 32731 net.cpp:157] Top shape: 1 7 1 1 (7)
I1019 10:05:58.913014 32731 net.cpp:165] Memory required for data: 30063772
I1019 10:05:58.913025 32731 layer_factory.hpp:77] Creating layer label_1_5x5_data_1_split
I1019 10:05:58.913045 32731 net.cpp:100] Creating Layer label_1_5x5_data_1_split
I1019 10:05:58.913054 32731 net.cpp:434] label_1_5x5_data_1_split <- label_1_5x5
I1019 10:05:58.913069 32731 net.cpp:408] label_1_5x5_data_1_split -> label_1_5x5_data_1_split_0
I1019 10:05:58.913080 32731 net.cpp:408] label_1_5x5_data_1_split -> label_1_5x5_data_1_split_1
I1019 10:05:58.913344 32731 net.cpp:150] Setting up label_1_5x5_data_1_split
I1019 10:05:58.913393 32731 net.cpp:157] Top shape: 3 6 96 96 (165888)
I1019 10:05:58.913408 32731 net.cpp:157] Top shape: 3 6 96 96 (165888)
I1019 10:05:58.913415 32731 net.cpp:165] Memory required for data: 31390876
I1019 10:05:58.913426 32731 layer_factory.hpp:77] Creating layer label_1_7x7_data_2_split
I1019 10:05:58.913450 32731 net.cpp:100] Creating Layer label_1_7x7_data_2_split
I1019 10:05:58.913461 32731 net.cpp:434] label_1_7x7_data_2_split <- label_1_7x7
I1019 10:05:58.913477 32731 net.cpp:408] label_1_7x7_data_2_split -> label_1_7x7_data_2_split_0
I1019 10:05:58.913496 32731 net.cpp:408] label_1_7x7_data_2_split -> label_1_7x7_data_2_split_1
I1019 10:05:58.913561 32731 net.cpp:150] Setting up label_1_7x7_data_2_split
I1019 10:05:58.913574 32731 net.cpp:157] Top shape: 3 6 96 96 (165888)
I1019 10:05:58.913583 32731 net.cpp:157] Top shape: 3 6 96 96 (165888)
I1019 10:05:58.913592 32731 net.cpp:165] Memory required for data: 32717980
I1019 10:05:58.913599 32731 layer_factory.hpp:77] Creating layer label_2_5x5_data_3_split
I1019 10:05:58.913612 32731 net.cpp:100] Creating Layer label_2_5x5_data_3_split
I1019 10:05:58.913622 32731 net.cpp:434] label_2_5x5_data_3_split <- label_2_5x5
I1019 10:05:58.913635 32731 net.cpp:408] label_2_5x5_data_3_split -> label_2_5x5_data_3_split_0
I1019 10:05:58.913648 32731 net.cpp:408] label_2_5x5_data_3_split -> label_2_5x5_data_3_split_1
I1019 10:05:58.913712 32731 net.cpp:150] Setting up label_2_5x5_data_3_split
I1019 10:05:58.913730 32731 net.cpp:157] Top shape: 3 6 48 48 (41472)
I1019 10:05:58.913741 32731 net.cpp:157] Top shape: 3 6 48 48 (41472)
I1019 10:05:58.913748 32731 net.cpp:165] Memory required for data: 33049756
I1019 10:05:58.913758 32731 layer_factory.hpp:77] Creating layer label_2_7x7_data_4_split
I1019 10:05:58.913769 32731 net.cpp:100] Creating Layer label_2_7x7_data_4_split
I1019 10:05:58.913779 32731 net.cpp:434] label_2_7x7_data_4_split <- label_2_7x7
I1019 10:05:58.913789 32731 net.cpp:408] label_2_7x7_data_4_split -> label_2_7x7_data_4_split_0
I1019 10:05:58.913800 32731 net.cpp:408] label_2_7x7_data_4_split -> label_2_7x7_data_4_split_1
I1019 10:05:58.913862 32731 net.cpp:150] Setting up label_2_7x7_data_4_split
I1019 10:05:58.913875 32731 net.cpp:157] Top shape: 3 6 48 48 (41472)
I1019 10:05:58.913887 32731 net.cpp:157] Top shape: 3 6 48 48 (41472)
I1019 10:05:58.913895 32731 net.cpp:165] Memory required for data: 33381532
I1019 10:05:58.913903 32731 layer_factory.hpp:77] Creating layer label_3_5x5_data_5_split
I1019 10:05:58.913915 32731 net.cpp:100] Creating Layer label_3_5x5_data_5_split
I1019 10:05:58.913924 32731 net.cpp:434] label_3_5x5_data_5_split <- label_3_5x5
I1019 10:05:58.913934 32731 net.cpp:408] label_3_5x5_data_5_split -> label_3_5x5_data_5_split_0
I1019 10:05:58.913945 32731 net.cpp:408] label_3_5x5_data_5_split -> label_3_5x5_data_5_split_1
I1019 10:05:58.914007 32731 net.cpp:150] Setting up label_3_5x5_data_5_split
I1019 10:05:58.914019 32731 net.cpp:157] Top shape: 3 6 24 24 (10368)
I1019 10:05:58.914029 32731 net.cpp:157] Top shape: 3 6 24 24 (10368)
I1019 10:05:58.914036 32731 net.cpp:165] Memory required for data: 33464476
I1019 10:05:58.914044 32731 layer_factory.hpp:77] Creating layer label_3_7x7_data_6_split
I1019 10:05:58.914055 32731 net.cpp:100] Creating Layer label_3_7x7_data_6_split
I1019 10:05:58.914064 32731 net.cpp:434] label_3_7x7_data_6_split <- label_3_7x7
I1019 10:05:58.914074 32731 net.cpp:408] label_3_7x7_data_6_split -> label_3_7x7_data_6_split_0
I1019 10:05:58.914085 32731 net.cpp:408] label_3_7x7_data_6_split -> label_3_7x7_data_6_split_1
I1019 10:05:58.914142 32731 net.cpp:150] Setting up label_3_7x7_data_6_split
I1019 10:05:58.914155 32731 net.cpp:157] Top shape: 3 6 24 24 (10368)
I1019 10:05:58.914165 32731 net.cpp:157] Top shape: 3 6 24 24 (10368)
I1019 10:05:58.914173 32731 net.cpp:165] Memory required for data: 33547420
I1019 10:05:58.914181 32731 layer_factory.hpp:77] Creating layer label_4_5x5_data_7_split
I1019 10:05:58.914191 32731 net.cpp:100] Creating Layer label_4_5x5_data_7_split
I1019 10:05:58.914199 32731 net.cpp:434] label_4_5x5_data_7_split <- label_4_5x5
I1019 10:05:58.914212 32731 net.cpp:408] label_4_5x5_data_7_split -> label_4_5x5_data_7_split_0
I1019 10:05:58.914225 32731 net.cpp:408] label_4_5x5_data_7_split -> label_4_5x5_data_7_split_1
I1019 10:05:58.914281 32731 net.cpp:150] Setting up label_4_5x5_data_7_split
I1019 10:05:58.914294 32731 net.cpp:157] Top shape: 3 6 12 12 (2592)
I1019 10:05:58.914302 32731 net.cpp:157] Top shape: 3 6 12 12 (2592)
I1019 10:05:58.914310 32731 net.cpp:165] Memory required for data: 33568156
I1019 10:05:58.914319 32731 layer_factory.hpp:77] Creating layer slice
I1019 10:05:58.914343 32731 net.cpp:100] Creating Layer slice
I1019 10:05:58.914352 32731 net.cpp:434] slice <- data
I1019 10:05:58.914363 32731 net.cpp:408] slice -> data123
I1019 10:05:58.914381 32731 net.cpp:408] slice -> ch4
I1019 10:05:58.914443 32731 net.cpp:150] Setting up slice
I1019 10:05:58.914456 32731 net.cpp:157] Top shape: 3 3 768 768 (5308416)
I1019 10:05:58.914466 32731 net.cpp:157] Top shape: 3 1 768 768 (1769472)
I1019 10:05:58.914474 32731 net.cpp:165] Memory required for data: 61879708
I1019 10:05:58.914482 32731 layer_factory.hpp:77] Creating layer conv1_1
I1019 10:05:58.914502 32731 net.cpp:100] Creating Layer conv1_1
I1019 10:05:58.914512 32731 net.cpp:434] conv1_1 <- data123
I1019 10:05:58.914526 32731 net.cpp:408] conv1_1 -> conv1_1
I1019 10:05:59.149575 32731 net.cpp:150] Setting up conv1_1
I1019 10:05:59.149605 32731 net.cpp:157] Top shape: 3 64 768 768 (113246208)
I1019 10:05:59.149611 32731 net.cpp:165] Memory required for data: 514864540
I1019 10:05:59.149629 32731 layer_factory.hpp:77] Creating layer relu1_1
I1019 10:05:59.149642 32731 net.cpp:100] Creating Layer relu1_1
I1019 10:05:59.149648 32731 net.cpp:434] relu1_1 <- conv1_1
I1019 10:05:59.149655 32731 net.cpp:395] relu1_1 -> conv1_1 (in-place)
I1019 10:05:59.149843 32731 net.cpp:150] Setting up relu1_1
I1019 10:05:59.149854 32731 net.cpp:157] Top shape: 3 64 768 768 (113246208)
I1019 10:05:59.149858 32731 net.cpp:165] Memory required for data: 967849372
I1019 10:05:59.149863 32731 layer_factory.hpp:77] Creating layer conv1_2
I1019 10:05:59.149873 32731 net.cpp:100] Creating Layer conv1_2
I1019 10:05:59.149878 32731 net.cpp:434] conv1_2 <- conv1_1
I1019 10:05:59.149883 32731 net.cpp:408] conv1_2 -> conv1_2
I1019 10:05:59.152204 32731 net.cpp:150] Setting up conv1_2
I1019 10:05:59.152221 32731 net.cpp:157] Top shape: 3 64 768 768 (113246208)
I1019 10:05:59.152225 32731 net.cpp:165] Memory required for data: 1420834204
I1019 10:05:59.152237 32731 layer_factory.hpp:77] Creating layer relu1_2
I1019 10:05:59.152247 32731 net.cpp:100] Creating Layer relu1_2
I1019 10:05:59.152252 32731 net.cpp:434] relu1_2 <- conv1_2
I1019 10:05:59.152258 32731 net.cpp:395] relu1_2 -> conv1_2 (in-place)
I1019 10:05:59.152493 32731 net.cpp:150] Setting up relu1_2
I1019 10:05:59.152506 32731 net.cpp:157] Top shape: 3 64 768 768 (113246208)
I1019 10:05:59.152511 32731 net.cpp:165] Memory required for data: 1873819036
I1019 10:05:59.152515 32731 layer_factory.hpp:77] Creating layer pool1
I1019 10:05:59.152525 32731 net.cpp:100] Creating Layer pool1
I1019 10:05:59.152530 32731 net.cpp:434] pool1 <- conv1_2
I1019 10:05:59.152536 32731 net.cpp:408] pool1 -> pool1
I1019 10:05:59.152597 32731 net.cpp:150] Setting up pool1
I1019 10:05:59.152606 32731 net.cpp:157] Top shape: 3 64 384 384 (28311552)
I1019 10:05:59.152611 32731 net.cpp:165] Memory required for data: 1987065244
I1019 10:05:59.152616 32731 layer_factory.hpp:77] Creating layer conv2_1
I1019 10:05:59.152624 32731 net.cpp:100] Creating Layer conv2_1
I1019 10:05:59.152629 32731 net.cpp:434] conv2_1 <- pool1
I1019 10:05:59.152634 32731 net.cpp:408] conv2_1 -> conv2_1
I1019 10:05:59.157920 32731 net.cpp:150] Setting up conv2_1
I1019 10:05:59.157949 32731 net.cpp:157] Top shape: 3 128 384 384 (56623104)
I1019 10:05:59.157954 32731 net.cpp:165] Memory required for data: 2213557660
I1019 10:05:59.157969 32731 layer_factory.hpp:77] Creating layer relu2_1
I1019 10:05:59.157985 32731 net.cpp:100] Creating Layer relu2_1
I1019 10:05:59.157992 32731 net.cpp:434] relu2_1 <- conv2_1
I1019 10:05:59.157999 32731 net.cpp:395] relu2_1 -> conv2_1 (in-place)
I1019 10:05:59.158152 32731 net.cpp:150] Setting up relu2_1
I1019 10:05:59.158161 32731 net.cpp:157] Top shape: 3 128 384 384 (56623104)
I1019 10:05:59.158164 32731 net.cpp:165] Memory required for data: 2440050076
I1019 10:05:59.158167 32731 layer_factory.hpp:77] Creating layer conv2_2
I1019 10:05:59.158181 32731 net.cpp:100] Creating Layer conv2_2
I1019 10:05:59.158185 32731 net.cpp:434] conv2_2 <- conv2_1
I1019 10:05:59.158191 32731 net.cpp:408] conv2_2 -> conv2_2
I1019 10:05:59.159579 32731 net.cpp:150] Setting up conv2_2
I1019 10:05:59.159591 32731 net.cpp:157] Top shape: 3 128 384 384 (56623104)
I1019 10:05:59.159595 32731 net.cpp:165] Memory required for data: 2666542492
I1019 10:05:59.159602 32731 layer_factory.hpp:77] Creating layer relu2_2
I1019 10:05:59.159607 32731 net.cpp:100] Creating Layer relu2_2
I1019 10:05:59.159611 32731 net.cpp:434] relu2_2 <- conv2_2
I1019 10:05:59.159616 32731 net.cpp:395] relu2_2 -> conv2_2 (in-place)
I1019 10:05:59.159762 32731 net.cpp:150] Setting up relu2_2
I1019 10:05:59.159771 32731 net.cpp:157] Top shape: 3 128 384 384 (56623104)
I1019 10:05:59.159775 32731 net.cpp:165] Memory required for data: 2893034908
I1019 10:05:59.159778 32731 layer_factory.hpp:77] Creating layer pool2
I1019 10:05:59.159785 32731 net.cpp:100] Creating Layer pool2
I1019 10:05:59.159790 32731 net.cpp:434] pool2 <- conv2_2
I1019 10:05:59.159795 32731 net.cpp:408] pool2 -> pool2
I1019 10:05:59.159828 32731 net.cpp:150] Setting up pool2
I1019 10:05:59.159835 32731 net.cpp:157] Top shape: 3 128 192 192 (14155776)
I1019 10:05:59.159838 32731 net.cpp:165] Memory required for data: 2949658012
I1019 10:05:59.159842 32731 layer_factory.hpp:77] Creating layer conv3_1
I1019 10:05:59.159848 32731 net.cpp:100] Creating Layer conv3_1
I1019 10:05:59.159852 32731 net.cpp:434] conv3_1 <- pool2
I1019 10:05:59.159857 32731 net.cpp:408] conv3_1 -> conv3_1
I1019 10:05:59.162081 32731 net.cpp:150] Setting up conv3_1
I1019 10:05:59.162096 32731 net.cpp:157] Top shape: 3 256 192 192 (28311552)
I1019 10:05:59.162099 32731 net.cpp:165] Memory required for data: 3062904220
I1019 10:05:59.162111 32731 layer_factory.hpp:77] Creating layer relu3_1
I1019 10:05:59.162118 32731 net.cpp:100] Creating Layer relu3_1
I1019 10:05:59.162123 32731 net.cpp:434] relu3_1 <- conv3_1
I1019 10:05:59.162128 32731 net.cpp:395] relu3_1 -> conv3_1 (in-place)
I1019 10:05:59.162561 32731 net.cpp:150] Setting up relu3_1
I1019 10:05:59.162575 32731 net.cpp:157] Top shape: 3 256 192 192 (28311552)
I1019 10:05:59.162580 32731 net.cpp:165] Memory required for data: 3176150428
I1019 10:05:59.162585 32731 layer_factory.hpp:77] Creating layer conv3_2
I1019 10:05:59.162595 32731 net.cpp:100] Creating Layer conv3_2
I1019 10:05:59.162598 32731 net.cpp:434] conv3_2 <- conv3_1
I1019 10:05:59.162606 32731 net.cpp:408] conv3_2 -> conv3_2
I1019 10:05:59.165221 32731 net.cpp:150] Setting up conv3_2
I1019 10:05:59.165247 32731 net.cpp:157] Top shape: 3 256 192 192 (28311552)
I1019 10:05:59.165252 32731 net.cpp:165] Memory required for data: 3289396636
I1019 10:05:59.165262 32731 layer_factory.hpp:77] Creating layer relu3_2
I1019 10:05:59.165274 32731 net.cpp:100] Creating Layer relu3_2
I1019 10:05:59.165280 32731 net.cpp:434] relu3_2 <- conv3_2
I1019 10:05:59.165288 32731 net.cpp:395] relu3_2 -> conv3_2 (in-place)
I1019 10:05:59.165901 32731 net.cpp:150] Setting up relu3_2
I1019 10:05:59.165918 32731 net.cpp:157] Top shape: 3 256 192 192 (28311552)
I1019 10:05:59.165925 32731 net.cpp:165] Memory required for data: 3402642844
I1019 10:05:59.165930 32731 layer_factory.hpp:77] Creating layer conv3_3
I1019 10:05:59.165941 32731 net.cpp:100] Creating Layer conv3_3
I1019 10:05:59.165946 32731 net.cpp:434] conv3_3 <- conv3_2
I1019 10:05:59.165954 32731 net.cpp:408] conv3_3 -> conv3_3
I1019 10:05:59.168829 32731 net.cpp:150] Setting up conv3_3
I1019 10:05:59.168853 32731 net.cpp:157] Top shape: 3 256 192 192 (28311552)
I1019 10:05:59.168857 32731 net.cpp:165] Memory required for data: 3515889052
I1019 10:05:59.168866 32731 layer_factory.hpp:77] Creating layer relu3_3
I1019 10:05:59.168876 32731 net.cpp:100] Creating Layer relu3_3
I1019 10:05:59.168881 32731 net.cpp:434] relu3_3 <- conv3_3
I1019 10:05:59.168887 32731 net.cpp:395] relu3_3 -> conv3_3 (in-place)
I1019 10:05:59.169070 32731 net.cpp:150] Setting up relu3_3
I1019 10:05:59.169080 32731 net.cpp:157] Top shape: 3 256 192 192 (28311552)
I1019 10:05:59.169083 32731 net.cpp:165] Memory required for data: 3629135260
I1019 10:05:59.169087 32731 layer_factory.hpp:77] Creating layer pool3
I1019 10:05:59.169095 32731 net.cpp:100] Creating Layer pool3
I1019 10:05:59.169100 32731 net.cpp:434] pool3 <- conv3_3
I1019 10:05:59.169106 32731 net.cpp:408] pool3 -> pool3
I1019 10:05:59.169147 32731 net.cpp:150] Setting up pool3
I1019 10:05:59.169154 32731 net.cpp:157] Top shape: 3 256 96 96 (7077888)
I1019 10:05:59.169158 32731 net.cpp:165] Memory required for data: 3657446812
I1019 10:05:59.169162 32731 layer_factory.hpp:77] Creating layer conv4_1
I1019 10:05:59.169172 32731 net.cpp:100] Creating Layer conv4_1
I1019 10:05:59.169175 32731 net.cpp:434] conv4_1 <- pool3
I1019 10:05:59.169180 32731 net.cpp:408] conv4_1 -> conv4_1
I1019 10:05:59.180424 32731 net.cpp:150] Setting up conv4_1
I1019 10:05:59.180493 32731 net.cpp:157] Top shape: 3 512 96 96 (14155776)
I1019 10:05:59.180505 32731 net.cpp:165] Memory required for data: 3714069916
I1019 10:05:59.180534 32731 layer_factory.hpp:77] Creating layer relu4_1
I1019 10:05:59.180562 32731 net.cpp:100] Creating Layer relu4_1
I1019 10:05:59.180579 32731 net.cpp:434] relu4_1 <- conv4_1
I1019 10:05:59.180596 32731 net.cpp:395] relu4_1 -> conv4_1 (in-place)
I1019 10:05:59.181090 32731 net.cpp:150] Setting up relu4_1
I1019 10:05:59.181110 32731 net.cpp:157] Top shape: 3 512 96 96 (14155776)
I1019 10:05:59.181120 32731 net.cpp:165] Memory required for data: 3770693020
I1019 10:05:59.181130 32731 layer_factory.hpp:77] Creating layer conv4_2
I1019 10:05:59.181154 32731 net.cpp:100] Creating Layer conv4_2
I1019 10:05:59.181164 32731 net.cpp:434] conv4_2 <- conv4_1
I1019 10:05:59.181179 32731 net.cpp:408] conv4_2 -> conv4_2
I1019 10:05:59.193059 32731 net.cpp:150] Setting up conv4_2
I1019 10:05:59.193092 32731 net.cpp:157] Top shape: 3 512 96 96 (14155776)
I1019 10:05:59.193097 32731 net.cpp:165] Memory required for data: 3827316124
I1019 10:05:59.193112 32731 layer_factory.hpp:77] Creating layer relu4_2
I1019 10:05:59.193125 32731 net.cpp:100] Creating Layer relu4_2
I1019 10:05:59.193132 32731 net.cpp:434] relu4_2 <- conv4_2
I1019 10:05:59.193140 32731 net.cpp:395] relu4_2 -> conv4_2 (in-place)
I1019 10:05:59.193310 32731 net.cpp:150] Setting up relu4_2
I1019 10:05:59.193320 32731 net.cpp:157] Top shape: 3 512 96 96 (14155776)
I1019 10:05:59.193325 32731 net.cpp:165] Memory required for data: 3883939228
I1019 10:05:59.193330 32731 layer_factory.hpp:77] Creating layer conv4_3
I1019 10:05:59.193339 32731 net.cpp:100] Creating Layer conv4_3
I1019 10:05:59.193344 32731 net.cpp:434] conv4_3 <- conv4_2
I1019 10:05:59.193351 32731 net.cpp:408] conv4_3 -> conv4_3
I1019 10:05:59.200984 32731 net.cpp:150] Setting up conv4_3
I1019 10:05:59.201040 32731 net.cpp:157] Top shape: 3 512 96 96 (14155776)
I1019 10:05:59.201048 32731 net.cpp:165] Memory required for data: 3940562332
I1019 10:05:59.201064 32731 layer_factory.hpp:77] Creating layer relu4_3
I1019 10:05:59.201082 32731 net.cpp:100] Creating Layer relu4_3
I1019 10:05:59.201092 32731 net.cpp:434] relu4_3 <- conv4_3
I1019 10:05:59.201102 32731 net.cpp:395] relu4_3 -> conv4_3 (in-place)
I1019 10:05:59.201287 32731 net.cpp:150] Setting up relu4_3
I1019 10:05:59.201299 32731 net.cpp:157] Top shape: 3 512 96 96 (14155776)
I1019 10:05:59.201303 32731 net.cpp:165] Memory required for data: 3997185436
I1019 10:05:59.201308 32731 layer_factory.hpp:77] Creating layer conv4_3_relu4_3_0_split
I1019 10:05:59.201319 32731 net.cpp:100] Creating Layer conv4_3_relu4_3_0_split
I1019 10:05:59.201323 32731 net.cpp:434] conv4_3_relu4_3_0_split <- conv4_3
I1019 10:05:59.201329 32731 net.cpp:408] conv4_3_relu4_3_0_split -> conv4_3_relu4_3_0_split_0
I1019 10:05:59.201339 32731 net.cpp:408] conv4_3_relu4_3_0_split -> conv4_3_relu4_3_0_split_1
I1019 10:05:59.201345 32731 net.cpp:408] conv4_3_relu4_3_0_split -> conv4_3_relu4_3_0_split_2
I1019 10:05:59.201352 32731 net.cpp:408] conv4_3_relu4_3_0_split -> conv4_3_relu4_3_0_split_3
I1019 10:05:59.201417 32731 net.cpp:150] Setting up conv4_3_relu4_3_0_split
I1019 10:05:59.201426 32731 net.cpp:157] Top shape: 3 512 96 96 (14155776)
I1019 10:05:59.201431 32731 net.cpp:157] Top shape: 3 512 96 96 (14155776)
I1019 10:05:59.201436 32731 net.cpp:157] Top shape: 3 512 96 96 (14155776)
I1019 10:05:59.201442 32731 net.cpp:157] Top shape: 3 512 96 96 (14155776)
I1019 10:05:59.201444 32731 net.cpp:165] Memory required for data: 4223677852
I1019 10:05:59.201448 32731 layer_factory.hpp:77] Creating layer buffer
I1019 10:05:59.201462 32731 net.cpp:100] Creating Layer buffer
I1019 10:05:59.201467 32731 net.cpp:434] buffer <- conv4_3_relu4_3_0_split_0
I1019 10:05:59.201473 32731 net.cpp:408] buffer -> buffer
I1019 10:05:59.265211 32731 net.cpp:150] Setting up buffer
I1019 10:05:59.265240 32731 net.cpp:157] Top shape: 3 512 96 96 (14155776)
I1019 10:05:59.265245 32731 net.cpp:165] Memory required for data: 4280300956
I1019 10:05:59.265254 32731 layer_factory.hpp:77] Creating layer relu_buffer
I1019 10:05:59.265265 32731 net.cpp:100] Creating Layer relu_buffer
I1019 10:05:59.265270 32731 net.cpp:434] relu_buffer <- buffer
I1019 10:05:59.265276 32731 net.cpp:395] relu_buffer -> buffer (in-place)
I1019 10:05:59.265724 32731 net.cpp:150] Setting up relu_buffer
I1019 10:05:59.265736 32731 net.cpp:157] Top shape: 3 512 96 96 (14155776)
I1019 10:05:59.265740 32731 net.cpp:165] Memory required for data: 4336924060
I1019 10:05:59.265744 32731 layer_factory.hpp:77] Creating layer attention
I1019 10:05:59.265753 32731 net.cpp:100] Creating Layer attention
I1019 10:05:59.265759 32731 net.cpp:434] attention <- buffer
I1019 10:05:59.265765 32731 net.cpp:408] attention -> attention
I1019 10:05:59.266706 32731 net.cpp:150] Setting up attention
I1019 10:05:59.266719 32731 net.cpp:157] Top shape: 3 2 96 96 (55296)
I1019 10:05:59.266724 32731 net.cpp:165] Memory required for data: 4337145244
I1019 10:05:59.266731 32731 layer_factory.hpp:77] Creating layer attention_attention_0_split
I1019 10:05:59.266737 32731 net.cpp:100] Creating Layer attention_attention_0_split
I1019 10:05:59.266741 32731 net.cpp:434] attention_attention_0_split <- attention
I1019 10:05:59.266746 32731 net.cpp:408] attention_attention_0_split -> attention_attention_0_split_0
I1019 10:05:59.266752 32731 net.cpp:408] attention_attention_0_split -> attention_attention_0_split_1
I1019 10:05:59.266788 32731 net.cpp:150] Setting up attention_attention_0_split
I1019 10:05:59.266793 32731 net.cpp:157] Top shape: 3 2 96 96 (55296)
I1019 10:05:59.266798 32731 net.cpp:157] Top shape: 3 2 96 96 (55296)
I1019 10:05:59.266800 32731 net.cpp:165] Memory required for data: 4337587612
I1019 10:05:59.266804 32731 layer_factory.hpp:77] Creating layer ch4_pool
I1019 10:05:59.266810 32731 net.cpp:100] Creating Layer ch4_pool
I1019 10:05:59.266813 32731 net.cpp:434] ch4_pool <- ch4
I1019 10:05:59.266819 32731 net.cpp:408] ch4_pool -> ch4_pool
I1019 10:05:59.266850 32731 net.cpp:150] Setting up ch4_pool
I1019 10:05:59.266856 32731 net.cpp:157] Top shape: 3 1 96 96 (27648)
I1019 10:05:59.266860 32731 net.cpp:165] Memory required for data: 4337698204
I1019 10:05:59.266863 32731 layer_factory.hpp:77] Creating layer loss_attention
I1019 10:05:59.266868 32731 net.cpp:100] Creating Layer loss_attention
I1019 10:05:59.266872 32731 net.cpp:434] loss_attention <- attention_attention_0_split_0
I1019 10:05:59.266877 32731 net.cpp:434] loss_attention <- ch4_pool
I1019 10:05:59.266882 32731 net.cpp:408] loss_attention -> loss_attention
I1019 10:05:59.266892 32731 layer_factory.hpp:77] Creating layer loss_attention
I1019 10:05:59.267436 32731 net.cpp:150] Setting up loss_attention
I1019 10:05:59.267451 32731 net.cpp:157] Top shape: (1)
I1019 10:05:59.267453 32731 net.cpp:160]     with loss weight 1
I1019 10:05:59.267472 32731 net.cpp:165] Memory required for data: 4337698208
I1019 10:05:59.267477 32731 layer_factory.hpp:77] Creating layer loss1_conv1
I1019 10:05:59.267485 32731 net.cpp:100] Creating Layer loss1_conv1
I1019 10:05:59.267489 32731 net.cpp:434] loss1_conv1 <- conv4_3_relu4_3_0_split_1
I1019 10:05:59.267496 32731 net.cpp:408] loss1_conv1 -> loss1_conv1
I1019 10:05:59.329776 32731 net.cpp:150] Setting up loss1_conv1
I1019 10:05:59.329820 32731 net.cpp:157] Top shape: 3 512 96 96 (14155776)
I1019 10:05:59.329825 32731 net.cpp:165] Memory required for data: 4394321312
I1019 10:05:59.329838 32731 layer_factory.hpp:77] Creating layer loss_relu1
I1019 10:05:59.329855 32731 net.cpp:100] Creating Layer loss_relu1
I1019 10:05:59.329864 32731 net.cpp:434] loss_relu1 <- loss1_conv1
I1019 10:05:59.329870 32731 net.cpp:395] loss_relu1 -> loss1_conv1 (in-place)
I1019 10:05:59.330030 32731 net.cpp:150] Setting up loss_relu1
I1019 10:05:59.330039 32731 net.cpp:157] Top shape: 3 512 96 96 (14155776)
I1019 10:05:59.330042 32731 net.cpp:165] Memory required for data: 4450944416
I1019 10:05:59.330046 32731 layer_factory.hpp:77] Creating layer loss1_conv1_loss_relu1_0_split
I1019 10:05:59.330054 32731 net.cpp:100] Creating Layer loss1_conv1_loss_relu1_0_split
I1019 10:05:59.330057 32731 net.cpp:434] loss1_conv1_loss_relu1_0_split <- loss1_conv1
I1019 10:05:59.330063 32731 net.cpp:408] loss1_conv1_loss_relu1_0_split -> loss1_conv1_loss_relu1_0_split_0
I1019 10:05:59.330070 32731 net.cpp:408] loss1_conv1_loss_relu1_0_split -> loss1_conv1_loss_relu1_0_split_1
I1019 10:05:59.330104 32731 net.cpp:150] Setting up loss1_conv1_loss_relu1_0_split
I1019 10:05:59.330111 32731 net.cpp:157] Top shape: 3 512 96 96 (14155776)
I1019 10:05:59.330116 32731 net.cpp:157] Top shape: 3 512 96 96 (14155776)
I1019 10:05:59.330119 32731 net.cpp:165] Memory required for data: 4564190624
I1019 10:05:59.330122 32731 layer_factory.hpp:77] Creating layer LFCN_1_5x5
I1019 10:05:59.330137 32731 net.cpp:100] Creating Layer LFCN_1_5x5
I1019 10:05:59.330139 32731 net.cpp:434] LFCN_1_5x5 <- loss1_conv1_loss_relu1_0_split_0
I1019 10:05:59.330147 32731 net.cpp:408] LFCN_1_5x5 -> LFCN_1_5x5
I1019 10:05:59.336585 32731 net.cpp:150] Setting up LFCN_1_5x5
I1019 10:05:59.336613 32731 net.cpp:157] Top shape: 3 9 96 96 (248832)
I1019 10:05:59.336618 32731 net.cpp:165] Memory required for data: 4565185952
I1019 10:05:59.336628 32731 layer_factory.hpp:77] Creating layer LFCN_1_5x5_LFCN_1_5x5_0_split
I1019 10:05:59.336638 32731 net.cpp:100] Creating Layer LFCN_1_5x5_LFCN_1_5x5_0_split
I1019 10:05:59.336644 32731 net.cpp:434] LFCN_1_5x5_LFCN_1_5x5_0_split <- LFCN_1_5x5
I1019 10:05:59.336652 32731 net.cpp:408] LFCN_1_5x5_LFCN_1_5x5_0_split -> LFCN_1_5x5_LFCN_1_5x5_0_split_0
I1019 10:05:59.336661 32731 net.cpp:408] LFCN_1_5x5_LFCN_1_5x5_0_split -> LFCN_1_5x5_LFCN_1_5x5_0_split_1
I1019 10:05:59.336668 32731 net.cpp:408] LFCN_1_5x5_LFCN_1_5x5_0_split -> LFCN_1_5x5_LFCN_1_5x5_0_split_2
I1019 10:05:59.336712 32731 net.cpp:150] Setting up LFCN_1_5x5_LFCN_1_5x5_0_split
I1019 10:05:59.336719 32731 net.cpp:157] Top shape: 3 9 96 96 (248832)
I1019 10:05:59.336724 32731 net.cpp:157] Top shape: 3 9 96 96 (248832)
I1019 10:05:59.336728 32731 net.cpp:157] Top shape: 3 9 96 96 (248832)
I1019 10:05:59.336731 32731 net.cpp:165] Memory required for data: 4568171936
I1019 10:05:59.336735 32731 layer_factory.hpp:77] Creating layer detection_loss_1_5x5
I1019 10:05:59.336743 32731 net.cpp:100] Creating Layer detection_loss_1_5x5
I1019 10:05:59.336747 32731 net.cpp:434] detection_loss_1_5x5 <- LFCN_1_5x5_LFCN_1_5x5_0_split_0
I1019 10:05:59.336751 32731 net.cpp:434] detection_loss_1_5x5 <- label_1_5x5_data_1_split_0
I1019 10:05:59.336757 32731 net.cpp:408] detection_loss_1_5x5 -> loss_1_5x5
I1019 10:05:59.336769 32731 layer_factory.hpp:77] Creating layer detection_loss_1_5x5
I1019 10:05:59.337908 32731 net.cpp:150] Setting up detection_loss_1_5x5
I1019 10:05:59.337921 32731 net.cpp:157] Top shape: 1 1 1 2 (2)
I1019 10:05:59.337924 32731 net.cpp:160]     with loss weight 0.9
I1019 10:05:59.337937 32731 net.cpp:165] Memory required for data: 4568171944
I1019 10:05:59.337941 32731 layer_factory.hpp:77] Creating layer detection_accuracy_1_5x5
I1019 10:05:59.337949 32731 net.cpp:100] Creating Layer detection_accuracy_1_5x5
I1019 10:05:59.337952 32731 net.cpp:434] detection_accuracy_1_5x5 <- LFCN_1_5x5_LFCN_1_5x5_0_split_1
I1019 10:05:59.337958 32731 net.cpp:434] detection_accuracy_1_5x5 <- label_1_5x5_data_1_split_1
I1019 10:05:59.337965 32731 net.cpp:408] detection_accuracy_1_5x5 -> accuracy_1_5x5
I1019 10:05:59.337973 32731 net.cpp:408] detection_accuracy_1_5x5 -> boxiou_1_5x5
I1019 10:05:59.338011 32731 net.cpp:150] Setting up detection_accuracy_1_5x5
I1019 10:05:59.338017 32731 net.cpp:157] Top shape: 1 1 1 2 (2)
I1019 10:05:59.338022 32731 net.cpp:157] Top shape: 1 1 1 1 (1)
I1019 10:05:59.338026 32731 net.cpp:165] Memory required for data: 4568171956
I1019 10:05:59.338029 32731 layer_factory.hpp:77] Creating layer LFCN_1_7x7
I1019 10:05:59.338039 32731 net.cpp:100] Creating Layer LFCN_1_7x7
I1019 10:05:59.338045 32731 net.cpp:434] LFCN_1_7x7 <- loss1_conv1_loss_relu1_0_split_1
I1019 10:05:59.338050 32731 net.cpp:408] LFCN_1_7x7 -> LFCN_1_7x7
I1019 10:05:59.345505 32731 net.cpp:150] Setting up LFCN_1_7x7
I1019 10:05:59.345530 32731 net.cpp:157] Top shape: 3 9 96 96 (248832)
I1019 10:05:59.345535 32731 net.cpp:165] Memory required for data: 4569167284
I1019 10:05:59.345543 32731 layer_factory.hpp:77] Creating layer LFCN_1_7x7_LFCN_1_7x7_0_split
I1019 10:05:59.345553 32731 net.cpp:100] Creating Layer LFCN_1_7x7_LFCN_1_7x7_0_split
I1019 10:05:59.345559 32731 net.cpp:434] LFCN_1_7x7_LFCN_1_7x7_0_split <- LFCN_1_7x7
I1019 10:05:59.345566 32731 net.cpp:408] LFCN_1_7x7_LFCN_1_7x7_0_split -> LFCN_1_7x7_LFCN_1_7x7_0_split_0
I1019 10:05:59.345574 32731 net.cpp:408] LFCN_1_7x7_LFCN_1_7x7_0_split -> LFCN_1_7x7_LFCN_1_7x7_0_split_1
I1019 10:05:59.345580 32731 net.cpp:408] LFCN_1_7x7_LFCN_1_7x7_0_split -> LFCN_1_7x7_LFCN_1_7x7_0_split_2
I1019 10:05:59.345625 32731 net.cpp:150] Setting up LFCN_1_7x7_LFCN_1_7x7_0_split
I1019 10:05:59.345634 32731 net.cpp:157] Top shape: 3 9 96 96 (248832)
I1019 10:05:59.345639 32731 net.cpp:157] Top shape: 3 9 96 96 (248832)
I1019 10:05:59.345643 32731 net.cpp:157] Top shape: 3 9 96 96 (248832)
I1019 10:05:59.345646 32731 net.cpp:165] Memory required for data: 4572153268
I1019 10:05:59.345649 32731 layer_factory.hpp:77] Creating layer detection_loss_1_7x7
I1019 10:05:59.345656 32731 net.cpp:100] Creating Layer detection_loss_1_7x7
I1019 10:05:59.345660 32731 net.cpp:434] detection_loss_1_7x7 <- LFCN_1_7x7_LFCN_1_7x7_0_split_0
I1019 10:05:59.345665 32731 net.cpp:434] detection_loss_1_7x7 <- label_1_7x7_data_2_split_0
I1019 10:05:59.345670 32731 net.cpp:408] detection_loss_1_7x7 -> loss_1_7x7
I1019 10:05:59.345679 32731 layer_factory.hpp:77] Creating layer detection_loss_1_7x7
I1019 10:05:59.346042 32731 net.cpp:150] Setting up detection_loss_1_7x7
I1019 10:05:59.346052 32731 net.cpp:157] Top shape: 1 1 1 2 (2)
I1019 10:05:59.346055 32731 net.cpp:160]     with loss weight 0.9
I1019 10:05:59.346067 32731 net.cpp:165] Memory required for data: 4572153276
I1019 10:05:59.346071 32731 layer_factory.hpp:77] Creating layer detection_accuracy_1_7x7
I1019 10:05:59.346078 32731 net.cpp:100] Creating Layer detection_accuracy_1_7x7
I1019 10:05:59.346082 32731 net.cpp:434] detection_accuracy_1_7x7 <- LFCN_1_7x7_LFCN_1_7x7_0_split_1
I1019 10:05:59.346087 32731 net.cpp:434] detection_accuracy_1_7x7 <- label_1_7x7_data_2_split_1
I1019 10:05:59.346092 32731 net.cpp:408] detection_accuracy_1_7x7 -> accuracy_1_7x7
I1019 10:05:59.346101 32731 net.cpp:408] detection_accuracy_1_7x7 -> boxiou_1_7x7
I1019 10:05:59.346138 32731 net.cpp:150] Setting up detection_accuracy_1_7x7
I1019 10:05:59.346144 32731 net.cpp:157] Top shape: 1 1 1 2 (2)
I1019 10:05:59.346150 32731 net.cpp:157] Top shape: 1 1 1 1 (1)
I1019 10:05:59.346153 32731 net.cpp:165] Memory required for data: 4572153288
I1019 10:05:59.346156 32731 layer_factory.hpp:77] Creating layer pool4
I1019 10:05:59.346163 32731 net.cpp:100] Creating Layer pool4
I1019 10:05:59.346168 32731 net.cpp:434] pool4 <- conv4_3_relu4_3_0_split_2
I1019 10:05:59.346173 32731 net.cpp:408] pool4 -> pool4
I1019 10:05:59.346204 32731 net.cpp:150] Setting up pool4
I1019 10:05:59.346210 32731 net.cpp:157] Top shape: 3 512 48 48 (3538944)
I1019 10:05:59.346215 32731 net.cpp:165] Memory required for data: 4586309064
I1019 10:05:59.346217 32731 layer_factory.hpp:77] Creating layer conv5_1
I1019 10:05:59.346225 32731 net.cpp:100] Creating Layer conv5_1
I1019 10:05:59.346230 32731 net.cpp:434] conv5_1 <- pool4
I1019 10:05:59.346235 32731 net.cpp:408] conv5_1 -> conv5_1
I1019 10:05:59.357503 32731 net.cpp:150] Setting up conv5_1
I1019 10:05:59.357532 32731 net.cpp:157] Top shape: 3 512 48 48 (3538944)
I1019 10:05:59.357537 32731 net.cpp:165] Memory required for data: 4600464840
I1019 10:05:59.357547 32731 layer_factory.hpp:77] Creating layer relu5_1
I1019 10:05:59.357558 32731 net.cpp:100] Creating Layer relu5_1
I1019 10:05:59.357565 32731 net.cpp:434] relu5_1 <- conv5_1
I1019 10:05:59.357571 32731 net.cpp:395] relu5_1 -> conv5_1 (in-place)
I1019 10:05:59.357723 32731 net.cpp:150] Setting up relu5_1
I1019 10:05:59.357735 32731 net.cpp:157] Top shape: 3 512 48 48 (3538944)
I1019 10:05:59.357740 32731 net.cpp:165] Memory required for data: 4614620616
I1019 10:05:59.357745 32731 layer_factory.hpp:77] Creating layer conv5_2
I1019 10:05:59.357758 32731 net.cpp:100] Creating Layer conv5_2
I1019 10:05:59.357764 32731 net.cpp:434] conv5_2 <- conv5_1
I1019 10:05:59.357772 32731 net.cpp:408] conv5_2 -> conv5_2
I1019 10:05:59.365267 32731 net.cpp:150] Setting up conv5_2
I1019 10:05:59.365320 32731 net.cpp:157] Top shape: 3 512 48 48 (3538944)
I1019 10:05:59.365327 32731 net.cpp:165] Memory required for data: 4628776392
I1019 10:05:59.365351 32731 layer_factory.hpp:77] Creating layer relu5_2
I1019 10:05:59.365370 32731 net.cpp:100] Creating Layer relu5_2
I1019 10:05:59.365380 32731 net.cpp:434] relu5_2 <- conv5_2
I1019 10:05:59.365387 32731 net.cpp:395] relu5_2 -> conv5_2 (in-place)
I1019 10:05:59.366164 32731 net.cpp:150] Setting up relu5_2
I1019 10:05:59.366190 32731 net.cpp:157] Top shape: 3 512 48 48 (3538944)
I1019 10:05:59.366197 32731 net.cpp:165] Memory required for data: 4642932168
I1019 10:05:59.366202 32731 layer_factory.hpp:77] Creating layer conv5_3
I1019 10:05:59.366219 32731 net.cpp:100] Creating Layer conv5_3
I1019 10:05:59.366225 32731 net.cpp:434] conv5_3 <- conv5_2
I1019 10:05:59.366233 32731 net.cpp:408] conv5_3 -> conv5_3
I1019 10:05:59.376518 32731 net.cpp:150] Setting up conv5_3
I1019 10:05:59.376554 32731 net.cpp:157] Top shape: 3 512 48 48 (3538944)
I1019 10:05:59.376559 32731 net.cpp:165] Memory required for data: 4657087944
I1019 10:05:59.376569 32731 layer_factory.hpp:77] Creating layer relu5_3
I1019 10:05:59.376582 32731 net.cpp:100] Creating Layer relu5_3
I1019 10:05:59.376590 32731 net.cpp:434] relu5_3 <- conv5_3
I1019 10:05:59.376595 32731 net.cpp:395] relu5_3 -> conv5_3 (in-place)
I1019 10:05:59.377250 32731 net.cpp:150] Setting up relu5_3
I1019 10:05:59.377264 32731 net.cpp:157] Top shape: 3 512 48 48 (3538944)
I1019 10:05:59.377269 32731 net.cpp:165] Memory required for data: 4671243720
I1019 10:05:59.377274 32731 layer_factory.hpp:77] Creating layer conv5_3_relu5_3_0_split
I1019 10:05:59.377281 32731 net.cpp:100] Creating Layer conv5_3_relu5_3_0_split
I1019 10:05:59.377285 32731 net.cpp:434] conv5_3_relu5_3_0_split <- conv5_3
I1019 10:05:59.377291 32731 net.cpp:408] conv5_3_relu5_3_0_split -> conv5_3_relu5_3_0_split_0
I1019 10:05:59.377298 32731 net.cpp:408] conv5_3_relu5_3_0_split -> conv5_3_relu5_3_0_split_1
I1019 10:05:59.377305 32731 net.cpp:408] conv5_3_relu5_3_0_split -> conv5_3_relu5_3_0_split_2
I1019 10:05:59.377351 32731 net.cpp:150] Setting up conv5_3_relu5_3_0_split
I1019 10:05:59.377357 32731 net.cpp:157] Top shape: 3 512 48 48 (3538944)
I1019 10:05:59.377362 32731 net.cpp:157] Top shape: 3 512 48 48 (3538944)
I1019 10:05:59.377365 32731 net.cpp:157] Top shape: 3 512 48 48 (3538944)
I1019 10:05:59.377369 32731 net.cpp:165] Memory required for data: 4713711048
I1019 10:05:59.377372 32731 layer_factory.hpp:77] Creating layer LFCN_2_5x5
I1019 10:05:59.377382 32731 net.cpp:100] Creating Layer LFCN_2_5x5
I1019 10:05:59.377385 32731 net.cpp:434] LFCN_2_5x5 <- conv5_3_relu5_3_0_split_0
I1019 10:05:59.377393 32731 net.cpp:408] LFCN_2_5x5 -> LFCN_2_5x5
I1019 10:05:59.382170 32731 net.cpp:150] Setting up LFCN_2_5x5
I1019 10:05:59.382186 32731 net.cpp:157] Top shape: 3 9 48 48 (62208)
I1019 10:05:59.382190 32731 net.cpp:165] Memory required for data: 4713959880
I1019 10:05:59.382196 32731 layer_factory.hpp:77] Creating layer LFCN_2_5x5_LFCN_2_5x5_0_split
I1019 10:05:59.382203 32731 net.cpp:100] Creating Layer LFCN_2_5x5_LFCN_2_5x5_0_split
I1019 10:05:59.382207 32731 net.cpp:434] LFCN_2_5x5_LFCN_2_5x5_0_split <- LFCN_2_5x5
I1019 10:05:59.382212 32731 net.cpp:408] LFCN_2_5x5_LFCN_2_5x5_0_split -> LFCN_2_5x5_LFCN_2_5x5_0_split_0
I1019 10:05:59.382220 32731 net.cpp:408] LFCN_2_5x5_LFCN_2_5x5_0_split -> LFCN_2_5x5_LFCN_2_5x5_0_split_1
I1019 10:05:59.382226 32731 net.cpp:408] LFCN_2_5x5_LFCN_2_5x5_0_split -> LFCN_2_5x5_LFCN_2_5x5_0_split_2
I1019 10:05:59.382270 32731 net.cpp:150] Setting up LFCN_2_5x5_LFCN_2_5x5_0_split
I1019 10:05:59.382277 32731 net.cpp:157] Top shape: 3 9 48 48 (62208)
I1019 10:05:59.382282 32731 net.cpp:157] Top shape: 3 9 48 48 (62208)
I1019 10:05:59.382285 32731 net.cpp:157] Top shape: 3 9 48 48 (62208)
I1019 10:05:59.382289 32731 net.cpp:165] Memory required for data: 4714706376
I1019 10:05:59.382292 32731 layer_factory.hpp:77] Creating layer detection_loss_2_5x5
I1019 10:05:59.382300 32731 net.cpp:100] Creating Layer detection_loss_2_5x5
I1019 10:05:59.382304 32731 net.cpp:434] detection_loss_2_5x5 <- LFCN_2_5x5_LFCN_2_5x5_0_split_0
I1019 10:05:59.382309 32731 net.cpp:434] detection_loss_2_5x5 <- label_2_5x5_data_3_split_0
I1019 10:05:59.382315 32731 net.cpp:408] detection_loss_2_5x5 -> loss_2_5x5
I1019 10:05:59.382324 32731 layer_factory.hpp:77] Creating layer detection_loss_2_5x5
I1019 10:05:59.382633 32731 net.cpp:150] Setting up detection_loss_2_5x5
I1019 10:05:59.382643 32731 net.cpp:157] Top shape: 1 1 1 2 (2)
I1019 10:05:59.382647 32731 net.cpp:160]     with loss weight 1
I1019 10:05:59.382658 32731 net.cpp:165] Memory required for data: 4714706384
I1019 10:05:59.382661 32731 layer_factory.hpp:77] Creating layer detection_accuracy_2_5x5
I1019 10:05:59.382668 32731 net.cpp:100] Creating Layer detection_accuracy_2_5x5
I1019 10:05:59.382673 32731 net.cpp:434] detection_accuracy_2_5x5 <- LFCN_2_5x5_LFCN_2_5x5_0_split_1
I1019 10:05:59.382678 32731 net.cpp:434] detection_accuracy_2_5x5 <- label_2_5x5_data_3_split_1
I1019 10:05:59.382683 32731 net.cpp:408] detection_accuracy_2_5x5 -> accuracy_2_5x5
I1019 10:05:59.382690 32731 net.cpp:408] detection_accuracy_2_5x5 -> boxiou_2_5x5
I1019 10:05:59.382725 32731 net.cpp:150] Setting up detection_accuracy_2_5x5
I1019 10:05:59.382731 32731 net.cpp:157] Top shape: 1 1 1 2 (2)
I1019 10:05:59.382735 32731 net.cpp:157] Top shape: 1 1 1 1 (1)
I1019 10:05:59.382738 32731 net.cpp:165] Memory required for data: 4714706396
I1019 10:05:59.382742 32731 layer_factory.hpp:77] Creating layer LFCN_2_7x7
I1019 10:05:59.382751 32731 net.cpp:100] Creating Layer LFCN_2_7x7
I1019 10:05:59.382755 32731 net.cpp:434] LFCN_2_7x7 <- conv5_3_relu5_3_0_split_1
I1019 10:05:59.382761 32731 net.cpp:408] LFCN_2_7x7 -> LFCN_2_7x7
I1019 10:05:59.389123 32731 net.cpp:150] Setting up LFCN_2_7x7
I1019 10:05:59.389139 32731 net.cpp:157] Top shape: 3 9 48 48 (62208)
I1019 10:05:59.389143 32731 net.cpp:165] Memory required for data: 4714955228
I1019 10:05:59.389149 32731 layer_factory.hpp:77] Creating layer LFCN_2_7x7_LFCN_2_7x7_0_split
I1019 10:05:59.389155 32731 net.cpp:100] Creating Layer LFCN_2_7x7_LFCN_2_7x7_0_split
I1019 10:05:59.389159 32731 net.cpp:434] LFCN_2_7x7_LFCN_2_7x7_0_split <- LFCN_2_7x7
I1019 10:05:59.389165 32731 net.cpp:408] LFCN_2_7x7_LFCN_2_7x7_0_split -> LFCN_2_7x7_LFCN_2_7x7_0_split_0
I1019 10:05:59.389173 32731 net.cpp:408] LFCN_2_7x7_LFCN_2_7x7_0_split -> LFCN_2_7x7_LFCN_2_7x7_0_split_1
I1019 10:05:59.389178 32731 net.cpp:408] LFCN_2_7x7_LFCN_2_7x7_0_split -> LFCN_2_7x7_LFCN_2_7x7_0_split_2
I1019 10:05:59.389225 32731 net.cpp:150] Setting up LFCN_2_7x7_LFCN_2_7x7_0_split
I1019 10:05:59.389231 32731 net.cpp:157] Top shape: 3 9 48 48 (62208)
I1019 10:05:59.389236 32731 net.cpp:157] Top shape: 3 9 48 48 (62208)
I1019 10:05:59.389240 32731 net.cpp:157] Top shape: 3 9 48 48 (62208)
I1019 10:05:59.389243 32731 net.cpp:165] Memory required for data: 4715701724
I1019 10:05:59.389247 32731 layer_factory.hpp:77] Creating layer detection_loss_2_7x7
I1019 10:05:59.389259 32731 net.cpp:100] Creating Layer detection_loss_2_7x7
I1019 10:05:59.389264 32731 net.cpp:434] detection_loss_2_7x7 <- LFCN_2_7x7_LFCN_2_7x7_0_split_0
I1019 10:05:59.389269 32731 net.cpp:434] detection_loss_2_7x7 <- label_2_7x7_data_4_split_0
I1019 10:05:59.389276 32731 net.cpp:408] detection_loss_2_7x7 -> loss_2_7x7
I1019 10:05:59.389282 32731 layer_factory.hpp:77] Creating layer detection_loss_2_7x7
I1019 10:05:59.389601 32731 net.cpp:150] Setting up detection_loss_2_7x7
I1019 10:05:59.389611 32731 net.cpp:157] Top shape: 1 1 1 2 (2)
I1019 10:05:59.389614 32731 net.cpp:160]     with loss weight 1
I1019 10:05:59.389621 32731 net.cpp:165] Memory required for data: 4715701732
I1019 10:05:59.389626 32731 layer_factory.hpp:77] Creating layer detection_accuracy_2_7x7
I1019 10:05:59.389632 32731 net.cpp:100] Creating Layer detection_accuracy_2_7x7
I1019 10:05:59.389636 32731 net.cpp:434] detection_accuracy_2_7x7 <- LFCN_2_7x7_LFCN_2_7x7_0_split_1
I1019 10:05:59.389642 32731 net.cpp:434] detection_accuracy_2_7x7 <- label_2_7x7_data_4_split_1
I1019 10:05:59.389647 32731 net.cpp:408] detection_accuracy_2_7x7 -> accuracy_2_7x7
I1019 10:05:59.389654 32731 net.cpp:408] detection_accuracy_2_7x7 -> boxiou_2_7x7
I1019 10:05:59.389688 32731 net.cpp:150] Setting up detection_accuracy_2_7x7
I1019 10:05:59.389694 32731 net.cpp:157] Top shape: 1 1 1 2 (2)
I1019 10:05:59.389699 32731 net.cpp:157] Top shape: 1 1 1 1 (1)
I1019 10:05:59.389703 32731 net.cpp:165] Memory required for data: 4715701744
I1019 10:05:59.389706 32731 layer_factory.hpp:77] Creating layer pool5
I1019 10:05:59.389713 32731 net.cpp:100] Creating Layer pool5
I1019 10:05:59.389715 32731 net.cpp:434] pool5 <- conv5_3_relu5_3_0_split_2
I1019 10:05:59.389721 32731 net.cpp:408] pool5 -> pool5
I1019 10:05:59.389755 32731 net.cpp:150] Setting up pool5
I1019 10:05:59.389761 32731 net.cpp:157] Top shape: 3 512 24 24 (884736)
I1019 10:05:59.389765 32731 net.cpp:165] Memory required for data: 4719240688
I1019 10:05:59.389768 32731 layer_factory.hpp:77] Creating layer conv6_1
I1019 10:05:59.389778 32731 net.cpp:100] Creating Layer conv6_1
I1019 10:05:59.389786 32731 net.cpp:434] conv6_1 <- pool5
I1019 10:05:59.389792 32731 net.cpp:408] conv6_1 -> conv6_1
I1019 10:05:59.453003 32731 net.cpp:150] Setting up conv6_1
I1019 10:05:59.453032 32731 net.cpp:157] Top shape: 3 512 24 24 (884736)
I1019 10:05:59.453037 32731 net.cpp:165] Memory required for data: 4722779632
I1019 10:05:59.453045 32731 layer_factory.hpp:77] Creating layer relu6_1
I1019 10:05:59.453056 32731 net.cpp:100] Creating Layer relu6_1
I1019 10:05:59.453063 32731 net.cpp:434] relu6_1 <- conv6_1
I1019 10:05:59.453071 32731 net.cpp:395] relu6_1 -> conv6_1 (in-place)
I1019 10:05:59.453229 32731 net.cpp:150] Setting up relu6_1
I1019 10:05:59.453238 32731 net.cpp:157] Top shape: 3 512 24 24 (884736)
I1019 10:05:59.453241 32731 net.cpp:165] Memory required for data: 4726318576
I1019 10:05:59.453245 32731 layer_factory.hpp:77] Creating layer conv6_1_relu6_1_0_split
I1019 10:05:59.453251 32731 net.cpp:100] Creating Layer conv6_1_relu6_1_0_split
I1019 10:05:59.453255 32731 net.cpp:434] conv6_1_relu6_1_0_split <- conv6_1
I1019 10:05:59.453260 32731 net.cpp:408] conv6_1_relu6_1_0_split -> conv6_1_relu6_1_0_split_0
I1019 10:05:59.453267 32731 net.cpp:408] conv6_1_relu6_1_0_split -> conv6_1_relu6_1_0_split_1
I1019 10:05:59.453274 32731 net.cpp:408] conv6_1_relu6_1_0_split -> conv6_1_relu6_1_0_split_2
I1019 10:05:59.453322 32731 net.cpp:150] Setting up conv6_1_relu6_1_0_split
I1019 10:05:59.453330 32731 net.cpp:157] Top shape: 3 512 24 24 (884736)
I1019 10:05:59.453333 32731 net.cpp:157] Top shape: 3 512 24 24 (884736)
I1019 10:05:59.453337 32731 net.cpp:157] Top shape: 3 512 24 24 (884736)
I1019 10:05:59.453341 32731 net.cpp:165] Memory required for data: 4736935408
I1019 10:05:59.453344 32731 layer_factory.hpp:77] Creating layer LFCN_3_5x5
I1019 10:05:59.453354 32731 net.cpp:100] Creating Layer LFCN_3_5x5
I1019 10:05:59.453359 32731 net.cpp:434] LFCN_3_5x5 <- conv6_1_relu6_1_0_split_0
I1019 10:05:59.453366 32731 net.cpp:408] LFCN_3_5x5 -> LFCN_3_5x5
I1019 10:05:59.457453 32731 net.cpp:150] Setting up LFCN_3_5x5
I1019 10:05:59.457465 32731 net.cpp:157] Top shape: 3 9 24 24 (15552)
I1019 10:05:59.457469 32731 net.cpp:165] Memory required for data: 4736997616
I1019 10:05:59.457475 32731 layer_factory.hpp:77] Creating layer LFCN_3_5x5_LFCN_3_5x5_0_split
I1019 10:05:59.457480 32731 net.cpp:100] Creating Layer LFCN_3_5x5_LFCN_3_5x5_0_split
I1019 10:05:59.457484 32731 net.cpp:434] LFCN_3_5x5_LFCN_3_5x5_0_split <- LFCN_3_5x5
I1019 10:05:59.457491 32731 net.cpp:408] LFCN_3_5x5_LFCN_3_5x5_0_split -> LFCN_3_5x5_LFCN_3_5x5_0_split_0
I1019 10:05:59.457497 32731 net.cpp:408] LFCN_3_5x5_LFCN_3_5x5_0_split -> LFCN_3_5x5_LFCN_3_5x5_0_split_1
I1019 10:05:59.457504 32731 net.cpp:408] LFCN_3_5x5_LFCN_3_5x5_0_split -> LFCN_3_5x5_LFCN_3_5x5_0_split_2
I1019 10:05:59.457551 32731 net.cpp:150] Setting up LFCN_3_5x5_LFCN_3_5x5_0_split
I1019 10:05:59.457557 32731 net.cpp:157] Top shape: 3 9 24 24 (15552)
I1019 10:05:59.457561 32731 net.cpp:157] Top shape: 3 9 24 24 (15552)
I1019 10:05:59.457566 32731 net.cpp:157] Top shape: 3 9 24 24 (15552)
I1019 10:05:59.457568 32731 net.cpp:165] Memory required for data: 4737184240
I1019 10:05:59.457572 32731 layer_factory.hpp:77] Creating layer detection_loss_3_5x5
I1019 10:05:59.457579 32731 net.cpp:100] Creating Layer detection_loss_3_5x5
I1019 10:05:59.457584 32731 net.cpp:434] detection_loss_3_5x5 <- LFCN_3_5x5_LFCN_3_5x5_0_split_0
I1019 10:05:59.457589 32731 net.cpp:434] detection_loss_3_5x5 <- label_3_5x5_data_5_split_0
I1019 10:05:59.457594 32731 net.cpp:408] detection_loss_3_5x5 -> loss_3_5x5
I1019 10:05:59.457602 32731 layer_factory.hpp:77] Creating layer detection_loss_3_5x5
I1019 10:05:59.457932 32731 net.cpp:150] Setting up detection_loss_3_5x5
I1019 10:05:59.457943 32731 net.cpp:157] Top shape: 1 1 1 2 (2)
I1019 10:05:59.457948 32731 net.cpp:160]     with loss weight 1
I1019 10:05:59.457959 32731 net.cpp:165] Memory required for data: 4737184248
I1019 10:05:59.457964 32731 layer_factory.hpp:77] Creating layer detection_accuracy_3_5x5
I1019 10:05:59.457973 32731 net.cpp:100] Creating Layer detection_accuracy_3_5x5
I1019 10:05:59.457978 32731 net.cpp:434] detection_accuracy_3_5x5 <- LFCN_3_5x5_LFCN_3_5x5_0_split_1
I1019 10:05:59.457983 32731 net.cpp:434] detection_accuracy_3_5x5 <- label_3_5x5_data_5_split_1
I1019 10:05:59.457990 32731 net.cpp:408] detection_accuracy_3_5x5 -> accuracy_3_5x5
I1019 10:05:59.457998 32731 net.cpp:408] detection_accuracy_3_5x5 -> boxiou_3_5x5
I1019 10:05:59.458042 32731 net.cpp:150] Setting up detection_accuracy_3_5x5
I1019 10:05:59.458050 32731 net.cpp:157] Top shape: 1 1 1 2 (2)
I1019 10:05:59.458055 32731 net.cpp:157] Top shape: 1 1 1 1 (1)
I1019 10:05:59.458060 32731 net.cpp:165] Memory required for data: 4737184260
I1019 10:05:59.458063 32731 layer_factory.hpp:77] Creating layer LFCN_3_7x7
I1019 10:05:59.458073 32731 net.cpp:100] Creating Layer LFCN_3_7x7
I1019 10:05:59.458079 32731 net.cpp:434] LFCN_3_7x7 <- conv6_1_relu6_1_0_split_1
I1019 10:05:59.458086 32731 net.cpp:408] LFCN_3_7x7 -> LFCN_3_7x7
I1019 10:05:59.465718 32731 net.cpp:150] Setting up LFCN_3_7x7
I1019 10:05:59.465752 32731 net.cpp:157] Top shape: 3 9 24 24 (15552)
I1019 10:05:59.465759 32731 net.cpp:165] Memory required for data: 4737246468
I1019 10:05:59.465770 32731 layer_factory.hpp:77] Creating layer LFCN_3_7x7_LFCN_3_7x7_0_split
I1019 10:05:59.465785 32731 net.cpp:100] Creating Layer LFCN_3_7x7_LFCN_3_7x7_0_split
I1019 10:05:59.465816 32731 net.cpp:434] LFCN_3_7x7_LFCN_3_7x7_0_split <- LFCN_3_7x7
I1019 10:05:59.465828 32731 net.cpp:408] LFCN_3_7x7_LFCN_3_7x7_0_split -> LFCN_3_7x7_LFCN_3_7x7_0_split_0
I1019 10:05:59.465838 32731 net.cpp:408] LFCN_3_7x7_LFCN_3_7x7_0_split -> LFCN_3_7x7_LFCN_3_7x7_0_split_1
I1019 10:05:59.465848 32731 net.cpp:408] LFCN_3_7x7_LFCN_3_7x7_0_split -> LFCN_3_7x7_LFCN_3_7x7_0_split_2
I1019 10:05:59.465912 32731 net.cpp:150] Setting up LFCN_3_7x7_LFCN_3_7x7_0_split
I1019 10:05:59.465924 32731 net.cpp:157] Top shape: 3 9 24 24 (15552)
I1019 10:05:59.465929 32731 net.cpp:157] Top shape: 3 9 24 24 (15552)
I1019 10:05:59.465935 32731 net.cpp:157] Top shape: 3 9 24 24 (15552)
I1019 10:05:59.465940 32731 net.cpp:165] Memory required for data: 4737433092
I1019 10:05:59.465945 32731 layer_factory.hpp:77] Creating layer detection_loss_3_7x7
I1019 10:05:59.465956 32731 net.cpp:100] Creating Layer detection_loss_3_7x7
I1019 10:05:59.465963 32731 net.cpp:434] detection_loss_3_7x7 <- LFCN_3_7x7_LFCN_3_7x7_0_split_0
I1019 10:05:59.465970 32731 net.cpp:434] detection_loss_3_7x7 <- label_3_7x7_data_6_split_0
I1019 10:05:59.465982 32731 net.cpp:408] detection_loss_3_7x7 -> loss_3_7x7
I1019 10:05:59.465996 32731 layer_factory.hpp:77] Creating layer detection_loss_3_7x7
I1019 10:05:59.466712 32731 net.cpp:150] Setting up detection_loss_3_7x7
I1019 10:05:59.466727 32731 net.cpp:157] Top shape: 1 1 1 2 (2)
I1019 10:05:59.466730 32731 net.cpp:160]     with loss weight 1
I1019 10:05:59.466747 32731 net.cpp:165] Memory required for data: 4737433100
I1019 10:05:59.466751 32731 layer_factory.hpp:77] Creating layer detection_accuracy_3_7x7
I1019 10:05:59.466760 32731 net.cpp:100] Creating Layer detection_accuracy_3_7x7
I1019 10:05:59.466768 32731 net.cpp:434] detection_accuracy_3_7x7 <- LFCN_3_7x7_LFCN_3_7x7_0_split_1
I1019 10:05:59.466775 32731 net.cpp:434] detection_accuracy_3_7x7 <- label_3_7x7_data_6_split_1
I1019 10:05:59.466786 32731 net.cpp:408] detection_accuracy_3_7x7 -> accuracy_3_7x7
I1019 10:05:59.466799 32731 net.cpp:408] detection_accuracy_3_7x7 -> boxiou_3_7x7
I1019 10:05:59.466847 32731 net.cpp:150] Setting up detection_accuracy_3_7x7
I1019 10:05:59.466858 32731 net.cpp:157] Top shape: 1 1 1 2 (2)
I1019 10:05:59.466864 32731 net.cpp:157] Top shape: 1 1 1 1 (1)
I1019 10:05:59.466868 32731 net.cpp:165] Memory required for data: 4737433112
I1019 10:05:59.466873 32731 layer_factory.hpp:77] Creating layer pool6
I1019 10:05:59.466881 32731 net.cpp:100] Creating Layer pool6
I1019 10:05:59.466886 32731 net.cpp:434] pool6 <- conv6_1_relu6_1_0_split_2
I1019 10:05:59.466895 32731 net.cpp:408] pool6 -> pool6
I1019 10:05:59.466946 32731 net.cpp:150] Setting up pool6
I1019 10:05:59.466956 32731 net.cpp:157] Top shape: 3 512 12 12 (221184)
I1019 10:05:59.466960 32731 net.cpp:165] Memory required for data: 4738317848
I1019 10:05:59.466964 32731 layer_factory.hpp:77] Creating layer LFCN_4_5x5
I1019 10:05:59.466979 32731 net.cpp:100] Creating Layer LFCN_4_5x5
I1019 10:05:59.466984 32731 net.cpp:434] LFCN_4_5x5 <- pool6
I1019 10:05:59.466991 32731 net.cpp:408] LFCN_4_5x5 -> LFCN_4_5x5
I1019 10:05:59.470948 32731 net.cpp:150] Setting up LFCN_4_5x5
I1019 10:05:59.470963 32731 net.cpp:157] Top shape: 3 9 12 12 (3888)
I1019 10:05:59.470968 32731 net.cpp:165] Memory required for data: 4738333400
I1019 10:05:59.470973 32731 layer_factory.hpp:77] Creating layer LFCN_4_5x5_LFCN_4_5x5_0_split
I1019 10:05:59.470978 32731 net.cpp:100] Creating Layer LFCN_4_5x5_LFCN_4_5x5_0_split
I1019 10:05:59.470983 32731 net.cpp:434] LFCN_4_5x5_LFCN_4_5x5_0_split <- LFCN_4_5x5
I1019 10:05:59.470988 32731 net.cpp:408] LFCN_4_5x5_LFCN_4_5x5_0_split -> LFCN_4_5x5_LFCN_4_5x5_0_split_0
I1019 10:05:59.470993 32731 net.cpp:408] LFCN_4_5x5_LFCN_4_5x5_0_split -> LFCN_4_5x5_LFCN_4_5x5_0_split_1
I1019 10:05:59.470999 32731 net.cpp:408] LFCN_4_5x5_LFCN_4_5x5_0_split -> LFCN_4_5x5_LFCN_4_5x5_0_split_2
I1019 10:05:59.471040 32731 net.cpp:150] Setting up LFCN_4_5x5_LFCN_4_5x5_0_split
I1019 10:05:59.471045 32731 net.cpp:157] Top shape: 3 9 12 12 (3888)
I1019 10:05:59.471050 32731 net.cpp:157] Top shape: 3 9 12 12 (3888)
I1019 10:05:59.471052 32731 net.cpp:157] Top shape: 3 9 12 12 (3888)
I1019 10:05:59.471055 32731 net.cpp:165] Memory required for data: 4738380056
I1019 10:05:59.471057 32731 layer_factory.hpp:77] Creating layer detection_loss_4_5x5
I1019 10:05:59.471063 32731 net.cpp:100] Creating Layer detection_loss_4_5x5
I1019 10:05:59.471066 32731 net.cpp:434] detection_loss_4_5x5 <- LFCN_4_5x5_LFCN_4_5x5_0_split_0
I1019 10:05:59.471071 32731 net.cpp:434] detection_loss_4_5x5 <- label_4_5x5_data_7_split_0
I1019 10:05:59.471076 32731 net.cpp:408] detection_loss_4_5x5 -> loss_4_5x5
I1019 10:05:59.471083 32731 layer_factory.hpp:77] Creating layer detection_loss_4_5x5
I1019 10:05:59.471788 32731 net.cpp:150] Setting up detection_loss_4_5x5
I1019 10:05:59.471801 32731 net.cpp:157] Top shape: 1 1 1 2 (2)
I1019 10:05:59.471803 32731 net.cpp:160]     with loss weight 1
I1019 10:05:59.471812 32731 net.cpp:165] Memory required for data: 4738380064
I1019 10:05:59.471815 32731 layer_factory.hpp:77] Creating layer detection_accuracy_4_5x5
I1019 10:05:59.471822 32731 net.cpp:100] Creating Layer detection_accuracy_4_5x5
I1019 10:05:59.471825 32731 net.cpp:434] detection_accuracy_4_5x5 <- LFCN_4_5x5_LFCN_4_5x5_0_split_1
I1019 10:05:59.471830 32731 net.cpp:434] detection_accuracy_4_5x5 <- label_4_5x5_data_7_split_1
I1019 10:05:59.471837 32731 net.cpp:408] detection_accuracy_4_5x5 -> accuracy_4_5x5
I1019 10:05:59.471844 32731 net.cpp:408] detection_accuracy_4_5x5 -> boxiou_4_5x5
I1019 10:05:59.471880 32731 net.cpp:150] Setting up detection_accuracy_4_5x5
I1019 10:05:59.471887 32731 net.cpp:157] Top shape: 1 1 1 2 (2)
I1019 10:05:59.471891 32731 net.cpp:157] Top shape: 1 1 1 1 (1)
I1019 10:05:59.471894 32731 net.cpp:165] Memory required for data: 4738380076
I1019 10:05:59.471897 32731 layer_factory.hpp:77] Creating layer proposals
I1019 10:05:59.471904 32731 net.cpp:100] Creating Layer proposals
I1019 10:05:59.471909 32731 net.cpp:434] proposals <- LFCN_1_5x5_LFCN_1_5x5_0_split_2
I1019 10:05:59.471913 32731 net.cpp:434] proposals <- LFCN_1_7x7_LFCN_1_7x7_0_split_2
I1019 10:05:59.471917 32731 net.cpp:434] proposals <- LFCN_2_5x5_LFCN_2_5x5_0_split_2
I1019 10:05:59.471921 32731 net.cpp:434] proposals <- LFCN_2_7x7_LFCN_2_7x7_0_split_2
I1019 10:05:59.471925 32731 net.cpp:434] proposals <- LFCN_3_5x5_LFCN_3_5x5_0_split_2
I1019 10:05:59.471930 32731 net.cpp:434] proposals <- LFCN_3_7x7_LFCN_3_7x7_0_split_2
I1019 10:05:59.471932 32731 net.cpp:434] proposals <- LFCN_4_5x5_LFCN_4_5x5_0_split_2
I1019 10:05:59.471940 32731 net.cpp:408] proposals -> proposals
I1019 10:05:59.471966 32731 net.cpp:150] Setting up proposals
I1019 10:05:59.471971 32731 net.cpp:157] Top shape: 1 5 1 1 (5)
I1019 10:05:59.471976 32731 net.cpp:165] Memory required for data: 4738380096
I1019 10:05:59.471978 32731 layer_factory.hpp:77] Creating layer proposal_info
I1019 10:05:59.471985 32731 net.cpp:100] Creating Layer proposal_info
I1019 10:05:59.471989 32731 net.cpp:434] proposal_info <- proposals
I1019 10:05:59.471993 32731 net.cpp:434] proposal_info <- gt_boxes
I1019 10:05:59.472000 32731 net.cpp:408] proposal_info -> rois
I1019 10:05:59.472010 32731 net.cpp:408] proposal_info -> proposal_labels
I1019 10:05:59.472016 32731 net.cpp:408] proposal_info -> proposal_targets
I1019 10:05:59.472023 32731 net.cpp:408] proposal_info -> box_inside_weights
I1019 10:05:59.472029 32731 net.cpp:408] proposal_info -> box_outside_weights
I1019 10:05:59.472035 32731 net.cpp:408] proposal_info -> match_gt_boxes
I1019 10:05:59.472117 32731 net.cpp:150] Setting up proposal_info
I1019 10:05:59.472126 32731 net.cpp:157] Top shape: 256 5 1 1 (1280)
I1019 10:05:59.472129 32731 net.cpp:157] Top shape: 256 1 1 1 (256)
I1019 10:05:59.472133 32731 net.cpp:157] Top shape: 256 20 1 1 (5120)
I1019 10:05:59.472137 32731 net.cpp:157] Top shape: 256 20 1 1 (5120)
I1019 10:05:59.472141 32731 net.cpp:157] Top shape: 256 20 1 1 (5120)
I1019 10:05:59.472146 32731 net.cpp:157] Top shape: 256 6 1 1 (1536)
I1019 10:05:59.472148 32731 net.cpp:165] Memory required for data: 4738453824
I1019 10:05:59.472152 32731 layer_factory.hpp:77] Creating layer rois_proposal_info_0_split
I1019 10:05:59.472157 32731 net.cpp:100] Creating Layer rois_proposal_info_0_split
I1019 10:05:59.472160 32731 net.cpp:434] rois_proposal_info_0_split <- rois
I1019 10:05:59.472167 32731 net.cpp:408] rois_proposal_info_0_split -> rois_proposal_info_0_split_0
I1019 10:05:59.472172 32731 net.cpp:408] rois_proposal_info_0_split -> rois_proposal_info_0_split_1
I1019 10:05:59.472177 32731 net.cpp:408] rois_proposal_info_0_split -> rois_proposal_info_0_split_2
I1019 10:05:59.472218 32731 net.cpp:150] Setting up rois_proposal_info_0_split
I1019 10:05:59.472224 32731 net.cpp:157] Top shape: 256 5 1 1 (1280)
I1019 10:05:59.472229 32731 net.cpp:157] Top shape: 256 5 1 1 (1280)
I1019 10:05:59.472234 32731 net.cpp:157] Top shape: 256 5 1 1 (1280)
I1019 10:05:59.472236 32731 net.cpp:165] Memory required for data: 4738469184
I1019 10:05:59.472239 32731 layer_factory.hpp:77] Creating layer proposal_labels_proposal_info_1_split
I1019 10:05:59.472244 32731 net.cpp:100] Creating Layer proposal_labels_proposal_info_1_split
I1019 10:05:59.472247 32731 net.cpp:434] proposal_labels_proposal_info_1_split <- proposal_labels
I1019 10:05:59.472252 32731 net.cpp:408] proposal_labels_proposal_info_1_split -> proposal_labels_proposal_info_1_split_0
I1019 10:05:59.472259 32731 net.cpp:408] proposal_labels_proposal_info_1_split -> proposal_labels_proposal_info_1_split_1
I1019 10:05:59.472287 32731 net.cpp:150] Setting up proposal_labels_proposal_info_1_split
I1019 10:05:59.472293 32731 net.cpp:157] Top shape: 256 1 1 1 (256)
I1019 10:05:59.472297 32731 net.cpp:157] Top shape: 256 1 1 1 (256)
I1019 10:05:59.472301 32731 net.cpp:165] Memory required for data: 4738471232
I1019 10:05:59.472304 32731 layer_factory.hpp:77] Creating layer softmax
I1019 10:05:59.472309 32731 net.cpp:100] Creating Layer softmax
I1019 10:05:59.472313 32731 net.cpp:434] softmax <- attention_attention_0_split_1
I1019 10:05:59.472318 32731 net.cpp:408] softmax -> softmax_attention
I1019 10:05:59.472522 32731 net.cpp:150] Setting up softmax
I1019 10:05:59.472532 32731 net.cpp:157] Top shape: 3 2 96 96 (55296)
I1019 10:05:59.472535 32731 net.cpp:165] Memory required for data: 4738692416
I1019 10:05:59.472538 32731 layer_factory.hpp:77] Creating layer slice1
I1019 10:05:59.472546 32731 net.cpp:100] Creating Layer slice1
I1019 10:05:59.472549 32731 net.cpp:434] slice1 <- softmax_attention
I1019 10:05:59.472554 32731 net.cpp:408] slice1 -> bg
I1019 10:05:59.472561 32731 net.cpp:408] slice1 -> attention1
I1019 10:05:59.472595 32731 net.cpp:150] Setting up slice1
I1019 10:05:59.472602 32731 net.cpp:157] Top shape: 3 1 96 96 (27648)
I1019 10:05:59.472606 32731 net.cpp:157] Top shape: 3 1 96 96 (27648)
I1019 10:05:59.472609 32731 net.cpp:165] Memory required for data: 4738913600
I1019 10:05:59.472612 32731 layer_factory.hpp:77] Creating layer silence
I1019 10:05:59.472622 32731 net.cpp:100] Creating Layer silence
I1019 10:05:59.472625 32731 net.cpp:434] silence <- bg
I1019 10:05:59.472630 32731 net.cpp:150] Setting up silence
I1019 10:05:59.472633 32731 net.cpp:165] Memory required for data: 4738913600
I1019 10:05:59.472636 32731 layer_factory.hpp:77] Creating layer conv4_3_new
I1019 10:05:59.472642 32731 net.cpp:100] Creating Layer conv4_3_new
I1019 10:05:59.472646 32731 net.cpp:434] conv4_3_new <- conv4_3_relu4_3_0_split_3
I1019 10:05:59.472651 32731 net.cpp:434] conv4_3_new <- attention1
I1019 10:05:59.472654 32731 net.cpp:408] conv4_3_new -> conv4_3_new
I1019 10:05:59.472687 32731 net.cpp:150] Setting up conv4_3_new
I1019 10:05:59.472693 32731 net.cpp:157] Top shape: 3 513 96 96 (14183424)
I1019 10:05:59.472697 32731 net.cpp:165] Memory required for data: 4795647296
I1019 10:05:59.472700 32731 layer_factory.hpp:77] Creating layer conv4_3_2x
I1019 10:05:59.472708 32731 net.cpp:100] Creating Layer conv4_3_2x
I1019 10:05:59.472712 32731 net.cpp:434] conv4_3_2x <- conv4_3_new
I1019 10:05:59.472717 32731 net.cpp:408] conv4_3_2x -> conv4_3_2x
I1019 10:05:59.473263 32731 net.cpp:150] Setting up conv4_3_2x
I1019 10:05:59.473270 32731 net.cpp:157] Top shape: 3 513 192 192 (56733696)
I1019 10:05:59.473273 32731 net.cpp:165] Memory required for data: 5022582080
I1019 10:05:59.473278 32731 layer_factory.hpp:77] Creating layer conv4_3_2x_conv4_3_2x_0_split
I1019 10:05:59.473282 32731 net.cpp:100] Creating Layer conv4_3_2x_conv4_3_2x_0_split
I1019 10:05:59.473286 32731 net.cpp:434] conv4_3_2x_conv4_3_2x_0_split <- conv4_3_2x
I1019 10:05:59.473290 32731 net.cpp:408] conv4_3_2x_conv4_3_2x_0_split -> conv4_3_2x_conv4_3_2x_0_split_0
I1019 10:05:59.473296 32731 net.cpp:408] conv4_3_2x_conv4_3_2x_0_split -> conv4_3_2x_conv4_3_2x_0_split_1
I1019 10:05:59.473330 32731 net.cpp:150] Setting up conv4_3_2x_conv4_3_2x_0_split
I1019 10:05:59.473336 32731 net.cpp:157] Top shape: 3 513 192 192 (56733696)
I1019 10:05:59.473341 32731 net.cpp:157] Top shape: 3 513 192 192 (56733696)
I1019 10:05:59.473345 32731 net.cpp:165] Memory required for data: 5476451648
I1019 10:05:59.473347 32731 layer_factory.hpp:77] Creating layer roi_pool_org
I1019 10:05:59.473352 32731 net.cpp:100] Creating Layer roi_pool_org
I1019 10:05:59.473356 32731 net.cpp:434] roi_pool_org <- conv4_3_2x_conv4_3_2x_0_split_0
I1019 10:05:59.473361 32731 net.cpp:434] roi_pool_org <- rois_proposal_info_0_split_0
I1019 10:05:59.473366 32731 net.cpp:408] roi_pool_org -> roi_pool_org
I1019 10:05:59.473374 32731 roi_pooling_layer.cpp:33] Spatial scale: 0.25
I1019 10:05:59.473410 32731 net.cpp:150] Setting up roi_pool_org
I1019 10:05:59.473417 32731 net.cpp:157] Top shape: 256 513 7 7 (6435072)
I1019 10:05:59.473420 32731 net.cpp:165] Memory required for data: 5502191936
I1019 10:05:59.473423 32731 layer_factory.hpp:77] Creating layer roi_pool_ctx
I1019 10:05:59.473428 32731 net.cpp:100] Creating Layer roi_pool_ctx
I1019 10:05:59.473433 32731 net.cpp:434] roi_pool_ctx <- conv4_3_2x_conv4_3_2x_0_split_1
I1019 10:05:59.473436 32731 net.cpp:434] roi_pool_ctx <- rois_proposal_info_0_split_1
I1019 10:05:59.473443 32731 net.cpp:408] roi_pool_ctx -> roi_pool_ctx
I1019 10:05:59.473448 32731 roi_pooling_layer.cpp:33] Spatial scale: 0.25
I1019 10:05:59.473479 32731 net.cpp:150] Setting up roi_pool_ctx
I1019 10:05:59.473486 32731 net.cpp:157] Top shape: 256 513 7 7 (6435072)
I1019 10:05:59.473490 32731 net.cpp:165] Memory required for data: 5527932224
I1019 10:05:59.473493 32731 layer_factory.hpp:77] Creating layer roi_pool
I1019 10:05:59.473497 32731 net.cpp:100] Creating Layer roi_pool
I1019 10:05:59.473501 32731 net.cpp:434] roi_pool <- roi_pool_org
I1019 10:05:59.473505 32731 net.cpp:434] roi_pool <- roi_pool_ctx
I1019 10:05:59.473510 32731 net.cpp:408] roi_pool -> roi_pool
I1019 10:05:59.473531 32731 net.cpp:150] Setting up roi_pool
I1019 10:05:59.473536 32731 net.cpp:157] Top shape: 256 1026 7 7 (12870144)
I1019 10:05:59.473539 32731 net.cpp:165] Memory required for data: 5579412800
I1019 10:05:59.473542 32731 layer_factory.hpp:77] Creating layer roi_c1
I1019 10:05:59.473549 32731 net.cpp:100] Creating Layer roi_c1
I1019 10:05:59.473553 32731 net.cpp:434] roi_c1 <- roi_pool
I1019 10:05:59.473559 32731 net.cpp:408] roi_c1 -> roi_c1
I1019 10:05:59.600697 32731 net.cpp:150] Setting up roi_c1
I1019 10:05:59.600724 32731 net.cpp:157] Top shape: 256 512 5 5 (3276800)
I1019 10:05:59.600729 32731 net.cpp:165] Memory required for data: 5592520000
I1019 10:05:59.600738 32731 layer_factory.hpp:77] Creating layer roi_c1_relu
I1019 10:05:59.600749 32731 net.cpp:100] Creating Layer roi_c1_relu
I1019 10:05:59.600755 32731 net.cpp:434] roi_c1_relu <- roi_c1
I1019 10:05:59.600761 32731 net.cpp:395] roi_c1_relu -> roi_c1 (in-place)
I1019 10:05:59.600919 32731 net.cpp:150] Setting up roi_c1_relu
I1019 10:05:59.600927 32731 net.cpp:157] Top shape: 256 512 5 5 (3276800)
I1019 10:05:59.600930 32731 net.cpp:165] Memory required for data: 5605627200
I1019 10:05:59.600934 32731 layer_factory.hpp:77] Creating layer fc6
I1019 10:05:59.600942 32731 net.cpp:100] Creating Layer fc6
I1019 10:05:59.600946 32731 net.cpp:434] fc6 <- roi_c1
I1019 10:05:59.600953 32731 net.cpp:408] fc6 -> fc6
I1019 10:06:00.891393 32731 net.cpp:150] Setting up fc6
I1019 10:06:00.891425 32731 net.cpp:157] Top shape: 256 4096 (1048576)
I1019 10:06:00.891429 32731 net.cpp:165] Memory required for data: 5609821504
I1019 10:06:00.891438 32731 layer_factory.hpp:77] Creating layer relu6
I1019 10:06:00.891448 32731 net.cpp:100] Creating Layer relu6
I1019 10:06:00.891454 32731 net.cpp:434] relu6 <- fc6
I1019 10:06:00.891460 32731 net.cpp:395] relu6 -> fc6 (in-place)
I1019 10:06:00.891677 32731 net.cpp:150] Setting up relu6
I1019 10:06:00.891686 32731 net.cpp:157] Top shape: 256 4096 (1048576)
I1019 10:06:00.891690 32731 net.cpp:165] Memory required for data: 5614015808
I1019 10:06:00.891693 32731 layer_factory.hpp:77] Creating layer drop6
I1019 10:06:00.891711 32731 net.cpp:100] Creating Layer drop6
I1019 10:06:00.891716 32731 net.cpp:434] drop6 <- fc6
I1019 10:06:00.891721 32731 net.cpp:395] drop6 -> fc6 (in-place)
I1019 10:06:00.891743 32731 net.cpp:150] Setting up drop6
I1019 10:06:00.891749 32731 net.cpp:157] Top shape: 256 4096 (1048576)
I1019 10:06:00.891752 32731 net.cpp:165] Memory required for data: 5618210112
I1019 10:06:00.891757 32731 layer_factory.hpp:77] Creating layer fc6_drop6_0_split
I1019 10:06:00.891763 32731 net.cpp:100] Creating Layer fc6_drop6_0_split
I1019 10:06:00.891767 32731 net.cpp:434] fc6_drop6_0_split <- fc6
I1019 10:06:00.891773 32731 net.cpp:408] fc6_drop6_0_split -> fc6_drop6_0_split_0
I1019 10:06:00.891779 32731 net.cpp:408] fc6_drop6_0_split -> fc6_drop6_0_split_1
I1019 10:06:00.891815 32731 net.cpp:150] Setting up fc6_drop6_0_split
I1019 10:06:00.891821 32731 net.cpp:157] Top shape: 256 4096 (1048576)
I1019 10:06:00.891825 32731 net.cpp:157] Top shape: 256 4096 (1048576)
I1019 10:06:00.891829 32731 net.cpp:165] Memory required for data: 5626598720
I1019 10:06:00.891831 32731 layer_factory.hpp:77] Creating layer cls_pred
I1019 10:06:00.891839 32731 net.cpp:100] Creating Layer cls_pred
I1019 10:06:00.891842 32731 net.cpp:434] cls_pred <- fc6_drop6_0_split_0
I1019 10:06:00.891850 32731 net.cpp:408] cls_pred -> cls_pred
I1019 10:06:00.893453 32731 net.cpp:150] Setting up cls_pred
I1019 10:06:00.893466 32731 net.cpp:157] Top shape: 256 5 (1280)
I1019 10:06:00.893471 32731 net.cpp:165] Memory required for data: 5626603840
I1019 10:06:00.893476 32731 layer_factory.hpp:77] Creating layer cls_pred_cls_pred_0_split
I1019 10:06:00.893482 32731 net.cpp:100] Creating Layer cls_pred_cls_pred_0_split
I1019 10:06:00.893486 32731 net.cpp:434] cls_pred_cls_pred_0_split <- cls_pred
I1019 10:06:00.893493 32731 net.cpp:408] cls_pred_cls_pred_0_split -> cls_pred_cls_pred_0_split_0
I1019 10:06:00.893499 32731 net.cpp:408] cls_pred_cls_pred_0_split -> cls_pred_cls_pred_0_split_1
I1019 10:06:00.893532 32731 net.cpp:150] Setting up cls_pred_cls_pred_0_split
I1019 10:06:00.893537 32731 net.cpp:157] Top shape: 256 5 (1280)
I1019 10:06:00.893541 32731 net.cpp:157] Top shape: 256 5 (1280)
I1019 10:06:00.893544 32731 net.cpp:165] Memory required for data: 5626614080
I1019 10:06:00.893548 32731 layer_factory.hpp:77] Creating layer bbox_pred
I1019 10:06:00.893553 32731 net.cpp:100] Creating Layer bbox_pred
I1019 10:06:00.893556 32731 net.cpp:434] bbox_pred <- fc6_drop6_0_split_1
I1019 10:06:00.893563 32731 net.cpp:408] bbox_pred -> bbox_pred
I1019 10:06:00.895670 32731 net.cpp:150] Setting up bbox_pred
I1019 10:06:00.895676 32731 net.cpp:157] Top shape: 256 20 (5120)
I1019 10:06:00.895679 32731 net.cpp:165] Memory required for data: 5626634560
I1019 10:06:00.895684 32731 layer_factory.hpp:77] Creating layer bbox_pred_bbox_pred_0_split
I1019 10:06:00.895687 32731 net.cpp:100] Creating Layer bbox_pred_bbox_pred_0_split
I1019 10:06:00.895691 32731 net.cpp:434] bbox_pred_bbox_pred_0_split <- bbox_pred
I1019 10:06:00.895695 32731 net.cpp:408] bbox_pred_bbox_pred_0_split -> bbox_pred_bbox_pred_0_split_0
I1019 10:06:00.895700 32731 net.cpp:408] bbox_pred_bbox_pred_0_split -> bbox_pred_bbox_pred_0_split_1
I1019 10:06:00.895725 32731 net.cpp:150] Setting up bbox_pred_bbox_pred_0_split
I1019 10:06:00.895728 32731 net.cpp:157] Top shape: 256 20 (5120)
I1019 10:06:00.895732 32731 net.cpp:157] Top shape: 256 20 (5120)
I1019 10:06:00.895735 32731 net.cpp:165] Memory required for data: 5626675520
I1019 10:06:00.895737 32731 layer_factory.hpp:77] Creating layer loss_cls
I1019 10:06:00.895743 32731 net.cpp:100] Creating Layer loss_cls
I1019 10:06:00.895746 32731 net.cpp:434] loss_cls <- cls_pred_cls_pred_0_split_0
I1019 10:06:00.895751 32731 net.cpp:434] loss_cls <- proposal_labels_proposal_info_1_split_0
…
I1019 10:06:00.909445 32731 image_gt_data_layer.cpp:235] output label size 2 : 1,6,48,48
I1019 10:06:00.909492 32731 image_gt_data_layer.cpp:235] output label size 3 : 1,6,48,48
I1019 10:06:00.909540 32731 image_gt_data_layer.cpp:235] output label size 4 : 1,6,24,24
I1019 10:06:00.909590 32731 image_gt_data_layer.cpp:235] output label size 5 : 1,6,24,24
I1019 10:06:00.909636 32731 image_gt_data_layer.cpp:235] output label size 6 : 1,6,12,12
I1019 10:06:00.909685 32731 image_gt_data_layer.cpp:250] output gt boxes size: 1,7,1,1
I1019 10:06:00.933722 32731 net.cpp:150] Setting up data
I1019 10:06:00.933766 32731 net.cpp:157] Top shape: 1 4 768 768 (2359296)
I1019 10:06:00.933782 32731 net.cpp:157] Top shape: 1 6 96 96 (55296)
I1019 10:06:00.933792 32731 net.cpp:157] Top shape: 1 6 96 96 (55296)
I1019 10:06:00.933802 32731 net.cpp:157] Top shape: 1 6 48 48 (13824)
I1019 10:06:00.933812 32731 net.cpp:157] Top shape: 1 6 48 48 (13824)
I1019 10:06:00.933822 32731 net.cpp:157] Top shape: 1 6 24 24 (3456)
I1019 10:06:00.933831 32731 net.cpp:157] Top shape: 1 6 24 24 (3456)
I1019 10:06:00.933841 32731 net.cpp:157] Top shape: 1 6 12 12 (864)
I1019 10:06:00.933851 32731 net.cpp:157] Top shape: 1 7 1 1 (7)
I1019 10:06:00.933858 32731 net.cpp:165] Memory required for data: 10021276
I1019 10:06:00.933871 32731 layer_factory.hpp:77] Creating layer label_1_5x5_data_1_split
I1019 10:06:00.933892 32731 net.cpp:100] Creating Layer label_1_5x5_data_1_split
I1019 10:06:00.933902 32731 net.cpp:434] label_1_5x5_data_1_split <- label_1_5x5
I1019 10:06:00.933921 32731 net.cpp:408] label_1_5x5_data_1_split -> label_1_5x5_data_1_split_0
I1019 10:06:00.933938 32731 net.cpp:408] label_1_5x5_data_1_split -> label_1_5x5_data_1_split_1
I1019 10:06:00.934201 32731 net.cpp:150] Setting up label_1_5x5_data_1_split
I1019 10:06:00.934235 32731 net.cpp:157] Top shape: 1 6 96 96 (55296)
I1019 10:06:00.934243 32731 net.cpp:157] Top shape: 1 6 96 96 (55296)
I1019 10:06:00.934248 32731 net.cpp:165] Memory required for data: 10463644
I1019 10:06:00.934257 32731 layer_factory.hpp:77] Creating layer label_1_7x7_data_2_split
I1019 10:06:00.934275 32731 net.cpp:100] Creating Layer label_1_7x7_data_2_split
I1019 10:06:00.934281 32731 net.cpp:434] label_1_7x7_data_2_split <- label_1_7x7
I1019 10:06:00.934290 32731 net.cpp:408] label_1_7x7_data_2_split -> label_1_7x7_data_2_split_0
I1019 10:06:00.934303 32731 net.cpp:408] label_1_7x7_data_2_split -> label_1_7x7_data_2_split_1
I1019 10:06:00.934358 32731 net.cpp:150] Setting up label_1_7x7_data_2_split
I1019 10:06:00.934366 32731 net.cpp:157] Top shape: 1 6 96 96 (55296)
I1019 10:06:00.934372 32731 net.cpp:157] Top shape: 1 6 96 96 (55296)
I1019 10:06:00.934377 32731 net.cpp:165] Memory required for data: 10906012
I1019 10:06:00.934381 32731 layer_factory.hpp:77] Creating layer label_2_5x5_data_3_split
I1019 10:06:00.934388 32731 net.cpp:100] Creating Layer label_2_5x5_data_3_split
I1019 10:06:00.934393 32731 net.cpp:434] label_2_5x5_data_3_split <- label_2_5x5
I1019 10:06:00.934401 32731 net.cpp:408] label_2_5x5_data_3_split -> label_2_5x5_data_3_split_0
I1019 10:06:00.934409 32731 net.cpp:408] label_2_5x5_data_3_split -> label_2_5x5_data_3_split_1
I1019 10:06:00.934458 32731 net.cpp:150] Setting up label_2_5x5_data_3_split
I1019 10:06:00.934464 32731 net.cpp:157] Top shape: 1 6 48 48 (13824)
I1019 10:06:00.934471 32731 net.cpp:157] Top shape: 1 6 48 48 (13824)
I1019 10:06:00.934475 32731 net.cpp:165] Memory required for data: 11016604
I1019 10:06:00.934481 32731 layer_factory.hpp:77] Creating layer label_2_7x7_data_4_split
I1019 10:06:00.934489 32731 net.cpp:100] Creating Layer label_2_7x7_data_4_split
I1019 10:06:00.934494 32731 net.cpp:434] label_2_7x7_data_4_split <- label_2_7x7
I1019 10:06:00.934501 32731 net.cpp:408] label_2_7x7_data_4_split -> label_2_7x7_data_4_split_0
I1019 10:06:00.934509 32731 net.cpp:408] label_2_7x7_data_4_split -> label_2_7x7_data_4_split_1
I1019 10:06:00.934558 32731 net.cpp:150] Setting up label_2_7x7_data_4_split
I1019 10:06:00.934566 32731 net.cpp:157] Top shape: 1 6 48 48 (13824)
I1019 10:06:00.934572 32731 net.cpp:157] Top shape: 1 6 48 48 (13824)
I1019 10:06:00.934577 32731 net.cpp:165] Memory required for data: 11127196
I1019 10:06:00.934581 32731 layer_factory.hpp:77] Creating layer label_3_5x5_data_5_split
I1019 10:06:00.934588 32731 net.cpp:100] Creating Layer label_3_5x5_data_5_split
I1019 10:06:00.934593 32731 net.cpp:434] label_3_5x5_data_5_split <- label_3_5x5
I1019 10:06:00.934602 32731 net.cpp:408] label_3_5x5_data_5_split -> label_3_5x5_data_5_split_0
I1019 10:06:00.934609 32731 net.cpp:408] label_3_5x5_data_5_split -> label_3_5x5_data_5_split_1
I1019 10:06:00.934653 32731 net.cpp:150] Setting up label_3_5x5_data_5_split
I1019 10:06:00.934660 32731 net.cpp:157] Top shape: 1 6 24 24 (3456)
I1019 10:06:00.934666 32731 net.cpp:157] Top shape: 1 6 24 24 (3456)
I1019 10:06:00.934671 32731 net.cpp:165] Memory required for data: 11154844
I1019 10:06:00.934674 32731 layer_factory.hpp:77] Creating layer label_3_7x7_data_6_split
I1019 10:06:00.934681 32731 net.cpp:100] Creating Layer label_3_7x7_data_6_split
I1019 10:06:00.934685 32731 net.cpp:434] label_3_7x7_data_6_split <- label_3_7x7
I1019 10:06:00.934691 32731 net.cpp:408] label_3_7x7_data_6_split -> label_3_7x7_data_6_split_0
I1019 10:06:00.934698 32731 net.cpp:408] label_3_7x7_data_6_split -> label_3_7x7_data_6_split_1
I1019 10:06:00.934746 32731 net.cpp:150] Setting up label_3_7x7_data_6_split
I1019 10:06:00.934752 32731 net.cpp:157] Top shape: 1 6 24 24 (3456)
I1019 10:06:00.934758 32731 net.cpp:157] Top shape: 1 6 24 24 (3456)
I1019 10:06:00.934762 32731 net.cpp:165] Memory required for data: 11182492
I1019 10:06:00.934767 32731 layer_factory.hpp:77] Creating layer label_4_5x5_data_7_split
I1019 10:06:00.934773 32731 net.cpp:100] Creating Layer label_4_5x5_data_7_split
I1019 10:06:00.934778 32731 net.cpp:434] label_4_5x5_data_7_split <- label_4_5x5
I1019 10:06:00.934784 32731 net.cpp:408] label_4_5x5_data_7_split -> label_4_5x5_data_7_split_0
I1019 10:06:00.934792 32731 net.cpp:408] label_4_5x5_data_7_split -> label_4_5x5_data_7_split_1
I1019 10:06:00.934837 32731 net.cpp:150] Setting up label_4_5x5_data_7_split
I1019 10:06:00.934844 32731 net.cpp:157] Top shape: 1 6 12 12 (864)
I1019 10:06:00.934850 32731 net.cpp:157] Top shape: 1 6 12 12 (864)
I1019 10:06:00.934854 32731 net.cpp:165] Memory required for data: 11189404
I1019 10:06:00.934859 32731 layer_factory.hpp:77] Creating layer slice
I1019 10:06:00.934870 32731 net.cpp:100] Creating Layer slice
I1019 10:06:00.934875 32731 net.cpp:434] slice <- data
I1019 10:06:00.934882 32731 net.cpp:408] slice -> data123
I1019 10:06:00.934890 32731 net.cpp:408] slice -> ch4
I1019 10:06:00.934937 32731 net.cpp:150] Setting up slice
I1019 10:06:00.934944 32731 net.cpp:157] Top shape: 1 3 768 768 (1769472)
I1019 10:06:00.934950 32731 net.cpp:157] Top shape: 1 1 768 768 (589824)
I1019 10:06:00.934955 32731 net.cpp:165] Memory required for data: 20626588
I1019 10:06:00.934959 32731 layer_factory.hpp:77] Creating layer conv1_1
I1019 10:06:00.934970 32731 net.cpp:100] Creating Layer conv1_1
I1019 10:06:00.934975 32731 net.cpp:434] conv1_1 <- data123
I1019 10:06:00.934981 32731 net.cpp:408] conv1_1 -> conv1_1
I1019 10:06:00.941573 32731 net.cpp:150] Setting up conv1_1
I1019 10:06:00.941598 32731 net.cpp:157] Top shape: 1 64 768 768 (37748736)
I1019 10:06:00.941603 32731 net.cpp:165] Memory required for data: 171621532
I1019 10:06:00.941620 32731 layer_factory.hpp:77] Creating layer relu1_1
I1019 10:06:00.941632 32731 net.cpp:100] Creating Layer relu1_1
I1019 10:06:00.941638 32731 net.cpp:434] relu1_1 <- conv1_1
I1019 10:06:00.941646 32731 net.cpp:395] relu1_1 -> conv1_1 (in-place)
I1019 10:06:00.941925 32731 net.cpp:150] Setting up relu1_1
I1019 10:06:00.941934 32731 net.cpp:157] Top shape: 1 64 768 768 (37748736)
I1019 10:06:00.941939 32731 net.cpp:165] Memory required for data: 322616476
I1019 10:06:00.941943 32731 layer_factory.hpp:77] Creating layer conv1_2
I1019 10:06:00.941956 32731 net.cpp:100] Creating Layer conv1_2
I1019 10:06:00.941960 32731 net.cpp:434] conv1_2 <- conv1_1
I1019 10:06:00.941967 32731 net.cpp:408] conv1_2 -> conv1_2
I1019 10:06:00.944615 32731 net.cpp:150] Setting up conv1_2
I1019 10:06:00.944631 32731 net.cpp:157] Top shape: 1 64 768 768 (37748736)
I1019 10:06:00.944636 32731 net.cpp:165] Memory required for data: 473611420
I1019 10:06:00.944649 32731 layer_factory.hpp:77] Creating layer relu1_2
I1019 10:06:00.944658 32731 net.cpp:100] Creating Layer relu1_2
I1019 10:06:00.944663 32731 net.cpp:434] relu1_2 <- conv1_2
I1019 10:06:00.944669 32731 net.cpp:395] relu1_2 -> conv1_2 (in-place)
I1019 10:06:00.944869 32731 net.cpp:150] Setting up relu1_2
I1019 10:06:00.944878 32731 net.cpp:157] Top shape: 1 64 768 768 (37748736)
I1019 10:06:00.944882 32731 net.cpp:165] Memory required for data: 624606364
I1019 10:06:00.944886 32731 layer_factory.hpp:77] Creating layer pool1
I1019 10:06:00.944893 32731 net.cpp:100] Creating Layer pool1
I1019 10:06:00.944897 32731 net.cpp:434] pool1 <- conv1_2
I1019 10:06:00.944905 32731 net.cpp:408] pool1 -> pool1
I1019 10:06:00.944955 32731 net.cpp:150] Setting up pool1
I1019 10:06:00.944962 32731 net.cpp:157] Top shape: 1 64 384 384 (9437184)
I1019 10:06:00.944965 32731 net.cpp:165] Memory required for data: 662355100
I1019 10:06:00.944969 32731 layer_factory.hpp:77] Creating layer conv2_1
I1019 10:06:00.944977 32731 net.cpp:100] Creating Layer conv2_1
I1019 10:06:00.944981 32731 net.cpp:434] conv2_1 <- pool1
I1019 10:06:00.944988 32731 net.cpp:408] conv2_1 -> conv2_1
I1019 10:06:00.948029 32731 net.cpp:150] Setting up conv2_1
I1019 10:06:00.948048 32731 net.cpp:157] Top shape: 1 128 384 384 (18874368)
I1019 10:06:00.948052 32731 net.cpp:165] Memory required for data: 737852572
I1019 10:06:00.948068 32731 layer_factory.hpp:77] Creating layer relu2_1
I1019 10:06:00.948078 32731 net.cpp:100] Creating Layer relu2_1
I1019 10:06:00.948084 32731 net.cpp:434] relu2_1 <- conv2_1
I1019 10:06:00.948091 32731 net.cpp:395] relu2_1 -> conv2_1 (in-place)
I1019 10:06:00.948298 32731 net.cpp:150] Setting up relu2_1
I1019 10:06:00.948307 32731 net.cpp:157] Top shape: 1 128 384 384 (18874368)
I1019 10:06:00.948310 32731 net.cpp:165] Memory required for data: 813350044
I1019 10:06:00.948315 32731 layer_factory.hpp:77] Creating layer conv2_2
I1019 10:06:00.948329 32731 net.cpp:100] Creating Layer conv2_2
I1019 10:06:00.948333 32731 net.cpp:434] conv2_2 <- conv2_1
I1019 10:06:00.948340 32731 net.cpp:408] conv2_2 -> conv2_2
I1019 10:06:00.950287 32731 net.cpp:150] Setting up conv2_2
I1019 10:06:00.950301 32731 net.cpp:157] Top shape: 1 128 384 384 (18874368)
I1019 10:06:00.950305 32731 net.cpp:165] Memory required for data: 888847516
I1019 10:06:00.950314 32731 layer_factory.hpp:77] Creating layer relu2_2
I1019 10:06:00.950320 32731 net.cpp:100] Creating Layer relu2_2
I1019 10:06:00.950325 32731 net.cpp:434] relu2_2 <- conv2_2
I1019 10:06:00.950332 32731 net.cpp:395] relu2_2 -> conv2_2 (in-place)
I1019 10:06:00.950537 32731 net.cpp:150] Setting up relu2_2
I1019 10:06:00.950546 32731 net.cpp:157] Top shape: 1 128 384 384 (18874368)
I1019 10:06:00.950551 32731 net.cpp:165] Memory required for data: 964344988
I1019 10:06:00.950554 32731 layer_factory.hpp:77] Creating layer pool2
I1019 10:06:00.950563 32731 net.cpp:100] Creating Layer pool2
I1019 10:06:00.950568 32731 net.cpp:434] pool2 <- conv2_2
I1019 10:06:00.950577 32731 net.cpp:408] pool2 -> pool2
I1019 10:06:00.950625 32731 net.cpp:150] Setting up pool2
I1019 10:06:00.950634 32731 net.cpp:157] Top shape: 1 128 192 192 (4718592)
I1019 10:06:00.950637 32731 net.cpp:165] Memory required for data: 983219356
I1019 10:06:00.950641 32731 layer_factory.hpp:77] Creating layer conv3_1
I1019 10:06:00.950649 32731 net.cpp:100] Creating Layer conv3_1
I1019 10:06:00.950654 32731 net.cpp:434] conv3_1 <- pool2
I1019 10:06:00.950660 32731 net.cpp:408] conv3_1 -> conv3_1
I1019 10:06:00.957885 32731 net.cpp:150] Setting up conv3_1
I1019 10:06:00.957914 32731 net.cpp:157] Top shape: 1 256 192 192 (9437184)
I1019 10:06:00.957921 32731 net.cpp:165] Memory required for data: 1020968092
I1019 10:06:00.957939 32731 layer_factory.hpp:77] Creating layer relu3_1
I1019 10:06:00.957954 32731 net.cpp:100] Creating Layer relu3_1
I1019 10:06:00.957962 32731 net.cpp:434] relu3_1 <- conv3_1
I1019 10:06:00.957971 32731 net.cpp:395] relu3_1 -> conv3_1 (in-place)
I1019 10:06:00.958640 32731 net.cpp:150] Setting up relu3_1
I1019 10:06:00.958654 32731 net.cpp:157] Top shape: 1 256 192 192 (9437184)
I1019 10:06:00.958659 32731 net.cpp:165] Memory required for data: 1058716828
I1019 10:06:00.958664 32731 layer_factory.hpp:77] Creating layer conv3_2
I1019 10:06:00.958678 32731 net.cpp:100] Creating Layer conv3_2
I1019 10:06:00.958683 32731 net.cpp:434] conv3_2 <- conv3_1
I1019 10:06:00.958691 32731 net.cpp:408] conv3_2 -> conv3_2
I1019 10:06:00.961534 32731 net.cpp:150] Setting up conv3_2
I1019 10:06:00.961553 32731 net.cpp:157] Top shape: 1 256 192 192 (9437184)
I1019 10:06:00.961557 32731 net.cpp:165] Memory required for data: 1096465564
I1019 10:06:00.961567 32731 layer_factory.hpp:77] Creating layer relu3_2
I1019 10:06:00.961577 32731 net.cpp:100] Creating Layer relu3_2
I1019 10:06:00.961582 32731 net.cpp:434] relu3_2 <- conv3_2
I1019 10:06:00.961591 32731 net.cpp:395] relu3_2 -> conv3_2 (in-place)
I1019 10:06:00.962419 32731 net.cpp:150] Setting up relu3_2
I1019 10:06:00.962435 32731 net.cpp:157] Top shape: 1 256 192 192 (9437184)
I1019 10:06:00.962440 32731 net.cpp:165] Memory required for data: 1134214300
I1019 10:06:00.962445 32731 layer_factory.hpp:77] Creating layer conv3_3
I1019 10:06:00.962456 32731 net.cpp:100] Creating Layer conv3_3
I1019 10:06:00.962462 32731 net.cpp:434] conv3_3 <- conv3_2
I1019 10:06:00.962472 32731 net.cpp:408] conv3_3 -> conv3_3
I1019 10:06:00.967098 32731 net.cpp:150] Setting up conv3_3
I1019 10:06:00.967140 32731 net.cpp:157] Top shape: 1 256 192 192 (9437184)
I1019 10:06:00.967151 32731 net.cpp:165] Memory required for data: 1171963036
I1019 10:06:00.967171 32731 layer_factory.hpp:77] Creating layer relu3_3
I1019 10:06:00.967193 32731 net.cpp:100] Creating Layer relu3_3
I1019 10:06:00.967206 32731 net.cpp:434] relu3_3 <- conv3_3
I1019 10:06:00.967221 32731 net.cpp:395] relu3_3 -> conv3_3 (in-place)
I1019 10:06:00.968940 32731 net.cpp:150] Setting up relu3_3
I1019 10:06:00.968976 32731 net.cpp:157] Top shape: 1 256 192 192 (9437184)
I1019 10:06:00.968987 32731 net.cpp:165] Memory required for data: 1209711772
I1019 10:06:00.968998 32731 layer_factory.hpp:77] Creating layer pool3
I1019 10:06:00.969017 32731 net.cpp:100] Creating Layer pool3
I1019 10:06:00.969027 32731 net.cpp:434] pool3 <- conv3_3
I1019 10:06:00.969041 32731 net.cpp:408] pool3 -> pool3
I1019 10:06:00.969173 32731 net.cpp:150] Setting up pool3
I1019 10:06:00.969188 32731 net.cpp:157] Top shape: 1 256 96 96 (2359296)
I1019 10:06:00.969197 32731 net.cpp:165] Memory required for data: 1219148956
I1019 10:06:00.969207 32731 layer_factory.hpp:77] Creating layer conv4_1
I1019 10:06:00.969228 32731 net.cpp:100] Creating Layer conv4_1
I1019 10:06:00.969238 32731 net.cpp:434] conv4_1 <- pool3
I1019 10:06:00.969251 32731 net.cpp:408] conv4_1 -> conv4_1
I1019 10:06:00.976749 32731 net.cpp:150] Setting up conv4_1
I1019 10:06:00.976790 32731 net.cpp:157] Top shape: 1 512 96 96 (4718592)
I1019 10:06:00.976800 32731 net.cpp:165] Memory required for data: 1238023324
I1019 10:06:00.976822 32731 layer_factory.hpp:77] Creating layer relu4_1
I1019 10:06:00.976843 32731 net.cpp:100] Creating Layer relu4_1
I1019 10:06:00.976855 32731 net.cpp:434] relu4_1 <- conv4_1
I1019 10:06:00.976871 32731 net.cpp:395] relu4_1 -> conv4_1 (in-place)
I1019 10:06:00.977286 32731 net.cpp:150] Setting up relu4_1
I1019 10:06:00.977309 32731 net.cpp:157] Top shape: 1 512 96 96 (4718592)
I1019 10:06:00.977319 32731 net.cpp:165] Memory required for data: 1256897692
I1019 10:06:00.977329 32731 layer_factory.hpp:77] Creating layer conv4_2
I1019 10:06:00.977344 32731 net.cpp:100] Creating Layer conv4_2
I1019 10:06:00.977355 32731 net.cpp:434] conv4_2 <- conv4_1
I1019 10:06:00.977370 32731 net.cpp:408] conv4_2 -> conv4_2
I1019 10:06:00.989444 32731 net.cpp:150] Setting up conv4_2
I1019 10:06:00.989498 32731 net.cpp:157] Top shape: 1 512 96 96 (4718592)
I1019 10:06:00.989503 32731 net.cpp:165] Memory required for data: 1275772060
I1019 10:06:00.989524 32731 layer_factory.hpp:77] Creating layer relu4_2
I1019 10:06:00.989543 32731 net.cpp:100] Creating Layer relu4_2
I1019 10:06:00.989550 32731 net.cpp:434] relu4_2 <- conv4_2
I1019 10:06:00.989557 32731 net.cpp:395] relu4_2 -> conv4_2 (in-place)
I1019 10:06:00.989753 32731 net.cpp:150] Setting up relu4_2
I1019 10:06:00.989763 32731 net.cpp:157] Top shape: 1 512 96 96 (4718592)
I1019 10:06:00.989766 32731 net.cpp:165] Memory required for data: 1294646428
I1019 10:06:00.989770 32731 layer_factory.hpp:77] Creating layer conv4_3
I1019 10:06:00.989783 32731 net.cpp:100] Creating Layer conv4_3
I1019 10:06:00.989791 32731 net.cpp:434] conv4_3 <- conv4_2
I1019 10:06:00.989799 32731 net.cpp:408] conv4_3 -> conv4_3
I1019 10:06:01.000259 32731 net.cpp:150] Setting up conv4_3
I1019 10:06:01.000286 32731 net.cpp:157] Top shape: 1 512 96 96 (4718592)
I1019 10:06:01.000290 32731 net.cpp:165] Memory required for data: 1313520796
I1019 10:06:01.000300 32731 layer_factory.hpp:77] Creating layer relu4_3
I1019 10:06:01.000313 32731 net.cpp:100] Creating Layer relu4_3
I1019 10:06:01.000319 32731 net.cpp:434] relu4_3 <- conv4_3
I1019 10:06:01.000325 32731 net.cpp:395] relu4_3 -> conv4_3 (in-place)
I1019 10:06:01.000576 32731 net.cpp:150] Setting up relu4_3
I1019 10:06:01.000586 32731 net.cpp:157] Top shape: 1 512 96 96 (4718592)
I1019 10:06:01.000589 32731 net.cpp:165] Memory required for data: 1332395164
I1019 10:06:01.000593 32731 layer_factory.hpp:77] Creating layer conv4_3_relu4_3_0_split
I1019 10:06:01.000604 32731 net.cpp:100] Creating Layer conv4_3_relu4_3_0_split
I1019 10:06:01.000608 32731 net.cpp:434] conv4_3_relu4_3_0_split <- conv4_3
I1019 10:06:01.000613 32731 net.cpp:408] conv4_3_relu4_3_0_split -> conv4_3_relu4_3_0_split_0
I1019 10:06:01.000620 32731 net.cpp:408] conv4_3_relu4_3_0_split -> conv4_3_relu4_3_0_split_1
I1019 10:06:01.000627 32731 net.cpp:408] conv4_3_relu4_3_0_split -> conv4_3_relu4_3_0_split_2
I1019 10:06:01.000633 32731 net.cpp:408] conv4_3_relu4_3_0_split -> conv4_3_relu4_3_0_split_3
I1019 10:06:01.000700 32731 net.cpp:150] Setting up conv4_3_relu4_3_0_split
I1019 10:06:01.000707 32731 net.cpp:157] Top shape: 1 512 96 96 (4718592)
I1019 10:06:01.000711 32731 net.cpp:157] Top shape: 1 512 96 96 (4718592)
I1019 10:06:01.000715 32731 net.cpp:157] Top shape: 1 512 96 96 (4718592)
I1019 10:06:01.000720 32731 net.cpp:157] Top shape: 1 512 96 96 (4718592)
I1019 10:06:01.000722 32731 net.cpp:165] Memory required for data: 1407892636
I1019 10:06:01.000726 32731 layer_factory.hpp:77] Creating layer buffer
I1019 10:06:01.000737 32731 net.cpp:100] Creating Layer buffer
I1019 10:06:01.000741 32731 net.cpp:434] buffer <- conv4_3_relu4_3_0_split_0
I1019 10:06:01.000747 32731 net.cpp:408] buffer -> buffer
I1019 10:06:01.067481 32731 net.cpp:150] Setting up buffer
I1019 10:06:01.067507 32731 net.cpp:157] Top shape: 1 512 96 96 (4718592)
I1019 10:06:01.067510 32731 net.cpp:165] Memory required for data: 1426767004
I1019 10:06:01.067517 32731 layer_factory.hpp:77] Creating layer relu_buffer
I1019 10:06:01.067528 32731 net.cpp:100] Creating Layer relu_buffer
I1019 10:06:01.067533 32731 net.cpp:434] relu_buffer <- buffer
I1019 10:06:01.067541 32731 net.cpp:395] relu_buffer -> buffer (in-place)
I1019 10:06:01.068007 32731 net.cpp:150] Setting up relu_buffer
I1019 10:06:01.068019 32731 net.cpp:157] Top shape: 1 512 96 96 (4718592)
I1019 10:06:01.068023 32731 net.cpp:165] Memory required for data: 1445641372
I1019 10:06:01.068027 32731 layer_factory.hpp:77] Creating layer attention
I1019 10:06:01.068037 32731 net.cpp:100] Creating Layer attention
I1019 10:06:01.068042 32731 net.cpp:434] attention <- buffer
I1019 10:06:01.068048 32731 net.cpp:408] attention -> attention
I1019 10:06:01.069120 32731 net.cpp:150] Setting up attention
I1019 10:06:01.069134 32731 net.cpp:157] Top shape: 1 2 96 96 (18432)
I1019 10:06:01.069139 32731 net.cpp:165] Memory required for data: 1445715100
I1019 10:06:01.069145 32731 layer_factory.hpp:77] Creating layer attention_attention_0_split
I1019 10:06:01.069152 32731 net.cpp:100] Creating Layer attention_attention_0_split
I1019 10:06:01.069156 32731 net.cpp:434] attention_attention_0_split <- attention
I1019 10:06:01.069161 32731 net.cpp:408] attention_attention_0_split -> attention_attention_0_split_0
I1019 10:06:01.069169 32731 net.cpp:408] attention_attention_0_split -> attention_attention_0_split_1
I1019 10:06:01.069211 32731 net.cpp:150] Setting up attention_attention_0_split
I1019 10:06:01.069218 32731 net.cpp:157] Top shape: 1 2 96 96 (18432)
I1019 10:06:01.069223 32731 net.cpp:157] Top shape: 1 2 96 96 (18432)
I1019 10:06:01.069226 32731 net.cpp:165] Memory required for data: 1445862556
I1019 10:06:01.069231 32731 layer_factory.hpp:77] Creating layer ch4_pool
I1019 10:06:01.069237 32731 net.cpp:100] Creating Layer ch4_pool
I1019 10:06:01.069242 32731 net.cpp:434] ch4_pool <- ch4
I1019 10:06:01.069247 32731 net.cpp:408] ch4_pool -> ch4_pool
I1019 10:06:01.069284 32731 net.cpp:150] Setting up ch4_pool
I1019 10:06:01.069291 32731 net.cpp:157] Top shape: 1 1 96 96 (9216)
I1019 10:06:01.069294 32731 net.cpp:165] Memory required for data: 1445899420
I1019 10:06:01.069298 32731 layer_factory.hpp:77] Creating layer loss_attention
I1019 10:06:01.069304 32731 net.cpp:100] Creating Layer loss_attention
I1019 10:06:01.069308 32731 net.cpp:434] loss_attention <- attention_attention_0_split_0
I1019 10:06:01.069313 32731 net.cpp:434] loss_attention <- ch4_pool
I1019 10:06:01.069319 32731 net.cpp:408] loss_attention -> loss_attention
I1019 10:06:01.069325 32731 layer_factory.hpp:77] Creating layer loss_attention
I1019 10:06:01.069903 32731 net.cpp:150] Setting up loss_attention
I1019 10:06:01.069916 32731 net.cpp:157] Top shape: (1)
I1019 10:06:01.069919 32731 net.cpp:160]     with loss weight 1
I1019 10:06:01.069932 32731 net.cpp:165] Memory required for data: 1445899424
I1019 10:06:01.069936 32731 layer_factory.hpp:77] Creating layer loss1_conv1
I1019 10:06:01.069945 32731 net.cpp:100] Creating Layer loss1_conv1
I1019 10:06:01.069949 32731 net.cpp:434] loss1_conv1 <- conv4_3_relu4_3_0_split_1
I1019 10:06:01.069957 32731 net.cpp:408] loss1_conv1 -> loss1_conv1
I1019 10:06:01.132922 32731 net.cpp:150] Setting up loss1_conv1
I1019 10:06:01.132951 32731 net.cpp:157] Top shape: 1 512 96 96 (4718592)
I1019 10:06:01.132954 32731 net.cpp:165] Memory required for data: 1464773792
I1019 10:06:01.132964 32731 layer_factory.hpp:77] Creating layer loss_relu1
I1019 10:06:01.132975 32731 net.cpp:100] Creating Layer loss_relu1
I1019 10:06:01.132982 32731 net.cpp:434] loss_relu1 <- loss1_conv1
I1019 10:06:01.132987 32731 net.cpp:395] loss_relu1 -> loss1_conv1 (in-place)
I1019 10:06:01.133157 32731 net.cpp:150] Setting up loss_relu1
I1019 10:06:01.133165 32731 net.cpp:157] Top shape: 1 512 96 96 (4718592)
I1019 10:06:01.133169 32731 net.cpp:165] Memory required for data: 1483648160
I1019 10:06:01.133172 32731 layer_factory.hpp:77] Creating layer loss1_conv1_loss_relu1_0_split
I1019 10:06:01.133179 32731 net.cpp:100] Creating Layer loss1_conv1_loss_relu1_0_split
I1019 10:06:01.133183 32731 net.cpp:434] loss1_conv1_loss_relu1_0_split <- loss1_conv1
I1019 10:06:01.133188 32731 net.cpp:408] loss1_conv1_loss_relu1_0_split -> loss1_conv1_loss_relu1_0_split_0
I1019 10:06:01.133194 32731 net.cpp:408] loss1_conv1_loss_relu1_0_split -> loss1_conv1_loss_relu1_0_split_1
I1019 10:06:01.133235 32731 net.cpp:150] Setting up loss1_conv1_loss_relu1_0_split
I1019 10:06:01.133242 32731 net.cpp:157] Top shape: 1 512 96 96 (4718592)
I1019 10:06:01.133246 32731 net.cpp:157] Top shape: 1 512 96 96 (4718592)
I1019 10:06:01.133249 32731 net.cpp:165] Memory required for data: 1521396896
I1019 10:06:01.133253 32731 layer_factory.hpp:77] Creating layer LFCN_1_5x5
I1019 10:06:01.133265 32731 net.cpp:100] Creating Layer LFCN_1_5x5
I1019 10:06:01.133268 32731 net.cpp:434] LFCN_1_5x5 <- loss1_conv1_loss_relu1_0_split_0
I1019 10:06:01.133276 32731 net.cpp:408] LFCN_1_5x5 -> LFCN_1_5x5
I1019 10:06:01.140192 32731 net.cpp:150] Setting up LFCN_1_5x5
I1019 10:06:01.140223 32731 net.cpp:157] Top shape: 1 9 96 96 (82944)
I1019 10:06:01.140228 32731 net.cpp:165] Memory required for data: 1521728672
I1019 10:06:01.140238 32731 layer_factory.hpp:77] Creating layer LFCN_1_5x5_LFCN_1_5x5_0_split
I1019 10:06:01.140252 32731 net.cpp:100] Creating Layer LFCN_1_5x5_LFCN_1_5x5_0_split
I1019 10:06:01.140259 32731 net.cpp:434] LFCN_1_5x5_LFCN_1_5x5_0_split <- LFCN_1_5x5
I1019 10:06:01.140272 32731 net.cpp:408] LFCN_1_5x5_LFCN_1_5x5_0_split -> LFCN_1_5x5_LFCN_1_5x5_0_split_0
I1019 10:06:01.140285 32731 net.cpp:408] LFCN_1_5x5_LFCN_1_5x5_0_split -> LFCN_1_5x5_LFCN_1_5x5_0_split_1
I1019 10:06:01.140290 32731 net.cpp:408] LFCN_1_5x5_LFCN_1_5x5_0_split -> LFCN_1_5x5_LFCN_1_5x5_0_split_2
I1019 10:06:01.140345 32731 net.cpp:150] Setting up LFCN_1_5x5_LFCN_1_5x5_0_split
I1019 10:06:01.140352 32731 net.cpp:157] Top shape: 1 9 96 96 (82944)
I1019 10:06:01.140357 32731 net.cpp:157] Top shape: 1 9 96 96 (82944)
I1019 10:06:01.140389 32731 net.cpp:157] Top shape: 1 9 96 96 (82944)
I1019 10:06:01.140394 32731 net.cpp:165] Memory required for data: 1522724000
I1019 10:06:01.140399 32731 layer_factory.hpp:77] Creating layer detection_loss_1_5x5
I1019 10:06:01.140406 32731 net.cpp:100] Creating Layer detection_loss_1_5x5
I1019 10:06:01.140410 32731 net.cpp:434] detection_loss_1_5x5 <- LFCN_1_5x5_LFCN_1_5x5_0_split_0
I1019 10:06:01.140415 32731 net.cpp:434] detection_loss_1_5x5 <- label_1_5x5_data_1_split_0
I1019 10:06:01.140422 32731 net.cpp:408] detection_loss_1_5x5 -> loss_1_5x5
I1019 10:06:01.140431 32731 layer_factory.hpp:77] Creating layer detection_loss_1_5x5
I1019 10:06:01.141669 32731 net.cpp:150] Setting up detection_loss_1_5x5
I1019 10:06:01.141682 32731 net.cpp:157] Top shape: 1 1 1 2 (2)
I1019 10:06:01.141686 32731 net.cpp:160]     with loss weight 0.9
I1019 10:06:01.141697 32731 net.cpp:165] Memory required for data: 1522724008
I1019 10:06:01.141701 32731 layer_factory.hpp:77] Creating layer detection_accuracy_1_5x5
I1019 10:06:01.141708 32731 net.cpp:100] Creating Layer detection_accuracy_1_5x5
I1019 10:06:01.141712 32731 net.cpp:434] detection_accuracy_1_5x5 <- LFCN_1_5x5_LFCN_1_5x5_0_split_1
I1019 10:06:01.141717 32731 net.cpp:434] detection_accuracy_1_5x5 <- label_1_5x5_data_1_split_1
I1019 10:06:01.141722 32731 net.cpp:408] detection_accuracy_1_5x5 -> accuracy_1_5x5
I1019 10:06:01.141731 32731 net.cpp:408] detection_accuracy_1_5x5 -> boxiou_1_5x5
I1019 10:06:01.141772 32731 net.cpp:150] Setting up detection_accuracy_1_5x5
I1019 10:06:01.141779 32731 net.cpp:157] Top shape: 1 1 1 2 (2)
I1019 10:06:01.141783 32731 net.cpp:157] Top shape: 1 1 1 1 (1)
I1019 10:06:01.141786 32731 net.cpp:165] Memory required for data: 1522724020
I1019 10:06:01.141790 32731 layer_factory.hpp:77] Creating layer LFCN_1_7x7
I1019 10:06:01.141803 32731 net.cpp:100] Creating Layer LFCN_1_7x7
I1019 10:06:01.141806 32731 net.cpp:434] LFCN_1_7x7 <- loss1_conv1_loss_relu1_0_split_1
I1019 10:06:01.141813 32731 net.cpp:408] LFCN_1_7x7 -> LFCN_1_7x7
I1019 10:06:01.150739 32731 net.cpp:150] Setting up LFCN_1_7x7
I1019 10:06:01.150759 32731 net.cpp:157] Top shape: 1 9 96 96 (82944)
I1019 10:06:01.150764 32731 net.cpp:165] Memory required for data: 1523055796
I1019 10:06:01.150771 32731 layer_factory.hpp:77] Creating layer LFCN_1_7x7_LFCN_1_7x7_0_split
I1019 10:06:01.150779 32731 net.cpp:100] Creating Layer LFCN_1_7x7_LFCN_1_7x7_0_split
I1019 10:06:01.150784 32731 net.cpp:434] LFCN_1_7x7_LFCN_1_7x7_0_split <- LFCN_1_7x7
I1019 10:06:01.150790 32731 net.cpp:408] LFCN_1_7x7_LFCN_1_7x7_0_split -> LFCN_1_7x7_LFCN_1_7x7_0_split_0
I1019 10:06:01.150800 32731 net.cpp:408] LFCN_1_7x7_LFCN_1_7x7_0_split -> LFCN_1_7x7_LFCN_1_7x7_0_split_1
I1019 10:06:01.150806 32731 net.cpp:408] LFCN_1_7x7_LFCN_1_7x7_0_split -> LFCN_1_7x7_LFCN_1_7x7_0_split_2
I1019 10:06:01.150871 32731 net.cpp:150] Setting up LFCN_1_7x7_LFCN_1_7x7_0_split
I1019 10:06:01.150877 32731 net.cpp:157] Top shape: 1 9 96 96 (82944)
I1019 10:06:01.150883 32731 net.cpp:157] Top shape: 1 9 96 96 (82944)
I1019 10:06:01.150887 32731 net.cpp:157] Top shape: 1 9 96 96 (82944)
I1019 10:06:01.150892 32731 net.cpp:165] Memory required for data: 1524051124
I1019 10:06:01.150895 32731 layer_factory.hpp:77] Creating layer detection_loss_1_7x7
I1019 10:06:01.150903 32731 net.cpp:100] Creating Layer detection_loss_1_7x7
I1019 10:06:01.150908 32731 net.cpp:434] detection_loss_1_7x7 <- LFCN_1_7x7_LFCN_1_7x7_0_split_0
I1019 10:06:01.150913 32731 net.cpp:434] detection_loss_1_7x7 <- label_1_7x7_data_2_split_0
I1019 10:06:01.150920 32731 net.cpp:408] detection_loss_1_7x7 -> loss_1_7x7
I1019 10:06:01.150929 32731 layer_factory.hpp:77] Creating layer detection_loss_1_7x7
I1019 10:06:01.151351 32731 net.cpp:150] Setting up detection_loss_1_7x7
I1019 10:06:01.151362 32731 net.cpp:157] Top shape: 1 1 1 2 (2)
I1019 10:06:01.151366 32731 net.cpp:160]     with loss weight 0.9
I1019 10:06:01.151376 32731 net.cpp:165] Memory required for data: 1524051132
I1019 10:06:01.151381 32731 layer_factory.hpp:77] Creating layer detection_accuracy_1_7x7
I1019 10:06:01.151387 32731 net.cpp:100] Creating Layer detection_accuracy_1_7x7
I1019 10:06:01.151392 32731 net.cpp:434] detection_accuracy_1_7x7 <- LFCN_1_7x7_LFCN_1_7x7_0_split_1
I1019 10:06:01.151397 32731 net.cpp:434] detection_accuracy_1_7x7 <- label_1_7x7_data_2_split_1
I1019 10:06:01.151404 32731 net.cpp:408] detection_accuracy_1_7x7 -> accuracy_1_7x7
I1019 10:06:01.151413 32731 net.cpp:408] detection_accuracy_1_7x7 -> boxiou_1_7x7
I1019 10:06:01.151466 32731 net.cpp:150] Setting up detection_accuracy_1_7x7
I1019 10:06:01.151479 32731 net.cpp:157] Top shape: 1 1 1 2 (2)
I1019 10:06:01.151485 32731 net.cpp:157] Top shape: 1 1 1 1 (1)
I1019 10:06:01.151489 32731 net.cpp:165] Memory required for data: 1524051144
I1019 10:06:01.151492 32731 layer_factory.hpp:77] Creating layer pool4
I1019 10:06:01.151500 32731 net.cpp:100] Creating Layer pool4
I1019 10:06:01.151504 32731 net.cpp:434] pool4 <- conv4_3_relu4_3_0_split_2
I1019 10:06:01.151510 32731 net.cpp:408] pool4 -> pool4
I1019 10:06:01.151556 32731 net.cpp:150] Setting up pool4
I1019 10:06:01.151564 32731 net.cpp:157] Top shape: 1 512 48 48 (1179648)
I1019 10:06:01.151568 32731 net.cpp:165] Memory required for data: 1528769736
I1019 10:06:01.151572 32731 layer_factory.hpp:77] Creating layer conv5_1
I1019 10:06:01.151582 32731 net.cpp:100] Creating Layer conv5_1
I1019 10:06:01.151585 32731 net.cpp:434] conv5_1 <- pool4
I1019 10:06:01.151592 32731 net.cpp:408] conv5_1 -> conv5_1
I1019 10:06:01.158066 32731 net.cpp:150] Setting up conv5_1
I1019 10:06:01.158095 32731 net.cpp:157] Top shape: 1 512 48 48 (1179648)
I1019 10:06:01.158100 32731 net.cpp:165] Memory required for data: 1533488328
I1019 10:06:01.158109 32731 layer_factory.hpp:77] Creating layer relu5_1
I1019 10:06:01.158123 32731 net.cpp:100] Creating Layer relu5_1
I1019 10:06:01.158128 32731 net.cpp:434] relu5_1 <- conv5_1
I1019 10:06:01.158138 32731 net.cpp:395] relu5_1 -> conv5_1 (in-place)
I1019 10:06:01.158308 32731 net.cpp:150] Setting up relu5_1
I1019 10:06:01.158318 32731 net.cpp:157] Top shape: 1 512 48 48 (1179648)
I1019 10:06:01.158321 32731 net.cpp:165] Memory required for data: 1538206920
I1019 10:06:01.158324 32731 layer_factory.hpp:77] Creating layer conv5_2
I1019 10:06:01.158334 32731 net.cpp:100] Creating Layer conv5_2
I1019 10:06:01.158339 32731 net.cpp:434] conv5_2 <- conv5_1
I1019 10:06:01.158344 32731 net.cpp:408] conv5_2 -> conv5_2
I1019 10:06:01.164705 32731 net.cpp:150] Setting up conv5_2
I1019 10:06:01.164753 32731 net.cpp:157] Top shape: 1 512 48 48 (1179648)
I1019 10:06:01.164758 32731 net.cpp:165] Memory required for data: 1542925512
I1019 10:06:01.164783 32731 layer_factory.hpp:77] Creating layer relu5_2
I1019 10:06:01.164803 32731 net.cpp:100] Creating Layer relu5_2
I1019 10:06:01.164811 32731 net.cpp:434] relu5_2 <- conv5_2
I1019 10:06:01.164819 32731 net.cpp:395] relu5_2 -> conv5_2 (in-place)
I1019 10:06:01.165367 32731 net.cpp:150] Setting up relu5_2
I1019 10:06:01.165381 32731 net.cpp:157] Top shape: 1 512 48 48 (1179648)
I1019 10:06:01.165385 32731 net.cpp:165] Memory required for data: 1547644104
I1019 10:06:01.165390 32731 layer_factory.hpp:77] Creating layer conv5_3
I1019 10:06:01.165400 32731 net.cpp:100] Creating Layer conv5_3
I1019 10:06:01.165403 32731 net.cpp:434] conv5_3 <- conv5_2
I1019 10:06:01.165410 32731 net.cpp:408] conv5_3 -> conv5_3
I1019 10:06:01.173132 32731 net.cpp:150] Setting up conv5_3
I1019 10:06:01.173167 32731 net.cpp:157] Top shape: 1 512 48 48 (1179648)
I1019 10:06:01.173171 32731 net.cpp:165] Memory required for data: 1552362696
I1019 10:06:01.173182 32731 layer_factory.hpp:77] Creating layer relu5_3
I1019 10:06:01.173193 32731 net.cpp:100] Creating Layer relu5_3
I1019 10:06:01.173200 32731 net.cpp:434] relu5_3 <- conv5_3
I1019 10:06:01.173207 32731 net.cpp:395] relu5_3 -> conv5_3 (in-place)
I1019 10:06:01.173883 32731 net.cpp:150] Setting up relu5_3
I1019 10:06:01.173897 32731 net.cpp:157] Top shape: 1 512 48 48 (1179648)
I1019 10:06:01.173900 32731 net.cpp:165] Memory required for data: 1557081288
I1019 10:06:01.173904 32731 layer_factory.hpp:77] Creating layer conv5_3_relu5_3_0_split
I1019 10:06:01.173910 32731 net.cpp:100] Creating Layer conv5_3_relu5_3_0_split
I1019 10:06:01.173914 32731 net.cpp:434] conv5_3_relu5_3_0_split <- conv5_3
I1019 10:06:01.173920 32731 net.cpp:408] conv5_3_relu5_3_0_split -> conv5_3_relu5_3_0_split_0
I1019 10:06:01.173928 32731 net.cpp:408] conv5_3_relu5_3_0_split -> conv5_3_relu5_3_0_split_1
I1019 10:06:01.173933 32731 net.cpp:408] conv5_3_relu5_3_0_split -> conv5_3_relu5_3_0_split_2
I1019 10:06:01.173991 32731 net.cpp:150] Setting up conv5_3_relu5_3_0_split
I1019 10:06:01.173998 32731 net.cpp:157] Top shape: 1 512 48 48 (1179648)
I1019 10:06:01.174002 32731 net.cpp:157] Top shape: 1 512 48 48 (1179648)
I1019 10:06:01.174006 32731 net.cpp:157] Top shape: 1 512 48 48 (1179648)
I1019 10:06:01.174010 32731 net.cpp:165] Memory required for data: 1571237064
I1019 10:06:01.174013 32731 layer_factory.hpp:77] Creating layer LFCN_2_5x5
I1019 10:06:01.174024 32731 net.cpp:100] Creating Layer LFCN_2_5x5
I1019 10:06:01.174031 32731 net.cpp:434] LFCN_2_5x5 <- conv5_3_relu5_3_0_split_0
I1019 10:06:01.174037 32731 net.cpp:408] LFCN_2_5x5 -> LFCN_2_5x5
I1019 10:06:01.178046 32731 net.cpp:150] Setting up LFCN_2_5x5
I1019 10:06:01.178061 32731 net.cpp:157] Top shape: 1 9 48 48 (20736)
I1019 10:06:01.178063 32731 net.cpp:165] Memory required for data: 1571320008
I1019 10:06:01.178071 32731 layer_factory.hpp:77] Creating layer LFCN_2_5x5_LFCN_2_5x5_0_split
I1019 10:06:01.178077 32731 net.cpp:100] Creating Layer LFCN_2_5x5_LFCN_2_5x5_0_split
I1019 10:06:01.178081 32731 net.cpp:434] LFCN_2_5x5_LFCN_2_5x5_0_split <- LFCN_2_5x5
I1019 10:06:01.178086 32731 net.cpp:408] LFCN_2_5x5_LFCN_2_5x5_0_split -> LFCN_2_5x5_LFCN_2_5x5_0_split_0
I1019 10:06:01.178092 32731 net.cpp:408] LFCN_2_5x5_LFCN_2_5x5_0_split -> LFCN_2_5x5_LFCN_2_5x5_0_split_1
I1019 10:06:01.178099 32731 net.cpp:408] LFCN_2_5x5_LFCN_2_5x5_0_split -> LFCN_2_5x5_LFCN_2_5x5_0_split_2
I1019 10:06:01.178153 32731 net.cpp:150] Setting up LFCN_2_5x5_LFCN_2_5x5_0_split
I1019 10:06:01.178159 32731 net.cpp:157] Top shape: 1 9 48 48 (20736)
I1019 10:06:01.178164 32731 net.cpp:157] Top shape: 1 9 48 48 (20736)
I1019 10:06:01.178167 32731 net.cpp:157] Top shape: 1 9 48 48 (20736)
I1019 10:06:01.178171 32731 net.cpp:165] Memory required for data: 1571568840
I1019 10:06:01.178174 32731 layer_factory.hpp:77] Creating layer detection_loss_2_5x5
I1019 10:06:01.178184 32731 net.cpp:100] Creating Layer detection_loss_2_5x5
I1019 10:06:01.178189 32731 net.cpp:434] detection_loss_2_5x5 <- LFCN_2_5x5_LFCN_2_5x5_0_split_0
I1019 10:06:01.178194 32731 net.cpp:434] detection_loss_2_5x5 <- label_2_5x5_data_3_split_0
I1019 10:06:01.178200 32731 net.cpp:408] detection_loss_2_5x5 -> loss_2_5x5
I1019 10:06:01.178208 32731 layer_factory.hpp:77] Creating layer detection_loss_2_5x5
I1019 10:06:01.178550 32731 net.cpp:150] Setting up detection_loss_2_5x5
I1019 10:06:01.178560 32731 net.cpp:157] Top shape: 1 1 1 2 (2)
I1019 10:06:01.178563 32731 net.cpp:160]     with loss weight 1
I1019 10:06:01.178575 32731 net.cpp:165] Memory required for data: 1571568848
I1019 10:06:01.178578 32731 layer_factory.hpp:77] Creating layer detection_accuracy_2_5x5
I1019 10:06:01.178586 32731 net.cpp:100] Creating Layer detection_accuracy_2_5x5
I1019 10:06:01.178589 32731 net.cpp:434] detection_accuracy_2_5x5 <- LFCN_2_5x5_LFCN_2_5x5_0_split_1
I1019 10:06:01.178594 32731 net.cpp:434] detection_accuracy_2_5x5 <- label_2_5x5_data_3_split_1
I1019 10:06:01.178601 32731 net.cpp:408] detection_accuracy_2_5x5 -> accuracy_2_5x5
I1019 10:06:01.178608 32731 net.cpp:408] detection_accuracy_2_5x5 -> boxiou_2_5x5
I1019 10:06:01.178647 32731 net.cpp:150] Setting up detection_accuracy_2_5x5
I1019 10:06:01.178653 32731 net.cpp:157] Top shape: 1 1 1 2 (2)
I1019 10:06:01.178658 32731 net.cpp:157] Top shape: 1 1 1 1 (1)
I1019 10:06:01.178661 32731 net.cpp:165] Memory required for data: 1571568860
I1019 10:06:01.178664 32731 layer_factory.hpp:77] Creating layer LFCN_2_7x7
I1019 10:06:01.178674 32731 net.cpp:100] Creating Layer LFCN_2_7x7
I1019 10:06:01.178678 32731 net.cpp:434] LFCN_2_7x7 <- conv5_3_relu5_3_0_split_1
I1019 10:06:01.178683 32731 net.cpp:408] LFCN_2_7x7 -> LFCN_2_7x7
I1019 10:06:01.188318 32731 net.cpp:150] Setting up LFCN_2_7x7
I1019 10:06:01.188370 32731 net.cpp:157] Top shape: 1 9 48 48 (20736)
I1019 10:06:01.188376 32731 net.cpp:165] Memory required for data: 1571651804
I1019 10:06:01.188387 32731 layer_factory.hpp:77] Creating layer LFCN_2_7x7_LFCN_2_7x7_0_split
I1019 10:06:01.188401 32731 net.cpp:100] Creating Layer LFCN_2_7x7_LFCN_2_7x7_0_split
I1019 10:06:01.188410 32731 net.cpp:434] LFCN_2_7x7_LFCN_2_7x7_0_split <- LFCN_2_7x7
I1019 10:06:01.188419 32731 net.cpp:408] LFCN_2_7x7_LFCN_2_7x7_0_split -> LFCN_2_7x7_LFCN_2_7x7_0_split_0
I1019 10:06:01.188431 32731 net.cpp:408] LFCN_2_7x7_LFCN_2_7x7_0_split -> LFCN_2_7x7_LFCN_2_7x7_0_split_1
I1019 10:06:01.188437 32731 net.cpp:408] LFCN_2_7x7_LFCN_2_7x7_0_split -> LFCN_2_7x7_LFCN_2_7x7_0_split_2
I1019 10:06:01.188494 32731 net.cpp:150] Setting up LFCN_2_7x7_LFCN_2_7x7_0_split
I1019 10:06:01.188501 32731 net.cpp:157] Top shape: 1 9 48 48 (20736)
I1019 10:06:01.188505 32731 net.cpp:157] Top shape: 1 9 48 48 (20736)
I1019 10:06:01.188509 32731 net.cpp:157] Top shape: 1 9 48 48 (20736)
I1019 10:06:01.188513 32731 net.cpp:165] Memory required for data: 1571900636
I1019 10:06:01.188515 32731 layer_factory.hpp:77] Creating layer detection_loss_2_7x7
I1019 10:06:01.188537 32731 net.cpp:100] Creating Layer detection_loss_2_7x7
I1019 10:06:01.188541 32731 net.cpp:434] detection_loss_2_7x7 <- LFCN_2_7x7_LFCN_2_7x7_0_split_0
I1019 10:06:01.188549 32731 net.cpp:434] detection_loss_2_7x7 <- label_2_7x7_data_4_split_0
I1019 10:06:01.188555 32731 net.cpp:408] detection_loss_2_7x7 -> loss_2_7x7
I1019 10:06:01.188565 32731 layer_factory.hpp:77] Creating layer detection_loss_2_7x7
I1019 10:06:01.188921 32731 net.cpp:150] Setting up detection_loss_2_7x7
I1019 10:06:01.188930 32731 net.cpp:157] Top shape: 1 1 1 2 (2)
I1019 10:06:01.188935 32731 net.cpp:160]     with loss weight 1
I1019 10:06:01.188951 32731 net.cpp:165] Memory required for data: 1571900644
I1019 10:06:01.188954 32731 layer_factory.hpp:77] Creating layer detection_accuracy_2_7x7
I1019 10:06:01.188963 32731 net.cpp:100] Creating Layer detection_accuracy_2_7x7
I1019 10:06:01.188967 32731 net.cpp:434] detection_accuracy_2_7x7 <- LFCN_2_7x7_LFCN_2_7x7_0_split_1
I1019 10:06:01.188972 32731 net.cpp:434] detection_accuracy_2_7x7 <- label_2_7x7_data_4_split_1
I1019 10:06:01.188979 32731 net.cpp:408] detection_accuracy_2_7x7 -> accuracy_2_7x7
I1019 10:06:01.188987 32731 net.cpp:408] detection_accuracy_2_7x7 -> boxiou_2_7x7
I1019 10:06:01.189031 32731 net.cpp:150] Setting up detection_accuracy_2_7x7
I1019 10:06:01.189038 32731 net.cpp:157] Top shape: 1 1 1 2 (2)
I1019 10:06:01.189043 32731 net.cpp:157] Top shape: 1 1 1 1 (1)
I1019 10:06:01.189045 32731 net.cpp:165] Memory required for data: 1571900656
I1019 10:06:01.189049 32731 layer_factory.hpp:77] Creating layer pool5
I1019 10:06:01.189059 32731 net.cpp:100] Creating Layer pool5
I1019 10:06:01.189064 32731 net.cpp:434] pool5 <- conv5_3_relu5_3_0_split_2
I1019 10:06:01.189070 32731 net.cpp:408] pool5 -> pool5
I1019 10:06:01.189110 32731 net.cpp:150] Setting up pool5
I1019 10:06:01.189116 32731 net.cpp:157] Top shape: 1 512 24 24 (294912)
I1019 10:06:01.189119 32731 net.cpp:165] Memory required for data: 1573080304
I1019 10:06:01.189122 32731 layer_factory.hpp:77] Creating layer conv6_1
I1019 10:06:01.189136 32731 net.cpp:100] Creating Layer conv6_1
I1019 10:06:01.189139 32731 net.cpp:434] conv6_1 <- pool5
I1019 10:06:01.189146 32731 net.cpp:408] conv6_1 -> conv6_1
I1019 10:06:01.255662 32731 net.cpp:150] Setting up conv6_1
I1019 10:06:01.255690 32731 net.cpp:157] Top shape: 1 512 24 24 (294912)
I1019 10:06:01.255694 32731 net.cpp:165] Memory required for data: 1574259952
I1019 10:06:01.255703 32731 layer_factory.hpp:77] Creating layer relu6_1
I1019 10:06:01.255713 32731 net.cpp:100] Creating Layer relu6_1
I1019 10:06:01.255720 32731 net.cpp:434] relu6_1 <- conv6_1
I1019 10:06:01.255726 32731 net.cpp:395] relu6_1 -> conv6_1 (in-place)
I1019 10:06:01.255894 32731 net.cpp:150] Setting up relu6_1
I1019 10:06:01.255903 32731 net.cpp:157] Top shape: 1 512 24 24 (294912)
I1019 10:06:01.255908 32731 net.cpp:165] Memory required for data: 1575439600
I1019 10:06:01.255910 32731 layer_factory.hpp:77] Creating layer conv6_1_relu6_1_0_split
I1019 10:06:01.255918 32731 net.cpp:100] Creating Layer conv6_1_relu6_1_0_split
I1019 10:06:01.255920 32731 net.cpp:434] conv6_1_relu6_1_0_split <- conv6_1
I1019 10:06:01.255926 32731 net.cpp:408] conv6_1_relu6_1_0_split -> conv6_1_relu6_1_0_split_0
I1019 10:06:01.255934 32731 net.cpp:408] conv6_1_relu6_1_0_split -> conv6_1_relu6_1_0_split_1
I1019 10:06:01.255939 32731 net.cpp:408] conv6_1_relu6_1_0_split -> conv6_1_relu6_1_0_split_2
I1019 10:06:01.255993 32731 net.cpp:150] Setting up conv6_1_relu6_1_0_split
I1019 10:06:01.256000 32731 net.cpp:157] Top shape: 1 512 24 24 (294912)
I1019 10:06:01.256006 32731 net.cpp:157] Top shape: 1 512 24 24 (294912)
I1019 10:06:01.256009 32731 net.cpp:157] Top shape: 1 512 24 24 (294912)
I1019 10:06:01.256012 32731 net.cpp:165] Memory required for data: 1578978544
I1019 10:06:01.256016 32731 layer_factory.hpp:77] Creating layer LFCN_3_5x5
I1019 10:06:01.256028 32731 net.cpp:100] Creating Layer LFCN_3_5x5
I1019 10:06:01.256033 32731 net.cpp:434] LFCN_3_5x5 <- conv6_1_relu6_1_0_split_0
I1019 10:06:01.256039 32731 net.cpp:408] LFCN_3_5x5 -> LFCN_3_5x5
I1019 10:06:01.260025 32731 net.cpp:150] Setting up LFCN_3_5x5
I1019 10:06:01.260037 32731 net.cpp:157] Top shape: 1 9 24 24 (5184)
I1019 10:06:01.260040 32731 net.cpp:165] Memory required for data: 1578999280
I1019 10:06:01.260046 32731 layer_factory.hpp:77] Creating layer LFCN_3_5x5_LFCN_3_5x5_0_split
I1019 10:06:01.260051 32731 net.cpp:100] Creating Layer LFCN_3_5x5_LFCN_3_5x5_0_split
I1019 10:06:01.260054 32731 net.cpp:434] LFCN_3_5x5_LFCN_3_5x5_0_split <- LFCN_3_5x5
I1019 10:06:01.260058 32731 net.cpp:408] LFCN_3_5x5_LFCN_3_5x5_0_split -> LFCN_3_5x5_LFCN_3_5x5_0_split_0
I1019 10:06:01.260066 32731 net.cpp:408] LFCN_3_5x5_LFCN_3_5x5_0_split -> LFCN_3_5x5_LFCN_3_5x5_0_split_1
I1019 10:06:01.260069 32731 net.cpp:408] LFCN_3_5x5_LFCN_3_5x5_0_split -> LFCN_3_5x5_LFCN_3_5x5_0_split_2
I1019 10:06:01.260118 32731 net.cpp:150] Setting up LFCN_3_5x5_LFCN_3_5x5_0_split
I1019 10:06:01.260123 32731 net.cpp:157] Top shape: 1 9 24 24 (5184)
I1019 10:06:01.260128 32731 net.cpp:157] Top shape: 1 9 24 24 (5184)
I1019 10:06:01.260133 32731 net.cpp:157] Top shape: 1 9 24 24 (5184)
I1019 10:06:01.260134 32731 net.cpp:165] Memory required for data: 1579061488
I1019 10:06:01.260138 32731 layer_factory.hpp:77] Creating layer detection_loss_3_5x5
I1019 10:06:01.260143 32731 net.cpp:100] Creating Layer detection_loss_3_5x5
I1019 10:06:01.260146 32731 net.cpp:434] detection_loss_3_5x5 <- LFCN_3_5x5_LFCN_3_5x5_0_split_0
I1019 10:06:01.260151 32731 net.cpp:434] detection_loss_3_5x5 <- label_3_5x5_data_5_split_0
I1019 10:06:01.260159 32731 net.cpp:408] detection_loss_3_5x5 -> loss_3_5x5
I1019 10:06:01.260166 32731 layer_factory.hpp:77] Creating layer detection_loss_3_5x5
I1019 10:06:01.260509 32731 net.cpp:150] Setting up detection_loss_3_5x5
I1019 10:06:01.260519 32731 net.cpp:157] Top shape: 1 1 1 2 (2)
I1019 10:06:01.260524 32731 net.cpp:160]     with loss weight 1
I1019 10:06:01.260535 32731 net.cpp:165] Memory required for data: 1579061496
I1019 10:06:01.260537 32731 layer_factory.hpp:77] Creating layer detection_accuracy_3_5x5
I1019 10:06:01.260545 32731 net.cpp:100] Creating Layer detection_accuracy_3_5x5
I1019 10:06:01.260548 32731 net.cpp:434] detection_accuracy_3_5x5 <- LFCN_3_5x5_LFCN_3_5x5_0_split_1
I1019 10:06:01.260553 32731 net.cpp:434] detection_accuracy_3_5x5 <- label_3_5x5_data_5_split_1
I1019 10:06:01.260560 32731 net.cpp:408] detection_accuracy_3_5x5 -> accuracy_3_5x5
I1019 10:06:01.260567 32731 net.cpp:408] detection_accuracy_3_5x5 -> boxiou_3_5x5
I1019 10:06:01.260607 32731 net.cpp:150] Setting up detection_accuracy_3_5x5
I1019 10:06:01.260614 32731 net.cpp:157] Top shape: 1 1 1 2 (2)
I1019 10:06:01.260618 32731 net.cpp:157] Top shape: 1 1 1 1 (1)
I1019 10:06:01.260622 32731 net.cpp:165] Memory required for data: 1579061508
I1019 10:06:01.260625 32731 layer_factory.hpp:77] Creating layer LFCN_3_7x7
I1019 10:06:01.260634 32731 net.cpp:100] Creating Layer LFCN_3_7x7
I1019 10:06:01.260638 32731 net.cpp:434] LFCN_3_7x7 <- conv6_1_relu6_1_0_split_1
I1019 10:06:01.260643 32731 net.cpp:408] LFCN_3_7x7 -> LFCN_3_7x7
I1019 10:06:01.267513 32731 net.cpp:150] Setting up LFCN_3_7x7
I1019 10:06:01.267525 32731 net.cpp:157] Top shape: 1 9 24 24 (5184)
I1019 10:06:01.267529 32731 net.cpp:165] Memory required for data: 1579082244
I1019 10:06:01.267534 32731 layer_factory.hpp:77] Creating layer LFCN_3_7x7_LFCN_3_7x7_0_split
I1019 10:06:01.267540 32731 net.cpp:100] Creating Layer LFCN_3_7x7_LFCN_3_7x7_0_split
I1019 10:06:01.267544 32731 net.cpp:434] LFCN_3_7x7_LFCN_3_7x7_0_split <- LFCN_3_7x7
I1019 10:06:01.267549 32731 net.cpp:408] LFCN_3_7x7_LFCN_3_7x7_0_split -> LFCN_3_7x7_LFCN_3_7x7_0_split_0
I1019 10:06:01.267554 32731 net.cpp:408] LFCN_3_7x7_LFCN_3_7x7_0_split -> LFCN_3_7x7_LFCN_3_7x7_0_split_1
I1019 10:06:01.267560 32731 net.cpp:408] LFCN_3_7x7_LFCN_3_7x7_0_split -> LFCN_3_7x7_LFCN_3_7x7_0_split_2
I1019 10:06:01.267609 32731 net.cpp:150] Setting up LFCN_3_7x7_LFCN_3_7x7_0_split
I1019 10:06:01.267614 32731 net.cpp:157] Top shape: 1 9 24 24 (5184)
I1019 10:06:01.267618 32731 net.cpp:157] Top shape: 1 9 24 24 (5184)
I1019 10:06:01.267622 32731 net.cpp:157] Top shape: 1 9 24 24 (5184)
I1019 10:06:01.267626 32731 net.cpp:165] Memory required for data: 1579144452
I1019 10:06:01.267628 32731 layer_factory.hpp:77] Creating layer detection_loss_3_7x7
I1019 10:06:01.267635 32731 net.cpp:100] Creating Layer detection_loss_3_7x7
I1019 10:06:01.267638 32731 net.cpp:434] detection_loss_3_7x7 <- LFCN_3_7x7_LFCN_3_7x7_0_split_0
I1019 10:06:01.267643 32731 net.cpp:434] detection_loss_3_7x7 <- label_3_7x7_data_6_split_0
I1019 10:06:01.267648 32731 net.cpp:408] detection_loss_3_7x7 -> loss_3_7x7
I1019 10:06:01.267654 32731 layer_factory.hpp:77] Creating layer detection_loss_3_7x7
I1019 10:06:01.268374 32731 net.cpp:150] Setting up detection_loss_3_7x7
I1019 10:06:01.268386 32731 net.cpp:157] Top shape: 1 1 1 2 (2)
I1019 10:06:01.268390 32731 net.cpp:160]     with loss weight 1
I1019 10:06:01.268396 32731 net.cpp:165] Memory required for data: 1579144460
I1019 10:06:01.268400 32731 layer_factory.hpp:77] Creating layer detection_accuracy_3_7x7
I1019 10:06:01.268409 32731 net.cpp:100] Creating Layer detection_accuracy_3_7x7
I1019 10:06:01.268412 32731 net.cpp:434] detection_accuracy_3_7x7 <- LFCN_3_7x7_LFCN_3_7x7_0_split_1
I1019 10:06:01.268417 32731 net.cpp:434] detection_accuracy_3_7x7 <- label_3_7x7_data_6_split_1
I1019 10:06:01.268426 32731 net.cpp:408] detection_accuracy_3_7x7 -> accuracy_3_7x7
I1019 10:06:01.268434 32731 net.cpp:408] detection_accuracy_3_7x7 -> boxiou_3_7x7
I1019 10:06:01.268474 32731 net.cpp:150] Setting up detection_accuracy_3_7x7
I1019 10:06:01.268481 32731 net.cpp:157] Top shape: 1 1 1 2 (2)
I1019 10:06:01.268486 32731 net.cpp:157] Top shape: 1 1 1 1 (1)
I1019 10:06:01.268488 32731 net.cpp:165] Memory required for data: 1579144472
I1019 10:06:01.268491 32731 layer_factory.hpp:77] Creating layer pool6
I1019 10:06:01.268496 32731 net.cpp:100] Creating Layer pool6
I1019 10:06:01.268501 32731 net.cpp:434] pool6 <- conv6_1_relu6_1_0_split_2
I1019 10:06:01.268505 32731 net.cpp:408] pool6 -> pool6
I1019 10:06:01.268545 32731 net.cpp:150] Setting up pool6
I1019 10:06:01.268564 32731 net.cpp:157] Top shape: 1 512 12 12 (73728)
I1019 10:06:01.268568 32731 net.cpp:165] Memory required for data: 1579439384
I1019 10:06:01.268570 32731 layer_factory.hpp:77] Creating layer LFCN_4_5x5
I1019 10:06:01.268579 32731 net.cpp:100] Creating Layer LFCN_4_5x5
I1019 10:06:01.268582 32731 net.cpp:434] LFCN_4_5x5 <- pool6
I1019 10:06:01.268589 32731 net.cpp:408] LFCN_4_5x5 -> LFCN_4_5x5
I1019 10:06:01.272305 32731 net.cpp:150] Setting up LFCN_4_5x5
I1019 10:06:01.272315 32731 net.cpp:157] Top shape: 1 9 12 12 (1296)
I1019 10:06:01.272320 32731 net.cpp:165] Memory required for data: 1579444568
I1019 10:06:01.272325 32731 layer_factory.hpp:77] Creating layer LFCN_4_5x5_LFCN_4_5x5_0_split
I1019 10:06:01.272330 32731 net.cpp:100] Creating Layer LFCN_4_5x5_LFCN_4_5x5_0_split
I1019 10:06:01.272334 32731 net.cpp:434] LFCN_4_5x5_LFCN_4_5x5_0_split <- LFCN_4_5x5
I1019 10:06:01.272341 32731 net.cpp:408] LFCN_4_5x5_LFCN_4_5x5_0_split -> LFCN_4_5x5_LFCN_4_5x5_0_split_0
I1019 10:06:01.272346 32731 net.cpp:408] LFCN_4_5x5_LFCN_4_5x5_0_split -> LFCN_4_5x5_LFCN_4_5x5_0_split_1
I1019 10:06:01.272351 32731 net.cpp:408] LFCN_4_5x5_LFCN_4_5x5_0_split -> LFCN_4_5x5_LFCN_4_5x5_0_split_2
I1019 10:06:01.272413 32731 net.cpp:150] Setting up LFCN_4_5x5_LFCN_4_5x5_0_split
I1019 10:06:01.272419 32731 net.cpp:157] Top shape: 1 9 12 12 (1296)
I1019 10:06:01.272424 32731 net.cpp:157] Top shape: 1 9 12 12 (1296)
I1019 10:06:01.272428 32731 net.cpp:157] Top shape: 1 9 12 12 (1296)
I1019 10:06:01.272431 32731 net.cpp:165] Memory required for data: 1579460120
I1019 10:06:01.272434 32731 layer_factory.hpp:77] Creating layer detection_loss_4_5x5
I1019 10:06:01.272439 32731 net.cpp:100] Creating Layer detection_loss_4_5x5
I1019 10:06:01.272444 32731 net.cpp:434] detection_loss_4_5x5 <- LFCN_4_5x5_LFCN_4_5x5_0_split_0
I1019 10:06:01.272449 32731 net.cpp:434] detection_loss_4_5x5 <- label_4_5x5_data_7_split_0
I1019 10:06:01.272454 32731 net.cpp:408] detection_loss_4_5x5 -> loss_4_5x5
I1019 10:06:01.272460 32731 layer_factory.hpp:77] Creating layer detection_loss_4_5x5
I1019 10:06:01.273172 32731 net.cpp:150] Setting up detection_loss_4_5x5
I1019 10:06:01.273197 32731 net.cpp:157] Top shape: 1 1 1 2 (2)
I1019 10:06:01.273201 32731 net.cpp:160]     with loss weight 1
I1019 10:06:01.273207 32731 net.cpp:165] Memory required for data: 1579460128
I1019 10:06:01.273211 32731 layer_factory.hpp:77] Creating layer detection_accuracy_4_5x5
I1019 10:06:01.273217 32731 net.cpp:100] Creating Layer detection_accuracy_4_5x5
I1019 10:06:01.273221 32731 net.cpp:434] detection_accuracy_4_5x5 <- LFCN_4_5x5_LFCN_4_5x5_0_split_1
I1019 10:06:01.273226 32731 net.cpp:434] detection_accuracy_4_5x5 <- label_4_5x5_data_7_split_1
I1019 10:06:01.273232 32731 net.cpp:408] detection_accuracy_4_5x5 -> accuracy_4_5x5
I1019 10:06:01.273239 32731 net.cpp:408] detection_accuracy_4_5x5 -> boxiou_4_5x5
I1019 10:06:01.273278 32731 net.cpp:150] Setting up detection_accuracy_4_5x5
I1019 10:06:01.273285 32731 net.cpp:157] Top shape: 1 1 1 2 (2)
I1019 10:06:01.273289 32731 net.cpp:157] Top shape: 1 1 1 1 (1)
I1019 10:06:01.273293 32731 net.cpp:165] Memory required for data: 1579460140
I1019 10:06:01.273296 32731 layer_factory.hpp:77] Creating layer proposals
I1019 10:06:01.273304 32731 net.cpp:100] Creating Layer proposals
I1019 10:06:01.273308 32731 net.cpp:434] proposals <- LFCN_1_5x5_LFCN_1_5x5_0_split_2
I1019 10:06:01.273313 32731 net.cpp:434] proposals <- LFCN_1_7x7_LFCN_1_7x7_0_split_2
I1019 10:06:01.273317 32731 net.cpp:434] proposals <- LFCN_2_5x5_LFCN_2_5x5_0_split_2
I1019 10:06:01.273321 32731 net.cpp:434] proposals <- LFCN_2_7x7_LFCN_2_7x7_0_split_2
I1019 10:06:01.273324 32731 net.cpp:434] proposals <- LFCN_3_5x5_LFCN_3_5x5_0_split_2
I1019 10:06:01.273329 32731 net.cpp:434] proposals <- LFCN_3_7x7_LFCN_3_7x7_0_split_2
I1019 10:06:01.273332 32731 net.cpp:434] proposals <- LFCN_4_5x5_LFCN_4_5x5_0_split_2
I1019 10:06:01.273337 32731 net.cpp:408] proposals -> proposals
I1019 10:06:01.273361 32731 net.cpp:150] Setting up proposals
I1019 10:06:01.273368 32731 net.cpp:157] Top shape: 1 5 1 1 (5)
I1019 10:06:01.273371 32731 net.cpp:165] Memory required for data: 1579460160
I1019 10:06:01.273375 32731 layer_factory.hpp:77] Creating layer proposal_info
I1019 10:06:01.273385 32731 net.cpp:100] Creating Layer proposal_info
I1019 10:06:01.273389 32731 net.cpp:434] proposal_info <- proposals
I1019 10:06:01.273394 32731 net.cpp:434] proposal_info <- gt_boxes
I1019 10:06:01.273401 32731 net.cpp:408] proposal_info -> rois
I1019 10:06:01.273406 32731 net.cpp:408] proposal_info -> proposal_labels
I1019 10:06:01.273413 32731 net.cpp:408] proposal_info -> proposal_targets
I1019 10:06:01.273419 32731 net.cpp:408] proposal_info -> box_inside_weights
I1019 10:06:01.273424 32731 net.cpp:408] proposal_info -> box_outside_weights
I1019 10:06:01.273430 32731 net.cpp:408] proposal_info -> match_gt_boxes
I1019 10:06:01.273527 32731 net.cpp:150] Setting up proposal_info
I1019 10:06:01.273535 32731 net.cpp:157] Top shape: 128 5 1 1 (640)
I1019 10:06:01.273540 32731 net.cpp:157] Top shape: 128 1 1 1 (128)
I1019 10:06:01.273543 32731 net.cpp:157] Top shape: 128 20 1 1 (2560)
I1019 10:06:01.273547 32731 net.cpp:157] Top shape: 128 20 1 1 (2560)
I1019 10:06:01.273551 32731 net.cpp:157] Top shape: 128 20 1 1 (2560)
I1019 10:06:01.273555 32731 net.cpp:157] Top shape: 128 6 1 1 (768)
I1019 10:06:01.273558 32731 net.cpp:165] Memory required for data: 1579497024
I1019 10:06:01.273562 32731 layer_factory.hpp:77] Creating layer rois_proposal_info_0_split
I1019 10:06:01.273566 32731 net.cpp:100] Creating Layer rois_proposal_info_0_split
I1019 10:06:01.273571 32731 net.cpp:434] rois_proposal_info_0_split <- rois
I1019 10:06:01.273576 32731 net.cpp:408] rois_proposal_info_0_split -> rois_proposal_info_0_split_0
I1019 10:06:01.273581 32731 net.cpp:408] rois_proposal_info_0_split -> rois_proposal_info_0_split_1
I1019 10:06:01.273586 32731 net.cpp:408] rois_proposal_info_0_split -> rois_proposal_info_0_split_2
I1019 10:06:01.273635 32731 net.cpp:150] Setting up rois_proposal_info_0_split
I1019 10:06:01.273641 32731 net.cpp:157] Top shape: 128 5 1 1 (640)
I1019 10:06:01.273646 32731 net.cpp:157] Top shape: 128 5 1 1 (640)
I1019 10:06:01.273650 32731 net.cpp:157] Top shape: 128 5 1 1 (640)
I1019 10:06:01.273653 32731 net.cpp:165] Memory required for data: 1579504704
I1019 10:06:01.273656 32731 layer_factory.hpp:77] Creating layer proposal_labels_proposal_info_1_split
I1019 10:06:01.273661 32731 net.cpp:100] Creating Layer proposal_labels_proposal_info_1_split
I1019 10:06:01.273665 32731 net.cpp:434] proposal_labels_proposal_info_1_split <- proposal_labels
I1019 10:06:01.273669 32731 net.cpp:408] proposal_labels_proposal_info_1_split -> proposal_labels_proposal_info_1_split_0
I1019 10:06:01.273675 32731 net.cpp:408] proposal_labels_proposal_info_1_split -> proposal_labels_proposal_info_1_split_1
I1019 10:06:01.273710 32731 net.cpp:150] Setting up proposal_labels_proposal_info_1_split
I1019 10:06:01.273716 32731 net.cpp:157] Top shape: 128 1 1 1 (128)
I1019 10:06:01.273720 32731 net.cpp:157] Top shape: 128 1 1 1 (128)
I1019 10:06:01.273723 32731 net.cpp:165] Memory required for data: 1579505728
I1019 10:06:01.273726 32731 layer_factory.hpp:77] Creating layer softmax
I1019 10:06:01.273731 32731 net.cpp:100] Creating Layer softmax
I1019 10:06:01.273736 32731 net.cpp:434] softmax <- attention_attention_0_split_1
I1019 10:06:01.273739 32731 net.cpp:408] softmax -> softmax_attention
I1019 10:06:01.273954 32731 net.cpp:150] Setting up softmax
I1019 10:06:01.273963 32731 net.cpp:157] Top shape: 1 2 96 96 (18432)
I1019 10:06:01.273967 32731 net.cpp:165] Memory required for data: 1579579456
I1019 10:06:01.273970 32731 layer_factory.hpp:77] Creating layer slice1
I1019 10:06:01.273977 32731 net.cpp:100] Creating Layer slice1
I1019 10:06:01.273980 32731 net.cpp:434] slice1 <- softmax_attention
I1019 10:06:01.273986 32731 net.cpp:408] slice1 -> bg
I1019 10:06:01.273995 32731 net.cpp:408] slice1 -> attention1
I1019 10:06:01.274034 32731 net.cpp:150] Setting up slice1
I1019 10:06:01.274041 32731 net.cpp:157] Top shape: 1 1 96 96 (9216)
I1019 10:06:01.274045 32731 net.cpp:157] Top shape: 1 1 96 96 (9216)
I1019 10:06:01.274049 32731 net.cpp:165] Memory required for data: 1579653184
I1019 10:06:01.274051 32731 layer_factory.hpp:77] Creating layer silence
I1019 10:06:01.274056 32731 net.cpp:100] Creating Layer silence
I1019 10:06:01.274060 32731 net.cpp:434] silence <- bg
I1019 10:06:01.274063 32731 net.cpp:150] Setting up silence
I1019 10:06:01.274066 32731 net.cpp:165] Memory required for data: 1579653184
I1019 10:06:01.274070 32731 layer_factory.hpp:77] Creating layer conv4_3_new
I1019 10:06:01.274075 32731 net.cpp:100] Creating Layer conv4_3_new
I1019 10:06:01.274080 32731 net.cpp:434] conv4_3_new <- conv4_3_relu4_3_0_split_3
I1019 10:06:01.274083 32731 net.cpp:434] conv4_3_new <- attention1
I1019 10:06:01.274088 32731 net.cpp:408] conv4_3_new -> conv4_3_new
I1019 10:06:01.274121 32731 net.cpp:150] Setting up conv4_3_new
I1019 10:06:01.274128 32731 net.cpp:157] Top shape: 1 513 96 96 (4727808)
I1019 10:06:01.274132 32731 net.cpp:165] Memory required for data: 1598564416
I1019 10:06:01.274134 32731 layer_factory.hpp:77] Creating layer conv4_3_2x
I1019 10:06:01.274142 32731 net.cpp:100] Creating Layer conv4_3_2x
I1019 10:06:01.274145 32731 net.cpp:434] conv4_3_2x <- conv4_3_new
I1019 10:06:01.274152 32731 net.cpp:408] conv4_3_2x -> conv4_3_2x
I1019 10:06:01.274652 32731 net.cpp:150] Setting up conv4_3_2x
I1019 10:06:01.274660 32731 net.cpp:157] Top shape: 1 513 192 192 (18911232)
I1019 10:06:01.274663 32731 net.cpp:165] Memory required for data: 1674209344
I1019 10:06:01.274668 32731 layer_factory.hpp:77] Creating layer conv4_3_2x_conv4_3_2x_0_split
I1019 10:06:01.274672 32731 net.cpp:100] Creating Layer conv4_3_2x_conv4_3_2x_0_split
I1019 10:06:01.274677 32731 net.cpp:434] conv4_3_2x_conv4_3_2x_0_split <- conv4_3_2x
I1019 10:06:01.274683 32731 net.cpp:408] conv4_3_2x_conv4_3_2x_0_split -> conv4_3_2x_conv4_3_2x_0_split_0
I1019 10:06:01.274688 32731 net.cpp:408] conv4_3_2x_conv4_3_2x_0_split -> conv4_3_2x_conv4_3_2x_0_split_1
I1019 10:06:01.274724 32731 net.cpp:150] Setting up conv4_3_2x_conv4_3_2x_0_split
I1019 10:06:01.274730 32731 net.cpp:157] Top shape: 1 513 192 192 (18911232)
I1019 10:06:01.274734 32731 net.cpp:157] Top shape: 1 513 192 192 (18911232)
I1019 10:06:01.274737 32731 net.cpp:165] Memory required for data: 1825499200
I1019 10:06:01.274740 32731 layer_factory.hpp:77] Creating layer roi_pool_org
I1019 10:06:01.274747 32731 net.cpp:100] Creating Layer roi_pool_org
I1019 10:06:01.274751 32731 net.cpp:434] roi_pool_org <- conv4_3_2x_conv4_3_2x_0_split_0
I1019 10:06:01.274755 32731 net.cpp:434] roi_pool_org <- rois_proposal_info_0_split_0
I1019 10:06:01.274761 32731 net.cpp:408] roi_pool_org -> roi_pool_org
I1019 10:06:01.274767 32731 roi_pooling_layer.cpp:33] Spatial scale: 0.25
I1019 10:06:01.274806 32731 net.cpp:150] Setting up roi_pool_org
I1019 10:06:01.274812 32731 net.cpp:157] Top shape: 128 513 7 7 (3217536)
I1019 10:06:01.274816 32731 net.cpp:165] Memory required for data: 1838369344
I1019 10:06:01.274819 32731 layer_factory.hpp:77] Creating layer roi_pool_ctx
I1019 10:06:01.274824 32731 net.cpp:100] Creating Layer roi_pool_ctx
I1019 10:06:01.274828 32731 net.cpp:434] roi_pool_ctx <- conv4_3_2x_conv4_3_2x_0_split_1
I1019 10:06:01.274832 32731 net.cpp:434] roi_pool_ctx <- rois_proposal_info_0_split_1
I1019 10:06:01.274837 32731 net.cpp:408] roi_pool_ctx -> roi_pool_ctx
I1019 10:06:01.274842 32731 roi_pooling_layer.cpp:33] Spatial scale: 0.25
I1019 10:06:01.274881 32731 net.cpp:150] Setting up roi_pool_ctx
I1019 10:06:01.274888 32731 net.cpp:157] Top shape: 128 513 7 7 (3217536)
I1019 10:06:01.274890 32731 net.cpp:165] Memory required for data: 1851239488
I1019 10:06:01.274893 32731 layer_factory.hpp:77] Creating layer roi_pool
I1019 10:06:01.274899 32731 net.cpp:100] Creating Layer roi_pool
I1019 10:06:01.274901 32731 net.cpp:434] roi_pool <- roi_pool_org
I1019 10:06:01.274905 32731 net.cpp:434] roi_pool <- roi_pool_ctx
I1019 10:06:01.274911 32731 net.cpp:408] roi_pool -> roi_pool
I1019 10:06:01.274935 32731 net.cpp:150] Setting up roi_pool
I1019 10:06:01.274940 32731 net.cpp:157] Top shape: 128 1026 7 7 (6435072)
I1019 10:06:01.274943 32731 net.cpp:165] Memory required for data: 1876979776
I1019 10:06:01.274946 32731 layer_factory.hpp:77] Creating layer roi_c1
I1019 10:06:01.274955 32731 net.cpp:100] Creating Layer roi_c1
I1019 10:06:01.274957 32731 net.cpp:434] roi_c1 <- roi_pool
I1019 10:06:01.274963 32731 net.cpp:408] roi_c1 -> roi_c1
I1019 10:06:01.399967 32731 net.cpp:150] Setting up roi_c1
I1019 10:06:01.399999 32731 net.cpp:157] Top shape: 128 512 5 5 (1638400)
I1019 10:06:01.400005 32731 net.cpp:165] Memory required for data: 1883533376
I1019 10:06:01.400017 32731 layer_factory.hpp:77] Creating layer roi_c1_relu
I1019 10:06:01.400029 32731 net.cpp:100] Creating Layer roi_c1_relu
I1019 10:06:01.400036 32731 net.cpp:434] roi_c1_relu <- roi_c1
I1019 10:06:01.400045 32731 net.cpp:395] roi_c1_relu -> roi_c1 (in-place)
I1019 10:06:01.400241 32731 net.cpp:150] Setting up roi_c1_relu
I1019 10:06:01.400252 32731 net.cpp:157] Top shape: 128 512 5 5 (1638400)
I1019 10:06:01.400256 32731 net.cpp:165] Memory required for data: 1890086976
I1019 10:06:01.400260 32731 layer_factory.hpp:77] Creating layer fc6
I1019 10:06:01.400270 32731 net.cpp:100] Creating Layer fc6
I1019 10:06:01.400277 32731 net.cpp:434] fc6 <- roi_c1
I1019 10:06:01.400286 32731 net.cpp:408] fc6 -> fc6
I1019 10:06:02.680616 32731 net.cpp:150] Setting up fc6
I1019 10:06:02.680649 32731 net.cpp:157] Top shape: 128 4096 (524288)
I1019 10:06:02.680655 32731 net.cpp:165] Memory required for data: 1892184128
I1019 10:06:02.680663 32731 layer_factory.hpp:77] Creating layer relu6
I1019 10:06:02.680675 32731 net.cpp:100] Creating Layer relu6
I1019 10:06:02.680681 32731 net.cpp:434] relu6 <- fc6
I1019 10:06:02.680688 32731 net.cpp:395] relu6 -> fc6 (in-place)
I1019 10:06:02.680932 32731 net.cpp:150] Setting up relu6
I1019 10:06:02.680941 32731 net.cpp:157] Top shape: 128 4096 (524288)
I1019 10:06:02.680944 32731 net.cpp:165] Memory required for data: 1894281280
I1019 10:06:02.680948 32731 layer_factory.hpp:77] Creating layer drop6
I1019 10:06:02.680955 32731 net.cpp:100] Creating Layer drop6
I1019 10:06:02.680959 32731 net.cpp:434] drop6 <- fc6
I1019 10:06:02.680966 32731 net.cpp:395] drop6 -> fc6 (in-place)
I1019 10:06:02.680989 32731 net.cpp:150] Setting up drop6
I1019 10:06:02.680995 32731 net.cpp:157] Top shape: 128 4096 (524288)
I1019 10:06:02.680999 32731 net.cpp:165] Memory required for data: 1896378432
I1019 10:06:02.681002 32731 layer_factory.hpp:77] Creating layer fc6_drop6_0_split
I1019 10:06:02.681008 32731 net.cpp:100] Creating Layer fc6_drop6_0_split
I1019 10:06:02.681012 32731 net.cpp:434] fc6_drop6_0_split <- fc6
I1019 10:06:02.681018 32731 net.cpp:408] fc6_drop6_0_split -> fc6_drop6_0_split_0
I1019 10:06:02.681025 32731 net.cpp:408] fc6_drop6_0_split -> fc6_drop6_0_split_1
I1019 10:06:02.681066 32731 net.cpp:150] Setting up fc6_drop6_0_split
I1019 10:06:02.681072 32731 net.cpp:157] Top shape: 128 4096 (524288)
I1019 10:06:02.681077 32731 net.cpp:157] Top shape: 128 4096 (524288)
I1019 10:06:02.681080 32731 net.cpp:165] Memory required for data: 1900572736
I1019 10:06:02.681084 32731 layer_factory.hpp:77] Creating layer cls_pred
I1019 10:06:02.681092 32731 net.cpp:100] Creating Layer cls_pred
I1019 10:06:02.681095 32731 net.cpp:434] cls_pred <- fc6_drop6_0_split_0
I1019 10:06:02.681103 32731 net.cpp:408] cls_pred -> cls_pred
I1019 10:06:02.681731 32731 net.cpp:150] Setting up cls_pred
I1019 10:06:02.681740 32731 net.cpp:157] Top shape: 128 5 (640)
I1019 10:06:02.681743 32731 net.cpp:165] Memory required for data: 1900575296
I1019 10:06:02.681749 32731 layer_factory.hpp:77] Creating layer cls_pred_cls_pred_0_split
I1019 10:06:02.681754 32731 net.cpp:100] Creating Layer cls_pred_cls_pred_0_split
I1019 10:06:02.681758 32731 net.cpp:434] cls_pred_cls_pred_0_split <- cls_pred
I1019 10:06:02.681764 32731 net.cpp:408] cls_pred_cls_pred_0_split -> cls_pred_cls_pred_0_split_0
I1019 10:06:02.681769 32731 net.cpp:408] cls_pred_cls_pred_0_split -> cls_pred_cls_pred_0_split_1
I1019 10:06:02.681803 32731 net.cpp:150] Setting up cls_pred_cls_pred_0_split
I1019 10:06:02.681809 32731 net.cpp:157] Top shape: 128 5 (640)
I1019 10:06:02.681815 32731 net.cpp:157] Top shape: 128 5 (640)
I1019 10:06:02.681818 32731 net.cpp:165] Memory required for data: 1900580416
I1019 10:06:02.681821 32731 layer_factory.hpp:77] Creating layer bbox_pred
I1019 10:06:02.681826 32731 net.cpp:100] Creating Layer bbox_pred
I1019 10:06:02.681830 32731 net.cpp:434] bbox_pred <- fc6_drop6_0_split_1
I1019 10:06:02.681838 32731 net.cpp:408] bbox_pred -> bbox_pred
I1019 10:06:02.684036 32731 net.cpp:150] Setting up bbox_pred
I1019 10:06:02.684041 32731 net.cpp:157] Top shape: 128 20 (2560)
I1019 10:06:02.684044 32731 net.cpp:165] Memory required for data: 1900590656
I1019 10:06:02.684049 32731 layer_factory.hpp:77] Creating layer bbox_pred_bbox_pred_0_split
I1019 10:06:02.684054 32731 net.cpp:100] Creating Layer bbox_pred_bbox_pred_0_split
I1019 10:06:02.684057 32731 net.cpp:434] bbox_pred_bbox_pred_0_split <- bbox_pred
I1019 10:06:02.684062 32731 net.cpp:408] bbox_pred_bbox_pred_0_split -> bbox_pred_bbox_pred_0_split_0
I1019 10:06:02.684065 32731 net.cpp:408] bbox_pred_bbox_pred_0_split -> bbox_pred_bbox_pred_0_split_1
I1019 10:06:02.684094 32731 net.cpp:150] Setting up bbox_pred_bbox_pred_0_split
I1019 10:06:02.684103 32731 net.cpp:157] Top shape: 128 20 (2560)
I1019 10:06:02.684105 32731 net.cpp:157] Top shape: 128 20 (2560)
I1019 10:06:02.684108 32731 net.cpp:165] Memory required for data: 1900611136
I1019 10:06:02.684111 32731 layer_factory.hpp:77] Creating layer loss_cls
I1019 10:06:02.684118 32731 net.cpp:100] Creating Layer loss_cls
I1019 10:06:02.684121 32731 net.cpp:434] loss_cls <- cls_pred_cls_pred_0_split_0
I1019 10:06:02.684128 32731 net.cpp:434] loss_cls <- proposal_labels_proposal_info_1_split_0
…
