…
    downsample_rate: 16
    downsample_rate: 32
    downsample_rate: 32
    downsample_rate: 64
    coord_num: 4
    field_h: 60
    field_h: 84
    field_h: 120
    field_h: 168
    field_h: 240
    field_h: 336
    field_h: 480
    field_w: 60
    field_w: 84
    field_w: 120
    field_w: 168
    field_w: 240
    field_w: 336
    field_w: 480
    fg_threshold: 0.5
    resize_width: 1344
    resize_height: 768
    crop_width: 768
    crop_height: 768
    do_multiple_scale: true
    min_scale: 60
    max_scale: 480
    min_gt_height: 25
    shuffle: true
  }
}
layer {
  name: "slice"
  type: "Slice"
  bottom: "data"
  top: "data123"
  top: "ch4"
  slice_param {
    slice_point: 3
    axis: 1
  }
}
layer {
  name: "conv1_1"
  type: "Convolution"
  bottom: "data123"
  top: "conv1_1"
  convolution_param {
    num_output: 64
    pad: 1
    kernel_size: 3
  }
}
layer {
  name: "relu1_1"
  type: "ReLU"
  bottom: "conv1_1"
  top: "conv1_1"
}
layer {
  name: "conv1_2"
  type: "Convolution"
  bottom: "conv1_1"
  top: "conv1_2"
  convolution_param {
    num_output: 64
    pad: 1
    kernel_size: 3
  }
}
layer {
  name: "relu1_2"
  type: "ReLU"
  bottom: "conv1_2"
  top: "conv1_2"
}
layer {
  name: "pool1"
  type: "Pooling"
  bottom: "conv1_2"
  top: "pool1"
  pooling_param {
    pool: MAX
    kernel_size: 2
    stride: 2
  }
}
layer {
  name: "ch4_pool1"
  type: "Pooling"
  bottom: "ch4"
  top: "ch4_pool1"
  pooling_param {
    pool: MAX
    kernel_size: 2
    stride: 2
  }
}
layer {
  name: "pool1_concat"
  type: "Concat"
  bottom: "pool1"
  bottom: "ch4_pool1"
  top: "pool1_new"
}
layer {
  name: "conv2_1_new"
  type: "Convolution"
  bottom: "pool1_new"
  top: "conv2_1"
  convolution_param {
    num_output: 128
    pad: 1
    kernel_size: 3
  }
}
layer {
  name: "relu2_1"
  type: "ReLU"
  bottom: "conv2_1"
  top: "conv2_1"
}
layer {
  name: "conv2_2"
  type: "Convolution"
  bottom: "conv2_1"
  top: "conv2_2"
  convolution_param {
    num_output: 128
    pad: 1
    kernel_size: 3
  }
}
layer {
  name: "relu2_2"
  type: "ReLU"
  bottom: "conv2_2"
  top: "conv2_2"
}
layer {
  name: "pool2"
  type: "Pooling"
  bottom: "conv2_2"
  top: "pool2"
  pooling_param {
    pool: MAX
    kernel_size: 2
    stride: 2
  }
}
layer {
  name: "ch4_pool2"
  type: "Pooling"
  bottom: "ch4_pool1"
  top: "ch4_pool2"
  pooling_param {
    pool: MAX
    kernel_size: 2
    stride: 2
  }
}
layer {
  name: "pool2_concat"
  type: "Concat"
  bottom: "pool2"
  bottom: "ch4_pool2"
  top: "pool2_new"
}
layer {
  name: "conv3_1_new"
  type: "Convolution"
  bottom: "pool2_new"
  top: "conv3_1"
  convolution_param {
    num_output: 256
    pad: 1
    kernel_size: 3
  }
}
layer {
  name: "relu3_1"
  type: "ReLU"
  bottom: "conv3_1"
  top: "conv3_1"
}
layer {
  name: "conv3_2"
  type: "Convolution"
  bottom: "conv3_1"
  top: "conv3_2"
  convolution_param {
    num_output: 256
    pad: 1
    kernel_size: 3
  }
}
layer {
  name: "relu3_2"
  type: "ReLU"
  bottom: "conv3_2"
  top: "conv3_2"
}
layer {
  name: "conv3_3"
  type: "Convolution"
  bottom: "conv3_2"
  top: "conv3_3"
  convolution_param {
    num_output: 256
    pad: 1
    kernel_size: 3
  }
}
layer {
  name: "relu3_3"
  type: "ReLU"
  bottom: "conv3_3"
  top: "conv3_3"
}
layer {
  name: "pool3"
  type: "Pooling"
  bottom: "conv3_3"
  top: "pool3"
  pooling_param {
    pool: MAX
    kernel_size: 2
    stride: 2
  }
}
layer {
  name: "ch4_pool3"
  type: "Pooling"
  bottom: "ch4_pool2"
  top: "ch4_pool3"
  pooling_param {
    pool: MAX
    kernel_size: 2
    stride: 2
  }
}
layer {
  name: "pool3_concat"
  type: "Concat"
  bottom: "pool3"
  bottom: "ch4_pool3"
  top: "pool3_new"
}
layer {
  name: "conv4_1_new"
  type: "Convolution"
  bottom: "pool3_new"
  top: "conv4_1"
  convolution_param {
    num_output: 512
    pad: 1
    kernel_size: 3
  }
}
layer {
  name: "relu4_1"
  type: "ReLU"
  bottom: "conv4_1"
  top: "conv4_1"
}
layer {
  name: "conv4_2"
  type: "Convolution"
  bottom: "conv4_1"
  top: "conv4_2"
  convolution_param {
    num_output: 512
    pad: 1
    kernel_size: 3
  }
}
layer {
  name: "relu4_2"
  type: "ReLU"
  bottom: "conv4_2"
  top: "conv4_2"
}
layer {
  name: "conv4_3"
  type: "Convolution"
  bottom: "conv4_2"
  top: "conv4_3"
  convolution_param {
    num_output: 512
    pad: 1
    kernel_size: 3
  }
}
layer {
  name: "relu4_3"
  type: "ReLU"
  bottom: "conv4_3"
  top: "conv4_3"
}
layer {
  name: "conv4_concat"
  type: "Concat"
  bottom: "conv4_3"
  bottom: "ch4_pool3"
  top: "conv4_3_new"
}
layer {
  name: "loss1_conv1"
  type: "Convolution"
  bottom: "conv4_3_new"
  top: "loss1_conv1"
  param {
    lr_mult: 1
    decay_mult: 1
  }
  param {
    lr_mult: 2
    decay_mult: 0
  }
  convolution_param {
    num_output: 512
    pad: 1
    kernel_size: 3
    weight_filler {
      type: "gaussian"
      std: 0.01
    }
    bias_filler {
      type: "constant"
    }
  }
}
layer {
  name: "loss_relu1"
  type: "ReLU"
  bottom: "loss1_conv1"
  top: "loss1_conv1"
}
layer {
  name: "LFCN_1_5x5"
  type: "Convolution"
  bottom: "loss1_conv1"
  top: "LFCN_1_5x5"
  param {
    lr_mult: 1
    decay_mult: 1
  }
  param {
    lr_mult: 2
    decay_mult: 0
  }
  convolution_param {
    num_output: 9
    pad: 2
    kernel_size: 5
    weight_filler {
      type: "gaussian"
      std: 0.001
    }
    bias_filler {
      type: "constant"
    }
  }
}
layer {
  name: "detection_loss_1_5x5"
  type: "DetectionLoss"
  bottom: "LFCN_1_5x5"
  bottom: "label_1_5x5"
  top: "loss_1_5x5"
  loss_weight: 0.9
  detection_loss_param {
    cls_num: 5
    coord_num: 4
    lambda: 0.05
    field_h: 60
    field_w: 60
    downsample_rate: 8
    bb_smooth: true
    field_whr: 2
    field_xyr: 2
    bg_threshold: 0.2
    bg_multiple: 2
    sample_mode: "random"
    pos_neg_weighted: true
  }
}
layer {
  name: "detection_accuracy_1_5x5"
  type: "DetectionAccuracy"
  bottom: "LFCN_1_5x5"
  bottom: "label_1_5x5"
  top: "accuracy_1_5x5"
  top: "boxiou_1_5x5"
  detection_accuracy_param {
    cls_num: 5
    coord_num: 4
    field_h: 60
    field_w: 60
    downsample_rate: 8
    field_whr: 2
    field_xyr: 2
  }
}
layer {
  name: "LFCN_1_7x7"
  type: "Convolution"
  bottom: "loss1_conv1"
  top: "LFCN_1_7x7"
  param {
    lr_mult: 1
    decay_mult: 1
  }
  param {
    lr_mult: 2
    decay_mult: 0
  }
  convolution_param {
    num_output: 9
    pad: 3
    kernel_size: 7
    weight_filler {
      type: "gaussian"
      std: 0.001
    }
    bias_filler {
      type: "constant"
    }
  }
}
layer {
  name: "detection_loss_1_7x7"
  type: "DetectionLoss"
  bottom: "LFCN_1_7x7"
  bottom: "label_1_7x7"
  top: "loss_1_7x7"
  loss_weight: 0.9
  detection_loss_param {
    cls_num: 5
    coord_num: 4
    lambda: 0.05
    field_h: 84
    field_w: 84
    downsample_rate: 8
    bb_smooth: true
    field_whr: 2
    field_xyr: 2
    bg_threshold: 0.2
    bg_multiple: 2
    sample_mode: "random"
    pos_neg_weighted: true
  }
}
layer {
  name: "detection_accuracy_1_7x7"
  type: "DetectionAccuracy"
  bottom: "LFCN_1_7x7"
  bottom: "label_1_7x7"
  top: "accuracy_1_7x7"
  top: "boxiou_1_7x7"
  detection_accuracy_param {
    cls_num: 5
    coord_num: 4
    field_h: 84
    field_w: 84
    downsample_rate: 8
    field_whr: 2
    field_xyr: 2
  }
}
layer {
  name: "pool4"
  type: "Pooling"
  bottom: "conv4_3_new"
  top: "pool4"
  pooling_param {
    pool: MAX
    kernel_size: 2
    stride: 2
  }
}
layer {
  name: "conv5_1_new"
  type: "Convolution"
  bottom: "pool4"
  top: "conv5_1"
  convolution_param {
    num_output: 512
    pad: 1
    kernel_size: 3
  }
}
layer {
  name: "relu5_1"
  type: "ReLU"
  bottom: "conv5_1"
  top: "conv5_1"
}
layer {
  name: "conv5_2"
  type: "Convolution"
  bottom: "conv5_1"
  top: "conv5_2"
  convolution_param {
    num_output: 512
    pad: 1
    kernel_size: 3
  }
}
layer {
  name: "relu5_2"
  type: "ReLU"
  bottom: "conv5_2"
  top: "conv5_2"
}
layer {
  name: "conv5_3"
  type: "Convolution"
  bottom: "conv5_2"
  top: "conv5_3"
  convolution_param {
    num_output: 512
    pad: 1
    kernel_size: 3
  }
}
layer {
  name: "relu5_3"
  type: "ReLU"
  bottom: "conv5_3"
  top: "conv5_3"
}
layer {
  name: "LFCN_2_5x5"
  type: "Convolution"
  bottom: "conv5_3"
  top: "LFCN_2_5x5"
  param {
    lr_mult: 1
    decay_mult: 1
  }
  param {
    lr_mult: 2
    decay_mult: 0
  }
  convolution_param {
    num_output: 9
    pad: 2
    kernel_size: 5
    weight_filler {
      type: "gaussian"
      std: 0.001
    }
    bias_filler {
      type: "constant"
    }
  }
}
layer {
  name: "detection_loss_2_5x5"
  type: "DetectionLoss"
  bottom: "LFCN_2_5x5"
  bottom: "label_2_5x5"
  top: "loss_2_5x5"
  detection_loss_param {
    cls_num: 5
    coord_num: 4
    lambda: 0.05
    field_h: 120
    field_w: 120
    downsample_rate: 16
    bb_smooth: true
    field_whr: 2
    field_xyr: 2
    bg_threshold: 0.2
    bg_multiple: 2
    sample_mode: "random"
    pos_neg_weighted: true
  }
}
layer {
  name: "detection_accuracy_2_5x5"
  type: "DetectionAccuracy"
  bottom: "LFCN_2_5x5"
  bottom: "label_2_5x5"
  top: "accuracy_2_5x5"
  top: "boxiou_2_5x5"
  detection_accuracy_param {
    cls_num: 5
    coord_num: 4
    field_h: 120
    field_w: 120
    downsample_rate: 16
    field_whr: 2
    field_xyr: 2
  }
}
layer {
  name: "LFCN_2_7x7"
  type: "Convolution"
  bottom: "conv5_3"
  top: "LFCN_2_7x7"
  param {
    lr_mult: 1
    decay_mult: 1
  }
  param {
    lr_mult: 2
    decay_mult: 0
  }
  convolution_param {
    num_output: 9
    pad: 3
    kernel_size: 7
    weight_filler {
      type: "gaussian"
      std: 0.001
    }
    bias_filler {
      type: "constant"
    }
  }
}
layer {
  name: "detection_loss_2_7x7"
  type: "DetectionLoss"
  bottom: "LFCN_2_7x7"
  bottom: "label_2_7x7"
  top: "loss_2_7x7"
  detection_loss_param {
    cls_num: 5
    coord_num: 4
    lambda: 0.05
    field_h: 168
    field_w: 168
    downsample_rate: 16
    bb_smooth: true
    field_whr: 2
    field_xyr: 2
    bg_threshold: 0.2
    bg_multiple: 2
    sample_mode: "random"
    pos_neg_weighted: true
  }
}
layer {
  name: "detection_accuracy_2_7x7"
  type: "DetectionAccuracy"
  bottom: "LFCN_2_7x7"
  bottom: "label_2_7x7"
  top: "accuracy_2_7x7"
  top: "boxiou_2_7x7"
  detection_accuracy_param {
    cls_num: 5
    coord_num: 4
    field_h: 168
    field_w: 168
    downsample_rate: 16
    field_whr: 2
    field_xyr: 2
  }
}
layer {
  name: "pool5"
  type: "Pooling"
  bottom: "conv5_3"
  top: "pool5"
  pooling_param {
    pool: MAX
    kernel_size: 2
    stride: 2
  }
}
layer {
  name: "conv6_1"
  type: "Convolution"
  bottom: "pool5"
  top: "conv6_1"
  param {
    lr_mult: 1
    decay_mult: 1
  }
  param {
    lr_mult: 2
    decay_mult: 0
  }
  convolution_param {
    num_output: 512
    pad: 1
    kernel_size: 3
    weight_filler {
      type: "gaussian"
      std: 0.01
    }
    bias_filler {
      type: "constant"
    }
  }
}
layer {
  name: "relu6_1"
  type: "ReLU"
  bottom: "conv6_1"
  top: "conv6_1"
}
layer {
  name: "LFCN_3_5x5"
  type: "Convolution"
  bottom: "conv6_1"
  top: "LFCN_3_5x5"
  param {
    lr_mult: 1
    decay_mult: 1
  }
  param {
    lr_mult: 2
    decay_mult: 0
  }
  convolution_param {
    num_output: 9
    pad: 2
    kernel_size: 5
    weight_filler {
      type: "gaussian"
      std: 0.001
    }
    bias_filler {
      type: "constant"
    }
  }
}
layer {
  name: "detection_loss_3_5x5"
  type: "DetectionLoss"
  bottom: "LFCN_3_5x5"
  bottom: "label_3_5x5"
  top: "loss_3_5x5"
  detection_loss_param {
    cls_num: 5
    coord_num: 4
    lambda: 0.05
    field_h: 240
    field_w: 240
    downsample_rate: 32
    bb_smooth: true
    field_whr: 2
    field_xyr: 2
    bg_threshold: 0.2
    bg_multiple: 2
    sample_mode: "random"
    pos_neg_weighted: true
  }
}
layer {
  name: "detection_accuracy_3_5x5"
  type: "DetectionAccuracy"
  bottom: "LFCN_3_5x5"
  bottom: "label_3_5x5"
  top: "accuracy_3_5x5"
  top: "boxiou_3_5x5"
  detection_accuracy_param {
    cls_num: 5
    coord_num: 4
    field_h: 240
    field_w: 240
    downsample_rate: 32
    field_whr: 2
    field_xyr: 2
  }
}
layer {
  name: "LFCN_3_7x7"
  type: "Convolution"
  bottom: "conv6_1"
  top: "LFCN_3_7x7"
  param {
    lr_mult: 1
    decay_mult: 1
  }
  param {
    lr_mult: 2
    decay_mult: 0
  }
  convolution_param {
    num_output: 9
    pad: 3
    kernel_size: 7
    weight_filler {
      type: "gaussian"
      std: 0.001
    }
    bias_filler {
      type: "constant"
    }
  }
}
layer {
  name: "detection_loss_3_7x7"
  type: "DetectionLoss"
  bottom: "LFCN_3_7x7"
  bottom: "label_3_7x7"
  top: "loss_3_7x7"
  detection_loss_param {
    cls_num: 5
    coord_num: 4
    lambda: 0.05
    field_h: 336
    field_w: 336
    downsample_rate: 32
    bb_smooth: true
    field_whr: 2
    field_xyr: 2
    bg_threshold: 0.2
    bg_multiple: 2
    sample_mode: "random"
    pos_neg_weighted: true
  }
}
layer {
  name: "detection_accuracy_3_7x7"
  type: "DetectionAccuracy"
  bottom: "LFCN_3_7x7"
  bottom: "label_3_7x7"
  top: "accuracy_3_7x7"
  top: "boxiou_3_7x7"
  detection_accuracy_param {
    cls_num: 5
    coord_num: 4
    field_h: 336
    field_w: 336
    downsample_rate: 32
    field_whr: 2
    field_xyr: 2
  }
}
layer {
  name: "pool6"
  type: "Pooling"
  bottom: "conv6_1"
  top: "pool6"
  pooling_param {
    pool: MAX
    kernel_size: 2
    stride: 2
  }
}
layer {
  name: "LFCN_4_5x5"
  type: "Convolution"
  bottom: "pool6"
  top: "LFCN_4_5x5"
  param {
    lr_mult: 1
    decay_mult: 1
  }
  param {
    lr_mult: 2
    decay_mult: 0
  }
  convolution_param {
    num_output: 9
    pad: 2
    kernel_size: 5
    weight_filler {
      type: "gaussian"
      std: 0.001
    }
    bias_filler {
      type: "constant"
    }
  }
}
layer {
  name: "detection_loss_4_5x5"
  type: "DetectionLoss"
  bottom: "LFCN_4_5x5"
  bottom: "label_4_5x5"
  top: "loss_4_5x5"
  detection_loss_param {
    cls_num: 5
    coord_num: 4
    lambda: 0.05
    field_h: 480
    field_w: 480
    downsample_rate: 64
    bb_smooth: true
    field_whr: 2
    field_xyr: 2
    bg_threshold: 0.2
    bg_multiple: 2
    sample_mode: "random"
    pos_neg_weighted: true
  }
}
layer {
  name: "detection_accuracy_4_5x5"
  type: "DetectionAccuracy"
  bottom: "LFCN_4_5x5"
  bottom: "label_4_5x5"
  top: "accuracy_4_5x5"
  top: "boxiou_4_5x5"
  detection_accuracy_param {
    cls_num: 5
    coord_num: 4
    field_h: 480
    field_w: 480
    downsample_rate: 64
    field_whr: 2
    field_xyr: 2
  }
}
I0819 09:59:30.165403   892 layer_factory.hpp:77] Creating layer data
I0819 09:59:30.165441   892 net.cpp:100] Creating Layer data
I0819 09:59:30.165449   892 net.cpp:408] data -> data
…
I0819 09:59:30.190484   892 image_gt_data_layer.cpp:235] output label size 1 : 4,6,96,96
I0819 09:59:30.190515   892 image_gt_data_layer.cpp:235] output label size 2 : 4,6,48,48
I0819 09:59:30.190546   892 image_gt_data_layer.cpp:235] output label size 3 : 4,6,48,48
I0819 09:59:30.190582   892 image_gt_data_layer.cpp:235] output label size 4 : 4,6,24,24
I0819 09:59:30.190619   892 image_gt_data_layer.cpp:235] output label size 5 : 4,6,24,24
I0819 09:59:30.190655   892 image_gt_data_layer.cpp:235] output label size 6 : 4,6,12,12
I0819 09:59:30.272506   892 net.cpp:150] Setting up data
I0819 09:59:30.272541   892 net.cpp:157] Top shape: 4 4 768 768 (9437184)
I0819 09:59:30.272547   892 net.cpp:157] Top shape: 4 6 96 96 (221184)
I0819 09:59:30.272552   892 net.cpp:157] Top shape: 4 6 96 96 (221184)
I0819 09:59:30.272557   892 net.cpp:157] Top shape: 4 6 48 48 (55296)
I0819 09:59:30.272562   892 net.cpp:157] Top shape: 4 6 48 48 (55296)
I0819 09:59:30.272567   892 net.cpp:157] Top shape: 4 6 24 24 (13824)
I0819 09:59:30.272572   892 net.cpp:157] Top shape: 4 6 24 24 (13824)
I0819 09:59:30.272575   892 net.cpp:157] Top shape: 4 6 12 12 (3456)
I0819 09:59:30.272579   892 net.cpp:165] Memory required for data: 40084992
I0819 09:59:30.272589   892 layer_factory.hpp:77] Creating layer label_1_5x5_data_1_split
I0819 09:59:30.272608   892 net.cpp:100] Creating Layer label_1_5x5_data_1_split
I0819 09:59:30.272615   892 net.cpp:434] label_1_5x5_data_1_split <- label_1_5x5
I0819 09:59:30.272626   892 net.cpp:408] label_1_5x5_data_1_split -> label_1_5x5_data_1_split_0
I0819 09:59:30.272636   892 net.cpp:408] label_1_5x5_data_1_split -> label_1_5x5_data_1_split_1
I0819 09:59:30.272810   892 net.cpp:150] Setting up label_1_5x5_data_1_split
I0819 09:59:30.272853   892 net.cpp:157] Top shape: 4 6 96 96 (221184)
I0819 09:59:30.272866   892 net.cpp:157] Top shape: 4 6 96 96 (221184)
I0819 09:59:30.272874   892 net.cpp:165] Memory required for data: 41854464
I0819 09:59:30.272886   892 layer_factory.hpp:77] Creating layer label_1_7x7_data_2_split
I0819 09:59:30.272908   892 net.cpp:100] Creating Layer label_1_7x7_data_2_split
I0819 09:59:30.272919   892 net.cpp:434] label_1_7x7_data_2_split <- label_1_7x7
I0819 09:59:30.272933   892 net.cpp:408] label_1_7x7_data_2_split -> label_1_7x7_data_2_split_0
I0819 09:59:30.272951   892 net.cpp:408] label_1_7x7_data_2_split -> label_1_7x7_data_2_split_1
I0819 09:59:30.273017   892 net.cpp:150] Setting up label_1_7x7_data_2_split
I0819 09:59:30.273030   892 net.cpp:157] Top shape: 4 6 96 96 (221184)
I0819 09:59:30.273039   892 net.cpp:157] Top shape: 4 6 96 96 (221184)
I0819 09:59:30.273046   892 net.cpp:165] Memory required for data: 43623936
I0819 09:59:30.273056   892 layer_factory.hpp:77] Creating layer label_2_5x5_data_3_split
I0819 09:59:30.273067   892 net.cpp:100] Creating Layer label_2_5x5_data_3_split
I0819 09:59:30.273075   892 net.cpp:434] label_2_5x5_data_3_split <- label_2_5x5
I0819 09:59:30.273087   892 net.cpp:408] label_2_5x5_data_3_split -> label_2_5x5_data_3_split_0
I0819 09:59:30.273099   892 net.cpp:408] label_2_5x5_data_3_split -> label_2_5x5_data_3_split_1
I0819 09:59:30.273155   892 net.cpp:150] Setting up label_2_5x5_data_3_split
I0819 09:59:30.273169   892 net.cpp:157] Top shape: 4 6 48 48 (55296)
I0819 09:59:30.273177   892 net.cpp:157] Top shape: 4 6 48 48 (55296)
I0819 09:59:30.273185   892 net.cpp:165] Memory required for data: 44066304
I0819 09:59:30.273195   892 layer_factory.hpp:77] Creating layer label_2_7x7_data_4_split
I0819 09:59:30.273206   892 net.cpp:100] Creating Layer label_2_7x7_data_4_split
I0819 09:59:30.273216   892 net.cpp:434] label_2_7x7_data_4_split <- label_2_7x7
I0819 09:59:30.273226   892 net.cpp:408] label_2_7x7_data_4_split -> label_2_7x7_data_4_split_0
I0819 09:59:30.273238   892 net.cpp:408] label_2_7x7_data_4_split -> label_2_7x7_data_4_split_1
I0819 09:59:30.273293   892 net.cpp:150] Setting up label_2_7x7_data_4_split
I0819 09:59:30.273306   892 net.cpp:157] Top shape: 4 6 48 48 (55296)
I0819 09:59:30.273315   892 net.cpp:157] Top shape: 4 6 48 48 (55296)
I0819 09:59:30.273324   892 net.cpp:165] Memory required for data: 44508672
I0819 09:59:30.273332   892 layer_factory.hpp:77] Creating layer label_3_5x5_data_5_split
I0819 09:59:30.273344   892 net.cpp:100] Creating Layer label_3_5x5_data_5_split
I0819 09:59:30.273351   892 net.cpp:434] label_3_5x5_data_5_split <- label_3_5x5
I0819 09:59:30.273361   892 net.cpp:408] label_3_5x5_data_5_split -> label_3_5x5_data_5_split_0
I0819 09:59:30.273377   892 net.cpp:408] label_3_5x5_data_5_split -> label_3_5x5_data_5_split_1
I0819 09:59:30.273432   892 net.cpp:150] Setting up label_3_5x5_data_5_split
I0819 09:59:30.273445   892 net.cpp:157] Top shape: 4 6 24 24 (13824)
I0819 09:59:30.273454   892 net.cpp:157] Top shape: 4 6 24 24 (13824)
I0819 09:59:30.273463   892 net.cpp:165] Memory required for data: 44619264
I0819 09:59:30.273471   892 layer_factory.hpp:77] Creating layer label_3_7x7_data_6_split
I0819 09:59:30.273480   892 net.cpp:100] Creating Layer label_3_7x7_data_6_split
I0819 09:59:30.273488   892 net.cpp:434] label_3_7x7_data_6_split <- label_3_7x7
I0819 09:59:30.273501   892 net.cpp:408] label_3_7x7_data_6_split -> label_3_7x7_data_6_split_0
I0819 09:59:30.273514   892 net.cpp:408] label_3_7x7_data_6_split -> label_3_7x7_data_6_split_1
I0819 09:59:30.273567   892 net.cpp:150] Setting up label_3_7x7_data_6_split
I0819 09:59:30.273579   892 net.cpp:157] Top shape: 4 6 24 24 (13824)
I0819 09:59:30.273588   892 net.cpp:157] Top shape: 4 6 24 24 (13824)
I0819 09:59:30.273597   892 net.cpp:165] Memory required for data: 44729856
I0819 09:59:30.273604   892 layer_factory.hpp:77] Creating layer label_4_5x5_data_7_split
I0819 09:59:30.273614   892 net.cpp:100] Creating Layer label_4_5x5_data_7_split
I0819 09:59:30.273622   892 net.cpp:434] label_4_5x5_data_7_split <- label_4_5x5
I0819 09:59:30.273633   892 net.cpp:408] label_4_5x5_data_7_split -> label_4_5x5_data_7_split_0
I0819 09:59:30.273644   892 net.cpp:408] label_4_5x5_data_7_split -> label_4_5x5_data_7_split_1
I0819 09:59:30.273700   892 net.cpp:150] Setting up label_4_5x5_data_7_split
I0819 09:59:30.273712   892 net.cpp:157] Top shape: 4 6 12 12 (3456)
I0819 09:59:30.273722   892 net.cpp:157] Top shape: 4 6 12 12 (3456)
I0819 09:59:30.273730   892 net.cpp:165] Memory required for data: 44757504
I0819 09:59:30.273738   892 layer_factory.hpp:77] Creating layer slice
I0819 09:59:30.273762   892 net.cpp:100] Creating Layer slice
I0819 09:59:30.273772   892 net.cpp:434] slice <- data
I0819 09:59:30.273782   892 net.cpp:408] slice -> data123
I0819 09:59:30.273798   892 net.cpp:408] slice -> ch4
I0819 09:59:30.273859   892 net.cpp:150] Setting up slice
I0819 09:59:30.273871   892 net.cpp:157] Top shape: 4 3 768 768 (7077888)
I0819 09:59:30.273880   892 net.cpp:157] Top shape: 4 1 768 768 (2359296)
I0819 09:59:30.273888   892 net.cpp:165] Memory required for data: 82506240
I0819 09:59:30.273897   892 layer_factory.hpp:77] Creating layer conv1_1
I0819 09:59:30.273916   892 net.cpp:100] Creating Layer conv1_1
I0819 09:59:30.273926   892 net.cpp:434] conv1_1 <- data123
I0819 09:59:30.273936   892 net.cpp:408] conv1_1 -> conv1_1
I0819 09:59:30.522866   892 net.cpp:150] Setting up conv1_1
I0819 09:59:30.522897   892 net.cpp:157] Top shape: 4 64 768 768 (150994944)
I0819 09:59:30.522902   892 net.cpp:165] Memory required for data: 686486016
I0819 09:59:30.522917   892 layer_factory.hpp:77] Creating layer relu1_1
I0819 09:59:30.522928   892 net.cpp:100] Creating Layer relu1_1
I0819 09:59:30.522933   892 net.cpp:434] relu1_1 <- conv1_1
I0819 09:59:30.522938   892 net.cpp:395] relu1_1 -> conv1_1 (in-place)
I0819 09:59:30.523100   892 net.cpp:150] Setting up relu1_1
I0819 09:59:30.523109   892 net.cpp:157] Top shape: 4 64 768 768 (150994944)
I0819 09:59:30.523113   892 net.cpp:165] Memory required for data: 1290465792
I0819 09:59:30.523116   892 layer_factory.hpp:77] Creating layer conv1_2
I0819 09:59:30.523125   892 net.cpp:100] Creating Layer conv1_2
I0819 09:59:30.523129   892 net.cpp:434] conv1_2 <- conv1_1
I0819 09:59:30.523135   892 net.cpp:408] conv1_2 -> conv1_2
I0819 09:59:30.525172   892 net.cpp:150] Setting up conv1_2
I0819 09:59:30.525187   892 net.cpp:157] Top shape: 4 64 768 768 (150994944)
I0819 09:59:30.525192   892 net.cpp:165] Memory required for data: 1894445568
I0819 09:59:30.525202   892 layer_factory.hpp:77] Creating layer relu1_2
I0819 09:59:30.525209   892 net.cpp:100] Creating Layer relu1_2
I0819 09:59:30.525213   892 net.cpp:434] relu1_2 <- conv1_2
I0819 09:59:30.525219   892 net.cpp:395] relu1_2 -> conv1_2 (in-place)
I0819 09:59:30.525396   892 net.cpp:150] Setting up relu1_2
I0819 09:59:30.525405   892 net.cpp:157] Top shape: 4 64 768 768 (150994944)
I0819 09:59:30.525409   892 net.cpp:165] Memory required for data: 2498425344
I0819 09:59:30.525413   892 layer_factory.hpp:77] Creating layer pool1
I0819 09:59:30.525421   892 net.cpp:100] Creating Layer pool1
I0819 09:59:30.525426   892 net.cpp:434] pool1 <- conv1_2
I0819 09:59:30.525434   892 net.cpp:408] pool1 -> pool1
I0819 09:59:30.525490   892 net.cpp:150] Setting up pool1
I0819 09:59:30.525496   892 net.cpp:157] Top shape: 4 64 384 384 (37748736)
I0819 09:59:30.525501   892 net.cpp:165] Memory required for data: 2649420288
I0819 09:59:30.525506   892 layer_factory.hpp:77] Creating layer ch4_pool1
I0819 09:59:30.525511   892 net.cpp:100] Creating Layer ch4_pool1
I0819 09:59:30.525516   892 net.cpp:434] ch4_pool1 <- ch4
I0819 09:59:30.525523   892 net.cpp:408] ch4_pool1 -> ch4_pool1
I0819 09:59:30.525558   892 net.cpp:150] Setting up ch4_pool1
I0819 09:59:30.525565   892 net.cpp:157] Top shape: 4 1 384 384 (589824)
I0819 09:59:30.525568   892 net.cpp:165] Memory required for data: 2651779584
I0819 09:59:30.525573   892 layer_factory.hpp:77] Creating layer ch4_pool1_ch4_pool1_0_split
I0819 09:59:30.525579   892 net.cpp:100] Creating Layer ch4_pool1_ch4_pool1_0_split
I0819 09:59:30.525583   892 net.cpp:434] ch4_pool1_ch4_pool1_0_split <- ch4_pool1
I0819 09:59:30.525589   892 net.cpp:408] ch4_pool1_ch4_pool1_0_split -> ch4_pool1_ch4_pool1_0_split_0
I0819 09:59:30.525599   892 net.cpp:408] ch4_pool1_ch4_pool1_0_split -> ch4_pool1_ch4_pool1_0_split_1
I0819 09:59:30.525632   892 net.cpp:150] Setting up ch4_pool1_ch4_pool1_0_split
I0819 09:59:30.525638   892 net.cpp:157] Top shape: 4 1 384 384 (589824)
I0819 09:59:30.525643   892 net.cpp:157] Top shape: 4 1 384 384 (589824)
I0819 09:59:30.525647   892 net.cpp:165] Memory required for data: 2656498176
I0819 09:59:30.525651   892 layer_factory.hpp:77] Creating layer pool1_concat
I0819 09:59:30.525660   892 net.cpp:100] Creating Layer pool1_concat
I0819 09:59:30.525665   892 net.cpp:434] pool1_concat <- pool1
I0819 09:59:30.525671   892 net.cpp:434] pool1_concat <- ch4_pool1_ch4_pool1_0_split_0
I0819 09:59:30.525676   892 net.cpp:408] pool1_concat -> pool1_new
I0819 09:59:30.525701   892 net.cpp:150] Setting up pool1_concat
I0819 09:59:30.525707   892 net.cpp:157] Top shape: 4 65 384 384 (38338560)
I0819 09:59:30.525710   892 net.cpp:165] Memory required for data: 2809852416
I0819 09:59:30.525714   892 layer_factory.hpp:77] Creating layer conv2_1_new
I0819 09:59:30.525722   892 net.cpp:100] Creating Layer conv2_1_new
I0819 09:59:30.525727   892 net.cpp:434] conv2_1_new <- pool1_new
I0819 09:59:30.525734   892 net.cpp:408] conv2_1_new -> conv2_1
I0819 09:59:30.529821   892 net.cpp:150] Setting up conv2_1_new
I0819 09:59:30.529836   892 net.cpp:157] Top shape: 4 128 384 384 (75497472)
I0819 09:59:30.529840   892 net.cpp:165] Memory required for data: 3111842304
I0819 09:59:30.529848   892 layer_factory.hpp:77] Creating layer relu2_1
I0819 09:59:30.529853   892 net.cpp:100] Creating Layer relu2_1
I0819 09:59:30.529856   892 net.cpp:434] relu2_1 <- conv2_1
I0819 09:59:30.529860   892 net.cpp:395] relu2_1 -> conv2_1 (in-place)
I0819 09:59:30.530007   892 net.cpp:150] Setting up relu2_1
I0819 09:59:30.530015   892 net.cpp:157] Top shape: 4 128 384 384 (75497472)
I0819 09:59:30.530019   892 net.cpp:165] Memory required for data: 3413832192
I0819 09:59:30.530022   892 layer_factory.hpp:77] Creating layer conv2_2
I0819 09:59:30.530030   892 net.cpp:100] Creating Layer conv2_2
I0819 09:59:30.530035   892 net.cpp:434] conv2_2 <- conv2_1
I0819 09:59:30.530040   892 net.cpp:408] conv2_2 -> conv2_2
I0819 09:59:30.533421   892 net.cpp:150] Setting up conv2_2
I0819 09:59:30.533434   892 net.cpp:157] Top shape: 4 128 384 384 (75497472)
I0819 09:59:30.533438   892 net.cpp:165] Memory required for data: 3715822080
I0819 09:59:30.533444   892 layer_factory.hpp:77] Creating layer relu2_2
I0819 09:59:30.533450   892 net.cpp:100] Creating Layer relu2_2
I0819 09:59:30.533454   892 net.cpp:434] relu2_2 <- conv2_2
I0819 09:59:30.533459   892 net.cpp:395] relu2_2 -> conv2_2 (in-place)
I0819 09:59:30.539316   892 net.cpp:150] Setting up relu2_2
I0819 09:59:30.539348   892 net.cpp:157] Top shape: 4 128 384 384 (75497472)
I0819 09:59:30.539353   892 net.cpp:165] Memory required for data: 4017811968
I0819 09:59:30.539361   892 layer_factory.hpp:77] Creating layer pool2
I0819 09:59:30.539376   892 net.cpp:100] Creating Layer pool2
I0819 09:59:30.539382   892 net.cpp:434] pool2 <- conv2_2
I0819 09:59:30.539391   892 net.cpp:408] pool2 -> pool2
I0819 09:59:30.539482   892 net.cpp:150] Setting up pool2
I0819 09:59:30.539489   892 net.cpp:157] Top shape: 4 128 192 192 (18874368)
I0819 09:59:30.539494   892 net.cpp:165] Memory required for data: 4093309440
I0819 09:59:30.539496   892 layer_factory.hpp:77] Creating layer ch4_pool2
I0819 09:59:30.539503   892 net.cpp:100] Creating Layer ch4_pool2
I0819 09:59:30.539508   892 net.cpp:434] ch4_pool2 <- ch4_pool1_ch4_pool1_0_split_1
I0819 09:59:30.539513   892 net.cpp:408] ch4_pool2 -> ch4_pool2
I0819 09:59:30.539543   892 net.cpp:150] Setting up ch4_pool2
I0819 09:59:30.539547   892 net.cpp:157] Top shape: 4 1 192 192 (147456)
I0819 09:59:30.539551   892 net.cpp:165] Memory required for data: 4093899264
I0819 09:59:30.539556   892 layer_factory.hpp:77] Creating layer ch4_pool2_ch4_pool2_0_split
I0819 09:59:30.539561   892 net.cpp:100] Creating Layer ch4_pool2_ch4_pool2_0_split
I0819 09:59:30.539566   892 net.cpp:434] ch4_pool2_ch4_pool2_0_split <- ch4_pool2
I0819 09:59:30.539569   892 net.cpp:408] ch4_pool2_ch4_pool2_0_split -> ch4_pool2_ch4_pool2_0_split_0
I0819 09:59:30.539575   892 net.cpp:408] ch4_pool2_ch4_pool2_0_split -> ch4_pool2_ch4_pool2_0_split_1
I0819 09:59:30.539602   892 net.cpp:150] Setting up ch4_pool2_ch4_pool2_0_split
I0819 09:59:30.539608   892 net.cpp:157] Top shape: 4 1 192 192 (147456)
I0819 09:59:30.539611   892 net.cpp:157] Top shape: 4 1 192 192 (147456)
I0819 09:59:30.539614   892 net.cpp:165] Memory required for data: 4095078912
I0819 09:59:30.539618   892 layer_factory.hpp:77] Creating layer pool2_concat
I0819 09:59:30.539624   892 net.cpp:100] Creating Layer pool2_concat
I0819 09:59:30.539628   892 net.cpp:434] pool2_concat <- pool2
I0819 09:59:30.539633   892 net.cpp:434] pool2_concat <- ch4_pool2_ch4_pool2_0_split_0
I0819 09:59:30.539638   892 net.cpp:408] pool2_concat -> pool2_new
I0819 09:59:30.539659   892 net.cpp:150] Setting up pool2_concat
I0819 09:59:30.539664   892 net.cpp:157] Top shape: 4 129 192 192 (19021824)
I0819 09:59:30.539667   892 net.cpp:165] Memory required for data: 4171166208
I0819 09:59:30.539670   892 layer_factory.hpp:77] Creating layer conv3_1_new
I0819 09:59:30.539680   892 net.cpp:100] Creating Layer conv3_1_new
I0819 09:59:30.539683   892 net.cpp:434] conv3_1_new <- pool2_new
I0819 09:59:30.539690   892 net.cpp:408] conv3_1_new -> conv3_1
I0819 09:59:30.542553   892 net.cpp:150] Setting up conv3_1_new
I0819 09:59:30.542570   892 net.cpp:157] Top shape: 4 256 192 192 (37748736)
I0819 09:59:30.542574   892 net.cpp:165] Memory required for data: 4322161152
I0819 09:59:30.542589   892 layer_factory.hpp:77] Creating layer relu3_1
I0819 09:59:30.542598   892 net.cpp:100] Creating Layer relu3_1
I0819 09:59:30.542603   892 net.cpp:434] relu3_1 <- conv3_1
I0819 09:59:30.542608   892 net.cpp:395] relu3_1 -> conv3_1 (in-place)
I0819 09:59:30.543056   892 net.cpp:150] Setting up relu3_1
I0819 09:59:30.543067   892 net.cpp:157] Top shape: 4 256 192 192 (37748736)
I0819 09:59:30.543071   892 net.cpp:165] Memory required for data: 4473156096
I0819 09:59:30.543074   892 layer_factory.hpp:77] Creating layer conv3_2
I0819 09:59:30.543084   892 net.cpp:100] Creating Layer conv3_2
I0819 09:59:30.543104   892 net.cpp:434] conv3_2 <- conv3_1
I0819 09:59:30.543112   892 net.cpp:408] conv3_2 -> conv3_2
I0819 09:59:30.547112   892 net.cpp:150] Setting up conv3_2
I0819 09:59:30.547163   892 net.cpp:157] Top shape: 4 256 192 192 (37748736)
I0819 09:59:30.547168   892 net.cpp:165] Memory required for data: 4624151040
I0819 09:59:30.547185   892 layer_factory.hpp:77] Creating layer relu3_2
I0819 09:59:30.547204   892 net.cpp:100] Creating Layer relu3_2
I0819 09:59:30.547216   892 net.cpp:434] relu3_2 <- conv3_2
I0819 09:59:30.547225   892 net.cpp:395] relu3_2 -> conv3_2 (in-place)
I0819 09:59:30.551270   892 net.cpp:150] Setting up relu3_2
I0819 09:59:30.551316   892 net.cpp:157] Top shape: 4 256 192 192 (37748736)
I0819 09:59:30.551322   892 net.cpp:165] Memory required for data: 4775145984
I0819 09:59:30.551331   892 layer_factory.hpp:77] Creating layer conv3_3
I0819 09:59:30.551354   892 net.cpp:100] Creating Layer conv3_3
I0819 09:59:30.551367   892 net.cpp:434] conv3_3 <- conv3_2
I0819 09:59:30.551380   892 net.cpp:408] conv3_3 -> conv3_3
I0819 09:59:30.557165   892 net.cpp:150] Setting up conv3_3
I0819 09:59:30.557214   892 net.cpp:157] Top shape: 4 256 192 192 (37748736)
I0819 09:59:30.557222   892 net.cpp:165] Memory required for data: 4926140928
I0819 09:59:30.557241   892 layer_factory.hpp:77] Creating layer relu3_3
I0819 09:59:30.557262   892 net.cpp:100] Creating Layer relu3_3
I0819 09:59:30.557276   892 net.cpp:434] relu3_3 <- conv3_3
I0819 09:59:30.557288   892 net.cpp:395] relu3_3 -> conv3_3 (in-place)
I0819 09:59:30.557569   892 net.cpp:150] Setting up relu3_3
I0819 09:59:30.557587   892 net.cpp:157] Top shape: 4 256 192 192 (37748736)
I0819 09:59:30.557595   892 net.cpp:165] Memory required for data: 5077135872
I0819 09:59:30.557600   892 layer_factory.hpp:77] Creating layer pool3
I0819 09:59:30.557616   892 net.cpp:100] Creating Layer pool3
I0819 09:59:30.557624   892 net.cpp:434] pool3 <- conv3_3
I0819 09:59:30.557636   892 net.cpp:408] pool3 -> pool3
I0819 09:59:30.557708   892 net.cpp:150] Setting up pool3
I0819 09:59:30.557721   892 net.cpp:157] Top shape: 4 256 96 96 (9437184)
I0819 09:59:30.557725   892 net.cpp:165] Memory required for data: 5114884608
I0819 09:59:30.557730   892 layer_factory.hpp:77] Creating layer ch4_pool3
I0819 09:59:30.557741   892 net.cpp:100] Creating Layer ch4_pool3
I0819 09:59:30.557747   892 net.cpp:434] ch4_pool3 <- ch4_pool2_ch4_pool2_0_split_1
I0819 09:59:30.557754   892 net.cpp:408] ch4_pool3 -> ch4_pool3
I0819 09:59:30.557795   892 net.cpp:150] Setting up ch4_pool3
I0819 09:59:30.557801   892 net.cpp:157] Top shape: 4 1 96 96 (36864)
I0819 09:59:30.557806   892 net.cpp:165] Memory required for data: 5115032064
I0819 09:59:30.557809   892 layer_factory.hpp:77] Creating layer ch4_pool3_ch4_pool3_0_split
I0819 09:59:30.557816   892 net.cpp:100] Creating Layer ch4_pool3_ch4_pool3_0_split
I0819 09:59:30.557821   892 net.cpp:434] ch4_pool3_ch4_pool3_0_split <- ch4_pool3
I0819 09:59:30.557826   892 net.cpp:408] ch4_pool3_ch4_pool3_0_split -> ch4_pool3_ch4_pool3_0_split_0
I0819 09:59:30.557832   892 net.cpp:408] ch4_pool3_ch4_pool3_0_split -> ch4_pool3_ch4_pool3_0_split_1
I0819 09:59:30.557870   892 net.cpp:150] Setting up ch4_pool3_ch4_pool3_0_split
I0819 09:59:30.557878   892 net.cpp:157] Top shape: 4 1 96 96 (36864)
I0819 09:59:30.557883   892 net.cpp:157] Top shape: 4 1 96 96 (36864)
I0819 09:59:30.557886   892 net.cpp:165] Memory required for data: 5115326976
I0819 09:59:30.557890   892 layer_factory.hpp:77] Creating layer pool3_concat
I0819 09:59:30.557898   892 net.cpp:100] Creating Layer pool3_concat
I0819 09:59:30.557901   892 net.cpp:434] pool3_concat <- pool3
I0819 09:59:30.557906   892 net.cpp:434] pool3_concat <- ch4_pool3_ch4_pool3_0_split_0
I0819 09:59:30.557912   892 net.cpp:408] pool3_concat -> pool3_new
I0819 09:59:30.557935   892 net.cpp:150] Setting up pool3_concat
I0819 09:59:30.557942   892 net.cpp:157] Top shape: 4 257 96 96 (9474048)
I0819 09:59:30.557946   892 net.cpp:165] Memory required for data: 5153223168
I0819 09:59:30.557950   892 layer_factory.hpp:77] Creating layer conv4_1_new
I0819 09:59:30.557961   892 net.cpp:100] Creating Layer conv4_1_new
I0819 09:59:30.557967   892 net.cpp:434] conv4_1_new <- pool3_new
I0819 09:59:30.557973   892 net.cpp:408] conv4_1_new -> conv4_1
I0819 09:59:30.562791   892 net.cpp:150] Setting up conv4_1_new
I0819 09:59:30.562826   892 net.cpp:157] Top shape: 4 512 96 96 (18874368)
I0819 09:59:30.562832   892 net.cpp:165] Memory required for data: 5228720640
I0819 09:59:30.562847   892 layer_factory.hpp:77] Creating layer relu4_1
I0819 09:59:30.562861   892 net.cpp:100] Creating Layer relu4_1
I0819 09:59:30.562870   892 net.cpp:434] relu4_1 <- conv4_1
I0819 09:59:30.562877   892 net.cpp:395] relu4_1 -> conv4_1 (in-place)
I0819 09:59:30.563091   892 net.cpp:150] Setting up relu4_1
I0819 09:59:30.563102   892 net.cpp:157] Top shape: 4 512 96 96 (18874368)
I0819 09:59:30.563107   892 net.cpp:165] Memory required for data: 5304218112
I0819 09:59:30.563112   892 layer_factory.hpp:77] Creating layer conv4_2
I0819 09:59:30.563123   892 net.cpp:100] Creating Layer conv4_2
I0819 09:59:30.563129   892 net.cpp:434] conv4_2 <- conv4_1
I0819 09:59:30.563138   892 net.cpp:408] conv4_2 -> conv4_2
I0819 09:59:30.569705   892 net.cpp:150] Setting up conv4_2
I0819 09:59:30.569738   892 net.cpp:157] Top shape: 4 512 96 96 (18874368)
I0819 09:59:30.569743   892 net.cpp:165] Memory required for data: 5379715584
I0819 09:59:30.569759   892 layer_factory.hpp:77] Creating layer relu4_2
I0819 09:59:30.569772   892 net.cpp:100] Creating Layer relu4_2
I0819 09:59:30.569779   892 net.cpp:434] relu4_2 <- conv4_2
I0819 09:59:30.569785   892 net.cpp:395] relu4_2 -> conv4_2 (in-place)
I0819 09:59:30.569962   892 net.cpp:150] Setting up relu4_2
I0819 09:59:30.569972   892 net.cpp:157] Top shape: 4 512 96 96 (18874368)
I0819 09:59:30.569975   892 net.cpp:165] Memory required for data: 5455213056
I0819 09:59:30.569979   892 layer_factory.hpp:77] Creating layer conv4_3
I0819 09:59:30.569989   892 net.cpp:100] Creating Layer conv4_3
I0819 09:59:30.569995   892 net.cpp:434] conv4_3 <- conv4_2
I0819 09:59:30.570001   892 net.cpp:408] conv4_3 -> conv4_3
I0819 09:59:30.579958   892 net.cpp:150] Setting up conv4_3
I0819 09:59:30.579995   892 net.cpp:157] Top shape: 4 512 96 96 (18874368)
I0819 09:59:30.580000   892 net.cpp:165] Memory required for data: 5530710528
I0819 09:59:30.580013   892 layer_factory.hpp:77] Creating layer relu4_3
I0819 09:59:30.580025   892 net.cpp:100] Creating Layer relu4_3
I0819 09:59:30.580032   892 net.cpp:434] relu4_3 <- conv4_3
I0819 09:59:30.580039   892 net.cpp:395] relu4_3 -> conv4_3 (in-place)
I0819 09:59:30.580186   892 net.cpp:150] Setting up relu4_3
I0819 09:59:30.580194   892 net.cpp:157] Top shape: 4 512 96 96 (18874368)
I0819 09:59:30.580198   892 net.cpp:165] Memory required for data: 5606208000
I0819 09:59:30.580201   892 layer_factory.hpp:77] Creating layer conv4_concat
I0819 09:59:30.580209   892 net.cpp:100] Creating Layer conv4_concat
I0819 09:59:30.580212   892 net.cpp:434] conv4_concat <- conv4_3
I0819 09:59:30.580219   892 net.cpp:434] conv4_concat <- ch4_pool3_ch4_pool3_0_split_1
I0819 09:59:30.580224   892 net.cpp:408] conv4_concat -> conv4_3_new
I0819 09:59:30.580247   892 net.cpp:150] Setting up conv4_concat
I0819 09:59:30.580253   892 net.cpp:157] Top shape: 4 513 96 96 (18911232)
I0819 09:59:30.580256   892 net.cpp:165] Memory required for data: 5681852928
I0819 09:59:30.580260   892 layer_factory.hpp:77] Creating layer conv4_3_new_conv4_concat_0_split
I0819 09:59:30.580265   892 net.cpp:100] Creating Layer conv4_3_new_conv4_concat_0_split
I0819 09:59:30.580269   892 net.cpp:434] conv4_3_new_conv4_concat_0_split <- conv4_3_new
I0819 09:59:30.580274   892 net.cpp:408] conv4_3_new_conv4_concat_0_split -> conv4_3_new_conv4_concat_0_split_0
I0819 09:59:30.580279   892 net.cpp:408] conv4_3_new_conv4_concat_0_split -> conv4_3_new_conv4_concat_0_split_1
I0819 09:59:30.580309   892 net.cpp:150] Setting up conv4_3_new_conv4_concat_0_split
I0819 09:59:30.580315   892 net.cpp:157] Top shape: 4 513 96 96 (18911232)
I0819 09:59:30.580319   892 net.cpp:157] Top shape: 4 513 96 96 (18911232)
I0819 09:59:30.580322   892 net.cpp:165] Memory required for data: 5833142784
I0819 09:59:30.580325   892 layer_factory.hpp:77] Creating layer loss1_conv1
I0819 09:59:30.580337   892 net.cpp:100] Creating Layer loss1_conv1
I0819 09:59:30.580341   892 net.cpp:434] loss1_conv1 <- conv4_3_new_conv4_concat_0_split_0
I0819 09:59:30.580348   892 net.cpp:408] loss1_conv1 -> loss1_conv1
I0819 09:59:30.649494   892 net.cpp:150] Setting up loss1_conv1
I0819 09:59:30.649523   892 net.cpp:157] Top shape: 4 512 96 96 (18874368)
I0819 09:59:30.649526   892 net.cpp:165] Memory required for data: 5908640256
I0819 09:59:30.649534   892 layer_factory.hpp:77] Creating layer loss_relu1
I0819 09:59:30.649546   892 net.cpp:100] Creating Layer loss_relu1
I0819 09:59:30.649551   892 net.cpp:434] loss_relu1 <- loss1_conv1
I0819 09:59:30.649557   892 net.cpp:395] loss_relu1 -> loss1_conv1 (in-place)
I0819 09:59:30.652259   892 net.cpp:150] Setting up loss_relu1
I0819 09:59:30.652273   892 net.cpp:157] Top shape: 4 512 96 96 (18874368)
I0819 09:59:30.652277   892 net.cpp:165] Memory required for data: 5984137728
I0819 09:59:30.652281   892 layer_factory.hpp:77] Creating layer loss1_conv1_loss_relu1_0_split
I0819 09:59:30.652287   892 net.cpp:100] Creating Layer loss1_conv1_loss_relu1_0_split
I0819 09:59:30.652292   892 net.cpp:434] loss1_conv1_loss_relu1_0_split <- loss1_conv1
I0819 09:59:30.652298   892 net.cpp:408] loss1_conv1_loss_relu1_0_split -> loss1_conv1_loss_relu1_0_split_0
I0819 09:59:30.652305   892 net.cpp:408] loss1_conv1_loss_relu1_0_split -> loss1_conv1_loss_relu1_0_split_1
I0819 09:59:30.652343   892 net.cpp:150] Setting up loss1_conv1_loss_relu1_0_split
I0819 09:59:30.652349   892 net.cpp:157] Top shape: 4 512 96 96 (18874368)
I0819 09:59:30.652354   892 net.cpp:157] Top shape: 4 512 96 96 (18874368)
I0819 09:59:30.652357   892 net.cpp:165] Memory required for data: 6135132672
I0819 09:59:30.652360   892 layer_factory.hpp:77] Creating layer LFCN_1_5x5
I0819 09:59:30.652371   892 net.cpp:100] Creating Layer LFCN_1_5x5
I0819 09:59:30.652374   892 net.cpp:434] LFCN_1_5x5 <- loss1_conv1_loss_relu1_0_split_0
I0819 09:59:30.652381   892 net.cpp:408] LFCN_1_5x5 -> LFCN_1_5x5
I0819 09:59:30.657126   892 net.cpp:150] Setting up LFCN_1_5x5
I0819 09:59:30.657141   892 net.cpp:157] Top shape: 4 9 96 96 (331776)
I0819 09:59:30.657146   892 net.cpp:165] Memory required for data: 6136459776
I0819 09:59:30.657153   892 layer_factory.hpp:77] Creating layer LFCN_1_5x5_LFCN_1_5x5_0_split
I0819 09:59:30.657161   892 net.cpp:100] Creating Layer LFCN_1_5x5_LFCN_1_5x5_0_split
I0819 09:59:30.657166   892 net.cpp:434] LFCN_1_5x5_LFCN_1_5x5_0_split <- LFCN_1_5x5
I0819 09:59:30.657171   892 net.cpp:408] LFCN_1_5x5_LFCN_1_5x5_0_split -> LFCN_1_5x5_LFCN_1_5x5_0_split_0
I0819 09:59:30.657181   892 net.cpp:408] LFCN_1_5x5_LFCN_1_5x5_0_split -> LFCN_1_5x5_LFCN_1_5x5_0_split_1
I0819 09:59:30.657223   892 net.cpp:150] Setting up LFCN_1_5x5_LFCN_1_5x5_0_split
I0819 09:59:30.657230   892 net.cpp:157] Top shape: 4 9 96 96 (331776)
I0819 09:59:30.657235   892 net.cpp:157] Top shape: 4 9 96 96 (331776)
I0819 09:59:30.657240   892 net.cpp:165] Memory required for data: 6139113984
I0819 09:59:30.657244   892 layer_factory.hpp:77] Creating layer detection_loss_1_5x5
I0819 09:59:30.657253   892 net.cpp:100] Creating Layer detection_loss_1_5x5
I0819 09:59:30.657258   892 net.cpp:434] detection_loss_1_5x5 <- LFCN_1_5x5_LFCN_1_5x5_0_split_0
I0819 09:59:30.657263   892 net.cpp:434] detection_loss_1_5x5 <- label_1_5x5_data_1_split_0
I0819 09:59:30.657269   892 net.cpp:408] detection_loss_1_5x5 -> loss_1_5x5
I0819 09:59:30.657284   892 layer_factory.hpp:77] Creating layer detection_loss_1_5x5
I0819 09:59:30.658974   892 net.cpp:150] Setting up detection_loss_1_5x5
I0819 09:59:30.658989   892 net.cpp:157] Top shape: 1 1 1 2 (2)
I0819 09:59:30.658993   892 net.cpp:160]     with loss weight 0.9
I0819 09:59:30.659013   892 net.cpp:165] Memory required for data: 6139113992
I0819 09:59:30.659018   892 layer_factory.hpp:77] Creating layer detection_accuracy_1_5x5
I0819 09:59:30.659025   892 net.cpp:100] Creating Layer detection_accuracy_1_5x5
I0819 09:59:30.659029   892 net.cpp:434] detection_accuracy_1_5x5 <- LFCN_1_5x5_LFCN_1_5x5_0_split_1
I0819 09:59:30.659035   892 net.cpp:434] detection_accuracy_1_5x5 <- label_1_5x5_data_1_split_1
I0819 09:59:30.659044   892 net.cpp:408] detection_accuracy_1_5x5 -> accuracy_1_5x5
I0819 09:59:30.659054   892 net.cpp:408] detection_accuracy_1_5x5 -> boxiou_1_5x5
I0819 09:59:30.659097   892 net.cpp:150] Setting up detection_accuracy_1_5x5
I0819 09:59:30.659106   892 net.cpp:157] Top shape: 1 1 1 2 (2)
I0819 09:59:30.659111   892 net.cpp:157] Top shape: 1 1 1 1 (1)
I0819 09:59:30.659116   892 net.cpp:165] Memory required for data: 6139114004
I0819 09:59:30.659119   892 layer_factory.hpp:77] Creating layer LFCN_1_7x7
I0819 09:59:30.659132   892 net.cpp:100] Creating Layer LFCN_1_7x7
I0819 09:59:30.659137   892 net.cpp:434] LFCN_1_7x7 <- loss1_conv1_loss_relu1_0_split_1
I0819 09:59:30.659144   892 net.cpp:408] LFCN_1_7x7 -> LFCN_1_7x7
I0819 09:59:30.666956   892 net.cpp:150] Setting up LFCN_1_7x7
I0819 09:59:30.666980   892 net.cpp:157] Top shape: 4 9 96 96 (331776)
I0819 09:59:30.666983   892 net.cpp:165] Memory required for data: 6140441108
I0819 09:59:30.666991   892 layer_factory.hpp:77] Creating layer LFCN_1_7x7_LFCN_1_7x7_0_split
I0819 09:59:30.666999   892 net.cpp:100] Creating Layer LFCN_1_7x7_LFCN_1_7x7_0_split
I0819 09:59:30.667003   892 net.cpp:434] LFCN_1_7x7_LFCN_1_7x7_0_split <- LFCN_1_7x7
I0819 09:59:30.667008   892 net.cpp:408] LFCN_1_7x7_LFCN_1_7x7_0_split -> LFCN_1_7x7_LFCN_1_7x7_0_split_0
I0819 09:59:30.667016   892 net.cpp:408] LFCN_1_7x7_LFCN_1_7x7_0_split -> LFCN_1_7x7_LFCN_1_7x7_0_split_1
I0819 09:59:30.667047   892 net.cpp:150] Setting up LFCN_1_7x7_LFCN_1_7x7_0_split
I0819 09:59:30.667052   892 net.cpp:157] Top shape: 4 9 96 96 (331776)
I0819 09:59:30.667055   892 net.cpp:157] Top shape: 4 9 96 96 (331776)
I0819 09:59:30.667057   892 net.cpp:165] Memory required for data: 6143095316
I0819 09:59:30.667060   892 layer_factory.hpp:77] Creating layer detection_loss_1_7x7
I0819 09:59:30.667068   892 net.cpp:100] Creating Layer detection_loss_1_7x7
I0819 09:59:30.667071   892 net.cpp:434] detection_loss_1_7x7 <- LFCN_1_7x7_LFCN_1_7x7_0_split_0
I0819 09:59:30.667076   892 net.cpp:434] detection_loss_1_7x7 <- label_1_7x7_data_2_split_0
I0819 09:59:30.667083   892 net.cpp:408] detection_loss_1_7x7 -> loss_1_7x7
I0819 09:59:30.667094   892 layer_factory.hpp:77] Creating layer detection_loss_1_7x7
I0819 09:59:30.668577   892 net.cpp:150] Setting up detection_loss_1_7x7
I0819 09:59:30.668591   892 net.cpp:157] Top shape: 1 1 1 2 (2)
I0819 09:59:30.668596   892 net.cpp:160]     with loss weight 0.9
I0819 09:59:30.668606   892 net.cpp:165] Memory required for data: 6143095324
I0819 09:59:30.668611   892 layer_factory.hpp:77] Creating layer detection_accuracy_1_7x7
I0819 09:59:30.668619   892 net.cpp:100] Creating Layer detection_accuracy_1_7x7
I0819 09:59:30.668623   892 net.cpp:434] detection_accuracy_1_7x7 <- LFCN_1_7x7_LFCN_1_7x7_0_split_1
I0819 09:59:30.668628   892 net.cpp:434] detection_accuracy_1_7x7 <- label_1_7x7_data_2_split_1
I0819 09:59:30.668634   892 net.cpp:408] detection_accuracy_1_7x7 -> accuracy_1_7x7
I0819 09:59:30.668640   892 net.cpp:408] detection_accuracy_1_7x7 -> boxiou_1_7x7
I0819 09:59:30.668680   892 net.cpp:150] Setting up detection_accuracy_1_7x7
I0819 09:59:30.668686   892 net.cpp:157] Top shape: 1 1 1 2 (2)
I0819 09:59:30.668691   892 net.cpp:157] Top shape: 1 1 1 1 (1)
I0819 09:59:30.668694   892 net.cpp:165] Memory required for data: 6143095336
I0819 09:59:30.668699   892 layer_factory.hpp:77] Creating layer pool4
I0819 09:59:30.668704   892 net.cpp:100] Creating Layer pool4
I0819 09:59:30.668711   892 net.cpp:434] pool4 <- conv4_3_new_conv4_concat_0_split_1
I0819 09:59:30.668716   892 net.cpp:408] pool4 -> pool4
I0819 09:59:30.668752   892 net.cpp:150] Setting up pool4
I0819 09:59:30.668758   892 net.cpp:157] Top shape: 4 513 48 48 (4727808)
I0819 09:59:30.668761   892 net.cpp:165] Memory required for data: 6162006568
I0819 09:59:30.668764   892 layer_factory.hpp:77] Creating layer conv5_1_new
I0819 09:59:30.668771   892 net.cpp:100] Creating Layer conv5_1_new
I0819 09:59:30.668776   892 net.cpp:434] conv5_1_new <- pool4
I0819 09:59:30.668781   892 net.cpp:408] conv5_1_new -> conv5_1
I0819 09:59:30.674973   892 net.cpp:150] Setting up conv5_1_new
I0819 09:59:30.675006   892 net.cpp:157] Top shape: 4 512 48 48 (4718592)
I0819 09:59:30.675009   892 net.cpp:165] Memory required for data: 6180880936
I0819 09:59:30.675019   892 layer_factory.hpp:77] Creating layer relu5_1
I0819 09:59:30.675029   892 net.cpp:100] Creating Layer relu5_1
I0819 09:59:30.675036   892 net.cpp:434] relu5_1 <- conv5_1
I0819 09:59:30.675041   892 net.cpp:395] relu5_1 -> conv5_1 (in-place)
I0819 09:59:30.675179   892 net.cpp:150] Setting up relu5_1
I0819 09:59:30.675189   892 net.cpp:157] Top shape: 4 512 48 48 (4718592)
I0819 09:59:30.675192   892 net.cpp:165] Memory required for data: 6199755304
I0819 09:59:30.675195   892 layer_factory.hpp:77] Creating layer conv5_2
I0819 09:59:30.675204   892 net.cpp:100] Creating Layer conv5_2
I0819 09:59:30.675209   892 net.cpp:434] conv5_2 <- conv5_1
I0819 09:59:30.675215   892 net.cpp:408] conv5_2 -> conv5_2
I0819 09:59:30.682576   892 net.cpp:150] Setting up conv5_2
I0819 09:59:30.682634   892 net.cpp:157] Top shape: 4 512 48 48 (4718592)
I0819 09:59:30.682638   892 net.cpp:165] Memory required for data: 6218629672
I0819 09:59:30.682651   892 layer_factory.hpp:77] Creating layer relu5_2
I0819 09:59:30.682667   892 net.cpp:100] Creating Layer relu5_2
I0819 09:59:30.682675   892 net.cpp:434] relu5_2 <- conv5_2
I0819 09:59:30.682683   892 net.cpp:395] relu5_2 -> conv5_2 (in-place)
I0819 09:59:30.682853   892 net.cpp:150] Setting up relu5_2
I0819 09:59:30.682860   892 net.cpp:157] Top shape: 4 512 48 48 (4718592)
I0819 09:59:30.682864   892 net.cpp:165] Memory required for data: 6237504040
I0819 09:59:30.682868   892 layer_factory.hpp:77] Creating layer conv5_3
I0819 09:59:30.682880   892 net.cpp:100] Creating Layer conv5_3
I0819 09:59:30.682884   892 net.cpp:434] conv5_3 <- conv5_2
I0819 09:59:30.682889   892 net.cpp:408] conv5_3 -> conv5_3
I0819 09:59:30.692577   892 net.cpp:150] Setting up conv5_3
I0819 09:59:30.692607   892 net.cpp:157] Top shape: 4 512 48 48 (4718592)
I0819 09:59:30.692612   892 net.cpp:165] Memory required for data: 6256378408
I0819 09:59:30.692621   892 layer_factory.hpp:77] Creating layer relu5_3
I0819 09:59:30.692636   892 net.cpp:100] Creating Layer relu5_3
I0819 09:59:30.692642   892 net.cpp:434] relu5_3 <- conv5_3
I0819 09:59:30.692648   892 net.cpp:395] relu5_3 -> conv5_3 (in-place)
I0819 09:59:30.692809   892 net.cpp:150] Setting up relu5_3
I0819 09:59:30.692819   892 net.cpp:157] Top shape: 4 512 48 48 (4718592)
I0819 09:59:30.692822   892 net.cpp:165] Memory required for data: 6275252776
I0819 09:59:30.692826   892 layer_factory.hpp:77] Creating layer conv5_3_relu5_3_0_split
I0819 09:59:30.692832   892 net.cpp:100] Creating Layer conv5_3_relu5_3_0_split
I0819 09:59:30.692836   892 net.cpp:434] conv5_3_relu5_3_0_split <- conv5_3
I0819 09:59:30.692840   892 net.cpp:408] conv5_3_relu5_3_0_split -> conv5_3_relu5_3_0_split_0
I0819 09:59:30.692847   892 net.cpp:408] conv5_3_relu5_3_0_split -> conv5_3_relu5_3_0_split_1
I0819 09:59:30.692853   892 net.cpp:408] conv5_3_relu5_3_0_split -> conv5_3_relu5_3_0_split_2
I0819 09:59:30.692901   892 net.cpp:150] Setting up conv5_3_relu5_3_0_split
I0819 09:59:30.692908   892 net.cpp:157] Top shape: 4 512 48 48 (4718592)
I0819 09:59:30.692912   892 net.cpp:157] Top shape: 4 512 48 48 (4718592)
I0819 09:59:30.692916   892 net.cpp:157] Top shape: 4 512 48 48 (4718592)
I0819 09:59:30.692919   892 net.cpp:165] Memory required for data: 6331875880
I0819 09:59:30.692922   892 layer_factory.hpp:77] Creating layer LFCN_2_5x5
I0819 09:59:30.692932   892 net.cpp:100] Creating Layer LFCN_2_5x5
I0819 09:59:30.692937   892 net.cpp:434] LFCN_2_5x5 <- conv5_3_relu5_3_0_split_0
I0819 09:59:30.692945   892 net.cpp:408] LFCN_2_5x5 -> LFCN_2_5x5
I0819 09:59:30.696986   892 net.cpp:150] Setting up LFCN_2_5x5
I0819 09:59:30.697011   892 net.cpp:157] Top shape: 4 9 48 48 (82944)
I0819 09:59:30.697016   892 net.cpp:165] Memory required for data: 6332207656
I0819 09:59:30.697033   892 layer_factory.hpp:77] Creating layer LFCN_2_5x5_LFCN_2_5x5_0_split
I0819 09:59:30.697043   892 net.cpp:100] Creating Layer LFCN_2_5x5_LFCN_2_5x5_0_split
I0819 09:59:30.697048   892 net.cpp:434] LFCN_2_5x5_LFCN_2_5x5_0_split <- LFCN_2_5x5
I0819 09:59:30.697055   892 net.cpp:408] LFCN_2_5x5_LFCN_2_5x5_0_split -> LFCN_2_5x5_LFCN_2_5x5_0_split_0
I0819 09:59:30.697063   892 net.cpp:408] LFCN_2_5x5_LFCN_2_5x5_0_split -> LFCN_2_5x5_LFCN_2_5x5_0_split_1
I0819 09:59:30.697098   892 net.cpp:150] Setting up LFCN_2_5x5_LFCN_2_5x5_0_split
I0819 09:59:30.697103   892 net.cpp:157] Top shape: 4 9 48 48 (82944)
I0819 09:59:30.697108   892 net.cpp:157] Top shape: 4 9 48 48 (82944)
I0819 09:59:30.697110   892 net.cpp:165] Memory required for data: 6332871208
I0819 09:59:30.697113   892 layer_factory.hpp:77] Creating layer detection_loss_2_5x5
I0819 09:59:30.697129   892 net.cpp:100] Creating Layer detection_loss_2_5x5
I0819 09:59:30.697132   892 net.cpp:434] detection_loss_2_5x5 <- LFCN_2_5x5_LFCN_2_5x5_0_split_0
I0819 09:59:30.697139   892 net.cpp:434] detection_loss_2_5x5 <- label_2_5x5_data_3_split_0
I0819 09:59:30.697146   892 net.cpp:408] detection_loss_2_5x5 -> loss_2_5x5
I0819 09:59:30.697157   892 layer_factory.hpp:77] Creating layer detection_loss_2_5x5
I0819 09:59:30.699148   892 net.cpp:150] Setting up detection_loss_2_5x5
I0819 09:59:30.699190   892 net.cpp:157] Top shape: 1 1 1 2 (2)
I0819 09:59:30.699193   892 net.cpp:160]     with loss weight 1
I0819 09:59:30.699213   892 net.cpp:165] Memory required for data: 6332871216
I0819 09:59:30.699219   892 layer_factory.hpp:77] Creating layer detection_accuracy_2_5x5
I0819 09:59:30.699239   892 net.cpp:100] Creating Layer detection_accuracy_2_5x5
I0819 09:59:30.699246   892 net.cpp:434] detection_accuracy_2_5x5 <- LFCN_2_5x5_LFCN_2_5x5_0_split_1
I0819 09:59:30.699254   892 net.cpp:434] detection_accuracy_2_5x5 <- label_2_5x5_data_3_split_1
I0819 09:59:30.699260   892 net.cpp:408] detection_accuracy_2_5x5 -> accuracy_2_5x5
I0819 09:59:30.699270   892 net.cpp:408] detection_accuracy_2_5x5 -> boxiou_2_5x5
I0819 09:59:30.699317   892 net.cpp:150] Setting up detection_accuracy_2_5x5
I0819 09:59:30.699322   892 net.cpp:157] Top shape: 1 1 1 2 (2)
I0819 09:59:30.699326   892 net.cpp:157] Top shape: 1 1 1 1 (1)
I0819 09:59:30.699328   892 net.cpp:165] Memory required for data: 6332871228
I0819 09:59:30.699332   892 layer_factory.hpp:77] Creating layer LFCN_2_7x7
I0819 09:59:30.699350   892 net.cpp:100] Creating Layer LFCN_2_7x7
I0819 09:59:30.699355   892 net.cpp:434] LFCN_2_7x7 <- conv5_3_relu5_3_0_split_1
I0819 09:59:30.699364   892 net.cpp:408] LFCN_2_7x7 -> LFCN_2_7x7
I0819 09:59:30.709628   892 net.cpp:150] Setting up LFCN_2_7x7
I0819 09:59:30.709664   892 net.cpp:157] Top shape: 4 9 48 48 (82944)
I0819 09:59:30.709669   892 net.cpp:165] Memory required for data: 6333203004
I0819 09:59:30.709679   892 layer_factory.hpp:77] Creating layer LFCN_2_7x7_LFCN_2_7x7_0_split
I0819 09:59:30.709689   892 net.cpp:100] Creating Layer LFCN_2_7x7_LFCN_2_7x7_0_split
I0819 09:59:30.709695   892 net.cpp:434] LFCN_2_7x7_LFCN_2_7x7_0_split <- LFCN_2_7x7
I0819 09:59:30.709705   892 net.cpp:408] LFCN_2_7x7_LFCN_2_7x7_0_split -> LFCN_2_7x7_LFCN_2_7x7_0_split_0
I0819 09:59:30.709715   892 net.cpp:408] LFCN_2_7x7_LFCN_2_7x7_0_split -> LFCN_2_7x7_LFCN_2_7x7_0_split_1
I0819 09:59:30.709756   892 net.cpp:150] Setting up LFCN_2_7x7_LFCN_2_7x7_0_split
I0819 09:59:30.709765   892 net.cpp:157] Top shape: 4 9 48 48 (82944)
I0819 09:59:30.709770   892 net.cpp:157] Top shape: 4 9 48 48 (82944)
I0819 09:59:30.709774   892 net.cpp:165] Memory required for data: 6333866556
I0819 09:59:30.709779   892 layer_factory.hpp:77] Creating layer detection_loss_2_7x7
I0819 09:59:30.709787   892 net.cpp:100] Creating Layer detection_loss_2_7x7
I0819 09:59:30.709791   892 net.cpp:434] detection_loss_2_7x7 <- LFCN_2_7x7_LFCN_2_7x7_0_split_0
I0819 09:59:30.709797   892 net.cpp:434] detection_loss_2_7x7 <- label_2_7x7_data_4_split_0
I0819 09:59:30.709805   892 net.cpp:408] detection_loss_2_7x7 -> loss_2_7x7
I0819 09:59:30.709815   892 layer_factory.hpp:77] Creating layer detection_loss_2_7x7
I0819 09:59:30.710692   892 net.cpp:150] Setting up detection_loss_2_7x7
I0819 09:59:30.710707   892 net.cpp:157] Top shape: 1 1 1 2 (2)
I0819 09:59:30.710711   892 net.cpp:160]     with loss weight 1
I0819 09:59:30.710722   892 net.cpp:165] Memory required for data: 6333866564
I0819 09:59:30.710726   892 layer_factory.hpp:77] Creating layer detection_accuracy_2_7x7
I0819 09:59:30.710736   892 net.cpp:100] Creating Layer detection_accuracy_2_7x7
I0819 09:59:30.710741   892 net.cpp:434] detection_accuracy_2_7x7 <- LFCN_2_7x7_LFCN_2_7x7_0_split_1
I0819 09:59:30.710745   892 net.cpp:434] detection_accuracy_2_7x7 <- label_2_7x7_data_4_split_1
I0819 09:59:30.710752   892 net.cpp:408] detection_accuracy_2_7x7 -> accuracy_2_7x7
I0819 09:59:30.710759   892 net.cpp:408] detection_accuracy_2_7x7 -> boxiou_2_7x7
I0819 09:59:30.710801   892 net.cpp:150] Setting up detection_accuracy_2_7x7
I0819 09:59:30.710809   892 net.cpp:157] Top shape: 1 1 1 2 (2)
I0819 09:59:30.710814   892 net.cpp:157] Top shape: 1 1 1 1 (1)
I0819 09:59:30.710819   892 net.cpp:165] Memory required for data: 6333866576
I0819 09:59:30.710821   892 layer_factory.hpp:77] Creating layer pool5
I0819 09:59:30.710829   892 net.cpp:100] Creating Layer pool5
I0819 09:59:30.710834   892 net.cpp:434] pool5 <- conv5_3_relu5_3_0_split_2
I0819 09:59:30.710841   892 net.cpp:408] pool5 -> pool5
I0819 09:59:30.710880   892 net.cpp:150] Setting up pool5
I0819 09:59:30.710888   892 net.cpp:157] Top shape: 4 512 24 24 (1179648)
I0819 09:59:30.710891   892 net.cpp:165] Memory required for data: 6338585168
I0819 09:59:30.710896   892 layer_factory.hpp:77] Creating layer conv6_1
I0819 09:59:30.710907   892 net.cpp:100] Creating Layer conv6_1
I0819 09:59:30.710912   892 net.cpp:434] conv6_1 <- pool5
I0819 09:59:30.710919   892 net.cpp:408] conv6_1 -> conv6_1
I0819 09:59:30.773907   892 net.cpp:150] Setting up conv6_1
I0819 09:59:30.773937   892 net.cpp:157] Top shape: 4 512 24 24 (1179648)
I0819 09:59:30.773942   892 net.cpp:165] Memory required for data: 6343303760
I0819 09:59:30.773950   892 layer_factory.hpp:77] Creating layer relu6_1
I0819 09:59:30.773962   892 net.cpp:100] Creating Layer relu6_1
I0819 09:59:30.773968   892 net.cpp:434] relu6_1 <- conv6_1
I0819 09:59:30.773974   892 net.cpp:395] relu6_1 -> conv6_1 (in-place)
I0819 09:59:30.774130   892 net.cpp:150] Setting up relu6_1
I0819 09:59:30.774140   892 net.cpp:157] Top shape: 4 512 24 24 (1179648)
I0819 09:59:30.774143   892 net.cpp:165] Memory required for data: 6348022352
I0819 09:59:30.774147   892 layer_factory.hpp:77] Creating layer conv6_1_relu6_1_0_split
I0819 09:59:30.774152   892 net.cpp:100] Creating Layer conv6_1_relu6_1_0_split
I0819 09:59:30.774157   892 net.cpp:434] conv6_1_relu6_1_0_split <- conv6_1
I0819 09:59:30.774161   892 net.cpp:408] conv6_1_relu6_1_0_split -> conv6_1_relu6_1_0_split_0
I0819 09:59:30.774168   892 net.cpp:408] conv6_1_relu6_1_0_split -> conv6_1_relu6_1_0_split_1
I0819 09:59:30.774173   892 net.cpp:408] conv6_1_relu6_1_0_split -> conv6_1_relu6_1_0_split_2
I0819 09:59:30.774219   892 net.cpp:150] Setting up conv6_1_relu6_1_0_split
I0819 09:59:30.774225   892 net.cpp:157] Top shape: 4 512 24 24 (1179648)
I0819 09:59:30.774230   892 net.cpp:157] Top shape: 4 512 24 24 (1179648)
I0819 09:59:30.774232   892 net.cpp:157] Top shape: 4 512 24 24 (1179648)
I0819 09:59:30.774235   892 net.cpp:165] Memory required for data: 6362178128
I0819 09:59:30.774240   892 layer_factory.hpp:77] Creating layer LFCN_3_5x5
I0819 09:59:30.774250   892 net.cpp:100] Creating Layer LFCN_3_5x5
I0819 09:59:30.774255   892 net.cpp:434] LFCN_3_5x5 <- conv6_1_relu6_1_0_split_0
I0819 09:59:30.774262   892 net.cpp:408] LFCN_3_5x5 -> LFCN_3_5x5
I0819 09:59:30.778177   892 net.cpp:150] Setting up LFCN_3_5x5
I0819 09:59:30.778189   892 net.cpp:157] Top shape: 4 9 24 24 (20736)
I0819 09:59:30.778192   892 net.cpp:165] Memory required for data: 6362261072
I0819 09:59:30.778198   892 layer_factory.hpp:77] Creating layer LFCN_3_5x5_LFCN_3_5x5_0_split
I0819 09:59:30.778204   892 net.cpp:100] Creating Layer LFCN_3_5x5_LFCN_3_5x5_0_split
I0819 09:59:30.778209   892 net.cpp:434] LFCN_3_5x5_LFCN_3_5x5_0_split <- LFCN_3_5x5
I0819 09:59:30.778214   892 net.cpp:408] LFCN_3_5x5_LFCN_3_5x5_0_split -> LFCN_3_5x5_LFCN_3_5x5_0_split_0
I0819 09:59:30.778220   892 net.cpp:408] LFCN_3_5x5_LFCN_3_5x5_0_split -> LFCN_3_5x5_LFCN_3_5x5_0_split_1
I0819 09:59:30.778254   892 net.cpp:150] Setting up LFCN_3_5x5_LFCN_3_5x5_0_split
I0819 09:59:30.778260   892 net.cpp:157] Top shape: 4 9 24 24 (20736)
I0819 09:59:30.778264   892 net.cpp:157] Top shape: 4 9 24 24 (20736)
I0819 09:59:30.778267   892 net.cpp:165] Memory required for data: 6362426960
I0819 09:59:30.778270   892 layer_factory.hpp:77] Creating layer detection_loss_3_5x5
I0819 09:59:30.778277   892 net.cpp:100] Creating Layer detection_loss_3_5x5
I0819 09:59:30.778280   892 net.cpp:434] detection_loss_3_5x5 <- LFCN_3_5x5_LFCN_3_5x5_0_split_0
I0819 09:59:30.778285   892 net.cpp:434] detection_loss_3_5x5 <- label_3_5x5_data_5_split_0
I0819 09:59:30.778291   892 net.cpp:408] detection_loss_3_5x5 -> loss_3_5x5
I0819 09:59:30.778301   892 layer_factory.hpp:77] Creating layer detection_loss_3_5x5
I0819 09:59:30.778609   892 net.cpp:150] Setting up detection_loss_3_5x5
I0819 09:59:30.778617   892 net.cpp:157] Top shape: 1 1 1 2 (2)
I0819 09:59:30.778620   892 net.cpp:160]     with loss weight 1
I0819 09:59:30.778632   892 net.cpp:165] Memory required for data: 6362426968
I0819 09:59:30.778636   892 layer_factory.hpp:77] Creating layer detection_accuracy_3_5x5
I0819 09:59:30.778642   892 net.cpp:100] Creating Layer detection_accuracy_3_5x5
I0819 09:59:30.778646   892 net.cpp:434] detection_accuracy_3_5x5 <- LFCN_3_5x5_LFCN_3_5x5_0_split_1
I0819 09:59:30.778651   892 net.cpp:434] detection_accuracy_3_5x5 <- label_3_5x5_data_5_split_1
I0819 09:59:30.778656   892 net.cpp:408] detection_accuracy_3_5x5 -> accuracy_3_5x5
I0819 09:59:30.778666   892 net.cpp:408] detection_accuracy_3_5x5 -> boxiou_3_5x5
I0819 09:59:30.778699   892 net.cpp:150] Setting up detection_accuracy_3_5x5
I0819 09:59:30.778705   892 net.cpp:157] Top shape: 1 1 1 2 (2)
I0819 09:59:30.778709   892 net.cpp:157] Top shape: 1 1 1 1 (1)
I0819 09:59:30.778713   892 net.cpp:165] Memory required for data: 6362426980
I0819 09:59:30.778717   892 layer_factory.hpp:77] Creating layer LFCN_3_7x7
I0819 09:59:30.778725   892 net.cpp:100] Creating Layer LFCN_3_7x7
I0819 09:59:30.778730   892 net.cpp:434] LFCN_3_7x7 <- conv6_1_relu6_1_0_split_1
I0819 09:59:30.778735   892 net.cpp:408] LFCN_3_7x7 -> LFCN_3_7x7
I0819 09:59:30.786249   892 net.cpp:150] Setting up LFCN_3_7x7
I0819 09:59:30.786265   892 net.cpp:157] Top shape: 4 9 24 24 (20736)
I0819 09:59:30.786269   892 net.cpp:165] Memory required for data: 6362509924
I0819 09:59:30.786275   892 layer_factory.hpp:77] Creating layer LFCN_3_7x7_LFCN_3_7x7_0_split
I0819 09:59:30.786281   892 net.cpp:100] Creating Layer LFCN_3_7x7_LFCN_3_7x7_0_split
I0819 09:59:30.786285   892 net.cpp:434] LFCN_3_7x7_LFCN_3_7x7_0_split <- LFCN_3_7x7
I0819 09:59:30.786291   892 net.cpp:408] LFCN_3_7x7_LFCN_3_7x7_0_split -> LFCN_3_7x7_LFCN_3_7x7_0_split_0
I0819 09:59:30.786298   892 net.cpp:408] LFCN_3_7x7_LFCN_3_7x7_0_split -> LFCN_3_7x7_LFCN_3_7x7_0_split_1
I0819 09:59:30.786334   892 net.cpp:150] Setting up LFCN_3_7x7_LFCN_3_7x7_0_split
I0819 09:59:30.786340   892 net.cpp:157] Top shape: 4 9 24 24 (20736)
I0819 09:59:30.786345   892 net.cpp:157] Top shape: 4 9 24 24 (20736)
I0819 09:59:30.786348   892 net.cpp:165] Memory required for data: 6362675812
I0819 09:59:30.786352   892 layer_factory.hpp:77] Creating layer detection_loss_3_7x7
I0819 09:59:30.786358   892 net.cpp:100] Creating Layer detection_loss_3_7x7
I0819 09:59:30.786363   892 net.cpp:434] detection_loss_3_7x7 <- LFCN_3_7x7_LFCN_3_7x7_0_split_0
I0819 09:59:30.786367   892 net.cpp:434] detection_loss_3_7x7 <- label_3_7x7_data_6_split_0
I0819 09:59:30.786373   892 net.cpp:408] detection_loss_3_7x7 -> loss_3_7x7
I0819 09:59:30.786381   892 layer_factory.hpp:77] Creating layer detection_loss_3_7x7
I0819 09:59:30.786682   892 net.cpp:150] Setting up detection_loss_3_7x7
I0819 09:59:30.786691   892 net.cpp:157] Top shape: 1 1 1 2 (2)
I0819 09:59:30.786695   892 net.cpp:160]     with loss weight 1
I0819 09:59:30.786702   892 net.cpp:165] Memory required for data: 6362675820
I0819 09:59:30.786706   892 layer_factory.hpp:77] Creating layer detection_accuracy_3_7x7
I0819 09:59:30.786711   892 net.cpp:100] Creating Layer detection_accuracy_3_7x7
I0819 09:59:30.786716   892 net.cpp:434] detection_accuracy_3_7x7 <- LFCN_3_7x7_LFCN_3_7x7_0_split_1
I0819 09:59:30.786720   892 net.cpp:434] detection_accuracy_3_7x7 <- label_3_7x7_data_6_split_1
I0819 09:59:30.786727   892 net.cpp:408] detection_accuracy_3_7x7 -> accuracy_3_7x7
I0819 09:59:30.786734   892 net.cpp:408] detection_accuracy_3_7x7 -> boxiou_3_7x7
I0819 09:59:30.786770   892 net.cpp:150] Setting up detection_accuracy_3_7x7
I0819 09:59:30.786777   892 net.cpp:157] Top shape: 1 1 1 2 (2)
I0819 09:59:30.786780   892 net.cpp:157] Top shape: 1 1 1 1 (1)
I0819 09:59:30.786784   892 net.cpp:165] Memory required for data: 6362675832
I0819 09:59:30.786787   892 layer_factory.hpp:77] Creating layer pool6
I0819 09:59:30.786793   892 net.cpp:100] Creating Layer pool6
I0819 09:59:30.786798   892 net.cpp:434] pool6 <- conv6_1_relu6_1_0_split_2
I0819 09:59:30.786804   892 net.cpp:408] pool6 -> pool6
I0819 09:59:30.786837   892 net.cpp:150] Setting up pool6
I0819 09:59:30.786844   892 net.cpp:157] Top shape: 4 512 12 12 (294912)
I0819 09:59:30.786847   892 net.cpp:165] Memory required for data: 6363855480
I0819 09:59:30.786850   892 layer_factory.hpp:77] Creating layer LFCN_4_5x5
I0819 09:59:30.786859   892 net.cpp:100] Creating Layer LFCN_4_5x5
I0819 09:59:30.786864   892 net.cpp:434] LFCN_4_5x5 <- pool6
I0819 09:59:30.786869   892 net.cpp:408] LFCN_4_5x5 -> LFCN_4_5x5
I0819 09:59:30.791038   892 net.cpp:150] Setting up LFCN_4_5x5
I0819 09:59:30.791060   892 net.cpp:157] Top shape: 4 9 12 12 (5184)
I0819 09:59:30.791064   892 net.cpp:165] Memory required for data: 6363876216
I0819 09:59:30.791072   892 layer_factory.hpp:77] Creating layer LFCN_4_5x5_LFCN_4_5x5_0_split
I0819 09:59:30.791082   892 net.cpp:100] Creating Layer LFCN_4_5x5_LFCN_4_5x5_0_split
I0819 09:59:30.791088   892 net.cpp:434] LFCN_4_5x5_LFCN_4_5x5_0_split <- LFCN_4_5x5
I0819 09:59:30.791095   892 net.cpp:408] LFCN_4_5x5_LFCN_4_5x5_0_split -> LFCN_4_5x5_LFCN_4_5x5_0_split_0
I0819 09:59:30.791103   892 net.cpp:408] LFCN_4_5x5_LFCN_4_5x5_0_split -> LFCN_4_5x5_LFCN_4_5x5_0_split_1
I0819 09:59:30.791139   892 net.cpp:150] Setting up LFCN_4_5x5_LFCN_4_5x5_0_split
I0819 09:59:30.791146   892 net.cpp:157] Top shape: 4 9 12 12 (5184)
I0819 09:59:30.791149   892 net.cpp:157] Top shape: 4 9 12 12 (5184)
I0819 09:59:30.791153   892 net.cpp:165] Memory required for data: 6363917688
I0819 09:59:30.791157   892 layer_factory.hpp:77] Creating layer detection_loss_4_5x5
I0819 09:59:30.791163   892 net.cpp:100] Creating Layer detection_loss_4_5x5
I0819 09:59:30.791167   892 net.cpp:434] detection_loss_4_5x5 <- LFCN_4_5x5_LFCN_4_5x5_0_split_0
I0819 09:59:30.791172   892 net.cpp:434] detection_loss_4_5x5 <- label_4_5x5_data_7_split_0
I0819 09:59:30.791178   892 net.cpp:408] detection_loss_4_5x5 -> loss_4_5x5
I0819 09:59:30.791188   892 layer_factory.hpp:77] Creating layer detection_loss_4_5x5
I0819 09:59:30.791509   892 net.cpp:150] Setting up detection_loss_4_5x5
I0819 09:59:30.791519   892 net.cpp:157] Top shape: 1 1 1 2 (2)
I0819 09:59:30.791522   892 net.cpp:160]     with loss weight 1
I0819 09:59:30.791532   892 net.cpp:165] Memory required for data: 6363917696
I0819 09:59:30.791535   892 layer_factory.hpp:77] Creating layer detection_accuracy_4_5x5
I0819 09:59:30.791541   892 net.cpp:100] Creating Layer detection_accuracy_4_5x5
I0819 09:59:30.791545   892 net.cpp:434] detection_accuracy_4_5x5 <- LFCN_4_5x5_LFCN_4_5x5_0_split_1
I0819 09:59:30.791550   892 net.cpp:434] detection_accuracy_4_5x5 <- label_4_5x5_data_7_split_1
I0819 09:59:30.791558   892 net.cpp:408] detection_accuracy_4_5x5 -> accuracy_4_5x5
I0819 09:59:30.791565   892 net.cpp:408] detection_accuracy_4_5x5 -> boxiou_4_5x5
I0819 09:59:30.791600   892 net.cpp:150] Setting up detection_accuracy_4_5x5
I0819 09:59:30.791607   892 net.cpp:157] Top shape: 1 1 1 2 (2)
I0819 09:59:30.791611   892 net.cpp:157] Top shape: 1 1 1 1 (1)
I0819 09:59:30.791615   892 net.cpp:165] Memory required for data: 6363917708
I0819 09:59:30.791618   892 net.cpp:228] detection_accuracy_4_5x5 does not need backward computation.
I0819 09:59:30.791621   892 net.cpp:226] detection_loss_4_5x5 needs backward computation.
I0819 09:59:30.791625   892 net.cpp:226] LFCN_4_5x5_LFCN_4_5x5_0_split needs backward computation.
I0819 09:59:30.791630   892 net.cpp:226] LFCN_4_5x5 needs backward computation.
…
I0819 09:59:30.803763   892 image_gt_data_layer.cpp:235] output label size 1 : 2,6,96,96
I0819 09:59:30.803814   892 image_gt_data_layer.cpp:235] output label size 2 : 2,6,48,48
I0819 09:59:30.803864   892 image_gt_data_layer.cpp:235] output label size 3 : 2,6,48,48
I0819 09:59:30.803912   892 image_gt_data_layer.cpp:235] output label size 4 : 2,6,24,24
I0819 09:59:30.803959   892 image_gt_data_layer.cpp:235] output label size 5 : 2,6,24,24
I0819 09:59:30.804008   892 image_gt_data_layer.cpp:235] output label size 6 : 2,6,12,12
I0819 09:59:30.841439   892 net.cpp:150] Setting up data
I0819 09:59:30.841473   892 net.cpp:157] Top shape: 2 4 768 768 (4718592)
I0819 09:59:30.841480   892 net.cpp:157] Top shape: 2 6 96 96 (110592)
I0819 09:59:30.841485   892 net.cpp:157] Top shape: 2 6 96 96 (110592)
I0819 09:59:30.841490   892 net.cpp:157] Top shape: 2 6 48 48 (27648)
I0819 09:59:30.841495   892 net.cpp:157] Top shape: 2 6 48 48 (27648)
I0819 09:59:30.841498   892 net.cpp:157] Top shape: 2 6 24 24 (6912)
I0819 09:59:30.841503   892 net.cpp:157] Top shape: 2 6 24 24 (6912)
I0819 09:59:30.841507   892 net.cpp:157] Top shape: 2 6 12 12 (1728)
I0819 09:59:30.841511   892 net.cpp:165] Memory required for data: 20042496
I0819 09:59:30.841518   892 layer_factory.hpp:77] Creating layer label_1_5x5_data_1_split
I0819 09:59:30.841548   892 net.cpp:100] Creating Layer label_1_5x5_data_1_split
I0819 09:59:30.841555   892 net.cpp:434] label_1_5x5_data_1_split <- label_1_5x5
I0819 09:59:30.841562   892 net.cpp:408] label_1_5x5_data_1_split -> label_1_5x5_data_1_split_0
I0819 09:59:30.841578   892 net.cpp:408] label_1_5x5_data_1_split -> label_1_5x5_data_1_split_1
I0819 09:59:30.841915   892 net.cpp:150] Setting up label_1_5x5_data_1_split
I0819 09:59:30.841975   892 net.cpp:157] Top shape: 2 6 96 96 (110592)
I0819 09:59:30.841992   892 net.cpp:157] Top shape: 2 6 96 96 (110592)
I0819 09:59:30.842007   892 net.cpp:165] Memory required for data: 20927232
I0819 09:59:30.842023   892 layer_factory.hpp:77] Creating layer label_1_7x7_data_2_split
I0819 09:59:30.842048   892 net.cpp:100] Creating Layer label_1_7x7_data_2_split
I0819 09:59:30.842064   892 net.cpp:434] label_1_7x7_data_2_split <- label_1_7x7
I0819 09:59:30.842084   892 net.cpp:408] label_1_7x7_data_2_split -> label_1_7x7_data_2_split_0
I0819 09:59:30.842110   892 net.cpp:408] label_1_7x7_data_2_split -> label_1_7x7_data_2_split_1
I0819 09:59:30.842223   892 net.cpp:150] Setting up label_1_7x7_data_2_split
I0819 09:59:30.842243   892 net.cpp:157] Top shape: 2 6 96 96 (110592)
I0819 09:59:30.842260   892 net.cpp:157] Top shape: 2 6 96 96 (110592)
I0819 09:59:30.842273   892 net.cpp:165] Memory required for data: 21811968
I0819 09:59:30.842286   892 layer_factory.hpp:77] Creating layer label_2_5x5_data_3_split
I0819 09:59:30.842303   892 net.cpp:100] Creating Layer label_2_5x5_data_3_split
I0819 09:59:30.842316   892 net.cpp:434] label_2_5x5_data_3_split <- label_2_5x5
I0819 09:59:30.842332   892 net.cpp:408] label_2_5x5_data_3_split -> label_2_5x5_data_3_split_0
I0819 09:59:30.842352   892 net.cpp:408] label_2_5x5_data_3_split -> label_2_5x5_data_3_split_1
I0819 09:59:30.842455   892 net.cpp:150] Setting up label_2_5x5_data_3_split
I0819 09:59:30.842475   892 net.cpp:157] Top shape: 2 6 48 48 (27648)
I0819 09:59:30.842491   892 net.cpp:157] Top shape: 2 6 48 48 (27648)
I0819 09:59:30.842504   892 net.cpp:165] Memory required for data: 22033152
I0819 09:59:30.842515   892 layer_factory.hpp:77] Creating layer label_2_7x7_data_4_split
I0819 09:59:30.842532   892 net.cpp:100] Creating Layer label_2_7x7_data_4_split
I0819 09:59:30.842545   892 net.cpp:434] label_2_7x7_data_4_split <- label_2_7x7
I0819 09:59:30.842561   892 net.cpp:408] label_2_7x7_data_4_split -> label_2_7x7_data_4_split_0
I0819 09:59:30.842581   892 net.cpp:408] label_2_7x7_data_4_split -> label_2_7x7_data_4_split_1
I0819 09:59:30.842690   892 net.cpp:150] Setting up label_2_7x7_data_4_split
I0819 09:59:30.842710   892 net.cpp:157] Top shape: 2 6 48 48 (27648)
I0819 09:59:30.842725   892 net.cpp:157] Top shape: 2 6 48 48 (27648)
I0819 09:59:30.842738   892 net.cpp:165] Memory required for data: 22254336
I0819 09:59:30.842749   892 layer_factory.hpp:77] Creating layer label_3_5x5_data_5_split
I0819 09:59:30.842767   892 net.cpp:100] Creating Layer label_3_5x5_data_5_split
I0819 09:59:30.842778   892 net.cpp:434] label_3_5x5_data_5_split <- label_3_5x5
I0819 09:59:30.842802   892 net.cpp:408] label_3_5x5_data_5_split -> label_3_5x5_data_5_split_0
I0819 09:59:30.842824   892 net.cpp:408] label_3_5x5_data_5_split -> label_3_5x5_data_5_split_1
I0819 09:59:30.842928   892 net.cpp:150] Setting up label_3_5x5_data_5_split
I0819 09:59:30.842948   892 net.cpp:157] Top shape: 2 6 24 24 (6912)
I0819 09:59:30.842959   892 net.cpp:157] Top shape: 2 6 24 24 (6912)
I0819 09:59:30.842967   892 net.cpp:165] Memory required for data: 22309632
I0819 09:59:30.842975   892 layer_factory.hpp:77] Creating layer label_3_7x7_data_6_split
I0819 09:59:30.842988   892 net.cpp:100] Creating Layer label_3_7x7_data_6_split
I0819 09:59:30.842996   892 net.cpp:434] label_3_7x7_data_6_split <- label_3_7x7
I0819 09:59:30.843009   892 net.cpp:408] label_3_7x7_data_6_split -> label_3_7x7_data_6_split_0
I0819 09:59:30.843024   892 net.cpp:408] label_3_7x7_data_6_split -> label_3_7x7_data_6_split_1
I0819 09:59:30.843098   892 net.cpp:150] Setting up label_3_7x7_data_6_split
I0819 09:59:30.843113   892 net.cpp:157] Top shape: 2 6 24 24 (6912)
I0819 09:59:30.843124   892 net.cpp:157] Top shape: 2 6 24 24 (6912)
I0819 09:59:30.843132   892 net.cpp:165] Memory required for data: 22364928
I0819 09:59:30.843139   892 layer_factory.hpp:77] Creating layer label_4_5x5_data_7_split
I0819 09:59:30.843148   892 net.cpp:100] Creating Layer label_4_5x5_data_7_split
I0819 09:59:30.843158   892 net.cpp:434] label_4_5x5_data_7_split <- label_4_5x5
I0819 09:59:30.843168   892 net.cpp:408] label_4_5x5_data_7_split -> label_4_5x5_data_7_split_0
I0819 09:59:30.843180   892 net.cpp:408] label_4_5x5_data_7_split -> label_4_5x5_data_7_split_1
I0819 09:59:30.843258   892 net.cpp:150] Setting up label_4_5x5_data_7_split
I0819 09:59:30.843271   892 net.cpp:157] Top shape: 2 6 12 12 (1728)
I0819 09:59:30.843281   892 net.cpp:157] Top shape: 2 6 12 12 (1728)
I0819 09:59:30.843289   892 net.cpp:165] Memory required for data: 22378752
I0819 09:59:30.843297   892 layer_factory.hpp:77] Creating layer slice
I0819 09:59:30.843313   892 net.cpp:100] Creating Layer slice
I0819 09:59:30.843323   892 net.cpp:434] slice <- data
I0819 09:59:30.843333   892 net.cpp:408] slice -> data123
I0819 09:59:30.843348   892 net.cpp:408] slice -> ch4
I0819 09:59:30.843423   892 net.cpp:150] Setting up slice
I0819 09:59:30.843475   892 net.cpp:157] Top shape: 2 3 768 768 (3538944)
I0819 09:59:30.843497   892 net.cpp:157] Top shape: 2 1 768 768 (1179648)
I0819 09:59:30.843509   892 net.cpp:165] Memory required for data: 41253120
I0819 09:59:30.843523   892 layer_factory.hpp:77] Creating layer conv1_1
I0819 09:59:30.843550   892 net.cpp:100] Creating Layer conv1_1
I0819 09:59:30.843560   892 net.cpp:434] conv1_1 <- data123
I0819 09:59:30.843571   892 net.cpp:408] conv1_1 -> conv1_1
I0819 09:59:30.852821   892 net.cpp:150] Setting up conv1_1
I0819 09:59:30.852864   892 net.cpp:157] Top shape: 2 64 768 768 (75497472)
I0819 09:59:30.852874   892 net.cpp:165] Memory required for data: 343243008
I0819 09:59:30.852902   892 layer_factory.hpp:77] Creating layer relu1_1
I0819 09:59:30.852922   892 net.cpp:100] Creating Layer relu1_1
I0819 09:59:30.852933   892 net.cpp:434] relu1_1 <- conv1_1
I0819 09:59:30.852947   892 net.cpp:395] relu1_1 -> conv1_1 (in-place)
I0819 09:59:30.854180   892 net.cpp:150] Setting up relu1_1
I0819 09:59:30.854219   892 net.cpp:157] Top shape: 2 64 768 768 (75497472)
I0819 09:59:30.854229   892 net.cpp:165] Memory required for data: 645232896
I0819 09:59:30.854240   892 layer_factory.hpp:77] Creating layer conv1_2
I0819 09:59:30.854264   892 net.cpp:100] Creating Layer conv1_2
I0819 09:59:30.854276   892 net.cpp:434] conv1_2 <- conv1_1
I0819 09:59:30.854293   892 net.cpp:408] conv1_2 -> conv1_2
I0819 09:59:30.858850   892 net.cpp:150] Setting up conv1_2
I0819 09:59:30.858886   892 net.cpp:157] Top shape: 2 64 768 768 (75497472)
I0819 09:59:30.858891   892 net.cpp:165] Memory required for data: 947222784
I0819 09:59:30.858911   892 layer_factory.hpp:77] Creating layer relu1_2
I0819 09:59:30.858927   892 net.cpp:100] Creating Layer relu1_2
I0819 09:59:30.858933   892 net.cpp:434] relu1_2 <- conv1_2
I0819 09:59:30.858942   892 net.cpp:395] relu1_2 -> conv1_2 (in-place)
I0819 09:59:30.859241   892 net.cpp:150] Setting up relu1_2
I0819 09:59:30.859251   892 net.cpp:157] Top shape: 2 64 768 768 (75497472)
I0819 09:59:30.859254   892 net.cpp:165] Memory required for data: 1249212672
I0819 09:59:30.859259   892 layer_factory.hpp:77] Creating layer pool1
I0819 09:59:30.859268   892 net.cpp:100] Creating Layer pool1
I0819 09:59:30.859273   892 net.cpp:434] pool1 <- conv1_2
I0819 09:59:30.859282   892 net.cpp:408] pool1 -> pool1
I0819 09:59:30.859357   892 net.cpp:150] Setting up pool1
I0819 09:59:30.859366   892 net.cpp:157] Top shape: 2 64 384 384 (18874368)
I0819 09:59:30.859369   892 net.cpp:165] Memory required for data: 1324710144
I0819 09:59:30.859374   892 layer_factory.hpp:77] Creating layer ch4_pool1
I0819 09:59:30.859380   892 net.cpp:100] Creating Layer ch4_pool1
I0819 09:59:30.859383   892 net.cpp:434] ch4_pool1 <- ch4
I0819 09:59:30.859390   892 net.cpp:408] ch4_pool1 -> ch4_pool1
I0819 09:59:30.859441   892 net.cpp:150] Setting up ch4_pool1
I0819 09:59:30.859468   892 net.cpp:157] Top shape: 2 1 384 384 (294912)
I0819 09:59:30.859488   892 net.cpp:165] Memory required for data: 1325889792
I0819 09:59:30.859504   892 layer_factory.hpp:77] Creating layer ch4_pool1_ch4_pool1_0_split
I0819 09:59:30.859515   892 net.cpp:100] Creating Layer ch4_pool1_ch4_pool1_0_split
I0819 09:59:30.859521   892 net.cpp:434] ch4_pool1_ch4_pool1_0_split <- ch4_pool1
I0819 09:59:30.859529   892 net.cpp:408] ch4_pool1_ch4_pool1_0_split -> ch4_pool1_ch4_pool1_0_split_0
I0819 09:59:30.859535   892 net.cpp:408] ch4_pool1_ch4_pool1_0_split -> ch4_pool1_ch4_pool1_0_split_1
I0819 09:59:30.859580   892 net.cpp:150] Setting up ch4_pool1_ch4_pool1_0_split
I0819 09:59:30.859587   892 net.cpp:157] Top shape: 2 1 384 384 (294912)
I0819 09:59:30.859591   892 net.cpp:157] Top shape: 2 1 384 384 (294912)
I0819 09:59:30.859596   892 net.cpp:165] Memory required for data: 1328249088
I0819 09:59:30.859599   892 layer_factory.hpp:77] Creating layer pool1_concat
I0819 09:59:30.859609   892 net.cpp:100] Creating Layer pool1_concat
I0819 09:59:30.859614   892 net.cpp:434] pool1_concat <- pool1
I0819 09:59:30.859619   892 net.cpp:434] pool1_concat <- ch4_pool1_ch4_pool1_0_split_0
I0819 09:59:30.859624   892 net.cpp:408] pool1_concat -> pool1_new
I0819 09:59:30.859649   892 net.cpp:150] Setting up pool1_concat
I0819 09:59:30.859657   892 net.cpp:157] Top shape: 2 65 384 384 (19169280)
I0819 09:59:30.859659   892 net.cpp:165] Memory required for data: 1404926208
I0819 09:59:30.859663   892 layer_factory.hpp:77] Creating layer conv2_1_new
I0819 09:59:30.859674   892 net.cpp:100] Creating Layer conv2_1_new
I0819 09:59:30.859680   892 net.cpp:434] conv2_1_new <- pool1_new
I0819 09:59:30.859685   892 net.cpp:408] conv2_1_new -> conv2_1
I0819 09:59:30.865671   892 net.cpp:150] Setting up conv2_1_new
I0819 09:59:30.865722   892 net.cpp:157] Top shape: 2 128 384 384 (37748736)
I0819 09:59:30.865727   892 net.cpp:165] Memory required for data: 1555921152
I0819 09:59:30.865756   892 layer_factory.hpp:77] Creating layer relu2_1
I0819 09:59:30.865773   892 net.cpp:100] Creating Layer relu2_1
I0819 09:59:30.865782   892 net.cpp:434] relu2_1 <- conv2_1
I0819 09:59:30.865787   892 net.cpp:395] relu2_1 -> conv2_1 (in-place)
I0819 09:59:30.866098   892 net.cpp:150] Setting up relu2_1
I0819 09:59:30.866111   892 net.cpp:157] Top shape: 2 128 384 384 (37748736)
I0819 09:59:30.866114   892 net.cpp:165] Memory required for data: 1706916096
I0819 09:59:30.866118   892 layer_factory.hpp:77] Creating layer conv2_2
I0819 09:59:30.866130   892 net.cpp:100] Creating Layer conv2_2
I0819 09:59:30.866134   892 net.cpp:434] conv2_2 <- conv2_1
I0819 09:59:30.866142   892 net.cpp:408] conv2_2 -> conv2_2
I0819 09:59:30.868491   892 net.cpp:150] Setting up conv2_2
I0819 09:59:30.868517   892 net.cpp:157] Top shape: 2 128 384 384 (37748736)
I0819 09:59:30.868521   892 net.cpp:165] Memory required for data: 1857911040
I0819 09:59:30.868530   892 layer_factory.hpp:77] Creating layer relu2_2
I0819 09:59:30.868542   892 net.cpp:100] Creating Layer relu2_2
I0819 09:59:30.868548   892 net.cpp:434] relu2_2 <- conv2_2
I0819 09:59:30.868553   892 net.cpp:395] relu2_2 -> conv2_2 (in-place)
I0819 09:59:30.868721   892 net.cpp:150] Setting up relu2_2
I0819 09:59:30.868728   892 net.cpp:157] Top shape: 2 128 384 384 (37748736)
I0819 09:59:30.868731   892 net.cpp:165] Memory required for data: 2008905984
I0819 09:59:30.868736   892 layer_factory.hpp:77] Creating layer pool2
I0819 09:59:30.868743   892 net.cpp:100] Creating Layer pool2
I0819 09:59:30.868747   892 net.cpp:434] pool2 <- conv2_2
I0819 09:59:30.868752   892 net.cpp:408] pool2 -> pool2
I0819 09:59:30.868794   892 net.cpp:150] Setting up pool2
I0819 09:59:30.868799   892 net.cpp:157] Top shape: 2 128 192 192 (9437184)
I0819 09:59:30.868803   892 net.cpp:165] Memory required for data: 2046654720
I0819 09:59:30.868805   892 layer_factory.hpp:77] Creating layer ch4_pool2
I0819 09:59:30.868810   892 net.cpp:100] Creating Layer ch4_pool2
I0819 09:59:30.868815   892 net.cpp:434] ch4_pool2 <- ch4_pool1_ch4_pool1_0_split_1
I0819 09:59:30.868820   892 net.cpp:408] ch4_pool2 -> ch4_pool2
I0819 09:59:30.868854   892 net.cpp:150] Setting up ch4_pool2
I0819 09:59:30.868857   892 net.cpp:157] Top shape: 2 1 192 192 (73728)
I0819 09:59:30.868860   892 net.cpp:165] Memory required for data: 2046949632
I0819 09:59:30.868863   892 layer_factory.hpp:77] Creating layer ch4_pool2_ch4_pool2_0_split
I0819 09:59:30.868868   892 net.cpp:100] Creating Layer ch4_pool2_ch4_pool2_0_split
I0819 09:59:30.868872   892 net.cpp:434] ch4_pool2_ch4_pool2_0_split <- ch4_pool2
I0819 09:59:30.868876   892 net.cpp:408] ch4_pool2_ch4_pool2_0_split -> ch4_pool2_ch4_pool2_0_split_0
I0819 09:59:30.868882   892 net.cpp:408] ch4_pool2_ch4_pool2_0_split -> ch4_pool2_ch4_pool2_0_split_1
I0819 09:59:30.868913   892 net.cpp:150] Setting up ch4_pool2_ch4_pool2_0_split
I0819 09:59:30.868918   892 net.cpp:157] Top shape: 2 1 192 192 (73728)
I0819 09:59:30.868922   892 net.cpp:157] Top shape: 2 1 192 192 (73728)
I0819 09:59:30.868926   892 net.cpp:165] Memory required for data: 2047539456
I0819 09:59:30.868928   892 layer_factory.hpp:77] Creating layer pool2_concat
I0819 09:59:30.868934   892 net.cpp:100] Creating Layer pool2_concat
I0819 09:59:30.868937   892 net.cpp:434] pool2_concat <- pool2
I0819 09:59:30.868942   892 net.cpp:434] pool2_concat <- ch4_pool2_ch4_pool2_0_split_0
I0819 09:59:30.868945   892 net.cpp:408] pool2_concat -> pool2_new
I0819 09:59:30.868965   892 net.cpp:150] Setting up pool2_concat
I0819 09:59:30.868970   892 net.cpp:157] Top shape: 2 129 192 192 (9510912)
I0819 09:59:30.868973   892 net.cpp:165] Memory required for data: 2085583104
I0819 09:59:30.868976   892 layer_factory.hpp:77] Creating layer conv3_1_new
I0819 09:59:30.868984   892 net.cpp:100] Creating Layer conv3_1_new
I0819 09:59:30.868988   892 net.cpp:434] conv3_1_new <- pool2_new
I0819 09:59:30.868993   892 net.cpp:408] conv3_1_new -> conv3_1
I0819 09:59:30.874325   892 net.cpp:150] Setting up conv3_1_new
I0819 09:59:30.874353   892 net.cpp:157] Top shape: 2 256 192 192 (18874368)
I0819 09:59:30.874359   892 net.cpp:165] Memory required for data: 2161080576
I0819 09:59:30.874378   892 layer_factory.hpp:77] Creating layer relu3_1
I0819 09:59:30.874390   892 net.cpp:100] Creating Layer relu3_1
I0819 09:59:30.874397   892 net.cpp:434] relu3_1 <- conv3_1
I0819 09:59:30.874406   892 net.cpp:395] relu3_1 -> conv3_1 (in-place)
I0819 09:59:30.874639   892 net.cpp:150] Setting up relu3_1
I0819 09:59:30.874650   892 net.cpp:157] Top shape: 2 256 192 192 (18874368)
I0819 09:59:30.874655   892 net.cpp:165] Memory required for data: 2236578048
I0819 09:59:30.874660   892 layer_factory.hpp:77] Creating layer conv3_2
I0819 09:59:30.874670   892 net.cpp:100] Creating Layer conv3_2
I0819 09:59:30.874676   892 net.cpp:434] conv3_2 <- conv3_1
I0819 09:59:30.874686   892 net.cpp:408] conv3_2 -> conv3_2
I0819 09:59:30.877799   892 net.cpp:150] Setting up conv3_2
I0819 09:59:30.877822   892 net.cpp:157] Top shape: 2 256 192 192 (18874368)
I0819 09:59:30.877827   892 net.cpp:165] Memory required for data: 2312075520
I0819 09:59:30.877840   892 layer_factory.hpp:77] Creating layer relu3_2
I0819 09:59:30.877851   892 net.cpp:100] Creating Layer relu3_2
I0819 09:59:30.877871   892 net.cpp:434] relu3_2 <- conv3_2
I0819 09:59:30.877882   892 net.cpp:395] relu3_2 -> conv3_2 (in-place)
I0819 09:59:30.878139   892 net.cpp:150] Setting up relu3_2
I0819 09:59:30.878149   892 net.cpp:157] Top shape: 2 256 192 192 (18874368)
I0819 09:59:30.878151   892 net.cpp:165] Memory required for data: 2387572992
I0819 09:59:30.878155   892 layer_factory.hpp:77] Creating layer conv3_3
I0819 09:59:30.878165   892 net.cpp:100] Creating Layer conv3_3
I0819 09:59:30.878170   892 net.cpp:434] conv3_3 <- conv3_2
I0819 09:59:30.878175   892 net.cpp:408] conv3_3 -> conv3_3
I0819 09:59:30.880969   892 net.cpp:150] Setting up conv3_3
I0819 09:59:30.880986   892 net.cpp:157] Top shape: 2 256 192 192 (18874368)
I0819 09:59:30.880990   892 net.cpp:165] Memory required for data: 2463070464
I0819 09:59:30.881000   892 layer_factory.hpp:77] Creating layer relu3_3
I0819 09:59:30.881006   892 net.cpp:100] Creating Layer relu3_3
I0819 09:59:30.881011   892 net.cpp:434] relu3_3 <- conv3_3
I0819 09:59:30.881017   892 net.cpp:395] relu3_3 -> conv3_3 (in-place)
I0819 09:59:30.881520   892 net.cpp:150] Setting up relu3_3
I0819 09:59:30.881531   892 net.cpp:157] Top shape: 2 256 192 192 (18874368)
I0819 09:59:30.881536   892 net.cpp:165] Memory required for data: 2538567936
I0819 09:59:30.881539   892 layer_factory.hpp:77] Creating layer pool3
I0819 09:59:30.881548   892 net.cpp:100] Creating Layer pool3
I0819 09:59:30.881552   892 net.cpp:434] pool3 <- conv3_3
I0819 09:59:30.881558   892 net.cpp:408] pool3 -> pool3
I0819 09:59:30.881603   892 net.cpp:150] Setting up pool3
I0819 09:59:30.881609   892 net.cpp:157] Top shape: 2 256 96 96 (4718592)
I0819 09:59:30.881613   892 net.cpp:165] Memory required for data: 2557442304
I0819 09:59:30.881616   892 layer_factory.hpp:77] Creating layer ch4_pool3
I0819 09:59:30.881628   892 net.cpp:100] Creating Layer ch4_pool3
I0819 09:59:30.881631   892 net.cpp:434] ch4_pool3 <- ch4_pool2_ch4_pool2_0_split_1
I0819 09:59:30.881636   892 net.cpp:408] ch4_pool3 -> ch4_pool3
I0819 09:59:30.881672   892 net.cpp:150] Setting up ch4_pool3
I0819 09:59:30.881677   892 net.cpp:157] Top shape: 2 1 96 96 (18432)
I0819 09:59:30.881681   892 net.cpp:165] Memory required for data: 2557516032
I0819 09:59:30.881685   892 layer_factory.hpp:77] Creating layer ch4_pool3_ch4_pool3_0_split
I0819 09:59:30.881690   892 net.cpp:100] Creating Layer ch4_pool3_ch4_pool3_0_split
I0819 09:59:30.881693   892 net.cpp:434] ch4_pool3_ch4_pool3_0_split <- ch4_pool3
I0819 09:59:30.881700   892 net.cpp:408] ch4_pool3_ch4_pool3_0_split -> ch4_pool3_ch4_pool3_0_split_0
I0819 09:59:30.881705   892 net.cpp:408] ch4_pool3_ch4_pool3_0_split -> ch4_pool3_ch4_pool3_0_split_1
I0819 09:59:30.881738   892 net.cpp:150] Setting up ch4_pool3_ch4_pool3_0_split
I0819 09:59:30.881747   892 net.cpp:157] Top shape: 2 1 96 96 (18432)
I0819 09:59:30.881750   892 net.cpp:157] Top shape: 2 1 96 96 (18432)
I0819 09:59:30.881753   892 net.cpp:165] Memory required for data: 2557663488
I0819 09:59:30.881757   892 layer_factory.hpp:77] Creating layer pool3_concat
I0819 09:59:30.881762   892 net.cpp:100] Creating Layer pool3_concat
I0819 09:59:30.881767   892 net.cpp:434] pool3_concat <- pool3
I0819 09:59:30.881770   892 net.cpp:434] pool3_concat <- ch4_pool3_ch4_pool3_0_split_0
I0819 09:59:30.881774   892 net.cpp:408] pool3_concat -> pool3_new
I0819 09:59:30.881798   892 net.cpp:150] Setting up pool3_concat
I0819 09:59:30.881803   892 net.cpp:157] Top shape: 2 257 96 96 (4737024)
I0819 09:59:30.881806   892 net.cpp:165] Memory required for data: 2576611584
I0819 09:59:30.881809   892 layer_factory.hpp:77] Creating layer conv4_1_new
I0819 09:59:30.881819   892 net.cpp:100] Creating Layer conv4_1_new
I0819 09:59:30.881821   892 net.cpp:434] conv4_1_new <- pool3_new
I0819 09:59:30.881827   892 net.cpp:408] conv4_1_new -> conv4_1
I0819 09:59:30.889156   892 net.cpp:150] Setting up conv4_1_new
I0819 09:59:30.889394   892 net.cpp:157] Top shape: 2 512 96 96 (9437184)
I0819 09:59:30.889412   892 net.cpp:165] Memory required for data: 2614360320
I0819 09:59:30.889461   892 layer_factory.hpp:77] Creating layer relu4_1
I0819 09:59:30.889513   892 net.cpp:100] Creating Layer relu4_1
I0819 09:59:30.889541   892 net.cpp:434] relu4_1 <- conv4_1
I0819 09:59:30.889576   892 net.cpp:395] relu4_1 -> conv4_1 (in-place)
I0819 09:59:30.890170   892 net.cpp:150] Setting up relu4_1
I0819 09:59:30.890192   892 net.cpp:157] Top shape: 2 512 96 96 (9437184)
I0819 09:59:30.890200   892 net.cpp:165] Memory required for data: 2652109056
I0819 09:59:30.890208   892 layer_factory.hpp:77] Creating layer conv4_2
I0819 09:59:30.890233   892 net.cpp:100] Creating Layer conv4_2
I0819 09:59:30.890239   892 net.cpp:434] conv4_2 <- conv4_1
I0819 09:59:30.890245   892 net.cpp:408] conv4_2 -> conv4_2
I0819 09:59:30.898648   892 net.cpp:150] Setting up conv4_2
I0819 09:59:30.898679   892 net.cpp:157] Top shape: 2 512 96 96 (9437184)
I0819 09:59:30.898686   892 net.cpp:165] Memory required for data: 2689857792
I0819 09:59:30.898705   892 layer_factory.hpp:77] Creating layer relu4_2
I0819 09:59:30.898717   892 net.cpp:100] Creating Layer relu4_2
I0819 09:59:30.898728   892 net.cpp:434] relu4_2 <- conv4_2
I0819 09:59:30.898738   892 net.cpp:395] relu4_2 -> conv4_2 (in-place)
I0819 09:59:30.898967   892 net.cpp:150] Setting up relu4_2
I0819 09:59:30.898980   892 net.cpp:157] Top shape: 2 512 96 96 (9437184)
I0819 09:59:30.898984   892 net.cpp:165] Memory required for data: 2727606528
I0819 09:59:30.898989   892 layer_factory.hpp:77] Creating layer conv4_3
I0819 09:59:30.899003   892 net.cpp:100] Creating Layer conv4_3
I0819 09:59:30.899009   892 net.cpp:434] conv4_3 <- conv4_2
I0819 09:59:30.899018   892 net.cpp:408] conv4_3 -> conv4_3
I0819 09:59:30.906733   892 net.cpp:150] Setting up conv4_3
I0819 09:59:30.906788   892 net.cpp:157] Top shape: 2 512 96 96 (9437184)
I0819 09:59:30.906795   892 net.cpp:165] Memory required for data: 2765355264
I0819 09:59:30.906814   892 layer_factory.hpp:77] Creating layer relu4_3
I0819 09:59:30.906842   892 net.cpp:100] Creating Layer relu4_3
I0819 09:59:30.906852   892 net.cpp:434] relu4_3 <- conv4_3
I0819 09:59:30.906862   892 net.cpp:395] relu4_3 -> conv4_3 (in-place)
I0819 09:59:30.907068   892 net.cpp:150] Setting up relu4_3
I0819 09:59:30.907080   892 net.cpp:157] Top shape: 2 512 96 96 (9437184)
I0819 09:59:30.907085   892 net.cpp:165] Memory required for data: 2803104000
I0819 09:59:30.907090   892 layer_factory.hpp:77] Creating layer conv4_concat
I0819 09:59:30.907101   892 net.cpp:100] Creating Layer conv4_concat
I0819 09:59:30.907109   892 net.cpp:434] conv4_concat <- conv4_3
I0819 09:59:30.907115   892 net.cpp:434] conv4_concat <- ch4_pool3_ch4_pool3_0_split_1
I0819 09:59:30.907124   892 net.cpp:408] conv4_concat -> conv4_3_new
I0819 09:59:30.907205   892 net.cpp:150] Setting up conv4_concat
I0819 09:59:30.907213   892 net.cpp:157] Top shape: 2 513 96 96 (9455616)
I0819 09:59:30.907218   892 net.cpp:165] Memory required for data: 2840926464
I0819 09:59:30.907223   892 layer_factory.hpp:77] Creating layer conv4_3_new_conv4_concat_0_split
I0819 09:59:30.907232   892 net.cpp:100] Creating Layer conv4_3_new_conv4_concat_0_split
I0819 09:59:30.907236   892 net.cpp:434] conv4_3_new_conv4_concat_0_split <- conv4_3_new
I0819 09:59:30.907245   892 net.cpp:408] conv4_3_new_conv4_concat_0_split -> conv4_3_new_conv4_concat_0_split_0
I0819 09:59:30.907254   892 net.cpp:408] conv4_3_new_conv4_concat_0_split -> conv4_3_new_conv4_concat_0_split_1
I0819 09:59:30.907356   892 net.cpp:150] Setting up conv4_3_new_conv4_concat_0_split
I0819 09:59:30.907366   892 net.cpp:157] Top shape: 2 513 96 96 (9455616)
I0819 09:59:30.907372   892 net.cpp:157] Top shape: 2 513 96 96 (9455616)
I0819 09:59:30.907377   892 net.cpp:165] Memory required for data: 2916571392
I0819 09:59:30.907382   892 layer_factory.hpp:77] Creating layer loss1_conv1
I0819 09:59:30.907398   892 net.cpp:100] Creating Layer loss1_conv1
I0819 09:59:30.907404   892 net.cpp:434] loss1_conv1 <- conv4_3_new_conv4_concat_0_split_0
I0819 09:59:30.907413   892 net.cpp:408] loss1_conv1 -> loss1_conv1
I0819 09:59:30.974262   892 net.cpp:150] Setting up loss1_conv1
I0819 09:59:30.974300   892 net.cpp:157] Top shape: 2 512 96 96 (9437184)
I0819 09:59:30.974308   892 net.cpp:165] Memory required for data: 2954320128
I0819 09:59:30.974323   892 layer_factory.hpp:77] Creating layer loss_relu1
I0819 09:59:30.974340   892 net.cpp:100] Creating Layer loss_relu1
I0819 09:59:30.974349   892 net.cpp:434] loss_relu1 <- loss1_conv1
I0819 09:59:30.974369   892 net.cpp:395] loss_relu1 -> loss1_conv1 (in-place)
I0819 09:59:30.974540   892 net.cpp:150] Setting up loss_relu1
I0819 09:59:30.974552   892 net.cpp:157] Top shape: 2 512 96 96 (9437184)
I0819 09:59:30.974557   892 net.cpp:165] Memory required for data: 2992068864
I0819 09:59:30.974561   892 layer_factory.hpp:77] Creating layer loss1_conv1_loss_relu1_0_split
I0819 09:59:30.974572   892 net.cpp:100] Creating Layer loss1_conv1_loss_relu1_0_split
I0819 09:59:30.974578   892 net.cpp:434] loss1_conv1_loss_relu1_0_split <- loss1_conv1
I0819 09:59:30.974586   892 net.cpp:408] loss1_conv1_loss_relu1_0_split -> loss1_conv1_loss_relu1_0_split_0
I0819 09:59:30.974597   892 net.cpp:408] loss1_conv1_loss_relu1_0_split -> loss1_conv1_loss_relu1_0_split_1
I0819 09:59:30.974645   892 net.cpp:150] Setting up loss1_conv1_loss_relu1_0_split
I0819 09:59:30.974654   892 net.cpp:157] Top shape: 2 512 96 96 (9437184)
I0819 09:59:30.974660   892 net.cpp:157] Top shape: 2 512 96 96 (9437184)
I0819 09:59:30.974664   892 net.cpp:165] Memory required for data: 3067566336
I0819 09:59:30.974669   892 layer_factory.hpp:77] Creating layer LFCN_1_5x5
I0819 09:59:30.974684   892 net.cpp:100] Creating Layer LFCN_1_5x5
I0819 09:59:30.974689   892 net.cpp:434] LFCN_1_5x5 <- loss1_conv1_loss_relu1_0_split_0
I0819 09:59:30.974700   892 net.cpp:408] LFCN_1_5x5 -> LFCN_1_5x5
I0819 09:59:30.980247   892 net.cpp:150] Setting up LFCN_1_5x5
I0819 09:59:30.980275   892 net.cpp:157] Top shape: 2 9 96 96 (165888)
I0819 09:59:30.980281   892 net.cpp:165] Memory required for data: 3068229888
I0819 09:59:30.980295   892 layer_factory.hpp:77] Creating layer LFCN_1_5x5_LFCN_1_5x5_0_split
I0819 09:59:30.980307   892 net.cpp:100] Creating Layer LFCN_1_5x5_LFCN_1_5x5_0_split
I0819 09:59:30.980315   892 net.cpp:434] LFCN_1_5x5_LFCN_1_5x5_0_split <- LFCN_1_5x5
I0819 09:59:30.980329   892 net.cpp:408] LFCN_1_5x5_LFCN_1_5x5_0_split -> LFCN_1_5x5_LFCN_1_5x5_0_split_0
I0819 09:59:30.980343   892 net.cpp:408] LFCN_1_5x5_LFCN_1_5x5_0_split -> LFCN_1_5x5_LFCN_1_5x5_0_split_1
I0819 09:59:30.980389   892 net.cpp:150] Setting up LFCN_1_5x5_LFCN_1_5x5_0_split
I0819 09:59:30.980398   892 net.cpp:157] Top shape: 2 9 96 96 (165888)
I0819 09:59:30.980404   892 net.cpp:157] Top shape: 2 9 96 96 (165888)
I0819 09:59:30.980410   892 net.cpp:165] Memory required for data: 3069556992
I0819 09:59:30.980415   892 layer_factory.hpp:77] Creating layer detection_loss_1_5x5
I0819 09:59:30.980427   892 net.cpp:100] Creating Layer detection_loss_1_5x5
I0819 09:59:30.980434   892 net.cpp:434] detection_loss_1_5x5 <- LFCN_1_5x5_LFCN_1_5x5_0_split_0
I0819 09:59:30.980442   892 net.cpp:434] detection_loss_1_5x5 <- label_1_5x5_data_1_split_0
I0819 09:59:30.980453   892 net.cpp:408] detection_loss_1_5x5 -> loss_1_5x5
I0819 09:59:30.980468   892 layer_factory.hpp:77] Creating layer detection_loss_1_5x5
I0819 09:59:30.980859   892 net.cpp:150] Setting up detection_loss_1_5x5
I0819 09:59:30.980870   892 net.cpp:157] Top shape: 1 1 1 2 (2)
I0819 09:59:30.980875   892 net.cpp:160]     with loss weight 0.9
I0819 09:59:30.980888   892 net.cpp:165] Memory required for data: 3069557000
I0819 09:59:30.980895   892 layer_factory.hpp:77] Creating layer detection_accuracy_1_5x5
I0819 09:59:30.980906   892 net.cpp:100] Creating Layer detection_accuracy_1_5x5
I0819 09:59:30.980911   892 net.cpp:434] detection_accuracy_1_5x5 <- LFCN_1_5x5_LFCN_1_5x5_0_split_1
I0819 09:59:30.980918   892 net.cpp:434] detection_accuracy_1_5x5 <- label_1_5x5_data_1_split_1
I0819 09:59:30.980926   892 net.cpp:408] detection_accuracy_1_5x5 -> accuracy_1_5x5
I0819 09:59:30.980937   892 net.cpp:408] detection_accuracy_1_5x5 -> boxiou_1_5x5
I0819 09:59:30.980985   892 net.cpp:150] Setting up detection_accuracy_1_5x5
I0819 09:59:30.980994   892 net.cpp:157] Top shape: 1 1 1 2 (2)
I0819 09:59:30.981000   892 net.cpp:157] Top shape: 1 1 1 1 (1)
I0819 09:59:30.981006   892 net.cpp:165] Memory required for data: 3069557012
I0819 09:59:30.981011   892 layer_factory.hpp:77] Creating layer LFCN_1_7x7
I0819 09:59:30.981026   892 net.cpp:100] Creating Layer LFCN_1_7x7
I0819 09:59:30.981032   892 net.cpp:434] LFCN_1_7x7 <- loss1_conv1_loss_relu1_0_split_1
I0819 09:59:30.981043   892 net.cpp:408] LFCN_1_7x7 -> LFCN_1_7x7
I0819 09:59:30.989197   892 net.cpp:150] Setting up LFCN_1_7x7
I0819 09:59:30.989219   892 net.cpp:157] Top shape: 2 9 96 96 (165888)
I0819 09:59:30.989224   892 net.cpp:165] Memory required for data: 3070220564
I0819 09:59:30.989234   892 layer_factory.hpp:77] Creating layer LFCN_1_7x7_LFCN_1_7x7_0_split
I0819 09:59:30.989245   892 net.cpp:100] Creating Layer LFCN_1_7x7_LFCN_1_7x7_0_split
I0819 09:59:30.989253   892 net.cpp:434] LFCN_1_7x7_LFCN_1_7x7_0_split <- LFCN_1_7x7
I0819 09:59:30.989264   892 net.cpp:408] LFCN_1_7x7_LFCN_1_7x7_0_split -> LFCN_1_7x7_LFCN_1_7x7_0_split_0
I0819 09:59:30.989274   892 net.cpp:408] LFCN_1_7x7_LFCN_1_7x7_0_split -> LFCN_1_7x7_LFCN_1_7x7_0_split_1
I0819 09:59:30.989326   892 net.cpp:150] Setting up LFCN_1_7x7_LFCN_1_7x7_0_split
I0819 09:59:30.989334   892 net.cpp:157] Top shape: 2 9 96 96 (165888)
I0819 09:59:30.989341   892 net.cpp:157] Top shape: 2 9 96 96 (165888)
I0819 09:59:30.989346   892 net.cpp:165] Memory required for data: 3071547668
I0819 09:59:30.989351   892 layer_factory.hpp:77] Creating layer detection_loss_1_7x7
I0819 09:59:30.989357   892 net.cpp:100] Creating Layer detection_loss_1_7x7
I0819 09:59:30.989362   892 net.cpp:434] detection_loss_1_7x7 <- LFCN_1_7x7_LFCN_1_7x7_0_split_0
I0819 09:59:30.989368   892 net.cpp:434] detection_loss_1_7x7 <- label_1_7x7_data_2_split_0
I0819 09:59:30.989377   892 net.cpp:408] detection_loss_1_7x7 -> loss_1_7x7
I0819 09:59:30.989395   892 layer_factory.hpp:77] Creating layer detection_loss_1_7x7
I0819 09:59:30.992590   892 net.cpp:150] Setting up detection_loss_1_7x7
I0819 09:59:30.992609   892 net.cpp:157] Top shape: 1 1 1 2 (2)
I0819 09:59:30.992616   892 net.cpp:160]     with loss weight 0.9
I0819 09:59:30.992632   892 net.cpp:165] Memory required for data: 3071547676
I0819 09:59:30.992641   892 layer_factory.hpp:77] Creating layer detection_accuracy_1_7x7
I0819 09:59:30.992653   892 net.cpp:100] Creating Layer detection_accuracy_1_7x7
I0819 09:59:30.992660   892 net.cpp:434] detection_accuracy_1_7x7 <- LFCN_1_7x7_LFCN_1_7x7_0_split_1
I0819 09:59:30.992667   892 net.cpp:434] detection_accuracy_1_7x7 <- label_1_7x7_data_2_split_1
I0819 09:59:30.992677   892 net.cpp:408] detection_accuracy_1_7x7 -> accuracy_1_7x7
I0819 09:59:30.992688   892 net.cpp:408] detection_accuracy_1_7x7 -> boxiou_1_7x7
I0819 09:59:30.992739   892 net.cpp:150] Setting up detection_accuracy_1_7x7
I0819 09:59:30.992748   892 net.cpp:157] Top shape: 1 1 1 2 (2)
I0819 09:59:30.992754   892 net.cpp:157] Top shape: 1 1 1 1 (1)
I0819 09:59:30.992758   892 net.cpp:165] Memory required for data: 3071547688
I0819 09:59:30.992763   892 layer_factory.hpp:77] Creating layer pool4
I0819 09:59:30.992771   892 net.cpp:100] Creating Layer pool4
I0819 09:59:30.992779   892 net.cpp:434] pool4 <- conv4_3_new_conv4_concat_0_split_1
I0819 09:59:30.992789   892 net.cpp:408] pool4 -> pool4
I0819 09:59:30.992835   892 net.cpp:150] Setting up pool4
I0819 09:59:30.992843   892 net.cpp:157] Top shape: 2 513 48 48 (2363904)
I0819 09:59:30.992848   892 net.cpp:165] Memory required for data: 3081003304
I0819 09:59:30.992853   892 layer_factory.hpp:77] Creating layer conv5_1_new
I0819 09:59:30.992862   892 net.cpp:100] Creating Layer conv5_1_new
I0819 09:59:30.992868   892 net.cpp:434] conv5_1_new <- pool4
I0819 09:59:30.992877   892 net.cpp:408] conv5_1_new -> conv5_1
I0819 09:59:31.002621   892 net.cpp:150] Setting up conv5_1_new
I0819 09:59:31.002687   892 net.cpp:157] Top shape: 2 512 48 48 (2359296)
I0819 09:59:31.002696   892 net.cpp:165] Memory required for data: 3090440488
I0819 09:59:31.002719   892 layer_factory.hpp:77] Creating layer relu5_1
I0819 09:59:31.002750   892 net.cpp:100] Creating Layer relu5_1
I0819 09:59:31.002765   892 net.cpp:434] relu5_1 <- conv5_1
I0819 09:59:31.002779   892 net.cpp:395] relu5_1 -> conv5_1 (in-place)
I0819 09:59:31.003026   892 net.cpp:150] Setting up relu5_1
I0819 09:59:31.003041   892 net.cpp:157] Top shape: 2 512 48 48 (2359296)
I0819 09:59:31.003046   892 net.cpp:165] Memory required for data: 3099877672
I0819 09:59:31.003053   892 layer_factory.hpp:77] Creating layer conv5_2
I0819 09:59:31.003073   892 net.cpp:100] Creating Layer conv5_2
I0819 09:59:31.003082   892 net.cpp:434] conv5_2 <- conv5_1
I0819 09:59:31.003093   892 net.cpp:408] conv5_2 -> conv5_2
I0819 09:59:31.011974   892 net.cpp:150] Setting up conv5_2
I0819 09:59:31.012007   892 net.cpp:157] Top shape: 2 512 48 48 (2359296)
I0819 09:59:31.012015   892 net.cpp:165] Memory required for data: 3109314856
I0819 09:59:31.012029   892 layer_factory.hpp:77] Creating layer relu5_2
I0819 09:59:31.012044   892 net.cpp:100] Creating Layer relu5_2
I0819 09:59:31.012055   892 net.cpp:434] relu5_2 <- conv5_2
I0819 09:59:31.012070   892 net.cpp:395] relu5_2 -> conv5_2 (in-place)
I0819 09:59:31.012295   892 net.cpp:150] Setting up relu5_2
I0819 09:59:31.012310   892 net.cpp:157] Top shape: 2 512 48 48 (2359296)
I0819 09:59:31.012315   892 net.cpp:165] Memory required for data: 3118752040
I0819 09:59:31.012322   892 layer_factory.hpp:77] Creating layer conv5_3
I0819 09:59:31.012338   892 net.cpp:100] Creating Layer conv5_3
I0819 09:59:31.012347   892 net.cpp:434] conv5_3 <- conv5_2
I0819 09:59:31.012357   892 net.cpp:408] conv5_3 -> conv5_3
I0819 09:59:31.022650   892 net.cpp:150] Setting up conv5_3
I0819 09:59:31.022683   892 net.cpp:157] Top shape: 2 512 48 48 (2359296)
I0819 09:59:31.022688   892 net.cpp:165] Memory required for data: 3128189224
I0819 09:59:31.022701   892 layer_factory.hpp:77] Creating layer relu5_3
I0819 09:59:31.022718   892 net.cpp:100] Creating Layer relu5_3
I0819 09:59:31.022729   892 net.cpp:434] relu5_3 <- conv5_3
I0819 09:59:31.022738   892 net.cpp:395] relu5_3 -> conv5_3 (in-place)
I0819 09:59:31.022929   892 net.cpp:150] Setting up relu5_3
I0819 09:59:31.022941   892 net.cpp:157] Top shape: 2 512 48 48 (2359296)
I0819 09:59:31.022948   892 net.cpp:165] Memory required for data: 3137626408
I0819 09:59:31.022953   892 layer_factory.hpp:77] Creating layer conv5_3_relu5_3_0_split
I0819 09:59:31.022960   892 net.cpp:100] Creating Layer conv5_3_relu5_3_0_split
I0819 09:59:31.022966   892 net.cpp:434] conv5_3_relu5_3_0_split <- conv5_3
I0819 09:59:31.022974   892 net.cpp:408] conv5_3_relu5_3_0_split -> conv5_3_relu5_3_0_split_0
I0819 09:59:31.022984   892 net.cpp:408] conv5_3_relu5_3_0_split -> conv5_3_relu5_3_0_split_1
I0819 09:59:31.022994   892 net.cpp:408] conv5_3_relu5_3_0_split -> conv5_3_relu5_3_0_split_2
I0819 09:59:31.023053   892 net.cpp:150] Setting up conv5_3_relu5_3_0_split
I0819 09:59:31.023061   892 net.cpp:157] Top shape: 2 512 48 48 (2359296)
I0819 09:59:31.023067   892 net.cpp:157] Top shape: 2 512 48 48 (2359296)
I0819 09:59:31.023073   892 net.cpp:157] Top shape: 2 512 48 48 (2359296)
I0819 09:59:31.023077   892 net.cpp:165] Memory required for data: 3165937960
I0819 09:59:31.023082   892 layer_factory.hpp:77] Creating layer LFCN_2_5x5
I0819 09:59:31.023097   892 net.cpp:100] Creating Layer LFCN_2_5x5
I0819 09:59:31.023104   892 net.cpp:434] LFCN_2_5x5 <- conv5_3_relu5_3_0_split_0
I0819 09:59:31.023114   892 net.cpp:408] LFCN_2_5x5 -> LFCN_2_5x5
I0819 09:59:31.027586   892 net.cpp:150] Setting up LFCN_2_5x5
I0819 09:59:31.027618   892 net.cpp:157] Top shape: 2 9 48 48 (41472)
I0819 09:59:31.027623   892 net.cpp:165] Memory required for data: 3166103848
I0819 09:59:31.027643   892 layer_factory.hpp:77] Creating layer LFCN_2_5x5_LFCN_2_5x5_0_split
I0819 09:59:31.027657   892 net.cpp:100] Creating Layer LFCN_2_5x5_LFCN_2_5x5_0_split
I0819 09:59:31.027668   892 net.cpp:434] LFCN_2_5x5_LFCN_2_5x5_0_split <- LFCN_2_5x5
I0819 09:59:31.027678   892 net.cpp:408] LFCN_2_5x5_LFCN_2_5x5_0_split -> LFCN_2_5x5_LFCN_2_5x5_0_split_0
I0819 09:59:31.027691   892 net.cpp:408] LFCN_2_5x5_LFCN_2_5x5_0_split -> LFCN_2_5x5_LFCN_2_5x5_0_split_1
I0819 09:59:31.027739   892 net.cpp:150] Setting up LFCN_2_5x5_LFCN_2_5x5_0_split
I0819 09:59:31.027750   892 net.cpp:157] Top shape: 2 9 48 48 (41472)
I0819 09:59:31.027755   892 net.cpp:157] Top shape: 2 9 48 48 (41472)
I0819 09:59:31.027760   892 net.cpp:165] Memory required for data: 3166435624
I0819 09:59:31.027765   892 layer_factory.hpp:77] Creating layer detection_loss_2_5x5
I0819 09:59:31.027781   892 net.cpp:100] Creating Layer detection_loss_2_5x5
I0819 09:59:31.027787   892 net.cpp:434] detection_loss_2_5x5 <- LFCN_2_5x5_LFCN_2_5x5_0_split_0
I0819 09:59:31.027794   892 net.cpp:434] detection_loss_2_5x5 <- label_2_5x5_data_3_split_0
I0819 09:59:31.027806   892 net.cpp:408] detection_loss_2_5x5 -> loss_2_5x5
I0819 09:59:31.027819   892 layer_factory.hpp:77] Creating layer detection_loss_2_5x5
I0819 09:59:31.028167   892 net.cpp:150] Setting up detection_loss_2_5x5
I0819 09:59:31.028179   892 net.cpp:157] Top shape: 1 1 1 2 (2)
I0819 09:59:31.028184   892 net.cpp:160]     with loss weight 1
I0819 09:59:31.028198   892 net.cpp:165] Memory required for data: 3166435632
I0819 09:59:31.028204   892 layer_factory.hpp:77] Creating layer detection_accuracy_2_5x5
I0819 09:59:31.028213   892 net.cpp:100] Creating Layer detection_accuracy_2_5x5
I0819 09:59:31.028218   892 net.cpp:434] detection_accuracy_2_5x5 <- LFCN_2_5x5_LFCN_2_5x5_0_split_1
I0819 09:59:31.028225   892 net.cpp:434] detection_accuracy_2_5x5 <- label_2_5x5_data_3_split_1
I0819 09:59:31.028235   892 net.cpp:408] detection_accuracy_2_5x5 -> accuracy_2_5x5
I0819 09:59:31.028247   892 net.cpp:408] detection_accuracy_2_5x5 -> boxiou_2_5x5
I0819 09:59:31.028295   892 net.cpp:150] Setting up detection_accuracy_2_5x5
I0819 09:59:31.028306   892 net.cpp:157] Top shape: 1 1 1 2 (2)
I0819 09:59:31.028311   892 net.cpp:157] Top shape: 1 1 1 1 (1)
I0819 09:59:31.028316   892 net.cpp:165] Memory required for data: 3166435644
I0819 09:59:31.028321   892 layer_factory.hpp:77] Creating layer LFCN_2_7x7
I0819 09:59:31.028333   892 net.cpp:100] Creating Layer LFCN_2_7x7
I0819 09:59:31.028340   892 net.cpp:434] LFCN_2_7x7 <- conv5_3_relu5_3_0_split_1
I0819 09:59:31.028350   892 net.cpp:408] LFCN_2_7x7 -> LFCN_2_7x7
I0819 09:59:31.036679   892 net.cpp:150] Setting up LFCN_2_7x7
I0819 09:59:31.036707   892 net.cpp:157] Top shape: 2 9 48 48 (41472)
I0819 09:59:31.036713   892 net.cpp:165] Memory required for data: 3166601532
I0819 09:59:31.036723   892 layer_factory.hpp:77] Creating layer LFCN_2_7x7_LFCN_2_7x7_0_split
I0819 09:59:31.036736   892 net.cpp:100] Creating Layer LFCN_2_7x7_LFCN_2_7x7_0_split
I0819 09:59:31.036746   892 net.cpp:434] LFCN_2_7x7_LFCN_2_7x7_0_split <- LFCN_2_7x7
I0819 09:59:31.036756   892 net.cpp:408] LFCN_2_7x7_LFCN_2_7x7_0_split -> LFCN_2_7x7_LFCN_2_7x7_0_split_0
I0819 09:59:31.036768   892 net.cpp:408] LFCN_2_7x7_LFCN_2_7x7_0_split -> LFCN_2_7x7_LFCN_2_7x7_0_split_1
I0819 09:59:31.036814   892 net.cpp:150] Setting up LFCN_2_7x7_LFCN_2_7x7_0_split
I0819 09:59:31.036830   892 net.cpp:157] Top shape: 2 9 48 48 (41472)
I0819 09:59:31.036839   892 net.cpp:157] Top shape: 2 9 48 48 (41472)
I0819 09:59:31.036842   892 net.cpp:165] Memory required for data: 3166933308
I0819 09:59:31.036847   892 layer_factory.hpp:77] Creating layer detection_loss_2_7x7
I0819 09:59:31.036856   892 net.cpp:100] Creating Layer detection_loss_2_7x7
I0819 09:59:31.036862   892 net.cpp:434] detection_loss_2_7x7 <- LFCN_2_7x7_LFCN_2_7x7_0_split_0
I0819 09:59:31.036870   892 net.cpp:434] detection_loss_2_7x7 <- label_2_7x7_data_4_split_0
I0819 09:59:31.036882   892 net.cpp:408] detection_loss_2_7x7 -> loss_2_7x7
I0819 09:59:31.036896   892 layer_factory.hpp:77] Creating layer detection_loss_2_7x7
I0819 09:59:31.037259   892 net.cpp:150] Setting up detection_loss_2_7x7
I0819 09:59:31.037271   892 net.cpp:157] Top shape: 1 1 1 2 (2)
I0819 09:59:31.037276   892 net.cpp:160]     with loss weight 1
I0819 09:59:31.037289   892 net.cpp:165] Memory required for data: 3166933316
I0819 09:59:31.037295   892 layer_factory.hpp:77] Creating layer detection_accuracy_2_7x7
I0819 09:59:31.037307   892 net.cpp:100] Creating Layer detection_accuracy_2_7x7
I0819 09:59:31.037313   892 net.cpp:434] detection_accuracy_2_7x7 <- LFCN_2_7x7_LFCN_2_7x7_0_split_1
I0819 09:59:31.037319   892 net.cpp:434] detection_accuracy_2_7x7 <- label_2_7x7_data_4_split_1
I0819 09:59:31.037328   892 net.cpp:408] detection_accuracy_2_7x7 -> accuracy_2_7x7
I0819 09:59:31.037338   892 net.cpp:408] detection_accuracy_2_7x7 -> boxiou_2_7x7
I0819 09:59:31.037387   892 net.cpp:150] Setting up detection_accuracy_2_7x7
I0819 09:59:31.037396   892 net.cpp:157] Top shape: 1 1 1 2 (2)
I0819 09:59:31.037402   892 net.cpp:157] Top shape: 1 1 1 1 (1)
I0819 09:59:31.037407   892 net.cpp:165] Memory required for data: 3166933328
I0819 09:59:31.037411   892 layer_factory.hpp:77] Creating layer pool5
I0819 09:59:31.037420   892 net.cpp:100] Creating Layer pool5
I0819 09:59:31.037430   892 net.cpp:434] pool5 <- conv5_3_relu5_3_0_split_2
I0819 09:59:31.037437   892 net.cpp:408] pool5 -> pool5
I0819 09:59:31.037487   892 net.cpp:150] Setting up pool5
I0819 09:59:31.037495   892 net.cpp:157] Top shape: 2 512 24 24 (589824)
I0819 09:59:31.037500   892 net.cpp:165] Memory required for data: 3169292624
I0819 09:59:31.037504   892 layer_factory.hpp:77] Creating layer conv6_1
I0819 09:59:31.037518   892 net.cpp:100] Creating Layer conv6_1
I0819 09:59:31.037525   892 net.cpp:434] conv6_1 <- pool5
I0819 09:59:31.037535   892 net.cpp:408] conv6_1 -> conv6_1
I0819 09:59:31.101040   892 net.cpp:150] Setting up conv6_1
I0819 09:59:31.101070   892 net.cpp:157] Top shape: 2 512 24 24 (589824)
I0819 09:59:31.101076   892 net.cpp:165] Memory required for data: 3171651920
I0819 09:59:31.101089   892 layer_factory.hpp:77] Creating layer relu6_1
I0819 09:59:31.101102   892 net.cpp:100] Creating Layer relu6_1
I0819 09:59:31.101111   892 net.cpp:434] relu6_1 <- conv6_1
I0819 09:59:31.101119   892 net.cpp:395] relu6_1 -> conv6_1 (in-place)
I0819 09:59:31.101652   892 net.cpp:150] Setting up relu6_1
I0819 09:59:31.101667   892 net.cpp:157] Top shape: 2 512 24 24 (589824)
I0819 09:59:31.101672   892 net.cpp:165] Memory required for data: 3174011216
I0819 09:59:31.101677   892 layer_factory.hpp:77] Creating layer conv6_1_relu6_1_0_split
I0819 09:59:31.101687   892 net.cpp:100] Creating Layer conv6_1_relu6_1_0_split
I0819 09:59:31.101692   892 net.cpp:434] conv6_1_relu6_1_0_split <- conv6_1
I0819 09:59:31.101702   892 net.cpp:408] conv6_1_relu6_1_0_split -> conv6_1_relu6_1_0_split_0
I0819 09:59:31.101713   892 net.cpp:408] conv6_1_relu6_1_0_split -> conv6_1_relu6_1_0_split_1
I0819 09:59:31.101723   892 net.cpp:408] conv6_1_relu6_1_0_split -> conv6_1_relu6_1_0_split_2
I0819 09:59:31.101785   892 net.cpp:150] Setting up conv6_1_relu6_1_0_split
I0819 09:59:31.101794   892 net.cpp:157] Top shape: 2 512 24 24 (589824)
I0819 09:59:31.101800   892 net.cpp:157] Top shape: 2 512 24 24 (589824)
I0819 09:59:31.101805   892 net.cpp:157] Top shape: 2 512 24 24 (589824)
I0819 09:59:31.101810   892 net.cpp:165] Memory required for data: 3181089104
I0819 09:59:31.101815   892 layer_factory.hpp:77] Creating layer LFCN_3_5x5
I0819 09:59:31.101830   892 net.cpp:100] Creating Layer LFCN_3_5x5
I0819 09:59:31.101836   892 net.cpp:434] LFCN_3_5x5 <- conv6_1_relu6_1_0_split_0
I0819 09:59:31.101846   892 net.cpp:408] LFCN_3_5x5 -> LFCN_3_5x5
I0819 09:59:31.105968   892 net.cpp:150] Setting up LFCN_3_5x5
I0819 09:59:31.105988   892 net.cpp:157] Top shape: 2 9 24 24 (10368)
I0819 09:59:31.105993   892 net.cpp:165] Memory required for data: 3181130576
I0819 09:59:31.106001   892 layer_factory.hpp:77] Creating layer LFCN_3_5x5_LFCN_3_5x5_0_split
I0819 09:59:31.106012   892 net.cpp:100] Creating Layer LFCN_3_5x5_LFCN_3_5x5_0_split
I0819 09:59:31.106020   892 net.cpp:434] LFCN_3_5x5_LFCN_3_5x5_0_split <- LFCN_3_5x5
I0819 09:59:31.106029   892 net.cpp:408] LFCN_3_5x5_LFCN_3_5x5_0_split -> LFCN_3_5x5_LFCN_3_5x5_0_split_0
I0819 09:59:31.106040   892 net.cpp:408] LFCN_3_5x5_LFCN_3_5x5_0_split -> LFCN_3_5x5_LFCN_3_5x5_0_split_1
I0819 09:59:31.106087   892 net.cpp:150] Setting up LFCN_3_5x5_LFCN_3_5x5_0_split
I0819 09:59:31.106096   892 net.cpp:157] Top shape: 2 9 24 24 (10368)
I0819 09:59:31.106101   892 net.cpp:157] Top shape: 2 9 24 24 (10368)
I0819 09:59:31.106106   892 net.cpp:165] Memory required for data: 3181213520
I0819 09:59:31.106112   892 layer_factory.hpp:77] Creating layer detection_loss_3_5x5
I0819 09:59:31.106122   892 net.cpp:100] Creating Layer detection_loss_3_5x5
I0819 09:59:31.106127   892 net.cpp:434] detection_loss_3_5x5 <- LFCN_3_5x5_LFCN_3_5x5_0_split_0
I0819 09:59:31.106134   892 net.cpp:434] detection_loss_3_5x5 <- label_3_5x5_data_5_split_0
I0819 09:59:31.106145   892 net.cpp:408] detection_loss_3_5x5 -> loss_3_5x5
I0819 09:59:31.106158   892 layer_factory.hpp:77] Creating layer detection_loss_3_5x5
I0819 09:59:31.106508   892 net.cpp:150] Setting up detection_loss_3_5x5
I0819 09:59:31.106520   892 net.cpp:157] Top shape: 1 1 1 2 (2)
I0819 09:59:31.106524   892 net.cpp:160]     with loss weight 1
I0819 09:59:31.106539   892 net.cpp:165] Memory required for data: 3181213528
I0819 09:59:31.106544   892 layer_factory.hpp:77] Creating layer detection_accuracy_3_5x5
I0819 09:59:31.106554   892 net.cpp:100] Creating Layer detection_accuracy_3_5x5
I0819 09:59:31.106559   892 net.cpp:434] detection_accuracy_3_5x5 <- LFCN_3_5x5_LFCN_3_5x5_0_split_1
I0819 09:59:31.106565   892 net.cpp:434] detection_accuracy_3_5x5 <- label_3_5x5_data_5_split_1
I0819 09:59:31.106573   892 net.cpp:408] detection_accuracy_3_5x5 -> accuracy_3_5x5
I0819 09:59:31.106585   892 net.cpp:408] detection_accuracy_3_5x5 -> boxiou_3_5x5
I0819 09:59:31.106631   892 net.cpp:150] Setting up detection_accuracy_3_5x5
I0819 09:59:31.106640   892 net.cpp:157] Top shape: 1 1 1 2 (2)
I0819 09:59:31.106645   892 net.cpp:157] Top shape: 1 1 1 1 (1)
I0819 09:59:31.106650   892 net.cpp:165] Memory required for data: 3181213540
I0819 09:59:31.106655   892 layer_factory.hpp:77] Creating layer LFCN_3_7x7
I0819 09:59:31.106669   892 net.cpp:100] Creating Layer LFCN_3_7x7
I0819 09:59:31.106675   892 net.cpp:434] LFCN_3_7x7 <- conv6_1_relu6_1_0_split_1
I0819 09:59:31.106684   892 net.cpp:408] LFCN_3_7x7 -> LFCN_3_7x7
I0819 09:59:31.114727   892 net.cpp:150] Setting up LFCN_3_7x7
I0819 09:59:31.114756   892 net.cpp:157] Top shape: 2 9 24 24 (10368)
I0819 09:59:31.114761   892 net.cpp:165] Memory required for data: 3181255012
I0819 09:59:31.114774   892 layer_factory.hpp:77] Creating layer LFCN_3_7x7_LFCN_3_7x7_0_split
I0819 09:59:31.114787   892 net.cpp:100] Creating Layer LFCN_3_7x7_LFCN_3_7x7_0_split
I0819 09:59:31.114796   892 net.cpp:434] LFCN_3_7x7_LFCN_3_7x7_0_split <- LFCN_3_7x7
I0819 09:59:31.114807   892 net.cpp:408] LFCN_3_7x7_LFCN_3_7x7_0_split -> LFCN_3_7x7_LFCN_3_7x7_0_split_0
I0819 09:59:31.114821   892 net.cpp:408] LFCN_3_7x7_LFCN_3_7x7_0_split -> LFCN_3_7x7_LFCN_3_7x7_0_split_1
I0819 09:59:31.114871   892 net.cpp:150] Setting up LFCN_3_7x7_LFCN_3_7x7_0_split
I0819 09:59:31.114879   892 net.cpp:157] Top shape: 2 9 24 24 (10368)
I0819 09:59:31.114886   892 net.cpp:157] Top shape: 2 9 24 24 (10368)
I0819 09:59:31.114889   892 net.cpp:165] Memory required for data: 3181337956
I0819 09:59:31.114894   892 layer_factory.hpp:77] Creating layer detection_loss_3_7x7
I0819 09:59:31.114904   892 net.cpp:100] Creating Layer detection_loss_3_7x7
I0819 09:59:31.114912   892 net.cpp:434] detection_loss_3_7x7 <- LFCN_3_7x7_LFCN_3_7x7_0_split_0
I0819 09:59:31.114919   892 net.cpp:434] detection_loss_3_7x7 <- label_3_7x7_data_6_split_0
I0819 09:59:31.114928   892 net.cpp:408] detection_loss_3_7x7 -> loss_3_7x7
I0819 09:59:31.114943   892 layer_factory.hpp:77] Creating layer detection_loss_3_7x7
I0819 09:59:31.115288   892 net.cpp:150] Setting up detection_loss_3_7x7
I0819 09:59:31.115299   892 net.cpp:157] Top shape: 1 1 1 2 (2)
I0819 09:59:31.115303   892 net.cpp:160]     with loss weight 1
I0819 09:59:31.115317   892 net.cpp:165] Memory required for data: 3181337964
I0819 09:59:31.115324   892 layer_factory.hpp:77] Creating layer detection_accuracy_3_7x7
I0819 09:59:31.115331   892 net.cpp:100] Creating Layer detection_accuracy_3_7x7
I0819 09:59:31.115339   892 net.cpp:434] detection_accuracy_3_7x7 <- LFCN_3_7x7_LFCN_3_7x7_0_split_1
I0819 09:59:31.115345   892 net.cpp:434] detection_accuracy_3_7x7 <- label_3_7x7_data_6_split_1
I0819 09:59:31.115355   892 net.cpp:408] detection_accuracy_3_7x7 -> accuracy_3_7x7
I0819 09:59:31.115366   892 net.cpp:408] detection_accuracy_3_7x7 -> boxiou_3_7x7
I0819 09:59:31.115417   892 net.cpp:150] Setting up detection_accuracy_3_7x7
I0819 09:59:31.115425   892 net.cpp:157] Top shape: 1 1 1 2 (2)
I0819 09:59:31.115442   892 net.cpp:157] Top shape: 1 1 1 1 (1)
I0819 09:59:31.115445   892 net.cpp:165] Memory required for data: 3181337976
I0819 09:59:31.115450   892 layer_factory.hpp:77] Creating layer pool6
I0819 09:59:31.115461   892 net.cpp:100] Creating Layer pool6
I0819 09:59:31.115468   892 net.cpp:434] pool6 <- conv6_1_relu6_1_0_split_2
I0819 09:59:31.115478   892 net.cpp:408] pool6 -> pool6
I0819 09:59:31.115525   892 net.cpp:150] Setting up pool6
I0819 09:59:31.115533   892 net.cpp:157] Top shape: 2 512 12 12 (147456)
I0819 09:59:31.115537   892 net.cpp:165] Memory required for data: 3181927800
I0819 09:59:31.115542   892 layer_factory.hpp:77] Creating layer LFCN_4_5x5
I0819 09:59:31.115556   892 net.cpp:100] Creating Layer LFCN_4_5x5
I0819 09:59:31.115561   892 net.cpp:434] LFCN_4_5x5 <- pool6
I0819 09:59:31.115571   892 net.cpp:408] LFCN_4_5x5 -> LFCN_4_5x5
I0819 09:59:31.120229   892 net.cpp:150] Setting up LFCN_4_5x5
I0819 09:59:31.120270   892 net.cpp:157] Top shape: 2 9 12 12 (2592)
I0819 09:59:31.120276   892 net.cpp:165] Memory required for data: 3181938168
I0819 09:59:31.120288   892 layer_factory.hpp:77] Creating layer LFCN_4_5x5_LFCN_4_5x5_0_split
I0819 09:59:31.120304   892 net.cpp:100] Creating Layer LFCN_4_5x5_LFCN_4_5x5_0_split
I0819 09:59:31.120312   892 net.cpp:434] LFCN_4_5x5_LFCN_4_5x5_0_split <- LFCN_4_5x5
I0819 09:59:31.120322   892 net.cpp:408] LFCN_4_5x5_LFCN_4_5x5_0_split -> LFCN_4_5x5_LFCN_4_5x5_0_split_0
I0819 09:59:31.120352   892 net.cpp:408] LFCN_4_5x5_LFCN_4_5x5_0_split -> LFCN_4_5x5_LFCN_4_5x5_0_split_1
I0819 09:59:31.120405   892 net.cpp:150] Setting up LFCN_4_5x5_LFCN_4_5x5_0_split
I0819 09:59:31.120414   892 net.cpp:157] Top shape: 2 9 12 12 (2592)
I0819 09:59:31.120420   892 net.cpp:157] Top shape: 2 9 12 12 (2592)
I0819 09:59:31.120424   892 net.cpp:165] Memory required for data: 3181958904
I0819 09:59:31.120429   892 layer_factory.hpp:77] Creating layer detection_loss_4_5x5
I0819 09:59:31.120442   892 net.cpp:100] Creating Layer detection_loss_4_5x5
I0819 09:59:31.120448   892 net.cpp:434] detection_loss_4_5x5 <- LFCN_4_5x5_LFCN_4_5x5_0_split_0
I0819 09:59:31.120456   892 net.cpp:434] detection_loss_4_5x5 <- label_4_5x5_data_7_split_0
I0819 09:59:31.120466   892 net.cpp:408] detection_loss_4_5x5 -> loss_4_5x5
I0819 09:59:31.120481   892 layer_factory.hpp:77] Creating layer detection_loss_4_5x5
I0819 09:59:31.120900   892 net.cpp:150] Setting up detection_loss_4_5x5
I0819 09:59:31.120911   892 net.cpp:157] Top shape: 1 1 1 2 (2)
I0819 09:59:31.120918   892 net.cpp:160]     with loss weight 1
I0819 09:59:31.120934   892 net.cpp:165] Memory required for data: 3181958912
I0819 09:59:31.120940   892 layer_factory.hpp:77] Creating layer detection_accuracy_4_5x5
I0819 09:59:31.120950   892 net.cpp:100] Creating Layer detection_accuracy_4_5x5
I0819 09:59:31.120957   892 net.cpp:434] detection_accuracy_4_5x5 <- LFCN_4_5x5_LFCN_4_5x5_0_split_1
I0819 09:59:31.120963   892 net.cpp:434] detection_accuracy_4_5x5 <- label_4_5x5_data_7_split_1
I0819 09:59:31.120975   892 net.cpp:408] detection_accuracy_4_5x5 -> accuracy_4_5x5
I0819 09:59:31.120987   892 net.cpp:408] detection_accuracy_4_5x5 -> boxiou_4_5x5
I0819 09:59:31.121040   892 net.cpp:150] Setting up detection_accuracy_4_5x5
I0819 09:59:31.121048   892 net.cpp:157] Top shape: 1 1 1 2 (2)
I0819 09:59:31.121054   892 net.cpp:157] Top shape: 1 1 1 1 (1)
I0819 09:59:31.121059   892 net.cpp:165] Memory required for data: 3181958924
I0819 09:59:31.121063   892 net.cpp:228] detection_accuracy_4_5x5 does not need backward computation.
I0819 09:59:31.121068   892 net.cpp:226] detection_loss_4_5x5 needs backward computation.
I0819 09:59:31.121073   892 net.cpp:226] LFCN_4_5x5_LFCN_4_5x5_0_split needs backward computation.
I0819 09:59:31.121078   892 net.cpp:226] LFCN_4_5x5 needs backward computation.
…
