…
    downsample_rate: 32
    downsample_rate: 32
    downsample_rate: 64
    coord_num: 4
    field_h: 60
    field_h: 84
    field_h: 120
    field_h: 168
    field_h: 240
    field_h: 336
    field_h: 480
    field_w: 60
    field_w: 84
    field_w: 120
    field_w: 168
    field_w: 240
    field_w: 336
    field_w: 480
    fg_threshold: 0.5
    resize_width: 1344
    resize_height: 768
    crop_width: 768
    crop_height: 768
    do_multiple_scale: true
    min_scale: 60
    max_scale: 480
    min_gt_height: 25
    shuffle: true
    output_gt_boxes: true
  }
}
layer {
  name: "slice"
  type: "Slice"
  bottom: "data"
  top: "data123"
  top: "ch4"
  slice_param {
    slice_point: 3
    axis: 1
  }
}
layer {
  name: "conv1_1"
  type: "Convolution"
  bottom: "data123"
  top: "conv1_1"
  param {
    lr_mult: 0
    decay_mult: 0
  }
  param {
    lr_mult: 0
    decay_mult: 0
  }
  convolution_param {
    num_output: 64
    pad: 1
    kernel_size: 3
  }
}
layer {
  name: "relu1_1"
  type: "ReLU"
  bottom: "conv1_1"
  top: "conv1_1"
}
layer {
  name: "conv1_2"
  type: "Convolution"
  bottom: "conv1_1"
  top: "conv1_2"
  param {
    lr_mult: 0
    decay_mult: 0
  }
  param {
    lr_mult: 0
    decay_mult: 0
  }
  convolution_param {
    num_output: 64
    pad: 1
    kernel_size: 3
  }
}
layer {
  name: "relu1_2"
  type: "ReLU"
  bottom: "conv1_2"
  top: "conv1_2"
}
layer {
  name: "pool1"
  type: "Pooling"
  bottom: "conv1_2"
  top: "pool1"
  pooling_param {
    pool: MAX
    kernel_size: 2
    stride: 2
  }
}
layer {
  name: "ch4_pool1"
  type: "Pooling"
  bottom: "ch4"
  top: "ch4_pool1"
  pooling_param {
    pool: MAX
    kernel_size: 2
    stride: 2
  }
}
layer {
  name: "pool1_concat"
  type: "Concat"
  bottom: "pool1"
  bottom: "ch4_pool1"
  top: "pool1_new"
}
layer {
  name: "conv2_1_new"
  type: "Convolution"
  bottom: "pool1_new"
  top: "conv2_1"
  param {
    lr_mult: 0
    decay_mult: 0
  }
  param {
    lr_mult: 0
    decay_mult: 0
  }
  convolution_param {
    num_output: 128
    pad: 1
    kernel_size: 3
  }
}
layer {
  name: "relu2_1"
  type: "ReLU"
  bottom: "conv2_1"
  top: "conv2_1"
}
layer {
  name: "conv2_2"
  type: "Convolution"
  bottom: "conv2_1"
  top: "conv2_2"
  param {
    lr_mult: 0
    decay_mult: 0
  }
  param {
    lr_mult: 0
    decay_mult: 0
  }
  convolution_param {
    num_output: 128
    pad: 1
    kernel_size: 3
  }
}
layer {
  name: "relu2_2"
  type: "ReLU"
  bottom: "conv2_2"
  top: "conv2_2"
}
layer {
  name: "pool2"
  type: "Pooling"
  bottom: "conv2_2"
  top: "pool2"
  pooling_param {
    pool: MAX
    kernel_size: 2
    stride: 2
  }
}
layer {
  name: "ch4_pool2"
  type: "Pooling"
  bottom: "ch4_pool1"
  top: "ch4_pool2"
  pooling_param {
    pool: MAX
    kernel_size: 2
    stride: 2
  }
}
layer {
  name: "pool2_concat"
  type: "Concat"
  bottom: "pool2"
  bottom: "ch4_pool2"
  top: "pool2_new"
}
layer {
  name: "conv3_1_new"
  type: "Convolution"
  bottom: "pool2_new"
  top: "conv3_1"
  convolution_param {
    num_output: 256
    pad: 1
    kernel_size: 3
  }
}
layer {
  name: "relu3_1"
  type: "ReLU"
  bottom: "conv3_1"
  top: "conv3_1"
}
layer {
  name: "conv3_2"
  type: "Convolution"
  bottom: "conv3_1"
  top: "conv3_2"
  convolution_param {
    num_output: 256
    pad: 1
    kernel_size: 3
  }
}
layer {
  name: "relu3_2"
  type: "ReLU"
  bottom: "conv3_2"
  top: "conv3_2"
}
layer {
  name: "conv3_3"
  type: "Convolution"
  bottom: "conv3_2"
  top: "conv3_3"
  convolution_param {
    num_output: 256
    pad: 1
    kernel_size: 3
  }
}
layer {
  name: "relu3_3"
  type: "ReLU"
  bottom: "conv3_3"
  top: "conv3_3"
}
layer {
  name: "pool3"
  type: "Pooling"
  bottom: "conv3_3"
  top: "pool3"
  pooling_param {
    pool: MAX
    kernel_size: 2
    stride: 2
  }
}
layer {
  name: "ch4_pool3"
  type: "Pooling"
  bottom: "ch4_pool2"
  top: "ch4_pool3"
  pooling_param {
    pool: MAX
    kernel_size: 2
    stride: 2
  }
}
layer {
  name: "pool3_concat"
  type: "Concat"
  bottom: "pool3"
  bottom: "ch4_pool3"
  top: "pool3_new"
}
layer {
  name: "conv4_1_new"
  type: "Convolution"
  bottom: "pool3_new"
  top: "conv4_1"
  convolution_param {
    num_output: 512
    pad: 1
    kernel_size: 3
  }
}
layer {
  name: "relu4_1"
  type: "ReLU"
  bottom: "conv4_1"
  top: "conv4_1"
}
layer {
  name: "conv4_2"
  type: "Convolution"
  bottom: "conv4_1"
  top: "conv4_2"
  convolution_param {
    num_output: 512
    pad: 1
    kernel_size: 3
  }
}
layer {
  name: "relu4_2"
  type: "ReLU"
  bottom: "conv4_2"
  top: "conv4_2"
}
layer {
  name: "conv4_3"
  type: "Convolution"
  bottom: "conv4_2"
  top: "conv4_3"
  convolution_param {
    num_output: 512
    pad: 1
    kernel_size: 3
  }
}
layer {
  name: "relu4_3"
  type: "ReLU"
  bottom: "conv4_3"
  top: "conv4_3"
}
layer {
  name: "conv4_concat"
  type: "Concat"
  bottom: "conv4_3"
  bottom: "ch4_pool3"
  top: "conv4_3_new"
}
layer {
  name: "loss1_conv1"
  type: "Convolution"
  bottom: "conv4_3_new"
  top: "loss1_conv1"
  param {
    lr_mult: 1
    decay_mult: 1
  }
  param {
    lr_mult: 2
    decay_mult: 0
  }
  convolution_param {
    num_output: 512
    pad: 1
    kernel_size: 3
    weight_filler {
      type: "gaussian"
      std: 0.01
    }
    bias_filler {
      type: "constant"
    }
  }
}
layer {
  name: "loss_relu1"
  type: "ReLU"
  bottom: "loss1_conv1"
  top: "loss1_conv1"
}
layer {
  name: "LFCN_1_5x5"
  type: "Convolution"
  bottom: "loss1_conv1"
  top: "LFCN_1_5x5"
  param {
    lr_mult: 1
    decay_mult: 1
  }
  param {
    lr_mult: 2
    decay_mult: 0
  }
  convolution_param {
    num_output: 9
    pad: 2
    kernel_size: 5
    weight_filler {
      type: "gaussian"
      std: 0.001
    }
    bias_filler {
      type: "constant"
    }
  }
}
layer {
  name: "detection_loss_1_5x5"
  type: "DetectionLoss"
  bottom: "LFCN_1_5x5"
  bottom: "label_1_5x5"
  top: "loss_1_5x5"
  loss_weight: 0.9
  detection_loss_param {
    cls_num: 5
    coord_num: 4
    lambda: 1
    field_h: 60
    field_w: 60
    downsample_rate: 8
    bb_smooth: true
    field_whr: 2
    field_xyr: 2
    bg_threshold: 0.2
    bg_multiple: 2
    sample_mode: "bootstrap"
    pos_neg_weighted: true
  }
}
layer {
  name: "detection_accuracy_1_5x5"
  type: "DetectionAccuracy"
  bottom: "LFCN_1_5x5"
  bottom: "label_1_5x5"
  top: "accuracy_1_5x5"
  top: "boxiou_1_5x5"
  detection_accuracy_param {
    cls_num: 5
    coord_num: 4
    field_h: 60
    field_w: 60
    downsample_rate: 8
    field_whr: 2
    field_xyr: 2
  }
}
layer {
  name: "LFCN_1_7x7"
  type: "Convolution"
  bottom: "loss1_conv1"
  top: "LFCN_1_7x7"
  param {
    lr_mult: 1
    decay_mult: 1
  }
  param {
    lr_mult: 2
    decay_mult: 0
  }
  convolution_param {
    num_output: 9
    pad: 3
    kernel_size: 7
    weight_filler {
      type: "gaussian"
      std: 0.001
    }
    bias_filler {
      type: "constant"
    }
  }
}
layer {
  name: "detection_loss_1_7x7"
  type: "DetectionLoss"
  bottom: "LFCN_1_7x7"
  bottom: "label_1_7x7"
  top: "loss_1_7x7"
  loss_weight: 0.9
  detection_loss_param {
    cls_num: 5
    coord_num: 4
    lambda: 1
    field_h: 84
    field_w: 84
    downsample_rate: 8
    bb_smooth: true
    field_whr: 2
    field_xyr: 2
    bg_threshold: 0.2
    bg_multiple: 2
    sample_mode: "bootstrap"
    pos_neg_weighted: true
  }
}
layer {
  name: "detection_accuracy_1_7x7"
  type: "DetectionAccuracy"
  bottom: "LFCN_1_7x7"
  bottom: "label_1_7x7"
  top: "accuracy_1_7x7"
  top: "boxiou_1_7x7"
  detection_accuracy_param {
    cls_num: 5
    coord_num: 4
    field_h: 84
    field_w: 84
    downsample_rate: 8
    field_whr: 2
    field_xyr: 2
  }
}
layer {
  name: "pool4"
  type: "Pooling"
  bottom: "conv4_3_new"
  top: "pool4"
  pooling_param {
    pool: MAX
    kernel_size: 2
    stride: 2
  }
}
layer {
  name: "conv5_1_new"
  type: "Convolution"
  bottom: "pool4"
  top: "conv5_1"
  convolution_param {
    num_output: 512
    pad: 1
    kernel_size: 3
  }
}
layer {
  name: "relu5_1"
  type: "ReLU"
  bottom: "conv5_1"
  top: "conv5_1"
}
layer {
  name: "conv5_2"
  type: "Convolution"
  bottom: "conv5_1"
  top: "conv5_2"
  convolution_param {
    num_output: 512
    pad: 1
    kernel_size: 3
  }
}
layer {
  name: "relu5_2"
  type: "ReLU"
  bottom: "conv5_2"
  top: "conv5_2"
}
layer {
  name: "conv5_3"
  type: "Convolution"
  bottom: "conv5_2"
  top: "conv5_3"
  convolution_param {
    num_output: 512
    pad: 1
    kernel_size: 3
  }
}
layer {
  name: "relu5_3"
  type: "ReLU"
  bottom: "conv5_3"
  top: "conv5_3"
}
layer {
  name: "LFCN_2_5x5"
  type: "Convolution"
  bottom: "conv5_3"
  top: "LFCN_2_5x5"
  param {
    lr_mult: 1
    decay_mult: 1
  }
  param {
    lr_mult: 2
    decay_mult: 0
  }
  convolution_param {
    num_output: 9
    pad: 2
    kernel_size: 5
    weight_filler {
      type: "gaussian"
      std: 0.001
    }
    bias_filler {
      type: "constant"
    }
  }
}
layer {
  name: "detection_loss_2_5x5"
  type: "DetectionLoss"
  bottom: "LFCN_2_5x5"
  bottom: "label_2_5x5"
  top: "loss_2_5x5"
  detection_loss_param {
    cls_num: 5
    coord_num: 4
    lambda: 1
    field_h: 120
    field_w: 120
    downsample_rate: 16
    bb_smooth: true
    field_whr: 2
    field_xyr: 2
    bg_threshold: 0.2
    bg_multiple: 2
    sample_mode: "bootstrap"
    pos_neg_weighted: true
  }
}
layer {
  name: "detection_accuracy_2_5x5"
  type: "DetectionAccuracy"
  bottom: "LFCN_2_5x5"
  bottom: "label_2_5x5"
  top: "accuracy_2_5x5"
  top: "boxiou_2_5x5"
  detection_accuracy_param {
    cls_num: 5
    coord_num: 4
    field_h: 120
    field_w: 120
    downsample_rate: 16
    field_whr: 2
    field_xyr: 2
  }
}
layer {
  name: "LFCN_2_7x7"
  type: "Convolution"
  bottom: "conv5_3"
  top: "LFCN_2_7x7"
  param {
    lr_mult: 1
    decay_mult: 1
  }
  param {
    lr_mult: 2
    decay_mult: 0
  }
  convolution_param {
    num_output: 9
    pad: 3
    kernel_size: 7
    weight_filler {
      type: "gaussian"
      std: 0.001
    }
    bias_filler {
      type: "constant"
    }
  }
}
layer {
  name: "detection_loss_2_7x7"
  type: "DetectionLoss"
  bottom: "LFCN_2_7x7"
  bottom: "label_2_7x7"
  top: "loss_2_7x7"
  detection_loss_param {
    cls_num: 5
    coord_num: 4
    lambda: 1
    field_h: 168
    field_w: 168
    downsample_rate: 16
    bb_smooth: true
    field_whr: 2
    field_xyr: 2
    bg_threshold: 0.2
    bg_multiple: 2
    sample_mode: "bootstrap"
    pos_neg_weighted: true
  }
}
layer {
  name: "detection_accuracy_2_7x7"
  type: "DetectionAccuracy"
  bottom: "LFCN_2_7x7"
  bottom: "label_2_7x7"
  top: "accuracy_2_7x7"
  top: "boxiou_2_7x7"
  detection_accuracy_param {
    cls_num: 5
    coord_num: 4
    field_h: 168
    field_w: 168
    downsample_rate: 16
    field_whr: 2
    field_xyr: 2
  }
}
layer {
  name: "pool5"
  type: "Pooling"
  bottom: "conv5_3"
  top: "pool5"
  pooling_param {
    pool: MAX
    kernel_size: 2
    stride: 2
  }
}
layer {
  name: "conv6_1"
  type: "Convolution"
  bottom: "pool5"
  top: "conv6_1"
  param {
    lr_mult: 1
    decay_mult: 1
  }
  param {
    lr_mult: 2
    decay_mult: 0
  }
  convolution_param {
    num_output: 512
    pad: 1
    kernel_size: 3
    weight_filler {
      type: "gaussian"
      std: 0.01
    }
    bias_filler {
      type: "constant"
    }
  }
}
layer {
  name: "relu6_1"
  type: "ReLU"
  bottom: "conv6_1"
  top: "conv6_1"
}
layer {
  name: "LFCN_3_5x5"
  type: "Convolution"
  bottom: "conv6_1"
  top: "LFCN_3_5x5"
  param {
    lr_mult: 1
    decay_mult: 1
  }
  param {
    lr_mult: 2
    decay_mult: 0
  }
  convolution_param {
    num_output: 9
    pad: 2
    kernel_size: 5
    weight_filler {
      type: "gaussian"
      std: 0.001
    }
    bias_filler {
      type: "constant"
    }
  }
}
layer {
  name: "detection_loss_3_5x5"
  type: "DetectionLoss"
  bottom: "LFCN_3_5x5"
  bottom: "label_3_5x5"
  top: "loss_3_5x5"
  detection_loss_param {
    cls_num: 5
    coord_num: 4
    lambda: 1
    field_h: 240
    field_w: 240
    downsample_rate: 32
    bb_smooth: true
    field_whr: 2
    field_xyr: 2
    bg_threshold: 0.2
    bg_multiple: 2
    sample_mode: "bootstrap"
    pos_neg_weighted: true
  }
}
layer {
  name: "detection_accuracy_3_5x5"
  type: "DetectionAccuracy"
  bottom: "LFCN_3_5x5"
  bottom: "label_3_5x5"
  top: "accuracy_3_5x5"
  top: "boxiou_3_5x5"
  detection_accuracy_param {
    cls_num: 5
    coord_num: 4
    field_h: 240
    field_w: 240
    downsample_rate: 32
    field_whr: 2
    field_xyr: 2
  }
}
layer {
  name: "LFCN_3_7x7"
  type: "Convolution"
  bottom: "conv6_1"
  top: "LFCN_3_7x7"
  param {
    lr_mult: 1
    decay_mult: 1
  }
  param {
    lr_mult: 2
    decay_mult: 0
  }
  convolution_param {
    num_output: 9
    pad: 3
    kernel_size: 7
    weight_filler {
      type: "gaussian"
      std: 0.001
    }
    bias_filler {
      type: "constant"
    }
  }
}
layer {
  name: "detection_loss_3_7x7"
  type: "DetectionLoss"
  bottom: "LFCN_3_7x7"
  bottom: "label_3_7x7"
  top: "loss_3_7x7"
  detection_loss_param {
    cls_num: 5
    coord_num: 4
    lambda: 1
    field_h: 336
    field_w: 336
    downsample_rate: 32
    bb_smooth: true
    field_whr: 2
    field_xyr: 2
    bg_threshold: 0.2
    bg_multiple: 2
    sample_mode: "bootstrap"
    pos_neg_weighted: true
  }
}
layer {
  name: "detection_accuracy_3_7x7"
  type: "DetectionAccuracy"
  bottom: "LFCN_3_7x7"
  bottom: "label_3_7x7"
  top: "accuracy_3_7x7"
  top: "boxiou_3_7x7"
  detection_accuracy_param {
    cls_num: 5
    coord_num: 4
    field_h: 336
    field_w: 336
    downsample_rate: 32
    field_whr: 2
    field_xyr: 2
  }
}
layer {
  name: "pool6"
  type: "Pooling"
  bottom: "conv6_1"
  top: "pool6"
  pooling_param {
    pool: MAX
    kernel_size: 2
    stride: 2
  }
}
layer {
  name: "LFCN_4_5x5"
  type: "Convolution"
  bottom: "pool6"
  top: "LFCN_4_5x5"
  param {
    lr_mult: 1
    decay_mult: 1
  }
  param {
    lr_mult: 2
    decay_mult: 0
  }
  convolution_param {
    num_output: 9
    pad: 2
    kernel_size: 5
    weight_filler {
      type: "gaussian"
      std: 0.001
    }
    bias_filler {
      type: "constant"
    }
  }
}
layer {
  name: "detection_loss_4_5x5"
  type: "DetectionLoss"
  bottom: "LFCN_4_5x5"
  bottom: "label_4_5x5"
  top: "loss_4_5x5"
  detection_loss_param {
    cls_num: 5
    coord_num: 4
    lambda: 1
    field_h: 480
    field_w: 480
    downsample_rate: 64
    bb_smooth: true
    field_whr: 2
    field_xyr: 2
    bg_threshold: 0.2
    bg_multiple: 2
    sample_mode: "bootstrap"
    pos_neg_weighted: true
  }
}
layer {
  name: "detection_accuracy_4_5x5"
  type: "DetectionAccuracy"
  bottom: "LFCN_4_5x5"
  bottom: "label_4_5x5"
  top: "accuracy_4_5x5"
  top: "boxiou_4_5x5"
  detection_accuracy_param {
    cls_num: 5
    coord_num: 4
    field_h: 480
    field_w: 480
    downsample_rate: 64
    field_whr: 2
    field_xyr: 2
  }
}
layer {
  name: "proposals"
  type: "BoxOutput"
  bottom: "LFCN_1_5x5"
  bottom: "LFCN_1_7x7"
  bottom: "LFCN_2_5x5"
  bottom: "LFCN_2_7x7"
  bottom: "LFCN_3_5x5"
  bottom: "LFCN_3_7x7"
  bottom: "LFCN_4_5x5"
  top: "proposals"
  propagate_down: false
  propagate_down: false
  propagate_down: false
  propagate_down: false
  propagate_down: false
  propagate_down: false
  propagate_down: false
  box_output_param {
    fg_thr: -8
    iou_thr: 0.65
    nms_type: "IOU"
    field_h: 60
    field_h: 84
    field_h: 120
    field_h: 168
    field_h: 240
    field_h: 336
    field_h: 480
    field_w: 60
    field_w: 84
    field_w: 120
    field_w: 168
    field_w: 240
    field_w: 336
    field_w: 480
    downsample_rate: 8
    downsample_rate: 8
    downsample_rate: 16
    downsample_rate: 16
    downsample_rate: 32
    downsample_rate: 32
    downsample_rate: 64
    field_whr: 2
    field_xyr: 2
    max_nms_num: 3000
  }
}
layer {
  name: "proposal_info"
  type: "ProposalTarget"
  bottom: "proposals"
  bottom: "gt_boxes"
  top: "rois"
  top: "proposal_labels"
  top: "proposal_targets"
  top: "box_inside_weights"
  top: "box_outside_weights"
  top: "match_gt_boxes"
  include {
    phase: TRAIN
  }
  propagate_down: false
  propagate_down: false
  proposal_target_param {
    cls_num: 5
    batch_size: 256
    fg_fraction: 0.25
    num_img_per_batch: 4
    fg_thr: 0.5
    bg_thr_hg: 0.49
    bg_thr_lw: 0.1
    img_width: 768
    img_height: 576
  }
  bbox_reg_param {
    bbox_mean: 0
    bbox_mean: 0
    bbox_mean: 0
    bbox_mean: 0
    bbox_std: 0.1
    bbox_std: 0.1
    bbox_std: 0.2
    bbox_std: 0.2
  }
}
layer {
  name: "conv4_3_2x"
  type: "Deconvolution"
  bottom: "conv4_3"
  top: "conv4_3_2x"
  param {
    lr_mult: 0
    decay_mult: 0
  }
  convolution_param {
    num_output: 512
    bias_term: false
    pad: 1
    kernel_size: 4
    group: 512
    stride: 2
    weight_filler {
      type: "bilinear"
    }
  }
}
layer {
  name: "conv4_3_2x_new"
  type: "Concat"
  bottom: "conv4_3_2x"
  bottom: "ch4_pool2"
  top: "conv4_3_2x_new"
}
layer {
  name: "roi_pool_org"
  type: "ROIPooling"
  bottom: "conv4_3_2x_new"
  bottom: "rois"
  top: "roi_pool_org"
  roi_pooling_param {
    pooled_h: 7
    pooled_w: 7
    spatial_scale: 0.25
    pad_ratio: 0
  }
}
layer {
  name: "roi_pool_ctx"
  type: "ROIPooling"
  bottom: "conv4_3_2x_new"
  bottom: "rois"
  top: "roi_pool_ctx"
  roi_pooling_param {
    pooled_h: 7
    pooled_w: 7
    spatial_scale: 0.25
    pad_ratio: 0.25
  }
}
layer {
  name: "roi_pool"
  type: "Concat"
  bottom: "roi_pool_org"
  bottom: "roi_pool_ctx"
  top: "roi_pool"
}
layer {
  name: "roi_c1"
  type: "Convolution"
  bottom: "roi_pool"
  top: "roi_c1"
  param {
    lr_mult: 1
    decay_mult: 1
  }
  param {
    lr_mult: 2
    decay_mult: 0
  }
  convolution_param {
    num_output: 512
    kernel_size: 3
    weight_filler {
      type: "gaussian"
      std: 0.01
    }
    bias_filler {
      type: "constant"
    }
  }
}
layer {
  name: "roi_c1_relu"
  type: "ReLU"
  bottom: "roi_c1"
  top: "roi_c1"
}
layer {
  name: "fc6"
  type: "InnerProduct"
  bottom: "roi_c1"
  top: "fc6"
  param {
    lr_mult: 1
  }
  param {
    lr_mult: 2
  }
  inner_product_param {
    num_output: 4096
    weight_filler {
      type: "gaussian"
      std: 0.001
    }
    bias_filler {
      type: "constant"
      value: 0
    }
  }
}
layer {
  name: "relu6"
  type: "ReLU"
  bottom: "fc6"
  top: "fc6"
}
layer {
  name: "drop6"
  type: "Dropout"
  bottom: "fc6"
  top: "fc6"
  dropout_param {
    dropout_ratio: 0.5
  }
}
layer {
  name: "cls_pred"
  type: "InnerProduct"
  bottom: "fc6"
  top: "cls_pred"
  param {
    lr_mult: 1
  }
  param {
    lr_mult: 2
  }
  inner_product_param {
    num_output: 5
    weight_filler {
      type: "gaussian"
      std: 0.01
    }
    bias_filler {
      type: "constant"
      value: 0
    }
  }
}
layer {
  name: "bbox_pred"
  type: "InnerProduct"
  bottom: "fc6"
  top: "bbox_pred"
  param {
    lr_mult: 1
  }
  param {
    lr_mult: 2
  }
  inner_product_param {
    num_output: 20
    weight_filler {
      type: "gaussian"
      std: 0.001
    }
    bias_filler {
      type: "constant"
      value: 0
    }
  }
}
layer {
  name: "loss_cls"
  type: "SoftmaxWithLoss"
  bottom: "cls_pred"
  bottom: "proposal_labels"
  top: "loss_cls"
  loss_weight: 1
  propagate_down: true
  propagate_down: false
}
layer {
  name: "cls_accuracy"
  type: "Accuracy"
  bottom: "cls_pred"
  bottom: "proposal_labels"
  top: "cls_accuracy"
}
layer {
  name: "loss_bbox"
  type: "SmoothL1Loss"
  bottom: "bbox_pred"
  bottom: "proposal_targets"
  bottom: "box_inside_weights"
  bottom: "box_outside_weights"
  top: "loss_bbox"
  loss_weight: 1
}
layer {
  name: "bbox_iou"
  type: "BboxAccuracy"
  bottom: "bbox_pred"
  bottom: "rois"
  bottom: "match_gt_boxes"
  top: "bbox_iou"
  top: "bbox_iou_pre"
  bbox_reg_param {
    bbox_mean: 0
    bbox_mean: 0
    bbox_mean: 0
    bbox_mean: 0
    bbox_std: 0.1
    bbox_std: 0.1
    bbox_std: 0.2
    bbox_std: 0.2
  }
}
I0819 23:29:22.961370 12682 layer_factory.hpp:77] Creating layer data
I0819 23:29:22.961408 12682 net.cpp:100] Creating Layer data
I0819 23:29:22.961416 12682 net.cpp:408] data -> data
…
I0819 23:29:22.984848 12682 image_gt_data_layer.cpp:235] output label size 2 : 3,6,48,48
I0819 23:29:22.984882 12682 image_gt_data_layer.cpp:235] output label size 3 : 3,6,48,48
I0819 23:29:22.984918 12682 image_gt_data_layer.cpp:235] output label size 4 : 3,6,24,24
I0819 23:29:22.984953 12682 image_gt_data_layer.cpp:235] output label size 5 : 3,6,24,24
I0819 23:29:22.984989 12682 image_gt_data_layer.cpp:235] output label size 6 : 3,6,12,12
I0819 23:29:22.985025 12682 image_gt_data_layer.cpp:250] output gt boxes size: 1,7,1,1
I0819 23:29:23.033227 12682 net.cpp:150] Setting up data
I0819 23:29:23.033259 12682 net.cpp:157] Top shape: 3 4 768 768 (7077888)
I0819 23:29:23.033264 12682 net.cpp:157] Top shape: 3 6 96 96 (165888)
I0819 23:29:23.033269 12682 net.cpp:157] Top shape: 3 6 96 96 (165888)
I0819 23:29:23.033272 12682 net.cpp:157] Top shape: 3 6 48 48 (41472)
I0819 23:29:23.033277 12682 net.cpp:157] Top shape: 3 6 48 48 (41472)
I0819 23:29:23.033280 12682 net.cpp:157] Top shape: 3 6 24 24 (10368)
I0819 23:29:23.033283 12682 net.cpp:157] Top shape: 3 6 24 24 (10368)
I0819 23:29:23.033287 12682 net.cpp:157] Top shape: 3 6 12 12 (2592)
I0819 23:29:23.033290 12682 net.cpp:157] Top shape: 1 7 1 1 (7)
I0819 23:29:23.033293 12682 net.cpp:165] Memory required for data: 30063772
I0819 23:29:23.033301 12682 layer_factory.hpp:77] Creating layer label_1_5x5_data_1_split
I0819 23:29:23.033316 12682 net.cpp:100] Creating Layer label_1_5x5_data_1_split
I0819 23:29:23.033323 12682 net.cpp:434] label_1_5x5_data_1_split <- label_1_5x5
I0819 23:29:23.033335 12682 net.cpp:408] label_1_5x5_data_1_split -> label_1_5x5_data_1_split_0
I0819 23:29:23.033344 12682 net.cpp:408] label_1_5x5_data_1_split -> label_1_5x5_data_1_split_1
I0819 23:29:23.033591 12682 net.cpp:150] Setting up label_1_5x5_data_1_split
I0819 23:29:23.033634 12682 net.cpp:157] Top shape: 3 6 96 96 (165888)
I0819 23:29:23.033648 12682 net.cpp:157] Top shape: 3 6 96 96 (165888)
I0819 23:29:23.033655 12682 net.cpp:165] Memory required for data: 31390876
I0819 23:29:23.033668 12682 layer_factory.hpp:77] Creating layer label_1_7x7_data_2_split
I0819 23:29:23.033689 12682 net.cpp:100] Creating Layer label_1_7x7_data_2_split
I0819 23:29:23.033699 12682 net.cpp:434] label_1_7x7_data_2_split <- label_1_7x7
I0819 23:29:23.033713 12682 net.cpp:408] label_1_7x7_data_2_split -> label_1_7x7_data_2_split_0
I0819 23:29:23.033731 12682 net.cpp:408] label_1_7x7_data_2_split -> label_1_7x7_data_2_split_1
I0819 23:29:23.033794 12682 net.cpp:150] Setting up label_1_7x7_data_2_split
I0819 23:29:23.033807 12682 net.cpp:157] Top shape: 3 6 96 96 (165888)
I0819 23:29:23.033816 12682 net.cpp:157] Top shape: 3 6 96 96 (165888)
I0819 23:29:23.033824 12682 net.cpp:165] Memory required for data: 32717980
I0819 23:29:23.033833 12682 layer_factory.hpp:77] Creating layer label_2_5x5_data_3_split
I0819 23:29:23.033843 12682 net.cpp:100] Creating Layer label_2_5x5_data_3_split
I0819 23:29:23.033850 12682 net.cpp:434] label_2_5x5_data_3_split <- label_2_5x5
I0819 23:29:23.033861 12682 net.cpp:408] label_2_5x5_data_3_split -> label_2_5x5_data_3_split_0
I0819 23:29:23.033874 12682 net.cpp:408] label_2_5x5_data_3_split -> label_2_5x5_data_3_split_1
I0819 23:29:23.033926 12682 net.cpp:150] Setting up label_2_5x5_data_3_split
I0819 23:29:23.033939 12682 net.cpp:157] Top shape: 3 6 48 48 (41472)
I0819 23:29:23.033948 12682 net.cpp:157] Top shape: 3 6 48 48 (41472)
I0819 23:29:23.033957 12682 net.cpp:165] Memory required for data: 33049756
I0819 23:29:23.033963 12682 layer_factory.hpp:77] Creating layer label_2_7x7_data_4_split
I0819 23:29:23.033974 12682 net.cpp:100] Creating Layer label_2_7x7_data_4_split
I0819 23:29:23.033983 12682 net.cpp:434] label_2_7x7_data_4_split <- label_2_7x7
I0819 23:29:23.033994 12682 net.cpp:408] label_2_7x7_data_4_split -> label_2_7x7_data_4_split_0
I0819 23:29:23.034006 12682 net.cpp:408] label_2_7x7_data_4_split -> label_2_7x7_data_4_split_1
I0819 23:29:23.034063 12682 net.cpp:150] Setting up label_2_7x7_data_4_split
I0819 23:29:23.034075 12682 net.cpp:157] Top shape: 3 6 48 48 (41472)
I0819 23:29:23.034086 12682 net.cpp:157] Top shape: 3 6 48 48 (41472)
I0819 23:29:23.034093 12682 net.cpp:165] Memory required for data: 33381532
I0819 23:29:23.034101 12682 layer_factory.hpp:77] Creating layer label_3_5x5_data_5_split
I0819 23:29:23.034111 12682 net.cpp:100] Creating Layer label_3_5x5_data_5_split
I0819 23:29:23.034119 12682 net.cpp:434] label_3_5x5_data_5_split <- label_3_5x5
I0819 23:29:23.034130 12682 net.cpp:408] label_3_5x5_data_5_split -> label_3_5x5_data_5_split_0
I0819 23:29:23.034142 12682 net.cpp:408] label_3_5x5_data_5_split -> label_3_5x5_data_5_split_1
I0819 23:29:23.034194 12682 net.cpp:150] Setting up label_3_5x5_data_5_split
I0819 23:29:23.034206 12682 net.cpp:157] Top shape: 3 6 24 24 (10368)
I0819 23:29:23.034215 12682 net.cpp:157] Top shape: 3 6 24 24 (10368)
I0819 23:29:23.034222 12682 net.cpp:165] Memory required for data: 33464476
I0819 23:29:23.034230 12682 layer_factory.hpp:77] Creating layer label_3_7x7_data_6_split
I0819 23:29:23.034240 12682 net.cpp:100] Creating Layer label_3_7x7_data_6_split
I0819 23:29:23.034246 12682 net.cpp:434] label_3_7x7_data_6_split <- label_3_7x7
I0819 23:29:23.034256 12682 net.cpp:408] label_3_7x7_data_6_split -> label_3_7x7_data_6_split_0
I0819 23:29:23.034268 12682 net.cpp:408] label_3_7x7_data_6_split -> label_3_7x7_data_6_split_1
I0819 23:29:23.034322 12682 net.cpp:150] Setting up label_3_7x7_data_6_split
I0819 23:29:23.034334 12682 net.cpp:157] Top shape: 3 6 24 24 (10368)
I0819 23:29:23.034343 12682 net.cpp:157] Top shape: 3 6 24 24 (10368)
I0819 23:29:23.034350 12682 net.cpp:165] Memory required for data: 33547420
I0819 23:29:23.034358 12682 layer_factory.hpp:77] Creating layer label_4_5x5_data_7_split
I0819 23:29:23.034366 12682 net.cpp:100] Creating Layer label_4_5x5_data_7_split
I0819 23:29:23.034374 12682 net.cpp:434] label_4_5x5_data_7_split <- label_4_5x5
I0819 23:29:23.034384 12682 net.cpp:408] label_4_5x5_data_7_split -> label_4_5x5_data_7_split_0
I0819 23:29:23.034395 12682 net.cpp:408] label_4_5x5_data_7_split -> label_4_5x5_data_7_split_1
I0819 23:29:23.034449 12682 net.cpp:150] Setting up label_4_5x5_data_7_split
I0819 23:29:23.034461 12682 net.cpp:157] Top shape: 3 6 12 12 (2592)
I0819 23:29:23.034471 12682 net.cpp:157] Top shape: 3 6 12 12 (2592)
I0819 23:29:23.034478 12682 net.cpp:165] Memory required for data: 33568156
I0819 23:29:23.034485 12682 layer_factory.hpp:77] Creating layer slice
I0819 23:29:23.034508 12682 net.cpp:100] Creating Layer slice
I0819 23:29:23.034518 12682 net.cpp:434] slice <- data
I0819 23:29:23.034528 12682 net.cpp:408] slice -> data123
I0819 23:29:23.034545 12682 net.cpp:408] slice -> ch4
I0819 23:29:23.034603 12682 net.cpp:150] Setting up slice
I0819 23:29:23.034616 12682 net.cpp:157] Top shape: 3 3 768 768 (5308416)
I0819 23:29:23.034626 12682 net.cpp:157] Top shape: 3 1 768 768 (1769472)
I0819 23:29:23.034632 12682 net.cpp:165] Memory required for data: 61879708
I0819 23:29:23.034639 12682 layer_factory.hpp:77] Creating layer conv1_1
I0819 23:29:23.034659 12682 net.cpp:100] Creating Layer conv1_1
I0819 23:29:23.034668 12682 net.cpp:434] conv1_1 <- data123
I0819 23:29:23.034679 12682 net.cpp:408] conv1_1 -> conv1_1
I0819 23:29:23.277107 12682 net.cpp:150] Setting up conv1_1
I0819 23:29:23.277132 12682 net.cpp:157] Top shape: 3 64 768 768 (113246208)
I0819 23:29:23.277137 12682 net.cpp:165] Memory required for data: 514864540
I0819 23:29:23.277155 12682 layer_factory.hpp:77] Creating layer relu1_1
I0819 23:29:23.277168 12682 net.cpp:100] Creating Layer relu1_1
I0819 23:29:23.277173 12682 net.cpp:434] relu1_1 <- conv1_1
I0819 23:29:23.277178 12682 net.cpp:395] relu1_1 -> conv1_1 (in-place)
I0819 23:29:23.277374 12682 net.cpp:150] Setting up relu1_1
I0819 23:29:23.277382 12682 net.cpp:157] Top shape: 3 64 768 768 (113246208)
I0819 23:29:23.277385 12682 net.cpp:165] Memory required for data: 967849372
I0819 23:29:23.277389 12682 layer_factory.hpp:77] Creating layer conv1_2
I0819 23:29:23.277400 12682 net.cpp:100] Creating Layer conv1_2
I0819 23:29:23.277403 12682 net.cpp:434] conv1_2 <- conv1_1
I0819 23:29:23.277411 12682 net.cpp:408] conv1_2 -> conv1_2
I0819 23:29:23.279574 12682 net.cpp:150] Setting up conv1_2
I0819 23:29:23.279592 12682 net.cpp:157] Top shape: 3 64 768 768 (113246208)
I0819 23:29:23.279597 12682 net.cpp:165] Memory required for data: 1420834204
I0819 23:29:23.279608 12682 layer_factory.hpp:77] Creating layer relu1_2
I0819 23:29:23.279614 12682 net.cpp:100] Creating Layer relu1_2
I0819 23:29:23.279618 12682 net.cpp:434] relu1_2 <- conv1_2
I0819 23:29:23.279626 12682 net.cpp:395] relu1_2 -> conv1_2 (in-place)
I0819 23:29:23.279796 12682 net.cpp:150] Setting up relu1_2
I0819 23:29:23.279805 12682 net.cpp:157] Top shape: 3 64 768 768 (113246208)
I0819 23:29:23.279809 12682 net.cpp:165] Memory required for data: 1873819036
I0819 23:29:23.279812 12682 layer_factory.hpp:77] Creating layer pool1
I0819 23:29:23.279820 12682 net.cpp:100] Creating Layer pool1
I0819 23:29:23.279824 12682 net.cpp:434] pool1 <- conv1_2
I0819 23:29:23.279829 12682 net.cpp:408] pool1 -> pool1
I0819 23:29:23.279881 12682 net.cpp:150] Setting up pool1
I0819 23:29:23.279886 12682 net.cpp:157] Top shape: 3 64 384 384 (28311552)
I0819 23:29:23.279889 12682 net.cpp:165] Memory required for data: 1987065244
I0819 23:29:23.279893 12682 layer_factory.hpp:77] Creating layer ch4_pool1
I0819 23:29:23.279898 12682 net.cpp:100] Creating Layer ch4_pool1
I0819 23:29:23.279901 12682 net.cpp:434] ch4_pool1 <- ch4
I0819 23:29:23.279906 12682 net.cpp:408] ch4_pool1 -> ch4_pool1
I0819 23:29:23.279935 12682 net.cpp:150] Setting up ch4_pool1
I0819 23:29:23.279942 12682 net.cpp:157] Top shape: 3 1 384 384 (442368)
I0819 23:29:23.279944 12682 net.cpp:165] Memory required for data: 1988834716
I0819 23:29:23.279947 12682 layer_factory.hpp:77] Creating layer ch4_pool1_ch4_pool1_0_split
I0819 23:29:23.279953 12682 net.cpp:100] Creating Layer ch4_pool1_ch4_pool1_0_split
I0819 23:29:23.279955 12682 net.cpp:434] ch4_pool1_ch4_pool1_0_split <- ch4_pool1
I0819 23:29:23.279959 12682 net.cpp:408] ch4_pool1_ch4_pool1_0_split -> ch4_pool1_ch4_pool1_0_split_0
I0819 23:29:23.279964 12682 net.cpp:408] ch4_pool1_ch4_pool1_0_split -> ch4_pool1_ch4_pool1_0_split_1
I0819 23:29:23.279992 12682 net.cpp:150] Setting up ch4_pool1_ch4_pool1_0_split
I0819 23:29:23.279999 12682 net.cpp:157] Top shape: 3 1 384 384 (442368)
I0819 23:29:23.280002 12682 net.cpp:157] Top shape: 3 1 384 384 (442368)
I0819 23:29:23.280005 12682 net.cpp:165] Memory required for data: 1992373660
I0819 23:29:23.280009 12682 layer_factory.hpp:77] Creating layer pool1_concat
I0819 23:29:23.280016 12682 net.cpp:100] Creating Layer pool1_concat
I0819 23:29:23.280019 12682 net.cpp:434] pool1_concat <- pool1
I0819 23:29:23.280023 12682 net.cpp:434] pool1_concat <- ch4_pool1_ch4_pool1_0_split_0
I0819 23:29:23.280027 12682 net.cpp:408] pool1_concat -> pool1_new
I0819 23:29:23.280046 12682 net.cpp:150] Setting up pool1_concat
I0819 23:29:23.280052 12682 net.cpp:157] Top shape: 3 65 384 384 (28753920)
I0819 23:29:23.280055 12682 net.cpp:165] Memory required for data: 2107389340
I0819 23:29:23.280058 12682 layer_factory.hpp:77] Creating layer conv2_1_new
I0819 23:29:23.280066 12682 net.cpp:100] Creating Layer conv2_1_new
I0819 23:29:23.280069 12682 net.cpp:434] conv2_1_new <- pool1_new
I0819 23:29:23.280076 12682 net.cpp:408] conv2_1_new -> conv2_1
I0819 23:29:23.282209 12682 net.cpp:150] Setting up conv2_1_new
I0819 23:29:23.282223 12682 net.cpp:157] Top shape: 3 128 384 384 (56623104)
I0819 23:29:23.282227 12682 net.cpp:165] Memory required for data: 2333881756
I0819 23:29:23.282235 12682 layer_factory.hpp:77] Creating layer relu2_1
I0819 23:29:23.282240 12682 net.cpp:100] Creating Layer relu2_1
I0819 23:29:23.282244 12682 net.cpp:434] relu2_1 <- conv2_1
I0819 23:29:23.282248 12682 net.cpp:395] relu2_1 -> conv2_1 (in-place)
I0819 23:29:23.282392 12682 net.cpp:150] Setting up relu2_1
I0819 23:29:23.282397 12682 net.cpp:157] Top shape: 3 128 384 384 (56623104)
I0819 23:29:23.282402 12682 net.cpp:165] Memory required for data: 2560374172
I0819 23:29:23.282404 12682 layer_factory.hpp:77] Creating layer conv2_2
I0819 23:29:23.282413 12682 net.cpp:100] Creating Layer conv2_2
I0819 23:29:23.282415 12682 net.cpp:434] conv2_2 <- conv2_1
I0819 23:29:23.282421 12682 net.cpp:408] conv2_2 -> conv2_2
I0819 23:29:23.283736 12682 net.cpp:150] Setting up conv2_2
I0819 23:29:23.283749 12682 net.cpp:157] Top shape: 3 128 384 384 (56623104)
I0819 23:29:23.283753 12682 net.cpp:165] Memory required for data: 2786866588
I0819 23:29:23.283759 12682 layer_factory.hpp:77] Creating layer relu2_2
I0819 23:29:23.283764 12682 net.cpp:100] Creating Layer relu2_2
I0819 23:29:23.283768 12682 net.cpp:434] relu2_2 <- conv2_2
I0819 23:29:23.283772 12682 net.cpp:395] relu2_2 -> conv2_2 (in-place)
I0819 23:29:23.283926 12682 net.cpp:150] Setting up relu2_2
I0819 23:29:23.283934 12682 net.cpp:157] Top shape: 3 128 384 384 (56623104)
I0819 23:29:23.283937 12682 net.cpp:165] Memory required for data: 3013359004
I0819 23:29:23.283941 12682 layer_factory.hpp:77] Creating layer pool2
I0819 23:29:23.283949 12682 net.cpp:100] Creating Layer pool2
I0819 23:29:23.283952 12682 net.cpp:434] pool2 <- conv2_2
I0819 23:29:23.283958 12682 net.cpp:408] pool2 -> pool2
I0819 23:29:23.283991 12682 net.cpp:150] Setting up pool2
I0819 23:29:23.283998 12682 net.cpp:157] Top shape: 3 128 192 192 (14155776)
I0819 23:29:23.284000 12682 net.cpp:165] Memory required for data: 3069982108
I0819 23:29:23.284003 12682 layer_factory.hpp:77] Creating layer ch4_pool2
I0819 23:29:23.284009 12682 net.cpp:100] Creating Layer ch4_pool2
I0819 23:29:23.284013 12682 net.cpp:434] ch4_pool2 <- ch4_pool1_ch4_pool1_0_split_1
I0819 23:29:23.284018 12682 net.cpp:408] ch4_pool2 -> ch4_pool2
I0819 23:29:23.284049 12682 net.cpp:150] Setting up ch4_pool2
I0819 23:29:23.284054 12682 net.cpp:157] Top shape: 3 1 192 192 (110592)
I0819 23:29:23.284057 12682 net.cpp:165] Memory required for data: 3070424476
I0819 23:29:23.284060 12682 layer_factory.hpp:77] Creating layer ch4_pool2_ch4_pool2_0_split
I0819 23:29:23.284066 12682 net.cpp:100] Creating Layer ch4_pool2_ch4_pool2_0_split
I0819 23:29:23.284070 12682 net.cpp:434] ch4_pool2_ch4_pool2_0_split <- ch4_pool2
I0819 23:29:23.284075 12682 net.cpp:408] ch4_pool2_ch4_pool2_0_split -> ch4_pool2_ch4_pool2_0_split_0
I0819 23:29:23.284080 12682 net.cpp:408] ch4_pool2_ch4_pool2_0_split -> ch4_pool2_ch4_pool2_0_split_1
I0819 23:29:23.284085 12682 net.cpp:408] ch4_pool2_ch4_pool2_0_split -> ch4_pool2_ch4_pool2_0_split_2
I0819 23:29:23.284126 12682 net.cpp:150] Setting up ch4_pool2_ch4_pool2_0_split
I0819 23:29:23.284132 12682 net.cpp:157] Top shape: 3 1 192 192 (110592)
I0819 23:29:23.284135 12682 net.cpp:157] Top shape: 3 1 192 192 (110592)
I0819 23:29:23.284139 12682 net.cpp:157] Top shape: 3 1 192 192 (110592)
I0819 23:29:23.284142 12682 net.cpp:165] Memory required for data: 3071751580
I0819 23:29:23.284145 12682 layer_factory.hpp:77] Creating layer pool2_concat
I0819 23:29:23.284150 12682 net.cpp:100] Creating Layer pool2_concat
I0819 23:29:23.284154 12682 net.cpp:434] pool2_concat <- pool2
I0819 23:29:23.284158 12682 net.cpp:434] pool2_concat <- ch4_pool2_ch4_pool2_0_split_0
I0819 23:29:23.284163 12682 net.cpp:408] pool2_concat -> pool2_new
I0819 23:29:23.284183 12682 net.cpp:150] Setting up pool2_concat
I0819 23:29:23.284190 12682 net.cpp:157] Top shape: 3 129 192 192 (14266368)
I0819 23:29:23.284194 12682 net.cpp:165] Memory required for data: 3128817052
I0819 23:29:23.284198 12682 layer_factory.hpp:77] Creating layer conv3_1_new
I0819 23:29:23.284205 12682 net.cpp:100] Creating Layer conv3_1_new
I0819 23:29:23.284209 12682 net.cpp:434] conv3_1_new <- pool2_new
I0819 23:29:23.284215 12682 net.cpp:408] conv3_1_new -> conv3_1
I0819 23:29:23.286373 12682 net.cpp:150] Setting up conv3_1_new
I0819 23:29:23.286386 12682 net.cpp:157] Top shape: 3 256 192 192 (28311552)
I0819 23:29:23.286389 12682 net.cpp:165] Memory required for data: 3242063260
I0819 23:29:23.286397 12682 layer_factory.hpp:77] Creating layer relu3_1
I0819 23:29:23.286404 12682 net.cpp:100] Creating Layer relu3_1
I0819 23:29:23.286408 12682 net.cpp:434] relu3_1 <- conv3_1
I0819 23:29:23.286412 12682 net.cpp:395] relu3_1 -> conv3_1 (in-place)
I0819 23:29:23.286854 12682 net.cpp:150] Setting up relu3_1
I0819 23:29:23.286870 12682 net.cpp:157] Top shape: 3 256 192 192 (28311552)
I0819 23:29:23.286875 12682 net.cpp:165] Memory required for data: 3355309468
I0819 23:29:23.286878 12682 layer_factory.hpp:77] Creating layer conv3_2
I0819 23:29:23.286893 12682 net.cpp:100] Creating Layer conv3_2
I0819 23:29:23.286898 12682 net.cpp:434] conv3_2 <- conv3_1
I0819 23:29:23.286908 12682 net.cpp:408] conv3_2 -> conv3_2
I0819 23:29:23.291196 12682 net.cpp:150] Setting up conv3_2
I0819 23:29:23.291235 12682 net.cpp:157] Top shape: 3 256 192 192 (28311552)
I0819 23:29:23.291239 12682 net.cpp:165] Memory required for data: 3468555676
I0819 23:29:23.291250 12682 layer_factory.hpp:77] Creating layer relu3_2
I0819 23:29:23.291265 12682 net.cpp:100] Creating Layer relu3_2
I0819 23:29:23.291271 12682 net.cpp:434] relu3_2 <- conv3_2
I0819 23:29:23.291277 12682 net.cpp:395] relu3_2 -> conv3_2 (in-place)
I0819 23:29:23.291739 12682 net.cpp:150] Setting up relu3_2
I0819 23:29:23.291752 12682 net.cpp:157] Top shape: 3 256 192 192 (28311552)
I0819 23:29:23.291756 12682 net.cpp:165] Memory required for data: 3581801884
I0819 23:29:23.291761 12682 layer_factory.hpp:77] Creating layer conv3_3
I0819 23:29:23.291775 12682 net.cpp:100] Creating Layer conv3_3
I0819 23:29:23.291780 12682 net.cpp:434] conv3_3 <- conv3_2
I0819 23:29:23.291790 12682 net.cpp:408] conv3_3 -> conv3_3
I0819 23:29:23.294636 12682 net.cpp:150] Setting up conv3_3
I0819 23:29:23.294661 12682 net.cpp:157] Top shape: 3 256 192 192 (28311552)
I0819 23:29:23.294665 12682 net.cpp:165] Memory required for data: 3695048092
I0819 23:29:23.294674 12682 layer_factory.hpp:77] Creating layer relu3_3
I0819 23:29:23.294684 12682 net.cpp:100] Creating Layer relu3_3
I0819 23:29:23.294690 12682 net.cpp:434] relu3_3 <- conv3_3
I0819 23:29:23.294697 12682 net.cpp:395] relu3_3 -> conv3_3 (in-place)
I0819 23:29:23.294862 12682 net.cpp:150] Setting up relu3_3
I0819 23:29:23.294869 12682 net.cpp:157] Top shape: 3 256 192 192 (28311552)
I0819 23:29:23.294873 12682 net.cpp:165] Memory required for data: 3808294300
I0819 23:29:23.294876 12682 layer_factory.hpp:77] Creating layer pool3
I0819 23:29:23.294884 12682 net.cpp:100] Creating Layer pool3
I0819 23:29:23.294888 12682 net.cpp:434] pool3 <- conv3_3
I0819 23:29:23.294893 12682 net.cpp:408] pool3 -> pool3
I0819 23:29:23.294929 12682 net.cpp:150] Setting up pool3
I0819 23:29:23.294936 12682 net.cpp:157] Top shape: 3 256 96 96 (7077888)
I0819 23:29:23.294939 12682 net.cpp:165] Memory required for data: 3836605852
I0819 23:29:23.294942 12682 layer_factory.hpp:77] Creating layer ch4_pool3
I0819 23:29:23.294951 12682 net.cpp:100] Creating Layer ch4_pool3
I0819 23:29:23.294955 12682 net.cpp:434] ch4_pool3 <- ch4_pool2_ch4_pool2_0_split_1
I0819 23:29:23.294961 12682 net.cpp:408] ch4_pool3 -> ch4_pool3
I0819 23:29:23.294991 12682 net.cpp:150] Setting up ch4_pool3
I0819 23:29:23.294998 12682 net.cpp:157] Top shape: 3 1 96 96 (27648)
I0819 23:29:23.295001 12682 net.cpp:165] Memory required for data: 3836716444
I0819 23:29:23.295004 12682 layer_factory.hpp:77] Creating layer ch4_pool3_ch4_pool3_0_split
I0819 23:29:23.295011 12682 net.cpp:100] Creating Layer ch4_pool3_ch4_pool3_0_split
I0819 23:29:23.295013 12682 net.cpp:434] ch4_pool3_ch4_pool3_0_split <- ch4_pool3
I0819 23:29:23.295018 12682 net.cpp:408] ch4_pool3_ch4_pool3_0_split -> ch4_pool3_ch4_pool3_0_split_0
I0819 23:29:23.295025 12682 net.cpp:408] ch4_pool3_ch4_pool3_0_split -> ch4_pool3_ch4_pool3_0_split_1
I0819 23:29:23.295055 12682 net.cpp:150] Setting up ch4_pool3_ch4_pool3_0_split
I0819 23:29:23.295061 12682 net.cpp:157] Top shape: 3 1 96 96 (27648)
I0819 23:29:23.295065 12682 net.cpp:157] Top shape: 3 1 96 96 (27648)
I0819 23:29:23.295068 12682 net.cpp:165] Memory required for data: 3836937628
I0819 23:29:23.295071 12682 layer_factory.hpp:77] Creating layer pool3_concat
I0819 23:29:23.295078 12682 net.cpp:100] Creating Layer pool3_concat
I0819 23:29:23.295081 12682 net.cpp:434] pool3_concat <- pool3
I0819 23:29:23.295085 12682 net.cpp:434] pool3_concat <- ch4_pool3_ch4_pool3_0_split_0
I0819 23:29:23.295089 12682 net.cpp:408] pool3_concat -> pool3_new
I0819 23:29:23.295109 12682 net.cpp:150] Setting up pool3_concat
I0819 23:29:23.295116 12682 net.cpp:157] Top shape: 3 257 96 96 (7105536)
I0819 23:29:23.295120 12682 net.cpp:165] Memory required for data: 3865359772
I0819 23:29:23.295123 12682 layer_factory.hpp:77] Creating layer conv4_1_new
I0819 23:29:23.295131 12682 net.cpp:100] Creating Layer conv4_1_new
I0819 23:29:23.295135 12682 net.cpp:434] conv4_1_new <- pool3_new
I0819 23:29:23.295140 12682 net.cpp:408] conv4_1_new -> conv4_1
I0819 23:29:23.301437 12682 net.cpp:150] Setting up conv4_1_new
I0819 23:29:23.301468 12682 net.cpp:157] Top shape: 3 512 96 96 (14155776)
I0819 23:29:23.301475 12682 net.cpp:165] Memory required for data: 3921982876
I0819 23:29:23.301486 12682 layer_factory.hpp:77] Creating layer relu4_1
I0819 23:29:23.301499 12682 net.cpp:100] Creating Layer relu4_1
I0819 23:29:23.301506 12682 net.cpp:434] relu4_1 <- conv4_1
I0819 23:29:23.301515 12682 net.cpp:395] relu4_1 -> conv4_1 (in-place)
I0819 23:29:23.301733 12682 net.cpp:150] Setting up relu4_1
I0819 23:29:23.301745 12682 net.cpp:157] Top shape: 3 512 96 96 (14155776)
I0819 23:29:23.301750 12682 net.cpp:165] Memory required for data: 3978605980
I0819 23:29:23.301755 12682 layer_factory.hpp:77] Creating layer conv4_2
I0819 23:29:23.301769 12682 net.cpp:100] Creating Layer conv4_2
I0819 23:29:23.301774 12682 net.cpp:434] conv4_2 <- conv4_1
I0819 23:29:23.301780 12682 net.cpp:408] conv4_2 -> conv4_2
I0819 23:29:23.308743 12682 net.cpp:150] Setting up conv4_2
I0819 23:29:23.308774 12682 net.cpp:157] Top shape: 3 512 96 96 (14155776)
I0819 23:29:23.308779 12682 net.cpp:165] Memory required for data: 4035229084
I0819 23:29:23.308796 12682 layer_factory.hpp:77] Creating layer relu4_2
I0819 23:29:23.308810 12682 net.cpp:100] Creating Layer relu4_2
I0819 23:29:23.308818 12682 net.cpp:434] relu4_2 <- conv4_2
I0819 23:29:23.308825 12682 net.cpp:395] relu4_2 -> conv4_2 (in-place)
I0819 23:29:23.309010 12682 net.cpp:150] Setting up relu4_2
I0819 23:29:23.309021 12682 net.cpp:157] Top shape: 3 512 96 96 (14155776)
I0819 23:29:23.309026 12682 net.cpp:165] Memory required for data: 4091852188
I0819 23:29:23.309029 12682 layer_factory.hpp:77] Creating layer conv4_3
I0819 23:29:23.309041 12682 net.cpp:100] Creating Layer conv4_3
I0819 23:29:23.309044 12682 net.cpp:434] conv4_3 <- conv4_2
I0819 23:29:23.309051 12682 net.cpp:408] conv4_3 -> conv4_3
I0819 23:29:23.315095 12682 net.cpp:150] Setting up conv4_3
I0819 23:29:23.315127 12682 net.cpp:157] Top shape: 3 512 96 96 (14155776)
I0819 23:29:23.315131 12682 net.cpp:165] Memory required for data: 4148475292
I0819 23:29:23.315140 12682 layer_factory.hpp:77] Creating layer relu4_3
I0819 23:29:23.315152 12682 net.cpp:100] Creating Layer relu4_3
I0819 23:29:23.315158 12682 net.cpp:434] relu4_3 <- conv4_3
I0819 23:29:23.315163 12682 net.cpp:395] relu4_3 -> conv4_3 (in-place)
I0819 23:29:23.315316 12682 net.cpp:150] Setting up relu4_3
I0819 23:29:23.315325 12682 net.cpp:157] Top shape: 3 512 96 96 (14155776)
I0819 23:29:23.315328 12682 net.cpp:165] Memory required for data: 4205098396
I0819 23:29:23.315331 12682 layer_factory.hpp:77] Creating layer conv4_3_relu4_3_0_split
I0819 23:29:23.315337 12682 net.cpp:100] Creating Layer conv4_3_relu4_3_0_split
I0819 23:29:23.315341 12682 net.cpp:434] conv4_3_relu4_3_0_split <- conv4_3
I0819 23:29:23.315346 12682 net.cpp:408] conv4_3_relu4_3_0_split -> conv4_3_relu4_3_0_split_0
I0819 23:29:23.315353 12682 net.cpp:408] conv4_3_relu4_3_0_split -> conv4_3_relu4_3_0_split_1
I0819 23:29:23.315387 12682 net.cpp:150] Setting up conv4_3_relu4_3_0_split
I0819 23:29:23.315393 12682 net.cpp:157] Top shape: 3 512 96 96 (14155776)
I0819 23:29:23.315397 12682 net.cpp:157] Top shape: 3 512 96 96 (14155776)
I0819 23:29:23.315400 12682 net.cpp:165] Memory required for data: 4318344604
I0819 23:29:23.315403 12682 layer_factory.hpp:77] Creating layer conv4_concat
I0819 23:29:23.315409 12682 net.cpp:100] Creating Layer conv4_concat
I0819 23:29:23.315413 12682 net.cpp:434] conv4_concat <- conv4_3_relu4_3_0_split_0
I0819 23:29:23.315418 12682 net.cpp:434] conv4_concat <- ch4_pool3_ch4_pool3_0_split_1
I0819 23:29:23.315421 12682 net.cpp:408] conv4_concat -> conv4_3_new
I0819 23:29:23.315450 12682 net.cpp:150] Setting up conv4_concat
I0819 23:29:23.315455 12682 net.cpp:157] Top shape: 3 513 96 96 (14183424)
I0819 23:29:23.315459 12682 net.cpp:165] Memory required for data: 4375078300
I0819 23:29:23.315461 12682 layer_factory.hpp:77] Creating layer conv4_3_new_conv4_concat_0_split
I0819 23:29:23.315465 12682 net.cpp:100] Creating Layer conv4_3_new_conv4_concat_0_split
I0819 23:29:23.315469 12682 net.cpp:434] conv4_3_new_conv4_concat_0_split <- conv4_3_new
I0819 23:29:23.315474 12682 net.cpp:408] conv4_3_new_conv4_concat_0_split -> conv4_3_new_conv4_concat_0_split_0
I0819 23:29:23.315480 12682 net.cpp:408] conv4_3_new_conv4_concat_0_split -> conv4_3_new_conv4_concat_0_split_1
I0819 23:29:23.315508 12682 net.cpp:150] Setting up conv4_3_new_conv4_concat_0_split
I0819 23:29:23.315515 12682 net.cpp:157] Top shape: 3 513 96 96 (14183424)
I0819 23:29:23.315521 12682 net.cpp:157] Top shape: 3 513 96 96 (14183424)
I0819 23:29:23.315523 12682 net.cpp:165] Memory required for data: 4488545692
I0819 23:29:23.315526 12682 layer_factory.hpp:77] Creating layer loss1_conv1
I0819 23:29:23.315536 12682 net.cpp:100] Creating Layer loss1_conv1
I0819 23:29:23.315541 12682 net.cpp:434] loss1_conv1 <- conv4_3_new_conv4_concat_0_split_0
I0819 23:29:23.315546 12682 net.cpp:408] loss1_conv1 -> loss1_conv1
I0819 23:29:23.374776 12682 net.cpp:150] Setting up loss1_conv1
I0819 23:29:23.374801 12682 net.cpp:157] Top shape: 3 512 96 96 (14155776)
I0819 23:29:23.374804 12682 net.cpp:165] Memory required for data: 4545168796
I0819 23:29:23.374811 12682 layer_factory.hpp:77] Creating layer loss_relu1
I0819 23:29:23.374821 12682 net.cpp:100] Creating Layer loss_relu1
I0819 23:29:23.374826 12682 net.cpp:434] loss_relu1 <- loss1_conv1
I0819 23:29:23.374831 12682 net.cpp:395] loss_relu1 -> loss1_conv1 (in-place)
I0819 23:29:23.375258 12682 net.cpp:150] Setting up loss_relu1
I0819 23:29:23.375270 12682 net.cpp:157] Top shape: 3 512 96 96 (14155776)
I0819 23:29:23.375273 12682 net.cpp:165] Memory required for data: 4601791900
I0819 23:29:23.375277 12682 layer_factory.hpp:77] Creating layer loss1_conv1_loss_relu1_0_split
I0819 23:29:23.375284 12682 net.cpp:100] Creating Layer loss1_conv1_loss_relu1_0_split
I0819 23:29:23.375288 12682 net.cpp:434] loss1_conv1_loss_relu1_0_split <- loss1_conv1
I0819 23:29:23.375293 12682 net.cpp:408] loss1_conv1_loss_relu1_0_split -> loss1_conv1_loss_relu1_0_split_0
I0819 23:29:23.375299 12682 net.cpp:408] loss1_conv1_loss_relu1_0_split -> loss1_conv1_loss_relu1_0_split_1
I0819 23:29:23.375334 12682 net.cpp:150] Setting up loss1_conv1_loss_relu1_0_split
I0819 23:29:23.375340 12682 net.cpp:157] Top shape: 3 512 96 96 (14155776)
I0819 23:29:23.375345 12682 net.cpp:157] Top shape: 3 512 96 96 (14155776)
I0819 23:29:23.375347 12682 net.cpp:165] Memory required for data: 4715038108
I0819 23:29:23.375350 12682 layer_factory.hpp:77] Creating layer LFCN_1_5x5
I0819 23:29:23.375360 12682 net.cpp:100] Creating Layer LFCN_1_5x5
I0819 23:29:23.375365 12682 net.cpp:434] LFCN_1_5x5 <- loss1_conv1_loss_relu1_0_split_0
I0819 23:29:23.375370 12682 net.cpp:408] LFCN_1_5x5 -> LFCN_1_5x5
I0819 23:29:23.378723 12682 net.cpp:150] Setting up LFCN_1_5x5
I0819 23:29:23.378733 12682 net.cpp:157] Top shape: 3 9 96 96 (248832)
I0819 23:29:23.378736 12682 net.cpp:165] Memory required for data: 4716033436
I0819 23:29:23.378741 12682 layer_factory.hpp:77] Creating layer LFCN_1_5x5_LFCN_1_5x5_0_split
I0819 23:29:23.378746 12682 net.cpp:100] Creating Layer LFCN_1_5x5_LFCN_1_5x5_0_split
I0819 23:29:23.378748 12682 net.cpp:434] LFCN_1_5x5_LFCN_1_5x5_0_split <- LFCN_1_5x5
I0819 23:29:23.378753 12682 net.cpp:408] LFCN_1_5x5_LFCN_1_5x5_0_split -> LFCN_1_5x5_LFCN_1_5x5_0_split_0
I0819 23:29:23.378758 12682 net.cpp:408] LFCN_1_5x5_LFCN_1_5x5_0_split -> LFCN_1_5x5_LFCN_1_5x5_0_split_1
I0819 23:29:23.378764 12682 net.cpp:408] LFCN_1_5x5_LFCN_1_5x5_0_split -> LFCN_1_5x5_LFCN_1_5x5_0_split_2
I0819 23:29:23.378800 12682 net.cpp:150] Setting up LFCN_1_5x5_LFCN_1_5x5_0_split
I0819 23:29:23.378805 12682 net.cpp:157] Top shape: 3 9 96 96 (248832)
I0819 23:29:23.378809 12682 net.cpp:157] Top shape: 3 9 96 96 (248832)
I0819 23:29:23.378813 12682 net.cpp:157] Top shape: 3 9 96 96 (248832)
I0819 23:29:23.378815 12682 net.cpp:165] Memory required for data: 4719019420
I0819 23:29:23.378818 12682 layer_factory.hpp:77] Creating layer detection_loss_1_5x5
I0819 23:29:23.378823 12682 net.cpp:100] Creating Layer detection_loss_1_5x5
I0819 23:29:23.378826 12682 net.cpp:434] detection_loss_1_5x5 <- LFCN_1_5x5_LFCN_1_5x5_0_split_0
I0819 23:29:23.378830 12682 net.cpp:434] detection_loss_1_5x5 <- label_1_5x5_data_1_split_0
I0819 23:29:23.378835 12682 net.cpp:408] detection_loss_1_5x5 -> loss_1_5x5
I0819 23:29:23.378847 12682 layer_factory.hpp:77] Creating layer detection_loss_1_5x5
I0819 23:29:23.380280 12682 net.cpp:150] Setting up detection_loss_1_5x5
I0819 23:29:23.380293 12682 net.cpp:157] Top shape: 1 1 1 2 (2)
I0819 23:29:23.380297 12682 net.cpp:160]     with loss weight 0.9
I0819 23:29:23.380316 12682 net.cpp:165] Memory required for data: 4719019428
I0819 23:29:23.380319 12682 layer_factory.hpp:77] Creating layer detection_accuracy_1_5x5
I0819 23:29:23.380327 12682 net.cpp:100] Creating Layer detection_accuracy_1_5x5
I0819 23:29:23.380331 12682 net.cpp:434] detection_accuracy_1_5x5 <- LFCN_1_5x5_LFCN_1_5x5_0_split_1
I0819 23:29:23.380336 12682 net.cpp:434] detection_accuracy_1_5x5 <- label_1_5x5_data_1_split_1
I0819 23:29:23.380340 12682 net.cpp:408] detection_accuracy_1_5x5 -> accuracy_1_5x5
I0819 23:29:23.380353 12682 net.cpp:408] detection_accuracy_1_5x5 -> boxiou_1_5x5
I0819 23:29:23.380393 12682 net.cpp:150] Setting up detection_accuracy_1_5x5
I0819 23:29:23.380399 12682 net.cpp:157] Top shape: 1 1 1 2 (2)
I0819 23:29:23.380404 12682 net.cpp:157] Top shape: 1 1 1 1 (1)
I0819 23:29:23.380408 12682 net.cpp:165] Memory required for data: 4719019440
I0819 23:29:23.380410 12682 layer_factory.hpp:77] Creating layer LFCN_1_7x7
I0819 23:29:23.380420 12682 net.cpp:100] Creating Layer LFCN_1_7x7
I0819 23:29:23.380424 12682 net.cpp:434] LFCN_1_7x7 <- loss1_conv1_loss_relu1_0_split_1
I0819 23:29:23.380431 12682 net.cpp:408] LFCN_1_7x7 -> LFCN_1_7x7
I0819 23:29:23.386953 12682 net.cpp:150] Setting up LFCN_1_7x7
I0819 23:29:23.386966 12682 net.cpp:157] Top shape: 3 9 96 96 (248832)
I0819 23:29:23.386970 12682 net.cpp:165] Memory required for data: 4720014768
I0819 23:29:23.386976 12682 layer_factory.hpp:77] Creating layer LFCN_1_7x7_LFCN_1_7x7_0_split
I0819 23:29:23.386981 12682 net.cpp:100] Creating Layer LFCN_1_7x7_LFCN_1_7x7_0_split
I0819 23:29:23.386986 12682 net.cpp:434] LFCN_1_7x7_LFCN_1_7x7_0_split <- LFCN_1_7x7
I0819 23:29:23.386991 12682 net.cpp:408] LFCN_1_7x7_LFCN_1_7x7_0_split -> LFCN_1_7x7_LFCN_1_7x7_0_split_0
I0819 23:29:23.386997 12682 net.cpp:408] LFCN_1_7x7_LFCN_1_7x7_0_split -> LFCN_1_7x7_LFCN_1_7x7_0_split_1
I0819 23:29:23.387002 12682 net.cpp:408] LFCN_1_7x7_LFCN_1_7x7_0_split -> LFCN_1_7x7_LFCN_1_7x7_0_split_2
I0819 23:29:23.387045 12682 net.cpp:150] Setting up LFCN_1_7x7_LFCN_1_7x7_0_split
I0819 23:29:23.387053 12682 net.cpp:157] Top shape: 3 9 96 96 (248832)
I0819 23:29:23.387056 12682 net.cpp:157] Top shape: 3 9 96 96 (248832)
I0819 23:29:23.387060 12682 net.cpp:157] Top shape: 3 9 96 96 (248832)
I0819 23:29:23.387063 12682 net.cpp:165] Memory required for data: 4723000752
I0819 23:29:23.387066 12682 layer_factory.hpp:77] Creating layer detection_loss_1_7x7
I0819 23:29:23.387073 12682 net.cpp:100] Creating Layer detection_loss_1_7x7
I0819 23:29:23.387076 12682 net.cpp:434] detection_loss_1_7x7 <- LFCN_1_7x7_LFCN_1_7x7_0_split_0
I0819 23:29:23.387081 12682 net.cpp:434] detection_loss_1_7x7 <- label_1_7x7_data_2_split_0
I0819 23:29:23.387086 12682 net.cpp:408] detection_loss_1_7x7 -> loss_1_7x7
I0819 23:29:23.387094 12682 layer_factory.hpp:77] Creating layer detection_loss_1_7x7
I0819 23:29:23.387449 12682 net.cpp:150] Setting up detection_loss_1_7x7
I0819 23:29:23.387459 12682 net.cpp:157] Top shape: 1 1 1 2 (2)
I0819 23:29:23.387462 12682 net.cpp:160]     with loss weight 0.9
I0819 23:29:23.387468 12682 net.cpp:165] Memory required for data: 4723000760
I0819 23:29:23.387471 12682 layer_factory.hpp:77] Creating layer detection_accuracy_1_7x7
I0819 23:29:23.387477 12682 net.cpp:100] Creating Layer detection_accuracy_1_7x7
I0819 23:29:23.387481 12682 net.cpp:434] detection_accuracy_1_7x7 <- LFCN_1_7x7_LFCN_1_7x7_0_split_1
I0819 23:29:23.387485 12682 net.cpp:434] detection_accuracy_1_7x7 <- label_1_7x7_data_2_split_1
I0819 23:29:23.387490 12682 net.cpp:408] detection_accuracy_1_7x7 -> accuracy_1_7x7
I0819 23:29:23.387496 12682 net.cpp:408] detection_accuracy_1_7x7 -> boxiou_1_7x7
I0819 23:29:23.387529 12682 net.cpp:150] Setting up detection_accuracy_1_7x7
I0819 23:29:23.387547 12682 net.cpp:157] Top shape: 1 1 1 2 (2)
I0819 23:29:23.387549 12682 net.cpp:157] Top shape: 1 1 1 1 (1)
I0819 23:29:23.387552 12682 net.cpp:165] Memory required for data: 4723000772
I0819 23:29:23.387555 12682 layer_factory.hpp:77] Creating layer pool4
I0819 23:29:23.387562 12682 net.cpp:100] Creating Layer pool4
I0819 23:29:23.387565 12682 net.cpp:434] pool4 <- conv4_3_new_conv4_concat_0_split_1
I0819 23:29:23.387570 12682 net.cpp:408] pool4 -> pool4
I0819 23:29:23.387603 12682 net.cpp:150] Setting up pool4
I0819 23:29:23.387609 12682 net.cpp:157] Top shape: 3 513 48 48 (3545856)
I0819 23:29:23.387611 12682 net.cpp:165] Memory required for data: 4737184196
I0819 23:29:23.387614 12682 layer_factory.hpp:77] Creating layer conv5_1_new
I0819 23:29:23.387624 12682 net.cpp:100] Creating Layer conv5_1_new
I0819 23:29:23.387626 12682 net.cpp:434] conv5_1_new <- pool4
I0819 23:29:23.387631 12682 net.cpp:408] conv5_1_new -> conv5_1
I0819 23:29:23.393724 12682 net.cpp:150] Setting up conv5_1_new
I0819 23:29:23.393754 12682 net.cpp:157] Top shape: 3 512 48 48 (3538944)
I0819 23:29:23.393757 12682 net.cpp:165] Memory required for data: 4751339972
I0819 23:29:23.393764 12682 layer_factory.hpp:77] Creating layer relu5_1
I0819 23:29:23.393774 12682 net.cpp:100] Creating Layer relu5_1
I0819 23:29:23.393780 12682 net.cpp:434] relu5_1 <- conv5_1
I0819 23:29:23.393785 12682 net.cpp:395] relu5_1 -> conv5_1 (in-place)
I0819 23:29:23.393949 12682 net.cpp:150] Setting up relu5_1
I0819 23:29:23.393959 12682 net.cpp:157] Top shape: 3 512 48 48 (3538944)
I0819 23:29:23.393962 12682 net.cpp:165] Memory required for data: 4765495748
I0819 23:29:23.393965 12682 layer_factory.hpp:77] Creating layer conv5_2
I0819 23:29:23.393976 12682 net.cpp:100] Creating Layer conv5_2
I0819 23:29:23.393980 12682 net.cpp:434] conv5_2 <- conv5_1
I0819 23:29:23.393985 12682 net.cpp:408] conv5_2 -> conv5_2
I0819 23:29:23.399585 12682 net.cpp:150] Setting up conv5_2
I0819 23:29:23.399616 12682 net.cpp:157] Top shape: 3 512 48 48 (3538944)
I0819 23:29:23.399621 12682 net.cpp:165] Memory required for data: 4779651524
I0819 23:29:23.399629 12682 layer_factory.hpp:77] Creating layer relu5_2
I0819 23:29:23.399641 12682 net.cpp:100] Creating Layer relu5_2
I0819 23:29:23.399646 12682 net.cpp:434] relu5_2 <- conv5_2
I0819 23:29:23.399653 12682 net.cpp:395] relu5_2 -> conv5_2 (in-place)
I0819 23:29:23.399814 12682 net.cpp:150] Setting up relu5_2
I0819 23:29:23.399823 12682 net.cpp:157] Top shape: 3 512 48 48 (3538944)
I0819 23:29:23.399827 12682 net.cpp:165] Memory required for data: 4793807300
I0819 23:29:23.399829 12682 layer_factory.hpp:77] Creating layer conv5_3
I0819 23:29:23.399839 12682 net.cpp:100] Creating Layer conv5_3
I0819 23:29:23.399842 12682 net.cpp:434] conv5_3 <- conv5_2
I0819 23:29:23.399848 12682 net.cpp:408] conv5_3 -> conv5_3
I0819 23:29:23.405717 12682 net.cpp:150] Setting up conv5_3
I0819 23:29:23.405748 12682 net.cpp:157] Top shape: 3 512 48 48 (3538944)
I0819 23:29:23.405752 12682 net.cpp:165] Memory required for data: 4807963076
I0819 23:29:23.405761 12682 layer_factory.hpp:77] Creating layer relu5_3
I0819 23:29:23.405773 12682 net.cpp:100] Creating Layer relu5_3
I0819 23:29:23.405779 12682 net.cpp:434] relu5_3 <- conv5_3
I0819 23:29:23.405784 12682 net.cpp:395] relu5_3 -> conv5_3 (in-place)
I0819 23:29:23.405975 12682 net.cpp:150] Setting up relu5_3
I0819 23:29:23.405987 12682 net.cpp:157] Top shape: 3 512 48 48 (3538944)
I0819 23:29:23.405989 12682 net.cpp:165] Memory required for data: 4822118852
I0819 23:29:23.405993 12682 layer_factory.hpp:77] Creating layer conv5_3_relu5_3_0_split
I0819 23:29:23.405999 12682 net.cpp:100] Creating Layer conv5_3_relu5_3_0_split
I0819 23:29:23.406002 12682 net.cpp:434] conv5_3_relu5_3_0_split <- conv5_3
I0819 23:29:23.406008 12682 net.cpp:408] conv5_3_relu5_3_0_split -> conv5_3_relu5_3_0_split_0
I0819 23:29:23.406015 12682 net.cpp:408] conv5_3_relu5_3_0_split -> conv5_3_relu5_3_0_split_1
I0819 23:29:23.406021 12682 net.cpp:408] conv5_3_relu5_3_0_split -> conv5_3_relu5_3_0_split_2
I0819 23:29:23.406069 12682 net.cpp:150] Setting up conv5_3_relu5_3_0_split
I0819 23:29:23.406076 12682 net.cpp:157] Top shape: 3 512 48 48 (3538944)
I0819 23:29:23.406080 12682 net.cpp:157] Top shape: 3 512 48 48 (3538944)
I0819 23:29:23.406085 12682 net.cpp:157] Top shape: 3 512 48 48 (3538944)
I0819 23:29:23.406087 12682 net.cpp:165] Memory required for data: 4864586180
I0819 23:29:23.406090 12682 layer_factory.hpp:77] Creating layer LFCN_2_5x5
I0819 23:29:23.406101 12682 net.cpp:100] Creating Layer LFCN_2_5x5
I0819 23:29:23.406105 12682 net.cpp:434] LFCN_2_5x5 <- conv5_3_relu5_3_0_split_0
I0819 23:29:23.406111 12682 net.cpp:408] LFCN_2_5x5 -> LFCN_2_5x5
I0819 23:29:23.410784 12682 net.cpp:150] Setting up LFCN_2_5x5
I0819 23:29:23.410799 12682 net.cpp:157] Top shape: 3 9 48 48 (62208)
I0819 23:29:23.410802 12682 net.cpp:165] Memory required for data: 4864835012
I0819 23:29:23.410815 12682 layer_factory.hpp:77] Creating layer LFCN_2_5x5_LFCN_2_5x5_0_split
I0819 23:29:23.410827 12682 net.cpp:100] Creating Layer LFCN_2_5x5_LFCN_2_5x5_0_split
I0819 23:29:23.410831 12682 net.cpp:434] LFCN_2_5x5_LFCN_2_5x5_0_split <- LFCN_2_5x5
I0819 23:29:23.410836 12682 net.cpp:408] LFCN_2_5x5_LFCN_2_5x5_0_split -> LFCN_2_5x5_LFCN_2_5x5_0_split_0
I0819 23:29:23.410843 12682 net.cpp:408] LFCN_2_5x5_LFCN_2_5x5_0_split -> LFCN_2_5x5_LFCN_2_5x5_0_split_1
I0819 23:29:23.410848 12682 net.cpp:408] LFCN_2_5x5_LFCN_2_5x5_0_split -> LFCN_2_5x5_LFCN_2_5x5_0_split_2
I0819 23:29:23.410892 12682 net.cpp:150] Setting up LFCN_2_5x5_LFCN_2_5x5_0_split
I0819 23:29:23.410897 12682 net.cpp:157] Top shape: 3 9 48 48 (62208)
I0819 23:29:23.410902 12682 net.cpp:157] Top shape: 3 9 48 48 (62208)
I0819 23:29:23.410905 12682 net.cpp:157] Top shape: 3 9 48 48 (62208)
I0819 23:29:23.410908 12682 net.cpp:165] Memory required for data: 4865581508
I0819 23:29:23.410912 12682 layer_factory.hpp:77] Creating layer detection_loss_2_5x5
I0819 23:29:23.410918 12682 net.cpp:100] Creating Layer detection_loss_2_5x5
I0819 23:29:23.410924 12682 net.cpp:434] detection_loss_2_5x5 <- LFCN_2_5x5_LFCN_2_5x5_0_split_0
I0819 23:29:23.410928 12682 net.cpp:434] detection_loss_2_5x5 <- label_2_5x5_data_3_split_0
I0819 23:29:23.410934 12682 net.cpp:408] detection_loss_2_5x5 -> loss_2_5x5
I0819 23:29:23.410943 12682 layer_factory.hpp:77] Creating layer detection_loss_2_5x5
I0819 23:29:23.411583 12682 net.cpp:150] Setting up detection_loss_2_5x5
I0819 23:29:23.411598 12682 net.cpp:157] Top shape: 1 1 1 2 (2)
I0819 23:29:23.411603 12682 net.cpp:160]     with loss weight 1
I0819 23:29:23.411615 12682 net.cpp:165] Memory required for data: 4865581516
I0819 23:29:23.411619 12682 layer_factory.hpp:77] Creating layer detection_accuracy_2_5x5
I0819 23:29:23.411628 12682 net.cpp:100] Creating Layer detection_accuracy_2_5x5
I0819 23:29:23.411633 12682 net.cpp:434] detection_accuracy_2_5x5 <- LFCN_2_5x5_LFCN_2_5x5_0_split_1
I0819 23:29:23.411638 12682 net.cpp:434] detection_accuracy_2_5x5 <- label_2_5x5_data_3_split_1
I0819 23:29:23.411645 12682 net.cpp:408] detection_accuracy_2_5x5 -> accuracy_2_5x5
I0819 23:29:23.411654 12682 net.cpp:408] detection_accuracy_2_5x5 -> boxiou_2_5x5
I0819 23:29:23.411696 12682 net.cpp:150] Setting up detection_accuracy_2_5x5
I0819 23:29:23.411705 12682 net.cpp:157] Top shape: 1 1 1 2 (2)
I0819 23:29:23.411710 12682 net.cpp:157] Top shape: 1 1 1 1 (1)
I0819 23:29:23.411712 12682 net.cpp:165] Memory required for data: 4865581528
I0819 23:29:23.411716 12682 layer_factory.hpp:77] Creating layer LFCN_2_7x7
I0819 23:29:23.411727 12682 net.cpp:100] Creating Layer LFCN_2_7x7
I0819 23:29:23.411731 12682 net.cpp:434] LFCN_2_7x7 <- conv5_3_relu5_3_0_split_1
I0819 23:29:23.411739 12682 net.cpp:408] LFCN_2_7x7 -> LFCN_2_7x7
I0819 23:29:23.417811 12682 net.cpp:150] Setting up LFCN_2_7x7
I0819 23:29:23.417821 12682 net.cpp:157] Top shape: 3 9 48 48 (62208)
I0819 23:29:23.417824 12682 net.cpp:165] Memory required for data: 4865830360
I0819 23:29:23.417830 12682 layer_factory.hpp:77] Creating layer LFCN_2_7x7_LFCN_2_7x7_0_split
I0819 23:29:23.417834 12682 net.cpp:100] Creating Layer LFCN_2_7x7_LFCN_2_7x7_0_split
I0819 23:29:23.417837 12682 net.cpp:434] LFCN_2_7x7_LFCN_2_7x7_0_split <- LFCN_2_7x7
I0819 23:29:23.417843 12682 net.cpp:408] LFCN_2_7x7_LFCN_2_7x7_0_split -> LFCN_2_7x7_LFCN_2_7x7_0_split_0
I0819 23:29:23.417848 12682 net.cpp:408] LFCN_2_7x7_LFCN_2_7x7_0_split -> LFCN_2_7x7_LFCN_2_7x7_0_split_1
I0819 23:29:23.417852 12682 net.cpp:408] LFCN_2_7x7_LFCN_2_7x7_0_split -> LFCN_2_7x7_LFCN_2_7x7_0_split_2
I0819 23:29:23.417891 12682 net.cpp:150] Setting up LFCN_2_7x7_LFCN_2_7x7_0_split
I0819 23:29:23.417894 12682 net.cpp:157] Top shape: 3 9 48 48 (62208)
I0819 23:29:23.417897 12682 net.cpp:157] Top shape: 3 9 48 48 (62208)
I0819 23:29:23.417901 12682 net.cpp:157] Top shape: 3 9 48 48 (62208)
I0819 23:29:23.417903 12682 net.cpp:165] Memory required for data: 4866576856
I0819 23:29:23.417906 12682 layer_factory.hpp:77] Creating layer detection_loss_2_7x7
I0819 23:29:23.417912 12682 net.cpp:100] Creating Layer detection_loss_2_7x7
I0819 23:29:23.417914 12682 net.cpp:434] detection_loss_2_7x7 <- LFCN_2_7x7_LFCN_2_7x7_0_split_0
I0819 23:29:23.417918 12682 net.cpp:434] detection_loss_2_7x7 <- label_2_7x7_data_4_split_0
I0819 23:29:23.417922 12682 net.cpp:408] detection_loss_2_7x7 -> loss_2_7x7
I0819 23:29:23.417928 12682 layer_factory.hpp:77] Creating layer detection_loss_2_7x7
I0819 23:29:23.418526 12682 net.cpp:150] Setting up detection_loss_2_7x7
I0819 23:29:23.418539 12682 net.cpp:157] Top shape: 1 1 1 2 (2)
I0819 23:29:23.418541 12682 net.cpp:160]     with loss weight 1
I0819 23:29:23.418547 12682 net.cpp:165] Memory required for data: 4866576864
I0819 23:29:23.418550 12682 layer_factory.hpp:77] Creating layer detection_accuracy_2_7x7
I0819 23:29:23.418557 12682 net.cpp:100] Creating Layer detection_accuracy_2_7x7
I0819 23:29:23.418561 12682 net.cpp:434] detection_accuracy_2_7x7 <- LFCN_2_7x7_LFCN_2_7x7_0_split_1
I0819 23:29:23.418566 12682 net.cpp:434] detection_accuracy_2_7x7 <- label_2_7x7_data_4_split_1
I0819 23:29:23.418571 12682 net.cpp:408] detection_accuracy_2_7x7 -> accuracy_2_7x7
I0819 23:29:23.418578 12682 net.cpp:408] detection_accuracy_2_7x7 -> boxiou_2_7x7
I0819 23:29:23.418612 12682 net.cpp:150] Setting up detection_accuracy_2_7x7
I0819 23:29:23.418618 12682 net.cpp:157] Top shape: 1 1 1 2 (2)
I0819 23:29:23.418622 12682 net.cpp:157] Top shape: 1 1 1 1 (1)
I0819 23:29:23.418625 12682 net.cpp:165] Memory required for data: 4866576876
I0819 23:29:23.418628 12682 layer_factory.hpp:77] Creating layer pool5
I0819 23:29:23.418637 12682 net.cpp:100] Creating Layer pool5
I0819 23:29:23.418639 12682 net.cpp:434] pool5 <- conv5_3_relu5_3_0_split_2
I0819 23:29:23.418644 12682 net.cpp:408] pool5 -> pool5
I0819 23:29:23.418678 12682 net.cpp:150] Setting up pool5
I0819 23:29:23.418684 12682 net.cpp:157] Top shape: 3 512 24 24 (884736)
I0819 23:29:23.418686 12682 net.cpp:165] Memory required for data: 4870115820
I0819 23:29:23.418689 12682 layer_factory.hpp:77] Creating layer conv6_1
I0819 23:29:23.418699 12682 net.cpp:100] Creating Layer conv6_1
I0819 23:29:23.418701 12682 net.cpp:434] conv6_1 <- pool5
I0819 23:29:23.418707 12682 net.cpp:408] conv6_1 -> conv6_1
I0819 23:29:23.478781 12682 net.cpp:150] Setting up conv6_1
I0819 23:29:23.478807 12682 net.cpp:157] Top shape: 3 512 24 24 (884736)
I0819 23:29:23.478812 12682 net.cpp:165] Memory required for data: 4873654764
I0819 23:29:23.478819 12682 layer_factory.hpp:77] Creating layer relu6_1
I0819 23:29:23.478828 12682 net.cpp:100] Creating Layer relu6_1
I0819 23:29:23.478834 12682 net.cpp:434] relu6_1 <- conv6_1
I0819 23:29:23.478839 12682 net.cpp:395] relu6_1 -> conv6_1 (in-place)
I0819 23:29:23.478982 12682 net.cpp:150] Setting up relu6_1
I0819 23:29:23.478991 12682 net.cpp:157] Top shape: 3 512 24 24 (884736)
I0819 23:29:23.478996 12682 net.cpp:165] Memory required for data: 4877193708
I0819 23:29:23.478998 12682 layer_factory.hpp:77] Creating layer conv6_1_relu6_1_0_split
I0819 23:29:23.479005 12682 net.cpp:100] Creating Layer conv6_1_relu6_1_0_split
I0819 23:29:23.479008 12682 net.cpp:434] conv6_1_relu6_1_0_split <- conv6_1
I0819 23:29:23.479013 12682 net.cpp:408] conv6_1_relu6_1_0_split -> conv6_1_relu6_1_0_split_0
I0819 23:29:23.479020 12682 net.cpp:408] conv6_1_relu6_1_0_split -> conv6_1_relu6_1_0_split_1
I0819 23:29:23.479025 12682 net.cpp:408] conv6_1_relu6_1_0_split -> conv6_1_relu6_1_0_split_2
I0819 23:29:23.479071 12682 net.cpp:150] Setting up conv6_1_relu6_1_0_split
I0819 23:29:23.479079 12682 net.cpp:157] Top shape: 3 512 24 24 (884736)
I0819 23:29:23.479082 12682 net.cpp:157] Top shape: 3 512 24 24 (884736)
I0819 23:29:23.479086 12682 net.cpp:157] Top shape: 3 512 24 24 (884736)
I0819 23:29:23.479089 12682 net.cpp:165] Memory required for data: 4887810540
I0819 23:29:23.479092 12682 layer_factory.hpp:77] Creating layer LFCN_3_5x5
I0819 23:29:23.479104 12682 net.cpp:100] Creating Layer LFCN_3_5x5
I0819 23:29:23.479109 12682 net.cpp:434] LFCN_3_5x5 <- conv6_1_relu6_1_0_split_0
I0819 23:29:23.479115 12682 net.cpp:408] LFCN_3_5x5 -> LFCN_3_5x5
I0819 23:29:23.483088 12682 net.cpp:150] Setting up LFCN_3_5x5
I0819 23:29:23.483098 12682 net.cpp:157] Top shape: 3 9 24 24 (15552)
I0819 23:29:23.483101 12682 net.cpp:165] Memory required for data: 4887872748
I0819 23:29:23.483106 12682 layer_factory.hpp:77] Creating layer LFCN_3_5x5_LFCN_3_5x5_0_split
I0819 23:29:23.483111 12682 net.cpp:100] Creating Layer LFCN_3_5x5_LFCN_3_5x5_0_split
I0819 23:29:23.483115 12682 net.cpp:434] LFCN_3_5x5_LFCN_3_5x5_0_split <- LFCN_3_5x5
I0819 23:29:23.483119 12682 net.cpp:408] LFCN_3_5x5_LFCN_3_5x5_0_split -> LFCN_3_5x5_LFCN_3_5x5_0_split_0
I0819 23:29:23.483125 12682 net.cpp:408] LFCN_3_5x5_LFCN_3_5x5_0_split -> LFCN_3_5x5_LFCN_3_5x5_0_split_1
I0819 23:29:23.483131 12682 net.cpp:408] LFCN_3_5x5_LFCN_3_5x5_0_split -> LFCN_3_5x5_LFCN_3_5x5_0_split_2
I0819 23:29:23.483172 12682 net.cpp:150] Setting up LFCN_3_5x5_LFCN_3_5x5_0_split
I0819 23:29:23.483178 12682 net.cpp:157] Top shape: 3 9 24 24 (15552)
I0819 23:29:23.483181 12682 net.cpp:157] Top shape: 3 9 24 24 (15552)
I0819 23:29:23.483184 12682 net.cpp:157] Top shape: 3 9 24 24 (15552)
I0819 23:29:23.483187 12682 net.cpp:165] Memory required for data: 4888059372
I0819 23:29:23.483191 12682 layer_factory.hpp:77] Creating layer detection_loss_3_5x5
I0819 23:29:23.483196 12682 net.cpp:100] Creating Layer detection_loss_3_5x5
I0819 23:29:23.483199 12682 net.cpp:434] detection_loss_3_5x5 <- LFCN_3_5x5_LFCN_3_5x5_0_split_0
I0819 23:29:23.483203 12682 net.cpp:434] detection_loss_3_5x5 <- label_3_5x5_data_5_split_0
I0819 23:29:23.483208 12682 net.cpp:408] detection_loss_3_5x5 -> loss_3_5x5
I0819 23:29:23.483217 12682 layer_factory.hpp:77] Creating layer detection_loss_3_5x5
I0819 23:29:23.483538 12682 net.cpp:150] Setting up detection_loss_3_5x5
I0819 23:29:23.483548 12682 net.cpp:157] Top shape: 1 1 1 2 (2)
I0819 23:29:23.483551 12682 net.cpp:160]     with loss weight 1
I0819 23:29:23.483562 12682 net.cpp:165] Memory required for data: 4888059380
I0819 23:29:23.483566 12682 layer_factory.hpp:77] Creating layer detection_accuracy_3_5x5
I0819 23:29:23.483572 12682 net.cpp:100] Creating Layer detection_accuracy_3_5x5
I0819 23:29:23.483577 12682 net.cpp:434] detection_accuracy_3_5x5 <- LFCN_3_5x5_LFCN_3_5x5_0_split_1
I0819 23:29:23.483582 12682 net.cpp:434] detection_accuracy_3_5x5 <- label_3_5x5_data_5_split_1
I0819 23:29:23.483587 12682 net.cpp:408] detection_accuracy_3_5x5 -> accuracy_3_5x5
I0819 23:29:23.483593 12682 net.cpp:408] detection_accuracy_3_5x5 -> boxiou_3_5x5
I0819 23:29:23.483628 12682 net.cpp:150] Setting up detection_accuracy_3_5x5
I0819 23:29:23.483634 12682 net.cpp:157] Top shape: 1 1 1 2 (2)
I0819 23:29:23.483639 12682 net.cpp:157] Top shape: 1 1 1 1 (1)
I0819 23:29:23.483641 12682 net.cpp:165] Memory required for data: 4888059392
I0819 23:29:23.483644 12682 layer_factory.hpp:77] Creating layer LFCN_3_7x7
I0819 23:29:23.483654 12682 net.cpp:100] Creating Layer LFCN_3_7x7
I0819 23:29:23.483656 12682 net.cpp:434] LFCN_3_7x7 <- conv6_1_relu6_1_0_split_1
I0819 23:29:23.483662 12682 net.cpp:408] LFCN_3_7x7 -> LFCN_3_7x7
I0819 23:29:23.490483 12682 net.cpp:150] Setting up LFCN_3_7x7
I0819 23:29:23.490497 12682 net.cpp:157] Top shape: 3 9 24 24 (15552)
I0819 23:29:23.490501 12682 net.cpp:165] Memory required for data: 4888121600
I0819 23:29:23.490509 12682 layer_factory.hpp:77] Creating layer LFCN_3_7x7_LFCN_3_7x7_0_split
I0819 23:29:23.490514 12682 net.cpp:100] Creating Layer LFCN_3_7x7_LFCN_3_7x7_0_split
I0819 23:29:23.490519 12682 net.cpp:434] LFCN_3_7x7_LFCN_3_7x7_0_split <- LFCN_3_7x7
I0819 23:29:23.490525 12682 net.cpp:408] LFCN_3_7x7_LFCN_3_7x7_0_split -> LFCN_3_7x7_LFCN_3_7x7_0_split_0
I0819 23:29:23.490531 12682 net.cpp:408] LFCN_3_7x7_LFCN_3_7x7_0_split -> LFCN_3_7x7_LFCN_3_7x7_0_split_1
I0819 23:29:23.490536 12682 net.cpp:408] LFCN_3_7x7_LFCN_3_7x7_0_split -> LFCN_3_7x7_LFCN_3_7x7_0_split_2
I0819 23:29:23.490586 12682 net.cpp:150] Setting up LFCN_3_7x7_LFCN_3_7x7_0_split
I0819 23:29:23.490592 12682 net.cpp:157] Top shape: 3 9 24 24 (15552)
I0819 23:29:23.490597 12682 net.cpp:157] Top shape: 3 9 24 24 (15552)
I0819 23:29:23.490600 12682 net.cpp:157] Top shape: 3 9 24 24 (15552)
I0819 23:29:23.490603 12682 net.cpp:165] Memory required for data: 4888308224
I0819 23:29:23.490607 12682 layer_factory.hpp:77] Creating layer detection_loss_3_7x7
I0819 23:29:23.490612 12682 net.cpp:100] Creating Layer detection_loss_3_7x7
I0819 23:29:23.490617 12682 net.cpp:434] detection_loss_3_7x7 <- LFCN_3_7x7_LFCN_3_7x7_0_split_0
I0819 23:29:23.490622 12682 net.cpp:434] detection_loss_3_7x7 <- label_3_7x7_data_6_split_0
I0819 23:29:23.490628 12682 net.cpp:408] detection_loss_3_7x7 -> loss_3_7x7
I0819 23:29:23.490634 12682 layer_factory.hpp:77] Creating layer detection_loss_3_7x7
I0819 23:29:23.490944 12682 net.cpp:150] Setting up detection_loss_3_7x7
I0819 23:29:23.490954 12682 net.cpp:157] Top shape: 1 1 1 2 (2)
I0819 23:29:23.490957 12682 net.cpp:160]     with loss weight 1
I0819 23:29:23.490964 12682 net.cpp:165] Memory required for data: 4888308232
I0819 23:29:23.490967 12682 layer_factory.hpp:77] Creating layer detection_accuracy_3_7x7
I0819 23:29:23.490974 12682 net.cpp:100] Creating Layer detection_accuracy_3_7x7
I0819 23:29:23.490978 12682 net.cpp:434] detection_accuracy_3_7x7 <- LFCN_3_7x7_LFCN_3_7x7_0_split_1
I0819 23:29:23.490983 12682 net.cpp:434] detection_accuracy_3_7x7 <- label_3_7x7_data_6_split_1
I0819 23:29:23.490988 12682 net.cpp:408] detection_accuracy_3_7x7 -> accuracy_3_7x7
I0819 23:29:23.490994 12682 net.cpp:408] detection_accuracy_3_7x7 -> boxiou_3_7x7
I0819 23:29:23.491029 12682 net.cpp:150] Setting up detection_accuracy_3_7x7
I0819 23:29:23.491034 12682 net.cpp:157] Top shape: 1 1 1 2 (2)
I0819 23:29:23.491039 12682 net.cpp:157] Top shape: 1 1 1 1 (1)
I0819 23:29:23.491041 12682 net.cpp:165] Memory required for data: 4888308244
I0819 23:29:23.491044 12682 layer_factory.hpp:77] Creating layer pool6
I0819 23:29:23.491051 12682 net.cpp:100] Creating Layer pool6
I0819 23:29:23.491055 12682 net.cpp:434] pool6 <- conv6_1_relu6_1_0_split_2
I0819 23:29:23.491060 12682 net.cpp:408] pool6 -> pool6
I0819 23:29:23.491093 12682 net.cpp:150] Setting up pool6
I0819 23:29:23.491099 12682 net.cpp:157] Top shape: 3 512 12 12 (221184)
I0819 23:29:23.491103 12682 net.cpp:165] Memory required for data: 4889192980
I0819 23:29:23.491106 12682 layer_factory.hpp:77] Creating layer LFCN_4_5x5
I0819 23:29:23.491114 12682 net.cpp:100] Creating Layer LFCN_4_5x5
I0819 23:29:23.491118 12682 net.cpp:434] LFCN_4_5x5 <- pool6
I0819 23:29:23.491124 12682 net.cpp:408] LFCN_4_5x5 -> LFCN_4_5x5
I0819 23:29:23.494819 12682 net.cpp:150] Setting up LFCN_4_5x5
I0819 23:29:23.494830 12682 net.cpp:157] Top shape: 3 9 12 12 (3888)
I0819 23:29:23.494833 12682 net.cpp:165] Memory required for data: 4889208532
I0819 23:29:23.494838 12682 layer_factory.hpp:77] Creating layer LFCN_4_5x5_LFCN_4_5x5_0_split
I0819 23:29:23.494843 12682 net.cpp:100] Creating Layer LFCN_4_5x5_LFCN_4_5x5_0_split
I0819 23:29:23.494846 12682 net.cpp:434] LFCN_4_5x5_LFCN_4_5x5_0_split <- LFCN_4_5x5
I0819 23:29:23.494851 12682 net.cpp:408] LFCN_4_5x5_LFCN_4_5x5_0_split -> LFCN_4_5x5_LFCN_4_5x5_0_split_0
I0819 23:29:23.494856 12682 net.cpp:408] LFCN_4_5x5_LFCN_4_5x5_0_split -> LFCN_4_5x5_LFCN_4_5x5_0_split_1
I0819 23:29:23.494861 12682 net.cpp:408] LFCN_4_5x5_LFCN_4_5x5_0_split -> LFCN_4_5x5_LFCN_4_5x5_0_split_2
I0819 23:29:23.494900 12682 net.cpp:150] Setting up LFCN_4_5x5_LFCN_4_5x5_0_split
I0819 23:29:23.494905 12682 net.cpp:157] Top shape: 3 9 12 12 (3888)
I0819 23:29:23.494909 12682 net.cpp:157] Top shape: 3 9 12 12 (3888)
I0819 23:29:23.494912 12682 net.cpp:157] Top shape: 3 9 12 12 (3888)
I0819 23:29:23.494915 12682 net.cpp:165] Memory required for data: 4889255188
I0819 23:29:23.494917 12682 layer_factory.hpp:77] Creating layer detection_loss_4_5x5
I0819 23:29:23.494922 12682 net.cpp:100] Creating Layer detection_loss_4_5x5
I0819 23:29:23.494926 12682 net.cpp:434] detection_loss_4_5x5 <- LFCN_4_5x5_LFCN_4_5x5_0_split_0
I0819 23:29:23.494930 12682 net.cpp:434] detection_loss_4_5x5 <- label_4_5x5_data_7_split_0
I0819 23:29:23.494935 12682 net.cpp:408] detection_loss_4_5x5 -> loss_4_5x5
I0819 23:29:23.494940 12682 layer_factory.hpp:77] Creating layer detection_loss_4_5x5
I0819 23:29:23.495239 12682 net.cpp:150] Setting up detection_loss_4_5x5
I0819 23:29:23.495249 12682 net.cpp:157] Top shape: 1 1 1 2 (2)
I0819 23:29:23.495252 12682 net.cpp:160]     with loss weight 1
I0819 23:29:23.495257 12682 net.cpp:165] Memory required for data: 4889255196
I0819 23:29:23.495260 12682 layer_factory.hpp:77] Creating layer detection_accuracy_4_5x5
I0819 23:29:23.495267 12682 net.cpp:100] Creating Layer detection_accuracy_4_5x5
I0819 23:29:23.495271 12682 net.cpp:434] detection_accuracy_4_5x5 <- LFCN_4_5x5_LFCN_4_5x5_0_split_1
I0819 23:29:23.495276 12682 net.cpp:434] detection_accuracy_4_5x5 <- label_4_5x5_data_7_split_1
I0819 23:29:23.495281 12682 net.cpp:408] detection_accuracy_4_5x5 -> accuracy_4_5x5
I0819 23:29:23.495286 12682 net.cpp:408] detection_accuracy_4_5x5 -> boxiou_4_5x5
I0819 23:29:23.495321 12682 net.cpp:150] Setting up detection_accuracy_4_5x5
I0819 23:29:23.495328 12682 net.cpp:157] Top shape: 1 1 1 2 (2)
I0819 23:29:23.495332 12682 net.cpp:157] Top shape: 1 1 1 1 (1)
I0819 23:29:23.495335 12682 net.cpp:165] Memory required for data: 4889255208
I0819 23:29:23.495338 12682 layer_factory.hpp:77] Creating layer proposals
I0819 23:29:23.495345 12682 net.cpp:100] Creating Layer proposals
I0819 23:29:23.495349 12682 net.cpp:434] proposals <- LFCN_1_5x5_LFCN_1_5x5_0_split_2
I0819 23:29:23.495353 12682 net.cpp:434] proposals <- LFCN_1_7x7_LFCN_1_7x7_0_split_2
I0819 23:29:23.495357 12682 net.cpp:434] proposals <- LFCN_2_5x5_LFCN_2_5x5_0_split_2
I0819 23:29:23.495362 12682 net.cpp:434] proposals <- LFCN_2_7x7_LFCN_2_7x7_0_split_2
I0819 23:29:23.495365 12682 net.cpp:434] proposals <- LFCN_3_5x5_LFCN_3_5x5_0_split_2
I0819 23:29:23.495368 12682 net.cpp:434] proposals <- LFCN_3_7x7_LFCN_3_7x7_0_split_2
I0819 23:29:23.495373 12682 net.cpp:434] proposals <- LFCN_4_5x5_LFCN_4_5x5_0_split_2
I0819 23:29:23.495376 12682 net.cpp:408] proposals -> proposals
I0819 23:29:23.495407 12682 net.cpp:150] Setting up proposals
I0819 23:29:23.495414 12682 net.cpp:157] Top shape: 1 5 1 1 (5)
I0819 23:29:23.495416 12682 net.cpp:165] Memory required for data: 4889255228
I0819 23:29:23.495419 12682 layer_factory.hpp:77] Creating layer proposal_info
I0819 23:29:23.495427 12682 net.cpp:100] Creating Layer proposal_info
I0819 23:29:23.495437 12682 net.cpp:434] proposal_info <- proposals
I0819 23:29:23.495442 12682 net.cpp:434] proposal_info <- gt_boxes
I0819 23:29:23.495447 12682 net.cpp:408] proposal_info -> rois
I0819 23:29:23.495458 12682 net.cpp:408] proposal_info -> proposal_labels
I0819 23:29:23.495465 12682 net.cpp:408] proposal_info -> proposal_targets
I0819 23:29:23.495471 12682 net.cpp:408] proposal_info -> box_inside_weights
I0819 23:29:23.495476 12682 net.cpp:408] proposal_info -> box_outside_weights
I0819 23:29:23.495481 12682 net.cpp:408] proposal_info -> match_gt_boxes
I0819 23:29:23.495563 12682 net.cpp:150] Setting up proposal_info
I0819 23:29:23.495570 12682 net.cpp:157] Top shape: 256 5 1 1 (1280)
I0819 23:29:23.495574 12682 net.cpp:157] Top shape: 256 1 1 1 (256)
I0819 23:29:23.495579 12682 net.cpp:157] Top shape: 256 20 1 1 (5120)
I0819 23:29:23.495582 12682 net.cpp:157] Top shape: 256 20 1 1 (5120)
I0819 23:29:23.495586 12682 net.cpp:157] Top shape: 256 20 1 1 (5120)
I0819 23:29:23.495590 12682 net.cpp:157] Top shape: 256 6 1 1 (1536)
I0819 23:29:23.495594 12682 net.cpp:165] Memory required for data: 4889328956
I0819 23:29:23.495596 12682 layer_factory.hpp:77] Creating layer rois_proposal_info_0_split
I0819 23:29:23.495601 12682 net.cpp:100] Creating Layer rois_proposal_info_0_split
I0819 23:29:23.495605 12682 net.cpp:434] rois_proposal_info_0_split <- rois
I0819 23:29:23.495609 12682 net.cpp:408] rois_proposal_info_0_split -> rois_proposal_info_0_split_0
I0819 23:29:23.495622 12682 net.cpp:408] rois_proposal_info_0_split -> rois_proposal_info_0_split_1
I0819 23:29:23.495628 12682 net.cpp:408] rois_proposal_info_0_split -> rois_proposal_info_0_split_2
I0819 23:29:23.495669 12682 net.cpp:150] Setting up rois_proposal_info_0_split
I0819 23:29:23.495676 12682 net.cpp:157] Top shape: 256 5 1 1 (1280)
I0819 23:29:23.495681 12682 net.cpp:157] Top shape: 256 5 1 1 (1280)
I0819 23:29:23.495684 12682 net.cpp:157] Top shape: 256 5 1 1 (1280)
I0819 23:29:23.495687 12682 net.cpp:165] Memory required for data: 4889344316
I0819 23:29:23.495690 12682 layer_factory.hpp:77] Creating layer proposal_labels_proposal_info_1_split
I0819 23:29:23.495694 12682 net.cpp:100] Creating Layer proposal_labels_proposal_info_1_split
I0819 23:29:23.495698 12682 net.cpp:434] proposal_labels_proposal_info_1_split <- proposal_labels
I0819 23:29:23.495704 12682 net.cpp:408] proposal_labels_proposal_info_1_split -> proposal_labels_proposal_info_1_split_0
I0819 23:29:23.495709 12682 net.cpp:408] proposal_labels_proposal_info_1_split -> proposal_labels_proposal_info_1_split_1
I0819 23:29:23.495738 12682 net.cpp:150] Setting up proposal_labels_proposal_info_1_split
I0819 23:29:23.495743 12682 net.cpp:157] Top shape: 256 1 1 1 (256)
I0819 23:29:23.495748 12682 net.cpp:157] Top shape: 256 1 1 1 (256)
I0819 23:29:23.495750 12682 net.cpp:165] Memory required for data: 4889346364
I0819 23:29:23.495754 12682 layer_factory.hpp:77] Creating layer conv4_3_2x
I0819 23:29:23.495765 12682 net.cpp:100] Creating Layer conv4_3_2x
I0819 23:29:23.495769 12682 net.cpp:434] conv4_3_2x <- conv4_3_relu4_3_0_split_1
I0819 23:29:23.495774 12682 net.cpp:408] conv4_3_2x -> conv4_3_2x
I0819 23:29:23.496140 12682 net.cpp:150] Setting up conv4_3_2x
I0819 23:29:23.496147 12682 net.cpp:157] Top shape: 3 512 192 192 (56623104)
I0819 23:29:23.496150 12682 net.cpp:165] Memory required for data: 5115838780
I0819 23:29:23.496156 12682 layer_factory.hpp:77] Creating layer conv4_3_2x_new
I0819 23:29:23.496161 12682 net.cpp:100] Creating Layer conv4_3_2x_new
I0819 23:29:23.496165 12682 net.cpp:434] conv4_3_2x_new <- conv4_3_2x
I0819 23:29:23.496170 12682 net.cpp:434] conv4_3_2x_new <- ch4_pool2_ch4_pool2_0_split_2
I0819 23:29:23.496174 12682 net.cpp:408] conv4_3_2x_new -> conv4_3_2x_new
I0819 23:29:23.496196 12682 net.cpp:150] Setting up conv4_3_2x_new
I0819 23:29:23.496199 12682 net.cpp:157] Top shape: 3 513 192 192 (56733696)
I0819 23:29:23.496202 12682 net.cpp:165] Memory required for data: 5342773564
I0819 23:29:23.496206 12682 layer_factory.hpp:77] Creating layer conv4_3_2x_new_conv4_3_2x_new_0_split
I0819 23:29:23.496209 12682 net.cpp:100] Creating Layer conv4_3_2x_new_conv4_3_2x_new_0_split
I0819 23:29:23.496213 12682 net.cpp:434] conv4_3_2x_new_conv4_3_2x_new_0_split <- conv4_3_2x_new
I0819 23:29:23.496218 12682 net.cpp:408] conv4_3_2x_new_conv4_3_2x_new_0_split -> conv4_3_2x_new_conv4_3_2x_new_0_split_0
I0819 23:29:23.496223 12682 net.cpp:408] conv4_3_2x_new_conv4_3_2x_new_0_split -> conv4_3_2x_new_conv4_3_2x_new_0_split_1
I0819 23:29:23.496253 12682 net.cpp:150] Setting up conv4_3_2x_new_conv4_3_2x_new_0_split
I0819 23:29:23.496259 12682 net.cpp:157] Top shape: 3 513 192 192 (56733696)
I0819 23:29:23.496263 12682 net.cpp:157] Top shape: 3 513 192 192 (56733696)
I0819 23:29:23.496266 12682 net.cpp:165] Memory required for data: 5796643132
I0819 23:29:23.496269 12682 layer_factory.hpp:77] Creating layer roi_pool_org
I0819 23:29:23.496276 12682 net.cpp:100] Creating Layer roi_pool_org
I0819 23:29:23.496279 12682 net.cpp:434] roi_pool_org <- conv4_3_2x_new_conv4_3_2x_new_0_split_0
I0819 23:29:23.496284 12682 net.cpp:434] roi_pool_org <- rois_proposal_info_0_split_0
I0819 23:29:23.496289 12682 net.cpp:408] roi_pool_org -> roi_pool_org
I0819 23:29:23.496297 12682 roi_pooling_layer.cpp:33] Spatial scale: 0.25
I0819 23:29:23.496330 12682 net.cpp:150] Setting up roi_pool_org
I0819 23:29:23.496336 12682 net.cpp:157] Top shape: 256 513 7 7 (6435072)
I0819 23:29:23.496340 12682 net.cpp:165] Memory required for data: 5822383420
I0819 23:29:23.496343 12682 layer_factory.hpp:77] Creating layer roi_pool_ctx
I0819 23:29:23.496348 12682 net.cpp:100] Creating Layer roi_pool_ctx
I0819 23:29:23.496352 12682 net.cpp:434] roi_pool_ctx <- conv4_3_2x_new_conv4_3_2x_new_0_split_1
I0819 23:29:23.496356 12682 net.cpp:434] roi_pool_ctx <- rois_proposal_info_0_split_1
I0819 23:29:23.496361 12682 net.cpp:408] roi_pool_ctx -> roi_pool_ctx
I0819 23:29:23.496366 12682 roi_pooling_layer.cpp:33] Spatial scale: 0.25
I0819 23:29:23.496397 12682 net.cpp:150] Setting up roi_pool_ctx
I0819 23:29:23.496403 12682 net.cpp:157] Top shape: 256 513 7 7 (6435072)
I0819 23:29:23.496407 12682 net.cpp:165] Memory required for data: 5848123708
I0819 23:29:23.496410 12682 layer_factory.hpp:77] Creating layer roi_pool
I0819 23:29:23.496414 12682 net.cpp:100] Creating Layer roi_pool
I0819 23:29:23.496417 12682 net.cpp:434] roi_pool <- roi_pool_org
I0819 23:29:23.496421 12682 net.cpp:434] roi_pool <- roi_pool_ctx
I0819 23:29:23.496428 12682 net.cpp:408] roi_pool -> roi_pool
I0819 23:29:23.496446 12682 net.cpp:150] Setting up roi_pool
I0819 23:29:23.496453 12682 net.cpp:157] Top shape: 256 1026 7 7 (12870144)
I0819 23:29:23.496455 12682 net.cpp:165] Memory required for data: 5899604284
I0819 23:29:23.496459 12682 layer_factory.hpp:77] Creating layer roi_c1
I0819 23:29:23.496465 12682 net.cpp:100] Creating Layer roi_c1
I0819 23:29:23.496469 12682 net.cpp:434] roi_c1 <- roi_pool
I0819 23:29:23.496475 12682 net.cpp:408] roi_c1 -> roi_c1
I0819 23:29:23.610590 12682 net.cpp:150] Setting up roi_c1
I0819 23:29:23.610616 12682 net.cpp:157] Top shape: 256 512 5 5 (3276800)
I0819 23:29:23.610620 12682 net.cpp:165] Memory required for data: 5912711484
I0819 23:29:23.610627 12682 layer_factory.hpp:77] Creating layer roi_c1_relu
I0819 23:29:23.610637 12682 net.cpp:100] Creating Layer roi_c1_relu
I0819 23:29:23.610642 12682 net.cpp:434] roi_c1_relu <- roi_c1
I0819 23:29:23.610647 12682 net.cpp:395] roi_c1_relu -> roi_c1 (in-place)
I0819 23:29:23.611106 12682 net.cpp:150] Setting up roi_c1_relu
I0819 23:29:23.611119 12682 net.cpp:157] Top shape: 256 512 5 5 (3276800)
I0819 23:29:23.611124 12682 net.cpp:165] Memory required for data: 5925818684
I0819 23:29:23.611126 12682 layer_factory.hpp:77] Creating layer fc6
I0819 23:29:23.611135 12682 net.cpp:100] Creating Layer fc6
I0819 23:29:23.611138 12682 net.cpp:434] fc6 <- roi_c1
I0819 23:29:23.611146 12682 net.cpp:408] fc6 -> fc6
I0819 23:29:24.844262 12682 net.cpp:150] Setting up fc6
I0819 23:29:24.844295 12682 net.cpp:157] Top shape: 256 4096 (1048576)
I0819 23:29:24.844297 12682 net.cpp:165] Memory required for data: 5930012988
I0819 23:29:24.844306 12682 layer_factory.hpp:77] Creating layer relu6
I0819 23:29:24.844316 12682 net.cpp:100] Creating Layer relu6
I0819 23:29:24.844321 12682 net.cpp:434] relu6 <- fc6
I0819 23:29:24.844327 12682 net.cpp:395] relu6 -> fc6 (in-place)
I0819 23:29:24.844553 12682 net.cpp:150] Setting up relu6
I0819 23:29:24.844563 12682 net.cpp:157] Top shape: 256 4096 (1048576)
I0819 23:29:24.844566 12682 net.cpp:165] Memory required for data: 5934207292
I0819 23:29:24.844570 12682 layer_factory.hpp:77] Creating layer drop6
I0819 23:29:24.844578 12682 net.cpp:100] Creating Layer drop6
I0819 23:29:24.844581 12682 net.cpp:434] drop6 <- fc6
I0819 23:29:24.844588 12682 net.cpp:395] drop6 -> fc6 (in-place)
I0819 23:29:24.844610 12682 net.cpp:150] Setting up drop6
I0819 23:29:24.844614 12682 net.cpp:157] Top shape: 256 4096 (1048576)
I0819 23:29:24.844617 12682 net.cpp:165] Memory required for data: 5938401596
I0819 23:29:24.844620 12682 layer_factory.hpp:77] Creating layer fc6_drop6_0_split
I0819 23:29:24.844625 12682 net.cpp:100] Creating Layer fc6_drop6_0_split
I0819 23:29:24.844629 12682 net.cpp:434] fc6_drop6_0_split <- fc6
I0819 23:29:24.844636 12682 net.cpp:408] fc6_drop6_0_split -> fc6_drop6_0_split_0
I0819 23:29:24.844642 12682 net.cpp:408] fc6_drop6_0_split -> fc6_drop6_0_split_1
I0819 23:29:24.844676 12682 net.cpp:150] Setting up fc6_drop6_0_split
I0819 23:29:24.844681 12682 net.cpp:157] Top shape: 256 4096 (1048576)
I0819 23:29:24.844684 12682 net.cpp:157] Top shape: 256 4096 (1048576)
I0819 23:29:24.844687 12682 net.cpp:165] Memory required for data: 5946790204
I0819 23:29:24.844691 12682 layer_factory.hpp:77] Creating layer cls_pred
I0819 23:29:24.844698 12682 net.cpp:100] Creating Layer cls_pred
I0819 23:29:24.844702 12682 net.cpp:434] cls_pred <- fc6_drop6_0_split_0
I0819 23:29:24.844707 12682 net.cpp:408] cls_pred -> cls_pred
I0819 23:29:24.845332 12682 net.cpp:150] Setting up cls_pred
I0819 23:29:24.845338 12682 net.cpp:157] Top shape: 256 5 (1280)
I0819 23:29:24.845341 12682 net.cpp:165] Memory required for data: 5946795324
I0819 23:29:24.845346 12682 layer_factory.hpp:77] Creating layer cls_pred_cls_pred_0_split
I0819 23:29:24.845350 12682 net.cpp:100] Creating Layer cls_pred_cls_pred_0_split
I0819 23:29:24.845355 12682 net.cpp:434] cls_pred_cls_pred_0_split <- cls_pred
I0819 23:29:24.845360 12682 net.cpp:408] cls_pred_cls_pred_0_split -> cls_pred_cls_pred_0_split_0
I0819 23:29:24.845366 12682 net.cpp:408] cls_pred_cls_pred_0_split -> cls_pred_cls_pred_0_split_1
I0819 23:29:24.845391 12682 net.cpp:150] Setting up cls_pred_cls_pred_0_split
I0819 23:29:24.845396 12682 net.cpp:157] Top shape: 256 5 (1280)
I0819 23:29:24.845399 12682 net.cpp:157] Top shape: 256 5 (1280)
I0819 23:29:24.845402 12682 net.cpp:165] Memory required for data: 5946805564
I0819 23:29:24.845404 12682 layer_factory.hpp:77] Creating layer bbox_pred
I0819 23:29:24.845412 12682 net.cpp:100] Creating Layer bbox_pred
I0819 23:29:24.845414 12682 net.cpp:434] bbox_pred <- fc6_drop6_0_split_1
I0819 23:29:24.845420 12682 net.cpp:408] bbox_pred -> bbox_pred
I0819 23:29:24.847524 12682 net.cpp:150] Setting up bbox_pred
I0819 23:29:24.847532 12682 net.cpp:157] Top shape: 256 20 (5120)
I0819 23:29:24.847534 12682 net.cpp:165] Memory required for data: 5946826044
I0819 23:29:24.847540 12682 layer_factory.hpp:77] Creating layer bbox_pred_bbox_pred_0_split
I0819 23:29:24.847544 12682 net.cpp:100] Creating Layer bbox_pred_bbox_pred_0_split
I0819 23:29:24.847548 12682 net.cpp:434] bbox_pred_bbox_pred_0_split <- bbox_pred
I0819 23:29:24.847553 12682 net.cpp:408] bbox_pred_bbox_pred_0_split -> bbox_pred_bbox_pred_0_split_0
I0819 23:29:24.847558 12682 net.cpp:408] bbox_pred_bbox_pred_0_split -> bbox_pred_bbox_pred_0_split_1
I0819 23:29:24.847585 12682 net.cpp:150] Setting up bbox_pred_bbox_pred_0_split
I0819 23:29:24.847590 12682 net.cpp:157] Top shape: 256 20 (5120)
I0819 23:29:24.847594 12682 net.cpp:157] Top shape: 256 20 (5120)
I0819 23:29:24.847596 12682 net.cpp:165] Memory required for data: 5946867004
I0819 23:29:24.847599 12682 layer_factory.hpp:77] Creating layer loss_cls
I0819 23:29:24.847604 12682 net.cpp:100] Creating Layer loss_cls
I0819 23:29:24.847609 12682 net.cpp:434] loss_cls <- cls_pred_cls_pred_0_split_0
I0819 23:29:24.847613 12682 net.cpp:434] loss_cls <- proposal_labels_proposal_info_1_split_0
…
I0819 23:29:24.860309 12682 image_gt_data_layer.cpp:235] output label size 2 : 2,6,48,48
I0819 23:29:24.860359 12682 image_gt_data_layer.cpp:235] output label size 3 : 2,6,48,48
I0819 23:29:24.860409 12682 image_gt_data_layer.cpp:235] output label size 4 : 2,6,24,24
I0819 23:29:24.860455 12682 image_gt_data_layer.cpp:235] output label size 5 : 2,6,24,24
I0819 23:29:24.860502 12682 image_gt_data_layer.cpp:235] output label size 6 : 2,6,12,12
I0819 23:29:24.860548 12682 image_gt_data_layer.cpp:250] output gt boxes size: 1,7,1,1
I0819 23:29:24.893616 12682 net.cpp:150] Setting up data
I0819 23:29:24.893643 12682 net.cpp:157] Top shape: 2 4 768 768 (4718592)
I0819 23:29:24.893649 12682 net.cpp:157] Top shape: 2 6 96 96 (110592)
I0819 23:29:24.893654 12682 net.cpp:157] Top shape: 2 6 96 96 (110592)
I0819 23:29:24.893658 12682 net.cpp:157] Top shape: 2 6 48 48 (27648)
I0819 23:29:24.893662 12682 net.cpp:157] Top shape: 2 6 48 48 (27648)
I0819 23:29:24.893667 12682 net.cpp:157] Top shape: 2 6 24 24 (6912)
I0819 23:29:24.893671 12682 net.cpp:157] Top shape: 2 6 24 24 (6912)
I0819 23:29:24.893676 12682 net.cpp:157] Top shape: 2 6 12 12 (1728)
I0819 23:29:24.893679 12682 net.cpp:157] Top shape: 1 7 1 1 (7)
I0819 23:29:24.893683 12682 net.cpp:165] Memory required for data: 20042524
I0819 23:29:24.893689 12682 layer_factory.hpp:77] Creating layer label_1_5x5_data_1_split
I0819 23:29:24.893703 12682 net.cpp:100] Creating Layer label_1_5x5_data_1_split
I0819 23:29:24.893707 12682 net.cpp:434] label_1_5x5_data_1_split <- label_1_5x5
I0819 23:29:24.893718 12682 net.cpp:408] label_1_5x5_data_1_split -> label_1_5x5_data_1_split_0
I0819 23:29:24.893728 12682 net.cpp:408] label_1_5x5_data_1_split -> label_1_5x5_data_1_split_1
I0819 23:29:24.894080 12682 net.cpp:150] Setting up label_1_5x5_data_1_split
I0819 23:29:24.894120 12682 net.cpp:157] Top shape: 2 6 96 96 (110592)
I0819 23:29:24.894131 12682 net.cpp:157] Top shape: 2 6 96 96 (110592)
I0819 23:29:24.894138 12682 net.cpp:165] Memory required for data: 20927260
I0819 23:29:24.894150 12682 layer_factory.hpp:77] Creating layer label_1_7x7_data_2_split
I0819 23:29:24.894170 12682 net.cpp:100] Creating Layer label_1_7x7_data_2_split
I0819 23:29:24.894178 12682 net.cpp:434] label_1_7x7_data_2_split <- label_1_7x7
I0819 23:29:24.894193 12682 net.cpp:408] label_1_7x7_data_2_split -> label_1_7x7_data_2_split_0
I0819 23:29:24.894209 12682 net.cpp:408] label_1_7x7_data_2_split -> label_1_7x7_data_2_split_1
I0819 23:29:24.894289 12682 net.cpp:150] Setting up label_1_7x7_data_2_split
I0819 23:29:24.894302 12682 net.cpp:157] Top shape: 2 6 96 96 (110592)
I0819 23:29:24.894311 12682 net.cpp:157] Top shape: 2 6 96 96 (110592)
I0819 23:29:24.894318 12682 net.cpp:165] Memory required for data: 21811996
I0819 23:29:24.894325 12682 layer_factory.hpp:77] Creating layer label_2_5x5_data_3_split
I0819 23:29:24.894335 12682 net.cpp:100] Creating Layer label_2_5x5_data_3_split
I0819 23:29:24.894341 12682 net.cpp:434] label_2_5x5_data_3_split <- label_2_5x5
I0819 23:29:24.894351 12682 net.cpp:408] label_2_5x5_data_3_split -> label_2_5x5_data_3_split_0
I0819 23:29:24.894363 12682 net.cpp:408] label_2_5x5_data_3_split -> label_2_5x5_data_3_split_1
I0819 23:29:24.894438 12682 net.cpp:150] Setting up label_2_5x5_data_3_split
I0819 23:29:24.894448 12682 net.cpp:157] Top shape: 2 6 48 48 (27648)
I0819 23:29:24.894456 12682 net.cpp:157] Top shape: 2 6 48 48 (27648)
I0819 23:29:24.894464 12682 net.cpp:165] Memory required for data: 22033180
I0819 23:29:24.894470 12682 layer_factory.hpp:77] Creating layer label_2_7x7_data_4_split
I0819 23:29:24.894482 12682 net.cpp:100] Creating Layer label_2_7x7_data_4_split
I0819 23:29:24.894490 12682 net.cpp:434] label_2_7x7_data_4_split <- label_2_7x7
I0819 23:29:24.894500 12682 net.cpp:408] label_2_7x7_data_4_split -> label_2_7x7_data_4_split_0
I0819 23:29:24.894510 12682 net.cpp:408] label_2_7x7_data_4_split -> label_2_7x7_data_4_split_1
I0819 23:29:24.894587 12682 net.cpp:150] Setting up label_2_7x7_data_4_split
I0819 23:29:24.894598 12682 net.cpp:157] Top shape: 2 6 48 48 (27648)
I0819 23:29:24.894608 12682 net.cpp:157] Top shape: 2 6 48 48 (27648)
I0819 23:29:24.894615 12682 net.cpp:165] Memory required for data: 22254364
I0819 23:29:24.894623 12682 layer_factory.hpp:77] Creating layer label_3_5x5_data_5_split
I0819 23:29:24.894632 12682 net.cpp:100] Creating Layer label_3_5x5_data_5_split
I0819 23:29:24.894639 12682 net.cpp:434] label_3_5x5_data_5_split <- label_3_5x5
I0819 23:29:24.894649 12682 net.cpp:408] label_3_5x5_data_5_split -> label_3_5x5_data_5_split_0
I0819 23:29:24.894659 12682 net.cpp:408] label_3_5x5_data_5_split -> label_3_5x5_data_5_split_1
I0819 23:29:24.894729 12682 net.cpp:150] Setting up label_3_5x5_data_5_split
I0819 23:29:24.894742 12682 net.cpp:157] Top shape: 2 6 24 24 (6912)
I0819 23:29:24.894750 12682 net.cpp:157] Top shape: 2 6 24 24 (6912)
I0819 23:29:24.894757 12682 net.cpp:165] Memory required for data: 22309660
I0819 23:29:24.894764 12682 layer_factory.hpp:77] Creating layer label_3_7x7_data_6_split
I0819 23:29:24.894773 12682 net.cpp:100] Creating Layer label_3_7x7_data_6_split
I0819 23:29:24.894780 12682 net.cpp:434] label_3_7x7_data_6_split <- label_3_7x7
I0819 23:29:24.894793 12682 net.cpp:408] label_3_7x7_data_6_split -> label_3_7x7_data_6_split_0
I0819 23:29:24.894804 12682 net.cpp:408] label_3_7x7_data_6_split -> label_3_7x7_data_6_split_1
I0819 23:29:24.894870 12682 net.cpp:150] Setting up label_3_7x7_data_6_split
I0819 23:29:24.894881 12682 net.cpp:157] Top shape: 2 6 24 24 (6912)
I0819 23:29:24.894889 12682 net.cpp:157] Top shape: 2 6 24 24 (6912)
I0819 23:29:24.894896 12682 net.cpp:165] Memory required for data: 22364956
I0819 23:29:24.894902 12682 layer_factory.hpp:77] Creating layer label_4_5x5_data_7_split
I0819 23:29:24.894914 12682 net.cpp:100] Creating Layer label_4_5x5_data_7_split
I0819 23:29:24.894922 12682 net.cpp:434] label_4_5x5_data_7_split <- label_4_5x5
I0819 23:29:24.894930 12682 net.cpp:408] label_4_5x5_data_7_split -> label_4_5x5_data_7_split_0
I0819 23:29:24.894942 12682 net.cpp:408] label_4_5x5_data_7_split -> label_4_5x5_data_7_split_1
I0819 23:29:24.895010 12682 net.cpp:150] Setting up label_4_5x5_data_7_split
I0819 23:29:24.895020 12682 net.cpp:157] Top shape: 2 6 12 12 (1728)
I0819 23:29:24.895030 12682 net.cpp:157] Top shape: 2 6 12 12 (1728)
I0819 23:29:24.895036 12682 net.cpp:165] Memory required for data: 22378780
I0819 23:29:24.895042 12682 layer_factory.hpp:77] Creating layer slice
I0819 23:29:24.895057 12682 net.cpp:100] Creating Layer slice
I0819 23:29:24.895064 12682 net.cpp:434] slice <- data
I0819 23:29:24.895074 12682 net.cpp:408] slice -> data123
I0819 23:29:24.895087 12682 net.cpp:408] slice -> ch4
I0819 23:29:24.895159 12682 net.cpp:150] Setting up slice
I0819 23:29:24.895170 12682 net.cpp:157] Top shape: 2 3 768 768 (3538944)
I0819 23:29:24.895179 12682 net.cpp:157] Top shape: 2 1 768 768 (1179648)
I0819 23:29:24.895185 12682 net.cpp:165] Memory required for data: 41253148
I0819 23:29:24.895191 12682 layer_factory.hpp:77] Creating layer conv1_1
I0819 23:29:24.895210 12682 net.cpp:100] Creating Layer conv1_1
I0819 23:29:24.895217 12682 net.cpp:434] conv1_1 <- data123
I0819 23:29:24.895227 12682 net.cpp:408] conv1_1 -> conv1_1
I0819 23:29:24.903949 12682 net.cpp:150] Setting up conv1_1
I0819 23:29:24.903985 12682 net.cpp:157] Top shape: 2 64 768 768 (75497472)
I0819 23:29:24.903995 12682 net.cpp:165] Memory required for data: 343243036
I0819 23:29:24.904021 12682 layer_factory.hpp:77] Creating layer relu1_1
I0819 23:29:24.904042 12682 net.cpp:100] Creating Layer relu1_1
I0819 23:29:24.904052 12682 net.cpp:434] relu1_1 <- conv1_1
I0819 23:29:24.904062 12682 net.cpp:395] relu1_1 -> conv1_1 (in-place)
I0819 23:29:24.904376 12682 net.cpp:150] Setting up relu1_1
I0819 23:29:24.904386 12682 net.cpp:157] Top shape: 2 64 768 768 (75497472)
I0819 23:29:24.904390 12682 net.cpp:165] Memory required for data: 645232924
I0819 23:29:24.904394 12682 layer_factory.hpp:77] Creating layer conv1_2
I0819 23:29:24.904408 12682 net.cpp:100] Creating Layer conv1_2
I0819 23:29:24.904413 12682 net.cpp:434] conv1_2 <- conv1_1
I0819 23:29:24.904422 12682 net.cpp:408] conv1_2 -> conv1_2
I0819 23:29:24.907212 12682 net.cpp:150] Setting up conv1_2
I0819 23:29:24.907225 12682 net.cpp:157] Top shape: 2 64 768 768 (75497472)
I0819 23:29:24.907229 12682 net.cpp:165] Memory required for data: 947222812
I0819 23:29:24.907239 12682 layer_factory.hpp:77] Creating layer relu1_2
I0819 23:29:24.907248 12682 net.cpp:100] Creating Layer relu1_2
I0819 23:29:24.907253 12682 net.cpp:434] relu1_2 <- conv1_2
I0819 23:29:24.907260 12682 net.cpp:395] relu1_2 -> conv1_2 (in-place)
I0819 23:29:24.907476 12682 net.cpp:150] Setting up relu1_2
I0819 23:29:24.907485 12682 net.cpp:157] Top shape: 2 64 768 768 (75497472)
I0819 23:29:24.907490 12682 net.cpp:165] Memory required for data: 1249212700
I0819 23:29:24.907493 12682 layer_factory.hpp:77] Creating layer pool1
I0819 23:29:24.907503 12682 net.cpp:100] Creating Layer pool1
I0819 23:29:24.907507 12682 net.cpp:434] pool1 <- conv1_2
I0819 23:29:24.907512 12682 net.cpp:408] pool1 -> pool1
I0819 23:29:24.907565 12682 net.cpp:150] Setting up pool1
I0819 23:29:24.907572 12682 net.cpp:157] Top shape: 2 64 384 384 (18874368)
I0819 23:29:24.907574 12682 net.cpp:165] Memory required for data: 1324710172
I0819 23:29:24.907578 12682 layer_factory.hpp:77] Creating layer ch4_pool1
I0819 23:29:24.907584 12682 net.cpp:100] Creating Layer ch4_pool1
I0819 23:29:24.907588 12682 net.cpp:434] ch4_pool1 <- ch4
I0819 23:29:24.907594 12682 net.cpp:408] ch4_pool1 -> ch4_pool1
I0819 23:29:24.907634 12682 net.cpp:150] Setting up ch4_pool1
I0819 23:29:24.907639 12682 net.cpp:157] Top shape: 2 1 384 384 (294912)
I0819 23:29:24.907642 12682 net.cpp:165] Memory required for data: 1325889820
I0819 23:29:24.907645 12682 layer_factory.hpp:77] Creating layer ch4_pool1_ch4_pool1_0_split
I0819 23:29:24.907654 12682 net.cpp:100] Creating Layer ch4_pool1_ch4_pool1_0_split
I0819 23:29:24.907656 12682 net.cpp:434] ch4_pool1_ch4_pool1_0_split <- ch4_pool1
I0819 23:29:24.907661 12682 net.cpp:408] ch4_pool1_ch4_pool1_0_split -> ch4_pool1_ch4_pool1_0_split_0
I0819 23:29:24.907667 12682 net.cpp:408] ch4_pool1_ch4_pool1_0_split -> ch4_pool1_ch4_pool1_0_split_1
I0819 23:29:24.907706 12682 net.cpp:150] Setting up ch4_pool1_ch4_pool1_0_split
I0819 23:29:24.907712 12682 net.cpp:157] Top shape: 2 1 384 384 (294912)
I0819 23:29:24.907717 12682 net.cpp:157] Top shape: 2 1 384 384 (294912)
I0819 23:29:24.907721 12682 net.cpp:165] Memory required for data: 1328249116
I0819 23:29:24.907726 12682 layer_factory.hpp:77] Creating layer pool1_concat
I0819 23:29:24.907734 12682 net.cpp:100] Creating Layer pool1_concat
I0819 23:29:24.907738 12682 net.cpp:434] pool1_concat <- pool1
I0819 23:29:24.907743 12682 net.cpp:434] pool1_concat <- ch4_pool1_ch4_pool1_0_split_0
I0819 23:29:24.907748 12682 net.cpp:408] pool1_concat -> pool1_new
I0819 23:29:24.907773 12682 net.cpp:150] Setting up pool1_concat
I0819 23:29:24.907779 12682 net.cpp:157] Top shape: 2 65 384 384 (19169280)
I0819 23:29:24.907783 12682 net.cpp:165] Memory required for data: 1404926236
I0819 23:29:24.907786 12682 layer_factory.hpp:77] Creating layer conv2_1_new
I0819 23:29:24.907794 12682 net.cpp:100] Creating Layer conv2_1_new
I0819 23:29:24.907799 12682 net.cpp:434] conv2_1_new <- pool1_new
I0819 23:29:24.907805 12682 net.cpp:408] conv2_1_new -> conv2_1
I0819 23:29:24.909911 12682 net.cpp:150] Setting up conv2_1_new
I0819 23:29:24.909925 12682 net.cpp:157] Top shape: 2 128 384 384 (37748736)
I0819 23:29:24.909929 12682 net.cpp:165] Memory required for data: 1555921180
I0819 23:29:24.909938 12682 layer_factory.hpp:77] Creating layer relu2_1
I0819 23:29:24.909947 12682 net.cpp:100] Creating Layer relu2_1
I0819 23:29:24.909951 12682 net.cpp:434] relu2_1 <- conv2_1
I0819 23:29:24.909957 12682 net.cpp:395] relu2_1 -> conv2_1 (in-place)
I0819 23:29:24.910501 12682 net.cpp:150] Setting up relu2_1
I0819 23:29:24.910513 12682 net.cpp:157] Top shape: 2 128 384 384 (37748736)
I0819 23:29:24.910516 12682 net.cpp:165] Memory required for data: 1706916124
I0819 23:29:24.910521 12682 layer_factory.hpp:77] Creating layer conv2_2
I0819 23:29:24.910531 12682 net.cpp:100] Creating Layer conv2_2
I0819 23:29:24.910535 12682 net.cpp:434] conv2_2 <- conv2_1
I0819 23:29:24.910542 12682 net.cpp:408] conv2_2 -> conv2_2
I0819 23:29:24.913489 12682 net.cpp:150] Setting up conv2_2
I0819 23:29:24.913647 12682 net.cpp:157] Top shape: 2 128 384 384 (37748736)
I0819 23:29:24.913671 12682 net.cpp:165] Memory required for data: 1857911068
I0819 23:29:24.913723 12682 layer_factory.hpp:77] Creating layer relu2_2
I0819 23:29:24.913792 12682 net.cpp:100] Creating Layer relu2_2
I0819 23:29:24.913825 12682 net.cpp:434] relu2_2 <- conv2_2
I0819 23:29:24.913863 12682 net.cpp:395] relu2_2 -> conv2_2 (in-place)
I0819 23:29:24.914451 12682 net.cpp:150] Setting up relu2_2
I0819 23:29:24.914464 12682 net.cpp:157] Top shape: 2 128 384 384 (37748736)
I0819 23:29:24.914470 12682 net.cpp:165] Memory required for data: 2008906012
I0819 23:29:24.914475 12682 layer_factory.hpp:77] Creating layer pool2
I0819 23:29:24.914486 12682 net.cpp:100] Creating Layer pool2
I0819 23:29:24.914491 12682 net.cpp:434] pool2 <- conv2_2
I0819 23:29:24.914501 12682 net.cpp:408] pool2 -> pool2
I0819 23:29:24.914600 12682 net.cpp:150] Setting up pool2
I0819 23:29:24.914609 12682 net.cpp:157] Top shape: 2 128 192 192 (9437184)
I0819 23:29:24.914613 12682 net.cpp:165] Memory required for data: 2046654748
I0819 23:29:24.914618 12682 layer_factory.hpp:77] Creating layer ch4_pool2
I0819 23:29:24.914628 12682 net.cpp:100] Creating Layer ch4_pool2
I0819 23:29:24.914633 12682 net.cpp:434] ch4_pool2 <- ch4_pool1_ch4_pool1_0_split_1
I0819 23:29:24.914643 12682 net.cpp:408] ch4_pool2 -> ch4_pool2
I0819 23:29:24.914695 12682 net.cpp:150] Setting up ch4_pool2
I0819 23:29:24.914702 12682 net.cpp:157] Top shape: 2 1 192 192 (73728)
I0819 23:29:24.914707 12682 net.cpp:165] Memory required for data: 2046949660
I0819 23:29:24.914711 12682 layer_factory.hpp:77] Creating layer ch4_pool2_ch4_pool2_0_split
I0819 23:29:24.914721 12682 net.cpp:100] Creating Layer ch4_pool2_ch4_pool2_0_split
I0819 23:29:24.914726 12682 net.cpp:434] ch4_pool2_ch4_pool2_0_split <- ch4_pool2
I0819 23:29:24.914732 12682 net.cpp:408] ch4_pool2_ch4_pool2_0_split -> ch4_pool2_ch4_pool2_0_split_0
I0819 23:29:24.914741 12682 net.cpp:408] ch4_pool2_ch4_pool2_0_split -> ch4_pool2_ch4_pool2_0_split_1
I0819 23:29:24.914748 12682 net.cpp:408] ch4_pool2_ch4_pool2_0_split -> ch4_pool2_ch4_pool2_0_split_2
I0819 23:29:24.914819 12682 net.cpp:150] Setting up ch4_pool2_ch4_pool2_0_split
I0819 23:29:24.914826 12682 net.cpp:157] Top shape: 2 1 192 192 (73728)
I0819 23:29:24.914832 12682 net.cpp:157] Top shape: 2 1 192 192 (73728)
I0819 23:29:24.914839 12682 net.cpp:157] Top shape: 2 1 192 192 (73728)
I0819 23:29:24.914842 12682 net.cpp:165] Memory required for data: 2047834396
I0819 23:29:24.914847 12682 layer_factory.hpp:77] Creating layer pool2_concat
I0819 23:29:24.914855 12682 net.cpp:100] Creating Layer pool2_concat
I0819 23:29:24.914860 12682 net.cpp:434] pool2_concat <- pool2
I0819 23:29:24.914866 12682 net.cpp:434] pool2_concat <- ch4_pool2_ch4_pool2_0_split_0
I0819 23:29:24.914875 12682 net.cpp:408] pool2_concat -> pool2_new
I0819 23:29:24.914904 12682 net.cpp:150] Setting up pool2_concat
I0819 23:29:24.914911 12682 net.cpp:157] Top shape: 2 129 192 192 (9510912)
I0819 23:29:24.914917 12682 net.cpp:165] Memory required for data: 2085878044
I0819 23:29:24.914932 12682 layer_factory.hpp:77] Creating layer conv3_1_new
I0819 23:29:24.914948 12682 net.cpp:100] Creating Layer conv3_1_new
I0819 23:29:24.914955 12682 net.cpp:434] conv3_1_new <- pool2_new
I0819 23:29:24.914961 12682 net.cpp:408] conv3_1_new -> conv3_1
I0819 23:29:24.917104 12682 net.cpp:150] Setting up conv3_1_new
I0819 23:29:24.917129 12682 net.cpp:157] Top shape: 2 256 192 192 (18874368)
I0819 23:29:24.917132 12682 net.cpp:165] Memory required for data: 2161375516
I0819 23:29:24.917145 12682 layer_factory.hpp:77] Creating layer relu3_1
I0819 23:29:24.917155 12682 net.cpp:100] Creating Layer relu3_1
I0819 23:29:24.917161 12682 net.cpp:434] relu3_1 <- conv3_1
I0819 23:29:24.917167 12682 net.cpp:395] relu3_1 -> conv3_1 (in-place)
I0819 23:29:24.917338 12682 net.cpp:150] Setting up relu3_1
I0819 23:29:24.917346 12682 net.cpp:157] Top shape: 2 256 192 192 (18874368)
I0819 23:29:24.917349 12682 net.cpp:165] Memory required for data: 2236872988
I0819 23:29:24.917352 12682 layer_factory.hpp:77] Creating layer conv3_2
I0819 23:29:24.917362 12682 net.cpp:100] Creating Layer conv3_2
I0819 23:29:24.917366 12682 net.cpp:434] conv3_2 <- conv3_1
I0819 23:29:24.917371 12682 net.cpp:408] conv3_2 -> conv3_2
I0819 23:29:24.920287 12682 net.cpp:150] Setting up conv3_2
I0819 23:29:24.920311 12682 net.cpp:157] Top shape: 2 256 192 192 (18874368)
I0819 23:29:24.920315 12682 net.cpp:165] Memory required for data: 2312370460
I0819 23:29:24.920325 12682 layer_factory.hpp:77] Creating layer relu3_2
I0819 23:29:24.920336 12682 net.cpp:100] Creating Layer relu3_2
I0819 23:29:24.920341 12682 net.cpp:434] relu3_2 <- conv3_2
I0819 23:29:24.920347 12682 net.cpp:395] relu3_2 -> conv3_2 (in-place)
I0819 23:29:24.920521 12682 net.cpp:150] Setting up relu3_2
I0819 23:29:24.920528 12682 net.cpp:157] Top shape: 2 256 192 192 (18874368)
I0819 23:29:24.920531 12682 net.cpp:165] Memory required for data: 2387867932
I0819 23:29:24.920534 12682 layer_factory.hpp:77] Creating layer conv3_3
I0819 23:29:24.920544 12682 net.cpp:100] Creating Layer conv3_3
I0819 23:29:24.920547 12682 net.cpp:434] conv3_3 <- conv3_2
I0819 23:29:24.920553 12682 net.cpp:408] conv3_3 -> conv3_3
I0819 23:29:24.923332 12682 net.cpp:150] Setting up conv3_3
I0819 23:29:24.923346 12682 net.cpp:157] Top shape: 2 256 192 192 (18874368)
I0819 23:29:24.923349 12682 net.cpp:165] Memory required for data: 2463365404
I0819 23:29:24.923357 12682 layer_factory.hpp:77] Creating layer relu3_3
I0819 23:29:24.923364 12682 net.cpp:100] Creating Layer relu3_3
I0819 23:29:24.923368 12682 net.cpp:434] relu3_3 <- conv3_3
I0819 23:29:24.923374 12682 net.cpp:395] relu3_3 -> conv3_3 (in-place)
I0819 23:29:24.923565 12682 net.cpp:150] Setting up relu3_3
I0819 23:29:24.923573 12682 net.cpp:157] Top shape: 2 256 192 192 (18874368)
I0819 23:29:24.923576 12682 net.cpp:165] Memory required for data: 2538862876
I0819 23:29:24.923580 12682 layer_factory.hpp:77] Creating layer pool3
I0819 23:29:24.923586 12682 net.cpp:100] Creating Layer pool3
I0819 23:29:24.923590 12682 net.cpp:434] pool3 <- conv3_3
I0819 23:29:24.923596 12682 net.cpp:408] pool3 -> pool3
I0819 23:29:24.923638 12682 net.cpp:150] Setting up pool3
I0819 23:29:24.923643 12682 net.cpp:157] Top shape: 2 256 96 96 (4718592)
I0819 23:29:24.923646 12682 net.cpp:165] Memory required for data: 2557737244
I0819 23:29:24.923650 12682 layer_factory.hpp:77] Creating layer ch4_pool3
I0819 23:29:24.923660 12682 net.cpp:100] Creating Layer ch4_pool3
I0819 23:29:24.923662 12682 net.cpp:434] ch4_pool3 <- ch4_pool2_ch4_pool2_0_split_1
I0819 23:29:24.923669 12682 net.cpp:408] ch4_pool3 -> ch4_pool3
I0819 23:29:24.923703 12682 net.cpp:150] Setting up ch4_pool3
I0819 23:29:24.923709 12682 net.cpp:157] Top shape: 2 1 96 96 (18432)
I0819 23:29:24.923712 12682 net.cpp:165] Memory required for data: 2557810972
I0819 23:29:24.923715 12682 layer_factory.hpp:77] Creating layer ch4_pool3_ch4_pool3_0_split
I0819 23:29:24.923720 12682 net.cpp:100] Creating Layer ch4_pool3_ch4_pool3_0_split
I0819 23:29:24.923723 12682 net.cpp:434] ch4_pool3_ch4_pool3_0_split <- ch4_pool3
I0819 23:29:24.923728 12682 net.cpp:408] ch4_pool3_ch4_pool3_0_split -> ch4_pool3_ch4_pool3_0_split_0
I0819 23:29:24.923734 12682 net.cpp:408] ch4_pool3_ch4_pool3_0_split -> ch4_pool3_ch4_pool3_0_split_1
I0819 23:29:24.923769 12682 net.cpp:150] Setting up ch4_pool3_ch4_pool3_0_split
I0819 23:29:24.923774 12682 net.cpp:157] Top shape: 2 1 96 96 (18432)
I0819 23:29:24.923779 12682 net.cpp:157] Top shape: 2 1 96 96 (18432)
I0819 23:29:24.923781 12682 net.cpp:165] Memory required for data: 2557958428
I0819 23:29:24.923784 12682 layer_factory.hpp:77] Creating layer pool3_concat
I0819 23:29:24.923789 12682 net.cpp:100] Creating Layer pool3_concat
I0819 23:29:24.923794 12682 net.cpp:434] pool3_concat <- pool3
I0819 23:29:24.923797 12682 net.cpp:434] pool3_concat <- ch4_pool3_ch4_pool3_0_split_0
I0819 23:29:24.923804 12682 net.cpp:408] pool3_concat -> pool3_new
I0819 23:29:24.923825 12682 net.cpp:150] Setting up pool3_concat
I0819 23:29:24.923830 12682 net.cpp:157] Top shape: 2 257 96 96 (4737024)
I0819 23:29:24.923832 12682 net.cpp:165] Memory required for data: 2576906524
I0819 23:29:24.923835 12682 layer_factory.hpp:77] Creating layer conv4_1_new
I0819 23:29:24.923843 12682 net.cpp:100] Creating Layer conv4_1_new
I0819 23:29:24.923846 12682 net.cpp:434] conv4_1_new <- pool3_new
I0819 23:29:24.923852 12682 net.cpp:408] conv4_1_new -> conv4_1
I0819 23:29:24.927089 12682 net.cpp:150] Setting up conv4_1_new
I0819 23:29:24.927110 12682 net.cpp:157] Top shape: 2 512 96 96 (9437184)
I0819 23:29:24.927114 12682 net.cpp:165] Memory required for data: 2614655260
I0819 23:29:24.927121 12682 layer_factory.hpp:77] Creating layer relu4_1
I0819 23:29:24.927131 12682 net.cpp:100] Creating Layer relu4_1
I0819 23:29:24.927137 12682 net.cpp:434] relu4_1 <- conv4_1
I0819 23:29:24.927142 12682 net.cpp:395] relu4_1 -> conv4_1 (in-place)
I0819 23:29:24.927309 12682 net.cpp:150] Setting up relu4_1
I0819 23:29:24.927315 12682 net.cpp:157] Top shape: 2 512 96 96 (9437184)
I0819 23:29:24.927318 12682 net.cpp:165] Memory required for data: 2652403996
I0819 23:29:24.927322 12682 layer_factory.hpp:77] Creating layer conv4_2
I0819 23:29:24.927331 12682 net.cpp:100] Creating Layer conv4_2
I0819 23:29:24.927335 12682 net.cpp:434] conv4_2 <- conv4_1
I0819 23:29:24.927340 12682 net.cpp:408] conv4_2 -> conv4_2
I0819 23:29:24.933480 12682 net.cpp:150] Setting up conv4_2
I0819 23:29:24.933508 12682 net.cpp:157] Top shape: 2 512 96 96 (9437184)
I0819 23:29:24.933512 12682 net.cpp:165] Memory required for data: 2690152732
I0819 23:29:24.933524 12682 layer_factory.hpp:77] Creating layer relu4_2
I0819 23:29:24.933534 12682 net.cpp:100] Creating Layer relu4_2
I0819 23:29:24.933542 12682 net.cpp:434] relu4_2 <- conv4_2
I0819 23:29:24.933547 12682 net.cpp:395] relu4_2 -> conv4_2 (in-place)
I0819 23:29:24.934039 12682 net.cpp:150] Setting up relu4_2
I0819 23:29:24.934049 12682 net.cpp:157] Top shape: 2 512 96 96 (9437184)
I0819 23:29:24.934053 12682 net.cpp:165] Memory required for data: 2727901468
I0819 23:29:24.934056 12682 layer_factory.hpp:77] Creating layer conv4_3
I0819 23:29:24.934067 12682 net.cpp:100] Creating Layer conv4_3
I0819 23:29:24.934070 12682 net.cpp:434] conv4_3 <- conv4_2
I0819 23:29:24.934075 12682 net.cpp:408] conv4_3 -> conv4_3
I0819 23:29:24.940315 12682 net.cpp:150] Setting up conv4_3
I0819 23:29:24.940341 12682 net.cpp:157] Top shape: 2 512 96 96 (9437184)
I0819 23:29:24.940346 12682 net.cpp:165] Memory required for data: 2765650204
I0819 23:29:24.940354 12682 layer_factory.hpp:77] Creating layer relu4_3
I0819 23:29:24.940366 12682 net.cpp:100] Creating Layer relu4_3
I0819 23:29:24.940372 12682 net.cpp:434] relu4_3 <- conv4_3
I0819 23:29:24.940379 12682 net.cpp:395] relu4_3 -> conv4_3 (in-place)
I0819 23:29:24.940577 12682 net.cpp:150] Setting up relu4_3
I0819 23:29:24.940585 12682 net.cpp:157] Top shape: 2 512 96 96 (9437184)
I0819 23:29:24.940589 12682 net.cpp:165] Memory required for data: 2803398940
I0819 23:29:24.940593 12682 layer_factory.hpp:77] Creating layer conv4_3_relu4_3_0_split
I0819 23:29:24.940600 12682 net.cpp:100] Creating Layer conv4_3_relu4_3_0_split
I0819 23:29:24.940605 12682 net.cpp:434] conv4_3_relu4_3_0_split <- conv4_3
I0819 23:29:24.940610 12682 net.cpp:408] conv4_3_relu4_3_0_split -> conv4_3_relu4_3_0_split_0
I0819 23:29:24.940618 12682 net.cpp:408] conv4_3_relu4_3_0_split -> conv4_3_relu4_3_0_split_1
I0819 23:29:24.940666 12682 net.cpp:150] Setting up conv4_3_relu4_3_0_split
I0819 23:29:24.940671 12682 net.cpp:157] Top shape: 2 512 96 96 (9437184)
I0819 23:29:24.940675 12682 net.cpp:157] Top shape: 2 512 96 96 (9437184)
I0819 23:29:24.940678 12682 net.cpp:165] Memory required for data: 2878896412
I0819 23:29:24.940681 12682 layer_factory.hpp:77] Creating layer conv4_concat
I0819 23:29:24.940687 12682 net.cpp:100] Creating Layer conv4_concat
I0819 23:29:24.940690 12682 net.cpp:434] conv4_concat <- conv4_3_relu4_3_0_split_0
I0819 23:29:24.940696 12682 net.cpp:434] conv4_concat <- ch4_pool3_ch4_pool3_0_split_1
I0819 23:29:24.940701 12682 net.cpp:408] conv4_concat -> conv4_3_new
I0819 23:29:24.940722 12682 net.cpp:150] Setting up conv4_concat
I0819 23:29:24.940726 12682 net.cpp:157] Top shape: 2 513 96 96 (9455616)
I0819 23:29:24.940729 12682 net.cpp:165] Memory required for data: 2916718876
I0819 23:29:24.940732 12682 layer_factory.hpp:77] Creating layer conv4_3_new_conv4_concat_0_split
I0819 23:29:24.940738 12682 net.cpp:100] Creating Layer conv4_3_new_conv4_concat_0_split
I0819 23:29:24.940742 12682 net.cpp:434] conv4_3_new_conv4_concat_0_split <- conv4_3_new
I0819 23:29:24.940747 12682 net.cpp:408] conv4_3_new_conv4_concat_0_split -> conv4_3_new_conv4_concat_0_split_0
I0819 23:29:24.940752 12682 net.cpp:408] conv4_3_new_conv4_concat_0_split -> conv4_3_new_conv4_concat_0_split_1
I0819 23:29:24.940784 12682 net.cpp:150] Setting up conv4_3_new_conv4_concat_0_split
I0819 23:29:24.940789 12682 net.cpp:157] Top shape: 2 513 96 96 (9455616)
I0819 23:29:24.940793 12682 net.cpp:157] Top shape: 2 513 96 96 (9455616)
I0819 23:29:24.940795 12682 net.cpp:165] Memory required for data: 2992363804
I0819 23:29:24.940798 12682 layer_factory.hpp:77] Creating layer loss1_conv1
I0819 23:29:24.940809 12682 net.cpp:100] Creating Layer loss1_conv1
I0819 23:29:24.940812 12682 net.cpp:434] loss1_conv1 <- conv4_3_new_conv4_concat_0_split_0
I0819 23:29:24.940819 12682 net.cpp:408] loss1_conv1 -> loss1_conv1
I0819 23:29:25.005023 12682 net.cpp:150] Setting up loss1_conv1
I0819 23:29:25.005049 12682 net.cpp:157] Top shape: 2 512 96 96 (9437184)
I0819 23:29:25.005053 12682 net.cpp:165] Memory required for data: 3030112540
I0819 23:29:25.005061 12682 layer_factory.hpp:77] Creating layer loss_relu1
I0819 23:29:25.005074 12682 net.cpp:100] Creating Layer loss_relu1
I0819 23:29:25.005080 12682 net.cpp:434] loss_relu1 <- loss1_conv1
I0819 23:29:25.005086 12682 net.cpp:395] loss_relu1 -> loss1_conv1 (in-place)
I0819 23:29:25.005249 12682 net.cpp:150] Setting up loss_relu1
I0819 23:29:25.005256 12682 net.cpp:157] Top shape: 2 512 96 96 (9437184)
I0819 23:29:25.005260 12682 net.cpp:165] Memory required for data: 3067861276
I0819 23:29:25.005264 12682 layer_factory.hpp:77] Creating layer loss1_conv1_loss_relu1_0_split
I0819 23:29:25.005270 12682 net.cpp:100] Creating Layer loss1_conv1_loss_relu1_0_split
I0819 23:29:25.005275 12682 net.cpp:434] loss1_conv1_loss_relu1_0_split <- loss1_conv1
I0819 23:29:25.005280 12682 net.cpp:408] loss1_conv1_loss_relu1_0_split -> loss1_conv1_loss_relu1_0_split_0
I0819 23:29:25.005285 12682 net.cpp:408] loss1_conv1_loss_relu1_0_split -> loss1_conv1_loss_relu1_0_split_1
I0819 23:29:25.005324 12682 net.cpp:150] Setting up loss1_conv1_loss_relu1_0_split
I0819 23:29:25.005331 12682 net.cpp:157] Top shape: 2 512 96 96 (9437184)
I0819 23:29:25.005334 12682 net.cpp:157] Top shape: 2 512 96 96 (9437184)
I0819 23:29:25.005337 12682 net.cpp:165] Memory required for data: 3143358748
I0819 23:29:25.005340 12682 layer_factory.hpp:77] Creating layer LFCN_1_5x5
I0819 23:29:25.005352 12682 net.cpp:100] Creating Layer LFCN_1_5x5
I0819 23:29:25.005355 12682 net.cpp:434] LFCN_1_5x5 <- loss1_conv1_loss_relu1_0_split_0
I0819 23:29:25.005362 12682 net.cpp:408] LFCN_1_5x5 -> LFCN_1_5x5
I0819 23:29:25.012316 12682 net.cpp:150] Setting up LFCN_1_5x5
I0819 23:29:25.012344 12682 net.cpp:157] Top shape: 2 9 96 96 (165888)
I0819 23:29:25.012349 12682 net.cpp:165] Memory required for data: 3144022300
I0819 23:29:25.012359 12682 layer_factory.hpp:77] Creating layer LFCN_1_5x5_LFCN_1_5x5_0_split
I0819 23:29:25.012372 12682 net.cpp:100] Creating Layer LFCN_1_5x5_LFCN_1_5x5_0_split
I0819 23:29:25.012377 12682 net.cpp:434] LFCN_1_5x5_LFCN_1_5x5_0_split <- LFCN_1_5x5
I0819 23:29:25.012383 12682 net.cpp:408] LFCN_1_5x5_LFCN_1_5x5_0_split -> LFCN_1_5x5_LFCN_1_5x5_0_split_0
I0819 23:29:25.012392 12682 net.cpp:408] LFCN_1_5x5_LFCN_1_5x5_0_split -> LFCN_1_5x5_LFCN_1_5x5_0_split_1
I0819 23:29:25.012398 12682 net.cpp:408] LFCN_1_5x5_LFCN_1_5x5_0_split -> LFCN_1_5x5_LFCN_1_5x5_0_split_2
I0819 23:29:25.012476 12682 net.cpp:150] Setting up LFCN_1_5x5_LFCN_1_5x5_0_split
I0819 23:29:25.012486 12682 net.cpp:157] Top shape: 2 9 96 96 (165888)
I0819 23:29:25.012492 12682 net.cpp:157] Top shape: 2 9 96 96 (165888)
I0819 23:29:25.012498 12682 net.cpp:157] Top shape: 2 9 96 96 (165888)
I0819 23:29:25.012503 12682 net.cpp:165] Memory required for data: 3146012956
I0819 23:29:25.012508 12682 layer_factory.hpp:77] Creating layer detection_loss_1_5x5
I0819 23:29:25.012517 12682 net.cpp:100] Creating Layer detection_loss_1_5x5
I0819 23:29:25.012523 12682 net.cpp:434] detection_loss_1_5x5 <- LFCN_1_5x5_LFCN_1_5x5_0_split_0
I0819 23:29:25.012531 12682 net.cpp:434] detection_loss_1_5x5 <- label_1_5x5_data_1_split_0
I0819 23:29:25.012539 12682 net.cpp:408] detection_loss_1_5x5 -> loss_1_5x5
I0819 23:29:25.012550 12682 layer_factory.hpp:77] Creating layer detection_loss_1_5x5
I0819 23:29:25.013079 12682 net.cpp:150] Setting up detection_loss_1_5x5
I0819 23:29:25.013092 12682 net.cpp:157] Top shape: 1 1 1 2 (2)
I0819 23:29:25.013095 12682 net.cpp:160]     with loss weight 0.9
I0819 23:29:25.013111 12682 net.cpp:165] Memory required for data: 3146012964
I0819 23:29:25.013115 12682 layer_factory.hpp:77] Creating layer detection_accuracy_1_5x5
I0819 23:29:25.013125 12682 net.cpp:100] Creating Layer detection_accuracy_1_5x5
I0819 23:29:25.013130 12682 net.cpp:434] detection_accuracy_1_5x5 <- LFCN_1_5x5_LFCN_1_5x5_0_split_1
I0819 23:29:25.013135 12682 net.cpp:434] detection_accuracy_1_5x5 <- label_1_5x5_data_1_split_1
I0819 23:29:25.013141 12682 net.cpp:408] detection_accuracy_1_5x5 -> accuracy_1_5x5
I0819 23:29:25.013159 12682 net.cpp:408] detection_accuracy_1_5x5 -> boxiou_1_5x5
I0819 23:29:25.013212 12682 net.cpp:150] Setting up detection_accuracy_1_5x5
I0819 23:29:25.013221 12682 net.cpp:157] Top shape: 1 1 1 2 (2)
I0819 23:29:25.013226 12682 net.cpp:157] Top shape: 1 1 1 1 (1)
I0819 23:29:25.013229 12682 net.cpp:165] Memory required for data: 3146012976
I0819 23:29:25.013232 12682 layer_factory.hpp:77] Creating layer LFCN_1_7x7
I0819 23:29:25.013247 12682 net.cpp:100] Creating Layer LFCN_1_7x7
I0819 23:29:25.013252 12682 net.cpp:434] LFCN_1_7x7 <- loss1_conv1_loss_relu1_0_split_1
I0819 23:29:25.013260 12682 net.cpp:408] LFCN_1_7x7 -> LFCN_1_7x7
I0819 23:29:25.022828 12682 net.cpp:150] Setting up LFCN_1_7x7
I0819 23:29:25.022855 12682 net.cpp:157] Top shape: 2 9 96 96 (165888)
I0819 23:29:25.022859 12682 net.cpp:165] Memory required for data: 3146676528
I0819 23:29:25.022869 12682 layer_factory.hpp:77] Creating layer LFCN_1_7x7_LFCN_1_7x7_0_split
I0819 23:29:25.022882 12682 net.cpp:100] Creating Layer LFCN_1_7x7_LFCN_1_7x7_0_split
I0819 23:29:25.022889 12682 net.cpp:434] LFCN_1_7x7_LFCN_1_7x7_0_split <- LFCN_1_7x7
I0819 23:29:25.022898 12682 net.cpp:408] LFCN_1_7x7_LFCN_1_7x7_0_split -> LFCN_1_7x7_LFCN_1_7x7_0_split_0
I0819 23:29:25.022908 12682 net.cpp:408] LFCN_1_7x7_LFCN_1_7x7_0_split -> LFCN_1_7x7_LFCN_1_7x7_0_split_1
I0819 23:29:25.022914 12682 net.cpp:408] LFCN_1_7x7_LFCN_1_7x7_0_split -> LFCN_1_7x7_LFCN_1_7x7_0_split_2
I0819 23:29:25.022977 12682 net.cpp:150] Setting up LFCN_1_7x7_LFCN_1_7x7_0_split
I0819 23:29:25.022985 12682 net.cpp:157] Top shape: 2 9 96 96 (165888)
I0819 23:29:25.022991 12682 net.cpp:157] Top shape: 2 9 96 96 (165888)
I0819 23:29:25.022996 12682 net.cpp:157] Top shape: 2 9 96 96 (165888)
I0819 23:29:25.023000 12682 net.cpp:165] Memory required for data: 3148667184
I0819 23:29:25.023003 12682 layer_factory.hpp:77] Creating layer detection_loss_1_7x7
I0819 23:29:25.023013 12682 net.cpp:100] Creating Layer detection_loss_1_7x7
I0819 23:29:25.023018 12682 net.cpp:434] detection_loss_1_7x7 <- LFCN_1_7x7_LFCN_1_7x7_0_split_0
I0819 23:29:25.023025 12682 net.cpp:434] detection_loss_1_7x7 <- label_1_7x7_data_2_split_0
I0819 23:29:25.023033 12682 net.cpp:408] detection_loss_1_7x7 -> loss_1_7x7
I0819 23:29:25.023043 12682 layer_factory.hpp:77] Creating layer detection_loss_1_7x7
I0819 23:29:25.023535 12682 net.cpp:150] Setting up detection_loss_1_7x7
I0819 23:29:25.023550 12682 net.cpp:157] Top shape: 1 1 1 2 (2)
I0819 23:29:25.023553 12682 net.cpp:160]     with loss weight 0.9
I0819 23:29:25.023581 12682 net.cpp:165] Memory required for data: 3148667192
I0819 23:29:25.023586 12682 layer_factory.hpp:77] Creating layer detection_accuracy_1_7x7
I0819 23:29:25.023596 12682 net.cpp:100] Creating Layer detection_accuracy_1_7x7
I0819 23:29:25.023602 12682 net.cpp:434] detection_accuracy_1_7x7 <- LFCN_1_7x7_LFCN_1_7x7_0_split_1
I0819 23:29:25.023607 12682 net.cpp:434] detection_accuracy_1_7x7 <- label_1_7x7_data_2_split_1
I0819 23:29:25.023614 12682 net.cpp:408] detection_accuracy_1_7x7 -> accuracy_1_7x7
I0819 23:29:25.023624 12682 net.cpp:408] detection_accuracy_1_7x7 -> boxiou_1_7x7
I0819 23:29:25.023689 12682 net.cpp:150] Setting up detection_accuracy_1_7x7
I0819 23:29:25.023699 12682 net.cpp:157] Top shape: 1 1 1 2 (2)
I0819 23:29:25.023703 12682 net.cpp:157] Top shape: 1 1 1 1 (1)
I0819 23:29:25.023710 12682 net.cpp:165] Memory required for data: 3148667204
I0819 23:29:25.023713 12682 layer_factory.hpp:77] Creating layer pool4
I0819 23:29:25.023722 12682 net.cpp:100] Creating Layer pool4
I0819 23:29:25.023727 12682 net.cpp:434] pool4 <- conv4_3_new_conv4_concat_0_split_1
I0819 23:29:25.023736 12682 net.cpp:408] pool4 -> pool4
I0819 23:29:25.023785 12682 net.cpp:150] Setting up pool4
I0819 23:29:25.023792 12682 net.cpp:157] Top shape: 2 513 48 48 (2363904)
I0819 23:29:25.023797 12682 net.cpp:165] Memory required for data: 3158122820
I0819 23:29:25.023800 12682 layer_factory.hpp:77] Creating layer conv5_1_new
I0819 23:29:25.023811 12682 net.cpp:100] Creating Layer conv5_1_new
I0819 23:29:25.023815 12682 net.cpp:434] conv5_1_new <- pool4
I0819 23:29:25.023823 12682 net.cpp:408] conv5_1_new -> conv5_1
I0819 23:29:25.031880 12682 net.cpp:150] Setting up conv5_1_new
I0819 23:29:25.031914 12682 net.cpp:157] Top shape: 2 512 48 48 (2359296)
I0819 23:29:25.031920 12682 net.cpp:165] Memory required for data: 3167560004
I0819 23:29:25.031930 12682 layer_factory.hpp:77] Creating layer relu5_1
I0819 23:29:25.031945 12682 net.cpp:100] Creating Layer relu5_1
I0819 23:29:25.031952 12682 net.cpp:434] relu5_1 <- conv5_1
I0819 23:29:25.031958 12682 net.cpp:395] relu5_1 -> conv5_1 (in-place)
I0819 23:29:25.032129 12682 net.cpp:150] Setting up relu5_1
I0819 23:29:25.032138 12682 net.cpp:157] Top shape: 2 512 48 48 (2359296)
I0819 23:29:25.032141 12682 net.cpp:165] Memory required for data: 3176997188
I0819 23:29:25.032145 12682 layer_factory.hpp:77] Creating layer conv5_2
I0819 23:29:25.032155 12682 net.cpp:100] Creating Layer conv5_2
I0819 23:29:25.032158 12682 net.cpp:434] conv5_2 <- conv5_1
I0819 23:29:25.032164 12682 net.cpp:408] conv5_2 -> conv5_2
I0819 23:29:25.039422 12682 net.cpp:150] Setting up conv5_2
I0819 23:29:25.039470 12682 net.cpp:157] Top shape: 2 512 48 48 (2359296)
I0819 23:29:25.039475 12682 net.cpp:165] Memory required for data: 3186434372
I0819 23:29:25.039484 12682 layer_factory.hpp:77] Creating layer relu5_2
I0819 23:29:25.039497 12682 net.cpp:100] Creating Layer relu5_2
I0819 23:29:25.039505 12682 net.cpp:434] relu5_2 <- conv5_2
I0819 23:29:25.039513 12682 net.cpp:395] relu5_2 -> conv5_2 (in-place)
I0819 23:29:25.040107 12682 net.cpp:150] Setting up relu5_2
I0819 23:29:25.040122 12682 net.cpp:157] Top shape: 2 512 48 48 (2359296)
I0819 23:29:25.040125 12682 net.cpp:165] Memory required for data: 3195871556
I0819 23:29:25.040129 12682 layer_factory.hpp:77] Creating layer conv5_3
I0819 23:29:25.040141 12682 net.cpp:100] Creating Layer conv5_3
I0819 23:29:25.040146 12682 net.cpp:434] conv5_3 <- conv5_2
I0819 23:29:25.040153 12682 net.cpp:408] conv5_3 -> conv5_3
I0819 23:29:25.046985 12682 net.cpp:150] Setting up conv5_3
I0819 23:29:25.047016 12682 net.cpp:157] Top shape: 2 512 48 48 (2359296)
I0819 23:29:25.047021 12682 net.cpp:165] Memory required for data: 3205308740
I0819 23:29:25.047030 12682 layer_factory.hpp:77] Creating layer relu5_3
I0819 23:29:25.047044 12682 net.cpp:100] Creating Layer relu5_3
I0819 23:29:25.047050 12682 net.cpp:434] relu5_3 <- conv5_3
I0819 23:29:25.047057 12682 net.cpp:395] relu5_3 -> conv5_3 (in-place)
I0819 23:29:25.047260 12682 net.cpp:150] Setting up relu5_3
I0819 23:29:25.047271 12682 net.cpp:157] Top shape: 2 512 48 48 (2359296)
I0819 23:29:25.047273 12682 net.cpp:165] Memory required for data: 3214745924
I0819 23:29:25.047277 12682 layer_factory.hpp:77] Creating layer conv5_3_relu5_3_0_split
I0819 23:29:25.047284 12682 net.cpp:100] Creating Layer conv5_3_relu5_3_0_split
I0819 23:29:25.047288 12682 net.cpp:434] conv5_3_relu5_3_0_split <- conv5_3
I0819 23:29:25.047296 12682 net.cpp:408] conv5_3_relu5_3_0_split -> conv5_3_relu5_3_0_split_0
I0819 23:29:25.047303 12682 net.cpp:408] conv5_3_relu5_3_0_split -> conv5_3_relu5_3_0_split_1
I0819 23:29:25.047310 12682 net.cpp:408] conv5_3_relu5_3_0_split -> conv5_3_relu5_3_0_split_2
I0819 23:29:25.047375 12682 net.cpp:150] Setting up conv5_3_relu5_3_0_split
I0819 23:29:25.047384 12682 net.cpp:157] Top shape: 2 512 48 48 (2359296)
I0819 23:29:25.047389 12682 net.cpp:157] Top shape: 2 512 48 48 (2359296)
I0819 23:29:25.047394 12682 net.cpp:157] Top shape: 2 512 48 48 (2359296)
I0819 23:29:25.047396 12682 net.cpp:165] Memory required for data: 3243057476
I0819 23:29:25.047400 12682 layer_factory.hpp:77] Creating layer LFCN_2_5x5
I0819 23:29:25.047412 12682 net.cpp:100] Creating Layer LFCN_2_5x5
I0819 23:29:25.047416 12682 net.cpp:434] LFCN_2_5x5 <- conv5_3_relu5_3_0_split_0
I0819 23:29:25.047425 12682 net.cpp:408] LFCN_2_5x5 -> LFCN_2_5x5
I0819 23:29:25.053092 12682 net.cpp:150] Setting up LFCN_2_5x5
I0819 23:29:25.053107 12682 net.cpp:157] Top shape: 2 9 48 48 (41472)
I0819 23:29:25.053112 12682 net.cpp:165] Memory required for data: 3243223364
I0819 23:29:25.053123 12682 layer_factory.hpp:77] Creating layer LFCN_2_5x5_LFCN_2_5x5_0_split
I0819 23:29:25.053135 12682 net.cpp:100] Creating Layer LFCN_2_5x5_LFCN_2_5x5_0_split
I0819 23:29:25.053139 12682 net.cpp:434] LFCN_2_5x5_LFCN_2_5x5_0_split <- LFCN_2_5x5
I0819 23:29:25.053144 12682 net.cpp:408] LFCN_2_5x5_LFCN_2_5x5_0_split -> LFCN_2_5x5_LFCN_2_5x5_0_split_0
I0819 23:29:25.053153 12682 net.cpp:408] LFCN_2_5x5_LFCN_2_5x5_0_split -> LFCN_2_5x5_LFCN_2_5x5_0_split_1
I0819 23:29:25.053158 12682 net.cpp:408] LFCN_2_5x5_LFCN_2_5x5_0_split -> LFCN_2_5x5_LFCN_2_5x5_0_split_2
I0819 23:29:25.053213 12682 net.cpp:150] Setting up LFCN_2_5x5_LFCN_2_5x5_0_split
I0819 23:29:25.053220 12682 net.cpp:157] Top shape: 2 9 48 48 (41472)
I0819 23:29:25.053225 12682 net.cpp:157] Top shape: 2 9 48 48 (41472)
I0819 23:29:25.053230 12682 net.cpp:157] Top shape: 2 9 48 48 (41472)
I0819 23:29:25.053232 12682 net.cpp:165] Memory required for data: 3243721028
I0819 23:29:25.053236 12682 layer_factory.hpp:77] Creating layer detection_loss_2_5x5
I0819 23:29:25.053243 12682 net.cpp:100] Creating Layer detection_loss_2_5x5
I0819 23:29:25.053247 12682 net.cpp:434] detection_loss_2_5x5 <- LFCN_2_5x5_LFCN_2_5x5_0_split_0
I0819 23:29:25.053252 12682 net.cpp:434] detection_loss_2_5x5 <- label_2_5x5_data_3_split_0
I0819 23:29:25.053258 12682 net.cpp:408] detection_loss_2_5x5 -> loss_2_5x5
I0819 23:29:25.053268 12682 layer_factory.hpp:77] Creating layer detection_loss_2_5x5
I0819 23:29:25.053956 12682 net.cpp:150] Setting up detection_loss_2_5x5
I0819 23:29:25.053967 12682 net.cpp:157] Top shape: 1 1 1 2 (2)
I0819 23:29:25.053970 12682 net.cpp:160]     with loss weight 1
I0819 23:29:25.053982 12682 net.cpp:165] Memory required for data: 3243721036
I0819 23:29:25.053984 12682 layer_factory.hpp:77] Creating layer detection_accuracy_2_5x5
I0819 23:29:25.053990 12682 net.cpp:100] Creating Layer detection_accuracy_2_5x5
I0819 23:29:25.053997 12682 net.cpp:434] detection_accuracy_2_5x5 <- LFCN_2_5x5_LFCN_2_5x5_0_split_1
I0819 23:29:25.054000 12682 net.cpp:434] detection_accuracy_2_5x5 <- label_2_5x5_data_3_split_1
I0819 23:29:25.054006 12682 net.cpp:408] detection_accuracy_2_5x5 -> accuracy_2_5x5
I0819 23:29:25.054013 12682 net.cpp:408] detection_accuracy_2_5x5 -> boxiou_2_5x5
I0819 23:29:25.054054 12682 net.cpp:150] Setting up detection_accuracy_2_5x5
I0819 23:29:25.054060 12682 net.cpp:157] Top shape: 1 1 1 2 (2)
I0819 23:29:25.054064 12682 net.cpp:157] Top shape: 1 1 1 1 (1)
I0819 23:29:25.054067 12682 net.cpp:165] Memory required for data: 3243721048
I0819 23:29:25.054070 12682 layer_factory.hpp:77] Creating layer LFCN_2_7x7
I0819 23:29:25.054080 12682 net.cpp:100] Creating Layer LFCN_2_7x7
I0819 23:29:25.054083 12682 net.cpp:434] LFCN_2_7x7 <- conv5_3_relu5_3_0_split_1
I0819 23:29:25.054090 12682 net.cpp:408] LFCN_2_7x7 -> LFCN_2_7x7
I0819 23:29:25.060988 12682 net.cpp:150] Setting up LFCN_2_7x7
I0819 23:29:25.061002 12682 net.cpp:157] Top shape: 2 9 48 48 (41472)
I0819 23:29:25.061005 12682 net.cpp:165] Memory required for data: 3243886936
I0819 23:29:25.061012 12682 layer_factory.hpp:77] Creating layer LFCN_2_7x7_LFCN_2_7x7_0_split
I0819 23:29:25.061018 12682 net.cpp:100] Creating Layer LFCN_2_7x7_LFCN_2_7x7_0_split
I0819 23:29:25.061022 12682 net.cpp:434] LFCN_2_7x7_LFCN_2_7x7_0_split <- LFCN_2_7x7
I0819 23:29:25.061028 12682 net.cpp:408] LFCN_2_7x7_LFCN_2_7x7_0_split -> LFCN_2_7x7_LFCN_2_7x7_0_split_0
I0819 23:29:25.061036 12682 net.cpp:408] LFCN_2_7x7_LFCN_2_7x7_0_split -> LFCN_2_7x7_LFCN_2_7x7_0_split_1
I0819 23:29:25.061041 12682 net.cpp:408] LFCN_2_7x7_LFCN_2_7x7_0_split -> LFCN_2_7x7_LFCN_2_7x7_0_split_2
I0819 23:29:25.061094 12682 net.cpp:150] Setting up LFCN_2_7x7_LFCN_2_7x7_0_split
I0819 23:29:25.061100 12682 net.cpp:157] Top shape: 2 9 48 48 (41472)
I0819 23:29:25.061105 12682 net.cpp:157] Top shape: 2 9 48 48 (41472)
I0819 23:29:25.061107 12682 net.cpp:157] Top shape: 2 9 48 48 (41472)
I0819 23:29:25.061111 12682 net.cpp:165] Memory required for data: 3244384600
I0819 23:29:25.061115 12682 layer_factory.hpp:77] Creating layer detection_loss_2_7x7
I0819 23:29:25.061120 12682 net.cpp:100] Creating Layer detection_loss_2_7x7
I0819 23:29:25.061123 12682 net.cpp:434] detection_loss_2_7x7 <- LFCN_2_7x7_LFCN_2_7x7_0_split_0
I0819 23:29:25.061128 12682 net.cpp:434] detection_loss_2_7x7 <- label_2_7x7_data_4_split_0
I0819 23:29:25.061133 12682 net.cpp:408] detection_loss_2_7x7 -> loss_2_7x7
I0819 23:29:25.061141 12682 layer_factory.hpp:77] Creating layer detection_loss_2_7x7
I0819 23:29:25.061475 12682 net.cpp:150] Setting up detection_loss_2_7x7
I0819 23:29:25.061483 12682 net.cpp:157] Top shape: 1 1 1 2 (2)
I0819 23:29:25.061487 12682 net.cpp:160]     with loss weight 1
I0819 23:29:25.061492 12682 net.cpp:165] Memory required for data: 3244384608
I0819 23:29:25.061496 12682 layer_factory.hpp:77] Creating layer detection_accuracy_2_7x7
I0819 23:29:25.061501 12682 net.cpp:100] Creating Layer detection_accuracy_2_7x7
I0819 23:29:25.061506 12682 net.cpp:434] detection_accuracy_2_7x7 <- LFCN_2_7x7_LFCN_2_7x7_0_split_1
I0819 23:29:25.061509 12682 net.cpp:434] detection_accuracy_2_7x7 <- label_2_7x7_data_4_split_1
I0819 23:29:25.061516 12682 net.cpp:408] detection_accuracy_2_7x7 -> accuracy_2_7x7
I0819 23:29:25.061522 12682 net.cpp:408] detection_accuracy_2_7x7 -> boxiou_2_7x7
I0819 23:29:25.061559 12682 net.cpp:150] Setting up detection_accuracy_2_7x7
I0819 23:29:25.061566 12682 net.cpp:157] Top shape: 1 1 1 2 (2)
I0819 23:29:25.061570 12682 net.cpp:157] Top shape: 1 1 1 1 (1)
I0819 23:29:25.061573 12682 net.cpp:165] Memory required for data: 3244384620
I0819 23:29:25.061576 12682 layer_factory.hpp:77] Creating layer pool5
I0819 23:29:25.061583 12682 net.cpp:100] Creating Layer pool5
I0819 23:29:25.061586 12682 net.cpp:434] pool5 <- conv5_3_relu5_3_0_split_2
I0819 23:29:25.061592 12682 net.cpp:408] pool5 -> pool5
I0819 23:29:25.061628 12682 net.cpp:150] Setting up pool5
I0819 23:29:25.061635 12682 net.cpp:157] Top shape: 2 512 24 24 (589824)
I0819 23:29:25.061638 12682 net.cpp:165] Memory required for data: 3246743916
I0819 23:29:25.061641 12682 layer_factory.hpp:77] Creating layer conv6_1
I0819 23:29:25.061650 12682 net.cpp:100] Creating Layer conv6_1
I0819 23:29:25.061655 12682 net.cpp:434] conv6_1 <- pool5
I0819 23:29:25.061659 12682 net.cpp:408] conv6_1 -> conv6_1
I0819 23:29:25.120100 12682 net.cpp:150] Setting up conv6_1
I0819 23:29:25.120124 12682 net.cpp:157] Top shape: 2 512 24 24 (589824)
I0819 23:29:25.120128 12682 net.cpp:165] Memory required for data: 3249103212
I0819 23:29:25.120136 12682 layer_factory.hpp:77] Creating layer relu6_1
I0819 23:29:25.120144 12682 net.cpp:100] Creating Layer relu6_1
I0819 23:29:25.120151 12682 net.cpp:434] relu6_1 <- conv6_1
I0819 23:29:25.120156 12682 net.cpp:395] relu6_1 -> conv6_1 (in-place)
I0819 23:29:25.120306 12682 net.cpp:150] Setting up relu6_1
I0819 23:29:25.120314 12682 net.cpp:157] Top shape: 2 512 24 24 (589824)
I0819 23:29:25.120317 12682 net.cpp:165] Memory required for data: 3251462508
I0819 23:29:25.120321 12682 layer_factory.hpp:77] Creating layer conv6_1_relu6_1_0_split
I0819 23:29:25.120327 12682 net.cpp:100] Creating Layer conv6_1_relu6_1_0_split
I0819 23:29:25.120332 12682 net.cpp:434] conv6_1_relu6_1_0_split <- conv6_1
I0819 23:29:25.120337 12682 net.cpp:408] conv6_1_relu6_1_0_split -> conv6_1_relu6_1_0_split_0
I0819 23:29:25.120342 12682 net.cpp:408] conv6_1_relu6_1_0_split -> conv6_1_relu6_1_0_split_1
I0819 23:29:25.120347 12682 net.cpp:408] conv6_1_relu6_1_0_split -> conv6_1_relu6_1_0_split_2
I0819 23:29:25.120400 12682 net.cpp:150] Setting up conv6_1_relu6_1_0_split
I0819 23:29:25.120407 12682 net.cpp:157] Top shape: 2 512 24 24 (589824)
I0819 23:29:25.120412 12682 net.cpp:157] Top shape: 2 512 24 24 (589824)
I0819 23:29:25.120416 12682 net.cpp:157] Top shape: 2 512 24 24 (589824)
I0819 23:29:25.120419 12682 net.cpp:165] Memory required for data: 3258540396
I0819 23:29:25.120422 12682 layer_factory.hpp:77] Creating layer LFCN_3_5x5
I0819 23:29:25.120432 12682 net.cpp:100] Creating Layer LFCN_3_5x5
I0819 23:29:25.120436 12682 net.cpp:434] LFCN_3_5x5 <- conv6_1_relu6_1_0_split_0
I0819 23:29:25.120443 12682 net.cpp:408] LFCN_3_5x5 -> LFCN_3_5x5
I0819 23:29:25.124188 12682 net.cpp:150] Setting up LFCN_3_5x5
I0819 23:29:25.124199 12682 net.cpp:157] Top shape: 2 9 24 24 (10368)
I0819 23:29:25.124202 12682 net.cpp:165] Memory required for data: 3258581868
I0819 23:29:25.124207 12682 layer_factory.hpp:77] Creating layer LFCN_3_5x5_LFCN_3_5x5_0_split
I0819 23:29:25.124212 12682 net.cpp:100] Creating Layer LFCN_3_5x5_LFCN_3_5x5_0_split
I0819 23:29:25.124215 12682 net.cpp:434] LFCN_3_5x5_LFCN_3_5x5_0_split <- LFCN_3_5x5
I0819 23:29:25.124220 12682 net.cpp:408] LFCN_3_5x5_LFCN_3_5x5_0_split -> LFCN_3_5x5_LFCN_3_5x5_0_split_0
I0819 23:29:25.124227 12682 net.cpp:408] LFCN_3_5x5_LFCN_3_5x5_0_split -> LFCN_3_5x5_LFCN_3_5x5_0_split_1
I0819 23:29:25.124230 12682 net.cpp:408] LFCN_3_5x5_LFCN_3_5x5_0_split -> LFCN_3_5x5_LFCN_3_5x5_0_split_2
I0819 23:29:25.124275 12682 net.cpp:150] Setting up LFCN_3_5x5_LFCN_3_5x5_0_split
I0819 23:29:25.124281 12682 net.cpp:157] Top shape: 2 9 24 24 (10368)
I0819 23:29:25.124284 12682 net.cpp:157] Top shape: 2 9 24 24 (10368)
I0819 23:29:25.124289 12682 net.cpp:157] Top shape: 2 9 24 24 (10368)
I0819 23:29:25.124290 12682 net.cpp:165] Memory required for data: 3258706284
I0819 23:29:25.124294 12682 layer_factory.hpp:77] Creating layer detection_loss_3_5x5
I0819 23:29:25.124299 12682 net.cpp:100] Creating Layer detection_loss_3_5x5
I0819 23:29:25.124301 12682 net.cpp:434] detection_loss_3_5x5 <- LFCN_3_5x5_LFCN_3_5x5_0_split_0
I0819 23:29:25.124307 12682 net.cpp:434] detection_loss_3_5x5 <- label_3_5x5_data_5_split_0
I0819 23:29:25.124315 12682 net.cpp:408] detection_loss_3_5x5 -> loss_3_5x5
I0819 23:29:25.124322 12682 layer_factory.hpp:77] Creating layer detection_loss_3_5x5
I0819 23:29:25.124650 12682 net.cpp:150] Setting up detection_loss_3_5x5
I0819 23:29:25.124658 12682 net.cpp:157] Top shape: 1 1 1 2 (2)
I0819 23:29:25.124661 12682 net.cpp:160]     with loss weight 1
I0819 23:29:25.124672 12682 net.cpp:165] Memory required for data: 3258706292
I0819 23:29:25.124675 12682 layer_factory.hpp:77] Creating layer detection_accuracy_3_5x5
I0819 23:29:25.124683 12682 net.cpp:100] Creating Layer detection_accuracy_3_5x5
I0819 23:29:25.124687 12682 net.cpp:434] detection_accuracy_3_5x5 <- LFCN_3_5x5_LFCN_3_5x5_0_split_1
I0819 23:29:25.124691 12682 net.cpp:434] detection_accuracy_3_5x5 <- label_3_5x5_data_5_split_1
I0819 23:29:25.124696 12682 net.cpp:408] detection_accuracy_3_5x5 -> accuracy_3_5x5
I0819 23:29:25.124702 12682 net.cpp:408] detection_accuracy_3_5x5 -> boxiou_3_5x5
I0819 23:29:25.124742 12682 net.cpp:150] Setting up detection_accuracy_3_5x5
I0819 23:29:25.124748 12682 net.cpp:157] Top shape: 1 1 1 2 (2)
I0819 23:29:25.124752 12682 net.cpp:157] Top shape: 1 1 1 1 (1)
I0819 23:29:25.124755 12682 net.cpp:165] Memory required for data: 3258706304
I0819 23:29:25.124758 12682 layer_factory.hpp:77] Creating layer LFCN_3_7x7
I0819 23:29:25.124768 12682 net.cpp:100] Creating Layer LFCN_3_7x7
I0819 23:29:25.124771 12682 net.cpp:434] LFCN_3_7x7 <- conv6_1_relu6_1_0_split_1
I0819 23:29:25.124778 12682 net.cpp:408] LFCN_3_7x7 -> LFCN_3_7x7
I0819 23:29:25.132148 12682 net.cpp:150] Setting up LFCN_3_7x7
I0819 23:29:25.132165 12682 net.cpp:157] Top shape: 2 9 24 24 (10368)
I0819 23:29:25.132169 12682 net.cpp:165] Memory required for data: 3258747776
I0819 23:29:25.132175 12682 layer_factory.hpp:77] Creating layer LFCN_3_7x7_LFCN_3_7x7_0_split
I0819 23:29:25.132180 12682 net.cpp:100] Creating Layer LFCN_3_7x7_LFCN_3_7x7_0_split
I0819 23:29:25.132184 12682 net.cpp:434] LFCN_3_7x7_LFCN_3_7x7_0_split <- LFCN_3_7x7
I0819 23:29:25.132189 12682 net.cpp:408] LFCN_3_7x7_LFCN_3_7x7_0_split -> LFCN_3_7x7_LFCN_3_7x7_0_split_0
I0819 23:29:25.132197 12682 net.cpp:408] LFCN_3_7x7_LFCN_3_7x7_0_split -> LFCN_3_7x7_LFCN_3_7x7_0_split_1
I0819 23:29:25.132203 12682 net.cpp:408] LFCN_3_7x7_LFCN_3_7x7_0_split -> LFCN_3_7x7_LFCN_3_7x7_0_split_2
I0819 23:29:25.132256 12682 net.cpp:150] Setting up LFCN_3_7x7_LFCN_3_7x7_0_split
I0819 23:29:25.132263 12682 net.cpp:157] Top shape: 2 9 24 24 (10368)
I0819 23:29:25.132267 12682 net.cpp:157] Top shape: 2 9 24 24 (10368)
I0819 23:29:25.132272 12682 net.cpp:157] Top shape: 2 9 24 24 (10368)
I0819 23:29:25.132274 12682 net.cpp:165] Memory required for data: 3258872192
I0819 23:29:25.132277 12682 layer_factory.hpp:77] Creating layer detection_loss_3_7x7
I0819 23:29:25.132283 12682 net.cpp:100] Creating Layer detection_loss_3_7x7
I0819 23:29:25.132287 12682 net.cpp:434] detection_loss_3_7x7 <- LFCN_3_7x7_LFCN_3_7x7_0_split_0
I0819 23:29:25.132292 12682 net.cpp:434] detection_loss_3_7x7 <- label_3_7x7_data_6_split_0
I0819 23:29:25.132297 12682 net.cpp:408] detection_loss_3_7x7 -> loss_3_7x7
I0819 23:29:25.132303 12682 layer_factory.hpp:77] Creating layer detection_loss_3_7x7
I0819 23:29:25.132993 12682 net.cpp:150] Setting up detection_loss_3_7x7
I0819 23:29:25.133007 12682 net.cpp:157] Top shape: 1 1 1 2 (2)
I0819 23:29:25.133010 12682 net.cpp:160]     with loss weight 1
I0819 23:29:25.133020 12682 net.cpp:165] Memory required for data: 3258872200
I0819 23:29:25.133023 12682 layer_factory.hpp:77] Creating layer detection_accuracy_3_7x7
I0819 23:29:25.133031 12682 net.cpp:100] Creating Layer detection_accuracy_3_7x7
I0819 23:29:25.133035 12682 net.cpp:434] detection_accuracy_3_7x7 <- LFCN_3_7x7_LFCN_3_7x7_0_split_1
I0819 23:29:25.133039 12682 net.cpp:434] detection_accuracy_3_7x7 <- label_3_7x7_data_6_split_1
I0819 23:29:25.133046 12682 net.cpp:408] detection_accuracy_3_7x7 -> accuracy_3_7x7
I0819 23:29:25.133054 12682 net.cpp:408] detection_accuracy_3_7x7 -> boxiou_3_7x7
I0819 23:29:25.133095 12682 net.cpp:150] Setting up detection_accuracy_3_7x7
I0819 23:29:25.133101 12682 net.cpp:157] Top shape: 1 1 1 2 (2)
I0819 23:29:25.133105 12682 net.cpp:157] Top shape: 1 1 1 1 (1)
I0819 23:29:25.133108 12682 net.cpp:165] Memory required for data: 3258872212
I0819 23:29:25.133111 12682 layer_factory.hpp:77] Creating layer pool6
I0819 23:29:25.133118 12682 net.cpp:100] Creating Layer pool6
I0819 23:29:25.133122 12682 net.cpp:434] pool6 <- conv6_1_relu6_1_0_split_2
I0819 23:29:25.133127 12682 net.cpp:408] pool6 -> pool6
I0819 23:29:25.133167 12682 net.cpp:150] Setting up pool6
I0819 23:29:25.133173 12682 net.cpp:157] Top shape: 2 512 12 12 (147456)
I0819 23:29:25.133177 12682 net.cpp:165] Memory required for data: 3259462036
I0819 23:29:25.133179 12682 layer_factory.hpp:77] Creating layer LFCN_4_5x5
I0819 23:29:25.133188 12682 net.cpp:100] Creating Layer LFCN_4_5x5
I0819 23:29:25.133193 12682 net.cpp:434] LFCN_4_5x5 <- pool6
I0819 23:29:25.133198 12682 net.cpp:408] LFCN_4_5x5 -> LFCN_4_5x5
I0819 23:29:25.137387 12682 net.cpp:150] Setting up LFCN_4_5x5
I0819 23:29:25.137409 12682 net.cpp:157] Top shape: 2 9 12 12 (2592)
I0819 23:29:25.137413 12682 net.cpp:165] Memory required for data: 3259472404
I0819 23:29:25.137421 12682 layer_factory.hpp:77] Creating layer LFCN_4_5x5_LFCN_4_5x5_0_split
I0819 23:29:25.137430 12682 net.cpp:100] Creating Layer LFCN_4_5x5_LFCN_4_5x5_0_split
I0819 23:29:25.137435 12682 net.cpp:434] LFCN_4_5x5_LFCN_4_5x5_0_split <- LFCN_4_5x5
I0819 23:29:25.137441 12682 net.cpp:408] LFCN_4_5x5_LFCN_4_5x5_0_split -> LFCN_4_5x5_LFCN_4_5x5_0_split_0
I0819 23:29:25.137449 12682 net.cpp:408] LFCN_4_5x5_LFCN_4_5x5_0_split -> LFCN_4_5x5_LFCN_4_5x5_0_split_1
I0819 23:29:25.137455 12682 net.cpp:408] LFCN_4_5x5_LFCN_4_5x5_0_split -> LFCN_4_5x5_LFCN_4_5x5_0_split_2
I0819 23:29:25.137511 12682 net.cpp:150] Setting up LFCN_4_5x5_LFCN_4_5x5_0_split
I0819 23:29:25.137518 12682 net.cpp:157] Top shape: 2 9 12 12 (2592)
I0819 23:29:25.137522 12682 net.cpp:157] Top shape: 2 9 12 12 (2592)
I0819 23:29:25.137526 12682 net.cpp:157] Top shape: 2 9 12 12 (2592)
I0819 23:29:25.137529 12682 net.cpp:165] Memory required for data: 3259503508
I0819 23:29:25.137532 12682 layer_factory.hpp:77] Creating layer detection_loss_4_5x5
I0819 23:29:25.137539 12682 net.cpp:100] Creating Layer detection_loss_4_5x5
I0819 23:29:25.137543 12682 net.cpp:434] detection_loss_4_5x5 <- LFCN_4_5x5_LFCN_4_5x5_0_split_0
I0819 23:29:25.137548 12682 net.cpp:434] detection_loss_4_5x5 <- label_4_5x5_data_7_split_0
I0819 23:29:25.137554 12682 net.cpp:408] detection_loss_4_5x5 -> loss_4_5x5
I0819 23:29:25.137562 12682 layer_factory.hpp:77] Creating layer detection_loss_4_5x5
I0819 23:29:25.137902 12682 net.cpp:150] Setting up detection_loss_4_5x5
I0819 23:29:25.137912 12682 net.cpp:157] Top shape: 1 1 1 2 (2)
I0819 23:29:25.137914 12682 net.cpp:160]     with loss weight 1
I0819 23:29:25.137923 12682 net.cpp:165] Memory required for data: 3259503516
I0819 23:29:25.137928 12682 layer_factory.hpp:77] Creating layer detection_accuracy_4_5x5
I0819 23:29:25.137933 12682 net.cpp:100] Creating Layer detection_accuracy_4_5x5
I0819 23:29:25.137938 12682 net.cpp:434] detection_accuracy_4_5x5 <- LFCN_4_5x5_LFCN_4_5x5_0_split_1
I0819 23:29:25.137941 12682 net.cpp:434] detection_accuracy_4_5x5 <- label_4_5x5_data_7_split_1
I0819 23:29:25.137948 12682 net.cpp:408] detection_accuracy_4_5x5 -> accuracy_4_5x5
I0819 23:29:25.137954 12682 net.cpp:408] detection_accuracy_4_5x5 -> boxiou_4_5x5
I0819 23:29:25.137996 12682 net.cpp:150] Setting up detection_accuracy_4_5x5
I0819 23:29:25.138002 12682 net.cpp:157] Top shape: 1 1 1 2 (2)
I0819 23:29:25.138007 12682 net.cpp:157] Top shape: 1 1 1 1 (1)
I0819 23:29:25.138010 12682 net.cpp:165] Memory required for data: 3259503528
I0819 23:29:25.138013 12682 layer_factory.hpp:77] Creating layer proposals
I0819 23:29:25.138021 12682 net.cpp:100] Creating Layer proposals
I0819 23:29:25.138025 12682 net.cpp:434] proposals <- LFCN_1_5x5_LFCN_1_5x5_0_split_2
I0819 23:29:25.138029 12682 net.cpp:434] proposals <- LFCN_1_7x7_LFCN_1_7x7_0_split_2
I0819 23:29:25.138033 12682 net.cpp:434] proposals <- LFCN_2_5x5_LFCN_2_5x5_0_split_2
I0819 23:29:25.138037 12682 net.cpp:434] proposals <- LFCN_2_7x7_LFCN_2_7x7_0_split_2
I0819 23:29:25.138041 12682 net.cpp:434] proposals <- LFCN_3_5x5_LFCN_3_5x5_0_split_2
I0819 23:29:25.138044 12682 net.cpp:434] proposals <- LFCN_3_7x7_LFCN_3_7x7_0_split_2
I0819 23:29:25.138048 12682 net.cpp:434] proposals <- LFCN_4_5x5_LFCN_4_5x5_0_split_2
I0819 23:29:25.138054 12682 net.cpp:408] proposals -> proposals
I0819 23:29:25.138077 12682 net.cpp:150] Setting up proposals
I0819 23:29:25.138083 12682 net.cpp:157] Top shape: 1 5 1 1 (5)
I0819 23:29:25.138087 12682 net.cpp:165] Memory required for data: 3259503548
I0819 23:29:25.138089 12682 layer_factory.hpp:77] Creating layer proposal_info
I0819 23:29:25.138099 12682 net.cpp:100] Creating Layer proposal_info
I0819 23:29:25.138103 12682 net.cpp:434] proposal_info <- proposals
I0819 23:29:25.138106 12682 net.cpp:434] proposal_info <- gt_boxes
I0819 23:29:25.138113 12682 net.cpp:408] proposal_info -> rois
I0819 23:29:25.138118 12682 net.cpp:408] proposal_info -> proposal_labels
I0819 23:29:25.138124 12682 net.cpp:408] proposal_info -> proposal_targets
I0819 23:29:25.138130 12682 net.cpp:408] proposal_info -> box_inside_weights
I0819 23:29:25.138135 12682 net.cpp:408] proposal_info -> box_outside_weights
I0819 23:29:25.138141 12682 net.cpp:408] proposal_info -> match_gt_boxes
I0819 23:29:25.138232 12682 net.cpp:150] Setting up proposal_info
I0819 23:29:25.138239 12682 net.cpp:157] Top shape: 128 5 1 1 (640)
I0819 23:29:25.138243 12682 net.cpp:157] Top shape: 128 1 1 1 (128)
I0819 23:29:25.138248 12682 net.cpp:157] Top shape: 128 20 1 1 (2560)
I0819 23:29:25.138253 12682 net.cpp:157] Top shape: 128 20 1 1 (2560)
I0819 23:29:25.138257 12682 net.cpp:157] Top shape: 128 20 1 1 (2560)
I0819 23:29:25.138262 12682 net.cpp:157] Top shape: 128 6 1 1 (768)
I0819 23:29:25.138265 12682 net.cpp:165] Memory required for data: 3259540412
I0819 23:29:25.138269 12682 layer_factory.hpp:77] Creating layer rois_proposal_info_0_split
I0819 23:29:25.138273 12682 net.cpp:100] Creating Layer rois_proposal_info_0_split
I0819 23:29:25.138278 12682 net.cpp:434] rois_proposal_info_0_split <- rois
I0819 23:29:25.138281 12682 net.cpp:408] rois_proposal_info_0_split -> rois_proposal_info_0_split_0
I0819 23:29:25.138295 12682 net.cpp:408] rois_proposal_info_0_split -> rois_proposal_info_0_split_1
I0819 23:29:25.138301 12682 net.cpp:408] rois_proposal_info_0_split -> rois_proposal_info_0_split_2
I0819 23:29:25.138350 12682 net.cpp:150] Setting up rois_proposal_info_0_split
I0819 23:29:25.138357 12682 net.cpp:157] Top shape: 128 5 1 1 (640)
I0819 23:29:25.138361 12682 net.cpp:157] Top shape: 128 5 1 1 (640)
I0819 23:29:25.138365 12682 net.cpp:157] Top shape: 128 5 1 1 (640)
I0819 23:29:25.138368 12682 net.cpp:165] Memory required for data: 3259548092
I0819 23:29:25.138371 12682 layer_factory.hpp:77] Creating layer proposal_labels_proposal_info_1_split
I0819 23:29:25.138377 12682 net.cpp:100] Creating Layer proposal_labels_proposal_info_1_split
I0819 23:29:25.138381 12682 net.cpp:434] proposal_labels_proposal_info_1_split <- proposal_labels
I0819 23:29:25.138386 12682 net.cpp:408] proposal_labels_proposal_info_1_split -> proposal_labels_proposal_info_1_split_0
I0819 23:29:25.138391 12682 net.cpp:408] proposal_labels_proposal_info_1_split -> proposal_labels_proposal_info_1_split_1
I0819 23:29:25.138425 12682 net.cpp:150] Setting up proposal_labels_proposal_info_1_split
I0819 23:29:25.138432 12682 net.cpp:157] Top shape: 128 1 1 1 (128)
I0819 23:29:25.138435 12682 net.cpp:157] Top shape: 128 1 1 1 (128)
I0819 23:29:25.138438 12682 net.cpp:165] Memory required for data: 3259549116
I0819 23:29:25.138442 12682 layer_factory.hpp:77] Creating layer conv4_3_2x
I0819 23:29:25.138448 12682 net.cpp:100] Creating Layer conv4_3_2x
I0819 23:29:25.138453 12682 net.cpp:434] conv4_3_2x <- conv4_3_relu4_3_0_split_1
I0819 23:29:25.138458 12682 net.cpp:408] conv4_3_2x -> conv4_3_2x
I0819 23:29:25.138839 12682 net.cpp:150] Setting up conv4_3_2x
I0819 23:29:25.138846 12682 net.cpp:157] Top shape: 2 512 192 192 (37748736)
I0819 23:29:25.138849 12682 net.cpp:165] Memory required for data: 3410544060
I0819 23:29:25.138854 12682 layer_factory.hpp:77] Creating layer conv4_3_2x_new
I0819 23:29:25.138859 12682 net.cpp:100] Creating Layer conv4_3_2x_new
I0819 23:29:25.138864 12682 net.cpp:434] conv4_3_2x_new <- conv4_3_2x
I0819 23:29:25.138867 12682 net.cpp:434] conv4_3_2x_new <- ch4_pool2_ch4_pool2_0_split_2
I0819 23:29:25.138872 12682 net.cpp:408] conv4_3_2x_new -> conv4_3_2x_new
I0819 23:29:25.138896 12682 net.cpp:150] Setting up conv4_3_2x_new
I0819 23:29:25.138902 12682 net.cpp:157] Top shape: 2 513 192 192 (37822464)
I0819 23:29:25.138906 12682 net.cpp:165] Memory required for data: 3561833916
I0819 23:29:25.138908 12682 layer_factory.hpp:77] Creating layer conv4_3_2x_new_conv4_3_2x_new_0_split
I0819 23:29:25.138912 12682 net.cpp:100] Creating Layer conv4_3_2x_new_conv4_3_2x_new_0_split
I0819 23:29:25.138916 12682 net.cpp:434] conv4_3_2x_new_conv4_3_2x_new_0_split <- conv4_3_2x_new
I0819 23:29:25.138921 12682 net.cpp:408] conv4_3_2x_new_conv4_3_2x_new_0_split -> conv4_3_2x_new_conv4_3_2x_new_0_split_0
I0819 23:29:25.138926 12682 net.cpp:408] conv4_3_2x_new_conv4_3_2x_new_0_split -> conv4_3_2x_new_conv4_3_2x_new_0_split_1
I0819 23:29:25.138962 12682 net.cpp:150] Setting up conv4_3_2x_new_conv4_3_2x_new_0_split
I0819 23:29:25.138968 12682 net.cpp:157] Top shape: 2 513 192 192 (37822464)
I0819 23:29:25.138972 12682 net.cpp:157] Top shape: 2 513 192 192 (37822464)
I0819 23:29:25.138975 12682 net.cpp:165] Memory required for data: 3864413628
I0819 23:29:25.138978 12682 layer_factory.hpp:77] Creating layer roi_pool_org
I0819 23:29:25.138985 12682 net.cpp:100] Creating Layer roi_pool_org
I0819 23:29:25.138988 12682 net.cpp:434] roi_pool_org <- conv4_3_2x_new_conv4_3_2x_new_0_split_0
I0819 23:29:25.138993 12682 net.cpp:434] roi_pool_org <- rois_proposal_info_0_split_0
I0819 23:29:25.138998 12682 net.cpp:408] roi_pool_org -> roi_pool_org
I0819 23:29:25.139004 12682 roi_pooling_layer.cpp:33] Spatial scale: 0.25
I0819 23:29:25.139045 12682 net.cpp:150] Setting up roi_pool_org
I0819 23:29:25.139050 12682 net.cpp:157] Top shape: 128 513 7 7 (3217536)
I0819 23:29:25.139053 12682 net.cpp:165] Memory required for data: 3877283772
I0819 23:29:25.139056 12682 layer_factory.hpp:77] Creating layer roi_pool_ctx
I0819 23:29:25.139062 12682 net.cpp:100] Creating Layer roi_pool_ctx
I0819 23:29:25.139066 12682 net.cpp:434] roi_pool_ctx <- conv4_3_2x_new_conv4_3_2x_new_0_split_1
I0819 23:29:25.139070 12682 net.cpp:434] roi_pool_ctx <- rois_proposal_info_0_split_1
I0819 23:29:25.139075 12682 net.cpp:408] roi_pool_ctx -> roi_pool_ctx
I0819 23:29:25.139080 12682 roi_pooling_layer.cpp:33] Spatial scale: 0.25
I0819 23:29:25.139117 12682 net.cpp:150] Setting up roi_pool_ctx
I0819 23:29:25.139122 12682 net.cpp:157] Top shape: 128 513 7 7 (3217536)
I0819 23:29:25.139125 12682 net.cpp:165] Memory required for data: 3890153916
I0819 23:29:25.139128 12682 layer_factory.hpp:77] Creating layer roi_pool
I0819 23:29:25.139133 12682 net.cpp:100] Creating Layer roi_pool
I0819 23:29:25.139137 12682 net.cpp:434] roi_pool <- roi_pool_org
I0819 23:29:25.139140 12682 net.cpp:434] roi_pool <- roi_pool_ctx
I0819 23:29:25.139145 12682 net.cpp:408] roi_pool -> roi_pool
I0819 23:29:25.139168 12682 net.cpp:150] Setting up roi_pool
I0819 23:29:25.139173 12682 net.cpp:157] Top shape: 128 1026 7 7 (6435072)
I0819 23:29:25.139178 12682 net.cpp:165] Memory required for data: 3915894204
I0819 23:29:25.139180 12682 layer_factory.hpp:77] Creating layer roi_c1
I0819 23:29:25.139187 12682 net.cpp:100] Creating Layer roi_c1
I0819 23:29:25.139191 12682 net.cpp:434] roi_c1 <- roi_pool
I0819 23:29:25.139196 12682 net.cpp:408] roi_c1 -> roi_c1
I0819 23:29:25.252810 12682 net.cpp:150] Setting up roi_c1
I0819 23:29:25.252837 12682 net.cpp:157] Top shape: 128 512 5 5 (1638400)
I0819 23:29:25.252842 12682 net.cpp:165] Memory required for data: 3922447804
I0819 23:29:25.252851 12682 layer_factory.hpp:77] Creating layer roi_c1_relu
I0819 23:29:25.252861 12682 net.cpp:100] Creating Layer roi_c1_relu
I0819 23:29:25.252867 12682 net.cpp:434] roi_c1_relu <- roi_c1
I0819 23:29:25.252873 12682 net.cpp:395] roi_c1_relu -> roi_c1 (in-place)
I0819 23:29:25.253044 12682 net.cpp:150] Setting up roi_c1_relu
I0819 23:29:25.253053 12682 net.cpp:157] Top shape: 128 512 5 5 (1638400)
I0819 23:29:25.253057 12682 net.cpp:165] Memory required for data: 3929001404
I0819 23:29:25.253059 12682 layer_factory.hpp:77] Creating layer fc6
I0819 23:29:25.253069 12682 net.cpp:100] Creating Layer fc6
I0819 23:29:25.253072 12682 net.cpp:434] fc6 <- roi_c1
I0819 23:29:25.253080 12682 net.cpp:408] fc6 -> fc6
I0819 23:29:26.482666 12682 net.cpp:150] Setting up fc6
I0819 23:29:26.482699 12682 net.cpp:157] Top shape: 128 4096 (524288)
I0819 23:29:26.482702 12682 net.cpp:165] Memory required for data: 3931098556
I0819 23:29:26.482710 12682 layer_factory.hpp:77] Creating layer relu6
I0819 23:29:26.482720 12682 net.cpp:100] Creating Layer relu6
I0819 23:29:26.482728 12682 net.cpp:434] relu6 <- fc6
I0819 23:29:26.482734 12682 net.cpp:395] relu6 -> fc6 (in-place)
I0819 23:29:26.482973 12682 net.cpp:150] Setting up relu6
I0819 23:29:26.482982 12682 net.cpp:157] Top shape: 128 4096 (524288)
I0819 23:29:26.482986 12682 net.cpp:165] Memory required for data: 3933195708
I0819 23:29:26.482990 12682 layer_factory.hpp:77] Creating layer drop6
I0819 23:29:26.482996 12682 net.cpp:100] Creating Layer drop6
I0819 23:29:26.483000 12682 net.cpp:434] drop6 <- fc6
I0819 23:29:26.483006 12682 net.cpp:395] drop6 -> fc6 (in-place)
I0819 23:29:26.483029 12682 net.cpp:150] Setting up drop6
I0819 23:29:26.483036 12682 net.cpp:157] Top shape: 128 4096 (524288)
I0819 23:29:26.483038 12682 net.cpp:165] Memory required for data: 3935292860
I0819 23:29:26.483042 12682 layer_factory.hpp:77] Creating layer fc6_drop6_0_split
I0819 23:29:26.483047 12682 net.cpp:100] Creating Layer fc6_drop6_0_split
I0819 23:29:26.483052 12682 net.cpp:434] fc6_drop6_0_split <- fc6
I0819 23:29:26.483055 12682 net.cpp:408] fc6_drop6_0_split -> fc6_drop6_0_split_0
I0819 23:29:26.483062 12682 net.cpp:408] fc6_drop6_0_split -> fc6_drop6_0_split_1
I0819 23:29:26.483100 12682 net.cpp:150] Setting up fc6_drop6_0_split
I0819 23:29:26.483106 12682 net.cpp:157] Top shape: 128 4096 (524288)
I0819 23:29:26.483110 12682 net.cpp:157] Top shape: 128 4096 (524288)
I0819 23:29:26.483114 12682 net.cpp:165] Memory required for data: 3939487164
I0819 23:29:26.483116 12682 layer_factory.hpp:77] Creating layer cls_pred
I0819 23:29:26.483124 12682 net.cpp:100] Creating Layer cls_pred
I0819 23:29:26.483126 12682 net.cpp:434] cls_pred <- fc6_drop6_0_split_0
I0819 23:29:26.483134 12682 net.cpp:408] cls_pred -> cls_pred
I0819 23:29:26.483768 12682 net.cpp:150] Setting up cls_pred
I0819 23:29:26.483777 12682 net.cpp:157] Top shape: 128 5 (640)
I0819 23:29:26.483780 12682 net.cpp:165] Memory required for data: 3939489724
I0819 23:29:26.483786 12682 layer_factory.hpp:77] Creating layer cls_pred_cls_pred_0_split
I0819 23:29:26.483790 12682 net.cpp:100] Creating Layer cls_pred_cls_pred_0_split
I0819 23:29:26.483793 12682 net.cpp:434] cls_pred_cls_pred_0_split <- cls_pred
I0819 23:29:26.483799 12682 net.cpp:408] cls_pred_cls_pred_0_split -> cls_pred_cls_pred_0_split_0
I0819 23:29:26.483805 12682 net.cpp:408] cls_pred_cls_pred_0_split -> cls_pred_cls_pred_0_split_1
I0819 23:29:26.483837 12682 net.cpp:150] Setting up cls_pred_cls_pred_0_split
I0819 23:29:26.483842 12682 net.cpp:157] Top shape: 128 5 (640)
I0819 23:29:26.483846 12682 net.cpp:157] Top shape: 128 5 (640)
I0819 23:29:26.483850 12682 net.cpp:165] Memory required for data: 3939494844
I0819 23:29:26.483852 12682 layer_factory.hpp:77] Creating layer bbox_pred
I0819 23:29:26.483857 12682 net.cpp:100] Creating Layer bbox_pred
I0819 23:29:26.483861 12682 net.cpp:434] bbox_pred <- fc6_drop6_0_split_1
I0819 23:29:26.483866 12682 net.cpp:408] bbox_pred -> bbox_pred
I0819 23:29:26.486064 12682 net.cpp:150] Setting up bbox_pred
I0819 23:29:26.486070 12682 net.cpp:157] Top shape: 128 20 (2560)
I0819 23:29:26.486073 12682 net.cpp:165] Memory required for data: 3939505084
I0819 23:29:26.486078 12682 layer_factory.hpp:77] Creating layer bbox_pred_bbox_pred_0_split
I0819 23:29:26.486081 12682 net.cpp:100] Creating Layer bbox_pred_bbox_pred_0_split
I0819 23:29:26.486084 12682 net.cpp:434] bbox_pred_bbox_pred_0_split <- bbox_pred
I0819 23:29:26.486088 12682 net.cpp:408] bbox_pred_bbox_pred_0_split -> bbox_pred_bbox_pred_0_split_0
I0819 23:29:26.486093 12682 net.cpp:408] bbox_pred_bbox_pred_0_split -> bbox_pred_bbox_pred_0_split_1
I0819 23:29:26.486119 12682 net.cpp:150] Setting up bbox_pred_bbox_pred_0_split
I0819 23:29:26.486124 12682 net.cpp:157] Top shape: 128 20 (2560)
I0819 23:29:26.486127 12682 net.cpp:157] Top shape: 128 20 (2560)
I0819 23:29:26.486129 12682 net.cpp:165] Memory required for data: 3939525564
I0819 23:29:26.486132 12682 layer_factory.hpp:77] Creating layer loss_cls
I0819 23:29:26.486138 12682 net.cpp:100] Creating Layer loss_cls
I0819 23:29:26.486141 12682 net.cpp:434] loss_cls <- cls_pred_cls_pred_0_split_0
I0819 23:29:26.486146 12682 net.cpp:434] loss_cls <- proposal_labels_proposal_info_1_split_0
…
