…
    downsample_rate: 32
    downsample_rate: 32
    downsample_rate: 64
    coord_num: 4
    field_h: 60
    field_h: 84
    field_h: 120
    field_h: 168
    field_h: 240
    field_h: 336
    field_h: 480
    field_w: 60
    field_w: 84
    field_w: 120
    field_w: 168
    field_w: 240
    field_w: 336
    field_w: 480
    fg_threshold: 0.5
    resize_width: 1344
    resize_height: 768
    crop_width: 768
    crop_height: 768
    do_multiple_scale: true
    min_scale: 60
    max_scale: 480
    min_gt_height: 25
    shuffle: true
    output_gt_boxes: true
  }
}
layer {
  name: "slice"
  type: "Slice"
  bottom: "data"
  top: "data123"
  top: "ch4"
  slice_param {
    slice_point: 3
    axis: 1
  }
}
layer {
  name: "conv1_1"
  type: "Convolution"
  bottom: "data123"
  top: "conv1_1"
  param {
    lr_mult: 0
    decay_mult: 0
  }
  param {
    lr_mult: 0
    decay_mult: 0
  }
  convolution_param {
    num_output: 64
    pad: 1
    kernel_size: 3
  }
}
layer {
  name: "relu1_1"
  type: "ReLU"
  bottom: "conv1_1"
  top: "conv1_1"
}
layer {
  name: "conv1_2"
  type: "Convolution"
  bottom: "conv1_1"
  top: "conv1_2"
  param {
    lr_mult: 0
    decay_mult: 0
  }
  param {
    lr_mult: 0
    decay_mult: 0
  }
  convolution_param {
    num_output: 64
    pad: 1
    kernel_size: 3
  }
}
layer {
  name: "relu1_2"
  type: "ReLU"
  bottom: "conv1_2"
  top: "conv1_2"
}
layer {
  name: "pool1"
  type: "Pooling"
  bottom: "conv1_2"
  top: "pool1"
  pooling_param {
    pool: MAX
    kernel_size: 2
    stride: 2
  }
}
layer {
  name: "ch4_pool1"
  type: "Pooling"
  bottom: "ch4"
  top: "ch4_pool1"
  pooling_param {
    pool: MAX
    kernel_size: 2
    stride: 2
  }
}
layer {
  name: "pool1_concat"
  type: "Concat"
  bottom: "pool1"
  bottom: "ch4_pool1"
  top: "pool1_new"
}
layer {
  name: "conv2_1_new"
  type: "Convolution"
  bottom: "pool1_new"
  top: "conv2_1"
  param {
    lr_mult: 0
    decay_mult: 0
  }
  param {
    lr_mult: 0
    decay_mult: 0
  }
  convolution_param {
    num_output: 128
    pad: 1
    kernel_size: 3
  }
}
layer {
  name: "relu2_1"
  type: "ReLU"
  bottom: "conv2_1"
  top: "conv2_1"
}
layer {
  name: "conv2_2"
  type: "Convolution"
  bottom: "conv2_1"
  top: "conv2_2"
  param {
    lr_mult: 0
    decay_mult: 0
  }
  param {
    lr_mult: 0
    decay_mult: 0
  }
  convolution_param {
    num_output: 128
    pad: 1
    kernel_size: 3
  }
}
layer {
  name: "relu2_2"
  type: "ReLU"
  bottom: "conv2_2"
  top: "conv2_2"
}
layer {
  name: "pool2"
  type: "Pooling"
  bottom: "conv2_2"
  top: "pool2"
  pooling_param {
    pool: MAX
    kernel_size: 2
    stride: 2
  }
}
layer {
  name: "ch4_pool2"
  type: "Pooling"
  bottom: "ch4_pool1"
  top: "ch4_pool2"
  pooling_param {
    pool: MAX
    kernel_size: 2
    stride: 2
  }
}
layer {
  name: "pool2_concat"
  type: "Concat"
  bottom: "pool2"
  bottom: "ch4_pool2"
  top: "pool2_new"
}
layer {
  name: "conv3_1_new"
  type: "Convolution"
  bottom: "pool2_new"
  top: "conv3_1"
  convolution_param {
    num_output: 256
    pad: 1
    kernel_size: 3
  }
}
layer {
  name: "relu3_1"
  type: "ReLU"
  bottom: "conv3_1"
  top: "conv3_1"
}
layer {
  name: "conv3_2"
  type: "Convolution"
  bottom: "conv3_1"
  top: "conv3_2"
  convolution_param {
    num_output: 256
    pad: 1
    kernel_size: 3
  }
}
layer {
  name: "relu3_2"
  type: "ReLU"
  bottom: "conv3_2"
  top: "conv3_2"
}
layer {
  name: "conv3_3"
  type: "Convolution"
  bottom: "conv3_2"
  top: "conv3_3"
  convolution_param {
    num_output: 256
    pad: 1
    kernel_size: 3
  }
}
layer {
  name: "relu3_3"
  type: "ReLU"
  bottom: "conv3_3"
  top: "conv3_3"
}
layer {
  name: "pool3"
  type: "Pooling"
  bottom: "conv3_3"
  top: "pool3"
  pooling_param {
    pool: MAX
    kernel_size: 2
    stride: 2
  }
}
layer {
  name: "ch4_pool3"
  type: "Pooling"
  bottom: "ch4_pool2"
  top: "ch4_pool3"
  pooling_param {
    pool: MAX
    kernel_size: 2
    stride: 2
  }
}
layer {
  name: "pool3_concat"
  type: "Concat"
  bottom: "pool3"
  bottom: "ch4_pool3"
  top: "pool3_new"
}
layer {
  name: "conv4_1_new"
  type: "Convolution"
  bottom: "pool3_new"
  top: "conv4_1"
  convolution_param {
    num_output: 512
    pad: 1
    kernel_size: 3
  }
}
layer {
  name: "relu4_1"
  type: "ReLU"
  bottom: "conv4_1"
  top: "conv4_1"
}
layer {
  name: "conv4_2"
  type: "Convolution"
  bottom: "conv4_1"
  top: "conv4_2"
  convolution_param {
    num_output: 512
    pad: 1
    kernel_size: 3
  }
}
layer {
  name: "relu4_2"
  type: "ReLU"
  bottom: "conv4_2"
  top: "conv4_2"
}
layer {
  name: "conv4_3"
  type: "Convolution"
  bottom: "conv4_2"
  top: "conv4_3"
  convolution_param {
    num_output: 512
    pad: 1
    kernel_size: 3
  }
}
layer {
  name: "relu4_3"
  type: "ReLU"
  bottom: "conv4_3"
  top: "conv4_3"
}
layer {
  name: "conv4_concat"
  type: "Concat"
  bottom: "conv4_3"
  bottom: "ch4_pool3"
  top: "conv4_3_new"
}
layer {
  name: "loss1_conv1"
  type: "Convolution"
  bottom: "conv4_3_new"
  top: "loss1_conv1"
  param {
    lr_mult: 1
    decay_mult: 1
  }
  param {
    lr_mult: 2
    decay_mult: 0
  }
  convolution_param {
    num_output: 512
    pad: 1
    kernel_size: 3
    weight_filler {
      type: "gaussian"
      std: 0.01
    }
    bias_filler {
      type: "constant"
    }
  }
}
layer {
  name: "loss_relu1"
  type: "ReLU"
  bottom: "loss1_conv1"
  top: "loss1_conv1"
}
layer {
  name: "LFCN_1_5x5"
  type: "Convolution"
  bottom: "loss1_conv1"
  top: "LFCN_1_5x5"
  param {
    lr_mult: 1
    decay_mult: 1
  }
  param {
    lr_mult: 2
    decay_mult: 0
  }
  convolution_param {
    num_output: 9
    pad: 2
    kernel_size: 5
    weight_filler {
      type: "gaussian"
      std: 0.001
    }
    bias_filler {
      type: "constant"
    }
  }
}
layer {
  name: "detection_loss_1_5x5"
  type: "DetectionLoss"
  bottom: "LFCN_1_5x5"
  bottom: "label_1_5x5"
  top: "loss_1_5x5"
  loss_weight: 0.9
  detection_loss_param {
    cls_num: 5
    coord_num: 4
    lambda: 1
    field_h: 60
    field_w: 60
    downsample_rate: 8
    bb_smooth: true
    field_whr: 2
    field_xyr: 2
    bg_threshold: 0.2
    bg_multiple: 2
    sample_mode: "bootstrap"
    pos_neg_weighted: true
  }
}
layer {
  name: "detection_accuracy_1_5x5"
  type: "DetectionAccuracy"
  bottom: "LFCN_1_5x5"
  bottom: "label_1_5x5"
  top: "accuracy_1_5x5"
  top: "boxiou_1_5x5"
  detection_accuracy_param {
    cls_num: 5
    coord_num: 4
    field_h: 60
    field_w: 60
    downsample_rate: 8
    field_whr: 2
    field_xyr: 2
  }
}
layer {
  name: "LFCN_1_7x7"
  type: "Convolution"
  bottom: "loss1_conv1"
  top: "LFCN_1_7x7"
  param {
    lr_mult: 1
    decay_mult: 1
  }
  param {
    lr_mult: 2
    decay_mult: 0
  }
  convolution_param {
    num_output: 9
    pad: 3
    kernel_size: 7
    weight_filler {
      type: "gaussian"
      std: 0.001
    }
    bias_filler {
      type: "constant"
    }
  }
}
layer {
  name: "detection_loss_1_7x7"
  type: "DetectionLoss"
  bottom: "LFCN_1_7x7"
  bottom: "label_1_7x7"
  top: "loss_1_7x7"
  loss_weight: 0.9
  detection_loss_param {
    cls_num: 5
    coord_num: 4
    lambda: 1
    field_h: 84
    field_w: 84
    downsample_rate: 8
    bb_smooth: true
    field_whr: 2
    field_xyr: 2
    bg_threshold: 0.2
    bg_multiple: 2
    sample_mode: "bootstrap"
    pos_neg_weighted: true
  }
}
layer {
  name: "detection_accuracy_1_7x7"
  type: "DetectionAccuracy"
  bottom: "LFCN_1_7x7"
  bottom: "label_1_7x7"
  top: "accuracy_1_7x7"
  top: "boxiou_1_7x7"
  detection_accuracy_param {
    cls_num: 5
    coord_num: 4
    field_h: 84
    field_w: 84
    downsample_rate: 8
    field_whr: 2
    field_xyr: 2
  }
}
layer {
  name: "pool4"
  type: "Pooling"
  bottom: "conv4_3_new"
  top: "pool4"
  pooling_param {
    pool: MAX
    kernel_size: 2
    stride: 2
  }
}
layer {
  name: "conv5_1_new"
  type: "Convolution"
  bottom: "pool4"
  top: "conv5_1"
  convolution_param {
    num_output: 512
    pad: 1
    kernel_size: 3
  }
}
layer {
  name: "relu5_1"
  type: "ReLU"
  bottom: "conv5_1"
  top: "conv5_1"
}
layer {
  name: "conv5_2"
  type: "Convolution"
  bottom: "conv5_1"
  top: "conv5_2"
  convolution_param {
    num_output: 512
    pad: 1
    kernel_size: 3
  }
}
layer {
  name: "relu5_2"
  type: "ReLU"
  bottom: "conv5_2"
  top: "conv5_2"
}
layer {
  name: "conv5_3"
  type: "Convolution"
  bottom: "conv5_2"
  top: "conv5_3"
  convolution_param {
    num_output: 512
    pad: 1
    kernel_size: 3
  }
}
layer {
  name: "relu5_3"
  type: "ReLU"
  bottom: "conv5_3"
  top: "conv5_3"
}
layer {
  name: "LFCN_2_5x5"
  type: "Convolution"
  bottom: "conv5_3"
  top: "LFCN_2_5x5"
  param {
    lr_mult: 1
    decay_mult: 1
  }
  param {
    lr_mult: 2
    decay_mult: 0
  }
  convolution_param {
    num_output: 9
    pad: 2
    kernel_size: 5
    weight_filler {
      type: "gaussian"
      std: 0.001
    }
    bias_filler {
      type: "constant"
    }
  }
}
layer {
  name: "detection_loss_2_5x5"
  type: "DetectionLoss"
  bottom: "LFCN_2_5x5"
  bottom: "label_2_5x5"
  top: "loss_2_5x5"
  detection_loss_param {
    cls_num: 5
    coord_num: 4
    lambda: 1
    field_h: 120
    field_w: 120
    downsample_rate: 16
    bb_smooth: true
    field_whr: 2
    field_xyr: 2
    bg_threshold: 0.2
    bg_multiple: 2
    sample_mode: "bootstrap"
    pos_neg_weighted: true
  }
}
layer {
  name: "detection_accuracy_2_5x5"
  type: "DetectionAccuracy"
  bottom: "LFCN_2_5x5"
  bottom: "label_2_5x5"
  top: "accuracy_2_5x5"
  top: "boxiou_2_5x5"
  detection_accuracy_param {
    cls_num: 5
    coord_num: 4
    field_h: 120
    field_w: 120
    downsample_rate: 16
    field_whr: 2
    field_xyr: 2
  }
}
layer {
  name: "LFCN_2_7x7"
  type: "Convolution"
  bottom: "conv5_3"
  top: "LFCN_2_7x7"
  param {
    lr_mult: 1
    decay_mult: 1
  }
  param {
    lr_mult: 2
    decay_mult: 0
  }
  convolution_param {
    num_output: 9
    pad: 3
    kernel_size: 7
    weight_filler {
      type: "gaussian"
      std: 0.001
    }
    bias_filler {
      type: "constant"
    }
  }
}
layer {
  name: "detection_loss_2_7x7"
  type: "DetectionLoss"
  bottom: "LFCN_2_7x7"
  bottom: "label_2_7x7"
  top: "loss_2_7x7"
  detection_loss_param {
    cls_num: 5
    coord_num: 4
    lambda: 1
    field_h: 168
    field_w: 168
    downsample_rate: 16
    bb_smooth: true
    field_whr: 2
    field_xyr: 2
    bg_threshold: 0.2
    bg_multiple: 2
    sample_mode: "bootstrap"
    pos_neg_weighted: true
  }
}
layer {
  name: "detection_accuracy_2_7x7"
  type: "DetectionAccuracy"
  bottom: "LFCN_2_7x7"
  bottom: "label_2_7x7"
  top: "accuracy_2_7x7"
  top: "boxiou_2_7x7"
  detection_accuracy_param {
    cls_num: 5
    coord_num: 4
    field_h: 168
    field_w: 168
    downsample_rate: 16
    field_whr: 2
    field_xyr: 2
  }
}
layer {
  name: "pool5"
  type: "Pooling"
  bottom: "conv5_3"
  top: "pool5"
  pooling_param {
    pool: MAX
    kernel_size: 2
    stride: 2
  }
}
layer {
  name: "conv6_1"
  type: "Convolution"
  bottom: "pool5"
  top: "conv6_1"
  param {
    lr_mult: 1
    decay_mult: 1
  }
  param {
    lr_mult: 2
    decay_mult: 0
  }
  convolution_param {
    num_output: 512
    pad: 1
    kernel_size: 3
    weight_filler {
      type: "gaussian"
      std: 0.01
    }
    bias_filler {
      type: "constant"
    }
  }
}
layer {
  name: "relu6_1"
  type: "ReLU"
  bottom: "conv6_1"
  top: "conv6_1"
}
layer {
  name: "LFCN_3_5x5"
  type: "Convolution"
  bottom: "conv6_1"
  top: "LFCN_3_5x5"
  param {
    lr_mult: 1
    decay_mult: 1
  }
  param {
    lr_mult: 2
    decay_mult: 0
  }
  convolution_param {
    num_output: 9
    pad: 2
    kernel_size: 5
    weight_filler {
      type: "gaussian"
      std: 0.001
    }
    bias_filler {
      type: "constant"
    }
  }
}
layer {
  name: "detection_loss_3_5x5"
  type: "DetectionLoss"
  bottom: "LFCN_3_5x5"
  bottom: "label_3_5x5"
  top: "loss_3_5x5"
  detection_loss_param {
    cls_num: 5
    coord_num: 4
    lambda: 1
    field_h: 240
    field_w: 240
    downsample_rate: 32
    bb_smooth: true
    field_whr: 2
    field_xyr: 2
    bg_threshold: 0.2
    bg_multiple: 2
    sample_mode: "bootstrap"
    pos_neg_weighted: true
  }
}
layer {
  name: "detection_accuracy_3_5x5"
  type: "DetectionAccuracy"
  bottom: "LFCN_3_5x5"
  bottom: "label_3_5x5"
  top: "accuracy_3_5x5"
  top: "boxiou_3_5x5"
  detection_accuracy_param {
    cls_num: 5
    coord_num: 4
    field_h: 240
    field_w: 240
    downsample_rate: 32
    field_whr: 2
    field_xyr: 2
  }
}
layer {
  name: "LFCN_3_7x7"
  type: "Convolution"
  bottom: "conv6_1"
  top: "LFCN_3_7x7"
  param {
    lr_mult: 1
    decay_mult: 1
  }
  param {
    lr_mult: 2
    decay_mult: 0
  }
  convolution_param {
    num_output: 9
    pad: 3
    kernel_size: 7
    weight_filler {
      type: "gaussian"
      std: 0.001
    }
    bias_filler {
      type: "constant"
    }
  }
}
layer {
  name: "detection_loss_3_7x7"
  type: "DetectionLoss"
  bottom: "LFCN_3_7x7"
  bottom: "label_3_7x7"
  top: "loss_3_7x7"
  detection_loss_param {
    cls_num: 5
    coord_num: 4
    lambda: 1
    field_h: 336
    field_w: 336
    downsample_rate: 32
    bb_smooth: true
    field_whr: 2
    field_xyr: 2
    bg_threshold: 0.2
    bg_multiple: 2
    sample_mode: "bootstrap"
    pos_neg_weighted: true
  }
}
layer {
  name: "detection_accuracy_3_7x7"
  type: "DetectionAccuracy"
  bottom: "LFCN_3_7x7"
  bottom: "label_3_7x7"
  top: "accuracy_3_7x7"
  top: "boxiou_3_7x7"
  detection_accuracy_param {
    cls_num: 5
    coord_num: 4
    field_h: 336
    field_w: 336
    downsample_rate: 32
    field_whr: 2
    field_xyr: 2
  }
}
layer {
  name: "pool6"
  type: "Pooling"
  bottom: "conv6_1"
  top: "pool6"
  pooling_param {
    pool: MAX
    kernel_size: 2
    stride: 2
  }
}
layer {
  name: "LFCN_4_5x5"
  type: "Convolution"
  bottom: "pool6"
  top: "LFCN_4_5x5"
  param {
    lr_mult: 1
    decay_mult: 1
  }
  param {
    lr_mult: 2
    decay_mult: 0
  }
  convolution_param {
    num_output: 9
    pad: 2
    kernel_size: 5
    weight_filler {
      type: "gaussian"
      std: 0.001
    }
    bias_filler {
      type: "constant"
    }
  }
}
layer {
  name: "detection_loss_4_5x5"
  type: "DetectionLoss"
  bottom: "LFCN_4_5x5"
  bottom: "label_4_5x5"
  top: "loss_4_5x5"
  detection_loss_param {
    cls_num: 5
    coord_num: 4
    lambda: 1
    field_h: 480
    field_w: 480
    downsample_rate: 64
    bb_smooth: true
    field_whr: 2
    field_xyr: 2
    bg_threshold: 0.2
    bg_multiple: 2
    sample_mode: "bootstrap"
    pos_neg_weighted: true
  }
}
layer {
  name: "detection_accuracy_4_5x5"
  type: "DetectionAccuracy"
  bottom: "LFCN_4_5x5"
  bottom: "label_4_5x5"
  top: "accuracy_4_5x5"
  top: "boxiou_4_5x5"
  detection_accuracy_param {
    cls_num: 5
    coord_num: 4
    field_h: 480
    field_w: 480
    downsample_rate: 64
    field_whr: 2
    field_xyr: 2
  }
}
layer {
  name: "proposals"
  type: "BoxOutput"
  bottom: "LFCN_1_5x5"
  bottom: "LFCN_1_7x7"
  bottom: "LFCN_2_5x5"
  bottom: "LFCN_2_7x7"
  bottom: "LFCN_3_5x5"
  bottom: "LFCN_3_7x7"
  bottom: "LFCN_4_5x5"
  top: "proposals"
  propagate_down: false
  propagate_down: false
  propagate_down: false
  propagate_down: false
  propagate_down: false
  propagate_down: false
  propagate_down: false
  box_output_param {
    fg_thr: -8
    iou_thr: 0.65
    nms_type: "IOU"
    field_h: 60
    field_h: 84
    field_h: 120
    field_h: 168
    field_h: 240
    field_h: 336
    field_h: 480
    field_w: 60
    field_w: 84
    field_w: 120
    field_w: 168
    field_w: 240
    field_w: 336
    field_w: 480
    downsample_rate: 8
    downsample_rate: 8
    downsample_rate: 16
    downsample_rate: 16
    downsample_rate: 32
    downsample_rate: 32
    downsample_rate: 64
    field_whr: 2
    field_xyr: 2
    max_nms_num: 3000
  }
}
layer {
  name: "proposal_info"
  type: "ProposalTarget"
  bottom: "proposals"
  bottom: "gt_boxes"
  top: "rois"
  top: "proposal_labels"
  top: "proposal_targets"
  top: "box_inside_weights"
  top: "box_outside_weights"
  top: "match_gt_boxes"
  include {
    phase: TRAIN
  }
  propagate_down: false
  propagate_down: false
  proposal_target_param {
    cls_num: 5
    batch_size: 256
    fg_fraction: 0.25
    num_img_per_batch: 4
    fg_thr: 0.5
    bg_thr_hg: 0.49
    bg_thr_lw: 0.1
    img_width: 768
    img_height: 576
  }
  bbox_reg_param {
    bbox_mean: 0
    bbox_mean: 0
    bbox_mean: 0
    bbox_mean: 0
    bbox_std: 0.1
    bbox_std: 0.1
    bbox_std: 0.2
    bbox_std: 0.2
  }
}
layer {
  name: "conv4_3_2x"
  type: "Deconvolution"
  bottom: "conv4_3"
  top: "conv4_3_2x"
  param {
    lr_mult: 0
    decay_mult: 0
  }
  convolution_param {
    num_output: 512
    bias_term: false
    pad: 1
    kernel_size: 4
    group: 512
    stride: 2
    weight_filler {
      type: "bilinear"
    }
  }
}
layer {
  name: "conv4_3_2x_new"
  type: "Concat"
  bottom: "conv4_3_2x"
  bottom: "ch4_pool2"
  top: "conv4_3_2x_new"
}
layer {
  name: "roi_pool_org"
  type: "ROIPooling"
  bottom: "conv4_3_2x_new"
  bottom: "rois"
  top: "roi_pool_org"
  roi_pooling_param {
    pooled_h: 7
    pooled_w: 7
    spatial_scale: 0.25
    pad_ratio: 0
  }
}
layer {
  name: "roi_pool_ctx"
  type: "ROIPooling"
  bottom: "conv4_3_2x_new"
  bottom: "rois"
  top: "roi_pool_ctx"
  roi_pooling_param {
    pooled_h: 7
    pooled_w: 7
    spatial_scale: 0.25
    pad_ratio: 0.25
  }
}
layer {
  name: "roi_pool"
  type: "Concat"
  bottom: "roi_pool_org"
  bottom: "roi_pool_ctx"
  top: "roi_pool"
}
layer {
  name: "roi_c1"
  type: "Convolution"
  bottom: "roi_pool"
  top: "roi_c1"
  param {
    lr_mult: 1
    decay_mult: 1
  }
  param {
    lr_mult: 2
    decay_mult: 0
  }
  convolution_param {
    num_output: 512
    kernel_size: 3
    weight_filler {
      type: "gaussian"
      std: 0.01
    }
    bias_filler {
      type: "constant"
    }
  }
}
layer {
  name: "roi_c1_relu"
  type: "ReLU"
  bottom: "roi_c1"
  top: "roi_c1"
}
layer {
  name: "fc6"
  type: "InnerProduct"
  bottom: "roi_c1"
  top: "fc6"
  param {
    lr_mult: 1
  }
  param {
    lr_mult: 2
  }
  inner_product_param {
    num_output: 4096
    weight_filler {
      type: "gaussian"
      std: 0.001
    }
    bias_filler {
      type: "constant"
      value: 0
    }
  }
}
layer {
  name: "relu6"
  type: "ReLU"
  bottom: "fc6"
  top: "fc6"
}
layer {
  name: "drop6"
  type: "Dropout"
  bottom: "fc6"
  top: "fc6"
  dropout_param {
    dropout_ratio: 0.5
  }
}
layer {
  name: "cls_pred"
  type: "InnerProduct"
  bottom: "fc6"
  top: "cls_pred"
  param {
    lr_mult: 1
  }
  param {
    lr_mult: 2
  }
  inner_product_param {
    num_output: 5
    weight_filler {
      type: "gaussian"
      std: 0.01
    }
    bias_filler {
      type: "constant"
      value: 0
    }
  }
}
layer {
  name: "bbox_pred"
  type: "InnerProduct"
  bottom: "fc6"
  top: "bbox_pred"
  param {
    lr_mult: 1
  }
  param {
    lr_mult: 2
  }
  inner_product_param {
    num_output: 20
    weight_filler {
      type: "gaussian"
      std: 0.001
    }
    bias_filler {
      type: "constant"
      value: 0
    }
  }
}
layer {
  name: "loss_cls"
  type: "SoftmaxWithLoss"
  bottom: "cls_pred"
  bottom: "proposal_labels"
  top: "loss_cls"
  loss_weight: 1
  propagate_down: true
  propagate_down: false
}
layer {
  name: "cls_accuracy"
  type: "Accuracy"
  bottom: "cls_pred"
  bottom: "proposal_labels"
  top: "cls_accuracy"
}
layer {
  name: "loss_bbox"
  type: "SmoothL1Loss"
  bottom: "bbox_pred"
  bottom: "proposal_targets"
  bottom: "box_inside_weights"
  bottom: "box_outside_weights"
  top: "loss_bbox"
  loss_weight: 1
}
layer {
  name: "bbox_iou"
  type: "BboxAccuracy"
  bottom: "bbox_pred"
  bottom: "rois"
  bottom: "match_gt_boxes"
  top: "bbox_iou"
  top: "bbox_iou_pre"
  bbox_reg_param {
    bbox_mean: 0
    bbox_mean: 0
    bbox_mean: 0
    bbox_mean: 0
    bbox_std: 0.1
    bbox_std: 0.1
    bbox_std: 0.2
    bbox_std: 0.2
  }
}
I0819 12:37:43.924451  4343 layer_factory.hpp:77] Creating layer data
I0819 12:37:43.924494  4343 net.cpp:100] Creating Layer data
I0819 12:37:43.924502  4343 net.cpp:408] data -> data
…
I0819 12:37:43.947854  4343 image_gt_data_layer.cpp:235] output label size 2 : 3,6,48,48
I0819 12:37:43.947890  4343 image_gt_data_layer.cpp:235] output label size 3 : 3,6,48,48
I0819 12:37:43.947926  4343 image_gt_data_layer.cpp:235] output label size 4 : 3,6,24,24
I0819 12:37:43.947960  4343 image_gt_data_layer.cpp:235] output label size 5 : 3,6,24,24
I0819 12:37:43.947996  4343 image_gt_data_layer.cpp:235] output label size 6 : 3,6,12,12
I0819 12:37:43.948031  4343 image_gt_data_layer.cpp:250] output gt boxes size: 1,7,1,1
I0819 12:37:43.996301  4343 net.cpp:150] Setting up data
I0819 12:37:43.996335  4343 net.cpp:157] Top shape: 3 4 768 768 (7077888)
I0819 12:37:43.996341  4343 net.cpp:157] Top shape: 3 6 96 96 (165888)
I0819 12:37:43.996346  4343 net.cpp:157] Top shape: 3 6 96 96 (165888)
I0819 12:37:43.996351  4343 net.cpp:157] Top shape: 3 6 48 48 (41472)
I0819 12:37:43.996356  4343 net.cpp:157] Top shape: 3 6 48 48 (41472)
I0819 12:37:43.996361  4343 net.cpp:157] Top shape: 3 6 24 24 (10368)
I0819 12:37:43.996364  4343 net.cpp:157] Top shape: 3 6 24 24 (10368)
I0819 12:37:43.996368  4343 net.cpp:157] Top shape: 3 6 12 12 (2592)
I0819 12:37:43.996372  4343 net.cpp:157] Top shape: 1 7 1 1 (7)
I0819 12:37:43.996376  4343 net.cpp:165] Memory required for data: 30063772
I0819 12:37:43.996384  4343 layer_factory.hpp:77] Creating layer label_1_5x5_data_1_split
I0819 12:37:43.996403  4343 net.cpp:100] Creating Layer label_1_5x5_data_1_split
I0819 12:37:43.996410  4343 net.cpp:434] label_1_5x5_data_1_split <- label_1_5x5
I0819 12:37:43.996421  4343 net.cpp:408] label_1_5x5_data_1_split -> label_1_5x5_data_1_split_0
I0819 12:37:43.996430  4343 net.cpp:408] label_1_5x5_data_1_split -> label_1_5x5_data_1_split_1
I0819 12:37:43.996479  4343 net.cpp:150] Setting up label_1_5x5_data_1_split
I0819 12:37:43.996487  4343 net.cpp:157] Top shape: 3 6 96 96 (165888)
I0819 12:37:43.996492  4343 net.cpp:157] Top shape: 3 6 96 96 (165888)
I0819 12:37:43.996496  4343 net.cpp:165] Memory required for data: 31390876
I0819 12:37:43.996500  4343 layer_factory.hpp:77] Creating layer label_1_7x7_data_2_split
I0819 12:37:43.996506  4343 net.cpp:100] Creating Layer label_1_7x7_data_2_split
I0819 12:37:43.996510  4343 net.cpp:434] label_1_7x7_data_2_split <- label_1_7x7
I0819 12:37:43.996517  4343 net.cpp:408] label_1_7x7_data_2_split -> label_1_7x7_data_2_split_0
I0819 12:37:43.996525  4343 net.cpp:408] label_1_7x7_data_2_split -> label_1_7x7_data_2_split_1
I0819 12:37:43.996680  4343 net.cpp:150] Setting up label_1_7x7_data_2_split
I0819 12:37:43.996722  4343 net.cpp:157] Top shape: 3 6 96 96 (165888)
I0819 12:37:43.996736  4343 net.cpp:157] Top shape: 3 6 96 96 (165888)
I0819 12:37:43.996743  4343 net.cpp:165] Memory required for data: 32717980
I0819 12:37:43.996754  4343 layer_factory.hpp:77] Creating layer label_2_5x5_data_3_split
I0819 12:37:43.996775  4343 net.cpp:100] Creating Layer label_2_5x5_data_3_split
I0819 12:37:43.996785  4343 net.cpp:434] label_2_5x5_data_3_split <- label_2_5x5
I0819 12:37:43.996799  4343 net.cpp:408] label_2_5x5_data_3_split -> label_2_5x5_data_3_split_0
I0819 12:37:43.996816  4343 net.cpp:408] label_2_5x5_data_3_split -> label_2_5x5_data_3_split_1
I0819 12:37:43.996883  4343 net.cpp:150] Setting up label_2_5x5_data_3_split
I0819 12:37:43.996896  4343 net.cpp:157] Top shape: 3 6 48 48 (41472)
I0819 12:37:43.996906  4343 net.cpp:157] Top shape: 3 6 48 48 (41472)
I0819 12:37:43.996912  4343 net.cpp:165] Memory required for data: 33049756
I0819 12:37:43.996919  4343 layer_factory.hpp:77] Creating layer label_2_7x7_data_4_split
I0819 12:37:43.996932  4343 net.cpp:100] Creating Layer label_2_7x7_data_4_split
I0819 12:37:43.996940  4343 net.cpp:434] label_2_7x7_data_4_split <- label_2_7x7
I0819 12:37:43.996953  4343 net.cpp:408] label_2_7x7_data_4_split -> label_2_7x7_data_4_split_0
I0819 12:37:43.996968  4343 net.cpp:408] label_2_7x7_data_4_split -> label_2_7x7_data_4_split_1
I0819 12:37:43.997037  4343 net.cpp:150] Setting up label_2_7x7_data_4_split
I0819 12:37:43.997051  4343 net.cpp:157] Top shape: 3 6 48 48 (41472)
I0819 12:37:43.997061  4343 net.cpp:157] Top shape: 3 6 48 48 (41472)
I0819 12:37:43.997068  4343 net.cpp:165] Memory required for data: 33381532
I0819 12:37:43.997076  4343 layer_factory.hpp:77] Creating layer label_3_5x5_data_5_split
I0819 12:37:43.997087  4343 net.cpp:100] Creating Layer label_3_5x5_data_5_split
I0819 12:37:43.997093  4343 net.cpp:434] label_3_5x5_data_5_split <- label_3_5x5
I0819 12:37:43.997105  4343 net.cpp:408] label_3_5x5_data_5_split -> label_3_5x5_data_5_split_0
I0819 12:37:43.997119  4343 net.cpp:408] label_3_5x5_data_5_split -> label_3_5x5_data_5_split_1
I0819 12:37:43.997179  4343 net.cpp:150] Setting up label_3_5x5_data_5_split
I0819 12:37:43.997191  4343 net.cpp:157] Top shape: 3 6 24 24 (10368)
I0819 12:37:43.997200  4343 net.cpp:157] Top shape: 3 6 24 24 (10368)
I0819 12:37:43.997207  4343 net.cpp:165] Memory required for data: 33464476
I0819 12:37:43.997215  4343 layer_factory.hpp:77] Creating layer label_3_7x7_data_6_split
I0819 12:37:43.997225  4343 net.cpp:100] Creating Layer label_3_7x7_data_6_split
I0819 12:37:43.997232  4343 net.cpp:434] label_3_7x7_data_6_split <- label_3_7x7
I0819 12:37:43.997242  4343 net.cpp:408] label_3_7x7_data_6_split -> label_3_7x7_data_6_split_0
I0819 12:37:43.997258  4343 net.cpp:408] label_3_7x7_data_6_split -> label_3_7x7_data_6_split_1
I0819 12:37:43.997315  4343 net.cpp:150] Setting up label_3_7x7_data_6_split
I0819 12:37:43.997328  4343 net.cpp:157] Top shape: 3 6 24 24 (10368)
I0819 12:37:43.997336  4343 net.cpp:157] Top shape: 3 6 24 24 (10368)
I0819 12:37:43.997344  4343 net.cpp:165] Memory required for data: 33547420
I0819 12:37:43.997351  4343 layer_factory.hpp:77] Creating layer label_4_5x5_data_7_split
I0819 12:37:43.997361  4343 net.cpp:100] Creating Layer label_4_5x5_data_7_split
I0819 12:37:43.997371  4343 net.cpp:434] label_4_5x5_data_7_split <- label_4_5x5
I0819 12:37:43.997380  4343 net.cpp:408] label_4_5x5_data_7_split -> label_4_5x5_data_7_split_0
I0819 12:37:43.997391  4343 net.cpp:408] label_4_5x5_data_7_split -> label_4_5x5_data_7_split_1
I0819 12:37:43.997450  4343 net.cpp:150] Setting up label_4_5x5_data_7_split
I0819 12:37:43.997463  4343 net.cpp:157] Top shape: 3 6 12 12 (2592)
I0819 12:37:43.997473  4343 net.cpp:157] Top shape: 3 6 12 12 (2592)
I0819 12:37:43.997479  4343 net.cpp:165] Memory required for data: 33568156
I0819 12:37:43.997486  4343 layer_factory.hpp:77] Creating layer slice
I0819 12:37:43.997509  4343 net.cpp:100] Creating Layer slice
I0819 12:37:43.997517  4343 net.cpp:434] slice <- data
I0819 12:37:43.997529  4343 net.cpp:408] slice -> data123
I0819 12:37:43.997543  4343 net.cpp:408] slice -> ch4
I0819 12:37:43.997611  4343 net.cpp:150] Setting up slice
I0819 12:37:43.997624  4343 net.cpp:157] Top shape: 3 3 768 768 (5308416)
I0819 12:37:43.997633  4343 net.cpp:157] Top shape: 3 1 768 768 (1769472)
I0819 12:37:43.997640  4343 net.cpp:165] Memory required for data: 61879708
I0819 12:37:43.997648  4343 layer_factory.hpp:77] Creating layer conv1_1
I0819 12:37:43.997668  4343 net.cpp:100] Creating Layer conv1_1
I0819 12:37:43.997678  4343 net.cpp:434] conv1_1 <- data123
I0819 12:37:43.997689  4343 net.cpp:408] conv1_1 -> conv1_1
I0819 12:37:44.259241  4343 net.cpp:150] Setting up conv1_1
I0819 12:37:44.259274  4343 net.cpp:157] Top shape: 3 64 768 768 (113246208)
I0819 12:37:44.259279  4343 net.cpp:165] Memory required for data: 514864540
I0819 12:37:44.259300  4343 layer_factory.hpp:77] Creating layer relu1_1
I0819 12:37:44.259312  4343 net.cpp:100] Creating Layer relu1_1
I0819 12:37:44.259318  4343 net.cpp:434] relu1_1 <- conv1_1
I0819 12:37:44.259325  4343 net.cpp:395] relu1_1 -> conv1_1 (in-place)
I0819 12:37:44.259538  4343 net.cpp:150] Setting up relu1_1
I0819 12:37:44.259547  4343 net.cpp:157] Top shape: 3 64 768 768 (113246208)
I0819 12:37:44.259552  4343 net.cpp:165] Memory required for data: 967849372
I0819 12:37:44.259555  4343 layer_factory.hpp:77] Creating layer conv1_2
I0819 12:37:44.259564  4343 net.cpp:100] Creating Layer conv1_2
I0819 12:37:44.259568  4343 net.cpp:434] conv1_2 <- conv1_1
I0819 12:37:44.259574  4343 net.cpp:408] conv1_2 -> conv1_2
I0819 12:37:44.261696  4343 net.cpp:150] Setting up conv1_2
I0819 12:37:44.261713  4343 net.cpp:157] Top shape: 3 64 768 768 (113246208)
I0819 12:37:44.261716  4343 net.cpp:165] Memory required for data: 1420834204
I0819 12:37:44.261725  4343 layer_factory.hpp:77] Creating layer relu1_2
I0819 12:37:44.261734  4343 net.cpp:100] Creating Layer relu1_2
I0819 12:37:44.261739  4343 net.cpp:434] relu1_2 <- conv1_2
I0819 12:37:44.261744  4343 net.cpp:395] relu1_2 -> conv1_2 (in-place)
I0819 12:37:44.261890  4343 net.cpp:150] Setting up relu1_2
I0819 12:37:44.261898  4343 net.cpp:157] Top shape: 3 64 768 768 (113246208)
I0819 12:37:44.261900  4343 net.cpp:165] Memory required for data: 1873819036
I0819 12:37:44.261904  4343 layer_factory.hpp:77] Creating layer pool1
I0819 12:37:44.261910  4343 net.cpp:100] Creating Layer pool1
I0819 12:37:44.261914  4343 net.cpp:434] pool1 <- conv1_2
I0819 12:37:44.261919  4343 net.cpp:408] pool1 -> pool1
I0819 12:37:44.261965  4343 net.cpp:150] Setting up pool1
I0819 12:37:44.261972  4343 net.cpp:157] Top shape: 3 64 384 384 (28311552)
I0819 12:37:44.261976  4343 net.cpp:165] Memory required for data: 1987065244
I0819 12:37:44.261979  4343 layer_factory.hpp:77] Creating layer ch4_pool1
I0819 12:37:44.261984  4343 net.cpp:100] Creating Layer ch4_pool1
I0819 12:37:44.261987  4343 net.cpp:434] ch4_pool1 <- ch4
I0819 12:37:44.261992  4343 net.cpp:408] ch4_pool1 -> ch4_pool1
I0819 12:37:44.262019  4343 net.cpp:150] Setting up ch4_pool1
I0819 12:37:44.262025  4343 net.cpp:157] Top shape: 3 1 384 384 (442368)
I0819 12:37:44.262029  4343 net.cpp:165] Memory required for data: 1988834716
I0819 12:37:44.262032  4343 layer_factory.hpp:77] Creating layer ch4_pool1_ch4_pool1_0_split
I0819 12:37:44.262037  4343 net.cpp:100] Creating Layer ch4_pool1_ch4_pool1_0_split
I0819 12:37:44.262040  4343 net.cpp:434] ch4_pool1_ch4_pool1_0_split <- ch4_pool1
I0819 12:37:44.262045  4343 net.cpp:408] ch4_pool1_ch4_pool1_0_split -> ch4_pool1_ch4_pool1_0_split_0
I0819 12:37:44.262051  4343 net.cpp:408] ch4_pool1_ch4_pool1_0_split -> ch4_pool1_ch4_pool1_0_split_1
I0819 12:37:44.262076  4343 net.cpp:150] Setting up ch4_pool1_ch4_pool1_0_split
I0819 12:37:44.262082  4343 net.cpp:157] Top shape: 3 1 384 384 (442368)
I0819 12:37:44.262086  4343 net.cpp:157] Top shape: 3 1 384 384 (442368)
I0819 12:37:44.262089  4343 net.cpp:165] Memory required for data: 1992373660
I0819 12:37:44.262092  4343 layer_factory.hpp:77] Creating layer pool1_concat
I0819 12:37:44.262100  4343 net.cpp:100] Creating Layer pool1_concat
I0819 12:37:44.262104  4343 net.cpp:434] pool1_concat <- pool1
I0819 12:37:44.262107  4343 net.cpp:434] pool1_concat <- ch4_pool1_ch4_pool1_0_split_0
I0819 12:37:44.262112  4343 net.cpp:408] pool1_concat -> pool1_new
I0819 12:37:44.262130  4343 net.cpp:150] Setting up pool1_concat
I0819 12:37:44.262135  4343 net.cpp:157] Top shape: 3 65 384 384 (28753920)
I0819 12:37:44.262137  4343 net.cpp:165] Memory required for data: 2107389340
I0819 12:37:44.262140  4343 layer_factory.hpp:77] Creating layer conv2_1_new
I0819 12:37:44.262147  4343 net.cpp:100] Creating Layer conv2_1_new
I0819 12:37:44.262151  4343 net.cpp:434] conv2_1_new <- pool1_new
I0819 12:37:44.262156  4343 net.cpp:408] conv2_1_new -> conv2_1
I0819 12:37:44.264279  4343 net.cpp:150] Setting up conv2_1_new
I0819 12:37:44.264297  4343 net.cpp:157] Top shape: 3 128 384 384 (56623104)
I0819 12:37:44.264299  4343 net.cpp:165] Memory required for data: 2333881756
I0819 12:37:44.264308  4343 layer_factory.hpp:77] Creating layer relu2_1
I0819 12:37:44.264317  4343 net.cpp:100] Creating Layer relu2_1
I0819 12:37:44.264320  4343 net.cpp:434] relu2_1 <- conv2_1
I0819 12:37:44.264325  4343 net.cpp:395] relu2_1 -> conv2_1 (in-place)
I0819 12:37:44.264468  4343 net.cpp:150] Setting up relu2_1
I0819 12:37:44.264477  4343 net.cpp:157] Top shape: 3 128 384 384 (56623104)
I0819 12:37:44.264482  4343 net.cpp:165] Memory required for data: 2560374172
I0819 12:37:44.264484  4343 layer_factory.hpp:77] Creating layer conv2_2
I0819 12:37:44.264492  4343 net.cpp:100] Creating Layer conv2_2
I0819 12:37:44.264495  4343 net.cpp:434] conv2_2 <- conv2_1
I0819 12:37:44.264500  4343 net.cpp:408] conv2_2 -> conv2_2
I0819 12:37:44.265811  4343 net.cpp:150] Setting up conv2_2
I0819 12:37:44.265825  4343 net.cpp:157] Top shape: 3 128 384 384 (56623104)
I0819 12:37:44.265827  4343 net.cpp:165] Memory required for data: 2786866588
I0819 12:37:44.265833  4343 layer_factory.hpp:77] Creating layer relu2_2
I0819 12:37:44.265839  4343 net.cpp:100] Creating Layer relu2_2
I0819 12:37:44.265843  4343 net.cpp:434] relu2_2 <- conv2_2
I0819 12:37:44.265848  4343 net.cpp:395] relu2_2 -> conv2_2 (in-place)
I0819 12:37:44.265998  4343 net.cpp:150] Setting up relu2_2
I0819 12:37:44.266008  4343 net.cpp:157] Top shape: 3 128 384 384 (56623104)
I0819 12:37:44.266011  4343 net.cpp:165] Memory required for data: 3013359004
I0819 12:37:44.266014  4343 layer_factory.hpp:77] Creating layer pool2
I0819 12:37:44.266021  4343 net.cpp:100] Creating Layer pool2
I0819 12:37:44.266024  4343 net.cpp:434] pool2 <- conv2_2
I0819 12:37:44.266028  4343 net.cpp:408] pool2 -> pool2
I0819 12:37:44.266062  4343 net.cpp:150] Setting up pool2
I0819 12:37:44.266069  4343 net.cpp:157] Top shape: 3 128 192 192 (14155776)
I0819 12:37:44.266072  4343 net.cpp:165] Memory required for data: 3069982108
I0819 12:37:44.266075  4343 layer_factory.hpp:77] Creating layer ch4_pool2
I0819 12:37:44.266083  4343 net.cpp:100] Creating Layer ch4_pool2
I0819 12:37:44.266085  4343 net.cpp:434] ch4_pool2 <- ch4_pool1_ch4_pool1_0_split_1
I0819 12:37:44.266090  4343 net.cpp:408] ch4_pool2 -> ch4_pool2
I0819 12:37:44.266120  4343 net.cpp:150] Setting up ch4_pool2
I0819 12:37:44.266126  4343 net.cpp:157] Top shape: 3 1 192 192 (110592)
I0819 12:37:44.266129  4343 net.cpp:165] Memory required for data: 3070424476
I0819 12:37:44.266132  4343 layer_factory.hpp:77] Creating layer ch4_pool2_ch4_pool2_0_split
I0819 12:37:44.266137  4343 net.cpp:100] Creating Layer ch4_pool2_ch4_pool2_0_split
I0819 12:37:44.266141  4343 net.cpp:434] ch4_pool2_ch4_pool2_0_split <- ch4_pool2
I0819 12:37:44.266146  4343 net.cpp:408] ch4_pool2_ch4_pool2_0_split -> ch4_pool2_ch4_pool2_0_split_0
I0819 12:37:44.266152  4343 net.cpp:408] ch4_pool2_ch4_pool2_0_split -> ch4_pool2_ch4_pool2_0_split_1
I0819 12:37:44.266157  4343 net.cpp:408] ch4_pool2_ch4_pool2_0_split -> ch4_pool2_ch4_pool2_0_split_2
I0819 12:37:44.266196  4343 net.cpp:150] Setting up ch4_pool2_ch4_pool2_0_split
I0819 12:37:44.266201  4343 net.cpp:157] Top shape: 3 1 192 192 (110592)
I0819 12:37:44.266206  4343 net.cpp:157] Top shape: 3 1 192 192 (110592)
I0819 12:37:44.266209  4343 net.cpp:157] Top shape: 3 1 192 192 (110592)
I0819 12:37:44.266212  4343 net.cpp:165] Memory required for data: 3071751580
I0819 12:37:44.266216  4343 layer_factory.hpp:77] Creating layer pool2_concat
I0819 12:37:44.266222  4343 net.cpp:100] Creating Layer pool2_concat
I0819 12:37:44.266224  4343 net.cpp:434] pool2_concat <- pool2
I0819 12:37:44.266228  4343 net.cpp:434] pool2_concat <- ch4_pool2_ch4_pool2_0_split_0
I0819 12:37:44.266233  4343 net.cpp:408] pool2_concat -> pool2_new
I0819 12:37:44.266252  4343 net.cpp:150] Setting up pool2_concat
I0819 12:37:44.266258  4343 net.cpp:157] Top shape: 3 129 192 192 (14266368)
I0819 12:37:44.266260  4343 net.cpp:165] Memory required for data: 3128817052
I0819 12:37:44.266263  4343 layer_factory.hpp:77] Creating layer conv3_1_new
I0819 12:37:44.266270  4343 net.cpp:100] Creating Layer conv3_1_new
I0819 12:37:44.266273  4343 net.cpp:434] conv3_1_new <- pool2_new
I0819 12:37:44.266279  4343 net.cpp:408] conv3_1_new -> conv3_1
I0819 12:37:44.269989  4343 net.cpp:150] Setting up conv3_1_new
I0819 12:37:44.270021  4343 net.cpp:157] Top shape: 3 256 192 192 (28311552)
I0819 12:37:44.270025  4343 net.cpp:165] Memory required for data: 3242063260
I0819 12:37:44.270041  4343 layer_factory.hpp:77] Creating layer relu3_1
I0819 12:37:44.270056  4343 net.cpp:100] Creating Layer relu3_1
I0819 12:37:44.270063  4343 net.cpp:434] relu3_1 <- conv3_1
I0819 12:37:44.270067  4343 net.cpp:395] relu3_1 -> conv3_1 (in-place)
I0819 12:37:44.270494  4343 net.cpp:150] Setting up relu3_1
I0819 12:37:44.270507  4343 net.cpp:157] Top shape: 3 256 192 192 (28311552)
I0819 12:37:44.270510  4343 net.cpp:165] Memory required for data: 3355309468
I0819 12:37:44.270514  4343 layer_factory.hpp:77] Creating layer conv3_2
I0819 12:37:44.270525  4343 net.cpp:100] Creating Layer conv3_2
I0819 12:37:44.270529  4343 net.cpp:434] conv3_2 <- conv3_1
I0819 12:37:44.270534  4343 net.cpp:408] conv3_2 -> conv3_2
I0819 12:37:44.272758  4343 net.cpp:150] Setting up conv3_2
I0819 12:37:44.272776  4343 net.cpp:157] Top shape: 3 256 192 192 (28311552)
I0819 12:37:44.272780  4343 net.cpp:165] Memory required for data: 3468555676
I0819 12:37:44.272788  4343 layer_factory.hpp:77] Creating layer relu3_2
I0819 12:37:44.272797  4343 net.cpp:100] Creating Layer relu3_2
I0819 12:37:44.272802  4343 net.cpp:434] relu3_2 <- conv3_2
I0819 12:37:44.272806  4343 net.cpp:395] relu3_2 -> conv3_2 (in-place)
I0819 12:37:44.273224  4343 net.cpp:150] Setting up relu3_2
I0819 12:37:44.273236  4343 net.cpp:157] Top shape: 3 256 192 192 (28311552)
I0819 12:37:44.273241  4343 net.cpp:165] Memory required for data: 3581801884
I0819 12:37:44.273244  4343 layer_factory.hpp:77] Creating layer conv3_3
I0819 12:37:44.273253  4343 net.cpp:100] Creating Layer conv3_3
I0819 12:37:44.273257  4343 net.cpp:434] conv3_3 <- conv3_2
I0819 12:37:44.273263  4343 net.cpp:408] conv3_3 -> conv3_3
I0819 12:37:44.275776  4343 net.cpp:150] Setting up conv3_3
I0819 12:37:44.275794  4343 net.cpp:157] Top shape: 3 256 192 192 (28311552)
I0819 12:37:44.275797  4343 net.cpp:165] Memory required for data: 3695048092
I0819 12:37:44.275807  4343 layer_factory.hpp:77] Creating layer relu3_3
I0819 12:37:44.275815  4343 net.cpp:100] Creating Layer relu3_3
I0819 12:37:44.275820  4343 net.cpp:434] relu3_3 <- conv3_3
I0819 12:37:44.275827  4343 net.cpp:395] relu3_3 -> conv3_3 (in-place)
I0819 12:37:44.276021  4343 net.cpp:150] Setting up relu3_3
I0819 12:37:44.276031  4343 net.cpp:157] Top shape: 3 256 192 192 (28311552)
I0819 12:37:44.276036  4343 net.cpp:165] Memory required for data: 3808294300
I0819 12:37:44.276038  4343 layer_factory.hpp:77] Creating layer pool3
I0819 12:37:44.276046  4343 net.cpp:100] Creating Layer pool3
I0819 12:37:44.276051  4343 net.cpp:434] pool3 <- conv3_3
I0819 12:37:44.276057  4343 net.cpp:408] pool3 -> pool3
I0819 12:37:44.276099  4343 net.cpp:150] Setting up pool3
I0819 12:37:44.276108  4343 net.cpp:157] Top shape: 3 256 96 96 (7077888)
I0819 12:37:44.276110  4343 net.cpp:165] Memory required for data: 3836605852
I0819 12:37:44.276113  4343 layer_factory.hpp:77] Creating layer ch4_pool3
I0819 12:37:44.276124  4343 net.cpp:100] Creating Layer ch4_pool3
I0819 12:37:44.276129  4343 net.cpp:434] ch4_pool3 <- ch4_pool2_ch4_pool2_0_split_1
I0819 12:37:44.276135  4343 net.cpp:408] ch4_pool3 -> ch4_pool3
I0819 12:37:44.276172  4343 net.cpp:150] Setting up ch4_pool3
I0819 12:37:44.276180  4343 net.cpp:157] Top shape: 3 1 96 96 (27648)
I0819 12:37:44.276183  4343 net.cpp:165] Memory required for data: 3836716444
I0819 12:37:44.276187  4343 layer_factory.hpp:77] Creating layer ch4_pool3_ch4_pool3_0_split
I0819 12:37:44.276193  4343 net.cpp:100] Creating Layer ch4_pool3_ch4_pool3_0_split
I0819 12:37:44.276197  4343 net.cpp:434] ch4_pool3_ch4_pool3_0_split <- ch4_pool3
I0819 12:37:44.276203  4343 net.cpp:408] ch4_pool3_ch4_pool3_0_split -> ch4_pool3_ch4_pool3_0_split_0
I0819 12:37:44.276211  4343 net.cpp:408] ch4_pool3_ch4_pool3_0_split -> ch4_pool3_ch4_pool3_0_split_1
I0819 12:37:44.276248  4343 net.cpp:150] Setting up ch4_pool3_ch4_pool3_0_split
I0819 12:37:44.276255  4343 net.cpp:157] Top shape: 3 1 96 96 (27648)
I0819 12:37:44.276260  4343 net.cpp:157] Top shape: 3 1 96 96 (27648)
I0819 12:37:44.276264  4343 net.cpp:165] Memory required for data: 3836937628
I0819 12:37:44.276268  4343 layer_factory.hpp:77] Creating layer pool3_concat
I0819 12:37:44.276274  4343 net.cpp:100] Creating Layer pool3_concat
I0819 12:37:44.276278  4343 net.cpp:434] pool3_concat <- pool3
I0819 12:37:44.276283  4343 net.cpp:434] pool3_concat <- ch4_pool3_ch4_pool3_0_split_0
I0819 12:37:44.276289  4343 net.cpp:408] pool3_concat -> pool3_new
I0819 12:37:44.276314  4343 net.cpp:150] Setting up pool3_concat
I0819 12:37:44.276320  4343 net.cpp:157] Top shape: 3 257 96 96 (7105536)
I0819 12:37:44.276324  4343 net.cpp:165] Memory required for data: 3865359772
I0819 12:37:44.276327  4343 layer_factory.hpp:77] Creating layer conv4_1_new
I0819 12:37:44.276336  4343 net.cpp:100] Creating Layer conv4_1_new
I0819 12:37:44.276340  4343 net.cpp:434] conv4_1_new <- pool3_new
I0819 12:37:44.276347  4343 net.cpp:408] conv4_1_new -> conv4_1
I0819 12:37:44.281785  4343 net.cpp:150] Setting up conv4_1_new
I0819 12:37:44.281816  4343 net.cpp:157] Top shape: 3 512 96 96 (14155776)
I0819 12:37:44.281819  4343 net.cpp:165] Memory required for data: 3921982876
I0819 12:37:44.281827  4343 layer_factory.hpp:77] Creating layer relu4_1
I0819 12:37:44.281839  4343 net.cpp:100] Creating Layer relu4_1
I0819 12:37:44.281847  4343 net.cpp:434] relu4_1 <- conv4_1
I0819 12:37:44.281852  4343 net.cpp:395] relu4_1 -> conv4_1 (in-place)
I0819 12:37:44.282007  4343 net.cpp:150] Setting up relu4_1
I0819 12:37:44.282016  4343 net.cpp:157] Top shape: 3 512 96 96 (14155776)
I0819 12:37:44.282019  4343 net.cpp:165] Memory required for data: 3978605980
I0819 12:37:44.282022  4343 layer_factory.hpp:77] Creating layer conv4_2
I0819 12:37:44.282032  4343 net.cpp:100] Creating Layer conv4_2
I0819 12:37:44.282035  4343 net.cpp:434] conv4_2 <- conv4_1
I0819 12:37:44.282040  4343 net.cpp:408] conv4_2 -> conv4_2
I0819 12:37:44.287716  4343 net.cpp:150] Setting up conv4_2
I0819 12:37:44.287750  4343 net.cpp:157] Top shape: 3 512 96 96 (14155776)
I0819 12:37:44.287753  4343 net.cpp:165] Memory required for data: 4035229084
I0819 12:37:44.287768  4343 layer_factory.hpp:77] Creating layer relu4_2
I0819 12:37:44.287781  4343 net.cpp:100] Creating Layer relu4_2
I0819 12:37:44.287788  4343 net.cpp:434] relu4_2 <- conv4_2
I0819 12:37:44.287794  4343 net.cpp:395] relu4_2 -> conv4_2 (in-place)
I0819 12:37:44.287951  4343 net.cpp:150] Setting up relu4_2
I0819 12:37:44.287962  4343 net.cpp:157] Top shape: 3 512 96 96 (14155776)
I0819 12:37:44.287966  4343 net.cpp:165] Memory required for data: 4091852188
I0819 12:37:44.287968  4343 layer_factory.hpp:77] Creating layer conv4_3
I0819 12:37:44.287979  4343 net.cpp:100] Creating Layer conv4_3
I0819 12:37:44.287982  4343 net.cpp:434] conv4_3 <- conv4_2
I0819 12:37:44.287988  4343 net.cpp:408] conv4_3 -> conv4_3
I0819 12:37:44.293782  4343 net.cpp:150] Setting up conv4_3
I0819 12:37:44.293812  4343 net.cpp:157] Top shape: 3 512 96 96 (14155776)
I0819 12:37:44.293817  4343 net.cpp:165] Memory required for data: 4148475292
I0819 12:37:44.293824  4343 layer_factory.hpp:77] Creating layer relu4_3
I0819 12:37:44.293839  4343 net.cpp:100] Creating Layer relu4_3
I0819 12:37:44.293846  4343 net.cpp:434] relu4_3 <- conv4_3
I0819 12:37:44.293851  4343 net.cpp:395] relu4_3 -> conv4_3 (in-place)
I0819 12:37:44.294004  4343 net.cpp:150] Setting up relu4_3
I0819 12:37:44.294013  4343 net.cpp:157] Top shape: 3 512 96 96 (14155776)
I0819 12:37:44.294016  4343 net.cpp:165] Memory required for data: 4205098396
I0819 12:37:44.294020  4343 layer_factory.hpp:77] Creating layer conv4_3_relu4_3_0_split
I0819 12:37:44.294026  4343 net.cpp:100] Creating Layer conv4_3_relu4_3_0_split
I0819 12:37:44.294030  4343 net.cpp:434] conv4_3_relu4_3_0_split <- conv4_3
I0819 12:37:44.294035  4343 net.cpp:408] conv4_3_relu4_3_0_split -> conv4_3_relu4_3_0_split_0
I0819 12:37:44.294041  4343 net.cpp:408] conv4_3_relu4_3_0_split -> conv4_3_relu4_3_0_split_1
I0819 12:37:44.294076  4343 net.cpp:150] Setting up conv4_3_relu4_3_0_split
I0819 12:37:44.294082  4343 net.cpp:157] Top shape: 3 512 96 96 (14155776)
I0819 12:37:44.294086  4343 net.cpp:157] Top shape: 3 512 96 96 (14155776)
I0819 12:37:44.294090  4343 net.cpp:165] Memory required for data: 4318344604
I0819 12:37:44.294092  4343 layer_factory.hpp:77] Creating layer conv4_concat
I0819 12:37:44.294098  4343 net.cpp:100] Creating Layer conv4_concat
I0819 12:37:44.294101  4343 net.cpp:434] conv4_concat <- conv4_3_relu4_3_0_split_0
I0819 12:37:44.294106  4343 net.cpp:434] conv4_concat <- ch4_pool3_ch4_pool3_0_split_1
I0819 12:37:44.294111  4343 net.cpp:408] conv4_concat -> conv4_3_new
I0819 12:37:44.294132  4343 net.cpp:150] Setting up conv4_concat
I0819 12:37:44.294138  4343 net.cpp:157] Top shape: 3 513 96 96 (14183424)
I0819 12:37:44.294142  4343 net.cpp:165] Memory required for data: 4375078300
I0819 12:37:44.294144  4343 layer_factory.hpp:77] Creating layer conv4_3_new_conv4_concat_0_split
I0819 12:37:44.294149  4343 net.cpp:100] Creating Layer conv4_3_new_conv4_concat_0_split
I0819 12:37:44.294152  4343 net.cpp:434] conv4_3_new_conv4_concat_0_split <- conv4_3_new
I0819 12:37:44.294157  4343 net.cpp:408] conv4_3_new_conv4_concat_0_split -> conv4_3_new_conv4_concat_0_split_0
I0819 12:37:44.294164  4343 net.cpp:408] conv4_3_new_conv4_concat_0_split -> conv4_3_new_conv4_concat_0_split_1
I0819 12:37:44.294193  4343 net.cpp:150] Setting up conv4_3_new_conv4_concat_0_split
I0819 12:37:44.294199  4343 net.cpp:157] Top shape: 3 513 96 96 (14183424)
I0819 12:37:44.294203  4343 net.cpp:157] Top shape: 3 513 96 96 (14183424)
I0819 12:37:44.294206  4343 net.cpp:165] Memory required for data: 4488545692
I0819 12:37:44.294209  4343 layer_factory.hpp:77] Creating layer loss1_conv1
I0819 12:37:44.294220  4343 net.cpp:100] Creating Layer loss1_conv1
I0819 12:37:44.294224  4343 net.cpp:434] loss1_conv1 <- conv4_3_new_conv4_concat_0_split_0
I0819 12:37:44.294229  4343 net.cpp:408] loss1_conv1 -> loss1_conv1
I0819 12:37:44.355758  4343 net.cpp:150] Setting up loss1_conv1
I0819 12:37:44.355785  4343 net.cpp:157] Top shape: 3 512 96 96 (14155776)
I0819 12:37:44.355790  4343 net.cpp:165] Memory required for data: 4545168796
I0819 12:37:44.355798  4343 layer_factory.hpp:77] Creating layer loss_relu1
I0819 12:37:44.355808  4343 net.cpp:100] Creating Layer loss_relu1
I0819 12:37:44.355814  4343 net.cpp:434] loss_relu1 <- loss1_conv1
I0819 12:37:44.355821  4343 net.cpp:395] loss_relu1 -> loss1_conv1 (in-place)
I0819 12:37:44.356264  4343 net.cpp:150] Setting up loss_relu1
I0819 12:37:44.356277  4343 net.cpp:157] Top shape: 3 512 96 96 (14155776)
I0819 12:37:44.356281  4343 net.cpp:165] Memory required for data: 4601791900
I0819 12:37:44.356284  4343 layer_factory.hpp:77] Creating layer loss1_conv1_loss_relu1_0_split
I0819 12:37:44.356289  4343 net.cpp:100] Creating Layer loss1_conv1_loss_relu1_0_split
I0819 12:37:44.356293  4343 net.cpp:434] loss1_conv1_loss_relu1_0_split <- loss1_conv1
I0819 12:37:44.356299  4343 net.cpp:408] loss1_conv1_loss_relu1_0_split -> loss1_conv1_loss_relu1_0_split_0
I0819 12:37:44.356307  4343 net.cpp:408] loss1_conv1_loss_relu1_0_split -> loss1_conv1_loss_relu1_0_split_1
I0819 12:37:44.356345  4343 net.cpp:150] Setting up loss1_conv1_loss_relu1_0_split
I0819 12:37:44.356353  4343 net.cpp:157] Top shape: 3 512 96 96 (14155776)
I0819 12:37:44.356356  4343 net.cpp:157] Top shape: 3 512 96 96 (14155776)
I0819 12:37:44.356359  4343 net.cpp:165] Memory required for data: 4715038108
I0819 12:37:44.356362  4343 layer_factory.hpp:77] Creating layer LFCN_1_5x5
I0819 12:37:44.356374  4343 net.cpp:100] Creating Layer LFCN_1_5x5
I0819 12:37:44.356377  4343 net.cpp:434] LFCN_1_5x5 <- loss1_conv1_loss_relu1_0_split_0
I0819 12:37:44.356384  4343 net.cpp:408] LFCN_1_5x5 -> LFCN_1_5x5
I0819 12:37:44.359910  4343 net.cpp:150] Setting up LFCN_1_5x5
I0819 12:37:44.359920  4343 net.cpp:157] Top shape: 3 9 96 96 (248832)
I0819 12:37:44.359925  4343 net.cpp:165] Memory required for data: 4716033436
I0819 12:37:44.359930  4343 layer_factory.hpp:77] Creating layer LFCN_1_5x5_LFCN_1_5x5_0_split
I0819 12:37:44.359936  4343 net.cpp:100] Creating Layer LFCN_1_5x5_LFCN_1_5x5_0_split
I0819 12:37:44.359941  4343 net.cpp:434] LFCN_1_5x5_LFCN_1_5x5_0_split <- LFCN_1_5x5
I0819 12:37:44.359946  4343 net.cpp:408] LFCN_1_5x5_LFCN_1_5x5_0_split -> LFCN_1_5x5_LFCN_1_5x5_0_split_0
I0819 12:37:44.359951  4343 net.cpp:408] LFCN_1_5x5_LFCN_1_5x5_0_split -> LFCN_1_5x5_LFCN_1_5x5_0_split_1
I0819 12:37:44.359956  4343 net.cpp:408] LFCN_1_5x5_LFCN_1_5x5_0_split -> LFCN_1_5x5_LFCN_1_5x5_0_split_2
I0819 12:37:44.360000  4343 net.cpp:150] Setting up LFCN_1_5x5_LFCN_1_5x5_0_split
I0819 12:37:44.360005  4343 net.cpp:157] Top shape: 3 9 96 96 (248832)
I0819 12:37:44.360008  4343 net.cpp:157] Top shape: 3 9 96 96 (248832)
I0819 12:37:44.360013  4343 net.cpp:157] Top shape: 3 9 96 96 (248832)
I0819 12:37:44.360015  4343 net.cpp:165] Memory required for data: 4719019420
I0819 12:37:44.360018  4343 layer_factory.hpp:77] Creating layer detection_loss_1_5x5
I0819 12:37:44.360025  4343 net.cpp:100] Creating Layer detection_loss_1_5x5
I0819 12:37:44.360029  4343 net.cpp:434] detection_loss_1_5x5 <- LFCN_1_5x5_LFCN_1_5x5_0_split_0
I0819 12:37:44.360034  4343 net.cpp:434] detection_loss_1_5x5 <- label_1_5x5_data_1_split_0
I0819 12:37:44.360039  4343 net.cpp:408] detection_loss_1_5x5 -> loss_1_5x5
I0819 12:37:44.360054  4343 layer_factory.hpp:77] Creating layer detection_loss_1_5x5
I0819 12:37:44.361486  4343 net.cpp:150] Setting up detection_loss_1_5x5
I0819 12:37:44.361500  4343 net.cpp:157] Top shape: 1 1 1 2 (2)
I0819 12:37:44.361505  4343 net.cpp:160]     with loss weight 0.9
I0819 12:37:44.361522  4343 net.cpp:165] Memory required for data: 4719019428
I0819 12:37:44.361526  4343 layer_factory.hpp:77] Creating layer detection_accuracy_1_5x5
I0819 12:37:44.361534  4343 net.cpp:100] Creating Layer detection_accuracy_1_5x5
I0819 12:37:44.361538  4343 net.cpp:434] detection_accuracy_1_5x5 <- LFCN_1_5x5_LFCN_1_5x5_0_split_1
I0819 12:37:44.361543  4343 net.cpp:434] detection_accuracy_1_5x5 <- label_1_5x5_data_1_split_1
I0819 12:37:44.361548  4343 net.cpp:408] detection_accuracy_1_5x5 -> accuracy_1_5x5
I0819 12:37:44.361562  4343 net.cpp:408] detection_accuracy_1_5x5 -> boxiou_1_5x5
I0819 12:37:44.361599  4343 net.cpp:150] Setting up detection_accuracy_1_5x5
I0819 12:37:44.361608  4343 net.cpp:157] Top shape: 1 1 1 2 (2)
I0819 12:37:44.361613  4343 net.cpp:157] Top shape: 1 1 1 1 (1)
I0819 12:37:44.361615  4343 net.cpp:165] Memory required for data: 4719019440
I0819 12:37:44.361618  4343 layer_factory.hpp:77] Creating layer LFCN_1_7x7
I0819 12:37:44.361629  4343 net.cpp:100] Creating Layer LFCN_1_7x7
I0819 12:37:44.361632  4343 net.cpp:434] LFCN_1_7x7 <- loss1_conv1_loss_relu1_0_split_1
I0819 12:37:44.361639  4343 net.cpp:408] LFCN_1_7x7 -> LFCN_1_7x7
I0819 12:37:44.368101  4343 net.cpp:150] Setting up LFCN_1_7x7
I0819 12:37:44.368115  4343 net.cpp:157] Top shape: 3 9 96 96 (248832)
I0819 12:37:44.368119  4343 net.cpp:165] Memory required for data: 4720014768
I0819 12:37:44.368125  4343 layer_factory.hpp:77] Creating layer LFCN_1_7x7_LFCN_1_7x7_0_split
I0819 12:37:44.368130  4343 net.cpp:100] Creating Layer LFCN_1_7x7_LFCN_1_7x7_0_split
I0819 12:37:44.368134  4343 net.cpp:434] LFCN_1_7x7_LFCN_1_7x7_0_split <- LFCN_1_7x7
I0819 12:37:44.368139  4343 net.cpp:408] LFCN_1_7x7_LFCN_1_7x7_0_split -> LFCN_1_7x7_LFCN_1_7x7_0_split_0
I0819 12:37:44.368146  4343 net.cpp:408] LFCN_1_7x7_LFCN_1_7x7_0_split -> LFCN_1_7x7_LFCN_1_7x7_0_split_1
I0819 12:37:44.368152  4343 net.cpp:408] LFCN_1_7x7_LFCN_1_7x7_0_split -> LFCN_1_7x7_LFCN_1_7x7_0_split_2
I0819 12:37:44.368196  4343 net.cpp:150] Setting up LFCN_1_7x7_LFCN_1_7x7_0_split
I0819 12:37:44.368204  4343 net.cpp:157] Top shape: 3 9 96 96 (248832)
I0819 12:37:44.368208  4343 net.cpp:157] Top shape: 3 9 96 96 (248832)
I0819 12:37:44.368212  4343 net.cpp:157] Top shape: 3 9 96 96 (248832)
I0819 12:37:44.368216  4343 net.cpp:165] Memory required for data: 4723000752
I0819 12:37:44.368218  4343 layer_factory.hpp:77] Creating layer detection_loss_1_7x7
I0819 12:37:44.368223  4343 net.cpp:100] Creating Layer detection_loss_1_7x7
I0819 12:37:44.368227  4343 net.cpp:434] detection_loss_1_7x7 <- LFCN_1_7x7_LFCN_1_7x7_0_split_0
I0819 12:37:44.368232  4343 net.cpp:434] detection_loss_1_7x7 <- label_1_7x7_data_2_split_0
I0819 12:37:44.368237  4343 net.cpp:408] detection_loss_1_7x7 -> loss_1_7x7
I0819 12:37:44.368243  4343 layer_factory.hpp:77] Creating layer detection_loss_1_7x7
I0819 12:37:44.368607  4343 net.cpp:150] Setting up detection_loss_1_7x7
I0819 12:37:44.368616  4343 net.cpp:157] Top shape: 1 1 1 2 (2)
I0819 12:37:44.368619  4343 net.cpp:160]     with loss weight 0.9
I0819 12:37:44.368625  4343 net.cpp:165] Memory required for data: 4723000760
I0819 12:37:44.368629  4343 layer_factory.hpp:77] Creating layer detection_accuracy_1_7x7
I0819 12:37:44.368634  4343 net.cpp:100] Creating Layer detection_accuracy_1_7x7
I0819 12:37:44.368638  4343 net.cpp:434] detection_accuracy_1_7x7 <- LFCN_1_7x7_LFCN_1_7x7_0_split_1
I0819 12:37:44.368643  4343 net.cpp:434] detection_accuracy_1_7x7 <- label_1_7x7_data_2_split_1
I0819 12:37:44.368649  4343 net.cpp:408] detection_accuracy_1_7x7 -> accuracy_1_7x7
I0819 12:37:44.368655  4343 net.cpp:408] detection_accuracy_1_7x7 -> boxiou_1_7x7
I0819 12:37:44.368690  4343 net.cpp:150] Setting up detection_accuracy_1_7x7
I0819 12:37:44.368696  4343 net.cpp:157] Top shape: 1 1 1 2 (2)
I0819 12:37:44.368700  4343 net.cpp:157] Top shape: 1 1 1 1 (1)
I0819 12:37:44.368703  4343 net.cpp:165] Memory required for data: 4723000772
I0819 12:37:44.368706  4343 layer_factory.hpp:77] Creating layer pool4
I0819 12:37:44.368712  4343 net.cpp:100] Creating Layer pool4
I0819 12:37:44.368716  4343 net.cpp:434] pool4 <- conv4_3_new_conv4_concat_0_split_1
I0819 12:37:44.368722  4343 net.cpp:408] pool4 -> pool4
I0819 12:37:44.368754  4343 net.cpp:150] Setting up pool4
I0819 12:37:44.368762  4343 net.cpp:157] Top shape: 3 513 48 48 (3545856)
I0819 12:37:44.368765  4343 net.cpp:165] Memory required for data: 4737184196
I0819 12:37:44.368768  4343 layer_factory.hpp:77] Creating layer conv5_1_new
I0819 12:37:44.368774  4343 net.cpp:100] Creating Layer conv5_1_new
I0819 12:37:44.368777  4343 net.cpp:434] conv5_1_new <- pool4
I0819 12:37:44.368783  4343 net.cpp:408] conv5_1_new -> conv5_1
I0819 12:37:44.374788  4343 net.cpp:150] Setting up conv5_1_new
I0819 12:37:44.374816  4343 net.cpp:157] Top shape: 3 512 48 48 (3538944)
I0819 12:37:44.374819  4343 net.cpp:165] Memory required for data: 4751339972
I0819 12:37:44.374827  4343 layer_factory.hpp:77] Creating layer relu5_1
I0819 12:37:44.374838  4343 net.cpp:100] Creating Layer relu5_1
I0819 12:37:44.374843  4343 net.cpp:434] relu5_1 <- conv5_1
I0819 12:37:44.374847  4343 net.cpp:395] relu5_1 -> conv5_1 (in-place)
I0819 12:37:44.374994  4343 net.cpp:150] Setting up relu5_1
I0819 12:37:44.375001  4343 net.cpp:157] Top shape: 3 512 48 48 (3538944)
I0819 12:37:44.375005  4343 net.cpp:165] Memory required for data: 4765495748
I0819 12:37:44.375007  4343 layer_factory.hpp:77] Creating layer conv5_2
I0819 12:37:44.375013  4343 net.cpp:100] Creating Layer conv5_2
I0819 12:37:44.375016  4343 net.cpp:434] conv5_2 <- conv5_1
I0819 12:37:44.375023  4343 net.cpp:408] conv5_2 -> conv5_2
I0819 12:37:44.380862  4343 net.cpp:150] Setting up conv5_2
I0819 12:37:44.380892  4343 net.cpp:157] Top shape: 3 512 48 48 (3538944)
I0819 12:37:44.380895  4343 net.cpp:165] Memory required for data: 4779651524
I0819 12:37:44.380903  4343 layer_factory.hpp:77] Creating layer relu5_2
I0819 12:37:44.380914  4343 net.cpp:100] Creating Layer relu5_2
I0819 12:37:44.380920  4343 net.cpp:434] relu5_2 <- conv5_2
I0819 12:37:44.380928  4343 net.cpp:395] relu5_2 -> conv5_2 (in-place)
I0819 12:37:44.381086  4343 net.cpp:150] Setting up relu5_2
I0819 12:37:44.381095  4343 net.cpp:157] Top shape: 3 512 48 48 (3538944)
I0819 12:37:44.381098  4343 net.cpp:165] Memory required for data: 4793807300
I0819 12:37:44.381101  4343 layer_factory.hpp:77] Creating layer conv5_3
I0819 12:37:44.381111  4343 net.cpp:100] Creating Layer conv5_3
I0819 12:37:44.381114  4343 net.cpp:434] conv5_3 <- conv5_2
I0819 12:37:44.381119  4343 net.cpp:408] conv5_3 -> conv5_3
I0819 12:37:44.387219  4343 net.cpp:150] Setting up conv5_3
I0819 12:37:44.387249  4343 net.cpp:157] Top shape: 3 512 48 48 (3538944)
I0819 12:37:44.387253  4343 net.cpp:165] Memory required for data: 4807963076
I0819 12:37:44.387262  4343 layer_factory.hpp:77] Creating layer relu5_3
I0819 12:37:44.387274  4343 net.cpp:100] Creating Layer relu5_3
I0819 12:37:44.387280  4343 net.cpp:434] relu5_3 <- conv5_3
I0819 12:37:44.387285  4343 net.cpp:395] relu5_3 -> conv5_3 (in-place)
I0819 12:37:44.387459  4343 net.cpp:150] Setting up relu5_3
I0819 12:37:44.387466  4343 net.cpp:157] Top shape: 3 512 48 48 (3538944)
I0819 12:37:44.387470  4343 net.cpp:165] Memory required for data: 4822118852
I0819 12:37:44.387472  4343 layer_factory.hpp:77] Creating layer conv5_3_relu5_3_0_split
I0819 12:37:44.387480  4343 net.cpp:100] Creating Layer conv5_3_relu5_3_0_split
I0819 12:37:44.387482  4343 net.cpp:434] conv5_3_relu5_3_0_split <- conv5_3
I0819 12:37:44.387487  4343 net.cpp:408] conv5_3_relu5_3_0_split -> conv5_3_relu5_3_0_split_0
I0819 12:37:44.387495  4343 net.cpp:408] conv5_3_relu5_3_0_split -> conv5_3_relu5_3_0_split_1
I0819 12:37:44.387501  4343 net.cpp:408] conv5_3_relu5_3_0_split -> conv5_3_relu5_3_0_split_2
I0819 12:37:44.387547  4343 net.cpp:150] Setting up conv5_3_relu5_3_0_split
I0819 12:37:44.387552  4343 net.cpp:157] Top shape: 3 512 48 48 (3538944)
I0819 12:37:44.387557  4343 net.cpp:157] Top shape: 3 512 48 48 (3538944)
I0819 12:37:44.387559  4343 net.cpp:157] Top shape: 3 512 48 48 (3538944)
I0819 12:37:44.387562  4343 net.cpp:165] Memory required for data: 4864586180
I0819 12:37:44.387565  4343 layer_factory.hpp:77] Creating layer LFCN_2_5x5
I0819 12:37:44.387579  4343 net.cpp:100] Creating Layer LFCN_2_5x5
I0819 12:37:44.387583  4343 net.cpp:434] LFCN_2_5x5 <- conv5_3_relu5_3_0_split_0
I0819 12:37:44.387589  4343 net.cpp:408] LFCN_2_5x5 -> LFCN_2_5x5
I0819 12:37:44.392369  4343 net.cpp:150] Setting up LFCN_2_5x5
I0819 12:37:44.392385  4343 net.cpp:157] Top shape: 3 9 48 48 (62208)
I0819 12:37:44.392390  4343 net.cpp:165] Memory required for data: 4864835012
I0819 12:37:44.392405  4343 layer_factory.hpp:77] Creating layer LFCN_2_5x5_LFCN_2_5x5_0_split
I0819 12:37:44.392416  4343 net.cpp:100] Creating Layer LFCN_2_5x5_LFCN_2_5x5_0_split
I0819 12:37:44.392421  4343 net.cpp:434] LFCN_2_5x5_LFCN_2_5x5_0_split <- LFCN_2_5x5
I0819 12:37:44.392429  4343 net.cpp:408] LFCN_2_5x5_LFCN_2_5x5_0_split -> LFCN_2_5x5_LFCN_2_5x5_0_split_0
I0819 12:37:44.392437  4343 net.cpp:408] LFCN_2_5x5_LFCN_2_5x5_0_split -> LFCN_2_5x5_LFCN_2_5x5_0_split_1
I0819 12:37:44.392444  4343 net.cpp:408] LFCN_2_5x5_LFCN_2_5x5_0_split -> LFCN_2_5x5_LFCN_2_5x5_0_split_2
I0819 12:37:44.392499  4343 net.cpp:150] Setting up LFCN_2_5x5_LFCN_2_5x5_0_split
I0819 12:37:44.392508  4343 net.cpp:157] Top shape: 3 9 48 48 (62208)
I0819 12:37:44.392513  4343 net.cpp:157] Top shape: 3 9 48 48 (62208)
I0819 12:37:44.392516  4343 net.cpp:157] Top shape: 3 9 48 48 (62208)
I0819 12:37:44.392520  4343 net.cpp:165] Memory required for data: 4865581508
I0819 12:37:44.392524  4343 layer_factory.hpp:77] Creating layer detection_loss_2_5x5
I0819 12:37:44.392529  4343 net.cpp:100] Creating Layer detection_loss_2_5x5
I0819 12:37:44.392534  4343 net.cpp:434] detection_loss_2_5x5 <- LFCN_2_5x5_LFCN_2_5x5_0_split_0
I0819 12:37:44.392537  4343 net.cpp:434] detection_loss_2_5x5 <- label_2_5x5_data_3_split_0
I0819 12:37:44.392544  4343 net.cpp:408] detection_loss_2_5x5 -> loss_2_5x5
I0819 12:37:44.392554  4343 layer_factory.hpp:77] Creating layer detection_loss_2_5x5
I0819 12:37:44.393164  4343 net.cpp:150] Setting up detection_loss_2_5x5
I0819 12:37:44.393177  4343 net.cpp:157] Top shape: 1 1 1 2 (2)
I0819 12:37:44.393180  4343 net.cpp:160]     with loss weight 1
I0819 12:37:44.393191  4343 net.cpp:165] Memory required for data: 4865581516
I0819 12:37:44.393194  4343 layer_factory.hpp:77] Creating layer detection_accuracy_2_5x5
I0819 12:37:44.393203  4343 net.cpp:100] Creating Layer detection_accuracy_2_5x5
I0819 12:37:44.393206  4343 net.cpp:434] detection_accuracy_2_5x5 <- LFCN_2_5x5_LFCN_2_5x5_0_split_1
I0819 12:37:44.393211  4343 net.cpp:434] detection_accuracy_2_5x5 <- label_2_5x5_data_3_split_1
I0819 12:37:44.393216  4343 net.cpp:408] detection_accuracy_2_5x5 -> accuracy_2_5x5
I0819 12:37:44.393224  4343 net.cpp:408] detection_accuracy_2_5x5 -> boxiou_2_5x5
I0819 12:37:44.393260  4343 net.cpp:150] Setting up detection_accuracy_2_5x5
I0819 12:37:44.393266  4343 net.cpp:157] Top shape: 1 1 1 2 (2)
I0819 12:37:44.393270  4343 net.cpp:157] Top shape: 1 1 1 1 (1)
I0819 12:37:44.393273  4343 net.cpp:165] Memory required for data: 4865581528
I0819 12:37:44.393276  4343 layer_factory.hpp:77] Creating layer LFCN_2_7x7
I0819 12:37:44.393285  4343 net.cpp:100] Creating Layer LFCN_2_7x7
I0819 12:37:44.393290  4343 net.cpp:434] LFCN_2_7x7 <- conv5_3_relu5_3_0_split_1
I0819 12:37:44.393296  4343 net.cpp:408] LFCN_2_7x7 -> LFCN_2_7x7
I0819 12:37:44.399356  4343 net.cpp:150] Setting up LFCN_2_7x7
I0819 12:37:44.399366  4343 net.cpp:157] Top shape: 3 9 48 48 (62208)
I0819 12:37:44.399369  4343 net.cpp:165] Memory required for data: 4865830360
I0819 12:37:44.399374  4343 layer_factory.hpp:77] Creating layer LFCN_2_7x7_LFCN_2_7x7_0_split
I0819 12:37:44.399379  4343 net.cpp:100] Creating Layer LFCN_2_7x7_LFCN_2_7x7_0_split
I0819 12:37:44.399382  4343 net.cpp:434] LFCN_2_7x7_LFCN_2_7x7_0_split <- LFCN_2_7x7
I0819 12:37:44.399386  4343 net.cpp:408] LFCN_2_7x7_LFCN_2_7x7_0_split -> LFCN_2_7x7_LFCN_2_7x7_0_split_0
I0819 12:37:44.399392  4343 net.cpp:408] LFCN_2_7x7_LFCN_2_7x7_0_split -> LFCN_2_7x7_LFCN_2_7x7_0_split_1
I0819 12:37:44.399397  4343 net.cpp:408] LFCN_2_7x7_LFCN_2_7x7_0_split -> LFCN_2_7x7_LFCN_2_7x7_0_split_2
I0819 12:37:44.399441  4343 net.cpp:150] Setting up LFCN_2_7x7_LFCN_2_7x7_0_split
I0819 12:37:44.399447  4343 net.cpp:157] Top shape: 3 9 48 48 (62208)
I0819 12:37:44.399451  4343 net.cpp:157] Top shape: 3 9 48 48 (62208)
I0819 12:37:44.399453  4343 net.cpp:157] Top shape: 3 9 48 48 (62208)
I0819 12:37:44.399456  4343 net.cpp:165] Memory required for data: 4866576856
I0819 12:37:44.399459  4343 layer_factory.hpp:77] Creating layer detection_loss_2_7x7
I0819 12:37:44.399463  4343 net.cpp:100] Creating Layer detection_loss_2_7x7
I0819 12:37:44.399466  4343 net.cpp:434] detection_loss_2_7x7 <- LFCN_2_7x7_LFCN_2_7x7_0_split_0
I0819 12:37:44.399471  4343 net.cpp:434] detection_loss_2_7x7 <- label_2_7x7_data_4_split_0
I0819 12:37:44.399475  4343 net.cpp:408] detection_loss_2_7x7 -> loss_2_7x7
I0819 12:37:44.399482  4343 layer_factory.hpp:77] Creating layer detection_loss_2_7x7
I0819 12:37:44.400089  4343 net.cpp:150] Setting up detection_loss_2_7x7
I0819 12:37:44.400100  4343 net.cpp:157] Top shape: 1 1 1 2 (2)
I0819 12:37:44.400104  4343 net.cpp:160]     with loss weight 1
I0819 12:37:44.400110  4343 net.cpp:165] Memory required for data: 4866576864
I0819 12:37:44.400113  4343 layer_factory.hpp:77] Creating layer detection_accuracy_2_7x7
I0819 12:37:44.400120  4343 net.cpp:100] Creating Layer detection_accuracy_2_7x7
I0819 12:37:44.400123  4343 net.cpp:434] detection_accuracy_2_7x7 <- LFCN_2_7x7_LFCN_2_7x7_0_split_1
I0819 12:37:44.400128  4343 net.cpp:434] detection_accuracy_2_7x7 <- label_2_7x7_data_4_split_1
I0819 12:37:44.400133  4343 net.cpp:408] detection_accuracy_2_7x7 -> accuracy_2_7x7
I0819 12:37:44.400140  4343 net.cpp:408] detection_accuracy_2_7x7 -> boxiou_2_7x7
I0819 12:37:44.400176  4343 net.cpp:150] Setting up detection_accuracy_2_7x7
I0819 12:37:44.400182  4343 net.cpp:157] Top shape: 1 1 1 2 (2)
I0819 12:37:44.400187  4343 net.cpp:157] Top shape: 1 1 1 1 (1)
I0819 12:37:44.400189  4343 net.cpp:165] Memory required for data: 4866576876
I0819 12:37:44.400192  4343 layer_factory.hpp:77] Creating layer pool5
I0819 12:37:44.400198  4343 net.cpp:100] Creating Layer pool5
I0819 12:37:44.400202  4343 net.cpp:434] pool5 <- conv5_3_relu5_3_0_split_2
I0819 12:37:44.400208  4343 net.cpp:408] pool5 -> pool5
I0819 12:37:44.400240  4343 net.cpp:150] Setting up pool5
I0819 12:37:44.400247  4343 net.cpp:157] Top shape: 3 512 24 24 (884736)
I0819 12:37:44.400250  4343 net.cpp:165] Memory required for data: 4870115820
I0819 12:37:44.400254  4343 layer_factory.hpp:77] Creating layer conv6_1
I0819 12:37:44.400262  4343 net.cpp:100] Creating Layer conv6_1
I0819 12:37:44.400266  4343 net.cpp:434] conv6_1 <- pool5
I0819 12:37:44.400271  4343 net.cpp:408] conv6_1 -> conv6_1
I0819 12:37:44.460155  4343 net.cpp:150] Setting up conv6_1
I0819 12:37:44.460182  4343 net.cpp:157] Top shape: 3 512 24 24 (884736)
I0819 12:37:44.460186  4343 net.cpp:165] Memory required for data: 4873654764
I0819 12:37:44.460194  4343 layer_factory.hpp:77] Creating layer relu6_1
I0819 12:37:44.460206  4343 net.cpp:100] Creating Layer relu6_1
I0819 12:37:44.460211  4343 net.cpp:434] relu6_1 <- conv6_1
I0819 12:37:44.460217  4343 net.cpp:395] relu6_1 -> conv6_1 (in-place)
I0819 12:37:44.460376  4343 net.cpp:150] Setting up relu6_1
I0819 12:37:44.460386  4343 net.cpp:157] Top shape: 3 512 24 24 (884736)
I0819 12:37:44.460388  4343 net.cpp:165] Memory required for data: 4877193708
I0819 12:37:44.460392  4343 layer_factory.hpp:77] Creating layer conv6_1_relu6_1_0_split
I0819 12:37:44.460398  4343 net.cpp:100] Creating Layer conv6_1_relu6_1_0_split
I0819 12:37:44.460402  4343 net.cpp:434] conv6_1_relu6_1_0_split <- conv6_1
I0819 12:37:44.460407  4343 net.cpp:408] conv6_1_relu6_1_0_split -> conv6_1_relu6_1_0_split_0
I0819 12:37:44.460413  4343 net.cpp:408] conv6_1_relu6_1_0_split -> conv6_1_relu6_1_0_split_1
I0819 12:37:44.460419  4343 net.cpp:408] conv6_1_relu6_1_0_split -> conv6_1_relu6_1_0_split_2
I0819 12:37:44.460466  4343 net.cpp:150] Setting up conv6_1_relu6_1_0_split
I0819 12:37:44.460472  4343 net.cpp:157] Top shape: 3 512 24 24 (884736)
I0819 12:37:44.460476  4343 net.cpp:157] Top shape: 3 512 24 24 (884736)
I0819 12:37:44.460480  4343 net.cpp:157] Top shape: 3 512 24 24 (884736)
I0819 12:37:44.460484  4343 net.cpp:165] Memory required for data: 4887810540
I0819 12:37:44.460486  4343 layer_factory.hpp:77] Creating layer LFCN_3_5x5
I0819 12:37:44.460496  4343 net.cpp:100] Creating Layer LFCN_3_5x5
I0819 12:37:44.460500  4343 net.cpp:434] LFCN_3_5x5 <- conv6_1_relu6_1_0_split_0
I0819 12:37:44.460506  4343 net.cpp:408] LFCN_3_5x5 -> LFCN_3_5x5
I0819 12:37:44.464505  4343 net.cpp:150] Setting up LFCN_3_5x5
I0819 12:37:44.464519  4343 net.cpp:157] Top shape: 3 9 24 24 (15552)
I0819 12:37:44.464521  4343 net.cpp:165] Memory required for data: 4887872748
I0819 12:37:44.464529  4343 layer_factory.hpp:77] Creating layer LFCN_3_5x5_LFCN_3_5x5_0_split
I0819 12:37:44.464534  4343 net.cpp:100] Creating Layer LFCN_3_5x5_LFCN_3_5x5_0_split
I0819 12:37:44.464538  4343 net.cpp:434] LFCN_3_5x5_LFCN_3_5x5_0_split <- LFCN_3_5x5
I0819 12:37:44.464543  4343 net.cpp:408] LFCN_3_5x5_LFCN_3_5x5_0_split -> LFCN_3_5x5_LFCN_3_5x5_0_split_0
I0819 12:37:44.464550  4343 net.cpp:408] LFCN_3_5x5_LFCN_3_5x5_0_split -> LFCN_3_5x5_LFCN_3_5x5_0_split_1
I0819 12:37:44.464555  4343 net.cpp:408] LFCN_3_5x5_LFCN_3_5x5_0_split -> LFCN_3_5x5_LFCN_3_5x5_0_split_2
I0819 12:37:44.464602  4343 net.cpp:150] Setting up LFCN_3_5x5_LFCN_3_5x5_0_split
I0819 12:37:44.464609  4343 net.cpp:157] Top shape: 3 9 24 24 (15552)
I0819 12:37:44.464613  4343 net.cpp:157] Top shape: 3 9 24 24 (15552)
I0819 12:37:44.464617  4343 net.cpp:157] Top shape: 3 9 24 24 (15552)
I0819 12:37:44.464620  4343 net.cpp:165] Memory required for data: 4888059372
I0819 12:37:44.464623  4343 layer_factory.hpp:77] Creating layer detection_loss_3_5x5
I0819 12:37:44.464630  4343 net.cpp:100] Creating Layer detection_loss_3_5x5
I0819 12:37:44.464634  4343 net.cpp:434] detection_loss_3_5x5 <- LFCN_3_5x5_LFCN_3_5x5_0_split_0
I0819 12:37:44.464639  4343 net.cpp:434] detection_loss_3_5x5 <- label_3_5x5_data_5_split_0
I0819 12:37:44.464644  4343 net.cpp:408] detection_loss_3_5x5 -> loss_3_5x5
I0819 12:37:44.464653  4343 layer_factory.hpp:77] Creating layer detection_loss_3_5x5
I0819 12:37:44.464972  4343 net.cpp:150] Setting up detection_loss_3_5x5
I0819 12:37:44.464982  4343 net.cpp:157] Top shape: 1 1 1 2 (2)
I0819 12:37:44.464987  4343 net.cpp:160]     with loss weight 1
I0819 12:37:44.464996  4343 net.cpp:165] Memory required for data: 4888059380
I0819 12:37:44.465000  4343 layer_factory.hpp:77] Creating layer detection_accuracy_3_5x5
I0819 12:37:44.465006  4343 net.cpp:100] Creating Layer detection_accuracy_3_5x5
I0819 12:37:44.465010  4343 net.cpp:434] detection_accuracy_3_5x5 <- LFCN_3_5x5_LFCN_3_5x5_0_split_1
I0819 12:37:44.465014  4343 net.cpp:434] detection_accuracy_3_5x5 <- label_3_5x5_data_5_split_1
I0819 12:37:44.465019  4343 net.cpp:408] detection_accuracy_3_5x5 -> accuracy_3_5x5
I0819 12:37:44.465028  4343 net.cpp:408] detection_accuracy_3_5x5 -> boxiou_3_5x5
I0819 12:37:44.465061  4343 net.cpp:150] Setting up detection_accuracy_3_5x5
I0819 12:37:44.465067  4343 net.cpp:157] Top shape: 1 1 1 2 (2)
I0819 12:37:44.465071  4343 net.cpp:157] Top shape: 1 1 1 1 (1)
I0819 12:37:44.465075  4343 net.cpp:165] Memory required for data: 4888059392
I0819 12:37:44.465077  4343 layer_factory.hpp:77] Creating layer LFCN_3_7x7
I0819 12:37:44.465086  4343 net.cpp:100] Creating Layer LFCN_3_7x7
I0819 12:37:44.465090  4343 net.cpp:434] LFCN_3_7x7 <- conv6_1_relu6_1_0_split_1
I0819 12:37:44.465095  4343 net.cpp:408] LFCN_3_7x7 -> LFCN_3_7x7
I0819 12:37:44.472383  4343 net.cpp:150] Setting up LFCN_3_7x7
I0819 12:37:44.472403  4343 net.cpp:157] Top shape: 3 9 24 24 (15552)
I0819 12:37:44.472406  4343 net.cpp:165] Memory required for data: 4888121600
I0819 12:37:44.472414  4343 layer_factory.hpp:77] Creating layer LFCN_3_7x7_LFCN_3_7x7_0_split
I0819 12:37:44.472422  4343 net.cpp:100] Creating Layer LFCN_3_7x7_LFCN_3_7x7_0_split
I0819 12:37:44.472427  4343 net.cpp:434] LFCN_3_7x7_LFCN_3_7x7_0_split <- LFCN_3_7x7
I0819 12:37:44.472435  4343 net.cpp:408] LFCN_3_7x7_LFCN_3_7x7_0_split -> LFCN_3_7x7_LFCN_3_7x7_0_split_0
I0819 12:37:44.472445  4343 net.cpp:408] LFCN_3_7x7_LFCN_3_7x7_0_split -> LFCN_3_7x7_LFCN_3_7x7_0_split_1
I0819 12:37:44.472450  4343 net.cpp:408] LFCN_3_7x7_LFCN_3_7x7_0_split -> LFCN_3_7x7_LFCN_3_7x7_0_split_2
I0819 12:37:44.472509  4343 net.cpp:150] Setting up LFCN_3_7x7_LFCN_3_7x7_0_split
I0819 12:37:44.472517  4343 net.cpp:157] Top shape: 3 9 24 24 (15552)
I0819 12:37:44.472522  4343 net.cpp:157] Top shape: 3 9 24 24 (15552)
I0819 12:37:44.472527  4343 net.cpp:157] Top shape: 3 9 24 24 (15552)
I0819 12:37:44.472530  4343 net.cpp:165] Memory required for data: 4888308224
I0819 12:37:44.472534  4343 layer_factory.hpp:77] Creating layer detection_loss_3_7x7
I0819 12:37:44.472542  4343 net.cpp:100] Creating Layer detection_loss_3_7x7
I0819 12:37:44.472546  4343 net.cpp:434] detection_loss_3_7x7 <- LFCN_3_7x7_LFCN_3_7x7_0_split_0
I0819 12:37:44.472551  4343 net.cpp:434] detection_loss_3_7x7 <- label_3_7x7_data_6_split_0
I0819 12:37:44.472559  4343 net.cpp:408] detection_loss_3_7x7 -> loss_3_7x7
I0819 12:37:44.472568  4343 layer_factory.hpp:77] Creating layer detection_loss_3_7x7
I0819 12:37:44.472903  4343 net.cpp:150] Setting up detection_loss_3_7x7
I0819 12:37:44.472911  4343 net.cpp:157] Top shape: 1 1 1 2 (2)
I0819 12:37:44.472915  4343 net.cpp:160]     with loss weight 1
I0819 12:37:44.472923  4343 net.cpp:165] Memory required for data: 4888308232
I0819 12:37:44.472926  4343 layer_factory.hpp:77] Creating layer detection_accuracy_3_7x7
I0819 12:37:44.472932  4343 net.cpp:100] Creating Layer detection_accuracy_3_7x7
I0819 12:37:44.472936  4343 net.cpp:434] detection_accuracy_3_7x7 <- LFCN_3_7x7_LFCN_3_7x7_0_split_1
I0819 12:37:44.472940  4343 net.cpp:434] detection_accuracy_3_7x7 <- label_3_7x7_data_6_split_1
I0819 12:37:44.472945  4343 net.cpp:408] detection_accuracy_3_7x7 -> accuracy_3_7x7
I0819 12:37:44.472952  4343 net.cpp:408] detection_accuracy_3_7x7 -> boxiou_3_7x7
I0819 12:37:44.472987  4343 net.cpp:150] Setting up detection_accuracy_3_7x7
I0819 12:37:44.472995  4343 net.cpp:157] Top shape: 1 1 1 2 (2)
I0819 12:37:44.472998  4343 net.cpp:157] Top shape: 1 1 1 1 (1)
I0819 12:37:44.473001  4343 net.cpp:165] Memory required for data: 4888308244
I0819 12:37:44.473004  4343 layer_factory.hpp:77] Creating layer pool6
I0819 12:37:44.473011  4343 net.cpp:100] Creating Layer pool6
I0819 12:37:44.473013  4343 net.cpp:434] pool6 <- conv6_1_relu6_1_0_split_2
I0819 12:37:44.473019  4343 net.cpp:408] pool6 -> pool6
I0819 12:37:44.473054  4343 net.cpp:150] Setting up pool6
I0819 12:37:44.473060  4343 net.cpp:157] Top shape: 3 512 12 12 (221184)
I0819 12:37:44.473063  4343 net.cpp:165] Memory required for data: 4889192980
I0819 12:37:44.473067  4343 layer_factory.hpp:77] Creating layer LFCN_4_5x5
I0819 12:37:44.473075  4343 net.cpp:100] Creating Layer LFCN_4_5x5
I0819 12:37:44.473079  4343 net.cpp:434] LFCN_4_5x5 <- pool6
I0819 12:37:44.473085  4343 net.cpp:408] LFCN_4_5x5 -> LFCN_4_5x5
I0819 12:37:44.476730  4343 net.cpp:150] Setting up LFCN_4_5x5
I0819 12:37:44.476742  4343 net.cpp:157] Top shape: 3 9 12 12 (3888)
I0819 12:37:44.476744  4343 net.cpp:165] Memory required for data: 4889208532
I0819 12:37:44.476749  4343 layer_factory.hpp:77] Creating layer LFCN_4_5x5_LFCN_4_5x5_0_split
I0819 12:37:44.476753  4343 net.cpp:100] Creating Layer LFCN_4_5x5_LFCN_4_5x5_0_split
I0819 12:37:44.476758  4343 net.cpp:434] LFCN_4_5x5_LFCN_4_5x5_0_split <- LFCN_4_5x5
I0819 12:37:44.476761  4343 net.cpp:408] LFCN_4_5x5_LFCN_4_5x5_0_split -> LFCN_4_5x5_LFCN_4_5x5_0_split_0
I0819 12:37:44.476768  4343 net.cpp:408] LFCN_4_5x5_LFCN_4_5x5_0_split -> LFCN_4_5x5_LFCN_4_5x5_0_split_1
I0819 12:37:44.476773  4343 net.cpp:408] LFCN_4_5x5_LFCN_4_5x5_0_split -> LFCN_4_5x5_LFCN_4_5x5_0_split_2
I0819 12:37:44.476811  4343 net.cpp:150] Setting up LFCN_4_5x5_LFCN_4_5x5_0_split
I0819 12:37:44.476817  4343 net.cpp:157] Top shape: 3 9 12 12 (3888)
I0819 12:37:44.476821  4343 net.cpp:157] Top shape: 3 9 12 12 (3888)
I0819 12:37:44.476825  4343 net.cpp:157] Top shape: 3 9 12 12 (3888)
I0819 12:37:44.476828  4343 net.cpp:165] Memory required for data: 4889255188
I0819 12:37:44.476831  4343 layer_factory.hpp:77] Creating layer detection_loss_4_5x5
I0819 12:37:44.476836  4343 net.cpp:100] Creating Layer detection_loss_4_5x5
I0819 12:37:44.476840  4343 net.cpp:434] detection_loss_4_5x5 <- LFCN_4_5x5_LFCN_4_5x5_0_split_0
I0819 12:37:44.476845  4343 net.cpp:434] detection_loss_4_5x5 <- label_4_5x5_data_7_split_0
I0819 12:37:44.476850  4343 net.cpp:408] detection_loss_4_5x5 -> loss_4_5x5
I0819 12:37:44.476856  4343 layer_factory.hpp:77] Creating layer detection_loss_4_5x5
I0819 12:37:44.477159  4343 net.cpp:150] Setting up detection_loss_4_5x5
I0819 12:37:44.477169  4343 net.cpp:157] Top shape: 1 1 1 2 (2)
I0819 12:37:44.477171  4343 net.cpp:160]     with loss weight 1
I0819 12:37:44.477176  4343 net.cpp:165] Memory required for data: 4889255196
I0819 12:37:44.477180  4343 layer_factory.hpp:77] Creating layer detection_accuracy_4_5x5
I0819 12:37:44.477187  4343 net.cpp:100] Creating Layer detection_accuracy_4_5x5
I0819 12:37:44.477190  4343 net.cpp:434] detection_accuracy_4_5x5 <- LFCN_4_5x5_LFCN_4_5x5_0_split_1
I0819 12:37:44.477195  4343 net.cpp:434] detection_accuracy_4_5x5 <- label_4_5x5_data_7_split_1
I0819 12:37:44.477200  4343 net.cpp:408] detection_accuracy_4_5x5 -> accuracy_4_5x5
I0819 12:37:44.477206  4343 net.cpp:408] detection_accuracy_4_5x5 -> boxiou_4_5x5
I0819 12:37:44.477241  4343 net.cpp:150] Setting up detection_accuracy_4_5x5
I0819 12:37:44.477246  4343 net.cpp:157] Top shape: 1 1 1 2 (2)
I0819 12:37:44.477250  4343 net.cpp:157] Top shape: 1 1 1 1 (1)
I0819 12:37:44.477253  4343 net.cpp:165] Memory required for data: 4889255208
I0819 12:37:44.477257  4343 layer_factory.hpp:77] Creating layer proposals
I0819 12:37:44.477269  4343 net.cpp:100] Creating Layer proposals
I0819 12:37:44.477272  4343 net.cpp:434] proposals <- LFCN_1_5x5_LFCN_1_5x5_0_split_2
I0819 12:37:44.477277  4343 net.cpp:434] proposals <- LFCN_1_7x7_LFCN_1_7x7_0_split_2
I0819 12:37:44.477283  4343 net.cpp:434] proposals <- LFCN_2_5x5_LFCN_2_5x5_0_split_2
I0819 12:37:44.477285  4343 net.cpp:434] proposals <- LFCN_2_7x7_LFCN_2_7x7_0_split_2
I0819 12:37:44.477289  4343 net.cpp:434] proposals <- LFCN_3_5x5_LFCN_3_5x5_0_split_2
I0819 12:37:44.477293  4343 net.cpp:434] proposals <- LFCN_3_7x7_LFCN_3_7x7_0_split_2
I0819 12:37:44.477298  4343 net.cpp:434] proposals <- LFCN_4_5x5_LFCN_4_5x5_0_split_2
I0819 12:37:44.477301  4343 net.cpp:408] proposals -> proposals
I0819 12:37:44.477329  4343 net.cpp:150] Setting up proposals
I0819 12:37:44.477335  4343 net.cpp:157] Top shape: 1 5 1 1 (5)
I0819 12:37:44.477339  4343 net.cpp:165] Memory required for data: 4889255228
I0819 12:37:44.477341  4343 layer_factory.hpp:77] Creating layer proposal_info
I0819 12:37:44.477350  4343 net.cpp:100] Creating Layer proposal_info
I0819 12:37:44.477356  4343 net.cpp:434] proposal_info <- proposals
I0819 12:37:44.477360  4343 net.cpp:434] proposal_info <- gt_boxes
I0819 12:37:44.477365  4343 net.cpp:408] proposal_info -> rois
I0819 12:37:44.477375  4343 net.cpp:408] proposal_info -> proposal_labels
I0819 12:37:44.477381  4343 net.cpp:408] proposal_info -> proposal_targets
I0819 12:37:44.477387  4343 net.cpp:408] proposal_info -> box_inside_weights
I0819 12:37:44.477394  4343 net.cpp:408] proposal_info -> box_outside_weights
I0819 12:37:44.477399  4343 net.cpp:408] proposal_info -> match_gt_boxes
I0819 12:37:44.477481  4343 net.cpp:150] Setting up proposal_info
I0819 12:37:44.477488  4343 net.cpp:157] Top shape: 256 5 1 1 (1280)
I0819 12:37:44.477493  4343 net.cpp:157] Top shape: 256 1 1 1 (256)
I0819 12:37:44.477496  4343 net.cpp:157] Top shape: 256 20 1 1 (5120)
I0819 12:37:44.477500  4343 net.cpp:157] Top shape: 256 20 1 1 (5120)
I0819 12:37:44.477504  4343 net.cpp:157] Top shape: 256 20 1 1 (5120)
I0819 12:37:44.477509  4343 net.cpp:157] Top shape: 256 6 1 1 (1536)
I0819 12:37:44.477511  4343 net.cpp:165] Memory required for data: 4889328956
I0819 12:37:44.477514  4343 layer_factory.hpp:77] Creating layer rois_proposal_info_0_split
I0819 12:37:44.477519  4343 net.cpp:100] Creating Layer rois_proposal_info_0_split
I0819 12:37:44.477521  4343 net.cpp:434] rois_proposal_info_0_split <- rois
I0819 12:37:44.477526  4343 net.cpp:408] rois_proposal_info_0_split -> rois_proposal_info_0_split_0
I0819 12:37:44.477540  4343 net.cpp:408] rois_proposal_info_0_split -> rois_proposal_info_0_split_1
I0819 12:37:44.477546  4343 net.cpp:408] rois_proposal_info_0_split -> rois_proposal_info_0_split_2
I0819 12:37:44.477588  4343 net.cpp:150] Setting up rois_proposal_info_0_split
I0819 12:37:44.477596  4343 net.cpp:157] Top shape: 256 5 1 1 (1280)
I0819 12:37:44.477599  4343 net.cpp:157] Top shape: 256 5 1 1 (1280)
I0819 12:37:44.477603  4343 net.cpp:157] Top shape: 256 5 1 1 (1280)
I0819 12:37:44.477607  4343 net.cpp:165] Memory required for data: 4889344316
I0819 12:37:44.477609  4343 layer_factory.hpp:77] Creating layer proposal_labels_proposal_info_1_split
I0819 12:37:44.477614  4343 net.cpp:100] Creating Layer proposal_labels_proposal_info_1_split
I0819 12:37:44.477617  4343 net.cpp:434] proposal_labels_proposal_info_1_split <- proposal_labels
I0819 12:37:44.477622  4343 net.cpp:408] proposal_labels_proposal_info_1_split -> proposal_labels_proposal_info_1_split_0
I0819 12:37:44.477627  4343 net.cpp:408] proposal_labels_proposal_info_1_split -> proposal_labels_proposal_info_1_split_1
I0819 12:37:44.477658  4343 net.cpp:150] Setting up proposal_labels_proposal_info_1_split
I0819 12:37:44.477663  4343 net.cpp:157] Top shape: 256 1 1 1 (256)
I0819 12:37:44.477669  4343 net.cpp:157] Top shape: 256 1 1 1 (256)
I0819 12:37:44.477670  4343 net.cpp:165] Memory required for data: 4889346364
I0819 12:37:44.477674  4343 layer_factory.hpp:77] Creating layer conv4_3_2x
I0819 12:37:44.477679  4343 net.cpp:100] Creating Layer conv4_3_2x
I0819 12:37:44.477684  4343 net.cpp:434] conv4_3_2x <- conv4_3_relu4_3_0_split_1
I0819 12:37:44.477689  4343 net.cpp:408] conv4_3_2x -> conv4_3_2x
I0819 12:37:44.478052  4343 net.cpp:150] Setting up conv4_3_2x
I0819 12:37:44.478060  4343 net.cpp:157] Top shape: 3 512 192 192 (56623104)
I0819 12:37:44.478063  4343 net.cpp:165] Memory required for data: 5115838780
I0819 12:37:44.478068  4343 layer_factory.hpp:77] Creating layer conv4_3_2x_new
I0819 12:37:44.478072  4343 net.cpp:100] Creating Layer conv4_3_2x_new
I0819 12:37:44.478076  4343 net.cpp:434] conv4_3_2x_new <- conv4_3_2x
I0819 12:37:44.478080  4343 net.cpp:434] conv4_3_2x_new <- ch4_pool2_ch4_pool2_0_split_2
I0819 12:37:44.478085  4343 net.cpp:408] conv4_3_2x_new -> conv4_3_2x_new
I0819 12:37:44.478106  4343 net.cpp:150] Setting up conv4_3_2x_new
I0819 12:37:44.478111  4343 net.cpp:157] Top shape: 3 513 192 192 (56733696)
I0819 12:37:44.478114  4343 net.cpp:165] Memory required for data: 5342773564
I0819 12:37:44.478117  4343 layer_factory.hpp:77] Creating layer conv4_3_2x_new_conv4_3_2x_new_0_split
I0819 12:37:44.478122  4343 net.cpp:100] Creating Layer conv4_3_2x_new_conv4_3_2x_new_0_split
I0819 12:37:44.478127  4343 net.cpp:434] conv4_3_2x_new_conv4_3_2x_new_0_split <- conv4_3_2x_new
I0819 12:37:44.478130  4343 net.cpp:408] conv4_3_2x_new_conv4_3_2x_new_0_split -> conv4_3_2x_new_conv4_3_2x_new_0_split_0
I0819 12:37:44.478135  4343 net.cpp:408] conv4_3_2x_new_conv4_3_2x_new_0_split -> conv4_3_2x_new_conv4_3_2x_new_0_split_1
I0819 12:37:44.478165  4343 net.cpp:150] Setting up conv4_3_2x_new_conv4_3_2x_new_0_split
I0819 12:37:44.478171  4343 net.cpp:157] Top shape: 3 513 192 192 (56733696)
I0819 12:37:44.478176  4343 net.cpp:157] Top shape: 3 513 192 192 (56733696)
I0819 12:37:44.478179  4343 net.cpp:165] Memory required for data: 5796643132
I0819 12:37:44.478183  4343 layer_factory.hpp:77] Creating layer roi_pool_org
I0819 12:37:44.478188  4343 net.cpp:100] Creating Layer roi_pool_org
I0819 12:37:44.478190  4343 net.cpp:434] roi_pool_org <- conv4_3_2x_new_conv4_3_2x_new_0_split_0
I0819 12:37:44.478194  4343 net.cpp:434] roi_pool_org <- rois_proposal_info_0_split_0
I0819 12:37:44.478199  4343 net.cpp:408] roi_pool_org -> roi_pool_org
I0819 12:37:44.478207  4343 roi_pooling_layer.cpp:33] Spatial scale: 0.25
I0819 12:37:44.478241  4343 net.cpp:150] Setting up roi_pool_org
I0819 12:37:44.478247  4343 net.cpp:157] Top shape: 256 513 7 7 (6435072)
I0819 12:37:44.478250  4343 net.cpp:165] Memory required for data: 5822383420
I0819 12:37:44.478255  4343 layer_factory.hpp:77] Creating layer roi_pool_ctx
I0819 12:37:44.478258  4343 net.cpp:100] Creating Layer roi_pool_ctx
I0819 12:37:44.478261  4343 net.cpp:434] roi_pool_ctx <- conv4_3_2x_new_conv4_3_2x_new_0_split_1
I0819 12:37:44.478266  4343 net.cpp:434] roi_pool_ctx <- rois_proposal_info_0_split_1
I0819 12:37:44.478271  4343 net.cpp:408] roi_pool_ctx -> roi_pool_ctx
I0819 12:37:44.478277  4343 roi_pooling_layer.cpp:33] Spatial scale: 0.25
I0819 12:37:44.478308  4343 net.cpp:150] Setting up roi_pool_ctx
I0819 12:37:44.478314  4343 net.cpp:157] Top shape: 256 513 7 7 (6435072)
I0819 12:37:44.478317  4343 net.cpp:165] Memory required for data: 5848123708
I0819 12:37:44.478320  4343 layer_factory.hpp:77] Creating layer roi_pool
I0819 12:37:44.478327  4343 net.cpp:100] Creating Layer roi_pool
I0819 12:37:44.478329  4343 net.cpp:434] roi_pool <- roi_pool_org
I0819 12:37:44.478334  4343 net.cpp:434] roi_pool <- roi_pool_ctx
I0819 12:37:44.478340  4343 net.cpp:408] roi_pool -> roi_pool
I0819 12:37:44.478359  4343 net.cpp:150] Setting up roi_pool
I0819 12:37:44.478366  4343 net.cpp:157] Top shape: 256 1026 7 7 (12870144)
I0819 12:37:44.478370  4343 net.cpp:165] Memory required for data: 5899604284
I0819 12:37:44.478374  4343 layer_factory.hpp:77] Creating layer roi_c1
I0819 12:37:44.478384  4343 net.cpp:100] Creating Layer roi_c1
I0819 12:37:44.478389  4343 net.cpp:434] roi_c1 <- roi_pool
I0819 12:37:44.478394  4343 net.cpp:408] roi_c1 -> roi_c1
I0819 12:37:44.595227  4343 net.cpp:150] Setting up roi_c1
I0819 12:37:44.595254  4343 net.cpp:157] Top shape: 256 512 5 5 (3276800)
I0819 12:37:44.595258  4343 net.cpp:165] Memory required for data: 5912711484
I0819 12:37:44.595265  4343 layer_factory.hpp:77] Creating layer roi_c1_relu
I0819 12:37:44.595276  4343 net.cpp:100] Creating Layer roi_c1_relu
I0819 12:37:44.595283  4343 net.cpp:434] roi_c1_relu <- roi_c1
I0819 12:37:44.595288  4343 net.cpp:395] roi_c1_relu -> roi_c1 (in-place)
I0819 12:37:44.595736  4343 net.cpp:150] Setting up roi_c1_relu
I0819 12:37:44.595749  4343 net.cpp:157] Top shape: 256 512 5 5 (3276800)
I0819 12:37:44.595752  4343 net.cpp:165] Memory required for data: 5925818684
I0819 12:37:44.595757  4343 layer_factory.hpp:77] Creating layer fc6
I0819 12:37:44.595770  4343 net.cpp:100] Creating Layer fc6
I0819 12:37:44.595774  4343 net.cpp:434] fc6 <- roi_c1
I0819 12:37:44.595782  4343 net.cpp:408] fc6 -> fc6
I0819 12:37:45.829066  4343 net.cpp:150] Setting up fc6
I0819 12:37:45.829105  4343 net.cpp:157] Top shape: 256 4096 (1048576)
I0819 12:37:45.829109  4343 net.cpp:165] Memory required for data: 5930012988
I0819 12:37:45.829119  4343 layer_factory.hpp:77] Creating layer relu6
I0819 12:37:45.829129  4343 net.cpp:100] Creating Layer relu6
I0819 12:37:45.829136  4343 net.cpp:434] relu6 <- fc6
I0819 12:37:45.829144  4343 net.cpp:395] relu6 -> fc6 (in-place)
I0819 12:37:45.829382  4343 net.cpp:150] Setting up relu6
I0819 12:37:45.829391  4343 net.cpp:157] Top shape: 256 4096 (1048576)
I0819 12:37:45.829394  4343 net.cpp:165] Memory required for data: 5934207292
I0819 12:37:45.829398  4343 layer_factory.hpp:77] Creating layer drop6
I0819 12:37:45.829406  4343 net.cpp:100] Creating Layer drop6
I0819 12:37:45.829409  4343 net.cpp:434] drop6 <- fc6
I0819 12:37:45.829413  4343 net.cpp:395] drop6 -> fc6 (in-place)
I0819 12:37:45.829439  4343 net.cpp:150] Setting up drop6
I0819 12:37:45.829445  4343 net.cpp:157] Top shape: 256 4096 (1048576)
I0819 12:37:45.829448  4343 net.cpp:165] Memory required for data: 5938401596
I0819 12:37:45.829452  4343 layer_factory.hpp:77] Creating layer fc6_drop6_0_split
I0819 12:37:45.829457  4343 net.cpp:100] Creating Layer fc6_drop6_0_split
I0819 12:37:45.829459  4343 net.cpp:434] fc6_drop6_0_split <- fc6
I0819 12:37:45.829465  4343 net.cpp:408] fc6_drop6_0_split -> fc6_drop6_0_split_0
I0819 12:37:45.829471  4343 net.cpp:408] fc6_drop6_0_split -> fc6_drop6_0_split_1
I0819 12:37:45.829505  4343 net.cpp:150] Setting up fc6_drop6_0_split
I0819 12:37:45.829511  4343 net.cpp:157] Top shape: 256 4096 (1048576)
I0819 12:37:45.829514  4343 net.cpp:157] Top shape: 256 4096 (1048576)
I0819 12:37:45.829517  4343 net.cpp:165] Memory required for data: 5946790204
I0819 12:37:45.829520  4343 layer_factory.hpp:77] Creating layer cls_pred
I0819 12:37:45.829529  4343 net.cpp:100] Creating Layer cls_pred
I0819 12:37:45.829531  4343 net.cpp:434] cls_pred <- fc6_drop6_0_split_0
I0819 12:37:45.829538  4343 net.cpp:408] cls_pred -> cls_pred
I0819 12:37:45.830153  4343 net.cpp:150] Setting up cls_pred
I0819 12:37:45.830162  4343 net.cpp:157] Top shape: 256 5 (1280)
I0819 12:37:45.830164  4343 net.cpp:165] Memory required for data: 5946795324
I0819 12:37:45.830169  4343 layer_factory.hpp:77] Creating layer cls_pred_cls_pred_0_split
I0819 12:37:45.830174  4343 net.cpp:100] Creating Layer cls_pred_cls_pred_0_split
I0819 12:37:45.830178  4343 net.cpp:434] cls_pred_cls_pred_0_split <- cls_pred
I0819 12:37:45.830183  4343 net.cpp:408] cls_pred_cls_pred_0_split -> cls_pred_cls_pred_0_split_0
I0819 12:37:45.830188  4343 net.cpp:408] cls_pred_cls_pred_0_split -> cls_pred_cls_pred_0_split_1
I0819 12:37:45.830216  4343 net.cpp:150] Setting up cls_pred_cls_pred_0_split
I0819 12:37:45.830222  4343 net.cpp:157] Top shape: 256 5 (1280)
I0819 12:37:45.830226  4343 net.cpp:157] Top shape: 256 5 (1280)
I0819 12:37:45.830229  4343 net.cpp:165] Memory required for data: 5946805564
I0819 12:37:45.830232  4343 layer_factory.hpp:77] Creating layer bbox_pred
I0819 12:37:45.830237  4343 net.cpp:100] Creating Layer bbox_pred
I0819 12:37:45.830240  4343 net.cpp:434] bbox_pred <- fc6_drop6_0_split_1
I0819 12:37:45.830245  4343 net.cpp:408] bbox_pred -> bbox_pred
I0819 12:37:45.832458  4343 net.cpp:150] Setting up bbox_pred
I0819 12:37:45.832465  4343 net.cpp:157] Top shape: 256 20 (5120)
I0819 12:37:45.832468  4343 net.cpp:165] Memory required for data: 5946826044
I0819 12:37:45.832473  4343 layer_factory.hpp:77] Creating layer bbox_pred_bbox_pred_0_split
I0819 12:37:45.832479  4343 net.cpp:100] Creating Layer bbox_pred_bbox_pred_0_split
I0819 12:37:45.832481  4343 net.cpp:434] bbox_pred_bbox_pred_0_split <- bbox_pred
I0819 12:37:45.832487  4343 net.cpp:408] bbox_pred_bbox_pred_0_split -> bbox_pred_bbox_pred_0_split_0
I0819 12:37:45.832494  4343 net.cpp:408] bbox_pred_bbox_pred_0_split -> bbox_pred_bbox_pred_0_split_1
I0819 12:37:45.832522  4343 net.cpp:150] Setting up bbox_pred_bbox_pred_0_split
I0819 12:37:45.832527  4343 net.cpp:157] Top shape: 256 20 (5120)
I0819 12:37:45.832531  4343 net.cpp:157] Top shape: 256 20 (5120)
I0819 12:37:45.832535  4343 net.cpp:165] Memory required for data: 5946867004
I0819 12:37:45.832537  4343 layer_factory.hpp:77] Creating layer loss_cls
I0819 12:37:45.832543  4343 net.cpp:100] Creating Layer loss_cls
I0819 12:37:45.832546  4343 net.cpp:434] loss_cls <- cls_pred_cls_pred_0_split_0
I0819 12:37:45.832551  4343 net.cpp:434] loss_cls <- proposal_labels_proposal_info_1_split_0
…
I0819 12:37:45.845042  4343 image_gt_data_layer.cpp:235] output label size 2 : 2,6,48,48
I0819 12:37:45.845088  4343 image_gt_data_layer.cpp:235] output label size 3 : 2,6,48,48
I0819 12:37:45.845134  4343 image_gt_data_layer.cpp:235] output label size 4 : 2,6,24,24
I0819 12:37:45.845180  4343 image_gt_data_layer.cpp:235] output label size 5 : 2,6,24,24
I0819 12:37:45.845226  4343 image_gt_data_layer.cpp:235] output label size 6 : 2,6,12,12
I0819 12:37:45.845271  4343 image_gt_data_layer.cpp:250] output gt boxes size: 1,7,1,1
I0819 12:37:45.878679  4343 net.cpp:150] Setting up data
I0819 12:37:45.878710  4343 net.cpp:157] Top shape: 2 4 768 768 (4718592)
I0819 12:37:45.878715  4343 net.cpp:157] Top shape: 2 6 96 96 (110592)
I0819 12:37:45.878718  4343 net.cpp:157] Top shape: 2 6 96 96 (110592)
I0819 12:37:45.878721  4343 net.cpp:157] Top shape: 2 6 48 48 (27648)
I0819 12:37:45.878726  4343 net.cpp:157] Top shape: 2 6 48 48 (27648)
I0819 12:37:45.878728  4343 net.cpp:157] Top shape: 2 6 24 24 (6912)
I0819 12:37:45.878732  4343 net.cpp:157] Top shape: 2 6 24 24 (6912)
I0819 12:37:45.878736  4343 net.cpp:157] Top shape: 2 6 12 12 (1728)
I0819 12:37:45.878739  4343 net.cpp:157] Top shape: 1 7 1 1 (7)
I0819 12:37:45.878741  4343 net.cpp:165] Memory required for data: 20042524
I0819 12:37:45.878747  4343 layer_factory.hpp:77] Creating layer label_1_5x5_data_1_split
I0819 12:37:45.878767  4343 net.cpp:100] Creating Layer label_1_5x5_data_1_split
I0819 12:37:45.878772  4343 net.cpp:434] label_1_5x5_data_1_split <- label_1_5x5
I0819 12:37:45.878777  4343 net.cpp:408] label_1_5x5_data_1_split -> label_1_5x5_data_1_split_0
I0819 12:37:45.878784  4343 net.cpp:408] label_1_5x5_data_1_split -> label_1_5x5_data_1_split_1
I0819 12:37:45.878828  4343 net.cpp:150] Setting up label_1_5x5_data_1_split
I0819 12:37:45.878832  4343 net.cpp:157] Top shape: 2 6 96 96 (110592)
I0819 12:37:45.878835  4343 net.cpp:157] Top shape: 2 6 96 96 (110592)
I0819 12:37:45.878839  4343 net.cpp:165] Memory required for data: 20927260
I0819 12:37:45.878841  4343 layer_factory.hpp:77] Creating layer label_1_7x7_data_2_split
I0819 12:37:45.878845  4343 net.cpp:100] Creating Layer label_1_7x7_data_2_split
I0819 12:37:45.878849  4343 net.cpp:434] label_1_7x7_data_2_split <- label_1_7x7
I0819 12:37:45.878851  4343 net.cpp:408] label_1_7x7_data_2_split -> label_1_7x7_data_2_split_0
I0819 12:37:45.878856  4343 net.cpp:408] label_1_7x7_data_2_split -> label_1_7x7_data_2_split_1
I0819 12:37:45.879158  4343 net.cpp:150] Setting up label_1_7x7_data_2_split
I0819 12:37:45.879199  4343 net.cpp:157] Top shape: 2 6 96 96 (110592)
I0819 12:37:45.879210  4343 net.cpp:157] Top shape: 2 6 96 96 (110592)
I0819 12:37:45.879218  4343 net.cpp:165] Memory required for data: 21811996
I0819 12:37:45.879230  4343 layer_factory.hpp:77] Creating layer label_2_5x5_data_3_split
I0819 12:37:45.879247  4343 net.cpp:100] Creating Layer label_2_5x5_data_3_split
I0819 12:37:45.879256  4343 net.cpp:434] label_2_5x5_data_3_split <- label_2_5x5
I0819 12:37:45.879273  4343 net.cpp:408] label_2_5x5_data_3_split -> label_2_5x5_data_3_split_0
I0819 12:37:45.879290  4343 net.cpp:408] label_2_5x5_data_3_split -> label_2_5x5_data_3_split_1
I0819 12:37:45.879369  4343 net.cpp:150] Setting up label_2_5x5_data_3_split
I0819 12:37:45.879380  4343 net.cpp:157] Top shape: 2 6 48 48 (27648)
I0819 12:37:45.879390  4343 net.cpp:157] Top shape: 2 6 48 48 (27648)
I0819 12:37:45.879396  4343 net.cpp:165] Memory required for data: 22033180
I0819 12:37:45.879403  4343 layer_factory.hpp:77] Creating layer label_2_7x7_data_4_split
I0819 12:37:45.879415  4343 net.cpp:100] Creating Layer label_2_7x7_data_4_split
I0819 12:37:45.879423  4343 net.cpp:434] label_2_7x7_data_4_split <- label_2_7x7
I0819 12:37:45.879464  4343 net.cpp:408] label_2_7x7_data_4_split -> label_2_7x7_data_4_split_0
I0819 12:37:45.879480  4343 net.cpp:408] label_2_7x7_data_4_split -> label_2_7x7_data_4_split_1
I0819 12:37:45.879560  4343 net.cpp:150] Setting up label_2_7x7_data_4_split
I0819 12:37:45.879571  4343 net.cpp:157] Top shape: 2 6 48 48 (27648)
I0819 12:37:45.879581  4343 net.cpp:157] Top shape: 2 6 48 48 (27648)
I0819 12:37:45.879588  4343 net.cpp:165] Memory required for data: 22254364
I0819 12:37:45.879595  4343 layer_factory.hpp:77] Creating layer label_3_5x5_data_5_split
I0819 12:37:45.879606  4343 net.cpp:100] Creating Layer label_3_5x5_data_5_split
I0819 12:37:45.879612  4343 net.cpp:434] label_3_5x5_data_5_split <- label_3_5x5
I0819 12:37:45.879626  4343 net.cpp:408] label_3_5x5_data_5_split -> label_3_5x5_data_5_split_0
I0819 12:37:45.879638  4343 net.cpp:408] label_3_5x5_data_5_split -> label_3_5x5_data_5_split_1
I0819 12:37:45.879716  4343 net.cpp:150] Setting up label_3_5x5_data_5_split
I0819 12:37:45.879727  4343 net.cpp:157] Top shape: 2 6 24 24 (6912)
I0819 12:37:45.879736  4343 net.cpp:157] Top shape: 2 6 24 24 (6912)
I0819 12:37:45.879742  4343 net.cpp:165] Memory required for data: 22309660
I0819 12:37:45.879750  4343 layer_factory.hpp:77] Creating layer label_3_7x7_data_6_split
I0819 12:37:45.879758  4343 net.cpp:100] Creating Layer label_3_7x7_data_6_split
I0819 12:37:45.879765  4343 net.cpp:434] label_3_7x7_data_6_split <- label_3_7x7
I0819 12:37:45.879786  4343 net.cpp:408] label_3_7x7_data_6_split -> label_3_7x7_data_6_split_0
I0819 12:37:45.879799  4343 net.cpp:408] label_3_7x7_data_6_split -> label_3_7x7_data_6_split_1
I0819 12:37:45.879870  4343 net.cpp:150] Setting up label_3_7x7_data_6_split
I0819 12:37:45.879884  4343 net.cpp:157] Top shape: 2 6 24 24 (6912)
I0819 12:37:45.879892  4343 net.cpp:157] Top shape: 2 6 24 24 (6912)
I0819 12:37:45.879899  4343 net.cpp:165] Memory required for data: 22364956
I0819 12:37:45.879905  4343 layer_factory.hpp:77] Creating layer label_4_5x5_data_7_split
I0819 12:37:45.879914  4343 net.cpp:100] Creating Layer label_4_5x5_data_7_split
I0819 12:37:45.879921  4343 net.cpp:434] label_4_5x5_data_7_split <- label_4_5x5
I0819 12:37:45.879930  4343 net.cpp:408] label_4_5x5_data_7_split -> label_4_5x5_data_7_split_0
I0819 12:37:45.879941  4343 net.cpp:408] label_4_5x5_data_7_split -> label_4_5x5_data_7_split_1
I0819 12:37:45.880012  4343 net.cpp:150] Setting up label_4_5x5_data_7_split
I0819 12:37:45.880023  4343 net.cpp:157] Top shape: 2 6 12 12 (1728)
I0819 12:37:45.880031  4343 net.cpp:157] Top shape: 2 6 12 12 (1728)
I0819 12:37:45.880038  4343 net.cpp:165] Memory required for data: 22378780
I0819 12:37:45.880044  4343 layer_factory.hpp:77] Creating layer slice
I0819 12:37:45.880061  4343 net.cpp:100] Creating Layer slice
I0819 12:37:45.880069  4343 net.cpp:434] slice <- data
I0819 12:37:45.880080  4343 net.cpp:408] slice -> data123
I0819 12:37:45.880095  4343 net.cpp:408] slice -> ch4
I0819 12:37:45.880177  4343 net.cpp:150] Setting up slice
I0819 12:37:45.880188  4343 net.cpp:157] Top shape: 2 3 768 768 (3538944)
I0819 12:37:45.880198  4343 net.cpp:157] Top shape: 2 1 768 768 (1179648)
I0819 12:37:45.880203  4343 net.cpp:165] Memory required for data: 41253148
I0819 12:37:45.880210  4343 layer_factory.hpp:77] Creating layer conv1_1
I0819 12:37:45.880229  4343 net.cpp:100] Creating Layer conv1_1
I0819 12:37:45.880237  4343 net.cpp:434] conv1_1 <- data123
I0819 12:37:45.880249  4343 net.cpp:408] conv1_1 -> conv1_1
I0819 12:37:45.889156  4343 net.cpp:150] Setting up conv1_1
I0819 12:37:45.889192  4343 net.cpp:157] Top shape: 2 64 768 768 (75497472)
I0819 12:37:45.889201  4343 net.cpp:165] Memory required for data: 343243036
I0819 12:37:45.889226  4343 layer_factory.hpp:77] Creating layer relu1_1
I0819 12:37:45.889246  4343 net.cpp:100] Creating Layer relu1_1
I0819 12:37:45.889257  4343 net.cpp:434] relu1_1 <- conv1_1
I0819 12:37:45.889267  4343 net.cpp:395] relu1_1 -> conv1_1 (in-place)
I0819 12:37:45.889709  4343 net.cpp:150] Setting up relu1_1
I0819 12:37:45.889729  4343 net.cpp:157] Top shape: 2 64 768 768 (75497472)
I0819 12:37:45.889736  4343 net.cpp:165] Memory required for data: 645232924
I0819 12:37:45.889744  4343 layer_factory.hpp:77] Creating layer conv1_2
I0819 12:37:45.889765  4343 net.cpp:100] Creating Layer conv1_2
I0819 12:37:45.889772  4343 net.cpp:434] conv1_2 <- conv1_1
I0819 12:37:45.889786  4343 net.cpp:408] conv1_2 -> conv1_2
I0819 12:37:45.894367  4343 net.cpp:150] Setting up conv1_2
I0819 12:37:45.894399  4343 net.cpp:157] Top shape: 2 64 768 768 (75497472)
I0819 12:37:45.894407  4343 net.cpp:165] Memory required for data: 947222812
I0819 12:37:45.894428  4343 layer_factory.hpp:77] Creating layer relu1_2
I0819 12:37:45.894444  4343 net.cpp:100] Creating Layer relu1_2
I0819 12:37:45.894454  4343 net.cpp:434] relu1_2 <- conv1_2
I0819 12:37:45.894464  4343 net.cpp:395] relu1_2 -> conv1_2 (in-place)
I0819 12:37:45.894871  4343 net.cpp:150] Setting up relu1_2
I0819 12:37:45.894891  4343 net.cpp:157] Top shape: 2 64 768 768 (75497472)
I0819 12:37:45.894898  4343 net.cpp:165] Memory required for data: 1249212700
I0819 12:37:45.894906  4343 layer_factory.hpp:77] Creating layer pool1
I0819 12:37:45.894919  4343 net.cpp:100] Creating Layer pool1
I0819 12:37:45.894929  4343 net.cpp:434] pool1 <- conv1_2
I0819 12:37:45.894945  4343 net.cpp:408] pool1 -> pool1
I0819 12:37:45.895046  4343 net.cpp:150] Setting up pool1
I0819 12:37:45.895061  4343 net.cpp:157] Top shape: 2 64 384 384 (18874368)
I0819 12:37:45.895067  4343 net.cpp:165] Memory required for data: 1324710172
I0819 12:37:45.895074  4343 layer_factory.hpp:77] Creating layer ch4_pool1
I0819 12:37:45.895087  4343 net.cpp:100] Creating Layer ch4_pool1
I0819 12:37:45.895097  4343 net.cpp:434] ch4_pool1 <- ch4
I0819 12:37:45.895110  4343 net.cpp:408] ch4_pool1 -> ch4_pool1
I0819 12:37:45.895186  4343 net.cpp:150] Setting up ch4_pool1
I0819 12:37:45.895201  4343 net.cpp:157] Top shape: 2 1 384 384 (294912)
I0819 12:37:45.895207  4343 net.cpp:165] Memory required for data: 1325889820
I0819 12:37:45.895215  4343 layer_factory.hpp:77] Creating layer ch4_pool1_ch4_pool1_0_split
I0819 12:37:45.895225  4343 net.cpp:100] Creating Layer ch4_pool1_ch4_pool1_0_split
I0819 12:37:45.895232  4343 net.cpp:434] ch4_pool1_ch4_pool1_0_split <- ch4_pool1
I0819 12:37:45.895242  4343 net.cpp:408] ch4_pool1_ch4_pool1_0_split -> ch4_pool1_ch4_pool1_0_split_0
I0819 12:37:45.895253  4343 net.cpp:408] ch4_pool1_ch4_pool1_0_split -> ch4_pool1_ch4_pool1_0_split_1
I0819 12:37:45.895321  4343 net.cpp:150] Setting up ch4_pool1_ch4_pool1_0_split
I0819 12:37:45.895331  4343 net.cpp:157] Top shape: 2 1 384 384 (294912)
I0819 12:37:45.895339  4343 net.cpp:157] Top shape: 2 1 384 384 (294912)
I0819 12:37:45.895345  4343 net.cpp:165] Memory required for data: 1328249116
I0819 12:37:45.895351  4343 layer_factory.hpp:77] Creating layer pool1_concat
I0819 12:37:45.895366  4343 net.cpp:100] Creating Layer pool1_concat
I0819 12:37:45.895373  4343 net.cpp:434] pool1_concat <- pool1
I0819 12:37:45.895382  4343 net.cpp:434] pool1_concat <- ch4_pool1_ch4_pool1_0_split_0
I0819 12:37:45.895391  4343 net.cpp:408] pool1_concat -> pool1_new
I0819 12:37:45.895470  4343 net.cpp:150] Setting up pool1_concat
I0819 12:37:45.895483  4343 net.cpp:157] Top shape: 2 65 384 384 (19169280)
I0819 12:37:45.895489  4343 net.cpp:165] Memory required for data: 1404926236
I0819 12:37:45.895495  4343 layer_factory.hpp:77] Creating layer conv2_1_new
I0819 12:37:45.895511  4343 net.cpp:100] Creating Layer conv2_1_new
I0819 12:37:45.895519  4343 net.cpp:434] conv2_1_new <- pool1_new
I0819 12:37:45.895530  4343 net.cpp:408] conv2_1_new -> conv2_1
I0819 12:37:45.898260  4343 net.cpp:150] Setting up conv2_1_new
I0819 12:37:45.898284  4343 net.cpp:157] Top shape: 2 128 384 384 (37748736)
I0819 12:37:45.898289  4343 net.cpp:165] Memory required for data: 1555921180
I0819 12:37:45.898303  4343 layer_factory.hpp:77] Creating layer relu2_1
I0819 12:37:45.898315  4343 net.cpp:100] Creating Layer relu2_1
I0819 12:37:45.898322  4343 net.cpp:434] relu2_1 <- conv2_1
I0819 12:37:45.898329  4343 net.cpp:395] relu2_1 -> conv2_1 (in-place)
I0819 12:37:45.898955  4343 net.cpp:150] Setting up relu2_1
I0819 12:37:45.898972  4343 net.cpp:157] Top shape: 2 128 384 384 (37748736)
I0819 12:37:45.898977  4343 net.cpp:165] Memory required for data: 1706916124
I0819 12:37:45.898982  4343 layer_factory.hpp:77] Creating layer conv2_2
I0819 12:37:45.898993  4343 net.cpp:100] Creating Layer conv2_2
I0819 12:37:45.898998  4343 net.cpp:434] conv2_2 <- conv2_1
I0819 12:37:45.899005  4343 net.cpp:408] conv2_2 -> conv2_2
I0819 12:37:45.904801  4343 net.cpp:150] Setting up conv2_2
I0819 12:37:45.904835  4343 net.cpp:157] Top shape: 2 128 384 384 (37748736)
I0819 12:37:45.904841  4343 net.cpp:165] Memory required for data: 1857911068
I0819 12:37:45.904855  4343 layer_factory.hpp:77] Creating layer relu2_2
I0819 12:37:45.904867  4343 net.cpp:100] Creating Layer relu2_2
I0819 12:37:45.904875  4343 net.cpp:434] relu2_2 <- conv2_2
I0819 12:37:45.904882  4343 net.cpp:395] relu2_2 -> conv2_2 (in-place)
I0819 12:37:45.905184  4343 net.cpp:150] Setting up relu2_2
I0819 12:37:45.905195  4343 net.cpp:157] Top shape: 2 128 384 384 (37748736)
I0819 12:37:45.905200  4343 net.cpp:165] Memory required for data: 2008906012
I0819 12:37:45.905203  4343 layer_factory.hpp:77] Creating layer pool2
I0819 12:37:45.905213  4343 net.cpp:100] Creating Layer pool2
I0819 12:37:45.905218  4343 net.cpp:434] pool2 <- conv2_2
I0819 12:37:45.905225  4343 net.cpp:408] pool2 -> pool2
I0819 12:37:45.905308  4343 net.cpp:150] Setting up pool2
I0819 12:37:45.905316  4343 net.cpp:157] Top shape: 2 128 192 192 (9437184)
I0819 12:37:45.905319  4343 net.cpp:165] Memory required for data: 2046654748
I0819 12:37:45.905323  4343 layer_factory.hpp:77] Creating layer ch4_pool2
I0819 12:37:45.905331  4343 net.cpp:100] Creating Layer ch4_pool2
I0819 12:37:45.905336  4343 net.cpp:434] ch4_pool2 <- ch4_pool1_ch4_pool1_0_split_1
I0819 12:37:45.905342  4343 net.cpp:408] ch4_pool2 -> ch4_pool2
I0819 12:37:45.905386  4343 net.cpp:150] Setting up ch4_pool2
I0819 12:37:45.905393  4343 net.cpp:157] Top shape: 2 1 192 192 (73728)
I0819 12:37:45.905397  4343 net.cpp:165] Memory required for data: 2046949660
I0819 12:37:45.905400  4343 layer_factory.hpp:77] Creating layer ch4_pool2_ch4_pool2_0_split
I0819 12:37:45.905407  4343 net.cpp:100] Creating Layer ch4_pool2_ch4_pool2_0_split
I0819 12:37:45.905411  4343 net.cpp:434] ch4_pool2_ch4_pool2_0_split <- ch4_pool2
I0819 12:37:45.905418  4343 net.cpp:408] ch4_pool2_ch4_pool2_0_split -> ch4_pool2_ch4_pool2_0_split_0
I0819 12:37:45.905424  4343 net.cpp:408] ch4_pool2_ch4_pool2_0_split -> ch4_pool2_ch4_pool2_0_split_1
I0819 12:37:45.905431  4343 net.cpp:408] ch4_pool2_ch4_pool2_0_split -> ch4_pool2_ch4_pool2_0_split_2
I0819 12:37:45.905488  4343 net.cpp:150] Setting up ch4_pool2_ch4_pool2_0_split
I0819 12:37:45.905495  4343 net.cpp:157] Top shape: 2 1 192 192 (73728)
I0819 12:37:45.905500  4343 net.cpp:157] Top shape: 2 1 192 192 (73728)
I0819 12:37:45.905504  4343 net.cpp:157] Top shape: 2 1 192 192 (73728)
I0819 12:37:45.905508  4343 net.cpp:165] Memory required for data: 2047834396
I0819 12:37:45.905513  4343 layer_factory.hpp:77] Creating layer pool2_concat
I0819 12:37:45.905519  4343 net.cpp:100] Creating Layer pool2_concat
I0819 12:37:45.905524  4343 net.cpp:434] pool2_concat <- pool2
I0819 12:37:45.905529  4343 net.cpp:434] pool2_concat <- ch4_pool2_ch4_pool2_0_split_0
I0819 12:37:45.905534  4343 net.cpp:408] pool2_concat -> pool2_new
I0819 12:37:45.905560  4343 net.cpp:150] Setting up pool2_concat
I0819 12:37:45.905570  4343 net.cpp:157] Top shape: 2 129 192 192 (9510912)
I0819 12:37:45.905575  4343 net.cpp:165] Memory required for data: 2085878044
I0819 12:37:45.905578  4343 layer_factory.hpp:77] Creating layer conv3_1_new
I0819 12:37:45.905587  4343 net.cpp:100] Creating Layer conv3_1_new
I0819 12:37:45.905591  4343 net.cpp:434] conv3_1_new <- pool2_new
I0819 12:37:45.905598  4343 net.cpp:408] conv3_1_new -> conv3_1
I0819 12:37:45.907789  4343 net.cpp:150] Setting up conv3_1_new
I0819 12:37:45.907817  4343 net.cpp:157] Top shape: 2 256 192 192 (18874368)
I0819 12:37:45.907822  4343 net.cpp:165] Memory required for data: 2161375516
I0819 12:37:45.907838  4343 layer_factory.hpp:77] Creating layer relu3_1
I0819 12:37:45.907851  4343 net.cpp:100] Creating Layer relu3_1
I0819 12:37:45.907858  4343 net.cpp:434] relu3_1 <- conv3_1
I0819 12:37:45.907865  4343 net.cpp:395] relu3_1 -> conv3_1 (in-place)
I0819 12:37:45.908076  4343 net.cpp:150] Setting up relu3_1
I0819 12:37:45.908087  4343 net.cpp:157] Top shape: 2 256 192 192 (18874368)
I0819 12:37:45.908090  4343 net.cpp:165] Memory required for data: 2236872988
I0819 12:37:45.908094  4343 layer_factory.hpp:77] Creating layer conv3_2
I0819 12:37:45.908105  4343 net.cpp:100] Creating Layer conv3_2
I0819 12:37:45.908109  4343 net.cpp:434] conv3_2 <- conv3_1
I0819 12:37:45.908116  4343 net.cpp:408] conv3_2 -> conv3_2
I0819 12:37:45.911610  4343 net.cpp:150] Setting up conv3_2
I0819 12:37:45.911631  4343 net.cpp:157] Top shape: 2 256 192 192 (18874368)
I0819 12:37:45.911636  4343 net.cpp:165] Memory required for data: 2312370460
I0819 12:37:45.911644  4343 layer_factory.hpp:77] Creating layer relu3_2
I0819 12:37:45.911656  4343 net.cpp:100] Creating Layer relu3_2
I0819 12:37:45.911661  4343 net.cpp:434] relu3_2 <- conv3_2
I0819 12:37:45.911667  4343 net.cpp:395] relu3_2 -> conv3_2 (in-place)
I0819 12:37:45.911880  4343 net.cpp:150] Setting up relu3_2
I0819 12:37:45.911891  4343 net.cpp:157] Top shape: 2 256 192 192 (18874368)
I0819 12:37:45.911895  4343 net.cpp:165] Memory required for data: 2387867932
I0819 12:37:45.911900  4343 layer_factory.hpp:77] Creating layer conv3_3
I0819 12:37:45.911909  4343 net.cpp:100] Creating Layer conv3_3
I0819 12:37:45.911913  4343 net.cpp:434] conv3_3 <- conv3_2
I0819 12:37:45.911921  4343 net.cpp:408] conv3_3 -> conv3_3
I0819 12:37:45.915197  4343 net.cpp:150] Setting up conv3_3
I0819 12:37:45.915218  4343 net.cpp:157] Top shape: 2 256 192 192 (18874368)
I0819 12:37:45.915225  4343 net.cpp:165] Memory required for data: 2463365404
I0819 12:37:45.915235  4343 layer_factory.hpp:77] Creating layer relu3_3
I0819 12:37:45.915244  4343 net.cpp:100] Creating Layer relu3_3
I0819 12:37:45.915251  4343 net.cpp:434] relu3_3 <- conv3_3
I0819 12:37:45.915257  4343 net.cpp:395] relu3_3 -> conv3_3 (in-place)
I0819 12:37:45.915535  4343 net.cpp:150] Setting up relu3_3
I0819 12:37:45.915549  4343 net.cpp:157] Top shape: 2 256 192 192 (18874368)
I0819 12:37:45.915555  4343 net.cpp:165] Memory required for data: 2538862876
I0819 12:37:45.915560  4343 layer_factory.hpp:77] Creating layer pool3
I0819 12:37:45.915571  4343 net.cpp:100] Creating Layer pool3
I0819 12:37:45.915576  4343 net.cpp:434] pool3 <- conv3_3
I0819 12:37:45.915587  4343 net.cpp:408] pool3 -> pool3
I0819 12:37:45.915647  4343 net.cpp:150] Setting up pool3
I0819 12:37:45.915657  4343 net.cpp:157] Top shape: 2 256 96 96 (4718592)
I0819 12:37:45.915661  4343 net.cpp:165] Memory required for data: 2557737244
I0819 12:37:45.915666  4343 layer_factory.hpp:77] Creating layer ch4_pool3
I0819 12:37:45.915679  4343 net.cpp:100] Creating Layer ch4_pool3
I0819 12:37:45.915685  4343 net.cpp:434] ch4_pool3 <- ch4_pool2_ch4_pool2_0_split_1
I0819 12:37:45.915693  4343 net.cpp:408] ch4_pool3 -> ch4_pool3
I0819 12:37:45.915751  4343 net.cpp:150] Setting up ch4_pool3
I0819 12:37:45.915758  4343 net.cpp:157] Top shape: 2 1 96 96 (18432)
I0819 12:37:45.915762  4343 net.cpp:165] Memory required for data: 2557810972
I0819 12:37:45.915766  4343 layer_factory.hpp:77] Creating layer ch4_pool3_ch4_pool3_0_split
I0819 12:37:45.915773  4343 net.cpp:100] Creating Layer ch4_pool3_ch4_pool3_0_split
I0819 12:37:45.915778  4343 net.cpp:434] ch4_pool3_ch4_pool3_0_split <- ch4_pool3
I0819 12:37:45.915784  4343 net.cpp:408] ch4_pool3_ch4_pool3_0_split -> ch4_pool3_ch4_pool3_0_split_0
I0819 12:37:45.915791  4343 net.cpp:408] ch4_pool3_ch4_pool3_0_split -> ch4_pool3_ch4_pool3_0_split_1
I0819 12:37:45.915834  4343 net.cpp:150] Setting up ch4_pool3_ch4_pool3_0_split
I0819 12:37:45.915840  4343 net.cpp:157] Top shape: 2 1 96 96 (18432)
I0819 12:37:45.915845  4343 net.cpp:157] Top shape: 2 1 96 96 (18432)
I0819 12:37:45.915849  4343 net.cpp:165] Memory required for data: 2557958428
I0819 12:37:45.915853  4343 layer_factory.hpp:77] Creating layer pool3_concat
I0819 12:37:45.915860  4343 net.cpp:100] Creating Layer pool3_concat
I0819 12:37:45.915864  4343 net.cpp:434] pool3_concat <- pool3
I0819 12:37:45.915869  4343 net.cpp:434] pool3_concat <- ch4_pool3_ch4_pool3_0_split_0
I0819 12:37:45.915876  4343 net.cpp:408] pool3_concat -> pool3_new
I0819 12:37:45.915902  4343 net.cpp:150] Setting up pool3_concat
I0819 12:37:45.915907  4343 net.cpp:157] Top shape: 2 257 96 96 (4737024)
I0819 12:37:45.915911  4343 net.cpp:165] Memory required for data: 2576906524
I0819 12:37:45.915915  4343 layer_factory.hpp:77] Creating layer conv4_1_new
I0819 12:37:45.915925  4343 net.cpp:100] Creating Layer conv4_1_new
I0819 12:37:45.915930  4343 net.cpp:434] conv4_1_new <- pool3_new
I0819 12:37:45.915935  4343 net.cpp:408] conv4_1_new -> conv4_1
I0819 12:37:45.919112  4343 net.cpp:150] Setting up conv4_1_new
I0819 12:37:45.919131  4343 net.cpp:157] Top shape: 2 512 96 96 (9437184)
I0819 12:37:45.919134  4343 net.cpp:165] Memory required for data: 2614655260
I0819 12:37:45.919140  4343 layer_factory.hpp:77] Creating layer relu4_1
I0819 12:37:45.919149  4343 net.cpp:100] Creating Layer relu4_1
I0819 12:37:45.919153  4343 net.cpp:434] relu4_1 <- conv4_1
I0819 12:37:45.919159  4343 net.cpp:395] relu4_1 -> conv4_1 (in-place)
I0819 12:37:45.919301  4343 net.cpp:150] Setting up relu4_1
I0819 12:37:45.919306  4343 net.cpp:157] Top shape: 2 512 96 96 (9437184)
I0819 12:37:45.919309  4343 net.cpp:165] Memory required for data: 2652403996
I0819 12:37:45.919312  4343 layer_factory.hpp:77] Creating layer conv4_2
I0819 12:37:45.919320  4343 net.cpp:100] Creating Layer conv4_2
I0819 12:37:45.919323  4343 net.cpp:434] conv4_2 <- conv4_1
I0819 12:37:45.919327  4343 net.cpp:408] conv4_2 -> conv4_2
I0819 12:37:45.925441  4343 net.cpp:150] Setting up conv4_2
I0819 12:37:45.925470  4343 net.cpp:157] Top shape: 2 512 96 96 (9437184)
I0819 12:37:45.925475  4343 net.cpp:165] Memory required for data: 2690152732
I0819 12:37:45.925492  4343 layer_factory.hpp:77] Creating layer relu4_2
I0819 12:37:45.925503  4343 net.cpp:100] Creating Layer relu4_2
I0819 12:37:45.925509  4343 net.cpp:434] relu4_2 <- conv4_2
I0819 12:37:45.925515  4343 net.cpp:395] relu4_2 -> conv4_2 (in-place)
I0819 12:37:45.926014  4343 net.cpp:150] Setting up relu4_2
I0819 12:37:45.926028  4343 net.cpp:157] Top shape: 2 512 96 96 (9437184)
I0819 12:37:45.926031  4343 net.cpp:165] Memory required for data: 2727901468
I0819 12:37:45.926035  4343 layer_factory.hpp:77] Creating layer conv4_3
I0819 12:37:45.926046  4343 net.cpp:100] Creating Layer conv4_3
I0819 12:37:45.926050  4343 net.cpp:434] conv4_3 <- conv4_2
I0819 12:37:45.926056  4343 net.cpp:408] conv4_3 -> conv4_3
I0819 12:37:45.933743  4343 net.cpp:150] Setting up conv4_3
I0819 12:37:45.933795  4343 net.cpp:157] Top shape: 2 512 96 96 (9437184)
I0819 12:37:45.933806  4343 net.cpp:165] Memory required for data: 2765650204
I0819 12:37:45.933826  4343 layer_factory.hpp:77] Creating layer relu4_3
I0819 12:37:45.933845  4343 net.cpp:100] Creating Layer relu4_3
I0819 12:37:45.933861  4343 net.cpp:434] relu4_3 <- conv4_3
I0819 12:37:45.933874  4343 net.cpp:395] relu4_3 -> conv4_3 (in-place)
I0819 12:37:45.934252  4343 net.cpp:150] Setting up relu4_3
I0819 12:37:45.934269  4343 net.cpp:157] Top shape: 2 512 96 96 (9437184)
I0819 12:37:45.934278  4343 net.cpp:165] Memory required for data: 2803398940
I0819 12:37:45.934286  4343 layer_factory.hpp:77] Creating layer conv4_3_relu4_3_0_split
I0819 12:37:45.934303  4343 net.cpp:100] Creating Layer conv4_3_relu4_3_0_split
I0819 12:37:45.934311  4343 net.cpp:434] conv4_3_relu4_3_0_split <- conv4_3
I0819 12:37:45.934324  4343 net.cpp:408] conv4_3_relu4_3_0_split -> conv4_3_relu4_3_0_split_0
I0819 12:37:45.934340  4343 net.cpp:408] conv4_3_relu4_3_0_split -> conv4_3_relu4_3_0_split_1
I0819 12:37:45.934432  4343 net.cpp:150] Setting up conv4_3_relu4_3_0_split
I0819 12:37:45.934446  4343 net.cpp:157] Top shape: 2 512 96 96 (9437184)
I0819 12:37:45.934458  4343 net.cpp:157] Top shape: 2 512 96 96 (9437184)
I0819 12:37:45.934465  4343 net.cpp:165] Memory required for data: 2878896412
I0819 12:37:45.934473  4343 layer_factory.hpp:77] Creating layer conv4_concat
I0819 12:37:45.934485  4343 net.cpp:100] Creating Layer conv4_concat
I0819 12:37:45.934495  4343 net.cpp:434] conv4_concat <- conv4_3_relu4_3_0_split_0
I0819 12:37:45.934507  4343 net.cpp:434] conv4_concat <- ch4_pool3_ch4_pool3_0_split_1
I0819 12:37:45.934521  4343 net.cpp:408] conv4_concat -> conv4_3_new
I0819 12:37:45.934571  4343 net.cpp:150] Setting up conv4_concat
I0819 12:37:45.934586  4343 net.cpp:157] Top shape: 2 513 96 96 (9455616)
I0819 12:37:45.934594  4343 net.cpp:165] Memory required for data: 2916718876
I0819 12:37:45.934602  4343 layer_factory.hpp:77] Creating layer conv4_3_new_conv4_concat_0_split
I0819 12:37:45.934612  4343 net.cpp:100] Creating Layer conv4_3_new_conv4_concat_0_split
I0819 12:37:45.934622  4343 net.cpp:434] conv4_3_new_conv4_concat_0_split <- conv4_3_new
I0819 12:37:45.934633  4343 net.cpp:408] conv4_3_new_conv4_concat_0_split -> conv4_3_new_conv4_concat_0_split_0
I0819 12:37:45.934645  4343 net.cpp:408] conv4_3_new_conv4_concat_0_split -> conv4_3_new_conv4_concat_0_split_1
I0819 12:37:45.934725  4343 net.cpp:150] Setting up conv4_3_new_conv4_concat_0_split
I0819 12:37:45.934737  4343 net.cpp:157] Top shape: 2 513 96 96 (9455616)
I0819 12:37:45.934747  4343 net.cpp:157] Top shape: 2 513 96 96 (9455616)
I0819 12:37:45.934756  4343 net.cpp:165] Memory required for data: 2992363804
I0819 12:37:45.934763  4343 layer_factory.hpp:77] Creating layer loss1_conv1
I0819 12:37:45.934788  4343 net.cpp:100] Creating Layer loss1_conv1
I0819 12:37:45.934798  4343 net.cpp:434] loss1_conv1 <- conv4_3_new_conv4_concat_0_split_0
I0819 12:37:45.934813  4343 net.cpp:408] loss1_conv1 -> loss1_conv1
I0819 12:37:45.999842  4343 net.cpp:150] Setting up loss1_conv1
I0819 12:37:45.999872  4343 net.cpp:157] Top shape: 2 512 96 96 (9437184)
I0819 12:37:45.999876  4343 net.cpp:165] Memory required for data: 3030112540
I0819 12:37:45.999886  4343 layer_factory.hpp:77] Creating layer loss_relu1
I0819 12:37:45.999897  4343 net.cpp:100] Creating Layer loss_relu1
I0819 12:37:45.999903  4343 net.cpp:434] loss_relu1 <- loss1_conv1
I0819 12:37:45.999908  4343 net.cpp:395] loss_relu1 -> loss1_conv1 (in-place)
I0819 12:37:46.000073  4343 net.cpp:150] Setting up loss_relu1
I0819 12:37:46.000082  4343 net.cpp:157] Top shape: 2 512 96 96 (9437184)
I0819 12:37:46.000087  4343 net.cpp:165] Memory required for data: 3067861276
I0819 12:37:46.000089  4343 layer_factory.hpp:77] Creating layer loss1_conv1_loss_relu1_0_split
I0819 12:37:46.000095  4343 net.cpp:100] Creating Layer loss1_conv1_loss_relu1_0_split
I0819 12:37:46.000098  4343 net.cpp:434] loss1_conv1_loss_relu1_0_split <- loss1_conv1
I0819 12:37:46.000104  4343 net.cpp:408] loss1_conv1_loss_relu1_0_split -> loss1_conv1_loss_relu1_0_split_0
I0819 12:37:46.000111  4343 net.cpp:408] loss1_conv1_loss_relu1_0_split -> loss1_conv1_loss_relu1_0_split_1
I0819 12:37:46.000150  4343 net.cpp:150] Setting up loss1_conv1_loss_relu1_0_split
I0819 12:37:46.000156  4343 net.cpp:157] Top shape: 2 512 96 96 (9437184)
I0819 12:37:46.000161  4343 net.cpp:157] Top shape: 2 512 96 96 (9437184)
I0819 12:37:46.000164  4343 net.cpp:165] Memory required for data: 3143358748
I0819 12:37:46.000167  4343 layer_factory.hpp:77] Creating layer LFCN_1_5x5
I0819 12:37:46.000177  4343 net.cpp:100] Creating Layer LFCN_1_5x5
I0819 12:37:46.000181  4343 net.cpp:434] LFCN_1_5x5 <- loss1_conv1_loss_relu1_0_split_0
I0819 12:37:46.000187  4343 net.cpp:408] LFCN_1_5x5 -> LFCN_1_5x5
I0819 12:37:46.004905  4343 net.cpp:150] Setting up LFCN_1_5x5
I0819 12:37:46.004920  4343 net.cpp:157] Top shape: 2 9 96 96 (165888)
I0819 12:37:46.004925  4343 net.cpp:165] Memory required for data: 3144022300
I0819 12:37:46.004931  4343 layer_factory.hpp:77] Creating layer LFCN_1_5x5_LFCN_1_5x5_0_split
I0819 12:37:46.004940  4343 net.cpp:100] Creating Layer LFCN_1_5x5_LFCN_1_5x5_0_split
I0819 12:37:46.004945  4343 net.cpp:434] LFCN_1_5x5_LFCN_1_5x5_0_split <- LFCN_1_5x5
I0819 12:37:46.004953  4343 net.cpp:408] LFCN_1_5x5_LFCN_1_5x5_0_split -> LFCN_1_5x5_LFCN_1_5x5_0_split_0
I0819 12:37:46.004962  4343 net.cpp:408] LFCN_1_5x5_LFCN_1_5x5_0_split -> LFCN_1_5x5_LFCN_1_5x5_0_split_1
I0819 12:37:46.004971  4343 net.cpp:408] LFCN_1_5x5_LFCN_1_5x5_0_split -> LFCN_1_5x5_LFCN_1_5x5_0_split_2
I0819 12:37:46.005030  4343 net.cpp:150] Setting up LFCN_1_5x5_LFCN_1_5x5_0_split
I0819 12:37:46.005038  4343 net.cpp:157] Top shape: 2 9 96 96 (165888)
I0819 12:37:46.005044  4343 net.cpp:157] Top shape: 2 9 96 96 (165888)
I0819 12:37:46.005048  4343 net.cpp:157] Top shape: 2 9 96 96 (165888)
I0819 12:37:46.005053  4343 net.cpp:165] Memory required for data: 3146012956
I0819 12:37:46.005056  4343 layer_factory.hpp:77] Creating layer detection_loss_1_5x5
I0819 12:37:46.005066  4343 net.cpp:100] Creating Layer detection_loss_1_5x5
I0819 12:37:46.005070  4343 net.cpp:434] detection_loss_1_5x5 <- LFCN_1_5x5_LFCN_1_5x5_0_split_0
I0819 12:37:46.005076  4343 net.cpp:434] detection_loss_1_5x5 <- label_1_5x5_data_1_split_0
I0819 12:37:46.005084  4343 net.cpp:408] detection_loss_1_5x5 -> loss_1_5x5
I0819 12:37:46.005095  4343 layer_factory.hpp:77] Creating layer detection_loss_1_5x5
I0819 12:37:46.005570  4343 net.cpp:150] Setting up detection_loss_1_5x5
I0819 12:37:46.005580  4343 net.cpp:157] Top shape: 1 1 1 2 (2)
I0819 12:37:46.005584  4343 net.cpp:160]     with loss weight 0.9
I0819 12:37:46.005595  4343 net.cpp:165] Memory required for data: 3146012964
I0819 12:37:46.005599  4343 layer_factory.hpp:77] Creating layer detection_accuracy_1_5x5
I0819 12:37:46.005609  4343 net.cpp:100] Creating Layer detection_accuracy_1_5x5
I0819 12:37:46.005612  4343 net.cpp:434] detection_accuracy_1_5x5 <- LFCN_1_5x5_LFCN_1_5x5_0_split_1
I0819 12:37:46.005617  4343 net.cpp:434] detection_accuracy_1_5x5 <- label_1_5x5_data_1_split_1
I0819 12:37:46.005625  4343 net.cpp:408] detection_accuracy_1_5x5 -> accuracy_1_5x5
I0819 12:37:46.005640  4343 net.cpp:408] detection_accuracy_1_5x5 -> boxiou_1_5x5
I0819 12:37:46.005686  4343 net.cpp:150] Setting up detection_accuracy_1_5x5
I0819 12:37:46.005693  4343 net.cpp:157] Top shape: 1 1 1 2 (2)
I0819 12:37:46.005698  4343 net.cpp:157] Top shape: 1 1 1 1 (1)
I0819 12:37:46.005702  4343 net.cpp:165] Memory required for data: 3146012976
I0819 12:37:46.005707  4343 layer_factory.hpp:77] Creating layer LFCN_1_7x7
I0819 12:37:46.005719  4343 net.cpp:100] Creating Layer LFCN_1_7x7
I0819 12:37:46.005723  4343 net.cpp:434] LFCN_1_7x7 <- loss1_conv1_loss_relu1_0_split_1
I0819 12:37:46.005733  4343 net.cpp:408] LFCN_1_7x7 -> LFCN_1_7x7
I0819 12:37:46.012477  4343 net.cpp:150] Setting up LFCN_1_7x7
I0819 12:37:46.012491  4343 net.cpp:157] Top shape: 2 9 96 96 (165888)
I0819 12:37:46.012495  4343 net.cpp:165] Memory required for data: 3146676528
I0819 12:37:46.012501  4343 layer_factory.hpp:77] Creating layer LFCN_1_7x7_LFCN_1_7x7_0_split
I0819 12:37:46.012506  4343 net.cpp:100] Creating Layer LFCN_1_7x7_LFCN_1_7x7_0_split
I0819 12:37:46.012509  4343 net.cpp:434] LFCN_1_7x7_LFCN_1_7x7_0_split <- LFCN_1_7x7
I0819 12:37:46.012514  4343 net.cpp:408] LFCN_1_7x7_LFCN_1_7x7_0_split -> LFCN_1_7x7_LFCN_1_7x7_0_split_0
I0819 12:37:46.012522  4343 net.cpp:408] LFCN_1_7x7_LFCN_1_7x7_0_split -> LFCN_1_7x7_LFCN_1_7x7_0_split_1
I0819 12:37:46.012527  4343 net.cpp:408] LFCN_1_7x7_LFCN_1_7x7_0_split -> LFCN_1_7x7_LFCN_1_7x7_0_split_2
I0819 12:37:46.012578  4343 net.cpp:150] Setting up LFCN_1_7x7_LFCN_1_7x7_0_split
I0819 12:37:46.012585  4343 net.cpp:157] Top shape: 2 9 96 96 (165888)
I0819 12:37:46.012589  4343 net.cpp:157] Top shape: 2 9 96 96 (165888)
I0819 12:37:46.012593  4343 net.cpp:157] Top shape: 2 9 96 96 (165888)
I0819 12:37:46.012596  4343 net.cpp:165] Memory required for data: 3148667184
I0819 12:37:46.012599  4343 layer_factory.hpp:77] Creating layer detection_loss_1_7x7
I0819 12:37:46.012604  4343 net.cpp:100] Creating Layer detection_loss_1_7x7
I0819 12:37:46.012609  4343 net.cpp:434] detection_loss_1_7x7 <- LFCN_1_7x7_LFCN_1_7x7_0_split_0
I0819 12:37:46.012612  4343 net.cpp:434] detection_loss_1_7x7 <- label_1_7x7_data_2_split_0
I0819 12:37:46.012620  4343 net.cpp:408] detection_loss_1_7x7 -> loss_1_7x7
I0819 12:37:46.012627  4343 layer_factory.hpp:77] Creating layer detection_loss_1_7x7
I0819 12:37:46.012998  4343 net.cpp:150] Setting up detection_loss_1_7x7
I0819 12:37:46.013008  4343 net.cpp:157] Top shape: 1 1 1 2 (2)
I0819 12:37:46.013011  4343 net.cpp:160]     with loss weight 0.9
I0819 12:37:46.013018  4343 net.cpp:165] Memory required for data: 3148667192
I0819 12:37:46.013021  4343 layer_factory.hpp:77] Creating layer detection_accuracy_1_7x7
I0819 12:37:46.013026  4343 net.cpp:100] Creating Layer detection_accuracy_1_7x7
I0819 12:37:46.013031  4343 net.cpp:434] detection_accuracy_1_7x7 <- LFCN_1_7x7_LFCN_1_7x7_0_split_1
I0819 12:37:46.013034  4343 net.cpp:434] detection_accuracy_1_7x7 <- label_1_7x7_data_2_split_1
I0819 12:37:46.013041  4343 net.cpp:408] detection_accuracy_1_7x7 -> accuracy_1_7x7
I0819 12:37:46.013047  4343 net.cpp:408] detection_accuracy_1_7x7 -> boxiou_1_7x7
I0819 12:37:46.013084  4343 net.cpp:150] Setting up detection_accuracy_1_7x7
I0819 12:37:46.013093  4343 net.cpp:157] Top shape: 1 1 1 2 (2)
I0819 12:37:46.013099  4343 net.cpp:157] Top shape: 1 1 1 1 (1)
I0819 12:37:46.013103  4343 net.cpp:165] Memory required for data: 3148667204
I0819 12:37:46.013108  4343 layer_factory.hpp:77] Creating layer pool4
I0819 12:37:46.013116  4343 net.cpp:100] Creating Layer pool4
I0819 12:37:46.013121  4343 net.cpp:434] pool4 <- conv4_3_new_conv4_concat_0_split_1
I0819 12:37:46.013131  4343 net.cpp:408] pool4 -> pool4
I0819 12:37:46.013186  4343 net.cpp:150] Setting up pool4
I0819 12:37:46.013197  4343 net.cpp:157] Top shape: 2 513 48 48 (2363904)
I0819 12:37:46.013202  4343 net.cpp:165] Memory required for data: 3158122820
I0819 12:37:46.013207  4343 layer_factory.hpp:77] Creating layer conv5_1_new
I0819 12:37:46.013217  4343 net.cpp:100] Creating Layer conv5_1_new
I0819 12:37:46.013222  4343 net.cpp:434] conv5_1_new <- pool4
I0819 12:37:46.013232  4343 net.cpp:408] conv5_1_new -> conv5_1
I0819 12:37:46.026880  4343 net.cpp:150] Setting up conv5_1_new
I0819 12:37:46.026909  4343 net.cpp:157] Top shape: 2 512 48 48 (2359296)
I0819 12:37:46.026914  4343 net.cpp:165] Memory required for data: 3167560004
I0819 12:37:46.026922  4343 layer_factory.hpp:77] Creating layer relu5_1
I0819 12:37:46.026933  4343 net.cpp:100] Creating Layer relu5_1
I0819 12:37:46.026942  4343 net.cpp:434] relu5_1 <- conv5_1
I0819 12:37:46.026948  4343 net.cpp:395] relu5_1 -> conv5_1 (in-place)
I0819 12:37:46.027112  4343 net.cpp:150] Setting up relu5_1
I0819 12:37:46.027120  4343 net.cpp:157] Top shape: 2 512 48 48 (2359296)
I0819 12:37:46.027124  4343 net.cpp:165] Memory required for data: 3176997188
I0819 12:37:46.027127  4343 layer_factory.hpp:77] Creating layer conv5_2
I0819 12:37:46.027137  4343 net.cpp:100] Creating Layer conv5_2
I0819 12:37:46.027140  4343 net.cpp:434] conv5_2 <- conv5_1
I0819 12:37:46.027145  4343 net.cpp:408] conv5_2 -> conv5_2
I0819 12:37:46.033068  4343 net.cpp:150] Setting up conv5_2
I0819 12:37:46.033100  4343 net.cpp:157] Top shape: 2 512 48 48 (2359296)
I0819 12:37:46.033104  4343 net.cpp:165] Memory required for data: 3186434372
I0819 12:37:46.033113  4343 layer_factory.hpp:77] Creating layer relu5_2
I0819 12:37:46.033125  4343 net.cpp:100] Creating Layer relu5_2
I0819 12:37:46.033131  4343 net.cpp:434] relu5_2 <- conv5_2
I0819 12:37:46.033135  4343 net.cpp:395] relu5_2 -> conv5_2 (in-place)
I0819 12:37:46.033634  4343 net.cpp:150] Setting up relu5_2
I0819 12:37:46.033646  4343 net.cpp:157] Top shape: 2 512 48 48 (2359296)
I0819 12:37:46.033650  4343 net.cpp:165] Memory required for data: 3195871556
I0819 12:37:46.033654  4343 layer_factory.hpp:77] Creating layer conv5_3
I0819 12:37:46.033664  4343 net.cpp:100] Creating Layer conv5_3
I0819 12:37:46.033668  4343 net.cpp:434] conv5_3 <- conv5_2
I0819 12:37:46.033674  4343 net.cpp:408] conv5_3 -> conv5_3
I0819 12:37:46.039711  4343 net.cpp:150] Setting up conv5_3
I0819 12:37:46.039742  4343 net.cpp:157] Top shape: 2 512 48 48 (2359296)
I0819 12:37:46.039747  4343 net.cpp:165] Memory required for data: 3205308740
I0819 12:37:46.039757  4343 layer_factory.hpp:77] Creating layer relu5_3
I0819 12:37:46.039767  4343 net.cpp:100] Creating Layer relu5_3
I0819 12:37:46.039774  4343 net.cpp:434] relu5_3 <- conv5_3
I0819 12:37:46.039782  4343 net.cpp:395] relu5_3 -> conv5_3 (in-place)
I0819 12:37:46.039949  4343 net.cpp:150] Setting up relu5_3
I0819 12:37:46.039958  4343 net.cpp:157] Top shape: 2 512 48 48 (2359296)
I0819 12:37:46.039961  4343 net.cpp:165] Memory required for data: 3214745924
I0819 12:37:46.039965  4343 layer_factory.hpp:77] Creating layer conv5_3_relu5_3_0_split
I0819 12:37:46.039973  4343 net.cpp:100] Creating Layer conv5_3_relu5_3_0_split
I0819 12:37:46.039975  4343 net.cpp:434] conv5_3_relu5_3_0_split <- conv5_3
I0819 12:37:46.039980  4343 net.cpp:408] conv5_3_relu5_3_0_split -> conv5_3_relu5_3_0_split_0
I0819 12:37:46.039988  4343 net.cpp:408] conv5_3_relu5_3_0_split -> conv5_3_relu5_3_0_split_1
I0819 12:37:46.039993  4343 net.cpp:408] conv5_3_relu5_3_0_split -> conv5_3_relu5_3_0_split_2
I0819 12:37:46.040046  4343 net.cpp:150] Setting up conv5_3_relu5_3_0_split
I0819 12:37:46.040052  4343 net.cpp:157] Top shape: 2 512 48 48 (2359296)
I0819 12:37:46.040057  4343 net.cpp:157] Top shape: 2 512 48 48 (2359296)
I0819 12:37:46.040061  4343 net.cpp:157] Top shape: 2 512 48 48 (2359296)
I0819 12:37:46.040064  4343 net.cpp:165] Memory required for data: 3243057476
I0819 12:37:46.040067  4343 layer_factory.hpp:77] Creating layer LFCN_2_5x5
I0819 12:37:46.040077  4343 net.cpp:100] Creating Layer LFCN_2_5x5
I0819 12:37:46.040083  4343 net.cpp:434] LFCN_2_5x5 <- conv5_3_relu5_3_0_split_0
I0819 12:37:46.040091  4343 net.cpp:408] LFCN_2_5x5 -> LFCN_2_5x5
I0819 12:37:46.044934  4343 net.cpp:150] Setting up LFCN_2_5x5
I0819 12:37:46.044948  4343 net.cpp:157] Top shape: 2 9 48 48 (41472)
I0819 12:37:46.044951  4343 net.cpp:165] Memory required for data: 3243223364
I0819 12:37:46.044965  4343 layer_factory.hpp:77] Creating layer LFCN_2_5x5_LFCN_2_5x5_0_split
I0819 12:37:46.044975  4343 net.cpp:100] Creating Layer LFCN_2_5x5_LFCN_2_5x5_0_split
I0819 12:37:46.044980  4343 net.cpp:434] LFCN_2_5x5_LFCN_2_5x5_0_split <- LFCN_2_5x5
I0819 12:37:46.044984  4343 net.cpp:408] LFCN_2_5x5_LFCN_2_5x5_0_split -> LFCN_2_5x5_LFCN_2_5x5_0_split_0
I0819 12:37:46.044991  4343 net.cpp:408] LFCN_2_5x5_LFCN_2_5x5_0_split -> LFCN_2_5x5_LFCN_2_5x5_0_split_1
I0819 12:37:46.044997  4343 net.cpp:408] LFCN_2_5x5_LFCN_2_5x5_0_split -> LFCN_2_5x5_LFCN_2_5x5_0_split_2
I0819 12:37:46.045049  4343 net.cpp:150] Setting up LFCN_2_5x5_LFCN_2_5x5_0_split
I0819 12:37:46.045055  4343 net.cpp:157] Top shape: 2 9 48 48 (41472)
I0819 12:37:46.045059  4343 net.cpp:157] Top shape: 2 9 48 48 (41472)
I0819 12:37:46.045063  4343 net.cpp:157] Top shape: 2 9 48 48 (41472)
I0819 12:37:46.045066  4343 net.cpp:165] Memory required for data: 3243721028
I0819 12:37:46.045070  4343 layer_factory.hpp:77] Creating layer detection_loss_2_5x5
I0819 12:37:46.045078  4343 net.cpp:100] Creating Layer detection_loss_2_5x5
I0819 12:37:46.045080  4343 net.cpp:434] detection_loss_2_5x5 <- LFCN_2_5x5_LFCN_2_5x5_0_split_0
I0819 12:37:46.045085  4343 net.cpp:434] detection_loss_2_5x5 <- label_2_5x5_data_3_split_0
I0819 12:37:46.045091  4343 net.cpp:408] detection_loss_2_5x5 -> loss_2_5x5
I0819 12:37:46.045100  4343 layer_factory.hpp:77] Creating layer detection_loss_2_5x5
I0819 12:37:46.045825  4343 net.cpp:150] Setting up detection_loss_2_5x5
I0819 12:37:46.045836  4343 net.cpp:157] Top shape: 1 1 1 2 (2)
I0819 12:37:46.045840  4343 net.cpp:160]     with loss weight 1
I0819 12:37:46.045852  4343 net.cpp:165] Memory required for data: 3243721036
I0819 12:37:46.045855  4343 layer_factory.hpp:77] Creating layer detection_accuracy_2_5x5
I0819 12:37:46.045862  4343 net.cpp:100] Creating Layer detection_accuracy_2_5x5
I0819 12:37:46.045866  4343 net.cpp:434] detection_accuracy_2_5x5 <- LFCN_2_5x5_LFCN_2_5x5_0_split_1
I0819 12:37:46.045871  4343 net.cpp:434] detection_accuracy_2_5x5 <- label_2_5x5_data_3_split_1
I0819 12:37:46.045878  4343 net.cpp:408] detection_accuracy_2_5x5 -> accuracy_2_5x5
I0819 12:37:46.045886  4343 net.cpp:408] detection_accuracy_2_5x5 -> boxiou_2_5x5
I0819 12:37:46.045924  4343 net.cpp:150] Setting up detection_accuracy_2_5x5
I0819 12:37:46.045931  4343 net.cpp:157] Top shape: 1 1 1 2 (2)
I0819 12:37:46.045935  4343 net.cpp:157] Top shape: 1 1 1 1 (1)
I0819 12:37:46.045938  4343 net.cpp:165] Memory required for data: 3243721048
I0819 12:37:46.045941  4343 layer_factory.hpp:77] Creating layer LFCN_2_7x7
I0819 12:37:46.045951  4343 net.cpp:100] Creating Layer LFCN_2_7x7
I0819 12:37:46.045955  4343 net.cpp:434] LFCN_2_7x7 <- conv5_3_relu5_3_0_split_1
I0819 12:37:46.045960  4343 net.cpp:408] LFCN_2_7x7 -> LFCN_2_7x7
I0819 12:37:46.053087  4343 net.cpp:150] Setting up LFCN_2_7x7
I0819 12:37:46.053112  4343 net.cpp:157] Top shape: 2 9 48 48 (41472)
I0819 12:37:46.053117  4343 net.cpp:165] Memory required for data: 3243886936
I0819 12:37:46.053124  4343 layer_factory.hpp:77] Creating layer LFCN_2_7x7_LFCN_2_7x7_0_split
I0819 12:37:46.053135  4343 net.cpp:100] Creating Layer LFCN_2_7x7_LFCN_2_7x7_0_split
I0819 12:37:46.053143  4343 net.cpp:434] LFCN_2_7x7_LFCN_2_7x7_0_split <- LFCN_2_7x7
I0819 12:37:46.053148  4343 net.cpp:408] LFCN_2_7x7_LFCN_2_7x7_0_split -> LFCN_2_7x7_LFCN_2_7x7_0_split_0
I0819 12:37:46.053156  4343 net.cpp:408] LFCN_2_7x7_LFCN_2_7x7_0_split -> LFCN_2_7x7_LFCN_2_7x7_0_split_1
I0819 12:37:46.053160  4343 net.cpp:408] LFCN_2_7x7_LFCN_2_7x7_0_split -> LFCN_2_7x7_LFCN_2_7x7_0_split_2
I0819 12:37:46.053205  4343 net.cpp:150] Setting up LFCN_2_7x7_LFCN_2_7x7_0_split
I0819 12:37:46.053211  4343 net.cpp:157] Top shape: 2 9 48 48 (41472)
I0819 12:37:46.053215  4343 net.cpp:157] Top shape: 2 9 48 48 (41472)
I0819 12:37:46.053218  4343 net.cpp:157] Top shape: 2 9 48 48 (41472)
I0819 12:37:46.053221  4343 net.cpp:165] Memory required for data: 3244384600
I0819 12:37:46.053223  4343 layer_factory.hpp:77] Creating layer detection_loss_2_7x7
I0819 12:37:46.053231  4343 net.cpp:100] Creating Layer detection_loss_2_7x7
I0819 12:37:46.053233  4343 net.cpp:434] detection_loss_2_7x7 <- LFCN_2_7x7_LFCN_2_7x7_0_split_0
I0819 12:37:46.053241  4343 net.cpp:434] detection_loss_2_7x7 <- label_2_7x7_data_4_split_0
I0819 12:37:46.053246  4343 net.cpp:408] detection_loss_2_7x7 -> loss_2_7x7
I0819 12:37:46.053253  4343 layer_factory.hpp:77] Creating layer detection_loss_2_7x7
I0819 12:37:46.053598  4343 net.cpp:150] Setting up detection_loss_2_7x7
I0819 12:37:46.053608  4343 net.cpp:157] Top shape: 1 1 1 2 (2)
I0819 12:37:46.053611  4343 net.cpp:160]     with loss weight 1
I0819 12:37:46.053622  4343 net.cpp:165] Memory required for data: 3244384608
I0819 12:37:46.053624  4343 layer_factory.hpp:77] Creating layer detection_accuracy_2_7x7
I0819 12:37:46.053632  4343 net.cpp:100] Creating Layer detection_accuracy_2_7x7
I0819 12:37:46.053634  4343 net.cpp:434] detection_accuracy_2_7x7 <- LFCN_2_7x7_LFCN_2_7x7_0_split_1
I0819 12:37:46.053639  4343 net.cpp:434] detection_accuracy_2_7x7 <- label_2_7x7_data_4_split_1
I0819 12:37:46.053645  4343 net.cpp:408] detection_accuracy_2_7x7 -> accuracy_2_7x7
I0819 12:37:46.053653  4343 net.cpp:408] detection_accuracy_2_7x7 -> boxiou_2_7x7
I0819 12:37:46.053694  4343 net.cpp:150] Setting up detection_accuracy_2_7x7
I0819 12:37:46.053700  4343 net.cpp:157] Top shape: 1 1 1 2 (2)
I0819 12:37:46.053704  4343 net.cpp:157] Top shape: 1 1 1 1 (1)
I0819 12:37:46.053707  4343 net.cpp:165] Memory required for data: 3244384620
I0819 12:37:46.053710  4343 layer_factory.hpp:77] Creating layer pool5
I0819 12:37:46.053719  4343 net.cpp:100] Creating Layer pool5
I0819 12:37:46.053722  4343 net.cpp:434] pool5 <- conv5_3_relu5_3_0_split_2
I0819 12:37:46.053728  4343 net.cpp:408] pool5 -> pool5
I0819 12:37:46.053766  4343 net.cpp:150] Setting up pool5
I0819 12:37:46.053771  4343 net.cpp:157] Top shape: 2 512 24 24 (589824)
I0819 12:37:46.053776  4343 net.cpp:165] Memory required for data: 3246743916
I0819 12:37:46.053778  4343 layer_factory.hpp:77] Creating layer conv6_1
I0819 12:37:46.053787  4343 net.cpp:100] Creating Layer conv6_1
I0819 12:37:46.053791  4343 net.cpp:434] conv6_1 <- pool5
I0819 12:37:46.053798  4343 net.cpp:408] conv6_1 -> conv6_1
I0819 12:37:46.112224  4343 net.cpp:150] Setting up conv6_1
I0819 12:37:46.112251  4343 net.cpp:157] Top shape: 2 512 24 24 (589824)
I0819 12:37:46.112254  4343 net.cpp:165] Memory required for data: 3249103212
I0819 12:37:46.112262  4343 layer_factory.hpp:77] Creating layer relu6_1
I0819 12:37:46.112270  4343 net.cpp:100] Creating Layer relu6_1
I0819 12:37:46.112277  4343 net.cpp:434] relu6_1 <- conv6_1
I0819 12:37:46.112282  4343 net.cpp:395] relu6_1 -> conv6_1 (in-place)
I0819 12:37:46.112440  4343 net.cpp:150] Setting up relu6_1
I0819 12:37:46.112448  4343 net.cpp:157] Top shape: 2 512 24 24 (589824)
I0819 12:37:46.112452  4343 net.cpp:165] Memory required for data: 3251462508
I0819 12:37:46.112455  4343 layer_factory.hpp:77] Creating layer conv6_1_relu6_1_0_split
I0819 12:37:46.112460  4343 net.cpp:100] Creating Layer conv6_1_relu6_1_0_split
I0819 12:37:46.112464  4343 net.cpp:434] conv6_1_relu6_1_0_split <- conv6_1
I0819 12:37:46.112470  4343 net.cpp:408] conv6_1_relu6_1_0_split -> conv6_1_relu6_1_0_split_0
I0819 12:37:46.112476  4343 net.cpp:408] conv6_1_relu6_1_0_split -> conv6_1_relu6_1_0_split_1
I0819 12:37:46.112481  4343 net.cpp:408] conv6_1_relu6_1_0_split -> conv6_1_relu6_1_0_split_2
I0819 12:37:46.112536  4343 net.cpp:150] Setting up conv6_1_relu6_1_0_split
I0819 12:37:46.112541  4343 net.cpp:157] Top shape: 2 512 24 24 (589824)
I0819 12:37:46.112545  4343 net.cpp:157] Top shape: 2 512 24 24 (589824)
I0819 12:37:46.112548  4343 net.cpp:157] Top shape: 2 512 24 24 (589824)
I0819 12:37:46.112551  4343 net.cpp:165] Memory required for data: 3258540396
I0819 12:37:46.112555  4343 layer_factory.hpp:77] Creating layer LFCN_3_5x5
I0819 12:37:46.112565  4343 net.cpp:100] Creating Layer LFCN_3_5x5
I0819 12:37:46.112568  4343 net.cpp:434] LFCN_3_5x5 <- conv6_1_relu6_1_0_split_0
I0819 12:37:46.112576  4343 net.cpp:408] LFCN_3_5x5 -> LFCN_3_5x5
I0819 12:37:46.116477  4343 net.cpp:150] Setting up LFCN_3_5x5
I0819 12:37:46.116489  4343 net.cpp:157] Top shape: 2 9 24 24 (10368)
I0819 12:37:46.116493  4343 net.cpp:165] Memory required for data: 3258581868
I0819 12:37:46.116499  4343 layer_factory.hpp:77] Creating layer LFCN_3_5x5_LFCN_3_5x5_0_split
I0819 12:37:46.116504  4343 net.cpp:100] Creating Layer LFCN_3_5x5_LFCN_3_5x5_0_split
I0819 12:37:46.116508  4343 net.cpp:434] LFCN_3_5x5_LFCN_3_5x5_0_split <- LFCN_3_5x5
I0819 12:37:46.116514  4343 net.cpp:408] LFCN_3_5x5_LFCN_3_5x5_0_split -> LFCN_3_5x5_LFCN_3_5x5_0_split_0
I0819 12:37:46.116523  4343 net.cpp:408] LFCN_3_5x5_LFCN_3_5x5_0_split -> LFCN_3_5x5_LFCN_3_5x5_0_split_1
I0819 12:37:46.116528  4343 net.cpp:408] LFCN_3_5x5_LFCN_3_5x5_0_split -> LFCN_3_5x5_LFCN_3_5x5_0_split_2
I0819 12:37:46.116580  4343 net.cpp:150] Setting up LFCN_3_5x5_LFCN_3_5x5_0_split
I0819 12:37:46.116585  4343 net.cpp:157] Top shape: 2 9 24 24 (10368)
I0819 12:37:46.116588  4343 net.cpp:157] Top shape: 2 9 24 24 (10368)
I0819 12:37:46.116592  4343 net.cpp:157] Top shape: 2 9 24 24 (10368)
I0819 12:37:46.116595  4343 net.cpp:165] Memory required for data: 3258706284
I0819 12:37:46.116598  4343 layer_factory.hpp:77] Creating layer detection_loss_3_5x5
I0819 12:37:46.116605  4343 net.cpp:100] Creating Layer detection_loss_3_5x5
I0819 12:37:46.116609  4343 net.cpp:434] detection_loss_3_5x5 <- LFCN_3_5x5_LFCN_3_5x5_0_split_0
I0819 12:37:46.116614  4343 net.cpp:434] detection_loss_3_5x5 <- label_3_5x5_data_5_split_0
I0819 12:37:46.116621  4343 net.cpp:408] detection_loss_3_5x5 -> loss_3_5x5
I0819 12:37:46.116629  4343 layer_factory.hpp:77] Creating layer detection_loss_3_5x5
I0819 12:37:46.116956  4343 net.cpp:150] Setting up detection_loss_3_5x5
I0819 12:37:46.116966  4343 net.cpp:157] Top shape: 1 1 1 2 (2)
I0819 12:37:46.116969  4343 net.cpp:160]     with loss weight 1
I0819 12:37:46.116981  4343 net.cpp:165] Memory required for data: 3258706292
I0819 12:37:46.116983  4343 layer_factory.hpp:77] Creating layer detection_accuracy_3_5x5
I0819 12:37:46.116991  4343 net.cpp:100] Creating Layer detection_accuracy_3_5x5
I0819 12:37:46.116993  4343 net.cpp:434] detection_accuracy_3_5x5 <- LFCN_3_5x5_LFCN_3_5x5_0_split_1
I0819 12:37:46.116998  4343 net.cpp:434] detection_accuracy_3_5x5 <- label_3_5x5_data_5_split_1
I0819 12:37:46.117002  4343 net.cpp:408] detection_accuracy_3_5x5 -> accuracy_3_5x5
I0819 12:37:46.117009  4343 net.cpp:408] detection_accuracy_3_5x5 -> boxiou_3_5x5
I0819 12:37:46.117048  4343 net.cpp:150] Setting up detection_accuracy_3_5x5
I0819 12:37:46.117054  4343 net.cpp:157] Top shape: 1 1 1 2 (2)
I0819 12:37:46.117058  4343 net.cpp:157] Top shape: 1 1 1 1 (1)
I0819 12:37:46.117061  4343 net.cpp:165] Memory required for data: 3258706304
I0819 12:37:46.117064  4343 layer_factory.hpp:77] Creating layer LFCN_3_7x7
I0819 12:37:46.117072  4343 net.cpp:100] Creating Layer LFCN_3_7x7
I0819 12:37:46.117075  4343 net.cpp:434] LFCN_3_7x7 <- conv6_1_relu6_1_0_split_1
I0819 12:37:46.117081  4343 net.cpp:408] LFCN_3_7x7 -> LFCN_3_7x7
I0819 12:37:46.124754  4343 net.cpp:150] Setting up LFCN_3_7x7
I0819 12:37:46.124774  4343 net.cpp:157] Top shape: 2 9 24 24 (10368)
I0819 12:37:46.124778  4343 net.cpp:165] Memory required for data: 3258747776
I0819 12:37:46.124784  4343 layer_factory.hpp:77] Creating layer LFCN_3_7x7_LFCN_3_7x7_0_split
I0819 12:37:46.124792  4343 net.cpp:100] Creating Layer LFCN_3_7x7_LFCN_3_7x7_0_split
I0819 12:37:46.124799  4343 net.cpp:434] LFCN_3_7x7_LFCN_3_7x7_0_split <- LFCN_3_7x7
I0819 12:37:46.124804  4343 net.cpp:408] LFCN_3_7x7_LFCN_3_7x7_0_split -> LFCN_3_7x7_LFCN_3_7x7_0_split_0
I0819 12:37:46.124809  4343 net.cpp:408] LFCN_3_7x7_LFCN_3_7x7_0_split -> LFCN_3_7x7_LFCN_3_7x7_0_split_1
I0819 12:37:46.124816  4343 net.cpp:408] LFCN_3_7x7_LFCN_3_7x7_0_split -> LFCN_3_7x7_LFCN_3_7x7_0_split_2
I0819 12:37:46.124868  4343 net.cpp:150] Setting up LFCN_3_7x7_LFCN_3_7x7_0_split
I0819 12:37:46.124876  4343 net.cpp:157] Top shape: 2 9 24 24 (10368)
I0819 12:37:46.124879  4343 net.cpp:157] Top shape: 2 9 24 24 (10368)
I0819 12:37:46.124883  4343 net.cpp:157] Top shape: 2 9 24 24 (10368)
I0819 12:37:46.124886  4343 net.cpp:165] Memory required for data: 3258872192
I0819 12:37:46.124889  4343 layer_factory.hpp:77] Creating layer detection_loss_3_7x7
I0819 12:37:46.124896  4343 net.cpp:100] Creating Layer detection_loss_3_7x7
I0819 12:37:46.124900  4343 net.cpp:434] detection_loss_3_7x7 <- LFCN_3_7x7_LFCN_3_7x7_0_split_0
I0819 12:37:46.124904  4343 net.cpp:434] detection_loss_3_7x7 <- label_3_7x7_data_6_split_0
I0819 12:37:46.124909  4343 net.cpp:408] detection_loss_3_7x7 -> loss_3_7x7
I0819 12:37:46.124917  4343 layer_factory.hpp:77] Creating layer detection_loss_3_7x7
I0819 12:37:46.125613  4343 net.cpp:150] Setting up detection_loss_3_7x7
I0819 12:37:46.125627  4343 net.cpp:157] Top shape: 1 1 1 2 (2)
I0819 12:37:46.125630  4343 net.cpp:160]     with loss weight 1
I0819 12:37:46.125639  4343 net.cpp:165] Memory required for data: 3258872200
I0819 12:37:46.125643  4343 layer_factory.hpp:77] Creating layer detection_accuracy_3_7x7
I0819 12:37:46.125650  4343 net.cpp:100] Creating Layer detection_accuracy_3_7x7
I0819 12:37:46.125653  4343 net.cpp:434] detection_accuracy_3_7x7 <- LFCN_3_7x7_LFCN_3_7x7_0_split_1
I0819 12:37:46.125658  4343 net.cpp:434] detection_accuracy_3_7x7 <- label_3_7x7_data_6_split_1
I0819 12:37:46.125663  4343 net.cpp:408] detection_accuracy_3_7x7 -> accuracy_3_7x7
I0819 12:37:46.125671  4343 net.cpp:408] detection_accuracy_3_7x7 -> boxiou_3_7x7
I0819 12:37:46.125715  4343 net.cpp:150] Setting up detection_accuracy_3_7x7
I0819 12:37:46.125720  4343 net.cpp:157] Top shape: 1 1 1 2 (2)
I0819 12:37:46.125725  4343 net.cpp:157] Top shape: 1 1 1 1 (1)
I0819 12:37:46.125727  4343 net.cpp:165] Memory required for data: 3258872212
I0819 12:37:46.125730  4343 layer_factory.hpp:77] Creating layer pool6
I0819 12:37:46.125737  4343 net.cpp:100] Creating Layer pool6
I0819 12:37:46.125741  4343 net.cpp:434] pool6 <- conv6_1_relu6_1_0_split_2
I0819 12:37:46.125746  4343 net.cpp:408] pool6 -> pool6
I0819 12:37:46.125787  4343 net.cpp:150] Setting up pool6
I0819 12:37:46.125792  4343 net.cpp:157] Top shape: 2 512 12 12 (147456)
I0819 12:37:46.125795  4343 net.cpp:165] Memory required for data: 3259462036
I0819 12:37:46.125798  4343 layer_factory.hpp:77] Creating layer LFCN_4_5x5
I0819 12:37:46.125808  4343 net.cpp:100] Creating Layer LFCN_4_5x5
I0819 12:37:46.125813  4343 net.cpp:434] LFCN_4_5x5 <- pool6
I0819 12:37:46.125818  4343 net.cpp:408] LFCN_4_5x5 -> LFCN_4_5x5
I0819 12:37:46.130167  4343 net.cpp:150] Setting up LFCN_4_5x5
I0819 12:37:46.130188  4343 net.cpp:157] Top shape: 2 9 12 12 (2592)
I0819 12:37:46.130192  4343 net.cpp:165] Memory required for data: 3259472404
I0819 12:37:46.130200  4343 layer_factory.hpp:77] Creating layer LFCN_4_5x5_LFCN_4_5x5_0_split
I0819 12:37:46.130209  4343 net.cpp:100] Creating Layer LFCN_4_5x5_LFCN_4_5x5_0_split
I0819 12:37:46.130213  4343 net.cpp:434] LFCN_4_5x5_LFCN_4_5x5_0_split <- LFCN_4_5x5
I0819 12:37:46.130220  4343 net.cpp:408] LFCN_4_5x5_LFCN_4_5x5_0_split -> LFCN_4_5x5_LFCN_4_5x5_0_split_0
I0819 12:37:46.130228  4343 net.cpp:408] LFCN_4_5x5_LFCN_4_5x5_0_split -> LFCN_4_5x5_LFCN_4_5x5_0_split_1
I0819 12:37:46.130234  4343 net.cpp:408] LFCN_4_5x5_LFCN_4_5x5_0_split -> LFCN_4_5x5_LFCN_4_5x5_0_split_2
I0819 12:37:46.130290  4343 net.cpp:150] Setting up LFCN_4_5x5_LFCN_4_5x5_0_split
I0819 12:37:46.130296  4343 net.cpp:157] Top shape: 2 9 12 12 (2592)
I0819 12:37:46.130300  4343 net.cpp:157] Top shape: 2 9 12 12 (2592)
I0819 12:37:46.130304  4343 net.cpp:157] Top shape: 2 9 12 12 (2592)
I0819 12:37:46.130307  4343 net.cpp:165] Memory required for data: 3259503508
I0819 12:37:46.130311  4343 layer_factory.hpp:77] Creating layer detection_loss_4_5x5
I0819 12:37:46.130317  4343 net.cpp:100] Creating Layer detection_loss_4_5x5
I0819 12:37:46.130321  4343 net.cpp:434] detection_loss_4_5x5 <- LFCN_4_5x5_LFCN_4_5x5_0_split_0
I0819 12:37:46.130326  4343 net.cpp:434] detection_loss_4_5x5 <- label_4_5x5_data_7_split_0
I0819 12:37:46.130331  4343 net.cpp:408] detection_loss_4_5x5 -> loss_4_5x5
I0819 12:37:46.130339  4343 layer_factory.hpp:77] Creating layer detection_loss_4_5x5
I0819 12:37:46.130682  4343 net.cpp:150] Setting up detection_loss_4_5x5
I0819 12:37:46.130692  4343 net.cpp:157] Top shape: 1 1 1 2 (2)
I0819 12:37:46.130694  4343 net.cpp:160]     with loss weight 1
I0819 12:37:46.130703  4343 net.cpp:165] Memory required for data: 3259503516
I0819 12:37:46.130707  4343 layer_factory.hpp:77] Creating layer detection_accuracy_4_5x5
I0819 12:37:46.130714  4343 net.cpp:100] Creating Layer detection_accuracy_4_5x5
I0819 12:37:46.130718  4343 net.cpp:434] detection_accuracy_4_5x5 <- LFCN_4_5x5_LFCN_4_5x5_0_split_1
I0819 12:37:46.130722  4343 net.cpp:434] detection_accuracy_4_5x5 <- label_4_5x5_data_7_split_1
I0819 12:37:46.130728  4343 net.cpp:408] detection_accuracy_4_5x5 -> accuracy_4_5x5
I0819 12:37:46.130735  4343 net.cpp:408] detection_accuracy_4_5x5 -> boxiou_4_5x5
I0819 12:37:46.130776  4343 net.cpp:150] Setting up detection_accuracy_4_5x5
I0819 12:37:46.130784  4343 net.cpp:157] Top shape: 1 1 1 2 (2)
I0819 12:37:46.130787  4343 net.cpp:157] Top shape: 1 1 1 1 (1)
I0819 12:37:46.130789  4343 net.cpp:165] Memory required for data: 3259503528
I0819 12:37:46.130792  4343 layer_factory.hpp:77] Creating layer proposals
I0819 12:37:46.130800  4343 net.cpp:100] Creating Layer proposals
I0819 12:37:46.130803  4343 net.cpp:434] proposals <- LFCN_1_5x5_LFCN_1_5x5_0_split_2
I0819 12:37:46.130808  4343 net.cpp:434] proposals <- LFCN_1_7x7_LFCN_1_7x7_0_split_2
I0819 12:37:46.130812  4343 net.cpp:434] proposals <- LFCN_2_5x5_LFCN_2_5x5_0_split_2
I0819 12:37:46.130815  4343 net.cpp:434] proposals <- LFCN_2_7x7_LFCN_2_7x7_0_split_2
I0819 12:37:46.130820  4343 net.cpp:434] proposals <- LFCN_3_5x5_LFCN_3_5x5_0_split_2
I0819 12:37:46.130823  4343 net.cpp:434] proposals <- LFCN_3_7x7_LFCN_3_7x7_0_split_2
I0819 12:37:46.130826  4343 net.cpp:434] proposals <- LFCN_4_5x5_LFCN_4_5x5_0_split_2
I0819 12:37:46.130832  4343 net.cpp:408] proposals -> proposals
I0819 12:37:46.130856  4343 net.cpp:150] Setting up proposals
I0819 12:37:46.130863  4343 net.cpp:157] Top shape: 1 5 1 1 (5)
I0819 12:37:46.130867  4343 net.cpp:165] Memory required for data: 3259503548
I0819 12:37:46.130869  4343 layer_factory.hpp:77] Creating layer proposal_info
I0819 12:37:46.130877  4343 net.cpp:100] Creating Layer proposal_info
I0819 12:37:46.130880  4343 net.cpp:434] proposal_info <- proposals
I0819 12:37:46.130885  4343 net.cpp:434] proposal_info <- gt_boxes
I0819 12:37:46.130889  4343 net.cpp:408] proposal_info -> rois
I0819 12:37:46.130897  4343 net.cpp:408] proposal_info -> proposal_labels
I0819 12:37:46.130903  4343 net.cpp:408] proposal_info -> proposal_targets
I0819 12:37:46.130909  4343 net.cpp:408] proposal_info -> box_inside_weights
I0819 12:37:46.130914  4343 net.cpp:408] proposal_info -> box_outside_weights
I0819 12:37:46.130920  4343 net.cpp:408] proposal_info -> match_gt_boxes
I0819 12:37:46.131012  4343 net.cpp:150] Setting up proposal_info
I0819 12:37:46.131019  4343 net.cpp:157] Top shape: 128 5 1 1 (640)
I0819 12:37:46.131023  4343 net.cpp:157] Top shape: 128 1 1 1 (128)
I0819 12:37:46.131027  4343 net.cpp:157] Top shape: 128 20 1 1 (2560)
I0819 12:37:46.131031  4343 net.cpp:157] Top shape: 128 20 1 1 (2560)
I0819 12:37:46.131036  4343 net.cpp:157] Top shape: 128 20 1 1 (2560)
I0819 12:37:46.131039  4343 net.cpp:157] Top shape: 128 6 1 1 (768)
I0819 12:37:46.131042  4343 net.cpp:165] Memory required for data: 3259540412
I0819 12:37:46.131045  4343 layer_factory.hpp:77] Creating layer rois_proposal_info_0_split
I0819 12:37:46.131049  4343 net.cpp:100] Creating Layer rois_proposal_info_0_split
I0819 12:37:46.131052  4343 net.cpp:434] rois_proposal_info_0_split <- rois
I0819 12:37:46.131057  4343 net.cpp:408] rois_proposal_info_0_split -> rois_proposal_info_0_split_0
I0819 12:37:46.131072  4343 net.cpp:408] rois_proposal_info_0_split -> rois_proposal_info_0_split_1
I0819 12:37:46.131078  4343 net.cpp:408] rois_proposal_info_0_split -> rois_proposal_info_0_split_2
I0819 12:37:46.131129  4343 net.cpp:150] Setting up rois_proposal_info_0_split
I0819 12:37:46.131134  4343 net.cpp:157] Top shape: 128 5 1 1 (640)
I0819 12:37:46.131139  4343 net.cpp:157] Top shape: 128 5 1 1 (640)
I0819 12:37:46.131142  4343 net.cpp:157] Top shape: 128 5 1 1 (640)
I0819 12:37:46.131145  4343 net.cpp:165] Memory required for data: 3259548092
I0819 12:37:46.131148  4343 layer_factory.hpp:77] Creating layer proposal_labels_proposal_info_1_split
I0819 12:37:46.131153  4343 net.cpp:100] Creating Layer proposal_labels_proposal_info_1_split
I0819 12:37:46.131157  4343 net.cpp:434] proposal_labels_proposal_info_1_split <- proposal_labels
I0819 12:37:46.131162  4343 net.cpp:408] proposal_labels_proposal_info_1_split -> proposal_labels_proposal_info_1_split_0
I0819 12:37:46.131167  4343 net.cpp:408] proposal_labels_proposal_info_1_split -> proposal_labels_proposal_info_1_split_1
I0819 12:37:46.131201  4343 net.cpp:150] Setting up proposal_labels_proposal_info_1_split
I0819 12:37:46.131207  4343 net.cpp:157] Top shape: 128 1 1 1 (128)
I0819 12:37:46.131211  4343 net.cpp:157] Top shape: 128 1 1 1 (128)
I0819 12:37:46.131213  4343 net.cpp:165] Memory required for data: 3259549116
I0819 12:37:46.131217  4343 layer_factory.hpp:77] Creating layer conv4_3_2x
I0819 12:37:46.131224  4343 net.cpp:100] Creating Layer conv4_3_2x
I0819 12:37:46.131228  4343 net.cpp:434] conv4_3_2x <- conv4_3_relu4_3_0_split_1
I0819 12:37:46.131235  4343 net.cpp:408] conv4_3_2x -> conv4_3_2x
I0819 12:37:46.131637  4343 net.cpp:150] Setting up conv4_3_2x
I0819 12:37:46.131646  4343 net.cpp:157] Top shape: 2 512 192 192 (37748736)
I0819 12:37:46.131649  4343 net.cpp:165] Memory required for data: 3410544060
I0819 12:37:46.131654  4343 layer_factory.hpp:77] Creating layer conv4_3_2x_new
I0819 12:37:46.131659  4343 net.cpp:100] Creating Layer conv4_3_2x_new
I0819 12:37:46.131662  4343 net.cpp:434] conv4_3_2x_new <- conv4_3_2x
I0819 12:37:46.131666  4343 net.cpp:434] conv4_3_2x_new <- ch4_pool2_ch4_pool2_0_split_2
I0819 12:37:46.131671  4343 net.cpp:408] conv4_3_2x_new -> conv4_3_2x_new
I0819 12:37:46.131696  4343 net.cpp:150] Setting up conv4_3_2x_new
I0819 12:37:46.131702  4343 net.cpp:157] Top shape: 2 513 192 192 (37822464)
I0819 12:37:46.131705  4343 net.cpp:165] Memory required for data: 3561833916
I0819 12:37:46.131708  4343 layer_factory.hpp:77] Creating layer conv4_3_2x_new_conv4_3_2x_new_0_split
I0819 12:37:46.131712  4343 net.cpp:100] Creating Layer conv4_3_2x_new_conv4_3_2x_new_0_split
I0819 12:37:46.131716  4343 net.cpp:434] conv4_3_2x_new_conv4_3_2x_new_0_split <- conv4_3_2x_new
I0819 12:37:46.131721  4343 net.cpp:408] conv4_3_2x_new_conv4_3_2x_new_0_split -> conv4_3_2x_new_conv4_3_2x_new_0_split_0
I0819 12:37:46.131726  4343 net.cpp:408] conv4_3_2x_new_conv4_3_2x_new_0_split -> conv4_3_2x_new_conv4_3_2x_new_0_split_1
I0819 12:37:46.131762  4343 net.cpp:150] Setting up conv4_3_2x_new_conv4_3_2x_new_0_split
I0819 12:37:46.131768  4343 net.cpp:157] Top shape: 2 513 192 192 (37822464)
I0819 12:37:46.131772  4343 net.cpp:157] Top shape: 2 513 192 192 (37822464)
I0819 12:37:46.131775  4343 net.cpp:165] Memory required for data: 3864413628
I0819 12:37:46.131778  4343 layer_factory.hpp:77] Creating layer roi_pool_org
I0819 12:37:46.131783  4343 net.cpp:100] Creating Layer roi_pool_org
I0819 12:37:46.131788  4343 net.cpp:434] roi_pool_org <- conv4_3_2x_new_conv4_3_2x_new_0_split_0
I0819 12:37:46.131791  4343 net.cpp:434] roi_pool_org <- rois_proposal_info_0_split_0
I0819 12:37:46.131796  4343 net.cpp:408] roi_pool_org -> roi_pool_org
I0819 12:37:46.131803  4343 roi_pooling_layer.cpp:33] Spatial scale: 0.25
I0819 12:37:46.131840  4343 net.cpp:150] Setting up roi_pool_org
I0819 12:37:46.131846  4343 net.cpp:157] Top shape: 128 513 7 7 (3217536)
I0819 12:37:46.131850  4343 net.cpp:165] Memory required for data: 3877283772
I0819 12:37:46.131853  4343 layer_factory.hpp:77] Creating layer roi_pool_ctx
I0819 12:37:46.131857  4343 net.cpp:100] Creating Layer roi_pool_ctx
I0819 12:37:46.131861  4343 net.cpp:434] roi_pool_ctx <- conv4_3_2x_new_conv4_3_2x_new_0_split_1
I0819 12:37:46.131866  4343 net.cpp:434] roi_pool_ctx <- rois_proposal_info_0_split_1
I0819 12:37:46.131870  4343 net.cpp:408] roi_pool_ctx -> roi_pool_ctx
I0819 12:37:46.131875  4343 roi_pooling_layer.cpp:33] Spatial scale: 0.25
I0819 12:37:46.131912  4343 net.cpp:150] Setting up roi_pool_ctx
I0819 12:37:46.131919  4343 net.cpp:157] Top shape: 128 513 7 7 (3217536)
I0819 12:37:46.131922  4343 net.cpp:165] Memory required for data: 3890153916
I0819 12:37:46.131925  4343 layer_factory.hpp:77] Creating layer roi_pool
I0819 12:37:46.131929  4343 net.cpp:100] Creating Layer roi_pool
I0819 12:37:46.131932  4343 net.cpp:434] roi_pool <- roi_pool_org
I0819 12:37:46.131937  4343 net.cpp:434] roi_pool <- roi_pool_ctx
I0819 12:37:46.131942  4343 net.cpp:408] roi_pool -> roi_pool
I0819 12:37:46.131963  4343 net.cpp:150] Setting up roi_pool
I0819 12:37:46.131969  4343 net.cpp:157] Top shape: 128 1026 7 7 (6435072)
I0819 12:37:46.131973  4343 net.cpp:165] Memory required for data: 3915894204
I0819 12:37:46.131975  4343 layer_factory.hpp:77] Creating layer roi_c1
I0819 12:37:46.131985  4343 net.cpp:100] Creating Layer roi_c1
I0819 12:37:46.131989  4343 net.cpp:434] roi_c1 <- roi_pool
I0819 12:37:46.131995  4343 net.cpp:408] roi_c1 -> roi_c1
I0819 12:37:46.249225  4343 net.cpp:150] Setting up roi_c1
I0819 12:37:46.249253  4343 net.cpp:157] Top shape: 128 512 5 5 (1638400)
I0819 12:37:46.249258  4343 net.cpp:165] Memory required for data: 3922447804
I0819 12:37:46.249266  4343 layer_factory.hpp:77] Creating layer roi_c1_relu
I0819 12:37:46.249279  4343 net.cpp:100] Creating Layer roi_c1_relu
I0819 12:37:46.249284  4343 net.cpp:434] roi_c1_relu <- roi_c1
I0819 12:37:46.249292  4343 net.cpp:395] roi_c1_relu -> roi_c1 (in-place)
I0819 12:37:46.249459  4343 net.cpp:150] Setting up roi_c1_relu
I0819 12:37:46.249467  4343 net.cpp:157] Top shape: 128 512 5 5 (1638400)
I0819 12:37:46.249471  4343 net.cpp:165] Memory required for data: 3929001404
I0819 12:37:46.249475  4343 layer_factory.hpp:77] Creating layer fc6
I0819 12:37:46.249482  4343 net.cpp:100] Creating Layer fc6
I0819 12:37:46.249485  4343 net.cpp:434] fc6 <- roi_c1
I0819 12:37:46.249492  4343 net.cpp:408] fc6 -> fc6
I0819 12:37:47.483583  4343 net.cpp:150] Setting up fc6
I0819 12:37:47.483618  4343 net.cpp:157] Top shape: 128 4096 (524288)
I0819 12:37:47.483623  4343 net.cpp:165] Memory required for data: 3931098556
I0819 12:37:47.483631  4343 layer_factory.hpp:77] Creating layer relu6
I0819 12:37:47.483644  4343 net.cpp:100] Creating Layer relu6
I0819 12:37:47.483649  4343 net.cpp:434] relu6 <- fc6
I0819 12:37:47.483655  4343 net.cpp:395] relu6 -> fc6 (in-place)
I0819 12:37:47.483880  4343 net.cpp:150] Setting up relu6
I0819 12:37:47.483889  4343 net.cpp:157] Top shape: 128 4096 (524288)
I0819 12:37:47.483893  4343 net.cpp:165] Memory required for data: 3933195708
I0819 12:37:47.483896  4343 layer_factory.hpp:77] Creating layer drop6
I0819 12:37:47.483904  4343 net.cpp:100] Creating Layer drop6
I0819 12:37:47.483908  4343 net.cpp:434] drop6 <- fc6
I0819 12:37:47.483916  4343 net.cpp:395] drop6 -> fc6 (in-place)
I0819 12:37:47.483937  4343 net.cpp:150] Setting up drop6
I0819 12:37:47.483942  4343 net.cpp:157] Top shape: 128 4096 (524288)
I0819 12:37:47.483945  4343 net.cpp:165] Memory required for data: 3935292860
I0819 12:37:47.483948  4343 layer_factory.hpp:77] Creating layer fc6_drop6_0_split
I0819 12:37:47.483953  4343 net.cpp:100] Creating Layer fc6_drop6_0_split
I0819 12:37:47.483956  4343 net.cpp:434] fc6_drop6_0_split <- fc6
I0819 12:37:47.483963  4343 net.cpp:408] fc6_drop6_0_split -> fc6_drop6_0_split_0
I0819 12:37:47.483968  4343 net.cpp:408] fc6_drop6_0_split -> fc6_drop6_0_split_1
I0819 12:37:47.484006  4343 net.cpp:150] Setting up fc6_drop6_0_split
I0819 12:37:47.484012  4343 net.cpp:157] Top shape: 128 4096 (524288)
I0819 12:37:47.484016  4343 net.cpp:157] Top shape: 128 4096 (524288)
I0819 12:37:47.484019  4343 net.cpp:165] Memory required for data: 3939487164
I0819 12:37:47.484022  4343 layer_factory.hpp:77] Creating layer cls_pred
I0819 12:37:47.484030  4343 net.cpp:100] Creating Layer cls_pred
I0819 12:37:47.484035  4343 net.cpp:434] cls_pred <- fc6_drop6_0_split_0
I0819 12:37:47.484040  4343 net.cpp:408] cls_pred -> cls_pred
I0819 12:37:47.484668  4343 net.cpp:150] Setting up cls_pred
I0819 12:37:47.484674  4343 net.cpp:157] Top shape: 128 5 (640)
I0819 12:37:47.484678  4343 net.cpp:165] Memory required for data: 3939489724
I0819 12:37:47.484683  4343 layer_factory.hpp:77] Creating layer cls_pred_cls_pred_0_split
I0819 12:37:47.484688  4343 net.cpp:100] Creating Layer cls_pred_cls_pred_0_split
I0819 12:37:47.484691  4343 net.cpp:434] cls_pred_cls_pred_0_split <- cls_pred
I0819 12:37:47.484695  4343 net.cpp:408] cls_pred_cls_pred_0_split -> cls_pred_cls_pred_0_split_0
I0819 12:37:47.484702  4343 net.cpp:408] cls_pred_cls_pred_0_split -> cls_pred_cls_pred_0_split_1
I0819 12:37:47.484733  4343 net.cpp:150] Setting up cls_pred_cls_pred_0_split
I0819 12:37:47.484740  4343 net.cpp:157] Top shape: 128 5 (640)
I0819 12:37:47.484743  4343 net.cpp:157] Top shape: 128 5 (640)
I0819 12:37:47.484746  4343 net.cpp:165] Memory required for data: 3939494844
I0819 12:37:47.484750  4343 layer_factory.hpp:77] Creating layer bbox_pred
I0819 12:37:47.484756  4343 net.cpp:100] Creating Layer bbox_pred
I0819 12:37:47.484760  4343 net.cpp:434] bbox_pred <- fc6_drop6_0_split_1
I0819 12:37:47.484766  4343 net.cpp:408] bbox_pred -> bbox_pred
I0819 12:37:47.486970  4343 net.cpp:150] Setting up bbox_pred
I0819 12:37:47.486976  4343 net.cpp:157] Top shape: 128 20 (2560)
I0819 12:37:47.486979  4343 net.cpp:165] Memory required for data: 3939505084
I0819 12:37:47.486984  4343 layer_factory.hpp:77] Creating layer bbox_pred_bbox_pred_0_split
I0819 12:37:47.486989  4343 net.cpp:100] Creating Layer bbox_pred_bbox_pred_0_split
I0819 12:37:47.486992  4343 net.cpp:434] bbox_pred_bbox_pred_0_split <- bbox_pred
I0819 12:37:47.486996  4343 net.cpp:408] bbox_pred_bbox_pred_0_split -> bbox_pred_bbox_pred_0_split_0
I0819 12:37:47.487001  4343 net.cpp:408] bbox_pred_bbox_pred_0_split -> bbox_pred_bbox_pred_0_split_1
I0819 12:37:47.487030  4343 net.cpp:150] Setting up bbox_pred_bbox_pred_0_split
I0819 12:37:47.487035  4343 net.cpp:157] Top shape: 128 20 (2560)
I0819 12:37:47.487040  4343 net.cpp:157] Top shape: 128 20 (2560)
I0819 12:37:47.487041  4343 net.cpp:165] Memory required for data: 3939525564
I0819 12:37:47.487045  4343 layer_factory.hpp:77] Creating layer loss_cls
I0819 12:37:47.487049  4343 net.cpp:100] Creating Layer loss_cls
I0819 12:37:47.487052  4343 net.cpp:434] loss_cls <- cls_pred_cls_pred_0_split_0
I0819 12:37:47.487057  4343 net.cpp:434] loss_cls <- proposal_labels_proposal_info_1_split_0
…
