…
    downsample_rate: 16
    downsample_rate: 32
    downsample_rate: 32
    downsample_rate: 64
    coord_num: 4
    field_h: 60
    field_h: 84
    field_h: 120
    field_h: 168
    field_h: 240
    field_h: 336
    field_h: 480
    field_w: 60
    field_w: 84
    field_w: 120
    field_w: 168
    field_w: 240
    field_w: 336
    field_w: 480
    fg_threshold: 0.5
    resize_width: 1344
    resize_height: 768
    crop_width: 768
    crop_height: 768
    do_multiple_scale: true
    min_scale: 60
    max_scale: 480
    min_gt_height: 25
    shuffle: true
  }
}
layer {
  name: "slice"
  type: "Slice"
  bottom: "data"
  top: "data123"
  top: "ch4"
  slice_param {
    slice_point: 3
    axis: 1
  }
}
layer {
  name: "conv1_1"
  type: "Convolution"
  bottom: "data123"
  top: "conv1_1"
  convolution_param {
    num_output: 64
    pad: 1
    kernel_size: 3
  }
}
layer {
  name: "relu1_1"
  type: "ReLU"
  bottom: "conv1_1"
  top: "conv1_1"
}
layer {
  name: "conv1_2"
  type: "Convolution"
  bottom: "conv1_1"
  top: "conv1_2"
  convolution_param {
    num_output: 64
    pad: 1
    kernel_size: 3
  }
}
layer {
  name: "relu1_2"
  type: "ReLU"
  bottom: "conv1_2"
  top: "conv1_2"
}
layer {
  name: "pool1"
  type: "Pooling"
  bottom: "conv1_2"
  top: "pool1"
  pooling_param {
    pool: MAX
    kernel_size: 2
    stride: 2
  }
}
layer {
  name: "ch4_pool1"
  type: "Pooling"
  bottom: "ch4"
  top: "ch4_pool1"
  pooling_param {
    pool: MAX
    kernel_size: 2
    stride: 2
  }
}
layer {
  name: "pool1_concat"
  type: "Concat"
  bottom: "pool1"
  bottom: "ch4_pool1"
  top: "pool1_new"
}
layer {
  name: "conv2_1_new"
  type: "Convolution"
  bottom: "pool1_new"
  top: "conv2_1"
  convolution_param {
    num_output: 128
    pad: 1
    kernel_size: 3
  }
}
layer {
  name: "relu2_1"
  type: "ReLU"
  bottom: "conv2_1"
  top: "conv2_1"
}
layer {
  name: "conv2_2"
  type: "Convolution"
  bottom: "conv2_1"
  top: "conv2_2"
  convolution_param {
    num_output: 128
    pad: 1
    kernel_size: 3
  }
}
layer {
  name: "relu2_2"
  type: "ReLU"
  bottom: "conv2_2"
  top: "conv2_2"
}
layer {
  name: "pool2"
  type: "Pooling"
  bottom: "conv2_2"
  top: "pool2"
  pooling_param {
    pool: MAX
    kernel_size: 2
    stride: 2
  }
}
layer {
  name: "ch4_pool2"
  type: "Pooling"
  bottom: "ch4_pool1"
  top: "ch4_pool2"
  pooling_param {
    pool: MAX
    kernel_size: 2
    stride: 2
  }
}
layer {
  name: "pool2_concat"
  type: "Concat"
  bottom: "pool2"
  bottom: "ch4_pool2"
  top: "pool2_new"
}
layer {
  name: "conv3_1_new"
  type: "Convolution"
  bottom: "pool2_new"
  top: "conv3_1"
  convolution_param {
    num_output: 256
    pad: 1
    kernel_size: 3
  }
}
layer {
  name: "relu3_1"
  type: "ReLU"
  bottom: "conv3_1"
  top: "conv3_1"
}
layer {
  name: "conv3_2"
  type: "Convolution"
  bottom: "conv3_1"
  top: "conv3_2"
  convolution_param {
    num_output: 256
    pad: 1
    kernel_size: 3
  }
}
layer {
  name: "relu3_2"
  type: "ReLU"
  bottom: "conv3_2"
  top: "conv3_2"
}
layer {
  name: "conv3_3"
  type: "Convolution"
  bottom: "conv3_2"
  top: "conv3_3"
  convolution_param {
    num_output: 256
    pad: 1
    kernel_size: 3
  }
}
layer {
  name: "relu3_3"
  type: "ReLU"
  bottom: "conv3_3"
  top: "conv3_3"
}
layer {
  name: "pool3"
  type: "Pooling"
  bottom: "conv3_3"
  top: "pool3"
  pooling_param {
    pool: MAX
    kernel_size: 2
    stride: 2
  }
}
layer {
  name: "ch4_pool3"
  type: "Pooling"
  bottom: "ch4_pool2"
  top: "ch4_pool3"
  pooling_param {
    pool: MAX
    kernel_size: 2
    stride: 2
  }
}
layer {
  name: "pool3_concat"
  type: "Concat"
  bottom: "pool3"
  bottom: "ch4_pool3"
  top: "pool3_new"
}
layer {
  name: "conv4_1_new"
  type: "Convolution"
  bottom: "pool3_new"
  top: "conv4_1"
  convolution_param {
    num_output: 512
    pad: 1
    kernel_size: 3
  }
}
layer {
  name: "relu4_1"
  type: "ReLU"
  bottom: "conv4_1"
  top: "conv4_1"
}
layer {
  name: "conv4_2"
  type: "Convolution"
  bottom: "conv4_1"
  top: "conv4_2"
  convolution_param {
    num_output: 512
    pad: 1
    kernel_size: 3
  }
}
layer {
  name: "relu4_2"
  type: "ReLU"
  bottom: "conv4_2"
  top: "conv4_2"
}
layer {
  name: "conv4_3"
  type: "Convolution"
  bottom: "conv4_2"
  top: "conv4_3"
  convolution_param {
    num_output: 512
    pad: 1
    kernel_size: 3
  }
}
layer {
  name: "relu4_3"
  type: "ReLU"
  bottom: "conv4_3"
  top: "conv4_3"
}
layer {
  name: "conv4_concat"
  type: "Concat"
  bottom: "conv4_3"
  bottom: "ch4_pool3"
  top: "conv4_3_new"
}
layer {
  name: "loss1_conv1"
  type: "Convolution"
  bottom: "conv4_3_new"
  top: "loss1_conv1"
  param {
    lr_mult: 1
    decay_mult: 1
  }
  param {
    lr_mult: 2
    decay_mult: 0
  }
  convolution_param {
    num_output: 512
    pad: 1
    kernel_size: 3
    weight_filler {
      type: "gaussian"
      std: 0.01
    }
    bias_filler {
      type: "constant"
    }
  }
}
layer {
  name: "loss_relu1"
  type: "ReLU"
  bottom: "loss1_conv1"
  top: "loss1_conv1"
}
layer {
  name: "LFCN_1_5x5"
  type: "Convolution"
  bottom: "loss1_conv1"
  top: "LFCN_1_5x5"
  param {
    lr_mult: 1
    decay_mult: 1
  }
  param {
    lr_mult: 2
    decay_mult: 0
  }
  convolution_param {
    num_output: 9
    pad: 2
    kernel_size: 5
    weight_filler {
      type: "gaussian"
      std: 0.001
    }
    bias_filler {
      type: "constant"
    }
  }
}
layer {
  name: "detection_loss_1_5x5"
  type: "DetectionLoss"
  bottom: "LFCN_1_5x5"
  bottom: "label_1_5x5"
  top: "loss_1_5x5"
  loss_weight: 0.9
  detection_loss_param {
    cls_num: 5
    coord_num: 4
    lambda: 0.05
    field_h: 60
    field_w: 60
    downsample_rate: 8
    bb_smooth: true
    field_whr: 2
    field_xyr: 2
    bg_threshold: 0.2
    bg_multiple: 2
    sample_mode: "random"
    pos_neg_weighted: true
  }
}
layer {
  name: "detection_accuracy_1_5x5"
  type: "DetectionAccuracy"
  bottom: "LFCN_1_5x5"
  bottom: "label_1_5x5"
  top: "accuracy_1_5x5"
  top: "boxiou_1_5x5"
  detection_accuracy_param {
    cls_num: 5
    coord_num: 4
    field_h: 60
    field_w: 60
    downsample_rate: 8
    field_whr: 2
    field_xyr: 2
  }
}
layer {
  name: "LFCN_1_7x7"
  type: "Convolution"
  bottom: "loss1_conv1"
  top: "LFCN_1_7x7"
  param {
    lr_mult: 1
    decay_mult: 1
  }
  param {
    lr_mult: 2
    decay_mult: 0
  }
  convolution_param {
    num_output: 9
    pad: 3
    kernel_size: 7
    weight_filler {
      type: "gaussian"
      std: 0.001
    }
    bias_filler {
      type: "constant"
    }
  }
}
layer {
  name: "detection_loss_1_7x7"
  type: "DetectionLoss"
  bottom: "LFCN_1_7x7"
  bottom: "label_1_7x7"
  top: "loss_1_7x7"
  loss_weight: 0.9
  detection_loss_param {
    cls_num: 5
    coord_num: 4
    lambda: 0.05
    field_h: 84
    field_w: 84
    downsample_rate: 8
    bb_smooth: true
    field_whr: 2
    field_xyr: 2
    bg_threshold: 0.2
    bg_multiple: 2
    sample_mode: "random"
    pos_neg_weighted: true
  }
}
layer {
  name: "detection_accuracy_1_7x7"
  type: "DetectionAccuracy"
  bottom: "LFCN_1_7x7"
  bottom: "label_1_7x7"
  top: "accuracy_1_7x7"
  top: "boxiou_1_7x7"
  detection_accuracy_param {
    cls_num: 5
    coord_num: 4
    field_h: 84
    field_w: 84
    downsample_rate: 8
    field_whr: 2
    field_xyr: 2
  }
}
layer {
  name: "pool4"
  type: "Pooling"
  bottom: "conv4_3_new"
  top: "pool4"
  pooling_param {
    pool: MAX
    kernel_size: 2
    stride: 2
  }
}
layer {
  name: "conv5_1_new"
  type: "Convolution"
  bottom: "pool4"
  top: "conv5_1"
  convolution_param {
    num_output: 512
    pad: 1
    kernel_size: 3
  }
}
layer {
  name: "relu5_1"
  type: "ReLU"
  bottom: "conv5_1"
  top: "conv5_1"
}
layer {
  name: "conv5_2"
  type: "Convolution"
  bottom: "conv5_1"
  top: "conv5_2"
  convolution_param {
    num_output: 512
    pad: 1
    kernel_size: 3
  }
}
layer {
  name: "relu5_2"
  type: "ReLU"
  bottom: "conv5_2"
  top: "conv5_2"
}
layer {
  name: "conv5_3"
  type: "Convolution"
  bottom: "conv5_2"
  top: "conv5_3"
  convolution_param {
    num_output: 512
    pad: 1
    kernel_size: 3
  }
}
layer {
  name: "relu5_3"
  type: "ReLU"
  bottom: "conv5_3"
  top: "conv5_3"
}
layer {
  name: "LFCN_2_5x5"
  type: "Convolution"
  bottom: "conv5_3"
  top: "LFCN_2_5x5"
  param {
    lr_mult: 1
    decay_mult: 1
  }
  param {
    lr_mult: 2
    decay_mult: 0
  }
  convolution_param {
    num_output: 9
    pad: 2
    kernel_size: 5
    weight_filler {
      type: "gaussian"
      std: 0.001
    }
    bias_filler {
      type: "constant"
    }
  }
}
layer {
  name: "detection_loss_2_5x5"
  type: "DetectionLoss"
  bottom: "LFCN_2_5x5"
  bottom: "label_2_5x5"
  top: "loss_2_5x5"
  detection_loss_param {
    cls_num: 5
    coord_num: 4
    lambda: 0.05
    field_h: 120
    field_w: 120
    downsample_rate: 16
    bb_smooth: true
    field_whr: 2
    field_xyr: 2
    bg_threshold: 0.2
    bg_multiple: 2
    sample_mode: "random"
    pos_neg_weighted: true
  }
}
layer {
  name: "detection_accuracy_2_5x5"
  type: "DetectionAccuracy"
  bottom: "LFCN_2_5x5"
  bottom: "label_2_5x5"
  top: "accuracy_2_5x5"
  top: "boxiou_2_5x5"
  detection_accuracy_param {
    cls_num: 5
    coord_num: 4
    field_h: 120
    field_w: 120
    downsample_rate: 16
    field_whr: 2
    field_xyr: 2
  }
}
layer {
  name: "LFCN_2_7x7"
  type: "Convolution"
  bottom: "conv5_3"
  top: "LFCN_2_7x7"
  param {
    lr_mult: 1
    decay_mult: 1
  }
  param {
    lr_mult: 2
    decay_mult: 0
  }
  convolution_param {
    num_output: 9
    pad: 3
    kernel_size: 7
    weight_filler {
      type: "gaussian"
      std: 0.001
    }
    bias_filler {
      type: "constant"
    }
  }
}
layer {
  name: "detection_loss_2_7x7"
  type: "DetectionLoss"
  bottom: "LFCN_2_7x7"
  bottom: "label_2_7x7"
  top: "loss_2_7x7"
  detection_loss_param {
    cls_num: 5
    coord_num: 4
    lambda: 0.05
    field_h: 168
    field_w: 168
    downsample_rate: 16
    bb_smooth: true
    field_whr: 2
    field_xyr: 2
    bg_threshold: 0.2
    bg_multiple: 2
    sample_mode: "random"
    pos_neg_weighted: true
  }
}
layer {
  name: "detection_accuracy_2_7x7"
  type: "DetectionAccuracy"
  bottom: "LFCN_2_7x7"
  bottom: "label_2_7x7"
  top: "accuracy_2_7x7"
  top: "boxiou_2_7x7"
  detection_accuracy_param {
    cls_num: 5
    coord_num: 4
    field_h: 168
    field_w: 168
    downsample_rate: 16
    field_whr: 2
    field_xyr: 2
  }
}
layer {
  name: "pool5"
  type: "Pooling"
  bottom: "conv5_3"
  top: "pool5"
  pooling_param {
    pool: MAX
    kernel_size: 2
    stride: 2
  }
}
layer {
  name: "conv6_1"
  type: "Convolution"
  bottom: "pool5"
  top: "conv6_1"
  param {
    lr_mult: 1
    decay_mult: 1
  }
  param {
    lr_mult: 2
    decay_mult: 0
  }
  convolution_param {
    num_output: 512
    pad: 1
    kernel_size: 3
    weight_filler {
      type: "gaussian"
      std: 0.01
    }
    bias_filler {
      type: "constant"
    }
  }
}
layer {
  name: "relu6_1"
  type: "ReLU"
  bottom: "conv6_1"
  top: "conv6_1"
}
layer {
  name: "LFCN_3_5x5"
  type: "Convolution"
  bottom: "conv6_1"
  top: "LFCN_3_5x5"
  param {
    lr_mult: 1
    decay_mult: 1
  }
  param {
    lr_mult: 2
    decay_mult: 0
  }
  convolution_param {
    num_output: 9
    pad: 2
    kernel_size: 5
    weight_filler {
      type: "gaussian"
      std: 0.001
    }
    bias_filler {
      type: "constant"
    }
  }
}
layer {
  name: "detection_loss_3_5x5"
  type: "DetectionLoss"
  bottom: "LFCN_3_5x5"
  bottom: "label_3_5x5"
  top: "loss_3_5x5"
  detection_loss_param {
    cls_num: 5
    coord_num: 4
    lambda: 0.05
    field_h: 240
    field_w: 240
    downsample_rate: 32
    bb_smooth: true
    field_whr: 2
    field_xyr: 2
    bg_threshold: 0.2
    bg_multiple: 2
    sample_mode: "random"
    pos_neg_weighted: true
  }
}
layer {
  name: "detection_accuracy_3_5x5"
  type: "DetectionAccuracy"
  bottom: "LFCN_3_5x5"
  bottom: "label_3_5x5"
  top: "accuracy_3_5x5"
  top: "boxiou_3_5x5"
  detection_accuracy_param {
    cls_num: 5
    coord_num: 4
    field_h: 240
    field_w: 240
    downsample_rate: 32
    field_whr: 2
    field_xyr: 2
  }
}
layer {
  name: "LFCN_3_7x7"
  type: "Convolution"
  bottom: "conv6_1"
  top: "LFCN_3_7x7"
  param {
    lr_mult: 1
    decay_mult: 1
  }
  param {
    lr_mult: 2
    decay_mult: 0
  }
  convolution_param {
    num_output: 9
    pad: 3
    kernel_size: 7
    weight_filler {
      type: "gaussian"
      std: 0.001
    }
    bias_filler {
      type: "constant"
    }
  }
}
layer {
  name: "detection_loss_3_7x7"
  type: "DetectionLoss"
  bottom: "LFCN_3_7x7"
  bottom: "label_3_7x7"
  top: "loss_3_7x7"
  detection_loss_param {
    cls_num: 5
    coord_num: 4
    lambda: 0.05
    field_h: 336
    field_w: 336
    downsample_rate: 32
    bb_smooth: true
    field_whr: 2
    field_xyr: 2
    bg_threshold: 0.2
    bg_multiple: 2
    sample_mode: "random"
    pos_neg_weighted: true
  }
}
layer {
  name: "detection_accuracy_3_7x7"
  type: "DetectionAccuracy"
  bottom: "LFCN_3_7x7"
  bottom: "label_3_7x7"
  top: "accuracy_3_7x7"
  top: "boxiou_3_7x7"
  detection_accuracy_param {
    cls_num: 5
    coord_num: 4
    field_h: 336
    field_w: 336
    downsample_rate: 32
    field_whr: 2
    field_xyr: 2
  }
}
layer {
  name: "pool6"
  type: "Pooling"
  bottom: "conv6_1"
  top: "pool6"
  pooling_param {
    pool: MAX
    kernel_size: 2
    stride: 2
  }
}
layer {
  name: "LFCN_4_5x5"
  type: "Convolution"
  bottom: "pool6"
  top: "LFCN_4_5x5"
  param {
    lr_mult: 1
    decay_mult: 1
  }
  param {
    lr_mult: 2
    decay_mult: 0
  }
  convolution_param {
    num_output: 9
    pad: 2
    kernel_size: 5
    weight_filler {
      type: "gaussian"
      std: 0.001
    }
    bias_filler {
      type: "constant"
    }
  }
}
layer {
  name: "detection_loss_4_5x5"
  type: "DetectionLoss"
  bottom: "LFCN_4_5x5"
  bottom: "label_4_5x5"
  top: "loss_4_5x5"
  detection_loss_param {
    cls_num: 5
    coord_num: 4
    lambda: 0.05
    field_h: 480
    field_w: 480
    downsample_rate: 64
    bb_smooth: true
    field_whr: 2
    field_xyr: 2
    bg_threshold: 0.2
    bg_multiple: 2
    sample_mode: "random"
    pos_neg_weighted: true
  }
}
layer {
  name: "detection_accuracy_4_5x5"
  type: "DetectionAccuracy"
  bottom: "LFCN_4_5x5"
  bottom: "label_4_5x5"
  top: "accuracy_4_5x5"
  top: "boxiou_4_5x5"
  detection_accuracy_param {
    cls_num: 5
    coord_num: 4
    field_h: 480
    field_w: 480
    downsample_rate: 64
    field_whr: 2
    field_xyr: 2
  }
}
I0819 20:51:26.136457 10334 layer_factory.hpp:77] Creating layer data
I0819 20:51:26.136495 10334 net.cpp:100] Creating Layer data
I0819 20:51:26.136502 10334 net.cpp:408] data -> data
…
I0819 20:51:26.158604 10334 image_gt_data_layer.cpp:235] output label size 1 : 4,6,96,96
I0819 20:51:26.158635 10334 image_gt_data_layer.cpp:235] output label size 2 : 4,6,48,48
I0819 20:51:26.158669 10334 image_gt_data_layer.cpp:235] output label size 3 : 4,6,48,48
I0819 20:51:26.158704 10334 image_gt_data_layer.cpp:235] output label size 4 : 4,6,24,24
I0819 20:51:26.158737 10334 image_gt_data_layer.cpp:235] output label size 5 : 4,6,24,24
I0819 20:51:26.158776 10334 image_gt_data_layer.cpp:235] output label size 6 : 4,6,12,12
I0819 20:51:26.221477 10334 net.cpp:150] Setting up data
I0819 20:51:26.221511 10334 net.cpp:157] Top shape: 4 4 768 768 (9437184)
I0819 20:51:26.221518 10334 net.cpp:157] Top shape: 4 6 96 96 (221184)
I0819 20:51:26.221524 10334 net.cpp:157] Top shape: 4 6 96 96 (221184)
I0819 20:51:26.221529 10334 net.cpp:157] Top shape: 4 6 48 48 (55296)
I0819 20:51:26.221534 10334 net.cpp:157] Top shape: 4 6 48 48 (55296)
I0819 20:51:26.221537 10334 net.cpp:157] Top shape: 4 6 24 24 (13824)
I0819 20:51:26.221542 10334 net.cpp:157] Top shape: 4 6 24 24 (13824)
I0819 20:51:26.221547 10334 net.cpp:157] Top shape: 4 6 12 12 (3456)
I0819 20:51:26.221551 10334 net.cpp:165] Memory required for data: 40084992
I0819 20:51:26.221560 10334 layer_factory.hpp:77] Creating layer label_1_5x5_data_1_split
I0819 20:51:26.221580 10334 net.cpp:100] Creating Layer label_1_5x5_data_1_split
I0819 20:51:26.221585 10334 net.cpp:434] label_1_5x5_data_1_split <- label_1_5x5
I0819 20:51:26.221597 10334 net.cpp:408] label_1_5x5_data_1_split -> label_1_5x5_data_1_split_0
I0819 20:51:26.221606 10334 net.cpp:408] label_1_5x5_data_1_split -> label_1_5x5_data_1_split_1
I0819 20:51:26.221662 10334 net.cpp:150] Setting up label_1_5x5_data_1_split
I0819 20:51:26.221668 10334 net.cpp:157] Top shape: 4 6 96 96 (221184)
I0819 20:51:26.221673 10334 net.cpp:157] Top shape: 4 6 96 96 (221184)
I0819 20:51:26.221675 10334 net.cpp:165] Memory required for data: 41854464
I0819 20:51:26.221679 10334 layer_factory.hpp:77] Creating layer label_1_7x7_data_2_split
I0819 20:51:26.221684 10334 net.cpp:100] Creating Layer label_1_7x7_data_2_split
I0819 20:51:26.221688 10334 net.cpp:434] label_1_7x7_data_2_split <- label_1_7x7
I0819 20:51:26.221693 10334 net.cpp:408] label_1_7x7_data_2_split -> label_1_7x7_data_2_split_0
I0819 20:51:26.221699 10334 net.cpp:408] label_1_7x7_data_2_split -> label_1_7x7_data_2_split_1
I0819 20:51:26.221740 10334 net.cpp:150] Setting up label_1_7x7_data_2_split
I0819 20:51:26.221750 10334 net.cpp:157] Top shape: 4 6 96 96 (221184)
I0819 20:51:26.221755 10334 net.cpp:157] Top shape: 4 6 96 96 (221184)
I0819 20:51:26.221758 10334 net.cpp:165] Memory required for data: 43623936
I0819 20:51:26.221762 10334 layer_factory.hpp:77] Creating layer label_2_5x5_data_3_split
I0819 20:51:26.221767 10334 net.cpp:100] Creating Layer label_2_5x5_data_3_split
I0819 20:51:26.221771 10334 net.cpp:434] label_2_5x5_data_3_split <- label_2_5x5
I0819 20:51:26.221777 10334 net.cpp:408] label_2_5x5_data_3_split -> label_2_5x5_data_3_split_0
I0819 20:51:26.221783 10334 net.cpp:408] label_2_5x5_data_3_split -> label_2_5x5_data_3_split_1
I0819 20:51:26.221925 10334 net.cpp:150] Setting up label_2_5x5_data_3_split
I0819 20:51:26.221971 10334 net.cpp:157] Top shape: 4 6 48 48 (55296)
I0819 20:51:26.221983 10334 net.cpp:157] Top shape: 4 6 48 48 (55296)
I0819 20:51:26.221992 10334 net.cpp:165] Memory required for data: 44066304
I0819 20:51:26.222003 10334 layer_factory.hpp:77] Creating layer label_2_7x7_data_4_split
I0819 20:51:26.222026 10334 net.cpp:100] Creating Layer label_2_7x7_data_4_split
I0819 20:51:26.222038 10334 net.cpp:434] label_2_7x7_data_4_split <- label_2_7x7
I0819 20:51:26.222050 10334 net.cpp:408] label_2_7x7_data_4_split -> label_2_7x7_data_4_split_0
I0819 20:51:26.222071 10334 net.cpp:408] label_2_7x7_data_4_split -> label_2_7x7_data_4_split_1
I0819 20:51:26.222139 10334 net.cpp:150] Setting up label_2_7x7_data_4_split
I0819 20:51:26.222152 10334 net.cpp:157] Top shape: 4 6 48 48 (55296)
I0819 20:51:26.222162 10334 net.cpp:157] Top shape: 4 6 48 48 (55296)
I0819 20:51:26.222169 10334 net.cpp:165] Memory required for data: 44508672
I0819 20:51:26.222177 10334 layer_factory.hpp:77] Creating layer label_3_5x5_data_5_split
I0819 20:51:26.222190 10334 net.cpp:100] Creating Layer label_3_5x5_data_5_split
I0819 20:51:26.222199 10334 net.cpp:434] label_3_5x5_data_5_split <- label_3_5x5
I0819 20:51:26.222209 10334 net.cpp:408] label_3_5x5_data_5_split -> label_3_5x5_data_5_split_0
I0819 20:51:26.222226 10334 net.cpp:408] label_3_5x5_data_5_split -> label_3_5x5_data_5_split_1
I0819 20:51:26.222288 10334 net.cpp:150] Setting up label_3_5x5_data_5_split
I0819 20:51:26.222302 10334 net.cpp:157] Top shape: 4 6 24 24 (13824)
I0819 20:51:26.222312 10334 net.cpp:157] Top shape: 4 6 24 24 (13824)
I0819 20:51:26.222321 10334 net.cpp:165] Memory required for data: 44619264
I0819 20:51:26.222328 10334 layer_factory.hpp:77] Creating layer label_3_7x7_data_6_split
I0819 20:51:26.222338 10334 net.cpp:100] Creating Layer label_3_7x7_data_6_split
I0819 20:51:26.222345 10334 net.cpp:434] label_3_7x7_data_6_split <- label_3_7x7
I0819 20:51:26.222355 10334 net.cpp:408] label_3_7x7_data_6_split -> label_3_7x7_data_6_split_0
I0819 20:51:26.222369 10334 net.cpp:408] label_3_7x7_data_6_split -> label_3_7x7_data_6_split_1
I0819 20:51:26.222436 10334 net.cpp:150] Setting up label_3_7x7_data_6_split
I0819 20:51:26.222450 10334 net.cpp:157] Top shape: 4 6 24 24 (13824)
I0819 20:51:26.222460 10334 net.cpp:157] Top shape: 4 6 24 24 (13824)
I0819 20:51:26.222467 10334 net.cpp:165] Memory required for data: 44729856
I0819 20:51:26.222476 10334 layer_factory.hpp:77] Creating layer label_4_5x5_data_7_split
I0819 20:51:26.222487 10334 net.cpp:100] Creating Layer label_4_5x5_data_7_split
I0819 20:51:26.222496 10334 net.cpp:434] label_4_5x5_data_7_split <- label_4_5x5
I0819 20:51:26.222510 10334 net.cpp:408] label_4_5x5_data_7_split -> label_4_5x5_data_7_split_0
I0819 20:51:26.222522 10334 net.cpp:408] label_4_5x5_data_7_split -> label_4_5x5_data_7_split_1
I0819 20:51:26.222580 10334 net.cpp:150] Setting up label_4_5x5_data_7_split
I0819 20:51:26.222592 10334 net.cpp:157] Top shape: 4 6 12 12 (3456)
I0819 20:51:26.222602 10334 net.cpp:157] Top shape: 4 6 12 12 (3456)
I0819 20:51:26.222609 10334 net.cpp:165] Memory required for data: 44757504
I0819 20:51:26.222616 10334 layer_factory.hpp:77] Creating layer slice
I0819 20:51:26.222648 10334 net.cpp:100] Creating Layer slice
I0819 20:51:26.222658 10334 net.cpp:434] slice <- data
I0819 20:51:26.222669 10334 net.cpp:408] slice -> data123
I0819 20:51:26.222685 10334 net.cpp:408] slice -> ch4
I0819 20:51:26.222750 10334 net.cpp:150] Setting up slice
I0819 20:51:26.222764 10334 net.cpp:157] Top shape: 4 3 768 768 (7077888)
I0819 20:51:26.222774 10334 net.cpp:157] Top shape: 4 1 768 768 (2359296)
I0819 20:51:26.222780 10334 net.cpp:165] Memory required for data: 82506240
I0819 20:51:26.222789 10334 layer_factory.hpp:77] Creating layer conv1_1
I0819 20:51:26.222807 10334 net.cpp:100] Creating Layer conv1_1
I0819 20:51:26.222817 10334 net.cpp:434] conv1_1 <- data123
I0819 20:51:26.222831 10334 net.cpp:408] conv1_1 -> conv1_1
I0819 20:51:26.472441 10334 net.cpp:150] Setting up conv1_1
I0819 20:51:26.472468 10334 net.cpp:157] Top shape: 4 64 768 768 (150994944)
I0819 20:51:26.472473 10334 net.cpp:165] Memory required for data: 686486016
I0819 20:51:26.472491 10334 layer_factory.hpp:77] Creating layer relu1_1
I0819 20:51:26.472506 10334 net.cpp:100] Creating Layer relu1_1
I0819 20:51:26.472513 10334 net.cpp:434] relu1_1 <- conv1_1
I0819 20:51:26.472520 10334 net.cpp:395] relu1_1 -> conv1_1 (in-place)
I0819 20:51:26.472730 10334 net.cpp:150] Setting up relu1_1
I0819 20:51:26.472743 10334 net.cpp:157] Top shape: 4 64 768 768 (150994944)
I0819 20:51:26.472746 10334 net.cpp:165] Memory required for data: 1290465792
I0819 20:51:26.472751 10334 layer_factory.hpp:77] Creating layer conv1_2
I0819 20:51:26.472764 10334 net.cpp:100] Creating Layer conv1_2
I0819 20:51:26.472790 10334 net.cpp:434] conv1_2 <- conv1_1
I0819 20:51:26.472795 10334 net.cpp:408] conv1_2 -> conv1_2
I0819 20:51:26.475008 10334 net.cpp:150] Setting up conv1_2
I0819 20:51:26.475025 10334 net.cpp:157] Top shape: 4 64 768 768 (150994944)
I0819 20:51:26.475029 10334 net.cpp:165] Memory required for data: 1894445568
I0819 20:51:26.475044 10334 layer_factory.hpp:77] Creating layer relu1_2
I0819 20:51:26.475051 10334 net.cpp:100] Creating Layer relu1_2
I0819 20:51:26.475056 10334 net.cpp:434] relu1_2 <- conv1_2
I0819 20:51:26.475064 10334 net.cpp:395] relu1_2 -> conv1_2 (in-place)
I0819 20:51:26.475260 10334 net.cpp:150] Setting up relu1_2
I0819 20:51:26.475270 10334 net.cpp:157] Top shape: 4 64 768 768 (150994944)
I0819 20:51:26.475273 10334 net.cpp:165] Memory required for data: 2498425344
I0819 20:51:26.475277 10334 layer_factory.hpp:77] Creating layer pool1
I0819 20:51:26.475286 10334 net.cpp:100] Creating Layer pool1
I0819 20:51:26.475291 10334 net.cpp:434] pool1 <- conv1_2
I0819 20:51:26.475301 10334 net.cpp:408] pool1 -> pool1
I0819 20:51:26.475358 10334 net.cpp:150] Setting up pool1
I0819 20:51:26.475366 10334 net.cpp:157] Top shape: 4 64 384 384 (37748736)
I0819 20:51:26.475370 10334 net.cpp:165] Memory required for data: 2649420288
I0819 20:51:26.475374 10334 layer_factory.hpp:77] Creating layer ch4_pool1
I0819 20:51:26.475381 10334 net.cpp:100] Creating Layer ch4_pool1
I0819 20:51:26.475385 10334 net.cpp:434] ch4_pool1 <- ch4
I0819 20:51:26.475392 10334 net.cpp:408] ch4_pool1 -> ch4_pool1
I0819 20:51:26.475456 10334 net.cpp:150] Setting up ch4_pool1
I0819 20:51:26.475466 10334 net.cpp:157] Top shape: 4 1 384 384 (589824)
I0819 20:51:26.475468 10334 net.cpp:165] Memory required for data: 2651779584
I0819 20:51:26.475473 10334 layer_factory.hpp:77] Creating layer ch4_pool1_ch4_pool1_0_split
I0819 20:51:26.475481 10334 net.cpp:100] Creating Layer ch4_pool1_ch4_pool1_0_split
I0819 20:51:26.475484 10334 net.cpp:434] ch4_pool1_ch4_pool1_0_split <- ch4_pool1
I0819 20:51:26.475492 10334 net.cpp:408] ch4_pool1_ch4_pool1_0_split -> ch4_pool1_ch4_pool1_0_split_0
I0819 20:51:26.475502 10334 net.cpp:408] ch4_pool1_ch4_pool1_0_split -> ch4_pool1_ch4_pool1_0_split_1
I0819 20:51:26.475538 10334 net.cpp:150] Setting up ch4_pool1_ch4_pool1_0_split
I0819 20:51:26.475545 10334 net.cpp:157] Top shape: 4 1 384 384 (589824)
I0819 20:51:26.475549 10334 net.cpp:157] Top shape: 4 1 384 384 (589824)
I0819 20:51:26.475553 10334 net.cpp:165] Memory required for data: 2656498176
I0819 20:51:26.475556 10334 layer_factory.hpp:77] Creating layer pool1_concat
I0819 20:51:26.475565 10334 net.cpp:100] Creating Layer pool1_concat
I0819 20:51:26.475569 10334 net.cpp:434] pool1_concat <- pool1
I0819 20:51:26.475574 10334 net.cpp:434] pool1_concat <- ch4_pool1_ch4_pool1_0_split_0
I0819 20:51:26.475579 10334 net.cpp:408] pool1_concat -> pool1_new
I0819 20:51:26.475596 10334 net.cpp:150] Setting up pool1_concat
I0819 20:51:26.475602 10334 net.cpp:157] Top shape: 4 65 384 384 (38338560)
I0819 20:51:26.475605 10334 net.cpp:165] Memory required for data: 2809852416
I0819 20:51:26.475610 10334 layer_factory.hpp:77] Creating layer conv2_1_new
I0819 20:51:26.475620 10334 net.cpp:100] Creating Layer conv2_1_new
I0819 20:51:26.475626 10334 net.cpp:434] conv2_1_new <- pool1_new
I0819 20:51:26.475631 10334 net.cpp:408] conv2_1_new -> conv2_1
I0819 20:51:26.487694 10334 net.cpp:150] Setting up conv2_1_new
I0819 20:51:26.487730 10334 net.cpp:157] Top shape: 4 128 384 384 (75497472)
I0819 20:51:26.487735 10334 net.cpp:165] Memory required for data: 3111842304
I0819 20:51:26.487759 10334 layer_factory.hpp:77] Creating layer relu2_1
I0819 20:51:26.487776 10334 net.cpp:100] Creating Layer relu2_1
I0819 20:51:26.487792 10334 net.cpp:434] relu2_1 <- conv2_1
I0819 20:51:26.487797 10334 net.cpp:395] relu2_1 -> conv2_1 (in-place)
I0819 20:51:26.488061 10334 net.cpp:150] Setting up relu2_1
I0819 20:51:26.488072 10334 net.cpp:157] Top shape: 4 128 384 384 (75497472)
I0819 20:51:26.488076 10334 net.cpp:165] Memory required for data: 3413832192
I0819 20:51:26.488081 10334 layer_factory.hpp:77] Creating layer conv2_2
I0819 20:51:26.488095 10334 net.cpp:100] Creating Layer conv2_2
I0819 20:51:26.488101 10334 net.cpp:434] conv2_2 <- conv2_1
I0819 20:51:26.488109 10334 net.cpp:408] conv2_2 -> conv2_2
I0819 20:51:26.490021 10334 net.cpp:150] Setting up conv2_2
I0819 20:51:26.490041 10334 net.cpp:157] Top shape: 4 128 384 384 (75497472)
I0819 20:51:26.490046 10334 net.cpp:165] Memory required for data: 3715822080
I0819 20:51:26.490056 10334 layer_factory.hpp:77] Creating layer relu2_2
I0819 20:51:26.490064 10334 net.cpp:100] Creating Layer relu2_2
I0819 20:51:26.490072 10334 net.cpp:434] relu2_2 <- conv2_2
I0819 20:51:26.490079 10334 net.cpp:395] relu2_2 -> conv2_2 (in-place)
I0819 20:51:26.490262 10334 net.cpp:150] Setting up relu2_2
I0819 20:51:26.490272 10334 net.cpp:157] Top shape: 4 128 384 384 (75497472)
I0819 20:51:26.490276 10334 net.cpp:165] Memory required for data: 4017811968
I0819 20:51:26.490281 10334 layer_factory.hpp:77] Creating layer pool2
I0819 20:51:26.490291 10334 net.cpp:100] Creating Layer pool2
I0819 20:51:26.490299 10334 net.cpp:434] pool2 <- conv2_2
I0819 20:51:26.490305 10334 net.cpp:408] pool2 -> pool2
I0819 20:51:26.490350 10334 net.cpp:150] Setting up pool2
I0819 20:51:26.490358 10334 net.cpp:157] Top shape: 4 128 192 192 (18874368)
I0819 20:51:26.490362 10334 net.cpp:165] Memory required for data: 4093309440
I0819 20:51:26.490367 10334 layer_factory.hpp:77] Creating layer ch4_pool2
I0819 20:51:26.490372 10334 net.cpp:100] Creating Layer ch4_pool2
I0819 20:51:26.490377 10334 net.cpp:434] ch4_pool2 <- ch4_pool1_ch4_pool1_0_split_1
I0819 20:51:26.490386 10334 net.cpp:408] ch4_pool2 -> ch4_pool2
I0819 20:51:26.490422 10334 net.cpp:150] Setting up ch4_pool2
I0819 20:51:26.490428 10334 net.cpp:157] Top shape: 4 1 192 192 (147456)
I0819 20:51:26.490432 10334 net.cpp:165] Memory required for data: 4093899264
I0819 20:51:26.490437 10334 layer_factory.hpp:77] Creating layer ch4_pool2_ch4_pool2_0_split
I0819 20:51:26.490445 10334 net.cpp:100] Creating Layer ch4_pool2_ch4_pool2_0_split
I0819 20:51:26.490449 10334 net.cpp:434] ch4_pool2_ch4_pool2_0_split <- ch4_pool2
I0819 20:51:26.490454 10334 net.cpp:408] ch4_pool2_ch4_pool2_0_split -> ch4_pool2_ch4_pool2_0_split_0
I0819 20:51:26.490463 10334 net.cpp:408] ch4_pool2_ch4_pool2_0_split -> ch4_pool2_ch4_pool2_0_split_1
I0819 20:51:26.490496 10334 net.cpp:150] Setting up ch4_pool2_ch4_pool2_0_split
I0819 20:51:26.490504 10334 net.cpp:157] Top shape: 4 1 192 192 (147456)
I0819 20:51:26.490509 10334 net.cpp:157] Top shape: 4 1 192 192 (147456)
I0819 20:51:26.490514 10334 net.cpp:165] Memory required for data: 4095078912
I0819 20:51:26.490517 10334 layer_factory.hpp:77] Creating layer pool2_concat
I0819 20:51:26.490530 10334 net.cpp:100] Creating Layer pool2_concat
I0819 20:51:26.490535 10334 net.cpp:434] pool2_concat <- pool2
I0819 20:51:26.490540 10334 net.cpp:434] pool2_concat <- ch4_pool2_ch4_pool2_0_split_0
I0819 20:51:26.490545 10334 net.cpp:408] pool2_concat -> pool2_new
I0819 20:51:26.490569 10334 net.cpp:150] Setting up pool2_concat
I0819 20:51:26.490576 10334 net.cpp:157] Top shape: 4 129 192 192 (19021824)
I0819 20:51:26.490581 10334 net.cpp:165] Memory required for data: 4171166208
I0819 20:51:26.490584 10334 layer_factory.hpp:77] Creating layer conv3_1_new
I0819 20:51:26.490594 10334 net.cpp:100] Creating Layer conv3_1_new
I0819 20:51:26.490598 10334 net.cpp:434] conv3_1_new <- pool2_new
I0819 20:51:26.490604 10334 net.cpp:408] conv3_1_new -> conv3_1
I0819 20:51:26.493564 10334 net.cpp:150] Setting up conv3_1_new
I0819 20:51:26.493580 10334 net.cpp:157] Top shape: 4 256 192 192 (37748736)
I0819 20:51:26.493587 10334 net.cpp:165] Memory required for data: 4322161152
I0819 20:51:26.493597 10334 layer_factory.hpp:77] Creating layer relu3_1
I0819 20:51:26.493604 10334 net.cpp:100] Creating Layer relu3_1
I0819 20:51:26.493609 10334 net.cpp:434] relu3_1 <- conv3_1
I0819 20:51:26.493614 10334 net.cpp:395] relu3_1 -> conv3_1 (in-place)
I0819 20:51:26.494103 10334 net.cpp:150] Setting up relu3_1
I0819 20:51:26.494120 10334 net.cpp:157] Top shape: 4 256 192 192 (37748736)
I0819 20:51:26.494124 10334 net.cpp:165] Memory required for data: 4473156096
I0819 20:51:26.494129 10334 layer_factory.hpp:77] Creating layer conv3_2
I0819 20:51:26.494138 10334 net.cpp:100] Creating Layer conv3_2
I0819 20:51:26.494141 10334 net.cpp:434] conv3_2 <- conv3_1
I0819 20:51:26.494149 10334 net.cpp:408] conv3_2 -> conv3_2
I0819 20:51:26.496517 10334 net.cpp:150] Setting up conv3_2
I0819 20:51:26.496536 10334 net.cpp:157] Top shape: 4 256 192 192 (37748736)
I0819 20:51:26.496541 10334 net.cpp:165] Memory required for data: 4624151040
I0819 20:51:26.496551 10334 layer_factory.hpp:77] Creating layer relu3_2
I0819 20:51:26.496559 10334 net.cpp:100] Creating Layer relu3_2
I0819 20:51:26.496565 10334 net.cpp:434] relu3_2 <- conv3_2
I0819 20:51:26.496574 10334 net.cpp:395] relu3_2 -> conv3_2 (in-place)
I0819 20:51:26.497103 10334 net.cpp:150] Setting up relu3_2
I0819 20:51:26.497117 10334 net.cpp:157] Top shape: 4 256 192 192 (37748736)
I0819 20:51:26.497123 10334 net.cpp:165] Memory required for data: 4775145984
I0819 20:51:26.497128 10334 layer_factory.hpp:77] Creating layer conv3_3
I0819 20:51:26.497138 10334 net.cpp:100] Creating Layer conv3_3
I0819 20:51:26.497144 10334 net.cpp:434] conv3_3 <- conv3_2
I0819 20:51:26.497150 10334 net.cpp:408] conv3_3 -> conv3_3
I0819 20:51:26.499931 10334 net.cpp:150] Setting up conv3_3
I0819 20:51:26.499951 10334 net.cpp:157] Top shape: 4 256 192 192 (37748736)
I0819 20:51:26.499956 10334 net.cpp:165] Memory required for data: 4926140928
I0819 20:51:26.499964 10334 layer_factory.hpp:77] Creating layer relu3_3
I0819 20:51:26.499974 10334 net.cpp:100] Creating Layer relu3_3
I0819 20:51:26.499979 10334 net.cpp:434] relu3_3 <- conv3_3
I0819 20:51:26.499984 10334 net.cpp:395] relu3_3 -> conv3_3 (in-place)
I0819 20:51:26.500172 10334 net.cpp:150] Setting up relu3_3
I0819 20:51:26.500183 10334 net.cpp:157] Top shape: 4 256 192 192 (37748736)
I0819 20:51:26.500186 10334 net.cpp:165] Memory required for data: 5077135872
I0819 20:51:26.500191 10334 layer_factory.hpp:77] Creating layer pool3
I0819 20:51:26.500198 10334 net.cpp:100] Creating Layer pool3
I0819 20:51:26.500202 10334 net.cpp:434] pool3 <- conv3_3
I0819 20:51:26.500212 10334 net.cpp:408] pool3 -> pool3
I0819 20:51:26.500262 10334 net.cpp:150] Setting up pool3
I0819 20:51:26.500272 10334 net.cpp:157] Top shape: 4 256 96 96 (9437184)
I0819 20:51:26.500277 10334 net.cpp:165] Memory required for data: 5114884608
I0819 20:51:26.500280 10334 layer_factory.hpp:77] Creating layer ch4_pool3
I0819 20:51:26.500291 10334 net.cpp:100] Creating Layer ch4_pool3
I0819 20:51:26.500296 10334 net.cpp:434] ch4_pool3 <- ch4_pool2_ch4_pool2_0_split_1
I0819 20:51:26.500303 10334 net.cpp:408] ch4_pool3 -> ch4_pool3
I0819 20:51:26.500339 10334 net.cpp:150] Setting up ch4_pool3
I0819 20:51:26.500346 10334 net.cpp:157] Top shape: 4 1 96 96 (36864)
I0819 20:51:26.500350 10334 net.cpp:165] Memory required for data: 5115032064
I0819 20:51:26.500355 10334 layer_factory.hpp:77] Creating layer ch4_pool3_ch4_pool3_0_split
I0819 20:51:26.500360 10334 net.cpp:100] Creating Layer ch4_pool3_ch4_pool3_0_split
I0819 20:51:26.500365 10334 net.cpp:434] ch4_pool3_ch4_pool3_0_split <- ch4_pool3
I0819 20:51:26.500372 10334 net.cpp:408] ch4_pool3_ch4_pool3_0_split -> ch4_pool3_ch4_pool3_0_split_0
I0819 20:51:26.500380 10334 net.cpp:408] ch4_pool3_ch4_pool3_0_split -> ch4_pool3_ch4_pool3_0_split_1
I0819 20:51:26.500414 10334 net.cpp:150] Setting up ch4_pool3_ch4_pool3_0_split
I0819 20:51:26.500422 10334 net.cpp:157] Top shape: 4 1 96 96 (36864)
I0819 20:51:26.500427 10334 net.cpp:157] Top shape: 4 1 96 96 (36864)
I0819 20:51:26.500430 10334 net.cpp:165] Memory required for data: 5115326976
I0819 20:51:26.500434 10334 layer_factory.hpp:77] Creating layer pool3_concat
I0819 20:51:26.500442 10334 net.cpp:100] Creating Layer pool3_concat
I0819 20:51:26.500447 10334 net.cpp:434] pool3_concat <- pool3
I0819 20:51:26.500452 10334 net.cpp:434] pool3_concat <- ch4_pool3_ch4_pool3_0_split_0
I0819 20:51:26.500458 10334 net.cpp:408] pool3_concat -> pool3_new
I0819 20:51:26.500480 10334 net.cpp:150] Setting up pool3_concat
I0819 20:51:26.500488 10334 net.cpp:157] Top shape: 4 257 96 96 (9474048)
I0819 20:51:26.500491 10334 net.cpp:165] Memory required for data: 5153223168
I0819 20:51:26.500495 10334 layer_factory.hpp:77] Creating layer conv4_1_new
I0819 20:51:26.500504 10334 net.cpp:100] Creating Layer conv4_1_new
I0819 20:51:26.500509 10334 net.cpp:434] conv4_1_new <- pool3_new
I0819 20:51:26.500516 10334 net.cpp:408] conv4_1_new -> conv4_1
I0819 20:51:26.507102 10334 net.cpp:150] Setting up conv4_1_new
I0819 20:51:26.507131 10334 net.cpp:157] Top shape: 4 512 96 96 (18874368)
I0819 20:51:26.507136 10334 net.cpp:165] Memory required for data: 5228720640
I0819 20:51:26.507145 10334 layer_factory.hpp:77] Creating layer relu4_1
I0819 20:51:26.507159 10334 net.cpp:100] Creating Layer relu4_1
I0819 20:51:26.507165 10334 net.cpp:434] relu4_1 <- conv4_1
I0819 20:51:26.507174 10334 net.cpp:395] relu4_1 -> conv4_1 (in-place)
I0819 20:51:26.507369 10334 net.cpp:150] Setting up relu4_1
I0819 20:51:26.507380 10334 net.cpp:157] Top shape: 4 512 96 96 (18874368)
I0819 20:51:26.507385 10334 net.cpp:165] Memory required for data: 5304218112
I0819 20:51:26.507388 10334 layer_factory.hpp:77] Creating layer conv4_2
I0819 20:51:26.507398 10334 net.cpp:100] Creating Layer conv4_2
I0819 20:51:26.507405 10334 net.cpp:434] conv4_2 <- conv4_1
I0819 20:51:26.507414 10334 net.cpp:408] conv4_2 -> conv4_2
I0819 20:51:26.513561 10334 net.cpp:150] Setting up conv4_2
I0819 20:51:26.513592 10334 net.cpp:157] Top shape: 4 512 96 96 (18874368)
I0819 20:51:26.513597 10334 net.cpp:165] Memory required for data: 5379715584
I0819 20:51:26.513613 10334 layer_factory.hpp:77] Creating layer relu4_2
I0819 20:51:26.513624 10334 net.cpp:100] Creating Layer relu4_2
I0819 20:51:26.513630 10334 net.cpp:434] relu4_2 <- conv4_2
I0819 20:51:26.513638 10334 net.cpp:395] relu4_2 -> conv4_2 (in-place)
I0819 20:51:26.513824 10334 net.cpp:150] Setting up relu4_2
I0819 20:51:26.513834 10334 net.cpp:157] Top shape: 4 512 96 96 (18874368)
I0819 20:51:26.513839 10334 net.cpp:165] Memory required for data: 5455213056
I0819 20:51:26.513842 10334 layer_factory.hpp:77] Creating layer conv4_3
I0819 20:51:26.513854 10334 net.cpp:100] Creating Layer conv4_3
I0819 20:51:26.513859 10334 net.cpp:434] conv4_3 <- conv4_2
I0819 20:51:26.513865 10334 net.cpp:408] conv4_3 -> conv4_3
I0819 20:51:26.522280 10334 net.cpp:150] Setting up conv4_3
I0819 20:51:26.522472 10334 net.cpp:157] Top shape: 4 512 96 96 (18874368)
I0819 20:51:26.522486 10334 net.cpp:165] Memory required for data: 5530710528
I0819 20:51:26.522526 10334 layer_factory.hpp:77] Creating layer relu4_3
I0819 20:51:26.522580 10334 net.cpp:100] Creating Layer relu4_3
I0819 20:51:26.522603 10334 net.cpp:434] relu4_3 <- conv4_3
I0819 20:51:26.522634 10334 net.cpp:395] relu4_3 -> conv4_3 (in-place)
I0819 20:51:26.522994 10334 net.cpp:150] Setting up relu4_3
I0819 20:51:26.523033 10334 net.cpp:157] Top shape: 4 512 96 96 (18874368)
I0819 20:51:26.523053 10334 net.cpp:165] Memory required for data: 5606208000
I0819 20:51:26.523072 10334 layer_factory.hpp:77] Creating layer conv4_concat
I0819 20:51:26.523093 10334 net.cpp:100] Creating Layer conv4_concat
I0819 20:51:26.523120 10334 net.cpp:434] conv4_concat <- conv4_3
I0819 20:51:26.523144 10334 net.cpp:434] conv4_concat <- ch4_pool3_ch4_pool3_0_split_1
I0819 20:51:26.523169 10334 net.cpp:408] conv4_concat -> conv4_3_new
I0819 20:51:26.523224 10334 net.cpp:150] Setting up conv4_concat
I0819 20:51:26.523233 10334 net.cpp:157] Top shape: 4 513 96 96 (18911232)
I0819 20:51:26.523238 10334 net.cpp:165] Memory required for data: 5681852928
I0819 20:51:26.523243 10334 layer_factory.hpp:77] Creating layer conv4_3_new_conv4_concat_0_split
I0819 20:51:26.523255 10334 net.cpp:100] Creating Layer conv4_3_new_conv4_concat_0_split
I0819 20:51:26.523262 10334 net.cpp:434] conv4_3_new_conv4_concat_0_split <- conv4_3_new
I0819 20:51:26.523269 10334 net.cpp:408] conv4_3_new_conv4_concat_0_split -> conv4_3_new_conv4_concat_0_split_0
I0819 20:51:26.523278 10334 net.cpp:408] conv4_3_new_conv4_concat_0_split -> conv4_3_new_conv4_concat_0_split_1
I0819 20:51:26.523324 10334 net.cpp:150] Setting up conv4_3_new_conv4_concat_0_split
I0819 20:51:26.523331 10334 net.cpp:157] Top shape: 4 513 96 96 (18911232)
I0819 20:51:26.523339 10334 net.cpp:157] Top shape: 4 513 96 96 (18911232)
I0819 20:51:26.523344 10334 net.cpp:165] Memory required for data: 5833142784
I0819 20:51:26.523350 10334 layer_factory.hpp:77] Creating layer loss1_conv1
I0819 20:51:26.523366 10334 net.cpp:100] Creating Layer loss1_conv1
I0819 20:51:26.523372 10334 net.cpp:434] loss1_conv1 <- conv4_3_new_conv4_concat_0_split_0
I0819 20:51:26.523381 10334 net.cpp:408] loss1_conv1 -> loss1_conv1
I0819 20:51:26.588534 10334 net.cpp:150] Setting up loss1_conv1
I0819 20:51:26.588563 10334 net.cpp:157] Top shape: 4 512 96 96 (18874368)
I0819 20:51:26.588568 10334 net.cpp:165] Memory required for data: 5908640256
I0819 20:51:26.588578 10334 layer_factory.hpp:77] Creating layer loss_relu1
I0819 20:51:26.588594 10334 net.cpp:100] Creating Layer loss_relu1
I0819 20:51:26.588600 10334 net.cpp:434] loss_relu1 <- loss1_conv1
I0819 20:51:26.588611 10334 net.cpp:395] loss_relu1 -> loss1_conv1 (in-place)
I0819 20:51:26.589157 10334 net.cpp:150] Setting up loss_relu1
I0819 20:51:26.589170 10334 net.cpp:157] Top shape: 4 512 96 96 (18874368)
I0819 20:51:26.589174 10334 net.cpp:165] Memory required for data: 5984137728
I0819 20:51:26.589180 10334 layer_factory.hpp:77] Creating layer loss1_conv1_loss_relu1_0_split
I0819 20:51:26.589191 10334 net.cpp:100] Creating Layer loss1_conv1_loss_relu1_0_split
I0819 20:51:26.589196 10334 net.cpp:434] loss1_conv1_loss_relu1_0_split <- loss1_conv1
I0819 20:51:26.589205 10334 net.cpp:408] loss1_conv1_loss_relu1_0_split -> loss1_conv1_loss_relu1_0_split_0
I0819 20:51:26.589216 10334 net.cpp:408] loss1_conv1_loss_relu1_0_split -> loss1_conv1_loss_relu1_0_split_1
I0819 20:51:26.589264 10334 net.cpp:150] Setting up loss1_conv1_loss_relu1_0_split
I0819 20:51:26.589272 10334 net.cpp:157] Top shape: 4 512 96 96 (18874368)
I0819 20:51:26.589278 10334 net.cpp:157] Top shape: 4 512 96 96 (18874368)
I0819 20:51:26.589283 10334 net.cpp:165] Memory required for data: 6135132672
I0819 20:51:26.589288 10334 layer_factory.hpp:77] Creating layer LFCN_1_5x5
I0819 20:51:26.589303 10334 net.cpp:100] Creating Layer LFCN_1_5x5
I0819 20:51:26.589309 10334 net.cpp:434] LFCN_1_5x5 <- loss1_conv1_loss_relu1_0_split_0
I0819 20:51:26.589318 10334 net.cpp:408] LFCN_1_5x5 -> LFCN_1_5x5
I0819 20:51:26.595185 10334 net.cpp:150] Setting up LFCN_1_5x5
I0819 20:51:26.595196 10334 net.cpp:157] Top shape: 4 9 96 96 (331776)
I0819 20:51:26.595198 10334 net.cpp:165] Memory required for data: 6136459776
I0819 20:51:26.595204 10334 layer_factory.hpp:77] Creating layer LFCN_1_5x5_LFCN_1_5x5_0_split
I0819 20:51:26.595209 10334 net.cpp:100] Creating Layer LFCN_1_5x5_LFCN_1_5x5_0_split
I0819 20:51:26.595212 10334 net.cpp:434] LFCN_1_5x5_LFCN_1_5x5_0_split <- LFCN_1_5x5
I0819 20:51:26.595217 10334 net.cpp:408] LFCN_1_5x5_LFCN_1_5x5_0_split -> LFCN_1_5x5_LFCN_1_5x5_0_split_0
I0819 20:51:26.595223 10334 net.cpp:408] LFCN_1_5x5_LFCN_1_5x5_0_split -> LFCN_1_5x5_LFCN_1_5x5_0_split_1
I0819 20:51:26.595254 10334 net.cpp:150] Setting up LFCN_1_5x5_LFCN_1_5x5_0_split
I0819 20:51:26.595258 10334 net.cpp:157] Top shape: 4 9 96 96 (331776)
I0819 20:51:26.595263 10334 net.cpp:157] Top shape: 4 9 96 96 (331776)
I0819 20:51:26.595266 10334 net.cpp:165] Memory required for data: 6139113984
I0819 20:51:26.595268 10334 layer_factory.hpp:77] Creating layer detection_loss_1_5x5
I0819 20:51:26.595274 10334 net.cpp:100] Creating Layer detection_loss_1_5x5
I0819 20:51:26.595278 10334 net.cpp:434] detection_loss_1_5x5 <- LFCN_1_5x5_LFCN_1_5x5_0_split_0
I0819 20:51:26.595280 10334 net.cpp:434] detection_loss_1_5x5 <- label_1_5x5_data_1_split_0
I0819 20:51:26.595285 10334 net.cpp:408] detection_loss_1_5x5 -> loss_1_5x5
I0819 20:51:26.595299 10334 layer_factory.hpp:77] Creating layer detection_loss_1_5x5
I0819 20:51:26.596845 10334 net.cpp:150] Setting up detection_loss_1_5x5
I0819 20:51:26.596859 10334 net.cpp:157] Top shape: 1 1 1 2 (2)
I0819 20:51:26.596863 10334 net.cpp:160]     with loss weight 0.9
I0819 20:51:26.596881 10334 net.cpp:165] Memory required for data: 6139113992
I0819 20:51:26.596885 10334 layer_factory.hpp:77] Creating layer detection_accuracy_1_5x5
I0819 20:51:26.596892 10334 net.cpp:100] Creating Layer detection_accuracy_1_5x5
I0819 20:51:26.596896 10334 net.cpp:434] detection_accuracy_1_5x5 <- LFCN_1_5x5_LFCN_1_5x5_0_split_1
I0819 20:51:26.596902 10334 net.cpp:434] detection_accuracy_1_5x5 <- label_1_5x5_data_1_split_1
I0819 20:51:26.596907 10334 net.cpp:408] detection_accuracy_1_5x5 -> accuracy_1_5x5
I0819 20:51:26.596916 10334 net.cpp:408] detection_accuracy_1_5x5 -> boxiou_1_5x5
I0819 20:51:26.596954 10334 net.cpp:150] Setting up detection_accuracy_1_5x5
I0819 20:51:26.596961 10334 net.cpp:157] Top shape: 1 1 1 2 (2)
I0819 20:51:26.596966 10334 net.cpp:157] Top shape: 1 1 1 1 (1)
I0819 20:51:26.596969 10334 net.cpp:165] Memory required for data: 6139114004
I0819 20:51:26.596972 10334 layer_factory.hpp:77] Creating layer LFCN_1_7x7
I0819 20:51:26.596983 10334 net.cpp:100] Creating Layer LFCN_1_7x7
I0819 20:51:26.596988 10334 net.cpp:434] LFCN_1_7x7 <- loss1_conv1_loss_relu1_0_split_1
I0819 20:51:26.596997 10334 net.cpp:408] LFCN_1_7x7 -> LFCN_1_7x7
I0819 20:51:26.603899 10334 net.cpp:150] Setting up LFCN_1_7x7
I0819 20:51:26.603912 10334 net.cpp:157] Top shape: 4 9 96 96 (331776)
I0819 20:51:26.603915 10334 net.cpp:165] Memory required for data: 6140441108
I0819 20:51:26.603922 10334 layer_factory.hpp:77] Creating layer LFCN_1_7x7_LFCN_1_7x7_0_split
I0819 20:51:26.603929 10334 net.cpp:100] Creating Layer LFCN_1_7x7_LFCN_1_7x7_0_split
I0819 20:51:26.603932 10334 net.cpp:434] LFCN_1_7x7_LFCN_1_7x7_0_split <- LFCN_1_7x7
I0819 20:51:26.603938 10334 net.cpp:408] LFCN_1_7x7_LFCN_1_7x7_0_split -> LFCN_1_7x7_LFCN_1_7x7_0_split_0
I0819 20:51:26.603945 10334 net.cpp:408] LFCN_1_7x7_LFCN_1_7x7_0_split -> LFCN_1_7x7_LFCN_1_7x7_0_split_1
I0819 20:51:26.603978 10334 net.cpp:150] Setting up LFCN_1_7x7_LFCN_1_7x7_0_split
I0819 20:51:26.603986 10334 net.cpp:157] Top shape: 4 9 96 96 (331776)
I0819 20:51:26.603991 10334 net.cpp:157] Top shape: 4 9 96 96 (331776)
I0819 20:51:26.603993 10334 net.cpp:165] Memory required for data: 6143095316
I0819 20:51:26.603996 10334 layer_factory.hpp:77] Creating layer detection_loss_1_7x7
I0819 20:51:26.604004 10334 net.cpp:100] Creating Layer detection_loss_1_7x7
I0819 20:51:26.604010 10334 net.cpp:434] detection_loss_1_7x7 <- LFCN_1_7x7_LFCN_1_7x7_0_split_0
I0819 20:51:26.604017 10334 net.cpp:434] detection_loss_1_7x7 <- label_1_7x7_data_2_split_0
I0819 20:51:26.604032 10334 net.cpp:408] detection_loss_1_7x7 -> loss_1_7x7
I0819 20:51:26.604048 10334 layer_factory.hpp:77] Creating layer detection_loss_1_7x7
I0819 20:51:26.605620 10334 net.cpp:150] Setting up detection_loss_1_7x7
I0819 20:51:26.605633 10334 net.cpp:157] Top shape: 1 1 1 2 (2)
I0819 20:51:26.605638 10334 net.cpp:160]     with loss weight 0.9
I0819 20:51:26.605646 10334 net.cpp:165] Memory required for data: 6143095324
I0819 20:51:26.605649 10334 layer_factory.hpp:77] Creating layer detection_accuracy_1_7x7
I0819 20:51:26.605659 10334 net.cpp:100] Creating Layer detection_accuracy_1_7x7
I0819 20:51:26.605664 10334 net.cpp:434] detection_accuracy_1_7x7 <- LFCN_1_7x7_LFCN_1_7x7_0_split_1
I0819 20:51:26.605669 10334 net.cpp:434] detection_accuracy_1_7x7 <- label_1_7x7_data_2_split_1
I0819 20:51:26.605675 10334 net.cpp:408] detection_accuracy_1_7x7 -> accuracy_1_7x7
I0819 20:51:26.605686 10334 net.cpp:408] detection_accuracy_1_7x7 -> boxiou_1_7x7
I0819 20:51:26.605726 10334 net.cpp:150] Setting up detection_accuracy_1_7x7
I0819 20:51:26.605733 10334 net.cpp:157] Top shape: 1 1 1 2 (2)
I0819 20:51:26.605737 10334 net.cpp:157] Top shape: 1 1 1 1 (1)
I0819 20:51:26.605741 10334 net.cpp:165] Memory required for data: 6143095336
I0819 20:51:26.605747 10334 layer_factory.hpp:77] Creating layer pool4
I0819 20:51:26.605757 10334 net.cpp:100] Creating Layer pool4
I0819 20:51:26.605762 10334 net.cpp:434] pool4 <- conv4_3_new_conv4_concat_0_split_1
I0819 20:51:26.605769 10334 net.cpp:408] pool4 -> pool4
I0819 20:51:26.605815 10334 net.cpp:150] Setting up pool4
I0819 20:51:26.605823 10334 net.cpp:157] Top shape: 4 513 48 48 (4727808)
I0819 20:51:26.605829 10334 net.cpp:165] Memory required for data: 6162006568
I0819 20:51:26.605834 10334 layer_factory.hpp:77] Creating layer conv5_1_new
I0819 20:51:26.605844 10334 net.cpp:100] Creating Layer conv5_1_new
I0819 20:51:26.605849 10334 net.cpp:434] conv5_1_new <- pool4
I0819 20:51:26.605856 10334 net.cpp:408] conv5_1_new -> conv5_1
I0819 20:51:26.611764 10334 net.cpp:150] Setting up conv5_1_new
I0819 20:51:26.611799 10334 net.cpp:157] Top shape: 4 512 48 48 (4718592)
I0819 20:51:26.611804 10334 net.cpp:165] Memory required for data: 6180880936
I0819 20:51:26.611814 10334 layer_factory.hpp:77] Creating layer relu5_1
I0819 20:51:26.611831 10334 net.cpp:100] Creating Layer relu5_1
I0819 20:51:26.611840 10334 net.cpp:434] relu5_1 <- conv5_1
I0819 20:51:26.611850 10334 net.cpp:395] relu5_1 -> conv5_1 (in-place)
I0819 20:51:26.612063 10334 net.cpp:150] Setting up relu5_1
I0819 20:51:26.612077 10334 net.cpp:157] Top shape: 4 512 48 48 (4718592)
I0819 20:51:26.612082 10334 net.cpp:165] Memory required for data: 6199755304
I0819 20:51:26.612087 10334 layer_factory.hpp:77] Creating layer conv5_2
I0819 20:51:26.612102 10334 net.cpp:100] Creating Layer conv5_2
I0819 20:51:26.612107 10334 net.cpp:434] conv5_2 <- conv5_1
I0819 20:51:26.612113 10334 net.cpp:408] conv5_2 -> conv5_2
I0819 20:51:26.618070 10334 net.cpp:150] Setting up conv5_2
I0819 20:51:26.618101 10334 net.cpp:157] Top shape: 4 512 48 48 (4718592)
I0819 20:51:26.618105 10334 net.cpp:165] Memory required for data: 6218629672
I0819 20:51:26.618116 10334 layer_factory.hpp:77] Creating layer relu5_2
I0819 20:51:26.618130 10334 net.cpp:100] Creating Layer relu5_2
I0819 20:51:26.618137 10334 net.cpp:434] relu5_2 <- conv5_2
I0819 20:51:26.618144 10334 net.cpp:395] relu5_2 -> conv5_2 (in-place)
I0819 20:51:26.618310 10334 net.cpp:150] Setting up relu5_2
I0819 20:51:26.618320 10334 net.cpp:157] Top shape: 4 512 48 48 (4718592)
I0819 20:51:26.618324 10334 net.cpp:165] Memory required for data: 6237504040
I0819 20:51:26.618327 10334 layer_factory.hpp:77] Creating layer conv5_3
I0819 20:51:26.618336 10334 net.cpp:100] Creating Layer conv5_3
I0819 20:51:26.618340 10334 net.cpp:434] conv5_3 <- conv5_2
I0819 20:51:26.618346 10334 net.cpp:408] conv5_3 -> conv5_3
I0819 20:51:26.624249 10334 net.cpp:150] Setting up conv5_3
I0819 20:51:26.624282 10334 net.cpp:157] Top shape: 4 512 48 48 (4718592)
I0819 20:51:26.624286 10334 net.cpp:165] Memory required for data: 6256378408
I0819 20:51:26.624294 10334 layer_factory.hpp:77] Creating layer relu5_3
I0819 20:51:26.624306 10334 net.cpp:100] Creating Layer relu5_3
I0819 20:51:26.624313 10334 net.cpp:434] relu5_3 <- conv5_3
I0819 20:51:26.624320 10334 net.cpp:395] relu5_3 -> conv5_3 (in-place)
I0819 20:51:26.624480 10334 net.cpp:150] Setting up relu5_3
I0819 20:51:26.624490 10334 net.cpp:157] Top shape: 4 512 48 48 (4718592)
I0819 20:51:26.624492 10334 net.cpp:165] Memory required for data: 6275252776
I0819 20:51:26.624496 10334 layer_factory.hpp:77] Creating layer conv5_3_relu5_3_0_split
I0819 20:51:26.624501 10334 net.cpp:100] Creating Layer conv5_3_relu5_3_0_split
I0819 20:51:26.624505 10334 net.cpp:434] conv5_3_relu5_3_0_split <- conv5_3
I0819 20:51:26.624511 10334 net.cpp:408] conv5_3_relu5_3_0_split -> conv5_3_relu5_3_0_split_0
I0819 20:51:26.624517 10334 net.cpp:408] conv5_3_relu5_3_0_split -> conv5_3_relu5_3_0_split_1
I0819 20:51:26.624523 10334 net.cpp:408] conv5_3_relu5_3_0_split -> conv5_3_relu5_3_0_split_2
I0819 20:51:26.624568 10334 net.cpp:150] Setting up conv5_3_relu5_3_0_split
I0819 20:51:26.624575 10334 net.cpp:157] Top shape: 4 512 48 48 (4718592)
I0819 20:51:26.624579 10334 net.cpp:157] Top shape: 4 512 48 48 (4718592)
I0819 20:51:26.624583 10334 net.cpp:157] Top shape: 4 512 48 48 (4718592)
I0819 20:51:26.624586 10334 net.cpp:165] Memory required for data: 6331875880
I0819 20:51:26.624590 10334 layer_factory.hpp:77] Creating layer LFCN_2_5x5
I0819 20:51:26.624601 10334 net.cpp:100] Creating Layer LFCN_2_5x5
I0819 20:51:26.624605 10334 net.cpp:434] LFCN_2_5x5 <- conv5_3_relu5_3_0_split_0
I0819 20:51:26.624611 10334 net.cpp:408] LFCN_2_5x5 -> LFCN_2_5x5
I0819 20:51:26.628384 10334 net.cpp:150] Setting up LFCN_2_5x5
I0819 20:51:26.628397 10334 net.cpp:157] Top shape: 4 9 48 48 (82944)
I0819 20:51:26.628401 10334 net.cpp:165] Memory required for data: 6332207656
I0819 20:51:26.628412 10334 layer_factory.hpp:77] Creating layer LFCN_2_5x5_LFCN_2_5x5_0_split
I0819 20:51:26.628418 10334 net.cpp:100] Creating Layer LFCN_2_5x5_LFCN_2_5x5_0_split
I0819 20:51:26.628422 10334 net.cpp:434] LFCN_2_5x5_LFCN_2_5x5_0_split <- LFCN_2_5x5
I0819 20:51:26.628428 10334 net.cpp:408] LFCN_2_5x5_LFCN_2_5x5_0_split -> LFCN_2_5x5_LFCN_2_5x5_0_split_0
I0819 20:51:26.628434 10334 net.cpp:408] LFCN_2_5x5_LFCN_2_5x5_0_split -> LFCN_2_5x5_LFCN_2_5x5_0_split_1
I0819 20:51:26.628468 10334 net.cpp:150] Setting up LFCN_2_5x5_LFCN_2_5x5_0_split
I0819 20:51:26.628474 10334 net.cpp:157] Top shape: 4 9 48 48 (82944)
I0819 20:51:26.628479 10334 net.cpp:157] Top shape: 4 9 48 48 (82944)
I0819 20:51:26.628481 10334 net.cpp:165] Memory required for data: 6332871208
I0819 20:51:26.628485 10334 layer_factory.hpp:77] Creating layer detection_loss_2_5x5
I0819 20:51:26.628496 10334 net.cpp:100] Creating Layer detection_loss_2_5x5
I0819 20:51:26.628500 10334 net.cpp:434] detection_loss_2_5x5 <- LFCN_2_5x5_LFCN_2_5x5_0_split_0
I0819 20:51:26.628505 10334 net.cpp:434] detection_loss_2_5x5 <- label_2_5x5_data_3_split_0
I0819 20:51:26.628512 10334 net.cpp:408] detection_loss_2_5x5 -> loss_2_5x5
I0819 20:51:26.628521 10334 layer_factory.hpp:77] Creating layer detection_loss_2_5x5
I0819 20:51:26.629978 10334 net.cpp:150] Setting up detection_loss_2_5x5
I0819 20:51:26.629992 10334 net.cpp:157] Top shape: 1 1 1 2 (2)
I0819 20:51:26.629995 10334 net.cpp:160]     with loss weight 1
I0819 20:51:26.630007 10334 net.cpp:165] Memory required for data: 6332871216
I0819 20:51:26.630012 10334 layer_factory.hpp:77] Creating layer detection_accuracy_2_5x5
I0819 20:51:26.630019 10334 net.cpp:100] Creating Layer detection_accuracy_2_5x5
I0819 20:51:26.630023 10334 net.cpp:434] detection_accuracy_2_5x5 <- LFCN_2_5x5_LFCN_2_5x5_0_split_1
I0819 20:51:26.630028 10334 net.cpp:434] detection_accuracy_2_5x5 <- label_2_5x5_data_3_split_1
I0819 20:51:26.630034 10334 net.cpp:408] detection_accuracy_2_5x5 -> accuracy_2_5x5
I0819 20:51:26.630041 10334 net.cpp:408] detection_accuracy_2_5x5 -> boxiou_2_5x5
I0819 20:51:26.630080 10334 net.cpp:150] Setting up detection_accuracy_2_5x5
I0819 20:51:26.630087 10334 net.cpp:157] Top shape: 1 1 1 2 (2)
I0819 20:51:26.630092 10334 net.cpp:157] Top shape: 1 1 1 1 (1)
I0819 20:51:26.630096 10334 net.cpp:165] Memory required for data: 6332871228
I0819 20:51:26.630100 10334 layer_factory.hpp:77] Creating layer LFCN_2_7x7
I0819 20:51:26.630108 10334 net.cpp:100] Creating Layer LFCN_2_7x7
I0819 20:51:26.630113 10334 net.cpp:434] LFCN_2_7x7 <- conv5_3_relu5_3_0_split_1
I0819 20:51:26.630121 10334 net.cpp:408] LFCN_2_7x7 -> LFCN_2_7x7
I0819 20:51:26.637001 10334 net.cpp:150] Setting up LFCN_2_7x7
I0819 20:51:26.637014 10334 net.cpp:157] Top shape: 4 9 48 48 (82944)
I0819 20:51:26.637018 10334 net.cpp:165] Memory required for data: 6333203004
I0819 20:51:26.637024 10334 layer_factory.hpp:77] Creating layer LFCN_2_7x7_LFCN_2_7x7_0_split
I0819 20:51:26.637032 10334 net.cpp:100] Creating Layer LFCN_2_7x7_LFCN_2_7x7_0_split
I0819 20:51:26.637037 10334 net.cpp:434] LFCN_2_7x7_LFCN_2_7x7_0_split <- LFCN_2_7x7
I0819 20:51:26.637042 10334 net.cpp:408] LFCN_2_7x7_LFCN_2_7x7_0_split -> LFCN_2_7x7_LFCN_2_7x7_0_split_0
I0819 20:51:26.637048 10334 net.cpp:408] LFCN_2_7x7_LFCN_2_7x7_0_split -> LFCN_2_7x7_LFCN_2_7x7_0_split_1
I0819 20:51:26.637084 10334 net.cpp:150] Setting up LFCN_2_7x7_LFCN_2_7x7_0_split
I0819 20:51:26.637090 10334 net.cpp:157] Top shape: 4 9 48 48 (82944)
I0819 20:51:26.637095 10334 net.cpp:157] Top shape: 4 9 48 48 (82944)
I0819 20:51:26.637099 10334 net.cpp:165] Memory required for data: 6333866556
I0819 20:51:26.637102 10334 layer_factory.hpp:77] Creating layer detection_loss_2_7x7
I0819 20:51:26.637109 10334 net.cpp:100] Creating Layer detection_loss_2_7x7
I0819 20:51:26.637111 10334 net.cpp:434] detection_loss_2_7x7 <- LFCN_2_7x7_LFCN_2_7x7_0_split_0
I0819 20:51:26.637116 10334 net.cpp:434] detection_loss_2_7x7 <- label_2_7x7_data_4_split_0
I0819 20:51:26.637125 10334 net.cpp:408] detection_loss_2_7x7 -> loss_2_7x7
I0819 20:51:26.637132 10334 layer_factory.hpp:77] Creating layer detection_loss_2_7x7
I0819 20:51:26.637760 10334 net.cpp:150] Setting up detection_loss_2_7x7
I0819 20:51:26.637773 10334 net.cpp:157] Top shape: 1 1 1 2 (2)
I0819 20:51:26.637776 10334 net.cpp:160]     with loss weight 1
I0819 20:51:26.637784 10334 net.cpp:165] Memory required for data: 6333866564
I0819 20:51:26.637787 10334 layer_factory.hpp:77] Creating layer detection_accuracy_2_7x7
I0819 20:51:26.637794 10334 net.cpp:100] Creating Layer detection_accuracy_2_7x7
I0819 20:51:26.637797 10334 net.cpp:434] detection_accuracy_2_7x7 <- LFCN_2_7x7_LFCN_2_7x7_0_split_1
I0819 20:51:26.637802 10334 net.cpp:434] detection_accuracy_2_7x7 <- label_2_7x7_data_4_split_1
I0819 20:51:26.637807 10334 net.cpp:408] detection_accuracy_2_7x7 -> accuracy_2_7x7
I0819 20:51:26.637815 10334 net.cpp:408] detection_accuracy_2_7x7 -> boxiou_2_7x7
I0819 20:51:26.637850 10334 net.cpp:150] Setting up detection_accuracy_2_7x7
I0819 20:51:26.637856 10334 net.cpp:157] Top shape: 1 1 1 2 (2)
I0819 20:51:26.637859 10334 net.cpp:157] Top shape: 1 1 1 1 (1)
I0819 20:51:26.637862 10334 net.cpp:165] Memory required for data: 6333866576
I0819 20:51:26.637866 10334 layer_factory.hpp:77] Creating layer pool5
I0819 20:51:26.637872 10334 net.cpp:100] Creating Layer pool5
I0819 20:51:26.637876 10334 net.cpp:434] pool5 <- conv5_3_relu5_3_0_split_2
I0819 20:51:26.637881 10334 net.cpp:408] pool5 -> pool5
I0819 20:51:26.637915 10334 net.cpp:150] Setting up pool5
I0819 20:51:26.637922 10334 net.cpp:157] Top shape: 4 512 24 24 (1179648)
I0819 20:51:26.637925 10334 net.cpp:165] Memory required for data: 6338585168
I0819 20:51:26.637928 10334 layer_factory.hpp:77] Creating layer conv6_1
I0819 20:51:26.637938 10334 net.cpp:100] Creating Layer conv6_1
I0819 20:51:26.637940 10334 net.cpp:434] conv6_1 <- pool5
I0819 20:51:26.637948 10334 net.cpp:408] conv6_1 -> conv6_1
I0819 20:51:26.697686 10334 net.cpp:150] Setting up conv6_1
I0819 20:51:26.697715 10334 net.cpp:157] Top shape: 4 512 24 24 (1179648)
I0819 20:51:26.697718 10334 net.cpp:165] Memory required for data: 6343303760
I0819 20:51:26.697728 10334 layer_factory.hpp:77] Creating layer relu6_1
I0819 20:51:26.697741 10334 net.cpp:100] Creating Layer relu6_1
I0819 20:51:26.697748 10334 net.cpp:434] relu6_1 <- conv6_1
I0819 20:51:26.697754 10334 net.cpp:395] relu6_1 -> conv6_1 (in-place)
I0819 20:51:26.697908 10334 net.cpp:150] Setting up relu6_1
I0819 20:51:26.697917 10334 net.cpp:157] Top shape: 4 512 24 24 (1179648)
I0819 20:51:26.697921 10334 net.cpp:165] Memory required for data: 6348022352
I0819 20:51:26.697926 10334 layer_factory.hpp:77] Creating layer conv6_1_relu6_1_0_split
I0819 20:51:26.697930 10334 net.cpp:100] Creating Layer conv6_1_relu6_1_0_split
I0819 20:51:26.697934 10334 net.cpp:434] conv6_1_relu6_1_0_split <- conv6_1
I0819 20:51:26.697938 10334 net.cpp:408] conv6_1_relu6_1_0_split -> conv6_1_relu6_1_0_split_0
I0819 20:51:26.697948 10334 net.cpp:408] conv6_1_relu6_1_0_split -> conv6_1_relu6_1_0_split_1
I0819 20:51:26.697953 10334 net.cpp:408] conv6_1_relu6_1_0_split -> conv6_1_relu6_1_0_split_2
I0819 20:51:26.697999 10334 net.cpp:150] Setting up conv6_1_relu6_1_0_split
I0819 20:51:26.698006 10334 net.cpp:157] Top shape: 4 512 24 24 (1179648)
I0819 20:51:26.698011 10334 net.cpp:157] Top shape: 4 512 24 24 (1179648)
I0819 20:51:26.698015 10334 net.cpp:157] Top shape: 4 512 24 24 (1179648)
I0819 20:51:26.698019 10334 net.cpp:165] Memory required for data: 6362178128
I0819 20:51:26.698021 10334 layer_factory.hpp:77] Creating layer LFCN_3_5x5
I0819 20:51:26.698032 10334 net.cpp:100] Creating Layer LFCN_3_5x5
I0819 20:51:26.698036 10334 net.cpp:434] LFCN_3_5x5 <- conv6_1_relu6_1_0_split_0
I0819 20:51:26.698042 10334 net.cpp:408] LFCN_3_5x5 -> LFCN_3_5x5
I0819 20:51:26.702062 10334 net.cpp:150] Setting up LFCN_3_5x5
I0819 20:51:26.702075 10334 net.cpp:157] Top shape: 4 9 24 24 (20736)
I0819 20:51:26.702080 10334 net.cpp:165] Memory required for data: 6362261072
I0819 20:51:26.702085 10334 layer_factory.hpp:77] Creating layer LFCN_3_5x5_LFCN_3_5x5_0_split
I0819 20:51:26.702092 10334 net.cpp:100] Creating Layer LFCN_3_5x5_LFCN_3_5x5_0_split
I0819 20:51:26.702096 10334 net.cpp:434] LFCN_3_5x5_LFCN_3_5x5_0_split <- LFCN_3_5x5
I0819 20:51:26.702101 10334 net.cpp:408] LFCN_3_5x5_LFCN_3_5x5_0_split -> LFCN_3_5x5_LFCN_3_5x5_0_split_0
I0819 20:51:26.702111 10334 net.cpp:408] LFCN_3_5x5_LFCN_3_5x5_0_split -> LFCN_3_5x5_LFCN_3_5x5_0_split_1
I0819 20:51:26.702145 10334 net.cpp:150] Setting up LFCN_3_5x5_LFCN_3_5x5_0_split
I0819 20:51:26.702152 10334 net.cpp:157] Top shape: 4 9 24 24 (20736)
I0819 20:51:26.702157 10334 net.cpp:157] Top shape: 4 9 24 24 (20736)
I0819 20:51:26.702159 10334 net.cpp:165] Memory required for data: 6362426960
I0819 20:51:26.702163 10334 layer_factory.hpp:77] Creating layer detection_loss_3_5x5
I0819 20:51:26.702170 10334 net.cpp:100] Creating Layer detection_loss_3_5x5
I0819 20:51:26.702177 10334 net.cpp:434] detection_loss_3_5x5 <- LFCN_3_5x5_LFCN_3_5x5_0_split_0
I0819 20:51:26.702181 10334 net.cpp:434] detection_loss_3_5x5 <- label_3_5x5_data_5_split_0
I0819 20:51:26.702188 10334 net.cpp:408] detection_loss_3_5x5 -> loss_3_5x5
I0819 20:51:26.702198 10334 layer_factory.hpp:77] Creating layer detection_loss_3_5x5
I0819 20:51:26.702503 10334 net.cpp:150] Setting up detection_loss_3_5x5
I0819 20:51:26.702512 10334 net.cpp:157] Top shape: 1 1 1 2 (2)
I0819 20:51:26.702517 10334 net.cpp:160]     with loss weight 1
I0819 20:51:26.702527 10334 net.cpp:165] Memory required for data: 6362426968
I0819 20:51:26.702530 10334 layer_factory.hpp:77] Creating layer detection_accuracy_3_5x5
I0819 20:51:26.702536 10334 net.cpp:100] Creating Layer detection_accuracy_3_5x5
I0819 20:51:26.702539 10334 net.cpp:434] detection_accuracy_3_5x5 <- LFCN_3_5x5_LFCN_3_5x5_0_split_1
I0819 20:51:26.702544 10334 net.cpp:434] detection_accuracy_3_5x5 <- label_3_5x5_data_5_split_1
I0819 20:51:26.702551 10334 net.cpp:408] detection_accuracy_3_5x5 -> accuracy_3_5x5
I0819 20:51:26.702558 10334 net.cpp:408] detection_accuracy_3_5x5 -> boxiou_3_5x5
I0819 20:51:26.702591 10334 net.cpp:150] Setting up detection_accuracy_3_5x5
I0819 20:51:26.702599 10334 net.cpp:157] Top shape: 1 1 1 2 (2)
I0819 20:51:26.702603 10334 net.cpp:157] Top shape: 1 1 1 1 (1)
I0819 20:51:26.702606 10334 net.cpp:165] Memory required for data: 6362426980
I0819 20:51:26.702610 10334 layer_factory.hpp:77] Creating layer LFCN_3_7x7
I0819 20:51:26.702620 10334 net.cpp:100] Creating Layer LFCN_3_7x7
I0819 20:51:26.702623 10334 net.cpp:434] LFCN_3_7x7 <- conv6_1_relu6_1_0_split_1
I0819 20:51:26.702628 10334 net.cpp:408] LFCN_3_7x7 -> LFCN_3_7x7
I0819 20:51:26.709889 10334 net.cpp:150] Setting up LFCN_3_7x7
I0819 20:51:26.709903 10334 net.cpp:157] Top shape: 4 9 24 24 (20736)
I0819 20:51:26.709906 10334 net.cpp:165] Memory required for data: 6362509924
I0819 20:51:26.709911 10334 layer_factory.hpp:77] Creating layer LFCN_3_7x7_LFCN_3_7x7_0_split
I0819 20:51:26.709916 10334 net.cpp:100] Creating Layer LFCN_3_7x7_LFCN_3_7x7_0_split
I0819 20:51:26.709921 10334 net.cpp:434] LFCN_3_7x7_LFCN_3_7x7_0_split <- LFCN_3_7x7
I0819 20:51:26.709925 10334 net.cpp:408] LFCN_3_7x7_LFCN_3_7x7_0_split -> LFCN_3_7x7_LFCN_3_7x7_0_split_0
I0819 20:51:26.709931 10334 net.cpp:408] LFCN_3_7x7_LFCN_3_7x7_0_split -> LFCN_3_7x7_LFCN_3_7x7_0_split_1
I0819 20:51:26.709960 10334 net.cpp:150] Setting up LFCN_3_7x7_LFCN_3_7x7_0_split
I0819 20:51:26.709965 10334 net.cpp:157] Top shape: 4 9 24 24 (20736)
I0819 20:51:26.709969 10334 net.cpp:157] Top shape: 4 9 24 24 (20736)
I0819 20:51:26.709971 10334 net.cpp:165] Memory required for data: 6362675812
I0819 20:51:26.709973 10334 layer_factory.hpp:77] Creating layer detection_loss_3_7x7
I0819 20:51:26.709980 10334 net.cpp:100] Creating Layer detection_loss_3_7x7
I0819 20:51:26.709982 10334 net.cpp:434] detection_loss_3_7x7 <- LFCN_3_7x7_LFCN_3_7x7_0_split_0
I0819 20:51:26.709987 10334 net.cpp:434] detection_loss_3_7x7 <- label_3_7x7_data_6_split_0
I0819 20:51:26.709993 10334 net.cpp:408] detection_loss_3_7x7 -> loss_3_7x7
I0819 20:51:26.710000 10334 layer_factory.hpp:77] Creating layer detection_loss_3_7x7
I0819 20:51:26.710304 10334 net.cpp:150] Setting up detection_loss_3_7x7
I0819 20:51:26.710314 10334 net.cpp:157] Top shape: 1 1 1 2 (2)
I0819 20:51:26.710317 10334 net.cpp:160]     with loss weight 1
I0819 20:51:26.710325 10334 net.cpp:165] Memory required for data: 6362675820
I0819 20:51:26.710328 10334 layer_factory.hpp:77] Creating layer detection_accuracy_3_7x7
I0819 20:51:26.710335 10334 net.cpp:100] Creating Layer detection_accuracy_3_7x7
I0819 20:51:26.710338 10334 net.cpp:434] detection_accuracy_3_7x7 <- LFCN_3_7x7_LFCN_3_7x7_0_split_1
I0819 20:51:26.710343 10334 net.cpp:434] detection_accuracy_3_7x7 <- label_3_7x7_data_6_split_1
I0819 20:51:26.710348 10334 net.cpp:408] detection_accuracy_3_7x7 -> accuracy_3_7x7
I0819 20:51:26.710355 10334 net.cpp:408] detection_accuracy_3_7x7 -> boxiou_3_7x7
I0819 20:51:26.710388 10334 net.cpp:150] Setting up detection_accuracy_3_7x7
I0819 20:51:26.710394 10334 net.cpp:157] Top shape: 1 1 1 2 (2)
I0819 20:51:26.710398 10334 net.cpp:157] Top shape: 1 1 1 1 (1)
I0819 20:51:26.710402 10334 net.cpp:165] Memory required for data: 6362675832
I0819 20:51:26.710405 10334 layer_factory.hpp:77] Creating layer pool6
I0819 20:51:26.710412 10334 net.cpp:100] Creating Layer pool6
I0819 20:51:26.710415 10334 net.cpp:434] pool6 <- conv6_1_relu6_1_0_split_2
I0819 20:51:26.710420 10334 net.cpp:408] pool6 -> pool6
I0819 20:51:26.710454 10334 net.cpp:150] Setting up pool6
I0819 20:51:26.710461 10334 net.cpp:157] Top shape: 4 512 12 12 (294912)
I0819 20:51:26.710464 10334 net.cpp:165] Memory required for data: 6363855480
I0819 20:51:26.710467 10334 layer_factory.hpp:77] Creating layer LFCN_4_5x5
I0819 20:51:26.710476 10334 net.cpp:100] Creating Layer LFCN_4_5x5
I0819 20:51:26.710480 10334 net.cpp:434] LFCN_4_5x5 <- pool6
I0819 20:51:26.710486 10334 net.cpp:408] LFCN_4_5x5 -> LFCN_4_5x5
I0819 20:51:26.714488 10334 net.cpp:150] Setting up LFCN_4_5x5
I0819 20:51:26.714506 10334 net.cpp:157] Top shape: 4 9 12 12 (5184)
I0819 20:51:26.714509 10334 net.cpp:165] Memory required for data: 6363876216
I0819 20:51:26.714516 10334 layer_factory.hpp:77] Creating layer LFCN_4_5x5_LFCN_4_5x5_0_split
I0819 20:51:26.714524 10334 net.cpp:100] Creating Layer LFCN_4_5x5_LFCN_4_5x5_0_split
I0819 20:51:26.714529 10334 net.cpp:434] LFCN_4_5x5_LFCN_4_5x5_0_split <- LFCN_4_5x5
I0819 20:51:26.714534 10334 net.cpp:408] LFCN_4_5x5_LFCN_4_5x5_0_split -> LFCN_4_5x5_LFCN_4_5x5_0_split_0
I0819 20:51:26.714542 10334 net.cpp:408] LFCN_4_5x5_LFCN_4_5x5_0_split -> LFCN_4_5x5_LFCN_4_5x5_0_split_1
I0819 20:51:26.714576 10334 net.cpp:150] Setting up LFCN_4_5x5_LFCN_4_5x5_0_split
I0819 20:51:26.714581 10334 net.cpp:157] Top shape: 4 9 12 12 (5184)
I0819 20:51:26.714584 10334 net.cpp:157] Top shape: 4 9 12 12 (5184)
I0819 20:51:26.714587 10334 net.cpp:165] Memory required for data: 6363917688
I0819 20:51:26.714591 10334 layer_factory.hpp:77] Creating layer detection_loss_4_5x5
I0819 20:51:26.714597 10334 net.cpp:100] Creating Layer detection_loss_4_5x5
I0819 20:51:26.714601 10334 net.cpp:434] detection_loss_4_5x5 <- LFCN_4_5x5_LFCN_4_5x5_0_split_0
I0819 20:51:26.714606 10334 net.cpp:434] detection_loss_4_5x5 <- label_4_5x5_data_7_split_0
I0819 20:51:26.714610 10334 net.cpp:408] detection_loss_4_5x5 -> loss_4_5x5
I0819 20:51:26.714617 10334 layer_factory.hpp:77] Creating layer detection_loss_4_5x5
I0819 20:51:26.714921 10334 net.cpp:150] Setting up detection_loss_4_5x5
I0819 20:51:26.714931 10334 net.cpp:157] Top shape: 1 1 1 2 (2)
I0819 20:51:26.714934 10334 net.cpp:160]     with loss weight 1
I0819 20:51:26.714941 10334 net.cpp:165] Memory required for data: 6363917696
I0819 20:51:26.714946 10334 layer_factory.hpp:77] Creating layer detection_accuracy_4_5x5
I0819 20:51:26.714951 10334 net.cpp:100] Creating Layer detection_accuracy_4_5x5
I0819 20:51:26.714953 10334 net.cpp:434] detection_accuracy_4_5x5 <- LFCN_4_5x5_LFCN_4_5x5_0_split_1
I0819 20:51:26.714958 10334 net.cpp:434] detection_accuracy_4_5x5 <- label_4_5x5_data_7_split_1
I0819 20:51:26.714964 10334 net.cpp:408] detection_accuracy_4_5x5 -> accuracy_4_5x5
I0819 20:51:26.714972 10334 net.cpp:408] detection_accuracy_4_5x5 -> boxiou_4_5x5
I0819 20:51:26.715004 10334 net.cpp:150] Setting up detection_accuracy_4_5x5
I0819 20:51:26.715011 10334 net.cpp:157] Top shape: 1 1 1 2 (2)
I0819 20:51:26.715015 10334 net.cpp:157] Top shape: 1 1 1 1 (1)
I0819 20:51:26.715018 10334 net.cpp:165] Memory required for data: 6363917708
I0819 20:51:26.715023 10334 net.cpp:228] detection_accuracy_4_5x5 does not need backward computation.
I0819 20:51:26.715025 10334 net.cpp:226] detection_loss_4_5x5 needs backward computation.
I0819 20:51:26.715029 10334 net.cpp:226] LFCN_4_5x5_LFCN_4_5x5_0_split needs backward computation.
I0819 20:51:26.715032 10334 net.cpp:226] LFCN_4_5x5 needs backward computation.
…
I0819 20:51:26.726446 10334 image_gt_data_layer.cpp:235] output label size 1 : 2,6,96,96
I0819 20:51:26.726487 10334 image_gt_data_layer.cpp:235] output label size 2 : 2,6,48,48
I0819 20:51:26.726527 10334 image_gt_data_layer.cpp:235] output label size 3 : 2,6,48,48
I0819 20:51:26.726567 10334 image_gt_data_layer.cpp:235] output label size 4 : 2,6,24,24
I0819 20:51:26.726606 10334 image_gt_data_layer.cpp:235] output label size 5 : 2,6,24,24
I0819 20:51:26.726645 10334 image_gt_data_layer.cpp:235] output label size 6 : 2,6,12,12
I0819 20:51:26.757299 10334 net.cpp:150] Setting up data
I0819 20:51:26.757324 10334 net.cpp:157] Top shape: 2 4 768 768 (4718592)
I0819 20:51:26.757330 10334 net.cpp:157] Top shape: 2 6 96 96 (110592)
I0819 20:51:26.757335 10334 net.cpp:157] Top shape: 2 6 96 96 (110592)
I0819 20:51:26.757340 10334 net.cpp:157] Top shape: 2 6 48 48 (27648)
I0819 20:51:26.757344 10334 net.cpp:157] Top shape: 2 6 48 48 (27648)
I0819 20:51:26.757349 10334 net.cpp:157] Top shape: 2 6 24 24 (6912)
I0819 20:51:26.757354 10334 net.cpp:157] Top shape: 2 6 24 24 (6912)
I0819 20:51:26.757359 10334 net.cpp:157] Top shape: 2 6 12 12 (1728)
I0819 20:51:26.757362 10334 net.cpp:165] Memory required for data: 20042496
I0819 20:51:26.757369 10334 layer_factory.hpp:77] Creating layer label_1_5x5_data_1_split
I0819 20:51:26.757382 10334 net.cpp:100] Creating Layer label_1_5x5_data_1_split
I0819 20:51:26.757387 10334 net.cpp:434] label_1_5x5_data_1_split <- label_1_5x5
I0819 20:51:26.757393 10334 net.cpp:408] label_1_5x5_data_1_split -> label_1_5x5_data_1_split_0
I0819 20:51:26.757403 10334 net.cpp:408] label_1_5x5_data_1_split -> label_1_5x5_data_1_split_1
I0819 20:51:26.757769 10334 net.cpp:150] Setting up label_1_5x5_data_1_split
I0819 20:51:26.757813 10334 net.cpp:157] Top shape: 2 6 96 96 (110592)
I0819 20:51:26.757824 10334 net.cpp:157] Top shape: 2 6 96 96 (110592)
I0819 20:51:26.757833 10334 net.cpp:165] Memory required for data: 20927232
I0819 20:51:26.757844 10334 layer_factory.hpp:77] Creating layer label_1_7x7_data_2_split
I0819 20:51:26.757865 10334 net.cpp:100] Creating Layer label_1_7x7_data_2_split
I0819 20:51:26.757874 10334 net.cpp:434] label_1_7x7_data_2_split <- label_1_7x7
I0819 20:51:26.757889 10334 net.cpp:408] label_1_7x7_data_2_split -> label_1_7x7_data_2_split_0
I0819 20:51:26.757905 10334 net.cpp:408] label_1_7x7_data_2_split -> label_1_7x7_data_2_split_1
I0819 20:51:26.757982 10334 net.cpp:150] Setting up label_1_7x7_data_2_split
I0819 20:51:26.757993 10334 net.cpp:157] Top shape: 2 6 96 96 (110592)
I0819 20:51:26.758002 10334 net.cpp:157] Top shape: 2 6 96 96 (110592)
I0819 20:51:26.758009 10334 net.cpp:165] Memory required for data: 21811968
I0819 20:51:26.758018 10334 layer_factory.hpp:77] Creating layer label_2_5x5_data_3_split
I0819 20:51:26.758028 10334 net.cpp:100] Creating Layer label_2_5x5_data_3_split
I0819 20:51:26.758034 10334 net.cpp:434] label_2_5x5_data_3_split <- label_2_5x5
I0819 20:51:26.758045 10334 net.cpp:408] label_2_5x5_data_3_split -> label_2_5x5_data_3_split_0
I0819 20:51:26.758056 10334 net.cpp:408] label_2_5x5_data_3_split -> label_2_5x5_data_3_split_1
I0819 20:51:26.758124 10334 net.cpp:150] Setting up label_2_5x5_data_3_split
I0819 20:51:26.758136 10334 net.cpp:157] Top shape: 2 6 48 48 (27648)
I0819 20:51:26.758144 10334 net.cpp:157] Top shape: 2 6 48 48 (27648)
I0819 20:51:26.758152 10334 net.cpp:165] Memory required for data: 22033152
I0819 20:51:26.758158 10334 layer_factory.hpp:77] Creating layer label_2_7x7_data_4_split
I0819 20:51:26.758168 10334 net.cpp:100] Creating Layer label_2_7x7_data_4_split
I0819 20:51:26.758177 10334 net.cpp:434] label_2_7x7_data_4_split <- label_2_7x7
I0819 20:51:26.758186 10334 net.cpp:408] label_2_7x7_data_4_split -> label_2_7x7_data_4_split_0
I0819 20:51:26.758198 10334 net.cpp:408] label_2_7x7_data_4_split -> label_2_7x7_data_4_split_1
I0819 20:51:26.758265 10334 net.cpp:150] Setting up label_2_7x7_data_4_split
I0819 20:51:26.758276 10334 net.cpp:157] Top shape: 2 6 48 48 (27648)
I0819 20:51:26.758285 10334 net.cpp:157] Top shape: 2 6 48 48 (27648)
I0819 20:51:26.758292 10334 net.cpp:165] Memory required for data: 22254336
I0819 20:51:26.758299 10334 layer_factory.hpp:77] Creating layer label_3_5x5_data_5_split
I0819 20:51:26.758309 10334 net.cpp:100] Creating Layer label_3_5x5_data_5_split
I0819 20:51:26.758316 10334 net.cpp:434] label_3_5x5_data_5_split <- label_3_5x5
I0819 20:51:26.758333 10334 net.cpp:408] label_3_5x5_data_5_split -> label_3_5x5_data_5_split_0
I0819 20:51:26.758348 10334 net.cpp:408] label_3_5x5_data_5_split -> label_3_5x5_data_5_split_1
I0819 20:51:26.758422 10334 net.cpp:150] Setting up label_3_5x5_data_5_split
I0819 20:51:26.758435 10334 net.cpp:157] Top shape: 2 6 24 24 (6912)
I0819 20:51:26.758445 10334 net.cpp:157] Top shape: 2 6 24 24 (6912)
I0819 20:51:26.758451 10334 net.cpp:165] Memory required for data: 22309632
I0819 20:51:26.758460 10334 layer_factory.hpp:77] Creating layer label_3_7x7_data_6_split
I0819 20:51:26.758468 10334 net.cpp:100] Creating Layer label_3_7x7_data_6_split
I0819 20:51:26.758476 10334 net.cpp:434] label_3_7x7_data_6_split <- label_3_7x7
I0819 20:51:26.758488 10334 net.cpp:408] label_3_7x7_data_6_split -> label_3_7x7_data_6_split_0
I0819 20:51:26.758500 10334 net.cpp:408] label_3_7x7_data_6_split -> label_3_7x7_data_6_split_1
I0819 20:51:26.758569 10334 net.cpp:150] Setting up label_3_7x7_data_6_split
I0819 20:51:26.758580 10334 net.cpp:157] Top shape: 2 6 24 24 (6912)
I0819 20:51:26.758589 10334 net.cpp:157] Top shape: 2 6 24 24 (6912)
I0819 20:51:26.758596 10334 net.cpp:165] Memory required for data: 22364928
I0819 20:51:26.758604 10334 layer_factory.hpp:77] Creating layer label_4_5x5_data_7_split
I0819 20:51:26.758612 10334 net.cpp:100] Creating Layer label_4_5x5_data_7_split
I0819 20:51:26.758620 10334 net.cpp:434] label_4_5x5_data_7_split <- label_4_5x5
I0819 20:51:26.758630 10334 net.cpp:408] label_4_5x5_data_7_split -> label_4_5x5_data_7_split_0
I0819 20:51:26.758642 10334 net.cpp:408] label_4_5x5_data_7_split -> label_4_5x5_data_7_split_1
I0819 20:51:26.758710 10334 net.cpp:150] Setting up label_4_5x5_data_7_split
I0819 20:51:26.758721 10334 net.cpp:157] Top shape: 2 6 12 12 (1728)
I0819 20:51:26.758730 10334 net.cpp:157] Top shape: 2 6 12 12 (1728)
I0819 20:51:26.758736 10334 net.cpp:165] Memory required for data: 22378752
I0819 20:51:26.758744 10334 layer_factory.hpp:77] Creating layer slice
I0819 20:51:26.758761 10334 net.cpp:100] Creating Layer slice
I0819 20:51:26.758769 10334 net.cpp:434] slice <- data
I0819 20:51:26.758783 10334 net.cpp:408] slice -> data123
I0819 20:51:26.758795 10334 net.cpp:408] slice -> ch4
I0819 20:51:26.758867 10334 net.cpp:150] Setting up slice
I0819 20:51:26.758878 10334 net.cpp:157] Top shape: 2 3 768 768 (3538944)
I0819 20:51:26.758888 10334 net.cpp:157] Top shape: 2 1 768 768 (1179648)
I0819 20:51:26.758894 10334 net.cpp:165] Memory required for data: 41253120
I0819 20:51:26.758901 10334 layer_factory.hpp:77] Creating layer conv1_1
I0819 20:51:26.758919 10334 net.cpp:100] Creating Layer conv1_1
I0819 20:51:26.758926 10334 net.cpp:434] conv1_1 <- data123
I0819 20:51:26.758939 10334 net.cpp:408] conv1_1 -> conv1_1
I0819 20:51:26.766223 10334 net.cpp:150] Setting up conv1_1
I0819 20:51:26.766240 10334 net.cpp:157] Top shape: 2 64 768 768 (75497472)
I0819 20:51:26.766245 10334 net.cpp:165] Memory required for data: 343243008
I0819 20:51:26.766258 10334 layer_factory.hpp:77] Creating layer relu1_1
I0819 20:51:26.766269 10334 net.cpp:100] Creating Layer relu1_1
I0819 20:51:26.766275 10334 net.cpp:434] relu1_1 <- conv1_1
I0819 20:51:26.766281 10334 net.cpp:395] relu1_1 -> conv1_1 (in-place)
I0819 20:51:26.766945 10334 net.cpp:150] Setting up relu1_1
I0819 20:51:26.766957 10334 net.cpp:157] Top shape: 2 64 768 768 (75497472)
I0819 20:51:26.766973 10334 net.cpp:165] Memory required for data: 645232896
I0819 20:51:26.766978 10334 layer_factory.hpp:77] Creating layer conv1_2
I0819 20:51:26.766990 10334 net.cpp:100] Creating Layer conv1_2
I0819 20:51:26.766995 10334 net.cpp:434] conv1_2 <- conv1_1
I0819 20:51:26.767002 10334 net.cpp:408] conv1_2 -> conv1_2
I0819 20:51:26.769529 10334 net.cpp:150] Setting up conv1_2
I0819 20:51:26.769546 10334 net.cpp:157] Top shape: 2 64 768 768 (75497472)
I0819 20:51:26.769549 10334 net.cpp:165] Memory required for data: 947222784
I0819 20:51:26.769560 10334 layer_factory.hpp:77] Creating layer relu1_2
I0819 20:51:26.769568 10334 net.cpp:100] Creating Layer relu1_2
I0819 20:51:26.769572 10334 net.cpp:434] relu1_2 <- conv1_2
I0819 20:51:26.769579 10334 net.cpp:395] relu1_2 -> conv1_2 (in-place)
I0819 20:51:26.769788 10334 net.cpp:150] Setting up relu1_2
I0819 20:51:26.769796 10334 net.cpp:157] Top shape: 2 64 768 768 (75497472)
I0819 20:51:26.769800 10334 net.cpp:165] Memory required for data: 1249212672
I0819 20:51:26.769804 10334 layer_factory.hpp:77] Creating layer pool1
I0819 20:51:26.769814 10334 net.cpp:100] Creating Layer pool1
I0819 20:51:26.769817 10334 net.cpp:434] pool1 <- conv1_2
I0819 20:51:26.769824 10334 net.cpp:408] pool1 -> pool1
I0819 20:51:26.769875 10334 net.cpp:150] Setting up pool1
I0819 20:51:26.769881 10334 net.cpp:157] Top shape: 2 64 384 384 (18874368)
I0819 20:51:26.769884 10334 net.cpp:165] Memory required for data: 1324710144
I0819 20:51:26.769888 10334 layer_factory.hpp:77] Creating layer ch4_pool1
I0819 20:51:26.769894 10334 net.cpp:100] Creating Layer ch4_pool1
I0819 20:51:26.769898 10334 net.cpp:434] ch4_pool1 <- ch4
I0819 20:51:26.769904 10334 net.cpp:408] ch4_pool1 -> ch4_pool1
I0819 20:51:26.769943 10334 net.cpp:150] Setting up ch4_pool1
I0819 20:51:26.769949 10334 net.cpp:157] Top shape: 2 1 384 384 (294912)
I0819 20:51:26.769953 10334 net.cpp:165] Memory required for data: 1325889792
I0819 20:51:26.769956 10334 layer_factory.hpp:77] Creating layer ch4_pool1_ch4_pool1_0_split
I0819 20:51:26.769964 10334 net.cpp:100] Creating Layer ch4_pool1_ch4_pool1_0_split
I0819 20:51:26.769968 10334 net.cpp:434] ch4_pool1_ch4_pool1_0_split <- ch4_pool1
I0819 20:51:26.769973 10334 net.cpp:408] ch4_pool1_ch4_pool1_0_split -> ch4_pool1_ch4_pool1_0_split_0
I0819 20:51:26.769979 10334 net.cpp:408] ch4_pool1_ch4_pool1_0_split -> ch4_pool1_ch4_pool1_0_split_1
I0819 20:51:26.770017 10334 net.cpp:150] Setting up ch4_pool1_ch4_pool1_0_split
I0819 20:51:26.770023 10334 net.cpp:157] Top shape: 2 1 384 384 (294912)
I0819 20:51:26.770028 10334 net.cpp:157] Top shape: 2 1 384 384 (294912)
I0819 20:51:26.770031 10334 net.cpp:165] Memory required for data: 1328249088
I0819 20:51:26.770035 10334 layer_factory.hpp:77] Creating layer pool1_concat
I0819 20:51:26.770045 10334 net.cpp:100] Creating Layer pool1_concat
I0819 20:51:26.770048 10334 net.cpp:434] pool1_concat <- pool1
I0819 20:51:26.770053 10334 net.cpp:434] pool1_concat <- ch4_pool1_ch4_pool1_0_split_0
I0819 20:51:26.770058 10334 net.cpp:408] pool1_concat -> pool1_new
I0819 20:51:26.770083 10334 net.cpp:150] Setting up pool1_concat
I0819 20:51:26.770089 10334 net.cpp:157] Top shape: 2 65 384 384 (19169280)
I0819 20:51:26.770092 10334 net.cpp:165] Memory required for data: 1404926208
I0819 20:51:26.770097 10334 layer_factory.hpp:77] Creating layer conv2_1_new
I0819 20:51:26.770107 10334 net.cpp:100] Creating Layer conv2_1_new
I0819 20:51:26.770112 10334 net.cpp:434] conv2_1_new <- pool1_new
I0819 20:51:26.770117 10334 net.cpp:408] conv2_1_new -> conv2_1
I0819 20:51:26.772783 10334 net.cpp:150] Setting up conv2_1_new
I0819 20:51:26.772799 10334 net.cpp:157] Top shape: 2 128 384 384 (37748736)
I0819 20:51:26.772804 10334 net.cpp:165] Memory required for data: 1555921152
I0819 20:51:26.772814 10334 layer_factory.hpp:77] Creating layer relu2_1
I0819 20:51:26.772821 10334 net.cpp:100] Creating Layer relu2_1
I0819 20:51:26.772826 10334 net.cpp:434] relu2_1 <- conv2_1
I0819 20:51:26.772831 10334 net.cpp:395] relu2_1 -> conv2_1 (in-place)
I0819 20:51:26.773038 10334 net.cpp:150] Setting up relu2_1
I0819 20:51:26.773047 10334 net.cpp:157] Top shape: 2 128 384 384 (37748736)
I0819 20:51:26.773051 10334 net.cpp:165] Memory required for data: 1706916096
I0819 20:51:26.773056 10334 layer_factory.hpp:77] Creating layer conv2_2
I0819 20:51:26.773064 10334 net.cpp:100] Creating Layer conv2_2
I0819 20:51:26.773069 10334 net.cpp:434] conv2_2 <- conv2_1
I0819 20:51:26.773074 10334 net.cpp:408] conv2_2 -> conv2_2
I0819 20:51:26.775171 10334 net.cpp:150] Setting up conv2_2
I0819 20:51:26.775185 10334 net.cpp:157] Top shape: 2 128 384 384 (37748736)
I0819 20:51:26.775189 10334 net.cpp:165] Memory required for data: 1857911040
I0819 20:51:26.775197 10334 layer_factory.hpp:77] Creating layer relu2_2
I0819 20:51:26.775203 10334 net.cpp:100] Creating Layer relu2_2
I0819 20:51:26.775207 10334 net.cpp:434] relu2_2 <- conv2_2
I0819 20:51:26.775213 10334 net.cpp:395] relu2_2 -> conv2_2 (in-place)
I0819 20:51:26.775415 10334 net.cpp:150] Setting up relu2_2
I0819 20:51:26.775424 10334 net.cpp:157] Top shape: 2 128 384 384 (37748736)
I0819 20:51:26.775457 10334 net.cpp:165] Memory required for data: 2008905984
I0819 20:51:26.775462 10334 layer_factory.hpp:77] Creating layer pool2
I0819 20:51:26.775471 10334 net.cpp:100] Creating Layer pool2
I0819 20:51:26.775475 10334 net.cpp:434] pool2 <- conv2_2
I0819 20:51:26.775482 10334 net.cpp:408] pool2 -> pool2
I0819 20:51:26.775530 10334 net.cpp:150] Setting up pool2
I0819 20:51:26.775537 10334 net.cpp:157] Top shape: 2 128 192 192 (9437184)
I0819 20:51:26.775540 10334 net.cpp:165] Memory required for data: 2046654720
I0819 20:51:26.775543 10334 layer_factory.hpp:77] Creating layer ch4_pool2
I0819 20:51:26.775552 10334 net.cpp:100] Creating Layer ch4_pool2
I0819 20:51:26.775555 10334 net.cpp:434] ch4_pool2 <- ch4_pool1_ch4_pool1_0_split_1
I0819 20:51:26.775560 10334 net.cpp:408] ch4_pool2 -> ch4_pool2
I0819 20:51:26.775600 10334 net.cpp:150] Setting up ch4_pool2
I0819 20:51:26.775606 10334 net.cpp:157] Top shape: 2 1 192 192 (73728)
I0819 20:51:26.775609 10334 net.cpp:165] Memory required for data: 2046949632
I0819 20:51:26.775614 10334 layer_factory.hpp:77] Creating layer ch4_pool2_ch4_pool2_0_split
I0819 20:51:26.775619 10334 net.cpp:100] Creating Layer ch4_pool2_ch4_pool2_0_split
I0819 20:51:26.775624 10334 net.cpp:434] ch4_pool2_ch4_pool2_0_split <- ch4_pool2
I0819 20:51:26.775629 10334 net.cpp:408] ch4_pool2_ch4_pool2_0_split -> ch4_pool2_ch4_pool2_0_split_0
I0819 20:51:26.775636 10334 net.cpp:408] ch4_pool2_ch4_pool2_0_split -> ch4_pool2_ch4_pool2_0_split_1
I0819 20:51:26.775673 10334 net.cpp:150] Setting up ch4_pool2_ch4_pool2_0_split
I0819 20:51:26.775679 10334 net.cpp:157] Top shape: 2 1 192 192 (73728)
I0819 20:51:26.775684 10334 net.cpp:157] Top shape: 2 1 192 192 (73728)
I0819 20:51:26.775687 10334 net.cpp:165] Memory required for data: 2047539456
I0819 20:51:26.775691 10334 layer_factory.hpp:77] Creating layer pool2_concat
I0819 20:51:26.775698 10334 net.cpp:100] Creating Layer pool2_concat
I0819 20:51:26.775702 10334 net.cpp:434] pool2_concat <- pool2
I0819 20:51:26.775707 10334 net.cpp:434] pool2_concat <- ch4_pool2_ch4_pool2_0_split_0
I0819 20:51:26.775713 10334 net.cpp:408] pool2_concat -> pool2_new
I0819 20:51:26.775737 10334 net.cpp:150] Setting up pool2_concat
I0819 20:51:26.775741 10334 net.cpp:157] Top shape: 2 129 192 192 (9510912)
I0819 20:51:26.775748 10334 net.cpp:165] Memory required for data: 2085583104
I0819 20:51:26.775751 10334 layer_factory.hpp:77] Creating layer conv3_1_new
I0819 20:51:26.775759 10334 net.cpp:100] Creating Layer conv3_1_new
I0819 20:51:26.775764 10334 net.cpp:434] conv3_1_new <- pool2_new
I0819 20:51:26.775770 10334 net.cpp:408] conv3_1_new -> conv3_1
I0819 20:51:26.781805 10334 net.cpp:150] Setting up conv3_1_new
I0819 20:51:26.781847 10334 net.cpp:157] Top shape: 2 256 192 192 (18874368)
I0819 20:51:26.781857 10334 net.cpp:165] Memory required for data: 2161080576
I0819 20:51:26.781884 10334 layer_factory.hpp:77] Creating layer relu3_1
I0819 20:51:26.781906 10334 net.cpp:100] Creating Layer relu3_1
I0819 20:51:26.781918 10334 net.cpp:434] relu3_1 <- conv3_1
I0819 20:51:26.781929 10334 net.cpp:395] relu3_1 -> conv3_1 (in-place)
I0819 20:51:26.782347 10334 net.cpp:150] Setting up relu3_1
I0819 20:51:26.782366 10334 net.cpp:157] Top shape: 2 256 192 192 (18874368)
I0819 20:51:26.782374 10334 net.cpp:165] Memory required for data: 2236578048
I0819 20:51:26.782382 10334 layer_factory.hpp:77] Creating layer conv3_2
I0819 20:51:26.782402 10334 net.cpp:100] Creating Layer conv3_2
I0819 20:51:26.782410 10334 net.cpp:434] conv3_2 <- conv3_1
I0819 20:51:26.782423 10334 net.cpp:408] conv3_2 -> conv3_2
I0819 20:51:26.788000 10334 net.cpp:150] Setting up conv3_2
I0819 20:51:26.788033 10334 net.cpp:157] Top shape: 2 256 192 192 (18874368)
I0819 20:51:26.788041 10334 net.cpp:165] Memory required for data: 2312075520
I0819 20:51:26.788058 10334 layer_factory.hpp:77] Creating layer relu3_2
I0819 20:51:26.788079 10334 net.cpp:100] Creating Layer relu3_2
I0819 20:51:26.788090 10334 net.cpp:434] relu3_2 <- conv3_2
I0819 20:51:26.788103 10334 net.cpp:395] relu3_2 -> conv3_2 (in-place)
I0819 20:51:26.788520 10334 net.cpp:150] Setting up relu3_2
I0819 20:51:26.788538 10334 net.cpp:157] Top shape: 2 256 192 192 (18874368)
I0819 20:51:26.788548 10334 net.cpp:165] Memory required for data: 2387572992
I0819 20:51:26.788558 10334 layer_factory.hpp:77] Creating layer conv3_3
I0819 20:51:26.788578 10334 net.cpp:100] Creating Layer conv3_3
I0819 20:51:26.788589 10334 net.cpp:434] conv3_3 <- conv3_2
I0819 20:51:26.788604 10334 net.cpp:408] conv3_3 -> conv3_3
I0819 20:51:26.793002 10334 net.cpp:150] Setting up conv3_3
I0819 20:51:26.793018 10334 net.cpp:157] Top shape: 2 256 192 192 (18874368)
I0819 20:51:26.793021 10334 net.cpp:165] Memory required for data: 2463070464
I0819 20:51:26.793030 10334 layer_factory.hpp:77] Creating layer relu3_3
I0819 20:51:26.793038 10334 net.cpp:100] Creating Layer relu3_3
I0819 20:51:26.793042 10334 net.cpp:434] relu3_3 <- conv3_3
I0819 20:51:26.793047 10334 net.cpp:395] relu3_3 -> conv3_3 (in-place)
I0819 20:51:26.793543 10334 net.cpp:150] Setting up relu3_3
I0819 20:51:26.793555 10334 net.cpp:157] Top shape: 2 256 192 192 (18874368)
I0819 20:51:26.793558 10334 net.cpp:165] Memory required for data: 2538567936
I0819 20:51:26.793562 10334 layer_factory.hpp:77] Creating layer pool3
I0819 20:51:26.793570 10334 net.cpp:100] Creating Layer pool3
I0819 20:51:26.793575 10334 net.cpp:434] pool3 <- conv3_3
I0819 20:51:26.793579 10334 net.cpp:408] pool3 -> pool3
I0819 20:51:26.793624 10334 net.cpp:150] Setting up pool3
I0819 20:51:26.793629 10334 net.cpp:157] Top shape: 2 256 96 96 (4718592)
I0819 20:51:26.793633 10334 net.cpp:165] Memory required for data: 2557442304
I0819 20:51:26.793637 10334 layer_factory.hpp:77] Creating layer ch4_pool3
I0819 20:51:26.793648 10334 net.cpp:100] Creating Layer ch4_pool3
I0819 20:51:26.793651 10334 net.cpp:434] ch4_pool3 <- ch4_pool2_ch4_pool2_0_split_1
I0819 20:51:26.793656 10334 net.cpp:408] ch4_pool3 -> ch4_pool3
I0819 20:51:26.793694 10334 net.cpp:150] Setting up ch4_pool3
I0819 20:51:26.793699 10334 net.cpp:157] Top shape: 2 1 96 96 (18432)
I0819 20:51:26.793701 10334 net.cpp:165] Memory required for data: 2557516032
I0819 20:51:26.793704 10334 layer_factory.hpp:77] Creating layer ch4_pool3_ch4_pool3_0_split
I0819 20:51:26.793711 10334 net.cpp:100] Creating Layer ch4_pool3_ch4_pool3_0_split
I0819 20:51:26.793715 10334 net.cpp:434] ch4_pool3_ch4_pool3_0_split <- ch4_pool3
I0819 20:51:26.793720 10334 net.cpp:408] ch4_pool3_ch4_pool3_0_split -> ch4_pool3_ch4_pool3_0_split_0
I0819 20:51:26.793725 10334 net.cpp:408] ch4_pool3_ch4_pool3_0_split -> ch4_pool3_ch4_pool3_0_split_1
I0819 20:51:26.793761 10334 net.cpp:150] Setting up ch4_pool3_ch4_pool3_0_split
I0819 20:51:26.793766 10334 net.cpp:157] Top shape: 2 1 96 96 (18432)
I0819 20:51:26.793771 10334 net.cpp:157] Top shape: 2 1 96 96 (18432)
I0819 20:51:26.793773 10334 net.cpp:165] Memory required for data: 2557663488
I0819 20:51:26.793777 10334 layer_factory.hpp:77] Creating layer pool3_concat
I0819 20:51:26.793782 10334 net.cpp:100] Creating Layer pool3_concat
I0819 20:51:26.793786 10334 net.cpp:434] pool3_concat <- pool3
I0819 20:51:26.793790 10334 net.cpp:434] pool3_concat <- ch4_pool3_ch4_pool3_0_split_0
I0819 20:51:26.793797 10334 net.cpp:408] pool3_concat -> pool3_new
I0819 20:51:26.793818 10334 net.cpp:150] Setting up pool3_concat
I0819 20:51:26.793824 10334 net.cpp:157] Top shape: 2 257 96 96 (4737024)
I0819 20:51:26.793828 10334 net.cpp:165] Memory required for data: 2576611584
I0819 20:51:26.793831 10334 layer_factory.hpp:77] Creating layer conv4_1_new
I0819 20:51:26.793838 10334 net.cpp:100] Creating Layer conv4_1_new
I0819 20:51:26.793841 10334 net.cpp:434] conv4_1_new <- pool3_new
I0819 20:51:26.793848 10334 net.cpp:408] conv4_1_new -> conv4_1
I0819 20:51:26.798920 10334 net.cpp:150] Setting up conv4_1_new
I0819 20:51:26.798951 10334 net.cpp:157] Top shape: 2 512 96 96 (9437184)
I0819 20:51:26.798955 10334 net.cpp:165] Memory required for data: 2614360320
I0819 20:51:26.798966 10334 layer_factory.hpp:77] Creating layer relu4_1
I0819 20:51:26.798980 10334 net.cpp:100] Creating Layer relu4_1
I0819 20:51:26.798987 10334 net.cpp:434] relu4_1 <- conv4_1
I0819 20:51:26.798993 10334 net.cpp:395] relu4_1 -> conv4_1 (in-place)
I0819 20:51:26.799157 10334 net.cpp:150] Setting up relu4_1
I0819 20:51:26.799165 10334 net.cpp:157] Top shape: 2 512 96 96 (9437184)
I0819 20:51:26.799167 10334 net.cpp:165] Memory required for data: 2652109056
I0819 20:51:26.799171 10334 layer_factory.hpp:77] Creating layer conv4_2
I0819 20:51:26.799181 10334 net.cpp:100] Creating Layer conv4_2
I0819 20:51:26.799185 10334 net.cpp:434] conv4_2 <- conv4_1
I0819 20:51:26.799191 10334 net.cpp:408] conv4_2 -> conv4_2
I0819 20:51:26.805619 10334 net.cpp:150] Setting up conv4_2
I0819 20:51:26.805642 10334 net.cpp:157] Top shape: 2 512 96 96 (9437184)
I0819 20:51:26.805647 10334 net.cpp:165] Memory required for data: 2689857792
I0819 20:51:26.805660 10334 layer_factory.hpp:77] Creating layer relu4_2
I0819 20:51:26.805670 10334 net.cpp:100] Creating Layer relu4_2
I0819 20:51:26.805676 10334 net.cpp:434] relu4_2 <- conv4_2
I0819 20:51:26.805683 10334 net.cpp:395] relu4_2 -> conv4_2 (in-place)
I0819 20:51:26.805850 10334 net.cpp:150] Setting up relu4_2
I0819 20:51:26.805857 10334 net.cpp:157] Top shape: 2 512 96 96 (9437184)
I0819 20:51:26.805860 10334 net.cpp:165] Memory required for data: 2727606528
I0819 20:51:26.805865 10334 layer_factory.hpp:77] Creating layer conv4_3
I0819 20:51:26.805874 10334 net.cpp:100] Creating Layer conv4_3
I0819 20:51:26.805877 10334 net.cpp:434] conv4_3 <- conv4_2
I0819 20:51:26.805882 10334 net.cpp:408] conv4_3 -> conv4_3
I0819 20:51:26.816193 10334 net.cpp:150] Setting up conv4_3
I0819 20:51:26.816244 10334 net.cpp:157] Top shape: 2 512 96 96 (9437184)
I0819 20:51:26.816251 10334 net.cpp:165] Memory required for data: 2765355264
I0819 20:51:26.816265 10334 layer_factory.hpp:77] Creating layer relu4_3
I0819 20:51:26.816284 10334 net.cpp:100] Creating Layer relu4_3
I0819 20:51:26.816293 10334 net.cpp:434] relu4_3 <- conv4_3
I0819 20:51:26.816303 10334 net.cpp:395] relu4_3 -> conv4_3 (in-place)
I0819 20:51:26.816500 10334 net.cpp:150] Setting up relu4_3
I0819 20:51:26.816512 10334 net.cpp:157] Top shape: 2 512 96 96 (9437184)
I0819 20:51:26.816516 10334 net.cpp:165] Memory required for data: 2803104000
I0819 20:51:26.816519 10334 layer_factory.hpp:77] Creating layer conv4_concat
I0819 20:51:26.816527 10334 net.cpp:100] Creating Layer conv4_concat
I0819 20:51:26.816531 10334 net.cpp:434] conv4_concat <- conv4_3
I0819 20:51:26.816536 10334 net.cpp:434] conv4_concat <- ch4_pool3_ch4_pool3_0_split_1
I0819 20:51:26.816542 10334 net.cpp:408] conv4_concat -> conv4_3_new
I0819 20:51:26.816571 10334 net.cpp:150] Setting up conv4_concat
I0819 20:51:26.816579 10334 net.cpp:157] Top shape: 2 513 96 96 (9455616)
I0819 20:51:26.816582 10334 net.cpp:165] Memory required for data: 2840926464
I0819 20:51:26.816586 10334 layer_factory.hpp:77] Creating layer conv4_3_new_conv4_concat_0_split
I0819 20:51:26.816593 10334 net.cpp:100] Creating Layer conv4_3_new_conv4_concat_0_split
I0819 20:51:26.816597 10334 net.cpp:434] conv4_3_new_conv4_concat_0_split <- conv4_3_new
I0819 20:51:26.816602 10334 net.cpp:408] conv4_3_new_conv4_concat_0_split -> conv4_3_new_conv4_concat_0_split_0
I0819 20:51:26.816608 10334 net.cpp:408] conv4_3_new_conv4_concat_0_split -> conv4_3_new_conv4_concat_0_split_1
I0819 20:51:26.816712 10334 net.cpp:150] Setting up conv4_3_new_conv4_concat_0_split
I0819 20:51:26.816720 10334 net.cpp:157] Top shape: 2 513 96 96 (9455616)
I0819 20:51:26.816725 10334 net.cpp:157] Top shape: 2 513 96 96 (9455616)
I0819 20:51:26.816727 10334 net.cpp:165] Memory required for data: 2916571392
I0819 20:51:26.816731 10334 layer_factory.hpp:77] Creating layer loss1_conv1
I0819 20:51:26.816745 10334 net.cpp:100] Creating Layer loss1_conv1
I0819 20:51:26.816748 10334 net.cpp:434] loss1_conv1 <- conv4_3_new_conv4_concat_0_split_0
I0819 20:51:26.816756 10334 net.cpp:408] loss1_conv1 -> loss1_conv1
I0819 20:51:26.884346 10334 net.cpp:150] Setting up loss1_conv1
I0819 20:51:26.884372 10334 net.cpp:157] Top shape: 2 512 96 96 (9437184)
I0819 20:51:26.884377 10334 net.cpp:165] Memory required for data: 2954320128
I0819 20:51:26.884387 10334 layer_factory.hpp:77] Creating layer loss_relu1
I0819 20:51:26.884397 10334 net.cpp:100] Creating Layer loss_relu1
I0819 20:51:26.884402 10334 net.cpp:434] loss_relu1 <- loss1_conv1
I0819 20:51:26.884411 10334 net.cpp:395] loss_relu1 -> loss1_conv1 (in-place)
I0819 20:51:26.884577 10334 net.cpp:150] Setting up loss_relu1
I0819 20:51:26.884587 10334 net.cpp:157] Top shape: 2 512 96 96 (9437184)
I0819 20:51:26.884590 10334 net.cpp:165] Memory required for data: 2992068864
I0819 20:51:26.884594 10334 layer_factory.hpp:77] Creating layer loss1_conv1_loss_relu1_0_split
I0819 20:51:26.884601 10334 net.cpp:100] Creating Layer loss1_conv1_loss_relu1_0_split
I0819 20:51:26.884605 10334 net.cpp:434] loss1_conv1_loss_relu1_0_split <- loss1_conv1
I0819 20:51:26.884611 10334 net.cpp:408] loss1_conv1_loss_relu1_0_split -> loss1_conv1_loss_relu1_0_split_0
I0819 20:51:26.884618 10334 net.cpp:408] loss1_conv1_loss_relu1_0_split -> loss1_conv1_loss_relu1_0_split_1
I0819 20:51:26.884658 10334 net.cpp:150] Setting up loss1_conv1_loss_relu1_0_split
I0819 20:51:26.884665 10334 net.cpp:157] Top shape: 2 512 96 96 (9437184)
I0819 20:51:26.884670 10334 net.cpp:157] Top shape: 2 512 96 96 (9437184)
I0819 20:51:26.884672 10334 net.cpp:165] Memory required for data: 3067566336
I0819 20:51:26.884676 10334 layer_factory.hpp:77] Creating layer LFCN_1_5x5
I0819 20:51:26.884687 10334 net.cpp:100] Creating Layer LFCN_1_5x5
I0819 20:51:26.884691 10334 net.cpp:434] LFCN_1_5x5 <- loss1_conv1_loss_relu1_0_split_0
I0819 20:51:26.884699 10334 net.cpp:408] LFCN_1_5x5 -> LFCN_1_5x5
I0819 20:51:26.888947 10334 net.cpp:150] Setting up LFCN_1_5x5
I0819 20:51:26.888959 10334 net.cpp:157] Top shape: 2 9 96 96 (165888)
I0819 20:51:26.888963 10334 net.cpp:165] Memory required for data: 3068229888
I0819 20:51:26.888969 10334 layer_factory.hpp:77] Creating layer LFCN_1_5x5_LFCN_1_5x5_0_split
I0819 20:51:26.888978 10334 net.cpp:100] Creating Layer LFCN_1_5x5_LFCN_1_5x5_0_split
I0819 20:51:26.888980 10334 net.cpp:434] LFCN_1_5x5_LFCN_1_5x5_0_split <- LFCN_1_5x5
I0819 20:51:26.888986 10334 net.cpp:408] LFCN_1_5x5_LFCN_1_5x5_0_split -> LFCN_1_5x5_LFCN_1_5x5_0_split_0
I0819 20:51:26.888993 10334 net.cpp:408] LFCN_1_5x5_LFCN_1_5x5_0_split -> LFCN_1_5x5_LFCN_1_5x5_0_split_1
I0819 20:51:26.889031 10334 net.cpp:150] Setting up LFCN_1_5x5_LFCN_1_5x5_0_split
I0819 20:51:26.889039 10334 net.cpp:157] Top shape: 2 9 96 96 (165888)
I0819 20:51:26.889042 10334 net.cpp:157] Top shape: 2 9 96 96 (165888)
I0819 20:51:26.889045 10334 net.cpp:165] Memory required for data: 3069556992
I0819 20:51:26.889050 10334 layer_factory.hpp:77] Creating layer detection_loss_1_5x5
I0819 20:51:26.889057 10334 net.cpp:100] Creating Layer detection_loss_1_5x5
I0819 20:51:26.889061 10334 net.cpp:434] detection_loss_1_5x5 <- LFCN_1_5x5_LFCN_1_5x5_0_split_0
I0819 20:51:26.889065 10334 net.cpp:434] detection_loss_1_5x5 <- label_1_5x5_data_1_split_0
I0819 20:51:26.889071 10334 net.cpp:408] detection_loss_1_5x5 -> loss_1_5x5
I0819 20:51:26.889080 10334 layer_factory.hpp:77] Creating layer detection_loss_1_5x5
I0819 20:51:26.889500 10334 net.cpp:150] Setting up detection_loss_1_5x5
I0819 20:51:26.889514 10334 net.cpp:157] Top shape: 1 1 1 2 (2)
I0819 20:51:26.889518 10334 net.cpp:160]     with loss weight 0.9
I0819 20:51:26.889530 10334 net.cpp:165] Memory required for data: 3069557000
I0819 20:51:26.889535 10334 layer_factory.hpp:77] Creating layer detection_accuracy_1_5x5
I0819 20:51:26.889542 10334 net.cpp:100] Creating Layer detection_accuracy_1_5x5
I0819 20:51:26.889547 10334 net.cpp:434] detection_accuracy_1_5x5 <- LFCN_1_5x5_LFCN_1_5x5_0_split_1
I0819 20:51:26.889554 10334 net.cpp:434] detection_accuracy_1_5x5 <- label_1_5x5_data_1_split_1
I0819 20:51:26.889559 10334 net.cpp:408] detection_accuracy_1_5x5 -> accuracy_1_5x5
I0819 20:51:26.889564 10334 net.cpp:408] detection_accuracy_1_5x5 -> boxiou_1_5x5
I0819 20:51:26.889602 10334 net.cpp:150] Setting up detection_accuracy_1_5x5
I0819 20:51:26.889609 10334 net.cpp:157] Top shape: 1 1 1 2 (2)
I0819 20:51:26.889614 10334 net.cpp:157] Top shape: 1 1 1 1 (1)
I0819 20:51:26.889617 10334 net.cpp:165] Memory required for data: 3069557012
I0819 20:51:26.889621 10334 layer_factory.hpp:77] Creating layer LFCN_1_7x7
I0819 20:51:26.889631 10334 net.cpp:100] Creating Layer LFCN_1_7x7
I0819 20:51:26.889634 10334 net.cpp:434] LFCN_1_7x7 <- loss1_conv1_loss_relu1_0_split_1
I0819 20:51:26.889641 10334 net.cpp:408] LFCN_1_7x7 -> LFCN_1_7x7
I0819 20:51:26.897832 10334 net.cpp:150] Setting up LFCN_1_7x7
I0819 20:51:26.897852 10334 net.cpp:157] Top shape: 2 9 96 96 (165888)
I0819 20:51:26.897856 10334 net.cpp:165] Memory required for data: 3070220564
I0819 20:51:26.897866 10334 layer_factory.hpp:77] Creating layer LFCN_1_7x7_LFCN_1_7x7_0_split
I0819 20:51:26.897873 10334 net.cpp:100] Creating Layer LFCN_1_7x7_LFCN_1_7x7_0_split
I0819 20:51:26.897878 10334 net.cpp:434] LFCN_1_7x7_LFCN_1_7x7_0_split <- LFCN_1_7x7
I0819 20:51:26.897884 10334 net.cpp:408] LFCN_1_7x7_LFCN_1_7x7_0_split -> LFCN_1_7x7_LFCN_1_7x7_0_split_0
I0819 20:51:26.897891 10334 net.cpp:408] LFCN_1_7x7_LFCN_1_7x7_0_split -> LFCN_1_7x7_LFCN_1_7x7_0_split_1
I0819 20:51:26.897948 10334 net.cpp:150] Setting up LFCN_1_7x7_LFCN_1_7x7_0_split
I0819 20:51:26.897967 10334 net.cpp:157] Top shape: 2 9 96 96 (165888)
I0819 20:51:26.897972 10334 net.cpp:157] Top shape: 2 9 96 96 (165888)
I0819 20:51:26.897975 10334 net.cpp:165] Memory required for data: 3071547668
I0819 20:51:26.897979 10334 layer_factory.hpp:77] Creating layer detection_loss_1_7x7
I0819 20:51:26.897986 10334 net.cpp:100] Creating Layer detection_loss_1_7x7
I0819 20:51:26.897990 10334 net.cpp:434] detection_loss_1_7x7 <- LFCN_1_7x7_LFCN_1_7x7_0_split_0
I0819 20:51:26.897995 10334 net.cpp:434] detection_loss_1_7x7 <- label_1_7x7_data_2_split_0
I0819 20:51:26.898001 10334 net.cpp:408] detection_loss_1_7x7 -> loss_1_7x7
I0819 20:51:26.898015 10334 layer_factory.hpp:77] Creating layer detection_loss_1_7x7
I0819 20:51:26.898735 10334 net.cpp:150] Setting up detection_loss_1_7x7
I0819 20:51:26.898746 10334 net.cpp:157] Top shape: 1 1 1 2 (2)
I0819 20:51:26.898751 10334 net.cpp:160]     with loss weight 0.9
I0819 20:51:26.898761 10334 net.cpp:165] Memory required for data: 3071547676
I0819 20:51:26.898764 10334 layer_factory.hpp:77] Creating layer detection_accuracy_1_7x7
I0819 20:51:26.898772 10334 net.cpp:100] Creating Layer detection_accuracy_1_7x7
I0819 20:51:26.898775 10334 net.cpp:434] detection_accuracy_1_7x7 <- LFCN_1_7x7_LFCN_1_7x7_0_split_1
I0819 20:51:26.898779 10334 net.cpp:434] detection_accuracy_1_7x7 <- label_1_7x7_data_2_split_1
I0819 20:51:26.898787 10334 net.cpp:408] detection_accuracy_1_7x7 -> accuracy_1_7x7
I0819 20:51:26.898793 10334 net.cpp:408] detection_accuracy_1_7x7 -> boxiou_1_7x7
I0819 20:51:26.898831 10334 net.cpp:150] Setting up detection_accuracy_1_7x7
I0819 20:51:26.898838 10334 net.cpp:157] Top shape: 1 1 1 2 (2)
I0819 20:51:26.898842 10334 net.cpp:157] Top shape: 1 1 1 1 (1)
I0819 20:51:26.898845 10334 net.cpp:165] Memory required for data: 3071547688
I0819 20:51:26.898849 10334 layer_factory.hpp:77] Creating layer pool4
I0819 20:51:26.898857 10334 net.cpp:100] Creating Layer pool4
I0819 20:51:26.898861 10334 net.cpp:434] pool4 <- conv4_3_new_conv4_concat_0_split_1
I0819 20:51:26.898866 10334 net.cpp:408] pool4 -> pool4
I0819 20:51:26.898902 10334 net.cpp:150] Setting up pool4
I0819 20:51:26.898908 10334 net.cpp:157] Top shape: 2 513 48 48 (2363904)
I0819 20:51:26.898912 10334 net.cpp:165] Memory required for data: 3081003304
I0819 20:51:26.898916 10334 layer_factory.hpp:77] Creating layer conv5_1_new
I0819 20:51:26.898922 10334 net.cpp:100] Creating Layer conv5_1_new
I0819 20:51:26.898926 10334 net.cpp:434] conv5_1_new <- pool4
I0819 20:51:26.898932 10334 net.cpp:408] conv5_1_new -> conv5_1
I0819 20:51:26.906673 10334 net.cpp:150] Setting up conv5_1_new
I0819 20:51:26.906713 10334 net.cpp:157] Top shape: 2 512 48 48 (2359296)
I0819 20:51:26.906718 10334 net.cpp:165] Memory required for data: 3090440488
I0819 20:51:26.906728 10334 layer_factory.hpp:77] Creating layer relu5_1
I0819 20:51:26.906739 10334 net.cpp:100] Creating Layer relu5_1
I0819 20:51:26.906747 10334 net.cpp:434] relu5_1 <- conv5_1
I0819 20:51:26.906754 10334 net.cpp:395] relu5_1 -> conv5_1 (in-place)
I0819 20:51:26.906927 10334 net.cpp:150] Setting up relu5_1
I0819 20:51:26.906937 10334 net.cpp:157] Top shape: 2 512 48 48 (2359296)
I0819 20:51:26.906940 10334 net.cpp:165] Memory required for data: 3099877672
I0819 20:51:26.906944 10334 layer_factory.hpp:77] Creating layer conv5_2
I0819 20:51:26.906955 10334 net.cpp:100] Creating Layer conv5_2
I0819 20:51:26.906958 10334 net.cpp:434] conv5_2 <- conv5_1
I0819 20:51:26.906963 10334 net.cpp:408] conv5_2 -> conv5_2
I0819 20:51:26.913393 10334 net.cpp:150] Setting up conv5_2
I0819 20:51:26.913424 10334 net.cpp:157] Top shape: 2 512 48 48 (2359296)
I0819 20:51:26.913429 10334 net.cpp:165] Memory required for data: 3109314856
I0819 20:51:26.913439 10334 layer_factory.hpp:77] Creating layer relu5_2
I0819 20:51:26.913450 10334 net.cpp:100] Creating Layer relu5_2
I0819 20:51:26.913457 10334 net.cpp:434] relu5_2 <- conv5_2
I0819 20:51:26.913466 10334 net.cpp:395] relu5_2 -> conv5_2 (in-place)
I0819 20:51:26.913671 10334 net.cpp:150] Setting up relu5_2
I0819 20:51:26.913681 10334 net.cpp:157] Top shape: 2 512 48 48 (2359296)
I0819 20:51:26.913683 10334 net.cpp:165] Memory required for data: 3118752040
I0819 20:51:26.913687 10334 layer_factory.hpp:77] Creating layer conv5_3
I0819 20:51:26.913697 10334 net.cpp:100] Creating Layer conv5_3
I0819 20:51:26.913702 10334 net.cpp:434] conv5_3 <- conv5_2
I0819 20:51:26.913707 10334 net.cpp:408] conv5_3 -> conv5_3
I0819 20:51:26.921063 10334 net.cpp:150] Setting up conv5_3
I0819 20:51:26.921088 10334 net.cpp:157] Top shape: 2 512 48 48 (2359296)
I0819 20:51:26.921093 10334 net.cpp:165] Memory required for data: 3128189224
I0819 20:51:26.921102 10334 layer_factory.hpp:77] Creating layer relu5_3
I0819 20:51:26.921113 10334 net.cpp:100] Creating Layer relu5_3
I0819 20:51:26.921119 10334 net.cpp:434] relu5_3 <- conv5_3
I0819 20:51:26.921125 10334 net.cpp:395] relu5_3 -> conv5_3 (in-place)
I0819 20:51:26.921295 10334 net.cpp:150] Setting up relu5_3
I0819 20:51:26.921304 10334 net.cpp:157] Top shape: 2 512 48 48 (2359296)
I0819 20:51:26.921308 10334 net.cpp:165] Memory required for data: 3137626408
I0819 20:51:26.921311 10334 layer_factory.hpp:77] Creating layer conv5_3_relu5_3_0_split
I0819 20:51:26.921317 10334 net.cpp:100] Creating Layer conv5_3_relu5_3_0_split
I0819 20:51:26.921321 10334 net.cpp:434] conv5_3_relu5_3_0_split <- conv5_3
I0819 20:51:26.921327 10334 net.cpp:408] conv5_3_relu5_3_0_split -> conv5_3_relu5_3_0_split_0
I0819 20:51:26.921339 10334 net.cpp:408] conv5_3_relu5_3_0_split -> conv5_3_relu5_3_0_split_1
I0819 20:51:26.921346 10334 net.cpp:408] conv5_3_relu5_3_0_split -> conv5_3_relu5_3_0_split_2
I0819 20:51:26.921411 10334 net.cpp:150] Setting up conv5_3_relu5_3_0_split
I0819 20:51:26.921419 10334 net.cpp:157] Top shape: 2 512 48 48 (2359296)
I0819 20:51:26.921425 10334 net.cpp:157] Top shape: 2 512 48 48 (2359296)
I0819 20:51:26.921430 10334 net.cpp:157] Top shape: 2 512 48 48 (2359296)
I0819 20:51:26.921434 10334 net.cpp:165] Memory required for data: 3165937960
I0819 20:51:26.921438 10334 layer_factory.hpp:77] Creating layer LFCN_2_5x5
I0819 20:51:26.921450 10334 net.cpp:100] Creating Layer LFCN_2_5x5
I0819 20:51:26.921455 10334 net.cpp:434] LFCN_2_5x5 <- conv5_3_relu5_3_0_split_0
I0819 20:51:26.921463 10334 net.cpp:408] LFCN_2_5x5 -> LFCN_2_5x5
I0819 20:51:26.925457 10334 net.cpp:150] Setting up LFCN_2_5x5
I0819 20:51:26.925473 10334 net.cpp:157] Top shape: 2 9 48 48 (41472)
I0819 20:51:26.925477 10334 net.cpp:165] Memory required for data: 3166103848
I0819 20:51:26.925493 10334 layer_factory.hpp:77] Creating layer LFCN_2_5x5_LFCN_2_5x5_0_split
I0819 20:51:26.925499 10334 net.cpp:100] Creating Layer LFCN_2_5x5_LFCN_2_5x5_0_split
I0819 20:51:26.925503 10334 net.cpp:434] LFCN_2_5x5_LFCN_2_5x5_0_split <- LFCN_2_5x5
I0819 20:51:26.925511 10334 net.cpp:408] LFCN_2_5x5_LFCN_2_5x5_0_split -> LFCN_2_5x5_LFCN_2_5x5_0_split_0
I0819 20:51:26.925519 10334 net.cpp:408] LFCN_2_5x5_LFCN_2_5x5_0_split -> LFCN_2_5x5_LFCN_2_5x5_0_split_1
I0819 20:51:26.925566 10334 net.cpp:150] Setting up LFCN_2_5x5_LFCN_2_5x5_0_split
I0819 20:51:26.925575 10334 net.cpp:157] Top shape: 2 9 48 48 (41472)
I0819 20:51:26.925580 10334 net.cpp:157] Top shape: 2 9 48 48 (41472)
I0819 20:51:26.925583 10334 net.cpp:165] Memory required for data: 3166435624
I0819 20:51:26.925587 10334 layer_factory.hpp:77] Creating layer detection_loss_2_5x5
I0819 20:51:26.925601 10334 net.cpp:100] Creating Layer detection_loss_2_5x5
I0819 20:51:26.925606 10334 net.cpp:434] detection_loss_2_5x5 <- LFCN_2_5x5_LFCN_2_5x5_0_split_0
I0819 20:51:26.925612 10334 net.cpp:434] detection_loss_2_5x5 <- label_2_5x5_data_3_split_0
I0819 20:51:26.925621 10334 net.cpp:408] detection_loss_2_5x5 -> loss_2_5x5
I0819 20:51:26.925629 10334 layer_factory.hpp:77] Creating layer detection_loss_2_5x5
I0819 20:51:26.925968 10334 net.cpp:150] Setting up detection_loss_2_5x5
I0819 20:51:26.925978 10334 net.cpp:157] Top shape: 1 1 1 2 (2)
I0819 20:51:26.925982 10334 net.cpp:160]     with loss weight 1
I0819 20:51:26.925992 10334 net.cpp:165] Memory required for data: 3166435632
I0819 20:51:26.925997 10334 layer_factory.hpp:77] Creating layer detection_accuracy_2_5x5
I0819 20:51:26.926003 10334 net.cpp:100] Creating Layer detection_accuracy_2_5x5
I0819 20:51:26.926007 10334 net.cpp:434] detection_accuracy_2_5x5 <- LFCN_2_5x5_LFCN_2_5x5_0_split_1
I0819 20:51:26.926012 10334 net.cpp:434] detection_accuracy_2_5x5 <- label_2_5x5_data_3_split_1
I0819 20:51:26.926017 10334 net.cpp:408] detection_accuracy_2_5x5 -> accuracy_2_5x5
I0819 20:51:26.926023 10334 net.cpp:408] detection_accuracy_2_5x5 -> boxiou_2_5x5
I0819 20:51:26.926060 10334 net.cpp:150] Setting up detection_accuracy_2_5x5
I0819 20:51:26.926066 10334 net.cpp:157] Top shape: 1 1 1 2 (2)
I0819 20:51:26.926071 10334 net.cpp:157] Top shape: 1 1 1 1 (1)
I0819 20:51:26.926074 10334 net.cpp:165] Memory required for data: 3166435644
I0819 20:51:26.926079 10334 layer_factory.hpp:77] Creating layer LFCN_2_7x7
I0819 20:51:26.926087 10334 net.cpp:100] Creating Layer LFCN_2_7x7
I0819 20:51:26.926091 10334 net.cpp:434] LFCN_2_7x7 <- conv5_3_relu5_3_0_split_1
I0819 20:51:26.926097 10334 net.cpp:408] LFCN_2_7x7 -> LFCN_2_7x7
I0819 20:51:26.934254 10334 net.cpp:150] Setting up LFCN_2_7x7
I0819 20:51:26.934269 10334 net.cpp:157] Top shape: 2 9 48 48 (41472)
I0819 20:51:26.934273 10334 net.cpp:165] Memory required for data: 3166601532
I0819 20:51:26.934279 10334 layer_factory.hpp:77] Creating layer LFCN_2_7x7_LFCN_2_7x7_0_split
I0819 20:51:26.934285 10334 net.cpp:100] Creating Layer LFCN_2_7x7_LFCN_2_7x7_0_split
I0819 20:51:26.934291 10334 net.cpp:434] LFCN_2_7x7_LFCN_2_7x7_0_split <- LFCN_2_7x7
I0819 20:51:26.934296 10334 net.cpp:408] LFCN_2_7x7_LFCN_2_7x7_0_split -> LFCN_2_7x7_LFCN_2_7x7_0_split_0
I0819 20:51:26.934303 10334 net.cpp:408] LFCN_2_7x7_LFCN_2_7x7_0_split -> LFCN_2_7x7_LFCN_2_7x7_0_split_1
I0819 20:51:26.934341 10334 net.cpp:150] Setting up LFCN_2_7x7_LFCN_2_7x7_0_split
I0819 20:51:26.934348 10334 net.cpp:157] Top shape: 2 9 48 48 (41472)
I0819 20:51:26.934352 10334 net.cpp:157] Top shape: 2 9 48 48 (41472)
I0819 20:51:26.934355 10334 net.cpp:165] Memory required for data: 3166933308
I0819 20:51:26.934358 10334 layer_factory.hpp:77] Creating layer detection_loss_2_7x7
I0819 20:51:26.934365 10334 net.cpp:100] Creating Layer detection_loss_2_7x7
I0819 20:51:26.934367 10334 net.cpp:434] detection_loss_2_7x7 <- LFCN_2_7x7_LFCN_2_7x7_0_split_0
I0819 20:51:26.934372 10334 net.cpp:434] detection_loss_2_7x7 <- label_2_7x7_data_4_split_0
I0819 20:51:26.934379 10334 net.cpp:408] detection_loss_2_7x7 -> loss_2_7x7
I0819 20:51:26.934386 10334 layer_factory.hpp:77] Creating layer detection_loss_2_7x7
I0819 20:51:26.934744 10334 net.cpp:150] Setting up detection_loss_2_7x7
I0819 20:51:26.934754 10334 net.cpp:157] Top shape: 1 1 1 2 (2)
I0819 20:51:26.934757 10334 net.cpp:160]     with loss weight 1
I0819 20:51:26.934765 10334 net.cpp:165] Memory required for data: 3166933316
I0819 20:51:26.934768 10334 layer_factory.hpp:77] Creating layer detection_accuracy_2_7x7
I0819 20:51:26.934775 10334 net.cpp:100] Creating Layer detection_accuracy_2_7x7
I0819 20:51:26.934779 10334 net.cpp:434] detection_accuracy_2_7x7 <- LFCN_2_7x7_LFCN_2_7x7_0_split_1
I0819 20:51:26.934783 10334 net.cpp:434] detection_accuracy_2_7x7 <- label_2_7x7_data_4_split_1
I0819 20:51:26.934788 10334 net.cpp:408] detection_accuracy_2_7x7 -> accuracy_2_7x7
I0819 20:51:26.934797 10334 net.cpp:408] detection_accuracy_2_7x7 -> boxiou_2_7x7
I0819 20:51:26.934834 10334 net.cpp:150] Setting up detection_accuracy_2_7x7
I0819 20:51:26.934840 10334 net.cpp:157] Top shape: 1 1 1 2 (2)
I0819 20:51:26.934845 10334 net.cpp:157] Top shape: 1 1 1 1 (1)
I0819 20:51:26.934849 10334 net.cpp:165] Memory required for data: 3166933328
I0819 20:51:26.934851 10334 layer_factory.hpp:77] Creating layer pool5
I0819 20:51:26.934859 10334 net.cpp:100] Creating Layer pool5
I0819 20:51:26.934864 10334 net.cpp:434] pool5 <- conv5_3_relu5_3_0_split_2
I0819 20:51:26.934868 10334 net.cpp:408] pool5 -> pool5
I0819 20:51:26.934906 10334 net.cpp:150] Setting up pool5
I0819 20:51:26.934912 10334 net.cpp:157] Top shape: 2 512 24 24 (589824)
I0819 20:51:26.934916 10334 net.cpp:165] Memory required for data: 3169292624
I0819 20:51:26.934919 10334 layer_factory.hpp:77] Creating layer conv6_1
I0819 20:51:26.934929 10334 net.cpp:100] Creating Layer conv6_1
I0819 20:51:26.934932 10334 net.cpp:434] conv6_1 <- pool5
I0819 20:51:26.934938 10334 net.cpp:408] conv6_1 -> conv6_1
I0819 20:51:26.994004 10334 net.cpp:150] Setting up conv6_1
I0819 20:51:26.994032 10334 net.cpp:157] Top shape: 2 512 24 24 (589824)
I0819 20:51:26.994035 10334 net.cpp:165] Memory required for data: 3171651920
I0819 20:51:26.994043 10334 layer_factory.hpp:77] Creating layer relu6_1
I0819 20:51:26.994053 10334 net.cpp:100] Creating Layer relu6_1
I0819 20:51:26.994060 10334 net.cpp:434] relu6_1 <- conv6_1
I0819 20:51:26.994065 10334 net.cpp:395] relu6_1 -> conv6_1 (in-place)
I0819 20:51:26.994541 10334 net.cpp:150] Setting up relu6_1
I0819 20:51:26.994554 10334 net.cpp:157] Top shape: 2 512 24 24 (589824)
I0819 20:51:26.994559 10334 net.cpp:165] Memory required for data: 3174011216
I0819 20:51:26.994561 10334 layer_factory.hpp:77] Creating layer conv6_1_relu6_1_0_split
I0819 20:51:26.994567 10334 net.cpp:100] Creating Layer conv6_1_relu6_1_0_split
I0819 20:51:26.994571 10334 net.cpp:434] conv6_1_relu6_1_0_split <- conv6_1
I0819 20:51:26.994576 10334 net.cpp:408] conv6_1_relu6_1_0_split -> conv6_1_relu6_1_0_split_0
I0819 20:51:26.994585 10334 net.cpp:408] conv6_1_relu6_1_0_split -> conv6_1_relu6_1_0_split_1
I0819 20:51:26.994590 10334 net.cpp:408] conv6_1_relu6_1_0_split -> conv6_1_relu6_1_0_split_2
I0819 20:51:26.994644 10334 net.cpp:150] Setting up conv6_1_relu6_1_0_split
I0819 20:51:26.994652 10334 net.cpp:157] Top shape: 2 512 24 24 (589824)
I0819 20:51:26.994657 10334 net.cpp:157] Top shape: 2 512 24 24 (589824)
I0819 20:51:26.994662 10334 net.cpp:157] Top shape: 2 512 24 24 (589824)
I0819 20:51:26.994664 10334 net.cpp:165] Memory required for data: 3181089104
I0819 20:51:26.994668 10334 layer_factory.hpp:77] Creating layer LFCN_3_5x5
I0819 20:51:26.994678 10334 net.cpp:100] Creating Layer LFCN_3_5x5
I0819 20:51:26.994683 10334 net.cpp:434] LFCN_3_5x5 <- conv6_1_relu6_1_0_split_0
I0819 20:51:26.994688 10334 net.cpp:408] LFCN_3_5x5 -> LFCN_3_5x5
I0819 20:51:26.998529 10334 net.cpp:150] Setting up LFCN_3_5x5
I0819 20:51:26.998540 10334 net.cpp:157] Top shape: 2 9 24 24 (10368)
I0819 20:51:26.998543 10334 net.cpp:165] Memory required for data: 3181130576
I0819 20:51:26.998549 10334 layer_factory.hpp:77] Creating layer LFCN_3_5x5_LFCN_3_5x5_0_split
I0819 20:51:26.998554 10334 net.cpp:100] Creating Layer LFCN_3_5x5_LFCN_3_5x5_0_split
I0819 20:51:26.998558 10334 net.cpp:434] LFCN_3_5x5_LFCN_3_5x5_0_split <- LFCN_3_5x5
I0819 20:51:26.998561 10334 net.cpp:408] LFCN_3_5x5_LFCN_3_5x5_0_split -> LFCN_3_5x5_LFCN_3_5x5_0_split_0
I0819 20:51:26.998569 10334 net.cpp:408] LFCN_3_5x5_LFCN_3_5x5_0_split -> LFCN_3_5x5_LFCN_3_5x5_0_split_1
I0819 20:51:26.998601 10334 net.cpp:150] Setting up LFCN_3_5x5_LFCN_3_5x5_0_split
I0819 20:51:26.998608 10334 net.cpp:157] Top shape: 2 9 24 24 (10368)
I0819 20:51:26.998612 10334 net.cpp:157] Top shape: 2 9 24 24 (10368)
I0819 20:51:26.998615 10334 net.cpp:165] Memory required for data: 3181213520
I0819 20:51:26.998617 10334 layer_factory.hpp:77] Creating layer detection_loss_3_5x5
I0819 20:51:26.998625 10334 net.cpp:100] Creating Layer detection_loss_3_5x5
I0819 20:51:26.998627 10334 net.cpp:434] detection_loss_3_5x5 <- LFCN_3_5x5_LFCN_3_5x5_0_split_0
I0819 20:51:26.998631 10334 net.cpp:434] detection_loss_3_5x5 <- label_3_5x5_data_5_split_0
I0819 20:51:26.998637 10334 net.cpp:408] detection_loss_3_5x5 -> loss_3_5x5
I0819 20:51:26.998644 10334 layer_factory.hpp:77] Creating layer detection_loss_3_5x5
I0819 20:51:26.998982 10334 net.cpp:150] Setting up detection_loss_3_5x5
I0819 20:51:26.998992 10334 net.cpp:157] Top shape: 1 1 1 2 (2)
I0819 20:51:26.998996 10334 net.cpp:160]     with loss weight 1
I0819 20:51:26.999006 10334 net.cpp:165] Memory required for data: 3181213528
I0819 20:51:26.999011 10334 layer_factory.hpp:77] Creating layer detection_accuracy_3_5x5
I0819 20:51:26.999017 10334 net.cpp:100] Creating Layer detection_accuracy_3_5x5
I0819 20:51:26.999020 10334 net.cpp:434] detection_accuracy_3_5x5 <- LFCN_3_5x5_LFCN_3_5x5_0_split_1
I0819 20:51:26.999025 10334 net.cpp:434] detection_accuracy_3_5x5 <- label_3_5x5_data_5_split_1
I0819 20:51:26.999032 10334 net.cpp:408] detection_accuracy_3_5x5 -> accuracy_3_5x5
I0819 20:51:26.999038 10334 net.cpp:408] detection_accuracy_3_5x5 -> boxiou_3_5x5
I0819 20:51:26.999078 10334 net.cpp:150] Setting up detection_accuracy_3_5x5
I0819 20:51:26.999083 10334 net.cpp:157] Top shape: 1 1 1 2 (2)
I0819 20:51:26.999089 10334 net.cpp:157] Top shape: 1 1 1 1 (1)
I0819 20:51:26.999091 10334 net.cpp:165] Memory required for data: 3181213540
I0819 20:51:26.999094 10334 layer_factory.hpp:77] Creating layer LFCN_3_7x7
I0819 20:51:26.999104 10334 net.cpp:100] Creating Layer LFCN_3_7x7
I0819 20:51:26.999109 10334 net.cpp:434] LFCN_3_7x7 <- conv6_1_relu6_1_0_split_1
I0819 20:51:26.999114 10334 net.cpp:408] LFCN_3_7x7 -> LFCN_3_7x7
I0819 20:51:27.006496 10334 net.cpp:150] Setting up LFCN_3_7x7
I0819 20:51:27.006511 10334 net.cpp:157] Top shape: 2 9 24 24 (10368)
I0819 20:51:27.006515 10334 net.cpp:165] Memory required for data: 3181255012
I0819 20:51:27.006522 10334 layer_factory.hpp:77] Creating layer LFCN_3_7x7_LFCN_3_7x7_0_split
I0819 20:51:27.006528 10334 net.cpp:100] Creating Layer LFCN_3_7x7_LFCN_3_7x7_0_split
I0819 20:51:27.006533 10334 net.cpp:434] LFCN_3_7x7_LFCN_3_7x7_0_split <- LFCN_3_7x7
I0819 20:51:27.006541 10334 net.cpp:408] LFCN_3_7x7_LFCN_3_7x7_0_split -> LFCN_3_7x7_LFCN_3_7x7_0_split_0
I0819 20:51:27.006546 10334 net.cpp:408] LFCN_3_7x7_LFCN_3_7x7_0_split -> LFCN_3_7x7_LFCN_3_7x7_0_split_1
I0819 20:51:27.006588 10334 net.cpp:150] Setting up LFCN_3_7x7_LFCN_3_7x7_0_split
I0819 20:51:27.006594 10334 net.cpp:157] Top shape: 2 9 24 24 (10368)
I0819 20:51:27.006598 10334 net.cpp:157] Top shape: 2 9 24 24 (10368)
I0819 20:51:27.006603 10334 net.cpp:165] Memory required for data: 3181337956
I0819 20:51:27.006605 10334 layer_factory.hpp:77] Creating layer detection_loss_3_7x7
I0819 20:51:27.006610 10334 net.cpp:100] Creating Layer detection_loss_3_7x7
I0819 20:51:27.006614 10334 net.cpp:434] detection_loss_3_7x7 <- LFCN_3_7x7_LFCN_3_7x7_0_split_0
I0819 20:51:27.006618 10334 net.cpp:434] detection_loss_3_7x7 <- label_3_7x7_data_6_split_0
I0819 20:51:27.006626 10334 net.cpp:408] detection_loss_3_7x7 -> loss_3_7x7
I0819 20:51:27.006633 10334 layer_factory.hpp:77] Creating layer detection_loss_3_7x7
I0819 20:51:27.006965 10334 net.cpp:150] Setting up detection_loss_3_7x7
I0819 20:51:27.006975 10334 net.cpp:157] Top shape: 1 1 1 2 (2)
I0819 20:51:27.006978 10334 net.cpp:160]     with loss weight 1
I0819 20:51:27.006985 10334 net.cpp:165] Memory required for data: 3181337964
I0819 20:51:27.006989 10334 layer_factory.hpp:77] Creating layer detection_accuracy_3_7x7
I0819 20:51:27.006995 10334 net.cpp:100] Creating Layer detection_accuracy_3_7x7
I0819 20:51:27.006999 10334 net.cpp:434] detection_accuracy_3_7x7 <- LFCN_3_7x7_LFCN_3_7x7_0_split_1
I0819 20:51:27.007004 10334 net.cpp:434] detection_accuracy_3_7x7 <- label_3_7x7_data_6_split_1
I0819 20:51:27.007009 10334 net.cpp:408] detection_accuracy_3_7x7 -> accuracy_3_7x7
I0819 20:51:27.007015 10334 net.cpp:408] detection_accuracy_3_7x7 -> boxiou_3_7x7
I0819 20:51:27.007055 10334 net.cpp:150] Setting up detection_accuracy_3_7x7
I0819 20:51:27.007061 10334 net.cpp:157] Top shape: 1 1 1 2 (2)
I0819 20:51:27.007066 10334 net.cpp:157] Top shape: 1 1 1 1 (1)
I0819 20:51:27.007068 10334 net.cpp:165] Memory required for data: 3181337976
I0819 20:51:27.007072 10334 layer_factory.hpp:77] Creating layer pool6
I0819 20:51:27.007078 10334 net.cpp:100] Creating Layer pool6
I0819 20:51:27.007083 10334 net.cpp:434] pool6 <- conv6_1_relu6_1_0_split_2
I0819 20:51:27.007088 10334 net.cpp:408] pool6 -> pool6
I0819 20:51:27.007127 10334 net.cpp:150] Setting up pool6
I0819 20:51:27.007133 10334 net.cpp:157] Top shape: 2 512 12 12 (147456)
I0819 20:51:27.007135 10334 net.cpp:165] Memory required for data: 3181927800
I0819 20:51:27.007139 10334 layer_factory.hpp:77] Creating layer LFCN_4_5x5
I0819 20:51:27.007148 10334 net.cpp:100] Creating Layer LFCN_4_5x5
I0819 20:51:27.007151 10334 net.cpp:434] LFCN_4_5x5 <- pool6
I0819 20:51:27.007158 10334 net.cpp:408] LFCN_4_5x5 -> LFCN_4_5x5
I0819 20:51:27.011310 10334 net.cpp:150] Setting up LFCN_4_5x5
I0819 20:51:27.011323 10334 net.cpp:157] Top shape: 2 9 12 12 (2592)
I0819 20:51:27.011327 10334 net.cpp:165] Memory required for data: 3181938168
I0819 20:51:27.011333 10334 layer_factory.hpp:77] Creating layer LFCN_4_5x5_LFCN_4_5x5_0_split
I0819 20:51:27.011340 10334 net.cpp:100] Creating Layer LFCN_4_5x5_LFCN_4_5x5_0_split
I0819 20:51:27.011344 10334 net.cpp:434] LFCN_4_5x5_LFCN_4_5x5_0_split <- LFCN_4_5x5
I0819 20:51:27.011350 10334 net.cpp:408] LFCN_4_5x5_LFCN_4_5x5_0_split -> LFCN_4_5x5_LFCN_4_5x5_0_split_0
I0819 20:51:27.011358 10334 net.cpp:408] LFCN_4_5x5_LFCN_4_5x5_0_split -> LFCN_4_5x5_LFCN_4_5x5_0_split_1
I0819 20:51:27.011399 10334 net.cpp:150] Setting up LFCN_4_5x5_LFCN_4_5x5_0_split
I0819 20:51:27.011405 10334 net.cpp:157] Top shape: 2 9 12 12 (2592)
I0819 20:51:27.011410 10334 net.cpp:157] Top shape: 2 9 12 12 (2592)
I0819 20:51:27.011413 10334 net.cpp:165] Memory required for data: 3181958904
I0819 20:51:27.011416 10334 layer_factory.hpp:77] Creating layer detection_loss_4_5x5
I0819 20:51:27.011423 10334 net.cpp:100] Creating Layer detection_loss_4_5x5
I0819 20:51:27.011427 10334 net.cpp:434] detection_loss_4_5x5 <- LFCN_4_5x5_LFCN_4_5x5_0_split_0
I0819 20:51:27.011441 10334 net.cpp:434] detection_loss_4_5x5 <- label_4_5x5_data_7_split_0
I0819 20:51:27.011451 10334 net.cpp:408] detection_loss_4_5x5 -> loss_4_5x5
I0819 20:51:27.011463 10334 layer_factory.hpp:77] Creating layer detection_loss_4_5x5
I0819 20:51:27.011816 10334 net.cpp:150] Setting up detection_loss_4_5x5
I0819 20:51:27.011826 10334 net.cpp:157] Top shape: 1 1 1 2 (2)
I0819 20:51:27.011831 10334 net.cpp:160]     with loss weight 1
I0819 20:51:27.011837 10334 net.cpp:165] Memory required for data: 3181958912
I0819 20:51:27.011839 10334 layer_factory.hpp:77] Creating layer detection_accuracy_4_5x5
I0819 20:51:27.011845 10334 net.cpp:100] Creating Layer detection_accuracy_4_5x5
I0819 20:51:27.011849 10334 net.cpp:434] detection_accuracy_4_5x5 <- LFCN_4_5x5_LFCN_4_5x5_0_split_1
I0819 20:51:27.011853 10334 net.cpp:434] detection_accuracy_4_5x5 <- label_4_5x5_data_7_split_1
I0819 20:51:27.011859 10334 net.cpp:408] detection_accuracy_4_5x5 -> accuracy_4_5x5
I0819 20:51:27.011865 10334 net.cpp:408] detection_accuracy_4_5x5 -> boxiou_4_5x5
I0819 20:51:27.011904 10334 net.cpp:150] Setting up detection_accuracy_4_5x5
I0819 20:51:27.011910 10334 net.cpp:157] Top shape: 1 1 1 2 (2)
I0819 20:51:27.011915 10334 net.cpp:157] Top shape: 1 1 1 1 (1)
I0819 20:51:27.011919 10334 net.cpp:165] Memory required for data: 3181958924
I0819 20:51:27.011921 10334 net.cpp:228] detection_accuracy_4_5x5 does not need backward computation.
I0819 20:51:27.011925 10334 net.cpp:226] detection_loss_4_5x5 needs backward computation.
I0819 20:51:27.011929 10334 net.cpp:226] LFCN_4_5x5_LFCN_4_5x5_0_split needs backward computation.
I0819 20:51:27.011932 10334 net.cpp:226] LFCN_4_5x5 needs backward computation.
…
