…
    downsample_rate: 16
    downsample_rate: 32
    downsample_rate: 32
    downsample_rate: 64
    coord_num: 4
    field_h: 46
    field_h: 84
    field_h: 128
    field_h: 190
    field_h: 266
    field_h: 366
    field_h: 582
    field_w: 52
    field_w: 94
    field_w: 143
    field_w: 205
    field_w: 282
    field_w: 374
    field_w: 539
    fg_threshold: 0.5
    resize_width: 1344
    resize_height: 768
    crop_width: 768
    crop_height: 768
    do_multiple_scale: true
    min_scale: 46
    max_scale: 582
    min_gt_height: 25
    shuffle: true
  }
}
layer {
  name: "slice"
  type: "Slice"
  bottom: "data"
  top: "data123"
  top: "ch4"
  slice_param {
    slice_point: 3
    axis: 1
  }
}
layer {
  name: "ch4_0-127"
  type: "Power"
  bottom: "ch4"
  top: "ch4_0-127"
  power_param {
    power: 1
    scale: 1
    shift: -128
  }
}
layer {
  name: "ch4_128-255"
  type: "Power"
  bottom: "ch4"
  top: "ch4_128-255"
  power_param {
    power: 1
    scale: -1
    shift: 128
  }
}
layer {
  name: "ch4_2cls-concat"
  type: "Concat"
  bottom: "ch4_0-127"
  bottom: "ch4_128-255"
  top: "ch4_2cls"
}
layer {
  name: "relu_ch42cls"
  type: "ReLU"
  bottom: "ch4_2cls"
  top: "ch4_2cls"
}
layer {
  name: "conv1_1"
  type: "Convolution"
  bottom: "data123"
  top: "conv1_1"
  param {
    lr_mult: 1
    decay_mult: 1
  }
  param {
    lr_mult: 2
    decay_mult: 0
  }
  convolution_param {
    num_output: 64
    pad: 1
    kernel_size: 3
  }
}
layer {
  name: "relu1_1"
  type: "ReLU"
  bottom: "conv1_1"
  top: "conv1_1"
}
layer {
  name: "conv1_2"
  type: "Convolution"
  bottom: "conv1_1"
  top: "conv1_2"
  convolution_param {
    num_output: 64
    pad: 1
    kernel_size: 3
  }
}
layer {
  name: "relu1_2"
  type: "ReLU"
  bottom: "conv1_2"
  top: "conv1_2"
}
layer {
  name: "pool1"
  type: "Pooling"
  bottom: "conv1_2"
  top: "pool1"
  pooling_param {
    pool: MAX
    kernel_size: 2
    stride: 2
  }
}
layer {
  name: "ch4_pool1"
  type: "Pooling"
  bottom: "ch4_2cls"
  top: "ch4_pool1"
  pooling_param {
    pool: MAX
    kernel_size: 2
    stride: 2
  }
}
layer {
  name: "pool1_concat"
  type: "Concat"
  bottom: "pool1"
  bottom: "ch4_pool1"
  top: "pool1_new"
}
layer {
  name: "conv2_1_new"
  type: "Convolution"
  bottom: "pool1_new"
  top: "conv2_1"
  convolution_param {
    num_output: 128
    pad: 1
    kernel_size: 3
  }
}
layer {
  name: "relu2_1"
  type: "ReLU"
  bottom: "conv2_1"
  top: "conv2_1"
}
layer {
  name: "conv2_2"
  type: "Convolution"
  bottom: "conv2_1"
  top: "conv2_2"
  convolution_param {
    num_output: 128
    pad: 1
    kernel_size: 3
  }
}
layer {
  name: "relu2_2"
  type: "ReLU"
  bottom: "conv2_2"
  top: "conv2_2"
}
layer {
  name: "pool2"
  type: "Pooling"
  bottom: "conv2_2"
  top: "pool2"
  pooling_param {
    pool: MAX
    kernel_size: 2
    stride: 2
  }
}
layer {
  name: "ch4_pool2"
  type: "Pooling"
  bottom: "ch4_pool1"
  top: "ch4_pool2"
  pooling_param {
    pool: MAX
    kernel_size: 2
    stride: 2
  }
}
layer {
  name: "pool2_concat"
  type: "Concat"
  bottom: "pool2"
  bottom: "ch4_pool2"
  top: "pool2_new"
}
layer {
  name: "conv3_1_new"
  type: "Convolution"
  bottom: "pool2_new"
  top: "conv3_1"
  convolution_param {
    num_output: 256
    pad: 1
    kernel_size: 3
  }
}
layer {
  name: "relu3_1"
  type: "ReLU"
  bottom: "conv3_1"
  top: "conv3_1"
}
layer {
  name: "conv3_2"
  type: "Convolution"
  bottom: "conv3_1"
  top: "conv3_2"
  convolution_param {
    num_output: 256
    pad: 1
    kernel_size: 3
  }
}
layer {
  name: "relu3_2"
  type: "ReLU"
  bottom: "conv3_2"
  top: "conv3_2"
}
layer {
  name: "conv3_3"
  type: "Convolution"
  bottom: "conv3_2"
  top: "conv3_3"
  convolution_param {
    num_output: 256
    pad: 1
    kernel_size: 3
  }
}
layer {
  name: "relu3_3"
  type: "ReLU"
  bottom: "conv3_3"
  top: "conv3_3"
}
layer {
  name: "pool3"
  type: "Pooling"
  bottom: "conv3_3"
  top: "pool3"
  pooling_param {
    pool: MAX
    kernel_size: 2
    stride: 2
  }
}
layer {
  name: "ch4_pool3"
  type: "Pooling"
  bottom: "ch4_pool2"
  top: "ch4_pool3"
  pooling_param {
    pool: MAX
    kernel_size: 2
    stride: 2
  }
}
layer {
  name: "pool3_concat"
  type: "Concat"
  bottom: "pool3"
  bottom: "ch4_pool3"
  top: "pool3_new"
}
layer {
  name: "conv4_1_new"
  type: "Convolution"
  bottom: "pool3_new"
  top: "conv4_1"
  convolution_param {
    num_output: 512
    pad: 1
    kernel_size: 3
  }
}
layer {
  name: "relu4_1"
  type: "ReLU"
  bottom: "conv4_1"
  top: "conv4_1"
}
layer {
  name: "conv4_2"
  type: "Convolution"
  bottom: "conv4_1"
  top: "conv4_2"
  convolution_param {
    num_output: 512
    pad: 1
    kernel_size: 3
  }
}
layer {
  name: "relu4_2"
  type: "ReLU"
  bottom: "conv4_2"
  top: "conv4_2"
}
layer {
  name: "conv4_3"
  type: "Convolution"
  bottom: "conv4_2"
  top: "conv4_3"
  convolution_param {
    num_output: 512
    pad: 1
    kernel_size: 3
  }
}
layer {
  name: "relu4_3"
  type: "ReLU"
  bottom: "conv4_3"
  top: "conv4_3"
}
layer {
  name: "loss1_conv1"
  type: "Convolution"
  bottom: "conv4_3"
  top: "loss1_conv1"
  param {
    lr_mult: 1
    decay_mult: 1
  }
  param {
    lr_mult: 2
    decay_mult: 0
  }
  convolution_param {
    num_output: 512
    pad: 1
    kernel_size: 3
    weight_filler {
      type: "gaussian"
      std: 0.01
    }
    bias_filler {
      type: "constant"
    }
  }
}
layer {
  name: "loss_relu1"
  type: "ReLU"
  bottom: "loss1_conv1"
  top: "loss1_conv1"
}
layer {
  name: "LFCN_1_5x5_sub"
  type: "Convolution"
  bottom: "loss1_conv1"
  top: "LFCN_1_5x5_sub"
  param {
    lr_mult: 1
    decay_mult: 1
  }
  param {
    lr_mult: 2
    decay_mult: 0
  }
  convolution_param {
    num_output: 9
    pad: 2
    kernel_size: 5
    weight_filler {
      type: "gaussian"
      std: 0.001
    }
    bias_filler {
      type: "constant"
    }
  }
}
layer {
  name: "detection_loss_1_5x5"
  type: "DetectionLoss"
  bottom: "LFCN_1_5x5_sub"
  bottom: "label_1_5x5"
  top: "loss_1_5x5"
  loss_weight: 0.9
  detection_loss_param {
    cls_num: 5
    coord_num: 4
    lambda: 0.05
    field_h: 46
    field_w: 52
    downsample_rate: 8
    bb_smooth: true
    field_whr: 2
    field_xyr: 2
    bg_threshold: 0.2
    bg_multiple: 2
    sample_mode: "random"
    pos_neg_weighted: true
  }
}
layer {
  name: "detection_accuracy_1_5x5"
  type: "DetectionAccuracy"
  bottom: "LFCN_1_5x5_sub"
  bottom: "label_1_5x5"
  top: "accuracy_1_5x5"
  top: "boxiou_1_5x5"
  detection_accuracy_param {
    cls_num: 5
    coord_num: 4
    field_h: 46
    field_w: 52
    downsample_rate: 8
    field_whr: 2
    field_xyr: 2
  }
}
layer {
  name: "LFCN_1_7x7_sub"
  type: "Convolution"
  bottom: "loss1_conv1"
  top: "LFCN_1_7x7_sub"
  param {
    lr_mult: 1
    decay_mult: 1
  }
  param {
    lr_mult: 2
    decay_mult: 0
  }
  convolution_param {
    num_output: 9
    pad: 3
    kernel_size: 7
    weight_filler {
      type: "gaussian"
      std: 0.001
    }
    bias_filler {
      type: "constant"
    }
  }
}
layer {
  name: "detection_loss_1_7x7"
  type: "DetectionLoss"
  bottom: "LFCN_1_7x7_sub"
  bottom: "label_1_7x7"
  top: "loss_1_7x7"
  loss_weight: 0.9
  detection_loss_param {
    cls_num: 5
    coord_num: 4
    lambda: 0.05
    field_h: 84
    field_w: 94
    downsample_rate: 8
    bb_smooth: true
    field_whr: 2
    field_xyr: 2
    bg_threshold: 0.2
    bg_multiple: 2
    sample_mode: "random"
    pos_neg_weighted: true
  }
}
layer {
  name: "detection_accuracy_1_7x7"
  type: "DetectionAccuracy"
  bottom: "LFCN_1_7x7_sub"
  bottom: "label_1_7x7"
  top: "accuracy_1_7x7"
  top: "boxiou_1_7x7"
  detection_accuracy_param {
    cls_num: 5
    coord_num: 4
    field_h: 84
    field_w: 94
    downsample_rate: 8
    field_whr: 2
    field_xyr: 2
  }
}
layer {
  name: "pool4"
  type: "Pooling"
  bottom: "conv4_3"
  top: "pool4"
  pooling_param {
    pool: MAX
    kernel_size: 2
    stride: 2
  }
}
layer {
  name: "conv5_1"
  type: "Convolution"
  bottom: "pool4"
  top: "conv5_1"
  convolution_param {
    num_output: 512
    pad: 1
    kernel_size: 3
  }
}
layer {
  name: "relu5_1"
  type: "ReLU"
  bottom: "conv5_1"
  top: "conv5_1"
}
layer {
  name: "conv5_2"
  type: "Convolution"
  bottom: "conv5_1"
  top: "conv5_2"
  convolution_param {
    num_output: 512
    pad: 1
    kernel_size: 3
  }
}
layer {
  name: "relu5_2"
  type: "ReLU"
  bottom: "conv5_2"
  top: "conv5_2"
}
layer {
  name: "conv5_3"
  type: "Convolution"
  bottom: "conv5_2"
  top: "conv5_3"
  convolution_param {
    num_output: 512
    pad: 1
    kernel_size: 3
  }
}
layer {
  name: "relu5_3"
  type: "ReLU"
  bottom: "conv5_3"
  top: "conv5_3"
}
layer {
  name: "LFCN_2_5x5_sub"
  type: "Convolution"
  bottom: "conv5_3"
  top: "LFCN_2_5x5_sub"
  param {
    lr_mult: 1
    decay_mult: 1
  }
  param {
    lr_mult: 2
    decay_mult: 0
  }
  convolution_param {
    num_output: 9
    pad: 2
    kernel_size: 5
    weight_filler {
      type: "gaussian"
      std: 0.001
    }
    bias_filler {
      type: "constant"
    }
  }
}
layer {
  name: "detection_loss_2_5x5"
  type: "DetectionLoss"
  bottom: "LFCN_2_5x5_sub"
  bottom: "label_2_5x5"
  top: "loss_2_5x5"
  detection_loss_param {
    cls_num: 5
    coord_num: 4
    lambda: 0.05
    field_h: 128
    field_w: 143
    downsample_rate: 16
    bb_smooth: true
    field_whr: 2
    field_xyr: 2
    bg_threshold: 0.2
    bg_multiple: 2
    sample_mode: "random"
    pos_neg_weighted: true
  }
}
layer {
  name: "detection_accuracy_2_5x5"
  type: "DetectionAccuracy"
  bottom: "LFCN_2_5x5_sub"
  bottom: "label_2_5x5"
  top: "accuracy_2_5x5"
  top: "boxiou_2_5x5"
  detection_accuracy_param {
    cls_num: 5
    coord_num: 4
    field_h: 128
    field_w: 143
    downsample_rate: 16
    field_whr: 2
    field_xyr: 2
  }
}
layer {
  name: "LFCN_2_7x7_sub"
  type: "Convolution"
  bottom: "conv5_3"
  top: "LFCN_2_7x7_sub"
  param {
    lr_mult: 1
    decay_mult: 1
  }
  param {
    lr_mult: 2
    decay_mult: 0
  }
  convolution_param {
    num_output: 9
    pad: 3
    kernel_size: 7
    weight_filler {
      type: "gaussian"
      std: 0.001
    }
    bias_filler {
      type: "constant"
    }
  }
}
layer {
  name: "detection_loss_2_7x7"
  type: "DetectionLoss"
  bottom: "LFCN_2_7x7_sub"
  bottom: "label_2_7x7"
  top: "loss_2_7x7"
  detection_loss_param {
    cls_num: 5
    coord_num: 4
    lambda: 0.05
    field_h: 190
    field_w: 205
    downsample_rate: 16
    bb_smooth: true
    field_whr: 2
    field_xyr: 2
    bg_threshold: 0.2
    bg_multiple: 2
    sample_mode: "random"
    pos_neg_weighted: true
  }
}
layer {
  name: "detection_accuracy_2_7x7"
  type: "DetectionAccuracy"
  bottom: "LFCN_2_7x7_sub"
  bottom: "label_2_7x7"
  top: "accuracy_2_7x7"
  top: "boxiou_2_7x7"
  detection_accuracy_param {
    cls_num: 5
    coord_num: 4
    field_h: 190
    field_w: 205
    downsample_rate: 16
    field_whr: 2
    field_xyr: 2
  }
}
layer {
  name: "pool5"
  type: "Pooling"
  bottom: "conv5_3"
  top: "pool5"
  pooling_param {
    pool: MAX
    kernel_size: 2
    stride: 2
  }
}
layer {
  name: "conv6_1"
  type: "Convolution"
  bottom: "pool5"
  top: "conv6_1"
  param {
    lr_mult: 1
    decay_mult: 1
  }
  param {
    lr_mult: 2
    decay_mult: 0
  }
  convolution_param {
    num_output: 512
    pad: 1
    kernel_size: 3
    weight_filler {
      type: "gaussian"
      std: 0.01
    }
    bias_filler {
      type: "constant"
    }
  }
}
layer {
  name: "relu6_1"
  type: "ReLU"
  bottom: "conv6_1"
  top: "conv6_1"
}
layer {
  name: "LFCN_3_5x5_sub"
  type: "Convolution"
  bottom: "conv6_1"
  top: "LFCN_3_5x5_sub"
  param {
    lr_mult: 1
    decay_mult: 1
  }
  param {
    lr_mult: 2
    decay_mult: 0
  }
  convolution_param {
    num_output: 9
    pad: 2
    kernel_size: 5
    weight_filler {
      type: "gaussian"
      std: 0.001
    }
    bias_filler {
      type: "constant"
    }
  }
}
layer {
  name: "detection_loss_3_5x5"
  type: "DetectionLoss"
  bottom: "LFCN_3_5x5_sub"
  bottom: "label_3_5x5"
  top: "loss_3_5x5"
  detection_loss_param {
    cls_num: 5
    coord_num: 4
    lambda: 0.05
    field_h: 266
    field_w: 282
    downsample_rate: 32
    bb_smooth: true
    field_whr: 2
    field_xyr: 2
    bg_threshold: 0.2
    bg_multiple: 2
    sample_mode: "random"
    pos_neg_weighted: true
  }
}
layer {
  name: "detection_accuracy_3_5x5"
  type: "DetectionAccuracy"
  bottom: "LFCN_3_5x5_sub"
  bottom: "label_3_5x5"
  top: "accuracy_3_5x5"
  top: "boxiou_3_5x5"
  detection_accuracy_param {
    cls_num: 5
    coord_num: 4
    field_h: 266
    field_w: 282
    downsample_rate: 32
    field_whr: 2
    field_xyr: 2
  }
}
layer {
  name: "LFCN_3_7x7_sub"
  type: "Convolution"
  bottom: "conv6_1"
  top: "LFCN_3_7x7_sub"
  param {
    lr_mult: 1
    decay_mult: 1
  }
  param {
    lr_mult: 2
    decay_mult: 0
  }
  convolution_param {
    num_output: 9
    pad: 3
    kernel_size: 7
    weight_filler {
      type: "gaussian"
      std: 0.001
    }
    bias_filler {
      type: "constant"
    }
  }
}
layer {
  name: "detection_loss_3_7x7"
  type: "DetectionLoss"
  bottom: "LFCN_3_7x7_sub"
  bottom: "label_3_7x7"
  top: "loss_3_7x7"
  detection_loss_param {
    cls_num: 5
    coord_num: 4
    lambda: 0.05
    field_h: 366
    field_w: 374
    downsample_rate: 32
    bb_smooth: true
    field_whr: 2
    field_xyr: 2
    bg_threshold: 0.2
    bg_multiple: 2
    sample_mode: "random"
    pos_neg_weighted: true
  }
}
layer {
  name: "detection_accuracy_3_7x7"
  type: "DetectionAccuracy"
  bottom: "LFCN_3_7x7_sub"
  bottom: "label_3_7x7"
  top: "accuracy_3_7x7"
  top: "boxiou_3_7x7"
  detection_accuracy_param {
    cls_num: 5
    coord_num: 4
    field_h: 366
    field_w: 374
    downsample_rate: 32
    field_whr: 2
    field_xyr: 2
  }
}
layer {
  name: "pool6"
  type: "Pooling"
  bottom: "conv6_1"
  top: "pool6"
  pooling_param {
    pool: MAX
    kernel_size: 2
    stride: 2
  }
}
layer {
  name: "LFCN_4_5x5_sub"
  type: "Convolution"
  bottom: "pool6"
  top: "LFCN_4_5x5_sub"
  param {
    lr_mult: 1
    decay_mult: 1
  }
  param {
    lr_mult: 2
    decay_mult: 0
  }
  convolution_param {
    num_output: 9
    pad: 2
    kernel_size: 5
    weight_filler {
      type: "gaussian"
      std: 0.001
    }
    bias_filler {
      type: "constant"
    }
  }
}
layer {
  name: "detection_loss_4_5x5"
  type: "DetectionLoss"
  bottom: "LFCN_4_5x5_sub"
  bottom: "label_4_5x5"
  top: "loss_4_5x5"
  detection_loss_param {
    cls_num: 5
    coord_num: 4
    lambda: 0.05
    field_h: 582
    field_w: 539
    downsample_rate: 64
    bb_smooth: true
    field_whr: 2
    field_xyr: 2
    bg_threshold: 0.2
    bg_multiple: 2
    sample_mode: "random"
    pos_neg_weighted: true
  }
}
layer {
  name: "detection_accuracy_4_5x5"
  type: "DetectionAccuracy"
  bottom: "LFCN_4_5x5_sub"
  bottom: "label_4_5x5"
  top: "accuracy_4_5x5"
  top: "boxiou_4_5x5"
  detection_accuracy_param {
    cls_num: 5
    coord_num: 4
    field_h: 582
    field_w: 539
    downsample_rate: 64
    field_whr: 2
    field_xyr: 2
  }
}
I0710 19:40:43.480168  3751 layer_factory.hpp:77] Creating layer data
I0710 19:40:43.480221  3751 net.cpp:100] Creating Layer data
I0710 19:40:43.480231  3751 net.cpp:408] data -> data
…
I0710 19:40:43.505303  3751 image_gt_data_layer.cpp:235] output label size 1 : 4,6,96,96
I0710 19:40:43.505412  3751 image_gt_data_layer.cpp:235] output label size 2 : 4,6,48,48
I0710 19:40:43.505492  3751 image_gt_data_layer.cpp:235] output label size 3 : 4,6,48,48
I0710 19:40:43.505594  3751 image_gt_data_layer.cpp:235] output label size 4 : 4,6,24,24
I0710 19:40:43.505676  3751 image_gt_data_layer.cpp:235] output label size 5 : 4,6,24,24
I0710 19:40:43.505753  3751 image_gt_data_layer.cpp:235] output label size 6 : 4,6,12,12
I0710 19:40:43.584555  3751 net.cpp:150] Setting up data
I0710 19:40:43.584676  3751 net.cpp:157] Top shape: 4 4 768 768 (9437184)
I0710 19:40:43.584697  3751 net.cpp:157] Top shape: 4 6 96 96 (221184)
I0710 19:40:43.584707  3751 net.cpp:157] Top shape: 4 6 96 96 (221184)
I0710 19:40:43.584718  3751 net.cpp:157] Top shape: 4 6 48 48 (55296)
I0710 19:40:43.584728  3751 net.cpp:157] Top shape: 4 6 48 48 (55296)
I0710 19:40:43.584738  3751 net.cpp:157] Top shape: 4 6 24 24 (13824)
I0710 19:40:43.584745  3751 net.cpp:157] Top shape: 4 6 24 24 (13824)
I0710 19:40:43.584753  3751 net.cpp:157] Top shape: 4 6 12 12 (3456)
I0710 19:40:43.584764  3751 net.cpp:165] Memory required for data: 40084992
I0710 19:40:43.584791  3751 layer_factory.hpp:77] Creating layer label_1_5x5_data_1_split
I0710 19:40:43.584861  3751 net.cpp:100] Creating Layer label_1_5x5_data_1_split
I0710 19:40:43.584878  3751 net.cpp:434] label_1_5x5_data_1_split <- label_1_5x5
I0710 19:40:43.584941  3751 net.cpp:408] label_1_5x5_data_1_split -> label_1_5x5_data_1_split_0
I0710 19:40:43.584987  3751 net.cpp:408] label_1_5x5_data_1_split -> label_1_5x5_data_1_split_1
I0710 19:40:43.585099  3751 net.cpp:150] Setting up label_1_5x5_data_1_split
I0710 19:40:43.585108  3751 net.cpp:157] Top shape: 4 6 96 96 (221184)
I0710 19:40:43.585114  3751 net.cpp:157] Top shape: 4 6 96 96 (221184)
I0710 19:40:43.585117  3751 net.cpp:165] Memory required for data: 41854464
I0710 19:40:43.585120  3751 layer_factory.hpp:77] Creating layer label_1_7x7_data_2_split
I0710 19:40:43.585127  3751 net.cpp:100] Creating Layer label_1_7x7_data_2_split
I0710 19:40:43.585130  3751 net.cpp:434] label_1_7x7_data_2_split <- label_1_7x7
I0710 19:40:43.585136  3751 net.cpp:408] label_1_7x7_data_2_split -> label_1_7x7_data_2_split_0
I0710 19:40:43.585141  3751 net.cpp:408] label_1_7x7_data_2_split -> label_1_7x7_data_2_split_1
I0710 19:40:43.585167  3751 net.cpp:150] Setting up label_1_7x7_data_2_split
I0710 19:40:43.585173  3751 net.cpp:157] Top shape: 4 6 96 96 (221184)
I0710 19:40:43.585177  3751 net.cpp:157] Top shape: 4 6 96 96 (221184)
I0710 19:40:43.585180  3751 net.cpp:165] Memory required for data: 43623936
I0710 19:40:43.585183  3751 layer_factory.hpp:77] Creating layer label_2_5x5_data_3_split
I0710 19:40:43.585188  3751 net.cpp:100] Creating Layer label_2_5x5_data_3_split
I0710 19:40:43.585191  3751 net.cpp:434] label_2_5x5_data_3_split <- label_2_5x5
I0710 19:40:43.585196  3751 net.cpp:408] label_2_5x5_data_3_split -> label_2_5x5_data_3_split_0
I0710 19:40:43.585201  3751 net.cpp:408] label_2_5x5_data_3_split -> label_2_5x5_data_3_split_1
I0710 19:40:43.585225  3751 net.cpp:150] Setting up label_2_5x5_data_3_split
I0710 19:40:43.585232  3751 net.cpp:157] Top shape: 4 6 48 48 (55296)
I0710 19:40:43.585235  3751 net.cpp:157] Top shape: 4 6 48 48 (55296)
I0710 19:40:43.585238  3751 net.cpp:165] Memory required for data: 44066304
I0710 19:40:43.585242  3751 layer_factory.hpp:77] Creating layer label_2_7x7_data_4_split
I0710 19:40:43.585247  3751 net.cpp:100] Creating Layer label_2_7x7_data_4_split
I0710 19:40:43.585250  3751 net.cpp:434] label_2_7x7_data_4_split <- label_2_7x7
I0710 19:40:43.585255  3751 net.cpp:408] label_2_7x7_data_4_split -> label_2_7x7_data_4_split_0
I0710 19:40:43.585260  3751 net.cpp:408] label_2_7x7_data_4_split -> label_2_7x7_data_4_split_1
I0710 19:40:43.585284  3751 net.cpp:150] Setting up label_2_7x7_data_4_split
I0710 19:40:43.585289  3751 net.cpp:157] Top shape: 4 6 48 48 (55296)
I0710 19:40:43.585294  3751 net.cpp:157] Top shape: 4 6 48 48 (55296)
I0710 19:40:43.585297  3751 net.cpp:165] Memory required for data: 44508672
I0710 19:40:43.585300  3751 layer_factory.hpp:77] Creating layer label_3_5x5_data_5_split
I0710 19:40:43.585304  3751 net.cpp:100] Creating Layer label_3_5x5_data_5_split
I0710 19:40:43.585307  3751 net.cpp:434] label_3_5x5_data_5_split <- label_3_5x5
I0710 19:40:43.585312  3751 net.cpp:408] label_3_5x5_data_5_split -> label_3_5x5_data_5_split_0
I0710 19:40:43.585319  3751 net.cpp:408] label_3_5x5_data_5_split -> label_3_5x5_data_5_split_1
I0710 19:40:43.585340  3751 net.cpp:150] Setting up label_3_5x5_data_5_split
I0710 19:40:43.585347  3751 net.cpp:157] Top shape: 4 6 24 24 (13824)
I0710 19:40:43.585351  3751 net.cpp:157] Top shape: 4 6 24 24 (13824)
I0710 19:40:43.585355  3751 net.cpp:165] Memory required for data: 44619264
I0710 19:40:43.585357  3751 layer_factory.hpp:77] Creating layer label_3_7x7_data_6_split
I0710 19:40:43.585361  3751 net.cpp:100] Creating Layer label_3_7x7_data_6_split
I0710 19:40:43.585366  3751 net.cpp:434] label_3_7x7_data_6_split <- label_3_7x7
I0710 19:40:43.585369  3751 net.cpp:408] label_3_7x7_data_6_split -> label_3_7x7_data_6_split_0
I0710 19:40:43.585376  3751 net.cpp:408] label_3_7x7_data_6_split -> label_3_7x7_data_6_split_1
I0710 19:40:43.585398  3751 net.cpp:150] Setting up label_3_7x7_data_6_split
I0710 19:40:43.585403  3751 net.cpp:157] Top shape: 4 6 24 24 (13824)
I0710 19:40:43.585407  3751 net.cpp:157] Top shape: 4 6 24 24 (13824)
I0710 19:40:43.585410  3751 net.cpp:165] Memory required for data: 44729856
I0710 19:40:43.585413  3751 layer_factory.hpp:77] Creating layer label_4_5x5_data_7_split
I0710 19:40:43.585418  3751 net.cpp:100] Creating Layer label_4_5x5_data_7_split
I0710 19:40:43.585422  3751 net.cpp:434] label_4_5x5_data_7_split <- label_4_5x5
I0710 19:40:43.585427  3751 net.cpp:408] label_4_5x5_data_7_split -> label_4_5x5_data_7_split_0
I0710 19:40:43.585431  3751 net.cpp:408] label_4_5x5_data_7_split -> label_4_5x5_data_7_split_1
I0710 19:40:43.585464  3751 net.cpp:150] Setting up label_4_5x5_data_7_split
I0710 19:40:43.585472  3751 net.cpp:157] Top shape: 4 6 12 12 (3456)
I0710 19:40:43.585476  3751 net.cpp:157] Top shape: 4 6 12 12 (3456)
I0710 19:40:43.585479  3751 net.cpp:165] Memory required for data: 44757504
I0710 19:40:43.585482  3751 layer_factory.hpp:77] Creating layer slice
I0710 19:40:43.585494  3751 net.cpp:100] Creating Layer slice
I0710 19:40:43.585497  3751 net.cpp:434] slice <- data
I0710 19:40:43.585502  3751 net.cpp:408] slice -> data123
I0710 19:40:43.585513  3751 net.cpp:408] slice -> ch4
I0710 19:40:43.585546  3751 net.cpp:150] Setting up slice
I0710 19:40:43.585551  3751 net.cpp:157] Top shape: 4 3 768 768 (7077888)
I0710 19:40:43.585556  3751 net.cpp:157] Top shape: 4 1 768 768 (2359296)
I0710 19:40:43.585558  3751 net.cpp:165] Memory required for data: 82506240
I0710 19:40:43.585561  3751 layer_factory.hpp:77] Creating layer ch4_slice_1_split
I0710 19:40:43.585566  3751 net.cpp:100] Creating Layer ch4_slice_1_split
I0710 19:40:43.585568  3751 net.cpp:434] ch4_slice_1_split <- ch4
I0710 19:40:43.585573  3751 net.cpp:408] ch4_slice_1_split -> ch4_slice_1_split_0
I0710 19:40:43.585578  3751 net.cpp:408] ch4_slice_1_split -> ch4_slice_1_split_1
I0710 19:40:43.585604  3751 net.cpp:150] Setting up ch4_slice_1_split
I0710 19:40:43.585609  3751 net.cpp:157] Top shape: 4 1 768 768 (2359296)
I0710 19:40:43.585613  3751 net.cpp:157] Top shape: 4 1 768 768 (2359296)
I0710 19:40:43.585616  3751 net.cpp:165] Memory required for data: 101380608
I0710 19:40:43.585619  3751 layer_factory.hpp:77] Creating layer ch4_0-127
I0710 19:40:43.585626  3751 net.cpp:100] Creating Layer ch4_0-127
I0710 19:40:43.585630  3751 net.cpp:434] ch4_0-127 <- ch4_slice_1_split_0
I0710 19:40:43.585635  3751 net.cpp:408] ch4_0-127 -> ch4_0-127
I0710 19:40:43.585656  3751 net.cpp:150] Setting up ch4_0-127
I0710 19:40:43.585662  3751 net.cpp:157] Top shape: 4 1 768 768 (2359296)
I0710 19:40:43.585665  3751 net.cpp:165] Memory required for data: 110817792
I0710 19:40:43.585669  3751 layer_factory.hpp:77] Creating layer ch4_128-255
I0710 19:40:43.585674  3751 net.cpp:100] Creating Layer ch4_128-255
I0710 19:40:43.585677  3751 net.cpp:434] ch4_128-255 <- ch4_slice_1_split_1
I0710 19:40:43.585681  3751 net.cpp:408] ch4_128-255 -> ch4_128-255
I0710 19:40:43.585696  3751 net.cpp:150] Setting up ch4_128-255
I0710 19:40:43.585702  3751 net.cpp:157] Top shape: 4 1 768 768 (2359296)
I0710 19:40:43.585705  3751 net.cpp:165] Memory required for data: 120254976
I0710 19:40:43.585708  3751 layer_factory.hpp:77] Creating layer ch4_2cls-concat
I0710 19:40:43.585717  3751 net.cpp:100] Creating Layer ch4_2cls-concat
I0710 19:40:43.585721  3751 net.cpp:434] ch4_2cls-concat <- ch4_0-127
I0710 19:40:43.585726  3751 net.cpp:434] ch4_2cls-concat <- ch4_128-255
I0710 19:40:43.585729  3751 net.cpp:408] ch4_2cls-concat -> ch4_2cls
I0710 19:40:43.585747  3751 net.cpp:150] Setting up ch4_2cls-concat
I0710 19:40:43.585752  3751 net.cpp:157] Top shape: 4 2 768 768 (4718592)
I0710 19:40:43.585755  3751 net.cpp:165] Memory required for data: 139129344
I0710 19:40:43.585758  3751 layer_factory.hpp:77] Creating layer relu_ch42cls
I0710 19:40:43.585764  3751 net.cpp:100] Creating Layer relu_ch42cls
I0710 19:40:43.585768  3751 net.cpp:434] relu_ch42cls <- ch4_2cls
I0710 19:40:43.585773  3751 net.cpp:395] relu_ch42cls -> ch4_2cls (in-place)
I0710 19:40:43.853067  3751 net.cpp:150] Setting up relu_ch42cls
I0710 19:40:43.853096  3751 net.cpp:157] Top shape: 4 2 768 768 (4718592)
I0710 19:40:43.853099  3751 net.cpp:165] Memory required for data: 158003712
I0710 19:40:43.853106  3751 layer_factory.hpp:77] Creating layer conv1_1
I0710 19:40:43.853122  3751 net.cpp:100] Creating Layer conv1_1
I0710 19:40:43.853127  3751 net.cpp:434] conv1_1 <- data123
I0710 19:40:43.853133  3751 net.cpp:408] conv1_1 -> conv1_1
I0710 19:40:43.855592  3751 net.cpp:150] Setting up conv1_1
I0710 19:40:43.855609  3751 net.cpp:157] Top shape: 4 64 768 768 (150994944)
I0710 19:40:43.855614  3751 net.cpp:165] Memory required for data: 761983488
I0710 19:40:43.855628  3751 layer_factory.hpp:77] Creating layer relu1_1
I0710 19:40:43.855636  3751 net.cpp:100] Creating Layer relu1_1
I0710 19:40:43.855641  3751 net.cpp:434] relu1_1 <- conv1_1
I0710 19:40:43.855646  3751 net.cpp:395] relu1_1 -> conv1_1 (in-place)
I0710 19:40:43.855800  3751 net.cpp:150] Setting up relu1_1
I0710 19:40:43.855809  3751 net.cpp:157] Top shape: 4 64 768 768 (150994944)
I0710 19:40:43.855813  3751 net.cpp:165] Memory required for data: 1365963264
I0710 19:40:43.855816  3751 layer_factory.hpp:77] Creating layer conv1_2
I0710 19:40:43.855825  3751 net.cpp:100] Creating Layer conv1_2
I0710 19:40:43.855829  3751 net.cpp:434] conv1_2 <- conv1_1
I0710 19:40:43.855835  3751 net.cpp:408] conv1_2 -> conv1_2
I0710 19:40:43.859305  3751 net.cpp:150] Setting up conv1_2
I0710 19:40:43.859338  3751 net.cpp:157] Top shape: 4 64 768 768 (150994944)
I0710 19:40:43.859342  3751 net.cpp:165] Memory required for data: 1969943040
I0710 19:40:43.859359  3751 layer_factory.hpp:77] Creating layer relu1_2
I0710 19:40:43.859374  3751 net.cpp:100] Creating Layer relu1_2
I0710 19:40:43.859380  3751 net.cpp:434] relu1_2 <- conv1_2
I0710 19:40:43.859386  3751 net.cpp:395] relu1_2 -> conv1_2 (in-place)
I0710 19:40:43.859586  3751 net.cpp:150] Setting up relu1_2
I0710 19:40:43.859594  3751 net.cpp:157] Top shape: 4 64 768 768 (150994944)
I0710 19:40:43.859597  3751 net.cpp:165] Memory required for data: 2573922816
I0710 19:40:43.859601  3751 layer_factory.hpp:77] Creating layer pool1
I0710 19:40:43.859608  3751 net.cpp:100] Creating Layer pool1
I0710 19:40:43.859613  3751 net.cpp:434] pool1 <- conv1_2
I0710 19:40:43.859619  3751 net.cpp:408] pool1 -> pool1
I0710 19:40:43.859681  3751 net.cpp:150] Setting up pool1
I0710 19:40:43.859688  3751 net.cpp:157] Top shape: 4 64 384 384 (37748736)
I0710 19:40:43.859691  3751 net.cpp:165] Memory required for data: 2724917760
I0710 19:40:43.859694  3751 layer_factory.hpp:77] Creating layer ch4_pool1
I0710 19:40:43.859699  3751 net.cpp:100] Creating Layer ch4_pool1
I0710 19:40:43.859704  3751 net.cpp:434] ch4_pool1 <- ch4_2cls
I0710 19:40:43.859709  3751 net.cpp:408] ch4_pool1 -> ch4_pool1
I0710 19:40:43.859738  3751 net.cpp:150] Setting up ch4_pool1
I0710 19:40:43.859745  3751 net.cpp:157] Top shape: 4 2 384 384 (1179648)
I0710 19:40:43.859748  3751 net.cpp:165] Memory required for data: 2729636352
I0710 19:40:43.859751  3751 layer_factory.hpp:77] Creating layer ch4_pool1_ch4_pool1_0_split
I0710 19:40:43.859756  3751 net.cpp:100] Creating Layer ch4_pool1_ch4_pool1_0_split
I0710 19:40:43.859760  3751 net.cpp:434] ch4_pool1_ch4_pool1_0_split <- ch4_pool1
I0710 19:40:43.859766  3751 net.cpp:408] ch4_pool1_ch4_pool1_0_split -> ch4_pool1_ch4_pool1_0_split_0
I0710 19:40:43.859771  3751 net.cpp:408] ch4_pool1_ch4_pool1_0_split -> ch4_pool1_ch4_pool1_0_split_1
I0710 19:40:43.859798  3751 net.cpp:150] Setting up ch4_pool1_ch4_pool1_0_split
I0710 19:40:43.859804  3751 net.cpp:157] Top shape: 4 2 384 384 (1179648)
I0710 19:40:43.859808  3751 net.cpp:157] Top shape: 4 2 384 384 (1179648)
I0710 19:40:43.859812  3751 net.cpp:165] Memory required for data: 2739073536
I0710 19:40:43.859814  3751 layer_factory.hpp:77] Creating layer pool1_concat
I0710 19:40:43.859819  3751 net.cpp:100] Creating Layer pool1_concat
I0710 19:40:43.859823  3751 net.cpp:434] pool1_concat <- pool1
I0710 19:40:43.859827  3751 net.cpp:434] pool1_concat <- ch4_pool1_ch4_pool1_0_split_0
I0710 19:40:43.859833  3751 net.cpp:408] pool1_concat -> pool1_new
I0710 19:40:43.859850  3751 net.cpp:150] Setting up pool1_concat
I0710 19:40:43.859856  3751 net.cpp:157] Top shape: 4 66 384 384 (38928384)
I0710 19:40:43.859859  3751 net.cpp:165] Memory required for data: 2894787072
I0710 19:40:43.859863  3751 layer_factory.hpp:77] Creating layer conv2_1_new
I0710 19:40:43.859871  3751 net.cpp:100] Creating Layer conv2_1_new
I0710 19:40:43.859876  3751 net.cpp:434] conv2_1_new <- pool1_new
I0710 19:40:43.859881  3751 net.cpp:408] conv2_1_new -> conv2_1
I0710 19:40:43.861994  3751 net.cpp:150] Setting up conv2_1_new
I0710 19:40:43.862010  3751 net.cpp:157] Top shape: 4 128 384 384 (75497472)
I0710 19:40:43.862012  3751 net.cpp:165] Memory required for data: 3196776960
I0710 19:40:43.862022  3751 layer_factory.hpp:77] Creating layer relu2_1
I0710 19:40:43.862028  3751 net.cpp:100] Creating Layer relu2_1
I0710 19:40:43.862032  3751 net.cpp:434] relu2_1 <- conv2_1
I0710 19:40:43.862037  3751 net.cpp:395] relu2_1 -> conv2_1 (in-place)
I0710 19:40:43.862450  3751 net.cpp:150] Setting up relu2_1
I0710 19:40:43.862462  3751 net.cpp:157] Top shape: 4 128 384 384 (75497472)
I0710 19:40:43.862468  3751 net.cpp:165] Memory required for data: 3498766848
I0710 19:40:43.862470  3751 layer_factory.hpp:77] Creating layer conv2_2
I0710 19:40:43.862478  3751 net.cpp:100] Creating Layer conv2_2
I0710 19:40:43.862483  3751 net.cpp:434] conv2_2 <- conv2_1
I0710 19:40:43.862489  3751 net.cpp:408] conv2_2 -> conv2_2
I0710 19:40:43.863662  3751 net.cpp:150] Setting up conv2_2
I0710 19:40:43.863675  3751 net.cpp:157] Top shape: 4 128 384 384 (75497472)
I0710 19:40:43.863679  3751 net.cpp:165] Memory required for data: 3800756736
I0710 19:40:43.863688  3751 layer_factory.hpp:77] Creating layer relu2_2
I0710 19:40:43.863695  3751 net.cpp:100] Creating Layer relu2_2
I0710 19:40:43.863699  3751 net.cpp:434] relu2_2 <- conv2_2
I0710 19:40:43.863706  3751 net.cpp:395] relu2_2 -> conv2_2 (in-place)
I0710 19:40:43.864150  3751 net.cpp:150] Setting up relu2_2
I0710 19:40:43.864161  3751 net.cpp:157] Top shape: 4 128 384 384 (75497472)
I0710 19:40:43.864166  3751 net.cpp:165] Memory required for data: 4102746624
I0710 19:40:43.864171  3751 layer_factory.hpp:77] Creating layer pool2
I0710 19:40:43.864179  3751 net.cpp:100] Creating Layer pool2
I0710 19:40:43.864184  3751 net.cpp:434] pool2 <- conv2_2
I0710 19:40:43.864192  3751 net.cpp:408] pool2 -> pool2
I0710 19:40:43.864233  3751 net.cpp:150] Setting up pool2
I0710 19:40:43.864240  3751 net.cpp:157] Top shape: 4 128 192 192 (18874368)
I0710 19:40:43.864245  3751 net.cpp:165] Memory required for data: 4178244096
I0710 19:40:43.864249  3751 layer_factory.hpp:77] Creating layer ch4_pool2
I0710 19:40:43.864256  3751 net.cpp:100] Creating Layer ch4_pool2
I0710 19:40:43.864261  3751 net.cpp:434] ch4_pool2 <- ch4_pool1_ch4_pool1_0_split_1
I0710 19:40:43.864269  3751 net.cpp:408] ch4_pool2 -> ch4_pool2
I0710 19:40:43.864305  3751 net.cpp:150] Setting up ch4_pool2
I0710 19:40:43.864311  3751 net.cpp:157] Top shape: 4 2 192 192 (294912)
I0710 19:40:43.864315  3751 net.cpp:165] Memory required for data: 4179423744
I0710 19:40:43.864320  3751 layer_factory.hpp:77] Creating layer ch4_pool2_ch4_pool2_0_split
I0710 19:40:43.864326  3751 net.cpp:100] Creating Layer ch4_pool2_ch4_pool2_0_split
I0710 19:40:43.864332  3751 net.cpp:434] ch4_pool2_ch4_pool2_0_split <- ch4_pool2
I0710 19:40:43.864339  3751 net.cpp:408] ch4_pool2_ch4_pool2_0_split -> ch4_pool2_ch4_pool2_0_split_0
I0710 19:40:43.864348  3751 net.cpp:408] ch4_pool2_ch4_pool2_0_split -> ch4_pool2_ch4_pool2_0_split_1
I0710 19:40:43.864387  3751 net.cpp:150] Setting up ch4_pool2_ch4_pool2_0_split
I0710 19:40:43.864393  3751 net.cpp:157] Top shape: 4 2 192 192 (294912)
I0710 19:40:43.864398  3751 net.cpp:157] Top shape: 4 2 192 192 (294912)
I0710 19:40:43.864403  3751 net.cpp:165] Memory required for data: 4181783040
I0710 19:40:43.864406  3751 layer_factory.hpp:77] Creating layer pool2_concat
I0710 19:40:43.864413  3751 net.cpp:100] Creating Layer pool2_concat
I0710 19:40:43.864418  3751 net.cpp:434] pool2_concat <- pool2
I0710 19:40:43.864423  3751 net.cpp:434] pool2_concat <- ch4_pool2_ch4_pool2_0_split_0
I0710 19:40:43.864430  3751 net.cpp:408] pool2_concat -> pool2_new
I0710 19:40:43.864454  3751 net.cpp:150] Setting up pool2_concat
I0710 19:40:43.864460  3751 net.cpp:157] Top shape: 4 130 192 192 (19169280)
I0710 19:40:43.864464  3751 net.cpp:165] Memory required for data: 4258460160
I0710 19:40:43.864470  3751 layer_factory.hpp:77] Creating layer conv3_1_new
I0710 19:40:43.864478  3751 net.cpp:100] Creating Layer conv3_1_new
I0710 19:40:43.864483  3751 net.cpp:434] conv3_1_new <- pool2_new
I0710 19:40:43.864490  3751 net.cpp:408] conv3_1_new -> conv3_1
I0710 19:40:43.866832  3751 net.cpp:150] Setting up conv3_1_new
I0710 19:40:43.866852  3751 net.cpp:157] Top shape: 4 256 192 192 (37748736)
I0710 19:40:43.866855  3751 net.cpp:165] Memory required for data: 4409455104
I0710 19:40:43.866868  3751 layer_factory.hpp:77] Creating layer relu3_1
I0710 19:40:43.866876  3751 net.cpp:100] Creating Layer relu3_1
I0710 19:40:43.866881  3751 net.cpp:434] relu3_1 <- conv3_1
I0710 19:40:43.866888  3751 net.cpp:395] relu3_1 -> conv3_1 (in-place)
I0710 19:40:43.867082  3751 net.cpp:150] Setting up relu3_1
I0710 19:40:43.867092  3751 net.cpp:157] Top shape: 4 256 192 192 (37748736)
I0710 19:40:43.867095  3751 net.cpp:165] Memory required for data: 4560450048
I0710 19:40:43.867100  3751 layer_factory.hpp:77] Creating layer conv3_2
I0710 19:40:43.867113  3751 net.cpp:100] Creating Layer conv3_2
I0710 19:40:43.867118  3751 net.cpp:434] conv3_2 <- conv3_1
I0710 19:40:43.867125  3751 net.cpp:408] conv3_2 -> conv3_2
I0710 19:40:43.870952  3751 net.cpp:150] Setting up conv3_2
I0710 19:40:43.870972  3751 net.cpp:157] Top shape: 4 256 192 192 (37748736)
I0710 19:40:43.870976  3751 net.cpp:165] Memory required for data: 4711444992
I0710 19:40:43.870985  3751 layer_factory.hpp:77] Creating layer relu3_2
I0710 19:40:43.870991  3751 net.cpp:100] Creating Layer relu3_2
I0710 19:40:43.870997  3751 net.cpp:434] relu3_2 <- conv3_2
I0710 19:40:43.871002  3751 net.cpp:395] relu3_2 -> conv3_2 (in-place)
I0710 19:40:43.871178  3751 net.cpp:150] Setting up relu3_2
I0710 19:40:43.871187  3751 net.cpp:157] Top shape: 4 256 192 192 (37748736)
I0710 19:40:43.871191  3751 net.cpp:165] Memory required for data: 4862439936
I0710 19:40:43.871196  3751 layer_factory.hpp:77] Creating layer conv3_3
I0710 19:40:43.871203  3751 net.cpp:100] Creating Layer conv3_3
I0710 19:40:43.871207  3751 net.cpp:434] conv3_3 <- conv3_2
I0710 19:40:43.871213  3751 net.cpp:408] conv3_3 -> conv3_3
I0710 19:40:43.873584  3751 net.cpp:150] Setting up conv3_3
I0710 19:40:43.873598  3751 net.cpp:157] Top shape: 4 256 192 192 (37748736)
I0710 19:40:43.873601  3751 net.cpp:165] Memory required for data: 5013434880
I0710 19:40:43.873610  3751 layer_factory.hpp:77] Creating layer relu3_3
I0710 19:40:43.873615  3751 net.cpp:100] Creating Layer relu3_3
I0710 19:40:43.873620  3751 net.cpp:434] relu3_3 <- conv3_3
I0710 19:40:43.873625  3751 net.cpp:395] relu3_3 -> conv3_3 (in-place)
I0710 19:40:43.873791  3751 net.cpp:150] Setting up relu3_3
I0710 19:40:43.873800  3751 net.cpp:157] Top shape: 4 256 192 192 (37748736)
I0710 19:40:43.873805  3751 net.cpp:165] Memory required for data: 5164429824
I0710 19:40:43.873807  3751 layer_factory.hpp:77] Creating layer pool3
I0710 19:40:43.873814  3751 net.cpp:100] Creating Layer pool3
I0710 19:40:43.873817  3751 net.cpp:434] pool3 <- conv3_3
I0710 19:40:43.873824  3751 net.cpp:408] pool3 -> pool3
I0710 19:40:43.873860  3751 net.cpp:150] Setting up pool3
I0710 19:40:43.873867  3751 net.cpp:157] Top shape: 4 256 96 96 (9437184)
I0710 19:40:43.873870  3751 net.cpp:165] Memory required for data: 5202178560
I0710 19:40:43.873873  3751 layer_factory.hpp:77] Creating layer ch4_pool3
I0710 19:40:43.873879  3751 net.cpp:100] Creating Layer ch4_pool3
I0710 19:40:43.873883  3751 net.cpp:434] ch4_pool3 <- ch4_pool2_ch4_pool2_0_split_1
I0710 19:40:43.873888  3751 net.cpp:408] ch4_pool3 -> ch4_pool3
I0710 19:40:43.873919  3751 net.cpp:150] Setting up ch4_pool3
I0710 19:40:43.873924  3751 net.cpp:157] Top shape: 4 2 96 96 (73728)
I0710 19:40:43.873927  3751 net.cpp:165] Memory required for data: 5202473472
I0710 19:40:43.873931  3751 layer_factory.hpp:77] Creating layer pool3_concat
I0710 19:40:43.873936  3751 net.cpp:100] Creating Layer pool3_concat
I0710 19:40:43.873941  3751 net.cpp:434] pool3_concat <- pool3
I0710 19:40:43.873945  3751 net.cpp:434] pool3_concat <- ch4_pool3
I0710 19:40:43.873950  3751 net.cpp:408] pool3_concat -> pool3_new
I0710 19:40:43.873968  3751 net.cpp:150] Setting up pool3_concat
I0710 19:40:43.873975  3751 net.cpp:157] Top shape: 4 258 96 96 (9510912)
I0710 19:40:43.873977  3751 net.cpp:165] Memory required for data: 5240517120
I0710 19:40:43.873980  3751 layer_factory.hpp:77] Creating layer conv4_1_new
I0710 19:40:43.873988  3751 net.cpp:100] Creating Layer conv4_1_new
I0710 19:40:43.873991  3751 net.cpp:434] conv4_1_new <- pool3_new
I0710 19:40:43.873996  3751 net.cpp:408] conv4_1_new -> conv4_1
I0710 19:40:43.882566  3751 net.cpp:150] Setting up conv4_1_new
I0710 19:40:43.882604  3751 net.cpp:157] Top shape: 4 512 96 96 (18874368)
I0710 19:40:43.882609  3751 net.cpp:165] Memory required for data: 5316014592
I0710 19:40:43.882622  3751 layer_factory.hpp:77] Creating layer relu4_1
I0710 19:40:43.882637  3751 net.cpp:100] Creating Layer relu4_1
I0710 19:40:43.882644  3751 net.cpp:434] relu4_1 <- conv4_1
I0710 19:40:43.882650  3751 net.cpp:395] relu4_1 -> conv4_1 (in-place)
I0710 19:40:43.882809  3751 net.cpp:150] Setting up relu4_1
I0710 19:40:43.882818  3751 net.cpp:157] Top shape: 4 512 96 96 (18874368)
I0710 19:40:43.882822  3751 net.cpp:165] Memory required for data: 5391512064
I0710 19:40:43.882825  3751 layer_factory.hpp:77] Creating layer conv4_2
I0710 19:40:43.882836  3751 net.cpp:100] Creating Layer conv4_2
I0710 19:40:43.882840  3751 net.cpp:434] conv4_2 <- conv4_1
I0710 19:40:43.882848  3751 net.cpp:408] conv4_2 -> conv4_2
I0710 19:40:43.893859  3751 net.cpp:150] Setting up conv4_2
I0710 19:40:43.893892  3751 net.cpp:157] Top shape: 4 512 96 96 (18874368)
I0710 19:40:43.893896  3751 net.cpp:165] Memory required for data: 5467009536
I0710 19:40:43.893909  3751 layer_factory.hpp:77] Creating layer relu4_2
I0710 19:40:43.893920  3751 net.cpp:100] Creating Layer relu4_2
I0710 19:40:43.893926  3751 net.cpp:434] relu4_2 <- conv4_2
I0710 19:40:43.893934  3751 net.cpp:395] relu4_2 -> conv4_2 (in-place)
I0710 19:40:43.894379  3751 net.cpp:150] Setting up relu4_2
I0710 19:40:43.894392  3751 net.cpp:157] Top shape: 4 512 96 96 (18874368)
I0710 19:40:43.894395  3751 net.cpp:165] Memory required for data: 5542507008
I0710 19:40:43.894399  3751 layer_factory.hpp:77] Creating layer conv4_3
I0710 19:40:43.894412  3751 net.cpp:100] Creating Layer conv4_3
I0710 19:40:43.894415  3751 net.cpp:434] conv4_3 <- conv4_2
I0710 19:40:43.894421  3751 net.cpp:408] conv4_3 -> conv4_3
I0710 19:40:43.899874  3751 net.cpp:150] Setting up conv4_3
I0710 19:40:43.899909  3751 net.cpp:157] Top shape: 4 512 96 96 (18874368)
I0710 19:40:43.899912  3751 net.cpp:165] Memory required for data: 5618004480
I0710 19:40:43.899922  3751 layer_factory.hpp:77] Creating layer relu4_3
I0710 19:40:43.899935  3751 net.cpp:100] Creating Layer relu4_3
I0710 19:40:43.899941  3751 net.cpp:434] relu4_3 <- conv4_3
I0710 19:40:43.899947  3751 net.cpp:395] relu4_3 -> conv4_3 (in-place)
I0710 19:40:43.900532  3751 net.cpp:150] Setting up relu4_3
I0710 19:40:43.900544  3751 net.cpp:157] Top shape: 4 512 96 96 (18874368)
I0710 19:40:43.900548  3751 net.cpp:165] Memory required for data: 5693501952
I0710 19:40:43.900552  3751 layer_factory.hpp:77] Creating layer conv4_3_relu4_3_0_split
I0710 19:40:43.900559  3751 net.cpp:100] Creating Layer conv4_3_relu4_3_0_split
I0710 19:40:43.900564  3751 net.cpp:434] conv4_3_relu4_3_0_split <- conv4_3
I0710 19:40:43.900569  3751 net.cpp:408] conv4_3_relu4_3_0_split -> conv4_3_relu4_3_0_split_0
I0710 19:40:43.900576  3751 net.cpp:408] conv4_3_relu4_3_0_split -> conv4_3_relu4_3_0_split_1
I0710 19:40:43.900614  3751 net.cpp:150] Setting up conv4_3_relu4_3_0_split
I0710 19:40:43.900619  3751 net.cpp:157] Top shape: 4 512 96 96 (18874368)
I0710 19:40:43.900624  3751 net.cpp:157] Top shape: 4 512 96 96 (18874368)
I0710 19:40:43.900626  3751 net.cpp:165] Memory required for data: 5844496896
I0710 19:40:43.900629  3751 layer_factory.hpp:77] Creating layer loss1_conv1
I0710 19:40:43.900640  3751 net.cpp:100] Creating Layer loss1_conv1
I0710 19:40:43.900645  3751 net.cpp:434] loss1_conv1 <- conv4_3_relu4_3_0_split_0
I0710 19:40:43.900651  3751 net.cpp:408] loss1_conv1 -> loss1_conv1
I0710 19:40:43.968649  3751 net.cpp:150] Setting up loss1_conv1
I0710 19:40:43.968677  3751 net.cpp:157] Top shape: 4 512 96 96 (18874368)
I0710 19:40:43.968681  3751 net.cpp:165] Memory required for data: 5919994368
I0710 19:40:43.968689  3751 layer_factory.hpp:77] Creating layer loss_relu1
I0710 19:40:43.968700  3751 net.cpp:100] Creating Layer loss_relu1
I0710 19:40:43.968706  3751 net.cpp:434] loss_relu1 <- loss1_conv1
I0710 19:40:43.968713  3751 net.cpp:395] loss_relu1 -> loss1_conv1 (in-place)
I0710 19:40:43.968881  3751 net.cpp:150] Setting up loss_relu1
I0710 19:40:43.968890  3751 net.cpp:157] Top shape: 4 512 96 96 (18874368)
I0710 19:40:43.968894  3751 net.cpp:165] Memory required for data: 5995491840
I0710 19:40:43.968897  3751 layer_factory.hpp:77] Creating layer loss1_conv1_loss_relu1_0_split
I0710 19:40:43.968904  3751 net.cpp:100] Creating Layer loss1_conv1_loss_relu1_0_split
I0710 19:40:43.968907  3751 net.cpp:434] loss1_conv1_loss_relu1_0_split <- loss1_conv1
I0710 19:40:43.968912  3751 net.cpp:408] loss1_conv1_loss_relu1_0_split -> loss1_conv1_loss_relu1_0_split_0
I0710 19:40:43.968919  3751 net.cpp:408] loss1_conv1_loss_relu1_0_split -> loss1_conv1_loss_relu1_0_split_1
I0710 19:40:43.968953  3751 net.cpp:150] Setting up loss1_conv1_loss_relu1_0_split
I0710 19:40:43.968960  3751 net.cpp:157] Top shape: 4 512 96 96 (18874368)
I0710 19:40:43.968964  3751 net.cpp:157] Top shape: 4 512 96 96 (18874368)
I0710 19:40:43.968967  3751 net.cpp:165] Memory required for data: 6146486784
I0710 19:40:43.968971  3751 layer_factory.hpp:77] Creating layer LFCN_1_5x5_sub
I0710 19:40:43.968981  3751 net.cpp:100] Creating Layer LFCN_1_5x5_sub
I0710 19:40:43.968984  3751 net.cpp:434] LFCN_1_5x5_sub <- loss1_conv1_loss_relu1_0_split_0
I0710 19:40:43.968991  3751 net.cpp:408] LFCN_1_5x5_sub -> LFCN_1_5x5_sub
I0710 19:40:43.972996  3751 net.cpp:150] Setting up LFCN_1_5x5_sub
I0710 19:40:43.973009  3751 net.cpp:157] Top shape: 4 9 96 96 (331776)
I0710 19:40:43.973013  3751 net.cpp:165] Memory required for data: 6147813888
I0710 19:40:43.973021  3751 layer_factory.hpp:77] Creating layer LFCN_1_5x5_sub_LFCN_1_5x5_sub_0_split
I0710 19:40:43.973026  3751 net.cpp:100] Creating Layer LFCN_1_5x5_sub_LFCN_1_5x5_sub_0_split
I0710 19:40:43.973031  3751 net.cpp:434] LFCN_1_5x5_sub_LFCN_1_5x5_sub_0_split <- LFCN_1_5x5_sub
I0710 19:40:43.973035  3751 net.cpp:408] LFCN_1_5x5_sub_LFCN_1_5x5_sub_0_split -> LFCN_1_5x5_sub_LFCN_1_5x5_sub_0_split_0
I0710 19:40:43.973042  3751 net.cpp:408] LFCN_1_5x5_sub_LFCN_1_5x5_sub_0_split -> LFCN_1_5x5_sub_LFCN_1_5x5_sub_0_split_1
I0710 19:40:43.973078  3751 net.cpp:150] Setting up LFCN_1_5x5_sub_LFCN_1_5x5_sub_0_split
I0710 19:40:43.973084  3751 net.cpp:157] Top shape: 4 9 96 96 (331776)
I0710 19:40:43.973088  3751 net.cpp:157] Top shape: 4 9 96 96 (331776)
I0710 19:40:43.973091  3751 net.cpp:165] Memory required for data: 6150468096
I0710 19:40:43.973094  3751 layer_factory.hpp:77] Creating layer detection_loss_1_5x5
I0710 19:40:43.973103  3751 net.cpp:100] Creating Layer detection_loss_1_5x5
I0710 19:40:43.973105  3751 net.cpp:434] detection_loss_1_5x5 <- LFCN_1_5x5_sub_LFCN_1_5x5_sub_0_split_0
I0710 19:40:43.973110  3751 net.cpp:434] detection_loss_1_5x5 <- label_1_5x5_data_1_split_0
I0710 19:40:43.973115  3751 net.cpp:408] detection_loss_1_5x5 -> loss_1_5x5
I0710 19:40:43.973127  3751 layer_factory.hpp:77] Creating layer detection_loss_1_5x5
I0710 19:40:43.974380  3751 net.cpp:150] Setting up detection_loss_1_5x5
I0710 19:40:43.974392  3751 net.cpp:157] Top shape: 1 1 1 2 (2)
I0710 19:40:43.974396  3751 net.cpp:160]     with loss weight 0.9
I0710 19:40:43.974414  3751 net.cpp:165] Memory required for data: 6150468104
I0710 19:40:43.974418  3751 layer_factory.hpp:77] Creating layer detection_accuracy_1_5x5
I0710 19:40:43.974426  3751 net.cpp:100] Creating Layer detection_accuracy_1_5x5
I0710 19:40:43.974429  3751 net.cpp:434] detection_accuracy_1_5x5 <- LFCN_1_5x5_sub_LFCN_1_5x5_sub_0_split_1
I0710 19:40:43.974436  3751 net.cpp:434] detection_accuracy_1_5x5 <- label_1_5x5_data_1_split_1
I0710 19:40:43.974442  3751 net.cpp:408] detection_accuracy_1_5x5 -> accuracy_1_5x5
I0710 19:40:43.974449  3751 net.cpp:408] detection_accuracy_1_5x5 -> boxiou_1_5x5
I0710 19:40:43.974488  3751 net.cpp:150] Setting up detection_accuracy_1_5x5
I0710 19:40:43.974494  3751 net.cpp:157] Top shape: 1 1 1 2 (2)
I0710 19:40:43.974499  3751 net.cpp:157] Top shape: 1 1 1 1 (1)
I0710 19:40:43.974503  3751 net.cpp:165] Memory required for data: 6150468116
I0710 19:40:43.974505  3751 layer_factory.hpp:77] Creating layer LFCN_1_7x7_sub
I0710 19:40:43.974516  3751 net.cpp:100] Creating Layer LFCN_1_7x7_sub
I0710 19:40:43.974521  3751 net.cpp:434] LFCN_1_7x7_sub <- loss1_conv1_loss_relu1_0_split_1
I0710 19:40:43.974527  3751 net.cpp:408] LFCN_1_7x7_sub -> LFCN_1_7x7_sub
I0710 19:40:43.982529  3751 net.cpp:150] Setting up LFCN_1_7x7_sub
I0710 19:40:43.982560  3751 net.cpp:157] Top shape: 4 9 96 96 (331776)
I0710 19:40:43.982565  3751 net.cpp:165] Memory required for data: 6151795220
I0710 19:40:43.982575  3751 layer_factory.hpp:77] Creating layer LFCN_1_7x7_sub_LFCN_1_7x7_sub_0_split
I0710 19:40:43.982585  3751 net.cpp:100] Creating Layer LFCN_1_7x7_sub_LFCN_1_7x7_sub_0_split
I0710 19:40:43.982592  3751 net.cpp:434] LFCN_1_7x7_sub_LFCN_1_7x7_sub_0_split <- LFCN_1_7x7_sub
I0710 19:40:43.982599  3751 net.cpp:408] LFCN_1_7x7_sub_LFCN_1_7x7_sub_0_split -> LFCN_1_7x7_sub_LFCN_1_7x7_sub_0_split_0
I0710 19:40:43.982617  3751 net.cpp:408] LFCN_1_7x7_sub_LFCN_1_7x7_sub_0_split -> LFCN_1_7x7_sub_LFCN_1_7x7_sub_0_split_1
I0710 19:40:43.982662  3751 net.cpp:150] Setting up LFCN_1_7x7_sub_LFCN_1_7x7_sub_0_split
I0710 19:40:43.982671  3751 net.cpp:157] Top shape: 4 9 96 96 (331776)
I0710 19:40:43.982676  3751 net.cpp:157] Top shape: 4 9 96 96 (331776)
I0710 19:40:43.982679  3751 net.cpp:165] Memory required for data: 6154449428
I0710 19:40:43.982683  3751 layer_factory.hpp:77] Creating layer detection_loss_1_7x7
I0710 19:40:43.982694  3751 net.cpp:100] Creating Layer detection_loss_1_7x7
I0710 19:40:43.982697  3751 net.cpp:434] detection_loss_1_7x7 <- LFCN_1_7x7_sub_LFCN_1_7x7_sub_0_split_0
I0710 19:40:43.982702  3751 net.cpp:434] detection_loss_1_7x7 <- label_1_7x7_data_2_split_0
I0710 19:40:43.982707  3751 net.cpp:408] detection_loss_1_7x7 -> loss_1_7x7
I0710 19:40:43.982715  3751 layer_factory.hpp:77] Creating layer detection_loss_1_7x7
I0710 19:40:43.983876  3751 net.cpp:150] Setting up detection_loss_1_7x7
I0710 19:40:43.983889  3751 net.cpp:157] Top shape: 1 1 1 2 (2)
I0710 19:40:43.983893  3751 net.cpp:160]     with loss weight 0.9
I0710 19:40:43.983903  3751 net.cpp:165] Memory required for data: 6154449436
I0710 19:40:43.983907  3751 layer_factory.hpp:77] Creating layer detection_accuracy_1_7x7
I0710 19:40:43.983916  3751 net.cpp:100] Creating Layer detection_accuracy_1_7x7
I0710 19:40:43.983919  3751 net.cpp:434] detection_accuracy_1_7x7 <- LFCN_1_7x7_sub_LFCN_1_7x7_sub_0_split_1
I0710 19:40:43.983924  3751 net.cpp:434] detection_accuracy_1_7x7 <- label_1_7x7_data_2_split_1
I0710 19:40:43.983929  3751 net.cpp:408] detection_accuracy_1_7x7 -> accuracy_1_7x7
I0710 19:40:43.983935  3751 net.cpp:408] detection_accuracy_1_7x7 -> boxiou_1_7x7
I0710 19:40:43.983971  3751 net.cpp:150] Setting up detection_accuracy_1_7x7
I0710 19:40:43.983978  3751 net.cpp:157] Top shape: 1 1 1 2 (2)
I0710 19:40:43.983981  3751 net.cpp:157] Top shape: 1 1 1 1 (1)
I0710 19:40:43.983984  3751 net.cpp:165] Memory required for data: 6154449448
I0710 19:40:43.983988  3751 layer_factory.hpp:77] Creating layer pool4
I0710 19:40:43.983994  3751 net.cpp:100] Creating Layer pool4
I0710 19:40:43.983999  3751 net.cpp:434] pool4 <- conv4_3_relu4_3_0_split_1
I0710 19:40:43.984004  3751 net.cpp:408] pool4 -> pool4
I0710 19:40:43.984037  3751 net.cpp:150] Setting up pool4
I0710 19:40:43.984043  3751 net.cpp:157] Top shape: 4 512 48 48 (4718592)
I0710 19:40:43.984046  3751 net.cpp:165] Memory required for data: 6173323816
I0710 19:40:43.984050  3751 layer_factory.hpp:77] Creating layer conv5_1
I0710 19:40:43.984057  3751 net.cpp:100] Creating Layer conv5_1
I0710 19:40:43.984061  3751 net.cpp:434] conv5_1 <- pool4
I0710 19:40:43.984066  3751 net.cpp:408] conv5_1 -> conv5_1
I0710 19:40:43.991909  3751 net.cpp:150] Setting up conv5_1
I0710 19:40:43.991938  3751 net.cpp:157] Top shape: 4 512 48 48 (4718592)
I0710 19:40:43.991943  3751 net.cpp:165] Memory required for data: 6192198184
I0710 19:40:43.991952  3751 layer_factory.hpp:77] Creating layer relu5_1
I0710 19:40:43.991963  3751 net.cpp:100] Creating Layer relu5_1
I0710 19:40:43.991969  3751 net.cpp:434] relu5_1 <- conv5_1
I0710 19:40:43.991976  3751 net.cpp:395] relu5_1 -> conv5_1 (in-place)
I0710 19:40:43.992136  3751 net.cpp:150] Setting up relu5_1
I0710 19:40:43.992144  3751 net.cpp:157] Top shape: 4 512 48 48 (4718592)
I0710 19:40:43.992147  3751 net.cpp:165] Memory required for data: 6211072552
I0710 19:40:43.992151  3751 layer_factory.hpp:77] Creating layer conv5_2
I0710 19:40:43.992161  3751 net.cpp:100] Creating Layer conv5_2
I0710 19:40:43.992166  3751 net.cpp:434] conv5_2 <- conv5_1
I0710 19:40:43.992172  3751 net.cpp:408] conv5_2 -> conv5_2
I0710 19:40:43.998034  3751 net.cpp:150] Setting up conv5_2
I0710 19:40:43.998067  3751 net.cpp:157] Top shape: 4 512 48 48 (4718592)
I0710 19:40:43.998071  3751 net.cpp:165] Memory required for data: 6229946920
I0710 19:40:43.998080  3751 layer_factory.hpp:77] Creating layer relu5_2
I0710 19:40:43.998091  3751 net.cpp:100] Creating Layer relu5_2
I0710 19:40:43.998097  3751 net.cpp:434] relu5_2 <- conv5_2
I0710 19:40:43.998106  3751 net.cpp:395] relu5_2 -> conv5_2 (in-place)
I0710 19:40:43.998589  3751 net.cpp:150] Setting up relu5_2
I0710 19:40:43.998603  3751 net.cpp:157] Top shape: 4 512 48 48 (4718592)
I0710 19:40:43.998607  3751 net.cpp:165] Memory required for data: 6248821288
I0710 19:40:43.998612  3751 layer_factory.hpp:77] Creating layer conv5_3
I0710 19:40:43.998625  3751 net.cpp:100] Creating Layer conv5_3
I0710 19:40:43.998630  3751 net.cpp:434] conv5_3 <- conv5_2
I0710 19:40:43.998636  3751 net.cpp:408] conv5_3 -> conv5_3
I0710 19:40:44.007920  3751 net.cpp:150] Setting up conv5_3
I0710 19:40:44.007952  3751 net.cpp:157] Top shape: 4 512 48 48 (4718592)
I0710 19:40:44.007957  3751 net.cpp:165] Memory required for data: 6267695656
I0710 19:40:44.007967  3751 layer_factory.hpp:77] Creating layer relu5_3
I0710 19:40:44.007982  3751 net.cpp:100] Creating Layer relu5_3
I0710 19:40:44.007988  3751 net.cpp:434] relu5_3 <- conv5_3
I0710 19:40:44.007994  3751 net.cpp:395] relu5_3 -> conv5_3 (in-place)
I0710 19:40:44.011090  3751 net.cpp:150] Setting up relu5_3
I0710 19:40:44.011111  3751 net.cpp:157] Top shape: 4 512 48 48 (4718592)
I0710 19:40:44.011116  3751 net.cpp:165] Memory required for data: 6286570024
I0710 19:40:44.011122  3751 layer_factory.hpp:77] Creating layer conv5_3_relu5_3_0_split
I0710 19:40:44.011137  3751 net.cpp:100] Creating Layer conv5_3_relu5_3_0_split
I0710 19:40:44.011144  3751 net.cpp:434] conv5_3_relu5_3_0_split <- conv5_3
I0710 19:40:44.011153  3751 net.cpp:408] conv5_3_relu5_3_0_split -> conv5_3_relu5_3_0_split_0
I0710 19:40:44.011163  3751 net.cpp:408] conv5_3_relu5_3_0_split -> conv5_3_relu5_3_0_split_1
I0710 19:40:44.011173  3751 net.cpp:408] conv5_3_relu5_3_0_split -> conv5_3_relu5_3_0_split_2
I0710 19:40:44.011247  3751 net.cpp:150] Setting up conv5_3_relu5_3_0_split
I0710 19:40:44.011256  3751 net.cpp:157] Top shape: 4 512 48 48 (4718592)
I0710 19:40:44.011261  3751 net.cpp:157] Top shape: 4 512 48 48 (4718592)
I0710 19:40:44.011267  3751 net.cpp:157] Top shape: 4 512 48 48 (4718592)
I0710 19:40:44.011271  3751 net.cpp:165] Memory required for data: 6343193128
I0710 19:40:44.011276  3751 layer_factory.hpp:77] Creating layer LFCN_2_5x5_sub
I0710 19:40:44.011291  3751 net.cpp:100] Creating Layer LFCN_2_5x5_sub
I0710 19:40:44.011297  3751 net.cpp:434] LFCN_2_5x5_sub <- conv5_3_relu5_3_0_split_0
I0710 19:40:44.011307  3751 net.cpp:408] LFCN_2_5x5_sub -> LFCN_2_5x5_sub
I0710 19:40:44.015924  3751 net.cpp:150] Setting up LFCN_2_5x5_sub
I0710 19:40:44.015940  3751 net.cpp:157] Top shape: 4 9 48 48 (82944)
I0710 19:40:44.015944  3751 net.cpp:165] Memory required for data: 6343524904
I0710 19:40:44.015957  3751 layer_factory.hpp:77] Creating layer LFCN_2_5x5_sub_LFCN_2_5x5_sub_0_split
I0710 19:40:44.015964  3751 net.cpp:100] Creating Layer LFCN_2_5x5_sub_LFCN_2_5x5_sub_0_split
I0710 19:40:44.015969  3751 net.cpp:434] LFCN_2_5x5_sub_LFCN_2_5x5_sub_0_split <- LFCN_2_5x5_sub
I0710 19:40:44.015975  3751 net.cpp:408] LFCN_2_5x5_sub_LFCN_2_5x5_sub_0_split -> LFCN_2_5x5_sub_LFCN_2_5x5_sub_0_split_0
I0710 19:40:44.015983  3751 net.cpp:408] LFCN_2_5x5_sub_LFCN_2_5x5_sub_0_split -> LFCN_2_5x5_sub_LFCN_2_5x5_sub_0_split_1
I0710 19:40:44.016024  3751 net.cpp:150] Setting up LFCN_2_5x5_sub_LFCN_2_5x5_sub_0_split
I0710 19:40:44.016031  3751 net.cpp:157] Top shape: 4 9 48 48 (82944)
I0710 19:40:44.016037  3751 net.cpp:157] Top shape: 4 9 48 48 (82944)
I0710 19:40:44.016041  3751 net.cpp:165] Memory required for data: 6344188456
I0710 19:40:44.016044  3751 layer_factory.hpp:77] Creating layer detection_loss_2_5x5
I0710 19:40:44.016052  3751 net.cpp:100] Creating Layer detection_loss_2_5x5
I0710 19:40:44.016057  3751 net.cpp:434] detection_loss_2_5x5 <- LFCN_2_5x5_sub_LFCN_2_5x5_sub_0_split_0
I0710 19:40:44.016062  3751 net.cpp:434] detection_loss_2_5x5 <- label_2_5x5_data_3_split_0
I0710 19:40:44.016069  3751 net.cpp:408] detection_loss_2_5x5 -> loss_2_5x5
I0710 19:40:44.016078  3751 layer_factory.hpp:77] Creating layer detection_loss_2_5x5
I0710 19:40:44.017671  3751 net.cpp:150] Setting up detection_loss_2_5x5
I0710 19:40:44.017711  3751 net.cpp:157] Top shape: 1 1 1 2 (2)
I0710 19:40:44.017715  3751 net.cpp:160]     with loss weight 1
I0710 19:40:44.017735  3751 net.cpp:165] Memory required for data: 6344188464
I0710 19:40:44.017741  3751 layer_factory.hpp:77] Creating layer detection_accuracy_2_5x5
I0710 19:40:44.017760  3751 net.cpp:100] Creating Layer detection_accuracy_2_5x5
I0710 19:40:44.017768  3751 net.cpp:434] detection_accuracy_2_5x5 <- LFCN_2_5x5_sub_LFCN_2_5x5_sub_0_split_1
I0710 19:40:44.017776  3751 net.cpp:434] detection_accuracy_2_5x5 <- label_2_5x5_data_3_split_1
I0710 19:40:44.017786  3751 net.cpp:408] detection_accuracy_2_5x5 -> accuracy_2_5x5
I0710 19:40:44.017796  3751 net.cpp:408] detection_accuracy_2_5x5 -> boxiou_2_5x5
I0710 19:40:44.017850  3751 net.cpp:150] Setting up detection_accuracy_2_5x5
I0710 19:40:44.017858  3751 net.cpp:157] Top shape: 1 1 1 2 (2)
I0710 19:40:44.017863  3751 net.cpp:157] Top shape: 1 1 1 1 (1)
I0710 19:40:44.017866  3751 net.cpp:165] Memory required for data: 6344188476
I0710 19:40:44.017870  3751 layer_factory.hpp:77] Creating layer LFCN_2_7x7_sub
I0710 19:40:44.017889  3751 net.cpp:100] Creating Layer LFCN_2_7x7_sub
I0710 19:40:44.017896  3751 net.cpp:434] LFCN_2_7x7_sub <- conv5_3_relu5_3_0_split_1
I0710 19:40:44.017905  3751 net.cpp:408] LFCN_2_7x7_sub -> LFCN_2_7x7_sub
I0710 19:40:44.028625  3751 net.cpp:150] Setting up LFCN_2_7x7_sub
I0710 19:40:44.028657  3751 net.cpp:157] Top shape: 4 9 48 48 (82944)
I0710 19:40:44.028661  3751 net.cpp:165] Memory required for data: 6344520252
I0710 19:40:44.028671  3751 layer_factory.hpp:77] Creating layer LFCN_2_7x7_sub_LFCN_2_7x7_sub_0_split
I0710 19:40:44.028682  3751 net.cpp:100] Creating Layer LFCN_2_7x7_sub_LFCN_2_7x7_sub_0_split
I0710 19:40:44.028688  3751 net.cpp:434] LFCN_2_7x7_sub_LFCN_2_7x7_sub_0_split <- LFCN_2_7x7_sub
I0710 19:40:44.028697  3751 net.cpp:408] LFCN_2_7x7_sub_LFCN_2_7x7_sub_0_split -> LFCN_2_7x7_sub_LFCN_2_7x7_sub_0_split_0
I0710 19:40:44.028704  3751 net.cpp:408] LFCN_2_7x7_sub_LFCN_2_7x7_sub_0_split -> LFCN_2_7x7_sub_LFCN_2_7x7_sub_0_split_1
I0710 19:40:44.028739  3751 net.cpp:150] Setting up LFCN_2_7x7_sub_LFCN_2_7x7_sub_0_split
I0710 19:40:44.028744  3751 net.cpp:157] Top shape: 4 9 48 48 (82944)
I0710 19:40:44.028749  3751 net.cpp:157] Top shape: 4 9 48 48 (82944)
I0710 19:40:44.028753  3751 net.cpp:165] Memory required for data: 6345183804
I0710 19:40:44.028756  3751 layer_factory.hpp:77] Creating layer detection_loss_2_7x7
I0710 19:40:44.028764  3751 net.cpp:100] Creating Layer detection_loss_2_7x7
I0710 19:40:44.028767  3751 net.cpp:434] detection_loss_2_7x7 <- LFCN_2_7x7_sub_LFCN_2_7x7_sub_0_split_0
I0710 19:40:44.028772  3751 net.cpp:434] detection_loss_2_7x7 <- label_2_7x7_data_4_split_0
I0710 19:40:44.028779  3751 net.cpp:408] detection_loss_2_7x7 -> loss_2_7x7
I0710 19:40:44.028789  3751 layer_factory.hpp:77] Creating layer detection_loss_2_7x7
I0710 19:40:44.029116  3751 net.cpp:150] Setting up detection_loss_2_7x7
I0710 19:40:44.029125  3751 net.cpp:157] Top shape: 1 1 1 2 (2)
I0710 19:40:44.029129  3751 net.cpp:160]     with loss weight 1
I0710 19:40:44.029140  3751 net.cpp:165] Memory required for data: 6345183812
I0710 19:40:44.029145  3751 layer_factory.hpp:77] Creating layer detection_accuracy_2_7x7
I0710 19:40:44.029151  3751 net.cpp:100] Creating Layer detection_accuracy_2_7x7
I0710 19:40:44.029155  3751 net.cpp:434] detection_accuracy_2_7x7 <- LFCN_2_7x7_sub_LFCN_2_7x7_sub_0_split_1
I0710 19:40:44.029160  3751 net.cpp:434] detection_accuracy_2_7x7 <- label_2_7x7_data_4_split_1
I0710 19:40:44.029166  3751 net.cpp:408] detection_accuracy_2_7x7 -> accuracy_2_7x7
I0710 19:40:44.029173  3751 net.cpp:408] detection_accuracy_2_7x7 -> boxiou_2_7x7
I0710 19:40:44.029209  3751 net.cpp:150] Setting up detection_accuracy_2_7x7
I0710 19:40:44.029217  3751 net.cpp:157] Top shape: 1 1 1 2 (2)
I0710 19:40:44.029220  3751 net.cpp:157] Top shape: 1 1 1 1 (1)
I0710 19:40:44.029223  3751 net.cpp:165] Memory required for data: 6345183824
I0710 19:40:44.029227  3751 layer_factory.hpp:77] Creating layer pool5
I0710 19:40:44.029233  3751 net.cpp:100] Creating Layer pool5
I0710 19:40:44.029237  3751 net.cpp:434] pool5 <- conv5_3_relu5_3_0_split_2
I0710 19:40:44.029243  3751 net.cpp:408] pool5 -> pool5
I0710 19:40:44.029278  3751 net.cpp:150] Setting up pool5
I0710 19:40:44.029284  3751 net.cpp:157] Top shape: 4 512 24 24 (1179648)
I0710 19:40:44.029287  3751 net.cpp:165] Memory required for data: 6349902416
I0710 19:40:44.029290  3751 layer_factory.hpp:77] Creating layer conv6_1
I0710 19:40:44.029300  3751 net.cpp:100] Creating Layer conv6_1
I0710 19:40:44.029304  3751 net.cpp:434] conv6_1 <- pool5
I0710 19:40:44.029309  3751 net.cpp:408] conv6_1 -> conv6_1
I0710 19:40:44.094650  3751 net.cpp:150] Setting up conv6_1
I0710 19:40:44.094674  3751 net.cpp:157] Top shape: 4 512 24 24 (1179648)
I0710 19:40:44.094678  3751 net.cpp:165] Memory required for data: 6354621008
I0710 19:40:44.094686  3751 layer_factory.hpp:77] Creating layer relu6_1
I0710 19:40:44.094696  3751 net.cpp:100] Creating Layer relu6_1
I0710 19:40:44.094702  3751 net.cpp:434] relu6_1 <- conv6_1
I0710 19:40:44.094707  3751 net.cpp:395] relu6_1 -> conv6_1 (in-place)
I0710 19:40:44.094854  3751 net.cpp:150] Setting up relu6_1
I0710 19:40:44.094862  3751 net.cpp:157] Top shape: 4 512 24 24 (1179648)
I0710 19:40:44.094866  3751 net.cpp:165] Memory required for data: 6359339600
I0710 19:40:44.094869  3751 layer_factory.hpp:77] Creating layer conv6_1_relu6_1_0_split
I0710 19:40:44.094875  3751 net.cpp:100] Creating Layer conv6_1_relu6_1_0_split
I0710 19:40:44.094879  3751 net.cpp:434] conv6_1_relu6_1_0_split <- conv6_1
I0710 19:40:44.094884  3751 net.cpp:408] conv6_1_relu6_1_0_split -> conv6_1_relu6_1_0_split_0
I0710 19:40:44.094890  3751 net.cpp:408] conv6_1_relu6_1_0_split -> conv6_1_relu6_1_0_split_1
I0710 19:40:44.094895  3751 net.cpp:408] conv6_1_relu6_1_0_split -> conv6_1_relu6_1_0_split_2
I0710 19:40:44.094944  3751 net.cpp:150] Setting up conv6_1_relu6_1_0_split
I0710 19:40:44.094950  3751 net.cpp:157] Top shape: 4 512 24 24 (1179648)
I0710 19:40:44.094954  3751 net.cpp:157] Top shape: 4 512 24 24 (1179648)
I0710 19:40:44.094959  3751 net.cpp:157] Top shape: 4 512 24 24 (1179648)
I0710 19:40:44.094961  3751 net.cpp:165] Memory required for data: 6373495376
I0710 19:40:44.094964  3751 layer_factory.hpp:77] Creating layer LFCN_3_5x5_sub
I0710 19:40:44.094974  3751 net.cpp:100] Creating Layer LFCN_3_5x5_sub
I0710 19:40:44.094979  3751 net.cpp:434] LFCN_3_5x5_sub <- conv6_1_relu6_1_0_split_0
I0710 19:40:44.094985  3751 net.cpp:408] LFCN_3_5x5_sub -> LFCN_3_5x5_sub
I0710 19:40:44.100077  3751 net.cpp:150] Setting up LFCN_3_5x5_sub
I0710 19:40:44.100103  3751 net.cpp:157] Top shape: 4 9 24 24 (20736)
I0710 19:40:44.100107  3751 net.cpp:165] Memory required for data: 6373578320
I0710 19:40:44.100116  3751 layer_factory.hpp:77] Creating layer LFCN_3_5x5_sub_LFCN_3_5x5_sub_0_split
I0710 19:40:44.100126  3751 net.cpp:100] Creating Layer LFCN_3_5x5_sub_LFCN_3_5x5_sub_0_split
I0710 19:40:44.100131  3751 net.cpp:434] LFCN_3_5x5_sub_LFCN_3_5x5_sub_0_split <- LFCN_3_5x5_sub
I0710 19:40:44.100136  3751 net.cpp:408] LFCN_3_5x5_sub_LFCN_3_5x5_sub_0_split -> LFCN_3_5x5_sub_LFCN_3_5x5_sub_0_split_0
I0710 19:40:44.100143  3751 net.cpp:408] LFCN_3_5x5_sub_LFCN_3_5x5_sub_0_split -> LFCN_3_5x5_sub_LFCN_3_5x5_sub_0_split_1
I0710 19:40:44.100174  3751 net.cpp:150] Setting up LFCN_3_5x5_sub_LFCN_3_5x5_sub_0_split
I0710 19:40:44.100178  3751 net.cpp:157] Top shape: 4 9 24 24 (20736)
I0710 19:40:44.100183  3751 net.cpp:157] Top shape: 4 9 24 24 (20736)
I0710 19:40:44.100184  3751 net.cpp:165] Memory required for data: 6373744208
I0710 19:40:44.100188  3751 layer_factory.hpp:77] Creating layer detection_loss_3_5x5
I0710 19:40:44.100193  3751 net.cpp:100] Creating Layer detection_loss_3_5x5
I0710 19:40:44.100196  3751 net.cpp:434] detection_loss_3_5x5 <- LFCN_3_5x5_sub_LFCN_3_5x5_sub_0_split_0
I0710 19:40:44.100201  3751 net.cpp:434] detection_loss_3_5x5 <- label_3_5x5_data_5_split_0
I0710 19:40:44.100208  3751 net.cpp:408] detection_loss_3_5x5 -> loss_3_5x5
I0710 19:40:44.100215  3751 layer_factory.hpp:77] Creating layer detection_loss_3_5x5
I0710 19:40:44.100527  3751 net.cpp:150] Setting up detection_loss_3_5x5
I0710 19:40:44.100535  3751 net.cpp:157] Top shape: 1 1 1 2 (2)
I0710 19:40:44.100538  3751 net.cpp:160]     with loss weight 1
I0710 19:40:44.100549  3751 net.cpp:165] Memory required for data: 6373744216
I0710 19:40:44.100553  3751 layer_factory.hpp:77] Creating layer detection_accuracy_3_5x5
I0710 19:40:44.100560  3751 net.cpp:100] Creating Layer detection_accuracy_3_5x5
I0710 19:40:44.100564  3751 net.cpp:434] detection_accuracy_3_5x5 <- LFCN_3_5x5_sub_LFCN_3_5x5_sub_0_split_1
I0710 19:40:44.100569  3751 net.cpp:434] detection_accuracy_3_5x5 <- label_3_5x5_data_5_split_1
I0710 19:40:44.100574  3751 net.cpp:408] detection_accuracy_3_5x5 -> accuracy_3_5x5
I0710 19:40:44.100581  3751 net.cpp:408] detection_accuracy_3_5x5 -> boxiou_3_5x5
I0710 19:40:44.100618  3751 net.cpp:150] Setting up detection_accuracy_3_5x5
I0710 19:40:44.100625  3751 net.cpp:157] Top shape: 1 1 1 2 (2)
I0710 19:40:44.100630  3751 net.cpp:157] Top shape: 1 1 1 1 (1)
I0710 19:40:44.100632  3751 net.cpp:165] Memory required for data: 6373744228
I0710 19:40:44.100636  3751 layer_factory.hpp:77] Creating layer LFCN_3_7x7_sub
I0710 19:40:44.100644  3751 net.cpp:100] Creating Layer LFCN_3_7x7_sub
I0710 19:40:44.100649  3751 net.cpp:434] LFCN_3_7x7_sub <- conv6_1_relu6_1_0_split_1
I0710 19:40:44.100656  3751 net.cpp:408] LFCN_3_7x7_sub -> LFCN_3_7x7_sub
I0710 19:40:44.107774  3751 net.cpp:150] Setting up LFCN_3_7x7_sub
I0710 19:40:44.107789  3751 net.cpp:157] Top shape: 4 9 24 24 (20736)
I0710 19:40:44.107792  3751 net.cpp:165] Memory required for data: 6373827172
I0710 19:40:44.107800  3751 layer_factory.hpp:77] Creating layer LFCN_3_7x7_sub_LFCN_3_7x7_sub_0_split
I0710 19:40:44.107805  3751 net.cpp:100] Creating Layer LFCN_3_7x7_sub_LFCN_3_7x7_sub_0_split
I0710 19:40:44.107807  3751 net.cpp:434] LFCN_3_7x7_sub_LFCN_3_7x7_sub_0_split <- LFCN_3_7x7_sub
I0710 19:40:44.107813  3751 net.cpp:408] LFCN_3_7x7_sub_LFCN_3_7x7_sub_0_split -> LFCN_3_7x7_sub_LFCN_3_7x7_sub_0_split_0
I0710 19:40:44.107820  3751 net.cpp:408] LFCN_3_7x7_sub_LFCN_3_7x7_sub_0_split -> LFCN_3_7x7_sub_LFCN_3_7x7_sub_0_split_1
I0710 19:40:44.107854  3751 net.cpp:150] Setting up LFCN_3_7x7_sub_LFCN_3_7x7_sub_0_split
I0710 19:40:44.107859  3751 net.cpp:157] Top shape: 4 9 24 24 (20736)
I0710 19:40:44.107863  3751 net.cpp:157] Top shape: 4 9 24 24 (20736)
I0710 19:40:44.107867  3751 net.cpp:165] Memory required for data: 6373993060
I0710 19:40:44.107869  3751 layer_factory.hpp:77] Creating layer detection_loss_3_7x7
I0710 19:40:44.107877  3751 net.cpp:100] Creating Layer detection_loss_3_7x7
I0710 19:40:44.107879  3751 net.cpp:434] detection_loss_3_7x7 <- LFCN_3_7x7_sub_LFCN_3_7x7_sub_0_split_0
I0710 19:40:44.107884  3751 net.cpp:434] detection_loss_3_7x7 <- label_3_7x7_data_6_split_0
I0710 19:40:44.107890  3751 net.cpp:408] detection_loss_3_7x7 -> loss_3_7x7
I0710 19:40:44.107897  3751 layer_factory.hpp:77] Creating layer detection_loss_3_7x7
I0710 19:40:44.108503  3751 net.cpp:150] Setting up detection_loss_3_7x7
I0710 19:40:44.108516  3751 net.cpp:157] Top shape: 1 1 1 2 (2)
I0710 19:40:44.108520  3751 net.cpp:160]     with loss weight 1
I0710 19:40:44.108525  3751 net.cpp:165] Memory required for data: 6373993068
I0710 19:40:44.108528  3751 layer_factory.hpp:77] Creating layer detection_accuracy_3_7x7
I0710 19:40:44.108534  3751 net.cpp:100] Creating Layer detection_accuracy_3_7x7
I0710 19:40:44.108538  3751 net.cpp:434] detection_accuracy_3_7x7 <- LFCN_3_7x7_sub_LFCN_3_7x7_sub_0_split_1
I0710 19:40:44.108543  3751 net.cpp:434] detection_accuracy_3_7x7 <- label_3_7x7_data_6_split_1
I0710 19:40:44.108549  3751 net.cpp:408] detection_accuracy_3_7x7 -> accuracy_3_7x7
I0710 19:40:44.108556  3751 net.cpp:408] detection_accuracy_3_7x7 -> boxiou_3_7x7
I0710 19:40:44.108589  3751 net.cpp:150] Setting up detection_accuracy_3_7x7
I0710 19:40:44.108597  3751 net.cpp:157] Top shape: 1 1 1 2 (2)
I0710 19:40:44.108600  3751 net.cpp:157] Top shape: 1 1 1 1 (1)
I0710 19:40:44.108603  3751 net.cpp:165] Memory required for data: 6373993080
I0710 19:40:44.108606  3751 layer_factory.hpp:77] Creating layer pool6
I0710 19:40:44.108613  3751 net.cpp:100] Creating Layer pool6
I0710 19:40:44.108618  3751 net.cpp:434] pool6 <- conv6_1_relu6_1_0_split_2
I0710 19:40:44.108624  3751 net.cpp:408] pool6 -> pool6
I0710 19:40:44.108665  3751 net.cpp:150] Setting up pool6
I0710 19:40:44.108672  3751 net.cpp:157] Top shape: 4 512 12 12 (294912)
I0710 19:40:44.108676  3751 net.cpp:165] Memory required for data: 6375172728
I0710 19:40:44.108680  3751 layer_factory.hpp:77] Creating layer LFCN_4_5x5_sub
I0710 19:40:44.108690  3751 net.cpp:100] Creating Layer LFCN_4_5x5_sub
I0710 19:40:44.108695  3751 net.cpp:434] LFCN_4_5x5_sub <- pool6
I0710 19:40:44.108702  3751 net.cpp:408] LFCN_4_5x5_sub -> LFCN_4_5x5_sub
I0710 19:40:44.112361  3751 net.cpp:150] Setting up LFCN_4_5x5_sub
I0710 19:40:44.112380  3751 net.cpp:157] Top shape: 4 9 12 12 (5184)
I0710 19:40:44.112385  3751 net.cpp:165] Memory required for data: 6375193464
I0710 19:40:44.112390  3751 layer_factory.hpp:77] Creating layer LFCN_4_5x5_sub_LFCN_4_5x5_sub_0_split
I0710 19:40:44.112397  3751 net.cpp:100] Creating Layer LFCN_4_5x5_sub_LFCN_4_5x5_sub_0_split
I0710 19:40:44.112402  3751 net.cpp:434] LFCN_4_5x5_sub_LFCN_4_5x5_sub_0_split <- LFCN_4_5x5_sub
I0710 19:40:44.112407  3751 net.cpp:408] LFCN_4_5x5_sub_LFCN_4_5x5_sub_0_split -> LFCN_4_5x5_sub_LFCN_4_5x5_sub_0_split_0
I0710 19:40:44.112414  3751 net.cpp:408] LFCN_4_5x5_sub_LFCN_4_5x5_sub_0_split -> LFCN_4_5x5_sub_LFCN_4_5x5_sub_0_split_1
I0710 19:40:44.112449  3751 net.cpp:150] Setting up LFCN_4_5x5_sub_LFCN_4_5x5_sub_0_split
I0710 19:40:44.112455  3751 net.cpp:157] Top shape: 4 9 12 12 (5184)
I0710 19:40:44.112459  3751 net.cpp:157] Top shape: 4 9 12 12 (5184)
I0710 19:40:44.112462  3751 net.cpp:165] Memory required for data: 6375234936
I0710 19:40:44.112465  3751 layer_factory.hpp:77] Creating layer detection_loss_4_5x5
I0710 19:40:44.112473  3751 net.cpp:100] Creating Layer detection_loss_4_5x5
I0710 19:40:44.112478  3751 net.cpp:434] detection_loss_4_5x5 <- LFCN_4_5x5_sub_LFCN_4_5x5_sub_0_split_0
I0710 19:40:44.112483  3751 net.cpp:434] detection_loss_4_5x5 <- label_4_5x5_data_7_split_0
I0710 19:40:44.112488  3751 net.cpp:408] detection_loss_4_5x5 -> loss_4_5x5
I0710 19:40:44.112494  3751 layer_factory.hpp:77] Creating layer detection_loss_4_5x5
I0710 19:40:44.113179  3751 net.cpp:150] Setting up detection_loss_4_5x5
I0710 19:40:44.113193  3751 net.cpp:157] Top shape: 1 1 1 2 (2)
I0710 19:40:44.113195  3751 net.cpp:160]     with loss weight 1
I0710 19:40:44.113204  3751 net.cpp:165] Memory required for data: 6375234944
I0710 19:40:44.113206  3751 layer_factory.hpp:77] Creating layer detection_accuracy_4_5x5
I0710 19:40:44.113214  3751 net.cpp:100] Creating Layer detection_accuracy_4_5x5
I0710 19:40:44.113217  3751 net.cpp:434] detection_accuracy_4_5x5 <- LFCN_4_5x5_sub_LFCN_4_5x5_sub_0_split_1
I0710 19:40:44.113221  3751 net.cpp:434] detection_accuracy_4_5x5 <- label_4_5x5_data_7_split_1
I0710 19:40:44.113227  3751 net.cpp:408] detection_accuracy_4_5x5 -> accuracy_4_5x5
I0710 19:40:44.113235  3751 net.cpp:408] detection_accuracy_4_5x5 -> boxiou_4_5x5
I0710 19:40:44.113270  3751 net.cpp:150] Setting up detection_accuracy_4_5x5
I0710 19:40:44.113276  3751 net.cpp:157] Top shape: 1 1 1 2 (2)
I0710 19:40:44.113281  3751 net.cpp:157] Top shape: 1 1 1 1 (1)
I0710 19:40:44.113283  3751 net.cpp:165] Memory required for data: 6375234956
I0710 19:40:44.113286  3751 net.cpp:228] detection_accuracy_4_5x5 does not need backward computation.
I0710 19:40:44.113291  3751 net.cpp:226] detection_loss_4_5x5 needs backward computation.
I0710 19:40:44.113293  3751 net.cpp:226] LFCN_4_5x5_sub_LFCN_4_5x5_sub_0_split needs backward computation.
I0710 19:40:44.113297  3751 net.cpp:226] LFCN_4_5x5_sub needs backward computation.
…
I0710 19:40:44.126543  3751 image_gt_data_layer.cpp:235] output label size 1 : 2,6,96,96
I0710 19:40:44.126592  3751 image_gt_data_layer.cpp:235] output label size 2 : 2,6,48,48
I0710 19:40:44.126639  3751 image_gt_data_layer.cpp:235] output label size 3 : 2,6,48,48
I0710 19:40:44.126688  3751 image_gt_data_layer.cpp:235] output label size 4 : 2,6,24,24
I0710 19:40:44.126736  3751 image_gt_data_layer.cpp:235] output label size 5 : 2,6,24,24
I0710 19:40:44.126783  3751 image_gt_data_layer.cpp:235] output label size 6 : 2,6,12,12
I0710 19:40:44.165446  3751 net.cpp:150] Setting up data
I0710 19:40:44.165475  3751 net.cpp:157] Top shape: 2 4 768 768 (4718592)
I0710 19:40:44.165482  3751 net.cpp:157] Top shape: 2 6 96 96 (110592)
I0710 19:40:44.165486  3751 net.cpp:157] Top shape: 2 6 96 96 (110592)
I0710 19:40:44.165490  3751 net.cpp:157] Top shape: 2 6 48 48 (27648)
I0710 19:40:44.165498  3751 net.cpp:157] Top shape: 2 6 48 48 (27648)
I0710 19:40:44.165501  3751 net.cpp:157] Top shape: 2 6 24 24 (6912)
I0710 19:40:44.165505  3751 net.cpp:157] Top shape: 2 6 24 24 (6912)
I0710 19:40:44.165509  3751 net.cpp:157] Top shape: 2 6 12 12 (1728)
I0710 19:40:44.165513  3751 net.cpp:165] Memory required for data: 20042496
I0710 19:40:44.165519  3751 layer_factory.hpp:77] Creating layer label_1_5x5_data_1_split
I0710 19:40:44.165532  3751 net.cpp:100] Creating Layer label_1_5x5_data_1_split
I0710 19:40:44.165539  3751 net.cpp:434] label_1_5x5_data_1_split <- label_1_5x5
I0710 19:40:44.165544  3751 net.cpp:408] label_1_5x5_data_1_split -> label_1_5x5_data_1_split_0
I0710 19:40:44.165555  3751 net.cpp:408] label_1_5x5_data_1_split -> label_1_5x5_data_1_split_1
I0710 19:40:44.165812  3751 net.cpp:150] Setting up label_1_5x5_data_1_split
I0710 19:40:44.165855  3751 net.cpp:157] Top shape: 2 6 96 96 (110592)
I0710 19:40:44.165868  3751 net.cpp:157] Top shape: 2 6 96 96 (110592)
I0710 19:40:44.165876  3751 net.cpp:165] Memory required for data: 20927232
I0710 19:40:44.165889  3751 layer_factory.hpp:77] Creating layer label_1_7x7_data_2_split
I0710 19:40:44.165911  3751 net.cpp:100] Creating Layer label_1_7x7_data_2_split
I0710 19:40:44.165922  3751 net.cpp:434] label_1_7x7_data_2_split <- label_1_7x7
I0710 19:40:44.165935  3751 net.cpp:408] label_1_7x7_data_2_split -> label_1_7x7_data_2_split_0
I0710 19:40:44.165954  3751 net.cpp:408] label_1_7x7_data_2_split -> label_1_7x7_data_2_split_1
I0710 19:40:44.166035  3751 net.cpp:150] Setting up label_1_7x7_data_2_split
I0710 19:40:44.166049  3751 net.cpp:157] Top shape: 2 6 96 96 (110592)
I0710 19:40:44.166059  3751 net.cpp:157] Top shape: 2 6 96 96 (110592)
I0710 19:40:44.166067  3751 net.cpp:165] Memory required for data: 21811968
I0710 19:40:44.166074  3751 layer_factory.hpp:77] Creating layer label_2_5x5_data_3_split
I0710 19:40:44.166085  3751 net.cpp:100] Creating Layer label_2_5x5_data_3_split
I0710 19:40:44.166093  3751 net.cpp:434] label_2_5x5_data_3_split <- label_2_5x5
I0710 19:40:44.166105  3751 net.cpp:408] label_2_5x5_data_3_split -> label_2_5x5_data_3_split_0
I0710 19:40:44.166118  3751 net.cpp:408] label_2_5x5_data_3_split -> label_2_5x5_data_3_split_1
I0710 19:40:44.166199  3751 net.cpp:150] Setting up label_2_5x5_data_3_split
I0710 19:40:44.166213  3751 net.cpp:157] Top shape: 2 6 48 48 (27648)
I0710 19:40:44.166223  3751 net.cpp:157] Top shape: 2 6 48 48 (27648)
I0710 19:40:44.166229  3751 net.cpp:165] Memory required for data: 22033152
I0710 19:40:44.166237  3751 layer_factory.hpp:77] Creating layer label_2_7x7_data_4_split
I0710 19:40:44.166249  3751 net.cpp:100] Creating Layer label_2_7x7_data_4_split
I0710 19:40:44.166258  3751 net.cpp:434] label_2_7x7_data_4_split <- label_2_7x7
I0710 19:40:44.166270  3751 net.cpp:408] label_2_7x7_data_4_split -> label_2_7x7_data_4_split_0
I0710 19:40:44.166283  3751 net.cpp:408] label_2_7x7_data_4_split -> label_2_7x7_data_4_split_1
I0710 19:40:44.166354  3751 net.cpp:150] Setting up label_2_7x7_data_4_split
I0710 19:40:44.166368  3751 net.cpp:157] Top shape: 2 6 48 48 (27648)
I0710 19:40:44.166378  3751 net.cpp:157] Top shape: 2 6 48 48 (27648)
I0710 19:40:44.166385  3751 net.cpp:165] Memory required for data: 22254336
I0710 19:40:44.166393  3751 layer_factory.hpp:77] Creating layer label_3_5x5_data_5_split
I0710 19:40:44.166404  3751 net.cpp:100] Creating Layer label_3_5x5_data_5_split
I0710 19:40:44.166411  3751 net.cpp:434] label_3_5x5_data_5_split <- label_3_5x5
I0710 19:40:44.166422  3751 net.cpp:408] label_3_5x5_data_5_split -> label_3_5x5_data_5_split_0
I0710 19:40:44.166437  3751 net.cpp:408] label_3_5x5_data_5_split -> label_3_5x5_data_5_split_1
I0710 19:40:44.166509  3751 net.cpp:150] Setting up label_3_5x5_data_5_split
I0710 19:40:44.166522  3751 net.cpp:157] Top shape: 2 6 24 24 (6912)
I0710 19:40:44.166532  3751 net.cpp:157] Top shape: 2 6 24 24 (6912)
I0710 19:40:44.166539  3751 net.cpp:165] Memory required for data: 22309632
I0710 19:40:44.166548  3751 layer_factory.hpp:77] Creating layer label_3_7x7_data_6_split
I0710 19:40:44.166558  3751 net.cpp:100] Creating Layer label_3_7x7_data_6_split
I0710 19:40:44.166568  3751 net.cpp:434] label_3_7x7_data_6_split <- label_3_7x7
I0710 19:40:44.166579  3751 net.cpp:408] label_3_7x7_data_6_split -> label_3_7x7_data_6_split_0
I0710 19:40:44.166596  3751 net.cpp:408] label_3_7x7_data_6_split -> label_3_7x7_data_6_split_1
I0710 19:40:44.166672  3751 net.cpp:150] Setting up label_3_7x7_data_6_split
I0710 19:40:44.166685  3751 net.cpp:157] Top shape: 2 6 24 24 (6912)
I0710 19:40:44.166694  3751 net.cpp:157] Top shape: 2 6 24 24 (6912)
I0710 19:40:44.166702  3751 net.cpp:165] Memory required for data: 22364928
I0710 19:40:44.166710  3751 layer_factory.hpp:77] Creating layer label_4_5x5_data_7_split
I0710 19:40:44.166723  3751 net.cpp:100] Creating Layer label_4_5x5_data_7_split
I0710 19:40:44.166733  3751 net.cpp:434] label_4_5x5_data_7_split <- label_4_5x5
I0710 19:40:44.166743  3751 net.cpp:408] label_4_5x5_data_7_split -> label_4_5x5_data_7_split_0
I0710 19:40:44.166754  3751 net.cpp:408] label_4_5x5_data_7_split -> label_4_5x5_data_7_split_1
I0710 19:40:44.166832  3751 net.cpp:150] Setting up label_4_5x5_data_7_split
I0710 19:40:44.166846  3751 net.cpp:157] Top shape: 2 6 12 12 (1728)
I0710 19:40:44.166854  3751 net.cpp:157] Top shape: 2 6 12 12 (1728)
I0710 19:40:44.166862  3751 net.cpp:165] Memory required for data: 22378752
I0710 19:40:44.166872  3751 layer_factory.hpp:77] Creating layer slice
I0710 19:40:44.166894  3751 net.cpp:100] Creating Layer slice
I0710 19:40:44.166904  3751 net.cpp:434] slice <- data
I0710 19:40:44.166915  3751 net.cpp:408] slice -> data123
I0710 19:40:44.166927  3751 net.cpp:408] slice -> ch4
I0710 19:40:44.167004  3751 net.cpp:150] Setting up slice
I0710 19:40:44.167017  3751 net.cpp:157] Top shape: 2 3 768 768 (3538944)
I0710 19:40:44.167027  3751 net.cpp:157] Top shape: 2 1 768 768 (1179648)
I0710 19:40:44.167035  3751 net.cpp:165] Memory required for data: 41253120
I0710 19:40:44.167042  3751 layer_factory.hpp:77] Creating layer ch4_slice_1_split
I0710 19:40:44.167052  3751 net.cpp:100] Creating Layer ch4_slice_1_split
I0710 19:40:44.167060  3751 net.cpp:434] ch4_slice_1_split <- ch4
I0710 19:40:44.167073  3751 net.cpp:408] ch4_slice_1_split -> ch4_slice_1_split_0
I0710 19:40:44.167086  3751 net.cpp:408] ch4_slice_1_split -> ch4_slice_1_split_1
I0710 19:40:44.167160  3751 net.cpp:150] Setting up ch4_slice_1_split
I0710 19:40:44.167173  3751 net.cpp:157] Top shape: 2 1 768 768 (1179648)
I0710 19:40:44.167182  3751 net.cpp:157] Top shape: 2 1 768 768 (1179648)
I0710 19:40:44.167191  3751 net.cpp:165] Memory required for data: 50690304
I0710 19:40:44.167198  3751 layer_factory.hpp:77] Creating layer ch4_0-127
I0710 19:40:44.167215  3751 net.cpp:100] Creating Layer ch4_0-127
I0710 19:40:44.167225  3751 net.cpp:434] ch4_0-127 <- ch4_slice_1_split_0
I0710 19:40:44.167238  3751 net.cpp:408] ch4_0-127 -> ch4_0-127
I0710 19:40:44.167284  3751 net.cpp:150] Setting up ch4_0-127
I0710 19:40:44.167295  3751 net.cpp:157] Top shape: 2 1 768 768 (1179648)
I0710 19:40:44.167304  3751 net.cpp:165] Memory required for data: 55408896
I0710 19:40:44.167310  3751 layer_factory.hpp:77] Creating layer ch4_128-255
I0710 19:40:44.167323  3751 net.cpp:100] Creating Layer ch4_128-255
I0710 19:40:44.167332  3751 net.cpp:434] ch4_128-255 <- ch4_slice_1_split_1
I0710 19:40:44.167346  3751 net.cpp:408] ch4_128-255 -> ch4_128-255
I0710 19:40:44.167433  3751 net.cpp:150] Setting up ch4_128-255
I0710 19:40:44.167446  3751 net.cpp:157] Top shape: 2 1 768 768 (1179648)
I0710 19:40:44.167454  3751 net.cpp:165] Memory required for data: 60127488
I0710 19:40:44.167461  3751 layer_factory.hpp:77] Creating layer ch4_2cls-concat
I0710 19:40:44.167475  3751 net.cpp:100] Creating Layer ch4_2cls-concat
I0710 19:40:44.167484  3751 net.cpp:434] ch4_2cls-concat <- ch4_0-127
I0710 19:40:44.167493  3751 net.cpp:434] ch4_2cls-concat <- ch4_128-255
I0710 19:40:44.167507  3751 net.cpp:408] ch4_2cls-concat -> ch4_2cls
I0710 19:40:44.172538  3751 net.cpp:150] Setting up ch4_2cls-concat
I0710 19:40:44.172587  3751 net.cpp:157] Top shape: 2 2 768 768 (2359296)
I0710 19:40:44.172596  3751 net.cpp:165] Memory required for data: 69564672
I0710 19:40:44.172607  3751 layer_factory.hpp:77] Creating layer relu_ch42cls
I0710 19:40:44.172631  3751 net.cpp:100] Creating Layer relu_ch42cls
I0710 19:40:44.172641  3751 net.cpp:434] relu_ch42cls <- ch4_2cls
I0710 19:40:44.172653  3751 net.cpp:395] relu_ch42cls -> ch4_2cls (in-place)
I0710 19:40:44.173382  3751 net.cpp:150] Setting up relu_ch42cls
I0710 19:40:44.173403  3751 net.cpp:157] Top shape: 2 2 768 768 (2359296)
I0710 19:40:44.173411  3751 net.cpp:165] Memory required for data: 79001856
I0710 19:40:44.173419  3751 layer_factory.hpp:77] Creating layer conv1_1
I0710 19:40:44.173550  3751 net.cpp:100] Creating Layer conv1_1
I0710 19:40:44.173566  3751 net.cpp:434] conv1_1 <- data123
I0710 19:40:44.173581  3751 net.cpp:408] conv1_1 -> conv1_1
I0710 19:40:44.179846  3751 net.cpp:150] Setting up conv1_1
I0710 19:40:44.179886  3751 net.cpp:157] Top shape: 2 64 768 768 (75497472)
I0710 19:40:44.179896  3751 net.cpp:165] Memory required for data: 380991744
I0710 19:40:44.179919  3751 layer_factory.hpp:77] Creating layer relu1_1
I0710 19:40:44.179935  3751 net.cpp:100] Creating Layer relu1_1
I0710 19:40:44.179946  3751 net.cpp:434] relu1_1 <- conv1_1
I0710 19:40:44.179956  3751 net.cpp:395] relu1_1 -> conv1_1 (in-place)
I0710 19:40:44.180397  3751 net.cpp:150] Setting up relu1_1
I0710 19:40:44.180418  3751 net.cpp:157] Top shape: 2 64 768 768 (75497472)
I0710 19:40:44.180428  3751 net.cpp:165] Memory required for data: 682981632
I0710 19:40:44.180435  3751 layer_factory.hpp:77] Creating layer conv1_2
I0710 19:40:44.180456  3751 net.cpp:100] Creating Layer conv1_2
I0710 19:40:44.180467  3751 net.cpp:434] conv1_2 <- conv1_1
I0710 19:40:44.180480  3751 net.cpp:408] conv1_2 -> conv1_2
I0710 19:40:44.188616  3751 net.cpp:150] Setting up conv1_2
I0710 19:40:44.188660  3751 net.cpp:157] Top shape: 2 64 768 768 (75497472)
I0710 19:40:44.188668  3751 net.cpp:165] Memory required for data: 984971520
I0710 19:40:44.188693  3751 layer_factory.hpp:77] Creating layer relu1_2
I0710 19:40:44.188709  3751 net.cpp:100] Creating Layer relu1_2
I0710 19:40:44.188719  3751 net.cpp:434] relu1_2 <- conv1_2
I0710 19:40:44.188730  3751 net.cpp:395] relu1_2 -> conv1_2 (in-place)
I0710 19:40:44.189098  3751 net.cpp:150] Setting up relu1_2
I0710 19:40:44.189116  3751 net.cpp:157] Top shape: 2 64 768 768 (75497472)
I0710 19:40:44.189121  3751 net.cpp:165] Memory required for data: 1286961408
I0710 19:40:44.189126  3751 layer_factory.hpp:77] Creating layer pool1
I0710 19:40:44.189137  3751 net.cpp:100] Creating Layer pool1
I0710 19:40:44.189142  3751 net.cpp:434] pool1 <- conv1_2
I0710 19:40:44.189152  3751 net.cpp:408] pool1 -> pool1
I0710 19:40:44.189254  3751 net.cpp:150] Setting up pool1
I0710 19:40:44.189267  3751 net.cpp:157] Top shape: 2 64 384 384 (18874368)
I0710 19:40:44.189272  3751 net.cpp:165] Memory required for data: 1362458880
I0710 19:40:44.189278  3751 layer_factory.hpp:77] Creating layer ch4_pool1
I0710 19:40:44.189288  3751 net.cpp:100] Creating Layer ch4_pool1
I0710 19:40:44.189294  3751 net.cpp:434] ch4_pool1 <- ch4_2cls
I0710 19:40:44.189302  3751 net.cpp:408] ch4_pool1 -> ch4_pool1
I0710 19:40:44.189368  3751 net.cpp:150] Setting up ch4_pool1
I0710 19:40:44.189383  3751 net.cpp:157] Top shape: 2 2 384 384 (589824)
I0710 19:40:44.189388  3751 net.cpp:165] Memory required for data: 1364818176
I0710 19:40:44.189393  3751 layer_factory.hpp:77] Creating layer ch4_pool1_ch4_pool1_0_split
I0710 19:40:44.189401  3751 net.cpp:100] Creating Layer ch4_pool1_ch4_pool1_0_split
I0710 19:40:44.189407  3751 net.cpp:434] ch4_pool1_ch4_pool1_0_split <- ch4_pool1
I0710 19:40:44.189414  3751 net.cpp:408] ch4_pool1_ch4_pool1_0_split -> ch4_pool1_ch4_pool1_0_split_0
I0710 19:40:44.189424  3751 net.cpp:408] ch4_pool1_ch4_pool1_0_split -> ch4_pool1_ch4_pool1_0_split_1
I0710 19:40:44.189522  3751 net.cpp:150] Setting up ch4_pool1_ch4_pool1_0_split
I0710 19:40:44.189535  3751 net.cpp:157] Top shape: 2 2 384 384 (589824)
I0710 19:40:44.189543  3751 net.cpp:157] Top shape: 2 2 384 384 (589824)
I0710 19:40:44.189548  3751 net.cpp:165] Memory required for data: 1369536768
I0710 19:40:44.189553  3751 layer_factory.hpp:77] Creating layer pool1_concat
I0710 19:40:44.189561  3751 net.cpp:100] Creating Layer pool1_concat
I0710 19:40:44.189566  3751 net.cpp:434] pool1_concat <- pool1
I0710 19:40:44.189573  3751 net.cpp:434] pool1_concat <- ch4_pool1_ch4_pool1_0_split_0
I0710 19:40:44.189581  3751 net.cpp:408] pool1_concat -> pool1_new
I0710 19:40:44.189615  3751 net.cpp:150] Setting up pool1_concat
I0710 19:40:44.189622  3751 net.cpp:157] Top shape: 2 66 384 384 (19464192)
I0710 19:40:44.189626  3751 net.cpp:165] Memory required for data: 1447393536
I0710 19:40:44.189630  3751 layer_factory.hpp:77] Creating layer conv2_1_new
I0710 19:40:44.189640  3751 net.cpp:100] Creating Layer conv2_1_new
I0710 19:40:44.189646  3751 net.cpp:434] conv2_1_new <- pool1_new
I0710 19:40:44.189651  3751 net.cpp:408] conv2_1_new -> conv2_1
I0710 19:40:44.192386  3751 net.cpp:150] Setting up conv2_1_new
I0710 19:40:44.192412  3751 net.cpp:157] Top shape: 2 128 384 384 (37748736)
I0710 19:40:44.192417  3751 net.cpp:165] Memory required for data: 1598388480
I0710 19:40:44.192431  3751 layer_factory.hpp:77] Creating layer relu2_1
I0710 19:40:44.192445  3751 net.cpp:100] Creating Layer relu2_1
I0710 19:40:44.192451  3751 net.cpp:434] relu2_1 <- conv2_1
I0710 19:40:44.192456  3751 net.cpp:395] relu2_1 -> conv2_1 (in-place)
I0710 19:40:44.192672  3751 net.cpp:150] Setting up relu2_1
I0710 19:40:44.192682  3751 net.cpp:157] Top shape: 2 128 384 384 (37748736)
I0710 19:40:44.192687  3751 net.cpp:165] Memory required for data: 1749383424
I0710 19:40:44.192690  3751 layer_factory.hpp:77] Creating layer conv2_2
I0710 19:40:44.192701  3751 net.cpp:100] Creating Layer conv2_2
I0710 19:40:44.192705  3751 net.cpp:434] conv2_2 <- conv2_1
I0710 19:40:44.192713  3751 net.cpp:408] conv2_2 -> conv2_2
I0710 19:40:44.195518  3751 net.cpp:150] Setting up conv2_2
I0710 19:40:44.195533  3751 net.cpp:157] Top shape: 2 128 384 384 (37748736)
I0710 19:40:44.195538  3751 net.cpp:165] Memory required for data: 1900378368
I0710 19:40:44.195544  3751 layer_factory.hpp:77] Creating layer relu2_2
I0710 19:40:44.195552  3751 net.cpp:100] Creating Layer relu2_2
I0710 19:40:44.195556  3751 net.cpp:434] relu2_2 <- conv2_2
I0710 19:40:44.195562  3751 net.cpp:395] relu2_2 -> conv2_2 (in-place)
I0710 19:40:44.196056  3751 net.cpp:150] Setting up relu2_2
I0710 19:40:44.196069  3751 net.cpp:157] Top shape: 2 128 384 384 (37748736)
I0710 19:40:44.196072  3751 net.cpp:165] Memory required for data: 2051373312
I0710 19:40:44.196076  3751 layer_factory.hpp:77] Creating layer pool2
I0710 19:40:44.196082  3751 net.cpp:100] Creating Layer pool2
I0710 19:40:44.196086  3751 net.cpp:434] pool2 <- conv2_2
I0710 19:40:44.196092  3751 net.cpp:408] pool2 -> pool2
I0710 19:40:44.196137  3751 net.cpp:150] Setting up pool2
I0710 19:40:44.196143  3751 net.cpp:157] Top shape: 2 128 192 192 (9437184)
I0710 19:40:44.196147  3751 net.cpp:165] Memory required for data: 2089122048
I0710 19:40:44.196151  3751 layer_factory.hpp:77] Creating layer ch4_pool2
I0710 19:40:44.196156  3751 net.cpp:100] Creating Layer ch4_pool2
I0710 19:40:44.196161  3751 net.cpp:434] ch4_pool2 <- ch4_pool1_ch4_pool1_0_split_1
I0710 19:40:44.196166  3751 net.cpp:408] ch4_pool2 -> ch4_pool2
I0710 19:40:44.196200  3751 net.cpp:150] Setting up ch4_pool2
I0710 19:40:44.196207  3751 net.cpp:157] Top shape: 2 2 192 192 (147456)
I0710 19:40:44.196209  3751 net.cpp:165] Memory required for data: 2089711872
I0710 19:40:44.196213  3751 layer_factory.hpp:77] Creating layer ch4_pool2_ch4_pool2_0_split
I0710 19:40:44.196220  3751 net.cpp:100] Creating Layer ch4_pool2_ch4_pool2_0_split
I0710 19:40:44.196223  3751 net.cpp:434] ch4_pool2_ch4_pool2_0_split <- ch4_pool2
I0710 19:40:44.196228  3751 net.cpp:408] ch4_pool2_ch4_pool2_0_split -> ch4_pool2_ch4_pool2_0_split_0
I0710 19:40:44.196233  3751 net.cpp:408] ch4_pool2_ch4_pool2_0_split -> ch4_pool2_ch4_pool2_0_split_1
I0710 19:40:44.196267  3751 net.cpp:150] Setting up ch4_pool2_ch4_pool2_0_split
I0710 19:40:44.196274  3751 net.cpp:157] Top shape: 2 2 192 192 (147456)
I0710 19:40:44.196277  3751 net.cpp:157] Top shape: 2 2 192 192 (147456)
I0710 19:40:44.196280  3751 net.cpp:165] Memory required for data: 2090891520
I0710 19:40:44.196285  3751 layer_factory.hpp:77] Creating layer pool2_concat
I0710 19:40:44.196290  3751 net.cpp:100] Creating Layer pool2_concat
I0710 19:40:44.196292  3751 net.cpp:434] pool2_concat <- pool2
I0710 19:40:44.196296  3751 net.cpp:434] pool2_concat <- ch4_pool2_ch4_pool2_0_split_0
I0710 19:40:44.196302  3751 net.cpp:408] pool2_concat -> pool2_new
I0710 19:40:44.196323  3751 net.cpp:150] Setting up pool2_concat
I0710 19:40:44.196329  3751 net.cpp:157] Top shape: 2 130 192 192 (9584640)
I0710 19:40:44.196332  3751 net.cpp:165] Memory required for data: 2129230080
I0710 19:40:44.196336  3751 layer_factory.hpp:77] Creating layer conv3_1_new
I0710 19:40:44.196342  3751 net.cpp:100] Creating Layer conv3_1_new
I0710 19:40:44.196346  3751 net.cpp:434] conv3_1_new <- pool2_new
I0710 19:40:44.196352  3751 net.cpp:408] conv3_1_new -> conv3_1
I0710 19:40:44.197882  3751 net.cpp:150] Setting up conv3_1_new
I0710 19:40:44.197896  3751 net.cpp:157] Top shape: 2 256 192 192 (18874368)
I0710 19:40:44.197899  3751 net.cpp:165] Memory required for data: 2204727552
I0710 19:40:44.197909  3751 layer_factory.hpp:77] Creating layer relu3_1
I0710 19:40:44.197916  3751 net.cpp:100] Creating Layer relu3_1
I0710 19:40:44.197919  3751 net.cpp:434] relu3_1 <- conv3_1
I0710 19:40:44.197924  3751 net.cpp:395] relu3_1 -> conv3_1 (in-place)
I0710 19:40:44.198092  3751 net.cpp:150] Setting up relu3_1
I0710 19:40:44.198101  3751 net.cpp:157] Top shape: 2 256 192 192 (18874368)
I0710 19:40:44.198104  3751 net.cpp:165] Memory required for data: 2280225024
I0710 19:40:44.198108  3751 layer_factory.hpp:77] Creating layer conv3_2
I0710 19:40:44.198119  3751 net.cpp:100] Creating Layer conv3_2
I0710 19:40:44.198122  3751 net.cpp:434] conv3_2 <- conv3_1
I0710 19:40:44.198128  3751 net.cpp:408] conv3_2 -> conv3_2
I0710 19:40:44.200836  3751 net.cpp:150] Setting up conv3_2
I0710 19:40:44.200856  3751 net.cpp:157] Top shape: 2 256 192 192 (18874368)
I0710 19:40:44.200860  3751 net.cpp:165] Memory required for data: 2355722496
I0710 19:40:44.200867  3751 layer_factory.hpp:77] Creating layer relu3_2
I0710 19:40:44.200876  3751 net.cpp:100] Creating Layer relu3_2
I0710 19:40:44.200881  3751 net.cpp:434] relu3_2 <- conv3_2
I0710 19:40:44.200888  3751 net.cpp:395] relu3_2 -> conv3_2 (in-place)
I0710 19:40:44.201066  3751 net.cpp:150] Setting up relu3_2
I0710 19:40:44.201074  3751 net.cpp:157] Top shape: 2 256 192 192 (18874368)
I0710 19:40:44.201078  3751 net.cpp:165] Memory required for data: 2431219968
I0710 19:40:44.201081  3751 layer_factory.hpp:77] Creating layer conv3_3
I0710 19:40:44.201089  3751 net.cpp:100] Creating Layer conv3_3
I0710 19:40:44.201093  3751 net.cpp:434] conv3_3 <- conv3_2
I0710 19:40:44.201098  3751 net.cpp:408] conv3_3 -> conv3_3
I0710 19:40:44.204813  3751 net.cpp:150] Setting up conv3_3
I0710 19:40:44.204915  3751 net.cpp:157] Top shape: 2 256 192 192 (18874368)
I0710 19:40:44.204921  3751 net.cpp:165] Memory required for data: 2506717440
I0710 19:40:44.204941  3751 layer_factory.hpp:77] Creating layer relu3_3
I0710 19:40:44.204962  3751 net.cpp:100] Creating Layer relu3_3
I0710 19:40:44.204973  3751 net.cpp:434] relu3_3 <- conv3_3
I0710 19:40:44.204983  3751 net.cpp:395] relu3_3 -> conv3_3 (in-place)
I0710 19:40:44.205356  3751 net.cpp:150] Setting up relu3_3
I0710 19:40:44.205370  3751 net.cpp:157] Top shape: 2 256 192 192 (18874368)
I0710 19:40:44.205375  3751 net.cpp:165] Memory required for data: 2582214912
I0710 19:40:44.205380  3751 layer_factory.hpp:77] Creating layer pool3
I0710 19:40:44.205400  3751 net.cpp:100] Creating Layer pool3
I0710 19:40:44.205405  3751 net.cpp:434] pool3 <- conv3_3
I0710 19:40:44.205416  3751 net.cpp:408] pool3 -> pool3
I0710 19:40:44.205571  3751 net.cpp:150] Setting up pool3
I0710 19:40:44.205584  3751 net.cpp:157] Top shape: 2 256 96 96 (4718592)
I0710 19:40:44.205588  3751 net.cpp:165] Memory required for data: 2601089280
I0710 19:40:44.205593  3751 layer_factory.hpp:77] Creating layer ch4_pool3
I0710 19:40:44.205602  3751 net.cpp:100] Creating Layer ch4_pool3
I0710 19:40:44.205615  3751 net.cpp:434] ch4_pool3 <- ch4_pool2_ch4_pool2_0_split_1
I0710 19:40:44.205626  3751 net.cpp:408] ch4_pool3 -> ch4_pool3
I0710 19:40:44.205674  3751 net.cpp:150] Setting up ch4_pool3
I0710 19:40:44.205684  3751 net.cpp:157] Top shape: 2 2 96 96 (36864)
I0710 19:40:44.205687  3751 net.cpp:165] Memory required for data: 2601236736
I0710 19:40:44.205693  3751 layer_factory.hpp:77] Creating layer pool3_concat
I0710 19:40:44.205705  3751 net.cpp:100] Creating Layer pool3_concat
I0710 19:40:44.205709  3751 net.cpp:434] pool3_concat <- pool3
I0710 19:40:44.205714  3751 net.cpp:434] pool3_concat <- ch4_pool3
I0710 19:40:44.205718  3751 net.cpp:408] pool3_concat -> pool3_new
I0710 19:40:44.205749  3751 net.cpp:150] Setting up pool3_concat
I0710 19:40:44.205754  3751 net.cpp:157] Top shape: 2 258 96 96 (4755456)
I0710 19:40:44.205757  3751 net.cpp:165] Memory required for data: 2620258560
I0710 19:40:44.205761  3751 layer_factory.hpp:77] Creating layer conv4_1_new
I0710 19:40:44.205780  3751 net.cpp:100] Creating Layer conv4_1_new
I0710 19:40:44.205785  3751 net.cpp:434] conv4_1_new <- pool3_new
I0710 19:40:44.205795  3751 net.cpp:408] conv4_1_new -> conv4_1
I0710 19:40:44.216784  3751 net.cpp:150] Setting up conv4_1_new
I0710 19:40:44.216830  3751 net.cpp:157] Top shape: 2 512 96 96 (9437184)
I0710 19:40:44.216841  3751 net.cpp:165] Memory required for data: 2658007296
I0710 19:40:44.216859  3751 layer_factory.hpp:77] Creating layer relu4_1
I0710 19:40:44.216878  3751 net.cpp:100] Creating Layer relu4_1
I0710 19:40:44.216890  3751 net.cpp:434] relu4_1 <- conv4_1
I0710 19:40:44.216903  3751 net.cpp:395] relu4_1 -> conv4_1 (in-place)
I0710 19:40:44.217301  3751 net.cpp:150] Setting up relu4_1
I0710 19:40:44.217322  3751 net.cpp:157] Top shape: 2 512 96 96 (9437184)
I0710 19:40:44.217330  3751 net.cpp:165] Memory required for data: 2695756032
I0710 19:40:44.217339  3751 layer_factory.hpp:77] Creating layer conv4_2
I0710 19:40:44.217357  3751 net.cpp:100] Creating Layer conv4_2
I0710 19:40:44.217370  3751 net.cpp:434] conv4_2 <- conv4_1
I0710 19:40:44.217383  3751 net.cpp:408] conv4_2 -> conv4_2
I0710 19:40:44.225306  3751 net.cpp:150] Setting up conv4_2
I0710 19:40:44.225347  3751 net.cpp:157] Top shape: 2 512 96 96 (9437184)
I0710 19:40:44.225353  3751 net.cpp:165] Memory required for data: 2733504768
I0710 19:40:44.225369  3751 layer_factory.hpp:77] Creating layer relu4_2
I0710 19:40:44.225385  3751 net.cpp:100] Creating Layer relu4_2
I0710 19:40:44.225394  3751 net.cpp:434] relu4_2 <- conv4_2
I0710 19:40:44.225399  3751 net.cpp:395] relu4_2 -> conv4_2 (in-place)
I0710 19:40:44.225600  3751 net.cpp:150] Setting up relu4_2
I0710 19:40:44.225610  3751 net.cpp:157] Top shape: 2 512 96 96 (9437184)
I0710 19:40:44.225613  3751 net.cpp:165] Memory required for data: 2771253504
I0710 19:40:44.225617  3751 layer_factory.hpp:77] Creating layer conv4_3
I0710 19:40:44.225630  3751 net.cpp:100] Creating Layer conv4_3
I0710 19:40:44.225633  3751 net.cpp:434] conv4_3 <- conv4_2
I0710 19:40:44.225639  3751 net.cpp:408] conv4_3 -> conv4_3
I0710 19:40:44.233757  3751 net.cpp:150] Setting up conv4_3
I0710 19:40:44.233805  3751 net.cpp:157] Top shape: 2 512 96 96 (9437184)
I0710 19:40:44.233809  3751 net.cpp:165] Memory required for data: 2809002240
I0710 19:40:44.233822  3751 layer_factory.hpp:77] Creating layer relu4_3
I0710 19:40:44.233841  3751 net.cpp:100] Creating Layer relu4_3
I0710 19:40:44.233850  3751 net.cpp:434] relu4_3 <- conv4_3
I0710 19:40:44.233858  3751 net.cpp:395] relu4_3 -> conv4_3 (in-place)
I0710 19:40:44.234552  3751 net.cpp:150] Setting up relu4_3
I0710 19:40:44.234570  3751 net.cpp:157] Top shape: 2 512 96 96 (9437184)
I0710 19:40:44.234572  3751 net.cpp:165] Memory required for data: 2846750976
I0710 19:40:44.234577  3751 layer_factory.hpp:77] Creating layer conv4_3_relu4_3_0_split
I0710 19:40:44.234587  3751 net.cpp:100] Creating Layer conv4_3_relu4_3_0_split
I0710 19:40:44.234593  3751 net.cpp:434] conv4_3_relu4_3_0_split <- conv4_3
I0710 19:40:44.234601  3751 net.cpp:408] conv4_3_relu4_3_0_split -> conv4_3_relu4_3_0_split_0
I0710 19:40:44.234608  3751 net.cpp:408] conv4_3_relu4_3_0_split -> conv4_3_relu4_3_0_split_1
I0710 19:40:44.234668  3751 net.cpp:150] Setting up conv4_3_relu4_3_0_split
I0710 19:40:44.234675  3751 net.cpp:157] Top shape: 2 512 96 96 (9437184)
I0710 19:40:44.234679  3751 net.cpp:157] Top shape: 2 512 96 96 (9437184)
I0710 19:40:44.234683  3751 net.cpp:165] Memory required for data: 2922248448
I0710 19:40:44.234685  3751 layer_factory.hpp:77] Creating layer loss1_conv1
I0710 19:40:44.234701  3751 net.cpp:100] Creating Layer loss1_conv1
I0710 19:40:44.234706  3751 net.cpp:434] loss1_conv1 <- conv4_3_relu4_3_0_split_0
I0710 19:40:44.234712  3751 net.cpp:408] loss1_conv1 -> loss1_conv1
I0710 19:40:44.303736  3751 net.cpp:150] Setting up loss1_conv1
I0710 19:40:44.303763  3751 net.cpp:157] Top shape: 2 512 96 96 (9437184)
I0710 19:40:44.303768  3751 net.cpp:165] Memory required for data: 2959997184
I0710 19:40:44.303778  3751 layer_factory.hpp:77] Creating layer loss_relu1
I0710 19:40:44.303791  3751 net.cpp:100] Creating Layer loss_relu1
I0710 19:40:44.303797  3751 net.cpp:434] loss_relu1 <- loss1_conv1
I0710 19:40:44.303804  3751 net.cpp:395] loss_relu1 -> loss1_conv1 (in-place)
I0710 19:40:44.303997  3751 net.cpp:150] Setting up loss_relu1
I0710 19:40:44.304008  3751 net.cpp:157] Top shape: 2 512 96 96 (9437184)
I0710 19:40:44.304011  3751 net.cpp:165] Memory required for data: 2997745920
I0710 19:40:44.304015  3751 layer_factory.hpp:77] Creating layer loss1_conv1_loss_relu1_0_split
I0710 19:40:44.304023  3751 net.cpp:100] Creating Layer loss1_conv1_loss_relu1_0_split
I0710 19:40:44.304028  3751 net.cpp:434] loss1_conv1_loss_relu1_0_split <- loss1_conv1
I0710 19:40:44.304035  3751 net.cpp:408] loss1_conv1_loss_relu1_0_split -> loss1_conv1_loss_relu1_0_split_0
I0710 19:40:44.304044  3751 net.cpp:408] loss1_conv1_loss_relu1_0_split -> loss1_conv1_loss_relu1_0_split_1
I0710 19:40:44.304090  3751 net.cpp:150] Setting up loss1_conv1_loss_relu1_0_split
I0710 19:40:44.304096  3751 net.cpp:157] Top shape: 2 512 96 96 (9437184)
I0710 19:40:44.304102  3751 net.cpp:157] Top shape: 2 512 96 96 (9437184)
I0710 19:40:44.304105  3751 net.cpp:165] Memory required for data: 3073243392
I0710 19:40:44.304109  3751 layer_factory.hpp:77] Creating layer LFCN_1_5x5_sub
I0710 19:40:44.304123  3751 net.cpp:100] Creating Layer LFCN_1_5x5_sub
I0710 19:40:44.304128  3751 net.cpp:434] LFCN_1_5x5_sub <- loss1_conv1_loss_relu1_0_split_0
I0710 19:40:44.304138  3751 net.cpp:408] LFCN_1_5x5_sub -> LFCN_1_5x5_sub
I0710 19:40:44.309020  3751 net.cpp:150] Setting up LFCN_1_5x5_sub
I0710 19:40:44.309036  3751 net.cpp:157] Top shape: 2 9 96 96 (165888)
I0710 19:40:44.309041  3751 net.cpp:165] Memory required for data: 3073906944
I0710 19:40:44.309048  3751 layer_factory.hpp:77] Creating layer LFCN_1_5x5_sub_LFCN_1_5x5_sub_0_split
I0710 19:40:44.309056  3751 net.cpp:100] Creating Layer LFCN_1_5x5_sub_LFCN_1_5x5_sub_0_split
I0710 19:40:44.309062  3751 net.cpp:434] LFCN_1_5x5_sub_LFCN_1_5x5_sub_0_split <- LFCN_1_5x5_sub
I0710 19:40:44.309067  3751 net.cpp:408] LFCN_1_5x5_sub_LFCN_1_5x5_sub_0_split -> LFCN_1_5x5_sub_LFCN_1_5x5_sub_0_split_0
I0710 19:40:44.309075  3751 net.cpp:408] LFCN_1_5x5_sub_LFCN_1_5x5_sub_0_split -> LFCN_1_5x5_sub_LFCN_1_5x5_sub_0_split_1
I0710 19:40:44.309121  3751 net.cpp:150] Setting up LFCN_1_5x5_sub_LFCN_1_5x5_sub_0_split
I0710 19:40:44.309129  3751 net.cpp:157] Top shape: 2 9 96 96 (165888)
I0710 19:40:44.309134  3751 net.cpp:157] Top shape: 2 9 96 96 (165888)
I0710 19:40:44.309137  3751 net.cpp:165] Memory required for data: 3075234048
I0710 19:40:44.309141  3751 layer_factory.hpp:77] Creating layer detection_loss_1_5x5
I0710 19:40:44.309149  3751 net.cpp:100] Creating Layer detection_loss_1_5x5
I0710 19:40:44.309154  3751 net.cpp:434] detection_loss_1_5x5 <- LFCN_1_5x5_sub_LFCN_1_5x5_sub_0_split_0
I0710 19:40:44.309160  3751 net.cpp:434] detection_loss_1_5x5 <- label_1_5x5_data_1_split_0
I0710 19:40:44.309170  3751 net.cpp:408] detection_loss_1_5x5 -> loss_1_5x5
I0710 19:40:44.309181  3751 layer_factory.hpp:77] Creating layer detection_loss_1_5x5
I0710 19:40:44.309562  3751 net.cpp:150] Setting up detection_loss_1_5x5
I0710 19:40:44.309572  3751 net.cpp:157] Top shape: 1 1 1 2 (2)
I0710 19:40:44.309576  3751 net.cpp:160]     with loss weight 0.9
I0710 19:40:44.309587  3751 net.cpp:165] Memory required for data: 3075234056
I0710 19:40:44.309592  3751 layer_factory.hpp:77] Creating layer detection_accuracy_1_5x5
I0710 19:40:44.309600  3751 net.cpp:100] Creating Layer detection_accuracy_1_5x5
I0710 19:40:44.309604  3751 net.cpp:434] detection_accuracy_1_5x5 <- LFCN_1_5x5_sub_LFCN_1_5x5_sub_0_split_1
I0710 19:40:44.309609  3751 net.cpp:434] detection_accuracy_1_5x5 <- label_1_5x5_data_1_split_1
I0710 19:40:44.309614  3751 net.cpp:408] detection_accuracy_1_5x5 -> accuracy_1_5x5
I0710 19:40:44.309620  3751 net.cpp:408] detection_accuracy_1_5x5 -> boxiou_1_5x5
I0710 19:40:44.309659  3751 net.cpp:150] Setting up detection_accuracy_1_5x5
I0710 19:40:44.309665  3751 net.cpp:157] Top shape: 1 1 1 2 (2)
I0710 19:40:44.309669  3751 net.cpp:157] Top shape: 1 1 1 1 (1)
I0710 19:40:44.309672  3751 net.cpp:165] Memory required for data: 3075234068
I0710 19:40:44.309675  3751 layer_factory.hpp:77] Creating layer LFCN_1_7x7_sub
I0710 19:40:44.309684  3751 net.cpp:100] Creating Layer LFCN_1_7x7_sub
I0710 19:40:44.309689  3751 net.cpp:434] LFCN_1_7x7_sub <- loss1_conv1_loss_relu1_0_split_1
I0710 19:40:44.309695  3751 net.cpp:408] LFCN_1_7x7_sub -> LFCN_1_7x7_sub
I0710 19:40:44.316972  3751 net.cpp:150] Setting up LFCN_1_7x7_sub
I0710 19:40:44.317003  3751 net.cpp:157] Top shape: 2 9 96 96 (165888)
I0710 19:40:44.317008  3751 net.cpp:165] Memory required for data: 3075897620
I0710 19:40:44.317018  3751 layer_factory.hpp:77] Creating layer LFCN_1_7x7_sub_LFCN_1_7x7_sub_0_split
I0710 19:40:44.317030  3751 net.cpp:100] Creating Layer LFCN_1_7x7_sub_LFCN_1_7x7_sub_0_split
I0710 19:40:44.317036  3751 net.cpp:434] LFCN_1_7x7_sub_LFCN_1_7x7_sub_0_split <- LFCN_1_7x7_sub
I0710 19:40:44.317044  3751 net.cpp:408] LFCN_1_7x7_sub_LFCN_1_7x7_sub_0_split -> LFCN_1_7x7_sub_LFCN_1_7x7_sub_0_split_0
I0710 19:40:44.317060  3751 net.cpp:408] LFCN_1_7x7_sub_LFCN_1_7x7_sub_0_split -> LFCN_1_7x7_sub_LFCN_1_7x7_sub_0_split_1
I0710 19:40:44.317103  3751 net.cpp:150] Setting up LFCN_1_7x7_sub_LFCN_1_7x7_sub_0_split
I0710 19:40:44.317111  3751 net.cpp:157] Top shape: 2 9 96 96 (165888)
I0710 19:40:44.317114  3751 net.cpp:157] Top shape: 2 9 96 96 (165888)
I0710 19:40:44.317116  3751 net.cpp:165] Memory required for data: 3077224724
I0710 19:40:44.317121  3751 layer_factory.hpp:77] Creating layer detection_loss_1_7x7
I0710 19:40:44.317131  3751 net.cpp:100] Creating Layer detection_loss_1_7x7
I0710 19:40:44.317136  3751 net.cpp:434] detection_loss_1_7x7 <- LFCN_1_7x7_sub_LFCN_1_7x7_sub_0_split_0
I0710 19:40:44.317140  3751 net.cpp:434] detection_loss_1_7x7 <- label_1_7x7_data_2_split_0
I0710 19:40:44.317147  3751 net.cpp:408] detection_loss_1_7x7 -> loss_1_7x7
I0710 19:40:44.317157  3751 layer_factory.hpp:77] Creating layer detection_loss_1_7x7
I0710 19:40:44.317591  3751 net.cpp:150] Setting up detection_loss_1_7x7
I0710 19:40:44.317605  3751 net.cpp:157] Top shape: 1 1 1 2 (2)
I0710 19:40:44.317608  3751 net.cpp:160]     with loss weight 0.9
I0710 19:40:44.317623  3751 net.cpp:165] Memory required for data: 3077224732
I0710 19:40:44.317629  3751 layer_factory.hpp:77] Creating layer detection_accuracy_1_7x7
I0710 19:40:44.317638  3751 net.cpp:100] Creating Layer detection_accuracy_1_7x7
I0710 19:40:44.317647  3751 net.cpp:434] detection_accuracy_1_7x7 <- LFCN_1_7x7_sub_LFCN_1_7x7_sub_0_split_1
I0710 19:40:44.317653  3751 net.cpp:434] detection_accuracy_1_7x7 <- label_1_7x7_data_2_split_1
I0710 19:40:44.317662  3751 net.cpp:408] detection_accuracy_1_7x7 -> accuracy_1_7x7
I0710 19:40:44.317672  3751 net.cpp:408] detection_accuracy_1_7x7 -> boxiou_1_7x7
I0710 19:40:44.317725  3751 net.cpp:150] Setting up detection_accuracy_1_7x7
I0710 19:40:44.317735  3751 net.cpp:157] Top shape: 1 1 1 2 (2)
I0710 19:40:44.317742  3751 net.cpp:157] Top shape: 1 1 1 1 (1)
I0710 19:40:44.317749  3751 net.cpp:165] Memory required for data: 3077224744
I0710 19:40:44.317755  3751 layer_factory.hpp:77] Creating layer pool4
I0710 19:40:44.317765  3751 net.cpp:100] Creating Layer pool4
I0710 19:40:44.317772  3751 net.cpp:434] pool4 <- conv4_3_relu4_3_0_split_1
I0710 19:40:44.317785  3751 net.cpp:408] pool4 -> pool4
I0710 19:40:44.317836  3751 net.cpp:150] Setting up pool4
I0710 19:40:44.317845  3751 net.cpp:157] Top shape: 2 512 48 48 (2359296)
I0710 19:40:44.317852  3751 net.cpp:165] Memory required for data: 3086661928
I0710 19:40:44.317857  3751 layer_factory.hpp:77] Creating layer conv5_1
I0710 19:40:44.317870  3751 net.cpp:100] Creating Layer conv5_1
I0710 19:40:44.317881  3751 net.cpp:434] conv5_1 <- pool4
I0710 19:40:44.317896  3751 net.cpp:408] conv5_1 -> conv5_1
I0710 19:40:44.324184  3751 net.cpp:150] Setting up conv5_1
I0710 19:40:44.324220  3751 net.cpp:157] Top shape: 2 512 48 48 (2359296)
I0710 19:40:44.324225  3751 net.cpp:165] Memory required for data: 3096099112
I0710 19:40:44.324237  3751 layer_factory.hpp:77] Creating layer relu5_1
I0710 19:40:44.324250  3751 net.cpp:100] Creating Layer relu5_1
I0710 19:40:44.324259  3751 net.cpp:434] relu5_1 <- conv5_1
I0710 19:40:44.324270  3751 net.cpp:395] relu5_1 -> conv5_1 (in-place)
I0710 19:40:44.324447  3751 net.cpp:150] Setting up relu5_1
I0710 19:40:44.324458  3751 net.cpp:157] Top shape: 2 512 48 48 (2359296)
I0710 19:40:44.324462  3751 net.cpp:165] Memory required for data: 3105536296
I0710 19:40:44.324467  3751 layer_factory.hpp:77] Creating layer conv5_2
I0710 19:40:44.324479  3751 net.cpp:100] Creating Layer conv5_2
I0710 19:40:44.324486  3751 net.cpp:434] conv5_2 <- conv5_1
I0710 19:40:44.324494  3751 net.cpp:408] conv5_2 -> conv5_2
I0710 19:40:44.332546  3751 net.cpp:150] Setting up conv5_2
I0710 19:40:44.332581  3751 net.cpp:157] Top shape: 2 512 48 48 (2359296)
I0710 19:40:44.332587  3751 net.cpp:165] Memory required for data: 3114973480
I0710 19:40:44.332602  3751 layer_factory.hpp:77] Creating layer relu5_2
I0710 19:40:44.332617  3751 net.cpp:100] Creating Layer relu5_2
I0710 19:40:44.332628  3751 net.cpp:434] relu5_2 <- conv5_2
I0710 19:40:44.332638  3751 net.cpp:395] relu5_2 -> conv5_2 (in-place)
I0710 19:40:44.332809  3751 net.cpp:150] Setting up relu5_2
I0710 19:40:44.332820  3751 net.cpp:157] Top shape: 2 512 48 48 (2359296)
I0710 19:40:44.332825  3751 net.cpp:165] Memory required for data: 3124410664
I0710 19:40:44.332830  3751 layer_factory.hpp:77] Creating layer conv5_3
I0710 19:40:44.332844  3751 net.cpp:100] Creating Layer conv5_3
I0710 19:40:44.332849  3751 net.cpp:434] conv5_3 <- conv5_2
I0710 19:40:44.332856  3751 net.cpp:408] conv5_3 -> conv5_3
I0710 19:40:44.342716  3751 net.cpp:150] Setting up conv5_3
I0710 19:40:44.342751  3751 net.cpp:157] Top shape: 2 512 48 48 (2359296)
I0710 19:40:44.342758  3751 net.cpp:165] Memory required for data: 3133847848
I0710 19:40:44.342772  3751 layer_factory.hpp:77] Creating layer relu5_3
I0710 19:40:44.342789  3751 net.cpp:100] Creating Layer relu5_3
I0710 19:40:44.342799  3751 net.cpp:434] relu5_3 <- conv5_3
I0710 19:40:44.342809  3751 net.cpp:395] relu5_3 -> conv5_3 (in-place)
I0710 19:40:44.343448  3751 net.cpp:150] Setting up relu5_3
I0710 19:40:44.343466  3751 net.cpp:157] Top shape: 2 512 48 48 (2359296)
I0710 19:40:44.343473  3751 net.cpp:165] Memory required for data: 3143285032
I0710 19:40:44.343479  3751 layer_factory.hpp:77] Creating layer conv5_3_relu5_3_0_split
I0710 19:40:44.343499  3751 net.cpp:100] Creating Layer conv5_3_relu5_3_0_split
I0710 19:40:44.343508  3751 net.cpp:434] conv5_3_relu5_3_0_split <- conv5_3
I0710 19:40:44.343518  3751 net.cpp:408] conv5_3_relu5_3_0_split -> conv5_3_relu5_3_0_split_0
I0710 19:40:44.343531  3751 net.cpp:408] conv5_3_relu5_3_0_split -> conv5_3_relu5_3_0_split_1
I0710 19:40:44.343544  3751 net.cpp:408] conv5_3_relu5_3_0_split -> conv5_3_relu5_3_0_split_2
I0710 19:40:44.343618  3751 net.cpp:150] Setting up conv5_3_relu5_3_0_split
I0710 19:40:44.343628  3751 net.cpp:157] Top shape: 2 512 48 48 (2359296)
I0710 19:40:44.343636  3751 net.cpp:157] Top shape: 2 512 48 48 (2359296)
I0710 19:40:44.343643  3751 net.cpp:157] Top shape: 2 512 48 48 (2359296)
I0710 19:40:44.343648  3751 net.cpp:165] Memory required for data: 3171596584
I0710 19:40:44.343655  3751 layer_factory.hpp:77] Creating layer LFCN_2_5x5_sub
I0710 19:40:44.343674  3751 net.cpp:100] Creating Layer LFCN_2_5x5_sub
I0710 19:40:44.343681  3751 net.cpp:434] LFCN_2_5x5_sub <- conv5_3_relu5_3_0_split_0
I0710 19:40:44.343694  3751 net.cpp:408] LFCN_2_5x5_sub -> LFCN_2_5x5_sub
I0710 19:40:44.350709  3751 net.cpp:150] Setting up LFCN_2_5x5_sub
I0710 19:40:44.350736  3751 net.cpp:157] Top shape: 2 9 48 48 (41472)
I0710 19:40:44.350742  3751 net.cpp:165] Memory required for data: 3171762472
I0710 19:40:44.350762  3751 layer_factory.hpp:77] Creating layer LFCN_2_5x5_sub_LFCN_2_5x5_sub_0_split
I0710 19:40:44.350778  3751 net.cpp:100] Creating Layer LFCN_2_5x5_sub_LFCN_2_5x5_sub_0_split
I0710 19:40:44.350788  3751 net.cpp:434] LFCN_2_5x5_sub_LFCN_2_5x5_sub_0_split <- LFCN_2_5x5_sub
I0710 19:40:44.350797  3751 net.cpp:408] LFCN_2_5x5_sub_LFCN_2_5x5_sub_0_split -> LFCN_2_5x5_sub_LFCN_2_5x5_sub_0_split_0
I0710 19:40:44.350811  3751 net.cpp:408] LFCN_2_5x5_sub_LFCN_2_5x5_sub_0_split -> LFCN_2_5x5_sub_LFCN_2_5x5_sub_0_split_1
I0710 19:40:44.350857  3751 net.cpp:150] Setting up LFCN_2_5x5_sub_LFCN_2_5x5_sub_0_split
I0710 19:40:44.350867  3751 net.cpp:157] Top shape: 2 9 48 48 (41472)
I0710 19:40:44.350872  3751 net.cpp:157] Top shape: 2 9 48 48 (41472)
I0710 19:40:44.350877  3751 net.cpp:165] Memory required for data: 3172094248
I0710 19:40:44.350881  3751 layer_factory.hpp:77] Creating layer detection_loss_2_5x5
I0710 19:40:44.350894  3751 net.cpp:100] Creating Layer detection_loss_2_5x5
I0710 19:40:44.350901  3751 net.cpp:434] detection_loss_2_5x5 <- LFCN_2_5x5_sub_LFCN_2_5x5_sub_0_split_0
I0710 19:40:44.350908  3751 net.cpp:434] detection_loss_2_5x5 <- label_2_5x5_data_3_split_0
I0710 19:40:44.350919  3751 net.cpp:408] detection_loss_2_5x5 -> loss_2_5x5
I0710 19:40:44.350931  3751 layer_factory.hpp:77] Creating layer detection_loss_2_5x5
I0710 19:40:44.351307  3751 net.cpp:150] Setting up detection_loss_2_5x5
I0710 19:40:44.351320  3751 net.cpp:157] Top shape: 1 1 1 2 (2)
I0710 19:40:44.351325  3751 net.cpp:160]     with loss weight 1
I0710 19:40:44.351343  3751 net.cpp:165] Memory required for data: 3172094256
I0710 19:40:44.351349  3751 layer_factory.hpp:77] Creating layer detection_accuracy_2_5x5
I0710 19:40:44.351358  3751 net.cpp:100] Creating Layer detection_accuracy_2_5x5
I0710 19:40:44.351366  3751 net.cpp:434] detection_accuracy_2_5x5 <- LFCN_2_5x5_sub_LFCN_2_5x5_sub_0_split_1
I0710 19:40:44.351372  3751 net.cpp:434] detection_accuracy_2_5x5 <- label_2_5x5_data_3_split_1
I0710 19:40:44.351382  3751 net.cpp:408] detection_accuracy_2_5x5 -> accuracy_2_5x5
I0710 19:40:44.351392  3751 net.cpp:408] detection_accuracy_2_5x5 -> boxiou_2_5x5
I0710 19:40:44.351446  3751 net.cpp:150] Setting up detection_accuracy_2_5x5
I0710 19:40:44.351455  3751 net.cpp:157] Top shape: 1 1 1 2 (2)
I0710 19:40:44.351461  3751 net.cpp:157] Top shape: 1 1 1 1 (1)
I0710 19:40:44.351465  3751 net.cpp:165] Memory required for data: 3172094268
I0710 19:40:44.351469  3751 layer_factory.hpp:77] Creating layer LFCN_2_7x7_sub
I0710 19:40:44.351485  3751 net.cpp:100] Creating Layer LFCN_2_7x7_sub
I0710 19:40:44.351493  3751 net.cpp:434] LFCN_2_7x7_sub <- conv5_3_relu5_3_0_split_1
I0710 19:40:44.351500  3751 net.cpp:408] LFCN_2_7x7_sub -> LFCN_2_7x7_sub
I0710 19:40:44.360074  3751 net.cpp:150] Setting up LFCN_2_7x7_sub
I0710 19:40:44.360101  3751 net.cpp:157] Top shape: 2 9 48 48 (41472)
I0710 19:40:44.360105  3751 net.cpp:165] Memory required for data: 3172260156
I0710 19:40:44.360116  3751 layer_factory.hpp:77] Creating layer LFCN_2_7x7_sub_LFCN_2_7x7_sub_0_split
I0710 19:40:44.360128  3751 net.cpp:100] Creating Layer LFCN_2_7x7_sub_LFCN_2_7x7_sub_0_split
I0710 19:40:44.360134  3751 net.cpp:434] LFCN_2_7x7_sub_LFCN_2_7x7_sub_0_split <- LFCN_2_7x7_sub
I0710 19:40:44.360144  3751 net.cpp:408] LFCN_2_7x7_sub_LFCN_2_7x7_sub_0_split -> LFCN_2_7x7_sub_LFCN_2_7x7_sub_0_split_0
I0710 19:40:44.360155  3751 net.cpp:408] LFCN_2_7x7_sub_LFCN_2_7x7_sub_0_split -> LFCN_2_7x7_sub_LFCN_2_7x7_sub_0_split_1
I0710 19:40:44.360196  3751 net.cpp:150] Setting up LFCN_2_7x7_sub_LFCN_2_7x7_sub_0_split
I0710 19:40:44.360203  3751 net.cpp:157] Top shape: 2 9 48 48 (41472)
I0710 19:40:44.360208  3751 net.cpp:157] Top shape: 2 9 48 48 (41472)
I0710 19:40:44.360213  3751 net.cpp:165] Memory required for data: 3172591932
I0710 19:40:44.360216  3751 layer_factory.hpp:77] Creating layer detection_loss_2_7x7
I0710 19:40:44.360226  3751 net.cpp:100] Creating Layer detection_loss_2_7x7
I0710 19:40:44.360232  3751 net.cpp:434] detection_loss_2_7x7 <- LFCN_2_7x7_sub_LFCN_2_7x7_sub_0_split_0
I0710 19:40:44.360239  3751 net.cpp:434] detection_loss_2_7x7 <- label_2_7x7_data_4_split_0
I0710 19:40:44.360246  3751 net.cpp:408] detection_loss_2_7x7 -> loss_2_7x7
I0710 19:40:44.360258  3751 layer_factory.hpp:77] Creating layer detection_loss_2_7x7
I0710 19:40:44.360586  3751 net.cpp:150] Setting up detection_loss_2_7x7
I0710 19:40:44.360599  3751 net.cpp:157] Top shape: 1 1 1 2 (2)
I0710 19:40:44.360602  3751 net.cpp:160]     with loss weight 1
I0710 19:40:44.360617  3751 net.cpp:165] Memory required for data: 3172591940
I0710 19:40:44.360622  3751 layer_factory.hpp:77] Creating layer detection_accuracy_2_7x7
I0710 19:40:44.360631  3751 net.cpp:100] Creating Layer detection_accuracy_2_7x7
I0710 19:40:44.360638  3751 net.cpp:434] detection_accuracy_2_7x7 <- LFCN_2_7x7_sub_LFCN_2_7x7_sub_0_split_1
I0710 19:40:44.360644  3751 net.cpp:434] detection_accuracy_2_7x7 <- label_2_7x7_data_4_split_1
I0710 19:40:44.360654  3751 net.cpp:408] detection_accuracy_2_7x7 -> accuracy_2_7x7
I0710 19:40:44.360666  3751 net.cpp:408] detection_accuracy_2_7x7 -> boxiou_2_7x7
I0710 19:40:44.360715  3751 net.cpp:150] Setting up detection_accuracy_2_7x7
I0710 19:40:44.360724  3751 net.cpp:157] Top shape: 1 1 1 2 (2)
I0710 19:40:44.360730  3751 net.cpp:157] Top shape: 1 1 1 1 (1)
I0710 19:40:44.360734  3751 net.cpp:165] Memory required for data: 3172591952
I0710 19:40:44.360738  3751 layer_factory.hpp:77] Creating layer pool5
I0710 19:40:44.360747  3751 net.cpp:100] Creating Layer pool5
I0710 19:40:44.360754  3751 net.cpp:434] pool5 <- conv5_3_relu5_3_0_split_2
I0710 19:40:44.360764  3751 net.cpp:408] pool5 -> pool5
I0710 19:40:44.360810  3751 net.cpp:150] Setting up pool5
I0710 19:40:44.360818  3751 net.cpp:157] Top shape: 2 512 24 24 (589824)
I0710 19:40:44.360823  3751 net.cpp:165] Memory required for data: 3174951248
I0710 19:40:44.360828  3751 layer_factory.hpp:77] Creating layer conv6_1
I0710 19:40:44.360841  3751 net.cpp:100] Creating Layer conv6_1
I0710 19:40:44.360847  3751 net.cpp:434] conv6_1 <- pool5
I0710 19:40:44.360854  3751 net.cpp:408] conv6_1 -> conv6_1
I0710 19:40:44.433073  3751 net.cpp:150] Setting up conv6_1
I0710 19:40:44.433125  3751 net.cpp:157] Top shape: 2 512 24 24 (589824)
I0710 19:40:44.433137  3751 net.cpp:165] Memory required for data: 3177310544
I0710 19:40:44.433163  3751 layer_factory.hpp:77] Creating layer relu6_1
I0710 19:40:44.433192  3751 net.cpp:100] Creating Layer relu6_1
I0710 19:40:44.433209  3751 net.cpp:434] relu6_1 <- conv6_1
I0710 19:40:44.433228  3751 net.cpp:395] relu6_1 -> conv6_1 (in-place)
I0710 19:40:44.433670  3751 net.cpp:150] Setting up relu6_1
I0710 19:40:44.433696  3751 net.cpp:157] Top shape: 2 512 24 24 (589824)
I0710 19:40:44.433718  3751 net.cpp:165] Memory required for data: 3179669840
I0710 19:40:44.433732  3751 layer_factory.hpp:77] Creating layer conv6_1_relu6_1_0_split
I0710 19:40:44.433749  3751 net.cpp:100] Creating Layer conv6_1_relu6_1_0_split
I0710 19:40:44.433764  3751 net.cpp:434] conv6_1_relu6_1_0_split <- conv6_1
I0710 19:40:44.433789  3751 net.cpp:408] conv6_1_relu6_1_0_split -> conv6_1_relu6_1_0_split_0
I0710 19:40:44.433810  3751 net.cpp:408] conv6_1_relu6_1_0_split -> conv6_1_relu6_1_0_split_1
I0710 19:40:44.433830  3751 net.cpp:408] conv6_1_relu6_1_0_split -> conv6_1_relu6_1_0_split_2
I0710 19:40:44.433980  3751 net.cpp:150] Setting up conv6_1_relu6_1_0_split
I0710 19:40:44.434000  3751 net.cpp:157] Top shape: 2 512 24 24 (589824)
I0710 19:40:44.434016  3751 net.cpp:157] Top shape: 2 512 24 24 (589824)
I0710 19:40:44.434033  3751 net.cpp:157] Top shape: 2 512 24 24 (589824)
I0710 19:40:44.434046  3751 net.cpp:165] Memory required for data: 3186747728
I0710 19:40:44.434059  3751 layer_factory.hpp:77] Creating layer LFCN_3_5x5_sub
I0710 19:40:44.434093  3751 net.cpp:100] Creating Layer LFCN_3_5x5_sub
I0710 19:40:44.434105  3751 net.cpp:434] LFCN_3_5x5_sub <- conv6_1_relu6_1_0_split_0
I0710 19:40:44.434123  3751 net.cpp:408] LFCN_3_5x5_sub -> LFCN_3_5x5_sub
I0710 19:40:44.444083  3751 net.cpp:150] Setting up LFCN_3_5x5_sub
I0710 19:40:44.444134  3751 net.cpp:157] Top shape: 2 9 24 24 (10368)
I0710 19:40:44.444144  3751 net.cpp:165] Memory required for data: 3186789200
I0710 19:40:44.444161  3751 layer_factory.hpp:77] Creating layer LFCN_3_5x5_sub_LFCN_3_5x5_sub_0_split
I0710 19:40:44.444182  3751 net.cpp:100] Creating Layer LFCN_3_5x5_sub_LFCN_3_5x5_sub_0_split
I0710 19:40:44.444200  3751 net.cpp:434] LFCN_3_5x5_sub_LFCN_3_5x5_sub_0_split <- LFCN_3_5x5_sub
I0710 19:40:44.444222  3751 net.cpp:408] LFCN_3_5x5_sub_LFCN_3_5x5_sub_0_split -> LFCN_3_5x5_sub_LFCN_3_5x5_sub_0_split_0
I0710 19:40:44.444247  3751 net.cpp:408] LFCN_3_5x5_sub_LFCN_3_5x5_sub_0_split -> LFCN_3_5x5_sub_LFCN_3_5x5_sub_0_split_1
I0710 19:40:44.444353  3751 net.cpp:150] Setting up LFCN_3_5x5_sub_LFCN_3_5x5_sub_0_split
I0710 19:40:44.444370  3751 net.cpp:157] Top shape: 2 9 24 24 (10368)
I0710 19:40:44.444387  3751 net.cpp:157] Top shape: 2 9 24 24 (10368)
I0710 19:40:44.444398  3751 net.cpp:165] Memory required for data: 3186872144
I0710 19:40:44.444412  3751 layer_factory.hpp:77] Creating layer detection_loss_3_5x5
I0710 19:40:44.444432  3751 net.cpp:100] Creating Layer detection_loss_3_5x5
I0710 19:40:44.444444  3751 net.cpp:434] detection_loss_3_5x5 <- LFCN_3_5x5_sub_LFCN_3_5x5_sub_0_split_0
I0710 19:40:44.444463  3751 net.cpp:434] detection_loss_3_5x5 <- label_3_5x5_data_5_split_0
I0710 19:40:44.444486  3751 net.cpp:408] detection_loss_3_5x5 -> loss_3_5x5
I0710 19:40:44.444512  3751 layer_factory.hpp:77] Creating layer detection_loss_3_5x5
I0710 19:40:44.445334  3751 net.cpp:150] Setting up detection_loss_3_5x5
I0710 19:40:44.445365  3751 net.cpp:157] Top shape: 1 1 1 2 (2)
I0710 19:40:44.445379  3751 net.cpp:160]     with loss weight 1
I0710 19:40:44.445405  3751 net.cpp:165] Memory required for data: 3186872152
I0710 19:40:44.445418  3751 layer_factory.hpp:77] Creating layer detection_accuracy_3_5x5
I0710 19:40:44.445482  3751 net.cpp:100] Creating Layer detection_accuracy_3_5x5
I0710 19:40:44.445503  3751 net.cpp:434] detection_accuracy_3_5x5 <- LFCN_3_5x5_sub_LFCN_3_5x5_sub_0_split_1
I0710 19:40:44.445519  3751 net.cpp:434] detection_accuracy_3_5x5 <- label_3_5x5_data_5_split_1
I0710 19:40:44.445541  3751 net.cpp:408] detection_accuracy_3_5x5 -> accuracy_3_5x5
I0710 19:40:44.445572  3751 net.cpp:408] detection_accuracy_3_5x5 -> boxiou_3_5x5
I0710 19:40:44.445700  3751 net.cpp:150] Setting up detection_accuracy_3_5x5
I0710 19:40:44.445720  3751 net.cpp:157] Top shape: 1 1 1 2 (2)
I0710 19:40:44.445731  3751 net.cpp:157] Top shape: 1 1 1 1 (1)
I0710 19:40:44.445740  3751 net.cpp:165] Memory required for data: 3186872164
I0710 19:40:44.445749  3751 layer_factory.hpp:77] Creating layer LFCN_3_7x7_sub
I0710 19:40:44.445772  3751 net.cpp:100] Creating Layer LFCN_3_7x7_sub
I0710 19:40:44.445785  3751 net.cpp:434] LFCN_3_7x7_sub <- conv6_1_relu6_1_0_split_1
I0710 19:40:44.445801  3751 net.cpp:408] LFCN_3_7x7_sub -> LFCN_3_7x7_sub
I0710 19:40:44.455229  3751 net.cpp:150] Setting up LFCN_3_7x7_sub
I0710 19:40:44.455273  3751 net.cpp:157] Top shape: 2 9 24 24 (10368)
I0710 19:40:44.455278  3751 net.cpp:165] Memory required for data: 3186913636
I0710 19:40:44.455289  3751 layer_factory.hpp:77] Creating layer LFCN_3_7x7_sub_LFCN_3_7x7_sub_0_split
I0710 19:40:44.455302  3751 net.cpp:100] Creating Layer LFCN_3_7x7_sub_LFCN_3_7x7_sub_0_split
I0710 19:40:44.455310  3751 net.cpp:434] LFCN_3_7x7_sub_LFCN_3_7x7_sub_0_split <- LFCN_3_7x7_sub
I0710 19:40:44.455318  3751 net.cpp:408] LFCN_3_7x7_sub_LFCN_3_7x7_sub_0_split -> LFCN_3_7x7_sub_LFCN_3_7x7_sub_0_split_0
I0710 19:40:44.455328  3751 net.cpp:408] LFCN_3_7x7_sub_LFCN_3_7x7_sub_0_split -> LFCN_3_7x7_sub_LFCN_3_7x7_sub_0_split_1
I0710 19:40:44.455381  3751 net.cpp:150] Setting up LFCN_3_7x7_sub_LFCN_3_7x7_sub_0_split
I0710 19:40:44.455389  3751 net.cpp:157] Top shape: 2 9 24 24 (10368)
I0710 19:40:44.455394  3751 net.cpp:157] Top shape: 2 9 24 24 (10368)
I0710 19:40:44.455399  3751 net.cpp:165] Memory required for data: 3186996580
I0710 19:40:44.455402  3751 layer_factory.hpp:77] Creating layer detection_loss_3_7x7
I0710 19:40:44.455411  3751 net.cpp:100] Creating Layer detection_loss_3_7x7
I0710 19:40:44.455418  3751 net.cpp:434] detection_loss_3_7x7 <- LFCN_3_7x7_sub_LFCN_3_7x7_sub_0_split_0
I0710 19:40:44.455425  3751 net.cpp:434] detection_loss_3_7x7 <- label_3_7x7_data_6_split_0
I0710 19:40:44.455432  3751 net.cpp:408] detection_loss_3_7x7 -> loss_3_7x7
I0710 19:40:44.455446  3751 layer_factory.hpp:77] Creating layer detection_loss_3_7x7
I0710 19:40:44.455816  3751 net.cpp:150] Setting up detection_loss_3_7x7
I0710 19:40:44.455824  3751 net.cpp:157] Top shape: 1 1 1 2 (2)
I0710 19:40:44.455827  3751 net.cpp:160]     with loss weight 1
I0710 19:40:44.455839  3751 net.cpp:165] Memory required for data: 3186996588
I0710 19:40:44.455843  3751 layer_factory.hpp:77] Creating layer detection_accuracy_3_7x7
I0710 19:40:44.455850  3751 net.cpp:100] Creating Layer detection_accuracy_3_7x7
I0710 19:40:44.455854  3751 net.cpp:434] detection_accuracy_3_7x7 <- LFCN_3_7x7_sub_LFCN_3_7x7_sub_0_split_1
I0710 19:40:44.455859  3751 net.cpp:434] detection_accuracy_3_7x7 <- label_3_7x7_data_6_split_1
I0710 19:40:44.455865  3751 net.cpp:408] detection_accuracy_3_7x7 -> accuracy_3_7x7
I0710 19:40:44.455873  3751 net.cpp:408] detection_accuracy_3_7x7 -> boxiou_3_7x7
I0710 19:40:44.455914  3751 net.cpp:150] Setting up detection_accuracy_3_7x7
I0710 19:40:44.455921  3751 net.cpp:157] Top shape: 1 1 1 2 (2)
I0710 19:40:44.455925  3751 net.cpp:157] Top shape: 1 1 1 1 (1)
I0710 19:40:44.455927  3751 net.cpp:165] Memory required for data: 3186996600
I0710 19:40:44.455931  3751 layer_factory.hpp:77] Creating layer pool6
I0710 19:40:44.455937  3751 net.cpp:100] Creating Layer pool6
I0710 19:40:44.455941  3751 net.cpp:434] pool6 <- conv6_1_relu6_1_0_split_2
I0710 19:40:44.455946  3751 net.cpp:408] pool6 -> pool6
I0710 19:40:44.455984  3751 net.cpp:150] Setting up pool6
I0710 19:40:44.455991  3751 net.cpp:157] Top shape: 2 512 12 12 (147456)
I0710 19:40:44.455994  3751 net.cpp:165] Memory required for data: 3187586424
I0710 19:40:44.455997  3751 layer_factory.hpp:77] Creating layer LFCN_4_5x5_sub
I0710 19:40:44.456009  3751 net.cpp:100] Creating Layer LFCN_4_5x5_sub
I0710 19:40:44.456013  3751 net.cpp:434] LFCN_4_5x5_sub <- pool6
I0710 19:40:44.456020  3751 net.cpp:408] LFCN_4_5x5_sub -> LFCN_4_5x5_sub
I0710 19:40:44.460101  3751 net.cpp:150] Setting up LFCN_4_5x5_sub
I0710 19:40:44.460116  3751 net.cpp:157] Top shape: 2 9 12 12 (2592)
I0710 19:40:44.460120  3751 net.cpp:165] Memory required for data: 3187596792
I0710 19:40:44.460127  3751 layer_factory.hpp:77] Creating layer LFCN_4_5x5_sub_LFCN_4_5x5_sub_0_split
I0710 19:40:44.460134  3751 net.cpp:100] Creating Layer LFCN_4_5x5_sub_LFCN_4_5x5_sub_0_split
I0710 19:40:44.460139  3751 net.cpp:434] LFCN_4_5x5_sub_LFCN_4_5x5_sub_0_split <- LFCN_4_5x5_sub
I0710 19:40:44.460144  3751 net.cpp:408] LFCN_4_5x5_sub_LFCN_4_5x5_sub_0_split -> LFCN_4_5x5_sub_LFCN_4_5x5_sub_0_split_0
I0710 19:40:44.460149  3751 net.cpp:408] LFCN_4_5x5_sub_LFCN_4_5x5_sub_0_split -> LFCN_4_5x5_sub_LFCN_4_5x5_sub_0_split_1
I0710 19:40:44.460182  3751 net.cpp:150] Setting up LFCN_4_5x5_sub_LFCN_4_5x5_sub_0_split
I0710 19:40:44.460186  3751 net.cpp:157] Top shape: 2 9 12 12 (2592)
I0710 19:40:44.460191  3751 net.cpp:157] Top shape: 2 9 12 12 (2592)
I0710 19:40:44.460193  3751 net.cpp:165] Memory required for data: 3187617528
I0710 19:40:44.460196  3751 layer_factory.hpp:77] Creating layer detection_loss_4_5x5
I0710 19:40:44.460202  3751 net.cpp:100] Creating Layer detection_loss_4_5x5
I0710 19:40:44.460206  3751 net.cpp:434] detection_loss_4_5x5 <- LFCN_4_5x5_sub_LFCN_4_5x5_sub_0_split_0
I0710 19:40:44.460211  3751 net.cpp:434] detection_loss_4_5x5 <- label_4_5x5_data_7_split_0
I0710 19:40:44.460216  3751 net.cpp:408] detection_loss_4_5x5 -> loss_4_5x5
I0710 19:40:44.460222  3751 layer_factory.hpp:77] Creating layer detection_loss_4_5x5
I0710 19:40:44.460952  3751 net.cpp:150] Setting up detection_loss_4_5x5
I0710 19:40:44.460964  3751 net.cpp:157] Top shape: 1 1 1 2 (2)
I0710 19:40:44.460968  3751 net.cpp:160]     with loss weight 1
I0710 19:40:44.460975  3751 net.cpp:165] Memory required for data: 3187617536
I0710 19:40:44.460979  3751 layer_factory.hpp:77] Creating layer detection_accuracy_4_5x5
I0710 19:40:44.460985  3751 net.cpp:100] Creating Layer detection_accuracy_4_5x5
I0710 19:40:44.460990  3751 net.cpp:434] detection_accuracy_4_5x5 <- LFCN_4_5x5_sub_LFCN_4_5x5_sub_0_split_1
I0710 19:40:44.460995  3751 net.cpp:434] detection_accuracy_4_5x5 <- label_4_5x5_data_7_split_1
I0710 19:40:44.461001  3751 net.cpp:408] detection_accuracy_4_5x5 -> accuracy_4_5x5
I0710 19:40:44.461010  3751 net.cpp:408] detection_accuracy_4_5x5 -> boxiou_4_5x5
I0710 19:40:44.461051  3751 net.cpp:150] Setting up detection_accuracy_4_5x5
I0710 19:40:44.461057  3751 net.cpp:157] Top shape: 1 1 1 2 (2)
I0710 19:40:44.461061  3751 net.cpp:157] Top shape: 1 1 1 1 (1)
I0710 19:40:44.461066  3751 net.cpp:165] Memory required for data: 3187617548
I0710 19:40:44.461068  3751 net.cpp:228] detection_accuracy_4_5x5 does not need backward computation.
I0710 19:40:44.461072  3751 net.cpp:226] detection_loss_4_5x5 needs backward computation.
I0710 19:40:44.461076  3751 net.cpp:226] LFCN_4_5x5_sub_LFCN_4_5x5_sub_0_split needs backward computation.
I0710 19:40:44.461079  3751 net.cpp:226] LFCN_4_5x5_sub needs backward computation.
…
