…
    downsample_rate: 32
    downsample_rate: 32
    downsample_rate: 64
    coord_num: 4
    field_h: 60
    field_h: 84
    field_h: 120
    field_h: 168
    field_h: 240
    field_h: 336
    field_h: 480
    field_w: 60
    field_w: 84
    field_w: 120
    field_w: 168
    field_w: 240
    field_w: 336
    field_w: 480
    fg_threshold: 0.5
    resize_width: 1344
    resize_height: 768
    crop_width: 768
    crop_height: 768
    do_multiple_scale: true
    min_scale: 60
    max_scale: 480
    min_gt_height: 25
    shuffle: true
    output_gt_boxes: true
  }
}
layer {
  name: "slice"
  type: "Slice"
  bottom: "data"
  top: "data123"
  top: "ch4"
  slice_param {
    slice_point: 3
    axis: 1
  }
}
layer {
  name: "conv1_1"
  type: "Convolution"
  bottom: "data123"
  top: "conv1_1"
  param {
    lr_mult: 0
    decay_mult: 0
  }
  param {
    lr_mult: 0
    decay_mult: 0
  }
  convolution_param {
    num_output: 64
    pad: 1
    kernel_size: 3
  }
}
layer {
  name: "relu1_1"
  type: "ReLU"
  bottom: "conv1_1"
  top: "conv1_1"
}
layer {
  name: "conv1_2"
  type: "Convolution"
  bottom: "conv1_1"
  top: "conv1_2"
  param {
    lr_mult: 0
    decay_mult: 0
  }
  param {
    lr_mult: 0
    decay_mult: 0
  }
  convolution_param {
    num_output: 64
    pad: 1
    kernel_size: 3
  }
}
layer {
  name: "relu1_2"
  type: "ReLU"
  bottom: "conv1_2"
  top: "conv1_2"
}
layer {
  name: "pool1"
  type: "Pooling"
  bottom: "conv1_2"
  top: "pool1"
  pooling_param {
    pool: MAX
    kernel_size: 2
    stride: 2
  }
}
layer {
  name: "conv2_1"
  type: "Convolution"
  bottom: "pool1"
  top: "conv2_1"
  param {
    lr_mult: 0
    decay_mult: 0
  }
  param {
    lr_mult: 0
    decay_mult: 0
  }
  convolution_param {
    num_output: 128
    pad: 1
    kernel_size: 3
  }
}
layer {
  name: "relu2_1"
  type: "ReLU"
  bottom: "conv2_1"
  top: "conv2_1"
}
layer {
  name: "conv2_2"
  type: "Convolution"
  bottom: "conv2_1"
  top: "conv2_2"
  param {
    lr_mult: 0
    decay_mult: 0
  }
  param {
    lr_mult: 0
    decay_mult: 0
  }
  convolution_param {
    num_output: 128
    pad: 1
    kernel_size: 3
  }
}
layer {
  name: "relu2_2"
  type: "ReLU"
  bottom: "conv2_2"
  top: "conv2_2"
}
layer {
  name: "pool2"
  type: "Pooling"
  bottom: "conv2_2"
  top: "pool2"
  pooling_param {
    pool: MAX
    kernel_size: 2
    stride: 2
  }
}
layer {
  name: "conv3_1"
  type: "Convolution"
  bottom: "pool2"
  top: "conv3_1"
  convolution_param {
    num_output: 256
    pad: 1
    kernel_size: 3
  }
}
layer {
  name: "relu3_1"
  type: "ReLU"
  bottom: "conv3_1"
  top: "conv3_1"
}
layer {
  name: "conv3_2"
  type: "Convolution"
  bottom: "conv3_1"
  top: "conv3_2"
  convolution_param {
    num_output: 256
    pad: 1
    kernel_size: 3
  }
}
layer {
  name: "relu3_2"
  type: "ReLU"
  bottom: "conv3_2"
  top: "conv3_2"
}
layer {
  name: "conv3_3"
  type: "Convolution"
  bottom: "conv3_2"
  top: "conv3_3"
  convolution_param {
    num_output: 256
    pad: 1
    kernel_size: 3
  }
}
layer {
  name: "relu3_3"
  type: "ReLU"
  bottom: "conv3_3"
  top: "conv3_3"
}
layer {
  name: "pool3"
  type: "Pooling"
  bottom: "conv3_3"
  top: "pool3"
  pooling_param {
    pool: MAX
    kernel_size: 2
    stride: 2
  }
}
layer {
  name: "conv4_1"
  type: "Convolution"
  bottom: "pool3"
  top: "conv4_1"
  convolution_param {
    num_output: 512
    pad: 1
    kernel_size: 3
  }
}
layer {
  name: "relu4_1"
  type: "ReLU"
  bottom: "conv4_1"
  top: "conv4_1"
}
layer {
  name: "conv4_2"
  type: "Convolution"
  bottom: "conv4_1"
  top: "conv4_2"
  convolution_param {
    num_output: 512
    pad: 1
    kernel_size: 3
  }
}
layer {
  name: "relu4_2"
  type: "ReLU"
  bottom: "conv4_2"
  top: "conv4_2"
}
layer {
  name: "conv4_3"
  type: "Convolution"
  bottom: "conv4_2"
  top: "conv4_3"
  convolution_param {
    num_output: 512
    pad: 1
    kernel_size: 3
  }
}
layer {
  name: "relu4_3"
  type: "ReLU"
  bottom: "conv4_3"
  top: "conv4_3"
}
layer {
  name: "buffer3"
  type: "Convolution"
  bottom: "pool3"
  top: "buffer3"
  param {
    lr_mult: 1
    decay_mult: 1
  }
  param {
    lr_mult: 2
    decay_mult: 0
  }
  propagate_down: false
  convolution_param {
    num_output: 512
    pad: 1
    kernel_size: 3
    weight_filler {
      type: "gaussian"
      std: 0.01
    }
    bias_filler {
      type: "constant"
    }
  }
}
layer {
  name: "relu_buffer3"
  type: "ReLU"
  bottom: "buffer3"
  top: "buffer3"
}
layer {
  name: "buffer4"
  type: "Convolution"
  bottom: "conv4_3"
  top: "buffer4"
  param {
    lr_mult: 1
    decay_mult: 1
  }
  param {
    lr_mult: 2
    decay_mult: 0
  }
  propagate_down: false
  convolution_param {
    num_output: 512
    pad: 1
    kernel_size: 3
    weight_filler {
      type: "gaussian"
      std: 0.01
    }
    bias_filler {
      type: "constant"
    }
  }
}
layer {
  name: "relu_buffer4"
  type: "ReLU"
  bottom: "buffer4"
  top: "buffer4"
}
layer {
  name: "fuse"
  type: "Eltwise"
  bottom: "buffer3"
  bottom: "buffer4"
  top: "buffer"
  eltwise_param {
    operation: SUM
  }
}
layer {
  name: "attention"
  type: "Convolution"
  bottom: "buffer"
  top: "attention"
  param {
    lr_mult: 1
    decay_mult: 1
  }
  param {
    lr_mult: 2
    decay_mult: 0
  }
  convolution_param {
    num_output: 3
    pad: 1
    kernel_size: 3
  }
}
layer {
  name: "ch4_pool"
  type: "Pooling"
  bottom: "ch4"
  top: "ch4_pool"
  pooling_param {
    pool: MAX
    kernel_size: 8
    stride: 8
  }
}
layer {
  name: "loss_attention"
  type: "WeightedSoftmaxWithLoss"
  bottom: "attention"
  bottom: "ch4_pool"
  top: "loss_attention"
  loss_weight: 1
  propagate_down: true
  propagate_down: false
  softmax_param {
    pos_mult: 0.5
    pos_cid: 0
  }
}
layer {
  name: "loss1_conv1"
  type: "Convolution"
  bottom: "conv4_3"
  top: "loss1_conv1"
  param {
    lr_mult: 1
    decay_mult: 1
  }
  param {
    lr_mult: 2
    decay_mult: 0
  }
  convolution_param {
    num_output: 512
    pad: 1
    kernel_size: 3
    weight_filler {
      type: "gaussian"
      std: 0.01
    }
    bias_filler {
      type: "constant"
    }
  }
}
layer {
  name: "loss_relu1"
  type: "ReLU"
  bottom: "loss1_conv1"
  top: "loss1_conv1"
}
layer {
  name: "LFCN_1_5x5"
  type: "Convolution"
  bottom: "loss1_conv1"
  top: "LFCN_1_5x5"
  param {
    lr_mult: 1
    decay_mult: 1
  }
  param {
    lr_mult: 2
    decay_mult: 0
  }
  convolution_param {
    num_output: 9
    pad: 2
    kernel_size: 5
    weight_filler {
      type: "gaussian"
      std: 0.001
    }
    bias_filler {
      type: "constant"
    }
  }
}
layer {
  name: "detection_loss_1_5x5"
  type: "DetectionLoss"
  bottom: "LFCN_1_5x5"
  bottom: "label_1_5x5"
  top: "loss_1_5x5"
  loss_weight: 0.9
  detection_loss_param {
    cls_num: 5
    coord_num: 4
    lambda: 1
    field_h: 60
    field_w: 60
    downsample_rate: 8
    bb_smooth: true
    field_whr: 2
    field_xyr: 2
    bg_threshold: 0.2
    bg_multiple: 2
    sample_mode: "bootstrap"
    pos_neg_weighted: true
  }
}
layer {
  name: "detection_accuracy_1_5x5"
  type: "DetectionAccuracy"
  bottom: "LFCN_1_5x5"
  bottom: "label_1_5x5"
  top: "accuracy_1_5x5"
  top: "boxiou_1_5x5"
  detection_accuracy_param {
    cls_num: 5
    coord_num: 4
    field_h: 60
    field_w: 60
    downsample_rate: 8
    field_whr: 2
    field_xyr: 2
  }
}
layer {
  name: "LFCN_1_7x7"
  type: "Convolution"
  bottom: "loss1_conv1"
  top: "LFCN_1_7x7"
  param {
    lr_mult: 1
    decay_mult: 1
  }
  param {
    lr_mult: 2
    decay_mult: 0
  }
  convolution_param {
    num_output: 9
    pad: 3
    kernel_size: 7
    weight_filler {
      type: "gaussian"
      std: 0.001
    }
    bias_filler {
      type: "constant"
    }
  }
}
layer {
  name: "detection_loss_1_7x7"
  type: "DetectionLoss"
  bottom: "LFCN_1_7x7"
  bottom: "label_1_7x7"
  top: "loss_1_7x7"
  loss_weight: 0.9
  detection_loss_param {
    cls_num: 5
    coord_num: 4
    lambda: 1
    field_h: 84
    field_w: 84
    downsample_rate: 8
    bb_smooth: true
    field_whr: 2
    field_xyr: 2
    bg_threshold: 0.2
    bg_multiple: 2
    sample_mode: "bootstrap"
    pos_neg_weighted: true
  }
}
layer {
  name: "detection_accuracy_1_7x7"
  type: "DetectionAccuracy"
  bottom: "LFCN_1_7x7"
  bottom: "label_1_7x7"
  top: "accuracy_1_7x7"
  top: "boxiou_1_7x7"
  detection_accuracy_param {
    cls_num: 5
    coord_num: 4
    field_h: 84
    field_w: 84
    downsample_rate: 8
    field_whr: 2
    field_xyr: 2
  }
}
layer {
  name: "pool4"
  type: "Pooling"
  bottom: "conv4_3"
  top: "pool4"
  pooling_param {
    pool: MAX
    kernel_size: 2
    stride: 2
  }
}
layer {
  name: "conv5_1"
  type: "Convolution"
  bottom: "pool4"
  top: "conv5_1"
  convolution_param {
    num_output: 512
    pad: 1
    kernel_size: 3
  }
}
layer {
  name: "relu5_1"
  type: "ReLU"
  bottom: "conv5_1"
  top: "conv5_1"
}
layer {
  name: "conv5_2"
  type: "Convolution"
  bottom: "conv5_1"
  top: "conv5_2"
  convolution_param {
    num_output: 512
    pad: 1
    kernel_size: 3
  }
}
layer {
  name: "relu5_2"
  type: "ReLU"
  bottom: "conv5_2"
  top: "conv5_2"
}
layer {
  name: "conv5_3"
  type: "Convolution"
  bottom: "conv5_2"
  top: "conv5_3"
  convolution_param {
    num_output: 512
    pad: 1
    kernel_size: 3
  }
}
layer {
  name: "relu5_3"
  type: "ReLU"
  bottom: "conv5_3"
  top: "conv5_3"
}
layer {
  name: "LFCN_2_5x5"
  type: "Convolution"
  bottom: "conv5_3"
  top: "LFCN_2_5x5"
  param {
    lr_mult: 1
    decay_mult: 1
  }
  param {
    lr_mult: 2
    decay_mult: 0
  }
  convolution_param {
    num_output: 9
    pad: 2
    kernel_size: 5
    weight_filler {
      type: "gaussian"
      std: 0.001
    }
    bias_filler {
      type: "constant"
    }
  }
}
layer {
  name: "detection_loss_2_5x5"
  type: "DetectionLoss"
  bottom: "LFCN_2_5x5"
  bottom: "label_2_5x5"
  top: "loss_2_5x5"
  detection_loss_param {
    cls_num: 5
    coord_num: 4
    lambda: 1
    field_h: 120
    field_w: 120
    downsample_rate: 16
    bb_smooth: true
    field_whr: 2
    field_xyr: 2
    bg_threshold: 0.2
    bg_multiple: 2
    sample_mode: "bootstrap"
    pos_neg_weighted: true
  }
}
layer {
  name: "detection_accuracy_2_5x5"
  type: "DetectionAccuracy"
  bottom: "LFCN_2_5x5"
  bottom: "label_2_5x5"
  top: "accuracy_2_5x5"
  top: "boxiou_2_5x5"
  detection_accuracy_param {
    cls_num: 5
    coord_num: 4
    field_h: 120
    field_w: 120
    downsample_rate: 16
    field_whr: 2
    field_xyr: 2
  }
}
layer {
  name: "LFCN_2_7x7"
  type: "Convolution"
  bottom: "conv5_3"
  top: "LFCN_2_7x7"
  param {
    lr_mult: 1
    decay_mult: 1
  }
  param {
    lr_mult: 2
    decay_mult: 0
  }
  convolution_param {
    num_output: 9
    pad: 3
    kernel_size: 7
    weight_filler {
      type: "gaussian"
      std: 0.001
    }
    bias_filler {
      type: "constant"
    }
  }
}
layer {
  name: "detection_loss_2_7x7"
  type: "DetectionLoss"
  bottom: "LFCN_2_7x7"
  bottom: "label_2_7x7"
  top: "loss_2_7x7"
  detection_loss_param {
    cls_num: 5
    coord_num: 4
    lambda: 1
    field_h: 168
    field_w: 168
    downsample_rate: 16
    bb_smooth: true
    field_whr: 2
    field_xyr: 2
    bg_threshold: 0.2
    bg_multiple: 2
    sample_mode: "bootstrap"
    pos_neg_weighted: true
  }
}
layer {
  name: "detection_accuracy_2_7x7"
  type: "DetectionAccuracy"
  bottom: "LFCN_2_7x7"
  bottom: "label_2_7x7"
  top: "accuracy_2_7x7"
  top: "boxiou_2_7x7"
  detection_accuracy_param {
    cls_num: 5
    coord_num: 4
    field_h: 168
    field_w: 168
    downsample_rate: 16
    field_whr: 2
    field_xyr: 2
  }
}
layer {
  name: "pool5"
  type: "Pooling"
  bottom: "conv5_3"
  top: "pool5"
  pooling_param {
    pool: MAX
    kernel_size: 2
    stride: 2
  }
}
layer {
  name: "conv6_1"
  type: "Convolution"
  bottom: "pool5"
  top: "conv6_1"
  param {
    lr_mult: 1
    decay_mult: 1
  }
  param {
    lr_mult: 2
    decay_mult: 0
  }
  convolution_param {
    num_output: 512
    pad: 1
    kernel_size: 3
    weight_filler {
      type: "gaussian"
      std: 0.01
    }
    bias_filler {
      type: "constant"
    }
  }
}
layer {
  name: "relu6_1"
  type: "ReLU"
  bottom: "conv6_1"
  top: "conv6_1"
}
layer {
  name: "LFCN_3_5x5"
  type: "Convolution"
  bottom: "conv6_1"
  top: "LFCN_3_5x5"
  param {
    lr_mult: 1
    decay_mult: 1
  }
  param {
    lr_mult: 2
    decay_mult: 0
  }
  convolution_param {
    num_output: 9
    pad: 2
    kernel_size: 5
    weight_filler {
      type: "gaussian"
      std: 0.001
    }
    bias_filler {
      type: "constant"
    }
  }
}
layer {
  name: "detection_loss_3_5x5"
  type: "DetectionLoss"
  bottom: "LFCN_3_5x5"
  bottom: "label_3_5x5"
  top: "loss_3_5x5"
  detection_loss_param {
    cls_num: 5
    coord_num: 4
    lambda: 1
    field_h: 240
    field_w: 240
    downsample_rate: 32
    bb_smooth: true
    field_whr: 2
    field_xyr: 2
    bg_threshold: 0.2
    bg_multiple: 2
    sample_mode: "bootstrap"
    pos_neg_weighted: true
  }
}
layer {
  name: "detection_accuracy_3_5x5"
  type: "DetectionAccuracy"
  bottom: "LFCN_3_5x5"
  bottom: "label_3_5x5"
  top: "accuracy_3_5x5"
  top: "boxiou_3_5x5"
  detection_accuracy_param {
    cls_num: 5
    coord_num: 4
    field_h: 240
    field_w: 240
    downsample_rate: 32
    field_whr: 2
    field_xyr: 2
  }
}
layer {
  name: "LFCN_3_7x7"
  type: "Convolution"
  bottom: "conv6_1"
  top: "LFCN_3_7x7"
  param {
    lr_mult: 1
    decay_mult: 1
  }
  param {
    lr_mult: 2
    decay_mult: 0
  }
  convolution_param {
    num_output: 9
    pad: 3
    kernel_size: 7
    weight_filler {
      type: "gaussian"
      std: 0.001
    }
    bias_filler {
      type: "constant"
    }
  }
}
layer {
  name: "detection_loss_3_7x7"
  type: "DetectionLoss"
  bottom: "LFCN_3_7x7"
  bottom: "label_3_7x7"
  top: "loss_3_7x7"
  detection_loss_param {
    cls_num: 5
    coord_num: 4
    lambda: 1
    field_h: 336
    field_w: 336
    downsample_rate: 32
    bb_smooth: true
    field_whr: 2
    field_xyr: 2
    bg_threshold: 0.2
    bg_multiple: 2
    sample_mode: "bootstrap"
    pos_neg_weighted: true
  }
}
layer {
  name: "detection_accuracy_3_7x7"
  type: "DetectionAccuracy"
  bottom: "LFCN_3_7x7"
  bottom: "label_3_7x7"
  top: "accuracy_3_7x7"
  top: "boxiou_3_7x7"
  detection_accuracy_param {
    cls_num: 5
    coord_num: 4
    field_h: 336
    field_w: 336
    downsample_rate: 32
    field_whr: 2
    field_xyr: 2
  }
}
layer {
  name: "pool6"
  type: "Pooling"
  bottom: "conv6_1"
  top: "pool6"
  pooling_param {
    pool: MAX
    kernel_size: 2
    stride: 2
  }
}
layer {
  name: "LFCN_4_5x5"
  type: "Convolution"
  bottom: "pool6"
  top: "LFCN_4_5x5"
  param {
    lr_mult: 1
    decay_mult: 1
  }
  param {
    lr_mult: 2
    decay_mult: 0
  }
  convolution_param {
    num_output: 9
    pad: 2
    kernel_size: 5
    weight_filler {
      type: "gaussian"
      std: 0.001
    }
    bias_filler {
      type: "constant"
    }
  }
}
layer {
  name: "detection_loss_4_5x5"
  type: "DetectionLoss"
  bottom: "LFCN_4_5x5"
  bottom: "label_4_5x5"
  top: "loss_4_5x5"
  detection_loss_param {
    cls_num: 5
    coord_num: 4
    lambda: 1
    field_h: 480
    field_w: 480
    downsample_rate: 64
    bb_smooth: true
    field_whr: 2
    field_xyr: 2
    bg_threshold: 0.2
    bg_multiple: 2
    sample_mode: "bootstrap"
    pos_neg_weighted: true
  }
}
layer {
  name: "detection_accuracy_4_5x5"
  type: "DetectionAccuracy"
  bottom: "LFCN_4_5x5"
  bottom: "label_4_5x5"
  top: "accuracy_4_5x5"
  top: "boxiou_4_5x5"
  detection_accuracy_param {
    cls_num: 5
    coord_num: 4
    field_h: 480
    field_w: 480
    downsample_rate: 64
    field_whr: 2
    field_xyr: 2
  }
}
layer {
  name: "proposals"
  type: "BoxOutput"
  bottom: "LFCN_1_5x5"
  bottom: "LFCN_1_7x7"
  bottom: "LFCN_2_5x5"
  bottom: "LFCN_2_7x7"
  bottom: "LFCN_3_5x5"
  bottom: "LFCN_3_7x7"
  bottom: "LFCN_4_5x5"
  top: "proposals"
  propagate_down: false
  propagate_down: false
  propagate_down: false
  propagate_down: false
  propagate_down: false
  propagate_down: false
  propagate_down: false
  box_output_param {
    fg_thr: -8
    iou_thr: 0.65
    nms_type: "IOU"
    field_h: 60
    field_h: 84
    field_h: 120
    field_h: 168
    field_h: 240
    field_h: 336
    field_h: 480
    field_w: 60
    field_w: 84
    field_w: 120
    field_w: 168
    field_w: 240
    field_w: 336
    field_w: 480
    downsample_rate: 8
    downsample_rate: 8
    downsample_rate: 16
    downsample_rate: 16
    downsample_rate: 32
    downsample_rate: 32
    downsample_rate: 64
    field_whr: 2
    field_xyr: 2
    max_nms_num: 3000
  }
}
layer {
  name: "proposal_info"
  type: "ProposalTarget"
  bottom: "proposals"
  bottom: "gt_boxes"
  top: "rois"
  top: "proposal_labels"
  top: "proposal_targets"
  top: "box_inside_weights"
  top: "box_outside_weights"
  top: "match_gt_boxes"
  include {
    phase: TRAIN
  }
  propagate_down: false
  propagate_down: false
  proposal_target_param {
    cls_num: 5
    batch_size: 256
    fg_fraction: 0.25
    num_img_per_batch: 4
    fg_thr: 0.5
    bg_thr_hg: 0.49
    bg_thr_lw: 0.1
    img_width: 768
    img_height: 768
  }
  bbox_reg_param {
    bbox_mean: 0
    bbox_mean: 0
    bbox_mean: 0
    bbox_mean: 0
    bbox_std: 0.1
    bbox_std: 0.1
    bbox_std: 0.2
    bbox_std: 0.2
  }
}
layer {
  name: "softmax"
  type: "Softmax"
  bottom: "attention"
  top: "softmax_attention"
}
layer {
  name: "slice1"
  type: "Slice"
  bottom: "softmax_attention"
  top: "bg"
  top: "attention1"
  slice_param {
    slice_point: 1
    axis: 1
  }
}
layer {
  name: "silence"
  type: "Silence"
  bottom: "bg"
}
layer {
  name: "conv4_3_new"
  type: "Concat"
  bottom: "conv4_3"
  bottom: "attention1"
  top: "conv4_3_new"
}
layer {
  name: "conv4_3_2x"
  type: "Deconvolution"
  bottom: "conv4_3_new"
  top: "conv4_3_2x"
  param {
    lr_mult: 0
    decay_mult: 0
  }
  convolution_param {
    num_output: 514
    bias_term: false
    pad: 1
    kernel_size: 4
    group: 514
    stride: 2
    weight_filler {
      type: "bilinear"
    }
  }
}
layer {
  name: "roi_pool_org"
  type: "ROIPooling"
  bottom: "conv4_3_2x"
  bottom: "rois"
  top: "roi_pool_org"
  roi_pooling_param {
    pooled_h: 7
    pooled_w: 7
    spatial_scale: 0.25
    pad_ratio: 0
  }
}
layer {
  name: "roi_pool_ctx"
  type: "ROIPooling"
  bottom: "conv4_3_2x"
  bottom: "rois"
  top: "roi_pool_ctx"
  roi_pooling_param {
    pooled_h: 7
    pooled_w: 7
    spatial_scale: 0.25
    pad_ratio: 0.25
  }
}
layer {
  name: "roi_pool"
  type: "Concat"
  bottom: "roi_pool_org"
  bottom: "roi_pool_ctx"
  top: "roi_pool"
}
layer {
  name: "roi_c1"
  type: "Convolution"
  bottom: "roi_pool"
  top: "roi_c1"
  param {
    lr_mult: 1
    decay_mult: 1
  }
  param {
    lr_mult: 2
    decay_mult: 0
  }
  convolution_param {
    num_output: 512
    kernel_size: 3
    weight_filler {
      type: "gaussian"
      std: 0.01
    }
    bias_filler {
      type: "constant"
    }
  }
}
layer {
  name: "roi_c1_relu"
  type: "ReLU"
  bottom: "roi_c1"
  top: "roi_c1"
}
layer {
  name: "fc6"
  type: "InnerProduct"
  bottom: "roi_c1"
  top: "fc6"
  param {
    lr_mult: 1
  }
  param {
    lr_mult: 2
  }
  inner_product_param {
    num_output: 4096
    weight_filler {
      type: "gaussian"
      std: 0.001
    }
    bias_filler {
      type: "constant"
      value: 0
    }
  }
}
layer {
  name: "relu6"
  type: "ReLU"
  bottom: "fc6"
  top: "fc6"
}
layer {
  name: "drop6"
  type: "Dropout"
  bottom: "fc6"
  top: "fc6"
  dropout_param {
    dropout_ratio: 0.5
  }
}
layer {
  name: "cls_pred"
  type: "InnerProduct"
  bottom: "fc6"
  top: "cls_pred"
  param {
    lr_mult: 1
  }
  param {
    lr_mult: 2
  }
  inner_product_param {
    num_output: 5
    weight_filler {
      type: "gaussian"
      std: 0.01
    }
    bias_filler {
      type: "constant"
      value: 0
    }
  }
}
layer {
  name: "bbox_pred"
  type: "InnerProduct"
  bottom: "fc6"
  top: "bbox_pred"
  param {
    lr_mult: 1
  }
  param {
    lr_mult: 2
  }
  inner_product_param {
    num_output: 20
    weight_filler {
      type: "gaussian"
      std: 0.001
    }
    bias_filler {
      type: "constant"
      value: 0
    }
  }
}
layer {
  name: "loss_cls"
  type: "SoftmaxWithLoss"
  bottom: "cls_pred"
  bottom: "proposal_labels"
  top: "loss_cls"
  loss_weight: 1
  propagate_down: true
  propagate_down: false
}
layer {
  name: "cls_accuracy"
  type: "Accuracy"
  bottom: "cls_pred"
  bottom: "proposal_labels"
  top: "cls_accuracy"
}
layer {
  name: "loss_bbox"
  type: "SmoothL1Loss"
  bottom: "bbox_pred"
  bottom: "proposal_targets"
  bottom: "box_inside_weights"
  bottom: "box_outside_weights"
  top: "loss_bbox"
  loss_weight: 1
}
layer {
  name: "bbox_iou"
  type: "BboxAccuracy"
  bottom: "bbox_pred"
  bottom: "rois"
  bottom: "match_gt_boxes"
  top: "bbox_iou"
  top: "bbox_iou_pre"
  bbox_reg_param {
    bbox_mean: 0
    bbox_mean: 0
    bbox_mean: 0
    bbox_mean: 0
    bbox_std: 0.1
    bbox_std: 0.1
    bbox_std: 0.2
    bbox_std: 0.2
  }
}
I1023 22:17:27.214967 19094 layer_factory.hpp:77] Creating layer data
I1023 22:17:27.215005 19094 net.cpp:100] Creating Layer data
I1023 22:17:27.215013 19094 net.cpp:408] data -> data
…
I1023 22:17:27.238214 19094 image_gt_data_layer.cpp:235] output label size 2 : 3,6,48,48
I1023 22:17:27.238251 19094 image_gt_data_layer.cpp:235] output label size 3 : 3,6,48,48
I1023 22:17:27.238287 19094 image_gt_data_layer.cpp:235] output label size 4 : 3,6,24,24
I1023 22:17:27.238324 19094 image_gt_data_layer.cpp:235] output label size 5 : 3,6,24,24
I1023 22:17:27.238359 19094 image_gt_data_layer.cpp:235] output label size 6 : 3,6,12,12
I1023 22:17:27.238395 19094 image_gt_data_layer.cpp:250] output gt boxes size: 1,7,1,1
I1023 22:17:27.285797 19094 net.cpp:150] Setting up data
I1023 22:17:27.285830 19094 net.cpp:157] Top shape: 3 4 768 768 (7077888)
I1023 22:17:27.285835 19094 net.cpp:157] Top shape: 3 6 96 96 (165888)
I1023 22:17:27.285840 19094 net.cpp:157] Top shape: 3 6 96 96 (165888)
I1023 22:17:27.285843 19094 net.cpp:157] Top shape: 3 6 48 48 (41472)
I1023 22:17:27.285846 19094 net.cpp:157] Top shape: 3 6 48 48 (41472)
I1023 22:17:27.285851 19094 net.cpp:157] Top shape: 3 6 24 24 (10368)
I1023 22:17:27.285853 19094 net.cpp:157] Top shape: 3 6 24 24 (10368)
I1023 22:17:27.285856 19094 net.cpp:157] Top shape: 3 6 12 12 (2592)
I1023 22:17:27.285861 19094 net.cpp:157] Top shape: 1 7 1 1 (7)
I1023 22:17:27.285864 19094 net.cpp:165] Memory required for data: 30063772
I1023 22:17:27.285873 19094 layer_factory.hpp:77] Creating layer label_1_5x5_data_1_split
I1023 22:17:27.285890 19094 net.cpp:100] Creating Layer label_1_5x5_data_1_split
I1023 22:17:27.285897 19094 net.cpp:434] label_1_5x5_data_1_split <- label_1_5x5
I1023 22:17:27.285909 19094 net.cpp:408] label_1_5x5_data_1_split -> label_1_5x5_data_1_split_0
I1023 22:17:27.285917 19094 net.cpp:408] label_1_5x5_data_1_split -> label_1_5x5_data_1_split_1
I1023 22:17:27.285951 19094 net.cpp:150] Setting up label_1_5x5_data_1_split
I1023 22:17:27.285957 19094 net.cpp:157] Top shape: 3 6 96 96 (165888)
I1023 22:17:27.285960 19094 net.cpp:157] Top shape: 3 6 96 96 (165888)
I1023 22:17:27.285964 19094 net.cpp:165] Memory required for data: 31390876
I1023 22:17:27.285967 19094 layer_factory.hpp:77] Creating layer label_1_7x7_data_2_split
I1023 22:17:27.285972 19094 net.cpp:100] Creating Layer label_1_7x7_data_2_split
I1023 22:17:27.285975 19094 net.cpp:434] label_1_7x7_data_2_split <- label_1_7x7
I1023 22:17:27.285980 19094 net.cpp:408] label_1_7x7_data_2_split -> label_1_7x7_data_2_split_0
I1023 22:17:27.285986 19094 net.cpp:408] label_1_7x7_data_2_split -> label_1_7x7_data_2_split_1
I1023 22:17:27.286016 19094 net.cpp:150] Setting up label_1_7x7_data_2_split
I1023 22:17:27.286022 19094 net.cpp:157] Top shape: 3 6 96 96 (165888)
I1023 22:17:27.286026 19094 net.cpp:157] Top shape: 3 6 96 96 (165888)
I1023 22:17:27.286029 19094 net.cpp:165] Memory required for data: 32717980
I1023 22:17:27.286032 19094 layer_factory.hpp:77] Creating layer label_2_5x5_data_3_split
I1023 22:17:27.286037 19094 net.cpp:100] Creating Layer label_2_5x5_data_3_split
I1023 22:17:27.286041 19094 net.cpp:434] label_2_5x5_data_3_split <- label_2_5x5
I1023 22:17:27.286046 19094 net.cpp:408] label_2_5x5_data_3_split -> label_2_5x5_data_3_split_0
I1023 22:17:27.286051 19094 net.cpp:408] label_2_5x5_data_3_split -> label_2_5x5_data_3_split_1
I1023 22:17:27.286262 19094 net.cpp:150] Setting up label_2_5x5_data_3_split
I1023 22:17:27.286305 19094 net.cpp:157] Top shape: 3 6 48 48 (41472)
I1023 22:17:27.286319 19094 net.cpp:157] Top shape: 3 6 48 48 (41472)
I1023 22:17:27.286327 19094 net.cpp:165] Memory required for data: 33049756
I1023 22:17:27.286340 19094 layer_factory.hpp:77] Creating layer label_2_7x7_data_4_split
I1023 22:17:27.286371 19094 net.cpp:100] Creating Layer label_2_7x7_data_4_split
I1023 22:17:27.286386 19094 net.cpp:434] label_2_7x7_data_4_split <- label_2_7x7
I1023 22:17:27.286406 19094 net.cpp:408] label_2_7x7_data_4_split -> label_2_7x7_data_4_split_0
I1023 22:17:27.286425 19094 net.cpp:408] label_2_7x7_data_4_split -> label_2_7x7_data_4_split_1
I1023 22:17:27.286504 19094 net.cpp:150] Setting up label_2_7x7_data_4_split
I1023 22:17:27.286518 19094 net.cpp:157] Top shape: 3 6 48 48 (41472)
I1023 22:17:27.286533 19094 net.cpp:157] Top shape: 3 6 48 48 (41472)
I1023 22:17:27.286545 19094 net.cpp:165] Memory required for data: 33381532
I1023 22:17:27.286554 19094 layer_factory.hpp:77] Creating layer label_3_5x5_data_5_split
I1023 22:17:27.286568 19094 net.cpp:100] Creating Layer label_3_5x5_data_5_split
I1023 22:17:27.286579 19094 net.cpp:434] label_3_5x5_data_5_split <- label_3_5x5
I1023 22:17:27.286590 19094 net.cpp:408] label_3_5x5_data_5_split -> label_3_5x5_data_5_split_0
I1023 22:17:27.286602 19094 net.cpp:408] label_3_5x5_data_5_split -> label_3_5x5_data_5_split_1
I1023 22:17:27.286662 19094 net.cpp:150] Setting up label_3_5x5_data_5_split
I1023 22:17:27.286675 19094 net.cpp:157] Top shape: 3 6 24 24 (10368)
I1023 22:17:27.286684 19094 net.cpp:157] Top shape: 3 6 24 24 (10368)
I1023 22:17:27.286692 19094 net.cpp:165] Memory required for data: 33464476
I1023 22:17:27.286700 19094 layer_factory.hpp:77] Creating layer label_3_7x7_data_6_split
I1023 22:17:27.286711 19094 net.cpp:100] Creating Layer label_3_7x7_data_6_split
I1023 22:17:27.286720 19094 net.cpp:434] label_3_7x7_data_6_split <- label_3_7x7
I1023 22:17:27.286731 19094 net.cpp:408] label_3_7x7_data_6_split -> label_3_7x7_data_6_split_0
I1023 22:17:27.286742 19094 net.cpp:408] label_3_7x7_data_6_split -> label_3_7x7_data_6_split_1
I1023 22:17:27.286799 19094 net.cpp:150] Setting up label_3_7x7_data_6_split
I1023 22:17:27.286811 19094 net.cpp:157] Top shape: 3 6 24 24 (10368)
I1023 22:17:27.286821 19094 net.cpp:157] Top shape: 3 6 24 24 (10368)
I1023 22:17:27.286829 19094 net.cpp:165] Memory required for data: 33547420
I1023 22:17:27.286837 19094 layer_factory.hpp:77] Creating layer label_4_5x5_data_7_split
I1023 22:17:27.286849 19094 net.cpp:100] Creating Layer label_4_5x5_data_7_split
I1023 22:17:27.286857 19094 net.cpp:434] label_4_5x5_data_7_split <- label_4_5x5
I1023 22:17:27.286867 19094 net.cpp:408] label_4_5x5_data_7_split -> label_4_5x5_data_7_split_0
I1023 22:17:27.286880 19094 net.cpp:408] label_4_5x5_data_7_split -> label_4_5x5_data_7_split_1
I1023 22:17:27.286936 19094 net.cpp:150] Setting up label_4_5x5_data_7_split
I1023 22:17:27.286949 19094 net.cpp:157] Top shape: 3 6 12 12 (2592)
I1023 22:17:27.286958 19094 net.cpp:157] Top shape: 3 6 12 12 (2592)
I1023 22:17:27.286968 19094 net.cpp:165] Memory required for data: 33568156
I1023 22:17:27.286975 19094 layer_factory.hpp:77] Creating layer slice
I1023 22:17:27.286990 19094 net.cpp:100] Creating Layer slice
I1023 22:17:27.287000 19094 net.cpp:434] slice <- data
I1023 22:17:27.287010 19094 net.cpp:408] slice -> data123
I1023 22:17:27.287027 19094 net.cpp:408] slice -> ch4
I1023 22:17:27.287087 19094 net.cpp:150] Setting up slice
I1023 22:17:27.287099 19094 net.cpp:157] Top shape: 3 3 768 768 (5308416)
I1023 22:17:27.287109 19094 net.cpp:157] Top shape: 3 1 768 768 (1769472)
I1023 22:17:27.287117 19094 net.cpp:165] Memory required for data: 61879708
I1023 22:17:27.287125 19094 layer_factory.hpp:77] Creating layer conv1_1
I1023 22:17:27.287144 19094 net.cpp:100] Creating Layer conv1_1
I1023 22:17:27.287153 19094 net.cpp:434] conv1_1 <- data123
I1023 22:17:27.287164 19094 net.cpp:408] conv1_1 -> conv1_1
I1023 22:17:27.535621 19094 net.cpp:150] Setting up conv1_1
I1023 22:17:27.535660 19094 net.cpp:157] Top shape: 3 64 768 768 (113246208)
I1023 22:17:27.535665 19094 net.cpp:165] Memory required for data: 514864540
I1023 22:17:27.535688 19094 layer_factory.hpp:77] Creating layer relu1_1
I1023 22:17:27.535702 19094 net.cpp:100] Creating Layer relu1_1
I1023 22:17:27.535708 19094 net.cpp:434] relu1_1 <- conv1_1
I1023 22:17:27.535714 19094 net.cpp:395] relu1_1 -> conv1_1 (in-place)
I1023 22:17:27.535936 19094 net.cpp:150] Setting up relu1_1
I1023 22:17:27.535946 19094 net.cpp:157] Top shape: 3 64 768 768 (113246208)
I1023 22:17:27.535950 19094 net.cpp:165] Memory required for data: 967849372
I1023 22:17:27.535953 19094 layer_factory.hpp:77] Creating layer conv1_2
I1023 22:17:27.535964 19094 net.cpp:100] Creating Layer conv1_2
I1023 22:17:27.535969 19094 net.cpp:434] conv1_2 <- conv1_1
I1023 22:17:27.535974 19094 net.cpp:408] conv1_2 -> conv1_2
I1023 22:17:27.542162 19094 net.cpp:150] Setting up conv1_2
I1023 22:17:27.542207 19094 net.cpp:157] Top shape: 3 64 768 768 (113246208)
I1023 22:17:27.542217 19094 net.cpp:165] Memory required for data: 1420834204
I1023 22:17:27.542243 19094 layer_factory.hpp:77] Creating layer relu1_2
I1023 22:17:27.542263 19094 net.cpp:100] Creating Layer relu1_2
I1023 22:17:27.542279 19094 net.cpp:434] relu1_2 <- conv1_2
I1023 22:17:27.542292 19094 net.cpp:395] relu1_2 -> conv1_2 (in-place)
I1023 22:17:27.542670 19094 net.cpp:150] Setting up relu1_2
I1023 22:17:27.542690 19094 net.cpp:157] Top shape: 3 64 768 768 (113246208)
I1023 22:17:27.542699 19094 net.cpp:165] Memory required for data: 1873819036
I1023 22:17:27.542724 19094 layer_factory.hpp:77] Creating layer pool1
I1023 22:17:27.542742 19094 net.cpp:100] Creating Layer pool1
I1023 22:17:27.542752 19094 net.cpp:434] pool1 <- conv1_2
I1023 22:17:27.542765 19094 net.cpp:408] pool1 -> pool1
I1023 22:17:27.542873 19094 net.cpp:150] Setting up pool1
I1023 22:17:27.542888 19094 net.cpp:157] Top shape: 3 64 384 384 (28311552)
I1023 22:17:27.542892 19094 net.cpp:165] Memory required for data: 1987065244
I1023 22:17:27.542897 19094 layer_factory.hpp:77] Creating layer conv2_1
I1023 22:17:27.542909 19094 net.cpp:100] Creating Layer conv2_1
I1023 22:17:27.542914 19094 net.cpp:434] conv2_1 <- pool1
I1023 22:17:27.542922 19094 net.cpp:408] conv2_1 -> conv2_1
I1023 22:17:27.545163 19094 net.cpp:150] Setting up conv2_1
I1023 22:17:27.545176 19094 net.cpp:157] Top shape: 3 128 384 384 (56623104)
I1023 22:17:27.545181 19094 net.cpp:165] Memory required for data: 2213557660
I1023 22:17:27.545192 19094 layer_factory.hpp:77] Creating layer relu2_1
I1023 22:17:27.545198 19094 net.cpp:100] Creating Layer relu2_1
I1023 22:17:27.545202 19094 net.cpp:434] relu2_1 <- conv2_1
I1023 22:17:27.545207 19094 net.cpp:395] relu2_1 -> conv2_1 (in-place)
I1023 22:17:27.545385 19094 net.cpp:150] Setting up relu2_1
I1023 22:17:27.545395 19094 net.cpp:157] Top shape: 3 128 384 384 (56623104)
I1023 22:17:27.545399 19094 net.cpp:165] Memory required for data: 2440050076
I1023 22:17:27.545403 19094 layer_factory.hpp:77] Creating layer conv2_2
I1023 22:17:27.545418 19094 net.cpp:100] Creating Layer conv2_2
I1023 22:17:27.545421 19094 net.cpp:434] conv2_2 <- conv2_1
I1023 22:17:27.545429 19094 net.cpp:408] conv2_2 -> conv2_2
I1023 22:17:27.546921 19094 net.cpp:150] Setting up conv2_2
I1023 22:17:27.546937 19094 net.cpp:157] Top shape: 3 128 384 384 (56623104)
I1023 22:17:27.546941 19094 net.cpp:165] Memory required for data: 2666542492
I1023 22:17:27.546950 19094 layer_factory.hpp:77] Creating layer relu2_2
I1023 22:17:27.546959 19094 net.cpp:100] Creating Layer relu2_2
I1023 22:17:27.546964 19094 net.cpp:434] relu2_2 <- conv2_2
I1023 22:17:27.546973 19094 net.cpp:395] relu2_2 -> conv2_2 (in-place)
I1023 22:17:27.547197 19094 net.cpp:150] Setting up relu2_2
I1023 22:17:27.547209 19094 net.cpp:157] Top shape: 3 128 384 384 (56623104)
I1023 22:17:27.547212 19094 net.cpp:165] Memory required for data: 2893034908
I1023 22:17:27.547217 19094 layer_factory.hpp:77] Creating layer pool2
I1023 22:17:27.547225 19094 net.cpp:100] Creating Layer pool2
I1023 22:17:27.547230 19094 net.cpp:434] pool2 <- conv2_2
I1023 22:17:27.547240 19094 net.cpp:408] pool2 -> pool2
I1023 22:17:27.547281 19094 net.cpp:150] Setting up pool2
I1023 22:17:27.547288 19094 net.cpp:157] Top shape: 3 128 192 192 (14155776)
I1023 22:17:27.547292 19094 net.cpp:165] Memory required for data: 2949658012
I1023 22:17:27.547297 19094 layer_factory.hpp:77] Creating layer conv3_1
I1023 22:17:27.547307 19094 net.cpp:100] Creating Layer conv3_1
I1023 22:17:27.547312 19094 net.cpp:434] conv3_1 <- pool2
I1023 22:17:27.547317 19094 net.cpp:408] conv3_1 -> conv3_1
I1023 22:17:27.549640 19094 net.cpp:150] Setting up conv3_1
I1023 22:17:27.549677 19094 net.cpp:157] Top shape: 3 256 192 192 (28311552)
I1023 22:17:27.549682 19094 net.cpp:165] Memory required for data: 3062904220
I1023 22:17:27.549695 19094 layer_factory.hpp:77] Creating layer relu3_1
I1023 22:17:27.549705 19094 net.cpp:100] Creating Layer relu3_1
I1023 22:17:27.549711 19094 net.cpp:434] relu3_1 <- conv3_1
I1023 22:17:27.549716 19094 net.cpp:395] relu3_1 -> conv3_1 (in-place)
I1023 22:17:27.550148 19094 net.cpp:150] Setting up relu3_1
I1023 22:17:27.550160 19094 net.cpp:157] Top shape: 3 256 192 192 (28311552)
I1023 22:17:27.550164 19094 net.cpp:165] Memory required for data: 3176150428
I1023 22:17:27.550168 19094 layer_factory.hpp:77] Creating layer conv3_2
I1023 22:17:27.550179 19094 net.cpp:100] Creating Layer conv3_2
I1023 22:17:27.550192 19094 net.cpp:434] conv3_2 <- conv3_1
I1023 22:17:27.550199 19094 net.cpp:408] conv3_2 -> conv3_2
I1023 22:17:27.552476 19094 net.cpp:150] Setting up conv3_2
I1023 22:17:27.552500 19094 net.cpp:157] Top shape: 3 256 192 192 (28311552)
I1023 22:17:27.552503 19094 net.cpp:165] Memory required for data: 3289396636
I1023 22:17:27.552511 19094 layer_factory.hpp:77] Creating layer relu3_2
I1023 22:17:27.552520 19094 net.cpp:100] Creating Layer relu3_2
I1023 22:17:27.552525 19094 net.cpp:434] relu3_2 <- conv3_2
I1023 22:17:27.552531 19094 net.cpp:395] relu3_2 -> conv3_2 (in-place)
I1023 22:17:27.552955 19094 net.cpp:150] Setting up relu3_2
I1023 22:17:27.552968 19094 net.cpp:157] Top shape: 3 256 192 192 (28311552)
I1023 22:17:27.552973 19094 net.cpp:165] Memory required for data: 3402642844
I1023 22:17:27.552975 19094 layer_factory.hpp:77] Creating layer conv3_3
I1023 22:17:27.552985 19094 net.cpp:100] Creating Layer conv3_3
I1023 22:17:27.552989 19094 net.cpp:434] conv3_3 <- conv3_2
I1023 22:17:27.552994 19094 net.cpp:408] conv3_3 -> conv3_3
I1023 22:17:27.555416 19094 net.cpp:150] Setting up conv3_3
I1023 22:17:27.555433 19094 net.cpp:157] Top shape: 3 256 192 192 (28311552)
I1023 22:17:27.555436 19094 net.cpp:165] Memory required for data: 3515889052
I1023 22:17:27.555444 19094 layer_factory.hpp:77] Creating layer relu3_3
I1023 22:17:27.555451 19094 net.cpp:100] Creating Layer relu3_3
I1023 22:17:27.555455 19094 net.cpp:434] relu3_3 <- conv3_3
I1023 22:17:27.555460 19094 net.cpp:395] relu3_3 -> conv3_3 (in-place)
I1023 22:17:27.555624 19094 net.cpp:150] Setting up relu3_3
I1023 22:17:27.555631 19094 net.cpp:157] Top shape: 3 256 192 192 (28311552)
I1023 22:17:27.555634 19094 net.cpp:165] Memory required for data: 3629135260
I1023 22:17:27.555639 19094 layer_factory.hpp:77] Creating layer pool3
I1023 22:17:27.555644 19094 net.cpp:100] Creating Layer pool3
I1023 22:17:27.555649 19094 net.cpp:434] pool3 <- conv3_3
I1023 22:17:27.555655 19094 net.cpp:408] pool3 -> pool3
I1023 22:17:27.555689 19094 net.cpp:150] Setting up pool3
I1023 22:17:27.555696 19094 net.cpp:157] Top shape: 3 256 96 96 (7077888)
I1023 22:17:27.555699 19094 net.cpp:165] Memory required for data: 3657446812
I1023 22:17:27.555703 19094 layer_factory.hpp:77] Creating layer pool3_pool3_0_split
I1023 22:17:27.555709 19094 net.cpp:100] Creating Layer pool3_pool3_0_split
I1023 22:17:27.555712 19094 net.cpp:434] pool3_pool3_0_split <- pool3
I1023 22:17:27.555718 19094 net.cpp:408] pool3_pool3_0_split -> pool3_pool3_0_split_0
I1023 22:17:27.555724 19094 net.cpp:408] pool3_pool3_0_split -> pool3_pool3_0_split_1
I1023 22:17:27.555754 19094 net.cpp:150] Setting up pool3_pool3_0_split
I1023 22:17:27.555760 19094 net.cpp:157] Top shape: 3 256 96 96 (7077888)
I1023 22:17:27.555765 19094 net.cpp:157] Top shape: 3 256 96 96 (7077888)
I1023 22:17:27.555768 19094 net.cpp:165] Memory required for data: 3714069916
I1023 22:17:27.555771 19094 layer_factory.hpp:77] Creating layer conv4_1
I1023 22:17:27.555778 19094 net.cpp:100] Creating Layer conv4_1
I1023 22:17:27.555781 19094 net.cpp:434] conv4_1 <- pool3_pool3_0_split_0
I1023 22:17:27.555788 19094 net.cpp:408] conv4_1 -> conv4_1
I1023 22:17:27.561969 19094 net.cpp:150] Setting up conv4_1
I1023 22:17:27.561997 19094 net.cpp:157] Top shape: 3 512 96 96 (14155776)
I1023 22:17:27.562002 19094 net.cpp:165] Memory required for data: 3770693020
I1023 22:17:27.562011 19094 layer_factory.hpp:77] Creating layer relu4_1
I1023 22:17:27.562023 19094 net.cpp:100] Creating Layer relu4_1
I1023 22:17:27.562029 19094 net.cpp:434] relu4_1 <- conv4_1
I1023 22:17:27.562037 19094 net.cpp:395] relu4_1 -> conv4_1 (in-place)
I1023 22:17:27.562199 19094 net.cpp:150] Setting up relu4_1
I1023 22:17:27.562208 19094 net.cpp:157] Top shape: 3 512 96 96 (14155776)
I1023 22:17:27.562211 19094 net.cpp:165] Memory required for data: 3827316124
I1023 22:17:27.562216 19094 layer_factory.hpp:77] Creating layer conv4_2
I1023 22:17:27.562225 19094 net.cpp:100] Creating Layer conv4_2
I1023 22:17:27.562229 19094 net.cpp:434] conv4_2 <- conv4_1
I1023 22:17:27.562234 19094 net.cpp:408] conv4_2 -> conv4_2
I1023 22:17:27.570207 19094 net.cpp:150] Setting up conv4_2
I1023 22:17:27.570236 19094 net.cpp:157] Top shape: 3 512 96 96 (14155776)
I1023 22:17:27.570240 19094 net.cpp:165] Memory required for data: 3883939228
I1023 22:17:27.570255 19094 layer_factory.hpp:77] Creating layer relu4_2
I1023 22:17:27.570267 19094 net.cpp:100] Creating Layer relu4_2
I1023 22:17:27.570273 19094 net.cpp:434] relu4_2 <- conv4_2
I1023 22:17:27.570279 19094 net.cpp:395] relu4_2 -> conv4_2 (in-place)
I1023 22:17:27.570435 19094 net.cpp:150] Setting up relu4_2
I1023 22:17:27.570443 19094 net.cpp:157] Top shape: 3 512 96 96 (14155776)
I1023 22:17:27.570447 19094 net.cpp:165] Memory required for data: 3940562332
I1023 22:17:27.570451 19094 layer_factory.hpp:77] Creating layer conv4_3
I1023 22:17:27.570459 19094 net.cpp:100] Creating Layer conv4_3
I1023 22:17:27.570463 19094 net.cpp:434] conv4_3 <- conv4_2
I1023 22:17:27.570468 19094 net.cpp:408] conv4_3 -> conv4_3
I1023 22:17:27.576186 19094 net.cpp:150] Setting up conv4_3
I1023 22:17:27.576216 19094 net.cpp:157] Top shape: 3 512 96 96 (14155776)
I1023 22:17:27.576220 19094 net.cpp:165] Memory required for data: 3997185436
I1023 22:17:27.576228 19094 layer_factory.hpp:77] Creating layer relu4_3
I1023 22:17:27.576242 19094 net.cpp:100] Creating Layer relu4_3
I1023 22:17:27.576247 19094 net.cpp:434] relu4_3 <- conv4_3
I1023 22:17:27.576253 19094 net.cpp:395] relu4_3 -> conv4_3 (in-place)
I1023 22:17:27.576392 19094 net.cpp:150] Setting up relu4_3
I1023 22:17:27.576401 19094 net.cpp:157] Top shape: 3 512 96 96 (14155776)
I1023 22:17:27.576406 19094 net.cpp:165] Memory required for data: 4053808540
I1023 22:17:27.576408 19094 layer_factory.hpp:77] Creating layer conv4_3_relu4_3_0_split
I1023 22:17:27.576414 19094 net.cpp:100] Creating Layer conv4_3_relu4_3_0_split
I1023 22:17:27.576418 19094 net.cpp:434] conv4_3_relu4_3_0_split <- conv4_3
I1023 22:17:27.576423 19094 net.cpp:408] conv4_3_relu4_3_0_split -> conv4_3_relu4_3_0_split_0
I1023 22:17:27.576431 19094 net.cpp:408] conv4_3_relu4_3_0_split -> conv4_3_relu4_3_0_split_1
I1023 22:17:27.576436 19094 net.cpp:408] conv4_3_relu4_3_0_split -> conv4_3_relu4_3_0_split_2
I1023 22:17:27.576440 19094 net.cpp:408] conv4_3_relu4_3_0_split -> conv4_3_relu4_3_0_split_3
I1023 22:17:27.576496 19094 net.cpp:150] Setting up conv4_3_relu4_3_0_split
I1023 22:17:27.576503 19094 net.cpp:157] Top shape: 3 512 96 96 (14155776)
I1023 22:17:27.576506 19094 net.cpp:157] Top shape: 3 512 96 96 (14155776)
I1023 22:17:27.576510 19094 net.cpp:157] Top shape: 3 512 96 96 (14155776)
I1023 22:17:27.576514 19094 net.cpp:157] Top shape: 3 512 96 96 (14155776)
I1023 22:17:27.576517 19094 net.cpp:165] Memory required for data: 4280300956
I1023 22:17:27.576520 19094 layer_factory.hpp:77] Creating layer buffer3
I1023 22:17:27.576531 19094 net.cpp:100] Creating Layer buffer3
I1023 22:17:27.576535 19094 net.cpp:434] buffer3 <- pool3_pool3_0_split_1
I1023 22:17:27.576541 19094 net.cpp:408] buffer3 -> buffer3
I1023 22:17:27.606422 19094 net.cpp:150] Setting up buffer3
I1023 22:17:27.606447 19094 net.cpp:157] Top shape: 3 512 96 96 (14155776)
I1023 22:17:27.606452 19094 net.cpp:165] Memory required for data: 4336924060
I1023 22:17:27.606461 19094 layer_factory.hpp:77] Creating layer relu_buffer3
I1023 22:17:27.606470 19094 net.cpp:100] Creating Layer relu_buffer3
I1023 22:17:27.606475 19094 net.cpp:434] relu_buffer3 <- buffer3
I1023 22:17:27.606480 19094 net.cpp:395] relu_buffer3 -> buffer3 (in-place)
I1023 22:17:27.606920 19094 net.cpp:150] Setting up relu_buffer3
I1023 22:17:27.606932 19094 net.cpp:157] Top shape: 3 512 96 96 (14155776)
I1023 22:17:27.606936 19094 net.cpp:165] Memory required for data: 4393547164
I1023 22:17:27.606940 19094 layer_factory.hpp:77] Creating layer buffer4
I1023 22:17:27.606952 19094 net.cpp:100] Creating Layer buffer4
I1023 22:17:27.606957 19094 net.cpp:434] buffer4 <- conv4_3_relu4_3_0_split_0
I1023 22:17:27.606963 19094 net.cpp:408] buffer4 -> buffer4
I1023 22:17:27.665314 19094 net.cpp:150] Setting up buffer4
I1023 22:17:27.665346 19094 net.cpp:157] Top shape: 3 512 96 96 (14155776)
I1023 22:17:27.665350 19094 net.cpp:165] Memory required for data: 4450170268
I1023 22:17:27.665357 19094 layer_factory.hpp:77] Creating layer relu_buffer4
I1023 22:17:27.665366 19094 net.cpp:100] Creating Layer relu_buffer4
I1023 22:17:27.665371 19094 net.cpp:434] relu_buffer4 <- buffer4
I1023 22:17:27.665379 19094 net.cpp:395] relu_buffer4 -> buffer4 (in-place)
I1023 22:17:27.665968 19094 net.cpp:150] Setting up relu_buffer4
I1023 22:17:27.665982 19094 net.cpp:157] Top shape: 3 512 96 96 (14155776)
I1023 22:17:27.665984 19094 net.cpp:165] Memory required for data: 4506793372
I1023 22:17:27.665988 19094 layer_factory.hpp:77] Creating layer fuse
I1023 22:17:27.666002 19094 net.cpp:100] Creating Layer fuse
I1023 22:17:27.666007 19094 net.cpp:434] fuse <- buffer3
I1023 22:17:27.666010 19094 net.cpp:434] fuse <- buffer4
I1023 22:17:27.666015 19094 net.cpp:408] fuse -> buffer
I1023 22:17:27.666044 19094 net.cpp:150] Setting up fuse
I1023 22:17:27.666051 19094 net.cpp:157] Top shape: 3 512 96 96 (14155776)
I1023 22:17:27.666054 19094 net.cpp:165] Memory required for data: 4563416476
I1023 22:17:27.666057 19094 layer_factory.hpp:77] Creating layer attention
I1023 22:17:27.666065 19094 net.cpp:100] Creating Layer attention
I1023 22:17:27.666069 19094 net.cpp:434] attention <- buffer
I1023 22:17:27.666074 19094 net.cpp:408] attention -> attention
I1023 22:17:27.667336 19094 net.cpp:150] Setting up attention
I1023 22:17:27.667349 19094 net.cpp:157] Top shape: 3 3 96 96 (82944)
I1023 22:17:27.667352 19094 net.cpp:165] Memory required for data: 4563748252
I1023 22:17:27.667361 19094 layer_factory.hpp:77] Creating layer attention_attention_0_split
I1023 22:17:27.667366 19094 net.cpp:100] Creating Layer attention_attention_0_split
I1023 22:17:27.667371 19094 net.cpp:434] attention_attention_0_split <- attention
I1023 22:17:27.667376 19094 net.cpp:408] attention_attention_0_split -> attention_attention_0_split_0
I1023 22:17:27.667382 19094 net.cpp:408] attention_attention_0_split -> attention_attention_0_split_1
I1023 22:17:27.667420 19094 net.cpp:150] Setting up attention_attention_0_split
I1023 22:17:27.667425 19094 net.cpp:157] Top shape: 3 3 96 96 (82944)
I1023 22:17:27.667429 19094 net.cpp:157] Top shape: 3 3 96 96 (82944)
I1023 22:17:27.667433 19094 net.cpp:165] Memory required for data: 4564411804
I1023 22:17:27.667435 19094 layer_factory.hpp:77] Creating layer ch4_pool
I1023 22:17:27.667441 19094 net.cpp:100] Creating Layer ch4_pool
I1023 22:17:27.667445 19094 net.cpp:434] ch4_pool <- ch4
I1023 22:17:27.667450 19094 net.cpp:408] ch4_pool -> ch4_pool
I1023 22:17:27.667482 19094 net.cpp:150] Setting up ch4_pool
I1023 22:17:27.667487 19094 net.cpp:157] Top shape: 3 1 96 96 (27648)
I1023 22:17:27.667490 19094 net.cpp:165] Memory required for data: 4564522396
I1023 22:17:27.667493 19094 layer_factory.hpp:77] Creating layer loss_attention
I1023 22:17:27.667500 19094 net.cpp:100] Creating Layer loss_attention
I1023 22:17:27.667502 19094 net.cpp:434] loss_attention <- attention_attention_0_split_0
I1023 22:17:27.667506 19094 net.cpp:434] loss_attention <- ch4_pool
I1023 22:17:27.667512 19094 net.cpp:408] loss_attention -> loss_attention
I1023 22:17:27.667523 19094 layer_factory.hpp:77] Creating layer loss_attention
I1023 22:17:27.667789 19094 weighted_softmax_loss_layer.cpp:25] mult: 0.5, id: 0
I1023 22:17:27.667831 19094 net.cpp:150] Setting up loss_attention
I1023 22:17:27.667845 19094 net.cpp:157] Top shape: (1)
I1023 22:17:27.667847 19094 net.cpp:160]     with loss weight 1
I1023 22:17:27.667851 19094 net.cpp:165] Memory required for data: 4564522400
I1023 22:17:27.667855 19094 layer_factory.hpp:77] Creating layer loss1_conv1
I1023 22:17:27.667863 19094 net.cpp:100] Creating Layer loss1_conv1
I1023 22:17:27.667867 19094 net.cpp:434] loss1_conv1 <- conv4_3_relu4_3_0_split_1
I1023 22:17:27.667874 19094 net.cpp:408] loss1_conv1 -> loss1_conv1
I1023 22:17:27.725785 19094 net.cpp:150] Setting up loss1_conv1
I1023 22:17:27.725809 19094 net.cpp:157] Top shape: 3 512 96 96 (14155776)
I1023 22:17:27.725812 19094 net.cpp:165] Memory required for data: 4621145504
I1023 22:17:27.725821 19094 layer_factory.hpp:77] Creating layer loss_relu1
I1023 22:17:27.725831 19094 net.cpp:100] Creating Layer loss_relu1
I1023 22:17:27.725836 19094 net.cpp:434] loss_relu1 <- loss1_conv1
I1023 22:17:27.725841 19094 net.cpp:395] loss_relu1 -> loss1_conv1 (in-place)
I1023 22:17:27.725991 19094 net.cpp:150] Setting up loss_relu1
I1023 22:17:27.726001 19094 net.cpp:157] Top shape: 3 512 96 96 (14155776)
I1023 22:17:27.726004 19094 net.cpp:165] Memory required for data: 4677768608
I1023 22:17:27.726008 19094 layer_factory.hpp:77] Creating layer loss1_conv1_loss_relu1_0_split
I1023 22:17:27.726013 19094 net.cpp:100] Creating Layer loss1_conv1_loss_relu1_0_split
I1023 22:17:27.726017 19094 net.cpp:434] loss1_conv1_loss_relu1_0_split <- loss1_conv1
I1023 22:17:27.726022 19094 net.cpp:408] loss1_conv1_loss_relu1_0_split -> loss1_conv1_loss_relu1_0_split_0
I1023 22:17:27.726028 19094 net.cpp:408] loss1_conv1_loss_relu1_0_split -> loss1_conv1_loss_relu1_0_split_1
I1023 22:17:27.726064 19094 net.cpp:150] Setting up loss1_conv1_loss_relu1_0_split
I1023 22:17:27.726071 19094 net.cpp:157] Top shape: 3 512 96 96 (14155776)
I1023 22:17:27.726075 19094 net.cpp:157] Top shape: 3 512 96 96 (14155776)
I1023 22:17:27.726078 19094 net.cpp:165] Memory required for data: 4791014816
I1023 22:17:27.726081 19094 layer_factory.hpp:77] Creating layer LFCN_1_5x5
I1023 22:17:27.726092 19094 net.cpp:100] Creating Layer LFCN_1_5x5
I1023 22:17:27.726095 19094 net.cpp:434] LFCN_1_5x5 <- loss1_conv1_loss_relu1_0_split_0
I1023 22:17:27.726102 19094 net.cpp:408] LFCN_1_5x5 -> LFCN_1_5x5
I1023 22:17:27.729966 19094 net.cpp:150] Setting up LFCN_1_5x5
I1023 22:17:27.729979 19094 net.cpp:157] Top shape: 3 9 96 96 (248832)
I1023 22:17:27.729984 19094 net.cpp:165] Memory required for data: 4792010144
I1023 22:17:27.729990 19094 layer_factory.hpp:77] Creating layer LFCN_1_5x5_LFCN_1_5x5_0_split
I1023 22:17:27.729995 19094 net.cpp:100] Creating Layer LFCN_1_5x5_LFCN_1_5x5_0_split
I1023 22:17:27.729998 19094 net.cpp:434] LFCN_1_5x5_LFCN_1_5x5_0_split <- LFCN_1_5x5
I1023 22:17:27.730003 19094 net.cpp:408] LFCN_1_5x5_LFCN_1_5x5_0_split -> LFCN_1_5x5_LFCN_1_5x5_0_split_0
I1023 22:17:27.730010 19094 net.cpp:408] LFCN_1_5x5_LFCN_1_5x5_0_split -> LFCN_1_5x5_LFCN_1_5x5_0_split_1
I1023 22:17:27.730015 19094 net.cpp:408] LFCN_1_5x5_LFCN_1_5x5_0_split -> LFCN_1_5x5_LFCN_1_5x5_0_split_2
I1023 22:17:27.730062 19094 net.cpp:150] Setting up LFCN_1_5x5_LFCN_1_5x5_0_split
I1023 22:17:27.730068 19094 net.cpp:157] Top shape: 3 9 96 96 (248832)
I1023 22:17:27.730073 19094 net.cpp:157] Top shape: 3 9 96 96 (248832)
I1023 22:17:27.730077 19094 net.cpp:157] Top shape: 3 9 96 96 (248832)
I1023 22:17:27.730079 19094 net.cpp:165] Memory required for data: 4794996128
I1023 22:17:27.730082 19094 layer_factory.hpp:77] Creating layer detection_loss_1_5x5
I1023 22:17:27.730089 19094 net.cpp:100] Creating Layer detection_loss_1_5x5
I1023 22:17:27.730093 19094 net.cpp:434] detection_loss_1_5x5 <- LFCN_1_5x5_LFCN_1_5x5_0_split_0
I1023 22:17:27.730098 19094 net.cpp:434] detection_loss_1_5x5 <- label_1_5x5_data_1_split_0
I1023 22:17:27.730103 19094 net.cpp:408] detection_loss_1_5x5 -> loss_1_5x5
I1023 22:17:27.730113 19094 layer_factory.hpp:77] Creating layer detection_loss_1_5x5
I1023 22:17:27.731294 19094 net.cpp:150] Setting up detection_loss_1_5x5
I1023 22:17:27.731309 19094 net.cpp:157] Top shape: 1 1 1 2 (2)
I1023 22:17:27.731313 19094 net.cpp:160]     with loss weight 0.9
I1023 22:17:27.731326 19094 net.cpp:165] Memory required for data: 4794996136
I1023 22:17:27.731330 19094 layer_factory.hpp:77] Creating layer detection_accuracy_1_5x5
I1023 22:17:27.731339 19094 net.cpp:100] Creating Layer detection_accuracy_1_5x5
I1023 22:17:27.731344 19094 net.cpp:434] detection_accuracy_1_5x5 <- LFCN_1_5x5_LFCN_1_5x5_0_split_1
I1023 22:17:27.731349 19094 net.cpp:434] detection_accuracy_1_5x5 <- label_1_5x5_data_1_split_1
I1023 22:17:27.731357 19094 net.cpp:408] detection_accuracy_1_5x5 -> accuracy_1_5x5
I1023 22:17:27.731367 19094 net.cpp:408] detection_accuracy_1_5x5 -> boxiou_1_5x5
I1023 22:17:27.731410 19094 net.cpp:150] Setting up detection_accuracy_1_5x5
I1023 22:17:27.731420 19094 net.cpp:157] Top shape: 1 1 1 2 (2)
I1023 22:17:27.731425 19094 net.cpp:157] Top shape: 1 1 1 1 (1)
I1023 22:17:27.731427 19094 net.cpp:165] Memory required for data: 4794996148
I1023 22:17:27.731431 19094 layer_factory.hpp:77] Creating layer LFCN_1_7x7
I1023 22:17:27.731442 19094 net.cpp:100] Creating Layer LFCN_1_7x7
I1023 22:17:27.731447 19094 net.cpp:434] LFCN_1_7x7 <- loss1_conv1_loss_relu1_0_split_1
I1023 22:17:27.731454 19094 net.cpp:408] LFCN_1_7x7 -> LFCN_1_7x7
I1023 22:17:27.737951 19094 net.cpp:150] Setting up LFCN_1_7x7
I1023 22:17:27.737964 19094 net.cpp:157] Top shape: 3 9 96 96 (248832)
I1023 22:17:27.737967 19094 net.cpp:165] Memory required for data: 4795991476
I1023 22:17:27.737973 19094 layer_factory.hpp:77] Creating layer LFCN_1_7x7_LFCN_1_7x7_0_split
I1023 22:17:27.737980 19094 net.cpp:100] Creating Layer LFCN_1_7x7_LFCN_1_7x7_0_split
I1023 22:17:27.737984 19094 net.cpp:434] LFCN_1_7x7_LFCN_1_7x7_0_split <- LFCN_1_7x7
I1023 22:17:27.737989 19094 net.cpp:408] LFCN_1_7x7_LFCN_1_7x7_0_split -> LFCN_1_7x7_LFCN_1_7x7_0_split_0
I1023 22:17:27.737996 19094 net.cpp:408] LFCN_1_7x7_LFCN_1_7x7_0_split -> LFCN_1_7x7_LFCN_1_7x7_0_split_1
I1023 22:17:27.738006 19094 net.cpp:408] LFCN_1_7x7_LFCN_1_7x7_0_split -> LFCN_1_7x7_LFCN_1_7x7_0_split_2
I1023 22:17:27.738051 19094 net.cpp:150] Setting up LFCN_1_7x7_LFCN_1_7x7_0_split
I1023 22:17:27.738073 19094 net.cpp:157] Top shape: 3 9 96 96 (248832)
I1023 22:17:27.738078 19094 net.cpp:157] Top shape: 3 9 96 96 (248832)
I1023 22:17:27.738082 19094 net.cpp:157] Top shape: 3 9 96 96 (248832)
I1023 22:17:27.738085 19094 net.cpp:165] Memory required for data: 4798977460
I1023 22:17:27.738088 19094 layer_factory.hpp:77] Creating layer detection_loss_1_7x7
I1023 22:17:27.738095 19094 net.cpp:100] Creating Layer detection_loss_1_7x7
I1023 22:17:27.738099 19094 net.cpp:434] detection_loss_1_7x7 <- LFCN_1_7x7_LFCN_1_7x7_0_split_0
I1023 22:17:27.738103 19094 net.cpp:434] detection_loss_1_7x7 <- label_1_7x7_data_2_split_0
I1023 22:17:27.738107 19094 net.cpp:408] detection_loss_1_7x7 -> loss_1_7x7
I1023 22:17:27.738116 19094 layer_factory.hpp:77] Creating layer detection_loss_1_7x7
I1023 22:17:27.738473 19094 net.cpp:150] Setting up detection_loss_1_7x7
I1023 22:17:27.738483 19094 net.cpp:157] Top shape: 1 1 1 2 (2)
I1023 22:17:27.738487 19094 net.cpp:160]     with loss weight 0.9
I1023 22:17:27.738493 19094 net.cpp:165] Memory required for data: 4798977468
I1023 22:17:27.738497 19094 layer_factory.hpp:77] Creating layer detection_accuracy_1_7x7
I1023 22:17:27.738502 19094 net.cpp:100] Creating Layer detection_accuracy_1_7x7
I1023 22:17:27.738505 19094 net.cpp:434] detection_accuracy_1_7x7 <- LFCN_1_7x7_LFCN_1_7x7_0_split_1
I1023 22:17:27.738510 19094 net.cpp:434] detection_accuracy_1_7x7 <- label_1_7x7_data_2_split_1
I1023 22:17:27.738514 19094 net.cpp:408] detection_accuracy_1_7x7 -> accuracy_1_7x7
I1023 22:17:27.738520 19094 net.cpp:408] detection_accuracy_1_7x7 -> boxiou_1_7x7
I1023 22:17:27.738554 19094 net.cpp:150] Setting up detection_accuracy_1_7x7
I1023 22:17:27.738560 19094 net.cpp:157] Top shape: 1 1 1 2 (2)
I1023 22:17:27.738564 19094 net.cpp:157] Top shape: 1 1 1 1 (1)
I1023 22:17:27.738567 19094 net.cpp:165] Memory required for data: 4798977480
I1023 22:17:27.738570 19094 layer_factory.hpp:77] Creating layer pool4
I1023 22:17:27.738576 19094 net.cpp:100] Creating Layer pool4
I1023 22:17:27.738580 19094 net.cpp:434] pool4 <- conv4_3_relu4_3_0_split_2
I1023 22:17:27.738585 19094 net.cpp:408] pool4 -> pool4
I1023 22:17:27.738617 19094 net.cpp:150] Setting up pool4
I1023 22:17:27.738623 19094 net.cpp:157] Top shape: 3 512 48 48 (3538944)
I1023 22:17:27.738626 19094 net.cpp:165] Memory required for data: 4813133256
I1023 22:17:27.738629 19094 layer_factory.hpp:77] Creating layer conv5_1
I1023 22:17:27.738636 19094 net.cpp:100] Creating Layer conv5_1
I1023 22:17:27.738639 19094 net.cpp:434] conv5_1 <- pool4
I1023 22:17:27.738644 19094 net.cpp:408] conv5_1 -> conv5_1
I1023 22:17:27.744441 19094 net.cpp:150] Setting up conv5_1
I1023 22:17:27.744472 19094 net.cpp:157] Top shape: 3 512 48 48 (3538944)
I1023 22:17:27.744475 19094 net.cpp:165] Memory required for data: 4827289032
I1023 22:17:27.744493 19094 layer_factory.hpp:77] Creating layer relu5_1
I1023 22:17:27.744503 19094 net.cpp:100] Creating Layer relu5_1
I1023 22:17:27.744509 19094 net.cpp:434] relu5_1 <- conv5_1
I1023 22:17:27.744514 19094 net.cpp:395] relu5_1 -> conv5_1 (in-place)
I1023 22:17:27.744983 19094 net.cpp:150] Setting up relu5_1
I1023 22:17:27.744997 19094 net.cpp:157] Top shape: 3 512 48 48 (3538944)
I1023 22:17:27.745000 19094 net.cpp:165] Memory required for data: 4841444808
I1023 22:17:27.745003 19094 layer_factory.hpp:77] Creating layer conv5_2
I1023 22:17:27.745012 19094 net.cpp:100] Creating Layer conv5_2
I1023 22:17:27.745015 19094 net.cpp:434] conv5_2 <- conv5_1
I1023 22:17:27.745021 19094 net.cpp:408] conv5_2 -> conv5_2
I1023 22:17:27.750310 19094 net.cpp:150] Setting up conv5_2
I1023 22:17:27.750347 19094 net.cpp:157] Top shape: 3 512 48 48 (3538944)
I1023 22:17:27.750351 19094 net.cpp:165] Memory required for data: 4855600584
I1023 22:17:27.750361 19094 layer_factory.hpp:77] Creating layer relu5_2
I1023 22:17:27.750372 19094 net.cpp:100] Creating Layer relu5_2
I1023 22:17:27.750378 19094 net.cpp:434] relu5_2 <- conv5_2
I1023 22:17:27.750385 19094 net.cpp:395] relu5_2 -> conv5_2 (in-place)
I1023 22:17:27.750996 19094 net.cpp:150] Setting up relu5_2
I1023 22:17:27.751008 19094 net.cpp:157] Top shape: 3 512 48 48 (3538944)
I1023 22:17:27.751013 19094 net.cpp:165] Memory required for data: 4869756360
I1023 22:17:27.751015 19094 layer_factory.hpp:77] Creating layer conv5_3
I1023 22:17:27.751025 19094 net.cpp:100] Creating Layer conv5_3
I1023 22:17:27.751029 19094 net.cpp:434] conv5_3 <- conv5_2
I1023 22:17:27.751035 19094 net.cpp:408] conv5_3 -> conv5_3
I1023 22:17:27.757172 19094 net.cpp:150] Setting up conv5_3
I1023 22:17:27.757203 19094 net.cpp:157] Top shape: 3 512 48 48 (3538944)
I1023 22:17:27.757207 19094 net.cpp:165] Memory required for data: 4883912136
I1023 22:17:27.757216 19094 layer_factory.hpp:77] Creating layer relu5_3
I1023 22:17:27.757228 19094 net.cpp:100] Creating Layer relu5_3
I1023 22:17:27.757236 19094 net.cpp:434] relu5_3 <- conv5_3
I1023 22:17:27.757241 19094 net.cpp:395] relu5_3 -> conv5_3 (in-place)
I1023 22:17:27.757406 19094 net.cpp:150] Setting up relu5_3
I1023 22:17:27.757416 19094 net.cpp:157] Top shape: 3 512 48 48 (3538944)
I1023 22:17:27.757419 19094 net.cpp:165] Memory required for data: 4898067912
I1023 22:17:27.757423 19094 layer_factory.hpp:77] Creating layer conv5_3_relu5_3_0_split
I1023 22:17:27.757431 19094 net.cpp:100] Creating Layer conv5_3_relu5_3_0_split
I1023 22:17:27.757433 19094 net.cpp:434] conv5_3_relu5_3_0_split <- conv5_3
I1023 22:17:27.757438 19094 net.cpp:408] conv5_3_relu5_3_0_split -> conv5_3_relu5_3_0_split_0
I1023 22:17:27.757447 19094 net.cpp:408] conv5_3_relu5_3_0_split -> conv5_3_relu5_3_0_split_1
I1023 22:17:27.757452 19094 net.cpp:408] conv5_3_relu5_3_0_split -> conv5_3_relu5_3_0_split_2
I1023 22:17:27.757499 19094 net.cpp:150] Setting up conv5_3_relu5_3_0_split
I1023 22:17:27.757505 19094 net.cpp:157] Top shape: 3 512 48 48 (3538944)
I1023 22:17:27.757510 19094 net.cpp:157] Top shape: 3 512 48 48 (3538944)
I1023 22:17:27.757513 19094 net.cpp:157] Top shape: 3 512 48 48 (3538944)
I1023 22:17:27.757516 19094 net.cpp:165] Memory required for data: 4940535240
I1023 22:17:27.757519 19094 layer_factory.hpp:77] Creating layer LFCN_2_5x5
I1023 22:17:27.757531 19094 net.cpp:100] Creating Layer LFCN_2_5x5
I1023 22:17:27.757536 19094 net.cpp:434] LFCN_2_5x5 <- conv5_3_relu5_3_0_split_0
I1023 22:17:27.757544 19094 net.cpp:408] LFCN_2_5x5 -> LFCN_2_5x5
I1023 22:17:27.762394 19094 net.cpp:150] Setting up LFCN_2_5x5
I1023 22:17:27.762414 19094 net.cpp:157] Top shape: 3 9 48 48 (62208)
I1023 22:17:27.762418 19094 net.cpp:165] Memory required for data: 4940784072
I1023 22:17:27.762425 19094 layer_factory.hpp:77] Creating layer LFCN_2_5x5_LFCN_2_5x5_0_split
I1023 22:17:27.762434 19094 net.cpp:100] Creating Layer LFCN_2_5x5_LFCN_2_5x5_0_split
I1023 22:17:27.762439 19094 net.cpp:434] LFCN_2_5x5_LFCN_2_5x5_0_split <- LFCN_2_5x5
I1023 22:17:27.762445 19094 net.cpp:408] LFCN_2_5x5_LFCN_2_5x5_0_split -> LFCN_2_5x5_LFCN_2_5x5_0_split_0
I1023 22:17:27.762454 19094 net.cpp:408] LFCN_2_5x5_LFCN_2_5x5_0_split -> LFCN_2_5x5_LFCN_2_5x5_0_split_1
I1023 22:17:27.762460 19094 net.cpp:408] LFCN_2_5x5_LFCN_2_5x5_0_split -> LFCN_2_5x5_LFCN_2_5x5_0_split_2
I1023 22:17:27.762511 19094 net.cpp:150] Setting up LFCN_2_5x5_LFCN_2_5x5_0_split
I1023 22:17:27.762518 19094 net.cpp:157] Top shape: 3 9 48 48 (62208)
I1023 22:17:27.762522 19094 net.cpp:157] Top shape: 3 9 48 48 (62208)
I1023 22:17:27.762526 19094 net.cpp:157] Top shape: 3 9 48 48 (62208)
I1023 22:17:27.762529 19094 net.cpp:165] Memory required for data: 4941530568
I1023 22:17:27.762533 19094 layer_factory.hpp:77] Creating layer detection_loss_2_5x5
I1023 22:17:27.762547 19094 net.cpp:100] Creating Layer detection_loss_2_5x5
I1023 22:17:27.762552 19094 net.cpp:434] detection_loss_2_5x5 <- LFCN_2_5x5_LFCN_2_5x5_0_split_0
I1023 22:17:27.762557 19094 net.cpp:434] detection_loss_2_5x5 <- label_2_5x5_data_3_split_0
I1023 22:17:27.762562 19094 net.cpp:408] detection_loss_2_5x5 -> loss_2_5x5
I1023 22:17:27.762571 19094 layer_factory.hpp:77] Creating layer detection_loss_2_5x5
I1023 22:17:27.762894 19094 net.cpp:150] Setting up detection_loss_2_5x5
I1023 22:17:27.762904 19094 net.cpp:157] Top shape: 1 1 1 2 (2)
I1023 22:17:27.762907 19094 net.cpp:160]     with loss weight 1
I1023 22:17:27.762917 19094 net.cpp:165] Memory required for data: 4941530576
I1023 22:17:27.762922 19094 layer_factory.hpp:77] Creating layer detection_accuracy_2_5x5
I1023 22:17:27.762928 19094 net.cpp:100] Creating Layer detection_accuracy_2_5x5
I1023 22:17:27.762931 19094 net.cpp:434] detection_accuracy_2_5x5 <- LFCN_2_5x5_LFCN_2_5x5_0_split_1
I1023 22:17:27.762935 19094 net.cpp:434] detection_accuracy_2_5x5 <- label_2_5x5_data_3_split_1
I1023 22:17:27.762940 19094 net.cpp:408] detection_accuracy_2_5x5 -> accuracy_2_5x5
I1023 22:17:27.762948 19094 net.cpp:408] detection_accuracy_2_5x5 -> boxiou_2_5x5
I1023 22:17:27.762984 19094 net.cpp:150] Setting up detection_accuracy_2_5x5
I1023 22:17:27.762990 19094 net.cpp:157] Top shape: 1 1 1 2 (2)
I1023 22:17:27.762995 19094 net.cpp:157] Top shape: 1 1 1 1 (1)
I1023 22:17:27.762997 19094 net.cpp:165] Memory required for data: 4941530588
I1023 22:17:27.763000 19094 layer_factory.hpp:77] Creating layer LFCN_2_7x7
I1023 22:17:27.763010 19094 net.cpp:100] Creating Layer LFCN_2_7x7
I1023 22:17:27.763015 19094 net.cpp:434] LFCN_2_7x7 <- conv5_3_relu5_3_0_split_1
I1023 22:17:27.763020 19094 net.cpp:408] LFCN_2_7x7 -> LFCN_2_7x7
I1023 22:17:27.769206 19094 net.cpp:150] Setting up LFCN_2_7x7
I1023 22:17:27.769218 19094 net.cpp:157] Top shape: 3 9 48 48 (62208)
I1023 22:17:27.769222 19094 net.cpp:165] Memory required for data: 4941779420
I1023 22:17:27.769227 19094 layer_factory.hpp:77] Creating layer LFCN_2_7x7_LFCN_2_7x7_0_split
I1023 22:17:27.769233 19094 net.cpp:100] Creating Layer LFCN_2_7x7_LFCN_2_7x7_0_split
I1023 22:17:27.769237 19094 net.cpp:434] LFCN_2_7x7_LFCN_2_7x7_0_split <- LFCN_2_7x7
I1023 22:17:27.769243 19094 net.cpp:408] LFCN_2_7x7_LFCN_2_7x7_0_split -> LFCN_2_7x7_LFCN_2_7x7_0_split_0
I1023 22:17:27.769249 19094 net.cpp:408] LFCN_2_7x7_LFCN_2_7x7_0_split -> LFCN_2_7x7_LFCN_2_7x7_0_split_1
I1023 22:17:27.769254 19094 net.cpp:408] LFCN_2_7x7_LFCN_2_7x7_0_split -> LFCN_2_7x7_LFCN_2_7x7_0_split_2
I1023 22:17:27.769299 19094 net.cpp:150] Setting up LFCN_2_7x7_LFCN_2_7x7_0_split
I1023 22:17:27.769306 19094 net.cpp:157] Top shape: 3 9 48 48 (62208)
I1023 22:17:27.769310 19094 net.cpp:157] Top shape: 3 9 48 48 (62208)
I1023 22:17:27.769315 19094 net.cpp:157] Top shape: 3 9 48 48 (62208)
I1023 22:17:27.769317 19094 net.cpp:165] Memory required for data: 4942525916
I1023 22:17:27.769320 19094 layer_factory.hpp:77] Creating layer detection_loss_2_7x7
I1023 22:17:27.769326 19094 net.cpp:100] Creating Layer detection_loss_2_7x7
I1023 22:17:27.769330 19094 net.cpp:434] detection_loss_2_7x7 <- LFCN_2_7x7_LFCN_2_7x7_0_split_0
I1023 22:17:27.769335 19094 net.cpp:434] detection_loss_2_7x7 <- label_2_7x7_data_4_split_0
I1023 22:17:27.769340 19094 net.cpp:408] detection_loss_2_7x7 -> loss_2_7x7
I1023 22:17:27.769347 19094 layer_factory.hpp:77] Creating layer detection_loss_2_7x7
I1023 22:17:27.769683 19094 net.cpp:150] Setting up detection_loss_2_7x7
I1023 22:17:27.769695 19094 net.cpp:157] Top shape: 1 1 1 2 (2)
I1023 22:17:27.769697 19094 net.cpp:160]     with loss weight 1
I1023 22:17:27.769702 19094 net.cpp:165] Memory required for data: 4942525924
I1023 22:17:27.769706 19094 layer_factory.hpp:77] Creating layer detection_accuracy_2_7x7
I1023 22:17:27.769712 19094 net.cpp:100] Creating Layer detection_accuracy_2_7x7
I1023 22:17:27.769716 19094 net.cpp:434] detection_accuracy_2_7x7 <- LFCN_2_7x7_LFCN_2_7x7_0_split_1
I1023 22:17:27.769721 19094 net.cpp:434] detection_accuracy_2_7x7 <- label_2_7x7_data_4_split_1
I1023 22:17:27.769726 19094 net.cpp:408] detection_accuracy_2_7x7 -> accuracy_2_7x7
I1023 22:17:27.769731 19094 net.cpp:408] detection_accuracy_2_7x7 -> boxiou_2_7x7
I1023 22:17:27.769767 19094 net.cpp:150] Setting up detection_accuracy_2_7x7
I1023 22:17:27.769773 19094 net.cpp:157] Top shape: 1 1 1 2 (2)
I1023 22:17:27.769778 19094 net.cpp:157] Top shape: 1 1 1 1 (1)
I1023 22:17:27.769780 19094 net.cpp:165] Memory required for data: 4942525936
I1023 22:17:27.769783 19094 layer_factory.hpp:77] Creating layer pool5
I1023 22:17:27.769790 19094 net.cpp:100] Creating Layer pool5
I1023 22:17:27.769794 19094 net.cpp:434] pool5 <- conv5_3_relu5_3_0_split_2
I1023 22:17:27.769798 19094 net.cpp:408] pool5 -> pool5
I1023 22:17:27.769834 19094 net.cpp:150] Setting up pool5
I1023 22:17:27.769840 19094 net.cpp:157] Top shape: 3 512 24 24 (884736)
I1023 22:17:27.769842 19094 net.cpp:165] Memory required for data: 4946064880
I1023 22:17:27.769846 19094 layer_factory.hpp:77] Creating layer conv6_1
I1023 22:17:27.769853 19094 net.cpp:100] Creating Layer conv6_1
I1023 22:17:27.769857 19094 net.cpp:434] conv6_1 <- pool5
I1023 22:17:27.769863 19094 net.cpp:408] conv6_1 -> conv6_1
I1023 22:17:27.829591 19094 net.cpp:150] Setting up conv6_1
I1023 22:17:27.829615 19094 net.cpp:157] Top shape: 3 512 24 24 (884736)
I1023 22:17:27.829618 19094 net.cpp:165] Memory required for data: 4949603824
I1023 22:17:27.829625 19094 layer_factory.hpp:77] Creating layer relu6_1
I1023 22:17:27.829636 19094 net.cpp:100] Creating Layer relu6_1
I1023 22:17:27.829643 19094 net.cpp:434] relu6_1 <- conv6_1
I1023 22:17:27.829648 19094 net.cpp:395] relu6_1 -> conv6_1 (in-place)
I1023 22:17:27.829799 19094 net.cpp:150] Setting up relu6_1
I1023 22:17:27.829809 19094 net.cpp:157] Top shape: 3 512 24 24 (884736)
I1023 22:17:27.829813 19094 net.cpp:165] Memory required for data: 4953142768
I1023 22:17:27.829816 19094 layer_factory.hpp:77] Creating layer conv6_1_relu6_1_0_split
I1023 22:17:27.829823 19094 net.cpp:100] Creating Layer conv6_1_relu6_1_0_split
I1023 22:17:27.829826 19094 net.cpp:434] conv6_1_relu6_1_0_split <- conv6_1
I1023 22:17:27.829830 19094 net.cpp:408] conv6_1_relu6_1_0_split -> conv6_1_relu6_1_0_split_0
I1023 22:17:27.829838 19094 net.cpp:408] conv6_1_relu6_1_0_split -> conv6_1_relu6_1_0_split_1
I1023 22:17:27.829843 19094 net.cpp:408] conv6_1_relu6_1_0_split -> conv6_1_relu6_1_0_split_2
I1023 22:17:27.829891 19094 net.cpp:150] Setting up conv6_1_relu6_1_0_split
I1023 22:17:27.829898 19094 net.cpp:157] Top shape: 3 512 24 24 (884736)
I1023 22:17:27.829902 19094 net.cpp:157] Top shape: 3 512 24 24 (884736)
I1023 22:17:27.829906 19094 net.cpp:157] Top shape: 3 512 24 24 (884736)
I1023 22:17:27.829910 19094 net.cpp:165] Memory required for data: 4963759600
I1023 22:17:27.829912 19094 layer_factory.hpp:77] Creating layer LFCN_3_5x5
I1023 22:17:27.829922 19094 net.cpp:100] Creating Layer LFCN_3_5x5
I1023 22:17:27.829926 19094 net.cpp:434] LFCN_3_5x5 <- conv6_1_relu6_1_0_split_0
I1023 22:17:27.829934 19094 net.cpp:408] LFCN_3_5x5 -> LFCN_3_5x5
I1023 22:17:27.833930 19094 net.cpp:150] Setting up LFCN_3_5x5
I1023 22:17:27.833942 19094 net.cpp:157] Top shape: 3 9 24 24 (15552)
I1023 22:17:27.833946 19094 net.cpp:165] Memory required for data: 4963821808
I1023 22:17:27.833953 19094 layer_factory.hpp:77] Creating layer LFCN_3_5x5_LFCN_3_5x5_0_split
I1023 22:17:27.833959 19094 net.cpp:100] Creating Layer LFCN_3_5x5_LFCN_3_5x5_0_split
I1023 22:17:27.833962 19094 net.cpp:434] LFCN_3_5x5_LFCN_3_5x5_0_split <- LFCN_3_5x5
I1023 22:17:27.833967 19094 net.cpp:408] LFCN_3_5x5_LFCN_3_5x5_0_split -> LFCN_3_5x5_LFCN_3_5x5_0_split_0
I1023 22:17:27.833974 19094 net.cpp:408] LFCN_3_5x5_LFCN_3_5x5_0_split -> LFCN_3_5x5_LFCN_3_5x5_0_split_1
I1023 22:17:27.833979 19094 net.cpp:408] LFCN_3_5x5_LFCN_3_5x5_0_split -> LFCN_3_5x5_LFCN_3_5x5_0_split_2
I1023 22:17:27.834028 19094 net.cpp:150] Setting up LFCN_3_5x5_LFCN_3_5x5_0_split
I1023 22:17:27.834035 19094 net.cpp:157] Top shape: 3 9 24 24 (15552)
I1023 22:17:27.834039 19094 net.cpp:157] Top shape: 3 9 24 24 (15552)
I1023 22:17:27.834043 19094 net.cpp:157] Top shape: 3 9 24 24 (15552)
I1023 22:17:27.834046 19094 net.cpp:165] Memory required for data: 4964008432
I1023 22:17:27.834049 19094 layer_factory.hpp:77] Creating layer detection_loss_3_5x5
I1023 22:17:27.834056 19094 net.cpp:100] Creating Layer detection_loss_3_5x5
I1023 22:17:27.834060 19094 net.cpp:434] detection_loss_3_5x5 <- LFCN_3_5x5_LFCN_3_5x5_0_split_0
I1023 22:17:27.834064 19094 net.cpp:434] detection_loss_3_5x5 <- label_3_5x5_data_5_split_0
I1023 22:17:27.834070 19094 net.cpp:408] detection_loss_3_5x5 -> loss_3_5x5
I1023 22:17:27.834079 19094 layer_factory.hpp:77] Creating layer detection_loss_3_5x5
I1023 22:17:27.834693 19094 net.cpp:150] Setting up detection_loss_3_5x5
I1023 22:17:27.834705 19094 net.cpp:157] Top shape: 1 1 1 2 (2)
I1023 22:17:27.834708 19094 net.cpp:160]     with loss weight 1
I1023 22:17:27.834719 19094 net.cpp:165] Memory required for data: 4964008440
I1023 22:17:27.834722 19094 layer_factory.hpp:77] Creating layer detection_accuracy_3_5x5
I1023 22:17:27.834729 19094 net.cpp:100] Creating Layer detection_accuracy_3_5x5
I1023 22:17:27.834733 19094 net.cpp:434] detection_accuracy_3_5x5 <- LFCN_3_5x5_LFCN_3_5x5_0_split_1
I1023 22:17:27.834738 19094 net.cpp:434] detection_accuracy_3_5x5 <- label_3_5x5_data_5_split_1
I1023 22:17:27.834743 19094 net.cpp:408] detection_accuracy_3_5x5 -> accuracy_3_5x5
I1023 22:17:27.834750 19094 net.cpp:408] detection_accuracy_3_5x5 -> boxiou_3_5x5
I1023 22:17:27.834785 19094 net.cpp:150] Setting up detection_accuracy_3_5x5
I1023 22:17:27.834792 19094 net.cpp:157] Top shape: 1 1 1 2 (2)
I1023 22:17:27.834796 19094 net.cpp:157] Top shape: 1 1 1 1 (1)
I1023 22:17:27.834800 19094 net.cpp:165] Memory required for data: 4964008452
I1023 22:17:27.834802 19094 layer_factory.hpp:77] Creating layer LFCN_3_7x7
I1023 22:17:27.834811 19094 net.cpp:100] Creating Layer LFCN_3_7x7
I1023 22:17:27.834815 19094 net.cpp:434] LFCN_3_7x7 <- conv6_1_relu6_1_0_split_1
I1023 22:17:27.834820 19094 net.cpp:408] LFCN_3_7x7 -> LFCN_3_7x7
I1023 22:17:27.841704 19094 net.cpp:150] Setting up LFCN_3_7x7
I1023 22:17:27.841717 19094 net.cpp:157] Top shape: 3 9 24 24 (15552)
I1023 22:17:27.841719 19094 net.cpp:165] Memory required for data: 4964070660
I1023 22:17:27.841724 19094 layer_factory.hpp:77] Creating layer LFCN_3_7x7_LFCN_3_7x7_0_split
I1023 22:17:27.841729 19094 net.cpp:100] Creating Layer LFCN_3_7x7_LFCN_3_7x7_0_split
I1023 22:17:27.841733 19094 net.cpp:434] LFCN_3_7x7_LFCN_3_7x7_0_split <- LFCN_3_7x7
I1023 22:17:27.841738 19094 net.cpp:408] LFCN_3_7x7_LFCN_3_7x7_0_split -> LFCN_3_7x7_LFCN_3_7x7_0_split_0
I1023 22:17:27.841744 19094 net.cpp:408] LFCN_3_7x7_LFCN_3_7x7_0_split -> LFCN_3_7x7_LFCN_3_7x7_0_split_1
I1023 22:17:27.841748 19094 net.cpp:408] LFCN_3_7x7_LFCN_3_7x7_0_split -> LFCN_3_7x7_LFCN_3_7x7_0_split_2
I1023 22:17:27.841794 19094 net.cpp:150] Setting up LFCN_3_7x7_LFCN_3_7x7_0_split
I1023 22:17:27.841799 19094 net.cpp:157] Top shape: 3 9 24 24 (15552)
I1023 22:17:27.841802 19094 net.cpp:157] Top shape: 3 9 24 24 (15552)
I1023 22:17:27.841806 19094 net.cpp:157] Top shape: 3 9 24 24 (15552)
I1023 22:17:27.841809 19094 net.cpp:165] Memory required for data: 4964257284
I1023 22:17:27.841812 19094 layer_factory.hpp:77] Creating layer detection_loss_3_7x7
I1023 22:17:27.841819 19094 net.cpp:100] Creating Layer detection_loss_3_7x7
I1023 22:17:27.841822 19094 net.cpp:434] detection_loss_3_7x7 <- LFCN_3_7x7_LFCN_3_7x7_0_split_0
I1023 22:17:27.841826 19094 net.cpp:434] detection_loss_3_7x7 <- label_3_7x7_data_6_split_0
I1023 22:17:27.841831 19094 net.cpp:408] detection_loss_3_7x7 -> loss_3_7x7
I1023 22:17:27.841838 19094 layer_factory.hpp:77] Creating layer detection_loss_3_7x7
I1023 22:17:27.842461 19094 net.cpp:150] Setting up detection_loss_3_7x7
I1023 22:17:27.842473 19094 net.cpp:157] Top shape: 1 1 1 2 (2)
I1023 22:17:27.842476 19094 net.cpp:160]     with loss weight 1
I1023 22:17:27.842483 19094 net.cpp:165] Memory required for data: 4964257292
I1023 22:17:27.842486 19094 layer_factory.hpp:77] Creating layer detection_accuracy_3_7x7
I1023 22:17:27.842492 19094 net.cpp:100] Creating Layer detection_accuracy_3_7x7
I1023 22:17:27.842496 19094 net.cpp:434] detection_accuracy_3_7x7 <- LFCN_3_7x7_LFCN_3_7x7_0_split_1
I1023 22:17:27.842501 19094 net.cpp:434] detection_accuracy_3_7x7 <- label_3_7x7_data_6_split_1
I1023 22:17:27.842507 19094 net.cpp:408] detection_accuracy_3_7x7 -> accuracy_3_7x7
I1023 22:17:27.842514 19094 net.cpp:408] detection_accuracy_3_7x7 -> boxiou_3_7x7
I1023 22:17:27.842548 19094 net.cpp:150] Setting up detection_accuracy_3_7x7
I1023 22:17:27.842555 19094 net.cpp:157] Top shape: 1 1 1 2 (2)
I1023 22:17:27.842559 19094 net.cpp:157] Top shape: 1 1 1 1 (1)
I1023 22:17:27.842562 19094 net.cpp:165] Memory required for data: 4964257304
I1023 22:17:27.842566 19094 layer_factory.hpp:77] Creating layer pool6
I1023 22:17:27.842571 19094 net.cpp:100] Creating Layer pool6
I1023 22:17:27.842576 19094 net.cpp:434] pool6 <- conv6_1_relu6_1_0_split_2
I1023 22:17:27.842581 19094 net.cpp:408] pool6 -> pool6
I1023 22:17:27.842612 19094 net.cpp:150] Setting up pool6
I1023 22:17:27.842618 19094 net.cpp:157] Top shape: 3 512 12 12 (221184)
I1023 22:17:27.842622 19094 net.cpp:165] Memory required for data: 4965142040
I1023 22:17:27.842625 19094 layer_factory.hpp:77] Creating layer LFCN_4_5x5
I1023 22:17:27.842634 19094 net.cpp:100] Creating Layer LFCN_4_5x5
I1023 22:17:27.842638 19094 net.cpp:434] LFCN_4_5x5 <- pool6
I1023 22:17:27.842644 19094 net.cpp:408] LFCN_4_5x5 -> LFCN_4_5x5
I1023 22:17:27.846328 19094 net.cpp:150] Setting up LFCN_4_5x5
I1023 22:17:27.846339 19094 net.cpp:157] Top shape: 3 9 12 12 (3888)
I1023 22:17:27.846343 19094 net.cpp:165] Memory required for data: 4965157592
I1023 22:17:27.846349 19094 layer_factory.hpp:77] Creating layer LFCN_4_5x5_LFCN_4_5x5_0_split
I1023 22:17:27.846354 19094 net.cpp:100] Creating Layer LFCN_4_5x5_LFCN_4_5x5_0_split
I1023 22:17:27.846359 19094 net.cpp:434] LFCN_4_5x5_LFCN_4_5x5_0_split <- LFCN_4_5x5
I1023 22:17:27.846364 19094 net.cpp:408] LFCN_4_5x5_LFCN_4_5x5_0_split -> LFCN_4_5x5_LFCN_4_5x5_0_split_0
I1023 22:17:27.846370 19094 net.cpp:408] LFCN_4_5x5_LFCN_4_5x5_0_split -> LFCN_4_5x5_LFCN_4_5x5_0_split_1
I1023 22:17:27.846375 19094 net.cpp:408] LFCN_4_5x5_LFCN_4_5x5_0_split -> LFCN_4_5x5_LFCN_4_5x5_0_split_2
I1023 22:17:27.846422 19094 net.cpp:150] Setting up LFCN_4_5x5_LFCN_4_5x5_0_split
I1023 22:17:27.846429 19094 net.cpp:157] Top shape: 3 9 12 12 (3888)
I1023 22:17:27.846433 19094 net.cpp:157] Top shape: 3 9 12 12 (3888)
I1023 22:17:27.846437 19094 net.cpp:157] Top shape: 3 9 12 12 (3888)
I1023 22:17:27.846441 19094 net.cpp:165] Memory required for data: 4965204248
I1023 22:17:27.846443 19094 layer_factory.hpp:77] Creating layer detection_loss_4_5x5
I1023 22:17:27.846448 19094 net.cpp:100] Creating Layer detection_loss_4_5x5
I1023 22:17:27.846452 19094 net.cpp:434] detection_loss_4_5x5 <- LFCN_4_5x5_LFCN_4_5x5_0_split_0
I1023 22:17:27.846457 19094 net.cpp:434] detection_loss_4_5x5 <- label_4_5x5_data_7_split_0
I1023 22:17:27.846462 19094 net.cpp:408] detection_loss_4_5x5 -> loss_4_5x5
I1023 22:17:27.846468 19094 layer_factory.hpp:77] Creating layer detection_loss_4_5x5
I1023 22:17:27.846767 19094 net.cpp:150] Setting up detection_loss_4_5x5
I1023 22:17:27.846776 19094 net.cpp:157] Top shape: 1 1 1 2 (2)
I1023 22:17:27.846779 19094 net.cpp:160]     with loss weight 1
I1023 22:17:27.846786 19094 net.cpp:165] Memory required for data: 4965204256
I1023 22:17:27.846788 19094 layer_factory.hpp:77] Creating layer detection_accuracy_4_5x5
I1023 22:17:27.846796 19094 net.cpp:100] Creating Layer detection_accuracy_4_5x5
I1023 22:17:27.846799 19094 net.cpp:434] detection_accuracy_4_5x5 <- LFCN_4_5x5_LFCN_4_5x5_0_split_1
I1023 22:17:27.846803 19094 net.cpp:434] detection_accuracy_4_5x5 <- label_4_5x5_data_7_split_1
I1023 22:17:27.846808 19094 net.cpp:408] detection_accuracy_4_5x5 -> accuracy_4_5x5
I1023 22:17:27.846814 19094 net.cpp:408] detection_accuracy_4_5x5 -> boxiou_4_5x5
I1023 22:17:27.846849 19094 net.cpp:150] Setting up detection_accuracy_4_5x5
I1023 22:17:27.846855 19094 net.cpp:157] Top shape: 1 1 1 2 (2)
I1023 22:17:27.846859 19094 net.cpp:157] Top shape: 1 1 1 1 (1)
I1023 22:17:27.846863 19094 net.cpp:165] Memory required for data: 4965204268
I1023 22:17:27.846865 19094 layer_factory.hpp:77] Creating layer proposals
I1023 22:17:27.846879 19094 net.cpp:100] Creating Layer proposals
I1023 22:17:27.846884 19094 net.cpp:434] proposals <- LFCN_1_5x5_LFCN_1_5x5_0_split_2
I1023 22:17:27.846889 19094 net.cpp:434] proposals <- LFCN_1_7x7_LFCN_1_7x7_0_split_2
I1023 22:17:27.846892 19094 net.cpp:434] proposals <- LFCN_2_5x5_LFCN_2_5x5_0_split_2
I1023 22:17:27.846896 19094 net.cpp:434] proposals <- LFCN_2_7x7_LFCN_2_7x7_0_split_2
I1023 22:17:27.846899 19094 net.cpp:434] proposals <- LFCN_3_5x5_LFCN_3_5x5_0_split_2
I1023 22:17:27.846904 19094 net.cpp:434] proposals <- LFCN_3_7x7_LFCN_3_7x7_0_split_2
I1023 22:17:27.846906 19094 net.cpp:434] proposals <- LFCN_4_5x5_LFCN_4_5x5_0_split_2
I1023 22:17:27.846911 19094 net.cpp:408] proposals -> proposals
I1023 22:17:27.846938 19094 net.cpp:150] Setting up proposals
I1023 22:17:27.846945 19094 net.cpp:157] Top shape: 1 5 1 1 (5)
I1023 22:17:27.846947 19094 net.cpp:165] Memory required for data: 4965204288
I1023 22:17:27.846951 19094 layer_factory.hpp:77] Creating layer proposal_info
I1023 22:17:27.846957 19094 net.cpp:100] Creating Layer proposal_info
I1023 22:17:27.846961 19094 net.cpp:434] proposal_info <- proposals
I1023 22:17:27.846967 19094 net.cpp:434] proposal_info <- gt_boxes
I1023 22:17:27.846972 19094 net.cpp:408] proposal_info -> rois
I1023 22:17:27.846982 19094 net.cpp:408] proposal_info -> proposal_labels
I1023 22:17:27.846988 19094 net.cpp:408] proposal_info -> proposal_targets
I1023 22:17:27.846994 19094 net.cpp:408] proposal_info -> box_inside_weights
I1023 22:17:27.846999 19094 net.cpp:408] proposal_info -> box_outside_weights
I1023 22:17:27.847005 19094 net.cpp:408] proposal_info -> match_gt_boxes
I1023 22:17:27.847088 19094 net.cpp:150] Setting up proposal_info
I1023 22:17:27.847095 19094 net.cpp:157] Top shape: 256 5 1 1 (1280)
I1023 22:17:27.847100 19094 net.cpp:157] Top shape: 256 1 1 1 (256)
I1023 22:17:27.847103 19094 net.cpp:157] Top shape: 256 20 1 1 (5120)
I1023 22:17:27.847107 19094 net.cpp:157] Top shape: 256 20 1 1 (5120)
I1023 22:17:27.847111 19094 net.cpp:157] Top shape: 256 20 1 1 (5120)
I1023 22:17:27.847115 19094 net.cpp:157] Top shape: 256 6 1 1 (1536)
I1023 22:17:27.847117 19094 net.cpp:165] Memory required for data: 4965278016
I1023 22:17:27.847121 19094 layer_factory.hpp:77] Creating layer rois_proposal_info_0_split
I1023 22:17:27.847126 19094 net.cpp:100] Creating Layer rois_proposal_info_0_split
I1023 22:17:27.847129 19094 net.cpp:434] rois_proposal_info_0_split <- rois
I1023 22:17:27.847134 19094 net.cpp:408] rois_proposal_info_0_split -> rois_proposal_info_0_split_0
I1023 22:17:27.847139 19094 net.cpp:408] rois_proposal_info_0_split -> rois_proposal_info_0_split_1
I1023 22:17:27.847144 19094 net.cpp:408] rois_proposal_info_0_split -> rois_proposal_info_0_split_2
I1023 22:17:27.847187 19094 net.cpp:150] Setting up rois_proposal_info_0_split
I1023 22:17:27.847193 19094 net.cpp:157] Top shape: 256 5 1 1 (1280)
I1023 22:17:27.847196 19094 net.cpp:157] Top shape: 256 5 1 1 (1280)
I1023 22:17:27.847199 19094 net.cpp:157] Top shape: 256 5 1 1 (1280)
I1023 22:17:27.847203 19094 net.cpp:165] Memory required for data: 4965293376
I1023 22:17:27.847205 19094 layer_factory.hpp:77] Creating layer proposal_labels_proposal_info_1_split
I1023 22:17:27.847210 19094 net.cpp:100] Creating Layer proposal_labels_proposal_info_1_split
I1023 22:17:27.847213 19094 net.cpp:434] proposal_labels_proposal_info_1_split <- proposal_labels
I1023 22:17:27.847219 19094 net.cpp:408] proposal_labels_proposal_info_1_split -> proposal_labels_proposal_info_1_split_0
I1023 22:17:27.847224 19094 net.cpp:408] proposal_labels_proposal_info_1_split -> proposal_labels_proposal_info_1_split_1
I1023 22:17:27.847263 19094 net.cpp:150] Setting up proposal_labels_proposal_info_1_split
I1023 22:17:27.847271 19094 net.cpp:157] Top shape: 256 1 1 1 (256)
I1023 22:17:27.847276 19094 net.cpp:157] Top shape: 256 1 1 1 (256)
I1023 22:17:27.847280 19094 net.cpp:165] Memory required for data: 4965295424
I1023 22:17:27.847282 19094 layer_factory.hpp:77] Creating layer softmax
I1023 22:17:27.847287 19094 net.cpp:100] Creating Layer softmax
I1023 22:17:27.847290 19094 net.cpp:434] softmax <- attention_attention_0_split_1
I1023 22:17:27.847296 19094 net.cpp:408] softmax -> softmax_attention
I1023 22:17:27.847496 19094 net.cpp:150] Setting up softmax
I1023 22:17:27.847507 19094 net.cpp:157] Top shape: 3 3 96 96 (82944)
I1023 22:17:27.847512 19094 net.cpp:165] Memory required for data: 4965627200
I1023 22:17:27.847515 19094 layer_factory.hpp:77] Creating layer slice1
I1023 22:17:27.847523 19094 net.cpp:100] Creating Layer slice1
I1023 22:17:27.847527 19094 net.cpp:434] slice1 <- softmax_attention
I1023 22:17:27.847533 19094 net.cpp:408] slice1 -> bg
I1023 22:17:27.847542 19094 net.cpp:408] slice1 -> attention1
I1023 22:17:27.847584 19094 net.cpp:150] Setting up slice1
I1023 22:17:27.847591 19094 net.cpp:157] Top shape: 3 1 96 96 (27648)
I1023 22:17:27.847595 19094 net.cpp:157] Top shape: 3 2 96 96 (55296)
I1023 22:17:27.847599 19094 net.cpp:165] Memory required for data: 4965958976
I1023 22:17:27.847604 19094 layer_factory.hpp:77] Creating layer silence
I1023 22:17:27.850898 19094 net.cpp:100] Creating Layer silence
I1023 22:17:27.850914 19094 net.cpp:434] silence <- bg
I1023 22:17:27.850921 19094 net.cpp:150] Setting up silence
I1023 22:17:27.850925 19094 net.cpp:165] Memory required for data: 4965958976
I1023 22:17:27.850929 19094 layer_factory.hpp:77] Creating layer conv4_3_new
I1023 22:17:27.850939 19094 net.cpp:100] Creating Layer conv4_3_new
I1023 22:17:27.850944 19094 net.cpp:434] conv4_3_new <- conv4_3_relu4_3_0_split_3
I1023 22:17:27.850949 19094 net.cpp:434] conv4_3_new <- attention1
I1023 22:17:27.850955 19094 net.cpp:408] conv4_3_new -> conv4_3_new
I1023 22:17:27.851004 19094 net.cpp:150] Setting up conv4_3_new
I1023 22:17:27.851013 19094 net.cpp:157] Top shape: 3 514 96 96 (14211072)
I1023 22:17:27.851017 19094 net.cpp:165] Memory required for data: 5022803264
I1023 22:17:27.851022 19094 layer_factory.hpp:77] Creating layer conv4_3_2x
I1023 22:17:27.851032 19094 net.cpp:100] Creating Layer conv4_3_2x
I1023 22:17:27.851035 19094 net.cpp:434] conv4_3_2x <- conv4_3_new
I1023 22:17:27.851042 19094 net.cpp:408] conv4_3_2x -> conv4_3_2x
I1023 22:17:27.851613 19094 net.cpp:150] Setting up conv4_3_2x
I1023 22:17:27.851624 19094 net.cpp:157] Top shape: 3 514 192 192 (56844288)
I1023 22:17:27.851626 19094 net.cpp:165] Memory required for data: 5250180416
I1023 22:17:27.851632 19094 layer_factory.hpp:77] Creating layer conv4_3_2x_conv4_3_2x_0_split
I1023 22:17:27.851639 19094 net.cpp:100] Creating Layer conv4_3_2x_conv4_3_2x_0_split
I1023 22:17:27.851642 19094 net.cpp:434] conv4_3_2x_conv4_3_2x_0_split <- conv4_3_2x
I1023 22:17:27.851649 19094 net.cpp:408] conv4_3_2x_conv4_3_2x_0_split -> conv4_3_2x_conv4_3_2x_0_split_0
I1023 22:17:27.851656 19094 net.cpp:408] conv4_3_2x_conv4_3_2x_0_split -> conv4_3_2x_conv4_3_2x_0_split_1
I1023 22:17:27.851696 19094 net.cpp:150] Setting up conv4_3_2x_conv4_3_2x_0_split
I1023 22:17:27.851703 19094 net.cpp:157] Top shape: 3 514 192 192 (56844288)
I1023 22:17:27.851708 19094 net.cpp:157] Top shape: 3 514 192 192 (56844288)
I1023 22:17:27.851711 19094 net.cpp:165] Memory required for data: 5704934720
I1023 22:17:27.851716 19094 layer_factory.hpp:77] Creating layer roi_pool_org
I1023 22:17:27.851724 19094 net.cpp:100] Creating Layer roi_pool_org
I1023 22:17:27.851728 19094 net.cpp:434] roi_pool_org <- conv4_3_2x_conv4_3_2x_0_split_0
I1023 22:17:27.851733 19094 net.cpp:434] roi_pool_org <- rois_proposal_info_0_split_0
I1023 22:17:27.851739 19094 net.cpp:408] roi_pool_org -> roi_pool_org
I1023 22:17:27.851752 19094 roi_pooling_layer.cpp:33] Spatial scale: 0.25
I1023 22:17:27.851794 19094 net.cpp:150] Setting up roi_pool_org
I1023 22:17:27.851801 19094 net.cpp:157] Top shape: 256 514 7 7 (6447616)
I1023 22:17:27.851805 19094 net.cpp:165] Memory required for data: 5730725184
I1023 22:17:27.851809 19094 layer_factory.hpp:77] Creating layer roi_pool_ctx
I1023 22:17:27.851814 19094 net.cpp:100] Creating Layer roi_pool_ctx
I1023 22:17:27.851817 19094 net.cpp:434] roi_pool_ctx <- conv4_3_2x_conv4_3_2x_0_split_1
I1023 22:17:27.851821 19094 net.cpp:434] roi_pool_ctx <- rois_proposal_info_0_split_1
I1023 22:17:27.851825 19094 net.cpp:408] roi_pool_ctx -> roi_pool_ctx
I1023 22:17:27.851831 19094 roi_pooling_layer.cpp:33] Spatial scale: 0.25
I1023 22:17:27.851863 19094 net.cpp:150] Setting up roi_pool_ctx
I1023 22:17:27.851869 19094 net.cpp:157] Top shape: 256 514 7 7 (6447616)
I1023 22:17:27.851872 19094 net.cpp:165] Memory required for data: 5756515648
I1023 22:17:27.851876 19094 layer_factory.hpp:77] Creating layer roi_pool
I1023 22:17:27.851881 19094 net.cpp:100] Creating Layer roi_pool
I1023 22:17:27.851883 19094 net.cpp:434] roi_pool <- roi_pool_org
I1023 22:17:27.851887 19094 net.cpp:434] roi_pool <- roi_pool_ctx
I1023 22:17:27.851891 19094 net.cpp:408] roi_pool -> roi_pool
I1023 22:17:27.851912 19094 net.cpp:150] Setting up roi_pool
I1023 22:17:27.851918 19094 net.cpp:157] Top shape: 256 1028 7 7 (12895232)
I1023 22:17:27.851922 19094 net.cpp:165] Memory required for data: 5808096576
I1023 22:17:27.851924 19094 layer_factory.hpp:77] Creating layer roi_c1
I1023 22:17:27.851932 19094 net.cpp:100] Creating Layer roi_c1
I1023 22:17:27.851935 19094 net.cpp:434] roi_c1 <- roi_pool
I1023 22:17:27.851940 19094 net.cpp:408] roi_c1 -> roi_c1
I1023 22:17:27.966959 19094 net.cpp:150] Setting up roi_c1
I1023 22:17:27.966990 19094 net.cpp:157] Top shape: 256 512 5 5 (3276800)
I1023 22:17:27.966995 19094 net.cpp:165] Memory required for data: 5821203776
I1023 22:17:27.967002 19094 layer_factory.hpp:77] Creating layer roi_c1_relu
I1023 22:17:27.967011 19094 net.cpp:100] Creating Layer roi_c1_relu
I1023 22:17:27.967016 19094 net.cpp:434] roi_c1_relu <- roi_c1
I1023 22:17:27.967023 19094 net.cpp:395] roi_c1_relu -> roi_c1 (in-place)
I1023 22:17:27.967172 19094 net.cpp:150] Setting up roi_c1_relu
I1023 22:17:27.967181 19094 net.cpp:157] Top shape: 256 512 5 5 (3276800)
I1023 22:17:27.967185 19094 net.cpp:165] Memory required for data: 5834310976
I1023 22:17:27.967187 19094 layer_factory.hpp:77] Creating layer fc6
I1023 22:17:27.967196 19094 net.cpp:100] Creating Layer fc6
I1023 22:17:27.967200 19094 net.cpp:434] fc6 <- roi_c1
I1023 22:17:27.967207 19094 net.cpp:408] fc6 -> fc6
I1023 22:17:29.190791 19094 net.cpp:150] Setting up fc6
I1023 22:17:29.190826 19094 net.cpp:157] Top shape: 256 4096 (1048576)
I1023 22:17:29.190829 19094 net.cpp:165] Memory required for data: 5838505280
I1023 22:17:29.190838 19094 layer_factory.hpp:77] Creating layer relu6
I1023 22:17:29.190848 19094 net.cpp:100] Creating Layer relu6
I1023 22:17:29.190855 19094 net.cpp:434] relu6 <- fc6
I1023 22:17:29.190861 19094 net.cpp:395] relu6 -> fc6 (in-place)
I1023 22:17:29.191570 19094 net.cpp:150] Setting up relu6
I1023 22:17:29.191581 19094 net.cpp:157] Top shape: 256 4096 (1048576)
I1023 22:17:29.191586 19094 net.cpp:165] Memory required for data: 5842699584
I1023 22:17:29.191589 19094 layer_factory.hpp:77] Creating layer drop6
I1023 22:17:29.210021 19094 net.cpp:100] Creating Layer drop6
I1023 22:17:29.210037 19094 net.cpp:434] drop6 <- fc6
I1023 22:17:29.210045 19094 net.cpp:395] drop6 -> fc6 (in-place)
I1023 22:17:29.210091 19094 net.cpp:150] Setting up drop6
I1023 22:17:29.210101 19094 net.cpp:157] Top shape: 256 4096 (1048576)
I1023 22:17:29.210106 19094 net.cpp:165] Memory required for data: 5846893888
I1023 22:17:29.210110 19094 layer_factory.hpp:77] Creating layer fc6_drop6_0_split
I1023 22:17:29.210117 19094 net.cpp:100] Creating Layer fc6_drop6_0_split
I1023 22:17:29.210121 19094 net.cpp:434] fc6_drop6_0_split <- fc6
I1023 22:17:29.210129 19094 net.cpp:408] fc6_drop6_0_split -> fc6_drop6_0_split_0
I1023 22:17:29.210139 19094 net.cpp:408] fc6_drop6_0_split -> fc6_drop6_0_split_1
I1023 22:17:29.210191 19094 net.cpp:150] Setting up fc6_drop6_0_split
I1023 22:17:29.210201 19094 net.cpp:157] Top shape: 256 4096 (1048576)
I1023 22:17:29.210206 19094 net.cpp:157] Top shape: 256 4096 (1048576)
I1023 22:17:29.210211 19094 net.cpp:165] Memory required for data: 5855282496
I1023 22:17:29.210214 19094 layer_factory.hpp:77] Creating layer cls_pred
I1023 22:17:29.210224 19094 net.cpp:100] Creating Layer cls_pred
I1023 22:17:29.210229 19094 net.cpp:434] cls_pred <- fc6_drop6_0_split_0
I1023 22:17:29.210238 19094 net.cpp:408] cls_pred -> cls_pred
I1023 22:17:29.211004 19094 net.cpp:150] Setting up cls_pred
I1023 22:17:29.211011 19094 net.cpp:157] Top shape: 256 5 (1280)
I1023 22:17:29.211015 19094 net.cpp:165] Memory required for data: 5855287616
I1023 22:17:29.211021 19094 layer_factory.hpp:77] Creating layer cls_pred_cls_pred_0_split
I1023 22:17:29.211027 19094 net.cpp:100] Creating Layer cls_pred_cls_pred_0_split
I1023 22:17:29.211030 19094 net.cpp:434] cls_pred_cls_pred_0_split <- cls_pred
I1023 22:17:29.211037 19094 net.cpp:408] cls_pred_cls_pred_0_split -> cls_pred_cls_pred_0_split_0
I1023 22:17:29.211043 19094 net.cpp:408] cls_pred_cls_pred_0_split -> cls_pred_cls_pred_0_split_1
I1023 22:17:29.211077 19094 net.cpp:150] Setting up cls_pred_cls_pred_0_split
I1023 22:17:29.211084 19094 net.cpp:157] Top shape: 256 5 (1280)
I1023 22:17:29.211089 19094 net.cpp:157] Top shape: 256 5 (1280)
I1023 22:17:29.211093 19094 net.cpp:165] Memory required for data: 5855297856
I1023 22:17:29.211097 19094 layer_factory.hpp:77] Creating layer bbox_pred
I1023 22:17:29.211104 19094 net.cpp:100] Creating Layer bbox_pred
I1023 22:17:29.211108 19094 net.cpp:434] bbox_pred <- fc6_drop6_0_split_1
I1023 22:17:29.211114 19094 net.cpp:408] bbox_pred -> bbox_pred
I1023 22:17:29.213647 19094 net.cpp:150] Setting up bbox_pred
I1023 22:17:29.213655 19094 net.cpp:157] Top shape: 256 20 (5120)
I1023 22:17:29.213659 19094 net.cpp:165] Memory required for data: 5855318336
I1023 22:17:29.213665 19094 layer_factory.hpp:77] Creating layer bbox_pred_bbox_pred_0_split
I1023 22:17:29.213687 19094 net.cpp:100] Creating Layer bbox_pred_bbox_pred_0_split
I1023 22:17:29.213693 19094 net.cpp:434] bbox_pred_bbox_pred_0_split <- bbox_pred
I1023 22:17:29.213699 19094 net.cpp:408] bbox_pred_bbox_pred_0_split -> bbox_pred_bbox_pred_0_split_0
I1023 22:17:29.213706 19094 net.cpp:408] bbox_pred_bbox_pred_0_split -> bbox_pred_bbox_pred_0_split_1
I1023 22:17:29.213742 19094 net.cpp:150] Setting up bbox_pred_bbox_pred_0_split
I1023 22:17:29.213750 19094 net.cpp:157] Top shape: 256 20 (5120)
I1023 22:17:29.213755 19094 net.cpp:157] Top shape: 256 20 (5120)
I1023 22:17:29.213758 19094 net.cpp:165] Memory required for data: 5855359296
I1023 22:17:29.213762 19094 layer_factory.hpp:77] Creating layer loss_cls
I1023 22:17:29.213768 19094 net.cpp:100] Creating Layer loss_cls
I1023 22:17:29.213773 19094 net.cpp:434] loss_cls <- cls_pred_cls_pred_0_split_0
I1023 22:17:29.213778 19094 net.cpp:434] loss_cls <- proposal_labels_proposal_info_1_split_0
…
I1023 22:17:29.233043 19094 image_gt_data_layer.cpp:235] output label size 2 : 1,6,48,48
I1023 22:17:29.233091 19094 image_gt_data_layer.cpp:235] output label size 3 : 1,6,48,48
I1023 22:17:29.233139 19094 image_gt_data_layer.cpp:235] output label size 4 : 1,6,24,24
I1023 22:17:29.233186 19094 image_gt_data_layer.cpp:235] output label size 5 : 1,6,24,24
I1023 22:17:29.233232 19094 image_gt_data_layer.cpp:235] output label size 6 : 1,6,12,12
I1023 22:17:29.233279 19094 image_gt_data_layer.cpp:250] output gt boxes size: 1,7,1,1
I1023 22:17:29.251987 19094 net.cpp:150] Setting up data
I1023 22:17:29.252012 19094 net.cpp:157] Top shape: 1 4 768 768 (2359296)
I1023 22:17:29.252017 19094 net.cpp:157] Top shape: 1 6 96 96 (55296)
I1023 22:17:29.252022 19094 net.cpp:157] Top shape: 1 6 96 96 (55296)
I1023 22:17:29.252027 19094 net.cpp:157] Top shape: 1 6 48 48 (13824)
I1023 22:17:29.252030 19094 net.cpp:157] Top shape: 1 6 48 48 (13824)
I1023 22:17:29.252034 19094 net.cpp:157] Top shape: 1 6 24 24 (3456)
I1023 22:17:29.252038 19094 net.cpp:157] Top shape: 1 6 24 24 (3456)
I1023 22:17:29.252043 19094 net.cpp:157] Top shape: 1 6 12 12 (864)
I1023 22:17:29.252046 19094 net.cpp:157] Top shape: 1 7 1 1 (7)
I1023 22:17:29.252049 19094 net.cpp:165] Memory required for data: 10021276
I1023 22:17:29.252056 19094 layer_factory.hpp:77] Creating layer label_1_5x5_data_1_split
I1023 22:17:29.252072 19094 net.cpp:100] Creating Layer label_1_5x5_data_1_split
I1023 22:17:29.252077 19094 net.cpp:434] label_1_5x5_data_1_split <- label_1_5x5
I1023 22:17:29.252084 19094 net.cpp:408] label_1_5x5_data_1_split -> label_1_5x5_data_1_split_0
I1023 22:17:29.252091 19094 net.cpp:408] label_1_5x5_data_1_split -> label_1_5x5_data_1_split_1
I1023 22:17:29.252450 19094 net.cpp:150] Setting up label_1_5x5_data_1_split
I1023 22:17:29.252491 19094 net.cpp:157] Top shape: 1 6 96 96 (55296)
I1023 22:17:29.252501 19094 net.cpp:157] Top shape: 1 6 96 96 (55296)
I1023 22:17:29.252509 19094 net.cpp:165] Memory required for data: 10463644
I1023 22:17:29.252521 19094 layer_factory.hpp:77] Creating layer label_1_7x7_data_2_split
I1023 22:17:29.252540 19094 net.cpp:100] Creating Layer label_1_7x7_data_2_split
I1023 22:17:29.252549 19094 net.cpp:434] label_1_7x7_data_2_split <- label_1_7x7
I1023 22:17:29.252564 19094 net.cpp:408] label_1_7x7_data_2_split -> label_1_7x7_data_2_split_0
I1023 22:17:29.252580 19094 net.cpp:408] label_1_7x7_data_2_split -> label_1_7x7_data_2_split_1
I1023 22:17:29.252663 19094 net.cpp:150] Setting up label_1_7x7_data_2_split
I1023 22:17:29.252674 19094 net.cpp:157] Top shape: 1 6 96 96 (55296)
I1023 22:17:29.252683 19094 net.cpp:157] Top shape: 1 6 96 96 (55296)
I1023 22:17:29.252689 19094 net.cpp:165] Memory required for data: 10906012
I1023 22:17:29.252696 19094 layer_factory.hpp:77] Creating layer label_2_5x5_data_3_split
I1023 22:17:29.252705 19094 net.cpp:100] Creating Layer label_2_5x5_data_3_split
I1023 22:17:29.252712 19094 net.cpp:434] label_2_5x5_data_3_split <- label_2_5x5
I1023 22:17:29.252723 19094 net.cpp:408] label_2_5x5_data_3_split -> label_2_5x5_data_3_split_0
I1023 22:17:29.252737 19094 net.cpp:408] label_2_5x5_data_3_split -> label_2_5x5_data_3_split_1
I1023 22:17:29.252809 19094 net.cpp:150] Setting up label_2_5x5_data_3_split
I1023 22:17:29.252820 19094 net.cpp:157] Top shape: 1 6 48 48 (13824)
I1023 22:17:29.252828 19094 net.cpp:157] Top shape: 1 6 48 48 (13824)
I1023 22:17:29.252835 19094 net.cpp:165] Memory required for data: 11016604
I1023 22:17:29.252841 19094 layer_factory.hpp:77] Creating layer label_2_7x7_data_4_split
I1023 22:17:29.252854 19094 net.cpp:100] Creating Layer label_2_7x7_data_4_split
I1023 22:17:29.252861 19094 net.cpp:434] label_2_7x7_data_4_split <- label_2_7x7
I1023 22:17:29.252871 19094 net.cpp:408] label_2_7x7_data_4_split -> label_2_7x7_data_4_split_0
I1023 22:17:29.252884 19094 net.cpp:408] label_2_7x7_data_4_split -> label_2_7x7_data_4_split_1
I1023 22:17:29.252959 19094 net.cpp:150] Setting up label_2_7x7_data_4_split
I1023 22:17:29.252970 19094 net.cpp:157] Top shape: 1 6 48 48 (13824)
I1023 22:17:29.252981 19094 net.cpp:157] Top shape: 1 6 48 48 (13824)
I1023 22:17:29.252988 19094 net.cpp:165] Memory required for data: 11127196
I1023 22:17:29.252995 19094 layer_factory.hpp:77] Creating layer label_3_5x5_data_5_split
I1023 22:17:29.253005 19094 net.cpp:100] Creating Layer label_3_5x5_data_5_split
I1023 22:17:29.253011 19094 net.cpp:434] label_3_5x5_data_5_split <- label_3_5x5
I1023 22:17:29.253021 19094 net.cpp:408] label_3_5x5_data_5_split -> label_3_5x5_data_5_split_0
I1023 22:17:29.253031 19094 net.cpp:408] label_3_5x5_data_5_split -> label_3_5x5_data_5_split_1
I1023 22:17:29.253100 19094 net.cpp:150] Setting up label_3_5x5_data_5_split
I1023 22:17:29.253110 19094 net.cpp:157] Top shape: 1 6 24 24 (3456)
I1023 22:17:29.253119 19094 net.cpp:157] Top shape: 1 6 24 24 (3456)
I1023 22:17:29.253126 19094 net.cpp:165] Memory required for data: 11154844
I1023 22:17:29.253132 19094 layer_factory.hpp:77] Creating layer label_3_7x7_data_6_split
I1023 22:17:29.253141 19094 net.cpp:100] Creating Layer label_3_7x7_data_6_split
I1023 22:17:29.253149 19094 net.cpp:434] label_3_7x7_data_6_split <- label_3_7x7
I1023 22:17:29.253159 19094 net.cpp:408] label_3_7x7_data_6_split -> label_3_7x7_data_6_split_0
I1023 22:17:29.253170 19094 net.cpp:408] label_3_7x7_data_6_split -> label_3_7x7_data_6_split_1
I1023 22:17:29.253240 19094 net.cpp:150] Setting up label_3_7x7_data_6_split
I1023 22:17:29.253250 19094 net.cpp:157] Top shape: 1 6 24 24 (3456)
I1023 22:17:29.253259 19094 net.cpp:157] Top shape: 1 6 24 24 (3456)
I1023 22:17:29.253265 19094 net.cpp:165] Memory required for data: 11182492
I1023 22:17:29.253273 19094 layer_factory.hpp:77] Creating layer label_4_5x5_data_7_split
I1023 22:17:29.253281 19094 net.cpp:100] Creating Layer label_4_5x5_data_7_split
I1023 22:17:29.253288 19094 net.cpp:434] label_4_5x5_data_7_split <- label_4_5x5
I1023 22:17:29.253298 19094 net.cpp:408] label_4_5x5_data_7_split -> label_4_5x5_data_7_split_0
I1023 22:17:29.253307 19094 net.cpp:408] label_4_5x5_data_7_split -> label_4_5x5_data_7_split_1
I1023 22:17:29.253378 19094 net.cpp:150] Setting up label_4_5x5_data_7_split
I1023 22:17:29.253388 19094 net.cpp:157] Top shape: 1 6 12 12 (864)
I1023 22:17:29.253397 19094 net.cpp:157] Top shape: 1 6 12 12 (864)
I1023 22:17:29.253403 19094 net.cpp:165] Memory required for data: 11189404
I1023 22:17:29.253410 19094 layer_factory.hpp:77] Creating layer slice
I1023 22:17:29.253425 19094 net.cpp:100] Creating Layer slice
I1023 22:17:29.253432 19094 net.cpp:434] slice <- data
I1023 22:17:29.253443 19094 net.cpp:408] slice -> data123
I1023 22:17:29.253456 19094 net.cpp:408] slice -> ch4
I1023 22:17:29.253527 19094 net.cpp:150] Setting up slice
I1023 22:17:29.253537 19094 net.cpp:157] Top shape: 1 3 768 768 (1769472)
I1023 22:17:29.253546 19094 net.cpp:157] Top shape: 1 1 768 768 (589824)
I1023 22:17:29.253552 19094 net.cpp:165] Memory required for data: 20626588
I1023 22:17:29.253559 19094 layer_factory.hpp:77] Creating layer conv1_1
I1023 22:17:29.253581 19094 net.cpp:100] Creating Layer conv1_1
I1023 22:17:29.253587 19094 net.cpp:434] conv1_1 <- data123
I1023 22:17:29.253597 19094 net.cpp:408] conv1_1 -> conv1_1
I1023 22:17:29.261035 19094 net.cpp:150] Setting up conv1_1
I1023 22:17:29.261072 19094 net.cpp:157] Top shape: 1 64 768 768 (37748736)
I1023 22:17:29.261080 19094 net.cpp:165] Memory required for data: 171621532
I1023 22:17:29.261109 19094 layer_factory.hpp:77] Creating layer relu1_1
I1023 22:17:29.261129 19094 net.cpp:100] Creating Layer relu1_1
I1023 22:17:29.261138 19094 net.cpp:434] relu1_1 <- conv1_1
I1023 22:17:29.261149 19094 net.cpp:395] relu1_1 -> conv1_1 (in-place)
I1023 22:17:29.261574 19094 net.cpp:150] Setting up relu1_1
I1023 22:17:29.261590 19094 net.cpp:157] Top shape: 1 64 768 768 (37748736)
I1023 22:17:29.261598 19094 net.cpp:165] Memory required for data: 322616476
I1023 22:17:29.261605 19094 layer_factory.hpp:77] Creating layer conv1_2
I1023 22:17:29.261633 19094 net.cpp:100] Creating Layer conv1_2
I1023 22:17:29.261641 19094 net.cpp:434] conv1_2 <- conv1_1
I1023 22:17:29.261654 19094 net.cpp:408] conv1_2 -> conv1_2
I1023 22:17:29.264626 19094 net.cpp:150] Setting up conv1_2
I1023 22:17:29.264642 19094 net.cpp:157] Top shape: 1 64 768 768 (37748736)
I1023 22:17:29.264647 19094 net.cpp:165] Memory required for data: 473611420
I1023 22:17:29.264658 19094 layer_factory.hpp:77] Creating layer relu1_2
I1023 22:17:29.264668 19094 net.cpp:100] Creating Layer relu1_2
I1023 22:17:29.264673 19094 net.cpp:434] relu1_2 <- conv1_2
I1023 22:17:29.264678 19094 net.cpp:395] relu1_2 -> conv1_2 (in-place)
I1023 22:17:29.264875 19094 net.cpp:150] Setting up relu1_2
I1023 22:17:29.264884 19094 net.cpp:157] Top shape: 1 64 768 768 (37748736)
I1023 22:17:29.264888 19094 net.cpp:165] Memory required for data: 624606364
I1023 22:17:29.264891 19094 layer_factory.hpp:77] Creating layer pool1
I1023 22:17:29.264899 19094 net.cpp:100] Creating Layer pool1
I1023 22:17:29.264904 19094 net.cpp:434] pool1 <- conv1_2
I1023 22:17:29.264909 19094 net.cpp:408] pool1 -> pool1
I1023 22:17:29.264958 19094 net.cpp:150] Setting up pool1
I1023 22:17:29.264964 19094 net.cpp:157] Top shape: 1 64 384 384 (9437184)
I1023 22:17:29.264968 19094 net.cpp:165] Memory required for data: 662355100
I1023 22:17:29.264971 19094 layer_factory.hpp:77] Creating layer conv2_1
I1023 22:17:29.264981 19094 net.cpp:100] Creating Layer conv2_1
I1023 22:17:29.264986 19094 net.cpp:434] conv2_1 <- pool1
I1023 22:17:29.264991 19094 net.cpp:408] conv2_1 -> conv2_1
I1023 22:17:29.267645 19094 net.cpp:150] Setting up conv2_1
I1023 22:17:29.267663 19094 net.cpp:157] Top shape: 1 128 384 384 (18874368)
I1023 22:17:29.267668 19094 net.cpp:165] Memory required for data: 737852572
I1023 22:17:29.267679 19094 layer_factory.hpp:77] Creating layer relu2_1
I1023 22:17:29.267688 19094 net.cpp:100] Creating Layer relu2_1
I1023 22:17:29.267693 19094 net.cpp:434] relu2_1 <- conv2_1
I1023 22:17:29.267699 19094 net.cpp:395] relu2_1 -> conv2_1 (in-place)
I1023 22:17:29.267895 19094 net.cpp:150] Setting up relu2_1
I1023 22:17:29.267904 19094 net.cpp:157] Top shape: 1 128 384 384 (18874368)
I1023 22:17:29.267906 19094 net.cpp:165] Memory required for data: 813350044
I1023 22:17:29.267910 19094 layer_factory.hpp:77] Creating layer conv2_2
I1023 22:17:29.267922 19094 net.cpp:100] Creating Layer conv2_2
I1023 22:17:29.267925 19094 net.cpp:434] conv2_2 <- conv2_1
I1023 22:17:29.267932 19094 net.cpp:408] conv2_2 -> conv2_2
I1023 22:17:29.269726 19094 net.cpp:150] Setting up conv2_2
I1023 22:17:29.269739 19094 net.cpp:157] Top shape: 1 128 384 384 (18874368)
I1023 22:17:29.269743 19094 net.cpp:165] Memory required for data: 888847516
I1023 22:17:29.269752 19094 layer_factory.hpp:77] Creating layer relu2_2
I1023 22:17:29.269759 19094 net.cpp:100] Creating Layer relu2_2
I1023 22:17:29.269763 19094 net.cpp:434] relu2_2 <- conv2_2
I1023 22:17:29.269769 19094 net.cpp:395] relu2_2 -> conv2_2 (in-place)
I1023 22:17:29.270339 19094 net.cpp:150] Setting up relu2_2
I1023 22:17:29.270351 19094 net.cpp:157] Top shape: 1 128 384 384 (18874368)
I1023 22:17:29.270355 19094 net.cpp:165] Memory required for data: 964344988
I1023 22:17:29.270359 19094 layer_factory.hpp:77] Creating layer pool2
I1023 22:17:29.270368 19094 net.cpp:100] Creating Layer pool2
I1023 22:17:29.270372 19094 net.cpp:434] pool2 <- conv2_2
I1023 22:17:29.270378 19094 net.cpp:408] pool2 -> pool2
I1023 22:17:29.270426 19094 net.cpp:150] Setting up pool2
I1023 22:17:29.270433 19094 net.cpp:157] Top shape: 1 128 192 192 (4718592)
I1023 22:17:29.270437 19094 net.cpp:165] Memory required for data: 983219356
I1023 22:17:29.270440 19094 layer_factory.hpp:77] Creating layer conv3_1
I1023 22:17:29.270447 19094 net.cpp:100] Creating Layer conv3_1
I1023 22:17:29.270452 19094 net.cpp:434] conv3_1 <- pool2
I1023 22:17:29.270458 19094 net.cpp:408] conv3_1 -> conv3_1
I1023 22:17:29.273644 19094 net.cpp:150] Setting up conv3_1
I1023 22:17:29.273712 19094 net.cpp:157] Top shape: 1 256 192 192 (9437184)
I1023 22:17:29.273720 19094 net.cpp:165] Memory required for data: 1020968092
I1023 22:17:29.273737 19094 layer_factory.hpp:77] Creating layer relu3_1
I1023 22:17:29.273751 19094 net.cpp:100] Creating Layer relu3_1
I1023 22:17:29.273757 19094 net.cpp:434] relu3_1 <- conv3_1
I1023 22:17:29.273763 19094 net.cpp:395] relu3_1 -> conv3_1 (in-place)
I1023 22:17:29.274374 19094 net.cpp:150] Setting up relu3_1
I1023 22:17:29.274387 19094 net.cpp:157] Top shape: 1 256 192 192 (9437184)
I1023 22:17:29.274391 19094 net.cpp:165] Memory required for data: 1058716828
I1023 22:17:29.274395 19094 layer_factory.hpp:77] Creating layer conv3_2
I1023 22:17:29.274407 19094 net.cpp:100] Creating Layer conv3_2
I1023 22:17:29.274411 19094 net.cpp:434] conv3_2 <- conv3_1
I1023 22:17:29.274420 19094 net.cpp:408] conv3_2 -> conv3_2
I1023 22:17:29.277388 19094 net.cpp:150] Setting up conv3_2
I1023 22:17:29.277415 19094 net.cpp:157] Top shape: 1 256 192 192 (9437184)
I1023 22:17:29.277418 19094 net.cpp:165] Memory required for data: 1096465564
I1023 22:17:29.277427 19094 layer_factory.hpp:77] Creating layer relu3_2
I1023 22:17:29.277437 19094 net.cpp:100] Creating Layer relu3_2
I1023 22:17:29.277443 19094 net.cpp:434] relu3_2 <- conv3_2
I1023 22:17:29.277449 19094 net.cpp:395] relu3_2 -> conv3_2 (in-place)
I1023 22:17:29.277595 19094 net.cpp:150] Setting up relu3_2
I1023 22:17:29.277601 19094 net.cpp:157] Top shape: 1 256 192 192 (9437184)
I1023 22:17:29.277602 19094 net.cpp:165] Memory required for data: 1134214300
I1023 22:17:29.277606 19094 layer_factory.hpp:77] Creating layer conv3_3
I1023 22:17:29.277614 19094 net.cpp:100] Creating Layer conv3_3
I1023 22:17:29.277617 19094 net.cpp:434] conv3_3 <- conv3_2
I1023 22:17:29.277621 19094 net.cpp:408] conv3_3 -> conv3_3
I1023 22:17:29.280267 19094 net.cpp:150] Setting up conv3_3
I1023 22:17:29.280280 19094 net.cpp:157] Top shape: 1 256 192 192 (9437184)
I1023 22:17:29.280283 19094 net.cpp:165] Memory required for data: 1171963036
I1023 22:17:29.280289 19094 layer_factory.hpp:77] Creating layer relu3_3
I1023 22:17:29.280297 19094 net.cpp:100] Creating Layer relu3_3
I1023 22:17:29.280300 19094 net.cpp:434] relu3_3 <- conv3_3
I1023 22:17:29.280304 19094 net.cpp:395] relu3_3 -> conv3_3 (in-place)
I1023 22:17:29.280453 19094 net.cpp:150] Setting up relu3_3
I1023 22:17:29.280459 19094 net.cpp:157] Top shape: 1 256 192 192 (9437184)
I1023 22:17:29.280462 19094 net.cpp:165] Memory required for data: 1209711772
I1023 22:17:29.280465 19094 layer_factory.hpp:77] Creating layer pool3
I1023 22:17:29.280472 19094 net.cpp:100] Creating Layer pool3
I1023 22:17:29.280474 19094 net.cpp:434] pool3 <- conv3_3
I1023 22:17:29.280479 19094 net.cpp:408] pool3 -> pool3
I1023 22:17:29.280516 19094 net.cpp:150] Setting up pool3
I1023 22:17:29.280520 19094 net.cpp:157] Top shape: 1 256 96 96 (2359296)
I1023 22:17:29.280522 19094 net.cpp:165] Memory required for data: 1219148956
I1023 22:17:29.280525 19094 layer_factory.hpp:77] Creating layer pool3_pool3_0_split
I1023 22:17:29.280530 19094 net.cpp:100] Creating Layer pool3_pool3_0_split
I1023 22:17:29.280532 19094 net.cpp:434] pool3_pool3_0_split <- pool3
I1023 22:17:29.280537 19094 net.cpp:408] pool3_pool3_0_split -> pool3_pool3_0_split_0
I1023 22:17:29.280542 19094 net.cpp:408] pool3_pool3_0_split -> pool3_pool3_0_split_1
I1023 22:17:29.280573 19094 net.cpp:150] Setting up pool3_pool3_0_split
I1023 22:17:29.280577 19094 net.cpp:157] Top shape: 1 256 96 96 (2359296)
I1023 22:17:29.280581 19094 net.cpp:157] Top shape: 1 256 96 96 (2359296)
I1023 22:17:29.280583 19094 net.cpp:165] Memory required for data: 1238023324
I1023 22:17:29.280586 19094 layer_factory.hpp:77] Creating layer conv4_1
I1023 22:17:29.280592 19094 net.cpp:100] Creating Layer conv4_1
I1023 22:17:29.280596 19094 net.cpp:434] conv4_1 <- pool3_pool3_0_split_0
I1023 22:17:29.280599 19094 net.cpp:408] conv4_1 -> conv4_1
I1023 22:17:29.285174 19094 net.cpp:150] Setting up conv4_1
I1023 22:17:29.285194 19094 net.cpp:157] Top shape: 1 512 96 96 (4718592)
I1023 22:17:29.285198 19094 net.cpp:165] Memory required for data: 1256897692
I1023 22:17:29.285207 19094 layer_factory.hpp:77] Creating layer relu4_1
I1023 22:17:29.285218 19094 net.cpp:100] Creating Layer relu4_1
I1023 22:17:29.285224 19094 net.cpp:434] relu4_1 <- conv4_1
I1023 22:17:29.285231 19094 net.cpp:395] relu4_1 -> conv4_1 (in-place)
I1023 22:17:29.286854 19094 net.cpp:150] Setting up relu4_1
I1023 22:17:29.286875 19094 net.cpp:157] Top shape: 1 512 96 96 (4718592)
I1023 22:17:29.286880 19094 net.cpp:165] Memory required for data: 1275772060
I1023 22:17:29.286886 19094 layer_factory.hpp:77] Creating layer conv4_2
I1023 22:17:29.286904 19094 net.cpp:100] Creating Layer conv4_2
I1023 22:17:29.286911 19094 net.cpp:434] conv4_2 <- conv4_1
I1023 22:17:29.286919 19094 net.cpp:408] conv4_2 -> conv4_2
I1023 22:17:29.293366 19094 net.cpp:150] Setting up conv4_2
I1023 22:17:29.293397 19094 net.cpp:157] Top shape: 1 512 96 96 (4718592)
I1023 22:17:29.293401 19094 net.cpp:165] Memory required for data: 1294646428
I1023 22:17:29.293417 19094 layer_factory.hpp:77] Creating layer relu4_2
I1023 22:17:29.293428 19094 net.cpp:100] Creating Layer relu4_2
I1023 22:17:29.293434 19094 net.cpp:434] relu4_2 <- conv4_2
I1023 22:17:29.293440 19094 net.cpp:395] relu4_2 -> conv4_2 (in-place)
I1023 22:17:29.293597 19094 net.cpp:150] Setting up relu4_2
I1023 22:17:29.293607 19094 net.cpp:157] Top shape: 1 512 96 96 (4718592)
I1023 22:17:29.293610 19094 net.cpp:165] Memory required for data: 1313520796
I1023 22:17:29.293614 19094 layer_factory.hpp:77] Creating layer conv4_3
I1023 22:17:29.293622 19094 net.cpp:100] Creating Layer conv4_3
I1023 22:17:29.293627 19094 net.cpp:434] conv4_3 <- conv4_2
I1023 22:17:29.293633 19094 net.cpp:408] conv4_3 -> conv4_3
I1023 22:17:29.299932 19094 net.cpp:150] Setting up conv4_3
I1023 22:17:29.299962 19094 net.cpp:157] Top shape: 1 512 96 96 (4718592)
I1023 22:17:29.299965 19094 net.cpp:165] Memory required for data: 1332395164
I1023 22:17:29.299974 19094 layer_factory.hpp:77] Creating layer relu4_3
I1023 22:17:29.299990 19094 net.cpp:100] Creating Layer relu4_3
I1023 22:17:29.299996 19094 net.cpp:434] relu4_3 <- conv4_3
I1023 22:17:29.300002 19094 net.cpp:395] relu4_3 -> conv4_3 (in-place)
I1023 22:17:29.300503 19094 net.cpp:150] Setting up relu4_3
I1023 22:17:29.300513 19094 net.cpp:157] Top shape: 1 512 96 96 (4718592)
I1023 22:17:29.300516 19094 net.cpp:165] Memory required for data: 1351269532
I1023 22:17:29.300520 19094 layer_factory.hpp:77] Creating layer conv4_3_relu4_3_0_split
I1023 22:17:29.300528 19094 net.cpp:100] Creating Layer conv4_3_relu4_3_0_split
I1023 22:17:29.300530 19094 net.cpp:434] conv4_3_relu4_3_0_split <- conv4_3
I1023 22:17:29.300537 19094 net.cpp:408] conv4_3_relu4_3_0_split -> conv4_3_relu4_3_0_split_0
I1023 22:17:29.300544 19094 net.cpp:408] conv4_3_relu4_3_0_split -> conv4_3_relu4_3_0_split_1
I1023 22:17:29.300549 19094 net.cpp:408] conv4_3_relu4_3_0_split -> conv4_3_relu4_3_0_split_2
I1023 22:17:29.300555 19094 net.cpp:408] conv4_3_relu4_3_0_split -> conv4_3_relu4_3_0_split_3
I1023 22:17:29.300622 19094 net.cpp:150] Setting up conv4_3_relu4_3_0_split
I1023 22:17:29.300627 19094 net.cpp:157] Top shape: 1 512 96 96 (4718592)
I1023 22:17:29.300631 19094 net.cpp:157] Top shape: 1 512 96 96 (4718592)
I1023 22:17:29.300635 19094 net.cpp:157] Top shape: 1 512 96 96 (4718592)
I1023 22:17:29.300639 19094 net.cpp:157] Top shape: 1 512 96 96 (4718592)
I1023 22:17:29.300642 19094 net.cpp:165] Memory required for data: 1426767004
I1023 22:17:29.300645 19094 layer_factory.hpp:77] Creating layer buffer3
I1023 22:17:29.300655 19094 net.cpp:100] Creating Layer buffer3
I1023 22:17:29.300659 19094 net.cpp:434] buffer3 <- pool3_pool3_0_split_1
I1023 22:17:29.300665 19094 net.cpp:408] buffer3 -> buffer3
I1023 22:17:29.336148 19094 net.cpp:150] Setting up buffer3
I1023 22:17:29.336176 19094 net.cpp:157] Top shape: 1 512 96 96 (4718592)
I1023 22:17:29.336182 19094 net.cpp:165] Memory required for data: 1445641372
I1023 22:17:29.336195 19094 layer_factory.hpp:77] Creating layer relu_buffer3
I1023 22:17:29.336208 19094 net.cpp:100] Creating Layer relu_buffer3
I1023 22:17:29.336215 19094 net.cpp:434] relu_buffer3 <- buffer3
I1023 22:17:29.336226 19094 net.cpp:395] relu_buffer3 -> buffer3 (in-place)
I1023 22:17:29.336835 19094 net.cpp:150] Setting up relu_buffer3
I1023 22:17:29.336850 19094 net.cpp:157] Top shape: 1 512 96 96 (4718592)
I1023 22:17:29.336854 19094 net.cpp:165] Memory required for data: 1464515740
I1023 22:17:29.336859 19094 layer_factory.hpp:77] Creating layer buffer4
I1023 22:17:29.336877 19094 net.cpp:100] Creating Layer buffer4
I1023 22:17:29.336884 19094 net.cpp:434] buffer4 <- conv4_3_relu4_3_0_split_0
I1023 22:17:29.336894 19094 net.cpp:408] buffer4 -> buffer4
I1023 22:17:29.395654 19094 net.cpp:150] Setting up buffer4
I1023 22:17:29.395684 19094 net.cpp:157] Top shape: 1 512 96 96 (4718592)
I1023 22:17:29.395687 19094 net.cpp:165] Memory required for data: 1483390108
I1023 22:17:29.395696 19094 layer_factory.hpp:77] Creating layer relu_buffer4
I1023 22:17:29.395706 19094 net.cpp:100] Creating Layer relu_buffer4
I1023 22:17:29.395714 19094 net.cpp:434] relu_buffer4 <- buffer4
I1023 22:17:29.395721 19094 net.cpp:395] relu_buffer4 -> buffer4 (in-place)
I1023 22:17:29.395884 19094 net.cpp:150] Setting up relu_buffer4
I1023 22:17:29.395893 19094 net.cpp:157] Top shape: 1 512 96 96 (4718592)
I1023 22:17:29.395897 19094 net.cpp:165] Memory required for data: 1502264476
I1023 22:17:29.395900 19094 layer_factory.hpp:77] Creating layer fuse
I1023 22:17:29.395908 19094 net.cpp:100] Creating Layer fuse
I1023 22:17:29.395911 19094 net.cpp:434] fuse <- buffer3
I1023 22:17:29.395915 19094 net.cpp:434] fuse <- buffer4
I1023 22:17:29.395921 19094 net.cpp:408] fuse -> buffer
I1023 22:17:29.395947 19094 net.cpp:150] Setting up fuse
I1023 22:17:29.395954 19094 net.cpp:157] Top shape: 1 512 96 96 (4718592)
I1023 22:17:29.395957 19094 net.cpp:165] Memory required for data: 1521138844
I1023 22:17:29.395961 19094 layer_factory.hpp:77] Creating layer attention
I1023 22:17:29.395968 19094 net.cpp:100] Creating Layer attention
I1023 22:17:29.395972 19094 net.cpp:434] attention <- buffer
I1023 22:17:29.395977 19094 net.cpp:408] attention -> attention
I1023 22:17:29.397464 19094 net.cpp:150] Setting up attention
I1023 22:17:29.397477 19094 net.cpp:157] Top shape: 1 3 96 96 (27648)
I1023 22:17:29.397480 19094 net.cpp:165] Memory required for data: 1521249436
I1023 22:17:29.397488 19094 layer_factory.hpp:77] Creating layer attention_attention_0_split
I1023 22:17:29.397495 19094 net.cpp:100] Creating Layer attention_attention_0_split
I1023 22:17:29.397498 19094 net.cpp:434] attention_attention_0_split <- attention
I1023 22:17:29.397503 19094 net.cpp:408] attention_attention_0_split -> attention_attention_0_split_0
I1023 22:17:29.397509 19094 net.cpp:408] attention_attention_0_split -> attention_attention_0_split_1
I1023 22:17:29.397553 19094 net.cpp:150] Setting up attention_attention_0_split
I1023 22:17:29.397560 19094 net.cpp:157] Top shape: 1 3 96 96 (27648)
I1023 22:17:29.397564 19094 net.cpp:157] Top shape: 1 3 96 96 (27648)
I1023 22:17:29.397568 19094 net.cpp:165] Memory required for data: 1521470620
I1023 22:17:29.397572 19094 layer_factory.hpp:77] Creating layer ch4_pool
I1023 22:17:29.397578 19094 net.cpp:100] Creating Layer ch4_pool
I1023 22:17:29.397581 19094 net.cpp:434] ch4_pool <- ch4
I1023 22:17:29.397588 19094 net.cpp:408] ch4_pool -> ch4_pool
I1023 22:17:29.397629 19094 net.cpp:150] Setting up ch4_pool
I1023 22:17:29.397634 19094 net.cpp:157] Top shape: 1 1 96 96 (9216)
I1023 22:17:29.397637 19094 net.cpp:165] Memory required for data: 1521507484
I1023 22:17:29.397641 19094 layer_factory.hpp:77] Creating layer loss_attention
I1023 22:17:29.397647 19094 net.cpp:100] Creating Layer loss_attention
I1023 22:17:29.397651 19094 net.cpp:434] loss_attention <- attention_attention_0_split_0
I1023 22:17:29.397655 19094 net.cpp:434] loss_attention <- ch4_pool
I1023 22:17:29.397661 19094 net.cpp:408] loss_attention -> loss_attention
I1023 22:17:29.397675 19094 layer_factory.hpp:77] Creating layer loss_attention
I1023 22:17:29.397923 19094 weighted_softmax_loss_layer.cpp:25] mult: 0.5, id: 0
I1023 22:17:29.397958 19094 net.cpp:150] Setting up loss_attention
I1023 22:17:29.397966 19094 net.cpp:157] Top shape: (1)
I1023 22:17:29.397969 19094 net.cpp:160]     with loss weight 1
I1023 22:17:29.397974 19094 net.cpp:165] Memory required for data: 1521507488
I1023 22:17:29.397976 19094 layer_factory.hpp:77] Creating layer loss1_conv1
I1023 22:17:29.397985 19094 net.cpp:100] Creating Layer loss1_conv1
I1023 22:17:29.397989 19094 net.cpp:434] loss1_conv1 <- conv4_3_relu4_3_0_split_1
I1023 22:17:29.397995 19094 net.cpp:408] loss1_conv1 -> loss1_conv1
I1023 22:17:29.458870 19094 net.cpp:150] Setting up loss1_conv1
I1023 22:17:29.458896 19094 net.cpp:157] Top shape: 1 512 96 96 (4718592)
I1023 22:17:29.458900 19094 net.cpp:165] Memory required for data: 1540381856
I1023 22:17:29.458909 19094 layer_factory.hpp:77] Creating layer loss_relu1
I1023 22:17:29.458919 19094 net.cpp:100] Creating Layer loss_relu1
I1023 22:17:29.458923 19094 net.cpp:434] loss_relu1 <- loss1_conv1
I1023 22:17:29.458930 19094 net.cpp:395] loss_relu1 -> loss1_conv1 (in-place)
I1023 22:17:29.459081 19094 net.cpp:150] Setting up loss_relu1
I1023 22:17:29.459090 19094 net.cpp:157] Top shape: 1 512 96 96 (4718592)
I1023 22:17:29.459094 19094 net.cpp:165] Memory required for data: 1559256224
I1023 22:17:29.459096 19094 layer_factory.hpp:77] Creating layer loss1_conv1_loss_relu1_0_split
I1023 22:17:29.459103 19094 net.cpp:100] Creating Layer loss1_conv1_loss_relu1_0_split
I1023 22:17:29.459106 19094 net.cpp:434] loss1_conv1_loss_relu1_0_split <- loss1_conv1
I1023 22:17:29.459111 19094 net.cpp:408] loss1_conv1_loss_relu1_0_split -> loss1_conv1_loss_relu1_0_split_0
I1023 22:17:29.459117 19094 net.cpp:408] loss1_conv1_loss_relu1_0_split -> loss1_conv1_loss_relu1_0_split_1
I1023 22:17:29.459158 19094 net.cpp:150] Setting up loss1_conv1_loss_relu1_0_split
I1023 22:17:29.459164 19094 net.cpp:157] Top shape: 1 512 96 96 (4718592)
I1023 22:17:29.459168 19094 net.cpp:157] Top shape: 1 512 96 96 (4718592)
I1023 22:17:29.459172 19094 net.cpp:165] Memory required for data: 1597004960
I1023 22:17:29.459174 19094 layer_factory.hpp:77] Creating layer LFCN_1_5x5
I1023 22:17:29.459185 19094 net.cpp:100] Creating Layer LFCN_1_5x5
I1023 22:17:29.459189 19094 net.cpp:434] LFCN_1_5x5 <- loss1_conv1_loss_relu1_0_split_0
I1023 22:17:29.459195 19094 net.cpp:408] LFCN_1_5x5 -> LFCN_1_5x5
I1023 22:17:29.462966 19094 net.cpp:150] Setting up LFCN_1_5x5
I1023 22:17:29.462977 19094 net.cpp:157] Top shape: 1 9 96 96 (82944)
I1023 22:17:29.462980 19094 net.cpp:165] Memory required for data: 1597336736
I1023 22:17:29.462985 19094 layer_factory.hpp:77] Creating layer LFCN_1_5x5_LFCN_1_5x5_0_split
I1023 22:17:29.462990 19094 net.cpp:100] Creating Layer LFCN_1_5x5_LFCN_1_5x5_0_split
I1023 22:17:29.462993 19094 net.cpp:434] LFCN_1_5x5_LFCN_1_5x5_0_split <- LFCN_1_5x5
I1023 22:17:29.462998 19094 net.cpp:408] LFCN_1_5x5_LFCN_1_5x5_0_split -> LFCN_1_5x5_LFCN_1_5x5_0_split_0
I1023 22:17:29.463004 19094 net.cpp:408] LFCN_1_5x5_LFCN_1_5x5_0_split -> LFCN_1_5x5_LFCN_1_5x5_0_split_1
I1023 22:17:29.463008 19094 net.cpp:408] LFCN_1_5x5_LFCN_1_5x5_0_split -> LFCN_1_5x5_LFCN_1_5x5_0_split_2
I1023 22:17:29.463053 19094 net.cpp:150] Setting up LFCN_1_5x5_LFCN_1_5x5_0_split
I1023 22:17:29.463062 19094 net.cpp:157] Top shape: 1 9 96 96 (82944)
I1023 22:17:29.463064 19094 net.cpp:157] Top shape: 1 9 96 96 (82944)
I1023 22:17:29.463068 19094 net.cpp:157] Top shape: 1 9 96 96 (82944)
I1023 22:17:29.463070 19094 net.cpp:165] Memory required for data: 1598332064
I1023 22:17:29.463073 19094 layer_factory.hpp:77] Creating layer detection_loss_1_5x5
I1023 22:17:29.463078 19094 net.cpp:100] Creating Layer detection_loss_1_5x5
I1023 22:17:29.463081 19094 net.cpp:434] detection_loss_1_5x5 <- LFCN_1_5x5_LFCN_1_5x5_0_split_0
I1023 22:17:29.463085 19094 net.cpp:434] detection_loss_1_5x5 <- label_1_5x5_data_1_split_0
I1023 22:17:29.463090 19094 net.cpp:408] detection_loss_1_5x5 -> loss_1_5x5
I1023 22:17:29.463096 19094 layer_factory.hpp:77] Creating layer detection_loss_1_5x5
I1023 22:17:29.464299 19094 net.cpp:150] Setting up detection_loss_1_5x5
I1023 22:17:29.464313 19094 net.cpp:157] Top shape: 1 1 1 2 (2)
I1023 22:17:29.464315 19094 net.cpp:160]     with loss weight 0.9
I1023 22:17:29.464326 19094 net.cpp:165] Memory required for data: 1598332072
I1023 22:17:29.464329 19094 layer_factory.hpp:77] Creating layer detection_accuracy_1_5x5
I1023 22:17:29.464336 19094 net.cpp:100] Creating Layer detection_accuracy_1_5x5
I1023 22:17:29.464340 19094 net.cpp:434] detection_accuracy_1_5x5 <- LFCN_1_5x5_LFCN_1_5x5_0_split_1
I1023 22:17:29.464344 19094 net.cpp:434] detection_accuracy_1_5x5 <- label_1_5x5_data_1_split_1
I1023 22:17:29.464349 19094 net.cpp:408] detection_accuracy_1_5x5 -> accuracy_1_5x5
I1023 22:17:29.464357 19094 net.cpp:408] detection_accuracy_1_5x5 -> boxiou_1_5x5
I1023 22:17:29.464396 19094 net.cpp:150] Setting up detection_accuracy_1_5x5
I1023 22:17:29.464403 19094 net.cpp:157] Top shape: 1 1 1 2 (2)
I1023 22:17:29.464407 19094 net.cpp:157] Top shape: 1 1 1 1 (1)
I1023 22:17:29.464409 19094 net.cpp:165] Memory required for data: 1598332084
I1023 22:17:29.464413 19094 layer_factory.hpp:77] Creating layer LFCN_1_7x7
I1023 22:17:29.464423 19094 net.cpp:100] Creating Layer LFCN_1_7x7
I1023 22:17:29.464427 19094 net.cpp:434] LFCN_1_7x7 <- loss1_conv1_loss_relu1_0_split_1
I1023 22:17:29.464432 19094 net.cpp:408] LFCN_1_7x7 -> LFCN_1_7x7
I1023 22:17:29.471549 19094 net.cpp:150] Setting up LFCN_1_7x7
I1023 22:17:29.471565 19094 net.cpp:157] Top shape: 1 9 96 96 (82944)
I1023 22:17:29.471568 19094 net.cpp:165] Memory required for data: 1598663860
I1023 22:17:29.471575 19094 layer_factory.hpp:77] Creating layer LFCN_1_7x7_LFCN_1_7x7_0_split
I1023 22:17:29.471582 19094 net.cpp:100] Creating Layer LFCN_1_7x7_LFCN_1_7x7_0_split
I1023 22:17:29.471586 19094 net.cpp:434] LFCN_1_7x7_LFCN_1_7x7_0_split <- LFCN_1_7x7
I1023 22:17:29.471591 19094 net.cpp:408] LFCN_1_7x7_LFCN_1_7x7_0_split -> LFCN_1_7x7_LFCN_1_7x7_0_split_0
I1023 22:17:29.471599 19094 net.cpp:408] LFCN_1_7x7_LFCN_1_7x7_0_split -> LFCN_1_7x7_LFCN_1_7x7_0_split_1
I1023 22:17:29.471609 19094 net.cpp:408] LFCN_1_7x7_LFCN_1_7x7_0_split -> LFCN_1_7x7_LFCN_1_7x7_0_split_2
I1023 22:17:29.471663 19094 net.cpp:150] Setting up LFCN_1_7x7_LFCN_1_7x7_0_split
I1023 22:17:29.471670 19094 net.cpp:157] Top shape: 1 9 96 96 (82944)
I1023 22:17:29.471675 19094 net.cpp:157] Top shape: 1 9 96 96 (82944)
I1023 22:17:29.471678 19094 net.cpp:157] Top shape: 1 9 96 96 (82944)
I1023 22:17:29.471681 19094 net.cpp:165] Memory required for data: 1599659188
I1023 22:17:29.471685 19094 layer_factory.hpp:77] Creating layer detection_loss_1_7x7
I1023 22:17:29.471693 19094 net.cpp:100] Creating Layer detection_loss_1_7x7
I1023 22:17:29.471695 19094 net.cpp:434] detection_loss_1_7x7 <- LFCN_1_7x7_LFCN_1_7x7_0_split_0
I1023 22:17:29.471700 19094 net.cpp:434] detection_loss_1_7x7 <- label_1_7x7_data_2_split_0
I1023 22:17:29.471704 19094 net.cpp:408] detection_loss_1_7x7 -> loss_1_7x7
I1023 22:17:29.471712 19094 layer_factory.hpp:77] Creating layer detection_loss_1_7x7
I1023 22:17:29.472416 19094 net.cpp:150] Setting up detection_loss_1_7x7
I1023 22:17:29.472429 19094 net.cpp:157] Top shape: 1 1 1 2 (2)
I1023 22:17:29.472431 19094 net.cpp:160]     with loss weight 0.9
I1023 22:17:29.472440 19094 net.cpp:165] Memory required for data: 1599659196
I1023 22:17:29.472442 19094 layer_factory.hpp:77] Creating layer detection_accuracy_1_7x7
I1023 22:17:29.472450 19094 net.cpp:100] Creating Layer detection_accuracy_1_7x7
I1023 22:17:29.472455 19094 net.cpp:434] detection_accuracy_1_7x7 <- LFCN_1_7x7_LFCN_1_7x7_0_split_1
I1023 22:17:29.472458 19094 net.cpp:434] detection_accuracy_1_7x7 <- label_1_7x7_data_2_split_1
I1023 22:17:29.472465 19094 net.cpp:408] detection_accuracy_1_7x7 -> accuracy_1_7x7
I1023 22:17:29.472470 19094 net.cpp:408] detection_accuracy_1_7x7 -> boxiou_1_7x7
I1023 22:17:29.472508 19094 net.cpp:150] Setting up detection_accuracy_1_7x7
I1023 22:17:29.472515 19094 net.cpp:157] Top shape: 1 1 1 2 (2)
I1023 22:17:29.472519 19094 net.cpp:157] Top shape: 1 1 1 1 (1)
I1023 22:17:29.472522 19094 net.cpp:165] Memory required for data: 1599659208
I1023 22:17:29.472524 19094 layer_factory.hpp:77] Creating layer pool4
I1023 22:17:29.472532 19094 net.cpp:100] Creating Layer pool4
I1023 22:17:29.472535 19094 net.cpp:434] pool4 <- conv4_3_relu4_3_0_split_2
I1023 22:17:29.472539 19094 net.cpp:408] pool4 -> pool4
I1023 22:17:29.472581 19094 net.cpp:150] Setting up pool4
I1023 22:17:29.472589 19094 net.cpp:157] Top shape: 1 512 48 48 (1179648)
I1023 22:17:29.472591 19094 net.cpp:165] Memory required for data: 1604377800
I1023 22:17:29.472594 19094 layer_factory.hpp:77] Creating layer conv5_1
I1023 22:17:29.472602 19094 net.cpp:100] Creating Layer conv5_1
I1023 22:17:29.472605 19094 net.cpp:434] conv5_1 <- pool4
I1023 22:17:29.472611 19094 net.cpp:408] conv5_1 -> conv5_1
I1023 22:17:29.478047 19094 net.cpp:150] Setting up conv5_1
I1023 22:17:29.478086 19094 net.cpp:157] Top shape: 1 512 48 48 (1179648)
I1023 22:17:29.478091 19094 net.cpp:165] Memory required for data: 1609096392
I1023 22:17:29.478107 19094 layer_factory.hpp:77] Creating layer relu5_1
I1023 22:17:29.478119 19094 net.cpp:100] Creating Layer relu5_1
I1023 22:17:29.478126 19094 net.cpp:434] relu5_1 <- conv5_1
I1023 22:17:29.478132 19094 net.cpp:395] relu5_1 -> conv5_1 (in-place)
I1023 22:17:29.478818 19094 net.cpp:150] Setting up relu5_1
I1023 22:17:29.478840 19094 net.cpp:157] Top shape: 1 512 48 48 (1179648)
I1023 22:17:29.478843 19094 net.cpp:165] Memory required for data: 1613814984
I1023 22:17:29.478847 19094 layer_factory.hpp:77] Creating layer conv5_2
I1023 22:17:29.478855 19094 net.cpp:100] Creating Layer conv5_2
I1023 22:17:29.478859 19094 net.cpp:434] conv5_2 <- conv5_1
I1023 22:17:29.478866 19094 net.cpp:408] conv5_2 -> conv5_2
I1023 22:17:29.484948 19094 net.cpp:150] Setting up conv5_2
I1023 22:17:29.484982 19094 net.cpp:157] Top shape: 1 512 48 48 (1179648)
I1023 22:17:29.484985 19094 net.cpp:165] Memory required for data: 1618533576
I1023 22:17:29.484993 19094 layer_factory.hpp:77] Creating layer relu5_2
I1023 22:17:29.485004 19094 net.cpp:100] Creating Layer relu5_2
I1023 22:17:29.485009 19094 net.cpp:434] relu5_2 <- conv5_2
I1023 22:17:29.485016 19094 net.cpp:395] relu5_2 -> conv5_2 (in-place)
I1023 22:17:29.485175 19094 net.cpp:150] Setting up relu5_2
I1023 22:17:29.485184 19094 net.cpp:157] Top shape: 1 512 48 48 (1179648)
I1023 22:17:29.485188 19094 net.cpp:165] Memory required for data: 1623252168
I1023 22:17:29.485191 19094 layer_factory.hpp:77] Creating layer conv5_3
I1023 22:17:29.485201 19094 net.cpp:100] Creating Layer conv5_3
I1023 22:17:29.485205 19094 net.cpp:434] conv5_3 <- conv5_2
I1023 22:17:29.485211 19094 net.cpp:408] conv5_3 -> conv5_3
I1023 22:17:29.491609 19094 net.cpp:150] Setting up conv5_3
I1023 22:17:29.491642 19094 net.cpp:157] Top shape: 1 512 48 48 (1179648)
I1023 22:17:29.491647 19094 net.cpp:165] Memory required for data: 1627970760
I1023 22:17:29.491655 19094 layer_factory.hpp:77] Creating layer relu5_3
I1023 22:17:29.491668 19094 net.cpp:100] Creating Layer relu5_3
I1023 22:17:29.491675 19094 net.cpp:434] relu5_3 <- conv5_3
I1023 22:17:29.491681 19094 net.cpp:395] relu5_3 -> conv5_3 (in-place)
I1023 22:17:29.491856 19094 net.cpp:150] Setting up relu5_3
I1023 22:17:29.491865 19094 net.cpp:157] Top shape: 1 512 48 48 (1179648)
I1023 22:17:29.491868 19094 net.cpp:165] Memory required for data: 1632689352
I1023 22:17:29.491873 19094 layer_factory.hpp:77] Creating layer conv5_3_relu5_3_0_split
I1023 22:17:29.491878 19094 net.cpp:100] Creating Layer conv5_3_relu5_3_0_split
I1023 22:17:29.491881 19094 net.cpp:434] conv5_3_relu5_3_0_split <- conv5_3
I1023 22:17:29.491888 19094 net.cpp:408] conv5_3_relu5_3_0_split -> conv5_3_relu5_3_0_split_0
I1023 22:17:29.491895 19094 net.cpp:408] conv5_3_relu5_3_0_split -> conv5_3_relu5_3_0_split_1
I1023 22:17:29.491900 19094 net.cpp:408] conv5_3_relu5_3_0_split -> conv5_3_relu5_3_0_split_2
I1023 22:17:29.491955 19094 net.cpp:150] Setting up conv5_3_relu5_3_0_split
I1023 22:17:29.491962 19094 net.cpp:157] Top shape: 1 512 48 48 (1179648)
I1023 22:17:29.491966 19094 net.cpp:157] Top shape: 1 512 48 48 (1179648)
I1023 22:17:29.491971 19094 net.cpp:157] Top shape: 1 512 48 48 (1179648)
I1023 22:17:29.491973 19094 net.cpp:165] Memory required for data: 1646845128
I1023 22:17:29.491976 19094 layer_factory.hpp:77] Creating layer LFCN_2_5x5
I1023 22:17:29.491988 19094 net.cpp:100] Creating Layer LFCN_2_5x5
I1023 22:17:29.491992 19094 net.cpp:434] LFCN_2_5x5 <- conv5_3_relu5_3_0_split_0
I1023 22:17:29.491998 19094 net.cpp:408] LFCN_2_5x5 -> LFCN_2_5x5
I1023 22:17:29.495802 19094 net.cpp:150] Setting up LFCN_2_5x5
I1023 22:17:29.495813 19094 net.cpp:157] Top shape: 1 9 48 48 (20736)
I1023 22:17:29.495816 19094 net.cpp:165] Memory required for data: 1646928072
I1023 22:17:29.495821 19094 layer_factory.hpp:77] Creating layer LFCN_2_5x5_LFCN_2_5x5_0_split
I1023 22:17:29.495827 19094 net.cpp:100] Creating Layer LFCN_2_5x5_LFCN_2_5x5_0_split
I1023 22:17:29.495831 19094 net.cpp:434] LFCN_2_5x5_LFCN_2_5x5_0_split <- LFCN_2_5x5
I1023 22:17:29.495834 19094 net.cpp:408] LFCN_2_5x5_LFCN_2_5x5_0_split -> LFCN_2_5x5_LFCN_2_5x5_0_split_0
I1023 22:17:29.495841 19094 net.cpp:408] LFCN_2_5x5_LFCN_2_5x5_0_split -> LFCN_2_5x5_LFCN_2_5x5_0_split_1
I1023 22:17:29.495844 19094 net.cpp:408] LFCN_2_5x5_LFCN_2_5x5_0_split -> LFCN_2_5x5_LFCN_2_5x5_0_split_2
I1023 22:17:29.495890 19094 net.cpp:150] Setting up LFCN_2_5x5_LFCN_2_5x5_0_split
I1023 22:17:29.495895 19094 net.cpp:157] Top shape: 1 9 48 48 (20736)
I1023 22:17:29.495899 19094 net.cpp:157] Top shape: 1 9 48 48 (20736)
I1023 22:17:29.495903 19094 net.cpp:157] Top shape: 1 9 48 48 (20736)
I1023 22:17:29.495906 19094 net.cpp:165] Memory required for data: 1647176904
I1023 22:17:29.495909 19094 layer_factory.hpp:77] Creating layer detection_loss_2_5x5
I1023 22:17:29.495923 19094 net.cpp:100] Creating Layer detection_loss_2_5x5
I1023 22:17:29.495925 19094 net.cpp:434] detection_loss_2_5x5 <- LFCN_2_5x5_LFCN_2_5x5_0_split_0
I1023 22:17:29.495930 19094 net.cpp:434] detection_loss_2_5x5 <- label_2_5x5_data_3_split_0
I1023 22:17:29.495936 19094 net.cpp:408] detection_loss_2_5x5 -> loss_2_5x5
I1023 22:17:29.495945 19094 layer_factory.hpp:77] Creating layer detection_loss_2_5x5
I1023 22:17:29.496282 19094 net.cpp:150] Setting up detection_loss_2_5x5
I1023 22:17:29.496291 19094 net.cpp:157] Top shape: 1 1 1 2 (2)
I1023 22:17:29.496295 19094 net.cpp:160]     with loss weight 1
I1023 22:17:29.496305 19094 net.cpp:165] Memory required for data: 1647176912
I1023 22:17:29.496309 19094 layer_factory.hpp:77] Creating layer detection_accuracy_2_5x5
I1023 22:17:29.496315 19094 net.cpp:100] Creating Layer detection_accuracy_2_5x5
I1023 22:17:29.496318 19094 net.cpp:434] detection_accuracy_2_5x5 <- LFCN_2_5x5_LFCN_2_5x5_0_split_1
I1023 22:17:29.496323 19094 net.cpp:434] detection_accuracy_2_5x5 <- label_2_5x5_data_3_split_1
I1023 22:17:29.496330 19094 net.cpp:408] detection_accuracy_2_5x5 -> accuracy_2_5x5
I1023 22:17:29.496336 19094 net.cpp:408] detection_accuracy_2_5x5 -> boxiou_2_5x5
I1023 22:17:29.496377 19094 net.cpp:150] Setting up detection_accuracy_2_5x5
I1023 22:17:29.496383 19094 net.cpp:157] Top shape: 1 1 1 2 (2)
I1023 22:17:29.496387 19094 net.cpp:157] Top shape: 1 1 1 1 (1)
I1023 22:17:29.496390 19094 net.cpp:165] Memory required for data: 1647176924
I1023 22:17:29.496393 19094 layer_factory.hpp:77] Creating layer LFCN_2_7x7
I1023 22:17:29.496402 19094 net.cpp:100] Creating Layer LFCN_2_7x7
I1023 22:17:29.496407 19094 net.cpp:434] LFCN_2_7x7 <- conv5_3_relu5_3_0_split_1
I1023 22:17:29.496412 19094 net.cpp:408] LFCN_2_7x7 -> LFCN_2_7x7
I1023 22:17:29.503295 19094 net.cpp:150] Setting up LFCN_2_7x7
I1023 22:17:29.503307 19094 net.cpp:157] Top shape: 1 9 48 48 (20736)
I1023 22:17:29.503310 19094 net.cpp:165] Memory required for data: 1647259868
I1023 22:17:29.503315 19094 layer_factory.hpp:77] Creating layer LFCN_2_7x7_LFCN_2_7x7_0_split
I1023 22:17:29.503321 19094 net.cpp:100] Creating Layer LFCN_2_7x7_LFCN_2_7x7_0_split
I1023 22:17:29.503326 19094 net.cpp:434] LFCN_2_7x7_LFCN_2_7x7_0_split <- LFCN_2_7x7
I1023 22:17:29.503330 19094 net.cpp:408] LFCN_2_7x7_LFCN_2_7x7_0_split -> LFCN_2_7x7_LFCN_2_7x7_0_split_0
I1023 22:17:29.503335 19094 net.cpp:408] LFCN_2_7x7_LFCN_2_7x7_0_split -> LFCN_2_7x7_LFCN_2_7x7_0_split_1
I1023 22:17:29.503340 19094 net.cpp:408] LFCN_2_7x7_LFCN_2_7x7_0_split -> LFCN_2_7x7_LFCN_2_7x7_0_split_2
I1023 22:17:29.503386 19094 net.cpp:150] Setting up LFCN_2_7x7_LFCN_2_7x7_0_split
I1023 22:17:29.503391 19094 net.cpp:157] Top shape: 1 9 48 48 (20736)
I1023 22:17:29.503394 19094 net.cpp:157] Top shape: 1 9 48 48 (20736)
I1023 22:17:29.503397 19094 net.cpp:157] Top shape: 1 9 48 48 (20736)
I1023 22:17:29.503401 19094 net.cpp:165] Memory required for data: 1647508700
I1023 22:17:29.503403 19094 layer_factory.hpp:77] Creating layer detection_loss_2_7x7
I1023 22:17:29.503408 19094 net.cpp:100] Creating Layer detection_loss_2_7x7
I1023 22:17:29.503412 19094 net.cpp:434] detection_loss_2_7x7 <- LFCN_2_7x7_LFCN_2_7x7_0_split_0
I1023 22:17:29.503417 19094 net.cpp:434] detection_loss_2_7x7 <- label_2_7x7_data_4_split_0
I1023 22:17:29.503422 19094 net.cpp:408] detection_loss_2_7x7 -> loss_2_7x7
I1023 22:17:29.503427 19094 layer_factory.hpp:77] Creating layer detection_loss_2_7x7
I1023 22:17:29.503756 19094 net.cpp:150] Setting up detection_loss_2_7x7
I1023 22:17:29.503767 19094 net.cpp:157] Top shape: 1 1 1 2 (2)
I1023 22:17:29.503769 19094 net.cpp:160]     with loss weight 1
I1023 22:17:29.503775 19094 net.cpp:165] Memory required for data: 1647508708
I1023 22:17:29.503778 19094 layer_factory.hpp:77] Creating layer detection_accuracy_2_7x7
I1023 22:17:29.503784 19094 net.cpp:100] Creating Layer detection_accuracy_2_7x7
I1023 22:17:29.503788 19094 net.cpp:434] detection_accuracy_2_7x7 <- LFCN_2_7x7_LFCN_2_7x7_0_split_1
I1023 22:17:29.503793 19094 net.cpp:434] detection_accuracy_2_7x7 <- label_2_7x7_data_4_split_1
I1023 22:17:29.503798 19094 net.cpp:408] detection_accuracy_2_7x7 -> accuracy_2_7x7
I1023 22:17:29.503804 19094 net.cpp:408] detection_accuracy_2_7x7 -> boxiou_2_7x7
I1023 22:17:29.503844 19094 net.cpp:150] Setting up detection_accuracy_2_7x7
I1023 22:17:29.503851 19094 net.cpp:157] Top shape: 1 1 1 2 (2)
I1023 22:17:29.503855 19094 net.cpp:157] Top shape: 1 1 1 1 (1)
I1023 22:17:29.503859 19094 net.cpp:165] Memory required for data: 1647508720
I1023 22:17:29.503861 19094 layer_factory.hpp:77] Creating layer pool5
I1023 22:17:29.503867 19094 net.cpp:100] Creating Layer pool5
I1023 22:17:29.503871 19094 net.cpp:434] pool5 <- conv5_3_relu5_3_0_split_2
I1023 22:17:29.503876 19094 net.cpp:408] pool5 -> pool5
I1023 22:17:29.503916 19094 net.cpp:150] Setting up pool5
I1023 22:17:29.503921 19094 net.cpp:157] Top shape: 1 512 24 24 (294912)
I1023 22:17:29.503924 19094 net.cpp:165] Memory required for data: 1648688368
I1023 22:17:29.503927 19094 layer_factory.hpp:77] Creating layer conv6_1
I1023 22:17:29.503935 19094 net.cpp:100] Creating Layer conv6_1
I1023 22:17:29.503939 19094 net.cpp:434] conv6_1 <- pool5
I1023 22:17:29.503945 19094 net.cpp:408] conv6_1 -> conv6_1
I1023 22:17:29.579097 19094 net.cpp:150] Setting up conv6_1
I1023 22:17:29.579124 19094 net.cpp:157] Top shape: 1 512 24 24 (294912)
I1023 22:17:29.579129 19094 net.cpp:165] Memory required for data: 1649868016
I1023 22:17:29.579138 19094 layer_factory.hpp:77] Creating layer relu6_1
I1023 22:17:29.579150 19094 net.cpp:100] Creating Layer relu6_1
I1023 22:17:29.579156 19094 net.cpp:434] relu6_1 <- conv6_1
I1023 22:17:29.579164 19094 net.cpp:395] relu6_1 -> conv6_1 (in-place)
I1023 22:17:29.579689 19094 net.cpp:150] Setting up relu6_1
I1023 22:17:29.579701 19094 net.cpp:157] Top shape: 1 512 24 24 (294912)
I1023 22:17:29.579704 19094 net.cpp:165] Memory required for data: 1651047664
I1023 22:17:29.579707 19094 layer_factory.hpp:77] Creating layer conv6_1_relu6_1_0_split
I1023 22:17:29.579715 19094 net.cpp:100] Creating Layer conv6_1_relu6_1_0_split
I1023 22:17:29.579720 19094 net.cpp:434] conv6_1_relu6_1_0_split <- conv6_1
I1023 22:17:29.579725 19094 net.cpp:408] conv6_1_relu6_1_0_split -> conv6_1_relu6_1_0_split_0
I1023 22:17:29.579731 19094 net.cpp:408] conv6_1_relu6_1_0_split -> conv6_1_relu6_1_0_split_1
I1023 22:17:29.579737 19094 net.cpp:408] conv6_1_relu6_1_0_split -> conv6_1_relu6_1_0_split_2
I1023 22:17:29.579797 19094 net.cpp:150] Setting up conv6_1_relu6_1_0_split
I1023 22:17:29.579802 19094 net.cpp:157] Top shape: 1 512 24 24 (294912)
I1023 22:17:29.579807 19094 net.cpp:157] Top shape: 1 512 24 24 (294912)
I1023 22:17:29.579810 19094 net.cpp:157] Top shape: 1 512 24 24 (294912)
I1023 22:17:29.579813 19094 net.cpp:165] Memory required for data: 1654586608
I1023 22:17:29.579816 19094 layer_factory.hpp:77] Creating layer LFCN_3_5x5
I1023 22:17:29.579828 19094 net.cpp:100] Creating Layer LFCN_3_5x5
I1023 22:17:29.579833 19094 net.cpp:434] LFCN_3_5x5 <- conv6_1_relu6_1_0_split_0
I1023 22:17:29.579838 19094 net.cpp:408] LFCN_3_5x5 -> LFCN_3_5x5
I1023 22:17:29.583600 19094 net.cpp:150] Setting up LFCN_3_5x5
I1023 22:17:29.583617 19094 net.cpp:157] Top shape: 1 9 24 24 (5184)
I1023 22:17:29.583621 19094 net.cpp:165] Memory required for data: 1654607344
I1023 22:17:29.583627 19094 layer_factory.hpp:77] Creating layer LFCN_3_5x5_LFCN_3_5x5_0_split
I1023 22:17:29.583636 19094 net.cpp:100] Creating Layer LFCN_3_5x5_LFCN_3_5x5_0_split
I1023 22:17:29.583640 19094 net.cpp:434] LFCN_3_5x5_LFCN_3_5x5_0_split <- LFCN_3_5x5
I1023 22:17:29.583645 19094 net.cpp:408] LFCN_3_5x5_LFCN_3_5x5_0_split -> LFCN_3_5x5_LFCN_3_5x5_0_split_0
I1023 22:17:29.583653 19094 net.cpp:408] LFCN_3_5x5_LFCN_3_5x5_0_split -> LFCN_3_5x5_LFCN_3_5x5_0_split_1
I1023 22:17:29.583662 19094 net.cpp:408] LFCN_3_5x5_LFCN_3_5x5_0_split -> LFCN_3_5x5_LFCN_3_5x5_0_split_2
I1023 22:17:29.583719 19094 net.cpp:150] Setting up LFCN_3_5x5_LFCN_3_5x5_0_split
I1023 22:17:29.583725 19094 net.cpp:157] Top shape: 1 9 24 24 (5184)
I1023 22:17:29.583729 19094 net.cpp:157] Top shape: 1 9 24 24 (5184)
I1023 22:17:29.583734 19094 net.cpp:157] Top shape: 1 9 24 24 (5184)
I1023 22:17:29.583736 19094 net.cpp:165] Memory required for data: 1654669552
I1023 22:17:29.583739 19094 layer_factory.hpp:77] Creating layer detection_loss_3_5x5
I1023 22:17:29.583747 19094 net.cpp:100] Creating Layer detection_loss_3_5x5
I1023 22:17:29.583751 19094 net.cpp:434] detection_loss_3_5x5 <- LFCN_3_5x5_LFCN_3_5x5_0_split_0
I1023 22:17:29.583756 19094 net.cpp:434] detection_loss_3_5x5 <- label_3_5x5_data_5_split_0
I1023 22:17:29.583762 19094 net.cpp:408] detection_loss_3_5x5 -> loss_3_5x5
I1023 22:17:29.583771 19094 layer_factory.hpp:77] Creating layer detection_loss_3_5x5
I1023 22:17:29.584537 19094 net.cpp:150] Setting up detection_loss_3_5x5
I1023 22:17:29.584549 19094 net.cpp:157] Top shape: 1 1 1 2 (2)
I1023 22:17:29.584553 19094 net.cpp:160]     with loss weight 1
I1023 22:17:29.584564 19094 net.cpp:165] Memory required for data: 1654669560
I1023 22:17:29.584568 19094 layer_factory.hpp:77] Creating layer detection_accuracy_3_5x5
I1023 22:17:29.584574 19094 net.cpp:100] Creating Layer detection_accuracy_3_5x5
I1023 22:17:29.584579 19094 net.cpp:434] detection_accuracy_3_5x5 <- LFCN_3_5x5_LFCN_3_5x5_0_split_1
I1023 22:17:29.584584 19094 net.cpp:434] detection_accuracy_3_5x5 <- label_3_5x5_data_5_split_1
I1023 22:17:29.584591 19094 net.cpp:408] detection_accuracy_3_5x5 -> accuracy_3_5x5
I1023 22:17:29.584599 19094 net.cpp:408] detection_accuracy_3_5x5 -> boxiou_3_5x5
I1023 22:17:29.584641 19094 net.cpp:150] Setting up detection_accuracy_3_5x5
I1023 22:17:29.584648 19094 net.cpp:157] Top shape: 1 1 1 2 (2)
I1023 22:17:29.584651 19094 net.cpp:157] Top shape: 1 1 1 1 (1)
I1023 22:17:29.584655 19094 net.cpp:165] Memory required for data: 1654669572
I1023 22:17:29.584657 19094 layer_factory.hpp:77] Creating layer LFCN_3_7x7
I1023 22:17:29.584668 19094 net.cpp:100] Creating Layer LFCN_3_7x7
I1023 22:17:29.584673 19094 net.cpp:434] LFCN_3_7x7 <- conv6_1_relu6_1_0_split_1
I1023 22:17:29.584679 19094 net.cpp:408] LFCN_3_7x7 -> LFCN_3_7x7
I1023 22:17:29.591946 19094 net.cpp:150] Setting up LFCN_3_7x7
I1023 22:17:29.591961 19094 net.cpp:157] Top shape: 1 9 24 24 (5184)
I1023 22:17:29.591965 19094 net.cpp:165] Memory required for data: 1654690308
I1023 22:17:29.591970 19094 layer_factory.hpp:77] Creating layer LFCN_3_7x7_LFCN_3_7x7_0_split
I1023 22:17:29.591976 19094 net.cpp:100] Creating Layer LFCN_3_7x7_LFCN_3_7x7_0_split
I1023 22:17:29.591981 19094 net.cpp:434] LFCN_3_7x7_LFCN_3_7x7_0_split <- LFCN_3_7x7
I1023 22:17:29.591987 19094 net.cpp:408] LFCN_3_7x7_LFCN_3_7x7_0_split -> LFCN_3_7x7_LFCN_3_7x7_0_split_0
I1023 22:17:29.591994 19094 net.cpp:408] LFCN_3_7x7_LFCN_3_7x7_0_split -> LFCN_3_7x7_LFCN_3_7x7_0_split_1
I1023 22:17:29.591997 19094 net.cpp:408] LFCN_3_7x7_LFCN_3_7x7_0_split -> LFCN_3_7x7_LFCN_3_7x7_0_split_2
I1023 22:17:29.592046 19094 net.cpp:150] Setting up LFCN_3_7x7_LFCN_3_7x7_0_split
I1023 22:17:29.592051 19094 net.cpp:157] Top shape: 1 9 24 24 (5184)
I1023 22:17:29.592054 19094 net.cpp:157] Top shape: 1 9 24 24 (5184)
I1023 22:17:29.592057 19094 net.cpp:157] Top shape: 1 9 24 24 (5184)
I1023 22:17:29.592061 19094 net.cpp:165] Memory required for data: 1654752516
I1023 22:17:29.592064 19094 layer_factory.hpp:77] Creating layer detection_loss_3_7x7
I1023 22:17:29.592072 19094 net.cpp:100] Creating Layer detection_loss_3_7x7
I1023 22:17:29.592077 19094 net.cpp:434] detection_loss_3_7x7 <- LFCN_3_7x7_LFCN_3_7x7_0_split_0
I1023 22:17:29.592082 19094 net.cpp:434] detection_loss_3_7x7 <- label_3_7x7_data_6_split_0
I1023 22:17:29.592088 19094 net.cpp:408] detection_loss_3_7x7 -> loss_3_7x7
I1023 22:17:29.592097 19094 layer_factory.hpp:77] Creating layer detection_loss_3_7x7
I1023 22:17:29.592445 19094 net.cpp:150] Setting up detection_loss_3_7x7
I1023 22:17:29.592455 19094 net.cpp:157] Top shape: 1 1 1 2 (2)
I1023 22:17:29.592458 19094 net.cpp:160]     with loss weight 1
I1023 22:17:29.592465 19094 net.cpp:165] Memory required for data: 1654752524
I1023 22:17:29.592469 19094 layer_factory.hpp:77] Creating layer detection_accuracy_3_7x7
I1023 22:17:29.592474 19094 net.cpp:100] Creating Layer detection_accuracy_3_7x7
I1023 22:17:29.592478 19094 net.cpp:434] detection_accuracy_3_7x7 <- LFCN_3_7x7_LFCN_3_7x7_0_split_1
I1023 22:17:29.592483 19094 net.cpp:434] detection_accuracy_3_7x7 <- label_3_7x7_data_6_split_1
I1023 22:17:29.592487 19094 net.cpp:408] detection_accuracy_3_7x7 -> accuracy_3_7x7
I1023 22:17:29.592494 19094 net.cpp:408] detection_accuracy_3_7x7 -> boxiou_3_7x7
I1023 22:17:29.592535 19094 net.cpp:150] Setting up detection_accuracy_3_7x7
I1023 22:17:29.592542 19094 net.cpp:157] Top shape: 1 1 1 2 (2)
I1023 22:17:29.592546 19094 net.cpp:157] Top shape: 1 1 1 1 (1)
I1023 22:17:29.592548 19094 net.cpp:165] Memory required for data: 1654752536
I1023 22:17:29.592551 19094 layer_factory.hpp:77] Creating layer pool6
I1023 22:17:29.592558 19094 net.cpp:100] Creating Layer pool6
I1023 22:17:29.592564 19094 net.cpp:434] pool6 <- conv6_1_relu6_1_0_split_2
I1023 22:17:29.592568 19094 net.cpp:408] pool6 -> pool6
I1023 22:17:29.592608 19094 net.cpp:150] Setting up pool6
I1023 22:17:29.592614 19094 net.cpp:157] Top shape: 1 512 12 12 (73728)
I1023 22:17:29.592617 19094 net.cpp:165] Memory required for data: 1655047448
I1023 22:17:29.592620 19094 layer_factory.hpp:77] Creating layer LFCN_4_5x5
I1023 22:17:29.592628 19094 net.cpp:100] Creating Layer LFCN_4_5x5
I1023 22:17:29.592631 19094 net.cpp:434] LFCN_4_5x5 <- pool6
I1023 22:17:29.592638 19094 net.cpp:408] LFCN_4_5x5 -> LFCN_4_5x5
I1023 22:17:29.596541 19094 net.cpp:150] Setting up LFCN_4_5x5
I1023 22:17:29.596554 19094 net.cpp:157] Top shape: 1 9 12 12 (1296)
I1023 22:17:29.596556 19094 net.cpp:165] Memory required for data: 1655052632
I1023 22:17:29.596561 19094 layer_factory.hpp:77] Creating layer LFCN_4_5x5_LFCN_4_5x5_0_split
I1023 22:17:29.596567 19094 net.cpp:100] Creating Layer LFCN_4_5x5_LFCN_4_5x5_0_split
I1023 22:17:29.596570 19094 net.cpp:434] LFCN_4_5x5_LFCN_4_5x5_0_split <- LFCN_4_5x5
I1023 22:17:29.596575 19094 net.cpp:408] LFCN_4_5x5_LFCN_4_5x5_0_split -> LFCN_4_5x5_LFCN_4_5x5_0_split_0
I1023 22:17:29.596580 19094 net.cpp:408] LFCN_4_5x5_LFCN_4_5x5_0_split -> LFCN_4_5x5_LFCN_4_5x5_0_split_1
I1023 22:17:29.596585 19094 net.cpp:408] LFCN_4_5x5_LFCN_4_5x5_0_split -> LFCN_4_5x5_LFCN_4_5x5_0_split_2
I1023 22:17:29.596633 19094 net.cpp:150] Setting up LFCN_4_5x5_LFCN_4_5x5_0_split
I1023 22:17:29.596639 19094 net.cpp:157] Top shape: 1 9 12 12 (1296)
I1023 22:17:29.596643 19094 net.cpp:157] Top shape: 1 9 12 12 (1296)
I1023 22:17:29.596647 19094 net.cpp:157] Top shape: 1 9 12 12 (1296)
I1023 22:17:29.596650 19094 net.cpp:165] Memory required for data: 1655068184
I1023 22:17:29.596653 19094 layer_factory.hpp:77] Creating layer detection_loss_4_5x5
I1023 22:17:29.596658 19094 net.cpp:100] Creating Layer detection_loss_4_5x5
I1023 22:17:29.596662 19094 net.cpp:434] detection_loss_4_5x5 <- LFCN_4_5x5_LFCN_4_5x5_0_split_0
I1023 22:17:29.596666 19094 net.cpp:434] detection_loss_4_5x5 <- label_4_5x5_data_7_split_0
I1023 22:17:29.596671 19094 net.cpp:408] detection_loss_4_5x5 -> loss_4_5x5
I1023 22:17:29.596678 19094 layer_factory.hpp:77] Creating layer detection_loss_4_5x5
I1023 22:17:29.597024 19094 net.cpp:150] Setting up detection_loss_4_5x5
I1023 22:17:29.597034 19094 net.cpp:157] Top shape: 1 1 1 2 (2)
I1023 22:17:29.597038 19094 net.cpp:160]     with loss weight 1
I1023 22:17:29.597043 19094 net.cpp:165] Memory required for data: 1655068192
I1023 22:17:29.597046 19094 layer_factory.hpp:77] Creating layer detection_accuracy_4_5x5
I1023 22:17:29.597054 19094 net.cpp:100] Creating Layer detection_accuracy_4_5x5
I1023 22:17:29.597057 19094 net.cpp:434] detection_accuracy_4_5x5 <- LFCN_4_5x5_LFCN_4_5x5_0_split_1
I1023 22:17:29.597062 19094 net.cpp:434] detection_accuracy_4_5x5 <- label_4_5x5_data_7_split_1
I1023 22:17:29.597069 19094 net.cpp:408] detection_accuracy_4_5x5 -> accuracy_4_5x5
I1023 22:17:29.597074 19094 net.cpp:408] detection_accuracy_4_5x5 -> boxiou_4_5x5
I1023 22:17:29.597115 19094 net.cpp:150] Setting up detection_accuracy_4_5x5
I1023 22:17:29.597121 19094 net.cpp:157] Top shape: 1 1 1 2 (2)
I1023 22:17:29.597126 19094 net.cpp:157] Top shape: 1 1 1 1 (1)
I1023 22:17:29.597128 19094 net.cpp:165] Memory required for data: 1655068204
I1023 22:17:29.597131 19094 layer_factory.hpp:77] Creating layer proposals
I1023 22:17:29.597138 19094 net.cpp:100] Creating Layer proposals
I1023 22:17:29.597143 19094 net.cpp:434] proposals <- LFCN_1_5x5_LFCN_1_5x5_0_split_2
I1023 22:17:29.597147 19094 net.cpp:434] proposals <- LFCN_1_7x7_LFCN_1_7x7_0_split_2
I1023 22:17:29.597151 19094 net.cpp:434] proposals <- LFCN_2_5x5_LFCN_2_5x5_0_split_2
I1023 22:17:29.597154 19094 net.cpp:434] proposals <- LFCN_2_7x7_LFCN_2_7x7_0_split_2
I1023 22:17:29.597159 19094 net.cpp:434] proposals <- LFCN_3_5x5_LFCN_3_5x5_0_split_2
I1023 22:17:29.597162 19094 net.cpp:434] proposals <- LFCN_3_7x7_LFCN_3_7x7_0_split_2
I1023 22:17:29.597165 19094 net.cpp:434] proposals <- LFCN_4_5x5_LFCN_4_5x5_0_split_2
I1023 22:17:29.597172 19094 net.cpp:408] proposals -> proposals
I1023 22:17:29.597196 19094 net.cpp:150] Setting up proposals
I1023 22:17:29.597203 19094 net.cpp:157] Top shape: 1 5 1 1 (5)
I1023 22:17:29.597206 19094 net.cpp:165] Memory required for data: 1655068224
I1023 22:17:29.597209 19094 layer_factory.hpp:77] Creating layer proposal_info
I1023 22:17:29.597218 19094 net.cpp:100] Creating Layer proposal_info
I1023 22:17:29.597223 19094 net.cpp:434] proposal_info <- proposals
I1023 22:17:29.597227 19094 net.cpp:434] proposal_info <- gt_boxes
I1023 22:17:29.597232 19094 net.cpp:408] proposal_info -> rois
I1023 22:17:29.597239 19094 net.cpp:408] proposal_info -> proposal_labels
I1023 22:17:29.597247 19094 net.cpp:408] proposal_info -> proposal_targets
I1023 22:17:29.597254 19094 net.cpp:408] proposal_info -> box_inside_weights
I1023 22:17:29.597261 19094 net.cpp:408] proposal_info -> box_outside_weights
I1023 22:17:29.597267 19094 net.cpp:408] proposal_info -> match_gt_boxes
I1023 22:17:29.597364 19094 net.cpp:150] Setting up proposal_info
I1023 22:17:29.597370 19094 net.cpp:157] Top shape: 128 5 1 1 (640)
I1023 22:17:29.597375 19094 net.cpp:157] Top shape: 128 1 1 1 (128)
I1023 22:17:29.597379 19094 net.cpp:157] Top shape: 128 20 1 1 (2560)
I1023 22:17:29.597383 19094 net.cpp:157] Top shape: 128 20 1 1 (2560)
I1023 22:17:29.597388 19094 net.cpp:157] Top shape: 128 20 1 1 (2560)
I1023 22:17:29.597391 19094 net.cpp:157] Top shape: 128 6 1 1 (768)
I1023 22:17:29.597394 19094 net.cpp:165] Memory required for data: 1655105088
I1023 22:17:29.597398 19094 layer_factory.hpp:77] Creating layer rois_proposal_info_0_split
I1023 22:17:29.597403 19094 net.cpp:100] Creating Layer rois_proposal_info_0_split
I1023 22:17:29.597406 19094 net.cpp:434] rois_proposal_info_0_split <- rois
I1023 22:17:29.597411 19094 net.cpp:408] rois_proposal_info_0_split -> rois_proposal_info_0_split_0
I1023 22:17:29.597419 19094 net.cpp:408] rois_proposal_info_0_split -> rois_proposal_info_0_split_1
I1023 22:17:29.597424 19094 net.cpp:408] rois_proposal_info_0_split -> rois_proposal_info_0_split_2
I1023 22:17:29.597473 19094 net.cpp:150] Setting up rois_proposal_info_0_split
I1023 22:17:29.597479 19094 net.cpp:157] Top shape: 128 5 1 1 (640)
I1023 22:17:29.597483 19094 net.cpp:157] Top shape: 128 5 1 1 (640)
I1023 22:17:29.597487 19094 net.cpp:157] Top shape: 128 5 1 1 (640)
I1023 22:17:29.597491 19094 net.cpp:165] Memory required for data: 1655112768
I1023 22:17:29.597494 19094 layer_factory.hpp:77] Creating layer proposal_labels_proposal_info_1_split
I1023 22:17:29.597498 19094 net.cpp:100] Creating Layer proposal_labels_proposal_info_1_split
I1023 22:17:29.597502 19094 net.cpp:434] proposal_labels_proposal_info_1_split <- proposal_labels
I1023 22:17:29.597507 19094 net.cpp:408] proposal_labels_proposal_info_1_split -> proposal_labels_proposal_info_1_split_0
I1023 22:17:29.597512 19094 net.cpp:408] proposal_labels_proposal_info_1_split -> proposal_labels_proposal_info_1_split_1
I1023 22:17:29.597558 19094 net.cpp:150] Setting up proposal_labels_proposal_info_1_split
I1023 22:17:29.597563 19094 net.cpp:157] Top shape: 128 1 1 1 (128)
I1023 22:17:29.597568 19094 net.cpp:157] Top shape: 128 1 1 1 (128)
I1023 22:17:29.597573 19094 net.cpp:165] Memory required for data: 1655113792
I1023 22:17:29.597575 19094 layer_factory.hpp:77] Creating layer softmax
I1023 22:17:29.597580 19094 net.cpp:100] Creating Layer softmax
I1023 22:17:29.597584 19094 net.cpp:434] softmax <- attention_attention_0_split_1
I1023 22:17:29.597590 19094 net.cpp:408] softmax -> softmax_attention
I1023 22:17:29.597826 19094 net.cpp:150] Setting up softmax
I1023 22:17:29.597836 19094 net.cpp:157] Top shape: 1 3 96 96 (27648)
I1023 22:17:29.597841 19094 net.cpp:165] Memory required for data: 1655224384
I1023 22:17:29.597846 19094 layer_factory.hpp:77] Creating layer slice1
I1023 22:17:29.597854 19094 net.cpp:100] Creating Layer slice1
I1023 22:17:29.597860 19094 net.cpp:434] slice1 <- softmax_attention
I1023 22:17:29.597867 19094 net.cpp:408] slice1 -> bg
I1023 22:17:29.597877 19094 net.cpp:408] slice1 -> attention1
I1023 22:17:29.597925 19094 net.cpp:150] Setting up slice1
I1023 22:17:29.597932 19094 net.cpp:157] Top shape: 1 1 96 96 (9216)
I1023 22:17:29.597939 19094 net.cpp:157] Top shape: 1 2 96 96 (18432)
I1023 22:17:29.597942 19094 net.cpp:165] Memory required for data: 1655334976
I1023 22:17:29.597946 19094 layer_factory.hpp:77] Creating layer silence
I1023 22:17:29.597954 19094 net.cpp:100] Creating Layer silence
I1023 22:17:29.597959 19094 net.cpp:434] silence <- bg
I1023 22:17:29.597965 19094 net.cpp:150] Setting up silence
I1023 22:17:29.597968 19094 net.cpp:165] Memory required for data: 1655334976
I1023 22:17:29.597972 19094 layer_factory.hpp:77] Creating layer conv4_3_new
I1023 22:17:29.597977 19094 net.cpp:100] Creating Layer conv4_3_new
I1023 22:17:29.597983 19094 net.cpp:434] conv4_3_new <- conv4_3_relu4_3_0_split_3
I1023 22:17:29.597988 19094 net.cpp:434] conv4_3_new <- attention1
I1023 22:17:29.597995 19094 net.cpp:408] conv4_3_new -> conv4_3_new
I1023 22:17:29.598026 19094 net.cpp:150] Setting up conv4_3_new
I1023 22:17:29.598033 19094 net.cpp:157] Top shape: 1 514 96 96 (4737024)
I1023 22:17:29.598038 19094 net.cpp:165] Memory required for data: 1674283072
I1023 22:17:29.598042 19094 layer_factory.hpp:77] Creating layer conv4_3_2x
I1023 22:17:29.598048 19094 net.cpp:100] Creating Layer conv4_3_2x
I1023 22:17:29.598052 19094 net.cpp:434] conv4_3_2x <- conv4_3_new
I1023 22:17:29.598059 19094 net.cpp:408] conv4_3_2x -> conv4_3_2x
I1023 22:17:29.598561 19094 net.cpp:150] Setting up conv4_3_2x
I1023 22:17:29.598567 19094 net.cpp:157] Top shape: 1 514 192 192 (18948096)
I1023 22:17:29.598570 19094 net.cpp:165] Memory required for data: 1750075456
I1023 22:17:29.598575 19094 layer_factory.hpp:77] Creating layer conv4_3_2x_conv4_3_2x_0_split
I1023 22:17:29.598580 19094 net.cpp:100] Creating Layer conv4_3_2x_conv4_3_2x_0_split
I1023 22:17:29.598584 19094 net.cpp:434] conv4_3_2x_conv4_3_2x_0_split <- conv4_3_2x
I1023 22:17:29.598588 19094 net.cpp:408] conv4_3_2x_conv4_3_2x_0_split -> conv4_3_2x_conv4_3_2x_0_split_0
I1023 22:17:29.598594 19094 net.cpp:408] conv4_3_2x_conv4_3_2x_0_split -> conv4_3_2x_conv4_3_2x_0_split_1
I1023 22:17:29.598631 19094 net.cpp:150] Setting up conv4_3_2x_conv4_3_2x_0_split
I1023 22:17:29.598637 19094 net.cpp:157] Top shape: 1 514 192 192 (18948096)
I1023 22:17:29.598641 19094 net.cpp:157] Top shape: 1 514 192 192 (18948096)
I1023 22:17:29.598645 19094 net.cpp:165] Memory required for data: 1901660224
I1023 22:17:29.598649 19094 layer_factory.hpp:77] Creating layer roi_pool_org
I1023 22:17:29.598654 19094 net.cpp:100] Creating Layer roi_pool_org
I1023 22:17:29.598659 19094 net.cpp:434] roi_pool_org <- conv4_3_2x_conv4_3_2x_0_split_0
I1023 22:17:29.598664 19094 net.cpp:434] roi_pool_org <- rois_proposal_info_0_split_0
I1023 22:17:29.598668 19094 net.cpp:408] roi_pool_org -> roi_pool_org
I1023 22:17:29.598675 19094 roi_pooling_layer.cpp:33] Spatial scale: 0.25
I1023 22:17:29.598716 19094 net.cpp:150] Setting up roi_pool_org
I1023 22:17:29.598722 19094 net.cpp:157] Top shape: 128 514 7 7 (3223808)
I1023 22:17:29.598726 19094 net.cpp:165] Memory required for data: 1914555456
I1023 22:17:29.598728 19094 layer_factory.hpp:77] Creating layer roi_pool_ctx
I1023 22:17:29.598734 19094 net.cpp:100] Creating Layer roi_pool_ctx
I1023 22:17:29.598738 19094 net.cpp:434] roi_pool_ctx <- conv4_3_2x_conv4_3_2x_0_split_1
I1023 22:17:29.598742 19094 net.cpp:434] roi_pool_ctx <- rois_proposal_info_0_split_1
I1023 22:17:29.598748 19094 net.cpp:408] roi_pool_ctx -> roi_pool_ctx
I1023 22:17:29.598754 19094 roi_pooling_layer.cpp:33] Spatial scale: 0.25
I1023 22:17:29.598791 19094 net.cpp:150] Setting up roi_pool_ctx
I1023 22:17:29.598798 19094 net.cpp:157] Top shape: 128 514 7 7 (3223808)
I1023 22:17:29.598800 19094 net.cpp:165] Memory required for data: 1927450688
I1023 22:17:29.598803 19094 layer_factory.hpp:77] Creating layer roi_pool
I1023 22:17:29.598809 19094 net.cpp:100] Creating Layer roi_pool
I1023 22:17:29.598814 19094 net.cpp:434] roi_pool <- roi_pool_org
I1023 22:17:29.598817 19094 net.cpp:434] roi_pool <- roi_pool_ctx
I1023 22:17:29.598822 19094 net.cpp:408] roi_pool -> roi_pool
I1023 22:17:29.598845 19094 net.cpp:150] Setting up roi_pool
I1023 22:17:29.598850 19094 net.cpp:157] Top shape: 128 1028 7 7 (6447616)
I1023 22:17:29.598853 19094 net.cpp:165] Memory required for data: 1953241152
I1023 22:17:29.598856 19094 layer_factory.hpp:77] Creating layer roi_c1
I1023 22:17:29.598865 19094 net.cpp:100] Creating Layer roi_c1
I1023 22:17:29.598870 19094 net.cpp:434] roi_c1 <- roi_pool
I1023 22:17:29.598875 19094 net.cpp:408] roi_c1 -> roi_c1
I1023 22:17:29.714836 19094 net.cpp:150] Setting up roi_c1
I1023 22:17:29.714862 19094 net.cpp:157] Top shape: 128 512 5 5 (1638400)
I1023 22:17:29.714866 19094 net.cpp:165] Memory required for data: 1959794752
I1023 22:17:29.714874 19094 layer_factory.hpp:77] Creating layer roi_c1_relu
I1023 22:17:29.714885 19094 net.cpp:100] Creating Layer roi_c1_relu
I1023 22:17:29.714890 19094 net.cpp:434] roi_c1_relu <- roi_c1
I1023 22:17:29.714896 19094 net.cpp:395] roi_c1_relu -> roi_c1 (in-place)
I1023 22:17:29.715400 19094 net.cpp:150] Setting up roi_c1_relu
I1023 22:17:29.715412 19094 net.cpp:157] Top shape: 128 512 5 5 (1638400)
I1023 22:17:29.715416 19094 net.cpp:165] Memory required for data: 1966348352
I1023 22:17:29.715420 19094 layer_factory.hpp:77] Creating layer fc6
I1023 22:17:29.715428 19094 net.cpp:100] Creating Layer fc6
I1023 22:17:29.715432 19094 net.cpp:434] fc6 <- roi_c1
I1023 22:17:29.715440 19094 net.cpp:408] fc6 -> fc6
I1023 22:17:30.958894 19094 net.cpp:150] Setting up fc6
I1023 22:17:30.958930 19094 net.cpp:157] Top shape: 128 4096 (524288)
I1023 22:17:30.958933 19094 net.cpp:165] Memory required for data: 1968445504
I1023 22:17:30.958942 19094 layer_factory.hpp:77] Creating layer relu6
I1023 22:17:30.958953 19094 net.cpp:100] Creating Layer relu6
I1023 22:17:30.958961 19094 net.cpp:434] relu6 <- fc6
I1023 22:17:30.958966 19094 net.cpp:395] relu6 -> fc6 (in-place)
I1023 22:17:30.959197 19094 net.cpp:150] Setting up relu6
I1023 22:17:30.959205 19094 net.cpp:157] Top shape: 128 4096 (524288)
I1023 22:17:30.959208 19094 net.cpp:165] Memory required for data: 1970542656
I1023 22:17:30.959211 19094 layer_factory.hpp:77] Creating layer drop6
I1023 22:17:30.959218 19094 net.cpp:100] Creating Layer drop6
I1023 22:17:30.959221 19094 net.cpp:434] drop6 <- fc6
I1023 22:17:30.959225 19094 net.cpp:395] drop6 -> fc6 (in-place)
I1023 22:17:30.959249 19094 net.cpp:150] Setting up drop6
I1023 22:17:30.959255 19094 net.cpp:157] Top shape: 128 4096 (524288)
I1023 22:17:30.959259 19094 net.cpp:165] Memory required for data: 1972639808
I1023 22:17:30.959261 19094 layer_factory.hpp:77] Creating layer fc6_drop6_0_split
I1023 22:17:30.959266 19094 net.cpp:100] Creating Layer fc6_drop6_0_split
I1023 22:17:30.959270 19094 net.cpp:434] fc6_drop6_0_split <- fc6
I1023 22:17:30.959275 19094 net.cpp:408] fc6_drop6_0_split -> fc6_drop6_0_split_0
I1023 22:17:30.959281 19094 net.cpp:408] fc6_drop6_0_split -> fc6_drop6_0_split_1
I1023 22:17:30.959321 19094 net.cpp:150] Setting up fc6_drop6_0_split
I1023 22:17:30.959328 19094 net.cpp:157] Top shape: 128 4096 (524288)
I1023 22:17:30.959332 19094 net.cpp:157] Top shape: 128 4096 (524288)
I1023 22:17:30.959336 19094 net.cpp:165] Memory required for data: 1976834112
I1023 22:17:30.959338 19094 layer_factory.hpp:77] Creating layer cls_pred
I1023 22:17:30.959345 19094 net.cpp:100] Creating Layer cls_pred
I1023 22:17:30.959348 19094 net.cpp:434] cls_pred <- fc6_drop6_0_split_0
I1023 22:17:30.959355 19094 net.cpp:408] cls_pred -> cls_pred
I1023 22:17:30.959985 19094 net.cpp:150] Setting up cls_pred
I1023 22:17:30.959991 19094 net.cpp:157] Top shape: 128 5 (640)
I1023 22:17:30.959995 19094 net.cpp:165] Memory required for data: 1976836672
I1023 22:17:30.960000 19094 layer_factory.hpp:77] Creating layer cls_pred_cls_pred_0_split
I1023 22:17:30.960007 19094 net.cpp:100] Creating Layer cls_pred_cls_pred_0_split
I1023 22:17:30.960011 19094 net.cpp:434] cls_pred_cls_pred_0_split <- cls_pred
I1023 22:17:30.960014 19094 net.cpp:408] cls_pred_cls_pred_0_split -> cls_pred_cls_pred_0_split_0
I1023 22:17:30.960021 19094 net.cpp:408] cls_pred_cls_pred_0_split -> cls_pred_cls_pred_0_split_1
I1023 22:17:30.960054 19094 net.cpp:150] Setting up cls_pred_cls_pred_0_split
I1023 22:17:30.960062 19094 net.cpp:157] Top shape: 128 5 (640)
I1023 22:17:30.960065 19094 net.cpp:157] Top shape: 128 5 (640)
I1023 22:17:30.960068 19094 net.cpp:165] Memory required for data: 1976841792
I1023 22:17:30.960072 19094 layer_factory.hpp:77] Creating layer bbox_pred
I1023 22:17:30.960077 19094 net.cpp:100] Creating Layer bbox_pred
I1023 22:17:30.960079 19094 net.cpp:434] bbox_pred <- fc6_drop6_0_split_1
I1023 22:17:30.960088 19094 net.cpp:408] bbox_pred -> bbox_pred
I1023 22:17:30.962301 19094 net.cpp:150] Setting up bbox_pred
I1023 22:17:30.962307 19094 net.cpp:157] Top shape: 128 20 (2560)
I1023 22:17:30.962309 19094 net.cpp:165] Memory required for data: 1976852032
I1023 22:17:30.962314 19094 layer_factory.hpp:77] Creating layer bbox_pred_bbox_pred_0_split
I1023 22:17:30.962318 19094 net.cpp:100] Creating Layer bbox_pred_bbox_pred_0_split
I1023 22:17:30.962321 19094 net.cpp:434] bbox_pred_bbox_pred_0_split <- bbox_pred
I1023 22:17:30.962325 19094 net.cpp:408] bbox_pred_bbox_pred_0_split -> bbox_pred_bbox_pred_0_split_0
I1023 22:17:30.962330 19094 net.cpp:408] bbox_pred_bbox_pred_0_split -> bbox_pred_bbox_pred_0_split_1
I1023 22:17:30.962358 19094 net.cpp:150] Setting up bbox_pred_bbox_pred_0_split
I1023 22:17:30.962363 19094 net.cpp:157] Top shape: 128 20 (2560)
I1023 22:17:30.962366 19094 net.cpp:157] Top shape: 128 20 (2560)
I1023 22:17:30.962368 19094 net.cpp:165] Memory required for data: 1976872512
I1023 22:17:30.962370 19094 layer_factory.hpp:77] Creating layer loss_cls
I1023 22:17:30.962376 19094 net.cpp:100] Creating Layer loss_cls
I1023 22:17:30.962379 19094 net.cpp:434] loss_cls <- cls_pred_cls_pred_0_split_0
I1023 22:17:30.962384 19094 net.cpp:434] loss_cls <- proposal_labels_proposal_info_1_split_0
…
