…
    downsample_rate: 32
    downsample_rate: 32
    downsample_rate: 64
    coord_num: 4
    field_h: 60
    field_h: 84
    field_h: 120
    field_h: 168
    field_h: 240
    field_h: 336
    field_h: 480
    field_w: 60
    field_w: 84
    field_w: 120
    field_w: 168
    field_w: 240
    field_w: 336
    field_w: 480
    fg_threshold: 0.5
    resize_width: 1344
    resize_height: 768
    crop_width: 768
    crop_height: 768
    do_multiple_scale: true
    min_scale: 60
    max_scale: 480
    min_gt_height: 25
    shuffle: true
    output_gt_boxes: true
  }
}
layer {
  name: "conv1_1"
  type: "Convolution"
  bottom: "data"
  top: "conv1_1"
  param {
    lr_mult: 0
    decay_mult: 0
  }
  param {
    lr_mult: 0
    decay_mult: 0
  }
  convolution_param {
    num_output: 64
    pad: 1
    kernel_size: 3
  }
}
layer {
  name: "relu1_1"
  type: "ReLU"
  bottom: "conv1_1"
  top: "conv1_1"
}
layer {
  name: "conv1_2"
  type: "Convolution"
  bottom: "conv1_1"
  top: "conv1_2"
  param {
    lr_mult: 0
    decay_mult: 0
  }
  param {
    lr_mult: 0
    decay_mult: 0
  }
  convolution_param {
    num_output: 64
    pad: 1
    kernel_size: 3
  }
}
layer {
  name: "relu1_2"
  type: "ReLU"
  bottom: "conv1_2"
  top: "conv1_2"
}
layer {
  name: "pool1"
  type: "Pooling"
  bottom: "conv1_2"
  top: "pool1"
  pooling_param {
    pool: MAX
    kernel_size: 2
    stride: 2
  }
}
layer {
  name: "conv2_1"
  type: "Convolution"
  bottom: "pool1"
  top: "conv2_1"
  param {
    lr_mult: 0
    decay_mult: 0
  }
  param {
    lr_mult: 0
    decay_mult: 0
  }
  convolution_param {
    num_output: 128
    pad: 1
    kernel_size: 3
  }
}
layer {
  name: "relu2_1"
  type: "ReLU"
  bottom: "conv2_1"
  top: "conv2_1"
}
layer {
  name: "conv2_2"
  type: "Convolution"
  bottom: "conv2_1"
  top: "conv2_2"
  param {
    lr_mult: 0
    decay_mult: 0
  }
  param {
    lr_mult: 0
    decay_mult: 0
  }
  convolution_param {
    num_output: 128
    pad: 1
    kernel_size: 3
  }
}
layer {
  name: "relu2_2"
  type: "ReLU"
  bottom: "conv2_2"
  top: "conv2_2"
}
layer {
  name: "pool2"
  type: "Pooling"
  bottom: "conv2_2"
  top: "pool2"
  pooling_param {
    pool: MAX
    kernel_size: 2
    stride: 2
  }
}
layer {
  name: "conv3_1"
  type: "Convolution"
  bottom: "pool2"
  top: "conv3_1"
  convolution_param {
    num_output: 256
    pad: 1
    kernel_size: 3
  }
}
layer {
  name: "relu3_1"
  type: "ReLU"
  bottom: "conv3_1"
  top: "conv3_1"
}
layer {
  name: "conv3_2"
  type: "Convolution"
  bottom: "conv3_1"
  top: "conv3_2"
  convolution_param {
    num_output: 256
    pad: 1
    kernel_size: 3
  }
}
layer {
  name: "relu3_2"
  type: "ReLU"
  bottom: "conv3_2"
  top: "conv3_2"
}
layer {
  name: "conv3_3"
  type: "Convolution"
  bottom: "conv3_2"
  top: "conv3_3"
  convolution_param {
    num_output: 256
    pad: 1
    kernel_size: 3
  }
}
layer {
  name: "relu3_3"
  type: "ReLU"
  bottom: "conv3_3"
  top: "conv3_3"
}
layer {
  name: "pool3"
  type: "Pooling"
  bottom: "conv3_3"
  top: "pool3"
  pooling_param {
    pool: MAX
    kernel_size: 2
    stride: 2
  }
}
layer {
  name: "G"
  type: "Convolution"
  bottom: "pool3"
  top: "G"
  param {
    lr_mult: 1
    decay_mult: 1
  }
  param {
    lr_mult: 2
    decay_mult: 0
  }
  convolution_param {
    num_output: 128
    kernel_size: 1
    weight_filler {
      type: "gaussian"
      std: 0.01
    }
    bias_filler {
      type: "constant"
      value: 0
    }
  }
}
layer {
  name: "Theta"
  type: "Convolution"
  bottom: "pool3"
  top: "Theta"
  param {
    lr_mult: 1
    decay_mult: 1
  }
  param {
    lr_mult: 2
    decay_mult: 0
  }
  convolution_param {
    num_output: 128
    kernel_size: 1
    weight_filler {
      type: "gaussian"
      std: 0.01
    }
    bias_filler {
      type: "constant"
      value: 0
    }
  }
}
layer {
  name: "Phi"
  type: "Convolution"
  bottom: "pool3"
  top: "Phi"
  param {
    lr_mult: 1
    decay_mult: 1
  }
  param {
    lr_mult: 2
    decay_mult: 0
  }
  convolution_param {
    num_output: 128
    kernel_size: 1
    weight_filler {
      type: "gaussian"
      std: 0.01
    }
    bias_filler {
      type: "constant"
      value: 0
    }
  }
}
layer {
  name: "reshape_Theta"
  type: "Reshape"
  bottom: "Theta"
  top: "output_Theta"
  reshape_param {
    shape {
      dim: 0
      dim: 0
      dim: -1
    }
  }
}
layer {
  name: "reshape_Phi"
  type: "Reshape"
  bottom: "Phi"
  top: "output_Phi"
  reshape_param {
    shape {
      dim: 0
      dim: 0
      dim: -1
    }
  }
}
layer {
  name: "reshape_G"
  type: "Reshape"
  bottom: "G"
  top: "output_G"
  reshape_param {
    shape {
      dim: 0
      dim: 0
      dim: -1
    }
  }
}
layer {
  name: "MM_Theta_Phi"
  type: "MatMul"
  bottom: "output_Theta"
  bottom: "output_Phi"
  top: "MM_Theta_Phi"
  matmul_param {
    transpose_a: true
    transpose_b: false
  }
}
layer {
  name: "MM_Theta_Phi_soft"
  type: "Softmax"
  bottom: "MM_Theta_Phi"
  top: "MM_Theta_Phi_soft"
  softmax_param {
    axis: 2
  }
}
layer {
  name: "MM_o"
  type: "MatMul"
  bottom: "output_G"
  bottom: "MM_Theta_Phi_soft"
  top: "MM_o"
  matmul_param {
    transpose_a: false
    transpose_b: true
  }
}
layer {
  name: "re_MM"
  type: "Reshape"
  bottom: "MM_o"
  top: "re_MM"
  reshape_param {
    shape {
      dim: 0
      dim: 0
      dim: 96
      dim: -1
    }
  }
}
layer {
  name: "conv_re"
  type: "Convolution"
  bottom: "re_MM"
  top: "conv_re"
  param {
    lr_mult: 1
    decay_mult: 1
  }
  param {
    lr_mult: 2
    decay_mult: 0
  }
  convolution_param {
    num_output: 256
    kernel_size: 1
    weight_filler {
      type: "gaussian"
      std: 0.01
    }
    bias_filler {
      type: "constant"
      value: 0
    }
  }
}
layer {
  name: "ele"
  type: "Eltwise"
  bottom: "pool3"
  bottom: "conv_re"
  top: "ele_out"
}
layer {
  name: "conv4_1"
  type: "Convolution"
  bottom: "ele_out"
  top: "conv4_1"
  convolution_param {
    num_output: 512
    pad: 1
    kernel_size: 3
  }
}
layer {
  name: "relu4_1"
  type: "ReLU"
  bottom: "conv4_1"
  top: "conv4_1"
}
layer {
  name: "conv4_2"
  type: "Convolution"
  bottom: "conv4_1"
  top: "conv4_2"
  convolution_param {
    num_output: 512
    pad: 1
    kernel_size: 3
  }
}
layer {
  name: "relu4_2"
  type: "ReLU"
  bottom: "conv4_2"
  top: "conv4_2"
}
layer {
  name: "conv4_3"
  type: "Convolution"
  bottom: "conv4_2"
  top: "conv4_3"
  convolution_param {
    num_output: 512
    pad: 1
    kernel_size: 3
  }
}
layer {
  name: "relu4_3"
  type: "ReLU"
  bottom: "conv4_3"
  top: "conv4_3"
}
layer {
  name: "loss1_conv1"
  type: "Convolution"
  bottom: "conv4_3"
  top: "loss1_conv1"
  param {
    lr_mult: 1
    decay_mult: 1
  }
  param {
    lr_mult: 2
    decay_mult: 0
  }
  convolution_param {
    num_output: 512
    pad: 1
    kernel_size: 3
    weight_filler {
      type: "gaussian"
      std: 0.01
    }
    bias_filler {
      type: "constant"
    }
  }
}
layer {
  name: "loss_relu1"
  type: "ReLU"
  bottom: "loss1_conv1"
  top: "loss1_conv1"
}
layer {
  name: "LFCN_1_5x5"
  type: "Convolution"
  bottom: "loss1_conv1"
  top: "LFCN_1_5x5"
  param {
    lr_mult: 1
    decay_mult: 1
  }
  param {
    lr_mult: 2
    decay_mult: 0
  }
  convolution_param {
    num_output: 9
    pad: 2
    kernel_size: 5
    weight_filler {
      type: "gaussian"
      std: 0.001
    }
    bias_filler {
      type: "constant"
    }
  }
}
layer {
  name: "detection_loss_1_5x5"
  type: "DetectionLoss"
  bottom: "LFCN_1_5x5"
  bottom: "label_1_5x5"
  top: "loss_1_5x5"
  loss_weight: 0.9
  detection_loss_param {
    cls_num: 5
    coord_num: 4
    lambda: 1
    field_h: 60
    field_w: 60
    downsample_rate: 8
    bb_smooth: true
    field_whr: 2
    field_xyr: 2
    bg_threshold: 0.2
    bg_multiple: 2
    sample_mode: "bootstrap"
    pos_neg_weighted: true
  }
}
layer {
  name: "detection_accuracy_1_5x5"
  type: "DetectionAccuracy"
  bottom: "LFCN_1_5x5"
  bottom: "label_1_5x5"
  top: "accuracy_1_5x5"
  top: "boxiou_1_5x5"
  detection_accuracy_param {
    cls_num: 5
    coord_num: 4
    field_h: 60
    field_w: 60
    downsample_rate: 8
    field_whr: 2
    field_xyr: 2
  }
}
layer {
  name: "LFCN_1_7x7"
  type: "Convolution"
  bottom: "loss1_conv1"
  top: "LFCN_1_7x7"
  param {
    lr_mult: 1
    decay_mult: 1
  }
  param {
    lr_mult: 2
    decay_mult: 0
  }
  convolution_param {
    num_output: 9
    pad: 3
    kernel_size: 7
    weight_filler {
      type: "gaussian"
      std: 0.001
    }
    bias_filler {
      type: "constant"
    }
  }
}
layer {
  name: "detection_loss_1_7x7"
  type: "DetectionLoss"
  bottom: "LFCN_1_7x7"
  bottom: "label_1_7x7"
  top: "loss_1_7x7"
  loss_weight: 0.9
  detection_loss_param {
    cls_num: 5
    coord_num: 4
    lambda: 1
    field_h: 84
    field_w: 84
    downsample_rate: 8
    bb_smooth: true
    field_whr: 2
    field_xyr: 2
    bg_threshold: 0.2
    bg_multiple: 2
    sample_mode: "bootstrap"
    pos_neg_weighted: true
  }
}
layer {
  name: "detection_accuracy_1_7x7"
  type: "DetectionAccuracy"
  bottom: "LFCN_1_7x7"
  bottom: "label_1_7x7"
  top: "accuracy_1_7x7"
  top: "boxiou_1_7x7"
  detection_accuracy_param {
    cls_num: 5
    coord_num: 4
    field_h: 84
    field_w: 84
    downsample_rate: 8
    field_whr: 2
    field_xyr: 2
  }
}
layer {
  name: "pool4"
  type: "Pooling"
  bottom: "conv4_3"
  top: "pool4"
  pooling_param {
    pool: MAX
    kernel_size: 2
    stride: 2
  }
}
layer {
  name: "conv5_1"
  type: "Convolution"
  bottom: "pool4"
  top: "conv5_1"
  convolution_param {
    num_output: 512
    pad: 1
    kernel_size: 3
  }
}
layer {
  name: "relu5_1"
  type: "ReLU"
  bottom: "conv5_1"
  top: "conv5_1"
}
layer {
  name: "conv5_2"
  type: "Convolution"
  bottom: "conv5_1"
  top: "conv5_2"
  convolution_param {
    num_output: 512
    pad: 1
    kernel_size: 3
  }
}
layer {
  name: "relu5_2"
  type: "ReLU"
  bottom: "conv5_2"
  top: "conv5_2"
}
layer {
  name: "conv5_3"
  type: "Convolution"
  bottom: "conv5_2"
  top: "conv5_3"
  convolution_param {
    num_output: 512
    pad: 1
    kernel_size: 3
  }
}
layer {
  name: "relu5_3"
  type: "ReLU"
  bottom: "conv5_3"
  top: "conv5_3"
}
layer {
  name: "LFCN_2_5x5"
  type: "Convolution"
  bottom: "conv5_3"
  top: "LFCN_2_5x5"
  param {
    lr_mult: 1
    decay_mult: 1
  }
  param {
    lr_mult: 2
    decay_mult: 0
  }
  convolution_param {
    num_output: 9
    pad: 2
    kernel_size: 5
    weight_filler {
      type: "gaussian"
      std: 0.001
    }
    bias_filler {
      type: "constant"
    }
  }
}
layer {
  name: "detection_loss_2_5x5"
  type: "DetectionLoss"
  bottom: "LFCN_2_5x5"
  bottom: "label_2_5x5"
  top: "loss_2_5x5"
  detection_loss_param {
    cls_num: 5
    coord_num: 4
    lambda: 1
    field_h: 120
    field_w: 120
    downsample_rate: 16
    bb_smooth: true
    field_whr: 2
    field_xyr: 2
    bg_threshold: 0.2
    bg_multiple: 2
    sample_mode: "bootstrap"
    pos_neg_weighted: true
  }
}
layer {
  name: "detection_accuracy_2_5x5"
  type: "DetectionAccuracy"
  bottom: "LFCN_2_5x5"
  bottom: "label_2_5x5"
  top: "accuracy_2_5x5"
  top: "boxiou_2_5x5"
  detection_accuracy_param {
    cls_num: 5
    coord_num: 4
    field_h: 120
    field_w: 120
    downsample_rate: 16
    field_whr: 2
    field_xyr: 2
  }
}
layer {
  name: "LFCN_2_7x7"
  type: "Convolution"
  bottom: "conv5_3"
  top: "LFCN_2_7x7"
  param {
    lr_mult: 1
    decay_mult: 1
  }
  param {
    lr_mult: 2
    decay_mult: 0
  }
  convolution_param {
    num_output: 9
    pad: 3
    kernel_size: 7
    weight_filler {
      type: "gaussian"
      std: 0.001
    }
    bias_filler {
      type: "constant"
    }
  }
}
layer {
  name: "detection_loss_2_7x7"
  type: "DetectionLoss"
  bottom: "LFCN_2_7x7"
  bottom: "label_2_7x7"
  top: "loss_2_7x7"
  detection_loss_param {
    cls_num: 5
    coord_num: 4
    lambda: 1
    field_h: 168
    field_w: 168
    downsample_rate: 16
    bb_smooth: true
    field_whr: 2
    field_xyr: 2
    bg_threshold: 0.2
    bg_multiple: 2
    sample_mode: "bootstrap"
    pos_neg_weighted: true
  }
}
layer {
  name: "detection_accuracy_2_7x7"
  type: "DetectionAccuracy"
  bottom: "LFCN_2_7x7"
  bottom: "label_2_7x7"
  top: "accuracy_2_7x7"
  top: "boxiou_2_7x7"
  detection_accuracy_param {
    cls_num: 5
    coord_num: 4
    field_h: 168
    field_w: 168
    downsample_rate: 16
    field_whr: 2
    field_xyr: 2
  }
}
layer {
  name: "pool5"
  type: "Pooling"
  bottom: "conv5_3"
  top: "pool5"
  pooling_param {
    pool: MAX
    kernel_size: 2
    stride: 2
  }
}
layer {
  name: "conv6_1"
  type: "Convolution"
  bottom: "pool5"
  top: "conv6_1"
  param {
    lr_mult: 1
    decay_mult: 1
  }
  param {
    lr_mult: 2
    decay_mult: 0
  }
  convolution_param {
    num_output: 512
    pad: 1
    kernel_size: 3
    weight_filler {
      type: "gaussian"
      std: 0.01
    }
    bias_filler {
      type: "constant"
    }
  }
}
layer {
  name: "relu6_1"
  type: "ReLU"
  bottom: "conv6_1"
  top: "conv6_1"
}
layer {
  name: "LFCN_3_5x5"
  type: "Convolution"
  bottom: "conv6_1"
  top: "LFCN_3_5x5"
  param {
    lr_mult: 1
    decay_mult: 1
  }
  param {
    lr_mult: 2
    decay_mult: 0
  }
  convolution_param {
    num_output: 9
    pad: 2
    kernel_size: 5
    weight_filler {
      type: "gaussian"
      std: 0.001
    }
    bias_filler {
      type: "constant"
    }
  }
}
layer {
  name: "detection_loss_3_5x5"
  type: "DetectionLoss"
  bottom: "LFCN_3_5x5"
  bottom: "label_3_5x5"
  top: "loss_3_5x5"
  detection_loss_param {
    cls_num: 5
    coord_num: 4
    lambda: 1
    field_h: 240
    field_w: 240
    downsample_rate: 32
    bb_smooth: true
    field_whr: 2
    field_xyr: 2
    bg_threshold: 0.2
    bg_multiple: 2
    sample_mode: "bootstrap"
    pos_neg_weighted: true
  }
}
layer {
  name: "detection_accuracy_3_5x5"
  type: "DetectionAccuracy"
  bottom: "LFCN_3_5x5"
  bottom: "label_3_5x5"
  top: "accuracy_3_5x5"
  top: "boxiou_3_5x5"
  detection_accuracy_param {
    cls_num: 5
    coord_num: 4
    field_h: 240
    field_w: 240
    downsample_rate: 32
    field_whr: 2
    field_xyr: 2
  }
}
layer {
  name: "LFCN_3_7x7"
  type: "Convolution"
  bottom: "conv6_1"
  top: "LFCN_3_7x7"
  param {
    lr_mult: 1
    decay_mult: 1
  }
  param {
    lr_mult: 2
    decay_mult: 0
  }
  convolution_param {
    num_output: 9
    pad: 3
    kernel_size: 7
    weight_filler {
      type: "gaussian"
      std: 0.001
    }
    bias_filler {
      type: "constant"
    }
  }
}
layer {
  name: "detection_loss_3_7x7"
  type: "DetectionLoss"
  bottom: "LFCN_3_7x7"
  bottom: "label_3_7x7"
  top: "loss_3_7x7"
  detection_loss_param {
    cls_num: 5
    coord_num: 4
    lambda: 1
    field_h: 336
    field_w: 336
    downsample_rate: 32
    bb_smooth: true
    field_whr: 2
    field_xyr: 2
    bg_threshold: 0.2
    bg_multiple: 2
    sample_mode: "bootstrap"
    pos_neg_weighted: true
  }
}
layer {
  name: "detection_accuracy_3_7x7"
  type: "DetectionAccuracy"
  bottom: "LFCN_3_7x7"
  bottom: "label_3_7x7"
  top: "accuracy_3_7x7"
  top: "boxiou_3_7x7"
  detection_accuracy_param {
    cls_num: 5
    coord_num: 4
    field_h: 336
    field_w: 336
    downsample_rate: 32
    field_whr: 2
    field_xyr: 2
  }
}
layer {
  name: "pool6"
  type: "Pooling"
  bottom: "conv6_1"
  top: "pool6"
  pooling_param {
    pool: MAX
    kernel_size: 2
    stride: 2
  }
}
layer {
  name: "LFCN_4_5x5"
  type: "Convolution"
  bottom: "pool6"
  top: "LFCN_4_5x5"
  param {
    lr_mult: 1
    decay_mult: 1
  }
  param {
    lr_mult: 2
    decay_mult: 0
  }
  convolution_param {
    num_output: 9
    pad: 2
    kernel_size: 5
    weight_filler {
      type: "gaussian"
      std: 0.001
    }
    bias_filler {
      type: "constant"
    }
  }
}
layer {
  name: "detection_loss_4_5x5"
  type: "DetectionLoss"
  bottom: "LFCN_4_5x5"
  bottom: "label_4_5x5"
  top: "loss_4_5x5"
  detection_loss_param {
    cls_num: 5
    coord_num: 4
    lambda: 1
    field_h: 480
    field_w: 480
    downsample_rate: 64
    bb_smooth: true
    field_whr: 2
    field_xyr: 2
    bg_threshold: 0.2
    bg_multiple: 2
    sample_mode: "bootstrap"
    pos_neg_weighted: true
  }
}
layer {
  name: "detection_accuracy_4_5x5"
  type: "DetectionAccuracy"
  bottom: "LFCN_4_5x5"
  bottom: "label_4_5x5"
  top: "accuracy_4_5x5"
  top: "boxiou_4_5x5"
  detection_accuracy_param {
    cls_num: 5
    coord_num: 4
    field_h: 480
    field_w: 480
    downsample_rate: 64
    field_whr: 2
    field_xyr: 2
  }
}
layer {
  name: "proposals"
  type: "BoxOutput"
  bottom: "LFCN_1_5x5"
  bottom: "LFCN_1_7x7"
  bottom: "LFCN_2_5x5"
  bottom: "LFCN_2_7x7"
  bottom: "LFCN_3_5x5"
  bottom: "LFCN_3_7x7"
  bottom: "LFCN_4_5x5"
  top: "proposals"
  propagate_down: false
  propagate_down: false
  propagate_down: false
  propagate_down: false
  propagate_down: false
  propagate_down: false
  propagate_down: false
  box_output_param {
    fg_thr: -8
    iou_thr: 0.65
    nms_type: "IOU"
    field_h: 60
    field_h: 84
    field_h: 120
    field_h: 168
    field_h: 240
    field_h: 336
    field_h: 480
    field_w: 60
    field_w: 84
    field_w: 120
    field_w: 168
    field_w: 240
    field_w: 336
    field_w: 480
    downsample_rate: 8
    downsample_rate: 8
    downsample_rate: 16
    downsample_rate: 16
    downsample_rate: 32
    downsample_rate: 32
    downsample_rate: 64
    field_whr: 2
    field_xyr: 2
    max_nms_num: 3000
  }
}
layer {
  name: "proposal_info"
  type: "ProposalTarget"
  bottom: "proposals"
  bottom: "gt_boxes"
  top: "rois"
  top: "proposal_labels"
  top: "proposal_targets"
  top: "box_inside_weights"
  top: "box_outside_weights"
  top: "match_gt_boxes"
  include {
    phase: TRAIN
  }
  propagate_down: false
  propagate_down: false
  proposal_target_param {
    cls_num: 5
    batch_size: 256
    fg_fraction: 0.25
    num_img_per_batch: 4
    fg_thr: 0.5
    bg_thr_hg: 0.49
    bg_thr_lw: 0.1
    img_width: 768
    img_height: 576
  }
  bbox_reg_param {
    bbox_mean: 0
    bbox_mean: 0
    bbox_mean: 0
    bbox_mean: 0
    bbox_std: 0.1
    bbox_std: 0.1
    bbox_std: 0.2
    bbox_std: 0.2
  }
}
layer {
  name: "conv4_3_2x"
  type: "Deconvolution"
  bottom: "conv4_3"
  top: "conv4_3_2x"
  param {
    lr_mult: 0
    decay_mult: 0
  }
  convolution_param {
    num_output: 512
    bias_term: false
    pad: 1
    kernel_size: 4
    group: 512
    stride: 2
    weight_filler {
      type: "bilinear"
    }
  }
}
layer {
  name: "roi_pool_org"
  type: "ROIPooling"
  bottom: "conv4_3_2x"
  bottom: "rois"
  top: "roi_pool_org"
  roi_pooling_param {
    pooled_h: 7
    pooled_w: 7
    spatial_scale: 0.25
    pad_ratio: 0
  }
}
layer {
  name: "roi_pool_ctx"
  type: "ROIPooling"
  bottom: "conv4_3_2x"
  bottom: "rois"
  top: "roi_pool_ctx"
  roi_pooling_param {
    pooled_h: 7
    pooled_w: 7
    spatial_scale: 0.25
    pad_ratio: 0.25
  }
}
layer {
  name: "roi_pool"
  type: "Concat"
  bottom: "roi_pool_org"
  bottom: "roi_pool_ctx"
  top: "roi_pool"
}
layer {
  name: "roi_c1"
  type: "Convolution"
  bottom: "roi_pool"
  top: "roi_c1"
  param {
    lr_mult: 1
    decay_mult: 1
  }
  param {
    lr_mult: 2
    decay_mult: 0
  }
  convolution_param {
    num_output: 512
    kernel_size: 3
    weight_filler {
      type: "gaussian"
      std: 0.01
    }
    bias_filler {
      type: "constant"
    }
  }
}
layer {
  name: "roi_c1_relu"
  type: "ReLU"
  bottom: "roi_c1"
  top: "roi_c1"
}
layer {
  name: "fc6"
  type: "InnerProduct"
  bottom: "roi_c1"
  top: "fc6"
  param {
    lr_mult: 1
  }
  param {
    lr_mult: 2
  }
  inner_product_param {
    num_output: 4096
    weight_filler {
      type: "gaussian"
      std: 0.001
    }
    bias_filler {
      type: "constant"
      value: 0
    }
  }
}
layer {
  name: "relu6"
  type: "ReLU"
  bottom: "fc6"
  top: "fc6"
}
layer {
  name: "drop6"
  type: "Dropout"
  bottom: "fc6"
  top: "fc6"
  dropout_param {
    dropout_ratio: 0.5
  }
}
layer {
  name: "cls_pred"
  type: "InnerProduct"
  bottom: "fc6"
  top: "cls_pred"
  param {
    lr_mult: 1
  }
  param {
    lr_mult: 2
  }
  inner_product_param {
    num_output: 5
    weight_filler {
      type: "gaussian"
      std: 0.01
    }
    bias_filler {
      type: "constant"
      value: 0
    }
  }
}
layer {
  name: "bbox_pred"
  type: "InnerProduct"
  bottom: "fc6"
  top: "bbox_pred"
  param {
    lr_mult: 1
  }
  param {
    lr_mult: 2
  }
  inner_product_param {
    num_output: 20
    weight_filler {
      type: "gaussian"
      std: 0.001
    }
    bias_filler {
      type: "constant"
      value: 0
    }
  }
}
layer {
  name: "loss_cls"
  type: "SoftmaxWithLoss"
  bottom: "cls_pred"
  bottom: "proposal_labels"
  top: "loss_cls"
  loss_weight: 1
  propagate_down: true
  propagate_down: false
}
layer {
  name: "cls_accuracy"
  type: "Accuracy"
  bottom: "cls_pred"
  bottom: "proposal_labels"
  top: "cls_accuracy"
}
layer {
  name: "loss_bbox"
  type: "SmoothL1Loss"
  bottom: "bbox_pred"
  bottom: "proposal_targets"
  bottom: "box_inside_weights"
  bottom: "box_outside_weights"
  top: "loss_bbox"
  loss_weight: 1
}
layer {
  name: "bbox_iou"
  type: "BboxAccuracy"
  bottom: "bbox_pred"
  bottom: "rois"
  bottom: "match_gt_boxes"
  top: "bbox_iou"
  top: "bbox_iou_pre"
  bbox_reg_param {
    bbox_mean: 0
    bbox_mean: 0
    bbox_mean: 0
    bbox_mean: 0
    bbox_std: 0.1
    bbox_std: 0.1
    bbox_std: 0.2
    bbox_std: 0.2
  }
}
I1210 21:06:02.928460 11390 layer_factory.hpp:77] Creating layer data
I1210 21:06:02.928508 11390 net.cpp:100] Creating Layer data
I1210 21:06:02.928514 11390 net.cpp:408] data -> data
…
I1210 21:06:02.954139 11390 image_gt_data_layer.cpp:235] output label size 2 : 2,6,48,48
I1210 21:06:02.954180 11390 image_gt_data_layer.cpp:235] output label size 3 : 2,6,48,48
I1210 21:06:02.954221 11390 image_gt_data_layer.cpp:235] output label size 4 : 2,6,24,24
I1210 21:06:02.954259 11390 image_gt_data_layer.cpp:235] output label size 5 : 2,6,24,24
I1210 21:06:02.954296 11390 image_gt_data_layer.cpp:235] output label size 6 : 2,6,12,12
I1210 21:06:02.954334 11390 image_gt_data_layer.cpp:250] output gt boxes size: 1,7,1,1
I1210 21:06:02.995923 11390 net.cpp:150] Setting up data
I1210 21:06:02.995961 11390 net.cpp:157] Top shape: 2 3 768 768 (3538944)
I1210 21:06:02.995968 11390 net.cpp:157] Top shape: 2 6 96 96 (110592)
I1210 21:06:02.995973 11390 net.cpp:157] Top shape: 2 6 96 96 (110592)
I1210 21:06:02.995978 11390 net.cpp:157] Top shape: 2 6 48 48 (27648)
I1210 21:06:02.995983 11390 net.cpp:157] Top shape: 2 6 48 48 (27648)
I1210 21:06:02.995990 11390 net.cpp:157] Top shape: 2 6 24 24 (6912)
I1210 21:06:02.995997 11390 net.cpp:157] Top shape: 2 6 24 24 (6912)
I1210 21:06:02.996003 11390 net.cpp:157] Top shape: 2 6 12 12 (1728)
I1210 21:06:02.996011 11390 net.cpp:157] Top shape: 1 7 1 1 (7)
I1210 21:06:02.996016 11390 net.cpp:165] Memory required for data: 15323932
I1210 21:06:02.996029 11390 layer_factory.hpp:77] Creating layer label_1_5x5_data_1_split
I1210 21:06:02.996057 11390 net.cpp:100] Creating Layer label_1_5x5_data_1_split
I1210 21:06:02.996065 11390 net.cpp:434] label_1_5x5_data_1_split <- label_1_5x5
I1210 21:06:02.996079 11390 net.cpp:408] label_1_5x5_data_1_split -> label_1_5x5_data_1_split_0
I1210 21:06:02.996090 11390 net.cpp:408] label_1_5x5_data_1_split -> label_1_5x5_data_1_split_1
I1210 21:06:02.996158 11390 net.cpp:150] Setting up label_1_5x5_data_1_split
I1210 21:06:02.996167 11390 net.cpp:157] Top shape: 2 6 96 96 (110592)
I1210 21:06:02.996172 11390 net.cpp:157] Top shape: 2 6 96 96 (110592)
I1210 21:06:02.996176 11390 net.cpp:165] Memory required for data: 16208668
I1210 21:06:02.996181 11390 layer_factory.hpp:77] Creating layer label_1_7x7_data_2_split
I1210 21:06:02.996188 11390 net.cpp:100] Creating Layer label_1_7x7_data_2_split
I1210 21:06:02.996192 11390 net.cpp:434] label_1_7x7_data_2_split <- label_1_7x7
I1210 21:06:02.996198 11390 net.cpp:408] label_1_7x7_data_2_split -> label_1_7x7_data_2_split_0
I1210 21:06:02.996206 11390 net.cpp:408] label_1_7x7_data_2_split -> label_1_7x7_data_2_split_1
I1210 21:06:02.996346 11390 net.cpp:150] Setting up label_1_7x7_data_2_split
I1210 21:06:02.996392 11390 net.cpp:157] Top shape: 2 6 96 96 (110592)
I1210 21:06:02.996403 11390 net.cpp:157] Top shape: 2 6 96 96 (110592)
I1210 21:06:02.996410 11390 net.cpp:165] Memory required for data: 17093404
I1210 21:06:02.996423 11390 layer_factory.hpp:77] Creating layer label_2_5x5_data_3_split
I1210 21:06:02.996443 11390 net.cpp:100] Creating Layer label_2_5x5_data_3_split
I1210 21:06:02.996453 11390 net.cpp:434] label_2_5x5_data_3_split <- label_2_5x5
I1210 21:06:02.996469 11390 net.cpp:408] label_2_5x5_data_3_split -> label_2_5x5_data_3_split_0
I1210 21:06:02.996485 11390 net.cpp:408] label_2_5x5_data_3_split -> label_2_5x5_data_3_split_1
I1210 21:06:02.996546 11390 net.cpp:150] Setting up label_2_5x5_data_3_split
I1210 21:06:02.996558 11390 net.cpp:157] Top shape: 2 6 48 48 (27648)
I1210 21:06:02.996567 11390 net.cpp:157] Top shape: 2 6 48 48 (27648)
I1210 21:06:02.996574 11390 net.cpp:165] Memory required for data: 17314588
I1210 21:06:02.996582 11390 layer_factory.hpp:77] Creating layer label_2_7x7_data_4_split
I1210 21:06:02.996598 11390 net.cpp:100] Creating Layer label_2_7x7_data_4_split
I1210 21:06:02.996608 11390 net.cpp:434] label_2_7x7_data_4_split <- label_2_7x7
I1210 21:06:02.996618 11390 net.cpp:408] label_2_7x7_data_4_split -> label_2_7x7_data_4_split_0
I1210 21:06:02.996631 11390 net.cpp:408] label_2_7x7_data_4_split -> label_2_7x7_data_4_split_1
I1210 21:06:02.996690 11390 net.cpp:150] Setting up label_2_7x7_data_4_split
I1210 21:06:02.996703 11390 net.cpp:157] Top shape: 2 6 48 48 (27648)
I1210 21:06:02.996713 11390 net.cpp:157] Top shape: 2 6 48 48 (27648)
I1210 21:06:02.996721 11390 net.cpp:165] Memory required for data: 17535772
I1210 21:06:02.996728 11390 layer_factory.hpp:77] Creating layer label_3_5x5_data_5_split
I1210 21:06:02.996737 11390 net.cpp:100] Creating Layer label_3_5x5_data_5_split
I1210 21:06:02.996743 11390 net.cpp:434] label_3_5x5_data_5_split <- label_3_5x5
I1210 21:06:02.996752 11390 net.cpp:408] label_3_5x5_data_5_split -> label_3_5x5_data_5_split_0
I1210 21:06:02.996763 11390 net.cpp:408] label_3_5x5_data_5_split -> label_3_5x5_data_5_split_1
I1210 21:06:02.996820 11390 net.cpp:150] Setting up label_3_5x5_data_5_split
I1210 21:06:02.996832 11390 net.cpp:157] Top shape: 2 6 24 24 (6912)
I1210 21:06:02.996840 11390 net.cpp:157] Top shape: 2 6 24 24 (6912)
I1210 21:06:02.996846 11390 net.cpp:165] Memory required for data: 17591068
I1210 21:06:02.996853 11390 layer_factory.hpp:77] Creating layer label_3_7x7_data_6_split
I1210 21:06:02.996863 11390 net.cpp:100] Creating Layer label_3_7x7_data_6_split
I1210 21:06:02.996870 11390 net.cpp:434] label_3_7x7_data_6_split <- label_3_7x7
I1210 21:06:02.996879 11390 net.cpp:408] label_3_7x7_data_6_split -> label_3_7x7_data_6_split_0
I1210 21:06:02.996891 11390 net.cpp:408] label_3_7x7_data_6_split -> label_3_7x7_data_6_split_1
I1210 21:06:02.996948 11390 net.cpp:150] Setting up label_3_7x7_data_6_split
I1210 21:06:02.996959 11390 net.cpp:157] Top shape: 2 6 24 24 (6912)
I1210 21:06:02.996968 11390 net.cpp:157] Top shape: 2 6 24 24 (6912)
I1210 21:06:02.996974 11390 net.cpp:165] Memory required for data: 17646364
I1210 21:06:02.996980 11390 layer_factory.hpp:77] Creating layer label_4_5x5_data_7_split
I1210 21:06:02.996989 11390 net.cpp:100] Creating Layer label_4_5x5_data_7_split
I1210 21:06:02.996995 11390 net.cpp:434] label_4_5x5_data_7_split <- label_4_5x5
I1210 21:06:02.997004 11390 net.cpp:408] label_4_5x5_data_7_split -> label_4_5x5_data_7_split_0
I1210 21:06:02.997014 11390 net.cpp:408] label_4_5x5_data_7_split -> label_4_5x5_data_7_split_1
I1210 21:06:02.997066 11390 net.cpp:150] Setting up label_4_5x5_data_7_split
I1210 21:06:02.997078 11390 net.cpp:157] Top shape: 2 6 12 12 (1728)
I1210 21:06:02.997087 11390 net.cpp:157] Top shape: 2 6 12 12 (1728)
I1210 21:06:02.997092 11390 net.cpp:165] Memory required for data: 17660188
I1210 21:06:02.997098 11390 layer_factory.hpp:77] Creating layer conv1_1
I1210 21:06:02.997120 11390 net.cpp:100] Creating Layer conv1_1
I1210 21:06:02.997129 11390 net.cpp:434] conv1_1 <- data
I1210 21:06:02.997139 11390 net.cpp:408] conv1_1 -> conv1_1
I1210 21:06:03.217406 11390 net.cpp:150] Setting up conv1_1
I1210 21:06:03.217437 11390 net.cpp:157] Top shape: 2 64 768 768 (75497472)
I1210 21:06:03.217442 11390 net.cpp:165] Memory required for data: 319650076
I1210 21:06:03.217459 11390 layer_factory.hpp:77] Creating layer relu1_1
I1210 21:06:03.217471 11390 net.cpp:100] Creating Layer relu1_1
I1210 21:06:03.217478 11390 net.cpp:434] relu1_1 <- conv1_1
I1210 21:06:03.217483 11390 net.cpp:395] relu1_1 -> conv1_1 (in-place)
I1210 21:06:03.217669 11390 net.cpp:150] Setting up relu1_1
I1210 21:06:03.217680 11390 net.cpp:157] Top shape: 2 64 768 768 (75497472)
I1210 21:06:03.217684 11390 net.cpp:165] Memory required for data: 621639964
I1210 21:06:03.217689 11390 layer_factory.hpp:77] Creating layer conv1_2
I1210 21:06:03.217697 11390 net.cpp:100] Creating Layer conv1_2
I1210 21:06:03.217700 11390 net.cpp:434] conv1_2 <- conv1_1
I1210 21:06:03.217706 11390 net.cpp:408] conv1_2 -> conv1_2
I1210 21:06:03.219964 11390 net.cpp:150] Setting up conv1_2
I1210 21:06:03.219981 11390 net.cpp:157] Top shape: 2 64 768 768 (75497472)
I1210 21:06:03.219985 11390 net.cpp:165] Memory required for data: 923629852
I1210 21:06:03.219995 11390 layer_factory.hpp:77] Creating layer relu1_2
I1210 21:06:03.220002 11390 net.cpp:100] Creating Layer relu1_2
I1210 21:06:03.220006 11390 net.cpp:434] relu1_2 <- conv1_2
I1210 21:06:03.220011 11390 net.cpp:395] relu1_2 -> conv1_2 (in-place)
I1210 21:06:03.220165 11390 net.cpp:150] Setting up relu1_2
I1210 21:06:03.220175 11390 net.cpp:157] Top shape: 2 64 768 768 (75497472)
I1210 21:06:03.220178 11390 net.cpp:165] Memory required for data: 1225619740
I1210 21:06:03.220182 11390 layer_factory.hpp:77] Creating layer pool1
I1210 21:06:03.220190 11390 net.cpp:100] Creating Layer pool1
I1210 21:06:03.220192 11390 net.cpp:434] pool1 <- conv1_2
I1210 21:06:03.220198 11390 net.cpp:408] pool1 -> pool1
I1210 21:06:03.220247 11390 net.cpp:150] Setting up pool1
I1210 21:06:03.220253 11390 net.cpp:157] Top shape: 2 64 384 384 (18874368)
I1210 21:06:03.220257 11390 net.cpp:165] Memory required for data: 1301117212
I1210 21:06:03.220260 11390 layer_factory.hpp:77] Creating layer conv2_1
I1210 21:06:03.220268 11390 net.cpp:100] Creating Layer conv2_1
I1210 21:06:03.220271 11390 net.cpp:434] conv2_1 <- pool1
I1210 21:06:03.220278 11390 net.cpp:408] conv2_1 -> conv2_1
I1210 21:06:03.221668 11390 net.cpp:150] Setting up conv2_1
I1210 21:06:03.221680 11390 net.cpp:157] Top shape: 2 128 384 384 (37748736)
I1210 21:06:03.221683 11390 net.cpp:165] Memory required for data: 1452112156
I1210 21:06:03.221693 11390 layer_factory.hpp:77] Creating layer relu2_1
I1210 21:06:03.221698 11390 net.cpp:100] Creating Layer relu2_1
I1210 21:06:03.221701 11390 net.cpp:434] relu2_1 <- conv2_1
I1210 21:06:03.221706 11390 net.cpp:395] relu2_1 -> conv2_1 (in-place)
I1210 21:06:03.221853 11390 net.cpp:150] Setting up relu2_1
I1210 21:06:03.221860 11390 net.cpp:157] Top shape: 2 128 384 384 (37748736)
I1210 21:06:03.221864 11390 net.cpp:165] Memory required for data: 1603107100
I1210 21:06:03.221868 11390 layer_factory.hpp:77] Creating layer conv2_2
I1210 21:06:03.221875 11390 net.cpp:100] Creating Layer conv2_2
I1210 21:06:03.221879 11390 net.cpp:434] conv2_2 <- conv2_1
I1210 21:06:03.221884 11390 net.cpp:408] conv2_2 -> conv2_2
I1210 21:06:03.224056 11390 net.cpp:150] Setting up conv2_2
I1210 21:06:03.224071 11390 net.cpp:157] Top shape: 2 128 384 384 (37748736)
I1210 21:06:03.224076 11390 net.cpp:165] Memory required for data: 1754102044
I1210 21:06:03.224081 11390 layer_factory.hpp:77] Creating layer relu2_2
I1210 21:06:03.224090 11390 net.cpp:100] Creating Layer relu2_2
I1210 21:06:03.224093 11390 net.cpp:434] relu2_2 <- conv2_2
I1210 21:06:03.224098 11390 net.cpp:395] relu2_2 -> conv2_2 (in-place)
I1210 21:06:03.224246 11390 net.cpp:150] Setting up relu2_2
I1210 21:06:03.224254 11390 net.cpp:157] Top shape: 2 128 384 384 (37748736)
I1210 21:06:03.224258 11390 net.cpp:165] Memory required for data: 1905096988
I1210 21:06:03.224261 11390 layer_factory.hpp:77] Creating layer pool2
I1210 21:06:03.224268 11390 net.cpp:100] Creating Layer pool2
I1210 21:06:03.224272 11390 net.cpp:434] pool2 <- conv2_2
I1210 21:06:03.224277 11390 net.cpp:408] pool2 -> pool2
I1210 21:06:03.224310 11390 net.cpp:150] Setting up pool2
I1210 21:06:03.224316 11390 net.cpp:157] Top shape: 2 128 192 192 (9437184)
I1210 21:06:03.224321 11390 net.cpp:165] Memory required for data: 1942845724
I1210 21:06:03.224324 11390 layer_factory.hpp:77] Creating layer conv3_1
I1210 21:06:03.224331 11390 net.cpp:100] Creating Layer conv3_1
I1210 21:06:03.224334 11390 net.cpp:434] conv3_1 <- pool2
I1210 21:06:03.224339 11390 net.cpp:408] conv3_1 -> conv3_1
I1210 21:06:03.226450 11390 net.cpp:150] Setting up conv3_1
I1210 21:06:03.226464 11390 net.cpp:157] Top shape: 2 256 192 192 (18874368)
I1210 21:06:03.226466 11390 net.cpp:165] Memory required for data: 2018343196
I1210 21:06:03.226475 11390 layer_factory.hpp:77] Creating layer relu3_1
I1210 21:06:03.226481 11390 net.cpp:100] Creating Layer relu3_1
I1210 21:06:03.226485 11390 net.cpp:434] relu3_1 <- conv3_1
I1210 21:06:03.226488 11390 net.cpp:395] relu3_1 -> conv3_1 (in-place)
I1210 21:06:03.226893 11390 net.cpp:150] Setting up relu3_1
I1210 21:06:03.226905 11390 net.cpp:157] Top shape: 2 256 192 192 (18874368)
I1210 21:06:03.226909 11390 net.cpp:165] Memory required for data: 2093840668
I1210 21:06:03.226913 11390 layer_factory.hpp:77] Creating layer conv3_2
I1210 21:06:03.226922 11390 net.cpp:100] Creating Layer conv3_2
I1210 21:06:03.226924 11390 net.cpp:434] conv3_2 <- conv3_1
I1210 21:06:03.226930 11390 net.cpp:408] conv3_2 -> conv3_2
I1210 21:06:03.229122 11390 net.cpp:150] Setting up conv3_2
I1210 21:06:03.229141 11390 net.cpp:157] Top shape: 2 256 192 192 (18874368)
I1210 21:06:03.229146 11390 net.cpp:165] Memory required for data: 2169338140
I1210 21:06:03.229152 11390 layer_factory.hpp:77] Creating layer relu3_2
I1210 21:06:03.229161 11390 net.cpp:100] Creating Layer relu3_2
I1210 21:06:03.229164 11390 net.cpp:434] relu3_2 <- conv3_2
I1210 21:06:03.229171 11390 net.cpp:395] relu3_2 -> conv3_2 (in-place)
I1210 21:06:03.229625 11390 net.cpp:150] Setting up relu3_2
I1210 21:06:03.229638 11390 net.cpp:157] Top shape: 2 256 192 192 (18874368)
I1210 21:06:03.229642 11390 net.cpp:165] Memory required for data: 2244835612
I1210 21:06:03.229646 11390 layer_factory.hpp:77] Creating layer conv3_3
I1210 21:06:03.229655 11390 net.cpp:100] Creating Layer conv3_3
I1210 21:06:03.229658 11390 net.cpp:434] conv3_3 <- conv3_2
I1210 21:06:03.229665 11390 net.cpp:408] conv3_3 -> conv3_3
I1210 21:06:03.232574 11390 net.cpp:150] Setting up conv3_3
I1210 21:06:03.232599 11390 net.cpp:157] Top shape: 2 256 192 192 (18874368)
I1210 21:06:03.232604 11390 net.cpp:165] Memory required for data: 2320333084
I1210 21:06:03.232614 11390 layer_factory.hpp:77] Creating layer relu3_3
I1210 21:06:03.232623 11390 net.cpp:100] Creating Layer relu3_3
I1210 21:06:03.232628 11390 net.cpp:434] relu3_3 <- conv3_3
I1210 21:06:03.232635 11390 net.cpp:395] relu3_3 -> conv3_3 (in-place)
I1210 21:06:03.232786 11390 net.cpp:150] Setting up relu3_3
I1210 21:06:03.232795 11390 net.cpp:157] Top shape: 2 256 192 192 (18874368)
I1210 21:06:03.232800 11390 net.cpp:165] Memory required for data: 2395830556
I1210 21:06:03.232802 11390 layer_factory.hpp:77] Creating layer pool3
I1210 21:06:03.232810 11390 net.cpp:100] Creating Layer pool3
I1210 21:06:03.232813 11390 net.cpp:434] pool3 <- conv3_3
I1210 21:06:03.232818 11390 net.cpp:408] pool3 -> pool3
I1210 21:06:03.232856 11390 net.cpp:150] Setting up pool3
I1210 21:06:03.232864 11390 net.cpp:157] Top shape: 2 256 96 96 (4718592)
I1210 21:06:03.232867 11390 net.cpp:165] Memory required for data: 2414704924
I1210 21:06:03.232870 11390 layer_factory.hpp:77] Creating layer pool3_pool3_0_split
I1210 21:06:03.232877 11390 net.cpp:100] Creating Layer pool3_pool3_0_split
I1210 21:06:03.232879 11390 net.cpp:434] pool3_pool3_0_split <- pool3
I1210 21:06:03.232884 11390 net.cpp:408] pool3_pool3_0_split -> pool3_pool3_0_split_0
I1210 21:06:03.232890 11390 net.cpp:408] pool3_pool3_0_split -> pool3_pool3_0_split_1
I1210 21:06:03.232897 11390 net.cpp:408] pool3_pool3_0_split -> pool3_pool3_0_split_2
I1210 21:06:03.232901 11390 net.cpp:408] pool3_pool3_0_split -> pool3_pool3_0_split_3
I1210 21:06:03.232951 11390 net.cpp:150] Setting up pool3_pool3_0_split
I1210 21:06:03.232957 11390 net.cpp:157] Top shape: 2 256 96 96 (4718592)
I1210 21:06:03.232962 11390 net.cpp:157] Top shape: 2 256 96 96 (4718592)
I1210 21:06:03.232966 11390 net.cpp:157] Top shape: 2 256 96 96 (4718592)
I1210 21:06:03.232970 11390 net.cpp:157] Top shape: 2 256 96 96 (4718592)
I1210 21:06:03.232973 11390 net.cpp:165] Memory required for data: 2490202396
I1210 21:06:03.232976 11390 layer_factory.hpp:77] Creating layer G
I1210 21:06:03.232985 11390 net.cpp:100] Creating Layer G
I1210 21:06:03.232990 11390 net.cpp:434] G <- pool3_pool3_0_split_0
I1210 21:06:03.232995 11390 net.cpp:408] G -> G
I1210 21:06:03.234799 11390 net.cpp:150] Setting up G
I1210 21:06:03.234812 11390 net.cpp:157] Top shape: 2 128 96 96 (2359296)
I1210 21:06:03.234815 11390 net.cpp:165] Memory required for data: 2499639580
I1210 21:06:03.234822 11390 layer_factory.hpp:77] Creating layer Theta
I1210 21:06:03.234832 11390 net.cpp:100] Creating Layer Theta
I1210 21:06:03.234834 11390 net.cpp:434] Theta <- pool3_pool3_0_split_1
I1210 21:06:03.234840 11390 net.cpp:408] Theta -> Theta
I1210 21:06:03.236604 11390 net.cpp:150] Setting up Theta
I1210 21:06:03.236618 11390 net.cpp:157] Top shape: 2 128 96 96 (2359296)
I1210 21:06:03.236623 11390 net.cpp:165] Memory required for data: 2509076764
I1210 21:06:03.236634 11390 layer_factory.hpp:77] Creating layer Phi
I1210 21:06:03.236642 11390 net.cpp:100] Creating Layer Phi
I1210 21:06:03.236646 11390 net.cpp:434] Phi <- pool3_pool3_0_split_2
I1210 21:06:03.236652 11390 net.cpp:408] Phi -> Phi
I1210 21:06:03.238381 11390 net.cpp:150] Setting up Phi
I1210 21:06:03.238394 11390 net.cpp:157] Top shape: 2 128 96 96 (2359296)
I1210 21:06:03.238399 11390 net.cpp:165] Memory required for data: 2518513948
I1210 21:06:03.238404 11390 layer_factory.hpp:77] Creating layer reshape_Theta
I1210 21:06:03.238418 11390 net.cpp:100] Creating Layer reshape_Theta
I1210 21:06:03.238423 11390 net.cpp:434] reshape_Theta <- Theta
I1210 21:06:03.238428 11390 net.cpp:408] reshape_Theta -> output_Theta
I1210 21:06:03.238461 11390 net.cpp:150] Setting up reshape_Theta
I1210 21:06:03.238466 11390 net.cpp:157] Top shape: 2 128 9216 (2359296)
I1210 21:06:03.238471 11390 net.cpp:165] Memory required for data: 2527951132
I1210 21:06:03.238473 11390 layer_factory.hpp:77] Creating layer reshape_Phi
I1210 21:06:03.238479 11390 net.cpp:100] Creating Layer reshape_Phi
I1210 21:06:03.238482 11390 net.cpp:434] reshape_Phi <- Phi
I1210 21:06:03.238487 11390 net.cpp:408] reshape_Phi -> output_Phi
I1210 21:06:03.238508 11390 net.cpp:150] Setting up reshape_Phi
I1210 21:06:03.238513 11390 net.cpp:157] Top shape: 2 128 9216 (2359296)
I1210 21:06:03.238517 11390 net.cpp:165] Memory required for data: 2537388316
I1210 21:06:03.238520 11390 layer_factory.hpp:77] Creating layer reshape_G
I1210 21:06:03.238525 11390 net.cpp:100] Creating Layer reshape_G
I1210 21:06:03.238529 11390 net.cpp:434] reshape_G <- G
I1210 21:06:03.238534 11390 net.cpp:408] reshape_G -> output_G
I1210 21:06:03.238554 11390 net.cpp:150] Setting up reshape_G
I1210 21:06:03.238560 11390 net.cpp:157] Top shape: 2 128 9216 (2359296)
I1210 21:06:03.238564 11390 net.cpp:165] Memory required for data: 2546825500
I1210 21:06:03.238566 11390 layer_factory.hpp:77] Creating layer MM_Theta_Phi
I1210 21:06:03.238575 11390 net.cpp:100] Creating Layer MM_Theta_Phi
I1210 21:06:03.238579 11390 net.cpp:434] MM_Theta_Phi <- output_Theta
I1210 21:06:03.238584 11390 net.cpp:434] MM_Theta_Phi <- output_Phi
I1210 21:06:03.238590 11390 net.cpp:408] MM_Theta_Phi -> MM_Theta_Phi
I1210 21:06:03.238611 11390 net.cpp:150] Setting up MM_Theta_Phi
I1210 21:06:03.238617 11390 net.cpp:157] Top shape: 2 9216 9216 (169869312)
I1210 21:06:03.238620 11390 net.cpp:165] Memory required for data: 3226302748
I1210 21:06:03.238623 11390 layer_factory.hpp:77] Creating layer MM_Theta_Phi_soft
I1210 21:06:03.238629 11390 net.cpp:100] Creating Layer MM_Theta_Phi_soft
I1210 21:06:03.238633 11390 net.cpp:434] MM_Theta_Phi_soft <- MM_Theta_Phi
I1210 21:06:03.238638 11390 net.cpp:408] MM_Theta_Phi_soft -> MM_Theta_Phi_soft
I1210 21:06:03.238832 11390 net.cpp:150] Setting up MM_Theta_Phi_soft
I1210 21:06:03.238842 11390 net.cpp:157] Top shape: 2 9216 9216 (169869312)
I1210 21:06:03.238845 11390 net.cpp:165] Memory required for data: 3905779996
I1210 21:06:03.238848 11390 layer_factory.hpp:77] Creating layer MM_o
I1210 21:06:03.238854 11390 net.cpp:100] Creating Layer MM_o
I1210 21:06:03.238858 11390 net.cpp:434] MM_o <- output_G
I1210 21:06:03.238862 11390 net.cpp:434] MM_o <- MM_Theta_Phi_soft
I1210 21:06:03.238867 11390 net.cpp:408] MM_o -> MM_o
I1210 21:06:03.238885 11390 net.cpp:150] Setting up MM_o
I1210 21:06:03.238891 11390 net.cpp:157] Top shape: 2 128 9216 (2359296)
I1210 21:06:03.238894 11390 net.cpp:165] Memory required for data: 3915217180
I1210 21:06:03.238898 11390 layer_factory.hpp:77] Creating layer re_MM
I1210 21:06:03.238903 11390 net.cpp:100] Creating Layer re_MM
I1210 21:06:03.238906 11390 net.cpp:434] re_MM <- MM_o
I1210 21:06:03.238911 11390 net.cpp:408] re_MM -> re_MM
I1210 21:06:03.238930 11390 net.cpp:150] Setting up re_MM
I1210 21:06:03.238935 11390 net.cpp:157] Top shape: 2 128 96 96 (2359296)
I1210 21:06:03.238940 11390 net.cpp:165] Memory required for data: 3924654364
I1210 21:06:03.238942 11390 layer_factory.hpp:77] Creating layer conv_re
I1210 21:06:03.238950 11390 net.cpp:100] Creating Layer conv_re
I1210 21:06:03.238953 11390 net.cpp:434] conv_re <- re_MM
I1210 21:06:03.238958 11390 net.cpp:408] conv_re -> conv_re
I1210 21:06:03.240751 11390 net.cpp:150] Setting up conv_re
I1210 21:06:03.240764 11390 net.cpp:157] Top shape: 2 256 96 96 (4718592)
I1210 21:06:03.240768 11390 net.cpp:165] Memory required for data: 3943528732
I1210 21:06:03.240774 11390 layer_factory.hpp:77] Creating layer ele
I1210 21:06:03.240782 11390 net.cpp:100] Creating Layer ele
I1210 21:06:03.240785 11390 net.cpp:434] ele <- pool3_pool3_0_split_3
I1210 21:06:03.240790 11390 net.cpp:434] ele <- conv_re
I1210 21:06:03.240794 11390 net.cpp:408] ele -> ele_out
I1210 21:06:03.240819 11390 net.cpp:150] Setting up ele
I1210 21:06:03.240826 11390 net.cpp:157] Top shape: 2 256 96 96 (4718592)
I1210 21:06:03.240833 11390 net.cpp:165] Memory required for data: 3962403100
I1210 21:06:03.240836 11390 layer_factory.hpp:77] Creating layer conv4_1
I1210 21:06:03.240845 11390 net.cpp:100] Creating Layer conv4_1
I1210 21:06:03.240849 11390 net.cpp:434] conv4_1 <- ele_out
I1210 21:06:03.240854 11390 net.cpp:408] conv4_1 -> conv4_1
I1210 21:06:03.245039 11390 net.cpp:150] Setting up conv4_1
I1210 21:06:03.245067 11390 net.cpp:157] Top shape: 2 512 96 96 (9437184)
I1210 21:06:03.245072 11390 net.cpp:165] Memory required for data: 4000151836
I1210 21:06:03.245081 11390 layer_factory.hpp:77] Creating layer relu4_1
I1210 21:06:03.245095 11390 net.cpp:100] Creating Layer relu4_1
I1210 21:06:03.245100 11390 net.cpp:434] relu4_1 <- conv4_1
I1210 21:06:03.245106 11390 net.cpp:395] relu4_1 -> conv4_1 (in-place)
I1210 21:06:03.245260 11390 net.cpp:150] Setting up relu4_1
I1210 21:06:03.245271 11390 net.cpp:157] Top shape: 2 512 96 96 (9437184)
I1210 21:06:03.245275 11390 net.cpp:165] Memory required for data: 4037900572
I1210 21:06:03.245280 11390 layer_factory.hpp:77] Creating layer conv4_2
I1210 21:06:03.245292 11390 net.cpp:100] Creating Layer conv4_2
I1210 21:06:03.245299 11390 net.cpp:434] conv4_2 <- conv4_1
I1210 21:06:03.245309 11390 net.cpp:408] conv4_2 -> conv4_2
I1210 21:06:03.251003 11390 net.cpp:150] Setting up conv4_2
I1210 21:06:03.251037 11390 net.cpp:157] Top shape: 2 512 96 96 (9437184)
I1210 21:06:03.251042 11390 net.cpp:165] Memory required for data: 4075649308
I1210 21:06:03.251055 11390 layer_factory.hpp:77] Creating layer relu4_2
I1210 21:06:03.251071 11390 net.cpp:100] Creating Layer relu4_2
I1210 21:06:03.251080 11390 net.cpp:434] relu4_2 <- conv4_2
I1210 21:06:03.251088 11390 net.cpp:395] relu4_2 -> conv4_2 (in-place)
I1210 21:06:03.251256 11390 net.cpp:150] Setting up relu4_2
I1210 21:06:03.251268 11390 net.cpp:157] Top shape: 2 512 96 96 (9437184)
I1210 21:06:03.251273 11390 net.cpp:165] Memory required for data: 4113398044
I1210 21:06:03.251278 11390 layer_factory.hpp:77] Creating layer conv4_3
I1210 21:06:03.251289 11390 net.cpp:100] Creating Layer conv4_3
I1210 21:06:03.251296 11390 net.cpp:434] conv4_3 <- conv4_2
I1210 21:06:03.251303 11390 net.cpp:408] conv4_3 -> conv4_3
I1210 21:06:03.257095 11390 net.cpp:150] Setting up conv4_3
I1210 21:06:03.257129 11390 net.cpp:157] Top shape: 2 512 96 96 (9437184)
I1210 21:06:03.257136 11390 net.cpp:165] Memory required for data: 4151146780
I1210 21:06:03.257149 11390 layer_factory.hpp:77] Creating layer relu4_3
I1210 21:06:03.257164 11390 net.cpp:100] Creating Layer relu4_3
I1210 21:06:03.257172 11390 net.cpp:434] relu4_3 <- conv4_3
I1210 21:06:03.257180 11390 net.cpp:395] relu4_3 -> conv4_3 (in-place)
I1210 21:06:03.257339 11390 net.cpp:150] Setting up relu4_3
I1210 21:06:03.257352 11390 net.cpp:157] Top shape: 2 512 96 96 (9437184)
I1210 21:06:03.257359 11390 net.cpp:165] Memory required for data: 4188895516
I1210 21:06:03.257364 11390 layer_factory.hpp:77] Creating layer conv4_3_relu4_3_0_split
I1210 21:06:03.257375 11390 net.cpp:100] Creating Layer conv4_3_relu4_3_0_split
I1210 21:06:03.257382 11390 net.cpp:434] conv4_3_relu4_3_0_split <- conv4_3
I1210 21:06:03.257392 11390 net.cpp:408] conv4_3_relu4_3_0_split -> conv4_3_relu4_3_0_split_0
I1210 21:06:03.257405 11390 net.cpp:408] conv4_3_relu4_3_0_split -> conv4_3_relu4_3_0_split_1
I1210 21:06:03.257417 11390 net.cpp:408] conv4_3_relu4_3_0_split -> conv4_3_relu4_3_0_split_2
I1210 21:06:03.257478 11390 net.cpp:150] Setting up conv4_3_relu4_3_0_split
I1210 21:06:03.257489 11390 net.cpp:157] Top shape: 2 512 96 96 (9437184)
I1210 21:06:03.257496 11390 net.cpp:157] Top shape: 2 512 96 96 (9437184)
I1210 21:06:03.257503 11390 net.cpp:157] Top shape: 2 512 96 96 (9437184)
I1210 21:06:03.257509 11390 net.cpp:165] Memory required for data: 4302141724
I1210 21:06:03.257515 11390 layer_factory.hpp:77] Creating layer loss1_conv1
I1210 21:06:03.257530 11390 net.cpp:100] Creating Layer loss1_conv1
I1210 21:06:03.257537 11390 net.cpp:434] loss1_conv1 <- conv4_3_relu4_3_0_split_0
I1210 21:06:03.257549 11390 net.cpp:408] loss1_conv1 -> loss1_conv1
I1210 21:06:03.319432 11390 net.cpp:150] Setting up loss1_conv1
I1210 21:06:03.319464 11390 net.cpp:157] Top shape: 2 512 96 96 (9437184)
I1210 21:06:03.319470 11390 net.cpp:165] Memory required for data: 4339890460
I1210 21:06:03.319483 11390 layer_factory.hpp:77] Creating layer loss_relu1
I1210 21:06:03.319495 11390 net.cpp:100] Creating Layer loss_relu1
I1210 21:06:03.319502 11390 net.cpp:434] loss_relu1 <- loss1_conv1
I1210 21:06:03.319511 11390 net.cpp:395] loss_relu1 -> loss1_conv1 (in-place)
I1210 21:06:03.319967 11390 net.cpp:150] Setting up loss_relu1
I1210 21:06:03.319981 11390 net.cpp:157] Top shape: 2 512 96 96 (9437184)
I1210 21:06:03.319986 11390 net.cpp:165] Memory required for data: 4377639196
I1210 21:06:03.319991 11390 layer_factory.hpp:77] Creating layer loss1_conv1_loss_relu1_0_split
I1210 21:06:03.319999 11390 net.cpp:100] Creating Layer loss1_conv1_loss_relu1_0_split
I1210 21:06:03.320005 11390 net.cpp:434] loss1_conv1_loss_relu1_0_split <- loss1_conv1
I1210 21:06:03.320015 11390 net.cpp:408] loss1_conv1_loss_relu1_0_split -> loss1_conv1_loss_relu1_0_split_0
I1210 21:06:03.320026 11390 net.cpp:408] loss1_conv1_loss_relu1_0_split -> loss1_conv1_loss_relu1_0_split_1
I1210 21:06:03.320070 11390 net.cpp:150] Setting up loss1_conv1_loss_relu1_0_split
I1210 21:06:03.320078 11390 net.cpp:157] Top shape: 2 512 96 96 (9437184)
I1210 21:06:03.320085 11390 net.cpp:157] Top shape: 2 512 96 96 (9437184)
I1210 21:06:03.320089 11390 net.cpp:165] Memory required for data: 4453136668
I1210 21:06:03.320094 11390 layer_factory.hpp:77] Creating layer LFCN_1_5x5
I1210 21:06:03.320107 11390 net.cpp:100] Creating Layer LFCN_1_5x5
I1210 21:06:03.320114 11390 net.cpp:434] LFCN_1_5x5 <- loss1_conv1_loss_relu1_0_split_0
I1210 21:06:03.320122 11390 net.cpp:408] LFCN_1_5x5 -> LFCN_1_5x5
I1210 21:06:03.323977 11390 net.cpp:150] Setting up LFCN_1_5x5
I1210 21:06:03.323992 11390 net.cpp:157] Top shape: 2 9 96 96 (165888)
I1210 21:06:03.323997 11390 net.cpp:165] Memory required for data: 4453800220
I1210 21:06:03.324007 11390 layer_factory.hpp:77] Creating layer LFCN_1_5x5_LFCN_1_5x5_0_split
I1210 21:06:03.324015 11390 net.cpp:100] Creating Layer LFCN_1_5x5_LFCN_1_5x5_0_split
I1210 21:06:03.324023 11390 net.cpp:434] LFCN_1_5x5_LFCN_1_5x5_0_split <- LFCN_1_5x5
I1210 21:06:03.324030 11390 net.cpp:408] LFCN_1_5x5_LFCN_1_5x5_0_split -> LFCN_1_5x5_LFCN_1_5x5_0_split_0
I1210 21:06:03.324041 11390 net.cpp:408] LFCN_1_5x5_LFCN_1_5x5_0_split -> LFCN_1_5x5_LFCN_1_5x5_0_split_1
I1210 21:06:03.324049 11390 net.cpp:408] LFCN_1_5x5_LFCN_1_5x5_0_split -> LFCN_1_5x5_LFCN_1_5x5_0_split_2
I1210 21:06:03.324098 11390 net.cpp:150] Setting up LFCN_1_5x5_LFCN_1_5x5_0_split
I1210 21:06:03.324106 11390 net.cpp:157] Top shape: 2 9 96 96 (165888)
I1210 21:06:03.324112 11390 net.cpp:157] Top shape: 2 9 96 96 (165888)
I1210 21:06:03.324118 11390 net.cpp:157] Top shape: 2 9 96 96 (165888)
I1210 21:06:03.324123 11390 net.cpp:165] Memory required for data: 4455790876
I1210 21:06:03.324128 11390 layer_factory.hpp:77] Creating layer detection_loss_1_5x5
I1210 21:06:03.324138 11390 net.cpp:100] Creating Layer detection_loss_1_5x5
I1210 21:06:03.324146 11390 net.cpp:434] detection_loss_1_5x5 <- LFCN_1_5x5_LFCN_1_5x5_0_split_0
I1210 21:06:03.324152 11390 net.cpp:434] detection_loss_1_5x5 <- label_1_5x5_data_1_split_0
I1210 21:06:03.324159 11390 net.cpp:408] detection_loss_1_5x5 -> loss_1_5x5
I1210 21:06:03.324177 11390 layer_factory.hpp:77] Creating layer detection_loss_1_5x5
I1210 21:06:03.324877 11390 net.cpp:150] Setting up detection_loss_1_5x5
I1210 21:06:03.324892 11390 net.cpp:157] Top shape: 1 1 1 2 (2)
I1210 21:06:03.324898 11390 net.cpp:160]     with loss weight 0.9
I1210 21:06:03.324921 11390 net.cpp:165] Memory required for data: 4455790884
I1210 21:06:03.324928 11390 layer_factory.hpp:77] Creating layer detection_accuracy_1_5x5
I1210 21:06:03.324936 11390 net.cpp:100] Creating Layer detection_accuracy_1_5x5
I1210 21:06:03.324944 11390 net.cpp:434] detection_accuracy_1_5x5 <- LFCN_1_5x5_LFCN_1_5x5_0_split_1
I1210 21:06:03.324950 11390 net.cpp:434] detection_accuracy_1_5x5 <- label_1_5x5_data_1_split_1
I1210 21:06:03.324959 11390 net.cpp:408] detection_accuracy_1_5x5 -> accuracy_1_5x5
I1210 21:06:03.324971 11390 net.cpp:408] detection_accuracy_1_5x5 -> boxiou_1_5x5
I1210 21:06:03.325017 11390 net.cpp:150] Setting up detection_accuracy_1_5x5
I1210 21:06:03.325026 11390 net.cpp:157] Top shape: 1 1 1 2 (2)
I1210 21:06:03.325034 11390 net.cpp:157] Top shape: 1 1 1 1 (1)
I1210 21:06:03.325040 11390 net.cpp:165] Memory required for data: 4455790896
I1210 21:06:03.325045 11390 layer_factory.hpp:77] Creating layer LFCN_1_7x7
I1210 21:06:03.325057 11390 net.cpp:100] Creating Layer LFCN_1_7x7
I1210 21:06:03.325063 11390 net.cpp:434] LFCN_1_7x7 <- loss1_conv1_loss_relu1_0_split_1
I1210 21:06:03.325071 11390 net.cpp:408] LFCN_1_7x7 -> LFCN_1_7x7
I1210 21:06:03.331959 11390 net.cpp:150] Setting up LFCN_1_7x7
I1210 21:06:03.331979 11390 net.cpp:157] Top shape: 2 9 96 96 (165888)
I1210 21:06:03.331984 11390 net.cpp:165] Memory required for data: 4456454448
I1210 21:06:03.332000 11390 layer_factory.hpp:77] Creating layer LFCN_1_7x7_LFCN_1_7x7_0_split
I1210 21:06:03.332011 11390 net.cpp:100] Creating Layer LFCN_1_7x7_LFCN_1_7x7_0_split
I1210 21:06:03.332017 11390 net.cpp:434] LFCN_1_7x7_LFCN_1_7x7_0_split <- LFCN_1_7x7
I1210 21:06:03.332026 11390 net.cpp:408] LFCN_1_7x7_LFCN_1_7x7_0_split -> LFCN_1_7x7_LFCN_1_7x7_0_split_0
I1210 21:06:03.332038 11390 net.cpp:408] LFCN_1_7x7_LFCN_1_7x7_0_split -> LFCN_1_7x7_LFCN_1_7x7_0_split_1
I1210 21:06:03.332047 11390 net.cpp:408] LFCN_1_7x7_LFCN_1_7x7_0_split -> LFCN_1_7x7_LFCN_1_7x7_0_split_2
I1210 21:06:03.332100 11390 net.cpp:150] Setting up LFCN_1_7x7_LFCN_1_7x7_0_split
I1210 21:06:03.332110 11390 net.cpp:157] Top shape: 2 9 96 96 (165888)
I1210 21:06:03.332116 11390 net.cpp:157] Top shape: 2 9 96 96 (165888)
I1210 21:06:03.332123 11390 net.cpp:157] Top shape: 2 9 96 96 (165888)
I1210 21:06:03.332129 11390 net.cpp:165] Memory required for data: 4458445104
I1210 21:06:03.332134 11390 layer_factory.hpp:77] Creating layer detection_loss_1_7x7
I1210 21:06:03.332142 11390 net.cpp:100] Creating Layer detection_loss_1_7x7
I1210 21:06:03.332149 11390 net.cpp:434] detection_loss_1_7x7 <- LFCN_1_7x7_LFCN_1_7x7_0_split_0
I1210 21:06:03.332156 11390 net.cpp:434] detection_loss_1_7x7 <- label_1_7x7_data_2_split_0
I1210 21:06:03.332165 11390 net.cpp:408] detection_loss_1_7x7 -> loss_1_7x7
I1210 21:06:03.332176 11390 layer_factory.hpp:77] Creating layer detection_loss_1_7x7
I1210 21:06:03.333423 11390 net.cpp:150] Setting up detection_loss_1_7x7
I1210 21:06:03.333441 11390 net.cpp:157] Top shape: 1 1 1 2 (2)
I1210 21:06:03.333446 11390 net.cpp:160]     with loss weight 0.9
I1210 21:06:03.333462 11390 net.cpp:165] Memory required for data: 4458445112
I1210 21:06:03.333468 11390 layer_factory.hpp:77] Creating layer detection_accuracy_1_7x7
I1210 21:06:03.333479 11390 net.cpp:100] Creating Layer detection_accuracy_1_7x7
I1210 21:06:03.333487 11390 net.cpp:434] detection_accuracy_1_7x7 <- LFCN_1_7x7_LFCN_1_7x7_0_split_1
I1210 21:06:03.333495 11390 net.cpp:434] detection_accuracy_1_7x7 <- label_1_7x7_data_2_split_1
I1210 21:06:03.333504 11390 net.cpp:408] detection_accuracy_1_7x7 -> accuracy_1_7x7
I1210 21:06:03.333515 11390 net.cpp:408] detection_accuracy_1_7x7 -> boxiou_1_7x7
I1210 21:06:03.333559 11390 net.cpp:150] Setting up detection_accuracy_1_7x7
I1210 21:06:03.333568 11390 net.cpp:157] Top shape: 1 1 1 2 (2)
I1210 21:06:03.333575 11390 net.cpp:157] Top shape: 1 1 1 1 (1)
I1210 21:06:03.333580 11390 net.cpp:165] Memory required for data: 4458445124
I1210 21:06:03.333585 11390 layer_factory.hpp:77] Creating layer pool4
I1210 21:06:03.333593 11390 net.cpp:100] Creating Layer pool4
I1210 21:06:03.333600 11390 net.cpp:434] pool4 <- conv4_3_relu4_3_0_split_1
I1210 21:06:03.333609 11390 net.cpp:408] pool4 -> pool4
I1210 21:06:03.333647 11390 net.cpp:150] Setting up pool4
I1210 21:06:03.333657 11390 net.cpp:157] Top shape: 2 512 48 48 (2359296)
I1210 21:06:03.333662 11390 net.cpp:165] Memory required for data: 4467882308
I1210 21:06:03.333667 11390 layer_factory.hpp:77] Creating layer conv5_1
I1210 21:06:03.333676 11390 net.cpp:100] Creating Layer conv5_1
I1210 21:06:03.333683 11390 net.cpp:434] conv5_1 <- pool4
I1210 21:06:03.333691 11390 net.cpp:408] conv5_1 -> conv5_1
I1210 21:06:03.339160 11390 net.cpp:150] Setting up conv5_1
I1210 21:06:03.339197 11390 net.cpp:157] Top shape: 2 512 48 48 (2359296)
I1210 21:06:03.339203 11390 net.cpp:165] Memory required for data: 4477319492
I1210 21:06:03.339217 11390 layer_factory.hpp:77] Creating layer relu5_1
I1210 21:06:03.339234 11390 net.cpp:100] Creating Layer relu5_1
I1210 21:06:03.339246 11390 net.cpp:434] relu5_1 <- conv5_1
I1210 21:06:03.339257 11390 net.cpp:395] relu5_1 -> conv5_1 (in-place)
I1210 21:06:03.339429 11390 net.cpp:150] Setting up relu5_1
I1210 21:06:03.339442 11390 net.cpp:157] Top shape: 2 512 48 48 (2359296)
I1210 21:06:03.339445 11390 net.cpp:165] Memory required for data: 4486756676
I1210 21:06:03.339450 11390 layer_factory.hpp:77] Creating layer conv5_2
I1210 21:06:03.339463 11390 net.cpp:100] Creating Layer conv5_2
I1210 21:06:03.339469 11390 net.cpp:434] conv5_2 <- conv5_1
I1210 21:06:03.339478 11390 net.cpp:408] conv5_2 -> conv5_2
I1210 21:06:03.345564 11390 net.cpp:150] Setting up conv5_2
I1210 21:06:03.345598 11390 net.cpp:157] Top shape: 2 512 48 48 (2359296)
I1210 21:06:03.345604 11390 net.cpp:165] Memory required for data: 4496193860
I1210 21:06:03.345618 11390 layer_factory.hpp:77] Creating layer relu5_2
I1210 21:06:03.345635 11390 net.cpp:100] Creating Layer relu5_2
I1210 21:06:03.345645 11390 net.cpp:434] relu5_2 <- conv5_2
I1210 21:06:03.345655 11390 net.cpp:395] relu5_2 -> conv5_2 (in-place)
I1210 21:06:03.345824 11390 net.cpp:150] Setting up relu5_2
I1210 21:06:03.345835 11390 net.cpp:157] Top shape: 2 512 48 48 (2359296)
I1210 21:06:03.345840 11390 net.cpp:165] Memory required for data: 4505631044
I1210 21:06:03.345845 11390 layer_factory.hpp:77] Creating layer conv5_3
I1210 21:06:03.345857 11390 net.cpp:100] Creating Layer conv5_3
I1210 21:06:03.345863 11390 net.cpp:434] conv5_3 <- conv5_2
I1210 21:06:03.345872 11390 net.cpp:408] conv5_3 -> conv5_3
I1210 21:06:03.352949 11390 net.cpp:150] Setting up conv5_3
I1210 21:06:03.352984 11390 net.cpp:157] Top shape: 2 512 48 48 (2359296)
I1210 21:06:03.352989 11390 net.cpp:165] Memory required for data: 4515068228
I1210 21:06:03.353005 11390 layer_factory.hpp:77] Creating layer relu5_3
I1210 21:06:03.353020 11390 net.cpp:100] Creating Layer relu5_3
I1210 21:06:03.353029 11390 net.cpp:434] relu5_3 <- conv5_3
I1210 21:06:03.353036 11390 net.cpp:395] relu5_3 -> conv5_3 (in-place)
I1210 21:06:03.353209 11390 net.cpp:150] Setting up relu5_3
I1210 21:06:03.353220 11390 net.cpp:157] Top shape: 2 512 48 48 (2359296)
I1210 21:06:03.353225 11390 net.cpp:165] Memory required for data: 4524505412
I1210 21:06:03.353230 11390 layer_factory.hpp:77] Creating layer conv5_3_relu5_3_0_split
I1210 21:06:03.353238 11390 net.cpp:100] Creating Layer conv5_3_relu5_3_0_split
I1210 21:06:03.353245 11390 net.cpp:434] conv5_3_relu5_3_0_split <- conv5_3
I1210 21:06:03.353255 11390 net.cpp:408] conv5_3_relu5_3_0_split -> conv5_3_relu5_3_0_split_0
I1210 21:06:03.353265 11390 net.cpp:408] conv5_3_relu5_3_0_split -> conv5_3_relu5_3_0_split_1
I1210 21:06:03.353274 11390 net.cpp:408] conv5_3_relu5_3_0_split -> conv5_3_relu5_3_0_split_2
I1210 21:06:03.353330 11390 net.cpp:150] Setting up conv5_3_relu5_3_0_split
I1210 21:06:03.353338 11390 net.cpp:157] Top shape: 2 512 48 48 (2359296)
I1210 21:06:03.353345 11390 net.cpp:157] Top shape: 2 512 48 48 (2359296)
I1210 21:06:03.353350 11390 net.cpp:157] Top shape: 2 512 48 48 (2359296)
I1210 21:06:03.353355 11390 net.cpp:165] Memory required for data: 4552816964
I1210 21:06:03.353359 11390 layer_factory.hpp:77] Creating layer LFCN_2_5x5
I1210 21:06:03.353380 11390 net.cpp:100] Creating Layer LFCN_2_5x5
I1210 21:06:03.353387 11390 net.cpp:434] LFCN_2_5x5 <- conv5_3_relu5_3_0_split_0
I1210 21:06:03.353397 11390 net.cpp:408] LFCN_2_5x5 -> LFCN_2_5x5
I1210 21:06:03.357615 11390 net.cpp:150] Setting up LFCN_2_5x5
I1210 21:06:03.357635 11390 net.cpp:157] Top shape: 2 9 48 48 (41472)
I1210 21:06:03.357640 11390 net.cpp:165] Memory required for data: 4552982852
I1210 21:06:03.357650 11390 layer_factory.hpp:77] Creating layer LFCN_2_5x5_LFCN_2_5x5_0_split
I1210 21:06:03.357661 11390 net.cpp:100] Creating Layer LFCN_2_5x5_LFCN_2_5x5_0_split
I1210 21:06:03.357668 11390 net.cpp:434] LFCN_2_5x5_LFCN_2_5x5_0_split <- LFCN_2_5x5
I1210 21:06:03.357677 11390 net.cpp:408] LFCN_2_5x5_LFCN_2_5x5_0_split -> LFCN_2_5x5_LFCN_2_5x5_0_split_0
I1210 21:06:03.357689 11390 net.cpp:408] LFCN_2_5x5_LFCN_2_5x5_0_split -> LFCN_2_5x5_LFCN_2_5x5_0_split_1
I1210 21:06:03.357698 11390 net.cpp:408] LFCN_2_5x5_LFCN_2_5x5_0_split -> LFCN_2_5x5_LFCN_2_5x5_0_split_2
I1210 21:06:03.357751 11390 net.cpp:150] Setting up LFCN_2_5x5_LFCN_2_5x5_0_split
I1210 21:06:03.357760 11390 net.cpp:157] Top shape: 2 9 48 48 (41472)
I1210 21:06:03.357765 11390 net.cpp:157] Top shape: 2 9 48 48 (41472)
I1210 21:06:03.357771 11390 net.cpp:157] Top shape: 2 9 48 48 (41472)
I1210 21:06:03.357776 11390 net.cpp:165] Memory required for data: 4553480516
I1210 21:06:03.357780 11390 layer_factory.hpp:77] Creating layer detection_loss_2_5x5
I1210 21:06:03.357789 11390 net.cpp:100] Creating Layer detection_loss_2_5x5
I1210 21:06:03.357795 11390 net.cpp:434] detection_loss_2_5x5 <- LFCN_2_5x5_LFCN_2_5x5_0_split_0
I1210 21:06:03.357802 11390 net.cpp:434] detection_loss_2_5x5 <- label_2_5x5_data_3_split_0
I1210 21:06:03.357811 11390 net.cpp:408] detection_loss_2_5x5 -> loss_2_5x5
I1210 21:06:03.357825 11390 layer_factory.hpp:77] Creating layer detection_loss_2_5x5
I1210 21:06:03.358157 11390 net.cpp:150] Setting up detection_loss_2_5x5
I1210 21:06:03.358170 11390 net.cpp:157] Top shape: 1 1 1 2 (2)
I1210 21:06:03.358175 11390 net.cpp:160]     with loss weight 1
I1210 21:06:03.358188 11390 net.cpp:165] Memory required for data: 4553480524
I1210 21:06:03.358194 11390 layer_factory.hpp:77] Creating layer detection_accuracy_2_5x5
I1210 21:06:03.358204 11390 net.cpp:100] Creating Layer detection_accuracy_2_5x5
I1210 21:06:03.358211 11390 net.cpp:434] detection_accuracy_2_5x5 <- LFCN_2_5x5_LFCN_2_5x5_0_split_1
I1210 21:06:03.358218 11390 net.cpp:434] detection_accuracy_2_5x5 <- label_2_5x5_data_3_split_1
I1210 21:06:03.358227 11390 net.cpp:408] detection_accuracy_2_5x5 -> accuracy_2_5x5
I1210 21:06:03.358239 11390 net.cpp:408] detection_accuracy_2_5x5 -> boxiou_2_5x5
I1210 21:06:03.358281 11390 net.cpp:150] Setting up detection_accuracy_2_5x5
I1210 21:06:03.358290 11390 net.cpp:157] Top shape: 1 1 1 2 (2)
I1210 21:06:03.358296 11390 net.cpp:157] Top shape: 1 1 1 1 (1)
I1210 21:06:03.358300 11390 net.cpp:165] Memory required for data: 4553480536
I1210 21:06:03.358305 11390 layer_factory.hpp:77] Creating layer LFCN_2_7x7
I1210 21:06:03.358319 11390 net.cpp:100] Creating Layer LFCN_2_7x7
I1210 21:06:03.358325 11390 net.cpp:434] LFCN_2_7x7 <- conv5_3_relu5_3_0_split_1
I1210 21:06:03.358335 11390 net.cpp:408] LFCN_2_7x7 -> LFCN_2_7x7
I1210 21:06:03.365159 11390 net.cpp:150] Setting up LFCN_2_7x7
I1210 21:06:03.365185 11390 net.cpp:157] Top shape: 2 9 48 48 (41472)
I1210 21:06:03.365190 11390 net.cpp:165] Memory required for data: 4553646424
I1210 21:06:03.365201 11390 layer_factory.hpp:77] Creating layer LFCN_2_7x7_LFCN_2_7x7_0_split
I1210 21:06:03.365212 11390 net.cpp:100] Creating Layer LFCN_2_7x7_LFCN_2_7x7_0_split
I1210 21:06:03.365219 11390 net.cpp:434] LFCN_2_7x7_LFCN_2_7x7_0_split <- LFCN_2_7x7
I1210 21:06:03.365232 11390 net.cpp:408] LFCN_2_7x7_LFCN_2_7x7_0_split -> LFCN_2_7x7_LFCN_2_7x7_0_split_0
I1210 21:06:03.365247 11390 net.cpp:408] LFCN_2_7x7_LFCN_2_7x7_0_split -> LFCN_2_7x7_LFCN_2_7x7_0_split_1
I1210 21:06:03.365255 11390 net.cpp:408] LFCN_2_7x7_LFCN_2_7x7_0_split -> LFCN_2_7x7_LFCN_2_7x7_0_split_2
I1210 21:06:03.365310 11390 net.cpp:150] Setting up LFCN_2_7x7_LFCN_2_7x7_0_split
I1210 21:06:03.365319 11390 net.cpp:157] Top shape: 2 9 48 48 (41472)
I1210 21:06:03.365325 11390 net.cpp:157] Top shape: 2 9 48 48 (41472)
I1210 21:06:03.365331 11390 net.cpp:157] Top shape: 2 9 48 48 (41472)
I1210 21:06:03.365335 11390 net.cpp:165] Memory required for data: 4554144088
I1210 21:06:03.365340 11390 layer_factory.hpp:77] Creating layer detection_loss_2_7x7
I1210 21:06:03.365350 11390 net.cpp:100] Creating Layer detection_loss_2_7x7
I1210 21:06:03.365356 11390 net.cpp:434] detection_loss_2_7x7 <- LFCN_2_7x7_LFCN_2_7x7_0_split_0
I1210 21:06:03.365363 11390 net.cpp:434] detection_loss_2_7x7 <- label_2_7x7_data_4_split_0
I1210 21:06:03.365373 11390 net.cpp:408] detection_loss_2_7x7 -> loss_2_7x7
I1210 21:06:03.365387 11390 layer_factory.hpp:77] Creating layer detection_loss_2_7x7
I1210 21:06:03.366065 11390 net.cpp:150] Setting up detection_loss_2_7x7
I1210 21:06:03.366083 11390 net.cpp:157] Top shape: 1 1 1 2 (2)
I1210 21:06:03.366088 11390 net.cpp:160]     with loss weight 1
I1210 21:06:03.366103 11390 net.cpp:165] Memory required for data: 4554144096
I1210 21:06:03.366109 11390 layer_factory.hpp:77] Creating layer detection_accuracy_2_7x7
I1210 21:06:03.366119 11390 net.cpp:100] Creating Layer detection_accuracy_2_7x7
I1210 21:06:03.366127 11390 net.cpp:434] detection_accuracy_2_7x7 <- LFCN_2_7x7_LFCN_2_7x7_0_split_1
I1210 21:06:03.366133 11390 net.cpp:434] detection_accuracy_2_7x7 <- label_2_7x7_data_4_split_1
I1210 21:06:03.366142 11390 net.cpp:408] detection_accuracy_2_7x7 -> accuracy_2_7x7
I1210 21:06:03.366153 11390 net.cpp:408] detection_accuracy_2_7x7 -> boxiou_2_7x7
I1210 21:06:03.366199 11390 net.cpp:150] Setting up detection_accuracy_2_7x7
I1210 21:06:03.366209 11390 net.cpp:157] Top shape: 1 1 1 2 (2)
I1210 21:06:03.366214 11390 net.cpp:157] Top shape: 1 1 1 1 (1)
I1210 21:06:03.366219 11390 net.cpp:165] Memory required for data: 4554144108
I1210 21:06:03.366223 11390 layer_factory.hpp:77] Creating layer pool5
I1210 21:06:03.366235 11390 net.cpp:100] Creating Layer pool5
I1210 21:06:03.366242 11390 net.cpp:434] pool5 <- conv5_3_relu5_3_0_split_2
I1210 21:06:03.366250 11390 net.cpp:408] pool5 -> pool5
I1210 21:06:03.366291 11390 net.cpp:150] Setting up pool5
I1210 21:06:03.366299 11390 net.cpp:157] Top shape: 2 512 24 24 (589824)
I1210 21:06:03.366303 11390 net.cpp:165] Memory required for data: 4556503404
I1210 21:06:03.366308 11390 layer_factory.hpp:77] Creating layer conv6_1
I1210 21:06:03.366322 11390 net.cpp:100] Creating Layer conv6_1
I1210 21:06:03.366328 11390 net.cpp:434] conv6_1 <- pool5
I1210 21:06:03.366338 11390 net.cpp:408] conv6_1 -> conv6_1
I1210 21:06:03.428160 11390 net.cpp:150] Setting up conv6_1
I1210 21:06:03.428189 11390 net.cpp:157] Top shape: 2 512 24 24 (589824)
I1210 21:06:03.428194 11390 net.cpp:165] Memory required for data: 4558862700
I1210 21:06:03.428205 11390 layer_factory.hpp:77] Creating layer relu6_1
I1210 21:06:03.428220 11390 net.cpp:100] Creating Layer relu6_1
I1210 21:06:03.428230 11390 net.cpp:434] relu6_1 <- conv6_1
I1210 21:06:03.428239 11390 net.cpp:395] relu6_1 -> conv6_1 (in-place)
I1210 21:06:03.428408 11390 net.cpp:150] Setting up relu6_1
I1210 21:06:03.428421 11390 net.cpp:157] Top shape: 2 512 24 24 (589824)
I1210 21:06:03.428426 11390 net.cpp:165] Memory required for data: 4561221996
I1210 21:06:03.428429 11390 layer_factory.hpp:77] Creating layer conv6_1_relu6_1_0_split
I1210 21:06:03.428437 11390 net.cpp:100] Creating Layer conv6_1_relu6_1_0_split
I1210 21:06:03.428442 11390 net.cpp:434] conv6_1_relu6_1_0_split <- conv6_1
I1210 21:06:03.428449 11390 net.cpp:408] conv6_1_relu6_1_0_split -> conv6_1_relu6_1_0_split_0
I1210 21:06:03.428462 11390 net.cpp:408] conv6_1_relu6_1_0_split -> conv6_1_relu6_1_0_split_1
I1210 21:06:03.428472 11390 net.cpp:408] conv6_1_relu6_1_0_split -> conv6_1_relu6_1_0_split_2
I1210 21:06:03.428526 11390 net.cpp:150] Setting up conv6_1_relu6_1_0_split
I1210 21:06:03.428535 11390 net.cpp:157] Top shape: 2 512 24 24 (589824)
I1210 21:06:03.428542 11390 net.cpp:157] Top shape: 2 512 24 24 (589824)
I1210 21:06:03.428550 11390 net.cpp:157] Top shape: 2 512 24 24 (589824)
I1210 21:06:03.428555 11390 net.cpp:165] Memory required for data: 4568299884
I1210 21:06:03.428560 11390 layer_factory.hpp:77] Creating layer LFCN_3_5x5
I1210 21:06:03.428572 11390 net.cpp:100] Creating Layer LFCN_3_5x5
I1210 21:06:03.428580 11390 net.cpp:434] LFCN_3_5x5 <- conv6_1_relu6_1_0_split_0
I1210 21:06:03.428588 11390 net.cpp:408] LFCN_3_5x5 -> LFCN_3_5x5
I1210 21:06:03.433102 11390 net.cpp:150] Setting up LFCN_3_5x5
I1210 21:06:03.433120 11390 net.cpp:157] Top shape: 2 9 24 24 (10368)
I1210 21:06:03.433125 11390 net.cpp:165] Memory required for data: 4568341356
I1210 21:06:03.433135 11390 layer_factory.hpp:77] Creating layer LFCN_3_5x5_LFCN_3_5x5_0_split
I1210 21:06:03.433145 11390 net.cpp:100] Creating Layer LFCN_3_5x5_LFCN_3_5x5_0_split
I1210 21:06:03.433152 11390 net.cpp:434] LFCN_3_5x5_LFCN_3_5x5_0_split <- LFCN_3_5x5
I1210 21:06:03.433162 11390 net.cpp:408] LFCN_3_5x5_LFCN_3_5x5_0_split -> LFCN_3_5x5_LFCN_3_5x5_0_split_0
I1210 21:06:03.433174 11390 net.cpp:408] LFCN_3_5x5_LFCN_3_5x5_0_split -> LFCN_3_5x5_LFCN_3_5x5_0_split_1
I1210 21:06:03.433184 11390 net.cpp:408] LFCN_3_5x5_LFCN_3_5x5_0_split -> LFCN_3_5x5_LFCN_3_5x5_0_split_2
I1210 21:06:03.433241 11390 net.cpp:150] Setting up LFCN_3_5x5_LFCN_3_5x5_0_split
I1210 21:06:03.433252 11390 net.cpp:157] Top shape: 2 9 24 24 (10368)
I1210 21:06:03.433259 11390 net.cpp:157] Top shape: 2 9 24 24 (10368)
I1210 21:06:03.433265 11390 net.cpp:157] Top shape: 2 9 24 24 (10368)
I1210 21:06:03.433270 11390 net.cpp:165] Memory required for data: 4568465772
I1210 21:06:03.433275 11390 layer_factory.hpp:77] Creating layer detection_loss_3_5x5
I1210 21:06:03.433284 11390 net.cpp:100] Creating Layer detection_loss_3_5x5
I1210 21:06:03.433291 11390 net.cpp:434] detection_loss_3_5x5 <- LFCN_3_5x5_LFCN_3_5x5_0_split_0
I1210 21:06:03.433297 11390 net.cpp:434] detection_loss_3_5x5 <- label_3_5x5_data_5_split_0
I1210 21:06:03.433307 11390 net.cpp:408] detection_loss_3_5x5 -> loss_3_5x5
I1210 21:06:03.433321 11390 layer_factory.hpp:77] Creating layer detection_loss_3_5x5
I1210 21:06:03.433636 11390 net.cpp:150] Setting up detection_loss_3_5x5
I1210 21:06:03.433648 11390 net.cpp:157] Top shape: 1 1 1 2 (2)
I1210 21:06:03.433653 11390 net.cpp:160]     with loss weight 1
I1210 21:06:03.433667 11390 net.cpp:165] Memory required for data: 4568465780
I1210 21:06:03.433672 11390 layer_factory.hpp:77] Creating layer detection_accuracy_3_5x5
I1210 21:06:03.433681 11390 net.cpp:100] Creating Layer detection_accuracy_3_5x5
I1210 21:06:03.433687 11390 net.cpp:434] detection_accuracy_3_5x5 <- LFCN_3_5x5_LFCN_3_5x5_0_split_1
I1210 21:06:03.433696 11390 net.cpp:434] detection_accuracy_3_5x5 <- label_3_5x5_data_5_split_1
I1210 21:06:03.433703 11390 net.cpp:408] detection_accuracy_3_5x5 -> accuracy_3_5x5
I1210 21:06:03.433714 11390 net.cpp:408] detection_accuracy_3_5x5 -> boxiou_3_5x5
I1210 21:06:03.433758 11390 net.cpp:150] Setting up detection_accuracy_3_5x5
I1210 21:06:03.433766 11390 net.cpp:157] Top shape: 1 1 1 2 (2)
I1210 21:06:03.433773 11390 net.cpp:157] Top shape: 1 1 1 1 (1)
I1210 21:06:03.433776 11390 net.cpp:165] Memory required for data: 4568465792
I1210 21:06:03.433781 11390 layer_factory.hpp:77] Creating layer LFCN_3_7x7
I1210 21:06:03.433792 11390 net.cpp:100] Creating Layer LFCN_3_7x7
I1210 21:06:03.433799 11390 net.cpp:434] LFCN_3_7x7 <- conv6_1_relu6_1_0_split_1
I1210 21:06:03.433809 11390 net.cpp:408] LFCN_3_7x7 -> LFCN_3_7x7
I1210 21:06:03.440600 11390 net.cpp:150] Setting up LFCN_3_7x7
I1210 21:06:03.440615 11390 net.cpp:157] Top shape: 2 9 24 24 (10368)
I1210 21:06:03.440621 11390 net.cpp:165] Memory required for data: 4568507264
I1210 21:06:03.440629 11390 layer_factory.hpp:77] Creating layer LFCN_3_7x7_LFCN_3_7x7_0_split
I1210 21:06:03.440637 11390 net.cpp:100] Creating Layer LFCN_3_7x7_LFCN_3_7x7_0_split
I1210 21:06:03.440644 11390 net.cpp:434] LFCN_3_7x7_LFCN_3_7x7_0_split <- LFCN_3_7x7
I1210 21:06:03.440655 11390 net.cpp:408] LFCN_3_7x7_LFCN_3_7x7_0_split -> LFCN_3_7x7_LFCN_3_7x7_0_split_0
I1210 21:06:03.440665 11390 net.cpp:408] LFCN_3_7x7_LFCN_3_7x7_0_split -> LFCN_3_7x7_LFCN_3_7x7_0_split_1
I1210 21:06:03.440675 11390 net.cpp:408] LFCN_3_7x7_LFCN_3_7x7_0_split -> LFCN_3_7x7_LFCN_3_7x7_0_split_2
I1210 21:06:03.440732 11390 net.cpp:150] Setting up LFCN_3_7x7_LFCN_3_7x7_0_split
I1210 21:06:03.440742 11390 net.cpp:157] Top shape: 2 9 24 24 (10368)
I1210 21:06:03.440747 11390 net.cpp:157] Top shape: 2 9 24 24 (10368)
I1210 21:06:03.440755 11390 net.cpp:157] Top shape: 2 9 24 24 (10368)
I1210 21:06:03.440762 11390 net.cpp:165] Memory required for data: 4568631680
I1210 21:06:03.440766 11390 layer_factory.hpp:77] Creating layer detection_loss_3_7x7
I1210 21:06:03.440775 11390 net.cpp:100] Creating Layer detection_loss_3_7x7
I1210 21:06:03.440783 11390 net.cpp:434] detection_loss_3_7x7 <- LFCN_3_7x7_LFCN_3_7x7_0_split_0
I1210 21:06:03.440789 11390 net.cpp:434] detection_loss_3_7x7 <- label_3_7x7_data_6_split_0
I1210 21:06:03.440814 11390 net.cpp:408] detection_loss_3_7x7 -> loss_3_7x7
I1210 21:06:03.440829 11390 layer_factory.hpp:77] Creating layer detection_loss_3_7x7
I1210 21:06:03.441141 11390 net.cpp:150] Setting up detection_loss_3_7x7
I1210 21:06:03.441152 11390 net.cpp:157] Top shape: 1 1 1 2 (2)
I1210 21:06:03.441157 11390 net.cpp:160]     with loss weight 1
I1210 21:06:03.441165 11390 net.cpp:165] Memory required for data: 4568631688
I1210 21:06:03.441171 11390 layer_factory.hpp:77] Creating layer detection_accuracy_3_7x7
I1210 21:06:03.441181 11390 net.cpp:100] Creating Layer detection_accuracy_3_7x7
I1210 21:06:03.441188 11390 net.cpp:434] detection_accuracy_3_7x7 <- LFCN_3_7x7_LFCN_3_7x7_0_split_1
I1210 21:06:03.441195 11390 net.cpp:434] detection_accuracy_3_7x7 <- label_3_7x7_data_6_split_1
I1210 21:06:03.441201 11390 net.cpp:408] detection_accuracy_3_7x7 -> accuracy_3_7x7
I1210 21:06:03.441215 11390 net.cpp:408] detection_accuracy_3_7x7 -> boxiou_3_7x7
I1210 21:06:03.441256 11390 net.cpp:150] Setting up detection_accuracy_3_7x7
I1210 21:06:03.441265 11390 net.cpp:157] Top shape: 1 1 1 2 (2)
I1210 21:06:03.441272 11390 net.cpp:157] Top shape: 1 1 1 1 (1)
I1210 21:06:03.441275 11390 net.cpp:165] Memory required for data: 4568631700
I1210 21:06:03.441279 11390 layer_factory.hpp:77] Creating layer pool6
I1210 21:06:03.441289 11390 net.cpp:100] Creating Layer pool6
I1210 21:06:03.441296 11390 net.cpp:434] pool6 <- conv6_1_relu6_1_0_split_2
I1210 21:06:03.441303 11390 net.cpp:408] pool6 -> pool6
I1210 21:06:03.441344 11390 net.cpp:150] Setting up pool6
I1210 21:06:03.441354 11390 net.cpp:157] Top shape: 2 512 12 12 (147456)
I1210 21:06:03.441359 11390 net.cpp:165] Memory required for data: 4569221524
I1210 21:06:03.441362 11390 layer_factory.hpp:77] Creating layer LFCN_4_5x5
I1210 21:06:03.441375 11390 net.cpp:100] Creating Layer LFCN_4_5x5
I1210 21:06:03.441380 11390 net.cpp:434] LFCN_4_5x5 <- pool6
I1210 21:06:03.441392 11390 net.cpp:408] LFCN_4_5x5 -> LFCN_4_5x5
I1210 21:06:03.445662 11390 net.cpp:150] Setting up LFCN_4_5x5
I1210 21:06:03.445682 11390 net.cpp:157] Top shape: 2 9 12 12 (2592)
I1210 21:06:03.445688 11390 net.cpp:165] Memory required for data: 4569231892
I1210 21:06:03.445698 11390 layer_factory.hpp:77] Creating layer LFCN_4_5x5_LFCN_4_5x5_0_split
I1210 21:06:03.445709 11390 net.cpp:100] Creating Layer LFCN_4_5x5_LFCN_4_5x5_0_split
I1210 21:06:03.445716 11390 net.cpp:434] LFCN_4_5x5_LFCN_4_5x5_0_split <- LFCN_4_5x5
I1210 21:06:03.445726 11390 net.cpp:408] LFCN_4_5x5_LFCN_4_5x5_0_split -> LFCN_4_5x5_LFCN_4_5x5_0_split_0
I1210 21:06:03.445739 11390 net.cpp:408] LFCN_4_5x5_LFCN_4_5x5_0_split -> LFCN_4_5x5_LFCN_4_5x5_0_split_1
I1210 21:06:03.445749 11390 net.cpp:408] LFCN_4_5x5_LFCN_4_5x5_0_split -> LFCN_4_5x5_LFCN_4_5x5_0_split_2
I1210 21:06:03.445802 11390 net.cpp:150] Setting up LFCN_4_5x5_LFCN_4_5x5_0_split
I1210 21:06:03.445811 11390 net.cpp:157] Top shape: 2 9 12 12 (2592)
I1210 21:06:03.445817 11390 net.cpp:157] Top shape: 2 9 12 12 (2592)
I1210 21:06:03.445823 11390 net.cpp:157] Top shape: 2 9 12 12 (2592)
I1210 21:06:03.445827 11390 net.cpp:165] Memory required for data: 4569262996
I1210 21:06:03.445832 11390 layer_factory.hpp:77] Creating layer detection_loss_4_5x5
I1210 21:06:03.445844 11390 net.cpp:100] Creating Layer detection_loss_4_5x5
I1210 21:06:03.445852 11390 net.cpp:434] detection_loss_4_5x5 <- LFCN_4_5x5_LFCN_4_5x5_0_split_0
I1210 21:06:03.445858 11390 net.cpp:434] detection_loss_4_5x5 <- label_4_5x5_data_7_split_0
I1210 21:06:03.445868 11390 net.cpp:408] detection_loss_4_5x5 -> loss_4_5x5
I1210 21:06:03.445880 11390 layer_factory.hpp:77] Creating layer detection_loss_4_5x5
I1210 21:06:03.446194 11390 net.cpp:150] Setting up detection_loss_4_5x5
I1210 21:06:03.446207 11390 net.cpp:157] Top shape: 1 1 1 2 (2)
I1210 21:06:03.446210 11390 net.cpp:160]     with loss weight 1
I1210 21:06:03.446223 11390 net.cpp:165] Memory required for data: 4569263004
I1210 21:06:03.446228 11390 layer_factory.hpp:77] Creating layer detection_accuracy_4_5x5
I1210 21:06:03.446238 11390 net.cpp:100] Creating Layer detection_accuracy_4_5x5
I1210 21:06:03.446246 11390 net.cpp:434] detection_accuracy_4_5x5 <- LFCN_4_5x5_LFCN_4_5x5_0_split_1
I1210 21:06:03.446252 11390 net.cpp:434] detection_accuracy_4_5x5 <- label_4_5x5_data_7_split_1
I1210 21:06:03.446259 11390 net.cpp:408] detection_accuracy_4_5x5 -> accuracy_4_5x5
I1210 21:06:03.446270 11390 net.cpp:408] detection_accuracy_4_5x5 -> boxiou_4_5x5
I1210 21:06:03.446318 11390 net.cpp:150] Setting up detection_accuracy_4_5x5
I1210 21:06:03.446334 11390 net.cpp:157] Top shape: 1 1 1 2 (2)
I1210 21:06:03.446341 11390 net.cpp:157] Top shape: 1 1 1 1 (1)
I1210 21:06:03.446344 11390 net.cpp:165] Memory required for data: 4569263016
I1210 21:06:03.446349 11390 layer_factory.hpp:77] Creating layer proposals
I1210 21:06:03.446365 11390 net.cpp:100] Creating Layer proposals
I1210 21:06:03.446372 11390 net.cpp:434] proposals <- LFCN_1_5x5_LFCN_1_5x5_0_split_2
I1210 21:06:03.446378 11390 net.cpp:434] proposals <- LFCN_1_7x7_LFCN_1_7x7_0_split_2
I1210 21:06:03.446384 11390 net.cpp:434] proposals <- LFCN_2_5x5_LFCN_2_5x5_0_split_2
I1210 21:06:03.446389 11390 net.cpp:434] proposals <- LFCN_2_7x7_LFCN_2_7x7_0_split_2
I1210 21:06:03.446394 11390 net.cpp:434] proposals <- LFCN_3_5x5_LFCN_3_5x5_0_split_2
I1210 21:06:03.446400 11390 net.cpp:434] proposals <- LFCN_3_7x7_LFCN_3_7x7_0_split_2
I1210 21:06:03.446408 11390 net.cpp:434] proposals <- LFCN_4_5x5_LFCN_4_5x5_0_split_2
I1210 21:06:03.446414 11390 net.cpp:408] proposals -> proposals
I1210 21:06:03.446449 11390 net.cpp:150] Setting up proposals
I1210 21:06:03.446457 11390 net.cpp:157] Top shape: 1 5 1 1 (5)
I1210 21:06:03.446462 11390 net.cpp:165] Memory required for data: 4569263036
I1210 21:06:03.446467 11390 layer_factory.hpp:77] Creating layer proposal_info
I1210 21:06:03.446477 11390 net.cpp:100] Creating Layer proposal_info
I1210 21:06:03.446482 11390 net.cpp:434] proposal_info <- proposals
I1210 21:06:03.446489 11390 net.cpp:434] proposal_info <- gt_boxes
I1210 21:06:03.446498 11390 net.cpp:408] proposal_info -> rois
I1210 21:06:03.446516 11390 net.cpp:408] proposal_info -> proposal_labels
I1210 21:06:03.446527 11390 net.cpp:408] proposal_info -> proposal_targets
I1210 21:06:03.446538 11390 net.cpp:408] proposal_info -> box_inside_weights
I1210 21:06:03.446549 11390 net.cpp:408] proposal_info -> box_outside_weights
I1210 21:06:03.446560 11390 net.cpp:408] proposal_info -> match_gt_boxes
I1210 21:06:03.446650 11390 net.cpp:150] Setting up proposal_info
I1210 21:06:03.446660 11390 net.cpp:157] Top shape: 256 5 1 1 (1280)
I1210 21:06:03.446666 11390 net.cpp:157] Top shape: 256 1 1 1 (256)
I1210 21:06:03.446672 11390 net.cpp:157] Top shape: 256 20 1 1 (5120)
I1210 21:06:03.446677 11390 net.cpp:157] Top shape: 256 20 1 1 (5120)
I1210 21:06:03.446686 11390 net.cpp:157] Top shape: 256 20 1 1 (5120)
I1210 21:06:03.446691 11390 net.cpp:157] Top shape: 256 6 1 1 (1536)
I1210 21:06:03.446696 11390 net.cpp:165] Memory required for data: 4569336764
I1210 21:06:03.446702 11390 layer_factory.hpp:77] Creating layer rois_proposal_info_0_split
I1210 21:06:03.446709 11390 net.cpp:100] Creating Layer rois_proposal_info_0_split
I1210 21:06:03.446715 11390 net.cpp:434] rois_proposal_info_0_split <- rois
I1210 21:06:03.446722 11390 net.cpp:408] rois_proposal_info_0_split -> rois_proposal_info_0_split_0
I1210 21:06:03.446732 11390 net.cpp:408] rois_proposal_info_0_split -> rois_proposal_info_0_split_1
I1210 21:06:03.446751 11390 net.cpp:408] rois_proposal_info_0_split -> rois_proposal_info_0_split_2
I1210 21:06:03.446801 11390 net.cpp:150] Setting up rois_proposal_info_0_split
I1210 21:06:03.446810 11390 net.cpp:157] Top shape: 256 5 1 1 (1280)
I1210 21:06:03.446816 11390 net.cpp:157] Top shape: 256 5 1 1 (1280)
I1210 21:06:03.446825 11390 net.cpp:157] Top shape: 256 5 1 1 (1280)
I1210 21:06:03.446828 11390 net.cpp:165] Memory required for data: 4569352124
I1210 21:06:03.446833 11390 layer_factory.hpp:77] Creating layer proposal_labels_proposal_info_1_split
I1210 21:06:03.446841 11390 net.cpp:100] Creating Layer proposal_labels_proposal_info_1_split
I1210 21:06:03.446846 11390 net.cpp:434] proposal_labels_proposal_info_1_split <- proposal_labels
I1210 21:06:03.446856 11390 net.cpp:408] proposal_labels_proposal_info_1_split -> proposal_labels_proposal_info_1_split_0
I1210 21:06:03.446866 11390 net.cpp:408] proposal_labels_proposal_info_1_split -> proposal_labels_proposal_info_1_split_1
I1210 21:06:03.446903 11390 net.cpp:150] Setting up proposal_labels_proposal_info_1_split
I1210 21:06:03.446913 11390 net.cpp:157] Top shape: 256 1 1 1 (256)
I1210 21:06:03.446918 11390 net.cpp:157] Top shape: 256 1 1 1 (256)
I1210 21:06:03.446923 11390 net.cpp:165] Memory required for data: 4569354172
I1210 21:06:03.446928 11390 layer_factory.hpp:77] Creating layer conv4_3_2x
I1210 21:06:03.446938 11390 net.cpp:100] Creating Layer conv4_3_2x
I1210 21:06:03.446944 11390 net.cpp:434] conv4_3_2x <- conv4_3_relu4_3_0_split_2
I1210 21:06:03.446952 11390 net.cpp:408] conv4_3_2x -> conv4_3_2x
I1210 21:06:03.447430 11390 net.cpp:150] Setting up conv4_3_2x
I1210 21:06:03.447440 11390 net.cpp:157] Top shape: 2 512 192 192 (37748736)
I1210 21:06:03.447445 11390 net.cpp:165] Memory required for data: 4720349116
I1210 21:06:03.447451 11390 layer_factory.hpp:77] Creating layer conv4_3_2x_conv4_3_2x_0_split
I1210 21:06:03.447458 11390 net.cpp:100] Creating Layer conv4_3_2x_conv4_3_2x_0_split
I1210 21:06:03.447464 11390 net.cpp:434] conv4_3_2x_conv4_3_2x_0_split <- conv4_3_2x
I1210 21:06:03.447474 11390 net.cpp:408] conv4_3_2x_conv4_3_2x_0_split -> conv4_3_2x_conv4_3_2x_0_split_0
I1210 21:06:03.447484 11390 net.cpp:408] conv4_3_2x_conv4_3_2x_0_split -> conv4_3_2x_conv4_3_2x_0_split_1
I1210 21:06:03.447521 11390 net.cpp:150] Setting up conv4_3_2x_conv4_3_2x_0_split
I1210 21:06:03.447530 11390 net.cpp:157] Top shape: 2 512 192 192 (37748736)
I1210 21:06:03.447536 11390 net.cpp:157] Top shape: 2 512 192 192 (37748736)
I1210 21:06:03.447540 11390 net.cpp:165] Memory required for data: 5022339004
I1210 21:06:03.447546 11390 layer_factory.hpp:77] Creating layer roi_pool_org
I1210 21:06:03.447554 11390 net.cpp:100] Creating Layer roi_pool_org
I1210 21:06:03.447568 11390 net.cpp:434] roi_pool_org <- conv4_3_2x_conv4_3_2x_0_split_0
I1210 21:06:03.447583 11390 net.cpp:434] roi_pool_org <- rois_proposal_info_0_split_0
I1210 21:06:03.447592 11390 net.cpp:408] roi_pool_org -> roi_pool_org
I1210 21:06:03.447602 11390 roi_pooling_layer.cpp:33] Spatial scale: 0.25
I1210 21:06:03.447646 11390 net.cpp:150] Setting up roi_pool_org
I1210 21:06:03.447655 11390 net.cpp:157] Top shape: 256 512 7 7 (6422528)
I1210 21:06:03.447660 11390 net.cpp:165] Memory required for data: 5048029116
I1210 21:06:03.447664 11390 layer_factory.hpp:77] Creating layer roi_pool_ctx
I1210 21:06:03.447672 11390 net.cpp:100] Creating Layer roi_pool_ctx
I1210 21:06:03.447679 11390 net.cpp:434] roi_pool_ctx <- conv4_3_2x_conv4_3_2x_0_split_1
I1210 21:06:03.447685 11390 net.cpp:434] roi_pool_ctx <- rois_proposal_info_0_split_1
I1210 21:06:03.447693 11390 net.cpp:408] roi_pool_ctx -> roi_pool_ctx
I1210 21:06:03.447702 11390 roi_pooling_layer.cpp:33] Spatial scale: 0.25
I1210 21:06:03.447743 11390 net.cpp:150] Setting up roi_pool_ctx
I1210 21:06:03.447752 11390 net.cpp:157] Top shape: 256 512 7 7 (6422528)
I1210 21:06:03.447757 11390 net.cpp:165] Memory required for data: 5073719228
I1210 21:06:03.447762 11390 layer_factory.hpp:77] Creating layer roi_pool
I1210 21:06:03.447768 11390 net.cpp:100] Creating Layer roi_pool
I1210 21:06:03.447774 11390 net.cpp:434] roi_pool <- roi_pool_org
I1210 21:06:03.447780 11390 net.cpp:434] roi_pool <- roi_pool_ctx
I1210 21:06:03.447789 11390 net.cpp:408] roi_pool -> roi_pool
I1210 21:06:03.447816 11390 net.cpp:150] Setting up roi_pool
I1210 21:06:03.447826 11390 net.cpp:157] Top shape: 256 1024 7 7 (12845056)
I1210 21:06:03.447832 11390 net.cpp:165] Memory required for data: 5125099452
I1210 21:06:03.447837 11390 layer_factory.hpp:77] Creating layer roi_c1
I1210 21:06:03.447849 11390 net.cpp:100] Creating Layer roi_c1
I1210 21:06:03.447855 11390 net.cpp:434] roi_c1 <- roi_pool
I1210 21:06:03.447863 11390 net.cpp:408] roi_c1 -> roi_c1
I1210 21:06:03.570363 11390 net.cpp:150] Setting up roi_c1
I1210 21:06:03.570394 11390 net.cpp:157] Top shape: 256 512 5 5 (3276800)
I1210 21:06:03.570399 11390 net.cpp:165] Memory required for data: 5138206652
I1210 21:06:03.570410 11390 layer_factory.hpp:77] Creating layer roi_c1_relu
I1210 21:06:03.570422 11390 net.cpp:100] Creating Layer roi_c1_relu
I1210 21:06:03.570430 11390 net.cpp:434] roi_c1_relu <- roi_c1
I1210 21:06:03.570437 11390 net.cpp:395] roi_c1_relu -> roi_c1 (in-place)
I1210 21:06:03.570592 11390 net.cpp:150] Setting up roi_c1_relu
I1210 21:06:03.570605 11390 net.cpp:157] Top shape: 256 512 5 5 (3276800)
I1210 21:06:03.570608 11390 net.cpp:165] Memory required for data: 5151313852
I1210 21:06:03.570613 11390 layer_factory.hpp:77] Creating layer fc6
I1210 21:06:03.570626 11390 net.cpp:100] Creating Layer fc6
I1210 21:06:03.570632 11390 net.cpp:434] fc6 <- roi_c1
I1210 21:06:03.570641 11390 net.cpp:408] fc6 -> fc6
I1210 21:06:04.866052 11390 net.cpp:150] Setting up fc6
I1210 21:06:04.866089 11390 net.cpp:157] Top shape: 256 4096 (1048576)
I1210 21:06:04.866094 11390 net.cpp:165] Memory required for data: 5155508156
I1210 21:06:04.866106 11390 layer_factory.hpp:77] Creating layer relu6
I1210 21:06:04.866122 11390 net.cpp:100] Creating Layer relu6
I1210 21:06:04.866129 11390 net.cpp:434] relu6 <- fc6
I1210 21:06:04.866142 11390 net.cpp:395] relu6 -> fc6 (in-place)
I1210 21:06:04.866832 11390 net.cpp:150] Setting up relu6
I1210 21:06:04.866847 11390 net.cpp:157] Top shape: 256 4096 (1048576)
I1210 21:06:04.866852 11390 net.cpp:165] Memory required for data: 5159702460
I1210 21:06:04.866856 11390 layer_factory.hpp:77] Creating layer drop6
I1210 21:06:04.866873 11390 net.cpp:100] Creating Layer drop6
I1210 21:06:04.866879 11390 net.cpp:434] drop6 <- fc6
I1210 21:06:04.866885 11390 net.cpp:395] drop6 -> fc6 (in-place)
I1210 21:06:04.866916 11390 net.cpp:150] Setting up drop6
I1210 21:06:04.866925 11390 net.cpp:157] Top shape: 256 4096 (1048576)
I1210 21:06:04.866930 11390 net.cpp:165] Memory required for data: 5163896764
I1210 21:06:04.866933 11390 layer_factory.hpp:77] Creating layer fc6_drop6_0_split
I1210 21:06:04.866940 11390 net.cpp:100] Creating Layer fc6_drop6_0_split
I1210 21:06:04.866945 11390 net.cpp:434] fc6_drop6_0_split <- fc6
I1210 21:06:04.866952 11390 net.cpp:408] fc6_drop6_0_split -> fc6_drop6_0_split_0
I1210 21:06:04.866964 11390 net.cpp:408] fc6_drop6_0_split -> fc6_drop6_0_split_1
I1210 21:06:04.867014 11390 net.cpp:150] Setting up fc6_drop6_0_split
I1210 21:06:04.867023 11390 net.cpp:157] Top shape: 256 4096 (1048576)
I1210 21:06:04.867029 11390 net.cpp:157] Top shape: 256 4096 (1048576)
I1210 21:06:04.867033 11390 net.cpp:165] Memory required for data: 5172285372
I1210 21:06:04.867038 11390 layer_factory.hpp:77] Creating layer cls_pred
I1210 21:06:04.867049 11390 net.cpp:100] Creating Layer cls_pred
I1210 21:06:04.867056 11390 net.cpp:434] cls_pred <- fc6_drop6_0_split_0
I1210 21:06:04.867065 11390 net.cpp:408] cls_pred -> cls_pred
I1210 21:06:04.867769 11390 net.cpp:150] Setting up cls_pred
I1210 21:06:04.867781 11390 net.cpp:157] Top shape: 256 5 (1280)
I1210 21:06:04.867786 11390 net.cpp:165] Memory required for data: 5172290492
I1210 21:06:04.867794 11390 layer_factory.hpp:77] Creating layer cls_pred_cls_pred_0_split
I1210 21:06:04.867802 11390 net.cpp:100] Creating Layer cls_pred_cls_pred_0_split
I1210 21:06:04.867811 11390 net.cpp:434] cls_pred_cls_pred_0_split <- cls_pred
I1210 21:06:04.867818 11390 net.cpp:408] cls_pred_cls_pred_0_split -> cls_pred_cls_pred_0_split_0
I1210 21:06:04.867827 11390 net.cpp:408] cls_pred_cls_pred_0_split -> cls_pred_cls_pred_0_split_1
I1210 21:06:04.867866 11390 net.cpp:150] Setting up cls_pred_cls_pred_0_split
I1210 21:06:04.867874 11390 net.cpp:157] Top shape: 256 5 (1280)
I1210 21:06:04.867880 11390 net.cpp:157] Top shape: 256 5 (1280)
I1210 21:06:04.867884 11390 net.cpp:165] Memory required for data: 5172300732
I1210 21:06:04.867889 11390 layer_factory.hpp:77] Creating layer bbox_pred
I1210 21:06:04.867897 11390 net.cpp:100] Creating Layer bbox_pred
I1210 21:06:04.867902 11390 net.cpp:434] bbox_pred <- fc6_drop6_0_split_1
I1210 21:06:04.867910 11390 net.cpp:408] bbox_pred -> bbox_pred
I1210 21:06:04.870074 11390 net.cpp:150] Setting up bbox_pred
I1210 21:06:04.870082 11390 net.cpp:157] Top shape: 256 20 (5120)
I1210 21:06:04.870086 11390 net.cpp:165] Memory required for data: 5172321212
I1210 21:06:04.870093 11390 layer_factory.hpp:77] Creating layer bbox_pred_bbox_pred_0_split
I1210 21:06:04.870100 11390 net.cpp:100] Creating Layer bbox_pred_bbox_pred_0_split
I1210 21:06:04.870105 11390 net.cpp:434] bbox_pred_bbox_pred_0_split <- bbox_pred
I1210 21:06:04.870113 11390 net.cpp:408] bbox_pred_bbox_pred_0_split -> bbox_pred_bbox_pred_0_split_0
I1210 21:06:04.870122 11390 net.cpp:408] bbox_pred_bbox_pred_0_split -> bbox_pred_bbox_pred_0_split_1
I1210 21:06:04.870151 11390 net.cpp:150] Setting up bbox_pred_bbox_pred_0_split
I1210 21:06:04.870158 11390 net.cpp:157] Top shape: 256 20 (5120)
I1210 21:06:04.870163 11390 net.cpp:157] Top shape: 256 20 (5120)
I1210 21:06:04.870167 11390 net.cpp:165] Memory required for data: 5172362172
I1210 21:06:04.870172 11390 layer_factory.hpp:77] Creating layer loss_cls
I1210 21:06:04.870182 11390 net.cpp:100] Creating Layer loss_cls
I1210 21:06:04.870188 11390 net.cpp:434] loss_cls <- cls_pred_cls_pred_0_split_0
I1210 21:06:04.870194 11390 net.cpp:434] loss_cls <- proposal_labels_proposal_info_1_split_0
…
I1210 21:06:04.883721 11390 image_gt_data_layer.cpp:235] output label size 2 : 1,6,48,48
I1210 21:06:04.883769 11390 image_gt_data_layer.cpp:235] output label size 3 : 1,6,48,48
I1210 21:06:04.883816 11390 image_gt_data_layer.cpp:235] output label size 4 : 1,6,24,24
I1210 21:06:04.883864 11390 image_gt_data_layer.cpp:235] output label size 5 : 1,6,24,24
I1210 21:06:04.883910 11390 image_gt_data_layer.cpp:235] output label size 6 : 1,6,12,12
I1210 21:06:04.883956 11390 image_gt_data_layer.cpp:250] output gt boxes size: 1,7,1,1
I1210 21:06:04.899261 11390 net.cpp:150] Setting up data
I1210 21:06:04.899291 11390 net.cpp:157] Top shape: 1 3 768 768 (1769472)
I1210 21:06:04.899300 11390 net.cpp:157] Top shape: 1 6 96 96 (55296)
I1210 21:06:04.899307 11390 net.cpp:157] Top shape: 1 6 96 96 (55296)
I1210 21:06:04.899313 11390 net.cpp:157] Top shape: 1 6 48 48 (13824)
I1210 21:06:04.899322 11390 net.cpp:157] Top shape: 1 6 48 48 (13824)
I1210 21:06:04.899327 11390 net.cpp:157] Top shape: 1 6 24 24 (3456)
I1210 21:06:04.899332 11390 net.cpp:157] Top shape: 1 6 24 24 (3456)
I1210 21:06:04.899335 11390 net.cpp:157] Top shape: 1 6 12 12 (864)
I1210 21:06:04.899339 11390 net.cpp:157] Top shape: 1 7 1 1 (7)
I1210 21:06:04.899343 11390 net.cpp:165] Memory required for data: 7661980
I1210 21:06:04.899349 11390 layer_factory.hpp:77] Creating layer label_1_5x5_data_1_split
I1210 21:06:04.899366 11390 net.cpp:100] Creating Layer label_1_5x5_data_1_split
I1210 21:06:04.899371 11390 net.cpp:434] label_1_5x5_data_1_split <- label_1_5x5
I1210 21:06:04.899379 11390 net.cpp:408] label_1_5x5_data_1_split -> label_1_5x5_data_1_split_0
I1210 21:06:04.899387 11390 net.cpp:408] label_1_5x5_data_1_split -> label_1_5x5_data_1_split_1
I1210 21:06:04.899694 11390 net.cpp:150] Setting up label_1_5x5_data_1_split
I1210 21:06:04.899734 11390 net.cpp:157] Top shape: 1 6 96 96 (55296)
I1210 21:06:04.899745 11390 net.cpp:157] Top shape: 1 6 96 96 (55296)
I1210 21:06:04.899754 11390 net.cpp:165] Memory required for data: 8104348
I1210 21:06:04.899765 11390 layer_factory.hpp:77] Creating layer label_1_7x7_data_2_split
I1210 21:06:04.899788 11390 net.cpp:100] Creating Layer label_1_7x7_data_2_split
I1210 21:06:04.899798 11390 net.cpp:434] label_1_7x7_data_2_split <- label_1_7x7
I1210 21:06:04.899812 11390 net.cpp:408] label_1_7x7_data_2_split -> label_1_7x7_data_2_split_0
I1210 21:06:04.899829 11390 net.cpp:408] label_1_7x7_data_2_split -> label_1_7x7_data_2_split_1
I1210 21:06:04.899916 11390 net.cpp:150] Setting up label_1_7x7_data_2_split
I1210 21:06:04.899929 11390 net.cpp:157] Top shape: 1 6 96 96 (55296)
I1210 21:06:04.899937 11390 net.cpp:157] Top shape: 1 6 96 96 (55296)
I1210 21:06:04.899945 11390 net.cpp:165] Memory required for data: 8546716
I1210 21:06:04.899951 11390 layer_factory.hpp:77] Creating layer label_2_5x5_data_3_split
I1210 21:06:04.899966 11390 net.cpp:100] Creating Layer label_2_5x5_data_3_split
I1210 21:06:04.899974 11390 net.cpp:434] label_2_5x5_data_3_split <- label_2_5x5
I1210 21:06:04.899986 11390 net.cpp:408] label_2_5x5_data_3_split -> label_2_5x5_data_3_split_0
I1210 21:06:04.899997 11390 net.cpp:408] label_2_5x5_data_3_split -> label_2_5x5_data_3_split_1
I1210 21:06:04.900076 11390 net.cpp:150] Setting up label_2_5x5_data_3_split
I1210 21:06:04.900087 11390 net.cpp:157] Top shape: 1 6 48 48 (13824)
I1210 21:06:04.900097 11390 net.cpp:157] Top shape: 1 6 48 48 (13824)
I1210 21:06:04.900104 11390 net.cpp:165] Memory required for data: 8657308
I1210 21:06:04.900111 11390 layer_factory.hpp:77] Creating layer label_2_7x7_data_4_split
I1210 21:06:04.900121 11390 net.cpp:100] Creating Layer label_2_7x7_data_4_split
I1210 21:06:04.900130 11390 net.cpp:434] label_2_7x7_data_4_split <- label_2_7x7
I1210 21:06:04.900141 11390 net.cpp:408] label_2_7x7_data_4_split -> label_2_7x7_data_4_split_0
I1210 21:06:04.900152 11390 net.cpp:408] label_2_7x7_data_4_split -> label_2_7x7_data_4_split_1
I1210 21:06:04.900230 11390 net.cpp:150] Setting up label_2_7x7_data_4_split
I1210 21:06:04.900243 11390 net.cpp:157] Top shape: 1 6 48 48 (13824)
I1210 21:06:04.900252 11390 net.cpp:157] Top shape: 1 6 48 48 (13824)
I1210 21:06:04.900259 11390 net.cpp:165] Memory required for data: 8767900
I1210 21:06:04.900266 11390 layer_factory.hpp:77] Creating layer label_3_5x5_data_5_split
I1210 21:06:04.900276 11390 net.cpp:100] Creating Layer label_3_5x5_data_5_split
I1210 21:06:04.900283 11390 net.cpp:434] label_3_5x5_data_5_split <- label_3_5x5
I1210 21:06:04.900295 11390 net.cpp:408] label_3_5x5_data_5_split -> label_3_5x5_data_5_split_0
I1210 21:06:04.900306 11390 net.cpp:408] label_3_5x5_data_5_split -> label_3_5x5_data_5_split_1
I1210 21:06:04.900378 11390 net.cpp:150] Setting up label_3_5x5_data_5_split
I1210 21:06:04.900389 11390 net.cpp:157] Top shape: 1 6 24 24 (3456)
I1210 21:06:04.900398 11390 net.cpp:157] Top shape: 1 6 24 24 (3456)
I1210 21:06:04.900405 11390 net.cpp:165] Memory required for data: 8795548
I1210 21:06:04.900413 11390 layer_factory.hpp:77] Creating layer label_3_7x7_data_6_split
I1210 21:06:04.900424 11390 net.cpp:100] Creating Layer label_3_7x7_data_6_split
I1210 21:06:04.900432 11390 net.cpp:434] label_3_7x7_data_6_split <- label_3_7x7
I1210 21:06:04.900441 11390 net.cpp:408] label_3_7x7_data_6_split -> label_3_7x7_data_6_split_0
I1210 21:06:04.900452 11390 net.cpp:408] label_3_7x7_data_6_split -> label_3_7x7_data_6_split_1
I1210 21:06:04.900526 11390 net.cpp:150] Setting up label_3_7x7_data_6_split
I1210 21:06:04.900537 11390 net.cpp:157] Top shape: 1 6 24 24 (3456)
I1210 21:06:04.900545 11390 net.cpp:157] Top shape: 1 6 24 24 (3456)
I1210 21:06:04.900552 11390 net.cpp:165] Memory required for data: 8823196
I1210 21:06:04.900559 11390 layer_factory.hpp:77] Creating layer label_4_5x5_data_7_split
I1210 21:06:04.900568 11390 net.cpp:100] Creating Layer label_4_5x5_data_7_split
I1210 21:06:04.900575 11390 net.cpp:434] label_4_5x5_data_7_split <- label_4_5x5
I1210 21:06:04.900585 11390 net.cpp:408] label_4_5x5_data_7_split -> label_4_5x5_data_7_split_0
I1210 21:06:04.900596 11390 net.cpp:408] label_4_5x5_data_7_split -> label_4_5x5_data_7_split_1
I1210 21:06:04.900666 11390 net.cpp:150] Setting up label_4_5x5_data_7_split
I1210 21:06:04.900676 11390 net.cpp:157] Top shape: 1 6 12 12 (864)
I1210 21:06:04.900686 11390 net.cpp:157] Top shape: 1 6 12 12 (864)
I1210 21:06:04.900692 11390 net.cpp:165] Memory required for data: 8830108
I1210 21:06:04.900699 11390 layer_factory.hpp:77] Creating layer conv1_1
I1210 21:06:04.900719 11390 net.cpp:100] Creating Layer conv1_1
I1210 21:06:04.900727 11390 net.cpp:434] conv1_1 <- data
I1210 21:06:04.900738 11390 net.cpp:408] conv1_1 -> conv1_1
I1210 21:06:04.911289 11390 net.cpp:150] Setting up conv1_1
I1210 21:06:04.911321 11390 net.cpp:157] Top shape: 1 64 768 768 (37748736)
I1210 21:06:04.911327 11390 net.cpp:165] Memory required for data: 159825052
I1210 21:06:04.911347 11390 layer_factory.hpp:77] Creating layer relu1_1
I1210 21:06:04.911363 11390 net.cpp:100] Creating Layer relu1_1
I1210 21:06:04.911370 11390 net.cpp:434] relu1_1 <- conv1_1
I1210 21:06:04.911377 11390 net.cpp:395] relu1_1 -> conv1_1 (in-place)
I1210 21:06:04.911793 11390 net.cpp:150] Setting up relu1_1
I1210 21:06:04.911804 11390 net.cpp:157] Top shape: 1 64 768 768 (37748736)
I1210 21:06:04.911808 11390 net.cpp:165] Memory required for data: 310819996
I1210 21:06:04.911813 11390 layer_factory.hpp:77] Creating layer conv1_2
I1210 21:06:04.911825 11390 net.cpp:100] Creating Layer conv1_2
I1210 21:06:04.911829 11390 net.cpp:434] conv1_2 <- conv1_1
I1210 21:06:04.911837 11390 net.cpp:408] conv1_2 -> conv1_2
I1210 21:06:04.914762 11390 net.cpp:150] Setting up conv1_2
I1210 21:06:04.914777 11390 net.cpp:157] Top shape: 1 64 768 768 (37748736)
I1210 21:06:04.914780 11390 net.cpp:165] Memory required for data: 461814940
I1210 21:06:04.914791 11390 layer_factory.hpp:77] Creating layer relu1_2
I1210 21:06:04.914799 11390 net.cpp:100] Creating Layer relu1_2
I1210 21:06:04.914803 11390 net.cpp:434] relu1_2 <- conv1_2
I1210 21:06:04.914810 11390 net.cpp:395] relu1_2 -> conv1_2 (in-place)
I1210 21:06:04.915009 11390 net.cpp:150] Setting up relu1_2
I1210 21:06:04.915016 11390 net.cpp:157] Top shape: 1 64 768 768 (37748736)
I1210 21:06:04.915020 11390 net.cpp:165] Memory required for data: 612809884
I1210 21:06:04.915024 11390 layer_factory.hpp:77] Creating layer pool1
I1210 21:06:04.915032 11390 net.cpp:100] Creating Layer pool1
I1210 21:06:04.915036 11390 net.cpp:434] pool1 <- conv1_2
I1210 21:06:04.915042 11390 net.cpp:408] pool1 -> pool1
I1210 21:06:04.915093 11390 net.cpp:150] Setting up pool1
I1210 21:06:04.915099 11390 net.cpp:157] Top shape: 1 64 384 384 (9437184)
I1210 21:06:04.915102 11390 net.cpp:165] Memory required for data: 650558620
I1210 21:06:04.915107 11390 layer_factory.hpp:77] Creating layer conv2_1
I1210 21:06:04.915115 11390 net.cpp:100] Creating Layer conv2_1
I1210 21:06:04.915119 11390 net.cpp:434] conv2_1 <- pool1
I1210 21:06:04.915124 11390 net.cpp:408] conv2_1 -> conv2_1
I1210 21:06:04.918505 11390 net.cpp:150] Setting up conv2_1
I1210 21:06:04.918527 11390 net.cpp:157] Top shape: 1 128 384 384 (18874368)
I1210 21:06:04.918532 11390 net.cpp:165] Memory required for data: 726056092
I1210 21:06:04.918545 11390 layer_factory.hpp:77] Creating layer relu2_1
I1210 21:06:04.918560 11390 net.cpp:100] Creating Layer relu2_1
I1210 21:06:04.918565 11390 net.cpp:434] relu2_1 <- conv2_1
I1210 21:06:04.918570 11390 net.cpp:395] relu2_1 -> conv2_1 (in-place)
I1210 21:06:04.919173 11390 net.cpp:150] Setting up relu2_1
I1210 21:06:04.919184 11390 net.cpp:157] Top shape: 1 128 384 384 (18874368)
I1210 21:06:04.919188 11390 net.cpp:165] Memory required for data: 801553564
I1210 21:06:04.919193 11390 layer_factory.hpp:77] Creating layer conv2_2
I1210 21:06:04.919205 11390 net.cpp:100] Creating Layer conv2_2
I1210 21:06:04.919209 11390 net.cpp:434] conv2_2 <- conv2_1
I1210 21:06:04.919215 11390 net.cpp:408] conv2_2 -> conv2_2
I1210 21:06:04.920745 11390 net.cpp:150] Setting up conv2_2
I1210 21:06:04.920758 11390 net.cpp:157] Top shape: 1 128 384 384 (18874368)
I1210 21:06:04.920763 11390 net.cpp:165] Memory required for data: 877051036
I1210 21:06:04.920771 11390 layer_factory.hpp:77] Creating layer relu2_2
I1210 21:06:04.920783 11390 net.cpp:100] Creating Layer relu2_2
I1210 21:06:04.920786 11390 net.cpp:434] relu2_2 <- conv2_2
I1210 21:06:04.920791 11390 net.cpp:395] relu2_2 -> conv2_2 (in-place)
I1210 21:06:04.921344 11390 net.cpp:150] Setting up relu2_2
I1210 21:06:04.921355 11390 net.cpp:157] Top shape: 1 128 384 384 (18874368)
I1210 21:06:04.921360 11390 net.cpp:165] Memory required for data: 952548508
I1210 21:06:04.921363 11390 layer_factory.hpp:77] Creating layer pool2
I1210 21:06:04.921371 11390 net.cpp:100] Creating Layer pool2
I1210 21:06:04.921376 11390 net.cpp:434] pool2 <- conv2_2
I1210 21:06:04.921382 11390 net.cpp:408] pool2 -> pool2
I1210 21:06:04.921432 11390 net.cpp:150] Setting up pool2
I1210 21:06:04.921437 11390 net.cpp:157] Top shape: 1 128 192 192 (4718592)
I1210 21:06:04.921440 11390 net.cpp:165] Memory required for data: 971422876
I1210 21:06:04.921444 11390 layer_factory.hpp:77] Creating layer conv3_1
I1210 21:06:04.921452 11390 net.cpp:100] Creating Layer conv3_1
I1210 21:06:04.921456 11390 net.cpp:434] conv3_1 <- pool2
I1210 21:06:04.921463 11390 net.cpp:408] conv3_1 -> conv3_1
I1210 21:06:04.924657 11390 net.cpp:150] Setting up conv3_1
I1210 21:06:04.924680 11390 net.cpp:157] Top shape: 1 256 192 192 (9437184)
I1210 21:06:04.924685 11390 net.cpp:165] Memory required for data: 1009171612
I1210 21:06:04.924700 11390 layer_factory.hpp:77] Creating layer relu3_1
I1210 21:06:04.924712 11390 net.cpp:100] Creating Layer relu3_1
I1210 21:06:04.924718 11390 net.cpp:434] relu3_1 <- conv3_1
I1210 21:06:04.924724 11390 net.cpp:395] relu3_1 -> conv3_1 (in-place)
I1210 21:06:04.924926 11390 net.cpp:150] Setting up relu3_1
I1210 21:06:04.924934 11390 net.cpp:157] Top shape: 1 256 192 192 (9437184)
I1210 21:06:04.924938 11390 net.cpp:165] Memory required for data: 1046920348
I1210 21:06:04.924942 11390 layer_factory.hpp:77] Creating layer conv3_2
I1210 21:06:04.924958 11390 net.cpp:100] Creating Layer conv3_2
I1210 21:06:04.924962 11390 net.cpp:434] conv3_2 <- conv3_1
I1210 21:06:04.924970 11390 net.cpp:408] conv3_2 -> conv3_2
I1210 21:06:04.928076 11390 net.cpp:150] Setting up conv3_2
I1210 21:06:04.928093 11390 net.cpp:157] Top shape: 1 256 192 192 (9437184)
I1210 21:06:04.928097 11390 net.cpp:165] Memory required for data: 1084669084
I1210 21:06:04.928105 11390 layer_factory.hpp:77] Creating layer relu3_2
I1210 21:06:04.928114 11390 net.cpp:100] Creating Layer relu3_2
I1210 21:06:04.928119 11390 net.cpp:434] relu3_2 <- conv3_2
I1210 21:06:04.928125 11390 net.cpp:395] relu3_2 -> conv3_2 (in-place)
I1210 21:06:04.928341 11390 net.cpp:150] Setting up relu3_2
I1210 21:06:04.928357 11390 net.cpp:157] Top shape: 1 256 192 192 (9437184)
I1210 21:06:04.928360 11390 net.cpp:165] Memory required for data: 1122417820
I1210 21:06:04.928364 11390 layer_factory.hpp:77] Creating layer conv3_3
I1210 21:06:04.928375 11390 net.cpp:100] Creating Layer conv3_3
I1210 21:06:04.928380 11390 net.cpp:434] conv3_3 <- conv3_2
I1210 21:06:04.928385 11390 net.cpp:408] conv3_3 -> conv3_3
I1210 21:06:04.931223 11390 net.cpp:150] Setting up conv3_3
I1210 21:06:04.931236 11390 net.cpp:157] Top shape: 1 256 192 192 (9437184)
I1210 21:06:04.931241 11390 net.cpp:165] Memory required for data: 1160166556
I1210 21:06:04.931246 11390 layer_factory.hpp:77] Creating layer relu3_3
I1210 21:06:04.931254 11390 net.cpp:100] Creating Layer relu3_3
I1210 21:06:04.931258 11390 net.cpp:434] relu3_3 <- conv3_3
I1210 21:06:04.931264 11390 net.cpp:395] relu3_3 -> conv3_3 (in-place)
I1210 21:06:04.931439 11390 net.cpp:150] Setting up relu3_3
I1210 21:06:04.931447 11390 net.cpp:157] Top shape: 1 256 192 192 (9437184)
I1210 21:06:04.931450 11390 net.cpp:165] Memory required for data: 1197915292
I1210 21:06:04.931453 11390 layer_factory.hpp:77] Creating layer pool3
I1210 21:06:04.931460 11390 net.cpp:100] Creating Layer pool3
I1210 21:06:04.931464 11390 net.cpp:434] pool3 <- conv3_3
I1210 21:06:04.931470 11390 net.cpp:408] pool3 -> pool3
I1210 21:06:04.931516 11390 net.cpp:150] Setting up pool3
I1210 21:06:04.931522 11390 net.cpp:157] Top shape: 1 256 96 96 (2359296)
I1210 21:06:04.931526 11390 net.cpp:165] Memory required for data: 1207352476
I1210 21:06:04.931529 11390 layer_factory.hpp:77] Creating layer pool3_pool3_0_split
I1210 21:06:04.931535 11390 net.cpp:100] Creating Layer pool3_pool3_0_split
I1210 21:06:04.931540 11390 net.cpp:434] pool3_pool3_0_split <- pool3
I1210 21:06:04.931545 11390 net.cpp:408] pool3_pool3_0_split -> pool3_pool3_0_split_0
I1210 21:06:04.931551 11390 net.cpp:408] pool3_pool3_0_split -> pool3_pool3_0_split_1
I1210 21:06:04.931556 11390 net.cpp:408] pool3_pool3_0_split -> pool3_pool3_0_split_2
I1210 21:06:04.931571 11390 net.cpp:408] pool3_pool3_0_split -> pool3_pool3_0_split_3
I1210 21:06:04.931638 11390 net.cpp:150] Setting up pool3_pool3_0_split
I1210 21:06:04.931643 11390 net.cpp:157] Top shape: 1 256 96 96 (2359296)
I1210 21:06:04.931648 11390 net.cpp:157] Top shape: 1 256 96 96 (2359296)
I1210 21:06:04.931651 11390 net.cpp:157] Top shape: 1 256 96 96 (2359296)
I1210 21:06:04.931655 11390 net.cpp:157] Top shape: 1 256 96 96 (2359296)
I1210 21:06:04.931658 11390 net.cpp:165] Memory required for data: 1245101212
I1210 21:06:04.931661 11390 layer_factory.hpp:77] Creating layer G
I1210 21:06:04.931671 11390 net.cpp:100] Creating Layer G
I1210 21:06:04.931674 11390 net.cpp:434] G <- pool3_pool3_0_split_0
I1210 21:06:04.931681 11390 net.cpp:408] G -> G
I1210 21:06:04.933614 11390 net.cpp:150] Setting up G
I1210 21:06:04.933629 11390 net.cpp:157] Top shape: 1 128 96 96 (1179648)
I1210 21:06:04.933634 11390 net.cpp:165] Memory required for data: 1249819804
I1210 21:06:04.933640 11390 layer_factory.hpp:77] Creating layer Theta
I1210 21:06:04.933650 11390 net.cpp:100] Creating Layer Theta
I1210 21:06:04.933653 11390 net.cpp:434] Theta <- pool3_pool3_0_split_1
I1210 21:06:04.933660 11390 net.cpp:408] Theta -> Theta
I1210 21:06:04.939939 11390 net.cpp:150] Setting up Theta
I1210 21:06:04.939983 11390 net.cpp:157] Top shape: 1 128 96 96 (1179648)
I1210 21:06:04.939993 11390 net.cpp:165] Memory required for data: 1254538396
I1210 21:06:04.940022 11390 layer_factory.hpp:77] Creating layer Phi
I1210 21:06:04.940052 11390 net.cpp:100] Creating Layer Phi
I1210 21:06:04.940065 11390 net.cpp:434] Phi <- pool3_pool3_0_split_2
I1210 21:06:04.940083 11390 net.cpp:408] Phi -> Phi
I1210 21:06:04.945773 11390 net.cpp:150] Setting up Phi
I1210 21:06:04.945813 11390 net.cpp:157] Top shape: 1 128 96 96 (1179648)
I1210 21:06:04.945822 11390 net.cpp:165] Memory required for data: 1259256988
I1210 21:06:04.945840 11390 layer_factory.hpp:77] Creating layer reshape_Theta
I1210 21:06:04.945863 11390 net.cpp:100] Creating Layer reshape_Theta
I1210 21:06:04.945873 11390 net.cpp:434] reshape_Theta <- Theta
I1210 21:06:04.945888 11390 net.cpp:408] reshape_Theta -> output_Theta
I1210 21:06:04.945964 11390 net.cpp:150] Setting up reshape_Theta
I1210 21:06:04.945976 11390 net.cpp:157] Top shape: 1 128 9216 (1179648)
I1210 21:06:04.945984 11390 net.cpp:165] Memory required for data: 1263975580
I1210 21:06:04.945992 11390 layer_factory.hpp:77] Creating layer reshape_Phi
I1210 21:06:04.946004 11390 net.cpp:100] Creating Layer reshape_Phi
I1210 21:06:04.946015 11390 net.cpp:434] reshape_Phi <- Phi
I1210 21:06:04.946043 11390 net.cpp:408] reshape_Phi -> output_Phi
I1210 21:06:04.946106 11390 net.cpp:150] Setting up reshape_Phi
I1210 21:06:04.946122 11390 net.cpp:157] Top shape: 1 128 9216 (1179648)
I1210 21:06:04.946132 11390 net.cpp:165] Memory required for data: 1268694172
I1210 21:06:04.946141 11390 layer_factory.hpp:77] Creating layer reshape_G
I1210 21:06:04.946152 11390 net.cpp:100] Creating Layer reshape_G
I1210 21:06:04.946161 11390 net.cpp:434] reshape_G <- G
I1210 21:06:04.946173 11390 net.cpp:408] reshape_G -> output_G
I1210 21:06:04.946233 11390 net.cpp:150] Setting up reshape_G
I1210 21:06:04.946244 11390 net.cpp:157] Top shape: 1 128 9216 (1179648)
I1210 21:06:04.946252 11390 net.cpp:165] Memory required for data: 1273412764
I1210 21:06:04.946260 11390 layer_factory.hpp:77] Creating layer MM_Theta_Phi
I1210 21:06:04.946280 11390 net.cpp:100] Creating Layer MM_Theta_Phi
I1210 21:06:04.946288 11390 net.cpp:434] MM_Theta_Phi <- output_Theta
I1210 21:06:04.946298 11390 net.cpp:434] MM_Theta_Phi <- output_Phi
I1210 21:06:04.946311 11390 net.cpp:408] MM_Theta_Phi -> MM_Theta_Phi
I1210 21:06:04.946367 11390 net.cpp:150] Setting up MM_Theta_Phi
I1210 21:06:04.946380 11390 net.cpp:157] Top shape: 1 9216 9216 (84934656)
I1210 21:06:04.946388 11390 net.cpp:165] Memory required for data: 1613151388
I1210 21:06:04.946395 11390 layer_factory.hpp:77] Creating layer MM_Theta_Phi_soft
I1210 21:06:04.946409 11390 net.cpp:100] Creating Layer MM_Theta_Phi_soft
I1210 21:06:04.946418 11390 net.cpp:434] MM_Theta_Phi_soft <- MM_Theta_Phi
I1210 21:06:04.946429 11390 net.cpp:408] MM_Theta_Phi_soft -> MM_Theta_Phi_soft
I1210 21:06:04.947010 11390 net.cpp:150] Setting up MM_Theta_Phi_soft
I1210 21:06:04.947028 11390 net.cpp:157] Top shape: 1 9216 9216 (84934656)
I1210 21:06:04.947036 11390 net.cpp:165] Memory required for data: 1952890012
I1210 21:06:04.947046 11390 layer_factory.hpp:77] Creating layer MM_o
I1210 21:06:04.947057 11390 net.cpp:100] Creating Layer MM_o
I1210 21:06:04.947067 11390 net.cpp:434] MM_o <- output_G
I1210 21:06:04.947077 11390 net.cpp:434] MM_o <- MM_Theta_Phi_soft
I1210 21:06:04.947089 11390 net.cpp:408] MM_o -> MM_o
I1210 21:06:04.947147 11390 net.cpp:150] Setting up MM_o
I1210 21:06:04.947160 11390 net.cpp:157] Top shape: 1 128 9216 (1179648)
I1210 21:06:04.947167 11390 net.cpp:165] Memory required for data: 1957608604
I1210 21:06:04.947175 11390 layer_factory.hpp:77] Creating layer re_MM
I1210 21:06:04.947187 11390 net.cpp:100] Creating Layer re_MM
I1210 21:06:04.947196 11390 net.cpp:434] re_MM <- MM_o
I1210 21:06:04.947206 11390 net.cpp:408] re_MM -> re_MM
I1210 21:06:04.947263 11390 net.cpp:150] Setting up re_MM
I1210 21:06:04.947275 11390 net.cpp:157] Top shape: 1 128 96 96 (1179648)
I1210 21:06:04.947283 11390 net.cpp:165] Memory required for data: 1962327196
I1210 21:06:04.947290 11390 layer_factory.hpp:77] Creating layer conv_re
I1210 21:06:04.947311 11390 net.cpp:100] Creating Layer conv_re
I1210 21:06:04.947319 11390 net.cpp:434] conv_re <- re_MM
I1210 21:06:04.947335 11390 net.cpp:408] conv_re -> conv_re
I1210 21:06:04.952764 11390 net.cpp:150] Setting up conv_re
I1210 21:06:04.952800 11390 net.cpp:157] Top shape: 1 256 96 96 (2359296)
I1210 21:06:04.952807 11390 net.cpp:165] Memory required for data: 1971764380
I1210 21:06:04.952823 11390 layer_factory.hpp:77] Creating layer ele
I1210 21:06:04.952841 11390 net.cpp:100] Creating Layer ele
I1210 21:06:04.952849 11390 net.cpp:434] ele <- pool3_pool3_0_split_3
I1210 21:06:04.952862 11390 net.cpp:434] ele <- conv_re
I1210 21:06:04.952873 11390 net.cpp:408] ele -> ele_out
I1210 21:06:04.952934 11390 net.cpp:150] Setting up ele
I1210 21:06:04.952945 11390 net.cpp:157] Top shape: 1 256 96 96 (2359296)
I1210 21:06:04.952952 11390 net.cpp:165] Memory required for data: 1981201564
I1210 21:06:04.952960 11390 layer_factory.hpp:77] Creating layer conv4_1
I1210 21:06:04.952975 11390 net.cpp:100] Creating Layer conv4_1
I1210 21:06:04.952982 11390 net.cpp:434] conv4_1 <- ele_out
I1210 21:06:04.952994 11390 net.cpp:408] conv4_1 -> conv4_1
I1210 21:06:04.958868 11390 net.cpp:150] Setting up conv4_1
I1210 21:06:04.958895 11390 net.cpp:157] Top shape: 1 512 96 96 (4718592)
I1210 21:06:04.958899 11390 net.cpp:165] Memory required for data: 2000075932
I1210 21:06:04.958909 11390 layer_factory.hpp:77] Creating layer relu4_1
I1210 21:06:04.958921 11390 net.cpp:100] Creating Layer relu4_1
I1210 21:06:04.958927 11390 net.cpp:434] relu4_1 <- conv4_1
I1210 21:06:04.958935 11390 net.cpp:395] relu4_1 -> conv4_1 (in-place)
I1210 21:06:04.959108 11390 net.cpp:150] Setting up relu4_1
I1210 21:06:04.959115 11390 net.cpp:157] Top shape: 1 512 96 96 (4718592)
I1210 21:06:04.959118 11390 net.cpp:165] Memory required for data: 2018950300
I1210 21:06:04.959121 11390 layer_factory.hpp:77] Creating layer conv4_2
I1210 21:06:04.959131 11390 net.cpp:100] Creating Layer conv4_2
I1210 21:06:04.959136 11390 net.cpp:434] conv4_2 <- conv4_1
I1210 21:06:04.959141 11390 net.cpp:408] conv4_2 -> conv4_2
I1210 21:06:04.971063 11390 net.cpp:150] Setting up conv4_2
I1210 21:06:04.971105 11390 net.cpp:157] Top shape: 1 512 96 96 (4718592)
I1210 21:06:04.971117 11390 net.cpp:165] Memory required for data: 2037824668
I1210 21:06:04.971137 11390 layer_factory.hpp:77] Creating layer relu4_2
I1210 21:06:04.971159 11390 net.cpp:100] Creating Layer relu4_2
I1210 21:06:04.971174 11390 net.cpp:434] relu4_2 <- conv4_2
I1210 21:06:04.971187 11390 net.cpp:395] relu4_2 -> conv4_2 (in-place)
I1210 21:06:04.971603 11390 net.cpp:150] Setting up relu4_2
I1210 21:06:04.971626 11390 net.cpp:157] Top shape: 1 512 96 96 (4718592)
I1210 21:06:04.971633 11390 net.cpp:165] Memory required for data: 2056699036
I1210 21:06:04.971642 11390 layer_factory.hpp:77] Creating layer conv4_3
I1210 21:06:04.971662 11390 net.cpp:100] Creating Layer conv4_3
I1210 21:06:04.971673 11390 net.cpp:434] conv4_3 <- conv4_2
I1210 21:06:04.971688 11390 net.cpp:408] conv4_3 -> conv4_3
I1210 21:06:04.981477 11390 net.cpp:150] Setting up conv4_3
I1210 21:06:04.981513 11390 net.cpp:157] Top shape: 1 512 96 96 (4718592)
I1210 21:06:04.981519 11390 net.cpp:165] Memory required for data: 2075573404
I1210 21:06:04.981531 11390 layer_factory.hpp:77] Creating layer relu4_3
I1210 21:06:04.981547 11390 net.cpp:100] Creating Layer relu4_3
I1210 21:06:04.981554 11390 net.cpp:434] relu4_3 <- conv4_3
I1210 21:06:04.981562 11390 net.cpp:395] relu4_3 -> conv4_3 (in-place)
I1210 21:06:04.982937 11390 net.cpp:150] Setting up relu4_3
I1210 21:06:04.982951 11390 net.cpp:157] Top shape: 1 512 96 96 (4718592)
I1210 21:06:04.982955 11390 net.cpp:165] Memory required for data: 2094447772
I1210 21:06:04.982959 11390 layer_factory.hpp:77] Creating layer conv4_3_relu4_3_0_split
I1210 21:06:04.982966 11390 net.cpp:100] Creating Layer conv4_3_relu4_3_0_split
I1210 21:06:04.982970 11390 net.cpp:434] conv4_3_relu4_3_0_split <- conv4_3
I1210 21:06:04.982976 11390 net.cpp:408] conv4_3_relu4_3_0_split -> conv4_3_relu4_3_0_split_0
I1210 21:06:04.982983 11390 net.cpp:408] conv4_3_relu4_3_0_split -> conv4_3_relu4_3_0_split_1
I1210 21:06:04.982991 11390 net.cpp:408] conv4_3_relu4_3_0_split -> conv4_3_relu4_3_0_split_2
I1210 21:06:04.983052 11390 net.cpp:150] Setting up conv4_3_relu4_3_0_split
I1210 21:06:04.983058 11390 net.cpp:157] Top shape: 1 512 96 96 (4718592)
I1210 21:06:04.983064 11390 net.cpp:157] Top shape: 1 512 96 96 (4718592)
I1210 21:06:04.983068 11390 net.cpp:157] Top shape: 1 512 96 96 (4718592)
I1210 21:06:04.983072 11390 net.cpp:165] Memory required for data: 2151070876
I1210 21:06:04.983075 11390 layer_factory.hpp:77] Creating layer loss1_conv1
I1210 21:06:04.983086 11390 net.cpp:100] Creating Layer loss1_conv1
I1210 21:06:04.983093 11390 net.cpp:434] loss1_conv1 <- conv4_3_relu4_3_0_split_0
I1210 21:06:04.983099 11390 net.cpp:408] loss1_conv1 -> loss1_conv1
I1210 21:06:05.047118 11390 net.cpp:150] Setting up loss1_conv1
I1210 21:06:05.047152 11390 net.cpp:157] Top shape: 1 512 96 96 (4718592)
I1210 21:06:05.047158 11390 net.cpp:165] Memory required for data: 2169945244
I1210 21:06:05.047165 11390 layer_factory.hpp:77] Creating layer loss_relu1
I1210 21:06:05.047176 11390 net.cpp:100] Creating Layer loss_relu1
I1210 21:06:05.047183 11390 net.cpp:434] loss_relu1 <- loss1_conv1
I1210 21:06:05.047189 11390 net.cpp:395] loss_relu1 -> loss1_conv1 (in-place)
I1210 21:06:05.048288 11390 net.cpp:150] Setting up loss_relu1
I1210 21:06:05.048301 11390 net.cpp:157] Top shape: 1 512 96 96 (4718592)
I1210 21:06:05.048305 11390 net.cpp:165] Memory required for data: 2188819612
I1210 21:06:05.048308 11390 layer_factory.hpp:77] Creating layer loss1_conv1_loss_relu1_0_split
I1210 21:06:05.048317 11390 net.cpp:100] Creating Layer loss1_conv1_loss_relu1_0_split
I1210 21:06:05.048321 11390 net.cpp:434] loss1_conv1_loss_relu1_0_split <- loss1_conv1
I1210 21:06:05.048326 11390 net.cpp:408] loss1_conv1_loss_relu1_0_split -> loss1_conv1_loss_relu1_0_split_0
I1210 21:06:05.048334 11390 net.cpp:408] loss1_conv1_loss_relu1_0_split -> loss1_conv1_loss_relu1_0_split_1
I1210 21:06:05.048379 11390 net.cpp:150] Setting up loss1_conv1_loss_relu1_0_split
I1210 21:06:05.048385 11390 net.cpp:157] Top shape: 1 512 96 96 (4718592)
I1210 21:06:05.048389 11390 net.cpp:157] Top shape: 1 512 96 96 (4718592)
I1210 21:06:05.048393 11390 net.cpp:165] Memory required for data: 2226568348
I1210 21:06:05.048396 11390 layer_factory.hpp:77] Creating layer LFCN_1_5x5
I1210 21:06:05.048409 11390 net.cpp:100] Creating Layer LFCN_1_5x5
I1210 21:06:05.048416 11390 net.cpp:434] LFCN_1_5x5 <- loss1_conv1_loss_relu1_0_split_0
I1210 21:06:05.048424 11390 net.cpp:408] LFCN_1_5x5 -> LFCN_1_5x5
I1210 21:06:05.052743 11390 net.cpp:150] Setting up LFCN_1_5x5
I1210 21:06:05.052763 11390 net.cpp:157] Top shape: 1 9 96 96 (82944)
I1210 21:06:05.052767 11390 net.cpp:165] Memory required for data: 2226900124
I1210 21:06:05.052774 11390 layer_factory.hpp:77] Creating layer LFCN_1_5x5_LFCN_1_5x5_0_split
I1210 21:06:05.052784 11390 net.cpp:100] Creating Layer LFCN_1_5x5_LFCN_1_5x5_0_split
I1210 21:06:05.052789 11390 net.cpp:434] LFCN_1_5x5_LFCN_1_5x5_0_split <- LFCN_1_5x5
I1210 21:06:05.052798 11390 net.cpp:408] LFCN_1_5x5_LFCN_1_5x5_0_split -> LFCN_1_5x5_LFCN_1_5x5_0_split_0
I1210 21:06:05.052805 11390 net.cpp:408] LFCN_1_5x5_LFCN_1_5x5_0_split -> LFCN_1_5x5_LFCN_1_5x5_0_split_1
I1210 21:06:05.052811 11390 net.cpp:408] LFCN_1_5x5_LFCN_1_5x5_0_split -> LFCN_1_5x5_LFCN_1_5x5_0_split_2
I1210 21:06:05.052865 11390 net.cpp:150] Setting up LFCN_1_5x5_LFCN_1_5x5_0_split
I1210 21:06:05.052871 11390 net.cpp:157] Top shape: 1 9 96 96 (82944)
I1210 21:06:05.052876 11390 net.cpp:157] Top shape: 1 9 96 96 (82944)
I1210 21:06:05.052881 11390 net.cpp:157] Top shape: 1 9 96 96 (82944)
I1210 21:06:05.052884 11390 net.cpp:165] Memory required for data: 2227895452
I1210 21:06:05.052888 11390 layer_factory.hpp:77] Creating layer detection_loss_1_5x5
I1210 21:06:05.052898 11390 net.cpp:100] Creating Layer detection_loss_1_5x5
I1210 21:06:05.052903 11390 net.cpp:434] detection_loss_1_5x5 <- LFCN_1_5x5_LFCN_1_5x5_0_split_0
I1210 21:06:05.052909 11390 net.cpp:434] detection_loss_1_5x5 <- label_1_5x5_data_1_split_0
I1210 21:06:05.052917 11390 net.cpp:408] detection_loss_1_5x5 -> loss_1_5x5
I1210 21:06:05.052925 11390 layer_factory.hpp:77] Creating layer detection_loss_1_5x5
I1210 21:06:05.053308 11390 net.cpp:150] Setting up detection_loss_1_5x5
I1210 21:06:05.053323 11390 net.cpp:157] Top shape: 1 1 1 2 (2)
I1210 21:06:05.053325 11390 net.cpp:160]     with loss weight 0.9
I1210 21:06:05.053360 11390 net.cpp:165] Memory required for data: 2227895460
I1210 21:06:05.053364 11390 layer_factory.hpp:77] Creating layer detection_accuracy_1_5x5
I1210 21:06:05.053391 11390 net.cpp:100] Creating Layer detection_accuracy_1_5x5
I1210 21:06:05.053396 11390 net.cpp:434] detection_accuracy_1_5x5 <- LFCN_1_5x5_LFCN_1_5x5_0_split_1
I1210 21:06:05.053401 11390 net.cpp:434] detection_accuracy_1_5x5 <- label_1_5x5_data_1_split_1
I1210 21:06:05.053411 11390 net.cpp:408] detection_accuracy_1_5x5 -> accuracy_1_5x5
I1210 21:06:05.053417 11390 net.cpp:408] detection_accuracy_1_5x5 -> boxiou_1_5x5
I1210 21:06:05.053489 11390 net.cpp:150] Setting up detection_accuracy_1_5x5
I1210 21:06:05.053495 11390 net.cpp:157] Top shape: 1 1 1 2 (2)
I1210 21:06:05.053501 11390 net.cpp:157] Top shape: 1 1 1 1 (1)
I1210 21:06:05.053504 11390 net.cpp:165] Memory required for data: 2227895472
I1210 21:06:05.053508 11390 layer_factory.hpp:77] Creating layer LFCN_1_7x7
I1210 21:06:05.053530 11390 net.cpp:100] Creating Layer LFCN_1_7x7
I1210 21:06:05.053534 11390 net.cpp:434] LFCN_1_7x7 <- loss1_conv1_loss_relu1_0_split_1
I1210 21:06:05.053541 11390 net.cpp:408] LFCN_1_7x7 -> LFCN_1_7x7
I1210 21:06:05.061543 11390 net.cpp:150] Setting up LFCN_1_7x7
I1210 21:06:05.061568 11390 net.cpp:157] Top shape: 1 9 96 96 (82944)
I1210 21:06:05.061571 11390 net.cpp:165] Memory required for data: 2228227248
I1210 21:06:05.061586 11390 layer_factory.hpp:77] Creating layer LFCN_1_7x7_LFCN_1_7x7_0_split
I1210 21:06:05.061596 11390 net.cpp:100] Creating Layer LFCN_1_7x7_LFCN_1_7x7_0_split
I1210 21:06:05.061601 11390 net.cpp:434] LFCN_1_7x7_LFCN_1_7x7_0_split <- LFCN_1_7x7
I1210 21:06:05.061607 11390 net.cpp:408] LFCN_1_7x7_LFCN_1_7x7_0_split -> LFCN_1_7x7_LFCN_1_7x7_0_split_0
I1210 21:06:05.061615 11390 net.cpp:408] LFCN_1_7x7_LFCN_1_7x7_0_split -> LFCN_1_7x7_LFCN_1_7x7_0_split_1
I1210 21:06:05.061619 11390 net.cpp:408] LFCN_1_7x7_LFCN_1_7x7_0_split -> LFCN_1_7x7_LFCN_1_7x7_0_split_2
I1210 21:06:05.061669 11390 net.cpp:150] Setting up LFCN_1_7x7_LFCN_1_7x7_0_split
I1210 21:06:05.061676 11390 net.cpp:157] Top shape: 1 9 96 96 (82944)
I1210 21:06:05.061679 11390 net.cpp:157] Top shape: 1 9 96 96 (82944)
I1210 21:06:05.061682 11390 net.cpp:157] Top shape: 1 9 96 96 (82944)
I1210 21:06:05.061686 11390 net.cpp:165] Memory required for data: 2229222576
I1210 21:06:05.061688 11390 layer_factory.hpp:77] Creating layer detection_loss_1_7x7
I1210 21:06:05.061695 11390 net.cpp:100] Creating Layer detection_loss_1_7x7
I1210 21:06:05.061699 11390 net.cpp:434] detection_loss_1_7x7 <- LFCN_1_7x7_LFCN_1_7x7_0_split_0
I1210 21:06:05.061704 11390 net.cpp:434] detection_loss_1_7x7 <- label_1_7x7_data_2_split_0
I1210 21:06:05.061710 11390 net.cpp:408] detection_loss_1_7x7 -> loss_1_7x7
I1210 21:06:05.061718 11390 layer_factory.hpp:77] Creating layer detection_loss_1_7x7
I1210 21:06:05.062098 11390 net.cpp:150] Setting up detection_loss_1_7x7
I1210 21:06:05.062106 11390 net.cpp:157] Top shape: 1 1 1 2 (2)
I1210 21:06:05.062110 11390 net.cpp:160]     with loss weight 0.9
I1210 21:06:05.062125 11390 net.cpp:165] Memory required for data: 2229222584
I1210 21:06:05.062129 11390 layer_factory.hpp:77] Creating layer detection_accuracy_1_7x7
I1210 21:06:05.062136 11390 net.cpp:100] Creating Layer detection_accuracy_1_7x7
I1210 21:06:05.062140 11390 net.cpp:434] detection_accuracy_1_7x7 <- LFCN_1_7x7_LFCN_1_7x7_0_split_1
I1210 21:06:05.062145 11390 net.cpp:434] detection_accuracy_1_7x7 <- label_1_7x7_data_2_split_1
I1210 21:06:05.062152 11390 net.cpp:408] detection_accuracy_1_7x7 -> accuracy_1_7x7
I1210 21:06:05.062160 11390 net.cpp:408] detection_accuracy_1_7x7 -> boxiou_1_7x7
I1210 21:06:05.062202 11390 net.cpp:150] Setting up detection_accuracy_1_7x7
I1210 21:06:05.062209 11390 net.cpp:157] Top shape: 1 1 1 2 (2)
I1210 21:06:05.062214 11390 net.cpp:157] Top shape: 1 1 1 1 (1)
I1210 21:06:05.062217 11390 net.cpp:165] Memory required for data: 2229222596
I1210 21:06:05.062222 11390 layer_factory.hpp:77] Creating layer pool4
I1210 21:06:05.062228 11390 net.cpp:100] Creating Layer pool4
I1210 21:06:05.062233 11390 net.cpp:434] pool4 <- conv4_3_relu4_3_0_split_1
I1210 21:06:05.062242 11390 net.cpp:408] pool4 -> pool4
I1210 21:06:05.062280 11390 net.cpp:150] Setting up pool4
I1210 21:06:05.062288 11390 net.cpp:157] Top shape: 1 512 48 48 (1179648)
I1210 21:06:05.062292 11390 net.cpp:165] Memory required for data: 2233941188
I1210 21:06:05.062295 11390 layer_factory.hpp:77] Creating layer conv5_1
I1210 21:06:05.062304 11390 net.cpp:100] Creating Layer conv5_1
I1210 21:06:05.062307 11390 net.cpp:434] conv5_1 <- pool4
I1210 21:06:05.062314 11390 net.cpp:408] conv5_1 -> conv5_1
I1210 21:06:05.069351 11390 net.cpp:150] Setting up conv5_1
I1210 21:06:05.069382 11390 net.cpp:157] Top shape: 1 512 48 48 (1179648)
I1210 21:06:05.069387 11390 net.cpp:165] Memory required for data: 2238659780
I1210 21:06:05.069396 11390 layer_factory.hpp:77] Creating layer relu5_1
I1210 21:06:05.069411 11390 net.cpp:100] Creating Layer relu5_1
I1210 21:06:05.069417 11390 net.cpp:434] relu5_1 <- conv5_1
I1210 21:06:05.069423 11390 net.cpp:395] relu5_1 -> conv5_1 (in-place)
I1210 21:06:05.069594 11390 net.cpp:150] Setting up relu5_1
I1210 21:06:05.069604 11390 net.cpp:157] Top shape: 1 512 48 48 (1179648)
I1210 21:06:05.069607 11390 net.cpp:165] Memory required for data: 2243378372
I1210 21:06:05.069612 11390 layer_factory.hpp:77] Creating layer conv5_2
I1210 21:06:05.069620 11390 net.cpp:100] Creating Layer conv5_2
I1210 21:06:05.069625 11390 net.cpp:434] conv5_2 <- conv5_1
I1210 21:06:05.069633 11390 net.cpp:408] conv5_2 -> conv5_2
I1210 21:06:05.075672 11390 net.cpp:150] Setting up conv5_2
I1210 21:06:05.075706 11390 net.cpp:157] Top shape: 1 512 48 48 (1179648)
I1210 21:06:05.075711 11390 net.cpp:165] Memory required for data: 2248096964
I1210 21:06:05.075721 11390 layer_factory.hpp:77] Creating layer relu5_2
I1210 21:06:05.075734 11390 net.cpp:100] Creating Layer relu5_2
I1210 21:06:05.075743 11390 net.cpp:434] relu5_2 <- conv5_2
I1210 21:06:05.075749 11390 net.cpp:395] relu5_2 -> conv5_2 (in-place)
I1210 21:06:05.075927 11390 net.cpp:150] Setting up relu5_2
I1210 21:06:05.075937 11390 net.cpp:157] Top shape: 1 512 48 48 (1179648)
I1210 21:06:05.075940 11390 net.cpp:165] Memory required for data: 2252815556
I1210 21:06:05.075943 11390 layer_factory.hpp:77] Creating layer conv5_3
I1210 21:06:05.075953 11390 net.cpp:100] Creating Layer conv5_3
I1210 21:06:05.075958 11390 net.cpp:434] conv5_3 <- conv5_2
I1210 21:06:05.075963 11390 net.cpp:408] conv5_3 -> conv5_3
I1210 21:06:05.082150 11390 net.cpp:150] Setting up conv5_3
I1210 21:06:05.082191 11390 net.cpp:157] Top shape: 1 512 48 48 (1179648)
I1210 21:06:05.082198 11390 net.cpp:165] Memory required for data: 2257534148
I1210 21:06:05.082211 11390 layer_factory.hpp:77] Creating layer relu5_3
I1210 21:06:05.082224 11390 net.cpp:100] Creating Layer relu5_3
I1210 21:06:05.082232 11390 net.cpp:434] relu5_3 <- conv5_3
I1210 21:06:05.082243 11390 net.cpp:395] relu5_3 -> conv5_3 (in-place)
I1210 21:06:05.083377 11390 net.cpp:150] Setting up relu5_3
I1210 21:06:05.083390 11390 net.cpp:157] Top shape: 1 512 48 48 (1179648)
I1210 21:06:05.083395 11390 net.cpp:165] Memory required for data: 2262252740
I1210 21:06:05.083397 11390 layer_factory.hpp:77] Creating layer conv5_3_relu5_3_0_split
I1210 21:06:05.083405 11390 net.cpp:100] Creating Layer conv5_3_relu5_3_0_split
I1210 21:06:05.083408 11390 net.cpp:434] conv5_3_relu5_3_0_split <- conv5_3
I1210 21:06:05.083413 11390 net.cpp:408] conv5_3_relu5_3_0_split -> conv5_3_relu5_3_0_split_0
I1210 21:06:05.083421 11390 net.cpp:408] conv5_3_relu5_3_0_split -> conv5_3_relu5_3_0_split_1
I1210 21:06:05.083426 11390 net.cpp:408] conv5_3_relu5_3_0_split -> conv5_3_relu5_3_0_split_2
I1210 21:06:05.083482 11390 net.cpp:150] Setting up conv5_3_relu5_3_0_split
I1210 21:06:05.083489 11390 net.cpp:157] Top shape: 1 512 48 48 (1179648)
I1210 21:06:05.083493 11390 net.cpp:157] Top shape: 1 512 48 48 (1179648)
I1210 21:06:05.083498 11390 net.cpp:157] Top shape: 1 512 48 48 (1179648)
I1210 21:06:05.083500 11390 net.cpp:165] Memory required for data: 2276408516
I1210 21:06:05.083503 11390 layer_factory.hpp:77] Creating layer LFCN_2_5x5
I1210 21:06:05.083521 11390 net.cpp:100] Creating Layer LFCN_2_5x5
I1210 21:06:05.083526 11390 net.cpp:434] LFCN_2_5x5 <- conv5_3_relu5_3_0_split_0
I1210 21:06:05.083534 11390 net.cpp:408] LFCN_2_5x5 -> LFCN_2_5x5
I1210 21:06:05.087415 11390 net.cpp:150] Setting up LFCN_2_5x5
I1210 21:06:05.087427 11390 net.cpp:157] Top shape: 1 9 48 48 (20736)
I1210 21:06:05.087431 11390 net.cpp:165] Memory required for data: 2276491460
I1210 21:06:05.087437 11390 layer_factory.hpp:77] Creating layer LFCN_2_5x5_LFCN_2_5x5_0_split
I1210 21:06:05.087443 11390 net.cpp:100] Creating Layer LFCN_2_5x5_LFCN_2_5x5_0_split
I1210 21:06:05.087447 11390 net.cpp:434] LFCN_2_5x5_LFCN_2_5x5_0_split <- LFCN_2_5x5
I1210 21:06:05.087455 11390 net.cpp:408] LFCN_2_5x5_LFCN_2_5x5_0_split -> LFCN_2_5x5_LFCN_2_5x5_0_split_0
I1210 21:06:05.087460 11390 net.cpp:408] LFCN_2_5x5_LFCN_2_5x5_0_split -> LFCN_2_5x5_LFCN_2_5x5_0_split_1
I1210 21:06:05.087466 11390 net.cpp:408] LFCN_2_5x5_LFCN_2_5x5_0_split -> LFCN_2_5x5_LFCN_2_5x5_0_split_2
I1210 21:06:05.087518 11390 net.cpp:150] Setting up LFCN_2_5x5_LFCN_2_5x5_0_split
I1210 21:06:05.087525 11390 net.cpp:157] Top shape: 1 9 48 48 (20736)
I1210 21:06:05.087529 11390 net.cpp:157] Top shape: 1 9 48 48 (20736)
I1210 21:06:05.087533 11390 net.cpp:157] Top shape: 1 9 48 48 (20736)
I1210 21:06:05.087536 11390 net.cpp:165] Memory required for data: 2276740292
I1210 21:06:05.087539 11390 layer_factory.hpp:77] Creating layer detection_loss_2_5x5
I1210 21:06:05.087548 11390 net.cpp:100] Creating Layer detection_loss_2_5x5
I1210 21:06:05.087551 11390 net.cpp:434] detection_loss_2_5x5 <- LFCN_2_5x5_LFCN_2_5x5_0_split_0
I1210 21:06:05.087555 11390 net.cpp:434] detection_loss_2_5x5 <- label_2_5x5_data_3_split_0
I1210 21:06:05.087566 11390 net.cpp:408] detection_loss_2_5x5 -> loss_2_5x5
I1210 21:06:05.087584 11390 layer_factory.hpp:77] Creating layer detection_loss_2_5x5
I1210 21:06:05.088937 11390 net.cpp:150] Setting up detection_loss_2_5x5
I1210 21:06:05.088968 11390 net.cpp:157] Top shape: 1 1 1 2 (2)
I1210 21:06:05.088977 11390 net.cpp:160]     with loss weight 1
I1210 21:06:05.088994 11390 net.cpp:165] Memory required for data: 2276740300
I1210 21:06:05.089004 11390 layer_factory.hpp:77] Creating layer detection_accuracy_2_5x5
I1210 21:06:05.089020 11390 net.cpp:100] Creating Layer detection_accuracy_2_5x5
I1210 21:06:05.089032 11390 net.cpp:434] detection_accuracy_2_5x5 <- LFCN_2_5x5_LFCN_2_5x5_0_split_1
I1210 21:06:05.089045 11390 net.cpp:434] detection_accuracy_2_5x5 <- label_2_5x5_data_3_split_1
I1210 21:06:05.089061 11390 net.cpp:408] detection_accuracy_2_5x5 -> accuracy_2_5x5
I1210 21:06:05.089079 11390 net.cpp:408] detection_accuracy_2_5x5 -> boxiou_2_5x5
I1210 21:06:05.089179 11390 net.cpp:150] Setting up detection_accuracy_2_5x5
I1210 21:06:05.089193 11390 net.cpp:157] Top shape: 1 1 1 2 (2)
I1210 21:06:05.089203 11390 net.cpp:157] Top shape: 1 1 1 1 (1)
I1210 21:06:05.089211 11390 net.cpp:165] Memory required for data: 2276740312
I1210 21:06:05.089220 11390 layer_factory.hpp:77] Creating layer LFCN_2_7x7
I1210 21:06:05.089241 11390 net.cpp:100] Creating Layer LFCN_2_7x7
I1210 21:06:05.089251 11390 net.cpp:434] LFCN_2_7x7 <- conv5_3_relu5_3_0_split_1
I1210 21:06:05.089264 11390 net.cpp:408] LFCN_2_7x7 -> LFCN_2_7x7
I1210 21:06:05.105759 11390 net.cpp:150] Setting up LFCN_2_7x7
I1210 21:06:05.105787 11390 net.cpp:157] Top shape: 1 9 48 48 (20736)
I1210 21:06:05.105793 11390 net.cpp:165] Memory required for data: 2276823256
I1210 21:06:05.105803 11390 layer_factory.hpp:77] Creating layer LFCN_2_7x7_LFCN_2_7x7_0_split
I1210 21:06:05.105821 11390 net.cpp:100] Creating Layer LFCN_2_7x7_LFCN_2_7x7_0_split
I1210 21:06:05.105829 11390 net.cpp:434] LFCN_2_7x7_LFCN_2_7x7_0_split <- LFCN_2_7x7
I1210 21:06:05.105836 11390 net.cpp:408] LFCN_2_7x7_LFCN_2_7x7_0_split -> LFCN_2_7x7_LFCN_2_7x7_0_split_0
I1210 21:06:05.105846 11390 net.cpp:408] LFCN_2_7x7_LFCN_2_7x7_0_split -> LFCN_2_7x7_LFCN_2_7x7_0_split_1
I1210 21:06:05.105855 11390 net.cpp:408] LFCN_2_7x7_LFCN_2_7x7_0_split -> LFCN_2_7x7_LFCN_2_7x7_0_split_2
I1210 21:06:05.105939 11390 net.cpp:150] Setting up LFCN_2_7x7_LFCN_2_7x7_0_split
I1210 21:06:05.105949 11390 net.cpp:157] Top shape: 1 9 48 48 (20736)
I1210 21:06:05.105954 11390 net.cpp:157] Top shape: 1 9 48 48 (20736)
I1210 21:06:05.105959 11390 net.cpp:157] Top shape: 1 9 48 48 (20736)
I1210 21:06:05.105962 11390 net.cpp:165] Memory required for data: 2277072088
I1210 21:06:05.105967 11390 layer_factory.hpp:77] Creating layer detection_loss_2_7x7
I1210 21:06:05.105978 11390 net.cpp:100] Creating Layer detection_loss_2_7x7
I1210 21:06:05.105983 11390 net.cpp:434] detection_loss_2_7x7 <- LFCN_2_7x7_LFCN_2_7x7_0_split_0
I1210 21:06:05.105988 11390 net.cpp:434] detection_loss_2_7x7 <- label_2_7x7_data_4_split_0
I1210 21:06:05.105996 11390 net.cpp:408] detection_loss_2_7x7 -> loss_2_7x7
I1210 21:06:05.106006 11390 layer_factory.hpp:77] Creating layer detection_loss_2_7x7
I1210 21:06:05.106420 11390 net.cpp:150] Setting up detection_loss_2_7x7
I1210 21:06:05.106432 11390 net.cpp:157] Top shape: 1 1 1 2 (2)
I1210 21:06:05.106436 11390 net.cpp:160]     with loss weight 1
I1210 21:06:05.106447 11390 net.cpp:165] Memory required for data: 2277072096
I1210 21:06:05.106451 11390 layer_factory.hpp:77] Creating layer detection_accuracy_2_7x7
I1210 21:06:05.106458 11390 net.cpp:100] Creating Layer detection_accuracy_2_7x7
I1210 21:06:05.106462 11390 net.cpp:434] detection_accuracy_2_7x7 <- LFCN_2_7x7_LFCN_2_7x7_0_split_1
I1210 21:06:05.106467 11390 net.cpp:434] detection_accuracy_2_7x7 <- label_2_7x7_data_4_split_1
I1210 21:06:05.106477 11390 net.cpp:408] detection_accuracy_2_7x7 -> accuracy_2_7x7
I1210 21:06:05.106484 11390 net.cpp:408] detection_accuracy_2_7x7 -> boxiou_2_7x7
I1210 21:06:05.106534 11390 net.cpp:150] Setting up detection_accuracy_2_7x7
I1210 21:06:05.106542 11390 net.cpp:157] Top shape: 1 1 1 2 (2)
I1210 21:06:05.106547 11390 net.cpp:157] Top shape: 1 1 1 1 (1)
I1210 21:06:05.106550 11390 net.cpp:165] Memory required for data: 2277072108
I1210 21:06:05.106554 11390 layer_factory.hpp:77] Creating layer pool5
I1210 21:06:05.106564 11390 net.cpp:100] Creating Layer pool5
I1210 21:06:05.106570 11390 net.cpp:434] pool5 <- conv5_3_relu5_3_0_split_2
I1210 21:06:05.106576 11390 net.cpp:408] pool5 -> pool5
I1210 21:06:05.106621 11390 net.cpp:150] Setting up pool5
I1210 21:06:05.106627 11390 net.cpp:157] Top shape: 1 512 24 24 (294912)
I1210 21:06:05.106631 11390 net.cpp:165] Memory required for data: 2278251756
I1210 21:06:05.106636 11390 layer_factory.hpp:77] Creating layer conv6_1
I1210 21:06:05.106647 11390 net.cpp:100] Creating Layer conv6_1
I1210 21:06:05.106652 11390 net.cpp:434] conv6_1 <- pool5
I1210 21:06:05.106657 11390 net.cpp:408] conv6_1 -> conv6_1
I1210 21:06:05.172240 11390 net.cpp:150] Setting up conv6_1
I1210 21:06:05.172268 11390 net.cpp:157] Top shape: 1 512 24 24 (294912)
I1210 21:06:05.172273 11390 net.cpp:165] Memory required for data: 2279431404
I1210 21:06:05.172281 11390 layer_factory.hpp:77] Creating layer relu6_1
I1210 21:06:05.172293 11390 net.cpp:100] Creating Layer relu6_1
I1210 21:06:05.172300 11390 net.cpp:434] relu6_1 <- conv6_1
I1210 21:06:05.172308 11390 net.cpp:395] relu6_1 -> conv6_1 (in-place)
I1210 21:06:05.172502 11390 net.cpp:150] Setting up relu6_1
I1210 21:06:05.172513 11390 net.cpp:157] Top shape: 1 512 24 24 (294912)
I1210 21:06:05.172516 11390 net.cpp:165] Memory required for data: 2280611052
I1210 21:06:05.172520 11390 layer_factory.hpp:77] Creating layer conv6_1_relu6_1_0_split
I1210 21:06:05.172528 11390 net.cpp:100] Creating Layer conv6_1_relu6_1_0_split
I1210 21:06:05.172533 11390 net.cpp:434] conv6_1_relu6_1_0_split <- conv6_1
I1210 21:06:05.172538 11390 net.cpp:408] conv6_1_relu6_1_0_split -> conv6_1_relu6_1_0_split_0
I1210 21:06:05.172545 11390 net.cpp:408] conv6_1_relu6_1_0_split -> conv6_1_relu6_1_0_split_1
I1210 21:06:05.172550 11390 net.cpp:408] conv6_1_relu6_1_0_split -> conv6_1_relu6_1_0_split_2
I1210 21:06:05.172607 11390 net.cpp:150] Setting up conv6_1_relu6_1_0_split
I1210 21:06:05.172614 11390 net.cpp:157] Top shape: 1 512 24 24 (294912)
I1210 21:06:05.172618 11390 net.cpp:157] Top shape: 1 512 24 24 (294912)
I1210 21:06:05.172622 11390 net.cpp:157] Top shape: 1 512 24 24 (294912)
I1210 21:06:05.172626 11390 net.cpp:165] Memory required for data: 2284149996
I1210 21:06:05.172629 11390 layer_factory.hpp:77] Creating layer LFCN_3_5x5
I1210 21:06:05.172643 11390 net.cpp:100] Creating Layer LFCN_3_5x5
I1210 21:06:05.172647 11390 net.cpp:434] LFCN_3_5x5 <- conv6_1_relu6_1_0_split_0
I1210 21:06:05.172657 11390 net.cpp:408] LFCN_3_5x5 -> LFCN_3_5x5
I1210 21:06:05.176780 11390 net.cpp:150] Setting up LFCN_3_5x5
I1210 21:06:05.176796 11390 net.cpp:157] Top shape: 1 9 24 24 (5184)
I1210 21:06:05.176800 11390 net.cpp:165] Memory required for data: 2284170732
I1210 21:06:05.176806 11390 layer_factory.hpp:77] Creating layer LFCN_3_5x5_LFCN_3_5x5_0_split
I1210 21:06:05.176815 11390 net.cpp:100] Creating Layer LFCN_3_5x5_LFCN_3_5x5_0_split
I1210 21:06:05.176818 11390 net.cpp:434] LFCN_3_5x5_LFCN_3_5x5_0_split <- LFCN_3_5x5
I1210 21:06:05.176826 11390 net.cpp:408] LFCN_3_5x5_LFCN_3_5x5_0_split -> LFCN_3_5x5_LFCN_3_5x5_0_split_0
I1210 21:06:05.176832 11390 net.cpp:408] LFCN_3_5x5_LFCN_3_5x5_0_split -> LFCN_3_5x5_LFCN_3_5x5_0_split_1
I1210 21:06:05.176837 11390 net.cpp:408] LFCN_3_5x5_LFCN_3_5x5_0_split -> LFCN_3_5x5_LFCN_3_5x5_0_split_2
I1210 21:06:05.176892 11390 net.cpp:150] Setting up LFCN_3_5x5_LFCN_3_5x5_0_split
I1210 21:06:05.176898 11390 net.cpp:157] Top shape: 1 9 24 24 (5184)
I1210 21:06:05.176903 11390 net.cpp:157] Top shape: 1 9 24 24 (5184)
I1210 21:06:05.176906 11390 net.cpp:157] Top shape: 1 9 24 24 (5184)
I1210 21:06:05.176909 11390 net.cpp:165] Memory required for data: 2284232940
I1210 21:06:05.176913 11390 layer_factory.hpp:77] Creating layer detection_loss_3_5x5
I1210 21:06:05.176919 11390 net.cpp:100] Creating Layer detection_loss_3_5x5
I1210 21:06:05.176923 11390 net.cpp:434] detection_loss_3_5x5 <- LFCN_3_5x5_LFCN_3_5x5_0_split_0
I1210 21:06:05.176928 11390 net.cpp:434] detection_loss_3_5x5 <- label_3_5x5_data_5_split_0
I1210 21:06:05.176934 11390 net.cpp:408] detection_loss_3_5x5 -> loss_3_5x5
I1210 21:06:05.176944 11390 layer_factory.hpp:77] Creating layer detection_loss_3_5x5
I1210 21:06:05.177280 11390 net.cpp:150] Setting up detection_loss_3_5x5
I1210 21:06:05.177290 11390 net.cpp:157] Top shape: 1 1 1 2 (2)
I1210 21:06:05.177294 11390 net.cpp:160]     with loss weight 1
I1210 21:06:05.177304 11390 net.cpp:165] Memory required for data: 2284232948
I1210 21:06:05.177309 11390 layer_factory.hpp:77] Creating layer detection_accuracy_3_5x5
I1210 21:06:05.177315 11390 net.cpp:100] Creating Layer detection_accuracy_3_5x5
I1210 21:06:05.177320 11390 net.cpp:434] detection_accuracy_3_5x5 <- LFCN_3_5x5_LFCN_3_5x5_0_split_1
I1210 21:06:05.177325 11390 net.cpp:434] detection_accuracy_3_5x5 <- label_3_5x5_data_5_split_1
I1210 21:06:05.177330 11390 net.cpp:408] detection_accuracy_3_5x5 -> accuracy_3_5x5
I1210 21:06:05.177338 11390 net.cpp:408] detection_accuracy_3_5x5 -> boxiou_3_5x5
I1210 21:06:05.177379 11390 net.cpp:150] Setting up detection_accuracy_3_5x5
I1210 21:06:05.177386 11390 net.cpp:157] Top shape: 1 1 1 2 (2)
I1210 21:06:05.177390 11390 net.cpp:157] Top shape: 1 1 1 1 (1)
I1210 21:06:05.177393 11390 net.cpp:165] Memory required for data: 2284232960
I1210 21:06:05.177397 11390 layer_factory.hpp:77] Creating layer LFCN_3_7x7
I1210 21:06:05.177405 11390 net.cpp:100] Creating Layer LFCN_3_7x7
I1210 21:06:05.177409 11390 net.cpp:434] LFCN_3_7x7 <- conv6_1_relu6_1_0_split_1
I1210 21:06:05.177417 11390 net.cpp:408] LFCN_3_7x7 -> LFCN_3_7x7
I1210 21:06:05.185667 11390 net.cpp:150] Setting up LFCN_3_7x7
I1210 21:06:05.185700 11390 net.cpp:157] Top shape: 1 9 24 24 (5184)
I1210 21:06:05.185704 11390 net.cpp:165] Memory required for data: 2284253696
I1210 21:06:05.185714 11390 layer_factory.hpp:77] Creating layer LFCN_3_7x7_LFCN_3_7x7_0_split
I1210 21:06:05.185726 11390 net.cpp:100] Creating Layer LFCN_3_7x7_LFCN_3_7x7_0_split
I1210 21:06:05.185734 11390 net.cpp:434] LFCN_3_7x7_LFCN_3_7x7_0_split <- LFCN_3_7x7
I1210 21:06:05.185739 11390 net.cpp:408] LFCN_3_7x7_LFCN_3_7x7_0_split -> LFCN_3_7x7_LFCN_3_7x7_0_split_0
I1210 21:06:05.185747 11390 net.cpp:408] LFCN_3_7x7_LFCN_3_7x7_0_split -> LFCN_3_7x7_LFCN_3_7x7_0_split_1
I1210 21:06:05.185757 11390 net.cpp:408] LFCN_3_7x7_LFCN_3_7x7_0_split -> LFCN_3_7x7_LFCN_3_7x7_0_split_2
I1210 21:06:05.185820 11390 net.cpp:150] Setting up LFCN_3_7x7_LFCN_3_7x7_0_split
I1210 21:06:05.185828 11390 net.cpp:157] Top shape: 1 9 24 24 (5184)
I1210 21:06:05.185832 11390 net.cpp:157] Top shape: 1 9 24 24 (5184)
I1210 21:06:05.185837 11390 net.cpp:157] Top shape: 1 9 24 24 (5184)
I1210 21:06:05.185839 11390 net.cpp:165] Memory required for data: 2284315904
I1210 21:06:05.185843 11390 layer_factory.hpp:77] Creating layer detection_loss_3_7x7
I1210 21:06:05.185851 11390 net.cpp:100] Creating Layer detection_loss_3_7x7
I1210 21:06:05.185855 11390 net.cpp:434] detection_loss_3_7x7 <- LFCN_3_7x7_LFCN_3_7x7_0_split_0
I1210 21:06:05.185860 11390 net.cpp:434] detection_loss_3_7x7 <- label_3_7x7_data_6_split_0
I1210 21:06:05.185866 11390 net.cpp:408] detection_loss_3_7x7 -> loss_3_7x7
I1210 21:06:05.185876 11390 layer_factory.hpp:77] Creating layer detection_loss_3_7x7
I1210 21:06:05.186223 11390 net.cpp:150] Setting up detection_loss_3_7x7
I1210 21:06:05.186233 11390 net.cpp:157] Top shape: 1 1 1 2 (2)
I1210 21:06:05.186236 11390 net.cpp:160]     with loss weight 1
I1210 21:06:05.186247 11390 net.cpp:165] Memory required for data: 2284315912
I1210 21:06:05.186250 11390 layer_factory.hpp:77] Creating layer detection_accuracy_3_7x7
I1210 21:06:05.186257 11390 net.cpp:100] Creating Layer detection_accuracy_3_7x7
I1210 21:06:05.186261 11390 net.cpp:434] detection_accuracy_3_7x7 <- LFCN_3_7x7_LFCN_3_7x7_0_split_1
I1210 21:06:05.186266 11390 net.cpp:434] detection_accuracy_3_7x7 <- label_3_7x7_data_6_split_1
I1210 21:06:05.186272 11390 net.cpp:408] detection_accuracy_3_7x7 -> accuracy_3_7x7
I1210 21:06:05.186280 11390 net.cpp:408] detection_accuracy_3_7x7 -> boxiou_3_7x7
I1210 21:06:05.186322 11390 net.cpp:150] Setting up detection_accuracy_3_7x7
I1210 21:06:05.186328 11390 net.cpp:157] Top shape: 1 1 1 2 (2)
I1210 21:06:05.186332 11390 net.cpp:157] Top shape: 1 1 1 1 (1)
I1210 21:06:05.186336 11390 net.cpp:165] Memory required for data: 2284315924
I1210 21:06:05.186338 11390 layer_factory.hpp:77] Creating layer pool6
I1210 21:06:05.186345 11390 net.cpp:100] Creating Layer pool6
I1210 21:06:05.186350 11390 net.cpp:434] pool6 <- conv6_1_relu6_1_0_split_2
I1210 21:06:05.186357 11390 net.cpp:408] pool6 -> pool6
I1210 21:06:05.186393 11390 net.cpp:150] Setting up pool6
I1210 21:06:05.186400 11390 net.cpp:157] Top shape: 1 512 12 12 (73728)
I1210 21:06:05.186403 11390 net.cpp:165] Memory required for data: 2284610836
I1210 21:06:05.186406 11390 layer_factory.hpp:77] Creating layer LFCN_4_5x5
I1210 21:06:05.186416 11390 net.cpp:100] Creating Layer LFCN_4_5x5
I1210 21:06:05.186420 11390 net.cpp:434] LFCN_4_5x5 <- pool6
I1210 21:06:05.186426 11390 net.cpp:408] LFCN_4_5x5 -> LFCN_4_5x5
I1210 21:06:05.190655 11390 net.cpp:150] Setting up LFCN_4_5x5
I1210 21:06:05.190677 11390 net.cpp:157] Top shape: 1 9 12 12 (1296)
I1210 21:06:05.190681 11390 net.cpp:165] Memory required for data: 2284616020
I1210 21:06:05.190688 11390 layer_factory.hpp:77] Creating layer LFCN_4_5x5_LFCN_4_5x5_0_split
I1210 21:06:05.190696 11390 net.cpp:100] Creating Layer LFCN_4_5x5_LFCN_4_5x5_0_split
I1210 21:06:05.190701 11390 net.cpp:434] LFCN_4_5x5_LFCN_4_5x5_0_split <- LFCN_4_5x5
I1210 21:06:05.190707 11390 net.cpp:408] LFCN_4_5x5_LFCN_4_5x5_0_split -> LFCN_4_5x5_LFCN_4_5x5_0_split_0
I1210 21:06:05.190714 11390 net.cpp:408] LFCN_4_5x5_LFCN_4_5x5_0_split -> LFCN_4_5x5_LFCN_4_5x5_0_split_1
I1210 21:06:05.190721 11390 net.cpp:408] LFCN_4_5x5_LFCN_4_5x5_0_split -> LFCN_4_5x5_LFCN_4_5x5_0_split_2
I1210 21:06:05.190775 11390 net.cpp:150] Setting up LFCN_4_5x5_LFCN_4_5x5_0_split
I1210 21:06:05.190783 11390 net.cpp:157] Top shape: 1 9 12 12 (1296)
I1210 21:06:05.190786 11390 net.cpp:157] Top shape: 1 9 12 12 (1296)
I1210 21:06:05.190790 11390 net.cpp:157] Top shape: 1 9 12 12 (1296)
I1210 21:06:05.190793 11390 net.cpp:165] Memory required for data: 2284631572
I1210 21:06:05.190796 11390 layer_factory.hpp:77] Creating layer detection_loss_4_5x5
I1210 21:06:05.190804 11390 net.cpp:100] Creating Layer detection_loss_4_5x5
I1210 21:06:05.190806 11390 net.cpp:434] detection_loss_4_5x5 <- LFCN_4_5x5_LFCN_4_5x5_0_split_0
I1210 21:06:05.190812 11390 net.cpp:434] detection_loss_4_5x5 <- label_4_5x5_data_7_split_0
I1210 21:06:05.190819 11390 net.cpp:408] detection_loss_4_5x5 -> loss_4_5x5
I1210 21:06:05.190825 11390 layer_factory.hpp:77] Creating layer detection_loss_4_5x5
I1210 21:06:05.191553 11390 net.cpp:150] Setting up detection_loss_4_5x5
I1210 21:06:05.191586 11390 net.cpp:157] Top shape: 1 1 1 2 (2)
I1210 21:06:05.191591 11390 net.cpp:160]     with loss weight 1
I1210 21:06:05.191599 11390 net.cpp:165] Memory required for data: 2284631580
I1210 21:06:05.191603 11390 layer_factory.hpp:77] Creating layer detection_accuracy_4_5x5
I1210 21:06:05.191612 11390 net.cpp:100] Creating Layer detection_accuracy_4_5x5
I1210 21:06:05.191615 11390 net.cpp:434] detection_accuracy_4_5x5 <- LFCN_4_5x5_LFCN_4_5x5_0_split_1
I1210 21:06:05.191620 11390 net.cpp:434] detection_accuracy_4_5x5 <- label_4_5x5_data_7_split_1
I1210 21:06:05.191627 11390 net.cpp:408] detection_accuracy_4_5x5 -> accuracy_4_5x5
I1210 21:06:05.191634 11390 net.cpp:408] detection_accuracy_4_5x5 -> boxiou_4_5x5
I1210 21:06:05.191676 11390 net.cpp:150] Setting up detection_accuracy_4_5x5
I1210 21:06:05.191684 11390 net.cpp:157] Top shape: 1 1 1 2 (2)
I1210 21:06:05.191687 11390 net.cpp:157] Top shape: 1 1 1 1 (1)
I1210 21:06:05.191690 11390 net.cpp:165] Memory required for data: 2284631592
I1210 21:06:05.191694 11390 layer_factory.hpp:77] Creating layer proposals
I1210 21:06:05.191701 11390 net.cpp:100] Creating Layer proposals
I1210 21:06:05.191705 11390 net.cpp:434] proposals <- LFCN_1_5x5_LFCN_1_5x5_0_split_2
I1210 21:06:05.191710 11390 net.cpp:434] proposals <- LFCN_1_7x7_LFCN_1_7x7_0_split_2
I1210 21:06:05.191715 11390 net.cpp:434] proposals <- LFCN_2_5x5_LFCN_2_5x5_0_split_2
I1210 21:06:05.191717 11390 net.cpp:434] proposals <- LFCN_2_7x7_LFCN_2_7x7_0_split_2
I1210 21:06:05.191721 11390 net.cpp:434] proposals <- LFCN_3_5x5_LFCN_3_5x5_0_split_2
I1210 21:06:05.191725 11390 net.cpp:434] proposals <- LFCN_3_7x7_LFCN_3_7x7_0_split_2
I1210 21:06:05.191728 11390 net.cpp:434] proposals <- LFCN_4_5x5_LFCN_4_5x5_0_split_2
I1210 21:06:05.191733 11390 net.cpp:408] proposals -> proposals
I1210 21:06:05.191758 11390 net.cpp:150] Setting up proposals
I1210 21:06:05.191766 11390 net.cpp:157] Top shape: 1 5 1 1 (5)
I1210 21:06:05.191768 11390 net.cpp:165] Memory required for data: 2284631612
I1210 21:06:05.191771 11390 layer_factory.hpp:77] Creating layer proposal_info
I1210 21:06:05.191781 11390 net.cpp:100] Creating Layer proposal_info
I1210 21:06:05.191784 11390 net.cpp:434] proposal_info <- proposals
I1210 21:06:05.191789 11390 net.cpp:434] proposal_info <- gt_boxes
I1210 21:06:05.191794 11390 net.cpp:408] proposal_info -> rois
I1210 21:06:05.191802 11390 net.cpp:408] proposal_info -> proposal_labels
I1210 21:06:05.191809 11390 net.cpp:408] proposal_info -> proposal_targets
I1210 21:06:05.191815 11390 net.cpp:408] proposal_info -> box_inside_weights
I1210 21:06:05.191821 11390 net.cpp:408] proposal_info -> box_outside_weights
I1210 21:06:05.191828 11390 net.cpp:408] proposal_info -> match_gt_boxes
I1210 21:06:05.191921 11390 net.cpp:150] Setting up proposal_info
I1210 21:06:05.191928 11390 net.cpp:157] Top shape: 128 5 1 1 (640)
I1210 21:06:05.191932 11390 net.cpp:157] Top shape: 128 1 1 1 (128)
I1210 21:06:05.191936 11390 net.cpp:157] Top shape: 128 20 1 1 (2560)
I1210 21:06:05.191941 11390 net.cpp:157] Top shape: 128 20 1 1 (2560)
I1210 21:06:05.191944 11390 net.cpp:157] Top shape: 128 20 1 1 (2560)
I1210 21:06:05.191948 11390 net.cpp:157] Top shape: 128 6 1 1 (768)
I1210 21:06:05.191951 11390 net.cpp:165] Memory required for data: 2284668476
I1210 21:06:05.191954 11390 layer_factory.hpp:77] Creating layer rois_proposal_info_0_split
I1210 21:06:05.191959 11390 net.cpp:100] Creating Layer rois_proposal_info_0_split
I1210 21:06:05.191962 11390 net.cpp:434] rois_proposal_info_0_split <- rois
I1210 21:06:05.191967 11390 net.cpp:408] rois_proposal_info_0_split -> rois_proposal_info_0_split_0
I1210 21:06:05.191972 11390 net.cpp:408] rois_proposal_info_0_split -> rois_proposal_info_0_split_1
I1210 21:06:05.191988 11390 net.cpp:408] rois_proposal_info_0_split -> rois_proposal_info_0_split_2
I1210 21:06:05.192039 11390 net.cpp:150] Setting up rois_proposal_info_0_split
I1210 21:06:05.192045 11390 net.cpp:157] Top shape: 128 5 1 1 (640)
I1210 21:06:05.192050 11390 net.cpp:157] Top shape: 128 5 1 1 (640)
I1210 21:06:05.192054 11390 net.cpp:157] Top shape: 128 5 1 1 (640)
I1210 21:06:05.192057 11390 net.cpp:165] Memory required for data: 2284676156
I1210 21:06:05.192060 11390 layer_factory.hpp:77] Creating layer proposal_labels_proposal_info_1_split
I1210 21:06:05.192065 11390 net.cpp:100] Creating Layer proposal_labels_proposal_info_1_split
I1210 21:06:05.192070 11390 net.cpp:434] proposal_labels_proposal_info_1_split <- proposal_labels
I1210 21:06:05.192075 11390 net.cpp:408] proposal_labels_proposal_info_1_split -> proposal_labels_proposal_info_1_split_0
I1210 21:06:05.192080 11390 net.cpp:408] proposal_labels_proposal_info_1_split -> proposal_labels_proposal_info_1_split_1
I1210 21:06:05.192116 11390 net.cpp:150] Setting up proposal_labels_proposal_info_1_split
I1210 21:06:05.192122 11390 net.cpp:157] Top shape: 128 1 1 1 (128)
I1210 21:06:05.192126 11390 net.cpp:157] Top shape: 128 1 1 1 (128)
I1210 21:06:05.192129 11390 net.cpp:165] Memory required for data: 2284677180
I1210 21:06:05.192132 11390 layer_factory.hpp:77] Creating layer conv4_3_2x
I1210 21:06:05.192139 11390 net.cpp:100] Creating Layer conv4_3_2x
I1210 21:06:05.192143 11390 net.cpp:434] conv4_3_2x <- conv4_3_relu4_3_0_split_2
I1210 21:06:05.192149 11390 net.cpp:408] conv4_3_2x -> conv4_3_2x
I1210 21:06:05.192641 11390 net.cpp:150] Setting up conv4_3_2x
I1210 21:06:05.192649 11390 net.cpp:157] Top shape: 1 512 192 192 (18874368)
I1210 21:06:05.192652 11390 net.cpp:165] Memory required for data: 2360174652
I1210 21:06:05.192657 11390 layer_factory.hpp:77] Creating layer conv4_3_2x_conv4_3_2x_0_split
I1210 21:06:05.192662 11390 net.cpp:100] Creating Layer conv4_3_2x_conv4_3_2x_0_split
I1210 21:06:05.192665 11390 net.cpp:434] conv4_3_2x_conv4_3_2x_0_split <- conv4_3_2x
I1210 21:06:05.192669 11390 net.cpp:408] conv4_3_2x_conv4_3_2x_0_split -> conv4_3_2x_conv4_3_2x_0_split_0
I1210 21:06:05.192675 11390 net.cpp:408] conv4_3_2x_conv4_3_2x_0_split -> conv4_3_2x_conv4_3_2x_0_split_1
I1210 21:06:05.192713 11390 net.cpp:150] Setting up conv4_3_2x_conv4_3_2x_0_split
I1210 21:06:05.192719 11390 net.cpp:157] Top shape: 1 512 192 192 (18874368)
I1210 21:06:05.192723 11390 net.cpp:157] Top shape: 1 512 192 192 (18874368)
I1210 21:06:05.192726 11390 net.cpp:165] Memory required for data: 2511169596
I1210 21:06:05.192730 11390 layer_factory.hpp:77] Creating layer roi_pool_org
I1210 21:06:05.192735 11390 net.cpp:100] Creating Layer roi_pool_org
I1210 21:06:05.192739 11390 net.cpp:434] roi_pool_org <- conv4_3_2x_conv4_3_2x_0_split_0
I1210 21:06:05.192744 11390 net.cpp:434] roi_pool_org <- rois_proposal_info_0_split_0
I1210 21:06:05.192749 11390 net.cpp:408] roi_pool_org -> roi_pool_org
I1210 21:06:05.192755 11390 roi_pooling_layer.cpp:33] Spatial scale: 0.25
I1210 21:06:05.192793 11390 net.cpp:150] Setting up roi_pool_org
I1210 21:06:05.192804 11390 net.cpp:157] Top shape: 128 512 7 7 (3211264)
I1210 21:06:05.192807 11390 net.cpp:165] Memory required for data: 2524014652
I1210 21:06:05.192811 11390 layer_factory.hpp:77] Creating layer roi_pool_ctx
I1210 21:06:05.192816 11390 net.cpp:100] Creating Layer roi_pool_ctx
I1210 21:06:05.192819 11390 net.cpp:434] roi_pool_ctx <- conv4_3_2x_conv4_3_2x_0_split_1
I1210 21:06:05.192824 11390 net.cpp:434] roi_pool_ctx <- rois_proposal_info_0_split_1
I1210 21:06:05.192828 11390 net.cpp:408] roi_pool_ctx -> roi_pool_ctx
I1210 21:06:05.192833 11390 roi_pooling_layer.cpp:33] Spatial scale: 0.25
I1210 21:06:05.192873 11390 net.cpp:150] Setting up roi_pool_ctx
I1210 21:06:05.192878 11390 net.cpp:157] Top shape: 128 512 7 7 (3211264)
I1210 21:06:05.192881 11390 net.cpp:165] Memory required for data: 2536859708
I1210 21:06:05.192884 11390 layer_factory.hpp:77] Creating layer roi_pool
I1210 21:06:05.192889 11390 net.cpp:100] Creating Layer roi_pool
I1210 21:06:05.192893 11390 net.cpp:434] roi_pool <- roi_pool_org
I1210 21:06:05.192898 11390 net.cpp:434] roi_pool <- roi_pool_ctx
I1210 21:06:05.192903 11390 net.cpp:408] roi_pool -> roi_pool
I1210 21:06:05.192925 11390 net.cpp:150] Setting up roi_pool
I1210 21:06:05.192931 11390 net.cpp:157] Top shape: 128 1024 7 7 (6422528)
I1210 21:06:05.192934 11390 net.cpp:165] Memory required for data: 2562549820
I1210 21:06:05.192937 11390 layer_factory.hpp:77] Creating layer roi_c1
I1210 21:06:05.192946 11390 net.cpp:100] Creating Layer roi_c1
I1210 21:06:05.192950 11390 net.cpp:434] roi_c1 <- roi_pool
I1210 21:06:05.192955 11390 net.cpp:408] roi_c1 -> roi_c1
I1210 21:06:05.314044 11390 net.cpp:150] Setting up roi_c1
I1210 21:06:05.314096 11390 net.cpp:157] Top shape: 128 512 5 5 (1638400)
I1210 21:06:05.314100 11390 net.cpp:165] Memory required for data: 2569103420
I1210 21:06:05.314111 11390 layer_factory.hpp:77] Creating layer roi_c1_relu
I1210 21:06:05.314128 11390 net.cpp:100] Creating Layer roi_c1_relu
I1210 21:06:05.314136 11390 net.cpp:434] roi_c1_relu <- roi_c1
I1210 21:06:05.314142 11390 net.cpp:395] roi_c1_relu -> roi_c1 (in-place)
I1210 21:06:05.315194 11390 net.cpp:150] Setting up roi_c1_relu
I1210 21:06:05.315209 11390 net.cpp:157] Top shape: 128 512 5 5 (1638400)
I1210 21:06:05.315213 11390 net.cpp:165] Memory required for data: 2575657020
I1210 21:06:05.315217 11390 layer_factory.hpp:77] Creating layer fc6
I1210 21:06:05.315227 11390 net.cpp:100] Creating Layer fc6
I1210 21:06:05.315232 11390 net.cpp:434] fc6 <- roi_c1
I1210 21:06:05.315239 11390 net.cpp:408] fc6 -> fc6
I1210 21:06:06.611842 11390 net.cpp:150] Setting up fc6
I1210 21:06:06.611874 11390 net.cpp:157] Top shape: 128 4096 (524288)
I1210 21:06:06.611878 11390 net.cpp:165] Memory required for data: 2577754172
I1210 21:06:06.611888 11390 layer_factory.hpp:77] Creating layer relu6
I1210 21:06:06.611899 11390 net.cpp:100] Creating Layer relu6
I1210 21:06:06.611905 11390 net.cpp:434] relu6 <- fc6
I1210 21:06:06.611912 11390 net.cpp:395] relu6 -> fc6 (in-place)
I1210 21:06:06.612174 11390 net.cpp:150] Setting up relu6
I1210 21:06:06.612185 11390 net.cpp:157] Top shape: 128 4096 (524288)
I1210 21:06:06.612188 11390 net.cpp:165] Memory required for data: 2579851324
I1210 21:06:06.612192 11390 layer_factory.hpp:77] Creating layer drop6
I1210 21:06:06.612200 11390 net.cpp:100] Creating Layer drop6
I1210 21:06:06.612205 11390 net.cpp:434] drop6 <- fc6
I1210 21:06:06.612208 11390 net.cpp:395] drop6 -> fc6 (in-place)
I1210 21:06:06.612232 11390 net.cpp:150] Setting up drop6
I1210 21:06:06.612238 11390 net.cpp:157] Top shape: 128 4096 (524288)
I1210 21:06:06.612241 11390 net.cpp:165] Memory required for data: 2581948476
I1210 21:06:06.612244 11390 layer_factory.hpp:77] Creating layer fc6_drop6_0_split
I1210 21:06:06.612251 11390 net.cpp:100] Creating Layer fc6_drop6_0_split
I1210 21:06:06.612253 11390 net.cpp:434] fc6_drop6_0_split <- fc6
I1210 21:06:06.612259 11390 net.cpp:408] fc6_drop6_0_split -> fc6_drop6_0_split_0
I1210 21:06:06.612265 11390 net.cpp:408] fc6_drop6_0_split -> fc6_drop6_0_split_1
I1210 21:06:06.612304 11390 net.cpp:150] Setting up fc6_drop6_0_split
I1210 21:06:06.612310 11390 net.cpp:157] Top shape: 128 4096 (524288)
I1210 21:06:06.612315 11390 net.cpp:157] Top shape: 128 4096 (524288)
I1210 21:06:06.612318 11390 net.cpp:165] Memory required for data: 2586142780
I1210 21:06:06.612321 11390 layer_factory.hpp:77] Creating layer cls_pred
I1210 21:06:06.612329 11390 net.cpp:100] Creating Layer cls_pred
I1210 21:06:06.612334 11390 net.cpp:434] cls_pred <- fc6_drop6_0_split_0
I1210 21:06:06.612339 11390 net.cpp:408] cls_pred -> cls_pred
I1210 21:06:06.613030 11390 net.cpp:150] Setting up cls_pred
I1210 21:06:06.613049 11390 net.cpp:157] Top shape: 128 5 (640)
I1210 21:06:06.613051 11390 net.cpp:165] Memory required for data: 2586145340
I1210 21:06:06.613056 11390 layer_factory.hpp:77] Creating layer cls_pred_cls_pred_0_split
I1210 21:06:06.613061 11390 net.cpp:100] Creating Layer cls_pred_cls_pred_0_split
I1210 21:06:06.613065 11390 net.cpp:434] cls_pred_cls_pred_0_split <- cls_pred
I1210 21:06:06.613071 11390 net.cpp:408] cls_pred_cls_pred_0_split -> cls_pred_cls_pred_0_split_0
I1210 21:06:06.613076 11390 net.cpp:408] cls_pred_cls_pred_0_split -> cls_pred_cls_pred_0_split_1
I1210 21:06:06.613109 11390 net.cpp:150] Setting up cls_pred_cls_pred_0_split
I1210 21:06:06.613116 11390 net.cpp:157] Top shape: 128 5 (640)
I1210 21:06:06.613121 11390 net.cpp:157] Top shape: 128 5 (640)
I1210 21:06:06.613123 11390 net.cpp:165] Memory required for data: 2586150460
I1210 21:06:06.613126 11390 layer_factory.hpp:77] Creating layer bbox_pred
I1210 21:06:06.613131 11390 net.cpp:100] Creating Layer bbox_pred
I1210 21:06:06.613135 11390 net.cpp:434] bbox_pred <- fc6_drop6_0_split_1
I1210 21:06:06.613142 11390 net.cpp:408] bbox_pred -> bbox_pred
I1210 21:06:06.615314 11390 net.cpp:150] Setting up bbox_pred
I1210 21:06:06.615319 11390 net.cpp:157] Top shape: 128 20 (2560)
I1210 21:06:06.615322 11390 net.cpp:165] Memory required for data: 2586160700
I1210 21:06:06.615327 11390 layer_factory.hpp:77] Creating layer bbox_pred_bbox_pred_0_split
I1210 21:06:06.615330 11390 net.cpp:100] Creating Layer bbox_pred_bbox_pred_0_split
I1210 21:06:06.615334 11390 net.cpp:434] bbox_pred_bbox_pred_0_split <- bbox_pred
I1210 21:06:06.615339 11390 net.cpp:408] bbox_pred_bbox_pred_0_split -> bbox_pred_bbox_pred_0_split_0
I1210 21:06:06.615344 11390 net.cpp:408] bbox_pred_bbox_pred_0_split -> bbox_pred_bbox_pred_0_split_1
I1210 21:06:06.615372 11390 net.cpp:150] Setting up bbox_pred_bbox_pred_0_split
I1210 21:06:06.615376 11390 net.cpp:157] Top shape: 128 20 (2560)
I1210 21:06:06.615381 11390 net.cpp:157] Top shape: 128 20 (2560)
I1210 21:06:06.615383 11390 net.cpp:165] Memory required for data: 2586181180
I1210 21:06:06.615386 11390 layer_factory.hpp:77] Creating layer loss_cls
I1210 21:06:06.615391 11390 net.cpp:100] Creating Layer loss_cls
I1210 21:06:06.615394 11390 net.cpp:434] loss_cls <- cls_pred_cls_pred_0_split_0
I1210 21:06:06.615399 11390 net.cpp:434] loss_cls <- proposal_labels_proposal_info_1_split_0
…
