…
    downsample_rate: 32
    downsample_rate: 32
    downsample_rate: 64
    coord_num: 4
    field_h: 60
    field_h: 84
    field_h: 120
    field_h: 168
    field_h: 240
    field_h: 336
    field_h: 480
    field_w: 60
    field_w: 84
    field_w: 120
    field_w: 168
    field_w: 240
    field_w: 336
    field_w: 480
    fg_threshold: 0.5
    resize_width: 1344
    resize_height: 768
    crop_width: 768
    crop_height: 768
    do_multiple_scale: true
    min_scale: 60
    max_scale: 480
    min_gt_height: 25
    shuffle: true
    output_gt_boxes: true
  }
}
layer {
  name: "slice"
  type: "Slice"
  bottom: "data"
  top: "data123"
  top: "ch4"
  slice_param {
    slice_point: 3
    axis: 1
  }
}
layer {
  name: "conv1_1"
  type: "Convolution"
  bottom: "data123"
  top: "conv1_1"
  param {
    lr_mult: 0
    decay_mult: 0
  }
  param {
    lr_mult: 0
    decay_mult: 0
  }
  convolution_param {
    num_output: 64
    pad: 1
    kernel_size: 3
  }
}
layer {
  name: "relu1_1"
  type: "ReLU"
  bottom: "conv1_1"
  top: "conv1_1"
}
layer {
  name: "conv1_2"
  type: "Convolution"
  bottom: "conv1_1"
  top: "conv1_2"
  param {
    lr_mult: 0
    decay_mult: 0
  }
  param {
    lr_mult: 0
    decay_mult: 0
  }
  convolution_param {
    num_output: 64
    pad: 1
    kernel_size: 3
  }
}
layer {
  name: "relu1_2"
  type: "ReLU"
  bottom: "conv1_2"
  top: "conv1_2"
}
layer {
  name: "pool1"
  type: "Pooling"
  bottom: "conv1_2"
  top: "pool1"
  pooling_param {
    pool: MAX
    kernel_size: 2
    stride: 2
  }
}
layer {
  name: "conv2_1"
  type: "Convolution"
  bottom: "pool1"
  top: "conv2_1"
  param {
    lr_mult: 0
    decay_mult: 0
  }
  param {
    lr_mult: 0
    decay_mult: 0
  }
  convolution_param {
    num_output: 128
    pad: 1
    kernel_size: 3
  }
}
layer {
  name: "relu2_1"
  type: "ReLU"
  bottom: "conv2_1"
  top: "conv2_1"
}
layer {
  name: "conv2_2"
  type: "Convolution"
  bottom: "conv2_1"
  top: "conv2_2"
  param {
    lr_mult: 0
    decay_mult: 0
  }
  param {
    lr_mult: 0
    decay_mult: 0
  }
  convolution_param {
    num_output: 128
    pad: 1
    kernel_size: 3
  }
}
layer {
  name: "relu2_2"
  type: "ReLU"
  bottom: "conv2_2"
  top: "conv2_2"
}
layer {
  name: "pool2"
  type: "Pooling"
  bottom: "conv2_2"
  top: "pool2"
  pooling_param {
    pool: MAX
    kernel_size: 2
    stride: 2
  }
}
layer {
  name: "conv3_1"
  type: "Convolution"
  bottom: "pool2"
  top: "conv3_1"
  convolution_param {
    num_output: 256
    pad: 1
    kernel_size: 3
  }
}
layer {
  name: "relu3_1"
  type: "ReLU"
  bottom: "conv3_1"
  top: "conv3_1"
}
layer {
  name: "conv3_2"
  type: "Convolution"
  bottom: "conv3_1"
  top: "conv3_2"
  convolution_param {
    num_output: 256
    pad: 1
    kernel_size: 3
  }
}
layer {
  name: "relu3_2"
  type: "ReLU"
  bottom: "conv3_2"
  top: "conv3_2"
}
layer {
  name: "conv3_3"
  type: "Convolution"
  bottom: "conv3_2"
  top: "conv3_3"
  convolution_param {
    num_output: 256
    pad: 1
    kernel_size: 3
  }
}
layer {
  name: "relu3_3"
  type: "ReLU"
  bottom: "conv3_3"
  top: "conv3_3"
}
layer {
  name: "pool3"
  type: "Pooling"
  bottom: "conv3_3"
  top: "pool3"
  pooling_param {
    pool: MAX
    kernel_size: 2
    stride: 2
  }
}
layer {
  name: "conv4_1"
  type: "Convolution"
  bottom: "pool3"
  top: "conv4_1"
  convolution_param {
    num_output: 512
    pad: 1
    kernel_size: 3
  }
}
layer {
  name: "relu4_1"
  type: "ReLU"
  bottom: "conv4_1"
  top: "conv4_1"
}
layer {
  name: "conv4_2"
  type: "Convolution"
  bottom: "conv4_1"
  top: "conv4_2"
  convolution_param {
    num_output: 512
    pad: 1
    kernel_size: 3
  }
}
layer {
  name: "relu4_2"
  type: "ReLU"
  bottom: "conv4_2"
  top: "conv4_2"
}
layer {
  name: "conv4_3"
  type: "Convolution"
  bottom: "conv4_2"
  top: "conv4_3"
  convolution_param {
    num_output: 512
    pad: 1
    kernel_size: 3
  }
}
layer {
  name: "relu4_3"
  type: "ReLU"
  bottom: "conv4_3"
  top: "conv4_3"
}
layer {
  name: "loss1_conv1"
  type: "Convolution"
  bottom: "conv4_3"
  top: "loss1_conv1"
  param {
    lr_mult: 1
    decay_mult: 1
  }
  param {
    lr_mult: 2
    decay_mult: 0
  }
  convolution_param {
    num_output: 512
    pad: 1
    kernel_size: 3
    weight_filler {
      type: "gaussian"
      std: 0.01
    }
    bias_filler {
      type: "constant"
    }
  }
}
layer {
  name: "loss_relu1"
  type: "ReLU"
  bottom: "loss1_conv1"
  top: "loss1_conv1"
}
layer {
  name: "LFCN_1_5x5"
  type: "Convolution"
  bottom: "loss1_conv1"
  top: "LFCN_1_5x5"
  param {
    lr_mult: 1
    decay_mult: 1
  }
  param {
    lr_mult: 2
    decay_mult: 0
  }
  convolution_param {
    num_output: 9
    pad: 2
    kernel_size: 5
    weight_filler {
      type: "gaussian"
      std: 0.001
    }
    bias_filler {
      type: "constant"
    }
  }
}
layer {
  name: "detection_loss_1_5x5"
  type: "DetectionLoss"
  bottom: "LFCN_1_5x5"
  bottom: "label_1_5x5"
  top: "loss_1_5x5"
  loss_weight: 0.9
  detection_loss_param {
    cls_num: 5
    coord_num: 4
    lambda: 1
    field_h: 60
    field_w: 60
    downsample_rate: 8
    bb_smooth: true
    field_whr: 2
    field_xyr: 2
    bg_threshold: 0.2
    bg_multiple: 2
    sample_mode: "bootstrap"
    pos_neg_weighted: true
  }
}
layer {
  name: "detection_accuracy_1_5x5"
  type: "DetectionAccuracy"
  bottom: "LFCN_1_5x5"
  bottom: "label_1_5x5"
  top: "accuracy_1_5x5"
  top: "boxiou_1_5x5"
  detection_accuracy_param {
    cls_num: 5
    coord_num: 4
    field_h: 60
    field_w: 60
    downsample_rate: 8
    field_whr: 2
    field_xyr: 2
  }
}
layer {
  name: "LFCN_1_7x7"
  type: "Convolution"
  bottom: "loss1_conv1"
  top: "LFCN_1_7x7"
  param {
    lr_mult: 1
    decay_mult: 1
  }
  param {
    lr_mult: 2
    decay_mult: 0
  }
  convolution_param {
    num_output: 9
    pad: 3
    kernel_size: 7
    weight_filler {
      type: "gaussian"
      std: 0.001
    }
    bias_filler {
      type: "constant"
    }
  }
}
layer {
  name: "detection_loss_1_7x7"
  type: "DetectionLoss"
  bottom: "LFCN_1_7x7"
  bottom: "label_1_7x7"
  top: "loss_1_7x7"
  loss_weight: 0.9
  detection_loss_param {
    cls_num: 5
    coord_num: 4
    lambda: 1
    field_h: 84
    field_w: 84
    downsample_rate: 8
    bb_smooth: true
    field_whr: 2
    field_xyr: 2
    bg_threshold: 0.2
    bg_multiple: 2
    sample_mode: "bootstrap"
    pos_neg_weighted: true
  }
}
layer {
  name: "detection_accuracy_1_7x7"
  type: "DetectionAccuracy"
  bottom: "LFCN_1_7x7"
  bottom: "label_1_7x7"
  top: "accuracy_1_7x7"
  top: "boxiou_1_7x7"
  detection_accuracy_param {
    cls_num: 5
    coord_num: 4
    field_h: 84
    field_w: 84
    downsample_rate: 8
    field_whr: 2
    field_xyr: 2
  }
}
layer {
  name: "pool4"
  type: "Pooling"
  bottom: "conv4_3"
  top: "pool4"
  pooling_param {
    pool: MAX
    kernel_size: 2
    stride: 2
  }
}
layer {
  name: "ch4_pool4"
  type: "Pooling"
  bottom: "ch4"
  top: "ch4_pool4"
  pooling_param {
    pool: MAX
    kernel_size: 16
    stride: 16
  }
}
layer {
  name: "pool4_concat"
  type: "Concat"
  bottom: "pool4"
  bottom: "ch4_pool4"
  top: "pool4_new"
}
layer {
  name: "conv5_1_new"
  type: "Convolution"
  bottom: "pool4_new"
  top: "conv5_1"
  convolution_param {
    num_output: 512
    pad: 1
    kernel_size: 3
  }
}
layer {
  name: "relu5_1"
  type: "ReLU"
  bottom: "conv5_1"
  top: "conv5_1"
}
layer {
  name: "conv5_2"
  type: "Convolution"
  bottom: "conv5_1"
  top: "conv5_2"
  convolution_param {
    num_output: 512
    pad: 1
    kernel_size: 3
  }
}
layer {
  name: "relu5_2"
  type: "ReLU"
  bottom: "conv5_2"
  top: "conv5_2"
}
layer {
  name: "conv5_3"
  type: "Convolution"
  bottom: "conv5_2"
  top: "conv5_3"
  convolution_param {
    num_output: 512
    pad: 1
    kernel_size: 3
  }
}
layer {
  name: "relu5_3"
  type: "ReLU"
  bottom: "conv5_3"
  top: "conv5_3"
}
layer {
  name: "LFCN_2_5x5"
  type: "Convolution"
  bottom: "conv5_3"
  top: "LFCN_2_5x5"
  param {
    lr_mult: 1
    decay_mult: 1
  }
  param {
    lr_mult: 2
    decay_mult: 0
  }
  convolution_param {
    num_output: 9
    pad: 2
    kernel_size: 5
    weight_filler {
      type: "gaussian"
      std: 0.001
    }
    bias_filler {
      type: "constant"
    }
  }
}
layer {
  name: "detection_loss_2_5x5"
  type: "DetectionLoss"
  bottom: "LFCN_2_5x5"
  bottom: "label_2_5x5"
  top: "loss_2_5x5"
  detection_loss_param {
    cls_num: 5
    coord_num: 4
    lambda: 1
    field_h: 120
    field_w: 120
    downsample_rate: 16
    bb_smooth: true
    field_whr: 2
    field_xyr: 2
    bg_threshold: 0.2
    bg_multiple: 2
    sample_mode: "bootstrap"
    pos_neg_weighted: true
  }
}
layer {
  name: "detection_accuracy_2_5x5"
  type: "DetectionAccuracy"
  bottom: "LFCN_2_5x5"
  bottom: "label_2_5x5"
  top: "accuracy_2_5x5"
  top: "boxiou_2_5x5"
  detection_accuracy_param {
    cls_num: 5
    coord_num: 4
    field_h: 120
    field_w: 120
    downsample_rate: 16
    field_whr: 2
    field_xyr: 2
  }
}
layer {
  name: "LFCN_2_7x7"
  type: "Convolution"
  bottom: "conv5_3"
  top: "LFCN_2_7x7"
  param {
    lr_mult: 1
    decay_mult: 1
  }
  param {
    lr_mult: 2
    decay_mult: 0
  }
  convolution_param {
    num_output: 9
    pad: 3
    kernel_size: 7
    weight_filler {
      type: "gaussian"
      std: 0.001
    }
    bias_filler {
      type: "constant"
    }
  }
}
layer {
  name: "detection_loss_2_7x7"
  type: "DetectionLoss"
  bottom: "LFCN_2_7x7"
  bottom: "label_2_7x7"
  top: "loss_2_7x7"
  detection_loss_param {
    cls_num: 5
    coord_num: 4
    lambda: 1
    field_h: 168
    field_w: 168
    downsample_rate: 16
    bb_smooth: true
    field_whr: 2
    field_xyr: 2
    bg_threshold: 0.2
    bg_multiple: 2
    sample_mode: "bootstrap"
    pos_neg_weighted: true
  }
}
layer {
  name: "detection_accuracy_2_7x7"
  type: "DetectionAccuracy"
  bottom: "LFCN_2_7x7"
  bottom: "label_2_7x7"
  top: "accuracy_2_7x7"
  top: "boxiou_2_7x7"
  detection_accuracy_param {
    cls_num: 5
    coord_num: 4
    field_h: 168
    field_w: 168
    downsample_rate: 16
    field_whr: 2
    field_xyr: 2
  }
}
layer {
  name: "pool5"
  type: "Pooling"
  bottom: "conv5_3"
  top: "pool5"
  pooling_param {
    pool: MAX
    kernel_size: 2
    stride: 2
  }
}
layer {
  name: "conv6_1"
  type: "Convolution"
  bottom: "pool5"
  top: "conv6_1"
  param {
    lr_mult: 1
    decay_mult: 1
  }
  param {
    lr_mult: 2
    decay_mult: 0
  }
  convolution_param {
    num_output: 512
    pad: 1
    kernel_size: 3
    weight_filler {
      type: "gaussian"
      std: 0.01
    }
    bias_filler {
      type: "constant"
    }
  }
}
layer {
  name: "relu6_1"
  type: "ReLU"
  bottom: "conv6_1"
  top: "conv6_1"
}
layer {
  name: "LFCN_3_5x5"
  type: "Convolution"
  bottom: "conv6_1"
  top: "LFCN_3_5x5"
  param {
    lr_mult: 1
    decay_mult: 1
  }
  param {
    lr_mult: 2
    decay_mult: 0
  }
  convolution_param {
    num_output: 9
    pad: 2
    kernel_size: 5
    weight_filler {
      type: "gaussian"
      std: 0.001
    }
    bias_filler {
      type: "constant"
    }
  }
}
layer {
  name: "detection_loss_3_5x5"
  type: "DetectionLoss"
  bottom: "LFCN_3_5x5"
  bottom: "label_3_5x5"
  top: "loss_3_5x5"
  detection_loss_param {
    cls_num: 5
    coord_num: 4
    lambda: 1
    field_h: 240
    field_w: 240
    downsample_rate: 32
    bb_smooth: true
    field_whr: 2
    field_xyr: 2
    bg_threshold: 0.2
    bg_multiple: 2
    sample_mode: "bootstrap"
    pos_neg_weighted: true
  }
}
layer {
  name: "detection_accuracy_3_5x5"
  type: "DetectionAccuracy"
  bottom: "LFCN_3_5x5"
  bottom: "label_3_5x5"
  top: "accuracy_3_5x5"
  top: "boxiou_3_5x5"
  detection_accuracy_param {
    cls_num: 5
    coord_num: 4
    field_h: 240
    field_w: 240
    downsample_rate: 32
    field_whr: 2
    field_xyr: 2
  }
}
layer {
  name: "LFCN_3_7x7"
  type: "Convolution"
  bottom: "conv6_1"
  top: "LFCN_3_7x7"
  param {
    lr_mult: 1
    decay_mult: 1
  }
  param {
    lr_mult: 2
    decay_mult: 0
  }
  convolution_param {
    num_output: 9
    pad: 3
    kernel_size: 7
    weight_filler {
      type: "gaussian"
      std: 0.001
    }
    bias_filler {
      type: "constant"
    }
  }
}
layer {
  name: "detection_loss_3_7x7"
  type: "DetectionLoss"
  bottom: "LFCN_3_7x7"
  bottom: "label_3_7x7"
  top: "loss_3_7x7"
  detection_loss_param {
    cls_num: 5
    coord_num: 4
    lambda: 1
    field_h: 336
    field_w: 336
    downsample_rate: 32
    bb_smooth: true
    field_whr: 2
    field_xyr: 2
    bg_threshold: 0.2
    bg_multiple: 2
    sample_mode: "bootstrap"
    pos_neg_weighted: true
  }
}
layer {
  name: "detection_accuracy_3_7x7"
  type: "DetectionAccuracy"
  bottom: "LFCN_3_7x7"
  bottom: "label_3_7x7"
  top: "accuracy_3_7x7"
  top: "boxiou_3_7x7"
  detection_accuracy_param {
    cls_num: 5
    coord_num: 4
    field_h: 336
    field_w: 336
    downsample_rate: 32
    field_whr: 2
    field_xyr: 2
  }
}
layer {
  name: "pool6"
  type: "Pooling"
  bottom: "conv6_1"
  top: "pool6"
  pooling_param {
    pool: MAX
    kernel_size: 2
    stride: 2
  }
}
layer {
  name: "LFCN_4_5x5"
  type: "Convolution"
  bottom: "pool6"
  top: "LFCN_4_5x5"
  param {
    lr_mult: 1
    decay_mult: 1
  }
  param {
    lr_mult: 2
    decay_mult: 0
  }
  convolution_param {
    num_output: 9
    pad: 2
    kernel_size: 5
    weight_filler {
      type: "gaussian"
      std: 0.001
    }
    bias_filler {
      type: "constant"
    }
  }
}
layer {
  name: "detection_loss_4_5x5"
  type: "DetectionLoss"
  bottom: "LFCN_4_5x5"
  bottom: "label_4_5x5"
  top: "loss_4_5x5"
  detection_loss_param {
    cls_num: 5
    coord_num: 4
    lambda: 1
    field_h: 480
    field_w: 480
    downsample_rate: 64
    bb_smooth: true
    field_whr: 2
    field_xyr: 2
    bg_threshold: 0.2
    bg_multiple: 2
    sample_mode: "bootstrap"
    pos_neg_weighted: true
  }
}
layer {
  name: "detection_accuracy_4_5x5"
  type: "DetectionAccuracy"
  bottom: "LFCN_4_5x5"
  bottom: "label_4_5x5"
  top: "accuracy_4_5x5"
  top: "boxiou_4_5x5"
  detection_accuracy_param {
    cls_num: 5
    coord_num: 4
    field_h: 480
    field_w: 480
    downsample_rate: 64
    field_whr: 2
    field_xyr: 2
  }
}
layer {
  name: "proposals"
  type: "BoxOutput"
  bottom: "LFCN_1_5x5"
  bottom: "LFCN_1_7x7"
  bottom: "LFCN_2_5x5"
  bottom: "LFCN_2_7x7"
  bottom: "LFCN_3_5x5"
  bottom: "LFCN_3_7x7"
  bottom: "LFCN_4_5x5"
  top: "proposals"
  propagate_down: false
  propagate_down: false
  propagate_down: false
  propagate_down: false
  propagate_down: false
  propagate_down: false
  propagate_down: false
  box_output_param {
    fg_thr: -8
    iou_thr: 0.65
    nms_type: "IOU"
    field_h: 60
    field_h: 84
    field_h: 120
    field_h: 168
    field_h: 240
    field_h: 336
    field_h: 480
    field_w: 60
    field_w: 84
    field_w: 120
    field_w: 168
    field_w: 240
    field_w: 336
    field_w: 480
    downsample_rate: 8
    downsample_rate: 8
    downsample_rate: 16
    downsample_rate: 16
    downsample_rate: 32
    downsample_rate: 32
    downsample_rate: 64
    field_whr: 2
    field_xyr: 2
    max_nms_num: 3000
  }
}
layer {
  name: "proposal_info"
  type: "ProposalTarget"
  bottom: "proposals"
  bottom: "gt_boxes"
  top: "rois"
  top: "proposal_labels"
  top: "proposal_targets"
  top: "box_inside_weights"
  top: "box_outside_weights"
  top: "match_gt_boxes"
  include {
    phase: TRAIN
  }
  propagate_down: false
  propagate_down: false
  proposal_target_param {
    cls_num: 5
    batch_size: 256
    fg_fraction: 0.25
    num_img_per_batch: 4
    fg_thr: 0.5
    bg_thr_hg: 0.49
    bg_thr_lw: 0.1
    img_width: 768
    img_height: 576
  }
  bbox_reg_param {
    bbox_mean: 0
    bbox_mean: 0
    bbox_mean: 0
    bbox_mean: 0
    bbox_std: 0.1
    bbox_std: 0.1
    bbox_std: 0.2
    bbox_std: 0.2
  }
}
layer {
  name: "conv4_3_2x"
  type: "Deconvolution"
  bottom: "conv4_3"
  top: "conv4_3_2x"
  param {
    lr_mult: 0
    decay_mult: 0
  }
  convolution_param {
    num_output: 512
    bias_term: false
    pad: 1
    kernel_size: 4
    group: 512
    stride: 2
    weight_filler {
      type: "bilinear"
    }
  }
}
layer {
  name: "roi_pool_org"
  type: "ROIPooling"
  bottom: "conv4_3_2x"
  bottom: "rois"
  top: "roi_pool_org"
  roi_pooling_param {
    pooled_h: 7
    pooled_w: 7
    spatial_scale: 0.25
    pad_ratio: 0
  }
}
layer {
  name: "roi_pool_ctx"
  type: "ROIPooling"
  bottom: "conv4_3_2x"
  bottom: "rois"
  top: "roi_pool_ctx"
  roi_pooling_param {
    pooled_h: 7
    pooled_w: 7
    spatial_scale: 0.25
    pad_ratio: 0.25
  }
}
layer {
  name: "roi_pool"
  type: "Concat"
  bottom: "roi_pool_org"
  bottom: "roi_pool_ctx"
  top: "roi_pool"
}
layer {
  name: "roi_c1"
  type: "Convolution"
  bottom: "roi_pool"
  top: "roi_c1"
  param {
    lr_mult: 1
    decay_mult: 1
  }
  param {
    lr_mult: 2
    decay_mult: 0
  }
  convolution_param {
    num_output: 512
    kernel_size: 3
    weight_filler {
      type: "gaussian"
      std: 0.01
    }
    bias_filler {
      type: "constant"
    }
  }
}
layer {
  name: "roi_c1_relu"
  type: "ReLU"
  bottom: "roi_c1"
  top: "roi_c1"
}
layer {
  name: "fc6"
  type: "InnerProduct"
  bottom: "roi_c1"
  top: "fc6"
  param {
    lr_mult: 1
  }
  param {
    lr_mult: 2
  }
  inner_product_param {
    num_output: 4096
    weight_filler {
      type: "gaussian"
      std: 0.001
    }
    bias_filler {
      type: "constant"
      value: 0
    }
  }
}
layer {
  name: "relu6"
  type: "ReLU"
  bottom: "fc6"
  top: "fc6"
}
layer {
  name: "drop6"
  type: "Dropout"
  bottom: "fc6"
  top: "fc6"
  dropout_param {
    dropout_ratio: 0.5
  }
}
layer {
  name: "cls_pred"
  type: "InnerProduct"
  bottom: "fc6"
  top: "cls_pred"
  param {
    lr_mult: 1
  }
  param {
    lr_mult: 2
  }
  inner_product_param {
    num_output: 5
    weight_filler {
      type: "gaussian"
      std: 0.01
    }
    bias_filler {
      type: "constant"
      value: 0
    }
  }
}
layer {
  name: "bbox_pred"
  type: "InnerProduct"
  bottom: "fc6"
  top: "bbox_pred"
  param {
    lr_mult: 1
  }
  param {
    lr_mult: 2
  }
  inner_product_param {
    num_output: 20
    weight_filler {
      type: "gaussian"
      std: 0.001
    }
    bias_filler {
      type: "constant"
      value: 0
    }
  }
}
layer {
  name: "loss_cls"
  type: "SoftmaxWithLoss"
  bottom: "cls_pred"
  bottom: "proposal_labels"
  top: "loss_cls"
  loss_weight: 1
  propagate_down: true
  propagate_down: false
}
layer {
  name: "cls_accuracy"
  type: "Accuracy"
  bottom: "cls_pred"
  bottom: "proposal_labels"
  top: "cls_accuracy"
}
layer {
  name: "loss_bbox"
  type: "SmoothL1Loss"
  bottom: "bbox_pred"
  bottom: "proposal_targets"
  bottom: "box_inside_weights"
  bottom: "box_outside_weights"
  top: "loss_bbox"
  loss_weight: 1
}
layer {
  name: "bbox_iou"
  type: "BboxAccuracy"
  bottom: "bbox_pred"
  bottom: "rois"
  bottom: "match_gt_boxes"
  top: "bbox_iou"
  top: "bbox_iou_pre"
  bbox_reg_param {
    bbox_mean: 0
    bbox_mean: 0
    bbox_mean: 0
    bbox_mean: 0
    bbox_std: 0.1
    bbox_std: 0.1
    bbox_std: 0.2
    bbox_std: 0.2
  }
}
I0324 00:39:32.932900 25048 layer_factory.hpp:77] Creating layer data
I0324 00:39:32.932935 25048 net.cpp:100] Creating Layer data
I0324 00:39:32.932942 25048 net.cpp:408] data -> data
…
I0324 00:39:32.955796 25048 image_gt_data_layer.cpp:235] output label size 2 : 3,6,48,48
I0324 00:39:32.955832 25048 image_gt_data_layer.cpp:235] output label size 3 : 3,6,48,48
I0324 00:39:32.955874 25048 image_gt_data_layer.cpp:235] output label size 4 : 3,6,24,24
I0324 00:39:32.955914 25048 image_gt_data_layer.cpp:235] output label size 5 : 3,6,24,24
I0324 00:39:32.955952 25048 image_gt_data_layer.cpp:235] output label size 6 : 3,6,12,12
I0324 00:39:32.955989 25048 image_gt_data_layer.cpp:250] output gt boxes size: 1,7,1,1
I0324 00:39:33.004930 25048 net.cpp:150] Setting up data
I0324 00:39:33.004984 25048 net.cpp:157] Top shape: 3 4 768 768 (7077888)
I0324 00:39:33.004997 25048 net.cpp:157] Top shape: 3 6 96 96 (165888)
I0324 00:39:33.005007 25048 net.cpp:157] Top shape: 3 6 96 96 (165888)
I0324 00:39:33.005015 25048 net.cpp:157] Top shape: 3 6 48 48 (41472)
I0324 00:39:33.005024 25048 net.cpp:157] Top shape: 3 6 48 48 (41472)
I0324 00:39:33.005033 25048 net.cpp:157] Top shape: 3 6 24 24 (10368)
I0324 00:39:33.005040 25048 net.cpp:157] Top shape: 3 6 24 24 (10368)
I0324 00:39:33.005048 25048 net.cpp:157] Top shape: 3 6 12 12 (2592)
I0324 00:39:33.005059 25048 net.cpp:157] Top shape: 1 7 1 1 (7)
I0324 00:39:33.005065 25048 net.cpp:165] Memory required for data: 30063772
I0324 00:39:33.005079 25048 layer_factory.hpp:77] Creating layer label_1_5x5_data_1_split
I0324 00:39:33.005105 25048 net.cpp:100] Creating Layer label_1_5x5_data_1_split
I0324 00:39:33.005115 25048 net.cpp:434] label_1_5x5_data_1_split <- label_1_5x5
I0324 00:39:33.005134 25048 net.cpp:408] label_1_5x5_data_1_split -> label_1_5x5_data_1_split_0
I0324 00:39:33.005149 25048 net.cpp:408] label_1_5x5_data_1_split -> label_1_5x5_data_1_split_1
I0324 00:39:33.005229 25048 net.cpp:150] Setting up label_1_5x5_data_1_split
I0324 00:39:33.005242 25048 net.cpp:157] Top shape: 3 6 96 96 (165888)
I0324 00:39:33.005251 25048 net.cpp:157] Top shape: 3 6 96 96 (165888)
I0324 00:39:33.005257 25048 net.cpp:165] Memory required for data: 31390876
I0324 00:39:33.005264 25048 layer_factory.hpp:77] Creating layer label_1_7x7_data_2_split
I0324 00:39:33.005275 25048 net.cpp:100] Creating Layer label_1_7x7_data_2_split
I0324 00:39:33.005301 25048 net.cpp:434] label_1_7x7_data_2_split <- label_1_7x7
I0324 00:39:33.005311 25048 net.cpp:408] label_1_7x7_data_2_split -> label_1_7x7_data_2_split_0
I0324 00:39:33.005321 25048 net.cpp:408] label_1_7x7_data_2_split -> label_1_7x7_data_2_split_1
I0324 00:39:33.005374 25048 net.cpp:150] Setting up label_1_7x7_data_2_split
I0324 00:39:33.005386 25048 net.cpp:157] Top shape: 3 6 96 96 (165888)
I0324 00:39:33.005395 25048 net.cpp:157] Top shape: 3 6 96 96 (165888)
I0324 00:39:33.005401 25048 net.cpp:165] Memory required for data: 32717980
I0324 00:39:33.005408 25048 layer_factory.hpp:77] Creating layer label_2_5x5_data_3_split
I0324 00:39:33.005415 25048 net.cpp:100] Creating Layer label_2_5x5_data_3_split
I0324 00:39:33.005422 25048 net.cpp:434] label_2_5x5_data_3_split <- label_2_5x5
I0324 00:39:33.005434 25048 net.cpp:408] label_2_5x5_data_3_split -> label_2_5x5_data_3_split_0
I0324 00:39:33.005445 25048 net.cpp:408] label_2_5x5_data_3_split -> label_2_5x5_data_3_split_1
I0324 00:39:33.005496 25048 net.cpp:150] Setting up label_2_5x5_data_3_split
I0324 00:39:33.005508 25048 net.cpp:157] Top shape: 3 6 48 48 (41472)
I0324 00:39:33.005517 25048 net.cpp:157] Top shape: 3 6 48 48 (41472)
I0324 00:39:33.005523 25048 net.cpp:165] Memory required for data: 33049756
I0324 00:39:33.005529 25048 layer_factory.hpp:77] Creating layer label_2_7x7_data_4_split
I0324 00:39:33.005542 25048 net.cpp:100] Creating Layer label_2_7x7_data_4_split
I0324 00:39:33.005549 25048 net.cpp:434] label_2_7x7_data_4_split <- label_2_7x7
I0324 00:39:33.005561 25048 net.cpp:408] label_2_7x7_data_4_split -> label_2_7x7_data_4_split_0
I0324 00:39:33.005573 25048 net.cpp:408] label_2_7x7_data_4_split -> label_2_7x7_data_4_split_1
I0324 00:39:33.005628 25048 net.cpp:150] Setting up label_2_7x7_data_4_split
I0324 00:39:33.005642 25048 net.cpp:157] Top shape: 3 6 48 48 (41472)
I0324 00:39:33.005653 25048 net.cpp:157] Top shape: 3 6 48 48 (41472)
I0324 00:39:33.005661 25048 net.cpp:165] Memory required for data: 33381532
I0324 00:39:33.005666 25048 layer_factory.hpp:77] Creating layer label_3_5x5_data_5_split
I0324 00:39:33.005674 25048 net.cpp:100] Creating Layer label_3_5x5_data_5_split
I0324 00:39:33.005682 25048 net.cpp:434] label_3_5x5_data_5_split <- label_3_5x5
I0324 00:39:33.005692 25048 net.cpp:408] label_3_5x5_data_5_split -> label_3_5x5_data_5_split_0
I0324 00:39:33.005703 25048 net.cpp:408] label_3_5x5_data_5_split -> label_3_5x5_data_5_split_1
I0324 00:39:33.005761 25048 net.cpp:150] Setting up label_3_5x5_data_5_split
I0324 00:39:33.005774 25048 net.cpp:157] Top shape: 3 6 24 24 (10368)
I0324 00:39:33.005782 25048 net.cpp:157] Top shape: 3 6 24 24 (10368)
I0324 00:39:33.005789 25048 net.cpp:165] Memory required for data: 33464476
I0324 00:39:33.005796 25048 layer_factory.hpp:77] Creating layer label_3_7x7_data_6_split
I0324 00:39:33.005805 25048 net.cpp:100] Creating Layer label_3_7x7_data_6_split
I0324 00:39:33.005811 25048 net.cpp:434] label_3_7x7_data_6_split <- label_3_7x7
I0324 00:39:33.005822 25048 net.cpp:408] label_3_7x7_data_6_split -> label_3_7x7_data_6_split_0
I0324 00:39:33.005834 25048 net.cpp:408] label_3_7x7_data_6_split -> label_3_7x7_data_6_split_1
I0324 00:39:33.005887 25048 net.cpp:150] Setting up label_3_7x7_data_6_split
I0324 00:39:33.005898 25048 net.cpp:157] Top shape: 3 6 24 24 (10368)
I0324 00:39:33.005908 25048 net.cpp:157] Top shape: 3 6 24 24 (10368)
I0324 00:39:33.005913 25048 net.cpp:165] Memory required for data: 33547420
I0324 00:39:33.005919 25048 layer_factory.hpp:77] Creating layer label_4_5x5_data_7_split
I0324 00:39:33.005928 25048 net.cpp:100] Creating Layer label_4_5x5_data_7_split
I0324 00:39:33.005934 25048 net.cpp:434] label_4_5x5_data_7_split <- label_4_5x5
I0324 00:39:33.005944 25048 net.cpp:408] label_4_5x5_data_7_split -> label_4_5x5_data_7_split_0
I0324 00:39:33.005991 25048 net.cpp:408] label_4_5x5_data_7_split -> label_4_5x5_data_7_split_1
I0324 00:39:33.006047 25048 net.cpp:150] Setting up label_4_5x5_data_7_split
I0324 00:39:33.006059 25048 net.cpp:157] Top shape: 3 6 12 12 (2592)
I0324 00:39:33.006067 25048 net.cpp:157] Top shape: 3 6 12 12 (2592)
I0324 00:39:33.006075 25048 net.cpp:165] Memory required for data: 33568156
I0324 00:39:33.006081 25048 layer_factory.hpp:77] Creating layer slice
I0324 00:39:33.006101 25048 net.cpp:100] Creating Layer slice
I0324 00:39:33.006109 25048 net.cpp:434] slice <- data
I0324 00:39:33.006121 25048 net.cpp:408] slice -> data123
I0324 00:39:33.006137 25048 net.cpp:408] slice -> ch4
I0324 00:39:33.006196 25048 net.cpp:150] Setting up slice
I0324 00:39:33.006207 25048 net.cpp:157] Top shape: 3 3 768 768 (5308416)
I0324 00:39:33.006216 25048 net.cpp:157] Top shape: 3 1 768 768 (1769472)
I0324 00:39:33.006223 25048 net.cpp:165] Memory required for data: 61879708
I0324 00:39:33.006230 25048 layer_factory.hpp:77] Creating layer conv1_1
I0324 00:39:33.006253 25048 net.cpp:100] Creating Layer conv1_1
I0324 00:39:33.006260 25048 net.cpp:434] conv1_1 <- data123
I0324 00:39:33.006270 25048 net.cpp:408] conv1_1 -> conv1_1
I0324 00:39:33.273914 25048 net.cpp:150] Setting up conv1_1
I0324 00:39:33.273946 25048 net.cpp:157] Top shape: 3 64 768 768 (113246208)
I0324 00:39:33.273960 25048 net.cpp:165] Memory required for data: 514864540
I0324 00:39:33.273977 25048 layer_factory.hpp:77] Creating layer relu1_1
I0324 00:39:33.273988 25048 net.cpp:100] Creating Layer relu1_1
I0324 00:39:33.273993 25048 net.cpp:434] relu1_1 <- conv1_1
I0324 00:39:33.273998 25048 net.cpp:395] relu1_1 -> conv1_1 (in-place)
I0324 00:39:33.274163 25048 net.cpp:150] Setting up relu1_1
I0324 00:39:33.274171 25048 net.cpp:157] Top shape: 3 64 768 768 (113246208)
I0324 00:39:33.274175 25048 net.cpp:165] Memory required for data: 967849372
I0324 00:39:33.274179 25048 layer_factory.hpp:77] Creating layer conv1_2
I0324 00:39:33.274188 25048 net.cpp:100] Creating Layer conv1_2
I0324 00:39:33.274191 25048 net.cpp:434] conv1_2 <- conv1_1
I0324 00:39:33.274197 25048 net.cpp:408] conv1_2 -> conv1_2
I0324 00:39:33.276204 25048 net.cpp:150] Setting up conv1_2
I0324 00:39:33.276221 25048 net.cpp:157] Top shape: 3 64 768 768 (113246208)
I0324 00:39:33.276224 25048 net.cpp:165] Memory required for data: 1420834204
I0324 00:39:33.276234 25048 layer_factory.hpp:77] Creating layer relu1_2
I0324 00:39:33.276242 25048 net.cpp:100] Creating Layer relu1_2
I0324 00:39:33.276245 25048 net.cpp:434] relu1_2 <- conv1_2
I0324 00:39:33.276250 25048 net.cpp:395] relu1_2 -> conv1_2 (in-place)
I0324 00:39:33.276406 25048 net.cpp:150] Setting up relu1_2
I0324 00:39:33.276414 25048 net.cpp:157] Top shape: 3 64 768 768 (113246208)
I0324 00:39:33.276418 25048 net.cpp:165] Memory required for data: 1873819036
I0324 00:39:33.276422 25048 layer_factory.hpp:77] Creating layer pool1
I0324 00:39:33.276428 25048 net.cpp:100] Creating Layer pool1
I0324 00:39:33.276432 25048 net.cpp:434] pool1 <- conv1_2
I0324 00:39:33.276437 25048 net.cpp:408] pool1 -> pool1
I0324 00:39:33.276484 25048 net.cpp:150] Setting up pool1
I0324 00:39:33.276491 25048 net.cpp:157] Top shape: 3 64 384 384 (28311552)
I0324 00:39:33.276494 25048 net.cpp:165] Memory required for data: 1987065244
I0324 00:39:33.276499 25048 layer_factory.hpp:77] Creating layer conv2_1
I0324 00:39:33.276505 25048 net.cpp:100] Creating Layer conv2_1
I0324 00:39:33.276510 25048 net.cpp:434] conv2_1 <- pool1
I0324 00:39:33.276515 25048 net.cpp:408] conv2_1 -> conv2_1
I0324 00:39:33.278565 25048 net.cpp:150] Setting up conv2_1
I0324 00:39:33.278579 25048 net.cpp:157] Top shape: 3 128 384 384 (56623104)
I0324 00:39:33.278583 25048 net.cpp:165] Memory required for data: 2213557660
I0324 00:39:33.278590 25048 layer_factory.hpp:77] Creating layer relu2_1
I0324 00:39:33.278595 25048 net.cpp:100] Creating Layer relu2_1
I0324 00:39:33.278599 25048 net.cpp:434] relu2_1 <- conv2_1
I0324 00:39:33.278604 25048 net.cpp:395] relu2_1 -> conv2_1 (in-place)
I0324 00:39:33.278741 25048 net.cpp:150] Setting up relu2_1
I0324 00:39:33.278748 25048 net.cpp:157] Top shape: 3 128 384 384 (56623104)
I0324 00:39:33.278751 25048 net.cpp:165] Memory required for data: 2440050076
I0324 00:39:33.278755 25048 layer_factory.hpp:77] Creating layer conv2_2
I0324 00:39:33.278764 25048 net.cpp:100] Creating Layer conv2_2
I0324 00:39:33.278767 25048 net.cpp:434] conv2_2 <- conv2_1
I0324 00:39:33.278772 25048 net.cpp:408] conv2_2 -> conv2_2
I0324 00:39:33.280047 25048 net.cpp:150] Setting up conv2_2
I0324 00:39:33.280061 25048 net.cpp:157] Top shape: 3 128 384 384 (56623104)
I0324 00:39:33.280063 25048 net.cpp:165] Memory required for data: 2666542492
I0324 00:39:33.280071 25048 layer_factory.hpp:77] Creating layer relu2_2
I0324 00:39:33.280076 25048 net.cpp:100] Creating Layer relu2_2
I0324 00:39:33.280081 25048 net.cpp:434] relu2_2 <- conv2_2
I0324 00:39:33.280086 25048 net.cpp:395] relu2_2 -> conv2_2 (in-place)
I0324 00:39:33.280232 25048 net.cpp:150] Setting up relu2_2
I0324 00:39:33.280241 25048 net.cpp:157] Top shape: 3 128 384 384 (56623104)
I0324 00:39:33.280244 25048 net.cpp:165] Memory required for data: 2893034908
I0324 00:39:33.280248 25048 layer_factory.hpp:77] Creating layer pool2
I0324 00:39:33.280254 25048 net.cpp:100] Creating Layer pool2
I0324 00:39:33.280257 25048 net.cpp:434] pool2 <- conv2_2
I0324 00:39:33.280262 25048 net.cpp:408] pool2 -> pool2
I0324 00:39:33.280294 25048 net.cpp:150] Setting up pool2
I0324 00:39:33.280302 25048 net.cpp:157] Top shape: 3 128 192 192 (14155776)
I0324 00:39:33.280304 25048 net.cpp:165] Memory required for data: 2949658012
I0324 00:39:33.280308 25048 layer_factory.hpp:77] Creating layer conv3_1
I0324 00:39:33.280314 25048 net.cpp:100] Creating Layer conv3_1
I0324 00:39:33.280318 25048 net.cpp:434] conv3_1 <- pool2
I0324 00:39:33.280323 25048 net.cpp:408] conv3_1 -> conv3_1
I0324 00:39:33.282470 25048 net.cpp:150] Setting up conv3_1
I0324 00:39:33.282486 25048 net.cpp:157] Top shape: 3 256 192 192 (28311552)
I0324 00:39:33.282490 25048 net.cpp:165] Memory required for data: 3062904220
I0324 00:39:33.282500 25048 layer_factory.hpp:77] Creating layer relu3_1
I0324 00:39:33.282506 25048 net.cpp:100] Creating Layer relu3_1
I0324 00:39:33.282510 25048 net.cpp:434] relu3_1 <- conv3_1
I0324 00:39:33.282516 25048 net.cpp:395] relu3_1 -> conv3_1 (in-place)
I0324 00:39:33.282933 25048 net.cpp:150] Setting up relu3_1
I0324 00:39:33.282945 25048 net.cpp:157] Top shape: 3 256 192 192 (28311552)
I0324 00:39:33.282949 25048 net.cpp:165] Memory required for data: 3176150428
I0324 00:39:33.282953 25048 layer_factory.hpp:77] Creating layer conv3_2
I0324 00:39:33.282960 25048 net.cpp:100] Creating Layer conv3_2
I0324 00:39:33.282963 25048 net.cpp:434] conv3_2 <- conv3_1
I0324 00:39:33.282968 25048 net.cpp:408] conv3_2 -> conv3_2
I0324 00:39:33.285001 25048 net.cpp:150] Setting up conv3_2
I0324 00:39:33.285015 25048 net.cpp:157] Top shape: 3 256 192 192 (28311552)
I0324 00:39:33.285019 25048 net.cpp:165] Memory required for data: 3289396636
I0324 00:39:33.285025 25048 layer_factory.hpp:77] Creating layer relu3_2
I0324 00:39:33.285032 25048 net.cpp:100] Creating Layer relu3_2
I0324 00:39:33.285037 25048 net.cpp:434] relu3_2 <- conv3_2
I0324 00:39:33.285042 25048 net.cpp:395] relu3_2 -> conv3_2 (in-place)
I0324 00:39:33.285449 25048 net.cpp:150] Setting up relu3_2
I0324 00:39:33.285462 25048 net.cpp:157] Top shape: 3 256 192 192 (28311552)
I0324 00:39:33.285465 25048 net.cpp:165] Memory required for data: 3402642844
I0324 00:39:33.285470 25048 layer_factory.hpp:77] Creating layer conv3_3
I0324 00:39:33.285476 25048 net.cpp:100] Creating Layer conv3_3
I0324 00:39:33.285480 25048 net.cpp:434] conv3_3 <- conv3_2
I0324 00:39:33.285486 25048 net.cpp:408] conv3_3 -> conv3_3
I0324 00:39:33.287842 25048 net.cpp:150] Setting up conv3_3
I0324 00:39:33.287859 25048 net.cpp:157] Top shape: 3 256 192 192 (28311552)
I0324 00:39:33.287863 25048 net.cpp:165] Memory required for data: 3515889052
I0324 00:39:33.287871 25048 layer_factory.hpp:77] Creating layer relu3_3
I0324 00:39:33.287879 25048 net.cpp:100] Creating Layer relu3_3
I0324 00:39:33.287884 25048 net.cpp:434] relu3_3 <- conv3_3
I0324 00:39:33.287889 25048 net.cpp:395] relu3_3 -> conv3_3 (in-place)
I0324 00:39:33.288038 25048 net.cpp:150] Setting up relu3_3
I0324 00:39:33.288048 25048 net.cpp:157] Top shape: 3 256 192 192 (28311552)
I0324 00:39:33.288051 25048 net.cpp:165] Memory required for data: 3629135260
I0324 00:39:33.288054 25048 layer_factory.hpp:77] Creating layer pool3
I0324 00:39:33.288061 25048 net.cpp:100] Creating Layer pool3
I0324 00:39:33.288065 25048 net.cpp:434] pool3 <- conv3_3
I0324 00:39:33.288070 25048 net.cpp:408] pool3 -> pool3
I0324 00:39:33.288105 25048 net.cpp:150] Setting up pool3
I0324 00:39:33.288111 25048 net.cpp:157] Top shape: 3 256 96 96 (7077888)
I0324 00:39:33.288115 25048 net.cpp:165] Memory required for data: 3657446812
I0324 00:39:33.288118 25048 layer_factory.hpp:77] Creating layer conv4_1
I0324 00:39:33.288125 25048 net.cpp:100] Creating Layer conv4_1
I0324 00:39:33.288128 25048 net.cpp:434] conv4_1 <- pool3
I0324 00:39:33.288133 25048 net.cpp:408] conv4_1 -> conv4_1
I0324 00:39:33.292397 25048 net.cpp:150] Setting up conv4_1
I0324 00:39:33.292423 25048 net.cpp:157] Top shape: 3 512 96 96 (14155776)
I0324 00:39:33.292428 25048 net.cpp:165] Memory required for data: 3714069916
I0324 00:39:33.292438 25048 layer_factory.hpp:77] Creating layer relu4_1
I0324 00:39:33.292448 25048 net.cpp:100] Creating Layer relu4_1
I0324 00:39:33.292454 25048 net.cpp:434] relu4_1 <- conv4_1
I0324 00:39:33.292459 25048 net.cpp:395] relu4_1 -> conv4_1 (in-place)
I0324 00:39:33.292625 25048 net.cpp:150] Setting up relu4_1
I0324 00:39:33.292635 25048 net.cpp:157] Top shape: 3 512 96 96 (14155776)
I0324 00:39:33.292639 25048 net.cpp:165] Memory required for data: 3770693020
I0324 00:39:33.292642 25048 layer_factory.hpp:77] Creating layer conv4_2
I0324 00:39:33.292651 25048 net.cpp:100] Creating Layer conv4_2
I0324 00:39:33.292655 25048 net.cpp:434] conv4_2 <- conv4_1
I0324 00:39:33.292661 25048 net.cpp:408] conv4_2 -> conv4_2
I0324 00:39:33.298334 25048 net.cpp:150] Setting up conv4_2
I0324 00:39:33.298363 25048 net.cpp:157] Top shape: 3 512 96 96 (14155776)
I0324 00:39:33.298368 25048 net.cpp:165] Memory required for data: 3827316124
I0324 00:39:33.298383 25048 layer_factory.hpp:77] Creating layer relu4_2
I0324 00:39:33.298394 25048 net.cpp:100] Creating Layer relu4_2
I0324 00:39:33.298400 25048 net.cpp:434] relu4_2 <- conv4_2
I0324 00:39:33.298406 25048 net.cpp:395] relu4_2 -> conv4_2 (in-place)
I0324 00:39:33.298559 25048 net.cpp:150] Setting up relu4_2
I0324 00:39:33.298568 25048 net.cpp:157] Top shape: 3 512 96 96 (14155776)
I0324 00:39:33.298573 25048 net.cpp:165] Memory required for data: 3883939228
I0324 00:39:33.298576 25048 layer_factory.hpp:77] Creating layer conv4_3
I0324 00:39:33.298586 25048 net.cpp:100] Creating Layer conv4_3
I0324 00:39:33.298589 25048 net.cpp:434] conv4_3 <- conv4_2
I0324 00:39:33.298595 25048 net.cpp:408] conv4_3 -> conv4_3
I0324 00:39:33.304422 25048 net.cpp:150] Setting up conv4_3
I0324 00:39:33.304452 25048 net.cpp:157] Top shape: 3 512 96 96 (14155776)
I0324 00:39:33.304456 25048 net.cpp:165] Memory required for data: 3940562332
I0324 00:39:33.304464 25048 layer_factory.hpp:77] Creating layer relu4_3
I0324 00:39:33.304476 25048 net.cpp:100] Creating Layer relu4_3
I0324 00:39:33.304481 25048 net.cpp:434] relu4_3 <- conv4_3
I0324 00:39:33.304486 25048 net.cpp:395] relu4_3 -> conv4_3 (in-place)
I0324 00:39:33.304630 25048 net.cpp:150] Setting up relu4_3
I0324 00:39:33.304637 25048 net.cpp:157] Top shape: 3 512 96 96 (14155776)
I0324 00:39:33.304641 25048 net.cpp:165] Memory required for data: 3997185436
I0324 00:39:33.304644 25048 layer_factory.hpp:77] Creating layer conv4_3_relu4_3_0_split
I0324 00:39:33.304654 25048 net.cpp:100] Creating Layer conv4_3_relu4_3_0_split
I0324 00:39:33.304657 25048 net.cpp:434] conv4_3_relu4_3_0_split <- conv4_3
I0324 00:39:33.304662 25048 net.cpp:408] conv4_3_relu4_3_0_split -> conv4_3_relu4_3_0_split_0
I0324 00:39:33.304669 25048 net.cpp:408] conv4_3_relu4_3_0_split -> conv4_3_relu4_3_0_split_1
I0324 00:39:33.304675 25048 net.cpp:408] conv4_3_relu4_3_0_split -> conv4_3_relu4_3_0_split_2
I0324 00:39:33.304720 25048 net.cpp:150] Setting up conv4_3_relu4_3_0_split
I0324 00:39:33.304728 25048 net.cpp:157] Top shape: 3 512 96 96 (14155776)
I0324 00:39:33.304731 25048 net.cpp:157] Top shape: 3 512 96 96 (14155776)
I0324 00:39:33.304735 25048 net.cpp:157] Top shape: 3 512 96 96 (14155776)
I0324 00:39:33.304738 25048 net.cpp:165] Memory required for data: 4167054748
I0324 00:39:33.304742 25048 layer_factory.hpp:77] Creating layer loss1_conv1
I0324 00:39:33.304752 25048 net.cpp:100] Creating Layer loss1_conv1
I0324 00:39:33.304756 25048 net.cpp:434] loss1_conv1 <- conv4_3_relu4_3_0_split_0
I0324 00:39:33.304764 25048 net.cpp:408] loss1_conv1 -> loss1_conv1
I0324 00:39:33.365242 25048 net.cpp:150] Setting up loss1_conv1
I0324 00:39:33.365269 25048 net.cpp:157] Top shape: 3 512 96 96 (14155776)
I0324 00:39:33.365272 25048 net.cpp:165] Memory required for data: 4223677852
I0324 00:39:33.365280 25048 layer_factory.hpp:77] Creating layer loss_relu1
I0324 00:39:33.365291 25048 net.cpp:100] Creating Layer loss_relu1
I0324 00:39:33.365295 25048 net.cpp:434] loss_relu1 <- loss1_conv1
I0324 00:39:33.365300 25048 net.cpp:395] loss_relu1 -> loss1_conv1 (in-place)
I0324 00:39:33.365705 25048 net.cpp:150] Setting up loss_relu1
I0324 00:39:33.365717 25048 net.cpp:157] Top shape: 3 512 96 96 (14155776)
I0324 00:39:33.365721 25048 net.cpp:165] Memory required for data: 4280300956
I0324 00:39:33.365725 25048 layer_factory.hpp:77] Creating layer loss1_conv1_loss_relu1_0_split
I0324 00:39:33.365731 25048 net.cpp:100] Creating Layer loss1_conv1_loss_relu1_0_split
I0324 00:39:33.365734 25048 net.cpp:434] loss1_conv1_loss_relu1_0_split <- loss1_conv1
I0324 00:39:33.365739 25048 net.cpp:408] loss1_conv1_loss_relu1_0_split -> loss1_conv1_loss_relu1_0_split_0
I0324 00:39:33.365747 25048 net.cpp:408] loss1_conv1_loss_relu1_0_split -> loss1_conv1_loss_relu1_0_split_1
I0324 00:39:33.365782 25048 net.cpp:150] Setting up loss1_conv1_loss_relu1_0_split
I0324 00:39:33.365789 25048 net.cpp:157] Top shape: 3 512 96 96 (14155776)
I0324 00:39:33.365793 25048 net.cpp:157] Top shape: 3 512 96 96 (14155776)
I0324 00:39:33.365797 25048 net.cpp:165] Memory required for data: 4393547164
I0324 00:39:33.365799 25048 layer_factory.hpp:77] Creating layer LFCN_1_5x5
I0324 00:39:33.365809 25048 net.cpp:100] Creating Layer LFCN_1_5x5
I0324 00:39:33.365813 25048 net.cpp:434] LFCN_1_5x5 <- loss1_conv1_loss_relu1_0_split_0
I0324 00:39:33.365819 25048 net.cpp:408] LFCN_1_5x5 -> LFCN_1_5x5
I0324 00:39:33.369323 25048 net.cpp:150] Setting up LFCN_1_5x5
I0324 00:39:33.369333 25048 net.cpp:157] Top shape: 3 9 96 96 (248832)
I0324 00:39:33.369335 25048 net.cpp:165] Memory required for data: 4394542492
I0324 00:39:33.369340 25048 layer_factory.hpp:77] Creating layer LFCN_1_5x5_LFCN_1_5x5_0_split
I0324 00:39:33.369344 25048 net.cpp:100] Creating Layer LFCN_1_5x5_LFCN_1_5x5_0_split
I0324 00:39:33.369348 25048 net.cpp:434] LFCN_1_5x5_LFCN_1_5x5_0_split <- LFCN_1_5x5
I0324 00:39:33.369351 25048 net.cpp:408] LFCN_1_5x5_LFCN_1_5x5_0_split -> LFCN_1_5x5_LFCN_1_5x5_0_split_0
I0324 00:39:33.369356 25048 net.cpp:408] LFCN_1_5x5_LFCN_1_5x5_0_split -> LFCN_1_5x5_LFCN_1_5x5_0_split_1
I0324 00:39:33.369362 25048 net.cpp:408] LFCN_1_5x5_LFCN_1_5x5_0_split -> LFCN_1_5x5_LFCN_1_5x5_0_split_2
I0324 00:39:33.369400 25048 net.cpp:150] Setting up LFCN_1_5x5_LFCN_1_5x5_0_split
I0324 00:39:33.369405 25048 net.cpp:157] Top shape: 3 9 96 96 (248832)
I0324 00:39:33.369407 25048 net.cpp:157] Top shape: 3 9 96 96 (248832)
I0324 00:39:33.369411 25048 net.cpp:157] Top shape: 3 9 96 96 (248832)
I0324 00:39:33.369413 25048 net.cpp:165] Memory required for data: 4397528476
I0324 00:39:33.369416 25048 layer_factory.hpp:77] Creating layer detection_loss_1_5x5
I0324 00:39:33.369423 25048 net.cpp:100] Creating Layer detection_loss_1_5x5
I0324 00:39:33.369426 25048 net.cpp:434] detection_loss_1_5x5 <- LFCN_1_5x5_LFCN_1_5x5_0_split_0
I0324 00:39:33.369431 25048 net.cpp:434] detection_loss_1_5x5 <- label_1_5x5_data_1_split_0
I0324 00:39:33.369434 25048 net.cpp:408] detection_loss_1_5x5 -> loss_1_5x5
I0324 00:39:33.369446 25048 layer_factory.hpp:77] Creating layer detection_loss_1_5x5
I0324 00:39:33.370882 25048 net.cpp:150] Setting up detection_loss_1_5x5
I0324 00:39:33.370896 25048 net.cpp:157] Top shape: 1 1 1 2 (2)
I0324 00:39:33.370899 25048 net.cpp:160]     with loss weight 0.9
I0324 00:39:33.370918 25048 net.cpp:165] Memory required for data: 4397528484
I0324 00:39:33.370923 25048 layer_factory.hpp:77] Creating layer detection_accuracy_1_5x5
I0324 00:39:33.370929 25048 net.cpp:100] Creating Layer detection_accuracy_1_5x5
I0324 00:39:33.370934 25048 net.cpp:434] detection_accuracy_1_5x5 <- LFCN_1_5x5_LFCN_1_5x5_0_split_1
I0324 00:39:33.370939 25048 net.cpp:434] detection_accuracy_1_5x5 <- label_1_5x5_data_1_split_1
I0324 00:39:33.370944 25048 net.cpp:408] detection_accuracy_1_5x5 -> accuracy_1_5x5
I0324 00:39:33.370954 25048 net.cpp:408] detection_accuracy_1_5x5 -> boxiou_1_5x5
I0324 00:39:33.370990 25048 net.cpp:150] Setting up detection_accuracy_1_5x5
I0324 00:39:33.370998 25048 net.cpp:157] Top shape: 1 1 1 2 (2)
I0324 00:39:33.371002 25048 net.cpp:157] Top shape: 1 1 1 1 (1)
I0324 00:39:33.371006 25048 net.cpp:165] Memory required for data: 4397528496
I0324 00:39:33.371009 25048 layer_factory.hpp:77] Creating layer LFCN_1_7x7
I0324 00:39:33.371018 25048 net.cpp:100] Creating Layer LFCN_1_7x7
I0324 00:39:33.371022 25048 net.cpp:434] LFCN_1_7x7 <- loss1_conv1_loss_relu1_0_split_1
I0324 00:39:33.371029 25048 net.cpp:408] LFCN_1_7x7 -> LFCN_1_7x7
I0324 00:39:33.377123 25048 net.cpp:150] Setting up LFCN_1_7x7
I0324 00:39:33.377135 25048 net.cpp:157] Top shape: 3 9 96 96 (248832)
I0324 00:39:33.377138 25048 net.cpp:165] Memory required for data: 4398523824
I0324 00:39:33.377144 25048 layer_factory.hpp:77] Creating layer LFCN_1_7x7_LFCN_1_7x7_0_split
I0324 00:39:33.377148 25048 net.cpp:100] Creating Layer LFCN_1_7x7_LFCN_1_7x7_0_split
I0324 00:39:33.377152 25048 net.cpp:434] LFCN_1_7x7_LFCN_1_7x7_0_split <- LFCN_1_7x7
I0324 00:39:33.377156 25048 net.cpp:408] LFCN_1_7x7_LFCN_1_7x7_0_split -> LFCN_1_7x7_LFCN_1_7x7_0_split_0
I0324 00:39:33.377164 25048 net.cpp:408] LFCN_1_7x7_LFCN_1_7x7_0_split -> LFCN_1_7x7_LFCN_1_7x7_0_split_1
I0324 00:39:33.377169 25048 net.cpp:408] LFCN_1_7x7_LFCN_1_7x7_0_split -> LFCN_1_7x7_LFCN_1_7x7_0_split_2
I0324 00:39:33.377213 25048 net.cpp:150] Setting up LFCN_1_7x7_LFCN_1_7x7_0_split
I0324 00:39:33.377219 25048 net.cpp:157] Top shape: 3 9 96 96 (248832)
I0324 00:39:33.377223 25048 net.cpp:157] Top shape: 3 9 96 96 (248832)
I0324 00:39:33.377228 25048 net.cpp:157] Top shape: 3 9 96 96 (248832)
I0324 00:39:33.377231 25048 net.cpp:165] Memory required for data: 4401509808
I0324 00:39:33.377235 25048 layer_factory.hpp:77] Creating layer detection_loss_1_7x7
I0324 00:39:33.377240 25048 net.cpp:100] Creating Layer detection_loss_1_7x7
I0324 00:39:33.377243 25048 net.cpp:434] detection_loss_1_7x7 <- LFCN_1_7x7_LFCN_1_7x7_0_split_0
I0324 00:39:33.377249 25048 net.cpp:434] detection_loss_1_7x7 <- label_1_7x7_data_2_split_0
I0324 00:39:33.377254 25048 net.cpp:408] detection_loss_1_7x7 -> loss_1_7x7
I0324 00:39:33.377261 25048 layer_factory.hpp:77] Creating layer detection_loss_1_7x7
I0324 00:39:33.377622 25048 net.cpp:150] Setting up detection_loss_1_7x7
I0324 00:39:33.377632 25048 net.cpp:157] Top shape: 1 1 1 2 (2)
I0324 00:39:33.377635 25048 net.cpp:160]     with loss weight 0.9
I0324 00:39:33.377643 25048 net.cpp:165] Memory required for data: 4401509816
I0324 00:39:33.377646 25048 layer_factory.hpp:77] Creating layer detection_accuracy_1_7x7
I0324 00:39:33.377652 25048 net.cpp:100] Creating Layer detection_accuracy_1_7x7
I0324 00:39:33.377656 25048 net.cpp:434] detection_accuracy_1_7x7 <- LFCN_1_7x7_LFCN_1_7x7_0_split_1
I0324 00:39:33.377661 25048 net.cpp:434] detection_accuracy_1_7x7 <- label_1_7x7_data_2_split_1
I0324 00:39:33.377667 25048 net.cpp:408] detection_accuracy_1_7x7 -> accuracy_1_7x7
I0324 00:39:33.377674 25048 net.cpp:408] detection_accuracy_1_7x7 -> boxiou_1_7x7
I0324 00:39:33.377707 25048 net.cpp:150] Setting up detection_accuracy_1_7x7
I0324 00:39:33.377714 25048 net.cpp:157] Top shape: 1 1 1 2 (2)
I0324 00:39:33.377718 25048 net.cpp:157] Top shape: 1 1 1 1 (1)
I0324 00:39:33.377722 25048 net.cpp:165] Memory required for data: 4401509828
I0324 00:39:33.377724 25048 layer_factory.hpp:77] Creating layer pool4
I0324 00:39:33.377730 25048 net.cpp:100] Creating Layer pool4
I0324 00:39:33.377734 25048 net.cpp:434] pool4 <- conv4_3_relu4_3_0_split_1
I0324 00:39:33.377740 25048 net.cpp:408] pool4 -> pool4
I0324 00:39:33.377773 25048 net.cpp:150] Setting up pool4
I0324 00:39:33.377779 25048 net.cpp:157] Top shape: 3 512 48 48 (3538944)
I0324 00:39:33.377782 25048 net.cpp:165] Memory required for data: 4415665604
I0324 00:39:33.377785 25048 layer_factory.hpp:77] Creating layer ch4_pool4
I0324 00:39:33.377790 25048 net.cpp:100] Creating Layer ch4_pool4
I0324 00:39:33.377794 25048 net.cpp:434] ch4_pool4 <- ch4
I0324 00:39:33.377799 25048 net.cpp:408] ch4_pool4 -> ch4_pool4
I0324 00:39:33.377828 25048 net.cpp:150] Setting up ch4_pool4
I0324 00:39:33.377833 25048 net.cpp:157] Top shape: 3 1 48 48 (6912)
I0324 00:39:33.377836 25048 net.cpp:165] Memory required for data: 4415693252
I0324 00:39:33.377840 25048 layer_factory.hpp:77] Creating layer pool4_concat
I0324 00:39:33.377845 25048 net.cpp:100] Creating Layer pool4_concat
I0324 00:39:33.377847 25048 net.cpp:434] pool4_concat <- pool4
I0324 00:39:33.377851 25048 net.cpp:434] pool4_concat <- ch4_pool4
I0324 00:39:33.377856 25048 net.cpp:408] pool4_concat -> pool4_new
I0324 00:39:33.377878 25048 net.cpp:150] Setting up pool4_concat
I0324 00:39:33.377882 25048 net.cpp:157] Top shape: 3 513 48 48 (3545856)
I0324 00:39:33.377885 25048 net.cpp:165] Memory required for data: 4429876676
I0324 00:39:33.377889 25048 layer_factory.hpp:77] Creating layer conv5_1_new
I0324 00:39:33.377895 25048 net.cpp:100] Creating Layer conv5_1_new
I0324 00:39:33.377899 25048 net.cpp:434] conv5_1_new <- pool4_new
I0324 00:39:33.377903 25048 net.cpp:408] conv5_1_new -> conv5_1
I0324 00:39:33.384325 25048 net.cpp:150] Setting up conv5_1_new
I0324 00:39:33.384356 25048 net.cpp:157] Top shape: 3 512 48 48 (3538944)
I0324 00:39:33.384359 25048 net.cpp:165] Memory required for data: 4444032452
I0324 00:39:33.384368 25048 layer_factory.hpp:77] Creating layer relu5_1
I0324 00:39:33.384380 25048 net.cpp:100] Creating Layer relu5_1
I0324 00:39:33.384387 25048 net.cpp:434] relu5_1 <- conv5_1
I0324 00:39:33.384393 25048 net.cpp:395] relu5_1 -> conv5_1 (in-place)
I0324 00:39:33.384568 25048 net.cpp:150] Setting up relu5_1
I0324 00:39:33.384577 25048 net.cpp:157] Top shape: 3 512 48 48 (3538944)
I0324 00:39:33.384578 25048 net.cpp:165] Memory required for data: 4458188228
I0324 00:39:33.384582 25048 layer_factory.hpp:77] Creating layer conv5_2
I0324 00:39:33.384590 25048 net.cpp:100] Creating Layer conv5_2
I0324 00:39:33.384594 25048 net.cpp:434] conv5_2 <- conv5_1
I0324 00:39:33.384600 25048 net.cpp:408] conv5_2 -> conv5_2
I0324 00:39:33.390635 25048 net.cpp:150] Setting up conv5_2
I0324 00:39:33.390663 25048 net.cpp:157] Top shape: 3 512 48 48 (3538944)
I0324 00:39:33.390668 25048 net.cpp:165] Memory required for data: 4472344004
I0324 00:39:33.390676 25048 layer_factory.hpp:77] Creating layer relu5_2
I0324 00:39:33.390689 25048 net.cpp:100] Creating Layer relu5_2
I0324 00:39:33.390697 25048 net.cpp:434] relu5_2 <- conv5_2
I0324 00:39:33.390702 25048 net.cpp:395] relu5_2 -> conv5_2 (in-place)
I0324 00:39:33.390861 25048 net.cpp:150] Setting up relu5_2
I0324 00:39:33.390871 25048 net.cpp:157] Top shape: 3 512 48 48 (3538944)
I0324 00:39:33.390873 25048 net.cpp:165] Memory required for data: 4486499780
I0324 00:39:33.390877 25048 layer_factory.hpp:77] Creating layer conv5_3
I0324 00:39:33.390887 25048 net.cpp:100] Creating Layer conv5_3
I0324 00:39:33.390892 25048 net.cpp:434] conv5_3 <- conv5_2
I0324 00:39:33.390898 25048 net.cpp:408] conv5_3 -> conv5_3
I0324 00:39:33.397017 25048 net.cpp:150] Setting up conv5_3
I0324 00:39:33.397047 25048 net.cpp:157] Top shape: 3 512 48 48 (3538944)
I0324 00:39:33.397052 25048 net.cpp:165] Memory required for data: 4500655556
I0324 00:39:33.397060 25048 layer_factory.hpp:77] Creating layer relu5_3
I0324 00:39:33.397070 25048 net.cpp:100] Creating Layer relu5_3
I0324 00:39:33.397078 25048 net.cpp:434] relu5_3 <- conv5_3
I0324 00:39:33.397083 25048 net.cpp:395] relu5_3 -> conv5_3 (in-place)
I0324 00:39:33.397243 25048 net.cpp:150] Setting up relu5_3
I0324 00:39:33.397253 25048 net.cpp:157] Top shape: 3 512 48 48 (3538944)
I0324 00:39:33.397255 25048 net.cpp:165] Memory required for data: 4514811332
I0324 00:39:33.397259 25048 layer_factory.hpp:77] Creating layer conv5_3_relu5_3_0_split
I0324 00:39:33.397265 25048 net.cpp:100] Creating Layer conv5_3_relu5_3_0_split
I0324 00:39:33.397269 25048 net.cpp:434] conv5_3_relu5_3_0_split <- conv5_3
I0324 00:39:33.397274 25048 net.cpp:408] conv5_3_relu5_3_0_split -> conv5_3_relu5_3_0_split_0
I0324 00:39:33.397287 25048 net.cpp:408] conv5_3_relu5_3_0_split -> conv5_3_relu5_3_0_split_1
I0324 00:39:33.397292 25048 net.cpp:408] conv5_3_relu5_3_0_split -> conv5_3_relu5_3_0_split_2
I0324 00:39:33.397338 25048 net.cpp:150] Setting up conv5_3_relu5_3_0_split
I0324 00:39:33.397347 25048 net.cpp:157] Top shape: 3 512 48 48 (3538944)
I0324 00:39:33.397351 25048 net.cpp:157] Top shape: 3 512 48 48 (3538944)
I0324 00:39:33.397356 25048 net.cpp:157] Top shape: 3 512 48 48 (3538944)
I0324 00:39:33.397358 25048 net.cpp:165] Memory required for data: 4557278660
I0324 00:39:33.397361 25048 layer_factory.hpp:77] Creating layer LFCN_2_5x5
I0324 00:39:33.397372 25048 net.cpp:100] Creating Layer LFCN_2_5x5
I0324 00:39:33.397375 25048 net.cpp:434] LFCN_2_5x5 <- conv5_3_relu5_3_0_split_0
I0324 00:39:33.397380 25048 net.cpp:408] LFCN_2_5x5 -> LFCN_2_5x5
I0324 00:39:33.402151 25048 net.cpp:150] Setting up LFCN_2_5x5
I0324 00:39:33.402166 25048 net.cpp:157] Top shape: 3 9 48 48 (62208)
I0324 00:39:33.402170 25048 net.cpp:165] Memory required for data: 4557527492
I0324 00:39:33.402181 25048 layer_factory.hpp:77] Creating layer LFCN_2_5x5_LFCN_2_5x5_0_split
I0324 00:39:33.402187 25048 net.cpp:100] Creating Layer LFCN_2_5x5_LFCN_2_5x5_0_split
I0324 00:39:33.402191 25048 net.cpp:434] LFCN_2_5x5_LFCN_2_5x5_0_split <- LFCN_2_5x5
I0324 00:39:33.402197 25048 net.cpp:408] LFCN_2_5x5_LFCN_2_5x5_0_split -> LFCN_2_5x5_LFCN_2_5x5_0_split_0
I0324 00:39:33.402204 25048 net.cpp:408] LFCN_2_5x5_LFCN_2_5x5_0_split -> LFCN_2_5x5_LFCN_2_5x5_0_split_1
I0324 00:39:33.402209 25048 net.cpp:408] LFCN_2_5x5_LFCN_2_5x5_0_split -> LFCN_2_5x5_LFCN_2_5x5_0_split_2
I0324 00:39:33.402253 25048 net.cpp:150] Setting up LFCN_2_5x5_LFCN_2_5x5_0_split
I0324 00:39:33.402261 25048 net.cpp:157] Top shape: 3 9 48 48 (62208)
I0324 00:39:33.402264 25048 net.cpp:157] Top shape: 3 9 48 48 (62208)
I0324 00:39:33.402268 25048 net.cpp:157] Top shape: 3 9 48 48 (62208)
I0324 00:39:33.402271 25048 net.cpp:165] Memory required for data: 4558273988
I0324 00:39:33.402276 25048 layer_factory.hpp:77] Creating layer detection_loss_2_5x5
I0324 00:39:33.402283 25048 net.cpp:100] Creating Layer detection_loss_2_5x5
I0324 00:39:33.402287 25048 net.cpp:434] detection_loss_2_5x5 <- LFCN_2_5x5_LFCN_2_5x5_0_split_0
I0324 00:39:33.402290 25048 net.cpp:434] detection_loss_2_5x5 <- label_2_5x5_data_3_split_0
I0324 00:39:33.402297 25048 net.cpp:408] detection_loss_2_5x5 -> loss_2_5x5
I0324 00:39:33.402304 25048 layer_factory.hpp:77] Creating layer detection_loss_2_5x5
I0324 00:39:33.402911 25048 net.cpp:150] Setting up detection_loss_2_5x5
I0324 00:39:33.402925 25048 net.cpp:157] Top shape: 1 1 1 2 (2)
I0324 00:39:33.402927 25048 net.cpp:160]     with loss weight 1
I0324 00:39:33.402938 25048 net.cpp:165] Memory required for data: 4558273996
I0324 00:39:33.402941 25048 layer_factory.hpp:77] Creating layer detection_accuracy_2_5x5
I0324 00:39:33.402947 25048 net.cpp:100] Creating Layer detection_accuracy_2_5x5
I0324 00:39:33.402952 25048 net.cpp:434] detection_accuracy_2_5x5 <- LFCN_2_5x5_LFCN_2_5x5_0_split_1
I0324 00:39:33.402958 25048 net.cpp:434] detection_accuracy_2_5x5 <- label_2_5x5_data_3_split_1
I0324 00:39:33.402966 25048 net.cpp:408] detection_accuracy_2_5x5 -> accuracy_2_5x5
I0324 00:39:33.402971 25048 net.cpp:408] detection_accuracy_2_5x5 -> boxiou_2_5x5
I0324 00:39:33.403005 25048 net.cpp:150] Setting up detection_accuracy_2_5x5
I0324 00:39:33.403012 25048 net.cpp:157] Top shape: 1 1 1 2 (2)
I0324 00:39:33.403017 25048 net.cpp:157] Top shape: 1 1 1 1 (1)
I0324 00:39:33.403018 25048 net.cpp:165] Memory required for data: 4558274008
I0324 00:39:33.403023 25048 layer_factory.hpp:77] Creating layer LFCN_2_7x7
I0324 00:39:33.403031 25048 net.cpp:100] Creating Layer LFCN_2_7x7
I0324 00:39:33.403035 25048 net.cpp:434] LFCN_2_7x7 <- conv5_3_relu5_3_0_split_1
I0324 00:39:33.403040 25048 net.cpp:408] LFCN_2_7x7 -> LFCN_2_7x7
I0324 00:39:33.409428 25048 net.cpp:150] Setting up LFCN_2_7x7
I0324 00:39:33.409440 25048 net.cpp:157] Top shape: 3 9 48 48 (62208)
I0324 00:39:33.409443 25048 net.cpp:165] Memory required for data: 4558522840
I0324 00:39:33.409449 25048 layer_factory.hpp:77] Creating layer LFCN_2_7x7_LFCN_2_7x7_0_split
I0324 00:39:33.409454 25048 net.cpp:100] Creating Layer LFCN_2_7x7_LFCN_2_7x7_0_split
I0324 00:39:33.409458 25048 net.cpp:434] LFCN_2_7x7_LFCN_2_7x7_0_split <- LFCN_2_7x7
I0324 00:39:33.409464 25048 net.cpp:408] LFCN_2_7x7_LFCN_2_7x7_0_split -> LFCN_2_7x7_LFCN_2_7x7_0_split_0
I0324 00:39:33.409471 25048 net.cpp:408] LFCN_2_7x7_LFCN_2_7x7_0_split -> LFCN_2_7x7_LFCN_2_7x7_0_split_1
I0324 00:39:33.409476 25048 net.cpp:408] LFCN_2_7x7_LFCN_2_7x7_0_split -> LFCN_2_7x7_LFCN_2_7x7_0_split_2
I0324 00:39:33.409520 25048 net.cpp:150] Setting up LFCN_2_7x7_LFCN_2_7x7_0_split
I0324 00:39:33.409526 25048 net.cpp:157] Top shape: 3 9 48 48 (62208)
I0324 00:39:33.409530 25048 net.cpp:157] Top shape: 3 9 48 48 (62208)
I0324 00:39:33.409534 25048 net.cpp:157] Top shape: 3 9 48 48 (62208)
I0324 00:39:33.409538 25048 net.cpp:165] Memory required for data: 4559269336
I0324 00:39:33.409540 25048 layer_factory.hpp:77] Creating layer detection_loss_2_7x7
I0324 00:39:33.409546 25048 net.cpp:100] Creating Layer detection_loss_2_7x7
I0324 00:39:33.409550 25048 net.cpp:434] detection_loss_2_7x7 <- LFCN_2_7x7_LFCN_2_7x7_0_split_0
I0324 00:39:33.409554 25048 net.cpp:434] detection_loss_2_7x7 <- label_2_7x7_data_4_split_0
I0324 00:39:33.409559 25048 net.cpp:408] detection_loss_2_7x7 -> loss_2_7x7
I0324 00:39:33.409566 25048 layer_factory.hpp:77] Creating layer detection_loss_2_7x7
I0324 00:39:33.410183 25048 net.cpp:150] Setting up detection_loss_2_7x7
I0324 00:39:33.410197 25048 net.cpp:157] Top shape: 1 1 1 2 (2)
I0324 00:39:33.410200 25048 net.cpp:160]     with loss weight 1
I0324 00:39:33.410207 25048 net.cpp:165] Memory required for data: 4559269344
I0324 00:39:33.410209 25048 layer_factory.hpp:77] Creating layer detection_accuracy_2_7x7
I0324 00:39:33.410215 25048 net.cpp:100] Creating Layer detection_accuracy_2_7x7
I0324 00:39:33.410219 25048 net.cpp:434] detection_accuracy_2_7x7 <- LFCN_2_7x7_LFCN_2_7x7_0_split_1
I0324 00:39:33.410224 25048 net.cpp:434] detection_accuracy_2_7x7 <- label_2_7x7_data_4_split_1
I0324 00:39:33.410230 25048 net.cpp:408] detection_accuracy_2_7x7 -> accuracy_2_7x7
I0324 00:39:33.410236 25048 net.cpp:408] detection_accuracy_2_7x7 -> boxiou_2_7x7
I0324 00:39:33.410269 25048 net.cpp:150] Setting up detection_accuracy_2_7x7
I0324 00:39:33.410276 25048 net.cpp:157] Top shape: 1 1 1 2 (2)
I0324 00:39:33.410281 25048 net.cpp:157] Top shape: 1 1 1 1 (1)
I0324 00:39:33.410284 25048 net.cpp:165] Memory required for data: 4559269356
I0324 00:39:33.410287 25048 layer_factory.hpp:77] Creating layer pool5
I0324 00:39:33.410295 25048 net.cpp:100] Creating Layer pool5
I0324 00:39:33.410298 25048 net.cpp:434] pool5 <- conv5_3_relu5_3_0_split_2
I0324 00:39:33.410303 25048 net.cpp:408] pool5 -> pool5
I0324 00:39:33.410336 25048 net.cpp:150] Setting up pool5
I0324 00:39:33.410343 25048 net.cpp:157] Top shape: 3 512 24 24 (884736)
I0324 00:39:33.410346 25048 net.cpp:165] Memory required for data: 4562808300
I0324 00:39:33.410349 25048 layer_factory.hpp:77] Creating layer conv6_1
I0324 00:39:33.410357 25048 net.cpp:100] Creating Layer conv6_1
I0324 00:39:33.410362 25048 net.cpp:434] conv6_1 <- pool5
I0324 00:39:33.410367 25048 net.cpp:408] conv6_1 -> conv6_1
I0324 00:39:33.471159 25048 net.cpp:150] Setting up conv6_1
I0324 00:39:33.471187 25048 net.cpp:157] Top shape: 3 512 24 24 (884736)
I0324 00:39:33.471191 25048 net.cpp:165] Memory required for data: 4566347244
I0324 00:39:33.471200 25048 layer_factory.hpp:77] Creating layer relu6_1
I0324 00:39:33.471218 25048 net.cpp:100] Creating Layer relu6_1
I0324 00:39:33.471225 25048 net.cpp:434] relu6_1 <- conv6_1
I0324 00:39:33.471231 25048 net.cpp:395] relu6_1 -> conv6_1 (in-place)
I0324 00:39:33.471395 25048 net.cpp:150] Setting up relu6_1
I0324 00:39:33.471405 25048 net.cpp:157] Top shape: 3 512 24 24 (884736)
I0324 00:39:33.471407 25048 net.cpp:165] Memory required for data: 4569886188
I0324 00:39:33.471411 25048 layer_factory.hpp:77] Creating layer conv6_1_relu6_1_0_split
I0324 00:39:33.471418 25048 net.cpp:100] Creating Layer conv6_1_relu6_1_0_split
I0324 00:39:33.471422 25048 net.cpp:434] conv6_1_relu6_1_0_split <- conv6_1
I0324 00:39:33.471427 25048 net.cpp:408] conv6_1_relu6_1_0_split -> conv6_1_relu6_1_0_split_0
I0324 00:39:33.471434 25048 net.cpp:408] conv6_1_relu6_1_0_split -> conv6_1_relu6_1_0_split_1
I0324 00:39:33.471441 25048 net.cpp:408] conv6_1_relu6_1_0_split -> conv6_1_relu6_1_0_split_2
I0324 00:39:33.471485 25048 net.cpp:150] Setting up conv6_1_relu6_1_0_split
I0324 00:39:33.471493 25048 net.cpp:157] Top shape: 3 512 24 24 (884736)
I0324 00:39:33.471496 25048 net.cpp:157] Top shape: 3 512 24 24 (884736)
I0324 00:39:33.471500 25048 net.cpp:157] Top shape: 3 512 24 24 (884736)
I0324 00:39:33.471503 25048 net.cpp:165] Memory required for data: 4580503020
I0324 00:39:33.471506 25048 layer_factory.hpp:77] Creating layer LFCN_3_5x5
I0324 00:39:33.471516 25048 net.cpp:100] Creating Layer LFCN_3_5x5
I0324 00:39:33.471520 25048 net.cpp:434] LFCN_3_5x5 <- conv6_1_relu6_1_0_split_0
I0324 00:39:33.471527 25048 net.cpp:408] LFCN_3_5x5 -> LFCN_3_5x5
I0324 00:39:33.475214 25048 net.cpp:150] Setting up LFCN_3_5x5
I0324 00:39:33.475225 25048 net.cpp:157] Top shape: 3 9 24 24 (15552)
I0324 00:39:33.475229 25048 net.cpp:165] Memory required for data: 4580565228
I0324 00:39:33.475234 25048 layer_factory.hpp:77] Creating layer LFCN_3_5x5_LFCN_3_5x5_0_split
I0324 00:39:33.475239 25048 net.cpp:100] Creating Layer LFCN_3_5x5_LFCN_3_5x5_0_split
I0324 00:39:33.475241 25048 net.cpp:434] LFCN_3_5x5_LFCN_3_5x5_0_split <- LFCN_3_5x5
I0324 00:39:33.475246 25048 net.cpp:408] LFCN_3_5x5_LFCN_3_5x5_0_split -> LFCN_3_5x5_LFCN_3_5x5_0_split_0
I0324 00:39:33.475251 25048 net.cpp:408] LFCN_3_5x5_LFCN_3_5x5_0_split -> LFCN_3_5x5_LFCN_3_5x5_0_split_1
I0324 00:39:33.475255 25048 net.cpp:408] LFCN_3_5x5_LFCN_3_5x5_0_split -> LFCN_3_5x5_LFCN_3_5x5_0_split_2
I0324 00:39:33.475294 25048 net.cpp:150] Setting up LFCN_3_5x5_LFCN_3_5x5_0_split
I0324 00:39:33.475301 25048 net.cpp:157] Top shape: 3 9 24 24 (15552)
I0324 00:39:33.475303 25048 net.cpp:157] Top shape: 3 9 24 24 (15552)
I0324 00:39:33.475307 25048 net.cpp:157] Top shape: 3 9 24 24 (15552)
I0324 00:39:33.475309 25048 net.cpp:165] Memory required for data: 4580751852
I0324 00:39:33.475312 25048 layer_factory.hpp:77] Creating layer detection_loss_3_5x5
I0324 00:39:33.475318 25048 net.cpp:100] Creating Layer detection_loss_3_5x5
I0324 00:39:33.475322 25048 net.cpp:434] detection_loss_3_5x5 <- LFCN_3_5x5_LFCN_3_5x5_0_split_0
I0324 00:39:33.475327 25048 net.cpp:434] detection_loss_3_5x5 <- label_3_5x5_data_5_split_0
I0324 00:39:33.475332 25048 net.cpp:408] detection_loss_3_5x5 -> loss_3_5x5
I0324 00:39:33.475338 25048 layer_factory.hpp:77] Creating layer detection_loss_3_5x5
I0324 00:39:33.475642 25048 net.cpp:150] Setting up detection_loss_3_5x5
I0324 00:39:33.475652 25048 net.cpp:157] Top shape: 1 1 1 2 (2)
I0324 00:39:33.475656 25048 net.cpp:160]     with loss weight 1
I0324 00:39:33.475666 25048 net.cpp:165] Memory required for data: 4580751860
I0324 00:39:33.475668 25048 layer_factory.hpp:77] Creating layer detection_accuracy_3_5x5
I0324 00:39:33.475674 25048 net.cpp:100] Creating Layer detection_accuracy_3_5x5
I0324 00:39:33.475678 25048 net.cpp:434] detection_accuracy_3_5x5 <- LFCN_3_5x5_LFCN_3_5x5_0_split_1
I0324 00:39:33.475683 25048 net.cpp:434] detection_accuracy_3_5x5 <- label_3_5x5_data_5_split_1
I0324 00:39:33.475689 25048 net.cpp:408] detection_accuracy_3_5x5 -> accuracy_3_5x5
I0324 00:39:33.475697 25048 net.cpp:408] detection_accuracy_3_5x5 -> boxiou_3_5x5
I0324 00:39:33.475729 25048 net.cpp:150] Setting up detection_accuracy_3_5x5
I0324 00:39:33.475735 25048 net.cpp:157] Top shape: 1 1 1 2 (2)
I0324 00:39:33.475739 25048 net.cpp:157] Top shape: 1 1 1 1 (1)
I0324 00:39:33.475742 25048 net.cpp:165] Memory required for data: 4580751872
I0324 00:39:33.475745 25048 layer_factory.hpp:77] Creating layer LFCN_3_7x7
I0324 00:39:33.475755 25048 net.cpp:100] Creating Layer LFCN_3_7x7
I0324 00:39:33.475759 25048 net.cpp:434] LFCN_3_7x7 <- conv6_1_relu6_1_0_split_1
I0324 00:39:33.475764 25048 net.cpp:408] LFCN_3_7x7 -> LFCN_3_7x7
I0324 00:39:33.482839 25048 net.cpp:150] Setting up LFCN_3_7x7
I0324 00:39:33.482854 25048 net.cpp:157] Top shape: 3 9 24 24 (15552)
I0324 00:39:33.482857 25048 net.cpp:165] Memory required for data: 4580814080
I0324 00:39:33.482863 25048 layer_factory.hpp:77] Creating layer LFCN_3_7x7_LFCN_3_7x7_0_split
I0324 00:39:33.482869 25048 net.cpp:100] Creating Layer LFCN_3_7x7_LFCN_3_7x7_0_split
I0324 00:39:33.482873 25048 net.cpp:434] LFCN_3_7x7_LFCN_3_7x7_0_split <- LFCN_3_7x7
I0324 00:39:33.482882 25048 net.cpp:408] LFCN_3_7x7_LFCN_3_7x7_0_split -> LFCN_3_7x7_LFCN_3_7x7_0_split_0
I0324 00:39:33.482887 25048 net.cpp:408] LFCN_3_7x7_LFCN_3_7x7_0_split -> LFCN_3_7x7_LFCN_3_7x7_0_split_1
I0324 00:39:33.482892 25048 net.cpp:408] LFCN_3_7x7_LFCN_3_7x7_0_split -> LFCN_3_7x7_LFCN_3_7x7_0_split_2
I0324 00:39:33.482939 25048 net.cpp:150] Setting up LFCN_3_7x7_LFCN_3_7x7_0_split
I0324 00:39:33.482945 25048 net.cpp:157] Top shape: 3 9 24 24 (15552)
I0324 00:39:33.482950 25048 net.cpp:157] Top shape: 3 9 24 24 (15552)
I0324 00:39:33.482954 25048 net.cpp:157] Top shape: 3 9 24 24 (15552)
I0324 00:39:33.482957 25048 net.cpp:165] Memory required for data: 4581000704
I0324 00:39:33.482962 25048 layer_factory.hpp:77] Creating layer detection_loss_3_7x7
I0324 00:39:33.482969 25048 net.cpp:100] Creating Layer detection_loss_3_7x7
I0324 00:39:33.482975 25048 net.cpp:434] detection_loss_3_7x7 <- LFCN_3_7x7_LFCN_3_7x7_0_split_0
I0324 00:39:33.482980 25048 net.cpp:434] detection_loss_3_7x7 <- label_3_7x7_data_6_split_0
I0324 00:39:33.482985 25048 net.cpp:408] detection_loss_3_7x7 -> loss_3_7x7
I0324 00:39:33.482992 25048 layer_factory.hpp:77] Creating layer detection_loss_3_7x7
I0324 00:39:33.483296 25048 net.cpp:150] Setting up detection_loss_3_7x7
I0324 00:39:33.483306 25048 net.cpp:157] Top shape: 1 1 1 2 (2)
I0324 00:39:33.483310 25048 net.cpp:160]     with loss weight 1
I0324 00:39:33.483316 25048 net.cpp:165] Memory required for data: 4581000712
I0324 00:39:33.483320 25048 layer_factory.hpp:77] Creating layer detection_accuracy_3_7x7
I0324 00:39:33.483325 25048 net.cpp:100] Creating Layer detection_accuracy_3_7x7
I0324 00:39:33.483330 25048 net.cpp:434] detection_accuracy_3_7x7 <- LFCN_3_7x7_LFCN_3_7x7_0_split_1
I0324 00:39:33.483335 25048 net.cpp:434] detection_accuracy_3_7x7 <- label_3_7x7_data_6_split_1
I0324 00:39:33.483340 25048 net.cpp:408] detection_accuracy_3_7x7 -> accuracy_3_7x7
I0324 00:39:33.483346 25048 net.cpp:408] detection_accuracy_3_7x7 -> boxiou_3_7x7
I0324 00:39:33.483381 25048 net.cpp:150] Setting up detection_accuracy_3_7x7
I0324 00:39:33.483387 25048 net.cpp:157] Top shape: 1 1 1 2 (2)
I0324 00:39:33.483392 25048 net.cpp:157] Top shape: 1 1 1 1 (1)
I0324 00:39:33.483394 25048 net.cpp:165] Memory required for data: 4581000724
I0324 00:39:33.483397 25048 layer_factory.hpp:77] Creating layer pool6
I0324 00:39:33.483405 25048 net.cpp:100] Creating Layer pool6
I0324 00:39:33.483409 25048 net.cpp:434] pool6 <- conv6_1_relu6_1_0_split_2
I0324 00:39:33.483413 25048 net.cpp:408] pool6 -> pool6
I0324 00:39:33.483448 25048 net.cpp:150] Setting up pool6
I0324 00:39:33.483455 25048 net.cpp:157] Top shape: 3 512 12 12 (221184)
I0324 00:39:33.483459 25048 net.cpp:165] Memory required for data: 4581885460
I0324 00:39:33.483463 25048 layer_factory.hpp:77] Creating layer LFCN_4_5x5
I0324 00:39:33.483470 25048 net.cpp:100] Creating Layer LFCN_4_5x5
I0324 00:39:33.483474 25048 net.cpp:434] LFCN_4_5x5 <- pool6
I0324 00:39:33.483479 25048 net.cpp:408] LFCN_4_5x5 -> LFCN_4_5x5
I0324 00:39:33.487421 25048 net.cpp:150] Setting up LFCN_4_5x5
I0324 00:39:33.487433 25048 net.cpp:157] Top shape: 3 9 12 12 (3888)
I0324 00:39:33.487437 25048 net.cpp:165] Memory required for data: 4581901012
I0324 00:39:33.487443 25048 layer_factory.hpp:77] Creating layer LFCN_4_5x5_LFCN_4_5x5_0_split
I0324 00:39:33.487448 25048 net.cpp:100] Creating Layer LFCN_4_5x5_LFCN_4_5x5_0_split
I0324 00:39:33.487452 25048 net.cpp:434] LFCN_4_5x5_LFCN_4_5x5_0_split <- LFCN_4_5x5
I0324 00:39:33.487459 25048 net.cpp:408] LFCN_4_5x5_LFCN_4_5x5_0_split -> LFCN_4_5x5_LFCN_4_5x5_0_split_0
I0324 00:39:33.487465 25048 net.cpp:408] LFCN_4_5x5_LFCN_4_5x5_0_split -> LFCN_4_5x5_LFCN_4_5x5_0_split_1
I0324 00:39:33.487470 25048 net.cpp:408] LFCN_4_5x5_LFCN_4_5x5_0_split -> LFCN_4_5x5_LFCN_4_5x5_0_split_2
I0324 00:39:33.487516 25048 net.cpp:150] Setting up LFCN_4_5x5_LFCN_4_5x5_0_split
I0324 00:39:33.487524 25048 net.cpp:157] Top shape: 3 9 12 12 (3888)
I0324 00:39:33.487527 25048 net.cpp:157] Top shape: 3 9 12 12 (3888)
I0324 00:39:33.487531 25048 net.cpp:157] Top shape: 3 9 12 12 (3888)
I0324 00:39:33.487534 25048 net.cpp:165] Memory required for data: 4581947668
I0324 00:39:33.487537 25048 layer_factory.hpp:77] Creating layer detection_loss_4_5x5
I0324 00:39:33.487542 25048 net.cpp:100] Creating Layer detection_loss_4_5x5
I0324 00:39:33.487546 25048 net.cpp:434] detection_loss_4_5x5 <- LFCN_4_5x5_LFCN_4_5x5_0_split_0
I0324 00:39:33.487550 25048 net.cpp:434] detection_loss_4_5x5 <- label_4_5x5_data_7_split_0
I0324 00:39:33.487560 25048 net.cpp:408] detection_loss_4_5x5 -> loss_4_5x5
I0324 00:39:33.487568 25048 layer_factory.hpp:77] Creating layer detection_loss_4_5x5
I0324 00:39:33.487869 25048 net.cpp:150] Setting up detection_loss_4_5x5
I0324 00:39:33.487879 25048 net.cpp:157] Top shape: 1 1 1 2 (2)
I0324 00:39:33.487881 25048 net.cpp:160]     with loss weight 1
I0324 00:39:33.487887 25048 net.cpp:165] Memory required for data: 4581947676
I0324 00:39:33.487890 25048 layer_factory.hpp:77] Creating layer detection_accuracy_4_5x5
I0324 00:39:33.487897 25048 net.cpp:100] Creating Layer detection_accuracy_4_5x5
I0324 00:39:33.487901 25048 net.cpp:434] detection_accuracy_4_5x5 <- LFCN_4_5x5_LFCN_4_5x5_0_split_1
I0324 00:39:33.487906 25048 net.cpp:434] detection_accuracy_4_5x5 <- label_4_5x5_data_7_split_1
I0324 00:39:33.487911 25048 net.cpp:408] detection_accuracy_4_5x5 -> accuracy_4_5x5
I0324 00:39:33.487918 25048 net.cpp:408] detection_accuracy_4_5x5 -> boxiou_4_5x5
I0324 00:39:33.487956 25048 net.cpp:150] Setting up detection_accuracy_4_5x5
I0324 00:39:33.487964 25048 net.cpp:157] Top shape: 1 1 1 2 (2)
I0324 00:39:33.487969 25048 net.cpp:157] Top shape: 1 1 1 1 (1)
I0324 00:39:33.487973 25048 net.cpp:165] Memory required for data: 4581947688
I0324 00:39:33.487977 25048 layer_factory.hpp:77] Creating layer proposals
I0324 00:39:33.487993 25048 net.cpp:100] Creating Layer proposals
I0324 00:39:33.487996 25048 net.cpp:434] proposals <- LFCN_1_5x5_LFCN_1_5x5_0_split_2
I0324 00:39:33.488003 25048 net.cpp:434] proposals <- LFCN_1_7x7_LFCN_1_7x7_0_split_2
I0324 00:39:33.488008 25048 net.cpp:434] proposals <- LFCN_2_5x5_LFCN_2_5x5_0_split_2
I0324 00:39:33.488013 25048 net.cpp:434] proposals <- LFCN_2_7x7_LFCN_2_7x7_0_split_2
I0324 00:39:33.488016 25048 net.cpp:434] proposals <- LFCN_3_5x5_LFCN_3_5x5_0_split_2
I0324 00:39:33.488021 25048 net.cpp:434] proposals <- LFCN_3_7x7_LFCN_3_7x7_0_split_2
I0324 00:39:33.488026 25048 net.cpp:434] proposals <- LFCN_4_5x5_LFCN_4_5x5_0_split_2
I0324 00:39:33.488032 25048 net.cpp:408] proposals -> proposals
I0324 00:39:33.488062 25048 net.cpp:150] Setting up proposals
I0324 00:39:33.488070 25048 net.cpp:157] Top shape: 1 5 1 1 (5)
I0324 00:39:33.488075 25048 net.cpp:165] Memory required for data: 4581947708
I0324 00:39:33.488078 25048 layer_factory.hpp:77] Creating layer proposal_info
I0324 00:39:33.488091 25048 net.cpp:100] Creating Layer proposal_info
I0324 00:39:33.488095 25048 net.cpp:434] proposal_info <- proposals
I0324 00:39:33.488101 25048 net.cpp:434] proposal_info <- gt_boxes
I0324 00:39:33.488107 25048 net.cpp:408] proposal_info -> rois
I0324 00:39:33.488117 25048 net.cpp:408] proposal_info -> proposal_labels
I0324 00:39:33.488126 25048 net.cpp:408] proposal_info -> proposal_targets
I0324 00:39:33.488134 25048 net.cpp:408] proposal_info -> box_inside_weights
I0324 00:39:33.488142 25048 net.cpp:408] proposal_info -> box_outside_weights
I0324 00:39:33.488148 25048 net.cpp:408] proposal_info -> match_gt_boxes
I0324 00:39:33.488250 25048 net.cpp:150] Setting up proposal_info
I0324 00:39:33.488258 25048 net.cpp:157] Top shape: 256 5 1 1 (1280)
I0324 00:39:33.488263 25048 net.cpp:157] Top shape: 256 1 1 1 (256)
I0324 00:39:33.488267 25048 net.cpp:157] Top shape: 256 20 1 1 (5120)
I0324 00:39:33.488271 25048 net.cpp:157] Top shape: 256 20 1 1 (5120)
I0324 00:39:33.488276 25048 net.cpp:157] Top shape: 256 20 1 1 (5120)
I0324 00:39:33.488279 25048 net.cpp:157] Top shape: 256 6 1 1 (1536)
I0324 00:39:33.488282 25048 net.cpp:165] Memory required for data: 4582021436
I0324 00:39:33.488286 25048 layer_factory.hpp:77] Creating layer rois_proposal_info_0_split
I0324 00:39:33.488291 25048 net.cpp:100] Creating Layer rois_proposal_info_0_split
I0324 00:39:33.488294 25048 net.cpp:434] rois_proposal_info_0_split <- rois
I0324 00:39:33.488299 25048 net.cpp:408] rois_proposal_info_0_split -> rois_proposal_info_0_split_0
I0324 00:39:33.488304 25048 net.cpp:408] rois_proposal_info_0_split -> rois_proposal_info_0_split_1
I0324 00:39:33.488310 25048 net.cpp:408] rois_proposal_info_0_split -> rois_proposal_info_0_split_2
I0324 00:39:33.488351 25048 net.cpp:150] Setting up rois_proposal_info_0_split
I0324 00:39:33.488358 25048 net.cpp:157] Top shape: 256 5 1 1 (1280)
I0324 00:39:33.488363 25048 net.cpp:157] Top shape: 256 5 1 1 (1280)
I0324 00:39:33.488366 25048 net.cpp:157] Top shape: 256 5 1 1 (1280)
I0324 00:39:33.488368 25048 net.cpp:165] Memory required for data: 4582036796
I0324 00:39:33.488373 25048 layer_factory.hpp:77] Creating layer proposal_labels_proposal_info_1_split
I0324 00:39:33.488376 25048 net.cpp:100] Creating Layer proposal_labels_proposal_info_1_split
I0324 00:39:33.488379 25048 net.cpp:434] proposal_labels_proposal_info_1_split <- proposal_labels
I0324 00:39:33.488384 25048 net.cpp:408] proposal_labels_proposal_info_1_split -> proposal_labels_proposal_info_1_split_0
I0324 00:39:33.488389 25048 net.cpp:408] proposal_labels_proposal_info_1_split -> proposal_labels_proposal_info_1_split_1
I0324 00:39:33.488420 25048 net.cpp:150] Setting up proposal_labels_proposal_info_1_split
I0324 00:39:33.488425 25048 net.cpp:157] Top shape: 256 1 1 1 (256)
I0324 00:39:33.488430 25048 net.cpp:157] Top shape: 256 1 1 1 (256)
I0324 00:39:33.488432 25048 net.cpp:165] Memory required for data: 4582038844
I0324 00:39:33.488435 25048 layer_factory.hpp:77] Creating layer conv4_3_2x
I0324 00:39:33.488443 25048 net.cpp:100] Creating Layer conv4_3_2x
I0324 00:39:33.488446 25048 net.cpp:434] conv4_3_2x <- conv4_3_relu4_3_0_split_2
I0324 00:39:33.488451 25048 net.cpp:408] conv4_3_2x -> conv4_3_2x
I0324 00:39:33.488816 25048 net.cpp:150] Setting up conv4_3_2x
I0324 00:39:33.488824 25048 net.cpp:157] Top shape: 3 512 192 192 (56623104)
I0324 00:39:33.488827 25048 net.cpp:165] Memory required for data: 4808531260
I0324 00:39:33.488831 25048 layer_factory.hpp:77] Creating layer conv4_3_2x_conv4_3_2x_0_split
I0324 00:39:33.488837 25048 net.cpp:100] Creating Layer conv4_3_2x_conv4_3_2x_0_split
I0324 00:39:33.488839 25048 net.cpp:434] conv4_3_2x_conv4_3_2x_0_split <- conv4_3_2x
I0324 00:39:33.488844 25048 net.cpp:408] conv4_3_2x_conv4_3_2x_0_split -> conv4_3_2x_conv4_3_2x_0_split_0
I0324 00:39:33.488849 25048 net.cpp:408] conv4_3_2x_conv4_3_2x_0_split -> conv4_3_2x_conv4_3_2x_0_split_1
I0324 00:39:33.488880 25048 net.cpp:150] Setting up conv4_3_2x_conv4_3_2x_0_split
I0324 00:39:33.488885 25048 net.cpp:157] Top shape: 3 512 192 192 (56623104)
I0324 00:39:33.488890 25048 net.cpp:157] Top shape: 3 512 192 192 (56623104)
I0324 00:39:33.488893 25048 net.cpp:165] Memory required for data: 5261516092
I0324 00:39:33.488896 25048 layer_factory.hpp:77] Creating layer roi_pool_org
I0324 00:39:33.488903 25048 net.cpp:100] Creating Layer roi_pool_org
I0324 00:39:33.488905 25048 net.cpp:434] roi_pool_org <- conv4_3_2x_conv4_3_2x_0_split_0
I0324 00:39:33.488909 25048 net.cpp:434] roi_pool_org <- rois_proposal_info_0_split_0
I0324 00:39:33.488914 25048 net.cpp:408] roi_pool_org -> roi_pool_org
I0324 00:39:33.488922 25048 roi_pooling_layer.cpp:33] Spatial scale: 0.25
I0324 00:39:33.488955 25048 net.cpp:150] Setting up roi_pool_org
I0324 00:39:33.488962 25048 net.cpp:157] Top shape: 256 512 7 7 (6422528)
I0324 00:39:33.488965 25048 net.cpp:165] Memory required for data: 5287206204
I0324 00:39:33.488968 25048 layer_factory.hpp:77] Creating layer roi_pool_ctx
I0324 00:39:33.488973 25048 net.cpp:100] Creating Layer roi_pool_ctx
I0324 00:39:33.488976 25048 net.cpp:434] roi_pool_ctx <- conv4_3_2x_conv4_3_2x_0_split_1
I0324 00:39:33.488981 25048 net.cpp:434] roi_pool_ctx <- rois_proposal_info_0_split_1
I0324 00:39:33.488986 25048 net.cpp:408] roi_pool_ctx -> roi_pool_ctx
I0324 00:39:33.488991 25048 roi_pooling_layer.cpp:33] Spatial scale: 0.25
I0324 00:39:33.489022 25048 net.cpp:150] Setting up roi_pool_ctx
I0324 00:39:33.489029 25048 net.cpp:157] Top shape: 256 512 7 7 (6422528)
I0324 00:39:33.489032 25048 net.cpp:165] Memory required for data: 5312896316
I0324 00:39:33.489035 25048 layer_factory.hpp:77] Creating layer roi_pool
I0324 00:39:33.489040 25048 net.cpp:100] Creating Layer roi_pool
I0324 00:39:33.489043 25048 net.cpp:434] roi_pool <- roi_pool_org
I0324 00:39:33.489048 25048 net.cpp:434] roi_pool <- roi_pool_ctx
I0324 00:39:33.489051 25048 net.cpp:408] roi_pool -> roi_pool
I0324 00:39:33.489073 25048 net.cpp:150] Setting up roi_pool
I0324 00:39:33.489078 25048 net.cpp:157] Top shape: 256 1024 7 7 (12845056)
I0324 00:39:33.489081 25048 net.cpp:165] Memory required for data: 5364276540
I0324 00:39:33.489084 25048 layer_factory.hpp:77] Creating layer roi_c1
I0324 00:39:33.489094 25048 net.cpp:100] Creating Layer roi_c1
I0324 00:39:33.489097 25048 net.cpp:434] roi_c1 <- roi_pool
I0324 00:39:33.489104 25048 net.cpp:408] roi_c1 -> roi_c1
I0324 00:39:33.602633 25048 net.cpp:150] Setting up roi_c1
I0324 00:39:33.602663 25048 net.cpp:157] Top shape: 256 512 5 5 (3276800)
I0324 00:39:33.602668 25048 net.cpp:165] Memory required for data: 5377383740
I0324 00:39:33.602676 25048 layer_factory.hpp:77] Creating layer roi_c1_relu
I0324 00:39:33.602689 25048 net.cpp:100] Creating Layer roi_c1_relu
I0324 00:39:33.602695 25048 net.cpp:434] roi_c1_relu <- roi_c1
I0324 00:39:33.602700 25048 net.cpp:395] roi_c1_relu -> roi_c1 (in-place)
I0324 00:39:33.603163 25048 net.cpp:150] Setting up roi_c1_relu
I0324 00:39:33.603178 25048 net.cpp:157] Top shape: 256 512 5 5 (3276800)
I0324 00:39:33.603183 25048 net.cpp:165] Memory required for data: 5390490940
I0324 00:39:33.603188 25048 layer_factory.hpp:77] Creating layer fc6
I0324 00:39:33.603204 25048 net.cpp:100] Creating Layer fc6
I0324 00:39:33.603210 25048 net.cpp:434] fc6 <- roi_c1
I0324 00:39:33.603219 25048 net.cpp:408] fc6 -> fc6
I0324 00:39:34.825575 25048 net.cpp:150] Setting up fc6
I0324 00:39:34.825611 25048 net.cpp:157] Top shape: 256 4096 (1048576)
I0324 00:39:34.825614 25048 net.cpp:165] Memory required for data: 5394685244
I0324 00:39:34.825623 25048 layer_factory.hpp:77] Creating layer relu6
I0324 00:39:34.825635 25048 net.cpp:100] Creating Layer relu6
I0324 00:39:34.825641 25048 net.cpp:434] relu6 <- fc6
I0324 00:39:34.825646 25048 net.cpp:395] relu6 -> fc6 (in-place)
I0324 00:39:34.825878 25048 net.cpp:150] Setting up relu6
I0324 00:39:34.825889 25048 net.cpp:157] Top shape: 256 4096 (1048576)
I0324 00:39:34.825892 25048 net.cpp:165] Memory required for data: 5398879548
I0324 00:39:34.825896 25048 layer_factory.hpp:77] Creating layer drop6
I0324 00:39:34.825904 25048 net.cpp:100] Creating Layer drop6
I0324 00:39:34.825908 25048 net.cpp:434] drop6 <- fc6
I0324 00:39:34.825912 25048 net.cpp:395] drop6 -> fc6 (in-place)
I0324 00:39:34.825935 25048 net.cpp:150] Setting up drop6
I0324 00:39:34.825942 25048 net.cpp:157] Top shape: 256 4096 (1048576)
I0324 00:39:34.825944 25048 net.cpp:165] Memory required for data: 5403073852
I0324 00:39:34.825956 25048 layer_factory.hpp:77] Creating layer fc6_drop6_0_split
I0324 00:39:34.825963 25048 net.cpp:100] Creating Layer fc6_drop6_0_split
I0324 00:39:34.825965 25048 net.cpp:434] fc6_drop6_0_split <- fc6
I0324 00:39:34.825970 25048 net.cpp:408] fc6_drop6_0_split -> fc6_drop6_0_split_0
I0324 00:39:34.825989 25048 net.cpp:408] fc6_drop6_0_split -> fc6_drop6_0_split_1
I0324 00:39:34.826025 25048 net.cpp:150] Setting up fc6_drop6_0_split
I0324 00:39:34.826030 25048 net.cpp:157] Top shape: 256 4096 (1048576)
I0324 00:39:34.826035 25048 net.cpp:157] Top shape: 256 4096 (1048576)
I0324 00:39:34.826037 25048 net.cpp:165] Memory required for data: 5411462460
I0324 00:39:34.826041 25048 layer_factory.hpp:77] Creating layer cls_pred
I0324 00:39:34.826050 25048 net.cpp:100] Creating Layer cls_pred
I0324 00:39:34.826053 25048 net.cpp:434] cls_pred <- fc6_drop6_0_split_0
I0324 00:39:34.826058 25048 net.cpp:408] cls_pred -> cls_pred
I0324 00:39:34.826675 25048 net.cpp:150] Setting up cls_pred
I0324 00:39:34.826683 25048 net.cpp:157] Top shape: 256 5 (1280)
I0324 00:39:34.826686 25048 net.cpp:165] Memory required for data: 5411467580
I0324 00:39:34.826691 25048 layer_factory.hpp:77] Creating layer cls_pred_cls_pred_0_split
I0324 00:39:34.826696 25048 net.cpp:100] Creating Layer cls_pred_cls_pred_0_split
I0324 00:39:34.826699 25048 net.cpp:434] cls_pred_cls_pred_0_split <- cls_pred
I0324 00:39:34.826704 25048 net.cpp:408] cls_pred_cls_pred_0_split -> cls_pred_cls_pred_0_split_0
I0324 00:39:34.826709 25048 net.cpp:408] cls_pred_cls_pred_0_split -> cls_pred_cls_pred_0_split_1
I0324 00:39:34.826738 25048 net.cpp:150] Setting up cls_pred_cls_pred_0_split
I0324 00:39:34.826745 25048 net.cpp:157] Top shape: 256 5 (1280)
I0324 00:39:34.826748 25048 net.cpp:157] Top shape: 256 5 (1280)
I0324 00:39:34.826751 25048 net.cpp:165] Memory required for data: 5411477820
I0324 00:39:34.826755 25048 layer_factory.hpp:77] Creating layer bbox_pred
I0324 00:39:34.826759 25048 net.cpp:100] Creating Layer bbox_pred
I0324 00:39:34.826763 25048 net.cpp:434] bbox_pred <- fc6_drop6_0_split_1
I0324 00:39:34.826768 25048 net.cpp:408] bbox_pred -> bbox_pred
I0324 00:39:34.828994 25048 net.cpp:150] Setting up bbox_pred
I0324 00:39:34.829000 25048 net.cpp:157] Top shape: 256 20 (5120)
I0324 00:39:34.829004 25048 net.cpp:165] Memory required for data: 5411498300
I0324 00:39:34.829010 25048 layer_factory.hpp:77] Creating layer bbox_pred_bbox_pred_0_split
I0324 00:39:34.829015 25048 net.cpp:100] Creating Layer bbox_pred_bbox_pred_0_split
I0324 00:39:34.829020 25048 net.cpp:434] bbox_pred_bbox_pred_0_split <- bbox_pred
I0324 00:39:34.829025 25048 net.cpp:408] bbox_pred_bbox_pred_0_split -> bbox_pred_bbox_pred_0_split_0
I0324 00:39:34.829030 25048 net.cpp:408] bbox_pred_bbox_pred_0_split -> bbox_pred_bbox_pred_0_split_1
I0324 00:39:34.829054 25048 net.cpp:150] Setting up bbox_pred_bbox_pred_0_split
I0324 00:39:34.829058 25048 net.cpp:157] Top shape: 256 20 (5120)
I0324 00:39:34.829061 25048 net.cpp:157] Top shape: 256 20 (5120)
I0324 00:39:34.829064 25048 net.cpp:165] Memory required for data: 5411539260
I0324 00:39:34.829066 25048 layer_factory.hpp:77] Creating layer loss_cls
I0324 00:39:34.829071 25048 net.cpp:100] Creating Layer loss_cls
I0324 00:39:34.829074 25048 net.cpp:434] loss_cls <- cls_pred_cls_pred_0_split_0
I0324 00:39:34.829078 25048 net.cpp:434] loss_cls <- proposal_labels_proposal_info_1_split_0
…
I0324 00:39:34.841598 25048 image_gt_data_layer.cpp:235] output label size 2 : 2,6,48,48
I0324 00:39:34.841645 25048 image_gt_data_layer.cpp:235] output label size 3 : 2,6,48,48
I0324 00:39:34.841692 25048 image_gt_data_layer.cpp:235] output label size 4 : 2,6,24,24
I0324 00:39:34.841738 25048 image_gt_data_layer.cpp:235] output label size 5 : 2,6,24,24
I0324 00:39:34.841784 25048 image_gt_data_layer.cpp:235] output label size 6 : 2,6,12,12
I0324 00:39:34.841830 25048 image_gt_data_layer.cpp:250] output gt boxes size: 1,7,1,1
I0324 00:39:34.875545 25048 net.cpp:150] Setting up data
I0324 00:39:34.875576 25048 net.cpp:157] Top shape: 2 4 768 768 (4718592)
I0324 00:39:34.875581 25048 net.cpp:157] Top shape: 2 6 96 96 (110592)
I0324 00:39:34.875586 25048 net.cpp:157] Top shape: 2 6 96 96 (110592)
I0324 00:39:34.875591 25048 net.cpp:157] Top shape: 2 6 48 48 (27648)
I0324 00:39:34.875594 25048 net.cpp:157] Top shape: 2 6 48 48 (27648)
I0324 00:39:34.875598 25048 net.cpp:157] Top shape: 2 6 24 24 (6912)
I0324 00:39:34.875602 25048 net.cpp:157] Top shape: 2 6 24 24 (6912)
I0324 00:39:34.875607 25048 net.cpp:157] Top shape: 2 6 12 12 (1728)
I0324 00:39:34.875612 25048 net.cpp:157] Top shape: 1 7 1 1 (7)
I0324 00:39:34.875614 25048 net.cpp:165] Memory required for data: 20042524
I0324 00:39:34.875622 25048 layer_factory.hpp:77] Creating layer label_1_5x5_data_1_split
I0324 00:39:34.875636 25048 net.cpp:100] Creating Layer label_1_5x5_data_1_split
I0324 00:39:34.875641 25048 net.cpp:434] label_1_5x5_data_1_split <- label_1_5x5
I0324 00:39:34.875648 25048 net.cpp:408] label_1_5x5_data_1_split -> label_1_5x5_data_1_split_0
I0324 00:39:34.875659 25048 net.cpp:408] label_1_5x5_data_1_split -> label_1_5x5_data_1_split_1
I0324 00:39:34.875995 25048 net.cpp:150] Setting up label_1_5x5_data_1_split
I0324 00:39:34.876039 25048 net.cpp:157] Top shape: 2 6 96 96 (110592)
I0324 00:39:34.876051 25048 net.cpp:157] Top shape: 2 6 96 96 (110592)
I0324 00:39:34.876060 25048 net.cpp:165] Memory required for data: 20927260
I0324 00:39:34.876070 25048 layer_factory.hpp:77] Creating layer label_1_7x7_data_2_split
I0324 00:39:34.876096 25048 net.cpp:100] Creating Layer label_1_7x7_data_2_split
I0324 00:39:34.876107 25048 net.cpp:434] label_1_7x7_data_2_split <- label_1_7x7
I0324 00:39:34.876121 25048 net.cpp:408] label_1_7x7_data_2_split -> label_1_7x7_data_2_split_0
I0324 00:39:34.876140 25048 net.cpp:408] label_1_7x7_data_2_split -> label_1_7x7_data_2_split_1
I0324 00:39:34.876227 25048 net.cpp:150] Setting up label_1_7x7_data_2_split
I0324 00:39:34.876240 25048 net.cpp:157] Top shape: 2 6 96 96 (110592)
I0324 00:39:34.876250 25048 net.cpp:157] Top shape: 2 6 96 96 (110592)
I0324 00:39:34.876257 25048 net.cpp:165] Memory required for data: 21811996
I0324 00:39:34.876266 25048 layer_factory.hpp:77] Creating layer label_2_5x5_data_3_split
I0324 00:39:34.876281 25048 net.cpp:100] Creating Layer label_2_5x5_data_3_split
I0324 00:39:34.876291 25048 net.cpp:434] label_2_5x5_data_3_split <- label_2_5x5
I0324 00:39:34.876302 25048 net.cpp:408] label_2_5x5_data_3_split -> label_2_5x5_data_3_split_0
I0324 00:39:34.876317 25048 net.cpp:408] label_2_5x5_data_3_split -> label_2_5x5_data_3_split_1
I0324 00:39:34.876394 25048 net.cpp:150] Setting up label_2_5x5_data_3_split
I0324 00:39:34.876406 25048 net.cpp:157] Top shape: 2 6 48 48 (27648)
I0324 00:39:34.876415 25048 net.cpp:157] Top shape: 2 6 48 48 (27648)
I0324 00:39:34.876422 25048 net.cpp:165] Memory required for data: 22033180
I0324 00:39:34.876430 25048 layer_factory.hpp:77] Creating layer label_2_7x7_data_4_split
I0324 00:39:34.876444 25048 net.cpp:100] Creating Layer label_2_7x7_data_4_split
I0324 00:39:34.876454 25048 net.cpp:434] label_2_7x7_data_4_split <- label_2_7x7
I0324 00:39:34.876464 25048 net.cpp:408] label_2_7x7_data_4_split -> label_2_7x7_data_4_split_0
I0324 00:39:34.876477 25048 net.cpp:408] label_2_7x7_data_4_split -> label_2_7x7_data_4_split_1
I0324 00:39:34.876557 25048 net.cpp:150] Setting up label_2_7x7_data_4_split
I0324 00:39:34.876571 25048 net.cpp:157] Top shape: 2 6 48 48 (27648)
I0324 00:39:34.876582 25048 net.cpp:157] Top shape: 2 6 48 48 (27648)
I0324 00:39:34.876590 25048 net.cpp:165] Memory required for data: 22254364
I0324 00:39:34.876597 25048 layer_factory.hpp:77] Creating layer label_3_5x5_data_5_split
I0324 00:39:34.876607 25048 net.cpp:100] Creating Layer label_3_5x5_data_5_split
I0324 00:39:34.876616 25048 net.cpp:434] label_3_5x5_data_5_split <- label_3_5x5
I0324 00:39:34.876626 25048 net.cpp:408] label_3_5x5_data_5_split -> label_3_5x5_data_5_split_0
I0324 00:39:34.876638 25048 net.cpp:408] label_3_5x5_data_5_split -> label_3_5x5_data_5_split_1
I0324 00:39:34.876711 25048 net.cpp:150] Setting up label_3_5x5_data_5_split
I0324 00:39:34.876724 25048 net.cpp:157] Top shape: 2 6 24 24 (6912)
I0324 00:39:34.876734 25048 net.cpp:157] Top shape: 2 6 24 24 (6912)
I0324 00:39:34.876741 25048 net.cpp:165] Memory required for data: 22309660
I0324 00:39:34.876749 25048 layer_factory.hpp:77] Creating layer label_3_7x7_data_6_split
I0324 00:39:34.876757 25048 net.cpp:100] Creating Layer label_3_7x7_data_6_split
I0324 00:39:34.876765 25048 net.cpp:434] label_3_7x7_data_6_split <- label_3_7x7
I0324 00:39:34.876775 25048 net.cpp:408] label_3_7x7_data_6_split -> label_3_7x7_data_6_split_0
I0324 00:39:34.876786 25048 net.cpp:408] label_3_7x7_data_6_split -> label_3_7x7_data_6_split_1
I0324 00:39:34.876859 25048 net.cpp:150] Setting up label_3_7x7_data_6_split
I0324 00:39:34.876870 25048 net.cpp:157] Top shape: 2 6 24 24 (6912)
I0324 00:39:34.876880 25048 net.cpp:157] Top shape: 2 6 24 24 (6912)
I0324 00:39:34.876888 25048 net.cpp:165] Memory required for data: 22364956
I0324 00:39:34.876894 25048 layer_factory.hpp:77] Creating layer label_4_5x5_data_7_split
I0324 00:39:34.876904 25048 net.cpp:100] Creating Layer label_4_5x5_data_7_split
I0324 00:39:34.876911 25048 net.cpp:434] label_4_5x5_data_7_split <- label_4_5x5
I0324 00:39:34.876924 25048 net.cpp:408] label_4_5x5_data_7_split -> label_4_5x5_data_7_split_0
I0324 00:39:34.876935 25048 net.cpp:408] label_4_5x5_data_7_split -> label_4_5x5_data_7_split_1
I0324 00:39:34.877005 25048 net.cpp:150] Setting up label_4_5x5_data_7_split
I0324 00:39:34.877017 25048 net.cpp:157] Top shape: 2 6 12 12 (1728)
I0324 00:39:34.877027 25048 net.cpp:157] Top shape: 2 6 12 12 (1728)
I0324 00:39:34.877033 25048 net.cpp:165] Memory required for data: 22378780
I0324 00:39:34.877040 25048 layer_factory.hpp:77] Creating layer slice
I0324 00:39:34.877055 25048 net.cpp:100] Creating Layer slice
I0324 00:39:34.877063 25048 net.cpp:434] slice <- data
I0324 00:39:34.877074 25048 net.cpp:408] slice -> data123
I0324 00:39:34.877086 25048 net.cpp:408] slice -> ch4
I0324 00:39:34.877166 25048 net.cpp:150] Setting up slice
I0324 00:39:34.877178 25048 net.cpp:157] Top shape: 2 3 768 768 (3538944)
I0324 00:39:34.877187 25048 net.cpp:157] Top shape: 2 1 768 768 (1179648)
I0324 00:39:34.877193 25048 net.cpp:165] Memory required for data: 41253148
I0324 00:39:34.877202 25048 layer_factory.hpp:77] Creating layer conv1_1
I0324 00:39:34.877218 25048 net.cpp:100] Creating Layer conv1_1
I0324 00:39:34.877226 25048 net.cpp:434] conv1_1 <- data123
I0324 00:39:34.877238 25048 net.cpp:408] conv1_1 -> conv1_1
I0324 00:39:34.886066 25048 net.cpp:150] Setting up conv1_1
I0324 00:39:34.886103 25048 net.cpp:157] Top shape: 2 64 768 768 (75497472)
I0324 00:39:34.886112 25048 net.cpp:165] Memory required for data: 343243036
I0324 00:39:34.886137 25048 layer_factory.hpp:77] Creating layer relu1_1
I0324 00:39:34.886155 25048 net.cpp:100] Creating Layer relu1_1
I0324 00:39:34.886168 25048 net.cpp:434] relu1_1 <- conv1_1
I0324 00:39:34.886179 25048 net.cpp:395] relu1_1 -> conv1_1 (in-place)
I0324 00:39:34.886581 25048 net.cpp:150] Setting up relu1_1
I0324 00:39:34.886597 25048 net.cpp:157] Top shape: 2 64 768 768 (75497472)
I0324 00:39:34.886605 25048 net.cpp:165] Memory required for data: 645232924
I0324 00:39:34.886613 25048 layer_factory.hpp:77] Creating layer conv1_2
I0324 00:39:34.886631 25048 net.cpp:100] Creating Layer conv1_2
I0324 00:39:34.886641 25048 net.cpp:434] conv1_2 <- conv1_1
I0324 00:39:34.886653 25048 net.cpp:408] conv1_2 -> conv1_2
I0324 00:39:34.890992 25048 net.cpp:150] Setting up conv1_2
I0324 00:39:34.891012 25048 net.cpp:157] Top shape: 2 64 768 768 (75497472)
I0324 00:39:34.891017 25048 net.cpp:165] Memory required for data: 947222812
I0324 00:39:34.891028 25048 layer_factory.hpp:77] Creating layer relu1_2
I0324 00:39:34.891036 25048 net.cpp:100] Creating Layer relu1_2
I0324 00:39:34.891041 25048 net.cpp:434] relu1_2 <- conv1_2
I0324 00:39:34.891048 25048 net.cpp:395] relu1_2 -> conv1_2 (in-place)
I0324 00:39:34.891223 25048 net.cpp:150] Setting up relu1_2
I0324 00:39:34.891234 25048 net.cpp:157] Top shape: 2 64 768 768 (75497472)
I0324 00:39:34.891239 25048 net.cpp:165] Memory required for data: 1249212700
I0324 00:39:34.891243 25048 layer_factory.hpp:77] Creating layer pool1
I0324 00:39:34.891252 25048 net.cpp:100] Creating Layer pool1
I0324 00:39:34.891258 25048 net.cpp:434] pool1 <- conv1_2
I0324 00:39:34.891268 25048 net.cpp:408] pool1 -> pool1
I0324 00:39:34.891320 25048 net.cpp:150] Setting up pool1
I0324 00:39:34.891330 25048 net.cpp:157] Top shape: 2 64 384 384 (18874368)
I0324 00:39:34.891335 25048 net.cpp:165] Memory required for data: 1324710172
I0324 00:39:34.891340 25048 layer_factory.hpp:77] Creating layer conv2_1
I0324 00:39:34.891350 25048 net.cpp:100] Creating Layer conv2_1
I0324 00:39:34.891355 25048 net.cpp:434] conv2_1 <- pool1
I0324 00:39:34.891364 25048 net.cpp:408] conv2_1 -> conv2_1
I0324 00:39:34.892953 25048 net.cpp:150] Setting up conv2_1
I0324 00:39:34.892972 25048 net.cpp:157] Top shape: 2 128 384 384 (37748736)
I0324 00:39:34.892977 25048 net.cpp:165] Memory required for data: 1475705116
I0324 00:39:34.892990 25048 layer_factory.hpp:77] Creating layer relu2_1
I0324 00:39:34.893004 25048 net.cpp:100] Creating Layer relu2_1
I0324 00:39:34.893012 25048 net.cpp:434] relu2_1 <- conv2_1
I0324 00:39:34.893018 25048 net.cpp:395] relu2_1 -> conv2_1 (in-place)
I0324 00:39:34.893512 25048 net.cpp:150] Setting up relu2_1
I0324 00:39:34.893527 25048 net.cpp:157] Top shape: 2 128 384 384 (37748736)
I0324 00:39:34.893532 25048 net.cpp:165] Memory required for data: 1626700060
I0324 00:39:34.893537 25048 layer_factory.hpp:77] Creating layer conv2_2
I0324 00:39:34.893550 25048 net.cpp:100] Creating Layer conv2_2
I0324 00:39:34.893558 25048 net.cpp:434] conv2_2 <- conv2_1
I0324 00:39:34.893566 25048 net.cpp:408] conv2_2 -> conv2_2
I0324 00:39:34.896061 25048 net.cpp:150] Setting up conv2_2
I0324 00:39:34.896086 25048 net.cpp:157] Top shape: 2 128 384 384 (37748736)
I0324 00:39:34.896091 25048 net.cpp:165] Memory required for data: 1777695004
I0324 00:39:34.896104 25048 layer_factory.hpp:77] Creating layer relu2_2
I0324 00:39:34.896117 25048 net.cpp:100] Creating Layer relu2_2
I0324 00:39:34.896124 25048 net.cpp:434] relu2_2 <- conv2_2
I0324 00:39:34.896134 25048 net.cpp:395] relu2_2 -> conv2_2 (in-place)
I0324 00:39:34.896389 25048 net.cpp:150] Setting up relu2_2
I0324 00:39:34.896399 25048 net.cpp:157] Top shape: 2 128 384 384 (37748736)
I0324 00:39:34.896404 25048 net.cpp:165] Memory required for data: 1928689948
I0324 00:39:34.896409 25048 layer_factory.hpp:77] Creating layer pool2
I0324 00:39:34.896421 25048 net.cpp:100] Creating Layer pool2
I0324 00:39:34.896426 25048 net.cpp:434] pool2 <- conv2_2
I0324 00:39:34.896436 25048 net.cpp:408] pool2 -> pool2
I0324 00:39:34.896515 25048 net.cpp:150] Setting up pool2
I0324 00:39:34.896528 25048 net.cpp:157] Top shape: 2 128 192 192 (9437184)
I0324 00:39:34.896533 25048 net.cpp:165] Memory required for data: 1966438684
I0324 00:39:34.896538 25048 layer_factory.hpp:77] Creating layer conv3_1
I0324 00:39:34.896553 25048 net.cpp:100] Creating Layer conv3_1
I0324 00:39:34.896559 25048 net.cpp:434] conv3_1 <- pool2
I0324 00:39:34.896567 25048 net.cpp:408] conv3_1 -> conv3_1
I0324 00:39:34.898501 25048 net.cpp:150] Setting up conv3_1
I0324 00:39:34.898520 25048 net.cpp:157] Top shape: 2 256 192 192 (18874368)
I0324 00:39:34.898525 25048 net.cpp:165] Memory required for data: 2041936156
I0324 00:39:34.898541 25048 layer_factory.hpp:77] Creating layer relu3_1
I0324 00:39:34.898564 25048 net.cpp:100] Creating Layer relu3_1
I0324 00:39:34.898571 25048 net.cpp:434] relu3_1 <- conv3_1
I0324 00:39:34.898578 25048 net.cpp:395] relu3_1 -> conv3_1 (in-place)
I0324 00:39:34.898754 25048 net.cpp:150] Setting up relu3_1
I0324 00:39:34.898766 25048 net.cpp:157] Top shape: 2 256 192 192 (18874368)
I0324 00:39:34.898771 25048 net.cpp:165] Memory required for data: 2117433628
I0324 00:39:34.898775 25048 layer_factory.hpp:77] Creating layer conv3_2
I0324 00:39:34.898787 25048 net.cpp:100] Creating Layer conv3_2
I0324 00:39:34.898792 25048 net.cpp:434] conv3_2 <- conv3_1
I0324 00:39:34.898799 25048 net.cpp:408] conv3_2 -> conv3_2
I0324 00:39:34.901815 25048 net.cpp:150] Setting up conv3_2
I0324 00:39:34.901852 25048 net.cpp:157] Top shape: 2 256 192 192 (18874368)
I0324 00:39:34.901857 25048 net.cpp:165] Memory required for data: 2192931100
I0324 00:39:34.901870 25048 layer_factory.hpp:77] Creating layer relu3_2
I0324 00:39:34.901885 25048 net.cpp:100] Creating Layer relu3_2
I0324 00:39:34.901892 25048 net.cpp:434] relu3_2 <- conv3_2
I0324 00:39:34.901901 25048 net.cpp:395] relu3_2 -> conv3_2 (in-place)
I0324 00:39:34.902089 25048 net.cpp:150] Setting up relu3_2
I0324 00:39:34.902104 25048 net.cpp:157] Top shape: 2 256 192 192 (18874368)
I0324 00:39:34.902109 25048 net.cpp:165] Memory required for data: 2268428572
I0324 00:39:34.902114 25048 layer_factory.hpp:77] Creating layer conv3_3
I0324 00:39:34.902125 25048 net.cpp:100] Creating Layer conv3_3
I0324 00:39:34.902132 25048 net.cpp:434] conv3_3 <- conv3_2
I0324 00:39:34.902143 25048 net.cpp:408] conv3_3 -> conv3_3
I0324 00:39:34.904812 25048 net.cpp:150] Setting up conv3_3
I0324 00:39:34.904827 25048 net.cpp:157] Top shape: 2 256 192 192 (18874368)
I0324 00:39:34.904832 25048 net.cpp:165] Memory required for data: 2343926044
I0324 00:39:34.904842 25048 layer_factory.hpp:77] Creating layer relu3_3
I0324 00:39:34.904851 25048 net.cpp:100] Creating Layer relu3_3
I0324 00:39:34.904858 25048 net.cpp:434] relu3_3 <- conv3_3
I0324 00:39:34.904865 25048 net.cpp:395] relu3_3 -> conv3_3 (in-place)
I0324 00:39:34.905045 25048 net.cpp:150] Setting up relu3_3
I0324 00:39:34.905055 25048 net.cpp:157] Top shape: 2 256 192 192 (18874368)
I0324 00:39:34.905061 25048 net.cpp:165] Memory required for data: 2419423516
I0324 00:39:34.905066 25048 layer_factory.hpp:77] Creating layer pool3
I0324 00:39:34.905076 25048 net.cpp:100] Creating Layer pool3
I0324 00:39:34.905082 25048 net.cpp:434] pool3 <- conv3_3
I0324 00:39:34.905092 25048 net.cpp:408] pool3 -> pool3
I0324 00:39:34.905140 25048 net.cpp:150] Setting up pool3
I0324 00:39:34.905149 25048 net.cpp:157] Top shape: 2 256 96 96 (4718592)
I0324 00:39:34.905153 25048 net.cpp:165] Memory required for data: 2438297884
I0324 00:39:34.905158 25048 layer_factory.hpp:77] Creating layer conv4_1
I0324 00:39:34.905170 25048 net.cpp:100] Creating Layer conv4_1
I0324 00:39:34.905177 25048 net.cpp:434] conv4_1 <- pool3
I0324 00:39:34.905186 25048 net.cpp:408] conv4_1 -> conv4_1
I0324 00:39:34.908771 25048 net.cpp:150] Setting up conv4_1
I0324 00:39:34.908802 25048 net.cpp:157] Top shape: 2 512 96 96 (9437184)
I0324 00:39:34.908807 25048 net.cpp:165] Memory required for data: 2476046620
I0324 00:39:34.908818 25048 layer_factory.hpp:77] Creating layer relu4_1
I0324 00:39:34.908831 25048 net.cpp:100] Creating Layer relu4_1
I0324 00:39:34.908839 25048 net.cpp:434] relu4_1 <- conv4_1
I0324 00:39:34.908849 25048 net.cpp:395] relu4_1 -> conv4_1 (in-place)
I0324 00:39:34.909037 25048 net.cpp:150] Setting up relu4_1
I0324 00:39:34.909049 25048 net.cpp:157] Top shape: 2 512 96 96 (9437184)
I0324 00:39:34.909054 25048 net.cpp:165] Memory required for data: 2513795356
I0324 00:39:34.909060 25048 layer_factory.hpp:77] Creating layer conv4_2
I0324 00:39:34.909072 25048 net.cpp:100] Creating Layer conv4_2
I0324 00:39:34.909078 25048 net.cpp:434] conv4_2 <- conv4_1
I0324 00:39:34.909087 25048 net.cpp:408] conv4_2 -> conv4_2
I0324 00:39:34.915190 25048 net.cpp:150] Setting up conv4_2
I0324 00:39:34.915225 25048 net.cpp:157] Top shape: 2 512 96 96 (9437184)
I0324 00:39:34.915230 25048 net.cpp:165] Memory required for data: 2551544092
I0324 00:39:34.915247 25048 layer_factory.hpp:77] Creating layer relu4_2
I0324 00:39:34.915261 25048 net.cpp:100] Creating Layer relu4_2
I0324 00:39:34.915269 25048 net.cpp:434] relu4_2 <- conv4_2
I0324 00:39:34.915279 25048 net.cpp:395] relu4_2 -> conv4_2 (in-place)
I0324 00:39:34.915808 25048 net.cpp:150] Setting up relu4_2
I0324 00:39:34.915824 25048 net.cpp:157] Top shape: 2 512 96 96 (9437184)
I0324 00:39:34.915830 25048 net.cpp:165] Memory required for data: 2589292828
I0324 00:39:34.915838 25048 layer_factory.hpp:77] Creating layer conv4_3
I0324 00:39:34.915853 25048 net.cpp:100] Creating Layer conv4_3
I0324 00:39:34.915860 25048 net.cpp:434] conv4_3 <- conv4_2
I0324 00:39:34.915871 25048 net.cpp:408] conv4_3 -> conv4_3
I0324 00:39:34.923290 25048 net.cpp:150] Setting up conv4_3
I0324 00:39:34.923327 25048 net.cpp:157] Top shape: 2 512 96 96 (9437184)
I0324 00:39:34.923333 25048 net.cpp:165] Memory required for data: 2627041564
I0324 00:39:34.923346 25048 layer_factory.hpp:77] Creating layer relu4_3
I0324 00:39:34.923362 25048 net.cpp:100] Creating Layer relu4_3
I0324 00:39:34.923369 25048 net.cpp:434] relu4_3 <- conv4_3
I0324 00:39:34.923378 25048 net.cpp:395] relu4_3 -> conv4_3 (in-place)
I0324 00:39:34.923552 25048 net.cpp:150] Setting up relu4_3
I0324 00:39:34.923563 25048 net.cpp:157] Top shape: 2 512 96 96 (9437184)
I0324 00:39:34.923568 25048 net.cpp:165] Memory required for data: 2664790300
I0324 00:39:34.923573 25048 layer_factory.hpp:77] Creating layer conv4_3_relu4_3_0_split
I0324 00:39:34.923586 25048 net.cpp:100] Creating Layer conv4_3_relu4_3_0_split
I0324 00:39:34.923593 25048 net.cpp:434] conv4_3_relu4_3_0_split <- conv4_3
I0324 00:39:34.923601 25048 net.cpp:408] conv4_3_relu4_3_0_split -> conv4_3_relu4_3_0_split_0
I0324 00:39:34.923610 25048 net.cpp:408] conv4_3_relu4_3_0_split -> conv4_3_relu4_3_0_split_1
I0324 00:39:34.923619 25048 net.cpp:408] conv4_3_relu4_3_0_split -> conv4_3_relu4_3_0_split_2
I0324 00:39:34.923678 25048 net.cpp:150] Setting up conv4_3_relu4_3_0_split
I0324 00:39:34.923687 25048 net.cpp:157] Top shape: 2 512 96 96 (9437184)
I0324 00:39:34.923692 25048 net.cpp:157] Top shape: 2 512 96 96 (9437184)
I0324 00:39:34.923698 25048 net.cpp:157] Top shape: 2 512 96 96 (9437184)
I0324 00:39:34.923702 25048 net.cpp:165] Memory required for data: 2778036508
I0324 00:39:34.923707 25048 layer_factory.hpp:77] Creating layer loss1_conv1
I0324 00:39:34.923723 25048 net.cpp:100] Creating Layer loss1_conv1
I0324 00:39:34.923730 25048 net.cpp:434] loss1_conv1 <- conv4_3_relu4_3_0_split_0
I0324 00:39:34.923739 25048 net.cpp:408] loss1_conv1 -> loss1_conv1
I0324 00:39:34.986393 25048 net.cpp:150] Setting up loss1_conv1
I0324 00:39:34.986418 25048 net.cpp:157] Top shape: 2 512 96 96 (9437184)
I0324 00:39:34.986423 25048 net.cpp:165] Memory required for data: 2815785244
I0324 00:39:34.986430 25048 layer_factory.hpp:77] Creating layer loss_relu1
I0324 00:39:34.986441 25048 net.cpp:100] Creating Layer loss_relu1
I0324 00:39:34.986446 25048 net.cpp:434] loss_relu1 <- loss1_conv1
I0324 00:39:34.986451 25048 net.cpp:395] loss_relu1 -> loss1_conv1 (in-place)
I0324 00:39:34.986615 25048 net.cpp:150] Setting up loss_relu1
I0324 00:39:34.986624 25048 net.cpp:157] Top shape: 2 512 96 96 (9437184)
I0324 00:39:34.986627 25048 net.cpp:165] Memory required for data: 2853533980
I0324 00:39:34.986631 25048 layer_factory.hpp:77] Creating layer loss1_conv1_loss_relu1_0_split
I0324 00:39:34.986639 25048 net.cpp:100] Creating Layer loss1_conv1_loss_relu1_0_split
I0324 00:39:34.986642 25048 net.cpp:434] loss1_conv1_loss_relu1_0_split <- loss1_conv1
I0324 00:39:34.986647 25048 net.cpp:408] loss1_conv1_loss_relu1_0_split -> loss1_conv1_loss_relu1_0_split_0
I0324 00:39:34.986654 25048 net.cpp:408] loss1_conv1_loss_relu1_0_split -> loss1_conv1_loss_relu1_0_split_1
I0324 00:39:34.986692 25048 net.cpp:150] Setting up loss1_conv1_loss_relu1_0_split
I0324 00:39:34.986698 25048 net.cpp:157] Top shape: 2 512 96 96 (9437184)
I0324 00:39:34.986703 25048 net.cpp:157] Top shape: 2 512 96 96 (9437184)
I0324 00:39:34.986706 25048 net.cpp:165] Memory required for data: 2929031452
I0324 00:39:34.986709 25048 layer_factory.hpp:77] Creating layer LFCN_1_5x5
I0324 00:39:34.986721 25048 net.cpp:100] Creating Layer LFCN_1_5x5
I0324 00:39:34.986724 25048 net.cpp:434] LFCN_1_5x5 <- loss1_conv1_loss_relu1_0_split_0
I0324 00:39:34.986732 25048 net.cpp:408] LFCN_1_5x5 -> LFCN_1_5x5
I0324 00:39:34.992739 25048 net.cpp:150] Setting up LFCN_1_5x5
I0324 00:39:34.992759 25048 net.cpp:157] Top shape: 2 9 96 96 (165888)
I0324 00:39:34.992763 25048 net.cpp:165] Memory required for data: 2929695004
I0324 00:39:34.992771 25048 layer_factory.hpp:77] Creating layer LFCN_1_5x5_LFCN_1_5x5_0_split
I0324 00:39:34.992779 25048 net.cpp:100] Creating Layer LFCN_1_5x5_LFCN_1_5x5_0_split
I0324 00:39:34.992785 25048 net.cpp:434] LFCN_1_5x5_LFCN_1_5x5_0_split <- LFCN_1_5x5
I0324 00:39:34.992790 25048 net.cpp:408] LFCN_1_5x5_LFCN_1_5x5_0_split -> LFCN_1_5x5_LFCN_1_5x5_0_split_0
I0324 00:39:34.992797 25048 net.cpp:408] LFCN_1_5x5_LFCN_1_5x5_0_split -> LFCN_1_5x5_LFCN_1_5x5_0_split_1
I0324 00:39:34.992802 25048 net.cpp:408] LFCN_1_5x5_LFCN_1_5x5_0_split -> LFCN_1_5x5_LFCN_1_5x5_0_split_2
I0324 00:39:34.992854 25048 net.cpp:150] Setting up LFCN_1_5x5_LFCN_1_5x5_0_split
I0324 00:39:34.992861 25048 net.cpp:157] Top shape: 2 9 96 96 (165888)
I0324 00:39:34.992866 25048 net.cpp:157] Top shape: 2 9 96 96 (165888)
I0324 00:39:34.992871 25048 net.cpp:157] Top shape: 2 9 96 96 (165888)
I0324 00:39:34.992872 25048 net.cpp:165] Memory required for data: 2931685660
I0324 00:39:34.992877 25048 layer_factory.hpp:77] Creating layer detection_loss_1_5x5
I0324 00:39:34.992884 25048 net.cpp:100] Creating Layer detection_loss_1_5x5
I0324 00:39:34.992888 25048 net.cpp:434] detection_loss_1_5x5 <- LFCN_1_5x5_LFCN_1_5x5_0_split_0
I0324 00:39:34.992893 25048 net.cpp:434] detection_loss_1_5x5 <- label_1_5x5_data_1_split_0
I0324 00:39:34.992898 25048 net.cpp:408] detection_loss_1_5x5 -> loss_1_5x5
I0324 00:39:34.992907 25048 layer_factory.hpp:77] Creating layer detection_loss_1_5x5
I0324 00:39:34.993281 25048 net.cpp:150] Setting up detection_loss_1_5x5
I0324 00:39:34.993291 25048 net.cpp:157] Top shape: 1 1 1 2 (2)
I0324 00:39:34.993294 25048 net.cpp:160]     with loss weight 0.9
I0324 00:39:34.993306 25048 net.cpp:165] Memory required for data: 2931685668
I0324 00:39:34.993309 25048 layer_factory.hpp:77] Creating layer detection_accuracy_1_5x5
I0324 00:39:34.993316 25048 net.cpp:100] Creating Layer detection_accuracy_1_5x5
I0324 00:39:34.993320 25048 net.cpp:434] detection_accuracy_1_5x5 <- LFCN_1_5x5_LFCN_1_5x5_0_split_1
I0324 00:39:34.993324 25048 net.cpp:434] detection_accuracy_1_5x5 <- label_1_5x5_data_1_split_1
I0324 00:39:34.993330 25048 net.cpp:408] detection_accuracy_1_5x5 -> accuracy_1_5x5
I0324 00:39:34.993336 25048 net.cpp:408] detection_accuracy_1_5x5 -> boxiou_1_5x5
I0324 00:39:34.993377 25048 net.cpp:150] Setting up detection_accuracy_1_5x5
I0324 00:39:34.993383 25048 net.cpp:157] Top shape: 1 1 1 2 (2)
I0324 00:39:34.993387 25048 net.cpp:157] Top shape: 1 1 1 1 (1)
I0324 00:39:34.993391 25048 net.cpp:165] Memory required for data: 2931685680
I0324 00:39:34.993393 25048 layer_factory.hpp:77] Creating layer LFCN_1_7x7
I0324 00:39:34.993404 25048 net.cpp:100] Creating Layer LFCN_1_7x7
I0324 00:39:34.993410 25048 net.cpp:434] LFCN_1_7x7 <- loss1_conv1_loss_relu1_0_split_1
I0324 00:39:34.993415 25048 net.cpp:408] LFCN_1_7x7 -> LFCN_1_7x7
I0324 00:39:35.000689 25048 net.cpp:150] Setting up LFCN_1_7x7
I0324 00:39:35.000715 25048 net.cpp:157] Top shape: 2 9 96 96 (165888)
I0324 00:39:35.000718 25048 net.cpp:165] Memory required for data: 2932349232
I0324 00:39:35.000727 25048 layer_factory.hpp:77] Creating layer LFCN_1_7x7_LFCN_1_7x7_0_split
I0324 00:39:35.000738 25048 net.cpp:100] Creating Layer LFCN_1_7x7_LFCN_1_7x7_0_split
I0324 00:39:35.000746 25048 net.cpp:434] LFCN_1_7x7_LFCN_1_7x7_0_split <- LFCN_1_7x7
I0324 00:39:35.000751 25048 net.cpp:408] LFCN_1_7x7_LFCN_1_7x7_0_split -> LFCN_1_7x7_LFCN_1_7x7_0_split_0
I0324 00:39:35.000761 25048 net.cpp:408] LFCN_1_7x7_LFCN_1_7x7_0_split -> LFCN_1_7x7_LFCN_1_7x7_0_split_1
I0324 00:39:35.000766 25048 net.cpp:408] LFCN_1_7x7_LFCN_1_7x7_0_split -> LFCN_1_7x7_LFCN_1_7x7_0_split_2
I0324 00:39:35.000819 25048 net.cpp:150] Setting up LFCN_1_7x7_LFCN_1_7x7_0_split
I0324 00:39:35.000824 25048 net.cpp:157] Top shape: 2 9 96 96 (165888)
I0324 00:39:35.000828 25048 net.cpp:157] Top shape: 2 9 96 96 (165888)
I0324 00:39:35.000833 25048 net.cpp:157] Top shape: 2 9 96 96 (165888)
I0324 00:39:35.000835 25048 net.cpp:165] Memory required for data: 2934339888
I0324 00:39:35.000838 25048 layer_factory.hpp:77] Creating layer detection_loss_1_7x7
I0324 00:39:35.000847 25048 net.cpp:100] Creating Layer detection_loss_1_7x7
I0324 00:39:35.000851 25048 net.cpp:434] detection_loss_1_7x7 <- LFCN_1_7x7_LFCN_1_7x7_0_split_0
I0324 00:39:35.000857 25048 net.cpp:434] detection_loss_1_7x7 <- label_1_7x7_data_2_split_0
I0324 00:39:35.000864 25048 net.cpp:408] detection_loss_1_7x7 -> loss_1_7x7
I0324 00:39:35.000871 25048 layer_factory.hpp:77] Creating layer detection_loss_1_7x7
I0324 00:39:35.001266 25048 net.cpp:150] Setting up detection_loss_1_7x7
I0324 00:39:35.001276 25048 net.cpp:157] Top shape: 1 1 1 2 (2)
I0324 00:39:35.001279 25048 net.cpp:160]     with loss weight 0.9
I0324 00:39:35.001291 25048 net.cpp:165] Memory required for data: 2934339896
I0324 00:39:35.001294 25048 layer_factory.hpp:77] Creating layer detection_accuracy_1_7x7
I0324 00:39:35.001301 25048 net.cpp:100] Creating Layer detection_accuracy_1_7x7
I0324 00:39:35.001304 25048 net.cpp:434] detection_accuracy_1_7x7 <- LFCN_1_7x7_LFCN_1_7x7_0_split_1
I0324 00:39:35.001309 25048 net.cpp:434] detection_accuracy_1_7x7 <- label_1_7x7_data_2_split_1
I0324 00:39:35.001314 25048 net.cpp:408] detection_accuracy_1_7x7 -> accuracy_1_7x7
I0324 00:39:35.001323 25048 net.cpp:408] detection_accuracy_1_7x7 -> boxiou_1_7x7
I0324 00:39:35.001365 25048 net.cpp:150] Setting up detection_accuracy_1_7x7
I0324 00:39:35.001372 25048 net.cpp:157] Top shape: 1 1 1 2 (2)
I0324 00:39:35.001376 25048 net.cpp:157] Top shape: 1 1 1 1 (1)
I0324 00:39:35.001379 25048 net.cpp:165] Memory required for data: 2934339908
I0324 00:39:35.001384 25048 layer_factory.hpp:77] Creating layer pool4
I0324 00:39:35.001390 25048 net.cpp:100] Creating Layer pool4
I0324 00:39:35.001394 25048 net.cpp:434] pool4 <- conv4_3_relu4_3_0_split_1
I0324 00:39:35.001400 25048 net.cpp:408] pool4 -> pool4
I0324 00:39:35.001440 25048 net.cpp:150] Setting up pool4
I0324 00:39:35.001446 25048 net.cpp:157] Top shape: 2 512 48 48 (2359296)
I0324 00:39:35.001448 25048 net.cpp:165] Memory required for data: 2943777092
I0324 00:39:35.001452 25048 layer_factory.hpp:77] Creating layer ch4_pool4
I0324 00:39:35.001458 25048 net.cpp:100] Creating Layer ch4_pool4
I0324 00:39:35.001461 25048 net.cpp:434] ch4_pool4 <- ch4
I0324 00:39:35.001466 25048 net.cpp:408] ch4_pool4 -> ch4_pool4
I0324 00:39:35.001502 25048 net.cpp:150] Setting up ch4_pool4
I0324 00:39:35.001509 25048 net.cpp:157] Top shape: 2 1 48 48 (4608)
I0324 00:39:35.001513 25048 net.cpp:165] Memory required for data: 2943795524
I0324 00:39:35.001515 25048 layer_factory.hpp:77] Creating layer pool4_concat
I0324 00:39:35.001520 25048 net.cpp:100] Creating Layer pool4_concat
I0324 00:39:35.001523 25048 net.cpp:434] pool4_concat <- pool4
I0324 00:39:35.001528 25048 net.cpp:434] pool4_concat <- ch4_pool4
I0324 00:39:35.001533 25048 net.cpp:408] pool4_concat -> pool4_new
I0324 00:39:35.001555 25048 net.cpp:150] Setting up pool4_concat
I0324 00:39:35.001560 25048 net.cpp:157] Top shape: 2 513 48 48 (2363904)
I0324 00:39:35.001564 25048 net.cpp:165] Memory required for data: 2953251140
I0324 00:39:35.001566 25048 layer_factory.hpp:77] Creating layer conv5_1_new
I0324 00:39:35.001576 25048 net.cpp:100] Creating Layer conv5_1_new
I0324 00:39:35.001580 25048 net.cpp:434] conv5_1_new <- pool4_new
I0324 00:39:35.001585 25048 net.cpp:408] conv5_1_new -> conv5_1
I0324 00:39:35.007676 25048 net.cpp:150] Setting up conv5_1_new
I0324 00:39:35.007704 25048 net.cpp:157] Top shape: 2 512 48 48 (2359296)
I0324 00:39:35.007709 25048 net.cpp:165] Memory required for data: 2962688324
I0324 00:39:35.007717 25048 layer_factory.hpp:77] Creating layer relu5_1
I0324 00:39:35.007730 25048 net.cpp:100] Creating Layer relu5_1
I0324 00:39:35.007735 25048 net.cpp:434] relu5_1 <- conv5_1
I0324 00:39:35.007741 25048 net.cpp:395] relu5_1 -> conv5_1 (in-place)
I0324 00:39:35.007942 25048 net.cpp:150] Setting up relu5_1
I0324 00:39:35.007953 25048 net.cpp:157] Top shape: 2 512 48 48 (2359296)
I0324 00:39:35.007957 25048 net.cpp:165] Memory required for data: 2972125508
I0324 00:39:35.007962 25048 layer_factory.hpp:77] Creating layer conv5_2
I0324 00:39:35.007973 25048 net.cpp:100] Creating Layer conv5_2
I0324 00:39:35.007978 25048 net.cpp:434] conv5_2 <- conv5_1
I0324 00:39:35.007987 25048 net.cpp:408] conv5_2 -> conv5_2
I0324 00:39:35.013960 25048 net.cpp:150] Setting up conv5_2
I0324 00:39:35.013990 25048 net.cpp:157] Top shape: 2 512 48 48 (2359296)
I0324 00:39:35.013994 25048 net.cpp:165] Memory required for data: 2981562692
I0324 00:39:35.014003 25048 layer_factory.hpp:77] Creating layer relu5_2
I0324 00:39:35.014014 25048 net.cpp:100] Creating Layer relu5_2
I0324 00:39:35.014021 25048 net.cpp:434] relu5_2 <- conv5_2
I0324 00:39:35.014026 25048 net.cpp:395] relu5_2 -> conv5_2 (in-place)
I0324 00:39:35.014533 25048 net.cpp:150] Setting up relu5_2
I0324 00:39:35.014544 25048 net.cpp:157] Top shape: 2 512 48 48 (2359296)
I0324 00:39:35.014549 25048 net.cpp:165] Memory required for data: 2990999876
I0324 00:39:35.014551 25048 layer_factory.hpp:77] Creating layer conv5_3
I0324 00:39:35.014559 25048 net.cpp:100] Creating Layer conv5_3
I0324 00:39:35.014564 25048 net.cpp:434] conv5_3 <- conv5_2
I0324 00:39:35.014570 25048 net.cpp:408] conv5_3 -> conv5_3
I0324 00:39:35.021648 25048 net.cpp:150] Setting up conv5_3
I0324 00:39:35.021677 25048 net.cpp:157] Top shape: 2 512 48 48 (2359296)
I0324 00:39:35.021682 25048 net.cpp:165] Memory required for data: 3000437060
I0324 00:39:35.021692 25048 layer_factory.hpp:77] Creating layer relu5_3
I0324 00:39:35.021705 25048 net.cpp:100] Creating Layer relu5_3
I0324 00:39:35.021713 25048 net.cpp:434] relu5_3 <- conv5_3
I0324 00:39:35.021718 25048 net.cpp:395] relu5_3 -> conv5_3 (in-place)
I0324 00:39:35.021895 25048 net.cpp:150] Setting up relu5_3
I0324 00:39:35.021905 25048 net.cpp:157] Top shape: 2 512 48 48 (2359296)
I0324 00:39:35.021908 25048 net.cpp:165] Memory required for data: 3009874244
I0324 00:39:35.021911 25048 layer_factory.hpp:77] Creating layer conv5_3_relu5_3_0_split
I0324 00:39:35.021919 25048 net.cpp:100] Creating Layer conv5_3_relu5_3_0_split
I0324 00:39:35.021921 25048 net.cpp:434] conv5_3_relu5_3_0_split <- conv5_3
I0324 00:39:35.021927 25048 net.cpp:408] conv5_3_relu5_3_0_split -> conv5_3_relu5_3_0_split_0
I0324 00:39:35.021940 25048 net.cpp:408] conv5_3_relu5_3_0_split -> conv5_3_relu5_3_0_split_1
I0324 00:39:35.021965 25048 net.cpp:408] conv5_3_relu5_3_0_split -> conv5_3_relu5_3_0_split_2
I0324 00:39:35.022019 25048 net.cpp:150] Setting up conv5_3_relu5_3_0_split
I0324 00:39:35.022027 25048 net.cpp:157] Top shape: 2 512 48 48 (2359296)
I0324 00:39:35.022030 25048 net.cpp:157] Top shape: 2 512 48 48 (2359296)
I0324 00:39:35.022034 25048 net.cpp:157] Top shape: 2 512 48 48 (2359296)
I0324 00:39:35.022037 25048 net.cpp:165] Memory required for data: 3038185796
I0324 00:39:35.022040 25048 layer_factory.hpp:77] Creating layer LFCN_2_5x5
I0324 00:39:35.022052 25048 net.cpp:100] Creating Layer LFCN_2_5x5
I0324 00:39:35.022055 25048 net.cpp:434] LFCN_2_5x5 <- conv5_3_relu5_3_0_split_0
I0324 00:39:35.022063 25048 net.cpp:408] LFCN_2_5x5 -> LFCN_2_5x5
I0324 00:39:35.032515 25048 net.cpp:150] Setting up LFCN_2_5x5
I0324 00:39:35.032542 25048 net.cpp:157] Top shape: 2 9 48 48 (41472)
I0324 00:39:35.032547 25048 net.cpp:165] Memory required for data: 3038351684
I0324 00:39:35.032565 25048 layer_factory.hpp:77] Creating layer LFCN_2_5x5_LFCN_2_5x5_0_split
I0324 00:39:35.032580 25048 net.cpp:100] Creating Layer LFCN_2_5x5_LFCN_2_5x5_0_split
I0324 00:39:35.032586 25048 net.cpp:434] LFCN_2_5x5_LFCN_2_5x5_0_split <- LFCN_2_5x5
I0324 00:39:35.032594 25048 net.cpp:408] LFCN_2_5x5_LFCN_2_5x5_0_split -> LFCN_2_5x5_LFCN_2_5x5_0_split_0
I0324 00:39:35.032606 25048 net.cpp:408] LFCN_2_5x5_LFCN_2_5x5_0_split -> LFCN_2_5x5_LFCN_2_5x5_0_split_1
I0324 00:39:35.032618 25048 net.cpp:408] LFCN_2_5x5_LFCN_2_5x5_0_split -> LFCN_2_5x5_LFCN_2_5x5_0_split_2
I0324 00:39:35.032682 25048 net.cpp:150] Setting up LFCN_2_5x5_LFCN_2_5x5_0_split
I0324 00:39:35.032691 25048 net.cpp:157] Top shape: 2 9 48 48 (41472)
I0324 00:39:35.032696 25048 net.cpp:157] Top shape: 2 9 48 48 (41472)
I0324 00:39:35.032702 25048 net.cpp:157] Top shape: 2 9 48 48 (41472)
I0324 00:39:35.032707 25048 net.cpp:165] Memory required for data: 3038849348
I0324 00:39:35.032711 25048 layer_factory.hpp:77] Creating layer detection_loss_2_5x5
I0324 00:39:35.032721 25048 net.cpp:100] Creating Layer detection_loss_2_5x5
I0324 00:39:35.032724 25048 net.cpp:434] detection_loss_2_5x5 <- LFCN_2_5x5_LFCN_2_5x5_0_split_0
I0324 00:39:35.032732 25048 net.cpp:434] detection_loss_2_5x5 <- label_2_5x5_data_3_split_0
I0324 00:39:35.032739 25048 net.cpp:408] detection_loss_2_5x5 -> loss_2_5x5
I0324 00:39:35.032752 25048 layer_factory.hpp:77] Creating layer detection_loss_2_5x5
I0324 00:39:35.033555 25048 net.cpp:150] Setting up detection_loss_2_5x5
I0324 00:39:35.033568 25048 net.cpp:157] Top shape: 1 1 1 2 (2)
I0324 00:39:35.033572 25048 net.cpp:160]     with loss weight 1
I0324 00:39:35.033583 25048 net.cpp:165] Memory required for data: 3038849356
I0324 00:39:35.033587 25048 layer_factory.hpp:77] Creating layer detection_accuracy_2_5x5
I0324 00:39:35.033597 25048 net.cpp:100] Creating Layer detection_accuracy_2_5x5
I0324 00:39:35.033601 25048 net.cpp:434] detection_accuracy_2_5x5 <- LFCN_2_5x5_LFCN_2_5x5_0_split_1
I0324 00:39:35.033607 25048 net.cpp:434] detection_accuracy_2_5x5 <- label_2_5x5_data_3_split_1
I0324 00:39:35.033617 25048 net.cpp:408] detection_accuracy_2_5x5 -> accuracy_2_5x5
I0324 00:39:35.033627 25048 net.cpp:408] detection_accuracy_2_5x5 -> boxiou_2_5x5
I0324 00:39:35.033676 25048 net.cpp:150] Setting up detection_accuracy_2_5x5
I0324 00:39:35.033684 25048 net.cpp:157] Top shape: 1 1 1 2 (2)
I0324 00:39:35.033689 25048 net.cpp:157] Top shape: 1 1 1 1 (1)
I0324 00:39:35.033694 25048 net.cpp:165] Memory required for data: 3038849368
I0324 00:39:35.033696 25048 layer_factory.hpp:77] Creating layer LFCN_2_7x7
I0324 00:39:35.033710 25048 net.cpp:100] Creating Layer LFCN_2_7x7
I0324 00:39:35.033715 25048 net.cpp:434] LFCN_2_7x7 <- conv5_3_relu5_3_0_split_1
I0324 00:39:35.033725 25048 net.cpp:408] LFCN_2_7x7 -> LFCN_2_7x7
I0324 00:39:35.040177 25048 net.cpp:150] Setting up LFCN_2_7x7
I0324 00:39:35.040191 25048 net.cpp:157] Top shape: 2 9 48 48 (41472)
I0324 00:39:35.040195 25048 net.cpp:165] Memory required for data: 3039015256
I0324 00:39:35.040201 25048 layer_factory.hpp:77] Creating layer LFCN_2_7x7_LFCN_2_7x7_0_split
I0324 00:39:35.040208 25048 net.cpp:100] Creating Layer LFCN_2_7x7_LFCN_2_7x7_0_split
I0324 00:39:35.040212 25048 net.cpp:434] LFCN_2_7x7_LFCN_2_7x7_0_split <- LFCN_2_7x7
I0324 00:39:35.040218 25048 net.cpp:408] LFCN_2_7x7_LFCN_2_7x7_0_split -> LFCN_2_7x7_LFCN_2_7x7_0_split_0
I0324 00:39:35.040225 25048 net.cpp:408] LFCN_2_7x7_LFCN_2_7x7_0_split -> LFCN_2_7x7_LFCN_2_7x7_0_split_1
I0324 00:39:35.040230 25048 net.cpp:408] LFCN_2_7x7_LFCN_2_7x7_0_split -> LFCN_2_7x7_LFCN_2_7x7_0_split_2
I0324 00:39:35.040283 25048 net.cpp:150] Setting up LFCN_2_7x7_LFCN_2_7x7_0_split
I0324 00:39:35.040288 25048 net.cpp:157] Top shape: 2 9 48 48 (41472)
I0324 00:39:35.040292 25048 net.cpp:157] Top shape: 2 9 48 48 (41472)
I0324 00:39:35.040297 25048 net.cpp:157] Top shape: 2 9 48 48 (41472)
I0324 00:39:35.040299 25048 net.cpp:165] Memory required for data: 3039512920
I0324 00:39:35.040302 25048 layer_factory.hpp:77] Creating layer detection_loss_2_7x7
I0324 00:39:35.040309 25048 net.cpp:100] Creating Layer detection_loss_2_7x7
I0324 00:39:35.040313 25048 net.cpp:434] detection_loss_2_7x7 <- LFCN_2_7x7_LFCN_2_7x7_0_split_0
I0324 00:39:35.040318 25048 net.cpp:434] detection_loss_2_7x7 <- label_2_7x7_data_4_split_0
I0324 00:39:35.040323 25048 net.cpp:408] detection_loss_2_7x7 -> loss_2_7x7
I0324 00:39:35.040328 25048 layer_factory.hpp:77] Creating layer detection_loss_2_7x7
I0324 00:39:35.040669 25048 net.cpp:150] Setting up detection_loss_2_7x7
I0324 00:39:35.040678 25048 net.cpp:157] Top shape: 1 1 1 2 (2)
I0324 00:39:35.040681 25048 net.cpp:160]     with loss weight 1
I0324 00:39:35.040688 25048 net.cpp:165] Memory required for data: 3039512928
I0324 00:39:35.040691 25048 layer_factory.hpp:77] Creating layer detection_accuracy_2_7x7
I0324 00:39:35.040697 25048 net.cpp:100] Creating Layer detection_accuracy_2_7x7
I0324 00:39:35.040701 25048 net.cpp:434] detection_accuracy_2_7x7 <- LFCN_2_7x7_LFCN_2_7x7_0_split_1
I0324 00:39:35.040706 25048 net.cpp:434] detection_accuracy_2_7x7 <- label_2_7x7_data_4_split_1
I0324 00:39:35.040712 25048 net.cpp:408] detection_accuracy_2_7x7 -> accuracy_2_7x7
I0324 00:39:35.040719 25048 net.cpp:408] detection_accuracy_2_7x7 -> boxiou_2_7x7
I0324 00:39:35.040755 25048 net.cpp:150] Setting up detection_accuracy_2_7x7
I0324 00:39:35.040762 25048 net.cpp:157] Top shape: 1 1 1 2 (2)
I0324 00:39:35.040766 25048 net.cpp:157] Top shape: 1 1 1 1 (1)
I0324 00:39:35.040769 25048 net.cpp:165] Memory required for data: 3039512940
I0324 00:39:35.040772 25048 layer_factory.hpp:77] Creating layer pool5
I0324 00:39:35.040781 25048 net.cpp:100] Creating Layer pool5
I0324 00:39:35.040784 25048 net.cpp:434] pool5 <- conv5_3_relu5_3_0_split_2
I0324 00:39:35.040791 25048 net.cpp:408] pool5 -> pool5
I0324 00:39:35.040827 25048 net.cpp:150] Setting up pool5
I0324 00:39:35.040833 25048 net.cpp:157] Top shape: 2 512 24 24 (589824)
I0324 00:39:35.040837 25048 net.cpp:165] Memory required for data: 3041872236
I0324 00:39:35.040840 25048 layer_factory.hpp:77] Creating layer conv6_1
I0324 00:39:35.040848 25048 net.cpp:100] Creating Layer conv6_1
I0324 00:39:35.040853 25048 net.cpp:434] conv6_1 <- pool5
I0324 00:39:35.040859 25048 net.cpp:408] conv6_1 -> conv6_1
I0324 00:39:35.102005 25048 net.cpp:150] Setting up conv6_1
I0324 00:39:35.102032 25048 net.cpp:157] Top shape: 2 512 24 24 (589824)
I0324 00:39:35.102036 25048 net.cpp:165] Memory required for data: 3044231532
I0324 00:39:35.102044 25048 layer_factory.hpp:77] Creating layer relu6_1
I0324 00:39:35.102061 25048 net.cpp:100] Creating Layer relu6_1
I0324 00:39:35.102068 25048 net.cpp:434] relu6_1 <- conv6_1
I0324 00:39:35.102074 25048 net.cpp:395] relu6_1 -> conv6_1 (in-place)
I0324 00:39:35.102242 25048 net.cpp:150] Setting up relu6_1
I0324 00:39:35.102252 25048 net.cpp:157] Top shape: 2 512 24 24 (589824)
I0324 00:39:35.102255 25048 net.cpp:165] Memory required for data: 3046590828
I0324 00:39:35.102259 25048 layer_factory.hpp:77] Creating layer conv6_1_relu6_1_0_split
I0324 00:39:35.102267 25048 net.cpp:100] Creating Layer conv6_1_relu6_1_0_split
I0324 00:39:35.102270 25048 net.cpp:434] conv6_1_relu6_1_0_split <- conv6_1
I0324 00:39:35.102277 25048 net.cpp:408] conv6_1_relu6_1_0_split -> conv6_1_relu6_1_0_split_0
I0324 00:39:35.102283 25048 net.cpp:408] conv6_1_relu6_1_0_split -> conv6_1_relu6_1_0_split_1
I0324 00:39:35.102289 25048 net.cpp:408] conv6_1_relu6_1_0_split -> conv6_1_relu6_1_0_split_2
I0324 00:39:35.102341 25048 net.cpp:150] Setting up conv6_1_relu6_1_0_split
I0324 00:39:35.102349 25048 net.cpp:157] Top shape: 2 512 24 24 (589824)
I0324 00:39:35.102352 25048 net.cpp:157] Top shape: 2 512 24 24 (589824)
I0324 00:39:35.102356 25048 net.cpp:157] Top shape: 2 512 24 24 (589824)
I0324 00:39:35.102360 25048 net.cpp:165] Memory required for data: 3053668716
I0324 00:39:35.102363 25048 layer_factory.hpp:77] Creating layer LFCN_3_5x5
I0324 00:39:35.102375 25048 net.cpp:100] Creating Layer LFCN_3_5x5
I0324 00:39:35.102380 25048 net.cpp:434] LFCN_3_5x5 <- conv6_1_relu6_1_0_split_0
I0324 00:39:35.102385 25048 net.cpp:408] LFCN_3_5x5 -> LFCN_3_5x5
I0324 00:39:35.106192 25048 net.cpp:150] Setting up LFCN_3_5x5
I0324 00:39:35.106204 25048 net.cpp:157] Top shape: 2 9 24 24 (10368)
I0324 00:39:35.106207 25048 net.cpp:165] Memory required for data: 3053710188
I0324 00:39:35.106212 25048 layer_factory.hpp:77] Creating layer LFCN_3_5x5_LFCN_3_5x5_0_split
I0324 00:39:35.106217 25048 net.cpp:100] Creating Layer LFCN_3_5x5_LFCN_3_5x5_0_split
I0324 00:39:35.106220 25048 net.cpp:434] LFCN_3_5x5_LFCN_3_5x5_0_split <- LFCN_3_5x5
I0324 00:39:35.106225 25048 net.cpp:408] LFCN_3_5x5_LFCN_3_5x5_0_split -> LFCN_3_5x5_LFCN_3_5x5_0_split_0
I0324 00:39:35.106230 25048 net.cpp:408] LFCN_3_5x5_LFCN_3_5x5_0_split -> LFCN_3_5x5_LFCN_3_5x5_0_split_1
I0324 00:39:35.106235 25048 net.cpp:408] LFCN_3_5x5_LFCN_3_5x5_0_split -> LFCN_3_5x5_LFCN_3_5x5_0_split_2
I0324 00:39:35.106281 25048 net.cpp:150] Setting up LFCN_3_5x5_LFCN_3_5x5_0_split
I0324 00:39:35.106287 25048 net.cpp:157] Top shape: 2 9 24 24 (10368)
I0324 00:39:35.106290 25048 net.cpp:157] Top shape: 2 9 24 24 (10368)
I0324 00:39:35.106294 25048 net.cpp:157] Top shape: 2 9 24 24 (10368)
I0324 00:39:35.106297 25048 net.cpp:165] Memory required for data: 3053834604
I0324 00:39:35.106302 25048 layer_factory.hpp:77] Creating layer detection_loss_3_5x5
I0324 00:39:35.106308 25048 net.cpp:100] Creating Layer detection_loss_3_5x5
I0324 00:39:35.106312 25048 net.cpp:434] detection_loss_3_5x5 <- LFCN_3_5x5_LFCN_3_5x5_0_split_0
I0324 00:39:35.106317 25048 net.cpp:434] detection_loss_3_5x5 <- label_3_5x5_data_5_split_0
I0324 00:39:35.106323 25048 net.cpp:408] detection_loss_3_5x5 -> loss_3_5x5
I0324 00:39:35.106330 25048 layer_factory.hpp:77] Creating layer detection_loss_3_5x5
I0324 00:39:35.106662 25048 net.cpp:150] Setting up detection_loss_3_5x5
I0324 00:39:35.106670 25048 net.cpp:157] Top shape: 1 1 1 2 (2)
I0324 00:39:35.106674 25048 net.cpp:160]     with loss weight 1
I0324 00:39:35.106684 25048 net.cpp:165] Memory required for data: 3053834612
I0324 00:39:35.106688 25048 layer_factory.hpp:77] Creating layer detection_accuracy_3_5x5
I0324 00:39:35.106694 25048 net.cpp:100] Creating Layer detection_accuracy_3_5x5
I0324 00:39:35.106698 25048 net.cpp:434] detection_accuracy_3_5x5 <- LFCN_3_5x5_LFCN_3_5x5_0_split_1
I0324 00:39:35.106703 25048 net.cpp:434] detection_accuracy_3_5x5 <- label_3_5x5_data_5_split_1
I0324 00:39:35.106709 25048 net.cpp:408] detection_accuracy_3_5x5 -> accuracy_3_5x5
I0324 00:39:35.106717 25048 net.cpp:408] detection_accuracy_3_5x5 -> boxiou_3_5x5
I0324 00:39:35.106755 25048 net.cpp:150] Setting up detection_accuracy_3_5x5
I0324 00:39:35.106761 25048 net.cpp:157] Top shape: 1 1 1 2 (2)
I0324 00:39:35.106765 25048 net.cpp:157] Top shape: 1 1 1 1 (1)
I0324 00:39:35.106768 25048 net.cpp:165] Memory required for data: 3053834624
I0324 00:39:35.106771 25048 layer_factory.hpp:77] Creating layer LFCN_3_7x7
I0324 00:39:35.106787 25048 net.cpp:100] Creating Layer LFCN_3_7x7
I0324 00:39:35.106793 25048 net.cpp:434] LFCN_3_7x7 <- conv6_1_relu6_1_0_split_1
I0324 00:39:35.106799 25048 net.cpp:408] LFCN_3_7x7 -> LFCN_3_7x7
I0324 00:39:35.114477 25048 net.cpp:150] Setting up LFCN_3_7x7
I0324 00:39:35.114493 25048 net.cpp:157] Top shape: 2 9 24 24 (10368)
I0324 00:39:35.114496 25048 net.cpp:165] Memory required for data: 3053876096
I0324 00:39:35.114503 25048 layer_factory.hpp:77] Creating layer LFCN_3_7x7_LFCN_3_7x7_0_split
I0324 00:39:35.114508 25048 net.cpp:100] Creating Layer LFCN_3_7x7_LFCN_3_7x7_0_split
I0324 00:39:35.114514 25048 net.cpp:434] LFCN_3_7x7_LFCN_3_7x7_0_split <- LFCN_3_7x7
I0324 00:39:35.114519 25048 net.cpp:408] LFCN_3_7x7_LFCN_3_7x7_0_split -> LFCN_3_7x7_LFCN_3_7x7_0_split_0
I0324 00:39:35.114526 25048 net.cpp:408] LFCN_3_7x7_LFCN_3_7x7_0_split -> LFCN_3_7x7_LFCN_3_7x7_0_split_1
I0324 00:39:35.114531 25048 net.cpp:408] LFCN_3_7x7_LFCN_3_7x7_0_split -> LFCN_3_7x7_LFCN_3_7x7_0_split_2
I0324 00:39:35.114583 25048 net.cpp:150] Setting up LFCN_3_7x7_LFCN_3_7x7_0_split
I0324 00:39:35.114591 25048 net.cpp:157] Top shape: 2 9 24 24 (10368)
I0324 00:39:35.114595 25048 net.cpp:157] Top shape: 2 9 24 24 (10368)
I0324 00:39:35.114599 25048 net.cpp:157] Top shape: 2 9 24 24 (10368)
I0324 00:39:35.114603 25048 net.cpp:165] Memory required for data: 3054000512
I0324 00:39:35.114606 25048 layer_factory.hpp:77] Creating layer detection_loss_3_7x7
I0324 00:39:35.114612 25048 net.cpp:100] Creating Layer detection_loss_3_7x7
I0324 00:39:35.114616 25048 net.cpp:434] detection_loss_3_7x7 <- LFCN_3_7x7_LFCN_3_7x7_0_split_0
I0324 00:39:35.114620 25048 net.cpp:434] detection_loss_3_7x7 <- label_3_7x7_data_6_split_0
I0324 00:39:35.114625 25048 net.cpp:408] detection_loss_3_7x7 -> loss_3_7x7
I0324 00:39:35.114634 25048 layer_factory.hpp:77] Creating layer detection_loss_3_7x7
I0324 00:39:35.115320 25048 net.cpp:150] Setting up detection_loss_3_7x7
I0324 00:39:35.115332 25048 net.cpp:157] Top shape: 1 1 1 2 (2)
I0324 00:39:35.115336 25048 net.cpp:160]     with loss weight 1
I0324 00:39:35.115342 25048 net.cpp:165] Memory required for data: 3054000520
I0324 00:39:35.115346 25048 layer_factory.hpp:77] Creating layer detection_accuracy_3_7x7
I0324 00:39:35.115353 25048 net.cpp:100] Creating Layer detection_accuracy_3_7x7
I0324 00:39:35.115358 25048 net.cpp:434] detection_accuracy_3_7x7 <- LFCN_3_7x7_LFCN_3_7x7_0_split_1
I0324 00:39:35.115363 25048 net.cpp:434] detection_accuracy_3_7x7 <- label_3_7x7_data_6_split_1
I0324 00:39:35.115368 25048 net.cpp:408] detection_accuracy_3_7x7 -> accuracy_3_7x7
I0324 00:39:35.115375 25048 net.cpp:408] detection_accuracy_3_7x7 -> boxiou_3_7x7
I0324 00:39:35.115414 25048 net.cpp:150] Setting up detection_accuracy_3_7x7
I0324 00:39:35.115422 25048 net.cpp:157] Top shape: 1 1 1 2 (2)
I0324 00:39:35.115425 25048 net.cpp:157] Top shape: 1 1 1 1 (1)
I0324 00:39:35.115428 25048 net.cpp:165] Memory required for data: 3054000532
I0324 00:39:35.115432 25048 layer_factory.hpp:77] Creating layer pool6
I0324 00:39:35.115439 25048 net.cpp:100] Creating Layer pool6
I0324 00:39:35.115443 25048 net.cpp:434] pool6 <- conv6_1_relu6_1_0_split_2
I0324 00:39:35.115448 25048 net.cpp:408] pool6 -> pool6
I0324 00:39:35.115487 25048 net.cpp:150] Setting up pool6
I0324 00:39:35.115494 25048 net.cpp:157] Top shape: 2 512 12 12 (147456)
I0324 00:39:35.115497 25048 net.cpp:165] Memory required for data: 3054590356
I0324 00:39:35.115501 25048 layer_factory.hpp:77] Creating layer LFCN_4_5x5
I0324 00:39:35.115509 25048 net.cpp:100] Creating Layer LFCN_4_5x5
I0324 00:39:35.115514 25048 net.cpp:434] LFCN_4_5x5 <- pool6
I0324 00:39:35.115520 25048 net.cpp:408] LFCN_4_5x5 -> LFCN_4_5x5
I0324 00:39:35.119452 25048 net.cpp:150] Setting up LFCN_4_5x5
I0324 00:39:35.119467 25048 net.cpp:157] Top shape: 2 9 12 12 (2592)
I0324 00:39:35.119470 25048 net.cpp:165] Memory required for data: 3054600724
I0324 00:39:35.119477 25048 layer_factory.hpp:77] Creating layer LFCN_4_5x5_LFCN_4_5x5_0_split
I0324 00:39:35.119482 25048 net.cpp:100] Creating Layer LFCN_4_5x5_LFCN_4_5x5_0_split
I0324 00:39:35.119488 25048 net.cpp:434] LFCN_4_5x5_LFCN_4_5x5_0_split <- LFCN_4_5x5
I0324 00:39:35.119493 25048 net.cpp:408] LFCN_4_5x5_LFCN_4_5x5_0_split -> LFCN_4_5x5_LFCN_4_5x5_0_split_0
I0324 00:39:35.119501 25048 net.cpp:408] LFCN_4_5x5_LFCN_4_5x5_0_split -> LFCN_4_5x5_LFCN_4_5x5_0_split_1
I0324 00:39:35.119508 25048 net.cpp:408] LFCN_4_5x5_LFCN_4_5x5_0_split -> LFCN_4_5x5_LFCN_4_5x5_0_split_2
I0324 00:39:35.119562 25048 net.cpp:150] Setting up LFCN_4_5x5_LFCN_4_5x5_0_split
I0324 00:39:35.119570 25048 net.cpp:157] Top shape: 2 9 12 12 (2592)
I0324 00:39:35.119573 25048 net.cpp:157] Top shape: 2 9 12 12 (2592)
I0324 00:39:35.119578 25048 net.cpp:157] Top shape: 2 9 12 12 (2592)
I0324 00:39:35.119583 25048 net.cpp:165] Memory required for data: 3054631828
I0324 00:39:35.119586 25048 layer_factory.hpp:77] Creating layer detection_loss_4_5x5
I0324 00:39:35.119594 25048 net.cpp:100] Creating Layer detection_loss_4_5x5
I0324 00:39:35.119598 25048 net.cpp:434] detection_loss_4_5x5 <- LFCN_4_5x5_LFCN_4_5x5_0_split_0
I0324 00:39:35.119603 25048 net.cpp:434] detection_loss_4_5x5 <- label_4_5x5_data_7_split_0
I0324 00:39:35.119608 25048 net.cpp:408] detection_loss_4_5x5 -> loss_4_5x5
I0324 00:39:35.119616 25048 layer_factory.hpp:77] Creating layer detection_loss_4_5x5
I0324 00:39:35.119943 25048 net.cpp:150] Setting up detection_loss_4_5x5
I0324 00:39:35.119952 25048 net.cpp:157] Top shape: 1 1 1 2 (2)
I0324 00:39:35.119956 25048 net.cpp:160]     with loss weight 1
I0324 00:39:35.119961 25048 net.cpp:165] Memory required for data: 3054631836
I0324 00:39:35.119966 25048 layer_factory.hpp:77] Creating layer detection_accuracy_4_5x5
I0324 00:39:35.119971 25048 net.cpp:100] Creating Layer detection_accuracy_4_5x5
I0324 00:39:35.119976 25048 net.cpp:434] detection_accuracy_4_5x5 <- LFCN_4_5x5_LFCN_4_5x5_0_split_1
I0324 00:39:35.119980 25048 net.cpp:434] detection_accuracy_4_5x5 <- label_4_5x5_data_7_split_1
I0324 00:39:35.119985 25048 net.cpp:408] detection_accuracy_4_5x5 -> accuracy_4_5x5
I0324 00:39:35.119992 25048 net.cpp:408] detection_accuracy_4_5x5 -> boxiou_4_5x5
I0324 00:39:35.120030 25048 net.cpp:150] Setting up detection_accuracy_4_5x5
I0324 00:39:35.120038 25048 net.cpp:157] Top shape: 1 1 1 2 (2)
I0324 00:39:35.120041 25048 net.cpp:157] Top shape: 1 1 1 1 (1)
I0324 00:39:35.120044 25048 net.cpp:165] Memory required for data: 3054631848
I0324 00:39:35.120048 25048 layer_factory.hpp:77] Creating layer proposals
I0324 00:39:35.120054 25048 net.cpp:100] Creating Layer proposals
I0324 00:39:35.120059 25048 net.cpp:434] proposals <- LFCN_1_5x5_LFCN_1_5x5_0_split_2
I0324 00:39:35.120065 25048 net.cpp:434] proposals <- LFCN_1_7x7_LFCN_1_7x7_0_split_2
I0324 00:39:35.120070 25048 net.cpp:434] proposals <- LFCN_2_5x5_LFCN_2_5x5_0_split_2
I0324 00:39:35.120074 25048 net.cpp:434] proposals <- LFCN_2_7x7_LFCN_2_7x7_0_split_2
I0324 00:39:35.120077 25048 net.cpp:434] proposals <- LFCN_3_5x5_LFCN_3_5x5_0_split_2
I0324 00:39:35.120081 25048 net.cpp:434] proposals <- LFCN_3_7x7_LFCN_3_7x7_0_split_2
I0324 00:39:35.120085 25048 net.cpp:434] proposals <- LFCN_4_5x5_LFCN_4_5x5_0_split_2
I0324 00:39:35.120090 25048 net.cpp:408] proposals -> proposals
I0324 00:39:35.120117 25048 net.cpp:150] Setting up proposals
I0324 00:39:35.120123 25048 net.cpp:157] Top shape: 1 5 1 1 (5)
I0324 00:39:35.120126 25048 net.cpp:165] Memory required for data: 3054631868
I0324 00:39:35.120131 25048 layer_factory.hpp:77] Creating layer proposal_info
I0324 00:39:35.120137 25048 net.cpp:100] Creating Layer proposal_info
I0324 00:39:35.120141 25048 net.cpp:434] proposal_info <- proposals
I0324 00:39:35.120146 25048 net.cpp:434] proposal_info <- gt_boxes
I0324 00:39:35.120152 25048 net.cpp:408] proposal_info -> rois
I0324 00:39:35.120159 25048 net.cpp:408] proposal_info -> proposal_labels
I0324 00:39:35.120167 25048 net.cpp:408] proposal_info -> proposal_targets
I0324 00:39:35.120173 25048 net.cpp:408] proposal_info -> box_inside_weights
I0324 00:39:35.120179 25048 net.cpp:408] proposal_info -> box_outside_weights
I0324 00:39:35.120185 25048 net.cpp:408] proposal_info -> match_gt_boxes
I0324 00:39:35.120276 25048 net.cpp:150] Setting up proposal_info
I0324 00:39:35.120285 25048 net.cpp:157] Top shape: 128 5 1 1 (640)
I0324 00:39:35.120288 25048 net.cpp:157] Top shape: 128 1 1 1 (128)
I0324 00:39:35.120292 25048 net.cpp:157] Top shape: 128 20 1 1 (2560)
I0324 00:39:35.120296 25048 net.cpp:157] Top shape: 128 20 1 1 (2560)
I0324 00:39:35.120301 25048 net.cpp:157] Top shape: 128 20 1 1 (2560)
I0324 00:39:35.120306 25048 net.cpp:157] Top shape: 128 6 1 1 (768)
I0324 00:39:35.120309 25048 net.cpp:165] Memory required for data: 3054668732
I0324 00:39:35.120313 25048 layer_factory.hpp:77] Creating layer rois_proposal_info_0_split
I0324 00:39:35.120319 25048 net.cpp:100] Creating Layer rois_proposal_info_0_split
I0324 00:39:35.120322 25048 net.cpp:434] rois_proposal_info_0_split <- rois
I0324 00:39:35.120327 25048 net.cpp:408] rois_proposal_info_0_split -> rois_proposal_info_0_split_0
I0324 00:39:35.120333 25048 net.cpp:408] rois_proposal_info_0_split -> rois_proposal_info_0_split_1
I0324 00:39:35.120338 25048 net.cpp:408] rois_proposal_info_0_split -> rois_proposal_info_0_split_2
I0324 00:39:35.120384 25048 net.cpp:150] Setting up rois_proposal_info_0_split
I0324 00:39:35.120391 25048 net.cpp:157] Top shape: 128 5 1 1 (640)
I0324 00:39:35.120396 25048 net.cpp:157] Top shape: 128 5 1 1 (640)
I0324 00:39:35.120400 25048 net.cpp:157] Top shape: 128 5 1 1 (640)
I0324 00:39:35.120404 25048 net.cpp:165] Memory required for data: 3054676412
I0324 00:39:35.120407 25048 layer_factory.hpp:77] Creating layer proposal_labels_proposal_info_1_split
I0324 00:39:35.120412 25048 net.cpp:100] Creating Layer proposal_labels_proposal_info_1_split
I0324 00:39:35.120415 25048 net.cpp:434] proposal_labels_proposal_info_1_split <- proposal_labels
I0324 00:39:35.120421 25048 net.cpp:408] proposal_labels_proposal_info_1_split -> proposal_labels_proposal_info_1_split_0
I0324 00:39:35.120427 25048 net.cpp:408] proposal_labels_proposal_info_1_split -> proposal_labels_proposal_info_1_split_1
I0324 00:39:35.120460 25048 net.cpp:150] Setting up proposal_labels_proposal_info_1_split
I0324 00:39:35.120465 25048 net.cpp:157] Top shape: 128 1 1 1 (128)
I0324 00:39:35.120471 25048 net.cpp:157] Top shape: 128 1 1 1 (128)
I0324 00:39:35.120473 25048 net.cpp:165] Memory required for data: 3054677436
I0324 00:39:35.120476 25048 layer_factory.hpp:77] Creating layer conv4_3_2x
I0324 00:39:35.120484 25048 net.cpp:100] Creating Layer conv4_3_2x
I0324 00:39:35.120488 25048 net.cpp:434] conv4_3_2x <- conv4_3_relu4_3_0_split_2
I0324 00:39:35.120493 25048 net.cpp:408] conv4_3_2x -> conv4_3_2x
I0324 00:39:35.120870 25048 net.cpp:150] Setting up conv4_3_2x
I0324 00:39:35.120878 25048 net.cpp:157] Top shape: 2 512 192 192 (37748736)
I0324 00:39:35.120882 25048 net.cpp:165] Memory required for data: 3205672380
I0324 00:39:35.120887 25048 layer_factory.hpp:77] Creating layer conv4_3_2x_conv4_3_2x_0_split
I0324 00:39:35.120892 25048 net.cpp:100] Creating Layer conv4_3_2x_conv4_3_2x_0_split
I0324 00:39:35.120895 25048 net.cpp:434] conv4_3_2x_conv4_3_2x_0_split <- conv4_3_2x
I0324 00:39:35.120901 25048 net.cpp:408] conv4_3_2x_conv4_3_2x_0_split -> conv4_3_2x_conv4_3_2x_0_split_0
I0324 00:39:35.120908 25048 net.cpp:408] conv4_3_2x_conv4_3_2x_0_split -> conv4_3_2x_conv4_3_2x_0_split_1
I0324 00:39:35.120940 25048 net.cpp:150] Setting up conv4_3_2x_conv4_3_2x_0_split
I0324 00:39:35.120947 25048 net.cpp:157] Top shape: 2 512 192 192 (37748736)
I0324 00:39:35.120951 25048 net.cpp:157] Top shape: 2 512 192 192 (37748736)
I0324 00:39:35.120954 25048 net.cpp:165] Memory required for data: 3507662268
I0324 00:39:35.120959 25048 layer_factory.hpp:77] Creating layer roi_pool_org
I0324 00:39:35.120965 25048 net.cpp:100] Creating Layer roi_pool_org
I0324 00:39:35.120970 25048 net.cpp:434] roi_pool_org <- conv4_3_2x_conv4_3_2x_0_split_0
I0324 00:39:35.120973 25048 net.cpp:434] roi_pool_org <- rois_proposal_info_0_split_0
I0324 00:39:35.120980 25048 net.cpp:408] roi_pool_org -> roi_pool_org
I0324 00:39:35.120985 25048 roi_pooling_layer.cpp:33] Spatial scale: 0.25
I0324 00:39:35.121027 25048 net.cpp:150] Setting up roi_pool_org
I0324 00:39:35.121034 25048 net.cpp:157] Top shape: 128 512 7 7 (3211264)
I0324 00:39:35.121040 25048 net.cpp:165] Memory required for data: 3520507324
I0324 00:39:35.121044 25048 layer_factory.hpp:77] Creating layer roi_pool_ctx
I0324 00:39:35.121050 25048 net.cpp:100] Creating Layer roi_pool_ctx
I0324 00:39:35.121055 25048 net.cpp:434] roi_pool_ctx <- conv4_3_2x_conv4_3_2x_0_split_1
I0324 00:39:35.121060 25048 net.cpp:434] roi_pool_ctx <- rois_proposal_info_0_split_1
I0324 00:39:35.121067 25048 net.cpp:408] roi_pool_ctx -> roi_pool_ctx
I0324 00:39:35.121073 25048 roi_pooling_layer.cpp:33] Spatial scale: 0.25
I0324 00:39:35.121117 25048 net.cpp:150] Setting up roi_pool_ctx
I0324 00:39:35.121125 25048 net.cpp:157] Top shape: 128 512 7 7 (3211264)
I0324 00:39:35.121129 25048 net.cpp:165] Memory required for data: 3533352380
I0324 00:39:35.121134 25048 layer_factory.hpp:77] Creating layer roi_pool
I0324 00:39:35.121140 25048 net.cpp:100] Creating Layer roi_pool
I0324 00:39:35.121145 25048 net.cpp:434] roi_pool <- roi_pool_org
I0324 00:39:35.121150 25048 net.cpp:434] roi_pool <- roi_pool_ctx
I0324 00:39:35.121157 25048 net.cpp:408] roi_pool -> roi_pool
I0324 00:39:35.121186 25048 net.cpp:150] Setting up roi_pool
I0324 00:39:35.121192 25048 net.cpp:157] Top shape: 128 1024 7 7 (6422528)
I0324 00:39:35.121196 25048 net.cpp:165] Memory required for data: 3559042492
I0324 00:39:35.121201 25048 layer_factory.hpp:77] Creating layer roi_c1
I0324 00:39:35.121210 25048 net.cpp:100] Creating Layer roi_c1
I0324 00:39:35.121214 25048 net.cpp:434] roi_c1 <- roi_pool
I0324 00:39:35.121222 25048 net.cpp:408] roi_c1 -> roi_c1
I0324 00:39:35.234768 25048 net.cpp:150] Setting up roi_c1
I0324 00:39:35.234797 25048 net.cpp:157] Top shape: 128 512 5 5 (1638400)
I0324 00:39:35.234800 25048 net.cpp:165] Memory required for data: 3565596092
I0324 00:39:35.234808 25048 layer_factory.hpp:77] Creating layer roi_c1_relu
I0324 00:39:35.234818 25048 net.cpp:100] Creating Layer roi_c1_relu
I0324 00:39:35.234823 25048 net.cpp:434] roi_c1_relu <- roi_c1
I0324 00:39:35.234828 25048 net.cpp:395] roi_c1_relu -> roi_c1 (in-place)
I0324 00:39:35.234971 25048 net.cpp:150] Setting up roi_c1_relu
I0324 00:39:35.234978 25048 net.cpp:157] Top shape: 128 512 5 5 (1638400)
I0324 00:39:35.234980 25048 net.cpp:165] Memory required for data: 3572149692
I0324 00:39:35.234984 25048 layer_factory.hpp:77] Creating layer fc6
I0324 00:39:35.234992 25048 net.cpp:100] Creating Layer fc6
I0324 00:39:35.234997 25048 net.cpp:434] fc6 <- roi_c1
I0324 00:39:35.235003 25048 net.cpp:408] fc6 -> fc6
I0324 00:39:36.452741 25048 net.cpp:150] Setting up fc6
I0324 00:39:36.452780 25048 net.cpp:157] Top shape: 128 4096 (524288)
I0324 00:39:36.452782 25048 net.cpp:165] Memory required for data: 3574246844
I0324 00:39:36.452791 25048 layer_factory.hpp:77] Creating layer relu6
I0324 00:39:36.452800 25048 net.cpp:100] Creating Layer relu6
I0324 00:39:36.452807 25048 net.cpp:434] relu6 <- fc6
I0324 00:39:36.452812 25048 net.cpp:395] relu6 -> fc6 (in-place)
I0324 00:39:36.453060 25048 net.cpp:150] Setting up relu6
I0324 00:39:36.453070 25048 net.cpp:157] Top shape: 128 4096 (524288)
I0324 00:39:36.453074 25048 net.cpp:165] Memory required for data: 3576343996
I0324 00:39:36.453078 25048 layer_factory.hpp:77] Creating layer drop6
I0324 00:39:36.453084 25048 net.cpp:100] Creating Layer drop6
I0324 00:39:36.453088 25048 net.cpp:434] drop6 <- fc6
I0324 00:39:36.453092 25048 net.cpp:395] drop6 -> fc6 (in-place)
I0324 00:39:36.453116 25048 net.cpp:150] Setting up drop6
I0324 00:39:36.453122 25048 net.cpp:157] Top shape: 128 4096 (524288)
I0324 00:39:36.453125 25048 net.cpp:165] Memory required for data: 3578441148
I0324 00:39:36.453130 25048 layer_factory.hpp:77] Creating layer fc6_drop6_0_split
I0324 00:39:36.453135 25048 net.cpp:100] Creating Layer fc6_drop6_0_split
I0324 00:39:36.453138 25048 net.cpp:434] fc6_drop6_0_split <- fc6
I0324 00:39:36.453143 25048 net.cpp:408] fc6_drop6_0_split -> fc6_drop6_0_split_0
I0324 00:39:36.453161 25048 net.cpp:408] fc6_drop6_0_split -> fc6_drop6_0_split_1
I0324 00:39:36.453202 25048 net.cpp:150] Setting up fc6_drop6_0_split
I0324 00:39:36.453209 25048 net.cpp:157] Top shape: 128 4096 (524288)
I0324 00:39:36.453213 25048 net.cpp:157] Top shape: 128 4096 (524288)
I0324 00:39:36.453217 25048 net.cpp:165] Memory required for data: 3582635452
I0324 00:39:36.453219 25048 layer_factory.hpp:77] Creating layer cls_pred
I0324 00:39:36.453227 25048 net.cpp:100] Creating Layer cls_pred
I0324 00:39:36.453230 25048 net.cpp:434] cls_pred <- fc6_drop6_0_split_0
I0324 00:39:36.453238 25048 net.cpp:408] cls_pred -> cls_pred
I0324 00:39:36.453864 25048 net.cpp:150] Setting up cls_pred
I0324 00:39:36.453871 25048 net.cpp:157] Top shape: 128 5 (640)
I0324 00:39:36.453876 25048 net.cpp:165] Memory required for data: 3582638012
I0324 00:39:36.453881 25048 layer_factory.hpp:77] Creating layer cls_pred_cls_pred_0_split
I0324 00:39:36.453886 25048 net.cpp:100] Creating Layer cls_pred_cls_pred_0_split
I0324 00:39:36.453891 25048 net.cpp:434] cls_pred_cls_pred_0_split <- cls_pred
I0324 00:39:36.453896 25048 net.cpp:408] cls_pred_cls_pred_0_split -> cls_pred_cls_pred_0_split_0
I0324 00:39:36.453900 25048 net.cpp:408] cls_pred_cls_pred_0_split -> cls_pred_cls_pred_0_split_1
I0324 00:39:36.453933 25048 net.cpp:150] Setting up cls_pred_cls_pred_0_split
I0324 00:39:36.453939 25048 net.cpp:157] Top shape: 128 5 (640)
I0324 00:39:36.453943 25048 net.cpp:157] Top shape: 128 5 (640)
I0324 00:39:36.453949 25048 net.cpp:165] Memory required for data: 3582643132
I0324 00:39:36.453953 25048 layer_factory.hpp:77] Creating layer bbox_pred
I0324 00:39:36.453969 25048 net.cpp:100] Creating Layer bbox_pred
I0324 00:39:36.453980 25048 net.cpp:434] bbox_pred <- fc6_drop6_0_split_1
I0324 00:39:36.453996 25048 net.cpp:408] bbox_pred -> bbox_pred
I0324 00:39:36.456271 25048 net.cpp:150] Setting up bbox_pred
I0324 00:39:36.456277 25048 net.cpp:157] Top shape: 128 20 (2560)
I0324 00:39:36.456280 25048 net.cpp:165] Memory required for data: 3582653372
I0324 00:39:36.456284 25048 layer_factory.hpp:77] Creating layer bbox_pred_bbox_pred_0_split
I0324 00:39:36.456288 25048 net.cpp:100] Creating Layer bbox_pred_bbox_pred_0_split
I0324 00:39:36.456291 25048 net.cpp:434] bbox_pred_bbox_pred_0_split <- bbox_pred
I0324 00:39:36.456296 25048 net.cpp:408] bbox_pred_bbox_pred_0_split -> bbox_pred_bbox_pred_0_split_0
I0324 00:39:36.456301 25048 net.cpp:408] bbox_pred_bbox_pred_0_split -> bbox_pred_bbox_pred_0_split_1
I0324 00:39:36.456329 25048 net.cpp:150] Setting up bbox_pred_bbox_pred_0_split
I0324 00:39:36.456333 25048 net.cpp:157] Top shape: 128 20 (2560)
I0324 00:39:36.456336 25048 net.cpp:157] Top shape: 128 20 (2560)
I0324 00:39:36.456339 25048 net.cpp:165] Memory required for data: 3582673852
I0324 00:39:36.456342 25048 layer_factory.hpp:77] Creating layer loss_cls
I0324 00:39:36.456348 25048 net.cpp:100] Creating Layer loss_cls
I0324 00:39:36.456351 25048 net.cpp:434] loss_cls <- cls_pred_cls_pred_0_split_0
I0324 00:39:36.456356 25048 net.cpp:434] loss_cls <- proposal_labels_proposal_info_1_split_0
…
