…
    downsample_rate: 16
    downsample_rate: 32
    downsample_rate: 32
    downsample_rate: 64
    coord_num: 4
    field_h: 60
    field_h: 84
    field_h: 120
    field_h: 168
    field_h: 240
    field_h: 336
    field_h: 480
    field_w: 60
    field_w: 84
    field_w: 120
    field_w: 168
    field_w: 240
    field_w: 336
    field_w: 480
    fg_threshold: 0.5
    resize_width: 1344
    resize_height: 768
    crop_width: 768
    crop_height: 768
    do_multiple_scale: true
    min_scale: 60
    max_scale: 480
    min_gt_height: 25
    shuffle: true
  }
}
layer {
  name: "slice"
  type: "Slice"
  bottom: "data"
  top: "data123"
  top: "ch4"
  slice_param {
    slice_point: 3
    axis: 1
  }
}
layer {
  name: "conv1_1"
  type: "Convolution"
  bottom: "data123"
  top: "conv1_1"
  convolution_param {
    num_output: 64
    pad: 1
    kernel_size: 3
  }
}
layer {
  name: "relu1_1"
  type: "ReLU"
  bottom: "conv1_1"
  top: "conv1_1"
}
layer {
  name: "conv1_2"
  type: "Convolution"
  bottom: "conv1_1"
  top: "conv1_2"
  convolution_param {
    num_output: 64
    pad: 1
    kernel_size: 3
  }
}
layer {
  name: "relu1_2"
  type: "ReLU"
  bottom: "conv1_2"
  top: "conv1_2"
}
layer {
  name: "pool1"
  type: "Pooling"
  bottom: "conv1_2"
  top: "pool1"
  pooling_param {
    pool: MAX
    kernel_size: 2
    stride: 2
  }
}
layer {
  name: "conv2_1"
  type: "Convolution"
  bottom: "pool1"
  top: "conv2_1"
  convolution_param {
    num_output: 128
    pad: 1
    kernel_size: 3
  }
}
layer {
  name: "relu2_1"
  type: "ReLU"
  bottom: "conv2_1"
  top: "conv2_1"
}
layer {
  name: "conv2_2"
  type: "Convolution"
  bottom: "conv2_1"
  top: "conv2_2"
  convolution_param {
    num_output: 128
    pad: 1
    kernel_size: 3
  }
}
layer {
  name: "relu2_2"
  type: "ReLU"
  bottom: "conv2_2"
  top: "conv2_2"
}
layer {
  name: "pool2"
  type: "Pooling"
  bottom: "conv2_2"
  top: "pool2"
  pooling_param {
    pool: MAX
    kernel_size: 2
    stride: 2
  }
}
layer {
  name: "conv3_1"
  type: "Convolution"
  bottom: "pool2"
  top: "conv3_1"
  convolution_param {
    num_output: 256
    pad: 1
    kernel_size: 3
  }
}
layer {
  name: "relu3_1"
  type: "ReLU"
  bottom: "conv3_1"
  top: "conv3_1"
}
layer {
  name: "conv3_2"
  type: "Convolution"
  bottom: "conv3_1"
  top: "conv3_2"
  convolution_param {
    num_output: 256
    pad: 1
    kernel_size: 3
  }
}
layer {
  name: "relu3_2"
  type: "ReLU"
  bottom: "conv3_2"
  top: "conv3_2"
}
layer {
  name: "conv3_3"
  type: "Convolution"
  bottom: "conv3_2"
  top: "conv3_3"
  convolution_param {
    num_output: 256
    pad: 1
    kernel_size: 3
  }
}
layer {
  name: "relu3_3"
  type: "ReLU"
  bottom: "conv3_3"
  top: "conv3_3"
}
layer {
  name: "pool3"
  type: "Pooling"
  bottom: "conv3_3"
  top: "pool3"
  pooling_param {
    pool: MAX
    kernel_size: 2
    stride: 2
  }
}
layer {
  name: "conv4_1"
  type: "Convolution"
  bottom: "pool3"
  top: "conv4_1"
  convolution_param {
    num_output: 512
    pad: 1
    kernel_size: 3
  }
}
layer {
  name: "relu4_1"
  type: "ReLU"
  bottom: "conv4_1"
  top: "conv4_1"
}
layer {
  name: "conv4_2"
  type: "Convolution"
  bottom: "conv4_1"
  top: "conv4_2"
  convolution_param {
    num_output: 512
    pad: 1
    kernel_size: 3
  }
}
layer {
  name: "relu4_2"
  type: "ReLU"
  bottom: "conv4_2"
  top: "conv4_2"
}
layer {
  name: "conv4_3"
  type: "Convolution"
  bottom: "conv4_2"
  top: "conv4_3"
  convolution_param {
    num_output: 512
    pad: 1
    kernel_size: 3
  }
}
layer {
  name: "relu4_3"
  type: "ReLU"
  bottom: "conv4_3"
  top: "conv4_3"
}
layer {
  name: "loss1_conv1"
  type: "Convolution"
  bottom: "conv4_3"
  top: "loss1_conv1"
  param {
    lr_mult: 1
    decay_mult: 1
  }
  param {
    lr_mult: 2
    decay_mult: 0
  }
  convolution_param {
    num_output: 512
    pad: 1
    kernel_size: 3
    weight_filler {
      type: "gaussian"
      std: 0.01
    }
    bias_filler {
      type: "constant"
    }
  }
}
layer {
  name: "loss_relu1"
  type: "ReLU"
  bottom: "loss1_conv1"
  top: "loss1_conv1"
}
layer {
  name: "LFCN_1_5x5"
  type: "Convolution"
  bottom: "loss1_conv1"
  top: "LFCN_1_5x5"
  param {
    lr_mult: 1
    decay_mult: 1
  }
  param {
    lr_mult: 2
    decay_mult: 0
  }
  convolution_param {
    num_output: 9
    pad: 2
    kernel_size: 5
    weight_filler {
      type: "gaussian"
      std: 0.001
    }
    bias_filler {
      type: "constant"
    }
  }
}
layer {
  name: "detection_loss_1_5x5"
  type: "DetectionLoss"
  bottom: "LFCN_1_5x5"
  bottom: "label_1_5x5"
  top: "loss_1_5x5"
  loss_weight: 0.9
  detection_loss_param {
    cls_num: 5
    coord_num: 4
    lambda: 0.05
    field_h: 60
    field_w: 60
    downsample_rate: 8
    bb_smooth: true
    field_whr: 2
    field_xyr: 2
    bg_threshold: 0.2
    bg_multiple: 2
    sample_mode: "random"
    pos_neg_weighted: true
  }
}
layer {
  name: "detection_accuracy_1_5x5"
  type: "DetectionAccuracy"
  bottom: "LFCN_1_5x5"
  bottom: "label_1_5x5"
  top: "accuracy_1_5x5"
  top: "boxiou_1_5x5"
  detection_accuracy_param {
    cls_num: 5
    coord_num: 4
    field_h: 60
    field_w: 60
    downsample_rate: 8
    field_whr: 2
    field_xyr: 2
  }
}
layer {
  name: "LFCN_1_7x7"
  type: "Convolution"
  bottom: "loss1_conv1"
  top: "LFCN_1_7x7"
  param {
    lr_mult: 1
    decay_mult: 1
  }
  param {
    lr_mult: 2
    decay_mult: 0
  }
  convolution_param {
    num_output: 9
    pad: 3
    kernel_size: 7
    weight_filler {
      type: "gaussian"
      std: 0.001
    }
    bias_filler {
      type: "constant"
    }
  }
}
layer {
  name: "detection_loss_1_7x7"
  type: "DetectionLoss"
  bottom: "LFCN_1_7x7"
  bottom: "label_1_7x7"
  top: "loss_1_7x7"
  loss_weight: 0.9
  detection_loss_param {
    cls_num: 5
    coord_num: 4
    lambda: 0.05
    field_h: 84
    field_w: 84
    downsample_rate: 8
    bb_smooth: true
    field_whr: 2
    field_xyr: 2
    bg_threshold: 0.2
    bg_multiple: 2
    sample_mode: "random"
    pos_neg_weighted: true
  }
}
layer {
  name: "detection_accuracy_1_7x7"
  type: "DetectionAccuracy"
  bottom: "LFCN_1_7x7"
  bottom: "label_1_7x7"
  top: "accuracy_1_7x7"
  top: "boxiou_1_7x7"
  detection_accuracy_param {
    cls_num: 5
    coord_num: 4
    field_h: 84
    field_w: 84
    downsample_rate: 8
    field_whr: 2
    field_xyr: 2
  }
}
layer {
  name: "pool4"
  type: "Pooling"
  bottom: "conv4_3"
  top: "pool4"
  pooling_param {
    pool: MAX
    kernel_size: 2
    stride: 2
  }
}
layer {
  name: "ch4_pool4"
  type: "Pooling"
  bottom: "ch4"
  top: "ch4_pool4"
  pooling_param {
    pool: MAX
    kernel_size: 16
    stride: 16
  }
}
layer {
  name: "pool4_concat"
  type: "Concat"
  bottom: "pool4"
  bottom: "ch4_pool4"
  top: "pool4_new"
}
layer {
  name: "conv5_1_new"
  type: "Convolution"
  bottom: "pool4_new"
  top: "conv5_1"
  convolution_param {
    num_output: 512
    pad: 1
    kernel_size: 3
  }
}
layer {
  name: "relu5_1"
  type: "ReLU"
  bottom: "conv5_1"
  top: "conv5_1"
}
layer {
  name: "conv5_2"
  type: "Convolution"
  bottom: "conv5_1"
  top: "conv5_2"
  convolution_param {
    num_output: 512
    pad: 1
    kernel_size: 3
  }
}
layer {
  name: "relu5_2"
  type: "ReLU"
  bottom: "conv5_2"
  top: "conv5_2"
}
layer {
  name: "conv5_3"
  type: "Convolution"
  bottom: "conv5_2"
  top: "conv5_3"
  convolution_param {
    num_output: 512
    pad: 1
    kernel_size: 3
  }
}
layer {
  name: "relu5_3"
  type: "ReLU"
  bottom: "conv5_3"
  top: "conv5_3"
}
layer {
  name: "LFCN_2_5x5"
  type: "Convolution"
  bottom: "conv5_3"
  top: "LFCN_2_5x5"
  param {
    lr_mult: 1
    decay_mult: 1
  }
  param {
    lr_mult: 2
    decay_mult: 0
  }
  convolution_param {
    num_output: 9
    pad: 2
    kernel_size: 5
    weight_filler {
      type: "gaussian"
      std: 0.001
    }
    bias_filler {
      type: "constant"
    }
  }
}
layer {
  name: "detection_loss_2_5x5"
  type: "DetectionLoss"
  bottom: "LFCN_2_5x5"
  bottom: "label_2_5x5"
  top: "loss_2_5x5"
  detection_loss_param {
    cls_num: 5
    coord_num: 4
    lambda: 0.05
    field_h: 120
    field_w: 120
    downsample_rate: 16
    bb_smooth: true
    field_whr: 2
    field_xyr: 2
    bg_threshold: 0.2
    bg_multiple: 2
    sample_mode: "random"
    pos_neg_weighted: true
  }
}
layer {
  name: "detection_accuracy_2_5x5"
  type: "DetectionAccuracy"
  bottom: "LFCN_2_5x5"
  bottom: "label_2_5x5"
  top: "accuracy_2_5x5"
  top: "boxiou_2_5x5"
  detection_accuracy_param {
    cls_num: 5
    coord_num: 4
    field_h: 120
    field_w: 120
    downsample_rate: 16
    field_whr: 2
    field_xyr: 2
  }
}
layer {
  name: "LFCN_2_7x7"
  type: "Convolution"
  bottom: "conv5_3"
  top: "LFCN_2_7x7"
  param {
    lr_mult: 1
    decay_mult: 1
  }
  param {
    lr_mult: 2
    decay_mult: 0
  }
  convolution_param {
    num_output: 9
    pad: 3
    kernel_size: 7
    weight_filler {
      type: "gaussian"
      std: 0.001
    }
    bias_filler {
      type: "constant"
    }
  }
}
layer {
  name: "detection_loss_2_7x7"
  type: "DetectionLoss"
  bottom: "LFCN_2_7x7"
  bottom: "label_2_7x7"
  top: "loss_2_7x7"
  detection_loss_param {
    cls_num: 5
    coord_num: 4
    lambda: 0.05
    field_h: 168
    field_w: 168
    downsample_rate: 16
    bb_smooth: true
    field_whr: 2
    field_xyr: 2
    bg_threshold: 0.2
    bg_multiple: 2
    sample_mode: "random"
    pos_neg_weighted: true
  }
}
layer {
  name: "detection_accuracy_2_7x7"
  type: "DetectionAccuracy"
  bottom: "LFCN_2_7x7"
  bottom: "label_2_7x7"
  top: "accuracy_2_7x7"
  top: "boxiou_2_7x7"
  detection_accuracy_param {
    cls_num: 5
    coord_num: 4
    field_h: 168
    field_w: 168
    downsample_rate: 16
    field_whr: 2
    field_xyr: 2
  }
}
layer {
  name: "pool5"
  type: "Pooling"
  bottom: "conv5_3"
  top: "pool5"
  pooling_param {
    pool: MAX
    kernel_size: 2
    stride: 2
  }
}
layer {
  name: "conv6_1"
  type: "Convolution"
  bottom: "pool5"
  top: "conv6_1"
  param {
    lr_mult: 1
    decay_mult: 1
  }
  param {
    lr_mult: 2
    decay_mult: 0
  }
  convolution_param {
    num_output: 512
    pad: 1
    kernel_size: 3
    weight_filler {
      type: "gaussian"
      std: 0.01
    }
    bias_filler {
      type: "constant"
    }
  }
}
layer {
  name: "relu6_1"
  type: "ReLU"
  bottom: "conv6_1"
  top: "conv6_1"
}
layer {
  name: "LFCN_3_5x5"
  type: "Convolution"
  bottom: "conv6_1"
  top: "LFCN_3_5x5"
  param {
    lr_mult: 1
    decay_mult: 1
  }
  param {
    lr_mult: 2
    decay_mult: 0
  }
  convolution_param {
    num_output: 9
    pad: 2
    kernel_size: 5
    weight_filler {
      type: "gaussian"
      std: 0.001
    }
    bias_filler {
      type: "constant"
    }
  }
}
layer {
  name: "detection_loss_3_5x5"
  type: "DetectionLoss"
  bottom: "LFCN_3_5x5"
  bottom: "label_3_5x5"
  top: "loss_3_5x5"
  detection_loss_param {
    cls_num: 5
    coord_num: 4
    lambda: 0.05
    field_h: 240
    field_w: 240
    downsample_rate: 32
    bb_smooth: true
    field_whr: 2
    field_xyr: 2
    bg_threshold: 0.2
    bg_multiple: 2
    sample_mode: "random"
    pos_neg_weighted: true
  }
}
layer {
  name: "detection_accuracy_3_5x5"
  type: "DetectionAccuracy"
  bottom: "LFCN_3_5x5"
  bottom: "label_3_5x5"
  top: "accuracy_3_5x5"
  top: "boxiou_3_5x5"
  detection_accuracy_param {
    cls_num: 5
    coord_num: 4
    field_h: 240
    field_w: 240
    downsample_rate: 32
    field_whr: 2
    field_xyr: 2
  }
}
layer {
  name: "LFCN_3_7x7"
  type: "Convolution"
  bottom: "conv6_1"
  top: "LFCN_3_7x7"
  param {
    lr_mult: 1
    decay_mult: 1
  }
  param {
    lr_mult: 2
    decay_mult: 0
  }
  convolution_param {
    num_output: 9
    pad: 3
    kernel_size: 7
    weight_filler {
      type: "gaussian"
      std: 0.001
    }
    bias_filler {
      type: "constant"
    }
  }
}
layer {
  name: "detection_loss_3_7x7"
  type: "DetectionLoss"
  bottom: "LFCN_3_7x7"
  bottom: "label_3_7x7"
  top: "loss_3_7x7"
  detection_loss_param {
    cls_num: 5
    coord_num: 4
    lambda: 0.05
    field_h: 336
    field_w: 336
    downsample_rate: 32
    bb_smooth: true
    field_whr: 2
    field_xyr: 2
    bg_threshold: 0.2
    bg_multiple: 2
    sample_mode: "random"
    pos_neg_weighted: true
  }
}
layer {
  name: "detection_accuracy_3_7x7"
  type: "DetectionAccuracy"
  bottom: "LFCN_3_7x7"
  bottom: "label_3_7x7"
  top: "accuracy_3_7x7"
  top: "boxiou_3_7x7"
  detection_accuracy_param {
    cls_num: 5
    coord_num: 4
    field_h: 336
    field_w: 336
    downsample_rate: 32
    field_whr: 2
    field_xyr: 2
  }
}
layer {
  name: "pool6"
  type: "Pooling"
  bottom: "conv6_1"
  top: "pool6"
  pooling_param {
    pool: MAX
    kernel_size: 2
    stride: 2
  }
}
layer {
  name: "LFCN_4_5x5"
  type: "Convolution"
  bottom: "pool6"
  top: "LFCN_4_5x5"
  param {
    lr_mult: 1
    decay_mult: 1
  }
  param {
    lr_mult: 2
    decay_mult: 0
  }
  convolution_param {
    num_output: 9
    pad: 2
    kernel_size: 5
    weight_filler {
      type: "gaussian"
      std: 0.001
    }
    bias_filler {
      type: "constant"
    }
  }
}
layer {
  name: "detection_loss_4_5x5"
  type: "DetectionLoss"
  bottom: "LFCN_4_5x5"
  bottom: "label_4_5x5"
  top: "loss_4_5x5"
  detection_loss_param {
    cls_num: 5
    coord_num: 4
    lambda: 0.05
    field_h: 480
    field_w: 480
    downsample_rate: 64
    bb_smooth: true
    field_whr: 2
    field_xyr: 2
    bg_threshold: 0.2
    bg_multiple: 2
    sample_mode: "random"
    pos_neg_weighted: true
  }
}
layer {
  name: "detection_accuracy_4_5x5"
  type: "DetectionAccuracy"
  bottom: "LFCN_4_5x5"
  bottom: "label_4_5x5"
  top: "accuracy_4_5x5"
  top: "boxiou_4_5x5"
  detection_accuracy_param {
    cls_num: 5
    coord_num: 4
    field_h: 480
    field_w: 480
    downsample_rate: 64
    field_whr: 2
    field_xyr: 2
  }
}
I0323 22:09:28.929117 23525 layer_factory.hpp:77] Creating layer data
I0323 22:09:28.929159 23525 net.cpp:100] Creating Layer data
I0323 22:09:28.929168 23525 net.cpp:408] data -> data
…
I0323 22:09:28.953716 23525 image_gt_data_layer.cpp:235] output label size 1 : 4,6,96,96
I0323 22:09:28.953754 23525 image_gt_data_layer.cpp:235] output label size 2 : 4,6,48,48
I0323 22:09:28.953790 23525 image_gt_data_layer.cpp:235] output label size 3 : 4,6,48,48
I0323 22:09:28.953825 23525 image_gt_data_layer.cpp:235] output label size 4 : 4,6,24,24
I0323 22:09:28.953860 23525 image_gt_data_layer.cpp:235] output label size 5 : 4,6,24,24
I0323 22:09:28.953896 23525 image_gt_data_layer.cpp:235] output label size 6 : 4,6,12,12
I0323 22:09:29.023720 23525 net.cpp:150] Setting up data
I0323 22:09:29.023754 23525 net.cpp:157] Top shape: 4 4 768 768 (9437184)
I0323 22:09:29.023761 23525 net.cpp:157] Top shape: 4 6 96 96 (221184)
I0323 22:09:29.023766 23525 net.cpp:157] Top shape: 4 6 96 96 (221184)
I0323 22:09:29.023771 23525 net.cpp:157] Top shape: 4 6 48 48 (55296)
I0323 22:09:29.023775 23525 net.cpp:157] Top shape: 4 6 48 48 (55296)
I0323 22:09:29.023780 23525 net.cpp:157] Top shape: 4 6 24 24 (13824)
I0323 22:09:29.023785 23525 net.cpp:157] Top shape: 4 6 24 24 (13824)
I0323 22:09:29.023789 23525 net.cpp:157] Top shape: 4 6 12 12 (3456)
I0323 22:09:29.023793 23525 net.cpp:165] Memory required for data: 40084992
I0323 22:09:29.023802 23525 layer_factory.hpp:77] Creating layer label_1_5x5_data_1_split
I0323 22:09:29.023819 23525 net.cpp:100] Creating Layer label_1_5x5_data_1_split
I0323 22:09:29.023826 23525 net.cpp:434] label_1_5x5_data_1_split <- label_1_5x5
I0323 22:09:29.023838 23525 net.cpp:408] label_1_5x5_data_1_split -> label_1_5x5_data_1_split_0
I0323 22:09:29.023849 23525 net.cpp:408] label_1_5x5_data_1_split -> label_1_5x5_data_1_split_1
I0323 22:09:29.024175 23525 net.cpp:150] Setting up label_1_5x5_data_1_split
I0323 22:09:29.024224 23525 net.cpp:157] Top shape: 4 6 96 96 (221184)
I0323 22:09:29.024236 23525 net.cpp:157] Top shape: 4 6 96 96 (221184)
I0323 22:09:29.024245 23525 net.cpp:165] Memory required for data: 41854464
I0323 22:09:29.024255 23525 layer_factory.hpp:77] Creating layer label_1_7x7_data_2_split
I0323 22:09:29.024284 23525 net.cpp:100] Creating Layer label_1_7x7_data_2_split
I0323 22:09:29.024296 23525 net.cpp:434] label_1_7x7_data_2_split <- label_1_7x7
I0323 22:09:29.024309 23525 net.cpp:408] label_1_7x7_data_2_split -> label_1_7x7_data_2_split_0
I0323 22:09:29.024327 23525 net.cpp:408] label_1_7x7_data_2_split -> label_1_7x7_data_2_split_1
I0323 22:09:29.024396 23525 net.cpp:150] Setting up label_1_7x7_data_2_split
I0323 22:09:29.024410 23525 net.cpp:157] Top shape: 4 6 96 96 (221184)
I0323 22:09:29.024421 23525 net.cpp:157] Top shape: 4 6 96 96 (221184)
I0323 22:09:29.024430 23525 net.cpp:165] Memory required for data: 43623936
I0323 22:09:29.024437 23525 layer_factory.hpp:77] Creating layer label_2_5x5_data_3_split
I0323 22:09:29.024447 23525 net.cpp:100] Creating Layer label_2_5x5_data_3_split
I0323 22:09:29.024456 23525 net.cpp:434] label_2_5x5_data_3_split <- label_2_5x5
I0323 22:09:29.024468 23525 net.cpp:408] label_2_5x5_data_3_split -> label_2_5x5_data_3_split_0
I0323 22:09:29.024495 23525 net.cpp:408] label_2_5x5_data_3_split -> label_2_5x5_data_3_split_1
I0323 22:09:29.024582 23525 net.cpp:150] Setting up label_2_5x5_data_3_split
I0323 22:09:29.024605 23525 net.cpp:157] Top shape: 4 6 48 48 (55296)
I0323 22:09:29.024618 23525 net.cpp:157] Top shape: 4 6 48 48 (55296)
I0323 22:09:29.024628 23525 net.cpp:165] Memory required for data: 44066304
I0323 22:09:29.024639 23525 layer_factory.hpp:77] Creating layer label_2_7x7_data_4_split
I0323 22:09:29.024654 23525 net.cpp:100] Creating Layer label_2_7x7_data_4_split
I0323 22:09:29.024662 23525 net.cpp:434] label_2_7x7_data_4_split <- label_2_7x7
I0323 22:09:29.024674 23525 net.cpp:408] label_2_7x7_data_4_split -> label_2_7x7_data_4_split_0
I0323 22:09:29.024691 23525 net.cpp:408] label_2_7x7_data_4_split -> label_2_7x7_data_4_split_1
I0323 22:09:29.024756 23525 net.cpp:150] Setting up label_2_7x7_data_4_split
I0323 22:09:29.024770 23525 net.cpp:157] Top shape: 4 6 48 48 (55296)
I0323 22:09:29.024780 23525 net.cpp:157] Top shape: 4 6 48 48 (55296)
I0323 22:09:29.024786 23525 net.cpp:165] Memory required for data: 44508672
I0323 22:09:29.024794 23525 layer_factory.hpp:77] Creating layer label_3_5x5_data_5_split
I0323 22:09:29.024807 23525 net.cpp:100] Creating Layer label_3_5x5_data_5_split
I0323 22:09:29.024817 23525 net.cpp:434] label_3_5x5_data_5_split <- label_3_5x5
I0323 22:09:29.024827 23525 net.cpp:408] label_3_5x5_data_5_split -> label_3_5x5_data_5_split_0
I0323 22:09:29.024844 23525 net.cpp:408] label_3_5x5_data_5_split -> label_3_5x5_data_5_split_1
I0323 22:09:29.024904 23525 net.cpp:150] Setting up label_3_5x5_data_5_split
I0323 22:09:29.024917 23525 net.cpp:157] Top shape: 4 6 24 24 (13824)
I0323 22:09:29.024927 23525 net.cpp:157] Top shape: 4 6 24 24 (13824)
I0323 22:09:29.024935 23525 net.cpp:165] Memory required for data: 44619264
I0323 22:09:29.024943 23525 layer_factory.hpp:77] Creating layer label_3_7x7_data_6_split
I0323 22:09:29.024953 23525 net.cpp:100] Creating Layer label_3_7x7_data_6_split
I0323 22:09:29.024961 23525 net.cpp:434] label_3_7x7_data_6_split <- label_3_7x7
I0323 22:09:29.024972 23525 net.cpp:408] label_3_7x7_data_6_split -> label_3_7x7_data_6_split_0
I0323 22:09:29.024984 23525 net.cpp:408] label_3_7x7_data_6_split -> label_3_7x7_data_6_split_1
I0323 22:09:29.025043 23525 net.cpp:150] Setting up label_3_7x7_data_6_split
I0323 22:09:29.025056 23525 net.cpp:157] Top shape: 4 6 24 24 (13824)
I0323 22:09:29.025066 23525 net.cpp:157] Top shape: 4 6 24 24 (13824)
I0323 22:09:29.025074 23525 net.cpp:165] Memory required for data: 44729856
I0323 22:09:29.025081 23525 layer_factory.hpp:77] Creating layer label_4_5x5_data_7_split
I0323 22:09:29.025090 23525 net.cpp:100] Creating Layer label_4_5x5_data_7_split
I0323 22:09:29.025099 23525 net.cpp:434] label_4_5x5_data_7_split <- label_4_5x5
I0323 22:09:29.025112 23525 net.cpp:408] label_4_5x5_data_7_split -> label_4_5x5_data_7_split_0
I0323 22:09:29.025126 23525 net.cpp:408] label_4_5x5_data_7_split -> label_4_5x5_data_7_split_1
I0323 22:09:29.025183 23525 net.cpp:150] Setting up label_4_5x5_data_7_split
I0323 22:09:29.025199 23525 net.cpp:157] Top shape: 4 6 12 12 (3456)
I0323 22:09:29.025210 23525 net.cpp:157] Top shape: 4 6 12 12 (3456)
I0323 22:09:29.025218 23525 net.cpp:165] Memory required for data: 44757504
I0323 22:09:29.025225 23525 layer_factory.hpp:77] Creating layer slice
I0323 22:09:29.025254 23525 net.cpp:100] Creating Layer slice
I0323 22:09:29.025264 23525 net.cpp:434] slice <- data
I0323 22:09:29.025276 23525 net.cpp:408] slice -> data123
I0323 22:09:29.025293 23525 net.cpp:408] slice -> ch4
I0323 22:09:29.025358 23525 net.cpp:150] Setting up slice
I0323 22:09:29.025372 23525 net.cpp:157] Top shape: 4 3 768 768 (7077888)
I0323 22:09:29.025382 23525 net.cpp:157] Top shape: 4 1 768 768 (2359296)
I0323 22:09:29.025389 23525 net.cpp:165] Memory required for data: 82506240
I0323 22:09:29.025396 23525 layer_factory.hpp:77] Creating layer conv1_1
I0323 22:09:29.025416 23525 net.cpp:100] Creating Layer conv1_1
I0323 22:09:29.025426 23525 net.cpp:434] conv1_1 <- data123
I0323 22:09:29.025439 23525 net.cpp:408] conv1_1 -> conv1_1
I0323 22:09:29.309067 23525 net.cpp:150] Setting up conv1_1
I0323 22:09:29.309095 23525 net.cpp:157] Top shape: 4 64 768 768 (150994944)
I0323 22:09:29.309100 23525 net.cpp:165] Memory required for data: 686486016
I0323 22:09:29.309118 23525 layer_factory.hpp:77] Creating layer relu1_1
I0323 22:09:29.309129 23525 net.cpp:100] Creating Layer relu1_1
I0323 22:09:29.309135 23525 net.cpp:434] relu1_1 <- conv1_1
I0323 22:09:29.309140 23525 net.cpp:395] relu1_1 -> conv1_1 (in-place)
I0323 22:09:29.309316 23525 net.cpp:150] Setting up relu1_1
I0323 22:09:29.309325 23525 net.cpp:157] Top shape: 4 64 768 768 (150994944)
I0323 22:09:29.309329 23525 net.cpp:165] Memory required for data: 1290465792
I0323 22:09:29.309332 23525 layer_factory.hpp:77] Creating layer conv1_2
I0323 22:09:29.309341 23525 net.cpp:100] Creating Layer conv1_2
I0323 22:09:29.309345 23525 net.cpp:434] conv1_2 <- conv1_1
I0323 22:09:29.309351 23525 net.cpp:408] conv1_2 -> conv1_2
I0323 22:09:29.311450 23525 net.cpp:150] Setting up conv1_2
I0323 22:09:29.311466 23525 net.cpp:157] Top shape: 4 64 768 768 (150994944)
I0323 22:09:29.311470 23525 net.cpp:165] Memory required for data: 1894445568
I0323 22:09:29.311480 23525 layer_factory.hpp:77] Creating layer relu1_2
I0323 22:09:29.311486 23525 net.cpp:100] Creating Layer relu1_2
I0323 22:09:29.311491 23525 net.cpp:434] relu1_2 <- conv1_2
I0323 22:09:29.311496 23525 net.cpp:395] relu1_2 -> conv1_2 (in-place)
I0323 22:09:29.311650 23525 net.cpp:150] Setting up relu1_2
I0323 22:09:29.311658 23525 net.cpp:157] Top shape: 4 64 768 768 (150994944)
I0323 22:09:29.311662 23525 net.cpp:165] Memory required for data: 2498425344
I0323 22:09:29.311666 23525 layer_factory.hpp:77] Creating layer pool1
I0323 22:09:29.311672 23525 net.cpp:100] Creating Layer pool1
I0323 22:09:29.311676 23525 net.cpp:434] pool1 <- conv1_2
I0323 22:09:29.311682 23525 net.cpp:408] pool1 -> pool1
I0323 22:09:29.311730 23525 net.cpp:150] Setting up pool1
I0323 22:09:29.311738 23525 net.cpp:157] Top shape: 4 64 384 384 (37748736)
I0323 22:09:29.311741 23525 net.cpp:165] Memory required for data: 2649420288
I0323 22:09:29.311744 23525 layer_factory.hpp:77] Creating layer conv2_1
I0323 22:09:29.311753 23525 net.cpp:100] Creating Layer conv2_1
I0323 22:09:29.311756 23525 net.cpp:434] conv2_1 <- pool1
I0323 22:09:29.311761 23525 net.cpp:408] conv2_1 -> conv2_1
I0323 22:09:29.313838 23525 net.cpp:150] Setting up conv2_1
I0323 22:09:29.313853 23525 net.cpp:157] Top shape: 4 128 384 384 (75497472)
I0323 22:09:29.313858 23525 net.cpp:165] Memory required for data: 2951410176
I0323 22:09:29.313868 23525 layer_factory.hpp:77] Creating layer relu2_1
I0323 22:09:29.313874 23525 net.cpp:100] Creating Layer relu2_1
I0323 22:09:29.313879 23525 net.cpp:434] relu2_1 <- conv2_1
I0323 22:09:29.313884 23525 net.cpp:395] relu2_1 -> conv2_1 (in-place)
I0323 22:09:29.314061 23525 net.cpp:150] Setting up relu2_1
I0323 22:09:29.314072 23525 net.cpp:157] Top shape: 4 128 384 384 (75497472)
I0323 22:09:29.314075 23525 net.cpp:165] Memory required for data: 3253400064
I0323 22:09:29.314079 23525 layer_factory.hpp:77] Creating layer conv2_2
I0323 22:09:29.314088 23525 net.cpp:100] Creating Layer conv2_2
I0323 22:09:29.314092 23525 net.cpp:434] conv2_2 <- conv2_1
I0323 22:09:29.314098 23525 net.cpp:408] conv2_2 -> conv2_2
I0323 22:09:29.316332 23525 net.cpp:150] Setting up conv2_2
I0323 22:09:29.316347 23525 net.cpp:157] Top shape: 4 128 384 384 (75497472)
I0323 22:09:29.316351 23525 net.cpp:165] Memory required for data: 3555389952
I0323 22:09:29.316360 23525 layer_factory.hpp:77] Creating layer relu2_2
I0323 22:09:29.316368 23525 net.cpp:100] Creating Layer relu2_2
I0323 22:09:29.316372 23525 net.cpp:434] relu2_2 <- conv2_2
I0323 22:09:29.316378 23525 net.cpp:395] relu2_2 -> conv2_2 (in-place)
I0323 22:09:29.316536 23525 net.cpp:150] Setting up relu2_2
I0323 22:09:29.316547 23525 net.cpp:157] Top shape: 4 128 384 384 (75497472)
I0323 22:09:29.316551 23525 net.cpp:165] Memory required for data: 3857379840
I0323 22:09:29.316556 23525 layer_factory.hpp:77] Creating layer pool2
I0323 22:09:29.316568 23525 net.cpp:100] Creating Layer pool2
I0323 22:09:29.316572 23525 net.cpp:434] pool2 <- conv2_2
I0323 22:09:29.316581 23525 net.cpp:408] pool2 -> pool2
I0323 22:09:29.316630 23525 net.cpp:150] Setting up pool2
I0323 22:09:29.316638 23525 net.cpp:157] Top shape: 4 128 192 192 (18874368)
I0323 22:09:29.316642 23525 net.cpp:165] Memory required for data: 3932877312
I0323 22:09:29.316645 23525 layer_factory.hpp:77] Creating layer conv3_1
I0323 22:09:29.316660 23525 net.cpp:100] Creating Layer conv3_1
I0323 22:09:29.316664 23525 net.cpp:434] conv3_1 <- pool2
I0323 22:09:29.316671 23525 net.cpp:408] conv3_1 -> conv3_1
I0323 22:09:29.319898 23525 net.cpp:150] Setting up conv3_1
I0323 22:09:29.319921 23525 net.cpp:157] Top shape: 4 256 192 192 (37748736)
I0323 22:09:29.319926 23525 net.cpp:165] Memory required for data: 4083872256
I0323 22:09:29.319938 23525 layer_factory.hpp:77] Creating layer relu3_1
I0323 22:09:29.319947 23525 net.cpp:100] Creating Layer relu3_1
I0323 22:09:29.319952 23525 net.cpp:434] relu3_1 <- conv3_1
I0323 22:09:29.319958 23525 net.cpp:395] relu3_1 -> conv3_1 (in-place)
I0323 22:09:29.320376 23525 net.cpp:150] Setting up relu3_1
I0323 22:09:29.320389 23525 net.cpp:157] Top shape: 4 256 192 192 (37748736)
I0323 22:09:29.320392 23525 net.cpp:165] Memory required for data: 4234867200
I0323 22:09:29.320396 23525 layer_factory.hpp:77] Creating layer conv3_2
I0323 22:09:29.320405 23525 net.cpp:100] Creating Layer conv3_2
I0323 22:09:29.320410 23525 net.cpp:434] conv3_2 <- conv3_1
I0323 22:09:29.320415 23525 net.cpp:408] conv3_2 -> conv3_2
I0323 22:09:29.322764 23525 net.cpp:150] Setting up conv3_2
I0323 22:09:29.322796 23525 net.cpp:157] Top shape: 4 256 192 192 (37748736)
I0323 22:09:29.322801 23525 net.cpp:165] Memory required for data: 4385862144
I0323 22:09:29.322811 23525 layer_factory.hpp:77] Creating layer relu3_2
I0323 22:09:29.322824 23525 net.cpp:100] Creating Layer relu3_2
I0323 22:09:29.322829 23525 net.cpp:434] relu3_2 <- conv3_2
I0323 22:09:29.322836 23525 net.cpp:395] relu3_2 -> conv3_2 (in-place)
I0323 22:09:29.323288 23525 net.cpp:150] Setting up relu3_2
I0323 22:09:29.323302 23525 net.cpp:157] Top shape: 4 256 192 192 (37748736)
I0323 22:09:29.323307 23525 net.cpp:165] Memory required for data: 4536857088
I0323 22:09:29.323312 23525 layer_factory.hpp:77] Creating layer conv3_3
I0323 22:09:29.323321 23525 net.cpp:100] Creating Layer conv3_3
I0323 22:09:29.323326 23525 net.cpp:434] conv3_3 <- conv3_2
I0323 22:09:29.323334 23525 net.cpp:408] conv3_3 -> conv3_3
I0323 22:09:29.326097 23525 net.cpp:150] Setting up conv3_3
I0323 22:09:29.326120 23525 net.cpp:157] Top shape: 4 256 192 192 (37748736)
I0323 22:09:29.326125 23525 net.cpp:165] Memory required for data: 4687852032
I0323 22:09:29.326133 23525 layer_factory.hpp:77] Creating layer relu3_3
I0323 22:09:29.326144 23525 net.cpp:100] Creating Layer relu3_3
I0323 22:09:29.326150 23525 net.cpp:434] relu3_3 <- conv3_3
I0323 22:09:29.326155 23525 net.cpp:395] relu3_3 -> conv3_3 (in-place)
I0323 22:09:29.326308 23525 net.cpp:150] Setting up relu3_3
I0323 22:09:29.326318 23525 net.cpp:157] Top shape: 4 256 192 192 (37748736)
I0323 22:09:29.326321 23525 net.cpp:165] Memory required for data: 4838846976
I0323 22:09:29.326324 23525 layer_factory.hpp:77] Creating layer pool3
I0323 22:09:29.326333 23525 net.cpp:100] Creating Layer pool3
I0323 22:09:29.326335 23525 net.cpp:434] pool3 <- conv3_3
I0323 22:09:29.326341 23525 net.cpp:408] pool3 -> pool3
I0323 22:09:29.326376 23525 net.cpp:150] Setting up pool3
I0323 22:09:29.326383 23525 net.cpp:157] Top shape: 4 256 96 96 (9437184)
I0323 22:09:29.326386 23525 net.cpp:165] Memory required for data: 4876595712
I0323 22:09:29.326390 23525 layer_factory.hpp:77] Creating layer conv4_1
I0323 22:09:29.326398 23525 net.cpp:100] Creating Layer conv4_1
I0323 22:09:29.326402 23525 net.cpp:434] conv4_1 <- pool3
I0323 22:09:29.326407 23525 net.cpp:408] conv4_1 -> conv4_1
I0323 22:09:29.332900 23525 net.cpp:150] Setting up conv4_1
I0323 22:09:29.332931 23525 net.cpp:157] Top shape: 4 512 96 96 (18874368)
I0323 22:09:29.332937 23525 net.cpp:165] Memory required for data: 4952093184
I0323 22:09:29.332948 23525 layer_factory.hpp:77] Creating layer relu4_1
I0323 22:09:29.332962 23525 net.cpp:100] Creating Layer relu4_1
I0323 22:09:29.332969 23525 net.cpp:434] relu4_1 <- conv4_1
I0323 22:09:29.332976 23525 net.cpp:395] relu4_1 -> conv4_1 (in-place)
I0323 22:09:29.333179 23525 net.cpp:150] Setting up relu4_1
I0323 22:09:29.333190 23525 net.cpp:157] Top shape: 4 512 96 96 (18874368)
I0323 22:09:29.333195 23525 net.cpp:165] Memory required for data: 5027590656
I0323 22:09:29.333199 23525 layer_factory.hpp:77] Creating layer conv4_2
I0323 22:09:29.333209 23525 net.cpp:100] Creating Layer conv4_2
I0323 22:09:29.333214 23525 net.cpp:434] conv4_2 <- conv4_1
I0323 22:09:29.333221 23525 net.cpp:408] conv4_2 -> conv4_2
I0323 22:09:29.339574 23525 net.cpp:150] Setting up conv4_2
I0323 22:09:29.339609 23525 net.cpp:157] Top shape: 4 512 96 96 (18874368)
I0323 22:09:29.339613 23525 net.cpp:165] Memory required for data: 5103088128
I0323 22:09:29.339629 23525 layer_factory.hpp:77] Creating layer relu4_2
I0323 22:09:29.339648 23525 net.cpp:100] Creating Layer relu4_2
I0323 22:09:29.339655 23525 net.cpp:434] relu4_2 <- conv4_2
I0323 22:09:29.339661 23525 net.cpp:395] relu4_2 -> conv4_2 (in-place)
I0323 22:09:29.339829 23525 net.cpp:150] Setting up relu4_2
I0323 22:09:29.339838 23525 net.cpp:157] Top shape: 4 512 96 96 (18874368)
I0323 22:09:29.339843 23525 net.cpp:165] Memory required for data: 5178585600
I0323 22:09:29.339846 23525 layer_factory.hpp:77] Creating layer conv4_3
I0323 22:09:29.339859 23525 net.cpp:100] Creating Layer conv4_3
I0323 22:09:29.339864 23525 net.cpp:434] conv4_3 <- conv4_2
I0323 22:09:29.339869 23525 net.cpp:408] conv4_3 -> conv4_3
I0323 22:09:29.350384 23525 net.cpp:150] Setting up conv4_3
I0323 22:09:29.350420 23525 net.cpp:157] Top shape: 4 512 96 96 (18874368)
I0323 22:09:29.350427 23525 net.cpp:165] Memory required for data: 5254083072
I0323 22:09:29.350440 23525 layer_factory.hpp:77] Creating layer relu4_3
I0323 22:09:29.350453 23525 net.cpp:100] Creating Layer relu4_3
I0323 22:09:29.350461 23525 net.cpp:434] relu4_3 <- conv4_3
I0323 22:09:29.350474 23525 net.cpp:395] relu4_3 -> conv4_3 (in-place)
I0323 22:09:29.350729 23525 net.cpp:150] Setting up relu4_3
I0323 22:09:29.350740 23525 net.cpp:157] Top shape: 4 512 96 96 (18874368)
I0323 22:09:29.350745 23525 net.cpp:165] Memory required for data: 5329580544
I0323 22:09:29.350750 23525 layer_factory.hpp:77] Creating layer conv4_3_relu4_3_0_split
I0323 22:09:29.350764 23525 net.cpp:100] Creating Layer conv4_3_relu4_3_0_split
I0323 22:09:29.350787 23525 net.cpp:434] conv4_3_relu4_3_0_split <- conv4_3
I0323 22:09:29.350795 23525 net.cpp:408] conv4_3_relu4_3_0_split -> conv4_3_relu4_3_0_split_0
I0323 22:09:29.350806 23525 net.cpp:408] conv4_3_relu4_3_0_split -> conv4_3_relu4_3_0_split_1
I0323 22:09:29.350855 23525 net.cpp:150] Setting up conv4_3_relu4_3_0_split
I0323 22:09:29.350864 23525 net.cpp:157] Top shape: 4 512 96 96 (18874368)
I0323 22:09:29.350870 23525 net.cpp:157] Top shape: 4 512 96 96 (18874368)
I0323 22:09:29.350874 23525 net.cpp:165] Memory required for data: 5480575488
I0323 22:09:29.350879 23525 layer_factory.hpp:77] Creating layer loss1_conv1
I0323 22:09:29.350895 23525 net.cpp:100] Creating Layer loss1_conv1
I0323 22:09:29.350903 23525 net.cpp:434] loss1_conv1 <- conv4_3_relu4_3_0_split_0
I0323 22:09:29.350914 23525 net.cpp:408] loss1_conv1 -> loss1_conv1
I0323 22:09:29.417096 23525 net.cpp:150] Setting up loss1_conv1
I0323 22:09:29.417121 23525 net.cpp:157] Top shape: 4 512 96 96 (18874368)
I0323 22:09:29.417125 23525 net.cpp:165] Memory required for data: 5556072960
I0323 22:09:29.417134 23525 layer_factory.hpp:77] Creating layer loss_relu1
I0323 22:09:29.417143 23525 net.cpp:100] Creating Layer loss_relu1
I0323 22:09:29.417148 23525 net.cpp:434] loss_relu1 <- loss1_conv1
I0323 22:09:29.417155 23525 net.cpp:395] loss_relu1 -> loss1_conv1 (in-place)
I0323 22:09:29.417587 23525 net.cpp:150] Setting up loss_relu1
I0323 22:09:29.417600 23525 net.cpp:157] Top shape: 4 512 96 96 (18874368)
I0323 22:09:29.417603 23525 net.cpp:165] Memory required for data: 5631570432
I0323 22:09:29.417608 23525 layer_factory.hpp:77] Creating layer loss1_conv1_loss_relu1_0_split
I0323 22:09:29.417615 23525 net.cpp:100] Creating Layer loss1_conv1_loss_relu1_0_split
I0323 22:09:29.417618 23525 net.cpp:434] loss1_conv1_loss_relu1_0_split <- loss1_conv1
I0323 22:09:29.417624 23525 net.cpp:408] loss1_conv1_loss_relu1_0_split -> loss1_conv1_loss_relu1_0_split_0
I0323 22:09:29.417631 23525 net.cpp:408] loss1_conv1_loss_relu1_0_split -> loss1_conv1_loss_relu1_0_split_1
I0323 22:09:29.417667 23525 net.cpp:150] Setting up loss1_conv1_loss_relu1_0_split
I0323 22:09:29.417675 23525 net.cpp:157] Top shape: 4 512 96 96 (18874368)
I0323 22:09:29.417678 23525 net.cpp:157] Top shape: 4 512 96 96 (18874368)
I0323 22:09:29.417681 23525 net.cpp:165] Memory required for data: 5782565376
I0323 22:09:29.417685 23525 layer_factory.hpp:77] Creating layer LFCN_1_5x5
I0323 22:09:29.417696 23525 net.cpp:100] Creating Layer LFCN_1_5x5
I0323 22:09:29.417701 23525 net.cpp:434] LFCN_1_5x5 <- loss1_conv1_loss_relu1_0_split_0
I0323 22:09:29.417706 23525 net.cpp:408] LFCN_1_5x5 -> LFCN_1_5x5
I0323 22:09:29.421103 23525 net.cpp:150] Setting up LFCN_1_5x5
I0323 22:09:29.421113 23525 net.cpp:157] Top shape: 4 9 96 96 (331776)
I0323 22:09:29.421118 23525 net.cpp:165] Memory required for data: 5783892480
I0323 22:09:29.421121 23525 layer_factory.hpp:77] Creating layer LFCN_1_5x5_LFCN_1_5x5_0_split
I0323 22:09:29.421128 23525 net.cpp:100] Creating Layer LFCN_1_5x5_LFCN_1_5x5_0_split
I0323 22:09:29.421130 23525 net.cpp:434] LFCN_1_5x5_LFCN_1_5x5_0_split <- LFCN_1_5x5
I0323 22:09:29.421134 23525 net.cpp:408] LFCN_1_5x5_LFCN_1_5x5_0_split -> LFCN_1_5x5_LFCN_1_5x5_0_split_0
I0323 22:09:29.421139 23525 net.cpp:408] LFCN_1_5x5_LFCN_1_5x5_0_split -> LFCN_1_5x5_LFCN_1_5x5_0_split_1
I0323 22:09:29.421169 23525 net.cpp:150] Setting up LFCN_1_5x5_LFCN_1_5x5_0_split
I0323 22:09:29.421174 23525 net.cpp:157] Top shape: 4 9 96 96 (331776)
I0323 22:09:29.421176 23525 net.cpp:157] Top shape: 4 9 96 96 (331776)
I0323 22:09:29.421180 23525 net.cpp:165] Memory required for data: 5786546688
I0323 22:09:29.421181 23525 layer_factory.hpp:77] Creating layer detection_loss_1_5x5
I0323 22:09:29.421188 23525 net.cpp:100] Creating Layer detection_loss_1_5x5
I0323 22:09:29.421191 23525 net.cpp:434] detection_loss_1_5x5 <- LFCN_1_5x5_LFCN_1_5x5_0_split_0
I0323 22:09:29.421195 23525 net.cpp:434] detection_loss_1_5x5 <- label_1_5x5_data_1_split_0
I0323 22:09:29.421200 23525 net.cpp:408] detection_loss_1_5x5 -> loss_1_5x5
I0323 22:09:29.421211 23525 layer_factory.hpp:77] Creating layer detection_loss_1_5x5
I0323 22:09:29.422677 23525 net.cpp:150] Setting up detection_loss_1_5x5
I0323 22:09:29.422691 23525 net.cpp:157] Top shape: 1 1 1 2 (2)
I0323 22:09:29.422694 23525 net.cpp:160]     with loss weight 0.9
I0323 22:09:29.422713 23525 net.cpp:165] Memory required for data: 5786546696
I0323 22:09:29.422715 23525 layer_factory.hpp:77] Creating layer detection_accuracy_1_5x5
I0323 22:09:29.422724 23525 net.cpp:100] Creating Layer detection_accuracy_1_5x5
I0323 22:09:29.422727 23525 net.cpp:434] detection_accuracy_1_5x5 <- LFCN_1_5x5_LFCN_1_5x5_0_split_1
I0323 22:09:29.422732 23525 net.cpp:434] detection_accuracy_1_5x5 <- label_1_5x5_data_1_split_1
I0323 22:09:29.422737 23525 net.cpp:408] detection_accuracy_1_5x5 -> accuracy_1_5x5
I0323 22:09:29.422745 23525 net.cpp:408] detection_accuracy_1_5x5 -> boxiou_1_5x5
I0323 22:09:29.422780 23525 net.cpp:150] Setting up detection_accuracy_1_5x5
I0323 22:09:29.422788 23525 net.cpp:157] Top shape: 1 1 1 2 (2)
I0323 22:09:29.422793 23525 net.cpp:157] Top shape: 1 1 1 1 (1)
I0323 22:09:29.422796 23525 net.cpp:165] Memory required for data: 5786546708
I0323 22:09:29.422799 23525 layer_factory.hpp:77] Creating layer LFCN_1_7x7
I0323 22:09:29.422808 23525 net.cpp:100] Creating Layer LFCN_1_7x7
I0323 22:09:29.422812 23525 net.cpp:434] LFCN_1_7x7 <- loss1_conv1_loss_relu1_0_split_1
I0323 22:09:29.422817 23525 net.cpp:408] LFCN_1_7x7 -> LFCN_1_7x7
I0323 22:09:29.429275 23525 net.cpp:150] Setting up LFCN_1_7x7
I0323 22:09:29.429291 23525 net.cpp:157] Top shape: 4 9 96 96 (331776)
I0323 22:09:29.429294 23525 net.cpp:165] Memory required for data: 5787873812
I0323 22:09:29.429302 23525 layer_factory.hpp:77] Creating layer LFCN_1_7x7_LFCN_1_7x7_0_split
I0323 22:09:29.429308 23525 net.cpp:100] Creating Layer LFCN_1_7x7_LFCN_1_7x7_0_split
I0323 22:09:29.429311 23525 net.cpp:434] LFCN_1_7x7_LFCN_1_7x7_0_split <- LFCN_1_7x7
I0323 22:09:29.429316 23525 net.cpp:408] LFCN_1_7x7_LFCN_1_7x7_0_split -> LFCN_1_7x7_LFCN_1_7x7_0_split_0
I0323 22:09:29.429323 23525 net.cpp:408] LFCN_1_7x7_LFCN_1_7x7_0_split -> LFCN_1_7x7_LFCN_1_7x7_0_split_1
I0323 22:09:29.429374 23525 net.cpp:150] Setting up LFCN_1_7x7_LFCN_1_7x7_0_split
I0323 22:09:29.429384 23525 net.cpp:157] Top shape: 4 9 96 96 (331776)
I0323 22:09:29.429388 23525 net.cpp:157] Top shape: 4 9 96 96 (331776)
I0323 22:09:29.429391 23525 net.cpp:165] Memory required for data: 5790528020
I0323 22:09:29.429395 23525 layer_factory.hpp:77] Creating layer detection_loss_1_7x7
I0323 22:09:29.429402 23525 net.cpp:100] Creating Layer detection_loss_1_7x7
I0323 22:09:29.429406 23525 net.cpp:434] detection_loss_1_7x7 <- LFCN_1_7x7_LFCN_1_7x7_0_split_0
I0323 22:09:29.429410 23525 net.cpp:434] detection_loss_1_7x7 <- label_1_7x7_data_2_split_0
I0323 22:09:29.429415 23525 net.cpp:408] detection_loss_1_7x7 -> loss_1_7x7
I0323 22:09:29.429425 23525 layer_factory.hpp:77] Creating layer detection_loss_1_7x7
I0323 22:09:29.431015 23525 net.cpp:150] Setting up detection_loss_1_7x7
I0323 22:09:29.431032 23525 net.cpp:157] Top shape: 1 1 1 2 (2)
I0323 22:09:29.431036 23525 net.cpp:160]     with loss weight 0.9
I0323 22:09:29.431046 23525 net.cpp:165] Memory required for data: 5790528028
I0323 22:09:29.431051 23525 layer_factory.hpp:77] Creating layer detection_accuracy_1_7x7
I0323 22:09:29.431059 23525 net.cpp:100] Creating Layer detection_accuracy_1_7x7
I0323 22:09:29.431066 23525 net.cpp:434] detection_accuracy_1_7x7 <- LFCN_1_7x7_LFCN_1_7x7_0_split_1
I0323 22:09:29.431071 23525 net.cpp:434] detection_accuracy_1_7x7 <- label_1_7x7_data_2_split_1
I0323 22:09:29.431077 23525 net.cpp:408] detection_accuracy_1_7x7 -> accuracy_1_7x7
I0323 22:09:29.431084 23525 net.cpp:408] detection_accuracy_1_7x7 -> boxiou_1_7x7
I0323 22:09:29.431123 23525 net.cpp:150] Setting up detection_accuracy_1_7x7
I0323 22:09:29.431129 23525 net.cpp:157] Top shape: 1 1 1 2 (2)
I0323 22:09:29.431134 23525 net.cpp:157] Top shape: 1 1 1 1 (1)
I0323 22:09:29.431138 23525 net.cpp:165] Memory required for data: 5790528040
I0323 22:09:29.431141 23525 layer_factory.hpp:77] Creating layer pool4
I0323 22:09:29.431149 23525 net.cpp:100] Creating Layer pool4
I0323 22:09:29.431154 23525 net.cpp:434] pool4 <- conv4_3_relu4_3_0_split_1
I0323 22:09:29.431161 23525 net.cpp:408] pool4 -> pool4
I0323 22:09:29.431197 23525 net.cpp:150] Setting up pool4
I0323 22:09:29.431205 23525 net.cpp:157] Top shape: 4 512 48 48 (4718592)
I0323 22:09:29.431207 23525 net.cpp:165] Memory required for data: 5809402408
I0323 22:09:29.431210 23525 layer_factory.hpp:77] Creating layer ch4_pool4
I0323 22:09:29.431216 23525 net.cpp:100] Creating Layer ch4_pool4
I0323 22:09:29.431221 23525 net.cpp:434] ch4_pool4 <- ch4
I0323 22:09:29.431226 23525 net.cpp:408] ch4_pool4 -> ch4_pool4
I0323 22:09:29.431257 23525 net.cpp:150] Setting up ch4_pool4
I0323 22:09:29.431262 23525 net.cpp:157] Top shape: 4 1 48 48 (9216)
I0323 22:09:29.431265 23525 net.cpp:165] Memory required for data: 5809439272
I0323 22:09:29.431268 23525 layer_factory.hpp:77] Creating layer pool4_concat
I0323 22:09:29.431274 23525 net.cpp:100] Creating Layer pool4_concat
I0323 22:09:29.431278 23525 net.cpp:434] pool4_concat <- pool4
I0323 22:09:29.431282 23525 net.cpp:434] pool4_concat <- ch4_pool4
I0323 22:09:29.431287 23525 net.cpp:408] pool4_concat -> pool4_new
I0323 22:09:29.431306 23525 net.cpp:150] Setting up pool4_concat
I0323 22:09:29.431311 23525 net.cpp:157] Top shape: 4 513 48 48 (4727808)
I0323 22:09:29.431314 23525 net.cpp:165] Memory required for data: 5828350504
I0323 22:09:29.431318 23525 layer_factory.hpp:77] Creating layer conv5_1_new
I0323 22:09:29.431325 23525 net.cpp:100] Creating Layer conv5_1_new
I0323 22:09:29.431329 23525 net.cpp:434] conv5_1_new <- pool4_new
I0323 22:09:29.431334 23525 net.cpp:408] conv5_1_new -> conv5_1
I0323 22:09:29.437012 23525 net.cpp:150] Setting up conv5_1_new
I0323 22:09:29.437045 23525 net.cpp:157] Top shape: 4 512 48 48 (4718592)
I0323 22:09:29.437049 23525 net.cpp:165] Memory required for data: 5847224872
I0323 22:09:29.437057 23525 layer_factory.hpp:77] Creating layer relu5_1
I0323 22:09:29.437067 23525 net.cpp:100] Creating Layer relu5_1
I0323 22:09:29.437073 23525 net.cpp:434] relu5_1 <- conv5_1
I0323 22:09:29.437078 23525 net.cpp:395] relu5_1 -> conv5_1 (in-place)
I0323 22:09:29.437222 23525 net.cpp:150] Setting up relu5_1
I0323 22:09:29.437232 23525 net.cpp:157] Top shape: 4 512 48 48 (4718592)
I0323 22:09:29.437235 23525 net.cpp:165] Memory required for data: 5866099240
I0323 22:09:29.437239 23525 layer_factory.hpp:77] Creating layer conv5_2
I0323 22:09:29.437247 23525 net.cpp:100] Creating Layer conv5_2
I0323 22:09:29.437250 23525 net.cpp:434] conv5_2 <- conv5_1
I0323 22:09:29.437258 23525 net.cpp:408] conv5_2 -> conv5_2
I0323 22:09:29.446669 23525 net.cpp:150] Setting up conv5_2
I0323 22:09:29.446718 23525 net.cpp:157] Top shape: 4 512 48 48 (4718592)
I0323 22:09:29.446723 23525 net.cpp:165] Memory required for data: 5884973608
I0323 22:09:29.446735 23525 layer_factory.hpp:77] Creating layer relu5_2
I0323 22:09:29.446748 23525 net.cpp:100] Creating Layer relu5_2
I0323 22:09:29.446756 23525 net.cpp:434] relu5_2 <- conv5_2
I0323 22:09:29.446761 23525 net.cpp:395] relu5_2 -> conv5_2 (in-place)
I0323 22:09:29.446995 23525 net.cpp:150] Setting up relu5_2
I0323 22:09:29.447003 23525 net.cpp:157] Top shape: 4 512 48 48 (4718592)
I0323 22:09:29.447007 23525 net.cpp:165] Memory required for data: 5903847976
I0323 22:09:29.447010 23525 layer_factory.hpp:77] Creating layer conv5_3
I0323 22:09:29.447021 23525 net.cpp:100] Creating Layer conv5_3
I0323 22:09:29.447026 23525 net.cpp:434] conv5_3 <- conv5_2
I0323 22:09:29.447032 23525 net.cpp:408] conv5_3 -> conv5_3
I0323 22:09:29.453784 23525 net.cpp:150] Setting up conv5_3
I0323 22:09:29.453816 23525 net.cpp:157] Top shape: 4 512 48 48 (4718592)
I0323 22:09:29.453821 23525 net.cpp:165] Memory required for data: 5922722344
I0323 22:09:29.453830 23525 layer_factory.hpp:77] Creating layer relu5_3
I0323 22:09:29.453840 23525 net.cpp:100] Creating Layer relu5_3
I0323 22:09:29.453846 23525 net.cpp:434] relu5_3 <- conv5_3
I0323 22:09:29.453852 23525 net.cpp:395] relu5_3 -> conv5_3 (in-place)
I0323 22:09:29.454041 23525 net.cpp:150] Setting up relu5_3
I0323 22:09:29.454051 23525 net.cpp:157] Top shape: 4 512 48 48 (4718592)
I0323 22:09:29.454056 23525 net.cpp:165] Memory required for data: 5941596712
I0323 22:09:29.454058 23525 layer_factory.hpp:77] Creating layer conv5_3_relu5_3_0_split
I0323 22:09:29.454066 23525 net.cpp:100] Creating Layer conv5_3_relu5_3_0_split
I0323 22:09:29.454069 23525 net.cpp:434] conv5_3_relu5_3_0_split <- conv5_3
I0323 22:09:29.454075 23525 net.cpp:408] conv5_3_relu5_3_0_split -> conv5_3_relu5_3_0_split_0
I0323 22:09:29.454082 23525 net.cpp:408] conv5_3_relu5_3_0_split -> conv5_3_relu5_3_0_split_1
I0323 22:09:29.454088 23525 net.cpp:408] conv5_3_relu5_3_0_split -> conv5_3_relu5_3_0_split_2
I0323 22:09:29.454135 23525 net.cpp:150] Setting up conv5_3_relu5_3_0_split
I0323 22:09:29.454143 23525 net.cpp:157] Top shape: 4 512 48 48 (4718592)
I0323 22:09:29.454146 23525 net.cpp:157] Top shape: 4 512 48 48 (4718592)
I0323 22:09:29.454150 23525 net.cpp:157] Top shape: 4 512 48 48 (4718592)
I0323 22:09:29.454154 23525 net.cpp:165] Memory required for data: 5998219816
I0323 22:09:29.454157 23525 layer_factory.hpp:77] Creating layer LFCN_2_5x5
I0323 22:09:29.454169 23525 net.cpp:100] Creating Layer LFCN_2_5x5
I0323 22:09:29.454172 23525 net.cpp:434] LFCN_2_5x5 <- conv5_3_relu5_3_0_split_0
I0323 22:09:29.454179 23525 net.cpp:408] LFCN_2_5x5 -> LFCN_2_5x5
I0323 22:09:29.458066 23525 net.cpp:150] Setting up LFCN_2_5x5
I0323 22:09:29.458079 23525 net.cpp:157] Top shape: 4 9 48 48 (82944)
I0323 22:09:29.458082 23525 net.cpp:165] Memory required for data: 5998551592
I0323 22:09:29.458094 23525 layer_factory.hpp:77] Creating layer LFCN_2_5x5_LFCN_2_5x5_0_split
I0323 22:09:29.458101 23525 net.cpp:100] Creating Layer LFCN_2_5x5_LFCN_2_5x5_0_split
I0323 22:09:29.458104 23525 net.cpp:434] LFCN_2_5x5_LFCN_2_5x5_0_split <- LFCN_2_5x5
I0323 22:09:29.458111 23525 net.cpp:408] LFCN_2_5x5_LFCN_2_5x5_0_split -> LFCN_2_5x5_LFCN_2_5x5_0_split_0
I0323 22:09:29.458122 23525 net.cpp:408] LFCN_2_5x5_LFCN_2_5x5_0_split -> LFCN_2_5x5_LFCN_2_5x5_0_split_1
I0323 22:09:29.458155 23525 net.cpp:150] Setting up LFCN_2_5x5_LFCN_2_5x5_0_split
I0323 22:09:29.458163 23525 net.cpp:157] Top shape: 4 9 48 48 (82944)
I0323 22:09:29.458168 23525 net.cpp:157] Top shape: 4 9 48 48 (82944)
I0323 22:09:29.458171 23525 net.cpp:165] Memory required for data: 5999215144
I0323 22:09:29.458174 23525 layer_factory.hpp:77] Creating layer detection_loss_2_5x5
I0323 22:09:29.458181 23525 net.cpp:100] Creating Layer detection_loss_2_5x5
I0323 22:09:29.458184 23525 net.cpp:434] detection_loss_2_5x5 <- LFCN_2_5x5_LFCN_2_5x5_0_split_0
I0323 22:09:29.458189 23525 net.cpp:434] detection_loss_2_5x5 <- label_2_5x5_data_3_split_0
I0323 22:09:29.458195 23525 net.cpp:408] detection_loss_2_5x5 -> loss_2_5x5
I0323 22:09:29.458204 23525 layer_factory.hpp:77] Creating layer detection_loss_2_5x5
I0323 22:09:29.459621 23525 net.cpp:150] Setting up detection_loss_2_5x5
I0323 22:09:29.459635 23525 net.cpp:157] Top shape: 1 1 1 2 (2)
I0323 22:09:29.459638 23525 net.cpp:160]     with loss weight 1
I0323 22:09:29.459648 23525 net.cpp:165] Memory required for data: 5999215152
I0323 22:09:29.459651 23525 layer_factory.hpp:77] Creating layer detection_accuracy_2_5x5
I0323 22:09:29.459659 23525 net.cpp:100] Creating Layer detection_accuracy_2_5x5
I0323 22:09:29.459663 23525 net.cpp:434] detection_accuracy_2_5x5 <- LFCN_2_5x5_LFCN_2_5x5_0_split_1
I0323 22:09:29.459668 23525 net.cpp:434] detection_accuracy_2_5x5 <- label_2_5x5_data_3_split_1
I0323 22:09:29.459673 23525 net.cpp:408] detection_accuracy_2_5x5 -> accuracy_2_5x5
I0323 22:09:29.459684 23525 net.cpp:408] detection_accuracy_2_5x5 -> boxiou_2_5x5
I0323 22:09:29.459719 23525 net.cpp:150] Setting up detection_accuracy_2_5x5
I0323 22:09:29.459727 23525 net.cpp:157] Top shape: 1 1 1 2 (2)
I0323 22:09:29.459730 23525 net.cpp:157] Top shape: 1 1 1 1 (1)
I0323 22:09:29.459733 23525 net.cpp:165] Memory required for data: 5999215164
I0323 22:09:29.459738 23525 layer_factory.hpp:77] Creating layer LFCN_2_7x7
I0323 22:09:29.459746 23525 net.cpp:100] Creating Layer LFCN_2_7x7
I0323 22:09:29.459750 23525 net.cpp:434] LFCN_2_7x7 <- conv5_3_relu5_3_0_split_1
I0323 22:09:29.459758 23525 net.cpp:408] LFCN_2_7x7 -> LFCN_2_7x7
I0323 22:09:29.466883 23525 net.cpp:150] Setting up LFCN_2_7x7
I0323 22:09:29.466897 23525 net.cpp:157] Top shape: 4 9 48 48 (82944)
I0323 22:09:29.466900 23525 net.cpp:165] Memory required for data: 5999546940
I0323 22:09:29.466907 23525 layer_factory.hpp:77] Creating layer LFCN_2_7x7_LFCN_2_7x7_0_split
I0323 22:09:29.466912 23525 net.cpp:100] Creating Layer LFCN_2_7x7_LFCN_2_7x7_0_split
I0323 22:09:29.466917 23525 net.cpp:434] LFCN_2_7x7_LFCN_2_7x7_0_split <- LFCN_2_7x7
I0323 22:09:29.466923 23525 net.cpp:408] LFCN_2_7x7_LFCN_2_7x7_0_split -> LFCN_2_7x7_LFCN_2_7x7_0_split_0
I0323 22:09:29.466929 23525 net.cpp:408] LFCN_2_7x7_LFCN_2_7x7_0_split -> LFCN_2_7x7_LFCN_2_7x7_0_split_1
I0323 22:09:29.466965 23525 net.cpp:150] Setting up LFCN_2_7x7_LFCN_2_7x7_0_split
I0323 22:09:29.466972 23525 net.cpp:157] Top shape: 4 9 48 48 (82944)
I0323 22:09:29.466976 23525 net.cpp:157] Top shape: 4 9 48 48 (82944)
I0323 22:09:29.466979 23525 net.cpp:165] Memory required for data: 6000210492
I0323 22:09:29.466982 23525 layer_factory.hpp:77] Creating layer detection_loss_2_7x7
I0323 22:09:29.466989 23525 net.cpp:100] Creating Layer detection_loss_2_7x7
I0323 22:09:29.466994 23525 net.cpp:434] detection_loss_2_7x7 <- LFCN_2_7x7_LFCN_2_7x7_0_split_0
I0323 22:09:29.466997 23525 net.cpp:434] detection_loss_2_7x7 <- label_2_7x7_data_4_split_0
I0323 22:09:29.467003 23525 net.cpp:408] detection_loss_2_7x7 -> loss_2_7x7
I0323 22:09:29.467010 23525 layer_factory.hpp:77] Creating layer detection_loss_2_7x7
I0323 22:09:29.467641 23525 net.cpp:150] Setting up detection_loss_2_7x7
I0323 22:09:29.467653 23525 net.cpp:157] Top shape: 1 1 1 2 (2)
I0323 22:09:29.467658 23525 net.cpp:160]     with loss weight 1
I0323 22:09:29.467664 23525 net.cpp:165] Memory required for data: 6000210500
I0323 22:09:29.467669 23525 layer_factory.hpp:77] Creating layer detection_accuracy_2_7x7
I0323 22:09:29.467676 23525 net.cpp:100] Creating Layer detection_accuracy_2_7x7
I0323 22:09:29.467680 23525 net.cpp:434] detection_accuracy_2_7x7 <- LFCN_2_7x7_LFCN_2_7x7_0_split_1
I0323 22:09:29.467685 23525 net.cpp:434] detection_accuracy_2_7x7 <- label_2_7x7_data_4_split_1
I0323 22:09:29.467691 23525 net.cpp:408] detection_accuracy_2_7x7 -> accuracy_2_7x7
I0323 22:09:29.467698 23525 net.cpp:408] detection_accuracy_2_7x7 -> boxiou_2_7x7
I0323 22:09:29.467733 23525 net.cpp:150] Setting up detection_accuracy_2_7x7
I0323 22:09:29.467739 23525 net.cpp:157] Top shape: 1 1 1 2 (2)
I0323 22:09:29.467743 23525 net.cpp:157] Top shape: 1 1 1 1 (1)
I0323 22:09:29.467746 23525 net.cpp:165] Memory required for data: 6000210512
I0323 22:09:29.467749 23525 layer_factory.hpp:77] Creating layer pool5
I0323 22:09:29.467756 23525 net.cpp:100] Creating Layer pool5
I0323 22:09:29.467761 23525 net.cpp:434] pool5 <- conv5_3_relu5_3_0_split_2
I0323 22:09:29.467767 23525 net.cpp:408] pool5 -> pool5
I0323 22:09:29.467803 23525 net.cpp:150] Setting up pool5
I0323 22:09:29.467809 23525 net.cpp:157] Top shape: 4 512 24 24 (1179648)
I0323 22:09:29.467813 23525 net.cpp:165] Memory required for data: 6004929104
I0323 22:09:29.467815 23525 layer_factory.hpp:77] Creating layer conv6_1
I0323 22:09:29.467823 23525 net.cpp:100] Creating Layer conv6_1
I0323 22:09:29.467828 23525 net.cpp:434] conv6_1 <- pool5
I0323 22:09:29.467834 23525 net.cpp:408] conv6_1 -> conv6_1
I0323 22:09:29.534461 23525 net.cpp:150] Setting up conv6_1
I0323 22:09:29.534513 23525 net.cpp:157] Top shape: 4 512 24 24 (1179648)
I0323 22:09:29.534518 23525 net.cpp:165] Memory required for data: 6009647696
I0323 22:09:29.534534 23525 layer_factory.hpp:77] Creating layer relu6_1
I0323 22:09:29.534564 23525 net.cpp:100] Creating Layer relu6_1
I0323 22:09:29.534572 23525 net.cpp:434] relu6_1 <- conv6_1
I0323 22:09:29.534580 23525 net.cpp:395] relu6_1 -> conv6_1 (in-place)
I0323 22:09:29.534765 23525 net.cpp:150] Setting up relu6_1
I0323 22:09:29.534776 23525 net.cpp:157] Top shape: 4 512 24 24 (1179648)
I0323 22:09:29.534780 23525 net.cpp:165] Memory required for data: 6014366288
I0323 22:09:29.534783 23525 layer_factory.hpp:77] Creating layer conv6_1_relu6_1_0_split
I0323 22:09:29.534791 23525 net.cpp:100] Creating Layer conv6_1_relu6_1_0_split
I0323 22:09:29.534795 23525 net.cpp:434] conv6_1_relu6_1_0_split <- conv6_1
I0323 22:09:29.534801 23525 net.cpp:408] conv6_1_relu6_1_0_split -> conv6_1_relu6_1_0_split_0
I0323 22:09:29.534808 23525 net.cpp:408] conv6_1_relu6_1_0_split -> conv6_1_relu6_1_0_split_1
I0323 22:09:29.534814 23525 net.cpp:408] conv6_1_relu6_1_0_split -> conv6_1_relu6_1_0_split_2
I0323 22:09:29.534864 23525 net.cpp:150] Setting up conv6_1_relu6_1_0_split
I0323 22:09:29.534870 23525 net.cpp:157] Top shape: 4 512 24 24 (1179648)
I0323 22:09:29.534875 23525 net.cpp:157] Top shape: 4 512 24 24 (1179648)
I0323 22:09:29.534879 23525 net.cpp:157] Top shape: 4 512 24 24 (1179648)
I0323 22:09:29.534883 23525 net.cpp:165] Memory required for data: 6028522064
I0323 22:09:29.534886 23525 layer_factory.hpp:77] Creating layer LFCN_3_5x5
I0323 22:09:29.534900 23525 net.cpp:100] Creating Layer LFCN_3_5x5
I0323 22:09:29.534904 23525 net.cpp:434] LFCN_3_5x5 <- conv6_1_relu6_1_0_split_0
I0323 22:09:29.534912 23525 net.cpp:408] LFCN_3_5x5 -> LFCN_3_5x5
I0323 22:09:29.540072 23525 net.cpp:150] Setting up LFCN_3_5x5
I0323 22:09:29.540097 23525 net.cpp:157] Top shape: 4 9 24 24 (20736)
I0323 22:09:29.540102 23525 net.cpp:165] Memory required for data: 6028605008
I0323 22:09:29.540108 23525 layer_factory.hpp:77] Creating layer LFCN_3_5x5_LFCN_3_5x5_0_split
I0323 22:09:29.540118 23525 net.cpp:100] Creating Layer LFCN_3_5x5_LFCN_3_5x5_0_split
I0323 22:09:29.540123 23525 net.cpp:434] LFCN_3_5x5_LFCN_3_5x5_0_split <- LFCN_3_5x5
I0323 22:09:29.540129 23525 net.cpp:408] LFCN_3_5x5_LFCN_3_5x5_0_split -> LFCN_3_5x5_LFCN_3_5x5_0_split_0
I0323 22:09:29.540136 23525 net.cpp:408] LFCN_3_5x5_LFCN_3_5x5_0_split -> LFCN_3_5x5_LFCN_3_5x5_0_split_1
I0323 22:09:29.540169 23525 net.cpp:150] Setting up LFCN_3_5x5_LFCN_3_5x5_0_split
I0323 22:09:29.540175 23525 net.cpp:157] Top shape: 4 9 24 24 (20736)
I0323 22:09:29.540179 23525 net.cpp:157] Top shape: 4 9 24 24 (20736)
I0323 22:09:29.540181 23525 net.cpp:165] Memory required for data: 6028770896
I0323 22:09:29.540184 23525 layer_factory.hpp:77] Creating layer detection_loss_3_5x5
I0323 22:09:29.540191 23525 net.cpp:100] Creating Layer detection_loss_3_5x5
I0323 22:09:29.540194 23525 net.cpp:434] detection_loss_3_5x5 <- LFCN_3_5x5_LFCN_3_5x5_0_split_0
I0323 22:09:29.540199 23525 net.cpp:434] detection_loss_3_5x5 <- label_3_5x5_data_5_split_0
I0323 22:09:29.540205 23525 net.cpp:408] detection_loss_3_5x5 -> loss_3_5x5
I0323 22:09:29.540212 23525 layer_factory.hpp:77] Creating layer detection_loss_3_5x5
I0323 22:09:29.540519 23525 net.cpp:150] Setting up detection_loss_3_5x5
I0323 22:09:29.540529 23525 net.cpp:157] Top shape: 1 1 1 2 (2)
I0323 22:09:29.540532 23525 net.cpp:160]     with loss weight 1
I0323 22:09:29.540544 23525 net.cpp:165] Memory required for data: 6028770904
I0323 22:09:29.540547 23525 layer_factory.hpp:77] Creating layer detection_accuracy_3_5x5
I0323 22:09:29.540554 23525 net.cpp:100] Creating Layer detection_accuracy_3_5x5
I0323 22:09:29.540557 23525 net.cpp:434] detection_accuracy_3_5x5 <- LFCN_3_5x5_LFCN_3_5x5_0_split_1
I0323 22:09:29.540562 23525 net.cpp:434] detection_accuracy_3_5x5 <- label_3_5x5_data_5_split_1
I0323 22:09:29.540568 23525 net.cpp:408] detection_accuracy_3_5x5 -> accuracy_3_5x5
I0323 22:09:29.540575 23525 net.cpp:408] detection_accuracy_3_5x5 -> boxiou_3_5x5
I0323 22:09:29.540612 23525 net.cpp:150] Setting up detection_accuracy_3_5x5
I0323 22:09:29.540619 23525 net.cpp:157] Top shape: 1 1 1 2 (2)
I0323 22:09:29.540623 23525 net.cpp:157] Top shape: 1 1 1 1 (1)
I0323 22:09:29.540627 23525 net.cpp:165] Memory required for data: 6028770916
I0323 22:09:29.540630 23525 layer_factory.hpp:77] Creating layer LFCN_3_7x7
I0323 22:09:29.540640 23525 net.cpp:100] Creating Layer LFCN_3_7x7
I0323 22:09:29.540644 23525 net.cpp:434] LFCN_3_7x7 <- conv6_1_relu6_1_0_split_1
I0323 22:09:29.540650 23525 net.cpp:408] LFCN_3_7x7 -> LFCN_3_7x7
I0323 22:09:29.548395 23525 net.cpp:150] Setting up LFCN_3_7x7
I0323 22:09:29.548419 23525 net.cpp:157] Top shape: 4 9 24 24 (20736)
I0323 22:09:29.548422 23525 net.cpp:165] Memory required for data: 6028853860
I0323 22:09:29.548429 23525 layer_factory.hpp:77] Creating layer LFCN_3_7x7_LFCN_3_7x7_0_split
I0323 22:09:29.548437 23525 net.cpp:100] Creating Layer LFCN_3_7x7_LFCN_3_7x7_0_split
I0323 22:09:29.548442 23525 net.cpp:434] LFCN_3_7x7_LFCN_3_7x7_0_split <- LFCN_3_7x7
I0323 22:09:29.548450 23525 net.cpp:408] LFCN_3_7x7_LFCN_3_7x7_0_split -> LFCN_3_7x7_LFCN_3_7x7_0_split_0
I0323 22:09:29.548457 23525 net.cpp:408] LFCN_3_7x7_LFCN_3_7x7_0_split -> LFCN_3_7x7_LFCN_3_7x7_0_split_1
I0323 22:09:29.548487 23525 net.cpp:150] Setting up LFCN_3_7x7_LFCN_3_7x7_0_split
I0323 22:09:29.548492 23525 net.cpp:157] Top shape: 4 9 24 24 (20736)
I0323 22:09:29.548496 23525 net.cpp:157] Top shape: 4 9 24 24 (20736)
I0323 22:09:29.548498 23525 net.cpp:165] Memory required for data: 6029019748
I0323 22:09:29.548501 23525 layer_factory.hpp:77] Creating layer detection_loss_3_7x7
I0323 22:09:29.548506 23525 net.cpp:100] Creating Layer detection_loss_3_7x7
I0323 22:09:29.548509 23525 net.cpp:434] detection_loss_3_7x7 <- LFCN_3_7x7_LFCN_3_7x7_0_split_0
I0323 22:09:29.548513 23525 net.cpp:434] detection_loss_3_7x7 <- label_3_7x7_data_6_split_0
I0323 22:09:29.548519 23525 net.cpp:408] detection_loss_3_7x7 -> loss_3_7x7
I0323 22:09:29.548527 23525 layer_factory.hpp:77] Creating layer detection_loss_3_7x7
I0323 22:09:29.548838 23525 net.cpp:150] Setting up detection_loss_3_7x7
I0323 22:09:29.548848 23525 net.cpp:157] Top shape: 1 1 1 2 (2)
I0323 22:09:29.548851 23525 net.cpp:160]     with loss weight 1
I0323 22:09:29.548862 23525 net.cpp:165] Memory required for data: 6029019756
I0323 22:09:29.548866 23525 layer_factory.hpp:77] Creating layer detection_accuracy_3_7x7
I0323 22:09:29.548871 23525 net.cpp:100] Creating Layer detection_accuracy_3_7x7
I0323 22:09:29.548876 23525 net.cpp:434] detection_accuracy_3_7x7 <- LFCN_3_7x7_LFCN_3_7x7_0_split_1
I0323 22:09:29.548880 23525 net.cpp:434] detection_accuracy_3_7x7 <- label_3_7x7_data_6_split_1
I0323 22:09:29.548887 23525 net.cpp:408] detection_accuracy_3_7x7 -> accuracy_3_7x7
I0323 22:09:29.548894 23525 net.cpp:408] detection_accuracy_3_7x7 -> boxiou_3_7x7
I0323 22:09:29.548930 23525 net.cpp:150] Setting up detection_accuracy_3_7x7
I0323 22:09:29.548938 23525 net.cpp:157] Top shape: 1 1 1 2 (2)
I0323 22:09:29.548943 23525 net.cpp:157] Top shape: 1 1 1 1 (1)
I0323 22:09:29.548945 23525 net.cpp:165] Memory required for data: 6029019768
I0323 22:09:29.548949 23525 layer_factory.hpp:77] Creating layer pool6
I0323 22:09:29.548955 23525 net.cpp:100] Creating Layer pool6
I0323 22:09:29.548959 23525 net.cpp:434] pool6 <- conv6_1_relu6_1_0_split_2
I0323 22:09:29.548965 23525 net.cpp:408] pool6 -> pool6
I0323 22:09:29.549000 23525 net.cpp:150] Setting up pool6
I0323 22:09:29.549006 23525 net.cpp:157] Top shape: 4 512 12 12 (294912)
I0323 22:09:29.549010 23525 net.cpp:165] Memory required for data: 6030199416
I0323 22:09:29.549013 23525 layer_factory.hpp:77] Creating layer LFCN_4_5x5
I0323 22:09:29.549022 23525 net.cpp:100] Creating Layer LFCN_4_5x5
I0323 22:09:29.549027 23525 net.cpp:434] LFCN_4_5x5 <- pool6
I0323 22:09:29.549032 23525 net.cpp:408] LFCN_4_5x5 -> LFCN_4_5x5
I0323 22:09:29.552837 23525 net.cpp:150] Setting up LFCN_4_5x5
I0323 22:09:29.552850 23525 net.cpp:157] Top shape: 4 9 12 12 (5184)
I0323 22:09:29.552851 23525 net.cpp:165] Memory required for data: 6030220152
I0323 22:09:29.552856 23525 layer_factory.hpp:77] Creating layer LFCN_4_5x5_LFCN_4_5x5_0_split
I0323 22:09:29.552862 23525 net.cpp:100] Creating Layer LFCN_4_5x5_LFCN_4_5x5_0_split
I0323 22:09:29.552865 23525 net.cpp:434] LFCN_4_5x5_LFCN_4_5x5_0_split <- LFCN_4_5x5
I0323 22:09:29.552870 23525 net.cpp:408] LFCN_4_5x5_LFCN_4_5x5_0_split -> LFCN_4_5x5_LFCN_4_5x5_0_split_0
I0323 22:09:29.552875 23525 net.cpp:408] LFCN_4_5x5_LFCN_4_5x5_0_split -> LFCN_4_5x5_LFCN_4_5x5_0_split_1
I0323 22:09:29.552906 23525 net.cpp:150] Setting up LFCN_4_5x5_LFCN_4_5x5_0_split
I0323 22:09:29.552911 23525 net.cpp:157] Top shape: 4 9 12 12 (5184)
I0323 22:09:29.552914 23525 net.cpp:157] Top shape: 4 9 12 12 (5184)
I0323 22:09:29.552917 23525 net.cpp:165] Memory required for data: 6030261624
I0323 22:09:29.552919 23525 layer_factory.hpp:77] Creating layer detection_loss_4_5x5
I0323 22:09:29.552924 23525 net.cpp:100] Creating Layer detection_loss_4_5x5
I0323 22:09:29.552927 23525 net.cpp:434] detection_loss_4_5x5 <- LFCN_4_5x5_LFCN_4_5x5_0_split_0
I0323 22:09:29.552932 23525 net.cpp:434] detection_loss_4_5x5 <- label_4_5x5_data_7_split_0
I0323 22:09:29.552935 23525 net.cpp:408] detection_loss_4_5x5 -> loss_4_5x5
I0323 22:09:29.552942 23525 layer_factory.hpp:77] Creating layer detection_loss_4_5x5
I0323 22:09:29.553237 23525 net.cpp:150] Setting up detection_loss_4_5x5
I0323 22:09:29.553247 23525 net.cpp:157] Top shape: 1 1 1 2 (2)
I0323 22:09:29.553251 23525 net.cpp:160]     with loss weight 1
I0323 22:09:29.553256 23525 net.cpp:165] Memory required for data: 6030261632
I0323 22:09:29.553259 23525 layer_factory.hpp:77] Creating layer detection_accuracy_4_5x5
I0323 22:09:29.553266 23525 net.cpp:100] Creating Layer detection_accuracy_4_5x5
I0323 22:09:29.553268 23525 net.cpp:434] detection_accuracy_4_5x5 <- LFCN_4_5x5_LFCN_4_5x5_0_split_1
I0323 22:09:29.553273 23525 net.cpp:434] detection_accuracy_4_5x5 <- label_4_5x5_data_7_split_1
I0323 22:09:29.553279 23525 net.cpp:408] detection_accuracy_4_5x5 -> accuracy_4_5x5
I0323 22:09:29.553285 23525 net.cpp:408] detection_accuracy_4_5x5 -> boxiou_4_5x5
I0323 22:09:29.553318 23525 net.cpp:150] Setting up detection_accuracy_4_5x5
I0323 22:09:29.553325 23525 net.cpp:157] Top shape: 1 1 1 2 (2)
I0323 22:09:29.553330 23525 net.cpp:157] Top shape: 1 1 1 1 (1)
I0323 22:09:29.553333 23525 net.cpp:165] Memory required for data: 6030261644
I0323 22:09:29.553336 23525 net.cpp:228] detection_accuracy_4_5x5 does not need backward computation.
I0323 22:09:29.553340 23525 net.cpp:226] detection_loss_4_5x5 needs backward computation.
I0323 22:09:29.553345 23525 net.cpp:226] LFCN_4_5x5_LFCN_4_5x5_0_split needs backward computation.
I0323 22:09:29.553349 23525 net.cpp:226] LFCN_4_5x5 needs backward computation.
…
I0323 22:09:29.567054 23525 image_gt_data_layer.cpp:235] output label size 1 : 2,6,96,96
I0323 22:09:29.567101 23525 image_gt_data_layer.cpp:235] output label size 2 : 2,6,48,48
I0323 22:09:29.567149 23525 image_gt_data_layer.cpp:235] output label size 3 : 2,6,48,48
I0323 22:09:29.567198 23525 image_gt_data_layer.cpp:235] output label size 4 : 2,6,24,24
I0323 22:09:29.567245 23525 image_gt_data_layer.cpp:235] output label size 5 : 2,6,24,24
I0323 22:09:29.567294 23525 image_gt_data_layer.cpp:235] output label size 6 : 2,6,12,12
I0323 22:09:29.601039 23525 net.cpp:150] Setting up data
I0323 22:09:29.601089 23525 net.cpp:157] Top shape: 2 4 768 768 (4718592)
I0323 22:09:29.601095 23525 net.cpp:157] Top shape: 2 6 96 96 (110592)
I0323 22:09:29.601100 23525 net.cpp:157] Top shape: 2 6 96 96 (110592)
I0323 22:09:29.601105 23525 net.cpp:157] Top shape: 2 6 48 48 (27648)
I0323 22:09:29.601110 23525 net.cpp:157] Top shape: 2 6 48 48 (27648)
I0323 22:09:29.601114 23525 net.cpp:157] Top shape: 2 6 24 24 (6912)
I0323 22:09:29.601119 23525 net.cpp:157] Top shape: 2 6 24 24 (6912)
I0323 22:09:29.601124 23525 net.cpp:157] Top shape: 2 6 12 12 (1728)
I0323 22:09:29.601126 23525 net.cpp:165] Memory required for data: 20042496
I0323 22:09:29.601135 23525 layer_factory.hpp:77] Creating layer label_1_5x5_data_1_split
I0323 22:09:29.601152 23525 net.cpp:100] Creating Layer label_1_5x5_data_1_split
I0323 22:09:29.601158 23525 net.cpp:434] label_1_5x5_data_1_split <- label_1_5x5
I0323 22:09:29.601166 23525 net.cpp:408] label_1_5x5_data_1_split -> label_1_5x5_data_1_split_0
I0323 22:09:29.601178 23525 net.cpp:408] label_1_5x5_data_1_split -> label_1_5x5_data_1_split_1
I0323 22:09:29.601531 23525 net.cpp:150] Setting up label_1_5x5_data_1_split
I0323 22:09:29.601582 23525 net.cpp:157] Top shape: 2 6 96 96 (110592)
I0323 22:09:29.601593 23525 net.cpp:157] Top shape: 2 6 96 96 (110592)
I0323 22:09:29.601600 23525 net.cpp:165] Memory required for data: 20927232
I0323 22:09:29.601613 23525 layer_factory.hpp:77] Creating layer label_1_7x7_data_2_split
I0323 22:09:29.601635 23525 net.cpp:100] Creating Layer label_1_7x7_data_2_split
I0323 22:09:29.601645 23525 net.cpp:434] label_1_7x7_data_2_split <- label_1_7x7
I0323 22:09:29.601658 23525 net.cpp:408] label_1_7x7_data_2_split -> label_1_7x7_data_2_split_0
I0323 22:09:29.601676 23525 net.cpp:408] label_1_7x7_data_2_split -> label_1_7x7_data_2_split_1
I0323 22:09:29.601757 23525 net.cpp:150] Setting up label_1_7x7_data_2_split
I0323 22:09:29.601768 23525 net.cpp:157] Top shape: 2 6 96 96 (110592)
I0323 22:09:29.601778 23525 net.cpp:157] Top shape: 2 6 96 96 (110592)
I0323 22:09:29.601784 23525 net.cpp:165] Memory required for data: 21811968
I0323 22:09:29.601792 23525 layer_factory.hpp:77] Creating layer label_2_5x5_data_3_split
I0323 22:09:29.601802 23525 net.cpp:100] Creating Layer label_2_5x5_data_3_split
I0323 22:09:29.601810 23525 net.cpp:434] label_2_5x5_data_3_split <- label_2_5x5
I0323 22:09:29.601821 23525 net.cpp:408] label_2_5x5_data_3_split -> label_2_5x5_data_3_split_0
I0323 22:09:29.601835 23525 net.cpp:408] label_2_5x5_data_3_split -> label_2_5x5_data_3_split_1
I0323 22:09:29.601905 23525 net.cpp:150] Setting up label_2_5x5_data_3_split
I0323 22:09:29.601917 23525 net.cpp:157] Top shape: 2 6 48 48 (27648)
I0323 22:09:29.601925 23525 net.cpp:157] Top shape: 2 6 48 48 (27648)
I0323 22:09:29.601933 23525 net.cpp:165] Memory required for data: 22033152
I0323 22:09:29.601939 23525 layer_factory.hpp:77] Creating layer label_2_7x7_data_4_split
I0323 22:09:29.601975 23525 net.cpp:100] Creating Layer label_2_7x7_data_4_split
I0323 22:09:29.601984 23525 net.cpp:434] label_2_7x7_data_4_split <- label_2_7x7
I0323 22:09:29.601996 23525 net.cpp:408] label_2_7x7_data_4_split -> label_2_7x7_data_4_split_0
I0323 22:09:29.602008 23525 net.cpp:408] label_2_7x7_data_4_split -> label_2_7x7_data_4_split_1
I0323 22:09:29.602080 23525 net.cpp:150] Setting up label_2_7x7_data_4_split
I0323 22:09:29.602092 23525 net.cpp:157] Top shape: 2 6 48 48 (27648)
I0323 22:09:29.602102 23525 net.cpp:157] Top shape: 2 6 48 48 (27648)
I0323 22:09:29.602108 23525 net.cpp:165] Memory required for data: 22254336
I0323 22:09:29.602116 23525 layer_factory.hpp:77] Creating layer label_3_5x5_data_5_split
I0323 22:09:29.602128 23525 net.cpp:100] Creating Layer label_3_5x5_data_5_split
I0323 22:09:29.602135 23525 net.cpp:434] label_3_5x5_data_5_split <- label_3_5x5
I0323 22:09:29.602152 23525 net.cpp:408] label_3_5x5_data_5_split -> label_3_5x5_data_5_split_0
I0323 22:09:29.602169 23525 net.cpp:408] label_3_5x5_data_5_split -> label_3_5x5_data_5_split_1
I0323 22:09:29.602243 23525 net.cpp:150] Setting up label_3_5x5_data_5_split
I0323 22:09:29.602255 23525 net.cpp:157] Top shape: 2 6 24 24 (6912)
I0323 22:09:29.602265 23525 net.cpp:157] Top shape: 2 6 24 24 (6912)
I0323 22:09:29.602272 23525 net.cpp:165] Memory required for data: 22309632
I0323 22:09:29.602279 23525 layer_factory.hpp:77] Creating layer label_3_7x7_data_6_split
I0323 22:09:29.602289 23525 net.cpp:100] Creating Layer label_3_7x7_data_6_split
I0323 22:09:29.602298 23525 net.cpp:434] label_3_7x7_data_6_split <- label_3_7x7
I0323 22:09:29.602309 23525 net.cpp:408] label_3_7x7_data_6_split -> label_3_7x7_data_6_split_0
I0323 22:09:29.602324 23525 net.cpp:408] label_3_7x7_data_6_split -> label_3_7x7_data_6_split_1
I0323 22:09:29.602396 23525 net.cpp:150] Setting up label_3_7x7_data_6_split
I0323 22:09:29.602407 23525 net.cpp:157] Top shape: 2 6 24 24 (6912)
I0323 22:09:29.602417 23525 net.cpp:157] Top shape: 2 6 24 24 (6912)
I0323 22:09:29.602423 23525 net.cpp:165] Memory required for data: 22364928
I0323 22:09:29.602432 23525 layer_factory.hpp:77] Creating layer label_4_5x5_data_7_split
I0323 22:09:29.602442 23525 net.cpp:100] Creating Layer label_4_5x5_data_7_split
I0323 22:09:29.602448 23525 net.cpp:434] label_4_5x5_data_7_split <- label_4_5x5
I0323 22:09:29.602461 23525 net.cpp:408] label_4_5x5_data_7_split -> label_4_5x5_data_7_split_0
I0323 22:09:29.602475 23525 net.cpp:408] label_4_5x5_data_7_split -> label_4_5x5_data_7_split_1
I0323 22:09:29.602547 23525 net.cpp:150] Setting up label_4_5x5_data_7_split
I0323 22:09:29.602558 23525 net.cpp:157] Top shape: 2 6 12 12 (1728)
I0323 22:09:29.602567 23525 net.cpp:157] Top shape: 2 6 12 12 (1728)
I0323 22:09:29.602574 23525 net.cpp:165] Memory required for data: 22378752
I0323 22:09:29.602582 23525 layer_factory.hpp:77] Creating layer slice
I0323 22:09:29.602598 23525 net.cpp:100] Creating Layer slice
I0323 22:09:29.602605 23525 net.cpp:434] slice <- data
I0323 22:09:29.602618 23525 net.cpp:408] slice -> data123
I0323 22:09:29.602633 23525 net.cpp:408] slice -> ch4
I0323 22:09:29.602710 23525 net.cpp:150] Setting up slice
I0323 22:09:29.602722 23525 net.cpp:157] Top shape: 2 3 768 768 (3538944)
I0323 22:09:29.602731 23525 net.cpp:157] Top shape: 2 1 768 768 (1179648)
I0323 22:09:29.602740 23525 net.cpp:165] Memory required for data: 41253120
I0323 22:09:29.602746 23525 layer_factory.hpp:77] Creating layer conv1_1
I0323 22:09:29.602767 23525 net.cpp:100] Creating Layer conv1_1
I0323 22:09:29.602777 23525 net.cpp:434] conv1_1 <- data123
I0323 22:09:29.602788 23525 net.cpp:408] conv1_1 -> conv1_1
I0323 22:09:29.611035 23525 net.cpp:150] Setting up conv1_1
I0323 22:09:29.611071 23525 net.cpp:157] Top shape: 2 64 768 768 (75497472)
I0323 22:09:29.611076 23525 net.cpp:165] Memory required for data: 343243008
I0323 22:09:29.611094 23525 layer_factory.hpp:77] Creating layer relu1_1
I0323 22:09:29.611112 23525 net.cpp:100] Creating Layer relu1_1
I0323 22:09:29.611119 23525 net.cpp:434] relu1_1 <- conv1_1
I0323 22:09:29.611126 23525 net.cpp:395] relu1_1 -> conv1_1 (in-place)
I0323 22:09:29.611726 23525 net.cpp:150] Setting up relu1_1
I0323 22:09:29.611742 23525 net.cpp:157] Top shape: 2 64 768 768 (75497472)
I0323 22:09:29.611747 23525 net.cpp:165] Memory required for data: 645232896
I0323 22:09:29.611752 23525 layer_factory.hpp:77] Creating layer conv1_2
I0323 22:09:29.611764 23525 net.cpp:100] Creating Layer conv1_2
I0323 22:09:29.611770 23525 net.cpp:434] conv1_2 <- conv1_1
I0323 22:09:29.611779 23525 net.cpp:408] conv1_2 -> conv1_2
I0323 22:09:29.614356 23525 net.cpp:150] Setting up conv1_2
I0323 22:09:29.614374 23525 net.cpp:157] Top shape: 2 64 768 768 (75497472)
I0323 22:09:29.614378 23525 net.cpp:165] Memory required for data: 947222784
I0323 22:09:29.614389 23525 layer_factory.hpp:77] Creating layer relu1_2
I0323 22:09:29.614398 23525 net.cpp:100] Creating Layer relu1_2
I0323 22:09:29.614403 23525 net.cpp:434] relu1_2 <- conv1_2
I0323 22:09:29.614410 23525 net.cpp:395] relu1_2 -> conv1_2 (in-place)
I0323 22:09:29.614617 23525 net.cpp:150] Setting up relu1_2
I0323 22:09:29.614627 23525 net.cpp:157] Top shape: 2 64 768 768 (75497472)
I0323 22:09:29.614632 23525 net.cpp:165] Memory required for data: 1249212672
I0323 22:09:29.614636 23525 layer_factory.hpp:77] Creating layer pool1
I0323 22:09:29.614646 23525 net.cpp:100] Creating Layer pool1
I0323 22:09:29.614652 23525 net.cpp:434] pool1 <- conv1_2
I0323 22:09:29.614658 23525 net.cpp:408] pool1 -> pool1
I0323 22:09:29.614711 23525 net.cpp:150] Setting up pool1
I0323 22:09:29.614718 23525 net.cpp:157] Top shape: 2 64 384 384 (18874368)
I0323 22:09:29.614722 23525 net.cpp:165] Memory required for data: 1324710144
I0323 22:09:29.614727 23525 layer_factory.hpp:77] Creating layer conv2_1
I0323 22:09:29.614737 23525 net.cpp:100] Creating Layer conv2_1
I0323 22:09:29.614742 23525 net.cpp:434] conv2_1 <- pool1
I0323 22:09:29.614748 23525 net.cpp:408] conv2_1 -> conv2_1
I0323 22:09:29.617020 23525 net.cpp:150] Setting up conv2_1
I0323 22:09:29.617039 23525 net.cpp:157] Top shape: 2 128 384 384 (37748736)
I0323 22:09:29.617043 23525 net.cpp:165] Memory required for data: 1475705088
I0323 22:09:29.617056 23525 layer_factory.hpp:77] Creating layer relu2_1
I0323 22:09:29.617063 23525 net.cpp:100] Creating Layer relu2_1
I0323 22:09:29.617069 23525 net.cpp:434] relu2_1 <- conv2_1
I0323 22:09:29.617074 23525 net.cpp:395] relu2_1 -> conv2_1 (in-place)
I0323 22:09:29.617280 23525 net.cpp:150] Setting up relu2_1
I0323 22:09:29.617291 23525 net.cpp:157] Top shape: 2 128 384 384 (37748736)
I0323 22:09:29.617296 23525 net.cpp:165] Memory required for data: 1626700032
I0323 22:09:29.617300 23525 layer_factory.hpp:77] Creating layer conv2_2
I0323 22:09:29.617313 23525 net.cpp:100] Creating Layer conv2_2
I0323 22:09:29.617317 23525 net.cpp:434] conv2_2 <- conv2_1
I0323 22:09:29.617324 23525 net.cpp:408] conv2_2 -> conv2_2
I0323 22:09:29.620844 23525 net.cpp:150] Setting up conv2_2
I0323 22:09:29.620895 23525 net.cpp:157] Top shape: 2 128 384 384 (37748736)
I0323 22:09:29.620904 23525 net.cpp:165] Memory required for data: 1777694976
I0323 22:09:29.620926 23525 layer_factory.hpp:77] Creating layer relu2_2
I0323 22:09:29.620945 23525 net.cpp:100] Creating Layer relu2_2
I0323 22:09:29.620967 23525 net.cpp:434] relu2_2 <- conv2_2
I0323 22:09:29.620985 23525 net.cpp:395] relu2_2 -> conv2_2 (in-place)
I0323 22:09:29.621491 23525 net.cpp:150] Setting up relu2_2
I0323 22:09:29.621518 23525 net.cpp:157] Top shape: 2 128 384 384 (37748736)
I0323 22:09:29.621529 23525 net.cpp:165] Memory required for data: 1928689920
I0323 22:09:29.621541 23525 layer_factory.hpp:77] Creating layer pool2
I0323 22:09:29.621559 23525 net.cpp:100] Creating Layer pool2
I0323 22:09:29.621572 23525 net.cpp:434] pool2 <- conv2_2
I0323 22:09:29.621601 23525 net.cpp:408] pool2 -> pool2
I0323 22:09:29.621736 23525 net.cpp:150] Setting up pool2
I0323 22:09:29.621757 23525 net.cpp:157] Top shape: 2 128 192 192 (9437184)
I0323 22:09:29.621767 23525 net.cpp:165] Memory required for data: 1966438656
I0323 22:09:29.621780 23525 layer_factory.hpp:77] Creating layer conv3_1
I0323 22:09:29.621806 23525 net.cpp:100] Creating Layer conv3_1
I0323 22:09:29.621821 23525 net.cpp:434] conv3_1 <- pool2
I0323 22:09:29.621836 23525 net.cpp:408] conv3_1 -> conv3_1
I0323 22:09:29.630733 23525 net.cpp:150] Setting up conv3_1
I0323 22:09:29.630853 23525 net.cpp:157] Top shape: 2 256 192 192 (18874368)
I0323 22:09:29.630867 23525 net.cpp:165] Memory required for data: 2041936128
I0323 22:09:29.630928 23525 layer_factory.hpp:77] Creating layer relu3_1
I0323 22:09:29.630972 23525 net.cpp:100] Creating Layer relu3_1
I0323 22:09:29.630993 23525 net.cpp:434] relu3_1 <- conv3_1
I0323 22:09:29.631009 23525 net.cpp:395] relu3_1 -> conv3_1 (in-place)
I0323 22:09:29.631547 23525 net.cpp:150] Setting up relu3_1
I0323 22:09:29.631562 23525 net.cpp:157] Top shape: 2 256 192 192 (18874368)
I0323 22:09:29.631567 23525 net.cpp:165] Memory required for data: 2117433600
I0323 22:09:29.631570 23525 layer_factory.hpp:77] Creating layer conv3_2
I0323 22:09:29.631590 23525 net.cpp:100] Creating Layer conv3_2
I0323 22:09:29.631597 23525 net.cpp:434] conv3_2 <- conv3_1
I0323 22:09:29.631606 23525 net.cpp:408] conv3_2 -> conv3_2
I0323 22:09:29.635792 23525 net.cpp:150] Setting up conv3_2
I0323 22:09:29.635818 23525 net.cpp:157] Top shape: 2 256 192 192 (18874368)
I0323 22:09:29.635823 23525 net.cpp:165] Memory required for data: 2192931072
I0323 22:09:29.635833 23525 layer_factory.hpp:77] Creating layer relu3_2
I0323 22:09:29.635844 23525 net.cpp:100] Creating Layer relu3_2
I0323 22:09:29.635851 23525 net.cpp:434] relu3_2 <- conv3_2
I0323 22:09:29.635857 23525 net.cpp:395] relu3_2 -> conv3_2 (in-place)
I0323 22:09:29.636034 23525 net.cpp:150] Setting up relu3_2
I0323 22:09:29.636044 23525 net.cpp:157] Top shape: 2 256 192 192 (18874368)
I0323 22:09:29.636047 23525 net.cpp:165] Memory required for data: 2268428544
I0323 22:09:29.636050 23525 layer_factory.hpp:77] Creating layer conv3_3
I0323 22:09:29.636059 23525 net.cpp:100] Creating Layer conv3_3
I0323 22:09:29.636063 23525 net.cpp:434] conv3_3 <- conv3_2
I0323 22:09:29.636070 23525 net.cpp:408] conv3_3 -> conv3_3
I0323 22:09:29.640228 23525 net.cpp:150] Setting up conv3_3
I0323 22:09:29.640259 23525 net.cpp:157] Top shape: 2 256 192 192 (18874368)
I0323 22:09:29.640264 23525 net.cpp:165] Memory required for data: 2343926016
I0323 22:09:29.640274 23525 layer_factory.hpp:77] Creating layer relu3_3
I0323 22:09:29.640287 23525 net.cpp:100] Creating Layer relu3_3
I0323 22:09:29.640293 23525 net.cpp:434] relu3_3 <- conv3_3
I0323 22:09:29.640300 23525 net.cpp:395] relu3_3 -> conv3_3 (in-place)
I0323 22:09:29.640815 23525 net.cpp:150] Setting up relu3_3
I0323 22:09:29.640827 23525 net.cpp:157] Top shape: 2 256 192 192 (18874368)
I0323 22:09:29.640831 23525 net.cpp:165] Memory required for data: 2419423488
I0323 22:09:29.640836 23525 layer_factory.hpp:77] Creating layer pool3
I0323 22:09:29.640843 23525 net.cpp:100] Creating Layer pool3
I0323 22:09:29.640848 23525 net.cpp:434] pool3 <- conv3_3
I0323 22:09:29.640853 23525 net.cpp:408] pool3 -> pool3
I0323 22:09:29.640898 23525 net.cpp:150] Setting up pool3
I0323 22:09:29.640905 23525 net.cpp:157] Top shape: 2 256 96 96 (4718592)
I0323 22:09:29.640908 23525 net.cpp:165] Memory required for data: 2438297856
I0323 22:09:29.640913 23525 layer_factory.hpp:77] Creating layer conv4_1
I0323 22:09:29.640923 23525 net.cpp:100] Creating Layer conv4_1
I0323 22:09:29.640926 23525 net.cpp:434] conv4_1 <- pool3
I0323 22:09:29.640931 23525 net.cpp:408] conv4_1 -> conv4_1
I0323 22:09:29.644724 23525 net.cpp:150] Setting up conv4_1
I0323 22:09:29.644750 23525 net.cpp:157] Top shape: 2 512 96 96 (9437184)
I0323 22:09:29.644755 23525 net.cpp:165] Memory required for data: 2476046592
I0323 22:09:29.644767 23525 layer_factory.hpp:77] Creating layer relu4_1
I0323 22:09:29.644778 23525 net.cpp:100] Creating Layer relu4_1
I0323 22:09:29.644783 23525 net.cpp:434] relu4_1 <- conv4_1
I0323 22:09:29.644790 23525 net.cpp:395] relu4_1 -> conv4_1 (in-place)
I0323 22:09:29.645000 23525 net.cpp:150] Setting up relu4_1
I0323 22:09:29.645010 23525 net.cpp:157] Top shape: 2 512 96 96 (9437184)
I0323 22:09:29.645015 23525 net.cpp:165] Memory required for data: 2513795328
I0323 22:09:29.645018 23525 layer_factory.hpp:77] Creating layer conv4_2
I0323 22:09:29.645030 23525 net.cpp:100] Creating Layer conv4_2
I0323 22:09:29.645035 23525 net.cpp:434] conv4_2 <- conv4_1
I0323 22:09:29.645042 23525 net.cpp:408] conv4_2 -> conv4_2
I0323 22:09:29.657256 23525 net.cpp:150] Setting up conv4_2
I0323 22:09:29.657320 23525 net.cpp:157] Top shape: 2 512 96 96 (9437184)
I0323 22:09:29.657328 23525 net.cpp:165] Memory required for data: 2551544064
I0323 22:09:29.657356 23525 layer_factory.hpp:77] Creating layer relu4_2
I0323 22:09:29.657377 23525 net.cpp:100] Creating Layer relu4_2
I0323 22:09:29.657387 23525 net.cpp:434] relu4_2 <- conv4_2
I0323 22:09:29.657397 23525 net.cpp:395] relu4_2 -> conv4_2 (in-place)
I0323 22:09:29.657897 23525 net.cpp:150] Setting up relu4_2
I0323 22:09:29.657910 23525 net.cpp:157] Top shape: 2 512 96 96 (9437184)
I0323 22:09:29.657914 23525 net.cpp:165] Memory required for data: 2589292800
I0323 22:09:29.657918 23525 layer_factory.hpp:77] Creating layer conv4_3
I0323 22:09:29.657933 23525 net.cpp:100] Creating Layer conv4_3
I0323 22:09:29.657971 23525 net.cpp:434] conv4_3 <- conv4_2
I0323 22:09:29.657980 23525 net.cpp:408] conv4_3 -> conv4_3
I0323 22:09:29.669107 23525 net.cpp:150] Setting up conv4_3
I0323 22:09:29.669145 23525 net.cpp:157] Top shape: 2 512 96 96 (9437184)
I0323 22:09:29.669152 23525 net.cpp:165] Memory required for data: 2627041536
I0323 22:09:29.669164 23525 layer_factory.hpp:77] Creating layer relu4_3
I0323 22:09:29.669184 23525 net.cpp:100] Creating Layer relu4_3
I0323 22:09:29.669193 23525 net.cpp:434] relu4_3 <- conv4_3
I0323 22:09:29.669200 23525 net.cpp:395] relu4_3 -> conv4_3 (in-place)
I0323 22:09:29.669404 23525 net.cpp:150] Setting up relu4_3
I0323 22:09:29.669414 23525 net.cpp:157] Top shape: 2 512 96 96 (9437184)
I0323 22:09:29.669419 23525 net.cpp:165] Memory required for data: 2664790272
I0323 22:09:29.669423 23525 layer_factory.hpp:77] Creating layer conv4_3_relu4_3_0_split
I0323 22:09:29.669436 23525 net.cpp:100] Creating Layer conv4_3_relu4_3_0_split
I0323 22:09:29.669442 23525 net.cpp:434] conv4_3_relu4_3_0_split <- conv4_3
I0323 22:09:29.669450 23525 net.cpp:408] conv4_3_relu4_3_0_split -> conv4_3_relu4_3_0_split_0
I0323 22:09:29.669457 23525 net.cpp:408] conv4_3_relu4_3_0_split -> conv4_3_relu4_3_0_split_1
I0323 22:09:29.669507 23525 net.cpp:150] Setting up conv4_3_relu4_3_0_split
I0323 22:09:29.669514 23525 net.cpp:157] Top shape: 2 512 96 96 (9437184)
I0323 22:09:29.669519 23525 net.cpp:157] Top shape: 2 512 96 96 (9437184)
I0323 22:09:29.669523 23525 net.cpp:165] Memory required for data: 2740287744
I0323 22:09:29.669528 23525 layer_factory.hpp:77] Creating layer loss1_conv1
I0323 22:09:29.669543 23525 net.cpp:100] Creating Layer loss1_conv1
I0323 22:09:29.669548 23525 net.cpp:434] loss1_conv1 <- conv4_3_relu4_3_0_split_0
I0323 22:09:29.669556 23525 net.cpp:408] loss1_conv1 -> loss1_conv1
I0323 22:09:29.738941 23525 net.cpp:150] Setting up loss1_conv1
I0323 22:09:29.739003 23525 net.cpp:157] Top shape: 2 512 96 96 (9437184)
I0323 22:09:29.739008 23525 net.cpp:165] Memory required for data: 2778036480
I0323 22:09:29.739024 23525 layer_factory.hpp:77] Creating layer loss_relu1
I0323 22:09:29.739046 23525 net.cpp:100] Creating Layer loss_relu1
I0323 22:09:29.739056 23525 net.cpp:434] loss_relu1 <- loss1_conv1
I0323 22:09:29.739066 23525 net.cpp:395] loss_relu1 -> loss1_conv1 (in-place)
I0323 22:09:29.739269 23525 net.cpp:150] Setting up loss_relu1
I0323 22:09:29.739285 23525 net.cpp:157] Top shape: 2 512 96 96 (9437184)
I0323 22:09:29.739289 23525 net.cpp:165] Memory required for data: 2815785216
I0323 22:09:29.739292 23525 layer_factory.hpp:77] Creating layer loss1_conv1_loss_relu1_0_split
I0323 22:09:29.739302 23525 net.cpp:100] Creating Layer loss1_conv1_loss_relu1_0_split
I0323 22:09:29.739305 23525 net.cpp:434] loss1_conv1_loss_relu1_0_split <- loss1_conv1
I0323 22:09:29.739312 23525 net.cpp:408] loss1_conv1_loss_relu1_0_split -> loss1_conv1_loss_relu1_0_split_0
I0323 22:09:29.739320 23525 net.cpp:408] loss1_conv1_loss_relu1_0_split -> loss1_conv1_loss_relu1_0_split_1
I0323 22:09:29.739362 23525 net.cpp:150] Setting up loss1_conv1_loss_relu1_0_split
I0323 22:09:29.739367 23525 net.cpp:157] Top shape: 2 512 96 96 (9437184)
I0323 22:09:29.739372 23525 net.cpp:157] Top shape: 2 512 96 96 (9437184)
I0323 22:09:29.739374 23525 net.cpp:165] Memory required for data: 2891282688
I0323 22:09:29.739377 23525 layer_factory.hpp:77] Creating layer LFCN_1_5x5
I0323 22:09:29.739394 23525 net.cpp:100] Creating Layer LFCN_1_5x5
I0323 22:09:29.739398 23525 net.cpp:434] LFCN_1_5x5 <- loss1_conv1_loss_relu1_0_split_0
I0323 22:09:29.739406 23525 net.cpp:408] LFCN_1_5x5 -> LFCN_1_5x5
I0323 22:09:29.744863 23525 net.cpp:150] Setting up LFCN_1_5x5
I0323 22:09:29.744892 23525 net.cpp:157] Top shape: 2 9 96 96 (165888)
I0323 22:09:29.744896 23525 net.cpp:165] Memory required for data: 2891946240
I0323 22:09:29.744905 23525 layer_factory.hpp:77] Creating layer LFCN_1_5x5_LFCN_1_5x5_0_split
I0323 22:09:29.744917 23525 net.cpp:100] Creating Layer LFCN_1_5x5_LFCN_1_5x5_0_split
I0323 22:09:29.744923 23525 net.cpp:434] LFCN_1_5x5_LFCN_1_5x5_0_split <- LFCN_1_5x5
I0323 22:09:29.744930 23525 net.cpp:408] LFCN_1_5x5_LFCN_1_5x5_0_split -> LFCN_1_5x5_LFCN_1_5x5_0_split_0
I0323 22:09:29.744940 23525 net.cpp:408] LFCN_1_5x5_LFCN_1_5x5_0_split -> LFCN_1_5x5_LFCN_1_5x5_0_split_1
I0323 22:09:29.744979 23525 net.cpp:150] Setting up LFCN_1_5x5_LFCN_1_5x5_0_split
I0323 22:09:29.744985 23525 net.cpp:157] Top shape: 2 9 96 96 (165888)
I0323 22:09:29.744989 23525 net.cpp:157] Top shape: 2 9 96 96 (165888)
I0323 22:09:29.744992 23525 net.cpp:165] Memory required for data: 2893273344
I0323 22:09:29.744995 23525 layer_factory.hpp:77] Creating layer detection_loss_1_5x5
I0323 22:09:29.745003 23525 net.cpp:100] Creating Layer detection_loss_1_5x5
I0323 22:09:29.745007 23525 net.cpp:434] detection_loss_1_5x5 <- LFCN_1_5x5_LFCN_1_5x5_0_split_0
I0323 22:09:29.745012 23525 net.cpp:434] detection_loss_1_5x5 <- label_1_5x5_data_1_split_0
I0323 22:09:29.745018 23525 net.cpp:408] detection_loss_1_5x5 -> loss_1_5x5
I0323 22:09:29.745025 23525 layer_factory.hpp:77] Creating layer detection_loss_1_5x5
I0323 22:09:29.745410 23525 net.cpp:150] Setting up detection_loss_1_5x5
I0323 22:09:29.745420 23525 net.cpp:157] Top shape: 1 1 1 2 (2)
I0323 22:09:29.745424 23525 net.cpp:160]     with loss weight 0.9
I0323 22:09:29.745435 23525 net.cpp:165] Memory required for data: 2893273352
I0323 22:09:29.745440 23525 layer_factory.hpp:77] Creating layer detection_accuracy_1_5x5
I0323 22:09:29.745445 23525 net.cpp:100] Creating Layer detection_accuracy_1_5x5
I0323 22:09:29.745450 23525 net.cpp:434] detection_accuracy_1_5x5 <- LFCN_1_5x5_LFCN_1_5x5_0_split_1
I0323 22:09:29.745453 23525 net.cpp:434] detection_accuracy_1_5x5 <- label_1_5x5_data_1_split_1
I0323 22:09:29.745460 23525 net.cpp:408] detection_accuracy_1_5x5 -> accuracy_1_5x5
I0323 22:09:29.745465 23525 net.cpp:408] detection_accuracy_1_5x5 -> boxiou_1_5x5
I0323 22:09:29.745504 23525 net.cpp:150] Setting up detection_accuracy_1_5x5
I0323 22:09:29.745512 23525 net.cpp:157] Top shape: 1 1 1 2 (2)
I0323 22:09:29.745517 23525 net.cpp:157] Top shape: 1 1 1 1 (1)
I0323 22:09:29.745519 23525 net.cpp:165] Memory required for data: 2893273364
I0323 22:09:29.745523 23525 layer_factory.hpp:77] Creating layer LFCN_1_7x7
I0323 22:09:29.745534 23525 net.cpp:100] Creating Layer LFCN_1_7x7
I0323 22:09:29.745538 23525 net.cpp:434] LFCN_1_7x7 <- loss1_conv1_loss_relu1_0_split_1
I0323 22:09:29.745543 23525 net.cpp:408] LFCN_1_7x7 -> LFCN_1_7x7
I0323 22:09:29.753831 23525 net.cpp:150] Setting up LFCN_1_7x7
I0323 22:09:29.753854 23525 net.cpp:157] Top shape: 2 9 96 96 (165888)
I0323 22:09:29.753859 23525 net.cpp:165] Memory required for data: 2893936916
I0323 22:09:29.753866 23525 layer_factory.hpp:77] Creating layer LFCN_1_7x7_LFCN_1_7x7_0_split
I0323 22:09:29.753876 23525 net.cpp:100] Creating Layer LFCN_1_7x7_LFCN_1_7x7_0_split
I0323 22:09:29.753881 23525 net.cpp:434] LFCN_1_7x7_LFCN_1_7x7_0_split <- LFCN_1_7x7
I0323 22:09:29.753888 23525 net.cpp:408] LFCN_1_7x7_LFCN_1_7x7_0_split -> LFCN_1_7x7_LFCN_1_7x7_0_split_0
I0323 22:09:29.753895 23525 net.cpp:408] LFCN_1_7x7_LFCN_1_7x7_0_split -> LFCN_1_7x7_LFCN_1_7x7_0_split_1
I0323 22:09:29.753934 23525 net.cpp:150] Setting up LFCN_1_7x7_LFCN_1_7x7_0_split
I0323 22:09:29.753979 23525 net.cpp:157] Top shape: 2 9 96 96 (165888)
I0323 22:09:29.753983 23525 net.cpp:157] Top shape: 2 9 96 96 (165888)
I0323 22:09:29.753986 23525 net.cpp:165] Memory required for data: 2895264020
I0323 22:09:29.753990 23525 layer_factory.hpp:77] Creating layer detection_loss_1_7x7
I0323 22:09:29.753999 23525 net.cpp:100] Creating Layer detection_loss_1_7x7
I0323 22:09:29.754004 23525 net.cpp:434] detection_loss_1_7x7 <- LFCN_1_7x7_LFCN_1_7x7_0_split_0
I0323 22:09:29.754009 23525 net.cpp:434] detection_loss_1_7x7 <- label_1_7x7_data_2_split_0
I0323 22:09:29.754014 23525 net.cpp:408] detection_loss_1_7x7 -> loss_1_7x7
I0323 22:09:29.754024 23525 layer_factory.hpp:77] Creating layer detection_loss_1_7x7
I0323 22:09:29.754806 23525 net.cpp:150] Setting up detection_loss_1_7x7
I0323 22:09:29.754822 23525 net.cpp:157] Top shape: 1 1 1 2 (2)
I0323 22:09:29.754827 23525 net.cpp:160]     with loss weight 0.9
I0323 22:09:29.754839 23525 net.cpp:165] Memory required for data: 2895264028
I0323 22:09:29.754843 23525 layer_factory.hpp:77] Creating layer detection_accuracy_1_7x7
I0323 22:09:29.754853 23525 net.cpp:100] Creating Layer detection_accuracy_1_7x7
I0323 22:09:29.754856 23525 net.cpp:434] detection_accuracy_1_7x7 <- LFCN_1_7x7_LFCN_1_7x7_0_split_1
I0323 22:09:29.754863 23525 net.cpp:434] detection_accuracy_1_7x7 <- label_1_7x7_data_2_split_1
I0323 22:09:29.754870 23525 net.cpp:408] detection_accuracy_1_7x7 -> accuracy_1_7x7
I0323 22:09:29.754879 23525 net.cpp:408] detection_accuracy_1_7x7 -> boxiou_1_7x7
I0323 22:09:29.754918 23525 net.cpp:150] Setting up detection_accuracy_1_7x7
I0323 22:09:29.754925 23525 net.cpp:157] Top shape: 1 1 1 2 (2)
I0323 22:09:29.754930 23525 net.cpp:157] Top shape: 1 1 1 1 (1)
I0323 22:09:29.754933 23525 net.cpp:165] Memory required for data: 2895264040
I0323 22:09:29.754936 23525 layer_factory.hpp:77] Creating layer pool4
I0323 22:09:29.754943 23525 net.cpp:100] Creating Layer pool4
I0323 22:09:29.754947 23525 net.cpp:434] pool4 <- conv4_3_relu4_3_0_split_1
I0323 22:09:29.754954 23525 net.cpp:408] pool4 -> pool4
I0323 22:09:29.754990 23525 net.cpp:150] Setting up pool4
I0323 22:09:29.754997 23525 net.cpp:157] Top shape: 2 512 48 48 (2359296)
I0323 22:09:29.755000 23525 net.cpp:165] Memory required for data: 2904701224
I0323 22:09:29.755003 23525 layer_factory.hpp:77] Creating layer ch4_pool4
I0323 22:09:29.755009 23525 net.cpp:100] Creating Layer ch4_pool4
I0323 22:09:29.755013 23525 net.cpp:434] ch4_pool4 <- ch4
I0323 22:09:29.755018 23525 net.cpp:408] ch4_pool4 -> ch4_pool4
I0323 22:09:29.755053 23525 net.cpp:150] Setting up ch4_pool4
I0323 22:09:29.755059 23525 net.cpp:157] Top shape: 2 1 48 48 (4608)
I0323 22:09:29.755062 23525 net.cpp:165] Memory required for data: 2904719656
I0323 22:09:29.755065 23525 layer_factory.hpp:77] Creating layer pool4_concat
I0323 22:09:29.755070 23525 net.cpp:100] Creating Layer pool4_concat
I0323 22:09:29.755075 23525 net.cpp:434] pool4_concat <- pool4
I0323 22:09:29.755079 23525 net.cpp:434] pool4_concat <- ch4_pool4
I0323 22:09:29.755084 23525 net.cpp:408] pool4_concat -> pool4_new
I0323 22:09:29.755105 23525 net.cpp:150] Setting up pool4_concat
I0323 22:09:29.755110 23525 net.cpp:157] Top shape: 2 513 48 48 (2363904)
I0323 22:09:29.755112 23525 net.cpp:165] Memory required for data: 2914175272
I0323 22:09:29.755115 23525 layer_factory.hpp:77] Creating layer conv5_1_new
I0323 22:09:29.755125 23525 net.cpp:100] Creating Layer conv5_1_new
I0323 22:09:29.755128 23525 net.cpp:434] conv5_1_new <- pool4_new
I0323 22:09:29.755133 23525 net.cpp:408] conv5_1_new -> conv5_1
I0323 22:09:29.765794 23525 net.cpp:150] Setting up conv5_1_new
I0323 22:09:29.765880 23525 net.cpp:157] Top shape: 2 512 48 48 (2359296)
I0323 22:09:29.765885 23525 net.cpp:165] Memory required for data: 2923612456
I0323 22:09:29.765902 23525 layer_factory.hpp:77] Creating layer relu5_1
I0323 22:09:29.765928 23525 net.cpp:100] Creating Layer relu5_1
I0323 22:09:29.765940 23525 net.cpp:434] relu5_1 <- conv5_1
I0323 22:09:29.765960 23525 net.cpp:395] relu5_1 -> conv5_1 (in-place)
I0323 22:09:29.766173 23525 net.cpp:150] Setting up relu5_1
I0323 22:09:29.766187 23525 net.cpp:157] Top shape: 2 512 48 48 (2359296)
I0323 22:09:29.766191 23525 net.cpp:165] Memory required for data: 2933049640
I0323 22:09:29.766194 23525 layer_factory.hpp:77] Creating layer conv5_2
I0323 22:09:29.766211 23525 net.cpp:100] Creating Layer conv5_2
I0323 22:09:29.766214 23525 net.cpp:434] conv5_2 <- conv5_1
I0323 22:09:29.766222 23525 net.cpp:408] conv5_2 -> conv5_2
I0323 22:09:29.773458 23525 net.cpp:150] Setting up conv5_2
I0323 22:09:29.773488 23525 net.cpp:157] Top shape: 2 512 48 48 (2359296)
I0323 22:09:29.773491 23525 net.cpp:165] Memory required for data: 2942486824
I0323 22:09:29.773499 23525 layer_factory.hpp:77] Creating layer relu5_2
I0323 22:09:29.773510 23525 net.cpp:100] Creating Layer relu5_2
I0323 22:09:29.773515 23525 net.cpp:434] relu5_2 <- conv5_2
I0323 22:09:29.773522 23525 net.cpp:395] relu5_2 -> conv5_2 (in-place)
I0323 22:09:29.773700 23525 net.cpp:150] Setting up relu5_2
I0323 22:09:29.773710 23525 net.cpp:157] Top shape: 2 512 48 48 (2359296)
I0323 22:09:29.773712 23525 net.cpp:165] Memory required for data: 2951924008
I0323 22:09:29.773715 23525 layer_factory.hpp:77] Creating layer conv5_3
I0323 22:09:29.773725 23525 net.cpp:100] Creating Layer conv5_3
I0323 22:09:29.773728 23525 net.cpp:434] conv5_3 <- conv5_2
I0323 22:09:29.773735 23525 net.cpp:408] conv5_3 -> conv5_3
I0323 22:09:29.779886 23525 net.cpp:150] Setting up conv5_3
I0323 22:09:29.779917 23525 net.cpp:157] Top shape: 2 512 48 48 (2359296)
I0323 22:09:29.779922 23525 net.cpp:165] Memory required for data: 2961361192
I0323 22:09:29.779930 23525 layer_factory.hpp:77] Creating layer relu5_3
I0323 22:09:29.779940 23525 net.cpp:100] Creating Layer relu5_3
I0323 22:09:29.779947 23525 net.cpp:434] relu5_3 <- conv5_3
I0323 22:09:29.779953 23525 net.cpp:395] relu5_3 -> conv5_3 (in-place)
I0323 22:09:29.780120 23525 net.cpp:150] Setting up relu5_3
I0323 22:09:29.780129 23525 net.cpp:157] Top shape: 2 512 48 48 (2359296)
I0323 22:09:29.780133 23525 net.cpp:165] Memory required for data: 2970798376
I0323 22:09:29.780135 23525 layer_factory.hpp:77] Creating layer conv5_3_relu5_3_0_split
I0323 22:09:29.780143 23525 net.cpp:100] Creating Layer conv5_3_relu5_3_0_split
I0323 22:09:29.780148 23525 net.cpp:434] conv5_3_relu5_3_0_split <- conv5_3
I0323 22:09:29.780153 23525 net.cpp:408] conv5_3_relu5_3_0_split -> conv5_3_relu5_3_0_split_0
I0323 22:09:29.780159 23525 net.cpp:408] conv5_3_relu5_3_0_split -> conv5_3_relu5_3_0_split_1
I0323 22:09:29.780165 23525 net.cpp:408] conv5_3_relu5_3_0_split -> conv5_3_relu5_3_0_split_2
I0323 22:09:29.780217 23525 net.cpp:150] Setting up conv5_3_relu5_3_0_split
I0323 22:09:29.780225 23525 net.cpp:157] Top shape: 2 512 48 48 (2359296)
I0323 22:09:29.780228 23525 net.cpp:157] Top shape: 2 512 48 48 (2359296)
I0323 22:09:29.780232 23525 net.cpp:157] Top shape: 2 512 48 48 (2359296)
I0323 22:09:29.780236 23525 net.cpp:165] Memory required for data: 2999109928
I0323 22:09:29.780239 23525 layer_factory.hpp:77] Creating layer LFCN_2_5x5
I0323 22:09:29.780251 23525 net.cpp:100] Creating Layer LFCN_2_5x5
I0323 22:09:29.780254 23525 net.cpp:434] LFCN_2_5x5 <- conv5_3_relu5_3_0_split_0
I0323 22:09:29.780261 23525 net.cpp:408] LFCN_2_5x5 -> LFCN_2_5x5
I0323 22:09:29.784313 23525 net.cpp:150] Setting up LFCN_2_5x5
I0323 22:09:29.784329 23525 net.cpp:157] Top shape: 2 9 48 48 (41472)
I0323 22:09:29.784333 23525 net.cpp:165] Memory required for data: 2999275816
I0323 22:09:29.784345 23525 layer_factory.hpp:77] Creating layer LFCN_2_5x5_LFCN_2_5x5_0_split
I0323 22:09:29.784350 23525 net.cpp:100] Creating Layer LFCN_2_5x5_LFCN_2_5x5_0_split
I0323 22:09:29.784355 23525 net.cpp:434] LFCN_2_5x5_LFCN_2_5x5_0_split <- LFCN_2_5x5
I0323 22:09:29.784360 23525 net.cpp:408] LFCN_2_5x5_LFCN_2_5x5_0_split -> LFCN_2_5x5_LFCN_2_5x5_0_split_0
I0323 22:09:29.784371 23525 net.cpp:408] LFCN_2_5x5_LFCN_2_5x5_0_split -> LFCN_2_5x5_LFCN_2_5x5_0_split_1
I0323 22:09:29.784411 23525 net.cpp:150] Setting up LFCN_2_5x5_LFCN_2_5x5_0_split
I0323 22:09:29.784418 23525 net.cpp:157] Top shape: 2 9 48 48 (41472)
I0323 22:09:29.784422 23525 net.cpp:157] Top shape: 2 9 48 48 (41472)
I0323 22:09:29.784426 23525 net.cpp:165] Memory required for data: 2999607592
I0323 22:09:29.784430 23525 layer_factory.hpp:77] Creating layer detection_loss_2_5x5
I0323 22:09:29.784436 23525 net.cpp:100] Creating Layer detection_loss_2_5x5
I0323 22:09:29.784440 23525 net.cpp:434] detection_loss_2_5x5 <- LFCN_2_5x5_LFCN_2_5x5_0_split_0
I0323 22:09:29.784445 23525 net.cpp:434] detection_loss_2_5x5 <- label_2_5x5_data_3_split_0
I0323 22:09:29.784449 23525 net.cpp:408] detection_loss_2_5x5 -> loss_2_5x5
I0323 22:09:29.784458 23525 layer_factory.hpp:77] Creating layer detection_loss_2_5x5
I0323 22:09:29.784806 23525 net.cpp:150] Setting up detection_loss_2_5x5
I0323 22:09:29.784816 23525 net.cpp:157] Top shape: 1 1 1 2 (2)
I0323 22:09:29.784819 23525 net.cpp:160]     with loss weight 1
I0323 22:09:29.784831 23525 net.cpp:165] Memory required for data: 2999607600
I0323 22:09:29.784834 23525 layer_factory.hpp:77] Creating layer detection_accuracy_2_5x5
I0323 22:09:29.784840 23525 net.cpp:100] Creating Layer detection_accuracy_2_5x5
I0323 22:09:29.784844 23525 net.cpp:434] detection_accuracy_2_5x5 <- LFCN_2_5x5_LFCN_2_5x5_0_split_1
I0323 22:09:29.784850 23525 net.cpp:434] detection_accuracy_2_5x5 <- label_2_5x5_data_3_split_1
I0323 22:09:29.784855 23525 net.cpp:408] detection_accuracy_2_5x5 -> accuracy_2_5x5
I0323 22:09:29.784862 23525 net.cpp:408] detection_accuracy_2_5x5 -> boxiou_2_5x5
I0323 22:09:29.784900 23525 net.cpp:150] Setting up detection_accuracy_2_5x5
I0323 22:09:29.784909 23525 net.cpp:157] Top shape: 1 1 1 2 (2)
I0323 22:09:29.784912 23525 net.cpp:157] Top shape: 1 1 1 1 (1)
I0323 22:09:29.784915 23525 net.cpp:165] Memory required for data: 2999607612
I0323 22:09:29.784919 23525 layer_factory.hpp:77] Creating layer LFCN_2_7x7
I0323 22:09:29.784926 23525 net.cpp:100] Creating Layer LFCN_2_7x7
I0323 22:09:29.784930 23525 net.cpp:434] LFCN_2_7x7 <- conv5_3_relu5_3_0_split_1
I0323 22:09:29.784937 23525 net.cpp:408] LFCN_2_7x7 -> LFCN_2_7x7
I0323 22:09:29.792917 23525 net.cpp:150] Setting up LFCN_2_7x7
I0323 22:09:29.792935 23525 net.cpp:157] Top shape: 2 9 48 48 (41472)
I0323 22:09:29.792938 23525 net.cpp:165] Memory required for data: 2999773500
I0323 22:09:29.792945 23525 layer_factory.hpp:77] Creating layer LFCN_2_7x7_LFCN_2_7x7_0_split
I0323 22:09:29.792951 23525 net.cpp:100] Creating Layer LFCN_2_7x7_LFCN_2_7x7_0_split
I0323 22:09:29.792955 23525 net.cpp:434] LFCN_2_7x7_LFCN_2_7x7_0_split <- LFCN_2_7x7
I0323 22:09:29.792963 23525 net.cpp:408] LFCN_2_7x7_LFCN_2_7x7_0_split -> LFCN_2_7x7_LFCN_2_7x7_0_split_0
I0323 22:09:29.792969 23525 net.cpp:408] LFCN_2_7x7_LFCN_2_7x7_0_split -> LFCN_2_7x7_LFCN_2_7x7_0_split_1
I0323 22:09:29.793007 23525 net.cpp:150] Setting up LFCN_2_7x7_LFCN_2_7x7_0_split
I0323 22:09:29.793012 23525 net.cpp:157] Top shape: 2 9 48 48 (41472)
I0323 22:09:29.793016 23525 net.cpp:157] Top shape: 2 9 48 48 (41472)
I0323 22:09:29.793020 23525 net.cpp:165] Memory required for data: 3000105276
I0323 22:09:29.793023 23525 layer_factory.hpp:77] Creating layer detection_loss_2_7x7
I0323 22:09:29.793030 23525 net.cpp:100] Creating Layer detection_loss_2_7x7
I0323 22:09:29.793035 23525 net.cpp:434] detection_loss_2_7x7 <- LFCN_2_7x7_LFCN_2_7x7_0_split_0
I0323 22:09:29.793040 23525 net.cpp:434] detection_loss_2_7x7 <- label_2_7x7_data_4_split_0
I0323 22:09:29.793045 23525 net.cpp:408] detection_loss_2_7x7 -> loss_2_7x7
I0323 22:09:29.793052 23525 layer_factory.hpp:77] Creating layer detection_loss_2_7x7
I0323 22:09:29.793400 23525 net.cpp:150] Setting up detection_loss_2_7x7
I0323 22:09:29.793411 23525 net.cpp:157] Top shape: 1 1 1 2 (2)
I0323 22:09:29.793413 23525 net.cpp:160]     with loss weight 1
I0323 22:09:29.793421 23525 net.cpp:165] Memory required for data: 3000105284
I0323 22:09:29.793424 23525 layer_factory.hpp:77] Creating layer detection_accuracy_2_7x7
I0323 22:09:29.793431 23525 net.cpp:100] Creating Layer detection_accuracy_2_7x7
I0323 22:09:29.793434 23525 net.cpp:434] detection_accuracy_2_7x7 <- LFCN_2_7x7_LFCN_2_7x7_0_split_1
I0323 22:09:29.793438 23525 net.cpp:434] detection_accuracy_2_7x7 <- label_2_7x7_data_4_split_1
I0323 22:09:29.793443 23525 net.cpp:408] detection_accuracy_2_7x7 -> accuracy_2_7x7
I0323 22:09:29.793450 23525 net.cpp:408] detection_accuracy_2_7x7 -> boxiou_2_7x7
I0323 22:09:29.793489 23525 net.cpp:150] Setting up detection_accuracy_2_7x7
I0323 22:09:29.793496 23525 net.cpp:157] Top shape: 1 1 1 2 (2)
I0323 22:09:29.793500 23525 net.cpp:157] Top shape: 1 1 1 1 (1)
I0323 22:09:29.793503 23525 net.cpp:165] Memory required for data: 3000105296
I0323 22:09:29.793507 23525 layer_factory.hpp:77] Creating layer pool5
I0323 22:09:29.793515 23525 net.cpp:100] Creating Layer pool5
I0323 22:09:29.793519 23525 net.cpp:434] pool5 <- conv5_3_relu5_3_0_split_2
I0323 22:09:29.793524 23525 net.cpp:408] pool5 -> pool5
I0323 22:09:29.793562 23525 net.cpp:150] Setting up pool5
I0323 22:09:29.793570 23525 net.cpp:157] Top shape: 2 512 24 24 (589824)
I0323 22:09:29.793573 23525 net.cpp:165] Memory required for data: 3002464592
I0323 22:09:29.793576 23525 layer_factory.hpp:77] Creating layer conv6_1
I0323 22:09:29.793586 23525 net.cpp:100] Creating Layer conv6_1
I0323 22:09:29.793589 23525 net.cpp:434] conv6_1 <- pool5
I0323 22:09:29.793596 23525 net.cpp:408] conv6_1 -> conv6_1
I0323 22:09:29.859458 23525 net.cpp:150] Setting up conv6_1
I0323 22:09:29.859486 23525 net.cpp:157] Top shape: 2 512 24 24 (589824)
I0323 22:09:29.859490 23525 net.cpp:165] Memory required for data: 3004823888
I0323 22:09:29.859498 23525 layer_factory.hpp:77] Creating layer relu6_1
I0323 22:09:29.859516 23525 net.cpp:100] Creating Layer relu6_1
I0323 22:09:29.859522 23525 net.cpp:434] relu6_1 <- conv6_1
I0323 22:09:29.859529 23525 net.cpp:395] relu6_1 -> conv6_1 (in-place)
I0323 22:09:29.860035 23525 net.cpp:150] Setting up relu6_1
I0323 22:09:29.860047 23525 net.cpp:157] Top shape: 2 512 24 24 (589824)
I0323 22:09:29.860051 23525 net.cpp:165] Memory required for data: 3007183184
I0323 22:09:29.860055 23525 layer_factory.hpp:77] Creating layer conv6_1_relu6_1_0_split
I0323 22:09:29.860062 23525 net.cpp:100] Creating Layer conv6_1_relu6_1_0_split
I0323 22:09:29.860067 23525 net.cpp:434] conv6_1_relu6_1_0_split <- conv6_1
I0323 22:09:29.860072 23525 net.cpp:408] conv6_1_relu6_1_0_split -> conv6_1_relu6_1_0_split_0
I0323 22:09:29.860080 23525 net.cpp:408] conv6_1_relu6_1_0_split -> conv6_1_relu6_1_0_split_1
I0323 22:09:29.860085 23525 net.cpp:408] conv6_1_relu6_1_0_split -> conv6_1_relu6_1_0_split_2
I0323 22:09:29.860138 23525 net.cpp:150] Setting up conv6_1_relu6_1_0_split
I0323 22:09:29.860146 23525 net.cpp:157] Top shape: 2 512 24 24 (589824)
I0323 22:09:29.860149 23525 net.cpp:157] Top shape: 2 512 24 24 (589824)
I0323 22:09:29.860153 23525 net.cpp:157] Top shape: 2 512 24 24 (589824)
I0323 22:09:29.860157 23525 net.cpp:165] Memory required for data: 3014261072
I0323 22:09:29.860160 23525 layer_factory.hpp:77] Creating layer LFCN_3_5x5
I0323 22:09:29.860170 23525 net.cpp:100] Creating Layer LFCN_3_5x5
I0323 22:09:29.860174 23525 net.cpp:434] LFCN_3_5x5 <- conv6_1_relu6_1_0_split_0
I0323 22:09:29.860182 23525 net.cpp:408] LFCN_3_5x5 -> LFCN_3_5x5
I0323 22:09:29.864270 23525 net.cpp:150] Setting up LFCN_3_5x5
I0323 22:09:29.864289 23525 net.cpp:157] Top shape: 2 9 24 24 (10368)
I0323 22:09:29.864291 23525 net.cpp:165] Memory required for data: 3014302544
I0323 22:09:29.864298 23525 layer_factory.hpp:77] Creating layer LFCN_3_5x5_LFCN_3_5x5_0_split
I0323 22:09:29.864306 23525 net.cpp:100] Creating Layer LFCN_3_5x5_LFCN_3_5x5_0_split
I0323 22:09:29.864311 23525 net.cpp:434] LFCN_3_5x5_LFCN_3_5x5_0_split <- LFCN_3_5x5
I0323 22:09:29.864316 23525 net.cpp:408] LFCN_3_5x5_LFCN_3_5x5_0_split -> LFCN_3_5x5_LFCN_3_5x5_0_split_0
I0323 22:09:29.864323 23525 net.cpp:408] LFCN_3_5x5_LFCN_3_5x5_0_split -> LFCN_3_5x5_LFCN_3_5x5_0_split_1
I0323 22:09:29.864363 23525 net.cpp:150] Setting up LFCN_3_5x5_LFCN_3_5x5_0_split
I0323 22:09:29.864369 23525 net.cpp:157] Top shape: 2 9 24 24 (10368)
I0323 22:09:29.864373 23525 net.cpp:157] Top shape: 2 9 24 24 (10368)
I0323 22:09:29.864377 23525 net.cpp:165] Memory required for data: 3014385488
I0323 22:09:29.864380 23525 layer_factory.hpp:77] Creating layer detection_loss_3_5x5
I0323 22:09:29.864387 23525 net.cpp:100] Creating Layer detection_loss_3_5x5
I0323 22:09:29.864392 23525 net.cpp:434] detection_loss_3_5x5 <- LFCN_3_5x5_LFCN_3_5x5_0_split_0
I0323 22:09:29.864397 23525 net.cpp:434] detection_loss_3_5x5 <- label_3_5x5_data_5_split_0
I0323 22:09:29.864403 23525 net.cpp:408] detection_loss_3_5x5 -> loss_3_5x5
I0323 22:09:29.864411 23525 layer_factory.hpp:77] Creating layer detection_loss_3_5x5
I0323 22:09:29.864747 23525 net.cpp:150] Setting up detection_loss_3_5x5
I0323 22:09:29.864759 23525 net.cpp:157] Top shape: 1 1 1 2 (2)
I0323 22:09:29.864764 23525 net.cpp:160]     with loss weight 1
I0323 22:09:29.864778 23525 net.cpp:165] Memory required for data: 3014385496
I0323 22:09:29.864783 23525 layer_factory.hpp:77] Creating layer detection_accuracy_3_5x5
I0323 22:09:29.864789 23525 net.cpp:100] Creating Layer detection_accuracy_3_5x5
I0323 22:09:29.864792 23525 net.cpp:434] detection_accuracy_3_5x5 <- LFCN_3_5x5_LFCN_3_5x5_0_split_1
I0323 22:09:29.864796 23525 net.cpp:434] detection_accuracy_3_5x5 <- label_3_5x5_data_5_split_1
I0323 22:09:29.864802 23525 net.cpp:408] detection_accuracy_3_5x5 -> accuracy_3_5x5
I0323 22:09:29.864809 23525 net.cpp:408] detection_accuracy_3_5x5 -> boxiou_3_5x5
I0323 22:09:29.864850 23525 net.cpp:150] Setting up detection_accuracy_3_5x5
I0323 22:09:29.864856 23525 net.cpp:157] Top shape: 1 1 1 2 (2)
I0323 22:09:29.864861 23525 net.cpp:157] Top shape: 1 1 1 1 (1)
I0323 22:09:29.864864 23525 net.cpp:165] Memory required for data: 3014385508
I0323 22:09:29.864867 23525 layer_factory.hpp:77] Creating layer LFCN_3_7x7
I0323 22:09:29.864877 23525 net.cpp:100] Creating Layer LFCN_3_7x7
I0323 22:09:29.864881 23525 net.cpp:434] LFCN_3_7x7 <- conv6_1_relu6_1_0_split_1
I0323 22:09:29.864887 23525 net.cpp:408] LFCN_3_7x7 -> LFCN_3_7x7
I0323 22:09:29.875639 23525 net.cpp:150] Setting up LFCN_3_7x7
I0323 22:09:29.875680 23525 net.cpp:157] Top shape: 2 9 24 24 (10368)
I0323 22:09:29.875684 23525 net.cpp:165] Memory required for data: 3014426980
I0323 22:09:29.875694 23525 layer_factory.hpp:77] Creating layer LFCN_3_7x7_LFCN_3_7x7_0_split
I0323 22:09:29.875705 23525 net.cpp:100] Creating Layer LFCN_3_7x7_LFCN_3_7x7_0_split
I0323 22:09:29.875712 23525 net.cpp:434] LFCN_3_7x7_LFCN_3_7x7_0_split <- LFCN_3_7x7
I0323 22:09:29.875720 23525 net.cpp:408] LFCN_3_7x7_LFCN_3_7x7_0_split -> LFCN_3_7x7_LFCN_3_7x7_0_split_0
I0323 22:09:29.875728 23525 net.cpp:408] LFCN_3_7x7_LFCN_3_7x7_0_split -> LFCN_3_7x7_LFCN_3_7x7_0_split_1
I0323 22:09:29.875771 23525 net.cpp:150] Setting up LFCN_3_7x7_LFCN_3_7x7_0_split
I0323 22:09:29.875777 23525 net.cpp:157] Top shape: 2 9 24 24 (10368)
I0323 22:09:29.875782 23525 net.cpp:157] Top shape: 2 9 24 24 (10368)
I0323 22:09:29.875784 23525 net.cpp:165] Memory required for data: 3014509924
I0323 22:09:29.875787 23525 layer_factory.hpp:77] Creating layer detection_loss_3_7x7
I0323 22:09:29.875795 23525 net.cpp:100] Creating Layer detection_loss_3_7x7
I0323 22:09:29.875798 23525 net.cpp:434] detection_loss_3_7x7 <- LFCN_3_7x7_LFCN_3_7x7_0_split_0
I0323 22:09:29.875803 23525 net.cpp:434] detection_loss_3_7x7 <- label_3_7x7_data_6_split_0
I0323 22:09:29.875810 23525 net.cpp:408] detection_loss_3_7x7 -> loss_3_7x7
I0323 22:09:29.875820 23525 layer_factory.hpp:77] Creating layer detection_loss_3_7x7
I0323 22:09:29.876160 23525 net.cpp:150] Setting up detection_loss_3_7x7
I0323 22:09:29.876171 23525 net.cpp:157] Top shape: 1 1 1 2 (2)
I0323 22:09:29.876176 23525 net.cpp:160]     with loss weight 1
I0323 22:09:29.876216 23525 net.cpp:165] Memory required for data: 3014509932
I0323 22:09:29.876224 23525 layer_factory.hpp:77] Creating layer detection_accuracy_3_7x7
I0323 22:09:29.876246 23525 net.cpp:100] Creating Layer detection_accuracy_3_7x7
I0323 22:09:29.876260 23525 net.cpp:434] detection_accuracy_3_7x7 <- LFCN_3_7x7_LFCN_3_7x7_0_split_1
I0323 22:09:29.876268 23525 net.cpp:434] detection_accuracy_3_7x7 <- label_3_7x7_data_6_split_1
I0323 22:09:29.876289 23525 net.cpp:408] detection_accuracy_3_7x7 -> accuracy_3_7x7
I0323 22:09:29.876313 23525 net.cpp:408] detection_accuracy_3_7x7 -> boxiou_3_7x7
I0323 22:09:29.876484 23525 net.cpp:150] Setting up detection_accuracy_3_7x7
I0323 22:09:29.876500 23525 net.cpp:157] Top shape: 1 1 1 2 (2)
I0323 22:09:29.876511 23525 net.cpp:157] Top shape: 1 1 1 1 (1)
I0323 22:09:29.876518 23525 net.cpp:165] Memory required for data: 3014509944
I0323 22:09:29.876524 23525 layer_factory.hpp:77] Creating layer pool6
I0323 22:09:29.876544 23525 net.cpp:100] Creating Layer pool6
I0323 22:09:29.876560 23525 net.cpp:434] pool6 <- conv6_1_relu6_1_0_split_2
I0323 22:09:29.876577 23525 net.cpp:408] pool6 -> pool6
I0323 22:09:29.876623 23525 net.cpp:150] Setting up pool6
I0323 22:09:29.876631 23525 net.cpp:157] Top shape: 2 512 12 12 (147456)
I0323 22:09:29.876633 23525 net.cpp:165] Memory required for data: 3015099768
I0323 22:09:29.876636 23525 layer_factory.hpp:77] Creating layer LFCN_4_5x5
I0323 22:09:29.876654 23525 net.cpp:100] Creating Layer LFCN_4_5x5
I0323 22:09:29.876658 23525 net.cpp:434] LFCN_4_5x5 <- pool6
I0323 22:09:29.876665 23525 net.cpp:408] LFCN_4_5x5 -> LFCN_4_5x5
I0323 22:09:29.880939 23525 net.cpp:150] Setting up LFCN_4_5x5
I0323 22:09:29.880954 23525 net.cpp:157] Top shape: 2 9 12 12 (2592)
I0323 22:09:29.880957 23525 net.cpp:165] Memory required for data: 3015110136
I0323 22:09:29.880964 23525 layer_factory.hpp:77] Creating layer LFCN_4_5x5_LFCN_4_5x5_0_split
I0323 22:09:29.880971 23525 net.cpp:100] Creating Layer LFCN_4_5x5_LFCN_4_5x5_0_split
I0323 22:09:29.880975 23525 net.cpp:434] LFCN_4_5x5_LFCN_4_5x5_0_split <- LFCN_4_5x5
I0323 22:09:29.880980 23525 net.cpp:408] LFCN_4_5x5_LFCN_4_5x5_0_split -> LFCN_4_5x5_LFCN_4_5x5_0_split_0
I0323 22:09:29.880988 23525 net.cpp:408] LFCN_4_5x5_LFCN_4_5x5_0_split -> LFCN_4_5x5_LFCN_4_5x5_0_split_1
I0323 22:09:29.881031 23525 net.cpp:150] Setting up LFCN_4_5x5_LFCN_4_5x5_0_split
I0323 22:09:29.881037 23525 net.cpp:157] Top shape: 2 9 12 12 (2592)
I0323 22:09:29.881042 23525 net.cpp:157] Top shape: 2 9 12 12 (2592)
I0323 22:09:29.881045 23525 net.cpp:165] Memory required for data: 3015130872
I0323 22:09:29.881048 23525 layer_factory.hpp:77] Creating layer detection_loss_4_5x5
I0323 22:09:29.881054 23525 net.cpp:100] Creating Layer detection_loss_4_5x5
I0323 22:09:29.881058 23525 net.cpp:434] detection_loss_4_5x5 <- LFCN_4_5x5_LFCN_4_5x5_0_split_0
I0323 22:09:29.881063 23525 net.cpp:434] detection_loss_4_5x5 <- label_4_5x5_data_7_split_0
I0323 22:09:29.881068 23525 net.cpp:408] detection_loss_4_5x5 -> loss_4_5x5
I0323 22:09:29.881076 23525 layer_factory.hpp:77] Creating layer detection_loss_4_5x5
I0323 22:09:29.881427 23525 net.cpp:150] Setting up detection_loss_4_5x5
I0323 22:09:29.881436 23525 net.cpp:157] Top shape: 1 1 1 2 (2)
I0323 22:09:29.881439 23525 net.cpp:160]     with loss weight 1
I0323 22:09:29.881449 23525 net.cpp:165] Memory required for data: 3015130880
I0323 22:09:29.881453 23525 layer_factory.hpp:77] Creating layer detection_accuracy_4_5x5
I0323 22:09:29.881459 23525 net.cpp:100] Creating Layer detection_accuracy_4_5x5
I0323 22:09:29.881462 23525 net.cpp:434] detection_accuracy_4_5x5 <- LFCN_4_5x5_LFCN_4_5x5_0_split_1
I0323 22:09:29.881467 23525 net.cpp:434] detection_accuracy_4_5x5 <- label_4_5x5_data_7_split_1
I0323 22:09:29.881474 23525 net.cpp:408] detection_accuracy_4_5x5 -> accuracy_4_5x5
I0323 22:09:29.881481 23525 net.cpp:408] detection_accuracy_4_5x5 -> boxiou_4_5x5
I0323 22:09:29.881520 23525 net.cpp:150] Setting up detection_accuracy_4_5x5
I0323 22:09:29.881526 23525 net.cpp:157] Top shape: 1 1 1 2 (2)
I0323 22:09:29.881531 23525 net.cpp:157] Top shape: 1 1 1 1 (1)
I0323 22:09:29.881534 23525 net.cpp:165] Memory required for data: 3015130892
I0323 22:09:29.881537 23525 net.cpp:228] detection_accuracy_4_5x5 does not need backward computation.
I0323 22:09:29.881541 23525 net.cpp:226] detection_loss_4_5x5 needs backward computation.
I0323 22:09:29.881544 23525 net.cpp:226] LFCN_4_5x5_LFCN_4_5x5_0_split needs backward computation.
I0323 22:09:29.881548 23525 net.cpp:226] LFCN_4_5x5 needs backward computation.
…
