…
    downsample_rate: 16
    downsample_rate: 32
    downsample_rate: 32
    downsample_rate: 64
    coord_num: 4
    field_h: 60
    field_h: 84
    field_h: 120
    field_h: 168
    field_h: 240
    field_h: 336
    field_h: 480
    field_w: 60
    field_w: 84
    field_w: 120
    field_w: 168
    field_w: 240
    field_w: 336
    field_w: 480
    fg_threshold: 0.5
    resize_width: 1344
    resize_height: 768
    crop_width: 768
    crop_height: 768
    do_multiple_scale: true
    min_scale: 60
    max_scale: 480
    min_gt_height: 25
    shuffle: true
  }
}
layer {
  name: "slice"
  type: "Slice"
  bottom: "data"
  top: "data123"
  top: "ch4"
  slice_param {
    slice_point: 3
    axis: 1
  }
}
layer {
  name: "conv1_1"
  type: "Convolution"
  bottom: "data123"
  top: "conv1_1"
  convolution_param {
    num_output: 64
    pad: 1
    kernel_size: 3
  }
}
layer {
  name: "relu1_1"
  type: "ReLU"
  bottom: "conv1_1"
  top: "conv1_1"
}
layer {
  name: "conv1_2"
  type: "Convolution"
  bottom: "conv1_1"
  top: "conv1_2"
  convolution_param {
    num_output: 64
    pad: 1
    kernel_size: 3
  }
}
layer {
  name: "relu1_2"
  type: "ReLU"
  bottom: "conv1_2"
  top: "conv1_2"
}
layer {
  name: "pool1"
  type: "Pooling"
  bottom: "conv1_2"
  top: "pool1"
  pooling_param {
    pool: MAX
    kernel_size: 2
    stride: 2
  }
}
layer {
  name: "conv2_1"
  type: "Convolution"
  bottom: "pool1"
  top: "conv2_1"
  convolution_param {
    num_output: 128
    pad: 1
    kernel_size: 3
  }
}
layer {
  name: "relu2_1"
  type: "ReLU"
  bottom: "conv2_1"
  top: "conv2_1"
}
layer {
  name: "conv2_2"
  type: "Convolution"
  bottom: "conv2_1"
  top: "conv2_2"
  convolution_param {
    num_output: 128
    pad: 1
    kernel_size: 3
  }
}
layer {
  name: "relu2_2"
  type: "ReLU"
  bottom: "conv2_2"
  top: "conv2_2"
}
layer {
  name: "pool2"
  type: "Pooling"
  bottom: "conv2_2"
  top: "pool2"
  pooling_param {
    pool: MAX
    kernel_size: 2
    stride: 2
  }
}
layer {
  name: "conv3_1"
  type: "Convolution"
  bottom: "pool2"
  top: "conv3_1"
  convolution_param {
    num_output: 256
    pad: 1
    kernel_size: 3
  }
}
layer {
  name: "relu3_1"
  type: "ReLU"
  bottom: "conv3_1"
  top: "conv3_1"
}
layer {
  name: "conv3_2"
  type: "Convolution"
  bottom: "conv3_1"
  top: "conv3_2"
  convolution_param {
    num_output: 256
    pad: 1
    kernel_size: 3
  }
}
layer {
  name: "relu3_2"
  type: "ReLU"
  bottom: "conv3_2"
  top: "conv3_2"
}
layer {
  name: "conv3_3"
  type: "Convolution"
  bottom: "conv3_2"
  top: "conv3_3"
  convolution_param {
    num_output: 256
    pad: 1
    kernel_size: 3
  }
}
layer {
  name: "relu3_3"
  type: "ReLU"
  bottom: "conv3_3"
  top: "conv3_3"
}
layer {
  name: "pool3"
  type: "Pooling"
  bottom: "conv3_3"
  top: "pool3"
  pooling_param {
    pool: MAX
    kernel_size: 2
    stride: 2
  }
}
layer {
  name: "conv4_1"
  type: "Convolution"
  bottom: "pool3"
  top: "conv4_1"
  convolution_param {
    num_output: 512
    pad: 1
    kernel_size: 3
  }
}
layer {
  name: "relu4_1"
  type: "ReLU"
  bottom: "conv4_1"
  top: "conv4_1"
}
layer {
  name: "conv4_2"
  type: "Convolution"
  bottom: "conv4_1"
  top: "conv4_2"
  convolution_param {
    num_output: 512
    pad: 1
    kernel_size: 3
  }
}
layer {
  name: "relu4_2"
  type: "ReLU"
  bottom: "conv4_2"
  top: "conv4_2"
}
layer {
  name: "conv4_3"
  type: "Convolution"
  bottom: "conv4_2"
  top: "conv4_3"
  convolution_param {
    num_output: 512
    pad: 1
    kernel_size: 3
  }
}
layer {
  name: "relu4_3"
  type: "ReLU"
  bottom: "conv4_3"
  top: "conv4_3"
}
layer {
  name: "loss1_conv1"
  type: "Convolution"
  bottom: "conv4_3"
  top: "loss1_conv1"
  param {
    lr_mult: 1
    decay_mult: 1
  }
  param {
    lr_mult: 2
    decay_mult: 0
  }
  convolution_param {
    num_output: 512
    pad: 1
    kernel_size: 3
    weight_filler {
      type: "gaussian"
      std: 0.01
    }
    bias_filler {
      type: "constant"
    }
  }
}
layer {
  name: "loss_relu1"
  type: "ReLU"
  bottom: "loss1_conv1"
  top: "loss1_conv1"
}
layer {
  name: "LFCN_1_5x5"
  type: "Convolution"
  bottom: "loss1_conv1"
  top: "LFCN_1_5x5"
  param {
    lr_mult: 1
    decay_mult: 1
  }
  param {
    lr_mult: 2
    decay_mult: 0
  }
  convolution_param {
    num_output: 9
    pad: 2
    kernel_size: 5
    weight_filler {
      type: "gaussian"
      std: 0.001
    }
    bias_filler {
      type: "constant"
    }
  }
}
layer {
  name: "detection_loss_1_5x5"
  type: "DetectionLoss"
  bottom: "LFCN_1_5x5"
  bottom: "label_1_5x5"
  top: "loss_1_5x5"
  loss_weight: 0.9
  detection_loss_param {
    cls_num: 5
    coord_num: 4
    lambda: 0.05
    field_h: 60
    field_w: 60
    downsample_rate: 8
    bb_smooth: true
    field_whr: 2
    field_xyr: 2
    bg_threshold: 0.2
    bg_multiple: 2
    sample_mode: "random"
    pos_neg_weighted: true
  }
}
layer {
  name: "detection_accuracy_1_5x5"
  type: "DetectionAccuracy"
  bottom: "LFCN_1_5x5"
  bottom: "label_1_5x5"
  top: "accuracy_1_5x5"
  top: "boxiou_1_5x5"
  detection_accuracy_param {
    cls_num: 5
    coord_num: 4
    field_h: 60
    field_w: 60
    downsample_rate: 8
    field_whr: 2
    field_xyr: 2
  }
}
layer {
  name: "LFCN_1_7x7"
  type: "Convolution"
  bottom: "loss1_conv1"
  top: "LFCN_1_7x7"
  param {
    lr_mult: 1
    decay_mult: 1
  }
  param {
    lr_mult: 2
    decay_mult: 0
  }
  convolution_param {
    num_output: 9
    pad: 3
    kernel_size: 7
    weight_filler {
      type: "gaussian"
      std: 0.001
    }
    bias_filler {
      type: "constant"
    }
  }
}
layer {
  name: "detection_loss_1_7x7"
  type: "DetectionLoss"
  bottom: "LFCN_1_7x7"
  bottom: "label_1_7x7"
  top: "loss_1_7x7"
  loss_weight: 0.9
  detection_loss_param {
    cls_num: 5
    coord_num: 4
    lambda: 0.05
    field_h: 84
    field_w: 84
    downsample_rate: 8
    bb_smooth: true
    field_whr: 2
    field_xyr: 2
    bg_threshold: 0.2
    bg_multiple: 2
    sample_mode: "random"
    pos_neg_weighted: true
  }
}
layer {
  name: "detection_accuracy_1_7x7"
  type: "DetectionAccuracy"
  bottom: "LFCN_1_7x7"
  bottom: "label_1_7x7"
  top: "accuracy_1_7x7"
  top: "boxiou_1_7x7"
  detection_accuracy_param {
    cls_num: 5
    coord_num: 4
    field_h: 84
    field_w: 84
    downsample_rate: 8
    field_whr: 2
    field_xyr: 2
  }
}
layer {
  name: "pool4"
  type: "Pooling"
  bottom: "conv4_3"
  top: "pool4"
  pooling_param {
    pool: MAX
    kernel_size: 2
    stride: 2
  }
}
layer {
  name: "ch4_pool4"
  type: "Pooling"
  bottom: "ch4"
  top: "ch4_pool4"
  pooling_param {
    pool: MAX
    kernel_size: 16
    stride: 16
  }
}
layer {
  name: "pool4_concat"
  type: "Concat"
  bottom: "pool4"
  bottom: "ch4_pool4"
  top: "pool4_new"
}
layer {
  name: "conv5_1_new"
  type: "Convolution"
  bottom: "pool4_new"
  top: "conv5_1"
  convolution_param {
    num_output: 512
    pad: 1
    kernel_size: 3
  }
}
layer {
  name: "relu5_1"
  type: "ReLU"
  bottom: "conv5_1"
  top: "conv5_1"
}
layer {
  name: "conv5_2"
  type: "Convolution"
  bottom: "conv5_1"
  top: "conv5_2"
  convolution_param {
    num_output: 512
    pad: 1
    kernel_size: 3
  }
}
layer {
  name: "relu5_2"
  type: "ReLU"
  bottom: "conv5_2"
  top: "conv5_2"
}
layer {
  name: "conv5_3"
  type: "Convolution"
  bottom: "conv5_2"
  top: "conv5_3"
  convolution_param {
    num_output: 512
    pad: 1
    kernel_size: 3
  }
}
layer {
  name: "relu5_3"
  type: "ReLU"
  bottom: "conv5_3"
  top: "conv5_3"
}
layer {
  name: "LFCN_2_5x5"
  type: "Convolution"
  bottom: "conv5_3"
  top: "LFCN_2_5x5"
  param {
    lr_mult: 1
    decay_mult: 1
  }
  param {
    lr_mult: 2
    decay_mult: 0
  }
  convolution_param {
    num_output: 9
    pad: 2
    kernel_size: 5
    weight_filler {
      type: "gaussian"
      std: 0.001
    }
    bias_filler {
      type: "constant"
    }
  }
}
layer {
  name: "detection_loss_2_5x5"
  type: "DetectionLoss"
  bottom: "LFCN_2_5x5"
  bottom: "label_2_5x5"
  top: "loss_2_5x5"
  detection_loss_param {
    cls_num: 5
    coord_num: 4
    lambda: 0.05
    field_h: 120
    field_w: 120
    downsample_rate: 16
    bb_smooth: true
    field_whr: 2
    field_xyr: 2
    bg_threshold: 0.2
    bg_multiple: 2
    sample_mode: "random"
    pos_neg_weighted: true
  }
}
layer {
  name: "detection_accuracy_2_5x5"
  type: "DetectionAccuracy"
  bottom: "LFCN_2_5x5"
  bottom: "label_2_5x5"
  top: "accuracy_2_5x5"
  top: "boxiou_2_5x5"
  detection_accuracy_param {
    cls_num: 5
    coord_num: 4
    field_h: 120
    field_w: 120
    downsample_rate: 16
    field_whr: 2
    field_xyr: 2
  }
}
layer {
  name: "LFCN_2_7x7"
  type: "Convolution"
  bottom: "conv5_3"
  top: "LFCN_2_7x7"
  param {
    lr_mult: 1
    decay_mult: 1
  }
  param {
    lr_mult: 2
    decay_mult: 0
  }
  convolution_param {
    num_output: 9
    pad: 3
    kernel_size: 7
    weight_filler {
      type: "gaussian"
      std: 0.001
    }
    bias_filler {
      type: "constant"
    }
  }
}
layer {
  name: "detection_loss_2_7x7"
  type: "DetectionLoss"
  bottom: "LFCN_2_7x7"
  bottom: "label_2_7x7"
  top: "loss_2_7x7"
  detection_loss_param {
    cls_num: 5
    coord_num: 4
    lambda: 0.05
    field_h: 168
    field_w: 168
    downsample_rate: 16
    bb_smooth: true
    field_whr: 2
    field_xyr: 2
    bg_threshold: 0.2
    bg_multiple: 2
    sample_mode: "random"
    pos_neg_weighted: true
  }
}
layer {
  name: "detection_accuracy_2_7x7"
  type: "DetectionAccuracy"
  bottom: "LFCN_2_7x7"
  bottom: "label_2_7x7"
  top: "accuracy_2_7x7"
  top: "boxiou_2_7x7"
  detection_accuracy_param {
    cls_num: 5
    coord_num: 4
    field_h: 168
    field_w: 168
    downsample_rate: 16
    field_whr: 2
    field_xyr: 2
  }
}
layer {
  name: "pool5"
  type: "Pooling"
  bottom: "conv5_3"
  top: "pool5"
  pooling_param {
    pool: MAX
    kernel_size: 2
    stride: 2
  }
}
layer {
  name: "conv6_1"
  type: "Convolution"
  bottom: "pool5"
  top: "conv6_1"
  param {
    lr_mult: 1
    decay_mult: 1
  }
  param {
    lr_mult: 2
    decay_mult: 0
  }
  convolution_param {
    num_output: 512
    pad: 1
    kernel_size: 3
    weight_filler {
      type: "gaussian"
      std: 0.01
    }
    bias_filler {
      type: "constant"
    }
  }
}
layer {
  name: "relu6_1"
  type: "ReLU"
  bottom: "conv6_1"
  top: "conv6_1"
}
layer {
  name: "LFCN_3_5x5"
  type: "Convolution"
  bottom: "conv6_1"
  top: "LFCN_3_5x5"
  param {
    lr_mult: 1
    decay_mult: 1
  }
  param {
    lr_mult: 2
    decay_mult: 0
  }
  convolution_param {
    num_output: 9
    pad: 2
    kernel_size: 5
    weight_filler {
      type: "gaussian"
      std: 0.001
    }
    bias_filler {
      type: "constant"
    }
  }
}
layer {
  name: "detection_loss_3_5x5"
  type: "DetectionLoss"
  bottom: "LFCN_3_5x5"
  bottom: "label_3_5x5"
  top: "loss_3_5x5"
  detection_loss_param {
    cls_num: 5
    coord_num: 4
    lambda: 0.05
    field_h: 240
    field_w: 240
    downsample_rate: 32
    bb_smooth: true
    field_whr: 2
    field_xyr: 2
    bg_threshold: 0.2
    bg_multiple: 2
    sample_mode: "random"
    pos_neg_weighted: true
  }
}
layer {
  name: "detection_accuracy_3_5x5"
  type: "DetectionAccuracy"
  bottom: "LFCN_3_5x5"
  bottom: "label_3_5x5"
  top: "accuracy_3_5x5"
  top: "boxiou_3_5x5"
  detection_accuracy_param {
    cls_num: 5
    coord_num: 4
    field_h: 240
    field_w: 240
    downsample_rate: 32
    field_whr: 2
    field_xyr: 2
  }
}
layer {
  name: "LFCN_3_7x7"
  type: "Convolution"
  bottom: "conv6_1"
  top: "LFCN_3_7x7"
  param {
    lr_mult: 1
    decay_mult: 1
  }
  param {
    lr_mult: 2
    decay_mult: 0
  }
  convolution_param {
    num_output: 9
    pad: 3
    kernel_size: 7
    weight_filler {
      type: "gaussian"
      std: 0.001
    }
    bias_filler {
      type: "constant"
    }
  }
}
layer {
  name: "detection_loss_3_7x7"
  type: "DetectionLoss"
  bottom: "LFCN_3_7x7"
  bottom: "label_3_7x7"
  top: "loss_3_7x7"
  detection_loss_param {
    cls_num: 5
    coord_num: 4
    lambda: 0.05
    field_h: 336
    field_w: 336
    downsample_rate: 32
    bb_smooth: true
    field_whr: 2
    field_xyr: 2
    bg_threshold: 0.2
    bg_multiple: 2
    sample_mode: "random"
    pos_neg_weighted: true
  }
}
layer {
  name: "detection_accuracy_3_7x7"
  type: "DetectionAccuracy"
  bottom: "LFCN_3_7x7"
  bottom: "label_3_7x7"
  top: "accuracy_3_7x7"
  top: "boxiou_3_7x7"
  detection_accuracy_param {
    cls_num: 5
    coord_num: 4
    field_h: 336
    field_w: 336
    downsample_rate: 32
    field_whr: 2
    field_xyr: 2
  }
}
layer {
  name: "pool6"
  type: "Pooling"
  bottom: "conv6_1"
  top: "pool6"
  pooling_param {
    pool: MAX
    kernel_size: 2
    stride: 2
  }
}
layer {
  name: "LFCN_4_5x5"
  type: "Convolution"
  bottom: "pool6"
  top: "LFCN_4_5x5"
  param {
    lr_mult: 1
    decay_mult: 1
  }
  param {
    lr_mult: 2
    decay_mult: 0
  }
  convolution_param {
    num_output: 9
    pad: 2
    kernel_size: 5
    weight_filler {
      type: "gaussian"
      std: 0.001
    }
    bias_filler {
      type: "constant"
    }
  }
}
layer {
  name: "detection_loss_4_5x5"
  type: "DetectionLoss"
  bottom: "LFCN_4_5x5"
  bottom: "label_4_5x5"
  top: "loss_4_5x5"
  detection_loss_param {
    cls_num: 5
    coord_num: 4
    lambda: 0.05
    field_h: 480
    field_w: 480
    downsample_rate: 64
    bb_smooth: true
    field_whr: 2
    field_xyr: 2
    bg_threshold: 0.2
    bg_multiple: 2
    sample_mode: "random"
    pos_neg_weighted: true
  }
}
layer {
  name: "detection_accuracy_4_5x5"
  type: "DetectionAccuracy"
  bottom: "LFCN_4_5x5"
  bottom: "label_4_5x5"
  top: "accuracy_4_5x5"
  top: "boxiou_4_5x5"
  detection_accuracy_param {
    cls_num: 5
    coord_num: 4
    field_h: 480
    field_w: 480
    downsample_rate: 64
    field_whr: 2
    field_xyr: 2
  }
}
I0225 12:50:47.268229  5734 layer_factory.hpp:77] Creating layer data
I0225 12:50:47.873383  5734 net.cpp:100] Creating Layer data
I0225 12:50:47.873440  5734 net.cpp:408] data -> data
…
I0225 12:50:48.050333  5734 image_gt_data_layer.cpp:235] output label size 1 : 4,6,96,96
I0225 12:50:48.050395  5734 image_gt_data_layer.cpp:235] output label size 2 : 4,6,48,48
I0225 12:50:48.050453  5734 image_gt_data_layer.cpp:235] output label size 3 : 4,6,48,48
I0225 12:50:48.050511  5734 image_gt_data_layer.cpp:235] output label size 4 : 4,6,24,24
I0225 12:50:48.050570  5734 image_gt_data_layer.cpp:235] output label size 5 : 4,6,24,24
I0225 12:50:48.050629  5734 image_gt_data_layer.cpp:235] output label size 6 : 4,6,12,12
I0225 12:50:48.140031  5734 net.cpp:150] Setting up data
I0225 12:50:48.140099  5734 net.cpp:157] Top shape: 4 4 768 768 (9437184)
I0225 12:50:48.140105  5734 net.cpp:157] Top shape: 4 6 96 96 (221184)
I0225 12:50:48.140110  5734 net.cpp:157] Top shape: 4 6 96 96 (221184)
I0225 12:50:48.140115  5734 net.cpp:157] Top shape: 4 6 48 48 (55296)
I0225 12:50:48.140121  5734 net.cpp:157] Top shape: 4 6 48 48 (55296)
I0225 12:50:48.140126  5734 net.cpp:157] Top shape: 4 6 24 24 (13824)
I0225 12:50:48.140130  5734 net.cpp:157] Top shape: 4 6 24 24 (13824)
I0225 12:50:48.140136  5734 net.cpp:157] Top shape: 4 6 12 12 (3456)
I0225 12:50:48.140139  5734 net.cpp:165] Memory required for data: 40084992
I0225 12:50:48.140153  5734 layer_factory.hpp:77] Creating layer label_1_5x5_data_1_split
I0225 12:50:48.140488  5734 net.cpp:100] Creating Layer label_1_5x5_data_1_split
I0225 12:50:48.140522  5734 net.cpp:434] label_1_5x5_data_1_split <- label_1_5x5
I0225 12:50:48.140552  5734 net.cpp:408] label_1_5x5_data_1_split -> label_1_5x5_data_1_split_0
I0225 12:50:48.140575  5734 net.cpp:408] label_1_5x5_data_1_split -> label_1_5x5_data_1_split_1
I0225 12:50:48.140700  5734 net.cpp:150] Setting up label_1_5x5_data_1_split
I0225 12:50:48.140718  5734 net.cpp:157] Top shape: 4 6 96 96 (221184)
I0225 12:50:48.140730  5734 net.cpp:157] Top shape: 4 6 96 96 (221184)
I0225 12:50:48.140739  5734 net.cpp:165] Memory required for data: 41854464
I0225 12:50:48.140749  5734 layer_factory.hpp:77] Creating layer label_1_7x7_data_2_split
I0225 12:50:48.140765  5734 net.cpp:100] Creating Layer label_1_7x7_data_2_split
I0225 12:50:48.140775  5734 net.cpp:434] label_1_7x7_data_2_split <- label_1_7x7
I0225 12:50:48.140789  5734 net.cpp:408] label_1_7x7_data_2_split -> label_1_7x7_data_2_split_0
I0225 12:50:48.140803  5734 net.cpp:408] label_1_7x7_data_2_split -> label_1_7x7_data_2_split_1
I0225 12:50:48.140873  5734 net.cpp:150] Setting up label_1_7x7_data_2_split
I0225 12:50:48.140887  5734 net.cpp:157] Top shape: 4 6 96 96 (221184)
I0225 12:50:48.140898  5734 net.cpp:157] Top shape: 4 6 96 96 (221184)
I0225 12:50:48.140908  5734 net.cpp:165] Memory required for data: 43623936
I0225 12:50:48.140916  5734 layer_factory.hpp:77] Creating layer label_2_5x5_data_3_split
I0225 12:50:48.140928  5734 net.cpp:100] Creating Layer label_2_5x5_data_3_split
I0225 12:50:48.140936  5734 net.cpp:434] label_2_5x5_data_3_split <- label_2_5x5
I0225 12:50:48.140950  5734 net.cpp:408] label_2_5x5_data_3_split -> label_2_5x5_data_3_split_0
I0225 12:50:48.140964  5734 net.cpp:408] label_2_5x5_data_3_split -> label_2_5x5_data_3_split_1
I0225 12:50:48.141038  5734 net.cpp:150] Setting up label_2_5x5_data_3_split
I0225 12:50:48.141053  5734 net.cpp:157] Top shape: 4 6 48 48 (55296)
I0225 12:50:48.141065  5734 net.cpp:157] Top shape: 4 6 48 48 (55296)
I0225 12:50:48.141073  5734 net.cpp:165] Memory required for data: 44066304
I0225 12:50:48.141083  5734 layer_factory.hpp:77] Creating layer label_2_7x7_data_4_split
I0225 12:50:48.141095  5734 net.cpp:100] Creating Layer label_2_7x7_data_4_split
I0225 12:50:48.141104  5734 net.cpp:434] label_2_7x7_data_4_split <- label_2_7x7
I0225 12:50:48.141118  5734 net.cpp:408] label_2_7x7_data_4_split -> label_2_7x7_data_4_split_0
I0225 12:50:48.141134  5734 net.cpp:408] label_2_7x7_data_4_split -> label_2_7x7_data_4_split_1
I0225 12:50:48.141197  5734 net.cpp:150] Setting up label_2_7x7_data_4_split
I0225 12:50:48.141211  5734 net.cpp:157] Top shape: 4 6 48 48 (55296)
I0225 12:50:48.141222  5734 net.cpp:157] Top shape: 4 6 48 48 (55296)
I0225 12:50:48.141230  5734 net.cpp:165] Memory required for data: 44508672
I0225 12:50:48.141239  5734 layer_factory.hpp:77] Creating layer label_3_5x5_data_5_split
I0225 12:50:48.141252  5734 net.cpp:100] Creating Layer label_3_5x5_data_5_split
I0225 12:50:48.141263  5734 net.cpp:434] label_3_5x5_data_5_split <- label_3_5x5
I0225 12:50:48.141273  5734 net.cpp:408] label_3_5x5_data_5_split -> label_3_5x5_data_5_split_0
I0225 12:50:48.141291  5734 net.cpp:408] label_3_5x5_data_5_split -> label_3_5x5_data_5_split_1
I0225 12:50:48.141353  5734 net.cpp:150] Setting up label_3_5x5_data_5_split
I0225 12:50:48.141367  5734 net.cpp:157] Top shape: 4 6 24 24 (13824)
I0225 12:50:48.141379  5734 net.cpp:157] Top shape: 4 6 24 24 (13824)
I0225 12:50:48.141387  5734 net.cpp:165] Memory required for data: 44619264
I0225 12:50:48.141396  5734 layer_factory.hpp:77] Creating layer label_3_7x7_data_6_split
I0225 12:50:48.141407  5734 net.cpp:100] Creating Layer label_3_7x7_data_6_split
I0225 12:50:48.141417  5734 net.cpp:434] label_3_7x7_data_6_split <- label_3_7x7
I0225 12:50:48.141428  5734 net.cpp:408] label_3_7x7_data_6_split -> label_3_7x7_data_6_split_0
I0225 12:50:48.141443  5734 net.cpp:408] label_3_7x7_data_6_split -> label_3_7x7_data_6_split_1
I0225 12:50:48.141501  5734 net.cpp:150] Setting up label_3_7x7_data_6_split
I0225 12:50:48.141515  5734 net.cpp:157] Top shape: 4 6 24 24 (13824)
I0225 12:50:48.141526  5734 net.cpp:157] Top shape: 4 6 24 24 (13824)
I0225 12:50:48.141535  5734 net.cpp:165] Memory required for data: 44729856
I0225 12:50:48.141544  5734 layer_factory.hpp:77] Creating layer label_4_5x5_data_7_split
I0225 12:50:48.141554  5734 net.cpp:100] Creating Layer label_4_5x5_data_7_split
I0225 12:50:48.141563  5734 net.cpp:434] label_4_5x5_data_7_split <- label_4_5x5
I0225 12:50:48.141577  5734 net.cpp:408] label_4_5x5_data_7_split -> label_4_5x5_data_7_split_0
I0225 12:50:48.141592  5734 net.cpp:408] label_4_5x5_data_7_split -> label_4_5x5_data_7_split_1
I0225 12:50:48.141650  5734 net.cpp:150] Setting up label_4_5x5_data_7_split
I0225 12:50:48.141664  5734 net.cpp:157] Top shape: 4 6 12 12 (3456)
I0225 12:50:48.141675  5734 net.cpp:157] Top shape: 4 6 12 12 (3456)
I0225 12:50:48.141683  5734 net.cpp:165] Memory required for data: 44757504
I0225 12:50:48.141692  5734 layer_factory.hpp:77] Creating layer slice
I0225 12:50:48.142154  5734 net.cpp:100] Creating Layer slice
I0225 12:50:48.142221  5734 net.cpp:434] slice <- data
I0225 12:50:48.142251  5734 net.cpp:408] slice -> data123
I0225 12:50:48.142292  5734 net.cpp:408] slice -> ch4
I0225 12:50:48.142520  5734 net.cpp:150] Setting up slice
I0225 12:50:48.142571  5734 net.cpp:157] Top shape: 4 3 768 768 (7077888)
I0225 12:50:48.142583  5734 net.cpp:157] Top shape: 4 1 768 768 (2359296)
I0225 12:50:48.142590  5734 net.cpp:165] Memory required for data: 82506240
I0225 12:50:48.142601  5734 layer_factory.hpp:77] Creating layer conv1_1
I0225 12:50:48.142647  5734 net.cpp:100] Creating Layer conv1_1
I0225 12:50:48.142678  5734 net.cpp:434] conv1_1 <- data123
I0225 12:50:48.142714  5734 net.cpp:408] conv1_1 -> conv1_1
I0225 12:50:48.524051  5734 net.cpp:150] Setting up conv1_1
I0225 12:50:48.524080  5734 net.cpp:157] Top shape: 4 64 768 768 (150994944)
I0225 12:50:48.524087  5734 net.cpp:165] Memory required for data: 686486016
I0225 12:50:48.524106  5734 layer_factory.hpp:77] Creating layer relu1_1
I0225 12:50:48.524121  5734 net.cpp:100] Creating Layer relu1_1
I0225 12:50:48.524129  5734 net.cpp:434] relu1_1 <- conv1_1
I0225 12:50:48.524137  5734 net.cpp:395] relu1_1 -> conv1_1 (in-place)
I0225 12:50:48.524374  5734 net.cpp:150] Setting up relu1_1
I0225 12:50:48.524387  5734 net.cpp:157] Top shape: 4 64 768 768 (150994944)
I0225 12:50:48.524394  5734 net.cpp:165] Memory required for data: 1290465792
I0225 12:50:48.524399  5734 layer_factory.hpp:77] Creating layer conv1_2
I0225 12:50:48.524411  5734 net.cpp:100] Creating Layer conv1_2
I0225 12:50:48.524417  5734 net.cpp:434] conv1_2 <- conv1_1
I0225 12:50:48.524425  5734 net.cpp:408] conv1_2 -> conv1_2
I0225 12:50:48.527159  5734 net.cpp:150] Setting up conv1_2
I0225 12:50:48.527180  5734 net.cpp:157] Top shape: 4 64 768 768 (150994944)
I0225 12:50:48.527186  5734 net.cpp:165] Memory required for data: 1894445568
I0225 12:50:48.527199  5734 layer_factory.hpp:77] Creating layer relu1_2
I0225 12:50:48.527209  5734 net.cpp:100] Creating Layer relu1_2
I0225 12:50:48.527215  5734 net.cpp:434] relu1_2 <- conv1_2
I0225 12:50:48.527223  5734 net.cpp:395] relu1_2 -> conv1_2 (in-place)
I0225 12:50:48.527456  5734 net.cpp:150] Setting up relu1_2
I0225 12:50:48.527469  5734 net.cpp:157] Top shape: 4 64 768 768 (150994944)
I0225 12:50:48.527474  5734 net.cpp:165] Memory required for data: 2498425344
I0225 12:50:48.527479  5734 layer_factory.hpp:77] Creating layer pool1
I0225 12:50:48.527489  5734 net.cpp:100] Creating Layer pool1
I0225 12:50:48.527495  5734 net.cpp:434] pool1 <- conv1_2
I0225 12:50:48.527503  5734 net.cpp:408] pool1 -> pool1
I0225 12:50:48.527739  5734 net.cpp:150] Setting up pool1
I0225 12:50:48.527750  5734 net.cpp:157] Top shape: 4 64 384 384 (37748736)
I0225 12:50:48.527755  5734 net.cpp:165] Memory required for data: 2649420288
I0225 12:50:48.527760  5734 layer_factory.hpp:77] Creating layer conv2_1
I0225 12:50:48.527770  5734 net.cpp:100] Creating Layer conv2_1
I0225 12:50:48.527775  5734 net.cpp:434] conv2_1 <- pool1
I0225 12:50:48.527781  5734 net.cpp:408] conv2_1 -> conv2_1
I0225 12:50:48.530333  5734 net.cpp:150] Setting up conv2_1
I0225 12:50:48.530354  5734 net.cpp:157] Top shape: 4 128 384 384 (75497472)
I0225 12:50:48.530359  5734 net.cpp:165] Memory required for data: 2951410176
I0225 12:50:48.530372  5734 layer_factory.hpp:77] Creating layer relu2_1
I0225 12:50:48.530381  5734 net.cpp:100] Creating Layer relu2_1
I0225 12:50:48.530387  5734 net.cpp:434] relu2_1 <- conv2_1
I0225 12:50:48.530395  5734 net.cpp:395] relu2_1 -> conv2_1 (in-place)
I0225 12:50:48.530635  5734 net.cpp:150] Setting up relu2_1
I0225 12:50:48.530648  5734 net.cpp:157] Top shape: 4 128 384 384 (75497472)
I0225 12:50:48.530653  5734 net.cpp:165] Memory required for data: 3253400064
I0225 12:50:48.530659  5734 layer_factory.hpp:77] Creating layer conv2_2
I0225 12:50:48.530674  5734 net.cpp:100] Creating Layer conv2_2
I0225 12:50:48.530681  5734 net.cpp:434] conv2_2 <- conv2_1
I0225 12:50:48.530689  5734 net.cpp:408] conv2_2 -> conv2_2
I0225 12:50:48.532454  5734 net.cpp:150] Setting up conv2_2
I0225 12:50:48.532469  5734 net.cpp:157] Top shape: 4 128 384 384 (75497472)
I0225 12:50:48.532474  5734 net.cpp:165] Memory required for data: 3555389952
I0225 12:50:48.532480  5734 layer_factory.hpp:77] Creating layer relu2_2
I0225 12:50:48.532486  5734 net.cpp:100] Creating Layer relu2_2
I0225 12:50:48.532490  5734 net.cpp:434] relu2_2 <- conv2_2
I0225 12:50:48.532495  5734 net.cpp:395] relu2_2 -> conv2_2 (in-place)
I0225 12:50:48.532655  5734 net.cpp:150] Setting up relu2_2
I0225 12:50:48.532663  5734 net.cpp:157] Top shape: 4 128 384 384 (75497472)
I0225 12:50:48.532666  5734 net.cpp:165] Memory required for data: 3857379840
I0225 12:50:48.532670  5734 layer_factory.hpp:77] Creating layer pool2
I0225 12:50:48.532677  5734 net.cpp:100] Creating Layer pool2
I0225 12:50:48.532680  5734 net.cpp:434] pool2 <- conv2_2
I0225 12:50:48.532685  5734 net.cpp:408] pool2 -> pool2
I0225 12:50:48.532721  5734 net.cpp:150] Setting up pool2
I0225 12:50:48.532728  5734 net.cpp:157] Top shape: 4 128 192 192 (18874368)
I0225 12:50:48.532732  5734 net.cpp:165] Memory required for data: 3932877312
I0225 12:50:48.532734  5734 layer_factory.hpp:77] Creating layer conv3_1
I0225 12:50:48.532742  5734 net.cpp:100] Creating Layer conv3_1
I0225 12:50:48.532745  5734 net.cpp:434] conv3_1 <- pool2
I0225 12:50:48.532750  5734 net.cpp:408] conv3_1 -> conv3_1
I0225 12:50:48.535107  5734 net.cpp:150] Setting up conv3_1
I0225 12:50:48.535125  5734 net.cpp:157] Top shape: 4 256 192 192 (37748736)
I0225 12:50:48.535128  5734 net.cpp:165] Memory required for data: 4083872256
I0225 12:50:48.535138  5734 layer_factory.hpp:77] Creating layer relu3_1
I0225 12:50:48.535146  5734 net.cpp:100] Creating Layer relu3_1
I0225 12:50:48.535151  5734 net.cpp:434] relu3_1 <- conv3_1
I0225 12:50:48.535156  5734 net.cpp:395] relu3_1 -> conv3_1 (in-place)
I0225 12:50:48.535586  5734 net.cpp:150] Setting up relu3_1
I0225 12:50:48.535598  5734 net.cpp:157] Top shape: 4 256 192 192 (37748736)
I0225 12:50:48.535603  5734 net.cpp:165] Memory required for data: 4234867200
I0225 12:50:48.535606  5734 layer_factory.hpp:77] Creating layer conv3_2
I0225 12:50:48.535614  5734 net.cpp:100] Creating Layer conv3_2
I0225 12:50:48.535619  5734 net.cpp:434] conv3_2 <- conv3_1
I0225 12:50:48.535624  5734 net.cpp:408] conv3_2 -> conv3_2
I0225 12:50:48.537914  5734 net.cpp:150] Setting up conv3_2
I0225 12:50:48.537936  5734 net.cpp:157] Top shape: 4 256 192 192 (37748736)
I0225 12:50:48.537940  5734 net.cpp:165] Memory required for data: 4385862144
I0225 12:50:48.537947  5734 layer_factory.hpp:77] Creating layer relu3_2
I0225 12:50:48.537957  5734 net.cpp:100] Creating Layer relu3_2
I0225 12:50:48.537962  5734 net.cpp:434] relu3_2 <- conv3_2
I0225 12:50:48.537967  5734 net.cpp:395] relu3_2 -> conv3_2 (in-place)
I0225 12:50:48.538408  5734 net.cpp:150] Setting up relu3_2
I0225 12:50:48.538420  5734 net.cpp:157] Top shape: 4 256 192 192 (37748736)
I0225 12:50:48.538424  5734 net.cpp:165] Memory required for data: 4536857088
I0225 12:50:48.538429  5734 layer_factory.hpp:77] Creating layer conv3_3
I0225 12:50:48.538435  5734 net.cpp:100] Creating Layer conv3_3
I0225 12:50:48.538439  5734 net.cpp:434] conv3_3 <- conv3_2
I0225 12:50:48.538446  5734 net.cpp:408] conv3_3 -> conv3_3
I0225 12:50:48.542217  5734 net.cpp:150] Setting up conv3_3
I0225 12:50:48.542254  5734 net.cpp:157] Top shape: 4 256 192 192 (37748736)
I0225 12:50:48.542258  5734 net.cpp:165] Memory required for data: 4687852032
I0225 12:50:48.542269  5734 layer_factory.hpp:77] Creating layer relu3_3
I0225 12:50:48.542284  5734 net.cpp:100] Creating Layer relu3_3
I0225 12:50:48.542290  5734 net.cpp:434] relu3_3 <- conv3_3
I0225 12:50:48.542296  5734 net.cpp:395] relu3_3 -> conv3_3 (in-place)
I0225 12:50:48.542474  5734 net.cpp:150] Setting up relu3_3
I0225 12:50:48.542482  5734 net.cpp:157] Top shape: 4 256 192 192 (37748736)
I0225 12:50:48.542486  5734 net.cpp:165] Memory required for data: 4838846976
I0225 12:50:48.542490  5734 layer_factory.hpp:77] Creating layer pool3
I0225 12:50:48.542498  5734 net.cpp:100] Creating Layer pool3
I0225 12:50:48.542501  5734 net.cpp:434] pool3 <- conv3_3
I0225 12:50:48.542507  5734 net.cpp:408] pool3 -> pool3
I0225 12:50:48.542549  5734 net.cpp:150] Setting up pool3
I0225 12:50:48.542556  5734 net.cpp:157] Top shape: 4 256 96 96 (9437184)
I0225 12:50:48.542559  5734 net.cpp:165] Memory required for data: 4876595712
I0225 12:50:48.542562  5734 layer_factory.hpp:77] Creating layer conv4_1
I0225 12:50:48.542573  5734 net.cpp:100] Creating Layer conv4_1
I0225 12:50:48.542577  5734 net.cpp:434] conv4_1 <- pool3
I0225 12:50:48.542582  5734 net.cpp:408] conv4_1 -> conv4_1
I0225 12:50:48.547685  5734 net.cpp:150] Setting up conv4_1
I0225 12:50:48.547729  5734 net.cpp:157] Top shape: 4 512 96 96 (18874368)
I0225 12:50:48.547734  5734 net.cpp:165] Memory required for data: 4952093184
I0225 12:50:48.547745  5734 layer_factory.hpp:77] Creating layer relu4_1
I0225 12:50:48.547766  5734 net.cpp:100] Creating Layer relu4_1
I0225 12:50:48.547775  5734 net.cpp:434] relu4_1 <- conv4_1
I0225 12:50:48.547781  5734 net.cpp:395] relu4_1 -> conv4_1 (in-place)
I0225 12:50:48.547982  5734 net.cpp:150] Setting up relu4_1
I0225 12:50:48.547992  5734 net.cpp:157] Top shape: 4 512 96 96 (18874368)
I0225 12:50:48.547996  5734 net.cpp:165] Memory required for data: 5027590656
I0225 12:50:48.547999  5734 layer_factory.hpp:77] Creating layer conv4_2
I0225 12:50:48.548012  5734 net.cpp:100] Creating Layer conv4_2
I0225 12:50:48.548018  5734 net.cpp:434] conv4_2 <- conv4_1
I0225 12:50:48.548027  5734 net.cpp:408] conv4_2 -> conv4_2
I0225 12:50:48.556890  5734 net.cpp:150] Setting up conv4_2
I0225 12:50:48.556921  5734 net.cpp:157] Top shape: 4 512 96 96 (18874368)
I0225 12:50:48.556926  5734 net.cpp:165] Memory required for data: 5103088128
I0225 12:50:48.556938  5734 layer_factory.hpp:77] Creating layer relu4_2
I0225 12:50:48.556949  5734 net.cpp:100] Creating Layer relu4_2
I0225 12:50:48.556955  5734 net.cpp:434] relu4_2 <- conv4_2
I0225 12:50:48.556962  5734 net.cpp:395] relu4_2 -> conv4_2 (in-place)
I0225 12:50:48.557122  5734 net.cpp:150] Setting up relu4_2
I0225 12:50:48.557132  5734 net.cpp:157] Top shape: 4 512 96 96 (18874368)
I0225 12:50:48.557135  5734 net.cpp:165] Memory required for data: 5178585600
I0225 12:50:48.557138  5734 layer_factory.hpp:77] Creating layer conv4_3
I0225 12:50:48.557148  5734 net.cpp:100] Creating Layer conv4_3
I0225 12:50:48.557152  5734 net.cpp:434] conv4_3 <- conv4_2
I0225 12:50:48.557157  5734 net.cpp:408] conv4_3 -> conv4_3
I0225 12:50:48.563092  5734 net.cpp:150] Setting up conv4_3
I0225 12:50:48.563124  5734 net.cpp:157] Top shape: 4 512 96 96 (18874368)
I0225 12:50:48.563128  5734 net.cpp:165] Memory required for data: 5254083072
I0225 12:50:48.563138  5734 layer_factory.hpp:77] Creating layer relu4_3
I0225 12:50:48.563153  5734 net.cpp:100] Creating Layer relu4_3
I0225 12:50:48.563158  5734 net.cpp:434] relu4_3 <- conv4_3
I0225 12:50:48.563164  5734 net.cpp:395] relu4_3 -> conv4_3 (in-place)
I0225 12:50:48.563320  5734 net.cpp:150] Setting up relu4_3
I0225 12:50:48.563330  5734 net.cpp:157] Top shape: 4 512 96 96 (18874368)
I0225 12:50:48.563334  5734 net.cpp:165] Memory required for data: 5329580544
I0225 12:50:48.563338  5734 layer_factory.hpp:77] Creating layer conv4_3_relu4_3_0_split
I0225 12:50:48.563347  5734 net.cpp:100] Creating Layer conv4_3_relu4_3_0_split
I0225 12:50:48.563351  5734 net.cpp:434] conv4_3_relu4_3_0_split <- conv4_3
I0225 12:50:48.563357  5734 net.cpp:408] conv4_3_relu4_3_0_split -> conv4_3_relu4_3_0_split_0
I0225 12:50:48.563364  5734 net.cpp:408] conv4_3_relu4_3_0_split -> conv4_3_relu4_3_0_split_1
I0225 12:50:48.563397  5734 net.cpp:150] Setting up conv4_3_relu4_3_0_split
I0225 12:50:48.563403  5734 net.cpp:157] Top shape: 4 512 96 96 (18874368)
I0225 12:50:48.563408  5734 net.cpp:157] Top shape: 4 512 96 96 (18874368)
I0225 12:50:48.563411  5734 net.cpp:165] Memory required for data: 5480575488
I0225 12:50:48.563416  5734 layer_factory.hpp:77] Creating layer loss1_conv1
I0225 12:50:48.563426  5734 net.cpp:100] Creating Layer loss1_conv1
I0225 12:50:48.563431  5734 net.cpp:434] loss1_conv1 <- conv4_3_relu4_3_0_split_0
I0225 12:50:48.563436  5734 net.cpp:408] loss1_conv1 -> loss1_conv1
I0225 12:50:48.627954  5734 net.cpp:150] Setting up loss1_conv1
I0225 12:50:48.627979  5734 net.cpp:157] Top shape: 4 512 96 96 (18874368)
I0225 12:50:48.627982  5734 net.cpp:165] Memory required for data: 5556072960
I0225 12:50:48.627990  5734 layer_factory.hpp:77] Creating layer loss_relu1
I0225 12:50:48.628002  5734 net.cpp:100] Creating Layer loss_relu1
I0225 12:50:48.628008  5734 net.cpp:434] loss_relu1 <- loss1_conv1
I0225 12:50:48.628013  5734 net.cpp:395] loss_relu1 -> loss1_conv1 (in-place)
I0225 12:50:48.628473  5734 net.cpp:150] Setting up loss_relu1
I0225 12:50:48.628485  5734 net.cpp:157] Top shape: 4 512 96 96 (18874368)
I0225 12:50:48.628489  5734 net.cpp:165] Memory required for data: 5631570432
I0225 12:50:48.628494  5734 layer_factory.hpp:77] Creating layer loss1_conv1_loss_relu1_0_split
I0225 12:50:48.628499  5734 net.cpp:100] Creating Layer loss1_conv1_loss_relu1_0_split
I0225 12:50:48.628504  5734 net.cpp:434] loss1_conv1_loss_relu1_0_split <- loss1_conv1
I0225 12:50:48.628509  5734 net.cpp:408] loss1_conv1_loss_relu1_0_split -> loss1_conv1_loss_relu1_0_split_0
I0225 12:50:48.628517  5734 net.cpp:408] loss1_conv1_loss_relu1_0_split -> loss1_conv1_loss_relu1_0_split_1
I0225 12:50:48.628554  5734 net.cpp:150] Setting up loss1_conv1_loss_relu1_0_split
I0225 12:50:48.628561  5734 net.cpp:157] Top shape: 4 512 96 96 (18874368)
I0225 12:50:48.628566  5734 net.cpp:157] Top shape: 4 512 96 96 (18874368)
I0225 12:50:48.628568  5734 net.cpp:165] Memory required for data: 5782565376
I0225 12:50:48.628571  5734 layer_factory.hpp:77] Creating layer LFCN_1_5x5
I0225 12:50:48.628583  5734 net.cpp:100] Creating Layer LFCN_1_5x5
I0225 12:50:48.628587  5734 net.cpp:434] LFCN_1_5x5 <- loss1_conv1_loss_relu1_0_split_0
I0225 12:50:48.628594  5734 net.cpp:408] LFCN_1_5x5 -> LFCN_1_5x5
I0225 12:50:48.632216  5734 net.cpp:150] Setting up LFCN_1_5x5
I0225 12:50:48.632227  5734 net.cpp:157] Top shape: 4 9 96 96 (331776)
I0225 12:50:48.632231  5734 net.cpp:165] Memory required for data: 5783892480
I0225 12:50:48.632236  5734 layer_factory.hpp:77] Creating layer LFCN_1_5x5_LFCN_1_5x5_0_split
I0225 12:50:48.632243  5734 net.cpp:100] Creating Layer LFCN_1_5x5_LFCN_1_5x5_0_split
I0225 12:50:48.632246  5734 net.cpp:434] LFCN_1_5x5_LFCN_1_5x5_0_split <- LFCN_1_5x5
I0225 12:50:48.632253  5734 net.cpp:408] LFCN_1_5x5_LFCN_1_5x5_0_split -> LFCN_1_5x5_LFCN_1_5x5_0_split_0
I0225 12:50:48.632259  5734 net.cpp:408] LFCN_1_5x5_LFCN_1_5x5_0_split -> LFCN_1_5x5_LFCN_1_5x5_0_split_1
I0225 12:50:48.632292  5734 net.cpp:150] Setting up LFCN_1_5x5_LFCN_1_5x5_0_split
I0225 12:50:48.632300  5734 net.cpp:157] Top shape: 4 9 96 96 (331776)
I0225 12:50:48.632304  5734 net.cpp:157] Top shape: 4 9 96 96 (331776)
I0225 12:50:48.632308  5734 net.cpp:165] Memory required for data: 5786546688
I0225 12:50:48.632311  5734 layer_factory.hpp:77] Creating layer detection_loss_1_5x5
I0225 12:50:48.632318  5734 net.cpp:100] Creating Layer detection_loss_1_5x5
I0225 12:50:48.632321  5734 net.cpp:434] detection_loss_1_5x5 <- LFCN_1_5x5_LFCN_1_5x5_0_split_0
I0225 12:50:48.632326  5734 net.cpp:434] detection_loss_1_5x5 <- label_1_5x5_data_1_split_0
I0225 12:50:48.632333  5734 net.cpp:408] detection_loss_1_5x5 -> loss_1_5x5
I0225 12:50:48.632346  5734 layer_factory.hpp:77] Creating layer detection_loss_1_5x5
I0225 12:50:48.633831  5734 net.cpp:150] Setting up detection_loss_1_5x5
I0225 12:50:48.633844  5734 net.cpp:157] Top shape: 1 1 1 2 (2)
I0225 12:50:48.633847  5734 net.cpp:160]     with loss weight 0.9
I0225 12:50:48.633867  5734 net.cpp:165] Memory required for data: 5786546696
I0225 12:50:48.633870  5734 layer_factory.hpp:77] Creating layer detection_accuracy_1_5x5
I0225 12:50:48.633877  5734 net.cpp:100] Creating Layer detection_accuracy_1_5x5
I0225 12:50:48.633882  5734 net.cpp:434] detection_accuracy_1_5x5 <- LFCN_1_5x5_LFCN_1_5x5_0_split_1
I0225 12:50:48.633886  5734 net.cpp:434] detection_accuracy_1_5x5 <- label_1_5x5_data_1_split_1
I0225 12:50:48.633891  5734 net.cpp:408] detection_accuracy_1_5x5 -> accuracy_1_5x5
I0225 12:50:48.633900  5734 net.cpp:408] detection_accuracy_1_5x5 -> boxiou_1_5x5
I0225 12:50:48.633939  5734 net.cpp:150] Setting up detection_accuracy_1_5x5
I0225 12:50:48.633945  5734 net.cpp:157] Top shape: 1 1 1 2 (2)
I0225 12:50:48.633950  5734 net.cpp:157] Top shape: 1 1 1 1 (1)
I0225 12:50:48.633954  5734 net.cpp:165] Memory required for data: 5786546708
I0225 12:50:48.633956  5734 layer_factory.hpp:77] Creating layer LFCN_1_7x7
I0225 12:50:48.633966  5734 net.cpp:100] Creating Layer LFCN_1_7x7
I0225 12:50:48.633970  5734 net.cpp:434] LFCN_1_7x7 <- loss1_conv1_loss_relu1_0_split_1
I0225 12:50:48.633977  5734 net.cpp:408] LFCN_1_7x7 -> LFCN_1_7x7
I0225 12:50:48.641048  5734 net.cpp:150] Setting up LFCN_1_7x7
I0225 12:50:48.641077  5734 net.cpp:157] Top shape: 4 9 96 96 (331776)
I0225 12:50:48.641082  5734 net.cpp:165] Memory required for data: 5787873812
I0225 12:50:48.641089  5734 layer_factory.hpp:77] Creating layer LFCN_1_7x7_LFCN_1_7x7_0_split
I0225 12:50:48.641099  5734 net.cpp:100] Creating Layer LFCN_1_7x7_LFCN_1_7x7_0_split
I0225 12:50:48.641104  5734 net.cpp:434] LFCN_1_7x7_LFCN_1_7x7_0_split <- LFCN_1_7x7
I0225 12:50:48.641113  5734 net.cpp:408] LFCN_1_7x7_LFCN_1_7x7_0_split -> LFCN_1_7x7_LFCN_1_7x7_0_split_0
I0225 12:50:48.641120  5734 net.cpp:408] LFCN_1_7x7_LFCN_1_7x7_0_split -> LFCN_1_7x7_LFCN_1_7x7_0_split_1
I0225 12:50:48.641158  5734 net.cpp:150] Setting up LFCN_1_7x7_LFCN_1_7x7_0_split
I0225 12:50:48.641171  5734 net.cpp:157] Top shape: 4 9 96 96 (331776)
I0225 12:50:48.641175  5734 net.cpp:157] Top shape: 4 9 96 96 (331776)
I0225 12:50:48.641178  5734 net.cpp:165] Memory required for data: 5790528020
I0225 12:50:48.641182  5734 layer_factory.hpp:77] Creating layer detection_loss_1_7x7
I0225 12:50:48.641188  5734 net.cpp:100] Creating Layer detection_loss_1_7x7
I0225 12:50:48.641191  5734 net.cpp:434] detection_loss_1_7x7 <- LFCN_1_7x7_LFCN_1_7x7_0_split_0
I0225 12:50:48.641196  5734 net.cpp:434] detection_loss_1_7x7 <- label_1_7x7_data_2_split_0
I0225 12:50:48.641202  5734 net.cpp:408] detection_loss_1_7x7 -> loss_1_7x7
I0225 12:50:48.641212  5734 layer_factory.hpp:77] Creating layer detection_loss_1_7x7
I0225 12:50:48.642834  5734 net.cpp:150] Setting up detection_loss_1_7x7
I0225 12:50:48.642853  5734 net.cpp:157] Top shape: 1 1 1 2 (2)
I0225 12:50:48.642858  5734 net.cpp:160]     with loss weight 0.9
I0225 12:50:48.642869  5734 net.cpp:165] Memory required for data: 5790528028
I0225 12:50:48.642874  5734 layer_factory.hpp:77] Creating layer detection_accuracy_1_7x7
I0225 12:50:48.642884  5734 net.cpp:100] Creating Layer detection_accuracy_1_7x7
I0225 12:50:48.642889  5734 net.cpp:434] detection_accuracy_1_7x7 <- LFCN_1_7x7_LFCN_1_7x7_0_split_1
I0225 12:50:48.642896  5734 net.cpp:434] detection_accuracy_1_7x7 <- label_1_7x7_data_2_split_1
I0225 12:50:48.642904  5734 net.cpp:408] detection_accuracy_1_7x7 -> accuracy_1_7x7
I0225 12:50:48.642910  5734 net.cpp:408] detection_accuracy_1_7x7 -> boxiou_1_7x7
I0225 12:50:48.642956  5734 net.cpp:150] Setting up detection_accuracy_1_7x7
I0225 12:50:48.642972  5734 net.cpp:157] Top shape: 1 1 1 2 (2)
I0225 12:50:48.642976  5734 net.cpp:157] Top shape: 1 1 1 1 (1)
I0225 12:50:48.642979  5734 net.cpp:165] Memory required for data: 5790528040
I0225 12:50:48.642982  5734 layer_factory.hpp:77] Creating layer pool4
I0225 12:50:48.642990  5734 net.cpp:100] Creating Layer pool4
I0225 12:50:48.642994  5734 net.cpp:434] pool4 <- conv4_3_relu4_3_0_split_1
I0225 12:50:48.642999  5734 net.cpp:408] pool4 -> pool4
I0225 12:50:48.643036  5734 net.cpp:150] Setting up pool4
I0225 12:50:48.643041  5734 net.cpp:157] Top shape: 4 512 48 48 (4718592)
I0225 12:50:48.643044  5734 net.cpp:165] Memory required for data: 5809402408
I0225 12:50:48.643048  5734 layer_factory.hpp:77] Creating layer ch4_pool4
I0225 12:50:48.643052  5734 net.cpp:100] Creating Layer ch4_pool4
I0225 12:50:48.643055  5734 net.cpp:434] ch4_pool4 <- ch4
I0225 12:50:48.643061  5734 net.cpp:408] ch4_pool4 -> ch4_pool4
I0225 12:50:48.643091  5734 net.cpp:150] Setting up ch4_pool4
I0225 12:50:48.643097  5734 net.cpp:157] Top shape: 4 1 48 48 (9216)
I0225 12:50:48.643100  5734 net.cpp:165] Memory required for data: 5809439272
I0225 12:50:48.643103  5734 layer_factory.hpp:77] Creating layer pool4_concat
I0225 12:50:48.643110  5734 net.cpp:100] Creating Layer pool4_concat
I0225 12:50:48.643113  5734 net.cpp:434] pool4_concat <- pool4
I0225 12:50:48.643117  5734 net.cpp:434] pool4_concat <- ch4_pool4
I0225 12:50:48.643122  5734 net.cpp:408] pool4_concat -> pool4_new
I0225 12:50:48.643141  5734 net.cpp:150] Setting up pool4_concat
I0225 12:50:48.643146  5734 net.cpp:157] Top shape: 4 513 48 48 (4727808)
I0225 12:50:48.643149  5734 net.cpp:165] Memory required for data: 5828350504
I0225 12:50:48.643152  5734 layer_factory.hpp:77] Creating layer conv5_1_new
I0225 12:50:48.643160  5734 net.cpp:100] Creating Layer conv5_1_new
I0225 12:50:48.643164  5734 net.cpp:434] conv5_1_new <- pool4_new
I0225 12:50:48.643169  5734 net.cpp:408] conv5_1_new -> conv5_1
I0225 12:50:48.652776  5734 net.cpp:150] Setting up conv5_1_new
I0225 12:50:48.652827  5734 net.cpp:157] Top shape: 4 512 48 48 (4718592)
I0225 12:50:48.652830  5734 net.cpp:165] Memory required for data: 5847224872
I0225 12:50:48.652843  5734 layer_factory.hpp:77] Creating layer relu5_1
I0225 12:50:48.652863  5734 net.cpp:100] Creating Layer relu5_1
I0225 12:50:48.652871  5734 net.cpp:434] relu5_1 <- conv5_1
I0225 12:50:48.652881  5734 net.cpp:395] relu5_1 -> conv5_1 (in-place)
I0225 12:50:48.653062  5734 net.cpp:150] Setting up relu5_1
I0225 12:50:48.653070  5734 net.cpp:157] Top shape: 4 512 48 48 (4718592)
I0225 12:50:48.653074  5734 net.cpp:165] Memory required for data: 5866099240
I0225 12:50:48.653077  5734 layer_factory.hpp:77] Creating layer conv5_2
I0225 12:50:48.653090  5734 net.cpp:100] Creating Layer conv5_2
I0225 12:50:48.653093  5734 net.cpp:434] conv5_2 <- conv5_1
I0225 12:50:48.653101  5734 net.cpp:408] conv5_2 -> conv5_2
I0225 12:50:48.669611  5734 net.cpp:150] Setting up conv5_2
I0225 12:50:48.669656  5734 net.cpp:157] Top shape: 4 512 48 48 (4718592)
I0225 12:50:48.669661  5734 net.cpp:165] Memory required for data: 5884973608
I0225 12:50:48.669677  5734 layer_factory.hpp:77] Creating layer relu5_2
I0225 12:50:48.669699  5734 net.cpp:100] Creating Layer relu5_2
I0225 12:50:48.669710  5734 net.cpp:434] relu5_2 <- conv5_2
I0225 12:50:48.669718  5734 net.cpp:395] relu5_2 -> conv5_2 (in-place)
I0225 12:50:48.669942  5734 net.cpp:150] Setting up relu5_2
I0225 12:50:48.669953  5734 net.cpp:157] Top shape: 4 512 48 48 (4718592)
I0225 12:50:48.669957  5734 net.cpp:165] Memory required for data: 5903847976
I0225 12:50:48.669962  5734 layer_factory.hpp:77] Creating layer conv5_3
I0225 12:50:48.669976  5734 net.cpp:100] Creating Layer conv5_3
I0225 12:50:48.669981  5734 net.cpp:434] conv5_3 <- conv5_2
I0225 12:50:48.669991  5734 net.cpp:408] conv5_3 -> conv5_3
I0225 12:50:48.682819  5734 net.cpp:150] Setting up conv5_3
I0225 12:50:48.682855  5734 net.cpp:157] Top shape: 4 512 48 48 (4718592)
I0225 12:50:48.682859  5734 net.cpp:165] Memory required for data: 5922722344
I0225 12:50:48.682868  5734 layer_factory.hpp:77] Creating layer relu5_3
I0225 12:50:48.682883  5734 net.cpp:100] Creating Layer relu5_3
I0225 12:50:48.682888  5734 net.cpp:434] relu5_3 <- conv5_3
I0225 12:50:48.682894  5734 net.cpp:395] relu5_3 -> conv5_3 (in-place)
I0225 12:50:48.683066  5734 net.cpp:150] Setting up relu5_3
I0225 12:50:48.683076  5734 net.cpp:157] Top shape: 4 512 48 48 (4718592)
I0225 12:50:48.683079  5734 net.cpp:165] Memory required for data: 5941596712
I0225 12:50:48.683082  5734 layer_factory.hpp:77] Creating layer conv5_3_relu5_3_0_split
I0225 12:50:48.683089  5734 net.cpp:100] Creating Layer conv5_3_relu5_3_0_split
I0225 12:50:48.683092  5734 net.cpp:434] conv5_3_relu5_3_0_split <- conv5_3
I0225 12:50:48.683099  5734 net.cpp:408] conv5_3_relu5_3_0_split -> conv5_3_relu5_3_0_split_0
I0225 12:50:48.683105  5734 net.cpp:408] conv5_3_relu5_3_0_split -> conv5_3_relu5_3_0_split_1
I0225 12:50:48.683110  5734 net.cpp:408] conv5_3_relu5_3_0_split -> conv5_3_relu5_3_0_split_2
I0225 12:50:48.683159  5734 net.cpp:150] Setting up conv5_3_relu5_3_0_split
I0225 12:50:48.683166  5734 net.cpp:157] Top shape: 4 512 48 48 (4718592)
I0225 12:50:48.683169  5734 net.cpp:157] Top shape: 4 512 48 48 (4718592)
I0225 12:50:48.683173  5734 net.cpp:157] Top shape: 4 512 48 48 (4718592)
I0225 12:50:48.683176  5734 net.cpp:165] Memory required for data: 5998219816
I0225 12:50:48.683181  5734 layer_factory.hpp:77] Creating layer LFCN_2_5x5
I0225 12:50:48.683192  5734 net.cpp:100] Creating Layer LFCN_2_5x5
I0225 12:50:48.683195  5734 net.cpp:434] LFCN_2_5x5 <- conv5_3_relu5_3_0_split_0
I0225 12:50:48.683203  5734 net.cpp:408] LFCN_2_5x5 -> LFCN_2_5x5
I0225 12:50:48.687470  5734 net.cpp:150] Setting up LFCN_2_5x5
I0225 12:50:48.687494  5734 net.cpp:157] Top shape: 4 9 48 48 (82944)
I0225 12:50:48.687497  5734 net.cpp:165] Memory required for data: 5998551592
I0225 12:50:48.687515  5734 layer_factory.hpp:77] Creating layer LFCN_2_5x5_LFCN_2_5x5_0_split
I0225 12:50:48.687523  5734 net.cpp:100] Creating Layer LFCN_2_5x5_LFCN_2_5x5_0_split
I0225 12:50:48.687528  5734 net.cpp:434] LFCN_2_5x5_LFCN_2_5x5_0_split <- LFCN_2_5x5
I0225 12:50:48.687535  5734 net.cpp:408] LFCN_2_5x5_LFCN_2_5x5_0_split -> LFCN_2_5x5_LFCN_2_5x5_0_split_0
I0225 12:50:48.687549  5734 net.cpp:408] LFCN_2_5x5_LFCN_2_5x5_0_split -> LFCN_2_5x5_LFCN_2_5x5_0_split_1
I0225 12:50:48.687587  5734 net.cpp:150] Setting up LFCN_2_5x5_LFCN_2_5x5_0_split
I0225 12:50:48.687594  5734 net.cpp:157] Top shape: 4 9 48 48 (82944)
I0225 12:50:48.687598  5734 net.cpp:157] Top shape: 4 9 48 48 (82944)
I0225 12:50:48.687602  5734 net.cpp:165] Memory required for data: 5999215144
I0225 12:50:48.687605  5734 layer_factory.hpp:77] Creating layer detection_loss_2_5x5
I0225 12:50:48.687613  5734 net.cpp:100] Creating Layer detection_loss_2_5x5
I0225 12:50:48.687618  5734 net.cpp:434] detection_loss_2_5x5 <- LFCN_2_5x5_LFCN_2_5x5_0_split_0
I0225 12:50:48.687621  5734 net.cpp:434] detection_loss_2_5x5 <- label_2_5x5_data_3_split_0
I0225 12:50:48.687628  5734 net.cpp:408] detection_loss_2_5x5 -> loss_2_5x5
I0225 12:50:48.687636  5734 layer_factory.hpp:77] Creating layer detection_loss_2_5x5
I0225 12:50:48.689054  5734 net.cpp:150] Setting up detection_loss_2_5x5
I0225 12:50:48.689067  5734 net.cpp:157] Top shape: 1 1 1 2 (2)
I0225 12:50:48.689070  5734 net.cpp:160]     with loss weight 1
I0225 12:50:48.689081  5734 net.cpp:165] Memory required for data: 5999215152
I0225 12:50:48.689085  5734 layer_factory.hpp:77] Creating layer detection_accuracy_2_5x5
I0225 12:50:48.689092  5734 net.cpp:100] Creating Layer detection_accuracy_2_5x5
I0225 12:50:48.689095  5734 net.cpp:434] detection_accuracy_2_5x5 <- LFCN_2_5x5_LFCN_2_5x5_0_split_1
I0225 12:50:48.689100  5734 net.cpp:434] detection_accuracy_2_5x5 <- label_2_5x5_data_3_split_1
I0225 12:50:48.689106  5734 net.cpp:408] detection_accuracy_2_5x5 -> accuracy_2_5x5
I0225 12:50:48.689113  5734 net.cpp:408] detection_accuracy_2_5x5 -> boxiou_2_5x5
I0225 12:50:48.689152  5734 net.cpp:150] Setting up detection_accuracy_2_5x5
I0225 12:50:48.689158  5734 net.cpp:157] Top shape: 1 1 1 2 (2)
I0225 12:50:48.689162  5734 net.cpp:157] Top shape: 1 1 1 1 (1)
I0225 12:50:48.689165  5734 net.cpp:165] Memory required for data: 5999215164
I0225 12:50:48.689168  5734 layer_factory.hpp:77] Creating layer LFCN_2_7x7
I0225 12:50:48.689178  5734 net.cpp:100] Creating Layer LFCN_2_7x7
I0225 12:50:48.689182  5734 net.cpp:434] LFCN_2_7x7 <- conv5_3_relu5_3_0_split_1
I0225 12:50:48.689189  5734 net.cpp:408] LFCN_2_7x7 -> LFCN_2_7x7
I0225 12:50:48.696337  5734 net.cpp:150] Setting up LFCN_2_7x7
I0225 12:50:48.696355  5734 net.cpp:157] Top shape: 4 9 48 48 (82944)
I0225 12:50:48.696359  5734 net.cpp:165] Memory required for data: 5999546940
I0225 12:50:48.696367  5734 layer_factory.hpp:77] Creating layer LFCN_2_7x7_LFCN_2_7x7_0_split
I0225 12:50:48.696373  5734 net.cpp:100] Creating Layer LFCN_2_7x7_LFCN_2_7x7_0_split
I0225 12:50:48.696377  5734 net.cpp:434] LFCN_2_7x7_LFCN_2_7x7_0_split <- LFCN_2_7x7
I0225 12:50:48.696382  5734 net.cpp:408] LFCN_2_7x7_LFCN_2_7x7_0_split -> LFCN_2_7x7_LFCN_2_7x7_0_split_0
I0225 12:50:48.696391  5734 net.cpp:408] LFCN_2_7x7_LFCN_2_7x7_0_split -> LFCN_2_7x7_LFCN_2_7x7_0_split_1
I0225 12:50:48.696425  5734 net.cpp:150] Setting up LFCN_2_7x7_LFCN_2_7x7_0_split
I0225 12:50:48.696431  5734 net.cpp:157] Top shape: 4 9 48 48 (82944)
I0225 12:50:48.696436  5734 net.cpp:157] Top shape: 4 9 48 48 (82944)
I0225 12:50:48.696439  5734 net.cpp:165] Memory required for data: 6000210492
I0225 12:50:48.696442  5734 layer_factory.hpp:77] Creating layer detection_loss_2_7x7
I0225 12:50:48.696449  5734 net.cpp:100] Creating Layer detection_loss_2_7x7
I0225 12:50:48.696454  5734 net.cpp:434] detection_loss_2_7x7 <- LFCN_2_7x7_LFCN_2_7x7_0_split_0
I0225 12:50:48.696458  5734 net.cpp:434] detection_loss_2_7x7 <- label_2_7x7_data_4_split_0
I0225 12:50:48.696466  5734 net.cpp:408] detection_loss_2_7x7 -> loss_2_7x7
I0225 12:50:48.696475  5734 layer_factory.hpp:77] Creating layer detection_loss_2_7x7
I0225 12:50:48.697141  5734 net.cpp:150] Setting up detection_loss_2_7x7
I0225 12:50:48.697154  5734 net.cpp:157] Top shape: 1 1 1 2 (2)
I0225 12:50:48.697157  5734 net.cpp:160]     with loss weight 1
I0225 12:50:48.697165  5734 net.cpp:165] Memory required for data: 6000210500
I0225 12:50:48.697170  5734 layer_factory.hpp:77] Creating layer detection_accuracy_2_7x7
I0225 12:50:48.697176  5734 net.cpp:100] Creating Layer detection_accuracy_2_7x7
I0225 12:50:48.697180  5734 net.cpp:434] detection_accuracy_2_7x7 <- LFCN_2_7x7_LFCN_2_7x7_0_split_1
I0225 12:50:48.697185  5734 net.cpp:434] detection_accuracy_2_7x7 <- label_2_7x7_data_4_split_1
I0225 12:50:48.697190  5734 net.cpp:408] detection_accuracy_2_7x7 -> accuracy_2_7x7
I0225 12:50:48.697196  5734 net.cpp:408] detection_accuracy_2_7x7 -> boxiou_2_7x7
I0225 12:50:48.697234  5734 net.cpp:150] Setting up detection_accuracy_2_7x7
I0225 12:50:48.697240  5734 net.cpp:157] Top shape: 1 1 1 2 (2)
I0225 12:50:48.697245  5734 net.cpp:157] Top shape: 1 1 1 1 (1)
I0225 12:50:48.697248  5734 net.cpp:165] Memory required for data: 6000210512
I0225 12:50:48.697252  5734 layer_factory.hpp:77] Creating layer pool5
I0225 12:50:48.697257  5734 net.cpp:100] Creating Layer pool5
I0225 12:50:48.697263  5734 net.cpp:434] pool5 <- conv5_3_relu5_3_0_split_2
I0225 12:50:48.697268  5734 net.cpp:408] pool5 -> pool5
I0225 12:50:48.697302  5734 net.cpp:150] Setting up pool5
I0225 12:50:48.697309  5734 net.cpp:157] Top shape: 4 512 24 24 (1179648)
I0225 12:50:48.697312  5734 net.cpp:165] Memory required for data: 6004929104
I0225 12:50:48.697315  5734 layer_factory.hpp:77] Creating layer conv6_1
I0225 12:50:48.697324  5734 net.cpp:100] Creating Layer conv6_1
I0225 12:50:48.697329  5734 net.cpp:434] conv6_1 <- pool5
I0225 12:50:48.697335  5734 net.cpp:408] conv6_1 -> conv6_1
I0225 12:50:48.760946  5734 net.cpp:150] Setting up conv6_1
I0225 12:50:48.760984  5734 net.cpp:157] Top shape: 4 512 24 24 (1179648)
I0225 12:50:48.760988  5734 net.cpp:165] Memory required for data: 6009647696
I0225 12:50:48.760998  5734 layer_factory.hpp:77] Creating layer relu6_1
I0225 12:50:48.761018  5734 net.cpp:100] Creating Layer relu6_1
I0225 12:50:48.761025  5734 net.cpp:434] relu6_1 <- conv6_1
I0225 12:50:48.761032  5734 net.cpp:395] relu6_1 -> conv6_1 (in-place)
I0225 12:50:48.761205  5734 net.cpp:150] Setting up relu6_1
I0225 12:50:48.761214  5734 net.cpp:157] Top shape: 4 512 24 24 (1179648)
I0225 12:50:48.761219  5734 net.cpp:165] Memory required for data: 6014366288
I0225 12:50:48.761222  5734 layer_factory.hpp:77] Creating layer conv6_1_relu6_1_0_split
I0225 12:50:48.761229  5734 net.cpp:100] Creating Layer conv6_1_relu6_1_0_split
I0225 12:50:48.761234  5734 net.cpp:434] conv6_1_relu6_1_0_split <- conv6_1
I0225 12:50:48.761238  5734 net.cpp:408] conv6_1_relu6_1_0_split -> conv6_1_relu6_1_0_split_0
I0225 12:50:48.761245  5734 net.cpp:408] conv6_1_relu6_1_0_split -> conv6_1_relu6_1_0_split_1
I0225 12:50:48.761250  5734 net.cpp:408] conv6_1_relu6_1_0_split -> conv6_1_relu6_1_0_split_2
I0225 12:50:48.761298  5734 net.cpp:150] Setting up conv6_1_relu6_1_0_split
I0225 12:50:48.761306  5734 net.cpp:157] Top shape: 4 512 24 24 (1179648)
I0225 12:50:48.761309  5734 net.cpp:157] Top shape: 4 512 24 24 (1179648)
I0225 12:50:48.761313  5734 net.cpp:157] Top shape: 4 512 24 24 (1179648)
I0225 12:50:48.761317  5734 net.cpp:165] Memory required for data: 6028522064
I0225 12:50:48.761320  5734 layer_factory.hpp:77] Creating layer LFCN_3_5x5
I0225 12:50:48.761332  5734 net.cpp:100] Creating Layer LFCN_3_5x5
I0225 12:50:48.761337  5734 net.cpp:434] LFCN_3_5x5 <- conv6_1_relu6_1_0_split_0
I0225 12:50:48.761344  5734 net.cpp:408] LFCN_3_5x5 -> LFCN_3_5x5
I0225 12:50:48.765501  5734 net.cpp:150] Setting up LFCN_3_5x5
I0225 12:50:48.765522  5734 net.cpp:157] Top shape: 4 9 24 24 (20736)
I0225 12:50:48.765527  5734 net.cpp:165] Memory required for data: 6028605008
I0225 12:50:48.765534  5734 layer_factory.hpp:77] Creating layer LFCN_3_5x5_LFCN_3_5x5_0_split
I0225 12:50:48.765542  5734 net.cpp:100] Creating Layer LFCN_3_5x5_LFCN_3_5x5_0_split
I0225 12:50:48.765547  5734 net.cpp:434] LFCN_3_5x5_LFCN_3_5x5_0_split <- LFCN_3_5x5
I0225 12:50:48.765554  5734 net.cpp:408] LFCN_3_5x5_LFCN_3_5x5_0_split -> LFCN_3_5x5_LFCN_3_5x5_0_split_0
I0225 12:50:48.765561  5734 net.cpp:408] LFCN_3_5x5_LFCN_3_5x5_0_split -> LFCN_3_5x5_LFCN_3_5x5_0_split_1
I0225 12:50:48.765597  5734 net.cpp:150] Setting up LFCN_3_5x5_LFCN_3_5x5_0_split
I0225 12:50:48.765604  5734 net.cpp:157] Top shape: 4 9 24 24 (20736)
I0225 12:50:48.765609  5734 net.cpp:157] Top shape: 4 9 24 24 (20736)
I0225 12:50:48.765611  5734 net.cpp:165] Memory required for data: 6028770896
I0225 12:50:48.765614  5734 layer_factory.hpp:77] Creating layer detection_loss_3_5x5
I0225 12:50:48.765622  5734 net.cpp:100] Creating Layer detection_loss_3_5x5
I0225 12:50:48.765625  5734 net.cpp:434] detection_loss_3_5x5 <- LFCN_3_5x5_LFCN_3_5x5_0_split_0
I0225 12:50:48.765630  5734 net.cpp:434] detection_loss_3_5x5 <- label_3_5x5_data_5_split_0
I0225 12:50:48.765636  5734 net.cpp:408] detection_loss_3_5x5 -> loss_3_5x5
I0225 12:50:48.765645  5734 layer_factory.hpp:77] Creating layer detection_loss_3_5x5
I0225 12:50:48.765954  5734 net.cpp:150] Setting up detection_loss_3_5x5
I0225 12:50:48.765964  5734 net.cpp:157] Top shape: 1 1 1 2 (2)
I0225 12:50:48.765967  5734 net.cpp:160]     with loss weight 1
I0225 12:50:48.765978  5734 net.cpp:165] Memory required for data: 6028770904
I0225 12:50:48.765982  5734 layer_factory.hpp:77] Creating layer detection_accuracy_3_5x5
I0225 12:50:48.765990  5734 net.cpp:100] Creating Layer detection_accuracy_3_5x5
I0225 12:50:48.765993  5734 net.cpp:434] detection_accuracy_3_5x5 <- LFCN_3_5x5_LFCN_3_5x5_0_split_1
I0225 12:50:48.765997  5734 net.cpp:434] detection_accuracy_3_5x5 <- label_3_5x5_data_5_split_1
I0225 12:50:48.766003  5734 net.cpp:408] detection_accuracy_3_5x5 -> accuracy_3_5x5
I0225 12:50:48.766010  5734 net.cpp:408] detection_accuracy_3_5x5 -> boxiou_3_5x5
I0225 12:50:48.766047  5734 net.cpp:150] Setting up detection_accuracy_3_5x5
I0225 12:50:48.766053  5734 net.cpp:157] Top shape: 1 1 1 2 (2)
I0225 12:50:48.766057  5734 net.cpp:157] Top shape: 1 1 1 1 (1)
I0225 12:50:48.766060  5734 net.cpp:165] Memory required for data: 6028770916
I0225 12:50:48.766063  5734 layer_factory.hpp:77] Creating layer LFCN_3_7x7
I0225 12:50:48.766072  5734 net.cpp:100] Creating Layer LFCN_3_7x7
I0225 12:50:48.766077  5734 net.cpp:434] LFCN_3_7x7 <- conv6_1_relu6_1_0_split_1
I0225 12:50:48.766083  5734 net.cpp:408] LFCN_3_7x7 -> LFCN_3_7x7
I0225 12:50:48.773576  5734 net.cpp:150] Setting up LFCN_3_7x7
I0225 12:50:48.773591  5734 net.cpp:157] Top shape: 4 9 24 24 (20736)
I0225 12:50:48.773596  5734 net.cpp:165] Memory required for data: 6028853860
I0225 12:50:48.773602  5734 layer_factory.hpp:77] Creating layer LFCN_3_7x7_LFCN_3_7x7_0_split
I0225 12:50:48.773609  5734 net.cpp:100] Creating Layer LFCN_3_7x7_LFCN_3_7x7_0_split
I0225 12:50:48.773613  5734 net.cpp:434] LFCN_3_7x7_LFCN_3_7x7_0_split <- LFCN_3_7x7
I0225 12:50:48.773618  5734 net.cpp:408] LFCN_3_7x7_LFCN_3_7x7_0_split -> LFCN_3_7x7_LFCN_3_7x7_0_split_0
I0225 12:50:48.773624  5734 net.cpp:408] LFCN_3_7x7_LFCN_3_7x7_0_split -> LFCN_3_7x7_LFCN_3_7x7_0_split_1
I0225 12:50:48.773660  5734 net.cpp:150] Setting up LFCN_3_7x7_LFCN_3_7x7_0_split
I0225 12:50:48.773666  5734 net.cpp:157] Top shape: 4 9 24 24 (20736)
I0225 12:50:48.773671  5734 net.cpp:157] Top shape: 4 9 24 24 (20736)
I0225 12:50:48.773674  5734 net.cpp:165] Memory required for data: 6029019748
I0225 12:50:48.773679  5734 layer_factory.hpp:77] Creating layer detection_loss_3_7x7
I0225 12:50:48.773684  5734 net.cpp:100] Creating Layer detection_loss_3_7x7
I0225 12:50:48.773689  5734 net.cpp:434] detection_loss_3_7x7 <- LFCN_3_7x7_LFCN_3_7x7_0_split_0
I0225 12:50:48.773692  5734 net.cpp:434] detection_loss_3_7x7 <- label_3_7x7_data_6_split_0
I0225 12:50:48.773697  5734 net.cpp:408] detection_loss_3_7x7 -> loss_3_7x7
I0225 12:50:48.773705  5734 layer_factory.hpp:77] Creating layer detection_loss_3_7x7
I0225 12:50:48.774013  5734 net.cpp:150] Setting up detection_loss_3_7x7
I0225 12:50:48.774022  5734 net.cpp:157] Top shape: 1 1 1 2 (2)
I0225 12:50:48.774026  5734 net.cpp:160]     with loss weight 1
I0225 12:50:48.774034  5734 net.cpp:165] Memory required for data: 6029019756
I0225 12:50:48.774036  5734 layer_factory.hpp:77] Creating layer detection_accuracy_3_7x7
I0225 12:50:48.774042  5734 net.cpp:100] Creating Layer detection_accuracy_3_7x7
I0225 12:50:48.774045  5734 net.cpp:434] detection_accuracy_3_7x7 <- LFCN_3_7x7_LFCN_3_7x7_0_split_1
I0225 12:50:48.774050  5734 net.cpp:434] detection_accuracy_3_7x7 <- label_3_7x7_data_6_split_1
I0225 12:50:48.774055  5734 net.cpp:408] detection_accuracy_3_7x7 -> accuracy_3_7x7
I0225 12:50:48.774062  5734 net.cpp:408] detection_accuracy_3_7x7 -> boxiou_3_7x7
I0225 12:50:48.774098  5734 net.cpp:150] Setting up detection_accuracy_3_7x7
I0225 12:50:48.774104  5734 net.cpp:157] Top shape: 1 1 1 2 (2)
I0225 12:50:48.774109  5734 net.cpp:157] Top shape: 1 1 1 1 (1)
I0225 12:50:48.774112  5734 net.cpp:165] Memory required for data: 6029019768
I0225 12:50:48.774116  5734 layer_factory.hpp:77] Creating layer pool6
I0225 12:50:48.774122  5734 net.cpp:100] Creating Layer pool6
I0225 12:50:48.774127  5734 net.cpp:434] pool6 <- conv6_1_relu6_1_0_split_2
I0225 12:50:48.774132  5734 net.cpp:408] pool6 -> pool6
I0225 12:50:48.774164  5734 net.cpp:150] Setting up pool6
I0225 12:50:48.774171  5734 net.cpp:157] Top shape: 4 512 12 12 (294912)
I0225 12:50:48.774174  5734 net.cpp:165] Memory required for data: 6030199416
I0225 12:50:48.774178  5734 layer_factory.hpp:77] Creating layer LFCN_4_5x5
I0225 12:50:48.774185  5734 net.cpp:100] Creating Layer LFCN_4_5x5
I0225 12:50:48.774189  5734 net.cpp:434] LFCN_4_5x5 <- pool6
I0225 12:50:48.774195  5734 net.cpp:408] LFCN_4_5x5 -> LFCN_4_5x5
I0225 12:50:48.779728  5734 net.cpp:150] Setting up LFCN_4_5x5
I0225 12:50:48.779742  5734 net.cpp:157] Top shape: 4 9 12 12 (5184)
I0225 12:50:48.779747  5734 net.cpp:165] Memory required for data: 6030220152
I0225 12:50:48.779753  5734 layer_factory.hpp:77] Creating layer LFCN_4_5x5_LFCN_4_5x5_0_split
I0225 12:50:48.779759  5734 net.cpp:100] Creating Layer LFCN_4_5x5_LFCN_4_5x5_0_split
I0225 12:50:48.779763  5734 net.cpp:434] LFCN_4_5x5_LFCN_4_5x5_0_split <- LFCN_4_5x5
I0225 12:50:48.779769  5734 net.cpp:408] LFCN_4_5x5_LFCN_4_5x5_0_split -> LFCN_4_5x5_LFCN_4_5x5_0_split_0
I0225 12:50:48.779777  5734 net.cpp:408] LFCN_4_5x5_LFCN_4_5x5_0_split -> LFCN_4_5x5_LFCN_4_5x5_0_split_1
I0225 12:50:48.779814  5734 net.cpp:150] Setting up LFCN_4_5x5_LFCN_4_5x5_0_split
I0225 12:50:48.779820  5734 net.cpp:157] Top shape: 4 9 12 12 (5184)
I0225 12:50:48.779824  5734 net.cpp:157] Top shape: 4 9 12 12 (5184)
I0225 12:50:48.779827  5734 net.cpp:165] Memory required for data: 6030261624
I0225 12:50:48.779830  5734 layer_factory.hpp:77] Creating layer detection_loss_4_5x5
I0225 12:50:48.779837  5734 net.cpp:100] Creating Layer detection_loss_4_5x5
I0225 12:50:48.779841  5734 net.cpp:434] detection_loss_4_5x5 <- LFCN_4_5x5_LFCN_4_5x5_0_split_0
I0225 12:50:48.779846  5734 net.cpp:434] detection_loss_4_5x5 <- label_4_5x5_data_7_split_0
I0225 12:50:48.779853  5734 net.cpp:408] detection_loss_4_5x5 -> loss_4_5x5
I0225 12:50:48.779865  5734 layer_factory.hpp:77] Creating layer detection_loss_4_5x5
I0225 12:50:48.780225  5734 net.cpp:150] Setting up detection_loss_4_5x5
I0225 12:50:48.780236  5734 net.cpp:157] Top shape: 1 1 1 2 (2)
I0225 12:50:48.780239  5734 net.cpp:160]     with loss weight 1
I0225 12:50:48.780246  5734 net.cpp:165] Memory required for data: 6030261632
I0225 12:50:48.780249  5734 layer_factory.hpp:77] Creating layer detection_accuracy_4_5x5
I0225 12:50:48.780256  5734 net.cpp:100] Creating Layer detection_accuracy_4_5x5
I0225 12:50:48.780261  5734 net.cpp:434] detection_accuracy_4_5x5 <- LFCN_4_5x5_LFCN_4_5x5_0_split_1
I0225 12:50:48.780264  5734 net.cpp:434] detection_accuracy_4_5x5 <- label_4_5x5_data_7_split_1
I0225 12:50:48.780269  5734 net.cpp:408] detection_accuracy_4_5x5 -> accuracy_4_5x5
I0225 12:50:48.780277  5734 net.cpp:408] detection_accuracy_4_5x5 -> boxiou_4_5x5
I0225 12:50:48.780313  5734 net.cpp:150] Setting up detection_accuracy_4_5x5
I0225 12:50:48.780318  5734 net.cpp:157] Top shape: 1 1 1 2 (2)
I0225 12:50:48.780323  5734 net.cpp:157] Top shape: 1 1 1 1 (1)
I0225 12:50:48.780326  5734 net.cpp:165] Memory required for data: 6030261644
I0225 12:50:48.780329  5734 net.cpp:228] detection_accuracy_4_5x5 does not need backward computation.
I0225 12:50:48.780333  5734 net.cpp:226] detection_loss_4_5x5 needs backward computation.
I0225 12:50:48.780336  5734 net.cpp:226] LFCN_4_5x5_LFCN_4_5x5_0_split needs backward computation.
I0225 12:50:48.780339  5734 net.cpp:226] LFCN_4_5x5 needs backward computation.
…
I0225 12:50:48.800712  5734 image_gt_data_layer.cpp:235] output label size 1 : 2,6,96,96
I0225 12:50:48.800773  5734 image_gt_data_layer.cpp:235] output label size 2 : 2,6,48,48
I0225 12:50:48.800833  5734 image_gt_data_layer.cpp:235] output label size 3 : 2,6,48,48
I0225 12:50:48.800894  5734 image_gt_data_layer.cpp:235] output label size 4 : 2,6,24,24
I0225 12:50:48.800959  5734 image_gt_data_layer.cpp:235] output label size 5 : 2,6,24,24
I0225 12:50:48.801023  5734 image_gt_data_layer.cpp:235] output label size 6 : 2,6,12,12
I0225 12:50:48.844862  5734 net.cpp:150] Setting up data
I0225 12:50:48.844892  5734 net.cpp:157] Top shape: 2 4 768 768 (4718592)
I0225 12:50:48.844898  5734 net.cpp:157] Top shape: 2 6 96 96 (110592)
I0225 12:50:48.844902  5734 net.cpp:157] Top shape: 2 6 96 96 (110592)
I0225 12:50:48.844907  5734 net.cpp:157] Top shape: 2 6 48 48 (27648)
I0225 12:50:48.844913  5734 net.cpp:157] Top shape: 2 6 48 48 (27648)
I0225 12:50:48.844916  5734 net.cpp:157] Top shape: 2 6 24 24 (6912)
I0225 12:50:48.844920  5734 net.cpp:157] Top shape: 2 6 24 24 (6912)
I0225 12:50:48.844925  5734 net.cpp:157] Top shape: 2 6 12 12 (1728)
I0225 12:50:48.844928  5734 net.cpp:165] Memory required for data: 20042496
I0225 12:50:48.844935  5734 layer_factory.hpp:77] Creating layer label_1_5x5_data_1_split
I0225 12:50:48.844950  5734 net.cpp:100] Creating Layer label_1_5x5_data_1_split
I0225 12:50:48.844955  5734 net.cpp:434] label_1_5x5_data_1_split <- label_1_5x5
I0225 12:50:48.844961  5734 net.cpp:408] label_1_5x5_data_1_split -> label_1_5x5_data_1_split_0
I0225 12:50:48.844971  5734 net.cpp:408] label_1_5x5_data_1_split -> label_1_5x5_data_1_split_1
I0225 12:50:48.845031  5734 net.cpp:150] Setting up label_1_5x5_data_1_split
I0225 12:50:48.845036  5734 net.cpp:157] Top shape: 2 6 96 96 (110592)
I0225 12:50:48.845041  5734 net.cpp:157] Top shape: 2 6 96 96 (110592)
I0225 12:50:48.845043  5734 net.cpp:165] Memory required for data: 20927232
I0225 12:50:48.845046  5734 layer_factory.hpp:77] Creating layer label_1_7x7_data_2_split
I0225 12:50:48.845052  5734 net.cpp:100] Creating Layer label_1_7x7_data_2_split
I0225 12:50:48.845054  5734 net.cpp:434] label_1_7x7_data_2_split <- label_1_7x7
I0225 12:50:48.845059  5734 net.cpp:408] label_1_7x7_data_2_split -> label_1_7x7_data_2_split_0
I0225 12:50:48.845065  5734 net.cpp:408] label_1_7x7_data_2_split -> label_1_7x7_data_2_split_1
I0225 12:50:48.845104  5734 net.cpp:150] Setting up label_1_7x7_data_2_split
I0225 12:50:48.845111  5734 net.cpp:157] Top shape: 2 6 96 96 (110592)
I0225 12:50:48.845115  5734 net.cpp:157] Top shape: 2 6 96 96 (110592)
I0225 12:50:48.845118  5734 net.cpp:165] Memory required for data: 21811968
I0225 12:50:48.845121  5734 layer_factory.hpp:77] Creating layer label_2_5x5_data_3_split
I0225 12:50:48.845126  5734 net.cpp:100] Creating Layer label_2_5x5_data_3_split
I0225 12:50:48.845129  5734 net.cpp:434] label_2_5x5_data_3_split <- label_2_5x5
I0225 12:50:48.845134  5734 net.cpp:408] label_2_5x5_data_3_split -> label_2_5x5_data_3_split_0
I0225 12:50:48.845140  5734 net.cpp:408] label_2_5x5_data_3_split -> label_2_5x5_data_3_split_1
I0225 12:50:48.845458  5734 net.cpp:150] Setting up label_2_5x5_data_3_split
I0225 12:50:48.845504  5734 net.cpp:157] Top shape: 2 6 48 48 (27648)
I0225 12:50:48.845515  5734 net.cpp:157] Top shape: 2 6 48 48 (27648)
I0225 12:50:48.845523  5734 net.cpp:165] Memory required for data: 22033152
I0225 12:50:48.845535  5734 layer_factory.hpp:77] Creating layer label_2_7x7_data_4_split
I0225 12:50:48.845557  5734 net.cpp:100] Creating Layer label_2_7x7_data_4_split
I0225 12:50:48.845569  5734 net.cpp:434] label_2_7x7_data_4_split <- label_2_7x7
I0225 12:50:48.845583  5734 net.cpp:408] label_2_7x7_data_4_split -> label_2_7x7_data_4_split_0
I0225 12:50:48.845602  5734 net.cpp:408] label_2_7x7_data_4_split -> label_2_7x7_data_4_split_1
I0225 12:50:48.845683  5734 net.cpp:150] Setting up label_2_7x7_data_4_split
I0225 12:50:48.845697  5734 net.cpp:157] Top shape: 2 6 48 48 (27648)
I0225 12:50:48.845707  5734 net.cpp:157] Top shape: 2 6 48 48 (27648)
I0225 12:50:48.845715  5734 net.cpp:165] Memory required for data: 22254336
I0225 12:50:48.845723  5734 layer_factory.hpp:77] Creating layer label_3_5x5_data_5_split
I0225 12:50:48.845733  5734 net.cpp:100] Creating Layer label_3_5x5_data_5_split
I0225 12:50:48.845741  5734 net.cpp:434] label_3_5x5_data_5_split <- label_3_5x5
I0225 12:50:48.845752  5734 net.cpp:408] label_3_5x5_data_5_split -> label_3_5x5_data_5_split_0
I0225 12:50:48.845772  5734 net.cpp:408] label_3_5x5_data_5_split -> label_3_5x5_data_5_split_1
I0225 12:50:48.845858  5734 net.cpp:150] Setting up label_3_5x5_data_5_split
I0225 12:50:48.845872  5734 net.cpp:157] Top shape: 2 6 24 24 (6912)
I0225 12:50:48.845882  5734 net.cpp:157] Top shape: 2 6 24 24 (6912)
I0225 12:50:48.845892  5734 net.cpp:165] Memory required for data: 22309632
I0225 12:50:48.845899  5734 layer_factory.hpp:77] Creating layer label_3_7x7_data_6_split
I0225 12:50:48.845911  5734 net.cpp:100] Creating Layer label_3_7x7_data_6_split
I0225 12:50:48.845918  5734 net.cpp:434] label_3_7x7_data_6_split <- label_3_7x7
I0225 12:50:48.845932  5734 net.cpp:408] label_3_7x7_data_6_split -> label_3_7x7_data_6_split_0
I0225 12:50:48.845947  5734 net.cpp:408] label_3_7x7_data_6_split -> label_3_7x7_data_6_split_1
I0225 12:50:48.846025  5734 net.cpp:150] Setting up label_3_7x7_data_6_split
I0225 12:50:48.846040  5734 net.cpp:157] Top shape: 2 6 24 24 (6912)
I0225 12:50:48.846048  5734 net.cpp:157] Top shape: 2 6 24 24 (6912)
I0225 12:50:48.846056  5734 net.cpp:165] Memory required for data: 22364928
I0225 12:50:48.846063  5734 layer_factory.hpp:77] Creating layer label_4_5x5_data_7_split
I0225 12:50:48.846074  5734 net.cpp:100] Creating Layer label_4_5x5_data_7_split
I0225 12:50:48.846083  5734 net.cpp:434] label_4_5x5_data_7_split <- label_4_5x5
I0225 12:50:48.846094  5734 net.cpp:408] label_4_5x5_data_7_split -> label_4_5x5_data_7_split_0
I0225 12:50:48.846107  5734 net.cpp:408] label_4_5x5_data_7_split -> label_4_5x5_data_7_split_1
I0225 12:50:48.846184  5734 net.cpp:150] Setting up label_4_5x5_data_7_split
I0225 12:50:48.846197  5734 net.cpp:157] Top shape: 2 6 12 12 (1728)
I0225 12:50:48.846207  5734 net.cpp:157] Top shape: 2 6 12 12 (1728)
I0225 12:50:48.846215  5734 net.cpp:165] Memory required for data: 22378752
I0225 12:50:48.846223  5734 layer_factory.hpp:77] Creating layer slice
I0225 12:50:48.846237  5734 net.cpp:100] Creating Layer slice
I0225 12:50:48.846247  5734 net.cpp:434] slice <- data
I0225 12:50:48.846261  5734 net.cpp:408] slice -> data123
I0225 12:50:48.846274  5734 net.cpp:408] slice -> ch4
I0225 12:50:48.846354  5734 net.cpp:150] Setting up slice
I0225 12:50:48.846366  5734 net.cpp:157] Top shape: 2 3 768 768 (3538944)
I0225 12:50:48.846376  5734 net.cpp:157] Top shape: 2 1 768 768 (1179648)
I0225 12:50:48.846385  5734 net.cpp:165] Memory required for data: 41253120
I0225 12:50:48.846392  5734 layer_factory.hpp:77] Creating layer conv1_1
I0225 12:50:48.846410  5734 net.cpp:100] Creating Layer conv1_1
I0225 12:50:48.846420  5734 net.cpp:434] conv1_1 <- data123
I0225 12:50:48.846429  5734 net.cpp:408] conv1_1 -> conv1_1
I0225 12:50:48.855394  5734 net.cpp:150] Setting up conv1_1
I0225 12:50:48.855438  5734 net.cpp:157] Top shape: 2 64 768 768 (75497472)
I0225 12:50:48.855448  5734 net.cpp:165] Memory required for data: 343243008
I0225 12:50:48.855474  5734 layer_factory.hpp:77] Creating layer relu1_1
I0225 12:50:48.855494  5734 net.cpp:100] Creating Layer relu1_1
I0225 12:50:48.855506  5734 net.cpp:434] relu1_1 <- conv1_1
I0225 12:50:48.855521  5734 net.cpp:395] relu1_1 -> conv1_1 (in-place)
I0225 12:50:48.856577  5734 net.cpp:150] Setting up relu1_1
I0225 12:50:48.856606  5734 net.cpp:157] Top shape: 2 64 768 768 (75497472)
I0225 12:50:48.856613  5734 net.cpp:165] Memory required for data: 645232896
I0225 12:50:48.856621  5734 layer_factory.hpp:77] Creating layer conv1_2
I0225 12:50:48.856642  5734 net.cpp:100] Creating Layer conv1_2
I0225 12:50:48.856650  5734 net.cpp:434] conv1_2 <- conv1_1
I0225 12:50:48.856664  5734 net.cpp:408] conv1_2 -> conv1_2
I0225 12:50:48.860958  5734 net.cpp:150] Setting up conv1_2
I0225 12:50:48.860977  5734 net.cpp:157] Top shape: 2 64 768 768 (75497472)
I0225 12:50:48.860982  5734 net.cpp:165] Memory required for data: 947222784
I0225 12:50:48.860996  5734 layer_factory.hpp:77] Creating layer relu1_2
I0225 12:50:48.861006  5734 net.cpp:100] Creating Layer relu1_2
I0225 12:50:48.861011  5734 net.cpp:434] relu1_2 <- conv1_2
I0225 12:50:48.861018  5734 net.cpp:395] relu1_2 -> conv1_2 (in-place)
I0225 12:50:48.861263  5734 net.cpp:150] Setting up relu1_2
I0225 12:50:48.861274  5734 net.cpp:157] Top shape: 2 64 768 768 (75497472)
I0225 12:50:48.861279  5734 net.cpp:165] Memory required for data: 1249212672
I0225 12:50:48.861284  5734 layer_factory.hpp:77] Creating layer pool1
I0225 12:50:48.861294  5734 net.cpp:100] Creating Layer pool1
I0225 12:50:48.861300  5734 net.cpp:434] pool1 <- conv1_2
I0225 12:50:48.861310  5734 net.cpp:408] pool1 -> pool1
I0225 12:50:48.861367  5734 net.cpp:150] Setting up pool1
I0225 12:50:48.861377  5734 net.cpp:157] Top shape: 2 64 384 384 (18874368)
I0225 12:50:48.861382  5734 net.cpp:165] Memory required for data: 1324710144
I0225 12:50:48.861387  5734 layer_factory.hpp:77] Creating layer conv2_1
I0225 12:50:48.861395  5734 net.cpp:100] Creating Layer conv2_1
I0225 12:50:48.861400  5734 net.cpp:434] conv2_1 <- pool1
I0225 12:50:48.861407  5734 net.cpp:408] conv2_1 -> conv2_1
I0225 12:50:48.864066  5734 net.cpp:150] Setting up conv2_1
I0225 12:50:48.864089  5734 net.cpp:157] Top shape: 2 128 384 384 (37748736)
I0225 12:50:48.864092  5734 net.cpp:165] Memory required for data: 1475705088
I0225 12:50:48.864104  5734 layer_factory.hpp:77] Creating layer relu2_1
I0225 12:50:48.864115  5734 net.cpp:100] Creating Layer relu2_1
I0225 12:50:48.864120  5734 net.cpp:434] relu2_1 <- conv2_1
I0225 12:50:48.864126  5734 net.cpp:395] relu2_1 -> conv2_1 (in-place)
I0225 12:50:48.864357  5734 net.cpp:150] Setting up relu2_1
I0225 12:50:48.864368  5734 net.cpp:157] Top shape: 2 128 384 384 (37748736)
I0225 12:50:48.864372  5734 net.cpp:165] Memory required for data: 1626700032
I0225 12:50:48.864377  5734 layer_factory.hpp:77] Creating layer conv2_2
I0225 12:50:48.864389  5734 net.cpp:100] Creating Layer conv2_2
I0225 12:50:48.864394  5734 net.cpp:434] conv2_2 <- conv2_1
I0225 12:50:48.864403  5734 net.cpp:408] conv2_2 -> conv2_2
I0225 12:50:48.868799  5734 net.cpp:150] Setting up conv2_2
I0225 12:50:48.868861  5734 net.cpp:157] Top shape: 2 128 384 384 (37748736)
I0225 12:50:48.868866  5734 net.cpp:165] Memory required for data: 1777694976
I0225 12:50:48.868887  5734 layer_factory.hpp:77] Creating layer relu2_2
I0225 12:50:48.868909  5734 net.cpp:100] Creating Layer relu2_2
I0225 12:50:48.868917  5734 net.cpp:434] relu2_2 <- conv2_2
I0225 12:50:48.868926  5734 net.cpp:395] relu2_2 -> conv2_2 (in-place)
I0225 12:50:48.869201  5734 net.cpp:150] Setting up relu2_2
I0225 12:50:48.869212  5734 net.cpp:157] Top shape: 2 128 384 384 (37748736)
I0225 12:50:48.869216  5734 net.cpp:165] Memory required for data: 1928689920
I0225 12:50:48.869220  5734 layer_factory.hpp:77] Creating layer pool2
I0225 12:50:48.869227  5734 net.cpp:100] Creating Layer pool2
I0225 12:50:48.869230  5734 net.cpp:434] pool2 <- conv2_2
I0225 12:50:48.869236  5734 net.cpp:408] pool2 -> pool2
I0225 12:50:48.869320  5734 net.cpp:150] Setting up pool2
I0225 12:50:48.869328  5734 net.cpp:157] Top shape: 2 128 192 192 (9437184)
I0225 12:50:48.869330  5734 net.cpp:165] Memory required for data: 1966438656
I0225 12:50:48.869333  5734 layer_factory.hpp:77] Creating layer conv3_1
I0225 12:50:48.869344  5734 net.cpp:100] Creating Layer conv3_1
I0225 12:50:48.869348  5734 net.cpp:434] conv3_1 <- pool2
I0225 12:50:48.869354  5734 net.cpp:408] conv3_1 -> conv3_1
I0225 12:50:48.872108  5734 net.cpp:150] Setting up conv3_1
I0225 12:50:48.872133  5734 net.cpp:157] Top shape: 2 256 192 192 (18874368)
I0225 12:50:48.872136  5734 net.cpp:165] Memory required for data: 2041936128
I0225 12:50:48.872150  5734 layer_factory.hpp:77] Creating layer relu3_1
I0225 12:50:48.872160  5734 net.cpp:100] Creating Layer relu3_1
I0225 12:50:48.872165  5734 net.cpp:434] relu3_1 <- conv3_1
I0225 12:50:48.872170  5734 net.cpp:395] relu3_1 -> conv3_1 (in-place)
I0225 12:50:48.872375  5734 net.cpp:150] Setting up relu3_1
I0225 12:50:48.872387  5734 net.cpp:157] Top shape: 2 256 192 192 (18874368)
I0225 12:50:48.872392  5734 net.cpp:165] Memory required for data: 2117433600
I0225 12:50:48.872397  5734 layer_factory.hpp:77] Creating layer conv3_2
I0225 12:50:48.872409  5734 net.cpp:100] Creating Layer conv3_2
I0225 12:50:48.872416  5734 net.cpp:434] conv3_2 <- conv3_1
I0225 12:50:48.872422  5734 net.cpp:408] conv3_2 -> conv3_2
I0225 12:50:48.877436  5734 net.cpp:150] Setting up conv3_2
I0225 12:50:48.877497  5734 net.cpp:157] Top shape: 2 256 192 192 (18874368)
I0225 12:50:48.877511  5734 net.cpp:165] Memory required for data: 2192931072
I0225 12:50:48.877542  5734 layer_factory.hpp:77] Creating layer relu3_2
I0225 12:50:48.877568  5734 net.cpp:100] Creating Layer relu3_2
I0225 12:50:48.877586  5734 net.cpp:434] relu3_2 <- conv3_2
I0225 12:50:48.877610  5734 net.cpp:395] relu3_2 -> conv3_2 (in-place)
I0225 12:50:48.878165  5734 net.cpp:150] Setting up relu3_2
I0225 12:50:48.878188  5734 net.cpp:157] Top shape: 2 256 192 192 (18874368)
I0225 12:50:48.878197  5734 net.cpp:165] Memory required for data: 2268428544
I0225 12:50:48.878207  5734 layer_factory.hpp:77] Creating layer conv3_3
I0225 12:50:48.878229  5734 net.cpp:100] Creating Layer conv3_3
I0225 12:50:48.878240  5734 net.cpp:434] conv3_3 <- conv3_2
I0225 12:50:48.878253  5734 net.cpp:408] conv3_3 -> conv3_3
I0225 12:50:48.882558  5734 net.cpp:150] Setting up conv3_3
I0225 12:50:48.882577  5734 net.cpp:157] Top shape: 2 256 192 192 (18874368)
I0225 12:50:48.882582  5734 net.cpp:165] Memory required for data: 2343926016
I0225 12:50:48.882593  5734 layer_factory.hpp:77] Creating layer relu3_3
I0225 12:50:48.882602  5734 net.cpp:100] Creating Layer relu3_3
I0225 12:50:48.882607  5734 net.cpp:434] relu3_3 <- conv3_3
I0225 12:50:48.882617  5734 net.cpp:395] relu3_3 -> conv3_3 (in-place)
I0225 12:50:48.883239  5734 net.cpp:150] Setting up relu3_3
I0225 12:50:48.883256  5734 net.cpp:157] Top shape: 2 256 192 192 (18874368)
I0225 12:50:48.883261  5734 net.cpp:165] Memory required for data: 2419423488
I0225 12:50:48.883266  5734 layer_factory.hpp:77] Creating layer pool3
I0225 12:50:48.883275  5734 net.cpp:100] Creating Layer pool3
I0225 12:50:48.883280  5734 net.cpp:434] pool3 <- conv3_3
I0225 12:50:48.883288  5734 net.cpp:408] pool3 -> pool3
I0225 12:50:48.883349  5734 net.cpp:150] Setting up pool3
I0225 12:50:48.883360  5734 net.cpp:157] Top shape: 2 256 96 96 (4718592)
I0225 12:50:48.883366  5734 net.cpp:165] Memory required for data: 2438297856
I0225 12:50:48.883370  5734 layer_factory.hpp:77] Creating layer conv4_1
I0225 12:50:48.883381  5734 net.cpp:100] Creating Layer conv4_1
I0225 12:50:48.883385  5734 net.cpp:434] conv4_1 <- pool3
I0225 12:50:48.883394  5734 net.cpp:408] conv4_1 -> conv4_1
I0225 12:50:48.887814  5734 net.cpp:150] Setting up conv4_1
I0225 12:50:48.887843  5734 net.cpp:157] Top shape: 2 512 96 96 (9437184)
I0225 12:50:48.887848  5734 net.cpp:165] Memory required for data: 2476046592
I0225 12:50:48.887859  5734 layer_factory.hpp:77] Creating layer relu4_1
I0225 12:50:48.887871  5734 net.cpp:100] Creating Layer relu4_1
I0225 12:50:48.887877  5734 net.cpp:434] relu4_1 <- conv4_1
I0225 12:50:48.887887  5734 net.cpp:395] relu4_1 -> conv4_1 (in-place)
I0225 12:50:48.888109  5734 net.cpp:150] Setting up relu4_1
I0225 12:50:48.888121  5734 net.cpp:157] Top shape: 2 512 96 96 (9437184)
I0225 12:50:48.888125  5734 net.cpp:165] Memory required for data: 2513795328
I0225 12:50:48.888129  5734 layer_factory.hpp:77] Creating layer conv4_2
I0225 12:50:48.888140  5734 net.cpp:100] Creating Layer conv4_2
I0225 12:50:48.888144  5734 net.cpp:434] conv4_2 <- conv4_1
I0225 12:50:48.888154  5734 net.cpp:408] conv4_2 -> conv4_2
I0225 12:50:48.894698  5734 net.cpp:150] Setting up conv4_2
I0225 12:50:48.894726  5734 net.cpp:157] Top shape: 2 512 96 96 (9437184)
I0225 12:50:48.894731  5734 net.cpp:165] Memory required for data: 2551544064
I0225 12:50:48.894742  5734 layer_factory.hpp:77] Creating layer relu4_2
I0225 12:50:48.894752  5734 net.cpp:100] Creating Layer relu4_2
I0225 12:50:48.894758  5734 net.cpp:434] relu4_2 <- conv4_2
I0225 12:50:48.894762  5734 net.cpp:395] relu4_2 -> conv4_2 (in-place)
I0225 12:50:48.894924  5734 net.cpp:150] Setting up relu4_2
I0225 12:50:48.894933  5734 net.cpp:157] Top shape: 2 512 96 96 (9437184)
I0225 12:50:48.894945  5734 net.cpp:165] Memory required for data: 2589292800
I0225 12:50:48.894948  5734 layer_factory.hpp:77] Creating layer conv4_3
I0225 12:50:48.894958  5734 net.cpp:100] Creating Layer conv4_3
I0225 12:50:48.894963  5734 net.cpp:434] conv4_3 <- conv4_2
I0225 12:50:48.894968  5734 net.cpp:408] conv4_3 -> conv4_3
I0225 12:50:48.900976  5734 net.cpp:150] Setting up conv4_3
I0225 12:50:48.901010  5734 net.cpp:157] Top shape: 2 512 96 96 (9437184)
I0225 12:50:48.901013  5734 net.cpp:165] Memory required for data: 2627041536
I0225 12:50:48.901021  5734 layer_factory.hpp:77] Creating layer relu4_3
I0225 12:50:48.901032  5734 net.cpp:100] Creating Layer relu4_3
I0225 12:50:48.901039  5734 net.cpp:434] relu4_3 <- conv4_3
I0225 12:50:48.901046  5734 net.cpp:395] relu4_3 -> conv4_3 (in-place)
I0225 12:50:48.901219  5734 net.cpp:150] Setting up relu4_3
I0225 12:50:48.901229  5734 net.cpp:157] Top shape: 2 512 96 96 (9437184)
I0225 12:50:48.901232  5734 net.cpp:165] Memory required for data: 2664790272
I0225 12:50:48.901237  5734 layer_factory.hpp:77] Creating layer conv4_3_relu4_3_0_split
I0225 12:50:48.901247  5734 net.cpp:100] Creating Layer conv4_3_relu4_3_0_split
I0225 12:50:48.901252  5734 net.cpp:434] conv4_3_relu4_3_0_split <- conv4_3
I0225 12:50:48.901257  5734 net.cpp:408] conv4_3_relu4_3_0_split -> conv4_3_relu4_3_0_split_0
I0225 12:50:48.901262  5734 net.cpp:408] conv4_3_relu4_3_0_split -> conv4_3_relu4_3_0_split_1
I0225 12:50:48.901295  5734 net.cpp:150] Setting up conv4_3_relu4_3_0_split
I0225 12:50:48.901300  5734 net.cpp:157] Top shape: 2 512 96 96 (9437184)
I0225 12:50:48.901304  5734 net.cpp:157] Top shape: 2 512 96 96 (9437184)
I0225 12:50:48.901307  5734 net.cpp:165] Memory required for data: 2740287744
I0225 12:50:48.901310  5734 layer_factory.hpp:77] Creating layer loss1_conv1
I0225 12:50:48.901321  5734 net.cpp:100] Creating Layer loss1_conv1
I0225 12:50:48.901325  5734 net.cpp:434] loss1_conv1 <- conv4_3_relu4_3_0_split_0
I0225 12:50:48.901332  5734 net.cpp:408] loss1_conv1 -> loss1_conv1
I0225 12:50:48.974006  5734 net.cpp:150] Setting up loss1_conv1
I0225 12:50:48.974254  5734 net.cpp:157] Top shape: 2 512 96 96 (9437184)
I0225 12:50:48.974268  5734 net.cpp:165] Memory required for data: 2778036480
I0225 12:50:48.974310  5734 layer_factory.hpp:77] Creating layer loss_relu1
I0225 12:50:48.974365  5734 net.cpp:100] Creating Layer loss_relu1
I0225 12:50:48.974388  5734 net.cpp:434] loss_relu1 <- loss1_conv1
I0225 12:50:48.974427  5734 net.cpp:395] loss_relu1 -> loss1_conv1 (in-place)
I0225 12:50:48.974844  5734 net.cpp:150] Setting up loss_relu1
I0225 12:50:48.974856  5734 net.cpp:157] Top shape: 2 512 96 96 (9437184)
I0225 12:50:48.974862  5734 net.cpp:165] Memory required for data: 2815785216
I0225 12:50:48.974867  5734 layer_factory.hpp:77] Creating layer loss1_conv1_loss_relu1_0_split
I0225 12:50:48.974884  5734 net.cpp:100] Creating Layer loss1_conv1_loss_relu1_0_split
I0225 12:50:48.974889  5734 net.cpp:434] loss1_conv1_loss_relu1_0_split <- loss1_conv1
I0225 12:50:48.974900  5734 net.cpp:408] loss1_conv1_loss_relu1_0_split -> loss1_conv1_loss_relu1_0_split_0
I0225 12:50:48.974910  5734 net.cpp:408] loss1_conv1_loss_relu1_0_split -> loss1_conv1_loss_relu1_0_split_1
I0225 12:50:48.975015  5734 net.cpp:150] Setting up loss1_conv1_loss_relu1_0_split
I0225 12:50:48.975026  5734 net.cpp:157] Top shape: 2 512 96 96 (9437184)
I0225 12:50:48.975033  5734 net.cpp:157] Top shape: 2 512 96 96 (9437184)
I0225 12:50:48.975036  5734 net.cpp:165] Memory required for data: 2891282688
I0225 12:50:48.975041  5734 layer_factory.hpp:77] Creating layer LFCN_1_5x5
I0225 12:50:48.975057  5734 net.cpp:100] Creating Layer LFCN_1_5x5
I0225 12:50:48.975064  5734 net.cpp:434] LFCN_1_5x5 <- loss1_conv1_loss_relu1_0_split_0
I0225 12:50:48.975075  5734 net.cpp:408] LFCN_1_5x5 -> LFCN_1_5x5
I0225 12:50:48.980926  5734 net.cpp:150] Setting up LFCN_1_5x5
I0225 12:50:48.980962  5734 net.cpp:157] Top shape: 2 9 96 96 (165888)
I0225 12:50:48.980967  5734 net.cpp:165] Memory required for data: 2891946240
I0225 12:50:48.980981  5734 layer_factory.hpp:77] Creating layer LFCN_1_5x5_LFCN_1_5x5_0_split
I0225 12:50:48.980998  5734 net.cpp:100] Creating Layer LFCN_1_5x5_LFCN_1_5x5_0_split
I0225 12:50:48.981009  5734 net.cpp:434] LFCN_1_5x5_LFCN_1_5x5_0_split <- LFCN_1_5x5
I0225 12:50:48.981019  5734 net.cpp:408] LFCN_1_5x5_LFCN_1_5x5_0_split -> LFCN_1_5x5_LFCN_1_5x5_0_split_0
I0225 12:50:48.981034  5734 net.cpp:408] LFCN_1_5x5_LFCN_1_5x5_0_split -> LFCN_1_5x5_LFCN_1_5x5_0_split_1
I0225 12:50:48.981096  5734 net.cpp:150] Setting up LFCN_1_5x5_LFCN_1_5x5_0_split
I0225 12:50:48.981107  5734 net.cpp:157] Top shape: 2 9 96 96 (165888)
I0225 12:50:48.981114  5734 net.cpp:157] Top shape: 2 9 96 96 (165888)
I0225 12:50:48.981120  5734 net.cpp:165] Memory required for data: 2893273344
I0225 12:50:48.981127  5734 layer_factory.hpp:77] Creating layer detection_loss_1_5x5
I0225 12:50:48.981140  5734 net.cpp:100] Creating Layer detection_loss_1_5x5
I0225 12:50:48.981148  5734 net.cpp:434] detection_loss_1_5x5 <- LFCN_1_5x5_LFCN_1_5x5_0_split_0
I0225 12:50:48.981158  5734 net.cpp:434] detection_loss_1_5x5 <- label_1_5x5_data_1_split_0
I0225 12:50:48.981168  5734 net.cpp:408] detection_loss_1_5x5 -> loss_1_5x5
I0225 12:50:48.981185  5734 layer_factory.hpp:77] Creating layer detection_loss_1_5x5
I0225 12:50:48.981658  5734 net.cpp:150] Setting up detection_loss_1_5x5
I0225 12:50:48.981674  5734 net.cpp:157] Top shape: 1 1 1 2 (2)
I0225 12:50:48.981680  5734 net.cpp:160]     with loss weight 0.9
I0225 12:50:48.981698  5734 net.cpp:165] Memory required for data: 2893273352
I0225 12:50:48.981705  5734 layer_factory.hpp:77] Creating layer detection_accuracy_1_5x5
I0225 12:50:48.981716  5734 net.cpp:100] Creating Layer detection_accuracy_1_5x5
I0225 12:50:48.981724  5734 net.cpp:434] detection_accuracy_1_5x5 <- LFCN_1_5x5_LFCN_1_5x5_0_split_1
I0225 12:50:48.981732  5734 net.cpp:434] detection_accuracy_1_5x5 <- label_1_5x5_data_1_split_1
I0225 12:50:48.981740  5734 net.cpp:408] detection_accuracy_1_5x5 -> accuracy_1_5x5
I0225 12:50:48.981752  5734 net.cpp:408] detection_accuracy_1_5x5 -> boxiou_1_5x5
I0225 12:50:48.981809  5734 net.cpp:150] Setting up detection_accuracy_1_5x5
I0225 12:50:48.981820  5734 net.cpp:157] Top shape: 1 1 1 2 (2)
I0225 12:50:48.981828  5734 net.cpp:157] Top shape: 1 1 1 1 (1)
I0225 12:50:48.981833  5734 net.cpp:165] Memory required for data: 2893273364
I0225 12:50:48.981839  5734 layer_factory.hpp:77] Creating layer LFCN_1_7x7
I0225 12:50:48.981856  5734 net.cpp:100] Creating Layer LFCN_1_7x7
I0225 12:50:48.981865  5734 net.cpp:434] LFCN_1_7x7 <- loss1_conv1_loss_relu1_0_split_1
I0225 12:50:48.981875  5734 net.cpp:408] LFCN_1_7x7 -> LFCN_1_7x7
I0225 12:50:48.992395  5734 net.cpp:150] Setting up LFCN_1_7x7
I0225 12:50:48.992440  5734 net.cpp:157] Top shape: 2 9 96 96 (165888)
I0225 12:50:48.992450  5734 net.cpp:165] Memory required for data: 2893936916
I0225 12:50:48.992467  5734 layer_factory.hpp:77] Creating layer LFCN_1_7x7_LFCN_1_7x7_0_split
I0225 12:50:48.992488  5734 net.cpp:100] Creating Layer LFCN_1_7x7_LFCN_1_7x7_0_split
I0225 12:50:48.992501  5734 net.cpp:434] LFCN_1_7x7_LFCN_1_7x7_0_split <- LFCN_1_7x7
I0225 12:50:48.992517  5734 net.cpp:408] LFCN_1_7x7_LFCN_1_7x7_0_split -> LFCN_1_7x7_LFCN_1_7x7_0_split_0
I0225 12:50:48.992537  5734 net.cpp:408] LFCN_1_7x7_LFCN_1_7x7_0_split -> LFCN_1_7x7_LFCN_1_7x7_0_split_1
I0225 12:50:48.992637  5734 net.cpp:150] Setting up LFCN_1_7x7_LFCN_1_7x7_0_split
I0225 12:50:48.992651  5734 net.cpp:157] Top shape: 2 9 96 96 (165888)
I0225 12:50:48.992663  5734 net.cpp:157] Top shape: 2 9 96 96 (165888)
I0225 12:50:48.992672  5734 net.cpp:165] Memory required for data: 2895264020
I0225 12:50:48.992681  5734 layer_factory.hpp:77] Creating layer detection_loss_1_7x7
I0225 12:50:48.992698  5734 net.cpp:100] Creating Layer detection_loss_1_7x7
I0225 12:50:48.992708  5734 net.cpp:434] detection_loss_1_7x7 <- LFCN_1_7x7_LFCN_1_7x7_0_split_0
I0225 12:50:48.992720  5734 net.cpp:434] detection_loss_1_7x7 <- label_1_7x7_data_2_split_0
I0225 12:50:48.992735  5734 net.cpp:408] detection_loss_1_7x7 -> loss_1_7x7
I0225 12:50:48.992755  5734 layer_factory.hpp:77] Creating layer detection_loss_1_7x7
I0225 12:50:48.994706  5734 net.cpp:150] Setting up detection_loss_1_7x7
I0225 12:50:48.994734  5734 net.cpp:157] Top shape: 1 1 1 2 (2)
I0225 12:50:48.994742  5734 net.cpp:160]     with loss weight 0.9
I0225 12:50:48.994763  5734 net.cpp:165] Memory required for data: 2895264028
I0225 12:50:48.994772  5734 layer_factory.hpp:77] Creating layer detection_accuracy_1_7x7
I0225 12:50:48.994791  5734 net.cpp:100] Creating Layer detection_accuracy_1_7x7
I0225 12:50:48.994801  5734 net.cpp:434] detection_accuracy_1_7x7 <- LFCN_1_7x7_LFCN_1_7x7_0_split_1
I0225 12:50:48.994815  5734 net.cpp:434] detection_accuracy_1_7x7 <- label_1_7x7_data_2_split_1
I0225 12:50:48.994832  5734 net.cpp:408] detection_accuracy_1_7x7 -> accuracy_1_7x7
I0225 12:50:48.994849  5734 net.cpp:408] detection_accuracy_1_7x7 -> boxiou_1_7x7
I0225 12:50:48.994957  5734 net.cpp:150] Setting up detection_accuracy_1_7x7
I0225 12:50:48.994978  5734 net.cpp:157] Top shape: 1 1 1 2 (2)
I0225 12:50:48.994988  5734 net.cpp:157] Top shape: 1 1 1 1 (1)
I0225 12:50:48.994995  5734 net.cpp:165] Memory required for data: 2895264040
I0225 12:50:48.995003  5734 layer_factory.hpp:77] Creating layer pool4
I0225 12:50:48.995019  5734 net.cpp:100] Creating Layer pool4
I0225 12:50:48.995030  5734 net.cpp:434] pool4 <- conv4_3_relu4_3_0_split_1
I0225 12:50:48.995043  5734 net.cpp:408] pool4 -> pool4
I0225 12:50:48.995146  5734 net.cpp:150] Setting up pool4
I0225 12:50:48.995168  5734 net.cpp:157] Top shape: 2 512 48 48 (2359296)
I0225 12:50:48.995179  5734 net.cpp:165] Memory required for data: 2904701224
I0225 12:50:48.995191  5734 layer_factory.hpp:77] Creating layer ch4_pool4
I0225 12:50:48.995271  5734 net.cpp:100] Creating Layer ch4_pool4
I0225 12:50:48.995316  5734 net.cpp:434] ch4_pool4 <- ch4
I0225 12:50:48.995371  5734 net.cpp:408] ch4_pool4 -> ch4_pool4
I0225 12:50:48.995522  5734 net.cpp:150] Setting up ch4_pool4
I0225 12:50:48.995548  5734 net.cpp:157] Top shape: 2 1 48 48 (4608)
I0225 12:50:48.995558  5734 net.cpp:165] Memory required for data: 2904719656
I0225 12:50:48.995570  5734 layer_factory.hpp:77] Creating layer pool4_concat
I0225 12:50:48.995591  5734 net.cpp:100] Creating Layer pool4_concat
I0225 12:50:48.995609  5734 net.cpp:434] pool4_concat <- pool4
I0225 12:50:48.995623  5734 net.cpp:434] pool4_concat <- ch4_pool4
I0225 12:50:48.995645  5734 net.cpp:408] pool4_concat -> pool4_new
I0225 12:50:48.995721  5734 net.cpp:150] Setting up pool4_concat
I0225 12:50:48.995738  5734 net.cpp:157] Top shape: 2 513 48 48 (2363904)
I0225 12:50:48.995748  5734 net.cpp:165] Memory required for data: 2914175272
I0225 12:50:48.995759  5734 layer_factory.hpp:77] Creating layer conv5_1_new
I0225 12:50:48.995784  5734 net.cpp:100] Creating Layer conv5_1_new
I0225 12:50:48.995798  5734 net.cpp:434] conv5_1_new <- pool4_new
I0225 12:50:48.995820  5734 net.cpp:408] conv5_1_new -> conv5_1
I0225 12:50:49.005935  5734 net.cpp:150] Setting up conv5_1_new
I0225 12:50:49.005969  5734 net.cpp:157] Top shape: 2 512 48 48 (2359296)
I0225 12:50:49.005975  5734 net.cpp:165] Memory required for data: 2923612456
I0225 12:50:49.005985  5734 layer_factory.hpp:77] Creating layer relu5_1
I0225 12:50:49.006000  5734 net.cpp:100] Creating Layer relu5_1
I0225 12:50:49.006007  5734 net.cpp:434] relu5_1 <- conv5_1
I0225 12:50:49.006016  5734 net.cpp:395] relu5_1 -> conv5_1 (in-place)
I0225 12:50:49.006218  5734 net.cpp:150] Setting up relu5_1
I0225 12:50:49.006229  5734 net.cpp:157] Top shape: 2 512 48 48 (2359296)
I0225 12:50:49.006233  5734 net.cpp:165] Memory required for data: 2933049640
I0225 12:50:49.006237  5734 layer_factory.hpp:77] Creating layer conv5_2
I0225 12:50:49.006247  5734 net.cpp:100] Creating Layer conv5_2
I0225 12:50:49.006252  5734 net.cpp:434] conv5_2 <- conv5_1
I0225 12:50:49.006259  5734 net.cpp:408] conv5_2 -> conv5_2
I0225 12:50:49.015745  5734 net.cpp:150] Setting up conv5_2
I0225 12:50:49.015787  5734 net.cpp:157] Top shape: 2 512 48 48 (2359296)
I0225 12:50:49.015791  5734 net.cpp:165] Memory required for data: 2942486824
I0225 12:50:49.015807  5734 layer_factory.hpp:77] Creating layer relu5_2
I0225 12:50:49.015828  5734 net.cpp:100] Creating Layer relu5_2
I0225 12:50:49.015837  5734 net.cpp:434] relu5_2 <- conv5_2
I0225 12:50:49.015846  5734 net.cpp:395] relu5_2 -> conv5_2 (in-place)
I0225 12:50:49.016026  5734 net.cpp:150] Setting up relu5_2
I0225 12:50:49.016034  5734 net.cpp:157] Top shape: 2 512 48 48 (2359296)
I0225 12:50:49.016038  5734 net.cpp:165] Memory required for data: 2951924008
I0225 12:50:49.016041  5734 layer_factory.hpp:77] Creating layer conv5_3
I0225 12:50:49.016057  5734 net.cpp:100] Creating Layer conv5_3
I0225 12:50:49.016060  5734 net.cpp:434] conv5_3 <- conv5_2
I0225 12:50:49.016065  5734 net.cpp:408] conv5_3 -> conv5_3
I0225 12:50:49.029052  5734 net.cpp:150] Setting up conv5_3
I0225 12:50:49.029090  5734 net.cpp:157] Top shape: 2 512 48 48 (2359296)
I0225 12:50:49.029094  5734 net.cpp:165] Memory required for data: 2961361192
I0225 12:50:49.029106  5734 layer_factory.hpp:77] Creating layer relu5_3
I0225 12:50:49.029125  5734 net.cpp:100] Creating Layer relu5_3
I0225 12:50:49.029134  5734 net.cpp:434] relu5_3 <- conv5_3
I0225 12:50:49.029140  5734 net.cpp:395] relu5_3 -> conv5_3 (in-place)
I0225 12:50:49.029320  5734 net.cpp:150] Setting up relu5_3
I0225 12:50:49.029330  5734 net.cpp:157] Top shape: 2 512 48 48 (2359296)
I0225 12:50:49.029332  5734 net.cpp:165] Memory required for data: 2970798376
I0225 12:50:49.029336  5734 layer_factory.hpp:77] Creating layer conv5_3_relu5_3_0_split
I0225 12:50:49.029343  5734 net.cpp:100] Creating Layer conv5_3_relu5_3_0_split
I0225 12:50:49.029346  5734 net.cpp:434] conv5_3_relu5_3_0_split <- conv5_3
I0225 12:50:49.029355  5734 net.cpp:408] conv5_3_relu5_3_0_split -> conv5_3_relu5_3_0_split_0
I0225 12:50:49.029361  5734 net.cpp:408] conv5_3_relu5_3_0_split -> conv5_3_relu5_3_0_split_1
I0225 12:50:49.029366  5734 net.cpp:408] conv5_3_relu5_3_0_split -> conv5_3_relu5_3_0_split_2
I0225 12:50:49.029422  5734 net.cpp:150] Setting up conv5_3_relu5_3_0_split
I0225 12:50:49.029430  5734 net.cpp:157] Top shape: 2 512 48 48 (2359296)
I0225 12:50:49.029434  5734 net.cpp:157] Top shape: 2 512 48 48 (2359296)
I0225 12:50:49.029438  5734 net.cpp:157] Top shape: 2 512 48 48 (2359296)
I0225 12:50:49.029441  5734 net.cpp:165] Memory required for data: 2999109928
I0225 12:50:49.029444  5734 layer_factory.hpp:77] Creating layer LFCN_2_5x5
I0225 12:50:49.029460  5734 net.cpp:100] Creating Layer LFCN_2_5x5
I0225 12:50:49.029465  5734 net.cpp:434] LFCN_2_5x5 <- conv5_3_relu5_3_0_split_0
I0225 12:50:49.029474  5734 net.cpp:408] LFCN_2_5x5 -> LFCN_2_5x5
I0225 12:50:49.033998  5734 net.cpp:150] Setting up LFCN_2_5x5
I0225 12:50:49.034021  5734 net.cpp:157] Top shape: 2 9 48 48 (41472)
I0225 12:50:49.034025  5734 net.cpp:165] Memory required for data: 2999275816
I0225 12:50:49.034041  5734 layer_factory.hpp:77] Creating layer LFCN_2_5x5_LFCN_2_5x5_0_split
I0225 12:50:49.034052  5734 net.cpp:100] Creating Layer LFCN_2_5x5_LFCN_2_5x5_0_split
I0225 12:50:49.034059  5734 net.cpp:434] LFCN_2_5x5_LFCN_2_5x5_0_split <- LFCN_2_5x5
I0225 12:50:49.034065  5734 net.cpp:408] LFCN_2_5x5_LFCN_2_5x5_0_split -> LFCN_2_5x5_LFCN_2_5x5_0_split_0
I0225 12:50:49.034078  5734 net.cpp:408] LFCN_2_5x5_LFCN_2_5x5_0_split -> LFCN_2_5x5_LFCN_2_5x5_0_split_1
I0225 12:50:49.034121  5734 net.cpp:150] Setting up LFCN_2_5x5_LFCN_2_5x5_0_split
I0225 12:50:49.034128  5734 net.cpp:157] Top shape: 2 9 48 48 (41472)
I0225 12:50:49.034132  5734 net.cpp:157] Top shape: 2 9 48 48 (41472)
I0225 12:50:49.034135  5734 net.cpp:165] Memory required for data: 2999607592
I0225 12:50:49.034139  5734 layer_factory.hpp:77] Creating layer detection_loss_2_5x5
I0225 12:50:49.034147  5734 net.cpp:100] Creating Layer detection_loss_2_5x5
I0225 12:50:49.034150  5734 net.cpp:434] detection_loss_2_5x5 <- LFCN_2_5x5_LFCN_2_5x5_0_split_0
I0225 12:50:49.034155  5734 net.cpp:434] detection_loss_2_5x5 <- label_2_5x5_data_3_split_0
I0225 12:50:49.034162  5734 net.cpp:408] detection_loss_2_5x5 -> loss_2_5x5
I0225 12:50:49.034169  5734 layer_factory.hpp:77] Creating layer detection_loss_2_5x5
I0225 12:50:49.034524  5734 net.cpp:150] Setting up detection_loss_2_5x5
I0225 12:50:49.034533  5734 net.cpp:157] Top shape: 1 1 1 2 (2)
I0225 12:50:49.034536  5734 net.cpp:160]     with loss weight 1
I0225 12:50:49.034548  5734 net.cpp:165] Memory required for data: 2999607600
I0225 12:50:49.034552  5734 layer_factory.hpp:77] Creating layer detection_accuracy_2_5x5
I0225 12:50:49.034559  5734 net.cpp:100] Creating Layer detection_accuracy_2_5x5
I0225 12:50:49.034562  5734 net.cpp:434] detection_accuracy_2_5x5 <- LFCN_2_5x5_LFCN_2_5x5_0_split_1
I0225 12:50:49.034566  5734 net.cpp:434] detection_accuracy_2_5x5 <- label_2_5x5_data_3_split_1
I0225 12:50:49.034574  5734 net.cpp:408] detection_accuracy_2_5x5 -> accuracy_2_5x5
I0225 12:50:49.034581  5734 net.cpp:408] detection_accuracy_2_5x5 -> boxiou_2_5x5
I0225 12:50:49.034623  5734 net.cpp:150] Setting up detection_accuracy_2_5x5
I0225 12:50:49.034629  5734 net.cpp:157] Top shape: 1 1 1 2 (2)
I0225 12:50:49.034634  5734 net.cpp:157] Top shape: 1 1 1 1 (1)
I0225 12:50:49.034637  5734 net.cpp:165] Memory required for data: 2999607612
I0225 12:50:49.034641  5734 layer_factory.hpp:77] Creating layer LFCN_2_7x7
I0225 12:50:49.034651  5734 net.cpp:100] Creating Layer LFCN_2_7x7
I0225 12:50:49.034657  5734 net.cpp:434] LFCN_2_7x7 <- conv5_3_relu5_3_0_split_1
I0225 12:50:49.034662  5734 net.cpp:408] LFCN_2_7x7 -> LFCN_2_7x7
I0225 12:50:49.045331  5734 net.cpp:150] Setting up LFCN_2_7x7
I0225 12:50:49.045367  5734 net.cpp:157] Top shape: 2 9 48 48 (41472)
I0225 12:50:49.045372  5734 net.cpp:165] Memory required for data: 2999773500
I0225 12:50:49.045383  5734 layer_factory.hpp:77] Creating layer LFCN_2_7x7_LFCN_2_7x7_0_split
I0225 12:50:49.045397  5734 net.cpp:100] Creating Layer LFCN_2_7x7_LFCN_2_7x7_0_split
I0225 12:50:49.045406  5734 net.cpp:434] LFCN_2_7x7_LFCN_2_7x7_0_split <- LFCN_2_7x7
I0225 12:50:49.045414  5734 net.cpp:408] LFCN_2_7x7_LFCN_2_7x7_0_split -> LFCN_2_7x7_LFCN_2_7x7_0_split_0
I0225 12:50:49.045425  5734 net.cpp:408] LFCN_2_7x7_LFCN_2_7x7_0_split -> LFCN_2_7x7_LFCN_2_7x7_0_split_1
I0225 12:50:49.045475  5734 net.cpp:150] Setting up LFCN_2_7x7_LFCN_2_7x7_0_split
I0225 12:50:49.045483  5734 net.cpp:157] Top shape: 2 9 48 48 (41472)
I0225 12:50:49.045488  5734 net.cpp:157] Top shape: 2 9 48 48 (41472)
I0225 12:50:49.045492  5734 net.cpp:165] Memory required for data: 3000105276
I0225 12:50:49.045496  5734 layer_factory.hpp:77] Creating layer detection_loss_2_7x7
I0225 12:50:49.045505  5734 net.cpp:100] Creating Layer detection_loss_2_7x7
I0225 12:50:49.045509  5734 net.cpp:434] detection_loss_2_7x7 <- LFCN_2_7x7_LFCN_2_7x7_0_split_0
I0225 12:50:49.045516  5734 net.cpp:434] detection_loss_2_7x7 <- label_2_7x7_data_4_split_0
I0225 12:50:49.045523  5734 net.cpp:408] detection_loss_2_7x7 -> loss_2_7x7
I0225 12:50:49.045536  5734 layer_factory.hpp:77] Creating layer detection_loss_2_7x7
I0225 12:50:49.046110  5734 net.cpp:150] Setting up detection_loss_2_7x7
I0225 12:50:49.046126  5734 net.cpp:157] Top shape: 1 1 1 2 (2)
I0225 12:50:49.046131  5734 net.cpp:160]     with loss weight 1
I0225 12:50:49.046147  5734 net.cpp:165] Memory required for data: 3000105284
I0225 12:50:49.046151  5734 layer_factory.hpp:77] Creating layer detection_accuracy_2_7x7
I0225 12:50:49.046161  5734 net.cpp:100] Creating Layer detection_accuracy_2_7x7
I0225 12:50:49.046166  5734 net.cpp:434] detection_accuracy_2_7x7 <- LFCN_2_7x7_LFCN_2_7x7_0_split_1
I0225 12:50:49.046171  5734 net.cpp:434] detection_accuracy_2_7x7 <- label_2_7x7_data_4_split_1
I0225 12:50:49.046178  5734 net.cpp:408] detection_accuracy_2_7x7 -> accuracy_2_7x7
I0225 12:50:49.046187  5734 net.cpp:408] detection_accuracy_2_7x7 -> boxiou_2_7x7
I0225 12:50:49.046241  5734 net.cpp:150] Setting up detection_accuracy_2_7x7
I0225 12:50:49.046248  5734 net.cpp:157] Top shape: 1 1 1 2 (2)
I0225 12:50:49.046253  5734 net.cpp:157] Top shape: 1 1 1 1 (1)
I0225 12:50:49.046257  5734 net.cpp:165] Memory required for data: 3000105296
I0225 12:50:49.046260  5734 layer_factory.hpp:77] Creating layer pool5
I0225 12:50:49.046268  5734 net.cpp:100] Creating Layer pool5
I0225 12:50:49.046272  5734 net.cpp:434] pool5 <- conv5_3_relu5_3_0_split_2
I0225 12:50:49.046279  5734 net.cpp:408] pool5 -> pool5
I0225 12:50:49.046325  5734 net.cpp:150] Setting up pool5
I0225 12:50:49.046332  5734 net.cpp:157] Top shape: 2 512 24 24 (589824)
I0225 12:50:49.046336  5734 net.cpp:165] Memory required for data: 3002464592
I0225 12:50:49.046339  5734 layer_factory.hpp:77] Creating layer conv6_1
I0225 12:50:49.046353  5734 net.cpp:100] Creating Layer conv6_1
I0225 12:50:49.046360  5734 net.cpp:434] conv6_1 <- pool5
I0225 12:50:49.046365  5734 net.cpp:408] conv6_1 -> conv6_1
I0225 12:50:49.118543  5734 net.cpp:150] Setting up conv6_1
I0225 12:50:49.118593  5734 net.cpp:157] Top shape: 2 512 24 24 (589824)
I0225 12:50:49.118597  5734 net.cpp:165] Memory required for data: 3004823888
I0225 12:50:49.118610  5734 layer_factory.hpp:77] Creating layer relu6_1
I0225 12:50:49.118643  5734 net.cpp:100] Creating Layer relu6_1
I0225 12:50:49.118654  5734 net.cpp:434] relu6_1 <- conv6_1
I0225 12:50:49.118660  5734 net.cpp:395] relu6_1 -> conv6_1 (in-place)
I0225 12:50:49.119678  5734 net.cpp:150] Setting up relu6_1
I0225 12:50:49.119699  5734 net.cpp:157] Top shape: 2 512 24 24 (589824)
I0225 12:50:49.119704  5734 net.cpp:165] Memory required for data: 3007183184
I0225 12:50:49.119709  5734 layer_factory.hpp:77] Creating layer conv6_1_relu6_1_0_split
I0225 12:50:49.119717  5734 net.cpp:100] Creating Layer conv6_1_relu6_1_0_split
I0225 12:50:49.119724  5734 net.cpp:434] conv6_1_relu6_1_0_split <- conv6_1
I0225 12:50:49.119732  5734 net.cpp:408] conv6_1_relu6_1_0_split -> conv6_1_relu6_1_0_split_0
I0225 12:50:49.119741  5734 net.cpp:408] conv6_1_relu6_1_0_split -> conv6_1_relu6_1_0_split_1
I0225 12:50:49.119747  5734 net.cpp:408] conv6_1_relu6_1_0_split -> conv6_1_relu6_1_0_split_2
I0225 12:50:49.119841  5734 net.cpp:150] Setting up conv6_1_relu6_1_0_split
I0225 12:50:49.119851  5734 net.cpp:157] Top shape: 2 512 24 24 (589824)
I0225 12:50:49.119855  5734 net.cpp:157] Top shape: 2 512 24 24 (589824)
I0225 12:50:49.119860  5734 net.cpp:157] Top shape: 2 512 24 24 (589824)
I0225 12:50:49.119863  5734 net.cpp:165] Memory required for data: 3014261072
I0225 12:50:49.119868  5734 layer_factory.hpp:77] Creating layer LFCN_3_5x5
I0225 12:50:49.119884  5734 net.cpp:100] Creating Layer LFCN_3_5x5
I0225 12:50:49.119889  5734 net.cpp:434] LFCN_3_5x5 <- conv6_1_relu6_1_0_split_0
I0225 12:50:49.119899  5734 net.cpp:408] LFCN_3_5x5 -> LFCN_3_5x5
I0225 12:50:49.125558  5734 net.cpp:150] Setting up LFCN_3_5x5
I0225 12:50:49.125607  5734 net.cpp:157] Top shape: 2 9 24 24 (10368)
I0225 12:50:49.125612  5734 net.cpp:165] Memory required for data: 3014302544
I0225 12:50:49.125625  5734 layer_factory.hpp:77] Creating layer LFCN_3_5x5_LFCN_3_5x5_0_split
I0225 12:50:49.125643  5734 net.cpp:100] Creating Layer LFCN_3_5x5_LFCN_3_5x5_0_split
I0225 12:50:49.125650  5734 net.cpp:434] LFCN_3_5x5_LFCN_3_5x5_0_split <- LFCN_3_5x5
I0225 12:50:49.125661  5734 net.cpp:408] LFCN_3_5x5_LFCN_3_5x5_0_split -> LFCN_3_5x5_LFCN_3_5x5_0_split_0
I0225 12:50:49.125674  5734 net.cpp:408] LFCN_3_5x5_LFCN_3_5x5_0_split -> LFCN_3_5x5_LFCN_3_5x5_0_split_1
I0225 12:50:49.125718  5734 net.cpp:150] Setting up LFCN_3_5x5_LFCN_3_5x5_0_split
I0225 12:50:49.125725  5734 net.cpp:157] Top shape: 2 9 24 24 (10368)
I0225 12:50:49.125730  5734 net.cpp:157] Top shape: 2 9 24 24 (10368)
I0225 12:50:49.125735  5734 net.cpp:165] Memory required for data: 3014385488
I0225 12:50:49.125737  5734 layer_factory.hpp:77] Creating layer detection_loss_3_5x5
I0225 12:50:49.125749  5734 net.cpp:100] Creating Layer detection_loss_3_5x5
I0225 12:50:49.125753  5734 net.cpp:434] detection_loss_3_5x5 <- LFCN_3_5x5_LFCN_3_5x5_0_split_0
I0225 12:50:49.125761  5734 net.cpp:434] detection_loss_3_5x5 <- label_3_5x5_data_5_split_0
I0225 12:50:49.125769  5734 net.cpp:408] detection_loss_3_5x5 -> loss_3_5x5
I0225 12:50:49.125782  5734 layer_factory.hpp:77] Creating layer detection_loss_3_5x5
I0225 12:50:49.126152  5734 net.cpp:150] Setting up detection_loss_3_5x5
I0225 12:50:49.126164  5734 net.cpp:157] Top shape: 1 1 1 2 (2)
I0225 12:50:49.126168  5734 net.cpp:160]     with loss weight 1
I0225 12:50:49.126186  5734 net.cpp:165] Memory required for data: 3014385496
I0225 12:50:49.126190  5734 layer_factory.hpp:77] Creating layer detection_accuracy_3_5x5
I0225 12:50:49.126200  5734 net.cpp:100] Creating Layer detection_accuracy_3_5x5
I0225 12:50:49.126204  5734 net.cpp:434] detection_accuracy_3_5x5 <- LFCN_3_5x5_LFCN_3_5x5_0_split_1
I0225 12:50:49.126209  5734 net.cpp:434] detection_accuracy_3_5x5 <- label_3_5x5_data_5_split_1
I0225 12:50:49.126217  5734 net.cpp:408] detection_accuracy_3_5x5 -> accuracy_3_5x5
I0225 12:50:49.126224  5734 net.cpp:408] detection_accuracy_3_5x5 -> boxiou_3_5x5
I0225 12:50:49.126272  5734 net.cpp:150] Setting up detection_accuracy_3_5x5
I0225 12:50:49.126278  5734 net.cpp:157] Top shape: 1 1 1 2 (2)
I0225 12:50:49.126283  5734 net.cpp:157] Top shape: 1 1 1 1 (1)
I0225 12:50:49.126286  5734 net.cpp:165] Memory required for data: 3014385508
I0225 12:50:49.126289  5734 layer_factory.hpp:77] Creating layer LFCN_3_7x7
I0225 12:50:49.126305  5734 net.cpp:100] Creating Layer LFCN_3_7x7
I0225 12:50:49.126310  5734 net.cpp:434] LFCN_3_7x7 <- conv6_1_relu6_1_0_split_1
I0225 12:50:49.126318  5734 net.cpp:408] LFCN_3_7x7 -> LFCN_3_7x7
I0225 12:50:49.137732  5734 net.cpp:150] Setting up LFCN_3_7x7
I0225 12:50:49.137760  5734 net.cpp:157] Top shape: 2 9 24 24 (10368)
I0225 12:50:49.137765  5734 net.cpp:165] Memory required for data: 3014426980
I0225 12:50:49.137774  5734 layer_factory.hpp:77] Creating layer LFCN_3_7x7_LFCN_3_7x7_0_split
I0225 12:50:49.137785  5734 net.cpp:100] Creating Layer LFCN_3_7x7_LFCN_3_7x7_0_split
I0225 12:50:49.137792  5734 net.cpp:434] LFCN_3_7x7_LFCN_3_7x7_0_split <- LFCN_3_7x7
I0225 12:50:49.137799  5734 net.cpp:408] LFCN_3_7x7_LFCN_3_7x7_0_split -> LFCN_3_7x7_LFCN_3_7x7_0_split_0
I0225 12:50:49.137807  5734 net.cpp:408] LFCN_3_7x7_LFCN_3_7x7_0_split -> LFCN_3_7x7_LFCN_3_7x7_0_split_1
I0225 12:50:49.137850  5734 net.cpp:150] Setting up LFCN_3_7x7_LFCN_3_7x7_0_split
I0225 12:50:49.137857  5734 net.cpp:157] Top shape: 2 9 24 24 (10368)
I0225 12:50:49.137862  5734 net.cpp:157] Top shape: 2 9 24 24 (10368)
I0225 12:50:49.137866  5734 net.cpp:165] Memory required for data: 3014509924
I0225 12:50:49.137868  5734 layer_factory.hpp:77] Creating layer detection_loss_3_7x7
I0225 12:50:49.137876  5734 net.cpp:100] Creating Layer detection_loss_3_7x7
I0225 12:50:49.137881  5734 net.cpp:434] detection_loss_3_7x7 <- LFCN_3_7x7_LFCN_3_7x7_0_split_0
I0225 12:50:49.137886  5734 net.cpp:434] detection_loss_3_7x7 <- label_3_7x7_data_6_split_0
I0225 12:50:49.137892  5734 net.cpp:408] detection_loss_3_7x7 -> loss_3_7x7
I0225 12:50:49.137900  5734 layer_factory.hpp:77] Creating layer detection_loss_3_7x7
I0225 12:50:49.138264  5734 net.cpp:150] Setting up detection_loss_3_7x7
I0225 12:50:49.138275  5734 net.cpp:157] Top shape: 1 1 1 2 (2)
I0225 12:50:49.138278  5734 net.cpp:160]     with loss weight 1
I0225 12:50:49.138289  5734 net.cpp:165] Memory required for data: 3014509932
I0225 12:50:49.138293  5734 layer_factory.hpp:77] Creating layer detection_accuracy_3_7x7
I0225 12:50:49.138299  5734 net.cpp:100] Creating Layer detection_accuracy_3_7x7
I0225 12:50:49.138303  5734 net.cpp:434] detection_accuracy_3_7x7 <- LFCN_3_7x7_LFCN_3_7x7_0_split_1
I0225 12:50:49.138309  5734 net.cpp:434] detection_accuracy_3_7x7 <- label_3_7x7_data_6_split_1
I0225 12:50:49.138314  5734 net.cpp:408] detection_accuracy_3_7x7 -> accuracy_3_7x7
I0225 12:50:49.138324  5734 net.cpp:408] detection_accuracy_3_7x7 -> boxiou_3_7x7
I0225 12:50:49.138363  5734 net.cpp:150] Setting up detection_accuracy_3_7x7
I0225 12:50:49.138370  5734 net.cpp:157] Top shape: 1 1 1 2 (2)
I0225 12:50:49.138375  5734 net.cpp:157] Top shape: 1 1 1 1 (1)
I0225 12:50:49.138378  5734 net.cpp:165] Memory required for data: 3014509944
I0225 12:50:49.138381  5734 layer_factory.hpp:77] Creating layer pool6
I0225 12:50:49.138389  5734 net.cpp:100] Creating Layer pool6
I0225 12:50:49.138393  5734 net.cpp:434] pool6 <- conv6_1_relu6_1_0_split_2
I0225 12:50:49.138398  5734 net.cpp:408] pool6 -> pool6
I0225 12:50:49.138437  5734 net.cpp:150] Setting up pool6
I0225 12:50:49.138442  5734 net.cpp:157] Top shape: 2 512 12 12 (147456)
I0225 12:50:49.138447  5734 net.cpp:165] Memory required for data: 3015099768
I0225 12:50:49.138450  5734 layer_factory.hpp:77] Creating layer LFCN_4_5x5
I0225 12:50:49.138460  5734 net.cpp:100] Creating Layer LFCN_4_5x5
I0225 12:50:49.138464  5734 net.cpp:434] LFCN_4_5x5 <- pool6
I0225 12:50:49.138470  5734 net.cpp:408] LFCN_4_5x5 -> LFCN_4_5x5
I0225 12:50:49.142627  5734 net.cpp:150] Setting up LFCN_4_5x5
I0225 12:50:49.142642  5734 net.cpp:157] Top shape: 2 9 12 12 (2592)
I0225 12:50:49.142645  5734 net.cpp:165] Memory required for data: 3015110136
I0225 12:50:49.142652  5734 layer_factory.hpp:77] Creating layer LFCN_4_5x5_LFCN_4_5x5_0_split
I0225 12:50:49.142657  5734 net.cpp:100] Creating Layer LFCN_4_5x5_LFCN_4_5x5_0_split
I0225 12:50:49.142662  5734 net.cpp:434] LFCN_4_5x5_LFCN_4_5x5_0_split <- LFCN_4_5x5
I0225 12:50:49.142668  5734 net.cpp:408] LFCN_4_5x5_LFCN_4_5x5_0_split -> LFCN_4_5x5_LFCN_4_5x5_0_split_0
I0225 12:50:49.142675  5734 net.cpp:408] LFCN_4_5x5_LFCN_4_5x5_0_split -> LFCN_4_5x5_LFCN_4_5x5_0_split_1
I0225 12:50:49.142714  5734 net.cpp:150] Setting up LFCN_4_5x5_LFCN_4_5x5_0_split
I0225 12:50:49.142721  5734 net.cpp:157] Top shape: 2 9 12 12 (2592)
I0225 12:50:49.142727  5734 net.cpp:157] Top shape: 2 9 12 12 (2592)
I0225 12:50:49.142730  5734 net.cpp:165] Memory required for data: 3015130872
I0225 12:50:49.142733  5734 layer_factory.hpp:77] Creating layer detection_loss_4_5x5
I0225 12:50:49.142740  5734 net.cpp:100] Creating Layer detection_loss_4_5x5
I0225 12:50:49.142743  5734 net.cpp:434] detection_loss_4_5x5 <- LFCN_4_5x5_LFCN_4_5x5_0_split_0
I0225 12:50:49.142748  5734 net.cpp:434] detection_loss_4_5x5 <- label_4_5x5_data_7_split_0
I0225 12:50:49.142755  5734 net.cpp:408] detection_loss_4_5x5 -> loss_4_5x5
I0225 12:50:49.142761  5734 layer_factory.hpp:77] Creating layer detection_loss_4_5x5
I0225 12:50:49.143127  5734 net.cpp:150] Setting up detection_loss_4_5x5
I0225 12:50:49.143148  5734 net.cpp:157] Top shape: 1 1 1 2 (2)
I0225 12:50:49.143151  5734 net.cpp:160]     with loss weight 1
I0225 12:50:49.143157  5734 net.cpp:165] Memory required for data: 3015130880
I0225 12:50:49.143162  5734 layer_factory.hpp:77] Creating layer detection_accuracy_4_5x5
I0225 12:50:49.143167  5734 net.cpp:100] Creating Layer detection_accuracy_4_5x5
I0225 12:50:49.143172  5734 net.cpp:434] detection_accuracy_4_5x5 <- LFCN_4_5x5_LFCN_4_5x5_0_split_1
I0225 12:50:49.143177  5734 net.cpp:434] detection_accuracy_4_5x5 <- label_4_5x5_data_7_split_1
I0225 12:50:49.143182  5734 net.cpp:408] detection_accuracy_4_5x5 -> accuracy_4_5x5
I0225 12:50:49.143189  5734 net.cpp:408] detection_accuracy_4_5x5 -> boxiou_4_5x5
I0225 12:50:49.143229  5734 net.cpp:150] Setting up detection_accuracy_4_5x5
I0225 12:50:49.143236  5734 net.cpp:157] Top shape: 1 1 1 2 (2)
I0225 12:50:49.143241  5734 net.cpp:157] Top shape: 1 1 1 1 (1)
I0225 12:50:49.143244  5734 net.cpp:165] Memory required for data: 3015130892
I0225 12:50:49.143249  5734 net.cpp:228] detection_accuracy_4_5x5 does not need backward computation.
I0225 12:50:49.143252  5734 net.cpp:226] detection_loss_4_5x5 needs backward computation.
I0225 12:50:49.143256  5734 net.cpp:226] LFCN_4_5x5_LFCN_4_5x5_0_split needs backward computation.
I0225 12:50:49.143260  5734 net.cpp:226] LFCN_4_5x5 needs backward computation.
…
