…
    downsample_rate: 32
    downsample_rate: 32
    downsample_rate: 64
    coord_num: 4
    field_h: 60
    field_h: 84
    field_h: 120
    field_h: 168
    field_h: 240
    field_h: 336
    field_h: 480
    field_w: 60
    field_w: 84
    field_w: 120
    field_w: 168
    field_w: 240
    field_w: 336
    field_w: 480
    fg_threshold: 0.5
    resize_width: 1344
    resize_height: 768
    crop_width: 768
    crop_height: 768
    do_multiple_scale: true
    min_scale: 60
    max_scale: 480
    min_gt_height: 25
    shuffle: true
    output_gt_boxes: true
  }
}
layer {
  name: "conv1"
  type: "Convolution"
  bottom: "data"
  top: "conv1"
  param {
    lr_mult: 0
    decay_mult: 0
  }
  convolution_param {
    num_output: 32
    bias_term: false
    pad: 1
    kernel_size: 3
    stride: 2
    weight_filler {
      type: "msra"
    }
  }
}
layer {
  name: "conv1/bn"
  type: "BatchNorm"
  bottom: "conv1"
  top: "conv1/bn"
  batch_norm_param {
    use_global_stats: false
    eps: 1e-05
  }
}
layer {
  name: "conv1/scale"
  type: "Scale"
  bottom: "conv1/bn"
  top: "conv1/bn"
  param {
    lr_mult: 0
    decay_mult: 0
  }
  param {
    lr_mult: 0
    decay_mult: 0
  }
  scale_param {
    bias_term: true
  }
}
layer {
  name: "relu1"
  type: "ReLU"
  bottom: "conv1/bn"
  top: "conv1/bn"
}
layer {
  name: "conv2_1/expand"
  type: "Convolution"
  bottom: "conv1/bn"
  top: "conv2_1/expand"
  param {
    lr_mult: 0
    decay_mult: 0
  }
  convolution_param {
    num_output: 32
    bias_term: false
    kernel_size: 1
    weight_filler {
      type: "msra"
    }
  }
}
layer {
  name: "conv2_1/expand/bn"
  type: "BatchNorm"
  bottom: "conv2_1/expand"
  top: "conv2_1/expand/bn"
  batch_norm_param {
    use_global_stats: false
    eps: 1e-05
  }
}
layer {
  name: "conv2_1/expand/scale"
  type: "Scale"
  bottom: "conv2_1/expand/bn"
  top: "conv2_1/expand/bn"
  param {
    lr_mult: 0
    decay_mult: 0
  }
  param {
    lr_mult: 0
    decay_mult: 0
  }
  scale_param {
    bias_term: true
  }
}
layer {
  name: "relu2_1/expand"
  type: "ReLU"
  bottom: "conv2_1/expand/bn"
  top: "conv2_1/expand/bn"
}
layer {
  name: "conv2_1/dwise"
  type: "DepthwiseConvolution"
  bottom: "conv2_1/expand/bn"
  top: "conv2_1/dwise"
  param {
    lr_mult: 0
    decay_mult: 0
  }
  convolution_param {
    num_output: 32
    bias_term: false
    pad: 1
    kernel_size: 3
    group: 32
    weight_filler {
      type: "msra"
    }
    engine: CAFFE
  }
}
layer {
  name: "conv2_1/dwise/bn"
  type: "BatchNorm"
  bottom: "conv2_1/dwise"
  top: "conv2_1/dwise/bn"
  batch_norm_param {
    use_global_stats: false
    eps: 1e-05
  }
}
layer {
  name: "conv2_1/dwise/scale"
  type: "Scale"
  bottom: "conv2_1/dwise/bn"
  top: "conv2_1/dwise/bn"
  param {
    lr_mult: 0
    decay_mult: 0
  }
  param {
    lr_mult: 0
    decay_mult: 0
  }
  scale_param {
    bias_term: true
  }
}
layer {
  name: "relu2_1/dwise"
  type: "ReLU"
  bottom: "conv2_1/dwise/bn"
  top: "conv2_1/dwise/bn"
}
layer {
  name: "conv2_1/linear"
  type: "Convolution"
  bottom: "conv2_1/dwise/bn"
  top: "conv2_1/linear"
  param {
    lr_mult: 0
    decay_mult: 0
  }
  convolution_param {
    num_output: 16
    bias_term: false
    kernel_size: 1
    weight_filler {
      type: "msra"
    }
  }
}
layer {
  name: "conv2_1/linear/bn"
  type: "BatchNorm"
  bottom: "conv2_1/linear"
  top: "conv2_1/linear/bn"
  batch_norm_param {
    use_global_stats: false
    eps: 1e-05
  }
}
layer {
  name: "conv2_1/linear/scale"
  type: "Scale"
  bottom: "conv2_1/linear/bn"
  top: "conv2_1/linear/bn"
  param {
    lr_mult: 0
    decay_mult: 0
  }
  param {
    lr_mult: 0
    decay_mult: 0
  }
  scale_param {
    bias_term: true
  }
}
layer {
  name: "conv2_2/expand"
  type: "Convolution"
  bottom: "conv2_1/linear/bn"
  top: "conv2_2/expand"
  param {
    lr_mult: 0
    decay_mult: 0
  }
  convolution_param {
    num_output: 96
    bias_term: false
    kernel_size: 1
    weight_filler {
      type: "msra"
    }
  }
}
layer {
  name: "conv2_2/expand/bn"
  type: "BatchNorm"
  bottom: "conv2_2/expand"
  top: "conv2_2/expand/bn"
  batch_norm_param {
    use_global_stats: false
    eps: 1e-05
  }
}
layer {
  name: "conv2_2/expand/scale"
  type: "Scale"
  bottom: "conv2_2/expand/bn"
  top: "conv2_2/expand/bn"
  param {
    lr_mult: 0
    decay_mult: 0
  }
  param {
    lr_mult: 0
    decay_mult: 0
  }
  scale_param {
    bias_term: true
  }
}
layer {
  name: "relu2_2/expand"
  type: "ReLU"
  bottom: "conv2_2/expand/bn"
  top: "conv2_2/expand/bn"
}
layer {
  name: "conv2_2/dwise"
  type: "DepthwiseConvolution"
  bottom: "conv2_2/expand/bn"
  top: "conv2_2/dwise"
  param {
    lr_mult: 1
    decay_mult: 1
  }
  convolution_param {
    num_output: 96
    bias_term: false
    pad: 1
    kernel_size: 3
    group: 96
    stride: 2
    weight_filler {
      type: "msra"
    }
    engine: CAFFE
  }
}
layer {
  name: "conv2_2/dwise/bn"
  type: "BatchNorm"
  bottom: "conv2_2/dwise"
  top: "conv2_2/dwise/bn"
  batch_norm_param {
    use_global_stats: false
    eps: 1e-05
  }
}
layer {
  name: "conv2_2/dwise/scale"
  type: "Scale"
  bottom: "conv2_2/dwise/bn"
  top: "conv2_2/dwise/bn"
  param {
    lr_mult: 1
    decay_mult: 0
  }
  param {
    lr_mult: 1
    decay_mult: 0
  }
  scale_param {
    bias_term: true
  }
}
layer {
  name: "relu2_2/dwise"
  type: "ReLU"
  bottom: "conv2_2/dwise/bn"
  top: "conv2_2/dwise/bn"
}
layer {
  name: "conv2_2/linear"
  type: "Convolution"
  bottom: "conv2_2/dwise/bn"
  top: "conv2_2/linear"
  param {
    lr_mult: 1
    decay_mult: 1
  }
  convolution_param {
    num_output: 24
    bias_term: false
    kernel_size: 1
    weight_filler {
      type: "msra"
    }
  }
}
layer {
  name: "conv2_2/linear/bn"
  type: "BatchNorm"
  bottom: "conv2_2/linear"
  top: "conv2_2/linear/bn"
  batch_norm_param {
    use_global_stats: false
    eps: 1e-05
  }
}
layer {
  name: "conv2_2/linear/scale"
  type: "Scale"
  bottom: "conv2_2/linear/bn"
  top: "conv2_2/linear/bn"
  param {
    lr_mult: 1
    decay_mult: 0
  }
  param {
    lr_mult: 1
    decay_mult: 0
  }
  scale_param {
    bias_term: true
  }
}
layer {
  name: "conv3_1/expand"
  type: "Convolution"
  bottom: "conv2_2/linear/bn"
  top: "conv3_1/expand"
  param {
    lr_mult: 1
    decay_mult: 1
  }
  convolution_param {
    num_output: 144
    bias_term: false
    kernel_size: 1
    weight_filler {
      type: "msra"
    }
  }
}
layer {
  name: "conv3_1/expand/bn"
  type: "BatchNorm"
  bottom: "conv3_1/expand"
  top: "conv3_1/expand/bn"
  batch_norm_param {
    use_global_stats: false
    eps: 1e-05
  }
}
layer {
  name: "conv3_1/expand/scale"
  type: "Scale"
  bottom: "conv3_1/expand/bn"
  top: "conv3_1/expand/bn"
  param {
    lr_mult: 1
    decay_mult: 0
  }
  param {
    lr_mult: 1
    decay_mult: 0
  }
  scale_param {
    bias_term: true
  }
}
layer {
  name: "relu3_1/expand"
  type: "ReLU"
  bottom: "conv3_1/expand/bn"
  top: "conv3_1/expand/bn"
}
layer {
  name: "conv3_1/dwise"
  type: "DepthwiseConvolution"
  bottom: "conv3_1/expand/bn"
  top: "conv3_1/dwise"
  param {
    lr_mult: 1
    decay_mult: 1
  }
  convolution_param {
    num_output: 144
    bias_term: false
    pad: 1
    kernel_size: 3
    group: 144
    weight_filler {
      type: "msra"
    }
    engine: CAFFE
  }
}
layer {
  name: "conv3_1/dwise/bn"
  type: "BatchNorm"
  bottom: "conv3_1/dwise"
  top: "conv3_1/dwise/bn"
  batch_norm_param {
    use_global_stats: false
    eps: 1e-05
  }
}
layer {
  name: "conv3_1/dwise/scale"
  type: "Scale"
  bottom: "conv3_1/dwise/bn"
  top: "conv3_1/dwise/bn"
  param {
    lr_mult: 1
    decay_mult: 0
  }
  param {
    lr_mult: 1
    decay_mult: 0
  }
  scale_param {
    bias_term: true
  }
}
layer {
  name: "relu3_1/dwise"
  type: "ReLU"
  bottom: "conv3_1/dwise/bn"
  top: "conv3_1/dwise/bn"
}
layer {
  name: "conv3_1/linear"
  type: "Convolution"
  bottom: "conv3_1/dwise/bn"
  top: "conv3_1/linear"
  param {
    lr_mult: 1
    decay_mult: 1
  }
  convolution_param {
    num_output: 24
    bias_term: false
    kernel_size: 1
    weight_filler {
      type: "msra"
    }
  }
}
layer {
  name: "conv3_1/linear/bn"
  type: "BatchNorm"
  bottom: "conv3_1/linear"
  top: "conv3_1/linear/bn"
  batch_norm_param {
    use_global_stats: false
    eps: 1e-05
  }
}
layer {
  name: "conv3_1/linear/scale"
  type: "Scale"
  bottom: "conv3_1/linear/bn"
  top: "conv3_1/linear/bn"
  param {
    lr_mult: 1
    decay_mult: 0
  }
  param {
    lr_mult: 1
    decay_mult: 0
  }
  scale_param {
    bias_term: true
  }
}
layer {
  name: "block_3_1"
  type: "Eltwise"
  bottom: "conv2_2/linear/bn"
  bottom: "conv3_1/linear/bn"
  top: "block_3_1"
}
layer {
  name: "conv3_2/expand"
  type: "Convolution"
  bottom: "block_3_1"
  top: "conv3_2/expand"
  param {
    lr_mult: 1
    decay_mult: 1
  }
  convolution_param {
    num_output: 144
    bias_term: false
    kernel_size: 1
    weight_filler {
      type: "msra"
    }
  }
}
layer {
  name: "conv3_2/expand/bn"
  type: "BatchNorm"
  bottom: "conv3_2/expand"
  top: "conv3_2/expand/bn"
  batch_norm_param {
    use_global_stats: false
    eps: 1e-05
  }
}
layer {
  name: "conv3_2/expand/scale"
  type: "Scale"
  bottom: "conv3_2/expand/bn"
  top: "conv3_2/expand/bn"
  param {
    lr_mult: 1
    decay_mult: 0
  }
  param {
    lr_mult: 1
    decay_mult: 0
  }
  scale_param {
    bias_term: true
  }
}
layer {
  name: "relu3_2/expand"
  type: "ReLU"
  bottom: "conv3_2/expand/bn"
  top: "conv3_2/expand/bn"
}
layer {
  name: "conv3_2/dwise"
  type: "DepthwiseConvolution"
  bottom: "conv3_2/expand/bn"
  top: "conv3_2/dwise"
  param {
    lr_mult: 1
    decay_mult: 1
  }
  convolution_param {
    num_output: 144
    bias_term: false
    pad: 1
    kernel_size: 3
    group: 144
    stride: 2
    weight_filler {
      type: "msra"
    }
    engine: CAFFE
  }
}
layer {
  name: "conv3_2/dwise/bn"
  type: "BatchNorm"
  bottom: "conv3_2/dwise"
  top: "conv3_2/dwise/bn"
  batch_norm_param {
    use_global_stats: false
    eps: 1e-05
  }
}
layer {
  name: "conv3_2/dwise/scale"
  type: "Scale"
  bottom: "conv3_2/dwise/bn"
  top: "conv3_2/dwise/bn"
  param {
    lr_mult: 1
    decay_mult: 0
  }
  param {
    lr_mult: 1
    decay_mult: 0
  }
  scale_param {
    bias_term: true
  }
}
layer {
  name: "relu3_2/dwise"
  type: "ReLU"
  bottom: "conv3_2/dwise/bn"
  top: "conv3_2/dwise/bn"
}
layer {
  name: "conv3_2/linear"
  type: "Convolution"
  bottom: "conv3_2/dwise/bn"
  top: "conv3_2/linear"
  param {
    lr_mult: 1
    decay_mult: 1
  }
  convolution_param {
    num_output: 32
    bias_term: false
    kernel_size: 1
    weight_filler {
      type: "msra"
    }
  }
}
layer {
  name: "conv3_2/linear/bn"
  type: "BatchNorm"
  bottom: "conv3_2/linear"
  top: "conv3_2/linear/bn"
  batch_norm_param {
    use_global_stats: false
    eps: 1e-05
  }
}
layer {
  name: "conv3_2/linear/scale"
  type: "Scale"
  bottom: "conv3_2/linear/bn"
  top: "conv3_2/linear/bn"
  param {
    lr_mult: 1
    decay_mult: 0
  }
  param {
    lr_mult: 1
    decay_mult: 0
  }
  scale_param {
    bias_term: true
  }
}
layer {
  name: "conv4_1/expand"
  type: "Convolution"
  bottom: "conv3_2/linear/bn"
  top: "conv4_1/expand"
  param {
    lr_mult: 1
    decay_mult: 1
  }
  convolution_param {
    num_output: 192
    bias_term: false
    kernel_size: 1
    weight_filler {
      type: "msra"
    }
  }
}
layer {
  name: "conv4_1/expand/bn"
  type: "BatchNorm"
  bottom: "conv4_1/expand"
  top: "conv4_1/expand/bn"
  batch_norm_param {
    use_global_stats: false
    eps: 1e-05
  }
}
layer {
  name: "conv4_1/expand/scale"
  type: "Scale"
  bottom: "conv4_1/expand/bn"
  top: "conv4_1/expand/bn"
  param {
    lr_mult: 1
    decay_mult: 0
  }
  param {
    lr_mult: 1
    decay_mult: 0
  }
  scale_param {
    bias_term: true
  }
}
layer {
  name: "relu4_1/expand"
  type: "ReLU"
  bottom: "conv4_1/expand/bn"
  top: "conv4_1/expand/bn"
}
layer {
  name: "conv4_1/dwise"
  type: "DepthwiseConvolution"
  bottom: "conv4_1/expand/bn"
  top: "conv4_1/dwise"
  param {
    lr_mult: 1
    decay_mult: 1
  }
  convolution_param {
    num_output: 192
    bias_term: false
    pad: 1
    kernel_size: 3
    group: 192
    weight_filler {
      type: "msra"
    }
    engine: CAFFE
  }
}
layer {
  name: "conv4_1/dwise/bn"
  type: "BatchNorm"
  bottom: "conv4_1/dwise"
  top: "conv4_1/dwise/bn"
  batch_norm_param {
    use_global_stats: false
    eps: 1e-05
  }
}
layer {
  name: "conv4_1/dwise/scale"
  type: "Scale"
  bottom: "conv4_1/dwise/bn"
  top: "conv4_1/dwise/bn"
  param {
    lr_mult: 1
    decay_mult: 0
  }
  param {
    lr_mult: 1
    decay_mult: 0
  }
  scale_param {
    bias_term: true
  }
}
layer {
  name: "relu4_1/dwise"
  type: "ReLU"
  bottom: "conv4_1/dwise/bn"
  top: "conv4_1/dwise/bn"
}
layer {
  name: "conv4_1/linear"
  type: "Convolution"
  bottom: "conv4_1/dwise/bn"
  top: "conv4_1/linear"
  param {
    lr_mult: 1
    decay_mult: 1
  }
  convolution_param {
    num_output: 32
    bias_term: false
    kernel_size: 1
    weight_filler {
      type: "msra"
    }
  }
}
layer {
  name: "conv4_1/linear/bn"
  type: "BatchNorm"
  bottom: "conv4_1/linear"
  top: "conv4_1/linear/bn"
  batch_norm_param {
    use_global_stats: false
    eps: 1e-05
  }
}
layer {
  name: "conv4_1/linear/scale"
  type: "Scale"
  bottom: "conv4_1/linear/bn"
  top: "conv4_1/linear/bn"
  param {
    lr_mult: 1
    decay_mult: 0
  }
  param {
    lr_mult: 1
    decay_mult: 0
  }
  scale_param {
    bias_term: true
  }
}
layer {
  name: "block_4_1"
  type: "Eltwise"
  bottom: "conv3_2/linear/bn"
  bottom: "conv4_1/linear/bn"
  top: "block_4_1"
}
layer {
  name: "conv4_2/expand"
  type: "Convolution"
  bottom: "block_4_1"
  top: "conv4_2/expand"
  param {
    lr_mult: 1
    decay_mult: 1
  }
  convolution_param {
    num_output: 192
    bias_term: false
    kernel_size: 1
    weight_filler {
      type: "msra"
    }
  }
}
layer {
  name: "conv4_2/expand/bn"
  type: "BatchNorm"
  bottom: "conv4_2/expand"
  top: "conv4_2/expand/bn"
  batch_norm_param {
    use_global_stats: false
    eps: 1e-05
  }
}
layer {
  name: "conv4_2/expand/scale"
  type: "Scale"
  bottom: "conv4_2/expand/bn"
  top: "conv4_2/expand/bn"
  param {
    lr_mult: 1
    decay_mult: 0
  }
  param {
    lr_mult: 1
    decay_mult: 0
  }
  scale_param {
    bias_term: true
  }
}
layer {
  name: "relu4_2/expand"
  type: "ReLU"
  bottom: "conv4_2/expand/bn"
  top: "conv4_2/expand/bn"
}
layer {
  name: "conv4_2/dwise"
  type: "DepthwiseConvolution"
  bottom: "conv4_2/expand/bn"
  top: "conv4_2/dwise"
  param {
    lr_mult: 1
    decay_mult: 1
  }
  convolution_param {
    num_output: 192
    bias_term: false
    pad: 1
    kernel_size: 3
    group: 192
    weight_filler {
      type: "msra"
    }
    engine: CAFFE
  }
}
layer {
  name: "conv4_2/dwise/bn"
  type: "BatchNorm"
  bottom: "conv4_2/dwise"
  top: "conv4_2/dwise/bn"
  batch_norm_param {
    use_global_stats: false
    eps: 1e-05
  }
}
layer {
  name: "conv4_2/dwise/scale"
  type: "Scale"
  bottom: "conv4_2/dwise/bn"
  top: "conv4_2/dwise/bn"
  param {
    lr_mult: 1
    decay_mult: 0
  }
  param {
    lr_mult: 1
    decay_mult: 0
  }
  scale_param {
    bias_term: true
  }
}
layer {
  name: "relu4_2/dwise"
  type: "ReLU"
  bottom: "conv4_2/dwise/bn"
  top: "conv4_2/dwise/bn"
}
layer {
  name: "conv4_2/linear"
  type: "Convolution"
  bottom: "conv4_2/dwise/bn"
  top: "conv4_2/linear"
  param {
    lr_mult: 1
    decay_mult: 1
  }
  convolution_param {
    num_output: 32
    bias_term: false
    kernel_size: 1
    weight_filler {
      type: "msra"
    }
  }
}
layer {
  name: "conv4_2/linear/bn"
  type: "BatchNorm"
  bottom: "conv4_2/linear"
  top: "conv4_2/linear/bn"
  batch_norm_param {
    use_global_stats: false
    eps: 1e-05
  }
}
layer {
  name: "conv4_2/linear/scale"
  type: "Scale"
  bottom: "conv4_2/linear/bn"
  top: "conv4_2/linear/bn"
  param {
    lr_mult: 1
    decay_mult: 0
  }
  param {
    lr_mult: 1
    decay_mult: 0
  }
  scale_param {
    bias_term: true
  }
}
layer {
  name: "block_4_2"
  type: "Eltwise"
  bottom: "block_4_1"
  bottom: "conv4_2/linear/bn"
  top: "block_4_2"
}
layer {
  name: "conv4_3/expand"
  type: "Convolution"
  bottom: "block_4_2"
  top: "conv4_3/expand"
  param {
    lr_mult: 1
    decay_mult: 1
  }
  convolution_param {
    num_output: 192
    bias_term: false
    kernel_size: 1
    weight_filler {
      type: "msra"
    }
  }
}
layer {
  name: "conv4_3/expand/bn"
  type: "BatchNorm"
  bottom: "conv4_3/expand"
  top: "conv4_3/expand/bn"
  batch_norm_param {
    use_global_stats: false
    eps: 1e-05
  }
}
layer {
  name: "conv4_3/expand/scale"
  type: "Scale"
  bottom: "conv4_3/expand/bn"
  top: "conv4_3/expand/bn"
  param {
    lr_mult: 1
    decay_mult: 0
  }
  param {
    lr_mult: 1
    decay_mult: 0
  }
  scale_param {
    bias_term: true
  }
}
layer {
  name: "relu4_3/expand"
  type: "ReLU"
  bottom: "conv4_3/expand/bn"
  top: "conv4_3/expand/bn"
}
layer {
  name: "conv4_3/dwise"
  type: "DepthwiseConvolution"
  bottom: "conv4_3/expand/bn"
  top: "conv4_3/dwise"
  param {
    lr_mult: 1
    decay_mult: 1
  }
  convolution_param {
    num_output: 192
    bias_term: false
    pad: 1
    kernel_size: 3
    group: 192
    weight_filler {
      type: "msra"
    }
    engine: CAFFE
  }
}
layer {
  name: "conv4_3/dwise/bn"
  type: "BatchNorm"
  bottom: "conv4_3/dwise"
  top: "conv4_3/dwise/bn"
  batch_norm_param {
    use_global_stats: false
    eps: 1e-05
  }
}
layer {
  name: "conv4_3/dwise/scale"
  type: "Scale"
  bottom: "conv4_3/dwise/bn"
  top: "conv4_3/dwise/bn"
  param {
    lr_mult: 1
    decay_mult: 0
  }
  param {
    lr_mult: 1
    decay_mult: 0
  }
  scale_param {
    bias_term: true
  }
}
layer {
  name: "relu4_3/dwise"
  type: "ReLU"
  bottom: "conv4_3/dwise/bn"
  top: "conv4_3/dwise/bn"
}
layer {
  name: "conv4_3/linear"
  type: "Convolution"
  bottom: "conv4_3/dwise/bn"
  top: "conv4_3/linear"
  param {
    lr_mult: 1
    decay_mult: 1
  }
  convolution_param {
    num_output: 64
    bias_term: false
    kernel_size: 1
    weight_filler {
      type: "msra"
    }
  }
}
layer {
  name: "conv4_3/linear/bn"
  type: "BatchNorm"
  bottom: "conv4_3/linear"
  top: "conv4_3/linear/bn"
  batch_norm_param {
    use_global_stats: false
    eps: 1e-05
  }
}
layer {
  name: "conv4_3/linear/scale"
  type: "Scale"
  bottom: "conv4_3/linear/bn"
  top: "conv4_3/linear/bn"
  param {
    lr_mult: 1
    decay_mult: 0
  }
  param {
    lr_mult: 1
    decay_mult: 0
  }
  scale_param {
    bias_term: true
  }
}
layer {
  name: "conv4_4/expand"
  type: "Convolution"
  bottom: "conv4_3/linear/bn"
  top: "conv4_4/expand"
  param {
    lr_mult: 1
    decay_mult: 1
  }
  convolution_param {
    num_output: 384
    bias_term: false
    kernel_size: 1
    weight_filler {
      type: "msra"
    }
  }
}
layer {
  name: "conv4_4/expand/bn"
  type: "BatchNorm"
  bottom: "conv4_4/expand"
  top: "conv4_4/expand/bn"
  batch_norm_param {
    use_global_stats: false
    eps: 1e-05
  }
}
layer {
  name: "conv4_4/expand/scale"
  type: "Scale"
  bottom: "conv4_4/expand/bn"
  top: "conv4_4/expand/bn"
  param {
    lr_mult: 1
    decay_mult: 0
  }
  param {
    lr_mult: 1
    decay_mult: 0
  }
  scale_param {
    bias_term: true
  }
}
layer {
  name: "relu4_4/expand"
  type: "ReLU"
  bottom: "conv4_4/expand/bn"
  top: "conv4_4/expand/bn"
}
layer {
  name: "conv4_4/dwise"
  type: "DepthwiseConvolution"
  bottom: "conv4_4/expand/bn"
  top: "conv4_4/dwise"
  param {
    lr_mult: 1
    decay_mult: 1
  }
  convolution_param {
    num_output: 384
    bias_term: false
    pad: 1
    kernel_size: 3
    group: 384
    weight_filler {
      type: "msra"
    }
    engine: CAFFE
  }
}
layer {
  name: "conv4_4/dwise/bn"
  type: "BatchNorm"
  bottom: "conv4_4/dwise"
  top: "conv4_4/dwise/bn"
  batch_norm_param {
    use_global_stats: false
    eps: 1e-05
  }
}
layer {
  name: "conv4_4/dwise/scale"
  type: "Scale"
  bottom: "conv4_4/dwise/bn"
  top: "conv4_4/dwise/bn"
  param {
    lr_mult: 1
    decay_mult: 0
  }
  param {
    lr_mult: 1
    decay_mult: 0
  }
  scale_param {
    bias_term: true
  }
}
layer {
  name: "relu4_4/dwise"
  type: "ReLU"
  bottom: "conv4_4/dwise/bn"
  top: "conv4_4/dwise/bn"
}
layer {
  name: "conv4_4/linear"
  type: "Convolution"
  bottom: "conv4_4/dwise/bn"
  top: "conv4_4/linear"
  param {
    lr_mult: 1
    decay_mult: 1
  }
  convolution_param {
    num_output: 64
    bias_term: false
    kernel_size: 1
    weight_filler {
      type: "msra"
    }
  }
}
layer {
  name: "conv4_4/linear/bn"
  type: "BatchNorm"
  bottom: "conv4_4/linear"
  top: "conv4_4/linear/bn"
  batch_norm_param {
    use_global_stats: false
    eps: 1e-05
  }
}
layer {
  name: "conv4_4/linear/scale"
  type: "Scale"
  bottom: "conv4_4/linear/bn"
  top: "conv4_4/linear/bn"
  param {
    lr_mult: 1
    decay_mult: 0
  }
  param {
    lr_mult: 1
    decay_mult: 0
  }
  scale_param {
    bias_term: true
  }
}
layer {
  name: "block_4_4"
  type: "Eltwise"
  bottom: "conv4_3/linear/bn"
  bottom: "conv4_4/linear/bn"
  top: "block_4_4"
}
layer {
  name: "conv4_5/expand"
  type: "Convolution"
  bottom: "block_4_4"
  top: "conv4_5/expand"
  param {
    lr_mult: 1
    decay_mult: 1
  }
  convolution_param {
    num_output: 384
    bias_term: false
    kernel_size: 1
    weight_filler {
      type: "msra"
    }
  }
}
layer {
  name: "conv4_5/expand/bn"
  type: "BatchNorm"
  bottom: "conv4_5/expand"
  top: "conv4_5/expand/bn"
  batch_norm_param {
    use_global_stats: false
    eps: 1e-05
  }
}
layer {
  name: "conv4_5/expand/scale"
  type: "Scale"
  bottom: "conv4_5/expand/bn"
  top: "conv4_5/expand/bn"
  param {
    lr_mult: 1
    decay_mult: 0
  }
  param {
    lr_mult: 1
    decay_mult: 0
  }
  scale_param {
    bias_term: true
  }
}
layer {
  name: "relu4_5/expand"
  type: "ReLU"
  bottom: "conv4_5/expand/bn"
  top: "conv4_5/expand/bn"
}
layer {
  name: "conv4_5/dwise"
  type: "DepthwiseConvolution"
  bottom: "conv4_5/expand/bn"
  top: "conv4_5/dwise"
  param {
    lr_mult: 1
    decay_mult: 1
  }
  convolution_param {
    num_output: 384
    bias_term: false
    pad: 1
    kernel_size: 3
    group: 384
    weight_filler {
      type: "msra"
    }
    engine: CAFFE
  }
}
layer {
  name: "conv4_5/dwise/bn"
  type: "BatchNorm"
  bottom: "conv4_5/dwise"
  top: "conv4_5/dwise/bn"
  batch_norm_param {
    use_global_stats: false
    eps: 1e-05
  }
}
layer {
  name: "conv4_5/dwise/scale"
  type: "Scale"
  bottom: "conv4_5/dwise/bn"
  top: "conv4_5/dwise/bn"
  param {
    lr_mult: 1
    decay_mult: 0
  }
  param {
    lr_mult: 1
    decay_mult: 0
  }
  scale_param {
    bias_term: true
  }
}
layer {
  name: "relu4_5/dwise"
  type: "ReLU"
  bottom: "conv4_5/dwise/bn"
  top: "conv4_5/dwise/bn"
}
layer {
  name: "conv4_5/linear"
  type: "Convolution"
  bottom: "conv4_5/dwise/bn"
  top: "conv4_5/linear"
  param {
    lr_mult: 1
    decay_mult: 1
  }
  convolution_param {
    num_output: 64
    bias_term: false
    kernel_size: 1
    weight_filler {
      type: "msra"
    }
  }
}
layer {
  name: "conv4_5/linear/bn"
  type: "BatchNorm"
  bottom: "conv4_5/linear"
  top: "conv4_5/linear/bn"
  batch_norm_param {
    use_global_stats: false
    eps: 1e-05
  }
}
layer {
  name: "conv4_5/linear/scale"
  type: "Scale"
  bottom: "conv4_5/linear/bn"
  top: "conv4_5/linear/bn"
  param {
    lr_mult: 1
    decay_mult: 0
  }
  param {
    lr_mult: 1
    decay_mult: 0
  }
  scale_param {
    bias_term: true
  }
}
layer {
  name: "block_4_5"
  type: "Eltwise"
  bottom: "block_4_4"
  bottom: "conv4_5/linear/bn"
  top: "block_4_5"
}
layer {
  name: "conv4_6/expand"
  type: "Convolution"
  bottom: "block_4_5"
  top: "conv4_6/expand"
  param {
    lr_mult: 1
    decay_mult: 1
  }
  convolution_param {
    num_output: 384
    bias_term: false
    kernel_size: 1
    weight_filler {
      type: "msra"
    }
  }
}
layer {
  name: "conv4_6/expand/bn"
  type: "BatchNorm"
  bottom: "conv4_6/expand"
  top: "conv4_6/expand/bn"
  batch_norm_param {
    use_global_stats: false
    eps: 1e-05
  }
}
layer {
  name: "conv4_6/expand/scale"
  type: "Scale"
  bottom: "conv4_6/expand/bn"
  top: "conv4_6/expand/bn"
  param {
    lr_mult: 1
    decay_mult: 0
  }
  param {
    lr_mult: 1
    decay_mult: 0
  }
  scale_param {
    bias_term: true
  }
}
layer {
  name: "relu4_6/expand"
  type: "ReLU"
  bottom: "conv4_6/expand/bn"
  top: "conv4_6/expand/bn"
}
layer {
  name: "conv4_6/dwise"
  type: "DepthwiseConvolution"
  bottom: "conv4_6/expand/bn"
  top: "conv4_6/dwise"
  param {
    lr_mult: 1
    decay_mult: 1
  }
  convolution_param {
    num_output: 384
    bias_term: false
    pad: 1
    kernel_size: 3
    group: 384
    weight_filler {
      type: "msra"
    }
    engine: CAFFE
  }
}
layer {
  name: "conv4_6/dwise/bn"
  type: "BatchNorm"
  bottom: "conv4_6/dwise"
  top: "conv4_6/dwise/bn"
  batch_norm_param {
    use_global_stats: false
    eps: 1e-05
  }
}
layer {
  name: "conv4_6/dwise/scale"
  type: "Scale"
  bottom: "conv4_6/dwise/bn"
  top: "conv4_6/dwise/bn"
  param {
    lr_mult: 1
    decay_mult: 0
  }
  param {
    lr_mult: 1
    decay_mult: 0
  }
  scale_param {
    bias_term: true
  }
}
layer {
  name: "relu4_6/dwise"
  type: "ReLU"
  bottom: "conv4_6/dwise/bn"
  top: "conv4_6/dwise/bn"
}
layer {
  name: "conv4_6/linear"
  type: "Convolution"
  bottom: "conv4_6/dwise/bn"
  top: "conv4_6/linear"
  param {
    lr_mult: 1
    decay_mult: 1
  }
  convolution_param {
    num_output: 64
    bias_term: false
    kernel_size: 1
    weight_filler {
      type: "msra"
    }
  }
}
layer {
  name: "conv4_6/linear/bn"
  type: "BatchNorm"
  bottom: "conv4_6/linear"
  top: "conv4_6/linear/bn"
  batch_norm_param {
    use_global_stats: false
    eps: 1e-05
  }
}
layer {
  name: "conv4_6/linear/scale"
  type: "Scale"
  bottom: "conv4_6/linear/bn"
  top: "conv4_6/linear/bn"
  param {
    lr_mult: 1
    decay_mult: 0
  }
  param {
    lr_mult: 1
    decay_mult: 0
  }
  scale_param {
    bias_term: true
  }
}
layer {
  name: "block_4_6"
  type: "Eltwise"
  bottom: "block_4_5"
  bottom: "conv4_6/linear/bn"
  top: "block_4_6"
}
layer {
  name: "conv4_7/expand"
  type: "Convolution"
  bottom: "block_4_6"
  top: "conv4_7/expand"
  param {
    lr_mult: 1
    decay_mult: 1
  }
  convolution_param {
    num_output: 384
    bias_term: false
    kernel_size: 1
    weight_filler {
      type: "msra"
    }
  }
}
layer {
  name: "conv4_7/expand/bn"
  type: "BatchNorm"
  bottom: "conv4_7/expand"
  top: "conv4_7/expand/bn"
  batch_norm_param {
    use_global_stats: false
    eps: 1e-05
  }
}
layer {
  name: "conv4_7/expand/scale"
  type: "Scale"
  bottom: "conv4_7/expand/bn"
  top: "conv4_7/expand/bn"
  param {
    lr_mult: 1
    decay_mult: 0
  }
  param {
    lr_mult: 1
    decay_mult: 0
  }
  scale_param {
    bias_term: true
  }
}
layer {
  name: "relu4_7/expand"
  type: "ReLU"
  bottom: "conv4_7/expand/bn"
  top: "conv4_7/expand/bn"
}
layer {
  name: "loss1_conv1"
  type: "Convolution"
  bottom: "block_4_6"
  top: "loss1_conv1"
  param {
    lr_mult: 1
    decay_mult: 1
  }
  param {
    lr_mult: 2
    decay_mult: 0
  }
  convolution_param {
    num_output: 64
    pad: 1
    kernel_size: 3
    weight_filler {
      type: "gaussian"
      std: 0.01
    }
    bias_filler {
      type: "constant"
    }
  }
}
layer {
  name: "loss_relu1"
  type: "ReLU"
  bottom: "loss1_conv1"
  top: "loss1_conv1"
}
layer {
  name: "LFCN_1_5x5"
  type: "Convolution"
  bottom: "loss1_conv1"
  top: "LFCN_1_5x5"
  param {
    lr_mult: 1
    decay_mult: 1
  }
  param {
    lr_mult: 2
    decay_mult: 0
  }
  convolution_param {
    num_output: 9
    pad: 2
    kernel_size: 5
    weight_filler {
      type: "gaussian"
      std: 0.001
    }
    bias_filler {
      type: "constant"
    }
  }
}
layer {
  name: "detection_loss_1_5x5"
  type: "DetectionLoss"
  bottom: "LFCN_1_5x5"
  bottom: "label_1_5x5"
  top: "loss_1_5x5"
  loss_weight: 0.9
  detection_loss_param {
    cls_num: 5
    coord_num: 4
    lambda: 1
    field_h: 60
    field_w: 60
    downsample_rate: 8
    bb_smooth: true
    field_whr: 2
    field_xyr: 2
    bg_threshold: 0.2
    bg_multiple: 2
    sample_mode: "bootstrap"
    pos_neg_weighted: true
  }
}
layer {
  name: "detection_accuracy_1_5x5"
  type: "DetectionAccuracy"
  bottom: "LFCN_1_5x5"
  bottom: "label_1_5x5"
  top: "accuracy_1_5x5"
  top: "boxiou_1_5x5"
  detection_accuracy_param {
    cls_num: 5
    coord_num: 4
    field_h: 60
    field_w: 60
    downsample_rate: 8
    field_whr: 2
    field_xyr: 2
  }
}
layer {
  name: "LFCN_1_7x7"
  type: "Convolution"
  bottom: "loss1_conv1"
  top: "LFCN_1_7x7"
  param {
    lr_mult: 1
    decay_mult: 1
  }
  param {
    lr_mult: 2
    decay_mult: 0
  }
  convolution_param {
    num_output: 9
    pad: 3
    kernel_size: 7
    weight_filler {
      type: "gaussian"
      std: 0.001
    }
    bias_filler {
      type: "constant"
    }
  }
}
layer {
  name: "detection_loss_1_7x7"
  type: "DetectionLoss"
  bottom: "LFCN_1_7x7"
  bottom: "label_1_7x7"
  top: "loss_1_7x7"
  loss_weight: 0.9
  detection_loss_param {
    cls_num: 5
    coord_num: 4
    lambda: 1
    field_h: 84
    field_w: 84
    downsample_rate: 8
    bb_smooth: true
    field_whr: 2
    field_xyr: 2
    bg_threshold: 0.2
    bg_multiple: 2
    sample_mode: "bootstrap"
    pos_neg_weighted: true
  }
}
layer {
  n
I0102 22:18:28.792382 12172 layer_factory.hpp:77] Creating layer data
…
I0102 22:18:28.817602 12172 image_gt_data_layer.cpp:235] output label size 2 : 2,6,48,48
I0102 22:18:28.817643 12172 image_gt_data_layer.cpp:235] output label size 3 : 2,6,48,48
I0102 22:18:28.817682 12172 image_gt_data_layer.cpp:235] output label size 4 : 2,6,24,24
I0102 22:18:28.817718 12172 image_gt_data_layer.cpp:235] output label size 5 : 2,6,24,24
I0102 22:18:28.817754 12172 image_gt_data_layer.cpp:235] output label size 6 : 2,6,12,12
I0102 22:18:28.817790 12172 image_gt_data_layer.cpp:250] output gt boxes size: 1,7,1,1
I0102 22:18:28.846153 12172 net.cpp:150] Setting up data
I0102 22:18:28.846197 12172 net.cpp:157] Top shape: 2 3 768 768 (3538944)
I0102 22:18:28.846204 12172 net.cpp:157] Top shape: 2 6 96 96 (110592)
I0102 22:18:28.846209 12172 net.cpp:157] Top shape: 2 6 96 96 (110592)
I0102 22:18:28.846215 12172 net.cpp:157] Top shape: 2 6 48 48 (27648)
I0102 22:18:28.846218 12172 net.cpp:157] Top shape: 2 6 48 48 (27648)
I0102 22:18:28.846222 12172 net.cpp:157] Top shape: 2 6 24 24 (6912)
I0102 22:18:28.846227 12172 net.cpp:157] Top shape: 2 6 24 24 (6912)
I0102 22:18:28.846231 12172 net.cpp:157] Top shape: 2 6 12 12 (1728)
I0102 22:18:28.846236 12172 net.cpp:157] Top shape: 1 7 1 1 (7)
I0102 22:18:28.846240 12172 net.cpp:165] Memory required for data: 15323932
I0102 22:18:28.846251 12172 layer_factory.hpp:77] Creating layer label_1_5x5_data_1_split
I0102 22:18:28.846272 12172 net.cpp:100] Creating Layer label_1_5x5_data_1_split
I0102 22:18:28.846280 12172 net.cpp:434] label_1_5x5_data_1_split <- label_1_5x5
I0102 22:18:28.846297 12172 net.cpp:408] label_1_5x5_data_1_split -> label_1_5x5_data_1_split_0
I0102 22:18:28.846307 12172 net.cpp:408] label_1_5x5_data_1_split -> label_1_5x5_data_1_split_1
I0102 22:18:28.846348 12172 net.cpp:150] Setting up label_1_5x5_data_1_split
I0102 22:18:28.846359 12172 net.cpp:157] Top shape: 2 6 96 96 (110592)
I0102 22:18:28.846362 12172 net.cpp:157] Top shape: 2 6 96 96 (110592)
I0102 22:18:28.846366 12172 net.cpp:165] Memory required for data: 16208668
I0102 22:18:28.846369 12172 layer_factory.hpp:77] Creating layer label_1_7x7_data_2_split
I0102 22:18:28.846377 12172 net.cpp:100] Creating Layer label_1_7x7_data_2_split
I0102 22:18:28.846381 12172 net.cpp:434] label_1_7x7_data_2_split <- label_1_7x7
I0102 22:18:28.846387 12172 net.cpp:408] label_1_7x7_data_2_split -> label_1_7x7_data_2_split_0
I0102 22:18:28.846393 12172 net.cpp:408] label_1_7x7_data_2_split -> label_1_7x7_data_2_split_1
I0102 22:18:28.846590 12172 net.cpp:150] Setting up label_1_7x7_data_2_split
I0102 22:18:28.846640 12172 net.cpp:157] Top shape: 2 6 96 96 (110592)
I0102 22:18:28.846654 12172 net.cpp:157] Top shape: 2 6 96 96 (110592)
I0102 22:18:28.846663 12172 net.cpp:165] Memory required for data: 17093404
I0102 22:18:28.846676 12172 layer_factory.hpp:77] Creating layer label_2_5x5_data_3_split
I0102 22:18:28.846699 12172 net.cpp:100] Creating Layer label_2_5x5_data_3_split
I0102 22:18:28.846711 12172 net.cpp:434] label_2_5x5_data_3_split <- label_2_5x5
I0102 22:18:28.846727 12172 net.cpp:408] label_2_5x5_data_3_split -> label_2_5x5_data_3_split_0
I0102 22:18:28.846746 12172 net.cpp:408] label_2_5x5_data_3_split -> label_2_5x5_data_3_split_1
I0102 22:18:28.846835 12172 net.cpp:150] Setting up label_2_5x5_data_3_split
I0102 22:18:28.846853 12172 net.cpp:157] Top shape: 2 6 48 48 (27648)
I0102 22:18:28.846863 12172 net.cpp:157] Top shape: 2 6 48 48 (27648)
I0102 22:18:28.846870 12172 net.cpp:165] Memory required for data: 17314588
I0102 22:18:28.846879 12172 layer_factory.hpp:77] Creating layer label_2_7x7_data_4_split
I0102 22:18:28.846891 12172 net.cpp:100] Creating Layer label_2_7x7_data_4_split
I0102 22:18:28.846899 12172 net.cpp:434] label_2_7x7_data_4_split <- label_2_7x7
I0102 22:18:28.846910 12172 net.cpp:408] label_2_7x7_data_4_split -> label_2_7x7_data_4_split_0
I0102 22:18:28.846928 12172 net.cpp:408] label_2_7x7_data_4_split -> label_2_7x7_data_4_split_1
I0102 22:18:28.847045 12172 net.cpp:150] Setting up label_2_7x7_data_4_split
I0102 22:18:28.847079 12172 net.cpp:157] Top shape: 2 6 48 48 (27648)
I0102 22:18:28.847105 12172 net.cpp:157] Top shape: 2 6 48 48 (27648)
I0102 22:18:28.847123 12172 net.cpp:165] Memory required for data: 17535772
I0102 22:18:28.847137 12172 layer_factory.hpp:77] Creating layer label_3_5x5_data_5_split
I0102 22:18:28.847157 12172 net.cpp:100] Creating Layer label_3_5x5_data_5_split
I0102 22:18:28.847173 12172 net.cpp:434] label_3_5x5_data_5_split <- label_3_5x5
I0102 22:18:28.847193 12172 net.cpp:408] label_3_5x5_data_5_split -> label_3_5x5_data_5_split_0
I0102 22:18:28.847223 12172 net.cpp:408] label_3_5x5_data_5_split -> label_3_5x5_data_5_split_1
I0102 22:18:28.847331 12172 net.cpp:150] Setting up label_3_5x5_data_5_split
I0102 22:18:28.847347 12172 net.cpp:157] Top shape: 2 6 24 24 (6912)
I0102 22:18:28.847355 12172 net.cpp:157] Top shape: 2 6 24 24 (6912)
I0102 22:18:28.847362 12172 net.cpp:165] Memory required for data: 17591068
I0102 22:18:28.847370 12172 layer_factory.hpp:77] Creating layer label_3_7x7_data_6_split
I0102 22:18:28.847381 12172 net.cpp:100] Creating Layer label_3_7x7_data_6_split
I0102 22:18:28.847389 12172 net.cpp:434] label_3_7x7_data_6_split <- label_3_7x7
I0102 22:18:28.847400 12172 net.cpp:408] label_3_7x7_data_6_split -> label_3_7x7_data_6_split_0
I0102 22:18:28.847412 12172 net.cpp:408] label_3_7x7_data_6_split -> label_3_7x7_data_6_split_1
I0102 22:18:28.847468 12172 net.cpp:150] Setting up label_3_7x7_data_6_split
I0102 22:18:28.847481 12172 net.cpp:157] Top shape: 2 6 24 24 (6912)
I0102 22:18:28.847491 12172 net.cpp:157] Top shape: 2 6 24 24 (6912)
I0102 22:18:28.847497 12172 net.cpp:165] Memory required for data: 17646364
I0102 22:18:28.847504 12172 layer_factory.hpp:77] Creating layer label_4_5x5_data_7_split
I0102 22:18:28.847514 12172 net.cpp:100] Creating Layer label_4_5x5_data_7_split
I0102 22:18:28.847522 12172 net.cpp:434] label_4_5x5_data_7_split <- label_4_5x5
I0102 22:18:28.847532 12172 net.cpp:408] label_4_5x5_data_7_split -> label_4_5x5_data_7_split_0
I0102 22:18:28.847543 12172 net.cpp:408] label_4_5x5_data_7_split -> label_4_5x5_data_7_split_1
I0102 22:18:28.847599 12172 net.cpp:150] Setting up label_4_5x5_data_7_split
I0102 22:18:28.847612 12172 net.cpp:157] Top shape: 2 6 12 12 (1728)
I0102 22:18:28.847621 12172 net.cpp:157] Top shape: 2 6 12 12 (1728)
I0102 22:18:28.847628 12172 net.cpp:165] Memory required for data: 17660188
I0102 22:18:28.847635 12172 layer_factory.hpp:77] Creating layer conv1
I0102 22:18:28.847669 12172 net.cpp:100] Creating Layer conv1
I0102 22:18:28.847679 12172 net.cpp:434] conv1 <- data
I0102 22:18:28.847690 12172 net.cpp:408] conv1 -> conv1
I0102 22:18:29.077363 12172 net.cpp:150] Setting up conv1
I0102 22:18:29.077390 12172 net.cpp:157] Top shape: 2 32 384 384 (9437184)
I0102 22:18:29.077395 12172 net.cpp:165] Memory required for data: 55408924
I0102 22:18:29.077410 12172 layer_factory.hpp:77] Creating layer conv1/bn
I0102 22:18:29.077427 12172 net.cpp:100] Creating Layer conv1/bn
I0102 22:18:29.077432 12172 net.cpp:434] conv1/bn <- conv1
I0102 22:18:29.077440 12172 net.cpp:408] conv1/bn -> conv1/bn
I0102 22:18:29.077893 12172 net.cpp:150] Setting up conv1/bn
I0102 22:18:29.077900 12172 net.cpp:157] Top shape: 2 32 384 384 (9437184)
I0102 22:18:29.077904 12172 net.cpp:165] Memory required for data: 93157660
I0102 22:18:29.077915 12172 layer_factory.hpp:77] Creating layer conv1/scale
I0102 22:18:29.077924 12172 net.cpp:100] Creating Layer conv1/scale
I0102 22:18:29.077927 12172 net.cpp:434] conv1/scale <- conv1/bn
I0102 22:18:29.077934 12172 net.cpp:395] conv1/scale -> conv1/bn (in-place)
I0102 22:18:29.077970 12172 layer_factory.hpp:77] Creating layer conv1/scale
I0102 22:18:29.079285 12172 net.cpp:150] Setting up conv1/scale
I0102 22:18:29.079299 12172 net.cpp:157] Top shape: 2 32 384 384 (9437184)
I0102 22:18:29.079304 12172 net.cpp:165] Memory required for data: 130906396
I0102 22:18:29.079314 12172 layer_factory.hpp:77] Creating layer relu1
I0102 22:18:29.079321 12172 net.cpp:100] Creating Layer relu1
I0102 22:18:29.079325 12172 net.cpp:434] relu1 <- conv1/bn
I0102 22:18:29.079331 12172 net.cpp:395] relu1 -> conv1/bn (in-place)
I0102 22:18:29.079505 12172 net.cpp:150] Setting up relu1
I0102 22:18:29.079514 12172 net.cpp:157] Top shape: 2 32 384 384 (9437184)
I0102 22:18:29.079519 12172 net.cpp:165] Memory required for data: 168655132
I0102 22:18:29.079522 12172 layer_factory.hpp:77] Creating layer conv2_1/expand
I0102 22:18:29.079532 12172 net.cpp:100] Creating Layer conv2_1/expand
I0102 22:18:29.079536 12172 net.cpp:434] conv2_1/expand <- conv1/bn
I0102 22:18:29.079542 12172 net.cpp:408] conv2_1/expand -> conv2_1/expand
I0102 22:18:29.080667 12172 net.cpp:150] Setting up conv2_1/expand
I0102 22:18:29.080678 12172 net.cpp:157] Top shape: 2 32 384 384 (9437184)
I0102 22:18:29.080682 12172 net.cpp:165] Memory required for data: 206403868
I0102 22:18:29.080688 12172 layer_factory.hpp:77] Creating layer conv2_1/expand/bn
I0102 22:18:29.080694 12172 net.cpp:100] Creating Layer conv2_1/expand/bn
I0102 22:18:29.080698 12172 net.cpp:434] conv2_1/expand/bn <- conv2_1/expand
I0102 22:18:29.080703 12172 net.cpp:408] conv2_1/expand/bn -> conv2_1/expand/bn
I0102 22:18:29.080932 12172 net.cpp:150] Setting up conv2_1/expand/bn
I0102 22:18:29.080940 12172 net.cpp:157] Top shape: 2 32 384 384 (9437184)
I0102 22:18:29.080943 12172 net.cpp:165] Memory required for data: 244152604
I0102 22:18:29.080953 12172 layer_factory.hpp:77] Creating layer conv2_1/expand/scale
I0102 22:18:29.080960 12172 net.cpp:100] Creating Layer conv2_1/expand/scale
I0102 22:18:29.080965 12172 net.cpp:434] conv2_1/expand/scale <- conv2_1/expand/bn
I0102 22:18:29.080970 12172 net.cpp:395] conv2_1/expand/scale -> conv2_1/expand/bn (in-place)
I0102 22:18:29.080999 12172 layer_factory.hpp:77] Creating layer conv2_1/expand/scale
I0102 22:18:29.081979 12172 net.cpp:150] Setting up conv2_1/expand/scale
I0102 22:18:29.081992 12172 net.cpp:157] Top shape: 2 32 384 384 (9437184)
I0102 22:18:29.081996 12172 net.cpp:165] Memory required for data: 281901340
I0102 22:18:29.082002 12172 layer_factory.hpp:77] Creating layer relu2_1/expand
I0102 22:18:29.082008 12172 net.cpp:100] Creating Layer relu2_1/expand
I0102 22:18:29.082013 12172 net.cpp:434] relu2_1/expand <- conv2_1/expand/bn
I0102 22:18:29.082020 12172 net.cpp:395] relu2_1/expand -> conv2_1/expand/bn (in-place)
I0102 22:18:29.082171 12172 net.cpp:150] Setting up relu2_1/expand
I0102 22:18:29.082180 12172 net.cpp:157] Top shape: 2 32 384 384 (9437184)
I0102 22:18:29.082185 12172 net.cpp:165] Memory required for data: 319650076
I0102 22:18:29.082187 12172 layer_factory.hpp:77] Creating layer conv2_1/dwise
I0102 22:18:29.082197 12172 net.cpp:100] Creating Layer conv2_1/dwise
I0102 22:18:29.082201 12172 net.cpp:434] conv2_1/dwise <- conv2_1/expand/bn
I0102 22:18:29.082207 12172 net.cpp:408] conv2_1/dwise -> conv2_1/dwise
I0102 22:18:29.082365 12172 net.cpp:150] Setting up conv2_1/dwise
I0102 22:18:29.082371 12172 net.cpp:157] Top shape: 2 32 384 384 (9437184)
I0102 22:18:29.082376 12172 net.cpp:165] Memory required for data: 357398812
I0102 22:18:29.082381 12172 layer_factory.hpp:77] Creating layer conv2_1/dwise/bn
I0102 22:18:29.082386 12172 net.cpp:100] Creating Layer conv2_1/dwise/bn
I0102 22:18:29.082391 12172 net.cpp:434] conv2_1/dwise/bn <- conv2_1/dwise
I0102 22:18:29.082396 12172 net.cpp:408] conv2_1/dwise/bn -> conv2_1/dwise/bn
I0102 22:18:29.082623 12172 net.cpp:150] Setting up conv2_1/dwise/bn
I0102 22:18:29.082630 12172 net.cpp:157] Top shape: 2 32 384 384 (9437184)
I0102 22:18:29.082634 12172 net.cpp:165] Memory required for data: 395147548
I0102 22:18:29.082641 12172 layer_factory.hpp:77] Creating layer conv2_1/dwise/scale
I0102 22:18:29.082648 12172 net.cpp:100] Creating Layer conv2_1/dwise/scale
I0102 22:18:29.082653 12172 net.cpp:434] conv2_1/dwise/scale <- conv2_1/dwise/bn
I0102 22:18:29.082657 12172 net.cpp:395] conv2_1/dwise/scale -> conv2_1/dwise/bn (in-place)
I0102 22:18:29.082687 12172 layer_factory.hpp:77] Creating layer conv2_1/dwise/scale
I0102 22:18:29.083626 12172 net.cpp:150] Setting up conv2_1/dwise/scale
I0102 22:18:29.083642 12172 net.cpp:157] Top shape: 2 32 384 384 (9437184)
I0102 22:18:29.083647 12172 net.cpp:165] Memory required for data: 432896284
I0102 22:18:29.083657 12172 layer_factory.hpp:77] Creating layer relu2_1/dwise
I0102 22:18:29.083662 12172 net.cpp:100] Creating Layer relu2_1/dwise
I0102 22:18:29.083667 12172 net.cpp:434] relu2_1/dwise <- conv2_1/dwise/bn
I0102 22:18:29.083673 12172 net.cpp:395] relu2_1/dwise -> conv2_1/dwise/bn (in-place)
I0102 22:18:29.083824 12172 net.cpp:150] Setting up relu2_1/dwise
I0102 22:18:29.083833 12172 net.cpp:157] Top shape: 2 32 384 384 (9437184)
I0102 22:18:29.083837 12172 net.cpp:165] Memory required for data: 470645020
I0102 22:18:29.083840 12172 layer_factory.hpp:77] Creating layer conv2_1/linear
I0102 22:18:29.083849 12172 net.cpp:100] Creating Layer conv2_1/linear
I0102 22:18:29.083853 12172 net.cpp:434] conv2_1/linear <- conv2_1/dwise/bn
I0102 22:18:29.083859 12172 net.cpp:408] conv2_1/linear -> conv2_1/linear
I0102 22:18:29.085029 12172 net.cpp:150] Setting up conv2_1/linear
I0102 22:18:29.085042 12172 net.cpp:157] Top shape: 2 16 384 384 (4718592)
I0102 22:18:29.085045 12172 net.cpp:165] Memory required for data: 489519388
I0102 22:18:29.085050 12172 layer_factory.hpp:77] Creating layer conv2_1/linear/bn
I0102 22:18:29.085057 12172 net.cpp:100] Creating Layer conv2_1/linear/bn
I0102 22:18:29.085062 12172 net.cpp:434] conv2_1/linear/bn <- conv2_1/linear
I0102 22:18:29.085067 12172 net.cpp:408] conv2_1/linear/bn -> conv2_1/linear/bn
I0102 22:18:29.085320 12172 net.cpp:150] Setting up conv2_1/linear/bn
I0102 22:18:29.085328 12172 net.cpp:157] Top shape: 2 16 384 384 (4718592)
I0102 22:18:29.085331 12172 net.cpp:165] Memory required for data: 508393756
I0102 22:18:29.085338 12172 layer_factory.hpp:77] Creating layer conv2_1/linear/scale
I0102 22:18:29.085346 12172 net.cpp:100] Creating Layer conv2_1/linear/scale
I0102 22:18:29.085350 12172 net.cpp:434] conv2_1/linear/scale <- conv2_1/linear/bn
I0102 22:18:29.085355 12172 net.cpp:395] conv2_1/linear/scale -> conv2_1/linear/bn (in-place)
I0102 22:18:29.085387 12172 layer_factory.hpp:77] Creating layer conv2_1/linear/scale
I0102 22:18:29.086614 12172 net.cpp:150] Setting up conv2_1/linear/scale
I0102 22:18:29.086628 12172 net.cpp:157] Top shape: 2 16 384 384 (4718592)
I0102 22:18:29.086632 12172 net.cpp:165] Memory required for data: 527268124
I0102 22:18:29.086638 12172 layer_factory.hpp:77] Creating layer conv2_2/expand
I0102 22:18:29.086647 12172 net.cpp:100] Creating Layer conv2_2/expand
I0102 22:18:29.086652 12172 net.cpp:434] conv2_2/expand <- conv2_1/linear/bn
I0102 22:18:29.086658 12172 net.cpp:408] conv2_2/expand -> conv2_2/expand
I0102 22:18:29.087890 12172 net.cpp:150] Setting up conv2_2/expand
I0102 22:18:29.087903 12172 net.cpp:157] Top shape: 2 96 384 384 (28311552)
I0102 22:18:29.087908 12172 net.cpp:165] Memory required for data: 640514332
I0102 22:18:29.087913 12172 layer_factory.hpp:77] Creating layer conv2_2/expand/bn
I0102 22:18:29.087919 12172 net.cpp:100] Creating Layer conv2_2/expand/bn
I0102 22:18:29.087924 12172 net.cpp:434] conv2_2/expand/bn <- conv2_2/expand
I0102 22:18:29.087929 12172 net.cpp:408] conv2_2/expand/bn -> conv2_2/expand/bn
I0102 22:18:29.088198 12172 net.cpp:150] Setting up conv2_2/expand/bn
I0102 22:18:29.088208 12172 net.cpp:157] Top shape: 2 96 384 384 (28311552)
I0102 22:18:29.088212 12172 net.cpp:165] Memory required for data: 753760540
I0102 22:18:29.088222 12172 layer_factory.hpp:77] Creating layer conv2_2/expand/scale
I0102 22:18:29.088230 12172 net.cpp:100] Creating Layer conv2_2/expand/scale
I0102 22:18:29.088235 12172 net.cpp:434] conv2_2/expand/scale <- conv2_2/expand/bn
I0102 22:18:29.088240 12172 net.cpp:395] conv2_2/expand/scale -> conv2_2/expand/bn (in-place)
I0102 22:18:29.088284 12172 layer_factory.hpp:77] Creating layer conv2_2/expand/scale
I0102 22:18:29.089572 12172 net.cpp:150] Setting up conv2_2/expand/scale
I0102 22:18:29.089586 12172 net.cpp:157] Top shape: 2 96 384 384 (28311552)
I0102 22:18:29.089591 12172 net.cpp:165] Memory required for data: 867006748
I0102 22:18:29.089599 12172 layer_factory.hpp:77] Creating layer relu2_2/expand
I0102 22:18:29.089607 12172 net.cpp:100] Creating Layer relu2_2/expand
I0102 22:18:29.089610 12172 net.cpp:434] relu2_2/expand <- conv2_2/expand/bn
I0102 22:18:29.089615 12172 net.cpp:395] relu2_2/expand -> conv2_2/expand/bn (in-place)
I0102 22:18:29.089788 12172 net.cpp:150] Setting up relu2_2/expand
I0102 22:18:29.089797 12172 net.cpp:157] Top shape: 2 96 384 384 (28311552)
I0102 22:18:29.089800 12172 net.cpp:165] Memory required for data: 980252956
I0102 22:18:29.089803 12172 layer_factory.hpp:77] Creating layer conv2_2/dwise
I0102 22:18:29.089812 12172 net.cpp:100] Creating Layer conv2_2/dwise
I0102 22:18:29.089818 12172 net.cpp:434] conv2_2/dwise <- conv2_2/expand/bn
I0102 22:18:29.089823 12172 net.cpp:408] conv2_2/dwise -> conv2_2/dwise
I0102 22:18:29.090009 12172 net.cpp:150] Setting up conv2_2/dwise
I0102 22:18:29.090018 12172 net.cpp:157] Top shape: 2 96 192 192 (7077888)
I0102 22:18:29.090020 12172 net.cpp:165] Memory required for data: 1008564508
I0102 22:18:29.090025 12172 layer_factory.hpp:77] Creating layer conv2_2/dwise/bn
I0102 22:18:29.090030 12172 net.cpp:100] Creating Layer conv2_2/dwise/bn
I0102 22:18:29.090034 12172 net.cpp:434] conv2_2/dwise/bn <- conv2_2/dwise
I0102 22:18:29.090040 12172 net.cpp:408] conv2_2/dwise/bn -> conv2_2/dwise/bn
I0102 22:18:29.090242 12172 net.cpp:150] Setting up conv2_2/dwise/bn
I0102 22:18:29.090250 12172 net.cpp:157] Top shape: 2 96 192 192 (7077888)
I0102 22:18:29.090253 12172 net.cpp:165] Memory required for data: 1036876060
I0102 22:18:29.090265 12172 layer_factory.hpp:77] Creating layer conv2_2/dwise/scale
I0102 22:18:29.090272 12172 net.cpp:100] Creating Layer conv2_2/dwise/scale
I0102 22:18:29.090276 12172 net.cpp:434] conv2_2/dwise/scale <- conv2_2/dwise/bn
I0102 22:18:29.090281 12172 net.cpp:395] conv2_2/dwise/scale -> conv2_2/dwise/bn (in-place)
I0102 22:18:29.090317 12172 layer_factory.hpp:77] Creating layer conv2_2/dwise/scale
I0102 22:18:29.090560 12172 net.cpp:150] Setting up conv2_2/dwise/scale
I0102 22:18:29.090569 12172 net.cpp:157] Top shape: 2 96 192 192 (7077888)
I0102 22:18:29.090571 12172 net.cpp:165] Memory required for data: 1065187612
I0102 22:18:29.090576 12172 layer_factory.hpp:77] Creating layer relu2_2/dwise
I0102 22:18:29.090582 12172 net.cpp:100] Creating Layer relu2_2/dwise
I0102 22:18:29.090586 12172 net.cpp:434] relu2_2/dwise <- conv2_2/dwise/bn
I0102 22:18:29.090592 12172 net.cpp:395] relu2_2/dwise -> conv2_2/dwise/bn (in-place)
I0102 22:18:29.091040 12172 net.cpp:150] Setting up relu2_2/dwise
I0102 22:18:29.091053 12172 net.cpp:157] Top shape: 2 96 192 192 (7077888)
I0102 22:18:29.091056 12172 net.cpp:165] Memory required for data: 1093499164
I0102 22:18:29.091060 12172 layer_factory.hpp:77] Creating layer conv2_2/linear
I0102 22:18:29.091069 12172 net.cpp:100] Creating Layer conv2_2/linear
I0102 22:18:29.091074 12172 net.cpp:434] conv2_2/linear <- conv2_2/dwise/bn
I0102 22:18:29.091080 12172 net.cpp:408] conv2_2/linear -> conv2_2/linear
I0102 22:18:29.092103 12172 net.cpp:150] Setting up conv2_2/linear
I0102 22:18:29.092115 12172 net.cpp:157] Top shape: 2 24 192 192 (1769472)
I0102 22:18:29.092119 12172 net.cpp:165] Memory required for data: 1100577052
I0102 22:18:29.092124 12172 layer_factory.hpp:77] Creating layer conv2_2/linear/bn
I0102 22:18:29.092133 12172 net.cpp:100] Creating Layer conv2_2/linear/bn
I0102 22:18:29.092137 12172 net.cpp:434] conv2_2/linear/bn <- conv2_2/linear
I0102 22:18:29.092144 12172 net.cpp:408] conv2_2/linear/bn -> conv2_2/linear/bn
I0102 22:18:29.092353 12172 net.cpp:150] Setting up conv2_2/linear/bn
I0102 22:18:29.092360 12172 net.cpp:157] Top shape: 2 24 192 192 (1769472)
I0102 22:18:29.092365 12172 net.cpp:165] Memory required for data: 1107654940
I0102 22:18:29.092370 12172 layer_factory.hpp:77] Creating layer conv2_2/linear/scale
I0102 22:18:29.092377 12172 net.cpp:100] Creating Layer conv2_2/linear/scale
I0102 22:18:29.092381 12172 net.cpp:434] conv2_2/linear/scale <- conv2_2/linear/bn
I0102 22:18:29.092386 12172 net.cpp:395] conv2_2/linear/scale -> conv2_2/linear/bn (in-place)
I0102 22:18:29.092419 12172 layer_factory.hpp:77] Creating layer conv2_2/linear/scale
I0102 22:18:29.092556 12172 net.cpp:150] Setting up conv2_2/linear/scale
I0102 22:18:29.092563 12172 net.cpp:157] Top shape: 2 24 192 192 (1769472)
I0102 22:18:29.092566 12172 net.cpp:165] Memory required for data: 1114732828
I0102 22:18:29.092571 12172 layer_factory.hpp:77] Creating layer conv2_2/linear/bn_conv2_2/linear/scale_0_split
I0102 22:18:29.092578 12172 net.cpp:100] Creating Layer conv2_2/linear/bn_conv2_2/linear/scale_0_split
I0102 22:18:29.092582 12172 net.cpp:434] conv2_2/linear/bn_conv2_2/linear/scale_0_split <- conv2_2/linear/bn
I0102 22:18:29.092587 12172 net.cpp:408] conv2_2/linear/bn_conv2_2/linear/scale_0_split -> conv2_2/linear/bn_conv2_2/linear/scale_0_split_0
I0102 22:18:29.092592 12172 net.cpp:408] conv2_2/linear/bn_conv2_2/linear/scale_0_split -> conv2_2/linear/bn_conv2_2/linear/scale_0_split_1
I0102 22:18:29.092623 12172 net.cpp:150] Setting up conv2_2/linear/bn_conv2_2/linear/scale_0_split
I0102 22:18:29.092629 12172 net.cpp:157] Top shape: 2 24 192 192 (1769472)
I0102 22:18:29.092634 12172 net.cpp:157] Top shape: 2 24 192 192 (1769472)
I0102 22:18:29.092636 12172 net.cpp:165] Memory required for data: 1128888604
I0102 22:18:29.092640 12172 layer_factory.hpp:77] Creating layer conv3_1/expand
I0102 22:18:29.092648 12172 net.cpp:100] Creating Layer conv3_1/expand
I0102 22:18:29.092653 12172 net.cpp:434] conv3_1/expand <- conv2_2/linear/bn_conv2_2/linear/scale_0_split_0
I0102 22:18:29.092658 12172 net.cpp:408] conv3_1/expand -> conv3_1/expand
I0102 22:18:29.093407 12172 net.cpp:150] Setting up conv3_1/expand
I0102 22:18:29.093420 12172 net.cpp:157] Top shape: 2 144 192 192 (10616832)
I0102 22:18:29.093423 12172 net.cpp:165] Memory required for data: 1171355932
I0102 22:18:29.093430 12172 layer_factory.hpp:77] Creating layer conv3_1/expand/bn
I0102 22:18:29.093437 12172 net.cpp:100] Creating Layer conv3_1/expand/bn
I0102 22:18:29.093442 12172 net.cpp:434] conv3_1/expand/bn <- conv3_1/expand
I0102 22:18:29.093448 12172 net.cpp:408] conv3_1/expand/bn -> conv3_1/expand/bn
I0102 22:18:29.093652 12172 net.cpp:150] Setting up conv3_1/expand/bn
I0102 22:18:29.093659 12172 net.cpp:157] Top shape: 2 144 192 192 (10616832)
I0102 22:18:29.093662 12172 net.cpp:165] Memory required for data: 1213823260
I0102 22:18:29.093668 12172 layer_factory.hpp:77] Creating layer conv3_1/expand/scale
I0102 22:18:29.093674 12172 net.cpp:100] Creating Layer conv3_1/expand/scale
I0102 22:18:29.093677 12172 net.cpp:434] conv3_1/expand/scale <- conv3_1/expand/bn
I0102 22:18:29.093683 12172 net.cpp:395] conv3_1/expand/scale -> conv3_1/expand/bn (in-place)
I0102 22:18:29.093715 12172 layer_factory.hpp:77] Creating layer conv3_1/expand/scale
I0102 22:18:29.093960 12172 net.cpp:150] Setting up conv3_1/expand/scale
I0102 22:18:29.093966 12172 net.cpp:157] Top shape: 2 144 192 192 (10616832)
I0102 22:18:29.093971 12172 net.cpp:165] Memory required for data: 1256290588
I0102 22:18:29.093976 12172 layer_factory.hpp:77] Creating layer relu3_1/expand
I0102 22:18:29.093981 12172 net.cpp:100] Creating Layer relu3_1/expand
I0102 22:18:29.093983 12172 net.cpp:434] relu3_1/expand <- conv3_1/expand/bn
I0102 22:18:29.093988 12172 net.cpp:395] relu3_1/expand -> conv3_1/expand/bn (in-place)
I0102 22:18:29.094457 12172 net.cpp:150] Setting up relu3_1/expand
I0102 22:18:29.094471 12172 net.cpp:157] Top shape: 2 144 192 192 (10616832)
I0102 22:18:29.094475 12172 net.cpp:165] Memory required for data: 1298757916
I0102 22:18:29.094480 12172 layer_factory.hpp:77] Creating layer conv3_1/dwise
I0102 22:18:29.094485 12172 net.cpp:100] Creating Layer conv3_1/dwise
I0102 22:18:29.094491 12172 net.cpp:434] conv3_1/dwise <- conv3_1/expand/bn
I0102 22:18:29.094496 12172 net.cpp:408] conv3_1/dwise -> conv3_1/dwise
I0102 22:18:29.094693 12172 net.cpp:150] Setting up conv3_1/dwise
I0102 22:18:29.094702 12172 net.cpp:157] Top shape: 2 144 192 192 (10616832)
I0102 22:18:29.094704 12172 net.cpp:165] Memory required for data: 1341225244
I0102 22:18:29.094708 12172 layer_factory.hpp:77] Creating layer conv3_1/dwise/bn
I0102 22:18:29.094714 12172 net.cpp:100] Creating Layer conv3_1/dwise/bn
I0102 22:18:29.094718 12172 net.cpp:434] conv3_1/dwise/bn <- conv3_1/dwise
I0102 22:18:29.094724 12172 net.cpp:408] conv3_1/dwise/bn -> conv3_1/dwise/bn
I0102 22:18:29.095700 12172 net.cpp:150] Setting up conv3_1/dwise/bn
I0102 22:18:29.095712 12172 net.cpp:157] Top shape: 2 144 192 192 (10616832)
I0102 22:18:29.095715 12172 net.cpp:165] Memory required for data: 1383692572
I0102 22:18:29.095723 12172 layer_factory.hpp:77] Creating layer conv3_1/dwise/scale
I0102 22:18:29.095731 12172 net.cpp:100] Creating Layer conv3_1/dwise/scale
I0102 22:18:29.095734 12172 net.cpp:434] conv3_1/dwise/scale <- conv3_1/dwise/bn
I0102 22:18:29.095741 12172 net.cpp:395] conv3_1/dwise/scale -> conv3_1/dwise/bn (in-place)
I0102 22:18:29.095775 12172 layer_factory.hpp:77] Creating layer conv3_1/dwise/scale
I0102 22:18:29.095902 12172 net.cpp:150] Setting up conv3_1/dwise/scale
I0102 22:18:29.095911 12172 net.cpp:157] Top shape: 2 144 192 192 (10616832)
I0102 22:18:29.095913 12172 net.cpp:165] Memory required for data: 1426159900
I0102 22:18:29.095918 12172 layer_factory.hpp:77] Creating layer relu3_1/dwise
I0102 22:18:29.095923 12172 net.cpp:100] Creating Layer relu3_1/dwise
I0102 22:18:29.095927 12172 net.cpp:434] relu3_1/dwise <- conv3_1/dwise/bn
I0102 22:18:29.095932 12172 net.cpp:395] relu3_1/dwise -> conv3_1/dwise/bn (in-place)
I0102 22:18:29.096091 12172 net.cpp:150] Setting up relu3_1/dwise
I0102 22:18:29.096101 12172 net.cpp:157] Top shape: 2 144 192 192 (10616832)
I0102 22:18:29.096103 12172 net.cpp:165] Memory required for data: 1468627228
I0102 22:18:29.096107 12172 layer_factory.hpp:77] Creating layer conv3_1/linear
I0102 22:18:29.096115 12172 net.cpp:100] Creating Layer conv3_1/linear
I0102 22:18:29.096120 12172 net.cpp:434] conv3_1/linear <- conv3_1/dwise/bn
I0102 22:18:29.096125 12172 net.cpp:408] conv3_1/linear -> conv3_1/linear
I0102 22:18:29.097132 12172 net.cpp:150] Setting up conv3_1/linear
I0102 22:18:29.097146 12172 net.cpp:157] Top shape: 2 24 192 192 (1769472)
I0102 22:18:29.097148 12172 net.cpp:165] Memory required for data: 1475705116
I0102 22:18:29.097153 12172 layer_factory.hpp:77] Creating layer conv3_1/linear/bn
I0102 22:18:29.097160 12172 net.cpp:100] Creating Layer conv3_1/linear/bn
I0102 22:18:29.097164 12172 net.cpp:434] conv3_1/linear/bn <- conv3_1/linear
I0102 22:18:29.097169 12172 net.cpp:408] conv3_1/linear/bn -> conv3_1/linear/bn
I0102 22:18:29.097373 12172 net.cpp:150] Setting up conv3_1/linear/bn
I0102 22:18:29.097380 12172 net.cpp:157] Top shape: 2 24 192 192 (1769472)
I0102 22:18:29.097383 12172 net.cpp:165] Memory required for data: 1482783004
I0102 22:18:29.097390 12172 layer_factory.hpp:77] Creating layer conv3_1/linear/scale
I0102 22:18:29.097396 12172 net.cpp:100] Creating Layer conv3_1/linear/scale
I0102 22:18:29.097400 12172 net.cpp:434] conv3_1/linear/scale <- conv3_1/linear/bn
I0102 22:18:29.097406 12172 net.cpp:395] conv3_1/linear/scale -> conv3_1/linear/bn (in-place)
I0102 22:18:29.097440 12172 layer_factory.hpp:77] Creating layer conv3_1/linear/scale
I0102 22:18:29.097674 12172 net.cpp:150] Setting up conv3_1/linear/scale
I0102 22:18:29.097681 12172 net.cpp:157] Top shape: 2 24 192 192 (1769472)
I0102 22:18:29.097684 12172 net.cpp:165] Memory required for data: 1489860892
I0102 22:18:29.097690 12172 layer_factory.hpp:77] Creating layer block_3_1
I0102 22:18:29.097700 12172 net.cpp:100] Creating Layer block_3_1
I0102 22:18:29.097705 12172 net.cpp:434] block_3_1 <- conv2_2/linear/bn_conv2_2/linear/scale_0_split_1
I0102 22:18:29.097709 12172 net.cpp:434] block_3_1 <- conv3_1/linear/bn
I0102 22:18:29.097714 12172 net.cpp:408] block_3_1 -> block_3_1
I0102 22:18:29.097738 12172 net.cpp:150] Setting up block_3_1
I0102 22:18:29.097743 12172 net.cpp:157] Top shape: 2 24 192 192 (1769472)
I0102 22:18:29.097746 12172 net.cpp:165] Memory required for data: 1496938780
I0102 22:18:29.097750 12172 layer_factory.hpp:77] Creating layer conv3_2/expand
I0102 22:18:29.097757 12172 net.cpp:100] Creating Layer conv3_2/expand
I0102 22:18:29.097760 12172 net.cpp:434] conv3_2/expand <- block_3_1
I0102 22:18:29.097766 12172 net.cpp:408] conv3_2/expand -> conv3_2/expand
I0102 22:18:29.098831 12172 net.cpp:150] Setting up conv3_2/expand
I0102 22:18:29.098845 12172 net.cpp:157] Top shape: 2 144 192 192 (10616832)
I0102 22:18:29.098848 12172 net.cpp:165] Memory required for data: 1539406108
I0102 22:18:29.098853 12172 layer_factory.hpp:77] Creating layer conv3_2/expand/bn
I0102 22:18:29.098860 12172 net.cpp:100] Creating Layer conv3_2/expand/bn
I0102 22:18:29.098865 12172 net.cpp:434] conv3_2/expand/bn <- conv3_2/expand
I0102 22:18:29.098870 12172 net.cpp:408] conv3_2/expand/bn -> conv3_2/expand/bn
I0102 22:18:29.099066 12172 net.cpp:150] Setting up conv3_2/expand/bn
I0102 22:18:29.099074 12172 net.cpp:157] Top shape: 2 144 192 192 (10616832)
I0102 22:18:29.099077 12172 net.cpp:165] Memory required for data: 1581873436
I0102 22:18:29.099084 12172 layer_factory.hpp:77] Creating layer conv3_2/expand/scale
I0102 22:18:29.099092 12172 net.cpp:100] Creating Layer conv3_2/expand/scale
I0102 22:18:29.099095 12172 net.cpp:434] conv3_2/expand/scale <- conv3_2/expand/bn
I0102 22:18:29.099102 12172 net.cpp:395] conv3_2/expand/scale -> conv3_2/expand/bn (in-place)
I0102 22:18:29.099133 12172 layer_factory.hpp:77] Creating layer conv3_2/expand/scale
I0102 22:18:29.099370 12172 net.cpp:150] Setting up conv3_2/expand/scale
I0102 22:18:29.099378 12172 net.cpp:157] Top shape: 2 144 192 192 (10616832)
I0102 22:18:29.099381 12172 net.cpp:165] Memory required for data: 1624340764
I0102 22:18:29.099395 12172 layer_factory.hpp:77] Creating layer relu3_2/expand
I0102 22:18:29.099401 12172 net.cpp:100] Creating Layer relu3_2/expand
I0102 22:18:29.099406 12172 net.cpp:434] relu3_2/expand <- conv3_2/expand/bn
I0102 22:18:29.099409 12172 net.cpp:395] relu3_2/expand -> conv3_2/expand/bn (in-place)
I0102 22:18:29.099562 12172 net.cpp:150] Setting up relu3_2/expand
I0102 22:18:29.099570 12172 net.cpp:157] Top shape: 2 144 192 192 (10616832)
I0102 22:18:29.099573 12172 net.cpp:165] Memory required for data: 1666808092
I0102 22:18:29.099577 12172 layer_factory.hpp:77] Creating layer conv3_2/dwise
I0102 22:18:29.099591 12172 net.cpp:100] Creating Layer conv3_2/dwise
I0102 22:18:29.099598 12172 net.cpp:434] conv3_2/dwise <- conv3_2/expand/bn
I0102 22:18:29.099603 12172 net.cpp:408] conv3_2/dwise -> conv3_2/dwise
I0102 22:18:29.099797 12172 net.cpp:150] Setting up conv3_2/dwise
I0102 22:18:29.099804 12172 net.cpp:157] Top shape: 2 144 96 96 (2654208)
I0102 22:18:29.099807 12172 net.cpp:165] Memory required for data: 1677424924
I0102 22:18:29.099812 12172 layer_factory.hpp:77] Creating layer conv3_2/dwise/bn
I0102 22:18:29.099818 12172 net.cpp:100] Creating Layer conv3_2/dwise/bn
I0102 22:18:29.099823 12172 net.cpp:434] conv3_2/dwise/bn <- conv3_2/dwise
I0102 22:18:29.099828 12172 net.cpp:408] conv3_2/dwise/bn -> conv3_2/dwise/bn
I0102 22:18:29.100009 12172 net.cpp:150] Setting up conv3_2/dwise/bn
I0102 22:18:29.100016 12172 net.cpp:157] Top shape: 2 144 96 96 (2654208)
I0102 22:18:29.100020 12172 net.cpp:165] Memory required for data: 1688041756
I0102 22:18:29.100026 12172 layer_factory.hpp:77] Creating layer conv3_2/dwise/scale
I0102 22:18:29.100033 12172 net.cpp:100] Creating Layer conv3_2/dwise/scale
I0102 22:18:29.100036 12172 net.cpp:434] conv3_2/dwise/scale <- conv3_2/dwise/bn
I0102 22:18:29.100042 12172 net.cpp:395] conv3_2/dwise/scale -> conv3_2/dwise/bn (in-place)
I0102 22:18:29.100077 12172 layer_factory.hpp:77] Creating layer conv3_2/dwise/scale
I0102 22:18:29.100208 12172 net.cpp:150] Setting up conv3_2/dwise/scale
I0102 22:18:29.100214 12172 net.cpp:157] Top shape: 2 144 96 96 (2654208)
I0102 22:18:29.100219 12172 net.cpp:165] Memory required for data: 1698658588
I0102 22:18:29.100224 12172 layer_factory.hpp:77] Creating layer relu3_2/dwise
I0102 22:18:29.100229 12172 net.cpp:100] Creating Layer relu3_2/dwise
I0102 22:18:29.100232 12172 net.cpp:434] relu3_2/dwise <- conv3_2/dwise/bn
I0102 22:18:29.100237 12172 net.cpp:395] relu3_2/dwise -> conv3_2/dwise/bn (in-place)
I0102 22:18:29.100386 12172 net.cpp:150] Setting up relu3_2/dwise
I0102 22:18:29.100394 12172 net.cpp:157] Top shape: 2 144 96 96 (2654208)
I0102 22:18:29.100397 12172 net.cpp:165] Memory required for data: 1709275420
I0102 22:18:29.100401 12172 layer_factory.hpp:77] Creating layer conv3_2/linear
I0102 22:18:29.100410 12172 net.cpp:100] Creating Layer conv3_2/linear
I0102 22:18:29.100415 12172 net.cpp:434] conv3_2/linear <- conv3_2/dwise/bn
I0102 22:18:29.100420 12172 net.cpp:408] conv3_2/linear -> conv3_2/linear
I0102 22:18:29.101454 12172 net.cpp:150] Setting up conv3_2/linear
I0102 22:18:29.101466 12172 net.cpp:157] Top shape: 2 32 96 96 (589824)
I0102 22:18:29.101469 12172 net.cpp:165] Memory required for data: 1711634716
I0102 22:18:29.101475 12172 layer_factory.hpp:77] Creating layer conv3_2/linear/bn
I0102 22:18:29.101481 12172 net.cpp:100] Creating Layer conv3_2/linear/bn
I0102 22:18:29.101485 12172 net.cpp:434] conv3_2/linear/bn <- conv3_2/linear
I0102 22:18:29.101492 12172 net.cpp:408] conv3_2/linear/bn -> conv3_2/linear/bn
I0102 22:18:29.101686 12172 net.cpp:150] Setting up conv3_2/linear/bn
I0102 22:18:29.101693 12172 net.cpp:157] Top shape: 2 32 96 96 (589824)
I0102 22:18:29.101696 12172 net.cpp:165] Memory required for data: 1713994012
I0102 22:18:29.101702 12172 layer_factory.hpp:77] Creating layer conv3_2/linear/scale
I0102 22:18:29.101709 12172 net.cpp:100] Creating Layer conv3_2/linear/scale
I0102 22:18:29.101713 12172 net.cpp:434] conv3_2/linear/scale <- conv3_2/linear/bn
I0102 22:18:29.101717 12172 net.cpp:395] conv3_2/linear/scale -> conv3_2/linear/bn (in-place)
I0102 22:18:29.101752 12172 layer_factory.hpp:77] Creating layer conv3_2/linear/scale
I0102 22:18:29.101881 12172 net.cpp:150] Setting up conv3_2/linear/scale
I0102 22:18:29.101888 12172 net.cpp:157] Top shape: 2 32 96 96 (589824)
I0102 22:18:29.101891 12172 net.cpp:165] Memory required for data: 1716353308
I0102 22:18:29.101897 12172 layer_factory.hpp:77] Creating layer conv3_2/linear/bn_conv3_2/linear/scale_0_split
I0102 22:18:29.101903 12172 net.cpp:100] Creating Layer conv3_2/linear/bn_conv3_2/linear/scale_0_split
I0102 22:18:29.101907 12172 net.cpp:434] conv3_2/linear/bn_conv3_2/linear/scale_0_split <- conv3_2/linear/bn
I0102 22:18:29.101912 12172 net.cpp:408] conv3_2/linear/bn_conv3_2/linear/scale_0_split -> conv3_2/linear/bn_conv3_2/linear/scale_0_split_0
I0102 22:18:29.101917 12172 net.cpp:408] conv3_2/linear/bn_conv3_2/linear/scale_0_split -> conv3_2/linear/bn_conv3_2/linear/scale_0_split_1
I0102 22:18:29.101948 12172 net.cpp:150] Setting up conv3_2/linear/bn_conv3_2/linear/scale_0_split
I0102 22:18:29.101954 12172 net.cpp:157] Top shape: 2 32 96 96 (589824)
I0102 22:18:29.101958 12172 net.cpp:157] Top shape: 2 32 96 96 (589824)
I0102 22:18:29.101961 12172 net.cpp:165] Memory required for data: 1721071900
I0102 22:18:29.101964 12172 layer_factory.hpp:77] Creating layer conv4_1/expand
I0102 22:18:29.101971 12172 net.cpp:100] Creating Layer conv4_1/expand
I0102 22:18:29.101976 12172 net.cpp:434] conv4_1/expand <- conv3_2/linear/bn_conv3_2/linear/scale_0_split_0
I0102 22:18:29.101981 12172 net.cpp:408] conv4_1/expand -> conv4_1/expand
I0102 22:18:29.103031 12172 net.cpp:150] Setting up conv4_1/expand
I0102 22:18:29.103045 12172 net.cpp:157] Top shape: 2 192 96 96 (3538944)
I0102 22:18:29.103049 12172 net.cpp:165] Memory required for data: 1735227676
I0102 22:18:29.103054 12172 layer_factory.hpp:77] Creating layer conv4_1/expand/bn
I0102 22:18:29.103061 12172 net.cpp:100] Creating Layer conv4_1/expand/bn
I0102 22:18:29.103065 12172 net.cpp:434] conv4_1/expand/bn <- conv4_1/expand
I0102 22:18:29.103070 12172 net.cpp:408] conv4_1/expand/bn -> conv4_1/expand/bn
I0102 22:18:29.103267 12172 net.cpp:150] Setting up conv4_1/expand/bn
I0102 22:18:29.103276 12172 net.cpp:157] Top shape: 2 192 96 96 (3538944)
I0102 22:18:29.103281 12172 net.cpp:165] Memory required for data: 1749383452
I0102 22:18:29.103289 12172 layer_factory.hpp:77] Creating layer conv4_1/expand/scale
I0102 22:18:29.103297 12172 net.cpp:100] Creating Layer conv4_1/expand/scale
I0102 22:18:29.103302 12172 net.cpp:434] conv4_1/expand/scale <- conv4_1/expand/bn
I0102 22:18:29.103309 12172 net.cpp:395] conv4_1/expand/scale -> conv4_1/expand/bn (in-place)
I0102 22:18:29.103351 12172 layer_factory.hpp:77] Creating layer conv4_1/expand/scale
I0102 22:18:29.103503 12172 net.cpp:150] Setting up conv4_1/expand/scale
I0102 22:18:29.103508 12172 net.cpp:157] Top shape: 2 192 96 96 (3538944)
I0102 22:18:29.103512 12172 net.cpp:165] Memory required for data: 1763539228
I0102 22:18:29.103516 12172 layer_factory.hpp:77] Creating layer relu4_1/expand
I0102 22:18:29.103523 12172 net.cpp:100] Creating Layer relu4_1/expand
I0102 22:18:29.103525 12172 net.cpp:434] relu4_1/expand <- conv4_1/expand/bn
I0102 22:18:29.103530 12172 net.cpp:395] relu4_1/expand -> conv4_1/expand/bn (in-place)
I0102 22:18:29.103677 12172 net.cpp:150] Setting up relu4_1/expand
I0102 22:18:29.103683 12172 net.cpp:157] Top shape: 2 192 96 96 (3538944)
I0102 22:18:29.103687 12172 net.cpp:165] Memory required for data: 1777695004
I0102 22:18:29.103690 12172 layer_factory.hpp:77] Creating layer conv4_1/dwise
I0102 22:18:29.103698 12172 net.cpp:100] Creating Layer conv4_1/dwise
I0102 22:18:29.103701 12172 net.cpp:434] conv4_1/dwise <- conv4_1/expand/bn
I0102 22:18:29.103706 12172 net.cpp:408] conv4_1/dwise -> conv4_1/dwise
I0102 22:18:29.103919 12172 net.cpp:150] Setting up conv4_1/dwise
I0102 22:18:29.103925 12172 net.cpp:157] Top shape: 2 192 96 96 (3538944)
I0102 22:18:29.103929 12172 net.cpp:165] Memory required for data: 1791850780
I0102 22:18:29.103932 12172 layer_factory.hpp:77] Creating layer conv4_1/dwise/bn
I0102 22:18:29.103941 12172 net.cpp:100] Creating Layer conv4_1/dwise/bn
I0102 22:18:29.103945 12172 net.cpp:434] conv4_1/dwise/bn <- conv4_1/dwise
I0102 22:18:29.103950 12172 net.cpp:408] conv4_1/dwise/bn -> conv4_1/dwise/bn
I0102 22:18:29.104133 12172 net.cpp:150] Setting up conv4_1/dwise/bn
I0102 22:18:29.104138 12172 net.cpp:157] Top shape: 2 192 96 96 (3538944)
I0102 22:18:29.104141 12172 net.cpp:165] Memory required for data: 1806006556
I0102 22:18:29.104148 12172 layer_factory.hpp:77] Creating layer conv4_1/dwise/scale
I0102 22:18:29.104153 12172 net.cpp:100] Creating Layer conv4_1/dwise/scale
I0102 22:18:29.104157 12172 net.cpp:434] conv4_1/dwise/scale <- conv4_1/dwise/bn
I0102 22:18:29.104161 12172 net.cpp:395] conv4_1/dwise/scale -> conv4_1/dwise/bn (in-place)
I0102 22:18:29.104194 12172 layer_factory.hpp:77] Creating layer conv4_1/dwise/scale
I0102 22:18:29.104329 12172 net.cpp:150] Setting up conv4_1/dwise/scale
I0102 22:18:29.104336 12172 net.cpp:157] Top shape: 2 192 96 96 (3538944)
I0102 22:18:29.104338 12172 net.cpp:165] Memory required for data: 1820162332
I0102 22:18:29.104343 12172 layer_factory.hpp:77] Creating layer relu4_1/dwise
I0102 22:18:29.104348 12172 net.cpp:100] Creating Layer relu4_1/dwise
I0102 22:18:29.104351 12172 net.cpp:434] relu4_1/dwise <- conv4_1/dwise/bn
I0102 22:18:29.104355 12172 net.cpp:395] relu4_1/dwise -> conv4_1/dwise/bn (in-place)
I0102 22:18:29.105052 12172 net.cpp:150] Setting up relu4_1/dwise
I0102 22:18:29.105072 12172 net.cpp:157] Top shape: 2 192 96 96 (3538944)
I0102 22:18:29.105079 12172 net.cpp:165] Memory required for data: 1834318108
I0102 22:18:29.105087 12172 layer_factory.hpp:77] Creating layer conv4_1/linear
I0102 22:18:29.105098 12172 net.cpp:100] Creating Layer conv4_1/linear
I0102 22:18:29.105104 12172 net.cpp:434] conv4_1/linear <- conv4_1/dwise/bn
I0102 22:18:29.105114 12172 net.cpp:408] conv4_1/linear -> conv4_1/linear
I0102 22:18:29.106530 12172 net.cpp:150] Setting up conv4_1/linear
I0102 22:18:29.106546 12172 net.cpp:157] Top shape: 2 32 96 96 (589824)
I0102 22:18:29.106551 12172 net.cpp:165] Memory required for data: 1836677404
I0102 22:18:29.106559 12172 layer_factory.hpp:77] Creating layer conv4_1/linear/bn
I0102 22:18:29.106566 12172 net.cpp:100] Creating Layer conv4_1/linear/bn
I0102 22:18:29.106571 12172 net.cpp:434] conv4_1/linear/bn <- conv4_1/linear
I0102 22:18:29.106578 12172 net.cpp:408] conv4_1/linear/bn -> conv4_1/linear/bn
I0102 22:18:29.106842 12172 net.cpp:150] Setting up conv4_1/linear/bn
I0102 22:18:29.106851 12172 net.cpp:157] Top shape: 2 32 96 96 (589824)
I0102 22:18:29.106856 12172 net.cpp:165] Memory required for data: 1839036700
I0102 22:18:29.106865 12172 layer_factory.hpp:77] Creating layer conv4_1/linear/scale
I0102 22:18:29.106873 12172 net.cpp:100] Creating Layer conv4_1/linear/scale
I0102 22:18:29.106878 12172 net.cpp:434] conv4_1/linear/scale <- conv4_1/linear/bn
I0102 22:18:29.106884 12172 net.cpp:395] conv4_1/linear/scale -> conv4_1/linear/bn (in-place)
I0102 22:18:29.106927 12172 layer_factory.hpp:77] Creating layer conv4_1/linear/scale
I0102 22:18:29.107089 12172 net.cpp:150] Setting up conv4_1/linear/scale
I0102 22:18:29.107095 12172 net.cpp:157] Top shape: 2 32 96 96 (589824)
I0102 22:18:29.107100 12172 net.cpp:165] Memory required for data: 1841395996
I0102 22:18:29.107106 12172 layer_factory.hpp:77] Creating layer block_4_1
I0102 22:18:29.107115 12172 net.cpp:100] Creating Layer block_4_1
I0102 22:18:29.107120 12172 net.cpp:434] block_4_1 <- conv3_2/linear/bn_conv3_2/linear/scale_0_split_1
I0102 22:18:29.107125 12172 net.cpp:434] block_4_1 <- conv4_1/linear/bn
I0102 22:18:29.107131 12172 net.cpp:408] block_4_1 -> block_4_1
I0102 22:18:29.107156 12172 net.cpp:150] Setting up block_4_1
I0102 22:18:29.107161 12172 net.cpp:157] Top shape: 2 32 96 96 (589824)
I0102 22:18:29.107164 12172 net.cpp:165] Memory required for data: 1843755292
I0102 22:18:29.107168 12172 layer_factory.hpp:77] Creating layer block_4_1_block_4_1_0_split
I0102 22:18:29.107174 12172 net.cpp:100] Creating Layer block_4_1_block_4_1_0_split
I0102 22:18:29.107178 12172 net.cpp:434] block_4_1_block_4_1_0_split <- block_4_1
I0102 22:18:29.107184 12172 net.cpp:408] block_4_1_block_4_1_0_split -> block_4_1_block_4_1_0_split_0
I0102 22:18:29.107192 12172 net.cpp:408] block_4_1_block_4_1_0_split -> block_4_1_block_4_1_0_split_1
I0102 22:18:29.107225 12172 net.cpp:150] Setting up block_4_1_block_4_1_0_split
I0102 22:18:29.107231 12172 net.cpp:157] Top shape: 2 32 96 96 (589824)
I0102 22:18:29.107236 12172 net.cpp:157] Top shape: 2 32 96 96 (589824)
I0102 22:18:29.107239 12172 net.cpp:165] Memory required for data: 1848473884
I0102 22:18:29.107244 12172 layer_factory.hpp:77] Creating layer conv4_2/expand
I0102 22:18:29.107254 12172 net.cpp:100] Creating Layer conv4_2/expand
I0102 22:18:29.107257 12172 net.cpp:434] conv4_2/expand <- block_4_1_block_4_1_0_split_0
I0102 22:18:29.107264 12172 net.cpp:408] conv4_2/expand -> conv4_2/expand
I0102 22:18:29.108278 12172 net.cpp:150] Setting up conv4_2/expand
I0102 22:18:29.108302 12172 net.cpp:157] Top shape: 2 192 96 96 (3538944)
I0102 22:18:29.108310 12172 net.cpp:165] Memory required for data: 1862629660
I0102 22:18:29.108323 12172 layer_factory.hpp:77] Creating layer conv4_2/expand/bn
I0102 22:18:29.108341 12172 net.cpp:100] Creating Layer conv4_2/expand/bn
I0102 22:18:29.108352 12172 net.cpp:434] conv4_2/expand/bn <- conv4_2/expand
I0102 22:18:29.108364 12172 net.cpp:408] conv4_2/expand/bn -> conv4_2/expand/bn
I0102 22:18:29.108819 12172 net.cpp:150] Setting up conv4_2/expand/bn
I0102 22:18:29.108837 12172 net.cpp:157] Top shape: 2 192 96 96 (3538944)
I0102 22:18:29.108845 12172 net.cpp:165] Memory required for data: 1876785436
I0102 22:18:29.108861 12172 layer_factory.hpp:77] Creating layer conv4_2/expand/scale
I0102 22:18:29.108876 12172 net.cpp:100] Creating Layer conv4_2/expand/scale
I0102 22:18:29.108886 12172 net.cpp:434] conv4_2/expand/scale <- conv4_2/expand/bn
I0102 22:18:29.108896 12172 net.cpp:395] conv4_2/expand/scale -> conv4_2/expand/bn (in-place)
I0102 22:18:29.108980 12172 layer_factory.hpp:77] Creating layer conv4_2/expand/scale
I0102 22:18:29.109297 12172 net.cpp:150] Setting up conv4_2/expand/scale
I0102 22:18:29.109313 12172 net.cpp:157] Top shape: 2 192 96 96 (3538944)
I0102 22:18:29.109320 12172 net.cpp:165] Memory required for data: 1890941212
I0102 22:18:29.109333 12172 layer_factory.hpp:77] Creating layer relu4_2/expand
I0102 22:18:29.109345 12172 net.cpp:100] Creating Layer relu4_2/expand
I0102 22:18:29.109354 12172 net.cpp:434] relu4_2/expand <- conv4_2/expand/bn
I0102 22:18:29.109365 12172 net.cpp:395] relu4_2/expand -> conv4_2/expand/bn (in-place)
I0102 22:18:29.110390 12172 net.cpp:150] Setting up relu4_2/expand
I0102 22:18:29.110419 12172 net.cpp:157] Top shape: 2 192 96 96 (3538944)
I0102 22:18:29.110430 12172 net.cpp:165] Memory required for data: 1905096988
I0102 22:18:29.110438 12172 layer_factory.hpp:77] Creating layer conv4_2/dwise
I0102 22:18:29.110455 12172 net.cpp:100] Creating Layer conv4_2/dwise
I0102 22:18:29.110463 12172 net.cpp:434] conv4_2/dwise <- conv4_2/expand/bn
I0102 22:18:29.110479 12172 net.cpp:408] conv4_2/dwise -> conv4_2/dwise
I0102 22:18:29.111029 12172 net.cpp:150] Setting up conv4_2/dwise
I0102 22:18:29.111048 12172 net.cpp:157] Top shape: 2 192 96 96 (3538944)
I0102 22:18:29.111057 12172 net.cpp:165] Memory required for data: 1919252764
I0102 22:18:29.111068 12172 layer_factory.hpp:77] Creating layer conv4_2/dwise/bn
I0102 22:18:29.111081 12172 net.cpp:100] Creating Layer conv4_2/dwise/bn
I0102 22:18:29.111090 12172 net.cpp:434] conv4_2/dwise/bn <- conv4_2/dwise
I0102 22:18:29.111102 12172 net.cpp:408] conv4_2/dwise/bn -> conv4_2/dwise/bn
I0102 22:18:29.111544 12172 net.cpp:150] Setting up conv4_2/dwise/bn
I0102 22:18:29.111560 12172 net.cpp:157] Top shape: 2 192 96 96 (3538944)
I0102 22:18:29.111568 12172 net.cpp:165] Memory required for data: 1933408540
I0102 22:18:29.111584 12172 layer_factory.hpp:77] Creating layer conv4_2/dwise/scale
I0102 22:18:29.111599 12172 net.cpp:100] Creating Layer conv4_2/dwise/scale
I0102 22:18:29.111609 12172 net.cpp:434] conv4_2/dwise/scale <- conv4_2/dwise/bn
I0102 22:18:29.111624 12172 net.cpp:395] conv4_2/dwise/scale -> conv4_2/dwise/bn (in-place)
I0102 22:18:29.111703 12172 layer_factory.hpp:77] Creating layer conv4_2/dwise/scale
I0102 22:18:29.112022 12172 net.cpp:150] Setting up conv4_2/dwise/scale
I0102 22:18:29.112038 12172 net.cpp:157] Top shape: 2 192 96 96 (3538944)
I0102 22:18:29.112046 12172 net.cpp:165] Memory required for data: 1947564316
I0102 22:18:29.112059 12172 layer_factory.hpp:77] Creating layer relu4_2/dwise
I0102 22:18:29.112073 12172 net.cpp:100] Creating Layer relu4_2/dwise
I0102 22:18:29.112083 12172 net.cpp:434] relu4_2/dwise <- conv4_2/dwise/bn
I0102 22:18:29.112093 12172 net.cpp:395] relu4_2/dwise -> conv4_2/dwise/bn (in-place)
I0102 22:18:29.112442 12172 net.cpp:150] Setting up relu4_2/dwise
I0102 22:18:29.112459 12172 net.cpp:157] Top shape: 2 192 96 96 (3538944)
I0102 22:18:29.112468 12172 net.cpp:165] Memory required for data: 1961720092
I0102 22:18:29.112475 12172 layer_factory.hpp:77] Creating layer conv4_2/linear
I0102 22:18:29.112493 12172 net.cpp:100] Creating Layer conv4_2/linear
I0102 22:18:29.112502 12172 net.cpp:434] conv4_2/linear <- conv4_2/dwise/bn
I0102 22:18:29.112515 12172 net.cpp:408] conv4_2/linear -> conv4_2/linear
I0102 22:18:29.114930 12172 net.cpp:150] Setting up conv4_2/linear
I0102 22:18:29.114959 12172 net.cpp:157] Top shape: 2 32 96 96 (589824)
I0102 22:18:29.114969 12172 net.cpp:165] Memory required for data: 1964079388
I0102 22:18:29.114980 12172 layer_factory.hpp:77] Creating layer conv4_2/linear/bn
I0102 22:18:29.114995 12172 net.cpp:100] Creating Layer conv4_2/linear/bn
I0102 22:18:29.115005 12172 net.cpp:434] conv4_2/linear/bn <- conv4_2/linear
I0102 22:18:29.115017 12172 net.cpp:408] conv4_2/linear/bn -> conv4_2/linear/bn
I0102 22:18:29.115445 12172 net.cpp:150] Setting up conv4_2/linear/bn
I0102 22:18:29.115460 12172 net.cpp:157] Top shape: 2 32 96 96 (589824)
I0102 22:18:29.115468 12172 net.cpp:165] Memory required for data: 1966438684
I0102 22:18:29.115483 12172 layer_factory.hpp:77] Creating layer conv4_2/linear/scale
I0102 22:18:29.115497 12172 net.cpp:100] Creating Layer conv4_2/linear/scale
I0102 22:18:29.115507 12172 net.cpp:434] conv4_2/linear/scale <- conv4_2/linear/bn
I0102 22:18:29.115519 12172 net.cpp:395] conv4_2/linear/scale -> conv4_2/linear/bn (in-place)
I0102 22:18:29.115599 12172 layer_factory.hpp:77] Creating layer conv4_2/linear/scale
I0102 22:18:29.115897 12172 net.cpp:150] Setting up conv4_2/linear/scale
I0102 22:18:29.115911 12172 net.cpp:157] Top shape: 2 32 96 96 (589824)
I0102 22:18:29.115917 12172 net.cpp:165] Memory required for data: 1968797980
I0102 22:18:29.115929 12172 layer_factory.hpp:77] Creating layer block_4_2
I0102 22:18:29.115942 12172 net.cpp:100] Creating Layer block_4_2
I0102 22:18:29.115952 12172 net.cpp:434] block_4_2 <- block_4_1_block_4_1_0_split_1
I0102 22:18:29.115960 12172 net.cpp:434] block_4_2 <- conv4_2/linear/bn
I0102 22:18:29.115970 12172 net.cpp:408] block_4_2 -> block_4_2
I0102 22:18:29.116016 12172 net.cpp:150] Setting up block_4_2
I0102 22:18:29.116027 12172 net.cpp:157] Top shape: 2 32 96 96 (589824)
I0102 22:18:29.116034 12172 net.cpp:165] Memory required for data: 1971157276
I0102 22:18:29.116041 12172 layer_factory.hpp:77] Creating layer conv4_3/expand
I0102 22:18:29.116056 12172 net.cpp:100] Creating Layer conv4_3/expand
I0102 22:18:29.116065 12172 net.cpp:434] conv4_3/expand <- block_4_2
I0102 22:18:29.116075 12172 net.cpp:408] conv4_3/expand -> conv4_3/expand
I0102 22:18:29.117272 12172 net.cpp:150] Setting up conv4_3/expand
I0102 22:18:29.117282 12172 net.cpp:157] Top shape: 2 192 96 96 (3538944)
I0102 22:18:29.117285 12172 net.cpp:165] Memory required for data: 1985313052
I0102 22:18:29.117290 12172 layer_factory.hpp:77] Creating layer conv4_3/expand/bn
I0102 22:18:29.117297 12172 net.cpp:100] Creating Layer conv4_3/expand/bn
I0102 22:18:29.117301 12172 net.cpp:434] conv4_3/expand/bn <- conv4_3/expand
I0102 22:18:29.117306 12172 net.cpp:408] conv4_3/expand/bn -> conv4_3/expand/bn
I0102 22:18:29.117491 12172 net.cpp:150] Setting up conv4_3/expand/bn
I0102 22:18:29.117497 12172 net.cpp:157] Top shape: 2 192 96 96 (3538944)
I0102 22:18:29.117501 12172 net.cpp:165] Memory required for data: 1999468828
I0102 22:18:29.117507 12172 layer_factory.hpp:77] Creating layer conv4_3/expand/scale
I0102 22:18:29.117513 12172 net.cpp:100] Creating Layer conv4_3/expand/scale
I0102 22:18:29.117516 12172 net.cpp:434] conv4_3/expand/scale <- conv4_3/expand/bn
I0102 22:18:29.117522 12172 net.cpp:395] conv4_3/expand/scale -> conv4_3/expand/bn (in-place)
I0102 22:18:29.117555 12172 layer_factory.hpp:77] Creating layer conv4_3/expand/scale
I0102 22:18:29.117686 12172 net.cpp:150] Setting up conv4_3/expand/scale
I0102 22:18:29.117691 12172 net.cpp:157] Top shape: 2 192 96 96 (3538944)
I0102 22:18:29.117694 12172 net.cpp:165] Memory required for data: 2013624604
I0102 22:18:29.117699 12172 layer_factory.hpp:77] Creating layer relu4_3/expand
I0102 22:18:29.117704 12172 net.cpp:100] Creating Layer relu4_3/expand
I0102 22:18:29.117707 12172 net.cpp:434] relu4_3/expand <- conv4_3/expand/bn
I0102 22:18:29.117712 12172 net.cpp:395] relu4_3/expand -> conv4_3/expand/bn (in-place)
I0102 22:18:29.117859 12172 net.cpp:150] Setting up relu4_3/expand
I0102 22:18:29.117866 12172 net.cpp:157] Top shape: 2 192 96 96 (3538944)
I0102 22:18:29.117869 12172 net.cpp:165] Memory required for data: 2027780380
I0102 22:18:29.117872 12172 layer_factory.hpp:77] Creating layer conv4_3/dwise
I0102 22:18:29.117878 12172 net.cpp:100] Creating Layer conv4_3/dwise
I0102 22:18:29.117882 12172 net.cpp:434] conv4_3/dwise <- conv4_3/expand/bn
I0102 22:18:29.117887 12172 net.cpp:408] conv4_3/dwise -> conv4_3/dwise
I0102 22:18:29.118098 12172 net.cpp:150] Setting up conv4_3/dwise
I0102 22:18:29.118104 12172 net.cpp:157] Top shape: 2 192 96 96 (3538944)
I0102 22:18:29.118108 12172 net.cpp:165] Memory required for data: 2041936156
I0102 22:18:29.118111 12172 layer_factory.hpp:77] Creating layer conv4_3/dwise/bn
I0102 22:18:29.118116 12172 net.cpp:100] Creating Layer conv4_3/dwise/bn
I0102 22:18:29.118120 12172 net.cpp:434] conv4_3/dwise/bn <- conv4_3/dwise
I0102 22:18:29.118124 12172 net.cpp:408] conv4_3/dwise/bn -> conv4_3/dwise/bn
I0102 22:18:29.118319 12172 net.cpp:150] Setting up conv4_3/dwise/bn
I0102 22:18:29.118325 12172 net.cpp:157] Top shape: 2 192 96 96 (3538944)
I0102 22:18:29.118330 12172 net.cpp:165] Memory required for data: 2056091932
I0102 22:18:29.118336 12172 layer_factory.hpp:77] Creating layer conv4_3/dwise/scale
I0102 22:18:29.118345 12172 net.cpp:100] Creating Layer conv4_3/dwise/scale
I0102 22:18:29.118348 12172 net.cpp:434] conv4_3/dwise/scale <- conv4_3/dwise/bn
I0102 22:18:29.118355 12172 net.cpp:395] conv4_3/dwise/scale -> conv4_3/dwise/bn (in-place)
I0102 22:18:29.118394 12172 layer_factory.hpp:77] Creating layer conv4_3/dwise/scale
I0102 22:18:29.118543 12172 net.cpp:150] Setting up conv4_3/dwise/scale
I0102 22:18:29.118548 12172 net.cpp:157] Top shape: 2 192 96 96 (3538944)
I0102 22:18:29.118551 12172 net.cpp:165] Memory required for data: 2070247708
I0102 22:18:29.118556 12172 layer_factory.hpp:77] Creating layer relu4_3/dwise
I0102 22:18:29.118561 12172 net.cpp:100] Creating Layer relu4_3/dwise
I0102 22:18:29.118566 12172 net.cpp:434] relu4_3/dwise <- conv4_3/dwise/bn
I0102 22:18:29.118571 12172 net.cpp:395] relu4_3/dwise -> conv4_3/dwise/bn (in-place)
I0102 22:18:29.118993 12172 net.cpp:150] Setting up relu4_3/dwise
I0102 22:18:29.119004 12172 net.cpp:157] Top shape: 2 192 96 96 (3538944)
I0102 22:18:29.119009 12172 net.cpp:165] Memory required for data: 2084403484
I0102 22:18:29.119011 12172 layer_factory.hpp:77] Creating layer conv4_3/linear
I0102 22:18:29.119019 12172 net.cpp:100] Creating Layer conv4_3/linear
I0102 22:18:29.119024 12172 net.cpp:434] conv4_3/linear <- conv4_3/dwise/bn
I0102 22:18:29.119029 12172 net.cpp:408] conv4_3/linear -> conv4_3/linear
I0102 22:18:29.120254 12172 net.cpp:150] Setting up conv4_3/linear
I0102 22:18:29.120265 12172 net.cpp:157] Top shape: 2 64 96 96 (1179648)
I0102 22:18:29.120268 12172 net.cpp:165] Memory required for data: 2089122076
I0102 22:18:29.120273 12172 layer_factory.hpp:77] Creating layer conv4_3/linear/bn
I0102 22:18:29.120280 12172 net.cpp:100] Creating Layer conv4_3/linear/bn
I0102 22:18:29.120285 12172 net.cpp:434] conv4_3/linear/bn <- conv4_3/linear
I0102 22:18:29.120290 12172 net.cpp:408] conv4_3/linear/bn -> conv4_3/linear/bn
I0102 22:18:29.120481 12172 net.cpp:150] Setting up conv4_3/linear/bn
I0102 22:18:29.120487 12172 net.cpp:157] Top shape: 2 64 96 96 (1179648)
I0102 22:18:29.120491 12172 net.cpp:165] Memory required for data: 2093840668
I0102 22:18:29.120508 12172 layer_factory.hpp:77] Creating layer conv4_3/linear/scale
I0102 22:18:29.120514 12172 net.cpp:100] Creating Layer conv4_3/linear/scale
I0102 22:18:29.120518 12172 net.cpp:434] conv4_3/linear/scale <- conv4_3/linear/bn
I0102 22:18:29.120524 12172 net.cpp:395] conv4_3/linear/scale -> conv4_3/linear/bn (in-place)
I0102 22:18:29.120558 12172 layer_factory.hpp:77] Creating layer conv4_3/linear/scale
I0102 22:18:29.120689 12172 net.cpp:150] Setting up conv4_3/linear/scale
I0102 22:18:29.120694 12172 net.cpp:157] Top shape: 2 64 96 96 (1179648)
I0102 22:18:29.120697 12172 net.cpp:165] Memory required for data: 2098559260
I0102 22:18:29.120702 12172 layer_factory.hpp:77] Creating layer conv4_3/linear/bn_conv4_3/linear/scale_0_split
I0102 22:18:29.120708 12172 net.cpp:100] Creating Layer conv4_3/linear/bn_conv4_3/linear/scale_0_split
I0102 22:18:29.120712 12172 net.cpp:434] conv4_3/linear/bn_conv4_3/linear/scale_0_split <- conv4_3/linear/bn
I0102 22:18:29.120717 12172 net.cpp:408] conv4_3/linear/bn_conv4_3/linear/scale_0_split -> conv4_3/linear/bn_conv4_3/linear/scale_0_split_0
I0102 22:18:29.120721 12172 net.cpp:408] conv4_3/linear/bn_conv4_3/linear/scale_0_split -> conv4_3/linear/bn_conv4_3/linear/scale_0_split_1
I0102 22:18:29.120764 12172 net.cpp:150] Setting up conv4_3/linear/bn_conv4_3/linear/scale_0_split
I0102 22:18:29.120769 12172 net.cpp:157] Top shape: 2 64 96 96 (1179648)
I0102 22:18:29.120774 12172 net.cpp:157] Top shape: 2 64 96 96 (1179648)
I0102 22:18:29.120776 12172 net.cpp:165] Memory required for data: 2107996444
I0102 22:18:29.120779 12172 layer_factory.hpp:77] Creating layer conv4_4/expand
I0102 22:18:29.120786 12172 net.cpp:100] Creating Layer conv4_4/expand
I0102 22:18:29.120790 12172 net.cpp:434] conv4_4/expand <- conv4_3/linear/bn_conv4_3/linear/scale_0_split_0
I0102 22:18:29.120795 12172 net.cpp:408] conv4_4/expand -> conv4_4/expand
I0102 22:18:29.122334 12172 net.cpp:150] Setting up conv4_4/expand
I0102 22:18:29.122349 12172 net.cpp:157] Top shape: 2 384 96 96 (7077888)
I0102 22:18:29.122352 12172 net.cpp:165] Memory required for data: 2136307996
I0102 22:18:29.122359 12172 layer_factory.hpp:77] Creating layer conv4_4/expand/bn
I0102 22:18:29.122365 12172 net.cpp:100] Creating Layer conv4_4/expand/bn
I0102 22:18:29.122370 12172 net.cpp:434] conv4_4/expand/bn <- conv4_4/expand
I0102 22:18:29.122378 12172 net.cpp:408] conv4_4/expand/bn -> conv4_4/expand/bn
I0102 22:18:29.122596 12172 net.cpp:150] Setting up conv4_4/expand/bn
I0102 22:18:29.122602 12172 net.cpp:157] Top shape: 2 384 96 96 (7077888)
I0102 22:18:29.122606 12172 net.cpp:165] Memory required for data: 2164619548
I0102 22:18:29.122611 12172 layer_factory.hpp:77] Creating layer conv4_4/expand/scale
I0102 22:18:29.122617 12172 net.cpp:100] Creating Layer conv4_4/expand/scale
I0102 22:18:29.122622 12172 net.cpp:434] conv4_4/expand/scale <- conv4_4/expand/bn
I0102 22:18:29.122625 12172 net.cpp:395] conv4_4/expand/scale -> conv4_4/expand/bn (in-place)
I0102 22:18:29.122656 12172 layer_factory.hpp:77] Creating layer conv4_4/expand/scale
I0102 22:18:29.122790 12172 net.cpp:150] Setting up conv4_4/expand/scale
I0102 22:18:29.122798 12172 net.cpp:157] Top shape: 2 384 96 96 (7077888)
I0102 22:18:29.122802 12172 net.cpp:165] Memory required for data: 2192931100
I0102 22:18:29.122807 12172 layer_factory.hpp:77] Creating layer relu4_4/expand
I0102 22:18:29.122812 12172 net.cpp:100] Creating Layer relu4_4/expand
I0102 22:18:29.122815 12172 net.cpp:434] relu4_4/expand <- conv4_4/expand/bn
I0102 22:18:29.122820 12172 net.cpp:395] relu4_4/expand -> conv4_4/expand/bn (in-place)
I0102 22:18:29.122967 12172 net.cpp:150] Setting up relu4_4/expand
I0102 22:18:29.122973 12172 net.cpp:157] Top shape: 2 384 96 96 (7077888)
I0102 22:18:29.122977 12172 net.cpp:165] Memory required for data: 2221242652
I0102 22:18:29.122979 12172 layer_factory.hpp:77] Creating layer conv4_4/dwise
I0102 22:18:29.122987 12172 net.cpp:100] Creating Layer conv4_4/dwise
I0102 22:18:29.122989 12172 net.cpp:434] conv4_4/dwise <- conv4_4/expand/bn
I0102 22:18:29.122994 12172 net.cpp:408] conv4_4/dwise -> conv4_4/dwise
I0102 22:18:29.123250 12172 net.cpp:150] Setting up conv4_4/dwise
I0102 22:18:29.123256 12172 net.cpp:157] Top shape: 2 384 96 96 (7077888)
I0102 22:18:29.123260 12172 net.cpp:165] Memory required for data: 2249554204
I0102 22:18:29.123263 12172 layer_factory.hpp:77] Creating layer conv4_4/dwise/bn
I0102 22:18:29.123270 12172 net.cpp:100] Creating Layer conv4_4/dwise/bn
I0102 22:18:29.123273 12172 net.cpp:434] conv4_4/dwise/bn <- conv4_4/dwise
I0102 22:18:29.123278 12172 net.cpp:408] conv4_4/dwise/bn -> conv4_4/dwise/bn
I0102 22:18:29.123455 12172 net.cpp:150] Setting up conv4_4/dwise/bn
I0102 22:18:29.123461 12172 net.cpp:157] Top shape: 2 384 96 96 (7077888)
I0102 22:18:29.123463 12172 net.cpp:165] Memory required for data: 2277865756
I0102 22:18:29.123471 12172 layer_factory.hpp:77] Creating layer conv4_4/dwise/scale
I0102 22:18:29.123476 12172 net.cpp:100] Creating Layer conv4_4/dwise/scale
I0102 22:18:29.123479 12172 net.cpp:434] conv4_4/dwise/scale <- conv4_4/dwise/bn
I0102 22:18:29.123483 12172 net.cpp:395] conv4_4/dwise/scale -> conv4_4/dwise/bn (in-place)
I0102 22:18:29.123514 12172 layer_factory.hpp:77] Creating layer conv4_4/dwise/scale
I0102 22:18:29.123632 12172 net.cpp:150] Setting up conv4_4/dwise/scale
I0102 22:18:29.123637 12172 net.cpp:157] Top shape: 2 384 96 96 (7077888)
I0102 22:18:29.123641 12172 net.cpp:165] Memory required for data: 2306177308
I0102 22:18:29.123646 12172 layer_factory.hpp:77] Creating layer relu4_4/dwise
I0102 22:18:29.123651 12172 net.cpp:100] Creating Layer relu4_4/dwise
I0102 22:18:29.123654 12172 net.cpp:434] relu4_4/dwise <- conv4_4/dwise/bn
I0102 22:18:29.123659 12172 net.cpp:395] relu4_4/dwise -> conv4_4/dwise/bn (in-place)
I0102 22:18:29.124083 12172 net.cpp:150] Setting up relu4_4/dwise
I0102 22:18:29.124092 12172 net.cpp:157] Top shape: 2 384 96 96 (7077888)
I0102 22:18:29.124095 12172 net.cpp:165] Memory required for data: 2334488860
I0102 22:18:29.124099 12172 layer_factory.hpp:77] Creating layer conv4_4/linear
I0102 22:18:29.124107 12172 net.cpp:100] Creating Layer conv4_4/linear
I0102 22:18:29.124111 12172 net.cpp:434] conv4_4/linear <- conv4_4/dwise/bn
I0102 22:18:29.124116 12172 net.cpp:408] conv4_4/linear -> conv4_4/linear
I0102 22:18:29.125787 12172 net.cpp:150] Setting up conv4_4/linear
I0102 22:18:29.125794 12172 net.cpp:157] Top shape: 2 64 96 96 (1179648)
I0102 22:18:29.125797 12172 net.cpp:165] Memory required for data: 2339207452
I0102 22:18:29.125802 12172 layer_factory.hpp:77] Creating layer conv4_4/linear/bn
I0102 22:18:29.125808 12172 net.cpp:100] Creating Layer conv4_4/linear/bn
I0102 22:18:29.125811 12172 net.cpp:434] conv4_4/linear/bn <- conv4_4/linear
I0102 22:18:29.125815 12172 net.cpp:408] conv4_4/linear/bn -> conv4_4/linear/bn
I0102 22:18:29.125978 12172 net.cpp:150] Setting up conv4_4/linear/bn
I0102 22:18:29.125982 12172 net.cpp:157] Top shape: 2 64 96 96 (1179648)
I0102 22:18:29.125985 12172 net.cpp:165] Memory required for data: 2343926044
I0102 22:18:29.125990 12172 layer_factory.hpp:77] Creating layer conv4_4/linear/scale
I0102 22:18:29.125996 12172 net.cpp:100] Creating Layer conv4_4/linear/scale
I0102 22:18:29.125999 12172 net.cpp:434] conv4_4/linear/scale <- conv4_4/linear/bn
I0102 22:18:29.126004 12172 net.cpp:395] conv4_4/linear/scale -> conv4_4/linear/bn (in-place)
I0102 22:18:29.126034 12172 layer_factory.hpp:77] Creating layer conv4_4/linear/scale
I0102 22:18:29.126148 12172 net.cpp:150] Setting up conv4_4/linear/scale
I0102 22:18:29.126153 12172 net.cpp:157] Top shape: 2 64 96 96 (1179648)
I0102 22:18:29.126155 12172 net.cpp:165] Memory required for data: 2348644636
I0102 22:18:29.126160 12172 layer_factory.hpp:77] Creating layer block_4_4
I0102 22:18:29.126165 12172 net.cpp:100] Creating Layer block_4_4
I0102 22:18:29.126168 12172 net.cpp:434] block_4_4 <- conv4_3/linear/bn_conv4_3/linear/scale_0_split_1
I0102 22:18:29.126173 12172 net.cpp:434] block_4_4 <- conv4_4/linear/bn
I0102 22:18:29.126176 12172 net.cpp:408] block_4_4 -> block_4_4
I0102 22:18:29.126194 12172 net.cpp:150] Setting up block_4_4
I0102 22:18:29.126197 12172 net.cpp:157] Top shape: 2 64 96 96 (1179648)
I0102 22:18:29.126199 12172 net.cpp:165] Memory required for data: 2353363228
I0102 22:18:29.126202 12172 layer_factory.hpp:77] Creating layer block_4_4_block_4_4_0_split
I0102 22:18:29.126206 12172 net.cpp:100] Creating Layer block_4_4_block_4_4_0_split
I0102 22:18:29.126209 12172 net.cpp:434] block_4_4_block_4_4_0_split <- block_4_4
I0102 22:18:29.126214 12172 net.cpp:408] block_4_4_block_4_4_0_split -> block_4_4_block_4_4_0_split_0
I0102 22:18:29.126217 12172 net.cpp:408] block_4_4_block_4_4_0_split -> block_4_4_block_4_4_0_split_1
I0102 22:18:29.126242 12172 net.cpp:150] Setting up block_4_4_block_4_4_0_split
I0102 22:18:29.126246 12172 net.cpp:157] Top shape: 2 64 96 96 (1179648)
I0102 22:18:29.126250 12172 net.cpp:157] Top shape: 2 64 96 96 (1179648)
I0102 22:18:29.126252 12172 net.cpp:165] Memory required for data: 2362800412
I0102 22:18:29.126255 12172 layer_factory.hpp:77] Creating layer conv4_5/expand
I0102 22:18:29.126260 12172 net.cpp:100] Creating Layer conv4_5/expand
I0102 22:18:29.126262 12172 net.cpp:434] conv4_5/expand <- block_4_4_block_4_4_0_split_0
I0102 22:18:29.126267 12172 net.cpp:408] conv4_5/expand -> conv4_5/expand
I0102 22:18:29.127434 12172 net.cpp:150] Setting up conv4_5/expand
I0102 22:18:29.127444 12172 net.cpp:157] Top shape: 2 384 96 96 (7077888)
I0102 22:18:29.127446 12172 net.cpp:165] Memory required for data: 2391111964
I0102 22:18:29.127451 12172 layer_factory.hpp:77] Creating layer conv4_5/expand/bn
I0102 22:18:29.127457 12172 net.cpp:100] Creating Layer conv4_5/expand/bn
I0102 22:18:29.127461 12172 net.cpp:434] conv4_5/expand/bn <- conv4_5/expand
I0102 22:18:29.127468 12172 net.cpp:408] conv4_5/expand/bn -> conv4_5/expand/bn
I0102 22:18:29.127651 12172 net.cpp:150] Setting up conv4_5/expand/bn
I0102 22:18:29.127656 12172 net.cpp:157] Top shape: 2 384 96 96 (7077888)
I0102 22:18:29.127660 12172 net.cpp:165] Memory required for data: 2419423516
I0102 22:18:29.127666 12172 layer_factory.hpp:77] Creating layer conv4_5/expand/scale
I0102 22:18:29.127672 12172 net.cpp:100] Creating Layer conv4_5/expand/scale
I0102 22:18:29.127676 12172 net.cpp:434] conv4_5/expand/scale <- conv4_5/expand/bn
I0102 22:18:29.127681 12172 net.cpp:395] conv4_5/expand/scale -> conv4_5/expand/bn (in-place)
I0102 22:18:29.127712 12172 layer_factory.hpp:77] Creating layer conv4_5/expand/scale
I0102 22:18:29.127842 12172 net.cpp:150] Setting up conv4_5/expand/scale
I0102 22:18:29.127847 12172 net.cpp:157] Top shape: 2 384 96 96 (7077888)
I0102 22:18:29.127851 12172 net.cpp:165] Memory required for data: 2447735068
I0102 22:18:29.127856 12172 layer_factory.hpp:77] Creating layer relu4_5/expand
I0102 22:18:29.127861 12172 net.cpp:100] Creating Layer relu4_5/expand
I0102 22:18:29.127864 12172 net.cpp:434] relu4_5/expand <- conv4_5/expand/bn
I0102 22:18:29.127869 12172 net.cpp:395] relu4_5/expand -> conv4_5/expand/bn (in-place)
I0102 22:18:29.128319 12172 net.cpp:150] Setting up relu4_5/expand
I0102 22:18:29.128329 12172 net.cpp:157] Top shape: 2 384 96 96 (7077888)
I0102 22:18:29.128332 12172 net.cpp:165] Memory required for data: 2476046620
I0102 22:18:29.128336 12172 layer_factory.hpp:77] Creating layer conv4_5/dwise
I0102 22:18:29.128342 12172 net.cpp:100] Creating Layer conv4_5/dwise
I0102 22:18:29.128346 12172 net.cpp:434] conv4_5/dwise <- conv4_5/expand/bn
I0102 22:18:29.128353 12172 net.cpp:408] conv4_5/dwise -> conv4_5/dwise
I0102 22:18:29.128630 12172 net.cpp:150] Setting up conv4_5/dwise
I0102 22:18:29.128636 12172 net.cpp:157] Top shape: 2 384 96 96 (7077888)
I0102 22:18:29.128639 12172 net.cpp:165] Memory required for data: 2504358172
I0102 22:18:29.128644 12172 layer_factory.hpp:77] Creating layer conv4_5/dwise/bn
I0102 22:18:29.128649 12172 net.cpp:100] Creating Layer conv4_5/dwise/bn
I0102 22:18:29.128654 12172 net.cpp:434] conv4_5/dwise/bn <- conv4_5/dwise
I0102 22:18:29.128657 12172 net.cpp:408] conv4_5/dwise/bn -> conv4_5/dwise/bn
I0102 22:18:29.128849 12172 net.cpp:150] Setting up conv4_5/dwise/bn
I0102 22:18:29.128855 12172 net.cpp:157] Top shape: 2 384 96 96 (7077888)
I0102 22:18:29.128859 12172 net.cpp:165] Memory required for data: 2532669724
I0102 22:18:29.128865 12172 layer_factory.hpp:77] Creating layer conv4_5/dwise/scale
I0102 22:18:29.128870 12172 net.cpp:100] Creating Layer conv4_5/dwise/scale
I0102 22:18:29.128875 12172 net.cpp:434] conv4_5/dwise/scale <- conv4_5/dwise/bn
I0102 22:18:29.128880 12172 net.cpp:395] conv4_5/dwise/scale -> conv4_5/dwise/bn (in-place)
I0102 22:18:29.128912 12172 layer_factory.hpp:77] Creating layer conv4_5/dwise/scale
I0102 22:18:29.129724 12172 net.cpp:150] Setting up conv4_5/dwise/scale
I0102 22:18:29.129732 12172 net.cpp:157] Top shape: 2 384 96 96 (7077888)
I0102 22:18:29.129735 12172 net.cpp:165] Memory required for data: 2560981276
I0102 22:18:29.129740 12172 layer_factory.hpp:77] Creating layer relu4_5/dwise
I0102 22:18:29.129746 12172 net.cpp:100] Creating Layer relu4_5/dwise
I0102 22:18:29.129750 12172 net.cpp:434] relu4_5/dwise <- conv4_5/dwise/bn
I0102 22:18:29.129753 12172 net.cpp:395] relu4_5/dwise -> conv4_5/dwise/bn (in-place)
I0102 22:18:29.129890 12172 net.cpp:150] Setting up relu4_5/dwise
I0102 22:18:29.129895 12172 net.cpp:157] Top shape: 2 384 96 96 (7077888)
I0102 22:18:29.129899 12172 net.cpp:165] Memory required for data: 2589292828
I0102 22:18:29.129902 12172 layer_factory.hpp:77] Creating layer conv4_5/linear
I0102 22:18:29.129909 12172 net.cpp:100] Creating Layer conv4_5/linear
I0102 22:18:29.129911 12172 net.cpp:434] conv4_5/linear <- conv4_5/dwise/bn
I0102 22:18:29.129916 12172 net.cpp:408] conv4_5/linear -> conv4_5/linear
I0102 22:18:29.131244 12172 net.cpp:150] Setting up conv4_5/linear
I0102 22:18:29.131254 12172 net.cpp:157] Top shape: 2 64 96 96 (1179648)
I0102 22:18:29.131256 12172 net.cpp:165] Memory required for data: 2594011420
I0102 22:18:29.131261 12172 layer_factory.hpp:77] Creating layer conv4_5/linear/bn
I0102 22:18:29.131268 12172 net.cpp:100] Creating Layer conv4_5/linear/bn
I0102 22:18:29.131270 12172 net.cpp:434] conv4_5/linear/bn <- conv4_5/linear
I0102 22:18:29.131274 12172 net.cpp:408] conv4_5/linear/bn -> conv4_5/linear/bn
I0102 22:18:29.131439 12172 net.cpp:150] Setting up conv4_5/linear/bn
I0102 22:18:29.131444 12172 net.cpp:157] Top shape: 2 64 96 96 (1179648)
I0102 22:18:29.131448 12172 net.cpp:165] Memory required for data: 2598730012
I0102 22:18:29.131453 12172 layer_factory.hpp:77] Creating layer conv4_5/linear/scale
I0102 22:18:29.131458 12172 net.cpp:100] Creating Layer conv4_5/linear/scale
I0102 22:18:29.131461 12172 net.cpp:434] conv4_5/linear/scale <- conv4_5/linear/bn
I0102 22:18:29.131465 12172 net.cpp:395] conv4_5/linear/scale -> conv4_5/linear/bn (in-place)
I0102 22:18:29.131495 12172 layer_factory.hpp:77] Creating layer conv4_5/linear/scale
I0102 22:18:29.131587 12172 net.cpp:150] Setting up conv4_5/linear/scale
I0102 22:18:29.131592 12172 net.cpp:157] Top shape: 2 64 96 96 (1179648)
I0102 22:18:29.131594 12172 net.cpp:165] Memory required for data: 2603448604
I0102 22:18:29.131598 12172 layer_factory.hpp:77] Creating layer block_4_5
I0102 22:18:29.131603 12172 net.cpp:100] Creating Layer block_4_5
I0102 22:18:29.131606 12172 net.cpp:434] block_4_5 <- block_4_4_block_4_4_0_split_1
I0102 22:18:29.131609 12172 net.cpp:434] block_4_5 <- conv4_5/linear/bn
I0102 22:18:29.131613 12172 net.cpp:408] block_4_5 -> block_4_5
I0102 22:18:29.131631 12172 net.cpp:150] Setting up block_4_5
I0102 22:18:29.131635 12172 net.cpp:157] Top shape: 2 64 96 96 (1179648)
I0102 22:18:29.131639 12172 net.cpp:165] Memory required for data: 2608167196
I0102 22:18:29.131640 12172 layer_factory.hpp:77] Creating layer block_4_5_block_4_5_0_split
I0102 22:18:29.131644 12172 net.cpp:100] Creating Layer block_4_5_block_4_5_0_split
I0102 22:18:29.131647 12172 net.cpp:434] block_4_5_block_4_5_0_split <- block_4_5
I0102 22:18:29.131652 12172 net.cpp:408] block_4_5_block_4_5_0_split -> block_4_5_block_4_5_0_split_0
I0102 22:18:29.131656 12172 net.cpp:408] block_4_5_block_4_5_0_split -> block_4_5_block_4_5_0_split_1
I0102 22:18:29.131681 12172 net.cpp:150] Setting up block_4_5_block_4_5_0_split
I0102 22:18:29.131685 12172 net.cpp:157] Top shape: 2 64 96 96 (1179648)
I0102 22:18:29.131690 12172 net.cpp:157] Top shape: 2 64 96 96 (1179648)
I0102 22:18:29.131691 12172 net.cpp:165] Memory required for data: 2617604380
I0102 22:18:29.131695 12172 layer_factory.hpp:77] Creating layer conv4_6/expand
I0102 22:18:29.131700 12172 net.cpp:100] Creating Layer conv4_6/expand
I0102 22:18:29.131703 12172 net.cpp:434] conv4_6/expand <- block_4_5_block_4_5_0_split_0
I0102 22:18:29.131707 12172 net.cpp:408] conv4_6/expand -> conv4_6/expand
I0102 22:18:29.133011 12172 net.cpp:150] Setting up conv4_6/expand
I0102 22:18:29.133020 12172 net.cpp:157] Top shape: 2 384 96 96 (7077888)
I0102 22:18:29.133023 12172 net.cpp:165] Memory required for data: 2645915932
I0102 22:18:29.133028 12172 layer_factory.hpp:77] Creating layer conv4_6/expand/bn
I0102 22:18:29.133033 12172 net.cpp:100] Creating Layer conv4_6/expand/bn
I0102 22:18:29.133036 12172 net.cpp:434] conv4_6/expand/bn <- conv4_6/expand
I0102 22:18:29.133041 12172 net.cpp:408] conv4_6/expand/bn -> conv4_6/expand/bn
I0102 22:18:29.133201 12172 net.cpp:150] Setting up conv4_6/expand/bn
I0102 22:18:29.133206 12172 net.cpp:157] Top shape: 2 384 96 96 (7077888)
I0102 22:18:29.133209 12172 net.cpp:165] Memory required for data: 2674227484
I0102 22:18:29.133214 12172 layer_factory.hpp:77] Creating layer conv4_6/expand/scale
I0102 22:18:29.133219 12172 net.cpp:100] Creating Layer conv4_6/expand/scale
I0102 22:18:29.133222 12172 net.cpp:434] conv4_6/expand/scale <- conv4_6/expand/bn
I0102 22:18:29.133226 12172 net.cpp:395] conv4_6/expand/scale -> conv4_6/expand/bn (in-place)
I0102 22:18:29.133253 12172 layer_factory.hpp:77] Creating layer conv4_6/expand/scale
I0102 22:18:29.133363 12172 net.cpp:150] Setting up conv4_6/expand/scale
I0102 22:18:29.133368 12172 net.cpp:157] Top shape: 2 384 96 96 (7077888)
I0102 22:18:29.133369 12172 net.cpp:165] Memory required for data: 2702539036
I0102 22:18:29.133374 12172 layer_factory.hpp:77] Creating layer relu4_6/expand
I0102 22:18:29.133378 12172 net.cpp:100] Creating Layer relu4_6/expand
I0102 22:18:29.133381 12172 net.cpp:434] relu4_6/expand <- conv4_6/expand/bn
I0102 22:18:29.133385 12172 net.cpp:395] relu4_6/expand -> conv4_6/expand/bn (in-place)
I0102 22:18:29.133513 12172 net.cpp:150] Setting up relu4_6/expand
I0102 22:18:29.133519 12172 net.cpp:157] Top shape: 2 384 96 96 (7077888)
I0102 22:18:29.133522 12172 net.cpp:165] Memory required for data: 2730850588
I0102 22:18:29.133525 12172 layer_factory.hpp:77] Creating layer conv4_6/dwise
I0102 22:18:29.133530 12172 net.cpp:100] Creating Layer conv4_6/dwise
I0102 22:18:29.133533 12172 net.cpp:434] conv4_6/dwise <- conv4_6/expand/bn
I0102 22:18:29.133538 12172 net.cpp:408] conv4_6/dwise -> conv4_6/dwise
I0102 22:18:29.133759 12172 net.cpp:150] Setting up conv4_6/dwise
I0102 22:18:29.133764 12172 net.cpp:157] Top shape: 2 384 96 96 (7077888)
I0102 22:18:29.133766 12172 net.cpp:165] Memory required for data: 2759162140
I0102 22:18:29.133770 12172 layer_factory.hpp:77] Creating layer conv4_6/dwise/bn
I0102 22:18:29.133775 12172 net.cpp:100] Creating Layer conv4_6/dwise/bn
I0102 22:18:29.133779 12172 net.cpp:434] conv4_6/dwise/bn <- conv4_6/dwise
I0102 22:18:29.133782 12172 net.cpp:408] conv4_6/dwise/bn -> conv4_6/dwise/bn
I0102 22:18:29.133939 12172 net.cpp:150] Setting up conv4_6/dwise/bn
I0102 22:18:29.133942 12172 net.cpp:157] Top shape: 2 384 96 96 (7077888)
I0102 22:18:29.133945 12172 net.cpp:165] Memory required for data: 2787473692
I0102 22:18:29.133951 12172 layer_factory.hpp:77] Creating layer conv4_6/dwise/scale
I0102 22:18:29.133963 12172 net.cpp:100] Creating Layer conv4_6/dwise/scale
I0102 22:18:29.133966 12172 net.cpp:434] conv4_6/dwise/scale <- conv4_6/dwise/bn
I0102 22:18:29.133970 12172 net.cpp:395] conv4_6/dwise/scale -> conv4_6/dwise/bn (in-place)
I0102 22:18:29.133997 12172 layer_factory.hpp:77] Creating layer conv4_6/dwise/scale
I0102 22:18:29.134106 12172 net.cpp:150] Setting up conv4_6/dwise/scale
I0102 22:18:29.134111 12172 net.cpp:157] Top shape: 2 384 96 96 (7077888)
I0102 22:18:29.134114 12172 net.cpp:165] Memory required for data: 2815785244
I0102 22:18:29.134119 12172 layer_factory.hpp:77] Creating layer relu4_6/dwise
I0102 22:18:29.134124 12172 net.cpp:100] Creating Layer relu4_6/dwise
I0102 22:18:29.134127 12172 net.cpp:434] relu4_6/dwise <- conv4_6/dwise/bn
I0102 22:18:29.134130 12172 net.cpp:395] relu4_6/dwise -> conv4_6/dwise/bn (in-place)
I0102 22:18:29.134255 12172 net.cpp:150] Setting up relu4_6/dwise
I0102 22:18:29.134261 12172 net.cpp:157] Top shape: 2 384 96 96 (7077888)
I0102 22:18:29.134264 12172 net.cpp:165] Memory required for data: 2844096796
I0102 22:18:29.134266 12172 layer_factory.hpp:77] Creating layer conv4_6/linear
I0102 22:18:29.134274 12172 net.cpp:100] Creating Layer conv4_6/linear
I0102 22:18:29.134276 12172 net.cpp:434] conv4_6/linear <- conv4_6/dwise/bn
I0102 22:18:29.134281 12172 net.cpp:408] conv4_6/linear -> conv4_6/linear
I0102 22:18:29.135596 12172 net.cpp:150] Setting up conv4_6/linear
I0102 22:18:29.135604 12172 net.cpp:157] Top shape: 2 64 96 96 (1179648)
I0102 22:18:29.135607 12172 net.cpp:165] Memory required for data: 2848815388
I0102 22:18:29.135612 12172 layer_factory.hpp:77] Creating layer conv4_6/linear/bn
I0102 22:18:29.135617 12172 net.cpp:100] Creating Layer conv4_6/linear/bn
I0102 22:18:29.135620 12172 net.cpp:434] conv4_6/linear/bn <- conv4_6/linear
I0102 22:18:29.135625 12172 net.cpp:408] conv4_6/linear/bn -> conv4_6/linear/bn
I0102 22:18:29.135789 12172 net.cpp:150] Setting up conv4_6/linear/bn
I0102 22:18:29.135794 12172 net.cpp:157] Top shape: 2 64 96 96 (1179648)
I0102 22:18:29.135797 12172 net.cpp:165] Memory required for data: 2853533980
I0102 22:18:29.135802 12172 layer_factory.hpp:77] Creating layer conv4_6/linear/scale
I0102 22:18:29.135808 12172 net.cpp:100] Creating Layer conv4_6/linear/scale
I0102 22:18:29.135812 12172 net.cpp:434] conv4_6/linear/scale <- conv4_6/linear/bn
I0102 22:18:29.135814 12172 net.cpp:395] conv4_6/linear/scale -> conv4_6/linear/bn (in-place)
I0102 22:18:29.135845 12172 layer_factory.hpp:77] Creating layer conv4_6/linear/scale
I0102 22:18:29.135957 12172 net.cpp:150] Setting up conv4_6/linear/scale
I0102 22:18:29.135962 12172 net.cpp:157] Top shape: 2 64 96 96 (1179648)
I0102 22:18:29.135963 12172 net.cpp:165] Memory required for data: 2858252572
I0102 22:18:29.135968 12172 layer_factory.hpp:77] Creating layer block_4_6
I0102 22:18:29.135973 12172 net.cpp:100] Creating Layer block_4_6
I0102 22:18:29.135977 12172 net.cpp:434] block_4_6 <- block_4_5_block_4_5_0_split_1
I0102 22:18:29.135980 12172 net.cpp:434] block_4_6 <- conv4_6/linear/bn
I0102 22:18:29.135983 12172 net.cpp:408] block_4_6 -> block_4_6
I0102 22:18:29.136001 12172 net.cpp:150] Setting up block_4_6
I0102 22:18:29.136004 12172 net.cpp:157] Top shape: 2 64 96 96 (1179648)
I0102 22:18:29.136008 12172 net.cpp:165] Memory required for data: 2862971164
I0102 22:18:29.136010 12172 layer_factory.hpp:77] Creating layer block_4_6_block_4_6_0_split
I0102 22:18:29.136014 12172 net.cpp:100] Creating Layer block_4_6_block_4_6_0_split
I0102 22:18:29.136016 12172 net.cpp:434] block_4_6_block_4_6_0_split <- block_4_6
I0102 22:18:29.136021 12172 net.cpp:408] block_4_6_block_4_6_0_split -> block_4_6_block_4_6_0_split_0
I0102 22:18:29.136025 12172 net.cpp:408] block_4_6_block_4_6_0_split -> block_4_6_block_4_6_0_split_1
I0102 22:18:29.136030 12172 net.cpp:408] block_4_6_block_4_6_0_split -> block_4_6_block_4_6_0_split_2
I0102 22:18:29.136065 12172 net.cpp:150] Setting up block_4_6_block_4_6_0_split
I0102 22:18:29.136068 12172 net.cpp:157] Top shape: 2 64 96 96 (1179648)
I0102 22:18:29.136072 12172 net.cpp:157] Top shape: 2 64 96 96 (1179648)
I0102 22:18:29.136075 12172 net.cpp:157] Top shape: 2 64 96 96 (1179648)
I0102 22:18:29.136077 12172 net.cpp:165] Memory required for data: 2877126940
I0102 22:18:29.136080 12172 layer_factory.hpp:77] Creating layer conv4_7/expand
I0102 22:18:29.136087 12172 net.cpp:100] Creating Layer conv4_7/expand
I0102 22:18:29.136090 12172 net.cpp:434] conv4_7/expand <- block_4_6_block_4_6_0_split_0
I0102 22:18:29.136095 12172 net.cpp:408] conv4_7/expand -> conv4_7/expand
I0102 22:18:29.137398 12172 net.cpp:150] Setting up conv4_7/expand
I0102 22:18:29.137408 12172 net.cpp:157] Top shape: 2 384 96 96 (7077888)
I0102 22:18:29.137410 12172 net.cpp:165] Memory required for data: 2905438492
I0102 22:18:29.137414 12172 layer_factory.hpp:77] Creating layer conv4_7/expand/bn
I0102 22:18:29.137421 12172 net.cpp:100] Creating Layer conv4_7/expand/bn
I0102 22:18:29.137424 12172 net.cpp:434] conv4_7/expand/bn <- conv4_7/expand
I0102 22:18:29.137428 12172 net.cpp:408] conv4_7/expand/bn -> conv4_7/expand/bn
I0102 22:18:29.137588 12172 net.cpp:150] Setting up conv4_7/expand/bn
I0102 22:18:29.137593 12172 net.cpp:157] Top shape: 2 384 96 96 (7077888)
I0102 22:18:29.137595 12172 net.cpp:165] Memory required for data: 2933750044
I0102 22:18:29.137600 12172 layer_factory.hpp:77] Creating layer conv4_7/expand/scale
I0102 22:18:29.137605 12172 net.cpp:100] Creating Layer conv4_7/expand/scale
I0102 22:18:29.137609 12172 net.cpp:434] conv4_7/expand/scale <- conv4_7/expand/bn
I0102 22:18:29.137614 12172 net.cpp:395] conv4_7/expand/scale -> conv4_7/expand/bn (in-place)
I0102 22:18:29.137640 12172 layer_factory.hpp:77] Creating layer conv4_7/expand/scale
I0102 22:18:29.137749 12172 net.cpp:150] Setting up conv4_7/expand/scale
I0102 22:18:29.137755 12172 net.cpp:157] Top shape: 2 384 96 96 (7077888)
I0102 22:18:29.137758 12172 net.cpp:165] Memory required for data: 2962061596
I0102 22:18:29.137764 12172 layer_factory.hpp:77] Creating layer relu4_7/expand
I0102 22:18:29.137769 12172 net.cpp:100] Creating Layer relu4_7/expand
I0102 22:18:29.137773 12172 net.cpp:434] relu4_7/expand <- conv4_7/expand/bn
I0102 22:18:29.137778 12172 net.cpp:395] relu4_7/expand -> conv4_7/expand/bn (in-place)
I0102 22:18:29.137923 12172 net.cpp:150] Setting up relu4_7/expand
I0102 22:18:29.137931 12172 net.cpp:157] Top shape: 2 384 96 96 (7077888)
I0102 22:18:29.137934 12172 net.cpp:165] Memory required for data: 2990373148
I0102 22:18:29.137938 12172 layer_factory.hpp:77] Creating layer loss1_conv1
I0102 22:18:29.137946 12172 net.cpp:100] Creating Layer loss1_conv1
I0102 22:18:29.137950 12172 net.cpp:434] loss1_conv1 <- block_4_6_block_4_6_0_split_1
I0102 22:18:29.137955 12172 net.cpp:408] loss1_conv1 -> loss1_conv1
I0102 22:18:29.140648 12172 net.cpp:150] Setting up loss1_conv1
I0102 22:18:29.140660 12172 net.cpp:157] Top shape: 2 64 96 96 (1179648)
I0102 22:18:29.140663 12172 net.cpp:165] Memory required for data: 2995091740
I0102 22:18:29.140668 12172 layer_factory.hpp:77] Creating layer loss_relu1
I0102 22:18:29.140676 12172 net.cpp:100] Creating Layer loss_relu1
I0102 22:18:29.140679 12172 net.cpp:434] loss_relu1 <- loss1_conv1
I0102 22:18:29.140684 12172 net.cpp:395] loss_relu1 -> loss1_conv1 (in-place)
I0102 22:18:29.141110 12172 net.cpp:150] Setting up loss_relu1
I0102 22:18:29.141120 12172 net.cpp:157] Top shape: 2 64 96 96 (1179648)
I0102 22:18:29.141124 12172 net.cpp:165] Memory required for data: 2999810332
I0102 22:18:29.141127 12172 layer_factory.hpp:77] Creating layer loss1_conv1_loss_relu1_0_split
I0102 22:18:29.141134 12172 net.cpp:100] Creating Layer loss1_conv1_loss_relu1_0_split
I0102 22:18:29.141137 12172 net.cpp:434] loss1_conv1_loss_relu1_0_split <- loss1_conv1
I0102 22:18:29.141142 12172 net.cpp:408] loss1_conv1_loss_relu1_0_split -> loss1_conv1_loss_relu1_0_split_0
I0102 22:18:29.141149 12172 net.cpp:408] loss1_conv1_loss_relu1_0_split -> loss1_conv1_loss_relu1_0_split_1
I0102 22:18:29.141183 12172 net.cpp:150] Setting up loss1_conv1_loss_relu1_0_split
I0102 22:18:29.141188 12172 net.cpp:157] Top shape: 2 64 96 96 (1179648)
I0102 22:18:29.141192 12172 net.cpp:157] Top shape: 2 64 96 96 (1179648)
I0102 22:18:29.141196 12172 net.cpp:165] Memory required for data: 3009247516
I0102 22:18:29.141198 12172 layer_factory.hpp:77] Creating layer LFCN_1_5x5
I0102 22:18:29.141206 12172 net.cpp:100] Creating Layer LFCN_1_5x5
I0102 22:18:29.141211 12172 net.cpp:434] LFCN_1_5x5 <- loss1_conv1_loss_relu1_0_split_0
I0102 22:18:29.141216 12172 net.cpp:408] LFCN_1_5x5 -> LFCN_1_5x5
I0102 22:18:29.142263 12172 net.cpp:150] Setting up LFCN_1_5x5
I0102 22:18:29.142271 12172 net.cpp:157] Top shape: 2 9 96 96 (165888)
I0102 22:18:29.142276 12172 net.cpp:165] Memory required for data: 3009911068
I0102 22:18:29.142280 12172 layer_factory.hpp:77] Creating layer LFCN_1_5x5_LFCN_1_5x5_0_split
I0102 22:18:29.142287 12172 net.cpp:100] Creating Layer LFCN_1_5x5_LFCN_1_5x5_0_split
I0102 22:18:29.142290 12172 net.cpp:434] LFCN_1_5x5_LFCN_1_5x5_0_split <- LFCN_1_5x5
I0102 22:18:29.142295 12172 net.cpp:408] LFCN_1_5x5_LFCN_1_5x5_0_split -> LFCN_1_5x5_LFCN_1_5x5_0_split_0
I0102 22:18:29.142302 12172 net.cpp:408] LFCN_1_5x5_LFCN_1_5x5_0_split -> LFCN_1_5x5_LFCN_1_5x5_0_split_1
I0102 22:18:29.142307 12172 net.cpp:408] LFCN_1_5x5_LFCN_1_5x5_0_split -> LFCN_1_5x5_LFCN_1_5x5_0_split_2
I0102 22:18:29.142351 12172 net.cpp:150] Setting up LFCN_1_5x5_LFCN_1_5x5_0_split
I0102 22:18:29.142356 12172 net.cpp:157] Top shape: 2 9 96 96 (165888)
I0102 22:18:29.142360 12172 net.cpp:157] Top shape: 2 9 96 96 (165888)
I0102 22:18:29.142364 12172 net.cpp:157] Top shape: 2 9 96 96 (165888)
I0102 22:18:29.142366 12172 net.cpp:165] Memory required for data: 3011901724
I0102 22:18:29.142370 12172 layer_factory.hpp:77] Creating layer detection_loss_1_5x5
I0102 22:18:29.142376 12172 net.cpp:100] Creating Layer detection_loss_1_5x5
I0102 22:18:29.142381 12172 net.cpp:434] detection_loss_1_5x5 <- LFCN_1_5x5_LFCN_1_5x5_0_split_0
I0102 22:18:29.142385 12172 net.cpp:434] detection_loss_1_5x5 <- label_1_5x5_data_1_split_0
I0102 22:18:29.142390 12172 net.cpp:408] detection_loss_1_5x5 -> loss_1_5x5
I0102 22:18:29.142401 12172 layer_factory.hpp:77] Creating layer detection_loss_1_5x5
I0102 22:18:29.143046 12172 net.cpp:150] Setting up detection_loss_1_5x5
I0102 22:18:29.143056 12172 net.cpp:157] Top shape: 1 1 1 2 (2)
I0102 22:18:29.143060 12172 net.cpp:160]     with loss weight 0.9
I0102 22:18:29.143079 12172 net.cpp:165] Memory required for data: 3011901732
I0102 22:18:29.143081 12172 layer_factory.hpp:77] Creating layer detection_accuracy_1_5x5
I0102 22:18:29.143090 12172 net.cpp:100] Creating Layer detection_accuracy_1_5x5
I0102 22:18:29.143092 12172 net.cpp:434] detection_accuracy_1_5x5 <- LFCN_1_5x5_LFCN_1_5x5_0_split_1
I0102 22:18:29.143097 12172 net.cpp:434] detection_accuracy_1_5x5 <- label_1_5x5_data_1_split_1
I0102 22:18:29.143103 12172 net.cpp:408] detection_accuracy_1_5x5 -> accuracy_1_5x5
I0102 22:18:29.143110 12172 net.cpp:408] detection_accuracy_1_5x5 -> boxiou_1_5x5
I0102 22:18:29.143146 12172 net.cpp:150] Setting up detection_accuracy_1_5x5
I0102 22:18:29.143151 12172 net.cpp:157] Top shape: 1 1 1 2 (2)
I0102 22:18:29.143154 12172 net.cpp:157] Top shape: 1 1 1 1 (1)
I0102 22:18:29.143157 12172 net.cpp:165] Memory required for data: 3011901744
I0102 22:18:29.143160 12172 layer_factory.hpp:77] Creating layer LFCN_1_7x7
I0102 22:18:29.143170 12172 net.cpp:100] Creating Layer LFCN_1_7x7
I0102 22:18:29.143174 12172 net.cpp:434] LFCN_1_7x7 <- loss1_conv1_loss_relu1_0_split_1
I0102 22:18:29.143179 12172 net.cpp:408] LFCN_1_7x7 -> LFCN_1_7x7
I0102 22:18:29.144850 12172 net.cpp:150] Setting up LFCN_1_7x7
I0102 22:18:29.144867 12172 net.cpp:157] Top shape: 2 9 96 96 (165888)
I0102 22:18:29.144871 12172 net.cpp:165] Memory required for data: 3012565296
I0102 22:18:29.144877 12172 layer_factory.hpp:77] Creating layer LFCN_1_7x7_LFCN_1_7x7_0_split
I0102 22:18:29.144884 12172 net.cpp:100] Creating Layer LFCN_1_7x7_LFCN_1_7x7_0_split
I0102 22:18:29.144887 12172 net.cpp:434] LFCN_1_7x7_LFCN_1_7x7_0_split <- LFCN_1_7x7
I0102 22:18:29.144892 12172 net.cpp:408] LFCN_1_7x7_LFCN_1_7x7_0_split -> LFCN_1_7x7_LFCN_1_7x7_0_split_0
I0102 22:18:29.144899 12172 net.cpp:408] LFCN_1_7x7_LFCN_1_7x7_0_split -> LFCN_1_7x7_LFCN_1_7x7_0_split_1
I0102 22:18:29.144904 12172 net.cpp:408] LFCN_1_7x7_LFCN_1_7x7_0_split -> LFCN_1_7x7_LFCN_1_7x7_0_split_2
I0102 22:18:29.144951 12172 net.cpp:150] Setting up LFCN_1_7x7_LFCN_1_7x7_0_split
I0102 22:18:29.144961 12172 net.cpp:157] Top shape: 2 9 96 96 (165888)
I0102 22:18:29.144965 12172 net.cpp:157] Top shape: 2 9 96 96 (165888)
I0102 22:18:29.144968 12172 net.cpp:157] Top shape: 2 9 96 96 (165888)
I0102 22:18:29.144971 12172 net.cpp:165] Memory required for data: 3014555952
I0102 22:18:29.144975 12172 layer_factory.hpp:77] Creating layer detection_loss_1_7x7
I0102 22:18:29.144981 12172 net.cpp:100] Creating Layer detection_loss_1_7x7
I0102 22:18:29.144984 12172 net.cpp:434] detection_loss_1_7x7 <- LFCN_1_7x7_LFCN_1_7x7_0_split_0
I0102 22:18:29.144989 12172 net.cpp:434] detection_loss_1_7x7 <- label_1_7x7_data_2_split_0
I0102 22:18:29.144994 12172 net.cpp:408] detection_loss_1_7x7 -> loss_1_7x7
I0102 22:18:29.145000 12172 layer_factory.hpp:77] Creating layer detection_loss_1_7x7
I0102 22:18:29.145344 12172 net.cpp:150] Setting up detection_loss_1_7x7
I0102 22:18:29.145351 12172 net.cpp:157] Top shape: 1 1 1 2 (2)
I0102 22:18:29.145354 12172 net.cpp:160]     with loss weight 0.9
I0102 22:18:29.145359 12172 net.cpp:165] Memory required for data: 3014555960
I0102 22:18:29.145364 12172 layer_factory.hpp:77] Creating layer detection_accuracy_1_7x7
I0102 22:18:29.145370 12172 net.cpp:100] Creating Layer detection_accuracy_1_7x7
I0102 22:18:29.145373 12172 net.cpp:434] detection_accuracy_1_7x7 <- LFCN_1_7x7_LFCN_1_7x7_0_split_1
I0102 22:18:29.145377 12172 net.cpp:434] detection_accuracy_1_7x7 <- label_1_7x7_data_2_split_1
I0102 22:18:29.145383 12172 net.cpp:408] detection_accuracy_1_7x7 -> accuracy_1_7x7
I0102 22:18:29.145390 12172 net.cpp:408] detection_accuracy_1_7x7 -> boxiou_1_7x7
I0102 22:18:29.145422 12172 net.cpp:150] Setting up detection_accuracy_1_7x7
I0102 22:18:29.145426 12172 net.cpp:157] Top shape: 1 1 1 2 (2)
I0102 22:18:29.145431 12172 net.cpp:157] Top shape: 1 1 1 1 (1)
I0102 22:18:29.145433 12172 net.cpp:165] Memory required for data: 3014555972
I0102 22:18:29.145437 12172 layer_factory.hpp:77] Creating layer conv4_7/dwise
I0102 22:18:29.145443 12172 net.cpp:100] Creating Layer conv4_7/dwise
I0102 22:18:29.145447 12172 net.cpp:434] conv4_7/dwise <- conv4_7/expand/bn
I0102 22:18:29.145453 12172 net.cpp:408] conv4_7/dwise -> conv4_7/dwise
I0102 22:18:29.145709 12172 net.cpp:150] Setting up conv4_7/dwise
I0102 22:18:29.145715 12172 net.cpp:157] Top shape: 2 384 48 48 (1769472)
I0102 22:18:29.145718 12172 net.cpp:165] Memory required for data: 3021633860
I0102 22:18:29.145723 12172 layer_factory.hpp:77] Creating layer conv4_7/dwise/bn
I0102 22:18:29.145730 12172 net.cpp:100] Creating Layer conv4_7/dwise/bn
I0102 22:18:29.145733 12172 net.cpp:434] conv4_7/dwise/bn <- conv4_7/dwise
I0102 22:18:29.145737 12172 net.cpp:408] conv4_7/dwise/bn -> conv4_7/dwise/bn
I0102 22:18:29.145918 12172 net.cpp:150] Setting up conv4_7/dwise/bn
I0102 22:18:29.145925 12172 net.cpp:157] Top shape: 2 384 48 48 (1769472)
I0102 22:18:29.145927 12172 net.cpp:165] Memory required for data: 3028711748
I0102 22:18:29.145934 12172 layer_factory.hpp:77] Creating layer conv4_7/dwise/scale
I0102 22:18:29.145939 12172 net.cpp:100] Creating Layer conv4_7/dwise/scale
I0102 22:18:29.145943 12172 net.cpp:434] conv4_7/dwise/scale <- conv4_7/dwise/bn
I0102 22:18:29.145947 12172 net.cpp:395] conv4_7/dwise/scale -> conv4_7/dwise/bn (in-place)
I0102 22:18:29.145980 12172 layer_factory.hpp:77] Creating layer conv4_7/dwise/scale
I0102 22:18:29.146076 12172 net.cpp:150] Setting up conv4_7/dwise/scale
I0102 22:18:29.146081 12172 net.cpp:157] Top shape: 2 384 48 48 (1769472)
I0102 22:18:29.146085 12172 net.cpp:165] Memory required for data: 3035789636
I0102 22:18:29.146090 12172 layer_factory.hpp:77] Creating layer relu4_7/dwise
I0102 22:18:29.146095 12172 net.cpp:100] Creating Layer relu4_7/dwise
I0102 22:18:29.146098 12172 net.cpp:434] relu4_7/dwise <- conv4_7/dwise/bn
I0102 22:18:29.146103 12172 net.cpp:395] relu4_7/dwise -> conv4_7/dwise/bn (in-place)
I0102 22:18:29.146258 12172 net.cpp:150] Setting up relu4_7/dwise
I0102 22:18:29.146265 12172 net.cpp:157] Top shape: 2 384 48 48 (1769472)
I0102 22:18:29.146268 12172 net.cpp:165] Memory required for data: 3042867524
I0102 22:18:29.146271 12172 layer_factory.hpp:77] Creating layer conv4_7/linear
I0102 22:18:29.146279 12172 net.cpp:100] Creating Layer conv4_7/linear
I0102 22:18:29.146283 12172 net.cpp:434] conv4_7/linear <- conv4_7/dwise/bn
I0102 22:18:29.146288 12172 net.cpp:408] conv4_7/linear -> conv4_7/linear
I0102 22:18:29.148149 12172 net.cpp:150] Setting up conv4_7/linear
I0102 22:18:29.148159 12172 net.cpp:157] Top shape: 2 96 48 48 (442368)
I0102 22:18:29.148164 12172 net.cpp:165] Memory required for data: 3044636996
I0102 22:18:29.148169 12172 layer_factory.hpp:77] Creating layer conv4_7/linear/bn
I0102 22:18:29.148175 12172 net.cpp:100] Creating Layer conv4_7/linear/bn
I0102 22:18:29.148180 12172 net.cpp:434] conv4_7/linear/bn <- conv4_7/linear
I0102 22:18:29.148185 12172 net.cpp:408] conv4_7/linear/bn -> conv4_7/linear/bn
I0102 22:18:29.148392 12172 net.cpp:150] Setting up conv4_7/linear/bn
I0102 22:18:29.148399 12172 net.cpp:157] Top shape: 2 96 48 48 (442368)
I0102 22:18:29.148402 12172 net.cpp:165] Memory required for data: 3046406468
I0102 22:18:29.148409 12172 layer_factory.hpp:77] Creating layer conv4_7/linear/scale
I0102 22:18:29.148416 12172 net.cpp:100] Creating Layer conv4_7/linear/scale
I0102 22:18:29.148419 12172 net.cpp:434] conv4_7/linear/scale <- conv4_7/linear/bn
I0102 22:18:29.148424 12172 net.cpp:395] conv4_7/linear/scale -> conv4_7/linear/bn (in-place)
I0102 22:18:29.148459 12172 layer_factory.hpp:77] Creating layer conv4_7/linear/scale
I0102 22:18:29.148566 12172 net.cpp:150] Setting up conv4_7/linear/scale
I0102 22:18:29.148571 12172 net.cpp:157] Top shape: 2 96 48 48 (442368)
I0102 22:18:29.148573 12172 net.cpp:165] Memory required for data: 3048175940
I0102 22:18:29.148578 12172 layer_factory.hpp:77] Creating layer conv4_7/linear/bn_conv4_7/linear/scale_0_split
I0102 22:18:29.148584 12172 net.cpp:100] Creating Layer conv4_7/linear/bn_conv4_7/linear/scale_0_split
I0102 22:18:29.148587 12172 net.cpp:434] conv4_7/linear/bn_conv4_7/linear/scale_0_split <- conv4_7/linear/bn
I0102 22:18:29.148592 12172 net.cpp:408] conv4_7/linear/bn_conv4_7/linear/scale_0_split -> conv4_7/linear/bn_conv4_7/linear/scale_0_split_0
I0102 22:18:29.148599 12172 net.cpp:408] conv4_7/linear/bn_conv4_7/linear/scale_0_split -> conv4_7/linear/bn_conv4_7/linear/scale_0_split_1
I0102 22:18:29.148630 12172 net.cpp:150] Setting up conv4_7/linear/bn_conv4_7/linear/scale_0_split
I0102 22:18:29.148635 12172 net.cpp:157] Top shape: 2 96 48 48 (442368)
I0102 22:18:29.148639 12172 net.cpp:157] Top shape: 2 96 48 48 (442368)
I0102 22:18:29.148643 12172 net.cpp:165] Memory required for data: 3051714884
I0102 22:18:29.148645 12172 layer_factory.hpp:77] Creating layer conv5_1/expand
I0102 22:18:29.148651 12172 net.cpp:100] Creating Layer conv5_1/expand
I0102 22:18:29.148654 12172 net.cpp:434] conv5_1/expand <- conv4_7/linear/bn_conv4_7/linear/scale_0_split_0
I0102 22:18:29.148661 12172 net.cpp:408] conv5_1/expand -> conv5_1/expand
I0102 22:18:29.150990 12172 net.cpp:150] Setting up conv5_1/expand
I0102 22:18:29.151001 12172 net.cpp:157] Top shape: 2 576 48 48 (2654208)
I0102 22:18:29.151005 12172 net.cpp:165] Memory required for data: 3062331716
I0102 22:18:29.151010 12172 layer_factory.hpp:77] Creating layer conv5_1/expand/bn
I0102 22:18:29.151016 12172 net.cpp:100] Creating Layer conv5_1/expand/bn
I0102 22:18:29.151021 12172 net.cpp:434] conv5_1/expand/bn <- conv5_1/expand
I0102 22:18:29.151026 12172 net.cpp:408] conv5_1/expand/bn -> conv5_1/expand/bn
I0102 22:18:29.151221 12172 net.cpp:150] Setting up conv5_1/expand/bn
I0102 22:18:29.151226 12172 net.cpp:157] Top shape: 2 576 48 48 (2654208)
I0102 22:18:29.151230 12172 net.cpp:165] Memory required for data: 3072948548
I0102 22:18:29.151237 12172 layer_factory.hpp:77] Creating layer conv5_1/expand/scale
I0102 22:18:29.151242 12172 net.cpp:100] Creating Layer conv5_1/expand/scale
I0102 22:18:29.151245 12172 net.cpp:434] conv5_1/expand/scale <- conv5_1/expand/bn
I0102 22:18:29.151252 12172 net.cpp:395] conv5_1/expand/scale -> conv5_1/expand/bn (in-place)
I0102 22:18:29.151288 12172 layer_factory.hpp:77] Creating layer conv5_1/expand/scale
I0102 22:18:29.151396 12172 net.cpp:150] Setting up conv5_1/expand/scale
I0102 22:18:29.151402 12172 net.cpp:157] Top shape: 2 576 48 48 (2654208)
I0102 22:18:29.151404 12172 net.cpp:165] Memory required for data: 3083565380
I0102 22:18:29.151410 12172 layer_factory.hpp:77] Creating layer relu5_1/expand
I0102 22:18:29.151415 12172 net.cpp:100] Creating Layer relu5_1/expand
I0102 22:18:29.151418 12172 net.cpp:434] relu5_1/expand <- conv5_1/expand/bn
I0102 22:18:29.151423 12172 net.cpp:395] relu5_1/expand -> conv5_1/expand/bn (in-place)
I0102 22:18:29.151576 12172 net.cpp:150] Setting up relu5_1/expand
I0102 22:18:29.151582 12172 net.cpp:157] Top shape: 2 576 48 48 (2654208)
I0102 22:18:29.151584 12172 net.cpp:165] Memory required for data: 3094182212
I0102 22:18:29.151588 12172 layer_factory.hpp:77] Creating layer conv5_1/dwise
I0102 22:18:29.151595 12172 net.cpp:100] Creating Layer conv5_1/dwise
I0102 22:18:29.151598 12172 net.cpp:434] conv5_1/dwise <- conv5_1/expand/bn
I0102 22:18:29.151603 12172 net.cpp:408] conv5_1/dwise -> conv5_1/dwise
I0102 22:18:29.151907 12172 net.cpp:150] Setting up conv5_1/dwise
I0102 22:18:29.151913 12172 net.cpp:157] Top shape: 2 576 48 48 (2654208)
I0102 22:18:29.151916 12172 net.cpp:165] Memory required for data: 3104799044
I0102 22:18:29.151922 12172 layer_factory.hpp:77] Creating layer conv5_1/dwise/bn
I0102 22:18:29.151928 12172 net.cpp:100] Creating Layer conv5_1/dwise/bn
I0102 22:18:29.151932 12172 net.cpp:434] conv5_1/dwise/bn <- conv5_1/dwise
I0102 22:18:29.151937 12172 net.cpp:408] conv5_1/dwise/bn -> conv5_1/dwise/bn
I0102 22:18:29.152128 12172 net.cpp:150] Setting up conv5_1/dwise/bn
I0102 22:18:29.152134 12172 net.cpp:157] Top shape: 2 576 48 48 (2654208)
I0102 22:18:29.152137 12172 net.cpp:165] Memory required for data: 3115415876
I0102 22:18:29.152143 12172 layer_factory.hpp:77] Creating layer conv5_1/dwise/scale
I0102 22:18:29.152149 12172 net.cpp:100] Creating Layer conv5_1/dwise/scale
I0102 22:18:29.152153 12172 net.cpp:434] conv5_1/dwise/scale <- conv5_1/dwise/bn
I0102 22:18:29.152158 12172 net.cpp:395] conv5_1/dwise/scale -> conv5_1/dwise/bn (in-place)
I0102 22:18:29.152194 12172 layer_factory.hpp:77] Creating layer conv5_1/dwise/scale
I0102 22:18:29.152302 12172 net.cpp:150] Setting up conv5_1/dwise/scale
I0102 22:18:29.152308 12172 net.cpp:157] Top shape: 2 576 48 48 (2654208)
I0102 22:18:29.152312 12172 net.cpp:165] Memory required for data: 3126032708
I0102 22:18:29.152318 12172 layer_factory.hpp:77] Creating layer relu5_1/dwise
I0102 22:18:29.152323 12172 net.cpp:100] Creating Layer relu5_1/dwise
I0102 22:18:29.152325 12172 net.cpp:434] relu5_1/dwise <- conv5_1/dwise/bn
I0102 22:18:29.152330 12172 net.cpp:395] relu5_1/dwise -> conv5_1/dwise/bn (in-place)
I0102 22:18:29.152777 12172 net.cpp:150] Setting up relu5_1/dwise
I0102 22:18:29.152788 12172 net.cpp:157] Top shape: 2 576 48 48 (2654208)
I0102 22:18:29.152792 12172 net.cpp:165] Memory required for data: 3136649540
I0102 22:18:29.152796 12172 layer_factory.hpp:77] Creating layer conv5_1/linear
I0102 22:18:29.152804 12172 net.cpp:100] Creating Layer conv5_1/linear
I0102 22:18:29.152808 12172 net.cpp:434] conv5_1/linear <- conv5_1/dwise/bn
I0102 22:18:29.152813 12172 net.cpp:408] conv5_1/linear -> conv5_1/linear
I0102 22:18:29.154588 12172 net.cpp:150] Setting up conv5_1/linear
I0102 22:18:29.154597 12172 net.cpp:157] Top shape: 2 96 48 48 (442368)
I0102 22:18:29.154598 12172 net.cpp:165] Memory required for data: 3138419012
I0102 22:18:29.154603 12172 layer_factory.hpp:77] Creating layer conv5_1/linear/bn
I0102 22:18:29.154608 12172 net.cpp:100] Creating Layer conv5_1/linear/bn
I0102 22:18:29.154610 12172 net.cpp:434] conv5_1/linear/bn <- conv5_1/linear
I0102 22:18:29.154616 12172 net.cpp:408] conv5_1/linear/bn -> conv5_1/linear/bn
I0102 22:18:29.154810 12172 net.cpp:150] Setting up conv5_1/linear/bn
I0102 22:18:29.154816 12172 net.cpp:157] Top shape: 2 96 48 48 (442368)
I0102 22:18:29.154819 12172 net.cpp:165] Memory required for data: 3140188484
I0102 22:18:29.154826 12172 layer_factory.hpp:77] Creating layer conv5_1/linear/scale
I0102 22:18:29.154831 12172 net.cpp:100] Creating Layer conv5_1/linear/scale
I0102 22:18:29.154835 12172 net.cpp:434] conv5_1/linear/scale <- conv5_1/linear/bn
I0102 22:18:29.154840 12172 net.cpp:395] conv5_1/linear/scale -> conv5_1/linear/bn (in-place)
I0102 22:18:29.154876 12172 layer_factory.hpp:77] Creating layer conv5_1/linear/scale
I0102 22:18:29.154983 12172 net.cpp:150] Setting up conv5_1/linear/scale
I0102 22:18:29.154987 12172 net.cpp:157] Top shape: 2 96 48 48 (442368)
I0102 22:18:29.154990 12172 net.cpp:165] Memory required for data: 3141957956
I0102 22:18:29.154995 12172 layer_factory.hpp:77] Creating layer block_5_1
I0102 22:18:29.155001 12172 net.cpp:100] Creating Layer block_5_1
I0102 22:18:29.155005 12172 net.cpp:434] block_5_1 <- conv4_7/linear/bn_conv4_7/linear/scale_0_split_1
I0102 22:18:29.155009 12172 net.cpp:434] block_5_1 <- conv5_1/linear/bn
I0102 22:18:29.155014 12172 net.cpp:408] block_5_1 -> block_5_1
I0102 22:18:29.155035 12172 net.cpp:150] Setting up block_5_1
I0102 22:18:29.155040 12172 net.cpp:157] Top shape: 2 96 48 48 (442368)
I0102 22:18:29.155043 12172 net.cpp:165] Memory required for data: 3143727428
I0102 22:18:29.155046 12172 layer_factory.hpp:77] Creating layer block_5_1_block_5_1_0_split
I0102 22:18:29.155051 12172 net.cpp:100] Creating Layer block_5_1_block_5_1_0_split
I0102 22:18:29.155055 12172 net.cpp:434] block_5_1_block_5_1_0_split <- block_5_1
I0102 22:18:29.155061 12172 net.cpp:408] block_5_1_block_5_1_0_split -> block_5_1_block_5_1_0_split_0
I0102 22:18:29.155066 12172 net.cpp:408] block_5_1_block_5_1_0_split -> block_5_1_block_5_1_0_split_1
I0102 22:18:29.155097 12172 net.cpp:150] Setting up block_5_1_block_5_1_0_split
I0102 22:18:29.155102 12172 net.cpp:157] Top shape: 2 96 48 48 (442368)
I0102 22:18:29.155105 12172 net.cpp:157] Top shape: 2 96 48 48 (442368)
I0102 22:18:29.155108 12172 net.cpp:165] Memory required for data: 3147266372
I0102 22:18:29.155112 12172 layer_factory.hpp:77] Creating layer conv5_2/expand
I0102 22:18:29.155118 12172 net.cpp:100] Creating Layer conv5_2/expand
I0102 22:18:29.155122 12172 net.cpp:434] conv5_2/expand <- block_5_1_block_5_1_0_split_0
I0102 22:18:29.155128 12172 net.cpp:408] conv5_2/expand -> conv5_2/expand
I0102 22:18:29.157683 12172 net.cpp:150] Setting up conv5_2/expand
I0102 22:18:29.157694 12172 net.cpp:157] Top shape: 2 576 48 48 (2654208)
I0102 22:18:29.157697 12172 net.cpp:165] Memory required for data: 3157883204
I0102 22:18:29.157702 12172 layer_factory.hpp:77] Creating layer conv5_2/expand/bn
I0102 22:18:29.157709 12172 net.cpp:100] Creating Layer conv5_2/expand/bn
I0102 22:18:29.157713 12172 net.cpp:434] conv5_2/expand/bn <- conv5_2/expand
I0102 22:18:29.157719 12172 net.cpp:408] conv5_2/expand/bn -> conv5_2/expand/bn
I0102 22:18:29.157917 12172 net.cpp:150] Setting up conv5_2/expand/bn
I0102 22:18:29.157922 12172 net.cpp:157] Top shape: 2 576 48 48 (2654208)
I0102 22:18:29.157925 12172 net.cpp:165] Memory required for data: 3168500036
I0102 22:18:29.157932 12172 layer_factory.hpp:77] Creating layer conv5_2/expand/scale
I0102 22:18:29.157938 12172 net.cpp:100] Creating Layer conv5_2/expand/scale
I0102 22:18:29.157941 12172 net.cpp:434] conv5_2/expand/scale <- conv5_2/expand/bn
I0102 22:18:29.157946 12172 net.cpp:395] conv5_2/expand/scale -> conv5_2/expand/bn (in-place)
I0102 22:18:29.157984 12172 layer_factory.hpp:77] Creating layer conv5_2/expand/scale
I0102 22:18:29.158094 12172 net.cpp:150] Setting up conv5_2/expand/scale
I0102 22:18:29.158100 12172 net.cpp:157] Top shape: 2 576 48 48 (2654208)
I0102 22:18:29.158103 12172 net.cpp:165] Memory required for data: 3179116868
I0102 22:18:29.158108 12172 layer_factory.hpp:77] Creating layer relu5_2/expand
I0102 22:18:29.158113 12172 net.cpp:100] Creating Layer relu5_2/expand
I0102 22:18:29.158116 12172 net.cpp:434] relu5_2/expand <- conv5_2/expand/bn
I0102 22:18:29.158121 12172 net.cpp:395] relu5_2/expand -> conv5_2/expand/bn (in-place)
I0102 22:18:29.158607 12172 net.cpp:150] Setting up relu5_2/expand
I0102 22:18:29.158617 12172 net.cpp:157] Top shape: 2 576 48 48 (2654208)
I0102 22:18:29.158620 12172 net.cpp:165] Memory required for data: 3189733700
I0102 22:18:29.158624 12172 layer_factory.hpp:77] Creating layer conv5_2/dwise
I0102 22:18:29.158632 12172 net.cpp:100] Creating Layer conv5_2/dwise
I0102 22:18:29.158635 12172 net.cpp:434] conv5_2/dwise <- conv5_2/expand/bn
I0102 22:18:29.158641 12172 net.cpp:408] conv5_2/dwise -> conv5_2/dwise
I0102 22:18:29.158959 12172 net.cpp:150] Setting up conv5_2/dwise
I0102 22:18:29.158967 12172 net.cpp:157] Top shape: 2 576 48 48 (2654208)
I0102 22:18:29.158969 12172 net.cpp:165] Memory required for data: 3200350532
I0102 22:18:29.158973 12172 layer_factory.hpp:77] Creating layer conv5_2/dwise/bn
I0102 22:18:29.158979 12172 net.cpp:100] Creating Layer conv5_2/dwise/bn
I0102 22:18:29.158982 12172 net.cpp:434] conv5_2/dwise/bn <- conv5_2/dwise
I0102 22:18:29.158988 12172 net.cpp:408] conv5_2/dwise/bn -> conv5_2/dwise/bn
I0102 22:18:29.159180 12172 net.cpp:150] Setting up conv5_2/dwise/bn
I0102 22:18:29.159186 12172 net.cpp:157] Top shape: 2 576 48 48 (2654208)
I0102 22:18:29.159189 12172 net.cpp:165] Memory required for data: 3210967364
I0102 22:18:29.159196 12172 layer_factory.hpp:77] Creating layer conv5_2/dwise/scale
I0102 22:18:29.159202 12172 net.cpp:100] Creating Layer conv5_2/dwise/scale
I0102 22:18:29.159205 12172 net.cpp:434] conv5_2/dwise/scale <- conv5_2/dwise/bn
I0102 22:18:29.159210 12172 net.cpp:395] conv5_2/dwise/scale -> conv5_2/dwise/bn (in-place)
I0102 22:18:29.159248 12172 layer_factory.hpp:77] Creating layer conv5_2/dwise/scale
I0102 22:18:29.159356 12172 net.cpp:150] Setting up conv5_2/dwise/scale
I0102 22:18:29.159363 12172 net.cpp:157] Top shape: 2 576 48 48 (2654208)
I0102 22:18:29.159364 12172 net.cpp:165] Memory required for data: 3221584196
I0102 22:18:29.159370 12172 layer_factory.hpp:77] Creating layer relu5_2/dwise
I0102 22:18:29.159374 12172 net.cpp:100] Creating Layer relu5_2/dwise
I0102 22:18:29.159379 12172 net.cpp:434] relu5_2/dwise <- conv5_2/dwise/bn
I0102 22:18:29.159384 12172 net.cpp:395] relu5_2/dwise -> conv5_2/dwise/bn (in-place)
I0102 22:18:29.159552 12172 net.cpp:150] Setting up relu5_2/dwise
I0102 22:18:29.159559 12172 net.cpp:157] Top shape: 2 576 48 48 (2654208)
I0102 22:18:29.159562 12172 net.cpp:165] Memory required for data: 3232201028
I0102 22:18:29.159566 12172 layer_factory.hpp:77] Creating layer conv5_2/linear
I0102 22:18:29.159574 12172 net.cpp:100] Creating Layer conv5_2/linear
I0102 22:18:29.159577 12172 net.cpp:434] conv5_2/linear <- conv5_2/dwise/bn
I0102 22:18:29.159582 12172 net.cpp:408] conv5_2/linear -> conv5_2/linear
I0102 22:18:29.161783 12172 net.cpp:150] Setting up conv5_2/linear
I0102 22:18:29.161792 12172 net.cpp:157] Top shape: 2 96 48 48 (442368)
I0102 22:18:29.161795 12172 net.cpp:165] Memory required for data: 3233970500
I0102 22:18:29.161799 12172 layer_factory.hpp:77] Creating layer conv5_2/linear/bn
I0102 22:18:29.161805 12172 net.cpp:100] Creating Layer conv5_2/linear/bn
I0102 22:18:29.161809 12172 net.cpp:434] conv5_2/linear/bn <- conv5_2/linear
I0102 22:18:29.161813 12172 net.cpp:408] conv5_2/linear/bn -> conv5_2/linear/bn
I0102 22:18:29.161983 12172 net.cpp:150] Setting up conv5_2/linear/bn
I0102 22:18:29.161988 12172 net.cpp:157] Top shape: 2 96 48 48 (442368)
I0102 22:18:29.161990 12172 net.cpp:165] Memory required for data: 3235739972
I0102 22:18:29.161995 12172 layer_factory.hpp:77] Creating layer conv5_2/linear/scale
I0102 22:18:29.162003 12172 net.cpp:100] Creating Layer conv5_2/linear/scale
I0102 22:18:29.162005 12172 net.cpp:434] conv5_2/linear/scale <- conv5_2/linear/bn
I0102 22:18:29.162010 12172 net.cpp:395] conv5_2/linear/scale -> conv5_2/linear/bn (in-place)
I0102 22:18:29.162040 12172 layer_factory.hpp:77] Creating layer conv5_2/linear/scale
I0102 22:18:29.162133 12172 net.cpp:150] Setting up conv5_2/linear/scale
I0102 22:18:29.162137 12172 net.cpp:157] Top shape: 2 96 48 48 (442368)
I0102 22:18:29.162140 12172 net.cpp:165] Memory required for data: 3237509444
I0102 22:18:29.162144 12172 layer_factory.hpp:77] Creating layer block_5_2
I0102 22:18:29.162150 12172 net.cpp:100] Creating Layer block_5_2
I0102 22:18:29.162153 12172 net.cpp:434] block_5_2 <- block_5_1_block_5_1_0_split_1
I0102 22:18:29.162156 12172 net.cpp:434] block_5_2 <- conv5_2/linear/bn
I0102 22:18:29.162160 12172 net.cpp:408] block_5_2 -> block_5_2
I0102 22:18:29.162179 12172 net.cpp:150] Setting up block_5_2
I0102 22:18:29.162184 12172 net.cpp:157] Top shape: 2 96 48 48 (442368)
I0102 22:18:29.162185 12172 net.cpp:165] Memory required for data: 3239278916
I0102 22:18:29.162189 12172 layer_factory.hpp:77] Creating layer block_5_2_block_5_2_0_split
I0102 22:18:29.162191 12172 net.cpp:100] Creating Layer block_5_2_block_5_2_0_split
I0102 22:18:29.162194 12172 net.cpp:434] block_5_2_block_5_2_0_split <- block_5_2
I0102 22:18:29.162204 12172 net.cpp:408] block_5_2_block_5_2_0_split -> block_5_2_block_5_2_0_split_0
I0102 22:18:29.162209 12172 net.cpp:408] block_5_2_block_5_2_0_split -> block_5_2_block_5_2_0_split_1
I0102 22:18:29.162214 12172 net.cpp:408] block_5_2_block_5_2_0_split -> block_5_2_block_5_2_0_split_2
I0102 22:18:29.162250 12172 net.cpp:150] Setting up block_5_2_block_5_2_0_split
I0102 22:18:29.162255 12172 net.cpp:157] Top shape: 2 96 48 48 (442368)
I0102 22:18:29.162257 12172 net.cpp:157] Top shape: 2 96 48 48 (442368)
I0102 22:18:29.162261 12172 net.cpp:157] Top shape: 2 96 48 48 (442368)
I0102 22:18:29.162263 12172 net.cpp:165] Memory required for data: 3244587332
I0102 22:18:29.162266 12172 layer_factory.hpp:77] Creating layer conv5_3/expand
I0102 22:18:29.162272 12172 net.cpp:100] Creating Layer conv5_3/expand
I0102 22:18:29.162276 12172 net.cpp:434] conv5_3/expand <- block_5_2_block_5_2_0_split_0
I0102 22:18:29.162279 12172 net.cpp:408] conv5_3/expand -> conv5_3/expand
I0102 22:18:29.164547 12172 net.cpp:150] Setting up conv5_3/expand
I0102 22:18:29.164561 12172 net.cpp:157] Top shape: 2 576 48 48 (2654208)
I0102 22:18:29.164566 12172 net.cpp:165] Memory required for data: 3255204164
I0102 22:18:29.164572 12172 layer_factory.hpp:77] Creating layer conv5_3/expand/bn
I0102 22:18:29.164579 12172 net.cpp:100] Creating Layer conv5_3/expand/bn
I0102 22:18:29.164584 12172 net.cpp:434] conv5_3/expand/bn <- conv5_3/expand
I0102 22:18:29.164592 12172 net.cpp:408] conv5_3/expand/bn -> conv5_3/expand/bn
I0102 22:18:29.164791 12172 net.cpp:150] Setting up conv5_3/expand/bn
I0102 22:18:29.164798 12172 net.cpp:157] Top shape: 2 576 48 48 (2654208)
I0102 22:18:29.164800 12172 net.cpp:165] Memory required for data: 3265820996
I0102 22:18:29.164808 12172 layer_factory.hpp:77] Creating layer conv5_3/expand/scale
I0102 22:18:29.164813 12172 net.cpp:100] Creating Layer conv5_3/expand/scale
I0102 22:18:29.164816 12172 net.cpp:434] conv5_3/expand/scale <- conv5_3/expand/bn
I0102 22:18:29.164821 12172 net.cpp:395] conv5_3/expand/scale -> conv5_3/expand/bn (in-place)
I0102 22:18:29.164865 12172 layer_factory.hpp:77] Creating layer conv5_3/expand/scale
I0102 22:18:29.164973 12172 net.cpp:150] Setting up conv5_3/expand/scale
I0102 22:18:29.164978 12172 net.cpp:157] Top shape: 2 576 48 48 (2654208)
I0102 22:18:29.164981 12172 net.cpp:165] Memory required for data: 3276437828
I0102 22:18:29.164986 12172 layer_factory.hpp:77] Creating layer relu5_3/expand
I0102 22:18:29.164991 12172 net.cpp:100] Creating Layer relu5_3/expand
I0102 22:18:29.164995 12172 net.cpp:434] relu5_3/expand <- conv5_3/expand/bn
I0102 22:18:29.165000 12172 net.cpp:395] relu5_3/expand -> conv5_3/expand/bn (in-place)
I0102 22:18:29.165153 12172 net.cpp:150] Setting up relu5_3/expand
I0102 22:18:29.165160 12172 net.cpp:157] Top shape: 2 576 48 48 (2654208)
I0102 22:18:29.165163 12172 net.cpp:165] Memory required for data: 3287054660
I0102 22:18:29.165168 12172 layer_factory.hpp:77] Creating layer LFCN_2_5x5
I0102 22:18:29.165175 12172 net.cpp:100] Creating Layer LFCN_2_5x5
I0102 22:18:29.165179 12172 net.cpp:434] LFCN_2_5x5 <- block_5_2_block_5_2_0_split_1
I0102 22:18:29.165186 12172 net.cpp:408] LFCN_2_5x5 -> LFCN_2_5x5
I0102 22:18:29.166622 12172 net.cpp:150] Setting up LFCN_2_5x5
I0102 22:18:29.166631 12172 net.cpp:157] Top shape: 2 9 48 48 (41472)
I0102 22:18:29.166635 12172 net.cpp:165] Memory required for data: 3287220548
I0102 22:18:29.166640 12172 layer_factory.hpp:77] Creating layer LFCN_2_5x5_LFCN_2_5x5_0_split
I0102 22:18:29.166646 12172 net.cpp:100] Creating Layer LFCN_2_5x5_LFCN_2_5x5_0_split
I0102 22:18:29.166648 12172 net.cpp:434] LFCN_2_5x5_LFCN_2_5x5_0_split <- LFCN_2_5x5
I0102 22:18:29.166653 12172 net.cpp:408] LFCN_2_5x5_LFCN_2_5x5_0_split -> LFCN_2_5x5_LFCN_2_5x5_0_split_0
I0102 22:18:29.166659 12172 net.cpp:408] LFCN_2_5x5_LFCN_2_5x5_0_split -> LFCN_2_5x5_LFCN_2_5x5_0_split_1
I0102 22:18:29.166664 12172 net.cpp:408] LFCN_2_5x5_LFCN_2_5x5_0_split -> LFCN_2_5x5_LFCN_2_5x5_0_split_2
I0102 22:18:29.166703 12172 net.cpp:150] Setting up LFCN_2_5x5_LFCN_2_5x5_0_split
I0102 22:18:29.166708 12172 net.cpp:157] Top shape: 2 9 48 48 (41472)
I0102 22:18:29.166712 12172 net.cpp:157] Top shape: 2 9 48 48 (41472)
I0102 22:18:29.166714 12172 net.cpp:157] Top shape: 2 9 48 48 (41472)
I0102 22:18:29.166718 12172 net.cpp:165] Memory required for data: 3287718212
I0102 22:18:29.166719 12172 layer_factory.hpp:77] Creating layer detection_loss_2_5x5
I0102 22:18:29.166726 12172 net.cpp:100] Creating Layer detection_loss_2_5x5
I0102 22:18:29.166729 12172 net.cpp:434] detection_loss_2_5x5 <- LFCN_2_5x5_LFCN_2_5x5_0_split_0
I0102 22:18:29.166733 12172 net.cpp:434] detection_loss_2_5x5 <- label_2_5x5_data_3_split_0
I0102 22:18:29.166738 12172 net.cpp:408] detection_loss_2_5x5 -> loss_2_5x5
I0102 22:18:29.166744 12172 layer_factory.hpp:77] Creating layer detection_loss_2_5x5
I0102 22:18:29.167050 12172 net.cpp:150] Setting up detection_loss_2_5x5
I0102 22:18:29.167059 12172 net.cpp:157] Top shape: 1 1 1 2 (2)
I0102 22:18:29.167062 12172 net.cpp:160]     with loss weight 1
I0102 22:18:29.167070 12172 net.cpp:165] Memory required for data: 3287718220
I0102 22:18:29.167074 12172 layer_factory.hpp:77] Creating layer detection_accuracy_2_5x5
I0102 22:18:29.167080 12172 net.cpp:100] Creating Layer detection_accuracy_2_5x5
I0102 22:18:29.167083 12172 net.cpp:434] detection_accuracy_2_5x5 <- LFCN_2_5x5_LFCN_2_5x5_0_split_1
I0102 22:18:29.167088 12172 net.cpp:434] detection_accuracy_2_5x5 <- label_2_5x5_data_3_split_1
I0102 22:18:29.167093 12172 net.cpp:408] detection_accuracy_2_5x5 -> accuracy_2_5x5
I0102 22:18:29.167101 12172 net.cpp:408] detection_accuracy_2_5x5 -> boxiou_2_5x5
I0102 22:18:29.167136 12172 net.cpp:150] Setting up detection_accuracy_2_5x5
I0102 22:18:29.167141 12172 net.cpp:157] Top shape: 1 1 1 2 (2)
I0102 22:18:29.167145 12172 net.cpp:157] Top shape: 1 1 1 1 (1)
I0102 22:18:29.167148 12172 net.cpp:165] Memory required for data: 3287718232
I0102 22:18:29.167151 12172 layer_factory.hpp:77] Creating layer LFCN_2_7x7
I0102 22:18:29.167160 12172 net.cpp:100] Creating Layer LFCN_2_7x7
I0102 22:18:29.167163 12172 net.cpp:434] LFCN_2_7x7 <- block_5_2_block_5_2_0_split_2
I0102 22:18:29.167170 12172 net.cpp:408] LFCN_2_7x7 -> LFCN_2_7x7
I0102 22:18:29.169234 12172 net.cpp:150] Setting up LFCN_2_7x7
I0102 22:18:29.169245 12172 net.cpp:157] Top shape: 2 9 48 48 (41472)
I0102 22:18:29.169247 12172 net.cpp:165] Memory required for data: 3287884120
I0102 22:18:29.169253 12172 layer_factory.hpp:77] Creating layer LFCN_2_7x7_LFCN_2_7x7_0_split
I0102 22:18:29.169258 12172 net.cpp:100] Creating Layer LFCN_2_7x7_LFCN_2_7x7_0_split
I0102 22:18:29.169262 12172 net.cpp:434] LFCN_2_7x7_LFCN_2_7x7_0_split <- LFCN_2_7x7
I0102 22:18:29.169268 12172 net.cpp:408] LFCN_2_7x7_LFCN_2_7x7_0_split -> LFCN_2_7x7_LFCN_2_7x7_0_split_0
I0102 22:18:29.169275 12172 net.cpp:408] LFCN_2_7x7_LFCN_2_7x7_0_split -> LFCN_2_7x7_LFCN_2_7x7_0_split_1
I0102 22:18:29.169281 12172 net.cpp:408] LFCN_2_7x7_LFCN_2_7x7_0_split -> LFCN_2_7x7_LFCN_2_7x7_0_split_2
I0102 22:18:29.169325 12172 net.cpp:150] Setting up LFCN_2_7x7_LFCN_2_7x7_0_split
I0102 22:18:29.169330 12172 net.cpp:157] Top shape: 2 9 48 48 (41472)
I0102 22:18:29.169334 12172 net.cpp:157] Top shape: 2 9 48 48 (41472)
I0102 22:18:29.169338 12172 net.cpp:157] Top shape: 2 9 48 48 (41472)
I0102 22:18:29.169342 12172 net.cpp:165] Memory required for data: 3288381784
I0102 22:18:29.169344 12172 layer_factory.hpp:77] Creating layer detection_loss_2_7x7
I0102 22:18:29.169351 12172 net.cpp:100] Creating Layer detection_loss_2_7x7
I0102 22:18:29.169355 12172 net.cpp:434] detection_loss_2_7x7 <- LFCN_2_7x7_LFCN_2_7x7_0_split_0
I0102 22:18:29.169359 12172 net.cpp:434] detection_loss_2_7x7 <- label_2_7x7_data_4_split_0
I0102 22:18:29.169365 12172 net.cpp:408] detection_loss_2_7x7 -> loss_2_7x7
I0102 22:18:29.169373 12172 layer_factory.hpp:77] Creating layer detection_loss_2_7x7
I0102 22:18:29.169701 12172 net.cpp:150] Setting up detection_loss_2_7x7
I0102 22:18:29.169709 12172 net.cpp:157] Top shape: 1 1 1 2 (2)
I0102 22:18:29.169713 12172 net.cpp:160]     with loss weight 1
I0102 22:18:29.169718 12172 net.cpp:165] Memory required for data: 3288381792
I0102 22:18:29.169721 12172 layer_factory.hpp:77] Creating layer detection_accuracy_2_7x7
I0102 22:18:29.169728 12172 net.cpp:100] Creating Layer detection_accuracy_2_7x7
I0102 22:18:29.169731 12172 net.cpp:434] detection_accuracy_2_7x7 <- LFCN_2_7x7_LFCN_2_7x7_0_split_1
I0102 22:18:29.169736 12172 net.cpp:434] detection_accuracy_2_7x7 <- label_2_7x7_data_4_split_1
I0102 22:18:29.169742 12172 net.cpp:408] detection_accuracy_2_7x7 -> accuracy_2_7x7
I0102 22:18:29.169749 12172 net.cpp:408] detection_accuracy_2_7x7 -> boxiou_2_7x7
I0102 22:18:29.169785 12172 net.cpp:150] Setting up detection_accuracy_2_7x7
I0102 22:18:29.169790 12172 net.cpp:157] Top shape: 1 1 1 2 (2)
I0102 22:18:29.169793 12172 net.cpp:157] Top shape: 1 1 1 1 (1)
I0102 22:18:29.169796 12172 net.cpp:165] Memory required for data: 3288381804
I0102 22:18:29.169800 12172 layer_factory.hpp:77] Creating layer conv5_3/dwise
I0102 22:18:29.169806 12172 net.cpp:100] Creating Layer conv5_3/dwise
I0102 22:18:29.169811 12172 net.cpp:434] conv5_3/dwise <- conv5_3/expand/bn
I0102 22:18:29.169817 12172 net.cpp:408] conv5_3/dwise -> conv5_3/dwise
I0102 22:18:29.170106 12172 net.cpp:150] Setting up conv5_3/dwise
I0102 22:18:29.170111 12172 net.cpp:157] Top shape: 2 576 24 24 (663552)
I0102 22:18:29.170114 12172 net.cpp:165] Memory required for data: 3291036012
I0102 22:18:29.170135 12172 layer_factory.hpp:77] Creating layer conv5_3/dwise/bn
I0102 22:18:29.170141 12172 net.cpp:100] Creating Layer conv5_3/dwise/bn
I0102 22:18:29.170145 12172 net.cpp:434] conv5_3/dwise/bn <- conv5_3/dwise
I0102 22:18:29.170150 12172 net.cpp:408] conv5_3/dwise/bn -> conv5_3/dwise/bn
I0102 22:18:29.170320 12172 net.cpp:150] Setting up conv5_3/dwise/bn
I0102 22:18:29.170325 12172 net.cpp:157] Top shape: 2 576 24 24 (663552)
I0102 22:18:29.170327 12172 net.cpp:165] Memory required for data: 3293690220
I0102 22:18:29.170332 12172 layer_factory.hpp:77] Creating layer conv5_3/dwise/scale
I0102 22:18:29.170337 12172 net.cpp:100] Creating Layer conv5_3/dwise/scale
I0102 22:18:29.170341 12172 net.cpp:434] conv5_3/dwise/scale <- conv5_3/dwise/bn
I0102 22:18:29.170344 12172 net.cpp:395] conv5_3/dwise/scale -> conv5_3/dwise/bn (in-place)
I0102 22:18:29.170375 12172 layer_factory.hpp:77] Creating layer conv5_3/dwise/scale
I0102 22:18:29.170467 12172 net.cpp:150] Setting up conv5_3/dwise/scale
I0102 22:18:29.170471 12172 net.cpp:157] Top shape: 2 576 24 24 (663552)
I0102 22:18:29.170475 12172 net.cpp:165] Memory required for data: 3296344428
I0102 22:18:29.170478 12172 layer_factory.hpp:77] Creating layer relu5_3/dwise
I0102 22:18:29.170483 12172 net.cpp:100] Creating Layer relu5_3/dwise
I0102 22:18:29.170486 12172 net.cpp:434] relu5_3/dwise <- conv5_3/dwise/bn
I0102 22:18:29.170490 12172 net.cpp:395] relu5_3/dwise -> conv5_3/dwise/bn (in-place)
I0102 22:18:29.170871 12172 net.cpp:150] Setting up relu5_3/dwise
I0102 22:18:29.170881 12172 net.cpp:157] Top shape: 2 576 24 24 (663552)
I0102 22:18:29.170884 12172 net.cpp:165] Memory required for data: 3298998636
…
I0102 22:18:29.634971 12172 layer_factory.hpp:77] Creating layer detection_loss_2_7x7
I0102 22:18:29.635712 12172 net.cpp:150] Setting up detection_loss_2_7x7
I0102 22:18:29.635730 12172 net.cpp:157] Top shape: 1 1 1 2 (2)
I0102 22:18:29.635735 12172 net.cpp:160]     with loss weight 1
I0102 22:18:29.635826 12172 net.cpp:165] Memory required for data: 1644190944
I0102 22:18:29.635835 12172 layer_factory.hpp:77] Creating layer detection_accuracy_2_7x7
I0102 22:18:29.635882 12172 net.cpp:100] Creating Layer detection_accuracy_2_7x7
I0102 22:18:29.635891 12172 net.cpp:434] detection_accuracy_2_7x7 <- LFCN_2_7x7_LFCN_2_7x7_0_split_1
I0102 22:18:29.635901 12172 net.cpp:434] detection_accuracy_2_7x7 <- label_2_7x7_data_4_split_1
I0102 22:18:29.635915 12172 net.cpp:408] detection_accuracy_2_7x7 -> accuracy_2_7x7
I0102 22:18:29.635929 12172 net.cpp:408] detection_accuracy_2_7x7 -> boxiou_2_7x7
I0102 22:18:29.636042 12172 net.cpp:150] Setting up detection_accuracy_2_7x7
I0102 22:18:29.636055 12172 net.cpp:157] Top shape: 1 1 1 2 (2)
I0102 22:18:29.636063 12172 net.cpp:157] Top shape: 1 1 1 1 (1)
I0102 22:18:29.636068 12172 net.cpp:165] Memory required for data: 1644190956
I0102 22:18:29.636075 12172 layer_factory.hpp:77] Creating layer conv5_3/dwise
I0102 22:18:29.636088 12172 net.cpp:100] Creating Layer conv5_3/dwise
I0102 22:18:29.636097 12172 net.cpp:434] conv5_3/dwise <- conv5_3/expand/bn
I0102 22:18:29.636111 12172 net.cpp:408] conv5_3/dwise -> conv5_3/dwise
I0102 22:18:29.636813 12172 net.cpp:150] Setting up conv5_3/dwise
I0102 22:18:29.636826 12172 net.cpp:157] Top shape: 1 576 24 24 (331776)
I0102 22:18:29.636832 12172 net.cpp:165] Memory required for data: 1645518060
I0102 22:18:29.636875 12172 layer_factory.hpp:77] Creating layer conv5_3/dwise/bn
I0102 22:18:29.636890 12172 net.cpp:100] Creating Layer conv5_3/dwise/bn
I0102 22:18:29.636898 12172 net.cpp:434] conv5_3/dwise/bn <- conv5_3/dwise
I0102 22:18:29.636909 12172 net.cpp:408] conv5_3/dwise/bn -> conv5_3/dwise/bn
I0102 22:18:29.637420 12172 net.cpp:150] Setting up conv5_3/dwise/bn
I0102 22:18:29.637432 12172 net.cpp:157] Top shape: 1 576 24 24 (331776)
I0102 22:18:29.637439 12172 net.cpp:165] Memory required for data: 1646845164
I0102 22:18:29.637452 12172 layer_factory.hpp:77] Creating layer conv5_3/dwise/scale
I0102 22:18:29.637465 12172 net.cpp:100] Creating Layer conv5_3/dwise/scale
I0102 22:18:29.637473 12172 net.cpp:434] conv5_3/dwise/scale <- conv5_3/dwise/bn
I0102 22:18:29.637482 12172 net.cpp:395] conv5_3/dwise/scale -> conv5_3/dwise/bn (in-place)
I0102 22:18:29.637573 12172 layer_factory.hpp:77] Creating layer conv5_3/dwise/scale
I0102 22:18:29.637835 12172 net.cpp:150] Setting up conv5_3/dwise/scale
I0102 22:18:29.637847 12172 net.cpp:157] Top shape: 1 576 24 24 (331776)
I0102 22:18:29.637853 12172 net.cpp:165] Memory required for data: 1648172268
I0102 22:18:29.637864 12172 layer_factory.hpp:77] Creating layer relu5_3/dwise
I0102 22:18:29.637874 12172 net.cpp:100] Creating Layer relu5_3/dwise
I0102 22:18:29.637882 12172 net.cpp:434] relu5_3/dwise <- conv5_3/dwise/bn
I0102 22:18:29.637892 12172 net.cpp:395] relu5_3/dwise -> conv5_3/dwise/bn (in-place)
I0102 22:18:29.638244 12172 net.cpp:150] Setting up relu5_3/dwise
I0102 22:18:29.638258 12172 net.cpp:157] Top shape: 1 576 24 24 (331776)
I0102 22:18:29.638265 12172 net.cpp:165] Memory required for data: 1649499372
I0102 22:18:29.638272 12172 layer_factory.hpp:77] Creating layer conv5_3/linear
I0102 22:18:29.638288 12172 net.cpp:100] Creating Layer conv5_3/linear
I0102 22:18:29.638295 12172 net.cpp:434] conv5_3/linear <- conv5_3/dwise/bn
I0102 22:18:29.638306 12172 net.cpp:408] conv5_3/linear -> conv5_3/linear
I0102 22:18:29.643405 12172 net.cpp:150] Setting up conv5_3/linear
I0102 22:18:29.643419 12172 net.cpp:157] Top shape: 1 160 24 24 (92160)
I0102 22:18:29.643422 12172 net.cpp:165] Memory required for data: 1649868012
I0102 22:18:29.643429 12172 layer_factory.hpp:77] Creating layer conv5_3/linear/bn
I0102 22:18:29.643437 12172 net.cpp:100] Creating Layer conv5_3/linear/bn
I0102 22:18:29.643442 12172 net.cpp:434] conv5_3/linear/bn <- conv5_3/linear
I0102 22:18:29.643448 12172 net.cpp:408] conv5_3/linear/bn -> conv5_3/linear/bn
I0102 22:18:29.643740 12172 net.cpp:150] Setting up conv5_3/linear/bn
I0102 22:18:29.643748 12172 net.cpp:157] Top shape: 1 160 24 24 (92160)
I0102 22:18:29.643751 12172 net.cpp:165] Memory required for data: 1650236652
I0102 22:18:29.643759 12172 layer_factory.hpp:77] Creating layer conv5_3/linear/scale
I0102 22:18:29.643766 12172 net.cpp:100] Creating Layer conv5_3/linear/scale
I0102 22:18:29.643770 12172 net.cpp:434] conv5_3/linear/scale <- conv5_3/linear/bn
I0102 22:18:29.643776 12172 net.cpp:395] conv5_3/linear/scale -> conv5_3/linear/bn (in-place)
I0102 22:18:29.643826 12172 layer_factory.hpp:77] Creating layer conv5_3/linear/scale
I0102 22:18:29.643978 12172 net.cpp:150] Setting up conv5_3/linear/scale
I0102 22:18:29.643985 12172 net.cpp:157] Top shape: 1 160 24 24 (92160)
I0102 22:18:29.643988 12172 net.cpp:165] Memory required for data: 1650605292
I0102 22:18:29.643996 12172 layer_factory.hpp:77] Creating layer conv5_3/linear/bn_conv5_3/linear/scale_0_split
I0102 22:18:29.644002 12172 net.cpp:100] Creating Layer conv5_3/linear/bn_conv5_3/linear/scale_0_split
I0102 22:18:29.644006 12172 net.cpp:434] conv5_3/linear/bn_conv5_3/linear/scale_0_split <- conv5_3/linear/bn
I0102 22:18:29.644011 12172 net.cpp:408] conv5_3/linear/bn_conv5_3/linear/scale_0_split -> conv5_3/linear/bn_conv5_3/linear/scale_0_split_0
I0102 22:18:29.644018 12172 net.cpp:408] conv5_3/linear/bn_conv5_3/linear/scale_0_split -> conv5_3/linear/bn_conv5_3/linear/scale_0_split_1
I0102 22:18:29.644065 12172 net.cpp:150] Setting up conv5_3/linear/bn_conv5_3/linear/scale_0_split
I0102 22:18:29.644070 12172 net.cpp:157] Top shape: 1 160 24 24 (92160)
I0102 22:18:29.644075 12172 net.cpp:157] Top shape: 1 160 24 24 (92160)
I0102 22:18:29.644078 12172 net.cpp:165] Memory required for data: 1651342572
I0102 22:18:29.644083 12172 layer_factory.hpp:77] Creating layer conv6_1/expand
I0102 22:18:29.644091 12172 net.cpp:100] Creating Layer conv6_1/expand
I0102 22:18:29.644096 12172 net.cpp:434] conv6_1/expand <- conv5_3/linear/bn_conv5_3/linear/scale_0_split_0
I0102 22:18:29.644104 12172 net.cpp:408] conv6_1/expand -> conv6_1/expand
I0102 22:18:29.650802 12172 net.cpp:150] Setting up conv6_1/expand
I0102 22:18:29.650816 12172 net.cpp:157] Top shape: 1 960 24 24 (552960)
I0102 22:18:29.650820 12172 net.cpp:165] Memory required for data: 1653554412
I0102 22:18:29.650826 12172 layer_factory.hpp:77] Creating layer conv6_1/expand/bn
I0102 22:18:29.650835 12172 net.cpp:100] Creating Layer conv6_1/expand/bn
I0102 22:18:29.650840 12172 net.cpp:434] conv6_1/expand/bn <- conv6_1/expand
I0102 22:18:29.650846 12172 net.cpp:408] conv6_1/expand/bn -> conv6_1/expand/bn
I0102 22:18:29.651139 12172 net.cpp:150] Setting up conv6_1/expand/bn
I0102 22:18:29.651146 12172 net.cpp:157] Top shape: 1 960 24 24 (552960)
I0102 22:18:29.651149 12172 net.cpp:165] Memory required for data: 1655766252
I0102 22:18:29.651157 12172 layer_factory.hpp:77] Creating layer conv6_1/expand/scale
I0102 22:18:29.651165 12172 net.cpp:100] Creating Layer conv6_1/expand/scale
I0102 22:18:29.651168 12172 net.cpp:434] conv6_1/expand/scale <- conv6_1/expand/bn
I0102 22:18:29.651175 12172 net.cpp:395] conv6_1/expand/scale -> conv6_1/expand/bn (in-place)
I0102 22:18:29.651226 12172 layer_factory.hpp:77] Creating layer conv6_1/expand/scale
I0102 22:18:29.651377 12172 net.cpp:150] Setting up conv6_1/expand/scale
I0102 22:18:29.651383 12172 net.cpp:157] Top shape: 1 960 24 24 (552960)
I0102 22:18:29.651387 12172 net.cpp:165] Memory required for data: 1657978092
I0102 22:18:29.651393 12172 layer_factory.hpp:77] Creating layer relu6_1/expand
I0102 22:18:29.651401 12172 net.cpp:100] Creating Layer relu6_1/expand
I0102 22:18:29.651405 12172 net.cpp:434] relu6_1/expand <- conv6_1/expand/bn
I0102 22:18:29.651410 12172 net.cpp:395] relu6_1/expand -> conv6_1/expand/bn (in-place)
I0102 22:18:29.651608 12172 net.cpp:150] Setting up relu6_1/expand
I0102 22:18:29.651618 12172 net.cpp:157] Top shape: 1 960 24 24 (552960)
I0102 22:18:29.651620 12172 net.cpp:165] Memory required for data: 1660189932
I0102 22:18:29.651624 12172 layer_factory.hpp:77] Creating layer conv6_1/dwise
I0102 22:18:29.651634 12172 net.cpp:100] Creating Layer conv6_1/dwise
I0102 22:18:29.651638 12172 net.cpp:434] conv6_1/dwise <- conv6_1/expand/bn
I0102 22:18:29.651645 12172 net.cpp:408] conv6_1/dwise -> conv6_1/dwise
I0102 22:18:29.652979 12172 net.cpp:150] Setting up conv6_1/dwise
I0102 22:18:29.652989 12172 net.cpp:157] Top shape: 1 960 24 24 (552960)
I0102 22:18:29.652993 12172 net.cpp:165] Memory required for data: 1662401772
I0102 22:18:29.652998 12172 layer_factory.hpp:77] Creating layer conv6_1/dwise/bn
I0102 22:18:29.653004 12172 net.cpp:100] Creating Layer conv6_1/dwise/bn
I0102 22:18:29.653009 12172 net.cpp:434] conv6_1/dwise/bn <- conv6_1/dwise
I0102 22:18:29.653017 12172 net.cpp:408] conv6_1/dwise/bn -> conv6_1/dwise/bn
I0102 22:18:29.653245 12172 net.cpp:150] Setting up conv6_1/dwise/bn
I0102 22:18:29.653250 12172 net.cpp:157] Top shape: 1 960 24 24 (552960)
I0102 22:18:29.653252 12172 net.cpp:165] Memory required for data: 1664613612
I0102 22:18:29.653259 12172 layer_factory.hpp:77] Creating layer conv6_1/dwise/scale
I0102 22:18:29.653264 12172 net.cpp:100] Creating Layer conv6_1/dwise/scale
I0102 22:18:29.653266 12172 net.cpp:434] conv6_1/dwise/scale <- conv6_1/dwise/bn
I0102 22:18:29.653270 12172 net.cpp:395] conv6_1/dwise/scale -> conv6_1/dwise/bn (in-place)
I0102 22:18:29.653307 12172 layer_factory.hpp:77] Creating layer conv6_1/dwise/scale
I0102 22:18:29.653419 12172 net.cpp:150] Setting up conv6_1/dwise/scale
I0102 22:18:29.653424 12172 net.cpp:157] Top shape: 1 960 24 24 (552960)
I0102 22:18:29.653426 12172 net.cpp:165] Memory required for data: 1666825452
I0102 22:18:29.653431 12172 layer_factory.hpp:77] Creating layer relu6_1/dwise
I0102 22:18:29.653435 12172 net.cpp:100] Creating Layer relu6_1/dwise
I0102 22:18:29.653439 12172 net.cpp:434] relu6_1/dwise <- conv6_1/dwise/bn
I0102 22:18:29.653443 12172 net.cpp:395] relu6_1/dwise -> conv6_1/dwise/bn (in-place)
I0102 22:18:29.653877 12172 net.cpp:150] Setting up relu6_1/dwise
I0102 22:18:29.653885 12172 net.cpp:157] Top shape: 1 960 24 24 (552960)
I0102 22:18:29.653888 12172 net.cpp:165] Memory required for data: 1669037292
I0102 22:18:29.653892 12172 layer_factory.hpp:77] Creating layer conv6_1/linear
I0102 22:18:29.653899 12172 net.cpp:100] Creating Layer conv6_1/linear
I0102 22:18:29.653903 12172 net.cpp:434] conv6_1/linear <- conv6_1/dwise/bn
I0102 22:18:29.653908 12172 net.cpp:408] conv6_1/linear -> conv6_1/linear
I0102 22:18:29.659206 12172 net.cpp:150] Setting up conv6_1/linear
I0102 22:18:29.659220 12172 net.cpp:157] Top shape: 1 160 24 24 (92160)
I0102 22:18:29.659224 12172 net.cpp:165] Memory required for data: 1669405932
I0102 22:18:29.659230 12172 layer_factory.hpp:77] Creating layer conv6_1/linear/bn
I0102 22:18:29.659240 12172 net.cpp:100] Creating Layer conv6_1/linear/bn
I0102 22:18:29.659246 12172 net.cpp:434] conv6_1/linear/bn <- conv6_1/linear
I0102 22:18:29.659255 12172 net.cpp:408] conv6_1/linear/bn -> conv6_1/linear/bn
I0102 22:18:29.659477 12172 net.cpp:150] Setting up conv6_1/linear/bn
I0102 22:18:29.659484 12172 net.cpp:157] Top shape: 1 160 24 24 (92160)
I0102 22:18:29.659487 12172 net.cpp:165] Memory required for data: 1669774572
I0102 22:18:29.659494 12172 layer_factory.hpp:77] Creating layer conv6_1/linear/scale
I0102 22:18:29.659500 12172 net.cpp:100] Creating Layer conv6_1/linear/scale
I0102 22:18:29.659504 12172 net.cpp:434] conv6_1/linear/scale <- conv6_1/linear/bn
I0102 22:18:29.659510 12172 net.cpp:395] conv6_1/linear/scale -> conv6_1/linear/bn (in-place)
I0102 22:18:29.659541 12172 layer_factory.hpp:77] Creating layer conv6_1/linear/scale
I0102 22:18:29.659647 12172 net.cpp:150] Setting up conv6_1/linear/scale
I0102 22:18:29.659652 12172 net.cpp:157] Top shape: 1 160 24 24 (92160)
I0102 22:18:29.659656 12172 net.cpp:165] Memory required for data: 1670143212
I0102 22:18:29.659660 12172 layer_factory.hpp:77] Creating layer block_6_1
I0102 22:18:29.659667 12172 net.cpp:100] Creating Layer block_6_1
I0102 22:18:29.659672 12172 net.cpp:434] block_6_1 <- conv5_3/linear/bn_conv5_3/linear/scale_0_split_1
I0102 22:18:29.659675 12172 net.cpp:434] block_6_1 <- conv6_1/linear/bn
I0102 22:18:29.659682 12172 net.cpp:408] block_6_1 -> block_6_1
I0102 22:18:29.659703 12172 net.cpp:150] Setting up block_6_1
I0102 22:18:29.659706 12172 net.cpp:157] Top shape: 1 160 24 24 (92160)
I0102 22:18:29.659709 12172 net.cpp:165] Memory required for data: 1670511852
I0102 22:18:29.659713 12172 layer_factory.hpp:77] Creating layer block_6_1_block_6_1_0_split
I0102 22:18:29.659718 12172 net.cpp:100] Creating Layer block_6_1_block_6_1_0_split
I0102 22:18:29.659721 12172 net.cpp:434] block_6_1_block_6_1_0_split <- block_6_1
I0102 22:18:29.659727 12172 net.cpp:408] block_6_1_block_6_1_0_split -> block_6_1_block_6_1_0_split_0
I0102 22:18:29.659732 12172 net.cpp:408] block_6_1_block_6_1_0_split -> block_6_1_block_6_1_0_split_1
I0102 22:18:29.659761 12172 net.cpp:150] Setting up block_6_1_block_6_1_0_split
I0102 22:18:29.659765 12172 net.cpp:157] Top shape: 1 160 24 24 (92160)
I0102 22:18:29.659770 12172 net.cpp:157] Top shape: 1 160 24 24 (92160)
I0102 22:18:29.659772 12172 net.cpp:165] Memory required for data: 1671249132
I0102 22:18:29.659775 12172 layer_factory.hpp:77] Creating layer conv6_2/expand
I0102 22:18:29.659783 12172 net.cpp:100] Creating Layer conv6_2/expand
I0102 22:18:29.659787 12172 net.cpp:434] conv6_2/expand <- block_6_1_block_6_1_0_split_0
I0102 22:18:29.659791 12172 net.cpp:408] conv6_2/expand -> conv6_2/expand
I0102 22:18:29.664768 12172 net.cpp:150] Setting up conv6_2/expand
I0102 22:18:29.664780 12172 net.cpp:157] Top shape: 1 960 24 24 (552960)
I0102 22:18:29.664784 12172 net.cpp:165] Memory required for data: 1673460972
I0102 22:18:29.664789 12172 layer_factory.hpp:77] Creating layer conv6_2/expand/bn
I0102 22:18:29.664796 12172 net.cpp:100] Creating Layer conv6_2/expand/bn
I0102 22:18:29.664800 12172 net.cpp:434] conv6_2/expand/bn <- conv6_2/expand
I0102 22:18:29.664808 12172 net.cpp:408] conv6_2/expand/bn -> conv6_2/expand/bn
I0102 22:18:29.665010 12172 net.cpp:150] Setting up conv6_2/expand/bn
I0102 22:18:29.665016 12172 net.cpp:157] Top shape: 1 960 24 24 (552960)
I0102 22:18:29.665019 12172 net.cpp:165] Memory required for data: 1675672812
I0102 22:18:29.665025 12172 layer_factory.hpp:77] Creating layer conv6_2/expand/scale
I0102 22:18:29.665033 12172 net.cpp:100] Creating Layer conv6_2/expand/scale
I0102 22:18:29.665037 12172 net.cpp:434] conv6_2/expand/scale <- conv6_2/expand/bn
I0102 22:18:29.665041 12172 net.cpp:395] conv6_2/expand/scale -> conv6_2/expand/bn (in-place)
I0102 22:18:29.665081 12172 layer_factory.hpp:77] Creating layer conv6_2/expand/scale
I0102 22:18:29.665196 12172 net.cpp:150] Setting up conv6_2/expand/scale
I0102 22:18:29.665201 12172 net.cpp:157] Top shape: 1 960 24 24 (552960)
I0102 22:18:29.665205 12172 net.cpp:165] Memory required for data: 1677884652
I0102 22:18:29.665210 12172 layer_factory.hpp:77] Creating layer relu6_2/expand
I0102 22:18:29.665215 12172 net.cpp:100] Creating Layer relu6_2/expand
I0102 22:18:29.665220 12172 net.cpp:434] relu6_2/expand <- conv6_2/expand/bn
I0102 22:18:29.665226 12172 net.cpp:395] relu6_2/expand -> conv6_2/expand/bn (in-place)
I0102 22:18:29.665390 12172 net.cpp:150] Setting up relu6_2/expand
I0102 22:18:29.665396 12172 net.cpp:157] Top shape: 1 960 24 24 (552960)
I0102 22:18:29.665400 12172 net.cpp:165] Memory required for data: 1680096492
I0102 22:18:29.665403 12172 layer_factory.hpp:77] Creating layer conv6_2/dwise
I0102 22:18:29.665410 12172 net.cpp:100] Creating Layer conv6_2/dwise
I0102 22:18:29.665413 12172 net.cpp:434] conv6_2/dwise <- conv6_2/expand/bn
I0102 22:18:29.665419 12172 net.cpp:408] conv6_2/dwise -> conv6_2/dwise
I0102 22:18:29.665809 12172 net.cpp:150] Setting up conv6_2/dwise
I0102 22:18:29.665815 12172 net.cpp:157] Top shape: 1 960 24 24 (552960)
I0102 22:18:29.665818 12172 net.cpp:165] Memory required for data: 1682308332
I0102 22:18:29.665822 12172 layer_factory.hpp:77] Creating layer conv6_2/dwise/bn
I0102 22:18:29.665828 12172 net.cpp:100] Creating Layer conv6_2/dwise/bn
I0102 22:18:29.665832 12172 net.cpp:434] conv6_2/dwise/bn <- conv6_2/dwise
I0102 22:18:29.665836 12172 net.cpp:408] conv6_2/dwise/bn -> conv6_2/dwise/bn
I0102 22:18:29.666025 12172 net.cpp:150] Setting up conv6_2/dwise/bn
I0102 22:18:29.666031 12172 net.cpp:157] Top shape: 1 960 24 24 (552960)
I0102 22:18:29.666034 12172 net.cpp:165] Memory required for data: 1684520172
I0102 22:18:29.666043 12172 layer_factory.hpp:77] Creating layer conv6_2/dwise/scale
I0102 22:18:29.666047 12172 net.cpp:100] Creating Layer conv6_2/dwise/scale
I0102 22:18:29.666051 12172 net.cpp:434] conv6_2/dwise/scale <- conv6_2/dwise/bn
I0102 22:18:29.666056 12172 net.cpp:395] conv6_2/dwise/scale -> conv6_2/dwise/bn (in-place)
I0102 22:18:29.666093 12172 layer_factory.hpp:77] Creating layer conv6_2/dwise/scale
I0102 22:18:29.666201 12172 net.cpp:150] Setting up conv6_2/dwise/scale
I0102 22:18:29.666208 12172 net.cpp:157] Top shape: 1 960 24 24 (552960)
I0102 22:18:29.666210 12172 net.cpp:165] Memory required for data: 1686732012
I0102 22:18:29.666215 12172 layer_factory.hpp:77] Creating layer relu6_2/dwise
I0102 22:18:29.666221 12172 net.cpp:100] Creating Layer relu6_2/dwise
I0102 22:18:29.666224 12172 net.cpp:434] relu6_2/dwise <- conv6_2/dwise/bn
I0102 22:18:29.666229 12172 net.cpp:395] relu6_2/dwise -> conv6_2/dwise/bn (in-place)
I0102 22:18:29.666395 12172 net.cpp:150] Setting up relu6_2/dwise
I0102 22:18:29.666402 12172 net.cpp:157] Top shape: 1 960 24 24 (552960)
I0102 22:18:29.666405 12172 net.cpp:165] Memory required for data: 1688943852
I0102 22:18:29.666409 12172 layer_factory.hpp:77] Creating layer conv6_2/linear
I0102 22:18:29.666417 12172 net.cpp:100] Creating Layer conv6_2/linear
I0102 22:18:29.666421 12172 net.cpp:434] conv6_2/linear <- conv6_2/dwise/bn
I0102 22:18:29.666427 12172 net.cpp:408] conv6_2/linear -> conv6_2/linear
I0102 22:18:29.673054 12172 net.cpp:150] Setting up conv6_2/linear
I0102 22:18:29.673084 12172 net.cpp:157] Top shape: 1 160 24 24 (92160)
I0102 22:18:29.673087 12172 net.cpp:165] Memory required for data: 1689312492
I0102 22:18:29.673096 12172 layer_factory.hpp:77] Creating layer conv6_2/linear/bn
I0102 22:18:29.673110 12172 net.cpp:100] Creating Layer conv6_2/linear/bn
I0102 22:18:29.673117 12172 net.cpp:434] conv6_2/linear/bn <- conv6_2/linear
I0102 22:18:29.673125 12172 net.cpp:408] conv6_2/linear/bn -> conv6_2/linear/bn
I0102 22:18:29.673396 12172 net.cpp:150] Setting up conv6_2/linear/bn
I0102 22:18:29.673403 12172 net.cpp:157] Top shape: 1 160 24 24 (92160)
I0102 22:18:29.673405 12172 net.cpp:165] Memory required for data: 1689681132
I0102 22:18:29.673413 12172 layer_factory.hpp:77] Creating layer conv6_2/linear/scale
I0102 22:18:29.673422 12172 net.cpp:100] Creating Layer conv6_2/linear/scale
I0102 22:18:29.673426 12172 net.cpp:434] conv6_2/linear/scale <- conv6_2/linear/bn
I0102 22:18:29.673431 12172 net.cpp:395] conv6_2/linear/scale -> conv6_2/linear/bn (in-place)
I0102 22:18:29.673467 12172 layer_factory.hpp:77] Creating layer conv6_2/linear/scale
I0102 22:18:29.673575 12172 net.cpp:150] Setting up conv6_2/linear/scale
I0102 22:18:29.673581 12172 net.cpp:157] Top shape: 1 160 24 24 (92160)
I0102 22:18:29.673583 12172 net.cpp:165] Memory required for data: 1690049772
I0102 22:18:29.673589 12172 layer_factory.hpp:77] Creating layer block_6_2
I0102 22:18:29.673596 12172 net.cpp:100] Creating Layer block_6_2
I0102 22:18:29.673602 12172 net.cpp:434] block_6_2 <- block_6_1_block_6_1_0_split_1
I0102 22:18:29.673607 12172 net.cpp:434] block_6_2 <- conv6_2/linear/bn
I0102 22:18:29.673611 12172 net.cpp:408] block_6_2 -> block_6_2
I0102 22:18:29.673632 12172 net.cpp:150] Setting up block_6_2
I0102 22:18:29.673637 12172 net.cpp:157] Top shape: 1 160 24 24 (92160)
I0102 22:18:29.673640 12172 net.cpp:165] Memory required for data: 1690418412
I0102 22:18:29.673643 12172 layer_factory.hpp:77] Creating layer block_6_2_block_6_2_0_split
I0102 22:18:29.673650 12172 net.cpp:100] Creating Layer block_6_2_block_6_2_0_split
I0102 22:18:29.673652 12172 net.cpp:434] block_6_2_block_6_2_0_split <- block_6_2
I0102 22:18:29.673656 12172 net.cpp:408] block_6_2_block_6_2_0_split -> block_6_2_block_6_2_0_split_0
I0102 22:18:29.673662 12172 net.cpp:408] block_6_2_block_6_2_0_split -> block_6_2_block_6_2_0_split_1
I0102 22:18:29.673667 12172 net.cpp:408] block_6_2_block_6_2_0_split -> block_6_2_block_6_2_0_split_2
I0102 22:18:29.673707 12172 net.cpp:150] Setting up block_6_2_block_6_2_0_split
I0102 22:18:29.673712 12172 net.cpp:157] Top shape: 1 160 24 24 (92160)
I0102 22:18:29.673715 12172 net.cpp:157] Top shape: 1 160 24 24 (92160)
I0102 22:18:29.673719 12172 net.cpp:157] Top shape: 1 160 24 24 (92160)
I0102 22:18:29.673722 12172 net.cpp:165] Memory required for data: 1691524332
I0102 22:18:29.673725 12172 layer_factory.hpp:77] Creating layer conv6_3/expand
I0102 22:18:29.673734 12172 net.cpp:100] Creating Layer conv6_3/expand
I0102 22:18:29.673738 12172 net.cpp:434] conv6_3/expand <- block_6_2_block_6_2_0_split_0
I0102 22:18:29.673743 12172 net.cpp:408] conv6_3/expand -> conv6_3/expand
I0102 22:18:29.679632 12172 net.cpp:150] Setting up conv6_3/expand
I0102 22:18:29.679657 12172 net.cpp:157] Top shape: 1 960 24 24 (552960)
I0102 22:18:29.679662 12172 net.cpp:165] Memory required for data: 1693736172
I0102 22:18:29.679671 12172 layer_factory.hpp:77] Creating layer conv6_3/expand/bn
I0102 22:18:29.679685 12172 net.cpp:100] Creating Layer conv6_3/expand/bn
I0102 22:18:29.679693 12172 net.cpp:434] conv6_3/expand/bn <- conv6_3/expand
I0102 22:18:29.679702 12172 net.cpp:408] conv6_3/expand/bn -> conv6_3/expand/bn
I0102 22:18:29.679947 12172 net.cpp:150] Setting up conv6_3/expand/bn
I0102 22:18:29.679955 12172 net.cpp:157] Top shape: 1 960 24 24 (552960)
I0102 22:18:29.679958 12172 net.cpp:165] Memory required for data: 1695948012
I0102 22:18:29.679967 12172 layer_factory.hpp:77] Creating layer conv6_3/expand/scale
I0102 22:18:29.679975 12172 net.cpp:100] Creating Layer conv6_3/expand/scale
I0102 22:18:29.679980 12172 net.cpp:434] conv6_3/expand/scale <- conv6_3/expand/bn
I0102 22:18:29.679986 12172 net.cpp:395] conv6_3/expand/scale -> conv6_3/expand/bn (in-place)
I0102 22:18:29.680035 12172 layer_factory.hpp:77] Creating layer conv6_3/expand/scale
I0102 22:18:29.680166 12172 net.cpp:150] Setting up conv6_3/expand/scale
I0102 22:18:29.680173 12172 net.cpp:157] Top shape: 1 960 24 24 (552960)
I0102 22:18:29.680176 12172 net.cpp:165] Memory required for data: 1698159852
I0102 22:18:29.680183 12172 layer_factory.hpp:77] Creating layer relu6_3/expand
I0102 22:18:29.680191 12172 net.cpp:100] Creating Layer relu6_3/expand
I0102 22:18:29.680196 12172 net.cpp:434] relu6_3/expand <- conv6_3/expand/bn
I0102 22:18:29.680200 12172 net.cpp:395] relu6_3/expand -> conv6_3/expand/bn (in-place)
I0102 22:18:29.680392 12172 net.cpp:150] Setting up relu6_3/expand
I0102 22:18:29.680402 12172 net.cpp:157] Top shape: 1 960 24 24 (552960)
I0102 22:18:29.680407 12172 net.cpp:165] Memory required for data: 1700371692
I0102 22:18:29.680410 12172 layer_factory.hpp:77] Creating layer conv6_3/dwise
I0102 22:18:29.680418 12172 net.cpp:100] Creating Layer conv6_3/dwise
I0102 22:18:29.680423 12172 net.cpp:434] conv6_3/dwise <- conv6_3/expand/bn
I0102 22:18:29.680430 12172 net.cpp:408] conv6_3/dwise -> conv6_3/dwise
I0102 22:18:29.680894 12172 net.cpp:150] Setting up conv6_3/dwise
I0102 22:18:29.680902 12172 net.cpp:157] Top shape: 1 960 24 24 (552960)
I0102 22:18:29.680905 12172 net.cpp:165] Memory required for data: 1702583532
I0102 22:18:29.680910 12172 layer_factory.hpp:77] Creating layer conv6_3/dwise/bn
I0102 22:18:29.680917 12172 net.cpp:100] Creating Layer conv6_3/dwise/bn
I0102 22:18:29.680922 12172 net.cpp:434] conv6_3/dwise/bn <- conv6_3/dwise
I0102 22:18:29.680927 12172 net.cpp:408] conv6_3/dwise/bn -> conv6_3/dwise/bn
I0102 22:18:29.681149 12172 net.cpp:150] Setting up conv6_3/dwise/bn
I0102 22:18:29.681155 12172 net.cpp:157] Top shape: 1 960 24 24 (552960)
I0102 22:18:29.681159 12172 net.cpp:165] Memory required for data: 1704795372
I0102 22:18:29.681166 12172 layer_factory.hpp:77] Creating layer conv6_3/dwise/scale
I0102 22:18:29.681174 12172 net.cpp:100] Creating Layer conv6_3/dwise/scale
I0102 22:18:29.681180 12172 net.cpp:434] conv6_3/dwise/scale <- conv6_3/dwise/bn
I0102 22:18:29.681185 12172 net.cpp:395] conv6_3/dwise/scale -> conv6_3/dwise/bn (in-place)
I0102 22:18:29.681229 12172 layer_factory.hpp:77] Creating layer conv6_3/dwise/scale
I0102 22:18:29.681356 12172 net.cpp:150] Setting up conv6_3/dwise/scale
I0102 22:18:29.681362 12172 net.cpp:157] Top shape: 1 960 24 24 (552960)
I0102 22:18:29.681366 12172 net.cpp:165] Memory required for data: 1707007212
I0102 22:18:29.681372 12172 layer_factory.hpp:77] Creating layer relu6_3/dwise
I0102 22:18:29.681380 12172 net.cpp:100] Creating Layer relu6_3/dwise
I0102 22:18:29.681383 12172 net.cpp:434] relu6_3/dwise <- conv6_3/dwise/bn
I0102 22:18:29.681388 12172 net.cpp:395] relu6_3/dwise -> conv6_3/dwise/bn (in-place)
I0102 22:18:29.681582 12172 net.cpp:150] Setting up relu6_3/dwise
I0102 22:18:29.681591 12172 net.cpp:157] Top shape: 1 960 24 24 (552960)
I0102 22:18:29.681594 12172 net.cpp:165] Memory required for data: 1709219052
I0102 22:18:29.681598 12172 layer_factory.hpp:77] Creating layer conv6_3/linear
I0102 22:18:29.681607 12172 net.cpp:100] Creating Layer conv6_3/linear
I0102 22:18:29.681612 12172 net.cpp:434] conv6_3/linear <- conv6_3/dwise/bn
I0102 22:18:29.681620 12172 net.cpp:408] conv6_3/linear -> conv6_3/linear
I0102 22:18:29.692860 12172 net.cpp:150] Setting up conv6_3/linear
I0102 22:18:29.692874 12172 net.cpp:157] Top shape: 1 320 24 24 (184320)
I0102 22:18:29.692878 12172 net.cpp:165] Memory required for data: 1709956332
I0102 22:18:29.692883 12172 layer_factory.hpp:77] Creating layer conv6_3/linear/bn
I0102 22:18:29.692893 12172 net.cpp:100] Creating Layer conv6_3/linear/bn
I0102 22:18:29.692898 12172 net.cpp:434] conv6_3/linear/bn <- conv6_3/linear
I0102 22:18:29.692904 12172 net.cpp:408] conv6_3/linear/bn -> conv6_3/linear/bn
I0102 22:18:29.693107 12172 net.cpp:150] Setting up conv6_3/linear/bn
I0102 22:18:29.693114 12172 net.cpp:157] Top shape: 1 320 24 24 (184320)
I0102 22:18:29.693117 12172 net.cpp:165] Memory required for data: 1710693612
I0102 22:18:29.693123 12172 layer_factory.hpp:77] Creating layer conv6_3/linear/scale
I0102 22:18:29.693130 12172 net.cpp:100] Creating Layer conv6_3/linear/scale
I0102 22:18:29.693135 12172 net.cpp:434] conv6_3/linear/scale <- conv6_3/linear/bn
I0102 22:18:29.693140 12172 net.cpp:395] conv6_3/linear/scale -> conv6_3/linear/bn (in-place)
I0102 22:18:29.693178 12172 layer_factory.hpp:77] Creating layer conv6_3/linear/scale
I0102 22:18:29.693289 12172 net.cpp:150] Setting up conv6_3/linear/scale
I0102 22:18:29.693295 12172 net.cpp:157] Top shape: 1 320 24 24 (184320)
I0102 22:18:29.693297 12172 net.cpp:165] Memory required for data: 1711430892
I0102 22:18:29.693302 12172 layer_factory.hpp:77] Creating layer LFCN_3_5x5
I0102 22:18:29.693311 12172 net.cpp:100] Creating Layer LFCN_3_5x5
I0102 22:18:29.693316 12172 net.cpp:434] LFCN_3_5x5 <- block_6_2_block_6_2_0_split_1
I0102 22:18:29.693323 12172 net.cpp:408] LFCN_3_5x5 -> LFCN_3_5x5
I0102 22:18:29.695513 12172 net.cpp:150] Setting up LFCN_3_5x5
I0102 22:18:29.695524 12172 net.cpp:157] Top shape: 1 9 24 24 (5184)
I0102 22:18:29.695528 12172 net.cpp:165] Memory required for data: 1711451628
I0102 22:18:29.695534 12172 layer_factory.hpp:77] Creating layer LFCN_3_5x5_LFCN_3_5x5_0_split
I0102 22:18:29.695542 12172 net.cpp:100] Creating Layer LFCN_3_5x5_LFCN_3_5x5_0_split
I0102 22:18:29.695547 12172 net.cpp:434] LFCN_3_5x5_LFCN_3_5x5_0_split <- LFCN_3_5x5
I0102 22:18:29.695552 12172 net.cpp:408] LFCN_3_5x5_LFCN_3_5x5_0_split -> LFCN_3_5x5_LFCN_3_5x5_0_split_0
I0102 22:18:29.695560 12172 net.cpp:408] LFCN_3_5x5_LFCN_3_5x5_0_split -> LFCN_3_5x5_LFCN_3_5x5_0_split_1
I0102 22:18:29.695566 12172 net.cpp:408] LFCN_3_5x5_LFCN_3_5x5_0_split -> LFCN_3_5x5_LFCN_3_5x5_0_split_2
I0102 22:18:29.695610 12172 net.cpp:150] Setting up LFCN_3_5x5_LFCN_3_5x5_0_split
I0102 22:18:29.695616 12172 net.cpp:157] Top shape: 1 9 24 24 (5184)
I0102 22:18:29.695619 12172 net.cpp:157] Top shape: 1 9 24 24 (5184)
I0102 22:18:29.695623 12172 net.cpp:157] Top shape: 1 9 24 24 (5184)
I0102 22:18:29.695626 12172 net.cpp:165] Memory required for data: 1711513836
I0102 22:18:29.695631 12172 layer_factory.hpp:77] Creating layer detection_loss_3_5x5
I0102 22:18:29.695638 12172 net.cpp:100] Creating Layer detection_loss_3_5x5
I0102 22:18:29.695641 12172 net.cpp:434] detection_loss_3_5x5 <- LFCN_3_5x5_LFCN_3_5x5_0_split_0
I0102 22:18:29.695647 12172 net.cpp:434] detection_loss_3_5x5 <- label_3_5x5_data_5_split_0
I0102 22:18:29.695653 12172 net.cpp:408] detection_loss_3_5x5 -> loss_3_5x5
I0102 22:18:29.695662 12172 layer_factory.hpp:77] Creating layer detection_loss_3_5x5
I0102 22:18:29.696319 12172 net.cpp:150] Setting up detection_loss_3_5x5
I0102 22:18:29.696329 12172 net.cpp:157] Top shape: 1 1 1 2 (2)
I0102 22:18:29.696332 12172 net.cpp:160]     with loss weight 1
I0102 22:18:29.696343 12172 net.cpp:165] Memory required for data: 1711513844
I0102 22:18:29.696346 12172 layer_factory.hpp:77] Creating layer detection_accuracy_3_5x5
I0102 22:18:29.696353 12172 net.cpp:100] Creating Layer detection_accuracy_3_5x5
I0102 22:18:29.696357 12172 net.cpp:434] detection_accuracy_3_5x5 <- LFCN_3_5x5_LFCN_3_5x5_0_split_1
I0102 22:18:29.696362 12172 net.cpp:434] detection_accuracy_3_5x5 <- label_3_5x5_data_5_split_1
I0102 22:18:29.696369 12172 net.cpp:408] detection_accuracy_3_5x5 -> accuracy_3_5x5
I0102 22:18:29.696377 12172 net.cpp:408] detection_accuracy_3_5x5 -> boxiou_3_5x5
I0102 22:18:29.696411 12172 net.cpp:150] Setting up detection_accuracy_3_5x5
I0102 22:18:29.696416 12172 net.cpp:157] Top shape: 1 1 1 2 (2)
I0102 22:18:29.696420 12172 net.cpp:157] Top shape: 1 1 1 1 (1)
I0102 22:18:29.696424 12172 net.cpp:165] Memory required for data: 1711513856
I0102 22:18:29.696426 12172 layer_factory.hpp:77] Creating layer LFCN_3_7x7
I0102 22:18:29.696436 12172 net.cpp:100] Creating Layer LFCN_3_7x7
I0102 22:18:29.696440 12172 net.cpp:434] LFCN_3_7x7 <- block_6_2_block_6_2_0_split_2
I0102 22:18:29.696446 12172 net.cpp:408] LFCN_3_7x7 -> LFCN_3_7x7
I0102 22:18:29.699321 12172 net.cpp:150] Setting up LFCN_3_7x7
I0102 22:18:29.699331 12172 net.cpp:157] Top shape: 1 9 24 24 (5184)
I0102 22:18:29.699335 12172 net.cpp:165] Memory required for data: 1711534592
I0102 22:18:29.699342 12172 layer_factory.hpp:77] Creating layer LFCN_3_7x7_LFCN_3_7x7_0_split
I0102 22:18:29.699347 12172 net.cpp:100] Creating Layer LFCN_3_7x7_LFCN_3_7x7_0_split
I0102 22:18:29.699352 12172 net.cpp:434] LFCN_3_7x7_LFCN_3_7x7_0_split <- LFCN_3_7x7
I0102 22:18:29.699358 12172 net.cpp:408] LFCN_3_7x7_LFCN_3_7x7_0_split -> LFCN_3_7x7_LFCN_3_7x7_0_split_0
I0102 22:18:29.699365 12172 net.cpp:408] LFCN_3_7x7_LFCN_3_7x7_0_split -> LFCN_3_7x7_LFCN_3_7x7_0_split_1
I0102 22:18:29.699370 12172 net.cpp:408] LFCN_3_7x7_LFCN_3_7x7_0_split -> LFCN_3_7x7_LFCN_3_7x7_0_split_2
I0102 22:18:29.699414 12172 net.cpp:150] Setting up LFCN_3_7x7_LFCN_3_7x7_0_split
I0102 22:18:29.699419 12172 net.cpp:157] Top shape: 1 9 24 24 (5184)
I0102 22:18:29.699424 12172 net.cpp:157] Top shape: 1 9 24 24 (5184)
I0102 22:18:29.699427 12172 net.cpp:157] Top shape: 1 9 24 24 (5184)
I0102 22:18:29.699430 12172 net.cpp:165] Memory required for data: 1711596800
I0102 22:18:29.699434 12172 layer_factory.hpp:77] Creating layer detection_loss_3_7x7
I0102 22:18:29.699439 12172 net.cpp:100] Creating Layer detection_loss_3_7x7
I0102 22:18:29.699442 12172 net.cpp:434] detection_loss_3_7x7 <- LFCN_3_7x7_LFCN_3_7x7_0_split_0
I0102 22:18:29.699446 12172 net.cpp:434] detection_loss_3_7x7 <- label_3_7x7_data_6_split_0
I0102 22:18:29.699452 12172 net.cpp:408] detection_loss_3_7x7 -> loss_3_7x7
I0102 22:18:29.699460 12172 layer_factory.hpp:77] Creating layer detection_loss_3_7x7
I0102 22:18:29.700124 12172 net.cpp:150] Setting up detection_loss_3_7x7
I0102 22:18:29.700135 12172 net.cpp:157] Top shape: 1 1 1 2 (2)
I0102 22:18:29.700139 12172 net.cpp:160]     with loss weight 1
I0102 22:18:29.700143 12172 net.cpp:165] Memory required for data: 1711596808
I0102 22:18:29.700146 12172 layer_factory.hpp:77] Creating layer detection_accuracy_3_7x7
I0102 22:18:29.700153 12172 net.cpp:100] Creating Layer detection_accuracy_3_7x7
I0102 22:18:29.700157 12172 net.cpp:434] detection_accuracy_3_7x7 <- LFCN_3_7x7_LFCN_3_7x7_0_split_1
I0102 22:18:29.700162 12172 net.cpp:434] detection_accuracy_3_7x7 <- label_3_7x7_data_6_split_1
I0102 22:18:29.700167 12172 net.cpp:408] detection_accuracy_3_7x7 -> accuracy_3_7x7
I0102 22:18:29.700175 12172 net.cpp:408] detection_accuracy_3_7x7 -> boxiou_3_7x7
I0102 22:18:29.700206 12172 net.cpp:150] Setting up detection_accuracy_3_7x7
I0102 22:18:29.700212 12172 net.cpp:157] Top shape: 1 1 1 2 (2)
I0102 22:18:29.700215 12172 net.cpp:157] Top shape: 1 1 1 1 (1)
I0102 22:18:29.700218 12172 net.cpp:165] Memory required for data: 1711596820
I0102 22:18:29.700222 12172 layer_factory.hpp:77] Creating layer pool6
I0102 22:18:29.700228 12172 net.cpp:100] Creating Layer pool6
I0102 22:18:29.700233 12172 net.cpp:434] pool6 <- conv6_3/linear/bn
I0102 22:18:29.700238 12172 net.cpp:408] pool6 -> pool6
I0102 22:18:29.700268 12172 net.cpp:150] Setting up pool6
I0102 22:18:29.700273 12172 net.cpp:157] Top shape: 1 320 12 12 (46080)
I0102 22:18:29.700276 12172 net.cpp:165] Memory required for data: 1711781140
I0102 22:18:29.700279 12172 layer_factory.hpp:77] Creating layer LFCN_4_5x5
I0102 22:18:29.700289 12172 net.cpp:100] Creating Layer LFCN_4_5x5
I0102 22:18:29.700292 12172 net.cpp:434] LFCN_4_5x5 <- pool6
I0102 22:18:29.700299 12172 net.cpp:408] LFCN_4_5x5 -> LFCN_4_5x5
I0102 22:18:29.703070 12172 net.cpp:150] Setting up LFCN_4_5x5
I0102 22:18:29.703081 12172 net.cpp:157] Top shape: 1 9 12 12 (1296)
I0102 22:18:29.703084 12172 net.cpp:165] Memory required for data: 1711786324
I0102 22:18:29.703090 12172 layer_factory.hpp:77] Creating layer LFCN_4_5x5_LFCN_4_5x5_0_split
I0102 22:18:29.703096 12172 net.cpp:100] Creating Layer LFCN_4_5x5_LFCN_4_5x5_0_split
I0102 22:18:29.703100 12172 net.cpp:434] LFCN_4_5x5_LFCN_4_5x5_0_split <- LFCN_4_5x5
I0102 22:18:29.703106 12172 net.cpp:408] LFCN_4_5x5_LFCN_4_5x5_0_split -> LFCN_4_5x5_LFCN_4_5x5_0_split_0
I0102 22:18:29.703114 12172 net.cpp:408] LFCN_4_5x5_LFCN_4_5x5_0_split -> LFCN_4_5x5_LFCN_4_5x5_0_split_1
I0102 22:18:29.703119 12172 net.cpp:408] LFCN_4_5x5_LFCN_4_5x5_0_split -> LFCN_4_5x5_LFCN_4_5x5_0_split_2
I0102 22:18:29.703163 12172 net.cpp:150] Setting up LFCN_4_5x5_LFCN_4_5x5_0_split
I0102 22:18:29.703168 12172 net.cpp:157] Top shape: 1 9 12 12 (1296)
I0102 22:18:29.703172 12172 net.cpp:157] Top shape: 1 9 12 12 (1296)
I0102 22:18:29.703176 12172 net.cpp:157] Top shape: 1 9 12 12 (1296)
I0102 22:18:29.703179 12172 net.cpp:165] Memory required for data: 1711801876
I0102 22:18:29.703182 12172 layer_factory.hpp:77] Creating layer detection_loss_4_5x5
I0102 22:18:29.703188 12172 net.cpp:100] Creating Layer detection_loss_4_5x5
I0102 22:18:29.703192 12172 net.cpp:434] detection_loss_4_5x5 <- LFCN_4_5x5_LFCN_4_5x5_0_split_0
I0102 22:18:29.703197 12172 net.cpp:434] detection_loss_4_5x5 <- label_4_5x5_data_7_split_0
I0102 22:18:29.703202 12172 net.cpp:408] detection_loss_4_5x5 -> loss_4_5x5
I0102 22:18:29.703208 12172 layer_factory.hpp:77] Creating layer detection_loss_4_5x5
I0102 22:18:29.703518 12172 net.cpp:150] Setting up detection_loss_4_5x5
I0102 22:18:29.703526 12172 net.cpp:157] Top shape: 1 1 1 2 (2)
I0102 22:18:29.703529 12172 net.cpp:160]     with loss weight 1
I0102 22:18:29.703534 12172 net.cpp:165] Memory required for data: 1711801884
I0102 22:18:29.703537 12172 layer_factory.hpp:77] Creating layer detection_accuracy_4_5x5
I0102 22:18:29.703542 12172 net.cpp:100] Creating Layer detection_accuracy_4_5x5
I0102 22:18:29.703547 12172 net.cpp:434] detection_accuracy_4_5x5 <- LFCN_4_5x5_LFCN_4_5x5_0_split_1
I0102 22:18:29.703550 12172 net.cpp:434] detection_accuracy_4_5x5 <- label_4_5x5_data_7_split_1
I0102 22:18:29.703557 12172 net.cpp:408] detection_accuracy_4_5x5 -> accuracy_4_5x5
I0102 22:18:29.703563 12172 net.cpp:408] detection_accuracy_4_5x5 -> boxiou_4_5x5
I0102 22:18:29.703600 12172 net.cpp:150] Setting up detection_accuracy_4_5x5
I0102 22:18:29.703605 12172 net.cpp:157] Top shape: 1 1 1 2 (2)
I0102 22:18:29.703609 12172 net.cpp:157] Top shape: 1 1 1 1 (1)
I0102 22:18:29.703611 12172 net.cpp:165] Memory required for data: 1711801896
I0102 22:18:29.703614 12172 layer_factory.hpp:77] Creating layer proposals
I0102 22:18:29.703620 12172 net.cpp:100] Creating Layer proposals
I0102 22:18:29.703624 12172 net.cpp:434] proposals <- LFCN_1_5x5_LFCN_1_5x5_0_split_2
I0102 22:18:29.703629 12172 net.cpp:434] proposals <- LFCN_1_7x7_LFCN_1_7x7_0_split_2
I0102 22:18:29.703632 12172 net.cpp:434] proposals <- LFCN_2_5x5_LFCN_2_5x5_0_split_2
I0102 22:18:29.703636 12172 net.cpp:434] proposals <- LFCN_2_7x7_LFCN_2_7x7_0_split_2
I0102 22:18:29.703639 12172 net.cpp:434] proposals <- LFCN_3_5x5_LFCN_3_5x5_0_split_2
I0102 22:18:29.703644 12172 net.cpp:434] proposals <- LFCN_3_7x7_LFCN_3_7x7_0_split_2
I0102 22:18:29.703646 12172 net.cpp:434] proposals <- LFCN_4_5x5_LFCN_4_5x5_0_split_2
I0102 22:18:29.703652 12172 net.cpp:408] proposals -> proposals
I0102 22:18:29.703671 12172 net.cpp:150] Setting up proposals
I0102 22:18:29.703676 12172 net.cpp:157] Top shape: 1 5 1 1 (5)
I0102 22:18:29.703680 12172 net.cpp:165] Memory required for data: 1711801916
I0102 22:18:29.703682 12172 layer_factory.hpp:77] Creating layer proposal_info
I0102 22:18:29.703689 12172 net.cpp:100] Creating Layer proposal_info
I0102 22:18:29.703692 12172 net.cpp:434] proposal_info <- proposals
I0102 22:18:29.703696 12172 net.cpp:434] proposal_info <- gt_boxes
I0102 22:18:29.703702 12172 net.cpp:408] proposal_info -> rois
I0102 22:18:29.703709 12172 net.cpp:408] proposal_info -> proposal_labels
I0102 22:18:29.703716 12172 net.cpp:408] proposal_info -> proposal_targets
I0102 22:18:29.703722 12172 net.cpp:408] proposal_info -> box_inside_weights
I0102 22:18:29.703728 12172 net.cpp:408] proposal_info -> box_outside_weights
I0102 22:18:29.703734 12172 net.cpp:408] proposal_info -> match_gt_boxes
I0102 22:18:29.703811 12172 net.cpp:150] Setting up proposal_info
I0102 22:18:29.703816 12172 net.cpp:157] Top shape: 128 5 1 1 (640)
I0102 22:18:29.703820 12172 net.cpp:157] Top shape: 128 1 1 1 (128)
I0102 22:18:29.703824 12172 net.cpp:157] Top shape: 128 20 1 1 (2560)
I0102 22:18:29.703828 12172 net.cpp:157] Top shape: 128 20 1 1 (2560)
I0102 22:18:29.703832 12172 net.cpp:157] Top shape: 128 20 1 1 (2560)
I0102 22:18:29.703836 12172 net.cpp:157] Top shape: 128 6 1 1 (768)
I0102 22:18:29.703840 12172 net.cpp:165] Memory required for data: 1711838780
I0102 22:18:29.703842 12172 layer_factory.hpp:77] Creating layer rois_proposal_info_0_split
I0102 22:18:29.703864 12172 net.cpp:100] Creating Layer rois_proposal_info_0_split
I0102 22:18:29.703868 12172 net.cpp:434] rois_proposal_info_0_split <- rois
I0102 22:18:29.703873 12172 net.cpp:408] rois_proposal_info_0_split -> rois_proposal_info_0_split_0
I0102 22:18:29.703879 12172 net.cpp:408] rois_proposal_info_0_split -> rois_proposal_info_0_split_1
I0102 22:18:29.703884 12172 net.cpp:408] rois_proposal_info_0_split -> rois_proposal_info_0_split_2
I0102 22:18:29.703925 12172 net.cpp:150] Setting up rois_proposal_info_0_split
I0102 22:18:29.703930 12172 net.cpp:157] Top shape: 128 5 1 1 (640)
I0102 22:18:29.703934 12172 net.cpp:157] Top shape: 128 5 1 1 (640)
I0102 22:18:29.703938 12172 net.cpp:157] Top shape: 128 5 1 1 (640)
I0102 22:18:29.703940 12172 net.cpp:165] Memory required for data: 1711846460
I0102 22:18:29.703944 12172 layer_factory.hpp:77] Creating layer proposal_labels_proposal_info_1_split
I0102 22:18:29.703948 12172 net.cpp:100] Creating Layer proposal_labels_proposal_info_1_split
I0102 22:18:29.703953 12172 net.cpp:434] proposal_labels_proposal_info_1_split <- proposal_labels
I0102 22:18:29.703958 12172 net.cpp:408] proposal_labels_proposal_info_1_split -> proposal_labels_proposal_info_1_split_0
I0102 22:18:29.703963 12172 net.cpp:408] proposal_labels_proposal_info_1_split -> proposal_labels_proposal_info_1_split_1
I0102 22:18:29.703990 12172 net.cpp:150] Setting up proposal_labels_proposal_info_1_split
I0102 22:18:29.703995 12172 net.cpp:157] Top shape: 128 1 1 1 (128)
I0102 22:18:29.703999 12172 net.cpp:157] Top shape: 128 1 1 1 (128)
I0102 22:18:29.704002 12172 net.cpp:165] Memory required for data: 1711847484
I0102 22:18:29.704005 12172 layer_factory.hpp:77] Creating layer conv4_3_2x
I0102 22:18:29.704011 12172 net.cpp:100] Creating Layer conv4_3_2x
I0102 22:18:29.704015 12172 net.cpp:434] conv4_3_2x <- block_4_6_block_4_6_0_split_2
I0102 22:18:29.704021 12172 net.cpp:408] conv4_3_2x -> conv4_3_2x
I0102 22:18:29.704232 12172 net.cpp:150] Setting up conv4_3_2x
I0102 22:18:29.704238 12172 net.cpp:157] Top shape: 1 64 192 192 (2359296)
I0102 22:18:29.704241 12172 net.cpp:165] Memory required for data: 1721284668
I0102 22:18:29.704246 12172 layer_factory.hpp:77] Creating layer conv4_3_2x_conv4_3_2x_0_split
I0102 22:18:29.704249 12172 net.cpp:100] Creating Layer conv4_3_2x_conv4_3_2x_0_split
I0102 22:18:29.704253 12172 net.cpp:434] conv4_3_2x_conv4_3_2x_0_split <- conv4_3_2x
I0102 22:18:29.704257 12172 net.cpp:408] conv4_3_2x_conv4_3_2x_0_split -> conv4_3_2x_conv4_3_2x_0_split_0
I0102 22:18:29.704263 12172 net.cpp:408] conv4_3_2x_conv4_3_2x_0_split -> conv4_3_2x_conv4_3_2x_0_split_1
I0102 22:18:29.704293 12172 net.cpp:150] Setting up conv4_3_2x_conv4_3_2x_0_split
I0102 22:18:29.704298 12172 net.cpp:157] Top shape: 1 64 192 192 (2359296)
I0102 22:18:29.704301 12172 net.cpp:157] Top shape: 1 64 192 192 (2359296)
I0102 22:18:29.704304 12172 net.cpp:165] Memory required for data: 1740159036
I0102 22:18:29.704308 12172 layer_factory.hpp:77] Creating layer roi_pool_org
I0102 22:18:29.704313 12172 net.cpp:100] Creating Layer roi_pool_org
I0102 22:18:29.704316 12172 net.cpp:434] roi_pool_org <- conv4_3_2x_conv4_3_2x_0_split_0
I0102 22:18:29.704321 12172 net.cpp:434] roi_pool_org <- rois_proposal_info_0_split_0
I0102 22:18:29.704327 12172 net.cpp:408] roi_pool_org -> roi_pool_org
I0102 22:18:29.704334 12172 roi_pooling_layer.cpp:33] Spatial scale: 0.25
I0102 22:18:29.704365 12172 net.cpp:150] Setting up roi_pool_org
I0102 22:18:29.704370 12172 net.cpp:157] Top shape: 128 64 7 7 (401408)
I0102 22:18:29.704375 12172 net.cpp:165] Memory required for data: 1741764668
I0102 22:18:29.704377 12172 layer_factory.hpp:77] Creating layer roi_pool_ctx
I0102 22:18:29.704383 12172 net.cpp:100] Creating Layer roi_pool_ctx
I0102 22:18:29.704386 12172 net.cpp:434] roi_pool_ctx <- conv4_3_2x_conv4_3_2x_0_split_1
I0102 22:18:29.704391 12172 net.cpp:434] roi_pool_ctx <- rois_proposal_info_0_split_1
I0102 22:18:29.704396 12172 net.cpp:408] roi_pool_ctx -> roi_pool_ctx
I0102 22:18:29.704401 12172 roi_pooling_layer.cpp:33] Spatial scale: 0.25
I0102 22:18:29.704432 12172 net.cpp:150] Setting up roi_pool_ctx
I0102 22:18:29.704438 12172 net.cpp:157] Top shape: 128 64 7 7 (401408)
I0102 22:18:29.704442 12172 net.cpp:165] Memory required for data: 1743370300
I0102 22:18:29.704444 12172 layer_factory.hpp:77] Creating layer roi_pool
I0102 22:18:29.704450 12172 net.cpp:100] Creating Layer roi_pool
I0102 22:18:29.704454 12172 net.cpp:434] roi_pool <- roi_pool_org
I0102 22:18:29.704458 12172 net.cpp:434] roi_pool <- roi_pool_ctx
I0102 22:18:29.704463 12172 net.cpp:408] roi_pool -> roi_pool
I0102 22:18:29.704481 12172 net.cpp:150] Setting up roi_pool
I0102 22:18:29.704486 12172 net.cpp:157] Top shape: 128 128 7 7 (802816)
I0102 22:18:29.704489 12172 net.cpp:165] Memory required for data: 1746581564
I0102 22:18:29.704493 12172 layer_factory.hpp:77] Creating layer roi_c1
I0102 22:18:29.704501 12172 net.cpp:100] Creating Layer roi_c1
I0102 22:18:29.704505 12172 net.cpp:434] roi_c1 <- roi_pool
I0102 22:18:29.704511 12172 net.cpp:408] roi_c1 -> roi_c1
I0102 22:18:29.707553 12172 net.cpp:150] Setting up roi_c1
I0102 22:18:29.707564 12172 net.cpp:157] Top shape: 128 64 5 5 (204800)
I0102 22:18:29.707567 12172 net.cpp:165] Memory required for data: 1747400764
I0102 22:18:29.707573 12172 layer_factory.hpp:77] Creating layer roi_c1_relu
I0102 22:18:29.707579 12172 net.cpp:100] Creating Layer roi_c1_relu
I0102 22:18:29.707584 12172 net.cpp:434] roi_c1_relu <- roi_c1
I0102 22:18:29.707592 12172 net.cpp:395] roi_c1_relu -> roi_c1 (in-place)
I0102 22:18:29.707765 12172 net.cpp:150] Setting up roi_c1_relu
I0102 22:18:29.707772 12172 net.cpp:157] Top shape: 128 64 5 5 (204800)
I0102 22:18:29.707775 12172 net.cpp:165] Memory required for data: 1748219964
I0102 22:18:29.707779 12172 layer_factory.hpp:77] Creating layer fc6
I0102 22:18:29.707787 12172 net.cpp:100] Creating Layer fc6
I0102 22:18:29.707792 12172 net.cpp:434] fc6 <- roi_c1
I0102 22:18:29.707796 12172 net.cpp:408] fc6 -> fc6
I0102 22:18:29.875854 12172 net.cpp:150] Setting up fc6
I0102 22:18:29.875886 12172 net.cpp:157] Top shape: 128 4096 (524288)
I0102 22:18:29.875891 12172 net.cpp:165] Memory required for data: 1750317116
I0102 22:18:29.875901 12172 layer_factory.hpp:77] Creating layer relu6
I0102 22:18:29.875913 12172 net.cpp:100] Creating Layer relu6
I0102 22:18:29.875921 12172 net.cpp:434] relu6 <- fc6
I0102 22:18:29.875928 12172 net.cpp:395] relu6 -> fc6 (in-place)
I0102 22:18:29.876207 12172 net.cpp:150] Setting up relu6
I0102 22:18:29.876221 12172 net.cpp:157] Top shape: 128 4096 (524288)
I0102 22:18:29.876225 12172 net.cpp:165] Memory required for data: 1752414268
I0102 22:18:29.876230 12172 layer_factory.hpp:77] Creating layer drop6
I0102 22:18:29.876241 12172 net.cpp:100] Creating Layer drop6
I0102 22:18:29.876245 12172 net.cpp:434] drop6 <- fc6
I0102 22:18:29.876251 12172 net.cpp:395] drop6 -> fc6 (in-place)
I0102 22:18:29.876271 12172 net.cpp:150] Setting up drop6
I0102 22:18:29.876274 12172 net.cpp:157] Top shape: 128 4096 (524288)
I0102 22:18:29.876279 12172 net.cpp:165] Memory required for data: 1754511420
I0102 22:18:29.876282 12172 layer_factory.hpp:77] Creating layer fc6_drop6_0_split
I0102 22:18:29.876288 12172 net.cpp:100] Creating Layer fc6_drop6_0_split
I0102 22:18:29.876291 12172 net.cpp:434] fc6_drop6_0_split <- fc6
I0102 22:18:29.876296 12172 net.cpp:408] fc6_drop6_0_split -> fc6_drop6_0_split_0
I0102 22:18:29.876303 12172 net.cpp:408] fc6_drop6_0_split -> fc6_drop6_0_split_1
I0102 22:18:29.876338 12172 net.cpp:150] Setting up fc6_drop6_0_split
I0102 22:18:29.876351 12172 net.cpp:157] Top shape: 128 4096 (524288)
I0102 22:18:29.876355 12172 net.cpp:157] Top shape: 128 4096 (524288)
I0102 22:18:29.876358 12172 net.cpp:165] Memory required for data: 1758705724
I0102 22:18:29.876361 12172 layer_factory.hpp:77] Creating layer cls_pred
I0102 22:18:29.876372 12172 net.cpp:100] Creating Layer cls_pred
I0102 22:18:29.876375 12172 net.cpp:434] cls_pred <- fc6_drop6_0_split_0
I0102 22:18:29.876382 12172 net.cpp:408] cls_pred -> cls_pred
I0102 22:18:29.877054 12172 net.cpp:150] Setting up cls_pred
I0102 22:18:29.877063 12172 net.cpp:157] Top shape: 128 5 (640)
I0102 22:18:29.877068 12172 net.cpp:165] Memory required for data: 1758708284
I0102 22:18:29.877074 12172 layer_factory.hpp:77] Creating layer cls_pred_cls_pred_0_split
I0102 22:18:29.877077 12172 net.cpp:100] Creating Layer cls_pred_cls_pred_0_split
I0102 22:18:29.877081 12172 net.cpp:434] cls_pred_cls_pred_0_split <- cls_pred
I0102 22:18:29.877085 12172 net.cpp:408] cls_pred_cls_pred_0_split -> cls_pred_cls_pred_0_split_0
I0102 22:18:29.877091 12172 net.cpp:408] cls_pred_cls_pred_0_split -> cls_pred_cls_pred_0_split_1
I0102 22:18:29.877117 12172 net.cpp:150] Setting up cls_pred_cls_pred_0_split
I0102 22:18:29.877123 12172 net.cpp:157] Top shape: 128 5 (640)
I0102 22:18:29.877127 12172 net.cpp:157] Top shape: 128 5 (640)
I0102 22:18:29.877130 12172 net.cpp:165] Memory required for data: 1758713404
I0102 22:18:29.877133 12172 layer_factory.hpp:77] Creating layer bbox_pred
I0102 22:18:29.877138 12172 net.cpp:100] Creating Layer bbox_pred
I0102 22:18:29.877143 12172 net.cpp:434] bbox_pred <- fc6_drop6_0_split_1
I0102 22:18:29.877154 12172 net.cpp:408] bbox_pred -> bbox_pred
I0102 22:18:29.879364 12172 net.cpp:150] Setting up bbox_pred
I0102 22:18:29.879374 12172 net.cpp:157] Top shape: 128 20 (2560)
I0102 22:18:29.879377 12172 net.cpp:165] Memory required for data: 1758723644
I0102 22:18:29.879382 12172 layer_factory.hpp:77] Creating layer bbox_pred_bbox_pred_0_split
I0102 22:18:29.879387 12172 net.cpp:100] Creating Layer bbox_pred_bbox_pred_0_split
I0102 22:18:29.879391 12172 net.cpp:434] bbox_pred_bbox_pred_0_split <- bbox_pred
I0102 22:18:29.879397 12172 net.cpp:408] bbox_pred_bbox_pred_0_split -> bbox_pred_bbox_pred_0_split_0
I0102 22:18:29.879403 12172 net.cpp:408] bbox_pred_bbox_pred_0_split -> bbox_pred_bbox_pred_0_split_1
I0102 22:18:29.879429 12172 net.cpp:150] Setting up bbox_pred_bbox_pred_0_split
I0102 22:18:29.879436 12172 net.cpp:157] Top shape: 128 20 (2560)
I0102 22:18:29.879438 12172 net.cpp:157] Top shape: 128 20 (2560)
I0102 22:18:29.879441 12172 net.cpp:165] Memory required for data: 1758744124
I0102 22:18:29.879444 12172 layer_factory.hpp:77] Creating layer loss_cls
I0102 22:18:29.879452 12172 net.cpp:100] Creating Layer loss_cls
I0102 22:18:29.879456 12172 net.cpp:434] loss_cls <- cls_pred_cls_pred_0_split_0
I0102 22:18:29.879462 12172 net.cpp:434] loss_cls <- proposal_labels_proposal_info_1_split_0
…
