…
    downsample_rate: 16
    downsample_rate: 32
    downsample_rate: 32
    downsample_rate: 64
    coord_num: 4
    field_h: 60
    field_h: 84
    field_h: 120
    field_h: 168
    field_h: 240
    field_h: 336
    field_h: 480
    field_w: 60
    field_w: 84
    field_w: 120
    field_w: 168
    field_w: 240
    field_w: 336
    field_w: 480
    fg_threshold: 0.5
    resize_width: 1344
    resize_height: 768
    crop_width: 768
    crop_height: 768
    do_multiple_scale: true
    min_scale: 60
    max_scale: 480
    min_gt_height: 25
    shuffle: true
  }
}
layer {
  name: "conv1"
  type: "Convolution"
  bottom: "data"
  top: "conv1"
  param {
    lr_mult: 1
    decay_mult: 1
  }
  convolution_param {
    num_output: 32
    bias_term: false
    pad: 1
    kernel_size: 3
    stride: 2
    weight_filler {
      type: "msra"
    }
  }
}
layer {
  name: "conv1/bn"
  type: "BatchNorm"
  bottom: "conv1"
  top: "conv1/bn"
  batch_norm_param {
    use_global_stats: false
    eps: 1e-05
  }
}
layer {
  name: "conv1/scale"
  type: "Scale"
  bottom: "conv1/bn"
  top: "conv1/bn"
  param {
    lr_mult: 1
    decay_mult: 0
  }
  param {
    lr_mult: 1
    decay_mult: 0
  }
  scale_param {
    bias_term: true
  }
}
layer {
  name: "relu1"
  type: "ReLU"
  bottom: "conv1/bn"
  top: "conv1/bn"
}
layer {
  name: "conv2_1/expand"
  type: "Convolution"
  bottom: "conv1/bn"
  top: "conv2_1/expand"
  param {
    lr_mult: 1
    decay_mult: 1
  }
  convolution_param {
    num_output: 32
    bias_term: false
    kernel_size: 1
    weight_filler {
      type: "msra"
    }
  }
}
layer {
  name: "conv2_1/expand/bn"
  type: "BatchNorm"
  bottom: "conv2_1/expand"
  top: "conv2_1/expand/bn"
  batch_norm_param {
    use_global_stats: false
    eps: 1e-05
  }
}
layer {
  name: "conv2_1/expand/scale"
  type: "Scale"
  bottom: "conv2_1/expand/bn"
  top: "conv2_1/expand/bn"
  param {
    lr_mult: 1
    decay_mult: 0
  }
  param {
    lr_mult: 1
    decay_mult: 0
  }
  scale_param {
    bias_term: true
  }
}
layer {
  name: "relu2_1/expand"
  type: "ReLU"
  bottom: "conv2_1/expand/bn"
  top: "conv2_1/expand/bn"
}
layer {
  name: "conv2_1/dwise"
  type: "DepthwiseConvolution"
  bottom: "conv2_1/expand/bn"
  top: "conv2_1/dwise"
  param {
    lr_mult: 1
    decay_mult: 1
  }
  convolution_param {
    num_output: 32
    bias_term: false
    pad: 1
    kernel_size: 3
    group: 32
    weight_filler {
      type: "msra"
    }
    engine: CAFFE
  }
}
layer {
  name: "conv2_1/dwise/bn"
  type: "BatchNorm"
  bottom: "conv2_1/dwise"
  top: "conv2_1/dwise/bn"
  batch_norm_param {
    use_global_stats: false
    eps: 1e-05
  }
}
layer {
  name: "conv2_1/dwise/scale"
  type: "Scale"
  bottom: "conv2_1/dwise/bn"
  top: "conv2_1/dwise/bn"
  param {
    lr_mult: 1
    decay_mult: 0
  }
  param {
    lr_mult: 1
    decay_mult: 0
  }
  scale_param {
    bias_term: true
  }
}
layer {
  name: "relu2_1/dwise"
  type: "ReLU"
  bottom: "conv2_1/dwise/bn"
  top: "conv2_1/dwise/bn"
}
layer {
  name: "conv2_1/linear"
  type: "Convolution"
  bottom: "conv2_1/dwise/bn"
  top: "conv2_1/linear"
  param {
    lr_mult: 1
    decay_mult: 1
  }
  convolution_param {
    num_output: 16
    bias_term: false
    kernel_size: 1
    weight_filler {
      type: "msra"
    }
  }
}
layer {
  name: "conv2_1/linear/bn"
  type: "BatchNorm"
  bottom: "conv2_1/linear"
  top: "conv2_1/linear/bn"
  batch_norm_param {
    use_global_stats: false
    eps: 1e-05
  }
}
layer {
  name: "conv2_1/linear/scale"
  type: "Scale"
  bottom: "conv2_1/linear/bn"
  top: "conv2_1/linear/bn"
  param {
    lr_mult: 1
    decay_mult: 0
  }
  param {
    lr_mult: 1
    decay_mult: 0
  }
  scale_param {
    bias_term: true
  }
}
layer {
  name: "conv2_2/expand"
  type: "Convolution"
  bottom: "conv2_1/linear/bn"
  top: "conv2_2/expand"
  param {
    lr_mult: 1
    decay_mult: 1
  }
  convolution_param {
    num_output: 96
    bias_term: false
    kernel_size: 1
    weight_filler {
      type: "msra"
    }
  }
}
layer {
  name: "conv2_2/expand/bn"
  type: "BatchNorm"
  bottom: "conv2_2/expand"
  top: "conv2_2/expand/bn"
  batch_norm_param {
    use_global_stats: false
    eps: 1e-05
  }
}
layer {
  name: "conv2_2/expand/scale"
  type: "Scale"
  bottom: "conv2_2/expand/bn"
  top: "conv2_2/expand/bn"
  param {
    lr_mult: 1
    decay_mult: 0
  }
  param {
    lr_mult: 1
    decay_mult: 0
  }
  scale_param {
    bias_term: true
  }
}
layer {
  name: "relu2_2/expand"
  type: "ReLU"
  bottom: "conv2_2/expand/bn"
  top: "conv2_2/expand/bn"
}
layer {
  name: "conv2_2/dwise"
  type: "DepthwiseConvolution"
  bottom: "conv2_2/expand/bn"
  top: "conv2_2/dwise"
  param {
    lr_mult: 1
    decay_mult: 1
  }
  convolution_param {
    num_output: 96
    bias_term: false
    pad: 1
    kernel_size: 3
    group: 96
    stride: 2
    weight_filler {
      type: "msra"
    }
    engine: CAFFE
  }
}
layer {
  name: "conv2_2/dwise/bn"
  type: "BatchNorm"
  bottom: "conv2_2/dwise"
  top: "conv2_2/dwise/bn"
  batch_norm_param {
    use_global_stats: false
    eps: 1e-05
  }
}
layer {
  name: "conv2_2/dwise/scale"
  type: "Scale"
  bottom: "conv2_2/dwise/bn"
  top: "conv2_2/dwise/bn"
  param {
    lr_mult: 1
    decay_mult: 0
  }
  param {
    lr_mult: 1
    decay_mult: 0
  }
  scale_param {
    bias_term: true
  }
}
layer {
  name: "relu2_2/dwise"
  type: "ReLU"
  bottom: "conv2_2/dwise/bn"
  top: "conv2_2/dwise/bn"
}
layer {
  name: "conv2_2/linear"
  type: "Convolution"
  bottom: "conv2_2/dwise/bn"
  top: "conv2_2/linear"
  param {
    lr_mult: 1
    decay_mult: 1
  }
  convolution_param {
    num_output: 24
    bias_term: false
    kernel_size: 1
    weight_filler {
      type: "msra"
    }
  }
}
layer {
  name: "conv2_2/linear/bn"
  type: "BatchNorm"
  bottom: "conv2_2/linear"
  top: "conv2_2/linear/bn"
  batch_norm_param {
    use_global_stats: false
    eps: 1e-05
  }
}
layer {
  name: "conv2_2/linear/scale"
  type: "Scale"
  bottom: "conv2_2/linear/bn"
  top: "conv2_2/linear/bn"
  param {
    lr_mult: 1
    decay_mult: 0
  }
  param {
    lr_mult: 1
    decay_mult: 0
  }
  scale_param {
    bias_term: true
  }
}
layer {
  name: "conv3_1/expand"
  type: "Convolution"
  bottom: "conv2_2/linear/bn"
  top: "conv3_1/expand"
  param {
    lr_mult: 1
    decay_mult: 1
  }
  convolution_param {
    num_output: 144
    bias_term: false
    kernel_size: 1
    weight_filler {
      type: "msra"
    }
  }
}
layer {
  name: "conv3_1/expand/bn"
  type: "BatchNorm"
  bottom: "conv3_1/expand"
  top: "conv3_1/expand/bn"
  batch_norm_param {
    use_global_stats: false
    eps: 1e-05
  }
}
layer {
  name: "conv3_1/expand/scale"
  type: "Scale"
  bottom: "conv3_1/expand/bn"
  top: "conv3_1/expand/bn"
  param {
    lr_mult: 1
    decay_mult: 0
  }
  param {
    lr_mult: 1
    decay_mult: 0
  }
  scale_param {
    bias_term: true
  }
}
layer {
  name: "relu3_1/expand"
  type: "ReLU"
  bottom: "conv3_1/expand/bn"
  top: "conv3_1/expand/bn"
}
layer {
  name: "conv3_1/dwise"
  type: "DepthwiseConvolution"
  bottom: "conv3_1/expand/bn"
  top: "conv3_1/dwise"
  param {
    lr_mult: 1
    decay_mult: 1
  }
  convolution_param {
    num_output: 144
    bias_term: false
    pad: 1
    kernel_size: 3
    group: 144
    weight_filler {
      type: "msra"
    }
    engine: CAFFE
  }
}
layer {
  name: "conv3_1/dwise/bn"
  type: "BatchNorm"
  bottom: "conv3_1/dwise"
  top: "conv3_1/dwise/bn"
  batch_norm_param {
    use_global_stats: false
    eps: 1e-05
  }
}
layer {
  name: "conv3_1/dwise/scale"
  type: "Scale"
  bottom: "conv3_1/dwise/bn"
  top: "conv3_1/dwise/bn"
  param {
    lr_mult: 1
    decay_mult: 0
  }
  param {
    lr_mult: 1
    decay_mult: 0
  }
  scale_param {
    bias_term: true
  }
}
layer {
  name: "relu3_1/dwise"
  type: "ReLU"
  bottom: "conv3_1/dwise/bn"
  top: "conv3_1/dwise/bn"
}
layer {
  name: "conv3_1/linear"
  type: "Convolution"
  bottom: "conv3_1/dwise/bn"
  top: "conv3_1/linear"
  param {
    lr_mult: 1
    decay_mult: 1
  }
  convolution_param {
    num_output: 24
    bias_term: false
    kernel_size: 1
    weight_filler {
      type: "msra"
    }
  }
}
layer {
  name: "conv3_1/linear/bn"
  type: "BatchNorm"
  bottom: "conv3_1/linear"
  top: "conv3_1/linear/bn"
  batch_norm_param {
    use_global_stats: false
    eps: 1e-05
  }
}
layer {
  name: "conv3_1/linear/scale"
  type: "Scale"
  bottom: "conv3_1/linear/bn"
  top: "conv3_1/linear/bn"
  param {
    lr_mult: 1
    decay_mult: 0
  }
  param {
    lr_mult: 1
    decay_mult: 0
  }
  scale_param {
    bias_term: true
  }
}
layer {
  name: "block_3_1"
  type: "Eltwise"
  bottom: "conv2_2/linear/bn"
  bottom: "conv3_1/linear/bn"
  top: "block_3_1"
}
layer {
  name: "conv3_2/expand"
  type: "Convolution"
  bottom: "block_3_1"
  top: "conv3_2/expand"
  param {
    lr_mult: 1
    decay_mult: 1
  }
  convolution_param {
    num_output: 144
    bias_term: false
    kernel_size: 1
    weight_filler {
      type: "msra"
    }
  }
}
layer {
  name: "conv3_2/expand/bn"
  type: "BatchNorm"
  bottom: "conv3_2/expand"
  top: "conv3_2/expand/bn"
  batch_norm_param {
    use_global_stats: false
    eps: 1e-05
  }
}
layer {
  name: "conv3_2/expand/scale"
  type: "Scale"
  bottom: "conv3_2/expand/bn"
  top: "conv3_2/expand/bn"
  param {
    lr_mult: 1
    decay_mult: 0
  }
  param {
    lr_mult: 1
    decay_mult: 0
  }
  scale_param {
    bias_term: true
  }
}
layer {
  name: "relu3_2/expand"
  type: "ReLU"
  bottom: "conv3_2/expand/bn"
  top: "conv3_2/expand/bn"
}
layer {
  name: "conv3_2/dwise"
  type: "DepthwiseConvolution"
  bottom: "conv3_2/expand/bn"
  top: "conv3_2/dwise"
  param {
    lr_mult: 1
    decay_mult: 1
  }
  convolution_param {
    num_output: 144
    bias_term: false
    pad: 1
    kernel_size: 3
    group: 144
    stride: 2
    weight_filler {
      type: "msra"
    }
    engine: CAFFE
  }
}
layer {
  name: "conv3_2/dwise/bn"
  type: "BatchNorm"
  bottom: "conv3_2/dwise"
  top: "conv3_2/dwise/bn"
  batch_norm_param {
    use_global_stats: false
    eps: 1e-05
  }
}
layer {
  name: "conv3_2/dwise/scale"
  type: "Scale"
  bottom: "conv3_2/dwise/bn"
  top: "conv3_2/dwise/bn"
  param {
    lr_mult: 1
    decay_mult: 0
  }
  param {
    lr_mult: 1
    decay_mult: 0
  }
  scale_param {
    bias_term: true
  }
}
layer {
  name: "relu3_2/dwise"
  type: "ReLU"
  bottom: "conv3_2/dwise/bn"
  top: "conv3_2/dwise/bn"
}
layer {
  name: "conv3_2/linear"
  type: "Convolution"
  bottom: "conv3_2/dwise/bn"
  top: "conv3_2/linear"
  param {
    lr_mult: 1
    decay_mult: 1
  }
  convolution_param {
    num_output: 32
    bias_term: false
    kernel_size: 1
    weight_filler {
      type: "msra"
    }
  }
}
layer {
  name: "conv3_2/linear/bn"
  type: "BatchNorm"
  bottom: "conv3_2/linear"
  top: "conv3_2/linear/bn"
  batch_norm_param {
    use_global_stats: false
    eps: 1e-05
  }
}
layer {
  name: "conv3_2/linear/scale"
  type: "Scale"
  bottom: "conv3_2/linear/bn"
  top: "conv3_2/linear/bn"
  param {
    lr_mult: 1
    decay_mult: 0
  }
  param {
    lr_mult: 1
    decay_mult: 0
  }
  scale_param {
    bias_term: true
  }
}
layer {
  name: "conv4_1/expand"
  type: "Convolution"
  bottom: "conv3_2/linear/bn"
  top: "conv4_1/expand"
  param {
    lr_mult: 1
    decay_mult: 1
  }
  convolution_param {
    num_output: 192
    bias_term: false
    kernel_size: 1
    weight_filler {
      type: "msra"
    }
  }
}
layer {
  name: "conv4_1/expand/bn"
  type: "BatchNorm"
  bottom: "conv4_1/expand"
  top: "conv4_1/expand/bn"
  batch_norm_param {
    use_global_stats: false
    eps: 1e-05
  }
}
layer {
  name: "conv4_1/expand/scale"
  type: "Scale"
  bottom: "conv4_1/expand/bn"
  top: "conv4_1/expand/bn"
  param {
    lr_mult: 1
    decay_mult: 0
  }
  param {
    lr_mult: 1
    decay_mult: 0
  }
  scale_param {
    bias_term: true
  }
}
layer {
  name: "relu4_1/expand"
  type: "ReLU"
  bottom: "conv4_1/expand/bn"
  top: "conv4_1/expand/bn"
}
layer {
  name: "conv4_1/dwise"
  type: "DepthwiseConvolution"
  bottom: "conv4_1/expand/bn"
  top: "conv4_1/dwise"
  param {
    lr_mult: 1
    decay_mult: 1
  }
  convolution_param {
    num_output: 192
    bias_term: false
    pad: 1
    kernel_size: 3
    group: 192
    weight_filler {
      type: "msra"
    }
    engine: CAFFE
  }
}
layer {
  name: "conv4_1/dwise/bn"
  type: "BatchNorm"
  bottom: "conv4_1/dwise"
  top: "conv4_1/dwise/bn"
  batch_norm_param {
    use_global_stats: false
    eps: 1e-05
  }
}
layer {
  name: "conv4_1/dwise/scale"
  type: "Scale"
  bottom: "conv4_1/dwise/bn"
  top: "conv4_1/dwise/bn"
  param {
    lr_mult: 1
    decay_mult: 0
  }
  param {
    lr_mult: 1
    decay_mult: 0
  }
  scale_param {
    bias_term: true
  }
}
layer {
  name: "relu4_1/dwise"
  type: "ReLU"
  bottom: "conv4_1/dwise/bn"
  top: "conv4_1/dwise/bn"
}
layer {
  name: "conv4_1/linear"
  type: "Convolution"
  bottom: "conv4_1/dwise/bn"
  top: "conv4_1/linear"
  param {
    lr_mult: 1
    decay_mult: 1
  }
  convolution_param {
    num_output: 32
    bias_term: false
    kernel_size: 1
    weight_filler {
      type: "msra"
    }
  }
}
layer {
  name: "conv4_1/linear/bn"
  type: "BatchNorm"
  bottom: "conv4_1/linear"
  top: "conv4_1/linear/bn"
  batch_norm_param {
    use_global_stats: false
    eps: 1e-05
  }
}
layer {
  name: "conv4_1/linear/scale"
  type: "Scale"
  bottom: "conv4_1/linear/bn"
  top: "conv4_1/linear/bn"
  param {
    lr_mult: 1
    decay_mult: 0
  }
  param {
    lr_mult: 1
    decay_mult: 0
  }
  scale_param {
    bias_term: true
  }
}
layer {
  name: "block_4_1"
  type: "Eltwise"
  bottom: "conv3_2/linear/bn"
  bottom: "conv4_1/linear/bn"
  top: "block_4_1"
}
layer {
  name: "conv4_2/expand"
  type: "Convolution"
  bottom: "block_4_1"
  top: "conv4_2/expand"
  param {
    lr_mult: 1
    decay_mult: 1
  }
  convolution_param {
    num_output: 192
    bias_term: false
    kernel_size: 1
    weight_filler {
      type: "msra"
    }
  }
}
layer {
  name: "conv4_2/expand/bn"
  type: "BatchNorm"
  bottom: "conv4_2/expand"
  top: "conv4_2/expand/bn"
  batch_norm_param {
    use_global_stats: false
    eps: 1e-05
  }
}
layer {
  name: "conv4_2/expand/scale"
  type: "Scale"
  bottom: "conv4_2/expand/bn"
  top: "conv4_2/expand/bn"
  param {
    lr_mult: 1
    decay_mult: 0
  }
  param {
    lr_mult: 1
    decay_mult: 0
  }
  scale_param {
    bias_term: true
  }
}
layer {
  name: "relu4_2/expand"
  type: "ReLU"
  bottom: "conv4_2/expand/bn"
  top: "conv4_2/expand/bn"
}
layer {
  name: "conv4_2/dwise"
  type: "DepthwiseConvolution"
  bottom: "conv4_2/expand/bn"
  top: "conv4_2/dwise"
  param {
    lr_mult: 1
    decay_mult: 1
  }
  convolution_param {
    num_output: 192
    bias_term: false
    pad: 1
    kernel_size: 3
    group: 192
    weight_filler {
      type: "msra"
    }
    engine: CAFFE
  }
}
layer {
  name: "conv4_2/dwise/bn"
  type: "BatchNorm"
  bottom: "conv4_2/dwise"
  top: "conv4_2/dwise/bn"
  batch_norm_param {
    use_global_stats: false
    eps: 1e-05
  }
}
layer {
  name: "conv4_2/dwise/scale"
  type: "Scale"
  bottom: "conv4_2/dwise/bn"
  top: "conv4_2/dwise/bn"
  param {
    lr_mult: 1
    decay_mult: 0
  }
  param {
    lr_mult: 1
    decay_mult: 0
  }
  scale_param {
    bias_term: true
  }
}
layer {
  name: "relu4_2/dwise"
  type: "ReLU"
  bottom: "conv4_2/dwise/bn"
  top: "conv4_2/dwise/bn"
}
layer {
  name: "conv4_2/linear"
  type: "Convolution"
  bottom: "conv4_2/dwise/bn"
  top: "conv4_2/linear"
  param {
    lr_mult: 1
    decay_mult: 1
  }
  convolution_param {
    num_output: 32
    bias_term: false
    kernel_size: 1
    weight_filler {
      type: "msra"
    }
  }
}
layer {
  name: "conv4_2/linear/bn"
  type: "BatchNorm"
  bottom: "conv4_2/linear"
  top: "conv4_2/linear/bn"
  batch_norm_param {
    use_global_stats: false
    eps: 1e-05
  }
}
layer {
  name: "conv4_2/linear/scale"
  type: "Scale"
  bottom: "conv4_2/linear/bn"
  top: "conv4_2/linear/bn"
  param {
    lr_mult: 1
    decay_mult: 0
  }
  param {
    lr_mult: 1
    decay_mult: 0
  }
  scale_param {
    bias_term: true
  }
}
layer {
  name: "block_4_2"
  type: "Eltwise"
  bottom: "block_4_1"
  bottom: "conv4_2/linear/bn"
  top: "block_4_2"
}
layer {
  name: "conv4_3/expand"
  type: "Convolution"
  bottom: "block_4_2"
  top: "conv4_3/expand"
  param {
    lr_mult: 1
    decay_mult: 1
  }
  convolution_param {
    num_output: 192
    bias_term: false
    kernel_size: 1
    weight_filler {
      type: "msra"
    }
  }
}
layer {
  name: "conv4_3/expand/bn"
  type: "BatchNorm"
  bottom: "conv4_3/expand"
  top: "conv4_3/expand/bn"
  batch_norm_param {
    use_global_stats: false
    eps: 1e-05
  }
}
layer {
  name: "conv4_3/expand/scale"
  type: "Scale"
  bottom: "conv4_3/expand/bn"
  top: "conv4_3/expand/bn"
  param {
    lr_mult: 1
    decay_mult: 0
  }
  param {
    lr_mult: 1
    decay_mult: 0
  }
  scale_param {
    bias_term: true
  }
}
layer {
  name: "relu4_3/expand"
  type: "ReLU"
  bottom: "conv4_3/expand/bn"
  top: "conv4_3/expand/bn"
}
layer {
  name: "conv4_3/dwise"
  type: "DepthwiseConvolution"
  bottom: "conv4_3/expand/bn"
  top: "conv4_3/dwise"
  param {
    lr_mult: 1
    decay_mult: 1
  }
  convolution_param {
    num_output: 192
    bias_term: false
    pad: 1
    kernel_size: 3
    group: 192
    weight_filler {
      type: "msra"
    }
    engine: CAFFE
  }
}
layer {
  name: "conv4_3/dwise/bn"
  type: "BatchNorm"
  bottom: "conv4_3/dwise"
  top: "conv4_3/dwise/bn"
  batch_norm_param {
    use_global_stats: false
    eps: 1e-05
  }
}
layer {
  name: "conv4_3/dwise/scale"
  type: "Scale"
  bottom: "conv4_3/dwise/bn"
  top: "conv4_3/dwise/bn"
  param {
    lr_mult: 1
    decay_mult: 0
  }
  param {
    lr_mult: 1
    decay_mult: 0
  }
  scale_param {
    bias_term: true
  }
}
layer {
  name: "relu4_3/dwise"
  type: "ReLU"
  bottom: "conv4_3/dwise/bn"
  top: "conv4_3/dwise/bn"
}
layer {
  name: "conv4_3/linear"
  type: "Convolution"
  bottom: "conv4_3/dwise/bn"
  top: "conv4_3/linear"
  param {
    lr_mult: 1
    decay_mult: 1
  }
  convolution_param {
    num_output: 64
    bias_term: false
    kernel_size: 1
    weight_filler {
      type: "msra"
    }
  }
}
layer {
  name: "conv4_3/linear/bn"
  type: "BatchNorm"
  bottom: "conv4_3/linear"
  top: "conv4_3/linear/bn"
  batch_norm_param {
    use_global_stats: false
    eps: 1e-05
  }
}
layer {
  name: "conv4_3/linear/scale"
  type: "Scale"
  bottom: "conv4_3/linear/bn"
  top: "conv4_3/linear/bn"
  param {
    lr_mult: 1
    decay_mult: 0
  }
  param {
    lr_mult: 1
    decay_mult: 0
  }
  scale_param {
    bias_term: true
  }
}
layer {
  name: "conv4_4/expand"
  type: "Convolution"
  bottom: "conv4_3/linear/bn"
  top: "conv4_4/expand"
  param {
    lr_mult: 1
    decay_mult: 1
  }
  convolution_param {
    num_output: 384
    bias_term: false
    kernel_size: 1
    weight_filler {
      type: "msra"
    }
  }
}
layer {
  name: "conv4_4/expand/bn"
  type: "BatchNorm"
  bottom: "conv4_4/expand"
  top: "conv4_4/expand/bn"
  batch_norm_param {
    use_global_stats: false
    eps: 1e-05
  }
}
layer {
  name: "conv4_4/expand/scale"
  type: "Scale"
  bottom: "conv4_4/expand/bn"
  top: "conv4_4/expand/bn"
  param {
    lr_mult: 1
    decay_mult: 0
  }
  param {
    lr_mult: 1
    decay_mult: 0
  }
  scale_param {
    bias_term: true
  }
}
layer {
  name: "relu4_4/expand"
  type: "ReLU"
  bottom: "conv4_4/expand/bn"
  top: "conv4_4/expand/bn"
}
layer {
  name: "conv4_4/dwise"
  type: "DepthwiseConvolution"
  bottom: "conv4_4/expand/bn"
  top: "conv4_4/dwise"
  param {
    lr_mult: 1
    decay_mult: 1
  }
  convolution_param {
    num_output: 384
    bias_term: false
    pad: 1
    kernel_size: 3
    group: 384
    weight_filler {
      type: "msra"
    }
    engine: CAFFE
  }
}
layer {
  name: "conv4_4/dwise/bn"
  type: "BatchNorm"
  bottom: "conv4_4/dwise"
  top: "conv4_4/dwise/bn"
  batch_norm_param {
    use_global_stats: false
    eps: 1e-05
  }
}
layer {
  name: "conv4_4/dwise/scale"
  type: "Scale"
  bottom: "conv4_4/dwise/bn"
  top: "conv4_4/dwise/bn"
  param {
    lr_mult: 1
    decay_mult: 0
  }
  param {
    lr_mult: 1
    decay_mult: 0
  }
  scale_param {
    bias_term: true
  }
}
layer {
  name: "relu4_4/dwise"
  type: "ReLU"
  bottom: "conv4_4/dwise/bn"
  top: "conv4_4/dwise/bn"
}
layer {
  name: "conv4_4/linear"
  type: "Convolution"
  bottom: "conv4_4/dwise/bn"
  top: "conv4_4/linear"
  param {
    lr_mult: 1
    decay_mult: 1
  }
  convolution_param {
    num_output: 64
    bias_term: false
    kernel_size: 1
    weight_filler {
      type: "msra"
    }
  }
}
layer {
  name: "conv4_4/linear/bn"
  type: "BatchNorm"
  bottom: "conv4_4/linear"
  top: "conv4_4/linear/bn"
  batch_norm_param {
    use_global_stats: false
    eps: 1e-05
  }
}
layer {
  name: "conv4_4/linear/scale"
  type: "Scale"
  bottom: "conv4_4/linear/bn"
  top: "conv4_4/linear/bn"
  param {
    lr_mult: 1
    decay_mult: 0
  }
  param {
    lr_mult: 1
    decay_mult: 0
  }
  scale_param {
    bias_term: true
  }
}
layer {
  name: "block_4_4"
  type: "Eltwise"
  bottom: "conv4_3/linear/bn"
  bottom: "conv4_4/linear/bn"
  top: "block_4_4"
}
layer {
  name: "conv4_5/expand"
  type: "Convolution"
  bottom: "block_4_4"
  top: "conv4_5/expand"
  param {
    lr_mult: 1
    decay_mult: 1
  }
  convolution_param {
    num_output: 384
    bias_term: false
    kernel_size: 1
    weight_filler {
      type: "msra"
    }
  }
}
layer {
  name: "conv4_5/expand/bn"
  type: "BatchNorm"
  bottom: "conv4_5/expand"
  top: "conv4_5/expand/bn"
  batch_norm_param {
    use_global_stats: false
    eps: 1e-05
  }
}
layer {
  name: "conv4_5/expand/scale"
  type: "Scale"
  bottom: "conv4_5/expand/bn"
  top: "conv4_5/expand/bn"
  param {
    lr_mult: 1
    decay_mult: 0
  }
  param {
    lr_mult: 1
    decay_mult: 0
  }
  scale_param {
    bias_term: true
  }
}
layer {
  name: "relu4_5/expand"
  type: "ReLU"
  bottom: "conv4_5/expand/bn"
  top: "conv4_5/expand/bn"
}
layer {
  name: "conv4_5/dwise"
  type: "DepthwiseConvolution"
  bottom: "conv4_5/expand/bn"
  top: "conv4_5/dwise"
  param {
    lr_mult: 1
    decay_mult: 1
  }
  convolution_param {
    num_output: 384
    bias_term: false
    pad: 1
    kernel_size: 3
    group: 384
    weight_filler {
      type: "msra"
    }
    engine: CAFFE
  }
}
layer {
  name: "conv4_5/dwise/bn"
  type: "BatchNorm"
  bottom: "conv4_5/dwise"
  top: "conv4_5/dwise/bn"
  batch_norm_param {
    use_global_stats: false
    eps: 1e-05
  }
}
layer {
  name: "conv4_5/dwise/scale"
  type: "Scale"
  bottom: "conv4_5/dwise/bn"
  top: "conv4_5/dwise/bn"
  param {
    lr_mult: 1
    decay_mult: 0
  }
  param {
    lr_mult: 1
    decay_mult: 0
  }
  scale_param {
    bias_term: true
  }
}
layer {
  name: "relu4_5/dwise"
  type: "ReLU"
  bottom: "conv4_5/dwise/bn"
  top: "conv4_5/dwise/bn"
}
layer {
  name: "conv4_5/linear"
  type: "Convolution"
  bottom: "conv4_5/dwise/bn"
  top: "conv4_5/linear"
  param {
    lr_mult: 1
    decay_mult: 1
  }
  convolution_param {
    num_output: 64
    bias_term: false
    kernel_size: 1
    weight_filler {
      type: "msra"
    }
  }
}
layer {
  name: "conv4_5/linear/bn"
  type: "BatchNorm"
  bottom: "conv4_5/linear"
  top: "conv4_5/linear/bn"
  batch_norm_param {
    use_global_stats: false
    eps: 1e-05
  }
}
layer {
  name: "conv4_5/linear/scale"
  type: "Scale"
  bottom: "conv4_5/linear/bn"
  top: "conv4_5/linear/bn"
  param {
    lr_mult: 1
    decay_mult: 0
  }
  param {
    lr_mult: 1
    decay_mult: 0
  }
  scale_param {
    bias_term: true
  }
}
layer {
  name: "block_4_5"
  type: "Eltwise"
  bottom: "block_4_4"
  bottom: "conv4_5/linear/bn"
  top: "block_4_5"
}
layer {
  name: "conv4_6/expand"
  type: "Convolution"
  bottom: "block_4_5"
  top: "conv4_6/expand"
  param {
    lr_mult: 1
    decay_mult: 1
  }
  convolution_param {
    num_output: 384
    bias_term: false
    kernel_size: 1
    weight_filler {
      type: "msra"
    }
  }
}
layer {
  name: "conv4_6/expand/bn"
  type: "BatchNorm"
  bottom: "conv4_6/expand"
  top: "conv4_6/expand/bn"
  batch_norm_param {
    use_global_stats: false
    eps: 1e-05
  }
}
layer {
  name: "conv4_6/expand/scale"
  type: "Scale"
  bottom: "conv4_6/expand/bn"
  top: "conv4_6/expand/bn"
  param {
    lr_mult: 1
    decay_mult: 0
  }
  param {
    lr_mult: 1
    decay_mult: 0
  }
  scale_param {
    bias_term: true
  }
}
layer {
  name: "relu4_6/expand"
  type: "ReLU"
  bottom: "conv4_6/expand/bn"
  top: "conv4_6/expand/bn"
}
layer {
  name: "conv4_6/dwise"
  type: "DepthwiseConvolution"
  bottom: "conv4_6/expand/bn"
  top: "conv4_6/dwise"
  param {
    lr_mult: 1
    decay_mult: 1
  }
  convolution_param {
    num_output: 384
    bias_term: false
    pad: 1
    kernel_size: 3
    group: 384
    weight_filler {
      type: "msra"
    }
    engine: CAFFE
  }
}
layer {
  name: "conv4_6/dwise/bn"
  type: "BatchNorm"
  bottom: "conv4_6/dwise"
  top: "conv4_6/dwise/bn"
  batch_norm_param {
    use_global_stats: false
    eps: 1e-05
  }
}
layer {
  name: "conv4_6/dwise/scale"
  type: "Scale"
  bottom: "conv4_6/dwise/bn"
  top: "conv4_6/dwise/bn"
  param {
    lr_mult: 1
    decay_mult: 0
  }
  param {
    lr_mult: 1
    decay_mult: 0
  }
  scale_param {
    bias_term: true
  }
}
layer {
  name: "relu4_6/dwise"
  type: "ReLU"
  bottom: "conv4_6/dwise/bn"
  top: "conv4_6/dwise/bn"
}
layer {
  name: "conv4_6/linear"
  type: "Convolution"
  bottom: "conv4_6/dwise/bn"
  top: "conv4_6/linear"
  param {
    lr_mult: 1
    decay_mult: 1
  }
  convolution_param {
    num_output: 64
    bias_term: false
    kernel_size: 1
    weight_filler {
      type: "msra"
    }
  }
}
layer {
  name: "conv4_6/linear/bn"
  type: "BatchNorm"
  bottom: "conv4_6/linear"
  top: "conv4_6/linear/bn"
  batch_norm_param {
    use_global_stats: false
    eps: 1e-05
  }
}
layer {
  name: "conv4_6/linear/scale"
  type: "Scale"
  bottom: "conv4_6/linear/bn"
  top: "conv4_6/linear/bn"
  param {
    lr_mult: 1
    decay_mult: 0
  }
  param {
    lr_mult: 1
    decay_mult: 0
  }
  scale_param {
    bias_term: true
  }
}
layer {
  name: "block_4_6"
  type: "Eltwise"
  bottom: "block_4_5"
  bottom: "conv4_6/linear/bn"
  top: "block_4_6"
}
layer {
  name: "conv4_7/expand"
  type: "Convolution"
  bottom: "block_4_6"
  top: "conv4_7/expand"
  param {
    lr_mult: 1
    decay_mult: 1
  }
  convolution_param {
    num_output: 384
    bias_term: false
    kernel_size: 1
    weight_filler {
      type: "msra"
    }
  }
}
layer {
  name: "conv4_7/expand/bn"
  type: "BatchNorm"
  bottom: "conv4_7/expand"
  top: "conv4_7/expand/bn"
  batch_norm_param {
    use_global_stats: false
    eps: 1e-05
  }
}
layer {
  name: "conv4_7/expand/scale"
  type: "Scale"
  bottom: "conv4_7/expand/bn"
  top: "conv4_7/expand/bn"
  param {
    lr_mult: 1
    decay_mult: 0
  }
  param {
    lr_mult: 1
    decay_mult: 0
  }
  scale_param {
    bias_term: true
  }
}
layer {
  name: "relu4_7/expand"
  type: "ReLU"
  bottom: "conv4_7/expand/bn"
  top: "conv4_7/expand/bn"
}
layer {
  name: "loss1_conv1"
  type: "Convolution"
  bottom: "block_4_6"
  top: "loss1_conv1"
  param {
    lr_mult: 1
    decay_mult: 1
  }
  param {
    lr_mult: 2
    decay_mult: 0
  }
  convolution_param {
    num_output: 64
    pad: 1
    kernel_size: 3
    weight_filler {
      type: "gaussian"
      std: 0.01
    }
    bias_filler {
      type: "constant"
    }
  }
}
layer {
  name: "loss_relu1"
  type: "ReLU"
  bottom: "loss1_conv1"
  top: "loss1_conv1"
}
layer {
  name: "LFCN_1_5x5"
  type: "Convolution"
  bottom: "loss1_conv1"
  top: "LFCN_1_5x5"
  param {
    lr_mult: 1
    decay_mult: 1
  }
  param {
    lr_mult: 2
    decay_mult: 0
  }
  convolution_param {
    num_output: 9
    pad: 2
    kernel_size: 5
    weight_filler {
      type: "gaussian"
      std: 0.001
    }
    bias_filler {
      type: "constant"
    }
  }
}
layer {
  name: "detection_loss_1_5x5"
  type: "DetectionLoss"
  bottom: "LFCN_1_5x5"
  bottom: "label_1_5x5"
  top: "loss_1_5x5"
  loss_weight: 0.9
  detection_loss_param {
    cls_num: 5
    coord_num: 4
    lambda: 0.05
    field_h: 60
    field_w: 60
    downsample_rate: 8
    bb_smooth: true
    field_whr: 2
    field_xyr: 2
    bg_threshold: 0.2
    bg_multiple: 2
    sample_mode: "random"
    pos_neg_weighted: true
  }
}
layer {
  name: "detection_accuracy_1_5x5"
  type: "DetectionAccuracy"
  bottom: "LFCN_1_5x5"
  bottom: "label_1_5x5"
  top: "accuracy_1_5x5"
  top: "boxiou_1_5x5"
  detection_accuracy_param {
    cls_num: 5
    coord_num: 4
    field_h: 60
    field_w: 60
    downsample_rate: 8
    field_whr: 2
    field_xyr: 2
  }
}
layer {
  name: "LFCN_1_7x7"
  type: "Convolution"
  bottom: "loss1_conv1"
  top: "LFCN_1_7x7"
  param {
    lr_mult: 1
    decay_mult: 1
  }
  param {
    lr_mult: 2
    decay_mult: 0
  }
  convolution_param {
    num_output: 9
    pad: 3
    kernel_size: 7
    weight_filler {
      type: "gaussian"
      std: 0.001
    }
    bias_filler {
      type: "constant"
    }
  }
}
layer {
  name: "detection_loss_1_7x7"
  type: "DetectionLoss"
  bottom: "LFCN_1_7x7"
  bottom: "label_1_7x7"
  top: "loss_1_7x7"
  loss_weight: 0.9
  detection_loss_param {
    cls_num: 5
    coord_num: 4
    lambda: 0.05
    field_h: 84
    field_w: 84
    downsample_rate: 8
    bb_smooth: true
    field_whr: 2
    field_xyr: 2
    bg_threshold: 0.2
    bg_multiple: 2
    sample_mode: "random"
    pos_neg_weighted: true
  }
}
layer {
  name: "detection_accuracy_1_7x7"
  type: "Det
I0102 20:40:03.365044 10922 layer_factory.hpp:77] Creating layer data
…
I0102 20:40:03.535289 10922 image_gt_data_layer.cpp:235] output label size 1 : 2,6,96,96
I0102 20:40:03.535336 10922 image_gt_data_layer.cpp:235] output label size 2 : 2,6,48,48
I0102 20:40:03.535382 10922 image_gt_data_layer.cpp:235] output label size 3 : 2,6,48,48
I0102 20:40:03.535426 10922 image_gt_data_layer.cpp:235] output label size 4 : 2,6,24,24
I0102 20:40:03.535470 10922 image_gt_data_layer.cpp:235] output label size 5 : 2,6,24,24
I0102 20:40:03.535513 10922 image_gt_data_layer.cpp:235] output label size 6 : 2,6,12,12
I0102 20:40:03.566087 10922 net.cpp:150] Setting up data
I0102 20:40:03.566130 10922 net.cpp:157] Top shape: 2 3 768 768 (3538944)
I0102 20:40:03.566136 10922 net.cpp:157] Top shape: 2 6 96 96 (110592)
I0102 20:40:03.566140 10922 net.cpp:157] Top shape: 2 6 96 96 (110592)
I0102 20:40:03.566144 10922 net.cpp:157] Top shape: 2 6 48 48 (27648)
I0102 20:40:03.566149 10922 net.cpp:157] Top shape: 2 6 48 48 (27648)
I0102 20:40:03.566154 10922 net.cpp:157] Top shape: 2 6 24 24 (6912)
I0102 20:40:03.566159 10922 net.cpp:157] Top shape: 2 6 24 24 (6912)
I0102 20:40:03.566162 10922 net.cpp:157] Top shape: 2 6 12 12 (1728)
I0102 20:40:03.566166 10922 net.cpp:165] Memory required for data: 15323904
I0102 20:40:03.566175 10922 layer_factory.hpp:77] Creating layer label_1_5x5_data_1_split
I0102 20:40:03.566761 10922 net.cpp:100] Creating Layer label_1_5x5_data_1_split
I0102 20:40:03.566771 10922 net.cpp:434] label_1_5x5_data_1_split <- label_1_5x5
I0102 20:40:03.566805 10922 net.cpp:408] label_1_5x5_data_1_split -> label_1_5x5_data_1_split_0
I0102 20:40:03.566819 10922 net.cpp:408] label_1_5x5_data_1_split -> label_1_5x5_data_1_split_1
I0102 20:40:03.566879 10922 net.cpp:150] Setting up label_1_5x5_data_1_split
I0102 20:40:03.566885 10922 net.cpp:157] Top shape: 2 6 96 96 (110592)
I0102 20:40:03.566890 10922 net.cpp:157] Top shape: 2 6 96 96 (110592)
I0102 20:40:03.566893 10922 net.cpp:165] Memory required for data: 16208640
I0102 20:40:03.566896 10922 layer_factory.hpp:77] Creating layer label_1_7x7_data_2_split
I0102 20:40:03.566903 10922 net.cpp:100] Creating Layer label_1_7x7_data_2_split
I0102 20:40:03.566913 10922 net.cpp:434] label_1_7x7_data_2_split <- label_1_7x7
I0102 20:40:03.566917 10922 net.cpp:408] label_1_7x7_data_2_split -> label_1_7x7_data_2_split_0
I0102 20:40:03.566922 10922 net.cpp:408] label_1_7x7_data_2_split -> label_1_7x7_data_2_split_1
I0102 20:40:03.566952 10922 net.cpp:150] Setting up label_1_7x7_data_2_split
I0102 20:40:03.566959 10922 net.cpp:157] Top shape: 2 6 96 96 (110592)
I0102 20:40:03.566964 10922 net.cpp:157] Top shape: 2 6 96 96 (110592)
I0102 20:40:03.566969 10922 net.cpp:165] Memory required for data: 17093376
I0102 20:40:03.566973 10922 layer_factory.hpp:77] Creating layer label_2_5x5_data_3_split
I0102 20:40:03.566978 10922 net.cpp:100] Creating Layer label_2_5x5_data_3_split
I0102 20:40:03.566982 10922 net.cpp:434] label_2_5x5_data_3_split <- label_2_5x5
I0102 20:40:03.566989 10922 net.cpp:408] label_2_5x5_data_3_split -> label_2_5x5_data_3_split_0
I0102 20:40:03.566995 10922 net.cpp:408] label_2_5x5_data_3_split -> label_2_5x5_data_3_split_1
I0102 20:40:03.567026 10922 net.cpp:150] Setting up label_2_5x5_data_3_split
I0102 20:40:03.567034 10922 net.cpp:157] Top shape: 2 6 48 48 (27648)
I0102 20:40:03.567039 10922 net.cpp:157] Top shape: 2 6 48 48 (27648)
I0102 20:40:03.567042 10922 net.cpp:165] Memory required for data: 17314560
I0102 20:40:03.567046 10922 layer_factory.hpp:77] Creating layer label_2_7x7_data_4_split
I0102 20:40:03.567054 10922 net.cpp:100] Creating Layer label_2_7x7_data_4_split
I0102 20:40:03.567057 10922 net.cpp:434] label_2_7x7_data_4_split <- label_2_7x7
I0102 20:40:03.567064 10922 net.cpp:408] label_2_7x7_data_4_split -> label_2_7x7_data_4_split_0
I0102 20:40:03.567070 10922 net.cpp:408] label_2_7x7_data_4_split -> label_2_7x7_data_4_split_1
I0102 20:40:03.567101 10922 net.cpp:150] Setting up label_2_7x7_data_4_split
I0102 20:40:03.567108 10922 net.cpp:157] Top shape: 2 6 48 48 (27648)
I0102 20:40:03.567113 10922 net.cpp:157] Top shape: 2 6 48 48 (27648)
I0102 20:40:03.567116 10922 net.cpp:165] Memory required for data: 17535744
I0102 20:40:03.567121 10922 layer_factory.hpp:77] Creating layer label_3_5x5_data_5_split
I0102 20:40:03.567127 10922 net.cpp:100] Creating Layer label_3_5x5_data_5_split
I0102 20:40:03.567132 10922 net.cpp:434] label_3_5x5_data_5_split <- label_3_5x5
I0102 20:40:03.567137 10922 net.cpp:408] label_3_5x5_data_5_split -> label_3_5x5_data_5_split_0
I0102 20:40:03.567144 10922 net.cpp:408] label_3_5x5_data_5_split -> label_3_5x5_data_5_split_1
I0102 20:40:03.567189 10922 net.cpp:150] Setting up label_3_5x5_data_5_split
I0102 20:40:03.567200 10922 net.cpp:157] Top shape: 2 6 24 24 (6912)
I0102 20:40:03.567206 10922 net.cpp:157] Top shape: 2 6 24 24 (6912)
I0102 20:40:03.567214 10922 net.cpp:165] Memory required for data: 17591040
I0102 20:40:03.567219 10922 layer_factory.hpp:77] Creating layer label_3_7x7_data_6_split
I0102 20:40:03.567225 10922 net.cpp:100] Creating Layer label_3_7x7_data_6_split
I0102 20:40:03.567231 10922 net.cpp:434] label_3_7x7_data_6_split <- label_3_7x7
I0102 20:40:03.567241 10922 net.cpp:408] label_3_7x7_data_6_split -> label_3_7x7_data_6_split_0
I0102 20:40:03.567251 10922 net.cpp:408] label_3_7x7_data_6_split -> label_3_7x7_data_6_split_1
I0102 20:40:03.567301 10922 net.cpp:150] Setting up label_3_7x7_data_6_split
I0102 20:40:03.567311 10922 net.cpp:157] Top shape: 2 6 24 24 (6912)
I0102 20:40:03.567315 10922 net.cpp:157] Top shape: 2 6 24 24 (6912)
I0102 20:40:03.567319 10922 net.cpp:165] Memory required for data: 17646336
I0102 20:40:03.567323 10922 layer_factory.hpp:77] Creating layer label_4_5x5_data_7_split
I0102 20:40:03.567329 10922 net.cpp:100] Creating Layer label_4_5x5_data_7_split
I0102 20:40:03.567332 10922 net.cpp:434] label_4_5x5_data_7_split <- label_4_5x5
I0102 20:40:03.567338 10922 net.cpp:408] label_4_5x5_data_7_split -> label_4_5x5_data_7_split_0
I0102 20:40:03.567343 10922 net.cpp:408] label_4_5x5_data_7_split -> label_4_5x5_data_7_split_1
I0102 20:40:03.567368 10922 net.cpp:150] Setting up label_4_5x5_data_7_split
I0102 20:40:03.567374 10922 net.cpp:157] Top shape: 2 6 12 12 (1728)
I0102 20:40:03.567378 10922 net.cpp:157] Top shape: 2 6 12 12 (1728)
I0102 20:40:03.567381 10922 net.cpp:165] Memory required for data: 17660160
I0102 20:40:03.567384 10922 layer_factory.hpp:77] Creating layer conv1
I0102 20:40:03.567401 10922 net.cpp:100] Creating Layer conv1
I0102 20:40:03.567405 10922 net.cpp:434] conv1 <- data
I0102 20:40:03.567411 10922 net.cpp:408] conv1 -> conv1
I0102 20:40:03.969981 10922 net.cpp:150] Setting up conv1
I0102 20:40:03.970011 10922 net.cpp:157] Top shape: 2 32 384 384 (9437184)
I0102 20:40:03.970017 10922 net.cpp:165] Memory required for data: 55408896
I0102 20:40:03.970033 10922 layer_factory.hpp:77] Creating layer conv1/bn
I0102 20:40:03.970547 10922 net.cpp:100] Creating Layer conv1/bn
I0102 20:40:03.970558 10922 net.cpp:434] conv1/bn <- conv1
I0102 20:40:03.970566 10922 net.cpp:408] conv1/bn -> conv1/bn
I0102 20:40:03.970937 10922 net.cpp:150] Setting up conv1/bn
I0102 20:40:03.970947 10922 net.cpp:157] Top shape: 2 32 384 384 (9437184)
I0102 20:40:03.970952 10922 net.cpp:165] Memory required for data: 93157632
I0102 20:40:03.970963 10922 layer_factory.hpp:77] Creating layer conv1/scale
I0102 20:40:03.970973 10922 net.cpp:100] Creating Layer conv1/scale
I0102 20:40:03.970978 10922 net.cpp:434] conv1/scale <- conv1/bn
I0102 20:40:03.970984 10922 net.cpp:395] conv1/scale -> conv1/bn (in-place)
I0102 20:40:03.971032 10922 layer_factory.hpp:77] Creating layer conv1/scale
I0102 20:40:03.972163 10922 net.cpp:150] Setting up conv1/scale
I0102 20:40:03.972178 10922 net.cpp:157] Top shape: 2 32 384 384 (9437184)
I0102 20:40:03.972182 10922 net.cpp:165] Memory required for data: 130906368
I0102 20:40:03.972193 10922 layer_factory.hpp:77] Creating layer relu1
I0102 20:40:03.972201 10922 net.cpp:100] Creating Layer relu1
I0102 20:40:03.972205 10922 net.cpp:434] relu1 <- conv1/bn
I0102 20:40:03.972213 10922 net.cpp:395] relu1 -> conv1/bn (in-place)
I0102 20:40:03.972421 10922 net.cpp:150] Setting up relu1
I0102 20:40:03.972432 10922 net.cpp:157] Top shape: 2 32 384 384 (9437184)
I0102 20:40:03.972436 10922 net.cpp:165] Memory required for data: 168655104
I0102 20:40:03.972442 10922 layer_factory.hpp:77] Creating layer conv2_1/expand
I0102 20:40:03.972455 10922 net.cpp:100] Creating Layer conv2_1/expand
I0102 20:40:03.972460 10922 net.cpp:434] conv2_1/expand <- conv1/bn
I0102 20:40:03.972466 10922 net.cpp:408] conv2_1/expand -> conv2_1/expand
I0102 20:40:03.973842 10922 net.cpp:150] Setting up conv2_1/expand
I0102 20:40:03.973856 10922 net.cpp:157] Top shape: 2 32 384 384 (9437184)
I0102 20:40:03.973860 10922 net.cpp:165] Memory required for data: 206403840
I0102 20:40:03.973867 10922 layer_factory.hpp:77] Creating layer conv2_1/expand/bn
I0102 20:40:03.973875 10922 net.cpp:100] Creating Layer conv2_1/expand/bn
I0102 20:40:03.973879 10922 net.cpp:434] conv2_1/expand/bn <- conv2_1/expand
I0102 20:40:03.973886 10922 net.cpp:408] conv2_1/expand/bn -> conv2_1/expand/bn
I0102 20:40:03.974160 10922 net.cpp:150] Setting up conv2_1/expand/bn
I0102 20:40:03.974169 10922 net.cpp:157] Top shape: 2 32 384 384 (9437184)
I0102 20:40:03.974174 10922 net.cpp:165] Memory required for data: 244152576
I0102 20:40:03.974189 10922 layer_factory.hpp:77] Creating layer conv2_1/expand/scale
I0102 20:40:03.974198 10922 net.cpp:100] Creating Layer conv2_1/expand/scale
I0102 20:40:03.974202 10922 net.cpp:434] conv2_1/expand/scale <- conv2_1/expand/bn
I0102 20:40:03.974208 10922 net.cpp:395] conv2_1/expand/scale -> conv2_1/expand/bn (in-place)
I0102 20:40:03.974247 10922 layer_factory.hpp:77] Creating layer conv2_1/expand/scale
I0102 20:40:03.975313 10922 net.cpp:150] Setting up conv2_1/expand/scale
I0102 20:40:03.975329 10922 net.cpp:157] Top shape: 2 32 384 384 (9437184)
I0102 20:40:03.975333 10922 net.cpp:165] Memory required for data: 281901312
I0102 20:40:03.975340 10922 layer_factory.hpp:77] Creating layer relu2_1/expand
I0102 20:40:03.975348 10922 net.cpp:100] Creating Layer relu2_1/expand
I0102 20:40:03.975353 10922 net.cpp:434] relu2_1/expand <- conv2_1/expand/bn
I0102 20:40:03.975359 10922 net.cpp:395] relu2_1/expand -> conv2_1/expand/bn (in-place)
I0102 20:40:03.975538 10922 net.cpp:150] Setting up relu2_1/expand
I0102 20:40:03.975548 10922 net.cpp:157] Top shape: 2 32 384 384 (9437184)
I0102 20:40:03.975553 10922 net.cpp:165] Memory required for data: 319650048
I0102 20:40:03.975556 10922 layer_factory.hpp:77] Creating layer conv2_1/dwise
I0102 20:40:03.975567 10922 net.cpp:100] Creating Layer conv2_1/dwise
I0102 20:40:03.975574 10922 net.cpp:434] conv2_1/dwise <- conv2_1/expand/bn
I0102 20:40:03.975582 10922 net.cpp:408] conv2_1/dwise -> conv2_1/dwise
I0102 20:40:03.975767 10922 net.cpp:150] Setting up conv2_1/dwise
I0102 20:40:03.975777 10922 net.cpp:157] Top shape: 2 32 384 384 (9437184)
I0102 20:40:03.975781 10922 net.cpp:165] Memory required for data: 357398784
I0102 20:40:03.975790 10922 layer_factory.hpp:77] Creating layer conv2_1/dwise/bn
I0102 20:40:03.975798 10922 net.cpp:100] Creating Layer conv2_1/dwise/bn
I0102 20:40:03.975805 10922 net.cpp:434] conv2_1/dwise/bn <- conv2_1/dwise
I0102 20:40:03.975813 10922 net.cpp:408] conv2_1/dwise/bn -> conv2_1/dwise/bn
I0102 20:40:03.976084 10922 net.cpp:150] Setting up conv2_1/dwise/bn
I0102 20:40:03.976094 10922 net.cpp:157] Top shape: 2 32 384 384 (9437184)
I0102 20:40:03.976099 10922 net.cpp:165] Memory required for data: 395147520
I0102 20:40:03.976109 10922 layer_factory.hpp:77] Creating layer conv2_1/dwise/scale
I0102 20:40:03.976119 10922 net.cpp:100] Creating Layer conv2_1/dwise/scale
I0102 20:40:03.976125 10922 net.cpp:434] conv2_1/dwise/scale <- conv2_1/dwise/bn
I0102 20:40:03.976131 10922 net.cpp:395] conv2_1/dwise/scale -> conv2_1/dwise/bn (in-place)
I0102 20:40:03.976172 10922 layer_factory.hpp:77] Creating layer conv2_1/dwise/scale
I0102 20:40:03.977259 10922 net.cpp:150] Setting up conv2_1/dwise/scale
I0102 20:40:03.977274 10922 net.cpp:157] Top shape: 2 32 384 384 (9437184)
I0102 20:40:03.977278 10922 net.cpp:165] Memory required for data: 432896256
I0102 20:40:03.977289 10922 layer_factory.hpp:77] Creating layer relu2_1/dwise
I0102 20:40:03.977298 10922 net.cpp:100] Creating Layer relu2_1/dwise
I0102 20:40:03.977301 10922 net.cpp:434] relu2_1/dwise <- conv2_1/dwise/bn
I0102 20:40:03.977308 10922 net.cpp:395] relu2_1/dwise -> conv2_1/dwise/bn (in-place)
I0102 20:40:03.977493 10922 net.cpp:150] Setting up relu2_1/dwise
I0102 20:40:03.977504 10922 net.cpp:157] Top shape: 2 32 384 384 (9437184)
I0102 20:40:03.977507 10922 net.cpp:165] Memory required for data: 470644992
I0102 20:40:03.977514 10922 layer_factory.hpp:77] Creating layer conv2_1/linear
I0102 20:40:03.977527 10922 net.cpp:100] Creating Layer conv2_1/linear
I0102 20:40:03.977533 10922 net.cpp:434] conv2_1/linear <- conv2_1/dwise/bn
I0102 20:40:03.977542 10922 net.cpp:408] conv2_1/linear -> conv2_1/linear
I0102 20:40:03.978898 10922 net.cpp:150] Setting up conv2_1/linear
I0102 20:40:03.978914 10922 net.cpp:157] Top shape: 2 16 384 384 (4718592)
I0102 20:40:03.978919 10922 net.cpp:165] Memory required for data: 489519360
I0102 20:40:03.978924 10922 layer_factory.hpp:77] Creating layer conv2_1/linear/bn
I0102 20:40:03.978933 10922 net.cpp:100] Creating Layer conv2_1/linear/bn
I0102 20:40:03.978937 10922 net.cpp:434] conv2_1/linear/bn <- conv2_1/linear
I0102 20:40:03.978946 10922 net.cpp:408] conv2_1/linear/bn -> conv2_1/linear/bn
I0102 20:40:03.979240 10922 net.cpp:150] Setting up conv2_1/linear/bn
I0102 20:40:03.979249 10922 net.cpp:157] Top shape: 2 16 384 384 (4718592)
I0102 20:40:03.979254 10922 net.cpp:165] Memory required for data: 508393728
I0102 20:40:03.979266 10922 layer_factory.hpp:77] Creating layer conv2_1/linear/scale
I0102 20:40:03.979279 10922 net.cpp:100] Creating Layer conv2_1/linear/scale
I0102 20:40:03.979285 10922 net.cpp:434] conv2_1/linear/scale <- conv2_1/linear/bn
I0102 20:40:03.979293 10922 net.cpp:395] conv2_1/linear/scale -> conv2_1/linear/bn (in-place)
I0102 20:40:03.979336 10922 layer_factory.hpp:77] Creating layer conv2_1/linear/scale
I0102 20:40:03.980432 10922 net.cpp:150] Setting up conv2_1/linear/scale
I0102 20:40:03.980448 10922 net.cpp:157] Top shape: 2 16 384 384 (4718592)
I0102 20:40:03.980451 10922 net.cpp:165] Memory required for data: 527268096
I0102 20:40:03.980458 10922 layer_factory.hpp:77] Creating layer conv2_2/expand
I0102 20:40:03.980468 10922 net.cpp:100] Creating Layer conv2_2/expand
I0102 20:40:03.980473 10922 net.cpp:434] conv2_2/expand <- conv2_1/linear/bn
I0102 20:40:03.980480 10922 net.cpp:408] conv2_2/expand -> conv2_2/expand
I0102 20:40:03.981881 10922 net.cpp:150] Setting up conv2_2/expand
I0102 20:40:03.981896 10922 net.cpp:157] Top shape: 2 96 384 384 (28311552)
I0102 20:40:03.981900 10922 net.cpp:165] Memory required for data: 640514304
I0102 20:40:03.981906 10922 layer_factory.hpp:77] Creating layer conv2_2/expand/bn
I0102 20:40:03.981914 10922 net.cpp:100] Creating Layer conv2_2/expand/bn
I0102 20:40:03.981918 10922 net.cpp:434] conv2_2/expand/bn <- conv2_2/expand
I0102 20:40:03.981925 10922 net.cpp:408] conv2_2/expand/bn -> conv2_2/expand/bn
I0102 20:40:03.982223 10922 net.cpp:150] Setting up conv2_2/expand/bn
I0102 20:40:03.982233 10922 net.cpp:157] Top shape: 2 96 384 384 (28311552)
I0102 20:40:03.982236 10922 net.cpp:165] Memory required for data: 753760512
I0102 20:40:03.982244 10922 layer_factory.hpp:77] Creating layer conv2_2/expand/scale
I0102 20:40:03.982251 10922 net.cpp:100] Creating Layer conv2_2/expand/scale
I0102 20:40:03.982255 10922 net.cpp:434] conv2_2/expand/scale <- conv2_2/expand/bn
I0102 20:40:03.982261 10922 net.cpp:395] conv2_2/expand/scale -> conv2_2/expand/bn (in-place)
I0102 20:40:03.982300 10922 layer_factory.hpp:77] Creating layer conv2_2/expand/scale
I0102 20:40:03.983543 10922 net.cpp:150] Setting up conv2_2/expand/scale
I0102 20:40:03.983568 10922 net.cpp:157] Top shape: 2 96 384 384 (28311552)
I0102 20:40:03.983572 10922 net.cpp:165] Memory required for data: 867006720
I0102 20:40:03.983582 10922 layer_factory.hpp:77] Creating layer relu2_2/expand
I0102 20:40:03.983595 10922 net.cpp:100] Creating Layer relu2_2/expand
I0102 20:40:03.983600 10922 net.cpp:434] relu2_2/expand <- conv2_2/expand/bn
I0102 20:40:03.983608 10922 net.cpp:395] relu2_2/expand -> conv2_2/expand/bn (in-place)
I0102 20:40:03.983844 10922 net.cpp:150] Setting up relu2_2/expand
I0102 20:40:03.983855 10922 net.cpp:157] Top shape: 2 96 384 384 (28311552)
I0102 20:40:03.983860 10922 net.cpp:165] Memory required for data: 980252928
I0102 20:40:03.983863 10922 layer_factory.hpp:77] Creating layer conv2_2/dwise
I0102 20:40:03.983875 10922 net.cpp:100] Creating Layer conv2_2/dwise
I0102 20:40:03.983880 10922 net.cpp:434] conv2_2/dwise <- conv2_2/expand/bn
I0102 20:40:03.983886 10922 net.cpp:408] conv2_2/dwise -> conv2_2/dwise
I0102 20:40:03.984140 10922 net.cpp:150] Setting up conv2_2/dwise
I0102 20:40:03.984151 10922 net.cpp:157] Top shape: 2 96 192 192 (7077888)
I0102 20:40:03.984155 10922 net.cpp:165] Memory required for data: 1008564480
I0102 20:40:03.984161 10922 layer_factory.hpp:77] Creating layer conv2_2/dwise/bn
I0102 20:40:03.984169 10922 net.cpp:100] Creating Layer conv2_2/dwise/bn
I0102 20:40:03.984174 10922 net.cpp:434] conv2_2/dwise/bn <- conv2_2/dwise
I0102 20:40:03.984181 10922 net.cpp:408] conv2_2/dwise/bn -> conv2_2/dwise/bn
I0102 20:40:03.984385 10922 net.cpp:150] Setting up conv2_2/dwise/bn
I0102 20:40:03.984392 10922 net.cpp:157] Top shape: 2 96 192 192 (7077888)
I0102 20:40:03.984396 10922 net.cpp:165] Memory required for data: 1036876032
I0102 20:40:03.984412 10922 layer_factory.hpp:77] Creating layer conv2_2/dwise/scale
I0102 20:40:03.984422 10922 net.cpp:100] Creating Layer conv2_2/dwise/scale
I0102 20:40:03.984427 10922 net.cpp:434] conv2_2/dwise/scale <- conv2_2/dwise/bn
I0102 20:40:03.984436 10922 net.cpp:395] conv2_2/dwise/scale -> conv2_2/dwise/bn (in-place)
I0102 20:40:03.984474 10922 layer_factory.hpp:77] Creating layer conv2_2/dwise/scale
I0102 20:40:03.984663 10922 net.cpp:150] Setting up conv2_2/dwise/scale
I0102 20:40:03.984673 10922 net.cpp:157] Top shape: 2 96 192 192 (7077888)
I0102 20:40:03.984676 10922 net.cpp:165] Memory required for data: 1065187584
I0102 20:40:03.984684 10922 layer_factory.hpp:77] Creating layer relu2_2/dwise
I0102 20:40:03.984691 10922 net.cpp:100] Creating Layer relu2_2/dwise
I0102 20:40:03.984696 10922 net.cpp:434] relu2_2/dwise <- conv2_2/dwise/bn
I0102 20:40:03.984702 10922 net.cpp:395] relu2_2/dwise -> conv2_2/dwise/bn (in-place)
I0102 20:40:03.985306 10922 net.cpp:150] Setting up relu2_2/dwise
I0102 20:40:03.985319 10922 net.cpp:157] Top shape: 2 96 192 192 (7077888)
I0102 20:40:03.985324 10922 net.cpp:165] Memory required for data: 1093499136
I0102 20:40:03.985329 10922 layer_factory.hpp:77] Creating layer conv2_2/linear
I0102 20:40:03.985340 10922 net.cpp:100] Creating Layer conv2_2/linear
I0102 20:40:03.985345 10922 net.cpp:434] conv2_2/linear <- conv2_2/dwise/bn
I0102 20:40:03.985354 10922 net.cpp:408] conv2_2/linear -> conv2_2/linear
I0102 20:40:03.986716 10922 net.cpp:150] Setting up conv2_2/linear
I0102 20:40:03.986739 10922 net.cpp:157] Top shape: 2 24 192 192 (1769472)
I0102 20:40:03.986743 10922 net.cpp:165] Memory required for data: 1100577024
I0102 20:40:03.986752 10922 layer_factory.hpp:77] Creating layer conv2_2/linear/bn
I0102 20:40:03.986765 10922 net.cpp:100] Creating Layer conv2_2/linear/bn
I0102 20:40:03.986770 10922 net.cpp:434] conv2_2/linear/bn <- conv2_2/linear
I0102 20:40:03.986776 10922 net.cpp:408] conv2_2/linear/bn -> conv2_2/linear/bn
I0102 20:40:03.987058 10922 net.cpp:150] Setting up conv2_2/linear/bn
I0102 20:40:03.987123 10922 net.cpp:157] Top shape: 2 24 192 192 (1769472)
I0102 20:40:03.987145 10922 net.cpp:165] Memory required for data: 1107654912
I0102 20:40:03.987179 10922 layer_factory.hpp:77] Creating layer conv2_2/linear/scale
I0102 20:40:03.987255 10922 net.cpp:100] Creating Layer conv2_2/linear/scale
I0102 20:40:03.987298 10922 net.cpp:434] conv2_2/linear/scale <- conv2_2/linear/bn
I0102 20:40:03.987341 10922 net.cpp:395] conv2_2/linear/scale -> conv2_2/linear/bn (in-place)
I0102 20:40:03.987709 10922 layer_factory.hpp:77] Creating layer conv2_2/linear/scale
I0102 20:40:03.987921 10922 net.cpp:150] Setting up conv2_2/linear/scale
I0102 20:40:03.987931 10922 net.cpp:157] Top shape: 2 24 192 192 (1769472)
I0102 20:40:03.987936 10922 net.cpp:165] Memory required for data: 1114732800
I0102 20:40:03.987942 10922 layer_factory.hpp:77] Creating layer conv2_2/linear/bn_conv2_2/linear/scale_0_split
I0102 20:40:03.987951 10922 net.cpp:100] Creating Layer conv2_2/linear/bn_conv2_2/linear/scale_0_split
I0102 20:40:03.987957 10922 net.cpp:434] conv2_2/linear/bn_conv2_2/linear/scale_0_split <- conv2_2/linear/bn
I0102 20:40:03.987967 10922 net.cpp:408] conv2_2/linear/bn_conv2_2/linear/scale_0_split -> conv2_2/linear/bn_conv2_2/linear/scale_0_split_0
I0102 20:40:03.987977 10922 net.cpp:408] conv2_2/linear/bn_conv2_2/linear/scale_0_split -> conv2_2/linear/bn_conv2_2/linear/scale_0_split_1
I0102 20:40:03.988020 10922 net.cpp:150] Setting up conv2_2/linear/bn_conv2_2/linear/scale_0_split
I0102 20:40:03.988029 10922 net.cpp:157] Top shape: 2 24 192 192 (1769472)
I0102 20:40:03.988035 10922 net.cpp:157] Top shape: 2 24 192 192 (1769472)
I0102 20:40:03.988041 10922 net.cpp:165] Memory required for data: 1128888576
I0102 20:40:03.988047 10922 layer_factory.hpp:77] Creating layer conv3_1/expand
I0102 20:40:03.988061 10922 net.cpp:100] Creating Layer conv3_1/expand
I0102 20:40:03.988066 10922 net.cpp:434] conv3_1/expand <- conv2_2/linear/bn_conv2_2/linear/scale_0_split_0
I0102 20:40:03.988075 10922 net.cpp:408] conv3_1/expand -> conv3_1/expand
I0102 20:40:03.988864 10922 net.cpp:150] Setting up conv3_1/expand
I0102 20:40:03.988876 10922 net.cpp:157] Top shape: 2 144 192 192 (10616832)
I0102 20:40:03.988879 10922 net.cpp:165] Memory required for data: 1171355904
I0102 20:40:03.988888 10922 layer_factory.hpp:77] Creating layer conv3_1/expand/bn
I0102 20:40:03.988898 10922 net.cpp:100] Creating Layer conv3_1/expand/bn
I0102 20:40:03.988903 10922 net.cpp:434] conv3_1/expand/bn <- conv3_1/expand
I0102 20:40:03.988909 10922 net.cpp:408] conv3_1/expand/bn -> conv3_1/expand/bn
I0102 20:40:03.989125 10922 net.cpp:150] Setting up conv3_1/expand/bn
I0102 20:40:03.989132 10922 net.cpp:157] Top shape: 2 144 192 192 (10616832)
I0102 20:40:03.989135 10922 net.cpp:165] Memory required for data: 1213823232
I0102 20:40:03.989142 10922 layer_factory.hpp:77] Creating layer conv3_1/expand/scale
I0102 20:40:03.989151 10922 net.cpp:100] Creating Layer conv3_1/expand/scale
I0102 20:40:03.989153 10922 net.cpp:434] conv3_1/expand/scale <- conv3_1/expand/bn
I0102 20:40:03.989157 10922 net.cpp:395] conv3_1/expand/scale -> conv3_1/expand/bn (in-place)
I0102 20:40:03.989192 10922 layer_factory.hpp:77] Creating layer conv3_1/expand/scale
I0102 20:40:03.989383 10922 net.cpp:150] Setting up conv3_1/expand/scale
I0102 20:40:03.989390 10922 net.cpp:157] Top shape: 2 144 192 192 (10616832)
I0102 20:40:03.989393 10922 net.cpp:165] Memory required for data: 1256290560
I0102 20:40:03.989399 10922 layer_factory.hpp:77] Creating layer relu3_1/expand
I0102 20:40:03.989406 10922 net.cpp:100] Creating Layer relu3_1/expand
I0102 20:40:03.989410 10922 net.cpp:434] relu3_1/expand <- conv3_1/expand/bn
I0102 20:40:03.989414 10922 net.cpp:395] relu3_1/expand -> conv3_1/expand/bn (in-place)
I0102 20:40:03.989960 10922 net.cpp:150] Setting up relu3_1/expand
I0102 20:40:03.989974 10922 net.cpp:157] Top shape: 2 144 192 192 (10616832)
I0102 20:40:03.989976 10922 net.cpp:165] Memory required for data: 1298757888
I0102 20:40:03.989980 10922 layer_factory.hpp:77] Creating layer conv3_1/dwise
I0102 20:40:03.989989 10922 net.cpp:100] Creating Layer conv3_1/dwise
I0102 20:40:03.989992 10922 net.cpp:434] conv3_1/dwise <- conv3_1/expand/bn
I0102 20:40:03.990000 10922 net.cpp:408] conv3_1/dwise -> conv3_1/dwise
I0102 20:40:03.990195 10922 net.cpp:150] Setting up conv3_1/dwise
I0102 20:40:03.990204 10922 net.cpp:157] Top shape: 2 144 192 192 (10616832)
I0102 20:40:03.990207 10922 net.cpp:165] Memory required for data: 1341225216
I0102 20:40:03.990211 10922 layer_factory.hpp:77] Creating layer conv3_1/dwise/bn
I0102 20:40:03.990217 10922 net.cpp:100] Creating Layer conv3_1/dwise/bn
I0102 20:40:03.990221 10922 net.cpp:434] conv3_1/dwise/bn <- conv3_1/dwise
I0102 20:40:03.990226 10922 net.cpp:408] conv3_1/dwise/bn -> conv3_1/dwise/bn
I0102 20:40:03.991214 10922 net.cpp:150] Setting up conv3_1/dwise/bn
I0102 20:40:03.991226 10922 net.cpp:157] Top shape: 2 144 192 192 (10616832)
I0102 20:40:03.991230 10922 net.cpp:165] Memory required for data: 1383692544
I0102 20:40:03.991237 10922 layer_factory.hpp:77] Creating layer conv3_1/dwise/scale
I0102 20:40:03.991245 10922 net.cpp:100] Creating Layer conv3_1/dwise/scale
I0102 20:40:03.991248 10922 net.cpp:434] conv3_1/dwise/scale <- conv3_1/dwise/bn
I0102 20:40:03.991253 10922 net.cpp:395] conv3_1/dwise/scale -> conv3_1/dwise/bn (in-place)
I0102 20:40:03.991289 10922 layer_factory.hpp:77] Creating layer conv3_1/dwise/scale
I0102 20:40:03.991410 10922 net.cpp:150] Setting up conv3_1/dwise/scale
I0102 20:40:03.991418 10922 net.cpp:157] Top shape: 2 144 192 192 (10616832)
I0102 20:40:03.991422 10922 net.cpp:165] Memory required for data: 1426159872
I0102 20:40:03.991427 10922 layer_factory.hpp:77] Creating layer relu3_1/dwise
I0102 20:40:03.991433 10922 net.cpp:100] Creating Layer relu3_1/dwise
I0102 20:40:03.991436 10922 net.cpp:434] relu3_1/dwise <- conv3_1/dwise/bn
I0102 20:40:03.991441 10922 net.cpp:395] relu3_1/dwise -> conv3_1/dwise/bn (in-place)
I0102 20:40:03.991598 10922 net.cpp:150] Setting up relu3_1/dwise
I0102 20:40:03.991607 10922 net.cpp:157] Top shape: 2 144 192 192 (10616832)
I0102 20:40:03.991611 10922 net.cpp:165] Memory required for data: 1468627200
I0102 20:40:03.991614 10922 layer_factory.hpp:77] Creating layer conv3_1/linear
I0102 20:40:03.991623 10922 net.cpp:100] Creating Layer conv3_1/linear
I0102 20:40:03.991626 10922 net.cpp:434] conv3_1/linear <- conv3_1/dwise/bn
I0102 20:40:03.991632 10922 net.cpp:408] conv3_1/linear -> conv3_1/linear
I0102 20:40:03.992662 10922 net.cpp:150] Setting up conv3_1/linear
I0102 20:40:03.992674 10922 net.cpp:157] Top shape: 2 24 192 192 (1769472)
I0102 20:40:03.992678 10922 net.cpp:165] Memory required for data: 1475705088
I0102 20:40:03.992683 10922 layer_factory.hpp:77] Creating layer conv3_1/linear/bn
I0102 20:40:03.992689 10922 net.cpp:100] Creating Layer conv3_1/linear/bn
I0102 20:40:03.992693 10922 net.cpp:434] conv3_1/linear/bn <- conv3_1/linear
I0102 20:40:03.992699 10922 net.cpp:408] conv3_1/linear/bn -> conv3_1/linear/bn
I0102 20:40:03.992895 10922 net.cpp:150] Setting up conv3_1/linear/bn
I0102 20:40:03.992903 10922 net.cpp:157] Top shape: 2 24 192 192 (1769472)
I0102 20:40:03.992907 10922 net.cpp:165] Memory required for data: 1482782976
I0102 20:40:03.992913 10922 layer_factory.hpp:77] Creating layer conv3_1/linear/scale
I0102 20:40:03.992918 10922 net.cpp:100] Creating Layer conv3_1/linear/scale
I0102 20:40:03.992921 10922 net.cpp:434] conv3_1/linear/scale <- conv3_1/linear/bn
I0102 20:40:03.992925 10922 net.cpp:395] conv3_1/linear/scale -> conv3_1/linear/bn (in-place)
I0102 20:40:03.992959 10922 layer_factory.hpp:77] Creating layer conv3_1/linear/scale
I0102 20:40:03.993084 10922 net.cpp:150] Setting up conv3_1/linear/scale
I0102 20:40:03.993093 10922 net.cpp:157] Top shape: 2 24 192 192 (1769472)
I0102 20:40:03.993095 10922 net.cpp:165] Memory required for data: 1489860864
I0102 20:40:03.993101 10922 layer_factory.hpp:77] Creating layer block_3_1
I0102 20:40:03.993113 10922 net.cpp:100] Creating Layer block_3_1
I0102 20:40:03.993116 10922 net.cpp:434] block_3_1 <- conv2_2/linear/bn_conv2_2/linear/scale_0_split_1
I0102 20:40:03.993120 10922 net.cpp:434] block_3_1 <- conv3_1/linear/bn
I0102 20:40:03.993124 10922 net.cpp:408] block_3_1 -> block_3_1
I0102 20:40:03.993147 10922 net.cpp:150] Setting up block_3_1
I0102 20:40:03.993154 10922 net.cpp:157] Top shape: 2 24 192 192 (1769472)
I0102 20:40:03.993157 10922 net.cpp:165] Memory required for data: 1496938752
I0102 20:40:03.993160 10922 layer_factory.hpp:77] Creating layer conv3_2/expand
I0102 20:40:03.993167 10922 net.cpp:100] Creating Layer conv3_2/expand
I0102 20:40:03.993170 10922 net.cpp:434] conv3_2/expand <- block_3_1
I0102 20:40:03.993175 10922 net.cpp:408] conv3_2/expand -> conv3_2/expand
I0102 20:40:03.994164 10922 net.cpp:150] Setting up conv3_2/expand
I0102 20:40:03.994176 10922 net.cpp:157] Top shape: 2 144 192 192 (10616832)
I0102 20:40:03.994179 10922 net.cpp:165] Memory required for data: 1539406080
I0102 20:40:03.994184 10922 layer_factory.hpp:77] Creating layer conv3_2/expand/bn
I0102 20:40:03.994191 10922 net.cpp:100] Creating Layer conv3_2/expand/bn
I0102 20:40:03.994195 10922 net.cpp:434] conv3_2/expand/bn <- conv3_2/expand
I0102 20:40:03.994202 10922 net.cpp:408] conv3_2/expand/bn -> conv3_2/expand/bn
I0102 20:40:03.994395 10922 net.cpp:150] Setting up conv3_2/expand/bn
I0102 20:40:03.994402 10922 net.cpp:157] Top shape: 2 144 192 192 (10616832)
I0102 20:40:03.994405 10922 net.cpp:165] Memory required for data: 1581873408
I0102 20:40:03.994412 10922 layer_factory.hpp:77] Creating layer conv3_2/expand/scale
I0102 20:40:03.994418 10922 net.cpp:100] Creating Layer conv3_2/expand/scale
I0102 20:40:03.994421 10922 net.cpp:434] conv3_2/expand/scale <- conv3_2/expand/bn
I0102 20:40:03.994426 10922 net.cpp:395] conv3_2/expand/scale -> conv3_2/expand/bn (in-place)
I0102 20:40:03.994459 10922 layer_factory.hpp:77] Creating layer conv3_2/expand/scale
I0102 20:40:03.994680 10922 net.cpp:150] Setting up conv3_2/expand/scale
I0102 20:40:03.994688 10922 net.cpp:157] Top shape: 2 144 192 192 (10616832)
I0102 20:40:03.994691 10922 net.cpp:165] Memory required for data: 1624340736
I0102 20:40:03.994705 10922 layer_factory.hpp:77] Creating layer relu3_2/expand
I0102 20:40:03.994711 10922 net.cpp:100] Creating Layer relu3_2/expand
I0102 20:40:03.994714 10922 net.cpp:434] relu3_2/expand <- conv3_2/expand/bn
I0102 20:40:03.994719 10922 net.cpp:395] relu3_2/expand -> conv3_2/expand/bn (in-place)
I0102 20:40:03.994879 10922 net.cpp:150] Setting up relu3_2/expand
I0102 20:40:03.994889 10922 net.cpp:157] Top shape: 2 144 192 192 (10616832)
I0102 20:40:03.994892 10922 net.cpp:165] Memory required for data: 1666808064
I0102 20:40:03.994896 10922 layer_factory.hpp:77] Creating layer conv3_2/dwise
I0102 20:40:03.994904 10922 net.cpp:100] Creating Layer conv3_2/dwise
I0102 20:40:03.994909 10922 net.cpp:434] conv3_2/dwise <- conv3_2/expand/bn
I0102 20:40:03.994913 10922 net.cpp:408] conv3_2/dwise -> conv3_2/dwise
I0102 20:40:03.995106 10922 net.cpp:150] Setting up conv3_2/dwise
I0102 20:40:03.995115 10922 net.cpp:157] Top shape: 2 144 96 96 (2654208)
I0102 20:40:03.995117 10922 net.cpp:165] Memory required for data: 1677424896
I0102 20:40:03.995121 10922 layer_factory.hpp:77] Creating layer conv3_2/dwise/bn
I0102 20:40:03.995127 10922 net.cpp:100] Creating Layer conv3_2/dwise/bn
I0102 20:40:03.995131 10922 net.cpp:434] conv3_2/dwise/bn <- conv3_2/dwise
I0102 20:40:03.995136 10922 net.cpp:408] conv3_2/dwise/bn -> conv3_2/dwise/bn
I0102 20:40:03.995313 10922 net.cpp:150] Setting up conv3_2/dwise/bn
I0102 20:40:03.995321 10922 net.cpp:157] Top shape: 2 144 96 96 (2654208)
I0102 20:40:03.995323 10922 net.cpp:165] Memory required for data: 1688041728
I0102 20:40:03.995329 10922 layer_factory.hpp:77] Creating layer conv3_2/dwise/scale
I0102 20:40:03.995335 10922 net.cpp:100] Creating Layer conv3_2/dwise/scale
I0102 20:40:03.995338 10922 net.cpp:434] conv3_2/dwise/scale <- conv3_2/dwise/bn
I0102 20:40:03.995343 10922 net.cpp:395] conv3_2/dwise/scale -> conv3_2/dwise/bn (in-place)
I0102 20:40:03.995376 10922 layer_factory.hpp:77] Creating layer conv3_2/dwise/scale
I0102 20:40:03.995509 10922 net.cpp:150] Setting up conv3_2/dwise/scale
I0102 20:40:03.995517 10922 net.cpp:157] Top shape: 2 144 96 96 (2654208)
I0102 20:40:03.995520 10922 net.cpp:165] Memory required for data: 1698658560
I0102 20:40:03.995525 10922 layer_factory.hpp:77] Creating layer relu3_2/dwise
I0102 20:40:03.995532 10922 net.cpp:100] Creating Layer relu3_2/dwise
I0102 20:40:03.995535 10922 net.cpp:434] relu3_2/dwise <- conv3_2/dwise/bn
I0102 20:40:03.995539 10922 net.cpp:395] relu3_2/dwise -> conv3_2/dwise/bn (in-place)
I0102 20:40:03.995687 10922 net.cpp:150] Setting up relu3_2/dwise
I0102 20:40:03.995697 10922 net.cpp:157] Top shape: 2 144 96 96 (2654208)
I0102 20:40:03.995699 10922 net.cpp:165] Memory required for data: 1709275392
I0102 20:40:03.995703 10922 layer_factory.hpp:77] Creating layer conv3_2/linear
I0102 20:40:03.995712 10922 net.cpp:100] Creating Layer conv3_2/linear
I0102 20:40:03.995714 10922 net.cpp:434] conv3_2/linear <- conv3_2/dwise/bn
I0102 20:40:03.995720 10922 net.cpp:408] conv3_2/linear -> conv3_2/linear
I0102 20:40:03.996912 10922 net.cpp:150] Setting up conv3_2/linear
I0102 20:40:03.996923 10922 net.cpp:157] Top shape: 2 32 96 96 (589824)
I0102 20:40:03.996927 10922 net.cpp:165] Memory required for data: 1711634688
I0102 20:40:03.996932 10922 layer_factory.hpp:77] Creating layer conv3_2/linear/bn
I0102 20:40:03.996939 10922 net.cpp:100] Creating Layer conv3_2/linear/bn
I0102 20:40:03.996943 10922 net.cpp:434] conv3_2/linear/bn <- conv3_2/linear
I0102 20:40:03.996948 10922 net.cpp:408] conv3_2/linear/bn -> conv3_2/linear/bn
I0102 20:40:03.997145 10922 net.cpp:150] Setting up conv3_2/linear/bn
I0102 20:40:03.997153 10922 net.cpp:157] Top shape: 2 32 96 96 (589824)
I0102 20:40:03.997156 10922 net.cpp:165] Memory required for data: 1713993984
I0102 20:40:03.997165 10922 layer_factory.hpp:77] Creating layer conv3_2/linear/scale
I0102 20:40:03.997174 10922 net.cpp:100] Creating Layer conv3_2/linear/scale
I0102 20:40:03.997179 10922 net.cpp:434] conv3_2/linear/scale <- conv3_2/linear/bn
I0102 20:40:03.997186 10922 net.cpp:395] conv3_2/linear/scale -> conv3_2/linear/bn (in-place)
I0102 20:40:03.997225 10922 layer_factory.hpp:77] Creating layer conv3_2/linear/scale
I0102 20:40:03.997357 10922 net.cpp:150] Setting up conv3_2/linear/scale
I0102 20:40:03.997365 10922 net.cpp:157] Top shape: 2 32 96 96 (589824)
I0102 20:40:03.997368 10922 net.cpp:165] Memory required for data: 1716353280
I0102 20:40:03.997376 10922 layer_factory.hpp:77] Creating layer conv3_2/linear/bn_conv3_2/linear/scale_0_split
I0102 20:40:03.997382 10922 net.cpp:100] Creating Layer conv3_2/linear/bn_conv3_2/linear/scale_0_split
I0102 20:40:03.997388 10922 net.cpp:434] conv3_2/linear/bn_conv3_2/linear/scale_0_split <- conv3_2/linear/bn
I0102 20:40:03.997395 10922 net.cpp:408] conv3_2/linear/bn_conv3_2/linear/scale_0_split -> conv3_2/linear/bn_conv3_2/linear/scale_0_split_0
I0102 20:40:03.997402 10922 net.cpp:408] conv3_2/linear/bn_conv3_2/linear/scale_0_split -> conv3_2/linear/bn_conv3_2/linear/scale_0_split_1
I0102 20:40:03.997437 10922 net.cpp:150] Setting up conv3_2/linear/bn_conv3_2/linear/scale_0_split
I0102 20:40:03.997443 10922 net.cpp:157] Top shape: 2 32 96 96 (589824)
I0102 20:40:03.997448 10922 net.cpp:157] Top shape: 2 32 96 96 (589824)
I0102 20:40:03.997452 10922 net.cpp:165] Memory required for data: 1721071872
I0102 20:40:03.997457 10922 layer_factory.hpp:77] Creating layer conv4_1/expand
I0102 20:40:03.997467 10922 net.cpp:100] Creating Layer conv4_1/expand
I0102 20:40:03.997470 10922 net.cpp:434] conv4_1/expand <- conv3_2/linear/bn_conv3_2/linear/scale_0_split_0
I0102 20:40:03.997480 10922 net.cpp:408] conv4_1/expand -> conv4_1/expand
I0102 20:40:03.998579 10922 net.cpp:150] Setting up conv4_1/expand
I0102 20:40:03.998591 10922 net.cpp:157] Top shape: 2 192 96 96 (3538944)
I0102 20:40:03.998595 10922 net.cpp:165] Memory required for data: 1735227648
I0102 20:40:03.998600 10922 layer_factory.hpp:77] Creating layer conv4_1/expand/bn
I0102 20:40:03.998607 10922 net.cpp:100] Creating Layer conv4_1/expand/bn
I0102 20:40:03.998611 10922 net.cpp:434] conv4_1/expand/bn <- conv4_1/expand
I0102 20:40:03.998618 10922 net.cpp:408] conv4_1/expand/bn -> conv4_1/expand/bn
I0102 20:40:03.998829 10922 net.cpp:150] Setting up conv4_1/expand/bn
I0102 20:40:03.998838 10922 net.cpp:157] Top shape: 2 192 96 96 (3538944)
I0102 20:40:03.998842 10922 net.cpp:165] Memory required for data: 1749383424
I0102 20:40:03.998848 10922 layer_factory.hpp:77] Creating layer conv4_1/expand/scale
I0102 20:40:03.998854 10922 net.cpp:100] Creating Layer conv4_1/expand/scale
I0102 20:40:03.998858 10922 net.cpp:434] conv4_1/expand/scale <- conv4_1/expand/bn
I0102 20:40:03.998864 10922 net.cpp:395] conv4_1/expand/scale -> conv4_1/expand/bn (in-place)
I0102 20:40:03.998898 10922 layer_factory.hpp:77] Creating layer conv4_1/expand/scale
I0102 20:40:03.999024 10922 net.cpp:150] Setting up conv4_1/expand/scale
I0102 20:40:03.999032 10922 net.cpp:157] Top shape: 2 192 96 96 (3538944)
I0102 20:40:03.999034 10922 net.cpp:165] Memory required for data: 1763539200
I0102 20:40:03.999039 10922 layer_factory.hpp:77] Creating layer relu4_1/expand
I0102 20:40:03.999045 10922 net.cpp:100] Creating Layer relu4_1/expand
I0102 20:40:03.999048 10922 net.cpp:434] relu4_1/expand <- conv4_1/expand/bn
I0102 20:40:03.999053 10922 net.cpp:395] relu4_1/expand -> conv4_1/expand/bn (in-place)
I0102 20:40:03.999199 10922 net.cpp:150] Setting up relu4_1/expand
I0102 20:40:03.999208 10922 net.cpp:157] Top shape: 2 192 96 96 (3538944)
I0102 20:40:03.999212 10922 net.cpp:165] Memory required for data: 1777694976
I0102 20:40:03.999215 10922 layer_factory.hpp:77] Creating layer conv4_1/dwise
I0102 20:40:03.999222 10922 net.cpp:100] Creating Layer conv4_1/dwise
I0102 20:40:03.999227 10922 net.cpp:434] conv4_1/dwise <- conv4_1/expand/bn
I0102 20:40:03.999231 10922 net.cpp:408] conv4_1/dwise -> conv4_1/dwise
I0102 20:40:03.999444 10922 net.cpp:150] Setting up conv4_1/dwise
I0102 20:40:03.999454 10922 net.cpp:157] Top shape: 2 192 96 96 (3538944)
I0102 20:40:03.999456 10922 net.cpp:165] Memory required for data: 1791850752
I0102 20:40:03.999460 10922 layer_factory.hpp:77] Creating layer conv4_1/dwise/bn
I0102 20:40:03.999470 10922 net.cpp:100] Creating Layer conv4_1/dwise/bn
I0102 20:40:03.999475 10922 net.cpp:434] conv4_1/dwise/bn <- conv4_1/dwise
I0102 20:40:03.999480 10922 net.cpp:408] conv4_1/dwise/bn -> conv4_1/dwise/bn
I0102 20:40:03.999660 10922 net.cpp:150] Setting up conv4_1/dwise/bn
I0102 20:40:03.999666 10922 net.cpp:157] Top shape: 2 192 96 96 (3538944)
I0102 20:40:03.999670 10922 net.cpp:165] Memory required for data: 1806006528
I0102 20:40:03.999676 10922 layer_factory.hpp:77] Creating layer conv4_1/dwise/scale
I0102 20:40:03.999681 10922 net.cpp:100] Creating Layer conv4_1/dwise/scale
I0102 20:40:03.999686 10922 net.cpp:434] conv4_1/dwise/scale <- conv4_1/dwise/bn
I0102 20:40:03.999689 10922 net.cpp:395] conv4_1/dwise/scale -> conv4_1/dwise/bn (in-place)
I0102 20:40:03.999722 10922 layer_factory.hpp:77] Creating layer conv4_1/dwise/scale
I0102 20:40:03.999825 10922 net.cpp:150] Setting up conv4_1/dwise/scale
I0102 20:40:03.999832 10922 net.cpp:157] Top shape: 2 192 96 96 (3538944)
I0102 20:40:03.999835 10922 net.cpp:165] Memory required for data: 1820162304
I0102 20:40:03.999841 10922 layer_factory.hpp:77] Creating layer relu4_1/dwise
I0102 20:40:03.999847 10922 net.cpp:100] Creating Layer relu4_1/dwise
I0102 20:40:03.999850 10922 net.cpp:434] relu4_1/dwise <- conv4_1/dwise/bn
I0102 20:40:03.999855 10922 net.cpp:395] relu4_1/dwise -> conv4_1/dwise/bn (in-place)
I0102 20:40:04.000308 10922 net.cpp:150] Setting up relu4_1/dwise
I0102 20:40:04.000319 10922 net.cpp:157] Top shape: 2 192 96 96 (3538944)
I0102 20:40:04.000324 10922 net.cpp:165] Memory required for data: 1834318080
I0102 20:40:04.000329 10922 layer_factory.hpp:77] Creating layer conv4_1/linear
I0102 20:40:04.000340 10922 net.cpp:100] Creating Layer conv4_1/linear
I0102 20:40:04.000346 10922 net.cpp:434] conv4_1/linear <- conv4_1/dwise/bn
I0102 20:40:04.000355 10922 net.cpp:408] conv4_1/linear -> conv4_1/linear
I0102 20:40:04.001437 10922 net.cpp:150] Setting up conv4_1/linear
I0102 20:40:04.001449 10922 net.cpp:157] Top shape: 2 32 96 96 (589824)
I0102 20:40:04.001453 10922 net.cpp:165] Memory required for data: 1836677376
I0102 20:40:04.001458 10922 layer_factory.hpp:77] Creating layer conv4_1/linear/bn
I0102 20:40:04.001466 10922 net.cpp:100] Creating Layer conv4_1/linear/bn
I0102 20:40:04.001471 10922 net.cpp:434] conv4_1/linear/bn <- conv4_1/linear
I0102 20:40:04.001482 10922 net.cpp:408] conv4_1/linear/bn -> conv4_1/linear/bn
I0102 20:40:04.001673 10922 net.cpp:150] Setting up conv4_1/linear/bn
I0102 20:40:04.001682 10922 net.cpp:157] Top shape: 2 32 96 96 (589824)
I0102 20:40:04.001684 10922 net.cpp:165] Memory required for data: 1839036672
I0102 20:40:04.001693 10922 layer_factory.hpp:77] Creating layer conv4_1/linear/scale
I0102 20:40:04.001700 10922 net.cpp:100] Creating Layer conv4_1/linear/scale
I0102 20:40:04.001706 10922 net.cpp:434] conv4_1/linear/scale <- conv4_1/linear/bn
I0102 20:40:04.001714 10922 net.cpp:395] conv4_1/linear/scale -> conv4_1/linear/bn (in-place)
I0102 20:40:04.001752 10922 layer_factory.hpp:77] Creating layer conv4_1/linear/scale
I0102 20:40:04.001880 10922 net.cpp:150] Setting up conv4_1/linear/scale
I0102 20:40:04.001888 10922 net.cpp:157] Top shape: 2 32 96 96 (589824)
I0102 20:40:04.001891 10922 net.cpp:165] Memory required for data: 1841395968
I0102 20:40:04.001899 10922 layer_factory.hpp:77] Creating layer block_4_1
I0102 20:40:04.001906 10922 net.cpp:100] Creating Layer block_4_1
I0102 20:40:04.001914 10922 net.cpp:434] block_4_1 <- conv3_2/linear/bn_conv3_2/linear/scale_0_split_1
I0102 20:40:04.001919 10922 net.cpp:434] block_4_1 <- conv4_1/linear/bn
I0102 20:40:04.001926 10922 net.cpp:408] block_4_1 -> block_4_1
I0102 20:40:04.001952 10922 net.cpp:150] Setting up block_4_1
I0102 20:40:04.001960 10922 net.cpp:157] Top shape: 2 32 96 96 (589824)
I0102 20:40:04.001965 10922 net.cpp:165] Memory required for data: 1843755264
I0102 20:40:04.001968 10922 layer_factory.hpp:77] Creating layer block_4_1_block_4_1_0_split
I0102 20:40:04.001976 10922 net.cpp:100] Creating Layer block_4_1_block_4_1_0_split
I0102 20:40:04.001981 10922 net.cpp:434] block_4_1_block_4_1_0_split <- block_4_1
I0102 20:40:04.001986 10922 net.cpp:408] block_4_1_block_4_1_0_split -> block_4_1_block_4_1_0_split_0
I0102 20:40:04.001993 10922 net.cpp:408] block_4_1_block_4_1_0_split -> block_4_1_block_4_1_0_split_1
I0102 20:40:04.002027 10922 net.cpp:150] Setting up block_4_1_block_4_1_0_split
I0102 20:40:04.002034 10922 net.cpp:157] Top shape: 2 32 96 96 (589824)
I0102 20:40:04.002038 10922 net.cpp:157] Top shape: 2 32 96 96 (589824)
I0102 20:40:04.002043 10922 net.cpp:165] Memory required for data: 1848473856
I0102 20:40:04.002048 10922 layer_factory.hpp:77] Creating layer conv4_2/expand
I0102 20:40:04.002056 10922 net.cpp:100] Creating Layer conv4_2/expand
I0102 20:40:04.002061 10922 net.cpp:434] conv4_2/expand <- block_4_1_block_4_1_0_split_0
I0102 20:40:04.002068 10922 net.cpp:408] conv4_2/expand -> conv4_2/expand
I0102 20:40:04.002846 10922 net.cpp:150] Setting up conv4_2/expand
I0102 20:40:04.002858 10922 net.cpp:157] Top shape: 2 192 96 96 (3538944)
I0102 20:40:04.002863 10922 net.cpp:165] Memory required for data: 1862629632
I0102 20:40:04.002867 10922 layer_factory.hpp:77] Creating layer conv4_2/expand/bn
I0102 20:40:04.002874 10922 net.cpp:100] Creating Layer conv4_2/expand/bn
I0102 20:40:04.002879 10922 net.cpp:434] conv4_2/expand/bn <- conv4_2/expand
I0102 20:40:04.002884 10922 net.cpp:408] conv4_2/expand/bn -> conv4_2/expand/bn
I0102 20:40:04.003068 10922 net.cpp:150] Setting up conv4_2/expand/bn
I0102 20:40:04.003077 10922 net.cpp:157] Top shape: 2 192 96 96 (3538944)
I0102 20:40:04.003079 10922 net.cpp:165] Memory required for data: 1876785408
I0102 20:40:04.003085 10922 layer_factory.hpp:77] Creating layer conv4_2/expand/scale
I0102 20:40:04.003093 10922 net.cpp:100] Creating Layer conv4_2/expand/scale
I0102 20:40:04.003096 10922 net.cpp:434] conv4_2/expand/scale <- conv4_2/expand/bn
I0102 20:40:04.003100 10922 net.cpp:395] conv4_2/expand/scale -> conv4_2/expand/bn (in-place)
I0102 20:40:04.003135 10922 layer_factory.hpp:77] Creating layer conv4_2/expand/scale
I0102 20:40:04.003238 10922 net.cpp:150] Setting up conv4_2/expand/scale
I0102 20:40:04.003245 10922 net.cpp:157] Top shape: 2 192 96 96 (3538944)
I0102 20:40:04.003249 10922 net.cpp:165] Memory required for data: 1890941184
I0102 20:40:04.003254 10922 layer_factory.hpp:77] Creating layer relu4_2/expand
I0102 20:40:04.003259 10922 net.cpp:100] Creating Layer relu4_2/expand
I0102 20:40:04.003263 10922 net.cpp:434] relu4_2/expand <- conv4_2/expand/bn
I0102 20:40:04.003270 10922 net.cpp:395] relu4_2/expand -> conv4_2/expand/bn (in-place)
I0102 20:40:04.003859 10922 net.cpp:150] Setting up relu4_2/expand
I0102 20:40:04.003871 10922 net.cpp:157] Top shape: 2 192 96 96 (3538944)
I0102 20:40:04.003876 10922 net.cpp:165] Memory required for data: 1905096960
I0102 20:40:04.003881 10922 layer_factory.hpp:77] Creating layer conv4_2/dwise
I0102 20:40:04.003892 10922 net.cpp:100] Creating Layer conv4_2/dwise
I0102 20:40:04.003898 10922 net.cpp:434] conv4_2/dwise <- conv4_2/expand/bn
I0102 20:40:04.003907 10922 net.cpp:408] conv4_2/dwise -> conv4_2/dwise
I0102 20:40:04.004132 10922 net.cpp:150] Setting up conv4_2/dwise
I0102 20:40:04.004142 10922 net.cpp:157] Top shape: 2 192 96 96 (3538944)
I0102 20:40:04.004145 10922 net.cpp:165] Memory required for data: 1919252736
I0102 20:40:04.004153 10922 layer_factory.hpp:77] Creating layer conv4_2/dwise/bn
I0102 20:40:04.004163 10922 net.cpp:100] Creating Layer conv4_2/dwise/bn
I0102 20:40:04.004168 10922 net.cpp:434] conv4_2/dwise/bn <- conv4_2/dwise
I0102 20:40:04.004173 10922 net.cpp:408] conv4_2/dwise/bn -> conv4_2/dwise/bn
I0102 20:40:04.004359 10922 net.cpp:150] Setting up conv4_2/dwise/bn
I0102 20:40:04.004366 10922 net.cpp:157] Top shape: 2 192 96 96 (3538944)
I0102 20:40:04.004370 10922 net.cpp:165] Memory required for data: 1933408512
I0102 20:40:04.004380 10922 layer_factory.hpp:77] Creating layer conv4_2/dwise/scale
I0102 20:40:04.004387 10922 net.cpp:100] Creating Layer conv4_2/dwise/scale
I0102 20:40:04.004392 10922 net.cpp:434] conv4_2/dwise/scale <- conv4_2/dwise/bn
I0102 20:40:04.004400 10922 net.cpp:395] conv4_2/dwise/scale -> conv4_2/dwise/bn (in-place)
I0102 20:40:04.004438 10922 layer_factory.hpp:77] Creating layer conv4_2/dwise/scale
I0102 20:40:04.004542 10922 net.cpp:150] Setting up conv4_2/dwise/scale
I0102 20:40:04.004550 10922 net.cpp:157] Top shape: 2 192 96 96 (3538944)
I0102 20:40:04.004554 10922 net.cpp:165] Memory required for data: 1947564288
I0102 20:40:04.004561 10922 layer_factory.hpp:77] Creating layer relu4_2/dwise
I0102 20:40:04.004568 10922 net.cpp:100] Creating Layer relu4_2/dwise
I0102 20:40:04.004573 10922 net.cpp:434] relu4_2/dwise <- conv4_2/dwise/bn
I0102 20:40:04.004581 10922 net.cpp:395] relu4_2/dwise -> conv4_2/dwise/bn (in-place)
I0102 20:40:04.004732 10922 net.cpp:150] Setting up relu4_2/dwise
I0102 20:40:04.004741 10922 net.cpp:157] Top shape: 2 192 96 96 (3538944)
I0102 20:40:04.004745 10922 net.cpp:165] Memory required for data: 1961720064
I0102 20:40:04.004751 10922 layer_factory.hpp:77] Creating layer conv4_2/linear
I0102 20:40:04.004762 10922 net.cpp:100] Creating Layer conv4_2/linear
I0102 20:40:04.004767 10922 net.cpp:434] conv4_2/linear <- conv4_2/dwise/bn
I0102 20:40:04.004773 10922 net.cpp:408] conv4_2/linear -> conv4_2/linear
I0102 20:40:04.005797 10922 net.cpp:150] Setting up conv4_2/linear
I0102 20:40:04.005808 10922 net.cpp:157] Top shape: 2 32 96 96 (589824)
I0102 20:40:04.005811 10922 net.cpp:165] Memory required for data: 1964079360
I0102 20:40:04.005815 10922 layer_factory.hpp:77] Creating layer conv4_2/linear/bn
I0102 20:40:04.005821 10922 net.cpp:100] Creating Layer conv4_2/linear/bn
I0102 20:40:04.005825 10922 net.cpp:434] conv4_2/linear/bn <- conv4_2/linear
I0102 20:40:04.005829 10922 net.cpp:408] conv4_2/linear/bn -> conv4_2/linear/bn
I0102 20:40:04.005991 10922 net.cpp:150] Setting up conv4_2/linear/bn
I0102 20:40:04.005998 10922 net.cpp:157] Top shape: 2 32 96 96 (589824)
I0102 20:40:04.006001 10922 net.cpp:165] Memory required for data: 1966438656
I0102 20:40:04.006008 10922 layer_factory.hpp:77] Creating layer conv4_2/linear/scale
I0102 20:40:04.006014 10922 net.cpp:100] Creating Layer conv4_2/linear/scale
I0102 20:40:04.006018 10922 net.cpp:434] conv4_2/linear/scale <- conv4_2/linear/bn
I0102 20:40:04.006022 10922 net.cpp:395] conv4_2/linear/scale -> conv4_2/linear/bn (in-place)
I0102 20:40:04.006055 10922 layer_factory.hpp:77] Creating layer conv4_2/linear/scale
I0102 20:40:04.006146 10922 net.cpp:150] Setting up conv4_2/linear/scale
I0102 20:40:04.006153 10922 net.cpp:157] Top shape: 2 32 96 96 (589824)
I0102 20:40:04.006155 10922 net.cpp:165] Memory required for data: 1968797952
I0102 20:40:04.006162 10922 layer_factory.hpp:77] Creating layer block_4_2
I0102 20:40:04.006168 10922 net.cpp:100] Creating Layer block_4_2
I0102 20:40:04.006172 10922 net.cpp:434] block_4_2 <- block_4_1_block_4_1_0_split_1
I0102 20:40:04.006175 10922 net.cpp:434] block_4_2 <- conv4_2/linear/bn
I0102 20:40:04.006181 10922 net.cpp:408] block_4_2 -> block_4_2
I0102 20:40:04.006198 10922 net.cpp:150] Setting up block_4_2
I0102 20:40:04.006203 10922 net.cpp:157] Top shape: 2 32 96 96 (589824)
I0102 20:40:04.006206 10922 net.cpp:165] Memory required for data: 1971157248
I0102 20:40:04.006208 10922 layer_factory.hpp:77] Creating layer conv4_3/expand
I0102 20:40:04.006214 10922 net.cpp:100] Creating Layer conv4_3/expand
I0102 20:40:04.006217 10922 net.cpp:434] conv4_3/expand <- block_4_2
I0102 20:40:04.006222 10922 net.cpp:408] conv4_3/expand -> conv4_3/expand
I0102 20:40:04.007206 10922 net.cpp:150] Setting up conv4_3/expand
I0102 20:40:04.007217 10922 net.cpp:157] Top shape: 2 192 96 96 (3538944)
I0102 20:40:04.007220 10922 net.cpp:165] Memory required for data: 1985313024
I0102 20:40:04.007225 10922 layer_factory.hpp:77] Creating layer conv4_3/expand/bn
I0102 20:40:04.007231 10922 net.cpp:100] Creating Layer conv4_3/expand/bn
I0102 20:40:04.007236 10922 net.cpp:434] conv4_3/expand/bn <- conv4_3/expand
I0102 20:40:04.007241 10922 net.cpp:408] conv4_3/expand/bn -> conv4_3/expand/bn
I0102 20:40:04.007416 10922 net.cpp:150] Setting up conv4_3/expand/bn
I0102 20:40:04.007422 10922 net.cpp:157] Top shape: 2 192 96 96 (3538944)
I0102 20:40:04.007426 10922 net.cpp:165] Memory required for data: 1999468800
I0102 20:40:04.007432 10922 layer_factory.hpp:77] Creating layer conv4_3/expand/scale
I0102 20:40:04.007438 10922 net.cpp:100] Creating Layer conv4_3/expand/scale
I0102 20:40:04.007442 10922 net.cpp:434] conv4_3/expand/scale <- conv4_3/expand/bn
I0102 20:40:04.007447 10922 net.cpp:395] conv4_3/expand/scale -> conv4_3/expand/bn (in-place)
I0102 20:40:04.007479 10922 layer_factory.hpp:77] Creating layer conv4_3/expand/scale
I0102 20:40:04.007580 10922 net.cpp:150] Setting up conv4_3/expand/scale
I0102 20:40:04.007586 10922 net.cpp:157] Top shape: 2 192 96 96 (3538944)
I0102 20:40:04.007589 10922 net.cpp:165] Memory required for data: 2013624576
I0102 20:40:04.007594 10922 layer_factory.hpp:77] Creating layer relu4_3/expand
I0102 20:40:04.007599 10922 net.cpp:100] Creating Layer relu4_3/expand
I0102 20:40:04.007603 10922 net.cpp:434] relu4_3/expand <- conv4_3/expand/bn
I0102 20:40:04.007607 10922 net.cpp:395] relu4_3/expand -> conv4_3/expand/bn (in-place)
I0102 20:40:04.007757 10922 net.cpp:150] Setting up relu4_3/expand
I0102 20:40:04.007763 10922 net.cpp:157] Top shape: 2 192 96 96 (3538944)
I0102 20:40:04.007766 10922 net.cpp:165] Memory required for data: 2027780352
I0102 20:40:04.007769 10922 layer_factory.hpp:77] Creating layer conv4_3/dwise
I0102 20:40:04.007776 10922 net.cpp:100] Creating Layer conv4_3/dwise
I0102 20:40:04.007779 10922 net.cpp:434] conv4_3/dwise <- conv4_3/expand/bn
I0102 20:40:04.007786 10922 net.cpp:408] conv4_3/dwise -> conv4_3/dwise
I0102 20:40:04.008018 10922 net.cpp:150] Setting up conv4_3/dwise
I0102 20:40:04.008024 10922 net.cpp:157] Top shape: 2 192 96 96 (3538944)
I0102 20:40:04.008028 10922 net.cpp:165] Memory required for data: 2041936128
I0102 20:40:04.008031 10922 layer_factory.hpp:77] Creating layer conv4_3/dwise/bn
I0102 20:40:04.008036 10922 net.cpp:100] Creating Layer conv4_3/dwise/bn
I0102 20:40:04.008040 10922 net.cpp:434] conv4_3/dwise/bn <- conv4_3/dwise
I0102 20:40:04.008045 10922 net.cpp:408] conv4_3/dwise/bn -> conv4_3/dwise/bn
I0102 20:40:04.008234 10922 net.cpp:150] Setting up conv4_3/dwise/bn
I0102 20:40:04.008239 10922 net.cpp:157] Top shape: 2 192 96 96 (3538944)
I0102 20:40:04.008242 10922 net.cpp:165] Memory required for data: 2056091904
I0102 20:40:04.008249 10922 layer_factory.hpp:77] Creating layer conv4_3/dwise/scale
I0102 20:40:04.008256 10922 net.cpp:100] Creating Layer conv4_3/dwise/scale
I0102 20:40:04.008260 10922 net.cpp:434] conv4_3/dwise/scale <- conv4_3/dwise/bn
I0102 20:40:04.008265 10922 net.cpp:395] conv4_3/dwise/scale -> conv4_3/dwise/bn (in-place)
I0102 20:40:04.008299 10922 layer_factory.hpp:77] Creating layer conv4_3/dwise/scale
I0102 20:40:04.008404 10922 net.cpp:150] Setting up conv4_3/dwise/scale
I0102 20:40:04.008410 10922 net.cpp:157] Top shape: 2 192 96 96 (3538944)
I0102 20:40:04.008414 10922 net.cpp:165] Memory required for data: 2070247680
I0102 20:40:04.008419 10922 layer_factory.hpp:77] Creating layer relu4_3/dwise
I0102 20:40:04.008424 10922 net.cpp:100] Creating Layer relu4_3/dwise
I0102 20:40:04.008427 10922 net.cpp:434] relu4_3/dwise <- conv4_3/dwise/bn
I0102 20:40:04.008432 10922 net.cpp:395] relu4_3/dwise -> conv4_3/dwise/bn (in-place)
I0102 20:40:04.008831 10922 net.cpp:150] Setting up relu4_3/dwise
I0102 20:40:04.008839 10922 net.cpp:157] Top shape: 2 192 96 96 (3538944)
I0102 20:40:04.008842 10922 net.cpp:165] Memory required for data: 2084403456
I0102 20:40:04.008846 10922 layer_factory.hpp:77] Creating layer conv4_3/linear
I0102 20:40:04.008852 10922 net.cpp:100] Creating Layer conv4_3/linear
I0102 20:40:04.008855 10922 net.cpp:434] conv4_3/linear <- conv4_3/dwise/bn
I0102 20:40:04.008860 10922 net.cpp:408] conv4_3/linear -> conv4_3/linear
I0102 20:40:04.009902 10922 net.cpp:150] Setting up conv4_3/linear
I0102 20:40:04.009912 10922 net.cpp:157] Top shape: 2 64 96 96 (1179648)
I0102 20:40:04.009914 10922 net.cpp:165] Memory required for data: 2089122048
I0102 20:40:04.009918 10922 layer_factory.hpp:77] Creating layer conv4_3/linear/bn
I0102 20:40:04.009923 10922 net.cpp:100] Creating Layer conv4_3/linear/bn
I0102 20:40:04.009927 10922 net.cpp:434] conv4_3/linear/bn <- conv4_3/linear
I0102 20:40:04.009932 10922 net.cpp:408] conv4_3/linear/bn -> conv4_3/linear/bn
I0102 20:40:04.010088 10922 net.cpp:150] Setting up conv4_3/linear/bn
I0102 20:40:04.010093 10922 net.cpp:157] Top shape: 2 64 96 96 (1179648)
I0102 20:40:04.010097 10922 net.cpp:165] Memory required for data: 2093840640
I0102 20:40:04.010113 10922 layer_factory.hpp:77] Creating layer conv4_3/linear/scale
I0102 20:40:04.010119 10922 net.cpp:100] Creating Layer conv4_3/linear/scale
I0102 20:40:04.010123 10922 net.cpp:434] conv4_3/linear/scale <- conv4_3/linear/bn
I0102 20:40:04.010126 10922 net.cpp:395] conv4_3/linear/scale -> conv4_3/linear/bn (in-place)
I0102 20:40:04.010157 10922 layer_factory.hpp:77] Creating layer conv4_3/linear/scale
I0102 20:40:04.010246 10922 net.cpp:150] Setting up conv4_3/linear/scale
I0102 20:40:04.010249 10922 net.cpp:157] Top shape: 2 64 96 96 (1179648)
I0102 20:40:04.010252 10922 net.cpp:165] Memory required for data: 2098559232
I0102 20:40:04.010257 10922 layer_factory.hpp:77] Creating layer conv4_3/linear/bn_conv4_3/linear/scale_0_split
I0102 20:40:04.010260 10922 net.cpp:100] Creating Layer conv4_3/linear/bn_conv4_3/linear/scale_0_split
I0102 20:40:04.010263 10922 net.cpp:434] conv4_3/linear/bn_conv4_3/linear/scale_0_split <- conv4_3/linear/bn
I0102 20:40:04.010267 10922 net.cpp:408] conv4_3/linear/bn_conv4_3/linear/scale_0_split -> conv4_3/linear/bn_conv4_3/linear/scale_0_split_0
I0102 20:40:04.010272 10922 net.cpp:408] conv4_3/linear/bn_conv4_3/linear/scale_0_split -> conv4_3/linear/bn_conv4_3/linear/scale_0_split_1
I0102 20:40:04.010298 10922 net.cpp:150] Setting up conv4_3/linear/bn_conv4_3/linear/scale_0_split
I0102 20:40:04.010301 10922 net.cpp:157] Top shape: 2 64 96 96 (1179648)
I0102 20:40:04.010305 10922 net.cpp:157] Top shape: 2 64 96 96 (1179648)
I0102 20:40:04.010308 10922 net.cpp:165] Memory required for data: 2107996416
I0102 20:40:04.010310 10922 layer_factory.hpp:77] Creating layer conv4_4/expand
I0102 20:40:04.010315 10922 net.cpp:100] Creating Layer conv4_4/expand
I0102 20:40:04.010318 10922 net.cpp:434] conv4_4/expand <- conv4_3/linear/bn_conv4_3/linear/scale_0_split_0
I0102 20:40:04.010324 10922 net.cpp:408] conv4_4/expand -> conv4_4/expand
I0102 20:40:04.011750 10922 net.cpp:150] Setting up conv4_4/expand
I0102 20:40:04.011761 10922 net.cpp:157] Top shape: 2 384 96 96 (7077888)
I0102 20:40:04.011765 10922 net.cpp:165] Memory required for data: 2136307968
I0102 20:40:04.011770 10922 layer_factory.hpp:77] Creating layer conv4_4/expand/bn
I0102 20:40:04.011776 10922 net.cpp:100] Creating Layer conv4_4/expand/bn
I0102 20:40:04.011780 10922 net.cpp:434] conv4_4/expand/bn <- conv4_4/expand
I0102 20:40:04.011785 10922 net.cpp:408] conv4_4/expand/bn -> conv4_4/expand/bn
I0102 20:40:04.011981 10922 net.cpp:150] Setting up conv4_4/expand/bn
I0102 20:40:04.011987 10922 net.cpp:157] Top shape: 2 384 96 96 (7077888)
I0102 20:40:04.011991 10922 net.cpp:165] Memory required for data: 2164619520
I0102 20:40:04.011997 10922 layer_factory.hpp:77] Creating layer conv4_4/expand/scale
I0102 20:40:04.012003 10922 net.cpp:100] Creating Layer conv4_4/expand/scale
I0102 20:40:04.012007 10922 net.cpp:434] conv4_4/expand/scale <- conv4_4/expand/bn
I0102 20:40:04.012013 10922 net.cpp:395] conv4_4/expand/scale -> conv4_4/expand/bn (in-place)
I0102 20:40:04.012044 10922 layer_factory.hpp:77] Creating layer conv4_4/expand/scale
I0102 20:40:04.012174 10922 net.cpp:150] Setting up conv4_4/expand/scale
I0102 20:40:04.012181 10922 net.cpp:157] Top shape: 2 384 96 96 (7077888)
I0102 20:40:04.012183 10922 net.cpp:165] Memory required for data: 2192931072
I0102 20:40:04.012188 10922 layer_factory.hpp:77] Creating layer relu4_4/expand
I0102 20:40:04.012193 10922 net.cpp:100] Creating Layer relu4_4/expand
I0102 20:40:04.012197 10922 net.cpp:434] relu4_4/expand <- conv4_4/expand/bn
I0102 20:40:04.012202 10922 net.cpp:395] relu4_4/expand -> conv4_4/expand/bn (in-place)
I0102 20:40:04.012362 10922 net.cpp:150] Setting up relu4_4/expand
I0102 20:40:04.012368 10922 net.cpp:157] Top shape: 2 384 96 96 (7077888)
I0102 20:40:04.012372 10922 net.cpp:165] Memory required for data: 2221242624
I0102 20:40:04.012375 10922 layer_factory.hpp:77] Creating layer conv4_4/dwise
I0102 20:40:04.012383 10922 net.cpp:100] Creating Layer conv4_4/dwise
I0102 20:40:04.012387 10922 net.cpp:434] conv4_4/dwise <- conv4_4/expand/bn
I0102 20:40:04.012393 10922 net.cpp:408] conv4_4/dwise -> conv4_4/dwise
I0102 20:40:04.012658 10922 net.cpp:150] Setting up conv4_4/dwise
I0102 20:40:04.012663 10922 net.cpp:157] Top shape: 2 384 96 96 (7077888)
I0102 20:40:04.012666 10922 net.cpp:165] Memory required for data: 2249554176
I0102 20:40:04.012670 10922 layer_factory.hpp:77] Creating layer conv4_4/dwise/bn
I0102 20:40:04.012675 10922 net.cpp:100] Creating Layer conv4_4/dwise/bn
I0102 20:40:04.012677 10922 net.cpp:434] conv4_4/dwise/bn <- conv4_4/dwise
I0102 20:40:04.012681 10922 net.cpp:408] conv4_4/dwise/bn -> conv4_4/dwise/bn
I0102 20:40:04.012831 10922 net.cpp:150] Setting up conv4_4/dwise/bn
I0102 20:40:04.012836 10922 net.cpp:157] Top shape: 2 384 96 96 (7077888)
I0102 20:40:04.012838 10922 net.cpp:165] Memory required for data: 2277865728
I0102 20:40:04.012845 10922 layer_factory.hpp:77] Creating layer conv4_4/dwise/scale
I0102 20:40:04.012850 10922 net.cpp:100] Creating Layer conv4_4/dwise/scale
I0102 20:40:04.012852 10922 net.cpp:434] conv4_4/dwise/scale <- conv4_4/dwise/bn
I0102 20:40:04.012856 10922 net.cpp:395] conv4_4/dwise/scale -> conv4_4/dwise/bn (in-place)
I0102 20:40:04.012881 10922 layer_factory.hpp:77] Creating layer conv4_4/dwise/scale
I0102 20:40:04.012967 10922 net.cpp:150] Setting up conv4_4/dwise/scale
I0102 20:40:04.012972 10922 net.cpp:157] Top shape: 2 384 96 96 (7077888)
I0102 20:40:04.012974 10922 net.cpp:165] Memory required for data: 2306177280
I0102 20:40:04.012979 10922 layer_factory.hpp:77] Creating layer relu4_4/dwise
I0102 20:40:04.012984 10922 net.cpp:100] Creating Layer relu4_4/dwise
I0102 20:40:04.012986 10922 net.cpp:434] relu4_4/dwise <- conv4_4/dwise/bn
I0102 20:40:04.012990 10922 net.cpp:395] relu4_4/dwise -> conv4_4/dwise/bn (in-place)
I0102 20:40:04.013355 10922 net.cpp:150] Setting up relu4_4/dwise
I0102 20:40:04.013363 10922 net.cpp:157] Top shape: 2 384 96 96 (7077888)
I0102 20:40:04.013366 10922 net.cpp:165] Memory required for data: 2334488832
I0102 20:40:04.013370 10922 layer_factory.hpp:77] Creating layer conv4_4/linear
I0102 20:40:04.013377 10922 net.cpp:100] Creating Layer conv4_4/linear
I0102 20:40:04.013381 10922 net.cpp:434] conv4_4/linear <- conv4_4/dwise/bn
I0102 20:40:04.013386 10922 net.cpp:408] conv4_4/linear -> conv4_4/linear
I0102 20:40:04.014927 10922 net.cpp:150] Setting up conv4_4/linear
I0102 20:40:04.014937 10922 net.cpp:157] Top shape: 2 64 96 96 (1179648)
I0102 20:40:04.014941 10922 net.cpp:165] Memory required for data: 2339207424
I0102 20:40:04.014946 10922 layer_factory.hpp:77] Creating layer conv4_4/linear/bn
I0102 20:40:04.014953 10922 net.cpp:100] Creating Layer conv4_4/linear/bn
I0102 20:40:04.014956 10922 net.cpp:434] conv4_4/linear/bn <- conv4_4/linear
I0102 20:40:04.014962 10922 net.cpp:408] conv4_4/linear/bn -> conv4_4/linear/bn
I0102 20:40:04.015153 10922 net.cpp:150] Setting up conv4_4/linear/bn
I0102 20:40:04.015159 10922 net.cpp:157] Top shape: 2 64 96 96 (1179648)
I0102 20:40:04.015162 10922 net.cpp:165] Memory required for data: 2343926016
I0102 20:40:04.015168 10922 layer_factory.hpp:77] Creating layer conv4_4/linear/scale
I0102 20:40:04.015174 10922 net.cpp:100] Creating Layer conv4_4/linear/scale
I0102 20:40:04.015177 10922 net.cpp:434] conv4_4/linear/scale <- conv4_4/linear/bn
I0102 20:40:04.015183 10922 net.cpp:395] conv4_4/linear/scale -> conv4_4/linear/bn (in-place)
I0102 20:40:04.015218 10922 layer_factory.hpp:77] Creating layer conv4_4/linear/scale
I0102 20:40:04.015332 10922 net.cpp:150] Setting up conv4_4/linear/scale
I0102 20:40:04.015338 10922 net.cpp:157] Top shape: 2 64 96 96 (1179648)
I0102 20:40:04.015341 10922 net.cpp:165] Memory required for data: 2348644608
I0102 20:40:04.015347 10922 layer_factory.hpp:77] Creating layer block_4_4
I0102 20:40:04.015352 10922 net.cpp:100] Creating Layer block_4_4
I0102 20:40:04.015355 10922 net.cpp:434] block_4_4 <- conv4_3/linear/bn_conv4_3/linear/scale_0_split_1
I0102 20:40:04.015359 10922 net.cpp:434] block_4_4 <- conv4_4/linear/bn
I0102 20:40:04.015364 10922 net.cpp:408] block_4_4 -> block_4_4
I0102 20:40:04.015385 10922 net.cpp:150] Setting up block_4_4
I0102 20:40:04.015390 10922 net.cpp:157] Top shape: 2 64 96 96 (1179648)
I0102 20:40:04.015393 10922 net.cpp:165] Memory required for data: 2353363200
I0102 20:40:04.015396 10922 layer_factory.hpp:77] Creating layer block_4_4_block_4_4_0_split
I0102 20:40:04.015400 10922 net.cpp:100] Creating Layer block_4_4_block_4_4_0_split
I0102 20:40:04.015404 10922 net.cpp:434] block_4_4_block_4_4_0_split <- block_4_4
I0102 20:40:04.015409 10922 net.cpp:408] block_4_4_block_4_4_0_split -> block_4_4_block_4_4_0_split_0
I0102 20:40:04.015414 10922 net.cpp:408] block_4_4_block_4_4_0_split -> block_4_4_block_4_4_0_split_1
I0102 20:40:04.015444 10922 net.cpp:150] Setting up block_4_4_block_4_4_0_split
I0102 20:40:04.015451 10922 net.cpp:157] Top shape: 2 64 96 96 (1179648)
I0102 20:40:04.015456 10922 net.cpp:157] Top shape: 2 64 96 96 (1179648)
I0102 20:40:04.015460 10922 net.cpp:165] Memory required for data: 2362800384
I0102 20:40:04.015462 10922 layer_factory.hpp:77] Creating layer conv4_5/expand
I0102 20:40:04.015470 10922 net.cpp:100] Creating Layer conv4_5/expand
I0102 20:40:04.015472 10922 net.cpp:434] conv4_5/expand <- block_4_4_block_4_4_0_split_0
I0102 20:40:04.015477 10922 net.cpp:408] conv4_5/expand -> conv4_5/expand
I0102 20:40:04.016750 10922 net.cpp:150] Setting up conv4_5/expand
I0102 20:40:04.016757 10922 net.cpp:157] Top shape: 2 384 96 96 (7077888)
I0102 20:40:04.016760 10922 net.cpp:165] Memory required for data: 2391111936
I0102 20:40:04.016764 10922 layer_factory.hpp:77] Creating layer conv4_5/expand/bn
I0102 20:40:04.016769 10922 net.cpp:100] Creating Layer conv4_5/expand/bn
I0102 20:40:04.016773 10922 net.cpp:434] conv4_5/expand/bn <- conv4_5/expand
I0102 20:40:04.016777 10922 net.cpp:408] conv4_5/expand/bn -> conv4_5/expand/bn
I0102 20:40:04.016932 10922 net.cpp:150] Setting up conv4_5/expand/bn
I0102 20:40:04.016937 10922 net.cpp:157] Top shape: 2 384 96 96 (7077888)
I0102 20:40:04.016938 10922 net.cpp:165] Memory required for data: 2419423488
I0102 20:40:04.016944 10922 layer_factory.hpp:77] Creating layer conv4_5/expand/scale
I0102 20:40:04.016948 10922 net.cpp:100] Creating Layer conv4_5/expand/scale
I0102 20:40:04.016952 10922 net.cpp:434] conv4_5/expand/scale <- conv4_5/expand/bn
I0102 20:40:04.016957 10922 net.cpp:395] conv4_5/expand/scale -> conv4_5/expand/bn (in-place)
I0102 20:40:04.016981 10922 layer_factory.hpp:77] Creating layer conv4_5/expand/scale
I0102 20:40:04.017087 10922 net.cpp:150] Setting up conv4_5/expand/scale
I0102 20:40:04.017092 10922 net.cpp:157] Top shape: 2 384 96 96 (7077888)
I0102 20:40:04.017096 10922 net.cpp:165] Memory required for data: 2447735040
I0102 20:40:04.017099 10922 layer_factory.hpp:77] Creating layer relu4_5/expand
I0102 20:40:04.017104 10922 net.cpp:100] Creating Layer relu4_5/expand
I0102 20:40:04.017107 10922 net.cpp:434] relu4_5/expand <- conv4_5/expand/bn
I0102 20:40:04.017110 10922 net.cpp:395] relu4_5/expand -> conv4_5/expand/bn (in-place)
I0102 20:40:04.017487 10922 net.cpp:150] Setting up relu4_5/expand
I0102 20:40:04.017495 10922 net.cpp:157] Top shape: 2 384 96 96 (7077888)
I0102 20:40:04.017498 10922 net.cpp:165] Memory required for data: 2476046592
I0102 20:40:04.017501 10922 layer_factory.hpp:77] Creating layer conv4_5/dwise
I0102 20:40:04.017508 10922 net.cpp:100] Creating Layer conv4_5/dwise
I0102 20:40:04.017510 10922 net.cpp:434] conv4_5/dwise <- conv4_5/expand/bn
I0102 20:40:04.017515 10922 net.cpp:408] conv4_5/dwise -> conv4_5/dwise
I0102 20:40:04.017735 10922 net.cpp:150] Setting up conv4_5/dwise
I0102 20:40:04.017740 10922 net.cpp:157] Top shape: 2 384 96 96 (7077888)
I0102 20:40:04.017742 10922 net.cpp:165] Memory required for data: 2504358144
I0102 20:40:04.017745 10922 layer_factory.hpp:77] Creating layer conv4_5/dwise/bn
I0102 20:40:04.017751 10922 net.cpp:100] Creating Layer conv4_5/dwise/bn
I0102 20:40:04.017755 10922 net.cpp:434] conv4_5/dwise/bn <- conv4_5/dwise
I0102 20:40:04.017758 10922 net.cpp:408] conv4_5/dwise/bn -> conv4_5/dwise/bn
I0102 20:40:04.017907 10922 net.cpp:150] Setting up conv4_5/dwise/bn
I0102 20:40:04.017912 10922 net.cpp:157] Top shape: 2 384 96 96 (7077888)
I0102 20:40:04.017915 10922 net.cpp:165] Memory required for data: 2532669696
I0102 20:40:04.017920 10922 layer_factory.hpp:77] Creating layer conv4_5/dwise/scale
I0102 20:40:04.017925 10922 net.cpp:100] Creating Layer conv4_5/dwise/scale
I0102 20:40:04.017927 10922 net.cpp:434] conv4_5/dwise/scale <- conv4_5/dwise/bn
I0102 20:40:04.017931 10922 net.cpp:395] conv4_5/dwise/scale -> conv4_5/dwise/bn (in-place)
I0102 20:40:04.017957 10922 layer_factory.hpp:77] Creating layer conv4_5/dwise/scale
I0102 20:40:04.018719 10922 net.cpp:150] Setting up conv4_5/dwise/scale
I0102 20:40:04.018728 10922 net.cpp:157] Top shape: 2 384 96 96 (7077888)
I0102 20:40:04.018730 10922 net.cpp:165] Memory required for data: 2560981248
I0102 20:40:04.018735 10922 layer_factory.hpp:77] Creating layer relu4_5/dwise
I0102 20:40:04.018740 10922 net.cpp:100] Creating Layer relu4_5/dwise
I0102 20:40:04.018743 10922 net.cpp:434] relu4_5/dwise <- conv4_5/dwise/bn
I0102 20:40:04.018748 10922 net.cpp:395] relu4_5/dwise -> conv4_5/dwise/bn (in-place)
I0102 20:40:04.018911 10922 net.cpp:150] Setting up relu4_5/dwise
I0102 20:40:04.018919 10922 net.cpp:157] Top shape: 2 384 96 96 (7077888)
I0102 20:40:04.018923 10922 net.cpp:165] Memory required for data: 2589292800
I0102 20:40:04.018926 10922 layer_factory.hpp:77] Creating layer conv4_5/linear
I0102 20:40:04.018934 10922 net.cpp:100] Creating Layer conv4_5/linear
I0102 20:40:04.018937 10922 net.cpp:434] conv4_5/linear <- conv4_5/dwise/bn
I0102 20:40:04.018942 10922 net.cpp:408] conv4_5/linear -> conv4_5/linear
I0102 20:40:04.020498 10922 net.cpp:150] Setting up conv4_5/linear
I0102 20:40:04.020509 10922 net.cpp:157] Top shape: 2 64 96 96 (1179648)
I0102 20:40:04.020512 10922 net.cpp:165] Memory required for data: 2594011392
I0102 20:40:04.020517 10922 layer_factory.hpp:77] Creating layer conv4_5/linear/bn
I0102 20:40:04.020524 10922 net.cpp:100] Creating Layer conv4_5/linear/bn
I0102 20:40:04.020529 10922 net.cpp:434] conv4_5/linear/bn <- conv4_5/linear
I0102 20:40:04.020535 10922 net.cpp:408] conv4_5/linear/bn -> conv4_5/linear/bn
I0102 20:40:04.020717 10922 net.cpp:150] Setting up conv4_5/linear/bn
I0102 20:40:04.020721 10922 net.cpp:157] Top shape: 2 64 96 96 (1179648)
I0102 20:40:04.020725 10922 net.cpp:165] Memory required for data: 2598729984
I0102 20:40:04.020730 10922 layer_factory.hpp:77] Creating layer conv4_5/linear/scale
I0102 20:40:04.020735 10922 net.cpp:100] Creating Layer conv4_5/linear/scale
I0102 20:40:04.020737 10922 net.cpp:434] conv4_5/linear/scale <- conv4_5/linear/bn
I0102 20:40:04.020742 10922 net.cpp:395] conv4_5/linear/scale -> conv4_5/linear/bn (in-place)
I0102 20:40:04.020771 10922 layer_factory.hpp:77] Creating layer conv4_5/linear/scale
I0102 20:40:04.020862 10922 net.cpp:150] Setting up conv4_5/linear/scale
I0102 20:40:04.020867 10922 net.cpp:157] Top shape: 2 64 96 96 (1179648)
I0102 20:40:04.020870 10922 net.cpp:165] Memory required for data: 2603448576
I0102 20:40:04.020874 10922 layer_factory.hpp:77] Creating layer block_4_5
I0102 20:40:04.020879 10922 net.cpp:100] Creating Layer block_4_5
I0102 20:40:04.020882 10922 net.cpp:434] block_4_5 <- block_4_4_block_4_4_0_split_1
I0102 20:40:04.020886 10922 net.cpp:434] block_4_5 <- conv4_5/linear/bn
I0102 20:40:04.020890 10922 net.cpp:408] block_4_5 -> block_4_5
I0102 20:40:04.020910 10922 net.cpp:150] Setting up block_4_5
I0102 20:40:04.020913 10922 net.cpp:157] Top shape: 2 64 96 96 (1179648)
I0102 20:40:04.020916 10922 net.cpp:165] Memory required for data: 2608167168
I0102 20:40:04.020920 10922 layer_factory.hpp:77] Creating layer block_4_5_block_4_5_0_split
I0102 20:40:04.020923 10922 net.cpp:100] Creating Layer block_4_5_block_4_5_0_split
I0102 20:40:04.020926 10922 net.cpp:434] block_4_5_block_4_5_0_split <- block_4_5
I0102 20:40:04.020929 10922 net.cpp:408] block_4_5_block_4_5_0_split -> block_4_5_block_4_5_0_split_0
I0102 20:40:04.020934 10922 net.cpp:408] block_4_5_block_4_5_0_split -> block_4_5_block_4_5_0_split_1
I0102 20:40:04.020959 10922 net.cpp:150] Setting up block_4_5_block_4_5_0_split
I0102 20:40:04.020963 10922 net.cpp:157] Top shape: 2 64 96 96 (1179648)
I0102 20:40:04.020967 10922 net.cpp:157] Top shape: 2 64 96 96 (1179648)
I0102 20:40:04.020969 10922 net.cpp:165] Memory required for data: 2617604352
I0102 20:40:04.020972 10922 layer_factory.hpp:77] Creating layer conv4_6/expand
I0102 20:40:04.020977 10922 net.cpp:100] Creating Layer conv4_6/expand
I0102 20:40:04.020980 10922 net.cpp:434] conv4_6/expand <- block_4_5_block_4_5_0_split_0
I0102 20:40:04.020984 10922 net.cpp:408] conv4_6/expand -> conv4_6/expand
I0102 20:40:04.022284 10922 net.cpp:150] Setting up conv4_6/expand
I0102 20:40:04.022292 10922 net.cpp:157] Top shape: 2 384 96 96 (7077888)
I0102 20:40:04.022295 10922 net.cpp:165] Memory required for data: 2645915904
I0102 20:40:04.022300 10922 layer_factory.hpp:77] Creating layer conv4_6/expand/bn
I0102 20:40:04.022305 10922 net.cpp:100] Creating Layer conv4_6/expand/bn
I0102 20:40:04.022307 10922 net.cpp:434] conv4_6/expand/bn <- conv4_6/expand
I0102 20:40:04.022312 10922 net.cpp:408] conv4_6/expand/bn -> conv4_6/expand/bn
I0102 20:40:04.022467 10922 net.cpp:150] Setting up conv4_6/expand/bn
I0102 20:40:04.022472 10922 net.cpp:157] Top shape: 2 384 96 96 (7077888)
I0102 20:40:04.022475 10922 net.cpp:165] Memory required for data: 2674227456
I0102 20:40:04.022480 10922 layer_factory.hpp:77] Creating layer conv4_6/expand/scale
I0102 20:40:04.022485 10922 net.cpp:100] Creating Layer conv4_6/expand/scale
I0102 20:40:04.022488 10922 net.cpp:434] conv4_6/expand/scale <- conv4_6/expand/bn
I0102 20:40:04.022492 10922 net.cpp:395] conv4_6/expand/scale -> conv4_6/expand/bn (in-place)
I0102 20:40:04.022518 10922 layer_factory.hpp:77] Creating layer conv4_6/expand/scale
I0102 20:40:04.022603 10922 net.cpp:150] Setting up conv4_6/expand/scale
I0102 20:40:04.022608 10922 net.cpp:157] Top shape: 2 384 96 96 (7077888)
I0102 20:40:04.022611 10922 net.cpp:165] Memory required for data: 2702539008
I0102 20:40:04.022615 10922 layer_factory.hpp:77] Creating layer relu4_6/expand
I0102 20:40:04.022620 10922 net.cpp:100] Creating Layer relu4_6/expand
I0102 20:40:04.022624 10922 net.cpp:434] relu4_6/expand <- conv4_6/expand/bn
I0102 20:40:04.022627 10922 net.cpp:395] relu4_6/expand -> conv4_6/expand/bn (in-place)
I0102 20:40:04.022752 10922 net.cpp:150] Setting up relu4_6/expand
I0102 20:40:04.022758 10922 net.cpp:157] Top shape: 2 384 96 96 (7077888)
I0102 20:40:04.022760 10922 net.cpp:165] Memory required for data: 2730850560
I0102 20:40:04.022763 10922 layer_factory.hpp:77] Creating layer conv4_6/dwise
I0102 20:40:04.022769 10922 net.cpp:100] Creating Layer conv4_6/dwise
I0102 20:40:04.022771 10922 net.cpp:434] conv4_6/dwise <- conv4_6/expand/bn
I0102 20:40:04.022775 10922 net.cpp:408] conv4_6/dwise -> conv4_6/dwise
I0102 20:40:04.023023 10922 net.cpp:150] Setting up conv4_6/dwise
I0102 20:40:04.023030 10922 net.cpp:157] Top shape: 2 384 96 96 (7077888)
I0102 20:40:04.023033 10922 net.cpp:165] Memory required for data: 2759162112
I0102 20:40:04.023037 10922 layer_factory.hpp:77] Creating layer conv4_6/dwise/bn
I0102 20:40:04.023043 10922 net.cpp:100] Creating Layer conv4_6/dwise/bn
I0102 20:40:04.023047 10922 net.cpp:434] conv4_6/dwise/bn <- conv4_6/dwise
I0102 20:40:04.023051 10922 net.cpp:408] conv4_6/dwise/bn -> conv4_6/dwise/bn
I0102 20:40:04.023229 10922 net.cpp:150] Setting up conv4_6/dwise/bn
I0102 20:40:04.023236 10922 net.cpp:157] Top shape: 2 384 96 96 (7077888)
I0102 20:40:04.023239 10922 net.cpp:165] Memory required for data: 2787473664
I0102 20:40:04.023245 10922 layer_factory.hpp:77] Creating layer conv4_6/dwise/scale
I0102 20:40:04.023258 10922 net.cpp:100] Creating Layer conv4_6/dwise/scale
I0102 20:40:04.023263 10922 net.cpp:434] conv4_6/dwise/scale <- conv4_6/dwise/bn
I0102 20:40:04.023267 10922 net.cpp:395] conv4_6/dwise/scale -> conv4_6/dwise/bn (in-place)
I0102 20:40:04.023298 10922 layer_factory.hpp:77] Creating layer conv4_6/dwise/scale
I0102 20:40:04.023397 10922 net.cpp:150] Setting up conv4_6/dwise/scale
I0102 20:40:04.023403 10922 net.cpp:157] Top shape: 2 384 96 96 (7077888)
I0102 20:40:04.023406 10922 net.cpp:165] Memory required for data: 2815785216
I0102 20:40:04.023411 10922 layer_factory.hpp:77] Creating layer relu4_6/dwise
I0102 20:40:04.023416 10922 net.cpp:100] Creating Layer relu4_6/dwise
I0102 20:40:04.023419 10922 net.cpp:434] relu4_6/dwise <- conv4_6/dwise/bn
I0102 20:40:04.023424 10922 net.cpp:395] relu4_6/dwise -> conv4_6/dwise/bn (in-place)
I0102 20:40:04.023571 10922 net.cpp:150] Setting up relu4_6/dwise
I0102 20:40:04.023577 10922 net.cpp:157] Top shape: 2 384 96 96 (7077888)
I0102 20:40:04.023581 10922 net.cpp:165] Memory required for data: 2844096768
I0102 20:40:04.023584 10922 layer_factory.hpp:77] Creating layer conv4_6/linear
I0102 20:40:04.023591 10922 net.cpp:100] Creating Layer conv4_6/linear
I0102 20:40:04.023596 10922 net.cpp:434] conv4_6/linear <- conv4_6/dwise/bn
I0102 20:40:04.023599 10922 net.cpp:408] conv4_6/linear -> conv4_6/linear
I0102 20:40:04.025131 10922 net.cpp:150] Setting up conv4_6/linear
I0102 20:40:04.025142 10922 net.cpp:157] Top shape: 2 64 96 96 (1179648)
I0102 20:40:04.025146 10922 net.cpp:165] Memory required for data: 2848815360
I0102 20:40:04.025151 10922 layer_factory.hpp:77] Creating layer conv4_6/linear/bn
I0102 20:40:04.025158 10922 net.cpp:100] Creating Layer conv4_6/linear/bn
I0102 20:40:04.025162 10922 net.cpp:434] conv4_6/linear/bn <- conv4_6/linear
I0102 20:40:04.025168 10922 net.cpp:408] conv4_6/linear/bn -> conv4_6/linear/bn
I0102 20:40:04.025368 10922 net.cpp:150] Setting up conv4_6/linear/bn
I0102 20:40:04.025374 10922 net.cpp:157] Top shape: 2 64 96 96 (1179648)
I0102 20:40:04.025378 10922 net.cpp:165] Memory required for data: 2853533952
I0102 20:40:04.025384 10922 layer_factory.hpp:77] Creating layer conv4_6/linear/scale
I0102 20:40:04.025390 10922 net.cpp:100] Creating Layer conv4_6/linear/scale
I0102 20:40:04.025394 10922 net.cpp:434] conv4_6/linear/scale <- conv4_6/linear/bn
I0102 20:40:04.025399 10922 net.cpp:395] conv4_6/linear/scale -> conv4_6/linear/bn (in-place)
I0102 20:40:04.025437 10922 layer_factory.hpp:77] Creating layer conv4_6/linear/scale
I0102 20:40:04.025544 10922 net.cpp:150] Setting up conv4_6/linear/scale
I0102 20:40:04.025550 10922 net.cpp:157] Top shape: 2 64 96 96 (1179648)
I0102 20:40:04.025553 10922 net.cpp:165] Memory required for data: 2858252544
I0102 20:40:04.025559 10922 layer_factory.hpp:77] Creating layer block_4_6
I0102 20:40:04.025564 10922 net.cpp:100] Creating Layer block_4_6
I0102 20:40:04.025568 10922 net.cpp:434] block_4_6 <- block_4_5_block_4_5_0_split_1
I0102 20:40:04.025573 10922 net.cpp:434] block_4_6 <- conv4_6/linear/bn
I0102 20:40:04.025578 10922 net.cpp:408] block_4_6 -> block_4_6
I0102 20:40:04.025599 10922 net.cpp:150] Setting up block_4_6
I0102 20:40:04.025604 10922 net.cpp:157] Top shape: 2 64 96 96 (1179648)
I0102 20:40:04.025607 10922 net.cpp:165] Memory required for data: 2862971136
I0102 20:40:04.025610 10922 layer_factory.hpp:77] Creating layer block_4_6_block_4_6_0_split
I0102 20:40:04.025615 10922 net.cpp:100] Creating Layer block_4_6_block_4_6_0_split
I0102 20:40:04.025619 10922 net.cpp:434] block_4_6_block_4_6_0_split <- block_4_6
I0102 20:40:04.025624 10922 net.cpp:408] block_4_6_block_4_6_0_split -> block_4_6_block_4_6_0_split_0
I0102 20:40:04.025629 10922 net.cpp:408] block_4_6_block_4_6_0_split -> block_4_6_block_4_6_0_split_1
I0102 20:40:04.025657 10922 net.cpp:150] Setting up block_4_6_block_4_6_0_split
I0102 20:40:04.025661 10922 net.cpp:157] Top shape: 2 64 96 96 (1179648)
I0102 20:40:04.025665 10922 net.cpp:157] Top shape: 2 64 96 96 (1179648)
I0102 20:40:04.025667 10922 net.cpp:165] Memory required for data: 2872408320
I0102 20:40:04.025669 10922 layer_factory.hpp:77] Creating layer conv4_7/expand
I0102 20:40:04.025676 10922 net.cpp:100] Creating Layer conv4_7/expand
I0102 20:40:04.025679 10922 net.cpp:434] conv4_7/expand <- block_4_6_block_4_6_0_split_0
I0102 20:40:04.025683 10922 net.cpp:408] conv4_7/expand -> conv4_7/expand
I0102 20:40:04.027212 10922 net.cpp:150] Setting up conv4_7/expand
I0102 20:40:04.027225 10922 net.cpp:157] Top shape: 2 384 96 96 (7077888)
I0102 20:40:04.027228 10922 net.cpp:165] Memory required for data: 2900719872
I0102 20:40:04.027233 10922 layer_factory.hpp:77] Creating layer conv4_7/expand/bn
I0102 20:40:04.027240 10922 net.cpp:100] Creating Layer conv4_7/expand/bn
I0102 20:40:04.027243 10922 net.cpp:434] conv4_7/expand/bn <- conv4_7/expand
I0102 20:40:04.027251 10922 net.cpp:408] conv4_7/expand/bn -> conv4_7/expand/bn
I0102 20:40:04.027441 10922 net.cpp:150] Setting up conv4_7/expand/bn
I0102 20:40:04.027446 10922 net.cpp:157] Top shape: 2 384 96 96 (7077888)
I0102 20:40:04.027449 10922 net.cpp:165] Memory required for data: 2929031424
I0102 20:40:04.027456 10922 layer_factory.hpp:77] Creating layer conv4_7/expand/scale
I0102 20:40:04.027463 10922 net.cpp:100] Creating Layer conv4_7/expand/scale
I0102 20:40:04.027467 10922 net.cpp:434] conv4_7/expand/scale <- conv4_7/expand/bn
I0102 20:40:04.027472 10922 net.cpp:395] conv4_7/expand/scale -> conv4_7/expand/bn (in-place)
I0102 20:40:04.027503 10922 layer_factory.hpp:77] Creating layer conv4_7/expand/scale
I0102 20:40:04.027952 10922 net.cpp:150] Setting up conv4_7/expand/scale
I0102 20:40:04.028017 10922 net.cpp:157] Top shape: 2 384 96 96 (7077888)
I0102 20:40:04.028028 10922 net.cpp:165] Memory required for data: 2957342976
I0102 20:40:04.028048 10922 layer_factory.hpp:77] Creating layer relu4_7/expand
I0102 20:40:04.028069 10922 net.cpp:100] Creating Layer relu4_7/expand
I0102 20:40:04.028082 10922 net.cpp:434] relu4_7/expand <- conv4_7/expand/bn
I0102 20:40:04.028103 10922 net.cpp:395] relu4_7/expand -> conv4_7/expand/bn (in-place)
I0102 20:40:04.028457 10922 net.cpp:150] Setting up relu4_7/expand
I0102 20:40:04.028465 10922 net.cpp:157] Top shape: 2 384 96 96 (7077888)
I0102 20:40:04.028468 10922 net.cpp:165] Memory required for data: 2985654528
I0102 20:40:04.028471 10922 layer_factory.hpp:77] Creating layer loss1_conv1
I0102 20:40:04.028483 10922 net.cpp:100] Creating Layer loss1_conv1
I0102 20:40:04.028488 10922 net.cpp:434] loss1_conv1 <- block_4_6_block_4_6_0_split_1
I0102 20:40:04.028496 10922 net.cpp:408] loss1_conv1 -> loss1_conv1
I0102 20:40:04.031879 10922 net.cpp:150] Setting up loss1_conv1
I0102 20:40:04.031899 10922 net.cpp:157] Top shape: 2 64 96 96 (1179648)
I0102 20:40:04.031903 10922 net.cpp:165] Memory required for data: 2990373120
I0102 20:40:04.031913 10922 layer_factory.hpp:77] Creating layer loss_relu1
I0102 20:40:04.031922 10922 net.cpp:100] Creating Layer loss_relu1
I0102 20:40:04.031929 10922 net.cpp:434] loss_relu1 <- loss1_conv1
I0102 20:40:04.031936 10922 net.cpp:395] loss_relu1 -> loss1_conv1 (in-place)
I0102 20:40:04.032402 10922 net.cpp:150] Setting up loss_relu1
I0102 20:40:04.032413 10922 net.cpp:157] Top shape: 2 64 96 96 (1179648)
I0102 20:40:04.032415 10922 net.cpp:165] Memory required for data: 2995091712
I0102 20:40:04.032419 10922 layer_factory.hpp:77] Creating layer loss1_conv1_loss_relu1_0_split
I0102 20:40:04.032425 10922 net.cpp:100] Creating Layer loss1_conv1_loss_relu1_0_split
I0102 20:40:04.032428 10922 net.cpp:434] loss1_conv1_loss_relu1_0_split <- loss1_conv1
I0102 20:40:04.032434 10922 net.cpp:408] loss1_conv1_loss_relu1_0_split -> loss1_conv1_loss_relu1_0_split_0
I0102 20:40:04.032440 10922 net.cpp:408] loss1_conv1_loss_relu1_0_split -> loss1_conv1_loss_relu1_0_split_1
I0102 20:40:04.032475 10922 net.cpp:150] Setting up loss1_conv1_loss_relu1_0_split
I0102 20:40:04.032491 10922 net.cpp:157] Top shape: 2 64 96 96 (1179648)
I0102 20:40:04.032495 10922 net.cpp:157] Top shape: 2 64 96 96 (1179648)
I0102 20:40:04.032498 10922 net.cpp:165] Memory required for data: 3004528896
I0102 20:40:04.032501 10922 layer_factory.hpp:77] Creating layer LFCN_1_5x5
I0102 20:40:04.032510 10922 net.cpp:100] Creating Layer LFCN_1_5x5
I0102 20:40:04.032515 10922 net.cpp:434] LFCN_1_5x5 <- loss1_conv1_loss_relu1_0_split_0
I0102 20:40:04.032521 10922 net.cpp:408] LFCN_1_5x5 -> LFCN_1_5x5
I0102 20:40:04.033615 10922 net.cpp:150] Setting up LFCN_1_5x5
I0102 20:40:04.033624 10922 net.cpp:157] Top shape: 2 9 96 96 (165888)
I0102 20:40:04.033627 10922 net.cpp:165] Memory required for data: 3005192448
I0102 20:40:04.033633 10922 layer_factory.hpp:77] Creating layer LFCN_1_5x5_LFCN_1_5x5_0_split
I0102 20:40:04.033638 10922 net.cpp:100] Creating Layer LFCN_1_5x5_LFCN_1_5x5_0_split
I0102 20:40:04.033641 10922 net.cpp:434] LFCN_1_5x5_LFCN_1_5x5_0_split <- LFCN_1_5x5
I0102 20:40:04.033646 10922 net.cpp:408] LFCN_1_5x5_LFCN_1_5x5_0_split -> LFCN_1_5x5_LFCN_1_5x5_0_split_0
I0102 20:40:04.033653 10922 net.cpp:408] LFCN_1_5x5_LFCN_1_5x5_0_split -> LFCN_1_5x5_LFCN_1_5x5_0_split_1
I0102 20:40:04.033691 10922 net.cpp:150] Setting up LFCN_1_5x5_LFCN_1_5x5_0_split
I0102 20:40:04.033696 10922 net.cpp:157] Top shape: 2 9 96 96 (165888)
I0102 20:40:04.033700 10922 net.cpp:157] Top shape: 2 9 96 96 (165888)
I0102 20:40:04.033704 10922 net.cpp:165] Memory required for data: 3006519552
I0102 20:40:04.033706 10922 layer_factory.hpp:77] Creating layer detection_loss_1_5x5
I0102 20:40:04.033715 10922 net.cpp:100] Creating Layer detection_loss_1_5x5
I0102 20:40:04.033718 10922 net.cpp:434] detection_loss_1_5x5 <- LFCN_1_5x5_LFCN_1_5x5_0_split_0
I0102 20:40:04.033723 10922 net.cpp:434] detection_loss_1_5x5 <- label_1_5x5_data_1_split_0
I0102 20:40:04.033728 10922 net.cpp:408] detection_loss_1_5x5 -> loss_1_5x5
I0102 20:40:04.033779 10922 layer_factory.hpp:77] Creating layer detection_loss_1_5x5
I0102 20:40:04.034453 10922 net.cpp:150] Setting up detection_loss_1_5x5
I0102 20:40:04.034464 10922 net.cpp:157] Top shape: 1 1 1 2 (2)
I0102 20:40:04.034467 10922 net.cpp:160]     with loss weight 0.9
I0102 20:40:04.034487 10922 net.cpp:165] Memory required for data: 3006519560
I0102 20:40:04.034492 10922 layer_factory.hpp:77] Creating layer detection_accuracy_1_5x5
I0102 20:40:04.034497 10922 net.cpp:100] Creating Layer detection_accuracy_1_5x5
I0102 20:40:04.034502 10922 net.cpp:434] detection_accuracy_1_5x5 <- LFCN_1_5x5_LFCN_1_5x5_0_split_1
I0102 20:40:04.034507 10922 net.cpp:434] detection_accuracy_1_5x5 <- label_1_5x5_data_1_split_1
I0102 20:40:04.034512 10922 net.cpp:408] detection_accuracy_1_5x5 -> accuracy_1_5x5
I0102 20:40:04.034520 10922 net.cpp:408] detection_accuracy_1_5x5 -> boxiou_1_5x5
I0102 20:40:04.034556 10922 net.cpp:150] Setting up detection_accuracy_1_5x5
I0102 20:40:04.034561 10922 net.cpp:157] Top shape: 1 1 1 2 (2)
I0102 20:40:04.034565 10922 net.cpp:157] Top shape: 1 1 1 1 (1)
I0102 20:40:04.034569 10922 net.cpp:165] Memory required for data: 3006519572
I0102 20:40:04.034571 10922 layer_factory.hpp:77] Creating layer LFCN_1_7x7
I0102 20:40:04.034579 10922 net.cpp:100] Creating Layer LFCN_1_7x7
I0102 20:40:04.034584 10922 net.cpp:434] LFCN_1_7x7 <- loss1_conv1_loss_relu1_0_split_1
I0102 20:40:04.034590 10922 net.cpp:408] LFCN_1_7x7 -> LFCN_1_7x7
I0102 20:40:04.036299 10922 net.cpp:150] Setting up LFCN_1_7x7
I0102 20:40:04.036314 10922 net.cpp:157] Top shape: 2 9 96 96 (165888)
I0102 20:40:04.036316 10922 net.cpp:165] Memory required for data: 3007183124
I0102 20:40:04.036325 10922 layer_factory.hpp:77] Creating layer LFCN_1_7x7_LFCN_1_7x7_0_split
I0102 20:40:04.036337 10922 net.cpp:100] Creating Layer LFCN_1_7x7_LFCN_1_7x7_0_split
I0102 20:40:04.036341 10922 net.cpp:434] LFCN_1_7x7_LFCN_1_7x7_0_split <- LFCN_1_7x7
I0102 20:40:04.036346 10922 net.cpp:408] LFCN_1_7x7_LFCN_1_7x7_0_split -> LFCN_1_7x7_LFCN_1_7x7_0_split_0
I0102 20:40:04.036353 10922 net.cpp:408] LFCN_1_7x7_LFCN_1_7x7_0_split -> LFCN_1_7x7_LFCN_1_7x7_0_split_1
I0102 20:40:04.036387 10922 net.cpp:150] Setting up LFCN_1_7x7_LFCN_1_7x7_0_split
I0102 20:40:04.036392 10922 net.cpp:157] Top shape: 2 9 96 96 (165888)
I0102 20:40:04.036396 10922 net.cpp:157] Top shape: 2 9 96 96 (165888)
I0102 20:40:04.036398 10922 net.cpp:165] Memory required for data: 3008510228
I0102 20:40:04.036402 10922 layer_factory.hpp:77] Creating layer detection_loss_1_7x7
I0102 20:40:04.036413 10922 net.cpp:100] Creating Layer detection_loss_1_7x7
I0102 20:40:04.036419 10922 net.cpp:434] detection_loss_1_7x7 <- LFCN_1_7x7_LFCN_1_7x7_0_split_0
I0102 20:40:04.036425 10922 net.cpp:434] detection_loss_1_7x7 <- label_1_7x7_data_2_split_0
I0102 20:40:04.036432 10922 net.cpp:408] detection_loss_1_7x7 -> loss_1_7x7
I0102 20:40:04.036438 10922 layer_factory.hpp:77] Creating layer detection_loss_1_7x7
I0102 20:40:04.036823 10922 net.cpp:150] Setting up detection_loss_1_7x7
I0102 20:40:04.036830 10922 net.cpp:157] Top shape: 1 1 1 2 (2)
I0102 20:40:04.036834 10922 net.cpp:160]     with loss weight 0.9
I0102 20:40:04.036841 10922 net.cpp:165] Memory required for data: 3008510236
I0102 20:40:04.036845 10922 layer_factory.hpp:77] Creating layer detection_accuracy_1_7x7
I0102 20:40:04.036850 10922 net.cpp:100] Creating Layer detection_accuracy_1_7x7
I0102 20:40:04.036854 10922 net.cpp:434] detection_accuracy_1_7x7 <- LFCN_1_7x7_LFCN_1_7x7_0_split_1
I0102 20:40:04.036859 10922 net.cpp:434] detection_accuracy_1_7x7 <- label_1_7x7_data_2_split_1
I0102 20:40:04.036864 10922 net.cpp:408] detection_accuracy_1_7x7 -> accuracy_1_7x7
I0102 20:40:04.036872 10922 net.cpp:408] detection_accuracy_1_7x7 -> boxiou_1_7x7
I0102 20:40:04.036924 10922 net.cpp:150] Setting up detection_accuracy_1_7x7
I0102 20:40:04.036932 10922 net.cpp:157] Top shape: 1 1 1 2 (2)
I0102 20:40:04.036936 10922 net.cpp:157] Top shape: 1 1 1 1 (1)
I0102 20:40:04.036939 10922 net.cpp:165] Memory required for data: 3008510248
I0102 20:40:04.036942 10922 layer_factory.hpp:77] Creating layer conv4_7/dwise
I0102 20:40:04.036949 10922 net.cpp:100] Creating Layer conv4_7/dwise
I0102 20:40:04.036954 10922 net.cpp:434] conv4_7/dwise <- conv4_7/expand/bn
I0102 20:40:04.036960 10922 net.cpp:408] conv4_7/dwise -> conv4_7/dwise
I0102 20:40:04.037221 10922 net.cpp:150] Setting up conv4_7/dwise
I0102 20:40:04.037227 10922 net.cpp:157] Top shape: 2 384 48 48 (1769472)
I0102 20:40:04.037230 10922 net.cpp:165] Memory required for data: 3015588136
I0102 20:40:04.037235 10922 layer_factory.hpp:77] Creating layer conv4_7/dwise/bn
I0102 20:40:04.037243 10922 net.cpp:100] Creating Layer conv4_7/dwise/bn
I0102 20:40:04.037248 10922 net.cpp:434] conv4_7/dwise/bn <- conv4_7/dwise
I0102 20:40:04.037256 10922 net.cpp:408] conv4_7/dwise/bn -> conv4_7/dwise/bn
I0102 20:40:04.037441 10922 net.cpp:150] Setting up conv4_7/dwise/bn
I0102 20:40:04.037446 10922 net.cpp:157] Top shape: 2 384 48 48 (1769472)
I0102 20:40:04.037451 10922 net.cpp:165] Memory required for data: 3022666024
I0102 20:40:04.037456 10922 layer_factory.hpp:77] Creating layer conv4_7/dwise/scale
I0102 20:40:04.037462 10922 net.cpp:100] Creating Layer conv4_7/dwise/scale
I0102 20:40:04.037467 10922 net.cpp:434] conv4_7/dwise/scale <- conv4_7/dwise/bn
I0102 20:40:04.037472 10922 net.cpp:395] conv4_7/dwise/scale -> conv4_7/dwise/bn (in-place)
I0102 20:40:04.037503 10922 layer_factory.hpp:77] Creating layer conv4_7/dwise/scale
I0102 20:40:04.037600 10922 net.cpp:150] Setting up conv4_7/dwise/scale
I0102 20:40:04.037605 10922 net.cpp:157] Top shape: 2 384 48 48 (1769472)
I0102 20:40:04.037607 10922 net.cpp:165] Memory required for data: 3029743912
I0102 20:40:04.037612 10922 layer_factory.hpp:77] Creating layer relu4_7/dwise
I0102 20:40:04.037618 10922 net.cpp:100] Creating Layer relu4_7/dwise
I0102 20:40:04.037622 10922 net.cpp:434] relu4_7/dwise <- conv4_7/dwise/bn
I0102 20:40:04.037626 10922 net.cpp:395] relu4_7/dwise -> conv4_7/dwise/bn (in-place)
I0102 20:40:04.037781 10922 net.cpp:150] Setting up relu4_7/dwise
I0102 20:40:04.037787 10922 net.cpp:157] Top shape: 2 384 48 48 (1769472)
I0102 20:40:04.037791 10922 net.cpp:165] Memory required for data: 3036821800
I0102 20:40:04.037793 10922 layer_factory.hpp:77] Creating layer conv4_7/linear
I0102 20:40:04.037801 10922 net.cpp:100] Creating Layer conv4_7/linear
I0102 20:40:04.037804 10922 net.cpp:434] conv4_7/linear <- conv4_7/dwise/bn
I0102 20:40:04.037811 10922 net.cpp:408] conv4_7/linear -> conv4_7/linear
I0102 20:40:04.039829 10922 net.cpp:150] Setting up conv4_7/linear
I0102 20:40:04.039842 10922 net.cpp:157] Top shape: 2 96 48 48 (442368)
I0102 20:40:04.039845 10922 net.cpp:165] Memory required for data: 3038591272
I0102 20:40:04.039850 10922 layer_factory.hpp:77] Creating layer conv4_7/linear/bn
I0102 20:40:04.039858 10922 net.cpp:100] Creating Layer conv4_7/linear/bn
I0102 20:40:04.039862 10922 net.cpp:434] conv4_7/linear/bn <- conv4_7/linear
I0102 20:40:04.039868 10922 net.cpp:408] conv4_7/linear/bn -> conv4_7/linear/bn
I0102 20:40:04.040074 10922 net.cpp:150] Setting up conv4_7/linear/bn
I0102 20:40:04.040079 10922 net.cpp:157] Top shape: 2 96 48 48 (442368)
I0102 20:40:04.040082 10922 net.cpp:165] Memory required for data: 3040360744
I0102 20:40:04.040089 10922 layer_factory.hpp:77] Creating layer conv4_7/linear/scale
I0102 20:40:04.040096 10922 net.cpp:100] Creating Layer conv4_7/linear/scale
I0102 20:40:04.040098 10922 net.cpp:434] conv4_7/linear/scale <- conv4_7/linear/bn
I0102 20:40:04.040102 10922 net.cpp:395] conv4_7/linear/scale -> conv4_7/linear/bn (in-place)
I0102 20:40:04.040139 10922 layer_factory.hpp:77] Creating layer conv4_7/linear/scale
I0102 20:40:04.040238 10922 net.cpp:150] Setting up conv4_7/linear/scale
I0102 20:40:04.040244 10922 net.cpp:157] Top shape: 2 96 48 48 (442368)
I0102 20:40:04.040247 10922 net.cpp:165] Memory required for data: 3042130216
I0102 20:40:04.040252 10922 layer_factory.hpp:77] Creating layer conv4_7/linear/bn_conv4_7/linear/scale_0_split
I0102 20:40:04.040258 10922 net.cpp:100] Creating Layer conv4_7/linear/bn_conv4_7/linear/scale_0_split
I0102 20:40:04.040261 10922 net.cpp:434] conv4_7/linear/bn_conv4_7/linear/scale_0_split <- conv4_7/linear/bn
I0102 20:40:04.040266 10922 net.cpp:408] conv4_7/linear/bn_conv4_7/linear/scale_0_split -> conv4_7/linear/bn_conv4_7/linear/scale_0_split_0
I0102 20:40:04.040271 10922 net.cpp:408] conv4_7/linear/bn_conv4_7/linear/scale_0_split -> conv4_7/linear/bn_conv4_7/linear/scale_0_split_1
I0102 20:40:04.040302 10922 net.cpp:150] Setting up conv4_7/linear/bn_conv4_7/linear/scale_0_split
I0102 20:40:04.040307 10922 net.cpp:157] Top shape: 2 96 48 48 (442368)
I0102 20:40:04.040311 10922 net.cpp:157] Top shape: 2 96 48 48 (442368)
I0102 20:40:04.040314 10922 net.cpp:165] Memory required for data: 3045669160
I0102 20:40:04.040318 10922 layer_factory.hpp:77] Creating layer conv5_1/expand
I0102 20:40:04.040325 10922 net.cpp:100] Creating Layer conv5_1/expand
I0102 20:40:04.040328 10922 net.cpp:434] conv5_1/expand <- conv4_7/linear/bn_conv4_7/linear/scale_0_split_0
I0102 20:40:04.040333 10922 net.cpp:408] conv5_1/expand -> conv5_1/expand
I0102 20:40:04.042621 10922 net.cpp:150] Setting up conv5_1/expand
I0102 20:40:04.042630 10922 net.cpp:157] Top shape: 2 576 48 48 (2654208)
I0102 20:40:04.042632 10922 net.cpp:165] Memory required for data: 3056285992
I0102 20:40:04.042637 10922 layer_factory.hpp:77] Creating layer conv5_1/expand/bn
I0102 20:40:04.042644 10922 net.cpp:100] Creating Layer conv5_1/expand/bn
I0102 20:40:04.042646 10922 net.cpp:434] conv5_1/expand/bn <- conv5_1/expand
I0102 20:40:04.042651 10922 net.cpp:408] conv5_1/expand/bn -> conv5_1/expand/bn
I0102 20:40:04.042850 10922 net.cpp:150] Setting up conv5_1/expand/bn
I0102 20:40:04.042857 10922 net.cpp:157] Top shape: 2 576 48 48 (2654208)
I0102 20:40:04.042860 10922 net.cpp:165] Memory required for data: 3066902824
I0102 20:40:04.042865 10922 layer_factory.hpp:77] Creating layer conv5_1/expand/scale
I0102 20:40:04.042871 10922 net.cpp:100] Creating Layer conv5_1/expand/scale
I0102 20:40:04.042874 10922 net.cpp:434] conv5_1/expand/scale <- conv5_1/expand/bn
I0102 20:40:04.042878 10922 net.cpp:395] conv5_1/expand/scale -> conv5_1/expand/bn (in-place)
I0102 20:40:04.042915 10922 layer_factory.hpp:77] Creating layer conv5_1/expand/scale
I0102 20:40:04.043015 10922 net.cpp:150] Setting up conv5_1/expand/scale
I0102 20:40:04.043020 10922 net.cpp:157] Top shape: 2 576 48 48 (2654208)
I0102 20:40:04.043023 10922 net.cpp:165] Memory required for data: 3077519656
I0102 20:40:04.043028 10922 layer_factory.hpp:77] Creating layer relu5_1/expand
I0102 20:40:04.043033 10922 net.cpp:100] Creating Layer relu5_1/expand
I0102 20:40:04.043037 10922 net.cpp:434] relu5_1/expand <- conv5_1/expand/bn
I0102 20:40:04.043042 10922 net.cpp:395] relu5_1/expand -> conv5_1/expand/bn (in-place)
I0102 20:40:04.043195 10922 net.cpp:150] Setting up relu5_1/expand
I0102 20:40:04.043201 10922 net.cpp:157] Top shape: 2 576 48 48 (2654208)
I0102 20:40:04.043205 10922 net.cpp:165] Memory required for data: 3088136488
I0102 20:40:04.043207 10922 layer_factory.hpp:77] Creating layer conv5_1/dwise
I0102 20:40:04.043215 10922 net.cpp:100] Creating Layer conv5_1/dwise
I0102 20:40:04.043220 10922 net.cpp:434] conv5_1/dwise <- conv5_1/expand/bn
I0102 20:40:04.043224 10922 net.cpp:408] conv5_1/dwise -> conv5_1/dwise
I0102 20:40:04.043531 10922 net.cpp:150] Setting up conv5_1/dwise
I0102 20:40:04.043537 10922 net.cpp:157] Top shape: 2 576 48 48 (2654208)
I0102 20:40:04.043540 10922 net.cpp:165] Memory required for data: 3098753320
I0102 20:40:04.043545 10922 layer_factory.hpp:77] Creating layer conv5_1/dwise/bn
I0102 20:40:04.043555 10922 net.cpp:100] Creating Layer conv5_1/dwise/bn
I0102 20:40:04.043560 10922 net.cpp:434] conv5_1/dwise/bn <- conv5_1/dwise
I0102 20:40:04.043565 10922 net.cpp:408] conv5_1/dwise/bn -> conv5_1/dwise/bn
I0102 20:40:04.043756 10922 net.cpp:150] Setting up conv5_1/dwise/bn
I0102 20:40:04.043761 10922 net.cpp:157] Top shape: 2 576 48 48 (2654208)
I0102 20:40:04.043764 10922 net.cpp:165] Memory required for data: 3109370152
I0102 20:40:04.043771 10922 layer_factory.hpp:77] Creating layer conv5_1/dwise/scale
I0102 20:40:04.043776 10922 net.cpp:100] Creating Layer conv5_1/dwise/scale
I0102 20:40:04.043781 10922 net.cpp:434] conv5_1/dwise/scale <- conv5_1/dwise/bn
I0102 20:40:04.043786 10922 net.cpp:395] conv5_1/dwise/scale -> conv5_1/dwise/bn (in-place)
I0102 20:40:04.043823 10922 layer_factory.hpp:77] Creating layer conv5_1/dwise/scale
I0102 20:40:04.043927 10922 net.cpp:150] Setting up conv5_1/dwise/scale
I0102 20:40:04.043933 10922 net.cpp:157] Top shape: 2 576 48 48 (2654208)
I0102 20:40:04.043936 10922 net.cpp:165] Memory required for data: 3119986984
I0102 20:40:04.043942 10922 layer_factory.hpp:77] Creating layer relu5_1/dwise
I0102 20:40:04.043947 10922 net.cpp:100] Creating Layer relu5_1/dwise
I0102 20:40:04.043951 10922 net.cpp:434] relu5_1/dwise <- conv5_1/dwise/bn
I0102 20:40:04.043956 10922 net.cpp:395] relu5_1/dwise -> conv5_1/dwise/bn (in-place)
I0102 20:40:04.044404 10922 net.cpp:150] Setting up relu5_1/dwise
I0102 20:40:04.044414 10922 net.cpp:157] Top shape: 2 576 48 48 (2654208)
I0102 20:40:04.044417 10922 net.cpp:165] Memory required for data: 3130603816
I0102 20:40:04.044420 10922 layer_factory.hpp:77] Creating layer conv5_1/linear
I0102 20:40:04.044430 10922 net.cpp:100] Creating Layer conv5_1/linear
I0102 20:40:04.044433 10922 net.cpp:434] conv5_1/linear <- conv5_1/dwise/bn
I0102 20:40:04.044440 10922 net.cpp:408] conv5_1/linear -> conv5_1/linear
I0102 20:40:04.046195 10922 net.cpp:150] Setting up conv5_1/linear
I0102 20:40:04.046202 10922 net.cpp:157] Top shape: 2 96 48 48 (442368)
I0102 20:40:04.046205 10922 net.cpp:165] Memory required for data: 3132373288
I0102 20:40:04.046208 10922 layer_factory.hpp:77] Creating layer conv5_1/linear/bn
I0102 20:40:04.046214 10922 net.cpp:100] Creating Layer conv5_1/linear/bn
I0102 20:40:04.046217 10922 net.cpp:434] conv5_1/linear/bn <- conv5_1/linear
I0102 20:40:04.046221 10922 net.cpp:408] conv5_1/linear/bn -> conv5_1/linear/bn
I0102 20:40:04.046387 10922 net.cpp:150] Setting up conv5_1/linear/bn
I0102 20:40:04.046392 10922 net.cpp:157] Top shape: 2 96 48 48 (442368)
I0102 20:40:04.046394 10922 net.cpp:165] Memory required for data: 3134142760
I0102 20:40:04.046401 10922 layer_factory.hpp:77] Creating layer conv5_1/linear/scale
I0102 20:40:04.046406 10922 net.cpp:100] Creating Layer conv5_1/linear/scale
I0102 20:40:04.046408 10922 net.cpp:434] conv5_1/linear/scale <- conv5_1/linear/bn
I0102 20:40:04.046412 10922 net.cpp:395] conv5_1/linear/scale -> conv5_1/linear/bn (in-place)
I0102 20:40:04.046442 10922 layer_factory.hpp:77] Creating layer conv5_1/linear/scale
I0102 20:40:04.046528 10922 net.cpp:150] Setting up conv5_1/linear/scale
I0102 20:40:04.046533 10922 net.cpp:157] Top shape: 2 96 48 48 (442368)
I0102 20:40:04.046536 10922 net.cpp:165] Memory required for data: 3135912232
I0102 20:40:04.046540 10922 layer_factory.hpp:77] Creating layer block_5_1
I0102 20:40:04.046546 10922 net.cpp:100] Creating Layer block_5_1
I0102 20:40:04.046550 10922 net.cpp:434] block_5_1 <- conv4_7/linear/bn_conv4_7/linear/scale_0_split_1
I0102 20:40:04.046553 10922 net.cpp:434] block_5_1 <- conv5_1/linear/bn
I0102 20:40:04.046557 10922 net.cpp:408] block_5_1 -> block_5_1
I0102 20:40:04.046576 10922 net.cpp:150] Setting up block_5_1
I0102 20:40:04.046581 10922 net.cpp:157] Top shape: 2 96 48 48 (442368)
I0102 20:40:04.046582 10922 net.cpp:165] Memory required for data: 3137681704
I0102 20:40:04.046586 10922 layer_factory.hpp:77] Creating layer block_5_1_block_5_1_0_split
I0102 20:40:04.046591 10922 net.cpp:100] Creating Layer block_5_1_block_5_1_0_split
I0102 20:40:04.046593 10922 net.cpp:434] block_5_1_block_5_1_0_split <- block_5_1
I0102 20:40:04.046597 10922 net.cpp:408] block_5_1_block_5_1_0_split -> block_5_1_block_5_1_0_split_0
I0102 20:40:04.046602 10922 net.cpp:408] block_5_1_block_5_1_0_split -> block_5_1_block_5_1_0_split_1
I0102 20:40:04.046628 10922 net.cpp:150] Setting up block_5_1_block_5_1_0_split
I0102 20:40:04.046633 10922 net.cpp:157] Top shape: 2 96 48 48 (442368)
I0102 20:40:04.046635 10922 net.cpp:157] Top shape: 2 96 48 48 (442368)
I0102 20:40:04.046638 10922 net.cpp:165] Memory required for data: 3141220648
I0102 20:40:04.046640 10922 layer_factory.hpp:77] Creating layer conv5_2/expand
I0102 20:40:04.046648 10922 net.cpp:100] Creating Layer conv5_2/expand
I0102 20:40:04.046650 10922 net.cpp:434] conv5_2/expand <- block_5_1_block_5_1_0_split_0
I0102 20:40:04.046654 10922 net.cpp:408] conv5_2/expand -> conv5_2/expand
I0102 20:40:04.049144 10922 net.cpp:150] Setting up conv5_2/expand
I0102 20:40:04.049152 10922 net.cpp:157] Top shape: 2 576 48 48 (2654208)
I0102 20:40:04.049156 10922 net.cpp:165] Memory required for data: 3151837480
I0102 20:40:04.049161 10922 layer_factory.hpp:77] Creating layer conv5_2/expand/bn
I0102 20:40:04.049166 10922 net.cpp:100] Creating Layer conv5_2/expand/bn
I0102 20:40:04.049170 10922 net.cpp:434] conv5_2/expand/bn <- conv5_2/expand
I0102 20:40:04.049175 10922 net.cpp:408] conv5_2/expand/bn -> conv5_2/expand/bn
I0102 20:40:04.049343 10922 net.cpp:150] Setting up conv5_2/expand/bn
I0102 20:40:04.049347 10922 net.cpp:157] Top shape: 2 576 48 48 (2654208)
I0102 20:40:04.049350 10922 net.cpp:165] Memory required for data: 3162454312
I0102 20:40:04.049355 10922 layer_factory.hpp:77] Creating layer conv5_2/expand/scale
I0102 20:40:04.049360 10922 net.cpp:100] Creating Layer conv5_2/expand/scale
I0102 20:40:04.049363 10922 net.cpp:434] conv5_2/expand/scale <- conv5_2/expand/bn
I0102 20:40:04.049368 10922 net.cpp:395] conv5_2/expand/scale -> conv5_2/expand/bn (in-place)
I0102 20:40:04.049399 10922 layer_factory.hpp:77] Creating layer conv5_2/expand/scale
I0102 20:40:04.049487 10922 net.cpp:150] Setting up conv5_2/expand/scale
I0102 20:40:04.049492 10922 net.cpp:157] Top shape: 2 576 48 48 (2654208)
I0102 20:40:04.049494 10922 net.cpp:165] Memory required for data: 3173071144
I0102 20:40:04.049499 10922 layer_factory.hpp:77] Creating layer relu5_2/expand
I0102 20:40:04.049504 10922 net.cpp:100] Creating Layer relu5_2/expand
I0102 20:40:04.049506 10922 net.cpp:434] relu5_2/expand <- conv5_2/expand/bn
I0102 20:40:04.049510 10922 net.cpp:395] relu5_2/expand -> conv5_2/expand/bn (in-place)
I0102 20:40:04.049886 10922 net.cpp:150] Setting up relu5_2/expand
I0102 20:40:04.049895 10922 net.cpp:157] Top shape: 2 576 48 48 (2654208)
I0102 20:40:04.049897 10922 net.cpp:165] Memory required for data: 3183687976
I0102 20:40:04.049901 10922 layer_factory.hpp:77] Creating layer conv5_2/dwise
I0102 20:40:04.049907 10922 net.cpp:100] Creating Layer conv5_2/dwise
I0102 20:40:04.049911 10922 net.cpp:434] conv5_2/dwise <- conv5_2/expand/bn
I0102 20:40:04.049916 10922 net.cpp:408] conv5_2/dwise -> conv5_2/dwise
I0102 20:40:04.050180 10922 net.cpp:150] Setting up conv5_2/dwise
I0102 20:40:04.050185 10922 net.cpp:157] Top shape: 2 576 48 48 (2654208)
I0102 20:40:04.050189 10922 net.cpp:165] Memory required for data: 3194304808
I0102 20:40:04.050192 10922 layer_factory.hpp:77] Creating layer conv5_2/dwise/bn
I0102 20:40:04.050197 10922 net.cpp:100] Creating Layer conv5_2/dwise/bn
I0102 20:40:04.050200 10922 net.cpp:434] conv5_2/dwise/bn <- conv5_2/dwise
I0102 20:40:04.050204 10922 net.cpp:408] conv5_2/dwise/bn -> conv5_2/dwise/bn
I0102 20:40:04.050367 10922 net.cpp:150] Setting up conv5_2/dwise/bn
I0102 20:40:04.050372 10922 net.cpp:157] Top shape: 2 576 48 48 (2654208)
I0102 20:40:04.050375 10922 net.cpp:165] Memory required for data: 3204921640
I0102 20:40:04.050380 10922 layer_factory.hpp:77] Creating layer conv5_2/dwise/scale
I0102 20:40:04.050385 10922 net.cpp:100] Creating Layer conv5_2/dwise/scale
I0102 20:40:04.050388 10922 net.cpp:434] conv5_2/dwise/scale <- conv5_2/dwise/bn
I0102 20:40:04.050392 10922 net.cpp:395] conv5_2/dwise/scale -> conv5_2/dwise/bn (in-place)
I0102 20:40:04.050423 10922 layer_factory.hpp:77] Creating layer conv5_2/dwise/scale
I0102 20:40:04.050508 10922 net.cpp:150] Setting up conv5_2/dwise/scale
I0102 20:40:04.050513 10922 net.cpp:157] Top shape: 2 576 48 48 (2654208)
I0102 20:40:04.050515 10922 net.cpp:165] Memory required for data: 3215538472
I0102 20:40:04.050519 10922 layer_factory.hpp:77] Creating layer relu5_2/dwise
I0102 20:40:04.050524 10922 net.cpp:100] Creating Layer relu5_2/dwise
I0102 20:40:04.050527 10922 net.cpp:434] relu5_2/dwise <- conv5_2/dwise/bn
I0102 20:40:04.050530 10922 net.cpp:395] relu5_2/dwise -> conv5_2/dwise/bn (in-place)
I0102 20:40:04.050676 10922 net.cpp:150] Setting up relu5_2/dwise
I0102 20:40:04.050683 10922 net.cpp:157] Top shape: 2 576 48 48 (2654208)
I0102 20:40:04.050684 10922 net.cpp:165] Memory required for data: 3226155304
I0102 20:40:04.050688 10922 layer_factory.hpp:77] Creating layer conv5_2/linear
I0102 20:40:04.050694 10922 net.cpp:100] Creating Layer conv5_2/linear
I0102 20:40:04.050698 10922 net.cpp:434] conv5_2/linear <- conv5_2/dwise/bn
I0102 20:40:04.050701 10922 net.cpp:408] conv5_2/linear -> conv5_2/linear
I0102 20:40:04.052975 10922 net.cpp:150] Setting up conv5_2/linear
I0102 20:40:04.052984 10922 net.cpp:157] Top shape: 2 96 48 48 (442368)
I0102 20:40:04.052987 10922 net.cpp:165] Memory required for data: 3227924776
I0102 20:40:04.052991 10922 layer_factory.hpp:77] Creating layer conv5_2/linear/bn
I0102 20:40:04.052997 10922 net.cpp:100] Creating Layer conv5_2/linear/bn
I0102 20:40:04.053000 10922 net.cpp:434] conv5_2/linear/bn <- conv5_2/linear
I0102 20:40:04.053005 10922 net.cpp:408] conv5_2/linear/bn -> conv5_2/linear/bn
I0102 20:40:04.053171 10922 net.cpp:150] Setting up conv5_2/linear/bn
I0102 20:40:04.053176 10922 net.cpp:157] Top shape: 2 96 48 48 (442368)
I0102 20:40:04.053179 10922 net.cpp:165] Memory required for data: 3229694248
I0102 20:40:04.053184 10922 layer_factory.hpp:77] Creating layer conv5_2/linear/scale
I0102 20:40:04.053189 10922 net.cpp:100] Creating Layer conv5_2/linear/scale
I0102 20:40:04.053192 10922 net.cpp:434] conv5_2/linear/scale <- conv5_2/linear/bn
I0102 20:40:04.053197 10922 net.cpp:395] conv5_2/linear/scale -> conv5_2/linear/bn (in-place)
I0102 20:40:04.053228 10922 layer_factory.hpp:77] Creating layer conv5_2/linear/scale
I0102 20:40:04.053315 10922 net.cpp:150] Setting up conv5_2/linear/scale
I0102 20:40:04.053320 10922 net.cpp:157] Top shape: 2 96 48 48 (442368)
I0102 20:40:04.053323 10922 net.cpp:165] Memory required for data: 3231463720
I0102 20:40:04.053326 10922 layer_factory.hpp:77] Creating layer block_5_2
I0102 20:40:04.053331 10922 net.cpp:100] Creating Layer block_5_2
I0102 20:40:04.053334 10922 net.cpp:434] block_5_2 <- block_5_1_block_5_1_0_split_1
I0102 20:40:04.053337 10922 net.cpp:434] block_5_2 <- conv5_2/linear/bn
I0102 20:40:04.053342 10922 net.cpp:408] block_5_2 -> block_5_2
I0102 20:40:04.053359 10922 net.cpp:150] Setting up block_5_2
I0102 20:40:04.053362 10922 net.cpp:157] Top shape: 2 96 48 48 (442368)
I0102 20:40:04.053365 10922 net.cpp:165] Memory required for data: 3233233192
I0102 20:40:04.053369 10922 layer_factory.hpp:77] Creating layer block_5_2_block_5_2_0_split
I0102 20:40:04.053373 10922 net.cpp:100] Creating Layer block_5_2_block_5_2_0_split
I0102 20:40:04.053375 10922 net.cpp:434] block_5_2_block_5_2_0_split <- block_5_2
I0102 20:40:04.053380 10922 net.cpp:408] block_5_2_block_5_2_0_split -> block_5_2_block_5_2_0_split_0
I0102 20:40:04.053385 10922 net.cpp:408] block_5_2_block_5_2_0_split -> block_5_2_block_5_2_0_split_1
I0102 20:40:04.053388 10922 net.cpp:408] block_5_2_block_5_2_0_split -> block_5_2_block_5_2_0_split_2
I0102 20:40:04.053426 10922 net.cpp:150] Setting up block_5_2_block_5_2_0_split
I0102 20:40:04.053428 10922 net.cpp:157] Top shape: 2 96 48 48 (442368)
I0102 20:40:04.053432 10922 net.cpp:157] Top shape: 2 96 48 48 (442368)
I0102 20:40:04.053436 10922 net.cpp:157] Top shape: 2 96 48 48 (442368)
I0102 20:40:04.053438 10922 net.cpp:165] Memory required for data: 3238541608
I0102 20:40:04.053441 10922 layer_factory.hpp:77] Creating layer conv5_3/expand
I0102 20:40:04.053447 10922 net.cpp:100] Creating Layer conv5_3/expand
I0102 20:40:04.053450 10922 net.cpp:434] conv5_3/expand <- block_5_2_block_5_2_0_split_0
I0102 20:40:04.053454 10922 net.cpp:408] conv5_3/expand -> conv5_3/expand
I0102 20:40:04.055513 10922 net.cpp:150] Setting up conv5_3/expand
I0102 20:40:04.055523 10922 net.cpp:157] Top shape: 2 576 48 48 (2654208)
I0102 20:40:04.055527 10922 net.cpp:165] Memory required for data: 3249158440
I0102 20:40:04.055532 10922 layer_factory.hpp:77] Creating layer conv5_3/expand/bn
I0102 20:40:04.055538 10922 net.cpp:100] Creating Layer conv5_3/expand/bn
I0102 20:40:04.055542 10922 net.cpp:434] conv5_3/expand/bn <- conv5_3/expand
I0102 20:40:04.055547 10922 net.cpp:408] conv5_3/expand/bn -> conv5_3/expand/bn
I0102 20:40:04.055745 10922 net.cpp:150] Setting up conv5_3/expand/bn
I0102 20:40:04.055752 10922 net.cpp:157] Top shape: 2 576 48 48 (2654208)
I0102 20:40:04.055754 10922 net.cpp:165] Memory required for data: 3259775272
I0102 20:40:04.055761 10922 layer_factory.hpp:77] Creating layer conv5_3/expand/scale
I0102 20:40:04.055768 10922 net.cpp:100] Creating Layer conv5_3/expand/scale
I0102 20:40:04.055770 10922 net.cpp:434] conv5_3/expand/scale <- conv5_3/expand/bn
I0102 20:40:04.055775 10922 net.cpp:395] conv5_3/expand/scale -> conv5_3/expand/bn (in-place)
I0102 20:40:04.055811 10922 layer_factory.hpp:77] Creating layer conv5_3/expand/scale
I0102 20:40:04.055913 10922 net.cpp:150] Setting up conv5_3/expand/scale
I0102 20:40:04.055919 10922 net.cpp:157] Top shape: 2 576 48 48 (2654208)
I0102 20:40:04.055922 10922 net.cpp:165] Memory required for data: 3270392104
I0102 20:40:04.055927 10922 layer_factory.hpp:77] Creating layer relu5_3/expand
I0102 20:40:04.055933 10922 net.cpp:100] Creating Layer relu5_3/expand
I0102 20:40:04.055938 10922 net.cpp:434] relu5_3/expand <- conv5_3/expand/bn
I0102 20:40:04.055941 10922 net.cpp:395] relu5_3/expand -> conv5_3/expand/bn (in-place)
I0102 20:40:04.056103 10922 net.cpp:150] Setting up relu5_3/expand
I0102 20:40:04.056110 10922 net.cpp:157] Top shape: 2 576 48 48 (2654208)
I0102 20:40:04.056113 10922 net.cpp:165] Memory required for data: 3281008936
I0102 20:40:04.056118 10922 layer_factory.hpp:77] Creating layer LFCN_2_5x5
I0102 20:40:04.056126 10922 net.cpp:100] Creating Layer LFCN_2_5x5
I0102 20:40:04.056130 10922 net.cpp:434] LFCN_2_5x5 <- block_5_2_block_5_2_0_split_1
I0102 20:40:04.056136 10922 net.cpp:408] LFCN_2_5x5 -> LFCN_2_5x5
I0102 20:40:04.057548 10922 net.cpp:150] Setting up LFCN_2_5x5
I0102 20:40:04.057555 10922 net.cpp:157] Top shape: 2 9 48 48 (41472)
I0102 20:40:04.057559 10922 net.cpp:165] Memory required for data: 3281174824
I0102 20:40:04.057564 10922 layer_factory.hpp:77] Creating layer LFCN_2_5x5_LFCN_2_5x5_0_split
I0102 20:40:04.057569 10922 net.cpp:100] Creating Layer LFCN_2_5x5_LFCN_2_5x5_0_split
I0102 20:40:04.057571 10922 net.cpp:434] LFCN_2_5x5_LFCN_2_5x5_0_split <- LFCN_2_5x5
I0102 20:40:04.057576 10922 net.cpp:408] LFCN_2_5x5_LFCN_2_5x5_0_split -> LFCN_2_5x5_LFCN_2_5x5_0_split_0
I0102 20:40:04.057581 10922 net.cpp:408] LFCN_2_5x5_LFCN_2_5x5_0_split -> LFCN_2_5x5_LFCN_2_5x5_0_split_1
I0102 20:40:04.057611 10922 net.cpp:150] Setting up LFCN_2_5x5_LFCN_2_5x5_0_split
I0102 20:40:04.057615 10922 net.cpp:157] Top shape: 2 9 48 48 (41472)
I0102 20:40:04.057618 10922 net.cpp:157] Top shape: 2 9 48 48 (41472)
I0102 20:40:04.057621 10922 net.cpp:165] Memory required for data: 3281506600
I0102 20:40:04.057623 10922 layer_factory.hpp:77] Creating layer detection_loss_2_5x5
I0102 20:40:04.057629 10922 net.cpp:100] Creating Layer detection_loss_2_5x5
I0102 20:40:04.057632 10922 net.cpp:434] detection_loss_2_5x5 <- LFCN_2_5x5_LFCN_2_5x5_0_split_0
I0102 20:40:04.057636 10922 net.cpp:434] detection_loss_2_5x5 <- label_2_5x5_data_3_split_0
I0102 20:40:04.057641 10922 net.cpp:408] detection_loss_2_5x5 -> loss_2_5x5
I0102 20:40:04.057647 10922 layer_factory.hpp:77] Creating layer detection_loss_2_5x5
I0102 20:40:04.057919 10922 net.cpp:150] Setting up detection_loss_2_5x5
I0102 20:40:04.057926 10922 net.cpp:157] Top shape: 1 1 1 2 (2)
I0102 20:40:04.057929 10922 net.cpp:160]     with loss weight 1
I0102 20:40:04.057937 10922 net.cpp:165] Memory required for data: 3281506608
I0102 20:40:04.057941 10922 layer_factory.hpp:77] Creating layer detection_accuracy_2_5x5
I0102 20:40:04.057946 10922 net.cpp:100] Creating Layer detection_accuracy_2_5x5
I0102 20:40:04.057950 10922 net.cpp:434] detection_accuracy_2_5x5 <- LFCN_2_5x5_LFCN_2_5x5_0_split_1
I0102 20:40:04.057952 10922 net.cpp:434] detection_accuracy_2_5x5 <- label_2_5x5_data_3_split_1
I0102 20:40:04.057958 10922 net.cpp:408] detection_accuracy_2_5x5 -> accuracy_2_5x5
I0102 20:40:04.057963 10922 net.cpp:408] detection_accuracy_2_5x5 -> boxiou_2_5x5
I0102 20:40:04.057992 10922 net.cpp:150] Setting up detection_accuracy_2_5x5
I0102 20:40:04.057997 10922 net.cpp:157] Top shape: 1 1 1 2 (2)
I0102 20:40:04.058001 10922 net.cpp:157] Top shape: 1 1 1 1 (1)
I0102 20:40:04.058002 10922 net.cpp:165] Memory required for data: 3281506620
I0102 20:40:04.058006 10922 layer_factory.hpp:77] Creating layer LFCN_2_7x7
I0102 20:40:04.058012 10922 net.cpp:100] Creating Layer LFCN_2_7x7
I0102 20:40:04.058015 10922 net.cpp:434] LFCN_2_7x7 <- block_5_2_block_5_2_0_split_2
I0102 20:40:04.058019 10922 net.cpp:408] LFCN_2_7x7 -> LFCN_2_7x7
I0102 20:40:04.059748 10922 net.cpp:150] Setting up LFCN_2_7x7
I0102 20:40:04.059757 10922 net.cpp:157] Top shape: 2 9 48 48 (41472)
I0102 20:40:04.059761 10922 net.cpp:165] Memory required for data: 3281672508
I0102 20:40:04.059765 10922 layer_factory.hpp:77] Creating layer LFCN_2_7x7_LFCN_2_7x7_0_split
I0102 20:40:04.059770 10922 net.cpp:100] Creating Layer LFCN_2_7x7_LFCN_2_7x7_0_split
I0102 20:40:04.059773 10922 net.cpp:434] LFCN_2_7x7_LFCN_2_7x7_0_split <- LFCN_2_7x7
I0102 20:40:04.059778 10922 net.cpp:408] LFCN_2_7x7_LFCN_2_7x7_0_split -> LFCN_2_7x7_LFCN_2_7x7_0_split_0
I0102 20:40:04.059783 10922 net.cpp:408] LFCN_2_7x7_LFCN_2_7x7_0_split -> LFCN_2_7x7_LFCN_2_7x7_0_split_1
I0102 20:40:04.059813 10922 net.cpp:150] Setting up LFCN_2_7x7_LFCN_2_7x7_0_split
I0102 20:40:04.059818 10922 net.cpp:157] Top shape: 2 9 48 48 (41472)
I0102 20:40:04.059820 10922 net.cpp:157] Top shape: 2 9 48 48 (41472)
I0102 20:40:04.059823 10922 net.cpp:165] Memory required for data: 3282004284
I0102 20:40:04.059825 10922 layer_factory.hpp:77] Creating layer detection_loss_2_7x7
I0102 20:40:04.059831 10922 net.cpp:100] Creating Layer detection_loss_2_7x7
I0102 20:40:04.059834 10922 net.cpp:434] detection_loss_2_7x7 <- LFCN_2_7x7_LFCN_2_7x7_0_split_0
I0102 20:40:04.059839 10922 net.cpp:434] detection_loss_2_7x7 <- label_2_7x7_data_4_split_0
I0102 20:40:04.059842 10922 net.cpp:408] detection_loss_2_7x7 -> loss_2_7x7
I0102 20:40:04.059849 10922 layer_factory.hpp:77] Creating layer detection_loss_2_7x7
I0102 20:40:04.060115 10922 net.cpp:150] Setting up detection_loss_2_7x7
I0102 20:40:04.060122 10922 net.cpp:157] Top shape: 1 1 1 2 (2)
I0102 20:40:04.060124 10922 net.cpp:160]     with loss weight 1
I0102 20:40:04.060128 10922 net.cpp:165] Memory required for data: 3282004292
I0102 20:40:04.060132 10922 layer_factory.hpp:77] Creating layer detection_accuracy_2_7x7
I0102 20:40:04.060137 10922 net.cpp:100] Creating Layer detection_accuracy_2_7x7
I0102 20:40:04.060139 10922 net.cpp:434] detection_accuracy_2_7x7 <- LFCN_2_7x7_LFCN_2_7x7_0_split_1
I0102 20:40:04.060143 10922 net.cpp:434] detection_accuracy_2_7x7 <- label_2_7x7_data_4_split_1
I0102 20:40:04.060148 10922 net.cpp:408] detection_accuracy_2_7x7 -> accuracy_2_7x7
I0102 20:40:04.060153 10922 net.cpp:408] detection_accuracy_2_7x7 -> boxiou_2_7x7
I0102 20:40:04.060181 10922 net.cpp:150] Setting up detection_accuracy_2_7x7
I0102 20:40:04.060185 10922 net.cpp:157] Top shape: 1 1 1 2 (2)
I0102 20:40:04.060189 10922 net.cpp:157] Top shape: 1 1 1 1 (1)
I0102 20:40:04.060190 10922 net.cpp:165] Memory required for data: 3282004304
I0102 20:40:04.060194 10922 layer_factory.hpp:77] Creating layer conv5_3/dwise
I0102 20:40:04.060200 10922 net.cpp:100] Creating Layer conv5_3/dwise
I0102 20:40:04.060204 10922 net.cpp:434] conv5_3/dwise <- conv5_3/expand/bn
I0102 20:40:04.060207 10922 net.cpp:408] conv5_3/dwise -> conv5_3/dwise
I0102 20:40:04.060467 10922 net.cpp:150] Setting up conv5_3/dwise
I0102 20:40:04.060472 10922 net.cpp:157] Top shape: 2 576 24 24 (663552)
I0102 20:40:04.060475 10922 net.cpp:165] Memory required for data: 3284658512
I0102 20:40:04.060497 10922 layer_factory.hpp:77] Creating layer conv5_3/dwise/bn
I0102 20:40:04.060501 10922 net.cpp:100] Creating Layer conv5_3/dwise/bn
I0102 20:40:04.060504 10922 net.cpp:434] conv5_3/dwise/bn <- conv5_3/dwise
I0102 20:40:04.060509 10922 net.cpp:408] conv5_3/dwise/bn -> conv5_3/dwise/bn
I0102 20:40:04.060678 10922 net.cpp:150] Setting up conv5_3/dwise/bn
I0102 20:40:04.060683 10922 net.cpp:157] Top shape: 2 576 24 24 (663552)
I0102 20:40:04.060686 10922 net.cpp:165] Memory required for data: 3287312720
I0102 20:40:04.060693 10922 layer_factory.hpp:77] Creating layer conv5_3/dwise/scale
I0102 20:40:04.060698 10922 net.cpp:100] Creating Layer conv5_3/dwise/scale
I0102 20:40:04.060700 10922 net.cpp:434] conv5_3/dwise/scale <- conv5_3/dwise/bn
I0102 20:40:04.060704 10922 net.cpp:395] conv5_3/dwise/scale -> conv5_3/dwise/bn (in-place)
I0102 20:40:04.060739 10922 layer_factory.hpp:77] Creating layer conv5_3/dwise/scale
I0102 20:40:04.060845 10922 net.cpp:150] Setting up conv5_3/dwise/scale
I0102 20:40:04.060850 10922 net.cpp:157] Top shape: 2 576 24 24 (663552)
I0102 20:40:04.060853 10922 net.cpp:165] Memory required for data: 3289966928
I0102 20:40:04.060859 10922 layer_factory.hpp:77] Creating layer relu5_3/dwise
I0102 20:40:04.060864 10922 net.cpp:100] Creating Layer relu5_3/dwise
I0102 20:40:04.060868 10922 net.cpp:434] relu5_3/dwise <- conv5_3/dwise/bn
I0102 20:40:04.060871 10922 net.cpp:395] relu5_3/dwise -> conv5_3/dwise/bn (in-place)
I0102 20:40:04.061297 10922 net.cpp:150] Setting up relu5_3/dwise
I0102 20:40:04.061307 10922 net.cpp:157] Top shape: 2 576 24 24 (663552)
I0102 20:40:04.061311 10922 net.cpp:165] Memory required for data: 3292621136
I0102 20:40:04.061314 10922 layer_factory.hpp:77] Creating layer conv5_3/linear
I0102 20:40:04.061321 10922 net.cpp:100] Creating Layer conv5_3/linear
I0102 20:40:04.061326 10922 net.cpp:434] conv5_3/linear <- conv5_3/dwise/bn
I0102 20:40:04.061331 10922 net.cpp:408] conv5_3/linear -> conv5_3/linear
I0102 20:40:04.064394 10922 net.cpp:150] Setting up conv5_3/linear
I0102 20:40:04.064404 10922 net.cpp:157] Top shape: 2 160 24 24 (184320)
I0102 20:40:04.064409 10922 net.cpp:165] Memory required for data: 3293358416
I0102 20:40:04.064414 10922 layer_factory.hpp:77] Creating layer conv5_3/linear/bn
I0102 20:40:04.064419 10922 net.cpp:100] Creating Layer conv5_3/linear/bn
I0102 20:40:04.064424 10922 net.cpp:434] conv5_3/linear/bn <- conv5_3/linear
I0102 20:40:04.064430 10922 net.cpp:408] conv5_3/linear/bn -> conv5_3/linear/bn
I0102 20:40:04.064610 10922 net.cpp:150] Setting up conv5_3/linear/bn
…
I0102 20:40:04.407476 10922 layer_factory.hpp:77] Creating layer conv5_2/expand/scale
I0102 20:40:04.407595 10922 net.cpp:150] Setting up conv5_2/expand/scale
I0102 20:40:04.407601 10922 net.cpp:157] Top shape: 1 576 48 48 (1327104)
I0102 20:40:04.407604 10922 net.cpp:165] Memory required for data: 1586535592
I0102 20:40:04.407610 10922 layer_factory.hpp:77] Creating layer relu5_2/expand
I0102 20:40:04.407618 10922 net.cpp:100] Creating Layer relu5_2/expand
I0102 20:40:04.407622 10922 net.cpp:434] relu5_2/expand <- conv5_2/expand/bn
I0102 20:40:04.407627 10922 net.cpp:395] relu5_2/expand -> conv5_2/expand/bn (in-place)
I0102 20:40:04.407791 10922 net.cpp:150] Setting up relu5_2/expand
I0102 20:40:04.407799 10922 net.cpp:157] Top shape: 1 576 48 48 (1327104)
I0102 20:40:04.407802 10922 net.cpp:165] Memory required for data: 1591844008
I0102 20:40:04.407805 10922 layer_factory.hpp:77] Creating layer conv5_2/dwise
I0102 20:40:04.407814 10922 net.cpp:100] Creating Layer conv5_2/dwise
I0102 20:40:04.407816 10922 net.cpp:434] conv5_2/dwise <- conv5_2/expand/bn
I0102 20:40:04.407822 10922 net.cpp:408] conv5_2/dwise -> conv5_2/dwise
I0102 20:40:04.408164 10922 net.cpp:150] Setting up conv5_2/dwise
I0102 20:40:04.408171 10922 net.cpp:157] Top shape: 1 576 48 48 (1327104)
I0102 20:40:04.408174 10922 net.cpp:165] Memory required for data: 1597152424
I0102 20:40:04.408179 10922 layer_factory.hpp:77] Creating layer conv5_2/dwise/bn
I0102 20:40:04.408183 10922 net.cpp:100] Creating Layer conv5_2/dwise/bn
I0102 20:40:04.408186 10922 net.cpp:434] conv5_2/dwise/bn <- conv5_2/dwise
I0102 20:40:04.408191 10922 net.cpp:408] conv5_2/dwise/bn -> conv5_2/dwise/bn
I0102 20:40:04.408416 10922 net.cpp:150] Setting up conv5_2/dwise/bn
I0102 20:40:04.408421 10922 net.cpp:157] Top shape: 1 576 48 48 (1327104)
I0102 20:40:04.408424 10922 net.cpp:165] Memory required for data: 1602460840
I0102 20:40:04.408430 10922 layer_factory.hpp:77] Creating layer conv5_2/dwise/scale
I0102 20:40:04.408437 10922 net.cpp:100] Creating Layer conv5_2/dwise/scale
I0102 20:40:04.408442 10922 net.cpp:434] conv5_2/dwise/scale <- conv5_2/dwise/bn
I0102 20:40:04.408447 10922 net.cpp:395] conv5_2/dwise/scale -> conv5_2/dwise/bn (in-place)
I0102 20:40:04.408485 10922 layer_factory.hpp:77] Creating layer conv5_2/dwise/scale
I0102 20:40:04.408607 10922 net.cpp:150] Setting up conv5_2/dwise/scale
I0102 20:40:04.408613 10922 net.cpp:157] Top shape: 1 576 48 48 (1327104)
I0102 20:40:04.408617 10922 net.cpp:165] Memory required for data: 1607769256
I0102 20:40:04.408622 10922 layer_factory.hpp:77] Creating layer relu5_2/dwise
I0102 20:40:04.408628 10922 net.cpp:100] Creating Layer relu5_2/dwise
I0102 20:40:04.408632 10922 net.cpp:434] relu5_2/dwise <- conv5_2/dwise/bn
I0102 20:40:04.408637 10922 net.cpp:395] relu5_2/dwise -> conv5_2/dwise/bn (in-place)
I0102 20:40:04.408802 10922 net.cpp:150] Setting up relu5_2/dwise
I0102 20:40:04.408810 10922 net.cpp:157] Top shape: 1 576 48 48 (1327104)
I0102 20:40:04.408814 10922 net.cpp:165] Memory required for data: 1613077672
I0102 20:40:04.408818 10922 layer_factory.hpp:77] Creating layer conv5_2/linear
I0102 20:40:04.408825 10922 net.cpp:100] Creating Layer conv5_2/linear
I0102 20:40:04.408828 10922 net.cpp:434] conv5_2/linear <- conv5_2/dwise/bn
I0102 20:40:04.408835 10922 net.cpp:408] conv5_2/linear -> conv5_2/linear
I0102 20:40:04.411854 10922 net.cpp:150] Setting up conv5_2/linear
I0102 20:40:04.411865 10922 net.cpp:157] Top shape: 1 96 48 48 (221184)
I0102 20:40:04.411869 10922 net.cpp:165] Memory required for data: 1613962408
I0102 20:40:04.411873 10922 layer_factory.hpp:77] Creating layer conv5_2/linear/bn
I0102 20:40:04.411881 10922 net.cpp:100] Creating Layer conv5_2/linear/bn
I0102 20:40:04.411885 10922 net.cpp:434] conv5_2/linear/bn <- conv5_2/linear
I0102 20:40:04.411890 10922 net.cpp:408] conv5_2/linear/bn -> conv5_2/linear/bn
I0102 20:40:04.412129 10922 net.cpp:150] Setting up conv5_2/linear/bn
I0102 20:40:04.412135 10922 net.cpp:157] Top shape: 1 96 48 48 (221184)
I0102 20:40:04.412138 10922 net.cpp:165] Memory required for data: 1614847144
I0102 20:40:04.412145 10922 layer_factory.hpp:77] Creating layer conv5_2/linear/scale
I0102 20:40:04.412150 10922 net.cpp:100] Creating Layer conv5_2/linear/scale
I0102 20:40:04.412154 10922 net.cpp:434] conv5_2/linear/scale <- conv5_2/linear/bn
I0102 20:40:04.412158 10922 net.cpp:395] conv5_2/linear/scale -> conv5_2/linear/bn (in-place)
I0102 20:40:04.412200 10922 layer_factory.hpp:77] Creating layer conv5_2/linear/scale
I0102 20:40:04.412318 10922 net.cpp:150] Setting up conv5_2/linear/scale
I0102 20:40:04.412325 10922 net.cpp:157] Top shape: 1 96 48 48 (221184)
I0102 20:40:04.412328 10922 net.cpp:165] Memory required for data: 1615731880
I0102 20:40:04.412333 10922 layer_factory.hpp:77] Creating layer block_5_2
I0102 20:40:04.412338 10922 net.cpp:100] Creating Layer block_5_2
I0102 20:40:04.412343 10922 net.cpp:434] block_5_2 <- block_5_1_block_5_1_0_split_1
I0102 20:40:04.412348 10922 net.cpp:434] block_5_2 <- conv5_2/linear/bn
I0102 20:40:04.412351 10922 net.cpp:408] block_5_2 -> block_5_2
I0102 20:40:04.412376 10922 net.cpp:150] Setting up block_5_2
I0102 20:40:04.412381 10922 net.cpp:157] Top shape: 1 96 48 48 (221184)
I0102 20:40:04.412384 10922 net.cpp:165] Memory required for data: 1616616616
I0102 20:40:04.412387 10922 layer_factory.hpp:77] Creating layer block_5_2_block_5_2_0_split
I0102 20:40:04.412394 10922 net.cpp:100] Creating Layer block_5_2_block_5_2_0_split
I0102 20:40:04.412396 10922 net.cpp:434] block_5_2_block_5_2_0_split <- block_5_2
I0102 20:40:04.412401 10922 net.cpp:408] block_5_2_block_5_2_0_split -> block_5_2_block_5_2_0_split_0
I0102 20:40:04.412406 10922 net.cpp:408] block_5_2_block_5_2_0_split -> block_5_2_block_5_2_0_split_1
I0102 20:40:04.412411 10922 net.cpp:408] block_5_2_block_5_2_0_split -> block_5_2_block_5_2_0_split_2
I0102 20:40:04.412462 10922 net.cpp:150] Setting up block_5_2_block_5_2_0_split
I0102 20:40:04.412467 10922 net.cpp:157] Top shape: 1 96 48 48 (221184)
I0102 20:40:04.412472 10922 net.cpp:157] Top shape: 1 96 48 48 (221184)
I0102 20:40:04.412474 10922 net.cpp:157] Top shape: 1 96 48 48 (221184)
I0102 20:40:04.412477 10922 net.cpp:165] Memory required for data: 1619270824
I0102 20:40:04.412480 10922 layer_factory.hpp:77] Creating layer conv5_3/expand
I0102 20:40:04.412487 10922 net.cpp:100] Creating Layer conv5_3/expand
I0102 20:40:04.412492 10922 net.cpp:434] conv5_3/expand <- block_5_2_block_5_2_0_split_0
I0102 20:40:04.412497 10922 net.cpp:408] conv5_3/expand -> conv5_3/expand
I0102 20:40:04.414722 10922 net.cpp:150] Setting up conv5_3/expand
I0102 20:40:04.414731 10922 net.cpp:157] Top shape: 1 576 48 48 (1327104)
I0102 20:40:04.414734 10922 net.cpp:165] Memory required for data: 1624579240
I0102 20:40:04.414738 10922 layer_factory.hpp:77] Creating layer conv5_3/expand/bn
I0102 20:40:04.414744 10922 net.cpp:100] Creating Layer conv5_3/expand/bn
I0102 20:40:04.414748 10922 net.cpp:434] conv5_3/expand/bn <- conv5_3/expand
I0102 20:40:04.414753 10922 net.cpp:408] conv5_3/expand/bn -> conv5_3/expand/bn
I0102 20:40:04.414989 10922 net.cpp:150] Setting up conv5_3/expand/bn
I0102 20:40:04.414996 10922 net.cpp:157] Top shape: 1 576 48 48 (1327104)
I0102 20:40:04.414999 10922 net.cpp:165] Memory required for data: 1629887656
I0102 20:40:04.415005 10922 layer_factory.hpp:77] Creating layer conv5_3/expand/scale
I0102 20:40:04.415011 10922 net.cpp:100] Creating Layer conv5_3/expand/scale
I0102 20:40:04.415014 10922 net.cpp:434] conv5_3/expand/scale <- conv5_3/expand/bn
I0102 20:40:04.415020 10922 net.cpp:395] conv5_3/expand/scale -> conv5_3/expand/bn (in-place)
I0102 20:40:04.415063 10922 layer_factory.hpp:77] Creating layer conv5_3/expand/scale
I0102 20:40:04.415184 10922 net.cpp:150] Setting up conv5_3/expand/scale
I0102 20:40:04.415189 10922 net.cpp:157] Top shape: 1 576 48 48 (1327104)
I0102 20:40:04.415192 10922 net.cpp:165] Memory required for data: 1635196072
I0102 20:40:04.415197 10922 layer_factory.hpp:77] Creating layer relu5_3/expand
I0102 20:40:04.428686 10922 net.cpp:100] Creating Layer relu5_3/expand
I0102 20:40:04.428715 10922 net.cpp:434] relu5_3/expand <- conv5_3/expand/bn
I0102 20:40:04.428732 10922 net.cpp:395] relu5_3/expand -> conv5_3/expand/bn (in-place)
I0102 20:40:04.429039 10922 net.cpp:150] Setting up relu5_3/expand
I0102 20:40:04.429051 10922 net.cpp:157] Top shape: 1 576 48 48 (1327104)
I0102 20:40:04.429055 10922 net.cpp:165] Memory required for data: 1640504488
I0102 20:40:04.429059 10922 layer_factory.hpp:77] Creating layer LFCN_2_5x5
I0102 20:40:04.429072 10922 net.cpp:100] Creating Layer LFCN_2_5x5
I0102 20:40:04.429078 10922 net.cpp:434] LFCN_2_5x5 <- block_5_2_block_5_2_0_split_1
I0102 20:40:04.429100 10922 net.cpp:408] LFCN_2_5x5 -> LFCN_2_5x5
I0102 20:40:04.430953 10922 net.cpp:150] Setting up LFCN_2_5x5
I0102 20:40:04.430964 10922 net.cpp:157] Top shape: 1 9 48 48 (20736)
I0102 20:40:04.430968 10922 net.cpp:165] Memory required for data: 1640587432
I0102 20:40:04.430974 10922 layer_factory.hpp:77] Creating layer LFCN_2_5x5_LFCN_2_5x5_0_split
I0102 20:40:04.430980 10922 net.cpp:100] Creating Layer LFCN_2_5x5_LFCN_2_5x5_0_split
I0102 20:40:04.430984 10922 net.cpp:434] LFCN_2_5x5_LFCN_2_5x5_0_split <- LFCN_2_5x5
I0102 20:40:04.430990 10922 net.cpp:408] LFCN_2_5x5_LFCN_2_5x5_0_split -> LFCN_2_5x5_LFCN_2_5x5_0_split_0
I0102 20:40:04.430997 10922 net.cpp:408] LFCN_2_5x5_LFCN_2_5x5_0_split -> LFCN_2_5x5_LFCN_2_5x5_0_split_1
I0102 20:40:04.431037 10922 net.cpp:150] Setting up LFCN_2_5x5_LFCN_2_5x5_0_split
I0102 20:40:04.431043 10922 net.cpp:157] Top shape: 1 9 48 48 (20736)
I0102 20:40:04.431047 10922 net.cpp:157] Top shape: 1 9 48 48 (20736)
I0102 20:40:04.431051 10922 net.cpp:165] Memory required for data: 1640753320
I0102 20:40:04.431053 10922 layer_factory.hpp:77] Creating layer detection_loss_2_5x5
I0102 20:40:04.431061 10922 net.cpp:100] Creating Layer detection_loss_2_5x5
I0102 20:40:04.431064 10922 net.cpp:434] detection_loss_2_5x5 <- LFCN_2_5x5_LFCN_2_5x5_0_split_0
I0102 20:40:04.431069 10922 net.cpp:434] detection_loss_2_5x5 <- label_2_5x5_data_3_split_0
I0102 20:40:04.431075 10922 net.cpp:408] detection_loss_2_5x5 -> loss_2_5x5
I0102 20:40:04.431084 10922 layer_factory.hpp:77] Creating layer detection_loss_2_5x5
I0102 20:40:04.431437 10922 net.cpp:150] Setting up detection_loss_2_5x5
I0102 20:40:04.431444 10922 net.cpp:157] Top shape: 1 1 1 2 (2)
I0102 20:40:04.431447 10922 net.cpp:160]     with loss weight 1
I0102 20:40:04.431458 10922 net.cpp:165] Memory required for data: 1640753328
I0102 20:40:04.431461 10922 layer_factory.hpp:77] Creating layer detection_accuracy_2_5x5
I0102 20:40:04.431469 10922 net.cpp:100] Creating Layer detection_accuracy_2_5x5
I0102 20:40:04.431473 10922 net.cpp:434] detection_accuracy_2_5x5 <- LFCN_2_5x5_LFCN_2_5x5_0_split_1
I0102 20:40:04.431478 10922 net.cpp:434] detection_accuracy_2_5x5 <- label_2_5x5_data_3_split_1
I0102 20:40:04.431483 10922 net.cpp:408] detection_accuracy_2_5x5 -> accuracy_2_5x5
I0102 20:40:04.431489 10922 net.cpp:408] detection_accuracy_2_5x5 -> boxiou_2_5x5
I0102 20:40:04.431530 10922 net.cpp:150] Setting up detection_accuracy_2_5x5
I0102 20:40:04.431536 10922 net.cpp:157] Top shape: 1 1 1 2 (2)
I0102 20:40:04.431540 10922 net.cpp:157] Top shape: 1 1 1 1 (1)
I0102 20:40:04.431542 10922 net.cpp:165] Memory required for data: 1640753340
I0102 20:40:04.431545 10922 layer_factory.hpp:77] Creating layer LFCN_2_7x7
I0102 20:40:04.431556 10922 net.cpp:100] Creating Layer LFCN_2_7x7
I0102 20:40:04.431565 10922 net.cpp:434] LFCN_2_7x7 <- block_5_2_block_5_2_0_split_2
I0102 20:40:04.431578 10922 net.cpp:408] LFCN_2_7x7 -> LFCN_2_7x7
I0102 20:40:04.436281 10922 net.cpp:150] Setting up LFCN_2_7x7
I0102 20:40:04.436307 10922 net.cpp:157] Top shape: 1 9 48 48 (20736)
I0102 20:40:04.436316 10922 net.cpp:165] Memory required for data: 1640836284
I0102 20:40:04.436328 10922 layer_factory.hpp:77] Creating layer LFCN_2_7x7_LFCN_2_7x7_0_split
I0102 20:40:04.436347 10922 net.cpp:100] Creating Layer LFCN_2_7x7_LFCN_2_7x7_0_split
I0102 20:40:04.436354 10922 net.cpp:434] LFCN_2_7x7_LFCN_2_7x7_0_split <- LFCN_2_7x7
I0102 20:40:04.436367 10922 net.cpp:408] LFCN_2_7x7_LFCN_2_7x7_0_split -> LFCN_2_7x7_LFCN_2_7x7_0_split_0
I0102 20:40:04.436380 10922 net.cpp:408] LFCN_2_7x7_LFCN_2_7x7_0_split -> LFCN_2_7x7_LFCN_2_7x7_0_split_1
I0102 20:40:04.436465 10922 net.cpp:150] Setting up LFCN_2_7x7_LFCN_2_7x7_0_split
I0102 20:40:04.436473 10922 net.cpp:157] Top shape: 1 9 48 48 (20736)
I0102 20:40:04.436481 10922 net.cpp:157] Top shape: 1 9 48 48 (20736)
I0102 20:40:04.436487 10922 net.cpp:165] Memory required for data: 1641002172
I0102 20:40:04.436494 10922 layer_factory.hpp:77] Creating layer detection_loss_2_7x7
I0102 20:40:04.436507 10922 net.cpp:100] Creating Layer detection_loss_2_7x7
I0102 20:40:04.436514 10922 net.cpp:434] detection_loss_2_7x7 <- LFCN_2_7x7_LFCN_2_7x7_0_split_0
I0102 20:40:04.436524 10922 net.cpp:434] detection_loss_2_7x7 <- label_2_7x7_data_4_split_0
I0102 20:40:04.436534 10922 net.cpp:408] detection_loss_2_7x7 -> loss_2_7x7
I0102 20:40:04.436549 10922 layer_factory.hpp:77] Creating layer detection_loss_2_7x7
I0102 20:40:04.437253 10922 net.cpp:150] Setting up detection_loss_2_7x7
I0102 20:40:04.437269 10922 net.cpp:157] Top shape: 1 1 1 2 (2)
I0102 20:40:04.437275 10922 net.cpp:160]     with loss weight 1
I0102 20:40:04.437289 10922 net.cpp:165] Memory required for data: 1641002180
I0102 20:40:04.437296 10922 layer_factory.hpp:77] Creating layer detection_accuracy_2_7x7
I0102 20:40:04.437310 10922 net.cpp:100] Creating Layer detection_accuracy_2_7x7
I0102 20:40:04.437317 10922 net.cpp:434] detection_accuracy_2_7x7 <- LFCN_2_7x7_LFCN_2_7x7_0_split_1
I0102 20:40:04.437326 10922 net.cpp:434] detection_accuracy_2_7x7 <- label_2_7x7_data_4_split_1
I0102 20:40:04.437338 10922 net.cpp:408] detection_accuracy_2_7x7 -> accuracy_2_7x7
I0102 20:40:04.437352 10922 net.cpp:408] detection_accuracy_2_7x7 -> boxiou_2_7x7
I0102 20:40:04.437434 10922 net.cpp:150] Setting up detection_accuracy_2_7x7
I0102 20:40:04.437444 10922 net.cpp:157] Top shape: 1 1 1 2 (2)
I0102 20:40:04.437453 10922 net.cpp:157] Top shape: 1 1 1 1 (1)
I0102 20:40:04.437458 10922 net.cpp:165] Memory required for data: 1641002192
I0102 20:40:04.437464 10922 layer_factory.hpp:77] Creating layer conv5_3/dwise
I0102 20:40:04.437480 10922 net.cpp:100] Creating Layer conv5_3/dwise
I0102 20:40:04.437489 10922 net.cpp:434] conv5_3/dwise <- conv5_3/expand/bn
I0102 20:40:04.437500 10922 net.cpp:408] conv5_3/dwise -> conv5_3/dwise
I0102 20:40:04.438182 10922 net.cpp:150] Setting up conv5_3/dwise
I0102 20:40:04.438194 10922 net.cpp:157] Top shape: 1 576 24 24 (331776)
I0102 20:40:04.438200 10922 net.cpp:165] Memory required for data: 1642329296
I0102 20:40:04.438246 10922 layer_factory.hpp:77] Creating layer conv5_3/dwise/bn
I0102 20:40:04.438259 10922 net.cpp:100] Creating Layer conv5_3/dwise/bn
I0102 20:40:04.438267 10922 net.cpp:434] conv5_3/dwise/bn <- conv5_3/dwise
I0102 20:40:04.438277 10922 net.cpp:408] conv5_3/dwise/bn -> conv5_3/dwise/bn
I0102 20:40:04.438768 10922 net.cpp:150] Setting up conv5_3/dwise/bn
I0102 20:40:04.438807 10922 net.cpp:157] Top shape: 1 576 24 24 (331776)
I0102 20:40:04.438815 10922 net.cpp:165] Memory required for data: 1643656400
I0102 20:40:04.438829 10922 layer_factory.hpp:77] Creating layer conv5_3/dwise/scale
I0102 20:40:04.438841 10922 net.cpp:100] Creating Layer conv5_3/dwise/scale
I0102 20:40:04.438849 10922 net.cpp:434] conv5_3/dwise/scale <- conv5_3/dwise/bn
I0102 20:40:04.438858 10922 net.cpp:395] conv5_3/dwise/scale -> conv5_3/dwise/bn (in-place)
I0102 20:40:04.438951 10922 layer_factory.hpp:77] Creating layer conv5_3/dwise/scale
I0102 20:40:04.439208 10922 net.cpp:150] Setting up conv5_3/dwise/scale
I0102 20:40:04.439220 10922 net.cpp:157] Top shape: 1 576 24 24 (331776)
I0102 20:40:04.439226 10922 net.cpp:165] Memory required for data: 1644983504
I0102 20:40:04.439236 10922 layer_factory.hpp:77] Creating layer relu5_3/dwise
I0102 20:40:04.439247 10922 net.cpp:100] Creating Layer relu5_3/dwise
I0102 20:40:04.439256 10922 net.cpp:434] relu5_3/dwise <- conv5_3/dwise/bn
I0102 20:40:04.439266 10922 net.cpp:395] relu5_3/dwise -> conv5_3/dwise/bn (in-place)
I0102 20:40:04.440037 10922 net.cpp:150] Setting up relu5_3/dwise
I0102 20:40:04.440049 10922 net.cpp:157] Top shape: 1 576 24 24 (331776)
I0102 20:40:04.440053 10922 net.cpp:165] Memory required for data: 1646310608
I0102 20:40:04.440057 10922 layer_factory.hpp:77] Creating layer conv5_3/linear
I0102 20:40:04.440068 10922 net.cpp:100] Creating Layer conv5_3/linear
I0102 20:40:04.440073 10922 net.cpp:434] conv5_3/linear <- conv5_3/dwise/bn
I0102 20:40:04.440079 10922 net.cpp:408] conv5_3/linear -> conv5_3/linear
I0102 20:40:04.443351 10922 net.cpp:150] Setting up conv5_3/linear
I0102 20:40:04.443361 10922 net.cpp:157] Top shape: 1 160 24 24 (92160)
I0102 20:40:04.443365 10922 net.cpp:165] Memory required for data: 1646679248
I0102 20:40:04.443370 10922 layer_factory.hpp:77] Creating layer conv5_3/linear/bn
I0102 20:40:04.443377 10922 net.cpp:100] Creating Layer conv5_3/linear/bn
I0102 20:40:04.443382 10922 net.cpp:434] conv5_3/linear/bn <- conv5_3/linear
I0102 20:40:04.443387 10922 net.cpp:408] conv5_3/linear/bn -> conv5_3/linear/bn
I0102 20:40:04.443626 10922 net.cpp:150] Setting up conv5_3/linear/bn
I0102 20:40:04.443632 10922 net.cpp:157] Top shape: 1 160 24 24 (92160)
I0102 20:40:04.443635 10922 net.cpp:165] Memory required for data: 1647047888
I0102 20:40:04.443642 10922 layer_factory.hpp:77] Creating layer conv5_3/linear/scale
I0102 20:40:04.443650 10922 net.cpp:100] Creating Layer conv5_3/linear/scale
I0102 20:40:04.443652 10922 net.cpp:434] conv5_3/linear/scale <- conv5_3/linear/bn
I0102 20:40:04.443657 10922 net.cpp:395] conv5_3/linear/scale -> conv5_3/linear/bn (in-place)
I0102 20:40:04.443697 10922 layer_factory.hpp:77] Creating layer conv5_3/linear/scale
I0102 20:40:04.443821 10922 net.cpp:150] Setting up conv5_3/linear/scale
I0102 20:40:04.443827 10922 net.cpp:157] Top shape: 1 160 24 24 (92160)
I0102 20:40:04.443830 10922 net.cpp:165] Memory required for data: 1647416528
I0102 20:40:04.443835 10922 layer_factory.hpp:77] Creating layer conv5_3/linear/bn_conv5_3/linear/scale_0_split
I0102 20:40:04.443841 10922 net.cpp:100] Creating Layer conv5_3/linear/bn_conv5_3/linear/scale_0_split
I0102 20:40:04.443845 10922 net.cpp:434] conv5_3/linear/bn_conv5_3/linear/scale_0_split <- conv5_3/linear/bn
I0102 20:40:04.443850 10922 net.cpp:408] conv5_3/linear/bn_conv5_3/linear/scale_0_split -> conv5_3/linear/bn_conv5_3/linear/scale_0_split_0
I0102 20:40:04.443855 10922 net.cpp:408] conv5_3/linear/bn_conv5_3/linear/scale_0_split -> conv5_3/linear/bn_conv5_3/linear/scale_0_split_1
I0102 20:40:04.443892 10922 net.cpp:150] Setting up conv5_3/linear/bn_conv5_3/linear/scale_0_split
I0102 20:40:04.443897 10922 net.cpp:157] Top shape: 1 160 24 24 (92160)
I0102 20:40:04.443900 10922 net.cpp:157] Top shape: 1 160 24 24 (92160)
I0102 20:40:04.443903 10922 net.cpp:165] Memory required for data: 1648153808
I0102 20:40:04.443907 10922 layer_factory.hpp:77] Creating layer conv6_1/expand
I0102 20:40:04.443913 10922 net.cpp:100] Creating Layer conv6_1/expand
I0102 20:40:04.443917 10922 net.cpp:434] conv6_1/expand <- conv5_3/linear/bn_conv5_3/linear/scale_0_split_0
I0102 20:40:04.443922 10922 net.cpp:408] conv6_1/expand -> conv6_1/expand
I0102 20:40:04.449426 10922 net.cpp:150] Setting up conv6_1/expand
I0102 20:40:04.449439 10922 net.cpp:157] Top shape: 1 960 24 24 (552960)
I0102 20:40:04.449441 10922 net.cpp:165] Memory required for data: 1650365648
I0102 20:40:04.449446 10922 layer_factory.hpp:77] Creating layer conv6_1/expand/bn
I0102 20:40:04.449453 10922 net.cpp:100] Creating Layer conv6_1/expand/bn
I0102 20:40:04.449457 10922 net.cpp:434] conv6_1/expand/bn <- conv6_1/expand
I0102 20:40:04.449463 10922 net.cpp:408] conv6_1/expand/bn -> conv6_1/expand/bn
I0102 20:40:04.449709 10922 net.cpp:150] Setting up conv6_1/expand/bn
I0102 20:40:04.449715 10922 net.cpp:157] Top shape: 1 960 24 24 (552960)
I0102 20:40:04.449718 10922 net.cpp:165] Memory required for data: 1652577488
I0102 20:40:04.449726 10922 layer_factory.hpp:77] Creating layer conv6_1/expand/scale
I0102 20:40:04.449733 10922 net.cpp:100] Creating Layer conv6_1/expand/scale
I0102 20:40:04.449736 10922 net.cpp:434] conv6_1/expand/scale <- conv6_1/expand/bn
I0102 20:40:04.449743 10922 net.cpp:395] conv6_1/expand/scale -> conv6_1/expand/bn (in-place)
I0102 20:40:04.449786 10922 layer_factory.hpp:77] Creating layer conv6_1/expand/scale
I0102 20:40:04.449919 10922 net.cpp:150] Setting up conv6_1/expand/scale
I0102 20:40:04.449924 10922 net.cpp:157] Top shape: 1 960 24 24 (552960)
I0102 20:40:04.449928 10922 net.cpp:165] Memory required for data: 1654789328
I0102 20:40:04.449934 10922 layer_factory.hpp:77] Creating layer relu6_1/expand
I0102 20:40:04.449940 10922 net.cpp:100] Creating Layer relu6_1/expand
I0102 20:40:04.449944 10922 net.cpp:434] relu6_1/expand <- conv6_1/expand/bn
I0102 20:40:04.449949 10922 net.cpp:395] relu6_1/expand -> conv6_1/expand/bn (in-place)
I0102 20:40:04.450124 10922 net.cpp:150] Setting up relu6_1/expand
I0102 20:40:04.450131 10922 net.cpp:157] Top shape: 1 960 24 24 (552960)
I0102 20:40:04.450135 10922 net.cpp:165] Memory required for data: 1657001168
I0102 20:40:04.450139 10922 layer_factory.hpp:77] Creating layer conv6_1/dwise
I0102 20:40:04.450147 10922 net.cpp:100] Creating Layer conv6_1/dwise
I0102 20:40:04.450150 10922 net.cpp:434] conv6_1/dwise <- conv6_1/expand/bn
I0102 20:40:04.450157 10922 net.cpp:408] conv6_1/dwise -> conv6_1/dwise
I0102 20:40:04.450532 10922 net.cpp:150] Setting up conv6_1/dwise
I0102 20:40:04.450537 10922 net.cpp:157] Top shape: 1 960 24 24 (552960)
I0102 20:40:04.450541 10922 net.cpp:165] Memory required for data: 1659213008
I0102 20:40:04.450544 10922 layer_factory.hpp:77] Creating layer conv6_1/dwise/bn
I0102 20:40:04.450549 10922 net.cpp:100] Creating Layer conv6_1/dwise/bn
I0102 20:40:04.450552 10922 net.cpp:434] conv6_1/dwise/bn <- conv6_1/dwise
I0102 20:40:04.450556 10922 net.cpp:408] conv6_1/dwise/bn -> conv6_1/dwise/bn
I0102 20:40:04.450755 10922 net.cpp:150] Setting up conv6_1/dwise/bn
I0102 20:40:04.450760 10922 net.cpp:157] Top shape: 1 960 24 24 (552960)
I0102 20:40:04.450763 10922 net.cpp:165] Memory required for data: 1661424848
I0102 20:40:04.450768 10922 layer_factory.hpp:77] Creating layer conv6_1/dwise/scale
I0102 20:40:04.450773 10922 net.cpp:100] Creating Layer conv6_1/dwise/scale
I0102 20:40:04.450776 10922 net.cpp:434] conv6_1/dwise/scale <- conv6_1/dwise/bn
I0102 20:40:04.450793 10922 net.cpp:395] conv6_1/dwise/scale -> conv6_1/dwise/bn (in-place)
I0102 20:40:04.450831 10922 layer_factory.hpp:77] Creating layer conv6_1/dwise/scale
I0102 20:40:04.450942 10922 net.cpp:150] Setting up conv6_1/dwise/scale
I0102 20:40:04.450947 10922 net.cpp:157] Top shape: 1 960 24 24 (552960)
I0102 20:40:04.450948 10922 net.cpp:165] Memory required for data: 1663636688
I0102 20:40:04.450953 10922 layer_factory.hpp:77] Creating layer relu6_1/dwise
I0102 20:40:04.450958 10922 net.cpp:100] Creating Layer relu6_1/dwise
I0102 20:40:04.450960 10922 net.cpp:434] relu6_1/dwise <- conv6_1/dwise/bn
I0102 20:40:04.450964 10922 net.cpp:395] relu6_1/dwise -> conv6_1/dwise/bn (in-place)
I0102 20:40:04.451104 10922 net.cpp:150] Setting up relu6_1/dwise
I0102 20:40:04.451110 10922 net.cpp:157] Top shape: 1 960 24 24 (552960)
I0102 20:40:04.451113 10922 net.cpp:165] Memory required for data: 1665848528
I0102 20:40:04.451117 10922 layer_factory.hpp:77] Creating layer conv6_1/linear
I0102 20:40:04.451122 10922 net.cpp:100] Creating Layer conv6_1/linear
I0102 20:40:04.451125 10922 net.cpp:434] conv6_1/linear <- conv6_1/dwise/bn
I0102 20:40:04.451130 10922 net.cpp:408] conv6_1/linear -> conv6_1/linear
I0102 20:40:04.455283 10922 net.cpp:150] Setting up conv6_1/linear
I0102 20:40:04.455292 10922 net.cpp:157] Top shape: 1 160 24 24 (92160)
I0102 20:40:04.455296 10922 net.cpp:165] Memory required for data: 1666217168
I0102 20:40:04.455299 10922 layer_factory.hpp:77] Creating layer conv6_1/linear/bn
I0102 20:40:04.455305 10922 net.cpp:100] Creating Layer conv6_1/linear/bn
I0102 20:40:04.459177 10922 net.cpp:434] conv6_1/linear/bn <- conv6_1/linear
I0102 20:40:04.459192 10922 net.cpp:408] conv6_1/linear/bn -> conv6_1/linear/bn
I0102 20:40:04.459465 10922 net.cpp:150] Setting up conv6_1/linear/bn
I0102 20:40:04.459471 10922 net.cpp:157] Top shape: 1 160 24 24 (92160)
I0102 20:40:04.459475 10922 net.cpp:165] Memory required for data: 1666585808
I0102 20:40:04.459482 10922 layer_factory.hpp:77] Creating layer conv6_1/linear/scale
I0102 20:40:04.459488 10922 net.cpp:100] Creating Layer conv6_1/linear/scale
I0102 20:40:04.459492 10922 net.cpp:434] conv6_1/linear/scale <- conv6_1/linear/bn
I0102 20:40:04.459497 10922 net.cpp:395] conv6_1/linear/scale -> conv6_1/linear/bn (in-place)
I0102 20:40:04.459538 10922 layer_factory.hpp:77] Creating layer conv6_1/linear/scale
I0102 20:40:04.459666 10922 net.cpp:150] Setting up conv6_1/linear/scale
I0102 20:40:04.459671 10922 net.cpp:157] Top shape: 1 160 24 24 (92160)
I0102 20:40:04.459673 10922 net.cpp:165] Memory required for data: 1666954448
I0102 20:40:04.459678 10922 layer_factory.hpp:77] Creating layer block_6_1
I0102 20:40:04.459686 10922 net.cpp:100] Creating Layer block_6_1
I0102 20:40:04.459689 10922 net.cpp:434] block_6_1 <- conv5_3/linear/bn_conv5_3/linear/scale_0_split_1
I0102 20:40:04.459693 10922 net.cpp:434] block_6_1 <- conv6_1/linear/bn
I0102 20:40:04.459699 10922 net.cpp:408] block_6_1 -> block_6_1
I0102 20:40:04.459724 10922 net.cpp:150] Setting up block_6_1
I0102 20:40:04.459729 10922 net.cpp:157] Top shape: 1 160 24 24 (92160)
I0102 20:40:04.459733 10922 net.cpp:165] Memory required for data: 1667323088
I0102 20:40:04.459735 10922 layer_factory.hpp:77] Creating layer block_6_1_block_6_1_0_split
I0102 20:40:04.459740 10922 net.cpp:100] Creating Layer block_6_1_block_6_1_0_split
I0102 20:40:04.459743 10922 net.cpp:434] block_6_1_block_6_1_0_split <- block_6_1
I0102 20:40:04.459749 10922 net.cpp:408] block_6_1_block_6_1_0_split -> block_6_1_block_6_1_0_split_0
I0102 20:40:04.459754 10922 net.cpp:408] block_6_1_block_6_1_0_split -> block_6_1_block_6_1_0_split_1
I0102 20:40:04.459791 10922 net.cpp:150] Setting up block_6_1_block_6_1_0_split
I0102 20:40:04.459796 10922 net.cpp:157] Top shape: 1 160 24 24 (92160)
I0102 20:40:04.459800 10922 net.cpp:157] Top shape: 1 160 24 24 (92160)
I0102 20:40:04.459803 10922 net.cpp:165] Memory required for data: 1668060368
I0102 20:40:04.459806 10922 layer_factory.hpp:77] Creating layer conv6_2/expand
I0102 20:40:04.459812 10922 net.cpp:100] Creating Layer conv6_2/expand
I0102 20:40:04.459816 10922 net.cpp:434] conv6_2/expand <- block_6_1_block_6_1_0_split_0
I0102 20:40:04.459821 10922 net.cpp:408] conv6_2/expand -> conv6_2/expand
I0102 20:40:04.465112 10922 net.cpp:150] Setting up conv6_2/expand
I0102 20:40:04.465129 10922 net.cpp:157] Top shape: 1 960 24 24 (552960)
I0102 20:40:04.465134 10922 net.cpp:165] Memory required for data: 1670272208
I0102 20:40:04.465142 10922 layer_factory.hpp:77] Creating layer conv6_2/expand/bn
I0102 20:40:04.465153 10922 net.cpp:100] Creating Layer conv6_2/expand/bn
I0102 20:40:04.465160 10922 net.cpp:434] conv6_2/expand/bn <- conv6_2/expand
I0102 20:40:04.465169 10922 net.cpp:408] conv6_2/expand/bn -> conv6_2/expand/bn
I0102 20:40:04.465466 10922 net.cpp:150] Setting up conv6_2/expand/bn
I0102 20:40:04.465472 10922 net.cpp:157] Top shape: 1 960 24 24 (552960)
I0102 20:40:04.465476 10922 net.cpp:165] Memory required for data: 1672484048
I0102 20:40:04.465483 10922 layer_factory.hpp:77] Creating layer conv6_2/expand/scale
I0102 20:40:04.465492 10922 net.cpp:100] Creating Layer conv6_2/expand/scale
I0102 20:40:04.465497 10922 net.cpp:434] conv6_2/expand/scale <- conv6_2/expand/bn
I0102 20:40:04.465502 10922 net.cpp:395] conv6_2/expand/scale -> conv6_2/expand/bn (in-place)
I0102 20:40:04.465553 10922 layer_factory.hpp:77] Creating layer conv6_2/expand/scale
I0102 20:40:04.465704 10922 net.cpp:150] Setting up conv6_2/expand/scale
I0102 20:40:04.465710 10922 net.cpp:157] Top shape: 1 960 24 24 (552960)
I0102 20:40:04.465714 10922 net.cpp:165] Memory required for data: 1674695888
I0102 20:40:04.465720 10922 layer_factory.hpp:77] Creating layer relu6_2/expand
I0102 20:40:04.465726 10922 net.cpp:100] Creating Layer relu6_2/expand
I0102 20:40:04.465730 10922 net.cpp:434] relu6_2/expand <- conv6_2/expand/bn
I0102 20:40:04.465736 10922 net.cpp:395] relu6_2/expand -> conv6_2/expand/bn (in-place)
I0102 20:40:04.465927 10922 net.cpp:150] Setting up relu6_2/expand
I0102 20:40:04.465935 10922 net.cpp:157] Top shape: 1 960 24 24 (552960)
I0102 20:40:04.465939 10922 net.cpp:165] Memory required for data: 1676907728
I0102 20:40:04.465942 10922 layer_factory.hpp:77] Creating layer conv6_2/dwise
I0102 20:40:04.465950 10922 net.cpp:100] Creating Layer conv6_2/dwise
I0102 20:40:04.465955 10922 net.cpp:434] conv6_2/dwise <- conv6_2/expand/bn
I0102 20:40:04.465961 10922 net.cpp:408] conv6_2/dwise -> conv6_2/dwise
I0102 20:40:04.467447 10922 net.cpp:150] Setting up conv6_2/dwise
I0102 20:40:04.467463 10922 net.cpp:157] Top shape: 1 960 24 24 (552960)
I0102 20:40:04.467465 10922 net.cpp:165] Memory required for data: 1679119568
I0102 20:40:04.467473 10922 layer_factory.hpp:77] Creating layer conv6_2/dwise/bn
I0102 20:40:04.467483 10922 net.cpp:100] Creating Layer conv6_2/dwise/bn
I0102 20:40:04.467486 10922 net.cpp:434] conv6_2/dwise/bn <- conv6_2/dwise
I0102 20:40:04.467494 10922 net.cpp:408] conv6_2/dwise/bn -> conv6_2/dwise/bn
I0102 20:40:04.467783 10922 net.cpp:150] Setting up conv6_2/dwise/bn
I0102 20:40:04.467789 10922 net.cpp:157] Top shape: 1 960 24 24 (552960)
I0102 20:40:04.467793 10922 net.cpp:165] Memory required for data: 1681331408
I0102 20:40:04.467802 10922 layer_factory.hpp:77] Creating layer conv6_2/dwise/scale
I0102 20:40:04.467808 10922 net.cpp:100] Creating Layer conv6_2/dwise/scale
I0102 20:40:04.467813 10922 net.cpp:434] conv6_2/dwise/scale <- conv6_2/dwise/bn
I0102 20:40:04.467819 10922 net.cpp:395] conv6_2/dwise/scale -> conv6_2/dwise/bn (in-place)
I0102 20:40:04.467869 10922 layer_factory.hpp:77] Creating layer conv6_2/dwise/scale
I0102 20:40:04.468021 10922 net.cpp:150] Setting up conv6_2/dwise/scale
I0102 20:40:04.468029 10922 net.cpp:157] Top shape: 1 960 24 24 (552960)
I0102 20:40:04.468032 10922 net.cpp:165] Memory required for data: 1683543248
I0102 20:40:04.468039 10922 layer_factory.hpp:77] Creating layer relu6_2/dwise
I0102 20:40:04.468045 10922 net.cpp:100] Creating Layer relu6_2/dwise
I0102 20:40:04.468050 10922 net.cpp:434] relu6_2/dwise <- conv6_2/dwise/bn
I0102 20:40:04.468055 10922 net.cpp:395] relu6_2/dwise -> conv6_2/dwise/bn (in-place)
I0102 20:40:04.468282 10922 net.cpp:150] Setting up relu6_2/dwise
I0102 20:40:04.468291 10922 net.cpp:157] Top shape: 1 960 24 24 (552960)
I0102 20:40:04.468294 10922 net.cpp:165] Memory required for data: 1685755088
I0102 20:40:04.468298 10922 layer_factory.hpp:77] Creating layer conv6_2/linear
I0102 20:40:04.468308 10922 net.cpp:100] Creating Layer conv6_2/linear
I0102 20:40:04.468312 10922 net.cpp:434] conv6_2/linear <- conv6_2/dwise/bn
I0102 20:40:04.468320 10922 net.cpp:408] conv6_2/linear -> conv6_2/linear
I0102 20:40:04.477936 10922 net.cpp:150] Setting up conv6_2/linear
I0102 20:40:04.477963 10922 net.cpp:157] Top shape: 1 160 24 24 (92160)
I0102 20:40:04.477967 10922 net.cpp:165] Memory required for data: 1686123728
I0102 20:40:04.477974 10922 layer_factory.hpp:77] Creating layer conv6_2/linear/bn
I0102 20:40:04.477986 10922 net.cpp:100] Creating Layer conv6_2/linear/bn
I0102 20:40:04.477993 10922 net.cpp:434] conv6_2/linear/bn <- conv6_2/linear
I0102 20:40:04.477998 10922 net.cpp:408] conv6_2/linear/bn -> conv6_2/linear/bn
I0102 20:40:04.478181 10922 net.cpp:150] Setting up conv6_2/linear/bn
I0102 20:40:04.478186 10922 net.cpp:157] Top shape: 1 160 24 24 (92160)
I0102 20:40:04.478189 10922 net.cpp:165] Memory required for data: 1686492368
I0102 20:40:04.478195 10922 layer_factory.hpp:77] Creating layer conv6_2/linear/scale
I0102 20:40:04.478204 10922 net.cpp:100] Creating Layer conv6_2/linear/scale
I0102 20:40:04.478207 10922 net.cpp:434] conv6_2/linear/scale <- conv6_2/linear/bn
I0102 20:40:04.478214 10922 net.cpp:395] conv6_2/linear/scale -> conv6_2/linear/bn (in-place)
I0102 20:40:04.478247 10922 layer_factory.hpp:77] Creating layer conv6_2/linear/scale
I0102 20:40:04.478354 10922 net.cpp:150] Setting up conv6_2/linear/scale
I0102 20:40:04.478360 10922 net.cpp:157] Top shape: 1 160 24 24 (92160)
I0102 20:40:04.478363 10922 net.cpp:165] Memory required for data: 1686861008
I0102 20:40:04.478368 10922 layer_factory.hpp:77] Creating layer block_6_2
I0102 20:40:04.478376 10922 net.cpp:100] Creating Layer block_6_2
I0102 20:40:04.478382 10922 net.cpp:434] block_6_2 <- block_6_1_block_6_1_0_split_1
I0102 20:40:04.478386 10922 net.cpp:434] block_6_2 <- conv6_2/linear/bn
I0102 20:40:04.478390 10922 net.cpp:408] block_6_2 -> block_6_2
I0102 20:40:04.478411 10922 net.cpp:150] Setting up block_6_2
I0102 20:40:04.478416 10922 net.cpp:157] Top shape: 1 160 24 24 (92160)
I0102 20:40:04.478420 10922 net.cpp:165] Memory required for data: 1687229648
I0102 20:40:04.478422 10922 layer_factory.hpp:77] Creating layer block_6_2_block_6_2_0_split
I0102 20:40:04.478427 10922 net.cpp:100] Creating Layer block_6_2_block_6_2_0_split
I0102 20:40:04.478431 10922 net.cpp:434] block_6_2_block_6_2_0_split <- block_6_2
I0102 20:40:04.478435 10922 net.cpp:408] block_6_2_block_6_2_0_split -> block_6_2_block_6_2_0_split_0
I0102 20:40:04.478440 10922 net.cpp:408] block_6_2_block_6_2_0_split -> block_6_2_block_6_2_0_split_1
I0102 20:40:04.478446 10922 net.cpp:408] block_6_2_block_6_2_0_split -> block_6_2_block_6_2_0_split_2
I0102 20:40:04.478488 10922 net.cpp:150] Setting up block_6_2_block_6_2_0_split
I0102 20:40:04.478493 10922 net.cpp:157] Top shape: 1 160 24 24 (92160)
I0102 20:40:04.478497 10922 net.cpp:157] Top shape: 1 160 24 24 (92160)
I0102 20:40:04.478502 10922 net.cpp:157] Top shape: 1 160 24 24 (92160)
I0102 20:40:04.478505 10922 net.cpp:165] Memory required for data: 1688335568
I0102 20:40:04.478509 10922 layer_factory.hpp:77] Creating layer conv6_3/expand
I0102 20:40:04.478518 10922 net.cpp:100] Creating Layer conv6_3/expand
I0102 20:40:04.478523 10922 net.cpp:434] conv6_3/expand <- block_6_2_block_6_2_0_split_0
I0102 20:40:04.478528 10922 net.cpp:408] conv6_3/expand -> conv6_3/expand
I0102 20:40:04.483252 10922 net.cpp:150] Setting up conv6_3/expand
I0102 20:40:04.483263 10922 net.cpp:157] Top shape: 1 960 24 24 (552960)
I0102 20:40:04.483265 10922 net.cpp:165] Memory required for data: 1690547408
I0102 20:40:04.483270 10922 layer_factory.hpp:77] Creating layer conv6_3/expand/bn
I0102 20:40:04.483278 10922 net.cpp:100] Creating Layer conv6_3/expand/bn
I0102 20:40:04.483281 10922 net.cpp:434] conv6_3/expand/bn <- conv6_3/expand
I0102 20:40:04.483286 10922 net.cpp:408] conv6_3/expand/bn -> conv6_3/expand/bn
I0102 20:40:04.483475 10922 net.cpp:150] Setting up conv6_3/expand/bn
I0102 20:40:04.483480 10922 net.cpp:157] Top shape: 1 960 24 24 (552960)
I0102 20:40:04.483484 10922 net.cpp:165] Memory required for data: 1692759248
I0102 20:40:04.483490 10922 layer_factory.hpp:77] Creating layer conv6_3/expand/scale
I0102 20:40:04.483496 10922 net.cpp:100] Creating Layer conv6_3/expand/scale
I0102 20:40:04.483500 10922 net.cpp:434] conv6_3/expand/scale <- conv6_3/expand/bn
I0102 20:40:04.483505 10922 net.cpp:395] conv6_3/expand/scale -> conv6_3/expand/bn (in-place)
I0102 20:40:04.483543 10922 layer_factory.hpp:77] Creating layer conv6_3/expand/scale
I0102 20:40:04.483656 10922 net.cpp:150] Setting up conv6_3/expand/scale
I0102 20:40:04.483661 10922 net.cpp:157] Top shape: 1 960 24 24 (552960)
I0102 20:40:04.483664 10922 net.cpp:165] Memory required for data: 1694971088
I0102 20:40:04.483669 10922 layer_factory.hpp:77] Creating layer relu6_3/expand
I0102 20:40:04.483676 10922 net.cpp:100] Creating Layer relu6_3/expand
I0102 20:40:04.483680 10922 net.cpp:434] relu6_3/expand <- conv6_3/expand/bn
I0102 20:40:04.483683 10922 net.cpp:395] relu6_3/expand -> conv6_3/expand/bn (in-place)
I0102 20:40:04.483852 10922 net.cpp:150] Setting up relu6_3/expand
I0102 20:40:04.483861 10922 net.cpp:157] Top shape: 1 960 24 24 (552960)
I0102 20:40:04.483865 10922 net.cpp:165] Memory required for data: 1697182928
I0102 20:40:04.483868 10922 layer_factory.hpp:77] Creating layer conv6_3/dwise
I0102 20:40:04.483875 10922 net.cpp:100] Creating Layer conv6_3/dwise
I0102 20:40:04.483878 10922 net.cpp:434] conv6_3/dwise <- conv6_3/expand/bn
I0102 20:40:04.483884 10922 net.cpp:408] conv6_3/dwise -> conv6_3/dwise
I0102 20:40:04.484287 10922 net.cpp:150] Setting up conv6_3/dwise
I0102 20:40:04.484293 10922 net.cpp:157] Top shape: 1 960 24 24 (552960)
I0102 20:40:04.484297 10922 net.cpp:165] Memory required for data: 1699394768
I0102 20:40:04.484300 10922 layer_factory.hpp:77] Creating layer conv6_3/dwise/bn
I0102 20:40:04.484306 10922 net.cpp:100] Creating Layer conv6_3/dwise/bn
I0102 20:40:04.484309 10922 net.cpp:434] conv6_3/dwise/bn <- conv6_3/dwise
I0102 20:40:04.484314 10922 net.cpp:408] conv6_3/dwise/bn -> conv6_3/dwise/bn
I0102 20:40:04.484505 10922 net.cpp:150] Setting up conv6_3/dwise/bn
I0102 20:40:04.484510 10922 net.cpp:157] Top shape: 1 960 24 24 (552960)
I0102 20:40:04.484513 10922 net.cpp:165] Memory required for data: 1701606608
I0102 20:40:04.484519 10922 layer_factory.hpp:77] Creating layer conv6_3/dwise/scale
I0102 20:40:04.484524 10922 net.cpp:100] Creating Layer conv6_3/dwise/scale
I0102 20:40:04.484526 10922 net.cpp:434] conv6_3/dwise/scale <- conv6_3/dwise/bn
I0102 20:40:04.484531 10922 net.cpp:395] conv6_3/dwise/scale -> conv6_3/dwise/bn (in-place)
I0102 20:40:04.484562 10922 layer_factory.hpp:77] Creating layer conv6_3/dwise/scale
I0102 20:40:04.484653 10922 net.cpp:150] Setting up conv6_3/dwise/scale
I0102 20:40:04.484658 10922 net.cpp:157] Top shape: 1 960 24 24 (552960)
I0102 20:40:04.484660 10922 net.cpp:165] Memory required for data: 1703818448
I0102 20:40:04.484664 10922 layer_factory.hpp:77] Creating layer relu6_3/dwise
I0102 20:40:04.484669 10922 net.cpp:100] Creating Layer relu6_3/dwise
I0102 20:40:04.484673 10922 net.cpp:434] relu6_3/dwise <- conv6_3/dwise/bn
I0102 20:40:04.484676 10922 net.cpp:395] relu6_3/dwise -> conv6_3/dwise/bn (in-place)
I0102 20:40:04.485101 10922 net.cpp:150] Setting up relu6_3/dwise
I0102 20:40:04.485110 10922 net.cpp:157] Top shape: 1 960 24 24 (552960)
I0102 20:40:04.485112 10922 net.cpp:165] Memory required for data: 1706030288
I0102 20:40:04.485116 10922 layer_factory.hpp:77] Creating layer conv6_3/linear
I0102 20:40:04.485123 10922 net.cpp:100] Creating Layer conv6_3/linear
I0102 20:40:04.485126 10922 net.cpp:434] conv6_3/linear <- conv6_3/dwise/bn
I0102 20:40:04.485131 10922 net.cpp:408] conv6_3/linear -> conv6_3/linear
I0102 20:40:04.494947 10922 net.cpp:150] Setting up conv6_3/linear
I0102 20:40:04.494966 10922 net.cpp:157] Top shape: 1 320 24 24 (184320)
I0102 20:40:04.494969 10922 net.cpp:165] Memory required for data: 1706767568
I0102 20:40:04.494976 10922 layer_factory.hpp:77] Creating layer conv6_3/linear/bn
I0102 20:40:04.494983 10922 net.cpp:100] Creating Layer conv6_3/linear/bn
I0102 20:40:04.494989 10922 net.cpp:434] conv6_3/linear/bn <- conv6_3/linear
I0102 20:40:04.494997 10922 net.cpp:408] conv6_3/linear/bn -> conv6_3/linear/bn
I0102 20:40:04.495194 10922 net.cpp:150] Setting up conv6_3/linear/bn
I0102 20:40:04.495200 10922 net.cpp:157] Top shape: 1 320 24 24 (184320)
I0102 20:40:04.495203 10922 net.cpp:165] Memory required for data: 1707504848
I0102 20:40:04.495211 10922 layer_factory.hpp:77] Creating layer conv6_3/linear/scale
I0102 20:40:04.495218 10922 net.cpp:100] Creating Layer conv6_3/linear/scale
I0102 20:40:04.495220 10922 net.cpp:434] conv6_3/linear/scale <- conv6_3/linear/bn
I0102 20:40:04.495225 10922 net.cpp:395] conv6_3/linear/scale -> conv6_3/linear/bn (in-place)
I0102 20:40:04.495265 10922 layer_factory.hpp:77] Creating layer conv6_3/linear/scale
I0102 20:40:04.495378 10922 net.cpp:150] Setting up conv6_3/linear/scale
I0102 20:40:04.495383 10922 net.cpp:157] Top shape: 1 320 24 24 (184320)
I0102 20:40:04.495386 10922 net.cpp:165] Memory required for data: 1708242128
I0102 20:40:04.495391 10922 layer_factory.hpp:77] Creating layer LFCN_3_5x5
I0102 20:40:04.495400 10922 net.cpp:100] Creating Layer LFCN_3_5x5
I0102 20:40:04.495405 10922 net.cpp:434] LFCN_3_5x5 <- block_6_2_block_6_2_0_split_1
I0102 20:40:04.495412 10922 net.cpp:408] LFCN_3_5x5 -> LFCN_3_5x5
I0102 20:40:04.497434 10922 net.cpp:150] Setting up LFCN_3_5x5
I0102 20:40:04.497448 10922 net.cpp:157] Top shape: 1 9 24 24 (5184)
I0102 20:40:04.497452 10922 net.cpp:165] Memory required for data: 1708262864
I0102 20:40:04.497457 10922 layer_factory.hpp:77] Creating layer LFCN_3_5x5_LFCN_3_5x5_0_split
I0102 20:40:04.497464 10922 net.cpp:100] Creating Layer LFCN_3_5x5_LFCN_3_5x5_0_split
I0102 20:40:04.497468 10922 net.cpp:434] LFCN_3_5x5_LFCN_3_5x5_0_split <- LFCN_3_5x5
I0102 20:40:04.497474 10922 net.cpp:408] LFCN_3_5x5_LFCN_3_5x5_0_split -> LFCN_3_5x5_LFCN_3_5x5_0_split_0
I0102 20:40:04.497481 10922 net.cpp:408] LFCN_3_5x5_LFCN_3_5x5_0_split -> LFCN_3_5x5_LFCN_3_5x5_0_split_1
I0102 20:40:04.497512 10922 net.cpp:150] Setting up LFCN_3_5x5_LFCN_3_5x5_0_split
I0102 20:40:04.497517 10922 net.cpp:157] Top shape: 1 9 24 24 (5184)
I0102 20:40:04.497521 10922 net.cpp:157] Top shape: 1 9 24 24 (5184)
I0102 20:40:04.497524 10922 net.cpp:165] Memory required for data: 1708304336
I0102 20:40:04.497529 10922 layer_factory.hpp:77] Creating layer detection_loss_3_5x5
I0102 20:40:04.497539 10922 net.cpp:100] Creating Layer detection_loss_3_5x5
I0102 20:40:04.497542 10922 net.cpp:434] detection_loss_3_5x5 <- LFCN_3_5x5_LFCN_3_5x5_0_split_0
I0102 20:40:04.497547 10922 net.cpp:434] detection_loss_3_5x5 <- label_3_5x5_data_5_split_0
I0102 20:40:04.497555 10922 net.cpp:408] detection_loss_3_5x5 -> loss_3_5x5
I0102 20:40:04.497561 10922 layer_factory.hpp:77] Creating layer detection_loss_3_5x5
I0102 20:40:04.497884 10922 net.cpp:150] Setting up detection_loss_3_5x5
I0102 20:40:04.497891 10922 net.cpp:157] Top shape: 1 1 1 2 (2)
I0102 20:40:04.497895 10922 net.cpp:160]     with loss weight 1
I0102 20:40:04.497905 10922 net.cpp:165] Memory required for data: 1708304344
I0102 20:40:04.497908 10922 layer_factory.hpp:77] Creating layer detection_accuracy_3_5x5
I0102 20:40:04.497915 10922 net.cpp:100] Creating Layer detection_accuracy_3_5x5
I0102 20:40:04.497918 10922 net.cpp:434] detection_accuracy_3_5x5 <- LFCN_3_5x5_LFCN_3_5x5_0_split_1
I0102 20:40:04.497923 10922 net.cpp:434] detection_accuracy_3_5x5 <- label_3_5x5_data_5_split_1
I0102 20:40:04.497929 10922 net.cpp:408] detection_accuracy_3_5x5 -> accuracy_3_5x5
I0102 20:40:04.497937 10922 net.cpp:408] detection_accuracy_3_5x5 -> boxiou_3_5x5
I0102 20:40:04.497970 10922 net.cpp:150] Setting up detection_accuracy_3_5x5
I0102 20:40:04.497975 10922 net.cpp:157] Top shape: 1 1 1 2 (2)
I0102 20:40:04.497979 10922 net.cpp:157] Top shape: 1 1 1 1 (1)
I0102 20:40:04.497982 10922 net.cpp:165] Memory required for data: 1708304356
I0102 20:40:04.497985 10922 layer_factory.hpp:77] Creating layer LFCN_3_7x7
I0102 20:40:04.497994 10922 net.cpp:100] Creating Layer LFCN_3_7x7
I0102 20:40:04.497998 10922 net.cpp:434] LFCN_3_7x7 <- block_6_2_block_6_2_0_split_2
I0102 20:40:04.498004 10922 net.cpp:408] LFCN_3_7x7 -> LFCN_3_7x7
I0102 20:40:04.500751 10922 net.cpp:150] Setting up LFCN_3_7x7
I0102 20:40:04.500759 10922 net.cpp:157] Top shape: 1 9 24 24 (5184)
I0102 20:40:04.500762 10922 net.cpp:165] Memory required for data: 1708325092
I0102 20:40:04.500768 10922 layer_factory.hpp:77] Creating layer LFCN_3_7x7_LFCN_3_7x7_0_split
I0102 20:40:04.500773 10922 net.cpp:100] Creating Layer LFCN_3_7x7_LFCN_3_7x7_0_split
I0102 20:40:04.500777 10922 net.cpp:434] LFCN_3_7x7_LFCN_3_7x7_0_split <- LFCN_3_7x7
I0102 20:40:04.500782 10922 net.cpp:408] LFCN_3_7x7_LFCN_3_7x7_0_split -> LFCN_3_7x7_LFCN_3_7x7_0_split_0
I0102 20:40:04.500787 10922 net.cpp:408] LFCN_3_7x7_LFCN_3_7x7_0_split -> LFCN_3_7x7_LFCN_3_7x7_0_split_1
I0102 20:40:04.500813 10922 net.cpp:150] Setting up LFCN_3_7x7_LFCN_3_7x7_0_split
I0102 20:40:04.500818 10922 net.cpp:157] Top shape: 1 9 24 24 (5184)
I0102 20:40:04.500823 10922 net.cpp:157] Top shape: 1 9 24 24 (5184)
I0102 20:40:04.500824 10922 net.cpp:165] Memory required for data: 1708366564
I0102 20:40:04.500828 10922 layer_factory.hpp:77] Creating layer detection_loss_3_7x7
I0102 20:40:04.500831 10922 net.cpp:100] Creating Layer detection_loss_3_7x7
I0102 20:40:04.500834 10922 net.cpp:434] detection_loss_3_7x7 <- LFCN_3_7x7_LFCN_3_7x7_0_split_0
I0102 20:40:04.500838 10922 net.cpp:434] detection_loss_3_7x7 <- label_3_7x7_data_6_split_0
I0102 20:40:04.500843 10922 net.cpp:408] detection_loss_3_7x7 -> loss_3_7x7
I0102 20:40:04.500849 10922 layer_factory.hpp:77] Creating layer detection_loss_3_7x7
I0102 20:40:04.501108 10922 net.cpp:150] Setting up detection_loss_3_7x7
I0102 20:40:04.501114 10922 net.cpp:157] Top shape: 1 1 1 2 (2)
I0102 20:40:04.501117 10922 net.cpp:160]     with loss weight 1
I0102 20:40:04.501121 10922 net.cpp:165] Memory required for data: 1708366572
I0102 20:40:04.501124 10922 layer_factory.hpp:77] Creating layer detection_accuracy_3_7x7
I0102 20:40:04.501130 10922 net.cpp:100] Creating Layer detection_accuracy_3_7x7
I0102 20:40:04.501133 10922 net.cpp:434] detection_accuracy_3_7x7 <- LFCN_3_7x7_LFCN_3_7x7_0_split_1
I0102 20:40:04.501137 10922 net.cpp:434] detection_accuracy_3_7x7 <- label_3_7x7_data_6_split_1
I0102 20:40:04.501142 10922 net.cpp:408] detection_accuracy_3_7x7 -> accuracy_3_7x7
I0102 20:40:04.501147 10922 net.cpp:408] detection_accuracy_3_7x7 -> boxiou_3_7x7
I0102 20:40:04.501173 10922 net.cpp:150] Setting up detection_accuracy_3_7x7
I0102 20:40:04.501176 10922 net.cpp:157] Top shape: 1 1 1 2 (2)
I0102 20:40:04.501179 10922 net.cpp:157] Top shape: 1 1 1 1 (1)
I0102 20:40:04.501183 10922 net.cpp:165] Memory required for data: 1708366584
I0102 20:40:04.501185 10922 layer_factory.hpp:77] Creating layer pool6
I0102 20:40:04.501190 10922 net.cpp:100] Creating Layer pool6
I0102 20:40:04.501194 10922 net.cpp:434] pool6 <- conv6_3/linear/bn
I0102 20:40:04.501199 10922 net.cpp:408] pool6 -> pool6
I0102 20:40:04.501224 10922 net.cpp:150] Setting up pool6
I0102 20:40:04.501227 10922 net.cpp:157] Top shape: 1 320 12 12 (46080)
I0102 20:40:04.501230 10922 net.cpp:165] Memory required for data: 1708550904
I0102 20:40:04.501232 10922 layer_factory.hpp:77] Creating layer LFCN_4_5x5
I0102 20:40:04.501240 10922 net.cpp:100] Creating Layer LFCN_4_5x5
I0102 20:40:04.501242 10922 net.cpp:434] LFCN_4_5x5 <- pool6
I0102 20:40:04.501247 10922 net.cpp:408] LFCN_4_5x5 -> LFCN_4_5x5
I0102 20:40:04.504145 10922 net.cpp:150] Setting up LFCN_4_5x5
I0102 20:40:04.504156 10922 net.cpp:157] Top shape: 1 9 12 12 (1296)
I0102 20:40:04.504159 10922 net.cpp:165] Memory required for data: 1708556088
I0102 20:40:04.504165 10922 layer_factory.hpp:77] Creating layer LFCN_4_5x5_LFCN_4_5x5_0_split
I0102 20:40:04.504170 10922 net.cpp:100] Creating Layer LFCN_4_5x5_LFCN_4_5x5_0_split
I0102 20:40:04.504174 10922 net.cpp:434] LFCN_4_5x5_LFCN_4_5x5_0_split <- LFCN_4_5x5
I0102 20:40:04.504180 10922 net.cpp:408] LFCN_4_5x5_LFCN_4_5x5_0_split -> LFCN_4_5x5_LFCN_4_5x5_0_split_0
I0102 20:40:04.504186 10922 net.cpp:408] LFCN_4_5x5_LFCN_4_5x5_0_split -> LFCN_4_5x5_LFCN_4_5x5_0_split_1
I0102 20:40:04.504220 10922 net.cpp:150] Setting up LFCN_4_5x5_LFCN_4_5x5_0_split
I0102 20:40:04.504225 10922 net.cpp:157] Top shape: 1 9 12 12 (1296)
I0102 20:40:04.504230 10922 net.cpp:157] Top shape: 1 9 12 12 (1296)
I0102 20:40:04.504232 10922 net.cpp:165] Memory required for data: 1708566456
I0102 20:40:04.504235 10922 layer_factory.hpp:77] Creating layer detection_loss_4_5x5
I0102 20:40:04.504241 10922 net.cpp:100] Creating Layer detection_loss_4_5x5
I0102 20:40:04.504245 10922 net.cpp:434] detection_loss_4_5x5 <- LFCN_4_5x5_LFCN_4_5x5_0_split_0
I0102 20:40:04.504249 10922 net.cpp:434] detection_loss_4_5x5 <- label_4_5x5_data_7_split_0
I0102 20:40:04.504254 10922 net.cpp:408] detection_loss_4_5x5 -> loss_4_5x5
I0102 20:40:04.504261 10922 layer_factory.hpp:77] Creating layer detection_loss_4_5x5
I0102 20:40:04.504581 10922 net.cpp:150] Setting up detection_loss_4_5x5
I0102 20:40:04.504590 10922 net.cpp:157] Top shape: 1 1 1 2 (2)
I0102 20:40:04.504592 10922 net.cpp:160]     with loss weight 1
I0102 20:40:04.504597 10922 net.cpp:165] Memory required for data: 1708566464
I0102 20:40:04.504601 10922 layer_factory.hpp:77] Creating layer detection_accuracy_4_5x5
I0102 20:40:04.504606 10922 net.cpp:100] Creating Layer detection_accuracy_4_5x5
I0102 20:40:04.504609 10922 net.cpp:434] detection_accuracy_4_5x5 <- LFCN_4_5x5_LFCN_4_5x5_0_split_1
I0102 20:40:04.504614 10922 net.cpp:434] detection_accuracy_4_5x5 <- label_4_5x5_data_7_split_1
I0102 20:40:04.504621 10922 net.cpp:408] detection_accuracy_4_5x5 -> accuracy_4_5x5
I0102 20:40:04.504626 10922 net.cpp:408] detection_accuracy_4_5x5 -> boxiou_4_5x5
I0102 20:40:04.504655 10922 net.cpp:150] Setting up detection_accuracy_4_5x5
I0102 20:40:04.504660 10922 net.cpp:157] Top shape: 1 1 1 2 (2)
I0102 20:40:04.504664 10922 net.cpp:157] Top shape: 1 1 1 1 (1)
I0102 20:40:04.504667 10922 net.cpp:165] Memory required for data: 1708566476
I0102 20:40:04.504670 10922 net.cpp:228] detection_accuracy_4_5x5 does not need backward computation.
I0102 20:40:04.504673 10922 net.cpp:226] detection_loss_4_5x5 needs backward computation.
I0102 20:40:04.504678 10922 net.cpp:226] LFCN_4_5x5_LFCN_4_5x5_0_split needs backward computation.
I0102 20:40:04.504681 10922 net.cpp:226] LFCN_4_5x5 needs backward computation.
…
