…
    downsample_rate: 32
    downsample_rate: 32
    downsample_rate: 64
    coord_num: 4
    field_h: 60
    field_h: 84
    field_h: 120
    field_h: 168
    field_h: 240
    field_h: 336
    field_h: 480
    field_w: 60
    field_w: 84
    field_w: 120
    field_w: 168
    field_w: 240
    field_w: 336
    field_w: 480
    fg_threshold: 0.5
    resize_width: 1344
    resize_height: 768
    crop_width: 768
    crop_height: 768
    do_multiple_scale: true
    min_scale: 60
    max_scale: 480
    min_gt_height: 25
    shuffle: true
    output_gt_boxes: true
  }
}
layer {
  name: "conv1"
  type: "Convolution"
  bottom: "data"
  top: "conv1"
  param {
    lr_mult: 0.1
    decay_mult: 0.1
  }
  convolution_param {
    num_output: 32
    bias_term: false
    pad: 1
    kernel_size: 3
    stride: 2
    weight_filler {
      type: "msra"
    }
  }
}
layer {
  name: "conv1/bn"
  type: "BatchNorm"
  bottom: "conv1"
  top: "conv1"
  batch_norm_param {
    use_global_stats: false
    eps: 1e-05
  }
}
layer {
  name: "conv1/scale"
  type: "Scale"
  bottom: "conv1"
  top: "conv1"
  param {
    lr_mult: 0.1
    decay_mult: 0
  }
  param {
    lr_mult: 0.1
    decay_mult: 0
  }
  scale_param {
    filler {
      value: 1
    }
    bias_term: true
    bias_filler {
      value: 0
    }
  }
}
layer {
  name: "relu1"
  type: "ReLU"
  bottom: "conv1"
  top: "conv1"
}
layer {
  name: "conv2_1/dw"
  type: "Convolution"
  bottom: "conv1"
  top: "conv2_1/dw"
  param {
    lr_mult: 0.1
    decay_mult: 0.1
  }
  convolution_param {
    num_output: 32
    bias_term: false
    pad: 1
    kernel_size: 3
    group: 32
    stride: 1
    weight_filler {
      type: "msra"
    }
    engine: CAFFE
  }
}
layer {
  name: "conv2_1/dw/bn"
  type: "BatchNorm"
  bottom: "conv2_1/dw"
  top: "conv2_1/dw"
  batch_norm_param {
    use_global_stats: false
    eps: 1e-05
  }
}
layer {
  name: "conv2_1/dw/scale"
  type: "Scale"
  bottom: "conv2_1/dw"
  top: "conv2_1/dw"
  param {
    lr_mult: 0.1
    decay_mult: 0
  }
  param {
    lr_mult: 0.1
    decay_mult: 0
  }
  scale_param {
    filler {
      value: 1
    }
    bias_term: true
    bias_filler {
      value: 0
    }
  }
}
layer {
  name: "relu2_1/dw"
  type: "ReLU"
  bottom: "conv2_1/dw"
  top: "conv2_1/dw"
}
layer {
  name: "conv2_1/sep"
  type: "Convolution"
  bottom: "conv2_1/dw"
  top: "conv2_1/sep"
  param {
    lr_mult: 0.1
    decay_mult: 0.1
  }
  convolution_param {
    num_output: 64
    bias_term: false
    pad: 0
    kernel_size: 1
    stride: 1
    weight_filler {
      type: "msra"
    }
  }
}
layer {
  name: "conv2_1/sep/bn"
  type: "BatchNorm"
  bottom: "conv2_1/sep"
  top: "conv2_1/sep"
  batch_norm_param {
    use_global_stats: false
    eps: 1e-05
  }
}
layer {
  name: "conv2_1/sep/scale"
  type: "Scale"
  bottom: "conv2_1/sep"
  top: "conv2_1/sep"
  param {
    lr_mult: 0.1
    decay_mult: 0
  }
  param {
    lr_mult: 0.1
    decay_mult: 0
  }
  scale_param {
    filler {
      value: 1
    }
    bias_term: true
    bias_filler {
      value: 0
    }
  }
}
layer {
  name: "relu2_1/sep"
  type: "ReLU"
  bottom: "conv2_1/sep"
  top: "conv2_1/sep"
}
layer {
  name: "conv2_2/dw"
  type: "Convolution"
  bottom: "conv2_1/sep"
  top: "conv2_2/dw"
  param {
    lr_mult: 0.1
    decay_mult: 0.1
  }
  convolution_param {
    num_output: 64
    bias_term: false
    pad: 1
    kernel_size: 3
    group: 64
    stride: 2
    weight_filler {
      type: "msra"
    }
    engine: CAFFE
  }
}
layer {
  name: "conv2_2/dw/bn"
  type: "BatchNorm"
  bottom: "conv2_2/dw"
  top: "conv2_2/dw"
  batch_norm_param {
    use_global_stats: false
    eps: 1e-05
  }
}
layer {
  name: "conv2_2/dw/scale"
  type: "Scale"
  bottom: "conv2_2/dw"
  top: "conv2_2/dw"
  param {
    lr_mult: 0.1
    decay_mult: 0
  }
  param {
    lr_mult: 0.1
    decay_mult: 0
  }
  scale_param {
    filler {
      value: 1
    }
    bias_term: true
    bias_filler {
      value: 0
    }
  }
}
layer {
  name: "relu2_2/dw"
  type: "ReLU"
  bottom: "conv2_2/dw"
  top: "conv2_2/dw"
}
layer {
  name: "conv2_2/sep"
  type: "Convolution"
  bottom: "conv2_2/dw"
  top: "conv2_2/sep"
  param {
    lr_mult: 0.1
    decay_mult: 0.1
  }
  convolution_param {
    num_output: 128
    bias_term: false
    pad: 0
    kernel_size: 1
    stride: 1
    weight_filler {
      type: "msra"
    }
  }
}
layer {
  name: "conv2_2/sep/bn"
  type: "BatchNorm"
  bottom: "conv2_2/sep"
  top: "conv2_2/sep"
  batch_norm_param {
    use_global_stats: false
    eps: 1e-05
  }
}
layer {
  name: "conv2_2/sep/scale"
  type: "Scale"
  bottom: "conv2_2/sep"
  top: "conv2_2/sep"
  param {
    lr_mult: 0.1
    decay_mult: 0
  }
  param {
    lr_mult: 0.1
    decay_mult: 0
  }
  scale_param {
    filler {
      value: 1
    }
    bias_term: true
    bias_filler {
      value: 0
    }
  }
}
layer {
  name: "relu2_2/sep"
  type: "ReLU"
  bottom: "conv2_2/sep"
  top: "conv2_2/sep"
}
layer {
  name: "conv3_1/dw"
  type: "Convolution"
  bottom: "conv2_2/sep"
  top: "conv3_1/dw"
  param {
    lr_mult: 1
    decay_mult: 1
  }
  convolution_param {
    num_output: 128
    bias_term: false
    pad: 1
    kernel_size: 3
    group: 128
    stride: 1
    weight_filler {
      type: "msra"
    }
    engine: CAFFE
  }
}
layer {
  name: "conv3_1/dw/bn"
  type: "BatchNorm"
  bottom: "conv3_1/dw"
  top: "conv3_1/dw"
  batch_norm_param {
    use_global_stats: false
    eps: 1e-05
  }
}
layer {
  name: "conv3_1/dw/scale"
  type: "Scale"
  bottom: "conv3_1/dw"
  top: "conv3_1/dw"
  param {
    lr_mult: 1
    decay_mult: 0
  }
  param {
    lr_mult: 1
    decay_mult: 0
  }
  scale_param {
    filler {
      value: 1
    }
    bias_term: true
    bias_filler {
      value: 0
    }
  }
}
layer {
  name: "relu3_1/dw"
  type: "ReLU"
  bottom: "conv3_1/dw"
  top: "conv3_1/dw"
}
layer {
  name: "conv3_1/sep"
  type: "Convolution"
  bottom: "conv3_1/dw"
  top: "conv3_1/sep"
  param {
    lr_mult: 1
    decay_mult: 1
  }
  convolution_param {
    num_output: 128
    bias_term: false
    pad: 0
    kernel_size: 1
    stride: 1
    weight_filler {
      type: "msra"
    }
  }
}
layer {
  name: "conv3_1/sep/bn"
  type: "BatchNorm"
  bottom: "conv3_1/sep"
  top: "conv3_1/sep"
  batch_norm_param {
    use_global_stats: false
    eps: 1e-05
  }
}
layer {
  name: "conv3_1/sep/scale"
  type: "Scale"
  bottom: "conv3_1/sep"
  top: "conv3_1/sep"
  param {
    lr_mult: 1
    decay_mult: 0
  }
  param {
    lr_mult: 1
    decay_mult: 0
  }
  scale_param {
    filler {
      value: 1
    }
    bias_term: true
    bias_filler {
      value: 0
    }
  }
}
layer {
  name: "relu3_1/sep"
  type: "ReLU"
  bottom: "conv3_1/sep"
  top: "conv3_1/sep"
}
layer {
  name: "conv3_2/dw"
  type: "Convolution"
  bottom: "conv3_1/sep"
  top: "conv3_2/dw"
  param {
    lr_mult: 1
    decay_mult: 1
  }
  convolution_param {
    num_output: 128
    bias_term: false
    pad: 1
    kernel_size: 3
    group: 128
    stride: 2
    weight_filler {
      type: "msra"
    }
    engine: CAFFE
  }
}
layer {
  name: "conv3_2/dw/bn"
  type: "BatchNorm"
  bottom: "conv3_2/dw"
  top: "conv3_2/dw"
  batch_norm_param {
    use_global_stats: false
    eps: 1e-05
  }
}
layer {
  name: "conv3_2/dw/scale"
  type: "Scale"
  bottom: "conv3_2/dw"
  top: "conv3_2/dw"
  param {
    lr_mult: 1
    decay_mult: 0
  }
  param {
    lr_mult: 1
    decay_mult: 0
  }
  scale_param {
    filler {
      value: 1
    }
    bias_term: true
    bias_filler {
      value: 0
    }
  }
}
layer {
  name: "relu3_2/dw"
  type: "ReLU"
  bottom: "conv3_2/dw"
  top: "conv3_2/dw"
}
layer {
  name: "conv3_2/sep"
  type: "Convolution"
  bottom: "conv3_2/dw"
  top: "conv3_2/sep"
  param {
    lr_mult: 1
    decay_mult: 1
  }
  convolution_param {
    num_output: 256
    bias_term: false
    pad: 0
    kernel_size: 1
    stride: 1
    weight_filler {
      type: "msra"
    }
  }
}
layer {
  name: "conv3_2/sep/bn"
  type: "BatchNorm"
  bottom: "conv3_2/sep"
  top: "conv3_2/sep"
  batch_norm_param {
    use_global_stats: false
    eps: 1e-05
  }
}
layer {
  name: "conv3_2/sep/scale"
  type: "Scale"
  bottom: "conv3_2/sep"
  top: "conv3_2/sep"
  param {
    lr_mult: 1
    decay_mult: 0
  }
  param {
    lr_mult: 1
    decay_mult: 0
  }
  scale_param {
    filler {
      value: 1
    }
    bias_term: true
    bias_filler {
      value: 0
    }
  }
}
layer {
  name: "relu3_2/sep"
  type: "ReLU"
  bottom: "conv3_2/sep"
  top: "conv3_2/sep"
}
layer {
  name: "conv4_1/dw"
  type: "Convolution"
  bottom: "conv3_2/sep"
  top: "conv4_1/dw"
  param {
    lr_mult: 1
    decay_mult: 1
  }
  convolution_param {
    num_output: 256
    bias_term: false
    pad: 1
    kernel_size: 3
    group: 256
    stride: 1
    weight_filler {
      type: "msra"
    }
    engine: CAFFE
  }
}
layer {
  name: "conv4_1/dw/bn"
  type: "BatchNorm"
  bottom: "conv4_1/dw"
  top: "conv4_1/dw"
  batch_norm_param {
    use_global_stats: false
    eps: 1e-05
  }
}
layer {
  name: "conv4_1/dw/scale"
  type: "Scale"
  bottom: "conv4_1/dw"
  top: "conv4_1/dw"
  param {
    lr_mult: 1
    decay_mult: 0
  }
  param {
    lr_mult: 1
    decay_mult: 0
  }
  scale_param {
    filler {
      value: 1
    }
    bias_term: true
    bias_filler {
      value: 0
    }
  }
}
layer {
  name: "relu4_1/dw"
  type: "ReLU"
  bottom: "conv4_1/dw"
  top: "conv4_1/dw"
}
layer {
  name: "conv4_1/sep"
  type: "Convolution"
  bottom: "conv4_1/dw"
  top: "conv4_1/sep"
  param {
    lr_mult: 1
    decay_mult: 1
  }
  convolution_param {
    num_output: 256
    bias_term: false
    pad: 0
    kernel_size: 1
    stride: 1
    weight_filler {
      type: "msra"
    }
  }
}
layer {
  name: "conv4_1/sep/bn"
  type: "BatchNorm"
  bottom: "conv4_1/sep"
  top: "conv4_1/sep"
  batch_norm_param {
    use_global_stats: false
    eps: 1e-05
  }
}
layer {
  name: "conv4_1/sep/scale"
  type: "Scale"
  bottom: "conv4_1/sep"
  top: "conv4_1/sep"
  param {
    lr_mult: 1
    decay_mult: 0
  }
  param {
    lr_mult: 1
    decay_mult: 0
  }
  scale_param {
    filler {
      value: 1
    }
    bias_term: true
    bias_filler {
      value: 0
    }
  }
}
layer {
  name: "relu4_1/sep"
  type: "ReLU"
  bottom: "conv4_1/sep"
  top: "conv4_1/sep"
}
layer {
  name: "loss1_conv1"
  type: "Convolution"
  bottom: "conv4_1/sep"
  top: "loss1_conv1"
  param {
    lr_mult: 1
    decay_mult: 1
  }
  param {
    lr_mult: 2
    decay_mult: 0
  }
  convolution_param {
    num_output: 512
    pad: 1
    kernel_size: 3
    weight_filler {
      type: "gaussian"
      std: 0.01
    }
    bias_filler {
      type: "constant"
    }
  }
}
layer {
  name: "loss_relu1"
  type: "ReLU"
  bottom: "loss1_conv1"
  top: "loss1_conv1"
}
layer {
  name: "LFCN_1_5x5"
  type: "Convolution"
  bottom: "loss1_conv1"
  top: "LFCN_1_5x5"
  param {
    lr_mult: 1
    decay_mult: 1
  }
  param {
    lr_mult: 2
    decay_mult: 0
  }
  convolution_param {
    num_output: 9
    pad: 2
    kernel_size: 5
    weight_filler {
      type: "gaussian"
      std: 0.001
    }
    bias_filler {
      type: "constant"
    }
  }
}
layer {
  name: "detection_loss_1_5x5"
  type: "DetectionLoss"
  bottom: "LFCN_1_5x5"
  bottom: "label_1_5x5"
  top: "loss_1_5x5"
  loss_weight: 0.9
  detection_loss_param {
    cls_num: 5
    coord_num: 4
    lambda: 1
    field_h: 60
    field_w: 60
    downsample_rate: 8
    bb_smooth: true
    field_whr: 2
    field_xyr: 2
    bg_threshold: 0.2
    bg_multiple: 2
    sample_mode: "bootstrap"
    pos_neg_weighted: true
  }
}
layer {
  name: "detection_accuracy_1_5x5"
  type: "DetectionAccuracy"
  bottom: "LFCN_1_5x5"
  bottom: "label_1_5x5"
  top: "accuracy_1_5x5"
  top: "boxiou_1_5x5"
  detection_accuracy_param {
    cls_num: 5
    coord_num: 4
    field_h: 60
    field_w: 60
    downsample_rate: 8
    field_whr: 2
    field_xyr: 2
  }
}
layer {
  name: "LFCN_1_7x7"
  type: "Convolution"
  bottom: "loss1_conv1"
  top: "LFCN_1_7x7"
  param {
    lr_mult: 1
    decay_mult: 1
  }
  param {
    lr_mult: 2
    decay_mult: 0
  }
  convolution_param {
    num_output: 9
    pad: 3
    kernel_size: 7
    weight_filler {
      type: "gaussian"
      std: 0.001
    }
    bias_filler {
      type: "constant"
    }
  }
}
layer {
  name: "detection_loss_1_7x7"
  type: "DetectionLoss"
  bottom: "LFCN_1_7x7"
  bottom: "label_1_7x7"
  top: "loss_1_7x7"
  loss_weight: 0.9
  detection_loss_param {
    cls_num: 5
    coord_num: 4
    lambda: 1
    field_h: 84
    field_w: 84
    downsample_rate: 8
    bb_smooth: true
    field_whr: 2
    field_xyr: 2
    bg_threshold: 0.2
    bg_multiple: 2
    sample_mode: "bootstrap"
    pos_neg_weighted: true
  }
}
layer {
  name: "detection_accuracy_1_7x7"
  type: "DetectionAccuracy"
  bottom: "LFCN_1_7x7"
  bottom: "label_1_7x7"
  top: "accuracy_1_7x7"
  top: "boxiou_1_7x7"
  detection_accuracy_param {
    cls_num: 5
    coord_num: 4
    field_h: 84
    field_w: 84
    downsample_rate: 8
    field_whr: 2
    field_xyr: 2
  }
}
layer {
  name: "conv4_2/dw"
  type: "Convolution"
  bottom: "conv4_1/sep"
  top: "conv4_2/dw"
  param {
    lr_mult: 1
    decay_mult: 1
  }
  convolution_param {
    num_output: 256
    bias_term: false
    pad: 1
    kernel_size: 3
    group: 256
    stride: 2
    weight_filler {
      type: "msra"
    }
    engine: CAFFE
  }
}
layer {
  name: "conv4_2/dw/bn"
  type: "BatchNorm"
  bottom: "conv4_2/dw"
  top: "conv4_2/dw"
  batch_norm_param {
    use_global_stats: false
    eps: 1e-05
  }
}
layer {
  name: "conv4_2/dw/scale"
  type: "Scale"
  bottom: "conv4_2/dw"
  top: "conv4_2/dw"
  param {
    lr_mult: 1
    decay_mult: 0
  }
  param {
    lr_mult: 1
    decay_mult: 0
  }
  scale_param {
    filler {
      value: 1
    }
    bias_term: true
    bias_filler {
      value: 0
    }
  }
}
layer {
  name: "relu4_2/dw"
  type: "ReLU"
  bottom: "conv4_2/dw"
  top: "conv4_2/dw"
}
layer {
  name: "conv4_2/sep"
  type: "Convolution"
  bottom: "conv4_2/dw"
  top: "conv4_2/sep"
  param {
    lr_mult: 1
    decay_mult: 1
  }
  convolution_param {
    num_output: 512
    bias_term: false
    pad: 0
    kernel_size: 1
    stride: 1
    weight_filler {
      type: "msra"
    }
  }
}
layer {
  name: "conv4_2/sep/bn"
  type: "BatchNorm"
  bottom: "conv4_2/sep"
  top: "conv4_2/sep"
  batch_norm_param {
    use_global_stats: false
    eps: 1e-05
  }
}
layer {
  name: "conv4_2/sep/scale"
  type: "Scale"
  bottom: "conv4_2/sep"
  top: "conv4_2/sep"
  param {
    lr_mult: 1
    decay_mult: 0
  }
  param {
    lr_mult: 1
    decay_mult: 0
  }
  scale_param {
    filler {
      value: 1
    }
    bias_term: true
    bias_filler {
      value: 0
    }
  }
}
layer {
  name: "relu4_2/sep"
  type: "ReLU"
  bottom: "conv4_2/sep"
  top: "conv4_2/sep"
}
layer {
  name: "conv5_1/dw"
  type: "Convolution"
  bottom: "conv4_2/sep"
  top: "conv5_1/dw"
  param {
    lr_mult: 1
    decay_mult: 1
  }
  convolution_param {
    num_output: 512
    bias_term: false
    pad: 1
    kernel_size: 3
    group: 512
    stride: 1
    weight_filler {
      type: "msra"
    }
    engine: CAFFE
  }
}
layer {
  name: "conv5_1/dw/bn"
  type: "BatchNorm"
  bottom: "conv5_1/dw"
  top: "conv5_1/dw"
  batch_norm_param {
    use_global_stats: false
    eps: 1e-05
  }
}
layer {
  name: "conv5_1/dw/scale"
  type: "Scale"
  bottom: "conv5_1/dw"
  top: "conv5_1/dw"
  param {
    lr_mult: 1
    decay_mult: 0
  }
  param {
    lr_mult: 1
    decay_mult: 0
  }
  scale_param {
    filler {
      value: 1
    }
    bias_term: true
    bias_filler {
      value: 0
    }
  }
}
layer {
  name: "relu5_1/dw"
  type: "ReLU"
  bottom: "conv5_1/dw"
  top: "conv5_1/dw"
}
layer {
  name: "conv5_1/sep"
  type: "Convolution"
  bottom: "conv5_1/dw"
  top: "conv5_1/sep"
  param {
    lr_mult: 1
    decay_mult: 1
  }
  convolution_param {
    num_output: 512
    bias_term: false
    pad: 0
    kernel_size: 1
    stride: 1
    weight_filler {
      type: "msra"
    }
  }
}
layer {
  name: "conv5_1/sep/bn"
  type: "BatchNorm"
  bottom: "conv5_1/sep"
  top: "conv5_1/sep"
  batch_norm_param {
    use_global_stats: false
    eps: 1e-05
  }
}
layer {
  name: "conv5_1/sep/scale"
  type: "Scale"
  bottom: "conv5_1/sep"
  top: "conv5_1/sep"
  param {
    lr_mult: 1
    decay_mult: 0
  }
  param {
    lr_mult: 1
    decay_mult: 0
  }
  scale_param {
    filler {
      value: 1
    }
    bias_term: true
    bias_filler {
      value: 0
    }
  }
}
layer {
  name: "relu5_1/sep"
  type: "ReLU"
  bottom: "conv5_1/sep"
  top: "conv5_1/sep"
}
layer {
  name: "conv5_2/dw"
  type: "Convolution"
  bottom: "conv5_1/sep"
  top: "conv5_2/dw"
  param {
    lr_mult: 1
    decay_mult: 1
  }
  convolution_param {
    num_output: 512
    bias_term: false
    pad: 1
    kernel_size: 3
    group: 512
    stride: 1
    weight_filler {
      type: "msra"
    }
    engine: CAFFE
  }
}
layer {
  name: "conv5_2/dw/bn"
  type: "BatchNorm"
  bottom: "conv5_2/dw"
  top: "conv5_2/dw"
  batch_norm_param {
    use_global_stats: false
    eps: 1e-05
  }
}
layer {
  name: "conv5_2/dw/scale"
  type: "Scale"
  bottom: "conv5_2/dw"
  top: "conv5_2/dw"
  param {
    lr_mult: 1
    decay_mult: 0
  }
  param {
    lr_mult: 1
    decay_mult: 0
  }
  scale_param {
    filler {
      value: 1
    }
    bias_term: true
    bias_filler {
      value: 0
    }
  }
}
layer {
  name: "relu5_2/dw"
  type: "ReLU"
  bottom: "conv5_2/dw"
  top: "conv5_2/dw"
}
layer {
  name: "conv5_2/sep"
  type: "Convolution"
  bottom: "conv5_2/dw"
  top: "conv5_2/sep"
  param {
    lr_mult: 1
    decay_mult: 1
  }
  convolution_param {
    num_output: 512
    bias_term: false
    pad: 0
    kernel_size: 1
    stride: 1
    weight_filler {
      type: "msra"
    }
  }
}
layer {
  name: "conv5_2/sep/bn"
  type: "BatchNorm"
  bottom: "conv5_2/sep"
  top: "conv5_2/sep"
  batch_norm_param {
    use_global_stats: false
    eps: 1e-05
  }
}
layer {
  name: "conv5_2/sep/scale"
  type: "Scale"
  bottom: "conv5_2/sep"
  top: "conv5_2/sep"
  param {
    lr_mult: 1
    decay_mult: 0
  }
  param {
    lr_mult: 1
    decay_mult: 0
  }
  scale_param {
    filler {
      value: 1
    }
    bias_term: true
    bias_filler {
      value: 0
    }
  }
}
layer {
  name: "relu5_2/sep"
  type: "ReLU"
  bottom: "conv5_2/sep"
  top: "conv5_2/sep"
}
layer {
  name: "conv5_3/dw"
  type: "Convolution"
  bottom: "conv5_2/sep"
  top: "conv5_3/dw"
  param {
    lr_mult: 1
    decay_mult: 1
  }
  convolution_param {
    num_output: 512
    bias_term: false
    pad: 1
    kernel_size: 3
    group: 512
    stride: 1
    weight_filler {
      type: "msra"
    }
    engine: CAFFE
  }
}
layer {
  name: "conv5_3/dw/bn"
  type: "BatchNorm"
  bottom: "conv5_3/dw"
  top: "conv5_3/dw"
  batch_norm_param {
    use_global_stats: false
    eps: 1e-05
  }
}
layer {
  name: "conv5_3/dw/scale"
  type: "Scale"
  bottom: "conv5_3/dw"
  top: "conv5_3/dw"
  param {
    lr_mult: 1
    decay_mult: 0
  }
  param {
    lr_mult: 1
    decay_mult: 0
  }
  scale_param {
    filler {
      value: 1
    }
    bias_term: true
    bias_filler {
      value: 0
    }
  }
}
layer {
  name: "relu5_3/dw"
  type: "ReLU"
  bottom: "conv5_3/dw"
  top: "conv5_3/dw"
}
layer {
  name: "conv5_3/sep"
  type: "Convolution"
  bottom: "conv5_3/dw"
  top: "conv5_3/sep"
  param {
    lr_mult: 1
    decay_mult: 1
  }
  convolution_param {
    num_output: 512
    bias_term: false
    pad: 0
    kernel_size: 1
    stride: 1
    weight_filler {
      type: "msra"
    }
  }
}
layer {
  name: "conv5_3/sep/bn"
  type: "BatchNorm"
  bottom: "conv5_3/sep"
  top: "conv5_3/sep"
  batch_norm_param {
    use_global_stats: false
    eps: 1e-05
  }
}
layer {
  name: "conv5_3/sep/scale"
  type: "Scale"
  bottom: "conv5_3/sep"
  top: "conv5_3/sep"
  param {
    lr_mult: 1
    decay_mult: 0
  }
  param {
    lr_mult: 1
    decay_mult: 0
  }
  scale_param {
    filler {
      value: 1
    }
    bias_term: true
    bias_filler {
      value: 0
    }
  }
}
layer {
  name: "relu5_3/sep"
  type: "ReLU"
  bottom: "conv5_3/sep"
  top: "conv5_3/sep"
}
layer {
  name: "conv5_4/dw"
  type: "Convolution"
  bottom: "conv5_3/sep"
  top: "conv5_4/dw"
  param {
    lr_mult: 1
    decay_mult: 1
  }
  convolution_param {
    num_output: 512
    bias_term: false
    pad: 1
    kernel_size: 3
    group: 512
    stride: 1
    weight_filler {
      type: "msra"
    }
    engine: CAFFE
  }
}
layer {
  name: "conv5_4/dw/bn"
  type: "BatchNorm"
  bottom: "conv5_4/dw"
  top: "conv5_4/dw"
  batch_norm_param {
    use_global_stats: false
    eps: 1e-05
  }
}
layer {
  name: "conv5_4/dw/scale"
  type: "Scale"
  bottom: "conv5_4/dw"
  top: "conv5_4/dw"
  param {
    lr_mult: 1
    decay_mult: 0
  }
  param {
    lr_mult: 1
    decay_mult: 0
  }
  scale_param {
    filler {
      value: 1
    }
    bias_term: true
    bias_filler {
      value: 0
    }
  }
}
layer {
  name: "relu5_4/dw"
  type: "ReLU"
  bottom: "conv5_4/dw"
  top: "conv5_4/dw"
}
layer {
  name: "conv5_4/sep"
  type: "Convolution"
  bottom: "conv5_4/dw"
  top: "conv5_4/sep"
  param {
    lr_mult: 1
    decay_mult: 1
  }
  convolution_param {
    num_output: 512
    bias_term: false
    pad: 0
    kernel_size: 1
    stride: 1
    weight_filler {
      type: "msra"
    }
  }
}
layer {
  name: "conv5_4/sep/bn"
  type: "BatchNorm"
  bottom: "conv5_4/sep"
  top: "conv5_4/sep"
  batch_norm_param {
    use_global_stats: false
    eps: 1e-05
  }
}
layer {
  name: "conv5_4/sep/scale"
  type: "Scale"
  bottom: "conv5_4/sep"
  top: "conv5_4/sep"
  param {
    lr_mult: 1
    decay_mult: 0
  }
  param {
    lr_mult: 1
    decay_mult: 0
  }
  scale_param {
    filler {
      value: 1
    }
    bias_term: true
    bias_filler {
      value: 0
    }
  }
}
layer {
  name: "relu5_4/sep"
  type: "ReLU"
  bottom: "conv5_4/sep"
  top: "conv5_4/sep"
}
layer {
  name: "conv5_5/dw"
  type: "Convolution"
  bottom: "conv5_4/sep"
  top: "conv5_5/dw"
  param {
    lr_mult: 1
    decay_mult: 1
  }
  convolution_param {
    num_output: 512
    bias_term: false
    pad: 1
    kernel_size: 3
    group: 512
    stride: 1
    weight_filler {
      type: "msra"
    }
    engine: CAFFE
  }
}
layer {
  name: "conv5_5/dw/bn"
  type: "BatchNorm"
  bottom: "conv5_5/dw"
  top: "conv5_5/dw"
  batch_norm_param {
    use_global_stats: false
    eps: 1e-05
  }
}
layer {
  name: "conv5_5/dw/scale"
  type: "Scale"
  bottom: "conv5_5/dw"
  top: "conv5_5/dw"
  param {
    lr_mult: 1
    decay_mult: 0
  }
  param {
    lr_mult: 1
    decay_mult: 0
  }
  scale_param {
    filler {
      value: 1
    }
    bias_term: true
    bias_filler {
      value: 0
    }
  }
}
layer {
  name: "relu5_5/dw"
  type: "ReLU"
  bottom: "conv5_5/dw"
  top: "conv5_5/dw"
}
layer {
  name: "conv5_5/sep"
  type: "Convolution"
  bottom: "conv5_5/dw"
  top: "conv5_5/sep"
  param {
    lr_mult: 1
    decay_mult: 1
  }
  convolution_param {
    num_output: 512
    bias_term: false
    pad: 0
    kernel_size: 1
    stride: 1
    weight_filler {
      type: "msra"
    }
  }
}
layer {
  name: "conv5_5/sep/bn"
  type: "BatchNorm"
  bottom: "conv5_5/sep"
  top: "conv5_5/sep"
  batch_norm_param {
    use_global_stats: false
    eps: 1e-05
  }
}
layer {
  name: "conv5_5/sep/scale"
  type: "Scale"
  bottom: "conv5_5/sep"
  top: "conv5_5/sep"
  param {
    lr_mult: 1
    decay_mult: 0
  }
  param {
    lr_mult: 1
    decay_mult: 0
  }
  scale_param {
    filler {
      value: 1
    }
    bias_term: true
    bias_filler {
      value: 0
    }
  }
}
layer {
  name: "relu5_5/sep"
  type: "ReLU"
  bottom: "conv5_5/sep"
  top: "conv5_5/sep"
}
layer {
  name: "LFCN_2_5x5"
  type: "Convolution"
  bottom: "conv5_5/sep"
  top: "LFCN_2_5x5"
  param {
    lr_mult: 1
    decay_mult: 1
  }
  param {
    lr_mult: 2
    decay_mult: 0
  }
  convolution_param {
    num_output: 9
    pad: 2
    kernel_size: 5
    weight_filler {
      type: "gaussian"
      std: 0.001
    }
    bias_filler {
      type: "constant"
    }
  }
}
layer {
  name: "detection_loss_2_5x5"
  type: "DetectionLoss"
  bottom: "LFCN_2_5x5"
  bottom: "label_2_5x5"
  top: "loss_2_5x5"
  detection_loss_param {
    cls_num: 5
    coord_num: 4
    lambda: 1
    field_h: 120
    field_w: 120
    downsample_rate: 16
    bb_smooth: true
    field_whr: 2
    field_xyr: 2
    bg_threshold: 0.2
    bg_multiple: 2
    sample_mode: "bootstrap"
    pos_neg_weighted: true
  }
}
layer {
  name: "detection_accuracy_2_5x5"
  type: "DetectionAccuracy"
  bottom: "LFCN_2_5x5"
  bottom: "label_2_5x5"
  top: "accuracy_2_5x5"
  top: "boxiou_2_5x5"
  detection_accuracy_param {
    cls_num: 5
    coord_num: 4
    field_h: 120
    field_w: 120
    downsample_rate: 16
    field_whr: 2
    field_xyr: 2
  }
}
layer {
  name: "LFCN_2_7x7"
  type: "Convolution"
  bottom: "conv5_5/sep"
  top: "LFCN_2_7x7"
  param {
    lr_mult: 1
    decay_mult: 1
  }
  param {
    lr_mult: 2
    decay_mult: 0
  }
  convolution_param {
    num_output: 9
    pad: 3
    kernel_size: 7
    weight_filler {
      type: "gaussian"
      std: 0.001
    }
    bias_filler {
      type: "constant"
    }
  }
}
layer {
  name: "detection_loss_2_7x7"
  type: "DetectionLoss"
  bottom: "LFCN_2_7x7"
  bottom: "label_2_7x7"
  top: "loss_2_7x7"
  detection_loss_param {
    cls_num: 5
    coord_num: 4
    lambda: 1
    field_h: 168
    field_w: 168
    downsample_rate: 16
    bb_smooth: true
    field_whr: 2
    field_xyr: 2
    bg_threshold: 0.2
    bg_multiple: 2
    sample_mode: "bootstrap"
    pos_neg_weighted: true
  }
}
layer {
  name: "detection_accuracy_2_7x7"
  type: "DetectionAccuracy"
  bottom: "LFCN_2_7x7"
  bottom: "label_2_7x7"
  top: "accuracy_2_7x7"
  top: "boxiou_2_7x7"
  detection_accuracy_param {
    cls_num: 5
    coord_num: 4
    field_h: 168
    field_w: 168
    downsample_rate: 16
    field_whr: 2
    field_xyr: 2
  }
}
layer {
  name: "conv5_6/dw"
  type: "Convolution"
  bottom: "conv5_5/sep"
  top: "conv5_6/dw"
  param {
    lr_mult: 1
    decay_mult: 1
  }
  convolution_param {
    num_output: 512
    bias_term: false
    pad: 1
    kernel_size: 3
    group: 512
    stride: 2
    weight_filler {
      type: "msra"
    }
    engine: CAFFE
  }
}
layer {
  name: "conv5_6/dw/bn"
  type: "BatchNorm"
  bottom: "conv5_6/dw"
  top: "conv5_6/dw"
  batch_norm_param {
    use_global_stats: false
    eps: 1e-05
  }
}
layer {
  name: "conv5_6/dw/scale"
  type: "Scale"
  bottom: "conv5_6/dw"
  top: "conv5_6/dw"
  param {
    lr_mult: 1
    decay_mult: 0
  }
  param {
    lr_mult: 1
    decay_mult: 0
  }
  scale_param {
    filler {
      value: 1
    }
    bias_term: true
    bias_filler {
      value: 0
    }
  }
}
layer {
  name: "relu5_6/dw"
  type: "ReLU"
  bottom: "conv5_6/dw"
  top: "conv5_6/dw"
}
layer {
  name: "conv5_6/sep"
  type: "Convolution"
  bottom: "conv5_6/dw"
  top: "conv5_6/sep"
  param {
    lr_mult: 1
    decay_mult: 1
  }
  convolution_param {
    num_output: 1024
    bias_term: false
    pad: 0
    kernel_size: 1
    stride: 1
    weight_filler {
      type: "msra"
    }
  }
}
layer {
  name: "conv5_6/sep/bn"
  type: "BatchNorm"
  bottom: "conv5_6/sep"
  top: "conv5_6/sep"
  batch_norm_param {
    use_global_stats: false
    eps: 1e-05
  }
}
layer {
  name: "conv5_6/sep/scale"
  type: "Scale"
  bottom: "conv5_6/sep"
  top: "conv5_6/sep"
  param {
    lr_mult: 1
    decay_mult: 0
  }
  param {
    lr_mult: 1
    decay_mult: 0
  }
  scale_param {
    filler {
      value: 1
    }
    bias_term: true
    bias_filler {
      value: 0
    }
  }
}
layer {
  name: "relu5_6/sep"
  type: "ReLU"
  bottom: "conv5_6/sep"
  top: "conv5_6/sep"
}
layer {
  name: "conv6/dw"
  type: "Convolution"
  bottom: "conv5_6/sep"
  top: "conv6/dw"
  param {
    lr_mult: 1
    decay_mult: 1
  }
  convolution_param {
    num_output: 1024
    bias_term: false
    pad: 1
    kernel_size: 3
    group: 1024
    stride: 1
    weight_filler {
      type: "msra"
    }
    engine: CAFFE
  }
}
layer {
  name: "conv6/dw/bn"
  type: "BatchNorm"
  bottom: "conv6/dw"
  top: "conv6/dw"
  batch_norm_param {
    use_global_stats: false
    eps: 1e-05
  }
}
layer {
  name: "conv6/dw/scale"
  type: "Scale"
  bottom: "conv6/dw"
  top: "conv6/dw"
  param {
    lr_mult: 1
    decay_mult: 0
  }
  param {
    lr_mult: 1
    decay_mult: 0
  }
  scale_param {
    filler {
      value: 1
    }
    bias_term: true
    bias_filler {
      value: 0
    }
  }
}
layer {
  name: "relu6/dw"
  type: "ReLU"
  bottom: "conv6/dw"
  top: "conv6/dw"
}
layer {
  name: "conv6/sep"
  type: "Convolution"
  bottom: "conv6/dw"
  top: "conv6/sep"
  param {
    lr_mult: 1
    decay_mult: 1
  }
  convolution_param {
    num_output: 1024
    bias_term: false
    pad: 0
    kernel_size: 1
    stride: 1
    weight_filler {
      type: "msra"
    }
  }
}
layer {
  name: "conv6/sep/bn"
  type: "BatchNorm"
  bottom: "conv6/sep"
  top: "conv6/sep"
  batch_norm_param {
    use_global_stats: false
    eps: 1e-05
  }
}
layer {
  name: "conv6/sep/scale"
  type: "Scale"
  bottom: "conv6/sep"
  top: "conv6/sep"
  param {
    lr_mult: 1
    decay_mult: 0
  }
  param {
    lr_mult: 1
    decay_mult: 0
  }
  scale_param {
    filler {
      value: 1
    }
    bias_term: true
    bias_filler {
      value: 0
    }
  }
}
layer {
  name: "relu6/sep"
  type: "ReLU"
  bottom: "conv6/sep"
  top: "conv6/sep"
}
layer {
  name: "LFCN_3_5x5"
  type: "Convolution"
  bottom: "conv6/sep"
  top: "LFCN_3_5x5"
  param {
    lr_mult: 1
    decay_mult: 1
  }
  par
I0107 23:04:20.309590  9127 layer_factory.hpp:77] Creating layer data
I0107 23:04:20.309633  9127 net.cpp:100] Creating Layer data
I0107 23:04:20.309640  9127 net.cpp:408] data -> data
I0107 23:04:20.309662  9127 net.cpp:408] data -> label_1_5x5
I0107 23:04:20.309672  9127 net.cpp:408] data -> label_1_7x7
I0107 23:04:20.309680  9127 net.cpp:408] data -> label_2_5x5
…
I0107 23:04:20.333585  9127 image_gt_data_layer.cpp:235] output label size 2 : 3,6,48,48
I0107 23:04:20.333618  9127 image_gt_data_layer.cpp:235] output label size 3 : 3,6,48,48
I0107 23:04:20.333655  9127 image_gt_data_layer.cpp:235] output label size 4 : 3,6,24,24
I0107 23:04:20.333690  9127 image_gt_data_layer.cpp:235] output label size 5 : 3,6,24,24
I0107 23:04:20.333732  9127 image_gt_data_layer.cpp:235] output label size 6 : 3,6,12,12
I0107 23:04:20.333779  9127 image_gt_data_layer.cpp:250] output gt boxes size: 1,7,1,1
I0107 23:04:20.378573  9127 net.cpp:150] Setting up data
I0107 23:04:20.378612  9127 net.cpp:157] Top shape: 3 3 768 768 (5308416)
I0107 23:04:20.378620  9127 net.cpp:157] Top shape: 3 6 96 96 (165888)
I0107 23:04:20.378626  9127 net.cpp:157] Top shape: 3 6 96 96 (165888)
I0107 23:04:20.378631  9127 net.cpp:157] Top shape: 3 6 48 48 (41472)
I0107 23:04:20.378638  9127 net.cpp:157] Top shape: 3 6 48 48 (41472)
I0107 23:04:20.378643  9127 net.cpp:157] Top shape: 3 6 24 24 (10368)
I0107 23:04:20.378648  9127 net.cpp:157] Top shape: 3 6 24 24 (10368)
I0107 23:04:20.378652  9127 net.cpp:157] Top shape: 3 6 12 12 (2592)
I0107 23:04:20.378657  9127 net.cpp:157] Top shape: 1 7 1 1 (7)
I0107 23:04:20.378661  9127 net.cpp:165] Memory required for data: 22985884
I0107 23:04:20.378672  9127 layer_factory.hpp:77] Creating layer label_1_5x5_data_1_split
I0107 23:04:20.378696  9127 net.cpp:100] Creating Layer label_1_5x5_data_1_split
I0107 23:04:20.378705  9127 net.cpp:434] label_1_5x5_data_1_split <- label_1_5x5
I0107 23:04:20.378718  9127 net.cpp:408] label_1_5x5_data_1_split -> label_1_5x5_data_1_split_0
I0107 23:04:20.378728  9127 net.cpp:408] label_1_5x5_data_1_split -> label_1_5x5_data_1_split_1
I0107 23:04:20.378865  9127 net.cpp:150] Setting up label_1_5x5_data_1_split
I0107 23:04:20.378911  9127 net.cpp:157] Top shape: 3 6 96 96 (165888)
I0107 23:04:20.378926  9127 net.cpp:157] Top shape: 3 6 96 96 (165888)
I0107 23:04:20.378934  9127 net.cpp:165] Memory required for data: 24312988
I0107 23:04:20.378947  9127 layer_factory.hpp:77] Creating layer label_1_7x7_data_2_split
I0107 23:04:20.378969  9127 net.cpp:100] Creating Layer label_1_7x7_data_2_split
I0107 23:04:20.378981  9127 net.cpp:434] label_1_7x7_data_2_split <- label_1_7x7
I0107 23:04:20.378998  9127 net.cpp:408] label_1_7x7_data_2_split -> label_1_7x7_data_2_split_0
I0107 23:04:20.379016  9127 net.cpp:408] label_1_7x7_data_2_split -> label_1_7x7_data_2_split_1
I0107 23:04:20.379101  9127 net.cpp:150] Setting up label_1_7x7_data_2_split
I0107 23:04:20.379114  9127 net.cpp:157] Top shape: 3 6 96 96 (165888)
I0107 23:04:20.379125  9127 net.cpp:157] Top shape: 3 6 96 96 (165888)
I0107 23:04:20.379133  9127 net.cpp:165] Memory required for data: 25640092
I0107 23:04:20.379142  9127 layer_factory.hpp:77] Creating layer label_2_5x5_data_3_split
I0107 23:04:20.379153  9127 net.cpp:100] Creating Layer label_2_5x5_data_3_split
I0107 23:04:20.379163  9127 net.cpp:434] label_2_5x5_data_3_split <- label_2_5x5
I0107 23:04:20.379174  9127 net.cpp:408] label_2_5x5_data_3_split -> label_2_5x5_data_3_split_0
I0107 23:04:20.379189  9127 net.cpp:408] label_2_5x5_data_3_split -> label_2_5x5_data_3_split_1
I0107 23:04:20.379258  9127 net.cpp:150] Setting up label_2_5x5_data_3_split
I0107 23:04:20.379272  9127 net.cpp:157] Top shape: 3 6 48 48 (41472)
I0107 23:04:20.379282  9127 net.cpp:157] Top shape: 3 6 48 48 (41472)
I0107 23:04:20.379290  9127 net.cpp:165] Memory required for data: 25971868
I0107 23:04:20.379298  9127 layer_factory.hpp:77] Creating layer label_2_7x7_data_4_split
I0107 23:04:20.379313  9127 net.cpp:100] Creating Layer label_2_7x7_data_4_split
I0107 23:04:20.379323  9127 net.cpp:434] label_2_7x7_data_4_split <- label_2_7x7
I0107 23:04:20.379335  9127 net.cpp:408] label_2_7x7_data_4_split -> label_2_7x7_data_4_split_0
I0107 23:04:20.379348  9127 net.cpp:408] label_2_7x7_data_4_split -> label_2_7x7_data_4_split_1
I0107 23:04:20.379418  9127 net.cpp:150] Setting up label_2_7x7_data_4_split
I0107 23:04:20.379432  9127 net.cpp:157] Top shape: 3 6 48 48 (41472)
I0107 23:04:20.379446  9127 net.cpp:157] Top shape: 3 6 48 48 (41472)
I0107 23:04:20.379456  9127 net.cpp:165] Memory required for data: 26303644
I0107 23:04:20.379463  9127 layer_factory.hpp:77] Creating layer label_3_5x5_data_5_split
I0107 23:04:20.379473  9127 net.cpp:100] Creating Layer label_3_5x5_data_5_split
I0107 23:04:20.379482  9127 net.cpp:434] label_3_5x5_data_5_split <- label_3_5x5
I0107 23:04:20.379492  9127 net.cpp:408] label_3_5x5_data_5_split -> label_3_5x5_data_5_split_0
I0107 23:04:20.379505  9127 net.cpp:408] label_3_5x5_data_5_split -> label_3_5x5_data_5_split_1
I0107 23:04:20.379566  9127 net.cpp:150] Setting up label_3_5x5_data_5_split
I0107 23:04:20.379580  9127 net.cpp:157] Top shape: 3 6 24 24 (10368)
I0107 23:04:20.379590  9127 net.cpp:157] Top shape: 3 6 24 24 (10368)
I0107 23:04:20.379598  9127 net.cpp:165] Memory required for data: 26386588
I0107 23:04:20.379606  9127 layer_factory.hpp:77] Creating layer label_3_7x7_data_6_split
I0107 23:04:20.379616  9127 net.cpp:100] Creating Layer label_3_7x7_data_6_split
I0107 23:04:20.379626  9127 net.cpp:434] label_3_7x7_data_6_split <- label_3_7x7
I0107 23:04:20.379638  9127 net.cpp:408] label_3_7x7_data_6_split -> label_3_7x7_data_6_split_0
I0107 23:04:20.379653  9127 net.cpp:408] label_3_7x7_data_6_split -> label_3_7x7_data_6_split_1
I0107 23:04:20.379714  9127 net.cpp:150] Setting up label_3_7x7_data_6_split
I0107 23:04:20.379730  9127 net.cpp:157] Top shape: 3 6 24 24 (10368)
I0107 23:04:20.379742  9127 net.cpp:157] Top shape: 3 6 24 24 (10368)
I0107 23:04:20.379750  9127 net.cpp:165] Memory required for data: 26469532
I0107 23:04:20.379757  9127 layer_factory.hpp:77] Creating layer label_4_5x5_data_7_split
I0107 23:04:20.379768  9127 net.cpp:100] Creating Layer label_4_5x5_data_7_split
I0107 23:04:20.379778  9127 net.cpp:434] label_4_5x5_data_7_split <- label_4_5x5
I0107 23:04:20.379788  9127 net.cpp:408] label_4_5x5_data_7_split -> label_4_5x5_data_7_split_0
I0107 23:04:20.379801  9127 net.cpp:408] label_4_5x5_data_7_split -> label_4_5x5_data_7_split_1
I0107 23:04:20.379866  9127 net.cpp:150] Setting up label_4_5x5_data_7_split
I0107 23:04:20.379880  9127 net.cpp:157] Top shape: 3 6 12 12 (2592)
I0107 23:04:20.379890  9127 net.cpp:157] Top shape: 3 6 12 12 (2592)
I0107 23:04:20.379899  9127 net.cpp:165] Memory required for data: 26490268
I0107 23:04:20.379906  9127 layer_factory.hpp:77] Creating layer conv1
I0107 23:04:20.379937  9127 net.cpp:100] Creating Layer conv1
I0107 23:04:20.379947  9127 net.cpp:434] conv1 <- data
I0107 23:04:20.379961  9127 net.cpp:408] conv1 -> conv1
I0107 23:04:20.624538  9127 net.cpp:150] Setting up conv1
I0107 23:04:20.624568  9127 net.cpp:157] Top shape: 3 32 384 384 (14155776)
I0107 23:04:20.624572  9127 net.cpp:165] Memory required for data: 83113372
I0107 23:04:20.624585  9127 layer_factory.hpp:77] Creating layer conv1/bn
I0107 23:04:20.624603  9127 net.cpp:100] Creating Layer conv1/bn
I0107 23:04:20.624606  9127 net.cpp:434] conv1/bn <- conv1
I0107 23:04:20.624611  9127 net.cpp:395] conv1/bn -> conv1 (in-place)
I0107 23:04:20.625622  9127 net.cpp:150] Setting up conv1/bn
I0107 23:04:20.625634  9127 net.cpp:157] Top shape: 3 32 384 384 (14155776)
I0107 23:04:20.625638  9127 net.cpp:165] Memory required for data: 139736476
I0107 23:04:20.625649  9127 layer_factory.hpp:77] Creating layer conv1/scale
I0107 23:04:20.625660  9127 net.cpp:100] Creating Layer conv1/scale
I0107 23:04:20.625663  9127 net.cpp:434] conv1/scale <- conv1
I0107 23:04:20.625669  9127 net.cpp:395] conv1/scale -> conv1 (in-place)
I0107 23:04:20.625727  9127 layer_factory.hpp:77] Creating layer conv1/scale
I0107 23:04:20.625957  9127 net.cpp:150] Setting up conv1/scale
I0107 23:04:20.625965  9127 net.cpp:157] Top shape: 3 32 384 384 (14155776)
I0107 23:04:20.625968  9127 net.cpp:165] Memory required for data: 196359580
I0107 23:04:20.625975  9127 layer_factory.hpp:77] Creating layer relu1
I0107 23:04:20.625983  9127 net.cpp:100] Creating Layer relu1
I0107 23:04:20.625988  9127 net.cpp:434] relu1 <- conv1
I0107 23:04:20.625993  9127 net.cpp:395] relu1 -> conv1 (in-place)
I0107 23:04:20.626183  9127 net.cpp:150] Setting up relu1
I0107 23:04:20.626194  9127 net.cpp:157] Top shape: 3 32 384 384 (14155776)
I0107 23:04:20.626199  9127 net.cpp:165] Memory required for data: 252982684
I0107 23:04:20.626202  9127 layer_factory.hpp:77] Creating layer conv2_1/dw
I0107 23:04:20.626214  9127 net.cpp:100] Creating Layer conv2_1/dw
I0107 23:04:20.626219  9127 net.cpp:434] conv2_1/dw <- conv1
I0107 23:04:20.626226  9127 net.cpp:408] conv2_1/dw -> conv2_1/dw
I0107 23:04:20.626405  9127 net.cpp:150] Setting up conv2_1/dw
I0107 23:04:20.626411  9127 net.cpp:157] Top shape: 3 32 384 384 (14155776)
I0107 23:04:20.626415  9127 net.cpp:165] Memory required for data: 309605788
I0107 23:04:20.626420  9127 layer_factory.hpp:77] Creating layer conv2_1/dw/bn
I0107 23:04:20.626425  9127 net.cpp:100] Creating Layer conv2_1/dw/bn
I0107 23:04:20.626428  9127 net.cpp:434] conv2_1/dw/bn <- conv2_1/dw
I0107 23:04:20.626433  9127 net.cpp:395] conv2_1/dw/bn -> conv2_1/dw (in-place)
I0107 23:04:20.627383  9127 net.cpp:150] Setting up conv2_1/dw/bn
I0107 23:04:20.627395  9127 net.cpp:157] Top shape: 3 32 384 384 (14155776)
I0107 23:04:20.627399  9127 net.cpp:165] Memory required for data: 366228892
I0107 23:04:20.627409  9127 layer_factory.hpp:77] Creating layer conv2_1/dw/scale
I0107 23:04:20.627418  9127 net.cpp:100] Creating Layer conv2_1/dw/scale
I0107 23:04:20.627420  9127 net.cpp:434] conv2_1/dw/scale <- conv2_1/dw
I0107 23:04:20.627425  9127 net.cpp:395] conv2_1/dw/scale -> conv2_1/dw (in-place)
I0107 23:04:20.627458  9127 layer_factory.hpp:77] Creating layer conv2_1/dw/scale
I0107 23:04:20.627683  9127 net.cpp:150] Setting up conv2_1/dw/scale
I0107 23:04:20.627691  9127 net.cpp:157] Top shape: 3 32 384 384 (14155776)
I0107 23:04:20.627694  9127 net.cpp:165] Memory required for data: 422851996
I0107 23:04:20.627701  9127 layer_factory.hpp:77] Creating layer relu2_1/dw
I0107 23:04:20.627707  9127 net.cpp:100] Creating Layer relu2_1/dw
I0107 23:04:20.627710  9127 net.cpp:434] relu2_1/dw <- conv2_1/dw
I0107 23:04:20.627714  9127 net.cpp:395] relu2_1/dw -> conv2_1/dw (in-place)
I0107 23:04:20.627871  9127 net.cpp:150] Setting up relu2_1/dw
I0107 23:04:20.627880  9127 net.cpp:157] Top shape: 3 32 384 384 (14155776)
I0107 23:04:20.627883  9127 net.cpp:165] Memory required for data: 479475100
I0107 23:04:20.627887  9127 layer_factory.hpp:77] Creating layer conv2_1/sep
I0107 23:04:20.627897  9127 net.cpp:100] Creating Layer conv2_1/sep
I0107 23:04:20.627902  9127 net.cpp:434] conv2_1/sep <- conv2_1/dw
I0107 23:04:20.627908  9127 net.cpp:408] conv2_1/sep -> conv2_1/sep
I0107 23:04:20.629094  9127 net.cpp:150] Setting up conv2_1/sep
I0107 23:04:20.629107  9127 net.cpp:157] Top shape: 3 64 384 384 (28311552)
I0107 23:04:20.629112  9127 net.cpp:165] Memory required for data: 592721308
I0107 23:04:20.629117  9127 layer_factory.hpp:77] Creating layer conv2_1/sep/bn
I0107 23:04:20.629123  9127 net.cpp:100] Creating Layer conv2_1/sep/bn
I0107 23:04:20.629127  9127 net.cpp:434] conv2_1/sep/bn <- conv2_1/sep
I0107 23:04:20.629132  9127 net.cpp:395] conv2_1/sep/bn -> conv2_1/sep (in-place)
I0107 23:04:20.630100  9127 net.cpp:150] Setting up conv2_1/sep/bn
I0107 23:04:20.630117  9127 net.cpp:157] Top shape: 3 64 384 384 (28311552)
I0107 23:04:20.630122  9127 net.cpp:165] Memory required for data: 705967516
I0107 23:04:20.630131  9127 layer_factory.hpp:77] Creating layer conv2_1/sep/scale
I0107 23:04:20.630141  9127 net.cpp:100] Creating Layer conv2_1/sep/scale
I0107 23:04:20.630146  9127 net.cpp:434] conv2_1/sep/scale <- conv2_1/sep
I0107 23:04:20.630151  9127 net.cpp:395] conv2_1/sep/scale -> conv2_1/sep (in-place)
I0107 23:04:20.630193  9127 layer_factory.hpp:77] Creating layer conv2_1/sep/scale
I0107 23:04:20.630450  9127 net.cpp:150] Setting up conv2_1/sep/scale
I0107 23:04:20.630458  9127 net.cpp:157] Top shape: 3 64 384 384 (28311552)
I0107 23:04:20.630461  9127 net.cpp:165] Memory required for data: 819213724
I0107 23:04:20.630471  9127 layer_factory.hpp:77] Creating layer relu2_1/sep
I0107 23:04:20.630477  9127 net.cpp:100] Creating Layer relu2_1/sep
I0107 23:04:20.630481  9127 net.cpp:434] relu2_1/sep <- conv2_1/sep
I0107 23:04:20.630486  9127 net.cpp:395] relu2_1/sep -> conv2_1/sep (in-place)
I0107 23:04:20.630645  9127 net.cpp:150] Setting up relu2_1/sep
I0107 23:04:20.630654  9127 net.cpp:157] Top shape: 3 64 384 384 (28311552)
I0107 23:04:20.630657  9127 net.cpp:165] Memory required for data: 932459932
I0107 23:04:20.630661  9127 layer_factory.hpp:77] Creating layer conv2_2/dw
I0107 23:04:20.630669  9127 net.cpp:100] Creating Layer conv2_2/dw
I0107 23:04:20.630672  9127 net.cpp:434] conv2_2/dw <- conv2_1/sep
I0107 23:04:20.630678  9127 net.cpp:408] conv2_2/dw -> conv2_2/dw
I0107 23:04:20.630848  9127 net.cpp:150] Setting up conv2_2/dw
I0107 23:04:20.630856  9127 net.cpp:157] Top shape: 3 64 192 192 (7077888)
I0107 23:04:20.630859  9127 net.cpp:165] Memory required for data: 960771484
I0107 23:04:20.630863  9127 layer_factory.hpp:77] Creating layer conv2_2/dw/bn
I0107 23:04:20.630869  9127 net.cpp:100] Creating Layer conv2_2/dw/bn
I0107 23:04:20.630873  9127 net.cpp:434] conv2_2/dw/bn <- conv2_2/dw
I0107 23:04:20.630878  9127 net.cpp:395] conv2_2/dw/bn -> conv2_2/dw (in-place)
I0107 23:04:20.631052  9127 net.cpp:150] Setting up conv2_2/dw/bn
I0107 23:04:20.631058  9127 net.cpp:157] Top shape: 3 64 192 192 (7077888)
I0107 23:04:20.631062  9127 net.cpp:165] Memory required for data: 989083036
I0107 23:04:20.631068  9127 layer_factory.hpp:77] Creating layer conv2_2/dw/scale
I0107 23:04:20.631074  9127 net.cpp:100] Creating Layer conv2_2/dw/scale
I0107 23:04:20.631079  9127 net.cpp:434] conv2_2/dw/scale <- conv2_2/dw
I0107 23:04:20.631084  9127 net.cpp:395] conv2_2/dw/scale -> conv2_2/dw (in-place)
I0107 23:04:20.631114  9127 layer_factory.hpp:77] Creating layer conv2_2/dw/scale
I0107 23:04:20.631242  9127 net.cpp:150] Setting up conv2_2/dw/scale
I0107 23:04:20.631250  9127 net.cpp:157] Top shape: 3 64 192 192 (7077888)
I0107 23:04:20.631253  9127 net.cpp:165] Memory required for data: 1017394588
I0107 23:04:20.631258  9127 layer_factory.hpp:77] Creating layer relu2_2/dw
I0107 23:04:20.631264  9127 net.cpp:100] Creating Layer relu2_2/dw
I0107 23:04:20.631268  9127 net.cpp:434] relu2_2/dw <- conv2_2/dw
I0107 23:04:20.631273  9127 net.cpp:395] relu2_2/dw -> conv2_2/dw (in-place)
I0107 23:04:20.631713  9127 net.cpp:150] Setting up relu2_2/dw
I0107 23:04:20.631726  9127 net.cpp:157] Top shape: 3 64 192 192 (7077888)
I0107 23:04:20.631729  9127 net.cpp:165] Memory required for data: 1045706140
I0107 23:04:20.631733  9127 layer_factory.hpp:77] Creating layer conv2_2/sep
I0107 23:04:20.631742  9127 net.cpp:100] Creating Layer conv2_2/sep
I0107 23:04:20.631747  9127 net.cpp:434] conv2_2/sep <- conv2_2/dw
I0107 23:04:20.631752  9127 net.cpp:408] conv2_2/sep -> conv2_2/sep
I0107 23:04:20.632818  9127 net.cpp:150] Setting up conv2_2/sep
I0107 23:04:20.632833  9127 net.cpp:157] Top shape: 3 128 192 192 (14155776)
I0107 23:04:20.632835  9127 net.cpp:165] Memory required for data: 1102329244
I0107 23:04:20.632840  9127 layer_factory.hpp:77] Creating layer conv2_2/sep/bn
I0107 23:04:20.632846  9127 net.cpp:100] Creating Layer conv2_2/sep/bn
I0107 23:04:20.632850  9127 net.cpp:434] conv2_2/sep/bn <- conv2_2/sep
I0107 23:04:20.632856  9127 net.cpp:395] conv2_2/sep/bn -> conv2_2/sep (in-place)
I0107 23:04:20.633036  9127 net.cpp:150] Setting up conv2_2/sep/bn
I0107 23:04:20.633044  9127 net.cpp:157] Top shape: 3 128 192 192 (14155776)
I0107 23:04:20.633047  9127 net.cpp:165] Memory required for data: 1158952348
I0107 23:04:20.633054  9127 layer_factory.hpp:77] Creating layer conv2_2/sep/scale
I0107 23:04:20.633060  9127 net.cpp:100] Creating Layer conv2_2/sep/scale
I0107 23:04:20.633064  9127 net.cpp:434] conv2_2/sep/scale <- conv2_2/sep
I0107 23:04:20.633069  9127 net.cpp:395] conv2_2/sep/scale -> conv2_2/sep (in-place)
I0107 23:04:20.633101  9127 layer_factory.hpp:77] Creating layer conv2_2/sep/scale
I0107 23:04:20.633322  9127 net.cpp:150] Setting up conv2_2/sep/scale
I0107 23:04:20.633330  9127 net.cpp:157] Top shape: 3 128 192 192 (14155776)
I0107 23:04:20.633333  9127 net.cpp:165] Memory required for data: 1215575452
I0107 23:04:20.633338  9127 layer_factory.hpp:77] Creating layer relu2_2/sep
I0107 23:04:20.633344  9127 net.cpp:100] Creating Layer relu2_2/sep
I0107 23:04:20.633347  9127 net.cpp:434] relu2_2/sep <- conv2_2/sep
I0107 23:04:20.633352  9127 net.cpp:395] relu2_2/sep -> conv2_2/sep (in-place)
I0107 23:04:20.633504  9127 net.cpp:150] Setting up relu2_2/sep
I0107 23:04:20.633512  9127 net.cpp:157] Top shape: 3 128 192 192 (14155776)
I0107 23:04:20.633515  9127 net.cpp:165] Memory required for data: 1272198556
I0107 23:04:20.633519  9127 layer_factory.hpp:77] Creating layer conv3_1/dw
I0107 23:04:20.633527  9127 net.cpp:100] Creating Layer conv3_1/dw
I0107 23:04:20.633533  9127 net.cpp:434] conv3_1/dw <- conv2_2/sep
I0107 23:04:20.633538  9127 net.cpp:408] conv3_1/dw -> conv3_1/dw
I0107 23:04:20.633734  9127 net.cpp:150] Setting up conv3_1/dw
I0107 23:04:20.633743  9127 net.cpp:157] Top shape: 3 128 192 192 (14155776)
I0107 23:04:20.633746  9127 net.cpp:165] Memory required for data: 1328821660
I0107 23:04:20.633750  9127 layer_factory.hpp:77] Creating layer conv3_1/dw/bn
I0107 23:04:20.633755  9127 net.cpp:100] Creating Layer conv3_1/dw/bn
I0107 23:04:20.633759  9127 net.cpp:434] conv3_1/dw/bn <- conv3_1/dw
I0107 23:04:20.633764  9127 net.cpp:395] conv3_1/dw/bn -> conv3_1/dw (in-place)
I0107 23:04:20.633936  9127 net.cpp:150] Setting up conv3_1/dw/bn
I0107 23:04:20.633944  9127 net.cpp:157] Top shape: 3 128 192 192 (14155776)
I0107 23:04:20.633946  9127 net.cpp:165] Memory required for data: 1385444764
I0107 23:04:20.633956  9127 layer_factory.hpp:77] Creating layer conv3_1/dw/scale
I0107 23:04:20.633965  9127 net.cpp:100] Creating Layer conv3_1/dw/scale
I0107 23:04:20.633968  9127 net.cpp:434] conv3_1/dw/scale <- conv3_1/dw
I0107 23:04:20.633976  9127 net.cpp:395] conv3_1/dw/scale -> conv3_1/dw (in-place)
I0107 23:04:20.634011  9127 layer_factory.hpp:77] Creating layer conv3_1/dw/scale
I0107 23:04:20.634909  9127 net.cpp:150] Setting up conv3_1/dw/scale
I0107 23:04:20.634922  9127 net.cpp:157] Top shape: 3 128 192 192 (14155776)
I0107 23:04:20.634925  9127 net.cpp:165] Memory required for data: 1442067868
I0107 23:04:20.634932  9127 layer_factory.hpp:77] Creating layer relu3_1/dw
I0107 23:04:20.634937  9127 net.cpp:100] Creating Layer relu3_1/dw
I0107 23:04:20.634941  9127 net.cpp:434] relu3_1/dw <- conv3_1/dw
I0107 23:04:20.634948  9127 net.cpp:395] relu3_1/dw -> conv3_1/dw (in-place)
I0107 23:04:20.635118  9127 net.cpp:150] Setting up relu3_1/dw
I0107 23:04:20.635128  9127 net.cpp:157] Top shape: 3 128 192 192 (14155776)
I0107 23:04:20.635130  9127 net.cpp:165] Memory required for data: 1498690972
I0107 23:04:20.635134  9127 layer_factory.hpp:77] Creating layer conv3_1/sep
I0107 23:04:20.635144  9127 net.cpp:100] Creating Layer conv3_1/sep
I0107 23:04:20.635149  9127 net.cpp:434] conv3_1/sep <- conv3_1/dw
I0107 23:04:20.635157  9127 net.cpp:408] conv3_1/sep -> conv3_1/sep
I0107 23:04:20.636507  9127 net.cpp:150] Setting up conv3_1/sep
I0107 23:04:20.636520  9127 net.cpp:157] Top shape: 3 128 192 192 (14155776)
I0107 23:04:20.636524  9127 net.cpp:165] Memory required for data: 1555314076
I0107 23:04:20.636529  9127 layer_factory.hpp:77] Creating layer conv3_1/sep/bn
I0107 23:04:20.636535  9127 net.cpp:100] Creating Layer conv3_1/sep/bn
I0107 23:04:20.636539  9127 net.cpp:434] conv3_1/sep/bn <- conv3_1/sep
I0107 23:04:20.636545  9127 net.cpp:395] conv3_1/sep/bn -> conv3_1/sep (in-place)
I0107 23:04:20.636729  9127 net.cpp:150] Setting up conv3_1/sep/bn
I0107 23:04:20.636735  9127 net.cpp:157] Top shape: 3 128 192 192 (14155776)
I0107 23:04:20.636739  9127 net.cpp:165] Memory required for data: 1611937180
I0107 23:04:20.636745  9127 layer_factory.hpp:77] Creating layer conv3_1/sep/scale
I0107 23:04:20.636752  9127 net.cpp:100] Creating Layer conv3_1/sep/scale
I0107 23:04:20.636755  9127 net.cpp:434] conv3_1/sep/scale <- conv3_1/sep
I0107 23:04:20.636760  9127 net.cpp:395] conv3_1/sep/scale -> conv3_1/sep (in-place)
I0107 23:04:20.636792  9127 layer_factory.hpp:77] Creating layer conv3_1/sep/scale
I0107 23:04:20.636914  9127 net.cpp:150] Setting up conv3_1/sep/scale
I0107 23:04:20.636920  9127 net.cpp:157] Top shape: 3 128 192 192 (14155776)
I0107 23:04:20.636924  9127 net.cpp:165] Memory required for data: 1668560284
I0107 23:04:20.636929  9127 layer_factory.hpp:77] Creating layer relu3_1/sep
I0107 23:04:20.636934  9127 net.cpp:100] Creating Layer relu3_1/sep
I0107 23:04:20.636937  9127 net.cpp:434] relu3_1/sep <- conv3_1/sep
I0107 23:04:20.636942  9127 net.cpp:395] relu3_1/sep -> conv3_1/sep (in-place)
I0107 23:04:20.637089  9127 net.cpp:150] Setting up relu3_1/sep
I0107 23:04:20.637099  9127 net.cpp:157] Top shape: 3 128 192 192 (14155776)
I0107 23:04:20.637101  9127 net.cpp:165] Memory required for data: 1725183388
I0107 23:04:20.637104  9127 layer_factory.hpp:77] Creating layer conv3_2/dw
I0107 23:04:20.637112  9127 net.cpp:100] Creating Layer conv3_2/dw
I0107 23:04:20.637117  9127 net.cpp:434] conv3_2/dw <- conv3_1/sep
I0107 23:04:20.637125  9127 net.cpp:408] conv3_2/dw -> conv3_2/dw
I0107 23:04:20.637315  9127 net.cpp:150] Setting up conv3_2/dw
I0107 23:04:20.637322  9127 net.cpp:157] Top shape: 3 128 96 96 (3538944)
I0107 23:04:20.637326  9127 net.cpp:165] Memory required for data: 1739339164
I0107 23:04:20.637329  9127 layer_factory.hpp:77] Creating layer conv3_2/dw/bn
I0107 23:04:20.637336  9127 net.cpp:100] Creating Layer conv3_2/dw/bn
I0107 23:04:20.637338  9127 net.cpp:434] conv3_2/dw/bn <- conv3_2/dw
I0107 23:04:20.637343  9127 net.cpp:395] conv3_2/dw/bn -> conv3_2/dw (in-place)
I0107 23:04:20.637501  9127 net.cpp:150] Setting up conv3_2/dw/bn
I0107 23:04:20.637507  9127 net.cpp:157] Top shape: 3 128 96 96 (3538944)
I0107 23:04:20.637511  9127 net.cpp:165] Memory required for data: 1753494940
I0107 23:04:20.637518  9127 layer_factory.hpp:77] Creating layer conv3_2/dw/scale
I0107 23:04:20.637526  9127 net.cpp:100] Creating Layer conv3_2/dw/scale
I0107 23:04:20.637529  9127 net.cpp:434] conv3_2/dw/scale <- conv3_2/dw
I0107 23:04:20.637533  9127 net.cpp:395] conv3_2/dw/scale -> conv3_2/dw (in-place)
I0107 23:04:20.637565  9127 layer_factory.hpp:77] Creating layer conv3_2/dw/scale
I0107 23:04:20.637682  9127 net.cpp:150] Setting up conv3_2/dw/scale
I0107 23:04:20.637689  9127 net.cpp:157] Top shape: 3 128 96 96 (3538944)
I0107 23:04:20.637692  9127 net.cpp:165] Memory required for data: 1767650716
I0107 23:04:20.637715  9127 layer_factory.hpp:77] Creating layer relu3_2/dw
I0107 23:04:20.637722  9127 net.cpp:100] Creating Layer relu3_2/dw
I0107 23:04:20.637725  9127 net.cpp:434] relu3_2/dw <- conv3_2/dw
I0107 23:04:20.637729  9127 net.cpp:395] relu3_2/dw -> conv3_2/dw (in-place)
I0107 23:04:20.637876  9127 net.cpp:150] Setting up relu3_2/dw
I0107 23:04:20.637886  9127 net.cpp:157] Top shape: 3 128 96 96 (3538944)
I0107 23:04:20.637888  9127 net.cpp:165] Memory required for data: 1781806492
I0107 23:04:20.637892  9127 layer_factory.hpp:77] Creating layer conv3_2/sep
I0107 23:04:20.637899  9127 net.cpp:100] Creating Layer conv3_2/sep
I0107 23:04:20.637904  9127 net.cpp:434] conv3_2/sep <- conv3_2/dw
I0107 23:04:20.637912  9127 net.cpp:408] conv3_2/sep -> conv3_2/sep
I0107 23:04:20.639700  9127 net.cpp:150] Setting up conv3_2/sep
I0107 23:04:20.639714  9127 net.cpp:157] Top shape: 3 256 96 96 (7077888)
I0107 23:04:20.639717  9127 net.cpp:165] Memory required for data: 1810118044
I0107 23:04:20.639722  9127 layer_factory.hpp:77] Creating layer conv3_2/sep/bn
I0107 23:04:20.639729  9127 net.cpp:100] Creating Layer conv3_2/sep/bn
I0107 23:04:20.639734  9127 net.cpp:434] conv3_2/sep/bn <- conv3_2/sep
I0107 23:04:20.639737  9127 net.cpp:395] conv3_2/sep/bn -> conv3_2/sep (in-place)
I0107 23:04:20.639904  9127 net.cpp:150] Setting up conv3_2/sep/bn
I0107 23:04:20.639910  9127 net.cpp:157] Top shape: 3 256 96 96 (7077888)
I0107 23:04:20.639914  9127 net.cpp:165] Memory required for data: 1838429596
I0107 23:04:20.639920  9127 layer_factory.hpp:77] Creating layer conv3_2/sep/scale
I0107 23:04:20.639927  9127 net.cpp:100] Creating Layer conv3_2/sep/scale
I0107 23:04:20.639930  9127 net.cpp:434] conv3_2/sep/scale <- conv3_2/sep
I0107 23:04:20.639935  9127 net.cpp:395] conv3_2/sep/scale -> conv3_2/sep (in-place)
I0107 23:04:20.639967  9127 layer_factory.hpp:77] Creating layer conv3_2/sep/scale
I0107 23:04:20.640092  9127 net.cpp:150] Setting up conv3_2/sep/scale
I0107 23:04:20.640100  9127 net.cpp:157] Top shape: 3 256 96 96 (7077888)
I0107 23:04:20.640103  9127 net.cpp:165] Memory required for data: 1866741148
I0107 23:04:20.640108  9127 layer_factory.hpp:77] Creating layer relu3_2/sep
I0107 23:04:20.640113  9127 net.cpp:100] Creating Layer relu3_2/sep
I0107 23:04:20.640117  9127 net.cpp:434] relu3_2/sep <- conv3_2/sep
I0107 23:04:20.640123  9127 net.cpp:395] relu3_2/sep -> conv3_2/sep (in-place)
I0107 23:04:20.640544  9127 net.cpp:150] Setting up relu3_2/sep
I0107 23:04:20.640558  9127 net.cpp:157] Top shape: 3 256 96 96 (7077888)
I0107 23:04:20.640560  9127 net.cpp:165] Memory required for data: 1895052700
I0107 23:04:20.640564  9127 layer_factory.hpp:77] Creating layer conv4_1/dw
I0107 23:04:20.640573  9127 net.cpp:100] Creating Layer conv4_1/dw
I0107 23:04:20.640578  9127 net.cpp:434] conv4_1/dw <- conv3_2/sep
I0107 23:04:20.640584  9127 net.cpp:408] conv4_1/dw -> conv4_1/dw
I0107 23:04:20.640805  9127 net.cpp:150] Setting up conv4_1/dw
I0107 23:04:20.640813  9127 net.cpp:157] Top shape: 3 256 96 96 (7077888)
I0107 23:04:20.640816  9127 net.cpp:165] Memory required for data: 1923364252
I0107 23:04:20.640821  9127 layer_factory.hpp:77] Creating layer conv4_1/dw/bn
I0107 23:04:20.640826  9127 net.cpp:100] Creating Layer conv4_1/dw/bn
I0107 23:04:20.640831  9127 net.cpp:434] conv4_1/dw/bn <- conv4_1/dw
I0107 23:04:20.640836  9127 net.cpp:395] conv4_1/dw/bn -> conv4_1/dw (in-place)
I0107 23:04:20.640997  9127 net.cpp:150] Setting up conv4_1/dw/bn
I0107 23:04:20.641005  9127 net.cpp:157] Top shape: 3 256 96 96 (7077888)
I0107 23:04:20.641007  9127 net.cpp:165] Memory required for data: 1951675804
I0107 23:04:20.641014  9127 layer_factory.hpp:77] Creating layer conv4_1/dw/scale
I0107 23:04:20.641021  9127 net.cpp:100] Creating Layer conv4_1/dw/scale
I0107 23:04:20.641024  9127 net.cpp:434] conv4_1/dw/scale <- conv4_1/dw
I0107 23:04:20.641031  9127 net.cpp:395] conv4_1/dw/scale -> conv4_1/dw (in-place)
I0107 23:04:20.641062  9127 layer_factory.hpp:77] Creating layer conv4_1/dw/scale
I0107 23:04:20.641177  9127 net.cpp:150] Setting up conv4_1/dw/scale
I0107 23:04:20.641187  9127 net.cpp:157] Top shape: 3 256 96 96 (7077888)
I0107 23:04:20.641191  9127 net.cpp:165] Memory required for data: 1979987356
I0107 23:04:20.641197  9127 layer_factory.hpp:77] Creating layer relu4_1/dw
I0107 23:04:20.641204  9127 net.cpp:100] Creating Layer relu4_1/dw
I0107 23:04:20.641208  9127 net.cpp:434] relu4_1/dw <- conv4_1/dw
I0107 23:04:20.641214  9127 net.cpp:395] relu4_1/dw -> conv4_1/dw (in-place)
I0107 23:04:20.641386  9127 net.cpp:150] Setting up relu4_1/dw
I0107 23:04:20.641394  9127 net.cpp:157] Top shape: 3 256 96 96 (7077888)
I0107 23:04:20.641397  9127 net.cpp:165] Memory required for data: 2008298908
I0107 23:04:20.641400  9127 layer_factory.hpp:77] Creating layer conv4_1/sep
I0107 23:04:20.641408  9127 net.cpp:100] Creating Layer conv4_1/sep
I0107 23:04:20.641413  9127 net.cpp:434] conv4_1/sep <- conv4_1/dw
I0107 23:04:20.641419  9127 net.cpp:408] conv4_1/sep -> conv4_1/sep
I0107 23:04:20.643975  9127 net.cpp:150] Setting up conv4_1/sep
I0107 23:04:20.643988  9127 net.cpp:157] Top shape: 3 256 96 96 (7077888)
I0107 23:04:20.643991  9127 net.cpp:165] Memory required for data: 2036610460
I0107 23:04:20.643997  9127 layer_factory.hpp:77] Creating layer conv4_1/sep/bn
I0107 23:04:20.644002  9127 net.cpp:100] Creating Layer conv4_1/sep/bn
I0107 23:04:20.644006  9127 net.cpp:434] conv4_1/sep/bn <- conv4_1/sep
I0107 23:04:20.644012  9127 net.cpp:395] conv4_1/sep/bn -> conv4_1/sep (in-place)
I0107 23:04:20.644182  9127 net.cpp:150] Setting up conv4_1/sep/bn
I0107 23:04:20.644189  9127 net.cpp:157] Top shape: 3 256 96 96 (7077888)
I0107 23:04:20.644193  9127 net.cpp:165] Memory required for data: 2064922012
I0107 23:04:20.644199  9127 layer_factory.hpp:77] Creating layer conv4_1/sep/scale
I0107 23:04:20.644207  9127 net.cpp:100] Creating Layer conv4_1/sep/scale
I0107 23:04:20.644210  9127 net.cpp:434] conv4_1/sep/scale <- conv4_1/sep
I0107 23:04:20.644217  9127 net.cpp:395] conv4_1/sep/scale -> conv4_1/sep (in-place)
I0107 23:04:20.644249  9127 layer_factory.hpp:77] Creating layer conv4_1/sep/scale
I0107 23:04:20.644345  9127 net.cpp:150] Setting up conv4_1/sep/scale
I0107 23:04:20.644351  9127 net.cpp:157] Top shape: 3 256 96 96 (7077888)
I0107 23:04:20.644354  9127 net.cpp:165] Memory required for data: 2093233564
I0107 23:04:20.644368  9127 layer_factory.hpp:77] Creating layer relu4_1/sep
I0107 23:04:20.644374  9127 net.cpp:100] Creating Layer relu4_1/sep
I0107 23:04:20.644378  9127 net.cpp:434] relu4_1/sep <- conv4_1/sep
I0107 23:04:20.644382  9127 net.cpp:395] relu4_1/sep -> conv4_1/sep (in-place)
I0107 23:04:20.644536  9127 net.cpp:150] Setting up relu4_1/sep
I0107 23:04:20.644543  9127 net.cpp:157] Top shape: 3 256 96 96 (7077888)
I0107 23:04:20.644547  9127 net.cpp:165] Memory required for data: 2121545116
I0107 23:04:20.644551  9127 layer_factory.hpp:77] Creating layer conv4_1/sep_relu4_1/sep_0_split
I0107 23:04:20.644556  9127 net.cpp:100] Creating Layer conv4_1/sep_relu4_1/sep_0_split
I0107 23:04:20.644559  9127 net.cpp:434] conv4_1/sep_relu4_1/sep_0_split <- conv4_1/sep
I0107 23:04:20.644564  9127 net.cpp:408] conv4_1/sep_relu4_1/sep_0_split -> conv4_1/sep_relu4_1/sep_0_split_0
I0107 23:04:20.644572  9127 net.cpp:408] conv4_1/sep_relu4_1/sep_0_split -> conv4_1/sep_relu4_1/sep_0_split_1
I0107 23:04:20.644577  9127 net.cpp:408] conv4_1/sep_relu4_1/sep_0_split -> conv4_1/sep_relu4_1/sep_0_split_2
I0107 23:04:20.644620  9127 net.cpp:150] Setting up conv4_1/sep_relu4_1/sep_0_split
I0107 23:04:20.644628  9127 net.cpp:157] Top shape: 3 256 96 96 (7077888)
I0107 23:04:20.644632  9127 net.cpp:157] Top shape: 3 256 96 96 (7077888)
I0107 23:04:20.644635  9127 net.cpp:157] Top shape: 3 256 96 96 (7077888)
I0107 23:04:20.644639  9127 net.cpp:165] Memory required for data: 2206479772
I0107 23:04:20.644642  9127 layer_factory.hpp:77] Creating layer loss1_conv1
I0107 23:04:20.644650  9127 net.cpp:100] Creating Layer loss1_conv1
I0107 23:04:20.644654  9127 net.cpp:434] loss1_conv1 <- conv4_1/sep_relu4_1/sep_0_split_0
I0107 23:04:20.644660  9127 net.cpp:408] loss1_conv1 -> loss1_conv1
I0107 23:04:20.677819  9127 net.cpp:150] Setting up loss1_conv1
I0107 23:04:20.677846  9127 net.cpp:157] Top shape: 3 512 96 96 (14155776)
I0107 23:04:20.677850  9127 net.cpp:165] Memory required for data: 2263102876
I0107 23:04:20.677860  9127 layer_factory.hpp:77] Creating layer loss_relu1
I0107 23:04:20.677871  9127 net.cpp:100] Creating Layer loss_relu1
I0107 23:04:20.677876  9127 net.cpp:434] loss_relu1 <- loss1_conv1
I0107 23:04:20.677882  9127 net.cpp:395] loss_relu1 -> loss1_conv1 (in-place)
I0107 23:04:20.678050  9127 net.cpp:150] Setting up loss_relu1
I0107 23:04:20.678059  9127 net.cpp:157] Top shape: 3 512 96 96 (14155776)
I0107 23:04:20.678063  9127 net.cpp:165] Memory required for data: 2319725980
I0107 23:04:20.678066  9127 layer_factory.hpp:77] Creating layer loss1_conv1_loss_relu1_0_split
I0107 23:04:20.678072  9127 net.cpp:100] Creating Layer loss1_conv1_loss_relu1_0_split
I0107 23:04:20.678076  9127 net.cpp:434] loss1_conv1_loss_relu1_0_split <- loss1_conv1
I0107 23:04:20.678081  9127 net.cpp:408] loss1_conv1_loss_relu1_0_split -> loss1_conv1_loss_relu1_0_split_0
I0107 23:04:20.678087  9127 net.cpp:408] loss1_conv1_loss_relu1_0_split -> loss1_conv1_loss_relu1_0_split_1
I0107 23:04:20.678122  9127 net.cpp:150] Setting up loss1_conv1_loss_relu1_0_split
I0107 23:04:20.678129  9127 net.cpp:157] Top shape: 3 512 96 96 (14155776)
I0107 23:04:20.678133  9127 net.cpp:157] Top shape: 3 512 96 96 (14155776)
I0107 23:04:20.678136  9127 net.cpp:165] Memory required for data: 2432972188
I0107 23:04:20.678139  9127 layer_factory.hpp:77] Creating layer LFCN_1_5x5
I0107 23:04:20.678150  9127 net.cpp:100] Creating Layer LFCN_1_5x5
I0107 23:04:20.678153  9127 net.cpp:434] LFCN_1_5x5 <- loss1_conv1_loss_relu1_0_split_0
I0107 23:04:20.678160  9127 net.cpp:408] LFCN_1_5x5 -> LFCN_1_5x5
I0107 23:04:20.682832  9127 net.cpp:150] Setting up LFCN_1_5x5
I0107 23:04:20.682845  9127 net.cpp:157] Top shape: 3 9 96 96 (248832)
I0107 23:04:20.682849  9127 net.cpp:165] Memory required for data: 2433967516
I0107 23:04:20.682855  9127 layer_factory.hpp:77] Creating layer LFCN_1_5x5_LFCN_1_5x5_0_split
I0107 23:04:20.682862  9127 net.cpp:100] Creating Layer LFCN_1_5x5_LFCN_1_5x5_0_split
I0107 23:04:20.682865  9127 net.cpp:434] LFCN_1_5x5_LFCN_1_5x5_0_split <- LFCN_1_5x5
I0107 23:04:20.682873  9127 net.cpp:408] LFCN_1_5x5_LFCN_1_5x5_0_split -> LFCN_1_5x5_LFCN_1_5x5_0_split_0
I0107 23:04:20.682879  9127 net.cpp:408] LFCN_1_5x5_LFCN_1_5x5_0_split -> LFCN_1_5x5_LFCN_1_5x5_0_split_1
I0107 23:04:20.682884  9127 net.cpp:408] LFCN_1_5x5_LFCN_1_5x5_0_split -> LFCN_1_5x5_LFCN_1_5x5_0_split_2
I0107 23:04:20.682929  9127 net.cpp:150] Setting up LFCN_1_5x5_LFCN_1_5x5_0_split
I0107 23:04:20.682935  9127 net.cpp:157] Top shape: 3 9 96 96 (248832)
I0107 23:04:20.682940  9127 net.cpp:157] Top shape: 3 9 96 96 (248832)
I0107 23:04:20.682943  9127 net.cpp:157] Top shape: 3 9 96 96 (248832)
I0107 23:04:20.682946  9127 net.cpp:165] Memory required for data: 2436953500
I0107 23:04:20.682950  9127 layer_factory.hpp:77] Creating layer detection_loss_1_5x5
I0107 23:04:20.682961  9127 net.cpp:100] Creating Layer detection_loss_1_5x5
I0107 23:04:20.682965  9127 net.cpp:434] detection_loss_1_5x5 <- LFCN_1_5x5_LFCN_1_5x5_0_split_0
I0107 23:04:20.682970  9127 net.cpp:434] detection_loss_1_5x5 <- label_1_5x5_data_1_split_0
I0107 23:04:20.682976  9127 net.cpp:408] detection_loss_1_5x5 -> loss_1_5x5
I0107 23:04:20.682986  9127 layer_factory.hpp:77] Creating layer detection_loss_1_5x5
I0107 23:04:20.683524  9127 net.cpp:150] Setting up detection_loss_1_5x5
I0107 23:04:20.683533  9127 net.cpp:157] Top shape: 1 1 1 2 (2)
I0107 23:04:20.683537  9127 net.cpp:160]     with loss weight 0.9
I0107 23:04:20.683557  9127 net.cpp:165] Memory required for data: 2436953508
I0107 23:04:20.683560  9127 layer_factory.hpp:77] Creating layer detection_accuracy_1_5x5
I0107 23:04:20.683568  9127 net.cpp:100] Creating Layer detection_accuracy_1_5x5
I0107 23:04:20.683571  9127 net.cpp:434] detection_accuracy_1_5x5 <- LFCN_1_5x5_LFCN_1_5x5_0_split_1
I0107 23:04:20.683576  9127 net.cpp:434] detection_accuracy_1_5x5 <- label_1_5x5_data_1_split_1
I0107 23:04:20.683581  9127 net.cpp:408] detection_accuracy_1_5x5 -> accuracy_1_5x5
I0107 23:04:20.683589  9127 net.cpp:408] detection_accuracy_1_5x5 -> boxiou_1_5x5
I0107 23:04:20.683624  9127 net.cpp:150] Setting up detection_accuracy_1_5x5
I0107 23:04:20.683634  9127 net.cpp:157] Top shape: 1 1 1 2 (2)
I0107 23:04:20.683638  9127 net.cpp:157] Top shape: 1 1 1 1 (1)
I0107 23:04:20.683641  9127 net.cpp:165] Memory required for data: 2436953520
I0107 23:04:20.683645  9127 layer_factory.hpp:77] Creating layer LFCN_1_7x7
I0107 23:04:20.683653  9127 net.cpp:100] Creating Layer LFCN_1_7x7
I0107 23:04:20.683657  9127 net.cpp:434] LFCN_1_7x7 <- loss1_conv1_loss_relu1_0_split_1
I0107 23:04:20.683663  9127 net.cpp:408] LFCN_1_7x7 -> LFCN_1_7x7
I0107 23:04:20.690323  9127 net.cpp:150] Setting up LFCN_1_7x7
I0107 23:04:20.690337  9127 net.cpp:157] Top shape: 3 9 96 96 (248832)
I0107 23:04:20.690340  9127 net.cpp:165] Memory required for data: 2437948848
I0107 23:04:20.690347  9127 layer_factory.hpp:77] Creating layer LFCN_1_7x7_LFCN_1_7x7_0_split
I0107 23:04:20.690352  9127 net.cpp:100] Creating Layer LFCN_1_7x7_LFCN_1_7x7_0_split
I0107 23:04:20.690356  9127 net.cpp:434] LFCN_1_7x7_LFCN_1_7x7_0_split <- LFCN_1_7x7
I0107 23:04:20.690362  9127 net.cpp:408] LFCN_1_7x7_LFCN_1_7x7_0_split -> LFCN_1_7x7_LFCN_1_7x7_0_split_0
I0107 23:04:20.690369  9127 net.cpp:408] LFCN_1_7x7_LFCN_1_7x7_0_split -> LFCN_1_7x7_LFCN_1_7x7_0_split_1
I0107 23:04:20.690374  9127 net.cpp:408] LFCN_1_7x7_LFCN_1_7x7_0_split -> LFCN_1_7x7_LFCN_1_7x7_0_split_2
I0107 23:04:20.690425  9127 net.cpp:150] Setting up LFCN_1_7x7_LFCN_1_7x7_0_split
I0107 23:04:20.690433  9127 net.cpp:157] Top shape: 3 9 96 96 (248832)
I0107 23:04:20.690438  9127 net.cpp:157] Top shape: 3 9 96 96 (248832)
I0107 23:04:20.690441  9127 net.cpp:157] Top shape: 3 9 96 96 (248832)
I0107 23:04:20.690444  9127 net.cpp:165] Memory required for data: 2440934832
I0107 23:04:20.690448  9127 layer_factory.hpp:77] Creating layer detection_loss_1_7x7
I0107 23:04:20.690454  9127 net.cpp:100] Creating Layer detection_loss_1_7x7
I0107 23:04:20.690457  9127 net.cpp:434] detection_loss_1_7x7 <- LFCN_1_7x7_LFCN_1_7x7_0_split_0
I0107 23:04:20.690462  9127 net.cpp:434] detection_loss_1_7x7 <- label_1_7x7_data_2_split_0
I0107 23:04:20.690467  9127 net.cpp:408] detection_loss_1_7x7 -> loss_1_7x7
I0107 23:04:20.690475  9127 layer_factory.hpp:77] Creating layer detection_loss_1_7x7
I0107 23:04:20.691885  9127 net.cpp:150] Setting up detection_loss_1_7x7
I0107 23:04:20.691901  9127 net.cpp:157] Top shape: 1 1 1 2 (2)
I0107 23:04:20.691905  9127 net.cpp:160]     with loss weight 0.9
I0107 23:04:20.691915  9127 net.cpp:165] Memory required for data: 2440934840
I0107 23:04:20.691918  9127 layer_factory.hpp:77] Creating layer detection_accuracy_1_7x7
I0107 23:04:20.691926  9127 net.cpp:100] Creating Layer detection_accuracy_1_7x7
I0107 23:04:20.691931  9127 net.cpp:434] detection_accuracy_1_7x7 <- LFCN_1_7x7_LFCN_1_7x7_0_split_1
I0107 23:04:20.691936  9127 net.cpp:434] detection_accuracy_1_7x7 <- label_1_7x7_data_2_split_1
I0107 23:04:20.691941  9127 net.cpp:408] detection_accuracy_1_7x7 -> accuracy_1_7x7
I0107 23:04:20.691949  9127 net.cpp:408] detection_accuracy_1_7x7 -> boxiou_1_7x7
I0107 23:04:20.691983  9127 net.cpp:150] Setting up detection_accuracy_1_7x7
I0107 23:04:20.691989  9127 net.cpp:157] Top shape: 1 1 1 2 (2)
I0107 23:04:20.691993  9127 net.cpp:157] Top shape: 1 1 1 1 (1)
I0107 23:04:20.691996  9127 net.cpp:165] Memory required for data: 2440934852
I0107 23:04:20.691999  9127 layer_factory.hpp:77] Creating layer conv4_2/dw
I0107 23:04:20.692015  9127 net.cpp:100] Creating Layer conv4_2/dw
I0107 23:04:20.692020  9127 net.cpp:434] conv4_2/dw <- conv4_1/sep_relu4_1/sep_0_split_1
I0107 23:04:20.692028  9127 net.cpp:408] conv4_2/dw -> conv4_2/dw
I0107 23:04:20.692252  9127 net.cpp:150] Setting up conv4_2/dw
I0107 23:04:20.692260  9127 net.cpp:157] Top shape: 3 256 48 48 (1769472)
I0107 23:04:20.692263  9127 net.cpp:165] Memory required for data: 2448012740
I0107 23:04:20.692268  9127 layer_factory.hpp:77] Creating layer conv4_2/dw/bn
I0107 23:04:20.692275  9127 net.cpp:100] Creating Layer conv4_2/dw/bn
I0107 23:04:20.692278  9127 net.cpp:434] conv4_2/dw/bn <- conv4_2/dw
I0107 23:04:20.692282  9127 net.cpp:395] conv4_2/dw/bn -> conv4_2/dw (in-place)
I0107 23:04:20.692442  9127 net.cpp:150] Setting up conv4_2/dw/bn
I0107 23:04:20.692450  9127 net.cpp:157] Top shape: 3 256 48 48 (1769472)
I0107 23:04:20.692453  9127 net.cpp:165] Memory required for data: 2455090628
I0107 23:04:20.692461  9127 layer_factory.hpp:77] Creating layer conv4_2/dw/scale
I0107 23:04:20.692468  9127 net.cpp:100] Creating Layer conv4_2/dw/scale
I0107 23:04:20.692471  9127 net.cpp:434] conv4_2/dw/scale <- conv4_2/dw
I0107 23:04:20.692476  9127 net.cpp:395] conv4_2/dw/scale -> conv4_2/dw (in-place)
I0107 23:04:20.692512  9127 layer_factory.hpp:77] Creating layer conv4_2/dw/scale
I0107 23:04:20.692603  9127 net.cpp:150] Setting up conv4_2/dw/scale
I0107 23:04:20.692611  9127 net.cpp:157] Top shape: 3 256 48 48 (1769472)
I0107 23:04:20.692615  9127 net.cpp:165] Memory required for data: 2462168516
I0107 23:04:20.692620  9127 layer_factory.hpp:77] Creating layer relu4_2/dw
I0107 23:04:20.692625  9127 net.cpp:100] Creating Layer relu4_2/dw
I0107 23:04:20.692629  9127 net.cpp:434] relu4_2/dw <- conv4_2/dw
I0107 23:04:20.692634  9127 net.cpp:395] relu4_2/dw -> conv4_2/dw (in-place)
I0107 23:04:20.692803  9127 net.cpp:150] Setting up relu4_2/dw
I0107 23:04:20.692812  9127 net.cpp:157] Top shape: 3 256 48 48 (1769472)
I0107 23:04:20.692816  9127 net.cpp:165] Memory required for data: 2469246404
I0107 23:04:20.692819  9127 layer_factory.hpp:77] Creating layer conv4_2/sep
I0107 23:04:20.692827  9127 net.cpp:100] Creating Layer conv4_2/sep
I0107 23:04:20.692831  9127 net.cpp:434] conv4_2/sep <- conv4_2/dw
I0107 23:04:20.692836  9127 net.cpp:408] conv4_2/sep -> conv4_2/sep
I0107 23:04:20.697059  9127 net.cpp:150] Setting up conv4_2/sep
I0107 23:04:20.697072  9127 net.cpp:157] Top shape: 3 512 48 48 (3538944)
I0107 23:04:20.697077  9127 net.cpp:165] Memory required for data: 2483402180
I0107 23:04:20.697082  9127 layer_factory.hpp:77] Creating layer conv4_2/sep/bn
I0107 23:04:20.697088  9127 net.cpp:100] Creating Layer conv4_2/sep/bn
I0107 23:04:20.697093  9127 net.cpp:434] conv4_2/sep/bn <- conv4_2/sep
I0107 23:04:20.697098  9127 net.cpp:395] conv4_2/sep/bn -> conv4_2/sep (in-place)
I0107 23:04:20.697268  9127 net.cpp:150] Setting up conv4_2/sep/bn
I0107 23:04:20.697276  9127 net.cpp:157] Top shape: 3 512 48 48 (3538944)
I0107 23:04:20.697279  9127 net.cpp:165] Memory required for data: 2497557956
I0107 23:04:20.697286  9127 layer_factory.hpp:77] Creating layer conv4_2/sep/scale
I0107 23:04:20.697293  9127 net.cpp:100] Creating Layer conv4_2/sep/scale
I0107 23:04:20.697296  9127 net.cpp:434] conv4_2/sep/scale <- conv4_2/sep
I0107 23:04:20.697301  9127 net.cpp:395] conv4_2/sep/scale -> conv4_2/sep (in-place)
I0107 23:04:20.697331  9127 layer_factory.hpp:77] Creating layer conv4_2/sep/scale
I0107 23:04:20.697427  9127 net.cpp:150] Setting up conv4_2/sep/scale
I0107 23:04:20.697434  9127 net.cpp:157] Top shape: 3 512 48 48 (3538944)
I0107 23:04:20.697438  9127 net.cpp:165] Memory required for data: 2511713732
I0107 23:04:20.697443  9127 layer_factory.hpp:77] Creating layer relu4_2/sep
I0107 23:04:20.697450  9127 net.cpp:100] Creating Layer relu4_2/sep
I0107 23:04:20.697453  9127 net.cpp:434] relu4_2/sep <- conv4_2/sep
I0107 23:04:20.697458  9127 net.cpp:395] relu4_2/sep -> conv4_2/sep (in-place)
I0107 23:04:20.697608  9127 net.cpp:150] Setting up relu4_2/sep
I0107 23:04:20.697618  9127 net.cpp:157] Top shape: 3 512 48 48 (3538944)
I0107 23:04:20.697620  9127 net.cpp:165] Memory required for data: 2525869508
I0107 23:04:20.697623  9127 layer_factory.hpp:77] Creating layer conv5_1/dw
I0107 23:04:20.697631  9127 net.cpp:100] Creating Layer conv5_1/dw
I0107 23:04:20.697634  9127 net.cpp:434] conv5_1/dw <- conv4_2/sep
I0107 23:04:20.697640  9127 net.cpp:408] conv5_1/dw -> conv5_1/dw
I0107 23:04:20.697937  9127 net.cpp:150] Setting up conv5_1/dw
I0107 23:04:20.697947  9127 net.cpp:157] Top shape: 3 512 48 48 (3538944)
I0107 23:04:20.697949  9127 net.cpp:165] Memory required for data: 2540025284
I0107 23:04:20.697954  9127 layer_factory.hpp:77] Creating layer conv5_1/dw/bn
I0107 23:04:20.697959  9127 net.cpp:100] Creating Layer conv5_1/dw/bn
I0107 23:04:20.697962  9127 net.cpp:434] conv5_1/dw/bn <- conv5_1/dw
I0107 23:04:20.697968  9127 net.cpp:395] conv5_1/dw/bn -> conv5_1/dw (in-place)
I0107 23:04:20.698128  9127 net.cpp:150] Setting up conv5_1/dw/bn
I0107 23:04:20.698135  9127 net.cpp:157] Top shape: 3 512 48 48 (3538944)
I0107 23:04:20.698138  9127 net.cpp:165] Memory required for data: 2554181060
I0107 23:04:20.698145  9127 layer_factory.hpp:77] Creating layer conv5_1/dw/scale
I0107 23:04:20.698151  9127 net.cpp:100] Creating Layer conv5_1/dw/scale
I0107 23:04:20.698155  9127 net.cpp:434] conv5_1/dw/scale <- conv5_1/dw
I0107 23:04:20.698159  9127 net.cpp:395] conv5_1/dw/scale -> conv5_1/dw (in-place)
I0107 23:04:20.698189  9127 layer_factory.hpp:77] Creating layer conv5_1/dw/scale
I0107 23:04:20.698290  9127 net.cpp:150] Setting up conv5_1/dw/scale
I0107 23:04:20.698297  9127 net.cpp:157] Top shape: 3 512 48 48 (3538944)
I0107 23:04:20.698300  9127 net.cpp:165] Memory required for data: 2568336836
I0107 23:04:20.698305  9127 layer_factory.hpp:77] Creating layer relu5_1/dw
I0107 23:04:20.698312  9127 net.cpp:100] Creating Layer relu5_1/dw
I0107 23:04:20.698315  9127 net.cpp:434] relu5_1/dw <- conv5_1/dw
I0107 23:04:20.698320  9127 net.cpp:395] relu5_1/dw -> conv5_1/dw (in-place)
I0107 23:04:20.698470  9127 net.cpp:150] Setting up relu5_1/dw
I0107 23:04:20.698478  9127 net.cpp:157] Top shape: 3 512 48 48 (3538944)
I0107 23:04:20.698482  9127 net.cpp:165] Memory required for data: 2582492612
I0107 23:04:20.698485  9127 layer_factory.hpp:77] Creating layer conv5_1/sep
I0107 23:04:20.698493  9127 net.cpp:100] Creating Layer conv5_1/sep
I0107 23:04:20.698498  9127 net.cpp:434] conv5_1/sep <- conv5_1/dw
I0107 23:04:20.698503  9127 net.cpp:408] conv5_1/sep -> conv5_1/sep
I0107 23:04:20.708159  9127 net.cpp:150] Setting up conv5_1/sep
I0107 23:04:20.708189  9127 net.cpp:157] Top shape: 3 512 48 48 (3538944)
I0107 23:04:20.708194  9127 net.cpp:165] Memory required for data: 2596648388
I0107 23:04:20.708202  9127 layer_factory.hpp:77] Creating layer conv5_1/sep/bn
I0107 23:04:20.708215  9127 net.cpp:100] Creating Layer conv5_1/sep/bn
I0107 23:04:20.708221  9127 net.cpp:434] conv5_1/sep/bn <- conv5_1/sep
I0107 23:04:20.708230  9127 net.cpp:395] conv5_1/sep/bn -> conv5_1/sep (in-place)
I0107 23:04:20.708420  9127 net.cpp:150] Setting up conv5_1/sep/bn
I0107 23:04:20.708428  9127 net.cpp:157] Top shape: 3 512 48 48 (3538944)
I0107 23:04:20.708432  9127 net.cpp:165] Memory required for data: 2610804164
I0107 23:04:20.708439  9127 layer_factory.hpp:77] Creating layer conv5_1/sep/scale
I0107 23:04:20.708448  9127 net.cpp:100] Creating Layer conv5_1/sep/scale
I0107 23:04:20.708451  9127 net.cpp:434] conv5_1/sep/scale <- conv5_1/sep
I0107 23:04:20.708457  9127 net.cpp:395] conv5_1/sep/scale -> conv5_1/sep (in-place)
I0107 23:04:20.708492  9127 layer_factory.hpp:77] Creating layer conv5_1/sep/scale
I0107 23:04:20.708595  9127 net.cpp:150] Setting up conv5_1/sep/scale
I0107 23:04:20.708602  9127 net.cpp:157] Top shape: 3 512 48 48 (3538944)
I0107 23:04:20.708606  9127 net.cpp:165] Memory required for data: 2624959940
I0107 23:04:20.708611  9127 layer_factory.hpp:77] Creating layer relu5_1/sep
I0107 23:04:20.708618  9127 net.cpp:100] Creating Layer relu5_1/sep
I0107 23:04:20.708621  9127 net.cpp:434] relu5_1/sep <- conv5_1/sep
I0107 23:04:20.708626  9127 net.cpp:395] relu5_1/sep -> conv5_1/sep (in-place)
I0107 23:04:20.708783  9127 net.cpp:150] Setting up relu5_1/sep
I0107 23:04:20.708792  9127 net.cpp:157] Top shape: 3 512 48 48 (3538944)
I0107 23:04:20.708796  9127 net.cpp:165] Memory required for data: 2639115716
I0107 23:04:20.708798  9127 layer_factory.hpp:77] Creating layer conv5_2/dw
I0107 23:04:20.708808  9127 net.cpp:100] Creating Layer conv5_2/dw
I0107 23:04:20.708811  9127 net.cpp:434] conv5_2/dw <- conv5_1/sep
I0107 23:04:20.708818  9127 net.cpp:408] conv5_2/dw -> conv5_2/dw
I0107 23:04:20.709108  9127 net.cpp:150] Setting up conv5_2/dw
I0107 23:04:20.709116  9127 net.cpp:157] Top shape: 3 512 48 48 (3538944)
I0107 23:04:20.709120  9127 net.cpp:165] Memory required for data: 2653271492
I0107 23:04:20.709125  9127 layer_factory.hpp:77] Creating layer conv5_2/dw/bn
I0107 23:04:20.709130  9127 net.cpp:100] Creating Layer conv5_2/dw/bn
I0107 23:04:20.709133  9127 net.cpp:434] conv5_2/dw/bn <- conv5_2/dw
I0107 23:04:20.709138  9127 net.cpp:395] conv5_2/dw/bn -> conv5_2/dw (in-place)
I0107 23:04:20.709305  9127 net.cpp:150] Setting up conv5_2/dw/bn
I0107 23:04:20.709311  9127 net.cpp:157] Top shape: 3 512 48 48 (3538944)
I0107 23:04:20.709314  9127 net.cpp:165] Memory required for data: 2667427268
I0107 23:04:20.709321  9127 layer_factory.hpp:77] Creating layer conv5_2/dw/scale
I0107 23:04:20.709327  9127 net.cpp:100] Creating Layer conv5_2/dw/scale
I0107 23:04:20.709331  9127 net.cpp:434] conv5_2/dw/scale <- conv5_2/dw
I0107 23:04:20.709334  9127 net.cpp:395] conv5_2/dw/scale -> conv5_2/dw (in-place)
I0107 23:04:20.709365  9127 layer_factory.hpp:77] Creating layer conv5_2/dw/scale
I0107 23:04:20.709465  9127 net.cpp:150] Setting up conv5_2/dw/scale
I0107 23:04:20.709472  9127 net.cpp:157] Top shape: 3 512 48 48 (3538944)
I0107 23:04:20.709475  9127 net.cpp:165] Memory required for data: 2681583044
I0107 23:04:20.709481  9127 layer_factory.hpp:77] Creating layer relu5_2/dw
I0107 23:04:20.709486  9127 net.cpp:100] Creating Layer relu5_2/dw
I0107 23:04:20.709489  9127 net.cpp:434] relu5_2/dw <- conv5_2/dw
I0107 23:04:20.709496  9127 net.cpp:395] relu5_2/dw -> conv5_2/dw (in-place)
I0107 23:04:20.710233  9127 net.cpp:150] Setting up relu5_2/dw
I0107 23:04:20.710247  9127 net.cpp:157] Top shape: 3 512 48 48 (3538944)
I0107 23:04:20.710250  9127 net.cpp:165] Memory required for data: 2695738820
I0107 23:04:20.710255  9127 layer_factory.hpp:77] Creating layer conv5_2/sep
I0107 23:04:20.710263  9127 net.cpp:100] Creating Layer conv5_2/sep
I0107 23:04:20.710268  9127 net.cpp:434] conv5_2/sep <- conv5_2/dw
I0107 23:04:20.710274  9127 net.cpp:408] conv5_2/sep -> conv5_2/sep
I0107 23:04:20.719702  9127 net.cpp:150] Setting up conv5_2/sep
I0107 23:04:20.719761  9127 net.cpp:157] Top shape: 3 512 48 48 (3538944)
I0107 23:04:20.719766  9127 net.cpp:165] Memory required for data: 2709894596
I0107 23:04:20.719780  9127 layer_factory.hpp:77] Creating layer conv5_2/sep/bn
I0107 23:04:20.719805  9127 net.cpp:100] Creating Layer conv5_2/sep/bn
I0107 23:04:20.719815  9127 net.cpp:434] conv5_2/sep/bn <- conv5_2/sep
I0107 23:04:20.719822  9127 net.cpp:395] conv5_2/sep/bn -> conv5_2/sep (in-place)
I0107 23:04:20.720046  9127 net.cpp:150] Setting up conv5_2/sep/bn
I0107 23:04:20.720057  9127 net.cpp:157] Top shape: 3 512 48 48 (3538944)
I0107 23:04:20.720062  9127 net.cpp:165] Memory required for data: 2724050372
I0107 23:04:20.720072  9127 layer_factory.hpp:77] Creating layer conv5_2/sep/scale
I0107 23:04:20.720084  9127 net.cpp:100] Creating Layer conv5_2/sep/scale
I0107 23:04:20.720088  9127 net.cpp:434] conv5_2/sep/scale <- conv5_2/sep
I0107 23:04:20.720093  9127 net.cpp:395] conv5_2/sep/scale -> conv5_2/sep (in-place)
I0107 23:04:20.720136  9127 layer_factory.hpp:77] Creating layer conv5_2/sep/scale
I0107 23:04:20.720244  9127 net.cpp:150] Setting up conv5_2/sep/scale
I0107 23:04:20.720252  9127 net.cpp:157] Top shape: 3 512 48 48 (3538944)
I0107 23:04:20.720255  9127 net.cpp:165] Memory required for data: 2738206148
I0107 23:04:20.720261  9127 layer_factory.hpp:77] Creating layer relu5_2/sep
I0107 23:04:20.720271  9127 net.cpp:100] Creating Layer relu5_2/sep
I0107 23:04:20.720274  9127 net.cpp:434] relu5_2/sep <- conv5_2/sep
I0107 23:04:20.720279  9127 net.cpp:395] relu5_2/sep -> conv5_2/sep (in-place)
I0107 23:04:20.720451  9127 net.cpp:150] Setting up relu5_2/sep
I0107 23:04:20.720460  9127 net.cpp:157] Top shape: 3 512 48 48 (3538944)
I0107 23:04:20.720464  9127 net.cpp:165] Memory required for data: 2752361924
I0107 23:04:20.720468  9127 layer_factory.hpp:77] Creating layer conv5_3/dw
I0107 23:04:20.720476  9127 net.cpp:100] Creating Layer conv5_3/dw
I0107 23:04:20.720480  9127 net.cpp:434] conv5_3/dw <- conv5_2/sep
I0107 23:04:20.720486  9127 net.cpp:408] conv5_3/dw -> conv5_3/dw
I0107 23:04:20.720778  9127 net.cpp:150] Setting up conv5_3/dw
I0107 23:04:20.720787  9127 net.cpp:157] Top shape: 3 512 48 48 (3538944)
I0107 23:04:20.720789  9127 net.cpp:165] Memory required for data: 2766517700
I0107 23:04:20.720793  9127 layer_factory.hpp:77] Creating layer conv5_3/dw/bn
I0107 23:04:20.720799  9127 net.cpp:100] Creating Layer conv5_3/dw/bn
I0107 23:04:20.720803  9127 net.cpp:434] conv5_3/dw/bn <- conv5_3/dw
I0107 23:04:20.720808  9127 net.cpp:395] conv5_3/dw/bn -> conv5_3/dw (in-place)
I0107 23:04:20.720971  9127 net.cpp:150] Setting up conv5_3/dw/bn
I0107 23:04:20.720978  9127 net.cpp:157] Top shape: 3 512 48 48 (3538944)
I0107 23:04:20.720981  9127 net.cpp:165] Memory required for data: 2780673476
I0107 23:04:20.720988  9127 layer_factory.hpp:77] Creating layer conv5_3/dw/scale
I0107 23:04:20.720995  9127 net.cpp:100] Creating Layer conv5_3/dw/scale
I0107 23:04:20.720999  9127 net.cpp:434] conv5_3/dw/scale <- conv5_3/dw
I0107 23:04:20.721004  9127 net.cpp:395] conv5_3/dw/scale -> conv5_3/dw (in-place)
I0107 23:04:20.721035  9127 layer_factory.hpp:77] Creating layer conv5_3/dw/scale
I0107 23:04:20.721130  9127 net.cpp:150] Setting up conv5_3/dw/scale
I0107 23:04:20.721138  9127 net.cpp:157] Top shape: 3 512 48 48 (3538944)
I0107 23:04:20.721140  9127 net.cpp:165] Memory required for data: 2794829252
I0107 23:04:20.721146  9127 layer_factory.hpp:77] Creating layer relu5_3/dw
I0107 23:04:20.721153  9127 net.cpp:100] Creating Layer relu5_3/dw
I0107 23:04:20.721155  9127 net.cpp:434] relu5_3/dw <- conv5_3/dw
I0107 23:04:20.721160  9127 net.cpp:395] relu5_3/dw -> conv5_3/dw (in-place)
I0107 23:04:20.721310  9127 net.cpp:150] Setting up relu5_3/dw
I0107 23:04:20.721319  9127 net.cpp:157] Top shape: 3 512 48 48 (3538944)
I0107 23:04:20.721323  9127 net.cpp:165] Memory required for data: 2808985028
I0107 23:04:20.721325  9127 layer_factory.hpp:77] Creating layer conv5_3/sep
I0107 23:04:20.721334  9127 net.cpp:100] Creating Layer conv5_3/sep
I0107 23:04:20.721338  9127 net.cpp:434] conv5_3/sep <- conv5_3/dw
I0107 23:04:20.721344  9127 net.cpp:408] conv5_3/sep -> conv5_3/sep
I0107 23:04:20.729763  9127 net.cpp:150] Setting up conv5_3/sep
I0107 23:04:20.729780  9127 net.cpp:157] Top shape: 3 512 48 48 (3538944)
I0107 23:04:20.729784  9127 net.cpp:165] Memory required for data: 2823140804
I0107 23:04:20.729790  9127 layer_factory.hpp:77] Creating layer conv5_3/sep/bn
I0107 23:04:20.729797  9127 net.cpp:100] Creating Layer conv5_3/sep/bn
I0107 23:04:20.729801  9127 net.cpp:434] conv5_3/sep/bn <- conv5_3/sep
I0107 23:04:20.729809  9127 net.cpp:395] conv5_3/sep/bn -> conv5_3/sep (in-place)
I0107 23:04:20.729985  9127 net.cpp:150] Setting up conv5_3/sep/bn
I0107 23:04:20.729992  9127 net.cpp:157] Top shape: 3 512 48 48 (3538944)
I0107 23:04:20.729995  9127 net.cpp:165] Memory required for data: 2837296580
I0107 23:04:20.730002  9127 layer_factory.hpp:77] Creating layer conv5_3/sep/scale
I0107 23:04:20.730010  9127 net.cpp:100] Creating Layer conv5_3/sep/scale
I0107 23:04:20.730013  9127 net.cpp:434] conv5_3/sep/scale <- conv5_3/sep
I0107 23:04:20.730018  9127 net.cpp:395] conv5_3/sep/scale -> conv5_3/sep (in-place)
I0107 23:04:20.730051  9127 layer_factory.hpp:77] Creating layer conv5_3/sep/scale
I0107 23:04:20.730154  9127 net.cpp:150] Setting up conv5_3/sep/scale
I0107 23:04:20.730161  9127 net.cpp:157] Top shape: 3 512 48 48 (3538944)
I0107 23:04:20.730165  9127 net.cpp:165] Memory required for data: 2851452356
I0107 23:04:20.730170  9127 layer_factory.hpp:77] Creating layer relu5_3/sep
I0107 23:04:20.730176  9127 net.cpp:100] Creating Layer relu5_3/sep
I0107 23:04:20.730180  9127 net.cpp:434] relu5_3/sep <- conv5_3/sep
I0107 23:04:20.730185  9127 net.cpp:395] relu5_3/sep -> conv5_3/sep (in-place)
I0107 23:04:20.730340  9127 net.cpp:150] Setting up relu5_3/sep
I0107 23:04:20.730348  9127 net.cpp:157] Top shape: 3 512 48 48 (3538944)
I0107 23:04:20.730352  9127 net.cpp:165] Memory required for data: 2865608132
I0107 23:04:20.730355  9127 layer_factory.hpp:77] Creating layer conv5_4/dw
I0107 23:04:20.730363  9127 net.cpp:100] Creating Layer conv5_4/dw
I0107 23:04:20.730367  9127 net.cpp:434] conv5_4/dw <- conv5_3/sep
I0107 23:04:20.730373  9127 net.cpp:408] conv5_4/dw -> conv5_4/dw
I0107 23:04:20.730664  9127 net.cpp:150] Setting up conv5_4/dw
I0107 23:04:20.730674  9127 net.cpp:157] Top shape: 3 512 48 48 (3538944)
I0107 23:04:20.730679  9127 net.cpp:165] Memory required for data: 2879763908
I0107 23:04:20.730682  9127 layer_factory.hpp:77] Creating layer conv5_4/dw/bn
I0107 23:04:20.730687  9127 net.cpp:100] Creating Layer conv5_4/dw/bn
I0107 23:04:20.730691  9127 net.cpp:434] conv5_4/dw/bn <- conv5_4/dw
I0107 23:04:20.730696  9127 net.cpp:395] conv5_4/dw/bn -> conv5_4/dw (in-place)
I0107 23:04:20.730865  9127 net.cpp:150] Setting up conv5_4/dw/bn
I0107 23:04:20.730873  9127 net.cpp:157] Top shape: 3 512 48 48 (3538944)
I0107 23:04:20.730876  9127 net.cpp:165] Memory required for data: 2893919684
I0107 23:04:20.730883  9127 layer_factory.hpp:77] Creating layer conv5_4/dw/scale
I0107 23:04:20.730890  9127 net.cpp:100] Creating Layer conv5_4/dw/scale
I0107 23:04:20.730892  9127 net.cpp:434] conv5_4/dw/scale <- conv5_4/dw
I0107 23:04:20.730898  9127 net.cpp:395] conv5_4/dw/scale -> conv5_4/dw (in-place)
I0107 23:04:20.730928  9127 layer_factory.hpp:77] Creating layer conv5_4/dw/scale
I0107 23:04:20.731030  9127 net.cpp:150] Setting up conv5_4/dw/scale
I0107 23:04:20.731037  9127 net.cpp:157] Top shape: 3 512 48 48 (3538944)
I0107 23:04:20.731040  9127 net.cpp:165] Memory required for data: 2908075460
I0107 23:04:20.731046  9127 layer_factory.hpp:77] Creating layer relu5_4/dw
I0107 23:04:20.731052  9127 net.cpp:100] Creating Layer relu5_4/dw
I0107 23:04:20.731055  9127 net.cpp:434] relu5_4/dw <- conv5_4/dw
I0107 23:04:20.731060  9127 net.cpp:395] relu5_4/dw -> conv5_4/dw (in-place)
I0107 23:04:20.731495  9127 net.cpp:150] Setting up relu5_4/dw
I0107 23:04:20.731508  9127 net.cpp:157] Top shape: 3 512 48 48 (3538944)
I0107 23:04:20.731511  9127 net.cpp:165] Memory required for data: 2922231236
I0107 23:04:20.731515  9127 layer_factory.hpp:77] Creating layer conv5_4/sep
I0107 23:04:20.731524  9127 net.cpp:100] Creating Layer conv5_4/sep
I0107 23:04:20.731528  9127 net.cpp:434] conv5_4/sep <- conv5_4/dw
I0107 23:04:20.731534  9127 net.cpp:408] conv5_4/sep -> conv5_4/sep
I0107 23:04:20.738696  9127 net.cpp:150] Setting up conv5_4/sep
I0107 23:04:20.738709  9127 net.cpp:157] Top shape: 3 512 48 48 (3538944)
I0107 23:04:20.738713  9127 net.cpp:165] Memory required for data: 2936387012
I0107 23:04:20.738718  9127 layer_factory.hpp:77] Creating layer conv5_4/sep/bn
I0107 23:04:20.738724  9127 net.cpp:100] Creating Layer conv5_4/sep/bn
I0107 23:04:20.738729  9127 net.cpp:434] conv5_4/sep/bn <- conv5_4/sep
I0107 23:04:20.738734  9127 net.cpp:395] conv5_4/sep/bn -> conv5_4/sep (in-place)
I0107 23:04:20.738906  9127 net.cpp:150] Setting up conv5_4/sep/bn
I0107 23:04:20.738914  9127 net.cpp:157] Top shape: 3 512 48 48 (3538944)
I0107 23:04:20.738916  9127 net.cpp:165] Memory required for data: 2950542788
I0107 23:04:20.738936  9127 layer_factory.hpp:77] Creating layer conv5_4/sep/scale
I0107 23:04:20.738945  9127 net.cpp:100] Creating Layer conv5_4/sep/scale
I0107 23:04:20.738948  9127 net.cpp:434] conv5_4/sep/scale <- conv5_4/sep
I0107 23:04:20.738953  9127 net.cpp:395] conv5_4/sep/scale -> conv5_4/sep (in-place)
I0107 23:04:20.738986  9127 layer_factory.hpp:77] Creating layer conv5_4/sep/scale
I0107 23:04:20.739089  9127 net.cpp:150] Setting up conv5_4/sep/scale
I0107 23:04:20.739096  9127 net.cpp:157] Top shape: 3 512 48 48 (3538944)
I0107 23:04:20.739100  9127 net.cpp:165] Memory required for data: 2964698564
I0107 23:04:20.739105  9127 layer_factory.hpp:77] Creating layer relu5_4/sep
I0107 23:04:20.739110  9127 net.cpp:100] Creating Layer relu5_4/sep
I0107 23:04:20.739114  9127 net.cpp:434] relu5_4/sep <- conv5_4/sep
I0107 23:04:20.739120  9127 net.cpp:395] relu5_4/sep -> conv5_4/sep (in-place)
I0107 23:04:20.739568  9127 net.cpp:150] Setting up relu5_4/sep
I0107 23:04:20.739580  9127 net.cpp:157] Top shape: 3 512 48 48 (3538944)
I0107 23:04:20.739584  9127 net.cpp:165] Memory required for data: 2978854340
I0107 23:04:20.739588  9127 layer_factory.hpp:77] Creating layer conv5_5/dw
I0107 23:04:20.739596  9127 net.cpp:100] Creating Layer conv5_5/dw
I0107 23:04:20.739600  9127 net.cpp:434] conv5_5/dw <- conv5_4/sep
I0107 23:04:20.739607  9127 net.cpp:408] conv5_5/dw -> conv5_5/dw
I0107 23:04:20.739900  9127 net.cpp:150] Setting up conv5_5/dw
I0107 23:04:20.739909  9127 net.cpp:157] Top shape: 3 512 48 48 (3538944)
I0107 23:04:20.739912  9127 net.cpp:165] Memory required for data: 2993010116
I0107 23:04:20.739917  9127 layer_factory.hpp:77] Creating layer conv5_5/dw/bn
I0107 23:04:20.739923  9127 net.cpp:100] Creating Layer conv5_5/dw/bn
I0107 23:04:20.739928  9127 net.cpp:434] conv5_5/dw/bn <- conv5_5/dw
I0107 23:04:20.739931  9127 net.cpp:395] conv5_5/dw/bn -> conv5_5/dw (in-place)
I0107 23:04:20.740098  9127 net.cpp:150] Setting up conv5_5/dw/bn
I0107 23:04:20.740105  9127 net.cpp:157] Top shape: 3 512 48 48 (3538944)
I0107 23:04:20.740109  9127 net.cpp:165] Memory required for data: 3007165892
I0107 23:04:20.740115  9127 layer_factory.hpp:77] Creating layer conv5_5/dw/scale
I0107 23:04:20.740123  9127 net.cpp:100] Creating Layer conv5_5/dw/scale
I0107 23:04:20.740125  9127 net.cpp:434] conv5_5/dw/scale <- conv5_5/dw
I0107 23:04:20.740131  9127 net.cpp:395] conv5_5/dw/scale -> conv5_5/dw (in-place)
I0107 23:04:20.740160  9127 layer_factory.hpp:77] Creating layer conv5_5/dw/scale
I0107 23:04:20.740254  9127 net.cpp:150] Setting up conv5_5/dw/scale
I0107 23:04:20.740262  9127 net.cpp:157] Top shape: 3 512 48 48 (3538944)
I0107 23:04:20.740265  9127 net.cpp:165] Memory required for data: 3021321668
I0107 23:04:20.740270  9127 layer_factory.hpp:77] Creating layer relu5_5/dw
I0107 23:04:20.740275  9127 net.cpp:100] Creating Layer relu5_5/dw
I0107 23:04:20.740279  9127 net.cpp:434] relu5_5/dw <- conv5_5/dw
I0107 23:04:20.740283  9127 net.cpp:395] relu5_5/dw -> conv5_5/dw (in-place)
I0107 23:04:20.740433  9127 net.cpp:150] Setting up relu5_5/dw
I0107 23:04:20.740442  9127 net.cpp:157] Top shape: 3 512 48 48 (3538944)
I0107 23:04:20.740445  9127 net.cpp:165] Memory required for data: 3035477444
I0107 23:04:20.740448  9127 layer_factory.hpp:77] Creating layer conv5_5/sep
I0107 23:04:20.740458  9127 net.cpp:100] Creating Layer conv5_5/sep
I0107 23:04:20.740461  9127 net.cpp:434] conv5_5/sep <- conv5_5/dw
I0107 23:04:20.740466  9127 net.cpp:408] conv5_5/sep -> conv5_5/sep
I0107 23:04:20.748787  9127 net.cpp:150] Setting up conv5_5/sep
I0107 23:04:20.748803  9127 net.cpp:157] Top shape: 3 512 48 48 (3538944)
I0107 23:04:20.748807  9127 net.cpp:165] Memory required for data: 3049633220
I0107 23:04:20.748814  9127 layer_factory.hpp:77] Creating layer conv5_5/sep/bn
I0107 23:04:20.748821  9127 net.cpp:100] Creating Layer conv5_5/sep/bn
I0107 23:04:20.748827  9127 net.cpp:434] conv5_5/sep/bn <- conv5_5/sep
I0107 23:04:20.748832  9127 net.cpp:395] conv5_5/sep/bn -> conv5_5/sep (in-place)
I0107 23:04:20.749009  9127 net.cpp:150] Setting up conv5_5/sep/bn
I0107 23:04:20.749017  9127 net.cpp:157] Top shape: 3 512 48 48 (3538944)
I0107 23:04:20.749019  9127 net.cpp:165] Memory required for data: 3063788996
I0107 23:04:20.749027  9127 layer_factory.hpp:77] Creating layer conv5_5/sep/scale
I0107 23:04:20.749035  9127 net.cpp:100] Creating Layer conv5_5/sep/scale
I0107 23:04:20.749038  9127 net.cpp:434] conv5_5/sep/scale <- conv5_5/sep
I0107 23:04:20.749043  9127 net.cpp:395] conv5_5/sep/scale -> conv5_5/sep (in-place)
I0107 23:04:20.749076  9127 layer_factory.hpp:77] Creating layer conv5_5/sep/scale
I0107 23:04:20.749181  9127 net.cpp:150] Setting up conv5_5/sep/scale
I0107 23:04:20.749187  9127 net.cpp:157] Top shape: 3 512 48 48 (3538944)
I0107 23:04:20.749191  9127 net.cpp:165] Memory required for data: 3077944772
I0107 23:04:20.749197  9127 layer_factory.hpp:77] Creating layer relu5_5/sep
I0107 23:04:20.749203  9127 net.cpp:100] Creating Layer relu5_5/sep
I0107 23:04:20.749207  9127 net.cpp:434] relu5_5/sep <- conv5_5/sep
I0107 23:04:20.749212  9127 net.cpp:395] relu5_5/sep -> conv5_5/sep (in-place)
I0107 23:04:20.749364  9127 net.cpp:150] Setting up relu5_5/sep
I0107 23:04:20.749375  9127 net.cpp:157] Top shape: 3 512 48 48 (3538944)
I0107 23:04:20.749378  9127 net.cpp:165] Memory required for data: 3092100548
I0107 23:04:20.749382  9127 layer_factory.hpp:77] Creating layer conv5_5/sep_relu5_5/sep_0_split
I0107 23:04:20.749387  9127 net.cpp:100] Creating Layer conv5_5/sep_relu5_5/sep_0_split
I0107 23:04:20.749392  9127 net.cpp:434] conv5_5/sep_relu5_5/sep_0_split <- conv5_5/sep
I0107 23:04:20.749395  9127 net.cpp:408] conv5_5/sep_relu5_5/sep_0_split -> conv5_5/sep_relu5_5/sep_0_split_0
I0107 23:04:20.749403  9127 net.cpp:408] conv5_5/sep_relu5_5/sep_0_split -> conv5_5/sep_relu5_5/sep_0_split_1
I0107 23:04:20.749408  9127 net.cpp:408] conv5_5/sep_relu5_5/sep_0_split -> conv5_5/sep_relu5_5/sep_0_split_2
I0107 23:04:20.749456  9127 net.cpp:150] Setting up conv5_5/sep_relu5_5/sep_0_split
I0107 23:04:20.749462  9127 net.cpp:157] Top shape: 3 512 48 48 (3538944)
I0107 23:04:20.749466  9127 net.cpp:157] Top shape: 3 512 48 48 (3538944)
I0107 23:04:20.749470  9127 net.cpp:157] Top shape: 3 512 48 48 (3538944)
I0107 23:04:20.749474  9127 net.cpp:165] Memory required for data: 3134567876
I0107 23:04:20.749476  9127 layer_factory.hpp:77] Creating layer LFCN_2_5x5
I0107 23:04:20.749485  9127 net.cpp:100] Creating Layer LFCN_2_5x5
I0107 23:04:20.749488  9127 net.cpp:434] LFCN_2_5x5 <- conv5_5/sep_relu5_5/sep_0_split_0
I0107 23:04:20.749495  9127 net.cpp:408] LFCN_2_5x5 -> LFCN_2_5x5
I0107 23:04:20.753391  9127 net.cpp:150] Setting up LFCN_2_5x5
I0107 23:04:20.753407  9127 net.cpp:157] Top shape: 3 9 48 48 (62208)
I0107 23:04:20.753410  9127 net.cpp:165] Memory required for data: 3134816708
I0107 23:04:20.753417  9127 layer_factory.hpp:77] Creating layer LFCN_2_5x5_LFCN_2_5x5_0_split
I0107 23:04:20.753423  9127 net.cpp:100] Creating Layer LFCN_2_5x5_LFCN_2_5x5_0_split
I0107 23:04:20.753427  9127 net.cpp:434] LFCN_2_5x5_LFCN_2_5x5_0_split <- LFCN_2_5x5
I0107 23:04:20.753434  9127 net.cpp:408] LFCN_2_5x5_LFCN_2_5x5_0_split -> LFCN_2_5x5_LFCN_2_5x5_0_split_0
I0107 23:04:20.753442  9127 net.cpp:408] LFCN_2_5x5_LFCN_2_5x5_0_split -> LFCN_2_5x5_LFCN_2_5x5_0_split_1
I0107 23:04:20.753446  9127 net.cpp:408] LFCN_2_5x5_LFCN_2_5x5_0_split -> LFCN_2_5x5_LFCN_2_5x5_0_split_2
I0107 23:04:20.753492  9127 net.cpp:150] Setting up LFCN_2_5x5_LFCN_2_5x5_0_split
I0107 23:04:20.753497  9127 net.cpp:157] Top shape: 3 9 48 48 (62208)
I0107 23:04:20.753501  9127 net.cpp:157] Top shape: 3 9 48 48 (62208)
I0107 23:04:20.753505  9127 net.cpp:157] Top shape: 3 9 48 48 (62208)
I0107 23:04:20.753509  9127 net.cpp:165] Memory required for data: 3135563204
I0107 23:04:20.753511  9127 layer_factory.hpp:77] Creating layer detection_loss_2_5x5
I0107 23:04:20.753518  9127 net.cpp:100] Creating Layer detection_loss_2_5x5
I0107 23:04:20.753522  9127 net.cpp:434] detection_loss_2_5x5 <- LFCN_2_5x5_LFCN_2_5x5_0_split_0
I0107 23:04:20.753527  9127 net.cpp:434] detection_loss_2_5x5 <- label_2_5x5_data_3_split_0
I0107 23:04:20.753535  9127 net.cpp:408] detection_loss_2_5x5 -> loss_2_5x5
I0107 23:04:20.753542  9127 layer_factory.hpp:77] Creating layer detection_loss_2_5x5
I0107 23:04:20.753870  9127 net.cpp:150] Setting up detection_loss_2_5x5
I0107 23:04:20.753880  9127 net.cpp:157] Top shape: 1 1 1 2 (2)
I0107 23:04:20.753883  9127 net.cpp:160]     with loss weight 1
I0107 23:04:20.753896  9127 net.cpp:165] Memory required for data: 3135563212
I0107 23:04:20.753899  9127 layer_factory.hpp:77] Creating layer detection_accuracy_2_5x5
I0107 23:04:20.753906  9127 net.cpp:100] Creating Layer detection_accuracy_2_5x5
I0107 23:04:20.753911  9127 net.cpp:434] detection_accuracy_2_5x5 <- LFCN_2_5x5_LFCN_2_5x5_0_split_1
I0107 23:04:20.753916  9127 net.cpp:434] detection_accuracy_2_5x5 <- label_2_5x5_data_3_split_1
I0107 23:04:20.753921  9127 net.cpp:408] detection_accuracy_2_5x5 -> accuracy_2_5x5
I0107 23:04:20.753929  9127 net.cpp:408] detection_accuracy_2_5x5 -> boxiou_2_5x5
I0107 23:04:20.753964  9127 net.cpp:150] Setting up detection_accuracy_2_5x5
I0107 23:04:20.753970  9127 net.cpp:157] Top shape: 1 1 1 2 (2)
I0107 23:04:20.753974  9127 net.cpp:157] Top shape: 1 1 1 1 (1)
I0107 23:04:20.753978  9127 net.cpp:165] Memory required for data: 3135563224
I0107 23:04:20.753980  9127 layer_factory.hpp:77] Creating layer LFCN_2_7x7
I0107 23:04:20.753990  9127 net.cpp:100] Creating Layer LFCN_2_7x7
I0107 23:04:20.753994  9127 net.cpp:434] LFCN_2_7x7 <- conv5_5/sep_relu5_5/sep_0_split_1
I0107 23:04:20.754001  9127 net.cpp:408] LFCN_2_7x7 -> LFCN_2_7x7
I0107 23:04:20.761014  9127 net.cpp:150] Setting up LFCN_2_7x7
I0107 23:04:20.761051  9127 net.cpp:157] Top shape: 3 9 48 48 (62208)
I0107 23:04:20.761055  9127 net.cpp:165] Memory required for data: 3135812056
I0107 23:04:20.761065  9127 layer_factory.hpp:77] Creating layer LFCN_2_7x7_LFCN_2_7x7_0_split
I0107 23:04:20.761076  9127 net.cpp:100] Creating Layer LFCN_2_7x7_LFCN_2_7x7_0_split
I0107 23:04:20.761082  9127 net.cpp:434] LFCN_2_7x7_LFCN_2_7x7_0_split <- LFCN_2_7x7
I0107 23:04:20.761091  9127 net.cpp:408] LFCN_2_7x7_LFCN_2_7x7_0_split -> LFCN_2_7x7_LFCN_2_7x7_0_split_0
I0107 23:04:20.761101  9127 net.cpp:408] LFCN_2_7x7_LFCN_2_7x7_0_split -> LFCN_2_7x7_LFCN_2_7x7_0_split_1
I0107 23:04:20.761108  9127 net.cpp:408] LFCN_2_7x7_LFCN_2_7x7_0_split -> LFCN_2_7x7_LFCN_2_7x7_0_split_2
I0107 23:04:20.761158  9127 net.cpp:150] Setting up LFCN_2_7x7_LFCN_2_7x7_0_split
I0107 23:04:20.761164  9127 net.cpp:157] Top shape: 3 9 48 48 (62208)
I0107 23:04:20.761169  9127 net.cpp:157] Top shape: 3 9 48 48 (62208)
I0107 23:04:20.761173  9127 net.cpp:157] Top shape: 3 9 48 48 (62208)
I0107 23:04:20.761176  9127 net.cpp:165] Memory required for data: 3136558552
I0107 23:04:20.761179  9127 layer_factory.hpp:77] Creating layer detection_loss_2_7x7
I0107 23:04:20.761188  9127 net.cpp:100] Creating Layer detection_loss_2_7x7
I0107 23:04:20.761191  9127 net.cpp:434] detection_loss_2_7x7 <- LFCN_2_7x7_LFCN_2_7x7_0_split_0
I0107 23:04:20.761198  9127 net.cpp:434] detection_loss_2_7x7 <- label_2_7x7_data_4_split_0
I0107 23:04:20.761204  9127 net.cpp:408] detection_loss_2_7x7 -> loss_2_7x7
I0107 23:04:20.761214  9127 layer_factory.hpp:77] Creating layer detection_loss_2_7x7
I0107 23:04:20.761940  9127 net.cpp:150] Setting up detection_loss_2_7x7
I0107 23:04:20.761955  9127 net.cpp:157] Top shape: 1 1 1 2 (2)
I0107 23:04:20.761960  9127 net.cpp:160]     with loss weight 1
I0107 23:04:20.761973  9127 net.cpp:165] Memory required for data: 3136558560
I0107 23:04:20.761977  9127 layer_factory.hpp:77] Creating layer detection_accuracy_2_7x7
I0107 23:04:20.761987  9127 net.cpp:100] Creating Layer detection_accuracy_2_7x7
I0107 23:04:20.761992  9127 net.cpp:434] detection_accuracy_2_7x7 <- LFCN_2_7x7_LFCN_2_7x7_0_split_1
I0107 23:04:20.761997  9127 net.cpp:434] detection_accuracy_2_7x7 <- label_2_7x7_data_4_split_1
I0107 23:04:20.762003  9127 net.cpp:408] detection_accuracy_2_7x7 -> accuracy_2_7x7
I0107 23:04:20.762012  9127 net.cpp:408] detection_accuracy_2_7x7 -> boxiou_2_7x7
I0107 23:04:20.762055  9127 net.cpp:150] Setting up detection_accuracy_2_7x7
I0107 23:04:20.762063  9127 net.cpp:157] Top shape: 1 1 1 2 (2)
I0107 23:04:20.762066  9127 net.cpp:157] Top shape: 1 1 1 1 (1)
I0107 23:04:20.762069  9127 net.cpp:165] Memory required for data: 3136558572
I0107 23:04:20.762073  9127 layer_factory.hpp:77] Creating layer conv5_6/dw
I0107 23:04:20.762086  9127 net.cpp:100] Creating Layer conv5_6/dw
I0107 23:04:20.762094  9127 net.cpp:434] conv5_6/dw <- conv5_5/sep_relu5_5/sep_0_split_2
I0107 23:04:20.762100  9127 net.cpp:408] conv5_6/dw -> conv5_6/dw
I0107 23:04:20.762416  9127 net.cpp:150] Setting up conv5_6/dw
I0107 23:04:20.762424  9127 net.cpp:157] Top shape: 3 512 24 24 (884736)
I0107 23:04:20.762428  9127 net.cpp:165] Memory required for data: 3140097516
I0107 23:04:20.762434  9127 layer_factory.hpp:77] Creating layer conv5_6/dw/bn
I0107 23:04:20.762442  9127 net.cpp:100] Creating Layer conv5_6/dw/bn
I0107 23:04:20.762446  9127 net.cpp:434] conv5_6/dw/bn <- conv5_6/dw
I0107 23:04:20.762454  9127 net.cpp:395] conv5_6/dw/bn -> conv5_6/dw (in-place)
I0107 23:04:20.762630  9127 net.cpp:150] Setting up conv5_6/dw/bn
I0107 23:04:20.762637  9127 net.cpp:157] Top shape: 3 512 24 24 (884736)
I0107 23:04:20.762641  9127 net.cpp:165] Memory required for data: 3143636460
I0107 23:04:20.762647  9127 layer_factory.hpp:77] Creating layer conv5_6/dw/scale
I0107 23:04:20.762656  9127 net.cpp:100] Creating Layer conv5_6/dw/scale
I0107 23:04:20.762660  9127 net.cpp:434] conv5_6/dw/scale <- conv5_6/dw
I0107 23:04:20.762665  9127 net.cpp:395] conv5_6/dw/scale -> conv5_6/dw (in-place)
I0107 23:04:20.762711  9127 layer_factory.hpp:77] Creating layer conv5_6/dw/scale
I0107 23:04:20.762815  9127 net.cpp:150] Setting up conv5_6/dw/scale
I0107 23:04:20.762822  9127 net.cpp:157] Top shape: 3 512 24 24 (884736)
I0107 23:04:20.762825  9127 net.cpp:165] Memory required for data: 3147175404
I0107 23:04:20.762830  9127 layer_factory.hpp:77] Creating layer relu5_6/dw
I0107 23:04:20.762837  9127 net.cpp:100] Creating Layer relu5_6/dw
I0107 23:04:20.762842  9127 net.cpp:434] relu5_6/dw <- conv5_6/dw
I0107 23:04:20.762846  9127 net.cpp:395] relu5_6/dw -> conv5_6/dw (in-place)
I0107 23:04:20.763031  9127 net.cpp:150] Setting up relu5_6/dw
I0107 23:04:20.763039  9127 net.cpp:157] Top shape: 3 512 24 24 (884736)
I0107 23:04:20.763043  9127 net.cpp:165] Memory required for data: 3150714348
I0107 23:04:20.763046  9127 layer_factory.hpp:77] Creating layer conv5_6/sep
I0107 23:04:20.763056  9127 net.cpp:100] Creating Layer conv5_6/sep
I0107 23:04:20.763061  9127 net.cpp:434] conv5_6/sep <- conv5_6/dw
I0107 23:04:20.763065  9127 net.cpp:408] conv5_6/sep -> conv5_6/sep
I0107 23:04:20.779672  9127 net.cpp:150] Setting up conv5_6/sep
I0107 23:04:20.779701  9127 net.cpp:157] Top shape: 3 1024 24 24 (1769472)
I0107 23:04:20.779706  9127 net.cpp:165] Memory required for data: 3157792236
I0107 23:04:20.779713  9127 layer_factory.hpp:77] Creating layer conv5_6/sep/bn
I0107 23:04:20.779727  9127 net.cpp:100] Creating Layer conv5_6/sep/bn
I0107 23:04:20.779734  9127 net.cpp:434] conv5_6/sep/bn <- conv5_6/sep
I0107 23:04:20.779741  9127 net.cpp:395] conv5_6/sep/bn -> conv5_6/sep (in-place)
I0107 23:04:20.779932  9127 net.cpp:150] Setting up conv5_6/sep/bn
I0107 23:04:20.779940  9127 net.cpp:157] Top shape: 3 1024 24 24 (1769472)
I0107 23:04:20.779943  9127 net.cpp:165] Memory required for data: 3164870124
I0107 23:04:20.779951  9127 layer_factory.hpp:77] Creating layer conv5_6/sep/scale
I0107 23:04:20.779960  9127 net.cpp:100] Creating Layer conv5_6/sep/scale
I0107 23:04:20.779965  9127 net.cpp:434] conv5_6/sep/scale <- conv5_6/sep
I0107 23:04:20.779970  9127 net.cpp:395] conv5_6/sep/scale -> conv5_6/sep (in-place)
I0107 23:04:20.780010  9127 layer_factory.hpp:77] Creating layer conv5_6/sep/scale
I0107 23:04:20.780112  9127 net.cpp:150] Setting up conv5_6/sep/scale
I0107 23:04:20.780120  9127 net.cpp:157] Top shape: 3 1024 24 24 (1769472)
I0107 23:04:20.780123  9127 net.cpp:165] Memory required for data: 3171948012
I0107 23:04:20.780128  9127 layer_factory.hpp:77] Creating layer relu5_6/sep
I0107 23:04:20.780144  9127 net.cpp:100] Creating Layer relu5_6/sep
I0107 23:04:20.780148  9127 net.cpp:434] relu5_6/sep <- conv5_6/sep
I0107 23:04:20.780153  9127 net.cpp:395] relu5_6/sep -> conv5_6/sep (in-place)
I0107 23:04:20.780311  9127 net.cpp:150] Setting up relu5_6/sep
I0107 23:04:20.780320  9127 net.cpp:157] Top shape: 3 1024 24 24 (1769472)
I0107 23:04:20.780324  9127 net.cpp:165] Memory required for data: 3179025900
I0107 23:04:20.780328  9127 layer_factory.hpp:77] Creating layer conv6/dw
I0107 23:04:20.780339  9127 net.cpp:100] Creating Layer conv6/dw
I0107 23:04:20.780342  9127 net.cpp:434] conv6/dw <- conv5_6/sep
I0107 23:04:20.780349  9127 net.cpp:408] conv6/dw -> conv6/dw
I0107 23:04:20.780761  9127 net.cpp:150] Setting up conv6/dw
I0107 23:04:20.780767  9127 net.cpp:157] Top shape: 3 1024 24 24 (1769472)
I0107 23:04:20.780771  9127 net.cpp:165] Memory required for data: 3186103788
I0107 23:04:20.780776  9127 layer_factory.hpp:77] Creating layer conv6/dw/bn
I0107 23:04:20.780781  9127 net.cpp:100] Creating Layer conv6/dw/bn
I0107 23:04:20.780784  9127 net.cpp:434] conv6/dw/bn <- conv6/dw
I0107 23:04:20.780789  9127 net.cpp:395] conv6/dw/bn -> conv6/dw (in-place)
I0107 23:04:20.780961  9127 net.cpp:150] Setting up conv6/dw/bn
I0107 23:04:20.780970  9127 net.cpp:157] Top shape: 3 1024 24 24 (1769472)
I0107 23:04:20.780973  9127 net.cpp:165] Memory required for data: 3193181676
I0107 23:04:20.780980  9127 layer_factory.hpp:77] Creating layer conv6/dw/scale
I0107 23:04:20.780987  9127 net.cpp:100] Creating Layer conv6/dw/scale
I0107 23:04:20.780990  9127 net.cpp:434] conv6/dw/scale <- conv6/dw
I0107 23:04:20.780994  9127 net.cpp:395] conv6/dw/scale -> conv6/dw (in-place)
I0107 23:04:20.781031  9127 layer_factory.hpp:77] Creating layer conv6/dw/scale
I0107 23:04:20.781132  9127 net.cpp:150] Setting up conv6/dw/scale
I0107 23:04:20.781139  9127 net.cpp:157] Top shape: 3 1024 24 24 (1769472)
I0107 23:04:20.781143  9127 net.cpp:165] Memory required for data: 3200259564
I0107 23:04:20.781148  9127 layer_factory.hpp:77] Creating layer relu6/dw
I0107 23:04:20.781154  9127 net.cpp:100] Creating Layer relu6/dw
I0107 23:04:20.781158  9127 net.cpp:434] relu6/dw <- conv6/dw
I0107 23:04:20.781163  9127 net.cpp:395] relu6/dw -> conv6/dw (in-place)
I0107 23:04:20.781319  9127 net.cpp:150] Setting up relu6/dw
I0107 23:04:20.781328  9127 net.cpp:157] Top shape: 3 1024 24 24 (1769472)
I0107 23:04:20.781332  9127 net.cpp:165] Memory required for data: 3207337452
I0107 23:04:20.781335  9127 layer_factory.hpp:77] Creating layer conv6/sep
I0107 23:04:20.781343  9127 net.cpp:100] Creating Layer conv6/sep
I0107 23:04:20.781348  9127 net.cpp:434] conv6/sep <- conv6/dw
I0107 23:04:20.781354  9127 net.cpp:408] conv6/sep -> conv6/sep
I0107 23:04:20.810268  9127 net.cpp:150] Setting up conv6/sep
I0107 23:04:20.810298  9127 net.cpp:157] Top shape: 3 1024 24 24 (1769472)
I0107 23:04:20.810302  9127 net.cpp:165] Memory required for data: 3214415340
I0107 23:04:20.810310  9127 layer_factory.hpp:77] Creating layer conv6/sep/bn
I0107 23:04:20.810324  9127 net.cpp:100] Creating Layer conv6/sep/bn
I0107 23:04:20.810333  9127 net.cpp:434] conv6/sep/bn <- conv6/sep
I0107 23:04:20.810340  9127 net.cpp:395] conv6/sep/bn -> conv6/sep (in-place)
I0107 23:04:20.810535  9127 net.cpp:150] Setting up conv6/sep/bn
I0107 23:04:20.810544  9127 net.cpp:157] Top shape: 3 1024 24 24 (1769472)
I0107 23:04:20.810547  9127 net.cpp:165] Memory required for data: 3221493228
I0107 23:04:20.810554  9127 layer_factory.hpp:77] Creating layer conv6/sep/scale
I0107 23:04:20.810564  9127 net.cpp:100] Creating Layer conv6/sep/scale
I0107 23:04:20.810567  9127 net.cpp:434] conv6/sep/scale <- conv6/sep
I0107 23:04:20.810572  9127 net.cpp:395] conv6/sep/scale -> conv6/sep (in-place)
I0107 23:04:20.810612  9127 layer_factory.hpp:77] Creating layer conv6/sep/scale
I0107 23:04:20.810717  9127 net.cpp:150] Setting up conv6/sep/scale
I0107 23:04:20.810724  9127 net.cpp:157] Top shape: 3 1024 24 24 (1769472)
I0107 23:04:20.810729  9127 net.cpp:165] Memory required for data: 3228571116
I0107 23:04:20.810734  9127 layer_factory.hpp:77] Creating layer relu6/sep
I0107 23:04:20.810739  9127 net.cpp:100] Creating Layer relu6/sep
I0107 23:04:20.810744  9127 net.cpp:434] relu6/sep <- conv6/sep
I0107 23:04:20.810747  9127 net.cpp:395] relu6/sep -> conv6/sep (in-place)
I0107 23:04:20.810905  9127 net.cpp:150] Setting up relu6/sep
I0107 23:04:20.810914  9127 net.cpp:157] Top shape: 3 1024 24 24 (1769472)
I0107 23:04:20.810917  9127 net.cpp:165] Memory required for data: 3235649004
I0107 23:04:20.810920  9127 layer_factory.hpp:77] Creating layer conv6/sep_relu6/sep_0_split
I0107 23:04:20.810926  9127 net.cpp:100] Creating Layer conv6/sep_relu6/sep_0_split
I0107 23:04:20.810930  9127 net.cpp:434] conv6/sep_relu6/sep_0_split <- conv6/sep
I0107 23:04:20.810935  9127 net.cpp:408] conv6/sep_relu6/sep_0_split -> conv6/sep_relu6/sep_0_split_0
I0107 23:04:20.810943  9127 net.cpp:408] conv6/sep_relu6/sep_0_split -> conv6/sep_relu6/sep_0_split_1
I0107 23:04:20.810950  9127 net.cpp:408] conv6/sep_relu6/sep_0_split -> conv6/sep_relu6/sep_0_split_2
I0107 23:04:20.810997  9127 net.cpp:150] Setting up conv6/sep_relu6/sep_0_split
I0107 23:04:20.811003  9127 net.cpp:157] Top shape: 3 1024 24 24 (1769472)
I0107 23:04:20.811007  9127 net.cpp:157] Top shape: 3 1024 24 24 (1769472)
I0107 23:04:20.811012  9127 net.cpp:157] Top shape: 3 1024 24 24 (1769472)
I0107 23:04:20.811014  9127 net.cpp:165] Memory required for data: 3256882668
I0107 23:04:20.811018  9127 layer_factory.hpp:77] Creating layer LFCN_3_5x5
I0107 23:04:20.811028  9127 net.cpp:100] Creating Layer LFCN_3_5x5
I0107 23:04:20.811031  9127 net.cpp:434] LFCN_3_5x5 <- conv6/sep_relu6/sep_0_split_0
I0107 23:04:20.811038  9127 net.cpp:408] LFCN_3_5x5 -> LFCN_3_5x5
I0107 23:04:20.819697  9127 net.cpp:150] Setting up LFCN_3_5x5
I0107 23:04:20.819789  9127 net.cpp:157] Top shape: 3 9 24 24 (15552)
I0107 23:04:20.819797  9127 net.cpp:165] Memory required for data: 3256944876
I0107 23:04:20.819821  9127 layer_factory.hpp:77] Creating layer LFCN_3_5x5_LFCN_3_5x5_0_split
I0107 23:04:20.819849  9127 net.cpp:100] Creating Layer LFCN_3_5x5_LFCN_3_5x5_0_split
I0107 23:04:20.819862  9127 net.cpp:434] LFCN_3_5x5_LFCN_3_5x5_0_split <- LFCN_3_5x5
I0107 23:04:20.819885  9127 net.cpp:408] LFCN_3_5x5_LFCN_3_5x5_0_split -> LFCN_3_5x5_LFCN_3_5x5_0_split_0
I0107 23:04:20.819907  9127 net.cpp:408] LFCN_3_5x5_LFCN_3_5x5_0_split -> LFCN_3_5x5_LFCN_3_5x5_0_split_1
I0107 23:04:20.819918  9127 net.cpp:408] LFCN_3_5x5_LFCN_3_5x5_0_split -> LFCN_3_5x5_LFCN_3_5x5_0_split_2
I0107 23:04:20.820070  9127 net.cpp:150] Setting up LFCN_3_5x5_LFCN_3_5x5_0_split
I0107 23:04:20.820092  9127 net.cpp:157] Top shape: 3 9 24 24 (15552)
I0107 23:04:20.820101  9127 net.cpp:157] Top shape: 3 9 24 24 (15552)
I0107 23:04:20.820106  9127 net.cpp:157] Top shape: 3 9 24 24 (15552)
I0107 23:04:20.820111  9127 net.cpp:165] Memory required for data: 3257131500
I0107 23:04:20.820116  9127 layer_factory.hpp:77] Creating layer detection_loss_3_5x5
I0107 23:04:20.820128  9127 net.cpp:100] Creating Layer detection_loss_3_5x5
I0107 23:04:20.820134  9127 net.cpp:434] detection_loss_3_5x5 <- LFCN_3_5x5_LFCN_3_5x5_0_split_0
I0107 23:04:20.820143  9127 net.cpp:434] detection_loss_3_5x5 <- label_3_5x5_data_5_split_0
I0107 23:04:20.820154  9127 net.cpp:408] detection_loss_3_5x5 -> loss_3_5x5
I0107 23:04:20.820171  9127 layer_factory.hpp:77] Creating layer detection_loss_3_5x5
I0107 23:04:20.821043  9127 net.cpp:150] Setting up detection_loss_3_5x5
I0107 23:04:20.821058  9127 net.cpp:157] Top shape: 1 1 1 2 (2)
I0107 23:04:20.821063  9127 net.cpp:160]     with loss weight 1
I0107 23:04:20.821075  9127 net.cpp:165] Memory required for data: 3257131508
I0107 23:04:20.821080  9127 layer_factory.hpp:77] Creating layer detection_accuracy_3_5x5
I0107 23:04:20.821092  9127 net.cpp:100] Creating Layer detection_accuracy_3_5x5
I0107 23:04:20.821100  9127 net.cpp:434] detection_accuracy_3_5x5 <- LFCN_3_5x5_LFCN_3_5x5_0_split_1
I0107 23:04:20.821108  9127 net.cpp:434] detection_accuracy_3_5x5 <- label_3_5x5_data_5_split_1
I0107 23:04:20.821116  9127 net.cpp:408] detection_accuracy_3_5x5 -> accuracy_3_5x5
I0107 23:04:20.821128  9127 net.cpp:408] detection_accuracy_3_5x5 -> boxiou_3_5x5
I0107 23:04:20.821177  9127 net.cpp:150] Setting up detection_accuracy_3_5x5
I0107 23:04:20.821185  9127 net.cpp:157] Top shape: 1 1 1 2 (2)
I0107 23:04:20.821192  9127 net.cpp:157] Top shape: 1 1 1 1 (1)
I0107 23:04:20.821197  9127 net.cpp:165] Memory required for data: 3257131520
I0107 23:04:20.821200  9127 layer_factory.hpp:77] Creating layer LFCN_3_7x7
I0107 23:04:20.821216  9127 net.cpp:100] Creating Layer LFCN_3_7x7
I0107 23:04:20.821223  9127 net.cpp:434] LFCN_3_7x7 <- conv6/sep_relu6/sep_0_split_1
I0107 23:04:20.821233  9127 net.cpp:408] LFCN_3_7x7 -> LFCN_3_7x7
I0107 23:04:20.834288  9127 net.cpp:150] Setting up LFCN_3_7x7
I0107 23:04:20.834326  9127 net.cpp:157] Top shape: 3 9 24 24 (15552)
I0107 23:04:20.834333  9127 net.cpp:165] Memory required for data: 3257193728
I0107 23:04:20.834344  9127 layer_factory.hpp:77] Creating layer LFCN_3_7x7_LFCN_3_7x7_0_split
I0107 23:04:20.834357  9127 net.cpp:100] Creating Layer LFCN_3_7x7_LFCN_3_7x7_0_split
I0107 23:04:20.834365  9127 net.cpp:434] LFCN_3_7x7_LFCN_3_7x7_0_split <- LFCN_3_7x7
I0107 23:04:20.834375  9127 net.cpp:408] LFCN_3_7x7_LFCN_3_7x7_0_split -> LFCN_3_7x7_LFCN_3_7x7_0_split_0
I0107 23:04:20.834388  9127 net.cpp:408] LFCN_3_7x7_LFCN_3_7x7_0_split -> LFCN_3_7x7_LFCN_3_7x7_0_split_1
I0107 23:04:20.834398  9127 net.cpp:408] LFCN_3_7x7_LFCN_3_7x7_0_split -> LFCN_3_7x7_LFCN_3_7x7_0_split_2
I0107 23:04:20.834455  9127 net.cpp:150] Setting up LFCN_3_7x7_LFCN_3_7x7_0_split
I0107 23:04:20.834465  9127 net.cpp:157] Top shape: 3 9 24 24 (15552)
I0107 23:04:20.834470  9127 net.cpp:157] Top shape: 3 9 24 24 (15552)
I0107 23:04:20.834476  9127 net.cpp:157] Top shape: 3 9 24 24 (15552)
I0107 23:04:20.834481  9127 net.cpp:165] Memory required for data: 3257380352
I0107 23:04:20.834486  9127 layer_factory.hpp:77] Creating layer detection_loss_3_7x7
I0107 23:04:20.834496  9127 net.cpp:100] Creating Layer detection_loss_3_7x7
I0107 23:04:20.834503  9127 net.cpp:434] detection_loss_3_7x7 <- LFCN_3_7x7_LFCN_3_7x7_0_split_0
I0107 23:04:20.834511  9127 net.cpp:434] detection_loss_3_7x7 <- label_3_7x7_data_6_split_0
I0107 23:04:20.834520  9127 net.cpp:408] detection_loss_3_7x7 -> loss_3_7x7
I0107 23:04:20.834534  9127 layer_factory.hpp:77] Creating layer detection_loss_3_7x7
I0107 23:04:20.835304  9127 net.cpp:150] Setting up detection_loss_3_7x7
I0107 23:04:20.835319  9127 net.cpp:157] Top shape: 1 1 1 2 (2)
I0107 23:04:20.835324  9127 net.cpp:160]     with loss weight 1
I0107 23:04:20.835337  9127 net.cpp:165] Memory required for data: 3257380360
I0107 23:04:20.835342  9127 layer_factory.hpp:77] Creating layer detection_accuracy_3_7x7
I0107 23:04:20.835352  9127 net.cpp:100] Creating Layer detection_accuracy_3_7x7
I0107 23:04:20.835361  9127 net.cpp:434] detection_accuracy_3_7x7 <- LFCN_3_7x7_LFCN_3_7x7_0_split_1
I0107 23:04:20.835368  9127 net.cpp:434] detection_accuracy_3_7x7 <- label_3_7x7_data_6_split_1
I0107 23:04:20.835377  9127 net.cpp:408] detection_accuracy_3_7x7 -> accuracy_3_7x7
I0107 23:04:20.835389  9127 net.cpp:408] detection_accuracy_3_7x7 -> boxiou_3_7x7
I0107 23:04:20.835436  9127 net.cpp:150] Setting up detection_accuracy_3_7x7
I0107 23:04:20.835446  9127 net.cpp:157] Top shape: 1 1 1 2 (2)
I0107 23:04:20.835451  9127 net.cpp:157] Top shape: 1 1 1 1 (1)
I0107 23:04:20.835456  9127 net.cpp:165] Memory required for data: 3257380372
I0107 23:04:20.835460  9127 layer_factory.hpp:77] Creating layer pool6
I0107 23:04:20.835469  9127 net.cpp:100] Creating Layer pool6
I0107 23:04:20.835477  9127 net.cpp:434] pool6 <- conv6/sep_relu6/sep_0_split_2
I0107 23:04:20.835487  9127 net.cpp:408] pool6 -> pool6
I0107 23:04:20.835541  9127 net.cpp:150] Setting up pool6
I0107 23:04:20.835551  9127 net.cpp:157] Top shape: 3 1024 12 12 (442368)
I0107 23:04:20.835556  9127 net.cpp:165] Memory required for data: 3259149844
I0107 23:04:20.835561  9127 layer_factory.hpp:77] Creating layer LFCN_4_5x5
I0107 23:04:20.835574  9127 net.cpp:100] Creating Layer LFCN_4_5x5
I0107 23:04:20.835582  9127 net.cpp:434] LFCN_4_5x5 <- pool6
I0107 23:04:20.835588  9127 net.cpp:408] LFCN_4_5x5 -> LFCN_4_5x5
I0107 23:04:20.842375  9127 net.cpp:150] Setting up LFCN_4_5x5
I0107 23:04:20.842391  9127 net.cpp:157] Top shape: 3 9 12 12 (3888)
I0107 23:04:20.842396  9127 net.cpp:165] Memory required for data: 3259165396
I0107 23:04:20.842406  9127 layer_factory.hpp:77] Creating layer LFCN_4_5x5_LFCN_4_5x5_0_split
I0107 23:04:20.842417  9127 net.cpp:100] Creating Layer LFCN_4_5x5_LFCN_4_5x5_0_split
I0107 23:04:20.842424  9127 net.cpp:434] LFCN_4_5x5_LFCN_4_5x5_0_split <- LFCN_4_5x5
I0107 23:04:20.842432  9127 net.cpp:408] LFCN_4_5x5_LFCN_4_5x5_0_split -> LFCN_4_5x5_LFCN_4_5x5_0_split_0
I0107 23:04:20.842442  9127 net.cpp:408] LFCN_4_5x5_LFCN_4_5x5_0_split -> LFCN_4_5x5_LFCN_4_5x5_0_split_1
I0107 23:04:20.842453  9127 net.cpp:408] LFCN_4_5x5_LFCN_4_5x5_0_split -> LFCN_4_5x5_LFCN_4_5x5_0_split_2
I0107 23:04:20.842509  9127 net.cpp:150] Setting up LFCN_4_5x5_LFCN_4_5x5_0_split
I0107 23:04:20.842517  9127 net.cpp:157] Top shape: 3 9 12 12 (3888)
I0107 23:04:20.842523  9127 net.cpp:157] Top shape: 3 9 12 12 (3888)
I0107 23:04:20.842530  9127 net.cpp:157] Top shape: 3 9 12 12 (3888)
I0107 23:04:20.842533  9127 net.cpp:165] Memory required for data: 3259212052
I0107 23:04:20.842538  9127 layer_factory.hpp:77] Creating layer detection_loss_4_5x5
I0107 23:04:20.842550  9127 net.cpp:100] Creating Layer detection_loss_4_5x5
I0107 23:04:20.842556  9127 net.cpp:434] detection_loss_4_5x5 <- LFCN_4_5x5_LFCN_4_5x5_0_split_0
I0107 23:04:20.842563  9127 net.cpp:434] detection_loss_4_5x5 <- label_4_5x5_data_7_split_0
I0107 23:04:20.842571  9127 net.cpp:408] detection_loss_4_5x5 -> loss_4_5x5
I0107 23:04:20.842581  9127 layer_factory.hpp:77] Creating layer detection_loss_4_5x5
I0107 23:04:20.842905  9127 net.cpp:150] Setting up detection_loss_4_5x5
I0107 23:04:20.842916  9127 net.cpp:157] Top shape: 1 1 1 2 (2)
I0107 23:04:20.842921  9127 net.cpp:160]     with loss weight 1
I0107 23:04:20.842929  9127 net.cpp:165] Memory required for data: 3259212060
I0107 23:04:20.842934  9127 layer_factory.hpp:77] Creating layer detection_accuracy_4_5x5
I0107 23:04:20.842942  9127 net.cpp:100] Creating Layer detection_accuracy_4_5x5
I0107 23:04:20.842949  9127 net.cpp:434] detection_accuracy_4_5x5 <- LFCN_4_5x5_LFCN_4_5x5_0_split_1
I0107 23:04:20.842957  9127 net.cpp:434] detection_accuracy_4_5x5 <- label_4_5x5_data_7_split_1
I0107 23:04:20.842965  9127 net.cpp:408] detection_accuracy_4_5x5 -> accuracy_4_5x5
I0107 23:04:20.842977  9127 net.cpp:408] detection_accuracy_4_5x5 -> boxiou_4_5x5
I0107 23:04:20.843019  9127 net.cpp:150] Setting up detection_accuracy_4_5x5
I0107 23:04:20.843029  9127 net.cpp:157] Top shape: 1 1 1 2 (2)
I0107 23:04:20.843034  9127 net.cpp:157] Top shape: 1 1 1 1 (1)
I0107 23:04:20.843039  9127 net.cpp:165] Memory required for data: 3259212072
I0107 23:04:20.843044  9127 layer_factory.hpp:77] Creating layer proposals
I0107 23:04:20.843060  9127 net.cpp:100] Creating Layer proposals
I0107 23:04:20.843067  9127 net.cpp:434] proposals <- LFCN_1_5x5_LFCN_1_5x5_0_split_2
I0107 23:04:20.843073  9127 net.cpp:434] proposals <- LFCN_1_7x7_LFCN_1_7x7_0_split_2
I0107 23:04:20.843080  9127 net.cpp:434] proposals <- LFCN_2_5x5_LFCN_2_5x5_0_split_2
I0107 23:04:20.843084  9127 net.cpp:434] proposals <- LFCN_2_7x7_LFCN_2_7x7_0_split_2
I0107 23:04:20.843091  9127 net.cpp:434] proposals <- LFCN_3_5x5_LFCN_3_5x5_0_split_2
I0107 23:04:20.843097  9127 net.cpp:434] proposals <- LFCN_3_7x7_LFCN_3_7x7_0_split_2
I0107 23:04:20.843103  9127 net.cpp:434] proposals <- LFCN_4_5x5_LFCN_4_5x5_0_split_2
I0107 23:04:20.843112  9127 net.cpp:408] proposals -> proposals
I0107 23:04:20.843144  9127 net.cpp:150] Setting up proposals
I0107 23:04:20.843153  9127 net.cpp:157] Top shape: 1 5 1 1 (5)
I0107 23:04:20.843158  9127 net.cpp:165] Memory required for data: 3259212092
I0107 23:04:20.843163  9127 layer_factory.hpp:77] Creating layer proposal_info
I0107 23:04:20.843175  9127 net.cpp:100] Creating Layer proposal_info
I0107 23:04:20.843181  9127 net.cpp:434] proposal_info <- proposals
I0107 23:04:20.843189  9127 net.cpp:434] proposal_info <- gt_boxes
I0107 23:04:20.843199  9127 net.cpp:408] proposal_info -> rois
I0107 23:04:20.843214  9127 net.cpp:408] proposal_info -> proposal_labels
I0107 23:04:20.843225  9127 net.cpp:408] proposal_info -> proposal_targets
I0107 23:04:20.843235  9127 net.cpp:408] proposal_info -> box_inside_weights
I0107 23:04:20.843245  9127 net.cpp:408] proposal_info -> box_outside_weights
I0107 23:04:20.843256  9127 net.cpp:408] proposal_info -> match_gt_boxes
I0107 23:04:20.843348  9127 net.cpp:150] Setting up proposal_info
I0107 23:04:20.843356  9127 net.cpp:157] Top shape: 256 5 1 1 (1280)
I0107 23:04:20.843363  9127 net.cpp:157] Top shape: 256 1 1 1 (256)
I0107 23:04:20.843369  9127 net.cpp:157] Top shape: 256 20 1 1 (5120)
I0107 23:04:20.843375  9127 net.cpp:157] Top shape: 256 20 1 1 (5120)
I0107 23:04:20.843384  9127 net.cpp:157] Top shape: 256 20 1 1 (5120)
I0107 23:04:20.843389  9127 net.cpp:157] Top shape: 256 6 1 1 (1536)
I0107 23:04:20.843394  9127 net.cpp:165] Memory required for data: 3259285820
I0107 23:04:20.843400  9127 layer_factory.hpp:77] Creating layer rois_proposal_info_0_split
I0107 23:04:20.843405  9127 net.cpp:100] Creating Layer rois_proposal_info_0_split
I0107 23:04:20.843411  9127 net.cpp:434] rois_proposal_info_0_split <- rois
I0107 23:04:20.843418  9127 net.cpp:408] rois_proposal_info_0_split -> rois_proposal_info_0_split_0
I0107 23:04:20.843427  9127 net.cpp:408] rois_proposal_info_0_split -> rois_proposal_info_0_split_1
I0107 23:04:20.843437  9127 net.cpp:408] rois_proposal_info_0_split -> rois_proposal_info_0_split_2
I0107 23:04:20.843487  9127 net.cpp:150] Setting up rois_proposal_info_0_split
I0107 23:04:20.843497  9127 net.cpp:157] Top shape: 256 5 1 1 (1280)
I0107 23:04:20.843502  9127 net.cpp:157] Top shape: 256 5 1 1 (1280)
I0107 23:04:20.843508  9127 net.cpp:157] Top shape: 256 5 1 1 (1280)
I0107 23:04:20.843513  9127 net.cpp:165] Memory required for data: 3259301180
I0107 23:04:20.843516  9127 layer_factory.hpp:77] Creating layer proposal_labels_proposal_info_1_split
I0107 23:04:20.843526  9127 net.cpp:100] Creating Layer proposal_labels_proposal_info_1_split
I0107 23:04:20.843534  9127 net.cpp:434] proposal_labels_proposal_info_1_split <- proposal_labels
I0107 23:04:20.843541  9127 net.cpp:408] proposal_labels_proposal_info_1_split -> proposal_labels_proposal_info_1_split_0
I0107 23:04:20.843550  9127 net.cpp:408] proposal_labels_proposal_info_1_split -> proposal_labels_proposal_info_1_split_1
I0107 23:04:20.843590  9127 net.cpp:150] Setting up proposal_labels_proposal_info_1_split
I0107 23:04:20.843600  9127 net.cpp:157] Top shape: 256 1 1 1 (256)
I0107 23:04:20.843605  9127 net.cpp:157] Top shape: 256 1 1 1 (256)
I0107 23:04:20.843611  9127 net.cpp:165] Memory required for data: 3259303228
I0107 23:04:20.843614  9127 layer_factory.hpp:77] Creating layer conv4_3_2x
I0107 23:04:20.843623  9127 net.cpp:100] Creating Layer conv4_3_2x
I0107 23:04:20.843631  9127 net.cpp:434] conv4_3_2x <- conv4_1/sep_relu4_1/sep_0_split_2
I0107 23:04:20.843641  9127 net.cpp:408] conv4_3_2x -> conv4_3_2x
I0107 23:04:20.843986  9127 net.cpp:150] Setting up conv4_3_2x
I0107 23:04:20.843997  9127 net.cpp:157] Top shape: 3 256 192 192 (28311552)
I0107 23:04:20.844002  9127 net.cpp:165] Memory required for data: 3372549436
I0107 23:04:20.844008  9127 layer_factory.hpp:77] Creating layer conv4_3_2x_conv4_3_2x_0_split
I0107 23:04:20.844015  9127 net.cpp:100] Creating Layer conv4_3_2x_conv4_3_2x_0_split
I0107 23:04:20.844022  9127 net.cpp:434] conv4_3_2x_conv4_3_2x_0_split <- conv4_3_2x
I0107 23:04:20.844028  9127 net.cpp:408] conv4_3_2x_conv4_3_2x_0_split -> conv4_3_2x_conv4_3_2x_0_split_0
I0107 23:04:20.844038  9127 net.cpp:408] conv4_3_2x_conv4_3_2x_0_split -> conv4_3_2x_conv4_3_2x_0_split_1
I0107 23:04:20.844079  9127 net.cpp:150] Setting up conv4_3_2x_conv4_3_2x_0_split
I0107 23:04:20.844087  9127 net.cpp:157] Top shape: 3 256 192 192 (28311552)
I0107 23:04:20.844094  9127 net.cpp:157] Top shape: 3 256 192 192 (28311552)
I0107 23:04:20.844099  9127 net.cpp:165] Memory required for data: 3599041852
I0107 23:04:20.844102  9127 layer_factory.hpp:77] Creating layer roi_pool_org
I0107 23:04:20.844110  9127 net.cpp:100] Creating Layer roi_pool_org
I0107 23:04:20.844117  9127 net.cpp:434] roi_pool_org <- conv4_3_2x_conv4_3_2x_0_split_0
I0107 23:04:20.844125  9127 net.cpp:434] roi_pool_org <- rois_proposal_info_0_split_0
I0107 23:04:20.844132  9127 net.cpp:408] roi_pool_org -> roi_pool_org
I0107 23:04:20.844146  9127 roi_pooling_layer.cpp:33] Spatial scale: 0.25
I0107 23:04:20.844188  9127 net.cpp:150] Setting up roi_pool_org
I0107 23:04:20.844197  9127 net.cpp:157] Top shape: 256 256 7 7 (3211264)
I0107 23:04:20.844202  9127 net.cpp:165] Memory required for data: 3611886908
I0107 23:04:20.844207  9127 layer_factory.hpp:77] Creating layer roi_pool_ctx
I0107 23:04:20.844213  9127 net.cpp:100] Creating Layer roi_pool_ctx
I0107 23:04:20.844219  9127 net.cpp:434] roi_pool_ctx <- conv4_3_2x_conv4_3_2x_0_split_1
I0107 23:04:20.844226  9127 net.cpp:434] roi_pool_ctx <- rois_proposal_info_0_split_1
I0107 23:04:20.844235  9127 net.cpp:408] roi_pool_ctx -> roi_pool_ctx
I0107 23:04:20.844254  9127 roi_pooling_layer.cpp:33] Spatial scale: 0.25
I0107 23:04:20.844296  9127 net.cpp:150] Setting up roi_pool_ctx
I0107 23:04:20.844306  9127 net.cpp:157] Top shape: 256 256 7 7 (3211264)
I0107 23:04:20.844311  9127 net.cpp:165] Memory required for data: 3624731964
I0107 23:04:20.844316  9127 layer_factory.hpp:77] Creating layer roi_pool
I0107 23:04:20.844329  9127 net.cpp:100] Creating Layer roi_pool
I0107 23:04:20.844336  9127 net.cpp:434] roi_pool <- roi_pool_org
I0107 23:04:20.844343  9127 net.cpp:434] roi_pool <- roi_pool_ctx
I0107 23:04:20.844350  9127 net.cpp:408] roi_pool -> roi_pool
I0107 23:04:20.844378  9127 net.cpp:150] Setting up roi_pool
I0107 23:04:20.844386  9127 net.cpp:157] Top shape: 256 512 7 7 (6422528)
I0107 23:04:20.844391  9127 net.cpp:165] Memory required for data: 3650422076
I0107 23:04:20.844396  9127 layer_factory.hpp:77] Creating layer roi_c1
I0107 23:04:20.844406  9127 net.cpp:100] Creating Layer roi_c1
I0107 23:04:20.844413  9127 net.cpp:434] roi_c1 <- roi_pool
I0107 23:04:20.844420  9127 net.cpp:408] roi_c1 -> roi_c1
I0107 23:04:20.877003  9127 net.cpp:150] Setting up roi_c1
I0107 23:04:20.877032  9127 net.cpp:157] Top shape: 256 256 5 5 (1638400)
I0107 23:04:20.877038  9127 net.cpp:165] Memory required for data: 3656975676
I0107 23:04:20.877051  9127 layer_factory.hpp:77] Creating layer roi_c1_relu
I0107 23:04:20.877065  9127 net.cpp:100] Creating Layer roi_c1_relu
I0107 23:04:20.877075  9127 net.cpp:434] roi_c1_relu <- roi_c1
I0107 23:04:20.877084  9127 net.cpp:395] roi_c1_relu -> roi_c1 (in-place)
I0107 23:04:20.877259  9127 net.cpp:150] Setting up roi_c1_relu
I0107 23:04:20.877269  9127 net.cpp:157] Top shape: 256 256 5 5 (1638400)
I0107 23:04:20.877274  9127 net.cpp:165] Memory required for data: 3663529276
I0107 23:04:20.877279  9127 layer_factory.hpp:77] Creating layer fc6
I0107 23:04:20.877290  9127 net.cpp:100] Creating Layer fc6
I0107 23:04:20.877296  9127 net.cpp:434] fc6 <- roi_c1
I0107 23:04:20.877306  9127 net.cpp:408] fc6 -> fc6
I0107 23:04:21.520443  9127 net.cpp:150] Setting up fc6
I0107 23:04:21.520478  9127 net.cpp:157] Top shape: 256 4096 (1048576)
I0107 23:04:21.520483  9127 net.cpp:165] Memory required for data: 3667723580
I0107 23:04:21.520495  9127 layer_factory.hpp:77] Creating layer relu6
I0107 23:04:21.520510  9127 net.cpp:100] Creating Layer relu6
I0107 23:04:21.520519  9127 net.cpp:434] relu6 <- fc6
I0107 23:04:21.520526  9127 net.cpp:395] relu6 -> fc6 (in-place)
I0107 23:04:21.520766  9127 net.cpp:150] Setting up relu6
I0107 23:04:21.520779  9127 net.cpp:157] Top shape: 256 4096 (1048576)
I0107 23:04:21.520783  9127 net.cpp:165] Memory required for data: 3671917884
I0107 23:04:21.520788  9127 layer_factory.hpp:77] Creating layer drop6
I0107 23:04:21.520804  9127 net.cpp:100] Creating Layer drop6
I0107 23:04:21.520812  9127 net.cpp:434] drop6 <- fc6
I0107 23:04:21.520817  9127 net.cpp:395] drop6 -> fc6 (in-place)
I0107 23:04:21.520845  9127 net.cpp:150] Setting up drop6
I0107 23:04:21.520856  9127 net.cpp:157] Top shape: 256 4096 (1048576)
I0107 23:04:21.520860  9127 net.cpp:165] Memory required for data: 3676112188
I0107 23:04:21.520865  9127 layer_factory.hpp:77] Creating layer fc6_drop6_0_split
I0107 23:04:21.520872  9127 net.cpp:100] Creating Layer fc6_drop6_0_split
I0107 23:04:21.520877  9127 net.cpp:434] fc6_drop6_0_split <- fc6
I0107 23:04:21.520885  9127 net.cpp:408] fc6_drop6_0_split -> fc6_drop6_0_split_0
I0107 23:04:21.520895  9127 net.cpp:408] fc6_drop6_0_split -> fc6_drop6_0_split_1
I0107 23:04:21.520938  9127 net.cpp:150] Setting up fc6_drop6_0_split
I0107 23:04:21.520948  9127 net.cpp:157] Top shape: 256 4096 (1048576)
I0107 23:04:21.520954  9127 net.cpp:157] Top shape: 256 4096 (1048576)
I0107 23:04:21.520958  9127 net.cpp:165] Memory required for data: 3684500796
I0107 23:04:21.520963  9127 layer_factory.hpp:77] Creating layer cls_pred
I0107 23:04:21.520972  9127 net.cpp:100] Creating Layer cls_pred
I0107 23:04:21.520979  9127 net.cpp:434] cls_pred <- fc6_drop6_0_split_0
I0107 23:04:21.520989  9127 net.cpp:408] cls_pred -> cls_pred
I0107 23:04:21.521613  9127 net.cpp:150] Setting up cls_pred
I0107 23:04:21.521623  9127 net.cpp:157] Top shape: 256 5 (1280)
I0107 23:04:21.521627  9127 net.cpp:165] Memory required for data: 3684505916
I0107 23:04:21.521639  9127 layer_factory.hpp:77] Creating layer cls_pred_cls_pred_0_split
I0107 23:04:21.521651  9127 net.cpp:100] Creating Layer cls_pred_cls_pred_0_split
I0107 23:04:21.521657  9127 net.cpp:434] cls_pred_cls_pred_0_split <- cls_pred
I0107 23:04:21.521664  9127 net.cpp:408] cls_pred_cls_pred_0_split -> cls_pred_cls_pred_0_split_0
I0107 23:04:21.521677  9127 net.cpp:408] cls_pred_cls_pred_0_split -> cls_pred_cls_pred_0_split_1
I0107 23:04:21.521719  9127 net.cpp:150] Setting up cls_pred_cls_pred_0_split
I0107 23:04:21.521729  9127 net.cpp:157] Top shape: 256 5 (1280)
I0107 23:04:21.521737  9127 net.cpp:157] Top shape: 256 5 (1280)
I0107 23:04:21.521742  9127 net.cpp:165] Memory required for data: 3684516156
I0107 23:04:21.521749  9127 layer_factory.hpp:77] Creating layer bbox_pred
I0107 23:04:21.521759  9127 net.cpp:100] Creating Layer bbox_pred
I0107 23:04:21.521767  9127 net.cpp:434] bbox_pred <- fc6_drop6_0_split_1
I0107 23:04:21.521777  9127 net.cpp:408] bbox_pred -> bbox_pred
I0107 23:04:21.523912  9127 net.cpp:150] Setting up bbox_pred
I0107 23:04:21.523921  9127 net.cpp:157] Top shape: 256 20 (5120)
I0107 23:04:21.523926  9127 net.cpp:165] Memory required for data: 3684536636
I0107 23:04:21.523932  9127 layer_factory.hpp:77] Creating layer bbox_pred_bbox_pred_0_split
I0107 23:04:21.523939  9127 net.cpp:100] Creating Layer bbox_pred_bbox_pred_0_split
I0107 23:04:21.523944  9127 net.cpp:434] bbox_pred_bbox_pred_0_split <- bbox_pred
I0107 23:04:21.523952  9127 net.cpp:408] bbox_pred_bbox_pred_0_split -> bbox_pred_bbox_pred_0_split_0
I0107 23:04:21.523960  9127 net.cpp:408] bbox_pred_bbox_pred_0_split -> bbox_pred_bbox_pred_0_split_1
I0107 23:04:21.523990  9127 net.cpp:150] Setting up bbox_pred_bbox_pred_0_split
I0107 23:04:21.523998  9127 net.cpp:157] Top shape: 256 20 (5120)
I0107 23:04:21.524003  9127 net.cpp:157] Top shape: 256 20 (5120)
I0107 23:04:21.524006  9127 net.cpp:165] Memory required for data: 3684577596
I0107 23:04:21.524010  9127 layer_factory.hpp:77] Creating layer loss_cls
I0107 23:04:21.524019  9127 net.cpp:100] Creating Layer loss_cls
I0107 23:04:21.524024  9127 net.cpp:434] loss_cls <- cls_pred_cls_pred_0_split_0
I0107 23:04:21.524030  9127 net.cpp:434] loss_cls <- proposal_labels_proposal_info_1_split_0
…
I0107 23:04:21.540627  9127 image_gt_data_layer.cpp:235] output label size 2 : 1,6,48,48
I0107 23:04:21.540668  9127 image_gt_data_layer.cpp:235] output label size 3 : 1,6,48,48
I0107 23:04:21.540709  9127 image_gt_data_layer.cpp:235] output label size 4 : 1,6,24,24
I0107 23:04:21.540750  9127 image_gt_data_layer.cpp:235] output label size 5 : 1,6,24,24
I0107 23:04:21.540791  9127 image_gt_data_layer.cpp:235] output label size 6 : 1,6,12,12
I0107 23:04:21.540832  9127 image_gt_data_layer.cpp:250] output gt boxes size: 1,7,1,1
I0107 23:04:21.555766  9127 net.cpp:150] Setting up data
I0107 23:04:21.555804  9127 net.cpp:157] Top shape: 1 3 768 768 (1769472)
I0107 23:04:21.555810  9127 net.cpp:157] Top shape: 1 6 96 96 (55296)
I0107 23:04:21.555814  9127 net.cpp:157] Top shape: 1 6 96 96 (55296)
I0107 23:04:21.555819  9127 net.cpp:157] Top shape: 1 6 48 48 (13824)
I0107 23:04:21.555822  9127 net.cpp:157] Top shape: 1 6 48 48 (13824)
I0107 23:04:21.555826  9127 net.cpp:157] Top shape: 1 6 24 24 (3456)
I0107 23:04:21.555830  9127 net.cpp:157] Top shape: 1 6 24 24 (3456)
I0107 23:04:21.555833  9127 net.cpp:157] Top shape: 1 6 12 12 (864)
I0107 23:04:21.555840  9127 net.cpp:157] Top shape: 1 7 1 1 (7)
I0107 23:04:21.555842  9127 net.cpp:165] Memory required for data: 7661980
I0107 23:04:21.555852  9127 layer_factory.hpp:77] Creating layer label_1_5x5_data_1_split
I0107 23:04:21.555872  9127 net.cpp:100] Creating Layer label_1_5x5_data_1_split
I0107 23:04:21.555878  9127 net.cpp:434] label_1_5x5_data_1_split <- label_1_5x5
I0107 23:04:21.555887  9127 net.cpp:408] label_1_5x5_data_1_split -> label_1_5x5_data_1_split_0
I0107 23:04:21.555900  9127 net.cpp:408] label_1_5x5_data_1_split -> label_1_5x5_data_1_split_1
I0107 23:04:21.555965  9127 net.cpp:150] Setting up label_1_5x5_data_1_split
I0107 23:04:21.555970  9127 net.cpp:157] Top shape: 1 6 96 96 (55296)
I0107 23:04:21.555974  9127 net.cpp:157] Top shape: 1 6 96 96 (55296)
I0107 23:04:21.555977  9127 net.cpp:165] Memory required for data: 8104348
I0107 23:04:21.555981  9127 layer_factory.hpp:77] Creating layer label_1_7x7_data_2_split
I0107 23:04:21.555987  9127 net.cpp:100] Creating Layer label_1_7x7_data_2_split
I0107 23:04:21.555991  9127 net.cpp:434] label_1_7x7_data_2_split <- label_1_7x7
I0107 23:04:21.555996  9127 net.cpp:408] label_1_7x7_data_2_split -> label_1_7x7_data_2_split_0
I0107 23:04:21.556002  9127 net.cpp:408] label_1_7x7_data_2_split -> label_1_7x7_data_2_split_1
I0107 23:04:21.556042  9127 net.cpp:150] Setting up label_1_7x7_data_2_split
I0107 23:04:21.556047  9127 net.cpp:157] Top shape: 1 6 96 96 (55296)
I0107 23:04:21.556052  9127 net.cpp:157] Top shape: 1 6 96 96 (55296)
I0107 23:04:21.556056  9127 net.cpp:165] Memory required for data: 8546716
I0107 23:04:21.556058  9127 layer_factory.hpp:77] Creating layer label_2_5x5_data_3_split
I0107 23:04:21.556063  9127 net.cpp:100] Creating Layer label_2_5x5_data_3_split
I0107 23:04:21.556067  9127 net.cpp:434] label_2_5x5_data_3_split <- label_2_5x5
I0107 23:04:21.556072  9127 net.cpp:408] label_2_5x5_data_3_split -> label_2_5x5_data_3_split_0
I0107 23:04:21.556079  9127 net.cpp:408] label_2_5x5_data_3_split -> label_2_5x5_data_3_split_1
I0107 23:04:21.558002  9127 net.cpp:150] Setting up label_2_5x5_data_3_split
I0107 23:04:21.558053  9127 net.cpp:157] Top shape: 1 6 48 48 (13824)
I0107 23:04:21.558058  9127 net.cpp:157] Top shape: 1 6 48 48 (13824)
I0107 23:04:21.558063  9127 net.cpp:165] Memory required for data: 8657308
I0107 23:04:21.558071  9127 layer_factory.hpp:77] Creating layer label_2_7x7_data_4_split
I0107 23:04:21.558092  9127 net.cpp:100] Creating Layer label_2_7x7_data_4_split
I0107 23:04:21.558099  9127 net.cpp:434] label_2_7x7_data_4_split <- label_2_7x7
I0107 23:04:21.558109  9127 net.cpp:408] label_2_7x7_data_4_split -> label_2_7x7_data_4_split_0
I0107 23:04:21.558120  9127 net.cpp:408] label_2_7x7_data_4_split -> label_2_7x7_data_4_split_1
I0107 23:04:21.558157  9127 net.cpp:150] Setting up label_2_7x7_data_4_split
I0107 23:04:21.558162  9127 net.cpp:157] Top shape: 1 6 48 48 (13824)
I0107 23:04:21.558168  9127 net.cpp:157] Top shape: 1 6 48 48 (13824)
I0107 23:04:21.558171  9127 net.cpp:165] Memory required for data: 8767900
I0107 23:04:21.558174  9127 layer_factory.hpp:77] Creating layer label_3_5x5_data_5_split
I0107 23:04:21.558179  9127 net.cpp:100] Creating Layer label_3_5x5_data_5_split
I0107 23:04:21.558182  9127 net.cpp:434] label_3_5x5_data_5_split <- label_3_5x5
I0107 23:04:21.558187  9127 net.cpp:408] label_3_5x5_data_5_split -> label_3_5x5_data_5_split_0
I0107 23:04:21.558192  9127 net.cpp:408] label_3_5x5_data_5_split -> label_3_5x5_data_5_split_1
I0107 23:04:21.558224  9127 net.cpp:150] Setting up label_3_5x5_data_5_split
I0107 23:04:21.558229  9127 net.cpp:157] Top shape: 1 6 24 24 (3456)
I0107 23:04:21.558233  9127 net.cpp:157] Top shape: 1 6 24 24 (3456)
I0107 23:04:21.558236  9127 net.cpp:165] Memory required for data: 8795548
I0107 23:04:21.558239  9127 layer_factory.hpp:77] Creating layer label_3_7x7_data_6_split
I0107 23:04:21.558243  9127 net.cpp:100] Creating Layer label_3_7x7_data_6_split
I0107 23:04:21.558248  9127 net.cpp:434] label_3_7x7_data_6_split <- label_3_7x7
I0107 23:04:21.558251  9127 net.cpp:408] label_3_7x7_data_6_split -> label_3_7x7_data_6_split_0
I0107 23:04:21.558256  9127 net.cpp:408] label_3_7x7_data_6_split -> label_3_7x7_data_6_split_1
I0107 23:04:21.558287  9127 net.cpp:150] Setting up label_3_7x7_data_6_split
I0107 23:04:21.558295  9127 net.cpp:157] Top shape: 1 6 24 24 (3456)
I0107 23:04:21.558298  9127 net.cpp:157] Top shape: 1 6 24 24 (3456)
I0107 23:04:21.558301  9127 net.cpp:165] Memory required for data: 8823196
I0107 23:04:21.558305  9127 layer_factory.hpp:77] Creating layer label_4_5x5_data_7_split
I0107 23:04:21.558308  9127 net.cpp:100] Creating Layer label_4_5x5_data_7_split
I0107 23:04:21.558312  9127 net.cpp:434] label_4_5x5_data_7_split <- label_4_5x5
I0107 23:04:21.558316  9127 net.cpp:408] label_4_5x5_data_7_split -> label_4_5x5_data_7_split_0
I0107 23:04:21.558322  9127 net.cpp:408] label_4_5x5_data_7_split -> label_4_5x5_data_7_split_1
I0107 23:04:21.558352  9127 net.cpp:150] Setting up label_4_5x5_data_7_split
I0107 23:04:21.558357  9127 net.cpp:157] Top shape: 1 6 12 12 (864)
I0107 23:04:21.558362  9127 net.cpp:157] Top shape: 1 6 12 12 (864)
I0107 23:04:21.558364  9127 net.cpp:165] Memory required for data: 8830108
I0107 23:04:21.558367  9127 layer_factory.hpp:77] Creating layer conv1
I0107 23:04:21.558380  9127 net.cpp:100] Creating Layer conv1
I0107 23:04:21.558383  9127 net.cpp:434] conv1 <- data
I0107 23:04:21.558389  9127 net.cpp:408] conv1 -> conv1
I0107 23:04:21.559970  9127 net.cpp:150] Setting up conv1
I0107 23:04:21.560009  9127 net.cpp:157] Top shape: 1 32 384 384 (4718592)
I0107 23:04:21.560017  9127 net.cpp:165] Memory required for data: 27704476
I0107 23:04:21.560039  9127 layer_factory.hpp:77] Creating layer conv1/bn
I0107 23:04:21.560060  9127 net.cpp:100] Creating Layer conv1/bn
I0107 23:04:21.560070  9127 net.cpp:434] conv1/bn <- conv1
I0107 23:04:21.560081  9127 net.cpp:395] conv1/bn -> conv1 (in-place)
I0107 23:04:21.563975  9127 net.cpp:150] Setting up conv1/bn
I0107 23:04:21.564015  9127 net.cpp:157] Top shape: 1 32 384 384 (4718592)
I0107 23:04:21.564024  9127 net.cpp:165] Memory required for data: 46578844
I0107 23:04:21.564054  9127 layer_factory.hpp:77] Creating layer conv1/scale
I0107 23:04:21.564076  9127 net.cpp:100] Creating Layer conv1/scale
I0107 23:04:21.564086  9127 net.cpp:434] conv1/scale <- conv1
I0107 23:04:21.564118  9127 net.cpp:395] conv1/scale -> conv1 (in-place)
I0107 23:04:21.564229  9127 layer_factory.hpp:77] Creating layer conv1/scale
I0107 23:04:21.564918  9127 net.cpp:150] Setting up conv1/scale
I0107 23:04:21.564934  9127 net.cpp:157] Top shape: 1 32 384 384 (4718592)
I0107 23:04:21.564944  9127 net.cpp:165] Memory required for data: 65453212
I0107 23:04:21.564961  9127 layer_factory.hpp:77] Creating layer relu1
I0107 23:04:21.564975  9127 net.cpp:100] Creating Layer relu1
I0107 23:04:21.564982  9127 net.cpp:434] relu1 <- conv1
I0107 23:04:21.564993  9127 net.cpp:395] relu1 -> conv1 (in-place)
I0107 23:04:21.565425  9127 net.cpp:150] Setting up relu1
I0107 23:04:21.565443  9127 net.cpp:157] Top shape: 1 32 384 384 (4718592)
I0107 23:04:21.565449  9127 net.cpp:165] Memory required for data: 84327580
I0107 23:04:21.565456  9127 layer_factory.hpp:77] Creating layer conv2_1/dw
I0107 23:04:21.565474  9127 net.cpp:100] Creating Layer conv2_1/dw
I0107 23:04:21.565482  9127 net.cpp:434] conv2_1/dw <- conv1
I0107 23:04:21.565496  9127 net.cpp:408] conv2_1/dw -> conv2_1/dw
I0107 23:04:21.566035  9127 net.cpp:150] Setting up conv2_1/dw
I0107 23:04:21.566052  9127 net.cpp:157] Top shape: 1 32 384 384 (4718592)
I0107 23:04:21.566061  9127 net.cpp:165] Memory required for data: 103201948
I0107 23:04:21.566071  9127 layer_factory.hpp:77] Creating layer conv2_1/dw/bn
I0107 23:04:21.566085  9127 net.cpp:100] Creating Layer conv2_1/dw/bn
I0107 23:04:21.566093  9127 net.cpp:434] conv2_1/dw/bn <- conv2_1/dw
I0107 23:04:21.566103  9127 net.cpp:395] conv2_1/dw/bn -> conv2_1/dw (in-place)
I0107 23:04:21.568045  9127 net.cpp:150] Setting up conv2_1/dw/bn
I0107 23:04:21.568059  9127 net.cpp:157] Top shape: 1 32 384 384 (4718592)
I0107 23:04:21.568063  9127 net.cpp:165] Memory required for data: 122076316
I0107 23:04:21.568076  9127 layer_factory.hpp:77] Creating layer conv2_1/dw/scale
I0107 23:04:21.568089  9127 net.cpp:100] Creating Layer conv2_1/dw/scale
I0107 23:04:21.568094  9127 net.cpp:434] conv2_1/dw/scale <- conv2_1/dw
I0107 23:04:21.568101  9127 net.cpp:395] conv2_1/dw/scale -> conv2_1/dw (in-place)
I0107 23:04:21.568153  9127 layer_factory.hpp:77] Creating layer conv2_1/dw/scale
I0107 23:04:21.568570  9127 net.cpp:150] Setting up conv2_1/dw/scale
I0107 23:04:21.568581  9127 net.cpp:157] Top shape: 1 32 384 384 (4718592)
I0107 23:04:21.568586  9127 net.cpp:165] Memory required for data: 140950684
I0107 23:04:21.568596  9127 layer_factory.hpp:77] Creating layer relu2_1/dw
I0107 23:04:21.568606  9127 net.cpp:100] Creating Layer relu2_1/dw
I0107 23:04:21.568611  9127 net.cpp:434] relu2_1/dw <- conv2_1/dw
I0107 23:04:21.568620  9127 net.cpp:395] relu2_1/dw -> conv2_1/dw (in-place)
I0107 23:04:21.569002  9127 net.cpp:150] Setting up relu2_1/dw
I0107 23:04:21.569015  9127 net.cpp:157] Top shape: 1 32 384 384 (4718592)
I0107 23:04:21.569020  9127 net.cpp:165] Memory required for data: 159825052
I0107 23:04:21.569025  9127 layer_factory.hpp:77] Creating layer conv2_1/sep
I0107 23:04:21.569046  9127 net.cpp:100] Creating Layer conv2_1/sep
I0107 23:04:21.569051  9127 net.cpp:434] conv2_1/sep <- conv2_1/dw
I0107 23:04:21.569062  9127 net.cpp:408] conv2_1/sep -> conv2_1/sep
I0107 23:04:21.571842  9127 net.cpp:150] Setting up conv2_1/sep
I0107 23:04:21.571905  9127 net.cpp:157] Top shape: 1 64 384 384 (9437184)
I0107 23:04:21.571911  9127 net.cpp:165] Memory required for data: 197573788
I0107 23:04:21.571928  9127 layer_factory.hpp:77] Creating layer conv2_1/sep/bn
I0107 23:04:21.571959  9127 net.cpp:100] Creating Layer conv2_1/sep/bn
I0107 23:04:21.571970  9127 net.cpp:434] conv2_1/sep/bn <- conv2_1/sep
I0107 23:04:21.571982  9127 net.cpp:395] conv2_1/sep/bn -> conv2_1/sep (in-place)
I0107 23:04:21.575074  9127 net.cpp:150] Setting up conv2_1/sep/bn
I0107 23:04:21.575114  9127 net.cpp:157] Top shape: 1 64 384 384 (9437184)
I0107 23:04:21.575119  9127 net.cpp:165] Memory required for data: 235322524
I0107 23:04:21.575137  9127 layer_factory.hpp:77] Creating layer conv2_1/sep/scale
I0107 23:04:21.575158  9127 net.cpp:100] Creating Layer conv2_1/sep/scale
I0107 23:04:21.575166  9127 net.cpp:434] conv2_1/sep/scale <- conv2_1/sep
I0107 23:04:21.575177  9127 net.cpp:395] conv2_1/sep/scale -> conv2_1/sep (in-place)
I0107 23:04:21.575253  9127 layer_factory.hpp:77] Creating layer conv2_1/sep/scale
I0107 23:04:21.576331  9127 net.cpp:150] Setting up conv2_1/sep/scale
I0107 23:04:21.576354  9127 net.cpp:157] Top shape: 1 64 384 384 (9437184)
I0107 23:04:21.576356  9127 net.cpp:165] Memory required for data: 273071260
I0107 23:04:21.576383  9127 layer_factory.hpp:77] Creating layer relu2_1/sep
I0107 23:04:21.576396  9127 net.cpp:100] Creating Layer relu2_1/sep
I0107 23:04:21.576406  9127 net.cpp:434] relu2_1/sep <- conv2_1/sep
I0107 23:04:21.576412  9127 net.cpp:395] relu2_1/sep -> conv2_1/sep (in-place)
I0107 23:04:21.576843  9127 net.cpp:150] Setting up relu2_1/sep
I0107 23:04:21.576854  9127 net.cpp:157] Top shape: 1 64 384 384 (9437184)
I0107 23:04:21.576858  9127 net.cpp:165] Memory required for data: 310819996
I0107 23:04:21.576861  9127 layer_factory.hpp:77] Creating layer conv2_2/dw
I0107 23:04:21.576880  9127 net.cpp:100] Creating Layer conv2_2/dw
I0107 23:04:21.576884  9127 net.cpp:434] conv2_2/dw <- conv2_1/sep
I0107 23:04:21.576894  9127 net.cpp:408] conv2_2/dw -> conv2_2/dw
I0107 23:04:21.577188  9127 net.cpp:150] Setting up conv2_2/dw
I0107 23:04:21.577195  9127 net.cpp:157] Top shape: 1 64 192 192 (2359296)
I0107 23:04:21.577198  9127 net.cpp:165] Memory required for data: 320257180
I0107 23:04:21.577203  9127 layer_factory.hpp:77] Creating layer conv2_2/dw/bn
I0107 23:04:21.577213  9127 net.cpp:100] Creating Layer conv2_2/dw/bn
I0107 23:04:21.577215  9127 net.cpp:434] conv2_2/dw/bn <- conv2_2/dw
I0107 23:04:21.577220  9127 net.cpp:395] conv2_2/dw/bn -> conv2_2/dw (in-place)
I0107 23:04:21.577464  9127 net.cpp:150] Setting up conv2_2/dw/bn
I0107 23:04:21.577471  9127 net.cpp:157] Top shape: 1 64 192 192 (2359296)
I0107 23:04:21.577476  9127 net.cpp:165] Memory required for data: 329694364
I0107 23:04:21.577483  9127 layer_factory.hpp:77] Creating layer conv2_2/dw/scale
I0107 23:04:21.577494  9127 net.cpp:100] Creating Layer conv2_2/dw/scale
I0107 23:04:21.577498  9127 net.cpp:434] conv2_2/dw/scale <- conv2_2/dw
I0107 23:04:21.577505  9127 net.cpp:395] conv2_2/dw/scale -> conv2_2/dw (in-place)
I0107 23:04:21.577548  9127 layer_factory.hpp:77] Creating layer conv2_2/dw/scale
I0107 23:04:21.577756  9127 net.cpp:150] Setting up conv2_2/dw/scale
I0107 23:04:21.577769  9127 net.cpp:157] Top shape: 1 64 192 192 (2359296)
I0107 23:04:21.577772  9127 net.cpp:165] Memory required for data: 339131548
I0107 23:04:21.577778  9127 layer_factory.hpp:77] Creating layer relu2_2/dw
I0107 23:04:21.577786  9127 net.cpp:100] Creating Layer relu2_2/dw
I0107 23:04:21.577790  9127 net.cpp:434] relu2_2/dw <- conv2_2/dw
I0107 23:04:21.577796  9127 net.cpp:395] relu2_2/dw -> conv2_2/dw (in-place)
I0107 23:04:21.578081  9127 net.cpp:150] Setting up relu2_2/dw
I0107 23:04:21.578094  9127 net.cpp:157] Top shape: 1 64 192 192 (2359296)
I0107 23:04:21.578097  9127 net.cpp:165] Memory required for data: 348568732
I0107 23:04:21.578101  9127 layer_factory.hpp:77] Creating layer conv2_2/sep
I0107 23:04:21.578119  9127 net.cpp:100] Creating Layer conv2_2/sep
I0107 23:04:21.578124  9127 net.cpp:434] conv2_2/sep <- conv2_2/dw
I0107 23:04:21.578130  9127 net.cpp:408] conv2_2/sep -> conv2_2/sep
I0107 23:04:21.579850  9127 net.cpp:150] Setting up conv2_2/sep
I0107 23:04:21.579866  9127 net.cpp:157] Top shape: 1 128 192 192 (4718592)
I0107 23:04:21.579870  9127 net.cpp:165] Memory required for data: 367443100
I0107 23:04:21.579877  9127 layer_factory.hpp:77] Creating layer conv2_2/sep/bn
I0107 23:04:21.579887  9127 net.cpp:100] Creating Layer conv2_2/sep/bn
I0107 23:04:21.579891  9127 net.cpp:434] conv2_2/sep/bn <- conv2_2/sep
I0107 23:04:21.579897  9127 net.cpp:395] conv2_2/sep/bn -> conv2_2/sep (in-place)
I0107 23:04:21.580116  9127 net.cpp:150] Setting up conv2_2/sep/bn
I0107 23:04:21.580122  9127 net.cpp:157] Top shape: 1 128 192 192 (4718592)
I0107 23:04:21.580126  9127 net.cpp:165] Memory required for data: 386317468
I0107 23:04:21.580135  9127 layer_factory.hpp:77] Creating layer conv2_2/sep/scale
I0107 23:04:21.580147  9127 net.cpp:100] Creating Layer conv2_2/sep/scale
I0107 23:04:21.580152  9127 net.cpp:434] conv2_2/sep/scale <- conv2_2/sep
I0107 23:04:21.580162  9127 net.cpp:395] conv2_2/sep/scale -> conv2_2/sep (in-place)
I0107 23:04:21.580215  9127 layer_factory.hpp:77] Creating layer conv2_2/sep/scale
I0107 23:04:21.580435  9127 net.cpp:150] Setting up conv2_2/sep/scale
I0107 23:04:21.580443  9127 net.cpp:157] Top shape: 1 128 192 192 (4718592)
I0107 23:04:21.580448  9127 net.cpp:165] Memory required for data: 405191836
I0107 23:04:21.580456  9127 layer_factory.hpp:77] Creating layer relu2_2/sep
I0107 23:04:21.580466  9127 net.cpp:100] Creating Layer relu2_2/sep
I0107 23:04:21.580469  9127 net.cpp:434] relu2_2/sep <- conv2_2/sep
…
I0107 23:04:21.675386  9127 net.cpp:157] Top shape: 1 512 48 48 (1179648)
I0107 23:04:21.675390  9127 net.cpp:165] Memory required for data: 936328388
I0107 23:04:21.675392  9127 layer_factory.hpp:77] Creating layer conv5_3/sep
I0107 23:04:21.675402  9127 net.cpp:100] Creating Layer conv5_3/sep
I0107 23:04:21.675406  9127 net.cpp:434] conv5_3/sep <- conv5_3/dw
I0107 23:04:21.675412  9127 net.cpp:408] conv5_3/sep -> conv5_3/sep
I0107 23:04:21.683670  9127 net.cpp:150] Setting up conv5_3/sep
I0107 23:04:21.683686  9127 net.cpp:157] Top shape: 1 512 48 48 (1179648)
I0107 23:04:21.683688  9127 net.cpp:165] Memory required for data: 941046980
I0107 23:04:21.683694  9127 layer_factory.hpp:77] Creating layer conv5_3/sep/bn
I0107 23:04:21.683703  9127 net.cpp:100] Creating Layer conv5_3/sep/bn
I0107 23:04:21.683708  9127 net.cpp:434] conv5_3/sep/bn <- conv5_3/sep
I0107 23:04:21.683714  9127 net.cpp:395] conv5_3/sep/bn -> conv5_3/sep (in-place)
I0107 23:04:21.683917  9127 net.cpp:150] Setting up conv5_3/sep/bn
I0107 23:04:21.683923  9127 net.cpp:157] Top shape: 1 512 48 48 (1179648)
I0107 23:04:21.683925  9127 net.cpp:165] Memory required for data: 945765572
I0107 23:04:21.683933  9127 layer_factory.hpp:77] Creating layer conv5_3/sep/scale
I0107 23:04:21.683940  9127 net.cpp:100] Creating Layer conv5_3/sep/scale
I0107 23:04:21.683943  9127 net.cpp:434] conv5_3/sep/scale <- conv5_3/sep
I0107 23:04:21.683948  9127 net.cpp:395] conv5_3/sep/scale -> conv5_3/sep (in-place)
I0107 23:04:21.683984  9127 layer_factory.hpp:77] Creating layer conv5_3/sep/scale
I0107 23:04:21.684095  9127 net.cpp:150] Setting up conv5_3/sep/scale
I0107 23:04:21.684101  9127 net.cpp:157] Top shape: 1 512 48 48 (1179648)
I0107 23:04:21.684104  9127 net.cpp:165] Memory required for data: 950484164
I0107 23:04:21.684109  9127 layer_factory.hpp:77] Creating layer relu5_3/sep
I0107 23:04:21.684115  9127 net.cpp:100] Creating Layer relu5_3/sep
I0107 23:04:21.684118  9127 net.cpp:434] relu5_3/sep <- conv5_3/sep
I0107 23:04:21.684123  9127 net.cpp:395] relu5_3/sep -> conv5_3/sep (in-place)
I0107 23:04:21.684284  9127 net.cpp:150] Setting up relu5_3/sep
I0107 23:04:21.684290  9127 net.cpp:157] Top shape: 1 512 48 48 (1179648)
I0107 23:04:21.684293  9127 net.cpp:165] Memory required for data: 955202756
I0107 23:04:21.684298  9127 layer_factory.hpp:77] Creating layer conv5_4/dw
I0107 23:04:21.684306  9127 net.cpp:100] Creating Layer conv5_4/dw
I0107 23:04:21.684309  9127 net.cpp:434] conv5_4/dw <- conv5_3/sep
I0107 23:04:21.684316  9127 net.cpp:408] conv5_4/dw -> conv5_4/dw
I0107 23:04:21.684626  9127 net.cpp:150] Setting up conv5_4/dw
I0107 23:04:21.684633  9127 net.cpp:157] Top shape: 1 512 48 48 (1179648)
I0107 23:04:21.684635  9127 net.cpp:165] Memory required for data: 959921348
I0107 23:04:21.684640  9127 layer_factory.hpp:77] Creating layer conv5_4/dw/bn
I0107 23:04:21.684646  9127 net.cpp:100] Creating Layer conv5_4/dw/bn
I0107 23:04:21.684650  9127 net.cpp:434] conv5_4/dw/bn <- conv5_4/dw
I0107 23:04:21.684654  9127 net.cpp:395] conv5_4/dw/bn -> conv5_4/dw (in-place)
I0107 23:04:21.684847  9127 net.cpp:150] Setting up conv5_4/dw/bn
I0107 23:04:21.684854  9127 net.cpp:157] Top shape: 1 512 48 48 (1179648)
I0107 23:04:21.684856  9127 net.cpp:165] Memory required for data: 964639940
I0107 23:04:21.684862  9127 layer_factory.hpp:77] Creating layer conv5_4/dw/scale
I0107 23:04:21.684870  9127 net.cpp:100] Creating Layer conv5_4/dw/scale
I0107 23:04:21.684872  9127 net.cpp:434] conv5_4/dw/scale <- conv5_4/dw
I0107 23:04:21.684877  9127 net.cpp:395] conv5_4/dw/scale -> conv5_4/dw (in-place)
I0107 23:04:21.684911  9127 layer_factory.hpp:77] Creating layer conv5_4/dw/scale
I0107 23:04:21.685020  9127 net.cpp:150] Setting up conv5_4/dw/scale
I0107 23:04:21.685026  9127 net.cpp:157] Top shape: 1 512 48 48 (1179648)
I0107 23:04:21.685029  9127 net.cpp:165] Memory required for data: 969358532
I0107 23:04:21.685034  9127 layer_factory.hpp:77] Creating layer relu5_4/dw
I0107 23:04:21.685039  9127 net.cpp:100] Creating Layer relu5_4/dw
I0107 23:04:21.685042  9127 net.cpp:434] relu5_4/dw <- conv5_4/dw
I0107 23:04:21.685047  9127 net.cpp:395] relu5_4/dw -> conv5_4/dw (in-place)
I0107 23:04:21.685202  9127 net.cpp:150] Setting up relu5_4/dw
I0107 23:04:21.685209  9127 net.cpp:157] Top shape: 1 512 48 48 (1179648)
I0107 23:04:21.685212  9127 net.cpp:165] Memory required for data: 974077124
I0107 23:04:21.685215  9127 layer_factory.hpp:77] Creating layer conv5_4/sep
I0107 23:04:21.685223  9127 net.cpp:100] Creating Layer conv5_4/sep
I0107 23:04:21.685227  9127 net.cpp:434] conv5_4/sep <- conv5_4/dw
I0107 23:04:21.685232  9127 net.cpp:408] conv5_4/sep -> conv5_4/sep
I0107 23:04:21.693104  9127 net.cpp:150] Setting up conv5_4/sep
I0107 23:04:21.693121  9127 net.cpp:157] Top shape: 1 512 48 48 (1179648)
I0107 23:04:21.693125  9127 net.cpp:165] Memory required for data: 978795716
I0107 23:04:21.693133  9127 layer_factory.hpp:77] Creating layer conv5_4/sep/bn
I0107 23:04:21.693142  9127 net.cpp:100] Creating Layer conv5_4/sep/bn
I0107 23:04:21.693148  9127 net.cpp:434] conv5_4/sep/bn <- conv5_4/sep
I0107 23:04:21.693156  9127 net.cpp:395] conv5_4/sep/bn -> conv5_4/sep (in-place)
I0107 23:04:21.693375  9127 net.cpp:150] Setting up conv5_4/sep/bn
I0107 23:04:21.693382  9127 net.cpp:157] Top shape: 1 512 48 48 (1179648)
I0107 23:04:21.693384  9127 net.cpp:165] Memory required for data: 983514308
I0107 23:04:21.693406  9127 layer_factory.hpp:77] Creating layer conv5_4/sep/scale
I0107 23:04:21.693414  9127 net.cpp:100] Creating Layer conv5_4/sep/scale
I0107 23:04:21.693418  9127 net.cpp:434] conv5_4/sep/scale <- conv5_4/sep
I0107 23:04:21.693425  9127 net.cpp:395] conv5_4/sep/scale -> conv5_4/sep (in-place)
I0107 23:04:21.693465  9127 layer_factory.hpp:77] Creating layer conv5_4/sep/scale
I0107 23:04:21.693583  9127 net.cpp:150] Setting up conv5_4/sep/scale
I0107 23:04:21.693589  9127 net.cpp:157] Top shape: 1 512 48 48 (1179648)
I0107 23:04:21.693593  9127 net.cpp:165] Memory required for data: 988232900
I0107 23:04:21.693598  9127 layer_factory.hpp:77] Creating layer relu5_4/sep
I0107 23:04:21.693603  9127 net.cpp:100] Creating Layer relu5_4/sep
I0107 23:04:21.693608  9127 net.cpp:434] relu5_4/sep <- conv5_4/sep
I0107 23:04:21.693612  9127 net.cpp:395] relu5_4/sep -> conv5_4/sep (in-place)
I0107 23:04:21.694133  9127 net.cpp:150] Setting up relu5_4/sep
I0107 23:04:21.694145  9127 net.cpp:157] Top shape: 1 512 48 48 (1179648)
I0107 23:04:21.694149  9127 net.cpp:165] Memory required for data: 992951492
I0107 23:04:21.694152  9127 layer_factory.hpp:77] Creating layer conv5_5/dw
I0107 23:04:21.694162  9127 net.cpp:100] Creating Layer conv5_5/dw
I0107 23:04:21.694165  9127 net.cpp:434] conv5_5/dw <- conv5_4/sep
I0107 23:04:21.694171  9127 net.cpp:408] conv5_5/dw -> conv5_5/dw
I0107 23:04:21.694497  9127 net.cpp:150] Setting up conv5_5/dw
I0107 23:04:21.694504  9127 net.cpp:157] Top shape: 1 512 48 48 (1179648)
I0107 23:04:21.694506  9127 net.cpp:165] Memory required for data: 997670084
I0107 23:04:21.694511  9127 layer_factory.hpp:77] Creating layer conv5_5/dw/bn
I0107 23:04:21.694516  9127 net.cpp:100] Creating Layer conv5_5/dw/bn
I0107 23:04:21.694519  9127 net.cpp:434] conv5_5/dw/bn <- conv5_5/dw
I0107 23:04:21.694525  9127 net.cpp:395] conv5_5/dw/bn -> conv5_5/dw (in-place)
I0107 23:04:21.694717  9127 net.cpp:150] Setting up conv5_5/dw/bn
I0107 23:04:21.694723  9127 net.cpp:157] Top shape: 1 512 48 48 (1179648)
I0107 23:04:21.694726  9127 net.cpp:165] Memory required for data: 1002388676
I0107 23:04:21.694732  9127 layer_factory.hpp:77] Creating layer conv5_5/dw/scale
I0107 23:04:21.694739  9127 net.cpp:100] Creating Layer conv5_5/dw/scale
I0107 23:04:21.694742  9127 net.cpp:434] conv5_5/dw/scale <- conv5_5/dw
I0107 23:04:21.694747  9127 net.cpp:395] conv5_5/dw/scale -> conv5_5/dw (in-place)
I0107 23:04:21.694782  9127 layer_factory.hpp:77] Creating layer conv5_5/dw/scale
I0107 23:04:21.694891  9127 net.cpp:150] Setting up conv5_5/dw/scale
I0107 23:04:21.694897  9127 net.cpp:157] Top shape: 1 512 48 48 (1179648)
I0107 23:04:21.694900  9127 net.cpp:165] Memory required for data: 1007107268
I0107 23:04:21.694905  9127 layer_factory.hpp:77] Creating layer relu5_5/dw
I0107 23:04:21.694911  9127 net.cpp:100] Creating Layer relu5_5/dw
I0107 23:04:21.694914  9127 net.cpp:434] relu5_5/dw <- conv5_5/dw
I0107 23:04:21.694918  9127 net.cpp:395] relu5_5/dw -> conv5_5/dw (in-place)
I0107 23:04:21.695075  9127 net.cpp:150] Setting up relu5_5/dw
I0107 23:04:21.695080  9127 net.cpp:157] Top shape: 1 512 48 48 (1179648)
I0107 23:04:21.695083  9127 net.cpp:165] Memory required for data: 1011825860
I0107 23:04:21.695087  9127 layer_factory.hpp:77] Creating layer conv5_5/sep
I0107 23:04:21.695096  9127 net.cpp:100] Creating Layer conv5_5/sep
I0107 23:04:21.695101  9127 net.cpp:434] conv5_5/sep <- conv5_5/dw
I0107 23:04:21.695106  9127 net.cpp:408] conv5_5/sep -> conv5_5/sep
I0107 23:04:21.703655  9127 net.cpp:150] Setting up conv5_5/sep
I0107 23:04:21.703696  9127 net.cpp:157] Top shape: 1 512 48 48 (1179648)
I0107 23:04:21.703701  9127 net.cpp:165] Memory required for data: 1016544452
I0107 23:04:21.703712  9127 layer_factory.hpp:77] Creating layer conv5_5/sep/bn
I0107 23:04:21.703733  9127 net.cpp:100] Creating Layer conv5_5/sep/bn
I0107 23:04:21.703742  9127 net.cpp:434] conv5_5/sep/bn <- conv5_5/sep
I0107 23:04:21.703752  9127 net.cpp:395] conv5_5/sep/bn -> conv5_5/sep (in-place)
I0107 23:04:21.703960  9127 net.cpp:150] Setting up conv5_5/sep/bn
I0107 23:04:21.703966  9127 net.cpp:157] Top shape: 1 512 48 48 (1179648)
I0107 23:04:21.703969  9127 net.cpp:165] Memory required for data: 1021263044
I0107 23:04:21.703976  9127 layer_factory.hpp:77] Creating layer conv5_5/sep/scale
I0107 23:04:21.703987  9127 net.cpp:100] Creating Layer conv5_5/sep/scale
I0107 23:04:21.703990  9127 net.cpp:434] conv5_5/sep/scale <- conv5_5/sep
I0107 23:04:21.703996  9127 net.cpp:395] conv5_5/sep/scale -> conv5_5/sep (in-place)
I0107 23:04:21.704033  9127 layer_factory.hpp:77] Creating layer conv5_5/sep/scale
I0107 23:04:21.704138  9127 net.cpp:150] Setting up conv5_5/sep/scale
I0107 23:04:21.704144  9127 net.cpp:157] Top shape: 1 512 48 48 (1179648)
I0107 23:04:21.704146  9127 net.cpp:165] Memory required for data: 1025981636
I0107 23:04:21.704151  9127 layer_factory.hpp:77] Creating layer relu5_5/sep
I0107 23:04:21.704159  9127 net.cpp:100] Creating Layer relu5_5/sep
I0107 23:04:21.704162  9127 net.cpp:434] relu5_5/sep <- conv5_5/sep
I0107 23:04:21.704166  9127 net.cpp:395] relu5_5/sep -> conv5_5/sep (in-place)
I0107 23:04:21.704322  9127 net.cpp:150] Setting up relu5_5/sep
I0107 23:04:21.704329  9127 net.cpp:157] Top shape: 1 512 48 48 (1179648)
I0107 23:04:21.704331  9127 net.cpp:165] Memory required for data: 1030700228
I0107 23:04:21.704334  9127 layer_factory.hpp:77] Creating layer conv5_5/sep_relu5_5/sep_0_split
I0107 23:04:21.704341  9127 net.cpp:100] Creating Layer conv5_5/sep_relu5_5/sep_0_split
I0107 23:04:21.704344  9127 net.cpp:434] conv5_5/sep_relu5_5/sep_0_split <- conv5_5/sep
I0107 23:04:21.704349  9127 net.cpp:408] conv5_5/sep_relu5_5/sep_0_split -> conv5_5/sep_relu5_5/sep_0_split_0
I0107 23:04:21.704355  9127 net.cpp:408] conv5_5/sep_relu5_5/sep_0_split -> conv5_5/sep_relu5_5/sep_0_split_1
I0107 23:04:21.704360  9127 net.cpp:408] conv5_5/sep_relu5_5/sep_0_split -> conv5_5/sep_relu5_5/sep_0_split_2
I0107 23:04:21.704406  9127 net.cpp:150] Setting up conv5_5/sep_relu5_5/sep_0_split
I0107 23:04:21.704411  9127 net.cpp:157] Top shape: 1 512 48 48 (1179648)
I0107 23:04:21.704413  9127 net.cpp:157] Top shape: 1 512 48 48 (1179648)
I0107 23:04:21.704417  9127 net.cpp:157] Top shape: 1 512 48 48 (1179648)
I0107 23:04:21.704419  9127 net.cpp:165] Memory required for data: 1044856004
I0107 23:04:21.704422  9127 layer_factory.hpp:77] Creating layer LFCN_2_5x5
I0107 23:04:21.704434  9127 net.cpp:100] Creating Layer LFCN_2_5x5
I0107 23:04:21.704437  9127 net.cpp:434] LFCN_2_5x5 <- conv5_5/sep_relu5_5/sep_0_split_0
I0107 23:04:21.704443  9127 net.cpp:408] LFCN_2_5x5 -> LFCN_2_5x5
I0107 23:04:21.710211  9127 net.cpp:150] Setting up LFCN_2_5x5
I0107 23:04:21.710255  9127 net.cpp:157] Top shape: 1 9 48 48 (20736)
I0107 23:04:21.710259  9127 net.cpp:165] Memory required for data: 1044938948
I0107 23:04:21.710270  9127 layer_factory.hpp:77] Creating layer LFCN_2_5x5_LFCN_2_5x5_0_split
I0107 23:04:21.710283  9127 net.cpp:100] Creating Layer LFCN_2_5x5_LFCN_2_5x5_0_split
I0107 23:04:21.710294  9127 net.cpp:434] LFCN_2_5x5_LFCN_2_5x5_0_split <- LFCN_2_5x5
I0107 23:04:21.710301  9127 net.cpp:408] LFCN_2_5x5_LFCN_2_5x5_0_split -> LFCN_2_5x5_LFCN_2_5x5_0_split_0
I0107 23:04:21.710312  9127 net.cpp:408] LFCN_2_5x5_LFCN_2_5x5_0_split -> LFCN_2_5x5_LFCN_2_5x5_0_split_1
I0107 23:04:21.710319  9127 net.cpp:408] LFCN_2_5x5_LFCN_2_5x5_0_split -> LFCN_2_5x5_LFCN_2_5x5_0_split_2
I0107 23:04:21.710373  9127 net.cpp:150] Setting up LFCN_2_5x5_LFCN_2_5x5_0_split
I0107 23:04:21.710378  9127 net.cpp:157] Top shape: 1 9 48 48 (20736)
I0107 23:04:21.710382  9127 net.cpp:157] Top shape: 1 9 48 48 (20736)
I0107 23:04:21.710386  9127 net.cpp:157] Top shape: 1 9 48 48 (20736)
I0107 23:04:21.710389  9127 net.cpp:165] Memory required for data: 1045187780
I0107 23:04:21.710394  9127 layer_factory.hpp:77] Creating layer detection_loss_2_5x5
I0107 23:04:21.710413  9127 net.cpp:100] Creating Layer detection_loss_2_5x5
I0107 23:04:21.710417  9127 net.cpp:434] detection_loss_2_5x5 <- LFCN_2_5x5_LFCN_2_5x5_0_split_0
I0107 23:04:21.710423  9127 net.cpp:434] detection_loss_2_5x5 <- label_2_5x5_data_3_split_0
I0107 23:04:21.710430  9127 net.cpp:408] detection_loss_2_5x5 -> loss_2_5x5
I0107 23:04:21.710439  9127 layer_factory.hpp:77] Creating layer detection_loss_2_5x5
I0107 23:04:21.710793  9127 net.cpp:150] Setting up detection_loss_2_5x5
I0107 23:04:21.710799  9127 net.cpp:157] Top shape: 1 1 1 2 (2)
I0107 23:04:21.710803  9127 net.cpp:160]     with loss weight 1
I0107 23:04:21.710819  9127 net.cpp:165] Memory required for data: 1045187788
I0107 23:04:21.710824  9127 layer_factory.hpp:77] Creating layer detection_accuracy_2_5x5
I0107 23:04:21.710832  9127 net.cpp:100] Creating Layer detection_accuracy_2_5x5
I0107 23:04:21.710836  9127 net.cpp:434] detection_accuracy_2_5x5 <- LFCN_2_5x5_LFCN_2_5x5_0_split_1
I0107 23:04:21.710841  9127 net.cpp:434] detection_accuracy_2_5x5 <- label_2_5x5_data_3_split_1
I0107 23:04:21.710847  9127 net.cpp:408] detection_accuracy_2_5x5 -> accuracy_2_5x5
I0107 23:04:21.710855  9127 net.cpp:408] detection_accuracy_2_5x5 -> boxiou_2_5x5
I0107 23:04:21.710903  9127 net.cpp:150] Setting up detection_accuracy_2_5x5
I0107 23:04:21.710908  9127 net.cpp:157] Top shape: 1 1 1 2 (2)
I0107 23:04:21.710912  9127 net.cpp:157] Top shape: 1 1 1 1 (1)
I0107 23:04:21.710916  9127 net.cpp:165] Memory required for data: 1045187800
I0107 23:04:21.710918  9127 layer_factory.hpp:77] Creating layer LFCN_2_7x7
I0107 23:04:21.710932  9127 net.cpp:100] Creating Layer LFCN_2_7x7
I0107 23:04:21.710937  9127 net.cpp:434] LFCN_2_7x7 <- conv5_5/sep_relu5_5/sep_0_split_1
I0107 23:04:21.710943  9127 net.cpp:408] LFCN_2_7x7 -> LFCN_2_7x7
I0107 23:04:21.718855  9127 net.cpp:150] Setting up LFCN_2_7x7
I0107 23:04:21.718878  9127 net.cpp:157] Top shape: 1 9 48 48 (20736)
I0107 23:04:21.718881  9127 net.cpp:165] Memory required for data: 1045270744
I0107 23:04:21.718890  9127 layer_factory.hpp:77] Creating layer LFCN_2_7x7_LFCN_2_7x7_0_split
I0107 23:04:21.718900  9127 net.cpp:100] Creating Layer LFCN_2_7x7_LFCN_2_7x7_0_split
I0107 23:04:21.718906  9127 net.cpp:434] LFCN_2_7x7_LFCN_2_7x7_0_split <- LFCN_2_7x7
I0107 23:04:21.718914  9127 net.cpp:408] LFCN_2_7x7_LFCN_2_7x7_0_split -> LFCN_2_7x7_LFCN_2_7x7_0_split_0
I0107 23:04:21.718922  9127 net.cpp:408] LFCN_2_7x7_LFCN_2_7x7_0_split -> LFCN_2_7x7_LFCN_2_7x7_0_split_1
I0107 23:04:21.718928  9127 net.cpp:408] LFCN_2_7x7_LFCN_2_7x7_0_split -> LFCN_2_7x7_LFCN_2_7x7_0_split_2
I0107 23:04:21.718982  9127 net.cpp:150] Setting up LFCN_2_7x7_LFCN_2_7x7_0_split
I0107 23:04:21.718988  9127 net.cpp:157] Top shape: 1 9 48 48 (20736)
I0107 23:04:21.718992  9127 net.cpp:157] Top shape: 1 9 48 48 (20736)
I0107 23:04:21.718996  9127 net.cpp:157] Top shape: 1 9 48 48 (20736)
I0107 23:04:21.718998  9127 net.cpp:165] Memory required for data: 1045519576
I0107 23:04:21.719002  9127 layer_factory.hpp:77] Creating layer detection_loss_2_7x7
I0107 23:04:21.719010  9127 net.cpp:100] Creating Layer detection_loss_2_7x7
I0107 23:04:21.719014  9127 net.cpp:434] detection_loss_2_7x7 <- LFCN_2_7x7_LFCN_2_7x7_0_split_0
I0107 23:04:21.719019  9127 net.cpp:434] detection_loss_2_7x7 <- label_2_7x7_data_4_split_0
I0107 23:04:21.719025  9127 net.cpp:408] detection_loss_2_7x7 -> loss_2_7x7
I0107 23:04:21.719034  9127 layer_factory.hpp:77] Creating layer detection_loss_2_7x7
I0107 23:04:21.719388  9127 net.cpp:150] Setting up detection_loss_2_7x7
I0107 23:04:21.719395  9127 net.cpp:157] Top shape: 1 1 1 2 (2)
I0107 23:04:21.719399  9127 net.cpp:160]     with loss weight 1
I0107 23:04:21.719408  9127 net.cpp:165] Memory required for data: 1045519584
I0107 23:04:21.719411  9127 layer_factory.hpp:77] Creating layer detection_accuracy_2_7x7
I0107 23:04:21.719419  9127 net.cpp:100] Creating Layer detection_accuracy_2_7x7
I0107 23:04:21.719422  9127 net.cpp:434] detection_accuracy_2_7x7 <- LFCN_2_7x7_LFCN_2_7x7_0_split_1
I0107 23:04:21.719427  9127 net.cpp:434] detection_accuracy_2_7x7 <- label_2_7x7_data_4_split_1
I0107 23:04:21.719432  9127 net.cpp:408] detection_accuracy_2_7x7 -> accuracy_2_7x7
I0107 23:04:21.719440  9127 net.cpp:408] detection_accuracy_2_7x7 -> boxiou_2_7x7
I0107 23:04:21.719483  9127 net.cpp:150] Setting up detection_accuracy_2_7x7
I0107 23:04:21.719488  9127 net.cpp:157] Top shape: 1 1 1 2 (2)
I0107 23:04:21.719492  9127 net.cpp:157] Top shape: 1 1 1 1 (1)
I0107 23:04:21.719494  9127 net.cpp:165] Memory required for data: 1045519596
I0107 23:04:21.719498  9127 layer_factory.hpp:77] Creating layer conv5_6/dw
I0107 23:04:21.719507  9127 net.cpp:100] Creating Layer conv5_6/dw
I0107 23:04:21.719512  9127 net.cpp:434] conv5_6/dw <- conv5_5/sep_relu5_5/sep_0_split_2
I0107 23:04:21.719518  9127 net.cpp:408] conv5_6/dw -> conv5_6/dw
I0107 23:04:21.719835  9127 net.cpp:150] Setting up conv5_6/dw
I0107 23:04:21.719841  9127 net.cpp:157] Top shape: 1 512 24 24 (294912)
I0107 23:04:21.719844  9127 net.cpp:165] Memory required for data: 1046699244
I0107 23:04:21.719849  9127 layer_factory.hpp:77] Creating layer conv5_6/dw/bn
I0107 23:04:21.719856  9127 net.cpp:100] Creating Layer conv5_6/dw/bn
I0107 23:04:21.719861  9127 net.cpp:434] conv5_6/dw/bn <- conv5_6/dw
I0107 23:04:21.719864  9127 net.cpp:395] conv5_6/dw/bn -> conv5_6/dw (in-place)
I0107 23:04:21.720072  9127 net.cpp:150] Setting up conv5_6/dw/bn
I0107 23:04:21.720077  9127 net.cpp:157] Top shape: 1 512 24 24 (294912)
I0107 23:04:21.720080  9127 net.cpp:165] Memory required for data: 1047878892
I0107 23:04:21.720086  9127 layer_factory.hpp:77] Creating layer conv5_6/dw/scale
I0107 23:04:21.720093  9127 net.cpp:100] Creating Layer conv5_6/dw/scale
I0107 23:04:21.720098  9127 net.cpp:434] conv5_6/dw/scale <- conv5_6/dw
I0107 23:04:21.720101  9127 net.cpp:395] conv5_6/dw/scale -> conv5_6/dw (in-place)
I0107 23:04:21.720147  9127 layer_factory.hpp:77] Creating layer conv5_6/dw/scale
I0107 23:04:21.720263  9127 net.cpp:150] Setting up conv5_6/dw/scale
I0107 23:04:21.720269  9127 net.cpp:157] Top shape: 1 512 24 24 (294912)
I0107 23:04:21.720273  9127 net.cpp:165] Memory required for data: 1049058540
I0107 23:04:21.720278  9127 layer_factory.hpp:77] Creating layer relu5_6/dw
I0107 23:04:21.720284  9127 net.cpp:100] Creating Layer relu5_6/dw
I0107 23:04:21.720288  9127 net.cpp:434] relu5_6/dw <- conv5_6/dw
I0107 23:04:21.720293  9127 net.cpp:395] relu5_6/dw -> conv5_6/dw (in-place)
I0107 23:04:21.720822  9127 net.cpp:150] Setting up relu5_6/dw
I0107 23:04:21.720832  9127 net.cpp:157] Top shape: 1 512 24 24 (294912)
I0107 23:04:21.720835  9127 net.cpp:165] Memory required for data: 1050238188
I0107 23:04:21.720839  9127 layer_factory.hpp:77] Creating layer conv5_6/sep
I0107 23:04:21.720849  9127 net.cpp:100] Creating Layer conv5_6/sep
I0107 23:04:21.720854  9127 net.cpp:434] conv5_6/sep <- conv5_6/dw
I0107 23:04:21.720858  9127 net.cpp:408] conv5_6/sep -> conv5_6/sep
I0107 23:04:21.737434  9127 net.cpp:150] Setting up conv5_6/sep
I0107 23:04:21.737447  9127 net.cpp:157] Top shape: 1 1024 24 24 (589824)
I0107 23:04:21.737452  9127 net.cpp:165] Memory required for data: 1052597484
I0107 23:04:21.737457  9127 layer_factory.hpp:77] Creating layer conv5_6/sep/bn
I0107 23:04:21.737464  9127 net.cpp:100] Creating Layer conv5_6/sep/bn
I0107 23:04:21.737469  9127 net.cpp:434] conv5_6/sep/bn <- conv5_6/sep
I0107 23:04:21.737475  9127 net.cpp:395] conv5_6/sep/bn -> conv5_6/sep (in-place)
I0107 23:04:21.737684  9127 net.cpp:150] Setting up conv5_6/sep/bn
I0107 23:04:21.737690  9127 net.cpp:157] Top shape: 1 1024 24 24 (589824)
I0107 23:04:21.737709  9127 net.cpp:165] Memory required for data: 1054956780
I0107 23:04:21.737716  9127 layer_factory.hpp:77] Creating layer conv5_6/sep/scale
I0107 23:04:21.737725  9127 net.cpp:100] Creating Layer conv5_6/sep/scale
I0107 23:04:21.737727  9127 net.cpp:434] conv5_6/sep/scale <- conv5_6/sep
I0107 23:04:21.737732  9127 net.cpp:395] conv5_6/sep/scale -> conv5_6/sep (in-place)
I0107 23:04:21.737777  9127 layer_factory.hpp:77] Creating layer conv5_6/sep/scale
I0107 23:04:21.737890  9127 net.cpp:150] Setting up conv5_6/sep/scale
I0107 23:04:21.737896  9127 net.cpp:157] Top shape: 1 1024 24 24 (589824)
I0107 23:04:21.737900  9127 net.cpp:165] Memory required for data: 1057316076
I0107 23:04:21.737905  9127 layer_factory.hpp:77] Creating layer relu5_6/sep
I0107 23:04:21.737920  9127 net.cpp:100] Creating Layer relu5_6/sep
I0107 23:04:21.737924  9127 net.cpp:434] relu5_6/sep <- conv5_6/sep
I0107 23:04:21.737928  9127 net.cpp:395] relu5_6/sep -> conv5_6/sep (in-place)
I0107 23:04:21.738093  9127 net.cpp:150] Setting up relu5_6/sep
I0107 23:04:21.738099  9127 net.cpp:157] Top shape: 1 1024 24 24 (589824)
I0107 23:04:21.738102  9127 net.cpp:165] Memory required for data: 1059675372
I0107 23:04:21.738106  9127 layer_factory.hpp:77] Creating layer conv6/dw
I0107 23:04:21.738114  9127 net.cpp:100] Creating Layer conv6/dw
I0107 23:04:21.738118  9127 net.cpp:434] conv6/dw <- conv5_6/sep
I0107 23:04:21.738123  9127 net.cpp:408] conv6/dw -> conv6/dw
I0107 23:04:21.738554  9127 net.cpp:150] Setting up conv6/dw
I0107 23:04:21.738560  9127 net.cpp:157] Top shape: 1 1024 24 24 (589824)
I0107 23:04:21.738564  9127 net.cpp:165] Memory required for data: 1062034668
I0107 23:04:21.738567  9127 layer_factory.hpp:77] Creating layer conv6/dw/bn
I0107 23:04:21.738572  9127 net.cpp:100] Creating Layer conv6/dw/bn
I0107 23:04:21.738576  9127 net.cpp:434] conv6/dw/bn <- conv6/dw
I0107 23:04:21.738580  9127 net.cpp:395] conv6/dw/bn -> conv6/dw (in-place)
I0107 23:04:21.738785  9127 net.cpp:150] Setting up conv6/dw/bn
I0107 23:04:21.738790  9127 net.cpp:157] Top shape: 1 1024 24 24 (589824)
I0107 23:04:21.738795  9127 net.cpp:165] Memory required for data: 1064393964
I0107 23:04:21.738801  9127 layer_factory.hpp:77] Creating layer conv6/dw/scale
I0107 23:04:21.738806  9127 net.cpp:100] Creating Layer conv6/dw/scale
I0107 23:04:21.738809  9127 net.cpp:434] conv6/dw/scale <- conv6/dw
I0107 23:04:21.738814  9127 net.cpp:395] conv6/dw/scale -> conv6/dw (in-place)
I0107 23:04:21.738855  9127 layer_factory.hpp:77] Creating layer conv6/dw/scale
I0107 23:04:21.738967  9127 net.cpp:150] Setting up conv6/dw/scale
I0107 23:04:21.738976  9127 net.cpp:157] Top shape: 1 1024 24 24 (589824)
I0107 23:04:21.738977  9127 net.cpp:165] Memory required for data: 1066753260
I0107 23:04:21.738983  9127 layer_factory.hpp:77] Creating layer relu6/dw
I0107 23:04:21.738989  9127 net.cpp:100] Creating Layer relu6/dw
I0107 23:04:21.738992  9127 net.cpp:434] relu6/dw <- conv6/dw
I0107 23:04:21.738996  9127 net.cpp:395] relu6/dw -> conv6/dw (in-place)
I0107 23:04:21.739154  9127 net.cpp:150] Setting up relu6/dw
I0107 23:04:21.739161  9127 net.cpp:157] Top shape: 1 1024 24 24 (589824)
I0107 23:04:21.739164  9127 net.cpp:165] Memory required for data: 1069112556
I0107 23:04:21.739167  9127 layer_factory.hpp:77] Creating layer conv6/sep
I0107 23:04:21.739176  9127 net.cpp:100] Creating Layer conv6/sep
I0107 23:04:21.739179  9127 net.cpp:434] conv6/sep <- conv6/dw
I0107 23:04:21.739186  9127 net.cpp:408] conv6/sep -> conv6/sep
I0107 23:04:21.772481  9127 net.cpp:150] Setting up conv6/sep
I0107 23:04:21.772527  9127 net.cpp:157] Top shape: 1 1024 24 24 (589824)
I0107 23:04:21.772533  9127 net.cpp:165] Memory required for data: 1071471852
I0107 23:04:21.772547  9127 layer_factory.hpp:77] Creating layer conv6/sep/bn
I0107 23:04:21.772567  9127 net.cpp:100] Creating Layer conv6/sep/bn
I0107 23:04:21.772578  9127 net.cpp:434] conv6/sep/bn <- conv6/sep
I0107 23:04:21.772588  9127 net.cpp:395] conv6/sep/bn -> conv6/sep (in-place)
I0107 23:04:21.773087  9127 net.cpp:150] Setting up conv6/sep/bn
I0107 23:04:21.773113  9127 net.cpp:157] Top shape: 1 1024 24 24 (589824)
I0107 23:04:21.773118  9127 net.cpp:165] Memory required for data: 1073831148
I0107 23:04:21.773126  9127 layer_factory.hpp:77] Creating layer conv6/sep/scale
I0107 23:04:21.773149  9127 net.cpp:100] Creating Layer conv6/sep/scale
I0107 23:04:21.773155  9127 net.cpp:434] conv6/sep/scale <- conv6/sep
I0107 23:04:21.773161  9127 net.cpp:395] conv6/sep/scale -> conv6/sep (in-place)
I0107 23:04:21.773221  9127 layer_factory.hpp:77] Creating layer conv6/sep/scale
I0107 23:04:21.773352  9127 net.cpp:150] Setting up conv6/sep/scale
I0107 23:04:21.773360  9127 net.cpp:157] Top shape: 1 1024 24 24 (589824)
I0107 23:04:21.773363  9127 net.cpp:165] Memory required for data: 1076190444
I0107 23:04:21.773370  9127 layer_factory.hpp:77] Creating layer relu6/sep
I0107 23:04:21.773377  9127 net.cpp:100] Creating Layer relu6/sep
I0107 23:04:21.773380  9127 net.cpp:434] relu6/sep <- conv6/sep
I0107 23:04:21.773387  9127 net.cpp:395] relu6/sep -> conv6/sep (in-place)
I0107 23:04:21.773579  9127 net.cpp:150] Setting up relu6/sep
I0107 23:04:21.773587  9127 net.cpp:157] Top shape: 1 1024 24 24 (589824)
I0107 23:04:21.773591  9127 net.cpp:165] Memory required for data: 1078549740
I0107 23:04:21.773594  9127 layer_factory.hpp:77] Creating layer conv6/sep_relu6/sep_0_split
I0107 23:04:21.773602  9127 net.cpp:100] Creating Layer conv6/sep_relu6/sep_0_split
I0107 23:04:21.773607  9127 net.cpp:434] conv6/sep_relu6/sep_0_split <- conv6/sep
I0107 23:04:21.773613  9127 net.cpp:408] conv6/sep_relu6/sep_0_split -> conv6/sep_relu6/sep_0_split_0
I0107 23:04:21.773622  9127 net.cpp:408] conv6/sep_relu6/sep_0_split -> conv6/sep_relu6/sep_0_split_1
I0107 23:04:21.773627  9127 net.cpp:408] conv6/sep_relu6/sep_0_split -> conv6/sep_relu6/sep_0_split_2
I0107 23:04:21.773682  9127 net.cpp:150] Setting up conv6/sep_relu6/sep_0_split
I0107 23:04:21.773691  9127 net.cpp:157] Top shape: 1 1024 24 24 (589824)
I0107 23:04:21.773705  9127 net.cpp:157] Top shape: 1 1024 24 24 (589824)
I0107 23:04:21.773710  9127 net.cpp:157] Top shape: 1 1024 24 24 (589824)
I0107 23:04:21.773712  9127 net.cpp:165] Memory required for data: 1085627628
I0107 23:04:21.773716  9127 layer_factory.hpp:77] Creating layer LFCN_3_5x5
I0107 23:04:21.773727  9127 net.cpp:100] Creating Layer LFCN_3_5x5
I0107 23:04:21.773731  9127 net.cpp:434] LFCN_3_5x5 <- conv6/sep_relu6/sep_0_split_0
I0107 23:04:21.773741  9127 net.cpp:408] LFCN_3_5x5 -> LFCN_3_5x5
I0107 23:04:21.781138  9127 net.cpp:150] Setting up LFCN_3_5x5
I0107 23:04:21.781152  9127 net.cpp:157] Top shape: 1 9 24 24 (5184)
I0107 23:04:21.781157  9127 net.cpp:165] Memory required for data: 1085648364
I0107 23:04:21.781163  9127 layer_factory.hpp:77] Creating layer LFCN_3_5x5_LFCN_3_5x5_0_split
I0107 23:04:21.781169  9127 net.cpp:100] Creating Layer LFCN_3_5x5_LFCN_3_5x5_0_split
I0107 23:04:21.781173  9127 net.cpp:434] LFCN_3_5x5_LFCN_3_5x5_0_split <- LFCN_3_5x5
I0107 23:04:21.781178  9127 net.cpp:408] LFCN_3_5x5_LFCN_3_5x5_0_split -> LFCN_3_5x5_LFCN_3_5x5_0_split_0
I0107 23:04:21.781186  9127 net.cpp:408] LFCN_3_5x5_LFCN_3_5x5_0_split -> LFCN_3_5x5_LFCN_3_5x5_0_split_1
I0107 23:04:21.781191  9127 net.cpp:408] LFCN_3_5x5_LFCN_3_5x5_0_split -> LFCN_3_5x5_LFCN_3_5x5_0_split_2
I0107 23:04:21.781249  9127 net.cpp:150] Setting up LFCN_3_5x5_LFCN_3_5x5_0_split
I0107 23:04:21.781255  9127 net.cpp:157] Top shape: 1 9 24 24 (5184)
I0107 23:04:21.781261  9127 net.cpp:157] Top shape: 1 9 24 24 (5184)
I0107 23:04:21.781265  9127 net.cpp:157] Top shape: 1 9 24 24 (5184)
I0107 23:04:21.781268  9127 net.cpp:165] Memory required for data: 1085710572
I0107 23:04:21.781271  9127 layer_factory.hpp:77] Creating layer detection_loss_3_5x5
I0107 23:04:21.781278  9127 net.cpp:100] Creating Layer detection_loss_3_5x5
I0107 23:04:21.781282  9127 net.cpp:434] detection_loss_3_5x5 <- LFCN_3_5x5_LFCN_3_5x5_0_split_0
I0107 23:04:21.781287  9127 net.cpp:434] detection_loss_3_5x5 <- label_3_5x5_data_5_split_0
I0107 23:04:21.781293  9127 net.cpp:408] detection_loss_3_5x5 -> loss_3_5x5
I0107 23:04:21.781302  9127 layer_factory.hpp:77] Creating layer detection_loss_3_5x5
I0107 23:04:21.781652  9127 net.cpp:150] Setting up detection_loss_3_5x5
I0107 23:04:21.781661  9127 net.cpp:157] Top shape: 1 1 1 2 (2)
I0107 23:04:21.781664  9127 net.cpp:160]     with loss weight 1
I0107 23:04:21.781675  9127 net.cpp:165] Memory required for data: 1085710580
I0107 23:04:21.781679  9127 layer_factory.hpp:77] Creating layer detection_accuracy_3_5x5
I0107 23:04:21.781685  9127 net.cpp:100] Creating Layer detection_accuracy_3_5x5
I0107 23:04:21.781689  9127 net.cpp:434] detection_accuracy_3_5x5 <- LFCN_3_5x5_LFCN_3_5x5_0_split_1
I0107 23:04:21.781699  9127 net.cpp:434] detection_accuracy_3_5x5 <- label_3_5x5_data_5_split_1
I0107 23:04:21.781707  9127 net.cpp:408] detection_accuracy_3_5x5 -> accuracy_3_5x5
I0107 23:04:21.781714  9127 net.cpp:408] detection_accuracy_3_5x5 -> boxiou_3_5x5
I0107 23:04:21.781755  9127 net.cpp:150] Setting up detection_accuracy_3_5x5
I0107 23:04:21.781762  9127 net.cpp:157] Top shape: 1 1 1 2 (2)
I0107 23:04:21.781766  9127 net.cpp:157] Top shape: 1 1 1 1 (1)
I0107 23:04:21.781769  9127 net.cpp:165] Memory required for data: 1085710592
I0107 23:04:21.781772  9127 layer_factory.hpp:77] Creating layer LFCN_3_7x7
I0107 23:04:21.781783  9127 net.cpp:100] Creating Layer LFCN_3_7x7
I0107 23:04:21.781787  9127 net.cpp:434] LFCN_3_7x7 <- conv6/sep_relu6/sep_0_split_1
I0107 23:04:21.781792  9127 net.cpp:408] LFCN_3_7x7 -> LFCN_3_7x7
I0107 23:04:21.795023  9127 net.cpp:150] Setting up LFCN_3_7x7
I0107 23:04:21.795039  9127 net.cpp:157] Top shape: 1 9 24 24 (5184)
I0107 23:04:21.795043  9127 net.cpp:165] Memory required for data: 1085731328
I0107 23:04:21.795050  9127 layer_factory.hpp:77] Creating layer LFCN_3_7x7_LFCN_3_7x7_0_split
I0107 23:04:21.795056  9127 net.cpp:100] Creating Layer LFCN_3_7x7_LFCN_3_7x7_0_split
I0107 23:04:21.795061  9127 net.cpp:434] LFCN_3_7x7_LFCN_3_7x7_0_split <- LFCN_3_7x7
I0107 23:04:21.795066  9127 net.cpp:408] LFCN_3_7x7_LFCN_3_7x7_0_split -> LFCN_3_7x7_LFCN_3_7x7_0_split_0
I0107 23:04:21.795073  9127 net.cpp:408] LFCN_3_7x7_LFCN_3_7x7_0_split -> LFCN_3_7x7_LFCN_3_7x7_0_split_1
I0107 23:04:21.795079  9127 net.cpp:408] LFCN_3_7x7_LFCN_3_7x7_0_split -> LFCN_3_7x7_LFCN_3_7x7_0_split_2
I0107 23:04:21.795133  9127 net.cpp:150] Setting up LFCN_3_7x7_LFCN_3_7x7_0_split
I0107 23:04:21.795140  9127 net.cpp:157] Top shape: 1 9 24 24 (5184)
I0107 23:04:21.795145  9127 net.cpp:157] Top shape: 1 9 24 24 (5184)
I0107 23:04:21.795148  9127 net.cpp:157] Top shape: 1 9 24 24 (5184)
I0107 23:04:21.795151  9127 net.cpp:165] Memory required for data: 1085793536
I0107 23:04:21.795156  9127 layer_factory.hpp:77] Creating layer detection_loss_3_7x7
I0107 23:04:21.795161  9127 net.cpp:100] Creating Layer detection_loss_3_7x7
I0107 23:04:21.795166  9127 net.cpp:434] detection_loss_3_7x7 <- LFCN_3_7x7_LFCN_3_7x7_0_split_0
I0107 23:04:21.795171  9127 net.cpp:434] detection_loss_3_7x7 <- label_3_7x7_data_6_split_0
I0107 23:04:21.795176  9127 net.cpp:408] detection_loss_3_7x7 -> loss_3_7x7
I0107 23:04:21.795182  9127 layer_factory.hpp:77] Creating layer detection_loss_3_7x7
I0107 23:04:21.795869  9127 net.cpp:150] Setting up detection_loss_3_7x7
I0107 23:04:21.795882  9127 net.cpp:157] Top shape: 1 1 1 2 (2)
I0107 23:04:21.795886  9127 net.cpp:160]     with loss weight 1
I0107 23:04:21.795892  9127 net.cpp:165] Memory required for data: 1085793544
I0107 23:04:21.795895  9127 layer_factory.hpp:77] Creating layer detection_accuracy_3_7x7
I0107 23:04:21.795902  9127 net.cpp:100] Creating Layer detection_accuracy_3_7x7
I0107 23:04:21.795905  9127 net.cpp:434] detection_accuracy_3_7x7 <- LFCN_3_7x7_LFCN_3_7x7_0_split_1
I0107 23:04:21.795910  9127 net.cpp:434] detection_accuracy_3_7x7 <- label_3_7x7_data_6_split_1
I0107 23:04:21.795917  9127 net.cpp:408] detection_accuracy_3_7x7 -> accuracy_3_7x7
I0107 23:04:21.795924  9127 net.cpp:408] detection_accuracy_3_7x7 -> boxiou_3_7x7
I0107 23:04:21.795965  9127 net.cpp:150] Setting up detection_accuracy_3_7x7
I0107 23:04:21.795972  9127 net.cpp:157] Top shape: 1 1 1 2 (2)
I0107 23:04:21.795976  9127 net.cpp:157] Top shape: 1 1 1 1 (1)
I0107 23:04:21.795979  9127 net.cpp:165] Memory required for data: 1085793556
I0107 23:04:21.795982  9127 layer_factory.hpp:77] Creating layer pool6
I0107 23:04:21.795989  9127 net.cpp:100] Creating Layer pool6
I0107 23:04:21.795994  9127 net.cpp:434] pool6 <- conv6/sep_relu6/sep_0_split_2
I0107 23:04:21.795997  9127 net.cpp:408] pool6 -> pool6
I0107 23:04:21.796037  9127 net.cpp:150] Setting up pool6
I0107 23:04:21.796043  9127 net.cpp:157] Top shape: 1 1024 12 12 (147456)
I0107 23:04:21.796047  9127 net.cpp:165] Memory required for data: 1086383380
I0107 23:04:21.796051  9127 layer_factory.hpp:77] Creating layer LFCN_4_5x5
I0107 23:04:21.796059  9127 net.cpp:100] Creating Layer LFCN_4_5x5
I0107 23:04:21.796064  9127 net.cpp:434] LFCN_4_5x5 <- pool6
I0107 23:04:21.796069  9127 net.cpp:408] LFCN_4_5x5 -> LFCN_4_5x5
I0107 23:04:21.803406  9127 net.cpp:150] Setting up LFCN_4_5x5
I0107 23:04:21.803421  9127 net.cpp:157] Top shape: 1 9 12 12 (1296)
I0107 23:04:21.803427  9127 net.cpp:165] Memory required for data: 1086388564
I0107 23:04:21.803433  9127 layer_factory.hpp:77] Creating layer LFCN_4_5x5_LFCN_4_5x5_0_split
I0107 23:04:21.803439  9127 net.cpp:100] Creating Layer LFCN_4_5x5_LFCN_4_5x5_0_split
I0107 23:04:21.803443  9127 net.cpp:434] LFCN_4_5x5_LFCN_4_5x5_0_split <- LFCN_4_5x5
I0107 23:04:21.803449  9127 net.cpp:408] LFCN_4_5x5_LFCN_4_5x5_0_split -> LFCN_4_5x5_LFCN_4_5x5_0_split_0
I0107 23:04:21.803455  9127 net.cpp:408] LFCN_4_5x5_LFCN_4_5x5_0_split -> LFCN_4_5x5_LFCN_4_5x5_0_split_1
I0107 23:04:21.803460  9127 net.cpp:408] LFCN_4_5x5_LFCN_4_5x5_0_split -> LFCN_4_5x5_LFCN_4_5x5_0_split_2
I0107 23:04:21.803514  9127 net.cpp:150] Setting up LFCN_4_5x5_LFCN_4_5x5_0_split
I0107 23:04:21.803520  9127 net.cpp:157] Top shape: 1 9 12 12 (1296)
I0107 23:04:21.803524  9127 net.cpp:157] Top shape: 1 9 12 12 (1296)
I0107 23:04:21.803529  9127 net.cpp:157] Top shape: 1 9 12 12 (1296)
I0107 23:04:21.803531  9127 net.cpp:165] Memory required for data: 1086404116
I0107 23:04:21.803534  9127 layer_factory.hpp:77] Creating layer detection_loss_4_5x5
I0107 23:04:21.803541  9127 net.cpp:100] Creating Layer detection_loss_4_5x5
I0107 23:04:21.803545  9127 net.cpp:434] detection_loss_4_5x5 <- LFCN_4_5x5_LFCN_4_5x5_0_split_0
I0107 23:04:21.803550  9127 net.cpp:434] detection_loss_4_5x5 <- label_4_5x5_data_7_split_0
I0107 23:04:21.803555  9127 net.cpp:408] detection_loss_4_5x5 -> loss_4_5x5
I0107 23:04:21.803562  9127 layer_factory.hpp:77] Creating layer detection_loss_4_5x5
I0107 23:04:21.804260  9127 net.cpp:150] Setting up detection_loss_4_5x5
I0107 23:04:21.804272  9127 net.cpp:157] Top shape: 1 1 1 2 (2)
I0107 23:04:21.804275  9127 net.cpp:160]     with loss weight 1
I0107 23:04:21.804282  9127 net.cpp:165] Memory required for data: 1086404124
I0107 23:04:21.804286  9127 layer_factory.hpp:77] Creating layer detection_accuracy_4_5x5
I0107 23:04:21.804293  9127 net.cpp:100] Creating Layer detection_accuracy_4_5x5
I0107 23:04:21.804297  9127 net.cpp:434] detection_accuracy_4_5x5 <- LFCN_4_5x5_LFCN_4_5x5_0_split_1
I0107 23:04:21.804301  9127 net.cpp:434] detection_accuracy_4_5x5 <- label_4_5x5_data_7_split_1
I0107 23:04:21.804306  9127 net.cpp:408] detection_accuracy_4_5x5 -> accuracy_4_5x5
I0107 23:04:21.804313  9127 net.cpp:408] detection_accuracy_4_5x5 -> boxiou_4_5x5
I0107 23:04:21.804354  9127 net.cpp:150] Setting up detection_accuracy_4_5x5
I0107 23:04:21.804361  9127 net.cpp:157] Top shape: 1 1 1 2 (2)
I0107 23:04:21.804366  9127 net.cpp:157] Top shape: 1 1 1 1 (1)
I0107 23:04:21.804369  9127 net.cpp:165] Memory required for data: 1086404136
I0107 23:04:21.804373  9127 layer_factory.hpp:77] Creating layer proposals
I0107 23:04:21.804381  9127 net.cpp:100] Creating Layer proposals
I0107 23:04:21.804385  9127 net.cpp:434] proposals <- LFCN_1_5x5_LFCN_1_5x5_0_split_2
I0107 23:04:21.804389  9127 net.cpp:434] proposals <- LFCN_1_7x7_LFCN_1_7x7_0_split_2
I0107 23:04:21.804394  9127 net.cpp:434] proposals <- LFCN_2_5x5_LFCN_2_5x5_0_split_2
I0107 23:04:21.804397  9127 net.cpp:434] proposals <- LFCN_2_7x7_LFCN_2_7x7_0_split_2
I0107 23:04:21.804401  9127 net.cpp:434] proposals <- LFCN_3_5x5_LFCN_3_5x5_0_split_2
I0107 23:04:21.804405  9127 net.cpp:434] proposals <- LFCN_3_7x7_LFCN_3_7x7_0_split_2
I0107 23:04:21.804409  9127 net.cpp:434] proposals <- LFCN_4_5x5_LFCN_4_5x5_0_split_2
I0107 23:04:21.804414  9127 net.cpp:408] proposals -> proposals
I0107 23:04:21.804440  9127 net.cpp:150] Setting up proposals
I0107 23:04:21.804445  9127 net.cpp:157] Top shape: 1 5 1 1 (5)
I0107 23:04:21.804450  9127 net.cpp:165] Memory required for data: 1086404156
I0107 23:04:21.804452  9127 layer_factory.hpp:77] Creating layer proposal_info
I0107 23:04:21.804461  9127 net.cpp:100] Creating Layer proposal_info
I0107 23:04:21.804463  9127 net.cpp:434] proposal_info <- proposals
I0107 23:04:21.804468  9127 net.cpp:434] proposal_info <- gt_boxes
I0107 23:04:21.804474  9127 net.cpp:408] proposal_info -> rois
I0107 23:04:21.804481  9127 net.cpp:408] proposal_info -> proposal_labels
I0107 23:04:21.804487  9127 net.cpp:408] proposal_info -> proposal_targets
I0107 23:04:21.804493  9127 net.cpp:408] proposal_info -> box_inside_weights
I0107 23:04:21.804499  9127 net.cpp:408] proposal_info -> box_outside_weights
I0107 23:04:21.804505  9127 net.cpp:408] proposal_info -> match_gt_boxes
I0107 23:04:21.804600  9127 net.cpp:150] Setting up proposal_info
I0107 23:04:21.804607  9127 net.cpp:157] Top shape: 128 5 1 1 (640)
I0107 23:04:21.804612  9127 net.cpp:157] Top shape: 128 1 1 1 (128)
I0107 23:04:21.804616  9127 net.cpp:157] Top shape: 128 20 1 1 (2560)
I0107 23:04:21.804620  9127 net.cpp:157] Top shape: 128 20 1 1 (2560)
I0107 23:04:21.804625  9127 net.cpp:157] Top shape: 128 20 1 1 (2560)
I0107 23:04:21.804628  9127 net.cpp:157] Top shape: 128 6 1 1 (768)
I0107 23:04:21.804631  9127 net.cpp:165] Memory required for data: 1086441020
I0107 23:04:21.804635  9127 layer_factory.hpp:77] Creating layer rois_proposal_info_0_split
I0107 23:04:21.804641  9127 net.cpp:100] Creating Layer rois_proposal_info_0_split
I0107 23:04:21.804643  9127 net.cpp:434] rois_proposal_info_0_split <- rois
I0107 23:04:21.804648  9127 net.cpp:408] rois_proposal_info_0_split -> rois_proposal_info_0_split_0
I0107 23:04:21.804653  9127 net.cpp:408] rois_proposal_info_0_split -> rois_proposal_info_0_split_1
I0107 23:04:21.804658  9127 net.cpp:408] rois_proposal_info_0_split -> rois_proposal_info_0_split_2
I0107 23:04:21.804706  9127 net.cpp:150] Setting up rois_proposal_info_0_split
I0107 23:04:21.804713  9127 net.cpp:157] Top shape: 128 5 1 1 (640)
I0107 23:04:21.804718  9127 net.cpp:157] Top shape: 128 5 1 1 (640)
I0107 23:04:21.804721  9127 net.cpp:157] Top shape: 128 5 1 1 (640)
I0107 23:04:21.804724  9127 net.cpp:165] Memory required for data: 1086448700
I0107 23:04:21.804728  9127 layer_factory.hpp:77] Creating layer proposal_labels_proposal_info_1_split
I0107 23:04:21.804731  9127 net.cpp:100] Creating Layer proposal_labels_proposal_info_1_split
I0107 23:04:21.804735  9127 net.cpp:434] proposal_labels_proposal_info_1_split <- proposal_labels
I0107 23:04:21.804740  9127 net.cpp:408] proposal_labels_proposal_info_1_split -> proposal_labels_proposal_info_1_split_0
I0107 23:04:21.804746  9127 net.cpp:408] proposal_labels_proposal_info_1_split -> proposal_labels_proposal_info_1_split_1
I0107 23:04:21.804780  9127 net.cpp:150] Setting up proposal_labels_proposal_info_1_split
I0107 23:04:21.804787  9127 net.cpp:157] Top shape: 128 1 1 1 (128)
I0107 23:04:21.804791  9127 net.cpp:157] Top shape: 128 1 1 1 (128)
I0107 23:04:21.804795  9127 net.cpp:165] Memory required for data: 1086449724
I0107 23:04:21.804797  9127 layer_factory.hpp:77] Creating layer conv4_3_2x
I0107 23:04:21.804805  9127 net.cpp:100] Creating Layer conv4_3_2x
I0107 23:04:21.804807  9127 net.cpp:434] conv4_3_2x <- conv4_1/sep_relu4_1/sep_0_split_2
I0107 23:04:21.804813  9127 net.cpp:408] conv4_3_2x -> conv4_3_2x
I0107 23:04:21.805168  9127 net.cpp:150] Setting up conv4_3_2x
I0107 23:04:21.805176  9127 net.cpp:157] Top shape: 1 256 192 192 (9437184)
I0107 23:04:21.805179  9127 net.cpp:165] Memory required for data: 1124198460
I0107 23:04:21.805184  9127 layer_factory.hpp:77] Creating layer conv4_3_2x_conv4_3_2x_0_split
I0107 23:04:21.805191  9127 net.cpp:100] Creating Layer conv4_3_2x_conv4_3_2x_0_split
I0107 23:04:21.805194  9127 net.cpp:434] conv4_3_2x_conv4_3_2x_0_split <- conv4_3_2x
I0107 23:04:21.805199  9127 net.cpp:408] conv4_3_2x_conv4_3_2x_0_split -> conv4_3_2x_conv4_3_2x_0_split_0
I0107 23:04:21.805204  9127 net.cpp:408] conv4_3_2x_conv4_3_2x_0_split -> conv4_3_2x_conv4_3_2x_0_split_1
I0107 23:04:21.805240  9127 net.cpp:150] Setting up conv4_3_2x_conv4_3_2x_0_split
I0107 23:04:21.805248  9127 net.cpp:157] Top shape: 1 256 192 192 (9437184)
I0107 23:04:21.805251  9127 net.cpp:157] Top shape: 1 256 192 192 (9437184)
I0107 23:04:21.805254  9127 net.cpp:165] Memory required for data: 1199695932
I0107 23:04:21.805258  9127 layer_factory.hpp:77] Creating layer roi_pool_org
I0107 23:04:21.805264  9127 net.cpp:100] Creating Layer roi_pool_org
I0107 23:04:21.805269  9127 net.cpp:434] roi_pool_org <- conv4_3_2x_conv4_3_2x_0_split_0
I0107 23:04:21.805272  9127 net.cpp:434] roi_pool_org <- rois_proposal_info_0_split_0
I0107 23:04:21.805277  9127 net.cpp:408] roi_pool_org -> roi_pool_org
I0107 23:04:21.805282  9127 roi_pooling_layer.cpp:33] Spatial scale: 0.25
I0107 23:04:21.805323  9127 net.cpp:150] Setting up roi_pool_org
I0107 23:04:21.805330  9127 net.cpp:157] Top shape: 128 256 7 7 (1605632)
I0107 23:04:21.805333  9127 net.cpp:165] Memory required for data: 1206118460
I0107 23:04:21.805336  9127 layer_factory.hpp:77] Creating layer roi_pool_ctx
I0107 23:04:21.805341  9127 net.cpp:100] Creating Layer roi_pool_ctx
I0107 23:04:21.805344  9127 net.cpp:434] roi_pool_ctx <- conv4_3_2x_conv4_3_2x_0_split_1
I0107 23:04:21.805348  9127 net.cpp:434] roi_pool_ctx <- rois_proposal_info_0_split_1
I0107 23:04:21.805354  9127 net.cpp:408] roi_pool_ctx -> roi_pool_ctx
I0107 23:04:21.805369  9127 roi_pooling_layer.cpp:33] Spatial scale: 0.25
I0107 23:04:21.805409  9127 net.cpp:150] Setting up roi_pool_ctx
I0107 23:04:21.805416  9127 net.cpp:157] Top shape: 128 256 7 7 (1605632)
I0107 23:04:21.805419  9127 net.cpp:165] Memory required for data: 1212540988
I0107 23:04:21.805423  9127 layer_factory.hpp:77] Creating layer roi_pool
I0107 23:04:21.805428  9127 net.cpp:100] Creating Layer roi_pool
I0107 23:04:21.805431  9127 net.cpp:434] roi_pool <- roi_pool_org
I0107 23:04:21.805438  9127 net.cpp:434] roi_pool <- roi_pool_ctx
I0107 23:04:21.805441  9127 net.cpp:408] roi_pool -> roi_pool
I0107 23:04:21.805465  9127 net.cpp:150] Setting up roi_pool
I0107 23:04:21.805471  9127 net.cpp:157] Top shape: 128 512 7 7 (3211264)
I0107 23:04:21.805474  9127 net.cpp:165] Memory required for data: 1225386044
I0107 23:04:21.805477  9127 layer_factory.hpp:77] Creating layer roi_c1
I0107 23:04:21.805485  9127 net.cpp:100] Creating Layer roi_c1
I0107 23:04:21.805490  9127 net.cpp:434] roi_c1 <- roi_pool
I0107 23:04:21.805495  9127 net.cpp:408] roi_c1 -> roi_c1
I0107 23:04:21.841464  9127 net.cpp:150] Setting up roi_c1
I0107 23:04:21.841490  9127 net.cpp:157] Top shape: 128 256 5 5 (819200)
I0107 23:04:21.841495  9127 net.cpp:165] Memory required for data: 1228662844
I0107 23:04:21.841504  9127 layer_factory.hpp:77] Creating layer roi_c1_relu
I0107 23:04:21.841516  9127 net.cpp:100] Creating Layer roi_c1_relu
I0107 23:04:21.841522  9127 net.cpp:434] roi_c1_relu <- roi_c1
I0107 23:04:21.841529  9127 net.cpp:395] roi_c1_relu -> roi_c1 (in-place)
I0107 23:04:21.841692  9127 net.cpp:150] Setting up roi_c1_relu
I0107 23:04:21.841708  9127 net.cpp:157] Top shape: 128 256 5 5 (819200)
I0107 23:04:21.841711  9127 net.cpp:165] Memory required for data: 1231939644
I0107 23:04:21.841714  9127 layer_factory.hpp:77] Creating layer fc6
I0107 23:04:21.841722  9127 net.cpp:100] Creating Layer fc6
I0107 23:04:21.841727  9127 net.cpp:434] fc6 <- roi_c1
I0107 23:04:21.841733  9127 net.cpp:408] fc6 -> fc6
I0107 23:04:22.488040  9127 net.cpp:150] Setting up fc6
I0107 23:04:22.488073  9127 net.cpp:157] Top shape: 128 4096 (524288)
I0107 23:04:22.488076  9127 net.cpp:165] Memory required for data: 1234036796
I0107 23:04:22.488086  9127 layer_factory.hpp:77] Creating layer relu6
I0107 23:04:22.488096  9127 net.cpp:100] Creating Layer relu6
I0107 23:04:22.488102  9127 net.cpp:434] relu6 <- fc6
I0107 23:04:22.488108  9127 net.cpp:395] relu6 -> fc6 (in-place)
I0107 23:04:22.488350  9127 net.cpp:150] Setting up relu6
I0107 23:04:22.488358  9127 net.cpp:157] Top shape: 128 4096 (524288)
I0107 23:04:22.488363  9127 net.cpp:165] Memory required for data: 1236133948
I0107 23:04:22.488366  9127 layer_factory.hpp:77] Creating layer drop6
I0107 23:04:22.488374  9127 net.cpp:100] Creating Layer drop6
I0107 23:04:22.488379  9127 net.cpp:434] drop6 <- fc6
I0107 23:04:22.488382  9127 net.cpp:395] drop6 -> fc6 (in-place)
I0107 23:04:22.488405  9127 net.cpp:150] Setting up drop6
I0107 23:04:22.488411  9127 net.cpp:157] Top shape: 128 4096 (524288)
I0107 23:04:22.488415  9127 net.cpp:165] Memory required for data: 1238231100
I0107 23:04:22.488417  9127 layer_factory.hpp:77] Creating layer fc6_drop6_0_split
I0107 23:04:22.488423  9127 net.cpp:100] Creating Layer fc6_drop6_0_split
I0107 23:04:22.488426  9127 net.cpp:434] fc6_drop6_0_split <- fc6
I0107 23:04:22.488432  9127 net.cpp:408] fc6_drop6_0_split -> fc6_drop6_0_split_0
I0107 23:04:22.488437  9127 net.cpp:408] fc6_drop6_0_split -> fc6_drop6_0_split_1
I0107 23:04:22.488477  9127 net.cpp:150] Setting up fc6_drop6_0_split
I0107 23:04:22.488483  9127 net.cpp:157] Top shape: 128 4096 (524288)
I0107 23:04:22.488487  9127 net.cpp:157] Top shape: 128 4096 (524288)
I0107 23:04:22.488490  9127 net.cpp:165] Memory required for data: 1242425404
I0107 23:04:22.488494  9127 layer_factory.hpp:77] Creating layer cls_pred
I0107 23:04:22.488502  9127 net.cpp:100] Creating Layer cls_pred
I0107 23:04:22.488507  9127 net.cpp:434] cls_pred <- fc6_drop6_0_split_0
I0107 23:04:22.488513  9127 net.cpp:408] cls_pred -> cls_pred
I0107 23:04:22.489142  9127 net.cpp:150] Setting up cls_pred
I0107 23:04:22.489150  9127 net.cpp:157] Top shape: 128 5 (640)
I0107 23:04:22.489153  9127 net.cpp:165] Memory required for data: 1242427964
I0107 23:04:22.489159  9127 layer_factory.hpp:77] Creating layer cls_pred_cls_pred_0_split
I0107 23:04:22.489164  9127 net.cpp:100] Creating Layer cls_pred_cls_pred_0_split
I0107 23:04:22.489167  9127 net.cpp:434] cls_pred_cls_pred_0_split <- cls_pred
I0107 23:04:22.489172  9127 net.cpp:408] cls_pred_cls_pred_0_split -> cls_pred_cls_pred_0_split_0
I0107 23:04:22.489178  9127 net.cpp:408] cls_pred_cls_pred_0_split -> cls_pred_cls_pred_0_split_1
I0107 23:04:22.489212  9127 net.cpp:150] Setting up cls_pred_cls_pred_0_split
I0107 23:04:22.489217  9127 net.cpp:157] Top shape: 128 5 (640)
I0107 23:04:22.489221  9127 net.cpp:157] Top shape: 128 5 (640)
I0107 23:04:22.489224  9127 net.cpp:165] Memory required for data: 1242433084
I0107 23:04:22.489228  9127 layer_factory.hpp:77] Creating layer bbox_pred
I0107 23:04:22.489233  9127 net.cpp:100] Creating Layer bbox_pred
I0107 23:04:22.489236  9127 net.cpp:434] bbox_pred <- fc6_drop6_0_split_1
I0107 23:04:22.489243  9127 net.cpp:408] bbox_pred -> bbox_pred
I0107 23:04:22.491448  9127 net.cpp:150] Setting up bbox_pred
I0107 23:04:22.491456  9127 net.cpp:157] Top shape: 128 20 (2560)
I0107 23:04:22.491458  9127 net.cpp:165] Memory required for data: 1242443324
I0107 23:04:22.491462  9127 layer_factory.hpp:77] Creating layer bbox_pred_bbox_pred_0_split
I0107 23:04:22.491466  9127 net.cpp:100] Creating Layer bbox_pred_bbox_pred_0_split
I0107 23:04:22.491469  9127 net.cpp:434] bbox_pred_bbox_pred_0_split <- bbox_pred
I0107 23:04:22.491474  9127 net.cpp:408] bbox_pred_bbox_pred_0_split -> bbox_pred_bbox_pred_0_split_0
I0107 23:04:22.491479  9127 net.cpp:408] bbox_pred_bbox_pred_0_split -> bbox_pred_bbox_pred_0_split_1
I0107 23:04:22.491508  9127 net.cpp:150] Setting up bbox_pred_bbox_pred_0_split
I0107 23:04:22.491511  9127 net.cpp:157] Top shape: 128 20 (2560)
I0107 23:04:22.491515  9127 net.cpp:157] Top shape: 128 20 (2560)
I0107 23:04:22.491518  9127 net.cpp:165] Memory required for data: 1242463804
I0107 23:04:22.491520  9127 layer_factory.hpp:77] Creating layer loss_cls
I0107 23:04:22.491524  9127 net.cpp:100] Creating Layer loss_cls
I0107 23:04:22.491528  9127 net.cpp:434] loss_cls <- cls_pred_cls_pred_0_split_0
I0107 23:04:22.491533  9127 net.cpp:434] loss_cls <- proposal_labels_proposal_info_1_split_0
…
