…
    downsample_rate: 16
    downsample_rate: 32
    downsample_rate: 32
    downsample_rate: 64
    coord_num: 4
    field_h: 60
    field_h: 84
    field_h: 120
    field_h: 168
    field_h: 240
    field_h: 336
    field_h: 480
    field_w: 60
    field_w: 84
    field_w: 120
    field_w: 168
    field_w: 240
    field_w: 336
    field_w: 480
    fg_threshold: 0.5
    resize_width: 1344
    resize_height: 768
    crop_width: 768
    crop_height: 768
    do_multiple_scale: true
    min_scale: 60
    max_scale: 480
    min_gt_height: 25
    shuffle: true
  }
}
layer {
  name: "conv1"
  type: "Convolution"
  bottom: "data"
  top: "conv1"
  param {
    lr_mult: 1
    decay_mult: 1
  }
  convolution_param {
    num_output: 32
    bias_term: false
    pad: 1
    kernel_size: 3
    stride: 2
    weight_filler {
      type: "msra"
    }
  }
}
layer {
  name: "conv1/bn"
  type: "BatchNorm"
  bottom: "conv1"
  top: "conv1"
  batch_norm_param {
    use_global_stats: false
    eps: 1e-05
  }
}
layer {
  name: "conv1/scale"
  type: "Scale"
  bottom: "conv1"
  top: "conv1"
  param {
    lr_mult: 1
    decay_mult: 0
  }
  param {
    lr_mult: 1
    decay_mult: 0
  }
  scale_param {
    filler {
      value: 1
    }
    bias_term: true
    bias_filler {
      value: 0
    }
  }
}
layer {
  name: "relu1"
  type: "ReLU"
  bottom: "conv1"
  top: "conv1"
}
layer {
  name: "conv2_1/dw"
  type: "Convolution"
  bottom: "conv1"
  top: "conv2_1/dw"
  param {
    lr_mult: 1
    decay_mult: 1
  }
  convolution_param {
    num_output: 32
    bias_term: false
    pad: 1
    kernel_size: 3
    group: 32
    stride: 1
    weight_filler {
      type: "msra"
    }
    engine: CAFFE
  }
}
layer {
  name: "conv2_1/dw/bn"
  type: "BatchNorm"
  bottom: "conv2_1/dw"
  top: "conv2_1/dw"
  batch_norm_param {
    use_global_stats: false
    eps: 1e-05
  }
}
layer {
  name: "conv2_1/dw/scale"
  type: "Scale"
  bottom: "conv2_1/dw"
  top: "conv2_1/dw"
  param {
    lr_mult: 1
    decay_mult: 0
  }
  param {
    lr_mult: 1
    decay_mult: 0
  }
  scale_param {
    filler {
      value: 1
    }
    bias_term: true
    bias_filler {
      value: 0
    }
  }
}
layer {
  name: "relu2_1/dw"
  type: "ReLU"
  bottom: "conv2_1/dw"
  top: "conv2_1/dw"
}
layer {
  name: "conv2_1/sep"
  type: "Convolution"
  bottom: "conv2_1/dw"
  top: "conv2_1/sep"
  param {
    lr_mult: 1
    decay_mult: 1
  }
  convolution_param {
    num_output: 64
    bias_term: false
    pad: 0
    kernel_size: 1
    stride: 1
    weight_filler {
      type: "msra"
    }
  }
}
layer {
  name: "conv2_1/sep/bn"
  type: "BatchNorm"
  bottom: "conv2_1/sep"
  top: "conv2_1/sep"
  batch_norm_param {
    use_global_stats: false
    eps: 1e-05
  }
}
layer {
  name: "conv2_1/sep/scale"
  type: "Scale"
  bottom: "conv2_1/sep"
  top: "conv2_1/sep"
  param {
    lr_mult: 1
    decay_mult: 0
  }
  param {
    lr_mult: 1
    decay_mult: 0
  }
  scale_param {
    filler {
      value: 1
    }
    bias_term: true
    bias_filler {
      value: 0
    }
  }
}
layer {
  name: "relu2_1/sep"
  type: "ReLU"
  bottom: "conv2_1/sep"
  top: "conv2_1/sep"
}
layer {
  name: "conv2_2/dw"
  type: "Convolution"
  bottom: "conv2_1/sep"
  top: "conv2_2/dw"
  param {
    lr_mult: 1
    decay_mult: 1
  }
  convolution_param {
    num_output: 64
    bias_term: false
    pad: 1
    kernel_size: 3
    group: 64
    stride: 2
    weight_filler {
      type: "msra"
    }
    engine: CAFFE
  }
}
layer {
  name: "conv2_2/dw/bn"
  type: "BatchNorm"
  bottom: "conv2_2/dw"
  top: "conv2_2/dw"
  batch_norm_param {
    use_global_stats: false
    eps: 1e-05
  }
}
layer {
  name: "conv2_2/dw/scale"
  type: "Scale"
  bottom: "conv2_2/dw"
  top: "conv2_2/dw"
  param {
    lr_mult: 1
    decay_mult: 0
  }
  param {
    lr_mult: 1
    decay_mult: 0
  }
  scale_param {
    filler {
      value: 1
    }
    bias_term: true
    bias_filler {
      value: 0
    }
  }
}
layer {
  name: "relu2_2/dw"
  type: "ReLU"
  bottom: "conv2_2/dw"
  top: "conv2_2/dw"
}
layer {
  name: "conv2_2/sep"
  type: "Convolution"
  bottom: "conv2_2/dw"
  top: "conv2_2/sep"
  param {
    lr_mult: 1
    decay_mult: 1
  }
  convolution_param {
    num_output: 128
    bias_term: false
    pad: 0
    kernel_size: 1
    stride: 1
    weight_filler {
      type: "msra"
    }
  }
}
layer {
  name: "conv2_2/sep/bn"
  type: "BatchNorm"
  bottom: "conv2_2/sep"
  top: "conv2_2/sep"
  batch_norm_param {
    use_global_stats: false
    eps: 1e-05
  }
}
layer {
  name: "conv2_2/sep/scale"
  type: "Scale"
  bottom: "conv2_2/sep"
  top: "conv2_2/sep"
  param {
    lr_mult: 1
    decay_mult: 0
  }
  param {
    lr_mult: 1
    decay_mult: 0
  }
  scale_param {
    filler {
      value: 1
    }
    bias_term: true
    bias_filler {
      value: 0
    }
  }
}
layer {
  name: "relu2_2/sep"
  type: "ReLU"
  bottom: "conv2_2/sep"
  top: "conv2_2/sep"
}
layer {
  name: "conv3_1/dw"
  type: "Convolution"
  bottom: "conv2_2/sep"
  top: "conv3_1/dw"
  param {
    lr_mult: 1
    decay_mult: 1
  }
  convolution_param {
    num_output: 128
    bias_term: false
    pad: 1
    kernel_size: 3
    group: 128
    stride: 1
    weight_filler {
      type: "msra"
    }
    engine: CAFFE
  }
}
layer {
  name: "conv3_1/dw/bn"
  type: "BatchNorm"
  bottom: "conv3_1/dw"
  top: "conv3_1/dw"
  batch_norm_param {
    use_global_stats: false
    eps: 1e-05
  }
}
layer {
  name: "conv3_1/dw/scale"
  type: "Scale"
  bottom: "conv3_1/dw"
  top: "conv3_1/dw"
  param {
    lr_mult: 1
    decay_mult: 0
  }
  param {
    lr_mult: 1
    decay_mult: 0
  }
  scale_param {
    filler {
      value: 1
    }
    bias_term: true
    bias_filler {
      value: 0
    }
  }
}
layer {
  name: "relu3_1/dw"
  type: "ReLU"
  bottom: "conv3_1/dw"
  top: "conv3_1/dw"
}
layer {
  name: "conv3_1/sep"
  type: "Convolution"
  bottom: "conv3_1/dw"
  top: "conv3_1/sep"
  param {
    lr_mult: 1
    decay_mult: 1
  }
  convolution_param {
    num_output: 128
    bias_term: false
    pad: 0
    kernel_size: 1
    stride: 1
    weight_filler {
      type: "msra"
    }
  }
}
layer {
  name: "conv3_1/sep/bn"
  type: "BatchNorm"
  bottom: "conv3_1/sep"
  top: "conv3_1/sep"
  batch_norm_param {
    use_global_stats: false
    eps: 1e-05
  }
}
layer {
  name: "conv3_1/sep/scale"
  type: "Scale"
  bottom: "conv3_1/sep"
  top: "conv3_1/sep"
  param {
    lr_mult: 1
    decay_mult: 0
  }
  param {
    lr_mult: 1
    decay_mult: 0
  }
  scale_param {
    filler {
      value: 1
    }
    bias_term: true
    bias_filler {
      value: 0
    }
  }
}
layer {
  name: "relu3_1/sep"
  type: "ReLU"
  bottom: "conv3_1/sep"
  top: "conv3_1/sep"
}
layer {
  name: "conv3_2/dw"
  type: "Convolution"
  bottom: "conv3_1/sep"
  top: "conv3_2/dw"
  param {
    lr_mult: 1
    decay_mult: 1
  }
  convolution_param {
    num_output: 128
    bias_term: false
    pad: 1
    kernel_size: 3
    group: 128
    stride: 2
    weight_filler {
      type: "msra"
    }
    engine: CAFFE
  }
}
layer {
  name: "conv3_2/dw/bn"
  type: "BatchNorm"
  bottom: "conv3_2/dw"
  top: "conv3_2/dw"
  batch_norm_param {
    use_global_stats: false
    eps: 1e-05
  }
}
layer {
  name: "conv3_2/dw/scale"
  type: "Scale"
  bottom: "conv3_2/dw"
  top: "conv3_2/dw"
  param {
    lr_mult: 1
    decay_mult: 0
  }
  param {
    lr_mult: 1
    decay_mult: 0
  }
  scale_param {
    filler {
      value: 1
    }
    bias_term: true
    bias_filler {
      value: 0
    }
  }
}
layer {
  name: "relu3_2/dw"
  type: "ReLU"
  bottom: "conv3_2/dw"
  top: "conv3_2/dw"
}
layer {
  name: "conv3_2/sep"
  type: "Convolution"
  bottom: "conv3_2/dw"
  top: "conv3_2/sep"
  param {
    lr_mult: 1
    decay_mult: 1
  }
  convolution_param {
    num_output: 256
    bias_term: false
    pad: 0
    kernel_size: 1
    stride: 1
    weight_filler {
      type: "msra"
    }
  }
}
layer {
  name: "conv3_2/sep/bn"
  type: "BatchNorm"
  bottom: "conv3_2/sep"
  top: "conv3_2/sep"
  batch_norm_param {
    use_global_stats: false
    eps: 1e-05
  }
}
layer {
  name: "conv3_2/sep/scale"
  type: "Scale"
  bottom: "conv3_2/sep"
  top: "conv3_2/sep"
  param {
    lr_mult: 1
    decay_mult: 0
  }
  param {
    lr_mult: 1
    decay_mult: 0
  }
  scale_param {
    filler {
      value: 1
    }
    bias_term: true
    bias_filler {
      value: 0
    }
  }
}
layer {
  name: "relu3_2/sep"
  type: "ReLU"
  bottom: "conv3_2/sep"
  top: "conv3_2/sep"
}
layer {
  name: "conv4_1/dw"
  type: "Convolution"
  bottom: "conv3_2/sep"
  top: "conv4_1/dw"
  param {
    lr_mult: 1
    decay_mult: 1
  }
  convolution_param {
    num_output: 256
    bias_term: false
    pad: 1
    kernel_size: 3
    group: 256
    stride: 1
    weight_filler {
      type: "msra"
    }
    engine: CAFFE
  }
}
layer {
  name: "conv4_1/dw/bn"
  type: "BatchNorm"
  bottom: "conv4_1/dw"
  top: "conv4_1/dw"
  batch_norm_param {
    use_global_stats: false
    eps: 1e-05
  }
}
layer {
  name: "conv4_1/dw/scale"
  type: "Scale"
  bottom: "conv4_1/dw"
  top: "conv4_1/dw"
  param {
    lr_mult: 1
    decay_mult: 0
  }
  param {
    lr_mult: 1
    decay_mult: 0
  }
  scale_param {
    filler {
      value: 1
    }
    bias_term: true
    bias_filler {
      value: 0
    }
  }
}
layer {
  name: "relu4_1/dw"
  type: "ReLU"
  bottom: "conv4_1/dw"
  top: "conv4_1/dw"
}
layer {
  name: "conv4_1/sep"
  type: "Convolution"
  bottom: "conv4_1/dw"
  top: "conv4_1/sep"
  param {
    lr_mult: 1
    decay_mult: 1
  }
  convolution_param {
    num_output: 256
    bias_term: false
    pad: 0
    kernel_size: 1
    stride: 1
    weight_filler {
      type: "msra"
    }
  }
}
layer {
  name: "conv4_1/sep/bn"
  type: "BatchNorm"
  bottom: "conv4_1/sep"
  top: "conv4_1/sep"
  batch_norm_param {
    use_global_stats: false
    eps: 1e-05
  }
}
layer {
  name: "conv4_1/sep/scale"
  type: "Scale"
  bottom: "conv4_1/sep"
  top: "conv4_1/sep"
  param {
    lr_mult: 1
    decay_mult: 0
  }
  param {
    lr_mult: 1
    decay_mult: 0
  }
  scale_param {
    filler {
      value: 1
    }
    bias_term: true
    bias_filler {
      value: 0
    }
  }
}
layer {
  name: "relu4_1/sep"
  type: "ReLU"
  bottom: "conv4_1/sep"
  top: "conv4_1/sep"
}
layer {
  name: "loss1_conv1"
  type: "Convolution"
  bottom: "conv4_1/sep"
  top: "loss1_conv1"
  param {
    lr_mult: 1
    decay_mult: 1
  }
  param {
    lr_mult: 2
    decay_mult: 0
  }
  convolution_param {
    num_output: 512
    pad: 1
    kernel_size: 3
    weight_filler {
      type: "gaussian"
      std: 0.01
    }
    bias_filler {
      type: "constant"
    }
  }
}
layer {
  name: "loss_relu1"
  type: "ReLU"
  bottom: "loss1_conv1"
  top: "loss1_conv1"
}
layer {
  name: "LFCN_1_5x5"
  type: "Convolution"
  bottom: "loss1_conv1"
  top: "LFCN_1_5x5"
  param {
    lr_mult: 1
    decay_mult: 1
  }
  param {
    lr_mult: 2
    decay_mult: 0
  }
  convolution_param {
    num_output: 9
    pad: 2
    kernel_size: 5
    weight_filler {
      type: "gaussian"
      std: 0.001
    }
    bias_filler {
      type: "constant"
    }
  }
}
layer {
  name: "detection_loss_1_5x5"
  type: "DetectionLoss"
  bottom: "LFCN_1_5x5"
  bottom: "label_1_5x5"
  top: "loss_1_5x5"
  loss_weight: 0.9
  detection_loss_param {
    cls_num: 5
    coord_num: 4
    lambda: 0.05
    field_h: 60
    field_w: 60
    downsample_rate: 8
    bb_smooth: true
    field_whr: 2
    field_xyr: 2
    bg_threshold: 0.2
    bg_multiple: 2
    sample_mode: "random"
    pos_neg_weighted: true
  }
}
layer {
  name: "detection_accuracy_1_5x5"
  type: "DetectionAccuracy"
  bottom: "LFCN_1_5x5"
  bottom: "label_1_5x5"
  top: "accuracy_1_5x5"
  top: "boxiou_1_5x5"
  detection_accuracy_param {
    cls_num: 5
    coord_num: 4
    field_h: 60
    field_w: 60
    downsample_rate: 8
    field_whr: 2
    field_xyr: 2
  }
}
layer {
  name: "LFCN_1_7x7"
  type: "Convolution"
  bottom: "loss1_conv1"
  top: "LFCN_1_7x7"
  param {
    lr_mult: 1
    decay_mult: 1
  }
  param {
    lr_mult: 2
    decay_mult: 0
  }
  convolution_param {
    num_output: 9
    pad: 3
    kernel_size: 7
    weight_filler {
      type: "gaussian"
      std: 0.001
    }
    bias_filler {
      type: "constant"
    }
  }
}
layer {
  name: "detection_loss_1_7x7"
  type: "DetectionLoss"
  bottom: "LFCN_1_7x7"
  bottom: "label_1_7x7"
  top: "loss_1_7x7"
  loss_weight: 0.9
  detection_loss_param {
    cls_num: 5
    coord_num: 4
    lambda: 0.05
    field_h: 84
    field_w: 84
    downsample_rate: 8
    bb_smooth: true
    field_whr: 2
    field_xyr: 2
    bg_threshold: 0.2
    bg_multiple: 2
    sample_mode: "random"
    pos_neg_weighted: true
  }
}
layer {
  name: "detection_accuracy_1_7x7"
  type: "DetectionAccuracy"
  bottom: "LFCN_1_7x7"
  bottom: "label_1_7x7"
  top: "accuracy_1_7x7"
  top: "boxiou_1_7x7"
  detection_accuracy_param {
    cls_num: 5
    coord_num: 4
    field_h: 84
    field_w: 84
    downsample_rate: 8
    field_whr: 2
    field_xyr: 2
  }
}
layer {
  name: "conv4_2/dw"
  type: "Convolution"
  bottom: "conv4_1/sep"
  top: "conv4_2/dw"
  param {
    lr_mult: 1
    decay_mult: 1
  }
  convolution_param {
    num_output: 256
    bias_term: false
    pad: 1
    kernel_size: 3
    group: 256
    stride: 2
    weight_filler {
      type: "msra"
    }
    engine: CAFFE
  }
}
layer {
  name: "conv4_2/dw/bn"
  type: "BatchNorm"
  bottom: "conv4_2/dw"
  top: "conv4_2/dw"
  batch_norm_param {
    use_global_stats: false
    eps: 1e-05
  }
}
layer {
  name: "conv4_2/dw/scale"
  type: "Scale"
  bottom: "conv4_2/dw"
  top: "conv4_2/dw"
  param {
    lr_mult: 1
    decay_mult: 0
  }
  param {
    lr_mult: 1
    decay_mult: 0
  }
  scale_param {
    filler {
      value: 1
    }
    bias_term: true
    bias_filler {
      value: 0
    }
  }
}
layer {
  name: "relu4_2/dw"
  type: "ReLU"
  bottom: "conv4_2/dw"
  top: "conv4_2/dw"
}
layer {
  name: "conv4_2/sep"
  type: "Convolution"
  bottom: "conv4_2/dw"
  top: "conv4_2/sep"
  param {
    lr_mult: 1
    decay_mult: 1
  }
  convolution_param {
    num_output: 512
    bias_term: false
    pad: 0
    kernel_size: 1
    stride: 1
    weight_filler {
      type: "msra"
    }
  }
}
layer {
  name: "conv4_2/sep/bn"
  type: "BatchNorm"
  bottom: "conv4_2/sep"
  top: "conv4_2/sep"
  batch_norm_param {
    use_global_stats: false
    eps: 1e-05
  }
}
layer {
  name: "conv4_2/sep/scale"
  type: "Scale"
  bottom: "conv4_2/sep"
  top: "conv4_2/sep"
  param {
    lr_mult: 1
    decay_mult: 0
  }
  param {
    lr_mult: 1
    decay_mult: 0
  }
  scale_param {
    filler {
      value: 1
    }
    bias_term: true
    bias_filler {
      value: 0
    }
  }
}
layer {
  name: "relu4_2/sep"
  type: "ReLU"
  bottom: "conv4_2/sep"
  top: "conv4_2/sep"
}
layer {
  name: "conv5_1/dw"
  type: "Convolution"
  bottom: "conv4_2/sep"
  top: "conv5_1/dw"
  param {
    lr_mult: 1
    decay_mult: 1
  }
  convolution_param {
    num_output: 512
    bias_term: false
    pad: 1
    kernel_size: 3
    group: 512
    stride: 1
    weight_filler {
      type: "msra"
    }
    engine: CAFFE
  }
}
layer {
  name: "conv5_1/dw/bn"
  type: "BatchNorm"
  bottom: "conv5_1/dw"
  top: "conv5_1/dw"
  batch_norm_param {
    use_global_stats: false
    eps: 1e-05
  }
}
layer {
  name: "conv5_1/dw/scale"
  type: "Scale"
  bottom: "conv5_1/dw"
  top: "conv5_1/dw"
  param {
    lr_mult: 1
    decay_mult: 0
  }
  param {
    lr_mult: 1
    decay_mult: 0
  }
  scale_param {
    filler {
      value: 1
    }
    bias_term: true
    bias_filler {
      value: 0
    }
  }
}
layer {
  name: "relu5_1/dw"
  type: "ReLU"
  bottom: "conv5_1/dw"
  top: "conv5_1/dw"
}
layer {
  name: "conv5_1/sep"
  type: "Convolution"
  bottom: "conv5_1/dw"
  top: "conv5_1/sep"
  param {
    lr_mult: 1
    decay_mult: 1
  }
  convolution_param {
    num_output: 512
    bias_term: false
    pad: 0
    kernel_size: 1
    stride: 1
    weight_filler {
      type: "msra"
    }
  }
}
layer {
  name: "conv5_1/sep/bn"
  type: "BatchNorm"
  bottom: "conv5_1/sep"
  top: "conv5_1/sep"
  batch_norm_param {
    use_global_stats: false
    eps: 1e-05
  }
}
layer {
  name: "conv5_1/sep/scale"
  type: "Scale"
  bottom: "conv5_1/sep"
  top: "conv5_1/sep"
  param {
    lr_mult: 1
    decay_mult: 0
  }
  param {
    lr_mult: 1
    decay_mult: 0
  }
  scale_param {
    filler {
      value: 1
    }
    bias_term: true
    bias_filler {
      value: 0
    }
  }
}
layer {
  name: "relu5_1/sep"
  type: "ReLU"
  bottom: "conv5_1/sep"
  top: "conv5_1/sep"
}
layer {
  name: "conv5_2/dw"
  type: "Convolution"
  bottom: "conv5_1/sep"
  top: "conv5_2/dw"
  param {
    lr_mult: 1
    decay_mult: 1
  }
  convolution_param {
    num_output: 512
    bias_term: false
    pad: 1
    kernel_size: 3
    group: 512
    stride: 1
    weight_filler {
      type: "msra"
    }
    engine: CAFFE
  }
}
layer {
  name: "conv5_2/dw/bn"
  type: "BatchNorm"
  bottom: "conv5_2/dw"
  top: "conv5_2/dw"
  batch_norm_param {
    use_global_stats: false
    eps: 1e-05
  }
}
layer {
  name: "conv5_2/dw/scale"
  type: "Scale"
  bottom: "conv5_2/dw"
  top: "conv5_2/dw"
  param {
    lr_mult: 1
    decay_mult: 0
  }
  param {
    lr_mult: 1
    decay_mult: 0
  }
  scale_param {
    filler {
      value: 1
    }
    bias_term: true
    bias_filler {
      value: 0
    }
  }
}
layer {
  name: "relu5_2/dw"
  type: "ReLU"
  bottom: "conv5_2/dw"
  top: "conv5_2/dw"
}
layer {
  name: "conv5_2/sep"
  type: "Convolution"
  bottom: "conv5_2/dw"
  top: "conv5_2/sep"
  param {
    lr_mult: 1
    decay_mult: 1
  }
  convolution_param {
    num_output: 512
    bias_term: false
    pad: 0
    kernel_size: 1
    stride: 1
    weight_filler {
      type: "msra"
    }
  }
}
layer {
  name: "conv5_2/sep/bn"
  type: "BatchNorm"
  bottom: "conv5_2/sep"
  top: "conv5_2/sep"
  batch_norm_param {
    use_global_stats: false
    eps: 1e-05
  }
}
layer {
  name: "conv5_2/sep/scale"
  type: "Scale"
  bottom: "conv5_2/sep"
  top: "conv5_2/sep"
  param {
    lr_mult: 1
    decay_mult: 0
  }
  param {
    lr_mult: 1
    decay_mult: 0
  }
  scale_param {
    filler {
      value: 1
    }
    bias_term: true
    bias_filler {
      value: 0
    }
  }
}
layer {
  name: "relu5_2/sep"
  type: "ReLU"
  bottom: "conv5_2/sep"
  top: "conv5_2/sep"
}
layer {
  name: "conv5_3/dw"
  type: "Convolution"
  bottom: "conv5_2/sep"
  top: "conv5_3/dw"
  param {
    lr_mult: 1
    decay_mult: 1
  }
  convolution_param {
    num_output: 512
    bias_term: false
    pad: 1
    kernel_size: 3
    group: 512
    stride: 1
    weight_filler {
      type: "msra"
    }
    engine: CAFFE
  }
}
layer {
  name: "conv5_3/dw/bn"
  type: "BatchNorm"
  bottom: "conv5_3/dw"
  top: "conv5_3/dw"
  batch_norm_param {
    use_global_stats: false
    eps: 1e-05
  }
}
layer {
  name: "conv5_3/dw/scale"
  type: "Scale"
  bottom: "conv5_3/dw"
  top: "conv5_3/dw"
  param {
    lr_mult: 1
    decay_mult: 0
  }
  param {
    lr_mult: 1
    decay_mult: 0
  }
  scale_param {
    filler {
      value: 1
    }
    bias_term: true
    bias_filler {
      value: 0
    }
  }
}
layer {
  name: "relu5_3/dw"
  type: "ReLU"
  bottom: "conv5_3/dw"
  top: "conv5_3/dw"
}
layer {
  name: "conv5_3/sep"
  type: "Convolution"
  bottom: "conv5_3/dw"
  top: "conv5_3/sep"
  param {
    lr_mult: 1
    decay_mult: 1
  }
  convolution_param {
    num_output: 512
    bias_term: false
    pad: 0
    kernel_size: 1
    stride: 1
    weight_filler {
      type: "msra"
    }
  }
}
layer {
  name: "conv5_3/sep/bn"
  type: "BatchNorm"
  bottom: "conv5_3/sep"
  top: "conv5_3/sep"
  batch_norm_param {
    use_global_stats: false
    eps: 1e-05
  }
}
layer {
  name: "conv5_3/sep/scale"
  type: "Scale"
  bottom: "conv5_3/sep"
  top: "conv5_3/sep"
  param {
    lr_mult: 1
    decay_mult: 0
  }
  param {
    lr_mult: 1
    decay_mult: 0
  }
  scale_param {
    filler {
      value: 1
    }
    bias_term: true
    bias_filler {
      value: 0
    }
  }
}
layer {
  name: "relu5_3/sep"
  type: "ReLU"
  bottom: "conv5_3/sep"
  top: "conv5_3/sep"
}
layer {
  name: "conv5_4/dw"
  type: "Convolution"
  bottom: "conv5_3/sep"
  top: "conv5_4/dw"
  param {
    lr_mult: 1
    decay_mult: 1
  }
  convolution_param {
    num_output: 512
    bias_term: false
    pad: 1
    kernel_size: 3
    group: 512
    stride: 1
    weight_filler {
      type: "msra"
    }
    engine: CAFFE
  }
}
layer {
  name: "conv5_4/dw/bn"
  type: "BatchNorm"
  bottom: "conv5_4/dw"
  top: "conv5_4/dw"
  batch_norm_param {
    use_global_stats: false
    eps: 1e-05
  }
}
layer {
  name: "conv5_4/dw/scale"
  type: "Scale"
  bottom: "conv5_4/dw"
  top: "conv5_4/dw"
  param {
    lr_mult: 1
    decay_mult: 0
  }
  param {
    lr_mult: 1
    decay_mult: 0
  }
  scale_param {
    filler {
      value: 1
    }
    bias_term: true
    bias_filler {
      value: 0
    }
  }
}
layer {
  name: "relu5_4/dw"
  type: "ReLU"
  bottom: "conv5_4/dw"
  top: "conv5_4/dw"
}
layer {
  name: "conv5_4/sep"
  type: "Convolution"
  bottom: "conv5_4/dw"
  top: "conv5_4/sep"
  param {
    lr_mult: 1
    decay_mult: 1
  }
  convolution_param {
    num_output: 512
    bias_term: false
    pad: 0
    kernel_size: 1
    stride: 1
    weight_filler {
      type: "msra"
    }
  }
}
layer {
  name: "conv5_4/sep/bn"
  type: "BatchNorm"
  bottom: "conv5_4/sep"
  top: "conv5_4/sep"
  batch_norm_param {
    use_global_stats: false
    eps: 1e-05
  }
}
layer {
  name: "conv5_4/sep/scale"
  type: "Scale"
  bottom: "conv5_4/sep"
  top: "conv5_4/sep"
  param {
    lr_mult: 1
    decay_mult: 0
  }
  param {
    lr_mult: 1
    decay_mult: 0
  }
  scale_param {
    filler {
      value: 1
    }
    bias_term: true
    bias_filler {
      value: 0
    }
  }
}
layer {
  name: "relu5_4/sep"
  type: "ReLU"
  bottom: "conv5_4/sep"
  top: "conv5_4/sep"
}
layer {
  name: "conv5_5/dw"
  type: "Convolution"
  bottom: "conv5_4/sep"
  top: "conv5_5/dw"
  param {
    lr_mult: 1
    decay_mult: 1
  }
  convolution_param {
    num_output: 512
    bias_term: false
    pad: 1
    kernel_size: 3
    group: 512
    stride: 1
    weight_filler {
      type: "msra"
    }
    engine: CAFFE
  }
}
layer {
  name: "conv5_5/dw/bn"
  type: "BatchNorm"
  bottom: "conv5_5/dw"
  top: "conv5_5/dw"
  batch_norm_param {
    use_global_stats: false
    eps: 1e-05
  }
}
layer {
  name: "conv5_5/dw/scale"
  type: "Scale"
  bottom: "conv5_5/dw"
  top: "conv5_5/dw"
  param {
    lr_mult: 1
    decay_mult: 0
  }
  param {
    lr_mult: 1
    decay_mult: 0
  }
  scale_param {
    filler {
      value: 1
    }
    bias_term: true
    bias_filler {
      value: 0
    }
  }
}
layer {
  name: "relu5_5/dw"
  type: "ReLU"
  bottom: "conv5_5/dw"
  top: "conv5_5/dw"
}
layer {
  name: "conv5_5/sep"
  type: "Convolution"
  bottom: "conv5_5/dw"
  top: "conv5_5/sep"
  param {
    lr_mult: 1
    decay_mult: 1
  }
  convolution_param {
    num_output: 512
    bias_term: false
    pad: 0
    kernel_size: 1
    stride: 1
    weight_filler {
      type: "msra"
    }
  }
}
layer {
  name: "conv5_5/sep/bn"
  type: "BatchNorm"
  bottom: "conv5_5/sep"
  top: "conv5_5/sep"
  batch_norm_param {
    use_global_stats: false
    eps: 1e-05
  }
}
layer {
  name: "conv5_5/sep/scale"
  type: "Scale"
  bottom: "conv5_5/sep"
  top: "conv5_5/sep"
  param {
    lr_mult: 1
    decay_mult: 0
  }
  param {
    lr_mult: 1
    decay_mult: 0
  }
  scale_param {
    filler {
      value: 1
    }
    bias_term: true
    bias_filler {
      value: 0
    }
  }
}
layer {
  name: "relu5_5/sep"
  type: "ReLU"
  bottom: "conv5_5/sep"
  top: "conv5_5/sep"
}
layer {
  name: "LFCN_2_5x5"
  type: "Convolution"
  bottom: "conv5_5/sep"
  top: "LFCN_2_5x5"
  param {
    lr_mult: 1
    decay_mult: 1
  }
  param {
    lr_mult: 2
    decay_mult: 0
  }
  convolution_param {
    num_output: 9
    pad: 2
    kernel_size: 5
    weight_filler {
      type: "gaussian"
      std: 0.001
    }
    bias_filler {
      type: "constant"
    }
  }
}
layer {
  name: "detection_loss_2_5x5"
  type: "DetectionLoss"
  bottom: "LFCN_2_5x5"
  bottom: "label_2_5x5"
  top: "loss_2_5x5"
  detection_loss_param {
    cls_num: 5
    coord_num: 4
    lambda: 0.05
    field_h: 120
    field_w: 120
    downsample_rate: 16
    bb_smooth: true
    field_whr: 2
    field_xyr: 2
    bg_threshold: 0.2
    bg_multiple: 2
    sample_mode: "random"
    pos_neg_weighted: true
  }
}
layer {
  name: "detection_accuracy_2_5x5"
  type: "DetectionAccuracy"
  bottom: "LFCN_2_5x5"
  bottom: "label_2_5x5"
  top: "accuracy_2_5x5"
  top: "boxiou_2_5x5"
  detection_accuracy_param {
    cls_num: 5
    coord_num: 4
    field_h: 120
    field_w: 120
    downsample_rate: 16
    field_whr: 2
    field_xyr: 2
  }
}
layer {
  name: "LFCN_2_7x7"
  type: "Convolution"
  bottom: "conv5_5/sep"
  top: "LFCN_2_7x7"
  param {
    lr_mult: 1
    decay_mult: 1
  }
  param {
    lr_mult: 2
    decay_mult: 0
  }
  convolution_param {
    num_output: 9
    pad: 3
    kernel_size: 7
    weight_filler {
      type: "gaussian"
      std: 0.001
    }
    bias_filler {
      type: "constant"
    }
  }
}
layer {
  name: "detection_loss_2_7x7"
  type: "DetectionLoss"
  bottom: "LFCN_2_7x7"
  bottom: "label_2_7x7"
  top: "loss_2_7x7"
  detection_loss_param {
    cls_num: 5
    coord_num: 4
    lambda: 0.05
    field_h: 168
    field_w: 168
    downsample_rate: 16
    bb_smooth: true
    field_whr: 2
    field_xyr: 2
    bg_threshold: 0.2
    bg_multiple: 2
    sample_mode: "random"
    pos_neg_weighted: true
  }
}
layer {
  name: "detection_accuracy_2_7x7"
  type: "DetectionAccuracy"
  bottom: "LFCN_2_7x7"
  bottom: "label_2_7x7"
  top: "accuracy_2_7x7"
  top: "boxiou_2_7x7"
  detection_accuracy_param {
    cls_num: 5
    coord_num: 4
    field_h: 168
    field_w: 168
    downsample_rate: 16
    field_whr: 2
    field_xyr: 2
  }
}
layer {
  name: "conv5_6/dw"
  type: "Convolution"
  bottom: "conv5_5/sep"
  top: "conv5_6/dw"
  param {
    lr_mult: 1
    decay_mult: 1
  }
  convolution_param {
    num_output: 512
    bias_term: false
    pad: 1
    kernel_size: 3
    group: 512
    stride: 2
    weight_filler {
      type: "msra"
    }
    engine: CAFFE
  }
}
layer {
  name: "conv5_6/dw/bn"
  type: "BatchNorm"
  bottom: "conv5_6/dw"
  top: "conv5_6/dw"
  batch_norm_param {
    use_global_stats: false
    eps: 1e-05
  }
}
layer {
  name: "conv5_6/dw/scale"
  type: "Scale"
  bottom: "conv5_6/dw"
  top: "conv5_6/dw"
  param {
    lr_mult: 1
    decay_mult: 0
  }
  param {
    lr_mult: 1
    decay_mult: 0
  }
  scale_param {
    filler {
      value: 1
    }
    bias_term: true
    bias_filler {
      value: 0
    }
  }
}
layer {
  name: "relu5_6/dw"
  type: "ReLU"
  bottom: "conv5_6/dw"
  top: "conv5_6/dw"
}
layer {
  name: "conv5_6/sep"
  type: "Convolution"
  bottom: "conv5_6/dw"
  top: "conv5_6/sep"
  param {
    lr_mult: 1
    decay_mult: 1
  }
  convolution_param {
    num_output: 1024
    bias_term: false
    pad: 0
    kernel_size: 1
    stride: 1
    weight_filler {
      type: "msra"
    }
  }
}
layer {
  name: "conv5_6/sep/bn"
  type: "BatchNorm"
  bottom: "conv5_6/sep"
  top: "conv5_6/sep"
  batch_norm_param {
    use_global_stats: false
    eps: 1e-05
  }
}
layer {
  name: "conv5_6/sep/scale"
  type: "Scale"
  bottom: "conv5_6/sep"
  top: "conv5_6/sep"
  param {
    lr_mult: 1
    decay_mult: 0
  }
  param {
    lr_mult: 1
    decay_mult: 0
  }
  scale_param {
    filler {
      value: 1
    }
    bias_term: true
    bias_filler {
      value: 0
    }
  }
}
layer {
  name: "relu5_6/sep"
  type: "ReLU"
  bottom: "conv5_6/sep"
  top: "conv5_6/sep"
}
layer {
  name: "conv6/dw"
  type: "Convolution"
  bottom: "conv5_6/sep"
  top: "conv6/dw"
  param {
    lr_mult: 1
    decay_mult: 1
  }
  convolution_param {
    num_output: 1024
    bias_term: false
    pad: 1
    kernel_size: 3
    group: 1024
    stride: 1
    weight_filler {
      type: "msra"
    }
    engine: CAFFE
  }
}
layer {
  name: "conv6/dw/bn"
  type: "BatchNorm"
  bottom: "conv6/dw"
  top: "conv6/dw"
  batch_norm_param {
    use_global_stats: false
    eps: 1e-05
  }
}
layer {
  name: "conv6/dw/scale"
  type: "Scale"
  bottom: "conv6/dw"
  top: "conv6/dw"
  param {
    lr_mult: 1
    decay_mult: 0
  }
  param {
    lr_mult: 1
    decay_mult: 0
  }
  scale_param {
    filler {
      value: 1
    }
    bias_term: true
    bias_filler {
      value: 0
    }
  }
}
layer {
  name: "relu6/dw"
  type: "ReLU"
  bottom: "conv6/dw"
  top: "conv6/dw"
}
layer {
  name: "conv6/sep"
  type: "Convolution"
  bottom: "conv6/dw"
  top: "conv6/sep"
  param {
    lr_mult: 1
    decay_mult: 1
  }
  convolution_param {
    num_output: 1024
    bias_term: false
    pad: 0
    kernel_size: 1
    stride: 1
    weight_filler {
      type: "msra"
    }
  }
}
layer {
  name: "conv6/sep/bn"
  type: "BatchNorm"
  bottom: "conv6/sep"
  top: "conv6/sep"
  batch_norm_param {
    use_global_stats: false
    eps: 1e-05
  }
}
layer {
  name: "conv6/sep/scale"
  type: "Scale"
  bottom: "conv6/sep"
  top: "conv6/sep"
  param {
    lr_mult: 1
    decay_mult: 0
  }
  param {
    lr_mult: 1
    decay_mult: 0
  }
  scale_param {
    filler {
      value: 1
    }
    bias_term: true
    bias_filler {
      value: 0
    }
  }
}
layer {
  name: "relu6/sep"
  type: "ReLU"
  bottom: "conv6/sep"
  top: "conv6/sep"
}
layer {
  name: "LFCN_3_5x5"
  type: "Convolution"
  bottom: "conv6/sep"
  top: "LFCN_3_5x5"
  param {
    lr_mult: 1
    decay_mult: 1
  }
  param {
    lr_mult: 2
    decay_mult: 0
  }
  convolution_param {
    num_output: 9
  
I0107 19:33:41.473552 13409 layer_factory.hpp:77] Creating layer data
I0107 19:33:41.473623 13409 net.cpp:100] Creating Layer data
I0107 19:33:41.473631 13409 net.cpp:408] data -> data
I0107 19:33:41.473659 13409 net.cpp:408] data -> label_1_5x5
…
I0107 19:33:41.499070 13409 image_gt_data_layer.cpp:235] output label size 1 : 3,6,96,96
I0107 19:33:41.499112 13409 image_gt_data_layer.cpp:235] output label size 2 : 3,6,48,48
I0107 19:33:41.499152 13409 image_gt_data_layer.cpp:235] output label size 3 : 3,6,48,48
I0107 19:33:41.499195 13409 image_gt_data_layer.cpp:235] output label size 4 : 3,6,24,24
I0107 19:33:41.499235 13409 image_gt_data_layer.cpp:235] output label size 5 : 3,6,24,24
I0107 19:33:41.499276 13409 image_gt_data_layer.cpp:235] output label size 6 : 3,6,12,12
I0107 19:33:41.548061 13409 net.cpp:150] Setting up data
I0107 19:33:41.548097 13409 net.cpp:157] Top shape: 3 3 768 768 (5308416)
I0107 19:33:41.548104 13409 net.cpp:157] Top shape: 3 6 96 96 (165888)
I0107 19:33:41.548108 13409 net.cpp:157] Top shape: 3 6 96 96 (165888)
I0107 19:33:41.548112 13409 net.cpp:157] Top shape: 3 6 48 48 (41472)
I0107 19:33:41.548116 13409 net.cpp:157] Top shape: 3 6 48 48 (41472)
I0107 19:33:41.548120 13409 net.cpp:157] Top shape: 3 6 24 24 (10368)
I0107 19:33:41.548125 13409 net.cpp:157] Top shape: 3 6 24 24 (10368)
I0107 19:33:41.548130 13409 net.cpp:157] Top shape: 3 6 12 12 (2592)
I0107 19:33:41.548132 13409 net.cpp:165] Memory required for data: 22985856
I0107 19:33:41.548142 13409 layer_factory.hpp:77] Creating layer label_1_5x5_data_1_split
I0107 19:33:41.548163 13409 net.cpp:100] Creating Layer label_1_5x5_data_1_split
I0107 19:33:41.548171 13409 net.cpp:434] label_1_5x5_data_1_split <- label_1_5x5
I0107 19:33:41.548184 13409 net.cpp:408] label_1_5x5_data_1_split -> label_1_5x5_data_1_split_0
I0107 19:33:41.548195 13409 net.cpp:408] label_1_5x5_data_1_split -> label_1_5x5_data_1_split_1
I0107 19:33:41.548252 13409 net.cpp:150] Setting up label_1_5x5_data_1_split
I0107 19:33:41.548260 13409 net.cpp:157] Top shape: 3 6 96 96 (165888)
I0107 19:33:41.548264 13409 net.cpp:157] Top shape: 3 6 96 96 (165888)
I0107 19:33:41.548267 13409 net.cpp:165] Memory required for data: 24312960
I0107 19:33:41.548271 13409 layer_factory.hpp:77] Creating layer label_1_7x7_data_2_split
I0107 19:33:41.548276 13409 net.cpp:100] Creating Layer label_1_7x7_data_2_split
I0107 19:33:41.548280 13409 net.cpp:434] label_1_7x7_data_2_split <- label_1_7x7
I0107 19:33:41.548286 13409 net.cpp:408] label_1_7x7_data_2_split -> label_1_7x7_data_2_split_0
I0107 19:33:41.548292 13409 net.cpp:408] label_1_7x7_data_2_split -> label_1_7x7_data_2_split_1
I0107 19:33:41.548491 13409 net.cpp:150] Setting up label_1_7x7_data_2_split
I0107 19:33:41.548550 13409 net.cpp:157] Top shape: 3 6 96 96 (165888)
I0107 19:33:41.548561 13409 net.cpp:157] Top shape: 3 6 96 96 (165888)
I0107 19:33:41.548569 13409 net.cpp:165] Memory required for data: 25640064
I0107 19:33:41.548585 13409 layer_factory.hpp:77] Creating layer label_2_5x5_data_3_split
I0107 19:33:41.548614 13409 net.cpp:100] Creating Layer label_2_5x5_data_3_split
I0107 19:33:41.548625 13409 net.cpp:434] label_2_5x5_data_3_split <- label_2_5x5
I0107 19:33:41.548650 13409 net.cpp:408] label_2_5x5_data_3_split -> label_2_5x5_data_3_split_0
I0107 19:33:41.548671 13409 net.cpp:408] label_2_5x5_data_3_split -> label_2_5x5_data_3_split_1
I0107 19:33:41.548748 13409 net.cpp:150] Setting up label_2_5x5_data_3_split
I0107 19:33:41.548760 13409 net.cpp:157] Top shape: 3 6 48 48 (41472)
I0107 19:33:41.548770 13409 net.cpp:157] Top shape: 3 6 48 48 (41472)
I0107 19:33:41.548777 13409 net.cpp:165] Memory required for data: 25971840
I0107 19:33:41.548785 13409 layer_factory.hpp:77] Creating layer label_2_7x7_data_4_split
I0107 19:33:41.548800 13409 net.cpp:100] Creating Layer label_2_7x7_data_4_split
I0107 19:33:41.548808 13409 net.cpp:434] label_2_7x7_data_4_split <- label_2_7x7
I0107 19:33:41.548825 13409 net.cpp:408] label_2_7x7_data_4_split -> label_2_7x7_data_4_split_0
I0107 19:33:41.548838 13409 net.cpp:408] label_2_7x7_data_4_split -> label_2_7x7_data_4_split_1
I0107 19:33:41.548905 13409 net.cpp:150] Setting up label_2_7x7_data_4_split
I0107 19:33:41.548918 13409 net.cpp:157] Top shape: 3 6 48 48 (41472)
I0107 19:33:41.548926 13409 net.cpp:157] Top shape: 3 6 48 48 (41472)
I0107 19:33:41.548933 13409 net.cpp:165] Memory required for data: 26303616
I0107 19:33:41.548940 13409 layer_factory.hpp:77] Creating layer label_3_5x5_data_5_split
I0107 19:33:41.548952 13409 net.cpp:100] Creating Layer label_3_5x5_data_5_split
I0107 19:33:41.548959 13409 net.cpp:434] label_3_5x5_data_5_split <- label_3_5x5
I0107 19:33:41.548969 13409 net.cpp:408] label_3_5x5_data_5_split -> label_3_5x5_data_5_split_0
I0107 19:33:41.548990 13409 net.cpp:408] label_3_5x5_data_5_split -> label_3_5x5_data_5_split_1
I0107 19:33:41.549052 13409 net.cpp:150] Setting up label_3_5x5_data_5_split
I0107 19:33:41.549063 13409 net.cpp:157] Top shape: 3 6 24 24 (10368)
I0107 19:33:41.549072 13409 net.cpp:157] Top shape: 3 6 24 24 (10368)
I0107 19:33:41.549078 13409 net.cpp:165] Memory required for data: 26386560
I0107 19:33:41.549087 13409 layer_factory.hpp:77] Creating layer label_3_7x7_data_6_split
I0107 19:33:41.549100 13409 net.cpp:100] Creating Layer label_3_7x7_data_6_split
I0107 19:33:41.549108 13409 net.cpp:434] label_3_7x7_data_6_split <- label_3_7x7
I0107 19:33:41.549118 13409 net.cpp:408] label_3_7x7_data_6_split -> label_3_7x7_data_6_split_0
I0107 19:33:41.549129 13409 net.cpp:408] label_3_7x7_data_6_split -> label_3_7x7_data_6_split_1
I0107 19:33:41.549188 13409 net.cpp:150] Setting up label_3_7x7_data_6_split
I0107 19:33:41.549198 13409 net.cpp:157] Top shape: 3 6 24 24 (10368)
I0107 19:33:41.549207 13409 net.cpp:157] Top shape: 3 6 24 24 (10368)
I0107 19:33:41.549214 13409 net.cpp:165] Memory required for data: 26469504
I0107 19:33:41.549221 13409 layer_factory.hpp:77] Creating layer label_4_5x5_data_7_split
I0107 19:33:41.549232 13409 net.cpp:100] Creating Layer label_4_5x5_data_7_split
I0107 19:33:41.549238 13409 net.cpp:434] label_4_5x5_data_7_split <- label_4_5x5
I0107 19:33:41.549248 13409 net.cpp:408] label_4_5x5_data_7_split -> label_4_5x5_data_7_split_0
I0107 19:33:41.549259 13409 net.cpp:408] label_4_5x5_data_7_split -> label_4_5x5_data_7_split_1
I0107 19:33:41.549317 13409 net.cpp:150] Setting up label_4_5x5_data_7_split
I0107 19:33:41.549327 13409 net.cpp:157] Top shape: 3 6 12 12 (2592)
I0107 19:33:41.549336 13409 net.cpp:157] Top shape: 3 6 12 12 (2592)
I0107 19:33:41.549342 13409 net.cpp:165] Memory required for data: 26490240
I0107 19:33:41.549350 13409 layer_factory.hpp:77] Creating layer conv1
I0107 19:33:41.549394 13409 net.cpp:100] Creating Layer conv1
I0107 19:33:41.549403 13409 net.cpp:434] conv1 <- data
I0107 19:33:41.549415 13409 net.cpp:408] conv1 -> conv1
I0107 19:33:41.795388 13409 net.cpp:150] Setting up conv1
I0107 19:33:41.795419 13409 net.cpp:157] Top shape: 3 32 384 384 (14155776)
I0107 19:33:41.795424 13409 net.cpp:165] Memory required for data: 83113344
I0107 19:33:41.795439 13409 layer_factory.hpp:77] Creating layer conv1/bn
I0107 19:33:41.795459 13409 net.cpp:100] Creating Layer conv1/bn
I0107 19:33:41.795464 13409 net.cpp:434] conv1/bn <- conv1
I0107 19:33:41.795470 13409 net.cpp:395] conv1/bn -> conv1 (in-place)
I0107 19:33:41.796463 13409 net.cpp:150] Setting up conv1/bn
I0107 19:33:41.796476 13409 net.cpp:157] Top shape: 3 32 384 384 (14155776)
I0107 19:33:41.796480 13409 net.cpp:165] Memory required for data: 139736448
I0107 19:33:41.796492 13409 layer_factory.hpp:77] Creating layer conv1/scale
I0107 19:33:41.796506 13409 net.cpp:100] Creating Layer conv1/scale
I0107 19:33:41.796511 13409 net.cpp:434] conv1/scale <- conv1
I0107 19:33:41.796516 13409 net.cpp:395] conv1/scale -> conv1 (in-place)
I0107 19:33:41.796555 13409 layer_factory.hpp:77] Creating layer conv1/scale
I0107 19:33:41.796818 13409 net.cpp:150] Setting up conv1/scale
I0107 19:33:41.796828 13409 net.cpp:157] Top shape: 3 32 384 384 (14155776)
I0107 19:33:41.796833 13409 net.cpp:165] Memory required for data: 196359552
I0107 19:33:41.796841 13409 layer_factory.hpp:77] Creating layer relu1
I0107 19:33:41.796849 13409 net.cpp:100] Creating Layer relu1
I0107 19:33:41.796854 13409 net.cpp:434] relu1 <- conv1
I0107 19:33:41.796860 13409 net.cpp:395] relu1 -> conv1 (in-place)
I0107 19:33:41.797027 13409 net.cpp:150] Setting up relu1
I0107 19:33:41.797036 13409 net.cpp:157] Top shape: 3 32 384 384 (14155776)
I0107 19:33:41.797040 13409 net.cpp:165] Memory required for data: 252982656
I0107 19:33:41.797044 13409 layer_factory.hpp:77] Creating layer conv2_1/dw
I0107 19:33:41.797053 13409 net.cpp:100] Creating Layer conv2_1/dw
I0107 19:33:41.797057 13409 net.cpp:434] conv2_1/dw <- conv1
I0107 19:33:41.797062 13409 net.cpp:408] conv2_1/dw -> conv2_1/dw
I0107 19:33:41.797224 13409 net.cpp:150] Setting up conv2_1/dw
I0107 19:33:41.797230 13409 net.cpp:157] Top shape: 3 32 384 384 (14155776)
I0107 19:33:41.797233 13409 net.cpp:165] Memory required for data: 309605760
I0107 19:33:41.797238 13409 layer_factory.hpp:77] Creating layer conv2_1/dw/bn
I0107 19:33:41.797245 13409 net.cpp:100] Creating Layer conv2_1/dw/bn
I0107 19:33:41.797248 13409 net.cpp:434] conv2_1/dw/bn <- conv2_1/dw
I0107 19:33:41.797255 13409 net.cpp:395] conv2_1/dw/bn -> conv2_1/dw (in-place)
I0107 19:33:41.798238 13409 net.cpp:150] Setting up conv2_1/dw/bn
I0107 19:33:41.798251 13409 net.cpp:157] Top shape: 3 32 384 384 (14155776)
I0107 19:33:41.798254 13409 net.cpp:165] Memory required for data: 366228864
I0107 19:33:41.798265 13409 layer_factory.hpp:77] Creating layer conv2_1/dw/scale
I0107 19:33:41.798274 13409 net.cpp:100] Creating Layer conv2_1/dw/scale
I0107 19:33:41.798279 13409 net.cpp:434] conv2_1/dw/scale <- conv2_1/dw
I0107 19:33:41.798283 13409 net.cpp:395] conv2_1/dw/scale -> conv2_1/dw (in-place)
I0107 19:33:41.798319 13409 layer_factory.hpp:77] Creating layer conv2_1/dw/scale
I0107 19:33:41.798547 13409 net.cpp:150] Setting up conv2_1/dw/scale
I0107 19:33:41.798554 13409 net.cpp:157] Top shape: 3 32 384 384 (14155776)
I0107 19:33:41.798557 13409 net.cpp:165] Memory required for data: 422851968
I0107 19:33:41.798563 13409 layer_factory.hpp:77] Creating layer relu2_1/dw
I0107 19:33:41.798568 13409 net.cpp:100] Creating Layer relu2_1/dw
I0107 19:33:41.798573 13409 net.cpp:434] relu2_1/dw <- conv2_1/dw
I0107 19:33:41.798578 13409 net.cpp:395] relu2_1/dw -> conv2_1/dw (in-place)
I0107 19:33:41.798735 13409 net.cpp:150] Setting up relu2_1/dw
I0107 19:33:41.798744 13409 net.cpp:157] Top shape: 3 32 384 384 (14155776)
I0107 19:33:41.798748 13409 net.cpp:165] Memory required for data: 479475072
I0107 19:33:41.798753 13409 layer_factory.hpp:77] Creating layer conv2_1/sep
I0107 19:33:41.798763 13409 net.cpp:100] Creating Layer conv2_1/sep
I0107 19:33:41.798766 13409 net.cpp:434] conv2_1/sep <- conv2_1/dw
I0107 19:33:41.798771 13409 net.cpp:408] conv2_1/sep -> conv2_1/sep
I0107 19:33:41.800011 13409 net.cpp:150] Setting up conv2_1/sep
I0107 19:33:41.800024 13409 net.cpp:157] Top shape: 3 64 384 384 (28311552)
I0107 19:33:41.800029 13409 net.cpp:165] Memory required for data: 592721280
I0107 19:33:41.800034 13409 layer_factory.hpp:77] Creating layer conv2_1/sep/bn
I0107 19:33:41.800041 13409 net.cpp:100] Creating Layer conv2_1/sep/bn
I0107 19:33:41.800045 13409 net.cpp:434] conv2_1/sep/bn <- conv2_1/sep
I0107 19:33:41.800050 13409 net.cpp:395] conv2_1/sep/bn -> conv2_1/sep (in-place)
I0107 19:33:41.801048 13409 net.cpp:150] Setting up conv2_1/sep/bn
I0107 19:33:41.801061 13409 net.cpp:157] Top shape: 3 64 384 384 (28311552)
I0107 19:33:41.801064 13409 net.cpp:165] Memory required for data: 705967488
I0107 19:33:41.801072 13409 layer_factory.hpp:77] Creating layer conv2_1/sep/scale
I0107 19:33:41.801081 13409 net.cpp:100] Creating Layer conv2_1/sep/scale
I0107 19:33:41.801085 13409 net.cpp:434] conv2_1/sep/scale <- conv2_1/sep
I0107 19:33:41.801091 13409 net.cpp:395] conv2_1/sep/scale -> conv2_1/sep (in-place)
I0107 19:33:41.801132 13409 layer_factory.hpp:77] Creating layer conv2_1/sep/scale
I0107 19:33:41.801362 13409 net.cpp:150] Setting up conv2_1/sep/scale
I0107 19:33:41.801369 13409 net.cpp:157] Top shape: 3 64 384 384 (28311552)
I0107 19:33:41.801373 13409 net.cpp:165] Memory required for data: 819213696
I0107 19:33:41.801383 13409 layer_factory.hpp:77] Creating layer relu2_1/sep
I0107 19:33:41.801389 13409 net.cpp:100] Creating Layer relu2_1/sep
I0107 19:33:41.801393 13409 net.cpp:434] relu2_1/sep <- conv2_1/sep
I0107 19:33:41.801398 13409 net.cpp:395] relu2_1/sep -> conv2_1/sep (in-place)
I0107 19:33:41.801561 13409 net.cpp:150] Setting up relu2_1/sep
I0107 19:33:41.801570 13409 net.cpp:157] Top shape: 3 64 384 384 (28311552)
I0107 19:33:41.801573 13409 net.cpp:165] Memory required for data: 932459904
I0107 19:33:41.801576 13409 layer_factory.hpp:77] Creating layer conv2_2/dw
I0107 19:33:41.801585 13409 net.cpp:100] Creating Layer conv2_2/dw
I0107 19:33:41.801589 13409 net.cpp:434] conv2_2/dw <- conv2_1/sep
I0107 19:33:41.801595 13409 net.cpp:408] conv2_2/dw -> conv2_2/dw
I0107 19:33:41.801831 13409 net.cpp:150] Setting up conv2_2/dw
I0107 19:33:41.801842 13409 net.cpp:157] Top shape: 3 64 192 192 (7077888)
I0107 19:33:41.801846 13409 net.cpp:165] Memory required for data: 960771456
I0107 19:33:41.801852 13409 layer_factory.hpp:77] Creating layer conv2_2/dw/bn
I0107 19:33:41.801859 13409 net.cpp:100] Creating Layer conv2_2/dw/bn
I0107 19:33:41.801863 13409 net.cpp:434] conv2_2/dw/bn <- conv2_2/dw
I0107 19:33:41.801869 13409 net.cpp:395] conv2_2/dw/bn -> conv2_2/dw (in-place)
I0107 19:33:41.802047 13409 net.cpp:150] Setting up conv2_2/dw/bn
I0107 19:33:41.802054 13409 net.cpp:157] Top shape: 3 64 192 192 (7077888)
I0107 19:33:41.802058 13409 net.cpp:165] Memory required for data: 989083008
I0107 19:33:41.802064 13409 layer_factory.hpp:77] Creating layer conv2_2/dw/scale
I0107 19:33:41.802072 13409 net.cpp:100] Creating Layer conv2_2/dw/scale
I0107 19:33:41.802075 13409 net.cpp:434] conv2_2/dw/scale <- conv2_2/dw
I0107 19:33:41.802080 13409 net.cpp:395] conv2_2/dw/scale -> conv2_2/dw (in-place)
I0107 19:33:41.802114 13409 layer_factory.hpp:77] Creating layer conv2_2/dw/scale
I0107 19:33:41.802242 13409 net.cpp:150] Setting up conv2_2/dw/scale
I0107 19:33:41.802249 13409 net.cpp:157] Top shape: 3 64 192 192 (7077888)
I0107 19:33:41.802253 13409 net.cpp:165] Memory required for data: 1017394560
I0107 19:33:41.802258 13409 layer_factory.hpp:77] Creating layer relu2_2/dw
I0107 19:33:41.802264 13409 net.cpp:100] Creating Layer relu2_2/dw
I0107 19:33:41.802268 13409 net.cpp:434] relu2_2/dw <- conv2_2/dw
I0107 19:33:41.802273 13409 net.cpp:395] relu2_2/dw -> conv2_2/dw (in-place)
I0107 19:33:41.802726 13409 net.cpp:150] Setting up relu2_2/dw
I0107 19:33:41.802738 13409 net.cpp:157] Top shape: 3 64 192 192 (7077888)
I0107 19:33:41.802742 13409 net.cpp:165] Memory required for data: 1045706112
I0107 19:33:41.802747 13409 layer_factory.hpp:77] Creating layer conv2_2/sep
I0107 19:33:41.802755 13409 net.cpp:100] Creating Layer conv2_2/sep
I0107 19:33:41.802758 13409 net.cpp:434] conv2_2/sep <- conv2_2/dw
I0107 19:33:41.802765 13409 net.cpp:408] conv2_2/sep -> conv2_2/sep
I0107 19:33:41.803870 13409 net.cpp:150] Setting up conv2_2/sep
I0107 19:33:41.803884 13409 net.cpp:157] Top shape: 3 128 192 192 (14155776)
I0107 19:33:41.803887 13409 net.cpp:165] Memory required for data: 1102329216
I0107 19:33:41.803894 13409 layer_factory.hpp:77] Creating layer conv2_2/sep/bn
I0107 19:33:41.803900 13409 net.cpp:100] Creating Layer conv2_2/sep/bn
I0107 19:33:41.803903 13409 net.cpp:434] conv2_2/sep/bn <- conv2_2/sep
I0107 19:33:41.803910 13409 net.cpp:395] conv2_2/sep/bn -> conv2_2/sep (in-place)
I0107 19:33:41.804087 13409 net.cpp:150] Setting up conv2_2/sep/bn
I0107 19:33:41.804095 13409 net.cpp:157] Top shape: 3 128 192 192 (14155776)
I0107 19:33:41.804098 13409 net.cpp:165] Memory required for data: 1158952320
I0107 19:33:41.804105 13409 layer_factory.hpp:77] Creating layer conv2_2/sep/scale
I0107 19:33:41.804111 13409 net.cpp:100] Creating Layer conv2_2/sep/scale
I0107 19:33:41.804114 13409 net.cpp:434] conv2_2/sep/scale <- conv2_2/sep
I0107 19:33:41.804121 13409 net.cpp:395] conv2_2/sep/scale -> conv2_2/sep (in-place)
I0107 19:33:41.804150 13409 layer_factory.hpp:77] Creating layer conv2_2/sep/scale
I0107 19:33:41.804275 13409 net.cpp:150] Setting up conv2_2/sep/scale
I0107 19:33:41.804281 13409 net.cpp:157] Top shape: 3 128 192 192 (14155776)
I0107 19:33:41.804284 13409 net.cpp:165] Memory required for data: 1215575424
I0107 19:33:41.804291 13409 layer_factory.hpp:77] Creating layer relu2_2/sep
I0107 19:33:41.804296 13409 net.cpp:100] Creating Layer relu2_2/sep
I0107 19:33:41.804299 13409 net.cpp:434] relu2_2/sep <- conv2_2/sep
I0107 19:33:41.804304 13409 net.cpp:395] relu2_2/sep -> conv2_2/sep (in-place)
I0107 19:33:41.804455 13409 net.cpp:150] Setting up relu2_2/sep
I0107 19:33:41.804463 13409 net.cpp:157] Top shape: 3 128 192 192 (14155776)
I0107 19:33:41.804467 13409 net.cpp:165] Memory required for data: 1272198528
I0107 19:33:41.804471 13409 layer_factory.hpp:77] Creating layer conv3_1/dw
I0107 19:33:41.804478 13409 net.cpp:100] Creating Layer conv3_1/dw
I0107 19:33:41.804482 13409 net.cpp:434] conv3_1/dw <- conv2_2/sep
I0107 19:33:41.804488 13409 net.cpp:408] conv3_1/dw -> conv3_1/dw
I0107 19:33:41.804677 13409 net.cpp:150] Setting up conv3_1/dw
I0107 19:33:41.804684 13409 net.cpp:157] Top shape: 3 128 192 192 (14155776)
I0107 19:33:41.804687 13409 net.cpp:165] Memory required for data: 1328821632
I0107 19:33:41.804692 13409 layer_factory.hpp:77] Creating layer conv3_1/dw/bn
I0107 19:33:41.804697 13409 net.cpp:100] Creating Layer conv3_1/dw/bn
I0107 19:33:41.804700 13409 net.cpp:434] conv3_1/dw/bn <- conv3_1/dw
I0107 19:33:41.804705 13409 net.cpp:395] conv3_1/dw/bn -> conv3_1/dw (in-place)
I0107 19:33:41.804875 13409 net.cpp:150] Setting up conv3_1/dw/bn
I0107 19:33:41.804883 13409 net.cpp:157] Top shape: 3 128 192 192 (14155776)
I0107 19:33:41.804886 13409 net.cpp:165] Memory required for data: 1385444736
I0107 19:33:41.804896 13409 layer_factory.hpp:77] Creating layer conv3_1/dw/scale
I0107 19:33:41.804903 13409 net.cpp:100] Creating Layer conv3_1/dw/scale
I0107 19:33:41.804908 13409 net.cpp:434] conv3_1/dw/scale <- conv3_1/dw
I0107 19:33:41.804913 13409 net.cpp:395] conv3_1/dw/scale -> conv3_1/dw (in-place)
I0107 19:33:41.804944 13409 layer_factory.hpp:77] Creating layer conv3_1/dw/scale
I0107 19:33:41.805899 13409 net.cpp:150] Setting up conv3_1/dw/scale
I0107 19:33:41.805917 13409 net.cpp:157] Top shape: 3 128 192 192 (14155776)
I0107 19:33:41.805919 13409 net.cpp:165] Memory required for data: 1442067840
I0107 19:33:41.805927 13409 layer_factory.hpp:77] Creating layer relu3_1/dw
I0107 19:33:41.805934 13409 net.cpp:100] Creating Layer relu3_1/dw
I0107 19:33:41.805938 13409 net.cpp:434] relu3_1/dw <- conv3_1/dw
I0107 19:33:41.805943 13409 net.cpp:395] relu3_1/dw -> conv3_1/dw (in-place)
I0107 19:33:41.806105 13409 net.cpp:150] Setting up relu3_1/dw
I0107 19:33:41.806113 13409 net.cpp:157] Top shape: 3 128 192 192 (14155776)
I0107 19:33:41.806116 13409 net.cpp:165] Memory required for data: 1498690944
I0107 19:33:41.806120 13409 layer_factory.hpp:77] Creating layer conv3_1/sep
I0107 19:33:41.806131 13409 net.cpp:100] Creating Layer conv3_1/sep
I0107 19:33:41.806135 13409 net.cpp:434] conv3_1/sep <- conv3_1/dw
I0107 19:33:41.806141 13409 net.cpp:408] conv3_1/sep -> conv3_1/sep
I0107 19:33:41.807461 13409 net.cpp:150] Setting up conv3_1/sep
I0107 19:33:41.807474 13409 net.cpp:157] Top shape: 3 128 192 192 (14155776)
I0107 19:33:41.807477 13409 net.cpp:165] Memory required for data: 1555314048
I0107 19:33:41.807483 13409 layer_factory.hpp:77] Creating layer conv3_1/sep/bn
I0107 19:33:41.807488 13409 net.cpp:100] Creating Layer conv3_1/sep/bn
I0107 19:33:41.807492 13409 net.cpp:434] conv3_1/sep/bn <- conv3_1/sep
I0107 19:33:41.807498 13409 net.cpp:395] conv3_1/sep/bn -> conv3_1/sep (in-place)
I0107 19:33:41.807678 13409 net.cpp:150] Setting up conv3_1/sep/bn
I0107 19:33:41.807685 13409 net.cpp:157] Top shape: 3 128 192 192 (14155776)
I0107 19:33:41.807689 13409 net.cpp:165] Memory required for data: 1611937152
I0107 19:33:41.807695 13409 layer_factory.hpp:77] Creating layer conv3_1/sep/scale
I0107 19:33:41.807701 13409 net.cpp:100] Creating Layer conv3_1/sep/scale
I0107 19:33:41.807705 13409 net.cpp:434] conv3_1/sep/scale <- conv3_1/sep
I0107 19:33:41.807711 13409 net.cpp:395] conv3_1/sep/scale -> conv3_1/sep (in-place)
I0107 19:33:41.807744 13409 layer_factory.hpp:77] Creating layer conv3_1/sep/scale
I0107 19:33:41.807866 13409 net.cpp:150] Setting up conv3_1/sep/scale
I0107 19:33:41.807873 13409 net.cpp:157] Top shape: 3 128 192 192 (14155776)
I0107 19:33:41.807878 13409 net.cpp:165] Memory required for data: 1668560256
I0107 19:33:41.807883 13409 layer_factory.hpp:77] Creating layer relu3_1/sep
I0107 19:33:41.807888 13409 net.cpp:100] Creating Layer relu3_1/sep
I0107 19:33:41.807891 13409 net.cpp:434] relu3_1/sep <- conv3_1/sep
I0107 19:33:41.807896 13409 net.cpp:395] relu3_1/sep -> conv3_1/sep (in-place)
I0107 19:33:41.808046 13409 net.cpp:150] Setting up relu3_1/sep
I0107 19:33:41.808055 13409 net.cpp:157] Top shape: 3 128 192 192 (14155776)
I0107 19:33:41.808058 13409 net.cpp:165] Memory required for data: 1725183360
I0107 19:33:41.808063 13409 layer_factory.hpp:77] Creating layer conv3_2/dw
I0107 19:33:41.808070 13409 net.cpp:100] Creating Layer conv3_2/dw
I0107 19:33:41.808074 13409 net.cpp:434] conv3_2/dw <- conv3_1/sep
I0107 19:33:41.808080 13409 net.cpp:408] conv3_2/dw -> conv3_2/dw
I0107 19:33:41.808266 13409 net.cpp:150] Setting up conv3_2/dw
I0107 19:33:41.808274 13409 net.cpp:157] Top shape: 3 128 96 96 (3538944)
I0107 19:33:41.808277 13409 net.cpp:165] Memory required for data: 1739339136
I0107 19:33:41.808282 13409 layer_factory.hpp:77] Creating layer conv3_2/dw/bn
I0107 19:33:41.808287 13409 net.cpp:100] Creating Layer conv3_2/dw/bn
I0107 19:33:41.808290 13409 net.cpp:434] conv3_2/dw/bn <- conv3_2/dw
I0107 19:33:41.808295 13409 net.cpp:395] conv3_2/dw/bn -> conv3_2/dw (in-place)
I0107 19:33:41.808450 13409 net.cpp:150] Setting up conv3_2/dw/bn
I0107 19:33:41.808457 13409 net.cpp:157] Top shape: 3 128 96 96 (3538944)
I0107 19:33:41.808460 13409 net.cpp:165] Memory required for data: 1753494912
I0107 19:33:41.808467 13409 layer_factory.hpp:77] Creating layer conv3_2/dw/scale
I0107 19:33:41.808473 13409 net.cpp:100] Creating Layer conv3_2/dw/scale
I0107 19:33:41.808476 13409 net.cpp:434] conv3_2/dw/scale <- conv3_2/dw
I0107 19:33:41.808480 13409 net.cpp:395] conv3_2/dw/scale -> conv3_2/dw (in-place)
I0107 19:33:41.808512 13409 layer_factory.hpp:77] Creating layer conv3_2/dw/scale
I0107 19:33:41.808607 13409 net.cpp:150] Setting up conv3_2/dw/scale
I0107 19:33:41.808614 13409 net.cpp:157] Top shape: 3 128 96 96 (3538944)
I0107 19:33:41.808619 13409 net.cpp:165] Memory required for data: 1767650688
I0107 19:33:41.808624 13409 layer_factory.hpp:77] Creating layer relu3_2/dw
I0107 19:33:41.808629 13409 net.cpp:100] Creating Layer relu3_2/dw
I0107 19:33:41.808632 13409 net.cpp:434] relu3_2/dw <- conv3_2/dw
I0107 19:33:41.808637 13409 net.cpp:395] relu3_2/dw -> conv3_2/dw (in-place)
I0107 19:33:41.808782 13409 net.cpp:150] Setting up relu3_2/dw
I0107 19:33:41.808791 13409 net.cpp:157] Top shape: 3 128 96 96 (3538944)
I0107 19:33:41.808795 13409 net.cpp:165] Memory required for data: 1781806464
I0107 19:33:41.808799 13409 layer_factory.hpp:77] Creating layer conv3_2/sep
I0107 19:33:41.808807 13409 net.cpp:100] Creating Layer conv3_2/sep
I0107 19:33:41.808810 13409 net.cpp:434] conv3_2/sep <- conv3_2/dw
I0107 19:33:41.808815 13409 net.cpp:408] conv3_2/sep -> conv3_2/sep
I0107 19:33:41.810860 13409 net.cpp:150] Setting up conv3_2/sep
I0107 19:33:41.810881 13409 net.cpp:157] Top shape: 3 256 96 96 (7077888)
I0107 19:33:41.810887 13409 net.cpp:165] Memory required for data: 1810118016
I0107 19:33:41.810896 13409 layer_factory.hpp:77] Creating layer conv3_2/sep/bn
I0107 19:33:41.810909 13409 net.cpp:100] Creating Layer conv3_2/sep/bn
I0107 19:33:41.810917 13409 net.cpp:434] conv3_2/sep/bn <- conv3_2/sep
I0107 19:33:41.810925 13409 net.cpp:395] conv3_2/sep/bn -> conv3_2/sep (in-place)
I0107 19:33:41.811180 13409 net.cpp:150] Setting up conv3_2/sep/bn
I0107 19:33:41.811192 13409 net.cpp:157] Top shape: 3 256 96 96 (7077888)
I0107 19:33:41.811195 13409 net.cpp:165] Memory required for data: 1838429568
I0107 19:33:41.811203 13409 layer_factory.hpp:77] Creating layer conv3_2/sep/scale
I0107 19:33:41.811213 13409 net.cpp:100] Creating Layer conv3_2/sep/scale
I0107 19:33:41.811216 13409 net.cpp:434] conv3_2/sep/scale <- conv3_2/sep
I0107 19:33:41.811221 13409 net.cpp:395] conv3_2/sep/scale -> conv3_2/sep (in-place)
I0107 19:33:41.811256 13409 layer_factory.hpp:77] Creating layer conv3_2/sep/scale
I0107 19:33:41.811357 13409 net.cpp:150] Setting up conv3_2/sep/scale
I0107 19:33:41.811363 13409 net.cpp:157] Top shape: 3 256 96 96 (7077888)
I0107 19:33:41.811367 13409 net.cpp:165] Memory required for data: 1866741120
I0107 19:33:41.811372 13409 layer_factory.hpp:77] Creating layer relu3_2/sep
I0107 19:33:41.811379 13409 net.cpp:100] Creating Layer relu3_2/sep
I0107 19:33:41.811383 13409 net.cpp:434] relu3_2/sep <- conv3_2/sep
I0107 19:33:41.811388 13409 net.cpp:395] relu3_2/sep -> conv3_2/sep (in-place)
I0107 19:33:41.811970 13409 net.cpp:150] Setting up relu3_2/sep
I0107 19:33:41.811983 13409 net.cpp:157] Top shape: 3 256 96 96 (7077888)
I0107 19:33:41.811986 13409 net.cpp:165] Memory required for data: 1895052672
I0107 19:33:41.811990 13409 layer_factory.hpp:77] Creating layer conv4_1/dw
I0107 19:33:41.812003 13409 net.cpp:100] Creating Layer conv4_1/dw
I0107 19:33:41.812007 13409 net.cpp:434] conv4_1/dw <- conv3_2/sep
I0107 19:33:41.812014 13409 net.cpp:408] conv4_1/dw -> conv4_1/dw
I0107 19:33:41.812258 13409 net.cpp:150] Setting up conv4_1/dw
I0107 19:33:41.812266 13409 net.cpp:157] Top shape: 3 256 96 96 (7077888)
I0107 19:33:41.812269 13409 net.cpp:165] Memory required for data: 1923364224
I0107 19:33:41.812274 13409 layer_factory.hpp:77] Creating layer conv4_1/dw/bn
I0107 19:33:41.812280 13409 net.cpp:100] Creating Layer conv4_1/dw/bn
I0107 19:33:41.812284 13409 net.cpp:434] conv4_1/dw/bn <- conv4_1/dw
I0107 19:33:41.812289 13409 net.cpp:395] conv4_1/dw/bn -> conv4_1/dw (in-place)
I0107 19:33:41.812454 13409 net.cpp:150] Setting up conv4_1/dw/bn
I0107 19:33:41.812463 13409 net.cpp:157] Top shape: 3 256 96 96 (7077888)
I0107 19:33:41.812465 13409 net.cpp:165] Memory required for data: 1951675776
I0107 19:33:41.812471 13409 layer_factory.hpp:77] Creating layer conv4_1/dw/scale
I0107 19:33:41.812480 13409 net.cpp:100] Creating Layer conv4_1/dw/scale
I0107 19:33:41.812484 13409 net.cpp:434] conv4_1/dw/scale <- conv4_1/dw
I0107 19:33:41.812489 13409 net.cpp:395] conv4_1/dw/scale -> conv4_1/dw (in-place)
I0107 19:33:41.812522 13409 layer_factory.hpp:77] Creating layer conv4_1/dw/scale
I0107 19:33:41.812625 13409 net.cpp:150] Setting up conv4_1/dw/scale
I0107 19:33:41.812633 13409 net.cpp:157] Top shape: 3 256 96 96 (7077888)
I0107 19:33:41.812635 13409 net.cpp:165] Memory required for data: 1979987328
I0107 19:33:41.812640 13409 layer_factory.hpp:77] Creating layer relu4_1/dw
I0107 19:33:41.812647 13409 net.cpp:100] Creating Layer relu4_1/dw
I0107 19:33:41.812650 13409 net.cpp:434] relu4_1/dw <- conv4_1/dw
I0107 19:33:41.812656 13409 net.cpp:395] relu4_1/dw -> conv4_1/dw (in-place)
I0107 19:33:41.812816 13409 net.cpp:150] Setting up relu4_1/dw
I0107 19:33:41.812824 13409 net.cpp:157] Top shape: 3 256 96 96 (7077888)
I0107 19:33:41.812829 13409 net.cpp:165] Memory required for data: 2008298880
I0107 19:33:41.812831 13409 layer_factory.hpp:77] Creating layer conv4_1/sep
I0107 19:33:41.812841 13409 net.cpp:100] Creating Layer conv4_1/sep
I0107 19:33:41.812844 13409 net.cpp:434] conv4_1/sep <- conv4_1/dw
I0107 19:33:41.812851 13409 net.cpp:408] conv4_1/sep -> conv4_1/sep
I0107 19:33:41.817198 13409 net.cpp:150] Setting up conv4_1/sep
I0107 19:33:41.817239 13409 net.cpp:157] Top shape: 3 256 96 96 (7077888)
I0107 19:33:41.817245 13409 net.cpp:165] Memory required for data: 2036610432
I0107 19:33:41.817255 13409 layer_factory.hpp:77] Creating layer conv4_1/sep/bn
I0107 19:33:41.817270 13409 net.cpp:100] Creating Layer conv4_1/sep/bn
I0107 19:33:41.817278 13409 net.cpp:434] conv4_1/sep/bn <- conv4_1/sep
I0107 19:33:41.817292 13409 net.cpp:395] conv4_1/sep/bn -> conv4_1/sep (in-place)
I0107 19:33:41.817468 13409 net.cpp:150] Setting up conv4_1/sep/bn
I0107 19:33:41.817477 13409 net.cpp:157] Top shape: 3 256 96 96 (7077888)
I0107 19:33:41.817481 13409 net.cpp:165] Memory required for data: 2064921984
I0107 19:33:41.817488 13409 layer_factory.hpp:77] Creating layer conv4_1/sep/scale
I0107 19:33:41.817497 13409 net.cpp:100] Creating Layer conv4_1/sep/scale
I0107 19:33:41.817500 13409 net.cpp:434] conv4_1/sep/scale <- conv4_1/sep
I0107 19:33:41.817507 13409 net.cpp:395] conv4_1/sep/scale -> conv4_1/sep (in-place)
I0107 19:33:41.817540 13409 layer_factory.hpp:77] Creating layer conv4_1/sep/scale
I0107 19:33:41.817636 13409 net.cpp:150] Setting up conv4_1/sep/scale
I0107 19:33:41.817642 13409 net.cpp:157] Top shape: 3 256 96 96 (7077888)
I0107 19:33:41.817646 13409 net.cpp:165] Memory required for data: 2093233536
I0107 19:33:41.817662 13409 layer_factory.hpp:77] Creating layer relu4_1/sep
I0107 19:33:41.817670 13409 net.cpp:100] Creating Layer relu4_1/sep
I0107 19:33:41.817674 13409 net.cpp:434] relu4_1/sep <- conv4_1/sep
I0107 19:33:41.817679 13409 net.cpp:395] relu4_1/sep -> conv4_1/sep (in-place)
I0107 19:33:41.817858 13409 net.cpp:150] Setting up relu4_1/sep
I0107 19:33:41.817869 13409 net.cpp:157] Top shape: 3 256 96 96 (7077888)
I0107 19:33:41.817873 13409 net.cpp:165] Memory required for data: 2121545088
I0107 19:33:41.817875 13409 layer_factory.hpp:77] Creating layer conv4_1/sep_relu4_1/sep_0_split
I0107 19:33:41.817881 13409 net.cpp:100] Creating Layer conv4_1/sep_relu4_1/sep_0_split
I0107 19:33:41.817885 13409 net.cpp:434] conv4_1/sep_relu4_1/sep_0_split <- conv4_1/sep
I0107 19:33:41.817890 13409 net.cpp:408] conv4_1/sep_relu4_1/sep_0_split -> conv4_1/sep_relu4_1/sep_0_split_0
I0107 19:33:41.817898 13409 net.cpp:408] conv4_1/sep_relu4_1/sep_0_split -> conv4_1/sep_relu4_1/sep_0_split_1
I0107 19:33:41.817930 13409 net.cpp:150] Setting up conv4_1/sep_relu4_1/sep_0_split
I0107 19:33:41.817936 13409 net.cpp:157] Top shape: 3 256 96 96 (7077888)
I0107 19:33:41.817940 13409 net.cpp:157] Top shape: 3 256 96 96 (7077888)
I0107 19:33:41.817943 13409 net.cpp:165] Memory required for data: 2178168192
I0107 19:33:41.817947 13409 layer_factory.hpp:77] Creating layer loss1_conv1
I0107 19:33:41.817957 13409 net.cpp:100] Creating Layer loss1_conv1
I0107 19:33:41.817961 13409 net.cpp:434] loss1_conv1 <- conv4_1/sep_relu4_1/sep_0_split_0
I0107 19:33:41.817967 13409 net.cpp:408] loss1_conv1 -> loss1_conv1
I0107 19:33:41.851405 13409 net.cpp:150] Setting up loss1_conv1
I0107 19:33:41.851435 13409 net.cpp:157] Top shape: 3 512 96 96 (14155776)
I0107 19:33:41.851439 13409 net.cpp:165] Memory required for data: 2234791296
I0107 19:33:41.851450 13409 layer_factory.hpp:77] Creating layer loss_relu1
I0107 19:33:41.851462 13409 net.cpp:100] Creating Layer loss_relu1
I0107 19:33:41.851469 13409 net.cpp:434] loss_relu1 <- loss1_conv1
I0107 19:33:41.851475 13409 net.cpp:395] loss_relu1 -> loss1_conv1 (in-place)
I0107 19:33:41.851637 13409 net.cpp:150] Setting up loss_relu1
I0107 19:33:41.851646 13409 net.cpp:157] Top shape: 3 512 96 96 (14155776)
I0107 19:33:41.851649 13409 net.cpp:165] Memory required for data: 2291414400
I0107 19:33:41.851653 13409 layer_factory.hpp:77] Creating layer loss1_conv1_loss_relu1_0_split
I0107 19:33:41.851660 13409 net.cpp:100] Creating Layer loss1_conv1_loss_relu1_0_split
I0107 19:33:41.851665 13409 net.cpp:434] loss1_conv1_loss_relu1_0_split <- loss1_conv1
I0107 19:33:41.851670 13409 net.cpp:408] loss1_conv1_loss_relu1_0_split -> loss1_conv1_loss_relu1_0_split_0
I0107 19:33:41.851676 13409 net.cpp:408] loss1_conv1_loss_relu1_0_split -> loss1_conv1_loss_relu1_0_split_1
I0107 19:33:41.851709 13409 net.cpp:150] Setting up loss1_conv1_loss_relu1_0_split
I0107 19:33:41.851716 13409 net.cpp:157] Top shape: 3 512 96 96 (14155776)
I0107 19:33:41.851721 13409 net.cpp:157] Top shape: 3 512 96 96 (14155776)
I0107 19:33:41.851723 13409 net.cpp:165] Memory required for data: 2404660608
I0107 19:33:41.851727 13409 layer_factory.hpp:77] Creating layer LFCN_1_5x5
I0107 19:33:41.851737 13409 net.cpp:100] Creating Layer LFCN_1_5x5
I0107 19:33:41.851740 13409 net.cpp:434] LFCN_1_5x5 <- loss1_conv1_loss_relu1_0_split_0
I0107 19:33:41.851747 13409 net.cpp:408] LFCN_1_5x5 -> LFCN_1_5x5
I0107 19:33:41.857152 13409 net.cpp:150] Setting up LFCN_1_5x5
I0107 19:33:41.857182 13409 net.cpp:157] Top shape: 3 9 96 96 (248832)
I0107 19:33:41.857185 13409 net.cpp:165] Memory required for data: 2405655936
I0107 19:33:41.857194 13409 layer_factory.hpp:77] Creating layer LFCN_1_5x5_LFCN_1_5x5_0_split
I0107 19:33:41.857209 13409 net.cpp:100] Creating Layer LFCN_1_5x5_LFCN_1_5x5_0_split
I0107 19:33:41.857214 13409 net.cpp:434] LFCN_1_5x5_LFCN_1_5x5_0_split <- LFCN_1_5x5
I0107 19:33:41.857221 13409 net.cpp:408] LFCN_1_5x5_LFCN_1_5x5_0_split -> LFCN_1_5x5_LFCN_1_5x5_0_split_0
I0107 19:33:41.857229 13409 net.cpp:408] LFCN_1_5x5_LFCN_1_5x5_0_split -> LFCN_1_5x5_LFCN_1_5x5_0_split_1
I0107 19:33:41.857264 13409 net.cpp:150] Setting up LFCN_1_5x5_LFCN_1_5x5_0_split
I0107 19:33:41.857275 13409 net.cpp:157] Top shape: 3 9 96 96 (248832)
I0107 19:33:41.857278 13409 net.cpp:157] Top shape: 3 9 96 96 (248832)
I0107 19:33:41.857281 13409 net.cpp:165] Memory required for data: 2407646592
I0107 19:33:41.857285 13409 layer_factory.hpp:77] Creating layer detection_loss_1_5x5
I0107 19:33:41.857293 13409 net.cpp:100] Creating Layer detection_loss_1_5x5
I0107 19:33:41.857297 13409 net.cpp:434] detection_loss_1_5x5 <- LFCN_1_5x5_LFCN_1_5x5_0_split_0
I0107 19:33:41.857302 13409 net.cpp:434] detection_loss_1_5x5 <- label_1_5x5_data_1_split_0
I0107 19:33:41.857309 13409 net.cpp:408] detection_loss_1_5x5 -> loss_1_5x5
I0107 19:33:41.857322 13409 layer_factory.hpp:77] Creating layer detection_loss_1_5x5
I0107 19:33:41.857709 13409 net.cpp:150] Setting up detection_loss_1_5x5
I0107 19:33:41.857719 13409 net.cpp:157] Top shape: 1 1 1 2 (2)
I0107 19:33:41.857723 13409 net.cpp:160]     with loss weight 0.9
I0107 19:33:41.857769 13409 net.cpp:165] Memory required for data: 2407646600
I0107 19:33:41.857774 13409 layer_factory.hpp:77] Creating layer detection_accuracy_1_5x5
I0107 19:33:41.857781 13409 net.cpp:100] Creating Layer detection_accuracy_1_5x5
I0107 19:33:41.857785 13409 net.cpp:434] detection_accuracy_1_5x5 <- LFCN_1_5x5_LFCN_1_5x5_0_split_1
I0107 19:33:41.857789 13409 net.cpp:434] detection_accuracy_1_5x5 <- label_1_5x5_data_1_split_1
I0107 19:33:41.857795 13409 net.cpp:408] detection_accuracy_1_5x5 -> accuracy_1_5x5
I0107 19:33:41.857803 13409 net.cpp:408] detection_accuracy_1_5x5 -> boxiou_1_5x5
I0107 19:33:41.857838 13409 net.cpp:150] Setting up detection_accuracy_1_5x5
I0107 19:33:41.857844 13409 net.cpp:157] Top shape: 1 1 1 2 (2)
I0107 19:33:41.857848 13409 net.cpp:157] Top shape: 1 1 1 1 (1)
I0107 19:33:41.857851 13409 net.cpp:165] Memory required for data: 2407646612
I0107 19:33:41.857854 13409 layer_factory.hpp:77] Creating layer LFCN_1_7x7
I0107 19:33:41.857864 13409 net.cpp:100] Creating Layer LFCN_1_7x7
I0107 19:33:41.857868 13409 net.cpp:434] LFCN_1_7x7 <- loss1_conv1_loss_relu1_0_split_1
I0107 19:33:41.857874 13409 net.cpp:408] LFCN_1_7x7 -> LFCN_1_7x7
I0107 19:33:41.865401 13409 net.cpp:150] Setting up LFCN_1_7x7
I0107 19:33:41.865424 13409 net.cpp:157] Top shape: 3 9 96 96 (248832)
I0107 19:33:41.865429 13409 net.cpp:165] Memory required for data: 2408641940
I0107 19:33:41.865438 13409 layer_factory.hpp:77] Creating layer LFCN_1_7x7_LFCN_1_7x7_0_split
I0107 19:33:41.865449 13409 net.cpp:100] Creating Layer LFCN_1_7x7_LFCN_1_7x7_0_split
I0107 19:33:41.865455 13409 net.cpp:434] LFCN_1_7x7_LFCN_1_7x7_0_split <- LFCN_1_7x7
I0107 19:33:41.865463 13409 net.cpp:408] LFCN_1_7x7_LFCN_1_7x7_0_split -> LFCN_1_7x7_LFCN_1_7x7_0_split_0
I0107 19:33:41.865470 13409 net.cpp:408] LFCN_1_7x7_LFCN_1_7x7_0_split -> LFCN_1_7x7_LFCN_1_7x7_0_split_1
I0107 19:33:41.865509 13409 net.cpp:150] Setting up LFCN_1_7x7_LFCN_1_7x7_0_split
I0107 19:33:41.865519 13409 net.cpp:157] Top shape: 3 9 96 96 (248832)
I0107 19:33:41.865525 13409 net.cpp:157] Top shape: 3 9 96 96 (248832)
I0107 19:33:41.865530 13409 net.cpp:165] Memory required for data: 2410632596
I0107 19:33:41.865533 13409 layer_factory.hpp:77] Creating layer detection_loss_1_7x7
I0107 19:33:41.865545 13409 net.cpp:100] Creating Layer detection_loss_1_7x7
I0107 19:33:41.865551 13409 net.cpp:434] detection_loss_1_7x7 <- LFCN_1_7x7_LFCN_1_7x7_0_split_0
I0107 19:33:41.865558 13409 net.cpp:434] detection_loss_1_7x7 <- label_1_7x7_data_2_split_0
I0107 19:33:41.865566 13409 net.cpp:408] detection_loss_1_7x7 -> loss_1_7x7
I0107 19:33:41.865577 13409 layer_factory.hpp:77] Creating layer detection_loss_1_7x7
I0107 19:33:41.867249 13409 net.cpp:150] Setting up detection_loss_1_7x7
I0107 19:33:41.867264 13409 net.cpp:157] Top shape: 1 1 1 2 (2)
I0107 19:33:41.867267 13409 net.cpp:160]     with loss weight 0.9
I0107 19:33:41.867278 13409 net.cpp:165] Memory required for data: 2410632604
I0107 19:33:41.867282 13409 layer_factory.hpp:77] Creating layer detection_accuracy_1_7x7
I0107 19:33:41.867290 13409 net.cpp:100] Creating Layer detection_accuracy_1_7x7
I0107 19:33:41.867295 13409 net.cpp:434] detection_accuracy_1_7x7 <- LFCN_1_7x7_LFCN_1_7x7_0_split_1
I0107 19:33:41.867300 13409 net.cpp:434] detection_accuracy_1_7x7 <- label_1_7x7_data_2_split_1
I0107 19:33:41.867305 13409 net.cpp:408] detection_accuracy_1_7x7 -> accuracy_1_7x7
I0107 19:33:41.867312 13409 net.cpp:408] detection_accuracy_1_7x7 -> boxiou_1_7x7
I0107 19:33:41.867349 13409 net.cpp:150] Setting up detection_accuracy_1_7x7
I0107 19:33:41.867355 13409 net.cpp:157] Top shape: 1 1 1 2 (2)
I0107 19:33:41.867359 13409 net.cpp:157] Top shape: 1 1 1 1 (1)
I0107 19:33:41.867362 13409 net.cpp:165] Memory required for data: 2410632616
I0107 19:33:41.867367 13409 layer_factory.hpp:77] Creating layer conv4_2/dw
I0107 19:33:41.867383 13409 net.cpp:100] Creating Layer conv4_2/dw
I0107 19:33:41.867388 13409 net.cpp:434] conv4_2/dw <- conv4_1/sep_relu4_1/sep_0_split_1
I0107 19:33:41.867394 13409 net.cpp:408] conv4_2/dw -> conv4_2/dw
I0107 19:33:41.867624 13409 net.cpp:150] Setting up conv4_2/dw
I0107 19:33:41.867631 13409 net.cpp:157] Top shape: 3 256 48 48 (1769472)
I0107 19:33:41.867635 13409 net.cpp:165] Memory required for data: 2417710504
I0107 19:33:41.867640 13409 layer_factory.hpp:77] Creating layer conv4_2/dw/bn
I0107 19:33:41.867646 13409 net.cpp:100] Creating Layer conv4_2/dw/bn
I0107 19:33:41.867651 13409 net.cpp:434] conv4_2/dw/bn <- conv4_2/dw
I0107 19:33:41.867655 13409 net.cpp:395] conv4_2/dw/bn -> conv4_2/dw (in-place)
I0107 19:33:41.867811 13409 net.cpp:150] Setting up conv4_2/dw/bn
I0107 19:33:41.867818 13409 net.cpp:157] Top shape: 3 256 48 48 (1769472)
I0107 19:33:41.867822 13409 net.cpp:165] Memory required for data: 2424788392
I0107 19:33:41.867828 13409 layer_factory.hpp:77] Creating layer conv4_2/dw/scale
I0107 19:33:41.867838 13409 net.cpp:100] Creating Layer conv4_2/dw/scale
I0107 19:33:41.867842 13409 net.cpp:434] conv4_2/dw/scale <- conv4_2/dw
I0107 19:33:41.867847 13409 net.cpp:395] conv4_2/dw/scale -> conv4_2/dw (in-place)
I0107 19:33:41.867880 13409 layer_factory.hpp:77] Creating layer conv4_2/dw/scale
I0107 19:33:41.867969 13409 net.cpp:150] Setting up conv4_2/dw/scale
I0107 19:33:41.867976 13409 net.cpp:157] Top shape: 3 256 48 48 (1769472)
I0107 19:33:41.867980 13409 net.cpp:165] Memory required for data: 2431866280
I0107 19:33:41.867985 13409 layer_factory.hpp:77] Creating layer relu4_2/dw
I0107 19:33:41.867990 13409 net.cpp:100] Creating Layer relu4_2/dw
I0107 19:33:41.867993 13409 net.cpp:434] relu4_2/dw <- conv4_2/dw
I0107 19:33:41.867998 13409 net.cpp:395] relu4_2/dw -> conv4_2/dw (in-place)
I0107 19:33:41.868165 13409 net.cpp:150] Setting up relu4_2/dw
I0107 19:33:41.868173 13409 net.cpp:157] Top shape: 3 256 48 48 (1769472)
I0107 19:33:41.868176 13409 net.cpp:165] Memory required for data: 2438944168
I0107 19:33:41.868180 13409 layer_factory.hpp:77] Creating layer conv4_2/sep
I0107 19:33:41.868189 13409 net.cpp:100] Creating Layer conv4_2/sep
I0107 19:33:41.868193 13409 net.cpp:434] conv4_2/sep <- conv4_2/dw
I0107 19:33:41.868198 13409 net.cpp:408] conv4_2/sep -> conv4_2/sep
I0107 19:33:41.872550 13409 net.cpp:150] Setting up conv4_2/sep
I0107 19:33:41.872565 13409 net.cpp:157] Top shape: 3 512 48 48 (3538944)
I0107 19:33:41.872568 13409 net.cpp:165] Memory required for data: 2453099944
I0107 19:33:41.872573 13409 layer_factory.hpp:77] Creating layer conv4_2/sep/bn
I0107 19:33:41.872581 13409 net.cpp:100] Creating Layer conv4_2/sep/bn
I0107 19:33:41.872586 13409 net.cpp:434] conv4_2/sep/bn <- conv4_2/sep
I0107 19:33:41.872591 13409 net.cpp:395] conv4_2/sep/bn -> conv4_2/sep (in-place)
I0107 19:33:41.872763 13409 net.cpp:150] Setting up conv4_2/sep/bn
I0107 19:33:41.872772 13409 net.cpp:157] Top shape: 3 512 48 48 (3538944)
I0107 19:33:41.872776 13409 net.cpp:165] Memory required for data: 2467255720
I0107 19:33:41.872787 13409 layer_factory.hpp:77] Creating layer conv4_2/sep/scale
I0107 19:33:41.872794 13409 net.cpp:100] Creating Layer conv4_2/sep/scale
I0107 19:33:41.872799 13409 net.cpp:434] conv4_2/sep/scale <- conv4_2/sep
I0107 19:33:41.872805 13409 net.cpp:395] conv4_2/sep/scale -> conv4_2/sep (in-place)
I0107 19:33:41.872838 13409 layer_factory.hpp:77] Creating layer conv4_2/sep/scale
I0107 19:33:41.872929 13409 net.cpp:150] Setting up conv4_2/sep/scale
I0107 19:33:41.872937 13409 net.cpp:157] Top shape: 3 512 48 48 (3538944)
I0107 19:33:41.872941 13409 net.cpp:165] Memory required for data: 2481411496
I0107 19:33:41.872946 13409 layer_factory.hpp:77] Creating layer relu4_2/sep
I0107 19:33:41.872951 13409 net.cpp:100] Creating Layer relu4_2/sep
I0107 19:33:41.872954 13409 net.cpp:434] relu4_2/sep <- conv4_2/sep
I0107 19:33:41.872958 13409 net.cpp:395] relu4_2/sep -> conv4_2/sep (in-place)
I0107 19:33:41.873116 13409 net.cpp:150] Setting up relu4_2/sep
I0107 19:33:41.873124 13409 net.cpp:157] Top shape: 3 512 48 48 (3538944)
I0107 19:33:41.873127 13409 net.cpp:165] Memory required for data: 2495567272
I0107 19:33:41.873131 13409 layer_factory.hpp:77] Creating layer conv5_1/dw
I0107 19:33:41.873139 13409 net.cpp:100] Creating Layer conv5_1/dw
I0107 19:33:41.873143 13409 net.cpp:434] conv5_1/dw <- conv4_2/sep
I0107 19:33:41.873148 13409 net.cpp:408] conv5_1/dw -> conv5_1/dw
I0107 19:33:41.873467 13409 net.cpp:150] Setting up conv5_1/dw
I0107 19:33:41.873478 13409 net.cpp:157] Top shape: 3 512 48 48 (3538944)
I0107 19:33:41.873482 13409 net.cpp:165] Memory required for data: 2509723048
I0107 19:33:41.873488 13409 layer_factory.hpp:77] Creating layer conv5_1/dw/bn
I0107 19:33:41.873497 13409 net.cpp:100] Creating Layer conv5_1/dw/bn
I0107 19:33:41.873502 13409 net.cpp:434] conv5_1/dw/bn <- conv5_1/dw
I0107 19:33:41.873510 13409 net.cpp:395] conv5_1/dw/bn -> conv5_1/dw (in-place)
I0107 19:33:41.873751 13409 net.cpp:150] Setting up conv5_1/dw/bn
I0107 19:33:41.873762 13409 net.cpp:157] Top shape: 3 512 48 48 (3538944)
I0107 19:33:41.873767 13409 net.cpp:165] Memory required for data: 2523878824
I0107 19:33:41.873776 13409 layer_factory.hpp:77] Creating layer conv5_1/dw/scale
I0107 19:33:41.873785 13409 net.cpp:100] Creating Layer conv5_1/dw/scale
I0107 19:33:41.873790 13409 net.cpp:434] conv5_1/dw/scale <- conv5_1/dw
I0107 19:33:41.873798 13409 net.cpp:395] conv5_1/dw/scale -> conv5_1/dw (in-place)
I0107 19:33:41.873839 13409 layer_factory.hpp:77] Creating layer conv5_1/dw/scale
I0107 19:33:41.873966 13409 net.cpp:150] Setting up conv5_1/dw/scale
I0107 19:33:41.873976 13409 net.cpp:157] Top shape: 3 512 48 48 (3538944)
I0107 19:33:41.873981 13409 net.cpp:165] Memory required for data: 2538034600
I0107 19:33:41.873989 13409 layer_factory.hpp:77] Creating layer relu5_1/dw
I0107 19:33:41.873998 13409 net.cpp:100] Creating Layer relu5_1/dw
I0107 19:33:41.874003 13409 net.cpp:434] relu5_1/dw <- conv5_1/dw
I0107 19:33:41.874009 13409 net.cpp:395] relu5_1/dw -> conv5_1/dw (in-place)
I0107 19:33:41.874208 13409 net.cpp:150] Setting up relu5_1/dw
I0107 19:33:41.874218 13409 net.cpp:157] Top shape: 3 512 48 48 (3538944)
I0107 19:33:41.874222 13409 net.cpp:165] Memory required for data: 2552190376
I0107 19:33:41.874224 13409 layer_factory.hpp:77] Creating layer conv5_1/sep
I0107 19:33:41.874233 13409 net.cpp:100] Creating Layer conv5_1/sep
I0107 19:33:41.874238 13409 net.cpp:434] conv5_1/sep <- conv5_1/dw
I0107 19:33:41.874244 13409 net.cpp:408] conv5_1/sep -> conv5_1/sep
I0107 19:33:41.883077 13409 net.cpp:150] Setting up conv5_1/sep
I0107 19:33:41.883105 13409 net.cpp:157] Top shape: 3 512 48 48 (3538944)
I0107 19:33:41.883110 13409 net.cpp:165] Memory required for data: 2566346152
I0107 19:33:41.883118 13409 layer_factory.hpp:77] Creating layer conv5_1/sep/bn
I0107 19:33:41.883133 13409 net.cpp:100] Creating Layer conv5_1/sep/bn
I0107 19:33:41.883139 13409 net.cpp:434] conv5_1/sep/bn <- conv5_1/sep
I0107 19:33:41.883147 13409 net.cpp:395] conv5_1/sep/bn -> conv5_1/sep (in-place)
I0107 19:33:41.883325 13409 net.cpp:150] Setting up conv5_1/sep/bn
I0107 19:33:41.883332 13409 net.cpp:157] Top shape: 3 512 48 48 (3538944)
I0107 19:33:41.883335 13409 net.cpp:165] Memory required for data: 2580501928
I0107 19:33:41.883342 13409 layer_factory.hpp:77] Creating layer conv5_1/sep/scale
I0107 19:33:41.883353 13409 net.cpp:100] Creating Layer conv5_1/sep/scale
I0107 19:33:41.883358 13409 net.cpp:434] conv5_1/sep/scale <- conv5_1/sep
I0107 19:33:41.883363 13409 net.cpp:395] conv5_1/sep/scale -> conv5_1/sep (in-place)
I0107 19:33:41.883395 13409 layer_factory.hpp:77] Creating layer conv5_1/sep/scale
I0107 19:33:41.883491 13409 net.cpp:150] Setting up conv5_1/sep/scale
I0107 19:33:41.883498 13409 net.cpp:157] Top shape: 3 512 48 48 (3538944)
I0107 19:33:41.883502 13409 net.cpp:165] Memory required for data: 2594657704
I0107 19:33:41.883507 13409 layer_factory.hpp:77] Creating layer relu5_1/sep
I0107 19:33:41.883512 13409 net.cpp:100] Creating Layer relu5_1/sep
I0107 19:33:41.883517 13409 net.cpp:434] relu5_1/sep <- conv5_1/sep
I0107 19:33:41.883522 13409 net.cpp:395] relu5_1/sep -> conv5_1/sep (in-place)
I0107 19:33:41.883678 13409 net.cpp:150] Setting up relu5_1/sep
I0107 19:33:41.883687 13409 net.cpp:157] Top shape: 3 512 48 48 (3538944)
I0107 19:33:41.883690 13409 net.cpp:165] Memory required for data: 2608813480
I0107 19:33:41.883693 13409 layer_factory.hpp:77] Creating layer conv5_2/dw
I0107 19:33:41.883702 13409 net.cpp:100] Creating Layer conv5_2/dw
I0107 19:33:41.883708 13409 net.cpp:434] conv5_2/dw <- conv5_1/sep
I0107 19:33:41.883713 13409 net.cpp:408] conv5_2/dw -> conv5_2/dw
I0107 19:33:41.884006 13409 net.cpp:150] Setting up conv5_2/dw
I0107 19:33:41.884013 13409 net.cpp:157] Top shape: 3 512 48 48 (3538944)
I0107 19:33:41.884016 13409 net.cpp:165] Memory required for data: 2622969256
I0107 19:33:41.884021 13409 layer_factory.hpp:77] Creating layer conv5_2/dw/bn
I0107 19:33:41.884027 13409 net.cpp:100] Creating Layer conv5_2/dw/bn
I0107 19:33:41.884032 13409 net.cpp:434] conv5_2/dw/bn <- conv5_2/dw
I0107 19:33:41.884035 13409 net.cpp:395] conv5_2/dw/bn -> conv5_2/dw (in-place)
I0107 19:33:41.884198 13409 net.cpp:150] Setting up conv5_2/dw/bn
I0107 19:33:41.884205 13409 net.cpp:157] Top shape: 3 512 48 48 (3538944)
I0107 19:33:41.884208 13409 net.cpp:165] Memory required for data: 2637125032
I0107 19:33:41.884215 13409 layer_factory.hpp:77] Creating layer conv5_2/dw/scale
I0107 19:33:41.884222 13409 net.cpp:100] Creating Layer conv5_2/dw/scale
I0107 19:33:41.884227 13409 net.cpp:434] conv5_2/dw/scale <- conv5_2/dw
I0107 19:33:41.884232 13409 net.cpp:395] conv5_2/dw/scale -> conv5_2/dw (in-place)
I0107 19:33:41.884261 13409 layer_factory.hpp:77] Creating layer conv5_2/dw/scale
I0107 19:33:41.884354 13409 net.cpp:150] Setting up conv5_2/dw/scale
I0107 19:33:41.884361 13409 net.cpp:157] Top shape: 3 512 48 48 (3538944)
I0107 19:33:41.884364 13409 net.cpp:165] Memory required for data: 2651280808
I0107 19:33:41.884371 13409 layer_factory.hpp:77] Creating layer relu5_2/dw
I0107 19:33:41.884376 13409 net.cpp:100] Creating Layer relu5_2/dw
I0107 19:33:41.884379 13409 net.cpp:434] relu5_2/dw <- conv5_2/dw
I0107 19:33:41.884384 13409 net.cpp:395] relu5_2/dw -> conv5_2/dw (in-place)
I0107 19:33:41.885085 13409 net.cpp:150] Setting up relu5_2/dw
I0107 19:33:41.885097 13409 net.cpp:157] Top shape: 3 512 48 48 (3538944)
I0107 19:33:41.885102 13409 net.cpp:165] Memory required for data: 2665436584
I0107 19:33:41.885104 13409 layer_factory.hpp:77] Creating layer conv5_2/sep
I0107 19:33:41.885113 13409 net.cpp:100] Creating Layer conv5_2/sep
I0107 19:33:41.885118 13409 net.cpp:434] conv5_2/sep <- conv5_2/dw
I0107 19:33:41.885124 13409 net.cpp:408] conv5_2/sep -> conv5_2/sep
I0107 19:33:41.893878 13409 net.cpp:150] Setting up conv5_2/sep
I0107 19:33:41.893918 13409 net.cpp:157] Top shape: 3 512 48 48 (3538944)
I0107 19:33:41.893923 13409 net.cpp:165] Memory required for data: 2679592360
I0107 19:33:41.893934 13409 layer_factory.hpp:77] Creating layer conv5_2/sep/bn
I0107 19:33:41.893954 13409 net.cpp:100] Creating Layer conv5_2/sep/bn
I0107 19:33:41.893963 13409 net.cpp:434] conv5_2/sep/bn <- conv5_2/sep
I0107 19:33:41.893970 13409 net.cpp:395] conv5_2/sep/bn -> conv5_2/sep (in-place)
I0107 19:33:41.894160 13409 net.cpp:150] Setting up conv5_2/sep/bn
I0107 19:33:41.894168 13409 net.cpp:157] Top shape: 3 512 48 48 (3538944)
I0107 19:33:41.894172 13409 net.cpp:165] Memory required for data: 2693748136
I0107 19:33:41.894181 13409 layer_factory.hpp:77] Creating layer conv5_2/sep/scale
I0107 19:33:41.894193 13409 net.cpp:100] Creating Layer conv5_2/sep/scale
I0107 19:33:41.894198 13409 net.cpp:434] conv5_2/sep/scale <- conv5_2/sep
I0107 19:33:41.894207 13409 net.cpp:395] conv5_2/sep/scale -> conv5_2/sep (in-place)
I0107 19:33:41.894244 13409 layer_factory.hpp:77] Creating layer conv5_2/sep/scale
I0107 19:33:41.894341 13409 net.cpp:150] Setting up conv5_2/sep/scale
I0107 19:33:41.894349 13409 net.cpp:157] Top shape: 3 512 48 48 (3538944)
I0107 19:33:41.894352 13409 net.cpp:165] Memory required for data: 2707903912
I0107 19:33:41.894358 13409 layer_factory.hpp:77] Creating layer relu5_2/sep
I0107 19:33:41.894366 13409 net.cpp:100] Creating Layer relu5_2/sep
I0107 19:33:41.894371 13409 net.cpp:434] relu5_2/sep <- conv5_2/sep
I0107 19:33:41.894374 13409 net.cpp:395] relu5_2/sep -> conv5_2/sep (in-place)
I0107 19:33:41.894552 13409 net.cpp:150] Setting up relu5_2/sep
I0107 19:33:41.894562 13409 net.cpp:157] Top shape: 3 512 48 48 (3538944)
I0107 19:33:41.894565 13409 net.cpp:165] Memory required for data: 2722059688
I0107 19:33:41.894568 13409 layer_factory.hpp:77] Creating layer conv5_3/dw
I0107 19:33:41.894582 13409 net.cpp:100] Creating Layer conv5_3/dw
I0107 19:33:41.894587 13409 net.cpp:434] conv5_3/dw <- conv5_2/sep
I0107 19:33:41.894593 13409 net.cpp:408] conv5_3/dw -> conv5_3/dw
I0107 19:33:41.894893 13409 net.cpp:150] Setting up conv5_3/dw
I0107 19:33:41.894901 13409 net.cpp:157] Top shape: 3 512 48 48 (3538944)
I0107 19:33:41.894904 13409 net.cpp:165] Memory required for data: 2736215464
I0107 19:33:41.894909 13409 layer_factory.hpp:77] Creating layer conv5_3/dw/bn
I0107 19:33:41.894915 13409 net.cpp:100] Creating Layer conv5_3/dw/bn
I0107 19:33:41.894918 13409 net.cpp:434] conv5_3/dw/bn <- conv5_3/dw
I0107 19:33:41.894924 13409 net.cpp:395] conv5_3/dw/bn -> conv5_3/dw (in-place)
I0107 19:33:41.895088 13409 net.cpp:150] Setting up conv5_3/dw/bn
I0107 19:33:41.895095 13409 net.cpp:157] Top shape: 3 512 48 48 (3538944)
I0107 19:33:41.895098 13409 net.cpp:165] Memory required for data: 2750371240
I0107 19:33:41.895105 13409 layer_factory.hpp:77] Creating layer conv5_3/dw/scale
I0107 19:33:41.895112 13409 net.cpp:100] Creating Layer conv5_3/dw/scale
I0107 19:33:41.895115 13409 net.cpp:434] conv5_3/dw/scale <- conv5_3/dw
I0107 19:33:41.895121 13409 net.cpp:395] conv5_3/dw/scale -> conv5_3/dw (in-place)
I0107 19:33:41.895150 13409 layer_factory.hpp:77] Creating layer conv5_3/dw/scale
I0107 19:33:41.895247 13409 net.cpp:150] Setting up conv5_3/dw/scale
I0107 19:33:41.895256 13409 net.cpp:157] Top shape: 3 512 48 48 (3538944)
I0107 19:33:41.895258 13409 net.cpp:165] Memory required for data: 2764527016
I0107 19:33:41.895263 13409 layer_factory.hpp:77] Creating layer relu5_3/dw
I0107 19:33:41.895269 13409 net.cpp:100] Creating Layer relu5_3/dw
I0107 19:33:41.895272 13409 net.cpp:434] relu5_3/dw <- conv5_3/dw
I0107 19:33:41.895277 13409 net.cpp:395] relu5_3/dw -> conv5_3/dw (in-place)
I0107 19:33:41.895431 13409 net.cpp:150] Setting up relu5_3/dw
I0107 19:33:41.895440 13409 net.cpp:157] Top shape: 3 512 48 48 (3538944)
I0107 19:33:41.895443 13409 net.cpp:165] Memory required for data: 2778682792
I0107 19:33:41.895447 13409 layer_factory.hpp:77] Creating layer conv5_3/sep
I0107 19:33:41.895455 13409 net.cpp:100] Creating Layer conv5_3/sep
I0107 19:33:41.895459 13409 net.cpp:434] conv5_3/sep <- conv5_3/dw
I0107 19:33:41.895465 13409 net.cpp:408] conv5_3/sep -> conv5_3/sep
I0107 19:33:41.905050 13409 net.cpp:150] Setting up conv5_3/sep
I0107 19:33:41.905079 13409 net.cpp:157] Top shape: 3 512 48 48 (3538944)
I0107 19:33:41.905083 13409 net.cpp:165] Memory required for data: 2792838568
I0107 19:33:41.905092 13409 layer_factory.hpp:77] Creating layer conv5_3/sep/bn
I0107 19:33:41.905107 13409 net.cpp:100] Creating Layer conv5_3/sep/bn
I0107 19:33:41.905112 13409 net.cpp:434] conv5_3/sep/bn <- conv5_3/sep
I0107 19:33:41.905119 13409 net.cpp:395] conv5_3/sep/bn -> conv5_3/sep (in-place)
I0107 19:33:41.905304 13409 net.cpp:150] Setting up conv5_3/sep/bn
I0107 19:33:41.905313 13409 net.cpp:157] Top shape: 3 512 48 48 (3538944)
I0107 19:33:41.905315 13409 net.cpp:165] Memory required for data: 2806994344
I0107 19:33:41.905323 13409 layer_factory.hpp:77] Creating layer conv5_3/sep/scale
I0107 19:33:41.905333 13409 net.cpp:100] Creating Layer conv5_3/sep/scale
I0107 19:33:41.905335 13409 net.cpp:434] conv5_3/sep/scale <- conv5_3/sep
I0107 19:33:41.905340 13409 net.cpp:395] conv5_3/sep/scale -> conv5_3/sep (in-place)
I0107 19:33:41.905375 13409 layer_factory.hpp:77] Creating layer conv5_3/sep/scale
I0107 19:33:41.905472 13409 net.cpp:150] Setting up conv5_3/sep/scale
I0107 19:33:41.905479 13409 net.cpp:157] Top shape: 3 512 48 48 (3538944)
I0107 19:33:41.905483 13409 net.cpp:165] Memory required for data: 2821150120
I0107 19:33:41.905488 13409 layer_factory.hpp:77] Creating layer relu5_3/sep
I0107 19:33:41.905494 13409 net.cpp:100] Creating Layer relu5_3/sep
I0107 19:33:41.905498 13409 net.cpp:434] relu5_3/sep <- conv5_3/sep
I0107 19:33:41.905504 13409 net.cpp:395] relu5_3/sep -> conv5_3/sep (in-place)
I0107 19:33:41.905659 13409 net.cpp:150] Setting up relu5_3/sep
I0107 19:33:41.905668 13409 net.cpp:157] Top shape: 3 512 48 48 (3538944)
I0107 19:33:41.905671 13409 net.cpp:165] Memory required for data: 2835305896
I0107 19:33:41.905674 13409 layer_factory.hpp:77] Creating layer conv5_4/dw
I0107 19:33:41.905684 13409 net.cpp:100] Creating Layer conv5_4/dw
I0107 19:33:41.905689 13409 net.cpp:434] conv5_4/dw <- conv5_3/sep
I0107 19:33:41.905699 13409 net.cpp:408] conv5_4/dw -> conv5_4/dw
I0107 19:33:41.905995 13409 net.cpp:150] Setting up conv5_4/dw
I0107 19:33:41.906003 13409 net.cpp:157] Top shape: 3 512 48 48 (3538944)
I0107 19:33:41.906006 13409 net.cpp:165] Memory required for data: 2849461672
I0107 19:33:41.906010 13409 layer_factory.hpp:77] Creating layer conv5_4/dw/bn
I0107 19:33:41.906018 13409 net.cpp:100] Creating Layer conv5_4/dw/bn
I0107 19:33:41.906021 13409 net.cpp:434] conv5_4/dw/bn <- conv5_4/dw
I0107 19:33:41.906025 13409 net.cpp:395] conv5_4/dw/bn -> conv5_4/dw (in-place)
I0107 19:33:41.906188 13409 net.cpp:150] Setting up conv5_4/dw/bn
I0107 19:33:41.906195 13409 net.cpp:157] Top shape: 3 512 48 48 (3538944)
I0107 19:33:41.906199 13409 net.cpp:165] Memory required for data: 2863617448
I0107 19:33:41.906205 13409 layer_factory.hpp:77] Creating layer conv5_4/dw/scale
I0107 19:33:41.906213 13409 net.cpp:100] Creating Layer conv5_4/dw/scale
I0107 19:33:41.906216 13409 net.cpp:434] conv5_4/dw/scale <- conv5_4/dw
I0107 19:33:41.906220 13409 net.cpp:395] conv5_4/dw/scale -> conv5_4/dw (in-place)
I0107 19:33:41.906251 13409 layer_factory.hpp:77] Creating layer conv5_4/dw/scale
I0107 19:33:41.906347 13409 net.cpp:150] Setting up conv5_4/dw/scale
I0107 19:33:41.906354 13409 net.cpp:157] Top shape: 3 512 48 48 (3538944)
I0107 19:33:41.906358 13409 net.cpp:165] Memory required for data: 2877773224
I0107 19:33:41.906363 13409 layer_factory.hpp:77] Creating layer relu5_4/dw
I0107 19:33:41.906368 13409 net.cpp:100] Creating Layer relu5_4/dw
I0107 19:33:41.906371 13409 net.cpp:434] relu5_4/dw <- conv5_4/dw
I0107 19:33:41.906378 13409 net.cpp:395] relu5_4/dw -> conv5_4/dw (in-place)
I0107 19:33:41.906806 13409 net.cpp:150] Setting up relu5_4/dw
I0107 19:33:41.906818 13409 net.cpp:157] Top shape: 3 512 48 48 (3538944)
I0107 19:33:41.906822 13409 net.cpp:165] Memory required for data: 2891929000
I0107 19:33:41.906826 13409 layer_factory.hpp:77] Creating layer conv5_4/sep
I0107 19:33:41.906834 13409 net.cpp:100] Creating Layer conv5_4/sep
I0107 19:33:41.906838 13409 net.cpp:434] conv5_4/sep <- conv5_4/dw
I0107 19:33:41.906846 13409 net.cpp:408] conv5_4/sep -> conv5_4/sep
I0107 19:33:41.914388 13409 net.cpp:150] Setting up conv5_4/sep
I0107 19:33:41.914400 13409 net.cpp:157] Top shape: 3 512 48 48 (3538944)
I0107 19:33:41.914405 13409 net.cpp:165] Memory required for data: 2906084776
I0107 19:33:41.914410 13409 layer_factory.hpp:77] Creating layer conv5_4/sep/bn
I0107 19:33:41.914417 13409 net.cpp:100] Creating Layer conv5_4/sep/bn
I0107 19:33:41.914420 13409 net.cpp:434] conv5_4/sep/bn <- conv5_4/sep
I0107 19:33:41.914427 13409 net.cpp:395] conv5_4/sep/bn -> conv5_4/sep (in-place)
I0107 19:33:41.914597 13409 net.cpp:150] Setting up conv5_4/sep/bn
I0107 19:33:41.914603 13409 net.cpp:157] Top shape: 3 512 48 48 (3538944)
I0107 19:33:41.914607 13409 net.cpp:165] Memory required for data: 2920240552
I0107 19:33:41.914628 13409 layer_factory.hpp:77] Creating layer conv5_4/sep/scale
I0107 19:33:41.914635 13409 net.cpp:100] Creating Layer conv5_4/sep/scale
I0107 19:33:41.914639 13409 net.cpp:434] conv5_4/sep/scale <- conv5_4/sep
I0107 19:33:41.914644 13409 net.cpp:395] conv5_4/sep/scale -> conv5_4/sep (in-place)
I0107 19:33:41.914677 13409 layer_factory.hpp:77] Creating layer conv5_4/sep/scale
I0107 19:33:41.914774 13409 net.cpp:150] Setting up conv5_4/sep/scale
I0107 19:33:41.914782 13409 net.cpp:157] Top shape: 3 512 48 48 (3538944)
I0107 19:33:41.914785 13409 net.cpp:165] Memory required for data: 2934396328
I0107 19:33:41.914790 13409 layer_factory.hpp:77] Creating layer relu5_4/sep
I0107 19:33:41.914795 13409 net.cpp:100] Creating Layer relu5_4/sep
I0107 19:33:41.914798 13409 net.cpp:434] relu5_4/sep <- conv5_4/sep
I0107 19:33:41.914803 13409 net.cpp:395] relu5_4/sep -> conv5_4/sep (in-place)
I0107 19:33:41.915247 13409 net.cpp:150] Setting up relu5_4/sep
I0107 19:33:41.915259 13409 net.cpp:157] Top shape: 3 512 48 48 (3538944)
I0107 19:33:41.915263 13409 net.cpp:165] Memory required for data: 2948552104
I0107 19:33:41.915267 13409 layer_factory.hpp:77] Creating layer conv5_5/dw
I0107 19:33:41.915275 13409 net.cpp:100] Creating Layer conv5_5/dw
I0107 19:33:41.915279 13409 net.cpp:434] conv5_5/dw <- conv5_4/sep
I0107 19:33:41.915285 13409 net.cpp:408] conv5_5/dw -> conv5_5/dw
I0107 19:33:41.915571 13409 net.cpp:150] Setting up conv5_5/dw
I0107 19:33:41.915578 13409 net.cpp:157] Top shape: 3 512 48 48 (3538944)
I0107 19:33:41.915582 13409 net.cpp:165] Memory required for data: 2962707880
I0107 19:33:41.915586 13409 layer_factory.hpp:77] Creating layer conv5_5/dw/bn
I0107 19:33:41.915593 13409 net.cpp:100] Creating Layer conv5_5/dw/bn
I0107 19:33:41.915596 13409 net.cpp:434] conv5_5/dw/bn <- conv5_5/dw
I0107 19:33:41.915601 13409 net.cpp:395] conv5_5/dw/bn -> conv5_5/dw (in-place)
I0107 19:33:41.915765 13409 net.cpp:150] Setting up conv5_5/dw/bn
I0107 19:33:41.915772 13409 net.cpp:157] Top shape: 3 512 48 48 (3538944)
I0107 19:33:41.915776 13409 net.cpp:165] Memory required for data: 2976863656
I0107 19:33:41.915782 13409 layer_factory.hpp:77] Creating layer conv5_5/dw/scale
I0107 19:33:41.915789 13409 net.cpp:100] Creating Layer conv5_5/dw/scale
I0107 19:33:41.915793 13409 net.cpp:434] conv5_5/dw/scale <- conv5_5/dw
I0107 19:33:41.915797 13409 net.cpp:395] conv5_5/dw/scale -> conv5_5/dw (in-place)
I0107 19:33:41.915828 13409 layer_factory.hpp:77] Creating layer conv5_5/dw/scale
I0107 19:33:41.915925 13409 net.cpp:150] Setting up conv5_5/dw/scale
I0107 19:33:41.915935 13409 net.cpp:157] Top shape: 3 512 48 48 (3538944)
I0107 19:33:41.915938 13409 net.cpp:165] Memory required for data: 2991019432
I0107 19:33:41.915943 13409 layer_factory.hpp:77] Creating layer relu5_5/dw
I0107 19:33:41.915949 13409 net.cpp:100] Creating Layer relu5_5/dw
I0107 19:33:41.915953 13409 net.cpp:434] relu5_5/dw <- conv5_5/dw
I0107 19:33:41.915957 13409 net.cpp:395] relu5_5/dw -> conv5_5/dw (in-place)
I0107 19:33:41.916105 13409 net.cpp:150] Setting up relu5_5/dw
I0107 19:33:41.916113 13409 net.cpp:157] Top shape: 3 512 48 48 (3538944)
I0107 19:33:41.916116 13409 net.cpp:165] Memory required for data: 3005175208
I0107 19:33:41.916121 13409 layer_factory.hpp:77] Creating layer conv5_5/sep
I0107 19:33:41.916129 13409 net.cpp:100] Creating Layer conv5_5/sep
I0107 19:33:41.916132 13409 net.cpp:434] conv5_5/sep <- conv5_5/dw
I0107 19:33:41.916138 13409 net.cpp:408] conv5_5/sep -> conv5_5/sep
I0107 19:33:41.924501 13409 net.cpp:150] Setting up conv5_5/sep
I0107 19:33:41.924525 13409 net.cpp:157] Top shape: 3 512 48 48 (3538944)
I0107 19:33:41.924530 13409 net.cpp:165] Memory required for data: 3019330984
I0107 19:33:41.924542 13409 layer_factory.hpp:77] Creating layer conv5_5/sep/bn
I0107 19:33:41.924556 13409 net.cpp:100] Creating Layer conv5_5/sep/bn
I0107 19:33:41.924562 13409 net.cpp:434] conv5_5/sep/bn <- conv5_5/sep
I0107 19:33:41.924567 13409 net.cpp:395] conv5_5/sep/bn -> conv5_5/sep (in-place)
I0107 19:33:41.924747 13409 net.cpp:150] Setting up conv5_5/sep/bn
I0107 19:33:41.924754 13409 net.cpp:157] Top shape: 3 512 48 48 (3538944)
I0107 19:33:41.924757 13409 net.cpp:165] Memory required for data: 3033486760
I0107 19:33:41.924765 13409 layer_factory.hpp:77] Creating layer conv5_5/sep/scale
I0107 19:33:41.924773 13409 net.cpp:100] Creating Layer conv5_5/sep/scale
I0107 19:33:41.924777 13409 net.cpp:434] conv5_5/sep/scale <- conv5_5/sep
I0107 19:33:41.924782 13409 net.cpp:395] conv5_5/sep/scale -> conv5_5/sep (in-place)
I0107 19:33:41.924816 13409 layer_factory.hpp:77] Creating layer conv5_5/sep/scale
I0107 19:33:41.924913 13409 net.cpp:150] Setting up conv5_5/sep/scale
I0107 19:33:41.924921 13409 net.cpp:157] Top shape: 3 512 48 48 (3538944)
I0107 19:33:41.924923 13409 net.cpp:165] Memory required for data: 3047642536
I0107 19:33:41.924928 13409 layer_factory.hpp:77] Creating layer relu5_5/sep
I0107 19:33:41.924935 13409 net.cpp:100] Creating Layer relu5_5/sep
I0107 19:33:41.924939 13409 net.cpp:434] relu5_5/sep <- conv5_5/sep
I0107 19:33:41.924943 13409 net.cpp:395] relu5_5/sep -> conv5_5/sep (in-place)
I0107 19:33:41.925127 13409 net.cpp:150] Setting up relu5_5/sep
I0107 19:33:41.925137 13409 net.cpp:157] Top shape: 3 512 48 48 (3538944)
I0107 19:33:41.925140 13409 net.cpp:165] Memory required for data: 3061798312
I0107 19:33:41.925144 13409 layer_factory.hpp:77] Creating layer conv5_5/sep_relu5_5/sep_0_split
I0107 19:33:41.925150 13409 net.cpp:100] Creating Layer conv5_5/sep_relu5_5/sep_0_split
I0107 19:33:41.925153 13409 net.cpp:434] conv5_5/sep_relu5_5/sep_0_split <- conv5_5/sep
I0107 19:33:41.925158 13409 net.cpp:408] conv5_5/sep_relu5_5/sep_0_split -> conv5_5/sep_relu5_5/sep_0_split_0
I0107 19:33:41.925166 13409 net.cpp:408] conv5_5/sep_relu5_5/sep_0_split -> conv5_5/sep_relu5_5/sep_0_split_1
I0107 19:33:41.925173 13409 net.cpp:408] conv5_5/sep_relu5_5/sep_0_split -> conv5_5/sep_relu5_5/sep_0_split_2
I0107 19:33:41.925225 13409 net.cpp:150] Setting up conv5_5/sep_relu5_5/sep_0_split
I0107 19:33:41.925231 13409 net.cpp:157] Top shape: 3 512 48 48 (3538944)
I0107 19:33:41.925236 13409 net.cpp:157] Top shape: 3 512 48 48 (3538944)
I0107 19:33:41.925240 13409 net.cpp:157] Top shape: 3 512 48 48 (3538944)
I0107 19:33:41.925243 13409 net.cpp:165] Memory required for data: 3104265640
I0107 19:33:41.925247 13409 layer_factory.hpp:77] Creating layer LFCN_2_5x5
I0107 19:33:41.925257 13409 net.cpp:100] Creating Layer LFCN_2_5x5
I0107 19:33:41.925261 13409 net.cpp:434] LFCN_2_5x5 <- conv5_5/sep_relu5_5/sep_0_split_0
I0107 19:33:41.925266 13409 net.cpp:408] LFCN_2_5x5 -> LFCN_2_5x5
I0107 19:33:41.929249 13409 net.cpp:150] Setting up LFCN_2_5x5
I0107 19:33:41.929265 13409 net.cpp:157] Top shape: 3 9 48 48 (62208)
I0107 19:33:41.929268 13409 net.cpp:165] Memory required for data: 3104514472
I0107 19:33:41.929276 13409 layer_factory.hpp:77] Creating layer LFCN_2_5x5_LFCN_2_5x5_0_split
I0107 19:33:41.929283 13409 net.cpp:100] Creating Layer LFCN_2_5x5_LFCN_2_5x5_0_split
I0107 19:33:41.929288 13409 net.cpp:434] LFCN_2_5x5_LFCN_2_5x5_0_split <- LFCN_2_5x5
I0107 19:33:41.929296 13409 net.cpp:408] LFCN_2_5x5_LFCN_2_5x5_0_split -> LFCN_2_5x5_LFCN_2_5x5_0_split_0
I0107 19:33:41.929304 13409 net.cpp:408] LFCN_2_5x5_LFCN_2_5x5_0_split -> LFCN_2_5x5_LFCN_2_5x5_0_split_1
I0107 19:33:41.929338 13409 net.cpp:150] Setting up LFCN_2_5x5_LFCN_2_5x5_0_split
I0107 19:33:41.929344 13409 net.cpp:157] Top shape: 3 9 48 48 (62208)
I0107 19:33:41.929349 13409 net.cpp:157] Top shape: 3 9 48 48 (62208)
I0107 19:33:41.929352 13409 net.cpp:165] Memory required for data: 3105012136
I0107 19:33:41.929355 13409 layer_factory.hpp:77] Creating layer detection_loss_2_5x5
I0107 19:33:41.929363 13409 net.cpp:100] Creating Layer detection_loss_2_5x5
I0107 19:33:41.929366 13409 net.cpp:434] detection_loss_2_5x5 <- LFCN_2_5x5_LFCN_2_5x5_0_split_0
I0107 19:33:41.929370 13409 net.cpp:434] detection_loss_2_5x5 <- label_2_5x5_data_3_split_0
I0107 19:33:41.929378 13409 net.cpp:408] detection_loss_2_5x5 -> loss_2_5x5
I0107 19:33:41.929385 13409 layer_factory.hpp:77] Creating layer detection_loss_2_5x5
I0107 19:33:41.929731 13409 net.cpp:150] Setting up detection_loss_2_5x5
I0107 19:33:41.929741 13409 net.cpp:157] Top shape: 1 1 1 2 (2)
I0107 19:33:41.929745 13409 net.cpp:160]     with loss weight 1
I0107 19:33:41.929755 13409 net.cpp:165] Memory required for data: 3105012144
I0107 19:33:41.929759 13409 layer_factory.hpp:77] Creating layer detection_accuracy_2_5x5
I0107 19:33:41.929767 13409 net.cpp:100] Creating Layer detection_accuracy_2_5x5
I0107 19:33:41.929770 13409 net.cpp:434] detection_accuracy_2_5x5 <- LFCN_2_5x5_LFCN_2_5x5_0_split_1
I0107 19:33:41.929775 13409 net.cpp:434] detection_accuracy_2_5x5 <- label_2_5x5_data_3_split_1
I0107 19:33:41.929780 13409 net.cpp:408] detection_accuracy_2_5x5 -> accuracy_2_5x5
I0107 19:33:41.929788 13409 net.cpp:408] detection_accuracy_2_5x5 -> boxiou_2_5x5
I0107 19:33:41.929824 13409 net.cpp:150] Setting up detection_accuracy_2_5x5
I0107 19:33:41.929831 13409 net.cpp:157] Top shape: 1 1 1 2 (2)
I0107 19:33:41.929836 13409 net.cpp:157] Top shape: 1 1 1 1 (1)
I0107 19:33:41.929837 13409 net.cpp:165] Memory required for data: 3105012156
I0107 19:33:41.929841 13409 layer_factory.hpp:77] Creating layer LFCN_2_7x7
I0107 19:33:41.929850 13409 net.cpp:100] Creating Layer LFCN_2_7x7
I0107 19:33:41.929853 13409 net.cpp:434] LFCN_2_7x7 <- conv5_5/sep_relu5_5/sep_0_split_1
I0107 19:33:41.929860 13409 net.cpp:408] LFCN_2_7x7 -> LFCN_2_7x7
I0107 19:33:41.936503 13409 net.cpp:150] Setting up LFCN_2_7x7
I0107 19:33:41.936517 13409 net.cpp:157] Top shape: 3 9 48 48 (62208)
I0107 19:33:41.936520 13409 net.cpp:165] Memory required for data: 3105260988
I0107 19:33:41.936527 13409 layer_factory.hpp:77] Creating layer LFCN_2_7x7_LFCN_2_7x7_0_split
I0107 19:33:41.936532 13409 net.cpp:100] Creating Layer LFCN_2_7x7_LFCN_2_7x7_0_split
I0107 19:33:41.936535 13409 net.cpp:434] LFCN_2_7x7_LFCN_2_7x7_0_split <- LFCN_2_7x7
I0107 19:33:41.936543 13409 net.cpp:408] LFCN_2_7x7_LFCN_2_7x7_0_split -> LFCN_2_7x7_LFCN_2_7x7_0_split_0
I0107 19:33:41.936549 13409 net.cpp:408] LFCN_2_7x7_LFCN_2_7x7_0_split -> LFCN_2_7x7_LFCN_2_7x7_0_split_1
I0107 19:33:41.936581 13409 net.cpp:150] Setting up LFCN_2_7x7_LFCN_2_7x7_0_split
I0107 19:33:41.936588 13409 net.cpp:157] Top shape: 3 9 48 48 (62208)
I0107 19:33:41.936591 13409 net.cpp:157] Top shape: 3 9 48 48 (62208)
I0107 19:33:41.936594 13409 net.cpp:165] Memory required for data: 3105758652
I0107 19:33:41.936599 13409 layer_factory.hpp:77] Creating layer detection_loss_2_7x7
I0107 19:33:41.936604 13409 net.cpp:100] Creating Layer detection_loss_2_7x7
I0107 19:33:41.936609 13409 net.cpp:434] detection_loss_2_7x7 <- LFCN_2_7x7_LFCN_2_7x7_0_split_0
I0107 19:33:41.936612 13409 net.cpp:434] detection_loss_2_7x7 <- label_2_7x7_data_4_split_0
I0107 19:33:41.936619 13409 net.cpp:408] detection_loss_2_7x7 -> loss_2_7x7
I0107 19:33:41.936625 13409 layer_factory.hpp:77] Creating layer detection_loss_2_7x7
I0107 19:33:41.937290 13409 net.cpp:150] Setting up detection_loss_2_7x7
I0107 19:33:41.937305 13409 net.cpp:157] Top shape: 1 1 1 2 (2)
I0107 19:33:41.937309 13409 net.cpp:160]     with loss weight 1
I0107 19:33:41.937314 13409 net.cpp:165] Memory required for data: 3105758660
I0107 19:33:41.937317 13409 layer_factory.hpp:77] Creating layer detection_accuracy_2_7x7
I0107 19:33:41.937325 13409 net.cpp:100] Creating Layer detection_accuracy_2_7x7
I0107 19:33:41.937328 13409 net.cpp:434] detection_accuracy_2_7x7 <- LFCN_2_7x7_LFCN_2_7x7_0_split_1
I0107 19:33:41.937333 13409 net.cpp:434] detection_accuracy_2_7x7 <- label_2_7x7_data_4_split_1
I0107 19:33:41.937338 13409 net.cpp:408] detection_accuracy_2_7x7 -> accuracy_2_7x7
I0107 19:33:41.937345 13409 net.cpp:408] detection_accuracy_2_7x7 -> boxiou_2_7x7
I0107 19:33:41.937379 13409 net.cpp:150] Setting up detection_accuracy_2_7x7
I0107 19:33:41.937386 13409 net.cpp:157] Top shape: 1 1 1 2 (2)
I0107 19:33:41.937391 13409 net.cpp:157] Top shape: 1 1 1 1 (1)
I0107 19:33:41.937393 13409 net.cpp:165] Memory required for data: 3105758672
I0107 19:33:41.937397 13409 layer_factory.hpp:77] Creating layer conv5_6/dw
I0107 19:33:41.937405 13409 net.cpp:100] Creating Layer conv5_6/dw
I0107 19:33:41.937408 13409 net.cpp:434] conv5_6/dw <- conv5_5/sep_relu5_5/sep_0_split_2
I0107 19:33:41.937414 13409 net.cpp:408] conv5_6/dw -> conv5_6/dw
I0107 19:33:41.937711 13409 net.cpp:150] Setting up conv5_6/dw
I0107 19:33:41.937721 13409 net.cpp:157] Top shape: 3 512 24 24 (884736)
I0107 19:33:41.937723 13409 net.cpp:165] Memory required for data: 3109297616
I0107 19:33:41.937727 13409 layer_factory.hpp:77] Creating layer conv5_6/dw/bn
I0107 19:33:41.937734 13409 net.cpp:100] Creating Layer conv5_6/dw/bn
I0107 19:33:41.937738 13409 net.cpp:434] conv5_6/dw/bn <- conv5_6/dw
I0107 19:33:41.937743 13409 net.cpp:395] conv5_6/dw/bn -> conv5_6/dw (in-place)
I0107 19:33:41.937911 13409 net.cpp:150] Setting up conv5_6/dw/bn
I0107 19:33:41.937918 13409 net.cpp:157] Top shape: 3 512 24 24 (884736)
I0107 19:33:41.937922 13409 net.cpp:165] Memory required for data: 3112836560
I0107 19:33:41.937929 13409 layer_factory.hpp:77] Creating layer conv5_6/dw/scale
I0107 19:33:41.937938 13409 net.cpp:100] Creating Layer conv5_6/dw/scale
I0107 19:33:41.937942 13409 net.cpp:434] conv5_6/dw/scale <- conv5_6/dw
I0107 19:33:41.937947 13409 net.cpp:395] conv5_6/dw/scale -> conv5_6/dw (in-place)
I0107 19:33:41.937986 13409 layer_factory.hpp:77] Creating layer conv5_6/dw/scale
I0107 19:33:41.938086 13409 net.cpp:150] Setting up conv5_6/dw/scale
I0107 19:33:41.938093 13409 net.cpp:157] Top shape: 3 512 24 24 (884736)
I0107 19:33:41.938097 13409 net.cpp:165] Memory required for data: 3116375504
I0107 19:33:41.938102 13409 layer_factory.hpp:77] Creating layer relu5_6/dw
I0107 19:33:41.938108 13409 net.cpp:100] Creating Layer relu5_6/dw
I0107 19:33:41.938112 13409 net.cpp:434] relu5_6/dw <- conv5_6/dw
I0107 19:33:41.938117 13409 net.cpp:395] relu5_6/dw -> conv5_6/dw (in-place)
I0107 19:33:41.938263 13409 net.cpp:150] Setting up relu5_6/dw
I0107 19:33:41.938272 13409 net.cpp:157] Top shape: 3 512 24 24 (884736)
I0107 19:33:41.938275 13409 net.cpp:165] Memory required for data: 3119914448
I0107 19:33:41.938278 13409 layer_factory.hpp:77] Creating layer conv5_6/sep
I0107 19:33:41.938287 13409 net.cpp:100] Creating Layer conv5_6/sep
I0107 19:33:41.938290 13409 net.cpp:434] conv5_6/sep <- conv5_6/dw
I0107 19:33:41.938297 13409 net.cpp:408] conv5_6/sep -> conv5_6/sep
I0107 19:33:41.954569 13409 net.cpp:150] Setting up conv5_6/sep
I0107 19:33:41.954639 13409 net.cpp:157] Top shape: 3 1024 24 24 (1769472)
I0107 19:33:41.954644 13409 net.cpp:165] Memory required for data: 3126992336
I0107 19:33:41.954675 13409 layer_factory.hpp:77] Creating layer conv5_6/sep/bn
I0107 19:33:41.954700 13409 net.cpp:100] Creating Layer conv5_6/sep/bn
I0107 19:33:41.954710 13409 net.cpp:434] conv5_6/sep/bn <- conv5_6/sep
I0107 19:33:41.954718 13409 net.cpp:395] conv5_6/sep/bn -> conv5_6/sep (in-place)
I0107 19:33:41.954929 13409 net.cpp:150] Setting up conv5_6/sep/bn
I0107 19:33:41.954937 13409 net.cpp:157] Top shape: 3 1024 24 24 (1769472)
I0107 19:33:41.954941 13409 net.cpp:165] Memory required for data: 3134070224
I0107 19:33:41.954948 13409 layer_factory.hpp:77] Creating layer conv5_6/sep/scale
I0107 19:33:41.954960 13409 net.cpp:100] Creating Layer conv5_6/sep/scale
I0107 19:33:41.954963 13409 net.cpp:434] conv5_6/sep/scale <- conv5_6/sep
I0107 19:33:41.954970 13409 net.cpp:395] conv5_6/sep/scale -> conv5_6/sep (in-place)
I0107 19:33:41.955013 13409 layer_factory.hpp:77] Creating layer conv5_6/sep/scale
I0107 19:33:41.955116 13409 net.cpp:150] Setting up conv5_6/sep/scale
I0107 19:33:41.955123 13409 net.cpp:157] Top shape: 3 1024 24 24 (1769472)
I0107 19:33:41.955127 13409 net.cpp:165] Memory required for data: 3141148112
I0107 19:33:41.955132 13409 layer_factory.hpp:77] Creating layer relu5_6/sep
I0107 19:33:41.955155 13409 net.cpp:100] Creating Layer relu5_6/sep
I0107 19:33:41.955160 13409 net.cpp:434] relu5_6/sep <- conv5_6/sep
I0107 19:33:41.955165 13409 net.cpp:395] relu5_6/sep -> conv5_6/sep (in-place)
I0107 19:33:41.955330 13409 net.cpp:150] Setting up relu5_6/sep
I0107 19:33:41.955338 13409 net.cpp:157] Top shape: 3 1024 24 24 (1769472)
I0107 19:33:41.955343 13409 net.cpp:165] Memory required for data: 3148226000
I0107 19:33:41.955345 13409 layer_factory.hpp:77] Creating layer conv6/dw
I0107 19:33:41.955356 13409 net.cpp:100] Creating Layer conv6/dw
I0107 19:33:41.955363 13409 net.cpp:434] conv6/dw <- conv5_6/sep
I0107 19:33:41.955369 13409 net.cpp:408] conv6/dw -> conv6/dw
I0107 19:33:41.955798 13409 net.cpp:150] Setting up conv6/dw
I0107 19:33:41.955806 13409 net.cpp:157] Top shape: 3 1024 24 24 (1769472)
I0107 19:33:41.955809 13409 net.cpp:165] Memory required for data: 3155303888
I0107 19:33:41.955814 13409 layer_factory.hpp:77] Creating layer conv6/dw/bn
I0107 19:33:41.955821 13409 net.cpp:100] Creating Layer conv6/dw/bn
I0107 19:33:41.955823 13409 net.cpp:434] conv6/dw/bn <- conv6/dw
I0107 19:33:41.955829 13409 net.cpp:395] conv6/dw/bn -> conv6/dw (in-place)
I0107 19:33:41.956004 13409 net.cpp:150] Setting up conv6/dw/bn
I0107 19:33:41.956012 13409 net.cpp:157] Top shape: 3 1024 24 24 (1769472)
I0107 19:33:41.956014 13409 net.cpp:165] Memory required for data: 3162381776
I0107 19:33:41.956022 13409 layer_factory.hpp:77] Creating layer conv6/dw/scale
I0107 19:33:41.956027 13409 net.cpp:100] Creating Layer conv6/dw/scale
I0107 19:33:41.956032 13409 net.cpp:434] conv6/dw/scale <- conv6/dw
I0107 19:33:41.956037 13409 net.cpp:395] conv6/dw/scale -> conv6/dw (in-place)
I0107 19:33:41.956073 13409 layer_factory.hpp:77] Creating layer conv6/dw/scale
I0107 19:33:41.956182 13409 net.cpp:150] Setting up conv6/dw/scale
I0107 19:33:41.956188 13409 net.cpp:157] Top shape: 3 1024 24 24 (1769472)
I0107 19:33:41.956192 13409 net.cpp:165] Memory required for data: 3169459664
I0107 19:33:41.956198 13409 layer_factory.hpp:77] Creating layer relu6/dw
I0107 19:33:41.956203 13409 net.cpp:100] Creating Layer relu6/dw
I0107 19:33:41.956207 13409 net.cpp:434] relu6/dw <- conv6/dw
I0107 19:33:41.956212 13409 net.cpp:395] relu6/dw -> conv6/dw (in-place)
I0107 19:33:41.956364 13409 net.cpp:150] Setting up relu6/dw
I0107 19:33:41.956373 13409 net.cpp:157] Top shape: 3 1024 24 24 (1769472)
I0107 19:33:41.956377 13409 net.cpp:165] Memory required for data: 3176537552
I0107 19:33:41.956379 13409 layer_factory.hpp:77] Creating layer conv6/sep
I0107 19:33:41.956389 13409 net.cpp:100] Creating Layer conv6/sep
I0107 19:33:41.956393 13409 net.cpp:434] conv6/sep <- conv6/dw
I0107 19:33:41.956398 13409 net.cpp:408] conv6/sep -> conv6/sep
I0107 19:33:41.985401 13409 net.cpp:150] Setting up conv6/sep
I0107 19:33:41.985430 13409 net.cpp:157] Top shape: 3 1024 24 24 (1769472)
I0107 19:33:41.985433 13409 net.cpp:165] Memory required for data: 3183615440
I0107 19:33:41.985442 13409 layer_factory.hpp:77] Creating layer conv6/sep/bn
I0107 19:33:41.985456 13409 net.cpp:100] Creating Layer conv6/sep/bn
I0107 19:33:41.985463 13409 net.cpp:434] conv6/sep/bn <- conv6/sep
I0107 19:33:41.985471 13409 net.cpp:395] conv6/sep/bn -> conv6/sep (in-place)
I0107 19:33:41.985659 13409 net.cpp:150] Setting up conv6/sep/bn
I0107 19:33:41.985667 13409 net.cpp:157] Top shape: 3 1024 24 24 (1769472)
I0107 19:33:41.985671 13409 net.cpp:165] Memory required for data: 3190693328
I0107 19:33:41.985677 13409 layer_factory.hpp:77] Creating layer conv6/sep/scale
I0107 19:33:41.985687 13409 net.cpp:100] Creating Layer conv6/sep/scale
I0107 19:33:41.985689 13409 net.cpp:434] conv6/sep/scale <- conv6/sep
I0107 19:33:41.985734 13409 net.cpp:395] conv6/sep/scale -> conv6/sep (in-place)
I0107 19:33:41.985783 13409 layer_factory.hpp:77] Creating layer conv6/sep/scale
I0107 19:33:41.985886 13409 net.cpp:150] Setting up conv6/sep/scale
I0107 19:33:41.985894 13409 net.cpp:157] Top shape: 3 1024 24 24 (1769472)
I0107 19:33:41.985898 13409 net.cpp:165] Memory required for data: 3197771216
I0107 19:33:41.985903 13409 layer_factory.hpp:77] Creating layer relu6/sep
I0107 19:33:41.985910 13409 net.cpp:100] Creating Layer relu6/sep
I0107 19:33:41.985913 13409 net.cpp:434] relu6/sep <- conv6/sep
I0107 19:33:41.985918 13409 net.cpp:395] relu6/sep -> conv6/sep (in-place)
I0107 19:33:41.986088 13409 net.cpp:150] Setting up relu6/sep
I0107 19:33:41.986101 13409 net.cpp:157] Top shape: 3 1024 24 24 (1769472)
I0107 19:33:41.986106 13409 net.cpp:165] Memory required for data: 3204849104
I0107 19:33:41.986111 13409 layer_factory.hpp:77] Creating layer conv6/sep_relu6/sep_0_split
I0107 19:33:41.986119 13409 net.cpp:100] Creating Layer conv6/sep_relu6/sep_0_split
I0107 19:33:41.986124 13409 net.cpp:434] conv6/sep_relu6/sep_0_split <- conv6/sep
I0107 19:33:41.986129 13409 net.cpp:408] conv6/sep_relu6/sep_0_split -> conv6/sep_relu6/sep_0_split_0
I0107 19:33:41.986136 13409 net.cpp:408] conv6/sep_relu6/sep_0_split -> conv6/sep_relu6/sep_0_split_1
I0107 19:33:41.986142 13409 net.cpp:408] conv6/sep_relu6/sep_0_split -> conv6/sep_relu6/sep_0_split_2
I0107 19:33:41.986191 13409 net.cpp:150] Setting up conv6/sep_relu6/sep_0_split
I0107 19:33:41.986197 13409 net.cpp:157] Top shape: 3 1024 24 24 (1769472)
I0107 19:33:41.986202 13409 net.cpp:157] Top shape: 3 1024 24 24 (1769472)
I0107 19:33:41.986204 13409 net.cpp:157] Top shape: 3 1024 24 24 (1769472)
I0107 19:33:41.986207 13409 net.cpp:165] Memory required for data: 3226082768
I0107 19:33:41.986212 13409 layer_factory.hpp:77] Creating layer LFCN_3_5x5
I0107 19:33:41.986222 13409 net.cpp:100] Creating Layer LFCN_3_5x5
I0107 19:33:41.986227 13409 net.cpp:434] LFCN_3_5x5 <- conv6/sep_relu6/sep_0_split_0
I0107 19:33:41.986233 13409 net.cpp:408] LFCN_3_5x5 -> LFCN_3_5x5
I0107 19:33:41.994155 13409 net.cpp:150] Setting up LFCN_3_5x5
I0107 19:33:41.994180 13409 net.cpp:157] Top shape: 3 9 24 24 (15552)
I0107 19:33:41.994184 13409 net.cpp:165] Memory required for data: 3226144976
I0107 19:33:41.994194 13409 layer_factory.hpp:77] Creating layer LFCN_3_5x5_LFCN_3_5x5_0_split
I0107 19:33:41.994205 13409 net.cpp:100] Creating Layer LFCN_3_5x5_LFCN_3_5x5_0_split
I0107 19:33:41.994211 13409 net.cpp:434] LFCN_3_5x5_LFCN_3_5x5_0_split <- LFCN_3_5x5
I0107 19:33:41.994220 13409 net.cpp:408] LFCN_3_5x5_LFCN_3_5x5_0_split -> LFCN_3_5x5_LFCN_3_5x5_0_split_0
I0107 19:33:41.994228 13409 net.cpp:408] LFCN_3_5x5_LFCN_3_5x5_0_split -> LFCN_3_5x5_LFCN_3_5x5_0_split_1
I0107 19:33:41.994264 13409 net.cpp:150] Setting up LFCN_3_5x5_LFCN_3_5x5_0_split
I0107 19:33:41.994271 13409 net.cpp:157] Top shape: 3 9 24 24 (15552)
I0107 19:33:41.994277 13409 net.cpp:157] Top shape: 3 9 24 24 (15552)
I0107 19:33:41.994279 13409 net.cpp:165] Memory required for data: 3226269392
I0107 19:33:41.994282 13409 layer_factory.hpp:77] Creating layer detection_loss_3_5x5
I0107 19:33:41.994289 13409 net.cpp:100] Creating Layer detection_loss_3_5x5
I0107 19:33:41.994293 13409 net.cpp:434] detection_loss_3_5x5 <- LFCN_3_5x5_LFCN_3_5x5_0_split_0
I0107 19:33:41.994298 13409 net.cpp:434] detection_loss_3_5x5 <- label_3_5x5_data_5_split_0
I0107 19:33:41.994305 13409 net.cpp:408] detection_loss_3_5x5 -> loss_3_5x5
I0107 19:33:41.994313 13409 layer_factory.hpp:77] Creating layer detection_loss_3_5x5
I0107 19:33:41.994917 13409 net.cpp:150] Setting up detection_loss_3_5x5
I0107 19:33:41.994930 13409 net.cpp:157] Top shape: 1 1 1 2 (2)
I0107 19:33:41.994933 13409 net.cpp:160]     with loss weight 1
I0107 19:33:41.994944 13409 net.cpp:165] Memory required for data: 3226269400
I0107 19:33:41.994948 13409 layer_factory.hpp:77] Creating layer detection_accuracy_3_5x5
I0107 19:33:41.994956 13409 net.cpp:100] Creating Layer detection_accuracy_3_5x5
I0107 19:33:41.994962 13409 net.cpp:434] detection_accuracy_3_5x5 <- LFCN_3_5x5_LFCN_3_5x5_0_split_1
I0107 19:33:41.994969 13409 net.cpp:434] detection_accuracy_3_5x5 <- label_3_5x5_data_5_split_1
I0107 19:33:41.994982 13409 net.cpp:408] detection_accuracy_3_5x5 -> accuracy_3_5x5
I0107 19:33:41.994992 13409 net.cpp:408] detection_accuracy_3_5x5 -> boxiou_3_5x5
I0107 19:33:41.995030 13409 net.cpp:150] Setting up detection_accuracy_3_5x5
I0107 19:33:41.995036 13409 net.cpp:157] Top shape: 1 1 1 2 (2)
I0107 19:33:41.995040 13409 net.cpp:157] Top shape: 1 1 1 1 (1)
I0107 19:33:41.995043 13409 net.cpp:165] Memory required for data: 3226269412
I0107 19:33:41.995046 13409 layer_factory.hpp:77] Creating layer LFCN_3_7x7
I0107 19:33:41.995056 13409 net.cpp:100] Creating Layer LFCN_3_7x7
I0107 19:33:41.995062 13409 net.cpp:434] LFCN_3_7x7 <- conv6/sep_relu6/sep_0_split_1
I0107 19:33:41.995069 13409 net.cpp:408] LFCN_3_7x7 -> LFCN_3_7x7
I0107 19:33:42.008961 13409 net.cpp:150] Setting up LFCN_3_7x7
I0107 19:33:42.008999 13409 net.cpp:157] Top shape: 3 9 24 24 (15552)
I0107 19:33:42.009003 13409 net.cpp:165] Memory required for data: 3226331620
I0107 19:33:42.009013 13409 layer_factory.hpp:77] Creating layer LFCN_3_7x7_LFCN_3_7x7_0_split
I0107 19:33:42.009027 13409 net.cpp:100] Creating Layer LFCN_3_7x7_LFCN_3_7x7_0_split
I0107 19:33:42.009034 13409 net.cpp:434] LFCN_3_7x7_LFCN_3_7x7_0_split <- LFCN_3_7x7
I0107 19:33:42.009043 13409 net.cpp:408] LFCN_3_7x7_LFCN_3_7x7_0_split -> LFCN_3_7x7_LFCN_3_7x7_0_split_0
I0107 19:33:42.009053 13409 net.cpp:408] LFCN_3_7x7_LFCN_3_7x7_0_split -> LFCN_3_7x7_LFCN_3_7x7_0_split_1
I0107 19:33:42.009093 13409 net.cpp:150] Setting up LFCN_3_7x7_LFCN_3_7x7_0_split
I0107 19:33:42.009099 13409 net.cpp:157] Top shape: 3 9 24 24 (15552)
I0107 19:33:42.009104 13409 net.cpp:157] Top shape: 3 9 24 24 (15552)
I0107 19:33:42.009106 13409 net.cpp:165] Memory required for data: 3226456036
I0107 19:33:42.009110 13409 layer_factory.hpp:77] Creating layer detection_loss_3_7x7
I0107 19:33:42.009116 13409 net.cpp:100] Creating Layer detection_loss_3_7x7
I0107 19:33:42.009120 13409 net.cpp:434] detection_loss_3_7x7 <- LFCN_3_7x7_LFCN_3_7x7_0_split_0
I0107 19:33:42.009127 13409 net.cpp:434] detection_loss_3_7x7 <- label_3_7x7_data_6_split_0
I0107 19:33:42.009133 13409 net.cpp:408] detection_loss_3_7x7 -> loss_3_7x7
I0107 19:33:42.009143 13409 layer_factory.hpp:77] Creating layer detection_loss_3_7x7
I0107 19:33:42.009933 13409 net.cpp:150] Setting up detection_loss_3_7x7
I0107 19:33:42.009946 13409 net.cpp:157] Top shape: 1 1 1 2 (2)
I0107 19:33:42.009949 13409 net.cpp:160]     with loss weight 1
I0107 19:33:42.009961 13409 net.cpp:165] Memory required for data: 3226456044
I0107 19:33:42.009964 13409 layer_factory.hpp:77] Creating layer detection_accuracy_3_7x7
I0107 19:33:42.009971 13409 net.cpp:100] Creating Layer detection_accuracy_3_7x7
I0107 19:33:42.009976 13409 net.cpp:434] detection_accuracy_3_7x7 <- LFCN_3_7x7_LFCN_3_7x7_0_split_1
I0107 19:33:42.009981 13409 net.cpp:434] detection_accuracy_3_7x7 <- label_3_7x7_data_6_split_1
I0107 19:33:42.009989 13409 net.cpp:408] detection_accuracy_3_7x7 -> accuracy_3_7x7
I0107 19:33:42.009996 13409 net.cpp:408] detection_accuracy_3_7x7 -> boxiou_3_7x7
I0107 19:33:42.010035 13409 net.cpp:150] Setting up detection_accuracy_3_7x7
I0107 19:33:42.010040 13409 net.cpp:157] Top shape: 1 1 1 2 (2)
I0107 19:33:42.010044 13409 net.cpp:157] Top shape: 1 1 1 1 (1)
I0107 19:33:42.010047 13409 net.cpp:165] Memory required for data: 3226456056
I0107 19:33:42.010051 13409 layer_factory.hpp:77] Creating layer pool6
I0107 19:33:42.010058 13409 net.cpp:100] Creating Layer pool6
I0107 19:33:42.010063 13409 net.cpp:434] pool6 <- conv6/sep_relu6/sep_0_split_2
I0107 19:33:42.010067 13409 net.cpp:408] pool6 -> pool6
I0107 19:33:42.010114 13409 net.cpp:150] Setting up pool6
I0107 19:33:42.010120 13409 net.cpp:157] Top shape: 3 1024 12 12 (442368)
I0107 19:33:42.010123 13409 net.cpp:165] Memory required for data: 3228225528
I0107 19:33:42.010126 13409 layer_factory.hpp:77] Creating layer LFCN_4_5x5
I0107 19:33:42.010138 13409 net.cpp:100] Creating Layer LFCN_4_5x5
I0107 19:33:42.010143 13409 net.cpp:434] LFCN_4_5x5 <- pool6
I0107 19:33:42.010149 13409 net.cpp:408] LFCN_4_5x5 -> LFCN_4_5x5
I0107 19:33:42.016979 13409 net.cpp:150] Setting up LFCN_4_5x5
I0107 19:33:42.017068 13409 net.cpp:157] Top shape: 3 9 12 12 (3888)
I0107 19:33:42.017078 13409 net.cpp:165] Memory required for data: 3228241080
I0107 19:33:42.017108 13409 layer_factory.hpp:77] Creating layer LFCN_4_5x5_LFCN_4_5x5_0_split
I0107 19:33:42.017148 13409 net.cpp:100] Creating Layer LFCN_4_5x5_LFCN_4_5x5_0_split
I0107 19:33:42.017165 13409 net.cpp:434] LFCN_4_5x5_LFCN_4_5x5_0_split <- LFCN_4_5x5
I0107 19:33:42.017194 13409 net.cpp:408] LFCN_4_5x5_LFCN_4_5x5_0_split -> LFCN_4_5x5_LFCN_4_5x5_0_split_0
I0107 19:33:42.017230 13409 net.cpp:408] LFCN_4_5x5_LFCN_4_5x5_0_split -> LFCN_4_5x5_LFCN_4_5x5_0_split_1
I0107 19:33:42.017374 13409 net.cpp:150] Setting up LFCN_4_5x5_LFCN_4_5x5_0_split
I0107 19:33:42.017405 13409 net.cpp:157] Top shape: 3 9 12 12 (3888)
I0107 19:33:42.017416 13409 net.cpp:157] Top shape: 3 9 12 12 (3888)
I0107 19:33:42.017421 13409 net.cpp:165] Memory required for data: 3228272184
I0107 19:33:42.017431 13409 layer_factory.hpp:77] Creating layer detection_loss_4_5x5
I0107 19:33:42.017511 13409 net.cpp:100] Creating Layer detection_loss_4_5x5
I0107 19:33:42.017585 13409 net.cpp:434] detection_loss_4_5x5 <- LFCN_4_5x5_LFCN_4_5x5_0_split_0
I0107 19:33:42.017604 13409 net.cpp:434] detection_loss_4_5x5 <- label_4_5x5_data_7_split_0
I0107 19:33:42.017621 13409 net.cpp:408] detection_loss_4_5x5 -> loss_4_5x5
I0107 19:33:42.017649 13409 layer_factory.hpp:77] Creating layer detection_loss_4_5x5
I0107 19:33:42.018468 13409 net.cpp:150] Setting up detection_loss_4_5x5
I0107 19:33:42.018493 13409 net.cpp:157] Top shape: 1 1 1 2 (2)
I0107 19:33:42.018496 13409 net.cpp:160]     with loss weight 1
I0107 19:33:42.018520 13409 net.cpp:165] Memory required for data: 3228272192
I0107 19:33:42.018525 13409 layer_factory.hpp:77] Creating layer detection_accuracy_4_5x5
I0107 19:33:42.018539 13409 net.cpp:100] Creating Layer detection_accuracy_4_5x5
I0107 19:33:42.018548 13409 net.cpp:434] detection_accuracy_4_5x5 <- LFCN_4_5x5_LFCN_4_5x5_0_split_1
I0107 19:33:42.018554 13409 net.cpp:434] detection_accuracy_4_5x5 <- label_4_5x5_data_7_split_1
I0107 19:33:42.018563 13409 net.cpp:408] detection_accuracy_4_5x5 -> accuracy_4_5x5
I0107 19:33:42.018573 13409 net.cpp:408] detection_accuracy_4_5x5 -> boxiou_4_5x5
I0107 19:33:42.018620 13409 net.cpp:150] Setting up detection_accuracy_4_5x5
I0107 19:33:42.018626 13409 net.cpp:157] Top shape: 1 1 1 2 (2)
I0107 19:33:42.018630 13409 net.cpp:157] Top shape: 1 1 1 1 (1)
I0107 19:33:42.018633 13409 net.cpp:165] Memory required for data: 3228272204
I0107 19:33:42.018636 13409 net.cpp:228] detection_accuracy_4_5x5 does not need backward computation.
I0107 19:33:42.018640 13409 net.cpp:226] detection_loss_4_5x5 needs backward computation.
I0107 19:33:42.018645 13409 net.cpp:226] LFCN_4_5x5_LFCN_4_5x5_0_split needs backward computation.
I0107 19:33:42.018647 13409 net.cpp:226] LFCN_4_5x5 needs backward computation.
…
I0107 19:33:42.033535 13409 image_gt_data_layer.cpp:235] output label size 1 : 1,6,96,96
I0107 19:33:42.033584 13409 image_gt_data_layer.cpp:235] output label size 2 : 1,6,48,48
I0107 19:33:42.033630 13409 image_gt_data_layer.cpp:235] output label size 3 : 1,6,48,48
I0107 19:33:42.033679 13409 image_gt_data_layer.cpp:235] output label size 4 : 1,6,24,24
I0107 19:33:42.033737 13409 image_gt_data_layer.cpp:235] output label size 5 : 1,6,24,24
I0107 19:33:42.033785 13409 image_gt_data_layer.cpp:235] output label size 6 : 1,6,12,12
I0107 19:33:42.049281 13409 net.cpp:150] Setting up data
I0107 19:33:42.049336 13409 net.cpp:157] Top shape: 1 3 768 768 (1769472)
I0107 19:33:42.049342 13409 net.cpp:157] Top shape: 1 6 96 96 (55296)
I0107 19:33:42.049346 13409 net.cpp:157] Top shape: 1 6 96 96 (55296)
I0107 19:33:42.049350 13409 net.cpp:157] Top shape: 1 6 48 48 (13824)
I0107 19:33:42.049355 13409 net.cpp:157] Top shape: 1 6 48 48 (13824)
I0107 19:33:42.049360 13409 net.cpp:157] Top shape: 1 6 24 24 (3456)
I0107 19:33:42.049365 13409 net.cpp:157] Top shape: 1 6 24 24 (3456)
I0107 19:33:42.049369 13409 net.cpp:157] Top shape: 1 6 12 12 (864)
I0107 19:33:42.049372 13409 net.cpp:165] Memory required for data: 7661952
I0107 19:33:42.049386 13409 layer_factory.hpp:77] Creating layer label_1_5x5_data_1_split
I0107 19:33:42.049410 13409 net.cpp:100] Creating Layer label_1_5x5_data_1_split
I0107 19:33:42.049417 13409 net.cpp:434] label_1_5x5_data_1_split <- label_1_5x5
I0107 19:33:42.049423 13409 net.cpp:408] label_1_5x5_data_1_split -> label_1_5x5_data_1_split_0
I0107 19:33:42.049440 13409 net.cpp:408] label_1_5x5_data_1_split -> label_1_5x5_data_1_split_1
I0107 19:33:42.049630 13409 net.cpp:150] Setting up label_1_5x5_data_1_split
I0107 19:33:42.049665 13409 net.cpp:157] Top shape: 1 6 96 96 (55296)
I0107 19:33:42.049671 13409 net.cpp:157] Top shape: 1 6 96 96 (55296)
I0107 19:33:42.049675 13409 net.cpp:165] Memory required for data: 8104320
I0107 19:33:42.049684 13409 layer_factory.hpp:77] Creating layer label_1_7x7_data_2_split
I0107 19:33:42.049710 13409 net.cpp:100] Creating Layer label_1_7x7_data_2_split
I0107 19:33:42.049715 13409 net.cpp:434] label_1_7x7_data_2_split <- label_1_7x7
I0107 19:33:42.049723 13409 net.cpp:408] label_1_7x7_data_2_split -> label_1_7x7_data_2_split_0
I0107 19:33:42.049734 13409 net.cpp:408] label_1_7x7_data_2_split -> label_1_7x7_data_2_split_1
I0107 19:33:42.049778 13409 net.cpp:150] Setting up label_1_7x7_data_2_split
I0107 19:33:42.049783 13409 net.cpp:157] Top shape: 1 6 96 96 (55296)
I0107 19:33:42.049788 13409 net.cpp:157] Top shape: 1 6 96 96 (55296)
I0107 19:33:42.049793 13409 net.cpp:165] Memory required for data: 8546688
I0107 19:33:42.049796 13409 layer_factory.hpp:77] Creating layer label_2_5x5_data_3_split
I0107 19:33:42.049803 13409 net.cpp:100] Creating Layer label_2_5x5_data_3_split
I0107 19:33:42.049806 13409 net.cpp:434] label_2_5x5_data_3_split <- label_2_5x5
I0107 19:33:42.049813 13409 net.cpp:408] label_2_5x5_data_3_split -> label_2_5x5_data_3_split_0
I0107 19:33:42.049820 13409 net.cpp:408] label_2_5x5_data_3_split -> label_2_5x5_data_3_split_1
I0107 19:33:42.049862 13409 net.cpp:150] Setting up label_2_5x5_data_3_split
I0107 19:33:42.049867 13409 net.cpp:157] Top shape: 1 6 48 48 (13824)
I0107 19:33:42.049872 13409 net.cpp:157] Top shape: 1 6 48 48 (13824)
I0107 19:33:42.049875 13409 net.cpp:165] Memory required for data: 8657280
I0107 19:33:42.049880 13409 layer_factory.hpp:77] Creating layer label_2_7x7_data_4_split
I0107 19:33:42.049886 13409 net.cpp:100] Creating Layer label_2_7x7_data_4_split
I0107 19:33:42.049890 13409 net.cpp:434] label_2_7x7_data_4_split <- label_2_7x7
I0107 19:33:42.049898 13409 net.cpp:408] label_2_7x7_data_4_split -> label_2_7x7_data_4_split_0
I0107 19:33:42.049904 13409 net.cpp:408] label_2_7x7_data_4_split -> label_2_7x7_data_4_split_1
I0107 19:33:42.049942 13409 net.cpp:150] Setting up label_2_7x7_data_4_split
I0107 19:33:42.049947 13409 net.cpp:157] Top shape: 1 6 48 48 (13824)
I0107 19:33:42.049952 13409 net.cpp:157] Top shape: 1 6 48 48 (13824)
I0107 19:33:42.049955 13409 net.cpp:165] Memory required for data: 8767872
I0107 19:33:42.049959 13409 layer_factory.hpp:77] Creating layer label_3_5x5_data_5_split
I0107 19:33:42.049966 13409 net.cpp:100] Creating Layer label_3_5x5_data_5_split
I0107 19:33:42.049970 13409 net.cpp:434] label_3_5x5_data_5_split <- label_3_5x5
I0107 19:33:42.049975 13409 net.cpp:408] label_3_5x5_data_5_split -> label_3_5x5_data_5_split_0
I0107 19:33:42.049985 13409 net.cpp:408] label_3_5x5_data_5_split -> label_3_5x5_data_5_split_1
I0107 19:33:42.050022 13409 net.cpp:150] Setting up label_3_5x5_data_5_split
I0107 19:33:42.050030 13409 net.cpp:157] Top shape: 1 6 24 24 (3456)
I0107 19:33:42.050034 13409 net.cpp:157] Top shape: 1 6 24 24 (3456)
I0107 19:33:42.050038 13409 net.cpp:165] Memory required for data: 8795520
I0107 19:33:42.050042 13409 layer_factory.hpp:77] Creating layer label_3_7x7_data_6_split
I0107 19:33:42.050047 13409 net.cpp:100] Creating Layer label_3_7x7_data_6_split
I0107 19:33:42.050051 13409 net.cpp:434] label_3_7x7_data_6_split <- label_3_7x7
I0107 19:33:42.050056 13409 net.cpp:408] label_3_7x7_data_6_split -> label_3_7x7_data_6_split_0
I0107 19:33:42.050062 13409 net.cpp:408] label_3_7x7_data_6_split -> label_3_7x7_data_6_split_1
I0107 19:33:42.050101 13409 net.cpp:150] Setting up label_3_7x7_data_6_split
I0107 19:33:42.050107 13409 net.cpp:157] Top shape: 1 6 24 24 (3456)
I0107 19:33:42.050110 13409 net.cpp:157] Top shape: 1 6 24 24 (3456)
I0107 19:33:42.050114 13409 net.cpp:165] Memory required for data: 8823168
I0107 19:33:42.050117 13409 layer_factory.hpp:77] Creating layer label_4_5x5_data_7_split
I0107 19:33:42.050124 13409 net.cpp:100] Creating Layer label_4_5x5_data_7_split
I0107 19:33:42.050128 13409 net.cpp:434] label_4_5x5_data_7_split <- label_4_5x5
I0107 19:33:42.050137 13409 net.cpp:408] label_4_5x5_data_7_split -> label_4_5x5_data_7_split_0
I0107 19:33:42.050143 13409 net.cpp:408] label_4_5x5_data_7_split -> label_4_5x5_data_7_split_1
I0107 19:33:42.050181 13409 net.cpp:150] Setting up label_4_5x5_data_7_split
I0107 19:33:42.050186 13409 net.cpp:157] Top shape: 1 6 12 12 (864)
I0107 19:33:42.050191 13409 net.cpp:157] Top shape: 1 6 12 12 (864)
I0107 19:33:42.050194 13409 net.cpp:165] Memory required for data: 8830080
I0107 19:33:42.050199 13409 layer_factory.hpp:77] Creating layer conv1
I0107 19:33:42.050215 13409 net.cpp:100] Creating Layer conv1
I0107 19:33:42.050220 13409 net.cpp:434] conv1 <- data
I0107 19:33:42.050226 13409 net.cpp:408] conv1 -> conv1
I0107 19:33:42.054455 13409 net.cpp:150] Setting up conv1
I0107 19:33:42.054491 13409 net.cpp:157] Top shape: 1 32 384 384 (4718592)
I0107 19:33:42.054495 13409 net.cpp:165] Memory required for data: 27704448
I0107 19:33:42.054509 13409 layer_factory.hpp:77] Creating layer conv1/bn
I0107 19:33:42.054524 13409 net.cpp:100] Creating Layer conv1/bn
I0107 19:33:42.054530 13409 net.cpp:434] conv1/bn <- conv1
I0107 19:33:42.054538 13409 net.cpp:395] conv1/bn -> conv1 (in-place)
I0107 19:33:42.055835 13409 net.cpp:150] Setting up conv1/bn
I0107 19:33:42.055847 13409 net.cpp:157] Top shape: 1 32 384 384 (4718592)
I0107 19:33:42.055851 13409 net.cpp:165] Memory required for data: 46578816
I0107 19:33:42.055863 13409 layer_factory.hpp:77] Creating layer conv1/scale
I0107 19:33:42.055874 13409 net.cpp:100] Creating Layer conv1/scale
I0107 19:33:42.055878 13409 net.cpp:434] conv1/scale <- conv1
I0107 19:33:42.055886 13409 net.cpp:395] conv1/scale -> conv1 (in-place)
I0107 19:33:42.055953 13409 layer_factory.hpp:77] Creating layer conv1/scale
I0107 19:33:42.056229 13409 net.cpp:150] Setting up conv1/scale
I0107 19:33:42.056237 13409 net.cpp:157] Top shape: 1 32 384 384 (4718592)
I0107 19:33:42.056241 13409 net.cpp:165] Memory required for data: 65453184
I0107 19:33:42.056249 13409 layer_factory.hpp:77] Creating layer relu1
I0107 19:33:42.056257 13409 net.cpp:100] Creating Layer relu1
I0107 19:33:42.056260 13409 net.cpp:434] relu1 <- conv1
I0107 19:33:42.056267 13409 net.cpp:395] relu1 -> conv1 (in-place)
I0107 19:33:42.056500 13409 net.cpp:150] Setting up relu1
I0107 19:33:42.056509 13409 net.cpp:157] Top shape: 1 32 384 384 (4718592)
I0107 19:33:42.056512 13409 net.cpp:165] Memory required for data: 84327552
I0107 19:33:42.056516 13409 layer_factory.hpp:77] Creating layer conv2_1/dw
I0107 19:33:42.056529 13409 net.cpp:100] Creating Layer conv2_1/dw
I0107 19:33:42.056532 13409 net.cpp:434] conv2_1/dw <- conv1
I0107 19:33:42.056540 13409 net.cpp:408] conv2_1/dw -> conv2_1/dw
I0107 19:33:42.056795 13409 net.cpp:150] Setting up conv2_1/dw
I0107 19:33:42.056803 13409 net.cpp:157] Top shape: 1 32 384 384 (4718592)
I0107 19:33:42.056807 13409 net.cpp:165] Memory required for data: 103201920
I0107 19:33:42.056813 13409 layer_factory.hpp:77] Creating layer conv2_1/dw/bn
I0107 19:33:42.056820 13409 net.cpp:100] Creating Layer conv2_1/dw/bn
I0107 19:33:42.056824 13409 net.cpp:434] conv2_1/dw/bn <- conv2_1/dw
I0107 19:33:42.056829 13409 net.cpp:395] conv2_1/dw/bn -> conv2_1/dw (in-place)
I0107 19:33:42.058051 13409 net.cpp:150] Setting up conv2_1/dw/bn
I0107 19:33:42.058064 13409 net.cpp:157] Top shape: 1 32 384 384 (4718592)
I0107 19:33:42.058068 13409 net.cpp:165] Memory required for data: 122076288
I0107 19:33:42.058080 13409 layer_factory.hpp:77] Creating layer conv2_1/dw/scale
I0107 19:33:42.058091 13409 net.cpp:100] Creating Layer conv2_1/dw/scale
I0107 19:33:42.058095 13409 net.cpp:434] conv2_1/dw/scale <- conv2_1/dw
I0107 19:33:42.058102 13409 net.cpp:395] conv2_1/dw/scale -> conv2_1/dw (in-place)
I0107 19:33:42.058147 13409 layer_factory.hpp:77] Creating layer conv2_1/dw/scale
I0107 19:33:42.058434 13409 net.cpp:150] Setting up conv2_1/dw/scale
I0107 19:33:42.058442 13409 net.cpp:157] Top shape: 1 32 384 384 (4718592)
I0107 19:33:42.058445 13409 net.cpp:165] Memory required for data: 140950656
I0107 19:33:42.058451 13409 layer_factory.hpp:77] Creating layer relu2_1/dw
I0107 19:33:42.058459 13409 net.cpp:100] Creating Layer relu2_1/dw
I0107 19:33:42.058463 13409 net.cpp:434] relu2_1/dw <- conv2_1/dw
I0107 19:33:42.058468 13409 net.cpp:395] relu2_1/dw -> conv2_1/dw (in-place)
I0107 19:33:42.058677 13409 net.cpp:150] Setting up relu2_1/dw
I0107 19:33:42.058686 13409 net.cpp:157] Top shape: 1 32 384 384 (4718592)
I0107 19:33:42.058689 13409 net.cpp:165] Memory required for data: 159825024
I0107 19:33:42.058693 13409 layer_factory.hpp:77] Creating layer conv2_1/sep
I0107 19:33:42.058707 13409 net.cpp:100] Creating Layer conv2_1/sep
I0107 19:33:42.058712 13409 net.cpp:434] conv2_1/sep <- conv2_1/dw
I0107 19:33:42.058717 13409 net.cpp:408] conv2_1/sep -> conv2_1/sep
I0107 19:33:42.060380 13409 net.cpp:150] Setting up conv2_1/sep
I0107 19:33:42.060395 13409 net.cpp:157] Top shape: 1 64 384 384 (9437184)
I0107 19:33:42.060400 13409 net.cpp:165] Memory required for data: 197573760
I0107 19:33:42.060407 13409 layer_factory.hpp:77] Creating layer conv2_1/sep/bn
I0107 19:33:42.060416 13409 net.cpp:100] Creating Layer conv2_1/sep/bn
I0107 19:33:42.060421 13409 net.cpp:434] conv2_1/sep/bn <- conv2_1/sep
I0107 19:33:42.060431 13409 net.cpp:395] conv2_1/sep/bn -> conv2_1/sep (in-place)
I0107 19:33:42.062340 13409 net.cpp:150] Setting up conv2_1/sep/bn
I0107 19:33:42.062368 13409 net.cpp:157] Top shape: 1 64 384 384 (9437184)
I0107 19:33:42.062373 13409 net.cpp:165] Memory required for data: 235322496
I0107 19:33:42.062389 13409 layer_factory.hpp:77] Creating layer conv2_1/sep/scale
I0107 19:33:42.062404 13409 net.cpp:100] Creating Layer conv2_1/sep/scale
I0107 19:33:42.062410 13409 net.cpp:434] conv2_1/sep/scale <- conv2_1/sep
I0107 19:33:42.062419 13409 net.cpp:395] conv2_1/sep/scale -> conv2_1/sep (in-place)
I0107 19:33:42.062477 13409 layer_factory.hpp:77] Creating layer conv2_1/sep/scale
I0107 19:33:42.062777 13409 net.cpp:150] Setting up conv2_1/sep/scale
I0107 19:33:42.062784 13409 net.cpp:157] Top shape: 1 64 384 384 (9437184)
I0107 19:33:42.062788 13409 net.cpp:165] Memory required for data: 273071232
I0107 19:33:42.062800 13409 layer_factory.hpp:77] Creating layer relu2_1/sep
I0107 19:33:42.062808 13409 net.cpp:100] Creating Layer relu2_1/sep
I0107 19:33:42.062813 13409 net.cpp:434] relu2_1/sep <- conv2_1/sep
I0107 19:33:42.062819 13409 net.cpp:395] relu2_1/sep -> conv2_1/sep (in-place)
I0107 19:33:42.063518 13409 net.cpp:150] Setting up relu2_1/sep
I0107 19:33:42.063529 13409 net.cpp:157] Top shape: 1 64 384 384 (9437184)
I0107 19:33:42.063534 13409 net.cpp:165] Memory required for data: 310819968
I0107 19:33:42.063539 13409 layer_factory.hpp:77] Creating layer conv2_2/dw
I0107 19:33:42.063550 13409 net.cpp:100] Creating Layer conv2_2/dw
I0107 19:33:42.063555 13409 net.cpp:434] conv2_2/dw <- conv2_1/sep
I0107 19:33:42.063562 13409 net.cpp:408] conv2_2/dw -> conv2_2/dw
I0107 19:33:42.063824 13409 net.cpp:150] Setting up conv2_2/dw
I0107 19:33:42.063832 13409 net.cpp:157] Top shape: 1 64 192 192 (2359296)
I0107 19:33:42.063835 13409 net.cpp:165] Memory required for data: 320257152
I0107 19:33:42.063841 13409 layer_factory.hpp:77] Creating layer conv2_2/dw/bn
I0107 19:33:42.063848 13409 net.cpp:100] Creating Layer conv2_2/dw/bn
I0107 19:33:42.063853 13409 net.cpp:434] conv2_2/dw/bn <- conv2_2/dw
I0107 19:33:42.063858 13409 net.cpp:395] conv2_2/dw/bn -> conv2_2/dw (in-place)
I0107 19:33:42.064118 13409 net.cpp:150] Setting up conv2_2/dw/bn
I0107 19:33:42.064126 13409 net.cpp:157] Top shape: 1 64 192 192 (2359296)
I0107 19:33:42.064131 13409 net.cpp:165] Memory required for data: 329694336
I0107 19:33:42.064138 13409 layer_factory.hpp:77] Creating layer conv2_2/dw/scale
I0107 19:33:42.064146 13409 net.cpp:100] Creating Layer conv2_2/dw/scale
I0107 19:33:42.064151 13409 net.cpp:434] conv2_2/dw/scale <- conv2_2/dw
I0107 19:33:42.064155 13409 net.cpp:395] conv2_2/dw/scale -> conv2_2/dw (in-place)
I0107 19:33:42.064198 13409 layer_factory.hpp:77] Creating layer conv2_2/dw/scale
I0107 19:33:42.064376 13409 net.cpp:150] Setting up conv2_2/dw/scale
I0107 19:33:42.064404 13409 net.cpp:157] Top shape: 1 64 192 192 (2359296)
I0107 19:33:42.064407 13409 net.cpp:165] Memory required for data: 339131520
I0107 19:33:42.064416 13409 layer_factory.hpp:77] Creating layer relu2_2/dw
I0107 19:33:42.064426 13409 net.cpp:100] Creating Layer relu2_2/dw
I0107 19:33:42.064431 13409 net.cpp:434] relu2_2/dw <- conv2_2/dw
I0107 19:33:42.064437 13409 net.cpp:395] relu2_2/dw -> conv2_2/dw (in-place)
I0107 19:33:42.064735 13409 net.cpp:150] Setting up relu2_2/dw
I0107 19:33:42.064749 13409 net.cpp:157] Top shape: 1 64 192 192 (2359296)
I0107 19:33:42.064754 13409 net.cpp:165] Memory required for data: 348568704
I0107 19:33:42.064761 13409 layer_factory.hpp:77] Creating layer conv2_2/sep
I0107 19:33:42.064777 13409 net.cpp:100] Creating Layer conv2_2/sep
I0107 19:33:42.064785 13409 net.cpp:434] conv2_2/sep <- conv2_2/dw
I0107 19:33:42.064796 13409 net.cpp:408] conv2_2/sep -> conv2_2/sep
I0107 19:33:42.067591 13409 net.cpp:150] Setting up conv2_2/sep
I0107 19:33:42.067643 13409 net.cpp:157] Top shape: 1 128 192 192 (4718592)
I0107 19:33:42.067652 13409 net.cpp:165] Memory required for data: 367443072
I0107 19:33:42.067672 13409 layer_factory.hpp:77] Creating layer conv2_2/sep/bn
I0107 19:33:42.067703 13409 net.cpp:100] Creating Layer conv2_2/sep/bn
I0107 19:33:42.067718 13409 net.cpp:434] conv2_2/sep/bn <- conv2_2/sep
I0107 19:33:42.067737 13409 net.cpp:395] conv2_2/sep/bn -> conv2_2/sep (in-place)
I0107 19:33:42.068295 13409 net.cpp:150] Setting up conv2_2/sep/bn
I0107 19:33:42.068307 13409 net.cpp:157] Top shape: 1 128 192 192 (4718592)
I0107 19:33:42.068315 13409 net.cpp:165] Memory required for data: 386317440
I0107 19:33:42.068334 13409 layer_factory.hpp:77] Creating layer conv2_2/sep/scale
I0107 19:33:42.068359 13409 net.cpp:100] Creating Layer conv2_2/sep/scale
I0107 19:33:42.068367 13409 net.cpp:434] conv2_2/sep/scale <- conv2_2/sep
I0107 19:33:42.068382 13409 net.cpp:395] conv2_2/sep/scale -> conv2_2/sep (in-place)
I0107 19:33:42.068480 13409 layer_factory.hpp:77] Creating layer conv2_2/sep/scale
I0107 19:33:42.068734 13409 net.cpp:150] Setting up conv2_2/sep/scale
I0107 19:33:42.068748 13409 net.cpp:157] Top shape: 1 128 192 192 (4718592)
I0107 19:33:42.068756 13409 net.cpp:165] Memory required for data: 405191808
I0107 19:33:42.068785 13409 layer_factory.hpp:77] Creating layer relu2_2/sep
I0107 19:33:42.068837 13409 net.cpp:100] Creating Layer relu2_2/sep
I0107 19:33:42.068872 13409 net.cpp:434] relu2_2/sep <- conv2_2/sep
I0107 19:33:42.068953 13409 net.cpp:395] relu2_2/sep -> conv2_2/sep (in-place)
I0107 19:33:42.070258 13409 net.cpp:150] Setting up relu2_2/sep
I0107 19:33:42.070322 13409 net.cpp:157] Top shape: 1 128 192 192 (4718592)
I0107 19:33:42.070327 13409 net.cpp:165] Memory required for data: 424066176
I0107 19:33:42.070335 13409 layer_factory.hpp:77] Creating layer conv3_1/dw
I0107 19:33:42.070363 13409 net.cpp:100] Creating Layer conv3_1/dw
I0107 19:33:42.070374 13409 net.cpp:434] conv3_1/dw <- conv2_2/sep
I0107 19:33:42.070389 13409 net.cpp:408] conv3_1/dw -> conv3_1/dw
I0107 19:33:42.070749 13409 net.cpp:150] Setting up conv3_1/dw
I0107 19:33:42.070757 13409 net.cpp:157] Top shape: 1 128 192 192 (4718592)
I0107 19:33:42.070762 13409 net.cpp:165] Memory required for data: 442940544
I0107 19:33:42.070768 13409 layer_factory.hpp:77] Creating layer conv3_1/dw/bn
I0107 19:33:42.070777 13409 net.cpp:100] Creating Layer conv3_1/dw/bn
I0107 19:33:42.070782 13409 net.cpp:434] conv3_1/dw/bn <- conv3_1/dw
I0107 19:33:42.070789 13409 net.cpp:395] conv3_1/dw/bn -> conv3_1/dw (in-place)
I0107 19:33:42.071066 13409 net.cpp:150] Setting up conv3_1/dw/bn
I0107 19:33:42.071074 13409 net.cpp:157] Top shape: 1 128 192 192 (4718592)
I0107 19:33:42.071079 13409 net.cpp:165] Memory required for data: 461814912
I0107 19:33:42.071097 13409 layer_factory.hpp:77] Creating layer conv3_1/dw/scale
I0107 19:33:42.071107 13409 net.cpp:100] Creating Layer conv3_1/dw/scale
I0107 19:33:42.071112 13409 net.cpp:434] conv3_1/dw/scale <- conv3_1/dw
I0107 19:33:42.071120 13409 net.cpp:395] conv3_1/dw/scale -> conv3_1/dw (in-place)
I0107 19:33:42.071182 13409 layer_factory.hpp:77] Creating layer conv3_1/dw/scale
I0107 19:33:42.071530 13409 net.cpp:150] Setting up conv3_1/dw/scale
I0107 19:33:42.071621 13409 net.cpp:157] Top shape: 1 128 192 192 (4718592)
I0107 19:33:42.071655 13409 net.cpp:165] Memory required for data: 480689280
I0107 19:33:42.071693 13409 layer_factory.hpp:77] Creating layer relu3_1/dw
I0107 19:33:42.071770 13409 net.cpp:100] Creating Layer relu3_1/dw
I0107 19:33:42.071796 13409 net.cpp:434] relu3_1/dw <- conv3_1/dw
I0107 19:33:42.071822 13409 net.cpp:395] relu3_1/dw -> conv3_1/dw (in-place)
I0107 19:33:42.072252 13409 net.cpp:150] Setting up relu3_1/dw
I0107 19:33:42.072263 13409 net.cpp:157] Top shape: 1 128 192 192 (4718592)
I0107 19:33:42.072268 13409 net.cpp:165] Memory required for data: 499563648
I0107 19:33:42.072271 13409 layer_factory.hpp:77] Creating layer conv3_1/sep
I0107 19:33:42.072296 13409 net.cpp:100] Creating Layer conv3_1/sep
I0107 19:33:42.072300 13409 net.cpp:434] conv3_1/sep <- conv3_1/dw
I0107 19:33:42.072314 13409 net.cpp:408] conv3_1/sep -> conv3_1/sep
I0107 19:33:42.074160 13409 net.cpp:150] Setting up conv3_1/sep
I0107 19:33:42.074173 13409 net.cpp:157] Top shape: 1 128 192 192 (4718592)
I0107 19:33:42.074178 13409 net.cpp:165] Memory required for data: 518438016
I0107 19:33:42.074184 13409 layer_factory.hpp:77] Creating layer conv3_1/sep/bn
I0107 19:33:42.074195 13409 net.cpp:100] Creating Layer conv3_1/sep/bn
I0107 19:33:42.074199 13409 net.cpp:434] conv3_1/sep/bn <- conv3_1/sep
I0107 19:33:42.074206 13409 net.cpp:395] conv3_1/sep/bn -> conv3_1/sep (in-place)
I0107 19:33:42.075351 13409 net.cpp:150] Setting up conv3_1/sep/bn
I0107 19:33:42.075362 13409 net.cpp:157] Top shape: 1 128 192 192 (4718592)
I0107 19:33:42.075366 13409 net.cpp:165] Memory required for data: 537312384
I0107 19:33:42.075373 13409 layer_factory.hpp:77] Creating layer conv3_1/sep/scale
I0107 19:33:42.075387 13409 net.cpp:100] Creating Layer conv3_1/sep/scale
I0107 19:33:42.075390 13409 net.cpp:434] conv3_1/sep/scale <- conv3_1/sep
I0107 19:33:42.075397 13409 net.cpp:395] conv3_1/sep/scale -> conv3_1/sep (in-place)
I0107 19:33:42.075435 13409 layer_factory.hpp:77] Creating layer conv3_1/sep/scale
I0107 19:33:42.075569 13409 net.cpp:150] Setting up conv3_1/sep/scale
I0107 19:33:42.075575 13409 net.cpp:157] Top shape: 1 128 192 192 (4718592)
I0107 19:33:42.075578 13409 net.cpp:165] Memory required for data: 556186752
I0107 19:33:42.075583 13409 layer_factory.hpp:77] Creating layer relu3_1/sep
I0107 19:33:42.075590 13409 net.cpp:100] Creating Layer relu3_1/sep
I0107 19:33:42.075593 13409 net.cpp:434] relu3_1/sep <- conv3_1/sep
I0107 19:33:42.075599 13409 net.cpp:395] relu3_1/sep -> conv3_1/sep (in-place)
I0107 19:33:42.075858 13409 net.cpp:150] Setting up relu3_1/sep
I0107 19:33:42.075867 13409 net.cpp:157] Top shape: 1 128 192 192 (4718592)
I0107 19:33:42.075870 13409 net.cpp:165] Memory required for data: 575061120
I0107 19:33:42.075875 13409 layer_factory.hpp:77] Creating layer conv3_2/dw
I0107 19:33:42.075884 13409 net.cpp:100] Creating Layer conv3_2/dw
I0107 19:33:42.075887 13409 net.cpp:434] conv3_2/dw <- conv3_1/sep
I0107 19:33:42.075893 13409 net.cpp:408] conv3_2/dw -> conv3_2/dw
I0107 19:33:42.076123 13409 net.cpp:150] Setting up conv3_2/dw
I0107 19:33:42.076130 13409 net.cpp:157] Top shape: 1 128 96 96 (1179648)
I0107 19:33:42.076133 13409 net.cpp:165] Memory required for data: 579779712
I0107 19:33:42.076138 13409 layer_factory.hpp:77] Creating layer conv3_2/dw/bn
I0107 19:33:42.076143 13409 net.cpp:100] Creating Layer conv3_2/dw/bn
I0107 19:33:42.076148 13409 net.cpp:434] conv3_2/dw/bn <- conv3_2/dw
I0107 19:33:42.076151 13409 net.cpp:395] conv3_2/dw/bn -> conv3_2/dw (in-place)
I0107 19:33:42.076339 13409 net.cpp:150] Setting up conv3_2/dw/bn
I0107 19:33:42.076344 13409 net.cpp:157] Top shape: 1 128 96 96 (1179648)
I0107 19:33:42.076349 13409 net.cpp:165] Memory required for data: 584498304
I0107 19:33:42.076354 13409 layer_factory.hpp:77] Creating layer conv3_2/dw/scale
I0107 19:33:42.076361 13409 net.cpp:100] Creating Layer conv3_2/dw/scale
I0107 19:33:42.076365 13409 net.cpp:434] conv3_2/dw/scale <- conv3_2/dw
I0107 19:33:42.076370 13409 net.cpp:395] conv3_2/dw/scale -> conv3_2/dw (in-place)
I0107 19:33:42.076405 13409 layer_factory.hpp:77] Creating layer conv3_2/dw/scale
I0107 19:33:42.077766 13409 net.cpp:150] Setting up conv3_2/dw/scale
I0107 19:33:42.077796 13409 net.cpp:157] Top shape: 1 128 96 96 (1179648)
I0107 19:33:42.077802 13409 net.cpp:165] Memory required for data: 589216896
I0107 19:33:42.077816 13409 layer_factory.hpp:77] Creating layer relu3_2/dw
I0107 19:33:42.077831 13409 net.cpp:100] Creating Layer relu3_2/dw
I0107 19:33:42.077839 13409 net.cpp:434] relu3_2/dw <- conv3_2/dw
I0107 19:33:42.077847 13409 net.cpp:395] relu3_2/dw -> conv3_2/dw (in-place)
I0107 19:33:42.078845 13409 net.cpp:150] Setting up relu3_2/dw
I0107 19:33:42.078861 13409 net.cpp:157] Top shape: 1 128 96 96 (1179648)
I0107 19:33:42.078866 13409 net.cpp:165] Memory required for data: 593935488
I0107 19:33:42.078871 13409 layer_factory.hpp:77] Creating layer conv3_2/sep
I0107 19:33:42.078886 13409 net.cpp:100] Creating Layer conv3_2/sep
I0107 19:33:42.078891 13409 net.cpp:434] conv3_2/sep <- conv3_2/dw
I0107 19:33:42.078898 13409 net.cpp:408] conv3_2/sep -> conv3_2/sep
I0107 19:33:42.081238 13409 net.cpp:150] Setting up conv3_2/sep
I0107 19:33:42.081250 13409 net.cpp:157] Top shape: 1 256 96 96 (2359296)
I0107 19:33:42.081254 13409 net.cpp:165] Memory required for data: 603372672
I0107 19:33:42.081262 13409 layer_factory.hpp:77] Creating layer conv3_2/sep/bn
I0107 19:33:42.081274 13409 net.cpp:100] Creating Layer conv3_2/sep/bn
I0107 19:33:42.081279 13409 net.cpp:434] conv3_2/sep/bn <- conv3_2/sep
I0107 19:33:42.081284 13409 net.cpp:395] conv3_2/sep/bn -> conv3_2/sep (in-place)
I0107 19:33:42.081545 13409 net.cpp:150] Setting up conv3_2/sep/bn
I0107 19:33:42.081552 13409 net.cpp:157] Top shape: 1 256 96 96 (2359296)
I0107 19:33:42.081557 13409 net.cpp:165] Memory required for data: 612809856
I0107 19:33:42.081565 13409 layer_factory.hpp:77] Creating layer conv3_2/sep/scale
I0107 19:33:42.081579 13409 net.cpp:100] Creating Layer conv3_2/sep/scale
I0107 19:33:42.081583 13409 net.cpp:434] conv3_2/sep/scale <- conv3_2/sep
I0107 19:33:42.081589 13409 net.cpp:395] conv3_2/sep/scale -> conv3_2/sep (in-place)
I0107 19:33:42.081636 13409 layer_factory.hpp:77] Creating layer conv3_2/sep/scale
I0107 19:33:42.081833 13409 net.cpp:150] Setting up conv3_2/sep/scale
I0107 19:33:42.081843 13409 net.cpp:157] Top shape: 1 256 96 96 (2359296)
I0107 19:33:42.081847 13409 net.cpp:165] Memory required for data: 622247040
I0107 19:33:42.081854 13409 layer_factory.hpp:77] Creating layer relu3_2/sep
I0107 19:33:42.081866 13409 net.cpp:100] Creating Layer relu3_2/sep
I0107 19:33:42.081869 13409 net.cpp:434] relu3_2/sep <- conv3_2/sep
I0107 19:33:42.081876 13409 net.cpp:395] relu3_2/sep -> conv3_2/sep (in-place)
I0107 19:33:42.082296 13409 net.cpp:150] Setting up relu3_2/sep
I0107 19:33:42.082360 13409 net.cpp:157] Top shape: 1 256 96 96 (2359296)
I0107 19:33:42.082374 13409 net.cpp:165] Memory required for data: 631684224
I0107 19:33:42.082391 13409 layer_factory.hpp:77] Creating layer conv4_1/dw
I0107 19:33:42.082433 13409 net.cpp:100] Creating Layer conv4_1/dw
I0107 19:33:42.082449 13409 net.cpp:434] conv4_1/dw <- conv3_2/sep
I0107 19:33:42.082471 13409 net.cpp:408] conv4_1/dw -> conv4_1/dw
I0107 19:33:42.083451 13409 net.cpp:150] Setting up conv4_1/dw
I0107 19:33:42.083480 13409 net.cpp:157] Top shape: 1 256 96 96 (2359296)
I0107 19:33:42.083490 13409 net.cpp:165] Memory required for data: 641121408
I0107 19:33:42.083508 13409 layer_factory.hpp:77] Creating layer conv4_1/dw/bn
I0107 19:33:42.083534 13409 net.cpp:100] Creating Layer conv4_1/dw/bn
I0107 19:33:42.083545 13409 net.cpp:434] conv4_1/dw/bn <- conv4_1/dw
I0107 19:33:42.083564 13409 net.cpp:395] conv4_1/dw/bn -> conv4_1/dw (in-place)
I0107 19:33:42.084022 13409 net.cpp:150] Setting up conv4_1/dw/bn
I0107 19:33:42.084036 13409 net.cpp:157] Top shape: 1 256 96 96 (2359296)
I0107 19:33:42.084044 13409 net.cpp:165] Memory required for data: 650558592
I0107 19:33:42.084060 13409 layer_factory.hpp:77] Creating layer conv4_1/dw/scale
I0107 19:33:42.084079 13409 net.cpp:100] Creating Layer conv4_1/dw/scale
I0107 19:33:42.084086 13409 net.cpp:434] conv4_1/dw/scale <- conv4_1/dw
I0107 19:33:42.084098 13409 net.cpp:395] conv4_1/dw/scale -> conv4_1/dw (in-place)
I0107 19:33:42.084182 13409 layer_factory.hpp:77] Creating layer conv4_1/dw/scale
I0107 19:33:42.084429 13409 net.cpp:150] Setting up conv4_1/dw/scale
I0107 19:33:42.084442 13409 net.cpp:157] Top shape: 1 256 96 96 (2359296)
I0107 19:33:42.084450 13409 net.cpp:165] Memory required for data: 659995776
I0107 19:33:42.084461 13409 layer_factory.hpp:77] Creating layer relu4_1/dw
I0107 19:33:42.084475 13409 net.cpp:100] Creating Layer relu4_1/dw
I0107 19:33:42.084481 13409 net.cpp:434] relu4_1/dw <- conv4_1/dw
I0107 19:33:42.084493 13409 net.cpp:395] relu4_1/dw -> conv4_1/dw (in-place)
I0107 19:33:42.084923 13409 net.cpp:150] Setting up relu4_1/dw
I0107 19:33:42.084940 13409 net.cpp:157] Top shape: 1 256 96 96 (2359296)
I0107 19:33:42.084947 13409 net.cpp:165] Memory required for data: 669432960
I0107 19:33:42.084956 13409 layer_factory.hpp:77] Creating layer conv4_1/sep
I0107 19:33:42.084976 13409 net.cpp:100] Creating Layer conv4_1/sep
I0107 19:33:42.084985 13409 net.cpp:434] conv4_1/sep <- conv4_1/dw
I0107 19:33:42.084998 13409 net.cpp:408] conv4_1/sep -> conv4_1/sep
I0107 19:33:42.091428 13409 net.cpp:150] Setting up conv4_1/sep
I0107 19:33:42.091457 13409 net.cpp:157] Top shape: 1 256 96 96 (2359296)
I0107 19:33:42.091466 13409 net.cpp:165] Memory required for data: 678870144
I0107 19:33:42.091480 13409 layer_factory.hpp:77] Creating layer conv4_1/sep/bn
I0107 19:33:42.091495 13409 net.cpp:100] Creating Layer conv4_1/sep/bn
I0107 19:33:42.091506 13409 net.cpp:434] conv4_1/sep/bn <- conv4_1/sep
I0107 19:33:42.091519 13409 net.cpp:395] conv4_1/sep/bn -> conv4_1/sep (in-place)
I0107 19:33:42.092008 13409 net.cpp:150] Setting up conv4_1/sep/bn
I0107 19:33:42.092022 13409 net.cpp:157] Top shape: 1 256 96 96 (2359296)
I0107 19:33:42.092031 13409 net.cpp:165] Memory required for data: 688307328
I0107 19:33:42.092048 13409 layer_factory.hpp:77] Creating layer conv4_1/sep/scale
I0107 19:33:42.092067 13409 net.cpp:100] Creating Layer conv4_1/sep/scale
I0107 19:33:42.092074 13409 net.cpp:434] conv4_1/sep/scale <- conv4_1/sep
I0107 19:33:42.093737 13409 net.cpp:395] conv4_1/sep/scale -> conv4_1/sep (in-place)
I0107 19:33:42.093837 13409 layer_factory.hpp:77] Creating layer conv4_1/sep/scale
I0107 19:33:42.094017 13409 net.cpp:150] Setting up conv4_1/sep/scale
I0107 19:33:42.094027 13409 net.cpp:157] Top shape: 1 256 96 96 (2359296)
I0107 19:33:42.094034 13409 net.cpp:165] Memory required for data: 697744512
I0107 19:33:42.094056 13409 layer_factory.hpp:77] Creating layer relu4_1/sep
I0107 19:33:42.094066 13409 net.cpp:100] Creating Layer relu4_1/sep
I0107 19:33:42.094072 13409 net.cpp:434] relu4_1/sep <- conv4_1/sep
I0107 19:33:42.094081 13409 net.cpp:395] relu4_1/sep -> conv4_1/sep (in-place)
I0107 19:33:42.094313 13409 net.cpp:150] Setting up relu4_1/sep
I0107 19:33:42.094323 13409 net.cpp:157] Top shape: 1 256 96 96 (2359296)
I0107 19:33:42.094327 13409 net.cpp:165] Memory required for data: 707181696
I0107 19:33:42.094331 13409 layer_factory.hpp:77] Creating layer conv4_1/sep_relu4_1/sep_0_split
I0107 19:33:42.094339 13409 net.cpp:100] Creating Layer conv4_1/sep_relu4_1/sep_0_split
I0107 19:33:42.094344 13409 net.cpp:434] conv4_1/sep_relu4_1/sep_0_split <- conv4_1/sep
I0107 19:33:42.094357 13409 net.cpp:408] conv4_1/sep_relu4_1/sep_0_split -> conv4_1/sep_relu4_1/sep_0_split_0
I0107 19:33:42.094367 13409 net.cpp:408] conv4_1/sep_relu4_1/sep_0_split -> conv4_1/sep_relu4_1/sep_0_split_1
I0107 19:33:42.094419 13409 net.cpp:150] Setting up conv4_1/sep_relu4_1/sep_0_split
I0107 19:33:42.094426 13409 net.cpp:157] Top shape: 1 256 96 96 (2359296)
I0107 19:33:42.094432 13409 net.cpp:157] Top shape: 1 256 96 96 (2359296)
I0107 19:33:42.094436 13409 net.cpp:165] Memory required for data: 726056064
I0107 19:33:42.094440 13409 layer_factory.hpp:77] Creating layer loss1_conv1
I0107 19:33:42.094453 13409 net.cpp:100] Creating Layer loss1_conv1
I0107 19:33:42.094458 13409 net.cpp:434] loss1_conv1 <- conv4_1/sep_relu4_1/sep_0_split_0
I0107 19:33:42.094470 13409 net.cpp:408] loss1_conv1 -> loss1_conv1
I0107 19:33:42.136337 13409 net.cpp:150] Setting up loss1_conv1
…
I0107 19:33:42.153048 13409 net.cpp:395] conv4_2/dw/scale -> conv4_2/dw (in-place)
I0107 19:33:42.153090 13409 layer_factory.hpp:77] Creating layer conv4_2/dw/scale
I0107 19:33:42.153195 13409 net.cpp:150] Setting up conv4_2/dw/scale
I0107 19:33:42.153201 13409 net.cpp:157] Top shape: 1 256 48 48 (589824)
I0107 19:33:42.153204 13409 net.cpp:165] Memory required for data: 810622120
I0107 19:33:42.153210 13409 layer_factory.hpp:77] Creating layer relu4_2/dw
I0107 19:33:42.153216 13409 net.cpp:100] Creating Layer relu4_2/dw
I0107 19:33:42.153219 13409 net.cpp:434] relu4_2/dw <- conv4_2/dw
I0107 19:33:42.153225 13409 net.cpp:395] relu4_2/dw -> conv4_2/dw (in-place)
I0107 19:33:42.153462 13409 net.cpp:150] Setting up relu4_2/dw
I0107 19:33:42.153470 13409 net.cpp:157] Top shape: 1 256 48 48 (589824)
I0107 19:33:42.153472 13409 net.cpp:165] Memory required for data: 812981416
I0107 19:33:42.153476 13409 layer_factory.hpp:77] Creating layer conv4_2/sep
I0107 19:33:42.153486 13409 net.cpp:100] Creating Layer conv4_2/sep
I0107 19:33:42.153491 13409 net.cpp:434] conv4_2/sep <- conv4_2/dw
I0107 19:33:42.153496 13409 net.cpp:408] conv4_2/sep -> conv4_2/sep
I0107 19:33:42.159389 13409 net.cpp:150] Setting up conv4_2/sep
I0107 19:33:42.159422 13409 net.cpp:157] Top shape: 1 512 48 48 (1179648)
I0107 19:33:42.159426 13409 net.cpp:165] Memory required for data: 817700008
I0107 19:33:42.159435 13409 layer_factory.hpp:77] Creating layer conv4_2/sep/bn
I0107 19:33:42.159449 13409 net.cpp:100] Creating Layer conv4_2/sep/bn
I0107 19:33:42.159456 13409 net.cpp:434] conv4_2/sep/bn <- conv4_2/sep
I0107 19:33:42.159462 13409 net.cpp:395] conv4_2/sep/bn -> conv4_2/sep (in-place)
I0107 19:33:42.159664 13409 net.cpp:150] Setting up conv4_2/sep/bn
I0107 19:33:42.159670 13409 net.cpp:157] Top shape: 1 512 48 48 (1179648)
I0107 19:33:42.159673 13409 net.cpp:165] Memory required for data: 822418600
I0107 19:33:42.159682 13409 layer_factory.hpp:77] Creating layer conv4_2/sep/scale
I0107 19:33:42.159693 13409 net.cpp:100] Creating Layer conv4_2/sep/scale
I0107 19:33:42.159695 13409 net.cpp:434] conv4_2/sep/scale <- conv4_2/sep
I0107 19:33:42.159700 13409 net.cpp:395] conv4_2/sep/scale -> conv4_2/sep (in-place)
I0107 19:33:42.159739 13409 layer_factory.hpp:77] Creating layer conv4_2/sep/scale
I0107 19:33:42.159852 13409 net.cpp:150] Setting up conv4_2/sep/scale
I0107 19:33:42.159862 13409 net.cpp:157] Top shape: 1 512 48 48 (1179648)
I0107 19:33:42.159865 13409 net.cpp:165] Memory required for data: 827137192
I0107 19:33:42.159870 13409 layer_factory.hpp:77] Creating layer relu4_2/sep
I0107 19:33:42.159878 13409 net.cpp:100] Creating Layer relu4_2/sep
I0107 19:33:42.159881 13409 net.cpp:434] relu4_2/sep <- conv4_2/sep
I0107 19:33:42.159886 13409 net.cpp:395] relu4_2/sep -> conv4_2/sep (in-place)
I0107 19:33:42.160044 13409 net.cpp:150] Setting up relu4_2/sep
I0107 19:33:42.160053 13409 net.cpp:157] Top shape: 1 512 48 48 (1179648)
I0107 19:33:42.160055 13409 net.cpp:165] Memory required for data: 831855784
I0107 19:33:42.160058 13409 layer_factory.hpp:77] Creating layer conv5_1/dw
I0107 19:33:42.160068 13409 net.cpp:100] Creating Layer conv5_1/dw
I0107 19:33:42.160070 13409 net.cpp:434] conv5_1/dw <- conv4_2/sep
I0107 19:33:42.160078 13409 net.cpp:408] conv5_1/dw -> conv5_1/dw
I0107 19:33:42.160396 13409 net.cpp:150] Setting up conv5_1/dw
I0107 19:33:42.160403 13409 net.cpp:157] Top shape: 1 512 48 48 (1179648)
I0107 19:33:42.160405 13409 net.cpp:165] Memory required for data: 836574376
I0107 19:33:42.160410 13409 layer_factory.hpp:77] Creating layer conv5_1/dw/bn
I0107 19:33:42.160415 13409 net.cpp:100] Creating Layer conv5_1/dw/bn
I0107 19:33:42.160419 13409 net.cpp:434] conv5_1/dw/bn <- conv5_1/dw
I0107 19:33:42.160423 13409 net.cpp:395] conv5_1/dw/bn -> conv5_1/dw (in-place)
I0107 19:33:42.160616 13409 net.cpp:150] Setting up conv5_1/dw/bn
I0107 19:33:42.160622 13409 net.cpp:157] Top shape: 1 512 48 48 (1179648)
I0107 19:33:42.160625 13409 net.cpp:165] Memory required for data: 841292968
I0107 19:33:42.160632 13409 layer_factory.hpp:77] Creating layer conv5_1/dw/scale
I0107 19:33:42.160640 13409 net.cpp:100] Creating Layer conv5_1/dw/scale
I0107 19:33:42.160643 13409 net.cpp:434] conv5_1/dw/scale <- conv5_1/dw
I0107 19:33:42.160648 13409 net.cpp:395] conv5_1/dw/scale -> conv5_1/dw (in-place)
I0107 19:33:42.160683 13409 layer_factory.hpp:77] Creating layer conv5_1/dw/scale
I0107 19:33:42.160794 13409 net.cpp:150] Setting up conv5_1/dw/scale
I0107 19:33:42.160800 13409 net.cpp:157] Top shape: 1 512 48 48 (1179648)
I0107 19:33:42.160804 13409 net.cpp:165] Memory required for data: 846011560
I0107 19:33:42.160809 13409 layer_factory.hpp:77] Creating layer relu5_1/dw
I0107 19:33:42.160814 13409 net.cpp:100] Creating Layer relu5_1/dw
I0107 19:33:42.160817 13409 net.cpp:434] relu5_1/dw <- conv5_1/dw
I0107 19:33:42.160823 13409 net.cpp:395] relu5_1/dw -> conv5_1/dw (in-place)
I0107 19:33:42.160962 13409 net.cpp:150] Setting up relu5_1/dw
I0107 19:33:42.160969 13409 net.cpp:157] Top shape: 1 512 48 48 (1179648)
I0107 19:33:42.160971 13409 net.cpp:165] Memory required for data: 850730152
I0107 19:33:42.160974 13409 layer_factory.hpp:77] Creating layer conv5_1/sep
I0107 19:33:42.160980 13409 net.cpp:100] Creating Layer conv5_1/sep
I0107 19:33:42.160984 13409 net.cpp:434] conv5_1/sep <- conv5_1/dw
I0107 19:33:42.160989 13409 net.cpp:408] conv5_1/sep -> conv5_1/sep
I0107 19:33:42.169375 13409 net.cpp:150] Setting up conv5_1/sep
I0107 19:33:42.169389 13409 net.cpp:157] Top shape: 1 512 48 48 (1179648)
I0107 19:33:42.169392 13409 net.cpp:165] Memory required for data: 855448744
I0107 19:33:42.169399 13409 layer_factory.hpp:77] Creating layer conv5_1/sep/bn
I0107 19:33:42.169404 13409 net.cpp:100] Creating Layer conv5_1/sep/bn
I0107 19:33:42.169409 13409 net.cpp:434] conv5_1/sep/bn <- conv5_1/sep
I0107 19:33:42.169414 13409 net.cpp:395] conv5_1/sep/bn -> conv5_1/sep (in-place)
I0107 19:33:42.169606 13409 net.cpp:150] Setting up conv5_1/sep/bn
I0107 19:33:42.169612 13409 net.cpp:157] Top shape: 1 512 48 48 (1179648)
I0107 19:33:42.169615 13409 net.cpp:165] Memory required for data: 860167336
I0107 19:33:42.169622 13409 layer_factory.hpp:77] Creating layer conv5_1/sep/scale
I0107 19:33:42.169628 13409 net.cpp:100] Creating Layer conv5_1/sep/scale
I0107 19:33:42.169632 13409 net.cpp:434] conv5_1/sep/scale <- conv5_1/sep
I0107 19:33:42.169637 13409 net.cpp:395] conv5_1/sep/scale -> conv5_1/sep (in-place)
I0107 19:33:42.169670 13409 layer_factory.hpp:77] Creating layer conv5_1/sep/scale
I0107 19:33:42.169791 13409 net.cpp:150] Setting up conv5_1/sep/scale
I0107 19:33:42.169798 13409 net.cpp:157] Top shape: 1 512 48 48 (1179648)
I0107 19:33:42.169801 13409 net.cpp:165] Memory required for data: 864885928
I0107 19:33:42.169806 13409 layer_factory.hpp:77] Creating layer relu5_1/sep
I0107 19:33:42.169813 13409 net.cpp:100] Creating Layer relu5_1/sep
I0107 19:33:42.169816 13409 net.cpp:434] relu5_1/sep <- conv5_1/sep
I0107 19:33:42.169821 13409 net.cpp:395] relu5_1/sep -> conv5_1/sep (in-place)
I0107 19:33:42.170302 13409 net.cpp:150] Setting up relu5_1/sep
I0107 19:33:42.170312 13409 net.cpp:157] Top shape: 1 512 48 48 (1179648)
I0107 19:33:42.170315 13409 net.cpp:165] Memory required for data: 869604520
I0107 19:33:42.170318 13409 layer_factory.hpp:77] Creating layer conv5_2/dw
I0107 19:33:42.170327 13409 net.cpp:100] Creating Layer conv5_2/dw
I0107 19:33:42.170331 13409 net.cpp:434] conv5_2/dw <- conv5_1/sep
I0107 19:33:42.170338 13409 net.cpp:408] conv5_2/dw -> conv5_2/dw
I0107 19:33:42.170647 13409 net.cpp:150] Setting up conv5_2/dw
I0107 19:33:42.170653 13409 net.cpp:157] Top shape: 1 512 48 48 (1179648)
I0107 19:33:42.170656 13409 net.cpp:165] Memory required for data: 874323112
I0107 19:33:42.170660 13409 layer_factory.hpp:77] Creating layer conv5_2/dw/bn
I0107 19:33:42.170666 13409 net.cpp:100] Creating Layer conv5_2/dw/bn
I0107 19:33:42.170670 13409 net.cpp:434] conv5_2/dw/bn <- conv5_2/dw
I0107 19:33:42.170675 13409 net.cpp:395] conv5_2/dw/bn -> conv5_2/dw (in-place)
I0107 19:33:42.170857 13409 net.cpp:150] Setting up conv5_2/dw/bn
I0107 19:33:42.170862 13409 net.cpp:157] Top shape: 1 512 48 48 (1179648)
I0107 19:33:42.170866 13409 net.cpp:165] Memory required for data: 879041704
I0107 19:33:42.170872 13409 layer_factory.hpp:77] Creating layer conv5_2/dw/scale
I0107 19:33:42.170879 13409 net.cpp:100] Creating Layer conv5_2/dw/scale
I0107 19:33:42.170882 13409 net.cpp:434] conv5_2/dw/scale <- conv5_2/dw
I0107 19:33:42.170887 13409 net.cpp:395] conv5_2/dw/scale -> conv5_2/dw (in-place)
I0107 19:33:42.170920 13409 layer_factory.hpp:77] Creating layer conv5_2/dw/scale
I0107 19:33:42.171025 13409 net.cpp:150] Setting up conv5_2/dw/scale
I0107 19:33:42.171030 13409 net.cpp:157] Top shape: 1 512 48 48 (1179648)
I0107 19:33:42.171033 13409 net.cpp:165] Memory required for data: 883760296
I0107 19:33:42.171038 13409 layer_factory.hpp:77] Creating layer relu5_2/dw
I0107 19:33:42.171043 13409 net.cpp:100] Creating Layer relu5_2/dw
I0107 19:33:42.171046 13409 net.cpp:434] relu5_2/dw <- conv5_2/dw
I0107 19:33:42.171052 13409 net.cpp:395] relu5_2/dw -> conv5_2/dw (in-place)
I0107 19:33:42.171516 13409 net.cpp:150] Setting up relu5_2/dw
I0107 19:33:42.171526 13409 net.cpp:157] Top shape: 1 512 48 48 (1179648)
I0107 19:33:42.171530 13409 net.cpp:165] Memory required for data: 888478888
I0107 19:33:42.171533 13409 layer_factory.hpp:77] Creating layer conv5_2/sep
I0107 19:33:42.171541 13409 net.cpp:100] Creating Layer conv5_2/sep
I0107 19:33:42.171545 13409 net.cpp:434] conv5_2/sep <- conv5_2/dw
I0107 19:33:42.171551 13409 net.cpp:408] conv5_2/sep -> conv5_2/sep
I0107 19:33:42.178858 13409 net.cpp:150] Setting up conv5_2/sep
I0107 19:33:42.178869 13409 net.cpp:157] Top shape: 1 512 48 48 (1179648)
I0107 19:33:42.178871 13409 net.cpp:165] Memory required for data: 893197480
I0107 19:33:42.178876 13409 layer_factory.hpp:77] Creating layer conv5_2/sep/bn
I0107 19:33:42.178884 13409 net.cpp:100] Creating Layer conv5_2/sep/bn
I0107 19:33:42.178887 13409 net.cpp:434] conv5_2/sep/bn <- conv5_2/sep
I0107 19:33:42.178892 13409 net.cpp:395] conv5_2/sep/bn -> conv5_2/sep (in-place)
I0107 19:33:42.179082 13409 net.cpp:150] Setting up conv5_2/sep/bn
I0107 19:33:42.179088 13409 net.cpp:157] Top shape: 1 512 48 48 (1179648)
I0107 19:33:42.179091 13409 net.cpp:165] Memory required for data: 897916072
I0107 19:33:42.179097 13409 layer_factory.hpp:77] Creating layer conv5_2/sep/scale
I0107 19:33:42.179105 13409 net.cpp:100] Creating Layer conv5_2/sep/scale
I0107 19:33:42.179108 13409 net.cpp:434] conv5_2/sep/scale <- conv5_2/sep
I0107 19:33:42.179112 13409 net.cpp:395] conv5_2/sep/scale -> conv5_2/sep (in-place)
I0107 19:33:42.179147 13409 layer_factory.hpp:77] Creating layer conv5_2/sep/scale
I0107 19:33:42.179252 13409 net.cpp:150] Setting up conv5_2/sep/scale
I0107 19:33:42.179257 13409 net.cpp:157] Top shape: 1 512 48 48 (1179648)
I0107 19:33:42.179260 13409 net.cpp:165] Memory required for data: 902634664
I0107 19:33:42.179265 13409 layer_factory.hpp:77] Creating layer relu5_2/sep
I0107 19:33:42.179272 13409 net.cpp:100] Creating Layer relu5_2/sep
I0107 19:33:42.179275 13409 net.cpp:434] relu5_2/sep <- conv5_2/sep
I0107 19:33:42.179280 13409 net.cpp:395] relu5_2/sep -> conv5_2/sep (in-place)
I0107 19:33:42.179446 13409 net.cpp:150] Setting up relu5_2/sep
I0107 19:33:42.179453 13409 net.cpp:157] Top shape: 1 512 48 48 (1179648)
I0107 19:33:42.179457 13409 net.cpp:165] Memory required for data: 907353256
I0107 19:33:42.179461 13409 layer_factory.hpp:77] Creating layer conv5_3/dw
I0107 19:33:42.179468 13409 net.cpp:100] Creating Layer conv5_3/dw
I0107 19:33:42.179472 13409 net.cpp:434] conv5_3/dw <- conv5_2/sep
I0107 19:33:42.179478 13409 net.cpp:408] conv5_3/dw -> conv5_3/dw
I0107 19:33:42.179798 13409 net.cpp:150] Setting up conv5_3/dw
I0107 19:33:42.179805 13409 net.cpp:157] Top shape: 1 512 48 48 (1179648)
I0107 19:33:42.179808 13409 net.cpp:165] Memory required for data: 912071848
I0107 19:33:42.179813 13409 layer_factory.hpp:77] Creating layer conv5_3/dw/bn
I0107 19:33:42.179819 13409 net.cpp:100] Creating Layer conv5_3/dw/bn
I0107 19:33:42.179823 13409 net.cpp:434] conv5_3/dw/bn <- conv5_3/dw
I0107 19:33:42.179827 13409 net.cpp:395] conv5_3/dw/bn -> conv5_3/dw (in-place)
I0107 19:33:42.180021 13409 net.cpp:150] Setting up conv5_3/dw/bn
I0107 19:33:42.180027 13409 net.cpp:157] Top shape: 1 512 48 48 (1179648)
I0107 19:33:42.180029 13409 net.cpp:165] Memory required for data: 916790440
I0107 19:33:42.180037 13409 layer_factory.hpp:77] Creating layer conv5_3/dw/scale
I0107 19:33:42.180045 13409 net.cpp:100] Creating Layer conv5_3/dw/scale
I0107 19:33:42.180048 13409 net.cpp:434] conv5_3/dw/scale <- conv5_3/dw
I0107 19:33:42.180053 13409 net.cpp:395] conv5_3/dw/scale -> conv5_3/dw (in-place)
I0107 19:33:42.180088 13409 layer_factory.hpp:77] Creating layer conv5_3/dw/scale
I0107 19:33:42.180189 13409 net.cpp:150] Setting up conv5_3/dw/scale
I0107 19:33:42.180193 13409 net.cpp:157] Top shape: 1 512 48 48 (1179648)
I0107 19:33:42.180197 13409 net.cpp:165] Memory required for data: 921509032
I0107 19:33:42.180200 13409 layer_factory.hpp:77] Creating layer relu5_3/dw
I0107 19:33:42.180207 13409 net.cpp:100] Creating Layer relu5_3/dw
I0107 19:33:42.180209 13409 net.cpp:434] relu5_3/dw <- conv5_3/dw
I0107 19:33:42.180212 13409 net.cpp:395] relu5_3/dw -> conv5_3/dw (in-place)
I0107 19:33:42.180341 13409 net.cpp:150] Setting up relu5_3/dw
I0107 19:33:42.180347 13409 net.cpp:157] Top shape: 1 512 48 48 (1179648)
I0107 19:33:42.180349 13409 net.cpp:165] Memory required for data: 926227624
I0107 19:33:42.180352 13409 layer_factory.hpp:77] Creating layer conv5_3/sep
I0107 19:33:42.180359 13409 net.cpp:100] Creating Layer conv5_3/sep
I0107 19:33:42.180362 13409 net.cpp:434] conv5_3/sep <- conv5_3/dw
I0107 19:33:42.180367 13409 net.cpp:408] conv5_3/sep -> conv5_3/sep
I0107 19:33:42.190060 13409 net.cpp:150] Setting up conv5_3/sep
I0107 19:33:42.190111 13409 net.cpp:157] Top shape: 1 512 48 48 (1179648)
I0107 19:33:42.190115 13409 net.cpp:165] Memory required for data: 930946216
I0107 19:33:42.190131 13409 layer_factory.hpp:77] Creating layer conv5_3/sep/bn
I0107 19:33:42.190152 13409 net.cpp:100] Creating Layer conv5_3/sep/bn
I0107 19:33:42.190162 13409 net.cpp:434] conv5_3/sep/bn <- conv5_3/sep
I0107 19:33:42.190171 13409 net.cpp:395] conv5_3/sep/bn -> conv5_3/sep (in-place)
I0107 19:33:42.190399 13409 net.cpp:150] Setting up conv5_3/sep/bn
I0107 19:33:42.190405 13409 net.cpp:157] Top shape: 1 512 48 48 (1179648)
I0107 19:33:42.190408 13409 net.cpp:165] Memory required for data: 935664808
I0107 19:33:42.190415 13409 layer_factory.hpp:77] Creating layer conv5_3/sep/scale
I0107 19:33:42.190428 13409 net.cpp:100] Creating Layer conv5_3/sep/scale
I0107 19:33:42.190431 13409 net.cpp:434] conv5_3/sep/scale <- conv5_3/sep
I0107 19:33:42.190438 13409 net.cpp:395] conv5_3/sep/scale -> conv5_3/sep (in-place)
I0107 19:33:42.190487 13409 layer_factory.hpp:77] Creating layer conv5_3/sep/scale
I0107 19:33:42.190598 13409 net.cpp:150] Setting up conv5_3/sep/scale
I0107 19:33:42.190603 13409 net.cpp:157] Top shape: 1 512 48 48 (1179648)
I0107 19:33:42.190606 13409 net.cpp:165] Memory required for data: 940383400
I0107 19:33:42.190613 13409 layer_factory.hpp:77] Creating layer relu5_3/sep
I0107 19:33:42.190620 13409 net.cpp:100] Creating Layer relu5_3/sep
I0107 19:33:42.190624 13409 net.cpp:434] relu5_3/sep <- conv5_3/sep
I0107 19:33:42.190629 13409 net.cpp:395] relu5_3/sep -> conv5_3/sep (in-place)
I0107 19:33:42.190798 13409 net.cpp:150] Setting up relu5_3/sep
I0107 19:33:42.190804 13409 net.cpp:157] Top shape: 1 512 48 48 (1179648)
I0107 19:33:42.190807 13409 net.cpp:165] Memory required for data: 945101992
I0107 19:33:42.190811 13409 layer_factory.hpp:77] Creating layer conv5_4/dw
I0107 19:33:42.190824 13409 net.cpp:100] Creating Layer conv5_4/dw
I0107 19:33:42.190827 13409 net.cpp:434] conv5_4/dw <- conv5_3/sep
I0107 19:33:42.190834 13409 net.cpp:408] conv5_4/dw -> conv5_4/dw
I0107 19:33:42.191162 13409 net.cpp:150] Setting up conv5_4/dw
I0107 19:33:42.191169 13409 net.cpp:157] Top shape: 1 512 48 48 (1179648)
I0107 19:33:42.191171 13409 net.cpp:165] Memory required for data: 949820584
I0107 19:33:42.191176 13409 layer_factory.hpp:77] Creating layer conv5_4/dw/bn
I0107 19:33:42.191182 13409 net.cpp:100] Creating Layer conv5_4/dw/bn
I0107 19:33:42.191185 13409 net.cpp:434] conv5_4/dw/bn <- conv5_4/dw
I0107 19:33:42.191191 13409 net.cpp:395] conv5_4/dw/bn -> conv5_4/dw (in-place)
I0107 19:33:42.191378 13409 net.cpp:150] Setting up conv5_4/dw/bn
I0107 19:33:42.191385 13409 net.cpp:157] Top shape: 1 512 48 48 (1179648)
I0107 19:33:42.191387 13409 net.cpp:165] Memory required for data: 954539176
I0107 19:33:42.191393 13409 layer_factory.hpp:77] Creating layer conv5_4/dw/scale
I0107 19:33:42.191401 13409 net.cpp:100] Creating Layer conv5_4/dw/scale
I0107 19:33:42.191403 13409 net.cpp:434] conv5_4/dw/scale <- conv5_4/dw
I0107 19:33:42.191408 13409 net.cpp:395] conv5_4/dw/scale -> conv5_4/dw (in-place)
I0107 19:33:42.191440 13409 layer_factory.hpp:77] Creating layer conv5_4/dw/scale
I0107 19:33:42.191547 13409 net.cpp:150] Setting up conv5_4/dw/scale
I0107 19:33:42.191553 13409 net.cpp:157] Top shape: 1 512 48 48 (1179648)
I0107 19:33:42.191556 13409 net.cpp:165] Memory required for data: 959257768
I0107 19:33:42.191561 13409 layer_factory.hpp:77] Creating layer relu5_4/dw
I0107 19:33:42.191567 13409 net.cpp:100] Creating Layer relu5_4/dw
I0107 19:33:42.191570 13409 net.cpp:434] relu5_4/dw <- conv5_4/dw
I0107 19:33:42.191576 13409 net.cpp:395] relu5_4/dw -> conv5_4/dw (in-place)
I0107 19:33:42.192129 13409 net.cpp:150] Setting up relu5_4/dw
I0107 19:33:42.192139 13409 net.cpp:157] Top shape: 1 512 48 48 (1179648)
I0107 19:33:42.192143 13409 net.cpp:165] Memory required for data: 963976360
I0107 19:33:42.192147 13409 layer_factory.hpp:77] Creating layer conv5_4/sep
I0107 19:33:42.192155 13409 net.cpp:100] Creating Layer conv5_4/sep
I0107 19:33:42.192159 13409 net.cpp:434] conv5_4/sep <- conv5_4/dw
I0107 19:33:42.192164 13409 net.cpp:408] conv5_4/sep -> conv5_4/sep
I0107 19:33:42.199890 13409 net.cpp:150] Setting up conv5_4/sep
I0107 19:33:42.199916 13409 net.cpp:157] Top shape: 1 512 48 48 (1179648)
I0107 19:33:42.199920 13409 net.cpp:165] Memory required for data: 968694952
I0107 19:33:42.199928 13409 layer_factory.hpp:77] Creating layer conv5_4/sep/bn
I0107 19:33:42.199942 13409 net.cpp:100] Creating Layer conv5_4/sep/bn
I0107 19:33:42.199949 13409 net.cpp:434] conv5_4/sep/bn <- conv5_4/sep
I0107 19:33:42.199956 13409 net.cpp:395] conv5_4/sep/bn -> conv5_4/sep (in-place)
I0107 19:33:42.200166 13409 net.cpp:150] Setting up conv5_4/sep/bn
I0107 19:33:42.200173 13409 net.cpp:157] Top shape: 1 512 48 48 (1179648)
I0107 19:33:42.200177 13409 net.cpp:165] Memory required for data: 973413544
I0107 19:33:42.200199 13409 layer_factory.hpp:77] Creating layer conv5_4/sep/scale
I0107 19:33:42.200211 13409 net.cpp:100] Creating Layer conv5_4/sep/scale
I0107 19:33:42.200214 13409 net.cpp:434] conv5_4/sep/scale <- conv5_4/sep
I0107 19:33:42.200219 13409 net.cpp:395] conv5_4/sep/scale -> conv5_4/sep (in-place)
I0107 19:33:42.200259 13409 layer_factory.hpp:77] Creating layer conv5_4/sep/scale
I0107 19:33:42.200367 13409 net.cpp:150] Setting up conv5_4/sep/scale
I0107 19:33:42.200373 13409 net.cpp:157] Top shape: 1 512 48 48 (1179648)
I0107 19:33:42.200376 13409 net.cpp:165] Memory required for data: 978132136
I0107 19:33:42.200381 13409 layer_factory.hpp:77] Creating layer relu5_4/sep
I0107 19:33:42.200388 13409 net.cpp:100] Creating Layer relu5_4/sep
I0107 19:33:42.200392 13409 net.cpp:434] relu5_4/sep <- conv5_4/sep
I0107 19:33:42.200395 13409 net.cpp:395] relu5_4/sep -> conv5_4/sep (in-place)
I0107 19:33:42.200559 13409 net.cpp:150] Setting up relu5_4/sep
I0107 19:33:42.200567 13409 net.cpp:157] Top shape: 1 512 48 48 (1179648)
I0107 19:33:42.200569 13409 net.cpp:165] Memory required for data: 982850728
I0107 19:33:42.200572 13409 layer_factory.hpp:77] Creating layer conv5_5/dw
I0107 19:33:42.200582 13409 net.cpp:100] Creating Layer conv5_5/dw
I0107 19:33:42.200585 13409 net.cpp:434] conv5_5/dw <- conv5_4/sep
I0107 19:33:42.200592 13409 net.cpp:408] conv5_5/dw -> conv5_5/dw
I0107 19:33:42.200917 13409 net.cpp:150] Setting up conv5_5/dw
I0107 19:33:42.200923 13409 net.cpp:157] Top shape: 1 512 48 48 (1179648)
I0107 19:33:42.200927 13409 net.cpp:165] Memory required for data: 987569320
I0107 19:33:42.200930 13409 layer_factory.hpp:77] Creating layer conv5_5/dw/bn
I0107 19:33:42.200935 13409 net.cpp:100] Creating Layer conv5_5/dw/bn
I0107 19:33:42.200939 13409 net.cpp:434] conv5_5/dw/bn <- conv5_5/dw
I0107 19:33:42.200943 13409 net.cpp:395] conv5_5/dw/bn -> conv5_5/dw (in-place)
I0107 19:33:42.201138 13409 net.cpp:150] Setting up conv5_5/dw/bn
I0107 19:33:42.201143 13409 net.cpp:157] Top shape: 1 512 48 48 (1179648)
I0107 19:33:42.201146 13409 net.cpp:165] Memory required for data: 992287912
I0107 19:33:42.201153 13409 layer_factory.hpp:77] Creating layer conv5_5/dw/scale
I0107 19:33:42.201159 13409 net.cpp:100] Creating Layer conv5_5/dw/scale
I0107 19:33:42.201162 13409 net.cpp:434] conv5_5/dw/scale <- conv5_5/dw
I0107 19:33:42.201166 13409 net.cpp:395] conv5_5/dw/scale -> conv5_5/dw (in-place)
I0107 19:33:42.201202 13409 layer_factory.hpp:77] Creating layer conv5_5/dw/scale
I0107 19:33:42.201308 13409 net.cpp:150] Setting up conv5_5/dw/scale
I0107 19:33:42.201314 13409 net.cpp:157] Top shape: 1 512 48 48 (1179648)
I0107 19:33:42.201318 13409 net.cpp:165] Memory required for data: 997006504
I0107 19:33:42.201323 13409 layer_factory.hpp:77] Creating layer relu5_5/dw
I0107 19:33:42.201328 13409 net.cpp:100] Creating Layer relu5_5/dw
I0107 19:33:42.201331 13409 net.cpp:434] relu5_5/dw <- conv5_5/dw
I0107 19:33:42.201336 13409 net.cpp:395] relu5_5/dw -> conv5_5/dw (in-place)
I0107 19:33:42.201490 13409 net.cpp:150] Setting up relu5_5/dw
I0107 19:33:42.201498 13409 net.cpp:157] Top shape: 1 512 48 48 (1179648)
I0107 19:33:42.201501 13409 net.cpp:165] Memory required for data: 1001725096
I0107 19:33:42.201504 13409 layer_factory.hpp:77] Creating layer conv5_5/sep
I0107 19:33:42.201512 13409 net.cpp:100] Creating Layer conv5_5/sep
I0107 19:33:42.201516 13409 net.cpp:434] conv5_5/sep <- conv5_5/dw
I0107 19:33:42.201521 13409 net.cpp:408] conv5_5/sep -> conv5_5/sep
I0107 19:33:42.209899 13409 net.cpp:150] Setting up conv5_5/sep
I0107 19:33:42.209911 13409 net.cpp:157] Top shape: 1 512 48 48 (1179648)
I0107 19:33:42.209914 13409 net.cpp:165] Memory required for data: 1006443688
I0107 19:33:42.209920 13409 layer_factory.hpp:77] Creating layer conv5_5/sep/bn
I0107 19:33:42.209928 13409 net.cpp:100] Creating Layer conv5_5/sep/bn
I0107 19:33:42.209933 13409 net.cpp:434] conv5_5/sep/bn <- conv5_5/sep
I0107 19:33:42.209936 13409 net.cpp:395] conv5_5/sep/bn -> conv5_5/sep (in-place)
I0107 19:33:42.210137 13409 net.cpp:150] Setting up conv5_5/sep/bn
I0107 19:33:42.210144 13409 net.cpp:157] Top shape: 1 512 48 48 (1179648)
I0107 19:33:42.210146 13409 net.cpp:165] Memory required for data: 1011162280
I0107 19:33:42.210152 13409 layer_factory.hpp:77] Creating layer conv5_5/sep/scale
I0107 19:33:42.210158 13409 net.cpp:100] Creating Layer conv5_5/sep/scale
I0107 19:33:42.210162 13409 net.cpp:434] conv5_5/sep/scale <- conv5_5/sep
I0107 19:33:42.210167 13409 net.cpp:395] conv5_5/sep/scale -> conv5_5/sep (in-place)
I0107 19:33:42.210202 13409 layer_factory.hpp:77] Creating layer conv5_5/sep/scale
I0107 19:33:42.210316 13409 net.cpp:150] Setting up conv5_5/sep/scale
I0107 19:33:42.210322 13409 net.cpp:157] Top shape: 1 512 48 48 (1179648)
I0107 19:33:42.210325 13409 net.cpp:165] Memory required for data: 1015880872
I0107 19:33:42.210331 13409 layer_factory.hpp:77] Creating layer relu5_5/sep
I0107 19:33:42.210336 13409 net.cpp:100] Creating Layer relu5_5/sep
I0107 19:33:42.210340 13409 net.cpp:434] relu5_5/sep <- conv5_5/sep
I0107 19:33:42.210345 13409 net.cpp:395] relu5_5/sep -> conv5_5/sep (in-place)
I0107 19:33:42.210508 13409 net.cpp:150] Setting up relu5_5/sep
I0107 19:33:42.210515 13409 net.cpp:157] Top shape: 1 512 48 48 (1179648)
I0107 19:33:42.210518 13409 net.cpp:165] Memory required for data: 1020599464
I0107 19:33:42.210521 13409 layer_factory.hpp:77] Creating layer conv5_5/sep_relu5_5/sep_0_split
I0107 19:33:42.210528 13409 net.cpp:100] Creating Layer conv5_5/sep_relu5_5/sep_0_split
I0107 19:33:42.210532 13409 net.cpp:434] conv5_5/sep_relu5_5/sep_0_split <- conv5_5/sep
I0107 19:33:42.210537 13409 net.cpp:408] conv5_5/sep_relu5_5/sep_0_split -> conv5_5/sep_relu5_5/sep_0_split_0
I0107 19:33:42.210543 13409 net.cpp:408] conv5_5/sep_relu5_5/sep_0_split -> conv5_5/sep_relu5_5/sep_0_split_1
I0107 19:33:42.210549 13409 net.cpp:408] conv5_5/sep_relu5_5/sep_0_split -> conv5_5/sep_relu5_5/sep_0_split_2
I0107 19:33:42.210605 13409 net.cpp:150] Setting up conv5_5/sep_relu5_5/sep_0_split
I0107 19:33:42.210611 13409 net.cpp:157] Top shape: 1 512 48 48 (1179648)
I0107 19:33:42.210615 13409 net.cpp:157] Top shape: 1 512 48 48 (1179648)
I0107 19:33:42.210619 13409 net.cpp:157] Top shape: 1 512 48 48 (1179648)
I0107 19:33:42.210623 13409 net.cpp:165] Memory required for data: 1034755240
I0107 19:33:42.210626 13409 layer_factory.hpp:77] Creating layer LFCN_2_5x5
I0107 19:33:42.210635 13409 net.cpp:100] Creating Layer LFCN_2_5x5
I0107 19:33:42.210638 13409 net.cpp:434] LFCN_2_5x5 <- conv5_5/sep_relu5_5/sep_0_split_0
I0107 19:33:42.210645 13409 net.cpp:408] LFCN_2_5x5 -> LFCN_2_5x5
I0107 19:33:42.214802 13409 net.cpp:150] Setting up LFCN_2_5x5
I0107 19:33:42.214815 13409 net.cpp:157] Top shape: 1 9 48 48 (20736)
I0107 19:33:42.214818 13409 net.cpp:165] Memory required for data: 1034838184
I0107 19:33:42.214825 13409 layer_factory.hpp:77] Creating layer LFCN_2_5x5_LFCN_2_5x5_0_split
I0107 19:33:42.214830 13409 net.cpp:100] Creating Layer LFCN_2_5x5_LFCN_2_5x5_0_split
I0107 19:33:42.214834 13409 net.cpp:434] LFCN_2_5x5_LFCN_2_5x5_0_split <- LFCN_2_5x5
I0107 19:33:42.214840 13409 net.cpp:408] LFCN_2_5x5_LFCN_2_5x5_0_split -> LFCN_2_5x5_LFCN_2_5x5_0_split_0
I0107 19:33:42.214848 13409 net.cpp:408] LFCN_2_5x5_LFCN_2_5x5_0_split -> LFCN_2_5x5_LFCN_2_5x5_0_split_1
I0107 19:33:42.214884 13409 net.cpp:150] Setting up LFCN_2_5x5_LFCN_2_5x5_0_split
I0107 19:33:42.214890 13409 net.cpp:157] Top shape: 1 9 48 48 (20736)
I0107 19:33:42.214893 13409 net.cpp:157] Top shape: 1 9 48 48 (20736)
I0107 19:33:42.214896 13409 net.cpp:165] Memory required for data: 1035004072
I0107 19:33:42.214900 13409 layer_factory.hpp:77] Creating layer detection_loss_2_5x5
I0107 19:33:42.214906 13409 net.cpp:100] Creating Layer detection_loss_2_5x5
I0107 19:33:42.214910 13409 net.cpp:434] detection_loss_2_5x5 <- LFCN_2_5x5_LFCN_2_5x5_0_split_0
I0107 19:33:42.214915 13409 net.cpp:434] detection_loss_2_5x5 <- label_2_5x5_data_3_split_0
I0107 19:33:42.214920 13409 net.cpp:408] detection_loss_2_5x5 -> loss_2_5x5
I0107 19:33:42.214928 13409 layer_factory.hpp:77] Creating layer detection_loss_2_5x5
I0107 19:33:42.215587 13409 net.cpp:150] Setting up detection_loss_2_5x5
I0107 19:33:42.215597 13409 net.cpp:157] Top shape: 1 1 1 2 (2)
I0107 19:33:42.215600 13409 net.cpp:160]     with loss weight 1
I0107 19:33:42.215610 13409 net.cpp:165] Memory required for data: 1035004080
I0107 19:33:42.215615 13409 layer_factory.hpp:77] Creating layer detection_accuracy_2_5x5
I0107 19:33:42.215622 13409 net.cpp:100] Creating Layer detection_accuracy_2_5x5
I0107 19:33:42.215626 13409 net.cpp:434] detection_accuracy_2_5x5 <- LFCN_2_5x5_LFCN_2_5x5_0_split_1
I0107 19:33:42.215631 13409 net.cpp:434] detection_accuracy_2_5x5 <- label_2_5x5_data_3_split_1
I0107 19:33:42.215636 13409 net.cpp:408] detection_accuracy_2_5x5 -> accuracy_2_5x5
I0107 19:33:42.215643 13409 net.cpp:408] detection_accuracy_2_5x5 -> boxiou_2_5x5
I0107 19:33:42.215682 13409 net.cpp:150] Setting up detection_accuracy_2_5x5
I0107 19:33:42.215688 13409 net.cpp:157] Top shape: 1 1 1 2 (2)
I0107 19:33:42.215693 13409 net.cpp:157] Top shape: 1 1 1 1 (1)
I0107 19:33:42.215695 13409 net.cpp:165] Memory required for data: 1035004092
I0107 19:33:42.215698 13409 layer_factory.hpp:77] Creating layer LFCN_2_7x7
I0107 19:33:42.215708 13409 net.cpp:100] Creating Layer LFCN_2_7x7
I0107 19:33:42.215711 13409 net.cpp:434] LFCN_2_7x7 <- conv5_5/sep_relu5_5/sep_0_split_1
I0107 19:33:42.215718 13409 net.cpp:408] LFCN_2_7x7 -> LFCN_2_7x7
I0107 19:33:42.222929 13409 net.cpp:150] Setting up LFCN_2_7x7
I0107 19:33:42.222941 13409 net.cpp:157] Top shape: 1 9 48 48 (20736)
I0107 19:33:42.222944 13409 net.cpp:165] Memory required for data: 1035087036
I0107 19:33:42.222951 13409 layer_factory.hpp:77] Creating layer LFCN_2_7x7_LFCN_2_7x7_0_split
I0107 19:33:42.222959 13409 net.cpp:100] Creating Layer LFCN_2_7x7_LFCN_2_7x7_0_split
I0107 19:33:42.222962 13409 net.cpp:434] LFCN_2_7x7_LFCN_2_7x7_0_split <- LFCN_2_7x7
I0107 19:33:42.222967 13409 net.cpp:408] LFCN_2_7x7_LFCN_2_7x7_0_split -> LFCN_2_7x7_LFCN_2_7x7_0_split_0
I0107 19:33:42.222975 13409 net.cpp:408] LFCN_2_7x7_LFCN_2_7x7_0_split -> LFCN_2_7x7_LFCN_2_7x7_0_split_1
I0107 19:33:42.223013 13409 net.cpp:150] Setting up LFCN_2_7x7_LFCN_2_7x7_0_split
I0107 19:33:42.223018 13409 net.cpp:157] Top shape: 1 9 48 48 (20736)
I0107 19:33:42.223022 13409 net.cpp:157] Top shape: 1 9 48 48 (20736)
I0107 19:33:42.223026 13409 net.cpp:165] Memory required for data: 1035252924
I0107 19:33:42.223028 13409 layer_factory.hpp:77] Creating layer detection_loss_2_7x7
I0107 19:33:42.223035 13409 net.cpp:100] Creating Layer detection_loss_2_7x7
I0107 19:33:42.223039 13409 net.cpp:434] detection_loss_2_7x7 <- LFCN_2_7x7_LFCN_2_7x7_0_split_0
I0107 19:33:42.223043 13409 net.cpp:434] detection_loss_2_7x7 <- label_2_7x7_data_4_split_0
I0107 19:33:42.223049 13409 net.cpp:408] detection_loss_2_7x7 -> loss_2_7x7
I0107 19:33:42.223057 13409 layer_factory.hpp:77] Creating layer detection_loss_2_7x7
I0107 19:33:42.223732 13409 net.cpp:150] Setting up detection_loss_2_7x7
I0107 19:33:42.223742 13409 net.cpp:157] Top shape: 1 1 1 2 (2)
I0107 19:33:42.223745 13409 net.cpp:160]     with loss weight 1
I0107 19:33:42.223752 13409 net.cpp:165] Memory required for data: 1035252932
I0107 19:33:42.223755 13409 layer_factory.hpp:77] Creating layer detection_accuracy_2_7x7
I0107 19:33:42.223762 13409 net.cpp:100] Creating Layer detection_accuracy_2_7x7
I0107 19:33:42.223765 13409 net.cpp:434] detection_accuracy_2_7x7 <- LFCN_2_7x7_LFCN_2_7x7_0_split_1
I0107 19:33:42.223770 13409 net.cpp:434] detection_accuracy_2_7x7 <- label_2_7x7_data_4_split_1
I0107 19:33:42.223776 13409 net.cpp:408] detection_accuracy_2_7x7 -> accuracy_2_7x7
I0107 19:33:42.223783 13409 net.cpp:408] detection_accuracy_2_7x7 -> boxiou_2_7x7
I0107 19:33:42.223820 13409 net.cpp:150] Setting up detection_accuracy_2_7x7
I0107 19:33:42.223825 13409 net.cpp:157] Top shape: 1 1 1 2 (2)
I0107 19:33:42.223829 13409 net.cpp:157] Top shape: 1 1 1 1 (1)
I0107 19:33:42.223832 13409 net.cpp:165] Memory required for data: 1035252944
I0107 19:33:42.223835 13409 layer_factory.hpp:77] Creating layer conv5_6/dw
I0107 19:33:42.223843 13409 net.cpp:100] Creating Layer conv5_6/dw
I0107 19:33:42.223847 13409 net.cpp:434] conv5_6/dw <- conv5_5/sep_relu5_5/sep_0_split_2
I0107 19:33:42.223853 13409 net.cpp:408] conv5_6/dw -> conv5_6/dw
I0107 19:33:42.224160 13409 net.cpp:150] Setting up conv5_6/dw
I0107 19:33:42.224166 13409 net.cpp:157] Top shape: 1 512 24 24 (294912)
I0107 19:33:42.224169 13409 net.cpp:165] Memory required for data: 1036432592
I0107 19:33:42.224174 13409 layer_factory.hpp:77] Creating layer conv5_6/dw/bn
I0107 19:33:42.224180 13409 net.cpp:100] Creating Layer conv5_6/dw/bn
I0107 19:33:42.224184 13409 net.cpp:434] conv5_6/dw/bn <- conv5_6/dw
I0107 19:33:42.224189 13409 net.cpp:395] conv5_6/dw/bn -> conv5_6/dw (in-place)
I0107 19:33:42.224382 13409 net.cpp:150] Setting up conv5_6/dw/bn
I0107 19:33:42.224388 13409 net.cpp:157] Top shape: 1 512 24 24 (294912)
I0107 19:33:42.224391 13409 net.cpp:165] Memory required for data: 1037612240
I0107 19:33:42.224398 13409 layer_factory.hpp:77] Creating layer conv5_6/dw/scale
I0107 19:33:42.224406 13409 net.cpp:100] Creating Layer conv5_6/dw/scale
I0107 19:33:42.224409 13409 net.cpp:434] conv5_6/dw/scale <- conv5_6/dw
I0107 19:33:42.224413 13409 net.cpp:395] conv5_6/dw/scale -> conv5_6/dw (in-place)
I0107 19:33:42.224452 13409 layer_factory.hpp:77] Creating layer conv5_6/dw/scale
I0107 19:33:42.224566 13409 net.cpp:150] Setting up conv5_6/dw/scale
I0107 19:33:42.224572 13409 net.cpp:157] Top shape: 1 512 24 24 (294912)
I0107 19:33:42.224575 13409 net.cpp:165] Memory required for data: 1038791888
I0107 19:33:42.224581 13409 layer_factory.hpp:77] Creating layer relu5_6/dw
I0107 19:33:42.224586 13409 net.cpp:100] Creating Layer relu5_6/dw
I0107 19:33:42.224589 13409 net.cpp:434] relu5_6/dw <- conv5_6/dw
I0107 19:33:42.224594 13409 net.cpp:395] relu5_6/dw -> conv5_6/dw (in-place)
I0107 19:33:42.224748 13409 net.cpp:150] Setting up relu5_6/dw
I0107 19:33:42.224756 13409 net.cpp:157] Top shape: 1 512 24 24 (294912)
I0107 19:33:42.224759 13409 net.cpp:165] Memory required for data: 1039971536
I0107 19:33:42.224762 13409 layer_factory.hpp:77] Creating layer conv5_6/sep
I0107 19:33:42.224771 13409 net.cpp:100] Creating Layer conv5_6/sep
I0107 19:33:42.224773 13409 net.cpp:434] conv5_6/sep <- conv5_6/dw
I0107 19:33:42.224778 13409 net.cpp:408] conv5_6/sep -> conv5_6/sep
I0107 19:33:42.239931 13409 net.cpp:150] Setting up conv5_6/sep
I0107 19:33:42.239959 13409 net.cpp:157] Top shape: 1 1024 24 24 (589824)
I0107 19:33:42.239961 13409 net.cpp:165] Memory required for data: 1042330832
I0107 19:33:42.239970 13409 layer_factory.hpp:77] Creating layer conv5_6/sep/bn
I0107 19:33:42.239981 13409 net.cpp:100] Creating Layer conv5_6/sep/bn
I0107 19:33:42.239987 13409 net.cpp:434] conv5_6/sep/bn <- conv5_6/sep
I0107 19:33:42.239995 13409 net.cpp:395] conv5_6/sep/bn -> conv5_6/sep (in-place)
I0107 19:33:42.240211 13409 net.cpp:150] Setting up conv5_6/sep/bn
I0107 19:33:42.240218 13409 net.cpp:157] Top shape: 1 1024 24 24 (589824)
I0107 19:33:42.240222 13409 net.cpp:165] Memory required for data: 1044690128
I0107 19:33:42.240229 13409 layer_factory.hpp:77] Creating layer conv5_6/sep/scale
I0107 19:33:42.240237 13409 net.cpp:100] Creating Layer conv5_6/sep/scale
I0107 19:33:42.240242 13409 net.cpp:434] conv5_6/sep/scale <- conv5_6/sep
I0107 19:33:42.240247 13409 net.cpp:395] conv5_6/sep/scale -> conv5_6/sep (in-place)
I0107 19:33:42.240289 13409 layer_factory.hpp:77] Creating layer conv5_6/sep/scale
I0107 19:33:42.240407 13409 net.cpp:150] Setting up conv5_6/sep/scale
I0107 19:33:42.240415 13409 net.cpp:157] Top shape: 1 1024 24 24 (589824)
I0107 19:33:42.240418 13409 net.cpp:165] Memory required for data: 1047049424
I0107 19:33:42.240424 13409 layer_factory.hpp:77] Creating layer relu5_6/sep
I0107 19:33:42.240440 13409 net.cpp:100] Creating Layer relu5_6/sep
I0107 19:33:42.240444 13409 net.cpp:434] relu5_6/sep <- conv5_6/sep
I0107 19:33:42.240449 13409 net.cpp:395] relu5_6/sep -> conv5_6/sep (in-place)
I0107 19:33:42.240613 13409 net.cpp:150] Setting up relu5_6/sep
I0107 19:33:42.240622 13409 net.cpp:157] Top shape: 1 1024 24 24 (589824)
I0107 19:33:42.240624 13409 net.cpp:165] Memory required for data: 1049408720
I0107 19:33:42.240628 13409 layer_factory.hpp:77] Creating layer conv6/dw
I0107 19:33:42.240638 13409 net.cpp:100] Creating Layer conv6/dw
I0107 19:33:42.240641 13409 net.cpp:434] conv6/dw <- conv5_6/sep
I0107 19:33:42.240648 13409 net.cpp:408] conv6/dw -> conv6/dw
I0107 19:33:42.241083 13409 net.cpp:150] Setting up conv6/dw
I0107 19:33:42.241089 13409 net.cpp:157] Top shape: 1 1024 24 24 (589824)
I0107 19:33:42.241092 13409 net.cpp:165] Memory required for data: 1051768016
I0107 19:33:42.241096 13409 layer_factory.hpp:77] Creating layer conv6/dw/bn
I0107 19:33:42.241101 13409 net.cpp:100] Creating Layer conv6/dw/bn
I0107 19:33:42.241106 13409 net.cpp:434] conv6/dw/bn <- conv6/dw
I0107 19:33:42.241111 13409 net.cpp:395] conv6/dw/bn -> conv6/dw (in-place)
I0107 19:33:42.241320 13409 net.cpp:150] Setting up conv6/dw/bn
I0107 19:33:42.241327 13409 net.cpp:157] Top shape: 1 1024 24 24 (589824)
I0107 19:33:42.241329 13409 net.cpp:165] Memory required for data: 1054127312
I0107 19:33:42.241335 13409 layer_factory.hpp:77] Creating layer conv6/dw/scale
I0107 19:33:42.241343 13409 net.cpp:100] Creating Layer conv6/dw/scale
I0107 19:33:42.241348 13409 net.cpp:434] conv6/dw/scale <- conv6/dw
I0107 19:33:42.241351 13409 net.cpp:395] conv6/dw/scale -> conv6/dw (in-place)
I0107 19:33:42.241390 13409 layer_factory.hpp:77] Creating layer conv6/dw/scale
I0107 19:33:42.241520 13409 net.cpp:150] Setting up conv6/dw/scale
I0107 19:33:42.241533 13409 net.cpp:157] Top shape: 1 1024 24 24 (589824)
I0107 19:33:42.241539 13409 net.cpp:165] Memory required for data: 1056486608
I0107 19:33:42.241547 13409 layer_factory.hpp:77] Creating layer relu6/dw
I0107 19:33:42.241566 13409 net.cpp:100] Creating Layer relu6/dw
I0107 19:33:42.241575 13409 net.cpp:434] relu6/dw <- conv6/dw
I0107 19:33:42.241581 13409 net.cpp:395] relu6/dw -> conv6/dw (in-place)
I0107 19:33:42.242050 13409 net.cpp:150] Setting up relu6/dw
I0107 19:33:42.242112 13409 net.cpp:157] Top shape: 1 1024 24 24 (589824)
I0107 19:33:42.242117 13409 net.cpp:165] Memory required for data: 1058845904
I0107 19:33:42.242127 13409 layer_factory.hpp:77] Creating layer conv6/sep
I0107 19:33:42.242166 13409 net.cpp:100] Creating Layer conv6/sep
I0107 19:33:42.242174 13409 net.cpp:434] conv6/sep <- conv6/dw
I0107 19:33:42.242192 13409 net.cpp:408] conv6/sep -> conv6/sep
I0107 19:33:42.271558 13409 net.cpp:150] Setting up conv6/sep
I0107 19:33:42.271584 13409 net.cpp:157] Top shape: 1 1024 24 24 (589824)
I0107 19:33:42.271589 13409 net.cpp:165] Memory required for data: 1061205200
I0107 19:33:42.271598 13409 layer_factory.hpp:77] Creating layer conv6/sep/bn
I0107 19:33:42.271610 13409 net.cpp:100] Creating Layer conv6/sep/bn
I0107 19:33:42.271616 13409 net.cpp:434] conv6/sep/bn <- conv6/sep
I0107 19:33:42.271622 13409 net.cpp:395] conv6/sep/bn -> conv6/sep (in-place)
I0107 19:33:42.271842 13409 net.cpp:150] Setting up conv6/sep/bn
I0107 19:33:42.271849 13409 net.cpp:157] Top shape: 1 1024 24 24 (589824)
I0107 19:33:42.271852 13409 net.cpp:165] Memory required for data: 1063564496
I0107 19:33:42.271859 13409 layer_factory.hpp:77] Creating layer conv6/sep/scale
I0107 19:33:42.271868 13409 net.cpp:100] Creating Layer conv6/sep/scale
I0107 19:33:42.271872 13409 net.cpp:434] conv6/sep/scale <- conv6/sep
I0107 19:33:42.271878 13409 net.cpp:395] conv6/sep/scale -> conv6/sep (in-place)
I0107 19:33:42.271921 13409 layer_factory.hpp:77] Creating layer conv6/sep/scale
I0107 19:33:42.272037 13409 net.cpp:150] Setting up conv6/sep/scale
I0107 19:33:42.272045 13409 net.cpp:157] Top shape: 1 1024 24 24 (589824)
I0107 19:33:42.272048 13409 net.cpp:165] Memory required for data: 1065923792
I0107 19:33:42.272053 13409 layer_factory.hpp:77] Creating layer relu6/sep
I0107 19:33:42.272059 13409 net.cpp:100] Creating Layer relu6/sep
I0107 19:33:42.272063 13409 net.cpp:434] relu6/sep <- conv6/sep
I0107 19:33:42.272068 13409 net.cpp:395] relu6/sep -> conv6/sep (in-place)
I0107 19:33:42.272552 13409 net.cpp:150] Setting up relu6/sep
I0107 19:33:42.272563 13409 net.cpp:157] Top shape: 1 1024 24 24 (589824)
I0107 19:33:42.272567 13409 net.cpp:165] Memory required for data: 1068283088
I0107 19:33:42.272570 13409 layer_factory.hpp:77] Creating layer conv6/sep_relu6/sep_0_split
I0107 19:33:42.272578 13409 net.cpp:100] Creating Layer conv6/sep_relu6/sep_0_split
I0107 19:33:42.272581 13409 net.cpp:434] conv6/sep_relu6/sep_0_split <- conv6/sep
I0107 19:33:42.272588 13409 net.cpp:408] conv6/sep_relu6/sep_0_split -> conv6/sep_relu6/sep_0_split_0
I0107 19:33:42.272594 13409 net.cpp:408] conv6/sep_relu6/sep_0_split -> conv6/sep_relu6/sep_0_split_1
I0107 19:33:42.272600 13409 net.cpp:408] conv6/sep_relu6/sep_0_split -> conv6/sep_relu6/sep_0_split_2
I0107 19:33:42.272653 13409 net.cpp:150] Setting up conv6/sep_relu6/sep_0_split
I0107 19:33:42.272661 13409 net.cpp:157] Top shape: 1 1024 24 24 (589824)
I0107 19:33:42.272665 13409 net.cpp:157] Top shape: 1 1024 24 24 (589824)
I0107 19:33:42.272670 13409 net.cpp:157] Top shape: 1 1024 24 24 (589824)
I0107 19:33:42.272672 13409 net.cpp:165] Memory required for data: 1075360976
I0107 19:33:42.272675 13409 layer_factory.hpp:77] Creating layer LFCN_3_5x5
I0107 19:33:42.272686 13409 net.cpp:100] Creating Layer LFCN_3_5x5
I0107 19:33:42.272689 13409 net.cpp:434] LFCN_3_5x5 <- conv6/sep_relu6/sep_0_split_0
I0107 19:33:42.272696 13409 net.cpp:408] LFCN_3_5x5 -> LFCN_3_5x5
I0107 19:33:42.279574 13409 net.cpp:150] Setting up LFCN_3_5x5
I0107 19:33:42.279587 13409 net.cpp:157] Top shape: 1 9 24 24 (5184)
I0107 19:33:42.279592 13409 net.cpp:165] Memory required for data: 1075381712
I0107 19:33:42.279598 13409 layer_factory.hpp:77] Creating layer LFCN_3_5x5_LFCN_3_5x5_0_split
I0107 19:33:42.279605 13409 net.cpp:100] Creating Layer LFCN_3_5x5_LFCN_3_5x5_0_split
I0107 19:33:42.279610 13409 net.cpp:434] LFCN_3_5x5_LFCN_3_5x5_0_split <- LFCN_3_5x5
I0107 19:33:42.279616 13409 net.cpp:408] LFCN_3_5x5_LFCN_3_5x5_0_split -> LFCN_3_5x5_LFCN_3_5x5_0_split_0
I0107 19:33:42.279623 13409 net.cpp:408] LFCN_3_5x5_LFCN_3_5x5_0_split -> LFCN_3_5x5_LFCN_3_5x5_0_split_1
I0107 19:33:42.279664 13409 net.cpp:150] Setting up LFCN_3_5x5_LFCN_3_5x5_0_split
I0107 19:33:42.279673 13409 net.cpp:157] Top shape: 1 9 24 24 (5184)
I0107 19:33:42.279677 13409 net.cpp:157] Top shape: 1 9 24 24 (5184)
I0107 19:33:42.279680 13409 net.cpp:165] Memory required for data: 1075423184
I0107 19:33:42.279683 13409 layer_factory.hpp:77] Creating layer detection_loss_3_5x5
I0107 19:33:42.279690 13409 net.cpp:100] Creating Layer detection_loss_3_5x5
I0107 19:33:42.279693 13409 net.cpp:434] detection_loss_3_5x5 <- LFCN_3_5x5_LFCN_3_5x5_0_split_0
I0107 19:33:42.279698 13409 net.cpp:434] detection_loss_3_5x5 <- label_3_5x5_data_5_split_0
I0107 19:33:42.279705 13409 net.cpp:408] detection_loss_3_5x5 -> loss_3_5x5
I0107 19:33:42.279713 13409 layer_factory.hpp:77] Creating layer detection_loss_3_5x5
I0107 19:33:42.280369 13409 net.cpp:150] Setting up detection_loss_3_5x5
I0107 19:33:42.280386 13409 net.cpp:157] Top shape: 1 1 1 2 (2)
I0107 19:33:42.280390 13409 net.cpp:160]     with loss weight 1
I0107 19:33:42.280400 13409 net.cpp:165] Memory required for data: 1075423192
I0107 19:33:42.280403 13409 layer_factory.hpp:77] Creating layer detection_accuracy_3_5x5
I0107 19:33:42.280411 13409 net.cpp:100] Creating Layer detection_accuracy_3_5x5
I0107 19:33:42.280414 13409 net.cpp:434] detection_accuracy_3_5x5 <- LFCN_3_5x5_LFCN_3_5x5_0_split_1
I0107 19:33:42.280419 13409 net.cpp:434] detection_accuracy_3_5x5 <- label_3_5x5_data_5_split_1
I0107 19:33:42.280426 13409 net.cpp:408] detection_accuracy_3_5x5 -> accuracy_3_5x5
I0107 19:33:42.280432 13409 net.cpp:408] detection_accuracy_3_5x5 -> boxiou_3_5x5
I0107 19:33:42.280472 13409 net.cpp:150] Setting up detection_accuracy_3_5x5
I0107 19:33:42.280478 13409 net.cpp:157] Top shape: 1 1 1 2 (2)
I0107 19:33:42.280483 13409 net.cpp:157] Top shape: 1 1 1 1 (1)
I0107 19:33:42.280484 13409 net.cpp:165] Memory required for data: 1075423204
I0107 19:33:42.280488 13409 layer_factory.hpp:77] Creating layer LFCN_3_7x7
I0107 19:33:42.280498 13409 net.cpp:100] Creating Layer LFCN_3_7x7
I0107 19:33:42.280500 13409 net.cpp:434] LFCN_3_7x7 <- conv6/sep_relu6/sep_0_split_1
I0107 19:33:42.280508 13409 net.cpp:408] LFCN_3_7x7 -> LFCN_3_7x7
I0107 19:33:42.294414 13409 net.cpp:150] Setting up LFCN_3_7x7
I0107 19:33:42.294440 13409 net.cpp:157] Top shape: 1 9 24 24 (5184)
I0107 19:33:42.294445 13409 net.cpp:165] Memory required for data: 1075443940
I0107 19:33:42.294453 13409 layer_factory.hpp:77] Creating layer LFCN_3_7x7_LFCN_3_7x7_0_split
I0107 19:33:42.294464 13409 net.cpp:100] Creating Layer LFCN_3_7x7_LFCN_3_7x7_0_split
I0107 19:33:42.294471 13409 net.cpp:434] LFCN_3_7x7_LFCN_3_7x7_0_split <- LFCN_3_7x7
I0107 19:33:42.294479 13409 net.cpp:408] LFCN_3_7x7_LFCN_3_7x7_0_split -> LFCN_3_7x7_LFCN_3_7x7_0_split_0
I0107 19:33:42.294488 13409 net.cpp:408] LFCN_3_7x7_LFCN_3_7x7_0_split -> LFCN_3_7x7_LFCN_3_7x7_0_split_1
I0107 19:33:42.294528 13409 net.cpp:150] Setting up LFCN_3_7x7_LFCN_3_7x7_0_split
I0107 19:33:42.294535 13409 net.cpp:157] Top shape: 1 9 24 24 (5184)
I0107 19:33:42.294539 13409 net.cpp:157] Top shape: 1 9 24 24 (5184)
I0107 19:33:42.294543 13409 net.cpp:165] Memory required for data: 1075485412
I0107 19:33:42.294545 13409 layer_factory.hpp:77] Creating layer detection_loss_3_7x7
I0107 19:33:42.294554 13409 net.cpp:100] Creating Layer detection_loss_3_7x7
I0107 19:33:42.294559 13409 net.cpp:434] detection_loss_3_7x7 <- LFCN_3_7x7_LFCN_3_7x7_0_split_0
I0107 19:33:42.294564 13409 net.cpp:434] detection_loss_3_7x7 <- label_3_7x7_data_6_split_0
I0107 19:33:42.294569 13409 net.cpp:408] detection_loss_3_7x7 -> loss_3_7x7
I0107 19:33:42.294577 13409 layer_factory.hpp:77] Creating layer detection_loss_3_7x7
I0107 19:33:42.294917 13409 net.cpp:150] Setting up detection_loss_3_7x7
I0107 19:33:42.294927 13409 net.cpp:157] Top shape: 1 1 1 2 (2)
I0107 19:33:42.294930 13409 net.cpp:160]     with loss weight 1
I0107 19:33:42.294941 13409 net.cpp:165] Memory required for data: 1075485420
I0107 19:33:42.294945 13409 layer_factory.hpp:77] Creating layer detection_accuracy_3_7x7
I0107 19:33:42.294952 13409 net.cpp:100] Creating Layer detection_accuracy_3_7x7
I0107 19:33:42.294955 13409 net.cpp:434] detection_accuracy_3_7x7 <- LFCN_3_7x7_LFCN_3_7x7_0_split_1
I0107 19:33:42.294960 13409 net.cpp:434] detection_accuracy_3_7x7 <- label_3_7x7_data_6_split_1
I0107 19:33:42.294966 13409 net.cpp:408] detection_accuracy_3_7x7 -> accuracy_3_7x7
I0107 19:33:42.294975 13409 net.cpp:408] detection_accuracy_3_7x7 -> boxiou_3_7x7
I0107 19:33:42.295018 13409 net.cpp:150] Setting up detection_accuracy_3_7x7
I0107 19:33:42.295025 13409 net.cpp:157] Top shape: 1 1 1 2 (2)
I0107 19:33:42.295029 13409 net.cpp:157] Top shape: 1 1 1 1 (1)
I0107 19:33:42.295032 13409 net.cpp:165] Memory required for data: 1075485432
I0107 19:33:42.295035 13409 layer_factory.hpp:77] Creating layer pool6
I0107 19:33:42.295042 13409 net.cpp:100] Creating Layer pool6
I0107 19:33:42.295047 13409 net.cpp:434] pool6 <- conv6/sep_relu6/sep_0_split_2
I0107 19:33:42.295051 13409 net.cpp:408] pool6 -> pool6
I0107 19:33:42.295091 13409 net.cpp:150] Setting up pool6
I0107 19:33:42.295097 13409 net.cpp:157] Top shape: 1 1024 12 12 (147456)
I0107 19:33:42.295101 13409 net.cpp:165] Memory required for data: 1076075256
I0107 19:33:42.295104 13409 layer_factory.hpp:77] Creating layer LFCN_4_5x5
I0107 19:33:42.295114 13409 net.cpp:100] Creating Layer LFCN_4_5x5
I0107 19:33:42.295119 13409 net.cpp:434] LFCN_4_5x5 <- pool6
I0107 19:33:42.295125 13409 net.cpp:408] LFCN_4_5x5 -> LFCN_4_5x5
I0107 19:33:42.303596 13409 net.cpp:150] Setting up LFCN_4_5x5
I0107 19:33:42.303633 13409 net.cpp:157] Top shape: 1 9 12 12 (1296)
I0107 19:33:42.303637 13409 net.cpp:165] Memory required for data: 1076080440
I0107 19:33:42.303648 13409 layer_factory.hpp:77] Creating layer LFCN_4_5x5_LFCN_4_5x5_0_split
I0107 19:33:42.303664 13409 net.cpp:100] Creating Layer LFCN_4_5x5_LFCN_4_5x5_0_split
I0107 19:33:42.303670 13409 net.cpp:434] LFCN_4_5x5_LFCN_4_5x5_0_split <- LFCN_4_5x5
I0107 19:33:42.303678 13409 net.cpp:408] LFCN_4_5x5_LFCN_4_5x5_0_split -> LFCN_4_5x5_LFCN_4_5x5_0_split_0
I0107 19:33:42.303685 13409 net.cpp:408] LFCN_4_5x5_LFCN_4_5x5_0_split -> LFCN_4_5x5_LFCN_4_5x5_0_split_1
I0107 19:33:42.303728 13409 net.cpp:150] Setting up LFCN_4_5x5_LFCN_4_5x5_0_split
I0107 19:33:42.303735 13409 net.cpp:157] Top shape: 1 9 12 12 (1296)
I0107 19:33:42.303738 13409 net.cpp:157] Top shape: 1 9 12 12 (1296)
I0107 19:33:42.303741 13409 net.cpp:165] Memory required for data: 1076090808
I0107 19:33:42.303745 13409 layer_factory.hpp:77] Creating layer detection_loss_4_5x5
I0107 19:33:42.303752 13409 net.cpp:100] Creating Layer detection_loss_4_5x5
I0107 19:33:42.303756 13409 net.cpp:434] detection_loss_4_5x5 <- LFCN_4_5x5_LFCN_4_5x5_0_split_0
I0107 19:33:42.303761 13409 net.cpp:434] detection_loss_4_5x5 <- label_4_5x5_data_7_split_0
I0107 19:33:42.303767 13409 net.cpp:408] detection_loss_4_5x5 -> loss_4_5x5
I0107 19:33:42.303776 13409 layer_factory.hpp:77] Creating layer detection_loss_4_5x5
I0107 19:33:42.304139 13409 net.cpp:150] Setting up detection_loss_4_5x5
I0107 19:33:42.304157 13409 net.cpp:157] Top shape: 1 1 1 2 (2)
I0107 19:33:42.304159 13409 net.cpp:160]     with loss weight 1
I0107 19:33:42.304191 13409 net.cpp:165] Memory required for data: 1076090816
I0107 19:33:42.304196 13409 layer_factory.hpp:77] Creating layer detection_accuracy_4_5x5
I0107 19:33:42.304210 13409 net.cpp:100] Creating Layer detection_accuracy_4_5x5
I0107 19:33:42.304214 13409 net.cpp:434] detection_accuracy_4_5x5 <- LFCN_4_5x5_LFCN_4_5x5_0_split_1
I0107 19:33:42.304220 13409 net.cpp:434] detection_accuracy_4_5x5 <- label_4_5x5_data_7_split_1
I0107 19:33:42.304230 13409 net.cpp:408] detection_accuracy_4_5x5 -> accuracy_4_5x5
I0107 19:33:42.304241 13409 net.cpp:408] detection_accuracy_4_5x5 -> boxiou_4_5x5
I0107 19:33:42.304311 13409 net.cpp:150] Setting up detection_accuracy_4_5x5
I0107 19:33:42.304343 13409 net.cpp:157] Top shape: 1 1 1 2 (2)
I0107 19:33:42.304347 13409 net.cpp:157] Top shape: 1 1 1 1 (1)
I0107 19:33:42.304350 13409 net.cpp:165] Memory required for data: 1076090828
I0107 19:33:42.304354 13409 net.cpp:228] detection_accuracy_4_5x5 does not need backward computation.
I0107 19:33:42.304360 13409 net.cpp:226] detection_loss_4_5x5 needs backward computation.
I0107 19:33:42.304365 13409 net.cpp:226] LFCN_4_5x5_LFCN_4_5x5_0_split needs backward computation.
I0107 19:33:42.304368 13409 net.cpp:226] LFCN_4_5x5 needs backward computation.
…
