…
    downsample_rate: 16
    downsample_rate: 32
    downsample_rate: 32
    downsample_rate: 64
    coord_num: 4
    field_h: 60
    field_h: 84
    field_h: 120
    field_h: 168
    field_h: 240
    field_h: 336
    field_h: 480
    field_w: 60
    field_w: 84
    field_w: 120
    field_w: 168
    field_w: 240
    field_w: 336
    field_w: 480
    fg_threshold: 0.5
    resize_width: 1344
    resize_height: 768
    crop_width: 768
    crop_height: 768
    do_multiple_scale: true
    min_scale: 60
    max_scale: 480
    min_gt_height: 25
    shuffle: true
  }
}
layer {
  name: "slice"
  type: "Slice"
  bottom: "data"
  top: "data123"
  top: "ch4"
  slice_param {
    slice_point: 3
    axis: 1
  }
}
layer {
  name: "conv1_1"
  type: "Convolution"
  bottom: "data123"
  top: "conv1_1"
  convolution_param {
    num_output: 64
    pad: 1
    kernel_size: 3
  }
}
layer {
  name: "relu1_1"
  type: "ReLU"
  bottom: "conv1_1"
  top: "conv1_1"
}
layer {
  name: "conv1_2"
  type: "Convolution"
  bottom: "conv1_1"
  top: "conv1_2"
  convolution_param {
    num_output: 64
    pad: 1
    kernel_size: 3
  }
}
layer {
  name: "relu1_2"
  type: "ReLU"
  bottom: "conv1_2"
  top: "conv1_2"
}
layer {
  name: "pool1"
  type: "Pooling"
  bottom: "conv1_2"
  top: "pool1"
  pooling_param {
    pool: MAX
    kernel_size: 2
    stride: 2
  }
}
layer {
  name: "conv2_1"
  type: "Convolution"
  bottom: "pool1"
  top: "conv2_1"
  convolution_param {
    num_output: 128
    pad: 1
    kernel_size: 3
  }
}
layer {
  name: "relu2_1"
  type: "ReLU"
  bottom: "conv2_1"
  top: "conv2_1"
}
layer {
  name: "conv2_2"
  type: "Convolution"
  bottom: "conv2_1"
  top: "conv2_2"
  convolution_param {
    num_output: 128
    pad: 1
    kernel_size: 3
  }
}
layer {
  name: "relu2_2"
  type: "ReLU"
  bottom: "conv2_2"
  top: "conv2_2"
}
layer {
  name: "pool2"
  type: "Pooling"
  bottom: "conv2_2"
  top: "pool2"
  pooling_param {
    pool: MAX
    kernel_size: 2
    stride: 2
  }
}
layer {
  name: "conv3_1"
  type: "Convolution"
  bottom: "pool2"
  top: "conv3_1"
  convolution_param {
    num_output: 256
    pad: 1
    kernel_size: 3
  }
}
layer {
  name: "relu3_1"
  type: "ReLU"
  bottom: "conv3_1"
  top: "conv3_1"
}
layer {
  name: "conv3_2"
  type: "Convolution"
  bottom: "conv3_1"
  top: "conv3_2"
  convolution_param {
    num_output: 256
    pad: 1
    kernel_size: 3
  }
}
layer {
  name: "relu3_2"
  type: "ReLU"
  bottom: "conv3_2"
  top: "conv3_2"
}
layer {
  name: "conv3_3"
  type: "Convolution"
  bottom: "conv3_2"
  top: "conv3_3"
  convolution_param {
    num_output: 256
    pad: 1
    kernel_size: 3
  }
}
layer {
  name: "relu3_3"
  type: "ReLU"
  bottom: "conv3_3"
  top: "conv3_3"
}
layer {
  name: "pool3"
  type: "Pooling"
  bottom: "conv3_3"
  top: "pool3"
  pooling_param {
    pool: MAX
    kernel_size: 2
    stride: 2
  }
}
layer {
  name: "conv4_1"
  type: "Convolution"
  bottom: "pool3"
  top: "conv4_1"
  convolution_param {
    num_output: 512
    pad: 1
    kernel_size: 3
  }
}
layer {
  name: "relu4_1"
  type: "ReLU"
  bottom: "conv4_1"
  top: "conv4_1"
}
layer {
  name: "conv4_2"
  type: "Convolution"
  bottom: "conv4_1"
  top: "conv4_2"
  convolution_param {
    num_output: 512
    pad: 1
    kernel_size: 3
  }
}
layer {
  name: "relu4_2"
  type: "ReLU"
  bottom: "conv4_2"
  top: "conv4_2"
}
layer {
  name: "conv4_3"
  type: "Convolution"
  bottom: "conv4_2"
  top: "conv4_3"
  convolution_param {
    num_output: 512
    pad: 1
    kernel_size: 3
  }
}
layer {
  name: "relu4_3"
  type: "ReLU"
  bottom: "conv4_3"
  top: "conv4_3"
}
layer {
  name: "buffer"
  type: "Convolution"
  bottom: "conv4_3"
  top: "buffer"
  param {
    lr_mult: 1
    decay_mult: 1
  }
  param {
    lr_mult: 2
    decay_mult: 0
  }
  propagate_down: false
  convolution_param {
    num_output: 512
    pad: 1
    kernel_size: 3
    weight_filler {
      type: "gaussian"
      std: 0.01
    }
    bias_filler {
      type: "constant"
    }
  }
}
layer {
  name: "relu_buffer"
  type: "ReLU"
  bottom: "buffer"
  top: "buffer"
}
layer {
  name: "attention"
  type: "Convolution"
  bottom: "buffer"
  top: "attention"
  param {
    lr_mult: 1
    decay_mult: 1
  }
  param {
    lr_mult: 2
    decay_mult: 0
  }
  convolution_param {
    num_output: 3
    pad: 1
    kernel_size: 3
    weight_filler {
      type: "gaussian"
      std: 0.01
    }
    bias_filler {
      type: "constant"
    }
  }
}
layer {
  name: "ch4_pool"
  type: "Pooling"
  bottom: "ch4"
  top: "ch4_pool"
  pooling_param {
    pool: MAX
    kernel_size: 8
    stride: 8
  }
}
layer {
  name: "loss_attention"
  type: "WeightedSoftmaxWithLoss"
  bottom: "attention"
  bottom: "ch4_pool"
  top: "loss_attention"
  loss_weight: 1.1
  propagate_down: true
  propagate_down: false
  softmax_param {
    pos_mult: 1
    pos_cid: 0
  }
}
layer {
  name: "loss1_conv1"
  type: "Convolution"
  bottom: "conv4_3"
  top: "loss1_conv1"
  param {
    lr_mult: 1
    decay_mult: 1
  }
  param {
    lr_mult: 2
    decay_mult: 0
  }
  convolution_param {
    num_output: 512
    pad: 1
    kernel_size: 3
    weight_filler {
      type: "gaussian"
      std: 0.01
    }
    bias_filler {
      type: "constant"
    }
  }
}
layer {
  name: "loss_relu1"
  type: "ReLU"
  bottom: "loss1_conv1"
  top: "loss1_conv1"
}
layer {
  name: "LFCN_1_5x5"
  type: "Convolution"
  bottom: "loss1_conv1"
  top: "LFCN_1_5x5"
  param {
    lr_mult: 1
    decay_mult: 1
  }
  param {
    lr_mult: 2
    decay_mult: 0
  }
  convolution_param {
    num_output: 9
    pad: 2
    kernel_size: 5
    weight_filler {
      type: "gaussian"
      std: 0.001
    }
    bias_filler {
      type: "constant"
    }
  }
}
layer {
  name: "detection_loss_1_5x5"
  type: "DetectionLoss"
  bottom: "LFCN_1_5x5"
  bottom: "label_1_5x5"
  top: "loss_1_5x5"
  loss_weight: 0.9
  detection_loss_param {
    cls_num: 5
    coord_num: 4
    lambda: 0.05
    field_h: 60
    field_w: 60
    downsample_rate: 8
    bb_smooth: true
    field_whr: 2
    field_xyr: 2
    bg_threshold: 0.2
    bg_multiple: 2
    sample_mode: "random"
    pos_neg_weighted: true
  }
}
layer {
  name: "detection_accuracy_1_5x5"
  type: "DetectionAccuracy"
  bottom: "LFCN_1_5x5"
  bottom: "label_1_5x5"
  top: "accuracy_1_5x5"
  top: "boxiou_1_5x5"
  detection_accuracy_param {
    cls_num: 5
    coord_num: 4
    field_h: 60
    field_w: 60
    downsample_rate: 8
    field_whr: 2
    field_xyr: 2
  }
}
layer {
  name: "LFCN_1_7x7"
  type: "Convolution"
  bottom: "loss1_conv1"
  top: "LFCN_1_7x7"
  param {
    lr_mult: 1
    decay_mult: 1
  }
  param {
    lr_mult: 2
    decay_mult: 0
  }
  convolution_param {
    num_output: 9
    pad: 3
    kernel_size: 7
    weight_filler {
      type: "gaussian"
      std: 0.001
    }
    bias_filler {
      type: "constant"
    }
  }
}
layer {
  name: "detection_loss_1_7x7"
  type: "DetectionLoss"
  bottom: "LFCN_1_7x7"
  bottom: "label_1_7x7"
  top: "loss_1_7x7"
  loss_weight: 0.9
  detection_loss_param {
    cls_num: 5
    coord_num: 4
    lambda: 0.05
    field_h: 84
    field_w: 84
    downsample_rate: 8
    bb_smooth: true
    field_whr: 2
    field_xyr: 2
    bg_threshold: 0.2
    bg_multiple: 2
    sample_mode: "random"
    pos_neg_weighted: true
  }
}
layer {
  name: "detection_accuracy_1_7x7"
  type: "DetectionAccuracy"
  bottom: "LFCN_1_7x7"
  bottom: "label_1_7x7"
  top: "accuracy_1_7x7"
  top: "boxiou_1_7x7"
  detection_accuracy_param {
    cls_num: 5
    coord_num: 4
    field_h: 84
    field_w: 84
    downsample_rate: 8
    field_whr: 2
    field_xyr: 2
  }
}
layer {
  name: "pool4"
  type: "Pooling"
  bottom: "conv4_3"
  top: "pool4"
  pooling_param {
    pool: MAX
    kernel_size: 2
    stride: 2
  }
}
layer {
  name: "conv5_1"
  type: "Convolution"
  bottom: "pool4"
  top: "conv5_1"
  convolution_param {
    num_output: 512
    pad: 1
    kernel_size: 3
  }
}
layer {
  name: "relu5_1"
  type: "ReLU"
  bottom: "conv5_1"
  top: "conv5_1"
}
layer {
  name: "conv5_2"
  type: "Convolution"
  bottom: "conv5_1"
  top: "conv5_2"
  convolution_param {
    num_output: 512
    pad: 1
    kernel_size: 3
  }
}
layer {
  name: "relu5_2"
  type: "ReLU"
  bottom: "conv5_2"
  top: "conv5_2"
}
layer {
  name: "conv5_3"
  type: "Convolution"
  bottom: "conv5_2"
  top: "conv5_3"
  convolution_param {
    num_output: 512
    pad: 1
    kernel_size: 3
  }
}
layer {
  name: "relu5_3"
  type: "ReLU"
  bottom: "conv5_3"
  top: "conv5_3"
}
layer {
  name: "LFCN_2_5x5"
  type: "Convolution"
  bottom: "conv5_3"
  top: "LFCN_2_5x5"
  param {
    lr_mult: 1
    decay_mult: 1
  }
  param {
    lr_mult: 2
    decay_mult: 0
  }
  convolution_param {
    num_output: 9
    pad: 2
    kernel_size: 5
    weight_filler {
      type: "gaussian"
      std: 0.001
    }
    bias_filler {
      type: "constant"
    }
  }
}
layer {
  name: "detection_loss_2_5x5"
  type: "DetectionLoss"
  bottom: "LFCN_2_5x5"
  bottom: "label_2_5x5"
  top: "loss_2_5x5"
  detection_loss_param {
    cls_num: 5
    coord_num: 4
    lambda: 0.05
    field_h: 120
    field_w: 120
    downsample_rate: 16
    bb_smooth: true
    field_whr: 2
    field_xyr: 2
    bg_threshold: 0.2
    bg_multiple: 2
    sample_mode: "random"
    pos_neg_weighted: true
  }
}
layer {
  name: "detection_accuracy_2_5x5"
  type: "DetectionAccuracy"
  bottom: "LFCN_2_5x5"
  bottom: "label_2_5x5"
  top: "accuracy_2_5x5"
  top: "boxiou_2_5x5"
  detection_accuracy_param {
    cls_num: 5
    coord_num: 4
    field_h: 120
    field_w: 120
    downsample_rate: 16
    field_whr: 2
    field_xyr: 2
  }
}
layer {
  name: "LFCN_2_7x7"
  type: "Convolution"
  bottom: "conv5_3"
  top: "LFCN_2_7x7"
  param {
    lr_mult: 1
    decay_mult: 1
  }
  param {
    lr_mult: 2
    decay_mult: 0
  }
  convolution_param {
    num_output: 9
    pad: 3
    kernel_size: 7
    weight_filler {
      type: "gaussian"
      std: 0.001
    }
    bias_filler {
      type: "constant"
    }
  }
}
layer {
  name: "detection_loss_2_7x7"
  type: "DetectionLoss"
  bottom: "LFCN_2_7x7"
  bottom: "label_2_7x7"
  top: "loss_2_7x7"
  detection_loss_param {
    cls_num: 5
    coord_num: 4
    lambda: 0.05
    field_h: 168
    field_w: 168
    downsample_rate: 16
    bb_smooth: true
    field_whr: 2
    field_xyr: 2
    bg_threshold: 0.2
    bg_multiple: 2
    sample_mode: "random"
    pos_neg_weighted: true
  }
}
layer {
  name: "detection_accuracy_2_7x7"
  type: "DetectionAccuracy"
  bottom: "LFCN_2_7x7"
  bottom: "label_2_7x7"
  top: "accuracy_2_7x7"
  top: "boxiou_2_7x7"
  detection_accuracy_param {
    cls_num: 5
    coord_num: 4
    field_h: 168
    field_w: 168
    downsample_rate: 16
    field_whr: 2
    field_xyr: 2
  }
}
layer {
  name: "pool5"
  type: "Pooling"
  bottom: "conv5_3"
  top: "pool5"
  pooling_param {
    pool: MAX
    kernel_size: 2
    stride: 2
  }
}
layer {
  name: "conv6_1"
  type: "Convolution"
  bottom: "pool5"
  top: "conv6_1"
  param {
    lr_mult: 1
    decay_mult: 1
  }
  param {
    lr_mult: 2
    decay_mult: 0
  }
  convolution_param {
    num_output: 512
    pad: 1
    kernel_size: 3
    weight_filler {
      type: "gaussian"
      std: 0.01
    }
    bias_filler {
      type: "constant"
    }
  }
}
layer {
  name: "relu6_1"
  type: "ReLU"
  bottom: "conv6_1"
  top: "conv6_1"
}
layer {
  name: "LFCN_3_5x5"
  type: "Convolution"
  bottom: "conv6_1"
  top: "LFCN_3_5x5"
  param {
    lr_mult: 1
    decay_mult: 1
  }
  param {
    lr_mult: 2
    decay_mult: 0
  }
  convolution_param {
    num_output: 9
    pad: 2
    kernel_size: 5
    weight_filler {
      type: "gaussian"
      std: 0.001
    }
    bias_filler {
      type: "constant"
    }
  }
}
layer {
  name: "detection_loss_3_5x5"
  type: "DetectionLoss"
  bottom: "LFCN_3_5x5"
  bottom: "label_3_5x5"
  top: "loss_3_5x5"
  detection_loss_param {
    cls_num: 5
    coord_num: 4
    lambda: 0.05
    field_h: 240
    field_w: 240
    downsample_rate: 32
    bb_smooth: true
    field_whr: 2
    field_xyr: 2
    bg_threshold: 0.2
    bg_multiple: 2
    sample_mode: "random"
    pos_neg_weighted: true
  }
}
layer {
  name: "detection_accuracy_3_5x5"
  type: "DetectionAccuracy"
  bottom: "LFCN_3_5x5"
  bottom: "label_3_5x5"
  top: "accuracy_3_5x5"
  top: "boxiou_3_5x5"
  detection_accuracy_param {
    cls_num: 5
    coord_num: 4
    field_h: 240
    field_w: 240
    downsample_rate: 32
    field_whr: 2
    field_xyr: 2
  }
}
layer {
  name: "LFCN_3_7x7"
  type: "Convolution"
  bottom: "conv6_1"
  top: "LFCN_3_7x7"
  param {
    lr_mult: 1
    decay_mult: 1
  }
  param {
    lr_mult: 2
    decay_mult: 0
  }
  convolution_param {
    num_output: 9
    pad: 3
    kernel_size: 7
    weight_filler {
      type: "gaussian"
      std: 0.001
    }
    bias_filler {
      type: "constant"
    }
  }
}
layer {
  name: "detection_loss_3_7x7"
  type: "DetectionLoss"
  bottom: "LFCN_3_7x7"
  bottom: "label_3_7x7"
  top: "loss_3_7x7"
  detection_loss_param {
    cls_num: 5
    coord_num: 4
    lambda: 0.05
    field_h: 336
    field_w: 336
    downsample_rate: 32
    bb_smooth: true
    field_whr: 2
    field_xyr: 2
    bg_threshold: 0.2
    bg_multiple: 2
    sample_mode: "random"
    pos_neg_weighted: true
  }
}
layer {
  name: "detection_accuracy_3_7x7"
  type: "DetectionAccuracy"
  bottom: "LFCN_3_7x7"
  bottom: "label_3_7x7"
  top: "accuracy_3_7x7"
  top: "boxiou_3_7x7"
  detection_accuracy_param {
    cls_num: 5
    coord_num: 4
    field_h: 336
    field_w: 336
    downsample_rate: 32
    field_whr: 2
    field_xyr: 2
  }
}
layer {
  name: "pool6"
  type: "Pooling"
  bottom: "conv6_1"
  top: "pool6"
  pooling_param {
    pool: MAX
    kernel_size: 2
    stride: 2
  }
}
layer {
  name: "LFCN_4_5x5"
  type: "Convolution"
  bottom: "pool6"
  top: "LFCN_4_5x5"
  param {
    lr_mult: 1
    decay_mult: 1
  }
  param {
    lr_mult: 2
    decay_mult: 0
  }
  convolution_param {
    num_output: 9
    pad: 2
    kernel_size: 5
    weight_filler {
      type: "gaussian"
      std: 0.001
    }
    bias_filler {
      type: "constant"
    }
  }
}
layer {
  name: "detection_loss_4_5x5"
  type: "DetectionLoss"
  bottom: "LFCN_4_5x5"
  bottom: "label_4_5x5"
  top: "loss_4_5x5"
  detection_loss_param {
    cls_num: 5
    coord_num: 4
    lambda: 0.05
    field_h: 480
    field_w: 480
    downsample_rate: 64
    bb_smooth: true
    field_whr: 2
    field_xyr: 2
    bg_threshold: 0.2
    bg_multiple: 2
    sample_mode: "random"
    pos_neg_weighted: true
  }
}
layer {
  name: "detection_accuracy_4_5x5"
  type: "DetectionAccuracy"
  bottom: "LFCN_4_5x5"
  bottom: "label_4_5x5"
  top: "accuracy_4_5x5"
  top: "boxiou_4_5x5"
  detection_accuracy_param {
    cls_num: 5
    coord_num: 4
    field_h: 480
    field_w: 480
    downsample_rate: 64
    field_whr: 2
    field_xyr: 2
  }
}
I1203 21:22:11.564954 17543 layer_factory.hpp:77] Creating layer data
I1203 21:22:11.566007 17543 net.cpp:100] Creating Layer data
I1203 21:22:11.566031 17543 net.cpp:408] data -> data
…
I1203 21:22:11.679682 17543 image_gt_data_layer.cpp:235] output label size 1 : 3,6,96,96
I1203 21:22:11.679757 17543 image_gt_data_layer.cpp:235] output label size 2 : 3,6,48,48
I1203 21:22:11.679857 17543 image_gt_data_layer.cpp:235] output label size 3 : 3,6,48,48
I1203 21:22:11.679919 17543 image_gt_data_layer.cpp:235] output label size 4 : 3,6,24,24
I1203 21:22:11.679972 17543 image_gt_data_layer.cpp:235] output label size 5 : 3,6,24,24
I1203 21:22:11.680021 17543 image_gt_data_layer.cpp:235] output label size 6 : 3,6,12,12
I1203 21:22:11.736511 17543 net.cpp:150] Setting up data
I1203 21:22:11.736549 17543 net.cpp:157] Top shape: 3 4 768 768 (7077888)
I1203 21:22:11.736554 17543 net.cpp:157] Top shape: 3 6 96 96 (165888)
I1203 21:22:11.736558 17543 net.cpp:157] Top shape: 3 6 96 96 (165888)
I1203 21:22:11.736562 17543 net.cpp:157] Top shape: 3 6 48 48 (41472)
I1203 21:22:11.736567 17543 net.cpp:157] Top shape: 3 6 48 48 (41472)
I1203 21:22:11.736572 17543 net.cpp:157] Top shape: 3 6 24 24 (10368)
I1203 21:22:11.736577 17543 net.cpp:157] Top shape: 3 6 24 24 (10368)
I1203 21:22:11.736582 17543 net.cpp:157] Top shape: 3 6 12 12 (2592)
I1203 21:22:11.736588 17543 net.cpp:165] Memory required for data: 30063744
I1203 21:22:11.736598 17543 layer_factory.hpp:77] Creating layer label_1_5x5_data_1_split
I1203 21:22:11.737257 17543 net.cpp:100] Creating Layer label_1_5x5_data_1_split
I1203 21:22:11.737269 17543 net.cpp:434] label_1_5x5_data_1_split <- label_1_5x5
I1203 21:22:11.737282 17543 net.cpp:408] label_1_5x5_data_1_split -> label_1_5x5_data_1_split_0
I1203 21:22:11.737294 17543 net.cpp:408] label_1_5x5_data_1_split -> label_1_5x5_data_1_split_1
I1203 21:22:11.737347 17543 net.cpp:150] Setting up label_1_5x5_data_1_split
I1203 21:22:11.737354 17543 net.cpp:157] Top shape: 3 6 96 96 (165888)
I1203 21:22:11.737359 17543 net.cpp:157] Top shape: 3 6 96 96 (165888)
I1203 21:22:11.737362 17543 net.cpp:165] Memory required for data: 31390848
I1203 21:22:11.737365 17543 layer_factory.hpp:77] Creating layer label_1_7x7_data_2_split
I1203 21:22:11.737370 17543 net.cpp:100] Creating Layer label_1_7x7_data_2_split
I1203 21:22:11.737375 17543 net.cpp:434] label_1_7x7_data_2_split <- label_1_7x7
I1203 21:22:11.737378 17543 net.cpp:408] label_1_7x7_data_2_split -> label_1_7x7_data_2_split_0
I1203 21:22:11.737385 17543 net.cpp:408] label_1_7x7_data_2_split -> label_1_7x7_data_2_split_1
I1203 21:22:11.737409 17543 net.cpp:150] Setting up label_1_7x7_data_2_split
I1203 21:22:11.737416 17543 net.cpp:157] Top shape: 3 6 96 96 (165888)
I1203 21:22:11.737419 17543 net.cpp:157] Top shape: 3 6 96 96 (165888)
I1203 21:22:11.737422 17543 net.cpp:165] Memory required for data: 32717952
I1203 21:22:11.737426 17543 layer_factory.hpp:77] Creating layer label_2_5x5_data_3_split
I1203 21:22:11.737431 17543 net.cpp:100] Creating Layer label_2_5x5_data_3_split
I1203 21:22:11.737434 17543 net.cpp:434] label_2_5x5_data_3_split <- label_2_5x5
I1203 21:22:11.737439 17543 net.cpp:408] label_2_5x5_data_3_split -> label_2_5x5_data_3_split_0
I1203 21:22:11.737445 17543 net.cpp:408] label_2_5x5_data_3_split -> label_2_5x5_data_3_split_1
I1203 21:22:11.737471 17543 net.cpp:150] Setting up label_2_5x5_data_3_split
I1203 21:22:11.737476 17543 net.cpp:157] Top shape: 3 6 48 48 (41472)
I1203 21:22:11.737480 17543 net.cpp:157] Top shape: 3 6 48 48 (41472)
I1203 21:22:11.737484 17543 net.cpp:165] Memory required for data: 33049728
I1203 21:22:11.737488 17543 layer_factory.hpp:77] Creating layer label_2_7x7_data_4_split
I1203 21:22:11.737493 17543 net.cpp:100] Creating Layer label_2_7x7_data_4_split
I1203 21:22:11.737496 17543 net.cpp:434] label_2_7x7_data_4_split <- label_2_7x7
I1203 21:22:11.737501 17543 net.cpp:408] label_2_7x7_data_4_split -> label_2_7x7_data_4_split_0
I1203 21:22:11.737506 17543 net.cpp:408] label_2_7x7_data_4_split -> label_2_7x7_data_4_split_1
I1203 21:22:11.737531 17543 net.cpp:150] Setting up label_2_7x7_data_4_split
I1203 21:22:11.737537 17543 net.cpp:157] Top shape: 3 6 48 48 (41472)
I1203 21:22:11.737541 17543 net.cpp:157] Top shape: 3 6 48 48 (41472)
I1203 21:22:11.737545 17543 net.cpp:165] Memory required for data: 33381504
I1203 21:22:11.737548 17543 layer_factory.hpp:77] Creating layer label_3_5x5_data_5_split
I1203 21:22:11.737553 17543 net.cpp:100] Creating Layer label_3_5x5_data_5_split
I1203 21:22:11.737556 17543 net.cpp:434] label_3_5x5_data_5_split <- label_3_5x5
I1203 21:22:11.737560 17543 net.cpp:408] label_3_5x5_data_5_split -> label_3_5x5_data_5_split_0
I1203 21:22:11.737567 17543 net.cpp:408] label_3_5x5_data_5_split -> label_3_5x5_data_5_split_1
I1203 21:22:11.737593 17543 net.cpp:150] Setting up label_3_5x5_data_5_split
I1203 21:22:11.737599 17543 net.cpp:157] Top shape: 3 6 24 24 (10368)
I1203 21:22:11.737603 17543 net.cpp:157] Top shape: 3 6 24 24 (10368)
I1203 21:22:11.737607 17543 net.cpp:165] Memory required for data: 33464448
I1203 21:22:11.737610 17543 layer_factory.hpp:77] Creating layer label_3_7x7_data_6_split
I1203 21:22:11.737614 17543 net.cpp:100] Creating Layer label_3_7x7_data_6_split
I1203 21:22:11.737618 17543 net.cpp:434] label_3_7x7_data_6_split <- label_3_7x7
I1203 21:22:11.737623 17543 net.cpp:408] label_3_7x7_data_6_split -> label_3_7x7_data_6_split_0
I1203 21:22:11.737629 17543 net.cpp:408] label_3_7x7_data_6_split -> label_3_7x7_data_6_split_1
I1203 21:22:11.737653 17543 net.cpp:150] Setting up label_3_7x7_data_6_split
I1203 21:22:11.737659 17543 net.cpp:157] Top shape: 3 6 24 24 (10368)
I1203 21:22:11.737663 17543 net.cpp:157] Top shape: 3 6 24 24 (10368)
I1203 21:22:11.737666 17543 net.cpp:165] Memory required for data: 33547392
I1203 21:22:11.737670 17543 layer_factory.hpp:77] Creating layer label_4_5x5_data_7_split
I1203 21:22:11.737674 17543 net.cpp:100] Creating Layer label_4_5x5_data_7_split
I1203 21:22:11.737677 17543 net.cpp:434] label_4_5x5_data_7_split <- label_4_5x5
I1203 21:22:11.737681 17543 net.cpp:408] label_4_5x5_data_7_split -> label_4_5x5_data_7_split_0
I1203 21:22:11.737687 17543 net.cpp:408] label_4_5x5_data_7_split -> label_4_5x5_data_7_split_1
I1203 21:22:11.737711 17543 net.cpp:150] Setting up label_4_5x5_data_7_split
I1203 21:22:11.737717 17543 net.cpp:157] Top shape: 3 6 12 12 (2592)
I1203 21:22:11.737721 17543 net.cpp:157] Top shape: 3 6 12 12 (2592)
I1203 21:22:11.737725 17543 net.cpp:165] Memory required for data: 33568128
I1203 21:22:11.737728 17543 layer_factory.hpp:77] Creating layer slice
I1203 21:22:11.737738 17543 net.cpp:100] Creating Layer slice
I1203 21:22:11.737742 17543 net.cpp:434] slice <- data
I1203 21:22:11.737747 17543 net.cpp:408] slice -> data123
I1203 21:22:11.737756 17543 net.cpp:408] slice -> ch4
I1203 21:22:11.737802 17543 net.cpp:150] Setting up slice
I1203 21:22:11.737808 17543 net.cpp:157] Top shape: 3 3 768 768 (5308416)
I1203 21:22:11.737813 17543 net.cpp:157] Top shape: 3 1 768 768 (1769472)
I1203 21:22:11.737817 17543 net.cpp:165] Memory required for data: 61879680
I1203 21:22:11.737819 17543 layer_factory.hpp:77] Creating layer conv1_1
I1203 21:22:11.737830 17543 net.cpp:100] Creating Layer conv1_1
I1203 21:22:11.737835 17543 net.cpp:434] conv1_1 <- data123
I1203 21:22:11.737841 17543 net.cpp:408] conv1_1 -> conv1_1
I1203 21:22:12.104434 17543 net.cpp:150] Setting up conv1_1
I1203 21:22:12.104459 17543 net.cpp:157] Top shape: 3 64 768 768 (113246208)
I1203 21:22:12.104462 17543 net.cpp:165] Memory required for data: 514864512
I1203 21:22:12.104477 17543 layer_factory.hpp:77] Creating layer relu1_1
I1203 21:22:12.104487 17543 net.cpp:100] Creating Layer relu1_1
I1203 21:22:12.104492 17543 net.cpp:434] relu1_1 <- conv1_1
I1203 21:22:12.104497 17543 net.cpp:395] relu1_1 -> conv1_1 (in-place)
I1203 21:22:12.104650 17543 net.cpp:150] Setting up relu1_1
I1203 21:22:12.104658 17543 net.cpp:157] Top shape: 3 64 768 768 (113246208)
I1203 21:22:12.104661 17543 net.cpp:165] Memory required for data: 967849344
I1203 21:22:12.104665 17543 layer_factory.hpp:77] Creating layer conv1_2
I1203 21:22:12.104674 17543 net.cpp:100] Creating Layer conv1_2
I1203 21:22:12.104678 17543 net.cpp:434] conv1_2 <- conv1_1
I1203 21:22:12.104684 17543 net.cpp:408] conv1_2 -> conv1_2
I1203 21:22:12.106806 17543 net.cpp:150] Setting up conv1_2
I1203 21:22:12.106822 17543 net.cpp:157] Top shape: 3 64 768 768 (113246208)
I1203 21:22:12.106825 17543 net.cpp:165] Memory required for data: 1420834176
I1203 21:22:12.106835 17543 layer_factory.hpp:77] Creating layer relu1_2
I1203 21:22:12.106842 17543 net.cpp:100] Creating Layer relu1_2
I1203 21:22:12.106848 17543 net.cpp:434] relu1_2 <- conv1_2
I1203 21:22:12.106853 17543 net.cpp:395] relu1_2 -> conv1_2 (in-place)
I1203 21:22:12.107008 17543 net.cpp:150] Setting up relu1_2
I1203 21:22:12.107017 17543 net.cpp:157] Top shape: 3 64 768 768 (113246208)
I1203 21:22:12.107020 17543 net.cpp:165] Memory required for data: 1873819008
I1203 21:22:12.107024 17543 layer_factory.hpp:77] Creating layer pool1
I1203 21:22:12.107031 17543 net.cpp:100] Creating Layer pool1
I1203 21:22:12.107034 17543 net.cpp:434] pool1 <- conv1_2
I1203 21:22:12.107039 17543 net.cpp:408] pool1 -> pool1
I1203 21:22:12.107082 17543 net.cpp:150] Setting up pool1
I1203 21:22:12.107089 17543 net.cpp:157] Top shape: 3 64 384 384 (28311552)
I1203 21:22:12.107092 17543 net.cpp:165] Memory required for data: 1987065216
I1203 21:22:12.107096 17543 layer_factory.hpp:77] Creating layer conv2_1
I1203 21:22:12.107103 17543 net.cpp:100] Creating Layer conv2_1
I1203 21:22:12.107106 17543 net.cpp:434] conv2_1 <- pool1
I1203 21:22:12.107111 17543 net.cpp:408] conv2_1 -> conv2_1
I1203 21:22:12.109179 17543 net.cpp:150] Setting up conv2_1
I1203 21:22:12.109192 17543 net.cpp:157] Top shape: 3 128 384 384 (56623104)
I1203 21:22:12.109196 17543 net.cpp:165] Memory required for data: 2213557632
I1203 21:22:12.109205 17543 layer_factory.hpp:77] Creating layer relu2_1
I1203 21:22:12.109210 17543 net.cpp:100] Creating Layer relu2_1
I1203 21:22:12.109215 17543 net.cpp:434] relu2_1 <- conv2_1
I1203 21:22:12.109220 17543 net.cpp:395] relu2_1 -> conv2_1 (in-place)
I1203 21:22:12.109364 17543 net.cpp:150] Setting up relu2_1
I1203 21:22:12.109371 17543 net.cpp:157] Top shape: 3 128 384 384 (56623104)
I1203 21:22:12.109375 17543 net.cpp:165] Memory required for data: 2440050048
I1203 21:22:12.109378 17543 layer_factory.hpp:77] Creating layer conv2_2
I1203 21:22:12.109387 17543 net.cpp:100] Creating Layer conv2_2
I1203 21:22:12.109391 17543 net.cpp:434] conv2_2 <- conv2_1
I1203 21:22:12.109395 17543 net.cpp:408] conv2_2 -> conv2_2
I1203 21:22:12.110677 17543 net.cpp:150] Setting up conv2_2
I1203 21:22:12.110690 17543 net.cpp:157] Top shape: 3 128 384 384 (56623104)
I1203 21:22:12.110694 17543 net.cpp:165] Memory required for data: 2666542464
I1203 21:22:12.110700 17543 layer_factory.hpp:77] Creating layer relu2_2
I1203 21:22:12.110707 17543 net.cpp:100] Creating Layer relu2_2
I1203 21:22:12.110710 17543 net.cpp:434] relu2_2 <- conv2_2
I1203 21:22:12.110715 17543 net.cpp:395] relu2_2 -> conv2_2 (in-place)
I1203 21:22:12.110864 17543 net.cpp:150] Setting up relu2_2
I1203 21:22:12.110873 17543 net.cpp:157] Top shape: 3 128 384 384 (56623104)
I1203 21:22:12.110877 17543 net.cpp:165] Memory required for data: 2893034880
I1203 21:22:12.110880 17543 layer_factory.hpp:77] Creating layer pool2
I1203 21:22:12.110886 17543 net.cpp:100] Creating Layer pool2
I1203 21:22:12.110890 17543 net.cpp:434] pool2 <- conv2_2
I1203 21:22:12.110895 17543 net.cpp:408] pool2 -> pool2
I1203 21:22:12.110929 17543 net.cpp:150] Setting up pool2
I1203 21:22:12.110934 17543 net.cpp:157] Top shape: 3 128 192 192 (14155776)
I1203 21:22:12.110937 17543 net.cpp:165] Memory required for data: 2949657984
I1203 21:22:12.110941 17543 layer_factory.hpp:77] Creating layer conv3_1
I1203 21:22:12.110947 17543 net.cpp:100] Creating Layer conv3_1
I1203 21:22:12.110950 17543 net.cpp:434] conv3_1 <- pool2
I1203 21:22:12.110955 17543 net.cpp:408] conv3_1 -> conv3_1
I1203 21:22:12.113224 17543 net.cpp:150] Setting up conv3_1
I1203 21:22:12.113238 17543 net.cpp:157] Top shape: 3 256 192 192 (28311552)
I1203 21:22:12.113242 17543 net.cpp:165] Memory required for data: 3062904192
I1203 21:22:12.113253 17543 layer_factory.hpp:77] Creating layer relu3_1
I1203 21:22:12.113260 17543 net.cpp:100] Creating Layer relu3_1
I1203 21:22:12.113263 17543 net.cpp:434] relu3_1 <- conv3_1
I1203 21:22:12.113267 17543 net.cpp:395] relu3_1 -> conv3_1 (in-place)
I1203 21:22:12.113682 17543 net.cpp:150] Setting up relu3_1
I1203 21:22:12.113693 17543 net.cpp:157] Top shape: 3 256 192 192 (28311552)
I1203 21:22:12.113698 17543 net.cpp:165] Memory required for data: 3176150400
I1203 21:22:12.113701 17543 layer_factory.hpp:77] Creating layer conv3_2
I1203 21:22:12.113708 17543 net.cpp:100] Creating Layer conv3_2
I1203 21:22:12.113711 17543 net.cpp:434] conv3_2 <- conv3_1
I1203 21:22:12.113718 17543 net.cpp:408] conv3_2 -> conv3_2
I1203 21:22:12.115734 17543 net.cpp:150] Setting up conv3_2
I1203 21:22:12.115748 17543 net.cpp:157] Top shape: 3 256 192 192 (28311552)
I1203 21:22:12.115751 17543 net.cpp:165] Memory required for data: 3289396608
I1203 21:22:12.115759 17543 layer_factory.hpp:77] Creating layer relu3_2
I1203 21:22:12.115766 17543 net.cpp:100] Creating Layer relu3_2
I1203 21:22:12.115769 17543 net.cpp:434] relu3_2 <- conv3_2
I1203 21:22:12.115774 17543 net.cpp:395] relu3_2 -> conv3_2 (in-place)
I1203 21:22:12.116191 17543 net.cpp:150] Setting up relu3_2
I1203 21:22:12.116204 17543 net.cpp:157] Top shape: 3 256 192 192 (28311552)
I1203 21:22:12.116207 17543 net.cpp:165] Memory required for data: 3402642816
I1203 21:22:12.116211 17543 layer_factory.hpp:77] Creating layer conv3_3
I1203 21:22:12.116219 17543 net.cpp:100] Creating Layer conv3_3
I1203 21:22:12.116222 17543 net.cpp:434] conv3_3 <- conv3_2
I1203 21:22:12.116227 17543 net.cpp:408] conv3_3 -> conv3_3
I1203 21:22:12.121517 17543 net.cpp:150] Setting up conv3_3
I1203 21:22:12.121541 17543 net.cpp:157] Top shape: 3 256 192 192 (28311552)
I1203 21:22:12.121546 17543 net.cpp:165] Memory required for data: 3515889024
I1203 21:22:12.121554 17543 layer_factory.hpp:77] Creating layer relu3_3
I1203 21:22:12.121564 17543 net.cpp:100] Creating Layer relu3_3
I1203 21:22:12.121572 17543 net.cpp:434] relu3_3 <- conv3_3
I1203 21:22:12.121578 17543 net.cpp:395] relu3_3 -> conv3_3 (in-place)
I1203 21:22:12.121765 17543 net.cpp:150] Setting up relu3_3
I1203 21:22:12.121775 17543 net.cpp:157] Top shape: 3 256 192 192 (28311552)
I1203 21:22:12.121780 17543 net.cpp:165] Memory required for data: 3629135232
I1203 21:22:12.121784 17543 layer_factory.hpp:77] Creating layer pool3
I1203 21:22:12.121793 17543 net.cpp:100] Creating Layer pool3
I1203 21:22:12.121798 17543 net.cpp:434] pool3 <- conv3_3
I1203 21:22:12.121803 17543 net.cpp:408] pool3 -> pool3
I1203 21:22:12.121845 17543 net.cpp:150] Setting up pool3
I1203 21:22:12.121852 17543 net.cpp:157] Top shape: 3 256 96 96 (7077888)
I1203 21:22:12.121855 17543 net.cpp:165] Memory required for data: 3657446784
I1203 21:22:12.121858 17543 layer_factory.hpp:77] Creating layer conv4_1
I1203 21:22:12.121866 17543 net.cpp:100] Creating Layer conv4_1
I1203 21:22:12.121870 17543 net.cpp:434] conv4_1 <- pool3
I1203 21:22:12.121876 17543 net.cpp:408] conv4_1 -> conv4_1
I1203 21:22:12.125829 17543 net.cpp:150] Setting up conv4_1
I1203 21:22:12.125855 17543 net.cpp:157] Top shape: 3 512 96 96 (14155776)
I1203 21:22:12.125860 17543 net.cpp:165] Memory required for data: 3714069888
I1203 21:22:12.125869 17543 layer_factory.hpp:77] Creating layer relu4_1
I1203 21:22:12.125880 17543 net.cpp:100] Creating Layer relu4_1
I1203 21:22:12.125886 17543 net.cpp:434] relu4_1 <- conv4_1
I1203 21:22:12.125892 17543 net.cpp:395] relu4_1 -> conv4_1 (in-place)
I1203 21:22:12.126044 17543 net.cpp:150] Setting up relu4_1
I1203 21:22:12.126052 17543 net.cpp:157] Top shape: 3 512 96 96 (14155776)
I1203 21:22:12.126055 17543 net.cpp:165] Memory required for data: 3770692992
I1203 21:22:12.126060 17543 layer_factory.hpp:77] Creating layer conv4_2
I1203 21:22:12.126067 17543 net.cpp:100] Creating Layer conv4_2
I1203 21:22:12.126071 17543 net.cpp:434] conv4_2 <- conv4_1
I1203 21:22:12.126077 17543 net.cpp:408] conv4_2 -> conv4_2
I1203 21:22:12.131937 17543 net.cpp:150] Setting up conv4_2
I1203 21:22:12.131966 17543 net.cpp:157] Top shape: 3 512 96 96 (14155776)
I1203 21:22:12.131970 17543 net.cpp:165] Memory required for data: 3827316096
I1203 21:22:12.131984 17543 layer_factory.hpp:77] Creating layer relu4_2
I1203 21:22:12.131995 17543 net.cpp:100] Creating Layer relu4_2
I1203 21:22:12.132001 17543 net.cpp:434] relu4_2 <- conv4_2
I1203 21:22:12.132007 17543 net.cpp:395] relu4_2 -> conv4_2 (in-place)
I1203 21:22:12.132156 17543 net.cpp:150] Setting up relu4_2
I1203 21:22:12.132165 17543 net.cpp:157] Top shape: 3 512 96 96 (14155776)
I1203 21:22:12.132169 17543 net.cpp:165] Memory required for data: 3883939200
I1203 21:22:12.132174 17543 layer_factory.hpp:77] Creating layer conv4_3
I1203 21:22:12.132182 17543 net.cpp:100] Creating Layer conv4_3
I1203 21:22:12.132186 17543 net.cpp:434] conv4_3 <- conv4_2
I1203 21:22:12.132192 17543 net.cpp:408] conv4_3 -> conv4_3
I1203 21:22:12.141834 17543 net.cpp:150] Setting up conv4_3
I1203 21:22:12.141865 17543 net.cpp:157] Top shape: 3 512 96 96 (14155776)
I1203 21:22:12.141870 17543 net.cpp:165] Memory required for data: 3940562304
I1203 21:22:12.141880 17543 layer_factory.hpp:77] Creating layer relu4_3
I1203 21:22:12.141892 17543 net.cpp:100] Creating Layer relu4_3
I1203 21:22:12.141898 17543 net.cpp:434] relu4_3 <- conv4_3
I1203 21:22:12.141907 17543 net.cpp:395] relu4_3 -> conv4_3 (in-place)
I1203 21:22:12.142074 17543 net.cpp:150] Setting up relu4_3
I1203 21:22:12.142082 17543 net.cpp:157] Top shape: 3 512 96 96 (14155776)
I1203 21:22:12.142086 17543 net.cpp:165] Memory required for data: 3997185408
I1203 21:22:12.142089 17543 layer_factory.hpp:77] Creating layer conv4_3_relu4_3_0_split
I1203 21:22:12.142100 17543 net.cpp:100] Creating Layer conv4_3_relu4_3_0_split
I1203 21:22:12.142104 17543 net.cpp:434] conv4_3_relu4_3_0_split <- conv4_3
I1203 21:22:12.142109 17543 net.cpp:408] conv4_3_relu4_3_0_split -> conv4_3_relu4_3_0_split_0
I1203 21:22:12.142117 17543 net.cpp:408] conv4_3_relu4_3_0_split -> conv4_3_relu4_3_0_split_1
I1203 21:22:12.142122 17543 net.cpp:408] conv4_3_relu4_3_0_split -> conv4_3_relu4_3_0_split_2
I1203 21:22:12.142168 17543 net.cpp:150] Setting up conv4_3_relu4_3_0_split
I1203 21:22:12.142174 17543 net.cpp:157] Top shape: 3 512 96 96 (14155776)
I1203 21:22:12.142177 17543 net.cpp:157] Top shape: 3 512 96 96 (14155776)
I1203 21:22:12.142181 17543 net.cpp:157] Top shape: 3 512 96 96 (14155776)
I1203 21:22:12.142184 17543 net.cpp:165] Memory required for data: 4167054720
I1203 21:22:12.142189 17543 layer_factory.hpp:77] Creating layer buffer
I1203 21:22:12.142200 17543 net.cpp:100] Creating Layer buffer
I1203 21:22:12.142204 17543 net.cpp:434] buffer <- conv4_3_relu4_3_0_split_0
I1203 21:22:12.142211 17543 net.cpp:408] buffer -> buffer
I1203 21:22:12.204454 17543 net.cpp:150] Setting up buffer
I1203 21:22:12.204479 17543 net.cpp:157] Top shape: 3 512 96 96 (14155776)
I1203 21:22:12.204483 17543 net.cpp:165] Memory required for data: 4223677824
I1203 21:22:12.204490 17543 layer_factory.hpp:77] Creating layer relu_buffer
I1203 21:22:12.204501 17543 net.cpp:100] Creating Layer relu_buffer
I1203 21:22:12.204507 17543 net.cpp:434] relu_buffer <- buffer
I1203 21:22:12.204514 17543 net.cpp:395] relu_buffer -> buffer (in-place)
I1203 21:22:12.204962 17543 net.cpp:150] Setting up relu_buffer
I1203 21:22:12.204973 17543 net.cpp:157] Top shape: 3 512 96 96 (14155776)
I1203 21:22:12.204977 17543 net.cpp:165] Memory required for data: 4280300928
I1203 21:22:12.204982 17543 layer_factory.hpp:77] Creating layer attention
I1203 21:22:12.204993 17543 net.cpp:100] Creating Layer attention
I1203 21:22:12.204998 17543 net.cpp:434] attention <- buffer
I1203 21:22:12.205003 17543 net.cpp:408] attention -> attention
I1203 21:22:12.206329 17543 net.cpp:150] Setting up attention
I1203 21:22:12.206341 17543 net.cpp:157] Top shape: 3 3 96 96 (82944)
I1203 21:22:12.206344 17543 net.cpp:165] Memory required for data: 4280632704
I1203 21:22:12.206351 17543 layer_factory.hpp:77] Creating layer ch4_pool
I1203 21:22:12.206357 17543 net.cpp:100] Creating Layer ch4_pool
I1203 21:22:12.206362 17543 net.cpp:434] ch4_pool <- ch4
I1203 21:22:12.206367 17543 net.cpp:408] ch4_pool -> ch4_pool
I1203 21:22:12.206403 17543 net.cpp:150] Setting up ch4_pool
I1203 21:22:12.206408 17543 net.cpp:157] Top shape: 3 1 96 96 (27648)
I1203 21:22:12.206411 17543 net.cpp:165] Memory required for data: 4280743296
I1203 21:22:12.206414 17543 layer_factory.hpp:77] Creating layer loss_attention
I1203 21:22:12.206421 17543 net.cpp:100] Creating Layer loss_attention
I1203 21:22:12.206424 17543 net.cpp:434] loss_attention <- attention
I1203 21:22:12.206429 17543 net.cpp:434] loss_attention <- ch4_pool
I1203 21:22:12.206434 17543 net.cpp:408] loss_attention -> loss_attention
I1203 21:22:12.206485 17543 layer_factory.hpp:77] Creating layer loss_attention
I1203 21:22:12.207034 17543 weighted_softmax_loss_layer.cpp:25] mult: 1, id: 0
I1203 21:22:12.207077 17543 net.cpp:150] Setting up loss_attention
I1203 21:22:12.207084 17543 net.cpp:157] Top shape: (1)
I1203 21:22:12.207088 17543 net.cpp:160]     with loss weight 1.1
I1203 21:22:12.207094 17543 net.cpp:165] Memory required for data: 4280743300
I1203 21:22:12.207098 17543 layer_factory.hpp:77] Creating layer loss1_conv1
I1203 21:22:12.207108 17543 net.cpp:100] Creating Layer loss1_conv1
I1203 21:22:12.207110 17543 net.cpp:434] loss1_conv1 <- conv4_3_relu4_3_0_split_1
I1203 21:22:12.207116 17543 net.cpp:408] loss1_conv1 -> loss1_conv1
I1203 21:22:12.269816 17543 net.cpp:150] Setting up loss1_conv1
I1203 21:22:12.269840 17543 net.cpp:157] Top shape: 3 512 96 96 (14155776)
I1203 21:22:12.269845 17543 net.cpp:165] Memory required for data: 4337366404
I1203 21:22:12.269851 17543 layer_factory.hpp:77] Creating layer loss_relu1
I1203 21:22:12.269861 17543 net.cpp:100] Creating Layer loss_relu1
I1203 21:22:12.269865 17543 net.cpp:434] loss_relu1 <- loss1_conv1
I1203 21:22:12.269871 17543 net.cpp:395] loss_relu1 -> loss1_conv1 (in-place)
I1203 21:22:12.270014 17543 net.cpp:150] Setting up loss_relu1
I1203 21:22:12.270020 17543 net.cpp:157] Top shape: 3 512 96 96 (14155776)
I1203 21:22:12.270022 17543 net.cpp:165] Memory required for data: 4393989508
I1203 21:22:12.270025 17543 layer_factory.hpp:77] Creating layer loss1_conv1_loss_relu1_0_split
I1203 21:22:12.270031 17543 net.cpp:100] Creating Layer loss1_conv1_loss_relu1_0_split
I1203 21:22:12.270035 17543 net.cpp:434] loss1_conv1_loss_relu1_0_split <- loss1_conv1
I1203 21:22:12.270040 17543 net.cpp:408] loss1_conv1_loss_relu1_0_split -> loss1_conv1_loss_relu1_0_split_0
I1203 21:22:12.270047 17543 net.cpp:408] loss1_conv1_loss_relu1_0_split -> loss1_conv1_loss_relu1_0_split_1
I1203 21:22:12.270079 17543 net.cpp:150] Setting up loss1_conv1_loss_relu1_0_split
I1203 21:22:12.270087 17543 net.cpp:157] Top shape: 3 512 96 96 (14155776)
I1203 21:22:12.270090 17543 net.cpp:157] Top shape: 3 512 96 96 (14155776)
I1203 21:22:12.270093 17543 net.cpp:165] Memory required for data: 4507235716
I1203 21:22:12.270097 17543 layer_factory.hpp:77] Creating layer LFCN_1_5x5
I1203 21:22:12.270107 17543 net.cpp:100] Creating Layer LFCN_1_5x5
I1203 21:22:12.270112 17543 net.cpp:434] LFCN_1_5x5 <- loss1_conv1_loss_relu1_0_split_0
I1203 21:22:12.270118 17543 net.cpp:408] LFCN_1_5x5 -> LFCN_1_5x5
I1203 21:22:12.274349 17543 net.cpp:150] Setting up LFCN_1_5x5
I1203 21:22:12.274363 17543 net.cpp:157] Top shape: 3 9 96 96 (248832)
I1203 21:22:12.274368 17543 net.cpp:165] Memory required for data: 4508231044
I1203 21:22:12.274374 17543 layer_factory.hpp:77] Creating layer LFCN_1_5x5_LFCN_1_5x5_0_split
I1203 21:22:12.274380 17543 net.cpp:100] Creating Layer LFCN_1_5x5_LFCN_1_5x5_0_split
I1203 21:22:12.274384 17543 net.cpp:434] LFCN_1_5x5_LFCN_1_5x5_0_split <- LFCN_1_5x5
I1203 21:22:12.274389 17543 net.cpp:408] LFCN_1_5x5_LFCN_1_5x5_0_split -> LFCN_1_5x5_LFCN_1_5x5_0_split_0
I1203 21:22:12.274395 17543 net.cpp:408] LFCN_1_5x5_LFCN_1_5x5_0_split -> LFCN_1_5x5_LFCN_1_5x5_0_split_1
I1203 21:22:12.274431 17543 net.cpp:150] Setting up LFCN_1_5x5_LFCN_1_5x5_0_split
I1203 21:22:12.274436 17543 net.cpp:157] Top shape: 3 9 96 96 (248832)
I1203 21:22:12.274441 17543 net.cpp:157] Top shape: 3 9 96 96 (248832)
I1203 21:22:12.274444 17543 net.cpp:165] Memory required for data: 4510221700
I1203 21:22:12.274447 17543 layer_factory.hpp:77] Creating layer detection_loss_1_5x5
I1203 21:22:12.274499 17543 net.cpp:100] Creating Layer detection_loss_1_5x5
I1203 21:22:12.274504 17543 net.cpp:434] detection_loss_1_5x5 <- LFCN_1_5x5_LFCN_1_5x5_0_split_0
I1203 21:22:12.274508 17543 net.cpp:434] detection_loss_1_5x5 <- label_1_5x5_data_1_split_0
I1203 21:22:12.274513 17543 net.cpp:408] detection_loss_1_5x5 -> loss_1_5x5
I1203 21:22:12.274526 17543 layer_factory.hpp:77] Creating layer detection_loss_1_5x5
I1203 21:22:12.276254 17543 net.cpp:150] Setting up detection_loss_1_5x5
I1203 21:22:12.276299 17543 net.cpp:157] Top shape: 1 1 1 2 (2)
I1203 21:22:12.276304 17543 net.cpp:160]     with loss weight 0.9
I1203 21:22:12.276324 17543 net.cpp:165] Memory required for data: 4510221708
I1203 21:22:12.276331 17543 layer_factory.hpp:77] Creating layer detection_accuracy_1_5x5
I1203 21:22:12.276345 17543 net.cpp:100] Creating Layer detection_accuracy_1_5x5
I1203 21:22:12.276350 17543 net.cpp:434] detection_accuracy_1_5x5 <- LFCN_1_5x5_LFCN_1_5x5_0_split_1
I1203 21:22:12.276356 17543 net.cpp:434] detection_accuracy_1_5x5 <- label_1_5x5_data_1_split_1
I1203 21:22:12.276363 17543 net.cpp:408] detection_accuracy_1_5x5 -> accuracy_1_5x5
I1203 21:22:12.276373 17543 net.cpp:408] detection_accuracy_1_5x5 -> boxiou_1_5x5
I1203 21:22:12.276412 17543 net.cpp:150] Setting up detection_accuracy_1_5x5
I1203 21:22:12.276419 17543 net.cpp:157] Top shape: 1 1 1 2 (2)
I1203 21:22:12.276423 17543 net.cpp:157] Top shape: 1 1 1 1 (1)
I1203 21:22:12.276427 17543 net.cpp:165] Memory required for data: 4510221720
I1203 21:22:12.276429 17543 layer_factory.hpp:77] Creating layer LFCN_1_7x7
I1203 21:22:12.276443 17543 net.cpp:100] Creating Layer LFCN_1_7x7
I1203 21:22:12.276448 17543 net.cpp:434] LFCN_1_7x7 <- loss1_conv1_loss_relu1_0_split_1
I1203 21:22:12.276453 17543 net.cpp:408] LFCN_1_7x7 -> LFCN_1_7x7
I1203 21:22:12.283339 17543 net.cpp:150] Setting up LFCN_1_7x7
I1203 21:22:12.283363 17543 net.cpp:157] Top shape: 3 9 96 96 (248832)
I1203 21:22:12.283368 17543 net.cpp:165] Memory required for data: 4511217048
I1203 21:22:12.283377 17543 layer_factory.hpp:77] Creating layer LFCN_1_7x7_LFCN_1_7x7_0_split
I1203 21:22:12.283386 17543 net.cpp:100] Creating Layer LFCN_1_7x7_LFCN_1_7x7_0_split
I1203 21:22:12.283392 17543 net.cpp:434] LFCN_1_7x7_LFCN_1_7x7_0_split <- LFCN_1_7x7
I1203 21:22:12.283398 17543 net.cpp:408] LFCN_1_7x7_LFCN_1_7x7_0_split -> LFCN_1_7x7_LFCN_1_7x7_0_split_0
I1203 21:22:12.283406 17543 net.cpp:408] LFCN_1_7x7_LFCN_1_7x7_0_split -> LFCN_1_7x7_LFCN_1_7x7_0_split_1
I1203 21:22:12.283443 17543 net.cpp:150] Setting up LFCN_1_7x7_LFCN_1_7x7_0_split
I1203 21:22:12.283449 17543 net.cpp:157] Top shape: 3 9 96 96 (248832)
I1203 21:22:12.283453 17543 net.cpp:157] Top shape: 3 9 96 96 (248832)
I1203 21:22:12.283457 17543 net.cpp:165] Memory required for data: 4513207704
I1203 21:22:12.283459 17543 layer_factory.hpp:77] Creating layer detection_loss_1_7x7
I1203 21:22:12.283468 17543 net.cpp:100] Creating Layer detection_loss_1_7x7
I1203 21:22:12.283471 17543 net.cpp:434] detection_loss_1_7x7 <- LFCN_1_7x7_LFCN_1_7x7_0_split_0
I1203 21:22:12.283475 17543 net.cpp:434] detection_loss_1_7x7 <- label_1_7x7_data_2_split_0
I1203 21:22:12.283481 17543 net.cpp:408] detection_loss_1_7x7 -> loss_1_7x7
I1203 21:22:12.283490 17543 layer_factory.hpp:77] Creating layer detection_loss_1_7x7
I1203 21:22:12.283859 17543 net.cpp:150] Setting up detection_loss_1_7x7
I1203 21:22:12.283869 17543 net.cpp:157] Top shape: 1 1 1 2 (2)
I1203 21:22:12.283871 17543 net.cpp:160]     with loss weight 0.9
I1203 21:22:12.283884 17543 net.cpp:165] Memory required for data: 4513207712
I1203 21:22:12.283886 17543 layer_factory.hpp:77] Creating layer detection_accuracy_1_7x7
I1203 21:22:12.283895 17543 net.cpp:100] Creating Layer detection_accuracy_1_7x7
I1203 21:22:12.283898 17543 net.cpp:434] detection_accuracy_1_7x7 <- LFCN_1_7x7_LFCN_1_7x7_0_split_1
I1203 21:22:12.283903 17543 net.cpp:434] detection_accuracy_1_7x7 <- label_1_7x7_data_2_split_1
I1203 21:22:12.283908 17543 net.cpp:408] detection_accuracy_1_7x7 -> accuracy_1_7x7
I1203 21:22:12.283915 17543 net.cpp:408] detection_accuracy_1_7x7 -> boxiou_1_7x7
I1203 21:22:12.283949 17543 net.cpp:150] Setting up detection_accuracy_1_7x7
I1203 21:22:12.283955 17543 net.cpp:157] Top shape: 1 1 1 2 (2)
I1203 21:22:12.283959 17543 net.cpp:157] Top shape: 1 1 1 1 (1)
I1203 21:22:12.283962 17543 net.cpp:165] Memory required for data: 4513207724
I1203 21:22:12.283967 17543 layer_factory.hpp:77] Creating layer pool4
I1203 21:22:12.283972 17543 net.cpp:100] Creating Layer pool4
I1203 21:22:12.283977 17543 net.cpp:434] pool4 <- conv4_3_relu4_3_0_split_2
I1203 21:22:12.283980 17543 net.cpp:408] pool4 -> pool4
I1203 21:22:12.284013 17543 net.cpp:150] Setting up pool4
I1203 21:22:12.284018 17543 net.cpp:157] Top shape: 3 512 48 48 (3538944)
I1203 21:22:12.284021 17543 net.cpp:165] Memory required for data: 4527363500
I1203 21:22:12.284024 17543 layer_factory.hpp:77] Creating layer conv5_1
I1203 21:22:12.284034 17543 net.cpp:100] Creating Layer conv5_1
I1203 21:22:12.284036 17543 net.cpp:434] conv5_1 <- pool4
I1203 21:22:12.284042 17543 net.cpp:408] conv5_1 -> conv5_1
I1203 21:22:12.290056 17543 net.cpp:150] Setting up conv5_1
I1203 21:22:12.290089 17543 net.cpp:157] Top shape: 3 512 48 48 (3538944)
I1203 21:22:12.290093 17543 net.cpp:165] Memory required for data: 4541519276
I1203 21:22:12.290102 17543 layer_factory.hpp:77] Creating layer relu5_1
I1203 21:22:12.290113 17543 net.cpp:100] Creating Layer relu5_1
I1203 21:22:12.290118 17543 net.cpp:434] relu5_1 <- conv5_1
I1203 21:22:12.290127 17543 net.cpp:395] relu5_1 -> conv5_1 (in-place)
I1203 21:22:12.290289 17543 net.cpp:150] Setting up relu5_1
I1203 21:22:12.290298 17543 net.cpp:157] Top shape: 3 512 48 48 (3538944)
I1203 21:22:12.290302 17543 net.cpp:165] Memory required for data: 4555675052
I1203 21:22:12.290305 17543 layer_factory.hpp:77] Creating layer conv5_2
I1203 21:22:12.290314 17543 net.cpp:100] Creating Layer conv5_2
I1203 21:22:12.290318 17543 net.cpp:434] conv5_2 <- conv5_1
I1203 21:22:12.290323 17543 net.cpp:408] conv5_2 -> conv5_2
I1203 21:22:12.296072 17543 net.cpp:150] Setting up conv5_2
I1203 21:22:12.296102 17543 net.cpp:157] Top shape: 3 512 48 48 (3538944)
I1203 21:22:12.296104 17543 net.cpp:165] Memory required for data: 4569830828
I1203 21:22:12.296119 17543 layer_factory.hpp:77] Creating layer relu5_2
I1203 21:22:12.296129 17543 net.cpp:100] Creating Layer relu5_2
I1203 21:22:12.296134 17543 net.cpp:434] relu5_2 <- conv5_2
I1203 21:22:12.296139 17543 net.cpp:395] relu5_2 -> conv5_2 (in-place)
I1203 21:22:12.296584 17543 net.cpp:150] Setting up relu5_2
I1203 21:22:12.296597 17543 net.cpp:157] Top shape: 3 512 48 48 (3538944)
I1203 21:22:12.296600 17543 net.cpp:165] Memory required for data: 4583986604
I1203 21:22:12.296604 17543 layer_factory.hpp:77] Creating layer conv5_3
I1203 21:22:12.296614 17543 net.cpp:100] Creating Layer conv5_3
I1203 21:22:12.296617 17543 net.cpp:434] conv5_3 <- conv5_2
I1203 21:22:12.296623 17543 net.cpp:408] conv5_3 -> conv5_3
I1203 21:22:12.304746 17543 net.cpp:150] Setting up conv5_3
I1203 21:22:12.304782 17543 net.cpp:157] Top shape: 3 512 48 48 (3538944)
I1203 21:22:12.304786 17543 net.cpp:165] Memory required for data: 4598142380
I1203 21:22:12.304795 17543 layer_factory.hpp:77] Creating layer relu5_3
I1203 21:22:12.304805 17543 net.cpp:100] Creating Layer relu5_3
I1203 21:22:12.304811 17543 net.cpp:434] relu5_3 <- conv5_3
I1203 21:22:12.304816 17543 net.cpp:395] relu5_3 -> conv5_3 (in-place)
I1203 21:22:12.305428 17543 net.cpp:150] Setting up relu5_3
I1203 21:22:12.305441 17543 net.cpp:157] Top shape: 3 512 48 48 (3538944)
I1203 21:22:12.305445 17543 net.cpp:165] Memory required for data: 4612298156
I1203 21:22:12.305449 17543 layer_factory.hpp:77] Creating layer conv5_3_relu5_3_0_split
I1203 21:22:12.305454 17543 net.cpp:100] Creating Layer conv5_3_relu5_3_0_split
I1203 21:22:12.305459 17543 net.cpp:434] conv5_3_relu5_3_0_split <- conv5_3
I1203 21:22:12.305464 17543 net.cpp:408] conv5_3_relu5_3_0_split -> conv5_3_relu5_3_0_split_0
I1203 21:22:12.305471 17543 net.cpp:408] conv5_3_relu5_3_0_split -> conv5_3_relu5_3_0_split_1
I1203 21:22:12.305482 17543 net.cpp:408] conv5_3_relu5_3_0_split -> conv5_3_relu5_3_0_split_2
I1203 21:22:12.305534 17543 net.cpp:150] Setting up conv5_3_relu5_3_0_split
I1203 21:22:12.305541 17543 net.cpp:157] Top shape: 3 512 48 48 (3538944)
I1203 21:22:12.305546 17543 net.cpp:157] Top shape: 3 512 48 48 (3538944)
I1203 21:22:12.305549 17543 net.cpp:157] Top shape: 3 512 48 48 (3538944)
I1203 21:22:12.305552 17543 net.cpp:165] Memory required for data: 4654765484
I1203 21:22:12.305555 17543 layer_factory.hpp:77] Creating layer LFCN_2_5x5
I1203 21:22:12.305567 17543 net.cpp:100] Creating Layer LFCN_2_5x5
I1203 21:22:12.305570 17543 net.cpp:434] LFCN_2_5x5 <- conv5_3_relu5_3_0_split_0
I1203 21:22:12.305577 17543 net.cpp:408] LFCN_2_5x5 -> LFCN_2_5x5
I1203 21:22:12.310178 17543 net.cpp:150] Setting up LFCN_2_5x5
I1203 21:22:12.310197 17543 net.cpp:157] Top shape: 3 9 48 48 (62208)
I1203 21:22:12.310202 17543 net.cpp:165] Memory required for data: 4655014316
I1203 21:22:12.310211 17543 layer_factory.hpp:77] Creating layer LFCN_2_5x5_LFCN_2_5x5_0_split
I1203 21:22:12.310220 17543 net.cpp:100] Creating Layer LFCN_2_5x5_LFCN_2_5x5_0_split
I1203 21:22:12.310225 17543 net.cpp:434] LFCN_2_5x5_LFCN_2_5x5_0_split <- LFCN_2_5x5
I1203 21:22:12.310233 17543 net.cpp:408] LFCN_2_5x5_LFCN_2_5x5_0_split -> LFCN_2_5x5_LFCN_2_5x5_0_split_0
I1203 21:22:12.310242 17543 net.cpp:408] LFCN_2_5x5_LFCN_2_5x5_0_split -> LFCN_2_5x5_LFCN_2_5x5_0_split_1
I1203 21:22:12.310293 17543 net.cpp:150] Setting up LFCN_2_5x5_LFCN_2_5x5_0_split
I1203 21:22:12.310303 17543 net.cpp:157] Top shape: 3 9 48 48 (62208)
I1203 21:22:12.310309 17543 net.cpp:157] Top shape: 3 9 48 48 (62208)
I1203 21:22:12.310314 17543 net.cpp:165] Memory required for data: 4655511980
I1203 21:22:12.310319 17543 layer_factory.hpp:77] Creating layer detection_loss_2_5x5
I1203 21:22:12.310330 17543 net.cpp:100] Creating Layer detection_loss_2_5x5
I1203 21:22:12.310338 17543 net.cpp:434] detection_loss_2_5x5 <- LFCN_2_5x5_LFCN_2_5x5_0_split_0
I1203 21:22:12.310343 17543 net.cpp:434] detection_loss_2_5x5 <- label_2_5x5_data_3_split_0
I1203 21:22:12.310351 17543 net.cpp:408] detection_loss_2_5x5 -> loss_2_5x5
I1203 21:22:12.310364 17543 layer_factory.hpp:77] Creating layer detection_loss_2_5x5
I1203 21:22:12.310837 17543 net.cpp:150] Setting up detection_loss_2_5x5
I1203 21:22:12.310849 17543 net.cpp:157] Top shape: 1 1 1 2 (2)
I1203 21:22:12.310853 17543 net.cpp:160]     with loss weight 1
I1203 21:22:12.310873 17543 net.cpp:165] Memory required for data: 4655511988
I1203 21:22:12.310878 17543 layer_factory.hpp:77] Creating layer detection_accuracy_2_5x5
I1203 21:22:12.310886 17543 net.cpp:100] Creating Layer detection_accuracy_2_5x5
I1203 21:22:12.310892 17543 net.cpp:434] detection_accuracy_2_5x5 <- LFCN_2_5x5_LFCN_2_5x5_0_split_1
I1203 21:22:12.310899 17543 net.cpp:434] detection_accuracy_2_5x5 <- label_2_5x5_data_3_split_1
I1203 21:22:12.310909 17543 net.cpp:408] detection_accuracy_2_5x5 -> accuracy_2_5x5
I1203 21:22:12.310916 17543 net.cpp:408] detection_accuracy_2_5x5 -> boxiou_2_5x5
I1203 21:22:12.310957 17543 net.cpp:150] Setting up detection_accuracy_2_5x5
I1203 21:22:12.310966 17543 net.cpp:157] Top shape: 1 1 1 2 (2)
I1203 21:22:12.310971 17543 net.cpp:157] Top shape: 1 1 1 1 (1)
I1203 21:22:12.310973 17543 net.cpp:165] Memory required for data: 4655512000
I1203 21:22:12.310977 17543 layer_factory.hpp:77] Creating layer LFCN_2_7x7
I1203 21:22:12.310991 17543 net.cpp:100] Creating Layer LFCN_2_7x7
I1203 21:22:12.310995 17543 net.cpp:434] LFCN_2_7x7 <- conv5_3_relu5_3_0_split_1
I1203 21:22:12.311002 17543 net.cpp:408] LFCN_2_7x7 -> LFCN_2_7x7
I1203 21:22:12.324141 17543 net.cpp:150] Setting up LFCN_2_7x7
I1203 21:22:12.324218 17543 net.cpp:157] Top shape: 3 9 48 48 (62208)
I1203 21:22:12.324228 17543 net.cpp:165] Memory required for data: 4655760832
I1203 21:22:12.324249 17543 layer_factory.hpp:77] Creating layer LFCN_2_7x7_LFCN_2_7x7_0_split
I1203 21:22:12.324275 17543 net.cpp:100] Creating Layer LFCN_2_7x7_LFCN_2_7x7_0_split
I1203 21:22:12.324288 17543 net.cpp:434] LFCN_2_7x7_LFCN_2_7x7_0_split <- LFCN_2_7x7
I1203 21:22:12.324306 17543 net.cpp:408] LFCN_2_7x7_LFCN_2_7x7_0_split -> LFCN_2_7x7_LFCN_2_7x7_0_split_0
I1203 21:22:12.324326 17543 net.cpp:408] LFCN_2_7x7_LFCN_2_7x7_0_split -> LFCN_2_7x7_LFCN_2_7x7_0_split_1
I1203 21:22:12.324419 17543 net.cpp:150] Setting up LFCN_2_7x7_LFCN_2_7x7_0_split
I1203 21:22:12.324430 17543 net.cpp:157] Top shape: 3 9 48 48 (62208)
I1203 21:22:12.324440 17543 net.cpp:157] Top shape: 3 9 48 48 (62208)
I1203 21:22:12.324452 17543 net.cpp:165] Memory required for data: 4656258496
I1203 21:22:12.324460 17543 layer_factory.hpp:77] Creating layer detection_loss_2_7x7
I1203 21:22:12.324476 17543 net.cpp:100] Creating Layer detection_loss_2_7x7
I1203 21:22:12.324486 17543 net.cpp:434] detection_loss_2_7x7 <- LFCN_2_7x7_LFCN_2_7x7_0_split_0
I1203 21:22:12.324501 17543 net.cpp:434] detection_loss_2_7x7 <- label_2_7x7_data_4_split_0
I1203 21:22:12.324517 17543 net.cpp:408] detection_loss_2_7x7 -> loss_2_7x7
I1203 21:22:12.324538 17543 layer_factory.hpp:77] Creating layer detection_loss_2_7x7
I1203 21:22:12.326782 17543 net.cpp:150] Setting up detection_loss_2_7x7
I1203 21:22:12.326898 17543 net.cpp:157] Top shape: 1 1 1 2 (2)
I1203 21:22:12.326917 17543 net.cpp:160]     with loss weight 1
I1203 21:22:12.326966 17543 net.cpp:165] Memory required for data: 4656258504
I1203 21:22:12.326985 17543 layer_factory.hpp:77] Creating layer detection_accuracy_2_7x7
I1203 21:22:12.327039 17543 net.cpp:100] Creating Layer detection_accuracy_2_7x7
I1203 21:22:12.327054 17543 net.cpp:434] detection_accuracy_2_7x7 <- LFCN_2_7x7_LFCN_2_7x7_0_split_1
I1203 21:22:12.327067 17543 net.cpp:434] detection_accuracy_2_7x7 <- label_2_7x7_data_4_split_1
I1203 21:22:12.327082 17543 net.cpp:408] detection_accuracy_2_7x7 -> accuracy_2_7x7
I1203 21:22:12.327100 17543 net.cpp:408] detection_accuracy_2_7x7 -> boxiou_2_7x7
I1203 21:22:12.327201 17543 net.cpp:150] Setting up detection_accuracy_2_7x7
I1203 21:22:12.327219 17543 net.cpp:157] Top shape: 1 1 1 2 (2)
I1203 21:22:12.327227 17543 net.cpp:157] Top shape: 1 1 1 1 (1)
I1203 21:22:12.327234 17543 net.cpp:165] Memory required for data: 4656258516
I1203 21:22:12.327244 17543 layer_factory.hpp:77] Creating layer pool5
I1203 21:22:12.327257 17543 net.cpp:100] Creating Layer pool5
I1203 21:22:12.327268 17543 net.cpp:434] pool5 <- conv5_3_relu5_3_0_split_2
I1203 21:22:12.327283 17543 net.cpp:408] pool5 -> pool5
I1203 21:22:12.327368 17543 net.cpp:150] Setting up pool5
I1203 21:22:12.327383 17543 net.cpp:157] Top shape: 3 512 24 24 (884736)
I1203 21:22:12.327410 17543 net.cpp:165] Memory required for data: 4659797460
I1203 21:22:12.327417 17543 layer_factory.hpp:77] Creating layer conv6_1
I1203 21:22:12.327442 17543 net.cpp:100] Creating Layer conv6_1
I1203 21:22:12.327453 17543 net.cpp:434] conv6_1 <- pool5
I1203 21:22:12.327467 17543 net.cpp:408] conv6_1 -> conv6_1
I1203 21:22:12.397940 17543 net.cpp:150] Setting up conv6_1
I1203 21:22:12.397965 17543 net.cpp:157] Top shape: 3 512 24 24 (884736)
I1203 21:22:12.397969 17543 net.cpp:165] Memory required for data: 4663336404
I1203 21:22:12.397977 17543 layer_factory.hpp:77] Creating layer relu6_1
I1203 21:22:12.397990 17543 net.cpp:100] Creating Layer relu6_1
I1203 21:22:12.397997 17543 net.cpp:434] relu6_1 <- conv6_1
I1203 21:22:12.398003 17543 net.cpp:395] relu6_1 -> conv6_1 (in-place)
I1203 21:22:12.398160 17543 net.cpp:150] Setting up relu6_1
I1203 21:22:12.398170 17543 net.cpp:157] Top shape: 3 512 24 24 (884736)
I1203 21:22:12.398174 17543 net.cpp:165] Memory required for data: 4666875348
I1203 21:22:12.398177 17543 layer_factory.hpp:77] Creating layer conv6_1_relu6_1_0_split
I1203 21:22:12.398183 17543 net.cpp:100] Creating Layer conv6_1_relu6_1_0_split
I1203 21:22:12.398186 17543 net.cpp:434] conv6_1_relu6_1_0_split <- conv6_1
I1203 21:22:12.398191 17543 net.cpp:408] conv6_1_relu6_1_0_split -> conv6_1_relu6_1_0_split_0
I1203 21:22:12.398197 17543 net.cpp:408] conv6_1_relu6_1_0_split -> conv6_1_relu6_1_0_split_1
I1203 21:22:12.398203 17543 net.cpp:408] conv6_1_relu6_1_0_split -> conv6_1_relu6_1_0_split_2
I1203 21:22:12.398252 17543 net.cpp:150] Setting up conv6_1_relu6_1_0_split
I1203 21:22:12.398258 17543 net.cpp:157] Top shape: 3 512 24 24 (884736)
I1203 21:22:12.398262 17543 net.cpp:157] Top shape: 3 512 24 24 (884736)
I1203 21:22:12.398265 17543 net.cpp:157] Top shape: 3 512 24 24 (884736)
I1203 21:22:12.398268 17543 net.cpp:165] Memory required for data: 4677492180
I1203 21:22:12.398272 17543 layer_factory.hpp:77] Creating layer LFCN_3_5x5
I1203 21:22:12.398281 17543 net.cpp:100] Creating Layer LFCN_3_5x5
I1203 21:22:12.398285 17543 net.cpp:434] LFCN_3_5x5 <- conv6_1_relu6_1_0_split_0
I1203 21:22:12.398293 17543 net.cpp:408] LFCN_3_5x5 -> LFCN_3_5x5
I1203 21:22:12.402525 17543 net.cpp:150] Setting up LFCN_3_5x5
I1203 21:22:12.402539 17543 net.cpp:157] Top shape: 3 9 24 24 (15552)
I1203 21:22:12.402542 17543 net.cpp:165] Memory required for data: 4677554388
I1203 21:22:12.402550 17543 layer_factory.hpp:77] Creating layer LFCN_3_5x5_LFCN_3_5x5_0_split
I1203 21:22:12.402556 17543 net.cpp:100] Creating Layer LFCN_3_5x5_LFCN_3_5x5_0_split
I1203 21:22:12.402560 17543 net.cpp:434] LFCN_3_5x5_LFCN_3_5x5_0_split <- LFCN_3_5x5
I1203 21:22:12.402566 17543 net.cpp:408] LFCN_3_5x5_LFCN_3_5x5_0_split -> LFCN_3_5x5_LFCN_3_5x5_0_split_0
I1203 21:22:12.402573 17543 net.cpp:408] LFCN_3_5x5_LFCN_3_5x5_0_split -> LFCN_3_5x5_LFCN_3_5x5_0_split_1
I1203 21:22:12.402612 17543 net.cpp:150] Setting up LFCN_3_5x5_LFCN_3_5x5_0_split
I1203 21:22:12.402619 17543 net.cpp:157] Top shape: 3 9 24 24 (15552)
I1203 21:22:12.402623 17543 net.cpp:157] Top shape: 3 9 24 24 (15552)
I1203 21:22:12.402626 17543 net.cpp:165] Memory required for data: 4677678804
I1203 21:22:12.402629 17543 layer_factory.hpp:77] Creating layer detection_loss_3_5x5
I1203 21:22:12.402637 17543 net.cpp:100] Creating Layer detection_loss_3_5x5
I1203 21:22:12.402642 17543 net.cpp:434] detection_loss_3_5x5 <- LFCN_3_5x5_LFCN_3_5x5_0_split_0
I1203 21:22:12.402647 17543 net.cpp:434] detection_loss_3_5x5 <- label_3_5x5_data_5_split_0
I1203 21:22:12.402652 17543 net.cpp:408] detection_loss_3_5x5 -> loss_3_5x5
I1203 21:22:12.402660 17543 layer_factory.hpp:77] Creating layer detection_loss_3_5x5
I1203 21:22:12.402979 17543 net.cpp:150] Setting up detection_loss_3_5x5
I1203 21:22:12.402988 17543 net.cpp:157] Top shape: 1 1 1 2 (2)
I1203 21:22:12.402992 17543 net.cpp:160]     with loss weight 1
I1203 21:22:12.403002 17543 net.cpp:165] Memory required for data: 4677678812
I1203 21:22:12.403005 17543 layer_factory.hpp:77] Creating layer detection_accuracy_3_5x5
I1203 21:22:12.403012 17543 net.cpp:100] Creating Layer detection_accuracy_3_5x5
I1203 21:22:12.403015 17543 net.cpp:434] detection_accuracy_3_5x5 <- LFCN_3_5x5_LFCN_3_5x5_0_split_1
I1203 21:22:12.403019 17543 net.cpp:434] detection_accuracy_3_5x5 <- label_3_5x5_data_5_split_1
I1203 21:22:12.403025 17543 net.cpp:408] detection_accuracy_3_5x5 -> accuracy_3_5x5
I1203 21:22:12.403033 17543 net.cpp:408] detection_accuracy_3_5x5 -> boxiou_3_5x5
I1203 21:22:12.403066 17543 net.cpp:150] Setting up detection_accuracy_3_5x5
I1203 21:22:12.403074 17543 net.cpp:157] Top shape: 1 1 1 2 (2)
I1203 21:22:12.403076 17543 net.cpp:157] Top shape: 1 1 1 1 (1)
I1203 21:22:12.403079 17543 net.cpp:165] Memory required for data: 4677678824
I1203 21:22:12.403082 17543 layer_factory.hpp:77] Creating layer LFCN_3_7x7
I1203 21:22:12.403091 17543 net.cpp:100] Creating Layer LFCN_3_7x7
I1203 21:22:12.403096 17543 net.cpp:434] LFCN_3_7x7 <- conv6_1_relu6_1_0_split_1
I1203 21:22:12.403101 17543 net.cpp:408] LFCN_3_7x7 -> LFCN_3_7x7
I1203 21:22:12.410624 17543 net.cpp:150] Setting up LFCN_3_7x7
I1203 21:22:12.410645 17543 net.cpp:157] Top shape: 3 9 24 24 (15552)
I1203 21:22:12.410650 17543 net.cpp:165] Memory required for data: 4677741032
I1203 21:22:12.410657 17543 layer_factory.hpp:77] Creating layer LFCN_3_7x7_LFCN_3_7x7_0_split
I1203 21:22:12.410666 17543 net.cpp:100] Creating Layer LFCN_3_7x7_LFCN_3_7x7_0_split
I1203 21:22:12.410671 17543 net.cpp:434] LFCN_3_7x7_LFCN_3_7x7_0_split <- LFCN_3_7x7
I1203 21:22:12.410678 17543 net.cpp:408] LFCN_3_7x7_LFCN_3_7x7_0_split -> LFCN_3_7x7_LFCN_3_7x7_0_split_0
I1203 21:22:12.410686 17543 net.cpp:408] LFCN_3_7x7_LFCN_3_7x7_0_split -> LFCN_3_7x7_LFCN_3_7x7_0_split_1
I1203 21:22:12.410722 17543 net.cpp:150] Setting up LFCN_3_7x7_LFCN_3_7x7_0_split
I1203 21:22:12.410728 17543 net.cpp:157] Top shape: 3 9 24 24 (15552)
I1203 21:22:12.410732 17543 net.cpp:157] Top shape: 3 9 24 24 (15552)
I1203 21:22:12.410735 17543 net.cpp:165] Memory required for data: 4677865448
I1203 21:22:12.410738 17543 layer_factory.hpp:77] Creating layer detection_loss_3_7x7
I1203 21:22:12.410745 17543 net.cpp:100] Creating Layer detection_loss_3_7x7
I1203 21:22:12.410749 17543 net.cpp:434] detection_loss_3_7x7 <- LFCN_3_7x7_LFCN_3_7x7_0_split_0
I1203 21:22:12.410753 17543 net.cpp:434] detection_loss_3_7x7 <- label_3_7x7_data_6_split_0
I1203 21:22:12.410759 17543 net.cpp:408] detection_loss_3_7x7 -> loss_3_7x7
I1203 21:22:12.410768 17543 layer_factory.hpp:77] Creating layer detection_loss_3_7x7
I1203 21:22:12.411630 17543 net.cpp:150] Setting up detection_loss_3_7x7
I1203 21:22:12.411648 17543 net.cpp:157] Top shape: 1 1 1 2 (2)
I1203 21:22:12.411653 17543 net.cpp:160]     with loss weight 1
I1203 21:22:12.411665 17543 net.cpp:165] Memory required for data: 4677865456
I1203 21:22:12.411671 17543 layer_factory.hpp:77] Creating layer detection_accuracy_3_7x7
I1203 21:22:12.411684 17543 net.cpp:100] Creating Layer detection_accuracy_3_7x7
I1203 21:22:12.411691 17543 net.cpp:434] detection_accuracy_3_7x7 <- LFCN_3_7x7_LFCN_3_7x7_0_split_1
I1203 21:22:12.411698 17543 net.cpp:434] detection_accuracy_3_7x7 <- label_3_7x7_data_6_split_1
I1203 21:22:12.411707 17543 net.cpp:408] detection_accuracy_3_7x7 -> accuracy_3_7x7
I1203 21:22:12.411718 17543 net.cpp:408] detection_accuracy_3_7x7 -> boxiou_3_7x7
I1203 21:22:12.411782 17543 net.cpp:150] Setting up detection_accuracy_3_7x7
I1203 21:22:12.411795 17543 net.cpp:157] Top shape: 1 1 1 2 (2)
I1203 21:22:12.411803 17543 net.cpp:157] Top shape: 1 1 1 1 (1)
I1203 21:22:12.411806 17543 net.cpp:165] Memory required for data: 4677865468
I1203 21:22:12.411811 17543 layer_factory.hpp:77] Creating layer pool6
I1203 21:22:12.411823 17543 net.cpp:100] Creating Layer pool6
I1203 21:22:12.411828 17543 net.cpp:434] pool6 <- conv6_1_relu6_1_0_split_2
I1203 21:22:12.411835 17543 net.cpp:408] pool6 -> pool6
I1203 21:22:12.411900 17543 net.cpp:150] Setting up pool6
I1203 21:22:12.411911 17543 net.cpp:157] Top shape: 3 512 12 12 (221184)
I1203 21:22:12.411916 17543 net.cpp:165] Memory required for data: 4678750204
I1203 21:22:12.411919 17543 layer_factory.hpp:77] Creating layer LFCN_4_5x5
I1203 21:22:12.411931 17543 net.cpp:100] Creating Layer LFCN_4_5x5
I1203 21:22:12.411934 17543 net.cpp:434] LFCN_4_5x5 <- pool6
I1203 21:22:12.411940 17543 net.cpp:408] LFCN_4_5x5 -> LFCN_4_5x5
I1203 21:22:12.415884 17543 net.cpp:150] Setting up LFCN_4_5x5
I1203 21:22:12.415962 17543 net.cpp:157] Top shape: 3 9 12 12 (3888)
I1203 21:22:12.415967 17543 net.cpp:165] Memory required for data: 4678765756
I1203 21:22:12.415979 17543 layer_factory.hpp:77] Creating layer LFCN_4_5x5_LFCN_4_5x5_0_split
I1203 21:22:12.415994 17543 net.cpp:100] Creating Layer LFCN_4_5x5_LFCN_4_5x5_0_split
I1203 21:22:12.416003 17543 net.cpp:434] LFCN_4_5x5_LFCN_4_5x5_0_split <- LFCN_4_5x5
I1203 21:22:12.416013 17543 net.cpp:408] LFCN_4_5x5_LFCN_4_5x5_0_split -> LFCN_4_5x5_LFCN_4_5x5_0_split_0
I1203 21:22:12.416026 17543 net.cpp:408] LFCN_4_5x5_LFCN_4_5x5_0_split -> LFCN_4_5x5_LFCN_4_5x5_0_split_1
I1203 21:22:12.416069 17543 net.cpp:150] Setting up LFCN_4_5x5_LFCN_4_5x5_0_split
I1203 21:22:12.416074 17543 net.cpp:157] Top shape: 3 9 12 12 (3888)
I1203 21:22:12.416077 17543 net.cpp:157] Top shape: 3 9 12 12 (3888)
I1203 21:22:12.416080 17543 net.cpp:165] Memory required for data: 4678796860
I1203 21:22:12.416083 17543 layer_factory.hpp:77] Creating layer detection_loss_4_5x5
I1203 21:22:12.416095 17543 net.cpp:100] Creating Layer detection_loss_4_5x5
I1203 21:22:12.416098 17543 net.cpp:434] detection_loss_4_5x5 <- LFCN_4_5x5_LFCN_4_5x5_0_split_0
I1203 21:22:12.416105 17543 net.cpp:434] detection_loss_4_5x5 <- label_4_5x5_data_7_split_0
I1203 21:22:12.416112 17543 net.cpp:408] detection_loss_4_5x5 -> loss_4_5x5
I1203 21:22:12.416123 17543 layer_factory.hpp:77] Creating layer detection_loss_4_5x5
I1203 21:22:12.417325 17543 net.cpp:150] Setting up detection_loss_4_5x5
I1203 21:22:12.417346 17543 net.cpp:157] Top shape: 1 1 1 2 (2)
I1203 21:22:12.417351 17543 net.cpp:160]     with loss weight 1
I1203 21:22:12.417369 17543 net.cpp:165] Memory required for data: 4678796868
I1203 21:22:12.417374 17543 layer_factory.hpp:77] Creating layer detection_accuracy_4_5x5
I1203 21:22:12.417387 17543 net.cpp:100] Creating Layer detection_accuracy_4_5x5
I1203 21:22:12.417397 17543 net.cpp:434] detection_accuracy_4_5x5 <- LFCN_4_5x5_LFCN_4_5x5_0_split_1
I1203 21:22:12.417403 17543 net.cpp:434] detection_accuracy_4_5x5 <- label_4_5x5_data_7_split_1
I1203 21:22:12.417412 17543 net.cpp:408] detection_accuracy_4_5x5 -> accuracy_4_5x5
I1203 21:22:12.417421 17543 net.cpp:408] detection_accuracy_4_5x5 -> boxiou_4_5x5
I1203 21:22:12.417469 17543 net.cpp:150] Setting up detection_accuracy_4_5x5
I1203 21:22:12.417474 17543 net.cpp:157] Top shape: 1 1 1 2 (2)
I1203 21:22:12.417479 17543 net.cpp:157] Top shape: 1 1 1 1 (1)
I1203 21:22:12.417481 17543 net.cpp:165] Memory required for data: 4678796880
I1203 21:22:12.417484 17543 net.cpp:228] detection_accuracy_4_5x5 does not need backward computation.
I1203 21:22:12.417488 17543 net.cpp:226] detection_loss_4_5x5 needs backward computation.
I1203 21:22:12.417491 17543 net.cpp:226] LFCN_4_5x5_LFCN_4_5x5_0_split needs backward computation.
I1203 21:22:12.417495 17543 net.cpp:226] LFCN_4_5x5 needs backward computation.
…
I1203 21:22:12.430806 17543 image_gt_data_layer.cpp:235] output label size 1 : 2,6,96,96
I1203 21:22:12.430855 17543 image_gt_data_layer.cpp:235] output label size 2 : 2,6,48,48
I1203 21:22:12.430902 17543 image_gt_data_layer.cpp:235] output label size 3 : 2,6,48,48
I1203 21:22:12.430953 17543 image_gt_data_layer.cpp:235] output label size 4 : 2,6,24,24
I1203 21:22:12.430999 17543 image_gt_data_layer.cpp:235] output label size 5 : 2,6,24,24
I1203 21:22:12.431046 17543 image_gt_data_layer.cpp:235] output label size 6 : 2,6,12,12
I1203 21:22:12.466442 17543 net.cpp:150] Setting up data
I1203 21:22:12.466491 17543 net.cpp:157] Top shape: 2 4 768 768 (4718592)
I1203 21:22:12.466497 17543 net.cpp:157] Top shape: 2 6 96 96 (110592)
I1203 21:22:12.466502 17543 net.cpp:157] Top shape: 2 6 96 96 (110592)
I1203 21:22:12.466507 17543 net.cpp:157] Top shape: 2 6 48 48 (27648)
I1203 21:22:12.466512 17543 net.cpp:157] Top shape: 2 6 48 48 (27648)
I1203 21:22:12.466516 17543 net.cpp:157] Top shape: 2 6 24 24 (6912)
I1203 21:22:12.466521 17543 net.cpp:157] Top shape: 2 6 24 24 (6912)
I1203 21:22:12.466526 17543 net.cpp:157] Top shape: 2 6 12 12 (1728)
I1203 21:22:12.466528 17543 net.cpp:165] Memory required for data: 20042496
I1203 21:22:12.466536 17543 layer_factory.hpp:77] Creating layer label_1_5x5_data_1_split
I1203 21:22:12.466554 17543 net.cpp:100] Creating Layer label_1_5x5_data_1_split
I1203 21:22:12.466558 17543 net.cpp:434] label_1_5x5_data_1_split <- label_1_5x5
I1203 21:22:12.466567 17543 net.cpp:408] label_1_5x5_data_1_split -> label_1_5x5_data_1_split_0
I1203 21:22:12.466579 17543 net.cpp:408] label_1_5x5_data_1_split -> label_1_5x5_data_1_split_1
I1203 21:22:12.466658 17543 net.cpp:150] Setting up label_1_5x5_data_1_split
I1203 21:22:12.466665 17543 net.cpp:157] Top shape: 2 6 96 96 (110592)
I1203 21:22:12.466670 17543 net.cpp:157] Top shape: 2 6 96 96 (110592)
I1203 21:22:12.466672 17543 net.cpp:165] Memory required for data: 20927232
I1203 21:22:12.466676 17543 layer_factory.hpp:77] Creating layer label_1_7x7_data_2_split
I1203 21:22:12.466681 17543 net.cpp:100] Creating Layer label_1_7x7_data_2_split
I1203 21:22:12.466684 17543 net.cpp:434] label_1_7x7_data_2_split <- label_1_7x7
I1203 21:22:12.466689 17543 net.cpp:408] label_1_7x7_data_2_split -> label_1_7x7_data_2_split_0
I1203 21:22:12.466694 17543 net.cpp:408] label_1_7x7_data_2_split -> label_1_7x7_data_2_split_1
I1203 21:22:12.466938 17543 net.cpp:150] Setting up label_1_7x7_data_2_split
I1203 21:22:12.466974 17543 net.cpp:157] Top shape: 2 6 96 96 (110592)
I1203 21:22:12.466980 17543 net.cpp:157] Top shape: 2 6 96 96 (110592)
I1203 21:22:12.466984 17543 net.cpp:165] Memory required for data: 21811968
I1203 21:22:12.466994 17543 layer_factory.hpp:77] Creating layer label_2_5x5_data_3_split
I1203 21:22:12.467005 17543 net.cpp:100] Creating Layer label_2_5x5_data_3_split
I1203 21:22:12.467012 17543 net.cpp:434] label_2_5x5_data_3_split <- label_2_5x5
I1203 21:22:12.467022 17543 net.cpp:408] label_2_5x5_data_3_split -> label_2_5x5_data_3_split_0
I1203 21:22:12.467033 17543 net.cpp:408] label_2_5x5_data_3_split -> label_2_5x5_data_3_split_1
I1203 21:22:12.467087 17543 net.cpp:150] Setting up label_2_5x5_data_3_split
I1203 21:22:12.467095 17543 net.cpp:157] Top shape: 2 6 48 48 (27648)
I1203 21:22:12.467100 17543 net.cpp:157] Top shape: 2 6 48 48 (27648)
I1203 21:22:12.467104 17543 net.cpp:165] Memory required for data: 22033152
I1203 21:22:12.467108 17543 layer_factory.hpp:77] Creating layer label_2_7x7_data_4_split
I1203 21:22:12.467118 17543 net.cpp:100] Creating Layer label_2_7x7_data_4_split
I1203 21:22:12.467123 17543 net.cpp:434] label_2_7x7_data_4_split <- label_2_7x7
I1203 21:22:12.467129 17543 net.cpp:408] label_2_7x7_data_4_split -> label_2_7x7_data_4_split_0
I1203 21:22:12.467136 17543 net.cpp:408] label_2_7x7_data_4_split -> label_2_7x7_data_4_split_1
I1203 21:22:12.467177 17543 net.cpp:150] Setting up label_2_7x7_data_4_split
I1203 21:22:12.467185 17543 net.cpp:157] Top shape: 2 6 48 48 (27648)
I1203 21:22:12.467190 17543 net.cpp:157] Top shape: 2 6 48 48 (27648)
I1203 21:22:12.467195 17543 net.cpp:165] Memory required for data: 22254336
I1203 21:22:12.467198 17543 layer_factory.hpp:77] Creating layer label_3_5x5_data_5_split
I1203 21:22:12.467205 17543 net.cpp:100] Creating Layer label_3_5x5_data_5_split
I1203 21:22:12.467209 17543 net.cpp:434] label_3_5x5_data_5_split <- label_3_5x5
I1203 21:22:12.467214 17543 net.cpp:408] label_3_5x5_data_5_split -> label_3_5x5_data_5_split_0
I1203 21:22:12.467223 17543 net.cpp:408] label_3_5x5_data_5_split -> label_3_5x5_data_5_split_1
I1203 21:22:12.467264 17543 net.cpp:150] Setting up label_3_5x5_data_5_split
I1203 21:22:12.467272 17543 net.cpp:157] Top shape: 2 6 24 24 (6912)
I1203 21:22:12.467276 17543 net.cpp:157] Top shape: 2 6 24 24 (6912)
I1203 21:22:12.467280 17543 net.cpp:165] Memory required for data: 22309632
I1203 21:22:12.467285 17543 layer_factory.hpp:77] Creating layer label_3_7x7_data_6_split
I1203 21:22:12.467294 17543 net.cpp:100] Creating Layer label_3_7x7_data_6_split
I1203 21:22:12.467298 17543 net.cpp:434] label_3_7x7_data_6_split <- label_3_7x7
I1203 21:22:12.467304 17543 net.cpp:408] label_3_7x7_data_6_split -> label_3_7x7_data_6_split_0
I1203 21:22:12.467310 17543 net.cpp:408] label_3_7x7_data_6_split -> label_3_7x7_data_6_split_1
I1203 21:22:12.467351 17543 net.cpp:150] Setting up label_3_7x7_data_6_split
I1203 21:22:12.467358 17543 net.cpp:157] Top shape: 2 6 24 24 (6912)
I1203 21:22:12.467365 17543 net.cpp:157] Top shape: 2 6 24 24 (6912)
I1203 21:22:12.467367 17543 net.cpp:165] Memory required for data: 22364928
I1203 21:22:12.467371 17543 layer_factory.hpp:77] Creating layer label_4_5x5_data_7_split
I1203 21:22:12.467377 17543 net.cpp:100] Creating Layer label_4_5x5_data_7_split
I1203 21:22:12.467381 17543 net.cpp:434] label_4_5x5_data_7_split <- label_4_5x5
I1203 21:22:12.467387 17543 net.cpp:408] label_4_5x5_data_7_split -> label_4_5x5_data_7_split_0
I1203 21:22:12.467396 17543 net.cpp:408] label_4_5x5_data_7_split -> label_4_5x5_data_7_split_1
I1203 21:22:12.467434 17543 net.cpp:150] Setting up label_4_5x5_data_7_split
I1203 21:22:12.467442 17543 net.cpp:157] Top shape: 2 6 12 12 (1728)
I1203 21:22:12.467447 17543 net.cpp:157] Top shape: 2 6 12 12 (1728)
I1203 21:22:12.467450 17543 net.cpp:165] Memory required for data: 22378752
I1203 21:22:12.467455 17543 layer_factory.hpp:77] Creating layer slice
I1203 21:22:12.467464 17543 net.cpp:100] Creating Layer slice
I1203 21:22:12.467471 17543 net.cpp:434] slice <- data
I1203 21:22:12.467479 17543 net.cpp:408] slice -> data123
I1203 21:22:12.467486 17543 net.cpp:408] slice -> ch4
I1203 21:22:12.467526 17543 net.cpp:150] Setting up slice
I1203 21:22:12.467535 17543 net.cpp:157] Top shape: 2 3 768 768 (3538944)
I1203 21:22:12.467540 17543 net.cpp:157] Top shape: 2 1 768 768 (1179648)
I1203 21:22:12.467542 17543 net.cpp:165] Memory required for data: 41253120
I1203 21:22:12.467546 17543 layer_factory.hpp:77] Creating layer conv1_1
I1203 21:22:12.467559 17543 net.cpp:100] Creating Layer conv1_1
I1203 21:22:12.467566 17543 net.cpp:434] conv1_1 <- data123
I1203 21:22:12.467571 17543 net.cpp:408] conv1_1 -> conv1_1
I1203 21:22:12.478405 17543 net.cpp:150] Setting up conv1_1
I1203 21:22:12.478523 17543 net.cpp:157] Top shape: 2 64 768 768 (75497472)
I1203 21:22:12.478539 17543 net.cpp:165] Memory required for data: 343243008
I1203 21:22:12.478596 17543 layer_factory.hpp:77] Creating layer relu1_1
I1203 21:22:12.478637 17543 net.cpp:100] Creating Layer relu1_1
I1203 21:22:12.478652 17543 net.cpp:434] relu1_1 <- conv1_1
I1203 21:22:12.478668 17543 net.cpp:395] relu1_1 -> conv1_1 (in-place)
I1203 21:22:12.479804 17543 net.cpp:150] Setting up relu1_1
I1203 21:22:12.479998 17543 net.cpp:157] Top shape: 2 64 768 768 (75497472)
I1203 21:22:12.480047 17543 net.cpp:165] Memory required for data: 645232896
I1203 21:22:12.480087 17543 layer_factory.hpp:77] Creating layer conv1_2
I1203 21:22:12.480227 17543 net.cpp:100] Creating Layer conv1_2
I1203 21:22:12.480295 17543 net.cpp:434] conv1_2 <- conv1_1
I1203 21:22:12.480342 17543 net.cpp:408] conv1_2 -> conv1_2
I1203 21:22:12.485893 17543 net.cpp:150] Setting up conv1_2
I1203 21:22:12.485939 17543 net.cpp:157] Top shape: 2 64 768 768 (75497472)
I1203 21:22:12.485944 17543 net.cpp:165] Memory required for data: 947222784
I1203 21:22:12.485965 17543 layer_factory.hpp:77] Creating layer relu1_2
I1203 21:22:12.485982 17543 net.cpp:100] Creating Layer relu1_2
I1203 21:22:12.485988 17543 net.cpp:434] relu1_2 <- conv1_2
I1203 21:22:12.485996 17543 net.cpp:395] relu1_2 -> conv1_2 (in-place)
I1203 21:22:12.487283 17543 net.cpp:150] Setting up relu1_2
I1203 21:22:12.487298 17543 net.cpp:157] Top shape: 2 64 768 768 (75497472)
I1203 21:22:12.487303 17543 net.cpp:165] Memory required for data: 1249212672
I1203 21:22:12.487306 17543 layer_factory.hpp:77] Creating layer pool1
I1203 21:22:12.487315 17543 net.cpp:100] Creating Layer pool1
I1203 21:22:12.487319 17543 net.cpp:434] pool1 <- conv1_2
I1203 21:22:12.487326 17543 net.cpp:408] pool1 -> pool1
I1203 21:22:12.487381 17543 net.cpp:150] Setting up pool1
I1203 21:22:12.487390 17543 net.cpp:157] Top shape: 2 64 384 384 (18874368)
I1203 21:22:12.487393 17543 net.cpp:165] Memory required for data: 1324710144
I1203 21:22:12.487396 17543 layer_factory.hpp:77] Creating layer conv2_1
I1203 21:22:12.487406 17543 net.cpp:100] Creating Layer conv2_1
I1203 21:22:12.487411 17543 net.cpp:434] conv2_1 <- pool1
I1203 21:22:12.487418 17543 net.cpp:408] conv2_1 -> conv2_1
I1203 21:22:12.489166 17543 net.cpp:150] Setting up conv2_1
I1203 21:22:12.489181 17543 net.cpp:157] Top shape: 2 128 384 384 (37748736)
I1203 21:22:12.489184 17543 net.cpp:165] Memory required for data: 1475705088
I1203 21:22:12.489194 17543 layer_factory.hpp:77] Creating layer relu2_1
I1203 21:22:12.489202 17543 net.cpp:100] Creating Layer relu2_1
I1203 21:22:12.489207 17543 net.cpp:434] relu2_1 <- conv2_1
I1203 21:22:12.489213 17543 net.cpp:395] relu2_1 -> conv2_1 (in-place)
I1203 21:22:12.489403 17543 net.cpp:150] Setting up relu2_1
I1203 21:22:12.489413 17543 net.cpp:157] Top shape: 2 128 384 384 (37748736)
I1203 21:22:12.489418 17543 net.cpp:165] Memory required for data: 1626700032
I1203 21:22:12.489421 17543 layer_factory.hpp:77] Creating layer conv2_2
I1203 21:22:12.489431 17543 net.cpp:100] Creating Layer conv2_2
I1203 21:22:12.489436 17543 net.cpp:434] conv2_2 <- conv2_1
I1203 21:22:12.489442 17543 net.cpp:408] conv2_2 -> conv2_2
I1203 21:22:12.492130 17543 net.cpp:150] Setting up conv2_2
I1203 21:22:12.492151 17543 net.cpp:157] Top shape: 2 128 384 384 (37748736)
I1203 21:22:12.492154 17543 net.cpp:165] Memory required for data: 1777694976
I1203 21:22:12.492164 17543 layer_factory.hpp:77] Creating layer relu2_2
I1203 21:22:12.492174 17543 net.cpp:100] Creating Layer relu2_2
I1203 21:22:12.492180 17543 net.cpp:434] relu2_2 <- conv2_2
I1203 21:22:12.492187 17543 net.cpp:395] relu2_2 -> conv2_2 (in-place)
I1203 21:22:12.492380 17543 net.cpp:150] Setting up relu2_2
I1203 21:22:12.492389 17543 net.cpp:157] Top shape: 2 128 384 384 (37748736)
I1203 21:22:12.492393 17543 net.cpp:165] Memory required for data: 1928689920
I1203 21:22:12.492395 17543 layer_factory.hpp:77] Creating layer pool2
I1203 21:22:12.492403 17543 net.cpp:100] Creating Layer pool2
I1203 21:22:12.492408 17543 net.cpp:434] pool2 <- conv2_2
I1203 21:22:12.492413 17543 net.cpp:408] pool2 -> pool2
I1203 21:22:12.492463 17543 net.cpp:150] Setting up pool2
I1203 21:22:12.492470 17543 net.cpp:157] Top shape: 2 128 192 192 (9437184)
I1203 21:22:12.492472 17543 net.cpp:165] Memory required for data: 1966438656
I1203 21:22:12.492476 17543 layer_factory.hpp:77] Creating layer conv3_1
I1203 21:22:12.492485 17543 net.cpp:100] Creating Layer conv3_1
I1203 21:22:12.492488 17543 net.cpp:434] conv3_1 <- pool2
I1203 21:22:12.492492 17543 net.cpp:408] conv3_1 -> conv3_1
I1203 21:22:12.494105 17543 net.cpp:150] Setting up conv3_1
I1203 21:22:12.494122 17543 net.cpp:157] Top shape: 2 256 192 192 (18874368)
I1203 21:22:12.494125 17543 net.cpp:165] Memory required for data: 2041936128
I1203 21:22:12.494148 17543 layer_factory.hpp:77] Creating layer relu3_1
I1203 21:22:12.494154 17543 net.cpp:100] Creating Layer relu3_1
I1203 21:22:12.494158 17543 net.cpp:434] relu3_1 <- conv3_1
I1203 21:22:12.494163 17543 net.cpp:395] relu3_1 -> conv3_1 (in-place)
I1203 21:22:12.497709 17543 net.cpp:150] Setting up relu3_1
I1203 21:22:12.497759 17543 net.cpp:157] Top shape: 2 256 192 192 (18874368)
I1203 21:22:12.497769 17543 net.cpp:165] Memory required for data: 2117433600
I1203 21:22:12.497781 17543 layer_factory.hpp:77] Creating layer conv3_2
I1203 21:22:12.497807 17543 net.cpp:100] Creating Layer conv3_2
I1203 21:22:12.497818 17543 net.cpp:434] conv3_2 <- conv3_1
I1203 21:22:12.497838 17543 net.cpp:408] conv3_2 -> conv3_2
I1203 21:22:12.503056 17543 net.cpp:150] Setting up conv3_2
I1203 21:22:12.503078 17543 net.cpp:157] Top shape: 2 256 192 192 (18874368)
I1203 21:22:12.503084 17543 net.cpp:165] Memory required for data: 2192931072
I1203 21:22:12.503096 17543 layer_factory.hpp:77] Creating layer relu3_2
I1203 21:22:12.503108 17543 net.cpp:100] Creating Layer relu3_2
I1203 21:22:12.503113 17543 net.cpp:434] relu3_2 <- conv3_2
I1203 21:22:12.503123 17543 net.cpp:395] relu3_2 -> conv3_2 (in-place)
I1203 21:22:12.503397 17543 net.cpp:150] Setting up relu3_2
I1203 21:22:12.503409 17543 net.cpp:157] Top shape: 2 256 192 192 (18874368)
I1203 21:22:12.503415 17543 net.cpp:165] Memory required for data: 2268428544
I1203 21:22:12.503420 17543 layer_factory.hpp:77] Creating layer conv3_3
I1203 21:22:12.503435 17543 net.cpp:100] Creating Layer conv3_3
I1203 21:22:12.503443 17543 net.cpp:434] conv3_3 <- conv3_2
I1203 21:22:12.503453 17543 net.cpp:408] conv3_3 -> conv3_3
I1203 21:22:12.506590 17543 net.cpp:150] Setting up conv3_3
I1203 21:22:12.506609 17543 net.cpp:157] Top shape: 2 256 192 192 (18874368)
I1203 21:22:12.506614 17543 net.cpp:165] Memory required for data: 2343926016
I1203 21:22:12.506624 17543 layer_factory.hpp:77] Creating layer relu3_3
I1203 21:22:12.506634 17543 net.cpp:100] Creating Layer relu3_3
I1203 21:22:12.506639 17543 net.cpp:434] relu3_3 <- conv3_3
I1203 21:22:12.506647 17543 net.cpp:395] relu3_3 -> conv3_3 (in-place)
I1203 21:22:12.506882 17543 net.cpp:150] Setting up relu3_3
I1203 21:22:12.506893 17543 net.cpp:157] Top shape: 2 256 192 192 (18874368)
I1203 21:22:12.506898 17543 net.cpp:165] Memory required for data: 2419423488
I1203 21:22:12.506903 17543 layer_factory.hpp:77] Creating layer pool3
I1203 21:22:12.506913 17543 net.cpp:100] Creating Layer pool3
I1203 21:22:12.506918 17543 net.cpp:434] pool3 <- conv3_3
I1203 21:22:12.506925 17543 net.cpp:408] pool3 -> pool3
I1203 21:22:12.506984 17543 net.cpp:150] Setting up pool3
I1203 21:22:12.506992 17543 net.cpp:157] Top shape: 2 256 96 96 (4718592)
I1203 21:22:12.506996 17543 net.cpp:165] Memory required for data: 2438297856
I1203 21:22:12.507001 17543 layer_factory.hpp:77] Creating layer conv4_1
I1203 21:22:12.507014 17543 net.cpp:100] Creating Layer conv4_1
I1203 21:22:12.507021 17543 net.cpp:434] conv4_1 <- pool3
I1203 21:22:12.507028 17543 net.cpp:408] conv4_1 -> conv4_1
I1203 21:22:12.511165 17543 net.cpp:150] Setting up conv4_1
I1203 21:22:12.511190 17543 net.cpp:157] Top shape: 2 512 96 96 (9437184)
I1203 21:22:12.511195 17543 net.cpp:165] Memory required for data: 2476046592
I1203 21:22:12.511206 17543 layer_factory.hpp:77] Creating layer relu4_1
I1203 21:22:12.511219 17543 net.cpp:100] Creating Layer relu4_1
I1203 21:22:12.511224 17543 net.cpp:434] relu4_1 <- conv4_1
I1203 21:22:12.511231 17543 net.cpp:395] relu4_1 -> conv4_1 (in-place)
I1203 21:22:12.511431 17543 net.cpp:150] Setting up relu4_1
I1203 21:22:12.511441 17543 net.cpp:157] Top shape: 2 512 96 96 (9437184)
I1203 21:22:12.511445 17543 net.cpp:165] Memory required for data: 2513795328
I1203 21:22:12.511449 17543 layer_factory.hpp:77] Creating layer conv4_2
I1203 21:22:12.511461 17543 net.cpp:100] Creating Layer conv4_2
I1203 21:22:12.511466 17543 net.cpp:434] conv4_2 <- conv4_1
I1203 21:22:12.511473 17543 net.cpp:408] conv4_2 -> conv4_2
I1203 21:22:12.524410 17543 net.cpp:150] Setting up conv4_2
I1203 21:22:12.524472 17543 net.cpp:157] Top shape: 2 512 96 96 (9437184)
I1203 21:22:12.524487 17543 net.cpp:165] Memory required for data: 2551544064
I1203 21:22:12.524523 17543 layer_factory.hpp:77] Creating layer relu4_2
I1203 21:22:12.524554 17543 net.cpp:100] Creating Layer relu4_2
I1203 21:22:12.524567 17543 net.cpp:434] relu4_2 <- conv4_2
I1203 21:22:12.524606 17543 net.cpp:395] relu4_2 -> conv4_2 (in-place)
I1203 21:22:12.525183 17543 net.cpp:150] Setting up relu4_2
I1203 21:22:12.525213 17543 net.cpp:157] Top shape: 2 512 96 96 (9437184)
I1203 21:22:12.525224 17543 net.cpp:165] Memory required for data: 2589292800
I1203 21:22:12.525233 17543 layer_factory.hpp:77] Creating layer conv4_3
I1203 21:22:12.525252 17543 net.cpp:100] Creating Layer conv4_3
I1203 21:22:12.525264 17543 net.cpp:434] conv4_3 <- conv4_2
I1203 21:22:12.525276 17543 net.cpp:408] conv4_3 -> conv4_3
I1203 21:22:12.540016 17543 net.cpp:150] Setting up conv4_3
I1203 21:22:12.540067 17543 net.cpp:157] Top shape: 2 512 96 96 (9437184)
I1203 21:22:12.540073 17543 net.cpp:165] Memory required for data: 2627041536
I1203 21:22:12.540087 17543 layer_factory.hpp:77] Creating layer relu4_3
I1203 21:22:12.540108 17543 net.cpp:100] Creating Layer relu4_3
I1203 21:22:12.540117 17543 net.cpp:434] relu4_3 <- conv4_3
I1203 21:22:12.540125 17543 net.cpp:395] relu4_3 -> conv4_3 (in-place)
I1203 21:22:12.540345 17543 net.cpp:150] Setting up relu4_3
I1203 21:22:12.540359 17543 net.cpp:157] Top shape: 2 512 96 96 (9437184)
I1203 21:22:12.540364 17543 net.cpp:165] Memory required for data: 2664790272
I1203 21:22:12.540369 17543 layer_factory.hpp:77] Creating layer conv4_3_relu4_3_0_split
I1203 21:22:12.540385 17543 net.cpp:100] Creating Layer conv4_3_relu4_3_0_split
I1203 21:22:12.540391 17543 net.cpp:434] conv4_3_relu4_3_0_split <- conv4_3
I1203 21:22:12.540398 17543 net.cpp:408] conv4_3_relu4_3_0_split -> conv4_3_relu4_3_0_split_0
I1203 21:22:12.540410 17543 net.cpp:408] conv4_3_relu4_3_0_split -> conv4_3_relu4_3_0_split_1
I1203 21:22:12.540439 17543 net.cpp:408] conv4_3_relu4_3_0_split -> conv4_3_relu4_3_0_split_2
I1203 21:22:12.540515 17543 net.cpp:150] Setting up conv4_3_relu4_3_0_split
I1203 21:22:12.540526 17543 net.cpp:157] Top shape: 2 512 96 96 (9437184)
I1203 21:22:12.540534 17543 net.cpp:157] Top shape: 2 512 96 96 (9437184)
I1203 21:22:12.540539 17543 net.cpp:157] Top shape: 2 512 96 96 (9437184)
I1203 21:22:12.540544 17543 net.cpp:165] Memory required for data: 2778036480
I1203 21:22:12.540549 17543 layer_factory.hpp:77] Creating layer buffer
I1203 21:22:12.540566 17543 net.cpp:100] Creating Layer buffer
I1203 21:22:12.540573 17543 net.cpp:434] buffer <- conv4_3_relu4_3_0_split_0
I1203 21:22:12.540580 17543 net.cpp:408] buffer -> buffer
I1203 21:22:12.613802 17543 net.cpp:150] Setting up buffer
I1203 21:22:12.613848 17543 net.cpp:157] Top shape: 2 512 96 96 (9437184)
I1203 21:22:12.613853 17543 net.cpp:165] Memory required for data: 2815785216
I1203 21:22:12.613867 17543 layer_factory.hpp:77] Creating layer relu_buffer
I1203 21:22:12.613883 17543 net.cpp:100] Creating Layer relu_buffer
I1203 21:22:12.613888 17543 net.cpp:434] relu_buffer <- buffer
I1203 21:22:12.613895 17543 net.cpp:395] relu_buffer -> buffer (in-place)
I1203 21:22:12.614562 17543 net.cpp:150] Setting up relu_buffer
I1203 21:22:12.614573 17543 net.cpp:157] Top shape: 2 512 96 96 (9437184)
I1203 21:22:12.614578 17543 net.cpp:165] Memory required for data: 2853533952
I1203 21:22:12.614580 17543 layer_factory.hpp:77] Creating layer attention
I1203 21:22:12.614598 17543 net.cpp:100] Creating Layer attention
I1203 21:22:12.614603 17543 net.cpp:434] attention <- buffer
I1203 21:22:12.614611 17543 net.cpp:408] attention -> attention
I1203 21:22:12.616469 17543 net.cpp:150] Setting up attention
I1203 21:22:12.616482 17543 net.cpp:157] Top shape: 2 3 96 96 (55296)
I1203 21:22:12.616487 17543 net.cpp:165] Memory required for data: 2853755136
I1203 21:22:12.616493 17543 layer_factory.hpp:77] Creating layer ch4_pool
I1203 21:22:12.616503 17543 net.cpp:100] Creating Layer ch4_pool
I1203 21:22:12.616508 17543 net.cpp:434] ch4_pool <- ch4
I1203 21:22:12.616513 17543 net.cpp:408] ch4_pool -> ch4_pool
I1203 21:22:12.616555 17543 net.cpp:150] Setting up ch4_pool
I1203 21:22:12.616562 17543 net.cpp:157] Top shape: 2 1 96 96 (18432)
I1203 21:22:12.616565 17543 net.cpp:165] Memory required for data: 2853828864
I1203 21:22:12.616569 17543 layer_factory.hpp:77] Creating layer loss_attention
I1203 21:22:12.616576 17543 net.cpp:100] Creating Layer loss_attention
I1203 21:22:12.616580 17543 net.cpp:434] loss_attention <- attention
I1203 21:22:12.616585 17543 net.cpp:434] loss_attention <- ch4_pool
I1203 21:22:12.616593 17543 net.cpp:408] loss_attention -> loss_attention
I1203 21:22:12.616603 17543 layer_factory.hpp:77] Creating layer loss_attention
I1203 21:22:12.616945 17543 weighted_softmax_loss_layer.cpp:25] mult: 1, id: 0
I1203 21:22:12.617022 17543 net.cpp:150] Setting up loss_attention
I1203 21:22:12.617039 17543 net.cpp:157] Top shape: (1)
I1203 21:22:12.617045 17543 net.cpp:160]     with loss weight 1.1
I1203 21:22:12.617060 17543 net.cpp:165] Memory required for data: 2853828868
I1203 21:22:12.617067 17543 layer_factory.hpp:77] Creating layer loss1_conv1
I1203 21:22:12.617095 17543 net.cpp:100] Creating Layer loss1_conv1
I1203 21:22:12.617115 17543 net.cpp:434] loss1_conv1 <- conv4_3_relu4_3_0_split_1
I1203 21:22:12.617127 17543 net.cpp:408] loss1_conv1 -> loss1_conv1
I1203 21:22:12.687695 17543 net.cpp:150] Setting up loss1_conv1
I1203 21:22:12.687721 17543 net.cpp:157] Top shape: 2 512 96 96 (9437184)
I1203 21:22:12.687724 17543 net.cpp:165] Memory required for data: 2891577604
I1203 21:22:12.687731 17543 layer_factory.hpp:77] Creating layer loss_relu1
I1203 21:22:12.687743 17543 net.cpp:100] Creating Layer loss_relu1
I1203 21:22:12.687748 17543 net.cpp:434] loss_relu1 <- loss1_conv1
I1203 21:22:12.687753 17543 net.cpp:395] loss_relu1 -> loss1_conv1 (in-place)
I1203 21:22:12.687898 17543 net.cpp:150] Setting up loss_relu1
I1203 21:22:12.687907 17543 net.cpp:157] Top shape: 2 512 96 96 (9437184)
I1203 21:22:12.687911 17543 net.cpp:165] Memory required for data: 2929326340
I1203 21:22:12.687914 17543 layer_factory.hpp:77] Creating layer loss1_conv1_loss_relu1_0_split
I1203 21:22:12.687922 17543 net.cpp:100] Creating Layer loss1_conv1_loss_relu1_0_split
I1203 21:22:12.687924 17543 net.cpp:434] loss1_conv1_loss_relu1_0_split <- loss1_conv1
I1203 21:22:12.687929 17543 net.cpp:408] loss1_conv1_loss_relu1_0_split -> loss1_conv1_loss_relu1_0_split_0
I1203 21:22:12.687937 17543 net.cpp:408] loss1_conv1_loss_relu1_0_split -> loss1_conv1_loss_relu1_0_split_1
I1203 21:22:12.687976 17543 net.cpp:150] Setting up loss1_conv1_loss_relu1_0_split
I1203 21:22:12.687983 17543 net.cpp:157] Top shape: 2 512 96 96 (9437184)
I1203 21:22:12.687988 17543 net.cpp:157] Top shape: 2 512 96 96 (9437184)
I1203 21:22:12.687990 17543 net.cpp:165] Memory required for data: 3004823812
I1203 21:22:12.687994 17543 layer_factory.hpp:77] Creating layer LFCN_1_5x5
I1203 21:22:12.688004 17543 net.cpp:100] Creating Layer LFCN_1_5x5
I1203 21:22:12.688009 17543 net.cpp:434] LFCN_1_5x5 <- loss1_conv1_loss_relu1_0_split_0
I1203 21:22:12.688017 17543 net.cpp:408] LFCN_1_5x5 -> LFCN_1_5x5
I1203 21:22:12.692548 17543 net.cpp:150] Setting up LFCN_1_5x5
I1203 21:22:12.692560 17543 net.cpp:157] Top shape: 2 9 96 96 (165888)
I1203 21:22:12.692564 17543 net.cpp:165] Memory required for data: 3005487364
I1203 21:22:12.692569 17543 layer_factory.hpp:77] Creating layer LFCN_1_5x5_LFCN_1_5x5_0_split
I1203 21:22:12.692574 17543 net.cpp:100] Creating Layer LFCN_1_5x5_LFCN_1_5x5_0_split
I1203 21:22:12.692577 17543 net.cpp:434] LFCN_1_5x5_LFCN_1_5x5_0_split <- LFCN_1_5x5
I1203 21:22:12.692582 17543 net.cpp:408] LFCN_1_5x5_LFCN_1_5x5_0_split -> LFCN_1_5x5_LFCN_1_5x5_0_split_0
I1203 21:22:12.692589 17543 net.cpp:408] LFCN_1_5x5_LFCN_1_5x5_0_split -> LFCN_1_5x5_LFCN_1_5x5_0_split_1
I1203 21:22:12.692620 17543 net.cpp:150] Setting up LFCN_1_5x5_LFCN_1_5x5_0_split
I1203 21:22:12.692625 17543 net.cpp:157] Top shape: 2 9 96 96 (165888)
I1203 21:22:12.692629 17543 net.cpp:157] Top shape: 2 9 96 96 (165888)
I1203 21:22:12.692632 17543 net.cpp:165] Memory required for data: 3006814468
I1203 21:22:12.692634 17543 layer_factory.hpp:77] Creating layer detection_loss_1_5x5
I1203 21:22:12.692642 17543 net.cpp:100] Creating Layer detection_loss_1_5x5
I1203 21:22:12.692644 17543 net.cpp:434] detection_loss_1_5x5 <- LFCN_1_5x5_LFCN_1_5x5_0_split_0
I1203 21:22:12.692648 17543 net.cpp:434] detection_loss_1_5x5 <- label_1_5x5_data_1_split_0
I1203 21:22:12.692653 17543 net.cpp:408] detection_loss_1_5x5 -> loss_1_5x5
I1203 21:22:12.692661 17543 layer_factory.hpp:77] Creating layer detection_loss_1_5x5
I1203 21:22:12.693027 17543 net.cpp:150] Setting up detection_loss_1_5x5
I1203 21:22:12.693038 17543 net.cpp:157] Top shape: 1 1 1 2 (2)
I1203 21:22:12.693042 17543 net.cpp:160]     with loss weight 0.9
I1203 21:22:12.693055 17543 net.cpp:165] Memory required for data: 3006814476
I1203 21:22:12.693058 17543 layer_factory.hpp:77] Creating layer detection_accuracy_1_5x5
I1203 21:22:12.693066 17543 net.cpp:100] Creating Layer detection_accuracy_1_5x5
I1203 21:22:12.693070 17543 net.cpp:434] detection_accuracy_1_5x5 <- LFCN_1_5x5_LFCN_1_5x5_0_split_1
I1203 21:22:12.693075 17543 net.cpp:434] detection_accuracy_1_5x5 <- label_1_5x5_data_1_split_1
I1203 21:22:12.693080 17543 net.cpp:408] detection_accuracy_1_5x5 -> accuracy_1_5x5
I1203 21:22:12.693086 17543 net.cpp:408] detection_accuracy_1_5x5 -> boxiou_1_5x5
I1203 21:22:12.693125 17543 net.cpp:150] Setting up detection_accuracy_1_5x5
I1203 21:22:12.693131 17543 net.cpp:157] Top shape: 1 1 1 2 (2)
I1203 21:22:12.693136 17543 net.cpp:157] Top shape: 1 1 1 1 (1)
I1203 21:22:12.693140 17543 net.cpp:165] Memory required for data: 3006814488
I1203 21:22:12.693142 17543 layer_factory.hpp:77] Creating layer LFCN_1_7x7
I1203 21:22:12.693151 17543 net.cpp:100] Creating Layer LFCN_1_7x7
I1203 21:22:12.693156 17543 net.cpp:434] LFCN_1_7x7 <- loss1_conv1_loss_relu1_0_split_1
I1203 21:22:12.693161 17543 net.cpp:408] LFCN_1_7x7 -> LFCN_1_7x7
I1203 21:22:12.699666 17543 net.cpp:150] Setting up LFCN_1_7x7
I1203 21:22:12.699679 17543 net.cpp:157] Top shape: 2 9 96 96 (165888)
I1203 21:22:12.699682 17543 net.cpp:165] Memory required for data: 3007478040
I1203 21:22:12.699692 17543 layer_factory.hpp:77] Creating layer LFCN_1_7x7_LFCN_1_7x7_0_split
I1203 21:22:12.699697 17543 net.cpp:100] Creating Layer LFCN_1_7x7_LFCN_1_7x7_0_split
I1203 21:22:12.699700 17543 net.cpp:434] LFCN_1_7x7_LFCN_1_7x7_0_split <- LFCN_1_7x7
I1203 21:22:12.699707 17543 net.cpp:408] LFCN_1_7x7_LFCN_1_7x7_0_split -> LFCN_1_7x7_LFCN_1_7x7_0_split_0
I1203 21:22:12.699713 17543 net.cpp:408] LFCN_1_7x7_LFCN_1_7x7_0_split -> LFCN_1_7x7_LFCN_1_7x7_0_split_1
I1203 21:22:12.699751 17543 net.cpp:150] Setting up LFCN_1_7x7_LFCN_1_7x7_0_split
I1203 21:22:12.699757 17543 net.cpp:157] Top shape: 2 9 96 96 (165888)
I1203 21:22:12.699762 17543 net.cpp:157] Top shape: 2 9 96 96 (165888)
I1203 21:22:12.699765 17543 net.cpp:165] Memory required for data: 3008805144
I1203 21:22:12.699769 17543 layer_factory.hpp:77] Creating layer detection_loss_1_7x7
I1203 21:22:12.699774 17543 net.cpp:100] Creating Layer detection_loss_1_7x7
I1203 21:22:12.699777 17543 net.cpp:434] detection_loss_1_7x7 <- LFCN_1_7x7_LFCN_1_7x7_0_split_0
I1203 21:22:12.699781 17543 net.cpp:434] detection_loss_1_7x7 <- label_1_7x7_data_2_split_0
I1203 21:22:12.699787 17543 net.cpp:408] detection_loss_1_7x7 -> loss_1_7x7
I1203 21:22:12.699795 17543 layer_factory.hpp:77] Creating layer detection_loss_1_7x7
I1203 21:22:12.701480 17543 net.cpp:150] Setting up detection_loss_1_7x7
I1203 21:22:12.701496 17543 net.cpp:157] Top shape: 1 1 1 2 (2)
I1203 21:22:12.701500 17543 net.cpp:160]     with loss weight 0.9
I1203 21:22:12.701509 17543 net.cpp:165] Memory required for data: 3008805152
I1203 21:22:12.701514 17543 layer_factory.hpp:77] Creating layer detection_accuracy_1_7x7
I1203 21:22:12.701519 17543 net.cpp:100] Creating Layer detection_accuracy_1_7x7
I1203 21:22:12.701525 17543 net.cpp:434] detection_accuracy_1_7x7 <- LFCN_1_7x7_LFCN_1_7x7_0_split_1
I1203 21:22:12.701531 17543 net.cpp:434] detection_accuracy_1_7x7 <- label_1_7x7_data_2_split_1
I1203 21:22:12.701535 17543 net.cpp:408] detection_accuracy_1_7x7 -> accuracy_1_7x7
I1203 21:22:12.701542 17543 net.cpp:408] detection_accuracy_1_7x7 -> boxiou_1_7x7
I1203 21:22:12.701581 17543 net.cpp:150] Setting up detection_accuracy_1_7x7
I1203 21:22:12.701587 17543 net.cpp:157] Top shape: 1 1 1 2 (2)
I1203 21:22:12.701591 17543 net.cpp:157] Top shape: 1 1 1 1 (1)
I1203 21:22:12.701594 17543 net.cpp:165] Memory required for data: 3008805164
I1203 21:22:12.701597 17543 layer_factory.hpp:77] Creating layer pool4
I1203 21:22:12.701606 17543 net.cpp:100] Creating Layer pool4
I1203 21:22:12.701611 17543 net.cpp:434] pool4 <- conv4_3_relu4_3_0_split_2
I1203 21:22:12.701616 17543 net.cpp:408] pool4 -> pool4
I1203 21:22:12.701660 17543 net.cpp:150] Setting up pool4
I1203 21:22:12.701666 17543 net.cpp:157] Top shape: 2 512 48 48 (2359296)
I1203 21:22:12.701669 17543 net.cpp:165] Memory required for data: 3018242348
I1203 21:22:12.701673 17543 layer_factory.hpp:77] Creating layer conv5_1
I1203 21:22:12.701679 17543 net.cpp:100] Creating Layer conv5_1
I1203 21:22:12.701683 17543 net.cpp:434] conv5_1 <- pool4
I1203 21:22:12.701687 17543 net.cpp:408] conv5_1 -> conv5_1
I1203 21:22:12.712044 17543 net.cpp:150] Setting up conv5_1
I1203 21:22:12.712216 17543 net.cpp:157] Top shape: 2 512 48 48 (2359296)
I1203 21:22:12.712225 17543 net.cpp:165] Memory required for data: 3027679532
I1203 21:22:12.712272 17543 layer_factory.hpp:77] Creating layer relu5_1
I1203 21:22:12.712329 17543 net.cpp:100] Creating Layer relu5_1
I1203 21:22:12.712350 17543 net.cpp:434] relu5_1 <- conv5_1
I1203 21:22:12.712371 17543 net.cpp:395] relu5_1 -> conv5_1 (in-place)
I1203 21:22:12.712764 17543 net.cpp:150] Setting up relu5_1
I1203 21:22:12.712787 17543 net.cpp:157] Top shape: 2 512 48 48 (2359296)
I1203 21:22:12.712793 17543 net.cpp:165] Memory required for data: 3037116716
I1203 21:22:12.712798 17543 layer_factory.hpp:77] Creating layer conv5_2
I1203 21:22:12.712824 17543 net.cpp:100] Creating Layer conv5_2
I1203 21:22:12.712895 17543 net.cpp:434] conv5_2 <- conv5_1
I1203 21:22:12.712924 17543 net.cpp:408] conv5_2 -> conv5_2
I1203 21:22:12.720372 17543 net.cpp:150] Setting up conv5_2
I1203 21:22:12.720409 17543 net.cpp:157] Top shape: 2 512 48 48 (2359296)
I1203 21:22:12.720413 17543 net.cpp:165] Memory required for data: 3046553900
I1203 21:22:12.720435 17543 layer_factory.hpp:77] Creating layer relu5_2
I1203 21:22:12.720449 17543 net.cpp:100] Creating Layer relu5_2
I1203 21:22:12.720458 17543 net.cpp:434] relu5_2 <- conv5_2
I1203 21:22:12.720468 17543 net.cpp:395] relu5_2 -> conv5_2 (in-place)
I1203 21:22:12.721016 17543 net.cpp:150] Setting up relu5_2
I1203 21:22:12.721033 17543 net.cpp:157] Top shape: 2 512 48 48 (2359296)
I1203 21:22:12.721037 17543 net.cpp:165] Memory required for data: 3055991084
I1203 21:22:12.721042 17543 layer_factory.hpp:77] Creating layer conv5_3
I1203 21:22:12.721055 17543 net.cpp:100] Creating Layer conv5_3
I1203 21:22:12.721061 17543 net.cpp:434] conv5_3 <- conv5_2
I1203 21:22:12.721071 17543 net.cpp:408] conv5_3 -> conv5_3
I1203 21:22:12.727663 17543 net.cpp:150] Setting up conv5_3
I1203 21:22:12.727696 17543 net.cpp:157] Top shape: 2 512 48 48 (2359296)
I1203 21:22:12.727700 17543 net.cpp:165] Memory required for data: 3065428268
I1203 21:22:12.727710 17543 layer_factory.hpp:77] Creating layer relu5_3
I1203 21:22:12.727725 17543 net.cpp:100] Creating Layer relu5_3
I1203 21:22:12.727730 17543 net.cpp:434] relu5_3 <- conv5_3
I1203 21:22:12.727739 17543 net.cpp:395] relu5_3 -> conv5_3 (in-place)
I1203 21:22:12.727903 17543 net.cpp:150] Setting up relu5_3
I1203 21:22:12.727915 17543 net.cpp:157] Top shape: 2 512 48 48 (2359296)
I1203 21:22:12.727918 17543 net.cpp:165] Memory required for data: 3074865452
I1203 21:22:12.727923 17543 layer_factory.hpp:77] Creating layer conv5_3_relu5_3_0_split
I1203 21:22:12.727931 17543 net.cpp:100] Creating Layer conv5_3_relu5_3_0_split
I1203 21:22:12.727936 17543 net.cpp:434] conv5_3_relu5_3_0_split <- conv5_3
I1203 21:22:12.727946 17543 net.cpp:408] conv5_3_relu5_3_0_split -> conv5_3_relu5_3_0_split_0
I1203 21:22:12.727958 17543 net.cpp:408] conv5_3_relu5_3_0_split -> conv5_3_relu5_3_0_split_1
I1203 21:22:12.727975 17543 net.cpp:408] conv5_3_relu5_3_0_split -> conv5_3_relu5_3_0_split_2
I1203 21:22:12.728039 17543 net.cpp:150] Setting up conv5_3_relu5_3_0_split
I1203 21:22:12.728047 17543 net.cpp:157] Top shape: 2 512 48 48 (2359296)
I1203 21:22:12.728055 17543 net.cpp:157] Top shape: 2 512 48 48 (2359296)
I1203 21:22:12.728060 17543 net.cpp:157] Top shape: 2 512 48 48 (2359296)
I1203 21:22:12.728065 17543 net.cpp:165] Memory required for data: 3103177004
I1203 21:22:12.728068 17543 layer_factory.hpp:77] Creating layer LFCN_2_5x5
I1203 21:22:12.728083 17543 net.cpp:100] Creating Layer LFCN_2_5x5
I1203 21:22:12.728091 17543 net.cpp:434] LFCN_2_5x5 <- conv5_3_relu5_3_0_split_0
I1203 21:22:12.728097 17543 net.cpp:408] LFCN_2_5x5 -> LFCN_2_5x5
I1203 21:22:12.731917 17543 net.cpp:150] Setting up LFCN_2_5x5
I1203 21:22:12.731930 17543 net.cpp:157] Top shape: 2 9 48 48 (41472)
I1203 21:22:12.731933 17543 net.cpp:165] Memory required for data: 3103342892
I1203 21:22:12.731940 17543 layer_factory.hpp:77] Creating layer LFCN_2_5x5_LFCN_2_5x5_0_split
I1203 21:22:12.731950 17543 net.cpp:100] Creating Layer LFCN_2_5x5_LFCN_2_5x5_0_split
I1203 21:22:12.731956 17543 net.cpp:434] LFCN_2_5x5_LFCN_2_5x5_0_split <- LFCN_2_5x5
I1203 21:22:12.731962 17543 net.cpp:408] LFCN_2_5x5_LFCN_2_5x5_0_split -> LFCN_2_5x5_LFCN_2_5x5_0_split_0
I1203 21:22:12.731971 17543 net.cpp:408] LFCN_2_5x5_LFCN_2_5x5_0_split -> LFCN_2_5x5_LFCN_2_5x5_0_split_1
I1203 21:22:12.732010 17543 net.cpp:150] Setting up LFCN_2_5x5_LFCN_2_5x5_0_split
I1203 21:22:12.732018 17543 net.cpp:157] Top shape: 2 9 48 48 (41472)
I1203 21:22:12.732023 17543 net.cpp:157] Top shape: 2 9 48 48 (41472)
I1203 21:22:12.732028 17543 net.cpp:165] Memory required for data: 3103674668
I1203 21:22:12.732031 17543 layer_factory.hpp:77] Creating layer detection_loss_2_5x5
I1203 21:22:12.732040 17543 net.cpp:100] Creating Layer detection_loss_2_5x5
I1203 21:22:12.732046 17543 net.cpp:434] detection_loss_2_5x5 <- LFCN_2_5x5_LFCN_2_5x5_0_split_0
I1203 21:22:12.732053 17543 net.cpp:434] detection_loss_2_5x5 <- label_2_5x5_data_3_split_0
I1203 21:22:12.732064 17543 net.cpp:408] detection_loss_2_5x5 -> loss_2_5x5
I1203 21:22:12.732077 17543 layer_factory.hpp:77] Creating layer detection_loss_2_5x5
I1203 21:22:12.732434 17543 net.cpp:150] Setting up detection_loss_2_5x5
I1203 21:22:12.732446 17543 net.cpp:157] Top shape: 1 1 1 2 (2)
I1203 21:22:12.732451 17543 net.cpp:160]     with loss weight 1
I1203 21:22:12.732465 17543 net.cpp:165] Memory required for data: 3103674676
I1203 21:22:12.732470 17543 layer_factory.hpp:77] Creating layer detection_accuracy_2_5x5
I1203 21:22:12.732480 17543 net.cpp:100] Creating Layer detection_accuracy_2_5x5
I1203 21:22:12.732486 17543 net.cpp:434] detection_accuracy_2_5x5 <- LFCN_2_5x5_LFCN_2_5x5_0_split_1
I1203 21:22:12.732492 17543 net.cpp:434] detection_accuracy_2_5x5 <- label_2_5x5_data_3_split_1
I1203 21:22:12.732501 17543 net.cpp:408] detection_accuracy_2_5x5 -> accuracy_2_5x5
I1203 21:22:12.732513 17543 net.cpp:408] detection_accuracy_2_5x5 -> boxiou_2_5x5
I1203 21:22:12.732558 17543 net.cpp:150] Setting up detection_accuracy_2_5x5
I1203 21:22:12.732568 17543 net.cpp:157] Top shape: 1 1 1 2 (2)
I1203 21:22:12.732573 17543 net.cpp:157] Top shape: 1 1 1 1 (1)
I1203 21:22:12.732578 17543 net.cpp:165] Memory required for data: 3103674688
I1203 21:22:12.732583 17543 layer_factory.hpp:77] Creating layer LFCN_2_7x7
I1203 21:22:12.732595 17543 net.cpp:100] Creating Layer LFCN_2_7x7
I1203 21:22:12.732601 17543 net.cpp:434] LFCN_2_7x7 <- conv5_3_relu5_3_0_split_1
I1203 21:22:12.732609 17543 net.cpp:408] LFCN_2_7x7 -> LFCN_2_7x7
I1203 21:22:12.739926 17543 net.cpp:150] Setting up LFCN_2_7x7
I1203 21:22:12.739960 17543 net.cpp:157] Top shape: 2 9 48 48 (41472)
I1203 21:22:12.739965 17543 net.cpp:165] Memory required for data: 3103840576
I1203 21:22:12.739977 17543 layer_factory.hpp:77] Creating layer LFCN_2_7x7_LFCN_2_7x7_0_split
I1203 21:22:12.739989 17543 net.cpp:100] Creating Layer LFCN_2_7x7_LFCN_2_7x7_0_split
I1203 21:22:12.739997 17543 net.cpp:434] LFCN_2_7x7_LFCN_2_7x7_0_split <- LFCN_2_7x7
I1203 21:22:12.740008 17543 net.cpp:408] LFCN_2_7x7_LFCN_2_7x7_0_split -> LFCN_2_7x7_LFCN_2_7x7_0_split_0
I1203 21:22:12.740022 17543 net.cpp:408] LFCN_2_7x7_LFCN_2_7x7_0_split -> LFCN_2_7x7_LFCN_2_7x7_0_split_1
I1203 21:22:12.740069 17543 net.cpp:150] Setting up LFCN_2_7x7_LFCN_2_7x7_0_split
I1203 21:22:12.740078 17543 net.cpp:157] Top shape: 2 9 48 48 (41472)
I1203 21:22:12.740084 17543 net.cpp:157] Top shape: 2 9 48 48 (41472)
I1203 21:22:12.740088 17543 net.cpp:165] Memory required for data: 3104172352
I1203 21:22:12.740093 17543 layer_factory.hpp:77] Creating layer detection_loss_2_7x7
I1203 21:22:12.740104 17543 net.cpp:100] Creating Layer detection_loss_2_7x7
I1203 21:22:12.740110 17543 net.cpp:434] detection_loss_2_7x7 <- LFCN_2_7x7_LFCN_2_7x7_0_split_0
I1203 21:22:12.740118 17543 net.cpp:434] detection_loss_2_7x7 <- label_2_7x7_data_4_split_0
I1203 21:22:12.740128 17543 net.cpp:408] detection_loss_2_7x7 -> loss_2_7x7
I1203 21:22:12.740141 17543 layer_factory.hpp:77] Creating layer detection_loss_2_7x7
I1203 21:22:12.740499 17543 net.cpp:150] Setting up detection_loss_2_7x7
I1203 21:22:12.740509 17543 net.cpp:157] Top shape: 1 1 1 2 (2)
I1203 21:22:12.740514 17543 net.cpp:160]     with loss weight 1
I1203 21:22:12.740527 17543 net.cpp:165] Memory required for data: 3104172360
I1203 21:22:12.740532 17543 layer_factory.hpp:77] Creating layer detection_accuracy_2_7x7
I1203 21:22:12.740550 17543 net.cpp:100] Creating Layer detection_accuracy_2_7x7
I1203 21:22:12.740556 17543 net.cpp:434] detection_accuracy_2_7x7 <- LFCN_2_7x7_LFCN_2_7x7_0_split_1
I1203 21:22:12.740562 17543 net.cpp:434] detection_accuracy_2_7x7 <- label_2_7x7_data_4_split_1
I1203 21:22:12.740569 17543 net.cpp:408] detection_accuracy_2_7x7 -> accuracy_2_7x7
I1203 21:22:12.740578 17543 net.cpp:408] detection_accuracy_2_7x7 -> boxiou_2_7x7
I1203 21:22:12.740628 17543 net.cpp:150] Setting up detection_accuracy_2_7x7
I1203 21:22:12.740636 17543 net.cpp:157] Top shape: 1 1 1 2 (2)
I1203 21:22:12.740643 17543 net.cpp:157] Top shape: 1 1 1 1 (1)
I1203 21:22:12.740646 17543 net.cpp:165] Memory required for data: 3104172372
I1203 21:22:12.740651 17543 layer_factory.hpp:77] Creating layer pool5
I1203 21:22:12.740659 17543 net.cpp:100] Creating Layer pool5
I1203 21:22:12.740665 17543 net.cpp:434] pool5 <- conv5_3_relu5_3_0_split_2
I1203 21:22:12.740674 17543 net.cpp:408] pool5 -> pool5
I1203 21:22:12.740725 17543 net.cpp:150] Setting up pool5
I1203 21:22:12.740734 17543 net.cpp:157] Top shape: 2 512 24 24 (589824)
I1203 21:22:12.740739 17543 net.cpp:165] Memory required for data: 3106531668
I1203 21:22:12.740743 17543 layer_factory.hpp:77] Creating layer conv6_1
I1203 21:22:12.740758 17543 net.cpp:100] Creating Layer conv6_1
I1203 21:22:12.740764 17543 net.cpp:434] conv6_1 <- pool5
I1203 21:22:12.740772 17543 net.cpp:408] conv6_1 -> conv6_1
I1203 21:22:12.804749 17543 net.cpp:150] Setting up conv6_1
I1203 21:22:12.804785 17543 net.cpp:157] Top shape: 2 512 24 24 (589824)
I1203 21:22:12.804790 17543 net.cpp:165] Memory required for data: 3108890964
I1203 21:22:12.804800 17543 layer_factory.hpp:77] Creating layer relu6_1
I1203 21:22:12.804813 17543 net.cpp:100] Creating Layer relu6_1
I1203 21:22:12.804821 17543 net.cpp:434] relu6_1 <- conv6_1
I1203 21:22:12.804828 17543 net.cpp:395] relu6_1 -> conv6_1 (in-place)
I1203 21:22:12.805006 17543 net.cpp:150] Setting up relu6_1
I1203 21:22:12.805018 17543 net.cpp:157] Top shape: 2 512 24 24 (589824)
I1203 21:22:12.805022 17543 net.cpp:165] Memory required for data: 3111250260
I1203 21:22:12.805027 17543 layer_factory.hpp:77] Creating layer conv6_1_relu6_1_0_split
I1203 21:22:12.805037 17543 net.cpp:100] Creating Layer conv6_1_relu6_1_0_split
I1203 21:22:12.805042 17543 net.cpp:434] conv6_1_relu6_1_0_split <- conv6_1
I1203 21:22:12.805049 17543 net.cpp:408] conv6_1_relu6_1_0_split -> conv6_1_relu6_1_0_split_0
I1203 21:22:12.805059 17543 net.cpp:408] conv6_1_relu6_1_0_split -> conv6_1_relu6_1_0_split_1
I1203 21:22:12.805069 17543 net.cpp:408] conv6_1_relu6_1_0_split -> conv6_1_relu6_1_0_split_2
I1203 21:22:12.805138 17543 net.cpp:150] Setting up conv6_1_relu6_1_0_split
I1203 21:22:12.805147 17543 net.cpp:157] Top shape: 2 512 24 24 (589824)
I1203 21:22:12.805153 17543 net.cpp:157] Top shape: 2 512 24 24 (589824)
I1203 21:22:12.805160 17543 net.cpp:157] Top shape: 2 512 24 24 (589824)
I1203 21:22:12.805163 17543 net.cpp:165] Memory required for data: 3118328148
I1203 21:22:12.805168 17543 layer_factory.hpp:77] Creating layer LFCN_3_5x5
I1203 21:22:12.805181 17543 net.cpp:100] Creating Layer LFCN_3_5x5
I1203 21:22:12.805187 17543 net.cpp:434] LFCN_3_5x5 <- conv6_1_relu6_1_0_split_0
I1203 21:22:12.805197 17543 net.cpp:408] LFCN_3_5x5 -> LFCN_3_5x5
I1203 21:22:12.810204 17543 net.cpp:150] Setting up LFCN_3_5x5
I1203 21:22:12.810220 17543 net.cpp:157] Top shape: 2 9 24 24 (10368)
I1203 21:22:12.810225 17543 net.cpp:165] Memory required for data: 3118369620
I1203 21:22:12.810233 17543 layer_factory.hpp:77] Creating layer LFCN_3_5x5_LFCN_3_5x5_0_split
I1203 21:22:12.810245 17543 net.cpp:100] Creating Layer LFCN_3_5x5_LFCN_3_5x5_0_split
I1203 21:22:12.810251 17543 net.cpp:434] LFCN_3_5x5_LFCN_3_5x5_0_split <- LFCN_3_5x5
I1203 21:22:12.810259 17543 net.cpp:408] LFCN_3_5x5_LFCN_3_5x5_0_split -> LFCN_3_5x5_LFCN_3_5x5_0_split_0
I1203 21:22:12.810271 17543 net.cpp:408] LFCN_3_5x5_LFCN_3_5x5_0_split -> LFCN_3_5x5_LFCN_3_5x5_0_split_1
I1203 21:22:12.810324 17543 net.cpp:150] Setting up LFCN_3_5x5_LFCN_3_5x5_0_split
I1203 21:22:12.810334 17543 net.cpp:157] Top shape: 2 9 24 24 (10368)
I1203 21:22:12.810340 17543 net.cpp:157] Top shape: 2 9 24 24 (10368)
I1203 21:22:12.810344 17543 net.cpp:165] Memory required for data: 3118452564
I1203 21:22:12.810348 17543 layer_factory.hpp:77] Creating layer detection_loss_3_5x5
I1203 21:22:12.810359 17543 net.cpp:100] Creating Layer detection_loss_3_5x5
I1203 21:22:12.810365 17543 net.cpp:434] detection_loss_3_5x5 <- LFCN_3_5x5_LFCN_3_5x5_0_split_0
I1203 21:22:12.810376 17543 net.cpp:434] detection_loss_3_5x5 <- label_3_5x5_data_5_split_0
I1203 21:22:12.810386 17543 net.cpp:408] detection_loss_3_5x5 -> loss_3_5x5
I1203 21:22:12.810400 17543 layer_factory.hpp:77] Creating layer detection_loss_3_5x5
I1203 21:22:12.810758 17543 net.cpp:150] Setting up detection_loss_3_5x5
I1203 21:22:12.810770 17543 net.cpp:157] Top shape: 1 1 1 2 (2)
I1203 21:22:12.810775 17543 net.cpp:160]     with loss weight 1
I1203 21:22:12.810789 17543 net.cpp:165] Memory required for data: 3118452572
I1203 21:22:12.810794 17543 layer_factory.hpp:77] Creating layer detection_accuracy_3_5x5
I1203 21:22:12.810802 17543 net.cpp:100] Creating Layer detection_accuracy_3_5x5
I1203 21:22:12.810808 17543 net.cpp:434] detection_accuracy_3_5x5 <- LFCN_3_5x5_LFCN_3_5x5_0_split_1
I1203 21:22:12.810817 17543 net.cpp:434] detection_accuracy_3_5x5 <- label_3_5x5_data_5_split_1
I1203 21:22:12.810825 17543 net.cpp:408] detection_accuracy_3_5x5 -> accuracy_3_5x5
I1203 21:22:12.810838 17543 net.cpp:408] detection_accuracy_3_5x5 -> boxiou_3_5x5
I1203 21:22:12.810886 17543 net.cpp:150] Setting up detection_accuracy_3_5x5
I1203 21:22:12.810894 17543 net.cpp:157] Top shape: 1 1 1 2 (2)
I1203 21:22:12.810900 17543 net.cpp:157] Top shape: 1 1 1 1 (1)
I1203 21:22:12.810904 17543 net.cpp:165] Memory required for data: 3118452584
I1203 21:22:12.810909 17543 layer_factory.hpp:77] Creating layer LFCN_3_7x7
I1203 21:22:12.810921 17543 net.cpp:100] Creating Layer LFCN_3_7x7
I1203 21:22:12.810928 17543 net.cpp:434] LFCN_3_7x7 <- conv6_1_relu6_1_0_split_1
I1203 21:22:12.810936 17543 net.cpp:408] LFCN_3_7x7 -> LFCN_3_7x7
I1203 21:22:12.817967 17543 net.cpp:150] Setting up LFCN_3_7x7
I1203 21:22:12.817986 17543 net.cpp:157] Top shape: 2 9 24 24 (10368)
I1203 21:22:12.817991 17543 net.cpp:165] Memory required for data: 3118494056
I1203 21:22:12.818001 17543 layer_factory.hpp:77] Creating layer LFCN_3_7x7_LFCN_3_7x7_0_split
I1203 21:22:12.818011 17543 net.cpp:100] Creating Layer LFCN_3_7x7_LFCN_3_7x7_0_split
I1203 21:22:12.818018 17543 net.cpp:434] LFCN_3_7x7_LFCN_3_7x7_0_split <- LFCN_3_7x7
I1203 21:22:12.818027 17543 net.cpp:408] LFCN_3_7x7_LFCN_3_7x7_0_split -> LFCN_3_7x7_LFCN_3_7x7_0_split_0
I1203 21:22:12.818035 17543 net.cpp:408] LFCN_3_7x7_LFCN_3_7x7_0_split -> LFCN_3_7x7_LFCN_3_7x7_0_split_1
I1203 21:22:12.818097 17543 net.cpp:150] Setting up LFCN_3_7x7_LFCN_3_7x7_0_split
I1203 21:22:12.818106 17543 net.cpp:157] Top shape: 2 9 24 24 (10368)
I1203 21:22:12.818112 17543 net.cpp:157] Top shape: 2 9 24 24 (10368)
I1203 21:22:12.818116 17543 net.cpp:165] Memory required for data: 3118577000
I1203 21:22:12.818121 17543 layer_factory.hpp:77] Creating layer detection_loss_3_7x7
I1203 21:22:12.818130 17543 net.cpp:100] Creating Layer detection_loss_3_7x7
I1203 21:22:12.818137 17543 net.cpp:434] detection_loss_3_7x7 <- LFCN_3_7x7_LFCN_3_7x7_0_split_0
I1203 21:22:12.818143 17543 net.cpp:434] detection_loss_3_7x7 <- label_3_7x7_data_6_split_0
I1203 21:22:12.818152 17543 net.cpp:408] detection_loss_3_7x7 -> loss_3_7x7
I1203 21:22:12.818164 17543 layer_factory.hpp:77] Creating layer detection_loss_3_7x7
I1203 21:22:12.818876 17543 net.cpp:150] Setting up detection_loss_3_7x7
I1203 21:22:12.818891 17543 net.cpp:157] Top shape: 1 1 1 2 (2)
I1203 21:22:12.818895 17543 net.cpp:160]     with loss weight 1
I1203 21:22:12.818907 17543 net.cpp:165] Memory required for data: 3118577008
I1203 21:22:12.818912 17543 layer_factory.hpp:77] Creating layer detection_accuracy_3_7x7
I1203 21:22:12.818922 17543 net.cpp:100] Creating Layer detection_accuracy_3_7x7
I1203 21:22:12.818930 17543 net.cpp:434] detection_accuracy_3_7x7 <- LFCN_3_7x7_LFCN_3_7x7_0_split_1
I1203 21:22:12.818938 17543 net.cpp:434] detection_accuracy_3_7x7 <- label_3_7x7_data_6_split_1
I1203 21:22:12.818949 17543 net.cpp:408] detection_accuracy_3_7x7 -> accuracy_3_7x7
I1203 21:22:12.818961 17543 net.cpp:408] detection_accuracy_3_7x7 -> boxiou_3_7x7
I1203 21:22:12.819020 17543 net.cpp:150] Setting up detection_accuracy_3_7x7
I1203 21:22:12.819031 17543 net.cpp:157] Top shape: 1 1 1 2 (2)
I1203 21:22:12.819037 17543 net.cpp:157] Top shape: 1 1 1 1 (1)
I1203 21:22:12.819042 17543 net.cpp:165] Memory required for data: 3118577020
I1203 21:22:12.819048 17543 layer_factory.hpp:77] Creating layer pool6
I1203 21:22:12.819061 17543 net.cpp:100] Creating Layer pool6
I1203 21:22:12.819068 17543 net.cpp:434] pool6 <- conv6_1_relu6_1_0_split_2
I1203 21:22:12.819078 17543 net.cpp:408] pool6 -> pool6
I1203 21:22:12.819133 17543 net.cpp:150] Setting up pool6
I1203 21:22:12.819144 17543 net.cpp:157] Top shape: 2 512 12 12 (147456)
I1203 21:22:12.819149 17543 net.cpp:165] Memory required for data: 3119166844
I1203 21:22:12.819154 17543 layer_factory.hpp:77] Creating layer LFCN_4_5x5
I1203 21:22:12.819169 17543 net.cpp:100] Creating Layer LFCN_4_5x5
I1203 21:22:12.819177 17543 net.cpp:434] LFCN_4_5x5 <- pool6
I1203 21:22:12.819188 17543 net.cpp:408] LFCN_4_5x5 -> LFCN_4_5x5
I1203 21:22:12.823196 17543 net.cpp:150] Setting up LFCN_4_5x5
I1203 21:22:12.823209 17543 net.cpp:157] Top shape: 2 9 12 12 (2592)
I1203 21:22:12.823213 17543 net.cpp:165] Memory required for data: 3119177212
I1203 21:22:12.823220 17543 layer_factory.hpp:77] Creating layer LFCN_4_5x5_LFCN_4_5x5_0_split
I1203 21:22:12.823228 17543 net.cpp:100] Creating Layer LFCN_4_5x5_LFCN_4_5x5_0_split
I1203 21:22:12.823235 17543 net.cpp:434] LFCN_4_5x5_LFCN_4_5x5_0_split <- LFCN_4_5x5
I1203 21:22:12.823243 17543 net.cpp:408] LFCN_4_5x5_LFCN_4_5x5_0_split -> LFCN_4_5x5_LFCN_4_5x5_0_split_0
I1203 21:22:12.823251 17543 net.cpp:408] LFCN_4_5x5_LFCN_4_5x5_0_split -> LFCN_4_5x5_LFCN_4_5x5_0_split_1
I1203 21:22:12.823293 17543 net.cpp:150] Setting up LFCN_4_5x5_LFCN_4_5x5_0_split
I1203 21:22:12.823302 17543 net.cpp:157] Top shape: 2 9 12 12 (2592)
I1203 21:22:12.823307 17543 net.cpp:157] Top shape: 2 9 12 12 (2592)
I1203 21:22:12.823310 17543 net.cpp:165] Memory required for data: 3119197948
I1203 21:22:12.823314 17543 layer_factory.hpp:77] Creating layer detection_loss_4_5x5
I1203 21:22:12.823323 17543 net.cpp:100] Creating Layer detection_loss_4_5x5
I1203 21:22:12.823328 17543 net.cpp:434] detection_loss_4_5x5 <- LFCN_4_5x5_LFCN_4_5x5_0_split_0
I1203 21:22:12.823333 17543 net.cpp:434] detection_loss_4_5x5 <- label_4_5x5_data_7_split_0
I1203 21:22:12.823339 17543 net.cpp:408] detection_loss_4_5x5 -> loss_4_5x5
I1203 21:22:12.823348 17543 layer_factory.hpp:77] Creating layer detection_loss_4_5x5
I1203 21:22:12.823643 17543 net.cpp:150] Setting up detection_loss_4_5x5
I1203 21:22:12.823653 17543 net.cpp:157] Top shape: 1 1 1 2 (2)
I1203 21:22:12.823657 17543 net.cpp:160]     with loss weight 1
I1203 21:22:12.823662 17543 net.cpp:165] Memory required for data: 3119197956
I1203 21:22:12.823666 17543 layer_factory.hpp:77] Creating layer detection_accuracy_4_5x5
I1203 21:22:12.823673 17543 net.cpp:100] Creating Layer detection_accuracy_4_5x5
I1203 21:22:12.823679 17543 net.cpp:434] detection_accuracy_4_5x5 <- LFCN_4_5x5_LFCN_4_5x5_0_split_1
I1203 21:22:12.823685 17543 net.cpp:434] detection_accuracy_4_5x5 <- label_4_5x5_data_7_split_1
I1203 21:22:12.823691 17543 net.cpp:408] detection_accuracy_4_5x5 -> accuracy_4_5x5
I1203 21:22:12.823701 17543 net.cpp:408] detection_accuracy_4_5x5 -> boxiou_4_5x5
I1203 21:22:12.823740 17543 net.cpp:150] Setting up detection_accuracy_4_5x5
I1203 21:22:12.823747 17543 net.cpp:157] Top shape: 1 1 1 2 (2)
I1203 21:22:12.823752 17543 net.cpp:157] Top shape: 1 1 1 1 (1)
I1203 21:22:12.823756 17543 net.cpp:165] Memory required for data: 3119197968
I1203 21:22:12.823760 17543 net.cpp:228] detection_accuracy_4_5x5 does not need backward computation.
I1203 21:22:12.823765 17543 net.cpp:226] detection_loss_4_5x5 needs backward computation.
I1203 21:22:12.823768 17543 net.cpp:226] LFCN_4_5x5_LFCN_4_5x5_0_split needs backward computation.
I1203 21:22:12.823772 17543 net.cpp:226] LFCN_4_5x5 needs backward computation.
…
