…
    downsample_rate: 32
    downsample_rate: 32
    downsample_rate: 64
    coord_num: 4
    field_h: 60
    field_h: 84
    field_h: 120
    field_h: 168
    field_h: 240
    field_h: 336
    field_h: 480
    field_w: 60
    field_w: 84
    field_w: 120
    field_w: 168
    field_w: 240
    field_w: 336
    field_w: 480
    fg_threshold: 0.5
    resize_width: 1344
    resize_height: 768
    crop_width: 768
    crop_height: 768
    do_multiple_scale: true
    min_scale: 60
    max_scale: 480
    min_gt_height: 25
    shuffle: true
    output_gt_boxes: true
  }
}
layer {
  name: "slice"
  type: "Slice"
  bottom: "data"
  top: "data123"
  top: "ch4"
  slice_param {
    slice_point: 3
    axis: 1
  }
}
layer {
  name: "conv1_1"
  type: "Convolution"
  bottom: "data123"
  top: "conv1_1"
  param {
    lr_mult: 0
    decay_mult: 0
  }
  param {
    lr_mult: 0
    decay_mult: 0
  }
  convolution_param {
    num_output: 64
    pad: 1
    kernel_size: 3
  }
}
layer {
  name: "relu1_1"
  type: "ReLU"
  bottom: "conv1_1"
  top: "conv1_1"
}
layer {
  name: "conv1_2"
  type: "Convolution"
  bottom: "conv1_1"
  top: "conv1_2"
  param {
    lr_mult: 0
    decay_mult: 0
  }
  param {
    lr_mult: 0
    decay_mult: 0
  }
  convolution_param {
    num_output: 64
    pad: 1
    kernel_size: 3
  }
}
layer {
  name: "relu1_2"
  type: "ReLU"
  bottom: "conv1_2"
  top: "conv1_2"
}
layer {
  name: "pool1"
  type: "Pooling"
  bottom: "conv1_2"
  top: "pool1"
  pooling_param {
    pool: MAX
    kernel_size: 2
    stride: 2
  }
}
layer {
  name: "conv2_1"
  type: "Convolution"
  bottom: "pool1"
  top: "conv2_1"
  param {
    lr_mult: 0
    decay_mult: 0
  }
  param {
    lr_mult: 0
    decay_mult: 0
  }
  convolution_param {
    num_output: 128
    pad: 1
    kernel_size: 3
  }
}
layer {
  name: "relu2_1"
  type: "ReLU"
  bottom: "conv2_1"
  top: "conv2_1"
}
layer {
  name: "conv2_2"
  type: "Convolution"
  bottom: "conv2_1"
  top: "conv2_2"
  param {
    lr_mult: 0
    decay_mult: 0
  }
  param {
    lr_mult: 0
    decay_mult: 0
  }
  convolution_param {
    num_output: 128
    pad: 1
    kernel_size: 3
  }
}
layer {
  name: "relu2_2"
  type: "ReLU"
  bottom: "conv2_2"
  top: "conv2_2"
}
layer {
  name: "pool2"
  type: "Pooling"
  bottom: "conv2_2"
  top: "pool2"
  pooling_param {
    pool: MAX
    kernel_size: 2
    stride: 2
  }
}
layer {
  name: "conv3_1"
  type: "Convolution"
  bottom: "pool2"
  top: "conv3_1"
  convolution_param {
    num_output: 256
    pad: 1
    kernel_size: 3
  }
}
layer {
  name: "relu3_1"
  type: "ReLU"
  bottom: "conv3_1"
  top: "conv3_1"
}
layer {
  name: "conv3_2"
  type: "Convolution"
  bottom: "conv3_1"
  top: "conv3_2"
  convolution_param {
    num_output: 256
    pad: 1
    kernel_size: 3
  }
}
layer {
  name: "relu3_2"
  type: "ReLU"
  bottom: "conv3_2"
  top: "conv3_2"
}
layer {
  name: "conv3_3"
  type: "Convolution"
  bottom: "conv3_2"
  top: "conv3_3"
  convolution_param {
    num_output: 256
    pad: 1
    kernel_size: 3
  }
}
layer {
  name: "relu3_3"
  type: "ReLU"
  bottom: "conv3_3"
  top: "conv3_3"
}
layer {
  name: "pool3"
  type: "Pooling"
  bottom: "conv3_3"
  top: "pool3"
  pooling_param {
    pool: MAX
    kernel_size: 2
    stride: 2
  }
}
layer {
  name: "conv4_1"
  type: "Convolution"
  bottom: "pool3"
  top: "conv4_1"
  convolution_param {
    num_output: 512
    pad: 1
    kernel_size: 3
  }
}
layer {
  name: "relu4_1"
  type: "ReLU"
  bottom: "conv4_1"
  top: "conv4_1"
}
layer {
  name: "conv4_2"
  type: "Convolution"
  bottom: "conv4_1"
  top: "conv4_2"
  convolution_param {
    num_output: 512
    pad: 1
    kernel_size: 3
  }
}
layer {
  name: "relu4_2"
  type: "ReLU"
  bottom: "conv4_2"
  top: "conv4_2"
}
layer {
  name: "conv4_3"
  type: "Convolution"
  bottom: "conv4_2"
  top: "conv4_3"
  convolution_param {
    num_output: 512
    pad: 1
    kernel_size: 3
  }
}
layer {
  name: "relu4_3"
  type: "ReLU"
  bottom: "conv4_3"
  top: "conv4_3"
}
layer {
  name: "buffer"
  type: "Convolution"
  bottom: "conv4_3"
  top: "buffer"
  param {
    lr_mult: 1
    decay_mult: 1
  }
  param {
    lr_mult: 2
    decay_mult: 0
  }
  propagate_down: false
  convolution_param {
    num_output: 512
    pad: 1
    kernel_size: 3
    weight_filler {
      type: "gaussian"
      std: 0.01
    }
    bias_filler {
      type: "constant"
    }
  }
}
layer {
  name: "relu_buffer"
  type: "ReLU"
  bottom: "buffer"
  top: "buffer"
}
layer {
  name: "attention"
  type: "Convolution"
  bottom: "buffer"
  top: "attention"
  param {
    lr_mult: 1
    decay_mult: 1
  }
  param {
    lr_mult: 2
    decay_mult: 0
  }
  convolution_param {
    num_output: 3
    pad: 1
    kernel_size: 3
  }
}
layer {
  name: "ch4_pool"
  type: "Pooling"
  bottom: "ch4"
  top: "ch4_pool"
  pooling_param {
    pool: MAX
    kernel_size: 8
    stride: 8
  }
}
layer {
  name: "loss_attention"
  type: "WeightedSoftmaxWithLoss"
  bottom: "attention"
  bottom: "ch4_pool"
  top: "loss_attention"
  loss_weight: 1
  propagate_down: true
  propagate_down: false
  softmax_param {
    pos_mult: 1
    pos_cid: 0
  }
}
layer {
  name: "loss1_conv1"
  type: "Convolution"
  bottom: "conv4_3"
  top: "loss1_conv1"
  param {
    lr_mult: 1
    decay_mult: 1
  }
  param {
    lr_mult: 2
    decay_mult: 0
  }
  convolution_param {
    num_output: 512
    pad: 1
    kernel_size: 3
    weight_filler {
      type: "gaussian"
      std: 0.01
    }
    bias_filler {
      type: "constant"
    }
  }
}
layer {
  name: "loss_relu1"
  type: "ReLU"
  bottom: "loss1_conv1"
  top: "loss1_conv1"
}
layer {
  name: "LFCN_1_5x5"
  type: "Convolution"
  bottom: "loss1_conv1"
  top: "LFCN_1_5x5"
  param {
    lr_mult: 1
    decay_mult: 1
  }
  param {
    lr_mult: 2
    decay_mult: 0
  }
  convolution_param {
    num_output: 9
    pad: 2
    kernel_size: 5
    weight_filler {
      type: "gaussian"
      std: 0.001
    }
    bias_filler {
      type: "constant"
    }
  }
}
layer {
  name: "detection_loss_1_5x5"
  type: "DetectionLoss"
  bottom: "LFCN_1_5x5"
  bottom: "label_1_5x5"
  top: "loss_1_5x5"
  loss_weight: 0.9
  detection_loss_param {
    cls_num: 5
    coord_num: 4
    lambda: 1
    field_h: 60
    field_w: 60
    downsample_rate: 8
    bb_smooth: true
    field_whr: 2
    field_xyr: 2
    bg_threshold: 0.2
    bg_multiple: 2
    sample_mode: "bootstrap"
    pos_neg_weighted: true
  }
}
layer {
  name: "detection_accuracy_1_5x5"
  type: "DetectionAccuracy"
  bottom: "LFCN_1_5x5"
  bottom: "label_1_5x5"
  top: "accuracy_1_5x5"
  top: "boxiou_1_5x5"
  detection_accuracy_param {
    cls_num: 5
    coord_num: 4
    field_h: 60
    field_w: 60
    downsample_rate: 8
    field_whr: 2
    field_xyr: 2
  }
}
layer {
  name: "LFCN_1_7x7"
  type: "Convolution"
  bottom: "loss1_conv1"
  top: "LFCN_1_7x7"
  param {
    lr_mult: 1
    decay_mult: 1
  }
  param {
    lr_mult: 2
    decay_mult: 0
  }
  convolution_param {
    num_output: 9
    pad: 3
    kernel_size: 7
    weight_filler {
      type: "gaussian"
      std: 0.001
    }
    bias_filler {
      type: "constant"
    }
  }
}
layer {
  name: "detection_loss_1_7x7"
  type: "DetectionLoss"
  bottom: "LFCN_1_7x7"
  bottom: "label_1_7x7"
  top: "loss_1_7x7"
  loss_weight: 0.9
  detection_loss_param {
    cls_num: 5
    coord_num: 4
    lambda: 1
    field_h: 84
    field_w: 84
    downsample_rate: 8
    bb_smooth: true
    field_whr: 2
    field_xyr: 2
    bg_threshold: 0.2
    bg_multiple: 2
    sample_mode: "bootstrap"
    pos_neg_weighted: true
  }
}
layer {
  name: "detection_accuracy_1_7x7"
  type: "DetectionAccuracy"
  bottom: "LFCN_1_7x7"
  bottom: "label_1_7x7"
  top: "accuracy_1_7x7"
  top: "boxiou_1_7x7"
  detection_accuracy_param {
    cls_num: 5
    coord_num: 4
    field_h: 84
    field_w: 84
    downsample_rate: 8
    field_whr: 2
    field_xyr: 2
  }
}
layer {
  name: "pool4"
  type: "Pooling"
  bottom: "conv4_3"
  top: "pool4"
  pooling_param {
    pool: MAX
    kernel_size: 2
    stride: 2
  }
}
layer {
  name: "conv5_1"
  type: "Convolution"
  bottom: "pool4"
  top: "conv5_1"
  convolution_param {
    num_output: 512
    pad: 1
    kernel_size: 3
  }
}
layer {
  name: "relu5_1"
  type: "ReLU"
  bottom: "conv5_1"
  top: "conv5_1"
}
layer {
  name: "conv5_2"
  type: "Convolution"
  bottom: "conv5_1"
  top: "conv5_2"
  convolution_param {
    num_output: 512
    pad: 1
    kernel_size: 3
  }
}
layer {
  name: "relu5_2"
  type: "ReLU"
  bottom: "conv5_2"
  top: "conv5_2"
}
layer {
  name: "conv5_3"
  type: "Convolution"
  bottom: "conv5_2"
  top: "conv5_3"
  convolution_param {
    num_output: 512
    pad: 1
    kernel_size: 3
  }
}
layer {
  name: "relu5_3"
  type: "ReLU"
  bottom: "conv5_3"
  top: "conv5_3"
}
layer {
  name: "LFCN_2_5x5"
  type: "Convolution"
  bottom: "conv5_3"
  top: "LFCN_2_5x5"
  param {
    lr_mult: 1
    decay_mult: 1
  }
  param {
    lr_mult: 2
    decay_mult: 0
  }
  convolution_param {
    num_output: 9
    pad: 2
    kernel_size: 5
    weight_filler {
      type: "gaussian"
      std: 0.001
    }
    bias_filler {
      type: "constant"
    }
  }
}
layer {
  name: "detection_loss_2_5x5"
  type: "DetectionLoss"
  bottom: "LFCN_2_5x5"
  bottom: "label_2_5x5"
  top: "loss_2_5x5"
  detection_loss_param {
    cls_num: 5
    coord_num: 4
    lambda: 1
    field_h: 120
    field_w: 120
    downsample_rate: 16
    bb_smooth: true
    field_whr: 2
    field_xyr: 2
    bg_threshold: 0.2
    bg_multiple: 2
    sample_mode: "bootstrap"
    pos_neg_weighted: true
  }
}
layer {
  name: "detection_accuracy_2_5x5"
  type: "DetectionAccuracy"
  bottom: "LFCN_2_5x5"
  bottom: "label_2_5x5"
  top: "accuracy_2_5x5"
  top: "boxiou_2_5x5"
  detection_accuracy_param {
    cls_num: 5
    coord_num: 4
    field_h: 120
    field_w: 120
    downsample_rate: 16
    field_whr: 2
    field_xyr: 2
  }
}
layer {
  name: "LFCN_2_7x7"
  type: "Convolution"
  bottom: "conv5_3"
  top: "LFCN_2_7x7"
  param {
    lr_mult: 1
    decay_mult: 1
  }
  param {
    lr_mult: 2
    decay_mult: 0
  }
  convolution_param {
    num_output: 9
    pad: 3
    kernel_size: 7
    weight_filler {
      type: "gaussian"
      std: 0.001
    }
    bias_filler {
      type: "constant"
    }
  }
}
layer {
  name: "detection_loss_2_7x7"
  type: "DetectionLoss"
  bottom: "LFCN_2_7x7"
  bottom: "label_2_7x7"
  top: "loss_2_7x7"
  detection_loss_param {
    cls_num: 5
    coord_num: 4
    lambda: 1
    field_h: 168
    field_w: 168
    downsample_rate: 16
    bb_smooth: true
    field_whr: 2
    field_xyr: 2
    bg_threshold: 0.2
    bg_multiple: 2
    sample_mode: "bootstrap"
    pos_neg_weighted: true
  }
}
layer {
  name: "detection_accuracy_2_7x7"
  type: "DetectionAccuracy"
  bottom: "LFCN_2_7x7"
  bottom: "label_2_7x7"
  top: "accuracy_2_7x7"
  top: "boxiou_2_7x7"
  detection_accuracy_param {
    cls_num: 5
    coord_num: 4
    field_h: 168
    field_w: 168
    downsample_rate: 16
    field_whr: 2
    field_xyr: 2
  }
}
layer {
  name: "pool5"
  type: "Pooling"
  bottom: "conv5_3"
  top: "pool5"
  pooling_param {
    pool: MAX
    kernel_size: 2
    stride: 2
  }
}
layer {
  name: "conv6_1"
  type: "Convolution"
  bottom: "pool5"
  top: "conv6_1"
  param {
    lr_mult: 1
    decay_mult: 1
  }
  param {
    lr_mult: 2
    decay_mult: 0
  }
  convolution_param {
    num_output: 512
    pad: 1
    kernel_size: 3
    weight_filler {
      type: "gaussian"
      std: 0.01
    }
    bias_filler {
      type: "constant"
    }
  }
}
layer {
  name: "relu6_1"
  type: "ReLU"
  bottom: "conv6_1"
  top: "conv6_1"
}
layer {
  name: "LFCN_3_5x5"
  type: "Convolution"
  bottom: "conv6_1"
  top: "LFCN_3_5x5"
  param {
    lr_mult: 1
    decay_mult: 1
  }
  param {
    lr_mult: 2
    decay_mult: 0
  }
  convolution_param {
    num_output: 9
    pad: 2
    kernel_size: 5
    weight_filler {
      type: "gaussian"
      std: 0.001
    }
    bias_filler {
      type: "constant"
    }
  }
}
layer {
  name: "detection_loss_3_5x5"
  type: "DetectionLoss"
  bottom: "LFCN_3_5x5"
  bottom: "label_3_5x5"
  top: "loss_3_5x5"
  detection_loss_param {
    cls_num: 5
    coord_num: 4
    lambda: 1
    field_h: 240
    field_w: 240
    downsample_rate: 32
    bb_smooth: true
    field_whr: 2
    field_xyr: 2
    bg_threshold: 0.2
    bg_multiple: 2
    sample_mode: "bootstrap"
    pos_neg_weighted: true
  }
}
layer {
  name: "detection_accuracy_3_5x5"
  type: "DetectionAccuracy"
  bottom: "LFCN_3_5x5"
  bottom: "label_3_5x5"
  top: "accuracy_3_5x5"
  top: "boxiou_3_5x5"
  detection_accuracy_param {
    cls_num: 5
    coord_num: 4
    field_h: 240
    field_w: 240
    downsample_rate: 32
    field_whr: 2
    field_xyr: 2
  }
}
layer {
  name: "LFCN_3_7x7"
  type: "Convolution"
  bottom: "conv6_1"
  top: "LFCN_3_7x7"
  param {
    lr_mult: 1
    decay_mult: 1
  }
  param {
    lr_mult: 2
    decay_mult: 0
  }
  convolution_param {
    num_output: 9
    pad: 3
    kernel_size: 7
    weight_filler {
      type: "gaussian"
      std: 0.001
    }
    bias_filler {
      type: "constant"
    }
  }
}
layer {
  name: "detection_loss_3_7x7"
  type: "DetectionLoss"
  bottom: "LFCN_3_7x7"
  bottom: "label_3_7x7"
  top: "loss_3_7x7"
  detection_loss_param {
    cls_num: 5
    coord_num: 4
    lambda: 1
    field_h: 336
    field_w: 336
    downsample_rate: 32
    bb_smooth: true
    field_whr: 2
    field_xyr: 2
    bg_threshold: 0.2
    bg_multiple: 2
    sample_mode: "bootstrap"
    pos_neg_weighted: true
  }
}
layer {
  name: "detection_accuracy_3_7x7"
  type: "DetectionAccuracy"
  bottom: "LFCN_3_7x7"
  bottom: "label_3_7x7"
  top: "accuracy_3_7x7"
  top: "boxiou_3_7x7"
  detection_accuracy_param {
    cls_num: 5
    coord_num: 4
    field_h: 336
    field_w: 336
    downsample_rate: 32
    field_whr: 2
    field_xyr: 2
  }
}
layer {
  name: "pool6"
  type: "Pooling"
  bottom: "conv6_1"
  top: "pool6"
  pooling_param {
    pool: MAX
    kernel_size: 2
    stride: 2
  }
}
layer {
  name: "LFCN_4_5x5"
  type: "Convolution"
  bottom: "pool6"
  top: "LFCN_4_5x5"
  param {
    lr_mult: 1
    decay_mult: 1
  }
  param {
    lr_mult: 2
    decay_mult: 0
  }
  convolution_param {
    num_output: 9
    pad: 2
    kernel_size: 5
    weight_filler {
      type: "gaussian"
      std: 0.001
    }
    bias_filler {
      type: "constant"
    }
  }
}
layer {
  name: "detection_loss_4_5x5"
  type: "DetectionLoss"
  bottom: "LFCN_4_5x5"
  bottom: "label_4_5x5"
  top: "loss_4_5x5"
  detection_loss_param {
    cls_num: 5
    coord_num: 4
    lambda: 1
    field_h: 480
    field_w: 480
    downsample_rate: 64
    bb_smooth: true
    field_whr: 2
    field_xyr: 2
    bg_threshold: 0.2
    bg_multiple: 2
    sample_mode: "bootstrap"
    pos_neg_weighted: true
  }
}
layer {
  name: "detection_accuracy_4_5x5"
  type: "DetectionAccuracy"
  bottom: "LFCN_4_5x5"
  bottom: "label_4_5x5"
  top: "accuracy_4_5x5"
  top: "boxiou_4_5x5"
  detection_accuracy_param {
    cls_num: 5
    coord_num: 4
    field_h: 480
    field_w: 480
    downsample_rate: 64
    field_whr: 2
    field_xyr: 2
  }
}
layer {
  name: "proposals"
  type: "BoxOutput"
  bottom: "LFCN_1_5x5"
  bottom: "LFCN_1_7x7"
  bottom: "LFCN_2_5x5"
  bottom: "LFCN_2_7x7"
  bottom: "LFCN_3_5x5"
  bottom: "LFCN_3_7x7"
  bottom: "LFCN_4_5x5"
  top: "proposals"
  propagate_down: false
  propagate_down: false
  propagate_down: false
  propagate_down: false
  propagate_down: false
  propagate_down: false
  propagate_down: false
  box_output_param {
    fg_thr: -8
    iou_thr: 0.65
    nms_type: "IOU"
    field_h: 60
    field_h: 84
    field_h: 120
    field_h: 168
    field_h: 240
    field_h: 336
    field_h: 480
    field_w: 60
    field_w: 84
    field_w: 120
    field_w: 168
    field_w: 240
    field_w: 336
    field_w: 480
    downsample_rate: 8
    downsample_rate: 8
    downsample_rate: 16
    downsample_rate: 16
    downsample_rate: 32
    downsample_rate: 32
    downsample_rate: 64
    field_whr: 2
    field_xyr: 2
    max_nms_num: 3000
  }
}
layer {
  name: "proposal_info"
  type: "ProposalTarget"
  bottom: "proposals"
  bottom: "gt_boxes"
  top: "rois"
  top: "proposal_labels"
  top: "proposal_targets"
  top: "box_inside_weights"
  top: "box_outside_weights"
  top: "match_gt_boxes"
  include {
    phase: TRAIN
  }
  propagate_down: false
  propagate_down: false
  proposal_target_param {
    cls_num: 5
    batch_size: 256
    fg_fraction: 0.25
    num_img_per_batch: 4
    fg_thr: 0.5
    bg_thr_hg: 0.49
    bg_thr_lw: 0.1
    img_width: 768
    img_height: 576
  }
  bbox_reg_param {
    bbox_mean: 0
    bbox_mean: 0
    bbox_mean: 0
    bbox_mean: 0
    bbox_std: 0.1
    bbox_std: 0.1
    bbox_std: 0.2
    bbox_std: 0.2
  }
}
layer {
  name: "softmax"
  type: "Softmax"
  bottom: "attention"
  top: "softmax_attention"
}
layer {
  name: "slice1"
  type: "Slice"
  bottom: "softmax_attention"
  top: "bg"
  top: "attention1"
  slice_param {
    slice_point: 1
    axis: 1
  }
}
layer {
  name: "silence"
  type: "Silence"
  bottom: "bg"
}
layer {
  name: "conv4_3_new"
  type: "Concat"
  bottom: "conv4_3"
  bottom: "attention1"
  top: "conv4_3_new"
}
layer {
  name: "conv4_3_2x"
  type: "Deconvolution"
  bottom: "conv4_3_new"
  top: "conv4_3_2x"
  param {
    lr_mult: 0
    decay_mult: 0
  }
  convolution_param {
    num_output: 514
    bias_term: false
    pad: 1
    kernel_size: 4
    group: 514
    stride: 2
    weight_filler {
      type: "bilinear"
    }
  }
}
layer {
  name: "roi_pool_org"
  type: "ROIPooling"
  bottom: "conv4_3_2x"
  bottom: "rois"
  top: "roi_pool_org"
  roi_pooling_param {
    pooled_h: 7
    pooled_w: 7
    spatial_scale: 0.25
    pad_ratio: 0
  }
}
layer {
  name: "roi_pool_ctx"
  type: "ROIPooling"
  bottom: "conv4_3_2x"
  bottom: "rois"
  top: "roi_pool_ctx"
  roi_pooling_param {
    pooled_h: 7
    pooled_w: 7
    spatial_scale: 0.25
    pad_ratio: 0.25
  }
}
layer {
  name: "roi_pool"
  type: "Concat"
  bottom: "roi_pool_org"
  bottom: "roi_pool_ctx"
  top: "roi_pool"
}
layer {
  name: "roi_c1"
  type: "Convolution"
  bottom: "roi_pool"
  top: "roi_c1"
  param {
    lr_mult: 1
    decay_mult: 1
  }
  param {
    lr_mult: 2
    decay_mult: 0
  }
  convolution_param {
    num_output: 512
    kernel_size: 3
    weight_filler {
      type: "gaussian"
      std: 0.01
    }
    bias_filler {
      type: "constant"
    }
  }
}
layer {
  name: "roi_c1_relu"
  type: "ReLU"
  bottom: "roi_c1"
  top: "roi_c1"
}
layer {
  name: "fc6"
  type: "InnerProduct"
  bottom: "roi_c1"
  top: "fc6"
  param {
    lr_mult: 1
  }
  param {
    lr_mult: 2
  }
  inner_product_param {
    num_output: 4096
    weight_filler {
      type: "gaussian"
      std: 0.001
    }
    bias_filler {
      type: "constant"
      value: 0
    }
  }
}
layer {
  name: "relu6"
  type: "ReLU"
  bottom: "fc6"
  top: "fc6"
}
layer {
  name: "drop6"
  type: "Dropout"
  bottom: "fc6"
  top: "fc6"
  dropout_param {
    dropout_ratio: 0.5
  }
}
layer {
  name: "cls_pred"
  type: "InnerProduct"
  bottom: "fc6"
  top: "cls_pred"
  param {
    lr_mult: 1
  }
  param {
    lr_mult: 2
  }
  inner_product_param {
    num_output: 5
    weight_filler {
      type: "gaussian"
      std: 0.01
    }
    bias_filler {
      type: "constant"
      value: 0
    }
  }
}
layer {
  name: "bbox_pred"
  type: "InnerProduct"
  bottom: "fc6"
  top: "bbox_pred"
  param {
    lr_mult: 1
  }
  param {
    lr_mult: 2
  }
  inner_product_param {
    num_output: 20
    weight_filler {
      type: "gaussian"
      std: 0.001
    }
    bias_filler {
      type: "constant"
      value: 0
    }
  }
}
layer {
  name: "loss_cls"
  type: "SoftmaxWithLoss"
  bottom: "cls_pred"
  bottom: "proposal_labels"
  top: "loss_cls"
  loss_weight: 1
  propagate_down: true
  propagate_down: false
}
layer {
  name: "cls_accuracy"
  type: "Accuracy"
  bottom: "cls_pred"
  bottom: "proposal_labels"
  top: "cls_accuracy"
}
layer {
  name: "loss_bbox"
  type: "SmoothL1Loss"
  bottom: "bbox_pred"
  bottom: "proposal_targets"
  bottom: "box_inside_weights"
  bottom: "box_outside_weights"
  top: "loss_bbox"
  loss_weight: 1
}
layer {
  name: "bbox_iou"
  type: "BboxAccuracy"
  bottom: "bbox_pred"
  bottom: "rois"
  bottom: "match_gt_boxes"
  top: "bbox_iou"
  top: "bbox_iou_pre"
  bbox_reg_param {
    bbox_mean: 0
    bbox_mean: 0
    bbox_mean: 0
    bbox_mean: 0
    bbox_std: 0.1
    bbox_std: 0.1
    bbox_std: 0.2
    bbox_std: 0.2
  }
}
I1203 23:22:02.517094 19077 layer_factory.hpp:77] Creating layer data
I1203 23:22:02.517138 19077 net.cpp:100] Creating Layer data
I1203 23:22:02.517148 19077 net.cpp:408] data -> data
…
I1203 23:22:02.540174 19077 image_gt_data_layer.cpp:235] output label size 2 : 3,6,48,48
I1203 23:22:02.540215 19077 image_gt_data_layer.cpp:235] output label size 3 : 3,6,48,48
I1203 23:22:02.540258 19077 image_gt_data_layer.cpp:235] output label size 4 : 3,6,24,24
I1203 23:22:02.540299 19077 image_gt_data_layer.cpp:235] output label size 5 : 3,6,24,24
I1203 23:22:02.540341 19077 image_gt_data_layer.cpp:235] output label size 6 : 3,6,12,12
I1203 23:22:02.540382 19077 image_gt_data_layer.cpp:250] output gt boxes size: 1,7,1,1
I1203 23:22:02.594717 19077 net.cpp:150] Setting up data
I1203 23:22:02.594925 19077 net.cpp:157] Top shape: 3 4 768 768 (7077888)
I1203 23:22:02.594950 19077 net.cpp:157] Top shape: 3 6 96 96 (165888)
I1203 23:22:02.594960 19077 net.cpp:157] Top shape: 3 6 96 96 (165888)
I1203 23:22:02.594969 19077 net.cpp:157] Top shape: 3 6 48 48 (41472)
I1203 23:22:02.594975 19077 net.cpp:157] Top shape: 3 6 48 48 (41472)
I1203 23:22:02.594983 19077 net.cpp:157] Top shape: 3 6 24 24 (10368)
I1203 23:22:02.594990 19077 net.cpp:157] Top shape: 3 6 24 24 (10368)
I1203 23:22:02.594996 19077 net.cpp:157] Top shape: 3 6 12 12 (2592)
I1203 23:22:02.595005 19077 net.cpp:157] Top shape: 1 7 1 1 (7)
I1203 23:22:02.595011 19077 net.cpp:165] Memory required for data: 30063772
I1203 23:22:02.595057 19077 layer_factory.hpp:77] Creating layer label_1_5x5_data_1_split
I1203 23:22:02.595141 19077 net.cpp:100] Creating Layer label_1_5x5_data_1_split
I1203 23:22:02.595177 19077 net.cpp:434] label_1_5x5_data_1_split <- label_1_5x5
I1203 23:22:02.595227 19077 net.cpp:408] label_1_5x5_data_1_split -> label_1_5x5_data_1_split_0
I1203 23:22:02.595255 19077 net.cpp:408] label_1_5x5_data_1_split -> label_1_5x5_data_1_split_1
I1203 23:22:02.595392 19077 net.cpp:150] Setting up label_1_5x5_data_1_split
I1203 23:22:02.595402 19077 net.cpp:157] Top shape: 3 6 96 96 (165888)
I1203 23:22:02.595407 19077 net.cpp:157] Top shape: 3 6 96 96 (165888)
I1203 23:22:02.595412 19077 net.cpp:165] Memory required for data: 31390876
I1203 23:22:02.595415 19077 layer_factory.hpp:77] Creating layer label_1_7x7_data_2_split
I1203 23:22:02.595425 19077 net.cpp:100] Creating Layer label_1_7x7_data_2_split
I1203 23:22:02.595430 19077 net.cpp:434] label_1_7x7_data_2_split <- label_1_7x7
I1203 23:22:02.595438 19077 net.cpp:408] label_1_7x7_data_2_split -> label_1_7x7_data_2_split_0
I1203 23:22:02.595446 19077 net.cpp:408] label_1_7x7_data_2_split -> label_1_7x7_data_2_split_1
I1203 23:22:02.595484 19077 net.cpp:150] Setting up label_1_7x7_data_2_split
I1203 23:22:02.595495 19077 net.cpp:157] Top shape: 3 6 96 96 (165888)
I1203 23:22:02.595500 19077 net.cpp:157] Top shape: 3 6 96 96 (165888)
I1203 23:22:02.595504 19077 net.cpp:165] Memory required for data: 32717980
I1203 23:22:02.595507 19077 layer_factory.hpp:77] Creating layer label_2_5x5_data_3_split
I1203 23:22:02.595515 19077 net.cpp:100] Creating Layer label_2_5x5_data_3_split
I1203 23:22:02.595520 19077 net.cpp:434] label_2_5x5_data_3_split <- label_2_5x5
I1203 23:22:02.595527 19077 net.cpp:408] label_2_5x5_data_3_split -> label_2_5x5_data_3_split_0
I1203 23:22:02.595535 19077 net.cpp:408] label_2_5x5_data_3_split -> label_2_5x5_data_3_split_1
I1203 23:22:02.595576 19077 net.cpp:150] Setting up label_2_5x5_data_3_split
I1203 23:22:02.595583 19077 net.cpp:157] Top shape: 3 6 48 48 (41472)
I1203 23:22:02.595587 19077 net.cpp:157] Top shape: 3 6 48 48 (41472)
I1203 23:22:02.595590 19077 net.cpp:165] Memory required for data: 33049756
I1203 23:22:02.595594 19077 layer_factory.hpp:77] Creating layer label_2_7x7_data_4_split
I1203 23:22:02.595602 19077 net.cpp:100] Creating Layer label_2_7x7_data_4_split
I1203 23:22:02.595605 19077 net.cpp:434] label_2_7x7_data_4_split <- label_2_7x7
I1203 23:22:02.595615 19077 net.cpp:408] label_2_7x7_data_4_split -> label_2_7x7_data_4_split_0
I1203 23:22:02.595623 19077 net.cpp:408] label_2_7x7_data_4_split -> label_2_7x7_data_4_split_1
I1203 23:22:02.595664 19077 net.cpp:150] Setting up label_2_7x7_data_4_split
I1203 23:22:02.595674 19077 net.cpp:157] Top shape: 3 6 48 48 (41472)
I1203 23:22:02.595679 19077 net.cpp:157] Top shape: 3 6 48 48 (41472)
I1203 23:22:02.595685 19077 net.cpp:165] Memory required for data: 33381532
I1203 23:22:02.595688 19077 layer_factory.hpp:77] Creating layer label_3_5x5_data_5_split
I1203 23:22:02.595695 19077 net.cpp:100] Creating Layer label_3_5x5_data_5_split
I1203 23:22:02.595700 19077 net.cpp:434] label_3_5x5_data_5_split <- label_3_5x5
I1203 23:22:02.595708 19077 net.cpp:408] label_3_5x5_data_5_split -> label_3_5x5_data_5_split_0
I1203 23:22:02.595715 19077 net.cpp:408] label_3_5x5_data_5_split -> label_3_5x5_data_5_split_1
I1203 23:22:02.595752 19077 net.cpp:150] Setting up label_3_5x5_data_5_split
I1203 23:22:02.595759 19077 net.cpp:157] Top shape: 3 6 24 24 (10368)
I1203 23:22:02.595763 19077 net.cpp:157] Top shape: 3 6 24 24 (10368)
I1203 23:22:02.595767 19077 net.cpp:165] Memory required for data: 33464476
I1203 23:22:02.595770 19077 layer_factory.hpp:77] Creating layer label_3_7x7_data_6_split
I1203 23:22:02.595774 19077 net.cpp:100] Creating Layer label_3_7x7_data_6_split
I1203 23:22:02.595778 19077 net.cpp:434] label_3_7x7_data_6_split <- label_3_7x7
I1203 23:22:02.595782 19077 net.cpp:408] label_3_7x7_data_6_split -> label_3_7x7_data_6_split_0
I1203 23:22:02.595789 19077 net.cpp:408] label_3_7x7_data_6_split -> label_3_7x7_data_6_split_1
I1203 23:22:02.595814 19077 net.cpp:150] Setting up label_3_7x7_data_6_split
I1203 23:22:02.595820 19077 net.cpp:157] Top shape: 3 6 24 24 (10368)
I1203 23:22:02.595824 19077 net.cpp:157] Top shape: 3 6 24 24 (10368)
I1203 23:22:02.595827 19077 net.cpp:165] Memory required for data: 33547420
I1203 23:22:02.595830 19077 layer_factory.hpp:77] Creating layer label_4_5x5_data_7_split
I1203 23:22:02.595835 19077 net.cpp:100] Creating Layer label_4_5x5_data_7_split
I1203 23:22:02.595839 19077 net.cpp:434] label_4_5x5_data_7_split <- label_4_5x5
I1203 23:22:02.595844 19077 net.cpp:408] label_4_5x5_data_7_split -> label_4_5x5_data_7_split_0
I1203 23:22:02.595849 19077 net.cpp:408] label_4_5x5_data_7_split -> label_4_5x5_data_7_split_1
I1203 23:22:02.595873 19077 net.cpp:150] Setting up label_4_5x5_data_7_split
I1203 23:22:02.595878 19077 net.cpp:157] Top shape: 3 6 12 12 (2592)
I1203 23:22:02.595883 19077 net.cpp:157] Top shape: 3 6 12 12 (2592)
I1203 23:22:02.595885 19077 net.cpp:165] Memory required for data: 33568156
I1203 23:22:02.595890 19077 layer_factory.hpp:77] Creating layer slice
I1203 23:22:02.595901 19077 net.cpp:100] Creating Layer slice
I1203 23:22:02.595904 19077 net.cpp:434] slice <- data
I1203 23:22:02.595908 19077 net.cpp:408] slice -> data123
I1203 23:22:02.595916 19077 net.cpp:408] slice -> ch4
I1203 23:22:02.595942 19077 net.cpp:150] Setting up slice
I1203 23:22:02.595948 19077 net.cpp:157] Top shape: 3 3 768 768 (5308416)
I1203 23:22:02.595953 19077 net.cpp:157] Top shape: 3 1 768 768 (1769472)
I1203 23:22:02.595957 19077 net.cpp:165] Memory required for data: 61879708
I1203 23:22:02.595959 19077 layer_factory.hpp:77] Creating layer conv1_1
I1203 23:22:02.595970 19077 net.cpp:100] Creating Layer conv1_1
I1203 23:22:02.595974 19077 net.cpp:434] conv1_1 <- data123
I1203 23:22:02.595978 19077 net.cpp:408] conv1_1 -> conv1_1
I1203 23:22:02.858019 19077 net.cpp:150] Setting up conv1_1
I1203 23:22:02.858048 19077 net.cpp:157] Top shape: 3 64 768 768 (113246208)
I1203 23:22:02.858054 19077 net.cpp:165] Memory required for data: 514864540
I1203 23:22:02.858072 19077 layer_factory.hpp:77] Creating layer relu1_1
I1203 23:22:02.858088 19077 net.cpp:100] Creating Layer relu1_1
I1203 23:22:02.858093 19077 net.cpp:434] relu1_1 <- conv1_1
I1203 23:22:02.858100 19077 net.cpp:395] relu1_1 -> conv1_1 (in-place)
I1203 23:22:02.858297 19077 net.cpp:150] Setting up relu1_1
I1203 23:22:02.858309 19077 net.cpp:157] Top shape: 3 64 768 768 (113246208)
I1203 23:22:02.858314 19077 net.cpp:165] Memory required for data: 967849372
I1203 23:22:02.858319 19077 layer_factory.hpp:77] Creating layer conv1_2
I1203 23:22:02.858330 19077 net.cpp:100] Creating Layer conv1_2
I1203 23:22:02.858335 19077 net.cpp:434] conv1_2 <- conv1_1
I1203 23:22:02.858343 19077 net.cpp:408] conv1_2 -> conv1_2
I1203 23:22:02.860891 19077 net.cpp:150] Setting up conv1_2
I1203 23:22:02.860921 19077 net.cpp:157] Top shape: 3 64 768 768 (113246208)
I1203 23:22:02.860927 19077 net.cpp:165] Memory required for data: 1420834204
I1203 23:22:02.860940 19077 layer_factory.hpp:77] Creating layer relu1_2
I1203 23:22:02.860950 19077 net.cpp:100] Creating Layer relu1_2
I1203 23:22:02.860956 19077 net.cpp:434] relu1_2 <- conv1_2
I1203 23:22:02.860963 19077 net.cpp:395] relu1_2 -> conv1_2 (in-place)
I1203 23:22:02.861189 19077 net.cpp:150] Setting up relu1_2
I1203 23:22:02.861202 19077 net.cpp:157] Top shape: 3 64 768 768 (113246208)
I1203 23:22:02.861207 19077 net.cpp:165] Memory required for data: 1873819036
I1203 23:22:02.861212 19077 layer_factory.hpp:77] Creating layer pool1
I1203 23:22:02.861222 19077 net.cpp:100] Creating Layer pool1
I1203 23:22:02.861227 19077 net.cpp:434] pool1 <- conv1_2
I1203 23:22:02.861235 19077 net.cpp:408] pool1 -> pool1
I1203 23:22:02.861299 19077 net.cpp:150] Setting up pool1
I1203 23:22:02.861308 19077 net.cpp:157] Top shape: 3 64 384 384 (28311552)
I1203 23:22:02.861313 19077 net.cpp:165] Memory required for data: 1987065244
I1203 23:22:02.861318 19077 layer_factory.hpp:77] Creating layer conv2_1
I1203 23:22:02.861330 19077 net.cpp:100] Creating Layer conv2_1
I1203 23:22:02.861335 19077 net.cpp:434] conv2_1 <- pool1
I1203 23:22:02.861342 19077 net.cpp:408] conv2_1 -> conv2_1
I1203 23:22:02.863943 19077 net.cpp:150] Setting up conv2_1
I1203 23:22:02.863961 19077 net.cpp:157] Top shape: 3 128 384 384 (56623104)
I1203 23:22:02.863966 19077 net.cpp:165] Memory required for data: 2213557660
I1203 23:22:02.863979 19077 layer_factory.hpp:77] Creating layer relu2_1
I1203 23:22:02.863988 19077 net.cpp:100] Creating Layer relu2_1
I1203 23:22:02.863994 19077 net.cpp:434] relu2_1 <- conv2_1
I1203 23:22:02.864001 19077 net.cpp:395] relu2_1 -> conv2_1 (in-place)
I1203 23:22:02.864214 19077 net.cpp:150] Setting up relu2_1
I1203 23:22:02.864226 19077 net.cpp:157] Top shape: 3 128 384 384 (56623104)
I1203 23:22:02.864231 19077 net.cpp:165] Memory required for data: 2440050076
I1203 23:22:02.864238 19077 layer_factory.hpp:77] Creating layer conv2_2
I1203 23:22:02.864250 19077 net.cpp:100] Creating Layer conv2_2
I1203 23:22:02.864255 19077 net.cpp:434] conv2_2 <- conv2_1
I1203 23:22:02.864264 19077 net.cpp:408] conv2_2 -> conv2_2
I1203 23:22:02.867241 19077 net.cpp:150] Setting up conv2_2
I1203 23:22:02.867274 19077 net.cpp:157] Top shape: 3 128 384 384 (56623104)
I1203 23:22:02.867280 19077 net.cpp:165] Memory required for data: 2666542492
I1203 23:22:02.867291 19077 layer_factory.hpp:77] Creating layer relu2_2
I1203 23:22:02.867305 19077 net.cpp:100] Creating Layer relu2_2
I1203 23:22:02.867314 19077 net.cpp:434] relu2_2 <- conv2_2
I1203 23:22:02.867321 19077 net.cpp:395] relu2_2 -> conv2_2 (in-place)
I1203 23:22:02.867516 19077 net.cpp:150] Setting up relu2_2
I1203 23:22:02.867525 19077 net.cpp:157] Top shape: 3 128 384 384 (56623104)
I1203 23:22:02.867528 19077 net.cpp:165] Memory required for data: 2893034908
I1203 23:22:02.867533 19077 layer_factory.hpp:77] Creating layer pool2
I1203 23:22:02.867540 19077 net.cpp:100] Creating Layer pool2
I1203 23:22:02.867544 19077 net.cpp:434] pool2 <- conv2_2
I1203 23:22:02.867550 19077 net.cpp:408] pool2 -> pool2
I1203 23:22:02.867591 19077 net.cpp:150] Setting up pool2
I1203 23:22:02.867597 19077 net.cpp:157] Top shape: 3 128 192 192 (14155776)
I1203 23:22:02.867600 19077 net.cpp:165] Memory required for data: 2949658012
I1203 23:22:02.867604 19077 layer_factory.hpp:77] Creating layer conv3_1
I1203 23:22:02.867614 19077 net.cpp:100] Creating Layer conv3_1
I1203 23:22:02.867617 19077 net.cpp:434] conv3_1 <- pool2
I1203 23:22:02.867622 19077 net.cpp:408] conv3_1 -> conv3_1
I1203 23:22:02.869920 19077 net.cpp:150] Setting up conv3_1
I1203 23:22:02.869935 19077 net.cpp:157] Top shape: 3 256 192 192 (28311552)
I1203 23:22:02.869940 19077 net.cpp:165] Memory required for data: 3062904220
I1203 23:22:02.869951 19077 layer_factory.hpp:77] Creating layer relu3_1
I1203 23:22:02.869957 19077 net.cpp:100] Creating Layer relu3_1
I1203 23:22:02.869962 19077 net.cpp:434] relu3_1 <- conv3_1
I1203 23:22:02.869967 19077 net.cpp:395] relu3_1 -> conv3_1 (in-place)
I1203 23:22:02.870388 19077 net.cpp:150] Setting up relu3_1
I1203 23:22:02.870399 19077 net.cpp:157] Top shape: 3 256 192 192 (28311552)
I1203 23:22:02.870404 19077 net.cpp:165] Memory required for data: 3176150428
I1203 23:22:02.870406 19077 layer_factory.hpp:77] Creating layer conv3_2
I1203 23:22:02.870415 19077 net.cpp:100] Creating Layer conv3_2
I1203 23:22:02.870419 19077 net.cpp:434] conv3_2 <- conv3_1
I1203 23:22:02.870424 19077 net.cpp:408] conv3_2 -> conv3_2
I1203 23:22:02.872820 19077 net.cpp:150] Setting up conv3_2
I1203 23:22:02.872840 19077 net.cpp:157] Top shape: 3 256 192 192 (28311552)
I1203 23:22:02.872844 19077 net.cpp:165] Memory required for data: 3289396636
I1203 23:22:02.872854 19077 layer_factory.hpp:77] Creating layer relu3_2
I1203 23:22:02.872864 19077 net.cpp:100] Creating Layer relu3_2
I1203 23:22:02.872869 19077 net.cpp:434] relu3_2 <- conv3_2
I1203 23:22:02.872876 19077 net.cpp:395] relu3_2 -> conv3_2 (in-place)
I1203 23:22:02.873360 19077 net.cpp:150] Setting up relu3_2
I1203 23:22:02.873374 19077 net.cpp:157] Top shape: 3 256 192 192 (28311552)
I1203 23:22:02.873379 19077 net.cpp:165] Memory required for data: 3402642844
I1203 23:22:02.873384 19077 layer_factory.hpp:77] Creating layer conv3_3
I1203 23:22:02.873394 19077 net.cpp:100] Creating Layer conv3_3
I1203 23:22:02.873399 19077 net.cpp:434] conv3_3 <- conv3_2
I1203 23:22:02.873406 19077 net.cpp:408] conv3_3 -> conv3_3
I1203 23:22:02.875896 19077 net.cpp:150] Setting up conv3_3
I1203 23:22:02.875912 19077 net.cpp:157] Top shape: 3 256 192 192 (28311552)
I1203 23:22:02.875917 19077 net.cpp:165] Memory required for data: 3515889052
I1203 23:22:02.875924 19077 layer_factory.hpp:77] Creating layer relu3_3
I1203 23:22:02.875931 19077 net.cpp:100] Creating Layer relu3_3
I1203 23:22:02.875936 19077 net.cpp:434] relu3_3 <- conv3_3
I1203 23:22:02.875941 19077 net.cpp:395] relu3_3 -> conv3_3 (in-place)
I1203 23:22:02.876097 19077 net.cpp:150] Setting up relu3_3
I1203 23:22:02.876106 19077 net.cpp:157] Top shape: 3 256 192 192 (28311552)
I1203 23:22:02.876108 19077 net.cpp:165] Memory required for data: 3629135260
I1203 23:22:02.876112 19077 layer_factory.hpp:77] Creating layer pool3
I1203 23:22:02.876118 19077 net.cpp:100] Creating Layer pool3
I1203 23:22:02.876122 19077 net.cpp:434] pool3 <- conv3_3
I1203 23:22:02.876127 19077 net.cpp:408] pool3 -> pool3
I1203 23:22:02.876161 19077 net.cpp:150] Setting up pool3
I1203 23:22:02.876168 19077 net.cpp:157] Top shape: 3 256 96 96 (7077888)
I1203 23:22:02.876171 19077 net.cpp:165] Memory required for data: 3657446812
I1203 23:22:02.876174 19077 layer_factory.hpp:77] Creating layer conv4_1
I1203 23:22:02.876181 19077 net.cpp:100] Creating Layer conv4_1
I1203 23:22:02.876184 19077 net.cpp:434] conv4_1 <- pool3
I1203 23:22:02.876189 19077 net.cpp:408] conv4_1 -> conv4_1
I1203 23:22:02.880616 19077 net.cpp:150] Setting up conv4_1
I1203 23:22:02.880651 19077 net.cpp:157] Top shape: 3 512 96 96 (14155776)
I1203 23:22:02.880656 19077 net.cpp:165] Memory required for data: 3714069916
I1203 23:22:02.880671 19077 layer_factory.hpp:77] Creating layer relu4_1
I1203 23:22:02.880686 19077 net.cpp:100] Creating Layer relu4_1
I1203 23:22:02.880693 19077 net.cpp:434] relu4_1 <- conv4_1
I1203 23:22:02.880702 19077 net.cpp:395] relu4_1 -> conv4_1 (in-place)
I1203 23:22:02.880867 19077 net.cpp:150] Setting up relu4_1
I1203 23:22:02.880878 19077 net.cpp:157] Top shape: 3 512 96 96 (14155776)
I1203 23:22:02.880882 19077 net.cpp:165] Memory required for data: 3770693020
I1203 23:22:02.880887 19077 layer_factory.hpp:77] Creating layer conv4_2
I1203 23:22:02.880898 19077 net.cpp:100] Creating Layer conv4_2
I1203 23:22:02.880933 19077 net.cpp:434] conv4_2 <- conv4_1
I1203 23:22:02.880940 19077 net.cpp:408] conv4_2 -> conv4_2
I1203 23:22:02.891216 19077 net.cpp:150] Setting up conv4_2
I1203 23:22:02.891250 19077 net.cpp:157] Top shape: 3 512 96 96 (14155776)
I1203 23:22:02.891254 19077 net.cpp:165] Memory required for data: 3827316124
I1203 23:22:02.891273 19077 layer_factory.hpp:77] Creating layer relu4_2
I1203 23:22:02.891288 19077 net.cpp:100] Creating Layer relu4_2
I1203 23:22:02.891294 19077 net.cpp:434] relu4_2 <- conv4_2
I1203 23:22:02.891301 19077 net.cpp:395] relu4_2 -> conv4_2 (in-place)
I1203 23:22:02.891449 19077 net.cpp:150] Setting up relu4_2
I1203 23:22:02.891458 19077 net.cpp:157] Top shape: 3 512 96 96 (14155776)
I1203 23:22:02.891461 19077 net.cpp:165] Memory required for data: 3883939228
I1203 23:22:02.891465 19077 layer_factory.hpp:77] Creating layer conv4_3
I1203 23:22:02.891474 19077 net.cpp:100] Creating Layer conv4_3
I1203 23:22:02.891479 19077 net.cpp:434] conv4_3 <- conv4_2
I1203 23:22:02.891486 19077 net.cpp:408] conv4_3 -> conv4_3
I1203 23:22:02.897001 19077 net.cpp:150] Setting up conv4_3
I1203 23:22:02.897034 19077 net.cpp:157] Top shape: 3 512 96 96 (14155776)
I1203 23:22:02.897038 19077 net.cpp:165] Memory required for data: 3940562332
I1203 23:22:02.897048 19077 layer_factory.hpp:77] Creating layer relu4_3
I1203 23:22:02.897060 19077 net.cpp:100] Creating Layer relu4_3
I1203 23:22:02.897066 19077 net.cpp:434] relu4_3 <- conv4_3
I1203 23:22:02.897073 19077 net.cpp:395] relu4_3 -> conv4_3 (in-place)
I1203 23:22:02.897223 19077 net.cpp:150] Setting up relu4_3
I1203 23:22:02.897233 19077 net.cpp:157] Top shape: 3 512 96 96 (14155776)
I1203 23:22:02.897235 19077 net.cpp:165] Memory required for data: 3997185436
I1203 23:22:02.897239 19077 layer_factory.hpp:77] Creating layer conv4_3_relu4_3_0_split
I1203 23:22:02.897249 19077 net.cpp:100] Creating Layer conv4_3_relu4_3_0_split
I1203 23:22:02.897253 19077 net.cpp:434] conv4_3_relu4_3_0_split <- conv4_3
I1203 23:22:02.897258 19077 net.cpp:408] conv4_3_relu4_3_0_split -> conv4_3_relu4_3_0_split_0
I1203 23:22:02.897264 19077 net.cpp:408] conv4_3_relu4_3_0_split -> conv4_3_relu4_3_0_split_1
I1203 23:22:02.897271 19077 net.cpp:408] conv4_3_relu4_3_0_split -> conv4_3_relu4_3_0_split_2
I1203 23:22:02.897276 19077 net.cpp:408] conv4_3_relu4_3_0_split -> conv4_3_relu4_3_0_split_3
I1203 23:22:02.897332 19077 net.cpp:150] Setting up conv4_3_relu4_3_0_split
I1203 23:22:02.897338 19077 net.cpp:157] Top shape: 3 512 96 96 (14155776)
I1203 23:22:02.897342 19077 net.cpp:157] Top shape: 3 512 96 96 (14155776)
I1203 23:22:02.897346 19077 net.cpp:157] Top shape: 3 512 96 96 (14155776)
I1203 23:22:02.897351 19077 net.cpp:157] Top shape: 3 512 96 96 (14155776)
I1203 23:22:02.897353 19077 net.cpp:165] Memory required for data: 4223677852
I1203 23:22:02.897357 19077 layer_factory.hpp:77] Creating layer buffer
I1203 23:22:02.897368 19077 net.cpp:100] Creating Layer buffer
I1203 23:22:02.897372 19077 net.cpp:434] buffer <- conv4_3_relu4_3_0_split_0
I1203 23:22:02.897378 19077 net.cpp:408] buffer -> buffer
I1203 23:22:02.959344 19077 net.cpp:150] Setting up buffer
I1203 23:22:02.959368 19077 net.cpp:157] Top shape: 3 512 96 96 (14155776)
I1203 23:22:02.959372 19077 net.cpp:165] Memory required for data: 4280300956
I1203 23:22:02.959380 19077 layer_factory.hpp:77] Creating layer relu_buffer
I1203 23:22:02.959389 19077 net.cpp:100] Creating Layer relu_buffer
I1203 23:22:02.959394 19077 net.cpp:434] relu_buffer <- buffer
I1203 23:22:02.959400 19077 net.cpp:395] relu_buffer -> buffer (in-place)
I1203 23:22:02.959823 19077 net.cpp:150] Setting up relu_buffer
I1203 23:22:02.959836 19077 net.cpp:157] Top shape: 3 512 96 96 (14155776)
I1203 23:22:02.959839 19077 net.cpp:165] Memory required for data: 4336924060
I1203 23:22:02.959843 19077 layer_factory.hpp:77] Creating layer attention
I1203 23:22:02.959853 19077 net.cpp:100] Creating Layer attention
I1203 23:22:02.959856 19077 net.cpp:434] attention <- buffer
I1203 23:22:02.959862 19077 net.cpp:408] attention -> attention
I1203 23:22:02.960867 19077 net.cpp:150] Setting up attention
I1203 23:22:02.960880 19077 net.cpp:157] Top shape: 3 3 96 96 (82944)
I1203 23:22:02.960883 19077 net.cpp:165] Memory required for data: 4337255836
I1203 23:22:02.960891 19077 layer_factory.hpp:77] Creating layer attention_attention_0_split
I1203 23:22:02.960897 19077 net.cpp:100] Creating Layer attention_attention_0_split
I1203 23:22:02.960911 19077 net.cpp:434] attention_attention_0_split <- attention
I1203 23:22:02.960916 19077 net.cpp:408] attention_attention_0_split -> attention_attention_0_split_0
I1203 23:22:02.960923 19077 net.cpp:408] attention_attention_0_split -> attention_attention_0_split_1
I1203 23:22:02.960959 19077 net.cpp:150] Setting up attention_attention_0_split
I1203 23:22:02.960964 19077 net.cpp:157] Top shape: 3 3 96 96 (82944)
I1203 23:22:02.960968 19077 net.cpp:157] Top shape: 3 3 96 96 (82944)
I1203 23:22:02.960973 19077 net.cpp:165] Memory required for data: 4337919388
I1203 23:22:02.960975 19077 layer_factory.hpp:77] Creating layer ch4_pool
I1203 23:22:02.960983 19077 net.cpp:100] Creating Layer ch4_pool
I1203 23:22:02.960988 19077 net.cpp:434] ch4_pool <- ch4
I1203 23:22:02.960994 19077 net.cpp:408] ch4_pool -> ch4_pool
I1203 23:22:02.961031 19077 net.cpp:150] Setting up ch4_pool
I1203 23:22:02.961040 19077 net.cpp:157] Top shape: 3 1 96 96 (27648)
I1203 23:22:02.961043 19077 net.cpp:165] Memory required for data: 4338029980
I1203 23:22:02.961047 19077 layer_factory.hpp:77] Creating layer loss_attention
I1203 23:22:02.961064 19077 net.cpp:100] Creating Layer loss_attention
I1203 23:22:02.961068 19077 net.cpp:434] loss_attention <- attention_attention_0_split_0
I1203 23:22:02.961074 19077 net.cpp:434] loss_attention <- ch4_pool
I1203 23:22:02.961081 19077 net.cpp:408] loss_attention -> loss_attention
I1203 23:22:02.961096 19077 layer_factory.hpp:77] Creating layer loss_attention
I1203 23:22:02.961735 19077 weighted_softmax_loss_layer.cpp:25] mult: 1, id: 0
I1203 23:22:02.961817 19077 net.cpp:150] Setting up loss_attention
I1203 23:22:02.961823 19077 net.cpp:157] Top shape: (1)
I1203 23:22:02.961827 19077 net.cpp:160]     with loss weight 1
I1203 23:22:02.961832 19077 net.cpp:165] Memory required for data: 4338029984
I1203 23:22:02.961834 19077 layer_factory.hpp:77] Creating layer loss1_conv1
I1203 23:22:02.961846 19077 net.cpp:100] Creating Layer loss1_conv1
I1203 23:22:02.961850 19077 net.cpp:434] loss1_conv1 <- conv4_3_relu4_3_0_split_1
I1203 23:22:02.961858 19077 net.cpp:408] loss1_conv1 -> loss1_conv1
I1203 23:22:03.028709 19077 net.cpp:150] Setting up loss1_conv1
I1203 23:22:03.028829 19077 net.cpp:157] Top shape: 3 512 96 96 (14155776)
I1203 23:22:03.028843 19077 net.cpp:165] Memory required for data: 4394653088
I1203 23:22:03.028868 19077 layer_factory.hpp:77] Creating layer loss_relu1
I1203 23:22:03.028924 19077 net.cpp:100] Creating Layer loss_relu1
I1203 23:22:03.028936 19077 net.cpp:434] loss_relu1 <- loss1_conv1
I1203 23:22:03.028949 19077 net.cpp:395] loss_relu1 -> loss1_conv1 (in-place)
I1203 23:22:03.029161 19077 net.cpp:150] Setting up loss_relu1
I1203 23:22:03.029178 19077 net.cpp:157] Top shape: 3 512 96 96 (14155776)
I1203 23:22:03.029182 19077 net.cpp:165] Memory required for data: 4451276192
I1203 23:22:03.029186 19077 layer_factory.hpp:77] Creating layer loss1_conv1_loss_relu1_0_split
I1203 23:22:03.029201 19077 net.cpp:100] Creating Layer loss1_conv1_loss_relu1_0_split
I1203 23:22:03.029215 19077 net.cpp:434] loss1_conv1_loss_relu1_0_split <- loss1_conv1
I1203 23:22:03.029227 19077 net.cpp:408] loss1_conv1_loss_relu1_0_split -> loss1_conv1_loss_relu1_0_split_0
I1203 23:22:03.029237 19077 net.cpp:408] loss1_conv1_loss_relu1_0_split -> loss1_conv1_loss_relu1_0_split_1
I1203 23:22:03.029278 19077 net.cpp:150] Setting up loss1_conv1_loss_relu1_0_split
I1203 23:22:03.029286 19077 net.cpp:157] Top shape: 3 512 96 96 (14155776)
I1203 23:22:03.029290 19077 net.cpp:157] Top shape: 3 512 96 96 (14155776)
I1203 23:22:03.029294 19077 net.cpp:165] Memory required for data: 4564522400
I1203 23:22:03.029299 19077 layer_factory.hpp:77] Creating layer LFCN_1_5x5
I1203 23:22:03.029327 19077 net.cpp:100] Creating Layer LFCN_1_5x5
I1203 23:22:03.029331 19077 net.cpp:434] LFCN_1_5x5 <- loss1_conv1_loss_relu1_0_split_0
I1203 23:22:03.029342 19077 net.cpp:408] LFCN_1_5x5 -> LFCN_1_5x5
I1203 23:22:03.035383 19077 net.cpp:150] Setting up LFCN_1_5x5
I1203 23:22:03.035413 19077 net.cpp:157] Top shape: 3 9 96 96 (248832)
I1203 23:22:03.035418 19077 net.cpp:165] Memory required for data: 4565517728
I1203 23:22:03.035426 19077 layer_factory.hpp:77] Creating layer LFCN_1_5x5_LFCN_1_5x5_0_split
I1203 23:22:03.035439 19077 net.cpp:100] Creating Layer LFCN_1_5x5_LFCN_1_5x5_0_split
I1203 23:22:03.035445 19077 net.cpp:434] LFCN_1_5x5_LFCN_1_5x5_0_split <- LFCN_1_5x5
I1203 23:22:03.035454 19077 net.cpp:408] LFCN_1_5x5_LFCN_1_5x5_0_split -> LFCN_1_5x5_LFCN_1_5x5_0_split_0
I1203 23:22:03.035462 19077 net.cpp:408] LFCN_1_5x5_LFCN_1_5x5_0_split -> LFCN_1_5x5_LFCN_1_5x5_0_split_1
I1203 23:22:03.035468 19077 net.cpp:408] LFCN_1_5x5_LFCN_1_5x5_0_split -> LFCN_1_5x5_LFCN_1_5x5_0_split_2
I1203 23:22:03.035516 19077 net.cpp:150] Setting up LFCN_1_5x5_LFCN_1_5x5_0_split
I1203 23:22:03.035523 19077 net.cpp:157] Top shape: 3 9 96 96 (248832)
I1203 23:22:03.035527 19077 net.cpp:157] Top shape: 3 9 96 96 (248832)
I1203 23:22:03.035531 19077 net.cpp:157] Top shape: 3 9 96 96 (248832)
I1203 23:22:03.035535 19077 net.cpp:165] Memory required for data: 4568503712
I1203 23:22:03.035539 19077 layer_factory.hpp:77] Creating layer detection_loss_1_5x5
I1203 23:22:03.035547 19077 net.cpp:100] Creating Layer detection_loss_1_5x5
I1203 23:22:03.035552 19077 net.cpp:434] detection_loss_1_5x5 <- LFCN_1_5x5_LFCN_1_5x5_0_split_0
I1203 23:22:03.035557 19077 net.cpp:434] detection_loss_1_5x5 <- label_1_5x5_data_1_split_0
I1203 23:22:03.035564 19077 net.cpp:408] detection_loss_1_5x5 -> loss_1_5x5
I1203 23:22:03.035576 19077 layer_factory.hpp:77] Creating layer detection_loss_1_5x5
I1203 23:22:03.036746 19077 net.cpp:150] Setting up detection_loss_1_5x5
I1203 23:22:03.036758 19077 net.cpp:157] Top shape: 1 1 1 2 (2)
I1203 23:22:03.036762 19077 net.cpp:160]     with loss weight 0.9
I1203 23:22:03.036773 19077 net.cpp:165] Memory required for data: 4568503720
I1203 23:22:03.036777 19077 layer_factory.hpp:77] Creating layer detection_accuracy_1_5x5
I1203 23:22:03.036785 19077 net.cpp:100] Creating Layer detection_accuracy_1_5x5
I1203 23:22:03.036789 19077 net.cpp:434] detection_accuracy_1_5x5 <- LFCN_1_5x5_LFCN_1_5x5_0_split_1
I1203 23:22:03.036794 19077 net.cpp:434] detection_accuracy_1_5x5 <- label_1_5x5_data_1_split_1
I1203 23:22:03.036799 19077 net.cpp:408] detection_accuracy_1_5x5 -> accuracy_1_5x5
I1203 23:22:03.036808 19077 net.cpp:408] detection_accuracy_1_5x5 -> boxiou_1_5x5
I1203 23:22:03.036847 19077 net.cpp:150] Setting up detection_accuracy_1_5x5
I1203 23:22:03.036854 19077 net.cpp:157] Top shape: 1 1 1 2 (2)
I1203 23:22:03.036859 19077 net.cpp:157] Top shape: 1 1 1 1 (1)
I1203 23:22:03.036861 19077 net.cpp:165] Memory required for data: 4568503732
I1203 23:22:03.036865 19077 layer_factory.hpp:77] Creating layer LFCN_1_7x7
I1203 23:22:03.036876 19077 net.cpp:100] Creating Layer LFCN_1_7x7
I1203 23:22:03.036880 19077 net.cpp:434] LFCN_1_7x7 <- loss1_conv1_loss_relu1_0_split_1
I1203 23:22:03.036886 19077 net.cpp:408] LFCN_1_7x7 -> LFCN_1_7x7
I1203 23:22:03.043851 19077 net.cpp:150] Setting up LFCN_1_7x7
I1203 23:22:03.043874 19077 net.cpp:157] Top shape: 3 9 96 96 (248832)
I1203 23:22:03.043877 19077 net.cpp:165] Memory required for data: 4569499060
I1203 23:22:03.043885 19077 layer_factory.hpp:77] Creating layer LFCN_1_7x7_LFCN_1_7x7_0_split
I1203 23:22:03.043895 19077 net.cpp:100] Creating Layer LFCN_1_7x7_LFCN_1_7x7_0_split
I1203 23:22:03.043898 19077 net.cpp:434] LFCN_1_7x7_LFCN_1_7x7_0_split <- LFCN_1_7x7
I1203 23:22:03.043905 19077 net.cpp:408] LFCN_1_7x7_LFCN_1_7x7_0_split -> LFCN_1_7x7_LFCN_1_7x7_0_split_0
I1203 23:22:03.043913 19077 net.cpp:408] LFCN_1_7x7_LFCN_1_7x7_0_split -> LFCN_1_7x7_LFCN_1_7x7_0_split_1
I1203 23:22:03.043918 19077 net.cpp:408] LFCN_1_7x7_LFCN_1_7x7_0_split -> LFCN_1_7x7_LFCN_1_7x7_0_split_2
I1203 23:22:03.043965 19077 net.cpp:150] Setting up LFCN_1_7x7_LFCN_1_7x7_0_split
I1203 23:22:03.043972 19077 net.cpp:157] Top shape: 3 9 96 96 (248832)
I1203 23:22:03.043977 19077 net.cpp:157] Top shape: 3 9 96 96 (248832)
I1203 23:22:03.043980 19077 net.cpp:157] Top shape: 3 9 96 96 (248832)
I1203 23:22:03.043983 19077 net.cpp:165] Memory required for data: 4572485044
I1203 23:22:03.043987 19077 layer_factory.hpp:77] Creating layer detection_loss_1_7x7
I1203 23:22:03.043993 19077 net.cpp:100] Creating Layer detection_loss_1_7x7
I1203 23:22:03.043997 19077 net.cpp:434] detection_loss_1_7x7 <- LFCN_1_7x7_LFCN_1_7x7_0_split_0
I1203 23:22:03.044001 19077 net.cpp:434] detection_loss_1_7x7 <- label_1_7x7_data_2_split_0
I1203 23:22:03.044008 19077 net.cpp:408] detection_loss_1_7x7 -> loss_1_7x7
I1203 23:22:03.044016 19077 layer_factory.hpp:77] Creating layer detection_loss_1_7x7
I1203 23:22:03.044395 19077 net.cpp:150] Setting up detection_loss_1_7x7
I1203 23:22:03.044405 19077 net.cpp:157] Top shape: 1 1 1 2 (2)
I1203 23:22:03.044409 19077 net.cpp:160]     with loss weight 0.9
I1203 23:22:03.044418 19077 net.cpp:165] Memory required for data: 4572485052
I1203 23:22:03.044421 19077 layer_factory.hpp:77] Creating layer detection_accuracy_1_7x7
I1203 23:22:03.044428 19077 net.cpp:100] Creating Layer detection_accuracy_1_7x7
I1203 23:22:03.044432 19077 net.cpp:434] detection_accuracy_1_7x7 <- LFCN_1_7x7_LFCN_1_7x7_0_split_1
I1203 23:22:03.044437 19077 net.cpp:434] detection_accuracy_1_7x7 <- label_1_7x7_data_2_split_1
I1203 23:22:03.044442 19077 net.cpp:408] detection_accuracy_1_7x7 -> accuracy_1_7x7
I1203 23:22:03.044448 19077 net.cpp:408] detection_accuracy_1_7x7 -> boxiou_1_7x7
I1203 23:22:03.044490 19077 net.cpp:150] Setting up detection_accuracy_1_7x7
I1203 23:22:03.044497 19077 net.cpp:157] Top shape: 1 1 1 2 (2)
I1203 23:22:03.044502 19077 net.cpp:157] Top shape: 1 1 1 1 (1)
I1203 23:22:03.044504 19077 net.cpp:165] Memory required for data: 4572485064
I1203 23:22:03.044507 19077 layer_factory.hpp:77] Creating layer pool4
I1203 23:22:03.044514 19077 net.cpp:100] Creating Layer pool4
I1203 23:22:03.044517 19077 net.cpp:434] pool4 <- conv4_3_relu4_3_0_split_2
I1203 23:22:03.044523 19077 net.cpp:408] pool4 -> pool4
I1203 23:22:03.044556 19077 net.cpp:150] Setting up pool4
I1203 23:22:03.044562 19077 net.cpp:157] Top shape: 3 512 48 48 (3538944)
I1203 23:22:03.044565 19077 net.cpp:165] Memory required for data: 4586640840
I1203 23:22:03.044569 19077 layer_factory.hpp:77] Creating layer conv5_1
I1203 23:22:03.044576 19077 net.cpp:100] Creating Layer conv5_1
I1203 23:22:03.044580 19077 net.cpp:434] conv5_1 <- pool4
I1203 23:22:03.044585 19077 net.cpp:408] conv5_1 -> conv5_1
I1203 23:22:03.050192 19077 net.cpp:150] Setting up conv5_1
I1203 23:22:03.050225 19077 net.cpp:157] Top shape: 3 512 48 48 (3538944)
I1203 23:22:03.050228 19077 net.cpp:165] Memory required for data: 4600796616
I1203 23:22:03.050237 19077 layer_factory.hpp:77] Creating layer relu5_1
I1203 23:22:03.050251 19077 net.cpp:100] Creating Layer relu5_1
I1203 23:22:03.050257 19077 net.cpp:434] relu5_1 <- conv5_1
I1203 23:22:03.050264 19077 net.cpp:395] relu5_1 -> conv5_1 (in-place)
I1203 23:22:03.050432 19077 net.cpp:150] Setting up relu5_1
I1203 23:22:03.050442 19077 net.cpp:157] Top shape: 3 512 48 48 (3538944)
I1203 23:22:03.050446 19077 net.cpp:165] Memory required for data: 4614952392
I1203 23:22:03.050448 19077 layer_factory.hpp:77] Creating layer conv5_2
I1203 23:22:03.050457 19077 net.cpp:100] Creating Layer conv5_2
I1203 23:22:03.050462 19077 net.cpp:434] conv5_2 <- conv5_1
I1203 23:22:03.050467 19077 net.cpp:408] conv5_2 -> conv5_2
I1203 23:22:03.056113 19077 net.cpp:150] Setting up conv5_2
I1203 23:22:03.056144 19077 net.cpp:157] Top shape: 3 512 48 48 (3538944)
I1203 23:22:03.056149 19077 net.cpp:165] Memory required for data: 4629108168
I1203 23:22:03.056161 19077 layer_factory.hpp:77] Creating layer relu5_2
I1203 23:22:03.056172 19077 net.cpp:100] Creating Layer relu5_2
I1203 23:22:03.056179 19077 net.cpp:434] relu5_2 <- conv5_2
I1203 23:22:03.056183 19077 net.cpp:395] relu5_2 -> conv5_2 (in-place)
I1203 23:22:03.056643 19077 net.cpp:150] Setting up relu5_2
I1203 23:22:03.056655 19077 net.cpp:157] Top shape: 3 512 48 48 (3538944)
I1203 23:22:03.056658 19077 net.cpp:165] Memory required for data: 4643263944
I1203 23:22:03.056663 19077 layer_factory.hpp:77] Creating layer conv5_3
I1203 23:22:03.056670 19077 net.cpp:100] Creating Layer conv5_3
I1203 23:22:03.056674 19077 net.cpp:434] conv5_3 <- conv5_2
I1203 23:22:03.056680 19077 net.cpp:408] conv5_3 -> conv5_3
I1203 23:22:03.062247 19077 net.cpp:150] Setting up conv5_3
I1203 23:22:03.062285 19077 net.cpp:157] Top shape: 3 512 48 48 (3538944)
I1203 23:22:03.062290 19077 net.cpp:165] Memory required for data: 4657419720
I1203 23:22:03.062299 19077 layer_factory.hpp:77] Creating layer relu5_3
I1203 23:22:03.062310 19077 net.cpp:100] Creating Layer relu5_3
I1203 23:22:03.062317 19077 net.cpp:434] relu5_3 <- conv5_3
I1203 23:22:03.062325 19077 net.cpp:395] relu5_3 -> conv5_3 (in-place)
I1203 23:22:03.062933 19077 net.cpp:150] Setting up relu5_3
I1203 23:22:03.062945 19077 net.cpp:157] Top shape: 3 512 48 48 (3538944)
I1203 23:22:03.062949 19077 net.cpp:165] Memory required for data: 4671575496
I1203 23:22:03.062953 19077 layer_factory.hpp:77] Creating layer conv5_3_relu5_3_0_split
I1203 23:22:03.062959 19077 net.cpp:100] Creating Layer conv5_3_relu5_3_0_split
I1203 23:22:03.062963 19077 net.cpp:434] conv5_3_relu5_3_0_split <- conv5_3
I1203 23:22:03.062969 19077 net.cpp:408] conv5_3_relu5_3_0_split -> conv5_3_relu5_3_0_split_0
I1203 23:22:03.062976 19077 net.cpp:408] conv5_3_relu5_3_0_split -> conv5_3_relu5_3_0_split_1
I1203 23:22:03.062981 19077 net.cpp:408] conv5_3_relu5_3_0_split -> conv5_3_relu5_3_0_split_2
I1203 23:22:03.063030 19077 net.cpp:150] Setting up conv5_3_relu5_3_0_split
I1203 23:22:03.063037 19077 net.cpp:157] Top shape: 3 512 48 48 (3538944)
I1203 23:22:03.063041 19077 net.cpp:157] Top shape: 3 512 48 48 (3538944)
I1203 23:22:03.063045 19077 net.cpp:157] Top shape: 3 512 48 48 (3538944)
I1203 23:22:03.063048 19077 net.cpp:165] Memory required for data: 4714042824
I1203 23:22:03.063052 19077 layer_factory.hpp:77] Creating layer LFCN_2_5x5
I1203 23:22:03.063062 19077 net.cpp:100] Creating Layer LFCN_2_5x5
I1203 23:22:03.063066 19077 net.cpp:434] LFCN_2_5x5 <- conv5_3_relu5_3_0_split_0
I1203 23:22:03.063073 19077 net.cpp:408] LFCN_2_5x5 -> LFCN_2_5x5
I1203 23:22:03.067891 19077 net.cpp:150] Setting up LFCN_2_5x5
I1203 23:22:03.067905 19077 net.cpp:157] Top shape: 3 9 48 48 (62208)
I1203 23:22:03.067909 19077 net.cpp:165] Memory required for data: 4714291656
I1203 23:22:03.067915 19077 layer_factory.hpp:77] Creating layer LFCN_2_5x5_LFCN_2_5x5_0_split
I1203 23:22:03.067921 19077 net.cpp:100] Creating Layer LFCN_2_5x5_LFCN_2_5x5_0_split
I1203 23:22:03.067925 19077 net.cpp:434] LFCN_2_5x5_LFCN_2_5x5_0_split <- LFCN_2_5x5
I1203 23:22:03.067932 19077 net.cpp:408] LFCN_2_5x5_LFCN_2_5x5_0_split -> LFCN_2_5x5_LFCN_2_5x5_0_split_0
I1203 23:22:03.067939 19077 net.cpp:408] LFCN_2_5x5_LFCN_2_5x5_0_split -> LFCN_2_5x5_LFCN_2_5x5_0_split_1
I1203 23:22:03.067943 19077 net.cpp:408] LFCN_2_5x5_LFCN_2_5x5_0_split -> LFCN_2_5x5_LFCN_2_5x5_0_split_2
I1203 23:22:03.067992 19077 net.cpp:150] Setting up LFCN_2_5x5_LFCN_2_5x5_0_split
I1203 23:22:03.068002 19077 net.cpp:157] Top shape: 3 9 48 48 (62208)
I1203 23:22:03.068006 19077 net.cpp:157] Top shape: 3 9 48 48 (62208)
I1203 23:22:03.068011 19077 net.cpp:157] Top shape: 3 9 48 48 (62208)
I1203 23:22:03.068013 19077 net.cpp:165] Memory required for data: 4715038152
I1203 23:22:03.068017 19077 layer_factory.hpp:77] Creating layer detection_loss_2_5x5
I1203 23:22:03.068024 19077 net.cpp:100] Creating Layer detection_loss_2_5x5
I1203 23:22:03.068027 19077 net.cpp:434] detection_loss_2_5x5 <- LFCN_2_5x5_LFCN_2_5x5_0_split_0
I1203 23:22:03.068032 19077 net.cpp:434] detection_loss_2_5x5 <- label_2_5x5_data_3_split_0
I1203 23:22:03.068039 19077 net.cpp:408] detection_loss_2_5x5 -> loss_2_5x5
I1203 23:22:03.068049 19077 layer_factory.hpp:77] Creating layer detection_loss_2_5x5
I1203 23:22:03.068511 19077 net.cpp:150] Setting up detection_loss_2_5x5
I1203 23:22:03.068552 19077 net.cpp:157] Top shape: 1 1 1 2 (2)
I1203 23:22:03.068555 19077 net.cpp:160]     with loss weight 1
I1203 23:22:03.068606 19077 net.cpp:165] Memory required for data: 4715038160
I1203 23:22:03.068614 19077 layer_factory.hpp:77] Creating layer detection_accuracy_2_5x5
I1203 23:22:03.068637 19077 net.cpp:100] Creating Layer detection_accuracy_2_5x5
I1203 23:22:03.068648 19077 net.cpp:434] detection_accuracy_2_5x5 <- LFCN_2_5x5_LFCN_2_5x5_0_split_1
I1203 23:22:03.068653 19077 net.cpp:434] detection_accuracy_2_5x5 <- label_2_5x5_data_3_split_1
I1203 23:22:03.068661 19077 net.cpp:408] detection_accuracy_2_5x5 -> accuracy_2_5x5
I1203 23:22:03.068670 19077 net.cpp:408] detection_accuracy_2_5x5 -> boxiou_2_5x5
I1203 23:22:03.068738 19077 net.cpp:150] Setting up detection_accuracy_2_5x5
I1203 23:22:03.068747 19077 net.cpp:157] Top shape: 1 1 1 2 (2)
I1203 23:22:03.068751 19077 net.cpp:157] Top shape: 1 1 1 1 (1)
I1203 23:22:03.068753 19077 net.cpp:165] Memory required for data: 4715038172
I1203 23:22:03.068758 19077 layer_factory.hpp:77] Creating layer LFCN_2_7x7
I1203 23:22:03.068778 19077 net.cpp:100] Creating Layer LFCN_2_7x7
I1203 23:22:03.068784 19077 net.cpp:434] LFCN_2_7x7 <- conv5_3_relu5_3_0_split_1
I1203 23:22:03.068792 19077 net.cpp:408] LFCN_2_7x7 -> LFCN_2_7x7
I1203 23:22:03.076172 19077 net.cpp:150] Setting up LFCN_2_7x7
I1203 23:22:03.076200 19077 net.cpp:157] Top shape: 3 9 48 48 (62208)
I1203 23:22:03.076203 19077 net.cpp:165] Memory required for data: 4715287004
I1203 23:22:03.076211 19077 layer_factory.hpp:77] Creating layer LFCN_2_7x7_LFCN_2_7x7_0_split
I1203 23:22:03.076222 19077 net.cpp:100] Creating Layer LFCN_2_7x7_LFCN_2_7x7_0_split
I1203 23:22:03.076228 19077 net.cpp:434] LFCN_2_7x7_LFCN_2_7x7_0_split <- LFCN_2_7x7
I1203 23:22:03.076236 19077 net.cpp:408] LFCN_2_7x7_LFCN_2_7x7_0_split -> LFCN_2_7x7_LFCN_2_7x7_0_split_0
I1203 23:22:03.076246 19077 net.cpp:408] LFCN_2_7x7_LFCN_2_7x7_0_split -> LFCN_2_7x7_LFCN_2_7x7_0_split_1
I1203 23:22:03.076251 19077 net.cpp:408] LFCN_2_7x7_LFCN_2_7x7_0_split -> LFCN_2_7x7_LFCN_2_7x7_0_split_2
I1203 23:22:03.076300 19077 net.cpp:150] Setting up LFCN_2_7x7_LFCN_2_7x7_0_split
I1203 23:22:03.076306 19077 net.cpp:157] Top shape: 3 9 48 48 (62208)
I1203 23:22:03.076311 19077 net.cpp:157] Top shape: 3 9 48 48 (62208)
I1203 23:22:03.076315 19077 net.cpp:157] Top shape: 3 9 48 48 (62208)
I1203 23:22:03.076318 19077 net.cpp:165] Memory required for data: 4716033500
I1203 23:22:03.076321 19077 layer_factory.hpp:77] Creating layer detection_loss_2_7x7
I1203 23:22:03.076334 19077 net.cpp:100] Creating Layer detection_loss_2_7x7
I1203 23:22:03.076339 19077 net.cpp:434] detection_loss_2_7x7 <- LFCN_2_7x7_LFCN_2_7x7_0_split_0
I1203 23:22:03.076344 19077 net.cpp:434] detection_loss_2_7x7 <- label_2_7x7_data_4_split_0
I1203 23:22:03.076351 19077 net.cpp:408] detection_loss_2_7x7 -> loss_2_7x7
I1203 23:22:03.076360 19077 layer_factory.hpp:77] Creating layer detection_loss_2_7x7
I1203 23:22:03.076689 19077 net.cpp:150] Setting up detection_loss_2_7x7
I1203 23:22:03.076699 19077 net.cpp:157] Top shape: 1 1 1 2 (2)
I1203 23:22:03.076701 19077 net.cpp:160]     with loss weight 1
I1203 23:22:03.076712 19077 net.cpp:165] Memory required for data: 4716033508
I1203 23:22:03.076715 19077 layer_factory.hpp:77] Creating layer detection_accuracy_2_7x7
I1203 23:22:03.076722 19077 net.cpp:100] Creating Layer detection_accuracy_2_7x7
I1203 23:22:03.076727 19077 net.cpp:434] detection_accuracy_2_7x7 <- LFCN_2_7x7_LFCN_2_7x7_0_split_1
I1203 23:22:03.076731 19077 net.cpp:434] detection_accuracy_2_7x7 <- label_2_7x7_data_4_split_1
I1203 23:22:03.076736 19077 net.cpp:408] detection_accuracy_2_7x7 -> accuracy_2_7x7
I1203 23:22:03.076743 19077 net.cpp:408] detection_accuracy_2_7x7 -> boxiou_2_7x7
I1203 23:22:03.076781 19077 net.cpp:150] Setting up detection_accuracy_2_7x7
I1203 23:22:03.076786 19077 net.cpp:157] Top shape: 1 1 1 2 (2)
I1203 23:22:03.076791 19077 net.cpp:157] Top shape: 1 1 1 1 (1)
I1203 23:22:03.076793 19077 net.cpp:165] Memory required for data: 4716033520
I1203 23:22:03.076797 19077 layer_factory.hpp:77] Creating layer pool5
I1203 23:22:03.076802 19077 net.cpp:100] Creating Layer pool5
I1203 23:22:03.076807 19077 net.cpp:434] pool5 <- conv5_3_relu5_3_0_split_2
I1203 23:22:03.076812 19077 net.cpp:408] pool5 -> pool5
I1203 23:22:03.076846 19077 net.cpp:150] Setting up pool5
I1203 23:22:03.076853 19077 net.cpp:157] Top shape: 3 512 24 24 (884736)
I1203 23:22:03.076855 19077 net.cpp:165] Memory required for data: 4719572464
I1203 23:22:03.076858 19077 layer_factory.hpp:77] Creating layer conv6_1
I1203 23:22:03.076869 19077 net.cpp:100] Creating Layer conv6_1
I1203 23:22:03.076872 19077 net.cpp:434] conv6_1 <- pool5
I1203 23:22:03.076879 19077 net.cpp:408] conv6_1 -> conv6_1
I1203 23:22:03.138577 19077 net.cpp:150] Setting up conv6_1
I1203 23:22:03.138607 19077 net.cpp:157] Top shape: 3 512 24 24 (884736)
I1203 23:22:03.138612 19077 net.cpp:165] Memory required for data: 4723111408
I1203 23:22:03.138622 19077 layer_factory.hpp:77] Creating layer relu6_1
I1203 23:22:03.138633 19077 net.cpp:100] Creating Layer relu6_1
I1203 23:22:03.138639 19077 net.cpp:434] relu6_1 <- conv6_1
I1203 23:22:03.138646 19077 net.cpp:395] relu6_1 -> conv6_1 (in-place)
I1203 23:22:03.138805 19077 net.cpp:150] Setting up relu6_1
I1203 23:22:03.138815 19077 net.cpp:157] Top shape: 3 512 24 24 (884736)
I1203 23:22:03.138819 19077 net.cpp:165] Memory required for data: 4726650352
I1203 23:22:03.138823 19077 layer_factory.hpp:77] Creating layer conv6_1_relu6_1_0_split
I1203 23:22:03.138829 19077 net.cpp:100] Creating Layer conv6_1_relu6_1_0_split
I1203 23:22:03.138833 19077 net.cpp:434] conv6_1_relu6_1_0_split <- conv6_1
I1203 23:22:03.138837 19077 net.cpp:408] conv6_1_relu6_1_0_split -> conv6_1_relu6_1_0_split_0
I1203 23:22:03.138844 19077 net.cpp:408] conv6_1_relu6_1_0_split -> conv6_1_relu6_1_0_split_1
I1203 23:22:03.138849 19077 net.cpp:408] conv6_1_relu6_1_0_split -> conv6_1_relu6_1_0_split_2
I1203 23:22:03.138898 19077 net.cpp:150] Setting up conv6_1_relu6_1_0_split
I1203 23:22:03.138906 19077 net.cpp:157] Top shape: 3 512 24 24 (884736)
I1203 23:22:03.138909 19077 net.cpp:157] Top shape: 3 512 24 24 (884736)
I1203 23:22:03.138913 19077 net.cpp:157] Top shape: 3 512 24 24 (884736)
I1203 23:22:03.138916 19077 net.cpp:165] Memory required for data: 4737267184
I1203 23:22:03.138919 19077 layer_factory.hpp:77] Creating layer LFCN_3_5x5
I1203 23:22:03.138931 19077 net.cpp:100] Creating Layer LFCN_3_5x5
I1203 23:22:03.138934 19077 net.cpp:434] LFCN_3_5x5 <- conv6_1_relu6_1_0_split_0
I1203 23:22:03.138942 19077 net.cpp:408] LFCN_3_5x5 -> LFCN_3_5x5
I1203 23:22:03.143734 19077 net.cpp:150] Setting up LFCN_3_5x5
I1203 23:22:03.143784 19077 net.cpp:157] Top shape: 3 9 24 24 (15552)
I1203 23:22:03.143792 19077 net.cpp:165] Memory required for data: 4737329392
I1203 23:22:03.143815 19077 layer_factory.hpp:77] Creating layer LFCN_3_5x5_LFCN_3_5x5_0_split
I1203 23:22:03.143834 19077 net.cpp:100] Creating Layer LFCN_3_5x5_LFCN_3_5x5_0_split
I1203 23:22:03.143849 19077 net.cpp:434] LFCN_3_5x5_LFCN_3_5x5_0_split <- LFCN_3_5x5
I1203 23:22:03.143863 19077 net.cpp:408] LFCN_3_5x5_LFCN_3_5x5_0_split -> LFCN_3_5x5_LFCN_3_5x5_0_split_0
I1203 23:22:03.143883 19077 net.cpp:408] LFCN_3_5x5_LFCN_3_5x5_0_split -> LFCN_3_5x5_LFCN_3_5x5_0_split_1
I1203 23:22:03.143898 19077 net.cpp:408] LFCN_3_5x5_LFCN_3_5x5_0_split -> LFCN_3_5x5_LFCN_3_5x5_0_split_2
I1203 23:22:03.144071 19077 net.cpp:150] Setting up LFCN_3_5x5_LFCN_3_5x5_0_split
I1203 23:22:03.144085 19077 net.cpp:157] Top shape: 3 9 24 24 (15552)
I1203 23:22:03.144095 19077 net.cpp:157] Top shape: 3 9 24 24 (15552)
I1203 23:22:03.144105 19077 net.cpp:157] Top shape: 3 9 24 24 (15552)
I1203 23:22:03.144114 19077 net.cpp:165] Memory required for data: 4737516016
I1203 23:22:03.144121 19077 layer_factory.hpp:77] Creating layer detection_loss_3_5x5
I1203 23:22:03.144137 19077 net.cpp:100] Creating Layer detection_loss_3_5x5
I1203 23:22:03.144147 19077 net.cpp:434] detection_loss_3_5x5 <- LFCN_3_5x5_LFCN_3_5x5_0_split_0
I1203 23:22:03.144160 19077 net.cpp:434] detection_loss_3_5x5 <- label_3_5x5_data_5_split_0
I1203 23:22:03.144171 19077 net.cpp:408] detection_loss_3_5x5 -> loss_3_5x5
I1203 23:22:03.144188 19077 layer_factory.hpp:77] Creating layer detection_loss_3_5x5
I1203 23:22:03.145014 19077 net.cpp:150] Setting up detection_loss_3_5x5
I1203 23:22:03.145038 19077 net.cpp:157] Top shape: 1 1 1 2 (2)
I1203 23:22:03.145046 19077 net.cpp:160]     with loss weight 1
I1203 23:22:03.145063 19077 net.cpp:165] Memory required for data: 4737516024
I1203 23:22:03.145071 19077 layer_factory.hpp:77] Creating layer detection_accuracy_3_5x5
I1203 23:22:03.145087 19077 net.cpp:100] Creating Layer detection_accuracy_3_5x5
I1203 23:22:03.145104 19077 net.cpp:434] detection_accuracy_3_5x5 <- LFCN_3_5x5_LFCN_3_5x5_0_split_1
I1203 23:22:03.145115 19077 net.cpp:434] detection_accuracy_3_5x5 <- label_3_5x5_data_5_split_1
I1203 23:22:03.145126 19077 net.cpp:408] detection_accuracy_3_5x5 -> accuracy_3_5x5
I1203 23:22:03.145141 19077 net.cpp:408] detection_accuracy_3_5x5 -> boxiou_3_5x5
I1203 23:22:03.145236 19077 net.cpp:150] Setting up detection_accuracy_3_5x5
I1203 23:22:03.145251 19077 net.cpp:157] Top shape: 1 1 1 2 (2)
I1203 23:22:03.145259 19077 net.cpp:157] Top shape: 1 1 1 1 (1)
I1203 23:22:03.145265 19077 net.cpp:165] Memory required for data: 4737516036
I1203 23:22:03.145273 19077 layer_factory.hpp:77] Creating layer LFCN_3_7x7
I1203 23:22:03.145292 19077 net.cpp:100] Creating Layer LFCN_3_7x7
I1203 23:22:03.145304 19077 net.cpp:434] LFCN_3_7x7 <- conv6_1_relu6_1_0_split_1
I1203 23:22:03.145318 19077 net.cpp:408] LFCN_3_7x7 -> LFCN_3_7x7
I1203 23:22:03.158860 19077 net.cpp:150] Setting up LFCN_3_7x7
I1203 23:22:03.158882 19077 net.cpp:157] Top shape: 3 9 24 24 (15552)
I1203 23:22:03.158887 19077 net.cpp:165] Memory required for data: 4737578244
I1203 23:22:03.158895 19077 layer_factory.hpp:77] Creating layer LFCN_3_7x7_LFCN_3_7x7_0_split
I1203 23:22:03.158905 19077 net.cpp:100] Creating Layer LFCN_3_7x7_LFCN_3_7x7_0_split
I1203 23:22:03.158911 19077 net.cpp:434] LFCN_3_7x7_LFCN_3_7x7_0_split <- LFCN_3_7x7
I1203 23:22:03.158918 19077 net.cpp:408] LFCN_3_7x7_LFCN_3_7x7_0_split -> LFCN_3_7x7_LFCN_3_7x7_0_split_0
I1203 23:22:03.158927 19077 net.cpp:408] LFCN_3_7x7_LFCN_3_7x7_0_split -> LFCN_3_7x7_LFCN_3_7x7_0_split_1
I1203 23:22:03.158933 19077 net.cpp:408] LFCN_3_7x7_LFCN_3_7x7_0_split -> LFCN_3_7x7_LFCN_3_7x7_0_split_2
I1203 23:22:03.158984 19077 net.cpp:150] Setting up LFCN_3_7x7_LFCN_3_7x7_0_split
I1203 23:22:03.158991 19077 net.cpp:157] Top shape: 3 9 24 24 (15552)
I1203 23:22:03.158995 19077 net.cpp:157] Top shape: 3 9 24 24 (15552)
I1203 23:22:03.159000 19077 net.cpp:157] Top shape: 3 9 24 24 (15552)
I1203 23:22:03.159003 19077 net.cpp:165] Memory required for data: 4737764868
I1203 23:22:03.159006 19077 layer_factory.hpp:77] Creating layer detection_loss_3_7x7
I1203 23:22:03.159013 19077 net.cpp:100] Creating Layer detection_loss_3_7x7
I1203 23:22:03.159018 19077 net.cpp:434] detection_loss_3_7x7 <- LFCN_3_7x7_LFCN_3_7x7_0_split_0
I1203 23:22:03.159023 19077 net.cpp:434] detection_loss_3_7x7 <- label_3_7x7_data_6_split_0
I1203 23:22:03.159029 19077 net.cpp:408] detection_loss_3_7x7 -> loss_3_7x7
I1203 23:22:03.159036 19077 layer_factory.hpp:77] Creating layer detection_loss_3_7x7
I1203 23:22:03.159668 19077 net.cpp:150] Setting up detection_loss_3_7x7
I1203 23:22:03.159680 19077 net.cpp:157] Top shape: 1 1 1 2 (2)
I1203 23:22:03.159684 19077 net.cpp:160]     with loss weight 1
I1203 23:22:03.159693 19077 net.cpp:165] Memory required for data: 4737764876
I1203 23:22:03.159696 19077 layer_factory.hpp:77] Creating layer detection_accuracy_3_7x7
I1203 23:22:03.159703 19077 net.cpp:100] Creating Layer detection_accuracy_3_7x7
I1203 23:22:03.159708 19077 net.cpp:434] detection_accuracy_3_7x7 <- LFCN_3_7x7_LFCN_3_7x7_0_split_1
I1203 23:22:03.159711 19077 net.cpp:434] detection_accuracy_3_7x7 <- label_3_7x7_data_6_split_1
I1203 23:22:03.159718 19077 net.cpp:408] detection_accuracy_3_7x7 -> accuracy_3_7x7
I1203 23:22:03.159724 19077 net.cpp:408] detection_accuracy_3_7x7 -> boxiou_3_7x7
I1203 23:22:03.159762 19077 net.cpp:150] Setting up detection_accuracy_3_7x7
I1203 23:22:03.159767 19077 net.cpp:157] Top shape: 1 1 1 2 (2)
I1203 23:22:03.159771 19077 net.cpp:157] Top shape: 1 1 1 1 (1)
I1203 23:22:03.159775 19077 net.cpp:165] Memory required for data: 4737764888
I1203 23:22:03.159777 19077 layer_factory.hpp:77] Creating layer pool6
I1203 23:22:03.159783 19077 net.cpp:100] Creating Layer pool6
I1203 23:22:03.159788 19077 net.cpp:434] pool6 <- conv6_1_relu6_1_0_split_2
I1203 23:22:03.159795 19077 net.cpp:408] pool6 -> pool6
I1203 23:22:03.159827 19077 net.cpp:150] Setting up pool6
I1203 23:22:03.159837 19077 net.cpp:157] Top shape: 3 512 12 12 (221184)
I1203 23:22:03.159839 19077 net.cpp:165] Memory required for data: 4738649624
I1203 23:22:03.159842 19077 layer_factory.hpp:77] Creating layer LFCN_4_5x5
I1203 23:22:03.159853 19077 net.cpp:100] Creating Layer LFCN_4_5x5
I1203 23:22:03.159857 19077 net.cpp:434] LFCN_4_5x5 <- pool6
I1203 23:22:03.159862 19077 net.cpp:408] LFCN_4_5x5 -> LFCN_4_5x5
I1203 23:22:03.163439 19077 net.cpp:150] Setting up LFCN_4_5x5
I1203 23:22:03.163450 19077 net.cpp:157] Top shape: 3 9 12 12 (3888)
I1203 23:22:03.163452 19077 net.cpp:165] Memory required for data: 4738665176
I1203 23:22:03.163457 19077 layer_factory.hpp:77] Creating layer LFCN_4_5x5_LFCN_4_5x5_0_split
I1203 23:22:03.163461 19077 net.cpp:100] Creating Layer LFCN_4_5x5_LFCN_4_5x5_0_split
I1203 23:22:03.163465 19077 net.cpp:434] LFCN_4_5x5_LFCN_4_5x5_0_split <- LFCN_4_5x5
I1203 23:22:03.163470 19077 net.cpp:408] LFCN_4_5x5_LFCN_4_5x5_0_split -> LFCN_4_5x5_LFCN_4_5x5_0_split_0
I1203 23:22:03.163475 19077 net.cpp:408] LFCN_4_5x5_LFCN_4_5x5_0_split -> LFCN_4_5x5_LFCN_4_5x5_0_split_1
I1203 23:22:03.163481 19077 net.cpp:408] LFCN_4_5x5_LFCN_4_5x5_0_split -> LFCN_4_5x5_LFCN_4_5x5_0_split_2
I1203 23:22:03.163520 19077 net.cpp:150] Setting up LFCN_4_5x5_LFCN_4_5x5_0_split
I1203 23:22:03.163524 19077 net.cpp:157] Top shape: 3 9 12 12 (3888)
I1203 23:22:03.163528 19077 net.cpp:157] Top shape: 3 9 12 12 (3888)
I1203 23:22:03.163532 19077 net.cpp:157] Top shape: 3 9 12 12 (3888)
I1203 23:22:03.163534 19077 net.cpp:165] Memory required for data: 4738711832
I1203 23:22:03.163537 19077 layer_factory.hpp:77] Creating layer detection_loss_4_5x5
I1203 23:22:03.163542 19077 net.cpp:100] Creating Layer detection_loss_4_5x5
I1203 23:22:03.163545 19077 net.cpp:434] detection_loss_4_5x5 <- LFCN_4_5x5_LFCN_4_5x5_0_split_0
I1203 23:22:03.163549 19077 net.cpp:434] detection_loss_4_5x5 <- label_4_5x5_data_7_split_0
I1203 23:22:03.163553 19077 net.cpp:408] detection_loss_4_5x5 -> loss_4_5x5
I1203 23:22:03.163560 19077 layer_factory.hpp:77] Creating layer detection_loss_4_5x5
I1203 23:22:03.164180 19077 net.cpp:150] Setting up detection_loss_4_5x5
I1203 23:22:03.164192 19077 net.cpp:157] Top shape: 1 1 1 2 (2)
I1203 23:22:03.164196 19077 net.cpp:160]     with loss weight 1
I1203 23:22:03.164201 19077 net.cpp:165] Memory required for data: 4738711840
I1203 23:22:03.164204 19077 layer_factory.hpp:77] Creating layer detection_accuracy_4_5x5
I1203 23:22:03.164211 19077 net.cpp:100] Creating Layer detection_accuracy_4_5x5
I1203 23:22:03.164216 19077 net.cpp:434] detection_accuracy_4_5x5 <- LFCN_4_5x5_LFCN_4_5x5_0_split_1
I1203 23:22:03.164221 19077 net.cpp:434] detection_accuracy_4_5x5 <- label_4_5x5_data_7_split_1
I1203 23:22:03.164225 19077 net.cpp:408] detection_accuracy_4_5x5 -> accuracy_4_5x5
I1203 23:22:03.164232 19077 net.cpp:408] detection_accuracy_4_5x5 -> boxiou_4_5x5
I1203 23:22:03.164266 19077 net.cpp:150] Setting up detection_accuracy_4_5x5
I1203 23:22:03.164273 19077 net.cpp:157] Top shape: 1 1 1 2 (2)
I1203 23:22:03.164276 19077 net.cpp:157] Top shape: 1 1 1 1 (1)
I1203 23:22:03.164279 19077 net.cpp:165] Memory required for data: 4738711852
I1203 23:22:03.164283 19077 layer_factory.hpp:77] Creating layer proposals
I1203 23:22:03.164289 19077 net.cpp:100] Creating Layer proposals
I1203 23:22:03.164292 19077 net.cpp:434] proposals <- LFCN_1_5x5_LFCN_1_5x5_0_split_2
I1203 23:22:03.164297 19077 net.cpp:434] proposals <- LFCN_1_7x7_LFCN_1_7x7_0_split_2
I1203 23:22:03.164301 19077 net.cpp:434] proposals <- LFCN_2_5x5_LFCN_2_5x5_0_split_2
I1203 23:22:03.164305 19077 net.cpp:434] proposals <- LFCN_2_7x7_LFCN_2_7x7_0_split_2
I1203 23:22:03.164309 19077 net.cpp:434] proposals <- LFCN_3_5x5_LFCN_3_5x5_0_split_2
I1203 23:22:03.164314 19077 net.cpp:434] proposals <- LFCN_3_7x7_LFCN_3_7x7_0_split_2
I1203 23:22:03.164316 19077 net.cpp:434] proposals <- LFCN_4_5x5_LFCN_4_5x5_0_split_2
I1203 23:22:03.164322 19077 net.cpp:408] proposals -> proposals
I1203 23:22:03.164348 19077 net.cpp:150] Setting up proposals
I1203 23:22:03.164355 19077 net.cpp:157] Top shape: 1 5 1 1 (5)
I1203 23:22:03.164357 19077 net.cpp:165] Memory required for data: 4738711872
I1203 23:22:03.164361 19077 layer_factory.hpp:77] Creating layer proposal_info
I1203 23:22:03.164368 19077 net.cpp:100] Creating Layer proposal_info
I1203 23:22:03.164371 19077 net.cpp:434] proposal_info <- proposals
I1203 23:22:03.164376 19077 net.cpp:434] proposal_info <- gt_boxes
I1203 23:22:03.164381 19077 net.cpp:408] proposal_info -> rois
I1203 23:22:03.164392 19077 net.cpp:408] proposal_info -> proposal_labels
I1203 23:22:03.164398 19077 net.cpp:408] proposal_info -> proposal_targets
I1203 23:22:03.164404 19077 net.cpp:408] proposal_info -> box_inside_weights
I1203 23:22:03.164412 19077 net.cpp:408] proposal_info -> box_outside_weights
I1203 23:22:03.164417 19077 net.cpp:408] proposal_info -> match_gt_boxes
I1203 23:22:03.164502 19077 net.cpp:150] Setting up proposal_info
I1203 23:22:03.164510 19077 net.cpp:157] Top shape: 256 5 1 1 (1280)
I1203 23:22:03.164513 19077 net.cpp:157] Top shape: 256 1 1 1 (256)
I1203 23:22:03.164517 19077 net.cpp:157] Top shape: 256 20 1 1 (5120)
I1203 23:22:03.164521 19077 net.cpp:157] Top shape: 256 20 1 1 (5120)
I1203 23:22:03.164525 19077 net.cpp:157] Top shape: 256 20 1 1 (5120)
I1203 23:22:03.164530 19077 net.cpp:157] Top shape: 256 6 1 1 (1536)
I1203 23:22:03.164533 19077 net.cpp:165] Memory required for data: 4738785600
I1203 23:22:03.164536 19077 layer_factory.hpp:77] Creating layer rois_proposal_info_0_split
I1203 23:22:03.164541 19077 net.cpp:100] Creating Layer rois_proposal_info_0_split
I1203 23:22:03.164544 19077 net.cpp:434] rois_proposal_info_0_split <- rois
I1203 23:22:03.164551 19077 net.cpp:408] rois_proposal_info_0_split -> rois_proposal_info_0_split_0
I1203 23:22:03.164556 19077 net.cpp:408] rois_proposal_info_0_split -> rois_proposal_info_0_split_1
I1203 23:22:03.164561 19077 net.cpp:408] rois_proposal_info_0_split -> rois_proposal_info_0_split_2
I1203 23:22:03.164602 19077 net.cpp:150] Setting up rois_proposal_info_0_split
I1203 23:22:03.164608 19077 net.cpp:157] Top shape: 256 5 1 1 (1280)
I1203 23:22:03.164613 19077 net.cpp:157] Top shape: 256 5 1 1 (1280)
I1203 23:22:03.164616 19077 net.cpp:157] Top shape: 256 5 1 1 (1280)
I1203 23:22:03.164619 19077 net.cpp:165] Memory required for data: 4738800960
I1203 23:22:03.164623 19077 layer_factory.hpp:77] Creating layer proposal_labels_proposal_info_1_split
I1203 23:22:03.164626 19077 net.cpp:100] Creating Layer proposal_labels_proposal_info_1_split
I1203 23:22:03.164630 19077 net.cpp:434] proposal_labels_proposal_info_1_split <- proposal_labels
I1203 23:22:03.164635 19077 net.cpp:408] proposal_labels_proposal_info_1_split -> proposal_labels_proposal_info_1_split_0
I1203 23:22:03.164641 19077 net.cpp:408] proposal_labels_proposal_info_1_split -> proposal_labels_proposal_info_1_split_1
I1203 23:22:03.164670 19077 net.cpp:150] Setting up proposal_labels_proposal_info_1_split
I1203 23:22:03.164676 19077 net.cpp:157] Top shape: 256 1 1 1 (256)
I1203 23:22:03.164680 19077 net.cpp:157] Top shape: 256 1 1 1 (256)
I1203 23:22:03.164682 19077 net.cpp:165] Memory required for data: 4738803008
I1203 23:22:03.164686 19077 layer_factory.hpp:77] Creating layer softmax
I1203 23:22:03.164691 19077 net.cpp:100] Creating Layer softmax
I1203 23:22:03.164695 19077 net.cpp:434] softmax <- attention_attention_0_split_1
I1203 23:22:03.164700 19077 net.cpp:408] softmax -> softmax_attention
I1203 23:22:03.164898 19077 net.cpp:150] Setting up softmax
I1203 23:22:03.164917 19077 net.cpp:157] Top shape: 3 3 96 96 (82944)
I1203 23:22:03.164921 19077 net.cpp:165] Memory required for data: 4739134784
I1203 23:22:03.164925 19077 layer_factory.hpp:77] Creating layer slice1
I1203 23:22:03.164932 19077 net.cpp:100] Creating Layer slice1
I1203 23:22:03.164935 19077 net.cpp:434] slice1 <- softmax_attention
I1203 23:22:03.164940 19077 net.cpp:408] slice1 -> bg
I1203 23:22:03.164947 19077 net.cpp:408] slice1 -> attention1
I1203 23:22:03.164983 19077 net.cpp:150] Setting up slice1
I1203 23:22:03.164988 19077 net.cpp:157] Top shape: 3 1 96 96 (27648)
I1203 23:22:03.164994 19077 net.cpp:157] Top shape: 3 2 96 96 (55296)
I1203 23:22:03.164995 19077 net.cpp:165] Memory required for data: 4739466560
I1203 23:22:03.164999 19077 layer_factory.hpp:77] Creating layer silence
I1203 23:22:03.165555 19077 net.cpp:100] Creating Layer silence
I1203 23:22:03.165561 19077 net.cpp:434] silence <- bg
I1203 23:22:03.165566 19077 net.cpp:150] Setting up silence
I1203 23:22:03.165570 19077 net.cpp:165] Memory required for data: 4739466560
I1203 23:22:03.165572 19077 layer_factory.hpp:77] Creating layer conv4_3_new
I1203 23:22:03.165578 19077 net.cpp:100] Creating Layer conv4_3_new
I1203 23:22:03.165582 19077 net.cpp:434] conv4_3_new <- conv4_3_relu4_3_0_split_3
I1203 23:22:03.165586 19077 net.cpp:434] conv4_3_new <- attention1
I1203 23:22:03.165591 19077 net.cpp:408] conv4_3_new -> conv4_3_new
I1203 23:22:03.165632 19077 net.cpp:150] Setting up conv4_3_new
I1203 23:22:03.165638 19077 net.cpp:157] Top shape: 3 514 96 96 (14211072)
I1203 23:22:03.165642 19077 net.cpp:165] Memory required for data: 4796310848
I1203 23:22:03.165645 19077 layer_factory.hpp:77] Creating layer conv4_3_2x
I1203 23:22:03.165652 19077 net.cpp:100] Creating Layer conv4_3_2x
I1203 23:22:03.165657 19077 net.cpp:434] conv4_3_2x <- conv4_3_new
I1203 23:22:03.165661 19077 net.cpp:408] conv4_3_2x -> conv4_3_2x
I1203 23:22:03.166146 19077 net.cpp:150] Setting up conv4_3_2x
I1203 23:22:03.166153 19077 net.cpp:157] Top shape: 3 514 192 192 (56844288)
I1203 23:22:03.166157 19077 net.cpp:165] Memory required for data: 5023688000
I1203 23:22:03.166162 19077 layer_factory.hpp:77] Creating layer conv4_3_2x_conv4_3_2x_0_split
I1203 23:22:03.166167 19077 net.cpp:100] Creating Layer conv4_3_2x_conv4_3_2x_0_split
I1203 23:22:03.166170 19077 net.cpp:434] conv4_3_2x_conv4_3_2x_0_split <- conv4_3_2x
I1203 23:22:03.166174 19077 net.cpp:408] conv4_3_2x_conv4_3_2x_0_split -> conv4_3_2x_conv4_3_2x_0_split_0
I1203 23:22:03.166179 19077 net.cpp:408] conv4_3_2x_conv4_3_2x_0_split -> conv4_3_2x_conv4_3_2x_0_split_1
I1203 23:22:03.166211 19077 net.cpp:150] Setting up conv4_3_2x_conv4_3_2x_0_split
I1203 23:22:03.166218 19077 net.cpp:157] Top shape: 3 514 192 192 (56844288)
I1203 23:22:03.166223 19077 net.cpp:157] Top shape: 3 514 192 192 (56844288)
I1203 23:22:03.166225 19077 net.cpp:165] Memory required for data: 5478442304
I1203 23:22:03.166229 19077 layer_factory.hpp:77] Creating layer roi_pool_org
I1203 23:22:03.166234 19077 net.cpp:100] Creating Layer roi_pool_org
I1203 23:22:03.166239 19077 net.cpp:434] roi_pool_org <- conv4_3_2x_conv4_3_2x_0_split_0
I1203 23:22:03.166244 19077 net.cpp:434] roi_pool_org <- rois_proposal_info_0_split_0
I1203 23:22:03.166247 19077 net.cpp:408] roi_pool_org -> roi_pool_org
I1203 23:22:03.166255 19077 roi_pooling_layer.cpp:33] Spatial scale: 0.25
I1203 23:22:03.166290 19077 net.cpp:150] Setting up roi_pool_org
I1203 23:22:03.166296 19077 net.cpp:157] Top shape: 256 514 7 7 (6447616)
I1203 23:22:03.166299 19077 net.cpp:165] Memory required for data: 5504232768
I1203 23:22:03.166302 19077 layer_factory.hpp:77] Creating layer roi_pool_ctx
I1203 23:22:03.166307 19077 net.cpp:100] Creating Layer roi_pool_ctx
I1203 23:22:03.166311 19077 net.cpp:434] roi_pool_ctx <- conv4_3_2x_conv4_3_2x_0_split_1
I1203 23:22:03.166316 19077 net.cpp:434] roi_pool_ctx <- rois_proposal_info_0_split_1
I1203 23:22:03.166321 19077 net.cpp:408] roi_pool_ctx -> roi_pool_ctx
I1203 23:22:03.166326 19077 roi_pooling_layer.cpp:33] Spatial scale: 0.25
I1203 23:22:03.166357 19077 net.cpp:150] Setting up roi_pool_ctx
I1203 23:22:03.166364 19077 net.cpp:157] Top shape: 256 514 7 7 (6447616)
I1203 23:22:03.166368 19077 net.cpp:165] Memory required for data: 5530023232
I1203 23:22:03.166371 19077 layer_factory.hpp:77] Creating layer roi_pool
I1203 23:22:03.166375 19077 net.cpp:100] Creating Layer roi_pool
I1203 23:22:03.166379 19077 net.cpp:434] roi_pool <- roi_pool_org
I1203 23:22:03.166383 19077 net.cpp:434] roi_pool <- roi_pool_ctx
I1203 23:22:03.166388 19077 net.cpp:408] roi_pool -> roi_pool
I1203 23:22:03.166407 19077 net.cpp:150] Setting up roi_pool
I1203 23:22:03.166414 19077 net.cpp:157] Top shape: 256 1028 7 7 (12895232)
I1203 23:22:03.166416 19077 net.cpp:165] Memory required for data: 5581604160
I1203 23:22:03.166419 19077 layer_factory.hpp:77] Creating layer roi_c1
I1203 23:22:03.166427 19077 net.cpp:100] Creating Layer roi_c1
I1203 23:22:03.166431 19077 net.cpp:434] roi_c1 <- roi_pool
I1203 23:22:03.166437 19077 net.cpp:408] roi_c1 -> roi_c1
I1203 23:22:03.302911 19077 net.cpp:150] Setting up roi_c1
I1203 23:22:03.302961 19077 net.cpp:157] Top shape: 256 512 5 5 (3276800)
I1203 23:22:03.302968 19077 net.cpp:165] Memory required for data: 5594711360
I1203 23:22:03.302979 19077 layer_factory.hpp:77] Creating layer roi_c1_relu
I1203 23:22:03.302997 19077 net.cpp:100] Creating Layer roi_c1_relu
I1203 23:22:03.303009 19077 net.cpp:434] roi_c1_relu <- roi_c1
I1203 23:22:03.303015 19077 net.cpp:395] roi_c1_relu -> roi_c1 (in-place)
I1203 23:22:03.303215 19077 net.cpp:150] Setting up roi_c1_relu
I1203 23:22:03.303324 19077 net.cpp:157] Top shape: 256 512 5 5 (3276800)
I1203 23:22:03.303361 19077 net.cpp:165] Memory required for data: 5607818560
I1203 23:22:03.303385 19077 layer_factory.hpp:77] Creating layer fc6
I1203 23:22:03.303892 19077 net.cpp:100] Creating Layer fc6
I1203 23:22:03.304096 19077 net.cpp:434] fc6 <- roi_c1
I1203 23:22:03.304177 19077 net.cpp:408] fc6 -> fc6
I1203 23:22:04.607208 19077 net.cpp:150] Setting up fc6
I1203 23:22:04.607261 19077 net.cpp:157] Top shape: 256 4096 (1048576)
I1203 23:22:04.607266 19077 net.cpp:165] Memory required for data: 5612012864
I1203 23:22:04.607282 19077 layer_factory.hpp:77] Creating layer relu6
I1203 23:22:04.607308 19077 net.cpp:100] Creating Layer relu6
I1203 23:22:04.607317 19077 net.cpp:434] relu6 <- fc6
I1203 23:22:04.607326 19077 net.cpp:395] relu6 -> fc6 (in-place)
I1203 23:22:04.607645 19077 net.cpp:150] Setting up relu6
I1203 23:22:04.607653 19077 net.cpp:157] Top shape: 256 4096 (1048576)
I1203 23:22:04.607657 19077 net.cpp:165] Memory required for data: 5616207168
I1203 23:22:04.607661 19077 layer_factory.hpp:77] Creating layer drop6
I1203 23:22:04.616081 19077 net.cpp:100] Creating Layer drop6
I1203 23:22:04.616117 19077 net.cpp:434] drop6 <- fc6
I1203 23:22:04.616125 19077 net.cpp:395] drop6 -> fc6 (in-place)
I1203 23:22:04.616222 19077 net.cpp:150] Setting up drop6
I1203 23:22:04.616233 19077 net.cpp:157] Top shape: 256 4096 (1048576)
I1203 23:22:04.616238 19077 net.cpp:165] Memory required for data: 5620401472
I1203 23:22:04.616243 19077 layer_factory.hpp:77] Creating layer fc6_drop6_0_split
I1203 23:22:04.616252 19077 net.cpp:100] Creating Layer fc6_drop6_0_split
I1203 23:22:04.616256 19077 net.cpp:434] fc6_drop6_0_split <- fc6
I1203 23:22:04.616264 19077 net.cpp:408] fc6_drop6_0_split -> fc6_drop6_0_split_0
I1203 23:22:04.616272 19077 net.cpp:408] fc6_drop6_0_split -> fc6_drop6_0_split_1
I1203 23:22:04.616322 19077 net.cpp:150] Setting up fc6_drop6_0_split
I1203 23:22:04.616329 19077 net.cpp:157] Top shape: 256 4096 (1048576)
I1203 23:22:04.616335 19077 net.cpp:157] Top shape: 256 4096 (1048576)
I1203 23:22:04.616339 19077 net.cpp:165] Memory required for data: 5628790080
I1203 23:22:04.616343 19077 layer_factory.hpp:77] Creating layer cls_pred
I1203 23:22:04.616351 19077 net.cpp:100] Creating Layer cls_pred
I1203 23:22:04.616355 19077 net.cpp:434] cls_pred <- fc6_drop6_0_split_0
I1203 23:22:04.616364 19077 net.cpp:408] cls_pred -> cls_pred
I1203 23:22:04.617055 19077 net.cpp:150] Setting up cls_pred
I1203 23:22:04.617071 19077 net.cpp:157] Top shape: 256 5 (1280)
I1203 23:22:04.617075 19077 net.cpp:165] Memory required for data: 5628795200
I1203 23:22:04.617082 19077 layer_factory.hpp:77] Creating layer cls_pred_cls_pred_0_split
I1203 23:22:04.617086 19077 net.cpp:100] Creating Layer cls_pred_cls_pred_0_split
I1203 23:22:04.617090 19077 net.cpp:434] cls_pred_cls_pred_0_split <- cls_pred
I1203 23:22:04.617096 19077 net.cpp:408] cls_pred_cls_pred_0_split -> cls_pred_cls_pred_0_split_0
I1203 23:22:04.617102 19077 net.cpp:408] cls_pred_cls_pred_0_split -> cls_pred_cls_pred_0_split_1
I1203 23:22:04.617137 19077 net.cpp:150] Setting up cls_pred_cls_pred_0_split
I1203 23:22:04.617146 19077 net.cpp:157] Top shape: 256 5 (1280)
I1203 23:22:04.617151 19077 net.cpp:157] Top shape: 256 5 (1280)
I1203 23:22:04.617154 19077 net.cpp:165] Memory required for data: 5628805440
I1203 23:22:04.617158 19077 layer_factory.hpp:77] Creating layer bbox_pred
I1203 23:22:04.617164 19077 net.cpp:100] Creating Layer bbox_pred
I1203 23:22:04.617169 19077 net.cpp:434] bbox_pred <- fc6_drop6_0_split_1
I1203 23:22:04.617177 19077 net.cpp:408] bbox_pred -> bbox_pred
I1203 23:22:04.621105 19077 net.cpp:150] Setting up bbox_pred
I1203 23:22:04.621129 19077 net.cpp:157] Top shape: 256 20 (5120)
I1203 23:22:04.621137 19077 net.cpp:165] Memory required for data: 5628825920
I1203 23:22:04.621150 19077 layer_factory.hpp:77] Creating layer bbox_pred_bbox_pred_0_split
I1203 23:22:04.621161 19077 net.cpp:100] Creating Layer bbox_pred_bbox_pred_0_split
I1203 23:22:04.621170 19077 net.cpp:434] bbox_pred_bbox_pred_0_split <- bbox_pred
I1203 23:22:04.621181 19077 net.cpp:408] bbox_pred_bbox_pred_0_split -> bbox_pred_bbox_pred_0_split_0
I1203 23:22:04.621196 19077 net.cpp:408] bbox_pred_bbox_pred_0_split -> bbox_pred_bbox_pred_0_split_1
I1203 23:22:04.621260 19077 net.cpp:150] Setting up bbox_pred_bbox_pred_0_split
I1203 23:22:04.621273 19077 net.cpp:157] Top shape: 256 20 (5120)
I1203 23:22:04.621282 19077 net.cpp:157] Top shape: 256 20 (5120)
I1203 23:22:04.621289 19077 net.cpp:165] Memory required for data: 5628866880
I1203 23:22:04.621297 19077 layer_factory.hpp:77] Creating layer loss_cls
I1203 23:22:04.621309 19077 net.cpp:100] Creating Layer loss_cls
I1203 23:22:04.621316 19077 net.cpp:434] loss_cls <- cls_pred_cls_pred_0_split_0
I1203 23:22:04.621327 19077 net.cpp:434] loss_cls <- proposal_labels_proposal_info_1_split_0
…
I1203 23:22:04.639663 19077 image_gt_data_layer.cpp:235] output label size 2 : 1,6,48,48
I1203 23:22:04.639710 19077 image_gt_data_layer.cpp:235] output label size 3 : 1,6,48,48
I1203 23:22:04.639758 19077 image_gt_data_layer.cpp:235] output label size 4 : 1,6,24,24
I1203 23:22:04.639807 19077 image_gt_data_layer.cpp:235] output label size 5 : 1,6,24,24
I1203 23:22:04.639854 19077 image_gt_data_layer.cpp:235] output label size 6 : 1,6,12,12
I1203 23:22:04.639902 19077 image_gt_data_layer.cpp:250] output gt boxes size: 1,7,1,1
I1203 23:22:04.662358 19077 net.cpp:150] Setting up data
I1203 23:22:04.662444 19077 net.cpp:157] Top shape: 1 4 768 768 (2359296)
I1203 23:22:04.662494 19077 net.cpp:157] Top shape: 1 6 96 96 (55296)
I1203 23:22:04.662505 19077 net.cpp:157] Top shape: 1 6 96 96 (55296)
I1203 23:22:04.662515 19077 net.cpp:157] Top shape: 1 6 48 48 (13824)
I1203 23:22:04.662525 19077 net.cpp:157] Top shape: 1 6 48 48 (13824)
I1203 23:22:04.662535 19077 net.cpp:157] Top shape: 1 6 24 24 (3456)
I1203 23:22:04.662544 19077 net.cpp:157] Top shape: 1 6 24 24 (3456)
I1203 23:22:04.662554 19077 net.cpp:157] Top shape: 1 6 12 12 (864)
I1203 23:22:04.662564 19077 net.cpp:157] Top shape: 1 7 1 1 (7)
I1203 23:22:04.662570 19077 net.cpp:165] Memory required for data: 10021276
I1203 23:22:04.662582 19077 layer_factory.hpp:77] Creating layer label_1_5x5_data_1_split
I1203 23:22:04.662605 19077 net.cpp:100] Creating Layer label_1_5x5_data_1_split
I1203 23:22:04.662613 19077 net.cpp:434] label_1_5x5_data_1_split <- label_1_5x5
I1203 23:22:04.662631 19077 net.cpp:408] label_1_5x5_data_1_split -> label_1_5x5_data_1_split_0
I1203 23:22:04.662647 19077 net.cpp:408] label_1_5x5_data_1_split -> label_1_5x5_data_1_split_1
I1203 23:22:04.662775 19077 net.cpp:150] Setting up label_1_5x5_data_1_split
I1203 23:22:04.662788 19077 net.cpp:157] Top shape: 1 6 96 96 (55296)
I1203 23:22:04.662797 19077 net.cpp:157] Top shape: 1 6 96 96 (55296)
I1203 23:22:04.662804 19077 net.cpp:165] Memory required for data: 10463644
I1203 23:22:04.662811 19077 layer_factory.hpp:77] Creating layer label_1_7x7_data_2_split
I1203 23:22:04.662822 19077 net.cpp:100] Creating Layer label_1_7x7_data_2_split
I1203 23:22:04.662829 19077 net.cpp:434] label_1_7x7_data_2_split <- label_1_7x7
I1203 23:22:04.662839 19077 net.cpp:408] label_1_7x7_data_2_split -> label_1_7x7_data_2_split_0
I1203 23:22:04.662850 19077 net.cpp:408] label_1_7x7_data_2_split -> label_1_7x7_data_2_split_1
I1203 23:22:04.662930 19077 net.cpp:150] Setting up label_1_7x7_data_2_split
I1203 23:22:04.662940 19077 net.cpp:157] Top shape: 1 6 96 96 (55296)
I1203 23:22:04.662950 19077 net.cpp:157] Top shape: 1 6 96 96 (55296)
I1203 23:22:04.662956 19077 net.cpp:165] Memory required for data: 10906012
I1203 23:22:04.662963 19077 layer_factory.hpp:77] Creating layer label_2_5x5_data_3_split
I1203 23:22:04.662976 19077 net.cpp:100] Creating Layer label_2_5x5_data_3_split
I1203 23:22:04.662982 19077 net.cpp:434] label_2_5x5_data_3_split <- label_2_5x5
I1203 23:22:04.662992 19077 net.cpp:408] label_2_5x5_data_3_split -> label_2_5x5_data_3_split_0
I1203 23:22:04.663003 19077 net.cpp:408] label_2_5x5_data_3_split -> label_2_5x5_data_3_split_1
I1203 23:22:04.663080 19077 net.cpp:150] Setting up label_2_5x5_data_3_split
I1203 23:22:04.663091 19077 net.cpp:157] Top shape: 1 6 48 48 (13824)
I1203 23:22:04.663100 19077 net.cpp:157] Top shape: 1 6 48 48 (13824)
I1203 23:22:04.663107 19077 net.cpp:165] Memory required for data: 11016604
I1203 23:22:04.663115 19077 layer_factory.hpp:77] Creating layer label_2_7x7_data_4_split
I1203 23:22:04.663125 19077 net.cpp:100] Creating Layer label_2_7x7_data_4_split
I1203 23:22:04.663134 19077 net.cpp:434] label_2_7x7_data_4_split <- label_2_7x7
I1203 23:22:04.663144 19077 net.cpp:408] label_2_7x7_data_4_split -> label_2_7x7_data_4_split_0
I1203 23:22:04.663156 19077 net.cpp:408] label_2_7x7_data_4_split -> label_2_7x7_data_4_split_1
I1203 23:22:04.663231 19077 net.cpp:150] Setting up label_2_7x7_data_4_split
I1203 23:22:04.663242 19077 net.cpp:157] Top shape: 1 6 48 48 (13824)
I1203 23:22:04.663252 19077 net.cpp:157] Top shape: 1 6 48 48 (13824)
I1203 23:22:04.663259 19077 net.cpp:165] Memory required for data: 11127196
I1203 23:22:04.663266 19077 layer_factory.hpp:77] Creating layer label_3_5x5_data_5_split
I1203 23:22:04.663275 19077 net.cpp:100] Creating Layer label_3_5x5_data_5_split
I1203 23:22:04.663282 19077 net.cpp:434] label_3_5x5_data_5_split <- label_3_5x5
I1203 23:22:04.663295 19077 net.cpp:408] label_3_5x5_data_5_split -> label_3_5x5_data_5_split_0
I1203 23:22:04.663307 19077 net.cpp:408] label_3_5x5_data_5_split -> label_3_5x5_data_5_split_1
I1203 23:22:04.663375 19077 net.cpp:150] Setting up label_3_5x5_data_5_split
I1203 23:22:04.663388 19077 net.cpp:157] Top shape: 1 6 24 24 (3456)
I1203 23:22:04.663396 19077 net.cpp:157] Top shape: 1 6 24 24 (3456)
I1203 23:22:04.663403 19077 net.cpp:165] Memory required for data: 11154844
I1203 23:22:04.663410 19077 layer_factory.hpp:77] Creating layer label_3_7x7_data_6_split
I1203 23:22:04.663421 19077 net.cpp:100] Creating Layer label_3_7x7_data_6_split
I1203 23:22:04.663429 19077 net.cpp:434] label_3_7x7_data_6_split <- label_3_7x7
I1203 23:22:04.663437 19077 net.cpp:408] label_3_7x7_data_6_split -> label_3_7x7_data_6_split_0
I1203 23:22:04.663449 19077 net.cpp:408] label_3_7x7_data_6_split -> label_3_7x7_data_6_split_1
I1203 23:22:04.663520 19077 net.cpp:150] Setting up label_3_7x7_data_6_split
I1203 23:22:04.663532 19077 net.cpp:157] Top shape: 1 6 24 24 (3456)
I1203 23:22:04.663540 19077 net.cpp:157] Top shape: 1 6 24 24 (3456)
I1203 23:22:04.663547 19077 net.cpp:165] Memory required for data: 11182492
I1203 23:22:04.663554 19077 layer_factory.hpp:77] Creating layer label_4_5x5_data_7_split
I1203 23:22:04.663563 19077 net.cpp:100] Creating Layer label_4_5x5_data_7_split
I1203 23:22:04.663570 19077 net.cpp:434] label_4_5x5_data_7_split <- label_4_5x5
I1203 23:22:04.663579 19077 net.cpp:408] label_4_5x5_data_7_split -> label_4_5x5_data_7_split_0
I1203 23:22:04.663590 19077 net.cpp:408] label_4_5x5_data_7_split -> label_4_5x5_data_7_split_1
I1203 23:22:04.663661 19077 net.cpp:150] Setting up label_4_5x5_data_7_split
I1203 23:22:04.663671 19077 net.cpp:157] Top shape: 1 6 12 12 (864)
I1203 23:22:04.663681 19077 net.cpp:157] Top shape: 1 6 12 12 (864)
I1203 23:22:04.663687 19077 net.cpp:165] Memory required for data: 11189404
I1203 23:22:04.663694 19077 layer_factory.hpp:77] Creating layer slice
I1203 23:22:04.663710 19077 net.cpp:100] Creating Layer slice
I1203 23:22:04.663717 19077 net.cpp:434] slice <- data
I1203 23:22:04.663728 19077 net.cpp:408] slice -> data123
I1203 23:22:04.663739 19077 net.cpp:408] slice -> ch4
I1203 23:22:04.663812 19077 net.cpp:150] Setting up slice
I1203 23:22:04.663825 19077 net.cpp:157] Top shape: 1 3 768 768 (1769472)
I1203 23:22:04.663833 19077 net.cpp:157] Top shape: 1 1 768 768 (589824)
I1203 23:22:04.663839 19077 net.cpp:165] Memory required for data: 20626588
I1203 23:22:04.663846 19077 layer_factory.hpp:77] Creating layer conv1_1
I1203 23:22:04.663862 19077 net.cpp:100] Creating Layer conv1_1
I1203 23:22:04.663870 19077 net.cpp:434] conv1_1 <- data123
I1203 23:22:04.663880 19077 net.cpp:408] conv1_1 -> conv1_1
I1203 23:22:04.671152 19077 net.cpp:150] Setting up conv1_1
I1203 23:22:04.671190 19077 net.cpp:157] Top shape: 1 64 768 768 (37748736)
I1203 23:22:04.671200 19077 net.cpp:165] Memory required for data: 171621532
I1203 23:22:04.671223 19077 layer_factory.hpp:77] Creating layer relu1_1
I1203 23:22:04.671241 19077 net.cpp:100] Creating Layer relu1_1
I1203 23:22:04.671252 19077 net.cpp:434] relu1_1 <- conv1_1
I1203 23:22:04.671265 19077 net.cpp:395] relu1_1 -> conv1_1 (in-place)
I1203 23:22:04.671658 19077 net.cpp:150] Setting up relu1_1
I1203 23:22:04.671674 19077 net.cpp:157] Top shape: 1 64 768 768 (37748736)
I1203 23:22:04.671682 19077 net.cpp:165] Memory required for data: 322616476
I1203 23:22:04.671689 19077 layer_factory.hpp:77] Creating layer conv1_2
I1203 23:22:04.671708 19077 net.cpp:100] Creating Layer conv1_2
I1203 23:22:04.671716 19077 net.cpp:434] conv1_2 <- conv1_1
I1203 23:22:04.671730 19077 net.cpp:408] conv1_2 -> conv1_2
I1203 23:22:04.676479 19077 net.cpp:150] Setting up conv1_2
I1203 23:22:04.676508 19077 net.cpp:157] Top shape: 1 64 768 768 (37748736)
I1203 23:22:04.676517 19077 net.cpp:165] Memory required for data: 473611420
I1203 23:22:04.676537 19077 layer_factory.hpp:77] Creating layer relu1_2
I1203 23:22:04.676553 19077 net.cpp:100] Creating Layer relu1_2
I1203 23:22:04.676563 19077 net.cpp:434] relu1_2 <- conv1_2
I1203 23:22:04.676578 19077 net.cpp:395] relu1_2 -> conv1_2 (in-place)
I1203 23:22:04.677007 19077 net.cpp:150] Setting up relu1_2
I1203 23:22:04.677026 19077 net.cpp:157] Top shape: 1 64 768 768 (37748736)
I1203 23:22:04.677033 19077 net.cpp:165] Memory required for data: 624606364
I1203 23:22:04.677042 19077 layer_factory.hpp:77] Creating layer pool1
I1203 23:22:04.677054 19077 net.cpp:100] Creating Layer pool1
I1203 23:22:04.677062 19077 net.cpp:434] pool1 <- conv1_2
I1203 23:22:04.677078 19077 net.cpp:408] pool1 -> pool1
I1203 23:22:04.677173 19077 net.cpp:150] Setting up pool1
I1203 23:22:04.677186 19077 net.cpp:157] Top shape: 1 64 384 384 (9437184)
I1203 23:22:04.677192 19077 net.cpp:165] Memory required for data: 662355100
I1203 23:22:04.677199 19077 layer_factory.hpp:77] Creating layer conv2_1
I1203 23:22:04.677217 19077 net.cpp:100] Creating Layer conv2_1
I1203 23:22:04.677225 19077 net.cpp:434] conv2_1 <- pool1
I1203 23:22:04.677237 19077 net.cpp:408] conv2_1 -> conv2_1
I1203 23:22:04.682044 19077 net.cpp:150] Setting up conv2_1
I1203 23:22:04.682071 19077 net.cpp:157] Top shape: 1 128 384 384 (18874368)
I1203 23:22:04.682080 19077 net.cpp:165] Memory required for data: 737852572
I1203 23:22:04.682101 19077 layer_factory.hpp:77] Creating layer relu2_1
I1203 23:22:04.682116 19077 net.cpp:100] Creating Layer relu2_1
I1203 23:22:04.682126 19077 net.cpp:434] relu2_1 <- conv2_1
I1203 23:22:04.682135 19077 net.cpp:395] relu2_1 -> conv2_1 (in-place)
I1203 23:22:04.682405 19077 net.cpp:150] Setting up relu2_1
I1203 23:22:04.682413 19077 net.cpp:157] Top shape: 1 128 384 384 (18874368)
I1203 23:22:04.682416 19077 net.cpp:165] Memory required for data: 813350044
I1203 23:22:04.682420 19077 layer_factory.hpp:77] Creating layer conv2_2
I1203 23:22:04.682430 19077 net.cpp:100] Creating Layer conv2_2
I1203 23:22:04.682435 19077 net.cpp:434] conv2_2 <- conv2_1
I1203 23:22:04.682440 19077 net.cpp:408] conv2_2 -> conv2_2
I1203 23:22:04.684811 19077 net.cpp:150] Setting up conv2_2
I1203 23:22:04.684842 19077 net.cpp:157] Top shape: 1 128 384 384 (18874368)
I1203 23:22:04.684846 19077 net.cpp:165] Memory required for data: 888847516
I1203 23:22:04.684857 19077 layer_factory.hpp:77] Creating layer relu2_2
I1203 23:22:04.684870 19077 net.cpp:100] Creating Layer relu2_2
I1203 23:22:04.684876 19077 net.cpp:434] relu2_2 <- conv2_2
I1203 23:22:04.684883 19077 net.cpp:395] relu2_2 -> conv2_2 (in-place)
I1203 23:22:04.685098 19077 net.cpp:150] Setting up relu2_2
I1203 23:22:04.685108 19077 net.cpp:157] Top shape: 1 128 384 384 (18874368)
I1203 23:22:04.685111 19077 net.cpp:165] Memory required for data: 964344988
I1203 23:22:04.685114 19077 layer_factory.hpp:77] Creating layer pool2
I1203 23:22:04.685122 19077 net.cpp:100] Creating Layer pool2
I1203 23:22:04.685125 19077 net.cpp:434] pool2 <- conv2_2
I1203 23:22:04.685132 19077 net.cpp:408] pool2 -> pool2
I1203 23:22:04.685181 19077 net.cpp:150] Setting up pool2
I1203 23:22:04.685189 19077 net.cpp:157] Top shape: 1 128 192 192 (4718592)
I1203 23:22:04.685191 19077 net.cpp:165] Memory required for data: 983219356
I1203 23:22:04.685194 19077 layer_factory.hpp:77] Creating layer conv3_1
I1203 23:22:04.685204 19077 net.cpp:100] Creating Layer conv3_1
I1203 23:22:04.685207 19077 net.cpp:434] conv3_1 <- pool2
I1203 23:22:04.685214 19077 net.cpp:408] conv3_1 -> conv3_1
I1203 23:22:04.689189 19077 net.cpp:150] Setting up conv3_1
I1203 23:22:04.689226 19077 net.cpp:157] Top shape: 1 256 192 192 (9437184)
I1203 23:22:04.689230 19077 net.cpp:165] Memory required for data: 1020968092
I1203 23:22:04.689250 19077 layer_factory.hpp:77] Creating layer relu3_1
I1203 23:22:04.689267 19077 net.cpp:100] Creating Layer relu3_1
I1203 23:22:04.689280 19077 net.cpp:434] relu3_1 <- conv3_1
I1203 23:22:04.689288 19077 net.cpp:395] relu3_1 -> conv3_1 (in-place)
I1203 23:22:04.689909 19077 net.cpp:150] Setting up relu3_1
I1203 23:22:04.689921 19077 net.cpp:157] Top shape: 1 256 192 192 (9437184)
I1203 23:22:04.689925 19077 net.cpp:165] Memory required for data: 1058716828
I1203 23:22:04.689929 19077 layer_factory.hpp:77] Creating layer conv3_2
I1203 23:22:04.689944 19077 net.cpp:100] Creating Layer conv3_2
I1203 23:22:04.689949 19077 net.cpp:434] conv3_2 <- conv3_1
I1203 23:22:04.689955 19077 net.cpp:408] conv3_2 -> conv3_2
I1203 23:22:04.694746 19077 net.cpp:150] Setting up conv3_2
I1203 23:22:04.694805 19077 net.cpp:157] Top shape: 1 256 192 192 (9437184)
I1203 23:22:04.694809 19077 net.cpp:165] Memory required for data: 1096465564
I1203 23:22:04.694826 19077 layer_factory.hpp:77] Creating layer relu3_2
I1203 23:22:04.694849 19077 net.cpp:100] Creating Layer relu3_2
I1203 23:22:04.694857 19077 net.cpp:434] relu3_2 <- conv3_2
I1203 23:22:04.694866 19077 net.cpp:395] relu3_2 -> conv3_2 (in-place)
I1203 23:22:04.698125 19077 net.cpp:150] Setting up relu3_2
I1203 23:22:04.698160 19077 net.cpp:157] Top shape: 1 256 192 192 (9437184)
I1203 23:22:04.698165 19077 net.cpp:165] Memory required for data: 1134214300
I1203 23:22:04.698174 19077 layer_factory.hpp:77] Creating layer conv3_3
I1203 23:22:04.698196 19077 net.cpp:100] Creating Layer conv3_3
I1203 23:22:04.698206 19077 net.cpp:434] conv3_3 <- conv3_2
I1203 23:22:04.698218 19077 net.cpp:408] conv3_3 -> conv3_3
I1203 23:22:04.701349 19077 net.cpp:150] Setting up conv3_3
I1203 23:22:04.701371 19077 net.cpp:157] Top shape: 1 256 192 192 (9437184)
I1203 23:22:04.701376 19077 net.cpp:165] Memory required for data: 1171963036
I1203 23:22:04.701386 19077 layer_factory.hpp:77] Creating layer relu3_3
I1203 23:22:04.701398 19077 net.cpp:100] Creating Layer relu3_3
I1203 23:22:04.701405 19077 net.cpp:434] relu3_3 <- conv3_3
I1203 23:22:04.701411 19077 net.cpp:395] relu3_3 -> conv3_3 (in-place)
I1203 23:22:04.701580 19077 net.cpp:150] Setting up relu3_3
I1203 23:22:04.701587 19077 net.cpp:157] Top shape: 1 256 192 192 (9437184)
I1203 23:22:04.701591 19077 net.cpp:165] Memory required for data: 1209711772
I1203 23:22:04.701594 19077 layer_factory.hpp:77] Creating layer pool3
I1203 23:22:04.701601 19077 net.cpp:100] Creating Layer pool3
I1203 23:22:04.701604 19077 net.cpp:434] pool3 <- conv3_3
I1203 23:22:04.701609 19077 net.cpp:408] pool3 -> pool3
I1203 23:22:04.701651 19077 net.cpp:150] Setting up pool3
I1203 23:22:04.701656 19077 net.cpp:157] Top shape: 1 256 96 96 (2359296)
I1203 23:22:04.701659 19077 net.cpp:165] Memory required for data: 1219148956
I1203 23:22:04.701663 19077 layer_factory.hpp:77] Creating layer conv4_1
I1203 23:22:04.701671 19077 net.cpp:100] Creating Layer conv4_1
I1203 23:22:04.701674 19077 net.cpp:434] conv4_1 <- pool3
I1203 23:22:04.701680 19077 net.cpp:408] conv4_1 -> conv4_1
I1203 23:22:04.708279 19077 net.cpp:150] Setting up conv4_1
I1203 23:22:04.708334 19077 net.cpp:157] Top shape: 1 512 96 96 (4718592)
I1203 23:22:04.708348 19077 net.cpp:165] Memory required for data: 1238023324
I1203 23:22:04.708431 19077 layer_factory.hpp:77] Creating layer relu4_1
I1203 23:22:04.708528 19077 net.cpp:100] Creating Layer relu4_1
I1203 23:22:04.708547 19077 net.cpp:434] relu4_1 <- conv4_1
I1203 23:22:04.708580 19077 net.cpp:395] relu4_1 -> conv4_1 (in-place)
I1203 23:22:04.709363 19077 net.cpp:150] Setting up relu4_1
I1203 23:22:04.709411 19077 net.cpp:157] Top shape: 1 512 96 96 (4718592)
I1203 23:22:04.709425 19077 net.cpp:165] Memory required for data: 1256897692
I1203 23:22:04.709439 19077 layer_factory.hpp:77] Creating layer conv4_2
I1203 23:22:04.709475 19077 net.cpp:100] Creating Layer conv4_2
I1203 23:22:04.709493 19077 net.cpp:434] conv4_2 <- conv4_1
I1203 23:22:04.709507 19077 net.cpp:408] conv4_2 -> conv4_2
I1203 23:22:04.725289 19077 net.cpp:150] Setting up conv4_2
I1203 23:22:04.725329 19077 net.cpp:157] Top shape: 1 512 96 96 (4718592)
I1203 23:22:04.725334 19077 net.cpp:165] Memory required for data: 1275772060
I1203 23:22:04.725360 19077 layer_factory.hpp:77] Creating layer relu4_2
I1203 23:22:04.725399 19077 net.cpp:100] Creating Layer relu4_2
I1203 23:22:04.725427 19077 net.cpp:434] relu4_2 <- conv4_2
I1203 23:22:04.725463 19077 net.cpp:395] relu4_2 -> conv4_2 (in-place)
I1203 23:22:04.725935 19077 net.cpp:150] Setting up relu4_2
I1203 23:22:04.725949 19077 net.cpp:157] Top shape: 1 512 96 96 (4718592)
I1203 23:22:04.725952 19077 net.cpp:165] Memory required for data: 1294646428
I1203 23:22:04.725956 19077 layer_factory.hpp:77] Creating layer conv4_3
I1203 23:22:04.725973 19077 net.cpp:100] Creating Layer conv4_3
I1203 23:22:04.725978 19077 net.cpp:434] conv4_3 <- conv4_2
I1203 23:22:04.725988 19077 net.cpp:408] conv4_3 -> conv4_3
I1203 23:22:04.734222 19077 net.cpp:150] Setting up conv4_3
I1203 23:22:04.734405 19077 net.cpp:157] Top shape: 1 512 96 96 (4718592)
I1203 23:22:04.734432 19077 net.cpp:165] Memory required for data: 1313520796
I1203 23:22:04.734477 19077 layer_factory.hpp:77] Creating layer relu4_3
I1203 23:22:04.734529 19077 net.cpp:100] Creating Layer relu4_3
I1203 23:22:04.734558 19077 net.cpp:434] relu4_3 <- conv4_3
I1203 23:22:04.734589 19077 net.cpp:395] relu4_3 -> conv4_3 (in-place)
I1203 23:22:04.734939 19077 net.cpp:150] Setting up relu4_3
I1203 23:22:04.734969 19077 net.cpp:157] Top shape: 1 512 96 96 (4718592)
I1203 23:22:04.734988 19077 net.cpp:165] Memory required for data: 1332395164
I1203 23:22:04.735007 19077 layer_factory.hpp:77] Creating layer conv4_3_relu4_3_0_split
I1203 23:22:04.735038 19077 net.cpp:100] Creating Layer conv4_3_relu4_3_0_split
I1203 23:22:04.735056 19077 net.cpp:434] conv4_3_relu4_3_0_split <- conv4_3
I1203 23:22:04.735077 19077 net.cpp:408] conv4_3_relu4_3_0_split -> conv4_3_relu4_3_0_split_0
I1203 23:22:04.735101 19077 net.cpp:408] conv4_3_relu4_3_0_split -> conv4_3_relu4_3_0_split_1
I1203 23:22:04.735126 19077 net.cpp:408] conv4_3_relu4_3_0_split -> conv4_3_relu4_3_0_split_2
I1203 23:22:04.735147 19077 net.cpp:408] conv4_3_relu4_3_0_split -> conv4_3_relu4_3_0_split_3
I1203 23:22:04.735281 19077 net.cpp:150] Setting up conv4_3_relu4_3_0_split
I1203 23:22:04.735292 19077 net.cpp:157] Top shape: 1 512 96 96 (4718592)
I1203 23:22:04.735297 19077 net.cpp:157] Top shape: 1 512 96 96 (4718592)
I1203 23:22:04.735302 19077 net.cpp:157] Top shape: 1 512 96 96 (4718592)
I1203 23:22:04.735307 19077 net.cpp:157] Top shape: 1 512 96 96 (4718592)
I1203 23:22:04.735311 19077 net.cpp:165] Memory required for data: 1407892636
I1203 23:22:04.735314 19077 layer_factory.hpp:77] Creating layer buffer
I1203 23:22:04.735329 19077 net.cpp:100] Creating Layer buffer
I1203 23:22:04.735333 19077 net.cpp:434] buffer <- conv4_3_relu4_3_0_split_0
I1203 23:22:04.735342 19077 net.cpp:408] buffer -> buffer
I1203 23:22:04.801328 19077 net.cpp:150] Setting up buffer
I1203 23:22:04.801354 19077 net.cpp:157] Top shape: 1 512 96 96 (4718592)
I1203 23:22:04.801359 19077 net.cpp:165] Memory required for data: 1426767004
I1203 23:22:04.801368 19077 layer_factory.hpp:77] Creating layer relu_buffer
I1203 23:22:04.801380 19077 net.cpp:100] Creating Layer relu_buffer
I1203 23:22:04.801385 19077 net.cpp:434] relu_buffer <- buffer
I1203 23:22:04.801391 19077 net.cpp:395] relu_buffer -> buffer (in-place)
I1203 23:22:04.801954 19077 net.cpp:150] Setting up relu_buffer
I1203 23:22:04.801966 19077 net.cpp:157] Top shape: 1 512 96 96 (4718592)
I1203 23:22:04.801970 19077 net.cpp:165] Memory required for data: 1445641372
I1203 23:22:04.801973 19077 layer_factory.hpp:77] Creating layer attention
I1203 23:22:04.801983 19077 net.cpp:100] Creating Layer attention
I1203 23:22:04.801986 19077 net.cpp:434] attention <- buffer
I1203 23:22:04.801993 19077 net.cpp:408] attention -> attention
I1203 23:22:04.810428 19077 net.cpp:150] Setting up attention
I1203 23:22:04.810447 19077 net.cpp:157] Top shape: 1 3 96 96 (27648)
I1203 23:22:04.810452 19077 net.cpp:165] Memory required for data: 1445751964
I1203 23:22:04.810461 19077 layer_factory.hpp:77] Creating layer attention_attention_0_split
I1203 23:22:04.810472 19077 net.cpp:100] Creating Layer attention_attention_0_split
I1203 23:22:04.810478 19077 net.cpp:434] attention_attention_0_split <- attention
I1203 23:22:04.810485 19077 net.cpp:408] attention_attention_0_split -> attention_attention_0_split_0
I1203 23:22:04.810494 19077 net.cpp:408] attention_attention_0_split -> attention_attention_0_split_1
I1203 23:22:04.810559 19077 net.cpp:150] Setting up attention_attention_0_split
I1203 23:22:04.810570 19077 net.cpp:157] Top shape: 1 3 96 96 (27648)
I1203 23:22:04.810575 19077 net.cpp:157] Top shape: 1 3 96 96 (27648)
I1203 23:22:04.810580 19077 net.cpp:165] Memory required for data: 1445973148
I1203 23:22:04.810583 19077 layer_factory.hpp:77] Creating layer ch4_pool
I1203 23:22:04.810591 19077 net.cpp:100] Creating Layer ch4_pool
I1203 23:22:04.810596 19077 net.cpp:434] ch4_pool <- ch4
I1203 23:22:04.810603 19077 net.cpp:408] ch4_pool -> ch4_pool
I1203 23:22:04.810657 19077 net.cpp:150] Setting up ch4_pool
I1203 23:22:04.810667 19077 net.cpp:157] Top shape: 1 1 96 96 (9216)
I1203 23:22:04.810670 19077 net.cpp:165] Memory required for data: 1446010012
I1203 23:22:04.810674 19077 layer_factory.hpp:77] Creating layer loss_attention
I1203 23:22:04.810684 19077 net.cpp:100] Creating Layer loss_attention
I1203 23:22:04.810689 19077 net.cpp:434] loss_attention <- attention_attention_0_split_0
I1203 23:22:04.810695 19077 net.cpp:434] loss_attention <- ch4_pool
I1203 23:22:04.810703 19077 net.cpp:408] loss_attention -> loss_attention
I1203 23:22:04.810714 19077 layer_factory.hpp:77] Creating layer loss_attention
I1203 23:22:04.811527 19077 weighted_softmax_loss_layer.cpp:25] mult: 1, id: 0
I1203 23:22:04.811578 19077 net.cpp:150] Setting up loss_attention
I1203 23:22:04.811585 19077 net.cpp:157] Top shape: (1)
I1203 23:22:04.811590 19077 net.cpp:160]     with loss weight 1
I1203 23:22:04.811596 19077 net.cpp:165] Memory required for data: 1446010016
I1203 23:22:04.811601 19077 layer_factory.hpp:77] Creating layer loss1_conv1
I1203 23:22:04.811616 19077 net.cpp:100] Creating Layer loss1_conv1
I1203 23:22:04.811622 19077 net.cpp:434] loss1_conv1 <- conv4_3_relu4_3_0_split_1
I1203 23:22:04.811630 19077 net.cpp:408] loss1_conv1 -> loss1_conv1
I1203 23:22:04.880828 19077 net.cpp:150] Setting up loss1_conv1
I1203 23:22:04.880882 19077 net.cpp:157] Top shape: 1 512 96 96 (4718592)
I1203 23:22:04.880887 19077 net.cpp:165] Memory required for data: 1464884384
I1203 23:22:04.880957 19077 layer_factory.hpp:77] Creating layer loss_relu1
I1203 23:22:04.881023 19077 net.cpp:100] Creating Layer loss_relu1
I1203 23:22:04.881045 19077 net.cpp:434] loss_relu1 <- loss1_conv1
I1203 23:22:04.881076 19077 net.cpp:395] loss_relu1 -> loss1_conv1 (in-place)
I1203 23:22:04.881319 19077 net.cpp:150] Setting up loss_relu1
I1203 23:22:04.881330 19077 net.cpp:157] Top shape: 1 512 96 96 (4718592)
I1203 23:22:04.881332 19077 net.cpp:165] Memory required for data: 1483758752
I1203 23:22:04.881336 19077 layer_factory.hpp:77] Creating layer loss1_conv1_loss_relu1_0_split
I1203 23:22:04.881345 19077 net.cpp:100] Creating Layer loss1_conv1_loss_relu1_0_split
I1203 23:22:04.881348 19077 net.cpp:434] loss1_conv1_loss_relu1_0_split <- loss1_conv1
I1203 23:22:04.881356 19077 net.cpp:408] loss1_conv1_loss_relu1_0_split -> loss1_conv1_loss_relu1_0_split_0
I1203 23:22:04.881364 19077 net.cpp:408] loss1_conv1_loss_relu1_0_split -> loss1_conv1_loss_relu1_0_split_1
I1203 23:22:04.881426 19077 net.cpp:150] Setting up loss1_conv1_loss_relu1_0_split
I1203 23:22:04.881433 19077 net.cpp:157] Top shape: 1 512 96 96 (4718592)
I1203 23:22:04.881438 19077 net.cpp:157] Top shape: 1 512 96 96 (4718592)
I1203 23:22:04.881440 19077 net.cpp:165] Memory required for data: 1521507488
I1203 23:22:04.881443 19077 layer_factory.hpp:77] Creating layer LFCN_1_5x5
I1203 23:22:04.881462 19077 net.cpp:100] Creating Layer LFCN_1_5x5
I1203 23:22:04.881466 19077 net.cpp:434] LFCN_1_5x5 <- loss1_conv1_loss_relu1_0_split_0
I1203 23:22:04.881474 19077 net.cpp:408] LFCN_1_5x5 -> LFCN_1_5x5
I1203 23:22:04.887455 19077 net.cpp:150] Setting up LFCN_1_5x5
I1203 23:22:04.887483 19077 net.cpp:157] Top shape: 1 9 96 96 (82944)
I1203 23:22:04.887488 19077 net.cpp:165] Memory required for data: 1521839264
I1203 23:22:04.887498 19077 layer_factory.hpp:77] Creating layer LFCN_1_5x5_LFCN_1_5x5_0_split
I1203 23:22:04.887509 19077 net.cpp:100] Creating Layer LFCN_1_5x5_LFCN_1_5x5_0_split
I1203 23:22:04.887514 19077 net.cpp:434] LFCN_1_5x5_LFCN_1_5x5_0_split <- LFCN_1_5x5
I1203 23:22:04.887521 19077 net.cpp:408] LFCN_1_5x5_LFCN_1_5x5_0_split -> LFCN_1_5x5_LFCN_1_5x5_0_split_0
I1203 23:22:04.887529 19077 net.cpp:408] LFCN_1_5x5_LFCN_1_5x5_0_split -> LFCN_1_5x5_LFCN_1_5x5_0_split_1
I1203 23:22:04.887536 19077 net.cpp:408] LFCN_1_5x5_LFCN_1_5x5_0_split -> LFCN_1_5x5_LFCN_1_5x5_0_split_2
I1203 23:22:04.887589 19077 net.cpp:150] Setting up LFCN_1_5x5_LFCN_1_5x5_0_split
I1203 23:22:04.887596 19077 net.cpp:157] Top shape: 1 9 96 96 (82944)
I1203 23:22:04.887600 19077 net.cpp:157] Top shape: 1 9 96 96 (82944)
I1203 23:22:04.887604 19077 net.cpp:157] Top shape: 1 9 96 96 (82944)
I1203 23:22:04.887607 19077 net.cpp:165] Memory required for data: 1522834592
I1203 23:22:04.887611 19077 layer_factory.hpp:77] Creating layer detection_loss_1_5x5
I1203 23:22:04.887619 19077 net.cpp:100] Creating Layer detection_loss_1_5x5
I1203 23:22:04.887624 19077 net.cpp:434] detection_loss_1_5x5 <- LFCN_1_5x5_LFCN_1_5x5_0_split_0
I1203 23:22:04.887627 19077 net.cpp:434] detection_loss_1_5x5 <- label_1_5x5_data_1_split_0
I1203 23:22:04.887634 19077 net.cpp:408] detection_loss_1_5x5 -> loss_1_5x5
I1203 23:22:04.887642 19077 layer_factory.hpp:77] Creating layer detection_loss_1_5x5
I1203 23:22:04.888813 19077 net.cpp:150] Setting up detection_loss_1_5x5
I1203 23:22:04.888824 19077 net.cpp:157] Top shape: 1 1 1 2 (2)
I1203 23:22:04.888828 19077 net.cpp:160]     with loss weight 0.9
I1203 23:22:04.888839 19077 net.cpp:165] Memory required for data: 1522834600
I1203 23:22:04.888841 19077 layer_factory.hpp:77] Creating layer detection_accuracy_1_5x5
I1203 23:22:04.888850 19077 net.cpp:100] Creating Layer detection_accuracy_1_5x5
I1203 23:22:04.888854 19077 net.cpp:434] detection_accuracy_1_5x5 <- LFCN_1_5x5_LFCN_1_5x5_0_split_1
I1203 23:22:04.888859 19077 net.cpp:434] detection_accuracy_1_5x5 <- label_1_5x5_data_1_split_1
I1203 23:22:04.888864 19077 net.cpp:408] detection_accuracy_1_5x5 -> accuracy_1_5x5
I1203 23:22:04.888870 19077 net.cpp:408] detection_accuracy_1_5x5 -> boxiou_1_5x5
I1203 23:22:04.888936 19077 net.cpp:150] Setting up detection_accuracy_1_5x5
I1203 23:22:04.888955 19077 net.cpp:157] Top shape: 1 1 1 2 (2)
I1203 23:22:04.888964 19077 net.cpp:157] Top shape: 1 1 1 1 (1)
I1203 23:22:04.888974 19077 net.cpp:165] Memory required for data: 1522834612
I1203 23:22:04.888983 19077 layer_factory.hpp:77] Creating layer LFCN_1_7x7
I1203 23:22:04.888998 19077 net.cpp:100] Creating Layer LFCN_1_7x7
I1203 23:22:04.889001 19077 net.cpp:434] LFCN_1_7x7 <- loss1_conv1_loss_relu1_0_split_1
I1203 23:22:04.889008 19077 net.cpp:408] LFCN_1_7x7 -> LFCN_1_7x7
I1203 23:22:04.897354 19077 net.cpp:150] Setting up LFCN_1_7x7
I1203 23:22:04.897380 19077 net.cpp:157] Top shape: 1 9 96 96 (82944)
I1203 23:22:04.897384 19077 net.cpp:165] Memory required for data: 1523166388
I1203 23:22:04.897393 19077 layer_factory.hpp:77] Creating layer LFCN_1_7x7_LFCN_1_7x7_0_split
I1203 23:22:04.897404 19077 net.cpp:100] Creating Layer LFCN_1_7x7_LFCN_1_7x7_0_split
I1203 23:22:04.897410 19077 net.cpp:434] LFCN_1_7x7_LFCN_1_7x7_0_split <- LFCN_1_7x7
I1203 23:22:04.897416 19077 net.cpp:408] LFCN_1_7x7_LFCN_1_7x7_0_split -> LFCN_1_7x7_LFCN_1_7x7_0_split_0
I1203 23:22:04.897424 19077 net.cpp:408] LFCN_1_7x7_LFCN_1_7x7_0_split -> LFCN_1_7x7_LFCN_1_7x7_0_split_1
I1203 23:22:04.897429 19077 net.cpp:408] LFCN_1_7x7_LFCN_1_7x7_0_split -> LFCN_1_7x7_LFCN_1_7x7_0_split_2
I1203 23:22:04.897485 19077 net.cpp:150] Setting up LFCN_1_7x7_LFCN_1_7x7_0_split
I1203 23:22:04.897496 19077 net.cpp:157] Top shape: 1 9 96 96 (82944)
I1203 23:22:04.897501 19077 net.cpp:157] Top shape: 1 9 96 96 (82944)
I1203 23:22:04.897505 19077 net.cpp:157] Top shape: 1 9 96 96 (82944)
I1203 23:22:04.897508 19077 net.cpp:165] Memory required for data: 1524161716
I1203 23:22:04.897511 19077 layer_factory.hpp:77] Creating layer detection_loss_1_7x7
I1203 23:22:04.897519 19077 net.cpp:100] Creating Layer detection_loss_1_7x7
I1203 23:22:04.897523 19077 net.cpp:434] detection_loss_1_7x7 <- LFCN_1_7x7_LFCN_1_7x7_0_split_0
I1203 23:22:04.897528 19077 net.cpp:434] detection_loss_1_7x7 <- label_1_7x7_data_2_split_0
I1203 23:22:04.897534 19077 net.cpp:408] detection_loss_1_7x7 -> loss_1_7x7
I1203 23:22:04.897542 19077 layer_factory.hpp:77] Creating layer detection_loss_1_7x7
I1203 23:22:04.897931 19077 net.cpp:150] Setting up detection_loss_1_7x7
I1203 23:22:04.897943 19077 net.cpp:157] Top shape: 1 1 1 2 (2)
I1203 23:22:04.897946 19077 net.cpp:160]     with loss weight 0.9
I1203 23:22:04.897958 19077 net.cpp:165] Memory required for data: 1524161724
I1203 23:22:04.897960 19077 layer_factory.hpp:77] Creating layer detection_accuracy_1_7x7
I1203 23:22:04.897967 19077 net.cpp:100] Creating Layer detection_accuracy_1_7x7
I1203 23:22:04.897971 19077 net.cpp:434] detection_accuracy_1_7x7 <- LFCN_1_7x7_LFCN_1_7x7_0_split_1
I1203 23:22:04.897975 19077 net.cpp:434] detection_accuracy_1_7x7 <- label_1_7x7_data_2_split_1
I1203 23:22:04.897981 19077 net.cpp:408] detection_accuracy_1_7x7 -> accuracy_1_7x7
I1203 23:22:04.897989 19077 net.cpp:408] detection_accuracy_1_7x7 -> boxiou_1_7x7
I1203 23:22:04.898038 19077 net.cpp:150] Setting up detection_accuracy_1_7x7
I1203 23:22:04.898046 19077 net.cpp:157] Top shape: 1 1 1 2 (2)
I1203 23:22:04.898049 19077 net.cpp:157] Top shape: 1 1 1 1 (1)
I1203 23:22:04.898052 19077 net.cpp:165] Memory required for data: 1524161736
I1203 23:22:04.898056 19077 layer_factory.hpp:77] Creating layer pool4
I1203 23:22:04.898063 19077 net.cpp:100] Creating Layer pool4
I1203 23:22:04.898067 19077 net.cpp:434] pool4 <- conv4_3_relu4_3_0_split_2
I1203 23:22:04.898072 19077 net.cpp:408] pool4 -> pool4
I1203 23:22:04.898111 19077 net.cpp:150] Setting up pool4
I1203 23:22:04.898118 19077 net.cpp:157] Top shape: 1 512 48 48 (1179648)
I1203 23:22:04.898121 19077 net.cpp:165] Memory required for data: 1528880328
I1203 23:22:04.898124 19077 layer_factory.hpp:77] Creating layer conv5_1
I1203 23:22:04.898133 19077 net.cpp:100] Creating Layer conv5_1
I1203 23:22:04.898135 19077 net.cpp:434] conv5_1 <- pool4
I1203 23:22:04.898140 19077 net.cpp:408] conv5_1 -> conv5_1
I1203 23:22:04.907546 19077 net.cpp:150] Setting up conv5_1
I1203 23:22:04.907578 19077 net.cpp:157] Top shape: 1 512 48 48 (1179648)
I1203 23:22:04.907582 19077 net.cpp:165] Memory required for data: 1533598920
I1203 23:22:04.907593 19077 layer_factory.hpp:77] Creating layer relu5_1
I1203 23:22:04.907603 19077 net.cpp:100] Creating Layer relu5_1
I1203 23:22:04.907610 19077 net.cpp:434] relu5_1 <- conv5_1
I1203 23:22:04.907616 19077 net.cpp:395] relu5_1 -> conv5_1 (in-place)
I1203 23:22:04.907786 19077 net.cpp:150] Setting up relu5_1
I1203 23:22:04.907795 19077 net.cpp:157] Top shape: 1 512 48 48 (1179648)
I1203 23:22:04.907799 19077 net.cpp:165] Memory required for data: 1538317512
I1203 23:22:04.907802 19077 layer_factory.hpp:77] Creating layer conv5_2
I1203 23:22:04.907812 19077 net.cpp:100] Creating Layer conv5_2
I1203 23:22:04.907815 19077 net.cpp:434] conv5_2 <- conv5_1
I1203 23:22:04.907821 19077 net.cpp:408] conv5_2 -> conv5_2
I1203 23:22:04.915859 19077 net.cpp:150] Setting up conv5_2
I1203 23:22:04.915904 19077 net.cpp:157] Top shape: 1 512 48 48 (1179648)
I1203 23:22:04.915907 19077 net.cpp:165] Memory required for data: 1543036104
I1203 23:22:04.915928 19077 layer_factory.hpp:77] Creating layer relu5_2
I1203 23:22:04.915944 19077 net.cpp:100] Creating Layer relu5_2
I1203 23:22:04.915951 19077 net.cpp:434] relu5_2 <- conv5_2
I1203 23:22:04.915958 19077 net.cpp:395] relu5_2 -> conv5_2 (in-place)
I1203 23:22:04.916702 19077 net.cpp:150] Setting up relu5_2
I1203 23:22:04.916715 19077 net.cpp:157] Top shape: 1 512 48 48 (1179648)
I1203 23:22:04.916719 19077 net.cpp:165] Memory required for data: 1547754696
I1203 23:22:04.916723 19077 layer_factory.hpp:77] Creating layer conv5_3
I1203 23:22:04.916734 19077 net.cpp:100] Creating Layer conv5_3
I1203 23:22:04.916738 19077 net.cpp:434] conv5_3 <- conv5_2
I1203 23:22:04.916743 19077 net.cpp:408] conv5_3 -> conv5_3
I1203 23:22:04.923269 19077 net.cpp:150] Setting up conv5_3
I1203 23:22:04.923307 19077 net.cpp:157] Top shape: 1 512 48 48 (1179648)
I1203 23:22:04.923312 19077 net.cpp:165] Memory required for data: 1552473288
I1203 23:22:04.923321 19077 layer_factory.hpp:77] Creating layer relu5_3
I1203 23:22:04.923336 19077 net.cpp:100] Creating Layer relu5_3
I1203 23:22:04.923342 19077 net.cpp:434] relu5_3 <- conv5_3
I1203 23:22:04.923348 19077 net.cpp:395] relu5_3 -> conv5_3 (in-place)
I1203 23:22:04.924043 19077 net.cpp:150] Setting up relu5_3
I1203 23:22:04.924060 19077 net.cpp:157] Top shape: 1 512 48 48 (1179648)
I1203 23:22:04.924064 19077 net.cpp:165] Memory required for data: 1557191880
I1203 23:22:04.924068 19077 layer_factory.hpp:77] Creating layer conv5_3_relu5_3_0_split
I1203 23:22:04.924074 19077 net.cpp:100] Creating Layer conv5_3_relu5_3_0_split
I1203 23:22:04.924078 19077 net.cpp:434] conv5_3_relu5_3_0_split <- conv5_3
I1203 23:22:04.924083 19077 net.cpp:408] conv5_3_relu5_3_0_split -> conv5_3_relu5_3_0_split_0
I1203 23:22:04.924091 19077 net.cpp:408] conv5_3_relu5_3_0_split -> conv5_3_relu5_3_0_split_1
I1203 23:22:04.924098 19077 net.cpp:408] conv5_3_relu5_3_0_split -> conv5_3_relu5_3_0_split_2
I1203 23:22:04.924155 19077 net.cpp:150] Setting up conv5_3_relu5_3_0_split
I1203 23:22:04.924162 19077 net.cpp:157] Top shape: 1 512 48 48 (1179648)
I1203 23:22:04.924166 19077 net.cpp:157] Top shape: 1 512 48 48 (1179648)
I1203 23:22:04.924170 19077 net.cpp:157] Top shape: 1 512 48 48 (1179648)
I1203 23:22:04.924173 19077 net.cpp:165] Memory required for data: 1571347656
I1203 23:22:04.924177 19077 layer_factory.hpp:77] Creating layer LFCN_2_5x5
I1203 23:22:04.924187 19077 net.cpp:100] Creating Layer LFCN_2_5x5
I1203 23:22:04.924192 19077 net.cpp:434] LFCN_2_5x5 <- conv5_3_relu5_3_0_split_0
I1203 23:22:04.924201 19077 net.cpp:408] LFCN_2_5x5 -> LFCN_2_5x5
I1203 23:22:04.928242 19077 net.cpp:150] Setting up LFCN_2_5x5
I1203 23:22:04.928256 19077 net.cpp:157] Top shape: 1 9 48 48 (20736)
I1203 23:22:04.928258 19077 net.cpp:165] Memory required for data: 1571430600
I1203 23:22:04.928264 19077 layer_factory.hpp:77] Creating layer LFCN_2_5x5_LFCN_2_5x5_0_split
I1203 23:22:04.928270 19077 net.cpp:100] Creating Layer LFCN_2_5x5_LFCN_2_5x5_0_split
I1203 23:22:04.928273 19077 net.cpp:434] LFCN_2_5x5_LFCN_2_5x5_0_split <- LFCN_2_5x5
I1203 23:22:04.928280 19077 net.cpp:408] LFCN_2_5x5_LFCN_2_5x5_0_split -> LFCN_2_5x5_LFCN_2_5x5_0_split_0
I1203 23:22:04.928287 19077 net.cpp:408] LFCN_2_5x5_LFCN_2_5x5_0_split -> LFCN_2_5x5_LFCN_2_5x5_0_split_1
I1203 23:22:04.928292 19077 net.cpp:408] LFCN_2_5x5_LFCN_2_5x5_0_split -> LFCN_2_5x5_LFCN_2_5x5_0_split_2
I1203 23:22:04.928350 19077 net.cpp:150] Setting up LFCN_2_5x5_LFCN_2_5x5_0_split
I1203 23:22:04.928360 19077 net.cpp:157] Top shape: 1 9 48 48 (20736)
I1203 23:22:04.928366 19077 net.cpp:157] Top shape: 1 9 48 48 (20736)
I1203 23:22:04.928371 19077 net.cpp:157] Top shape: 1 9 48 48 (20736)
I1203 23:22:04.928376 19077 net.cpp:165] Memory required for data: 1571679432
I1203 23:22:04.928380 19077 layer_factory.hpp:77] Creating layer detection_loss_2_5x5
I1203 23:22:04.928390 19077 net.cpp:100] Creating Layer detection_loss_2_5x5
I1203 23:22:04.928396 19077 net.cpp:434] detection_loss_2_5x5 <- LFCN_2_5x5_LFCN_2_5x5_0_split_0
I1203 23:22:04.928403 19077 net.cpp:434] detection_loss_2_5x5 <- label_2_5x5_data_3_split_0
I1203 23:22:04.928413 19077 net.cpp:408] detection_loss_2_5x5 -> loss_2_5x5
I1203 23:22:04.928426 19077 layer_factory.hpp:77] Creating layer detection_loss_2_5x5
I1203 23:22:04.928829 19077 net.cpp:150] Setting up detection_loss_2_5x5
I1203 23:22:04.928936 19077 net.cpp:157] Top shape: 1 1 1 2 (2)
I1203 23:22:04.928946 19077 net.cpp:160]     with loss weight 1
I1203 23:22:04.929002 19077 net.cpp:165] Memory required for data: 1571679440
I1203 23:22:04.929014 19077 layer_factory.hpp:77] Creating layer detection_accuracy_2_5x5
I1203 23:22:04.929083 19077 net.cpp:100] Creating Layer detection_accuracy_2_5x5
I1203 23:22:04.929107 19077 net.cpp:434] detection_accuracy_2_5x5 <- LFCN_2_5x5_LFCN_2_5x5_0_split_1
I1203 23:22:04.929131 19077 net.cpp:434] detection_accuracy_2_5x5 <- label_2_5x5_data_3_split_1
I1203 23:22:04.929159 19077 net.cpp:408] detection_accuracy_2_5x5 -> accuracy_2_5x5
I1203 23:22:04.929186 19077 net.cpp:408] detection_accuracy_2_5x5 -> boxiou_2_5x5
I1203 23:22:04.929522 19077 net.cpp:150] Setting up detection_accuracy_2_5x5
I1203 23:22:04.929569 19077 net.cpp:157] Top shape: 1 1 1 2 (2)
I1203 23:22:04.929587 19077 net.cpp:157] Top shape: 1 1 1 1 (1)
I1203 23:22:04.929594 19077 net.cpp:165] Memory required for data: 1571679452
I1203 23:22:04.929605 19077 layer_factory.hpp:77] Creating layer LFCN_2_7x7
I1203 23:22:04.929652 19077 net.cpp:100] Creating Layer LFCN_2_7x7
I1203 23:22:04.929673 19077 net.cpp:434] LFCN_2_7x7 <- conv5_3_relu5_3_0_split_1
I1203 23:22:04.929699 19077 net.cpp:408] LFCN_2_7x7 -> LFCN_2_7x7
I1203 23:22:04.938668 19077 net.cpp:150] Setting up LFCN_2_7x7
I1203 23:22:04.938695 19077 net.cpp:157] Top shape: 1 9 48 48 (20736)
I1203 23:22:04.938699 19077 net.cpp:165] Memory required for data: 1571762396
I1203 23:22:04.938709 19077 layer_factory.hpp:77] Creating layer LFCN_2_7x7_LFCN_2_7x7_0_split
I1203 23:22:04.938720 19077 net.cpp:100] Creating Layer LFCN_2_7x7_LFCN_2_7x7_0_split
I1203 23:22:04.938726 19077 net.cpp:434] LFCN_2_7x7_LFCN_2_7x7_0_split <- LFCN_2_7x7
I1203 23:22:04.938735 19077 net.cpp:408] LFCN_2_7x7_LFCN_2_7x7_0_split -> LFCN_2_7x7_LFCN_2_7x7_0_split_0
I1203 23:22:04.938745 19077 net.cpp:408] LFCN_2_7x7_LFCN_2_7x7_0_split -> LFCN_2_7x7_LFCN_2_7x7_0_split_1
I1203 23:22:04.938751 19077 net.cpp:408] LFCN_2_7x7_LFCN_2_7x7_0_split -> LFCN_2_7x7_LFCN_2_7x7_0_split_2
I1203 23:22:04.938820 19077 net.cpp:150] Setting up LFCN_2_7x7_LFCN_2_7x7_0_split
I1203 23:22:04.938828 19077 net.cpp:157] Top shape: 1 9 48 48 (20736)
I1203 23:22:04.938833 19077 net.cpp:157] Top shape: 1 9 48 48 (20736)
I1203 23:22:04.938838 19077 net.cpp:157] Top shape: 1 9 48 48 (20736)
I1203 23:22:04.938843 19077 net.cpp:165] Memory required for data: 1572011228
I1203 23:22:04.938846 19077 layer_factory.hpp:77] Creating layer detection_loss_2_7x7
I1203 23:22:04.938860 19077 net.cpp:100] Creating Layer detection_loss_2_7x7
I1203 23:22:04.938866 19077 net.cpp:434] detection_loss_2_7x7 <- LFCN_2_7x7_LFCN_2_7x7_0_split_0
I1203 23:22:04.938874 19077 net.cpp:434] detection_loss_2_7x7 <- label_2_7x7_data_4_split_0
I1203 23:22:04.938881 19077 net.cpp:408] detection_loss_2_7x7 -> loss_2_7x7
I1203 23:22:04.938891 19077 layer_factory.hpp:77] Creating layer detection_loss_2_7x7
I1203 23:22:04.939270 19077 net.cpp:150] Setting up detection_loss_2_7x7
I1203 23:22:04.939278 19077 net.cpp:157] Top shape: 1 1 1 2 (2)
I1203 23:22:04.939282 19077 net.cpp:160]     with loss weight 1
I1203 23:22:04.939292 19077 net.cpp:165] Memory required for data: 1572011236
I1203 23:22:04.939296 19077 layer_factory.hpp:77] Creating layer detection_accuracy_2_7x7
I1203 23:22:04.939302 19077 net.cpp:100] Creating Layer detection_accuracy_2_7x7
I1203 23:22:04.939306 19077 net.cpp:434] detection_accuracy_2_7x7 <- LFCN_2_7x7_LFCN_2_7x7_0_split_1
I1203 23:22:04.939311 19077 net.cpp:434] detection_accuracy_2_7x7 <- label_2_7x7_data_4_split_1
I1203 23:22:04.939317 19077 net.cpp:408] detection_accuracy_2_7x7 -> accuracy_2_7x7
I1203 23:22:04.939323 19077 net.cpp:408] detection_accuracy_2_7x7 -> boxiou_2_7x7
I1203 23:22:04.939366 19077 net.cpp:150] Setting up detection_accuracy_2_7x7
I1203 23:22:04.939373 19077 net.cpp:157] Top shape: 1 1 1 2 (2)
I1203 23:22:04.939376 19077 net.cpp:157] Top shape: 1 1 1 1 (1)
I1203 23:22:04.939379 19077 net.cpp:165] Memory required for data: 1572011248
I1203 23:22:04.939383 19077 layer_factory.hpp:77] Creating layer pool5
I1203 23:22:04.939391 19077 net.cpp:100] Creating Layer pool5
I1203 23:22:04.939397 19077 net.cpp:434] pool5 <- conv5_3_relu5_3_0_split_2
I1203 23:22:04.939404 19077 net.cpp:408] pool5 -> pool5
I1203 23:22:04.939443 19077 net.cpp:150] Setting up pool5
I1203 23:22:04.939450 19077 net.cpp:157] Top shape: 1 512 24 24 (294912)
I1203 23:22:04.939452 19077 net.cpp:165] Memory required for data: 1573190896
I1203 23:22:04.939455 19077 layer_factory.hpp:77] Creating layer conv6_1
I1203 23:22:04.939465 19077 net.cpp:100] Creating Layer conv6_1
I1203 23:22:04.939469 19077 net.cpp:434] conv6_1 <- pool5
I1203 23:22:04.939476 19077 net.cpp:408] conv6_1 -> conv6_1
I1203 23:22:05.006254 19077 net.cpp:150] Setting up conv6_1
I1203 23:22:05.006286 19077 net.cpp:157] Top shape: 1 512 24 24 (294912)
I1203 23:22:05.006291 19077 net.cpp:165] Memory required for data: 1574370544
I1203 23:22:05.006301 19077 layer_factory.hpp:77] Creating layer relu6_1
I1203 23:22:05.006322 19077 net.cpp:100] Creating Layer relu6_1
I1203 23:22:05.006332 19077 net.cpp:434] relu6_1 <- conv6_1
I1203 23:22:05.006342 19077 net.cpp:395] relu6_1 -> conv6_1 (in-place)
I1203 23:22:05.006525 19077 net.cpp:150] Setting up relu6_1
I1203 23:22:05.006534 19077 net.cpp:157] Top shape: 1 512 24 24 (294912)
I1203 23:22:05.006538 19077 net.cpp:165] Memory required for data: 1575550192
I1203 23:22:05.006541 19077 layer_factory.hpp:77] Creating layer conv6_1_relu6_1_0_split
I1203 23:22:05.006549 19077 net.cpp:100] Creating Layer conv6_1_relu6_1_0_split
I1203 23:22:05.006552 19077 net.cpp:434] conv6_1_relu6_1_0_split <- conv6_1
I1203 23:22:05.006557 19077 net.cpp:408] conv6_1_relu6_1_0_split -> conv6_1_relu6_1_0_split_0
I1203 23:22:05.006564 19077 net.cpp:408] conv6_1_relu6_1_0_split -> conv6_1_relu6_1_0_split_1
I1203 23:22:05.006569 19077 net.cpp:408] conv6_1_relu6_1_0_split -> conv6_1_relu6_1_0_split_2
I1203 23:22:05.006625 19077 net.cpp:150] Setting up conv6_1_relu6_1_0_split
I1203 23:22:05.006633 19077 net.cpp:157] Top shape: 1 512 24 24 (294912)
I1203 23:22:05.006636 19077 net.cpp:157] Top shape: 1 512 24 24 (294912)
I1203 23:22:05.006640 19077 net.cpp:157] Top shape: 1 512 24 24 (294912)
I1203 23:22:05.006644 19077 net.cpp:165] Memory required for data: 1579089136
I1203 23:22:05.006646 19077 layer_factory.hpp:77] Creating layer LFCN_3_5x5
I1203 23:22:05.006659 19077 net.cpp:100] Creating Layer LFCN_3_5x5
I1203 23:22:05.006662 19077 net.cpp:434] LFCN_3_5x5 <- conv6_1_relu6_1_0_split_0
I1203 23:22:05.006669 19077 net.cpp:408] LFCN_3_5x5 -> LFCN_3_5x5
I1203 23:22:05.010884 19077 net.cpp:150] Setting up LFCN_3_5x5
I1203 23:22:05.010896 19077 net.cpp:157] Top shape: 1 9 24 24 (5184)
I1203 23:22:05.010900 19077 net.cpp:165] Memory required for data: 1579109872
I1203 23:22:05.010906 19077 layer_factory.hpp:77] Creating layer LFCN_3_5x5_LFCN_3_5x5_0_split
I1203 23:22:05.010915 19077 net.cpp:100] Creating Layer LFCN_3_5x5_LFCN_3_5x5_0_split
I1203 23:22:05.010918 19077 net.cpp:434] LFCN_3_5x5_LFCN_3_5x5_0_split <- LFCN_3_5x5
I1203 23:22:05.010924 19077 net.cpp:408] LFCN_3_5x5_LFCN_3_5x5_0_split -> LFCN_3_5x5_LFCN_3_5x5_0_split_0
I1203 23:22:05.010931 19077 net.cpp:408] LFCN_3_5x5_LFCN_3_5x5_0_split -> LFCN_3_5x5_LFCN_3_5x5_0_split_1
I1203 23:22:05.010937 19077 net.cpp:408] LFCN_3_5x5_LFCN_3_5x5_0_split -> LFCN_3_5x5_LFCN_3_5x5_0_split_2
I1203 23:22:05.010996 19077 net.cpp:150] Setting up LFCN_3_5x5_LFCN_3_5x5_0_split
I1203 23:22:05.011003 19077 net.cpp:157] Top shape: 1 9 24 24 (5184)
I1203 23:22:05.011008 19077 net.cpp:157] Top shape: 1 9 24 24 (5184)
I1203 23:22:05.011013 19077 net.cpp:157] Top shape: 1 9 24 24 (5184)
I1203 23:22:05.011015 19077 net.cpp:165] Memory required for data: 1579172080
I1203 23:22:05.011018 19077 layer_factory.hpp:77] Creating layer detection_loss_3_5x5
I1203 23:22:05.011025 19077 net.cpp:100] Creating Layer detection_loss_3_5x5
I1203 23:22:05.011029 19077 net.cpp:434] detection_loss_3_5x5 <- LFCN_3_5x5_LFCN_3_5x5_0_split_0
I1203 23:22:05.011035 19077 net.cpp:434] detection_loss_3_5x5 <- label_3_5x5_data_5_split_0
I1203 23:22:05.011041 19077 net.cpp:408] detection_loss_3_5x5 -> loss_3_5x5
I1203 23:22:05.011050 19077 layer_factory.hpp:77] Creating layer detection_loss_3_5x5
I1203 23:22:05.011399 19077 net.cpp:150] Setting up detection_loss_3_5x5
I1203 23:22:05.011410 19077 net.cpp:157] Top shape: 1 1 1 2 (2)
I1203 23:22:05.011413 19077 net.cpp:160]     with loss weight 1
I1203 23:22:05.011423 19077 net.cpp:165] Memory required for data: 1579172088
I1203 23:22:05.011427 19077 layer_factory.hpp:77] Creating layer detection_accuracy_3_5x5
I1203 23:22:05.011435 19077 net.cpp:100] Creating Layer detection_accuracy_3_5x5
I1203 23:22:05.011437 19077 net.cpp:434] detection_accuracy_3_5x5 <- LFCN_3_5x5_LFCN_3_5x5_0_split_1
I1203 23:22:05.011442 19077 net.cpp:434] detection_accuracy_3_5x5 <- label_3_5x5_data_5_split_1
I1203 23:22:05.011447 19077 net.cpp:408] detection_accuracy_3_5x5 -> accuracy_3_5x5
I1203 23:22:05.011456 19077 net.cpp:408] detection_accuracy_3_5x5 -> boxiou_3_5x5
I1203 23:22:05.011497 19077 net.cpp:150] Setting up detection_accuracy_3_5x5
I1203 23:22:05.011502 19077 net.cpp:157] Top shape: 1 1 1 2 (2)
I1203 23:22:05.011507 19077 net.cpp:157] Top shape: 1 1 1 1 (1)
I1203 23:22:05.011509 19077 net.cpp:165] Memory required for data: 1579172100
I1203 23:22:05.011512 19077 layer_factory.hpp:77] Creating layer LFCN_3_7x7
I1203 23:22:05.011521 19077 net.cpp:100] Creating Layer LFCN_3_7x7
I1203 23:22:05.011525 19077 net.cpp:434] LFCN_3_7x7 <- conv6_1_relu6_1_0_split_1
I1203 23:22:05.011530 19077 net.cpp:408] LFCN_3_7x7 -> LFCN_3_7x7
I1203 23:22:05.019409 19077 net.cpp:150] Setting up LFCN_3_7x7
I1203 23:22:05.019433 19077 net.cpp:157] Top shape: 1 9 24 24 (5184)
I1203 23:22:05.019436 19077 net.cpp:165] Memory required for data: 1579192836
I1203 23:22:05.019443 19077 layer_factory.hpp:77] Creating layer LFCN_3_7x7_LFCN_3_7x7_0_split
I1203 23:22:05.019454 19077 net.cpp:100] Creating Layer LFCN_3_7x7_LFCN_3_7x7_0_split
I1203 23:22:05.019461 19077 net.cpp:434] LFCN_3_7x7_LFCN_3_7x7_0_split <- LFCN_3_7x7
I1203 23:22:05.019470 19077 net.cpp:408] LFCN_3_7x7_LFCN_3_7x7_0_split -> LFCN_3_7x7_LFCN_3_7x7_0_split_0
I1203 23:22:05.019479 19077 net.cpp:408] LFCN_3_7x7_LFCN_3_7x7_0_split -> LFCN_3_7x7_LFCN_3_7x7_0_split_1
I1203 23:22:05.019484 19077 net.cpp:408] LFCN_3_7x7_LFCN_3_7x7_0_split -> LFCN_3_7x7_LFCN_3_7x7_0_split_2
I1203 23:22:05.019541 19077 net.cpp:150] Setting up LFCN_3_7x7_LFCN_3_7x7_0_split
I1203 23:22:05.019547 19077 net.cpp:157] Top shape: 1 9 24 24 (5184)
I1203 23:22:05.019552 19077 net.cpp:157] Top shape: 1 9 24 24 (5184)
I1203 23:22:05.019556 19077 net.cpp:157] Top shape: 1 9 24 24 (5184)
I1203 23:22:05.019559 19077 net.cpp:165] Memory required for data: 1579255044
I1203 23:22:05.019562 19077 layer_factory.hpp:77] Creating layer detection_loss_3_7x7
I1203 23:22:05.019570 19077 net.cpp:100] Creating Layer detection_loss_3_7x7
I1203 23:22:05.019573 19077 net.cpp:434] detection_loss_3_7x7 <- LFCN_3_7x7_LFCN_3_7x7_0_split_0
I1203 23:22:05.019578 19077 net.cpp:434] detection_loss_3_7x7 <- label_3_7x7_data_6_split_0
I1203 23:22:05.019585 19077 net.cpp:408] detection_loss_3_7x7 -> loss_3_7x7
I1203 23:22:05.019593 19077 layer_factory.hpp:77] Creating layer detection_loss_3_7x7
I1203 23:22:05.020337 19077 net.cpp:150] Setting up detection_loss_3_7x7
I1203 23:22:05.020350 19077 net.cpp:157] Top shape: 1 1 1 2 (2)
I1203 23:22:05.020354 19077 net.cpp:160]     with loss weight 1
I1203 23:22:05.020364 19077 net.cpp:165] Memory required for data: 1579255052
I1203 23:22:05.020366 19077 layer_factory.hpp:77] Creating layer detection_accuracy_3_7x7
I1203 23:22:05.020375 19077 net.cpp:100] Creating Layer detection_accuracy_3_7x7
I1203 23:22:05.020380 19077 net.cpp:434] detection_accuracy_3_7x7 <- LFCN_3_7x7_LFCN_3_7x7_0_split_1
I1203 23:22:05.020385 19077 net.cpp:434] detection_accuracy_3_7x7 <- label_3_7x7_data_6_split_1
I1203 23:22:05.020390 19077 net.cpp:408] detection_accuracy_3_7x7 -> accuracy_3_7x7
I1203 23:22:05.020397 19077 net.cpp:408] detection_accuracy_3_7x7 -> boxiou_3_7x7
I1203 23:22:05.020442 19077 net.cpp:150] Setting up detection_accuracy_3_7x7
I1203 23:22:05.020447 19077 net.cpp:157] Top shape: 1 1 1 2 (2)
I1203 23:22:05.020452 19077 net.cpp:157] Top shape: 1 1 1 1 (1)
I1203 23:22:05.020454 19077 net.cpp:165] Memory required for data: 1579255064
I1203 23:22:05.020457 19077 layer_factory.hpp:77] Creating layer pool6
I1203 23:22:05.020481 19077 net.cpp:100] Creating Layer pool6
I1203 23:22:05.020488 19077 net.cpp:434] pool6 <- conv6_1_relu6_1_0_split_2
I1203 23:22:05.020493 19077 net.cpp:408] pool6 -> pool6
I1203 23:22:05.020534 19077 net.cpp:150] Setting up pool6
I1203 23:22:05.020541 19077 net.cpp:157] Top shape: 1 512 12 12 (73728)
I1203 23:22:05.020545 19077 net.cpp:165] Memory required for data: 1579549976
I1203 23:22:05.020547 19077 layer_factory.hpp:77] Creating layer LFCN_4_5x5
I1203 23:22:05.020557 19077 net.cpp:100] Creating Layer LFCN_4_5x5
I1203 23:22:05.020561 19077 net.cpp:434] LFCN_4_5x5 <- pool6
I1203 23:22:05.020567 19077 net.cpp:408] LFCN_4_5x5 -> LFCN_4_5x5
I1203 23:22:05.024302 19077 net.cpp:150] Setting up LFCN_4_5x5
I1203 23:22:05.024314 19077 net.cpp:157] Top shape: 1 9 12 12 (1296)
I1203 23:22:05.024318 19077 net.cpp:165] Memory required for data: 1579555160
I1203 23:22:05.024324 19077 layer_factory.hpp:77] Creating layer LFCN_4_5x5_LFCN_4_5x5_0_split
I1203 23:22:05.024330 19077 net.cpp:100] Creating Layer LFCN_4_5x5_LFCN_4_5x5_0_split
I1203 23:22:05.024334 19077 net.cpp:434] LFCN_4_5x5_LFCN_4_5x5_0_split <- LFCN_4_5x5
I1203 23:22:05.024339 19077 net.cpp:408] LFCN_4_5x5_LFCN_4_5x5_0_split -> LFCN_4_5x5_LFCN_4_5x5_0_split_0
I1203 23:22:05.024346 19077 net.cpp:408] LFCN_4_5x5_LFCN_4_5x5_0_split -> LFCN_4_5x5_LFCN_4_5x5_0_split_1
I1203 23:22:05.024353 19077 net.cpp:408] LFCN_4_5x5_LFCN_4_5x5_0_split -> LFCN_4_5x5_LFCN_4_5x5_0_split_2
I1203 23:22:05.024408 19077 net.cpp:150] Setting up LFCN_4_5x5_LFCN_4_5x5_0_split
I1203 23:22:05.024413 19077 net.cpp:157] Top shape: 1 9 12 12 (1296)
I1203 23:22:05.024417 19077 net.cpp:157] Top shape: 1 9 12 12 (1296)
I1203 23:22:05.024421 19077 net.cpp:157] Top shape: 1 9 12 12 (1296)
I1203 23:22:05.024425 19077 net.cpp:165] Memory required for data: 1579570712
I1203 23:22:05.024427 19077 layer_factory.hpp:77] Creating layer detection_loss_4_5x5
I1203 23:22:05.024432 19077 net.cpp:100] Creating Layer detection_loss_4_5x5
I1203 23:22:05.024436 19077 net.cpp:434] detection_loss_4_5x5 <- LFCN_4_5x5_LFCN_4_5x5_0_split_0
I1203 23:22:05.024441 19077 net.cpp:434] detection_loss_4_5x5 <- label_4_5x5_data_7_split_0
I1203 23:22:05.024446 19077 net.cpp:408] detection_loss_4_5x5 -> loss_4_5x5
I1203 23:22:05.024453 19077 layer_factory.hpp:77] Creating layer detection_loss_4_5x5
I1203 23:22:05.025195 19077 net.cpp:150] Setting up detection_loss_4_5x5
I1203 23:22:05.025209 19077 net.cpp:157] Top shape: 1 1 1 2 (2)
I1203 23:22:05.025213 19077 net.cpp:160]     with loss weight 1
I1203 23:22:05.025218 19077 net.cpp:165] Memory required for data: 1579570720
I1203 23:22:05.025223 19077 layer_factory.hpp:77] Creating layer detection_accuracy_4_5x5
I1203 23:22:05.025228 19077 net.cpp:100] Creating Layer detection_accuracy_4_5x5
I1203 23:22:05.025233 19077 net.cpp:434] detection_accuracy_4_5x5 <- LFCN_4_5x5_LFCN_4_5x5_0_split_1
I1203 23:22:05.025238 19077 net.cpp:434] detection_accuracy_4_5x5 <- label_4_5x5_data_7_split_1
I1203 23:22:05.025243 19077 net.cpp:408] detection_accuracy_4_5x5 -> accuracy_4_5x5
I1203 23:22:05.025249 19077 net.cpp:408] detection_accuracy_4_5x5 -> boxiou_4_5x5
I1203 23:22:05.025288 19077 net.cpp:150] Setting up detection_accuracy_4_5x5
I1203 23:22:05.025295 19077 net.cpp:157] Top shape: 1 1 1 2 (2)
I1203 23:22:05.025300 19077 net.cpp:157] Top shape: 1 1 1 1 (1)
I1203 23:22:05.025302 19077 net.cpp:165] Memory required for data: 1579570732
I1203 23:22:05.025306 19077 layer_factory.hpp:77] Creating layer proposals
I1203 23:22:05.025313 19077 net.cpp:100] Creating Layer proposals
I1203 23:22:05.025317 19077 net.cpp:434] proposals <- LFCN_1_5x5_LFCN_1_5x5_0_split_2
I1203 23:22:05.025322 19077 net.cpp:434] proposals <- LFCN_1_7x7_LFCN_1_7x7_0_split_2
I1203 23:22:05.025326 19077 net.cpp:434] proposals <- LFCN_2_5x5_LFCN_2_5x5_0_split_2
I1203 23:22:05.025331 19077 net.cpp:434] proposals <- LFCN_2_7x7_LFCN_2_7x7_0_split_2
I1203 23:22:05.025334 19077 net.cpp:434] proposals <- LFCN_3_5x5_LFCN_3_5x5_0_split_2
I1203 23:22:05.025337 19077 net.cpp:434] proposals <- LFCN_3_7x7_LFCN_3_7x7_0_split_2
I1203 23:22:05.025341 19077 net.cpp:434] proposals <- LFCN_4_5x5_LFCN_4_5x5_0_split_2
I1203 23:22:05.025346 19077 net.cpp:408] proposals -> proposals
I1203 23:22:05.025370 19077 net.cpp:150] Setting up proposals
I1203 23:22:05.025377 19077 net.cpp:157] Top shape: 1 5 1 1 (5)
I1203 23:22:05.025380 19077 net.cpp:165] Memory required for data: 1579570752
I1203 23:22:05.025384 19077 layer_factory.hpp:77] Creating layer proposal_info
I1203 23:22:05.025393 19077 net.cpp:100] Creating Layer proposal_info
I1203 23:22:05.025398 19077 net.cpp:434] proposal_info <- proposals
I1203 23:22:05.025403 19077 net.cpp:434] proposal_info <- gt_boxes
I1203 23:22:05.025408 19077 net.cpp:408] proposal_info -> rois
I1203 23:22:05.025415 19077 net.cpp:408] proposal_info -> proposal_labels
I1203 23:22:05.025421 19077 net.cpp:408] proposal_info -> proposal_targets
I1203 23:22:05.025427 19077 net.cpp:408] proposal_info -> box_inside_weights
I1203 23:22:05.025434 19077 net.cpp:408] proposal_info -> box_outside_weights
I1203 23:22:05.025439 19077 net.cpp:408] proposal_info -> match_gt_boxes
I1203 23:22:05.025534 19077 net.cpp:150] Setting up proposal_info
I1203 23:22:05.025542 19077 net.cpp:157] Top shape: 128 5 1 1 (640)
I1203 23:22:05.025545 19077 net.cpp:157] Top shape: 128 1 1 1 (128)
I1203 23:22:05.025550 19077 net.cpp:157] Top shape: 128 20 1 1 (2560)
I1203 23:22:05.025554 19077 net.cpp:157] Top shape: 128 20 1 1 (2560)
I1203 23:22:05.025558 19077 net.cpp:157] Top shape: 128 20 1 1 (2560)
I1203 23:22:05.025563 19077 net.cpp:157] Top shape: 128 6 1 1 (768)
I1203 23:22:05.025565 19077 net.cpp:165] Memory required for data: 1579607616
I1203 23:22:05.025568 19077 layer_factory.hpp:77] Creating layer rois_proposal_info_0_split
I1203 23:22:05.025574 19077 net.cpp:100] Creating Layer rois_proposal_info_0_split
I1203 23:22:05.025578 19077 net.cpp:434] rois_proposal_info_0_split <- rois
I1203 23:22:05.025583 19077 net.cpp:408] rois_proposal_info_0_split -> rois_proposal_info_0_split_0
I1203 23:22:05.025590 19077 net.cpp:408] rois_proposal_info_0_split -> rois_proposal_info_0_split_1
I1203 23:22:05.025596 19077 net.cpp:408] rois_proposal_info_0_split -> rois_proposal_info_0_split_2
I1203 23:22:05.025646 19077 net.cpp:150] Setting up rois_proposal_info_0_split
I1203 23:22:05.025652 19077 net.cpp:157] Top shape: 128 5 1 1 (640)
I1203 23:22:05.025656 19077 net.cpp:157] Top shape: 128 5 1 1 (640)
I1203 23:22:05.025660 19077 net.cpp:157] Top shape: 128 5 1 1 (640)
I1203 23:22:05.025663 19077 net.cpp:165] Memory required for data: 1579615296
I1203 23:22:05.025666 19077 layer_factory.hpp:77] Creating layer proposal_labels_proposal_info_1_split
I1203 23:22:05.025672 19077 net.cpp:100] Creating Layer proposal_labels_proposal_info_1_split
I1203 23:22:05.025676 19077 net.cpp:434] proposal_labels_proposal_info_1_split <- proposal_labels
I1203 23:22:05.025681 19077 net.cpp:408] proposal_labels_proposal_info_1_split -> proposal_labels_proposal_info_1_split_0
I1203 23:22:05.025686 19077 net.cpp:408] proposal_labels_proposal_info_1_split -> proposal_labels_proposal_info_1_split_1
I1203 23:22:05.025722 19077 net.cpp:150] Setting up proposal_labels_proposal_info_1_split
I1203 23:22:05.025728 19077 net.cpp:157] Top shape: 128 1 1 1 (128)
I1203 23:22:05.025733 19077 net.cpp:157] Top shape: 128 1 1 1 (128)
I1203 23:22:05.025737 19077 net.cpp:165] Memory required for data: 1579616320
I1203 23:22:05.025740 19077 layer_factory.hpp:77] Creating layer softmax
I1203 23:22:05.025745 19077 net.cpp:100] Creating Layer softmax
I1203 23:22:05.025748 19077 net.cpp:434] softmax <- attention_attention_0_split_1
I1203 23:22:05.025753 19077 net.cpp:408] softmax -> softmax_attention
I1203 23:22:05.025986 19077 net.cpp:150] Setting up softmax
I1203 23:22:05.026000 19077 net.cpp:157] Top shape: 1 3 96 96 (27648)
I1203 23:22:05.026003 19077 net.cpp:165] Memory required for data: 1579726912
I1203 23:22:05.026007 19077 layer_factory.hpp:77] Creating layer slice1
I1203 23:22:05.026015 19077 net.cpp:100] Creating Layer slice1
I1203 23:22:05.026019 19077 net.cpp:434] slice1 <- softmax_attention
I1203 23:22:05.026026 19077 net.cpp:408] slice1 -> bg
I1203 23:22:05.026034 19077 net.cpp:408] slice1 -> attention1
I1203 23:22:05.026082 19077 net.cpp:150] Setting up slice1
I1203 23:22:05.026090 19077 net.cpp:157] Top shape: 1 1 96 96 (9216)
I1203 23:22:05.026095 19077 net.cpp:157] Top shape: 1 2 96 96 (18432)
I1203 23:22:05.026098 19077 net.cpp:165] Memory required for data: 1579837504
I1203 23:22:05.026103 19077 layer_factory.hpp:77] Creating layer silence
I1203 23:22:05.026109 19077 net.cpp:100] Creating Layer silence
I1203 23:22:05.026113 19077 net.cpp:434] silence <- bg
I1203 23:22:05.026119 19077 net.cpp:150] Setting up silence
I1203 23:22:05.026123 19077 net.cpp:165] Memory required for data: 1579837504
I1203 23:22:05.026126 19077 layer_factory.hpp:77] Creating layer conv4_3_new
I1203 23:22:05.026131 19077 net.cpp:100] Creating Layer conv4_3_new
I1203 23:22:05.026136 19077 net.cpp:434] conv4_3_new <- conv4_3_relu4_3_0_split_3
I1203 23:22:05.026142 19077 net.cpp:434] conv4_3_new <- attention1
I1203 23:22:05.026149 19077 net.cpp:408] conv4_3_new -> conv4_3_new
I1203 23:22:05.026188 19077 net.cpp:150] Setting up conv4_3_new
I1203 23:22:05.026196 19077 net.cpp:157] Top shape: 1 514 96 96 (4737024)
I1203 23:22:05.026201 19077 net.cpp:165] Memory required for data: 1598785600
I1203 23:22:05.026204 19077 layer_factory.hpp:77] Creating layer conv4_3_2x
I1203 23:22:05.026213 19077 net.cpp:100] Creating Layer conv4_3_2x
I1203 23:22:05.026217 19077 net.cpp:434] conv4_3_2x <- conv4_3_new
I1203 23:22:05.026223 19077 net.cpp:408] conv4_3_2x -> conv4_3_2x
I1203 23:22:05.026738 19077 net.cpp:150] Setting up conv4_3_2x
I1203 23:22:05.026746 19077 net.cpp:157] Top shape: 1 514 192 192 (18948096)
I1203 23:22:05.026749 19077 net.cpp:165] Memory required for data: 1674577984
I1203 23:22:05.026754 19077 layer_factory.hpp:77] Creating layer conv4_3_2x_conv4_3_2x_0_split
I1203 23:22:05.026759 19077 net.cpp:100] Creating Layer conv4_3_2x_conv4_3_2x_0_split
I1203 23:22:05.026762 19077 net.cpp:434] conv4_3_2x_conv4_3_2x_0_split <- conv4_3_2x
I1203 23:22:05.026767 19077 net.cpp:408] conv4_3_2x_conv4_3_2x_0_split -> conv4_3_2x_conv4_3_2x_0_split_0
I1203 23:22:05.026772 19077 net.cpp:408] conv4_3_2x_conv4_3_2x_0_split -> conv4_3_2x_conv4_3_2x_0_split_1
I1203 23:22:05.026811 19077 net.cpp:150] Setting up conv4_3_2x_conv4_3_2x_0_split
I1203 23:22:05.026818 19077 net.cpp:157] Top shape: 1 514 192 192 (18948096)
I1203 23:22:05.026823 19077 net.cpp:157] Top shape: 1 514 192 192 (18948096)
I1203 23:22:05.026825 19077 net.cpp:165] Memory required for data: 1826162752
I1203 23:22:05.026829 19077 layer_factory.hpp:77] Creating layer roi_pool_org
I1203 23:22:05.026834 19077 net.cpp:100] Creating Layer roi_pool_org
I1203 23:22:05.026839 19077 net.cpp:434] roi_pool_org <- conv4_3_2x_conv4_3_2x_0_split_0
I1203 23:22:05.026842 19077 net.cpp:434] roi_pool_org <- rois_proposal_info_0_split_0
I1203 23:22:05.026847 19077 net.cpp:408] roi_pool_org -> roi_pool_org
I1203 23:22:05.026854 19077 roi_pooling_layer.cpp:33] Spatial scale: 0.25
I1203 23:22:05.026892 19077 net.cpp:150] Setting up roi_pool_org
I1203 23:22:05.026899 19077 net.cpp:157] Top shape: 128 514 7 7 (3223808)
I1203 23:22:05.026902 19077 net.cpp:165] Memory required for data: 1839057984
I1203 23:22:05.026906 19077 layer_factory.hpp:77] Creating layer roi_pool_ctx
I1203 23:22:05.026911 19077 net.cpp:100] Creating Layer roi_pool_ctx
I1203 23:22:05.026913 19077 net.cpp:434] roi_pool_ctx <- conv4_3_2x_conv4_3_2x_0_split_1
I1203 23:22:05.026917 19077 net.cpp:434] roi_pool_ctx <- rois_proposal_info_0_split_1
I1203 23:22:05.026923 19077 net.cpp:408] roi_pool_ctx -> roi_pool_ctx
I1203 23:22:05.026928 19077 roi_pooling_layer.cpp:33] Spatial scale: 0.25
I1203 23:22:05.026965 19077 net.cpp:150] Setting up roi_pool_ctx
I1203 23:22:05.026974 19077 net.cpp:157] Top shape: 128 514 7 7 (3223808)
I1203 23:22:05.026978 19077 net.cpp:165] Memory required for data: 1851953216
I1203 23:22:05.026980 19077 layer_factory.hpp:77] Creating layer roi_pool
I1203 23:22:05.026985 19077 net.cpp:100] Creating Layer roi_pool
I1203 23:22:05.026988 19077 net.cpp:434] roi_pool <- roi_pool_org
I1203 23:22:05.026993 19077 net.cpp:434] roi_pool <- roi_pool_ctx
I1203 23:22:05.026998 19077 net.cpp:408] roi_pool -> roi_pool
I1203 23:22:05.027020 19077 net.cpp:150] Setting up roi_pool
I1203 23:22:05.027026 19077 net.cpp:157] Top shape: 128 1028 7 7 (6447616)
I1203 23:22:05.027029 19077 net.cpp:165] Memory required for data: 1877743680
I1203 23:22:05.027032 19077 layer_factory.hpp:77] Creating layer roi_c1
I1203 23:22:05.027040 19077 net.cpp:100] Creating Layer roi_c1
I1203 23:22:05.027045 19077 net.cpp:434] roi_c1 <- roi_pool
I1203 23:22:05.027050 19077 net.cpp:408] roi_c1 -> roi_c1
I1203 23:22:05.156474 19077 net.cpp:150] Setting up roi_c1
I1203 23:22:05.156500 19077 net.cpp:157] Top shape: 128 512 5 5 (1638400)
I1203 23:22:05.156504 19077 net.cpp:165] Memory required for data: 1884297280
I1203 23:22:05.156512 19077 layer_factory.hpp:77] Creating layer roi_c1_relu
I1203 23:22:05.156523 19077 net.cpp:100] Creating Layer roi_c1_relu
I1203 23:22:05.156528 19077 net.cpp:434] roi_c1_relu <- roi_c1
I1203 23:22:05.156534 19077 net.cpp:395] roi_c1_relu -> roi_c1 (in-place)
I1203 23:22:05.156695 19077 net.cpp:150] Setting up roi_c1_relu
I1203 23:22:05.156704 19077 net.cpp:157] Top shape: 128 512 5 5 (1638400)
I1203 23:22:05.156708 19077 net.cpp:165] Memory required for data: 1890850880
I1203 23:22:05.156713 19077 layer_factory.hpp:77] Creating layer fc6
I1203 23:22:05.156720 19077 net.cpp:100] Creating Layer fc6
I1203 23:22:05.156725 19077 net.cpp:434] fc6 <- roi_c1
I1203 23:22:05.156733 19077 net.cpp:408] fc6 -> fc6
I1203 23:22:06.445442 19077 net.cpp:150] Setting up fc6
I1203 23:22:06.445473 19077 net.cpp:157] Top shape: 128 4096 (524288)
I1203 23:22:06.445477 19077 net.cpp:165] Memory required for data: 1892948032
I1203 23:22:06.445484 19077 layer_factory.hpp:77] Creating layer relu6
I1203 23:22:06.445494 19077 net.cpp:100] Creating Layer relu6
I1203 23:22:06.445502 19077 net.cpp:434] relu6 <- fc6
I1203 23:22:06.445506 19077 net.cpp:395] relu6 -> fc6 (in-place)
I1203 23:22:06.445749 19077 net.cpp:150] Setting up relu6
I1203 23:22:06.445758 19077 net.cpp:157] Top shape: 128 4096 (524288)
I1203 23:22:06.445761 19077 net.cpp:165] Memory required for data: 1895045184
I1203 23:22:06.445765 19077 layer_factory.hpp:77] Creating layer drop6
I1203 23:22:06.445773 19077 net.cpp:100] Creating Layer drop6
I1203 23:22:06.445776 19077 net.cpp:434] drop6 <- fc6
I1203 23:22:06.445781 19077 net.cpp:395] drop6 -> fc6 (in-place)
I1203 23:22:06.445803 19077 net.cpp:150] Setting up drop6
I1203 23:22:06.445811 19077 net.cpp:157] Top shape: 128 4096 (524288)
I1203 23:22:06.445813 19077 net.cpp:165] Memory required for data: 1897142336
I1203 23:22:06.445816 19077 layer_factory.hpp:77] Creating layer fc6_drop6_0_split
I1203 23:22:06.445824 19077 net.cpp:100] Creating Layer fc6_drop6_0_split
I1203 23:22:06.445828 19077 net.cpp:434] fc6_drop6_0_split <- fc6
I1203 23:22:06.445833 19077 net.cpp:408] fc6_drop6_0_split -> fc6_drop6_0_split_0
I1203 23:22:06.445840 19077 net.cpp:408] fc6_drop6_0_split -> fc6_drop6_0_split_1
I1203 23:22:06.445880 19077 net.cpp:150] Setting up fc6_drop6_0_split
I1203 23:22:06.445886 19077 net.cpp:157] Top shape: 128 4096 (524288)
I1203 23:22:06.445891 19077 net.cpp:157] Top shape: 128 4096 (524288)
I1203 23:22:06.445894 19077 net.cpp:165] Memory required for data: 1901336640
I1203 23:22:06.445899 19077 layer_factory.hpp:77] Creating layer cls_pred
I1203 23:22:06.445904 19077 net.cpp:100] Creating Layer cls_pred
I1203 23:22:06.445909 19077 net.cpp:434] cls_pred <- fc6_drop6_0_split_0
I1203 23:22:06.445914 19077 net.cpp:408] cls_pred -> cls_pred
I1203 23:22:06.446548 19077 net.cpp:150] Setting up cls_pred
I1203 23:22:06.446555 19077 net.cpp:157] Top shape: 128 5 (640)
I1203 23:22:06.446558 19077 net.cpp:165] Memory required for data: 1901339200
I1203 23:22:06.446564 19077 layer_factory.hpp:77] Creating layer cls_pred_cls_pred_0_split
I1203 23:22:06.446570 19077 net.cpp:100] Creating Layer cls_pred_cls_pred_0_split
I1203 23:22:06.446575 19077 net.cpp:434] cls_pred_cls_pred_0_split <- cls_pred
I1203 23:22:06.446580 19077 net.cpp:408] cls_pred_cls_pred_0_split -> cls_pred_cls_pred_0_split_0
I1203 23:22:06.446588 19077 net.cpp:408] cls_pred_cls_pred_0_split -> cls_pred_cls_pred_0_split_1
I1203 23:22:06.446630 19077 net.cpp:150] Setting up cls_pred_cls_pred_0_split
I1203 23:22:06.446637 19077 net.cpp:157] Top shape: 128 5 (640)
I1203 23:22:06.446642 19077 net.cpp:157] Top shape: 128 5 (640)
I1203 23:22:06.446645 19077 net.cpp:165] Memory required for data: 1901344320
I1203 23:22:06.446650 19077 layer_factory.hpp:77] Creating layer bbox_pred
I1203 23:22:06.446656 19077 net.cpp:100] Creating Layer bbox_pred
I1203 23:22:06.446660 19077 net.cpp:434] bbox_pred <- fc6_drop6_0_split_1
I1203 23:22:06.446666 19077 net.cpp:408] bbox_pred -> bbox_pred
I1203 23:22:06.448945 19077 net.cpp:150] Setting up bbox_pred
I1203 23:22:06.448952 19077 net.cpp:157] Top shape: 128 20 (2560)
I1203 23:22:06.448956 19077 net.cpp:165] Memory required for data: 1901354560
I1203 23:22:06.448961 19077 layer_factory.hpp:77] Creating layer bbox_pred_bbox_pred_0_split
I1203 23:22:06.448964 19077 net.cpp:100] Creating Layer bbox_pred_bbox_pred_0_split
I1203 23:22:06.448968 19077 net.cpp:434] bbox_pred_bbox_pred_0_split <- bbox_pred
I1203 23:22:06.448974 19077 net.cpp:408] bbox_pred_bbox_pred_0_split -> bbox_pred_bbox_pred_0_split_0
I1203 23:22:06.448981 19077 net.cpp:408] bbox_pred_bbox_pred_0_split -> bbox_pred_bbox_pred_0_split_1
I1203 23:22:06.449015 19077 net.cpp:150] Setting up bbox_pred_bbox_pred_0_split
I1203 23:22:06.449033 19077 net.cpp:157] Top shape: 128 20 (2560)
I1203 23:22:06.449036 19077 net.cpp:157] Top shape: 128 20 (2560)
I1203 23:22:06.449039 19077 net.cpp:165] Memory required for data: 1901375040
I1203 23:22:06.449043 19077 layer_factory.hpp:77] Creating layer loss_cls
I1203 23:22:06.449050 19077 net.cpp:100] Creating Layer loss_cls
I1203 23:22:06.449054 19077 net.cpp:434] loss_cls <- cls_pred_cls_pred_0_split_0
I1203 23:22:06.449060 19077 net.cpp:434] loss_cls <- proposal_labels_proposal_info_1_split_0
…
