…
    downsample_rate: 32
    downsample_rate: 32
    downsample_rate: 64
    coord_num: 4
    field_h: 60
    field_h: 84
    field_h: 120
    field_h: 168
    field_h: 240
    field_h: 336
    field_h: 480
    field_w: 60
    field_w: 84
    field_w: 120
    field_w: 168
    field_w: 240
    field_w: 336
    field_w: 480
    fg_threshold: 0.5
    resize_width: 1344
    resize_height: 768
    crop_width: 768
    crop_height: 768
    do_multiple_scale: true
    min_scale: 60
    max_scale: 480
    min_gt_height: 25
    shuffle: true
    output_gt_boxes: true
  }
}
layer {
  name: "slice"
  type: "Slice"
  bottom: "data"
  top: "data123"
  top: "ch4"
  slice_param {
    slice_point: 3
    axis: 1
  }
}
layer {
  name: "conv1_1"
  type: "Convolution"
  bottom: "data123"
  top: "conv1_1"
  param {
    lr_mult: 0
    decay_mult: 0
  }
  param {
    lr_mult: 0
    decay_mult: 0
  }
  convolution_param {
    num_output: 64
    pad: 1
    kernel_size: 3
  }
}
layer {
  name: "relu1_1"
  type: "ReLU"
  bottom: "conv1_1"
  top: "conv1_1"
}
layer {
  name: "conv1_2"
  type: "Convolution"
  bottom: "conv1_1"
  top: "conv1_2"
  param {
    lr_mult: 0
    decay_mult: 0
  }
  param {
    lr_mult: 0
    decay_mult: 0
  }
  convolution_param {
    num_output: 64
    pad: 1
    kernel_size: 3
  }
}
layer {
  name: "relu1_2"
  type: "ReLU"
  bottom: "conv1_2"
  top: "conv1_2"
}
layer {
  name: "pool1"
  type: "Pooling"
  bottom: "conv1_2"
  top: "pool1"
  pooling_param {
    pool: MAX
    kernel_size: 2
    stride: 2
  }
}
layer {
  name: "ch4_pool1"
  type: "Pooling"
  bottom: "ch4"
  top: "ch4_pool1"
  pooling_param {
    pool: MAX
    kernel_size: 2
    stride: 2
  }
}
layer {
  name: "pool1_concat"
  type: "Concat"
  bottom: "pool1"
  bottom: "ch4_pool1"
  top: "pool1_new"
}
layer {
  name: "conv2_1_new"
  type: "Convolution"
  bottom: "pool1_new"
  top: "conv2_1"
  param {
    lr_mult: 0
    decay_mult: 0
  }
  param {
    lr_mult: 0
    decay_mult: 0
  }
  convolution_param {
    num_output: 128
    pad: 1
    kernel_size: 3
  }
}
layer {
  name: "relu2_1"
  type: "ReLU"
  bottom: "conv2_1"
  top: "conv2_1"
}
layer {
  name: "conv2_2"
  type: "Convolution"
  bottom: "conv2_1"
  top: "conv2_2"
  param {
    lr_mult: 0
    decay_mult: 0
  }
  param {
    lr_mult: 0
    decay_mult: 0
  }
  convolution_param {
    num_output: 128
    pad: 1
    kernel_size: 3
  }
}
layer {
  name: "relu2_2"
  type: "ReLU"
  bottom: "conv2_2"
  top: "conv2_2"
}
layer {
  name: "pool2"
  type: "Pooling"
  bottom: "conv2_2"
  top: "pool2"
  pooling_param {
    pool: MAX
    kernel_size: 2
    stride: 2
  }
}
layer {
  name: "ch4_pool2"
  type: "Pooling"
  bottom: "ch4_pool1"
  top: "ch4_pool2"
  pooling_param {
    pool: MAX
    kernel_size: 2
    stride: 2
  }
}
layer {
  name: "pool2_concat"
  type: "Concat"
  bottom: "pool2"
  bottom: "ch4_pool2"
  top: "pool2_new"
}
layer {
  name: "conv3_1_new"
  type: "Convolution"
  bottom: "pool2_new"
  top: "conv3_1"
  convolution_param {
    num_output: 256
    pad: 1
    kernel_size: 3
  }
}
layer {
  name: "relu3_1"
  type: "ReLU"
  bottom: "conv3_1"
  top: "conv3_1"
}
layer {
  name: "conv3_2"
  type: "Convolution"
  bottom: "conv3_1"
  top: "conv3_2"
  convolution_param {
    num_output: 256
    pad: 1
    kernel_size: 3
  }
}
layer {
  name: "relu3_2"
  type: "ReLU"
  bottom: "conv3_2"
  top: "conv3_2"
}
layer {
  name: "conv3_3"
  type: "Convolution"
  bottom: "conv3_2"
  top: "conv3_3"
  convolution_param {
    num_output: 256
    pad: 1
    kernel_size: 3
  }
}
layer {
  name: "relu3_3"
  type: "ReLU"
  bottom: "conv3_3"
  top: "conv3_3"
}
layer {
  name: "pool3"
  type: "Pooling"
  bottom: "conv3_3"
  top: "pool3"
  pooling_param {
    pool: MAX
    kernel_size: 2
    stride: 2
  }
}
layer {
  name: "ch4_pool3"
  type: "Pooling"
  bottom: "ch4_pool2"
  top: "ch4_pool3"
  pooling_param {
    pool: MAX
    kernel_size: 2
    stride: 2
  }
}
layer {
  name: "pool3_concat"
  type: "Concat"
  bottom: "pool3"
  bottom: "ch4_pool3"
  top: "pool3_new"
}
layer {
  name: "conv4_1_new"
  type: "Convolution"
  bottom: "pool3_new"
  top: "conv4_1"
  convolution_param {
    num_output: 512
    pad: 1
    kernel_size: 3
  }
}
layer {
  name: "relu4_1"
  type: "ReLU"
  bottom: "conv4_1"
  top: "conv4_1"
}
layer {
  name: "conv4_2"
  type: "Convolution"
  bottom: "conv4_1"
  top: "conv4_2"
  convolution_param {
    num_output: 512
    pad: 1
    kernel_size: 3
  }
}
layer {
  name: "relu4_2"
  type: "ReLU"
  bottom: "conv4_2"
  top: "conv4_2"
}
layer {
  name: "conv4_3"
  type: "Convolution"
  bottom: "conv4_2"
  top: "conv4_3"
  convolution_param {
    num_output: 512
    pad: 1
    kernel_size: 3
  }
}
layer {
  name: "relu4_3"
  type: "ReLU"
  bottom: "conv4_3"
  top: "conv4_3"
}
layer {
  name: "loss1_conv1"
  type: "Convolution"
  bottom: "conv4_3"
  top: "loss1_conv1"
  param {
    lr_mult: 1
    decay_mult: 1
  }
  param {
    lr_mult: 2
    decay_mult: 0
  }
  convolution_param {
    num_output: 512
    pad: 1
    kernel_size: 3
    weight_filler {
      type: "gaussian"
      std: 0.01
    }
    bias_filler {
      type: "constant"
    }
  }
}
layer {
  name: "loss_relu1"
  type: "ReLU"
  bottom: "loss1_conv1"
  top: "loss1_conv1"
}
layer {
  name: "LFCN_1_5x5"
  type: "Convolution"
  bottom: "loss1_conv1"
  top: "LFCN_1_5x5"
  param {
    lr_mult: 1
    decay_mult: 1
  }
  param {
    lr_mult: 2
    decay_mult: 0
  }
  convolution_param {
    num_output: 9
    pad: 2
    kernel_size: 5
    weight_filler {
      type: "gaussian"
      std: 0.001
    }
    bias_filler {
      type: "constant"
    }
  }
}
layer {
  name: "detection_loss_1_5x5"
  type: "DetectionLoss"
  bottom: "LFCN_1_5x5"
  bottom: "label_1_5x5"
  top: "loss_1_5x5"
  loss_weight: 0.9
  detection_loss_param {
    cls_num: 5
    coord_num: 4
    lambda: 1
    field_h: 60
    field_w: 60
    downsample_rate: 8
    bb_smooth: true
    field_whr: 2
    field_xyr: 2
    bg_threshold: 0.2
    bg_multiple: 2
    sample_mode: "bootstrap"
    pos_neg_weighted: true
  }
}
layer {
  name: "detection_accuracy_1_5x5"
  type: "DetectionAccuracy"
  bottom: "LFCN_1_5x5"
  bottom: "label_1_5x5"
  top: "accuracy_1_5x5"
  top: "boxiou_1_5x5"
  detection_accuracy_param {
    cls_num: 5
    coord_num: 4
    field_h: 60
    field_w: 60
    downsample_rate: 8
    field_whr: 2
    field_xyr: 2
  }
}
layer {
  name: "LFCN_1_7x7"
  type: "Convolution"
  bottom: "loss1_conv1"
  top: "LFCN_1_7x7"
  param {
    lr_mult: 1
    decay_mult: 1
  }
  param {
    lr_mult: 2
    decay_mult: 0
  }
  convolution_param {
    num_output: 9
    pad: 3
    kernel_size: 7
    weight_filler {
      type: "gaussian"
      std: 0.001
    }
    bias_filler {
      type: "constant"
    }
  }
}
layer {
  name: "detection_loss_1_7x7"
  type: "DetectionLoss"
  bottom: "LFCN_1_7x7"
  bottom: "label_1_7x7"
  top: "loss_1_7x7"
  loss_weight: 0.9
  detection_loss_param {
    cls_num: 5
    coord_num: 4
    lambda: 1
    field_h: 84
    field_w: 84
    downsample_rate: 8
    bb_smooth: true
    field_whr: 2
    field_xyr: 2
    bg_threshold: 0.2
    bg_multiple: 2
    sample_mode: "bootstrap"
    pos_neg_weighted: true
  }
}
layer {
  name: "detection_accuracy_1_7x7"
  type: "DetectionAccuracy"
  bottom: "LFCN_1_7x7"
  bottom: "label_1_7x7"
  top: "accuracy_1_7x7"
  top: "boxiou_1_7x7"
  detection_accuracy_param {
    cls_num: 5
    coord_num: 4
    field_h: 84
    field_w: 84
    downsample_rate: 8
    field_whr: 2
    field_xyr: 2
  }
}
layer {
  name: "pool4"
  type: "Pooling"
  bottom: "conv4_3"
  top: "pool4"
  pooling_param {
    pool: MAX
    kernel_size: 2
    stride: 2
  }
}
layer {
  name: "conv5_1"
  type: "Convolution"
  bottom: "pool4"
  top: "conv5_1"
  convolution_param {
    num_output: 512
    pad: 1
    kernel_size: 3
  }
}
layer {
  name: "relu5_1"
  type: "ReLU"
  bottom: "conv5_1"
  top: "conv5_1"
}
layer {
  name: "conv5_2"
  type: "Convolution"
  bottom: "conv5_1"
  top: "conv5_2"
  convolution_param {
    num_output: 512
    pad: 1
    kernel_size: 3
  }
}
layer {
  name: "relu5_2"
  type: "ReLU"
  bottom: "conv5_2"
  top: "conv5_2"
}
layer {
  name: "conv5_3"
  type: "Convolution"
  bottom: "conv5_2"
  top: "conv5_3"
  convolution_param {
    num_output: 512
    pad: 1
    kernel_size: 3
  }
}
layer {
  name: "relu5_3"
  type: "ReLU"
  bottom: "conv5_3"
  top: "conv5_3"
}
layer {
  name: "LFCN_2_5x5"
  type: "Convolution"
  bottom: "conv5_3"
  top: "LFCN_2_5x5"
  param {
    lr_mult: 1
    decay_mult: 1
  }
  param {
    lr_mult: 2
    decay_mult: 0
  }
  convolution_param {
    num_output: 9
    pad: 2
    kernel_size: 5
    weight_filler {
      type: "gaussian"
      std: 0.001
    }
    bias_filler {
      type: "constant"
    }
  }
}
layer {
  name: "detection_loss_2_5x5"
  type: "DetectionLoss"
  bottom: "LFCN_2_5x5"
  bottom: "label_2_5x5"
  top: "loss_2_5x5"
  detection_loss_param {
    cls_num: 5
    coord_num: 4
    lambda: 1
    field_h: 120
    field_w: 120
    downsample_rate: 16
    bb_smooth: true
    field_whr: 2
    field_xyr: 2
    bg_threshold: 0.2
    bg_multiple: 2
    sample_mode: "bootstrap"
    pos_neg_weighted: true
  }
}
layer {
  name: "detection_accuracy_2_5x5"
  type: "DetectionAccuracy"
  bottom: "LFCN_2_5x5"
  bottom: "label_2_5x5"
  top: "accuracy_2_5x5"
  top: "boxiou_2_5x5"
  detection_accuracy_param {
    cls_num: 5
    coord_num: 4
    field_h: 120
    field_w: 120
    downsample_rate: 16
    field_whr: 2
    field_xyr: 2
  }
}
layer {
  name: "LFCN_2_7x7"
  type: "Convolution"
  bottom: "conv5_3"
  top: "LFCN_2_7x7"
  param {
    lr_mult: 1
    decay_mult: 1
  }
  param {
    lr_mult: 2
    decay_mult: 0
  }
  convolution_param {
    num_output: 9
    pad: 3
    kernel_size: 7
    weight_filler {
      type: "gaussian"
      std: 0.001
    }
    bias_filler {
      type: "constant"
    }
  }
}
layer {
  name: "detection_loss_2_7x7"
  type: "DetectionLoss"
  bottom: "LFCN_2_7x7"
  bottom: "label_2_7x7"
  top: "loss_2_7x7"
  detection_loss_param {
    cls_num: 5
    coord_num: 4
    lambda: 1
    field_h: 168
    field_w: 168
    downsample_rate: 16
    bb_smooth: true
    field_whr: 2
    field_xyr: 2
    bg_threshold: 0.2
    bg_multiple: 2
    sample_mode: "bootstrap"
    pos_neg_weighted: true
  }
}
layer {
  name: "detection_accuracy_2_7x7"
  type: "DetectionAccuracy"
  bottom: "LFCN_2_7x7"
  bottom: "label_2_7x7"
  top: "accuracy_2_7x7"
  top: "boxiou_2_7x7"
  detection_accuracy_param {
    cls_num: 5
    coord_num: 4
    field_h: 168
    field_w: 168
    downsample_rate: 16
    field_whr: 2
    field_xyr: 2
  }
}
layer {
  name: "pool5"
  type: "Pooling"
  bottom: "conv5_3"
  top: "pool5"
  pooling_param {
    pool: MAX
    kernel_size: 2
    stride: 2
  }
}
layer {
  name: "conv6_1"
  type: "Convolution"
  bottom: "pool5"
  top: "conv6_1"
  param {
    lr_mult: 1
    decay_mult: 1
  }
  param {
    lr_mult: 2
    decay_mult: 0
  }
  convolution_param {
    num_output: 512
    pad: 1
    kernel_size: 3
    weight_filler {
      type: "gaussian"
      std: 0.01
    }
    bias_filler {
      type: "constant"
    }
  }
}
layer {
  name: "relu6_1"
  type: "ReLU"
  bottom: "conv6_1"
  top: "conv6_1"
}
layer {
  name: "LFCN_3_5x5"
  type: "Convolution"
  bottom: "conv6_1"
  top: "LFCN_3_5x5"
  param {
    lr_mult: 1
    decay_mult: 1
  }
  param {
    lr_mult: 2
    decay_mult: 0
  }
  convolution_param {
    num_output: 9
    pad: 2
    kernel_size: 5
    weight_filler {
      type: "gaussian"
      std: 0.001
    }
    bias_filler {
      type: "constant"
    }
  }
}
layer {
  name: "detection_loss_3_5x5"
  type: "DetectionLoss"
  bottom: "LFCN_3_5x5"
  bottom: "label_3_5x5"
  top: "loss_3_5x5"
  detection_loss_param {
    cls_num: 5
    coord_num: 4
    lambda: 1
    field_h: 240
    field_w: 240
    downsample_rate: 32
    bb_smooth: true
    field_whr: 2
    field_xyr: 2
    bg_threshold: 0.2
    bg_multiple: 2
    sample_mode: "bootstrap"
    pos_neg_weighted: true
  }
}
layer {
  name: "detection_accuracy_3_5x5"
  type: "DetectionAccuracy"
  bottom: "LFCN_3_5x5"
  bottom: "label_3_5x5"
  top: "accuracy_3_5x5"
  top: "boxiou_3_5x5"
  detection_accuracy_param {
    cls_num: 5
    coord_num: 4
    field_h: 240
    field_w: 240
    downsample_rate: 32
    field_whr: 2
    field_xyr: 2
  }
}
layer {
  name: "LFCN_3_7x7"
  type: "Convolution"
  bottom: "conv6_1"
  top: "LFCN_3_7x7"
  param {
    lr_mult: 1
    decay_mult: 1
  }
  param {
    lr_mult: 2
    decay_mult: 0
  }
  convolution_param {
    num_output: 9
    pad: 3
    kernel_size: 7
    weight_filler {
      type: "gaussian"
      std: 0.001
    }
    bias_filler {
      type: "constant"
    }
  }
}
layer {
  name: "detection_loss_3_7x7"
  type: "DetectionLoss"
  bottom: "LFCN_3_7x7"
  bottom: "label_3_7x7"
  top: "loss_3_7x7"
  detection_loss_param {
    cls_num: 5
    coord_num: 4
    lambda: 1
    field_h: 336
    field_w: 336
    downsample_rate: 32
    bb_smooth: true
    field_whr: 2
    field_xyr: 2
    bg_threshold: 0.2
    bg_multiple: 2
    sample_mode: "bootstrap"
    pos_neg_weighted: true
  }
}
layer {
  name: "detection_accuracy_3_7x7"
  type: "DetectionAccuracy"
  bottom: "LFCN_3_7x7"
  bottom: "label_3_7x7"
  top: "accuracy_3_7x7"
  top: "boxiou_3_7x7"
  detection_accuracy_param {
    cls_num: 5
    coord_num: 4
    field_h: 336
    field_w: 336
    downsample_rate: 32
    field_whr: 2
    field_xyr: 2
  }
}
layer {
  name: "pool6"
  type: "Pooling"
  bottom: "conv6_1"
  top: "pool6"
  pooling_param {
    pool: MAX
    kernel_size: 2
    stride: 2
  }
}
layer {
  name: "LFCN_4_5x5"
  type: "Convolution"
  bottom: "pool6"
  top: "LFCN_4_5x5"
  param {
    lr_mult: 1
    decay_mult: 1
  }
  param {
    lr_mult: 2
    decay_mult: 0
  }
  convolution_param {
    num_output: 9
    pad: 2
    kernel_size: 5
    weight_filler {
      type: "gaussian"
      std: 0.001
    }
    bias_filler {
      type: "constant"
    }
  }
}
layer {
  name: "detection_loss_4_5x5"
  type: "DetectionLoss"
  bottom: "LFCN_4_5x5"
  bottom: "label_4_5x5"
  top: "loss_4_5x5"
  detection_loss_param {
    cls_num: 5
    coord_num: 4
    lambda: 1
    field_h: 480
    field_w: 480
    downsample_rate: 64
    bb_smooth: true
    field_whr: 2
    field_xyr: 2
    bg_threshold: 0.2
    bg_multiple: 2
    sample_mode: "bootstrap"
    pos_neg_weighted: true
  }
}
layer {
  name: "detection_accuracy_4_5x5"
  type: "DetectionAccuracy"
  bottom: "LFCN_4_5x5"
  bottom: "label_4_5x5"
  top: "accuracy_4_5x5"
  top: "boxiou_4_5x5"
  detection_accuracy_param {
    cls_num: 5
    coord_num: 4
    field_h: 480
    field_w: 480
    downsample_rate: 64
    field_whr: 2
    field_xyr: 2
  }
}
layer {
  name: "proposals"
  type: "BoxOutput"
  bottom: "LFCN_1_5x5"
  bottom: "LFCN_1_7x7"
  bottom: "LFCN_2_5x5"
  bottom: "LFCN_2_7x7"
  bottom: "LFCN_3_5x5"
  bottom: "LFCN_3_7x7"
  bottom: "LFCN_4_5x5"
  top: "proposals"
  propagate_down: false
  propagate_down: false
  propagate_down: false
  propagate_down: false
  propagate_down: false
  propagate_down: false
  propagate_down: false
  box_output_param {
    fg_thr: -8
    iou_thr: 0.65
    nms_type: "IOU"
    field_h: 60
    field_h: 84
    field_h: 120
    field_h: 168
    field_h: 240
    field_h: 336
    field_h: 480
    field_w: 60
    field_w: 84
    field_w: 120
    field_w: 168
    field_w: 240
    field_w: 336
    field_w: 480
    downsample_rate: 8
    downsample_rate: 8
    downsample_rate: 16
    downsample_rate: 16
    downsample_rate: 32
    downsample_rate: 32
    downsample_rate: 64
    field_whr: 2
    field_xyr: 2
    max_nms_num: 3000
  }
}
layer {
  name: "proposal_info"
  type: "ProposalTarget"
  bottom: "proposals"
  bottom: "gt_boxes"
  top: "rois"
  top: "proposal_labels"
  top: "proposal_targets"
  top: "box_inside_weights"
  top: "box_outside_weights"
  top: "match_gt_boxes"
  include {
    phase: TRAIN
  }
  propagate_down: false
  propagate_down: false
  proposal_target_param {
    cls_num: 5
    batch_size: 256
    fg_fraction: 0.25
    num_img_per_batch: 4
    fg_thr: 0.5
    bg_thr_hg: 0.49
    bg_thr_lw: 0.1
    img_width: 768
    img_height: 576
  }
  bbox_reg_param {
    bbox_mean: 0
    bbox_mean: 0
    bbox_mean: 0
    bbox_mean: 0
    bbox_std: 0.1
    bbox_std: 0.1
    bbox_std: 0.2
    bbox_std: 0.2
  }
}
layer {
  name: "conv4_3_2x"
  type: "Deconvolution"
  bottom: "conv4_3"
  top: "conv4_3_2x"
  param {
    lr_mult: 0
    decay_mult: 0
  }
  convolution_param {
    num_output: 512
    bias_term: false
    pad: 1
    kernel_size: 4
    group: 512
    stride: 2
    weight_filler {
      type: "bilinear"
    }
  }
}
layer {
  name: "roi_pool_org"
  type: "ROIPooling"
  bottom: "conv4_3_2x"
  bottom: "rois"
  top: "roi_pool_org"
  roi_pooling_param {
    pooled_h: 7
    pooled_w: 7
    spatial_scale: 0.25
    pad_ratio: 0
  }
}
layer {
  name: "roi_pool_ctx"
  type: "ROIPooling"
  bottom: "conv4_3_2x"
  bottom: "rois"
  top: "roi_pool_ctx"
  roi_pooling_param {
    pooled_h: 7
    pooled_w: 7
    spatial_scale: 0.25
    pad_ratio: 0.25
  }
}
layer {
  name: "roi_pool"
  type: "Concat"
  bottom: "roi_pool_org"
  bottom: "roi_pool_ctx"
  top: "roi_pool"
}
layer {
  name: "roi_c1"
  type: "Convolution"
  bottom: "roi_pool"
  top: "roi_c1"
  param {
    lr_mult: 1
    decay_mult: 1
  }
  param {
    lr_mult: 2
    decay_mult: 0
  }
  convolution_param {
    num_output: 512
    kernel_size: 3
    weight_filler {
      type: "gaussian"
      std: 0.01
    }
    bias_filler {
      type: "constant"
    }
  }
}
layer {
  name: "roi_c1_relu"
  type: "ReLU"
  bottom: "roi_c1"
  top: "roi_c1"
}
layer {
  name: "fc6"
  type: "InnerProduct"
  bottom: "roi_c1"
  top: "fc6"
  param {
    lr_mult: 1
  }
  param {
    lr_mult: 2
  }
  inner_product_param {
    num_output: 4096
    weight_filler {
      type: "gaussian"
      std: 0.001
    }
    bias_filler {
      type: "constant"
      value: 0
    }
  }
}
layer {
  name: "relu6"
  type: "ReLU"
  bottom: "fc6"
  top: "fc6"
}
layer {
  name: "drop6"
  type: "Dropout"
  bottom: "fc6"
  top: "fc6"
  dropout_param {
    dropout_ratio: 0.5
  }
}
layer {
  name: "cls_pred"
  type: "InnerProduct"
  bottom: "fc6"
  top: "cls_pred"
  param {
    lr_mult: 1
  }
  param {
    lr_mult: 2
  }
  inner_product_param {
    num_output: 5
    weight_filler {
      type: "gaussian"
      std: 0.01
    }
    bias_filler {
      type: "constant"
      value: 0
    }
  }
}
layer {
  name: "bbox_pred"
  type: "InnerProduct"
  bottom: "fc6"
  top: "bbox_pred"
  param {
    lr_mult: 1
  }
  param {
    lr_mult: 2
  }
  inner_product_param {
    num_output: 20
    weight_filler {
      type: "gaussian"
      std: 0.001
    }
    bias_filler {
      type: "constant"
      value: 0
    }
  }
}
layer {
  name: "loss_cls"
  type: "SoftmaxWithLoss"
  bottom: "cls_pred"
  bottom: "proposal_labels"
  top: "loss_cls"
  loss_weight: 1
  propagate_down: true
  propagate_down: false
}
layer {
  name: "cls_accuracy"
  type: "Accuracy"
  bottom: "cls_pred"
  bottom: "proposal_labels"
  top: "cls_accuracy"
}
layer {
  name: "loss_bbox"
  type: "SmoothL1Loss"
  bottom: "bbox_pred"
  bottom: "proposal_targets"
  bottom: "box_inside_weights"
  bottom: "box_outside_weights"
  top: "loss_bbox"
  loss_weight: 1
}
layer {
  name: "bbox_iou"
  type: "BboxAccuracy"
  bottom: "bbox_pred"
  bottom: "rois"
  bottom: "match_gt_boxes"
  top: "bbox_iou"
  top: "bbox_iou_pre"
  bbox_reg_param {
    bbox_mean: 0
    bbox_mean: 0
    bbox_mean: 0
    bbox_mean: 0
    bbox_std: 0.1
    bbox_std: 0.1
    bbox_std: 0.2
    bbox_std: 0.2
  }
}
I0206 22:43:15.835242 18833 layer_factory.hpp:77] Creating layer data
I0206 22:43:15.835314 18833 net.cpp:100] Creating Layer data
I0206 22:43:15.835330 18833 net.cpp:408] data -> data
…
I0206 22:43:15.861389 18833 image_gt_data_layer.cpp:235] output label size 2 : 3,6,48,48
I0206 22:43:15.861426 18833 image_gt_data_layer.cpp:235] output label size 3 : 3,6,48,48
I0206 22:43:15.861461 18833 image_gt_data_layer.cpp:235] output label size 4 : 3,6,24,24
I0206 22:43:15.861501 18833 image_gt_data_layer.cpp:235] output label size 5 : 3,6,24,24
I0206 22:43:15.861542 18833 image_gt_data_layer.cpp:235] output label size 6 : 3,6,12,12
I0206 22:43:15.861585 18833 image_gt_data_layer.cpp:250] output gt boxes size: 1,7,1,1
I0206 22:43:15.910648 18833 net.cpp:150] Setting up data
I0206 22:43:15.910681 18833 net.cpp:157] Top shape: 3 4 768 768 (7077888)
I0206 22:43:15.910686 18833 net.cpp:157] Top shape: 3 6 96 96 (165888)
I0206 22:43:15.910689 18833 net.cpp:157] Top shape: 3 6 96 96 (165888)
I0206 22:43:15.910693 18833 net.cpp:157] Top shape: 3 6 48 48 (41472)
I0206 22:43:15.910697 18833 net.cpp:157] Top shape: 3 6 48 48 (41472)
I0206 22:43:15.910701 18833 net.cpp:157] Top shape: 3 6 24 24 (10368)
I0206 22:43:15.910704 18833 net.cpp:157] Top shape: 3 6 24 24 (10368)
I0206 22:43:15.910707 18833 net.cpp:157] Top shape: 3 6 12 12 (2592)
I0206 22:43:15.910712 18833 net.cpp:157] Top shape: 1 7 1 1 (7)
I0206 22:43:15.910714 18833 net.cpp:165] Memory required for data: 30063772
I0206 22:43:15.910722 18833 layer_factory.hpp:77] Creating layer label_1_5x5_data_1_split
I0206 22:43:15.910738 18833 net.cpp:100] Creating Layer label_1_5x5_data_1_split
I0206 22:43:15.910743 18833 net.cpp:434] label_1_5x5_data_1_split <- label_1_5x5
I0206 22:43:15.910755 18833 net.cpp:408] label_1_5x5_data_1_split -> label_1_5x5_data_1_split_0
I0206 22:43:15.910763 18833 net.cpp:408] label_1_5x5_data_1_split -> label_1_5x5_data_1_split_1
I0206 22:43:15.911008 18833 net.cpp:150] Setting up label_1_5x5_data_1_split
I0206 22:43:15.911053 18833 net.cpp:157] Top shape: 3 6 96 96 (165888)
I0206 22:43:15.911068 18833 net.cpp:157] Top shape: 3 6 96 96 (165888)
I0206 22:43:15.911075 18833 net.cpp:165] Memory required for data: 31390876
I0206 22:43:15.911087 18833 layer_factory.hpp:77] Creating layer label_1_7x7_data_2_split
I0206 22:43:15.911111 18833 net.cpp:100] Creating Layer label_1_7x7_data_2_split
I0206 22:43:15.911123 18833 net.cpp:434] label_1_7x7_data_2_split <- label_1_7x7
I0206 22:43:15.911134 18833 net.cpp:408] label_1_7x7_data_2_split -> label_1_7x7_data_2_split_0
I0206 22:43:15.911154 18833 net.cpp:408] label_1_7x7_data_2_split -> label_1_7x7_data_2_split_1
I0206 22:43:15.911219 18833 net.cpp:150] Setting up label_1_7x7_data_2_split
I0206 22:43:15.911232 18833 net.cpp:157] Top shape: 3 6 96 96 (165888)
I0206 22:43:15.911242 18833 net.cpp:157] Top shape: 3 6 96 96 (165888)
I0206 22:43:15.911249 18833 net.cpp:165] Memory required for data: 32717980
I0206 22:43:15.911257 18833 layer_factory.hpp:77] Creating layer label_2_5x5_data_3_split
I0206 22:43:15.911269 18833 net.cpp:100] Creating Layer label_2_5x5_data_3_split
I0206 22:43:15.911278 18833 net.cpp:434] label_2_5x5_data_3_split <- label_2_5x5
I0206 22:43:15.911288 18833 net.cpp:408] label_2_5x5_data_3_split -> label_2_5x5_data_3_split_0
I0206 22:43:15.911299 18833 net.cpp:408] label_2_5x5_data_3_split -> label_2_5x5_data_3_split_1
I0206 22:43:15.911360 18833 net.cpp:150] Setting up label_2_5x5_data_3_split
I0206 22:43:15.911373 18833 net.cpp:157] Top shape: 3 6 48 48 (41472)
I0206 22:43:15.911382 18833 net.cpp:157] Top shape: 3 6 48 48 (41472)
I0206 22:43:15.911389 18833 net.cpp:165] Memory required for data: 33049756
I0206 22:43:15.911398 18833 layer_factory.hpp:77] Creating layer label_2_7x7_data_4_split
I0206 22:43:15.911408 18833 net.cpp:100] Creating Layer label_2_7x7_data_4_split
I0206 22:43:15.911415 18833 net.cpp:434] label_2_7x7_data_4_split <- label_2_7x7
I0206 22:43:15.911428 18833 net.cpp:408] label_2_7x7_data_4_split -> label_2_7x7_data_4_split_0
I0206 22:43:15.911440 18833 net.cpp:408] label_2_7x7_data_4_split -> label_2_7x7_data_4_split_1
I0206 22:43:15.911502 18833 net.cpp:150] Setting up label_2_7x7_data_4_split
I0206 22:43:15.911515 18833 net.cpp:157] Top shape: 3 6 48 48 (41472)
I0206 22:43:15.911525 18833 net.cpp:157] Top shape: 3 6 48 48 (41472)
I0206 22:43:15.911532 18833 net.cpp:165] Memory required for data: 33381532
I0206 22:43:15.911540 18833 layer_factory.hpp:77] Creating layer label_3_5x5_data_5_split
I0206 22:43:15.911550 18833 net.cpp:100] Creating Layer label_3_5x5_data_5_split
I0206 22:43:15.911557 18833 net.cpp:434] label_3_5x5_data_5_split <- label_3_5x5
I0206 22:43:15.911569 18833 net.cpp:408] label_3_5x5_data_5_split -> label_3_5x5_data_5_split_0
I0206 22:43:15.911581 18833 net.cpp:408] label_3_5x5_data_5_split -> label_3_5x5_data_5_split_1
I0206 22:43:15.911636 18833 net.cpp:150] Setting up label_3_5x5_data_5_split
I0206 22:43:15.911649 18833 net.cpp:157] Top shape: 3 6 24 24 (10368)
I0206 22:43:15.911659 18833 net.cpp:157] Top shape: 3 6 24 24 (10368)
I0206 22:43:15.911665 18833 net.cpp:165] Memory required for data: 33464476
I0206 22:43:15.911672 18833 layer_factory.hpp:77] Creating layer label_3_7x7_data_6_split
I0206 22:43:15.911681 18833 net.cpp:100] Creating Layer label_3_7x7_data_6_split
I0206 22:43:15.911689 18833 net.cpp:434] label_3_7x7_data_6_split <- label_3_7x7
I0206 22:43:15.911700 18833 net.cpp:408] label_3_7x7_data_6_split -> label_3_7x7_data_6_split_0
I0206 22:43:15.911712 18833 net.cpp:408] label_3_7x7_data_6_split -> label_3_7x7_data_6_split_1
I0206 22:43:15.911769 18833 net.cpp:150] Setting up label_3_7x7_data_6_split
I0206 22:43:15.911782 18833 net.cpp:157] Top shape: 3 6 24 24 (10368)
I0206 22:43:15.911790 18833 net.cpp:157] Top shape: 3 6 24 24 (10368)
I0206 22:43:15.911800 18833 net.cpp:165] Memory required for data: 33547420
I0206 22:43:15.911808 18833 layer_factory.hpp:77] Creating layer label_4_5x5_data_7_split
I0206 22:43:15.911819 18833 net.cpp:100] Creating Layer label_4_5x5_data_7_split
I0206 22:43:15.911828 18833 net.cpp:434] label_4_5x5_data_7_split <- label_4_5x5
I0206 22:43:15.911839 18833 net.cpp:408] label_4_5x5_data_7_split -> label_4_5x5_data_7_split_0
I0206 22:43:15.911851 18833 net.cpp:408] label_4_5x5_data_7_split -> label_4_5x5_data_7_split_1
I0206 22:43:15.911911 18833 net.cpp:150] Setting up label_4_5x5_data_7_split
I0206 22:43:15.911924 18833 net.cpp:157] Top shape: 3 6 12 12 (2592)
I0206 22:43:15.911933 18833 net.cpp:157] Top shape: 3 6 12 12 (2592)
I0206 22:43:15.911942 18833 net.cpp:165] Memory required for data: 33568156
I0206 22:43:15.911949 18833 layer_factory.hpp:77] Creating layer slice
I0206 22:43:15.911970 18833 net.cpp:100] Creating Layer slice
I0206 22:43:15.911979 18833 net.cpp:434] slice <- data
I0206 22:43:15.911990 18833 net.cpp:408] slice -> data123
I0206 22:43:15.912006 18833 net.cpp:408] slice -> ch4
I0206 22:43:15.912075 18833 net.cpp:150] Setting up slice
I0206 22:43:15.912087 18833 net.cpp:157] Top shape: 3 3 768 768 (5308416)
I0206 22:43:15.912096 18833 net.cpp:157] Top shape: 3 1 768 768 (1769472)
I0206 22:43:15.912104 18833 net.cpp:165] Memory required for data: 61879708
I0206 22:43:15.912112 18833 layer_factory.hpp:77] Creating layer conv1_1
I0206 22:43:15.912133 18833 net.cpp:100] Creating Layer conv1_1
I0206 22:43:15.912143 18833 net.cpp:434] conv1_1 <- data123
I0206 22:43:15.912154 18833 net.cpp:408] conv1_1 -> conv1_1
I0206 22:43:16.160806 18833 net.cpp:150] Setting up conv1_1
I0206 22:43:16.160838 18833 net.cpp:157] Top shape: 3 64 768 768 (113246208)
I0206 22:43:16.160843 18833 net.cpp:165] Memory required for data: 514864540
I0206 22:43:16.160861 18833 layer_factory.hpp:77] Creating layer relu1_1
I0206 22:43:16.160876 18833 net.cpp:100] Creating Layer relu1_1
I0206 22:43:16.160882 18833 net.cpp:434] relu1_1 <- conv1_1
I0206 22:43:16.160887 18833 net.cpp:395] relu1_1 -> conv1_1 (in-place)
I0206 22:43:16.161159 18833 net.cpp:150] Setting up relu1_1
I0206 22:43:16.161171 18833 net.cpp:157] Top shape: 3 64 768 768 (113246208)
I0206 22:43:16.161177 18833 net.cpp:165] Memory required for data: 967849372
I0206 22:43:16.161181 18833 layer_factory.hpp:77] Creating layer conv1_2
I0206 22:43:16.161192 18833 net.cpp:100] Creating Layer conv1_2
I0206 22:43:16.161196 18833 net.cpp:434] conv1_2 <- conv1_1
I0206 22:43:16.161202 18833 net.cpp:408] conv1_2 -> conv1_2
I0206 22:43:16.163208 18833 net.cpp:150] Setting up conv1_2
I0206 22:43:16.163221 18833 net.cpp:157] Top shape: 3 64 768 768 (113246208)
I0206 22:43:16.163225 18833 net.cpp:165] Memory required for data: 1420834204
I0206 22:43:16.163236 18833 layer_factory.hpp:77] Creating layer relu1_2
I0206 22:43:16.163244 18833 net.cpp:100] Creating Layer relu1_2
I0206 22:43:16.163249 18833 net.cpp:434] relu1_2 <- conv1_2
I0206 22:43:16.163254 18833 net.cpp:395] relu1_2 -> conv1_2 (in-place)
I0206 22:43:16.163446 18833 net.cpp:150] Setting up relu1_2
I0206 22:43:16.163456 18833 net.cpp:157] Top shape: 3 64 768 768 (113246208)
I0206 22:43:16.163460 18833 net.cpp:165] Memory required for data: 1873819036
I0206 22:43:16.163465 18833 layer_factory.hpp:77] Creating layer pool1
I0206 22:43:16.163472 18833 net.cpp:100] Creating Layer pool1
I0206 22:43:16.163476 18833 net.cpp:434] pool1 <- conv1_2
I0206 22:43:16.163485 18833 net.cpp:408] pool1 -> pool1
I0206 22:43:16.163542 18833 net.cpp:150] Setting up pool1
I0206 22:43:16.163549 18833 net.cpp:157] Top shape: 3 64 384 384 (28311552)
I0206 22:43:16.163553 18833 net.cpp:165] Memory required for data: 1987065244
I0206 22:43:16.163556 18833 layer_factory.hpp:77] Creating layer ch4_pool1
I0206 22:43:16.163563 18833 net.cpp:100] Creating Layer ch4_pool1
I0206 22:43:16.163566 18833 net.cpp:434] ch4_pool1 <- ch4
I0206 22:43:16.163573 18833 net.cpp:408] ch4_pool1 -> ch4_pool1
I0206 22:43:16.163609 18833 net.cpp:150] Setting up ch4_pool1
I0206 22:43:16.163616 18833 net.cpp:157] Top shape: 3 1 384 384 (442368)
I0206 22:43:16.163619 18833 net.cpp:165] Memory required for data: 1988834716
I0206 22:43:16.163624 18833 layer_factory.hpp:77] Creating layer ch4_pool1_ch4_pool1_0_split
I0206 22:43:16.163631 18833 net.cpp:100] Creating Layer ch4_pool1_ch4_pool1_0_split
I0206 22:43:16.163635 18833 net.cpp:434] ch4_pool1_ch4_pool1_0_split <- ch4_pool1
I0206 22:43:16.163642 18833 net.cpp:408] ch4_pool1_ch4_pool1_0_split -> ch4_pool1_ch4_pool1_0_split_0
I0206 22:43:16.163650 18833 net.cpp:408] ch4_pool1_ch4_pool1_0_split -> ch4_pool1_ch4_pool1_0_split_1
I0206 22:43:16.163683 18833 net.cpp:150] Setting up ch4_pool1_ch4_pool1_0_split
I0206 22:43:16.163691 18833 net.cpp:157] Top shape: 3 1 384 384 (442368)
I0206 22:43:16.163695 18833 net.cpp:157] Top shape: 3 1 384 384 (442368)
I0206 22:43:16.163699 18833 net.cpp:165] Memory required for data: 1992373660
I0206 22:43:16.163703 18833 layer_factory.hpp:77] Creating layer pool1_concat
I0206 22:43:16.163712 18833 net.cpp:100] Creating Layer pool1_concat
I0206 22:43:16.163715 18833 net.cpp:434] pool1_concat <- pool1
I0206 22:43:16.163720 18833 net.cpp:434] pool1_concat <- ch4_pool1_ch4_pool1_0_split_0
I0206 22:43:16.163727 18833 net.cpp:408] pool1_concat -> pool1_new
I0206 22:43:16.163749 18833 net.cpp:150] Setting up pool1_concat
I0206 22:43:16.163756 18833 net.cpp:157] Top shape: 3 65 384 384 (28753920)
I0206 22:43:16.163759 18833 net.cpp:165] Memory required for data: 2107389340
I0206 22:43:16.163763 18833 layer_factory.hpp:77] Creating layer conv2_1_new
I0206 22:43:16.163774 18833 net.cpp:100] Creating Layer conv2_1_new
I0206 22:43:16.163779 18833 net.cpp:434] conv2_1_new <- pool1_new
I0206 22:43:16.163786 18833 net.cpp:408] conv2_1_new -> conv2_1
I0206 22:43:16.166074 18833 net.cpp:150] Setting up conv2_1_new
I0206 22:43:16.166092 18833 net.cpp:157] Top shape: 3 128 384 384 (56623104)
I0206 22:43:16.166096 18833 net.cpp:165] Memory required for data: 2333881756
I0206 22:43:16.166108 18833 layer_factory.hpp:77] Creating layer relu2_1
I0206 22:43:16.166117 18833 net.cpp:100] Creating Layer relu2_1
I0206 22:43:16.166122 18833 net.cpp:434] relu2_1 <- conv2_1
I0206 22:43:16.166129 18833 net.cpp:395] relu2_1 -> conv2_1 (in-place)
I0206 22:43:16.166316 18833 net.cpp:150] Setting up relu2_1
I0206 22:43:16.166326 18833 net.cpp:157] Top shape: 3 128 384 384 (56623104)
I0206 22:43:16.166329 18833 net.cpp:165] Memory required for data: 2560374172
I0206 22:43:16.166332 18833 layer_factory.hpp:77] Creating layer conv2_2
I0206 22:43:16.166343 18833 net.cpp:100] Creating Layer conv2_2
I0206 22:43:16.166347 18833 net.cpp:434] conv2_2 <- conv2_1
I0206 22:43:16.166355 18833 net.cpp:408] conv2_2 -> conv2_2
I0206 22:43:16.167860 18833 net.cpp:150] Setting up conv2_2
I0206 22:43:16.167872 18833 net.cpp:157] Top shape: 3 128 384 384 (56623104)
I0206 22:43:16.167876 18833 net.cpp:165] Memory required for data: 2786866588
I0206 22:43:16.167883 18833 layer_factory.hpp:77] Creating layer relu2_2
I0206 22:43:16.167889 18833 net.cpp:100] Creating Layer relu2_2
I0206 22:43:16.167892 18833 net.cpp:434] relu2_2 <- conv2_2
I0206 22:43:16.167898 18833 net.cpp:395] relu2_2 -> conv2_2 (in-place)
I0206 22:43:16.168053 18833 net.cpp:150] Setting up relu2_2
I0206 22:43:16.168059 18833 net.cpp:157] Top shape: 3 128 384 384 (56623104)
I0206 22:43:16.168062 18833 net.cpp:165] Memory required for data: 3013359004
I0206 22:43:16.168066 18833 layer_factory.hpp:77] Creating layer pool2
I0206 22:43:16.168071 18833 net.cpp:100] Creating Layer pool2
I0206 22:43:16.168073 18833 net.cpp:434] pool2 <- conv2_2
I0206 22:43:16.168078 18833 net.cpp:408] pool2 -> pool2
I0206 22:43:16.168120 18833 net.cpp:150] Setting up pool2
I0206 22:43:16.168125 18833 net.cpp:157] Top shape: 3 128 192 192 (14155776)
I0206 22:43:16.168128 18833 net.cpp:165] Memory required for data: 3069982108
I0206 22:43:16.168131 18833 layer_factory.hpp:77] Creating layer ch4_pool2
I0206 22:43:16.168138 18833 net.cpp:100] Creating Layer ch4_pool2
I0206 22:43:16.168143 18833 net.cpp:434] ch4_pool2 <- ch4_pool1_ch4_pool1_0_split_1
I0206 22:43:16.168148 18833 net.cpp:408] ch4_pool2 -> ch4_pool2
I0206 22:43:16.168220 18833 net.cpp:150] Setting up ch4_pool2
I0206 22:43:16.168228 18833 net.cpp:157] Top shape: 3 1 192 192 (110592)
I0206 22:43:16.168231 18833 net.cpp:165] Memory required for data: 3070424476
I0206 22:43:16.168236 18833 layer_factory.hpp:77] Creating layer ch4_pool2_ch4_pool2_0_split
I0206 22:43:16.168241 18833 net.cpp:100] Creating Layer ch4_pool2_ch4_pool2_0_split
I0206 22:43:16.168246 18833 net.cpp:434] ch4_pool2_ch4_pool2_0_split <- ch4_pool2
I0206 22:43:16.168251 18833 net.cpp:408] ch4_pool2_ch4_pool2_0_split -> ch4_pool2_ch4_pool2_0_split_0
I0206 22:43:16.168257 18833 net.cpp:408] ch4_pool2_ch4_pool2_0_split -> ch4_pool2_ch4_pool2_0_split_1
I0206 22:43:16.168320 18833 net.cpp:150] Setting up ch4_pool2_ch4_pool2_0_split
I0206 22:43:16.168328 18833 net.cpp:157] Top shape: 3 1 192 192 (110592)
I0206 22:43:16.168331 18833 net.cpp:157] Top shape: 3 1 192 192 (110592)
I0206 22:43:16.168334 18833 net.cpp:165] Memory required for data: 3071309212
I0206 22:43:16.168337 18833 layer_factory.hpp:77] Creating layer pool2_concat
I0206 22:43:16.168344 18833 net.cpp:100] Creating Layer pool2_concat
I0206 22:43:16.168347 18833 net.cpp:434] pool2_concat <- pool2
I0206 22:43:16.168351 18833 net.cpp:434] pool2_concat <- ch4_pool2_ch4_pool2_0_split_0
I0206 22:43:16.168356 18833 net.cpp:408] pool2_concat -> pool2_new
I0206 22:43:16.168375 18833 net.cpp:150] Setting up pool2_concat
I0206 22:43:16.168381 18833 net.cpp:157] Top shape: 3 129 192 192 (14266368)
I0206 22:43:16.168385 18833 net.cpp:165] Memory required for data: 3128374684
I0206 22:43:16.168388 18833 layer_factory.hpp:77] Creating layer conv3_1_new
I0206 22:43:16.168395 18833 net.cpp:100] Creating Layer conv3_1_new
I0206 22:43:16.168398 18833 net.cpp:434] conv3_1_new <- pool2_new
I0206 22:43:16.168404 18833 net.cpp:408] conv3_1_new -> conv3_1
I0206 22:43:16.174000 18833 net.cpp:150] Setting up conv3_1_new
I0206 22:43:16.174018 18833 net.cpp:157] Top shape: 3 256 192 192 (28311552)
I0206 22:43:16.174022 18833 net.cpp:165] Memory required for data: 3241620892
I0206 22:43:16.174032 18833 layer_factory.hpp:77] Creating layer relu3_1
I0206 22:43:16.174042 18833 net.cpp:100] Creating Layer relu3_1
I0206 22:43:16.174046 18833 net.cpp:434] relu3_1 <- conv3_1
I0206 22:43:16.174052 18833 net.cpp:395] relu3_1 -> conv3_1 (in-place)
I0206 22:43:16.174473 18833 net.cpp:150] Setting up relu3_1
I0206 22:43:16.174484 18833 net.cpp:157] Top shape: 3 256 192 192 (28311552)
I0206 22:43:16.174487 18833 net.cpp:165] Memory required for data: 3354867100
I0206 22:43:16.174491 18833 layer_factory.hpp:77] Creating layer conv3_2
I0206 22:43:16.174500 18833 net.cpp:100] Creating Layer conv3_2
I0206 22:43:16.174504 18833 net.cpp:434] conv3_2 <- conv3_1
I0206 22:43:16.174510 18833 net.cpp:408] conv3_2 -> conv3_2
I0206 22:43:16.176723 18833 net.cpp:150] Setting up conv3_2
I0206 22:43:16.176739 18833 net.cpp:157] Top shape: 3 256 192 192 (28311552)
I0206 22:43:16.176743 18833 net.cpp:165] Memory required for data: 3468113308
I0206 22:43:16.176751 18833 layer_factory.hpp:77] Creating layer relu3_2
I0206 22:43:16.176760 18833 net.cpp:100] Creating Layer relu3_2
I0206 22:43:16.176764 18833 net.cpp:434] relu3_2 <- conv3_2
I0206 22:43:16.176769 18833 net.cpp:395] relu3_2 -> conv3_2 (in-place)
I0206 22:43:16.177283 18833 net.cpp:150] Setting up relu3_2
I0206 22:43:16.177299 18833 net.cpp:157] Top shape: 3 256 192 192 (28311552)
I0206 22:43:16.177302 18833 net.cpp:165] Memory required for data: 3581359516
I0206 22:43:16.177307 18833 layer_factory.hpp:77] Creating layer conv3_3
I0206 22:43:16.177319 18833 net.cpp:100] Creating Layer conv3_3
I0206 22:43:16.177323 18833 net.cpp:434] conv3_3 <- conv3_2
I0206 22:43:16.177330 18833 net.cpp:408] conv3_3 -> conv3_3
I0206 22:43:16.179781 18833 net.cpp:150] Setting up conv3_3
I0206 22:43:16.179797 18833 net.cpp:157] Top shape: 3 256 192 192 (28311552)
I0206 22:43:16.179801 18833 net.cpp:165] Memory required for data: 3694605724
I0206 22:43:16.179808 18833 layer_factory.hpp:77] Creating layer relu3_3
I0206 22:43:16.179816 18833 net.cpp:100] Creating Layer relu3_3
I0206 22:43:16.179821 18833 net.cpp:434] relu3_3 <- conv3_3
I0206 22:43:16.179826 18833 net.cpp:395] relu3_3 -> conv3_3 (in-place)
I0206 22:43:16.179961 18833 net.cpp:150] Setting up relu3_3
I0206 22:43:16.179970 18833 net.cpp:157] Top shape: 3 256 192 192 (28311552)
I0206 22:43:16.179972 18833 net.cpp:165] Memory required for data: 3807851932
I0206 22:43:16.179975 18833 layer_factory.hpp:77] Creating layer pool3
I0206 22:43:16.179980 18833 net.cpp:100] Creating Layer pool3
I0206 22:43:16.179983 18833 net.cpp:434] pool3 <- conv3_3
I0206 22:43:16.179988 18833 net.cpp:408] pool3 -> pool3
I0206 22:43:16.180019 18833 net.cpp:150] Setting up pool3
I0206 22:43:16.180025 18833 net.cpp:157] Top shape: 3 256 96 96 (7077888)
I0206 22:43:16.180027 18833 net.cpp:165] Memory required for data: 3836163484
I0206 22:43:16.180030 18833 layer_factory.hpp:77] Creating layer ch4_pool3
I0206 22:43:16.180039 18833 net.cpp:100] Creating Layer ch4_pool3
I0206 22:43:16.180044 18833 net.cpp:434] ch4_pool3 <- ch4_pool2_ch4_pool2_0_split_1
I0206 22:43:16.180049 18833 net.cpp:408] ch4_pool3 -> ch4_pool3
I0206 22:43:16.180074 18833 net.cpp:150] Setting up ch4_pool3
I0206 22:43:16.180080 18833 net.cpp:157] Top shape: 3 1 96 96 (27648)
I0206 22:43:16.180083 18833 net.cpp:165] Memory required for data: 3836274076
I0206 22:43:16.180085 18833 layer_factory.hpp:77] Creating layer pool3_concat
I0206 22:43:16.180090 18833 net.cpp:100] Creating Layer pool3_concat
I0206 22:43:16.180094 18833 net.cpp:434] pool3_concat <- pool3
I0206 22:43:16.180097 18833 net.cpp:434] pool3_concat <- ch4_pool3
I0206 22:43:16.180101 18833 net.cpp:408] pool3_concat -> pool3_new
I0206 22:43:16.180121 18833 net.cpp:150] Setting up pool3_concat
I0206 22:43:16.180127 18833 net.cpp:157] Top shape: 3 257 96 96 (7105536)
I0206 22:43:16.180130 18833 net.cpp:165] Memory required for data: 3864696220
I0206 22:43:16.180135 18833 layer_factory.hpp:77] Creating layer conv4_1_new
I0206 22:43:16.180141 18833 net.cpp:100] Creating Layer conv4_1_new
I0206 22:43:16.180145 18833 net.cpp:434] conv4_1_new <- pool3_new
I0206 22:43:16.180150 18833 net.cpp:408] conv4_1_new -> conv4_1
I0206 22:43:16.183974 18833 net.cpp:150] Setting up conv4_1_new
I0206 22:43:16.184001 18833 net.cpp:157] Top shape: 3 512 96 96 (14155776)
I0206 22:43:16.184005 18833 net.cpp:165] Memory required for data: 3921319324
I0206 22:43:16.184013 18833 layer_factory.hpp:77] Creating layer relu4_1
I0206 22:43:16.184025 18833 net.cpp:100] Creating Layer relu4_1
I0206 22:43:16.184031 18833 net.cpp:434] relu4_1 <- conv4_1
I0206 22:43:16.184036 18833 net.cpp:395] relu4_1 -> conv4_1 (in-place)
I0206 22:43:16.184176 18833 net.cpp:150] Setting up relu4_1
I0206 22:43:16.184185 18833 net.cpp:157] Top shape: 3 512 96 96 (14155776)
I0206 22:43:16.184188 18833 net.cpp:165] Memory required for data: 3977942428
I0206 22:43:16.184192 18833 layer_factory.hpp:77] Creating layer conv4_2
I0206 22:43:16.184202 18833 net.cpp:100] Creating Layer conv4_2
I0206 22:43:16.184206 18833 net.cpp:434] conv4_2 <- conv4_1
I0206 22:43:16.184213 18833 net.cpp:408] conv4_2 -> conv4_2
I0206 22:43:16.190162 18833 net.cpp:150] Setting up conv4_2
I0206 22:43:16.190191 18833 net.cpp:157] Top shape: 3 512 96 96 (14155776)
I0206 22:43:16.190196 18833 net.cpp:165] Memory required for data: 4034565532
I0206 22:43:16.190208 18833 layer_factory.hpp:77] Creating layer relu4_2
I0206 22:43:16.190222 18833 net.cpp:100] Creating Layer relu4_2
I0206 22:43:16.190228 18833 net.cpp:434] relu4_2 <- conv4_2
I0206 22:43:16.190233 18833 net.cpp:395] relu4_2 -> conv4_2 (in-place)
I0206 22:43:16.190419 18833 net.cpp:150] Setting up relu4_2
I0206 22:43:16.190430 18833 net.cpp:157] Top shape: 3 512 96 96 (14155776)
I0206 22:43:16.190434 18833 net.cpp:165] Memory required for data: 4091188636
I0206 22:43:16.190439 18833 layer_factory.hpp:77] Creating layer conv4_3
I0206 22:43:16.190450 18833 net.cpp:100] Creating Layer conv4_3
I0206 22:43:16.190454 18833 net.cpp:434] conv4_3 <- conv4_2
I0206 22:43:16.190461 18833 net.cpp:408] conv4_3 -> conv4_3
I0206 22:43:16.196393 18833 net.cpp:150] Setting up conv4_3
I0206 22:43:16.196421 18833 net.cpp:157] Top shape: 3 512 96 96 (14155776)
I0206 22:43:16.196426 18833 net.cpp:165] Memory required for data: 4147811740
I0206 22:43:16.196434 18833 layer_factory.hpp:77] Creating layer relu4_3
I0206 22:43:16.196445 18833 net.cpp:100] Creating Layer relu4_3
I0206 22:43:16.196451 18833 net.cpp:434] relu4_3 <- conv4_3
I0206 22:43:16.196458 18833 net.cpp:395] relu4_3 -> conv4_3 (in-place)
I0206 22:43:16.196619 18833 net.cpp:150] Setting up relu4_3
I0206 22:43:16.196629 18833 net.cpp:157] Top shape: 3 512 96 96 (14155776)
I0206 22:43:16.196631 18833 net.cpp:165] Memory required for data: 4204434844
I0206 22:43:16.196635 18833 layer_factory.hpp:77] Creating layer conv4_3_relu4_3_0_split
I0206 22:43:16.196640 18833 net.cpp:100] Creating Layer conv4_3_relu4_3_0_split
I0206 22:43:16.196645 18833 net.cpp:434] conv4_3_relu4_3_0_split <- conv4_3
I0206 22:43:16.196648 18833 net.cpp:408] conv4_3_relu4_3_0_split -> conv4_3_relu4_3_0_split_0
I0206 22:43:16.196656 18833 net.cpp:408] conv4_3_relu4_3_0_split -> conv4_3_relu4_3_0_split_1
I0206 22:43:16.196661 18833 net.cpp:408] conv4_3_relu4_3_0_split -> conv4_3_relu4_3_0_split_2
I0206 22:43:16.196707 18833 net.cpp:150] Setting up conv4_3_relu4_3_0_split
I0206 22:43:16.196714 18833 net.cpp:157] Top shape: 3 512 96 96 (14155776)
I0206 22:43:16.196719 18833 net.cpp:157] Top shape: 3 512 96 96 (14155776)
I0206 22:43:16.196722 18833 net.cpp:157] Top shape: 3 512 96 96 (14155776)
I0206 22:43:16.196727 18833 net.cpp:165] Memory required for data: 4374304156
I0206 22:43:16.196729 18833 layer_factory.hpp:77] Creating layer loss1_conv1
I0206 22:43:16.196740 18833 net.cpp:100] Creating Layer loss1_conv1
I0206 22:43:16.196744 18833 net.cpp:434] loss1_conv1 <- conv4_3_relu4_3_0_split_0
I0206 22:43:16.196750 18833 net.cpp:408] loss1_conv1 -> loss1_conv1
I0206 22:43:16.256152 18833 net.cpp:150] Setting up loss1_conv1
I0206 22:43:16.256180 18833 net.cpp:157] Top shape: 3 512 96 96 (14155776)
I0206 22:43:16.256183 18833 net.cpp:165] Memory required for data: 4430927260
I0206 22:43:16.256192 18833 layer_factory.hpp:77] Creating layer loss_relu1
I0206 22:43:16.256204 18833 net.cpp:100] Creating Layer loss_relu1
I0206 22:43:16.256211 18833 net.cpp:434] loss_relu1 <- loss1_conv1
I0206 22:43:16.256217 18833 net.cpp:395] loss_relu1 -> loss1_conv1 (in-place)
I0206 22:43:16.256660 18833 net.cpp:150] Setting up loss_relu1
I0206 22:43:16.256672 18833 net.cpp:157] Top shape: 3 512 96 96 (14155776)
I0206 22:43:16.256676 18833 net.cpp:165] Memory required for data: 4487550364
I0206 22:43:16.256680 18833 layer_factory.hpp:77] Creating layer loss1_conv1_loss_relu1_0_split
I0206 22:43:16.256687 18833 net.cpp:100] Creating Layer loss1_conv1_loss_relu1_0_split
I0206 22:43:16.256690 18833 net.cpp:434] loss1_conv1_loss_relu1_0_split <- loss1_conv1
I0206 22:43:16.256695 18833 net.cpp:408] loss1_conv1_loss_relu1_0_split -> loss1_conv1_loss_relu1_0_split_0
I0206 22:43:16.256702 18833 net.cpp:408] loss1_conv1_loss_relu1_0_split -> loss1_conv1_loss_relu1_0_split_1
I0206 22:43:16.256738 18833 net.cpp:150] Setting up loss1_conv1_loss_relu1_0_split
I0206 22:43:16.256743 18833 net.cpp:157] Top shape: 3 512 96 96 (14155776)
I0206 22:43:16.256747 18833 net.cpp:157] Top shape: 3 512 96 96 (14155776)
I0206 22:43:16.256750 18833 net.cpp:165] Memory required for data: 4600796572
I0206 22:43:16.256753 18833 layer_factory.hpp:77] Creating layer LFCN_1_5x5
I0206 22:43:16.256763 18833 net.cpp:100] Creating Layer LFCN_1_5x5
I0206 22:43:16.256767 18833 net.cpp:434] LFCN_1_5x5 <- loss1_conv1_loss_relu1_0_split_0
I0206 22:43:16.256774 18833 net.cpp:408] LFCN_1_5x5 -> LFCN_1_5x5
I0206 22:43:16.260382 18833 net.cpp:150] Setting up LFCN_1_5x5
I0206 22:43:16.260396 18833 net.cpp:157] Top shape: 3 9 96 96 (248832)
I0206 22:43:16.260399 18833 net.cpp:165] Memory required for data: 4601791900
I0206 22:43:16.260407 18833 layer_factory.hpp:77] Creating layer LFCN_1_5x5_LFCN_1_5x5_0_split
I0206 22:43:16.260412 18833 net.cpp:100] Creating Layer LFCN_1_5x5_LFCN_1_5x5_0_split
I0206 22:43:16.260416 18833 net.cpp:434] LFCN_1_5x5_LFCN_1_5x5_0_split <- LFCN_1_5x5
I0206 22:43:16.260421 18833 net.cpp:408] LFCN_1_5x5_LFCN_1_5x5_0_split -> LFCN_1_5x5_LFCN_1_5x5_0_split_0
I0206 22:43:16.260428 18833 net.cpp:408] LFCN_1_5x5_LFCN_1_5x5_0_split -> LFCN_1_5x5_LFCN_1_5x5_0_split_1
I0206 22:43:16.260433 18833 net.cpp:408] LFCN_1_5x5_LFCN_1_5x5_0_split -> LFCN_1_5x5_LFCN_1_5x5_0_split_2
I0206 22:43:16.260476 18833 net.cpp:150] Setting up LFCN_1_5x5_LFCN_1_5x5_0_split
I0206 22:43:16.260483 18833 net.cpp:157] Top shape: 3 9 96 96 (248832)
I0206 22:43:16.260488 18833 net.cpp:157] Top shape: 3 9 96 96 (248832)
I0206 22:43:16.260493 18833 net.cpp:157] Top shape: 3 9 96 96 (248832)
I0206 22:43:16.260495 18833 net.cpp:165] Memory required for data: 4604777884
I0206 22:43:16.260499 18833 layer_factory.hpp:77] Creating layer detection_loss_1_5x5
I0206 22:43:16.260505 18833 net.cpp:100] Creating Layer detection_loss_1_5x5
I0206 22:43:16.260509 18833 net.cpp:434] detection_loss_1_5x5 <- LFCN_1_5x5_LFCN_1_5x5_0_split_0
I0206 22:43:16.260512 18833 net.cpp:434] detection_loss_1_5x5 <- label_1_5x5_data_1_split_0
I0206 22:43:16.260519 18833 net.cpp:408] detection_loss_1_5x5 -> loss_1_5x5
I0206 22:43:16.260531 18833 layer_factory.hpp:77] Creating layer detection_loss_1_5x5
I0206 22:43:16.262044 18833 net.cpp:150] Setting up detection_loss_1_5x5
I0206 22:43:16.262058 18833 net.cpp:157] Top shape: 1 1 1 2 (2)
I0206 22:43:16.262063 18833 net.cpp:160]     with loss weight 0.9
I0206 22:43:16.262080 18833 net.cpp:165] Memory required for data: 4604777892
I0206 22:43:16.262084 18833 layer_factory.hpp:77] Creating layer detection_accuracy_1_5x5
I0206 22:43:16.262092 18833 net.cpp:100] Creating Layer detection_accuracy_1_5x5
I0206 22:43:16.262096 18833 net.cpp:434] detection_accuracy_1_5x5 <- LFCN_1_5x5_LFCN_1_5x5_0_split_1
I0206 22:43:16.262101 18833 net.cpp:434] detection_accuracy_1_5x5 <- label_1_5x5_data_1_split_1
I0206 22:43:16.262106 18833 net.cpp:408] detection_accuracy_1_5x5 -> accuracy_1_5x5
I0206 22:43:16.262115 18833 net.cpp:408] detection_accuracy_1_5x5 -> boxiou_1_5x5
I0206 22:43:16.262151 18833 net.cpp:150] Setting up detection_accuracy_1_5x5
I0206 22:43:16.262158 18833 net.cpp:157] Top shape: 1 1 1 2 (2)
I0206 22:43:16.262162 18833 net.cpp:157] Top shape: 1 1 1 1 (1)
I0206 22:43:16.262166 18833 net.cpp:165] Memory required for data: 4604777904
I0206 22:43:16.262168 18833 layer_factory.hpp:77] Creating layer LFCN_1_7x7
I0206 22:43:16.262178 18833 net.cpp:100] Creating Layer LFCN_1_7x7
I0206 22:43:16.262183 18833 net.cpp:434] LFCN_1_7x7 <- loss1_conv1_loss_relu1_0_split_1
I0206 22:43:16.262189 18833 net.cpp:408] LFCN_1_7x7 -> LFCN_1_7x7
I0206 22:43:16.268935 18833 net.cpp:150] Setting up LFCN_1_7x7
I0206 22:43:16.268949 18833 net.cpp:157] Top shape: 3 9 96 96 (248832)
I0206 22:43:16.268952 18833 net.cpp:165] Memory required for data: 4605773232
I0206 22:43:16.268959 18833 layer_factory.hpp:77] Creating layer LFCN_1_7x7_LFCN_1_7x7_0_split
I0206 22:43:16.268965 18833 net.cpp:100] Creating Layer LFCN_1_7x7_LFCN_1_7x7_0_split
I0206 22:43:16.268970 18833 net.cpp:434] LFCN_1_7x7_LFCN_1_7x7_0_split <- LFCN_1_7x7
I0206 22:43:16.268975 18833 net.cpp:408] LFCN_1_7x7_LFCN_1_7x7_0_split -> LFCN_1_7x7_LFCN_1_7x7_0_split_0
I0206 22:43:16.268982 18833 net.cpp:408] LFCN_1_7x7_LFCN_1_7x7_0_split -> LFCN_1_7x7_LFCN_1_7x7_0_split_1
I0206 22:43:16.268987 18833 net.cpp:408] LFCN_1_7x7_LFCN_1_7x7_0_split -> LFCN_1_7x7_LFCN_1_7x7_0_split_2
I0206 22:43:16.269037 18833 net.cpp:150] Setting up LFCN_1_7x7_LFCN_1_7x7_0_split
I0206 22:43:16.269044 18833 net.cpp:157] Top shape: 3 9 96 96 (248832)
I0206 22:43:16.269048 18833 net.cpp:157] Top shape: 3 9 96 96 (248832)
I0206 22:43:16.269052 18833 net.cpp:157] Top shape: 3 9 96 96 (248832)
I0206 22:43:16.269055 18833 net.cpp:165] Memory required for data: 4608759216
I0206 22:43:16.269059 18833 layer_factory.hpp:77] Creating layer detection_loss_1_7x7
I0206 22:43:16.269067 18833 net.cpp:100] Creating Layer detection_loss_1_7x7
I0206 22:43:16.269070 18833 net.cpp:434] detection_loss_1_7x7 <- LFCN_1_7x7_LFCN_1_7x7_0_split_0
I0206 22:43:16.269074 18833 net.cpp:434] detection_loss_1_7x7 <- label_1_7x7_data_2_split_0
I0206 22:43:16.269080 18833 net.cpp:408] detection_loss_1_7x7 -> loss_1_7x7
I0206 22:43:16.269088 18833 layer_factory.hpp:77] Creating layer detection_loss_1_7x7
I0206 22:43:16.269459 18833 net.cpp:150] Setting up detection_loss_1_7x7
I0206 22:43:16.269470 18833 net.cpp:157] Top shape: 1 1 1 2 (2)
I0206 22:43:16.269474 18833 net.cpp:160]     with loss weight 0.9
I0206 22:43:16.269484 18833 net.cpp:165] Memory required for data: 4608759224
I0206 22:43:16.269489 18833 layer_factory.hpp:77] Creating layer detection_accuracy_1_7x7
I0206 22:43:16.269498 18833 net.cpp:100] Creating Layer detection_accuracy_1_7x7
I0206 22:43:16.269506 18833 net.cpp:434] detection_accuracy_1_7x7 <- LFCN_1_7x7_LFCN_1_7x7_0_split_1
I0206 22:43:16.269513 18833 net.cpp:434] detection_accuracy_1_7x7 <- label_1_7x7_data_2_split_1
I0206 22:43:16.269520 18833 net.cpp:408] detection_accuracy_1_7x7 -> accuracy_1_7x7
I0206 22:43:16.269531 18833 net.cpp:408] detection_accuracy_1_7x7 -> boxiou_1_7x7
I0206 22:43:16.269582 18833 net.cpp:150] Setting up detection_accuracy_1_7x7
I0206 22:43:16.269590 18833 net.cpp:157] Top shape: 1 1 1 2 (2)
I0206 22:43:16.269596 18833 net.cpp:157] Top shape: 1 1 1 1 (1)
I0206 22:43:16.269601 18833 net.cpp:165] Memory required for data: 4608759236
I0206 22:43:16.269605 18833 layer_factory.hpp:77] Creating layer pool4
I0206 22:43:16.269613 18833 net.cpp:100] Creating Layer pool4
I0206 22:43:16.269619 18833 net.cpp:434] pool4 <- conv4_3_relu4_3_0_split_1
I0206 22:43:16.269626 18833 net.cpp:408] pool4 -> pool4
I0206 22:43:16.269668 18833 net.cpp:150] Setting up pool4
I0206 22:43:16.269677 18833 net.cpp:157] Top shape: 3 512 48 48 (3538944)
I0206 22:43:16.269681 18833 net.cpp:165] Memory required for data: 4622915012
I0206 22:43:16.269686 18833 layer_factory.hpp:77] Creating layer conv5_1
I0206 22:43:16.269697 18833 net.cpp:100] Creating Layer conv5_1
I0206 22:43:16.269704 18833 net.cpp:434] conv5_1 <- pool4
I0206 22:43:16.269711 18833 net.cpp:408] conv5_1 -> conv5_1
I0206 22:43:16.275614 18833 net.cpp:150] Setting up conv5_1
I0206 22:43:16.275647 18833 net.cpp:157] Top shape: 3 512 48 48 (3538944)
I0206 22:43:16.275652 18833 net.cpp:165] Memory required for data: 4637070788
I0206 22:43:16.275663 18833 layer_factory.hpp:77] Creating layer relu5_1
I0206 22:43:16.275678 18833 net.cpp:100] Creating Layer relu5_1
I0206 22:43:16.275686 18833 net.cpp:434] relu5_1 <- conv5_1
I0206 22:43:16.275694 18833 net.cpp:395] relu5_1 -> conv5_1 (in-place)
I0206 22:43:16.275861 18833 net.cpp:150] Setting up relu5_1
I0206 22:43:16.275871 18833 net.cpp:157] Top shape: 3 512 48 48 (3538944)
I0206 22:43:16.275876 18833 net.cpp:165] Memory required for data: 4651226564
I0206 22:43:16.275880 18833 layer_factory.hpp:77] Creating layer conv5_2
I0206 22:43:16.275892 18833 net.cpp:100] Creating Layer conv5_2
I0206 22:43:16.275898 18833 net.cpp:434] conv5_2 <- conv5_1
I0206 22:43:16.275907 18833 net.cpp:408] conv5_2 -> conv5_2
I0206 22:43:16.282163 18833 net.cpp:150] Setting up conv5_2
I0206 22:43:16.282194 18833 net.cpp:157] Top shape: 3 512 48 48 (3538944)
I0206 22:43:16.282200 18833 net.cpp:165] Memory required for data: 4665382340
I0206 22:43:16.282212 18833 layer_factory.hpp:77] Creating layer relu5_2
I0206 22:43:16.282224 18833 net.cpp:100] Creating Layer relu5_2
I0206 22:43:16.282232 18833 net.cpp:434] relu5_2 <- conv5_2
I0206 22:43:16.282241 18833 net.cpp:395] relu5_2 -> conv5_2 (in-place)
I0206 22:43:16.282409 18833 net.cpp:150] Setting up relu5_2
I0206 22:43:16.282420 18833 net.cpp:157] Top shape: 3 512 48 48 (3538944)
I0206 22:43:16.282424 18833 net.cpp:165] Memory required for data: 4679538116
I0206 22:43:16.282429 18833 layer_factory.hpp:77] Creating layer conv5_3
I0206 22:43:16.282441 18833 net.cpp:100] Creating Layer conv5_3
I0206 22:43:16.282449 18833 net.cpp:434] conv5_3 <- conv5_2
I0206 22:43:16.282457 18833 net.cpp:408] conv5_3 -> conv5_3
I0206 22:43:16.288189 18833 net.cpp:150] Setting up conv5_3
I0206 22:43:16.288223 18833 net.cpp:157] Top shape: 3 512 48 48 (3538944)
I0206 22:43:16.288228 18833 net.cpp:165] Memory required for data: 4693693892
I0206 22:43:16.288241 18833 layer_factory.hpp:77] Creating layer relu5_3
I0206 22:43:16.288259 18833 net.cpp:100] Creating Layer relu5_3
I0206 22:43:16.288269 18833 net.cpp:434] relu5_3 <- conv5_3
I0206 22:43:16.288276 18833 net.cpp:395] relu5_3 -> conv5_3 (in-place)
I0206 22:43:16.288444 18833 net.cpp:150] Setting up relu5_3
I0206 22:43:16.288456 18833 net.cpp:157] Top shape: 3 512 48 48 (3538944)
I0206 22:43:16.288461 18833 net.cpp:165] Memory required for data: 4707849668
I0206 22:43:16.288465 18833 layer_factory.hpp:77] Creating layer conv5_3_relu5_3_0_split
I0206 22:43:16.288473 18833 net.cpp:100] Creating Layer conv5_3_relu5_3_0_split
I0206 22:43:16.288480 18833 net.cpp:434] conv5_3_relu5_3_0_split <- conv5_3
I0206 22:43:16.288486 18833 net.cpp:408] conv5_3_relu5_3_0_split -> conv5_3_relu5_3_0_split_0
I0206 22:43:16.288496 18833 net.cpp:408] conv5_3_relu5_3_0_split -> conv5_3_relu5_3_0_split_1
I0206 22:43:16.288507 18833 net.cpp:408] conv5_3_relu5_3_0_split -> conv5_3_relu5_3_0_split_2
I0206 22:43:16.288560 18833 net.cpp:150] Setting up conv5_3_relu5_3_0_split
I0206 22:43:16.288569 18833 net.cpp:157] Top shape: 3 512 48 48 (3538944)
I0206 22:43:16.288575 18833 net.cpp:157] Top shape: 3 512 48 48 (3538944)
I0206 22:43:16.288580 18833 net.cpp:157] Top shape: 3 512 48 48 (3538944)
I0206 22:43:16.288585 18833 net.cpp:165] Memory required for data: 4750316996
I0206 22:43:16.288589 18833 layer_factory.hpp:77] Creating layer LFCN_2_5x5
I0206 22:43:16.288602 18833 net.cpp:100] Creating Layer LFCN_2_5x5
I0206 22:43:16.288606 18833 net.cpp:434] LFCN_2_5x5 <- conv5_3_relu5_3_0_split_0
I0206 22:43:16.288616 18833 net.cpp:408] LFCN_2_5x5 -> LFCN_2_5x5
I0206 22:43:16.293089 18833 net.cpp:150] Setting up LFCN_2_5x5
I0206 22:43:16.293104 18833 net.cpp:157] Top shape: 3 9 48 48 (62208)
I0206 22:43:16.293109 18833 net.cpp:165] Memory required for data: 4750565828
I0206 22:43:16.293126 18833 layer_factory.hpp:77] Creating layer LFCN_2_5x5_LFCN_2_5x5_0_split
I0206 22:43:16.293135 18833 net.cpp:100] Creating Layer LFCN_2_5x5_LFCN_2_5x5_0_split
I0206 22:43:16.293141 18833 net.cpp:434] LFCN_2_5x5_LFCN_2_5x5_0_split <- LFCN_2_5x5
I0206 22:43:16.293150 18833 net.cpp:408] LFCN_2_5x5_LFCN_2_5x5_0_split -> LFCN_2_5x5_LFCN_2_5x5_0_split_0
I0206 22:43:16.293159 18833 net.cpp:408] LFCN_2_5x5_LFCN_2_5x5_0_split -> LFCN_2_5x5_LFCN_2_5x5_0_split_1
I0206 22:43:16.293164 18833 net.cpp:408] LFCN_2_5x5_LFCN_2_5x5_0_split -> LFCN_2_5x5_LFCN_2_5x5_0_split_2
I0206 22:43:16.293218 18833 net.cpp:150] Setting up LFCN_2_5x5_LFCN_2_5x5_0_split
I0206 22:43:16.293227 18833 net.cpp:157] Top shape: 3 9 48 48 (62208)
I0206 22:43:16.293233 18833 net.cpp:157] Top shape: 3 9 48 48 (62208)
I0206 22:43:16.293239 18833 net.cpp:157] Top shape: 3 9 48 48 (62208)
I0206 22:43:16.293243 18833 net.cpp:165] Memory required for data: 4751312324
I0206 22:43:16.293248 18833 layer_factory.hpp:77] Creating layer detection_loss_2_5x5
I0206 22:43:16.293256 18833 net.cpp:100] Creating Layer detection_loss_2_5x5
I0206 22:43:16.293262 18833 net.cpp:434] detection_loss_2_5x5 <- LFCN_2_5x5_LFCN_2_5x5_0_split_0
I0206 22:43:16.293269 18833 net.cpp:434] detection_loss_2_5x5 <- label_2_5x5_data_3_split_0
I0206 22:43:16.293277 18833 net.cpp:408] detection_loss_2_5x5 -> loss_2_5x5
I0206 22:43:16.293289 18833 layer_factory.hpp:77] Creating layer detection_loss_2_5x5
I0206 22:43:16.293908 18833 net.cpp:150] Setting up detection_loss_2_5x5
I0206 22:43:16.293922 18833 net.cpp:157] Top shape: 1 1 1 2 (2)
I0206 22:43:16.293926 18833 net.cpp:160]     with loss weight 1
I0206 22:43:16.293942 18833 net.cpp:165] Memory required for data: 4751312332
I0206 22:43:16.293952 18833 layer_factory.hpp:77] Creating layer detection_accuracy_2_5x5
I0206 22:43:16.293962 18833 net.cpp:100] Creating Layer detection_accuracy_2_5x5
I0206 22:43:16.293969 18833 net.cpp:434] detection_accuracy_2_5x5 <- LFCN_2_5x5_LFCN_2_5x5_0_split_1
I0206 22:43:16.293975 18833 net.cpp:434] detection_accuracy_2_5x5 <- label_2_5x5_data_3_split_1
I0206 22:43:16.293983 18833 net.cpp:408] detection_accuracy_2_5x5 -> accuracy_2_5x5
I0206 22:43:16.293998 18833 net.cpp:408] detection_accuracy_2_5x5 -> boxiou_2_5x5
I0206 22:43:16.294039 18833 net.cpp:150] Setting up detection_accuracy_2_5x5
I0206 22:43:16.294049 18833 net.cpp:157] Top shape: 1 1 1 2 (2)
I0206 22:43:16.294054 18833 net.cpp:157] Top shape: 1 1 1 1 (1)
I0206 22:43:16.294059 18833 net.cpp:165] Memory required for data: 4751312344
I0206 22:43:16.294064 18833 layer_factory.hpp:77] Creating layer LFCN_2_7x7
I0206 22:43:16.294080 18833 net.cpp:100] Creating Layer LFCN_2_7x7
I0206 22:43:16.294086 18833 net.cpp:434] LFCN_2_7x7 <- conv5_3_relu5_3_0_split_1
I0206 22:43:16.294096 18833 net.cpp:408] LFCN_2_7x7 -> LFCN_2_7x7
I0206 22:43:16.300360 18833 net.cpp:150] Setting up LFCN_2_7x7
I0206 22:43:16.300372 18833 net.cpp:157] Top shape: 3 9 48 48 (62208)
I0206 22:43:16.300376 18833 net.cpp:165] Memory required for data: 4751561176
I0206 22:43:16.300384 18833 layer_factory.hpp:77] Creating layer LFCN_2_7x7_LFCN_2_7x7_0_split
I0206 22:43:16.300393 18833 net.cpp:100] Creating Layer LFCN_2_7x7_LFCN_2_7x7_0_split
I0206 22:43:16.300400 18833 net.cpp:434] LFCN_2_7x7_LFCN_2_7x7_0_split <- LFCN_2_7x7
I0206 22:43:16.300407 18833 net.cpp:408] LFCN_2_7x7_LFCN_2_7x7_0_split -> LFCN_2_7x7_LFCN_2_7x7_0_split_0
I0206 22:43:16.300416 18833 net.cpp:408] LFCN_2_7x7_LFCN_2_7x7_0_split -> LFCN_2_7x7_LFCN_2_7x7_0_split_1
I0206 22:43:16.300424 18833 net.cpp:408] LFCN_2_7x7_LFCN_2_7x7_0_split -> LFCN_2_7x7_LFCN_2_7x7_0_split_2
I0206 22:43:16.300468 18833 net.cpp:150] Setting up LFCN_2_7x7_LFCN_2_7x7_0_split
I0206 22:43:16.300477 18833 net.cpp:157] Top shape: 3 9 48 48 (62208)
I0206 22:43:16.300482 18833 net.cpp:157] Top shape: 3 9 48 48 (62208)
I0206 22:43:16.300487 18833 net.cpp:157] Top shape: 3 9 48 48 (62208)
I0206 22:43:16.300490 18833 net.cpp:165] Memory required for data: 4752307672
I0206 22:43:16.300494 18833 layer_factory.hpp:77] Creating layer detection_loss_2_7x7
I0206 22:43:16.300501 18833 net.cpp:100] Creating Layer detection_loss_2_7x7
I0206 22:43:16.300508 18833 net.cpp:434] detection_loss_2_7x7 <- LFCN_2_7x7_LFCN_2_7x7_0_split_0
I0206 22:43:16.300513 18833 net.cpp:434] detection_loss_2_7x7 <- label_2_7x7_data_4_split_0
I0206 22:43:16.300519 18833 net.cpp:408] detection_loss_2_7x7 -> loss_2_7x7
I0206 22:43:16.300531 18833 layer_factory.hpp:77] Creating layer detection_loss_2_7x7
I0206 22:43:16.301159 18833 net.cpp:150] Setting up detection_loss_2_7x7
I0206 22:43:16.301173 18833 net.cpp:157] Top shape: 1 1 1 2 (2)
I0206 22:43:16.301178 18833 net.cpp:160]     with loss weight 1
I0206 22:43:16.301187 18833 net.cpp:165] Memory required for data: 4752307680
I0206 22:43:16.301192 18833 layer_factory.hpp:77] Creating layer detection_accuracy_2_7x7
I0206 22:43:16.301203 18833 net.cpp:100] Creating Layer detection_accuracy_2_7x7
I0206 22:43:16.301209 18833 net.cpp:434] detection_accuracy_2_7x7 <- LFCN_2_7x7_LFCN_2_7x7_0_split_1
I0206 22:43:16.301216 18833 net.cpp:434] detection_accuracy_2_7x7 <- label_2_7x7_data_4_split_1
I0206 22:43:16.301223 18833 net.cpp:408] detection_accuracy_2_7x7 -> accuracy_2_7x7
I0206 22:43:16.301235 18833 net.cpp:408] detection_accuracy_2_7x7 -> boxiou_2_7x7
I0206 22:43:16.301280 18833 net.cpp:150] Setting up detection_accuracy_2_7x7
I0206 22:43:16.301290 18833 net.cpp:157] Top shape: 1 1 1 2 (2)
I0206 22:43:16.301295 18833 net.cpp:157] Top shape: 1 1 1 1 (1)
I0206 22:43:16.301301 18833 net.cpp:165] Memory required for data: 4752307692
I0206 22:43:16.301304 18833 layer_factory.hpp:77] Creating layer pool5
I0206 22:43:16.301313 18833 net.cpp:100] Creating Layer pool5
I0206 22:43:16.301321 18833 net.cpp:434] pool5 <- conv5_3_relu5_3_0_split_2
I0206 22:43:16.301328 18833 net.cpp:408] pool5 -> pool5
I0206 22:43:16.301369 18833 net.cpp:150] Setting up pool5
I0206 22:43:16.301378 18833 net.cpp:157] Top shape: 3 512 24 24 (884736)
I0206 22:43:16.301383 18833 net.cpp:165] Memory required for data: 4755846636
I0206 22:43:16.301386 18833 layer_factory.hpp:77] Creating layer conv6_1
I0206 22:43:16.301398 18833 net.cpp:100] Creating Layer conv6_1
I0206 22:43:16.301404 18833 net.cpp:434] conv6_1 <- pool5
I0206 22:43:16.301414 18833 net.cpp:408] conv6_1 -> conv6_1
I0206 22:43:16.362593 18833 net.cpp:150] Setting up conv6_1
I0206 22:43:16.362622 18833 net.cpp:157] Top shape: 3 512 24 24 (884736)
I0206 22:43:16.362629 18833 net.cpp:165] Memory required for data: 4759385580
I0206 22:43:16.362642 18833 layer_factory.hpp:77] Creating layer relu6_1
I0206 22:43:16.362655 18833 net.cpp:100] Creating Layer relu6_1
I0206 22:43:16.362665 18833 net.cpp:434] relu6_1 <- conv6_1
I0206 22:43:16.362674 18833 net.cpp:395] relu6_1 -> conv6_1 (in-place)
I0206 22:43:16.362850 18833 net.cpp:150] Setting up relu6_1
I0206 22:43:16.362861 18833 net.cpp:157] Top shape: 3 512 24 24 (884736)
I0206 22:43:16.362866 18833 net.cpp:165] Memory required for data: 4762924524
I0206 22:43:16.362871 18833 layer_factory.hpp:77] Creating layer conv6_1_relu6_1_0_split
I0206 22:43:16.362880 18833 net.cpp:100] Creating Layer conv6_1_relu6_1_0_split
I0206 22:43:16.362886 18833 net.cpp:434] conv6_1_relu6_1_0_split <- conv6_1
I0206 22:43:16.362895 18833 net.cpp:408] conv6_1_relu6_1_0_split -> conv6_1_relu6_1_0_split_0
I0206 22:43:16.362903 18833 net.cpp:408] conv6_1_relu6_1_0_split -> conv6_1_relu6_1_0_split_1
I0206 22:43:16.362915 18833 net.cpp:408] conv6_1_relu6_1_0_split -> conv6_1_relu6_1_0_split_2
I0206 22:43:16.362969 18833 net.cpp:150] Setting up conv6_1_relu6_1_0_split
I0206 22:43:16.362977 18833 net.cpp:157] Top shape: 3 512 24 24 (884736)
I0206 22:43:16.362983 18833 net.cpp:157] Top shape: 3 512 24 24 (884736)
I0206 22:43:16.362989 18833 net.cpp:157] Top shape: 3 512 24 24 (884736)
I0206 22:43:16.362993 18833 net.cpp:165] Memory required for data: 4773541356
I0206 22:43:16.362998 18833 layer_factory.hpp:77] Creating layer LFCN_3_5x5
I0206 22:43:16.363011 18833 net.cpp:100] Creating Layer LFCN_3_5x5
I0206 22:43:16.363018 18833 net.cpp:434] LFCN_3_5x5 <- conv6_1_relu6_1_0_split_0
I0206 22:43:16.363029 18833 net.cpp:408] LFCN_3_5x5 -> LFCN_3_5x5
I0206 22:43:16.367347 18833 net.cpp:150] Setting up LFCN_3_5x5
I0206 22:43:16.367362 18833 net.cpp:157] Top shape: 3 9 24 24 (15552)
I0206 22:43:16.367368 18833 net.cpp:165] Memory required for data: 4773603564
I0206 22:43:16.367377 18833 layer_factory.hpp:77] Creating layer LFCN_3_5x5_LFCN_3_5x5_0_split
I0206 22:43:16.367388 18833 net.cpp:100] Creating Layer LFCN_3_5x5_LFCN_3_5x5_0_split
I0206 22:43:16.367396 18833 net.cpp:434] LFCN_3_5x5_LFCN_3_5x5_0_split <- LFCN_3_5x5
I0206 22:43:16.367404 18833 net.cpp:408] LFCN_3_5x5_LFCN_3_5x5_0_split -> LFCN_3_5x5_LFCN_3_5x5_0_split_0
I0206 22:43:16.367415 18833 net.cpp:408] LFCN_3_5x5_LFCN_3_5x5_0_split -> LFCN_3_5x5_LFCN_3_5x5_0_split_1
I0206 22:43:16.367424 18833 net.cpp:408] LFCN_3_5x5_LFCN_3_5x5_0_split -> LFCN_3_5x5_LFCN_3_5x5_0_split_2
I0206 22:43:16.367473 18833 net.cpp:150] Setting up LFCN_3_5x5_LFCN_3_5x5_0_split
I0206 22:43:16.367482 18833 net.cpp:157] Top shape: 3 9 24 24 (15552)
I0206 22:43:16.367488 18833 net.cpp:157] Top shape: 3 9 24 24 (15552)
I0206 22:43:16.367494 18833 net.cpp:157] Top shape: 3 9 24 24 (15552)
I0206 22:43:16.367498 18833 net.cpp:165] Memory required for data: 4773790188
I0206 22:43:16.367502 18833 layer_factory.hpp:77] Creating layer detection_loss_3_5x5
I0206 22:43:16.367513 18833 net.cpp:100] Creating Layer detection_loss_3_5x5
I0206 22:43:16.367518 18833 net.cpp:434] detection_loss_3_5x5 <- LFCN_3_5x5_LFCN_3_5x5_0_split_0
I0206 22:43:16.367524 18833 net.cpp:434] detection_loss_3_5x5 <- label_3_5x5_data_5_split_0
I0206 22:43:16.367533 18833 net.cpp:408] detection_loss_3_5x5 -> loss_3_5x5
I0206 22:43:16.367547 18833 layer_factory.hpp:77] Creating layer detection_loss_3_5x5
I0206 22:43:16.367872 18833 net.cpp:150] Setting up detection_loss_3_5x5
I0206 22:43:16.367883 18833 net.cpp:157] Top shape: 1 1 1 2 (2)
I0206 22:43:16.367888 18833 net.cpp:160]     with loss weight 1
I0206 22:43:16.367902 18833 net.cpp:165] Memory required for data: 4773790196
I0206 22:43:16.367908 18833 layer_factory.hpp:77] Creating layer detection_accuracy_3_5x5
I0206 22:43:16.367916 18833 net.cpp:100] Creating Layer detection_accuracy_3_5x5
I0206 22:43:16.367923 18833 net.cpp:434] detection_accuracy_3_5x5 <- LFCN_3_5x5_LFCN_3_5x5_0_split_1
I0206 22:43:16.367928 18833 net.cpp:434] detection_accuracy_3_5x5 <- label_3_5x5_data_5_split_1
I0206 22:43:16.367939 18833 net.cpp:408] detection_accuracy_3_5x5 -> accuracy_3_5x5
I0206 22:43:16.367951 18833 net.cpp:408] detection_accuracy_3_5x5 -> boxiou_3_5x5
I0206 22:43:16.367992 18833 net.cpp:150] Setting up detection_accuracy_3_5x5
I0206 22:43:16.368001 18833 net.cpp:157] Top shape: 1 1 1 2 (2)
I0206 22:43:16.368007 18833 net.cpp:157] Top shape: 1 1 1 1 (1)
I0206 22:43:16.368011 18833 net.cpp:165] Memory required for data: 4773790208
I0206 22:43:16.368016 18833 layer_factory.hpp:77] Creating layer LFCN_3_7x7
I0206 22:43:16.368027 18833 net.cpp:100] Creating Layer LFCN_3_7x7
I0206 22:43:16.368034 18833 net.cpp:434] LFCN_3_7x7 <- conv6_1_relu6_1_0_split_1
I0206 22:43:16.368043 18833 net.cpp:408] LFCN_3_7x7 -> LFCN_3_7x7
I0206 22:43:16.375283 18833 net.cpp:150] Setting up LFCN_3_7x7
I0206 22:43:16.375301 18833 net.cpp:157] Top shape: 3 9 24 24 (15552)
I0206 22:43:16.375306 18833 net.cpp:165] Memory required for data: 4773852416
I0206 22:43:16.375316 18833 layer_factory.hpp:77] Creating layer LFCN_3_7x7_LFCN_3_7x7_0_split
I0206 22:43:16.375325 18833 net.cpp:100] Creating Layer LFCN_3_7x7_LFCN_3_7x7_0_split
I0206 22:43:16.375334 18833 net.cpp:434] LFCN_3_7x7_LFCN_3_7x7_0_split <- LFCN_3_7x7
I0206 22:43:16.375344 18833 net.cpp:408] LFCN_3_7x7_LFCN_3_7x7_0_split -> LFCN_3_7x7_LFCN_3_7x7_0_split_0
I0206 22:43:16.375356 18833 net.cpp:408] LFCN_3_7x7_LFCN_3_7x7_0_split -> LFCN_3_7x7_LFCN_3_7x7_0_split_1
I0206 22:43:16.375366 18833 net.cpp:408] LFCN_3_7x7_LFCN_3_7x7_0_split -> LFCN_3_7x7_LFCN_3_7x7_0_split_2
I0206 22:43:16.375427 18833 net.cpp:150] Setting up LFCN_3_7x7_LFCN_3_7x7_0_split
I0206 22:43:16.375437 18833 net.cpp:157] Top shape: 3 9 24 24 (15552)
I0206 22:43:16.375443 18833 net.cpp:157] Top shape: 3 9 24 24 (15552)
I0206 22:43:16.375449 18833 net.cpp:157] Top shape: 3 9 24 24 (15552)
I0206 22:43:16.375452 18833 net.cpp:165] Memory required for data: 4774039040
I0206 22:43:16.375458 18833 layer_factory.hpp:77] Creating layer detection_loss_3_7x7
I0206 22:43:16.375463 18833 net.cpp:100] Creating Layer detection_loss_3_7x7
I0206 22:43:16.375470 18833 net.cpp:434] detection_loss_3_7x7 <- LFCN_3_7x7_LFCN_3_7x7_0_split_0
I0206 22:43:16.375478 18833 net.cpp:434] detection_loss_3_7x7 <- label_3_7x7_data_6_split_0
I0206 22:43:16.375486 18833 net.cpp:408] detection_loss_3_7x7 -> loss_3_7x7
I0206 22:43:16.375499 18833 layer_factory.hpp:77] Creating layer detection_loss_3_7x7
I0206 22:43:16.375815 18833 net.cpp:150] Setting up detection_loss_3_7x7
I0206 22:43:16.375826 18833 net.cpp:157] Top shape: 1 1 1 2 (2)
I0206 22:43:16.375831 18833 net.cpp:160]     with loss weight 1
I0206 22:43:16.375839 18833 net.cpp:165] Memory required for data: 4774039048
I0206 22:43:16.375844 18833 layer_factory.hpp:77] Creating layer detection_accuracy_3_7x7
I0206 22:43:16.375854 18833 net.cpp:100] Creating Layer detection_accuracy_3_7x7
I0206 22:43:16.375860 18833 net.cpp:434] detection_accuracy_3_7x7 <- LFCN_3_7x7_LFCN_3_7x7_0_split_1
I0206 22:43:16.375867 18833 net.cpp:434] detection_accuracy_3_7x7 <- label_3_7x7_data_6_split_1
I0206 22:43:16.375874 18833 net.cpp:408] detection_accuracy_3_7x7 -> accuracy_3_7x7
I0206 22:43:16.375885 18833 net.cpp:408] detection_accuracy_3_7x7 -> boxiou_3_7x7
I0206 22:43:16.375928 18833 net.cpp:150] Setting up detection_accuracy_3_7x7
I0206 22:43:16.375937 18833 net.cpp:157] Top shape: 1 1 1 2 (2)
I0206 22:43:16.375943 18833 net.cpp:157] Top shape: 1 1 1 1 (1)
I0206 22:43:16.375947 18833 net.cpp:165] Memory required for data: 4774039060
I0206 22:43:16.375952 18833 layer_factory.hpp:77] Creating layer pool6
I0206 22:43:16.375962 18833 net.cpp:100] Creating Layer pool6
I0206 22:43:16.375968 18833 net.cpp:434] pool6 <- conv6_1_relu6_1_0_split_2
I0206 22:43:16.375975 18833 net.cpp:408] pool6 -> pool6
I0206 22:43:16.376015 18833 net.cpp:150] Setting up pool6
I0206 22:43:16.376024 18833 net.cpp:157] Top shape: 3 512 12 12 (221184)
I0206 22:43:16.376029 18833 net.cpp:165] Memory required for data: 4774923796
I0206 22:43:16.376034 18833 layer_factory.hpp:77] Creating layer LFCN_4_5x5
I0206 22:43:16.376044 18833 net.cpp:100] Creating Layer LFCN_4_5x5
I0206 22:43:16.376051 18833 net.cpp:434] LFCN_4_5x5 <- pool6
I0206 22:43:16.376060 18833 net.cpp:408] LFCN_4_5x5 -> LFCN_4_5x5
I0206 22:43:16.380044 18833 net.cpp:150] Setting up LFCN_4_5x5
I0206 22:43:16.380059 18833 net.cpp:157] Top shape: 3 9 12 12 (3888)
I0206 22:43:16.380064 18833 net.cpp:165] Memory required for data: 4774939348
I0206 22:43:16.380074 18833 layer_factory.hpp:77] Creating layer LFCN_4_5x5_LFCN_4_5x5_0_split
I0206 22:43:16.380085 18833 net.cpp:100] Creating Layer LFCN_4_5x5_LFCN_4_5x5_0_split
I0206 22:43:16.380092 18833 net.cpp:434] LFCN_4_5x5_LFCN_4_5x5_0_split <- LFCN_4_5x5
I0206 22:43:16.380101 18833 net.cpp:408] LFCN_4_5x5_LFCN_4_5x5_0_split -> LFCN_4_5x5_LFCN_4_5x5_0_split_0
I0206 22:43:16.380112 18833 net.cpp:408] LFCN_4_5x5_LFCN_4_5x5_0_split -> LFCN_4_5x5_LFCN_4_5x5_0_split_1
I0206 22:43:16.380121 18833 net.cpp:408] LFCN_4_5x5_LFCN_4_5x5_0_split -> LFCN_4_5x5_LFCN_4_5x5_0_split_2
I0206 22:43:16.380174 18833 net.cpp:150] Setting up LFCN_4_5x5_LFCN_4_5x5_0_split
I0206 22:43:16.380183 18833 net.cpp:157] Top shape: 3 9 12 12 (3888)
I0206 22:43:16.380189 18833 net.cpp:157] Top shape: 3 9 12 12 (3888)
I0206 22:43:16.380195 18833 net.cpp:157] Top shape: 3 9 12 12 (3888)
I0206 22:43:16.380201 18833 net.cpp:165] Memory required for data: 4774986004
I0206 22:43:16.380205 18833 layer_factory.hpp:77] Creating layer detection_loss_4_5x5
I0206 22:43:16.380214 18833 net.cpp:100] Creating Layer detection_loss_4_5x5
I0206 22:43:16.380221 18833 net.cpp:434] detection_loss_4_5x5 <- LFCN_4_5x5_LFCN_4_5x5_0_split_0
I0206 22:43:16.380228 18833 net.cpp:434] detection_loss_4_5x5 <- label_4_5x5_data_7_split_0
I0206 22:43:16.380239 18833 net.cpp:408] detection_loss_4_5x5 -> loss_4_5x5
I0206 22:43:16.380250 18833 layer_factory.hpp:77] Creating layer detection_loss_4_5x5
I0206 22:43:16.380561 18833 net.cpp:150] Setting up detection_loss_4_5x5
I0206 22:43:16.380573 18833 net.cpp:157] Top shape: 1 1 1 2 (2)
I0206 22:43:16.380578 18833 net.cpp:160]     with loss weight 1
I0206 22:43:16.380584 18833 net.cpp:165] Memory required for data: 4774986012
I0206 22:43:16.380589 18833 layer_factory.hpp:77] Creating layer detection_accuracy_4_5x5
I0206 22:43:16.380599 18833 net.cpp:100] Creating Layer detection_accuracy_4_5x5
I0206 22:43:16.380605 18833 net.cpp:434] detection_accuracy_4_5x5 <- LFCN_4_5x5_LFCN_4_5x5_0_split_1
I0206 22:43:16.380612 18833 net.cpp:434] detection_accuracy_4_5x5 <- label_4_5x5_data_7_split_1
I0206 22:43:16.380620 18833 net.cpp:408] detection_accuracy_4_5x5 -> accuracy_4_5x5
I0206 22:43:16.380630 18833 net.cpp:408] detection_accuracy_4_5x5 -> boxiou_4_5x5
I0206 22:43:16.380672 18833 net.cpp:150] Setting up detection_accuracy_4_5x5
I0206 22:43:16.380681 18833 net.cpp:157] Top shape: 1 1 1 2 (2)
I0206 22:43:16.380687 18833 net.cpp:157] Top shape: 1 1 1 1 (1)
I0206 22:43:16.380692 18833 net.cpp:165] Memory required for data: 4774986024
I0206 22:43:16.380697 18833 layer_factory.hpp:77] Creating layer proposals
I0206 22:43:16.380709 18833 net.cpp:100] Creating Layer proposals
I0206 22:43:16.380717 18833 net.cpp:434] proposals <- LFCN_1_5x5_LFCN_1_5x5_0_split_2
I0206 22:43:16.380725 18833 net.cpp:434] proposals <- LFCN_1_7x7_LFCN_1_7x7_0_split_2
I0206 22:43:16.380733 18833 net.cpp:434] proposals <- LFCN_2_5x5_LFCN_2_5x5_0_split_2
I0206 22:43:16.380738 18833 net.cpp:434] proposals <- LFCN_2_7x7_LFCN_2_7x7_0_split_2
I0206 22:43:16.380745 18833 net.cpp:434] proposals <- LFCN_3_5x5_LFCN_3_5x5_0_split_2
I0206 22:43:16.380750 18833 net.cpp:434] proposals <- LFCN_3_7x7_LFCN_3_7x7_0_split_2
I0206 22:43:16.380755 18833 net.cpp:434] proposals <- LFCN_4_5x5_LFCN_4_5x5_0_split_2
I0206 22:43:16.380764 18833 net.cpp:408] proposals -> proposals
I0206 22:43:16.405582 18833 net.cpp:150] Setting up proposals
I0206 22:43:16.405640 18833 net.cpp:157] Top shape: 1 5 1 1 (5)
I0206 22:43:16.405649 18833 net.cpp:165] Memory required for data: 4774986044
I0206 22:43:16.405659 18833 layer_factory.hpp:77] Creating layer proposal_info
I0206 22:43:16.405689 18833 net.cpp:100] Creating Layer proposal_info
I0206 22:43:16.405704 18833 net.cpp:434] proposal_info <- proposals
I0206 22:43:16.405716 18833 net.cpp:434] proposal_info <- gt_boxes
I0206 22:43:16.405731 18833 net.cpp:408] proposal_info -> rois
I0206 22:43:16.405755 18833 net.cpp:408] proposal_info -> proposal_labels
I0206 22:43:16.405771 18833 net.cpp:408] proposal_info -> proposal_targets
I0206 22:43:16.405786 18833 net.cpp:408] proposal_info -> box_inside_weights
I0206 22:43:16.405799 18833 net.cpp:408] proposal_info -> box_outside_weights
I0206 22:43:16.405813 18833 net.cpp:408] proposal_info -> match_gt_boxes
I0206 22:43:16.406026 18833 net.cpp:150] Setting up proposal_info
I0206 22:43:16.406042 18833 net.cpp:157] Top shape: 256 5 1 1 (1280)
I0206 22:43:16.406052 18833 net.cpp:157] Top shape: 256 1 1 1 (256)
I0206 22:43:16.406064 18833 net.cpp:157] Top shape: 256 20 1 1 (5120)
I0206 22:43:16.406075 18833 net.cpp:157] Top shape: 256 20 1 1 (5120)
I0206 22:43:16.406083 18833 net.cpp:157] Top shape: 256 20 1 1 (5120)
I0206 22:43:16.406093 18833 net.cpp:157] Top shape: 256 6 1 1 (1536)
I0206 22:43:16.406101 18833 net.cpp:165] Memory required for data: 4775059772
I0206 22:43:16.406108 18833 layer_factory.hpp:77] Creating layer rois_proposal_info_0_split
I0206 22:43:16.406122 18833 net.cpp:100] Creating Layer rois_proposal_info_0_split
I0206 22:43:16.406132 18833 net.cpp:434] rois_proposal_info_0_split <- rois
I0206 22:43:16.406143 18833 net.cpp:408] rois_proposal_info_0_split -> rois_proposal_info_0_split_0
I0206 22:43:16.406157 18833 net.cpp:408] rois_proposal_info_0_split -> rois_proposal_info_0_split_1
I0206 22:43:16.406172 18833 net.cpp:408] rois_proposal_info_0_split -> rois_proposal_info_0_split_2
I0206 22:43:16.406272 18833 net.cpp:150] Setting up rois_proposal_info_0_split
I0206 22:43:16.406286 18833 net.cpp:157] Top shape: 256 5 1 1 (1280)
I0206 22:43:16.406296 18833 net.cpp:157] Top shape: 256 5 1 1 (1280)
I0206 22:43:16.406306 18833 net.cpp:157] Top shape: 256 5 1 1 (1280)
I0206 22:43:16.406312 18833 net.cpp:165] Memory required for data: 4775075132
I0206 22:43:16.406321 18833 layer_factory.hpp:77] Creating layer proposal_labels_proposal_info_1_split
I0206 22:43:16.406330 18833 net.cpp:100] Creating Layer proposal_labels_proposal_info_1_split
I0206 22:43:16.406340 18833 net.cpp:434] proposal_labels_proposal_info_1_split <- proposal_labels
I0206 22:43:16.406353 18833 net.cpp:408] proposal_labels_proposal_info_1_split -> proposal_labels_proposal_info_1_split_0
I0206 22:43:16.406368 18833 net.cpp:408] proposal_labels_proposal_info_1_split -> proposal_labels_proposal_info_1_split_1
I0206 22:43:16.406438 18833 net.cpp:150] Setting up proposal_labels_proposal_info_1_split
I0206 22:43:16.406451 18833 net.cpp:157] Top shape: 256 1 1 1 (256)
I0206 22:43:16.406461 18833 net.cpp:157] Top shape: 256 1 1 1 (256)
I0206 22:43:16.406469 18833 net.cpp:165] Memory required for data: 4775077180
I0206 22:43:16.406476 18833 layer_factory.hpp:77] Creating layer conv4_3_2x
I0206 22:43:16.406496 18833 net.cpp:100] Creating Layer conv4_3_2x
I0206 22:43:16.406504 18833 net.cpp:434] conv4_3_2x <- conv4_3_relu4_3_0_split_2
I0206 22:43:16.406515 18833 net.cpp:408] conv4_3_2x -> conv4_3_2x
I0206 22:43:16.407374 18833 net.cpp:150] Setting up conv4_3_2x
I0206 22:43:16.407392 18833 net.cpp:157] Top shape: 3 512 192 192 (56623104)
I0206 22:43:16.407398 18833 net.cpp:165] Memory required for data: 5001569596
I0206 22:43:16.407408 18833 layer_factory.hpp:77] Creating layer conv4_3_2x_conv4_3_2x_0_split
I0206 22:43:16.407418 18833 net.cpp:100] Creating Layer conv4_3_2x_conv4_3_2x_0_split
I0206 22:43:16.407426 18833 net.cpp:434] conv4_3_2x_conv4_3_2x_0_split <- conv4_3_2x
I0206 22:43:16.407440 18833 net.cpp:408] conv4_3_2x_conv4_3_2x_0_split -> conv4_3_2x_conv4_3_2x_0_split_0
I0206 22:43:16.407454 18833 net.cpp:408] conv4_3_2x_conv4_3_2x_0_split -> conv4_3_2x_conv4_3_2x_0_split_1
I0206 22:43:16.407521 18833 net.cpp:150] Setting up conv4_3_2x_conv4_3_2x_0_split
I0206 22:43:16.407533 18833 net.cpp:157] Top shape: 3 512 192 192 (56623104)
I0206 22:43:16.407542 18833 net.cpp:157] Top shape: 3 512 192 192 (56623104)
I0206 22:43:16.407551 18833 net.cpp:165] Memory required for data: 5454554428
I0206 22:43:16.407557 18833 layer_factory.hpp:77] Creating layer roi_pool_org
I0206 22:43:16.407570 18833 net.cpp:100] Creating Layer roi_pool_org
I0206 22:43:16.407579 18833 net.cpp:434] roi_pool_org <- conv4_3_2x_conv4_3_2x_0_split_0
I0206 22:43:16.407588 18833 net.cpp:434] roi_pool_org <- rois_proposal_info_0_split_0
I0206 22:43:16.407598 18833 net.cpp:408] roi_pool_org -> roi_pool_org
I0206 22:43:16.407616 18833 roi_pooling_layer.cpp:33] Spatial scale: 0.25
I0206 22:43:16.407694 18833 net.cpp:150] Setting up roi_pool_org
I0206 22:43:16.407706 18833 net.cpp:157] Top shape: 256 512 7 7 (6422528)
I0206 22:43:16.407713 18833 net.cpp:165] Memory required for data: 5480244540
I0206 22:43:16.407721 18833 layer_factory.hpp:77] Creating layer roi_pool_ctx
I0206 22:43:16.407729 18833 net.cpp:100] Creating Layer roi_pool_ctx
I0206 22:43:16.407737 18833 net.cpp:434] roi_pool_ctx <- conv4_3_2x_conv4_3_2x_0_split_1
I0206 22:43:16.407747 18833 net.cpp:434] roi_pool_ctx <- rois_proposal_info_0_split_1
I0206 22:43:16.407757 18833 net.cpp:408] roi_pool_ctx -> roi_pool_ctx
I0206 22:43:16.407770 18833 roi_pooling_layer.cpp:33] Spatial scale: 0.25
I0206 22:43:16.407835 18833 net.cpp:150] Setting up roi_pool_ctx
I0206 22:43:16.407846 18833 net.cpp:157] Top shape: 256 512 7 7 (6422528)
I0206 22:43:16.407852 18833 net.cpp:165] Memory required for data: 5505934652
I0206 22:43:16.407860 18833 layer_factory.hpp:77] Creating layer roi_pool
I0206 22:43:16.407868 18833 net.cpp:100] Creating Layer roi_pool
I0206 22:43:16.407877 18833 net.cpp:434] roi_pool <- roi_pool_org
I0206 22:43:16.407886 18833 net.cpp:434] roi_pool <- roi_pool_ctx
I0206 22:43:16.407896 18833 net.cpp:408] roi_pool -> roi_pool
I0206 22:43:16.407938 18833 net.cpp:150] Setting up roi_pool
I0206 22:43:16.407950 18833 net.cpp:157] Top shape: 256 1024 7 7 (12845056)
I0206 22:43:16.407956 18833 net.cpp:165] Memory required for data: 5557314876
I0206 22:43:16.407963 18833 layer_factory.hpp:77] Creating layer roi_c1
I0206 22:43:16.407979 18833 net.cpp:100] Creating Layer roi_c1
I0206 22:43:16.407989 18833 net.cpp:434] roi_c1 <- roi_pool
I0206 22:43:16.408001 18833 net.cpp:408] roi_c1 -> roi_c1
I0206 22:43:16.524848 18833 net.cpp:150] Setting up roi_c1
I0206 22:43:16.524875 18833 net.cpp:157] Top shape: 256 512 5 5 (3276800)
I0206 22:43:16.524878 18833 net.cpp:165] Memory required for data: 5570422076
I0206 22:43:16.524886 18833 layer_factory.hpp:77] Creating layer roi_c1_relu
I0206 22:43:16.524902 18833 net.cpp:100] Creating Layer roi_c1_relu
I0206 22:43:16.524907 18833 net.cpp:434] roi_c1_relu <- roi_c1
I0206 22:43:16.524914 18833 net.cpp:395] roi_c1_relu -> roi_c1 (in-place)
I0206 22:43:16.525367 18833 net.cpp:150] Setting up roi_c1_relu
I0206 22:43:16.525379 18833 net.cpp:157] Top shape: 256 512 5 5 (3276800)
I0206 22:43:16.525384 18833 net.cpp:165] Memory required for data: 5583529276
I0206 22:43:16.525388 18833 layer_factory.hpp:77] Creating layer fc6
I0206 22:43:16.525629 18833 net.cpp:100] Creating Layer fc6
I0206 22:43:16.525636 18833 net.cpp:434] fc6 <- roi_c1
I0206 22:43:16.525645 18833 net.cpp:408] fc6 -> fc6
I0206 22:43:17.744721 18833 net.cpp:150] Setting up fc6
I0206 22:43:17.744757 18833 net.cpp:157] Top shape: 256 4096 (1048576)
I0206 22:43:17.744760 18833 net.cpp:165] Memory required for data: 5587723580
I0206 22:43:17.744770 18833 layer_factory.hpp:77] Creating layer relu6
I0206 22:43:17.744779 18833 net.cpp:100] Creating Layer relu6
I0206 22:43:17.744784 18833 net.cpp:434] relu6 <- fc6
I0206 22:43:17.744791 18833 net.cpp:395] relu6 -> fc6 (in-place)
I0206 22:43:17.745007 18833 net.cpp:150] Setting up relu6
I0206 22:43:17.745016 18833 net.cpp:157] Top shape: 256 4096 (1048576)
I0206 22:43:17.745019 18833 net.cpp:165] Memory required for data: 5591917884
I0206 22:43:17.745023 18833 layer_factory.hpp:77] Creating layer drop6
I0206 22:43:17.745028 18833 net.cpp:100] Creating Layer drop6
I0206 22:43:17.745031 18833 net.cpp:434] drop6 <- fc6
I0206 22:43:17.745038 18833 net.cpp:395] drop6 -> fc6 (in-place)
I0206 22:43:17.745061 18833 net.cpp:150] Setting up drop6
I0206 22:43:17.745071 18833 net.cpp:157] Top shape: 256 4096 (1048576)
I0206 22:43:17.745075 18833 net.cpp:165] Memory required for data: 5596112188
I0206 22:43:17.745079 18833 layer_factory.hpp:77] Creating layer fc6_drop6_0_split
I0206 22:43:17.745084 18833 net.cpp:100] Creating Layer fc6_drop6_0_split
I0206 22:43:17.745086 18833 net.cpp:434] fc6_drop6_0_split <- fc6
I0206 22:43:17.745092 18833 net.cpp:408] fc6_drop6_0_split -> fc6_drop6_0_split_0
I0206 22:43:17.745098 18833 net.cpp:408] fc6_drop6_0_split -> fc6_drop6_0_split_1
I0206 22:43:17.745134 18833 net.cpp:150] Setting up fc6_drop6_0_split
I0206 22:43:17.745141 18833 net.cpp:157] Top shape: 256 4096 (1048576)
I0206 22:43:17.745146 18833 net.cpp:157] Top shape: 256 4096 (1048576)
I0206 22:43:17.745148 18833 net.cpp:165] Memory required for data: 5604500796
I0206 22:43:17.745151 18833 layer_factory.hpp:77] Creating layer cls_pred
I0206 22:43:17.745160 18833 net.cpp:100] Creating Layer cls_pred
I0206 22:43:17.745163 18833 net.cpp:434] cls_pred <- fc6_drop6_0_split_0
I0206 22:43:17.745169 18833 net.cpp:408] cls_pred -> cls_pred
I0206 22:43:17.745784 18833 net.cpp:150] Setting up cls_pred
I0206 22:43:17.745790 18833 net.cpp:157] Top shape: 256 5 (1280)
I0206 22:43:17.745793 18833 net.cpp:165] Memory required for data: 5604505916
I0206 22:43:17.745800 18833 layer_factory.hpp:77] Creating layer cls_pred_cls_pred_0_split
I0206 22:43:17.745803 18833 net.cpp:100] Creating Layer cls_pred_cls_pred_0_split
I0206 22:43:17.745807 18833 net.cpp:434] cls_pred_cls_pred_0_split <- cls_pred
I0206 22:43:17.745812 18833 net.cpp:408] cls_pred_cls_pred_0_split -> cls_pred_cls_pred_0_split_0
I0206 22:43:17.745818 18833 net.cpp:408] cls_pred_cls_pred_0_split -> cls_pred_cls_pred_0_split_1
I0206 22:43:17.745846 18833 net.cpp:150] Setting up cls_pred_cls_pred_0_split
I0206 22:43:17.745851 18833 net.cpp:157] Top shape: 256 5 (1280)
I0206 22:43:17.745856 18833 net.cpp:157] Top shape: 256 5 (1280)
I0206 22:43:17.745858 18833 net.cpp:165] Memory required for data: 5604516156
I0206 22:43:17.745862 18833 layer_factory.hpp:77] Creating layer bbox_pred
I0206 22:43:17.745868 18833 net.cpp:100] Creating Layer bbox_pred
I0206 22:43:17.745872 18833 net.cpp:434] bbox_pred <- fc6_drop6_0_split_1
I0206 22:43:17.745877 18833 net.cpp:408] bbox_pred -> bbox_pred
I0206 22:43:17.748064 18833 net.cpp:150] Setting up bbox_pred
I0206 22:43:17.748070 18833 net.cpp:157] Top shape: 256 20 (5120)
I0206 22:43:17.748073 18833 net.cpp:165] Memory required for data: 5604536636
I0206 22:43:17.748077 18833 layer_factory.hpp:77] Creating layer bbox_pred_bbox_pred_0_split
I0206 22:43:17.748080 18833 net.cpp:100] Creating Layer bbox_pred_bbox_pred_0_split
I0206 22:43:17.748083 18833 net.cpp:434] bbox_pred_bbox_pred_0_split <- bbox_pred
I0206 22:43:17.748088 18833 net.cpp:408] bbox_pred_bbox_pred_0_split -> bbox_pred_bbox_pred_0_split_0
I0206 22:43:17.748092 18833 net.cpp:408] bbox_pred_bbox_pred_0_split -> bbox_pred_bbox_pred_0_split_1
I0206 22:43:17.748118 18833 net.cpp:150] Setting up bbox_pred_bbox_pred_0_split
I0206 22:43:17.748122 18833 net.cpp:157] Top shape: 256 20 (5120)
I0206 22:43:17.748126 18833 net.cpp:157] Top shape: 256 20 (5120)
I0206 22:43:17.748128 18833 net.cpp:165] Memory required for data: 5604577596
I0206 22:43:17.748131 18833 layer_factory.hpp:77] Creating layer loss_cls
I0206 22:43:17.748136 18833 net.cpp:100] Creating Layer loss_cls
I0206 22:43:17.748138 18833 net.cpp:434] loss_cls <- cls_pred_cls_pred_0_split_0
I0206 22:43:17.748143 18833 net.cpp:434] loss_cls <- proposal_labels_proposal_info_1_split_0
…
I0206 22:43:17.760882 18833 image_gt_data_layer.cpp:235] output label size 2 : 2,6,48,48
I0206 22:43:17.760934 18833 image_gt_data_layer.cpp:235] output label size 3 : 2,6,48,48
I0206 22:43:17.760982 18833 image_gt_data_layer.cpp:235] output label size 4 : 2,6,24,24
I0206 22:43:17.761029 18833 image_gt_data_layer.cpp:235] output label size 5 : 2,6,24,24
I0206 22:43:17.761075 18833 image_gt_data_layer.cpp:235] output label size 6 : 2,6,12,12
I0206 22:43:17.761121 18833 image_gt_data_layer.cpp:250] output gt boxes size: 1,7,1,1
I0206 22:43:17.794332 18833 net.cpp:150] Setting up data
I0206 22:43:17.794360 18833 net.cpp:157] Top shape: 2 4 768 768 (4718592)
I0206 22:43:17.794366 18833 net.cpp:157] Top shape: 2 6 96 96 (110592)
I0206 22:43:17.794371 18833 net.cpp:157] Top shape: 2 6 96 96 (110592)
I0206 22:43:17.794376 18833 net.cpp:157] Top shape: 2 6 48 48 (27648)
I0206 22:43:17.794380 18833 net.cpp:157] Top shape: 2 6 48 48 (27648)
I0206 22:43:17.794385 18833 net.cpp:157] Top shape: 2 6 24 24 (6912)
I0206 22:43:17.794389 18833 net.cpp:157] Top shape: 2 6 24 24 (6912)
I0206 22:43:17.794394 18833 net.cpp:157] Top shape: 2 6 12 12 (1728)
I0206 22:43:17.794399 18833 net.cpp:157] Top shape: 1 7 1 1 (7)
I0206 22:43:17.794401 18833 net.cpp:165] Memory required for data: 20042524
I0206 22:43:17.794409 18833 layer_factory.hpp:77] Creating layer label_1_5x5_data_1_split
I0206 22:43:17.794421 18833 net.cpp:100] Creating Layer label_1_5x5_data_1_split
I0206 22:43:17.794426 18833 net.cpp:434] label_1_5x5_data_1_split <- label_1_5x5
I0206 22:43:17.794433 18833 net.cpp:408] label_1_5x5_data_1_split -> label_1_5x5_data_1_split_0
I0206 22:43:17.794442 18833 net.cpp:408] label_1_5x5_data_1_split -> label_1_5x5_data_1_split_1
I0206 22:43:17.794785 18833 net.cpp:150] Setting up label_1_5x5_data_1_split
I0206 22:43:17.794826 18833 net.cpp:157] Top shape: 2 6 96 96 (110592)
I0206 22:43:17.794838 18833 net.cpp:157] Top shape: 2 6 96 96 (110592)
I0206 22:43:17.794847 18833 net.cpp:165] Memory required for data: 20927260
I0206 22:43:17.794857 18833 layer_factory.hpp:77] Creating layer label_1_7x7_data_2_split
I0206 22:43:17.794883 18833 net.cpp:100] Creating Layer label_1_7x7_data_2_split
I0206 22:43:17.794893 18833 net.cpp:434] label_1_7x7_data_2_split <- label_1_7x7
I0206 22:43:17.794908 18833 net.cpp:408] label_1_7x7_data_2_split -> label_1_7x7_data_2_split_0
I0206 22:43:17.794927 18833 net.cpp:408] label_1_7x7_data_2_split -> label_1_7x7_data_2_split_1
I0206 22:43:17.795014 18833 net.cpp:150] Setting up label_1_7x7_data_2_split
I0206 22:43:17.795028 18833 net.cpp:157] Top shape: 2 6 96 96 (110592)
I0206 22:43:17.795037 18833 net.cpp:157] Top shape: 2 6 96 96 (110592)
I0206 22:43:17.795044 18833 net.cpp:165] Memory required for data: 21811996
I0206 22:43:17.795051 18833 layer_factory.hpp:77] Creating layer label_2_5x5_data_3_split
I0206 22:43:17.795061 18833 net.cpp:100] Creating Layer label_2_5x5_data_3_split
I0206 22:43:17.795071 18833 net.cpp:434] label_2_5x5_data_3_split <- label_2_5x5
I0206 22:43:17.795083 18833 net.cpp:408] label_2_5x5_data_3_split -> label_2_5x5_data_3_split_0
I0206 22:43:17.795096 18833 net.cpp:408] label_2_5x5_data_3_split -> label_2_5x5_data_3_split_1
I0206 22:43:17.795172 18833 net.cpp:150] Setting up label_2_5x5_data_3_split
I0206 22:43:17.795183 18833 net.cpp:157] Top shape: 2 6 48 48 (27648)
I0206 22:43:17.795192 18833 net.cpp:157] Top shape: 2 6 48 48 (27648)
I0206 22:43:17.795199 18833 net.cpp:165] Memory required for data: 22033180
I0206 22:43:17.795207 18833 layer_factory.hpp:77] Creating layer label_2_7x7_data_4_split
I0206 22:43:17.795217 18833 net.cpp:100] Creating Layer label_2_7x7_data_4_split
I0206 22:43:17.795228 18833 net.cpp:434] label_2_7x7_data_4_split <- label_2_7x7
I0206 22:43:17.795238 18833 net.cpp:408] label_2_7x7_data_4_split -> label_2_7x7_data_4_split_0
I0206 22:43:17.795249 18833 net.cpp:408] label_2_7x7_data_4_split -> label_2_7x7_data_4_split_1
I0206 22:43:17.795326 18833 net.cpp:150] Setting up label_2_7x7_data_4_split
I0206 22:43:17.795339 18833 net.cpp:157] Top shape: 2 6 48 48 (27648)
I0206 22:43:17.795349 18833 net.cpp:157] Top shape: 2 6 48 48 (27648)
I0206 22:43:17.795356 18833 net.cpp:165] Memory required for data: 22254364
I0206 22:43:17.795362 18833 layer_factory.hpp:77] Creating layer label_3_5x5_data_5_split
I0206 22:43:17.795372 18833 net.cpp:100] Creating Layer label_3_5x5_data_5_split
I0206 22:43:17.795379 18833 net.cpp:434] label_3_5x5_data_5_split <- label_3_5x5
I0206 22:43:17.795389 18833 net.cpp:408] label_3_5x5_data_5_split -> label_3_5x5_data_5_split_0
I0206 22:43:17.795400 18833 net.cpp:408] label_3_5x5_data_5_split -> label_3_5x5_data_5_split_1
I0206 22:43:17.795475 18833 net.cpp:150] Setting up label_3_5x5_data_5_split
I0206 22:43:17.795485 18833 net.cpp:157] Top shape: 2 6 24 24 (6912)
I0206 22:43:17.795495 18833 net.cpp:157] Top shape: 2 6 24 24 (6912)
I0206 22:43:17.795501 18833 net.cpp:165] Memory required for data: 22309660
I0206 22:43:17.795508 18833 layer_factory.hpp:77] Creating layer label_3_7x7_data_6_split
I0206 22:43:17.795517 18833 net.cpp:100] Creating Layer label_3_7x7_data_6_split
I0206 22:43:17.795526 18833 net.cpp:434] label_3_7x7_data_6_split <- label_3_7x7
I0206 22:43:17.795536 18833 net.cpp:408] label_3_7x7_data_6_split -> label_3_7x7_data_6_split_0
I0206 22:43:17.795548 18833 net.cpp:408] label_3_7x7_data_6_split -> label_3_7x7_data_6_split_1
I0206 22:43:17.795620 18833 net.cpp:150] Setting up label_3_7x7_data_6_split
I0206 22:43:17.795630 18833 net.cpp:157] Top shape: 2 6 24 24 (6912)
I0206 22:43:17.795639 18833 net.cpp:157] Top shape: 2 6 24 24 (6912)
I0206 22:43:17.795646 18833 net.cpp:165] Memory required for data: 22364956
I0206 22:43:17.795653 18833 layer_factory.hpp:77] Creating layer label_4_5x5_data_7_split
I0206 22:43:17.795661 18833 net.cpp:100] Creating Layer label_4_5x5_data_7_split
I0206 22:43:17.795668 18833 net.cpp:434] label_4_5x5_data_7_split <- label_4_5x5
I0206 22:43:17.795677 18833 net.cpp:408] label_4_5x5_data_7_split -> label_4_5x5_data_7_split_0
I0206 22:43:17.795688 18833 net.cpp:408] label_4_5x5_data_7_split -> label_4_5x5_data_7_split_1
I0206 22:43:17.795758 18833 net.cpp:150] Setting up label_4_5x5_data_7_split
I0206 22:43:17.795768 18833 net.cpp:157] Top shape: 2 6 12 12 (1728)
I0206 22:43:17.795776 18833 net.cpp:157] Top shape: 2 6 12 12 (1728)
I0206 22:43:17.795783 18833 net.cpp:165] Memory required for data: 22378780
I0206 22:43:17.795790 18833 layer_factory.hpp:77] Creating layer slice
I0206 22:43:17.795805 18833 net.cpp:100] Creating Layer slice
I0206 22:43:17.795812 18833 net.cpp:434] slice <- data
I0206 22:43:17.795822 18833 net.cpp:408] slice -> data123
I0206 22:43:17.795840 18833 net.cpp:408] slice -> ch4
I0206 22:43:17.795910 18833 net.cpp:150] Setting up slice
I0206 22:43:17.795922 18833 net.cpp:157] Top shape: 2 3 768 768 (3538944)
I0206 22:43:17.795929 18833 net.cpp:157] Top shape: 2 1 768 768 (1179648)
I0206 22:43:17.795936 18833 net.cpp:165] Memory required for data: 41253148
I0206 22:43:17.795943 18833 layer_factory.hpp:77] Creating layer conv1_1
I0206 22:43:17.795963 18833 net.cpp:100] Creating Layer conv1_1
I0206 22:43:17.795969 18833 net.cpp:434] conv1_1 <- data123
I0206 22:43:17.795980 18833 net.cpp:408] conv1_1 -> conv1_1
I0206 22:43:17.804949 18833 net.cpp:150] Setting up conv1_1
I0206 22:43:17.804986 18833 net.cpp:157] Top shape: 2 64 768 768 (75497472)
I0206 22:43:17.804996 18833 net.cpp:165] Memory required for data: 343243036
I0206 22:43:17.805022 18833 layer_factory.hpp:77] Creating layer relu1_1
I0206 22:43:17.805040 18833 net.cpp:100] Creating Layer relu1_1
I0206 22:43:17.805052 18833 net.cpp:434] relu1_1 <- conv1_1
I0206 22:43:17.805061 18833 net.cpp:395] relu1_1 -> conv1_1 (in-place)
I0206 22:43:17.805455 18833 net.cpp:150] Setting up relu1_1
I0206 22:43:17.805472 18833 net.cpp:157] Top shape: 2 64 768 768 (75497472)
I0206 22:43:17.805480 18833 net.cpp:165] Memory required for data: 645232924
I0206 22:43:17.805487 18833 layer_factory.hpp:77] Creating layer conv1_2
I0206 22:43:17.805508 18833 net.cpp:100] Creating Layer conv1_2
I0206 22:43:17.805516 18833 net.cpp:434] conv1_2 <- conv1_1
I0206 22:43:17.805527 18833 net.cpp:408] conv1_2 -> conv1_2
I0206 22:43:17.810021 18833 net.cpp:150] Setting up conv1_2
I0206 22:43:17.810051 18833 net.cpp:157] Top shape: 2 64 768 768 (75497472)
I0206 22:43:17.810058 18833 net.cpp:165] Memory required for data: 947222812
I0206 22:43:17.810076 18833 layer_factory.hpp:77] Creating layer relu1_2
I0206 22:43:17.810091 18833 net.cpp:100] Creating Layer relu1_2
I0206 22:43:17.810101 18833 net.cpp:434] relu1_2 <- conv1_2
I0206 22:43:17.810111 18833 net.cpp:395] relu1_2 -> conv1_2 (in-place)
I0206 22:43:17.810423 18833 net.cpp:150] Setting up relu1_2
I0206 22:43:17.810436 18833 net.cpp:157] Top shape: 2 64 768 768 (75497472)
I0206 22:43:17.810441 18833 net.cpp:165] Memory required for data: 1249212700
I0206 22:43:17.810446 18833 layer_factory.hpp:77] Creating layer pool1
I0206 22:43:17.810456 18833 net.cpp:100] Creating Layer pool1
I0206 22:43:17.810462 18833 net.cpp:434] pool1 <- conv1_2
I0206 22:43:17.810469 18833 net.cpp:408] pool1 -> pool1
I0206 22:43:17.810530 18833 net.cpp:150] Setting up pool1
I0206 22:43:17.810539 18833 net.cpp:157] Top shape: 2 64 384 384 (18874368)
I0206 22:43:17.810544 18833 net.cpp:165] Memory required for data: 1324710172
I0206 22:43:17.810549 18833 layer_factory.hpp:77] Creating layer ch4_pool1
I0206 22:43:17.810555 18833 net.cpp:100] Creating Layer ch4_pool1
I0206 22:43:17.810559 18833 net.cpp:434] ch4_pool1 <- ch4
I0206 22:43:17.810567 18833 net.cpp:408] ch4_pool1 -> ch4_pool1
I0206 22:43:17.810617 18833 net.cpp:150] Setting up ch4_pool1
I0206 22:43:17.810626 18833 net.cpp:157] Top shape: 2 1 384 384 (294912)
I0206 22:43:17.810631 18833 net.cpp:165] Memory required for data: 1325889820
I0206 22:43:17.810636 18833 layer_factory.hpp:77] Creating layer ch4_pool1_ch4_pool1_0_split
I0206 22:43:17.810642 18833 net.cpp:100] Creating Layer ch4_pool1_ch4_pool1_0_split
I0206 22:43:17.810647 18833 net.cpp:434] ch4_pool1_ch4_pool1_0_split <- ch4_pool1
I0206 22:43:17.810654 18833 net.cpp:408] ch4_pool1_ch4_pool1_0_split -> ch4_pool1_ch4_pool1_0_split_0
I0206 22:43:17.810662 18833 net.cpp:408] ch4_pool1_ch4_pool1_0_split -> ch4_pool1_ch4_pool1_0_split_1
I0206 22:43:17.810709 18833 net.cpp:150] Setting up ch4_pool1_ch4_pool1_0_split
I0206 22:43:17.810719 18833 net.cpp:157] Top shape: 2 1 384 384 (294912)
I0206 22:43:17.810725 18833 net.cpp:157] Top shape: 2 1 384 384 (294912)
I0206 22:43:17.810729 18833 net.cpp:165] Memory required for data: 1328249116
I0206 22:43:17.810734 18833 layer_factory.hpp:77] Creating layer pool1_concat
I0206 22:43:17.810744 18833 net.cpp:100] Creating Layer pool1_concat
I0206 22:43:17.810748 18833 net.cpp:434] pool1_concat <- pool1
I0206 22:43:17.810755 18833 net.cpp:434] pool1_concat <- ch4_pool1_ch4_pool1_0_split_0
I0206 22:43:17.810760 18833 net.cpp:408] pool1_concat -> pool1_new
I0206 22:43:17.810791 18833 net.cpp:150] Setting up pool1_concat
I0206 22:43:17.810799 18833 net.cpp:157] Top shape: 2 65 384 384 (19169280)
I0206 22:43:17.810804 18833 net.cpp:165] Memory required for data: 1404926236
I0206 22:43:17.810808 18833 layer_factory.hpp:77] Creating layer conv2_1_new
I0206 22:43:17.810819 18833 net.cpp:100] Creating Layer conv2_1_new
I0206 22:43:17.810825 18833 net.cpp:434] conv2_1_new <- pool1_new
I0206 22:43:17.810833 18833 net.cpp:408] conv2_1_new -> conv2_1
I0206 22:43:17.813040 18833 net.cpp:150] Setting up conv2_1_new
I0206 22:43:17.813057 18833 net.cpp:157] Top shape: 2 128 384 384 (37748736)
I0206 22:43:17.813061 18833 net.cpp:165] Memory required for data: 1555921180
I0206 22:43:17.813072 18833 layer_factory.hpp:77] Creating layer relu2_1
I0206 22:43:17.813081 18833 net.cpp:100] Creating Layer relu2_1
I0206 22:43:17.813087 18833 net.cpp:434] relu2_1 <- conv2_1
I0206 22:43:17.813094 18833 net.cpp:395] relu2_1 -> conv2_1 (in-place)
I0206 22:43:17.813722 18833 net.cpp:150] Setting up relu2_1
I0206 22:43:17.813737 18833 net.cpp:157] Top shape: 2 128 384 384 (37748736)
I0206 22:43:17.813741 18833 net.cpp:165] Memory required for data: 1706916124
I0206 22:43:17.813745 18833 layer_factory.hpp:77] Creating layer conv2_2
I0206 22:43:17.813755 18833 net.cpp:100] Creating Layer conv2_2
I0206 22:43:17.813761 18833 net.cpp:434] conv2_2 <- conv2_1
I0206 22:43:17.813767 18833 net.cpp:408] conv2_2 -> conv2_2
I0206 22:43:17.819353 18833 net.cpp:150] Setting up conv2_2
I0206 22:43:17.819392 18833 net.cpp:157] Top shape: 2 128 384 384 (37748736)
I0206 22:43:17.819401 18833 net.cpp:165] Memory required for data: 1857911068
I0206 22:43:17.819420 18833 layer_factory.hpp:77] Creating layer relu2_2
I0206 22:43:17.819439 18833 net.cpp:100] Creating Layer relu2_2
I0206 22:43:17.819453 18833 net.cpp:434] relu2_2 <- conv2_2
I0206 22:43:17.819464 18833 net.cpp:395] relu2_2 -> conv2_2 (in-place)
I0206 22:43:17.819880 18833 net.cpp:150] Setting up relu2_2
I0206 22:43:17.819897 18833 net.cpp:157] Top shape: 2 128 384 384 (37748736)
I0206 22:43:17.819905 18833 net.cpp:165] Memory required for data: 2008906012
I0206 22:43:17.819912 18833 layer_factory.hpp:77] Creating layer pool2
I0206 22:43:17.819924 18833 net.cpp:100] Creating Layer pool2
I0206 22:43:17.819933 18833 net.cpp:434] pool2 <- conv2_2
I0206 22:43:17.819947 18833 net.cpp:408] pool2 -> pool2
I0206 22:43:17.820052 18833 net.cpp:150] Setting up pool2
I0206 22:43:17.820065 18833 net.cpp:157] Top shape: 2 128 192 192 (9437184)
I0206 22:43:17.820071 18833 net.cpp:165] Memory required for data: 2046654748
I0206 22:43:17.820078 18833 layer_factory.hpp:77] Creating layer ch4_pool2
I0206 22:43:17.820091 18833 net.cpp:100] Creating Layer ch4_pool2
I0206 22:43:17.820099 18833 net.cpp:434] ch4_pool2 <- ch4_pool1_ch4_pool1_0_split_1
I0206 22:43:17.820112 18833 net.cpp:408] ch4_pool2 -> ch4_pool2
I0206 22:43:17.820188 18833 net.cpp:150] Setting up ch4_pool2
I0206 22:43:17.820201 18833 net.cpp:157] Top shape: 2 1 192 192 (73728)
I0206 22:43:17.820207 18833 net.cpp:165] Memory required for data: 2046949660
I0206 22:43:17.820214 18833 layer_factory.hpp:77] Creating layer ch4_pool2_ch4_pool2_0_split
I0206 22:43:17.820226 18833 net.cpp:100] Creating Layer ch4_pool2_ch4_pool2_0_split
I0206 22:43:17.820235 18833 net.cpp:434] ch4_pool2_ch4_pool2_0_split <- ch4_pool2
I0206 22:43:17.820243 18833 net.cpp:408] ch4_pool2_ch4_pool2_0_split -> ch4_pool2_ch4_pool2_0_split_0
I0206 22:43:17.820255 18833 net.cpp:408] ch4_pool2_ch4_pool2_0_split -> ch4_pool2_ch4_pool2_0_split_1
I0206 22:43:17.820328 18833 net.cpp:150] Setting up ch4_pool2_ch4_pool2_0_split
I0206 22:43:17.820340 18833 net.cpp:157] Top shape: 2 1 192 192 (73728)
I0206 22:43:17.820350 18833 net.cpp:157] Top shape: 2 1 192 192 (73728)
I0206 22:43:17.820358 18833 net.cpp:165] Memory required for data: 2047539484
I0206 22:43:17.820363 18833 layer_factory.hpp:77] Creating layer pool2_concat
I0206 22:43:17.820374 18833 net.cpp:100] Creating Layer pool2_concat
I0206 22:43:17.820381 18833 net.cpp:434] pool2_concat <- pool2
I0206 22:43:17.820390 18833 net.cpp:434] pool2_concat <- ch4_pool2_ch4_pool2_0_split_0
I0206 22:43:17.820402 18833 net.cpp:408] pool2_concat -> pool2_new
I0206 22:43:17.820448 18833 net.cpp:150] Setting up pool2_concat
I0206 22:43:17.820461 18833 net.cpp:157] Top shape: 2 129 192 192 (9510912)
I0206 22:43:17.820467 18833 net.cpp:165] Memory required for data: 2085583132
I0206 22:43:17.820473 18833 layer_factory.hpp:77] Creating layer conv3_1_new
I0206 22:43:17.820488 18833 net.cpp:100] Creating Layer conv3_1_new
I0206 22:43:17.820497 18833 net.cpp:434] conv3_1_new <- pool2_new
I0206 22:43:17.820508 18833 net.cpp:408] conv3_1_new -> conv3_1
I0206 22:43:17.823601 18833 net.cpp:150] Setting up conv3_1_new
I0206 22:43:17.823626 18833 net.cpp:157] Top shape: 2 256 192 192 (18874368)
I0206 22:43:17.823634 18833 net.cpp:165] Memory required for data: 2161080604
I0206 22:43:17.823657 18833 layer_factory.hpp:77] Creating layer relu3_1
I0206 22:43:17.823670 18833 net.cpp:100] Creating Layer relu3_1
I0206 22:43:17.823679 18833 net.cpp:434] relu3_1 <- conv3_1
I0206 22:43:17.823691 18833 net.cpp:395] relu3_1 -> conv3_1 (in-place)
I0206 22:43:17.824085 18833 net.cpp:150] Setting up relu3_1
I0206 22:43:17.824103 18833 net.cpp:157] Top shape: 2 256 192 192 (18874368)
I0206 22:43:17.824111 18833 net.cpp:165] Memory required for data: 2236578076
I0206 22:43:17.824118 18833 layer_factory.hpp:77] Creating layer conv3_2
I0206 22:43:17.824136 18833 net.cpp:100] Creating Layer conv3_2
I0206 22:43:17.824146 18833 net.cpp:434] conv3_2 <- conv3_1
I0206 22:43:17.824160 18833 net.cpp:408] conv3_2 -> conv3_2
I0206 22:43:17.829207 18833 net.cpp:150] Setting up conv3_2
I0206 22:43:17.829237 18833 net.cpp:157] Top shape: 2 256 192 192 (18874368)
I0206 22:43:17.829246 18833 net.cpp:165] Memory required for data: 2312075548
I0206 22:43:17.829263 18833 layer_factory.hpp:77] Creating layer relu3_2
I0206 22:43:17.829279 18833 net.cpp:100] Creating Layer relu3_2
I0206 22:43:17.829289 18833 net.cpp:434] relu3_2 <- conv3_2
I0206 22:43:17.829304 18833 net.cpp:395] relu3_2 -> conv3_2 (in-place)
I0206 22:43:17.829702 18833 net.cpp:150] Setting up relu3_2
I0206 22:43:17.829721 18833 net.cpp:157] Top shape: 2 256 192 192 (18874368)
I0206 22:43:17.829730 18833 net.cpp:165] Memory required for data: 2387573020
I0206 22:43:17.829737 18833 layer_factory.hpp:77] Creating layer conv3_3
I0206 22:43:17.829753 18833 net.cpp:100] Creating Layer conv3_3
I0206 22:43:17.829763 18833 net.cpp:434] conv3_3 <- conv3_2
I0206 22:43:17.829777 18833 net.cpp:408] conv3_3 -> conv3_3
I0206 22:43:17.834564 18833 net.cpp:150] Setting up conv3_3
I0206 22:43:17.834601 18833 net.cpp:157] Top shape: 2 256 192 192 (18874368)
I0206 22:43:17.834611 18833 net.cpp:165] Memory required for data: 2463070492
I0206 22:43:17.834630 18833 layer_factory.hpp:77] Creating layer relu3_3
I0206 22:43:17.834646 18833 net.cpp:100] Creating Layer relu3_3
I0206 22:43:17.834657 18833 net.cpp:434] relu3_3 <- conv3_3
I0206 22:43:17.834671 18833 net.cpp:395] relu3_3 -> conv3_3 (in-place)
I0206 22:43:17.835075 18833 net.cpp:150] Setting up relu3_3
I0206 22:43:17.835096 18833 net.cpp:157] Top shape: 2 256 192 192 (18874368)
I0206 22:43:17.835105 18833 net.cpp:165] Memory required for data: 2538567964
I0206 22:43:17.835114 18833 layer_factory.hpp:77] Creating layer pool3
I0206 22:43:17.835132 18833 net.cpp:100] Creating Layer pool3
I0206 22:43:17.835142 18833 net.cpp:434] pool3 <- conv3_3
I0206 22:43:17.835156 18833 net.cpp:408] pool3 -> pool3
I0206 22:43:17.835259 18833 net.cpp:150] Setting up pool3
I0206 22:43:17.835278 18833 net.cpp:157] Top shape: 2 256 96 96 (4718592)
I0206 22:43:17.835288 18833 net.cpp:165] Memory required for data: 2557442332
I0206 22:43:17.835295 18833 layer_factory.hpp:77] Creating layer ch4_pool3
I0206 22:43:17.835312 18833 net.cpp:100] Creating Layer ch4_pool3
I0206 22:43:17.835324 18833 net.cpp:434] ch4_pool3 <- ch4_pool2_ch4_pool2_0_split_1
I0206 22:43:17.835338 18833 net.cpp:408] ch4_pool3 -> ch4_pool3
I0206 22:43:17.835427 18833 net.cpp:150] Setting up ch4_pool3
I0206 22:43:17.835443 18833 net.cpp:157] Top shape: 2 1 96 96 (18432)
I0206 22:43:17.835449 18833 net.cpp:165] Memory required for data: 2557516060
I0206 22:43:17.835458 18833 layer_factory.hpp:77] Creating layer pool3_concat
I0206 22:43:17.835470 18833 net.cpp:100] Creating Layer pool3_concat
I0206 22:43:17.835480 18833 net.cpp:434] pool3_concat <- pool3
I0206 22:43:17.835490 18833 net.cpp:434] pool3_concat <- ch4_pool3
I0206 22:43:17.835501 18833 net.cpp:408] pool3_concat -> pool3_new
I0206 22:43:17.835557 18833 net.cpp:150] Setting up pool3_concat
I0206 22:43:17.835572 18833 net.cpp:157] Top shape: 2 257 96 96 (4737024)
I0206 22:43:17.835580 18833 net.cpp:165] Memory required for data: 2576464156
I0206 22:43:17.835588 18833 layer_factory.hpp:77] Creating layer conv4_1_new
I0206 22:43:17.835605 18833 net.cpp:100] Creating Layer conv4_1_new
I0206 22:43:17.835615 18833 net.cpp:434] conv4_1_new <- pool3_new
I0206 22:43:17.835629 18833 net.cpp:408] conv4_1_new -> conv4_1
I0206 22:43:17.842799 18833 net.cpp:150] Setting up conv4_1_new
I0206 22:43:17.842846 18833 net.cpp:157] Top shape: 2 512 96 96 (9437184)
I0206 22:43:17.842854 18833 net.cpp:165] Memory required for data: 2614212892
I0206 22:43:17.842867 18833 layer_factory.hpp:77] Creating layer relu4_1
I0206 22:43:17.842881 18833 net.cpp:100] Creating Layer relu4_1
I0206 22:43:17.842890 18833 net.cpp:434] relu4_1 <- conv4_1
I0206 22:43:17.842898 18833 net.cpp:395] relu4_1 -> conv4_1 (in-place)
I0206 22:43:17.843112 18833 net.cpp:150] Setting up relu4_1
I0206 22:43:17.843123 18833 net.cpp:157] Top shape: 2 512 96 96 (9437184)
I0206 22:43:17.843127 18833 net.cpp:165] Memory required for data: 2651961628
I0206 22:43:17.843132 18833 layer_factory.hpp:77] Creating layer conv4_2
I0206 22:43:17.843144 18833 net.cpp:100] Creating Layer conv4_2
I0206 22:43:17.843149 18833 net.cpp:434] conv4_2 <- conv4_1
I0206 22:43:17.843156 18833 net.cpp:408] conv4_2 -> conv4_2
I0206 22:43:17.854127 18833 net.cpp:150] Setting up conv4_2
I0206 22:43:17.854172 18833 net.cpp:157] Top shape: 2 512 96 96 (9437184)
I0206 22:43:17.854178 18833 net.cpp:165] Memory required for data: 2689710364
I0206 22:43:17.854202 18833 layer_factory.hpp:77] Creating layer relu4_2
I0206 22:43:17.854220 18833 net.cpp:100] Creating Layer relu4_2
I0206 22:43:17.854229 18833 net.cpp:434] relu4_2 <- conv4_2
I0206 22:43:17.854236 18833 net.cpp:395] relu4_2 -> conv4_2 (in-place)
I0206 22:43:17.855304 18833 net.cpp:150] Setting up relu4_2
I0206 22:43:17.855339 18833 net.cpp:157] Top shape: 2 512 96 96 (9437184)
I0206 22:43:17.855343 18833 net.cpp:165] Memory required for data: 2727459100
I0206 22:43:17.855350 18833 layer_factory.hpp:77] Creating layer conv4_3
I0206 22:43:17.855370 18833 net.cpp:100] Creating Layer conv4_3
I0206 22:43:17.855376 18833 net.cpp:434] conv4_3 <- conv4_2
I0206 22:43:17.855386 18833 net.cpp:408] conv4_3 -> conv4_3
I0206 22:43:17.862879 18833 net.cpp:150] Setting up conv4_3
I0206 22:43:17.862915 18833 net.cpp:157] Top shape: 2 512 96 96 (9437184)
I0206 22:43:17.862921 18833 net.cpp:165] Memory required for data: 2765207836
I0206 22:43:17.862932 18833 layer_factory.hpp:77] Creating layer relu4_3
I0206 22:43:17.862947 18833 net.cpp:100] Creating Layer relu4_3
I0206 22:43:17.862954 18833 net.cpp:434] relu4_3 <- conv4_3
I0206 22:43:17.862962 18833 net.cpp:395] relu4_3 -> conv4_3 (in-place)
I0206 22:43:17.863200 18833 net.cpp:150] Setting up relu4_3
I0206 22:43:17.863212 18833 net.cpp:157] Top shape: 2 512 96 96 (9437184)
I0206 22:43:17.863217 18833 net.cpp:165] Memory required for data: 2802956572
I0206 22:43:17.863222 18833 layer_factory.hpp:77] Creating layer conv4_3_relu4_3_0_split
I0206 22:43:17.863231 18833 net.cpp:100] Creating Layer conv4_3_relu4_3_0_split
I0206 22:43:17.863236 18833 net.cpp:434] conv4_3_relu4_3_0_split <- conv4_3
I0206 22:43:17.863243 18833 net.cpp:408] conv4_3_relu4_3_0_split -> conv4_3_relu4_3_0_split_0
I0206 22:43:17.863252 18833 net.cpp:408] conv4_3_relu4_3_0_split -> conv4_3_relu4_3_0_split_1
I0206 22:43:17.863260 18833 net.cpp:408] conv4_3_relu4_3_0_split -> conv4_3_relu4_3_0_split_2
I0206 22:43:17.863337 18833 net.cpp:150] Setting up conv4_3_relu4_3_0_split
I0206 22:43:17.863345 18833 net.cpp:157] Top shape: 2 512 96 96 (9437184)
I0206 22:43:17.863353 18833 net.cpp:157] Top shape: 2 512 96 96 (9437184)
I0206 22:43:17.863358 18833 net.cpp:157] Top shape: 2 512 96 96 (9437184)
I0206 22:43:17.863363 18833 net.cpp:165] Memory required for data: 2916202780
I0206 22:43:17.863366 18833 layer_factory.hpp:77] Creating layer loss1_conv1
I0206 22:43:17.863381 18833 net.cpp:100] Creating Layer loss1_conv1
I0206 22:43:17.863387 18833 net.cpp:434] loss1_conv1 <- conv4_3_relu4_3_0_split_0
I0206 22:43:17.863397 18833 net.cpp:408] loss1_conv1 -> loss1_conv1
I0206 22:43:17.927428 18833 net.cpp:150] Setting up loss1_conv1
I0206 22:43:17.927459 18833 net.cpp:157] Top shape: 2 512 96 96 (9437184)
I0206 22:43:17.927464 18833 net.cpp:165] Memory required for data: 2953951516
I0206 22:43:17.927474 18833 layer_factory.hpp:77] Creating layer loss_relu1
I0206 22:43:17.927486 18833 net.cpp:100] Creating Layer loss_relu1
I0206 22:43:17.927492 18833 net.cpp:434] loss_relu1 <- loss1_conv1
I0206 22:43:17.927500 18833 net.cpp:395] loss_relu1 -> loss1_conv1 (in-place)
I0206 22:43:17.927700 18833 net.cpp:150] Setting up loss_relu1
I0206 22:43:17.927709 18833 net.cpp:157] Top shape: 2 512 96 96 (9437184)
I0206 22:43:17.927712 18833 net.cpp:165] Memory required for data: 2991700252
I0206 22:43:17.927716 18833 layer_factory.hpp:77] Creating layer loss1_conv1_loss_relu1_0_split
I0206 22:43:17.927724 18833 net.cpp:100] Creating Layer loss1_conv1_loss_relu1_0_split
I0206 22:43:17.927728 18833 net.cpp:434] loss1_conv1_loss_relu1_0_split <- loss1_conv1
I0206 22:43:17.927734 18833 net.cpp:408] loss1_conv1_loss_relu1_0_split -> loss1_conv1_loss_relu1_0_split_0
I0206 22:43:17.927744 18833 net.cpp:408] loss1_conv1_loss_relu1_0_split -> loss1_conv1_loss_relu1_0_split_1
I0206 22:43:17.927791 18833 net.cpp:150] Setting up loss1_conv1_loss_relu1_0_split
I0206 22:43:17.927798 18833 net.cpp:157] Top shape: 2 512 96 96 (9437184)
I0206 22:43:17.927803 18833 net.cpp:157] Top shape: 2 512 96 96 (9437184)
I0206 22:43:17.927808 18833 net.cpp:165] Memory required for data: 3067197724
I0206 22:43:17.927810 18833 layer_factory.hpp:77] Creating layer LFCN_1_5x5
I0206 22:43:17.927826 18833 net.cpp:100] Creating Layer LFCN_1_5x5
I0206 22:43:17.927831 18833 net.cpp:434] LFCN_1_5x5 <- loss1_conv1_loss_relu1_0_split_0
I0206 22:43:17.927840 18833 net.cpp:408] LFCN_1_5x5 -> LFCN_1_5x5
I0206 22:43:17.932725 18833 net.cpp:150] Setting up LFCN_1_5x5
I0206 22:43:17.932737 18833 net.cpp:157] Top shape: 2 9 96 96 (165888)
I0206 22:43:17.932741 18833 net.cpp:165] Memory required for data: 3067861276
I0206 22:43:17.932747 18833 layer_factory.hpp:77] Creating layer LFCN_1_5x5_LFCN_1_5x5_0_split
I0206 22:43:17.932755 18833 net.cpp:100] Creating Layer LFCN_1_5x5_LFCN_1_5x5_0_split
I0206 22:43:17.932760 18833 net.cpp:434] LFCN_1_5x5_LFCN_1_5x5_0_split <- LFCN_1_5x5
I0206 22:43:17.932765 18833 net.cpp:408] LFCN_1_5x5_LFCN_1_5x5_0_split -> LFCN_1_5x5_LFCN_1_5x5_0_split_0
I0206 22:43:17.932773 18833 net.cpp:408] LFCN_1_5x5_LFCN_1_5x5_0_split -> LFCN_1_5x5_LFCN_1_5x5_0_split_1
I0206 22:43:17.932780 18833 net.cpp:408] LFCN_1_5x5_LFCN_1_5x5_0_split -> LFCN_1_5x5_LFCN_1_5x5_0_split_2
I0206 22:43:17.932834 18833 net.cpp:150] Setting up LFCN_1_5x5_LFCN_1_5x5_0_split
I0206 22:43:17.932839 18833 net.cpp:157] Top shape: 2 9 96 96 (165888)
I0206 22:43:17.932844 18833 net.cpp:157] Top shape: 2 9 96 96 (165888)
I0206 22:43:17.932849 18833 net.cpp:157] Top shape: 2 9 96 96 (165888)
I0206 22:43:17.932853 18833 net.cpp:165] Memory required for data: 3069851932
I0206 22:43:17.932857 18833 layer_factory.hpp:77] Creating layer detection_loss_1_5x5
I0206 22:43:17.932865 18833 net.cpp:100] Creating Layer detection_loss_1_5x5
I0206 22:43:17.932869 18833 net.cpp:434] detection_loss_1_5x5 <- LFCN_1_5x5_LFCN_1_5x5_0_split_0
I0206 22:43:17.932875 18833 net.cpp:434] detection_loss_1_5x5 <- label_1_5x5_data_1_split_0
I0206 22:43:17.932881 18833 net.cpp:408] detection_loss_1_5x5 -> loss_1_5x5
I0206 22:43:17.932893 18833 layer_factory.hpp:77] Creating layer detection_loss_1_5x5
I0206 22:43:17.933323 18833 net.cpp:150] Setting up detection_loss_1_5x5
I0206 22:43:17.933336 18833 net.cpp:157] Top shape: 1 1 1 2 (2)
I0206 22:43:17.933339 18833 net.cpp:160]     with loss weight 0.9
I0206 22:43:17.933351 18833 net.cpp:165] Memory required for data: 3069851940
I0206 22:43:17.933354 18833 layer_factory.hpp:77] Creating layer detection_accuracy_1_5x5
I0206 22:43:17.933362 18833 net.cpp:100] Creating Layer detection_accuracy_1_5x5
I0206 22:43:17.933367 18833 net.cpp:434] detection_accuracy_1_5x5 <- LFCN_1_5x5_LFCN_1_5x5_0_split_1
I0206 22:43:17.933372 18833 net.cpp:434] detection_accuracy_1_5x5 <- label_1_5x5_data_1_split_1
I0206 22:43:17.933378 18833 net.cpp:408] detection_accuracy_1_5x5 -> accuracy_1_5x5
I0206 22:43:17.933387 18833 net.cpp:408] detection_accuracy_1_5x5 -> boxiou_1_5x5
I0206 22:43:17.933436 18833 net.cpp:150] Setting up detection_accuracy_1_5x5
I0206 22:43:17.933444 18833 net.cpp:157] Top shape: 1 1 1 2 (2)
I0206 22:43:17.933449 18833 net.cpp:157] Top shape: 1 1 1 1 (1)
I0206 22:43:17.933452 18833 net.cpp:165] Memory required for data: 3069851952
I0206 22:43:17.933455 18833 layer_factory.hpp:77] Creating layer LFCN_1_7x7
I0206 22:43:17.933467 18833 net.cpp:100] Creating Layer LFCN_1_7x7
I0206 22:43:17.933473 18833 net.cpp:434] LFCN_1_7x7 <- loss1_conv1_loss_relu1_0_split_1
I0206 22:43:17.933482 18833 net.cpp:408] LFCN_1_7x7 -> LFCN_1_7x7
I0206 22:43:17.940353 18833 net.cpp:150] Setting up LFCN_1_7x7
I0206 22:43:17.940372 18833 net.cpp:157] Top shape: 2 9 96 96 (165888)
I0206 22:43:17.940376 18833 net.cpp:165] Memory required for data: 3070515504
I0206 22:43:17.940383 18833 layer_factory.hpp:77] Creating layer LFCN_1_7x7_LFCN_1_7x7_0_split
I0206 22:43:17.940392 18833 net.cpp:100] Creating Layer LFCN_1_7x7_LFCN_1_7x7_0_split
I0206 22:43:17.940397 18833 net.cpp:434] LFCN_1_7x7_LFCN_1_7x7_0_split <- LFCN_1_7x7
I0206 22:43:17.940402 18833 net.cpp:408] LFCN_1_7x7_LFCN_1_7x7_0_split -> LFCN_1_7x7_LFCN_1_7x7_0_split_0
I0206 22:43:17.940409 18833 net.cpp:408] LFCN_1_7x7_LFCN_1_7x7_0_split -> LFCN_1_7x7_LFCN_1_7x7_0_split_1
I0206 22:43:17.940414 18833 net.cpp:408] LFCN_1_7x7_LFCN_1_7x7_0_split -> LFCN_1_7x7_LFCN_1_7x7_0_split_2
I0206 22:43:17.940470 18833 net.cpp:150] Setting up LFCN_1_7x7_LFCN_1_7x7_0_split
I0206 22:43:17.940479 18833 net.cpp:157] Top shape: 2 9 96 96 (165888)
I0206 22:43:17.940482 18833 net.cpp:157] Top shape: 2 9 96 96 (165888)
I0206 22:43:17.940486 18833 net.cpp:157] Top shape: 2 9 96 96 (165888)
I0206 22:43:17.940490 18833 net.cpp:165] Memory required for data: 3072506160
I0206 22:43:17.940493 18833 layer_factory.hpp:77] Creating layer detection_loss_1_7x7
I0206 22:43:17.940500 18833 net.cpp:100] Creating Layer detection_loss_1_7x7
I0206 22:43:17.940503 18833 net.cpp:434] detection_loss_1_7x7 <- LFCN_1_7x7_LFCN_1_7x7_0_split_0
I0206 22:43:17.940507 18833 net.cpp:434] detection_loss_1_7x7 <- label_1_7x7_data_2_split_0
I0206 22:43:17.940513 18833 net.cpp:408] detection_loss_1_7x7 -> loss_1_7x7
I0206 22:43:17.940521 18833 layer_factory.hpp:77] Creating layer detection_loss_1_7x7
I0206 22:43:17.940893 18833 net.cpp:150] Setting up detection_loss_1_7x7
I0206 22:43:17.940922 18833 net.cpp:157] Top shape: 1 1 1 2 (2)
I0206 22:43:17.940925 18833 net.cpp:160]     with loss weight 0.9
I0206 22:43:17.940937 18833 net.cpp:165] Memory required for data: 3072506168
I0206 22:43:17.940940 18833 layer_factory.hpp:77] Creating layer detection_accuracy_1_7x7
I0206 22:43:17.940948 18833 net.cpp:100] Creating Layer detection_accuracy_1_7x7
I0206 22:43:17.940951 18833 net.cpp:434] detection_accuracy_1_7x7 <- LFCN_1_7x7_LFCN_1_7x7_0_split_1
I0206 22:43:17.940956 18833 net.cpp:434] detection_accuracy_1_7x7 <- label_1_7x7_data_2_split_1
I0206 22:43:17.940961 18833 net.cpp:408] detection_accuracy_1_7x7 -> accuracy_1_7x7
I0206 22:43:17.940968 18833 net.cpp:408] detection_accuracy_1_7x7 -> boxiou_1_7x7
I0206 22:43:17.941009 18833 net.cpp:150] Setting up detection_accuracy_1_7x7
I0206 22:43:17.941015 18833 net.cpp:157] Top shape: 1 1 1 2 (2)
I0206 22:43:17.941020 18833 net.cpp:157] Top shape: 1 1 1 1 (1)
I0206 22:43:17.941022 18833 net.cpp:165] Memory required for data: 3072506180
I0206 22:43:17.941025 18833 layer_factory.hpp:77] Creating layer pool4
I0206 22:43:17.941032 18833 net.cpp:100] Creating Layer pool4
I0206 22:43:17.941037 18833 net.cpp:434] pool4 <- conv4_3_relu4_3_0_split_1
I0206 22:43:17.941042 18833 net.cpp:408] pool4 -> pool4
I0206 22:43:17.941078 18833 net.cpp:150] Setting up pool4
I0206 22:43:17.941084 18833 net.cpp:157] Top shape: 2 512 48 48 (2359296)
I0206 22:43:17.941088 18833 net.cpp:165] Memory required for data: 3081943364
I0206 22:43:17.941092 18833 layer_factory.hpp:77] Creating layer conv5_1
I0206 22:43:17.941097 18833 net.cpp:100] Creating Layer conv5_1
I0206 22:43:17.941102 18833 net.cpp:434] conv5_1 <- pool4
I0206 22:43:17.941107 18833 net.cpp:408] conv5_1 -> conv5_1
I0206 22:43:17.947660 18833 net.cpp:150] Setting up conv5_1
I0206 22:43:17.947752 18833 net.cpp:157] Top shape: 2 512 48 48 (2359296)
I0206 22:43:17.947760 18833 net.cpp:165] Memory required for data: 3091380548
I0206 22:43:17.947782 18833 layer_factory.hpp:77] Creating layer relu5_1
I0206 22:43:17.947818 18833 net.cpp:100] Creating Layer relu5_1
I0206 22:43:17.947832 18833 net.cpp:434] relu5_1 <- conv5_1
I0206 22:43:17.947844 18833 net.cpp:395] relu5_1 -> conv5_1 (in-place)
I0206 22:43:17.948072 18833 net.cpp:150] Setting up relu5_1
I0206 22:43:17.948081 18833 net.cpp:157] Top shape: 2 512 48 48 (2359296)
I0206 22:43:17.948083 18833 net.cpp:165] Memory required for data: 3100817732
I0206 22:43:17.948086 18833 layer_factory.hpp:77] Creating layer conv5_2
I0206 22:43:17.948099 18833 net.cpp:100] Creating Layer conv5_2
I0206 22:43:17.948102 18833 net.cpp:434] conv5_2 <- conv5_1
I0206 22:43:17.948109 18833 net.cpp:408] conv5_2 -> conv5_2
I0206 22:43:17.955051 18833 net.cpp:150] Setting up conv5_2
I0206 22:43:17.955081 18833 net.cpp:157] Top shape: 2 512 48 48 (2359296)
I0206 22:43:17.955086 18833 net.cpp:165] Memory required for data: 3110254916
I0206 22:43:17.955097 18833 layer_factory.hpp:77] Creating layer relu5_2
I0206 22:43:17.955109 18833 net.cpp:100] Creating Layer relu5_2
I0206 22:43:17.955116 18833 net.cpp:434] relu5_2 <- conv5_2
I0206 22:43:17.955124 18833 net.cpp:395] relu5_2 -> conv5_2 (in-place)
I0206 22:43:17.955669 18833 net.cpp:150] Setting up relu5_2
I0206 22:43:17.955682 18833 net.cpp:157] Top shape: 2 512 48 48 (2359296)
I0206 22:43:17.955687 18833 net.cpp:165] Memory required for data: 3119692100
I0206 22:43:17.955690 18833 layer_factory.hpp:77] Creating layer conv5_3
I0206 22:43:17.955703 18833 net.cpp:100] Creating Layer conv5_3
I0206 22:43:17.955706 18833 net.cpp:434] conv5_3 <- conv5_2
I0206 22:43:17.955714 18833 net.cpp:408] conv5_3 -> conv5_3
I0206 22:43:17.962370 18833 net.cpp:150] Setting up conv5_3
I0206 22:43:17.962400 18833 net.cpp:157] Top shape: 2 512 48 48 (2359296)
I0206 22:43:17.962405 18833 net.cpp:165] Memory required for data: 3129129284
I0206 22:43:17.962414 18833 layer_factory.hpp:77] Creating layer relu5_3
I0206 22:43:17.962425 18833 net.cpp:100] Creating Layer relu5_3
I0206 22:43:17.962432 18833 net.cpp:434] relu5_3 <- conv5_3
I0206 22:43:17.962438 18833 net.cpp:395] relu5_3 -> conv5_3 (in-place)
I0206 22:43:17.962627 18833 net.cpp:150] Setting up relu5_3
I0206 22:43:17.962637 18833 net.cpp:157] Top shape: 2 512 48 48 (2359296)
I0206 22:43:17.962641 18833 net.cpp:165] Memory required for data: 3138566468
I0206 22:43:17.962644 18833 layer_factory.hpp:77] Creating layer conv5_3_relu5_3_0_split
I0206 22:43:17.962652 18833 net.cpp:100] Creating Layer conv5_3_relu5_3_0_split
I0206 22:43:17.962656 18833 net.cpp:434] conv5_3_relu5_3_0_split <- conv5_3
I0206 22:43:17.962661 18833 net.cpp:408] conv5_3_relu5_3_0_split -> conv5_3_relu5_3_0_split_0
I0206 22:43:17.962667 18833 net.cpp:408] conv5_3_relu5_3_0_split -> conv5_3_relu5_3_0_split_1
I0206 22:43:17.962672 18833 net.cpp:408] conv5_3_relu5_3_0_split -> conv5_3_relu5_3_0_split_2
I0206 22:43:17.962723 18833 net.cpp:150] Setting up conv5_3_relu5_3_0_split
I0206 22:43:17.962729 18833 net.cpp:157] Top shape: 2 512 48 48 (2359296)
I0206 22:43:17.962733 18833 net.cpp:157] Top shape: 2 512 48 48 (2359296)
I0206 22:43:17.962738 18833 net.cpp:157] Top shape: 2 512 48 48 (2359296)
I0206 22:43:17.962740 18833 net.cpp:165] Memory required for data: 3166878020
I0206 22:43:17.962744 18833 layer_factory.hpp:77] Creating layer LFCN_2_5x5
I0206 22:43:17.962754 18833 net.cpp:100] Creating Layer LFCN_2_5x5
I0206 22:43:17.962759 18833 net.cpp:434] LFCN_2_5x5 <- conv5_3_relu5_3_0_split_0
I0206 22:43:17.962766 18833 net.cpp:408] LFCN_2_5x5 -> LFCN_2_5x5
I0206 22:43:17.968863 18833 net.cpp:150] Setting up LFCN_2_5x5
I0206 22:43:17.968875 18833 net.cpp:157] Top shape: 2 9 48 48 (41472)
I0206 22:43:17.968878 18833 net.cpp:165] Memory required for data: 3167043908
I0206 22:43:17.968889 18833 layer_factory.hpp:77] Creating layer LFCN_2_5x5_LFCN_2_5x5_0_split
I0206 22:43:17.968894 18833 net.cpp:100] Creating Layer LFCN_2_5x5_LFCN_2_5x5_0_split
I0206 22:43:17.968902 18833 net.cpp:434] LFCN_2_5x5_LFCN_2_5x5_0_split <- LFCN_2_5x5
I0206 22:43:17.968906 18833 net.cpp:408] LFCN_2_5x5_LFCN_2_5x5_0_split -> LFCN_2_5x5_LFCN_2_5x5_0_split_0
I0206 22:43:17.968914 18833 net.cpp:408] LFCN_2_5x5_LFCN_2_5x5_0_split -> LFCN_2_5x5_LFCN_2_5x5_0_split_1
I0206 22:43:17.968919 18833 net.cpp:408] LFCN_2_5x5_LFCN_2_5x5_0_split -> LFCN_2_5x5_LFCN_2_5x5_0_split_2
I0206 22:43:17.968964 18833 net.cpp:150] Setting up LFCN_2_5x5_LFCN_2_5x5_0_split
I0206 22:43:17.968969 18833 net.cpp:157] Top shape: 2 9 48 48 (41472)
I0206 22:43:17.968974 18833 net.cpp:157] Top shape: 2 9 48 48 (41472)
I0206 22:43:17.968978 18833 net.cpp:157] Top shape: 2 9 48 48 (41472)
I0206 22:43:17.968981 18833 net.cpp:165] Memory required for data: 3167541572
I0206 22:43:17.968984 18833 layer_factory.hpp:77] Creating layer detection_loss_2_5x5
I0206 22:43:17.968989 18833 net.cpp:100] Creating Layer detection_loss_2_5x5
I0206 22:43:17.968993 18833 net.cpp:434] detection_loss_2_5x5 <- LFCN_2_5x5_LFCN_2_5x5_0_split_0
I0206 22:43:17.968997 18833 net.cpp:434] detection_loss_2_5x5 <- label_2_5x5_data_3_split_0
I0206 22:43:17.969004 18833 net.cpp:408] detection_loss_2_5x5 -> loss_2_5x5
I0206 22:43:17.969012 18833 layer_factory.hpp:77] Creating layer detection_loss_2_5x5
I0206 22:43:17.969683 18833 net.cpp:150] Setting up detection_loss_2_5x5
I0206 22:43:17.969696 18833 net.cpp:157] Top shape: 1 1 1 2 (2)
I0206 22:43:17.969699 18833 net.cpp:160]     with loss weight 1
I0206 22:43:17.969709 18833 net.cpp:165] Memory required for data: 3167541580
I0206 22:43:17.969713 18833 layer_factory.hpp:77] Creating layer detection_accuracy_2_5x5
I0206 22:43:17.969722 18833 net.cpp:100] Creating Layer detection_accuracy_2_5x5
I0206 22:43:17.969725 18833 net.cpp:434] detection_accuracy_2_5x5 <- LFCN_2_5x5_LFCN_2_5x5_0_split_1
I0206 22:43:17.969729 18833 net.cpp:434] detection_accuracy_2_5x5 <- label_2_5x5_data_3_split_1
I0206 22:43:17.969735 18833 net.cpp:408] detection_accuracy_2_5x5 -> accuracy_2_5x5
I0206 22:43:17.969741 18833 net.cpp:408] detection_accuracy_2_5x5 -> boxiou_2_5x5
I0206 22:43:17.969789 18833 net.cpp:150] Setting up detection_accuracy_2_5x5
I0206 22:43:17.969796 18833 net.cpp:157] Top shape: 1 1 1 2 (2)
I0206 22:43:17.969800 18833 net.cpp:157] Top shape: 1 1 1 1 (1)
I0206 22:43:17.969804 18833 net.cpp:165] Memory required for data: 3167541592
I0206 22:43:17.969806 18833 layer_factory.hpp:77] Creating layer LFCN_2_7x7
I0206 22:43:17.969821 18833 net.cpp:100] Creating Layer LFCN_2_7x7
I0206 22:43:17.969826 18833 net.cpp:434] LFCN_2_7x7 <- conv5_3_relu5_3_0_split_1
I0206 22:43:17.969832 18833 net.cpp:408] LFCN_2_7x7 -> LFCN_2_7x7
I0206 22:43:17.976516 18833 net.cpp:150] Setting up LFCN_2_7x7
I0206 22:43:17.976527 18833 net.cpp:157] Top shape: 2 9 48 48 (41472)
I0206 22:43:17.976531 18833 net.cpp:165] Memory required for data: 3167707480
I0206 22:43:17.976536 18833 layer_factory.hpp:77] Creating layer LFCN_2_7x7_LFCN_2_7x7_0_split
I0206 22:43:17.976541 18833 net.cpp:100] Creating Layer LFCN_2_7x7_LFCN_2_7x7_0_split
I0206 22:43:17.976546 18833 net.cpp:434] LFCN_2_7x7_LFCN_2_7x7_0_split <- LFCN_2_7x7
I0206 22:43:17.976549 18833 net.cpp:408] LFCN_2_7x7_LFCN_2_7x7_0_split -> LFCN_2_7x7_LFCN_2_7x7_0_split_0
I0206 22:43:17.976554 18833 net.cpp:408] LFCN_2_7x7_LFCN_2_7x7_0_split -> LFCN_2_7x7_LFCN_2_7x7_0_split_1
I0206 22:43:17.976559 18833 net.cpp:408] LFCN_2_7x7_LFCN_2_7x7_0_split -> LFCN_2_7x7_LFCN_2_7x7_0_split_2
I0206 22:43:17.976603 18833 net.cpp:150] Setting up LFCN_2_7x7_LFCN_2_7x7_0_split
I0206 22:43:17.976608 18833 net.cpp:157] Top shape: 2 9 48 48 (41472)
I0206 22:43:17.976611 18833 net.cpp:157] Top shape: 2 9 48 48 (41472)
I0206 22:43:17.976614 18833 net.cpp:157] Top shape: 2 9 48 48 (41472)
I0206 22:43:17.976617 18833 net.cpp:165] Memory required for data: 3168205144
I0206 22:43:17.976619 18833 layer_factory.hpp:77] Creating layer detection_loss_2_7x7
I0206 22:43:17.976625 18833 net.cpp:100] Creating Layer detection_loss_2_7x7
I0206 22:43:17.976629 18833 net.cpp:434] detection_loss_2_7x7 <- LFCN_2_7x7_LFCN_2_7x7_0_split_0
I0206 22:43:17.976632 18833 net.cpp:434] detection_loss_2_7x7 <- label_2_7x7_data_4_split_0
I0206 22:43:17.976636 18833 net.cpp:408] detection_loss_2_7x7 -> loss_2_7x7
I0206 22:43:17.976642 18833 layer_factory.hpp:77] Creating layer detection_loss_2_7x7
I0206 22:43:17.976984 18833 net.cpp:150] Setting up detection_loss_2_7x7
I0206 22:43:17.976994 18833 net.cpp:157] Top shape: 1 1 1 2 (2)
I0206 22:43:17.976996 18833 net.cpp:160]     with loss weight 1
I0206 22:43:17.977002 18833 net.cpp:165] Memory required for data: 3168205152
I0206 22:43:17.977005 18833 layer_factory.hpp:77] Creating layer detection_accuracy_2_7x7
I0206 22:43:17.977011 18833 net.cpp:100] Creating Layer detection_accuracy_2_7x7
I0206 22:43:17.977015 18833 net.cpp:434] detection_accuracy_2_7x7 <- LFCN_2_7x7_LFCN_2_7x7_0_split_1
I0206 22:43:17.977020 18833 net.cpp:434] detection_accuracy_2_7x7 <- label_2_7x7_data_4_split_1
I0206 22:43:17.977025 18833 net.cpp:408] detection_accuracy_2_7x7 -> accuracy_2_7x7
I0206 22:43:17.977031 18833 net.cpp:408] detection_accuracy_2_7x7 -> boxiou_2_7x7
I0206 22:43:17.977069 18833 net.cpp:150] Setting up detection_accuracy_2_7x7
I0206 22:43:17.977077 18833 net.cpp:157] Top shape: 1 1 1 2 (2)
I0206 22:43:17.977080 18833 net.cpp:157] Top shape: 1 1 1 1 (1)
I0206 22:43:17.977083 18833 net.cpp:165] Memory required for data: 3168205164
I0206 22:43:17.977087 18833 layer_factory.hpp:77] Creating layer pool5
I0206 22:43:17.977093 18833 net.cpp:100] Creating Layer pool5
I0206 22:43:17.977097 18833 net.cpp:434] pool5 <- conv5_3_relu5_3_0_split_2
I0206 22:43:17.977102 18833 net.cpp:408] pool5 -> pool5
I0206 22:43:17.977139 18833 net.cpp:150] Setting up pool5
I0206 22:43:17.977146 18833 net.cpp:157] Top shape: 2 512 24 24 (589824)
I0206 22:43:17.977150 18833 net.cpp:165] Memory required for data: 3170564460
I0206 22:43:17.977154 18833 layer_factory.hpp:77] Creating layer conv6_1
I0206 22:43:17.977162 18833 net.cpp:100] Creating Layer conv6_1
I0206 22:43:17.977165 18833 net.cpp:434] conv6_1 <- pool5
I0206 22:43:17.977172 18833 net.cpp:408] conv6_1 -> conv6_1
I0206 22:43:18.037410 18833 net.cpp:150] Setting up conv6_1
I0206 22:43:18.037439 18833 net.cpp:157] Top shape: 2 512 24 24 (589824)
I0206 22:43:18.037443 18833 net.cpp:165] Memory required for data: 3172923756
I0206 22:43:18.037451 18833 layer_factory.hpp:77] Creating layer relu6_1
I0206 22:43:18.037463 18833 net.cpp:100] Creating Layer relu6_1
I0206 22:43:18.037469 18833 net.cpp:434] relu6_1 <- conv6_1
I0206 22:43:18.037477 18833 net.cpp:395] relu6_1 -> conv6_1 (in-place)
I0206 22:43:18.037643 18833 net.cpp:150] Setting up relu6_1
I0206 22:43:18.037652 18833 net.cpp:157] Top shape: 2 512 24 24 (589824)
I0206 22:43:18.037655 18833 net.cpp:165] Memory required for data: 3175283052
I0206 22:43:18.037658 18833 layer_factory.hpp:77] Creating layer conv6_1_relu6_1_0_split
I0206 22:43:18.037665 18833 net.cpp:100] Creating Layer conv6_1_relu6_1_0_split
I0206 22:43:18.037668 18833 net.cpp:434] conv6_1_relu6_1_0_split <- conv6_1
I0206 22:43:18.037674 18833 net.cpp:408] conv6_1_relu6_1_0_split -> conv6_1_relu6_1_0_split_0
I0206 22:43:18.037680 18833 net.cpp:408] conv6_1_relu6_1_0_split -> conv6_1_relu6_1_0_split_1
I0206 22:43:18.037686 18833 net.cpp:408] conv6_1_relu6_1_0_split -> conv6_1_relu6_1_0_split_2
I0206 22:43:18.037740 18833 net.cpp:150] Setting up conv6_1_relu6_1_0_split
I0206 22:43:18.037746 18833 net.cpp:157] Top shape: 2 512 24 24 (589824)
I0206 22:43:18.037750 18833 net.cpp:157] Top shape: 2 512 24 24 (589824)
I0206 22:43:18.037755 18833 net.cpp:157] Top shape: 2 512 24 24 (589824)
I0206 22:43:18.037757 18833 net.cpp:165] Memory required for data: 3182360940
I0206 22:43:18.037760 18833 layer_factory.hpp:77] Creating layer LFCN_3_5x5
I0206 22:43:18.037771 18833 net.cpp:100] Creating Layer LFCN_3_5x5
I0206 22:43:18.037775 18833 net.cpp:434] LFCN_3_5x5 <- conv6_1_relu6_1_0_split_0
I0206 22:43:18.037781 18833 net.cpp:408] LFCN_3_5x5 -> LFCN_3_5x5
I0206 22:43:18.041769 18833 net.cpp:150] Setting up LFCN_3_5x5
I0206 22:43:18.041781 18833 net.cpp:157] Top shape: 2 9 24 24 (10368)
I0206 22:43:18.041785 18833 net.cpp:165] Memory required for data: 3182402412
I0206 22:43:18.041790 18833 layer_factory.hpp:77] Creating layer LFCN_3_5x5_LFCN_3_5x5_0_split
I0206 22:43:18.041796 18833 net.cpp:100] Creating Layer LFCN_3_5x5_LFCN_3_5x5_0_split
I0206 22:43:18.041800 18833 net.cpp:434] LFCN_3_5x5_LFCN_3_5x5_0_split <- LFCN_3_5x5
I0206 22:43:18.041806 18833 net.cpp:408] LFCN_3_5x5_LFCN_3_5x5_0_split -> LFCN_3_5x5_LFCN_3_5x5_0_split_0
I0206 22:43:18.041813 18833 net.cpp:408] LFCN_3_5x5_LFCN_3_5x5_0_split -> LFCN_3_5x5_LFCN_3_5x5_0_split_1
I0206 22:43:18.041820 18833 net.cpp:408] LFCN_3_5x5_LFCN_3_5x5_0_split -> LFCN_3_5x5_LFCN_3_5x5_0_split_2
I0206 22:43:18.041873 18833 net.cpp:150] Setting up LFCN_3_5x5_LFCN_3_5x5_0_split
I0206 22:43:18.041880 18833 net.cpp:157] Top shape: 2 9 24 24 (10368)
I0206 22:43:18.041885 18833 net.cpp:157] Top shape: 2 9 24 24 (10368)
I0206 22:43:18.041889 18833 net.cpp:157] Top shape: 2 9 24 24 (10368)
I0206 22:43:18.041893 18833 net.cpp:165] Memory required for data: 3182526828
I0206 22:43:18.041896 18833 layer_factory.hpp:77] Creating layer detection_loss_3_5x5
I0206 22:43:18.041904 18833 net.cpp:100] Creating Layer detection_loss_3_5x5
I0206 22:43:18.041909 18833 net.cpp:434] detection_loss_3_5x5 <- LFCN_3_5x5_LFCN_3_5x5_0_split_0
I0206 22:43:18.041914 18833 net.cpp:434] detection_loss_3_5x5 <- label_3_5x5_data_5_split_0
I0206 22:43:18.041921 18833 net.cpp:408] detection_loss_3_5x5 -> loss_3_5x5
I0206 22:43:18.041930 18833 layer_factory.hpp:77] Creating layer detection_loss_3_5x5
I0206 22:43:18.042263 18833 net.cpp:150] Setting up detection_loss_3_5x5
I0206 22:43:18.042271 18833 net.cpp:157] Top shape: 1 1 1 2 (2)
I0206 22:43:18.042274 18833 net.cpp:160]     with loss weight 1
I0206 22:43:18.042285 18833 net.cpp:165] Memory required for data: 3182526836
I0206 22:43:18.042289 18833 layer_factory.hpp:77] Creating layer detection_accuracy_3_5x5
I0206 22:43:18.042296 18833 net.cpp:100] Creating Layer detection_accuracy_3_5x5
I0206 22:43:18.042300 18833 net.cpp:434] detection_accuracy_3_5x5 <- LFCN_3_5x5_LFCN_3_5x5_0_split_1
I0206 22:43:18.042304 18833 net.cpp:434] detection_accuracy_3_5x5 <- label_3_5x5_data_5_split_1
I0206 22:43:18.042309 18833 net.cpp:408] detection_accuracy_3_5x5 -> accuracy_3_5x5
I0206 22:43:18.042316 18833 net.cpp:408] detection_accuracy_3_5x5 -> boxiou_3_5x5
I0206 22:43:18.042356 18833 net.cpp:150] Setting up detection_accuracy_3_5x5
I0206 22:43:18.042362 18833 net.cpp:157] Top shape: 1 1 1 2 (2)
I0206 22:43:18.042366 18833 net.cpp:157] Top shape: 1 1 1 1 (1)
I0206 22:43:18.042369 18833 net.cpp:165] Memory required for data: 3182526848
I0206 22:43:18.042372 18833 layer_factory.hpp:77] Creating layer LFCN_3_7x7
I0206 22:43:18.042382 18833 net.cpp:100] Creating Layer LFCN_3_7x7
I0206 22:43:18.042385 18833 net.cpp:434] LFCN_3_7x7 <- conv6_1_relu6_1_0_split_1
I0206 22:43:18.042392 18833 net.cpp:408] LFCN_3_7x7 -> LFCN_3_7x7
I0206 22:43:18.049603 18833 net.cpp:150] Setting up LFCN_3_7x7
I0206 22:43:18.049618 18833 net.cpp:157] Top shape: 2 9 24 24 (10368)
I0206 22:43:18.049623 18833 net.cpp:165] Memory required for data: 3182568320
I0206 22:43:18.049628 18833 layer_factory.hpp:77] Creating layer LFCN_3_7x7_LFCN_3_7x7_0_split
I0206 22:43:18.049636 18833 net.cpp:100] Creating Layer LFCN_3_7x7_LFCN_3_7x7_0_split
I0206 22:43:18.049640 18833 net.cpp:434] LFCN_3_7x7_LFCN_3_7x7_0_split <- LFCN_3_7x7
I0206 22:43:18.049645 18833 net.cpp:408] LFCN_3_7x7_LFCN_3_7x7_0_split -> LFCN_3_7x7_LFCN_3_7x7_0_split_0
I0206 22:43:18.049652 18833 net.cpp:408] LFCN_3_7x7_LFCN_3_7x7_0_split -> LFCN_3_7x7_LFCN_3_7x7_0_split_1
I0206 22:43:18.049659 18833 net.cpp:408] LFCN_3_7x7_LFCN_3_7x7_0_split -> LFCN_3_7x7_LFCN_3_7x7_0_split_2
I0206 22:43:18.049712 18833 net.cpp:150] Setting up LFCN_3_7x7_LFCN_3_7x7_0_split
I0206 22:43:18.049718 18833 net.cpp:157] Top shape: 2 9 24 24 (10368)
I0206 22:43:18.049722 18833 net.cpp:157] Top shape: 2 9 24 24 (10368)
I0206 22:43:18.049726 18833 net.cpp:157] Top shape: 2 9 24 24 (10368)
I0206 22:43:18.049729 18833 net.cpp:165] Memory required for data: 3182692736
I0206 22:43:18.049732 18833 layer_factory.hpp:77] Creating layer detection_loss_3_7x7
I0206 22:43:18.049741 18833 net.cpp:100] Creating Layer detection_loss_3_7x7
I0206 22:43:18.049743 18833 net.cpp:434] detection_loss_3_7x7 <- LFCN_3_7x7_LFCN_3_7x7_0_split_0
I0206 22:43:18.049748 18833 net.cpp:434] detection_loss_3_7x7 <- label_3_7x7_data_6_split_0
I0206 22:43:18.049753 18833 net.cpp:408] detection_loss_3_7x7 -> loss_3_7x7
I0206 22:43:18.049762 18833 layer_factory.hpp:77] Creating layer detection_loss_3_7x7
I0206 22:43:18.050460 18833 net.cpp:150] Setting up detection_loss_3_7x7
I0206 22:43:18.050473 18833 net.cpp:157] Top shape: 1 1 1 2 (2)
I0206 22:43:18.050477 18833 net.cpp:160]     with loss weight 1
I0206 22:43:18.050483 18833 net.cpp:165] Memory required for data: 3182692744
I0206 22:43:18.050487 18833 layer_factory.hpp:77] Creating layer detection_accuracy_3_7x7
I0206 22:43:18.050493 18833 net.cpp:100] Creating Layer detection_accuracy_3_7x7
I0206 22:43:18.050496 18833 net.cpp:434] detection_accuracy_3_7x7 <- LFCN_3_7x7_LFCN_3_7x7_0_split_1
I0206 22:43:18.050501 18833 net.cpp:434] detection_accuracy_3_7x7 <- label_3_7x7_data_6_split_1
I0206 22:43:18.050508 18833 net.cpp:408] detection_accuracy_3_7x7 -> accuracy_3_7x7
I0206 22:43:18.050514 18833 net.cpp:408] detection_accuracy_3_7x7 -> boxiou_3_7x7
I0206 22:43:18.050554 18833 net.cpp:150] Setting up detection_accuracy_3_7x7
I0206 22:43:18.050559 18833 net.cpp:157] Top shape: 1 1 1 2 (2)
I0206 22:43:18.050563 18833 net.cpp:157] Top shape: 1 1 1 1 (1)
I0206 22:43:18.050566 18833 net.cpp:165] Memory required for data: 3182692756
I0206 22:43:18.050570 18833 layer_factory.hpp:77] Creating layer pool6
I0206 22:43:18.050577 18833 net.cpp:100] Creating Layer pool6
I0206 22:43:18.050581 18833 net.cpp:434] pool6 <- conv6_1_relu6_1_0_split_2
I0206 22:43:18.050586 18833 net.cpp:408] pool6 -> pool6
I0206 22:43:18.050624 18833 net.cpp:150] Setting up pool6
I0206 22:43:18.050631 18833 net.cpp:157] Top shape: 2 512 12 12 (147456)
I0206 22:43:18.050634 18833 net.cpp:165] Memory required for data: 3183282580
I0206 22:43:18.050637 18833 layer_factory.hpp:77] Creating layer LFCN_4_5x5
I0206 22:43:18.050647 18833 net.cpp:100] Creating Layer LFCN_4_5x5
I0206 22:43:18.050650 18833 net.cpp:434] LFCN_4_5x5 <- pool6
I0206 22:43:18.050657 18833 net.cpp:408] LFCN_4_5x5 -> LFCN_4_5x5
I0206 22:43:18.054692 18833 net.cpp:150] Setting up LFCN_4_5x5
I0206 22:43:18.054705 18833 net.cpp:157] Top shape: 2 9 12 12 (2592)
I0206 22:43:18.054710 18833 net.cpp:165] Memory required for data: 3183292948
I0206 22:43:18.054716 18833 layer_factory.hpp:77] Creating layer LFCN_4_5x5_LFCN_4_5x5_0_split
I0206 22:43:18.054723 18833 net.cpp:100] Creating Layer LFCN_4_5x5_LFCN_4_5x5_0_split
I0206 22:43:18.054726 18833 net.cpp:434] LFCN_4_5x5_LFCN_4_5x5_0_split <- LFCN_4_5x5
I0206 22:43:18.054733 18833 net.cpp:408] LFCN_4_5x5_LFCN_4_5x5_0_split -> LFCN_4_5x5_LFCN_4_5x5_0_split_0
I0206 22:43:18.054739 18833 net.cpp:408] LFCN_4_5x5_LFCN_4_5x5_0_split -> LFCN_4_5x5_LFCN_4_5x5_0_split_1
I0206 22:43:18.054745 18833 net.cpp:408] LFCN_4_5x5_LFCN_4_5x5_0_split -> LFCN_4_5x5_LFCN_4_5x5_0_split_2
I0206 22:43:18.054798 18833 net.cpp:150] Setting up LFCN_4_5x5_LFCN_4_5x5_0_split
I0206 22:43:18.054805 18833 net.cpp:157] Top shape: 2 9 12 12 (2592)
I0206 22:43:18.054810 18833 net.cpp:157] Top shape: 2 9 12 12 (2592)
I0206 22:43:18.054813 18833 net.cpp:157] Top shape: 2 9 12 12 (2592)
I0206 22:43:18.054816 18833 net.cpp:165] Memory required for data: 3183324052
I0206 22:43:18.054819 18833 layer_factory.hpp:77] Creating layer detection_loss_4_5x5
I0206 22:43:18.054824 18833 net.cpp:100] Creating Layer detection_loss_4_5x5
I0206 22:43:18.054828 18833 net.cpp:434] detection_loss_4_5x5 <- LFCN_4_5x5_LFCN_4_5x5_0_split_0
I0206 22:43:18.054833 18833 net.cpp:434] detection_loss_4_5x5 <- label_4_5x5_data_7_split_0
I0206 22:43:18.054838 18833 net.cpp:408] detection_loss_4_5x5 -> loss_4_5x5
I0206 22:43:18.054846 18833 layer_factory.hpp:77] Creating layer detection_loss_4_5x5
I0206 22:43:18.055176 18833 net.cpp:150] Setting up detection_loss_4_5x5
I0206 22:43:18.055184 18833 net.cpp:157] Top shape: 1 1 1 2 (2)
I0206 22:43:18.055188 18833 net.cpp:160]     with loss weight 1
I0206 22:43:18.055194 18833 net.cpp:165] Memory required for data: 3183324060
I0206 22:43:18.055197 18833 layer_factory.hpp:77] Creating layer detection_accuracy_4_5x5
I0206 22:43:18.055204 18833 net.cpp:100] Creating Layer detection_accuracy_4_5x5
I0206 22:43:18.055208 18833 net.cpp:434] detection_accuracy_4_5x5 <- LFCN_4_5x5_LFCN_4_5x5_0_split_1
I0206 22:43:18.055212 18833 net.cpp:434] detection_accuracy_4_5x5 <- label_4_5x5_data_7_split_1
I0206 22:43:18.055218 18833 net.cpp:408] detection_accuracy_4_5x5 -> accuracy_4_5x5
I0206 22:43:18.055224 18833 net.cpp:408] detection_accuracy_4_5x5 -> boxiou_4_5x5
I0206 22:43:18.055263 18833 net.cpp:150] Setting up detection_accuracy_4_5x5
I0206 22:43:18.055270 18833 net.cpp:157] Top shape: 1 1 1 2 (2)
I0206 22:43:18.055274 18833 net.cpp:157] Top shape: 1 1 1 1 (1)
I0206 22:43:18.055277 18833 net.cpp:165] Memory required for data: 3183324072
I0206 22:43:18.055281 18833 layer_factory.hpp:77] Creating layer proposals
I0206 22:43:18.055289 18833 net.cpp:100] Creating Layer proposals
I0206 22:43:18.055292 18833 net.cpp:434] proposals <- LFCN_1_5x5_LFCN_1_5x5_0_split_2
I0206 22:43:18.055296 18833 net.cpp:434] proposals <- LFCN_1_7x7_LFCN_1_7x7_0_split_2
I0206 22:43:18.055300 18833 net.cpp:434] proposals <- LFCN_2_5x5_LFCN_2_5x5_0_split_2
I0206 22:43:18.055305 18833 net.cpp:434] proposals <- LFCN_2_7x7_LFCN_2_7x7_0_split_2
I0206 22:43:18.055308 18833 net.cpp:434] proposals <- LFCN_3_5x5_LFCN_3_5x5_0_split_2
I0206 22:43:18.055312 18833 net.cpp:434] proposals <- LFCN_3_7x7_LFCN_3_7x7_0_split_2
I0206 22:43:18.055316 18833 net.cpp:434] proposals <- LFCN_4_5x5_LFCN_4_5x5_0_split_2
I0206 22:43:18.055322 18833 net.cpp:408] proposals -> proposals
I0206 22:43:18.055346 18833 net.cpp:150] Setting up proposals
I0206 22:43:18.055353 18833 net.cpp:157] Top shape: 1 5 1 1 (5)
I0206 22:43:18.055356 18833 net.cpp:165] Memory required for data: 3183324092
I0206 22:43:18.055361 18833 layer_factory.hpp:77] Creating layer proposal_info
I0206 22:43:18.055367 18833 net.cpp:100] Creating Layer proposal_info
I0206 22:43:18.055371 18833 net.cpp:434] proposal_info <- proposals
I0206 22:43:18.055375 18833 net.cpp:434] proposal_info <- gt_boxes
I0206 22:43:18.055380 18833 net.cpp:408] proposal_info -> rois
I0206 22:43:18.055388 18833 net.cpp:408] proposal_info -> proposal_labels
I0206 22:43:18.055394 18833 net.cpp:408] proposal_info -> proposal_targets
I0206 22:43:18.055400 18833 net.cpp:408] proposal_info -> box_inside_weights
I0206 22:43:18.055407 18833 net.cpp:408] proposal_info -> box_outside_weights
I0206 22:43:18.055413 18833 net.cpp:408] proposal_info -> match_gt_boxes
I0206 22:43:18.055505 18833 net.cpp:150] Setting up proposal_info
I0206 22:43:18.055512 18833 net.cpp:157] Top shape: 128 5 1 1 (640)
I0206 22:43:18.055517 18833 net.cpp:157] Top shape: 128 1 1 1 (128)
I0206 22:43:18.055521 18833 net.cpp:157] Top shape: 128 20 1 1 (2560)
I0206 22:43:18.055526 18833 net.cpp:157] Top shape: 128 20 1 1 (2560)
I0206 22:43:18.055529 18833 net.cpp:157] Top shape: 128 20 1 1 (2560)
I0206 22:43:18.055533 18833 net.cpp:157] Top shape: 128 6 1 1 (768)
I0206 22:43:18.055536 18833 net.cpp:165] Memory required for data: 3183360956
I0206 22:43:18.055541 18833 layer_factory.hpp:77] Creating layer rois_proposal_info_0_split
I0206 22:43:18.055544 18833 net.cpp:100] Creating Layer rois_proposal_info_0_split
I0206 22:43:18.055548 18833 net.cpp:434] rois_proposal_info_0_split <- rois
I0206 22:43:18.055552 18833 net.cpp:408] rois_proposal_info_0_split -> rois_proposal_info_0_split_0
I0206 22:43:18.055558 18833 net.cpp:408] rois_proposal_info_0_split -> rois_proposal_info_0_split_1
I0206 22:43:18.055564 18833 net.cpp:408] rois_proposal_info_0_split -> rois_proposal_info_0_split_2
I0206 22:43:18.055618 18833 net.cpp:150] Setting up rois_proposal_info_0_split
I0206 22:43:18.055624 18833 net.cpp:157] Top shape: 128 5 1 1 (640)
I0206 22:43:18.055629 18833 net.cpp:157] Top shape: 128 5 1 1 (640)
I0206 22:43:18.055632 18833 net.cpp:157] Top shape: 128 5 1 1 (640)
I0206 22:43:18.055635 18833 net.cpp:165] Memory required for data: 3183368636
I0206 22:43:18.055639 18833 layer_factory.hpp:77] Creating layer proposal_labels_proposal_info_1_split
I0206 22:43:18.055642 18833 net.cpp:100] Creating Layer proposal_labels_proposal_info_1_split
I0206 22:43:18.055646 18833 net.cpp:434] proposal_labels_proposal_info_1_split <- proposal_labels
I0206 22:43:18.055650 18833 net.cpp:408] proposal_labels_proposal_info_1_split -> proposal_labels_proposal_info_1_split_0
I0206 22:43:18.055656 18833 net.cpp:408] proposal_labels_proposal_info_1_split -> proposal_labels_proposal_info_1_split_1
I0206 22:43:18.055691 18833 net.cpp:150] Setting up proposal_labels_proposal_info_1_split
I0206 22:43:18.055696 18833 net.cpp:157] Top shape: 128 1 1 1 (128)
I0206 22:43:18.055701 18833 net.cpp:157] Top shape: 128 1 1 1 (128)
I0206 22:43:18.055704 18833 net.cpp:165] Memory required for data: 3183369660
I0206 22:43:18.055707 18833 layer_factory.hpp:77] Creating layer conv4_3_2x
I0206 22:43:18.055716 18833 net.cpp:100] Creating Layer conv4_3_2x
I0206 22:43:18.055719 18833 net.cpp:434] conv4_3_2x <- conv4_3_relu4_3_0_split_2
I0206 22:43:18.055724 18833 net.cpp:408] conv4_3_2x -> conv4_3_2x
I0206 22:43:18.056111 18833 net.cpp:150] Setting up conv4_3_2x
I0206 22:43:18.056119 18833 net.cpp:157] Top shape: 2 512 192 192 (37748736)
I0206 22:43:18.056123 18833 net.cpp:165] Memory required for data: 3334364604
I0206 22:43:18.056128 18833 layer_factory.hpp:77] Creating layer conv4_3_2x_conv4_3_2x_0_split
I0206 22:43:18.056131 18833 net.cpp:100] Creating Layer conv4_3_2x_conv4_3_2x_0_split
I0206 22:43:18.056135 18833 net.cpp:434] conv4_3_2x_conv4_3_2x_0_split <- conv4_3_2x
I0206 22:43:18.056140 18833 net.cpp:408] conv4_3_2x_conv4_3_2x_0_split -> conv4_3_2x_conv4_3_2x_0_split_0
I0206 22:43:18.056145 18833 net.cpp:408] conv4_3_2x_conv4_3_2x_0_split -> conv4_3_2x_conv4_3_2x_0_split_1
I0206 22:43:18.056185 18833 net.cpp:150] Setting up conv4_3_2x_conv4_3_2x_0_split
I0206 22:43:18.056190 18833 net.cpp:157] Top shape: 2 512 192 192 (37748736)
I0206 22:43:18.056195 18833 net.cpp:157] Top shape: 2 512 192 192 (37748736)
I0206 22:43:18.056198 18833 net.cpp:165] Memory required for data: 3636354492
I0206 22:43:18.056201 18833 layer_factory.hpp:77] Creating layer roi_pool_org
I0206 22:43:18.056207 18833 net.cpp:100] Creating Layer roi_pool_org
I0206 22:43:18.056210 18833 net.cpp:434] roi_pool_org <- conv4_3_2x_conv4_3_2x_0_split_0
I0206 22:43:18.056215 18833 net.cpp:434] roi_pool_org <- rois_proposal_info_0_split_0
I0206 22:43:18.056221 18833 net.cpp:408] roi_pool_org -> roi_pool_org
I0206 22:43:18.056226 18833 roi_pooling_layer.cpp:33] Spatial scale: 0.25
I0206 22:43:18.056263 18833 net.cpp:150] Setting up roi_pool_org
I0206 22:43:18.056269 18833 net.cpp:157] Top shape: 128 512 7 7 (3211264)
I0206 22:43:18.056273 18833 net.cpp:165] Memory required for data: 3649199548
I0206 22:43:18.056277 18833 layer_factory.hpp:77] Creating layer roi_pool_ctx
I0206 22:43:18.056282 18833 net.cpp:100] Creating Layer roi_pool_ctx
I0206 22:43:18.056287 18833 net.cpp:434] roi_pool_ctx <- conv4_3_2x_conv4_3_2x_0_split_1
I0206 22:43:18.056290 18833 net.cpp:434] roi_pool_ctx <- rois_proposal_info_0_split_1
I0206 22:43:18.056295 18833 net.cpp:408] roi_pool_ctx -> roi_pool_ctx
I0206 22:43:18.056301 18833 roi_pooling_layer.cpp:33] Spatial scale: 0.25
I0206 22:43:18.056336 18833 net.cpp:150] Setting up roi_pool_ctx
I0206 22:43:18.056342 18833 net.cpp:157] Top shape: 128 512 7 7 (3211264)
I0206 22:43:18.056345 18833 net.cpp:165] Memory required for data: 3662044604
I0206 22:43:18.056349 18833 layer_factory.hpp:77] Creating layer roi_pool
I0206 22:43:18.056354 18833 net.cpp:100] Creating Layer roi_pool
I0206 22:43:18.056358 18833 net.cpp:434] roi_pool <- roi_pool_org
I0206 22:43:18.056362 18833 net.cpp:434] roi_pool <- roi_pool_ctx
I0206 22:43:18.056367 18833 net.cpp:408] roi_pool -> roi_pool
I0206 22:43:18.056391 18833 net.cpp:150] Setting up roi_pool
I0206 22:43:18.056396 18833 net.cpp:157] Top shape: 128 1024 7 7 (6422528)
I0206 22:43:18.056399 18833 net.cpp:165] Memory required for data: 3687734716
I0206 22:43:18.056403 18833 layer_factory.hpp:77] Creating layer roi_c1
I0206 22:43:18.056411 18833 net.cpp:100] Creating Layer roi_c1
I0206 22:43:18.056414 18833 net.cpp:434] roi_c1 <- roi_pool
I0206 22:43:18.056421 18833 net.cpp:408] roi_c1 -> roi_c1
I0206 22:43:18.169045 18833 net.cpp:150] Setting up roi_c1
I0206 22:43:18.169072 18833 net.cpp:157] Top shape: 128 512 5 5 (1638400)
I0206 22:43:18.169077 18833 net.cpp:165] Memory required for data: 3694288316
I0206 22:43:18.169085 18833 layer_factory.hpp:77] Creating layer roi_c1_relu
I0206 22:43:18.169096 18833 net.cpp:100] Creating Layer roi_c1_relu
I0206 22:43:18.169102 18833 net.cpp:434] roi_c1_relu <- roi_c1
I0206 22:43:18.169108 18833 net.cpp:395] roi_c1_relu -> roi_c1 (in-place)
I0206 22:43:18.169275 18833 net.cpp:150] Setting up roi_c1_relu
I0206 22:43:18.169284 18833 net.cpp:157] Top shape: 128 512 5 5 (1638400)
I0206 22:43:18.169288 18833 net.cpp:165] Memory required for data: 3700841916
I0206 22:43:18.169291 18833 layer_factory.hpp:77] Creating layer fc6
I0206 22:43:18.169298 18833 net.cpp:100] Creating Layer fc6
I0206 22:43:18.169302 18833 net.cpp:434] fc6 <- roi_c1
I0206 22:43:18.169309 18833 net.cpp:408] fc6 -> fc6
I0206 22:43:19.387958 18833 net.cpp:150] Setting up fc6
I0206 22:43:19.387992 18833 net.cpp:157] Top shape: 128 4096 (524288)
I0206 22:43:19.387996 18833 net.cpp:165] Memory required for data: 3702939068
I0206 22:43:19.388005 18833 layer_factory.hpp:77] Creating layer relu6
I0206 22:43:19.388015 18833 net.cpp:100] Creating Layer relu6
I0206 22:43:19.388023 18833 net.cpp:434] relu6 <- fc6
I0206 22:43:19.388029 18833 net.cpp:395] relu6 -> fc6 (in-place)
I0206 22:43:19.388262 18833 net.cpp:150] Setting up relu6
I0206 22:43:19.388273 18833 net.cpp:157] Top shape: 128 4096 (524288)
I0206 22:43:19.388276 18833 net.cpp:165] Memory required for data: 3705036220
I0206 22:43:19.388279 18833 layer_factory.hpp:77] Creating layer drop6
I0206 22:43:19.388286 18833 net.cpp:100] Creating Layer drop6
I0206 22:43:19.388289 18833 net.cpp:434] drop6 <- fc6
I0206 22:43:19.388296 18833 net.cpp:395] drop6 -> fc6 (in-place)
I0206 22:43:19.388319 18833 net.cpp:150] Setting up drop6
I0206 22:43:19.388324 18833 net.cpp:157] Top shape: 128 4096 (524288)
I0206 22:43:19.388327 18833 net.cpp:165] Memory required for data: 3707133372
I0206 22:43:19.388330 18833 layer_factory.hpp:77] Creating layer fc6_drop6_0_split
I0206 22:43:19.388336 18833 net.cpp:100] Creating Layer fc6_drop6_0_split
I0206 22:43:19.388340 18833 net.cpp:434] fc6_drop6_0_split <- fc6
I0206 22:43:19.388345 18833 net.cpp:408] fc6_drop6_0_split -> fc6_drop6_0_split_0
I0206 22:43:19.388352 18833 net.cpp:408] fc6_drop6_0_split -> fc6_drop6_0_split_1
I0206 22:43:19.388391 18833 net.cpp:150] Setting up fc6_drop6_0_split
I0206 22:43:19.388398 18833 net.cpp:157] Top shape: 128 4096 (524288)
I0206 22:43:19.388401 18833 net.cpp:157] Top shape: 128 4096 (524288)
I0206 22:43:19.388404 18833 net.cpp:165] Memory required for data: 3711327676
I0206 22:43:19.388407 18833 layer_factory.hpp:77] Creating layer cls_pred
I0206 22:43:19.388415 18833 net.cpp:100] Creating Layer cls_pred
I0206 22:43:19.388419 18833 net.cpp:434] cls_pred <- fc6_drop6_0_split_0
I0206 22:43:19.388425 18833 net.cpp:408] cls_pred -> cls_pred
I0206 22:43:19.389073 18833 net.cpp:150] Setting up cls_pred
I0206 22:43:19.389081 18833 net.cpp:157] Top shape: 128 5 (640)
I0206 22:43:19.389086 18833 net.cpp:165] Memory required for data: 3711330236
I0206 22:43:19.389091 18833 layer_factory.hpp:77] Creating layer cls_pred_cls_pred_0_split
I0206 22:43:19.389096 18833 net.cpp:100] Creating Layer cls_pred_cls_pred_0_split
I0206 22:43:19.389099 18833 net.cpp:434] cls_pred_cls_pred_0_split <- cls_pred
I0206 22:43:19.389106 18833 net.cpp:408] cls_pred_cls_pred_0_split -> cls_pred_cls_pred_0_split_0
I0206 22:43:19.389111 18833 net.cpp:408] cls_pred_cls_pred_0_split -> cls_pred_cls_pred_0_split_1
I0206 22:43:19.389143 18833 net.cpp:150] Setting up cls_pred_cls_pred_0_split
I0206 22:43:19.389148 18833 net.cpp:157] Top shape: 128 5 (640)
I0206 22:43:19.389153 18833 net.cpp:157] Top shape: 128 5 (640)
I0206 22:43:19.389155 18833 net.cpp:165] Memory required for data: 3711335356
I0206 22:43:19.389158 18833 layer_factory.hpp:77] Creating layer bbox_pred
I0206 22:43:19.389164 18833 net.cpp:100] Creating Layer bbox_pred
I0206 22:43:19.389168 18833 net.cpp:434] bbox_pred <- fc6_drop6_0_split_1
I0206 22:43:19.389173 18833 net.cpp:408] bbox_pred -> bbox_pred
I0206 22:43:19.391363 18833 net.cpp:150] Setting up bbox_pred
I0206 22:43:19.391371 18833 net.cpp:157] Top shape: 128 20 (2560)
I0206 22:43:19.391373 18833 net.cpp:165] Memory required for data: 3711345596
I0206 22:43:19.391377 18833 layer_factory.hpp:77] Creating layer bbox_pred_bbox_pred_0_split
I0206 22:43:19.391381 18833 net.cpp:100] Creating Layer bbox_pred_bbox_pred_0_split
I0206 22:43:19.391384 18833 net.cpp:434] bbox_pred_bbox_pred_0_split <- bbox_pred
I0206 22:43:19.391387 18833 net.cpp:408] bbox_pred_bbox_pred_0_split -> bbox_pred_bbox_pred_0_split_0
I0206 22:43:19.391392 18833 net.cpp:408] bbox_pred_bbox_pred_0_split -> bbox_pred_bbox_pred_0_split_1
I0206 22:43:19.391420 18833 net.cpp:150] Setting up bbox_pred_bbox_pred_0_split
I0206 22:43:19.391425 18833 net.cpp:157] Top shape: 128 20 (2560)
I0206 22:43:19.391428 18833 net.cpp:157] Top shape: 128 20 (2560)
I0206 22:43:19.391430 18833 net.cpp:165] Memory required for data: 3711366076
I0206 22:43:19.391433 18833 layer_factory.hpp:77] Creating layer loss_cls
I0206 22:43:19.391438 18833 net.cpp:100] Creating Layer loss_cls
I0206 22:43:19.391440 18833 net.cpp:434] loss_cls <- cls_pred_cls_pred_0_split_0
I0206 22:43:19.391445 18833 net.cpp:434] loss_cls <- proposal_labels_proposal_info_1_split_0
…
