…
    downsample_rate: 16
    downsample_rate: 32
    downsample_rate: 32
    downsample_rate: 64
    coord_num: 4
    field_h: 60
    field_h: 84
    field_h: 120
    field_h: 168
    field_h: 240
    field_h: 336
    field_h: 480
    field_w: 60
    field_w: 84
    field_w: 120
    field_w: 168
    field_w: 240
    field_w: 336
    field_w: 480
    fg_threshold: 0.5
    resize_width: 1344
    resize_height: 768
    crop_width: 768
    crop_height: 768
    do_multiple_scale: true
    min_scale: 60
    max_scale: 480
    min_gt_height: 25
    shuffle: true
  }
}
layer {
  name: "slice"
  type: "Slice"
  bottom: "data"
  top: "data123"
  top: "ch4"
  slice_param {
    slice_point: 3
    axis: 1
  }
}
layer {
  name: "conv1_1"
  type: "Convolution"
  bottom: "data123"
  top: "conv1_1"
  convolution_param {
    num_output: 64
    pad: 1
    kernel_size: 3
  }
}
layer {
  name: "relu1_1"
  type: "ReLU"
  bottom: "conv1_1"
  top: "conv1_1"
}
layer {
  name: "conv1_2"
  type: "Convolution"
  bottom: "conv1_1"
  top: "conv1_2"
  convolution_param {
    num_output: 64
    pad: 1
    kernel_size: 3
  }
}
layer {
  name: "relu1_2"
  type: "ReLU"
  bottom: "conv1_2"
  top: "conv1_2"
}
layer {
  name: "pool1"
  type: "Pooling"
  bottom: "conv1_2"
  top: "pool1"
  pooling_param {
    pool: MAX
    kernel_size: 2
    stride: 2
  }
}
layer {
  name: "ch4_pool1"
  type: "Pooling"
  bottom: "ch4"
  top: "ch4_pool1"
  pooling_param {
    pool: MAX
    kernel_size: 2
    stride: 2
  }
}
layer {
  name: "pool1_concat"
  type: "Concat"
  bottom: "pool1"
  bottom: "ch4_pool1"
  top: "pool1_new"
}
layer {
  name: "conv2_1_new"
  type: "Convolution"
  bottom: "pool1_new"
  top: "conv2_1"
  convolution_param {
    num_output: 128
    pad: 1
    kernel_size: 3
  }
}
layer {
  name: "relu2_1"
  type: "ReLU"
  bottom: "conv2_1"
  top: "conv2_1"
}
layer {
  name: "conv2_2"
  type: "Convolution"
  bottom: "conv2_1"
  top: "conv2_2"
  convolution_param {
    num_output: 128
    pad: 1
    kernel_size: 3
  }
}
layer {
  name: "relu2_2"
  type: "ReLU"
  bottom: "conv2_2"
  top: "conv2_2"
}
layer {
  name: "pool2"
  type: "Pooling"
  bottom: "conv2_2"
  top: "pool2"
  pooling_param {
    pool: MAX
    kernel_size: 2
    stride: 2
  }
}
layer {
  name: "ch4_pool2"
  type: "Pooling"
  bottom: "ch4_pool1"
  top: "ch4_pool2"
  pooling_param {
    pool: MAX
    kernel_size: 2
    stride: 2
  }
}
layer {
  name: "pool2_concat"
  type: "Concat"
  bottom: "pool2"
  bottom: "ch4_pool2"
  top: "pool2_new"
}
layer {
  name: "conv3_1_new"
  type: "Convolution"
  bottom: "pool2_new"
  top: "conv3_1"
  convolution_param {
    num_output: 256
    pad: 1
    kernel_size: 3
  }
}
layer {
  name: "relu3_1"
  type: "ReLU"
  bottom: "conv3_1"
  top: "conv3_1"
}
layer {
  name: "conv3_2"
  type: "Convolution"
  bottom: "conv3_1"
  top: "conv3_2"
  convolution_param {
    num_output: 256
    pad: 1
    kernel_size: 3
  }
}
layer {
  name: "relu3_2"
  type: "ReLU"
  bottom: "conv3_2"
  top: "conv3_2"
}
layer {
  name: "conv3_3"
  type: "Convolution"
  bottom: "conv3_2"
  top: "conv3_3"
  convolution_param {
    num_output: 256
    pad: 1
    kernel_size: 3
  }
}
layer {
  name: "relu3_3"
  type: "ReLU"
  bottom: "conv3_3"
  top: "conv3_3"
}
layer {
  name: "pool3"
  type: "Pooling"
  bottom: "conv3_3"
  top: "pool3"
  pooling_param {
    pool: MAX
    kernel_size: 2
    stride: 2
  }
}
layer {
  name: "ch4_pool3"
  type: "Pooling"
  bottom: "ch4_pool2"
  top: "ch4_pool3"
  pooling_param {
    pool: MAX
    kernel_size: 2
    stride: 2
  }
}
layer {
  name: "pool3_concat"
  type: "Concat"
  bottom: "pool3"
  bottom: "ch4_pool3"
  top: "pool3_new"
}
layer {
  name: "conv4_1_new"
  type: "Convolution"
  bottom: "pool3_new"
  top: "conv4_1"
  convolution_param {
    num_output: 512
    pad: 1
    kernel_size: 3
  }
}
layer {
  name: "relu4_1"
  type: "ReLU"
  bottom: "conv4_1"
  top: "conv4_1"
}
layer {
  name: "conv4_2"
  type: "Convolution"
  bottom: "conv4_1"
  top: "conv4_2"
  convolution_param {
    num_output: 512
    pad: 1
    kernel_size: 3
  }
}
layer {
  name: "relu4_2"
  type: "ReLU"
  bottom: "conv4_2"
  top: "conv4_2"
}
layer {
  name: "conv4_3"
  type: "Convolution"
  bottom: "conv4_2"
  top: "conv4_3"
  convolution_param {
    num_output: 512
    pad: 1
    kernel_size: 3
  }
}
layer {
  name: "relu4_3"
  type: "ReLU"
  bottom: "conv4_3"
  top: "conv4_3"
}
layer {
  name: "loss1_conv1"
  type: "Convolution"
  bottom: "conv4_3"
  top: "loss1_conv1"
  param {
    lr_mult: 1
    decay_mult: 1
  }
  param {
    lr_mult: 2
    decay_mult: 0
  }
  convolution_param {
    num_output: 512
    pad: 1
    kernel_size: 3
    weight_filler {
      type: "gaussian"
      std: 0.01
    }
    bias_filler {
      type: "constant"
    }
  }
}
layer {
  name: "loss_relu1"
  type: "ReLU"
  bottom: "loss1_conv1"
  top: "loss1_conv1"
}
layer {
  name: "LFCN_1_5x5"
  type: "Convolution"
  bottom: "loss1_conv1"
  top: "LFCN_1_5x5"
  param {
    lr_mult: 1
    decay_mult: 1
  }
  param {
    lr_mult: 2
    decay_mult: 0
  }
  convolution_param {
    num_output: 9
    pad: 2
    kernel_size: 5
    weight_filler {
      type: "gaussian"
      std: 0.001
    }
    bias_filler {
      type: "constant"
    }
  }
}
layer {
  name: "detection_loss_1_5x5"
  type: "DetectionLoss"
  bottom: "LFCN_1_5x5"
  bottom: "label_1_5x5"
  top: "loss_1_5x5"
  loss_weight: 0.9
  detection_loss_param {
    cls_num: 5
    coord_num: 4
    lambda: 0.05
    field_h: 60
    field_w: 60
    downsample_rate: 8
    bb_smooth: true
    field_whr: 2
    field_xyr: 2
    bg_threshold: 0.2
    bg_multiple: 2
    sample_mode: "random"
    pos_neg_weighted: true
  }
}
layer {
  name: "detection_accuracy_1_5x5"
  type: "DetectionAccuracy"
  bottom: "LFCN_1_5x5"
  bottom: "label_1_5x5"
  top: "accuracy_1_5x5"
  top: "boxiou_1_5x5"
  detection_accuracy_param {
    cls_num: 5
    coord_num: 4
    field_h: 60
    field_w: 60
    downsample_rate: 8
    field_whr: 2
    field_xyr: 2
  }
}
layer {
  name: "LFCN_1_7x7"
  type: "Convolution"
  bottom: "loss1_conv1"
  top: "LFCN_1_7x7"
  param {
    lr_mult: 1
    decay_mult: 1
  }
  param {
    lr_mult: 2
    decay_mult: 0
  }
  convolution_param {
    num_output: 9
    pad: 3
    kernel_size: 7
    weight_filler {
      type: "gaussian"
      std: 0.001
    }
    bias_filler {
      type: "constant"
    }
  }
}
layer {
  name: "detection_loss_1_7x7"
  type: "DetectionLoss"
  bottom: "LFCN_1_7x7"
  bottom: "label_1_7x7"
  top: "loss_1_7x7"
  loss_weight: 0.9
  detection_loss_param {
    cls_num: 5
    coord_num: 4
    lambda: 0.05
    field_h: 84
    field_w: 84
    downsample_rate: 8
    bb_smooth: true
    field_whr: 2
    field_xyr: 2
    bg_threshold: 0.2
    bg_multiple: 2
    sample_mode: "random"
    pos_neg_weighted: true
  }
}
layer {
  name: "detection_accuracy_1_7x7"
  type: "DetectionAccuracy"
  bottom: "LFCN_1_7x7"
  bottom: "label_1_7x7"
  top: "accuracy_1_7x7"
  top: "boxiou_1_7x7"
  detection_accuracy_param {
    cls_num: 5
    coord_num: 4
    field_h: 84
    field_w: 84
    downsample_rate: 8
    field_whr: 2
    field_xyr: 2
  }
}
layer {
  name: "pool4"
  type: "Pooling"
  bottom: "conv4_3"
  top: "pool4"
  pooling_param {
    pool: MAX
    kernel_size: 2
    stride: 2
  }
}
layer {
  name: "conv5_1"
  type: "Convolution"
  bottom: "pool4"
  top: "conv5_1"
  convolution_param {
    num_output: 512
    pad: 1
    kernel_size: 3
  }
}
layer {
  name: "relu5_1"
  type: "ReLU"
  bottom: "conv5_1"
  top: "conv5_1"
}
layer {
  name: "conv5_2"
  type: "Convolution"
  bottom: "conv5_1"
  top: "conv5_2"
  convolution_param {
    num_output: 512
    pad: 1
    kernel_size: 3
  }
}
layer {
  name: "relu5_2"
  type: "ReLU"
  bottom: "conv5_2"
  top: "conv5_2"
}
layer {
  name: "conv5_3"
  type: "Convolution"
  bottom: "conv5_2"
  top: "conv5_3"
  convolution_param {
    num_output: 512
    pad: 1
    kernel_size: 3
  }
}
layer {
  name: "relu5_3"
  type: "ReLU"
  bottom: "conv5_3"
  top: "conv5_3"
}
layer {
  name: "LFCN_2_5x5"
  type: "Convolution"
  bottom: "conv5_3"
  top: "LFCN_2_5x5"
  param {
    lr_mult: 1
    decay_mult: 1
  }
  param {
    lr_mult: 2
    decay_mult: 0
  }
  convolution_param {
    num_output: 9
    pad: 2
    kernel_size: 5
    weight_filler {
      type: "gaussian"
      std: 0.001
    }
    bias_filler {
      type: "constant"
    }
  }
}
layer {
  name: "detection_loss_2_5x5"
  type: "DetectionLoss"
  bottom: "LFCN_2_5x5"
  bottom: "label_2_5x5"
  top: "loss_2_5x5"
  detection_loss_param {
    cls_num: 5
    coord_num: 4
    lambda: 0.05
    field_h: 120
    field_w: 120
    downsample_rate: 16
    bb_smooth: true
    field_whr: 2
    field_xyr: 2
    bg_threshold: 0.2
    bg_multiple: 2
    sample_mode: "random"
    pos_neg_weighted: true
  }
}
layer {
  name: "detection_accuracy_2_5x5"
  type: "DetectionAccuracy"
  bottom: "LFCN_2_5x5"
  bottom: "label_2_5x5"
  top: "accuracy_2_5x5"
  top: "boxiou_2_5x5"
  detection_accuracy_param {
    cls_num: 5
    coord_num: 4
    field_h: 120
    field_w: 120
    downsample_rate: 16
    field_whr: 2
    field_xyr: 2
  }
}
layer {
  name: "LFCN_2_7x7"
  type: "Convolution"
  bottom: "conv5_3"
  top: "LFCN_2_7x7"
  param {
    lr_mult: 1
    decay_mult: 1
  }
  param {
    lr_mult: 2
    decay_mult: 0
  }
  convolution_param {
    num_output: 9
    pad: 3
    kernel_size: 7
    weight_filler {
      type: "gaussian"
      std: 0.001
    }
    bias_filler {
      type: "constant"
    }
  }
}
layer {
  name: "detection_loss_2_7x7"
  type: "DetectionLoss"
  bottom: "LFCN_2_7x7"
  bottom: "label_2_7x7"
  top: "loss_2_7x7"
  detection_loss_param {
    cls_num: 5
    coord_num: 4
    lambda: 0.05
    field_h: 168
    field_w: 168
    downsample_rate: 16
    bb_smooth: true
    field_whr: 2
    field_xyr: 2
    bg_threshold: 0.2
    bg_multiple: 2
    sample_mode: "random"
    pos_neg_weighted: true
  }
}
layer {
  name: "detection_accuracy_2_7x7"
  type: "DetectionAccuracy"
  bottom: "LFCN_2_7x7"
  bottom: "label_2_7x7"
  top: "accuracy_2_7x7"
  top: "boxiou_2_7x7"
  detection_accuracy_param {
    cls_num: 5
    coord_num: 4
    field_h: 168
    field_w: 168
    downsample_rate: 16
    field_whr: 2
    field_xyr: 2
  }
}
layer {
  name: "pool5"
  type: "Pooling"
  bottom: "conv5_3"
  top: "pool5"
  pooling_param {
    pool: MAX
    kernel_size: 2
    stride: 2
  }
}
layer {
  name: "conv6_1"
  type: "Convolution"
  bottom: "pool5"
  top: "conv6_1"
  param {
    lr_mult: 1
    decay_mult: 1
  }
  param {
    lr_mult: 2
    decay_mult: 0
  }
  convolution_param {
    num_output: 512
    pad: 1
    kernel_size: 3
    weight_filler {
      type: "gaussian"
      std: 0.01
    }
    bias_filler {
      type: "constant"
    }
  }
}
layer {
  name: "relu6_1"
  type: "ReLU"
  bottom: "conv6_1"
  top: "conv6_1"
}
layer {
  name: "LFCN_3_5x5"
  type: "Convolution"
  bottom: "conv6_1"
  top: "LFCN_3_5x5"
  param {
    lr_mult: 1
    decay_mult: 1
  }
  param {
    lr_mult: 2
    decay_mult: 0
  }
  convolution_param {
    num_output: 9
    pad: 2
    kernel_size: 5
    weight_filler {
      type: "gaussian"
      std: 0.001
    }
    bias_filler {
      type: "constant"
    }
  }
}
layer {
  name: "detection_loss_3_5x5"
  type: "DetectionLoss"
  bottom: "LFCN_3_5x5"
  bottom: "label_3_5x5"
  top: "loss_3_5x5"
  detection_loss_param {
    cls_num: 5
    coord_num: 4
    lambda: 0.05
    field_h: 240
    field_w: 240
    downsample_rate: 32
    bb_smooth: true
    field_whr: 2
    field_xyr: 2
    bg_threshold: 0.2
    bg_multiple: 2
    sample_mode: "random"
    pos_neg_weighted: true
  }
}
layer {
  name: "detection_accuracy_3_5x5"
  type: "DetectionAccuracy"
  bottom: "LFCN_3_5x5"
  bottom: "label_3_5x5"
  top: "accuracy_3_5x5"
  top: "boxiou_3_5x5"
  detection_accuracy_param {
    cls_num: 5
    coord_num: 4
    field_h: 240
    field_w: 240
    downsample_rate: 32
    field_whr: 2
    field_xyr: 2
  }
}
layer {
  name: "LFCN_3_7x7"
  type: "Convolution"
  bottom: "conv6_1"
  top: "LFCN_3_7x7"
  param {
    lr_mult: 1
    decay_mult: 1
  }
  param {
    lr_mult: 2
    decay_mult: 0
  }
  convolution_param {
    num_output: 9
    pad: 3
    kernel_size: 7
    weight_filler {
      type: "gaussian"
      std: 0.001
    }
    bias_filler {
      type: "constant"
    }
  }
}
layer {
  name: "detection_loss_3_7x7"
  type: "DetectionLoss"
  bottom: "LFCN_3_7x7"
  bottom: "label_3_7x7"
  top: "loss_3_7x7"
  detection_loss_param {
    cls_num: 5
    coord_num: 4
    lambda: 0.05
    field_h: 336
    field_w: 336
    downsample_rate: 32
    bb_smooth: true
    field_whr: 2
    field_xyr: 2
    bg_threshold: 0.2
    bg_multiple: 2
    sample_mode: "random"
    pos_neg_weighted: true
  }
}
layer {
  name: "detection_accuracy_3_7x7"
  type: "DetectionAccuracy"
  bottom: "LFCN_3_7x7"
  bottom: "label_3_7x7"
  top: "accuracy_3_7x7"
  top: "boxiou_3_7x7"
  detection_accuracy_param {
    cls_num: 5
    coord_num: 4
    field_h: 336
    field_w: 336
    downsample_rate: 32
    field_whr: 2
    field_xyr: 2
  }
}
layer {
  name: "pool6"
  type: "Pooling"
  bottom: "conv6_1"
  top: "pool6"
  pooling_param {
    pool: MAX
    kernel_size: 2
    stride: 2
  }
}
layer {
  name: "LFCN_4_5x5"
  type: "Convolution"
  bottom: "pool6"
  top: "LFCN_4_5x5"
  param {
    lr_mult: 1
    decay_mult: 1
  }
  param {
    lr_mult: 2
    decay_mult: 0
  }
  convolution_param {
    num_output: 9
    pad: 2
    kernel_size: 5
    weight_filler {
      type: "gaussian"
      std: 0.001
    }
    bias_filler {
      type: "constant"
    }
  }
}
layer {
  name: "detection_loss_4_5x5"
  type: "DetectionLoss"
  bottom: "LFCN_4_5x5"
  bottom: "label_4_5x5"
  top: "loss_4_5x5"
  detection_loss_param {
    cls_num: 5
    coord_num: 4
    lambda: 0.05
    field_h: 480
    field_w: 480
    downsample_rate: 64
    bb_smooth: true
    field_whr: 2
    field_xyr: 2
    bg_threshold: 0.2
    bg_multiple: 2
    sample_mode: "random"
    pos_neg_weighted: true
  }
}
layer {
  name: "detection_accuracy_4_5x5"
  type: "DetectionAccuracy"
  bottom: "LFCN_4_5x5"
  bottom: "label_4_5x5"
  top: "accuracy_4_5x5"
  top: "boxiou_4_5x5"
  detection_accuracy_param {
    cls_num: 5
    coord_num: 4
    field_h: 480
    field_w: 480
    downsample_rate: 64
    field_whr: 2
    field_xyr: 2
  }
}
I0206 20:11:12.252564 15043 layer_factory.hpp:77] Creating layer data
I0206 20:11:12.258175 15043 net.cpp:100] Creating Layer data
I0206 20:11:12.258208 15043 net.cpp:408] data -> data
…
I0206 20:11:12.350646 15043 image_gt_data_layer.cpp:235] output label size 1 : 4,6,96,96
I0206 20:11:12.350699 15043 image_gt_data_layer.cpp:235] output label size 2 : 4,6,48,48
I0206 20:11:12.350750 15043 image_gt_data_layer.cpp:235] output label size 3 : 4,6,48,48
I0206 20:11:12.350914 15043 image_gt_data_layer.cpp:235] output label size 4 : 4,6,24,24
I0206 20:11:12.351013 15043 image_gt_data_layer.cpp:235] output label size 5 : 4,6,24,24
I0206 20:11:12.351083 15043 image_gt_data_layer.cpp:235] output label size 6 : 4,6,12,12
I0206 20:11:12.425076 15043 net.cpp:150] Setting up data
I0206 20:11:12.425113 15043 net.cpp:157] Top shape: 4 4 768 768 (9437184)
I0206 20:11:12.425122 15043 net.cpp:157] Top shape: 4 6 96 96 (221184)
I0206 20:11:12.425127 15043 net.cpp:157] Top shape: 4 6 96 96 (221184)
I0206 20:11:12.425133 15043 net.cpp:157] Top shape: 4 6 48 48 (55296)
I0206 20:11:12.425142 15043 net.cpp:157] Top shape: 4 6 48 48 (55296)
I0206 20:11:12.425148 15043 net.cpp:157] Top shape: 4 6 24 24 (13824)
I0206 20:11:12.425156 15043 net.cpp:157] Top shape: 4 6 24 24 (13824)
I0206 20:11:12.425163 15043 net.cpp:157] Top shape: 4 6 12 12 (3456)
I0206 20:11:12.425168 15043 net.cpp:165] Memory required for data: 40084992
I0206 20:11:12.425180 15043 layer_factory.hpp:77] Creating layer label_1_5x5_data_1_split
I0206 20:11:12.425454 15043 net.cpp:100] Creating Layer label_1_5x5_data_1_split
I0206 20:11:12.425465 15043 net.cpp:434] label_1_5x5_data_1_split <- label_1_5x5
I0206 20:11:12.425480 15043 net.cpp:408] label_1_5x5_data_1_split -> label_1_5x5_data_1_split_0
I0206 20:11:12.425494 15043 net.cpp:408] label_1_5x5_data_1_split -> label_1_5x5_data_1_split_1
I0206 20:11:12.425547 15043 net.cpp:150] Setting up label_1_5x5_data_1_split
I0206 20:11:12.425557 15043 net.cpp:157] Top shape: 4 6 96 96 (221184)
I0206 20:11:12.425563 15043 net.cpp:157] Top shape: 4 6 96 96 (221184)
I0206 20:11:12.425567 15043 net.cpp:165] Memory required for data: 41854464
I0206 20:11:12.425572 15043 layer_factory.hpp:77] Creating layer label_1_7x7_data_2_split
I0206 20:11:12.425580 15043 net.cpp:100] Creating Layer label_1_7x7_data_2_split
I0206 20:11:12.425586 15043 net.cpp:434] label_1_7x7_data_2_split <- label_1_7x7
I0206 20:11:12.425593 15043 net.cpp:408] label_1_7x7_data_2_split -> label_1_7x7_data_2_split_0
I0206 20:11:12.425601 15043 net.cpp:408] label_1_7x7_data_2_split -> label_1_7x7_data_2_split_1
I0206 20:11:12.425634 15043 net.cpp:150] Setting up label_1_7x7_data_2_split
I0206 20:11:12.425642 15043 net.cpp:157] Top shape: 4 6 96 96 (221184)
I0206 20:11:12.425649 15043 net.cpp:157] Top shape: 4 6 96 96 (221184)
I0206 20:11:12.425653 15043 net.cpp:165] Memory required for data: 43623936
I0206 20:11:12.425657 15043 layer_factory.hpp:77] Creating layer label_2_5x5_data_3_split
I0206 20:11:12.425663 15043 net.cpp:100] Creating Layer label_2_5x5_data_3_split
I0206 20:11:12.425668 15043 net.cpp:434] label_2_5x5_data_3_split <- label_2_5x5
I0206 20:11:12.425675 15043 net.cpp:408] label_2_5x5_data_3_split -> label_2_5x5_data_3_split_0
I0206 20:11:12.425684 15043 net.cpp:408] label_2_5x5_data_3_split -> label_2_5x5_data_3_split_1
I0206 20:11:12.425715 15043 net.cpp:150] Setting up label_2_5x5_data_3_split
I0206 20:11:12.425724 15043 net.cpp:157] Top shape: 4 6 48 48 (55296)
I0206 20:11:12.425730 15043 net.cpp:157] Top shape: 4 6 48 48 (55296)
I0206 20:11:12.425734 15043 net.cpp:165] Memory required for data: 44066304
I0206 20:11:12.425740 15043 layer_factory.hpp:77] Creating layer label_2_7x7_data_4_split
I0206 20:11:12.425746 15043 net.cpp:100] Creating Layer label_2_7x7_data_4_split
I0206 20:11:12.425752 15043 net.cpp:434] label_2_7x7_data_4_split <- label_2_7x7
I0206 20:11:12.425760 15043 net.cpp:408] label_2_7x7_data_4_split -> label_2_7x7_data_4_split_0
I0206 20:11:12.425768 15043 net.cpp:408] label_2_7x7_data_4_split -> label_2_7x7_data_4_split_1
I0206 20:11:12.425801 15043 net.cpp:150] Setting up label_2_7x7_data_4_split
I0206 20:11:12.425809 15043 net.cpp:157] Top shape: 4 6 48 48 (55296)
I0206 20:11:12.425815 15043 net.cpp:157] Top shape: 4 6 48 48 (55296)
I0206 20:11:12.425820 15043 net.cpp:165] Memory required for data: 44508672
I0206 20:11:12.425824 15043 layer_factory.hpp:77] Creating layer label_3_5x5_data_5_split
I0206 20:11:12.425832 15043 net.cpp:100] Creating Layer label_3_5x5_data_5_split
I0206 20:11:12.425840 15043 net.cpp:434] label_3_5x5_data_5_split <- label_3_5x5
I0206 20:11:12.425848 15043 net.cpp:408] label_3_5x5_data_5_split -> label_3_5x5_data_5_split_0
I0206 20:11:12.425858 15043 net.cpp:408] label_3_5x5_data_5_split -> label_3_5x5_data_5_split_1
I0206 20:11:12.425894 15043 net.cpp:150] Setting up label_3_5x5_data_5_split
I0206 20:11:12.425904 15043 net.cpp:157] Top shape: 4 6 24 24 (13824)
I0206 20:11:12.425909 15043 net.cpp:157] Top shape: 4 6 24 24 (13824)
I0206 20:11:12.425914 15043 net.cpp:165] Memory required for data: 44619264
I0206 20:11:12.425918 15043 layer_factory.hpp:77] Creating layer label_3_7x7_data_6_split
I0206 20:11:12.425925 15043 net.cpp:100] Creating Layer label_3_7x7_data_6_split
I0206 20:11:12.425930 15043 net.cpp:434] label_3_7x7_data_6_split <- label_3_7x7
I0206 20:11:12.425938 15043 net.cpp:408] label_3_7x7_data_6_split -> label_3_7x7_data_6_split_0
I0206 20:11:12.425948 15043 net.cpp:408] label_3_7x7_data_6_split -> label_3_7x7_data_6_split_1
I0206 20:11:12.425981 15043 net.cpp:150] Setting up label_3_7x7_data_6_split
I0206 20:11:12.425990 15043 net.cpp:157] Top shape: 4 6 24 24 (13824)
I0206 20:11:12.425997 15043 net.cpp:157] Top shape: 4 6 24 24 (13824)
I0206 20:11:12.426000 15043 net.cpp:165] Memory required for data: 44729856
I0206 20:11:12.426004 15043 layer_factory.hpp:77] Creating layer label_4_5x5_data_7_split
I0206 20:11:12.426012 15043 net.cpp:100] Creating Layer label_4_5x5_data_7_split
I0206 20:11:12.426019 15043 net.cpp:434] label_4_5x5_data_7_split <- label_4_5x5
I0206 20:11:12.426025 15043 net.cpp:408] label_4_5x5_data_7_split -> label_4_5x5_data_7_split_0
I0206 20:11:12.426038 15043 net.cpp:408] label_4_5x5_data_7_split -> label_4_5x5_data_7_split_1
I0206 20:11:12.426071 15043 net.cpp:150] Setting up label_4_5x5_data_7_split
I0206 20:11:12.426080 15043 net.cpp:157] Top shape: 4 6 12 12 (3456)
I0206 20:11:12.426086 15043 net.cpp:157] Top shape: 4 6 12 12 (3456)
I0206 20:11:12.426090 15043 net.cpp:165] Memory required for data: 44757504
I0206 20:11:12.426095 15043 layer_factory.hpp:77] Creating layer slice
I0206 20:11:12.426427 15043 net.cpp:100] Creating Layer slice
I0206 20:11:12.426435 15043 net.cpp:434] slice <- data
I0206 20:11:12.426442 15043 net.cpp:408] slice -> data123
I0206 20:11:12.426453 15043 net.cpp:408] slice -> ch4
I0206 20:11:12.426494 15043 net.cpp:150] Setting up slice
I0206 20:11:12.426503 15043 net.cpp:157] Top shape: 4 3 768 768 (7077888)
I0206 20:11:12.426509 15043 net.cpp:157] Top shape: 4 1 768 768 (2359296)
I0206 20:11:12.426513 15043 net.cpp:165] Memory required for data: 82506240
I0206 20:11:12.426518 15043 layer_factory.hpp:77] Creating layer conv1_1
I0206 20:11:12.426534 15043 net.cpp:100] Creating Layer conv1_1
I0206 20:11:12.426540 15043 net.cpp:434] conv1_1 <- data123
I0206 20:11:12.426553 15043 net.cpp:408] conv1_1 -> conv1_1
I0206 20:11:12.828737 15043 net.cpp:150] Setting up conv1_1
I0206 20:11:12.828778 15043 net.cpp:157] Top shape: 4 64 768 768 (150994944)
I0206 20:11:12.828784 15043 net.cpp:165] Memory required for data: 686486016
I0206 20:11:12.828810 15043 layer_factory.hpp:77] Creating layer relu1_1
I0206 20:11:12.828826 15043 net.cpp:100] Creating Layer relu1_1
I0206 20:11:12.828835 15043 net.cpp:434] relu1_1 <- conv1_1
I0206 20:11:12.828843 15043 net.cpp:395] relu1_1 -> conv1_1 (in-place)
I0206 20:11:12.829166 15043 net.cpp:150] Setting up relu1_1
I0206 20:11:12.829180 15043 net.cpp:157] Top shape: 4 64 768 768 (150994944)
I0206 20:11:12.829185 15043 net.cpp:165] Memory required for data: 1290465792
I0206 20:11:12.829188 15043 layer_factory.hpp:77] Creating layer conv1_2
I0206 20:11:12.829201 15043 net.cpp:100] Creating Layer conv1_2
I0206 20:11:12.829205 15043 net.cpp:434] conv1_2 <- conv1_1
I0206 20:11:12.829213 15043 net.cpp:408] conv1_2 -> conv1_2
I0206 20:11:12.832139 15043 net.cpp:150] Setting up conv1_2
I0206 20:11:12.832165 15043 net.cpp:157] Top shape: 4 64 768 768 (150994944)
I0206 20:11:12.832170 15043 net.cpp:165] Memory required for data: 1894445568
I0206 20:11:12.832185 15043 layer_factory.hpp:77] Creating layer relu1_2
I0206 20:11:12.832197 15043 net.cpp:100] Creating Layer relu1_2
I0206 20:11:12.832203 15043 net.cpp:434] relu1_2 <- conv1_2
I0206 20:11:12.832211 15043 net.cpp:395] relu1_2 -> conv1_2 (in-place)
I0206 20:11:12.832448 15043 net.cpp:150] Setting up relu1_2
I0206 20:11:12.832460 15043 net.cpp:157] Top shape: 4 64 768 768 (150994944)
I0206 20:11:12.832465 15043 net.cpp:165] Memory required for data: 2498425344
I0206 20:11:12.832470 15043 layer_factory.hpp:77] Creating layer pool1
I0206 20:11:12.832480 15043 net.cpp:100] Creating Layer pool1
I0206 20:11:12.832485 15043 net.cpp:434] pool1 <- conv1_2
I0206 20:11:12.832494 15043 net.cpp:408] pool1 -> pool1
I0206 20:11:12.832777 15043 net.cpp:150] Setting up pool1
I0206 20:11:12.832798 15043 net.cpp:157] Top shape: 4 64 384 384 (37748736)
I0206 20:11:12.832806 15043 net.cpp:165] Memory required for data: 2649420288
I0206 20:11:12.832814 15043 layer_factory.hpp:77] Creating layer ch4_pool1
I0206 20:11:12.832826 15043 net.cpp:100] Creating Layer ch4_pool1
I0206 20:11:12.832836 15043 net.cpp:434] ch4_pool1 <- ch4
I0206 20:11:12.832846 15043 net.cpp:408] ch4_pool1 -> ch4_pool1
I0206 20:11:12.832924 15043 net.cpp:150] Setting up ch4_pool1
I0206 20:11:12.832937 15043 net.cpp:157] Top shape: 4 1 384 384 (589824)
I0206 20:11:12.832942 15043 net.cpp:165] Memory required for data: 2651779584
I0206 20:11:12.832948 15043 layer_factory.hpp:77] Creating layer ch4_pool1_ch4_pool1_0_split
I0206 20:11:12.832957 15043 net.cpp:100] Creating Layer ch4_pool1_ch4_pool1_0_split
I0206 20:11:12.832965 15043 net.cpp:434] ch4_pool1_ch4_pool1_0_split <- ch4_pool1
I0206 20:11:12.832973 15043 net.cpp:408] ch4_pool1_ch4_pool1_0_split -> ch4_pool1_ch4_pool1_0_split_0
I0206 20:11:12.832983 15043 net.cpp:408] ch4_pool1_ch4_pool1_0_split -> ch4_pool1_ch4_pool1_0_split_1
I0206 20:11:12.833027 15043 net.cpp:150] Setting up ch4_pool1_ch4_pool1_0_split
I0206 20:11:12.833039 15043 net.cpp:157] Top shape: 4 1 384 384 (589824)
I0206 20:11:12.833045 15043 net.cpp:157] Top shape: 4 1 384 384 (589824)
I0206 20:11:12.833050 15043 net.cpp:165] Memory required for data: 2656498176
I0206 20:11:12.833056 15043 layer_factory.hpp:77] Creating layer pool1_concat
I0206 20:11:12.833067 15043 net.cpp:100] Creating Layer pool1_concat
I0206 20:11:12.833073 15043 net.cpp:434] pool1_concat <- pool1
I0206 20:11:12.833081 15043 net.cpp:434] pool1_concat <- ch4_pool1_ch4_pool1_0_split_0
I0206 20:11:12.833088 15043 net.cpp:408] pool1_concat -> pool1_new
I0206 20:11:12.833117 15043 net.cpp:150] Setting up pool1_concat
I0206 20:11:12.833127 15043 net.cpp:157] Top shape: 4 65 384 384 (38338560)
I0206 20:11:12.833132 15043 net.cpp:165] Memory required for data: 2809852416
I0206 20:11:12.833137 15043 layer_factory.hpp:77] Creating layer conv2_1_new
I0206 20:11:12.833148 15043 net.cpp:100] Creating Layer conv2_1_new
I0206 20:11:12.833154 15043 net.cpp:434] conv2_1_new <- pool1_new
I0206 20:11:12.833163 15043 net.cpp:408] conv2_1_new -> conv2_1
I0206 20:11:12.836843 15043 net.cpp:150] Setting up conv2_1_new
I0206 20:11:12.836863 15043 net.cpp:157] Top shape: 4 128 384 384 (75497472)
I0206 20:11:12.836869 15043 net.cpp:165] Memory required for data: 3111842304
I0206 20:11:12.836884 15043 layer_factory.hpp:77] Creating layer relu2_1
I0206 20:11:12.836894 15043 net.cpp:100] Creating Layer relu2_1
I0206 20:11:12.836907 15043 net.cpp:434] relu2_1 <- conv2_1
I0206 20:11:12.836915 15043 net.cpp:395] relu2_1 -> conv2_1 (in-place)
I0206 20:11:12.837218 15043 net.cpp:150] Setting up relu2_1
I0206 20:11:12.837235 15043 net.cpp:157] Top shape: 4 128 384 384 (75497472)
I0206 20:11:12.837241 15043 net.cpp:165] Memory required for data: 3413832192
I0206 20:11:12.837249 15043 layer_factory.hpp:77] Creating layer conv2_2
I0206 20:11:12.837262 15043 net.cpp:100] Creating Layer conv2_2
I0206 20:11:12.837271 15043 net.cpp:434] conv2_2 <- conv2_1
I0206 20:11:12.837282 15043 net.cpp:408] conv2_2 -> conv2_2
I0206 20:11:12.839763 15043 net.cpp:150] Setting up conv2_2
I0206 20:11:12.839785 15043 net.cpp:157] Top shape: 4 128 384 384 (75497472)
I0206 20:11:12.839792 15043 net.cpp:165] Memory required for data: 3715822080
I0206 20:11:12.839804 15043 layer_factory.hpp:77] Creating layer relu2_2
I0206 20:11:12.839815 15043 net.cpp:100] Creating Layer relu2_2
I0206 20:11:12.839823 15043 net.cpp:434] relu2_2 <- conv2_2
I0206 20:11:12.839833 15043 net.cpp:395] relu2_2 -> conv2_2 (in-place)
I0206 20:11:12.840121 15043 net.cpp:150] Setting up relu2_2
I0206 20:11:12.840134 15043 net.cpp:157] Top shape: 4 128 384 384 (75497472)
I0206 20:11:12.840139 15043 net.cpp:165] Memory required for data: 4017811968
I0206 20:11:12.840145 15043 layer_factory.hpp:77] Creating layer pool2
I0206 20:11:12.840155 15043 net.cpp:100] Creating Layer pool2
I0206 20:11:12.840162 15043 net.cpp:434] pool2 <- conv2_2
I0206 20:11:12.840169 15043 net.cpp:408] pool2 -> pool2
I0206 20:11:12.840224 15043 net.cpp:150] Setting up pool2
I0206 20:11:12.840234 15043 net.cpp:157] Top shape: 4 128 192 192 (18874368)
I0206 20:11:12.840239 15043 net.cpp:165] Memory required for data: 4093309440
I0206 20:11:12.840245 15043 layer_factory.hpp:77] Creating layer ch4_pool2
I0206 20:11:12.840252 15043 net.cpp:100] Creating Layer ch4_pool2
I0206 20:11:12.840257 15043 net.cpp:434] ch4_pool2 <- ch4_pool1_ch4_pool1_0_split_1
I0206 20:11:12.840268 15043 net.cpp:408] ch4_pool2 -> ch4_pool2
I0206 20:11:12.840315 15043 net.cpp:150] Setting up ch4_pool2
I0206 20:11:12.840327 15043 net.cpp:157] Top shape: 4 1 192 192 (147456)
I0206 20:11:12.840332 15043 net.cpp:165] Memory required for data: 4093899264
I0206 20:11:12.840337 15043 layer_factory.hpp:77] Creating layer ch4_pool2_ch4_pool2_0_split
I0206 20:11:12.840346 15043 net.cpp:100] Creating Layer ch4_pool2_ch4_pool2_0_split
I0206 20:11:12.840353 15043 net.cpp:434] ch4_pool2_ch4_pool2_0_split <- ch4_pool2
I0206 20:11:12.840361 15043 net.cpp:408] ch4_pool2_ch4_pool2_0_split -> ch4_pool2_ch4_pool2_0_split_0
I0206 20:11:12.840371 15043 net.cpp:408] ch4_pool2_ch4_pool2_0_split -> ch4_pool2_ch4_pool2_0_split_1
I0206 20:11:12.840428 15043 net.cpp:150] Setting up ch4_pool2_ch4_pool2_0_split
I0206 20:11:12.840440 15043 net.cpp:157] Top shape: 4 1 192 192 (147456)
I0206 20:11:12.840448 15043 net.cpp:157] Top shape: 4 1 192 192 (147456)
I0206 20:11:12.840454 15043 net.cpp:165] Memory required for data: 4095078912
I0206 20:11:12.840461 15043 layer_factory.hpp:77] Creating layer pool2_concat
I0206 20:11:12.840471 15043 net.cpp:100] Creating Layer pool2_concat
I0206 20:11:12.840479 15043 net.cpp:434] pool2_concat <- pool2
I0206 20:11:12.840487 15043 net.cpp:434] pool2_concat <- ch4_pool2_ch4_pool2_0_split_0
I0206 20:11:12.840495 15043 net.cpp:408] pool2_concat -> pool2_new
I0206 20:11:12.840529 15043 net.cpp:150] Setting up pool2_concat
I0206 20:11:12.840543 15043 net.cpp:157] Top shape: 4 129 192 192 (19021824)
I0206 20:11:12.840550 15043 net.cpp:165] Memory required for data: 4171166208
I0206 20:11:12.840556 15043 layer_factory.hpp:77] Creating layer conv3_1_new
I0206 20:11:12.840569 15043 net.cpp:100] Creating Layer conv3_1_new
I0206 20:11:12.840577 15043 net.cpp:434] conv3_1_new <- pool2_new
I0206 20:11:12.840586 15043 net.cpp:408] conv3_1_new -> conv3_1
I0206 20:11:12.848763 15043 net.cpp:150] Setting up conv3_1_new
I0206 20:11:12.848788 15043 net.cpp:157] Top shape: 4 256 192 192 (37748736)
I0206 20:11:12.848790 15043 net.cpp:165] Memory required for data: 4322161152
I0206 20:11:12.848803 15043 layer_factory.hpp:77] Creating layer relu3_1
I0206 20:11:12.848812 15043 net.cpp:100] Creating Layer relu3_1
I0206 20:11:12.848817 15043 net.cpp:434] relu3_1 <- conv3_1
I0206 20:11:12.848821 15043 net.cpp:395] relu3_1 -> conv3_1 (in-place)
I0206 20:11:12.849262 15043 net.cpp:150] Setting up relu3_1
I0206 20:11:12.849277 15043 net.cpp:157] Top shape: 4 256 192 192 (37748736)
I0206 20:11:12.849280 15043 net.cpp:165] Memory required for data: 4473156096
I0206 20:11:12.849283 15043 layer_factory.hpp:77] Creating layer conv3_2
I0206 20:11:12.849292 15043 net.cpp:100] Creating Layer conv3_2
I0206 20:11:12.849295 15043 net.cpp:434] conv3_2 <- conv3_1
I0206 20:11:12.849303 15043 net.cpp:408] conv3_2 -> conv3_2
I0206 20:11:12.851444 15043 net.cpp:150] Setting up conv3_2
I0206 20:11:12.851456 15043 net.cpp:157] Top shape: 4 256 192 192 (37748736)
I0206 20:11:12.851459 15043 net.cpp:165] Memory required for data: 4624151040
I0206 20:11:12.851465 15043 layer_factory.hpp:77] Creating layer relu3_2
I0206 20:11:12.851471 15043 net.cpp:100] Creating Layer relu3_2
I0206 20:11:12.851475 15043 net.cpp:434] relu3_2 <- conv3_2
I0206 20:11:12.851480 15043 net.cpp:395] relu3_2 -> conv3_2 (in-place)
I0206 20:11:12.851889 15043 net.cpp:150] Setting up relu3_2
I0206 20:11:12.851902 15043 net.cpp:157] Top shape: 4 256 192 192 (37748736)
I0206 20:11:12.851905 15043 net.cpp:165] Memory required for data: 4775145984
I0206 20:11:12.851909 15043 layer_factory.hpp:77] Creating layer conv3_3
I0206 20:11:12.851919 15043 net.cpp:100] Creating Layer conv3_3
I0206 20:11:12.851923 15043 net.cpp:434] conv3_3 <- conv3_2
I0206 20:11:12.851928 15043 net.cpp:408] conv3_3 -> conv3_3
I0206 20:11:12.855470 15043 net.cpp:150] Setting up conv3_3
I0206 20:11:12.855522 15043 net.cpp:157] Top shape: 4 256 192 192 (37748736)
I0206 20:11:12.855527 15043 net.cpp:165] Memory required for data: 4926140928
I0206 20:11:12.855542 15043 layer_factory.hpp:77] Creating layer relu3_3
I0206 20:11:12.855564 15043 net.cpp:100] Creating Layer relu3_3
I0206 20:11:12.855572 15043 net.cpp:434] relu3_3 <- conv3_3
I0206 20:11:12.855578 15043 net.cpp:395] relu3_3 -> conv3_3 (in-place)
I0206 20:11:12.855762 15043 net.cpp:150] Setting up relu3_3
I0206 20:11:12.855774 15043 net.cpp:157] Top shape: 4 256 192 192 (37748736)
I0206 20:11:12.855777 15043 net.cpp:165] Memory required for data: 5077135872
I0206 20:11:12.855782 15043 layer_factory.hpp:77] Creating layer pool3
I0206 20:11:12.855789 15043 net.cpp:100] Creating Layer pool3
I0206 20:11:12.855793 15043 net.cpp:434] pool3 <- conv3_3
I0206 20:11:12.855801 15043 net.cpp:408] pool3 -> pool3
I0206 20:11:12.855844 15043 net.cpp:150] Setting up pool3
I0206 20:11:12.855850 15043 net.cpp:157] Top shape: 4 256 96 96 (9437184)
I0206 20:11:12.855854 15043 net.cpp:165] Memory required for data: 5114884608
I0206 20:11:12.855856 15043 layer_factory.hpp:77] Creating layer ch4_pool3
I0206 20:11:12.855870 15043 net.cpp:100] Creating Layer ch4_pool3
I0206 20:11:12.855875 15043 net.cpp:434] ch4_pool3 <- ch4_pool2_ch4_pool2_0_split_1
I0206 20:11:12.855880 15043 net.cpp:408] ch4_pool3 -> ch4_pool3
I0206 20:11:12.855911 15043 net.cpp:150] Setting up ch4_pool3
I0206 20:11:12.855917 15043 net.cpp:157] Top shape: 4 1 96 96 (36864)
I0206 20:11:12.855921 15043 net.cpp:165] Memory required for data: 5115032064
I0206 20:11:12.855924 15043 layer_factory.hpp:77] Creating layer pool3_concat
I0206 20:11:12.855931 15043 net.cpp:100] Creating Layer pool3_concat
I0206 20:11:12.855934 15043 net.cpp:434] pool3_concat <- pool3
I0206 20:11:12.855939 15043 net.cpp:434] pool3_concat <- ch4_pool3
I0206 20:11:12.855945 15043 net.cpp:408] pool3_concat -> pool3_new
I0206 20:11:12.855964 15043 net.cpp:150] Setting up pool3_concat
I0206 20:11:12.855973 15043 net.cpp:157] Top shape: 4 257 96 96 (9474048)
I0206 20:11:12.855975 15043 net.cpp:165] Memory required for data: 5152928256
I0206 20:11:12.855978 15043 layer_factory.hpp:77] Creating layer conv4_1_new
I0206 20:11:12.855988 15043 net.cpp:100] Creating Layer conv4_1_new
I0206 20:11:12.855990 15043 net.cpp:434] conv4_1_new <- pool3_new
I0206 20:11:12.855996 15043 net.cpp:408] conv4_1_new -> conv4_1
I0206 20:11:12.861830 15043 net.cpp:150] Setting up conv4_1_new
I0206 20:11:12.861860 15043 net.cpp:157] Top shape: 4 512 96 96 (18874368)
I0206 20:11:12.861865 15043 net.cpp:165] Memory required for data: 5228425728
I0206 20:11:12.861874 15043 layer_factory.hpp:77] Creating layer relu4_1
I0206 20:11:12.861887 15043 net.cpp:100] Creating Layer relu4_1
I0206 20:11:12.861892 15043 net.cpp:434] relu4_1 <- conv4_1
I0206 20:11:12.861899 15043 net.cpp:395] relu4_1 -> conv4_1 (in-place)
I0206 20:11:12.862054 15043 net.cpp:150] Setting up relu4_1
I0206 20:11:12.862063 15043 net.cpp:157] Top shape: 4 512 96 96 (18874368)
I0206 20:11:12.862066 15043 net.cpp:165] Memory required for data: 5303923200
I0206 20:11:12.862071 15043 layer_factory.hpp:77] Creating layer conv4_2
I0206 20:11:12.862080 15043 net.cpp:100] Creating Layer conv4_2
I0206 20:11:12.862083 15043 net.cpp:434] conv4_2 <- conv4_1
I0206 20:11:12.862089 15043 net.cpp:408] conv4_2 -> conv4_2
I0206 20:11:12.867893 15043 net.cpp:150] Setting up conv4_2
I0206 20:11:12.867928 15043 net.cpp:157] Top shape: 4 512 96 96 (18874368)
I0206 20:11:12.867931 15043 net.cpp:165] Memory required for data: 5379420672
I0206 20:11:12.867946 15043 layer_factory.hpp:77] Creating layer relu4_2
I0206 20:11:12.867957 15043 net.cpp:100] Creating Layer relu4_2
I0206 20:11:12.867962 15043 net.cpp:434] relu4_2 <- conv4_2
I0206 20:11:12.867967 15043 net.cpp:395] relu4_2 -> conv4_2 (in-place)
I0206 20:11:12.868103 15043 net.cpp:150] Setting up relu4_2
I0206 20:11:12.868111 15043 net.cpp:157] Top shape: 4 512 96 96 (18874368)
I0206 20:11:12.868114 15043 net.cpp:165] Memory required for data: 5454918144
I0206 20:11:12.868118 15043 layer_factory.hpp:77] Creating layer conv4_3
I0206 20:11:12.868124 15043 net.cpp:100] Creating Layer conv4_3
I0206 20:11:12.868129 15043 net.cpp:434] conv4_3 <- conv4_2
I0206 20:11:12.868134 15043 net.cpp:408] conv4_3 -> conv4_3
I0206 20:11:12.874089 15043 net.cpp:150] Setting up conv4_3
I0206 20:11:12.874117 15043 net.cpp:157] Top shape: 4 512 96 96 (18874368)
I0206 20:11:12.874122 15043 net.cpp:165] Memory required for data: 5530415616
I0206 20:11:12.874130 15043 layer_factory.hpp:77] Creating layer relu4_3
I0206 20:11:12.874141 15043 net.cpp:100] Creating Layer relu4_3
I0206 20:11:12.874146 15043 net.cpp:434] relu4_3 <- conv4_3
I0206 20:11:12.874152 15043 net.cpp:395] relu4_3 -> conv4_3 (in-place)
I0206 20:11:12.874307 15043 net.cpp:150] Setting up relu4_3
I0206 20:11:12.874316 15043 net.cpp:157] Top shape: 4 512 96 96 (18874368)
I0206 20:11:12.874320 15043 net.cpp:165] Memory required for data: 5605913088
I0206 20:11:12.874323 15043 layer_factory.hpp:77] Creating layer conv4_3_relu4_3_0_split
I0206 20:11:12.874330 15043 net.cpp:100] Creating Layer conv4_3_relu4_3_0_split
I0206 20:11:12.874333 15043 net.cpp:434] conv4_3_relu4_3_0_split <- conv4_3
I0206 20:11:12.874338 15043 net.cpp:408] conv4_3_relu4_3_0_split -> conv4_3_relu4_3_0_split_0
I0206 20:11:12.874344 15043 net.cpp:408] conv4_3_relu4_3_0_split -> conv4_3_relu4_3_0_split_1
I0206 20:11:12.874377 15043 net.cpp:150] Setting up conv4_3_relu4_3_0_split
I0206 20:11:12.874384 15043 net.cpp:157] Top shape: 4 512 96 96 (18874368)
I0206 20:11:12.874388 15043 net.cpp:157] Top shape: 4 512 96 96 (18874368)
I0206 20:11:12.874392 15043 net.cpp:165] Memory required for data: 5756908032
I0206 20:11:12.874395 15043 layer_factory.hpp:77] Creating layer loss1_conv1
I0206 20:11:12.874408 15043 net.cpp:100] Creating Layer loss1_conv1
I0206 20:11:12.874413 15043 net.cpp:434] loss1_conv1 <- conv4_3_relu4_3_0_split_0
I0206 20:11:12.874420 15043 net.cpp:408] loss1_conv1 -> loss1_conv1
I0206 20:11:12.939123 15043 net.cpp:150] Setting up loss1_conv1
I0206 20:11:12.939236 15043 net.cpp:157] Top shape: 4 512 96 96 (18874368)
I0206 20:11:12.939277 15043 net.cpp:165] Memory required for data: 5832405504
I0206 20:11:12.939335 15043 layer_factory.hpp:77] Creating layer loss_relu1
I0206 20:11:12.939414 15043 net.cpp:100] Creating Layer loss_relu1
I0206 20:11:12.939450 15043 net.cpp:434] loss_relu1 <- loss1_conv1
I0206 20:11:12.939498 15043 net.cpp:395] loss_relu1 -> loss1_conv1 (in-place)
I0206 20:11:12.940420 15043 net.cpp:150] Setting up loss_relu1
I0206 20:11:12.940443 15043 net.cpp:157] Top shape: 4 512 96 96 (18874368)
I0206 20:11:12.940448 15043 net.cpp:165] Memory required for data: 5907902976
I0206 20:11:12.940452 15043 layer_factory.hpp:77] Creating layer loss1_conv1_loss_relu1_0_split
I0206 20:11:12.940464 15043 net.cpp:100] Creating Layer loss1_conv1_loss_relu1_0_split
I0206 20:11:12.940470 15043 net.cpp:434] loss1_conv1_loss_relu1_0_split <- loss1_conv1
I0206 20:11:12.940477 15043 net.cpp:408] loss1_conv1_loss_relu1_0_split -> loss1_conv1_loss_relu1_0_split_0
I0206 20:11:12.940486 15043 net.cpp:408] loss1_conv1_loss_relu1_0_split -> loss1_conv1_loss_relu1_0_split_1
I0206 20:11:12.940543 15043 net.cpp:150] Setting up loss1_conv1_loss_relu1_0_split
I0206 20:11:12.940549 15043 net.cpp:157] Top shape: 4 512 96 96 (18874368)
I0206 20:11:12.940553 15043 net.cpp:157] Top shape: 4 512 96 96 (18874368)
I0206 20:11:12.940557 15043 net.cpp:165] Memory required for data: 6058897920
I0206 20:11:12.940559 15043 layer_factory.hpp:77] Creating layer LFCN_1_5x5
I0206 20:11:12.940572 15043 net.cpp:100] Creating Layer LFCN_1_5x5
I0206 20:11:12.940577 15043 net.cpp:434] LFCN_1_5x5 <- loss1_conv1_loss_relu1_0_split_0
I0206 20:11:12.940584 15043 net.cpp:408] LFCN_1_5x5 -> LFCN_1_5x5
I0206 20:11:12.944413 15043 net.cpp:150] Setting up LFCN_1_5x5
I0206 20:11:12.944427 15043 net.cpp:157] Top shape: 4 9 96 96 (331776)
I0206 20:11:12.944429 15043 net.cpp:165] Memory required for data: 6060225024
I0206 20:11:12.944435 15043 layer_factory.hpp:77] Creating layer LFCN_1_5x5_LFCN_1_5x5_0_split
I0206 20:11:12.944439 15043 net.cpp:100] Creating Layer LFCN_1_5x5_LFCN_1_5x5_0_split
I0206 20:11:12.944442 15043 net.cpp:434] LFCN_1_5x5_LFCN_1_5x5_0_split <- LFCN_1_5x5
I0206 20:11:12.944447 15043 net.cpp:408] LFCN_1_5x5_LFCN_1_5x5_0_split -> LFCN_1_5x5_LFCN_1_5x5_0_split_0
I0206 20:11:12.944453 15043 net.cpp:408] LFCN_1_5x5_LFCN_1_5x5_0_split -> LFCN_1_5x5_LFCN_1_5x5_0_split_1
I0206 20:11:12.944483 15043 net.cpp:150] Setting up LFCN_1_5x5_LFCN_1_5x5_0_split
I0206 20:11:12.944489 15043 net.cpp:157] Top shape: 4 9 96 96 (331776)
I0206 20:11:12.944492 15043 net.cpp:157] Top shape: 4 9 96 96 (331776)
I0206 20:11:12.944495 15043 net.cpp:165] Memory required for data: 6062879232
I0206 20:11:12.944499 15043 layer_factory.hpp:77] Creating layer detection_loss_1_5x5
I0206 20:11:12.944505 15043 net.cpp:100] Creating Layer detection_loss_1_5x5
I0206 20:11:12.944509 15043 net.cpp:434] detection_loss_1_5x5 <- LFCN_1_5x5_LFCN_1_5x5_0_split_0
I0206 20:11:12.944514 15043 net.cpp:434] detection_loss_1_5x5 <- label_1_5x5_data_1_split_0
I0206 20:11:12.944519 15043 net.cpp:408] detection_loss_1_5x5 -> loss_1_5x5
I0206 20:11:12.944532 15043 layer_factory.hpp:77] Creating layer detection_loss_1_5x5
I0206 20:11:12.946050 15043 net.cpp:150] Setting up detection_loss_1_5x5
I0206 20:11:12.946068 15043 net.cpp:157] Top shape: 1 1 1 2 (2)
I0206 20:11:12.946070 15043 net.cpp:160]     with loss weight 0.9
I0206 20:11:12.946090 15043 net.cpp:165] Memory required for data: 6062879240
I0206 20:11:12.946094 15043 layer_factory.hpp:77] Creating layer detection_accuracy_1_5x5
I0206 20:11:12.946101 15043 net.cpp:100] Creating Layer detection_accuracy_1_5x5
I0206 20:11:12.946106 15043 net.cpp:434] detection_accuracy_1_5x5 <- LFCN_1_5x5_LFCN_1_5x5_0_split_1
I0206 20:11:12.946111 15043 net.cpp:434] detection_accuracy_1_5x5 <- label_1_5x5_data_1_split_1
I0206 20:11:12.946117 15043 net.cpp:408] detection_accuracy_1_5x5 -> accuracy_1_5x5
I0206 20:11:12.946125 15043 net.cpp:408] detection_accuracy_1_5x5 -> boxiou_1_5x5
I0206 20:11:12.946166 15043 net.cpp:150] Setting up detection_accuracy_1_5x5
I0206 20:11:12.946172 15043 net.cpp:157] Top shape: 1 1 1 2 (2)
I0206 20:11:12.946177 15043 net.cpp:157] Top shape: 1 1 1 1 (1)
I0206 20:11:12.946179 15043 net.cpp:165] Memory required for data: 6062879252
I0206 20:11:12.946183 15043 layer_factory.hpp:77] Creating layer LFCN_1_7x7
I0206 20:11:12.946193 15043 net.cpp:100] Creating Layer LFCN_1_7x7
I0206 20:11:12.946198 15043 net.cpp:434] LFCN_1_7x7 <- loss1_conv1_loss_relu1_0_split_1
I0206 20:11:12.946204 15043 net.cpp:408] LFCN_1_7x7 -> LFCN_1_7x7
I0206 20:11:12.953066 15043 net.cpp:150] Setting up LFCN_1_7x7
I0206 20:11:12.953083 15043 net.cpp:157] Top shape: 4 9 96 96 (331776)
I0206 20:11:12.953088 15043 net.cpp:165] Memory required for data: 6064206356
I0206 20:11:12.953094 15043 layer_factory.hpp:77] Creating layer LFCN_1_7x7_LFCN_1_7x7_0_split
I0206 20:11:12.953101 15043 net.cpp:100] Creating Layer LFCN_1_7x7_LFCN_1_7x7_0_split
I0206 20:11:12.953105 15043 net.cpp:434] LFCN_1_7x7_LFCN_1_7x7_0_split <- LFCN_1_7x7
I0206 20:11:12.953110 15043 net.cpp:408] LFCN_1_7x7_LFCN_1_7x7_0_split -> LFCN_1_7x7_LFCN_1_7x7_0_split_0
I0206 20:11:12.953117 15043 net.cpp:408] LFCN_1_7x7_LFCN_1_7x7_0_split -> LFCN_1_7x7_LFCN_1_7x7_0_split_1
I0206 20:11:12.953152 15043 net.cpp:150] Setting up LFCN_1_7x7_LFCN_1_7x7_0_split
I0206 20:11:12.953160 15043 net.cpp:157] Top shape: 4 9 96 96 (331776)
I0206 20:11:12.953163 15043 net.cpp:157] Top shape: 4 9 96 96 (331776)
I0206 20:11:12.953166 15043 net.cpp:165] Memory required for data: 6066860564
I0206 20:11:12.953169 15043 layer_factory.hpp:77] Creating layer detection_loss_1_7x7
I0206 20:11:12.953176 15043 net.cpp:100] Creating Layer detection_loss_1_7x7
I0206 20:11:12.953181 15043 net.cpp:434] detection_loss_1_7x7 <- LFCN_1_7x7_LFCN_1_7x7_0_split_0
I0206 20:11:12.953184 15043 net.cpp:434] detection_loss_1_7x7 <- label_1_7x7_data_2_split_0
I0206 20:11:12.953189 15043 net.cpp:408] detection_loss_1_7x7 -> loss_1_7x7
I0206 20:11:12.953197 15043 layer_factory.hpp:77] Creating layer detection_loss_1_7x7
I0206 20:11:12.954664 15043 net.cpp:150] Setting up detection_loss_1_7x7
I0206 20:11:12.954680 15043 net.cpp:157] Top shape: 1 1 1 2 (2)
I0206 20:11:12.954684 15043 net.cpp:160]     with loss weight 0.9
I0206 20:11:12.954694 15043 net.cpp:165] Memory required for data: 6066860572
I0206 20:11:12.954697 15043 layer_factory.hpp:77] Creating layer detection_accuracy_1_7x7
I0206 20:11:12.954706 15043 net.cpp:100] Creating Layer detection_accuracy_1_7x7
I0206 20:11:12.954710 15043 net.cpp:434] detection_accuracy_1_7x7 <- LFCN_1_7x7_LFCN_1_7x7_0_split_1
I0206 20:11:12.954717 15043 net.cpp:434] detection_accuracy_1_7x7 <- label_1_7x7_data_2_split_1
I0206 20:11:12.954725 15043 net.cpp:408] detection_accuracy_1_7x7 -> accuracy_1_7x7
I0206 20:11:12.954731 15043 net.cpp:408] detection_accuracy_1_7x7 -> boxiou_1_7x7
I0206 20:11:12.954768 15043 net.cpp:150] Setting up detection_accuracy_1_7x7
I0206 20:11:12.954776 15043 net.cpp:157] Top shape: 1 1 1 2 (2)
I0206 20:11:12.954779 15043 net.cpp:157] Top shape: 1 1 1 1 (1)
I0206 20:11:12.954782 15043 net.cpp:165] Memory required for data: 6066860584
I0206 20:11:12.954785 15043 layer_factory.hpp:77] Creating layer pool4
I0206 20:11:12.954792 15043 net.cpp:100] Creating Layer pool4
I0206 20:11:12.954794 15043 net.cpp:434] pool4 <- conv4_3_relu4_3_0_split_1
I0206 20:11:12.954802 15043 net.cpp:408] pool4 -> pool4
I0206 20:11:12.954839 15043 net.cpp:150] Setting up pool4
I0206 20:11:12.954847 15043 net.cpp:157] Top shape: 4 512 48 48 (4718592)
I0206 20:11:12.954850 15043 net.cpp:165] Memory required for data: 6085734952
I0206 20:11:12.954854 15043 layer_factory.hpp:77] Creating layer conv5_1
I0206 20:11:12.954860 15043 net.cpp:100] Creating Layer conv5_1
I0206 20:11:12.954864 15043 net.cpp:434] conv5_1 <- pool4
I0206 20:11:12.954869 15043 net.cpp:408] conv5_1 -> conv5_1
I0206 20:11:12.960750 15043 net.cpp:150] Setting up conv5_1
I0206 20:11:12.960778 15043 net.cpp:157] Top shape: 4 512 48 48 (4718592)
I0206 20:11:12.960783 15043 net.cpp:165] Memory required for data: 6104609320
I0206 20:11:12.960790 15043 layer_factory.hpp:77] Creating layer relu5_1
I0206 20:11:12.960803 15043 net.cpp:100] Creating Layer relu5_1
I0206 20:11:12.960808 15043 net.cpp:434] relu5_1 <- conv5_1
I0206 20:11:12.960813 15043 net.cpp:395] relu5_1 -> conv5_1 (in-place)
I0206 20:11:12.960976 15043 net.cpp:150] Setting up relu5_1
I0206 20:11:12.960985 15043 net.cpp:157] Top shape: 4 512 48 48 (4718592)
I0206 20:11:12.960989 15043 net.cpp:165] Memory required for data: 6123483688
I0206 20:11:12.960992 15043 layer_factory.hpp:77] Creating layer conv5_2
I0206 20:11:12.961001 15043 net.cpp:100] Creating Layer conv5_2
I0206 20:11:12.961006 15043 net.cpp:434] conv5_2 <- conv5_1
I0206 20:11:12.961014 15043 net.cpp:408] conv5_2 -> conv5_2
I0206 20:11:12.966897 15043 net.cpp:150] Setting up conv5_2
I0206 20:11:12.966933 15043 net.cpp:157] Top shape: 4 512 48 48 (4718592)
I0206 20:11:12.966938 15043 net.cpp:165] Memory required for data: 6142358056
I0206 20:11:12.966948 15043 layer_factory.hpp:77] Creating layer relu5_2
I0206 20:11:12.966959 15043 net.cpp:100] Creating Layer relu5_2
I0206 20:11:12.966965 15043 net.cpp:434] relu5_2 <- conv5_2
I0206 20:11:12.966971 15043 net.cpp:395] relu5_2 -> conv5_2 (in-place)
I0206 20:11:12.967136 15043 net.cpp:150] Setting up relu5_2
I0206 20:11:12.967145 15043 net.cpp:157] Top shape: 4 512 48 48 (4718592)
I0206 20:11:12.967149 15043 net.cpp:165] Memory required for data: 6161232424
I0206 20:11:12.967152 15043 layer_factory.hpp:77] Creating layer conv5_3
I0206 20:11:12.967162 15043 net.cpp:100] Creating Layer conv5_3
I0206 20:11:12.967167 15043 net.cpp:434] conv5_3 <- conv5_2
I0206 20:11:12.967172 15043 net.cpp:408] conv5_3 -> conv5_3
I0206 20:11:12.973031 15043 net.cpp:150] Setting up conv5_3
I0206 20:11:12.973062 15043 net.cpp:157] Top shape: 4 512 48 48 (4718592)
I0206 20:11:12.973065 15043 net.cpp:165] Memory required for data: 6180106792
I0206 20:11:12.973074 15043 layer_factory.hpp:77] Creating layer relu5_3
I0206 20:11:12.973085 15043 net.cpp:100] Creating Layer relu5_3
I0206 20:11:12.973091 15043 net.cpp:434] relu5_3 <- conv5_3
I0206 20:11:12.973099 15043 net.cpp:395] relu5_3 -> conv5_3 (in-place)
I0206 20:11:12.973258 15043 net.cpp:150] Setting up relu5_3
I0206 20:11:12.973268 15043 net.cpp:157] Top shape: 4 512 48 48 (4718592)
I0206 20:11:12.973270 15043 net.cpp:165] Memory required for data: 6198981160
I0206 20:11:12.973273 15043 layer_factory.hpp:77] Creating layer conv5_3_relu5_3_0_split
I0206 20:11:12.973280 15043 net.cpp:100] Creating Layer conv5_3_relu5_3_0_split
I0206 20:11:12.973284 15043 net.cpp:434] conv5_3_relu5_3_0_split <- conv5_3
I0206 20:11:12.973289 15043 net.cpp:408] conv5_3_relu5_3_0_split -> conv5_3_relu5_3_0_split_0
I0206 20:11:12.973294 15043 net.cpp:408] conv5_3_relu5_3_0_split -> conv5_3_relu5_3_0_split_1
I0206 20:11:12.973301 15043 net.cpp:408] conv5_3_relu5_3_0_split -> conv5_3_relu5_3_0_split_2
I0206 20:11:12.973347 15043 net.cpp:150] Setting up conv5_3_relu5_3_0_split
I0206 20:11:12.973353 15043 net.cpp:157] Top shape: 4 512 48 48 (4718592)
I0206 20:11:12.973358 15043 net.cpp:157] Top shape: 4 512 48 48 (4718592)
I0206 20:11:12.973362 15043 net.cpp:157] Top shape: 4 512 48 48 (4718592)
I0206 20:11:12.973366 15043 net.cpp:165] Memory required for data: 6255604264
I0206 20:11:12.973368 15043 layer_factory.hpp:77] Creating layer LFCN_2_5x5
I0206 20:11:12.973379 15043 net.cpp:100] Creating Layer LFCN_2_5x5
I0206 20:11:12.973383 15043 net.cpp:434] LFCN_2_5x5 <- conv5_3_relu5_3_0_split_0
I0206 20:11:12.973390 15043 net.cpp:408] LFCN_2_5x5 -> LFCN_2_5x5
I0206 20:11:12.979537 15043 net.cpp:150] Setting up LFCN_2_5x5
I0206 20:11:12.979588 15043 net.cpp:157] Top shape: 4 9 48 48 (82944)
I0206 20:11:12.979593 15043 net.cpp:165] Memory required for data: 6255936040
I0206 20:11:12.979614 15043 layer_factory.hpp:77] Creating layer LFCN_2_5x5_LFCN_2_5x5_0_split
I0206 20:11:12.979629 15043 net.cpp:100] Creating Layer LFCN_2_5x5_LFCN_2_5x5_0_split
I0206 20:11:12.979635 15043 net.cpp:434] LFCN_2_5x5_LFCN_2_5x5_0_split <- LFCN_2_5x5
I0206 20:11:12.979641 15043 net.cpp:408] LFCN_2_5x5_LFCN_2_5x5_0_split -> LFCN_2_5x5_LFCN_2_5x5_0_split_0
I0206 20:11:12.979651 15043 net.cpp:408] LFCN_2_5x5_LFCN_2_5x5_0_split -> LFCN_2_5x5_LFCN_2_5x5_0_split_1
I0206 20:11:12.979692 15043 net.cpp:150] Setting up LFCN_2_5x5_LFCN_2_5x5_0_split
I0206 20:11:12.979698 15043 net.cpp:157] Top shape: 4 9 48 48 (82944)
I0206 20:11:12.979703 15043 net.cpp:157] Top shape: 4 9 48 48 (82944)
I0206 20:11:12.979707 15043 net.cpp:165] Memory required for data: 6256599592
I0206 20:11:12.979709 15043 layer_factory.hpp:77] Creating layer detection_loss_2_5x5
I0206 20:11:12.979719 15043 net.cpp:100] Creating Layer detection_loss_2_5x5
I0206 20:11:12.979723 15043 net.cpp:434] detection_loss_2_5x5 <- LFCN_2_5x5_LFCN_2_5x5_0_split_0
I0206 20:11:12.979727 15043 net.cpp:434] detection_loss_2_5x5 <- label_2_5x5_data_3_split_0
I0206 20:11:12.979733 15043 net.cpp:408] detection_loss_2_5x5 -> loss_2_5x5
I0206 20:11:12.979743 15043 layer_factory.hpp:77] Creating layer detection_loss_2_5x5
I0206 20:11:12.981956 15043 net.cpp:150] Setting up detection_loss_2_5x5
I0206 20:11:12.982008 15043 net.cpp:157] Top shape: 1 1 1 2 (2)
I0206 20:11:12.982013 15043 net.cpp:160]     with loss weight 1
I0206 20:11:12.982031 15043 net.cpp:165] Memory required for data: 6256599600
I0206 20:11:12.982040 15043 layer_factory.hpp:77] Creating layer detection_accuracy_2_5x5
I0206 20:11:12.982059 15043 net.cpp:100] Creating Layer detection_accuracy_2_5x5
I0206 20:11:12.982069 15043 net.cpp:434] detection_accuracy_2_5x5 <- LFCN_2_5x5_LFCN_2_5x5_0_split_1
I0206 20:11:12.982079 15043 net.cpp:434] detection_accuracy_2_5x5 <- label_2_5x5_data_3_split_1
I0206 20:11:12.982089 15043 net.cpp:408] detection_accuracy_2_5x5 -> accuracy_2_5x5
I0206 20:11:12.982100 15043 net.cpp:408] detection_accuracy_2_5x5 -> boxiou_2_5x5
I0206 20:11:12.982151 15043 net.cpp:150] Setting up detection_accuracy_2_5x5
I0206 20:11:12.982159 15043 net.cpp:157] Top shape: 1 1 1 2 (2)
I0206 20:11:12.982163 15043 net.cpp:157] Top shape: 1 1 1 1 (1)
I0206 20:11:12.982167 15043 net.cpp:165] Memory required for data: 6256599612
I0206 20:11:12.982169 15043 layer_factory.hpp:77] Creating layer LFCN_2_7x7
I0206 20:11:12.982201 15043 net.cpp:100] Creating Layer LFCN_2_7x7
I0206 20:11:12.982208 15043 net.cpp:434] LFCN_2_7x7 <- conv5_3_relu5_3_0_split_1
I0206 20:11:12.982215 15043 net.cpp:408] LFCN_2_7x7 -> LFCN_2_7x7
I0206 20:11:12.990861 15043 net.cpp:150] Setting up LFCN_2_7x7
I0206 20:11:12.990924 15043 net.cpp:157] Top shape: 4 9 48 48 (82944)
I0206 20:11:12.990972 15043 net.cpp:165] Memory required for data: 6256931388
I0206 20:11:12.991040 15043 layer_factory.hpp:77] Creating layer LFCN_2_7x7_LFCN_2_7x7_0_split
I0206 20:11:12.991240 15043 net.cpp:100] Creating Layer LFCN_2_7x7_LFCN_2_7x7_0_split
I0206 20:11:12.991305 15043 net.cpp:434] LFCN_2_7x7_LFCN_2_7x7_0_split <- LFCN_2_7x7
I0206 20:11:12.991363 15043 net.cpp:408] LFCN_2_7x7_LFCN_2_7x7_0_split -> LFCN_2_7x7_LFCN_2_7x7_0_split_0
I0206 20:11:12.991488 15043 net.cpp:408] LFCN_2_7x7_LFCN_2_7x7_0_split -> LFCN_2_7x7_LFCN_2_7x7_0_split_1
I0206 20:11:12.991996 15043 net.cpp:150] Setting up LFCN_2_7x7_LFCN_2_7x7_0_split
I0206 20:11:12.992056 15043 net.cpp:157] Top shape: 4 9 48 48 (82944)
I0206 20:11:12.992082 15043 net.cpp:157] Top shape: 4 9 48 48 (82944)
I0206 20:11:12.992097 15043 net.cpp:165] Memory required for data: 6257594940
I0206 20:11:12.992117 15043 layer_factory.hpp:77] Creating layer detection_loss_2_7x7
I0206 20:11:12.992198 15043 net.cpp:100] Creating Layer detection_loss_2_7x7
I0206 20:11:12.992236 15043 net.cpp:434] detection_loss_2_7x7 <- LFCN_2_7x7_LFCN_2_7x7_0_split_0
I0206 20:11:12.992266 15043 net.cpp:434] detection_loss_2_7x7 <- label_2_7x7_data_4_split_0
I0206 20:11:12.992297 15043 net.cpp:408] detection_loss_2_7x7 -> loss_2_7x7
I0206 20:11:12.992341 15043 layer_factory.hpp:77] Creating layer detection_loss_2_7x7
I0206 20:11:12.993618 15043 net.cpp:150] Setting up detection_loss_2_7x7
I0206 20:11:12.993659 15043 net.cpp:157] Top shape: 1 1 1 2 (2)
I0206 20:11:12.993662 15043 net.cpp:160]     with loss weight 1
I0206 20:11:12.993680 15043 net.cpp:165] Memory required for data: 6257594948
I0206 20:11:12.993686 15043 layer_factory.hpp:77] Creating layer detection_accuracy_2_7x7
I0206 20:11:12.993705 15043 net.cpp:100] Creating Layer detection_accuracy_2_7x7
I0206 20:11:12.993715 15043 net.cpp:434] detection_accuracy_2_7x7 <- LFCN_2_7x7_LFCN_2_7x7_0_split_1
I0206 20:11:12.993723 15043 net.cpp:434] detection_accuracy_2_7x7 <- label_2_7x7_data_4_split_1
I0206 20:11:12.993731 15043 net.cpp:408] detection_accuracy_2_7x7 -> accuracy_2_7x7
I0206 20:11:12.993739 15043 net.cpp:408] detection_accuracy_2_7x7 -> boxiou_2_7x7
I0206 20:11:12.993783 15043 net.cpp:150] Setting up detection_accuracy_2_7x7
I0206 20:11:12.993789 15043 net.cpp:157] Top shape: 1 1 1 2 (2)
I0206 20:11:12.993793 15043 net.cpp:157] Top shape: 1 1 1 1 (1)
I0206 20:11:12.993796 15043 net.cpp:165] Memory required for data: 6257594960
I0206 20:11:12.993799 15043 layer_factory.hpp:77] Creating layer pool5
I0206 20:11:12.993808 15043 net.cpp:100] Creating Layer pool5
I0206 20:11:12.993813 15043 net.cpp:434] pool5 <- conv5_3_relu5_3_0_split_2
I0206 20:11:12.993821 15043 net.cpp:408] pool5 -> pool5
I0206 20:11:12.993860 15043 net.cpp:150] Setting up pool5
I0206 20:11:12.993865 15043 net.cpp:157] Top shape: 4 512 24 24 (1179648)
I0206 20:11:12.993868 15043 net.cpp:165] Memory required for data: 6262313552
I0206 20:11:12.993872 15043 layer_factory.hpp:77] Creating layer conv6_1
I0206 20:11:12.993886 15043 net.cpp:100] Creating Layer conv6_1
I0206 20:11:12.993891 15043 net.cpp:434] conv6_1 <- pool5
I0206 20:11:12.993896 15043 net.cpp:408] conv6_1 -> conv6_1
I0206 20:11:13.061296 15043 net.cpp:150] Setting up conv6_1
I0206 20:11:13.061322 15043 net.cpp:157] Top shape: 4 512 24 24 (1179648)
I0206 20:11:13.061326 15043 net.cpp:165] Memory required for data: 6267032144
I0206 20:11:13.061334 15043 layer_factory.hpp:77] Creating layer relu6_1
I0206 20:11:13.061344 15043 net.cpp:100] Creating Layer relu6_1
I0206 20:11:13.061352 15043 net.cpp:434] relu6_1 <- conv6_1
I0206 20:11:13.061357 15043 net.cpp:395] relu6_1 -> conv6_1 (in-place)
I0206 20:11:13.061522 15043 net.cpp:150] Setting up relu6_1
I0206 20:11:13.061532 15043 net.cpp:157] Top shape: 4 512 24 24 (1179648)
I0206 20:11:13.061534 15043 net.cpp:165] Memory required for data: 6271750736
I0206 20:11:13.061538 15043 layer_factory.hpp:77] Creating layer conv6_1_relu6_1_0_split
I0206 20:11:13.061543 15043 net.cpp:100] Creating Layer conv6_1_relu6_1_0_split
I0206 20:11:13.061547 15043 net.cpp:434] conv6_1_relu6_1_0_split <- conv6_1
I0206 20:11:13.061553 15043 net.cpp:408] conv6_1_relu6_1_0_split -> conv6_1_relu6_1_0_split_0
I0206 20:11:13.061559 15043 net.cpp:408] conv6_1_relu6_1_0_split -> conv6_1_relu6_1_0_split_1
I0206 20:11:13.061564 15043 net.cpp:408] conv6_1_relu6_1_0_split -> conv6_1_relu6_1_0_split_2
I0206 20:11:13.061610 15043 net.cpp:150] Setting up conv6_1_relu6_1_0_split
I0206 20:11:13.061617 15043 net.cpp:157] Top shape: 4 512 24 24 (1179648)
I0206 20:11:13.061621 15043 net.cpp:157] Top shape: 4 512 24 24 (1179648)
I0206 20:11:13.061625 15043 net.cpp:157] Top shape: 4 512 24 24 (1179648)
I0206 20:11:13.061628 15043 net.cpp:165] Memory required for data: 6285906512
I0206 20:11:13.061631 15043 layer_factory.hpp:77] Creating layer LFCN_3_5x5
I0206 20:11:13.061642 15043 net.cpp:100] Creating Layer LFCN_3_5x5
I0206 20:11:13.061646 15043 net.cpp:434] LFCN_3_5x5 <- conv6_1_relu6_1_0_split_0
I0206 20:11:13.061653 15043 net.cpp:408] LFCN_3_5x5 -> LFCN_3_5x5
I0206 20:11:13.065536 15043 net.cpp:150] Setting up LFCN_3_5x5
I0206 20:11:13.065549 15043 net.cpp:157] Top shape: 4 9 24 24 (20736)
I0206 20:11:13.065552 15043 net.cpp:165] Memory required for data: 6285989456
I0206 20:11:13.065559 15043 layer_factory.hpp:77] Creating layer LFCN_3_5x5_LFCN_3_5x5_0_split
I0206 20:11:13.065564 15043 net.cpp:100] Creating Layer LFCN_3_5x5_LFCN_3_5x5_0_split
I0206 20:11:13.065567 15043 net.cpp:434] LFCN_3_5x5_LFCN_3_5x5_0_split <- LFCN_3_5x5
I0206 20:11:13.065574 15043 net.cpp:408] LFCN_3_5x5_LFCN_3_5x5_0_split -> LFCN_3_5x5_LFCN_3_5x5_0_split_0
I0206 20:11:13.065580 15043 net.cpp:408] LFCN_3_5x5_LFCN_3_5x5_0_split -> LFCN_3_5x5_LFCN_3_5x5_0_split_1
I0206 20:11:13.065613 15043 net.cpp:150] Setting up LFCN_3_5x5_LFCN_3_5x5_0_split
I0206 20:11:13.065621 15043 net.cpp:157] Top shape: 4 9 24 24 (20736)
I0206 20:11:13.065625 15043 net.cpp:157] Top shape: 4 9 24 24 (20736)
I0206 20:11:13.065629 15043 net.cpp:165] Memory required for data: 6286155344
I0206 20:11:13.065631 15043 layer_factory.hpp:77] Creating layer detection_loss_3_5x5
I0206 20:11:13.065639 15043 net.cpp:100] Creating Layer detection_loss_3_5x5
I0206 20:11:13.065644 15043 net.cpp:434] detection_loss_3_5x5 <- LFCN_3_5x5_LFCN_3_5x5_0_split_0
I0206 20:11:13.065647 15043 net.cpp:434] detection_loss_3_5x5 <- label_3_5x5_data_5_split_0
I0206 20:11:13.065654 15043 net.cpp:408] detection_loss_3_5x5 -> loss_3_5x5
I0206 20:11:13.065662 15043 layer_factory.hpp:77] Creating layer detection_loss_3_5x5
I0206 20:11:13.065968 15043 net.cpp:150] Setting up detection_loss_3_5x5
I0206 20:11:13.065978 15043 net.cpp:157] Top shape: 1 1 1 2 (2)
I0206 20:11:13.065980 15043 net.cpp:160]     with loss weight 1
I0206 20:11:13.065992 15043 net.cpp:165] Memory required for data: 6286155352
I0206 20:11:13.065995 15043 layer_factory.hpp:77] Creating layer detection_accuracy_3_5x5
I0206 20:11:13.066002 15043 net.cpp:100] Creating Layer detection_accuracy_3_5x5
I0206 20:11:13.066006 15043 net.cpp:434] detection_accuracy_3_5x5 <- LFCN_3_5x5_LFCN_3_5x5_0_split_1
I0206 20:11:13.066011 15043 net.cpp:434] detection_accuracy_3_5x5 <- label_3_5x5_data_5_split_1
I0206 20:11:13.066016 15043 net.cpp:408] detection_accuracy_3_5x5 -> accuracy_3_5x5
I0206 20:11:13.066023 15043 net.cpp:408] detection_accuracy_3_5x5 -> boxiou_3_5x5
I0206 20:11:13.066057 15043 net.cpp:150] Setting up detection_accuracy_3_5x5
I0206 20:11:13.066064 15043 net.cpp:157] Top shape: 1 1 1 2 (2)
I0206 20:11:13.066068 15043 net.cpp:157] Top shape: 1 1 1 1 (1)
I0206 20:11:13.066071 15043 net.cpp:165] Memory required for data: 6286155364
I0206 20:11:13.066074 15043 layer_factory.hpp:77] Creating layer LFCN_3_7x7
I0206 20:11:13.066082 15043 net.cpp:100] Creating Layer LFCN_3_7x7
I0206 20:11:13.066085 15043 net.cpp:434] LFCN_3_7x7 <- conv6_1_relu6_1_0_split_1
I0206 20:11:13.066092 15043 net.cpp:408] LFCN_3_7x7 -> LFCN_3_7x7
I0206 20:11:13.073273 15043 net.cpp:150] Setting up LFCN_3_7x7
I0206 20:11:13.073287 15043 net.cpp:157] Top shape: 4 9 24 24 (20736)
I0206 20:11:13.073292 15043 net.cpp:165] Memory required for data: 6286238308
I0206 20:11:13.073297 15043 layer_factory.hpp:77] Creating layer LFCN_3_7x7_LFCN_3_7x7_0_split
I0206 20:11:13.073304 15043 net.cpp:100] Creating Layer LFCN_3_7x7_LFCN_3_7x7_0_split
I0206 20:11:13.073307 15043 net.cpp:434] LFCN_3_7x7_LFCN_3_7x7_0_split <- LFCN_3_7x7
I0206 20:11:13.073313 15043 net.cpp:408] LFCN_3_7x7_LFCN_3_7x7_0_split -> LFCN_3_7x7_LFCN_3_7x7_0_split_0
I0206 20:11:13.073320 15043 net.cpp:408] LFCN_3_7x7_LFCN_3_7x7_0_split -> LFCN_3_7x7_LFCN_3_7x7_0_split_1
I0206 20:11:13.073355 15043 net.cpp:150] Setting up LFCN_3_7x7_LFCN_3_7x7_0_split
I0206 20:11:13.073362 15043 net.cpp:157] Top shape: 4 9 24 24 (20736)
I0206 20:11:13.073366 15043 net.cpp:157] Top shape: 4 9 24 24 (20736)
I0206 20:11:13.073370 15043 net.cpp:165] Memory required for data: 6286404196
I0206 20:11:13.073374 15043 layer_factory.hpp:77] Creating layer detection_loss_3_7x7
I0206 20:11:13.073380 15043 net.cpp:100] Creating Layer detection_loss_3_7x7
I0206 20:11:13.073384 15043 net.cpp:434] detection_loss_3_7x7 <- LFCN_3_7x7_LFCN_3_7x7_0_split_0
I0206 20:11:13.073387 15043 net.cpp:434] detection_loss_3_7x7 <- label_3_7x7_data_6_split_0
I0206 20:11:13.073393 15043 net.cpp:408] detection_loss_3_7x7 -> loss_3_7x7
I0206 20:11:13.073400 15043 layer_factory.hpp:77] Creating layer detection_loss_3_7x7
I0206 20:11:13.073700 15043 net.cpp:150] Setting up detection_loss_3_7x7
I0206 20:11:13.073710 15043 net.cpp:157] Top shape: 1 1 1 2 (2)
I0206 20:11:13.073714 15043 net.cpp:160]     with loss weight 1
I0206 20:11:13.073719 15043 net.cpp:165] Memory required for data: 6286404204
I0206 20:11:13.073724 15043 layer_factory.hpp:77] Creating layer detection_accuracy_3_7x7
I0206 20:11:13.073729 15043 net.cpp:100] Creating Layer detection_accuracy_3_7x7
I0206 20:11:13.073732 15043 net.cpp:434] detection_accuracy_3_7x7 <- LFCN_3_7x7_LFCN_3_7x7_0_split_1
I0206 20:11:13.073736 15043 net.cpp:434] detection_accuracy_3_7x7 <- label_3_7x7_data_6_split_1
I0206 20:11:13.073742 15043 net.cpp:408] detection_accuracy_3_7x7 -> accuracy_3_7x7
I0206 20:11:13.073750 15043 net.cpp:408] detection_accuracy_3_7x7 -> boxiou_3_7x7
I0206 20:11:13.073781 15043 net.cpp:150] Setting up detection_accuracy_3_7x7
I0206 20:11:13.073788 15043 net.cpp:157] Top shape: 1 1 1 2 (2)
I0206 20:11:13.073792 15043 net.cpp:157] Top shape: 1 1 1 1 (1)
I0206 20:11:13.073796 15043 net.cpp:165] Memory required for data: 6286404216
I0206 20:11:13.073798 15043 layer_factory.hpp:77] Creating layer pool6
I0206 20:11:13.073806 15043 net.cpp:100] Creating Layer pool6
I0206 20:11:13.073809 15043 net.cpp:434] pool6 <- conv6_1_relu6_1_0_split_2
I0206 20:11:13.073814 15043 net.cpp:408] pool6 -> pool6
I0206 20:11:13.073848 15043 net.cpp:150] Setting up pool6
I0206 20:11:13.073854 15043 net.cpp:157] Top shape: 4 512 12 12 (294912)
I0206 20:11:13.073858 15043 net.cpp:165] Memory required for data: 6287583864
I0206 20:11:13.073861 15043 layer_factory.hpp:77] Creating layer LFCN_4_5x5
I0206 20:11:13.073869 15043 net.cpp:100] Creating Layer LFCN_4_5x5
I0206 20:11:13.073873 15043 net.cpp:434] LFCN_4_5x5 <- pool6
I0206 20:11:13.073879 15043 net.cpp:408] LFCN_4_5x5 -> LFCN_4_5x5
I0206 20:11:13.077905 15043 net.cpp:150] Setting up LFCN_4_5x5
I0206 20:11:13.077925 15043 net.cpp:157] Top shape: 4 9 12 12 (5184)
I0206 20:11:13.077929 15043 net.cpp:165] Memory required for data: 6287604600
I0206 20:11:13.077939 15043 layer_factory.hpp:77] Creating layer LFCN_4_5x5_LFCN_4_5x5_0_split
I0206 20:11:13.077946 15043 net.cpp:100] Creating Layer LFCN_4_5x5_LFCN_4_5x5_0_split
I0206 20:11:13.077955 15043 net.cpp:434] LFCN_4_5x5_LFCN_4_5x5_0_split <- LFCN_4_5x5
I0206 20:11:13.077962 15043 net.cpp:408] LFCN_4_5x5_LFCN_4_5x5_0_split -> LFCN_4_5x5_LFCN_4_5x5_0_split_0
I0206 20:11:13.077972 15043 net.cpp:408] LFCN_4_5x5_LFCN_4_5x5_0_split -> LFCN_4_5x5_LFCN_4_5x5_0_split_1
I0206 20:11:13.078016 15043 net.cpp:150] Setting up LFCN_4_5x5_LFCN_4_5x5_0_split
I0206 20:11:13.078022 15043 net.cpp:157] Top shape: 4 9 12 12 (5184)
I0206 20:11:13.078028 15043 net.cpp:157] Top shape: 4 9 12 12 (5184)
I0206 20:11:13.078032 15043 net.cpp:165] Memory required for data: 6287646072
I0206 20:11:13.078037 15043 layer_factory.hpp:77] Creating layer detection_loss_4_5x5
I0206 20:11:13.078044 15043 net.cpp:100] Creating Layer detection_loss_4_5x5
I0206 20:11:13.078050 15043 net.cpp:434] detection_loss_4_5x5 <- LFCN_4_5x5_LFCN_4_5x5_0_split_0
I0206 20:11:13.078055 15043 net.cpp:434] detection_loss_4_5x5 <- label_4_5x5_data_7_split_0
I0206 20:11:13.078063 15043 net.cpp:408] detection_loss_4_5x5 -> loss_4_5x5
I0206 20:11:13.078073 15043 layer_factory.hpp:77] Creating layer detection_loss_4_5x5
I0206 20:11:13.078380 15043 net.cpp:150] Setting up detection_loss_4_5x5
I0206 20:11:13.078390 15043 net.cpp:157] Top shape: 1 1 1 2 (2)
I0206 20:11:13.078393 15043 net.cpp:160]     with loss weight 1
I0206 20:11:13.078402 15043 net.cpp:165] Memory required for data: 6287646080
I0206 20:11:13.078407 15043 layer_factory.hpp:77] Creating layer detection_accuracy_4_5x5
I0206 20:11:13.078411 15043 net.cpp:100] Creating Layer detection_accuracy_4_5x5
I0206 20:11:13.078415 15043 net.cpp:434] detection_accuracy_4_5x5 <- LFCN_4_5x5_LFCN_4_5x5_0_split_1
I0206 20:11:13.078419 15043 net.cpp:434] detection_accuracy_4_5x5 <- label_4_5x5_data_7_split_1
I0206 20:11:13.078424 15043 net.cpp:408] detection_accuracy_4_5x5 -> accuracy_4_5x5
I0206 20:11:13.078433 15043 net.cpp:408] detection_accuracy_4_5x5 -> boxiou_4_5x5
I0206 20:11:13.078466 15043 net.cpp:150] Setting up detection_accuracy_4_5x5
I0206 20:11:13.078472 15043 net.cpp:157] Top shape: 1 1 1 2 (2)
I0206 20:11:13.078476 15043 net.cpp:157] Top shape: 1 1 1 1 (1)
I0206 20:11:13.078480 15043 net.cpp:165] Memory required for data: 6287646092
I0206 20:11:13.078483 15043 net.cpp:228] detection_accuracy_4_5x5 does not need backward computation.
I0206 20:11:13.078486 15043 net.cpp:226] detection_loss_4_5x5 needs backward computation.
I0206 20:11:13.078490 15043 net.cpp:226] LFCN_4_5x5_LFCN_4_5x5_0_split needs backward computation.
I0206 20:11:13.078493 15043 net.cpp:226] LFCN_4_5x5 needs backward computation.
…
I0206 20:11:13.091701 15043 image_gt_data_layer.cpp:235] output label size 1 : 2,6,96,96
I0206 20:11:13.091747 15043 image_gt_data_layer.cpp:235] output label size 2 : 2,6,48,48
I0206 20:11:13.091794 15043 image_gt_data_layer.cpp:235] output label size 3 : 2,6,48,48
I0206 20:11:13.091841 15043 image_gt_data_layer.cpp:235] output label size 4 : 2,6,24,24
I0206 20:11:13.091887 15043 image_gt_data_layer.cpp:235] output label size 5 : 2,6,24,24
I0206 20:11:13.091933 15043 image_gt_data_layer.cpp:235] output label size 6 : 2,6,12,12
I0206 20:11:13.124220 15043 net.cpp:150] Setting up data
I0206 20:11:13.124300 15043 net.cpp:157] Top shape: 2 4 768 768 (4718592)
I0206 20:11:13.124308 15043 net.cpp:157] Top shape: 2 6 96 96 (110592)
I0206 20:11:13.124315 15043 net.cpp:157] Top shape: 2 6 96 96 (110592)
I0206 20:11:13.124318 15043 net.cpp:157] Top shape: 2 6 48 48 (27648)
I0206 20:11:13.124325 15043 net.cpp:157] Top shape: 2 6 48 48 (27648)
I0206 20:11:13.124330 15043 net.cpp:157] Top shape: 2 6 24 24 (6912)
I0206 20:11:13.124333 15043 net.cpp:157] Top shape: 2 6 24 24 (6912)
I0206 20:11:13.124337 15043 net.cpp:157] Top shape: 2 6 12 12 (1728)
I0206 20:11:13.124341 15043 net.cpp:165] Memory required for data: 20042496
I0206 20:11:13.124351 15043 layer_factory.hpp:77] Creating layer label_1_5x5_data_1_split
I0206 20:11:13.124372 15043 net.cpp:100] Creating Layer label_1_5x5_data_1_split
I0206 20:11:13.124380 15043 net.cpp:434] label_1_5x5_data_1_split <- label_1_5x5
I0206 20:11:13.124390 15043 net.cpp:408] label_1_5x5_data_1_split -> label_1_5x5_data_1_split_0
I0206 20:11:13.124402 15043 net.cpp:408] label_1_5x5_data_1_split -> label_1_5x5_data_1_split_1
I0206 20:11:13.124516 15043 net.cpp:150] Setting up label_1_5x5_data_1_split
I0206 20:11:13.124522 15043 net.cpp:157] Top shape: 2 6 96 96 (110592)
I0206 20:11:13.124526 15043 net.cpp:157] Top shape: 2 6 96 96 (110592)
I0206 20:11:13.124529 15043 net.cpp:165] Memory required for data: 20927232
I0206 20:11:13.124533 15043 layer_factory.hpp:77] Creating layer label_1_7x7_data_2_split
I0206 20:11:13.124539 15043 net.cpp:100] Creating Layer label_1_7x7_data_2_split
I0206 20:11:13.124543 15043 net.cpp:434] label_1_7x7_data_2_split <- label_1_7x7
I0206 20:11:13.124548 15043 net.cpp:408] label_1_7x7_data_2_split -> label_1_7x7_data_2_split_0
I0206 20:11:13.124554 15043 net.cpp:408] label_1_7x7_data_2_split -> label_1_7x7_data_2_split_1
I0206 20:11:13.124780 15043 net.cpp:150] Setting up label_1_7x7_data_2_split
I0206 20:11:13.124824 15043 net.cpp:157] Top shape: 2 6 96 96 (110592)
I0206 20:11:13.124835 15043 net.cpp:157] Top shape: 2 6 96 96 (110592)
I0206 20:11:13.124845 15043 net.cpp:165] Memory required for data: 21811968
I0206 20:11:13.124855 15043 layer_factory.hpp:77] Creating layer label_2_5x5_data_3_split
I0206 20:11:13.124873 15043 net.cpp:100] Creating Layer label_2_5x5_data_3_split
I0206 20:11:13.124883 15043 net.cpp:434] label_2_5x5_data_3_split <- label_2_5x5
I0206 20:11:13.124925 15043 net.cpp:408] label_2_5x5_data_3_split -> label_2_5x5_data_3_split_0
I0206 20:11:13.124945 15043 net.cpp:408] label_2_5x5_data_3_split -> label_2_5x5_data_3_split_1
I0206 20:11:13.125035 15043 net.cpp:150] Setting up label_2_5x5_data_3_split
I0206 20:11:13.125048 15043 net.cpp:157] Top shape: 2 6 48 48 (27648)
I0206 20:11:13.125061 15043 net.cpp:157] Top shape: 2 6 48 48 (27648)
I0206 20:11:13.125069 15043 net.cpp:165] Memory required for data: 22033152
I0206 20:11:13.125078 15043 layer_factory.hpp:77] Creating layer label_2_7x7_data_4_split
I0206 20:11:13.125093 15043 net.cpp:100] Creating Layer label_2_7x7_data_4_split
I0206 20:11:13.125102 15043 net.cpp:434] label_2_7x7_data_4_split <- label_2_7x7
I0206 20:11:13.125115 15043 net.cpp:408] label_2_7x7_data_4_split -> label_2_7x7_data_4_split_0
I0206 20:11:13.125130 15043 net.cpp:408] label_2_7x7_data_4_split -> label_2_7x7_data_4_split_1
I0206 20:11:13.125205 15043 net.cpp:150] Setting up label_2_7x7_data_4_split
I0206 20:11:13.125218 15043 net.cpp:157] Top shape: 2 6 48 48 (27648)
I0206 20:11:13.125231 15043 net.cpp:157] Top shape: 2 6 48 48 (27648)
I0206 20:11:13.125241 15043 net.cpp:165] Memory required for data: 22254336
I0206 20:11:13.125260 15043 layer_factory.hpp:77] Creating layer label_3_5x5_data_5_split
I0206 20:11:13.125290 15043 net.cpp:100] Creating Layer label_3_5x5_data_5_split
I0206 20:11:13.125313 15043 net.cpp:434] label_3_5x5_data_5_split <- label_3_5x5
I0206 20:11:13.125340 15043 net.cpp:408] label_3_5x5_data_5_split -> label_3_5x5_data_5_split_0
I0206 20:11:13.125391 15043 net.cpp:408] label_3_5x5_data_5_split -> label_3_5x5_data_5_split_1
I0206 20:11:13.125744 15043 net.cpp:150] Setting up label_3_5x5_data_5_split
I0206 20:11:13.125811 15043 net.cpp:157] Top shape: 2 6 24 24 (6912)
I0206 20:11:13.125843 15043 net.cpp:157] Top shape: 2 6 24 24 (6912)
I0206 20:11:13.125861 15043 net.cpp:165] Memory required for data: 22309632
I0206 20:11:13.125883 15043 layer_factory.hpp:77] Creating layer label_3_7x7_data_6_split
I0206 20:11:13.125917 15043 net.cpp:100] Creating Layer label_3_7x7_data_6_split
I0206 20:11:13.125942 15043 net.cpp:434] label_3_7x7_data_6_split <- label_3_7x7
I0206 20:11:13.126011 15043 net.cpp:408] label_3_7x7_data_6_split -> label_3_7x7_data_6_split_0
I0206 20:11:13.126058 15043 net.cpp:408] label_3_7x7_data_6_split -> label_3_7x7_data_6_split_1
I0206 20:11:13.126399 15043 net.cpp:150] Setting up label_3_7x7_data_6_split
I0206 20:11:13.126447 15043 net.cpp:157] Top shape: 2 6 24 24 (6912)
I0206 20:11:13.126471 15043 net.cpp:157] Top shape: 2 6 24 24 (6912)
I0206 20:11:13.126487 15043 net.cpp:165] Memory required for data: 22364928
I0206 20:11:13.126507 15043 layer_factory.hpp:77] Creating layer label_4_5x5_data_7_split
I0206 20:11:13.126538 15043 net.cpp:100] Creating Layer label_4_5x5_data_7_split
I0206 20:11:13.126551 15043 net.cpp:434] label_4_5x5_data_7_split <- label_4_5x5
I0206 20:11:13.126574 15043 net.cpp:408] label_4_5x5_data_7_split -> label_4_5x5_data_7_split_0
I0206 20:11:13.126595 15043 net.cpp:408] label_4_5x5_data_7_split -> label_4_5x5_data_7_split_1
I0206 20:11:13.126744 15043 net.cpp:150] Setting up label_4_5x5_data_7_split
I0206 20:11:13.126762 15043 net.cpp:157] Top shape: 2 6 12 12 (1728)
I0206 20:11:13.126773 15043 net.cpp:157] Top shape: 2 6 12 12 (1728)
I0206 20:11:13.126780 15043 net.cpp:165] Memory required for data: 22378752
I0206 20:11:13.126788 15043 layer_factory.hpp:77] Creating layer slice
I0206 20:11:13.126811 15043 net.cpp:100] Creating Layer slice
I0206 20:11:13.126819 15043 net.cpp:434] slice <- data
I0206 20:11:13.126830 15043 net.cpp:408] slice -> data123
I0206 20:11:13.126843 15043 net.cpp:408] slice -> ch4
I0206 20:11:13.126926 15043 net.cpp:150] Setting up slice
I0206 20:11:13.126937 15043 net.cpp:157] Top shape: 2 3 768 768 (3538944)
I0206 20:11:13.126946 15043 net.cpp:157] Top shape: 2 1 768 768 (1179648)
I0206 20:11:13.126953 15043 net.cpp:165] Memory required for data: 41253120
I0206 20:11:13.126960 15043 layer_factory.hpp:77] Creating layer conv1_1
I0206 20:11:13.126979 15043 net.cpp:100] Creating Layer conv1_1
I0206 20:11:13.126986 15043 net.cpp:434] conv1_1 <- data123
I0206 20:11:13.126997 15043 net.cpp:408] conv1_1 -> conv1_1
I0206 20:11:13.139142 15043 net.cpp:150] Setting up conv1_1
I0206 20:11:13.139185 15043 net.cpp:157] Top shape: 2 64 768 768 (75497472)
I0206 20:11:13.139191 15043 net.cpp:165] Memory required for data: 343243008
I0206 20:11:13.139211 15043 layer_factory.hpp:77] Creating layer relu1_1
I0206 20:11:13.139228 15043 net.cpp:100] Creating Layer relu1_1
I0206 20:11:13.139235 15043 net.cpp:434] relu1_1 <- conv1_1
I0206 20:11:13.139245 15043 net.cpp:395] relu1_1 -> conv1_1 (in-place)
I0206 20:11:13.141613 15043 net.cpp:150] Setting up relu1_1
I0206 20:11:13.141641 15043 net.cpp:157] Top shape: 2 64 768 768 (75497472)
I0206 20:11:13.141646 15043 net.cpp:165] Memory required for data: 645232896
I0206 20:11:13.141654 15043 layer_factory.hpp:77] Creating layer conv1_2
I0206 20:11:13.141676 15043 net.cpp:100] Creating Layer conv1_2
I0206 20:11:13.141685 15043 net.cpp:434] conv1_2 <- conv1_1
I0206 20:11:13.141696 15043 net.cpp:408] conv1_2 -> conv1_2
I0206 20:11:13.151851 15043 net.cpp:150] Setting up conv1_2
I0206 20:11:13.151949 15043 net.cpp:157] Top shape: 2 64 768 768 (75497472)
I0206 20:11:13.151959 15043 net.cpp:165] Memory required for data: 947222784
I0206 20:11:13.152004 15043 layer_factory.hpp:77] Creating layer relu1_2
I0206 20:11:13.152037 15043 net.cpp:100] Creating Layer relu1_2
I0206 20:11:13.152051 15043 net.cpp:434] relu1_2 <- conv1_2
I0206 20:11:13.152070 15043 net.cpp:395] relu1_2 -> conv1_2 (in-place)
I0206 20:11:13.154000 15043 net.cpp:150] Setting up relu1_2
I0206 20:11:13.154353 15043 net.cpp:157] Top shape: 2 64 768 768 (75497472)
I0206 20:11:13.154450 15043 net.cpp:165] Memory required for data: 1249212672
I0206 20:11:13.154503 15043 layer_factory.hpp:77] Creating layer pool1
I0206 20:11:13.154538 15043 net.cpp:100] Creating Layer pool1
I0206 20:11:13.154558 15043 net.cpp:434] pool1 <- conv1_2
I0206 20:11:13.154582 15043 net.cpp:408] pool1 -> pool1
I0206 20:11:13.154721 15043 net.cpp:150] Setting up pool1
I0206 20:11:13.154736 15043 net.cpp:157] Top shape: 2 64 384 384 (18874368)
I0206 20:11:13.154747 15043 net.cpp:165] Memory required for data: 1324710144
I0206 20:11:13.154754 15043 layer_factory.hpp:77] Creating layer ch4_pool1
I0206 20:11:13.154767 15043 net.cpp:100] Creating Layer ch4_pool1
I0206 20:11:13.154774 15043 net.cpp:434] ch4_pool1 <- ch4
I0206 20:11:13.154785 15043 net.cpp:408] ch4_pool1 -> ch4_pool1
I0206 20:11:13.154844 15043 net.cpp:150] Setting up ch4_pool1
I0206 20:11:13.154857 15043 net.cpp:157] Top shape: 2 1 384 384 (294912)
I0206 20:11:13.154865 15043 net.cpp:165] Memory required for data: 1325889792
I0206 20:11:13.154872 15043 layer_factory.hpp:77] Creating layer ch4_pool1_ch4_pool1_0_split
I0206 20:11:13.154886 15043 net.cpp:100] Creating Layer ch4_pool1_ch4_pool1_0_split
I0206 20:11:13.154892 15043 net.cpp:434] ch4_pool1_ch4_pool1_0_split <- ch4_pool1
I0206 20:11:13.154906 15043 net.cpp:408] ch4_pool1_ch4_pool1_0_split -> ch4_pool1_ch4_pool1_0_split_0
I0206 20:11:13.154920 15043 net.cpp:408] ch4_pool1_ch4_pool1_0_split -> ch4_pool1_ch4_pool1_0_split_1
I0206 20:11:13.154978 15043 net.cpp:150] Setting up ch4_pool1_ch4_pool1_0_split
I0206 20:11:13.154989 15043 net.cpp:157] Top shape: 2 1 384 384 (294912)
I0206 20:11:13.154999 15043 net.cpp:157] Top shape: 2 1 384 384 (294912)
I0206 20:11:13.155007 15043 net.cpp:165] Memory required for data: 1328249088
I0206 20:11:13.155014 15043 layer_factory.hpp:77] Creating layer pool1_concat
I0206 20:11:13.155031 15043 net.cpp:100] Creating Layer pool1_concat
I0206 20:11:13.155040 15043 net.cpp:434] pool1_concat <- pool1
I0206 20:11:13.155050 15043 net.cpp:434] pool1_concat <- ch4_pool1_ch4_pool1_0_split_0
I0206 20:11:13.155062 15043 net.cpp:408] pool1_concat -> pool1_new
I0206 20:11:13.155100 15043 net.cpp:150] Setting up pool1_concat
I0206 20:11:13.155112 15043 net.cpp:157] Top shape: 2 65 384 384 (19169280)
I0206 20:11:13.155118 15043 net.cpp:165] Memory required for data: 1404926208
I0206 20:11:13.155128 15043 layer_factory.hpp:77] Creating layer conv2_1_new
I0206 20:11:13.155146 15043 net.cpp:100] Creating Layer conv2_1_new
I0206 20:11:13.155154 15043 net.cpp:434] conv2_1_new <- pool1_new
I0206 20:11:13.155165 15043 net.cpp:408] conv2_1_new -> conv2_1
I0206 20:11:13.158221 15043 net.cpp:150] Setting up conv2_1_new
I0206 20:11:13.158252 15043 net.cpp:157] Top shape: 2 128 384 384 (37748736)
I0206 20:11:13.158257 15043 net.cpp:165] Memory required for data: 1555921152
I0206 20:11:13.158278 15043 layer_factory.hpp:77] Creating layer relu2_1
I0206 20:11:13.158295 15043 net.cpp:100] Creating Layer relu2_1
I0206 20:11:13.158305 15043 net.cpp:434] relu2_1 <- conv2_1
I0206 20:11:13.158315 15043 net.cpp:395] relu2_1 -> conv2_1 (in-place)
I0206 20:11:13.158535 15043 net.cpp:150] Setting up relu2_1
I0206 20:11:13.158547 15043 net.cpp:157] Top shape: 2 128 384 384 (37748736)
I0206 20:11:13.158553 15043 net.cpp:165] Memory required for data: 1706916096
I0206 20:11:13.158558 15043 layer_factory.hpp:77] Creating layer conv2_2
I0206 20:11:13.158574 15043 net.cpp:100] Creating Layer conv2_2
I0206 20:11:13.158582 15043 net.cpp:434] conv2_2 <- conv2_1
I0206 20:11:13.158593 15043 net.cpp:408] conv2_2 -> conv2_2
I0206 20:11:13.161137 15043 net.cpp:150] Setting up conv2_2
I0206 20:11:13.161161 15043 net.cpp:157] Top shape: 2 128 384 384 (37748736)
I0206 20:11:13.161166 15043 net.cpp:165] Memory required for data: 1857911040
I0206 20:11:13.161177 15043 layer_factory.hpp:77] Creating layer relu2_2
I0206 20:11:13.161190 15043 net.cpp:100] Creating Layer relu2_2
I0206 20:11:13.161198 15043 net.cpp:434] relu2_2 <- conv2_2
I0206 20:11:13.161204 15043 net.cpp:395] relu2_2 -> conv2_2 (in-place)
I0206 20:11:13.161407 15043 net.cpp:150] Setting up relu2_2
I0206 20:11:13.161418 15043 net.cpp:157] Top shape: 2 128 384 384 (37748736)
I0206 20:11:13.161422 15043 net.cpp:165] Memory required for data: 2008905984
I0206 20:11:13.161427 15043 layer_factory.hpp:77] Creating layer pool2
I0206 20:11:13.161435 15043 net.cpp:100] Creating Layer pool2
I0206 20:11:13.161440 15043 net.cpp:434] pool2 <- conv2_2
I0206 20:11:13.161447 15043 net.cpp:408] pool2 -> pool2
I0206 20:11:13.161496 15043 net.cpp:150] Setting up pool2
I0206 20:11:13.161504 15043 net.cpp:157] Top shape: 2 128 192 192 (9437184)
I0206 20:11:13.161509 15043 net.cpp:165] Memory required for data: 2046654720
I0206 20:11:13.161512 15043 layer_factory.hpp:77] Creating layer ch4_pool2
I0206 20:11:13.161520 15043 net.cpp:100] Creating Layer ch4_pool2
I0206 20:11:13.161526 15043 net.cpp:434] ch4_pool2 <- ch4_pool1_ch4_pool1_0_split_1
I0206 20:11:13.161531 15043 net.cpp:408] ch4_pool2 -> ch4_pool2
I0206 20:11:13.161573 15043 net.cpp:150] Setting up ch4_pool2
I0206 20:11:13.161581 15043 net.cpp:157] Top shape: 2 1 192 192 (73728)
I0206 20:11:13.161584 15043 net.cpp:165] Memory required for data: 2046949632
I0206 20:11:13.161588 15043 layer_factory.hpp:77] Creating layer ch4_pool2_ch4_pool2_0_split
I0206 20:11:13.161595 15043 net.cpp:100] Creating Layer ch4_pool2_ch4_pool2_0_split
I0206 20:11:13.161600 15043 net.cpp:434] ch4_pool2_ch4_pool2_0_split <- ch4_pool2
I0206 20:11:13.161605 15043 net.cpp:408] ch4_pool2_ch4_pool2_0_split -> ch4_pool2_ch4_pool2_0_split_0
I0206 20:11:13.161613 15043 net.cpp:408] ch4_pool2_ch4_pool2_0_split -> ch4_pool2_ch4_pool2_0_split_1
I0206 20:11:13.161653 15043 net.cpp:150] Setting up ch4_pool2_ch4_pool2_0_split
I0206 20:11:13.161660 15043 net.cpp:157] Top shape: 2 1 192 192 (73728)
I0206 20:11:13.161666 15043 net.cpp:157] Top shape: 2 1 192 192 (73728)
I0206 20:11:13.161670 15043 net.cpp:165] Memory required for data: 2047539456
I0206 20:11:13.161674 15043 layer_factory.hpp:77] Creating layer pool2_concat
I0206 20:11:13.161684 15043 net.cpp:100] Creating Layer pool2_concat
I0206 20:11:13.161689 15043 net.cpp:434] pool2_concat <- pool2
I0206 20:11:13.161696 15043 net.cpp:434] pool2_concat <- ch4_pool2_ch4_pool2_0_split_0
I0206 20:11:13.161703 15043 net.cpp:408] pool2_concat -> pool2_new
I0206 20:11:13.161729 15043 net.cpp:150] Setting up pool2_concat
I0206 20:11:13.161736 15043 net.cpp:157] Top shape: 2 129 192 192 (9510912)
I0206 20:11:13.161741 15043 net.cpp:165] Memory required for data: 2085583104
I0206 20:11:13.161744 15043 layer_factory.hpp:77] Creating layer conv3_1_new
I0206 20:11:13.161753 15043 net.cpp:100] Creating Layer conv3_1_new
I0206 20:11:13.161759 15043 net.cpp:434] conv3_1_new <- pool2_new
I0206 20:11:13.161765 15043 net.cpp:408] conv3_1_new -> conv3_1
I0206 20:11:13.166503 15043 net.cpp:150] Setting up conv3_1_new
I0206 20:11:13.166534 15043 net.cpp:157] Top shape: 2 256 192 192 (18874368)
I0206 20:11:13.166543 15043 net.cpp:165] Memory required for data: 2161080576
I0206 20:11:13.166568 15043 layer_factory.hpp:77] Creating layer relu3_1
I0206 20:11:13.166582 15043 net.cpp:100] Creating Layer relu3_1
I0206 20:11:13.166592 15043 net.cpp:434] relu3_1 <- conv3_1
I0206 20:11:13.166606 15043 net.cpp:395] relu3_1 -> conv3_1 (in-place)
I0206 20:11:13.167244 15043 net.cpp:150] Setting up relu3_1
I0206 20:11:13.167292 15043 net.cpp:157] Top shape: 2 256 192 192 (18874368)
I0206 20:11:13.167304 15043 net.cpp:165] Memory required for data: 2236578048
I0206 20:11:13.167315 15043 layer_factory.hpp:77] Creating layer conv3_2
I0206 20:11:13.167358 15043 net.cpp:100] Creating Layer conv3_2
I0206 20:11:13.167376 15043 net.cpp:434] conv3_2 <- conv3_1
I0206 20:11:13.167395 15043 net.cpp:408] conv3_2 -> conv3_2
I0206 20:11:13.172619 15043 net.cpp:150] Setting up conv3_2
I0206 20:11:13.172662 15043 net.cpp:157] Top shape: 2 256 192 192 (18874368)
I0206 20:11:13.172672 15043 net.cpp:165] Memory required for data: 2312075520
I0206 20:11:13.172693 15043 layer_factory.hpp:77] Creating layer relu3_2
I0206 20:11:13.172716 15043 net.cpp:100] Creating Layer relu3_2
I0206 20:11:13.172730 15043 net.cpp:434] relu3_2 <- conv3_2
I0206 20:11:13.172747 15043 net.cpp:395] relu3_2 -> conv3_2 (in-place)
I0206 20:11:13.173200 15043 net.cpp:150] Setting up relu3_2
I0206 20:11:13.173223 15043 net.cpp:157] Top shape: 2 256 192 192 (18874368)
I0206 20:11:13.173234 15043 net.cpp:165] Memory required for data: 2387572992
I0206 20:11:13.173243 15043 layer_factory.hpp:77] Creating layer conv3_3
I0206 20:11:13.173265 15043 net.cpp:100] Creating Layer conv3_3
I0206 20:11:13.173276 15043 net.cpp:434] conv3_3 <- conv3_2
I0206 20:11:13.173295 15043 net.cpp:408] conv3_3 -> conv3_3
I0206 20:11:13.182291 15043 net.cpp:150] Setting up conv3_3
I0206 20:11:13.182313 15043 net.cpp:157] Top shape: 2 256 192 192 (18874368)
I0206 20:11:13.182318 15043 net.cpp:165] Memory required for data: 2463070464
I0206 20:11:13.182328 15043 layer_factory.hpp:77] Creating layer relu3_3
I0206 20:11:13.182337 15043 net.cpp:100] Creating Layer relu3_3
I0206 20:11:13.182343 15043 net.cpp:434] relu3_3 <- conv3_3
I0206 20:11:13.182349 15043 net.cpp:395] relu3_3 -> conv3_3 (in-place)
I0206 20:11:13.185394 15043 net.cpp:150] Setting up relu3_3
I0206 20:11:13.185410 15043 net.cpp:157] Top shape: 2 256 192 192 (18874368)
I0206 20:11:13.185413 15043 net.cpp:165] Memory required for data: 2538567936
I0206 20:11:13.185418 15043 layer_factory.hpp:77] Creating layer pool3
I0206 20:11:13.185430 15043 net.cpp:100] Creating Layer pool3
I0206 20:11:13.185434 15043 net.cpp:434] pool3 <- conv3_3
I0206 20:11:13.185441 15043 net.cpp:408] pool3 -> pool3
I0206 20:11:13.185504 15043 net.cpp:150] Setting up pool3
I0206 20:11:13.185513 15043 net.cpp:157] Top shape: 2 256 96 96 (4718592)
I0206 20:11:13.185516 15043 net.cpp:165] Memory required for data: 2557442304
I0206 20:11:13.185520 15043 layer_factory.hpp:77] Creating layer ch4_pool3
I0206 20:11:13.185531 15043 net.cpp:100] Creating Layer ch4_pool3
I0206 20:11:13.185536 15043 net.cpp:434] ch4_pool3 <- ch4_pool2_ch4_pool2_0_split_1
I0206 20:11:13.185542 15043 net.cpp:408] ch4_pool3 -> ch4_pool3
I0206 20:11:13.185605 15043 net.cpp:150] Setting up ch4_pool3
I0206 20:11:13.185613 15043 net.cpp:157] Top shape: 2 1 96 96 (18432)
I0206 20:11:13.185616 15043 net.cpp:165] Memory required for data: 2557516032
I0206 20:11:13.185621 15043 layer_factory.hpp:77] Creating layer pool3_concat
I0206 20:11:13.185628 15043 net.cpp:100] Creating Layer pool3_concat
I0206 20:11:13.185632 15043 net.cpp:434] pool3_concat <- pool3
I0206 20:11:13.185636 15043 net.cpp:434] pool3_concat <- ch4_pool3
I0206 20:11:13.185659 15043 net.cpp:408] pool3_concat -> pool3_new
I0206 20:11:13.185688 15043 net.cpp:150] Setting up pool3_concat
I0206 20:11:13.185694 15043 net.cpp:157] Top shape: 2 257 96 96 (4737024)
I0206 20:11:13.185698 15043 net.cpp:165] Memory required for data: 2576464128
I0206 20:11:13.185703 15043 layer_factory.hpp:77] Creating layer conv4_1_new
I0206 20:11:13.185714 15043 net.cpp:100] Creating Layer conv4_1_new
I0206 20:11:13.185717 15043 net.cpp:434] conv4_1_new <- pool3_new
I0206 20:11:13.185724 15043 net.cpp:408] conv4_1_new -> conv4_1
I0206 20:11:13.191195 15043 net.cpp:150] Setting up conv4_1_new
I0206 20:11:13.191246 15043 net.cpp:157] Top shape: 2 512 96 96 (9437184)
I0206 20:11:13.191251 15043 net.cpp:165] Memory required for data: 2614212864
I0206 20:11:13.191267 15043 layer_factory.hpp:77] Creating layer relu4_1
I0206 20:11:13.191287 15043 net.cpp:100] Creating Layer relu4_1
I0206 20:11:13.191296 15043 net.cpp:434] relu4_1 <- conv4_1
I0206 20:11:13.191303 15043 net.cpp:395] relu4_1 -> conv4_1 (in-place)
I0206 20:11:13.191517 15043 net.cpp:150] Setting up relu4_1
I0206 20:11:13.191530 15043 net.cpp:157] Top shape: 2 512 96 96 (9437184)
I0206 20:11:13.191534 15043 net.cpp:165] Memory required for data: 2651961600
I0206 20:11:13.191537 15043 layer_factory.hpp:77] Creating layer conv4_2
I0206 20:11:13.191553 15043 net.cpp:100] Creating Layer conv4_2
I0206 20:11:13.191558 15043 net.cpp:434] conv4_2 <- conv4_1
I0206 20:11:13.191565 15043 net.cpp:408] conv4_2 -> conv4_2
I0206 20:11:13.202123 15043 net.cpp:150] Setting up conv4_2
I0206 20:11:13.202157 15043 net.cpp:157] Top shape: 2 512 96 96 (9437184)
I0206 20:11:13.202160 15043 net.cpp:165] Memory required for data: 2689710336
I0206 20:11:13.202177 15043 layer_factory.hpp:77] Creating layer relu4_2
I0206 20:11:13.202190 15043 net.cpp:100] Creating Layer relu4_2
I0206 20:11:13.202198 15043 net.cpp:434] relu4_2 <- conv4_2
I0206 20:11:13.202203 15043 net.cpp:395] relu4_2 -> conv4_2 (in-place)
I0206 20:11:13.202369 15043 net.cpp:150] Setting up relu4_2
I0206 20:11:13.202378 15043 net.cpp:157] Top shape: 2 512 96 96 (9437184)
I0206 20:11:13.202383 15043 net.cpp:165] Memory required for data: 2727459072
I0206 20:11:13.202385 15043 layer_factory.hpp:77] Creating layer conv4_3
I0206 20:11:13.202399 15043 net.cpp:100] Creating Layer conv4_3
I0206 20:11:13.202404 15043 net.cpp:434] conv4_3 <- conv4_2
I0206 20:11:13.202410 15043 net.cpp:408] conv4_3 -> conv4_3
I0206 20:11:13.208660 15043 net.cpp:150] Setting up conv4_3
I0206 20:11:13.208693 15043 net.cpp:157] Top shape: 2 512 96 96 (9437184)
I0206 20:11:13.208698 15043 net.cpp:165] Memory required for data: 2765207808
I0206 20:11:13.208706 15043 layer_factory.hpp:77] Creating layer relu4_3
I0206 20:11:13.208717 15043 net.cpp:100] Creating Layer relu4_3
I0206 20:11:13.208724 15043 net.cpp:434] relu4_3 <- conv4_3
I0206 20:11:13.208729 15043 net.cpp:395] relu4_3 -> conv4_3 (in-place)
I0206 20:11:13.208938 15043 net.cpp:150] Setting up relu4_3
I0206 20:11:13.208948 15043 net.cpp:157] Top shape: 2 512 96 96 (9437184)
I0206 20:11:13.208951 15043 net.cpp:165] Memory required for data: 2802956544
I0206 20:11:13.208956 15043 layer_factory.hpp:77] Creating layer conv4_3_relu4_3_0_split
I0206 20:11:13.208964 15043 net.cpp:100] Creating Layer conv4_3_relu4_3_0_split
I0206 20:11:13.208968 15043 net.cpp:434] conv4_3_relu4_3_0_split <- conv4_3
I0206 20:11:13.208976 15043 net.cpp:408] conv4_3_relu4_3_0_split -> conv4_3_relu4_3_0_split_0
I0206 20:11:13.208984 15043 net.cpp:408] conv4_3_relu4_3_0_split -> conv4_3_relu4_3_0_split_1
I0206 20:11:13.209029 15043 net.cpp:150] Setting up conv4_3_relu4_3_0_split
I0206 20:11:13.209038 15043 net.cpp:157] Top shape: 2 512 96 96 (9437184)
I0206 20:11:13.209043 15043 net.cpp:157] Top shape: 2 512 96 96 (9437184)
I0206 20:11:13.209045 15043 net.cpp:165] Memory required for data: 2878454016
I0206 20:11:13.209049 15043 layer_factory.hpp:77] Creating layer loss1_conv1
I0206 20:11:13.209064 15043 net.cpp:100] Creating Layer loss1_conv1
I0206 20:11:13.209069 15043 net.cpp:434] loss1_conv1 <- conv4_3_relu4_3_0_split_0
I0206 20:11:13.209079 15043 net.cpp:408] loss1_conv1 -> loss1_conv1
I0206 20:11:13.276314 15043 net.cpp:150] Setting up loss1_conv1
I0206 20:11:13.276374 15043 net.cpp:157] Top shape: 2 512 96 96 (9437184)
I0206 20:11:13.276381 15043 net.cpp:165] Memory required for data: 2916202752
I0206 20:11:13.276401 15043 layer_factory.hpp:77] Creating layer loss_relu1
I0206 20:11:13.276437 15043 net.cpp:100] Creating Layer loss_relu1
I0206 20:11:13.276448 15043 net.cpp:434] loss_relu1 <- loss1_conv1
I0206 20:11:13.276460 15043 net.cpp:395] loss_relu1 -> loss1_conv1 (in-place)
I0206 20:11:13.276773 15043 net.cpp:150] Setting up loss_relu1
I0206 20:11:13.276788 15043 net.cpp:157] Top shape: 2 512 96 96 (9437184)
I0206 20:11:13.276794 15043 net.cpp:165] Memory required for data: 2953951488
I0206 20:11:13.276799 15043 layer_factory.hpp:77] Creating layer loss1_conv1_loss_relu1_0_split
I0206 20:11:13.276808 15043 net.cpp:100] Creating Layer loss1_conv1_loss_relu1_0_split
I0206 20:11:13.276814 15043 net.cpp:434] loss1_conv1_loss_relu1_0_split <- loss1_conv1
I0206 20:11:13.276826 15043 net.cpp:408] loss1_conv1_loss_relu1_0_split -> loss1_conv1_loss_relu1_0_split_0
I0206 20:11:13.276837 15043 net.cpp:408] loss1_conv1_loss_relu1_0_split -> loss1_conv1_loss_relu1_0_split_1
I0206 20:11:13.276939 15043 net.cpp:150] Setting up loss1_conv1_loss_relu1_0_split
I0206 20:11:13.276952 15043 net.cpp:157] Top shape: 2 512 96 96 (9437184)
I0206 20:11:13.276959 15043 net.cpp:157] Top shape: 2 512 96 96 (9437184)
I0206 20:11:13.276964 15043 net.cpp:165] Memory required for data: 3029448960
I0206 20:11:13.276968 15043 layer_factory.hpp:77] Creating layer LFCN_1_5x5
I0206 20:11:13.276995 15043 net.cpp:100] Creating Layer LFCN_1_5x5
I0206 20:11:13.277001 15043 net.cpp:434] LFCN_1_5x5 <- loss1_conv1_loss_relu1_0_split_0
I0206 20:11:13.277011 15043 net.cpp:408] LFCN_1_5x5 -> LFCN_1_5x5
I0206 20:11:13.283042 15043 net.cpp:150] Setting up LFCN_1_5x5
I0206 20:11:13.283108 15043 net.cpp:157] Top shape: 2 9 96 96 (165888)
I0206 20:11:13.283118 15043 net.cpp:165] Memory required for data: 3030112512
I0206 20:11:13.283134 15043 layer_factory.hpp:77] Creating layer LFCN_1_5x5_LFCN_1_5x5_0_split
I0206 20:11:13.283155 15043 net.cpp:100] Creating Layer LFCN_1_5x5_LFCN_1_5x5_0_split
I0206 20:11:13.283164 15043 net.cpp:434] LFCN_1_5x5_LFCN_1_5x5_0_split <- LFCN_1_5x5
I0206 20:11:13.283176 15043 net.cpp:408] LFCN_1_5x5_LFCN_1_5x5_0_split -> LFCN_1_5x5_LFCN_1_5x5_0_split_0
I0206 20:11:13.283198 15043 net.cpp:408] LFCN_1_5x5_LFCN_1_5x5_0_split -> LFCN_1_5x5_LFCN_1_5x5_0_split_1
I0206 20:11:13.283270 15043 net.cpp:150] Setting up LFCN_1_5x5_LFCN_1_5x5_0_split
I0206 20:11:13.283282 15043 net.cpp:157] Top shape: 2 9 96 96 (165888)
I0206 20:11:13.283289 15043 net.cpp:157] Top shape: 2 9 96 96 (165888)
I0206 20:11:13.283294 15043 net.cpp:165] Memory required for data: 3031439616
I0206 20:11:13.283301 15043 layer_factory.hpp:77] Creating layer detection_loss_1_5x5
I0206 20:11:13.283318 15043 net.cpp:100] Creating Layer detection_loss_1_5x5
I0206 20:11:13.283327 15043 net.cpp:434] detection_loss_1_5x5 <- LFCN_1_5x5_LFCN_1_5x5_0_split_0
I0206 20:11:13.283335 15043 net.cpp:434] detection_loss_1_5x5 <- label_1_5x5_data_1_split_0
I0206 20:11:13.283347 15043 net.cpp:408] detection_loss_1_5x5 -> loss_1_5x5
I0206 20:11:13.283365 15043 layer_factory.hpp:77] Creating layer detection_loss_1_5x5
I0206 20:11:13.284139 15043 net.cpp:150] Setting up detection_loss_1_5x5
I0206 20:11:13.284154 15043 net.cpp:157] Top shape: 1 1 1 2 (2)
I0206 20:11:13.284159 15043 net.cpp:160]     with loss weight 0.9
I0206 20:11:13.284180 15043 net.cpp:165] Memory required for data: 3031439624
I0206 20:11:13.284186 15043 layer_factory.hpp:77] Creating layer detection_accuracy_1_5x5
I0206 20:11:13.284199 15043 net.cpp:100] Creating Layer detection_accuracy_1_5x5
I0206 20:11:13.284204 15043 net.cpp:434] detection_accuracy_1_5x5 <- LFCN_1_5x5_LFCN_1_5x5_0_split_1
I0206 20:11:13.284214 15043 net.cpp:434] detection_accuracy_1_5x5 <- label_1_5x5_data_1_split_1
I0206 20:11:13.284224 15043 net.cpp:408] detection_accuracy_1_5x5 -> accuracy_1_5x5
I0206 20:11:13.284236 15043 net.cpp:408] detection_accuracy_1_5x5 -> boxiou_1_5x5
I0206 20:11:13.284312 15043 net.cpp:150] Setting up detection_accuracy_1_5x5
I0206 20:11:13.284322 15043 net.cpp:157] Top shape: 1 1 1 2 (2)
I0206 20:11:13.284330 15043 net.cpp:157] Top shape: 1 1 1 1 (1)
I0206 20:11:13.284335 15043 net.cpp:165] Memory required for data: 3031439636
I0206 20:11:13.284340 15043 layer_factory.hpp:77] Creating layer LFCN_1_7x7
I0206 20:11:13.284363 15043 net.cpp:100] Creating Layer LFCN_1_7x7
I0206 20:11:13.284371 15043 net.cpp:434] LFCN_1_7x7 <- loss1_conv1_loss_relu1_0_split_1
I0206 20:11:13.284381 15043 net.cpp:408] LFCN_1_7x7 -> LFCN_1_7x7
I0206 20:11:13.298705 15043 net.cpp:150] Setting up LFCN_1_7x7
I0206 20:11:13.298738 15043 net.cpp:157] Top shape: 2 9 96 96 (165888)
I0206 20:11:13.298741 15043 net.cpp:165] Memory required for data: 3032103188
I0206 20:11:13.298753 15043 layer_factory.hpp:77] Creating layer LFCN_1_7x7_LFCN_1_7x7_0_split
I0206 20:11:13.298768 15043 net.cpp:100] Creating Layer LFCN_1_7x7_LFCN_1_7x7_0_split
I0206 20:11:13.298777 15043 net.cpp:434] LFCN_1_7x7_LFCN_1_7x7_0_split <- LFCN_1_7x7
I0206 20:11:13.298789 15043 net.cpp:408] LFCN_1_7x7_LFCN_1_7x7_0_split -> LFCN_1_7x7_LFCN_1_7x7_0_split_0
I0206 20:11:13.298801 15043 net.cpp:408] LFCN_1_7x7_LFCN_1_7x7_0_split -> LFCN_1_7x7_LFCN_1_7x7_0_split_1
I0206 20:11:13.298898 15043 net.cpp:150] Setting up LFCN_1_7x7_LFCN_1_7x7_0_split
I0206 20:11:13.298907 15043 net.cpp:157] Top shape: 2 9 96 96 (165888)
I0206 20:11:13.298912 15043 net.cpp:157] Top shape: 2 9 96 96 (165888)
I0206 20:11:13.298915 15043 net.cpp:165] Memory required for data: 3033430292
I0206 20:11:13.298919 15043 layer_factory.hpp:77] Creating layer detection_loss_1_7x7
I0206 20:11:13.298931 15043 net.cpp:100] Creating Layer detection_loss_1_7x7
I0206 20:11:13.298936 15043 net.cpp:434] detection_loss_1_7x7 <- LFCN_1_7x7_LFCN_1_7x7_0_split_0
I0206 20:11:13.298943 15043 net.cpp:434] detection_loss_1_7x7 <- label_1_7x7_data_2_split_0
I0206 20:11:13.298952 15043 net.cpp:408] detection_loss_1_7x7 -> loss_1_7x7
I0206 20:11:13.298967 15043 layer_factory.hpp:77] Creating layer detection_loss_1_7x7
I0206 20:11:13.299872 15043 net.cpp:150] Setting up detection_loss_1_7x7
I0206 20:11:13.299885 15043 net.cpp:157] Top shape: 1 1 1 2 (2)
I0206 20:11:13.299890 15043 net.cpp:160]     with loss weight 0.9
I0206 20:11:13.299904 15043 net.cpp:165] Memory required for data: 3033430300
I0206 20:11:13.299909 15043 layer_factory.hpp:77] Creating layer detection_accuracy_1_7x7
I0206 20:11:13.299919 15043 net.cpp:100] Creating Layer detection_accuracy_1_7x7
I0206 20:11:13.299926 15043 net.cpp:434] detection_accuracy_1_7x7 <- LFCN_1_7x7_LFCN_1_7x7_0_split_1
I0206 20:11:13.299934 15043 net.cpp:434] detection_accuracy_1_7x7 <- label_1_7x7_data_2_split_1
I0206 20:11:13.299945 15043 net.cpp:408] detection_accuracy_1_7x7 -> accuracy_1_7x7
I0206 20:11:13.299957 15043 net.cpp:408] detection_accuracy_1_7x7 -> boxiou_1_7x7
I0206 20:11:13.300011 15043 net.cpp:150] Setting up detection_accuracy_1_7x7
I0206 20:11:13.300019 15043 net.cpp:157] Top shape: 1 1 1 2 (2)
I0206 20:11:13.300024 15043 net.cpp:157] Top shape: 1 1 1 1 (1)
I0206 20:11:13.300029 15043 net.cpp:165] Memory required for data: 3033430312
I0206 20:11:13.300032 15043 layer_factory.hpp:77] Creating layer pool4
I0206 20:11:13.300040 15043 net.cpp:100] Creating Layer pool4
I0206 20:11:13.300046 15043 net.cpp:434] pool4 <- conv4_3_relu4_3_0_split_1
I0206 20:11:13.300055 15043 net.cpp:408] pool4 -> pool4
I0206 20:11:13.300115 15043 net.cpp:150] Setting up pool4
I0206 20:11:13.300128 15043 net.cpp:157] Top shape: 2 512 48 48 (2359296)
I0206 20:11:13.300134 15043 net.cpp:165] Memory required for data: 3042867496
I0206 20:11:13.300139 15043 layer_factory.hpp:77] Creating layer conv5_1
I0206 20:11:13.300150 15043 net.cpp:100] Creating Layer conv5_1
I0206 20:11:13.300155 15043 net.cpp:434] conv5_1 <- pool4
I0206 20:11:13.300163 15043 net.cpp:408] conv5_1 -> conv5_1
I0206 20:11:13.306630 15043 net.cpp:150] Setting up conv5_1
I0206 20:11:13.306659 15043 net.cpp:157] Top shape: 2 512 48 48 (2359296)
I0206 20:11:13.306663 15043 net.cpp:165] Memory required for data: 3052304680
I0206 20:11:13.306673 15043 layer_factory.hpp:77] Creating layer relu5_1
I0206 20:11:13.306682 15043 net.cpp:100] Creating Layer relu5_1
I0206 20:11:13.306689 15043 net.cpp:434] relu5_1 <- conv5_1
I0206 20:11:13.306695 15043 net.cpp:395] relu5_1 -> conv5_1 (in-place)
I0206 20:11:13.306864 15043 net.cpp:150] Setting up relu5_1
I0206 20:11:13.306874 15043 net.cpp:157] Top shape: 2 512 48 48 (2359296)
I0206 20:11:13.306877 15043 net.cpp:165] Memory required for data: 3061741864
I0206 20:11:13.306880 15043 layer_factory.hpp:77] Creating layer conv5_2
I0206 20:11:13.306891 15043 net.cpp:100] Creating Layer conv5_2
I0206 20:11:13.306895 15043 net.cpp:434] conv5_2 <- conv5_1
I0206 20:11:13.306902 15043 net.cpp:408] conv5_2 -> conv5_2
I0206 20:11:13.313244 15043 net.cpp:150] Setting up conv5_2
I0206 20:11:13.313272 15043 net.cpp:157] Top shape: 2 512 48 48 (2359296)
I0206 20:11:13.313277 15043 net.cpp:165] Memory required for data: 3071179048
I0206 20:11:13.313287 15043 layer_factory.hpp:77] Creating layer relu5_2
I0206 20:11:13.313297 15043 net.cpp:100] Creating Layer relu5_2
I0206 20:11:13.313302 15043 net.cpp:434] relu5_2 <- conv5_2
I0206 20:11:13.313308 15043 net.cpp:395] relu5_2 -> conv5_2 (in-place)
I0206 20:11:13.313479 15043 net.cpp:150] Setting up relu5_2
I0206 20:11:13.313488 15043 net.cpp:157] Top shape: 2 512 48 48 (2359296)
I0206 20:11:13.313491 15043 net.cpp:165] Memory required for data: 3080616232
I0206 20:11:13.313494 15043 layer_factory.hpp:77] Creating layer conv5_3
I0206 20:11:13.313504 15043 net.cpp:100] Creating Layer conv5_3
I0206 20:11:13.313509 15043 net.cpp:434] conv5_3 <- conv5_2
I0206 20:11:13.313514 15043 net.cpp:408] conv5_3 -> conv5_3
I0206 20:11:13.319532 15043 net.cpp:150] Setting up conv5_3
I0206 20:11:13.319563 15043 net.cpp:157] Top shape: 2 512 48 48 (2359296)
I0206 20:11:13.319567 15043 net.cpp:165] Memory required for data: 3090053416
I0206 20:11:13.319576 15043 layer_factory.hpp:77] Creating layer relu5_3
I0206 20:11:13.319584 15043 net.cpp:100] Creating Layer relu5_3
I0206 20:11:13.319591 15043 net.cpp:434] relu5_3 <- conv5_3
I0206 20:11:13.319595 15043 net.cpp:395] relu5_3 -> conv5_3 (in-place)
I0206 20:11:13.319756 15043 net.cpp:150] Setting up relu5_3
I0206 20:11:13.319766 15043 net.cpp:157] Top shape: 2 512 48 48 (2359296)
I0206 20:11:13.319768 15043 net.cpp:165] Memory required for data: 3099490600
I0206 20:11:13.319772 15043 layer_factory.hpp:77] Creating layer conv5_3_relu5_3_0_split
I0206 20:11:13.319777 15043 net.cpp:100] Creating Layer conv5_3_relu5_3_0_split
I0206 20:11:13.319780 15043 net.cpp:434] conv5_3_relu5_3_0_split <- conv5_3
I0206 20:11:13.319787 15043 net.cpp:408] conv5_3_relu5_3_0_split -> conv5_3_relu5_3_0_split_0
I0206 20:11:13.319793 15043 net.cpp:408] conv5_3_relu5_3_0_split -> conv5_3_relu5_3_0_split_1
I0206 20:11:13.319800 15043 net.cpp:408] conv5_3_relu5_3_0_split -> conv5_3_relu5_3_0_split_2
I0206 20:11:13.319851 15043 net.cpp:150] Setting up conv5_3_relu5_3_0_split
I0206 20:11:13.319857 15043 net.cpp:157] Top shape: 2 512 48 48 (2359296)
I0206 20:11:13.319861 15043 net.cpp:157] Top shape: 2 512 48 48 (2359296)
I0206 20:11:13.319865 15043 net.cpp:157] Top shape: 2 512 48 48 (2359296)
I0206 20:11:13.319869 15043 net.cpp:165] Memory required for data: 3127802152
I0206 20:11:13.319872 15043 layer_factory.hpp:77] Creating layer LFCN_2_5x5
I0206 20:11:13.319883 15043 net.cpp:100] Creating Layer LFCN_2_5x5
I0206 20:11:13.319888 15043 net.cpp:434] LFCN_2_5x5 <- conv5_3_relu5_3_0_split_0
I0206 20:11:13.319895 15043 net.cpp:408] LFCN_2_5x5 -> LFCN_2_5x5
I0206 20:11:13.323865 15043 net.cpp:150] Setting up LFCN_2_5x5
I0206 20:11:13.323876 15043 net.cpp:157] Top shape: 2 9 48 48 (41472)
I0206 20:11:13.323880 15043 net.cpp:165] Memory required for data: 3127968040
I0206 20:11:13.323890 15043 layer_factory.hpp:77] Creating layer LFCN_2_5x5_LFCN_2_5x5_0_split
I0206 20:11:13.323896 15043 net.cpp:100] Creating Layer LFCN_2_5x5_LFCN_2_5x5_0_split
I0206 20:11:13.323899 15043 net.cpp:434] LFCN_2_5x5_LFCN_2_5x5_0_split <- LFCN_2_5x5
I0206 20:11:13.323904 15043 net.cpp:408] LFCN_2_5x5_LFCN_2_5x5_0_split -> LFCN_2_5x5_LFCN_2_5x5_0_split_0
I0206 20:11:13.323909 15043 net.cpp:408] LFCN_2_5x5_LFCN_2_5x5_0_split -> LFCN_2_5x5_LFCN_2_5x5_0_split_1
I0206 20:11:13.323940 15043 net.cpp:150] Setting up LFCN_2_5x5_LFCN_2_5x5_0_split
I0206 20:11:13.323946 15043 net.cpp:157] Top shape: 2 9 48 48 (41472)
I0206 20:11:13.323949 15043 net.cpp:157] Top shape: 2 9 48 48 (41472)
I0206 20:11:13.323952 15043 net.cpp:165] Memory required for data: 3128299816
I0206 20:11:13.323956 15043 layer_factory.hpp:77] Creating layer detection_loss_2_5x5
I0206 20:11:13.323961 15043 net.cpp:100] Creating Layer detection_loss_2_5x5
I0206 20:11:13.323966 15043 net.cpp:434] detection_loss_2_5x5 <- LFCN_2_5x5_LFCN_2_5x5_0_split_0
I0206 20:11:13.323971 15043 net.cpp:434] detection_loss_2_5x5 <- label_2_5x5_data_3_split_0
I0206 20:11:13.323976 15043 net.cpp:408] detection_loss_2_5x5 -> loss_2_5x5
I0206 20:11:13.323983 15043 layer_factory.hpp:77] Creating layer detection_loss_2_5x5
I0206 20:11:13.324303 15043 net.cpp:150] Setting up detection_loss_2_5x5
I0206 20:11:13.324312 15043 net.cpp:157] Top shape: 1 1 1 2 (2)
I0206 20:11:13.324316 15043 net.cpp:160]     with loss weight 1
I0206 20:11:13.324327 15043 net.cpp:165] Memory required for data: 3128299824
I0206 20:11:13.324331 15043 layer_factory.hpp:77] Creating layer detection_accuracy_2_5x5
I0206 20:11:13.324337 15043 net.cpp:100] Creating Layer detection_accuracy_2_5x5
I0206 20:11:13.324342 15043 net.cpp:434] detection_accuracy_2_5x5 <- LFCN_2_5x5_LFCN_2_5x5_0_split_1
I0206 20:11:13.324347 15043 net.cpp:434] detection_accuracy_2_5x5 <- label_2_5x5_data_3_split_1
I0206 20:11:13.324352 15043 net.cpp:408] detection_accuracy_2_5x5 -> accuracy_2_5x5
I0206 20:11:13.324358 15043 net.cpp:408] detection_accuracy_2_5x5 -> boxiou_2_5x5
I0206 20:11:13.324394 15043 net.cpp:150] Setting up detection_accuracy_2_5x5
I0206 20:11:13.324401 15043 net.cpp:157] Top shape: 1 1 1 2 (2)
I0206 20:11:13.324405 15043 net.cpp:157] Top shape: 1 1 1 1 (1)
I0206 20:11:13.324409 15043 net.cpp:165] Memory required for data: 3128299836
I0206 20:11:13.324411 15043 layer_factory.hpp:77] Creating layer LFCN_2_7x7
I0206 20:11:13.324425 15043 net.cpp:100] Creating Layer LFCN_2_7x7
I0206 20:11:13.324430 15043 net.cpp:434] LFCN_2_7x7 <- conv5_3_relu5_3_0_split_1
I0206 20:11:13.324437 15043 net.cpp:408] LFCN_2_7x7 -> LFCN_2_7x7
I0206 20:11:13.332358 15043 net.cpp:150] Setting up LFCN_2_7x7
I0206 20:11:13.332375 15043 net.cpp:157] Top shape: 2 9 48 48 (41472)
I0206 20:11:13.332377 15043 net.cpp:165] Memory required for data: 3128465724
I0206 20:11:13.332383 15043 layer_factory.hpp:77] Creating layer LFCN_2_7x7_LFCN_2_7x7_0_split
I0206 20:11:13.332391 15043 net.cpp:100] Creating Layer LFCN_2_7x7_LFCN_2_7x7_0_split
I0206 20:11:13.332393 15043 net.cpp:434] LFCN_2_7x7_LFCN_2_7x7_0_split <- LFCN_2_7x7
I0206 20:11:13.332397 15043 net.cpp:408] LFCN_2_7x7_LFCN_2_7x7_0_split -> LFCN_2_7x7_LFCN_2_7x7_0_split_0
I0206 20:11:13.332403 15043 net.cpp:408] LFCN_2_7x7_LFCN_2_7x7_0_split -> LFCN_2_7x7_LFCN_2_7x7_0_split_1
I0206 20:11:13.332437 15043 net.cpp:150] Setting up LFCN_2_7x7_LFCN_2_7x7_0_split
I0206 20:11:13.332442 15043 net.cpp:157] Top shape: 2 9 48 48 (41472)
I0206 20:11:13.332445 15043 net.cpp:157] Top shape: 2 9 48 48 (41472)
I0206 20:11:13.332448 15043 net.cpp:165] Memory required for data: 3128797500
I0206 20:11:13.332451 15043 layer_factory.hpp:77] Creating layer detection_loss_2_7x7
I0206 20:11:13.332458 15043 net.cpp:100] Creating Layer detection_loss_2_7x7
I0206 20:11:13.332461 15043 net.cpp:434] detection_loss_2_7x7 <- LFCN_2_7x7_LFCN_2_7x7_0_split_0
I0206 20:11:13.332465 15043 net.cpp:434] detection_loss_2_7x7 <- label_2_7x7_data_4_split_0
I0206 20:11:13.332470 15043 net.cpp:408] detection_loss_2_7x7 -> loss_2_7x7
I0206 20:11:13.332479 15043 layer_factory.hpp:77] Creating layer detection_loss_2_7x7
I0206 20:11:13.332830 15043 net.cpp:150] Setting up detection_loss_2_7x7
I0206 20:11:13.332840 15043 net.cpp:157] Top shape: 1 1 1 2 (2)
I0206 20:11:13.332844 15043 net.cpp:160]     with loss weight 1
I0206 20:11:13.332850 15043 net.cpp:165] Memory required for data: 3128797508
I0206 20:11:13.332854 15043 layer_factory.hpp:77] Creating layer detection_accuracy_2_7x7
I0206 20:11:13.332859 15043 net.cpp:100] Creating Layer detection_accuracy_2_7x7
I0206 20:11:13.332864 15043 net.cpp:434] detection_accuracy_2_7x7 <- LFCN_2_7x7_LFCN_2_7x7_0_split_1
I0206 20:11:13.332868 15043 net.cpp:434] detection_accuracy_2_7x7 <- label_2_7x7_data_4_split_1
I0206 20:11:13.332873 15043 net.cpp:408] detection_accuracy_2_7x7 -> accuracy_2_7x7
I0206 20:11:13.332880 15043 net.cpp:408] detection_accuracy_2_7x7 -> boxiou_2_7x7
I0206 20:11:13.332926 15043 net.cpp:150] Setting up detection_accuracy_2_7x7
I0206 20:11:13.332932 15043 net.cpp:157] Top shape: 1 1 1 2 (2)
I0206 20:11:13.332937 15043 net.cpp:157] Top shape: 1 1 1 1 (1)
I0206 20:11:13.332939 15043 net.cpp:165] Memory required for data: 3128797520
I0206 20:11:13.332943 15043 layer_factory.hpp:77] Creating layer pool5
I0206 20:11:13.332950 15043 net.cpp:100] Creating Layer pool5
I0206 20:11:13.332954 15043 net.cpp:434] pool5 <- conv5_3_relu5_3_0_split_2
I0206 20:11:13.332962 15043 net.cpp:408] pool5 -> pool5
I0206 20:11:13.332998 15043 net.cpp:150] Setting up pool5
I0206 20:11:13.333003 15043 net.cpp:157] Top shape: 2 512 24 24 (589824)
I0206 20:11:13.333007 15043 net.cpp:165] Memory required for data: 3131156816
I0206 20:11:13.333010 15043 layer_factory.hpp:77] Creating layer conv6_1
I0206 20:11:13.333020 15043 net.cpp:100] Creating Layer conv6_1
I0206 20:11:13.333025 15043 net.cpp:434] conv6_1 <- pool5
I0206 20:11:13.333034 15043 net.cpp:408] conv6_1 -> conv6_1
I0206 20:11:13.398360 15043 net.cpp:150] Setting up conv6_1
I0206 20:11:13.398386 15043 net.cpp:157] Top shape: 2 512 24 24 (589824)
I0206 20:11:13.398389 15043 net.cpp:165] Memory required for data: 3133516112
I0206 20:11:13.398398 15043 layer_factory.hpp:77] Creating layer relu6_1
I0206 20:11:13.398409 15043 net.cpp:100] Creating Layer relu6_1
I0206 20:11:13.398416 15043 net.cpp:434] relu6_1 <- conv6_1
I0206 20:11:13.398422 15043 net.cpp:395] relu6_1 -> conv6_1 (in-place)
I0206 20:11:13.398933 15043 net.cpp:150] Setting up relu6_1
I0206 20:11:13.398946 15043 net.cpp:157] Top shape: 2 512 24 24 (589824)
I0206 20:11:13.398948 15043 net.cpp:165] Memory required for data: 3135875408
I0206 20:11:13.398952 15043 layer_factory.hpp:77] Creating layer conv6_1_relu6_1_0_split
I0206 20:11:13.398958 15043 net.cpp:100] Creating Layer conv6_1_relu6_1_0_split
I0206 20:11:13.398962 15043 net.cpp:434] conv6_1_relu6_1_0_split <- conv6_1
I0206 20:11:13.398968 15043 net.cpp:408] conv6_1_relu6_1_0_split -> conv6_1_relu6_1_0_split_0
I0206 20:11:13.398977 15043 net.cpp:408] conv6_1_relu6_1_0_split -> conv6_1_relu6_1_0_split_1
I0206 20:11:13.398982 15043 net.cpp:408] conv6_1_relu6_1_0_split -> conv6_1_relu6_1_0_split_2
I0206 20:11:13.399035 15043 net.cpp:150] Setting up conv6_1_relu6_1_0_split
I0206 20:11:13.399042 15043 net.cpp:157] Top shape: 2 512 24 24 (589824)
I0206 20:11:13.399046 15043 net.cpp:157] Top shape: 2 512 24 24 (589824)
I0206 20:11:13.399050 15043 net.cpp:157] Top shape: 2 512 24 24 (589824)
I0206 20:11:13.399054 15043 net.cpp:165] Memory required for data: 3142953296
I0206 20:11:13.399056 15043 layer_factory.hpp:77] Creating layer LFCN_3_5x5
I0206 20:11:13.399067 15043 net.cpp:100] Creating Layer LFCN_3_5x5
I0206 20:11:13.399071 15043 net.cpp:434] LFCN_3_5x5 <- conv6_1_relu6_1_0_split_0
I0206 20:11:13.399077 15043 net.cpp:408] LFCN_3_5x5 -> LFCN_3_5x5
I0206 20:11:13.404665 15043 net.cpp:150] Setting up LFCN_3_5x5
I0206 20:11:13.404690 15043 net.cpp:157] Top shape: 2 9 24 24 (10368)
I0206 20:11:13.404695 15043 net.cpp:165] Memory required for data: 3142994768
I0206 20:11:13.404705 15043 layer_factory.hpp:77] Creating layer LFCN_3_5x5_LFCN_3_5x5_0_split
I0206 20:11:13.404713 15043 net.cpp:100] Creating Layer LFCN_3_5x5_LFCN_3_5x5_0_split
I0206 20:11:13.404721 15043 net.cpp:434] LFCN_3_5x5_LFCN_3_5x5_0_split <- LFCN_3_5x5
I0206 20:11:13.404728 15043 net.cpp:408] LFCN_3_5x5_LFCN_3_5x5_0_split -> LFCN_3_5x5_LFCN_3_5x5_0_split_0
I0206 20:11:13.404737 15043 net.cpp:408] LFCN_3_5x5_LFCN_3_5x5_0_split -> LFCN_3_5x5_LFCN_3_5x5_0_split_1
I0206 20:11:13.404789 15043 net.cpp:150] Setting up LFCN_3_5x5_LFCN_3_5x5_0_split
I0206 20:11:13.404798 15043 net.cpp:157] Top shape: 2 9 24 24 (10368)
I0206 20:11:13.404803 15043 net.cpp:157] Top shape: 2 9 24 24 (10368)
I0206 20:11:13.404806 15043 net.cpp:165] Memory required for data: 3143077712
I0206 20:11:13.404810 15043 layer_factory.hpp:77] Creating layer detection_loss_3_5x5
I0206 20:11:13.404820 15043 net.cpp:100] Creating Layer detection_loss_3_5x5
I0206 20:11:13.404826 15043 net.cpp:434] detection_loss_3_5x5 <- LFCN_3_5x5_LFCN_3_5x5_0_split_0
I0206 20:11:13.404832 15043 net.cpp:434] detection_loss_3_5x5 <- label_3_5x5_data_5_split_0
I0206 20:11:13.404840 15043 net.cpp:408] detection_loss_3_5x5 -> loss_3_5x5
I0206 20:11:13.404851 15043 layer_factory.hpp:77] Creating layer detection_loss_3_5x5
I0206 20:11:13.405220 15043 net.cpp:150] Setting up detection_loss_3_5x5
I0206 20:11:13.405230 15043 net.cpp:157] Top shape: 1 1 1 2 (2)
I0206 20:11:13.405233 15043 net.cpp:160]     with loss weight 1
I0206 20:11:13.405242 15043 net.cpp:165] Memory required for data: 3143077720
I0206 20:11:13.405246 15043 layer_factory.hpp:77] Creating layer detection_accuracy_3_5x5
I0206 20:11:13.405252 15043 net.cpp:100] Creating Layer detection_accuracy_3_5x5
I0206 20:11:13.405256 15043 net.cpp:434] detection_accuracy_3_5x5 <- LFCN_3_5x5_LFCN_3_5x5_0_split_1
I0206 20:11:13.405261 15043 net.cpp:434] detection_accuracy_3_5x5 <- label_3_5x5_data_5_split_1
I0206 20:11:13.405267 15043 net.cpp:408] detection_accuracy_3_5x5 -> accuracy_3_5x5
I0206 20:11:13.405273 15043 net.cpp:408] detection_accuracy_3_5x5 -> boxiou_3_5x5
I0206 20:11:13.405313 15043 net.cpp:150] Setting up detection_accuracy_3_5x5
I0206 20:11:13.405320 15043 net.cpp:157] Top shape: 1 1 1 2 (2)
I0206 20:11:13.405324 15043 net.cpp:157] Top shape: 1 1 1 1 (1)
I0206 20:11:13.405328 15043 net.cpp:165] Memory required for data: 3143077732
I0206 20:11:13.405330 15043 layer_factory.hpp:77] Creating layer LFCN_3_7x7
I0206 20:11:13.405339 15043 net.cpp:100] Creating Layer LFCN_3_7x7
I0206 20:11:13.405345 15043 net.cpp:434] LFCN_3_7x7 <- conv6_1_relu6_1_0_split_1
I0206 20:11:13.405352 15043 net.cpp:408] LFCN_3_7x7 -> LFCN_3_7x7
I0206 20:11:13.413233 15043 net.cpp:150] Setting up LFCN_3_7x7
I0206 20:11:13.413262 15043 net.cpp:157] Top shape: 2 9 24 24 (10368)
I0206 20:11:13.413266 15043 net.cpp:165] Memory required for data: 3143119204
I0206 20:11:13.413276 15043 layer_factory.hpp:77] Creating layer LFCN_3_7x7_LFCN_3_7x7_0_split
I0206 20:11:13.413288 15043 net.cpp:100] Creating Layer LFCN_3_7x7_LFCN_3_7x7_0_split
I0206 20:11:13.413295 15043 net.cpp:434] LFCN_3_7x7_LFCN_3_7x7_0_split <- LFCN_3_7x7
I0206 20:11:13.413300 15043 net.cpp:408] LFCN_3_7x7_LFCN_3_7x7_0_split -> LFCN_3_7x7_LFCN_3_7x7_0_split_0
I0206 20:11:13.413308 15043 net.cpp:408] LFCN_3_7x7_LFCN_3_7x7_0_split -> LFCN_3_7x7_LFCN_3_7x7_0_split_1
I0206 20:11:13.413350 15043 net.cpp:150] Setting up LFCN_3_7x7_LFCN_3_7x7_0_split
I0206 20:11:13.413357 15043 net.cpp:157] Top shape: 2 9 24 24 (10368)
I0206 20:11:13.413362 15043 net.cpp:157] Top shape: 2 9 24 24 (10368)
I0206 20:11:13.413364 15043 net.cpp:165] Memory required for data: 3143202148
I0206 20:11:13.413367 15043 layer_factory.hpp:77] Creating layer detection_loss_3_7x7
I0206 20:11:13.413378 15043 net.cpp:100] Creating Layer detection_loss_3_7x7
I0206 20:11:13.413383 15043 net.cpp:434] detection_loss_3_7x7 <- LFCN_3_7x7_LFCN_3_7x7_0_split_0
I0206 20:11:13.413389 15043 net.cpp:434] detection_loss_3_7x7 <- label_3_7x7_data_6_split_0
I0206 20:11:13.413398 15043 net.cpp:408] detection_loss_3_7x7 -> loss_3_7x7
I0206 20:11:13.413410 15043 layer_factory.hpp:77] Creating layer detection_loss_3_7x7
I0206 20:11:13.413915 15043 net.cpp:150] Setting up detection_loss_3_7x7
I0206 20:11:13.413931 15043 net.cpp:157] Top shape: 1 1 1 2 (2)
I0206 20:11:13.413936 15043 net.cpp:160]     with loss weight 1
I0206 20:11:13.413951 15043 net.cpp:165] Memory required for data: 3143202156
I0206 20:11:13.413956 15043 layer_factory.hpp:77] Creating layer detection_accuracy_3_7x7
I0206 20:11:13.413966 15043 net.cpp:100] Creating Layer detection_accuracy_3_7x7
I0206 20:11:13.413972 15043 net.cpp:434] detection_accuracy_3_7x7 <- LFCN_3_7x7_LFCN_3_7x7_0_split_1
I0206 20:11:13.413977 15043 net.cpp:434] detection_accuracy_3_7x7 <- label_3_7x7_data_6_split_1
I0206 20:11:13.413985 15043 net.cpp:408] detection_accuracy_3_7x7 -> accuracy_3_7x7
I0206 20:11:13.413992 15043 net.cpp:408] detection_accuracy_3_7x7 -> boxiou_3_7x7
I0206 20:11:13.414047 15043 net.cpp:150] Setting up detection_accuracy_3_7x7
I0206 20:11:13.414053 15043 net.cpp:157] Top shape: 1 1 1 2 (2)
I0206 20:11:13.414058 15043 net.cpp:157] Top shape: 1 1 1 1 (1)
I0206 20:11:13.414063 15043 net.cpp:165] Memory required for data: 3143202168
I0206 20:11:13.414067 15043 layer_factory.hpp:77] Creating layer pool6
I0206 20:11:13.414078 15043 net.cpp:100] Creating Layer pool6
I0206 20:11:13.414084 15043 net.cpp:434] pool6 <- conv6_1_relu6_1_0_split_2
I0206 20:11:13.414091 15043 net.cpp:408] pool6 -> pool6
I0206 20:11:13.414139 15043 net.cpp:150] Setting up pool6
I0206 20:11:13.414147 15043 net.cpp:157] Top shape: 2 512 12 12 (147456)
I0206 20:11:13.414151 15043 net.cpp:165] Memory required for data: 3143791992
I0206 20:11:13.414156 15043 layer_factory.hpp:77] Creating layer LFCN_4_5x5
I0206 20:11:13.414170 15043 net.cpp:100] Creating Layer LFCN_4_5x5
I0206 20:11:13.414176 15043 net.cpp:434] LFCN_4_5x5 <- pool6
I0206 20:11:13.414185 15043 net.cpp:408] LFCN_4_5x5 -> LFCN_4_5x5
I0206 20:11:13.419950 15043 net.cpp:150] Setting up LFCN_4_5x5
I0206 20:11:13.419986 15043 net.cpp:157] Top shape: 2 9 12 12 (2592)
I0206 20:11:13.419991 15043 net.cpp:165] Memory required for data: 3143802360
I0206 20:11:13.420003 15043 layer_factory.hpp:77] Creating layer LFCN_4_5x5_LFCN_4_5x5_0_split
I0206 20:11:13.420017 15043 net.cpp:100] Creating Layer LFCN_4_5x5_LFCN_4_5x5_0_split
I0206 20:11:13.420025 15043 net.cpp:434] LFCN_4_5x5_LFCN_4_5x5_0_split <- LFCN_4_5x5
I0206 20:11:13.420035 15043 net.cpp:408] LFCN_4_5x5_LFCN_4_5x5_0_split -> LFCN_4_5x5_LFCN_4_5x5_0_split_0
I0206 20:11:13.420047 15043 net.cpp:408] LFCN_4_5x5_LFCN_4_5x5_0_split -> LFCN_4_5x5_LFCN_4_5x5_0_split_1
I0206 20:11:13.420099 15043 net.cpp:150] Setting up LFCN_4_5x5_LFCN_4_5x5_0_split
I0206 20:11:13.420107 15043 net.cpp:157] Top shape: 2 9 12 12 (2592)
I0206 20:11:13.420112 15043 net.cpp:157] Top shape: 2 9 12 12 (2592)
I0206 20:11:13.420116 15043 net.cpp:165] Memory required for data: 3143823096
I0206 20:11:13.420120 15043 layer_factory.hpp:77] Creating layer detection_loss_4_5x5
I0206 20:11:13.420130 15043 net.cpp:100] Creating Layer detection_loss_4_5x5
I0206 20:11:13.420135 15043 net.cpp:434] detection_loss_4_5x5 <- LFCN_4_5x5_LFCN_4_5x5_0_split_0
I0206 20:11:13.420141 15043 net.cpp:434] detection_loss_4_5x5 <- label_4_5x5_data_7_split_0
I0206 20:11:13.420150 15043 net.cpp:408] detection_loss_4_5x5 -> loss_4_5x5
I0206 20:11:13.420161 15043 layer_factory.hpp:77] Creating layer detection_loss_4_5x5
I0206 20:11:13.420584 15043 net.cpp:150] Setting up detection_loss_4_5x5
I0206 20:11:13.420596 15043 net.cpp:157] Top shape: 1 1 1 2 (2)
I0206 20:11:13.420600 15043 net.cpp:160]     with loss weight 1
I0206 20:11:13.420616 15043 net.cpp:165] Memory required for data: 3143823104
I0206 20:11:13.420620 15043 layer_factory.hpp:77] Creating layer detection_accuracy_4_5x5
I0206 20:11:13.420629 15043 net.cpp:100] Creating Layer detection_accuracy_4_5x5
I0206 20:11:13.420635 15043 net.cpp:434] detection_accuracy_4_5x5 <- LFCN_4_5x5_LFCN_4_5x5_0_split_1
I0206 20:11:13.420640 15043 net.cpp:434] detection_accuracy_4_5x5 <- label_4_5x5_data_7_split_1
I0206 20:11:13.420648 15043 net.cpp:408] detection_accuracy_4_5x5 -> accuracy_4_5x5
I0206 20:11:13.420657 15043 net.cpp:408] detection_accuracy_4_5x5 -> boxiou_4_5x5
I0206 20:11:13.420708 15043 net.cpp:150] Setting up detection_accuracy_4_5x5
I0206 20:11:13.420716 15043 net.cpp:157] Top shape: 1 1 1 2 (2)
I0206 20:11:13.420720 15043 net.cpp:157] Top shape: 1 1 1 1 (1)
I0206 20:11:13.420725 15043 net.cpp:165] Memory required for data: 3143823116
I0206 20:11:13.420729 15043 net.cpp:228] detection_accuracy_4_5x5 does not need backward computation.
I0206 20:11:13.420733 15043 net.cpp:226] detection_loss_4_5x5 needs backward computation.
I0206 20:11:13.420738 15043 net.cpp:226] LFCN_4_5x5_LFCN_4_5x5_0_split needs backward computation.
I0206 20:11:13.420742 15043 net.cpp:226] LFCN_4_5x5 needs backward computation.
…
